ir_version: 3
graph {
  node {
    input: "data"
    output: "id"
    name: "id"
    op_type: "Identity"
  }
  node {
    input: "id"
    input: "scalar_op2"
    output: "_minusscalar0"
    name: "_minusscalar0"
    op_type: "Sub"
  }
  node {
    input: "_minusscalar0"
    input: "scalar_op3"
    output: "_mulscalar0"
    name: "_mulscalar0"
    op_type: "Mul"
  }
  node {
    input: "_mulscalar0"
    input: "conv0_weight"
    output: "conv0"
    name: "conv0"
    op_type: "Conv"
    attribute {
      name: "dilations"
      ints: 1
      ints: 1
      type: INTS
    }
    attribute {
      name: "group"
      i: 1
      type: INT
    }
    attribute {
      name: "kernel_shape"
      ints: 3
      ints: 3
      type: INTS
    }
    attribute {
      name: "pads"
      ints: 1
      ints: 1
      ints: 1
      ints: 1
      type: INTS
    }
    attribute {
      name: "strides"
      ints: 1
      ints: 1
      type: INTS
    }
  }
  node {
    input: "conv0"
    input: "bn0_gamma"
    input: "bn0_beta"
    input: "bn0_moving_mean"
    input: "bn0_moving_var"
    output: "bn0"
    name: "bn0"
    op_type: "BatchNormalization"
    attribute {
      name: "epsilon"
      f: 2e-05
      type: FLOAT
    }
    attribute {
      name: "momentum"
      f: 0.9
      type: FLOAT
    }
    attribute {
      name: "spatial"
      i: 1
      type: INT
    }
  }
  node {
    input: "relu0_gamma"
    input: "reshape12"
    output: "slope12"
    name: "slope12"
    op_type: "Reshape"
  }
  node {
    input: "bn0"
    input: "slope12"
    output: "relu0"
    name: "relu0"
    op_type: "PRelu"
  }
  node {
    input: "relu0"
    input: "stage1_unit1_bn1_gamma"
    input: "stage1_unit1_bn1_beta"
    input: "stage1_unit1_bn1_moving_mean"
    input: "stage1_unit1_bn1_moving_var"
    output: "stage1_unit1_bn1"
    name: "stage1_unit1_bn1"
    op_type: "BatchNormalization"
    attribute {
      name: "epsilon"
      f: 2e-05
      type: FLOAT
    }
    attribute {
      name: "momentum"
      f: 0.9
      type: FLOAT
    }
    attribute {
      name: "spatial"
      i: 1
      type: INT
    }
  }
  node {
    input: "stage1_unit1_bn1"
    input: "stage1_unit1_conv1_weight"
    output: "stage1_unit1_conv1"
    name: "stage1_unit1_conv1"
    op_type: "Conv"
    attribute {
      name: "dilations"
      ints: 1
      ints: 1
      type: INTS
    }
    attribute {
      name: "group"
      i: 1
      type: INT
    }
    attribute {
      name: "kernel_shape"
      ints: 3
      ints: 3
      type: INTS
    }
    attribute {
      name: "pads"
      ints: 1
      ints: 1
      ints: 1
      ints: 1
      type: INTS
    }
    attribute {
      name: "strides"
      ints: 1
      ints: 1
      type: INTS
    }
  }
  node {
    input: "stage1_unit1_conv1"
    input: "stage1_unit1_bn2_gamma"
    input: "stage1_unit1_bn2_beta"
    input: "stage1_unit1_bn2_moving_mean"
    input: "stage1_unit1_bn2_moving_var"
    output: "stage1_unit1_bn2"
    name: "stage1_unit1_bn2"
    op_type: "BatchNormalization"
    attribute {
      name: "epsilon"
      f: 2e-05
      type: FLOAT
    }
    attribute {
      name: "momentum"
      f: 0.9
      type: FLOAT
    }
    attribute {
      name: "spatial"
      i: 1
      type: INT
    }
  }
  node {
    input: "stage1_unit1_relu1_gamma"
    input: "reshape26"
    output: "slope26"
    name: "slope26"
    op_type: "Reshape"
  }
  node {
    input: "stage1_unit1_bn2"
    input: "slope26"
    output: "stage1_unit1_relu1"
    name: "stage1_unit1_relu1"
    op_type: "PRelu"
  }
  node {
    input: "stage1_unit1_relu1"
    input: "stage1_unit1_conv2_weight"
    output: "stage1_unit1_conv2"
    name: "stage1_unit1_conv2"
    op_type: "Conv"
    attribute {
      name: "dilations"
      ints: 1
      ints: 1
      type: INTS
    }
    attribute {
      name: "group"
      i: 1
      type: INT
    }
    attribute {
      name: "kernel_shape"
      ints: 3
      ints: 3
      type: INTS
    }
    attribute {
      name: "pads"
      ints: 1
      ints: 1
      ints: 1
      ints: 1
      type: INTS
    }
    attribute {
      name: "strides"
      ints: 2
      ints: 2
      type: INTS
    }
  }
  node {
    input: "stage1_unit1_conv2"
    input: "stage1_unit1_bn3_gamma"
    input: "stage1_unit1_bn3_beta"
    input: "stage1_unit1_bn3_moving_mean"
    input: "stage1_unit1_bn3_moving_var"
    output: "stage1_unit1_bn3"
    name: "stage1_unit1_bn3"
    op_type: "BatchNormalization"
    attribute {
      name: "epsilon"
      f: 2e-05
      type: FLOAT
    }
    attribute {
      name: "momentum"
      f: 0.9
      type: FLOAT
    }
    attribute {
      name: "spatial"
      i: 1
      type: INT
    }
  }
  node {
    input: "relu0"
    input: "stage1_unit1_conv1sc_weight"
    output: "stage1_unit1_conv1sc"
    name: "stage1_unit1_conv1sc"
    op_type: "Conv"
    attribute {
      name: "dilations"
      ints: 1
      ints: 1
      type: INTS
    }
    attribute {
      name: "group"
      i: 1
      type: INT
    }
    attribute {
      name: "kernel_shape"
      ints: 1
      ints: 1
      type: INTS
    }
    attribute {
      name: "pads"
      ints: 0
      ints: 0
      ints: 0
      ints: 0
      type: INTS
    }
    attribute {
      name: "strides"
      ints: 2
      ints: 2
      type: INTS
    }
  }
  node {
    input: "stage1_unit1_conv1sc"
    input: "stage1_unit1_sc_gamma"
    input: "stage1_unit1_sc_beta"
    input: "stage1_unit1_sc_moving_mean"
    input: "stage1_unit1_sc_moving_var"
    output: "stage1_unit1_sc"
    name: "stage1_unit1_sc"
    op_type: "BatchNormalization"
    attribute {
      name: "epsilon"
      f: 2e-05
      type: FLOAT
    }
    attribute {
      name: "momentum"
      f: 0.9
      type: FLOAT
    }
    attribute {
      name: "spatial"
      i: 1
      type: INT
    }
  }
  node {
    input: "stage1_unit1_bn3"
    input: "stage1_unit1_sc"
    output: "_plus0"
    name: "_plus0"
    op_type: "Add"
  }
  node {
    input: "_plus0"
    input: "stage1_unit2_bn1_gamma"
    input: "stage1_unit2_bn1_beta"
    input: "stage1_unit2_bn1_moving_mean"
    input: "stage1_unit2_bn1_moving_var"
    output: "stage1_unit2_bn1"
    name: "stage1_unit2_bn1"
    op_type: "BatchNormalization"
    attribute {
      name: "epsilon"
      f: 2e-05
      type: FLOAT
    }
    attribute {
      name: "momentum"
      f: 0.9
      type: FLOAT
    }
    attribute {
      name: "spatial"
      i: 1
      type: INT
    }
  }
  node {
    input: "stage1_unit2_bn1"
    input: "stage1_unit2_conv1_weight"
    output: "stage1_unit2_conv1"
    name: "stage1_unit2_conv1"
    op_type: "Conv"
    attribute {
      name: "dilations"
      ints: 1
      ints: 1
      type: INTS
    }
    attribute {
      name: "group"
      i: 1
      type: INT
    }
    attribute {
      name: "kernel_shape"
      ints: 3
      ints: 3
      type: INTS
    }
    attribute {
      name: "pads"
      ints: 1
      ints: 1
      ints: 1
      ints: 1
      type: INTS
    }
    attribute {
      name: "strides"
      ints: 1
      ints: 1
      type: INTS
    }
  }
  node {
    input: "stage1_unit2_conv1"
    input: "stage1_unit2_bn2_gamma"
    input: "stage1_unit2_bn2_beta"
    input: "stage1_unit2_bn2_moving_mean"
    input: "stage1_unit2_bn2_moving_var"
    output: "stage1_unit2_bn2"
    name: "stage1_unit2_bn2"
    op_type: "BatchNormalization"
    attribute {
      name: "epsilon"
      f: 2e-05
      type: FLOAT
    }
    attribute {
      name: "momentum"
      f: 0.9
      type: FLOAT
    }
    attribute {
      name: "spatial"
      i: 1
      type: INT
    }
  }
  node {
    input: "stage1_unit2_relu1_gamma"
    input: "reshape55"
    output: "slope55"
    name: "slope55"
    op_type: "Reshape"
  }
  node {
    input: "stage1_unit2_bn2"
    input: "slope55"
    output: "stage1_unit2_relu1"
    name: "stage1_unit2_relu1"
    op_type: "PRelu"
  }
  node {
    input: "stage1_unit2_relu1"
    input: "stage1_unit2_conv2_weight"
    output: "stage1_unit2_conv2"
    name: "stage1_unit2_conv2"
    op_type: "Conv"
    attribute {
      name: "dilations"
      ints: 1
      ints: 1
      type: INTS
    }
    attribute {
      name: "group"
      i: 1
      type: INT
    }
    attribute {
      name: "kernel_shape"
      ints: 3
      ints: 3
      type: INTS
    }
    attribute {
      name: "pads"
      ints: 1
      ints: 1
      ints: 1
      ints: 1
      type: INTS
    }
    attribute {
      name: "strides"
      ints: 1
      ints: 1
      type: INTS
    }
  }
  node {
    input: "stage1_unit2_conv2"
    input: "stage1_unit2_bn3_gamma"
    input: "stage1_unit2_bn3_beta"
    input: "stage1_unit2_bn3_moving_mean"
    input: "stage1_unit2_bn3_moving_var"
    output: "stage1_unit2_bn3"
    name: "stage1_unit2_bn3"
    op_type: "BatchNormalization"
    attribute {
      name: "epsilon"
      f: 2e-05
      type: FLOAT
    }
    attribute {
      name: "momentum"
      f: 0.9
      type: FLOAT
    }
    attribute {
      name: "spatial"
      i: 1
      type: INT
    }
  }
  node {
    input: "stage1_unit2_bn3"
    input: "_plus0"
    output: "_plus1"
    name: "_plus1"
    op_type: "Add"
  }
  node {
    input: "_plus1"
    input: "stage1_unit3_bn1_gamma"
    input: "stage1_unit3_bn1_beta"
    input: "stage1_unit3_bn1_moving_mean"
    input: "stage1_unit3_bn1_moving_var"
    output: "stage1_unit3_bn1"
    name: "stage1_unit3_bn1"
    op_type: "BatchNormalization"
    attribute {
      name: "epsilon"
      f: 2e-05
      type: FLOAT
    }
    attribute {
      name: "momentum"
      f: 0.9
      type: FLOAT
    }
    attribute {
      name: "spatial"
      i: 1
      type: INT
    }
  }
  node {
    input: "stage1_unit3_bn1"
    input: "stage1_unit3_conv1_weight"
    output: "stage1_unit3_conv1"
    name: "stage1_unit3_conv1"
    op_type: "Conv"
    attribute {
      name: "dilations"
      ints: 1
      ints: 1
      type: INTS
    }
    attribute {
      name: "group"
      i: 1
      type: INT
    }
    attribute {
      name: "kernel_shape"
      ints: 3
      ints: 3
      type: INTS
    }
    attribute {
      name: "pads"
      ints: 1
      ints: 1
      ints: 1
      ints: 1
      type: INTS
    }
    attribute {
      name: "strides"
      ints: 1
      ints: 1
      type: INTS
    }
  }
  node {
    input: "stage1_unit3_conv1"
    input: "stage1_unit3_bn2_gamma"
    input: "stage1_unit3_bn2_beta"
    input: "stage1_unit3_bn2_moving_mean"
    input: "stage1_unit3_bn2_moving_var"
    output: "stage1_unit3_bn2"
    name: "stage1_unit3_bn2"
    op_type: "BatchNormalization"
    attribute {
      name: "epsilon"
      f: 2e-05
      type: FLOAT
    }
    attribute {
      name: "momentum"
      f: 0.9
      type: FLOAT
    }
    attribute {
      name: "spatial"
      i: 1
      type: INT
    }
  }
  node {
    input: "stage1_unit3_relu1_gamma"
    input: "reshape77"
    output: "slope77"
    name: "slope77"
    op_type: "Reshape"
  }
  node {
    input: "stage1_unit3_bn2"
    input: "slope77"
    output: "stage1_unit3_relu1"
    name: "stage1_unit3_relu1"
    op_type: "PRelu"
  }
  node {
    input: "stage1_unit3_relu1"
    input: "stage1_unit3_conv2_weight"
    output: "stage1_unit3_conv2"
    name: "stage1_unit3_conv2"
    op_type: "Conv"
    attribute {
      name: "dilations"
      ints: 1
      ints: 1
      type: INTS
    }
    attribute {
      name: "group"
      i: 1
      type: INT
    }
    attribute {
      name: "kernel_shape"
      ints: 3
      ints: 3
      type: INTS
    }
    attribute {
      name: "pads"
      ints: 1
      ints: 1
      ints: 1
      ints: 1
      type: INTS
    }
    attribute {
      name: "strides"
      ints: 1
      ints: 1
      type: INTS
    }
  }
  node {
    input: "stage1_unit3_conv2"
    input: "stage1_unit3_bn3_gamma"
    input: "stage1_unit3_bn3_beta"
    input: "stage1_unit3_bn3_moving_mean"
    input: "stage1_unit3_bn3_moving_var"
    output: "stage1_unit3_bn3"
    name: "stage1_unit3_bn3"
    op_type: "BatchNormalization"
    attribute {
      name: "epsilon"
      f: 2e-05
      type: FLOAT
    }
    attribute {
      name: "momentum"
      f: 0.9
      type: FLOAT
    }
    attribute {
      name: "spatial"
      i: 1
      type: INT
    }
  }
  node {
    input: "stage1_unit3_bn3"
    input: "_plus1"
    output: "_plus2"
    name: "_plus2"
    op_type: "Add"
  }
  node {
    input: "_plus2"
    input: "stage2_unit1_bn1_gamma"
    input: "stage2_unit1_bn1_beta"
    input: "stage2_unit1_bn1_moving_mean"
    input: "stage2_unit1_bn1_moving_var"
    output: "stage2_unit1_bn1"
    name: "stage2_unit1_bn1"
    op_type: "BatchNormalization"
    attribute {
      name: "epsilon"
      f: 2e-05
      type: FLOAT
    }
    attribute {
      name: "momentum"
      f: 0.9
      type: FLOAT
    }
    attribute {
      name: "spatial"
      i: 1
      type: INT
    }
  }
  node {
    input: "stage2_unit1_bn1"
    input: "stage2_unit1_conv1_weight"
    output: "stage2_unit1_conv1"
    name: "stage2_unit1_conv1"
    op_type: "Conv"
    attribute {
      name: "dilations"
      ints: 1
      ints: 1
      type: INTS
    }
    attribute {
      name: "group"
      i: 1
      type: INT
    }
    attribute {
      name: "kernel_shape"
      ints: 3
      ints: 3
      type: INTS
    }
    attribute {
      name: "pads"
      ints: 1
      ints: 1
      ints: 1
      ints: 1
      type: INTS
    }
    attribute {
      name: "strides"
      ints: 1
      ints: 1
      type: INTS
    }
  }
  node {
    input: "stage2_unit1_conv1"
    input: "stage2_unit1_bn2_gamma"
    input: "stage2_unit1_bn2_beta"
    input: "stage2_unit1_bn2_moving_mean"
    input: "stage2_unit1_bn2_moving_var"
    output: "stage2_unit1_bn2"
    name: "stage2_unit1_bn2"
    op_type: "BatchNormalization"
    attribute {
      name: "epsilon"
      f: 2e-05
      type: FLOAT
    }
    attribute {
      name: "momentum"
      f: 0.9
      type: FLOAT
    }
    attribute {
      name: "spatial"
      i: 1
      type: INT
    }
  }
  node {
    input: "stage2_unit1_relu1_gamma"
    input: "reshape99"
    output: "slope99"
    name: "slope99"
    op_type: "Reshape"
  }
  node {
    input: "stage2_unit1_bn2"
    input: "slope99"
    output: "stage2_unit1_relu1"
    name: "stage2_unit1_relu1"
    op_type: "PRelu"
  }
  node {
    input: "stage2_unit1_relu1"
    input: "stage2_unit1_conv2_weight"
    output: "stage2_unit1_conv2"
    name: "stage2_unit1_conv2"
    op_type: "Conv"
    attribute {
      name: "dilations"
      ints: 1
      ints: 1
      type: INTS
    }
    attribute {
      name: "group"
      i: 1
      type: INT
    }
    attribute {
      name: "kernel_shape"
      ints: 3
      ints: 3
      type: INTS
    }
    attribute {
      name: "pads"
      ints: 1
      ints: 1
      ints: 1
      ints: 1
      type: INTS
    }
    attribute {
      name: "strides"
      ints: 2
      ints: 2
      type: INTS
    }
  }
  node {
    input: "stage2_unit1_conv2"
    input: "stage2_unit1_bn3_gamma"
    input: "stage2_unit1_bn3_beta"
    input: "stage2_unit1_bn3_moving_mean"
    input: "stage2_unit1_bn3_moving_var"
    output: "stage2_unit1_bn3"
    name: "stage2_unit1_bn3"
    op_type: "BatchNormalization"
    attribute {
      name: "epsilon"
      f: 2e-05
      type: FLOAT
    }
    attribute {
      name: "momentum"
      f: 0.9
      type: FLOAT
    }
    attribute {
      name: "spatial"
      i: 1
      type: INT
    }
  }
  node {
    input: "_plus2"
    input: "stage2_unit1_conv1sc_weight"
    output: "stage2_unit1_conv1sc"
    name: "stage2_unit1_conv1sc"
    op_type: "Conv"
    attribute {
      name: "dilations"
      ints: 1
      ints: 1
      type: INTS
    }
    attribute {
      name: "group"
      i: 1
      type: INT
    }
    attribute {
      name: "kernel_shape"
      ints: 1
      ints: 1
      type: INTS
    }
    attribute {
      name: "pads"
      ints: 0
      ints: 0
      ints: 0
      ints: 0
      type: INTS
    }
    attribute {
      name: "strides"
      ints: 2
      ints: 2
      type: INTS
    }
  }
  node {
    input: "stage2_unit1_conv1sc"
    input: "stage2_unit1_sc_gamma"
    input: "stage2_unit1_sc_beta"
    input: "stage2_unit1_sc_moving_mean"
    input: "stage2_unit1_sc_moving_var"
    output: "stage2_unit1_sc"
    name: "stage2_unit1_sc"
    op_type: "BatchNormalization"
    attribute {
      name: "epsilon"
      f: 2e-05
      type: FLOAT
    }
    attribute {
      name: "momentum"
      f: 0.9
      type: FLOAT
    }
    attribute {
      name: "spatial"
      i: 1
      type: INT
    }
  }
  node {
    input: "stage2_unit1_bn3"
    input: "stage2_unit1_sc"
    output: "_plus3"
    name: "_plus3"
    op_type: "Add"
  }
  node {
    input: "_plus3"
    input: "stage2_unit2_bn1_gamma"
    input: "stage2_unit2_bn1_beta"
    input: "stage2_unit2_bn1_moving_mean"
    input: "stage2_unit2_bn1_moving_var"
    output: "stage2_unit2_bn1"
    name: "stage2_unit2_bn1"
    op_type: "BatchNormalization"
    attribute {
      name: "epsilon"
      f: 2e-05
      type: FLOAT
    }
    attribute {
      name: "momentum"
      f: 0.9
      type: FLOAT
    }
    attribute {
      name: "spatial"
      i: 1
      type: INT
    }
  }
  node {
    input: "stage2_unit2_bn1"
    input: "stage2_unit2_conv1_weight"
    output: "stage2_unit2_conv1"
    name: "stage2_unit2_conv1"
    op_type: "Conv"
    attribute {
      name: "dilations"
      ints: 1
      ints: 1
      type: INTS
    }
    attribute {
      name: "group"
      i: 1
      type: INT
    }
    attribute {
      name: "kernel_shape"
      ints: 3
      ints: 3
      type: INTS
    }
    attribute {
      name: "pads"
      ints: 1
      ints: 1
      ints: 1
      ints: 1
      type: INTS
    }
    attribute {
      name: "strides"
      ints: 1
      ints: 1
      type: INTS
    }
  }
  node {
    input: "stage2_unit2_conv1"
    input: "stage2_unit2_bn2_gamma"
    input: "stage2_unit2_bn2_beta"
    input: "stage2_unit2_bn2_moving_mean"
    input: "stage2_unit2_bn2_moving_var"
    output: "stage2_unit2_bn2"
    name: "stage2_unit2_bn2"
    op_type: "BatchNormalization"
    attribute {
      name: "epsilon"
      f: 2e-05
      type: FLOAT
    }
    attribute {
      name: "momentum"
      f: 0.9
      type: FLOAT
    }
    attribute {
      name: "spatial"
      i: 1
      type: INT
    }
  }
  node {
    input: "stage2_unit2_relu1_gamma"
    input: "reshape128"
    output: "slope128"
    name: "slope128"
    op_type: "Reshape"
  }
  node {
    input: "stage2_unit2_bn2"
    input: "slope128"
    output: "stage2_unit2_relu1"
    name: "stage2_unit2_relu1"
    op_type: "PRelu"
  }
  node {
    input: "stage2_unit2_relu1"
    input: "stage2_unit2_conv2_weight"
    output: "stage2_unit2_conv2"
    name: "stage2_unit2_conv2"
    op_type: "Conv"
    attribute {
      name: "dilations"
      ints: 1
      ints: 1
      type: INTS
    }
    attribute {
      name: "group"
      i: 1
      type: INT
    }
    attribute {
      name: "kernel_shape"
      ints: 3
      ints: 3
      type: INTS
    }
    attribute {
      name: "pads"
      ints: 1
      ints: 1
      ints: 1
      ints: 1
      type: INTS
    }
    attribute {
      name: "strides"
      ints: 1
      ints: 1
      type: INTS
    }
  }
  node {
    input: "stage2_unit2_conv2"
    input: "stage2_unit2_bn3_gamma"
    input: "stage2_unit2_bn3_beta"
    input: "stage2_unit2_bn3_moving_mean"
    input: "stage2_unit2_bn3_moving_var"
    output: "stage2_unit2_bn3"
    name: "stage2_unit2_bn3"
    op_type: "BatchNormalization"
    attribute {
      name: "epsilon"
      f: 2e-05
      type: FLOAT
    }
    attribute {
      name: "momentum"
      f: 0.9
      type: FLOAT
    }
    attribute {
      name: "spatial"
      i: 1
      type: INT
    }
  }
  node {
    input: "stage2_unit2_bn3"
    input: "_plus3"
    output: "_plus4"
    name: "_plus4"
    op_type: "Add"
  }
  node {
    input: "_plus4"
    input: "stage2_unit3_bn1_gamma"
    input: "stage2_unit3_bn1_beta"
    input: "stage2_unit3_bn1_moving_mean"
    input: "stage2_unit3_bn1_moving_var"
    output: "stage2_unit3_bn1"
    name: "stage2_unit3_bn1"
    op_type: "BatchNormalization"
    attribute {
      name: "epsilon"
      f: 2e-05
      type: FLOAT
    }
    attribute {
      name: "momentum"
      f: 0.9
      type: FLOAT
    }
    attribute {
      name: "spatial"
      i: 1
      type: INT
    }
  }
  node {
    input: "stage2_unit3_bn1"
    input: "stage2_unit3_conv1_weight"
    output: "stage2_unit3_conv1"
    name: "stage2_unit3_conv1"
    op_type: "Conv"
    attribute {
      name: "dilations"
      ints: 1
      ints: 1
      type: INTS
    }
    attribute {
      name: "group"
      i: 1
      type: INT
    }
    attribute {
      name: "kernel_shape"
      ints: 3
      ints: 3
      type: INTS
    }
    attribute {
      name: "pads"
      ints: 1
      ints: 1
      ints: 1
      ints: 1
      type: INTS
    }
    attribute {
      name: "strides"
      ints: 1
      ints: 1
      type: INTS
    }
  }
  node {
    input: "stage2_unit3_conv1"
    input: "stage2_unit3_bn2_gamma"
    input: "stage2_unit3_bn2_beta"
    input: "stage2_unit3_bn2_moving_mean"
    input: "stage2_unit3_bn2_moving_var"
    output: "stage2_unit3_bn2"
    name: "stage2_unit3_bn2"
    op_type: "BatchNormalization"
    attribute {
      name: "epsilon"
      f: 2e-05
      type: FLOAT
    }
    attribute {
      name: "momentum"
      f: 0.9
      type: FLOAT
    }
    attribute {
      name: "spatial"
      i: 1
      type: INT
    }
  }
  node {
    input: "stage2_unit3_relu1_gamma"
    input: "reshape150"
    output: "slope150"
    name: "slope150"
    op_type: "Reshape"
  }
  node {
    input: "stage2_unit3_bn2"
    input: "slope150"
    output: "stage2_unit3_relu1"
    name: "stage2_unit3_relu1"
    op_type: "PRelu"
  }
  node {
    input: "stage2_unit3_relu1"
    input: "stage2_unit3_conv2_weight"
    output: "stage2_unit3_conv2"
    name: "stage2_unit3_conv2"
    op_type: "Conv"
    attribute {
      name: "dilations"
      ints: 1
      ints: 1
      type: INTS
    }
    attribute {
      name: "group"
      i: 1
      type: INT
    }
    attribute {
      name: "kernel_shape"
      ints: 3
      ints: 3
      type: INTS
    }
    attribute {
      name: "pads"
      ints: 1
      ints: 1
      ints: 1
      ints: 1
      type: INTS
    }
    attribute {
      name: "strides"
      ints: 1
      ints: 1
      type: INTS
    }
  }
  node {
    input: "stage2_unit3_conv2"
    input: "stage2_unit3_bn3_gamma"
    input: "stage2_unit3_bn3_beta"
    input: "stage2_unit3_bn3_moving_mean"
    input: "stage2_unit3_bn3_moving_var"
    output: "stage2_unit3_bn3"
    name: "stage2_unit3_bn3"
    op_type: "BatchNormalization"
    attribute {
      name: "epsilon"
      f: 2e-05
      type: FLOAT
    }
    attribute {
      name: "momentum"
      f: 0.9
      type: FLOAT
    }
    attribute {
      name: "spatial"
      i: 1
      type: INT
    }
  }
  node {
    input: "stage2_unit3_bn3"
    input: "_plus4"
    output: "_plus5"
    name: "_plus5"
    op_type: "Add"
  }
  node {
    input: "_plus5"
    input: "stage2_unit4_bn1_gamma"
    input: "stage2_unit4_bn1_beta"
    input: "stage2_unit4_bn1_moving_mean"
    input: "stage2_unit4_bn1_moving_var"
    output: "stage2_unit4_bn1"
    name: "stage2_unit4_bn1"
    op_type: "BatchNormalization"
    attribute {
      name: "epsilon"
      f: 2e-05
      type: FLOAT
    }
    attribute {
      name: "momentum"
      f: 0.9
      type: FLOAT
    }
    attribute {
      name: "spatial"
      i: 1
      type: INT
    }
  }
  node {
    input: "stage2_unit4_bn1"
    input: "stage2_unit4_conv1_weight"
    output: "stage2_unit4_conv1"
    name: "stage2_unit4_conv1"
    op_type: "Conv"
    attribute {
      name: "dilations"
      ints: 1
      ints: 1
      type: INTS
    }
    attribute {
      name: "group"
      i: 1
      type: INT
    }
    attribute {
      name: "kernel_shape"
      ints: 3
      ints: 3
      type: INTS
    }
    attribute {
      name: "pads"
      ints: 1
      ints: 1
      ints: 1
      ints: 1
      type: INTS
    }
    attribute {
      name: "strides"
      ints: 1
      ints: 1
      type: INTS
    }
  }
  node {
    input: "stage2_unit4_conv1"
    input: "stage2_unit4_bn2_gamma"
    input: "stage2_unit4_bn2_beta"
    input: "stage2_unit4_bn2_moving_mean"
    input: "stage2_unit4_bn2_moving_var"
    output: "stage2_unit4_bn2"
    name: "stage2_unit4_bn2"
    op_type: "BatchNormalization"
    attribute {
      name: "epsilon"
      f: 2e-05
      type: FLOAT
    }
    attribute {
      name: "momentum"
      f: 0.9
      type: FLOAT
    }
    attribute {
      name: "spatial"
      i: 1
      type: INT
    }
  }
  node {
    input: "stage2_unit4_relu1_gamma"
    input: "reshape172"
    output: "slope172"
    name: "slope172"
    op_type: "Reshape"
  }
  node {
    input: "stage2_unit4_bn2"
    input: "slope172"
    output: "stage2_unit4_relu1"
    name: "stage2_unit4_relu1"
    op_type: "PRelu"
  }
  node {
    input: "stage2_unit4_relu1"
    input: "stage2_unit4_conv2_weight"
    output: "stage2_unit4_conv2"
    name: "stage2_unit4_conv2"
    op_type: "Conv"
    attribute {
      name: "dilations"
      ints: 1
      ints: 1
      type: INTS
    }
    attribute {
      name: "group"
      i: 1
      type: INT
    }
    attribute {
      name: "kernel_shape"
      ints: 3
      ints: 3
      type: INTS
    }
    attribute {
      name: "pads"
      ints: 1
      ints: 1
      ints: 1
      ints: 1
      type: INTS
    }
    attribute {
      name: "strides"
      ints: 1
      ints: 1
      type: INTS
    }
  }
  node {
    input: "stage2_unit4_conv2"
    input: "stage2_unit4_bn3_gamma"
    input: "stage2_unit4_bn3_beta"
    input: "stage2_unit4_bn3_moving_mean"
    input: "stage2_unit4_bn3_moving_var"
    output: "stage2_unit4_bn3"
    name: "stage2_unit4_bn3"
    op_type: "BatchNormalization"
    attribute {
      name: "epsilon"
      f: 2e-05
      type: FLOAT
    }
    attribute {
      name: "momentum"
      f: 0.9
      type: FLOAT
    }
    attribute {
      name: "spatial"
      i: 1
      type: INT
    }
  }
  node {
    input: "stage2_unit4_bn3"
    input: "_plus5"
    output: "_plus6"
    name: "_plus6"
    op_type: "Add"
  }
  node {
    input: "_plus6"
    input: "stage2_unit5_bn1_gamma"
    input: "stage2_unit5_bn1_beta"
    input: "stage2_unit5_bn1_moving_mean"
    input: "stage2_unit5_bn1_moving_var"
    output: "stage2_unit5_bn1"
    name: "stage2_unit5_bn1"
    op_type: "BatchNormalization"
    attribute {
      name: "epsilon"
      f: 2e-05
      type: FLOAT
    }
    attribute {
      name: "momentum"
      f: 0.9
      type: FLOAT
    }
    attribute {
      name: "spatial"
      i: 1
      type: INT
    }
  }
  node {
    input: "stage2_unit5_bn1"
    input: "stage2_unit5_conv1_weight"
    output: "stage2_unit5_conv1"
    name: "stage2_unit5_conv1"
    op_type: "Conv"
    attribute {
      name: "dilations"
      ints: 1
      ints: 1
      type: INTS
    }
    attribute {
      name: "group"
      i: 1
      type: INT
    }
    attribute {
      name: "kernel_shape"
      ints: 3
      ints: 3
      type: INTS
    }
    attribute {
      name: "pads"
      ints: 1
      ints: 1
      ints: 1
      ints: 1
      type: INTS
    }
    attribute {
      name: "strides"
      ints: 1
      ints: 1
      type: INTS
    }
  }
  node {
    input: "stage2_unit5_conv1"
    input: "stage2_unit5_bn2_gamma"
    input: "stage2_unit5_bn2_beta"
    input: "stage2_unit5_bn2_moving_mean"
    input: "stage2_unit5_bn2_moving_var"
    output: "stage2_unit5_bn2"
    name: "stage2_unit5_bn2"
    op_type: "BatchNormalization"
    attribute {
      name: "epsilon"
      f: 2e-05
      type: FLOAT
    }
    attribute {
      name: "momentum"
      f: 0.9
      type: FLOAT
    }
    attribute {
      name: "spatial"
      i: 1
      type: INT
    }
  }
  node {
    input: "stage2_unit5_relu1_gamma"
    input: "reshape194"
    output: "slope194"
    name: "slope194"
    op_type: "Reshape"
  }
  node {
    input: "stage2_unit5_bn2"
    input: "slope194"
    output: "stage2_unit5_relu1"
    name: "stage2_unit5_relu1"
    op_type: "PRelu"
  }
  node {
    input: "stage2_unit5_relu1"
    input: "stage2_unit5_conv2_weight"
    output: "stage2_unit5_conv2"
    name: "stage2_unit5_conv2"
    op_type: "Conv"
    attribute {
      name: "dilations"
      ints: 1
      ints: 1
      type: INTS
    }
    attribute {
      name: "group"
      i: 1
      type: INT
    }
    attribute {
      name: "kernel_shape"
      ints: 3
      ints: 3
      type: INTS
    }
    attribute {
      name: "pads"
      ints: 1
      ints: 1
      ints: 1
      ints: 1
      type: INTS
    }
    attribute {
      name: "strides"
      ints: 1
      ints: 1
      type: INTS
    }
  }
  node {
    input: "stage2_unit5_conv2"
    input: "stage2_unit5_bn3_gamma"
    input: "stage2_unit5_bn3_beta"
    input: "stage2_unit5_bn3_moving_mean"
    input: "stage2_unit5_bn3_moving_var"
    output: "stage2_unit5_bn3"
    name: "stage2_unit5_bn3"
    op_type: "BatchNormalization"
    attribute {
      name: "epsilon"
      f: 2e-05
      type: FLOAT
    }
    attribute {
      name: "momentum"
      f: 0.9
      type: FLOAT
    }
    attribute {
      name: "spatial"
      i: 1
      type: INT
    }
  }
  node {
    input: "stage2_unit5_bn3"
    input: "_plus6"
    output: "_plus7"
    name: "_plus7"
    op_type: "Add"
  }
  node {
    input: "_plus7"
    input: "stage2_unit6_bn1_gamma"
    input: "stage2_unit6_bn1_beta"
    input: "stage2_unit6_bn1_moving_mean"
    input: "stage2_unit6_bn1_moving_var"
    output: "stage2_unit6_bn1"
    name: "stage2_unit6_bn1"
    op_type: "BatchNormalization"
    attribute {
      name: "epsilon"
      f: 2e-05
      type: FLOAT
    }
    attribute {
      name: "momentum"
      f: 0.9
      type: FLOAT
    }
    attribute {
      name: "spatial"
      i: 1
      type: INT
    }
  }
  node {
    input: "stage2_unit6_bn1"
    input: "stage2_unit6_conv1_weight"
    output: "stage2_unit6_conv1"
    name: "stage2_unit6_conv1"
    op_type: "Conv"
    attribute {
      name: "dilations"
      ints: 1
      ints: 1
      type: INTS
    }
    attribute {
      name: "group"
      i: 1
      type: INT
    }
    attribute {
      name: "kernel_shape"
      ints: 3
      ints: 3
      type: INTS
    }
    attribute {
      name: "pads"
      ints: 1
      ints: 1
      ints: 1
      ints: 1
      type: INTS
    }
    attribute {
      name: "strides"
      ints: 1
      ints: 1
      type: INTS
    }
  }
  node {
    input: "stage2_unit6_conv1"
    input: "stage2_unit6_bn2_gamma"
    input: "stage2_unit6_bn2_beta"
    input: "stage2_unit6_bn2_moving_mean"
    input: "stage2_unit6_bn2_moving_var"
    output: "stage2_unit6_bn2"
    name: "stage2_unit6_bn2"
    op_type: "BatchNormalization"
    attribute {
      name: "epsilon"
      f: 2e-05
      type: FLOAT
    }
    attribute {
      name: "momentum"
      f: 0.9
      type: FLOAT
    }
    attribute {
      name: "spatial"
      i: 1
      type: INT
    }
  }
  node {
    input: "stage2_unit6_relu1_gamma"
    input: "reshape216"
    output: "slope216"
    name: "slope216"
    op_type: "Reshape"
  }
  node {
    input: "stage2_unit6_bn2"
    input: "slope216"
    output: "stage2_unit6_relu1"
    name: "stage2_unit6_relu1"
    op_type: "PRelu"
  }
  node {
    input: "stage2_unit6_relu1"
    input: "stage2_unit6_conv2_weight"
    output: "stage2_unit6_conv2"
    name: "stage2_unit6_conv2"
    op_type: "Conv"
    attribute {
      name: "dilations"
      ints: 1
      ints: 1
      type: INTS
    }
    attribute {
      name: "group"
      i: 1
      type: INT
    }
    attribute {
      name: "kernel_shape"
      ints: 3
      ints: 3
      type: INTS
    }
    attribute {
      name: "pads"
      ints: 1
      ints: 1
      ints: 1
      ints: 1
      type: INTS
    }
    attribute {
      name: "strides"
      ints: 1
      ints: 1
      type: INTS
    }
  }
  node {
    input: "stage2_unit6_conv2"
    input: "stage2_unit6_bn3_gamma"
    input: "stage2_unit6_bn3_beta"
    input: "stage2_unit6_bn3_moving_mean"
    input: "stage2_unit6_bn3_moving_var"
    output: "stage2_unit6_bn3"
    name: "stage2_unit6_bn3"
    op_type: "BatchNormalization"
    attribute {
      name: "epsilon"
      f: 2e-05
      type: FLOAT
    }
    attribute {
      name: "momentum"
      f: 0.9
      type: FLOAT
    }
    attribute {
      name: "spatial"
      i: 1
      type: INT
    }
  }
  node {
    input: "stage2_unit6_bn3"
    input: "_plus7"
    output: "_plus8"
    name: "_plus8"
    op_type: "Add"
  }
  node {
    input: "_plus8"
    input: "stage2_unit7_bn1_gamma"
    input: "stage2_unit7_bn1_beta"
    input: "stage2_unit7_bn1_moving_mean"
    input: "stage2_unit7_bn1_moving_var"
    output: "stage2_unit7_bn1"
    name: "stage2_unit7_bn1"
    op_type: "BatchNormalization"
    attribute {
      name: "epsilon"
      f: 2e-05
      type: FLOAT
    }
    attribute {
      name: "momentum"
      f: 0.9
      type: FLOAT
    }
    attribute {
      name: "spatial"
      i: 1
      type: INT
    }
  }
  node {
    input: "stage2_unit7_bn1"
    input: "stage2_unit7_conv1_weight"
    output: "stage2_unit7_conv1"
    name: "stage2_unit7_conv1"
    op_type: "Conv"
    attribute {
      name: "dilations"
      ints: 1
      ints: 1
      type: INTS
    }
    attribute {
      name: "group"
      i: 1
      type: INT
    }
    attribute {
      name: "kernel_shape"
      ints: 3
      ints: 3
      type: INTS
    }
    attribute {
      name: "pads"
      ints: 1
      ints: 1
      ints: 1
      ints: 1
      type: INTS
    }
    attribute {
      name: "strides"
      ints: 1
      ints: 1
      type: INTS
    }
  }
  node {
    input: "stage2_unit7_conv1"
    input: "stage2_unit7_bn2_gamma"
    input: "stage2_unit7_bn2_beta"
    input: "stage2_unit7_bn2_moving_mean"
    input: "stage2_unit7_bn2_moving_var"
    output: "stage2_unit7_bn2"
    name: "stage2_unit7_bn2"
    op_type: "BatchNormalization"
    attribute {
      name: "epsilon"
      f: 2e-05
      type: FLOAT
    }
    attribute {
      name: "momentum"
      f: 0.9
      type: FLOAT
    }
    attribute {
      name: "spatial"
      i: 1
      type: INT
    }
  }
  node {
    input: "stage2_unit7_relu1_gamma"
    input: "reshape238"
    output: "slope238"
    name: "slope238"
    op_type: "Reshape"
  }
  node {
    input: "stage2_unit7_bn2"
    input: "slope238"
    output: "stage2_unit7_relu1"
    name: "stage2_unit7_relu1"
    op_type: "PRelu"
  }
  node {
    input: "stage2_unit7_relu1"
    input: "stage2_unit7_conv2_weight"
    output: "stage2_unit7_conv2"
    name: "stage2_unit7_conv2"
    op_type: "Conv"
    attribute {
      name: "dilations"
      ints: 1
      ints: 1
      type: INTS
    }
    attribute {
      name: "group"
      i: 1
      type: INT
    }
    attribute {
      name: "kernel_shape"
      ints: 3
      ints: 3
      type: INTS
    }
    attribute {
      name: "pads"
      ints: 1
      ints: 1
      ints: 1
      ints: 1
      type: INTS
    }
    attribute {
      name: "strides"
      ints: 1
      ints: 1
      type: INTS
    }
  }
  node {
    input: "stage2_unit7_conv2"
    input: "stage2_unit7_bn3_gamma"
    input: "stage2_unit7_bn3_beta"
    input: "stage2_unit7_bn3_moving_mean"
    input: "stage2_unit7_bn3_moving_var"
    output: "stage2_unit7_bn3"
    name: "stage2_unit7_bn3"
    op_type: "BatchNormalization"
    attribute {
      name: "epsilon"
      f: 2e-05
      type: FLOAT
    }
    attribute {
      name: "momentum"
      f: 0.9
      type: FLOAT
    }
    attribute {
      name: "spatial"
      i: 1
      type: INT
    }
  }
  node {
    input: "stage2_unit7_bn3"
    input: "_plus8"
    output: "_plus9"
    name: "_plus9"
    op_type: "Add"
  }
  node {
    input: "_plus9"
    input: "stage2_unit8_bn1_gamma"
    input: "stage2_unit8_bn1_beta"
    input: "stage2_unit8_bn1_moving_mean"
    input: "stage2_unit8_bn1_moving_var"
    output: "stage2_unit8_bn1"
    name: "stage2_unit8_bn1"
    op_type: "BatchNormalization"
    attribute {
      name: "epsilon"
      f: 2e-05
      type: FLOAT
    }
    attribute {
      name: "momentum"
      f: 0.9
      type: FLOAT
    }
    attribute {
      name: "spatial"
      i: 1
      type: INT
    }
  }
  node {
    input: "stage2_unit8_bn1"
    input: "stage2_unit8_conv1_weight"
    output: "stage2_unit8_conv1"
    name: "stage2_unit8_conv1"
    op_type: "Conv"
    attribute {
      name: "dilations"
      ints: 1
      ints: 1
      type: INTS
    }
    attribute {
      name: "group"
      i: 1
      type: INT
    }
    attribute {
      name: "kernel_shape"
      ints: 3
      ints: 3
      type: INTS
    }
    attribute {
      name: "pads"
      ints: 1
      ints: 1
      ints: 1
      ints: 1
      type: INTS
    }
    attribute {
      name: "strides"
      ints: 1
      ints: 1
      type: INTS
    }
  }
  node {
    input: "stage2_unit8_conv1"
    input: "stage2_unit8_bn2_gamma"
    input: "stage2_unit8_bn2_beta"
    input: "stage2_unit8_bn2_moving_mean"
    input: "stage2_unit8_bn2_moving_var"
    output: "stage2_unit8_bn2"
    name: "stage2_unit8_bn2"
    op_type: "BatchNormalization"
    attribute {
      name: "epsilon"
      f: 2e-05
      type: FLOAT
    }
    attribute {
      name: "momentum"
      f: 0.9
      type: FLOAT
    }
    attribute {
      name: "spatial"
      i: 1
      type: INT
    }
  }
  node {
    input: "stage2_unit8_relu1_gamma"
    input: "reshape260"
    output: "slope260"
    name: "slope260"
    op_type: "Reshape"
  }
  node {
    input: "stage2_unit8_bn2"
    input: "slope260"
    output: "stage2_unit8_relu1"
    name: "stage2_unit8_relu1"
    op_type: "PRelu"
  }
  node {
    input: "stage2_unit8_relu1"
    input: "stage2_unit8_conv2_weight"
    output: "stage2_unit8_conv2"
    name: "stage2_unit8_conv2"
    op_type: "Conv"
    attribute {
      name: "dilations"
      ints: 1
      ints: 1
      type: INTS
    }
    attribute {
      name: "group"
      i: 1
      type: INT
    }
    attribute {
      name: "kernel_shape"
      ints: 3
      ints: 3
      type: INTS
    }
    attribute {
      name: "pads"
      ints: 1
      ints: 1
      ints: 1
      ints: 1
      type: INTS
    }
    attribute {
      name: "strides"
      ints: 1
      ints: 1
      type: INTS
    }
  }
  node {
    input: "stage2_unit8_conv2"
    input: "stage2_unit8_bn3_gamma"
    input: "stage2_unit8_bn3_beta"
    input: "stage2_unit8_bn3_moving_mean"
    input: "stage2_unit8_bn3_moving_var"
    output: "stage2_unit8_bn3"
    name: "stage2_unit8_bn3"
    op_type: "BatchNormalization"
    attribute {
      name: "epsilon"
      f: 2e-05
      type: FLOAT
    }
    attribute {
      name: "momentum"
      f: 0.9
      type: FLOAT
    }
    attribute {
      name: "spatial"
      i: 1
      type: INT
    }
  }
  node {
    input: "stage2_unit8_bn3"
    input: "_plus9"
    output: "_plus10"
    name: "_plus10"
    op_type: "Add"
  }
  node {
    input: "_plus10"
    input: "stage2_unit9_bn1_gamma"
    input: "stage2_unit9_bn1_beta"
    input: "stage2_unit9_bn1_moving_mean"
    input: "stage2_unit9_bn1_moving_var"
    output: "stage2_unit9_bn1"
    name: "stage2_unit9_bn1"
    op_type: "BatchNormalization"
    attribute {
      name: "epsilon"
      f: 2e-05
      type: FLOAT
    }
    attribute {
      name: "momentum"
      f: 0.9
      type: FLOAT
    }
    attribute {
      name: "spatial"
      i: 1
      type: INT
    }
  }
  node {
    input: "stage2_unit9_bn1"
    input: "stage2_unit9_conv1_weight"
    output: "stage2_unit9_conv1"
    name: "stage2_unit9_conv1"
    op_type: "Conv"
    attribute {
      name: "dilations"
      ints: 1
      ints: 1
      type: INTS
    }
    attribute {
      name: "group"
      i: 1
      type: INT
    }
    attribute {
      name: "kernel_shape"
      ints: 3
      ints: 3
      type: INTS
    }
    attribute {
      name: "pads"
      ints: 1
      ints: 1
      ints: 1
      ints: 1
      type: INTS
    }
    attribute {
      name: "strides"
      ints: 1
      ints: 1
      type: INTS
    }
  }
  node {
    input: "stage2_unit9_conv1"
    input: "stage2_unit9_bn2_gamma"
    input: "stage2_unit9_bn2_beta"
    input: "stage2_unit9_bn2_moving_mean"
    input: "stage2_unit9_bn2_moving_var"
    output: "stage2_unit9_bn2"
    name: "stage2_unit9_bn2"
    op_type: "BatchNormalization"
    attribute {
      name: "epsilon"
      f: 2e-05
      type: FLOAT
    }
    attribute {
      name: "momentum"
      f: 0.9
      type: FLOAT
    }
    attribute {
      name: "spatial"
      i: 1
      type: INT
    }
  }
  node {
    input: "stage2_unit9_relu1_gamma"
    input: "reshape282"
    output: "slope282"
    name: "slope282"
    op_type: "Reshape"
  }
  node {
    input: "stage2_unit9_bn2"
    input: "slope282"
    output: "stage2_unit9_relu1"
    name: "stage2_unit9_relu1"
    op_type: "PRelu"
  }
  node {
    input: "stage2_unit9_relu1"
    input: "stage2_unit9_conv2_weight"
    output: "stage2_unit9_conv2"
    name: "stage2_unit9_conv2"
    op_type: "Conv"
    attribute {
      name: "dilations"
      ints: 1
      ints: 1
      type: INTS
    }
    attribute {
      name: "group"
      i: 1
      type: INT
    }
    attribute {
      name: "kernel_shape"
      ints: 3
      ints: 3
      type: INTS
    }
    attribute {
      name: "pads"
      ints: 1
      ints: 1
      ints: 1
      ints: 1
      type: INTS
    }
    attribute {
      name: "strides"
      ints: 1
      ints: 1
      type: INTS
    }
  }
  node {
    input: "stage2_unit9_conv2"
    input: "stage2_unit9_bn3_gamma"
    input: "stage2_unit9_bn3_beta"
    input: "stage2_unit9_bn3_moving_mean"
    input: "stage2_unit9_bn3_moving_var"
    output: "stage2_unit9_bn3"
    name: "stage2_unit9_bn3"
    op_type: "BatchNormalization"
    attribute {
      name: "epsilon"
      f: 2e-05
      type: FLOAT
    }
    attribute {
      name: "momentum"
      f: 0.9
      type: FLOAT
    }
    attribute {
      name: "spatial"
      i: 1
      type: INT
    }
  }
  node {
    input: "stage2_unit9_bn3"
    input: "_plus10"
    output: "_plus11"
    name: "_plus11"
    op_type: "Add"
  }
  node {
    input: "_plus11"
    input: "stage2_unit10_bn1_gamma"
    input: "stage2_unit10_bn1_beta"
    input: "stage2_unit10_bn1_moving_mean"
    input: "stage2_unit10_bn1_moving_var"
    output: "stage2_unit10_bn1"
    name: "stage2_unit10_bn1"
    op_type: "BatchNormalization"
    attribute {
      name: "epsilon"
      f: 2e-05
      type: FLOAT
    }
    attribute {
      name: "momentum"
      f: 0.9
      type: FLOAT
    }
    attribute {
      name: "spatial"
      i: 1
      type: INT
    }
  }
  node {
    input: "stage2_unit10_bn1"
    input: "stage2_unit10_conv1_weight"
    output: "stage2_unit10_conv1"
    name: "stage2_unit10_conv1"
    op_type: "Conv"
    attribute {
      name: "dilations"
      ints: 1
      ints: 1
      type: INTS
    }
    attribute {
      name: "group"
      i: 1
      type: INT
    }
    attribute {
      name: "kernel_shape"
      ints: 3
      ints: 3
      type: INTS
    }
    attribute {
      name: "pads"
      ints: 1
      ints: 1
      ints: 1
      ints: 1
      type: INTS
    }
    attribute {
      name: "strides"
      ints: 1
      ints: 1
      type: INTS
    }
  }
  node {
    input: "stage2_unit10_conv1"
    input: "stage2_unit10_bn2_gamma"
    input: "stage2_unit10_bn2_beta"
    input: "stage2_unit10_bn2_moving_mean"
    input: "stage2_unit10_bn2_moving_var"
    output: "stage2_unit10_bn2"
    name: "stage2_unit10_bn2"
    op_type: "BatchNormalization"
    attribute {
      name: "epsilon"
      f: 2e-05
      type: FLOAT
    }
    attribute {
      name: "momentum"
      f: 0.9
      type: FLOAT
    }
    attribute {
      name: "spatial"
      i: 1
      type: INT
    }
  }
  node {
    input: "stage2_unit10_relu1_gamma"
    input: "reshape304"
    output: "slope304"
    name: "slope304"
    op_type: "Reshape"
  }
  node {
    input: "stage2_unit10_bn2"
    input: "slope304"
    output: "stage2_unit10_relu1"
    name: "stage2_unit10_relu1"
    op_type: "PRelu"
  }
  node {
    input: "stage2_unit10_relu1"
    input: "stage2_unit10_conv2_weight"
    output: "stage2_unit10_conv2"
    name: "stage2_unit10_conv2"
    op_type: "Conv"
    attribute {
      name: "dilations"
      ints: 1
      ints: 1
      type: INTS
    }
    attribute {
      name: "group"
      i: 1
      type: INT
    }
    attribute {
      name: "kernel_shape"
      ints: 3
      ints: 3
      type: INTS
    }
    attribute {
      name: "pads"
      ints: 1
      ints: 1
      ints: 1
      ints: 1
      type: INTS
    }
    attribute {
      name: "strides"
      ints: 1
      ints: 1
      type: INTS
    }
  }
  node {
    input: "stage2_unit10_conv2"
    input: "stage2_unit10_bn3_gamma"
    input: "stage2_unit10_bn3_beta"
    input: "stage2_unit10_bn3_moving_mean"
    input: "stage2_unit10_bn3_moving_var"
    output: "stage2_unit10_bn3"
    name: "stage2_unit10_bn3"
    op_type: "BatchNormalization"
    attribute {
      name: "epsilon"
      f: 2e-05
      type: FLOAT
    }
    attribute {
      name: "momentum"
      f: 0.9
      type: FLOAT
    }
    attribute {
      name: "spatial"
      i: 1
      type: INT
    }
  }
  node {
    input: "stage2_unit10_bn3"
    input: "_plus11"
    output: "_plus12"
    name: "_plus12"
    op_type: "Add"
  }
  node {
    input: "_plus12"
    input: "stage2_unit11_bn1_gamma"
    input: "stage2_unit11_bn1_beta"
    input: "stage2_unit11_bn1_moving_mean"
    input: "stage2_unit11_bn1_moving_var"
    output: "stage2_unit11_bn1"
    name: "stage2_unit11_bn1"
    op_type: "BatchNormalization"
    attribute {
      name: "epsilon"
      f: 2e-05
      type: FLOAT
    }
    attribute {
      name: "momentum"
      f: 0.9
      type: FLOAT
    }
    attribute {
      name: "spatial"
      i: 1
      type: INT
    }
  }
  node {
    input: "stage2_unit11_bn1"
    input: "stage2_unit11_conv1_weight"
    output: "stage2_unit11_conv1"
    name: "stage2_unit11_conv1"
    op_type: "Conv"
    attribute {
      name: "dilations"
      ints: 1
      ints: 1
      type: INTS
    }
    attribute {
      name: "group"
      i: 1
      type: INT
    }
    attribute {
      name: "kernel_shape"
      ints: 3
      ints: 3
      type: INTS
    }
    attribute {
      name: "pads"
      ints: 1
      ints: 1
      ints: 1
      ints: 1
      type: INTS
    }
    attribute {
      name: "strides"
      ints: 1
      ints: 1
      type: INTS
    }
  }
  node {
    input: "stage2_unit11_conv1"
    input: "stage2_unit11_bn2_gamma"
    input: "stage2_unit11_bn2_beta"
    input: "stage2_unit11_bn2_moving_mean"
    input: "stage2_unit11_bn2_moving_var"
    output: "stage2_unit11_bn2"
    name: "stage2_unit11_bn2"
    op_type: "BatchNormalization"
    attribute {
      name: "epsilon"
      f: 2e-05
      type: FLOAT
    }
    attribute {
      name: "momentum"
      f: 0.9
      type: FLOAT
    }
    attribute {
      name: "spatial"
      i: 1
      type: INT
    }
  }
  node {
    input: "stage2_unit11_relu1_gamma"
    input: "reshape326"
    output: "slope326"
    name: "slope326"
    op_type: "Reshape"
  }
  node {
    input: "stage2_unit11_bn2"
    input: "slope326"
    output: "stage2_unit11_relu1"
    name: "stage2_unit11_relu1"
    op_type: "PRelu"
  }
  node {
    input: "stage2_unit11_relu1"
    input: "stage2_unit11_conv2_weight"
    output: "stage2_unit11_conv2"
    name: "stage2_unit11_conv2"
    op_type: "Conv"
    attribute {
      name: "dilations"
      ints: 1
      ints: 1
      type: INTS
    }
    attribute {
      name: "group"
      i: 1
      type: INT
    }
    attribute {
      name: "kernel_shape"
      ints: 3
      ints: 3
      type: INTS
    }
    attribute {
      name: "pads"
      ints: 1
      ints: 1
      ints: 1
      ints: 1
      type: INTS
    }
    attribute {
      name: "strides"
      ints: 1
      ints: 1
      type: INTS
    }
  }
  node {
    input: "stage2_unit11_conv2"
    input: "stage2_unit11_bn3_gamma"
    input: "stage2_unit11_bn3_beta"
    input: "stage2_unit11_bn3_moving_mean"
    input: "stage2_unit11_bn3_moving_var"
    output: "stage2_unit11_bn3"
    name: "stage2_unit11_bn3"
    op_type: "BatchNormalization"
    attribute {
      name: "epsilon"
      f: 2e-05
      type: FLOAT
    }
    attribute {
      name: "momentum"
      f: 0.9
      type: FLOAT
    }
    attribute {
      name: "spatial"
      i: 1
      type: INT
    }
  }
  node {
    input: "stage2_unit11_bn3"
    input: "_plus12"
    output: "_plus13"
    name: "_plus13"
    op_type: "Add"
  }
  node {
    input: "_plus13"
    input: "stage2_unit12_bn1_gamma"
    input: "stage2_unit12_bn1_beta"
    input: "stage2_unit12_bn1_moving_mean"
    input: "stage2_unit12_bn1_moving_var"
    output: "stage2_unit12_bn1"
    name: "stage2_unit12_bn1"
    op_type: "BatchNormalization"
    attribute {
      name: "epsilon"
      f: 2e-05
      type: FLOAT
    }
    attribute {
      name: "momentum"
      f: 0.9
      type: FLOAT
    }
    attribute {
      name: "spatial"
      i: 1
      type: INT
    }
  }
  node {
    input: "stage2_unit12_bn1"
    input: "stage2_unit12_conv1_weight"
    output: "stage2_unit12_conv1"
    name: "stage2_unit12_conv1"
    op_type: "Conv"
    attribute {
      name: "dilations"
      ints: 1
      ints: 1
      type: INTS
    }
    attribute {
      name: "group"
      i: 1
      type: INT
    }
    attribute {
      name: "kernel_shape"
      ints: 3
      ints: 3
      type: INTS
    }
    attribute {
      name: "pads"
      ints: 1
      ints: 1
      ints: 1
      ints: 1
      type: INTS
    }
    attribute {
      name: "strides"
      ints: 1
      ints: 1
      type: INTS
    }
  }
  node {
    input: "stage2_unit12_conv1"
    input: "stage2_unit12_bn2_gamma"
    input: "stage2_unit12_bn2_beta"
    input: "stage2_unit12_bn2_moving_mean"
    input: "stage2_unit12_bn2_moving_var"
    output: "stage2_unit12_bn2"
    name: "stage2_unit12_bn2"
    op_type: "BatchNormalization"
    attribute {
      name: "epsilon"
      f: 2e-05
      type: FLOAT
    }
    attribute {
      name: "momentum"
      f: 0.9
      type: FLOAT
    }
    attribute {
      name: "spatial"
      i: 1
      type: INT
    }
  }
  node {
    input: "stage2_unit12_relu1_gamma"
    input: "reshape348"
    output: "slope348"
    name: "slope348"
    op_type: "Reshape"
  }
  node {
    input: "stage2_unit12_bn2"
    input: "slope348"
    output: "stage2_unit12_relu1"
    name: "stage2_unit12_relu1"
    op_type: "PRelu"
  }
  node {
    input: "stage2_unit12_relu1"
    input: "stage2_unit12_conv2_weight"
    output: "stage2_unit12_conv2"
    name: "stage2_unit12_conv2"
    op_type: "Conv"
    attribute {
      name: "dilations"
      ints: 1
      ints: 1
      type: INTS
    }
    attribute {
      name: "group"
      i: 1
      type: INT
    }
    attribute {
      name: "kernel_shape"
      ints: 3
      ints: 3
      type: INTS
    }
    attribute {
      name: "pads"
      ints: 1
      ints: 1
      ints: 1
      ints: 1
      type: INTS
    }
    attribute {
      name: "strides"
      ints: 1
      ints: 1
      type: INTS
    }
  }
  node {
    input: "stage2_unit12_conv2"
    input: "stage2_unit12_bn3_gamma"
    input: "stage2_unit12_bn3_beta"
    input: "stage2_unit12_bn3_moving_mean"
    input: "stage2_unit12_bn3_moving_var"
    output: "stage2_unit12_bn3"
    name: "stage2_unit12_bn3"
    op_type: "BatchNormalization"
    attribute {
      name: "epsilon"
      f: 2e-05
      type: FLOAT
    }
    attribute {
      name: "momentum"
      f: 0.9
      type: FLOAT
    }
    attribute {
      name: "spatial"
      i: 1
      type: INT
    }
  }
  node {
    input: "stage2_unit12_bn3"
    input: "_plus13"
    output: "_plus14"
    name: "_plus14"
    op_type: "Add"
  }
  node {
    input: "_plus14"
    input: "stage2_unit13_bn1_gamma"
    input: "stage2_unit13_bn1_beta"
    input: "stage2_unit13_bn1_moving_mean"
    input: "stage2_unit13_bn1_moving_var"
    output: "stage2_unit13_bn1"
    name: "stage2_unit13_bn1"
    op_type: "BatchNormalization"
    attribute {
      name: "epsilon"
      f: 2e-05
      type: FLOAT
    }
    attribute {
      name: "momentum"
      f: 0.9
      type: FLOAT
    }
    attribute {
      name: "spatial"
      i: 1
      type: INT
    }
  }
  node {
    input: "stage2_unit13_bn1"
    input: "stage2_unit13_conv1_weight"
    output: "stage2_unit13_conv1"
    name: "stage2_unit13_conv1"
    op_type: "Conv"
    attribute {
      name: "dilations"
      ints: 1
      ints: 1
      type: INTS
    }
    attribute {
      name: "group"
      i: 1
      type: INT
    }
    attribute {
      name: "kernel_shape"
      ints: 3
      ints: 3
      type: INTS
    }
    attribute {
      name: "pads"
      ints: 1
      ints: 1
      ints: 1
      ints: 1
      type: INTS
    }
    attribute {
      name: "strides"
      ints: 1
      ints: 1
      type: INTS
    }
  }
  node {
    input: "stage2_unit13_conv1"
    input: "stage2_unit13_bn2_gamma"
    input: "stage2_unit13_bn2_beta"
    input: "stage2_unit13_bn2_moving_mean"
    input: "stage2_unit13_bn2_moving_var"
    output: "stage2_unit13_bn2"
    name: "stage2_unit13_bn2"
    op_type: "BatchNormalization"
    attribute {
      name: "epsilon"
      f: 2e-05
      type: FLOAT
    }
    attribute {
      name: "momentum"
      f: 0.9
      type: FLOAT
    }
    attribute {
      name: "spatial"
      i: 1
      type: INT
    }
  }
  node {
    input: "stage2_unit13_relu1_gamma"
    input: "reshape370"
    output: "slope370"
    name: "slope370"
    op_type: "Reshape"
  }
  node {
    input: "stage2_unit13_bn2"
    input: "slope370"
    output: "stage2_unit13_relu1"
    name: "stage2_unit13_relu1"
    op_type: "PRelu"
  }
  node {
    input: "stage2_unit13_relu1"
    input: "stage2_unit13_conv2_weight"
    output: "stage2_unit13_conv2"
    name: "stage2_unit13_conv2"
    op_type: "Conv"
    attribute {
      name: "dilations"
      ints: 1
      ints: 1
      type: INTS
    }
    attribute {
      name: "group"
      i: 1
      type: INT
    }
    attribute {
      name: "kernel_shape"
      ints: 3
      ints: 3
      type: INTS
    }
    attribute {
      name: "pads"
      ints: 1
      ints: 1
      ints: 1
      ints: 1
      type: INTS
    }
    attribute {
      name: "strides"
      ints: 1
      ints: 1
      type: INTS
    }
  }
  node {
    input: "stage2_unit13_conv2"
    input: "stage2_unit13_bn3_gamma"
    input: "stage2_unit13_bn3_beta"
    input: "stage2_unit13_bn3_moving_mean"
    input: "stage2_unit13_bn3_moving_var"
    output: "stage2_unit13_bn3"
    name: "stage2_unit13_bn3"
    op_type: "BatchNormalization"
    attribute {
      name: "epsilon"
      f: 2e-05
      type: FLOAT
    }
    attribute {
      name: "momentum"
      f: 0.9
      type: FLOAT
    }
    attribute {
      name: "spatial"
      i: 1
      type: INT
    }
  }
  node {
    input: "stage2_unit13_bn3"
    input: "_plus14"
    output: "_plus15"
    name: "_plus15"
    op_type: "Add"
  }
  node {
    input: "_plus15"
    input: "stage3_unit1_bn1_gamma"
    input: "stage3_unit1_bn1_beta"
    input: "stage3_unit1_bn1_moving_mean"
    input: "stage3_unit1_bn1_moving_var"
    output: "stage3_unit1_bn1"
    name: "stage3_unit1_bn1"
    op_type: "BatchNormalization"
    attribute {
      name: "epsilon"
      f: 2e-05
      type: FLOAT
    }
    attribute {
      name: "momentum"
      f: 0.9
      type: FLOAT
    }
    attribute {
      name: "spatial"
      i: 1
      type: INT
    }
  }
  node {
    input: "stage3_unit1_bn1"
    input: "stage3_unit1_conv1_weight"
    output: "stage3_unit1_conv1"
    name: "stage3_unit1_conv1"
    op_type: "Conv"
    attribute {
      name: "dilations"
      ints: 1
      ints: 1
      type: INTS
    }
    attribute {
      name: "group"
      i: 1
      type: INT
    }
    attribute {
      name: "kernel_shape"
      ints: 3
      ints: 3
      type: INTS
    }
    attribute {
      name: "pads"
      ints: 1
      ints: 1
      ints: 1
      ints: 1
      type: INTS
    }
    attribute {
      name: "strides"
      ints: 1
      ints: 1
      type: INTS
    }
  }
  node {
    input: "stage3_unit1_conv1"
    input: "stage3_unit1_bn2_gamma"
    input: "stage3_unit1_bn2_beta"
    input: "stage3_unit1_bn2_moving_mean"
    input: "stage3_unit1_bn2_moving_var"
    output: "stage3_unit1_bn2"
    name: "stage3_unit1_bn2"
    op_type: "BatchNormalization"
    attribute {
      name: "epsilon"
      f: 2e-05
      type: FLOAT
    }
    attribute {
      name: "momentum"
      f: 0.9
      type: FLOAT
    }
    attribute {
      name: "spatial"
      i: 1
      type: INT
    }
  }
  node {
    input: "stage3_unit1_relu1_gamma"
    input: "reshape392"
    output: "slope392"
    name: "slope392"
    op_type: "Reshape"
  }
  node {
    input: "stage3_unit1_bn2"
    input: "slope392"
    output: "stage3_unit1_relu1"
    name: "stage3_unit1_relu1"
    op_type: "PRelu"
  }
  node {
    input: "stage3_unit1_relu1"
    input: "stage3_unit1_conv2_weight"
    output: "stage3_unit1_conv2"
    name: "stage3_unit1_conv2"
    op_type: "Conv"
    attribute {
      name: "dilations"
      ints: 1
      ints: 1
      type: INTS
    }
    attribute {
      name: "group"
      i: 1
      type: INT
    }
    attribute {
      name: "kernel_shape"
      ints: 3
      ints: 3
      type: INTS
    }
    attribute {
      name: "pads"
      ints: 1
      ints: 1
      ints: 1
      ints: 1
      type: INTS
    }
    attribute {
      name: "strides"
      ints: 2
      ints: 2
      type: INTS
    }
  }
  node {
    input: "stage3_unit1_conv2"
    input: "stage3_unit1_bn3_gamma"
    input: "stage3_unit1_bn3_beta"
    input: "stage3_unit1_bn3_moving_mean"
    input: "stage3_unit1_bn3_moving_var"
    output: "stage3_unit1_bn3"
    name: "stage3_unit1_bn3"
    op_type: "BatchNormalization"
    attribute {
      name: "epsilon"
      f: 2e-05
      type: FLOAT
    }
    attribute {
      name: "momentum"
      f: 0.9
      type: FLOAT
    }
    attribute {
      name: "spatial"
      i: 1
      type: INT
    }
  }
  node {
    input: "_plus15"
    input: "stage3_unit1_conv1sc_weight"
    output: "stage3_unit1_conv1sc"
    name: "stage3_unit1_conv1sc"
    op_type: "Conv"
    attribute {
      name: "dilations"
      ints: 1
      ints: 1
      type: INTS
    }
    attribute {
      name: "group"
      i: 1
      type: INT
    }
    attribute {
      name: "kernel_shape"
      ints: 1
      ints: 1
      type: INTS
    }
    attribute {
      name: "pads"
      ints: 0
      ints: 0
      ints: 0
      ints: 0
      type: INTS
    }
    attribute {
      name: "strides"
      ints: 2
      ints: 2
      type: INTS
    }
  }
  node {
    input: "stage3_unit1_conv1sc"
    input: "stage3_unit1_sc_gamma"
    input: "stage3_unit1_sc_beta"
    input: "stage3_unit1_sc_moving_mean"
    input: "stage3_unit1_sc_moving_var"
    output: "stage3_unit1_sc"
    name: "stage3_unit1_sc"
    op_type: "BatchNormalization"
    attribute {
      name: "epsilon"
      f: 2e-05
      type: FLOAT
    }
    attribute {
      name: "momentum"
      f: 0.9
      type: FLOAT
    }
    attribute {
      name: "spatial"
      i: 1
      type: INT
    }
  }
  node {
    input: "stage3_unit1_bn3"
    input: "stage3_unit1_sc"
    output: "_plus16"
    name: "_plus16"
    op_type: "Add"
  }
  node {
    input: "_plus16"
    input: "stage3_unit2_bn1_gamma"
    input: "stage3_unit2_bn1_beta"
    input: "stage3_unit2_bn1_moving_mean"
    input: "stage3_unit2_bn1_moving_var"
    output: "stage3_unit2_bn1"
    name: "stage3_unit2_bn1"
    op_type: "BatchNormalization"
    attribute {
      name: "epsilon"
      f: 2e-05
      type: FLOAT
    }
    attribute {
      name: "momentum"
      f: 0.9
      type: FLOAT
    }
    attribute {
      name: "spatial"
      i: 1
      type: INT
    }
  }
  node {
    input: "stage3_unit2_bn1"
    input: "stage3_unit2_conv1_weight"
    output: "stage3_unit2_conv1"
    name: "stage3_unit2_conv1"
    op_type: "Conv"
    attribute {
      name: "dilations"
      ints: 1
      ints: 1
      type: INTS
    }
    attribute {
      name: "group"
      i: 1
      type: INT
    }
    attribute {
      name: "kernel_shape"
      ints: 3
      ints: 3
      type: INTS
    }
    attribute {
      name: "pads"
      ints: 1
      ints: 1
      ints: 1
      ints: 1
      type: INTS
    }
    attribute {
      name: "strides"
      ints: 1
      ints: 1
      type: INTS
    }
  }
  node {
    input: "stage3_unit2_conv1"
    input: "stage3_unit2_bn2_gamma"
    input: "stage3_unit2_bn2_beta"
    input: "stage3_unit2_bn2_moving_mean"
    input: "stage3_unit2_bn2_moving_var"
    output: "stage3_unit2_bn2"
    name: "stage3_unit2_bn2"
    op_type: "BatchNormalization"
    attribute {
      name: "epsilon"
      f: 2e-05
      type: FLOAT
    }
    attribute {
      name: "momentum"
      f: 0.9
      type: FLOAT
    }
    attribute {
      name: "spatial"
      i: 1
      type: INT
    }
  }
  node {
    input: "stage3_unit2_relu1_gamma"
    input: "reshape421"
    output: "slope421"
    name: "slope421"
    op_type: "Reshape"
  }
  node {
    input: "stage3_unit2_bn2"
    input: "slope421"
    output: "stage3_unit2_relu1"
    name: "stage3_unit2_relu1"
    op_type: "PRelu"
  }
  node {
    input: "stage3_unit2_relu1"
    input: "stage3_unit2_conv2_weight"
    output: "stage3_unit2_conv2"
    name: "stage3_unit2_conv2"
    op_type: "Conv"
    attribute {
      name: "dilations"
      ints: 1
      ints: 1
      type: INTS
    }
    attribute {
      name: "group"
      i: 1
      type: INT
    }
    attribute {
      name: "kernel_shape"
      ints: 3
      ints: 3
      type: INTS
    }
    attribute {
      name: "pads"
      ints: 1
      ints: 1
      ints: 1
      ints: 1
      type: INTS
    }
    attribute {
      name: "strides"
      ints: 1
      ints: 1
      type: INTS
    }
  }
  node {
    input: "stage3_unit2_conv2"
    input: "stage3_unit2_bn3_gamma"
    input: "stage3_unit2_bn3_beta"
    input: "stage3_unit2_bn3_moving_mean"
    input: "stage3_unit2_bn3_moving_var"
    output: "stage3_unit2_bn3"
    name: "stage3_unit2_bn3"
    op_type: "BatchNormalization"
    attribute {
      name: "epsilon"
      f: 2e-05
      type: FLOAT
    }
    attribute {
      name: "momentum"
      f: 0.9
      type: FLOAT
    }
    attribute {
      name: "spatial"
      i: 1
      type: INT
    }
  }
  node {
    input: "stage3_unit2_bn3"
    input: "_plus16"
    output: "_plus17"
    name: "_plus17"
    op_type: "Add"
  }
  node {
    input: "_plus17"
    input: "stage3_unit3_bn1_gamma"
    input: "stage3_unit3_bn1_beta"
    input: "stage3_unit3_bn1_moving_mean"
    input: "stage3_unit3_bn1_moving_var"
    output: "stage3_unit3_bn1"
    name: "stage3_unit3_bn1"
    op_type: "BatchNormalization"
    attribute {
      name: "epsilon"
      f: 2e-05
      type: FLOAT
    }
    attribute {
      name: "momentum"
      f: 0.9
      type: FLOAT
    }
    attribute {
      name: "spatial"
      i: 1
      type: INT
    }
  }
  node {
    input: "stage3_unit3_bn1"
    input: "stage3_unit3_conv1_weight"
    output: "stage3_unit3_conv1"
    name: "stage3_unit3_conv1"
    op_type: "Conv"
    attribute {
      name: "dilations"
      ints: 1
      ints: 1
      type: INTS
    }
    attribute {
      name: "group"
      i: 1
      type: INT
    }
    attribute {
      name: "kernel_shape"
      ints: 3
      ints: 3
      type: INTS
    }
    attribute {
      name: "pads"
      ints: 1
      ints: 1
      ints: 1
      ints: 1
      type: INTS
    }
    attribute {
      name: "strides"
      ints: 1
      ints: 1
      type: INTS
    }
  }
  node {
    input: "stage3_unit3_conv1"
    input: "stage3_unit3_bn2_gamma"
    input: "stage3_unit3_bn2_beta"
    input: "stage3_unit3_bn2_moving_mean"
    input: "stage3_unit3_bn2_moving_var"
    output: "stage3_unit3_bn2"
    name: "stage3_unit3_bn2"
    op_type: "BatchNormalization"
    attribute {
      name: "epsilon"
      f: 2e-05
      type: FLOAT
    }
    attribute {
      name: "momentum"
      f: 0.9
      type: FLOAT
    }
    attribute {
      name: "spatial"
      i: 1
      type: INT
    }
  }
  node {
    input: "stage3_unit3_relu1_gamma"
    input: "reshape443"
    output: "slope443"
    name: "slope443"
    op_type: "Reshape"
  }
  node {
    input: "stage3_unit3_bn2"
    input: "slope443"
    output: "stage3_unit3_relu1"
    name: "stage3_unit3_relu1"
    op_type: "PRelu"
  }
  node {
    input: "stage3_unit3_relu1"
    input: "stage3_unit3_conv2_weight"
    output: "stage3_unit3_conv2"
    name: "stage3_unit3_conv2"
    op_type: "Conv"
    attribute {
      name: "dilations"
      ints: 1
      ints: 1
      type: INTS
    }
    attribute {
      name: "group"
      i: 1
      type: INT
    }
    attribute {
      name: "kernel_shape"
      ints: 3
      ints: 3
      type: INTS
    }
    attribute {
      name: "pads"
      ints: 1
      ints: 1
      ints: 1
      ints: 1
      type: INTS
    }
    attribute {
      name: "strides"
      ints: 1
      ints: 1
      type: INTS
    }
  }
  node {
    input: "stage3_unit3_conv2"
    input: "stage3_unit3_bn3_gamma"
    input: "stage3_unit3_bn3_beta"
    input: "stage3_unit3_bn3_moving_mean"
    input: "stage3_unit3_bn3_moving_var"
    output: "stage3_unit3_bn3"
    name: "stage3_unit3_bn3"
    op_type: "BatchNormalization"
    attribute {
      name: "epsilon"
      f: 2e-05
      type: FLOAT
    }
    attribute {
      name: "momentum"
      f: 0.9
      type: FLOAT
    }
    attribute {
      name: "spatial"
      i: 1
      type: INT
    }
  }
  node {
    input: "stage3_unit3_bn3"
    input: "_plus17"
    output: "_plus18"
    name: "_plus18"
    op_type: "Add"
  }
  node {
    input: "_plus18"
    input: "stage3_unit4_bn1_gamma"
    input: "stage3_unit4_bn1_beta"
    input: "stage3_unit4_bn1_moving_mean"
    input: "stage3_unit4_bn1_moving_var"
    output: "stage3_unit4_bn1"
    name: "stage3_unit4_bn1"
    op_type: "BatchNormalization"
    attribute {
      name: "epsilon"
      f: 2e-05
      type: FLOAT
    }
    attribute {
      name: "momentum"
      f: 0.9
      type: FLOAT
    }
    attribute {
      name: "spatial"
      i: 1
      type: INT
    }
  }
  node {
    input: "stage3_unit4_bn1"
    input: "stage3_unit4_conv1_weight"
    output: "stage3_unit4_conv1"
    name: "stage3_unit4_conv1"
    op_type: "Conv"
    attribute {
      name: "dilations"
      ints: 1
      ints: 1
      type: INTS
    }
    attribute {
      name: "group"
      i: 1
      type: INT
    }
    attribute {
      name: "kernel_shape"
      ints: 3
      ints: 3
      type: INTS
    }
    attribute {
      name: "pads"
      ints: 1
      ints: 1
      ints: 1
      ints: 1
      type: INTS
    }
    attribute {
      name: "strides"
      ints: 1
      ints: 1
      type: INTS
    }
  }
  node {
    input: "stage3_unit4_conv1"
    input: "stage3_unit4_bn2_gamma"
    input: "stage3_unit4_bn2_beta"
    input: "stage3_unit4_bn2_moving_mean"
    input: "stage3_unit4_bn2_moving_var"
    output: "stage3_unit4_bn2"
    name: "stage3_unit4_bn2"
    op_type: "BatchNormalization"
    attribute {
      name: "epsilon"
      f: 2e-05
      type: FLOAT
    }
    attribute {
      name: "momentum"
      f: 0.9
      type: FLOAT
    }
    attribute {
      name: "spatial"
      i: 1
      type: INT
    }
  }
  node {
    input: "stage3_unit4_relu1_gamma"
    input: "reshape465"
    output: "slope465"
    name: "slope465"
    op_type: "Reshape"
  }
  node {
    input: "stage3_unit4_bn2"
    input: "slope465"
    output: "stage3_unit4_relu1"
    name: "stage3_unit4_relu1"
    op_type: "PRelu"
  }
  node {
    input: "stage3_unit4_relu1"
    input: "stage3_unit4_conv2_weight"
    output: "stage3_unit4_conv2"
    name: "stage3_unit4_conv2"
    op_type: "Conv"
    attribute {
      name: "dilations"
      ints: 1
      ints: 1
      type: INTS
    }
    attribute {
      name: "group"
      i: 1
      type: INT
    }
    attribute {
      name: "kernel_shape"
      ints: 3
      ints: 3
      type: INTS
    }
    attribute {
      name: "pads"
      ints: 1
      ints: 1
      ints: 1
      ints: 1
      type: INTS
    }
    attribute {
      name: "strides"
      ints: 1
      ints: 1
      type: INTS
    }
  }
  node {
    input: "stage3_unit4_conv2"
    input: "stage3_unit4_bn3_gamma"
    input: "stage3_unit4_bn3_beta"
    input: "stage3_unit4_bn3_moving_mean"
    input: "stage3_unit4_bn3_moving_var"
    output: "stage3_unit4_bn3"
    name: "stage3_unit4_bn3"
    op_type: "BatchNormalization"
    attribute {
      name: "epsilon"
      f: 2e-05
      type: FLOAT
    }
    attribute {
      name: "momentum"
      f: 0.9
      type: FLOAT
    }
    attribute {
      name: "spatial"
      i: 1
      type: INT
    }
  }
  node {
    input: "stage3_unit4_bn3"
    input: "_plus18"
    output: "_plus19"
    name: "_plus19"
    op_type: "Add"
  }
  node {
    input: "_plus19"
    input: "stage3_unit5_bn1_gamma"
    input: "stage3_unit5_bn1_beta"
    input: "stage3_unit5_bn1_moving_mean"
    input: "stage3_unit5_bn1_moving_var"
    output: "stage3_unit5_bn1"
    name: "stage3_unit5_bn1"
    op_type: "BatchNormalization"
    attribute {
      name: "epsilon"
      f: 2e-05
      type: FLOAT
    }
    attribute {
      name: "momentum"
      f: 0.9
      type: FLOAT
    }
    attribute {
      name: "spatial"
      i: 1
      type: INT
    }
  }
  node {
    input: "stage3_unit5_bn1"
    input: "stage3_unit5_conv1_weight"
    output: "stage3_unit5_conv1"
    name: "stage3_unit5_conv1"
    op_type: "Conv"
    attribute {
      name: "dilations"
      ints: 1
      ints: 1
      type: INTS
    }
    attribute {
      name: "group"
      i: 1
      type: INT
    }
    attribute {
      name: "kernel_shape"
      ints: 3
      ints: 3
      type: INTS
    }
    attribute {
      name: "pads"
      ints: 1
      ints: 1
      ints: 1
      ints: 1
      type: INTS
    }
    attribute {
      name: "strides"
      ints: 1
      ints: 1
      type: INTS
    }
  }
  node {
    input: "stage3_unit5_conv1"
    input: "stage3_unit5_bn2_gamma"
    input: "stage3_unit5_bn2_beta"
    input: "stage3_unit5_bn2_moving_mean"
    input: "stage3_unit5_bn2_moving_var"
    output: "stage3_unit5_bn2"
    name: "stage3_unit5_bn2"
    op_type: "BatchNormalization"
    attribute {
      name: "epsilon"
      f: 2e-05
      type: FLOAT
    }
    attribute {
      name: "momentum"
      f: 0.9
      type: FLOAT
    }
    attribute {
      name: "spatial"
      i: 1
      type: INT
    }
  }
  node {
    input: "stage3_unit5_relu1_gamma"
    input: "reshape487"
    output: "slope487"
    name: "slope487"
    op_type: "Reshape"
  }
  node {
    input: "stage3_unit5_bn2"
    input: "slope487"
    output: "stage3_unit5_relu1"
    name: "stage3_unit5_relu1"
    op_type: "PRelu"
  }
  node {
    input: "stage3_unit5_relu1"
    input: "stage3_unit5_conv2_weight"
    output: "stage3_unit5_conv2"
    name: "stage3_unit5_conv2"
    op_type: "Conv"
    attribute {
      name: "dilations"
      ints: 1
      ints: 1
      type: INTS
    }
    attribute {
      name: "group"
      i: 1
      type: INT
    }
    attribute {
      name: "kernel_shape"
      ints: 3
      ints: 3
      type: INTS
    }
    attribute {
      name: "pads"
      ints: 1
      ints: 1
      ints: 1
      ints: 1
      type: INTS
    }
    attribute {
      name: "strides"
      ints: 1
      ints: 1
      type: INTS
    }
  }
  node {
    input: "stage3_unit5_conv2"
    input: "stage3_unit5_bn3_gamma"
    input: "stage3_unit5_bn3_beta"
    input: "stage3_unit5_bn3_moving_mean"
    input: "stage3_unit5_bn3_moving_var"
    output: "stage3_unit5_bn3"
    name: "stage3_unit5_bn3"
    op_type: "BatchNormalization"
    attribute {
      name: "epsilon"
      f: 2e-05
      type: FLOAT
    }
    attribute {
      name: "momentum"
      f: 0.9
      type: FLOAT
    }
    attribute {
      name: "spatial"
      i: 1
      type: INT
    }
  }
  node {
    input: "stage3_unit5_bn3"
    input: "_plus19"
    output: "_plus20"
    name: "_plus20"
    op_type: "Add"
  }
  node {
    input: "_plus20"
    input: "stage3_unit6_bn1_gamma"
    input: "stage3_unit6_bn1_beta"
    input: "stage3_unit6_bn1_moving_mean"
    input: "stage3_unit6_bn1_moving_var"
    output: "stage3_unit6_bn1"
    name: "stage3_unit6_bn1"
    op_type: "BatchNormalization"
    attribute {
      name: "epsilon"
      f: 2e-05
      type: FLOAT
    }
    attribute {
      name: "momentum"
      f: 0.9
      type: FLOAT
    }
    attribute {
      name: "spatial"
      i: 1
      type: INT
    }
  }
  node {
    input: "stage3_unit6_bn1"
    input: "stage3_unit6_conv1_weight"
    output: "stage3_unit6_conv1"
    name: "stage3_unit6_conv1"
    op_type: "Conv"
    attribute {
      name: "dilations"
      ints: 1
      ints: 1
      type: INTS
    }
    attribute {
      name: "group"
      i: 1
      type: INT
    }
    attribute {
      name: "kernel_shape"
      ints: 3
      ints: 3
      type: INTS
    }
    attribute {
      name: "pads"
      ints: 1
      ints: 1
      ints: 1
      ints: 1
      type: INTS
    }
    attribute {
      name: "strides"
      ints: 1
      ints: 1
      type: INTS
    }
  }
  node {
    input: "stage3_unit6_conv1"
    input: "stage3_unit6_bn2_gamma"
    input: "stage3_unit6_bn2_beta"
    input: "stage3_unit6_bn2_moving_mean"
    input: "stage3_unit6_bn2_moving_var"
    output: "stage3_unit6_bn2"
    name: "stage3_unit6_bn2"
    op_type: "BatchNormalization"
    attribute {
      name: "epsilon"
      f: 2e-05
      type: FLOAT
    }
    attribute {
      name: "momentum"
      f: 0.9
      type: FLOAT
    }
    attribute {
      name: "spatial"
      i: 1
      type: INT
    }
  }
  node {
    input: "stage3_unit6_relu1_gamma"
    input: "reshape509"
    output: "slope509"
    name: "slope509"
    op_type: "Reshape"
  }
  node {
    input: "stage3_unit6_bn2"
    input: "slope509"
    output: "stage3_unit6_relu1"
    name: "stage3_unit6_relu1"
    op_type: "PRelu"
  }
  node {
    input: "stage3_unit6_relu1"
    input: "stage3_unit6_conv2_weight"
    output: "stage3_unit6_conv2"
    name: "stage3_unit6_conv2"
    op_type: "Conv"
    attribute {
      name: "dilations"
      ints: 1
      ints: 1
      type: INTS
    }
    attribute {
      name: "group"
      i: 1
      type: INT
    }
    attribute {
      name: "kernel_shape"
      ints: 3
      ints: 3
      type: INTS
    }
    attribute {
      name: "pads"
      ints: 1
      ints: 1
      ints: 1
      ints: 1
      type: INTS
    }
    attribute {
      name: "strides"
      ints: 1
      ints: 1
      type: INTS
    }
  }
  node {
    input: "stage3_unit6_conv2"
    input: "stage3_unit6_bn3_gamma"
    input: "stage3_unit6_bn3_beta"
    input: "stage3_unit6_bn3_moving_mean"
    input: "stage3_unit6_bn3_moving_var"
    output: "stage3_unit6_bn3"
    name: "stage3_unit6_bn3"
    op_type: "BatchNormalization"
    attribute {
      name: "epsilon"
      f: 2e-05
      type: FLOAT
    }
    attribute {
      name: "momentum"
      f: 0.9
      type: FLOAT
    }
    attribute {
      name: "spatial"
      i: 1
      type: INT
    }
  }
  node {
    input: "stage3_unit6_bn3"
    input: "_plus20"
    output: "_plus21"
    name: "_plus21"
    op_type: "Add"
  }
  node {
    input: "_plus21"
    input: "stage3_unit7_bn1_gamma"
    input: "stage3_unit7_bn1_beta"
    input: "stage3_unit7_bn1_moving_mean"
    input: "stage3_unit7_bn1_moving_var"
    output: "stage3_unit7_bn1"
    name: "stage3_unit7_bn1"
    op_type: "BatchNormalization"
    attribute {
      name: "epsilon"
      f: 2e-05
      type: FLOAT
    }
    attribute {
      name: "momentum"
      f: 0.9
      type: FLOAT
    }
    attribute {
      name: "spatial"
      i: 1
      type: INT
    }
  }
  node {
    input: "stage3_unit7_bn1"
    input: "stage3_unit7_conv1_weight"
    output: "stage3_unit7_conv1"
    name: "stage3_unit7_conv1"
    op_type: "Conv"
    attribute {
      name: "dilations"
      ints: 1
      ints: 1
      type: INTS
    }
    attribute {
      name: "group"
      i: 1
      type: INT
    }
    attribute {
      name: "kernel_shape"
      ints: 3
      ints: 3
      type: INTS
    }
    attribute {
      name: "pads"
      ints: 1
      ints: 1
      ints: 1
      ints: 1
      type: INTS
    }
    attribute {
      name: "strides"
      ints: 1
      ints: 1
      type: INTS
    }
  }
  node {
    input: "stage3_unit7_conv1"
    input: "stage3_unit7_bn2_gamma"
    input: "stage3_unit7_bn2_beta"
    input: "stage3_unit7_bn2_moving_mean"
    input: "stage3_unit7_bn2_moving_var"
    output: "stage3_unit7_bn2"
    name: "stage3_unit7_bn2"
    op_type: "BatchNormalization"
    attribute {
      name: "epsilon"
      f: 2e-05
      type: FLOAT
    }
    attribute {
      name: "momentum"
      f: 0.9
      type: FLOAT
    }
    attribute {
      name: "spatial"
      i: 1
      type: INT
    }
  }
  node {
    input: "stage3_unit7_relu1_gamma"
    input: "reshape531"
    output: "slope531"
    name: "slope531"
    op_type: "Reshape"
  }
  node {
    input: "stage3_unit7_bn2"
    input: "slope531"
    output: "stage3_unit7_relu1"
    name: "stage3_unit7_relu1"
    op_type: "PRelu"
  }
  node {
    input: "stage3_unit7_relu1"
    input: "stage3_unit7_conv2_weight"
    output: "stage3_unit7_conv2"
    name: "stage3_unit7_conv2"
    op_type: "Conv"
    attribute {
      name: "dilations"
      ints: 1
      ints: 1
      type: INTS
    }
    attribute {
      name: "group"
      i: 1
      type: INT
    }
    attribute {
      name: "kernel_shape"
      ints: 3
      ints: 3
      type: INTS
    }
    attribute {
      name: "pads"
      ints: 1
      ints: 1
      ints: 1
      ints: 1
      type: INTS
    }
    attribute {
      name: "strides"
      ints: 1
      ints: 1
      type: INTS
    }
  }
  node {
    input: "stage3_unit7_conv2"
    input: "stage3_unit7_bn3_gamma"
    input: "stage3_unit7_bn3_beta"
    input: "stage3_unit7_bn3_moving_mean"
    input: "stage3_unit7_bn3_moving_var"
    output: "stage3_unit7_bn3"
    name: "stage3_unit7_bn3"
    op_type: "BatchNormalization"
    attribute {
      name: "epsilon"
      f: 2e-05
      type: FLOAT
    }
    attribute {
      name: "momentum"
      f: 0.9
      type: FLOAT
    }
    attribute {
      name: "spatial"
      i: 1
      type: INT
    }
  }
  node {
    input: "stage3_unit7_bn3"
    input: "_plus21"
    output: "_plus22"
    name: "_plus22"
    op_type: "Add"
  }
  node {
    input: "_plus22"
    input: "stage3_unit8_bn1_gamma"
    input: "stage3_unit8_bn1_beta"
    input: "stage3_unit8_bn1_moving_mean"
    input: "stage3_unit8_bn1_moving_var"
    output: "stage3_unit8_bn1"
    name: "stage3_unit8_bn1"
    op_type: "BatchNormalization"
    attribute {
      name: "epsilon"
      f: 2e-05
      type: FLOAT
    }
    attribute {
      name: "momentum"
      f: 0.9
      type: FLOAT
    }
    attribute {
      name: "spatial"
      i: 1
      type: INT
    }
  }
  node {
    input: "stage3_unit8_bn1"
    input: "stage3_unit8_conv1_weight"
    output: "stage3_unit8_conv1"
    name: "stage3_unit8_conv1"
    op_type: "Conv"
    attribute {
      name: "dilations"
      ints: 1
      ints: 1
      type: INTS
    }
    attribute {
      name: "group"
      i: 1
      type: INT
    }
    attribute {
      name: "kernel_shape"
      ints: 3
      ints: 3
      type: INTS
    }
    attribute {
      name: "pads"
      ints: 1
      ints: 1
      ints: 1
      ints: 1
      type: INTS
    }
    attribute {
      name: "strides"
      ints: 1
      ints: 1
      type: INTS
    }
  }
  node {
    input: "stage3_unit8_conv1"
    input: "stage3_unit8_bn2_gamma"
    input: "stage3_unit8_bn2_beta"
    input: "stage3_unit8_bn2_moving_mean"
    input: "stage3_unit8_bn2_moving_var"
    output: "stage3_unit8_bn2"
    name: "stage3_unit8_bn2"
    op_type: "BatchNormalization"
    attribute {
      name: "epsilon"
      f: 2e-05
      type: FLOAT
    }
    attribute {
      name: "momentum"
      f: 0.9
      type: FLOAT
    }
    attribute {
      name: "spatial"
      i: 1
      type: INT
    }
  }
  node {
    input: "stage3_unit8_relu1_gamma"
    input: "reshape553"
    output: "slope553"
    name: "slope553"
    op_type: "Reshape"
  }
  node {
    input: "stage3_unit8_bn2"
    input: "slope553"
    output: "stage3_unit8_relu1"
    name: "stage3_unit8_relu1"
    op_type: "PRelu"
  }
  node {
    input: "stage3_unit8_relu1"
    input: "stage3_unit8_conv2_weight"
    output: "stage3_unit8_conv2"
    name: "stage3_unit8_conv2"
    op_type: "Conv"
    attribute {
      name: "dilations"
      ints: 1
      ints: 1
      type: INTS
    }
    attribute {
      name: "group"
      i: 1
      type: INT
    }
    attribute {
      name: "kernel_shape"
      ints: 3
      ints: 3
      type: INTS
    }
    attribute {
      name: "pads"
      ints: 1
      ints: 1
      ints: 1
      ints: 1
      type: INTS
    }
    attribute {
      name: "strides"
      ints: 1
      ints: 1
      type: INTS
    }
  }
  node {
    input: "stage3_unit8_conv2"
    input: "stage3_unit8_bn3_gamma"
    input: "stage3_unit8_bn3_beta"
    input: "stage3_unit8_bn3_moving_mean"
    input: "stage3_unit8_bn3_moving_var"
    output: "stage3_unit8_bn3"
    name: "stage3_unit8_bn3"
    op_type: "BatchNormalization"
    attribute {
      name: "epsilon"
      f: 2e-05
      type: FLOAT
    }
    attribute {
      name: "momentum"
      f: 0.9
      type: FLOAT
    }
    attribute {
      name: "spatial"
      i: 1
      type: INT
    }
  }
  node {
    input: "stage3_unit8_bn3"
    input: "_plus22"
    output: "_plus23"
    name: "_plus23"
    op_type: "Add"
  }
  node {
    input: "_plus23"
    input: "stage3_unit9_bn1_gamma"
    input: "stage3_unit9_bn1_beta"
    input: "stage3_unit9_bn1_moving_mean"
    input: "stage3_unit9_bn1_moving_var"
    output: "stage3_unit9_bn1"
    name: "stage3_unit9_bn1"
    op_type: "BatchNormalization"
    attribute {
      name: "epsilon"
      f: 2e-05
      type: FLOAT
    }
    attribute {
      name: "momentum"
      f: 0.9
      type: FLOAT
    }
    attribute {
      name: "spatial"
      i: 1
      type: INT
    }
  }
  node {
    input: "stage3_unit9_bn1"
    input: "stage3_unit9_conv1_weight"
    output: "stage3_unit9_conv1"
    name: "stage3_unit9_conv1"
    op_type: "Conv"
    attribute {
      name: "dilations"
      ints: 1
      ints: 1
      type: INTS
    }
    attribute {
      name: "group"
      i: 1
      type: INT
    }
    attribute {
      name: "kernel_shape"
      ints: 3
      ints: 3
      type: INTS
    }
    attribute {
      name: "pads"
      ints: 1
      ints: 1
      ints: 1
      ints: 1
      type: INTS
    }
    attribute {
      name: "strides"
      ints: 1
      ints: 1
      type: INTS
    }
  }
  node {
    input: "stage3_unit9_conv1"
    input: "stage3_unit9_bn2_gamma"
    input: "stage3_unit9_bn2_beta"
    input: "stage3_unit9_bn2_moving_mean"
    input: "stage3_unit9_bn2_moving_var"
    output: "stage3_unit9_bn2"
    name: "stage3_unit9_bn2"
    op_type: "BatchNormalization"
    attribute {
      name: "epsilon"
      f: 2e-05
      type: FLOAT
    }
    attribute {
      name: "momentum"
      f: 0.9
      type: FLOAT
    }
    attribute {
      name: "spatial"
      i: 1
      type: INT
    }
  }
  node {
    input: "stage3_unit9_relu1_gamma"
    input: "reshape575"
    output: "slope575"
    name: "slope575"
    op_type: "Reshape"
  }
  node {
    input: "stage3_unit9_bn2"
    input: "slope575"
    output: "stage3_unit9_relu1"
    name: "stage3_unit9_relu1"
    op_type: "PRelu"
  }
  node {
    input: "stage3_unit9_relu1"
    input: "stage3_unit9_conv2_weight"
    output: "stage3_unit9_conv2"
    name: "stage3_unit9_conv2"
    op_type: "Conv"
    attribute {
      name: "dilations"
      ints: 1
      ints: 1
      type: INTS
    }
    attribute {
      name: "group"
      i: 1
      type: INT
    }
    attribute {
      name: "kernel_shape"
      ints: 3
      ints: 3
      type: INTS
    }
    attribute {
      name: "pads"
      ints: 1
      ints: 1
      ints: 1
      ints: 1
      type: INTS
    }
    attribute {
      name: "strides"
      ints: 1
      ints: 1
      type: INTS
    }
  }
  node {
    input: "stage3_unit9_conv2"
    input: "stage3_unit9_bn3_gamma"
    input: "stage3_unit9_bn3_beta"
    input: "stage3_unit9_bn3_moving_mean"
    input: "stage3_unit9_bn3_moving_var"
    output: "stage3_unit9_bn3"
    name: "stage3_unit9_bn3"
    op_type: "BatchNormalization"
    attribute {
      name: "epsilon"
      f: 2e-05
      type: FLOAT
    }
    attribute {
      name: "momentum"
      f: 0.9
      type: FLOAT
    }
    attribute {
      name: "spatial"
      i: 1
      type: INT
    }
  }
  node {
    input: "stage3_unit9_bn3"
    input: "_plus23"
    output: "_plus24"
    name: "_plus24"
    op_type: "Add"
  }
  node {
    input: "_plus24"
    input: "stage3_unit10_bn1_gamma"
    input: "stage3_unit10_bn1_beta"
    input: "stage3_unit10_bn1_moving_mean"
    input: "stage3_unit10_bn1_moving_var"
    output: "stage3_unit10_bn1"
    name: "stage3_unit10_bn1"
    op_type: "BatchNormalization"
    attribute {
      name: "epsilon"
      f: 2e-05
      type: FLOAT
    }
    attribute {
      name: "momentum"
      f: 0.9
      type: FLOAT
    }
    attribute {
      name: "spatial"
      i: 1
      type: INT
    }
  }
  node {
    input: "stage3_unit10_bn1"
    input: "stage3_unit10_conv1_weight"
    output: "stage3_unit10_conv1"
    name: "stage3_unit10_conv1"
    op_type: "Conv"
    attribute {
      name: "dilations"
      ints: 1
      ints: 1
      type: INTS
    }
    attribute {
      name: "group"
      i: 1
      type: INT
    }
    attribute {
      name: "kernel_shape"
      ints: 3
      ints: 3
      type: INTS
    }
    attribute {
      name: "pads"
      ints: 1
      ints: 1
      ints: 1
      ints: 1
      type: INTS
    }
    attribute {
      name: "strides"
      ints: 1
      ints: 1
      type: INTS
    }
  }
  node {
    input: "stage3_unit10_conv1"
    input: "stage3_unit10_bn2_gamma"
    input: "stage3_unit10_bn2_beta"
    input: "stage3_unit10_bn2_moving_mean"
    input: "stage3_unit10_bn2_moving_var"
    output: "stage3_unit10_bn2"
    name: "stage3_unit10_bn2"
    op_type: "BatchNormalization"
    attribute {
      name: "epsilon"
      f: 2e-05
      type: FLOAT
    }
    attribute {
      name: "momentum"
      f: 0.9
      type: FLOAT
    }
    attribute {
      name: "spatial"
      i: 1
      type: INT
    }
  }
  node {
    input: "stage3_unit10_relu1_gamma"
    input: "reshape597"
    output: "slope597"
    name: "slope597"
    op_type: "Reshape"
  }
  node {
    input: "stage3_unit10_bn2"
    input: "slope597"
    output: "stage3_unit10_relu1"
    name: "stage3_unit10_relu1"
    op_type: "PRelu"
  }
  node {
    input: "stage3_unit10_relu1"
    input: "stage3_unit10_conv2_weight"
    output: "stage3_unit10_conv2"
    name: "stage3_unit10_conv2"
    op_type: "Conv"
    attribute {
      name: "dilations"
      ints: 1
      ints: 1
      type: INTS
    }
    attribute {
      name: "group"
      i: 1
      type: INT
    }
    attribute {
      name: "kernel_shape"
      ints: 3
      ints: 3
      type: INTS
    }
    attribute {
      name: "pads"
      ints: 1
      ints: 1
      ints: 1
      ints: 1
      type: INTS
    }
    attribute {
      name: "strides"
      ints: 1
      ints: 1
      type: INTS
    }
  }
  node {
    input: "stage3_unit10_conv2"
    input: "stage3_unit10_bn3_gamma"
    input: "stage3_unit10_bn3_beta"
    input: "stage3_unit10_bn3_moving_mean"
    input: "stage3_unit10_bn3_moving_var"
    output: "stage3_unit10_bn3"
    name: "stage3_unit10_bn3"
    op_type: "BatchNormalization"
    attribute {
      name: "epsilon"
      f: 2e-05
      type: FLOAT
    }
    attribute {
      name: "momentum"
      f: 0.9
      type: FLOAT
    }
    attribute {
      name: "spatial"
      i: 1
      type: INT
    }
  }
  node {
    input: "stage3_unit10_bn3"
    input: "_plus24"
    output: "_plus25"
    name: "_plus25"
    op_type: "Add"
  }
  node {
    input: "_plus25"
    input: "stage3_unit11_bn1_gamma"
    input: "stage3_unit11_bn1_beta"
    input: "stage3_unit11_bn1_moving_mean"
    input: "stage3_unit11_bn1_moving_var"
    output: "stage3_unit11_bn1"
    name: "stage3_unit11_bn1"
    op_type: "BatchNormalization"
    attribute {
      name: "epsilon"
      f: 2e-05
      type: FLOAT
    }
    attribute {
      name: "momentum"
      f: 0.9
      type: FLOAT
    }
    attribute {
      name: "spatial"
      i: 1
      type: INT
    }
  }
  node {
    input: "stage3_unit11_bn1"
    input: "stage3_unit11_conv1_weight"
    output: "stage3_unit11_conv1"
    name: "stage3_unit11_conv1"
    op_type: "Conv"
    attribute {
      name: "dilations"
      ints: 1
      ints: 1
      type: INTS
    }
    attribute {
      name: "group"
      i: 1
      type: INT
    }
    attribute {
      name: "kernel_shape"
      ints: 3
      ints: 3
      type: INTS
    }
    attribute {
      name: "pads"
      ints: 1
      ints: 1
      ints: 1
      ints: 1
      type: INTS
    }
    attribute {
      name: "strides"
      ints: 1
      ints: 1
      type: INTS
    }
  }
  node {
    input: "stage3_unit11_conv1"
    input: "stage3_unit11_bn2_gamma"
    input: "stage3_unit11_bn2_beta"
    input: "stage3_unit11_bn2_moving_mean"
    input: "stage3_unit11_bn2_moving_var"
    output: "stage3_unit11_bn2"
    name: "stage3_unit11_bn2"
    op_type: "BatchNormalization"
    attribute {
      name: "epsilon"
      f: 2e-05
      type: FLOAT
    }
    attribute {
      name: "momentum"
      f: 0.9
      type: FLOAT
    }
    attribute {
      name: "spatial"
      i: 1
      type: INT
    }
  }
  node {
    input: "stage3_unit11_relu1_gamma"
    input: "reshape619"
    output: "slope619"
    name: "slope619"
    op_type: "Reshape"
  }
  node {
    input: "stage3_unit11_bn2"
    input: "slope619"
    output: "stage3_unit11_relu1"
    name: "stage3_unit11_relu1"
    op_type: "PRelu"
  }
  node {
    input: "stage3_unit11_relu1"
    input: "stage3_unit11_conv2_weight"
    output: "stage3_unit11_conv2"
    name: "stage3_unit11_conv2"
    op_type: "Conv"
    attribute {
      name: "dilations"
      ints: 1
      ints: 1
      type: INTS
    }
    attribute {
      name: "group"
      i: 1
      type: INT
    }
    attribute {
      name: "kernel_shape"
      ints: 3
      ints: 3
      type: INTS
    }
    attribute {
      name: "pads"
      ints: 1
      ints: 1
      ints: 1
      ints: 1
      type: INTS
    }
    attribute {
      name: "strides"
      ints: 1
      ints: 1
      type: INTS
    }
  }
  node {
    input: "stage3_unit11_conv2"
    input: "stage3_unit11_bn3_gamma"
    input: "stage3_unit11_bn3_beta"
    input: "stage3_unit11_bn3_moving_mean"
    input: "stage3_unit11_bn3_moving_var"
    output: "stage3_unit11_bn3"
    name: "stage3_unit11_bn3"
    op_type: "BatchNormalization"
    attribute {
      name: "epsilon"
      f: 2e-05
      type: FLOAT
    }
    attribute {
      name: "momentum"
      f: 0.9
      type: FLOAT
    }
    attribute {
      name: "spatial"
      i: 1
      type: INT
    }
  }
  node {
    input: "stage3_unit11_bn3"
    input: "_plus25"
    output: "_plus26"
    name: "_plus26"
    op_type: "Add"
  }
  node {
    input: "_plus26"
    input: "stage3_unit12_bn1_gamma"
    input: "stage3_unit12_bn1_beta"
    input: "stage3_unit12_bn1_moving_mean"
    input: "stage3_unit12_bn1_moving_var"
    output: "stage3_unit12_bn1"
    name: "stage3_unit12_bn1"
    op_type: "BatchNormalization"
    attribute {
      name: "epsilon"
      f: 2e-05
      type: FLOAT
    }
    attribute {
      name: "momentum"
      f: 0.9
      type: FLOAT
    }
    attribute {
      name: "spatial"
      i: 1
      type: INT
    }
  }
  node {
    input: "stage3_unit12_bn1"
    input: "stage3_unit12_conv1_weight"
    output: "stage3_unit12_conv1"
    name: "stage3_unit12_conv1"
    op_type: "Conv"
    attribute {
      name: "dilations"
      ints: 1
      ints: 1
      type: INTS
    }
    attribute {
      name: "group"
      i: 1
      type: INT
    }
    attribute {
      name: "kernel_shape"
      ints: 3
      ints: 3
      type: INTS
    }
    attribute {
      name: "pads"
      ints: 1
      ints: 1
      ints: 1
      ints: 1
      type: INTS
    }
    attribute {
      name: "strides"
      ints: 1
      ints: 1
      type: INTS
    }
  }
  node {
    input: "stage3_unit12_conv1"
    input: "stage3_unit12_bn2_gamma"
    input: "stage3_unit12_bn2_beta"
    input: "stage3_unit12_bn2_moving_mean"
    input: "stage3_unit12_bn2_moving_var"
    output: "stage3_unit12_bn2"
    name: "stage3_unit12_bn2"
    op_type: "BatchNormalization"
    attribute {
      name: "epsilon"
      f: 2e-05
      type: FLOAT
    }
    attribute {
      name: "momentum"
      f: 0.9
      type: FLOAT
    }
    attribute {
      name: "spatial"
      i: 1
      type: INT
    }
  }
  node {
    input: "stage3_unit12_relu1_gamma"
    input: "reshape641"
    output: "slope641"
    name: "slope641"
    op_type: "Reshape"
  }
  node {
    input: "stage3_unit12_bn2"
    input: "slope641"
    output: "stage3_unit12_relu1"
    name: "stage3_unit12_relu1"
    op_type: "PRelu"
  }
  node {
    input: "stage3_unit12_relu1"
    input: "stage3_unit12_conv2_weight"
    output: "stage3_unit12_conv2"
    name: "stage3_unit12_conv2"
    op_type: "Conv"
    attribute {
      name: "dilations"
      ints: 1
      ints: 1
      type: INTS
    }
    attribute {
      name: "group"
      i: 1
      type: INT
    }
    attribute {
      name: "kernel_shape"
      ints: 3
      ints: 3
      type: INTS
    }
    attribute {
      name: "pads"
      ints: 1
      ints: 1
      ints: 1
      ints: 1
      type: INTS
    }
    attribute {
      name: "strides"
      ints: 1
      ints: 1
      type: INTS
    }
  }
  node {
    input: "stage3_unit12_conv2"
    input: "stage3_unit12_bn3_gamma"
    input: "stage3_unit12_bn3_beta"
    input: "stage3_unit12_bn3_moving_mean"
    input: "stage3_unit12_bn3_moving_var"
    output: "stage3_unit12_bn3"
    name: "stage3_unit12_bn3"
    op_type: "BatchNormalization"
    attribute {
      name: "epsilon"
      f: 2e-05
      type: FLOAT
    }
    attribute {
      name: "momentum"
      f: 0.9
      type: FLOAT
    }
    attribute {
      name: "spatial"
      i: 1
      type: INT
    }
  }
  node {
    input: "stage3_unit12_bn3"
    input: "_plus26"
    output: "_plus27"
    name: "_plus27"
    op_type: "Add"
  }
  node {
    input: "_plus27"
    input: "stage3_unit13_bn1_gamma"
    input: "stage3_unit13_bn1_beta"
    input: "stage3_unit13_bn1_moving_mean"
    input: "stage3_unit13_bn1_moving_var"
    output: "stage3_unit13_bn1"
    name: "stage3_unit13_bn1"
    op_type: "BatchNormalization"
    attribute {
      name: "epsilon"
      f: 2e-05
      type: FLOAT
    }
    attribute {
      name: "momentum"
      f: 0.9
      type: FLOAT
    }
    attribute {
      name: "spatial"
      i: 1
      type: INT
    }
  }
  node {
    input: "stage3_unit13_bn1"
    input: "stage3_unit13_conv1_weight"
    output: "stage3_unit13_conv1"
    name: "stage3_unit13_conv1"
    op_type: "Conv"
    attribute {
      name: "dilations"
      ints: 1
      ints: 1
      type: INTS
    }
    attribute {
      name: "group"
      i: 1
      type: INT
    }
    attribute {
      name: "kernel_shape"
      ints: 3
      ints: 3
      type: INTS
    }
    attribute {
      name: "pads"
      ints: 1
      ints: 1
      ints: 1
      ints: 1
      type: INTS
    }
    attribute {
      name: "strides"
      ints: 1
      ints: 1
      type: INTS
    }
  }
  node {
    input: "stage3_unit13_conv1"
    input: "stage3_unit13_bn2_gamma"
    input: "stage3_unit13_bn2_beta"
    input: "stage3_unit13_bn2_moving_mean"
    input: "stage3_unit13_bn2_moving_var"
    output: "stage3_unit13_bn2"
    name: "stage3_unit13_bn2"
    op_type: "BatchNormalization"
    attribute {
      name: "epsilon"
      f: 2e-05
      type: FLOAT
    }
    attribute {
      name: "momentum"
      f: 0.9
      type: FLOAT
    }
    attribute {
      name: "spatial"
      i: 1
      type: INT
    }
  }
  node {
    input: "stage3_unit13_relu1_gamma"
    input: "reshape663"
    output: "slope663"
    name: "slope663"
    op_type: "Reshape"
  }
  node {
    input: "stage3_unit13_bn2"
    input: "slope663"
    output: "stage3_unit13_relu1"
    name: "stage3_unit13_relu1"
    op_type: "PRelu"
  }
  node {
    input: "stage3_unit13_relu1"
    input: "stage3_unit13_conv2_weight"
    output: "stage3_unit13_conv2"
    name: "stage3_unit13_conv2"
    op_type: "Conv"
    attribute {
      name: "dilations"
      ints: 1
      ints: 1
      type: INTS
    }
    attribute {
      name: "group"
      i: 1
      type: INT
    }
    attribute {
      name: "kernel_shape"
      ints: 3
      ints: 3
      type: INTS
    }
    attribute {
      name: "pads"
      ints: 1
      ints: 1
      ints: 1
      ints: 1
      type: INTS
    }
    attribute {
      name: "strides"
      ints: 1
      ints: 1
      type: INTS
    }
  }
  node {
    input: "stage3_unit13_conv2"
    input: "stage3_unit13_bn3_gamma"
    input: "stage3_unit13_bn3_beta"
    input: "stage3_unit13_bn3_moving_mean"
    input: "stage3_unit13_bn3_moving_var"
    output: "stage3_unit13_bn3"
    name: "stage3_unit13_bn3"
    op_type: "BatchNormalization"
    attribute {
      name: "epsilon"
      f: 2e-05
      type: FLOAT
    }
    attribute {
      name: "momentum"
      f: 0.9
      type: FLOAT
    }
    attribute {
      name: "spatial"
      i: 1
      type: INT
    }
  }
  node {
    input: "stage3_unit13_bn3"
    input: "_plus27"
    output: "_plus28"
    name: "_plus28"
    op_type: "Add"
  }
  node {
    input: "_plus28"
    input: "stage3_unit14_bn1_gamma"
    input: "stage3_unit14_bn1_beta"
    input: "stage3_unit14_bn1_moving_mean"
    input: "stage3_unit14_bn1_moving_var"
    output: "stage3_unit14_bn1"
    name: "stage3_unit14_bn1"
    op_type: "BatchNormalization"
    attribute {
      name: "epsilon"
      f: 2e-05
      type: FLOAT
    }
    attribute {
      name: "momentum"
      f: 0.9
      type: FLOAT
    }
    attribute {
      name: "spatial"
      i: 1
      type: INT
    }
  }
  node {
    input: "stage3_unit14_bn1"
    input: "stage3_unit14_conv1_weight"
    output: "stage3_unit14_conv1"
    name: "stage3_unit14_conv1"
    op_type: "Conv"
    attribute {
      name: "dilations"
      ints: 1
      ints: 1
      type: INTS
    }
    attribute {
      name: "group"
      i: 1
      type: INT
    }
    attribute {
      name: "kernel_shape"
      ints: 3
      ints: 3
      type: INTS
    }
    attribute {
      name: "pads"
      ints: 1
      ints: 1
      ints: 1
      ints: 1
      type: INTS
    }
    attribute {
      name: "strides"
      ints: 1
      ints: 1
      type: INTS
    }
  }
  node {
    input: "stage3_unit14_conv1"
    input: "stage3_unit14_bn2_gamma"
    input: "stage3_unit14_bn2_beta"
    input: "stage3_unit14_bn2_moving_mean"
    input: "stage3_unit14_bn2_moving_var"
    output: "stage3_unit14_bn2"
    name: "stage3_unit14_bn2"
    op_type: "BatchNormalization"
    attribute {
      name: "epsilon"
      f: 2e-05
      type: FLOAT
    }
    attribute {
      name: "momentum"
      f: 0.9
      type: FLOAT
    }
    attribute {
      name: "spatial"
      i: 1
      type: INT
    }
  }
  node {
    input: "stage3_unit14_relu1_gamma"
    input: "reshape685"
    output: "slope685"
    name: "slope685"
    op_type: "Reshape"
  }
  node {
    input: "stage3_unit14_bn2"
    input: "slope685"
    output: "stage3_unit14_relu1"
    name: "stage3_unit14_relu1"
    op_type: "PRelu"
  }
  node {
    input: "stage3_unit14_relu1"
    input: "stage3_unit14_conv2_weight"
    output: "stage3_unit14_conv2"
    name: "stage3_unit14_conv2"
    op_type: "Conv"
    attribute {
      name: "dilations"
      ints: 1
      ints: 1
      type: INTS
    }
    attribute {
      name: "group"
      i: 1
      type: INT
    }
    attribute {
      name: "kernel_shape"
      ints: 3
      ints: 3
      type: INTS
    }
    attribute {
      name: "pads"
      ints: 1
      ints: 1
      ints: 1
      ints: 1
      type: INTS
    }
    attribute {
      name: "strides"
      ints: 1
      ints: 1
      type: INTS
    }
  }
  node {
    input: "stage3_unit14_conv2"
    input: "stage3_unit14_bn3_gamma"
    input: "stage3_unit14_bn3_beta"
    input: "stage3_unit14_bn3_moving_mean"
    input: "stage3_unit14_bn3_moving_var"
    output: "stage3_unit14_bn3"
    name: "stage3_unit14_bn3"
    op_type: "BatchNormalization"
    attribute {
      name: "epsilon"
      f: 2e-05
      type: FLOAT
    }
    attribute {
      name: "momentum"
      f: 0.9
      type: FLOAT
    }
    attribute {
      name: "spatial"
      i: 1
      type: INT
    }
  }
  node {
    input: "stage3_unit14_bn3"
    input: "_plus28"
    output: "_plus29"
    name: "_plus29"
    op_type: "Add"
  }
  node {
    input: "_plus29"
    input: "stage3_unit15_bn1_gamma"
    input: "stage3_unit15_bn1_beta"
    input: "stage3_unit15_bn1_moving_mean"
    input: "stage3_unit15_bn1_moving_var"
    output: "stage3_unit15_bn1"
    name: "stage3_unit15_bn1"
    op_type: "BatchNormalization"
    attribute {
      name: "epsilon"
      f: 2e-05
      type: FLOAT
    }
    attribute {
      name: "momentum"
      f: 0.9
      type: FLOAT
    }
    attribute {
      name: "spatial"
      i: 1
      type: INT
    }
  }
  node {
    input: "stage3_unit15_bn1"
    input: "stage3_unit15_conv1_weight"
    output: "stage3_unit15_conv1"
    name: "stage3_unit15_conv1"
    op_type: "Conv"
    attribute {
      name: "dilations"
      ints: 1
      ints: 1
      type: INTS
    }
    attribute {
      name: "group"
      i: 1
      type: INT
    }
    attribute {
      name: "kernel_shape"
      ints: 3
      ints: 3
      type: INTS
    }
    attribute {
      name: "pads"
      ints: 1
      ints: 1
      ints: 1
      ints: 1
      type: INTS
    }
    attribute {
      name: "strides"
      ints: 1
      ints: 1
      type: INTS
    }
  }
  node {
    input: "stage3_unit15_conv1"
    input: "stage3_unit15_bn2_gamma"
    input: "stage3_unit15_bn2_beta"
    input: "stage3_unit15_bn2_moving_mean"
    input: "stage3_unit15_bn2_moving_var"
    output: "stage3_unit15_bn2"
    name: "stage3_unit15_bn2"
    op_type: "BatchNormalization"
    attribute {
      name: "epsilon"
      f: 2e-05
      type: FLOAT
    }
    attribute {
      name: "momentum"
      f: 0.9
      type: FLOAT
    }
    attribute {
      name: "spatial"
      i: 1
      type: INT
    }
  }
  node {
    input: "stage3_unit15_relu1_gamma"
    input: "reshape707"
    output: "slope707"
    name: "slope707"
    op_type: "Reshape"
  }
  node {
    input: "stage3_unit15_bn2"
    input: "slope707"
    output: "stage3_unit15_relu1"
    name: "stage3_unit15_relu1"
    op_type: "PRelu"
  }
  node {
    input: "stage3_unit15_relu1"
    input: "stage3_unit15_conv2_weight"
    output: "stage3_unit15_conv2"
    name: "stage3_unit15_conv2"
    op_type: "Conv"
    attribute {
      name: "dilations"
      ints: 1
      ints: 1
      type: INTS
    }
    attribute {
      name: "group"
      i: 1
      type: INT
    }
    attribute {
      name: "kernel_shape"
      ints: 3
      ints: 3
      type: INTS
    }
    attribute {
      name: "pads"
      ints: 1
      ints: 1
      ints: 1
      ints: 1
      type: INTS
    }
    attribute {
      name: "strides"
      ints: 1
      ints: 1
      type: INTS
    }
  }
  node {
    input: "stage3_unit15_conv2"
    input: "stage3_unit15_bn3_gamma"
    input: "stage3_unit15_bn3_beta"
    input: "stage3_unit15_bn3_moving_mean"
    input: "stage3_unit15_bn3_moving_var"
    output: "stage3_unit15_bn3"
    name: "stage3_unit15_bn3"
    op_type: "BatchNormalization"
    attribute {
      name: "epsilon"
      f: 2e-05
      type: FLOAT
    }
    attribute {
      name: "momentum"
      f: 0.9
      type: FLOAT
    }
    attribute {
      name: "spatial"
      i: 1
      type: INT
    }
  }
  node {
    input: "stage3_unit15_bn3"
    input: "_plus29"
    output: "_plus30"
    name: "_plus30"
    op_type: "Add"
  }
  node {
    input: "_plus30"
    input: "stage3_unit16_bn1_gamma"
    input: "stage3_unit16_bn1_beta"
    input: "stage3_unit16_bn1_moving_mean"
    input: "stage3_unit16_bn1_moving_var"
    output: "stage3_unit16_bn1"
    name: "stage3_unit16_bn1"
    op_type: "BatchNormalization"
    attribute {
      name: "epsilon"
      f: 2e-05
      type: FLOAT
    }
    attribute {
      name: "momentum"
      f: 0.9
      type: FLOAT
    }
    attribute {
      name: "spatial"
      i: 1
      type: INT
    }
  }
  node {
    input: "stage3_unit16_bn1"
    input: "stage3_unit16_conv1_weight"
    output: "stage3_unit16_conv1"
    name: "stage3_unit16_conv1"
    op_type: "Conv"
    attribute {
      name: "dilations"
      ints: 1
      ints: 1
      type: INTS
    }
    attribute {
      name: "group"
      i: 1
      type: INT
    }
    attribute {
      name: "kernel_shape"
      ints: 3
      ints: 3
      type: INTS
    }
    attribute {
      name: "pads"
      ints: 1
      ints: 1
      ints: 1
      ints: 1
      type: INTS
    }
    attribute {
      name: "strides"
      ints: 1
      ints: 1
      type: INTS
    }
  }
  node {
    input: "stage3_unit16_conv1"
    input: "stage3_unit16_bn2_gamma"
    input: "stage3_unit16_bn2_beta"
    input: "stage3_unit16_bn2_moving_mean"
    input: "stage3_unit16_bn2_moving_var"
    output: "stage3_unit16_bn2"
    name: "stage3_unit16_bn2"
    op_type: "BatchNormalization"
    attribute {
      name: "epsilon"
      f: 2e-05
      type: FLOAT
    }
    attribute {
      name: "momentum"
      f: 0.9
      type: FLOAT
    }
    attribute {
      name: "spatial"
      i: 1
      type: INT
    }
  }
  node {
    input: "stage3_unit16_relu1_gamma"
    input: "reshape729"
    output: "slope729"
    name: "slope729"
    op_type: "Reshape"
  }
  node {
    input: "stage3_unit16_bn2"
    input: "slope729"
    output: "stage3_unit16_relu1"
    name: "stage3_unit16_relu1"
    op_type: "PRelu"
  }
  node {
    input: "stage3_unit16_relu1"
    input: "stage3_unit16_conv2_weight"
    output: "stage3_unit16_conv2"
    name: "stage3_unit16_conv2"
    op_type: "Conv"
    attribute {
      name: "dilations"
      ints: 1
      ints: 1
      type: INTS
    }
    attribute {
      name: "group"
      i: 1
      type: INT
    }
    attribute {
      name: "kernel_shape"
      ints: 3
      ints: 3
      type: INTS
    }
    attribute {
      name: "pads"
      ints: 1
      ints: 1
      ints: 1
      ints: 1
      type: INTS
    }
    attribute {
      name: "strides"
      ints: 1
      ints: 1
      type: INTS
    }
  }
  node {
    input: "stage3_unit16_conv2"
    input: "stage3_unit16_bn3_gamma"
    input: "stage3_unit16_bn3_beta"
    input: "stage3_unit16_bn3_moving_mean"
    input: "stage3_unit16_bn3_moving_var"
    output: "stage3_unit16_bn3"
    name: "stage3_unit16_bn3"
    op_type: "BatchNormalization"
    attribute {
      name: "epsilon"
      f: 2e-05
      type: FLOAT
    }
    attribute {
      name: "momentum"
      f: 0.9
      type: FLOAT
    }
    attribute {
      name: "spatial"
      i: 1
      type: INT
    }
  }
  node {
    input: "stage3_unit16_bn3"
    input: "_plus30"
    output: "_plus31"
    name: "_plus31"
    op_type: "Add"
  }
  node {
    input: "_plus31"
    input: "stage3_unit17_bn1_gamma"
    input: "stage3_unit17_bn1_beta"
    input: "stage3_unit17_bn1_moving_mean"
    input: "stage3_unit17_bn1_moving_var"
    output: "stage3_unit17_bn1"
    name: "stage3_unit17_bn1"
    op_type: "BatchNormalization"
    attribute {
      name: "epsilon"
      f: 2e-05
      type: FLOAT
    }
    attribute {
      name: "momentum"
      f: 0.9
      type: FLOAT
    }
    attribute {
      name: "spatial"
      i: 1
      type: INT
    }
  }
  node {
    input: "stage3_unit17_bn1"
    input: "stage3_unit17_conv1_weight"
    output: "stage3_unit17_conv1"
    name: "stage3_unit17_conv1"
    op_type: "Conv"
    attribute {
      name: "dilations"
      ints: 1
      ints: 1
      type: INTS
    }
    attribute {
      name: "group"
      i: 1
      type: INT
    }
    attribute {
      name: "kernel_shape"
      ints: 3
      ints: 3
      type: INTS
    }
    attribute {
      name: "pads"
      ints: 1
      ints: 1
      ints: 1
      ints: 1
      type: INTS
    }
    attribute {
      name: "strides"
      ints: 1
      ints: 1
      type: INTS
    }
  }
  node {
    input: "stage3_unit17_conv1"
    input: "stage3_unit17_bn2_gamma"
    input: "stage3_unit17_bn2_beta"
    input: "stage3_unit17_bn2_moving_mean"
    input: "stage3_unit17_bn2_moving_var"
    output: "stage3_unit17_bn2"
    name: "stage3_unit17_bn2"
    op_type: "BatchNormalization"
    attribute {
      name: "epsilon"
      f: 2e-05
      type: FLOAT
    }
    attribute {
      name: "momentum"
      f: 0.9
      type: FLOAT
    }
    attribute {
      name: "spatial"
      i: 1
      type: INT
    }
  }
  node {
    input: "stage3_unit17_relu1_gamma"
    input: "reshape751"
    output: "slope751"
    name: "slope751"
    op_type: "Reshape"
  }
  node {
    input: "stage3_unit17_bn2"
    input: "slope751"
    output: "stage3_unit17_relu1"
    name: "stage3_unit17_relu1"
    op_type: "PRelu"
  }
  node {
    input: "stage3_unit17_relu1"
    input: "stage3_unit17_conv2_weight"
    output: "stage3_unit17_conv2"
    name: "stage3_unit17_conv2"
    op_type: "Conv"
    attribute {
      name: "dilations"
      ints: 1
      ints: 1
      type: INTS
    }
    attribute {
      name: "group"
      i: 1
      type: INT
    }
    attribute {
      name: "kernel_shape"
      ints: 3
      ints: 3
      type: INTS
    }
    attribute {
      name: "pads"
      ints: 1
      ints: 1
      ints: 1
      ints: 1
      type: INTS
    }
    attribute {
      name: "strides"
      ints: 1
      ints: 1
      type: INTS
    }
  }
  node {
    input: "stage3_unit17_conv2"
    input: "stage3_unit17_bn3_gamma"
    input: "stage3_unit17_bn3_beta"
    input: "stage3_unit17_bn3_moving_mean"
    input: "stage3_unit17_bn3_moving_var"
    output: "stage3_unit17_bn3"
    name: "stage3_unit17_bn3"
    op_type: "BatchNormalization"
    attribute {
      name: "epsilon"
      f: 2e-05
      type: FLOAT
    }
    attribute {
      name: "momentum"
      f: 0.9
      type: FLOAT
    }
    attribute {
      name: "spatial"
      i: 1
      type: INT
    }
  }
  node {
    input: "stage3_unit17_bn3"
    input: "_plus31"
    output: "_plus32"
    name: "_plus32"
    op_type: "Add"
  }
  node {
    input: "_plus32"
    input: "stage3_unit18_bn1_gamma"
    input: "stage3_unit18_bn1_beta"
    input: "stage3_unit18_bn1_moving_mean"
    input: "stage3_unit18_bn1_moving_var"
    output: "stage3_unit18_bn1"
    name: "stage3_unit18_bn1"
    op_type: "BatchNormalization"
    attribute {
      name: "epsilon"
      f: 2e-05
      type: FLOAT
    }
    attribute {
      name: "momentum"
      f: 0.9
      type: FLOAT
    }
    attribute {
      name: "spatial"
      i: 1
      type: INT
    }
  }
  node {
    input: "stage3_unit18_bn1"
    input: "stage3_unit18_conv1_weight"
    output: "stage3_unit18_conv1"
    name: "stage3_unit18_conv1"
    op_type: "Conv"
    attribute {
      name: "dilations"
      ints: 1
      ints: 1
      type: INTS
    }
    attribute {
      name: "group"
      i: 1
      type: INT
    }
    attribute {
      name: "kernel_shape"
      ints: 3
      ints: 3
      type: INTS
    }
    attribute {
      name: "pads"
      ints: 1
      ints: 1
      ints: 1
      ints: 1
      type: INTS
    }
    attribute {
      name: "strides"
      ints: 1
      ints: 1
      type: INTS
    }
  }
  node {
    input: "stage3_unit18_conv1"
    input: "stage3_unit18_bn2_gamma"
    input: "stage3_unit18_bn2_beta"
    input: "stage3_unit18_bn2_moving_mean"
    input: "stage3_unit18_bn2_moving_var"
    output: "stage3_unit18_bn2"
    name: "stage3_unit18_bn2"
    op_type: "BatchNormalization"
    attribute {
      name: "epsilon"
      f: 2e-05
      type: FLOAT
    }
    attribute {
      name: "momentum"
      f: 0.9
      type: FLOAT
    }
    attribute {
      name: "spatial"
      i: 1
      type: INT
    }
  }
  node {
    input: "stage3_unit18_relu1_gamma"
    input: "reshape773"
    output: "slope773"
    name: "slope773"
    op_type: "Reshape"
  }
  node {
    input: "stage3_unit18_bn2"
    input: "slope773"
    output: "stage3_unit18_relu1"
    name: "stage3_unit18_relu1"
    op_type: "PRelu"
  }
  node {
    input: "stage3_unit18_relu1"
    input: "stage3_unit18_conv2_weight"
    output: "stage3_unit18_conv2"
    name: "stage3_unit18_conv2"
    op_type: "Conv"
    attribute {
      name: "dilations"
      ints: 1
      ints: 1
      type: INTS
    }
    attribute {
      name: "group"
      i: 1
      type: INT
    }
    attribute {
      name: "kernel_shape"
      ints: 3
      ints: 3
      type: INTS
    }
    attribute {
      name: "pads"
      ints: 1
      ints: 1
      ints: 1
      ints: 1
      type: INTS
    }
    attribute {
      name: "strides"
      ints: 1
      ints: 1
      type: INTS
    }
  }
  node {
    input: "stage3_unit18_conv2"
    input: "stage3_unit18_bn3_gamma"
    input: "stage3_unit18_bn3_beta"
    input: "stage3_unit18_bn3_moving_mean"
    input: "stage3_unit18_bn3_moving_var"
    output: "stage3_unit18_bn3"
    name: "stage3_unit18_bn3"
    op_type: "BatchNormalization"
    attribute {
      name: "epsilon"
      f: 2e-05
      type: FLOAT
    }
    attribute {
      name: "momentum"
      f: 0.9
      type: FLOAT
    }
    attribute {
      name: "spatial"
      i: 1
      type: INT
    }
  }
  node {
    input: "stage3_unit18_bn3"
    input: "_plus32"
    output: "_plus33"
    name: "_plus33"
    op_type: "Add"
  }
  node {
    input: "_plus33"
    input: "stage3_unit19_bn1_gamma"
    input: "stage3_unit19_bn1_beta"
    input: "stage3_unit19_bn1_moving_mean"
    input: "stage3_unit19_bn1_moving_var"
    output: "stage3_unit19_bn1"
    name: "stage3_unit19_bn1"
    op_type: "BatchNormalization"
    attribute {
      name: "epsilon"
      f: 2e-05
      type: FLOAT
    }
    attribute {
      name: "momentum"
      f: 0.9
      type: FLOAT
    }
    attribute {
      name: "spatial"
      i: 1
      type: INT
    }
  }
  node {
    input: "stage3_unit19_bn1"
    input: "stage3_unit19_conv1_weight"
    output: "stage3_unit19_conv1"
    name: "stage3_unit19_conv1"
    op_type: "Conv"
    attribute {
      name: "dilations"
      ints: 1
      ints: 1
      type: INTS
    }
    attribute {
      name: "group"
      i: 1
      type: INT
    }
    attribute {
      name: "kernel_shape"
      ints: 3
      ints: 3
      type: INTS
    }
    attribute {
      name: "pads"
      ints: 1
      ints: 1
      ints: 1
      ints: 1
      type: INTS
    }
    attribute {
      name: "strides"
      ints: 1
      ints: 1
      type: INTS
    }
  }
  node {
    input: "stage3_unit19_conv1"
    input: "stage3_unit19_bn2_gamma"
    input: "stage3_unit19_bn2_beta"
    input: "stage3_unit19_bn2_moving_mean"
    input: "stage3_unit19_bn2_moving_var"
    output: "stage3_unit19_bn2"
    name: "stage3_unit19_bn2"
    op_type: "BatchNormalization"
    attribute {
      name: "epsilon"
      f: 2e-05
      type: FLOAT
    }
    attribute {
      name: "momentum"
      f: 0.9
      type: FLOAT
    }
    attribute {
      name: "spatial"
      i: 1
      type: INT
    }
  }
  node {
    input: "stage3_unit19_relu1_gamma"
    input: "reshape795"
    output: "slope795"
    name: "slope795"
    op_type: "Reshape"
  }
  node {
    input: "stage3_unit19_bn2"
    input: "slope795"
    output: "stage3_unit19_relu1"
    name: "stage3_unit19_relu1"
    op_type: "PRelu"
  }
  node {
    input: "stage3_unit19_relu1"
    input: "stage3_unit19_conv2_weight"
    output: "stage3_unit19_conv2"
    name: "stage3_unit19_conv2"
    op_type: "Conv"
    attribute {
      name: "dilations"
      ints: 1
      ints: 1
      type: INTS
    }
    attribute {
      name: "group"
      i: 1
      type: INT
    }
    attribute {
      name: "kernel_shape"
      ints: 3
      ints: 3
      type: INTS
    }
    attribute {
      name: "pads"
      ints: 1
      ints: 1
      ints: 1
      ints: 1
      type: INTS
    }
    attribute {
      name: "strides"
      ints: 1
      ints: 1
      type: INTS
    }
  }
  node {
    input: "stage3_unit19_conv2"
    input: "stage3_unit19_bn3_gamma"
    input: "stage3_unit19_bn3_beta"
    input: "stage3_unit19_bn3_moving_mean"
    input: "stage3_unit19_bn3_moving_var"
    output: "stage3_unit19_bn3"
    name: "stage3_unit19_bn3"
    op_type: "BatchNormalization"
    attribute {
      name: "epsilon"
      f: 2e-05
      type: FLOAT
    }
    attribute {
      name: "momentum"
      f: 0.9
      type: FLOAT
    }
    attribute {
      name: "spatial"
      i: 1
      type: INT
    }
  }
  node {
    input: "stage3_unit19_bn3"
    input: "_plus33"
    output: "_plus34"
    name: "_plus34"
    op_type: "Add"
  }
  node {
    input: "_plus34"
    input: "stage3_unit20_bn1_gamma"
    input: "stage3_unit20_bn1_beta"
    input: "stage3_unit20_bn1_moving_mean"
    input: "stage3_unit20_bn1_moving_var"
    output: "stage3_unit20_bn1"
    name: "stage3_unit20_bn1"
    op_type: "BatchNormalization"
    attribute {
      name: "epsilon"
      f: 2e-05
      type: FLOAT
    }
    attribute {
      name: "momentum"
      f: 0.9
      type: FLOAT
    }
    attribute {
      name: "spatial"
      i: 1
      type: INT
    }
  }
  node {
    input: "stage3_unit20_bn1"
    input: "stage3_unit20_conv1_weight"
    output: "stage3_unit20_conv1"
    name: "stage3_unit20_conv1"
    op_type: "Conv"
    attribute {
      name: "dilations"
      ints: 1
      ints: 1
      type: INTS
    }
    attribute {
      name: "group"
      i: 1
      type: INT
    }
    attribute {
      name: "kernel_shape"
      ints: 3
      ints: 3
      type: INTS
    }
    attribute {
      name: "pads"
      ints: 1
      ints: 1
      ints: 1
      ints: 1
      type: INTS
    }
    attribute {
      name: "strides"
      ints: 1
      ints: 1
      type: INTS
    }
  }
  node {
    input: "stage3_unit20_conv1"
    input: "stage3_unit20_bn2_gamma"
    input: "stage3_unit20_bn2_beta"
    input: "stage3_unit20_bn2_moving_mean"
    input: "stage3_unit20_bn2_moving_var"
    output: "stage3_unit20_bn2"
    name: "stage3_unit20_bn2"
    op_type: "BatchNormalization"
    attribute {
      name: "epsilon"
      f: 2e-05
      type: FLOAT
    }
    attribute {
      name: "momentum"
      f: 0.9
      type: FLOAT
    }
    attribute {
      name: "spatial"
      i: 1
      type: INT
    }
  }
  node {
    input: "stage3_unit20_relu1_gamma"
    input: "reshape817"
    output: "slope817"
    name: "slope817"
    op_type: "Reshape"
  }
  node {
    input: "stage3_unit20_bn2"
    input: "slope817"
    output: "stage3_unit20_relu1"
    name: "stage3_unit20_relu1"
    op_type: "PRelu"
  }
  node {
    input: "stage3_unit20_relu1"
    input: "stage3_unit20_conv2_weight"
    output: "stage3_unit20_conv2"
    name: "stage3_unit20_conv2"
    op_type: "Conv"
    attribute {
      name: "dilations"
      ints: 1
      ints: 1
      type: INTS
    }
    attribute {
      name: "group"
      i: 1
      type: INT
    }
    attribute {
      name: "kernel_shape"
      ints: 3
      ints: 3
      type: INTS
    }
    attribute {
      name: "pads"
      ints: 1
      ints: 1
      ints: 1
      ints: 1
      type: INTS
    }
    attribute {
      name: "strides"
      ints: 1
      ints: 1
      type: INTS
    }
  }
  node {
    input: "stage3_unit20_conv2"
    input: "stage3_unit20_bn3_gamma"
    input: "stage3_unit20_bn3_beta"
    input: "stage3_unit20_bn3_moving_mean"
    input: "stage3_unit20_bn3_moving_var"
    output: "stage3_unit20_bn3"
    name: "stage3_unit20_bn3"
    op_type: "BatchNormalization"
    attribute {
      name: "epsilon"
      f: 2e-05
      type: FLOAT
    }
    attribute {
      name: "momentum"
      f: 0.9
      type: FLOAT
    }
    attribute {
      name: "spatial"
      i: 1
      type: INT
    }
  }
  node {
    input: "stage3_unit20_bn3"
    input: "_plus34"
    output: "_plus35"
    name: "_plus35"
    op_type: "Add"
  }
  node {
    input: "_plus35"
    input: "stage3_unit21_bn1_gamma"
    input: "stage3_unit21_bn1_beta"
    input: "stage3_unit21_bn1_moving_mean"
    input: "stage3_unit21_bn1_moving_var"
    output: "stage3_unit21_bn1"
    name: "stage3_unit21_bn1"
    op_type: "BatchNormalization"
    attribute {
      name: "epsilon"
      f: 2e-05
      type: FLOAT
    }
    attribute {
      name: "momentum"
      f: 0.9
      type: FLOAT
    }
    attribute {
      name: "spatial"
      i: 1
      type: INT
    }
  }
  node {
    input: "stage3_unit21_bn1"
    input: "stage3_unit21_conv1_weight"
    output: "stage3_unit21_conv1"
    name: "stage3_unit21_conv1"
    op_type: "Conv"
    attribute {
      name: "dilations"
      ints: 1
      ints: 1
      type: INTS
    }
    attribute {
      name: "group"
      i: 1
      type: INT
    }
    attribute {
      name: "kernel_shape"
      ints: 3
      ints: 3
      type: INTS
    }
    attribute {
      name: "pads"
      ints: 1
      ints: 1
      ints: 1
      ints: 1
      type: INTS
    }
    attribute {
      name: "strides"
      ints: 1
      ints: 1
      type: INTS
    }
  }
  node {
    input: "stage3_unit21_conv1"
    input: "stage3_unit21_bn2_gamma"
    input: "stage3_unit21_bn2_beta"
    input: "stage3_unit21_bn2_moving_mean"
    input: "stage3_unit21_bn2_moving_var"
    output: "stage3_unit21_bn2"
    name: "stage3_unit21_bn2"
    op_type: "BatchNormalization"
    attribute {
      name: "epsilon"
      f: 2e-05
      type: FLOAT
    }
    attribute {
      name: "momentum"
      f: 0.9
      type: FLOAT
    }
    attribute {
      name: "spatial"
      i: 1
      type: INT
    }
  }
  node {
    input: "stage3_unit21_relu1_gamma"
    input: "reshape839"
    output: "slope839"
    name: "slope839"
    op_type: "Reshape"
  }
  node {
    input: "stage3_unit21_bn2"
    input: "slope839"
    output: "stage3_unit21_relu1"
    name: "stage3_unit21_relu1"
    op_type: "PRelu"
  }
  node {
    input: "stage3_unit21_relu1"
    input: "stage3_unit21_conv2_weight"
    output: "stage3_unit21_conv2"
    name: "stage3_unit21_conv2"
    op_type: "Conv"
    attribute {
      name: "dilations"
      ints: 1
      ints: 1
      type: INTS
    }
    attribute {
      name: "group"
      i: 1
      type: INT
    }
    attribute {
      name: "kernel_shape"
      ints: 3
      ints: 3
      type: INTS
    }
    attribute {
      name: "pads"
      ints: 1
      ints: 1
      ints: 1
      ints: 1
      type: INTS
    }
    attribute {
      name: "strides"
      ints: 1
      ints: 1
      type: INTS
    }
  }
  node {
    input: "stage3_unit21_conv2"
    input: "stage3_unit21_bn3_gamma"
    input: "stage3_unit21_bn3_beta"
    input: "stage3_unit21_bn3_moving_mean"
    input: "stage3_unit21_bn3_moving_var"
    output: "stage3_unit21_bn3"
    name: "stage3_unit21_bn3"
    op_type: "BatchNormalization"
    attribute {
      name: "epsilon"
      f: 2e-05
      type: FLOAT
    }
    attribute {
      name: "momentum"
      f: 0.9
      type: FLOAT
    }
    attribute {
      name: "spatial"
      i: 1
      type: INT
    }
  }
  node {
    input: "stage3_unit21_bn3"
    input: "_plus35"
    output: "_plus36"
    name: "_plus36"
    op_type: "Add"
  }
  node {
    input: "_plus36"
    input: "stage3_unit22_bn1_gamma"
    input: "stage3_unit22_bn1_beta"
    input: "stage3_unit22_bn1_moving_mean"
    input: "stage3_unit22_bn1_moving_var"
    output: "stage3_unit22_bn1"
    name: "stage3_unit22_bn1"
    op_type: "BatchNormalization"
    attribute {
      name: "epsilon"
      f: 2e-05
      type: FLOAT
    }
    attribute {
      name: "momentum"
      f: 0.9
      type: FLOAT
    }
    attribute {
      name: "spatial"
      i: 1
      type: INT
    }
  }
  node {
    input: "stage3_unit22_bn1"
    input: "stage3_unit22_conv1_weight"
    output: "stage3_unit22_conv1"
    name: "stage3_unit22_conv1"
    op_type: "Conv"
    attribute {
      name: "dilations"
      ints: 1
      ints: 1
      type: INTS
    }
    attribute {
      name: "group"
      i: 1
      type: INT
    }
    attribute {
      name: "kernel_shape"
      ints: 3
      ints: 3
      type: INTS
    }
    attribute {
      name: "pads"
      ints: 1
      ints: 1
      ints: 1
      ints: 1
      type: INTS
    }
    attribute {
      name: "strides"
      ints: 1
      ints: 1
      type: INTS
    }
  }
  node {
    input: "stage3_unit22_conv1"
    input: "stage3_unit22_bn2_gamma"
    input: "stage3_unit22_bn2_beta"
    input: "stage3_unit22_bn2_moving_mean"
    input: "stage3_unit22_bn2_moving_var"
    output: "stage3_unit22_bn2"
    name: "stage3_unit22_bn2"
    op_type: "BatchNormalization"
    attribute {
      name: "epsilon"
      f: 2e-05
      type: FLOAT
    }
    attribute {
      name: "momentum"
      f: 0.9
      type: FLOAT
    }
    attribute {
      name: "spatial"
      i: 1
      type: INT
    }
  }
  node {
    input: "stage3_unit22_relu1_gamma"
    input: "reshape861"
    output: "slope861"
    name: "slope861"
    op_type: "Reshape"
  }
  node {
    input: "stage3_unit22_bn2"
    input: "slope861"
    output: "stage3_unit22_relu1"
    name: "stage3_unit22_relu1"
    op_type: "PRelu"
  }
  node {
    input: "stage3_unit22_relu1"
    input: "stage3_unit22_conv2_weight"
    output: "stage3_unit22_conv2"
    name: "stage3_unit22_conv2"
    op_type: "Conv"
    attribute {
      name: "dilations"
      ints: 1
      ints: 1
      type: INTS
    }
    attribute {
      name: "group"
      i: 1
      type: INT
    }
    attribute {
      name: "kernel_shape"
      ints: 3
      ints: 3
      type: INTS
    }
    attribute {
      name: "pads"
      ints: 1
      ints: 1
      ints: 1
      ints: 1
      type: INTS
    }
    attribute {
      name: "strides"
      ints: 1
      ints: 1
      type: INTS
    }
  }
  node {
    input: "stage3_unit22_conv2"
    input: "stage3_unit22_bn3_gamma"
    input: "stage3_unit22_bn3_beta"
    input: "stage3_unit22_bn3_moving_mean"
    input: "stage3_unit22_bn3_moving_var"
    output: "stage3_unit22_bn3"
    name: "stage3_unit22_bn3"
    op_type: "BatchNormalization"
    attribute {
      name: "epsilon"
      f: 2e-05
      type: FLOAT
    }
    attribute {
      name: "momentum"
      f: 0.9
      type: FLOAT
    }
    attribute {
      name: "spatial"
      i: 1
      type: INT
    }
  }
  node {
    input: "stage3_unit22_bn3"
    input: "_plus36"
    output: "_plus37"
    name: "_plus37"
    op_type: "Add"
  }
  node {
    input: "_plus37"
    input: "stage3_unit23_bn1_gamma"
    input: "stage3_unit23_bn1_beta"
    input: "stage3_unit23_bn1_moving_mean"
    input: "stage3_unit23_bn1_moving_var"
    output: "stage3_unit23_bn1"
    name: "stage3_unit23_bn1"
    op_type: "BatchNormalization"
    attribute {
      name: "epsilon"
      f: 2e-05
      type: FLOAT
    }
    attribute {
      name: "momentum"
      f: 0.9
      type: FLOAT
    }
    attribute {
      name: "spatial"
      i: 1
      type: INT
    }
  }
  node {
    input: "stage3_unit23_bn1"
    input: "stage3_unit23_conv1_weight"
    output: "stage3_unit23_conv1"
    name: "stage3_unit23_conv1"
    op_type: "Conv"
    attribute {
      name: "dilations"
      ints: 1
      ints: 1
      type: INTS
    }
    attribute {
      name: "group"
      i: 1
      type: INT
    }
    attribute {
      name: "kernel_shape"
      ints: 3
      ints: 3
      type: INTS
    }
    attribute {
      name: "pads"
      ints: 1
      ints: 1
      ints: 1
      ints: 1
      type: INTS
    }
    attribute {
      name: "strides"
      ints: 1
      ints: 1
      type: INTS
    }
  }
  node {
    input: "stage3_unit23_conv1"
    input: "stage3_unit23_bn2_gamma"
    input: "stage3_unit23_bn2_beta"
    input: "stage3_unit23_bn2_moving_mean"
    input: "stage3_unit23_bn2_moving_var"
    output: "stage3_unit23_bn2"
    name: "stage3_unit23_bn2"
    op_type: "BatchNormalization"
    attribute {
      name: "epsilon"
      f: 2e-05
      type: FLOAT
    }
    attribute {
      name: "momentum"
      f: 0.9
      type: FLOAT
    }
    attribute {
      name: "spatial"
      i: 1
      type: INT
    }
  }
  node {
    input: "stage3_unit23_relu1_gamma"
    input: "reshape883"
    output: "slope883"
    name: "slope883"
    op_type: "Reshape"
  }
  node {
    input: "stage3_unit23_bn2"
    input: "slope883"
    output: "stage3_unit23_relu1"
    name: "stage3_unit23_relu1"
    op_type: "PRelu"
  }
  node {
    input: "stage3_unit23_relu1"
    input: "stage3_unit23_conv2_weight"
    output: "stage3_unit23_conv2"
    name: "stage3_unit23_conv2"
    op_type: "Conv"
    attribute {
      name: "dilations"
      ints: 1
      ints: 1
      type: INTS
    }
    attribute {
      name: "group"
      i: 1
      type: INT
    }
    attribute {
      name: "kernel_shape"
      ints: 3
      ints: 3
      type: INTS
    }
    attribute {
      name: "pads"
      ints: 1
      ints: 1
      ints: 1
      ints: 1
      type: INTS
    }
    attribute {
      name: "strides"
      ints: 1
      ints: 1
      type: INTS
    }
  }
  node {
    input: "stage3_unit23_conv2"
    input: "stage3_unit23_bn3_gamma"
    input: "stage3_unit23_bn3_beta"
    input: "stage3_unit23_bn3_moving_mean"
    input: "stage3_unit23_bn3_moving_var"
    output: "stage3_unit23_bn3"
    name: "stage3_unit23_bn3"
    op_type: "BatchNormalization"
    attribute {
      name: "epsilon"
      f: 2e-05
      type: FLOAT
    }
    attribute {
      name: "momentum"
      f: 0.9
      type: FLOAT
    }
    attribute {
      name: "spatial"
      i: 1
      type: INT
    }
  }
  node {
    input: "stage3_unit23_bn3"
    input: "_plus37"
    output: "_plus38"
    name: "_plus38"
    op_type: "Add"
  }
  node {
    input: "_plus38"
    input: "stage3_unit24_bn1_gamma"
    input: "stage3_unit24_bn1_beta"
    input: "stage3_unit24_bn1_moving_mean"
    input: "stage3_unit24_bn1_moving_var"
    output: "stage3_unit24_bn1"
    name: "stage3_unit24_bn1"
    op_type: "BatchNormalization"
    attribute {
      name: "epsilon"
      f: 2e-05
      type: FLOAT
    }
    attribute {
      name: "momentum"
      f: 0.9
      type: FLOAT
    }
    attribute {
      name: "spatial"
      i: 1
      type: INT
    }
  }
  node {
    input: "stage3_unit24_bn1"
    input: "stage3_unit24_conv1_weight"
    output: "stage3_unit24_conv1"
    name: "stage3_unit24_conv1"
    op_type: "Conv"
    attribute {
      name: "dilations"
      ints: 1
      ints: 1
      type: INTS
    }
    attribute {
      name: "group"
      i: 1
      type: INT
    }
    attribute {
      name: "kernel_shape"
      ints: 3
      ints: 3
      type: INTS
    }
    attribute {
      name: "pads"
      ints: 1
      ints: 1
      ints: 1
      ints: 1
      type: INTS
    }
    attribute {
      name: "strides"
      ints: 1
      ints: 1
      type: INTS
    }
  }
  node {
    input: "stage3_unit24_conv1"
    input: "stage3_unit24_bn2_gamma"
    input: "stage3_unit24_bn2_beta"
    input: "stage3_unit24_bn2_moving_mean"
    input: "stage3_unit24_bn2_moving_var"
    output: "stage3_unit24_bn2"
    name: "stage3_unit24_bn2"
    op_type: "BatchNormalization"
    attribute {
      name: "epsilon"
      f: 2e-05
      type: FLOAT
    }
    attribute {
      name: "momentum"
      f: 0.9
      type: FLOAT
    }
    attribute {
      name: "spatial"
      i: 1
      type: INT
    }
  }
  node {
    input: "stage3_unit24_relu1_gamma"
    input: "reshape905"
    output: "slope905"
    name: "slope905"
    op_type: "Reshape"
  }
  node {
    input: "stage3_unit24_bn2"
    input: "slope905"
    output: "stage3_unit24_relu1"
    name: "stage3_unit24_relu1"
    op_type: "PRelu"
  }
  node {
    input: "stage3_unit24_relu1"
    input: "stage3_unit24_conv2_weight"
    output: "stage3_unit24_conv2"
    name: "stage3_unit24_conv2"
    op_type: "Conv"
    attribute {
      name: "dilations"
      ints: 1
      ints: 1
      type: INTS
    }
    attribute {
      name: "group"
      i: 1
      type: INT
    }
    attribute {
      name: "kernel_shape"
      ints: 3
      ints: 3
      type: INTS
    }
    attribute {
      name: "pads"
      ints: 1
      ints: 1
      ints: 1
      ints: 1
      type: INTS
    }
    attribute {
      name: "strides"
      ints: 1
      ints: 1
      type: INTS
    }
  }
  node {
    input: "stage3_unit24_conv2"
    input: "stage3_unit24_bn3_gamma"
    input: "stage3_unit24_bn3_beta"
    input: "stage3_unit24_bn3_moving_mean"
    input: "stage3_unit24_bn3_moving_var"
    output: "stage3_unit24_bn3"
    name: "stage3_unit24_bn3"
    op_type: "BatchNormalization"
    attribute {
      name: "epsilon"
      f: 2e-05
      type: FLOAT
    }
    attribute {
      name: "momentum"
      f: 0.9
      type: FLOAT
    }
    attribute {
      name: "spatial"
      i: 1
      type: INT
    }
  }
  node {
    input: "stage3_unit24_bn3"
    input: "_plus38"
    output: "_plus39"
    name: "_plus39"
    op_type: "Add"
  }
  node {
    input: "_plus39"
    input: "stage3_unit25_bn1_gamma"
    input: "stage3_unit25_bn1_beta"
    input: "stage3_unit25_bn1_moving_mean"
    input: "stage3_unit25_bn1_moving_var"
    output: "stage3_unit25_bn1"
    name: "stage3_unit25_bn1"
    op_type: "BatchNormalization"
    attribute {
      name: "epsilon"
      f: 2e-05
      type: FLOAT
    }
    attribute {
      name: "momentum"
      f: 0.9
      type: FLOAT
    }
    attribute {
      name: "spatial"
      i: 1
      type: INT
    }
  }
  node {
    input: "stage3_unit25_bn1"
    input: "stage3_unit25_conv1_weight"
    output: "stage3_unit25_conv1"
    name: "stage3_unit25_conv1"
    op_type: "Conv"
    attribute {
      name: "dilations"
      ints: 1
      ints: 1
      type: INTS
    }
    attribute {
      name: "group"
      i: 1
      type: INT
    }
    attribute {
      name: "kernel_shape"
      ints: 3
      ints: 3
      type: INTS
    }
    attribute {
      name: "pads"
      ints: 1
      ints: 1
      ints: 1
      ints: 1
      type: INTS
    }
    attribute {
      name: "strides"
      ints: 1
      ints: 1
      type: INTS
    }
  }
  node {
    input: "stage3_unit25_conv1"
    input: "stage3_unit25_bn2_gamma"
    input: "stage3_unit25_bn2_beta"
    input: "stage3_unit25_bn2_moving_mean"
    input: "stage3_unit25_bn2_moving_var"
    output: "stage3_unit25_bn2"
    name: "stage3_unit25_bn2"
    op_type: "BatchNormalization"
    attribute {
      name: "epsilon"
      f: 2e-05
      type: FLOAT
    }
    attribute {
      name: "momentum"
      f: 0.9
      type: FLOAT
    }
    attribute {
      name: "spatial"
      i: 1
      type: INT
    }
  }
  node {
    input: "stage3_unit25_relu1_gamma"
    input: "reshape927"
    output: "slope927"
    name: "slope927"
    op_type: "Reshape"
  }
  node {
    input: "stage3_unit25_bn2"
    input: "slope927"
    output: "stage3_unit25_relu1"
    name: "stage3_unit25_relu1"
    op_type: "PRelu"
  }
  node {
    input: "stage3_unit25_relu1"
    input: "stage3_unit25_conv2_weight"
    output: "stage3_unit25_conv2"
    name: "stage3_unit25_conv2"
    op_type: "Conv"
    attribute {
      name: "dilations"
      ints: 1
      ints: 1
      type: INTS
    }
    attribute {
      name: "group"
      i: 1
      type: INT
    }
    attribute {
      name: "kernel_shape"
      ints: 3
      ints: 3
      type: INTS
    }
    attribute {
      name: "pads"
      ints: 1
      ints: 1
      ints: 1
      ints: 1
      type: INTS
    }
    attribute {
      name: "strides"
      ints: 1
      ints: 1
      type: INTS
    }
  }
  node {
    input: "stage3_unit25_conv2"
    input: "stage3_unit25_bn3_gamma"
    input: "stage3_unit25_bn3_beta"
    input: "stage3_unit25_bn3_moving_mean"
    input: "stage3_unit25_bn3_moving_var"
    output: "stage3_unit25_bn3"
    name: "stage3_unit25_bn3"
    op_type: "BatchNormalization"
    attribute {
      name: "epsilon"
      f: 2e-05
      type: FLOAT
    }
    attribute {
      name: "momentum"
      f: 0.9
      type: FLOAT
    }
    attribute {
      name: "spatial"
      i: 1
      type: INT
    }
  }
  node {
    input: "stage3_unit25_bn3"
    input: "_plus39"
    output: "_plus40"
    name: "_plus40"
    op_type: "Add"
  }
  node {
    input: "_plus40"
    input: "stage3_unit26_bn1_gamma"
    input: "stage3_unit26_bn1_beta"
    input: "stage3_unit26_bn1_moving_mean"
    input: "stage3_unit26_bn1_moving_var"
    output: "stage3_unit26_bn1"
    name: "stage3_unit26_bn1"
    op_type: "BatchNormalization"
    attribute {
      name: "epsilon"
      f: 2e-05
      type: FLOAT
    }
    attribute {
      name: "momentum"
      f: 0.9
      type: FLOAT
    }
    attribute {
      name: "spatial"
      i: 1
      type: INT
    }
  }
  node {
    input: "stage3_unit26_bn1"
    input: "stage3_unit26_conv1_weight"
    output: "stage3_unit26_conv1"
    name: "stage3_unit26_conv1"
    op_type: "Conv"
    attribute {
      name: "dilations"
      ints: 1
      ints: 1
      type: INTS
    }
    attribute {
      name: "group"
      i: 1
      type: INT
    }
    attribute {
      name: "kernel_shape"
      ints: 3
      ints: 3
      type: INTS
    }
    attribute {
      name: "pads"
      ints: 1
      ints: 1
      ints: 1
      ints: 1
      type: INTS
    }
    attribute {
      name: "strides"
      ints: 1
      ints: 1
      type: INTS
    }
  }
  node {
    input: "stage3_unit26_conv1"
    input: "stage3_unit26_bn2_gamma"
    input: "stage3_unit26_bn2_beta"
    input: "stage3_unit26_bn2_moving_mean"
    input: "stage3_unit26_bn2_moving_var"
    output: "stage3_unit26_bn2"
    name: "stage3_unit26_bn2"
    op_type: "BatchNormalization"
    attribute {
      name: "epsilon"
      f: 2e-05
      type: FLOAT
    }
    attribute {
      name: "momentum"
      f: 0.9
      type: FLOAT
    }
    attribute {
      name: "spatial"
      i: 1
      type: INT
    }
  }
  node {
    input: "stage3_unit26_relu1_gamma"
    input: "reshape949"
    output: "slope949"
    name: "slope949"
    op_type: "Reshape"
  }
  node {
    input: "stage3_unit26_bn2"
    input: "slope949"
    output: "stage3_unit26_relu1"
    name: "stage3_unit26_relu1"
    op_type: "PRelu"
  }
  node {
    input: "stage3_unit26_relu1"
    input: "stage3_unit26_conv2_weight"
    output: "stage3_unit26_conv2"
    name: "stage3_unit26_conv2"
    op_type: "Conv"
    attribute {
      name: "dilations"
      ints: 1
      ints: 1
      type: INTS
    }
    attribute {
      name: "group"
      i: 1
      type: INT
    }
    attribute {
      name: "kernel_shape"
      ints: 3
      ints: 3
      type: INTS
    }
    attribute {
      name: "pads"
      ints: 1
      ints: 1
      ints: 1
      ints: 1
      type: INTS
    }
    attribute {
      name: "strides"
      ints: 1
      ints: 1
      type: INTS
    }
  }
  node {
    input: "stage3_unit26_conv2"
    input: "stage3_unit26_bn3_gamma"
    input: "stage3_unit26_bn3_beta"
    input: "stage3_unit26_bn3_moving_mean"
    input: "stage3_unit26_bn3_moving_var"
    output: "stage3_unit26_bn3"
    name: "stage3_unit26_bn3"
    op_type: "BatchNormalization"
    attribute {
      name: "epsilon"
      f: 2e-05
      type: FLOAT
    }
    attribute {
      name: "momentum"
      f: 0.9
      type: FLOAT
    }
    attribute {
      name: "spatial"
      i: 1
      type: INT
    }
  }
  node {
    input: "stage3_unit26_bn3"
    input: "_plus40"
    output: "_plus41"
    name: "_plus41"
    op_type: "Add"
  }
  node {
    input: "_plus41"
    input: "stage3_unit27_bn1_gamma"
    input: "stage3_unit27_bn1_beta"
    input: "stage3_unit27_bn1_moving_mean"
    input: "stage3_unit27_bn1_moving_var"
    output: "stage3_unit27_bn1"
    name: "stage3_unit27_bn1"
    op_type: "BatchNormalization"
    attribute {
      name: "epsilon"
      f: 2e-05
      type: FLOAT
    }
    attribute {
      name: "momentum"
      f: 0.9
      type: FLOAT
    }
    attribute {
      name: "spatial"
      i: 1
      type: INT
    }
  }
  node {
    input: "stage3_unit27_bn1"
    input: "stage3_unit27_conv1_weight"
    output: "stage3_unit27_conv1"
    name: "stage3_unit27_conv1"
    op_type: "Conv"
    attribute {
      name: "dilations"
      ints: 1
      ints: 1
      type: INTS
    }
    attribute {
      name: "group"
      i: 1
      type: INT
    }
    attribute {
      name: "kernel_shape"
      ints: 3
      ints: 3
      type: INTS
    }
    attribute {
      name: "pads"
      ints: 1
      ints: 1
      ints: 1
      ints: 1
      type: INTS
    }
    attribute {
      name: "strides"
      ints: 1
      ints: 1
      type: INTS
    }
  }
  node {
    input: "stage3_unit27_conv1"
    input: "stage3_unit27_bn2_gamma"
    input: "stage3_unit27_bn2_beta"
    input: "stage3_unit27_bn2_moving_mean"
    input: "stage3_unit27_bn2_moving_var"
    output: "stage3_unit27_bn2"
    name: "stage3_unit27_bn2"
    op_type: "BatchNormalization"
    attribute {
      name: "epsilon"
      f: 2e-05
      type: FLOAT
    }
    attribute {
      name: "momentum"
      f: 0.9
      type: FLOAT
    }
    attribute {
      name: "spatial"
      i: 1
      type: INT
    }
  }
  node {
    input: "stage3_unit27_relu1_gamma"
    input: "reshape971"
    output: "slope971"
    name: "slope971"
    op_type: "Reshape"
  }
  node {
    input: "stage3_unit27_bn2"
    input: "slope971"
    output: "stage3_unit27_relu1"
    name: "stage3_unit27_relu1"
    op_type: "PRelu"
  }
  node {
    input: "stage3_unit27_relu1"
    input: "stage3_unit27_conv2_weight"
    output: "stage3_unit27_conv2"
    name: "stage3_unit27_conv2"
    op_type: "Conv"
    attribute {
      name: "dilations"
      ints: 1
      ints: 1
      type: INTS
    }
    attribute {
      name: "group"
      i: 1
      type: INT
    }
    attribute {
      name: "kernel_shape"
      ints: 3
      ints: 3
      type: INTS
    }
    attribute {
      name: "pads"
      ints: 1
      ints: 1
      ints: 1
      ints: 1
      type: INTS
    }
    attribute {
      name: "strides"
      ints: 1
      ints: 1
      type: INTS
    }
  }
  node {
    input: "stage3_unit27_conv2"
    input: "stage3_unit27_bn3_gamma"
    input: "stage3_unit27_bn3_beta"
    input: "stage3_unit27_bn3_moving_mean"
    input: "stage3_unit27_bn3_moving_var"
    output: "stage3_unit27_bn3"
    name: "stage3_unit27_bn3"
    op_type: "BatchNormalization"
    attribute {
      name: "epsilon"
      f: 2e-05
      type: FLOAT
    }
    attribute {
      name: "momentum"
      f: 0.9
      type: FLOAT
    }
    attribute {
      name: "spatial"
      i: 1
      type: INT
    }
  }
  node {
    input: "stage3_unit27_bn3"
    input: "_plus41"
    output: "_plus42"
    name: "_plus42"
    op_type: "Add"
  }
  node {
    input: "_plus42"
    input: "stage3_unit28_bn1_gamma"
    input: "stage3_unit28_bn1_beta"
    input: "stage3_unit28_bn1_moving_mean"
    input: "stage3_unit28_bn1_moving_var"
    output: "stage3_unit28_bn1"
    name: "stage3_unit28_bn1"
    op_type: "BatchNormalization"
    attribute {
      name: "epsilon"
      f: 2e-05
      type: FLOAT
    }
    attribute {
      name: "momentum"
      f: 0.9
      type: FLOAT
    }
    attribute {
      name: "spatial"
      i: 1
      type: INT
    }
  }
  node {
    input: "stage3_unit28_bn1"
    input: "stage3_unit28_conv1_weight"
    output: "stage3_unit28_conv1"
    name: "stage3_unit28_conv1"
    op_type: "Conv"
    attribute {
      name: "dilations"
      ints: 1
      ints: 1
      type: INTS
    }
    attribute {
      name: "group"
      i: 1
      type: INT
    }
    attribute {
      name: "kernel_shape"
      ints: 3
      ints: 3
      type: INTS
    }
    attribute {
      name: "pads"
      ints: 1
      ints: 1
      ints: 1
      ints: 1
      type: INTS
    }
    attribute {
      name: "strides"
      ints: 1
      ints: 1
      type: INTS
    }
  }
  node {
    input: "stage3_unit28_conv1"
    input: "stage3_unit28_bn2_gamma"
    input: "stage3_unit28_bn2_beta"
    input: "stage3_unit28_bn2_moving_mean"
    input: "stage3_unit28_bn2_moving_var"
    output: "stage3_unit28_bn2"
    name: "stage3_unit28_bn2"
    op_type: "BatchNormalization"
    attribute {
      name: "epsilon"
      f: 2e-05
      type: FLOAT
    }
    attribute {
      name: "momentum"
      f: 0.9
      type: FLOAT
    }
    attribute {
      name: "spatial"
      i: 1
      type: INT
    }
  }
  node {
    input: "stage3_unit28_relu1_gamma"
    input: "reshape993"
    output: "slope993"
    name: "slope993"
    op_type: "Reshape"
  }
  node {
    input: "stage3_unit28_bn2"
    input: "slope993"
    output: "stage3_unit28_relu1"
    name: "stage3_unit28_relu1"
    op_type: "PRelu"
  }
  node {
    input: "stage3_unit28_relu1"
    input: "stage3_unit28_conv2_weight"
    output: "stage3_unit28_conv2"
    name: "stage3_unit28_conv2"
    op_type: "Conv"
    attribute {
      name: "dilations"
      ints: 1
      ints: 1
      type: INTS
    }
    attribute {
      name: "group"
      i: 1
      type: INT
    }
    attribute {
      name: "kernel_shape"
      ints: 3
      ints: 3
      type: INTS
    }
    attribute {
      name: "pads"
      ints: 1
      ints: 1
      ints: 1
      ints: 1
      type: INTS
    }
    attribute {
      name: "strides"
      ints: 1
      ints: 1
      type: INTS
    }
  }
  node {
    input: "stage3_unit28_conv2"
    input: "stage3_unit28_bn3_gamma"
    input: "stage3_unit28_bn3_beta"
    input: "stage3_unit28_bn3_moving_mean"
    input: "stage3_unit28_bn3_moving_var"
    output: "stage3_unit28_bn3"
    name: "stage3_unit28_bn3"
    op_type: "BatchNormalization"
    attribute {
      name: "epsilon"
      f: 2e-05
      type: FLOAT
    }
    attribute {
      name: "momentum"
      f: 0.9
      type: FLOAT
    }
    attribute {
      name: "spatial"
      i: 1
      type: INT
    }
  }
  node {
    input: "stage3_unit28_bn3"
    input: "_plus42"
    output: "_plus43"
    name: "_plus43"
    op_type: "Add"
  }
  node {
    input: "_plus43"
    input: "stage3_unit29_bn1_gamma"
    input: "stage3_unit29_bn1_beta"
    input: "stage3_unit29_bn1_moving_mean"
    input: "stage3_unit29_bn1_moving_var"
    output: "stage3_unit29_bn1"
    name: "stage3_unit29_bn1"
    op_type: "BatchNormalization"
    attribute {
      name: "epsilon"
      f: 2e-05
      type: FLOAT
    }
    attribute {
      name: "momentum"
      f: 0.9
      type: FLOAT
    }
    attribute {
      name: "spatial"
      i: 1
      type: INT
    }
  }
  node {
    input: "stage3_unit29_bn1"
    input: "stage3_unit29_conv1_weight"
    output: "stage3_unit29_conv1"
    name: "stage3_unit29_conv1"
    op_type: "Conv"
    attribute {
      name: "dilations"
      ints: 1
      ints: 1
      type: INTS
    }
    attribute {
      name: "group"
      i: 1
      type: INT
    }
    attribute {
      name: "kernel_shape"
      ints: 3
      ints: 3
      type: INTS
    }
    attribute {
      name: "pads"
      ints: 1
      ints: 1
      ints: 1
      ints: 1
      type: INTS
    }
    attribute {
      name: "strides"
      ints: 1
      ints: 1
      type: INTS
    }
  }
  node {
    input: "stage3_unit29_conv1"
    input: "stage3_unit29_bn2_gamma"
    input: "stage3_unit29_bn2_beta"
    input: "stage3_unit29_bn2_moving_mean"
    input: "stage3_unit29_bn2_moving_var"
    output: "stage3_unit29_bn2"
    name: "stage3_unit29_bn2"
    op_type: "BatchNormalization"
    attribute {
      name: "epsilon"
      f: 2e-05
      type: FLOAT
    }
    attribute {
      name: "momentum"
      f: 0.9
      type: FLOAT
    }
    attribute {
      name: "spatial"
      i: 1
      type: INT
    }
  }
  node {
    input: "stage3_unit29_relu1_gamma"
    input: "reshape1015"
    output: "slope1015"
    name: "slope1015"
    op_type: "Reshape"
  }
  node {
    input: "stage3_unit29_bn2"
    input: "slope1015"
    output: "stage3_unit29_relu1"
    name: "stage3_unit29_relu1"
    op_type: "PRelu"
  }
  node {
    input: "stage3_unit29_relu1"
    input: "stage3_unit29_conv2_weight"
    output: "stage3_unit29_conv2"
    name: "stage3_unit29_conv2"
    op_type: "Conv"
    attribute {
      name: "dilations"
      ints: 1
      ints: 1
      type: INTS
    }
    attribute {
      name: "group"
      i: 1
      type: INT
    }
    attribute {
      name: "kernel_shape"
      ints: 3
      ints: 3
      type: INTS
    }
    attribute {
      name: "pads"
      ints: 1
      ints: 1
      ints: 1
      ints: 1
      type: INTS
    }
    attribute {
      name: "strides"
      ints: 1
      ints: 1
      type: INTS
    }
  }
  node {
    input: "stage3_unit29_conv2"
    input: "stage3_unit29_bn3_gamma"
    input: "stage3_unit29_bn3_beta"
    input: "stage3_unit29_bn3_moving_mean"
    input: "stage3_unit29_bn3_moving_var"
    output: "stage3_unit29_bn3"
    name: "stage3_unit29_bn3"
    op_type: "BatchNormalization"
    attribute {
      name: "epsilon"
      f: 2e-05
      type: FLOAT
    }
    attribute {
      name: "momentum"
      f: 0.9
      type: FLOAT
    }
    attribute {
      name: "spatial"
      i: 1
      type: INT
    }
  }
  node {
    input: "stage3_unit29_bn3"
    input: "_plus43"
    output: "_plus44"
    name: "_plus44"
    op_type: "Add"
  }
…
          dim {
            dim_value: 4
          }
        }
      }
    }
  }
  input {
    name: "stage3_unit20_conv2_weight"
    type {
      tensor_type {
        elem_type: 1
        shape {
          dim {
            dim_value: 256
          }
          dim {
            dim_value: 256
          }
          dim {
            dim_value: 3
          }
          dim {
            dim_value: 3
          }
        }
      }
    }
  }
  input {
    name: "stage3_unit20_bn3_gamma"
    type {
      tensor_type {
        elem_type: 1
        shape {
          dim {
            dim_value: 256
          }
        }
      }
    }
  }
  input {
    name: "stage3_unit20_bn3_beta"
    type {
      tensor_type {
        elem_type: 1
        shape {
          dim {
            dim_value: 256
          }
        }
      }
    }
  }
  input {
    name: "stage3_unit20_bn3_moving_mean"
    type {
      tensor_type {
        elem_type: 1
        shape {
          dim {
            dim_value: 256
          }
        }
      }
    }
  }
  input {
    name: "stage3_unit20_bn3_moving_var"
    type {
      tensor_type {
        elem_type: 1
        shape {
          dim {
            dim_value: 256
          }
        }
      }
    }
  }
  input {
    name: "stage3_unit21_bn1_gamma"
    type {
      tensor_type {
        elem_type: 1
        shape {
          dim {
            dim_value: 256
          }
        }
      }
    }
  }
  input {
    name: "stage3_unit21_bn1_beta"
    type {
      tensor_type {
        elem_type: 1
        shape {
          dim {
            dim_value: 256
          }
        }
      }
    }
  }
  input {
    name: "stage3_unit21_bn1_moving_mean"
    type {
      tensor_type {
        elem_type: 1
        shape {
          dim {
            dim_value: 256
          }
        }
      }
    }
  }
  input {
    name: "stage3_unit21_bn1_moving_var"
    type {
      tensor_type {
        elem_type: 1
        shape {
          dim {
            dim_value: 256
          }
        }
      }
    }
  }
  input {
    name: "stage3_unit21_conv1_weight"
    type {
      tensor_type {
        elem_type: 1
        shape {
          dim {
            dim_value: 256
          }
          dim {
            dim_value: 256
          }
          dim {
            dim_value: 3
          }
          dim {
            dim_value: 3
          }
        }
      }
    }
  }
  input {
    name: "stage3_unit21_bn2_gamma"
    type {
      tensor_type {
        elem_type: 1
        shape {
          dim {
            dim_value: 256
          }
        }
      }
    }
  }
  input {
    name: "stage3_unit21_bn2_beta"
    type {
      tensor_type {
        elem_type: 1
        shape {
          dim {
            dim_value: 256
          }
        }
      }
    }
  }
  input {
    name: "stage3_unit21_bn2_moving_mean"
    type {
      tensor_type {
        elem_type: 1
        shape {
          dim {
            dim_value: 256
          }
        }
      }
    }
  }
  input {
    name: "stage3_unit21_bn2_moving_var"
    type {
      tensor_type {
        elem_type: 1
        shape {
          dim {
            dim_value: 256
          }
        }
      }
    }
  }
  input {
    name: "stage3_unit21_relu1_gamma"
    type {
      tensor_type {
        elem_type: 1
        shape {
          dim {
            dim_value: 256
          }
        }
      }
    }
  }
  input {
    name: "reshape839"
    type {
      tensor_type {
        elem_type: 7
        shape {
          dim {
            dim_value: 4
          }
        }
      }
    }
  }
  input {
    name: "stage3_unit21_conv2_weight"
    type {
      tensor_type {
        elem_type: 1
        shape {
          dim {
            dim_value: 256
          }
          dim {
            dim_value: 256
          }
          dim {
            dim_value: 3
          }
          dim {
            dim_value: 3
          }
        }
      }
    }
  }
  input {
    name: "stage3_unit21_bn3_gamma"
    type {
      tensor_type {
        elem_type: 1
        shape {
          dim {
            dim_value: 256
          }
        }
      }
    }
  }
  input {
    name: "stage3_unit21_bn3_beta"
    type {
      tensor_type {
        elem_type: 1
        shape {
          dim {
            dim_value: 256
          }
        }
      }
    }
  }
  input {
    name: "stage3_unit21_bn3_moving_mean"
    type {
      tensor_type {
        elem_type: 1
        shape {
          dim {
            dim_value: 256
          }
        }
      }
    }
  }
  input {
    name: "stage3_unit21_bn3_moving_var"
    type {
      tensor_type {
        elem_type: 1
        shape {
          dim {
            dim_value: 256
          }
        }
      }
    }
  }
  input {
    name: "stage3_unit22_bn1_gamma"
    type {
      tensor_type {
        elem_type: 1
        shape {
          dim {
            dim_value: 256
          }
        }
      }
    }
  }
  input {
    name: "stage3_unit22_bn1_beta"
    type {
      tensor_type {
        elem_type: 1
        shape {
          dim {
            dim_value: 256
          }
        }
      }
    }
  }
  input {
    name: "stage3_unit22_bn1_moving_mean"
    type {
      tensor_type {
        elem_type: 1
        shape {
          dim {
            dim_value: 256
          }
        }
      }
    }
  }
  input {
    name: "stage3_unit22_bn1_moving_var"
    type {
      tensor_type {
        elem_type: 1
        shape {
          dim {
            dim_value: 256
          }
        }
      }
    }
  }
  input {
    name: "stage3_unit22_conv1_weight"
    type {
      tensor_type {
        elem_type: 1
        shape {
          dim {
            dim_value: 256
          }
          dim {
            dim_value: 256
          }
          dim {
            dim_value: 3
          }
          dim {
            dim_value: 3
          }
        }
      }
    }
  }
  input {
    name: "stage3_unit22_bn2_gamma"
    type {
      tensor_type {
        elem_type: 1
        shape {
          dim {
            dim_value: 256
          }
        }
      }
    }
  }
  input {
    name: "stage3_unit22_bn2_beta"
    type {
      tensor_type {
        elem_type: 1
        shape {
          dim {
            dim_value: 256
          }
        }
      }
    }
  }
  input {
    name: "stage3_unit22_bn2_moving_mean"
    type {
      tensor_type {
        elem_type: 1
        shape {
          dim {
            dim_value: 256
          }
        }
      }
    }
  }
  input {
    name: "stage3_unit22_bn2_moving_var"
    type {
      tensor_type {
        elem_type: 1
        shape {
          dim {
            dim_value: 256
          }
        }
      }
    }
  }
  input {
    name: "stage3_unit22_relu1_gamma"
    type {
      tensor_type {
        elem_type: 1
        shape {
          dim {
            dim_value: 256
          }
        }
      }
    }
  }
  input {
    name: "reshape861"
    type {
      tensor_type {
        elem_type: 7
        shape {
          dim {
            dim_value: 4
          }
        }
      }
    }
  }
  input {
    name: "stage3_unit22_conv2_weight"
    type {
      tensor_type {
        elem_type: 1
        shape {
          dim {
            dim_value: 256
          }
          dim {
            dim_value: 256
          }
          dim {
            dim_value: 3
          }
          dim {
            dim_value: 3
          }
        }
      }
    }
  }
  input {
    name: "stage3_unit22_bn3_gamma"
    type {
      tensor_type {
        elem_type: 1
        shape {
          dim {
            dim_value: 256
          }
        }
      }
    }
  }
  input {
    name: "stage3_unit22_bn3_beta"
    type {
      tensor_type {
        elem_type: 1
        shape {
          dim {
            dim_value: 256
          }
        }
      }
    }
  }
  input {
    name: "stage3_unit22_bn3_moving_mean"
    type {
      tensor_type {
        elem_type: 1
        shape {
          dim {
            dim_value: 256
          }
        }
      }
    }
  }
  input {
    name: "stage3_unit22_bn3_moving_var"
    type {
      tensor_type {
        elem_type: 1
        shape {
          dim {
            dim_value: 256
          }
        }
      }
    }
  }
  input {
    name: "stage3_unit23_bn1_gamma"
    type {
      tensor_type {
        elem_type: 1
        shape {
          dim {
            dim_value: 256
          }
        }
      }
    }
  }
  input {
    name: "stage3_unit23_bn1_beta"
    type {
      tensor_type {
        elem_type: 1
        shape {
          dim {
            dim_value: 256
          }
        }
      }
    }
  }
  input {
    name: "stage3_unit23_bn1_moving_mean"
    type {
      tensor_type {
        elem_type: 1
        shape {
          dim {
            dim_value: 256
          }
        }
      }
    }
  }
  input {
    name: "stage3_unit23_bn1_moving_var"
    type {
      tensor_type {
        elem_type: 1
        shape {
          dim {
            dim_value: 256
          }
        }
      }
    }
  }
  input {
    name: "stage3_unit23_conv1_weight"
    type {
      tensor_type {
        elem_type: 1
        shape {
          dim {
            dim_value: 256
          }
          dim {
            dim_value: 256
          }
          dim {
            dim_value: 3
          }
          dim {
            dim_value: 3
          }
        }
      }
    }
  }
  input {
    name: "stage3_unit23_bn2_gamma"
    type {
      tensor_type {
        elem_type: 1
        shape {
          dim {
            dim_value: 256
          }
        }
      }
    }
  }
  input {
    name: "stage3_unit23_bn2_beta"
    type {
      tensor_type {
        elem_type: 1
        shape {
          dim {
            dim_value: 256
          }
        }
      }
    }
  }
  input {
    name: "stage3_unit23_bn2_moving_mean"
    type {
      tensor_type {
        elem_type: 1
        shape {
          dim {
            dim_value: 256
          }
        }
      }
    }
  }
  input {
    name: "stage3_unit23_bn2_moving_var"
    type {
      tensor_type {
        elem_type: 1
        shape {
          dim {
            dim_value: 256
          }
        }
      }
    }
  }
  input {
    name: "stage3_unit23_relu1_gamma"
    type {
      tensor_type {
        elem_type: 1
        shape {
          dim {
            dim_value: 256
          }
        }
      }
    }
  }
  input {
    name: "reshape883"
    type {
      tensor_type {
        elem_type: 7
        shape {
          dim {
            dim_value: 4
          }
        }
      }
    }
  }
  input {
    name: "stage3_unit23_conv2_weight"
    type {
      tensor_type {
        elem_type: 1
        shape {
          dim {
            dim_value: 256
          }
          dim {
            dim_value: 256
          }
          dim {
            dim_value: 3
          }
          dim {
            dim_value: 3
          }
        }
      }
    }
  }
  input {
    name: "stage3_unit23_bn3_gamma"
    type {
      tensor_type {
        elem_type: 1
        shape {
          dim {
            dim_value: 256
          }
        }
      }
    }
  }
  input {
    name: "stage3_unit23_bn3_beta"
    type {
      tensor_type {
        elem_type: 1
        shape {
          dim {
            dim_value: 256
          }
        }
      }
    }
  }
  input {
    name: "stage3_unit23_bn3_moving_mean"
    type {
      tensor_type {
        elem_type: 1
        shape {
          dim {
            dim_value: 256
          }
        }
      }
    }
  }
  input {
    name: "stage3_unit23_bn3_moving_var"
    type {
      tensor_type {
        elem_type: 1
        shape {
          dim {
            dim_value: 256
          }
        }
      }
    }
  }
  input {
    name: "stage3_unit24_bn1_gamma"
    type {
      tensor_type {
        elem_type: 1
        shape {
          dim {
            dim_value: 256
          }
        }
      }
    }
  }
  input {
    name: "stage3_unit24_bn1_beta"
    type {
      tensor_type {
        elem_type: 1
        shape {
          dim {
            dim_value: 256
          }
        }
      }
    }
  }
  input {
    name: "stage3_unit24_bn1_moving_mean"
    type {
      tensor_type {
        elem_type: 1
        shape {
          dim {
            dim_value: 256
          }
        }
      }
    }
  }
  input {
    name: "stage3_unit24_bn1_moving_var"
    type {
      tensor_type {
        elem_type: 1
        shape {
          dim {
            dim_value: 256
          }
        }
      }
    }
  }
  input {
    name: "stage3_unit24_conv1_weight"
    type {
      tensor_type {
        elem_type: 1
        shape {
          dim {
            dim_value: 256
          }
          dim {
            dim_value: 256
          }
          dim {
            dim_value: 3
          }
          dim {
            dim_value: 3
          }
        }
      }
    }
  }
  input {
    name: "stage3_unit24_bn2_gamma"
    type {
      tensor_type {
        elem_type: 1
        shape {
          dim {
            dim_value: 256
          }
        }
      }
    }
  }
  input {
    name: "stage3_unit24_bn2_beta"
    type {
      tensor_type {
        elem_type: 1
        shape {
          dim {
            dim_value: 256
          }
        }
      }
    }
  }
  input {
    name: "stage3_unit24_bn2_moving_mean"
    type {
      tensor_type {
        elem_type: 1
        shape {
          dim {
            dim_value: 256
          }
        }
      }
    }
  }
  input {
    name: "stage3_unit24_bn2_moving_var"
    type {
      tensor_type {
        elem_type: 1
        shape {
          dim {
            dim_value: 256
          }
        }
      }
    }
  }
  input {
    name: "stage3_unit24_relu1_gamma"
    type {
      tensor_type {
        elem_type: 1
        shape {
          dim {
            dim_value: 256
          }
        }
      }
    }
  }
  input {
    name: "reshape905"
    type {
      tensor_type {
        elem_type: 7
        shape {
          dim {
            dim_value: 4
          }
        }
      }
    }
  }
  input {
    name: "stage3_unit24_conv2_weight"
    type {
      tensor_type {
        elem_type: 1
        shape {
          dim {
            dim_value: 256
          }
          dim {
            dim_value: 256
          }
          dim {
            dim_value: 3
          }
          dim {
            dim_value: 3
          }
        }
      }
    }
  }
  input {
    name: "stage3_unit24_bn3_gamma"
    type {
      tensor_type {
        elem_type: 1
        shape {
          dim {
            dim_value: 256
          }
        }
      }
    }
  }
  input {
    name: "stage3_unit24_bn3_beta"
    type {
      tensor_type {
        elem_type: 1
        shape {
          dim {
            dim_value: 256
          }
        }
      }
    }
  }
  input {
    name: "stage3_unit24_bn3_moving_mean"
    type {
      tensor_type {
        elem_type: 1
        shape {
          dim {
            dim_value: 256
          }
        }
      }
    }
  }
  input {
    name: "stage3_unit24_bn3_moving_var"
    type {
      tensor_type {
        elem_type: 1
        shape {
          dim {
            dim_value: 256
          }
        }
      }
    }
  }
  input {
    name: "stage3_unit25_bn1_gamma"
    type {
      tensor_type {
        elem_type: 1
        shape {
          dim {
            dim_value: 256
          }
        }
      }
    }
  }
  input {
    name: "stage3_unit25_bn1_beta"
    type {
      tensor_type {
        elem_type: 1
        shape {
          dim {
            dim_value: 256
          }
        }
      }
    }
  }
  input {
    name: "stage3_unit25_bn1_moving_mean"
    type {
      tensor_type {
        elem_type: 1
        shape {
          dim {
            dim_value: 256
          }
        }
      }
    }
  }
  input {
    name: "stage3_unit25_bn1_moving_var"
    type {
      tensor_type {
        elem_type: 1
        shape {
          dim {
            dim_value: 256
          }
        }
      }
    }
  }
  input {
    name: "stage3_unit25_conv1_weight"
    type {
      tensor_type {
        elem_type: 1
        shape {
          dim {
            dim_value: 256
          }
          dim {
            dim_value: 256
          }
          dim {
            dim_value: 3
          }
          dim {
            dim_value: 3
          }
        }
      }
    }
  }
  input {
    name: "stage3_unit25_bn2_gamma"
    type {
      tensor_type {
        elem_type: 1
        shape {
          dim {
            dim_value: 256
          }
        }
      }
    }
  }
  input {
    name: "stage3_unit25_bn2_beta"
    type {
      tensor_type {
        elem_type: 1
        shape {
          dim {
            dim_value: 256
          }
        }
      }
    }
  }
  input {
    name: "stage3_unit25_bn2_moving_mean"
    type {
      tensor_type {
        elem_type: 1
        shape {
          dim {
            dim_value: 256
          }
        }
      }
    }
  }
  input {
    name: "stage3_unit25_bn2_moving_var"
    type {
      tensor_type {
        elem_type: 1
        shape {
          dim {
            dim_value: 256
          }
        }
      }
    }
  }
  input {
    name: "stage3_unit25_relu1_gamma"
    type {
      tensor_type {
        elem_type: 1
        shape {
          dim {
            dim_value: 256
          }
        }
      }
    }
  }
  input {
    name: "reshape927"
    type {
      tensor_type {
        elem_type: 7
        shape {
          dim {
            dim_value: 4
          }
        }
      }
    }
  }
  input {
    name: "stage3_unit25_conv2_weight"
    type {
      tensor_type {
        elem_type: 1
        shape {
          dim {
            dim_value: 256
          }
          dim {
            dim_value: 256
          }
          dim {
            dim_value: 3
          }
          dim {
            dim_value: 3
          }
        }
      }
    }
  }
  input {
    name: "stage3_unit25_bn3_gamma"
    type {
      tensor_type {
        elem_type: 1
        shape {
          dim {
            dim_value: 256
          }
        }
      }
    }
  }
  input {
    name: "stage3_unit25_bn3_beta"
    type {
      tensor_type {
        elem_type: 1
        shape {
          dim {
            dim_value: 256
          }
        }
      }
    }
  }
  input {
    name: "stage3_unit25_bn3_moving_mean"
    type {
      tensor_type {
        elem_type: 1
        shape {
          dim {
            dim_value: 256
          }
        }
      }
    }
  }
  input {
    name: "stage3_unit25_bn3_moving_var"
    type {
      tensor_type {
        elem_type: 1
        shape {
          dim {
            dim_value: 256
          }
        }
      }
    }
  }
  input {
    name: "stage3_unit26_bn1_gamma"
    type {
      tensor_type {
        elem_type: 1
        shape {
          dim {
            dim_value: 256
          }
        }
      }
    }
  }
  input {
    name: "stage3_unit26_bn1_beta"
    type {
      tensor_type {
        elem_type: 1
        shape {
          dim {
            dim_value: 256
          }
        }
      }
    }
  }
  input {
    name: "stage3_unit26_bn1_moving_mean"
    type {
      tensor_type {
        elem_type: 1
        shape {
          dim {
            dim_value: 256
          }
        }
      }
    }
  }
  input {
    name: "stage3_unit26_bn1_moving_var"
    type {
      tensor_type {
        elem_type: 1
        shape {
          dim {
            dim_value: 256
          }
        }
      }
    }
  }
  input {
    name: "stage3_unit26_conv1_weight"
    type {
      tensor_type {
        elem_type: 1
        shape {
          dim {
            dim_value: 256
          }
          dim {
            dim_value: 256
          }
          dim {
            dim_value: 3
          }
          dim {
            dim_value: 3
          }
        }
      }
    }
  }
  input {
    name: "stage3_unit26_bn2_gamma"
    type {
      tensor_type {
        elem_type: 1
        shape {
          dim {
            dim_value: 256
          }
        }
      }
    }
  }
  input {
    name: "stage3_unit26_bn2_beta"
    type {
      tensor_type {
        elem_type: 1
        shape {
          dim {
            dim_value: 256
          }
        }
      }
    }
  }
  input {
    name: "stage3_unit26_bn2_moving_mean"
    type {
      tensor_type {
        elem_type: 1
        shape {
          dim {
            dim_value: 256
          }
        }
      }
    }
  }
  input {
    name: "stage3_unit26_bn2_moving_var"
    type {
      tensor_type {
        elem_type: 1
        shape {
          dim {
            dim_value: 256
          }
        }
      }
    }
  }
  input {
    name: "stage3_unit26_relu1_gamma"
    type {
      tensor_type {
        elem_type: 1
        shape {
          dim {
            dim_value: 256
          }
        }
      }
    }
  }
  input {
    name: "reshape949"
    type {
      tensor_type {
        elem_type: 7
        shape {
          dim {
            dim_value: 4
          }
        }
      }
    }
  }
  input {
    name: "stage3_unit26_conv2_weight"
    type {
      tensor_type {
        elem_type: 1
        shape {
          dim {
            dim_value: 256
          }
          dim {
            dim_value: 256
          }
          dim {
            dim_value: 3
          }
          dim {
            dim_value: 3
          }
        }
      }
    }
  }
  input {
    name: "stage3_unit26_bn3_gamma"
    type {
      tensor_type {
        elem_type: 1
        shape {
          dim {
            dim_value: 256
          }
        }
      }
    }
  }
  input {
    name: "stage3_unit26_bn3_beta"
    type {
      tensor_type {
        elem_type: 1
        shape {
          dim {
            dim_value: 256
          }
        }
      }
    }
  }
  input {
    name: "stage3_unit26_bn3_moving_mean"
    type {
      tensor_type {
        elem_type: 1
        shape {
          dim {
            dim_value: 256
          }
        }
      }
    }
  }
  input {
    name: "stage3_unit26_bn3_moving_var"
    type {
      tensor_type {
        elem_type: 1
        shape {
          dim {
            dim_value: 256
          }
        }
      }
    }
  }
  input {
    name: "stage3_unit27_bn1_gamma"
    type {
      tensor_type {
        elem_type: 1
        shape {
          dim {
            dim_value: 256
          }
        }
      }
    }
  }
  input {
    name: "stage3_unit27_bn1_beta"
    type {
      tensor_type {
        elem_type: 1
        shape {
          dim {
            dim_value: 256
          }
        }
      }
    }
  }
  input {
    name: "stage3_unit27_bn1_moving_mean"
    type {
      tensor_type {
        elem_type: 1
        shape {
          dim {
            dim_value: 256
          }
        }
      }
    }
  }
  input {
    name: "stage3_unit27_bn1_moving_var"
    type {
      tensor_type {
        elem_type: 1
        shape {
          dim {
            dim_value: 256
          }
        }
      }
    }
  }
  input {
    name: "stage3_unit27_conv1_weight"
    type {
      tensor_type {
        elem_type: 1
        shape {
          dim {
            dim_value: 256
          }
          dim {
            dim_value: 256
          }
          dim {
            dim_value: 3
          }
          dim {
            dim_value: 3
          }
        }
      }
    }
  }
  input {
    name: "stage3_unit27_bn2_gamma"
    type {
      tensor_type {
        elem_type: 1
        shape {
          dim {
            dim_value: 256
          }
        }
      }
    }
  }
  input {
    name: "stage3_unit27_bn2_beta"
    type {
      tensor_type {
        elem_type: 1
        shape {
          dim {
            dim_value: 256
          }
        }
      }
    }
  }
  input {
    name: "stage3_unit27_bn2_moving_mean"
    type {
      tensor_type {
        elem_type: 1
        shape {
          dim {
            dim_value: 256
          }
        }
      }
    }
  }
  input {
    name: "stage3_unit27_bn2_moving_var"
    type {
      tensor_type {
        elem_type: 1
        shape {
          dim {
            dim_value: 256
          }
        }
      }
    }
  }
  input {
    name: "stage3_unit27_relu1_gamma"
    type {
      tensor_type {
        elem_type: 1
        shape {
          dim {
            dim_value: 256
          }
        }
      }
    }
  }
  input {
    name: "reshape971"
    type {
      tensor_type {
        elem_type: 7
        shape {
          dim {
            dim_value: 4
          }
        }
      }
    }
  }
  input {
    name: "stage3_unit27_conv2_weight"
    type {
      tensor_type {
        elem_type: 1
        shape {
          dim {
            dim_value: 256
          }
          dim {
            dim_value: 256
          }
          dim {
            dim_value: 3
          }
          dim {
            dim_value: 3
          }
        }
      }
    }
  }
  input {
    name: "stage3_unit27_bn3_gamma"
    type {
      tensor_type {
        elem_type: 1
        shape {
          dim {
            dim_value: 256
          }
        }
      }
    }
  }
  input {
    name: "stage3_unit27_bn3_beta"
    type {
      tensor_type {
        elem_type: 1
        shape {
          dim {
            dim_value: 256
          }
        }
      }
    }
  }
  input {
    name: "stage3_unit27_bn3_moving_mean"
    type {
      tensor_type {
        elem_type: 1
        shape {
          dim {
            dim_value: 256
          }
        }
      }
    }
  }
  input {
    name: "stage3_unit27_bn3_moving_var"
    type {
      tensor_type {
        elem_type: 1
        shape {
          dim {
            dim_value: 256
          }
        }
      }
    }
  }
  input {
    name: "stage3_unit28_bn1_gamma"
    type {
      tensor_type {
        elem_type: 1
        shape {
          dim {
            dim_value: 256
          }
        }
      }
    }
  }
  input {
    name: "stage3_unit28_bn1_beta"
    type {
      tensor_type {
        elem_type: 1
        shape {
          dim {
            dim_value: 256
          }
        }
      }
    }
  }
  input {
    name: "stage3_unit28_bn1_moving_mean"
    type {
      tensor_type {
        elem_type: 1
        shape {
          dim {
            dim_value: 256
          }
        }
      }
    }
  }
  input {
    name: "stage3_unit28_bn1_moving_var"
    type {
      tensor_type {
        elem_type: 1
        shape {
          dim {
            dim_value: 256
          }
        }
      }
    }
  }
  input {
    name: "stage3_unit28_conv1_weight"
    type {
      tensor_type {
        elem_type: 1
        shape {
          dim {
            dim_value: 256
          }
          dim {
            dim_value: 256
          }
          dim {
            dim_value: 3
          }
          dim {
            dim_value: 3
          }
        }
      }
    }
  }
  input {
    name: "stage3_unit28_bn2_gamma"
    type {
      tensor_type {
        elem_type: 1
        shape {
          dim {
            dim_value: 256
          }
        }
      }
    }
  }
  input {
    name: "stage3_unit28_bn2_beta"
    type {
      tensor_type {
        elem_type: 1
        shape {
          dim {
            dim_value: 256
          }
        }
      }
    }
  }
  input {
    name: "stage3_unit28_bn2_moving_mean"
    type {
      tensor_type {
        elem_type: 1
        shape {
          dim {
            dim_value: 256
          }
        }
      }
    }
  }
  input {
    name: "stage3_unit28_bn2_moving_var"
    type {
      tensor_type {
        elem_type: 1
        shape {
          dim {
            dim_value: 256
          }
        }
      }
    }
  }
  input {
    name: "stage3_unit28_relu1_gamma"
    type {
      tensor_type {
        elem_type: 1
        shape {
          dim {
            dim_value: 256
          }
        }
      }
    }
  }
  input {
    name: "reshape993"
    type {
      tensor_type {
        elem_type: 7
        shape {
          dim {
            dim_value: 4
          }
        }
      }
    }
  }
  input {
    name: "stage3_unit28_conv2_weight"
    type {
      tensor_type {
        elem_type: 1
        shape {
          dim {
            dim_value: 256
          }
          dim {
            dim_value: 256
          }
          dim {
            dim_value: 3
          }
          dim {
            dim_value: 3
          }
        }
      }
    }
  }
  input {
    name: "stage3_unit28_bn3_gamma"
    type {
      tensor_type {
        elem_type: 1
        shape {
          dim {
            dim_value: 256
          }
        }
      }
    }
  }
  input {
    name: "stage3_unit28_bn3_beta"
    type {
      tensor_type {
        elem_type: 1
        shape {
          dim {
            dim_value: 256
          }
        }
      }
    }
  }
  input {
    name: "stage3_unit28_bn3_moving_mean"
    type {
      tensor_type {
        elem_type: 1
        shape {
          dim {
            dim_value: 256
          }
        }
      }
    }
  }
  input {
    name: "stage3_unit28_bn3_moving_var"
    type {
      tensor_type {
        elem_type: 1
        shape {
          dim {
            dim_value: 256
          }
        }
      }
    }
  }
  input {
    name: "stage3_unit29_bn1_gamma"
    type {
      tensor_type {
        elem_type: 1
        shape {
          dim {
            dim_value: 256
          }
        }
      }
    }
  }
  input {
    name: "stage3_unit29_bn1_beta"
    type {
      tensor_type {
        elem_type: 1
        shape {
          dim {
            dim_value: 256
          }
        }
      }
    }
  }
  input {
    name: "stage3_unit29_bn1_moving_mean"
    type {
      tensor_type {
        elem_type: 1
        shape {
          dim {
            dim_value: 256
          }
        }
      }
    }
  }
  input {
    name: "stage3_unit29_bn1_moving_var"
    type {
      tensor_type {
        elem_type: 1
        shape {
          dim {
            dim_value: 256
          }
        }
      }
    }
  }
  input {
    name: "stage3_unit29_conv1_weight"
    type {
      tensor_type {
        elem_type: 1
        shape {
          dim {
            dim_value: 256
          }
          dim {
            dim_value: 256
          }
          dim {
            dim_value: 3
          }
          dim {
            dim_value: 3
          }
        }
      }
    }
  }
  input {
    name: "stage3_unit29_bn2_gamma"
    type {
      tensor_type {
        elem_type: 1
        shape {
          dim {
            dim_value: 256
          }
        }
      }
    }
  }
  input {
    name: "stage3_unit29_bn2_beta"
    type {
      tensor_type {
        elem_type: 1
        shape {
          dim {
            dim_value: 256
          }
        }
      }
    }
  }
  input {
    name: "stage3_unit29_bn2_moving_mean"
    type {
      tensor_type {
        elem_type: 1
        shape {
          dim {
            dim_value: 256
          }
        }
      }
    }
  }
  input {
    name: "stage3_unit29_bn2_moving_var"
    type {
      tensor_type {
        elem_type: 1
        shape {
          dim {
            dim_value: 256
          }
        }
      }
    }
  }
  input {
    name: "stage3_unit29_relu1_gamma"
    type {
      tensor_type {
        elem_type: 1
        shape {
          dim {
            dim_value: 256
          }
        }
      }
    }
  }
  input {
    name: "reshape1015"
    type {
      tensor_type {
        elem_type: 7
        shape {
          dim {
            dim_value: 4
          }
        }
      }
    }
  }
  input {
    name: "stage3_unit29_conv2_weight"
    type {
      tensor_type {
        elem_type: 1
        shape {
          dim {
            dim_value: 256
          }
          dim {
            dim_value: 256
          }
          dim {
            dim_value: 3
          }
          dim {
            dim_value: 3
          }
        }
      }
    }
  }
  input {
    name: "stage3_unit29_bn3_gamma"
    type {
      tensor_type {
        elem_type: 1
        shape {
          dim {
            dim_value: 256
          }
        }
      }
    }
  }
  input {
    name: "stage3_unit29_bn3_beta"
    type {
      tensor_type {
        elem_type: 1
        shape {
          dim {
            dim_value: 256
          }
        }
      }
    }
  }
  input {
    name: "stage3_unit29_bn3_moving_mean"
    type {
      tensor_type {
        elem_type: 1
        shape {
          dim {
            dim_value: 256
          }
        }
      }
    }
  }
  input {
    name: "stage3_unit29_bn3_moving_var"
    type {
      tensor_type {
        elem_type: 1
        shape {
          dim {
            dim_value: 256
          }
        }
      }
    }
  }
  input {
    name: "stage3_unit30_bn1_gamma"
    type {
      tensor_type {
        elem_type: 1
        shape {
          dim {
            dim_value: 256
          }
        }
      }
    }
  }
  input {
    name: "stage3_unit30_bn1_beta"
    type {
      tensor_type {
        elem_type: 1
        shape {
          dim {
            dim_value: 256
          }
        }
      }
    }
  }
  input {
    name: "stage3_unit30_bn1_moving_mean"
    type {
      tensor_type {
        elem_type: 1
        shape {
          dim {
            dim_value: 256
          }
        }
      }
    }
  }
  input {
    name: "stage3_unit30_bn1_moving_var"
    type {
      tensor_type {
        elem_type: 1
        shape {
          dim {
            dim_value: 256
          }
        }
      }
    }
  }
  input {
    name: "stage3_unit30_conv1_weight"
    type {
      tensor_type {
        elem_type: 1
        shape {
          dim {
            dim_value: 256
          }
          dim {
            dim_value: 256
          }
          dim {
            dim_value: 3
          }
          dim {
            dim_value: 3
          }
        }
      }
    }
  }
  input {
    name: "stage3_unit30_bn2_gamma"
    type {
      tensor_type {
        elem_type: 1
        shape {
          dim {
            dim_value: 256
          }
        }
      }
    }
  }
  input {
    name: "stage3_unit30_bn2_beta"
    type {
      tensor_type {
        elem_type: 1
        shape {
          dim {
            dim_value: 256
          }
        }
      }
    }
  }
  input {
    name: "stage3_unit30_bn2_moving_mean"
    type {
      tensor_type {
        elem_type: 1
        shape {
          dim {
            dim_value: 256
          }
        }
      }
    }
  }
  input {
    name: "stage3_unit30_bn2_moving_var"
    type {
      tensor_type {
        elem_type: 1
        shape {
          dim {
            dim_value: 256
          }
        }
      }
    }
  }
  input {
    name: "stage3_unit30_relu1_gamma"
    type {
      tensor_type {
        elem_type: 1
        shape {
          dim {
            dim_value: 256
          }
        }
      }
    }
  }
  input {
    name: "reshape1037"
    type {
      tensor_type {
        elem_type: 7
        shape {
          dim {
            dim_value: 4
          }
        }
      }
    }
  }
  input {
    name: "stage3_unit30_conv2_weight"
    type {
      tensor_type {
        elem_type: 1
        shape {
          dim {
            dim_value: 256
          }
          dim {
            dim_value: 256
          }
          dim {
            dim_value: 3
          }
          dim {
            dim_value: 3
          }
        }
      }
    }
  }
  input {
    name: "stage3_unit30_bn3_gamma"
    type {
      tensor_type {
        elem_type: 1
        shape {
          dim {
            dim_value: 256
          }
        }
      }
    }
  }
  input {
    name: "stage3_unit30_bn3_beta"
    type {
      tensor_type {
        elem_type: 1
        shape {
          dim {
            dim_value: 256
          }
        }
      }
    }
  }
  input {
    name: "stage3_unit30_bn3_moving_mean"
    type {
      tensor_type {
        elem_type: 1
        shape {
          dim {
            dim_value: 256
          }
        }
      }
    }
  }
  input {
    name: "stage3_unit30_bn3_moving_var"
    type {
      tensor_type {
        elem_type: 1
        shape {
          dim {
            dim_value: 256
          }
        }
      }
    }
  }
  input {
    name: "stage4_unit1_bn1_gamma"
    type {
      tensor_type {
        elem_type: 1
        shape {
          dim {
            dim_value: 256
          }
        }
      }
    }
  }
  input {
    name: "stage4_unit1_bn1_beta"
    type {
      tensor_type {
        elem_type: 1
        shape {
          dim {
            dim_value: 256
          }
        }
      }
    }
  }
  input {
    name: "stage4_unit1_bn1_moving_mean"
    type {
      tensor_type {
        elem_type: 1
        shape {
          dim {
            dim_value: 256
          }
        }
      }
    }
  }
  input {
    name: "stage4_unit1_bn1_moving_var"
    type {
      tensor_type {
        elem_type: 1
        shape {
          dim {
            dim_value: 256
          }
        }
      }
    }
  }
  input {
    name: "stage4_unit1_conv1_weight"
    type {
      tensor_type {
        elem_type: 1
        shape {
          dim {
            dim_value: 512
          }
          dim {
            dim_value: 256
          }
          dim {
            dim_value: 3
          }
          dim {
            dim_value: 3
          }
        }
      }
    }
  }
  input {
    name: "stage4_unit1_bn2_gamma"
    type {
      tensor_type {
        elem_type: 1
        shape {
          dim {
            dim_value: 512
          }
        }
      }
    }
  }
  input {
    name: "stage4_unit1_bn2_beta"
    type {
      tensor_type {
        elem_type: 1
        shape {
          dim {
            dim_value: 512
          }
        }
      }
    }
  }
  input {
    name: "stage4_unit1_bn2_moving_mean"
    type {
      tensor_type {
        elem_type: 1
        shape {
          dim {
            dim_value: 512
          }
        }
      }
    }
  }
  input {
    name: "stage4_unit1_bn2_moving_var"
    type {
      tensor_type {
        elem_type: 1
        shape {
          dim {
            dim_value: 512
          }
        }
      }
    }
  }
  input {
    name: "stage4_unit1_relu1_gamma"
    type {
      tensor_type {
        elem_type: 1
        shape {
          dim {
            dim_value: 512
          }
        }
      }
    }
  }
  input {
    name: "reshape1059"
    type {
      tensor_type {
        elem_type: 7
        shape {
          dim {
            dim_value: 4
          }
        }
      }
    }
  }
  input {
    name: "stage4_unit1_conv2_weight"
    type {
      tensor_type {
        elem_type: 1
        shape {
          dim {
            dim_value: 512
          }
          dim {
            dim_value: 512
          }
          dim {
            dim_value: 3
          }
          dim {
            dim_value: 3
          }
        }
      }
    }
  }
  input {
    name: "stage4_unit1_bn3_gamma"
    type {
      tensor_type {
        elem_type: 1
        shape {
          dim {
            dim_value: 512
          }
        }
      }
    }
  }
  input {
    name: "stage4_unit1_bn3_beta"
    type {
      tensor_type {
        elem_type: 1
        shape {
          dim {
            dim_value: 512
          }
        }
      }
    }
  }
  input {
    name: "stage4_unit1_bn3_moving_mean"
    type {
      tensor_type {
        elem_type: 1
        shape {
          dim {
            dim_value: 512
          }
        }
      }
    }
  }
  input {
    name: "stage4_unit1_bn3_moving_var"
    type {
      tensor_type {
        elem_type: 1
        shape {
          dim {
            dim_value: 512
          }
        }
      }
    }
  }
  input {
    name: "stage4_unit1_conv1sc_weight"
    type {
      tensor_type {
        elem_type: 1
        shape {
          dim {
            dim_value: 512
          }
          dim {
            dim_value: 256
          }
          dim {
            dim_value: 1
          }
          dim {
            dim_value: 1
          }
        }
      }
    }
  }
  input {
    name: "stage4_unit1_sc_gamma"
    type {
      tensor_type {
        elem_type: 1
        shape {
          dim {
            dim_value: 512
          }
        }
      }
    }
  }
  input {
    name: "stage4_unit1_sc_beta"
    type {
      tensor_type {
        elem_type: 1
        shape {
          dim {
            dim_value: 512
          }
        }
      }
    }
  }
  input {
    name: "stage4_unit1_sc_moving_mean"
    type {
      tensor_type {
        elem_type: 1
        shape {
          dim {
            dim_value: 512
          }
        }
      }
    }
  }
  input {
    name: "stage4_unit1_sc_moving_var"
    type {
      tensor_type {
        elem_type: 1
        shape {
          dim {
            dim_value: 512
          }
        }
      }
    }
  }
  input {
    name: "stage4_unit2_bn1_gamma"
    type {
      tensor_type {
        elem_type: 1
        shape {
          dim {
            dim_value: 512
          }
        }
      }
    }
  }
  input {
    name: "stage4_unit2_bn1_beta"
    type {
      tensor_type {
        elem_type: 1
        shape {
          dim {
            dim_value: 512
          }
        }
      }
    }
  }
  input {
    name: "stage4_unit2_bn1_moving_mean"
    type {
      tensor_type {
        elem_type: 1
        shape {
          dim {
            dim_value: 512
          }
        }
      }
    }
  }
  input {
    name: "stage4_unit2_bn1_moving_var"
    type {
      tensor_type {
        elem_type: 1
        shape {
          dim {
            dim_value: 512
          }
        }
      }
    }
  }
  input {
    name: "stage4_unit2_conv1_weight"
    type {
      tensor_type {
        elem_type: 1
        shape {
          dim {
            dim_value: 512
          }
          dim {
            dim_value: 512
          }
          dim {
            dim_value: 3
          }
          dim {
            dim_value: 3
          }
        }
      }
    }
  }
  input {
    name: "stage4_unit2_bn2_gamma"
    type {
      tensor_type {
        elem_type: 1
        shape {
          dim {
            dim_value: 512
          }
        }
      }
    }
  }
  input {
    name: "stage4_unit2_bn2_beta"
    type {
      tensor_type {
        elem_type: 1
        shape {
          dim {
            dim_value: 512
          }
        }
      }
    }
  }
  input {
    name: "stage4_unit2_bn2_moving_mean"
    type {
      tensor_type {
        elem_type: 1
        shape {
          dim {
            dim_value: 512
          }
        }
      }
    }
  }
  input {
    name: "stage4_unit2_bn2_moving_var"
    type {
      tensor_type {
        elem_type: 1
        shape {
          dim {
            dim_value: 512
          }
        }
      }
    }
  }
  input {
    name: "stage4_unit2_relu1_gamma"
    type {
      tensor_type {
        elem_type: 1
        shape {
          dim {
            dim_value: 512
          }
        }
      }
    }
  }
  input {
    name: "reshape1088"
    type {
      tensor_type {
        elem_type: 7
        shape {
          dim {
            dim_value: 4
          }
        }
      }
    }
  }
  input {
    name: "stage4_unit2_conv2_weight"
    type {
      tensor_type {
        elem_type: 1
        shape {
          dim {
            dim_value: 512
          }
          dim {
            dim_value: 512
          }
          dim {
            dim_value: 3
          }
          dim {
            dim_value: 3
          }
        }
      }
    }
  }
  input {
    name: "stage4_unit2_bn3_gamma"
    type {
      tensor_type {
        elem_type: 1
        shape {
          dim {
            dim_value: 512
          }
        }
      }
    }
  }
  input {
    name: "stage4_unit2_bn3_beta"
    type {
      tensor_type {
        elem_type: 1
        shape {
          dim {
            dim_value: 512
          }
        }
      }
    }
  }
  input {
    name: "stage4_unit2_bn3_moving_mean"
    type {
      tensor_type {
        elem_type: 1
        shape {
          dim {
            dim_value: 512
          }
        }
      }
    }
  }
  input {
    name: "stage4_unit2_bn3_moving_var"
    type {
      tensor_type {
        elem_type: 1
        shape {
          dim {
            dim_value: 512
          }
        }
      }
    }
  }
  input {
    name: "stage4_unit3_bn1_gamma"
    type {
      tensor_type {
        elem_type: 1
        shape {
          dim {
            dim_value: 512
          }
        }
      }
    }
  }
  input {
    name: "stage4_unit3_bn1_beta"
    type {
      tensor_type {
        elem_type: 1
        shape {
          dim {
            dim_value: 512
          }
        }
      }
    }
  }
  input {
    name: "stage4_unit3_bn1_moving_mean"
    type {
      tensor_type {
        elem_type: 1
        shape {
          dim {
            dim_value: 512
          }
        }
      }
    }
  }
  input {
    name: "stage4_unit3_bn1_moving_var"
    type {
      tensor_type {
        elem_type: 1
        shape {
          dim {
            dim_value: 512
          }
        }
      }
    }
  }
  input {
    name: "stage4_unit3_conv1_weight"
    type {
      tensor_type {
        elem_type: 1
        shape {
          dim {
            dim_value: 512
          }
          dim {
            dim_value: 512
          }
          dim {
            dim_value: 3
          }
          dim {
            dim_value: 3
          }
        }
      }
    }
  }
  input {
    name: "stage4_unit3_bn2_gamma"
    type {
      tensor_type {
        elem_type: 1
        shape {
          dim {
            dim_value: 512
          }
        }
      }
    }
  }
  input {
    name: "stage4_unit3_bn2_beta"
    type {
      tensor_type {
        elem_type: 1
        shape {
          dim {
            dim_value: 512
          }
        }
      }
    }
  }
  input {
    name: "stage4_unit3_bn2_moving_mean"
    type {
      tensor_type {
        elem_type: 1
        shape {
          dim {
            dim_value: 512
          }
        }
      }
    }
  }
  input {
    name: "stage4_unit3_bn2_moving_var"
    type {
      tensor_type {
        elem_type: 1
        shape {
          dim {
            dim_value: 512
          }
        }
      }
    }
  }
  input {
    name: "stage4_unit3_relu1_gamma"
    type {
      tensor_type {
        elem_type: 1
        shape {
          dim {
            dim_value: 512
          }
        }
      }
    }
  }
  input {
    name: "reshape1110"
    type {
      tensor_type {
        elem_type: 7
        shape {
          dim {
            dim_value: 4
          }
        }
      }
    }
  }
  input {
    name: "stage4_unit3_conv2_weight"
    type {
      tensor_type {
        elem_type: 1
        shape {
          dim {
            dim_value: 512
          }
          dim {
            dim_value: 512
          }
          dim {
            dim_value: 3
          }
          dim {
            dim_value: 3
          }
        }
      }
    }
  }
  input {
    name: "stage4_unit3_bn3_gamma"
    type {
      tensor_type {
        elem_type: 1
        shape {
          dim {
            dim_value: 512
          }
        }
      }
    }
  }
  input {
    name: "stage4_unit3_bn3_beta"
    type {
      tensor_type {
        elem_type: 1
        shape {
          dim {
            dim_value: 512
          }
        }
      }
    }
  }
  input {
    name: "stage4_unit3_bn3_moving_mean"
    type {
      tensor_type {
        elem_type: 1
        shape {
          dim {
            dim_value: 512
          }
        }
      }
    }
  }
  input {
    name: "stage4_unit3_bn3_moving_var"
    type {
      tensor_type {
        elem_type: 1
        shape {
          dim {
            dim_value: 512
          }
        }
      }
    }
  }
  input {
    name: "bn1_gamma"
    type {
      tensor_type {
        elem_type: 1
        shape {
          dim {
            dim_value: 512
          }
        }
      }
    }
  }
  input {
    name: "bn1_beta"
    type {
      tensor_type {
        elem_type: 1
        shape {
          dim {
            dim_value: 512
          }
        }
      }
    }
  }
  input {
    name: "bn1_moving_mean"
    type {
      tensor_type {
        elem_type: 1
        shape {
          dim {
            dim_value: 512
          }
        }
      }
    }
  }
  input {
    name: "bn1_moving_var"
    type {
      tensor_type {
        elem_type: 1
        shape {
          dim {
            dim_value: 512
          }
        }
      }
    }
  }
  input {
    name: "pre_fc1_weight"
    type {
      tensor_type {
        elem_type: 1
        shape {
          dim {
            dim_value: 512
          }
          dim {
            dim_value: 25088
          }
        }
      }
    }
  }
  input {
    name: "pre_fc1_bias"
    type {
      tensor_type {
        elem_type: 1
        shape {
          dim {
            dim_value: 512
          }
        }
      }
    }
  }
  input {
    name: "fc1_gamma"
    type {
      tensor_type {
        elem_type: 1
        shape {
          dim {
            dim_value: 512
          }
        }
      }
    }
  }
  input {
    name: "fc1_beta"
    type {
      tensor_type {
        elem_type: 1
        shape {
          dim {
            dim_value: 512
          }
        }
      }
    }
  }
  input {
    name: "fc1_moving_mean"
    type {
      tensor_type {
        elem_type: 1
        shape {
          dim {
            dim_value: 512
          }
        }
      }
    }
  }
  input {
    name: "fc1_moving_var"
    type {
      tensor_type {
        elem_type: 1
        shape {
          dim {
            dim_value: 512
          }
        }
      }
    }
  }
  output {
    name: "fc1"
    type {
      tensor_type {
        elem_type: 1
        shape {
          dim {
            dim_value: 1
          }
          dim {
            dim_value: 512
          }
        }
      }
    }
  }
}
opset_import {
  domain: ""
  version: 8
}
