ir_version: 3
producer_name: "onnx.quantize"
producer_version: "0.1.0"
graph {
  node {
    input: "data"
    input: "scalar_op2"
    output: "_minusscalar0"
    name: "_minusscalar0"
    op_type: "Sub"
  }
  node {
    input: "_minusscalar0"
    input: "scalar_op3"
    output: "_mulscalar0"
    name: "_mulscalar0"
    op_type: "Mul"
  }
  node {
    input: "_mulscalar0"
    input: "_mulscalar0_scale"
    input: "_mulscalar0_zero_point"
    output: "_mulscalar0_conv0_QuantizeLinear"
    name: "_mulscalar0_conv0_QuantizeLinear"
    op_type: "QuantizeLinear"
  }
  node {
    input: "_mulscalar0_conv0_QuantizeLinear"
    input: "_mulscalar0_scale"
    input: "_mulscalar0_zero_point"
    input: "ConvBnFusion_W_conv0_weight_quantized"
    input: "ConvBnFusion_W_conv0_weight_scale"
    input: "ConvBnFusion_W_conv0_weight_zero_point"
    input: "bn0_scale"
    input: "bn0_zero_point"
    input: "ConvBnFusion_BN_B_bn0_beta_quantized"
    output: "bn0_quantized"
    name: "conv0_quant"
    op_type: "QLinearConv"
    attribute {
      name: "auto_pad"
      s: "NOTSET"
      type: STRING
    }
    attribute {
      name: "dilations"
      ints: 1
      ints: 1
      type: INTS
    }
    attribute {
      name: "group"
      i: 1
      type: INT
    }
    attribute {
      name: "kernel_shape"
      ints: 3
      ints: 3
      type: INTS
    }
    attribute {
      name: "pads"
      ints: 1
      ints: 1
      ints: 1
      ints: 1
      type: INTS
    }
    attribute {
      name: "strides"
      ints: 1
      ints: 1
      type: INTS
    }
  }
  node {
    input: "bn0_quantized"
    input: "bn0_scale"
    input: "bn0_zero_point"
    output: "bn0"
    name: "bn0_conv0_DequantizeLinear"
    op_type: "DequantizeLinear"
  }
  node {
    input: "bn0"
    input: "slope12"
    output: "relu0"
    name: "relu0"
    op_type: "PRelu"
  }
  node {
    input: "relu0"
    input: "stage1_unit1_bn1_gamma"
    input: "stage1_unit1_bn1_beta"
    input: "stage1_unit1_bn1_moving_mean"
    input: "stage1_unit1_bn1_moving_var"
    output: "stage1_unit1_bn1"
    name: "stage1_unit1_bn1"
    op_type: "BatchNormalization"
    attribute {
      name: "momentum"
      f: 0.9
      type: FLOAT
    }
    attribute {
      name: "epsilon"
      f: 2e-05
      type: FLOAT
    }
  }
  node {
    input: "relu0"
    input: "relu0_scale"
    input: "relu0_zero_point"
    output: "relu0_stage1_unit1_conv1sc_QuantizeLinear"
    name: "relu0_stage1_unit1_conv1sc_QuantizeLinear"
    op_type: "QuantizeLinear"
  }
  node {
    input: "stage1_unit1_bn1"
    input: "stage1_unit1_bn1_scale"
    input: "stage1_unit1_bn1_zero_point"
    output: "stage1_unit1_bn1_stage1_unit1_conv1_QuantizeLinear"
    name: "stage1_unit1_bn1_stage1_unit1_conv1_QuantizeLinear"
    op_type: "QuantizeLinear"
  }
  node {
    input: "relu0_stage1_unit1_conv1sc_QuantizeLinear"
    input: "relu0_scale"
    input: "relu0_zero_point"
    input: "ConvBnFusion_W_stage1_unit1_conv1sc_weight_quantized"
    input: "ConvBnFusion_W_stage1_unit1_conv1sc_weight_scale"
    input: "ConvBnFusion_W_stage1_unit1_conv1sc_weight_zero_point"
    input: "stage1_unit1_sc_scale"
    input: "stage1_unit1_sc_zero_point"
    input: "ConvBnFusion_BN_B_stage1_unit1_sc_beta_quantized"
    output: "stage1_unit1_sc_quantized"
    name: "stage1_unit1_conv1sc_quant"
    op_type: "QLinearConv"
    attribute {
      name: "auto_pad"
      s: "NOTSET"
      type: STRING
    }
    attribute {
      name: "dilations"
      ints: 1
      ints: 1
      type: INTS
    }
    attribute {
      name: "group"
      i: 1
      type: INT
    }
    attribute {
      name: "kernel_shape"
      ints: 1
      ints: 1
      type: INTS
    }
    attribute {
      name: "pads"
      ints: 0
      ints: 0
      ints: 0
      ints: 0
      type: INTS
    }
    attribute {
      name: "strides"
      ints: 2
      ints: 2
      type: INTS
    }
  }
  node {
    input: "stage1_unit1_bn1_stage1_unit1_conv1_QuantizeLinear"
    input: "stage1_unit1_bn1_scale"
    input: "stage1_unit1_bn1_zero_point"
    input: "ConvBnFusion_W_stage1_unit1_conv1_weight_quantized"
    input: "ConvBnFusion_W_stage1_unit1_conv1_weight_scale"
    input: "ConvBnFusion_W_stage1_unit1_conv1_weight_zero_point"
    input: "stage1_unit1_bn2_scale"
    input: "stage1_unit1_bn2_zero_point"
    input: "ConvBnFusion_BN_B_stage1_unit1_bn2_beta_quantized"
    output: "stage1_unit1_bn2_quantized"
    name: "stage1_unit1_conv1_quant"
    op_type: "QLinearConv"
    attribute {
      name: "auto_pad"
      s: "NOTSET"
      type: STRING
    }
    attribute {
      name: "dilations"
      ints: 1
      ints: 1
      type: INTS
    }
    attribute {
      name: "group"
      i: 1
      type: INT
    }
    attribute {
      name: "kernel_shape"
      ints: 3
      ints: 3
      type: INTS
    }
    attribute {
      name: "pads"
      ints: 1
      ints: 1
      ints: 1
      ints: 1
      type: INTS
    }
    attribute {
      name: "strides"
      ints: 1
      ints: 1
      type: INTS
    }
  }
  node {
    input: "stage1_unit1_bn2_quantized"
    input: "stage1_unit1_bn2_scale"
    input: "stage1_unit1_bn2_zero_point"
    output: "stage1_unit1_bn2"
    name: "stage1_unit1_bn2_stage1_unit1_conv1_DequantizeLinear"
    op_type: "DequantizeLinear"
  }
  node {
    input: "stage1_unit1_bn2"
    input: "slope26"
    output: "stage1_unit1_relu1"
    name: "stage1_unit1_relu1"
    op_type: "PRelu"
  }
  node {
    input: "stage1_unit1_relu1"
    input: "stage1_unit1_relu1_scale"
    input: "stage1_unit1_relu1_zero_point"
    output: "stage1_unit1_relu1_stage1_unit1_conv2_QuantizeLinear"
    name: "stage1_unit1_relu1_stage1_unit1_conv2_QuantizeLinear"
    op_type: "QuantizeLinear"
  }
  node {
    input: "stage1_unit1_relu1_stage1_unit1_conv2_QuantizeLinear"
    input: "stage1_unit1_relu1_scale"
    input: "stage1_unit1_relu1_zero_point"
    input: "ConvBnFusion_W_stage1_unit1_conv2_weight_quantized"
    input: "ConvBnFusion_W_stage1_unit1_conv2_weight_scale"
    input: "ConvBnFusion_W_stage1_unit1_conv2_weight_zero_point"
    input: "stage1_unit1_bn3_scale"
    input: "stage1_unit1_bn3_zero_point"
    input: "ConvBnFusion_BN_B_stage1_unit1_bn3_beta_quantized"
    output: "stage1_unit1_bn3_quantized"
    name: "stage1_unit1_conv2_quant"
    op_type: "QLinearConv"
    attribute {
      name: "auto_pad"
      s: "NOTSET"
      type: STRING
    }
    attribute {
      name: "dilations"
      ints: 1
      ints: 1
      type: INTS
    }
    attribute {
      name: "group"
      i: 1
      type: INT
    }
    attribute {
      name: "kernel_shape"
      ints: 3
      ints: 3
      type: INTS
    }
    attribute {
      name: "pads"
      ints: 1
      ints: 1
      ints: 1
      ints: 1
      type: INTS
    }
    attribute {
      name: "strides"
      ints: 2
      ints: 2
      type: INTS
    }
  }
  node {
    input: "stage1_unit1_bn3_quantized"
    input: "stage1_unit1_bn3_scale"
    input: "stage1_unit1_bn3_zero_point"
    input: "stage1_unit1_sc_quantized"
    input: "stage1_unit1_sc_scale"
    input: "stage1_unit1_sc_zero_point"
    input: "_plus0_scale"
    input: "_plus0_zero_point"
    output: "_plus0_quantized"
    name: "_plus0_quant"
    op_type: "QLinearAdd"
    domain: "com.microsoft"
  }
  node {
    input: "_plus0_quantized"
    input: "_plus0_scale"
    input: "_plus0_zero_point"
    output: "_plus0"
    name: "_plus0__plus0_DequantizeLinear"
    op_type: "DequantizeLinear"
  }
  node {
    input: "_plus0"
    input: "stage1_unit2_bn1_gamma"
    input: "stage1_unit2_bn1_beta"
    input: "stage1_unit2_bn1_moving_mean"
    input: "stage1_unit2_bn1_moving_var"
    output: "stage1_unit2_bn1"
    name: "stage1_unit2_bn1"
    op_type: "BatchNormalization"
    attribute {
      name: "momentum"
      f: 0.9
      type: FLOAT
    }
    attribute {
      name: "epsilon"
      f: 2e-05
      type: FLOAT
    }
  }
  node {
    input: "stage1_unit2_bn1"
    input: "stage1_unit2_bn1_scale"
    input: "stage1_unit2_bn1_zero_point"
    output: "stage1_unit2_bn1_stage1_unit2_conv1_QuantizeLinear"
    name: "stage1_unit2_bn1_stage1_unit2_conv1_QuantizeLinear"
    op_type: "QuantizeLinear"
  }
  node {
    input: "stage1_unit2_bn1_stage1_unit2_conv1_QuantizeLinear"
    input: "stage1_unit2_bn1_scale"
    input: "stage1_unit2_bn1_zero_point"
    input: "ConvBnFusion_W_stage1_unit2_conv1_weight_quantized"
    input: "ConvBnFusion_W_stage1_unit2_conv1_weight_scale"
    input: "ConvBnFusion_W_stage1_unit2_conv1_weight_zero_point"
    input: "stage1_unit2_bn2_scale"
    input: "stage1_unit2_bn2_zero_point"
    input: "ConvBnFusion_BN_B_stage1_unit2_bn2_beta_quantized"
    output: "stage1_unit2_bn2_quantized"
    name: "stage1_unit2_conv1_quant"
    op_type: "QLinearConv"
    attribute {
      name: "auto_pad"
      s: "NOTSET"
      type: STRING
    }
    attribute {
      name: "dilations"
      ints: 1
      ints: 1
      type: INTS
    }
    attribute {
      name: "group"
      i: 1
      type: INT
    }
    attribute {
      name: "kernel_shape"
      ints: 3
      ints: 3
      type: INTS
    }
    attribute {
      name: "pads"
      ints: 1
      ints: 1
      ints: 1
      ints: 1
      type: INTS
    }
    attribute {
      name: "strides"
      ints: 1
      ints: 1
      type: INTS
    }
  }
  node {
    input: "stage1_unit2_bn2_quantized"
    input: "stage1_unit2_bn2_scale"
    input: "stage1_unit2_bn2_zero_point"
    output: "stage1_unit2_bn2"
    name: "stage1_unit2_bn2_stage1_unit2_conv1_DequantizeLinear"
    op_type: "DequantizeLinear"
  }
  node {
    input: "stage1_unit2_bn2"
    input: "slope55"
    output: "stage1_unit2_relu1"
    name: "stage1_unit2_relu1"
    op_type: "PRelu"
  }
  node {
    input: "stage1_unit2_relu1"
    input: "stage1_unit2_relu1_scale"
    input: "stage1_unit2_relu1_zero_point"
    output: "stage1_unit2_relu1_stage1_unit2_conv2_QuantizeLinear"
    name: "stage1_unit2_relu1_stage1_unit2_conv2_QuantizeLinear"
    op_type: "QuantizeLinear"
  }
  node {
    input: "stage1_unit2_relu1_stage1_unit2_conv2_QuantizeLinear"
    input: "stage1_unit2_relu1_scale"
    input: "stage1_unit2_relu1_zero_point"
    input: "ConvBnFusion_W_stage1_unit2_conv2_weight_quantized"
    input: "ConvBnFusion_W_stage1_unit2_conv2_weight_scale"
    input: "ConvBnFusion_W_stage1_unit2_conv2_weight_zero_point"
    input: "stage1_unit2_bn3_scale"
    input: "stage1_unit2_bn3_zero_point"
    input: "ConvBnFusion_BN_B_stage1_unit2_bn3_beta_quantized"
    output: "stage1_unit2_bn3_quantized"
    name: "stage1_unit2_conv2_quant"
    op_type: "QLinearConv"
    attribute {
      name: "auto_pad"
      s: "NOTSET"
      type: STRING
    }
    attribute {
      name: "dilations"
      ints: 1
      ints: 1
      type: INTS
    }
    attribute {
      name: "group"
      i: 1
      type: INT
    }
    attribute {
      name: "kernel_shape"
      ints: 3
      ints: 3
      type: INTS
    }
    attribute {
      name: "pads"
      ints: 1
      ints: 1
      ints: 1
      ints: 1
      type: INTS
    }
    attribute {
      name: "strides"
      ints: 1
      ints: 1
      type: INTS
    }
  }
  node {
    input: "stage1_unit2_bn3_quantized"
    input: "stage1_unit2_bn3_scale"
    input: "stage1_unit2_bn3_zero_point"
    input: "_plus0_quantized"
    input: "_plus0_scale"
    input: "_plus0_zero_point"
    input: "_plus1_scale"
    input: "_plus1_zero_point"
    output: "_plus1_quantized"
    name: "_plus1_quant"
    op_type: "QLinearAdd"
    domain: "com.microsoft"
  }
  node {
    input: "_plus1_quantized"
    input: "_plus1_scale"
    input: "_plus1_zero_point"
    output: "_plus1"
    name: "_plus1__plus1_DequantizeLinear"
    op_type: "DequantizeLinear"
  }
  node {
    input: "_plus1"
    input: "stage1_unit3_bn1_gamma"
    input: "stage1_unit3_bn1_beta"
    input: "stage1_unit3_bn1_moving_mean"
    input: "stage1_unit3_bn1_moving_var"
    output: "stage1_unit3_bn1"
    name: "stage1_unit3_bn1"
    op_type: "BatchNormalization"
    attribute {
      name: "momentum"
      f: 0.9
      type: FLOAT
    }
    attribute {
      name: "epsilon"
      f: 2e-05
      type: FLOAT
    }
  }
  node {
    input: "stage1_unit3_bn1"
    input: "stage1_unit3_bn1_scale"
    input: "stage1_unit3_bn1_zero_point"
    output: "stage1_unit3_bn1_stage1_unit3_conv1_QuantizeLinear"
    name: "stage1_unit3_bn1_stage1_unit3_conv1_QuantizeLinear"
    op_type: "QuantizeLinear"
  }
  node {
    input: "stage1_unit3_bn1_stage1_unit3_conv1_QuantizeLinear"
    input: "stage1_unit3_bn1_scale"
    input: "stage1_unit3_bn1_zero_point"
    input: "ConvBnFusion_W_stage1_unit3_conv1_weight_quantized"
    input: "ConvBnFusion_W_stage1_unit3_conv1_weight_scale"
    input: "ConvBnFusion_W_stage1_unit3_conv1_weight_zero_point"
    input: "stage1_unit3_bn2_scale"
    input: "stage1_unit3_bn2_zero_point"
    input: "ConvBnFusion_BN_B_stage1_unit3_bn2_beta_quantized"
    output: "stage1_unit3_bn2_quantized"
    name: "stage1_unit3_conv1_quant"
    op_type: "QLinearConv"
    attribute {
      name: "auto_pad"
      s: "NOTSET"
      type: STRING
    }
    attribute {
      name: "dilations"
      ints: 1
      ints: 1
      type: INTS
    }
    attribute {
      name: "group"
      i: 1
      type: INT
    }
    attribute {
      name: "kernel_shape"
      ints: 3
      ints: 3
      type: INTS
    }
    attribute {
      name: "pads"
      ints: 1
      ints: 1
      ints: 1
      ints: 1
      type: INTS
    }
    attribute {
      name: "strides"
      ints: 1
      ints: 1
      type: INTS
    }
  }
  node {
    input: "stage1_unit3_bn2_quantized"
    input: "stage1_unit3_bn2_scale"
    input: "stage1_unit3_bn2_zero_point"
    output: "stage1_unit3_bn2"
    name: "stage1_unit3_bn2_stage1_unit3_conv1_DequantizeLinear"
    op_type: "DequantizeLinear"
  }
  node {
    input: "stage1_unit3_bn2"
    input: "slope77"
    output: "stage1_unit3_relu1"
    name: "stage1_unit3_relu1"
    op_type: "PRelu"
  }
  node {
    input: "stage1_unit3_relu1"
    input: "stage1_unit3_relu1_scale"
    input: "stage1_unit3_relu1_zero_point"
    output: "stage1_unit3_relu1_stage1_unit3_conv2_QuantizeLinear"
    name: "stage1_unit3_relu1_stage1_unit3_conv2_QuantizeLinear"
    op_type: "QuantizeLinear"
  }
  node {
    input: "stage1_unit3_relu1_stage1_unit3_conv2_QuantizeLinear"
    input: "stage1_unit3_relu1_scale"
    input: "stage1_unit3_relu1_zero_point"
    input: "ConvBnFusion_W_stage1_unit3_conv2_weight_quantized"
    input: "ConvBnFusion_W_stage1_unit3_conv2_weight_scale"
    input: "ConvBnFusion_W_stage1_unit3_conv2_weight_zero_point"
    input: "stage1_unit3_bn3_scale"
    input: "stage1_unit3_bn3_zero_point"
    input: "ConvBnFusion_BN_B_stage1_unit3_bn3_beta_quantized"
    output: "stage1_unit3_bn3_quantized"
    name: "stage1_unit3_conv2_quant"
    op_type: "QLinearConv"
    attribute {
      name: "auto_pad"
      s: "NOTSET"
      type: STRING
    }
    attribute {
      name: "dilations"
      ints: 1
      ints: 1
      type: INTS
    }
    attribute {
      name: "group"
      i: 1
      type: INT
    }
    attribute {
      name: "kernel_shape"
      ints: 3
      ints: 3
      type: INTS
    }
    attribute {
      name: "pads"
      ints: 1
      ints: 1
      ints: 1
      ints: 1
      type: INTS
    }
    attribute {
      name: "strides"
      ints: 1
      ints: 1
      type: INTS
    }
  }
  node {
    input: "stage1_unit3_bn3_quantized"
    input: "stage1_unit3_bn3_scale"
    input: "stage1_unit3_bn3_zero_point"
    input: "_plus1_quantized"
    input: "_plus1_scale"
    input: "_plus1_zero_point"
    input: "_plus2_scale"
    input: "_plus2_zero_point"
    output: "_plus2_quantized"
    name: "_plus2_quant"
    op_type: "QLinearAdd"
    domain: "com.microsoft"
  }
  node {
    input: "_plus2_quantized"
    input: "_plus2_scale"
    input: "_plus2_zero_point"
    output: "_plus2"
    name: "_plus2__plus2_DequantizeLinear"
    op_type: "DequantizeLinear"
  }
  node {
    input: "_plus2_quantized"
    input: "_plus2_scale"
    input: "_plus2_zero_point"
    input: "ConvBnFusion_W_stage2_unit1_conv1sc_weight_quantized"
    input: "ConvBnFusion_W_stage2_unit1_conv1sc_weight_scale"
    input: "ConvBnFusion_W_stage2_unit1_conv1sc_weight_zero_point"
    input: "stage2_unit1_sc_scale"
    input: "stage2_unit1_sc_zero_point"
    input: "ConvBnFusion_BN_B_stage2_unit1_sc_beta_quantized"
    output: "stage2_unit1_sc_quantized"
    name: "stage2_unit1_conv1sc_quant"
    op_type: "QLinearConv"
    attribute {
      name: "auto_pad"
      s: "NOTSET"
      type: STRING
    }
    attribute {
      name: "dilations"
      ints: 1
      ints: 1
      type: INTS
    }
    attribute {
      name: "group"
      i: 1
      type: INT
    }
    attribute {
      name: "kernel_shape"
      ints: 1
      ints: 1
      type: INTS
    }
    attribute {
      name: "pads"
      ints: 0
      ints: 0
      ints: 0
      ints: 0
      type: INTS
    }
    attribute {
      name: "strides"
      ints: 2
      ints: 2
      type: INTS
    }
  }
  node {
    input: "_plus2"
    input: "stage2_unit1_bn1_gamma"
    input: "stage2_unit1_bn1_beta"
    input: "stage2_unit1_bn1_moving_mean"
    input: "stage2_unit1_bn1_moving_var"
    output: "stage2_unit1_bn1"
    name: "stage2_unit1_bn1"
    op_type: "BatchNormalization"
    attribute {
      name: "momentum"
      f: 0.9
      type: FLOAT
    }
    attribute {
      name: "epsilon"
      f: 2e-05
      type: FLOAT
    }
  }
  node {
    input: "stage2_unit1_bn1"
    input: "stage2_unit1_bn1_scale"
    input: "stage2_unit1_bn1_zero_point"
    output: "stage2_unit1_bn1_stage2_unit1_conv1_QuantizeLinear"
    name: "stage2_unit1_bn1_stage2_unit1_conv1_QuantizeLinear"
    op_type: "QuantizeLinear"
  }
  node {
    input: "stage2_unit1_bn1_stage2_unit1_conv1_QuantizeLinear"
    input: "stage2_unit1_bn1_scale"
    input: "stage2_unit1_bn1_zero_point"
    input: "ConvBnFusion_W_stage2_unit1_conv1_weight_quantized"
    input: "ConvBnFusion_W_stage2_unit1_conv1_weight_scale"
    input: "ConvBnFusion_W_stage2_unit1_conv1_weight_zero_point"
    input: "stage2_unit1_bn2_scale"
    input: "stage2_unit1_bn2_zero_point"
    input: "ConvBnFusion_BN_B_stage2_unit1_bn2_beta_quantized"
    output: "stage2_unit1_bn2_quantized"
    name: "stage2_unit1_conv1_quant"
    op_type: "QLinearConv"
    attribute {
      name: "auto_pad"
      s: "NOTSET"
      type: STRING
    }
    attribute {
      name: "dilations"
      ints: 1
      ints: 1
      type: INTS
    }
    attribute {
      name: "group"
      i: 1
      type: INT
    }
    attribute {
      name: "kernel_shape"
      ints: 3
      ints: 3
      type: INTS
    }
    attribute {
      name: "pads"
      ints: 1
      ints: 1
      ints: 1
      ints: 1
      type: INTS
    }
    attribute {
      name: "strides"
      ints: 1
      ints: 1
      type: INTS
    }
  }
  node {
    input: "stage2_unit1_bn2_quantized"
    input: "stage2_unit1_bn2_scale"
    input: "stage2_unit1_bn2_zero_point"
    output: "stage2_unit1_bn2"
    name: "stage2_unit1_bn2_stage2_unit1_conv1_DequantizeLinear"
    op_type: "DequantizeLinear"
  }
  node {
    input: "stage2_unit1_bn2"
    input: "slope99"
    output: "stage2_unit1_relu1"
    name: "stage2_unit1_relu1"
    op_type: "PRelu"
  }
  node {
    input: "stage2_unit1_relu1"
    input: "stage2_unit1_relu1_scale"
    input: "stage2_unit1_relu1_zero_point"
    output: "stage2_unit1_relu1_stage2_unit1_conv2_QuantizeLinear"
    name: "stage2_unit1_relu1_stage2_unit1_conv2_QuantizeLinear"
    op_type: "QuantizeLinear"
  }
  node {
    input: "stage2_unit1_relu1_stage2_unit1_conv2_QuantizeLinear"
    input: "stage2_unit1_relu1_scale"
    input: "stage2_unit1_relu1_zero_point"
    input: "ConvBnFusion_W_stage2_unit1_conv2_weight_quantized"
    input: "ConvBnFusion_W_stage2_unit1_conv2_weight_scale"
    input: "ConvBnFusion_W_stage2_unit1_conv2_weight_zero_point"
    input: "stage2_unit1_bn3_scale"
    input: "stage2_unit1_bn3_zero_point"
    input: "ConvBnFusion_BN_B_stage2_unit1_bn3_beta_quantized"
    output: "stage2_unit1_bn3_quantized"
    name: "stage2_unit1_conv2_quant"
    op_type: "QLinearConv"
    attribute {
      name: "auto_pad"
      s: "NOTSET"
      type: STRING
    }
    attribute {
      name: "dilations"
      ints: 1
      ints: 1
      type: INTS
    }
    attribute {
      name: "group"
      i: 1
      type: INT
    }
    attribute {
      name: "kernel_shape"
      ints: 3
      ints: 3
      type: INTS
    }
    attribute {
      name: "pads"
      ints: 1
      ints: 1
      ints: 1
      ints: 1
      type: INTS
    }
    attribute {
      name: "strides"
      ints: 2
      ints: 2
      type: INTS
    }
  }
  node {
    input: "stage2_unit1_bn3_quantized"
    input: "stage2_unit1_bn3_scale"
    input: "stage2_unit1_bn3_zero_point"
    input: "stage2_unit1_sc_quantized"
    input: "stage2_unit1_sc_scale"
    input: "stage2_unit1_sc_zero_point"
    input: "_plus3_scale"
    input: "_plus3_zero_point"
    output: "_plus3_quantized"
    name: "_plus3_quant"
    op_type: "QLinearAdd"
    domain: "com.microsoft"
  }
  node {
    input: "_plus3_quantized"
    input: "_plus3_scale"
    input: "_plus3_zero_point"
    output: "_plus3"
    name: "_plus3__plus3_DequantizeLinear"
    op_type: "DequantizeLinear"
  }
  node {
    input: "_plus3"
    input: "stage2_unit2_bn1_gamma"
    input: "stage2_unit2_bn1_beta"
    input: "stage2_unit2_bn1_moving_mean"
    input: "stage2_unit2_bn1_moving_var"
    output: "stage2_unit2_bn1"
    name: "stage2_unit2_bn1"
    op_type: "BatchNormalization"
    attribute {
      name: "momentum"
      f: 0.9
      type: FLOAT
    }
    attribute {
      name: "epsilon"
      f: 2e-05
      type: FLOAT
    }
  }
  node {
    input: "stage2_unit2_bn1"
    input: "stage2_unit2_bn1_scale"
    input: "stage2_unit2_bn1_zero_point"
    output: "stage2_unit2_bn1_stage2_unit2_conv1_QuantizeLinear"
    name: "stage2_unit2_bn1_stage2_unit2_conv1_QuantizeLinear"
    op_type: "QuantizeLinear"
  }
  node {
    input: "stage2_unit2_bn1_stage2_unit2_conv1_QuantizeLinear"
    input: "stage2_unit2_bn1_scale"
    input: "stage2_unit2_bn1_zero_point"
    input: "ConvBnFusion_W_stage2_unit2_conv1_weight_quantized"
    input: "ConvBnFusion_W_stage2_unit2_conv1_weight_scale"
    input: "ConvBnFusion_W_stage2_unit2_conv1_weight_zero_point"
    input: "stage2_unit2_bn2_scale"
    input: "stage2_unit2_bn2_zero_point"
    input: "ConvBnFusion_BN_B_stage2_unit2_bn2_beta_quantized"
    output: "stage2_unit2_bn2_quantized"
    name: "stage2_unit2_conv1_quant"
    op_type: "QLinearConv"
    attribute {
      name: "auto_pad"
      s: "NOTSET"
      type: STRING
    }
    attribute {
      name: "dilations"
      ints: 1
      ints: 1
      type: INTS
    }
    attribute {
      name: "group"
      i: 1
      type: INT
    }
    attribute {
      name: "kernel_shape"
      ints: 3
      ints: 3
      type: INTS
    }
    attribute {
      name: "pads"
      ints: 1
      ints: 1
      ints: 1
      ints: 1
      type: INTS
    }
    attribute {
      name: "strides"
      ints: 1
      ints: 1
      type: INTS
    }
  }
  node {
    input: "stage2_unit2_bn2_quantized"
    input: "stage2_unit2_bn2_scale"
    input: "stage2_unit2_bn2_zero_point"
    output: "stage2_unit2_bn2"
    name: "stage2_unit2_bn2_stage2_unit2_conv1_DequantizeLinear"
    op_type: "DequantizeLinear"
  }
  node {
    input: "stage2_unit2_bn2"
    input: "slope128"
    output: "stage2_unit2_relu1"
    name: "stage2_unit2_relu1"
    op_type: "PRelu"
  }
  node {
    input: "stage2_unit2_relu1"
    input: "stage2_unit2_relu1_scale"
    input: "stage2_unit2_relu1_zero_point"
    output: "stage2_unit2_relu1_stage2_unit2_conv2_QuantizeLinear"
    name: "stage2_unit2_relu1_stage2_unit2_conv2_QuantizeLinear"
    op_type: "QuantizeLinear"
  }
  node {
    input: "stage2_unit2_relu1_stage2_unit2_conv2_QuantizeLinear"
    input: "stage2_unit2_relu1_scale"
    input: "stage2_unit2_relu1_zero_point"
    input: "ConvBnFusion_W_stage2_unit2_conv2_weight_quantized"
    input: "ConvBnFusion_W_stage2_unit2_conv2_weight_scale"
    input: "ConvBnFusion_W_stage2_unit2_conv2_weight_zero_point"
    input: "stage2_unit2_bn3_scale"
    input: "stage2_unit2_bn3_zero_point"
    input: "ConvBnFusion_BN_B_stage2_unit2_bn3_beta_quantized"
    output: "stage2_unit2_bn3_quantized"
    name: "stage2_unit2_conv2_quant"
    op_type: "QLinearConv"
    attribute {
      name: "auto_pad"
      s: "NOTSET"
      type: STRING
    }
    attribute {
      name: "dilations"
      ints: 1
      ints: 1
      type: INTS
    }
    attribute {
      name: "group"
      i: 1
      type: INT
    }
    attribute {
      name: "kernel_shape"
      ints: 3
      ints: 3
      type: INTS
    }
    attribute {
      name: "pads"
      ints: 1
      ints: 1
      ints: 1
      ints: 1
      type: INTS
    }
    attribute {
      name: "strides"
      ints: 1
      ints: 1
      type: INTS
    }
  }
  node {
    input: "stage2_unit2_bn3_quantized"
    input: "stage2_unit2_bn3_scale"
    input: "stage2_unit2_bn3_zero_point"
    input: "_plus3_quantized"
    input: "_plus3_scale"
    input: "_plus3_zero_point"
    input: "_plus4_scale"
    input: "_plus4_zero_point"
    output: "_plus4_quantized"
    name: "_plus4_quant"
    op_type: "QLinearAdd"
    domain: "com.microsoft"
  }
  node {
    input: "_plus4_quantized"
    input: "_plus4_scale"
    input: "_plus4_zero_point"
    output: "_plus4"
    name: "_plus4__plus4_DequantizeLinear"
    op_type: "DequantizeLinear"
  }
  node {
    input: "_plus4"
    input: "stage2_unit3_bn1_gamma"
    input: "stage2_unit3_bn1_beta"
    input: "stage2_unit3_bn1_moving_mean"
    input: "stage2_unit3_bn1_moving_var"
    output: "stage2_unit3_bn1"
    name: "stage2_unit3_bn1"
    op_type: "BatchNormalization"
    attribute {
      name: "momentum"
      f: 0.9
      type: FLOAT
    }
    attribute {
      name: "epsilon"
      f: 2e-05
      type: FLOAT
    }
  }
  node {
    input: "stage2_unit3_bn1"
    input: "stage2_unit3_bn1_scale"
    input: "stage2_unit3_bn1_zero_point"
    output: "stage2_unit3_bn1_stage2_unit3_conv1_QuantizeLinear"
    name: "stage2_unit3_bn1_stage2_unit3_conv1_QuantizeLinear"
    op_type: "QuantizeLinear"
  }
  node {
    input: "stage2_unit3_bn1_stage2_unit3_conv1_QuantizeLinear"
    input: "stage2_unit3_bn1_scale"
    input: "stage2_unit3_bn1_zero_point"
    input: "ConvBnFusion_W_stage2_unit3_conv1_weight_quantized"
    input: "ConvBnFusion_W_stage2_unit3_conv1_weight_scale"
    input: "ConvBnFusion_W_stage2_unit3_conv1_weight_zero_point"
    input: "stage2_unit3_bn2_scale"
    input: "stage2_unit3_bn2_zero_point"
    input: "ConvBnFusion_BN_B_stage2_unit3_bn2_beta_quantized"
    output: "stage2_unit3_bn2_quantized"
    name: "stage2_unit3_conv1_quant"
    op_type: "QLinearConv"
    attribute {
      name: "auto_pad"
      s: "NOTSET"
      type: STRING
    }
    attribute {
      name: "dilations"
      ints: 1
      ints: 1
      type: INTS
    }
    attribute {
      name: "group"
      i: 1
      type: INT
    }
    attribute {
      name: "kernel_shape"
      ints: 3
      ints: 3
      type: INTS
    }
    attribute {
      name: "pads"
      ints: 1
      ints: 1
      ints: 1
      ints: 1
      type: INTS
    }
    attribute {
      name: "strides"
      ints: 1
      ints: 1
      type: INTS
    }
  }
  node {
    input: "stage2_unit3_bn2_quantized"
    input: "stage2_unit3_bn2_scale"
    input: "stage2_unit3_bn2_zero_point"
    output: "stage2_unit3_bn2"
    name: "stage2_unit3_bn2_stage2_unit3_conv1_DequantizeLinear"
    op_type: "DequantizeLinear"
  }
  node {
    input: "stage2_unit3_bn2"
    input: "slope150"
    output: "stage2_unit3_relu1"
    name: "stage2_unit3_relu1"
    op_type: "PRelu"
  }
  node {
    input: "stage2_unit3_relu1"
    input: "stage2_unit3_relu1_scale"
    input: "stage2_unit3_relu1_zero_point"
    output: "stage2_unit3_relu1_stage2_unit3_conv2_QuantizeLinear"
    name: "stage2_unit3_relu1_stage2_unit3_conv2_QuantizeLinear"
    op_type: "QuantizeLinear"
  }
  node {
    input: "stage2_unit3_relu1_stage2_unit3_conv2_QuantizeLinear"
    input: "stage2_unit3_relu1_scale"
    input: "stage2_unit3_relu1_zero_point"
    input: "ConvBnFusion_W_stage2_unit3_conv2_weight_quantized"
    input: "ConvBnFusion_W_stage2_unit3_conv2_weight_scale"
    input: "ConvBnFusion_W_stage2_unit3_conv2_weight_zero_point"
    input: "stage2_unit3_bn3_scale"
    input: "stage2_unit3_bn3_zero_point"
    input: "ConvBnFusion_BN_B_stage2_unit3_bn3_beta_quantized"
    output: "stage2_unit3_bn3_quantized"
    name: "stage2_unit3_conv2_quant"
    op_type: "QLinearConv"
    attribute {
      name: "auto_pad"
      s: "NOTSET"
      type: STRING
    }
    attribute {
      name: "dilations"
      ints: 1
      ints: 1
      type: INTS
    }
    attribute {
      name: "group"
      i: 1
      type: INT
    }
    attribute {
      name: "kernel_shape"
      ints: 3
      ints: 3
      type: INTS
    }
    attribute {
      name: "pads"
      ints: 1
      ints: 1
      ints: 1
      ints: 1
      type: INTS
    }
    attribute {
      name: "strides"
      ints: 1
      ints: 1
      type: INTS
    }
  }
  node {
    input: "stage2_unit3_bn3_quantized"
    input: "stage2_unit3_bn3_scale"
    input: "stage2_unit3_bn3_zero_point"
    input: "_plus4_quantized"
    input: "_plus4_scale"
    input: "_plus4_zero_point"
    input: "_plus5_scale"
    input: "_plus5_zero_point"
    output: "_plus5_quantized"
    name: "_plus5_quant"
    op_type: "QLinearAdd"
    domain: "com.microsoft"
  }
  node {
    input: "_plus5_quantized"
    input: "_plus5_scale"
    input: "_plus5_zero_point"
    output: "_plus5"
    name: "_plus5__plus5_DequantizeLinear"
    op_type: "DequantizeLinear"
  }
  node {
    input: "_plus5"
    input: "stage2_unit4_bn1_gamma"
    input: "stage2_unit4_bn1_beta"
    input: "stage2_unit4_bn1_moving_mean"
    input: "stage2_unit4_bn1_moving_var"
    output: "stage2_unit4_bn1"
    name: "stage2_unit4_bn1"
    op_type: "BatchNormalization"
    attribute {
      name: "momentum"
      f: 0.9
      type: FLOAT
    }
    attribute {
      name: "epsilon"
      f: 2e-05
      type: FLOAT
    }
  }
  node {
    input: "stage2_unit4_bn1"
    input: "stage2_unit4_bn1_scale"
    input: "stage2_unit4_bn1_zero_point"
    output: "stage2_unit4_bn1_stage2_unit4_conv1_QuantizeLinear"
    name: "stage2_unit4_bn1_stage2_unit4_conv1_QuantizeLinear"
    op_type: "QuantizeLinear"
  }
  node {
    input: "stage2_unit4_bn1_stage2_unit4_conv1_QuantizeLinear"
    input: "stage2_unit4_bn1_scale"
    input: "stage2_unit4_bn1_zero_point"
    input: "ConvBnFusion_W_stage2_unit4_conv1_weight_quantized"
    input: "ConvBnFusion_W_stage2_unit4_conv1_weight_scale"
    input: "ConvBnFusion_W_stage2_unit4_conv1_weight_zero_point"
    input: "stage2_unit4_bn2_scale"
    input: "stage2_unit4_bn2_zero_point"
    input: "ConvBnFusion_BN_B_stage2_unit4_bn2_beta_quantized"
    output: "stage2_unit4_bn2_quantized"
    name: "stage2_unit4_conv1_quant"
    op_type: "QLinearConv"
    attribute {
      name: "auto_pad"
      s: "NOTSET"
      type: STRING
    }
    attribute {
      name: "dilations"
      ints: 1
      ints: 1
      type: INTS
    }
    attribute {
      name: "group"
      i: 1
      type: INT
    }
    attribute {
      name: "kernel_shape"
      ints: 3
      ints: 3
      type: INTS
    }
    attribute {
      name: "pads"
      ints: 1
      ints: 1
      ints: 1
      ints: 1
      type: INTS
    }
    attribute {
      name: "strides"
      ints: 1
      ints: 1
      type: INTS
    }
  }
  node {
    input: "stage2_unit4_bn2_quantized"
    input: "stage2_unit4_bn2_scale"
    input: "stage2_unit4_bn2_zero_point"
    output: "stage2_unit4_bn2"
    name: "stage2_unit4_bn2_stage2_unit4_conv1_DequantizeLinear"
    op_type: "DequantizeLinear"
  }
  node {
    input: "stage2_unit4_bn2"
    input: "slope172"
    output: "stage2_unit4_relu1"
    name: "stage2_unit4_relu1"
    op_type: "PRelu"
  }
  node {
    input: "stage2_unit4_relu1"
    input: "stage2_unit4_relu1_scale"
    input: "stage2_unit4_relu1_zero_point"
    output: "stage2_unit4_relu1_stage2_unit4_conv2_QuantizeLinear"
    name: "stage2_unit4_relu1_stage2_unit4_conv2_QuantizeLinear"
    op_type: "QuantizeLinear"
  }
  node {
    input: "stage2_unit4_relu1_stage2_unit4_conv2_QuantizeLinear"
    input: "stage2_unit4_relu1_scale"
    input: "stage2_unit4_relu1_zero_point"
    input: "ConvBnFusion_W_stage2_unit4_conv2_weight_quantized"
    input: "ConvBnFusion_W_stage2_unit4_conv2_weight_scale"
    input: "ConvBnFusion_W_stage2_unit4_conv2_weight_zero_point"
    input: "stage2_unit4_bn3_scale"
    input: "stage2_unit4_bn3_zero_point"
    input: "ConvBnFusion_BN_B_stage2_unit4_bn3_beta_quantized"
    output: "stage2_unit4_bn3_quantized"
    name: "stage2_unit4_conv2_quant"
    op_type: "QLinearConv"
    attribute {
      name: "auto_pad"
      s: "NOTSET"
      type: STRING
    }
    attribute {
      name: "dilations"
      ints: 1
      ints: 1
      type: INTS
    }
    attribute {
      name: "group"
      i: 1
      type: INT
    }
    attribute {
      name: "kernel_shape"
      ints: 3
      ints: 3
      type: INTS
    }
    attribute {
      name: "pads"
      ints: 1
      ints: 1
      ints: 1
      ints: 1
      type: INTS
    }
    attribute {
      name: "strides"
      ints: 1
      ints: 1
      type: INTS
    }
  }
  node {
    input: "stage2_unit4_bn3_quantized"
    input: "stage2_unit4_bn3_scale"
    input: "stage2_unit4_bn3_zero_point"
    input: "_plus5_quantized"
    input: "_plus5_scale"
    input: "_plus5_zero_point"
    input: "_plus6_scale"
    input: "_plus6_zero_point"
    output: "_plus6_quantized"
    name: "_plus6_quant"
    op_type: "QLinearAdd"
    domain: "com.microsoft"
  }
  node {
    input: "_plus6_quantized"
    input: "_plus6_scale"
    input: "_plus6_zero_point"
    output: "_plus6"
    name: "_plus6__plus6_DequantizeLinear"
    op_type: "DequantizeLinear"
  }
  node {
    input: "_plus6"
    input: "stage2_unit5_bn1_gamma"
    input: "stage2_unit5_bn1_beta"
    input: "stage2_unit5_bn1_moving_mean"
    input: "stage2_unit5_bn1_moving_var"
    output: "stage2_unit5_bn1"
    name: "stage2_unit5_bn1"
    op_type: "BatchNormalization"
    attribute {
      name: "momentum"
      f: 0.9
      type: FLOAT
    }
    attribute {
      name: "epsilon"
      f: 2e-05
      type: FLOAT
    }
  }
  node {
    input: "stage2_unit5_bn1"
    input: "stage2_unit5_bn1_scale"
    input: "stage2_unit5_bn1_zero_point"
    output: "stage2_unit5_bn1_stage2_unit5_conv1_QuantizeLinear"
    name: "stage2_unit5_bn1_stage2_unit5_conv1_QuantizeLinear"
    op_type: "QuantizeLinear"
  }
  node {
    input: "stage2_unit5_bn1_stage2_unit5_conv1_QuantizeLinear"
    input: "stage2_unit5_bn1_scale"
    input: "stage2_unit5_bn1_zero_point"
    input: "ConvBnFusion_W_stage2_unit5_conv1_weight_quantized"
    input: "ConvBnFusion_W_stage2_unit5_conv1_weight_scale"
    input: "ConvBnFusion_W_stage2_unit5_conv1_weight_zero_point"
    input: "stage2_unit5_bn2_scale"
    input: "stage2_unit5_bn2_zero_point"
    input: "ConvBnFusion_BN_B_stage2_unit5_bn2_beta_quantized"
    output: "stage2_unit5_bn2_quantized"
    name: "stage2_unit5_conv1_quant"
    op_type: "QLinearConv"
    attribute {
      name: "auto_pad"
      s: "NOTSET"
      type: STRING
    }
    attribute {
      name: "dilations"
      ints: 1
      ints: 1
      type: INTS
    }
    attribute {
      name: "group"
      i: 1
      type: INT
    }
    attribute {
      name: "kernel_shape"
      ints: 3
      ints: 3
      type: INTS
    }
    attribute {
      name: "pads"
      ints: 1
      ints: 1
      ints: 1
      ints: 1
      type: INTS
    }
    attribute {
      name: "strides"
      ints: 1
      ints: 1
      type: INTS
    }
  }
  node {
    input: "stage2_unit5_bn2_quantized"
    input: "stage2_unit5_bn2_scale"
    input: "stage2_unit5_bn2_zero_point"
    output: "stage2_unit5_bn2"
    name: "stage2_unit5_bn2_stage2_unit5_conv1_DequantizeLinear"
    op_type: "DequantizeLinear"
  }
  node {
    input: "stage2_unit5_bn2"
    input: "slope194"
    output: "stage2_unit5_relu1"
    name: "stage2_unit5_relu1"
    op_type: "PRelu"
  }
  node {
    input: "stage2_unit5_relu1"
    input: "stage2_unit5_relu1_scale"
    input: "stage2_unit5_relu1_zero_point"
    output: "stage2_unit5_relu1_stage2_unit5_conv2_QuantizeLinear"
    name: "stage2_unit5_relu1_stage2_unit5_conv2_QuantizeLinear"
    op_type: "QuantizeLinear"
  }
  node {
    input: "stage2_unit5_relu1_stage2_unit5_conv2_QuantizeLinear"
    input: "stage2_unit5_relu1_scale"
    input: "stage2_unit5_relu1_zero_point"
    input: "ConvBnFusion_W_stage2_unit5_conv2_weight_quantized"
    input: "ConvBnFusion_W_stage2_unit5_conv2_weight_scale"
    input: "ConvBnFusion_W_stage2_unit5_conv2_weight_zero_point"
    input: "stage2_unit5_bn3_scale"
    input: "stage2_unit5_bn3_zero_point"
    input: "ConvBnFusion_BN_B_stage2_unit5_bn3_beta_quantized"
    output: "stage2_unit5_bn3_quantized"
    name: "stage2_unit5_conv2_quant"
    op_type: "QLinearConv"
    attribute {
      name: "auto_pad"
      s: "NOTSET"
      type: STRING
    }
    attribute {
      name: "dilations"
      ints: 1
      ints: 1
      type: INTS
    }
    attribute {
      name: "group"
      i: 1
      type: INT
    }
    attribute {
      name: "kernel_shape"
      ints: 3
      ints: 3
      type: INTS
    }
    attribute {
      name: "pads"
      ints: 1
      ints: 1
      ints: 1
      ints: 1
      type: INTS
    }
    attribute {
      name: "strides"
      ints: 1
      ints: 1
      type: INTS
    }
  }
  node {
    input: "stage2_unit5_bn3_quantized"
    input: "stage2_unit5_bn3_scale"
    input: "stage2_unit5_bn3_zero_point"
    input: "_plus6_quantized"
    input: "_plus6_scale"
    input: "_plus6_zero_point"
    input: "_plus7_scale"
    input: "_plus7_zero_point"
    output: "_plus7_quantized"
    name: "_plus7_quant"
    op_type: "QLinearAdd"
    domain: "com.microsoft"
  }
  node {
    input: "_plus7_quantized"
    input: "_plus7_scale"
    input: "_plus7_zero_point"
    output: "_plus7"
    name: "_plus7__plus7_DequantizeLinear"
    op_type: "DequantizeLinear"
  }
  node {
    input: "_plus7"
    input: "stage2_unit6_bn1_gamma"
    input: "stage2_unit6_bn1_beta"
    input: "stage2_unit6_bn1_moving_mean"
    input: "stage2_unit6_bn1_moving_var"
    output: "stage2_unit6_bn1"
    name: "stage2_unit6_bn1"
    op_type: "BatchNormalization"
    attribute {
      name: "momentum"
      f: 0.9
      type: FLOAT
    }
    attribute {
      name: "epsilon"
      f: 2e-05
      type: FLOAT
    }
  }
  node {
    input: "stage2_unit6_bn1"
    input: "stage2_unit6_bn1_scale"
    input: "stage2_unit6_bn1_zero_point"
    output: "stage2_unit6_bn1_stage2_unit6_conv1_QuantizeLinear"
    name: "stage2_unit6_bn1_stage2_unit6_conv1_QuantizeLinear"
    op_type: "QuantizeLinear"
  }
  node {
    input: "stage2_unit6_bn1_stage2_unit6_conv1_QuantizeLinear"
    input: "stage2_unit6_bn1_scale"
    input: "stage2_unit6_bn1_zero_point"
    input: "ConvBnFusion_W_stage2_unit6_conv1_weight_quantized"
    input: "ConvBnFusion_W_stage2_unit6_conv1_weight_scale"
    input: "ConvBnFusion_W_stage2_unit6_conv1_weight_zero_point"
    input: "stage2_unit6_bn2_scale"
    input: "stage2_unit6_bn2_zero_point"
    input: "ConvBnFusion_BN_B_stage2_unit6_bn2_beta_quantized"
    output: "stage2_unit6_bn2_quantized"
    name: "stage2_unit6_conv1_quant"
    op_type: "QLinearConv"
    attribute {
      name: "auto_pad"
      s: "NOTSET"
      type: STRING
    }
    attribute {
      name: "dilations"
      ints: 1
      ints: 1
      type: INTS
    }
    attribute {
      name: "group"
      i: 1
      type: INT
    }
    attribute {
      name: "kernel_shape"
      ints: 3
      ints: 3
      type: INTS
    }
    attribute {
      name: "pads"
      ints: 1
      ints: 1
      ints: 1
      ints: 1
      type: INTS
    }
    attribute {
      name: "strides"
      ints: 1
      ints: 1
      type: INTS
    }
  }
  node {
    input: "stage2_unit6_bn2_quantized"
    input: "stage2_unit6_bn2_scale"
    input: "stage2_unit6_bn2_zero_point"
    output: "stage2_unit6_bn2"
    name: "stage2_unit6_bn2_stage2_unit6_conv1_DequantizeLinear"
    op_type: "DequantizeLinear"
  }
  node {
    input: "stage2_unit6_bn2"
    input: "slope216"
    output: "stage2_unit6_relu1"
    name: "stage2_unit6_relu1"
    op_type: "PRelu"
  }
  node {
    input: "stage2_unit6_relu1"
    input: "stage2_unit6_relu1_scale"
    input: "stage2_unit6_relu1_zero_point"
    output: "stage2_unit6_relu1_stage2_unit6_conv2_QuantizeLinear"
    name: "stage2_unit6_relu1_stage2_unit6_conv2_QuantizeLinear"
    op_type: "QuantizeLinear"
  }
  node {
    input: "stage2_unit6_relu1_stage2_unit6_conv2_QuantizeLinear"
    input: "stage2_unit6_relu1_scale"
    input: "stage2_unit6_relu1_zero_point"
    input: "ConvBnFusion_W_stage2_unit6_conv2_weight_quantized"
    input: "ConvBnFusion_W_stage2_unit6_conv2_weight_scale"
    input: "ConvBnFusion_W_stage2_unit6_conv2_weight_zero_point"
    input: "stage2_unit6_bn3_scale"
    input: "stage2_unit6_bn3_zero_point"
    input: "ConvBnFusion_BN_B_stage2_unit6_bn3_beta_quantized"
    output: "stage2_unit6_bn3_quantized"
    name: "stage2_unit6_conv2_quant"
    op_type: "QLinearConv"
    attribute {
      name: "auto_pad"
      s: "NOTSET"
      type: STRING
    }
    attribute {
      name: "dilations"
      ints: 1
      ints: 1
      type: INTS
    }
    attribute {
      name: "group"
      i: 1
      type: INT
    }
    attribute {
      name: "kernel_shape"
      ints: 3
      ints: 3
      type: INTS
    }
    attribute {
      name: "pads"
      ints: 1
      ints: 1
      ints: 1
      ints: 1
      type: INTS
    }
    attribute {
      name: "strides"
      ints: 1
      ints: 1
      type: INTS
    }
  }
  node {
    input: "stage2_unit6_bn3_quantized"
    input: "stage2_unit6_bn3_scale"
    input: "stage2_unit6_bn3_zero_point"
    input: "_plus7_quantized"
    input: "_plus7_scale"
    input: "_plus7_zero_point"
    input: "_plus8_scale"
    input: "_plus8_zero_point"
    output: "_plus8_quantized"
    name: "_plus8_quant"
    op_type: "QLinearAdd"
    domain: "com.microsoft"
  }
  node {
    input: "_plus8_quantized"
    input: "_plus8_scale"
    input: "_plus8_zero_point"
    output: "_plus8"
    name: "_plus8__plus8_DequantizeLinear"
    op_type: "DequantizeLinear"
  }
  node {
    input: "_plus8"
    input: "stage2_unit7_bn1_gamma"
    input: "stage2_unit7_bn1_beta"
    input: "stage2_unit7_bn1_moving_mean"
    input: "stage2_unit7_bn1_moving_var"
    output: "stage2_unit7_bn1"
    name: "stage2_unit7_bn1"
    op_type: "BatchNormalization"
    attribute {
      name: "momentum"
      f: 0.9
      type: FLOAT
    }
    attribute {
      name: "epsilon"
      f: 2e-05
      type: FLOAT
    }
  }
  node {
    input: "stage2_unit7_bn1"
    input: "stage2_unit7_bn1_scale"
    input: "stage2_unit7_bn1_zero_point"
    output: "stage2_unit7_bn1_stage2_unit7_conv1_QuantizeLinear"
    name: "stage2_unit7_bn1_stage2_unit7_conv1_QuantizeLinear"
    op_type: "QuantizeLinear"
  }
  node {
    input: "stage2_unit7_bn1_stage2_unit7_conv1_QuantizeLinear"
    input: "stage2_unit7_bn1_scale"
    input: "stage2_unit7_bn1_zero_point"
    input: "ConvBnFusion_W_stage2_unit7_conv1_weight_quantized"
    input: "ConvBnFusion_W_stage2_unit7_conv1_weight_scale"
    input: "ConvBnFusion_W_stage2_unit7_conv1_weight_zero_point"
    input: "stage2_unit7_bn2_scale"
    input: "stage2_unit7_bn2_zero_point"
    input: "ConvBnFusion_BN_B_stage2_unit7_bn2_beta_quantized"
    output: "stage2_unit7_bn2_quantized"
    name: "stage2_unit7_conv1_quant"
    op_type: "QLinearConv"
    attribute {
      name: "auto_pad"
      s: "NOTSET"
      type: STRING
    }
    attribute {
      name: "dilations"
      ints: 1
      ints: 1
      type: INTS
    }
    attribute {
      name: "group"
      i: 1
      type: INT
    }
    attribute {
      name: "kernel_shape"
      ints: 3
      ints: 3
      type: INTS
    }
    attribute {
      name: "pads"
      ints: 1
      ints: 1
      ints: 1
      ints: 1
      type: INTS
    }
    attribute {
      name: "strides"
      ints: 1
      ints: 1
      type: INTS
    }
  }
  node {
    input: "stage2_unit7_bn2_quantized"
    input: "stage2_unit7_bn2_scale"
    input: "stage2_unit7_bn2_zero_point"
    output: "stage2_unit7_bn2"
    name: "stage2_unit7_bn2_stage2_unit7_conv1_DequantizeLinear"
    op_type: "DequantizeLinear"
  }
  node {
    input: "stage2_unit7_bn2"
    input: "slope238"
    output: "stage2_unit7_relu1"
    name: "stage2_unit7_relu1"
    op_type: "PRelu"
  }
  node {
    input: "stage2_unit7_relu1"
    input: "stage2_unit7_relu1_scale"
    input: "stage2_unit7_relu1_zero_point"
    output: "stage2_unit7_relu1_stage2_unit7_conv2_QuantizeLinear"
    name: "stage2_unit7_relu1_stage2_unit7_conv2_QuantizeLinear"
    op_type: "QuantizeLinear"
  }
  node {
    input: "stage2_unit7_relu1_stage2_unit7_conv2_QuantizeLinear"
    input: "stage2_unit7_relu1_scale"
    input: "stage2_unit7_relu1_zero_point"
    input: "ConvBnFusion_W_stage2_unit7_conv2_weight_quantized"
    input: "ConvBnFusion_W_stage2_unit7_conv2_weight_scale"
    input: "ConvBnFusion_W_stage2_unit7_conv2_weight_zero_point"
    input: "stage2_unit7_bn3_scale"
    input: "stage2_unit7_bn3_zero_point"
    input: "ConvBnFusion_BN_B_stage2_unit7_bn3_beta_quantized"
    output: "stage2_unit7_bn3_quantized"
    name: "stage2_unit7_conv2_quant"
    op_type: "QLinearConv"
    attribute {
      name: "auto_pad"
      s: "NOTSET"
      type: STRING
    }
    attribute {
      name: "dilations"
      ints: 1
      ints: 1
      type: INTS
    }
    attribute {
      name: "group"
      i: 1
      type: INT
    }
    attribute {
      name: "kernel_shape"
      ints: 3
      ints: 3
      type: INTS
    }
    attribute {
      name: "pads"
      ints: 1
      ints: 1
      ints: 1
      ints: 1
      type: INTS
    }
    attribute {
      name: "strides"
      ints: 1
      ints: 1
      type: INTS
    }
  }
  node {
    input: "stage2_unit7_bn3_quantized"
    input: "stage2_unit7_bn3_scale"
    input: "stage2_unit7_bn3_zero_point"
    input: "_plus8_quantized"
    input: "_plus8_scale"
    input: "_plus8_zero_point"
    input: "_plus9_scale"
    input: "_plus9_zero_point"
    output: "_plus9_quantized"
    name: "_plus9_quant"
    op_type: "QLinearAdd"
    domain: "com.microsoft"
  }
  node {
    input: "_plus9_quantized"
    input: "_plus9_scale"
    input: "_plus9_zero_point"
    output: "_plus9"
    name: "_plus9__plus9_DequantizeLinear"
    op_type: "DequantizeLinear"
  }
  node {
    input: "_plus9"
    input: "stage2_unit8_bn1_gamma"
    input: "stage2_unit8_bn1_beta"
    input: "stage2_unit8_bn1_moving_mean"
    input: "stage2_unit8_bn1_moving_var"
    output: "stage2_unit8_bn1"
    name: "stage2_unit8_bn1"
    op_type: "BatchNormalization"
    attribute {
      name: "momentum"
      f: 0.9
      type: FLOAT
    }
    attribute {
      name: "epsilon"
      f: 2e-05
      type: FLOAT
    }
  }
  node {
    input: "stage2_unit8_bn1"
    input: "stage2_unit8_bn1_scale"
    input: "stage2_unit8_bn1_zero_point"
    output: "stage2_unit8_bn1_stage2_unit8_conv1_QuantizeLinear"
    name: "stage2_unit8_bn1_stage2_unit8_conv1_QuantizeLinear"
    op_type: "QuantizeLinear"
  }
  node {
    input: "stage2_unit8_bn1_stage2_unit8_conv1_QuantizeLinear"
    input: "stage2_unit8_bn1_scale"
    input: "stage2_unit8_bn1_zero_point"
    input: "ConvBnFusion_W_stage2_unit8_conv1_weight_quantized"
    input: "ConvBnFusion_W_stage2_unit8_conv1_weight_scale"
    input: "ConvBnFusion_W_stage2_unit8_conv1_weight_zero_point"
    input: "stage2_unit8_bn2_scale"
    input: "stage2_unit8_bn2_zero_point"
    input: "ConvBnFusion_BN_B_stage2_unit8_bn2_beta_quantized"
    output: "stage2_unit8_bn2_quantized"
    name: "stage2_unit8_conv1_quant"
    op_type: "QLinearConv"
    attribute {
      name: "auto_pad"
      s: "NOTSET"
      type: STRING
    }
    attribute {
      name: "dilations"
      ints: 1
      ints: 1
      type: INTS
    }
    attribute {
      name: "group"
      i: 1
      type: INT
    }
    attribute {
      name: "kernel_shape"
      ints: 3
      ints: 3
      type: INTS
    }
    attribute {
      name: "pads"
      ints: 1
      ints: 1
      ints: 1
      ints: 1
      type: INTS
    }
    attribute {
      name: "strides"
      ints: 1
      ints: 1
      type: INTS
    }
  }
  node {
    input: "stage2_unit8_bn2_quantized"
    input: "stage2_unit8_bn2_scale"
    input: "stage2_unit8_bn2_zero_point"
    output: "stage2_unit8_bn2"
    name: "stage2_unit8_bn2_stage2_unit8_conv1_DequantizeLinear"
    op_type: "DequantizeLinear"
  }
  node {
    input: "stage2_unit8_bn2"
    input: "slope260"
    output: "stage2_unit8_relu1"
    name: "stage2_unit8_relu1"
    op_type: "PRelu"
  }
  node {
    input: "stage2_unit8_relu1"
    input: "stage2_unit8_relu1_scale"
    input: "stage2_unit8_relu1_zero_point"
    output: "stage2_unit8_relu1_stage2_unit8_conv2_QuantizeLinear"
    name: "stage2_unit8_relu1_stage2_unit8_conv2_QuantizeLinear"
    op_type: "QuantizeLinear"
  }
  node {
    input: "stage2_unit8_relu1_stage2_unit8_conv2_QuantizeLinear"
    input: "stage2_unit8_relu1_scale"
    input: "stage2_unit8_relu1_zero_point"
    input: "ConvBnFusion_W_stage2_unit8_conv2_weight_quantized"
    input: "ConvBnFusion_W_stage2_unit8_conv2_weight_scale"
    input: "ConvBnFusion_W_stage2_unit8_conv2_weight_zero_point"
    input: "stage2_unit8_bn3_scale"
    input: "stage2_unit8_bn3_zero_point"
    input: "ConvBnFusion_BN_B_stage2_unit8_bn3_beta_quantized"
    output: "stage2_unit8_bn3_quantized"
    name: "stage2_unit8_conv2_quant"
    op_type: "QLinearConv"
    attribute {
      name: "auto_pad"
      s: "NOTSET"
      type: STRING
    }
    attribute {
      name: "dilations"
      ints: 1
      ints: 1
      type: INTS
    }
    attribute {
      name: "group"
      i: 1
      type: INT
    }
    attribute {
      name: "kernel_shape"
      ints: 3
      ints: 3
      type: INTS
    }
    attribute {
      name: "pads"
      ints: 1
      ints: 1
      ints: 1
      ints: 1
      type: INTS
    }
    attribute {
      name: "strides"
      ints: 1
      ints: 1
      type: INTS
    }
  }
  node {
    input: "stage2_unit8_bn3_quantized"
    input: "stage2_unit8_bn3_scale"
    input: "stage2_unit8_bn3_zero_point"
    input: "_plus9_quantized"
    input: "_plus9_scale"
    input: "_plus9_zero_point"
    input: "_plus10_scale"
    input: "_plus10_zero_point"
    output: "_plus10_quantized"
    name: "_plus10_quant"
    op_type: "QLinearAdd"
    domain: "com.microsoft"
  }
  node {
    input: "_plus10_quantized"
    input: "_plus10_scale"
    input: "_plus10_zero_point"
    output: "_plus10"
    name: "_plus10__plus10_DequantizeLinear"
    op_type: "DequantizeLinear"
  }
  node {
    input: "_plus10"
    input: "stage2_unit9_bn1_gamma"
    input: "stage2_unit9_bn1_beta"
    input: "stage2_unit9_bn1_moving_mean"
    input: "stage2_unit9_bn1_moving_var"
    output: "stage2_unit9_bn1"
    name: "stage2_unit9_bn1"
    op_type: "BatchNormalization"
    attribute {
      name: "momentum"
      f: 0.9
      type: FLOAT
    }
    attribute {
      name: "epsilon"
      f: 2e-05
      type: FLOAT
    }
  }
  node {
    input: "stage2_unit9_bn1"
    input: "stage2_unit9_bn1_scale"
    input: "stage2_unit9_bn1_zero_point"
    output: "stage2_unit9_bn1_stage2_unit9_conv1_QuantizeLinear"
    name: "stage2_unit9_bn1_stage2_unit9_conv1_QuantizeLinear"
    op_type: "QuantizeLinear"
  }
  node {
    input: "stage2_unit9_bn1_stage2_unit9_conv1_QuantizeLinear"
    input: "stage2_unit9_bn1_scale"
    input: "stage2_unit9_bn1_zero_point"
    input: "ConvBnFusion_W_stage2_unit9_conv1_weight_quantized"
    input: "ConvBnFusion_W_stage2_unit9_conv1_weight_scale"
    input: "ConvBnFusion_W_stage2_unit9_conv1_weight_zero_point"
    input: "stage2_unit9_bn2_scale"
    input: "stage2_unit9_bn2_zero_point"
    input: "ConvBnFusion_BN_B_stage2_unit9_bn2_beta_quantized"
    output: "stage2_unit9_bn2_quantized"
    name: "stage2_unit9_conv1_quant"
    op_type: "QLinearConv"
    attribute {
      name: "auto_pad"
      s: "NOTSET"
      type: STRING
    }
    attribute {
      name: "dilations"
      ints: 1
      ints: 1
      type: INTS
    }
    attribute {
      name: "group"
      i: 1
      type: INT
    }
    attribute {
      name: "kernel_shape"
      ints: 3
      ints: 3
      type: INTS
    }
    attribute {
      name: "pads"
      ints: 1
      ints: 1
      ints: 1
      ints: 1
      type: INTS
    }
    attribute {
      name: "strides"
      ints: 1
      ints: 1
      type: INTS
    }
  }
  node {
    input: "stage2_unit9_bn2_quantized"
    input: "stage2_unit9_bn2_scale"
    input: "stage2_unit9_bn2_zero_point"
    output: "stage2_unit9_bn2"
    name: "stage2_unit9_bn2_stage2_unit9_conv1_DequantizeLinear"
    op_type: "DequantizeLinear"
  }
  node {
    input: "stage2_unit9_bn2"
    input: "slope282"
    output: "stage2_unit9_relu1"
    name: "stage2_unit9_relu1"
    op_type: "PRelu"
  }
  node {
    input: "stage2_unit9_relu1"
    input: "stage2_unit9_relu1_scale"
    input: "stage2_unit9_relu1_zero_point"
    output: "stage2_unit9_relu1_stage2_unit9_conv2_QuantizeLinear"
    name: "stage2_unit9_relu1_stage2_unit9_conv2_QuantizeLinear"
    op_type: "QuantizeLinear"
  }
  node {
    input: "stage2_unit9_relu1_stage2_unit9_conv2_QuantizeLinear"
    input: "stage2_unit9_relu1_scale"
    input: "stage2_unit9_relu1_zero_point"
    input: "ConvBnFusion_W_stage2_unit9_conv2_weight_quantized"
    input: "ConvBnFusion_W_stage2_unit9_conv2_weight_scale"
    input: "ConvBnFusion_W_stage2_unit9_conv2_weight_zero_point"
    input: "stage2_unit9_bn3_scale"
    input: "stage2_unit9_bn3_zero_point"
    input: "ConvBnFusion_BN_B_stage2_unit9_bn3_beta_quantized"
    output: "stage2_unit9_bn3_quantized"
    name: "stage2_unit9_conv2_quant"
    op_type: "QLinearConv"
    attribute {
      name: "auto_pad"
      s: "NOTSET"
      type: STRING
    }
    attribute {
      name: "dilations"
      ints: 1
      ints: 1
      type: INTS
    }
    attribute {
      name: "group"
      i: 1
      type: INT
    }
    attribute {
      name: "kernel_shape"
      ints: 3
      ints: 3
      type: INTS
    }
    attribute {
      name: "pads"
      ints: 1
      ints: 1
      ints: 1
      ints: 1
      type: INTS
    }
    attribute {
      name: "strides"
      ints: 1
      ints: 1
      type: INTS
    }
  }
  node {
    input: "stage2_unit9_bn3_quantized"
    input: "stage2_unit9_bn3_scale"
    input: "stage2_unit9_bn3_zero_point"
    input: "_plus10_quantized"
    input: "_plus10_scale"
    input: "_plus10_zero_point"
    input: "_plus11_scale"
    input: "_plus11_zero_point"
    output: "_plus11_quantized"
    name: "_plus11_quant"
    op_type: "QLinearAdd"
    domain: "com.microsoft"
  }
  node {
    input: "_plus11_quantized"
    input: "_plus11_scale"
    input: "_plus11_zero_point"
    output: "_plus11"
    name: "_plus11__plus11_DequantizeLinear"
    op_type: "DequantizeLinear"
  }
  node {
    input: "_plus11"
    input: "stage2_unit10_bn1_gamma"
    input: "stage2_unit10_bn1_beta"
    input: "stage2_unit10_bn1_moving_mean"
    input: "stage2_unit10_bn1_moving_var"
    output: "stage2_unit10_bn1"
    name: "stage2_unit10_bn1"
    op_type: "BatchNormalization"
    attribute {
      name: "momentum"
      f: 0.9
      type: FLOAT
    }
    attribute {
      name: "epsilon"
      f: 2e-05
      type: FLOAT
    }
  }
  node {
    input: "stage2_unit10_bn1"
    input: "stage2_unit10_bn1_scale"
    input: "stage2_unit10_bn1_zero_point"
    output: "stage2_unit10_bn1_stage2_unit10_conv1_QuantizeLinear"
    name: "stage2_unit10_bn1_stage2_unit10_conv1_QuantizeLinear"
    op_type: "QuantizeLinear"
  }
  node {
    input: "stage2_unit10_bn1_stage2_unit10_conv1_QuantizeLinear"
    input: "stage2_unit10_bn1_scale"
    input: "stage2_unit10_bn1_zero_point"
    input: "ConvBnFusion_W_stage2_unit10_conv1_weight_quantized"
    input: "ConvBnFusion_W_stage2_unit10_conv1_weight_scale"
    input: "ConvBnFusion_W_stage2_unit10_conv1_weight_zero_point"
    input: "stage2_unit10_bn2_scale"
    input: "stage2_unit10_bn2_zero_point"
    input: "ConvBnFusion_BN_B_stage2_unit10_bn2_beta_quantized"
    output: "stage2_unit10_bn2_quantized"
    name: "stage2_unit10_conv1_quant"
    op_type: "QLinearConv"
    attribute {
      name: "auto_pad"
      s: "NOTSET"
      type: STRING
    }
    attribute {
      name: "dilations"
      ints: 1
      ints: 1
      type: INTS
    }
    attribute {
      name: "group"
      i: 1
      type: INT
    }
    attribute {
      name: "kernel_shape"
      ints: 3
      ints: 3
      type: INTS
    }
    attribute {
      name: "pads"
      ints: 1
      ints: 1
      ints: 1
      ints: 1
      type: INTS
    }
    attribute {
      name: "strides"
      ints: 1
      ints: 1
      type: INTS
    }
  }
  node {
    input: "stage2_unit10_bn2_quantized"
    input: "stage2_unit10_bn2_scale"
    input: "stage2_unit10_bn2_zero_point"
    output: "stage2_unit10_bn2"
    name: "stage2_unit10_bn2_stage2_unit10_conv1_DequantizeLinear"
    op_type: "DequantizeLinear"
  }
  node {
    input: "stage2_unit10_bn2"
    input: "slope304"
    output: "stage2_unit10_relu1"
    name: "stage2_unit10_relu1"
    op_type: "PRelu"
  }
  node {
    input: "stage2_unit10_relu1"
    input: "stage2_unit10_relu1_scale"
    input: "stage2_unit10_relu1_zero_point"
    output: "stage2_unit10_relu1_stage2_unit10_conv2_QuantizeLinear"
    name: "stage2_unit10_relu1_stage2_unit10_conv2_QuantizeLinear"
    op_type: "QuantizeLinear"
  }
  node {
    input: "stage2_unit10_relu1_stage2_unit10_conv2_QuantizeLinear"
    input: "stage2_unit10_relu1_scale"
    input: "stage2_unit10_relu1_zero_point"
    input: "ConvBnFusion_W_stage2_unit10_conv2_weight_quantized"
    input: "ConvBnFusion_W_stage2_unit10_conv2_weight_scale"
    input: "ConvBnFusion_W_stage2_unit10_conv2_weight_zero_point"
    input: "stage2_unit10_bn3_scale"
    input: "stage2_unit10_bn3_zero_point"
    input: "ConvBnFusion_BN_B_stage2_unit10_bn3_beta_quantized"
    output: "stage2_unit10_bn3_quantized"
    name: "stage2_unit10_conv2_quant"
    op_type: "QLinearConv"
    attribute {
      name: "auto_pad"
      s: "NOTSET"
      type: STRING
    }
    attribute {
      name: "dilations"
      ints: 1
      ints: 1
      type: INTS
    }
    attribute {
      name: "group"
      i: 1
      type: INT
    }
    attribute {
      name: "kernel_shape"
      ints: 3
      ints: 3
      type: INTS
    }
    attribute {
      name: "pads"
      ints: 1
      ints: 1
      ints: 1
      ints: 1
      type: INTS
    }
    attribute {
      name: "strides"
      ints: 1
      ints: 1
      type: INTS
    }
  }
  node {
    input: "stage2_unit10_bn3_quantized"
    input: "stage2_unit10_bn3_scale"
    input: "stage2_unit10_bn3_zero_point"
    input: "_plus11_quantized"
    input: "_plus11_scale"
    input: "_plus11_zero_point"
    input: "_plus12_scale"
    input: "_plus12_zero_point"
    output: "_plus12_quantized"
    name: "_plus12_quant"
    op_type: "QLinearAdd"
    domain: "com.microsoft"
  }
  node {
    input: "_plus12_quantized"
    input: "_plus12_scale"
    input: "_plus12_zero_point"
    output: "_plus12"
    name: "_plus12__plus12_DequantizeLinear"
    op_type: "DequantizeLinear"
  }
  node {
    input: "_plus12"
    input: "stage2_unit11_bn1_gamma"
    input: "stage2_unit11_bn1_beta"
    input: "stage2_unit11_bn1_moving_mean"
    input: "stage2_unit11_bn1_moving_var"
    output: "stage2_unit11_bn1"
    name: "stage2_unit11_bn1"
    op_type: "BatchNormalization"
    attribute {
      name: "momentum"
      f: 0.9
      type: FLOAT
    }
    attribute {
      name: "epsilon"
      f: 2e-05
      type: FLOAT
    }
  }
  node {
    input: "stage2_unit11_bn1"
    input: "stage2_unit11_bn1_scale"
    input: "stage2_unit11_bn1_zero_point"
    output: "stage2_unit11_bn1_stage2_unit11_conv1_QuantizeLinear"
    name: "stage2_unit11_bn1_stage2_unit11_conv1_QuantizeLinear"
    op_type: "QuantizeLinear"
  }
  node {
    input: "stage2_unit11_bn1_stage2_unit11_conv1_QuantizeLinear"
    input: "stage2_unit11_bn1_scale"
    input: "stage2_unit11_bn1_zero_point"
    input: "ConvBnFusion_W_stage2_unit11_conv1_weight_quantized"
    input: "ConvBnFusion_W_stage2_unit11_conv1_weight_scale"
    input: "ConvBnFusion_W_stage2_unit11_conv1_weight_zero_point"
    input: "stage2_unit11_bn2_scale"
    input: "stage2_unit11_bn2_zero_point"
    input: "ConvBnFusion_BN_B_stage2_unit11_bn2_beta_quantized"
    output: "stage2_unit11_bn2_quantized"
    name: "stage2_unit11_conv1_quant"
    op_type: "QLinearConv"
    attribute {
      name: "auto_pad"
      s: "NOTSET"
      type: STRING
    }
    attribute {
      name: "dilations"
      ints: 1
      ints: 1
      type: INTS
    }
    attribute {
      name: "group"
      i: 1
      type: INT
    }
    attribute {
      name: "kernel_shape"
      ints: 3
      ints: 3
      type: INTS
    }
    attribute {
      name: "pads"
      ints: 1
      ints: 1
      ints: 1
      ints: 1
      type: INTS
    }
    attribute {
      name: "strides"
      ints: 1
      ints: 1
      type: INTS
    }
  }
  node {
    input: "stage2_unit11_bn2_quantized"
    input: "stage2_unit11_bn2_scale"
    input: "stage2_unit11_bn2_zero_point"
    output: "stage2_unit11_bn2"
    name: "stage2_unit11_bn2_stage2_unit11_conv1_DequantizeLinear"
    op_type: "DequantizeLinear"
  }
  node {
    input: "stage2_unit11_bn2"
    input: "slope326"
    output: "stage2_unit11_relu1"
    name: "stage2_unit11_relu1"
    op_type: "PRelu"
  }
  node {
    input: "stage2_unit11_relu1"
    input: "stage2_unit11_relu1_scale"
    input: "stage2_unit11_relu1_zero_point"
    output: "stage2_unit11_relu1_stage2_unit11_conv2_QuantizeLinear"
    name: "stage2_unit11_relu1_stage2_unit11_conv2_QuantizeLinear"
    op_type: "QuantizeLinear"
  }
  node {
    input: "stage2_unit11_relu1_stage2_unit11_conv2_QuantizeLinear"
    input: "stage2_unit11_relu1_scale"
    input: "stage2_unit11_relu1_zero_point"
    input: "ConvBnFusion_W_stage2_unit11_conv2_weight_quantized"
    input: "ConvBnFusion_W_stage2_unit11_conv2_weight_scale"
    input: "ConvBnFusion_W_stage2_unit11_conv2_weight_zero_point"
    input: "stage2_unit11_bn3_scale"
    input: "stage2_unit11_bn3_zero_point"
    input: "ConvBnFusion_BN_B_stage2_unit11_bn3_beta_quantized"
    output: "stage2_unit11_bn3_quantized"
    name: "stage2_unit11_conv2_quant"
    op_type: "QLinearConv"
    attribute {
      name: "auto_pad"
      s: "NOTSET"
      type: STRING
    }
    attribute {
      name: "dilations"
      ints: 1
      ints: 1
      type: INTS
    }
    attribute {
      name: "group"
      i: 1
      type: INT
    }
    attribute {
      name: "kernel_shape"
      ints: 3
      ints: 3
      type: INTS
    }
    attribute {
      name: "pads"
      ints: 1
      ints: 1
      ints: 1
      ints: 1
      type: INTS
    }
    attribute {
      name: "strides"
      ints: 1
      ints: 1
      type: INTS
    }
  }
  node {
    input: "stage2_unit11_bn3_quantized"
    input: "stage2_unit11_bn3_scale"
    input: "stage2_unit11_bn3_zero_point"
    input: "_plus12_quantized"
    input: "_plus12_scale"
    input: "_plus12_zero_point"
    input: "_plus13_scale"
    input: "_plus13_zero_point"
    output: "_plus13_quantized"
    name: "_plus13_quant"
    op_type: "QLinearAdd"
    domain: "com.microsoft"
  }
  node {
    input: "_plus13_quantized"
    input: "_plus13_scale"
    input: "_plus13_zero_point"
    output: "_plus13"
    name: "_plus13__plus13_DequantizeLinear"
    op_type: "DequantizeLinear"
  }
  node {
    input: "_plus13"
    input: "stage2_unit12_bn1_gamma"
    input: "stage2_unit12_bn1_beta"
    input: "stage2_unit12_bn1_moving_mean"
    input: "stage2_unit12_bn1_moving_var"
    output: "stage2_unit12_bn1"
    name: "stage2_unit12_bn1"
    op_type: "BatchNormalization"
    attribute {
      name: "momentum"
      f: 0.9
      type: FLOAT
    }
    attribute {
      name: "epsilon"
      f: 2e-05
      type: FLOAT
    }
  }
  node {
    input: "stage2_unit12_bn1"
    input: "stage2_unit12_bn1_scale"
    input: "stage2_unit12_bn1_zero_point"
    output: "stage2_unit12_bn1_stage2_unit12_conv1_QuantizeLinear"
    name: "stage2_unit12_bn1_stage2_unit12_conv1_QuantizeLinear"
    op_type: "QuantizeLinear"
  }
  node {
    input: "stage2_unit12_bn1_stage2_unit12_conv1_QuantizeLinear"
    input: "stage2_unit12_bn1_scale"
    input: "stage2_unit12_bn1_zero_point"
    input: "ConvBnFusion_W_stage2_unit12_conv1_weight_quantized"
    input: "ConvBnFusion_W_stage2_unit12_conv1_weight_scale"
    input: "ConvBnFusion_W_stage2_unit12_conv1_weight_zero_point"
    input: "stage2_unit12_bn2_scale"
    input: "stage2_unit12_bn2_zero_point"
    input: "ConvBnFusion_BN_B_stage2_unit12_bn2_beta_quantized"
    output: "stage2_unit12_bn2_quantized"
    name: "stage2_unit12_conv1_quant"
    op_type: "QLinearConv"
    attribute {
      name: "auto_pad"
      s: "NOTSET"
      type: STRING
    }
    attribute {
      name: "dilations"
      ints: 1
      ints: 1
      type: INTS
    }
    attribute {
      name: "group"
      i: 1
      type: INT
    }
    attribute {
      name: "kernel_shape"
      ints: 3
      ints: 3
      type: INTS
    }
    attribute {
      name: "pads"
      ints: 1
      ints: 1
      ints: 1
      ints: 1
      type: INTS
    }
    attribute {
      name: "strides"
      ints: 1
      ints: 1
      type: INTS
    }
  }
  node {
    input: "stage2_unit12_bn2_quantized"
    input: "stage2_unit12_bn2_scale"
    input: "stage2_unit12_bn2_zero_point"
    output: "stage2_unit12_bn2"
    name: "stage2_unit12_bn2_stage2_unit12_conv1_DequantizeLinear"
    op_type: "DequantizeLinear"
  }
  node {
    input: "stage2_unit12_bn2"
    input: "slope348"
    output: "stage2_unit12_relu1"
    name: "stage2_unit12_relu1"
    op_type: "PRelu"
  }
  node {
    input: "stage2_unit12_relu1"
    input: "stage2_unit12_relu1_scale"
    input: "stage2_unit12_relu1_zero_point"
    output: "stage2_unit12_relu1_stage2_unit12_conv2_QuantizeLinear"
    name: "stage2_unit12_relu1_stage2_unit12_conv2_QuantizeLinear"
    op_type: "QuantizeLinear"
  }
  node {
    input: "stage2_unit12_relu1_stage2_unit12_conv2_QuantizeLinear"
    input: "stage2_unit12_relu1_scale"
    input: "stage2_unit12_relu1_zero_point"
    input: "ConvBnFusion_W_stage2_unit12_conv2_weight_quantized"
    input: "ConvBnFusion_W_stage2_unit12_conv2_weight_scale"
    input: "ConvBnFusion_W_stage2_unit12_conv2_weight_zero_point"
    input: "stage2_unit12_bn3_scale"
    input: "stage2_unit12_bn3_zero_point"
    input: "ConvBnFusion_BN_B_stage2_unit12_bn3_beta_quantized"
    output: "stage2_unit12_bn3_quantized"
    name: "stage2_unit12_conv2_quant"
    op_type: "QLinearConv"
    attribute {
      name: "auto_pad"
      s: "NOTSET"
      type: STRING
    }
    attribute {
      name: "dilations"
      ints: 1
      ints: 1
      type: INTS
    }
    attribute {
      name: "group"
      i: 1
      type: INT
    }
    attribute {
      name: "kernel_shape"
      ints: 3
      ints: 3
      type: INTS
    }
    attribute {
      name: "pads"
      ints: 1
      ints: 1
      ints: 1
      ints: 1
      type: INTS
    }
    attribute {
      name: "strides"
      ints: 1
      ints: 1
      type: INTS
    }
  }
  node {
    input: "stage2_unit12_bn3_quantized"
    input: "stage2_unit12_bn3_scale"
    input: "stage2_unit12_bn3_zero_point"
    input: "_plus13_quantized"
    input: "_plus13_scale"
    input: "_plus13_zero_point"
    input: "_plus14_scale"
    input: "_plus14_zero_point"
    output: "_plus14_quantized"
    name: "_plus14_quant"
    op_type: "QLinearAdd"
    domain: "com.microsoft"
  }
  node {
    input: "_plus14_quantized"
    input: "_plus14_scale"
    input: "_plus14_zero_point"
    output: "_plus14"
    name: "_plus14__plus14_DequantizeLinear"
    op_type: "DequantizeLinear"
  }
  node {
    input: "_plus14"
    input: "stage2_unit13_bn1_gamma"
    input: "stage2_unit13_bn1_beta"
    input: "stage2_unit13_bn1_moving_mean"
    input: "stage2_unit13_bn1_moving_var"
    output: "stage2_unit13_bn1"
    name: "stage2_unit13_bn1"
    op_type: "BatchNormalization"
    attribute {
      name: "momentum"
      f: 0.9
      type: FLOAT
    }
    attribute {
      name: "epsilon"
      f: 2e-05
      type: FLOAT
    }
  }
  node {
    input: "stage2_unit13_bn1"
    input: "stage2_unit13_bn1_scale"
    input: "stage2_unit13_bn1_zero_point"
    output: "stage2_unit13_bn1_stage2_unit13_conv1_QuantizeLinear"
    name: "stage2_unit13_bn1_stage2_unit13_conv1_QuantizeLinear"
    op_type: "QuantizeLinear"
  }
  node {
    input: "stage2_unit13_bn1_stage2_unit13_conv1_QuantizeLinear"
    input: "stage2_unit13_bn1_scale"
    input: "stage2_unit13_bn1_zero_point"
    input: "ConvBnFusion_W_stage2_unit13_conv1_weight_quantized"
    input: "ConvBnFusion_W_stage2_unit13_conv1_weight_scale"
    input: "ConvBnFusion_W_stage2_unit13_conv1_weight_zero_point"
    input: "stage2_unit13_bn2_scale"
    input: "stage2_unit13_bn2_zero_point"
    input: "ConvBnFusion_BN_B_stage2_unit13_bn2_beta_quantized"
    output: "stage2_unit13_bn2_quantized"
    name: "stage2_unit13_conv1_quant"
    op_type: "QLinearConv"
    attribute {
      name: "auto_pad"
      s: "NOTSET"
      type: STRING
    }
    attribute {
      name: "dilations"
      ints: 1
      ints: 1
      type: INTS
    }
    attribute {
      name: "group"
      i: 1
      type: INT
    }
    attribute {
      name: "kernel_shape"
      ints: 3
      ints: 3
      type: INTS
    }
    attribute {
      name: "pads"
      ints: 1
      ints: 1
      ints: 1
      ints: 1
      type: INTS
    }
    attribute {
      name: "strides"
      ints: 1
      ints: 1
      type: INTS
    }
  }
  node {
    input: "stage2_unit13_bn2_quantized"
    input: "stage2_unit13_bn2_scale"
    input: "stage2_unit13_bn2_zero_point"
    output: "stage2_unit13_bn2"
    name: "stage2_unit13_bn2_stage2_unit13_conv1_DequantizeLinear"
    op_type: "DequantizeLinear"
  }
  node {
    input: "stage2_unit13_bn2"
    input: "slope370"
    output: "stage2_unit13_relu1"
    name: "stage2_unit13_relu1"
    op_type: "PRelu"
  }
  node {
    input: "stage2_unit13_relu1"
    input: "stage2_unit13_relu1_scale"
    input: "stage2_unit13_relu1_zero_point"
    output: "stage2_unit13_relu1_stage2_unit13_conv2_QuantizeLinear"
    name: "stage2_unit13_relu1_stage2_unit13_conv2_QuantizeLinear"
    op_type: "QuantizeLinear"
  }
  node {
    input: "stage2_unit13_relu1_stage2_unit13_conv2_QuantizeLinear"
    input: "stage2_unit13_relu1_scale"
    input: "stage2_unit13_relu1_zero_point"
    input: "ConvBnFusion_W_stage2_unit13_conv2_weight_quantized"
    input: "ConvBnFusion_W_stage2_unit13_conv2_weight_scale"
    input: "ConvBnFusion_W_stage2_unit13_conv2_weight_zero_point"
    input: "stage2_unit13_bn3_scale"
    input: "stage2_unit13_bn3_zero_point"
    input: "ConvBnFusion_BN_B_stage2_unit13_bn3_beta_quantized"
    output: "stage2_unit13_bn3_quantized"
    name: "stage2_unit13_conv2_quant"
    op_type: "QLinearConv"
    attribute {
      name: "auto_pad"
      s: "NOTSET"
      type: STRING
    }
    attribute {
      name: "dilations"
      ints: 1
      ints: 1
      type: INTS
    }
    attribute {
      name: "group"
      i: 1
      type: INT
    }
    attribute {
      name: "kernel_shape"
      ints: 3
      ints: 3
      type: INTS
    }
    attribute {
      name: "pads"
      ints: 1
      ints: 1
      ints: 1
      ints: 1
      type: INTS
    }
    attribute {
      name: "strides"
      ints: 1
      ints: 1
      type: INTS
    }
  }
  node {
    input: "stage2_unit13_bn3_quantized"
    input: "stage2_unit13_bn3_scale"
    input: "stage2_unit13_bn3_zero_point"
    input: "_plus14_quantized"
    input: "_plus14_scale"
    input: "_plus14_zero_point"
    input: "_plus15_scale"
    input: "_plus15_zero_point"
    output: "_plus15_quantized"
    name: "_plus15_quant"
    op_type: "QLinearAdd"
    domain: "com.microsoft"
  }
  node {
    input: "_plus15_quantized"
    input: "_plus15_scale"
    input: "_plus15_zero_point"
    output: "_plus15"
    name: "_plus15__plus15_DequantizeLinear"
    op_type: "DequantizeLinear"
  }
  node {
    input: "_plus15_quantized"
    input: "_plus15_scale"
    input: "_plus15_zero_point"
    input: "ConvBnFusion_W_stage3_unit1_conv1sc_weight_quantized"
    input: "ConvBnFusion_W_stage3_unit1_conv1sc_weight_scale"
    input: "ConvBnFusion_W_stage3_unit1_conv1sc_weight_zero_point"
    input: "stage3_unit1_sc_scale"
    input: "stage3_unit1_sc_zero_point"
    input: "ConvBnFusion_BN_B_stage3_unit1_sc_beta_quantized"
    output: "stage3_unit1_sc_quantized"
    name: "stage3_unit1_conv1sc_quant"
    op_type: "QLinearConv"
    attribute {
      name: "auto_pad"
      s: "NOTSET"
      type: STRING
    }
    attribute {
      name: "dilations"
      ints: 1
      ints: 1
      type: INTS
    }
    attribute {
      name: "group"
      i: 1
      type: INT
    }
    attribute {
      name: "kernel_shape"
      ints: 1
      ints: 1
      type: INTS
    }
    attribute {
      name: "pads"
      ints: 0
      ints: 0
      ints: 0
      ints: 0
      type: INTS
    }
    attribute {
      name: "strides"
      ints: 2
      ints: 2
      type: INTS
    }
  }
  node {
    input: "_plus15"
    input: "stage3_unit1_bn1_gamma"
    input: "stage3_unit1_bn1_beta"
    input: "stage3_unit1_bn1_moving_mean"
    input: "stage3_unit1_bn1_moving_var"
    output: "stage3_unit1_bn1"
    name: "stage3_unit1_bn1"
    op_type: "BatchNormalization"
    attribute {
      name: "momentum"
      f: 0.9
      type: FLOAT
    }
    attribute {
      name: "epsilon"
      f: 2e-05
      type: FLOAT
    }
  }
  node {
    input: "stage3_unit1_bn1"
    input: "stage3_unit1_bn1_scale"
    input: "stage3_unit1_bn1_zero_point"
    output: "stage3_unit1_bn1_stage3_unit1_conv1_QuantizeLinear"
    name: "stage3_unit1_bn1_stage3_unit1_conv1_QuantizeLinear"
    op_type: "QuantizeLinear"
  }
  node {
    input: "stage3_unit1_bn1_stage3_unit1_conv1_QuantizeLinear"
    input: "stage3_unit1_bn1_scale"
    input: "stage3_unit1_bn1_zero_point"
    input: "ConvBnFusion_W_stage3_unit1_conv1_weight_quantized"
    input: "ConvBnFusion_W_stage3_unit1_conv1_weight_scale"
    input: "ConvBnFusion_W_stage3_unit1_conv1_weight_zero_point"
    input: "stage3_unit1_bn2_scale"
    input: "stage3_unit1_bn2_zero_point"
    input: "ConvBnFusion_BN_B_stage3_unit1_bn2_beta_quantized"
    output: "stage3_unit1_bn2_quantized"
    name: "stage3_unit1_conv1_quant"
    op_type: "QLinearConv"
    attribute {
      name: "auto_pad"
      s: "NOTSET"
      type: STRING
    }
    attribute {
      name: "dilations"
      ints: 1
      ints: 1
      type: INTS
    }
    attribute {
      name: "group"
      i: 1
      type: INT
    }
    attribute {
      name: "kernel_shape"
      ints: 3
      ints: 3
      type: INTS
    }
    attribute {
      name: "pads"
      ints: 1
      ints: 1
      ints: 1
      ints: 1
      type: INTS
    }
    attribute {
      name: "strides"
      ints: 1
      ints: 1
      type: INTS
    }
  }
  node {
    input: "stage3_unit1_bn2_quantized"
    input: "stage3_unit1_bn2_scale"
    input: "stage3_unit1_bn2_zero_point"
    output: "stage3_unit1_bn2"
    name: "stage3_unit1_bn2_stage3_unit1_conv1_DequantizeLinear"
    op_type: "DequantizeLinear"
  }
  node {
    input: "stage3_unit1_bn2"
    input: "slope392"
    output: "stage3_unit1_relu1"
    name: "stage3_unit1_relu1"
    op_type: "PRelu"
  }
  node {
    input: "stage3_unit1_relu1"
    input: "stage3_unit1_relu1_scale"
    input: "stage3_unit1_relu1_zero_point"
    output: "stage3_unit1_relu1_stage3_unit1_conv2_QuantizeLinear"
    name: "stage3_unit1_relu1_stage3_unit1_conv2_QuantizeLinear"
    op_type: "QuantizeLinear"
  }
  node {
    input: "stage3_unit1_relu1_stage3_unit1_conv2_QuantizeLinear"
    input: "stage3_unit1_relu1_scale"
    input: "stage3_unit1_relu1_zero_point"
    input: "ConvBnFusion_W_stage3_unit1_conv2_weight_quantized"
    input: "ConvBnFusion_W_stage3_unit1_conv2_weight_scale"
    input: "ConvBnFusion_W_stage3_unit1_conv2_weight_zero_point"
    input: "stage3_unit1_bn3_scale"
    input: "stage3_unit1_bn3_zero_point"
    input: "ConvBnFusion_BN_B_stage3_unit1_bn3_beta_quantized"
    output: "stage3_unit1_bn3_quantized"
    name: "stage3_unit1_conv2_quant"
    op_type: "QLinearConv"
    attribute {
      name: "auto_pad"
      s: "NOTSET"
      type: STRING
    }
    attribute {
      name: "dilations"
      ints: 1
      ints: 1
      type: INTS
    }
    attribute {
      name: "group"
      i: 1
      type: INT
    }
    attribute {
      name: "kernel_shape"
      ints: 3
      ints: 3
      type: INTS
    }
    attribute {
      name: "pads"
      ints: 1
      ints: 1
      ints: 1
      ints: 1
      type: INTS
    }
    attribute {
      name: "strides"
      ints: 2
      ints: 2
      type: INTS
    }
  }
  node {
    input: "stage3_unit1_bn3_quantized"
    input: "stage3_unit1_bn3_scale"
    input: "stage3_unit1_bn3_zero_point"
    input: "stage3_unit1_sc_quantized"
    input: "stage3_unit1_sc_scale"
    input: "stage3_unit1_sc_zero_point"
    input: "_plus16_scale"
    input: "_plus16_zero_point"
    output: "_plus16_quantized"
    name: "_plus16_quant"
    op_type: "QLinearAdd"
    domain: "com.microsoft"
  }
  node {
    input: "_plus16_quantized"
    input: "_plus16_scale"
    input: "_plus16_zero_point"
    output: "_plus16"
    name: "_plus16__plus16_DequantizeLinear"
    op_type: "DequantizeLinear"
  }
  node {
    input: "_plus16"
    input: "stage3_unit2_bn1_gamma"
    input: "stage3_unit2_bn1_beta"
    input: "stage3_unit2_bn1_moving_mean"
    input: "stage3_unit2_bn1_moving_var"
    output: "stage3_unit2_bn1"
    name: "stage3_unit2_bn1"
    op_type: "BatchNormalization"
    attribute {
      name: "momentum"
      f: 0.9
      type: FLOAT
    }
    attribute {
      name: "epsilon"
      f: 2e-05
      type: FLOAT
    }
  }
  node {
    input: "stage3_unit2_bn1"
    input: "stage3_unit2_bn1_scale"
    input: "stage3_unit2_bn1_zero_point"
    output: "stage3_unit2_bn1_stage3_unit2_conv1_QuantizeLinear"
    name: "stage3_unit2_bn1_stage3_unit2_conv1_QuantizeLinear"
    op_type: "QuantizeLinear"
  }
  node {
    input: "stage3_unit2_bn1_stage3_unit2_conv1_QuantizeLinear"
    input: "stage3_unit2_bn1_scale"
    input: "stage3_unit2_bn1_zero_point"
    input: "ConvBnFusion_W_stage3_unit2_conv1_weight_quantized"
    input: "ConvBnFusion_W_stage3_unit2_conv1_weight_scale"
    input: "ConvBnFusion_W_stage3_unit2_conv1_weight_zero_point"
    input: "stage3_unit2_bn2_scale"
    input: "stage3_unit2_bn2_zero_point"
    input: "ConvBnFusion_BN_B_stage3_unit2_bn2_beta_quantized"
    output: "stage3_unit2_bn2_quantized"
    name: "stage3_unit2_conv1_quant"
    op_type: "QLinearConv"
    attribute {
      name: "auto_pad"
      s: "NOTSET"
      type: STRING
    }
    attribute {
      name: "dilations"
      ints: 1
      ints: 1
      type: INTS
    }
    attribute {
      name: "group"
      i: 1
      type: INT
    }
    attribute {
      name: "kernel_shape"
      ints: 3
      ints: 3
      type: INTS
    }
    attribute {
      name: "pads"
      ints: 1
      ints: 1
      ints: 1
      ints: 1
      type: INTS
    }
    attribute {
      name: "strides"
      ints: 1
      ints: 1
      type: INTS
    }
  }
  node {
    input: "stage3_unit2_bn2_quantized"
    input: "stage3_unit2_bn2_scale"
    input: "stage3_unit2_bn2_zero_point"
    output: "stage3_unit2_bn2"
    name: "stage3_unit2_bn2_stage3_unit2_conv1_DequantizeLinear"
    op_type: "DequantizeLinear"
  }
  node {
    input: "stage3_unit2_bn2"
    input: "slope421"
    output: "stage3_unit2_relu1"
    name: "stage3_unit2_relu1"
    op_type: "PRelu"
  }
  node {
    input: "stage3_unit2_relu1"
    input: "stage3_unit2_relu1_scale"
    input: "stage3_unit2_relu1_zero_point"
    output: "stage3_unit2_relu1_stage3_unit2_conv2_QuantizeLinear"
    name: "stage3_unit2_relu1_stage3_unit2_conv2_QuantizeLinear"
    op_type: "QuantizeLinear"
  }
  node {
    input: "stage3_unit2_relu1_stage3_unit2_conv2_QuantizeLinear"
    input: "stage3_unit2_relu1_scale"
    input: "stage3_unit2_relu1_zero_point"
    input: "ConvBnFusion_W_stage3_unit2_conv2_weight_quantized"
    input: "ConvBnFusion_W_stage3_unit2_conv2_weight_scale"
    input: "ConvBnFusion_W_stage3_unit2_conv2_weight_zero_point"
    input: "stage3_unit2_bn3_scale"
    input: "stage3_unit2_bn3_zero_point"
    input: "ConvBnFusion_BN_B_stage3_unit2_bn3_beta_quantized"
    output: "stage3_unit2_bn3_quantized"
    name: "stage3_unit2_conv2_quant"
    op_type: "QLinearConv"
    attribute {
      name: "auto_pad"
      s: "NOTSET"
      type: STRING
    }
    attribute {
      name: "dilations"
      ints: 1
      ints: 1
      type: INTS
    }
    attribute {
      name: "group"
      i: 1
      type: INT
    }
    attribute {
      name: "kernel_shape"
      ints: 3
      ints: 3
      type: INTS
    }
    attribute {
      name: "pads"
      ints: 1
      ints: 1
      ints: 1
      ints: 1
      type: INTS
    }
    attribute {
      name: "strides"
      ints: 1
      ints: 1
      type: INTS
    }
  }
  node {
    input: "stage3_unit2_bn3_quantized"
    input: "stage3_unit2_bn3_scale"
    input: "stage3_unit2_bn3_zero_point"
    input: "_plus16_quantized"
    input: "_plus16_scale"
    input: "_plus16_zero_point"
    input: "_plus17_scale"
    input: "_plus17_zero_point"
    output: "_plus17_quantized"
    name: "_plus17_quant"
    op_type: "QLinearAdd"
    domain: "com.microsoft"
  }
  node {
    input: "_plus17_quantized"
    input: "_plus17_scale"
    input: "_plus17_zero_point"
    output: "_plus17"
    name: "_plus17__plus17_DequantizeLinear"
    op_type: "DequantizeLinear"
  }
  node {
    input: "_plus17"
    input: "stage3_unit3_bn1_gamma"
    input: "stage3_unit3_bn1_beta"
    input: "stage3_unit3_bn1_moving_mean"
    input: "stage3_unit3_bn1_moving_var"
    output: "stage3_unit3_bn1"
    name: "stage3_unit3_bn1"
    op_type: "BatchNormalization"
    attribute {
      name: "momentum"
      f: 0.9
      type: FLOAT
    }
    attribute {
      name: "epsilon"
      f: 2e-05
      type: FLOAT
    }
  }
  node {
    input: "stage3_unit3_bn1"
    input: "stage3_unit3_bn1_scale"
    input: "stage3_unit3_bn1_zero_point"
    output: "stage3_unit3_bn1_stage3_unit3_conv1_QuantizeLinear"
    name: "stage3_unit3_bn1_stage3_unit3_conv1_QuantizeLinear"
    op_type: "QuantizeLinear"
  }
  node {
    input: "stage3_unit3_bn1_stage3_unit3_conv1_QuantizeLinear"
    input: "stage3_unit3_bn1_scale"
    input: "stage3_unit3_bn1_zero_point"
    input: "ConvBnFusion_W_stage3_unit3_conv1_weight_quantized"
    input: "ConvBnFusion_W_stage3_unit3_conv1_weight_scale"
    input: "ConvBnFusion_W_stage3_unit3_conv1_weight_zero_point"
    input: "stage3_unit3_bn2_scale"
    input: "stage3_unit3_bn2_zero_point"
    input: "ConvBnFusion_BN_B_stage3_unit3_bn2_beta_quantized"
    output: "stage3_unit3_bn2_quantized"
    name: "stage3_unit3_conv1_quant"
    op_type: "QLinearConv"
    attribute {
      name: "auto_pad"
      s: "NOTSET"
      type: STRING
    }
    attribute {
      name: "dilations"
      ints: 1
      ints: 1
      type: INTS
    }
    attribute {
      name: "group"
      i: 1
      type: INT
    }
    attribute {
      name: "kernel_shape"
      ints: 3
      ints: 3
      type: INTS
    }
    attribute {
      name: "pads"
      ints: 1
      ints: 1
      ints: 1
      ints: 1
      type: INTS
    }
    attribute {
      name: "strides"
      ints: 1
      ints: 1
      type: INTS
    }
  }
  node {
    input: "stage3_unit3_bn2_quantized"
    input: "stage3_unit3_bn2_scale"
    input: "stage3_unit3_bn2_zero_point"
    output: "stage3_unit3_bn2"
    name: "stage3_unit3_bn2_stage3_unit3_conv1_DequantizeLinear"
    op_type: "DequantizeLinear"
  }
  node {
    input: "stage3_unit3_bn2"
    input: "slope443"
    output: "stage3_unit3_relu1"
    name: "stage3_unit3_relu1"
    op_type: "PRelu"
  }
  node {
    input: "stage3_unit3_relu1"
    input: "stage3_unit3_relu1_scale"
    input: "stage3_unit3_relu1_zero_point"
    output: "stage3_unit3_relu1_stage3_unit3_conv2_QuantizeLinear"
    name: "stage3_unit3_relu1_stage3_unit3_conv2_QuantizeLinear"
    op_type: "QuantizeLinear"
  }
  node {
    input: "stage3_unit3_relu1_stage3_unit3_conv2_QuantizeLinear"
    input: "stage3_unit3_relu1_scale"
    input: "stage3_unit3_relu1_zero_point"
    input: "ConvBnFusion_W_stage3_unit3_conv2_weight_quantized"
    input: "ConvBnFusion_W_stage3_unit3_conv2_weight_scale"
    input: "ConvBnFusion_W_stage3_unit3_conv2_weight_zero_point"
    input: "stage3_unit3_bn3_scale"
    input: "stage3_unit3_bn3_zero_point"
    input: "ConvBnFusion_BN_B_stage3_unit3_bn3_beta_quantized"
    output: "stage3_unit3_bn3_quantized"
    name: "stage3_unit3_conv2_quant"
    op_type: "QLinearConv"
    attribute {
      name: "auto_pad"
      s: "NOTSET"
      type: STRING
    }
    attribute {
      name: "dilations"
      ints: 1
      ints: 1
      type: INTS
    }
    attribute {
      name: "group"
      i: 1
      type: INT
    }
    attribute {
      name: "kernel_shape"
      ints: 3
      ints: 3
      type: INTS
    }
    attribute {
      name: "pads"
      ints: 1
      ints: 1
      ints: 1
      ints: 1
      type: INTS
    }
    attribute {
      name: "strides"
      ints: 1
      ints: 1
      type: INTS
    }
  }
  node {
    input: "stage3_unit3_bn3_quantized"
    input: "stage3_unit3_bn3_scale"
    input: "stage3_unit3_bn3_zero_point"
    input: "_plus17_quantized"
    input: "_plus17_scale"
    input: "_plus17_zero_point"
    input: "_plus18_scale"
    input: "_plus18_zero_point"
    output: "_plus18_quantized"
    name: "_plus18_quant"
    op_type: "QLinearAdd"
    domain: "com.microsoft"
  }
  node {
    input: "_plus18_quantized"
    input: "_plus18_scale"
    input: "_plus18_zero_point"
    output: "_plus18"
    name: "_plus18__plus18_DequantizeLinear"
    op_type: "DequantizeLinear"
  }
  node {
    input: "_plus18"
    input: "stage3_unit4_bn1_gamma"
    input: "stage3_unit4_bn1_beta"
    input: "stage3_unit4_bn1_moving_mean"
    input: "stage3_unit4_bn1_moving_var"
    output: "stage3_unit4_bn1"
    name: "stage3_unit4_bn1"
    op_type: "BatchNormalization"
    attribute {
      name: "momentum"
      f: 0.9
      type: FLOAT
    }
    attribute {
      name: "epsilon"
      f: 2e-05
      type: FLOAT
    }
  }
  node {
    input: "stage3_unit4_bn1"
    input: "stage3_unit4_bn1_scale"
    input: "stage3_unit4_bn1_zero_point"
    output: "stage3_unit4_bn1_stage3_unit4_conv1_QuantizeLinear"
    name: "stage3_unit4_bn1_stage3_unit4_conv1_QuantizeLinear"
    op_type: "QuantizeLinear"
  }
  node {
    input: "stage3_unit4_bn1_stage3_unit4_conv1_QuantizeLinear"
    input: "stage3_unit4_bn1_scale"
    input: "stage3_unit4_bn1_zero_point"
    input: "ConvBnFusion_W_stage3_unit4_conv1_weight_quantized"
    input: "ConvBnFusion_W_stage3_unit4_conv1_weight_scale"
    input: "ConvBnFusion_W_stage3_unit4_conv1_weight_zero_point"
    input: "stage3_unit4_bn2_scale"
    input: "stage3_unit4_bn2_zero_point"
    input: "ConvBnFusion_BN_B_stage3_unit4_bn2_beta_quantized"
    output: "stage3_unit4_bn2_quantized"
    name: "stage3_unit4_conv1_quant"
    op_type: "QLinearConv"
    attribute {
      name: "auto_pad"
      s: "NOTSET"
      type: STRING
    }
    attribute {
      name: "dilations"
      ints: 1
      ints: 1
      type: INTS
    }
    attribute {
      name: "group"
      i: 1
      type: INT
    }
    attribute {
      name: "kernel_shape"
      ints: 3
      ints: 3
      type: INTS
    }
    attribute {
      name: "pads"
      ints: 1
      ints: 1
      ints: 1
      ints: 1
      type: INTS
    }
    attribute {
      name: "strides"
      ints: 1
      ints: 1
      type: INTS
    }
  }
  node {
    input: "stage3_unit4_bn2_quantized"
    input: "stage3_unit4_bn2_scale"
    input: "stage3_unit4_bn2_zero_point"
    output: "stage3_unit4_bn2"
    name: "stage3_unit4_bn2_stage3_unit4_conv1_DequantizeLinear"
    op_type: "DequantizeLinear"
  }
  node {
    input: "stage3_unit4_bn2"
    input: "slope465"
    output: "stage3_unit4_relu1"
    name: "stage3_unit4_relu1"
    op_type: "PRelu"
  }
  node {
    input: "stage3_unit4_relu1"
    input: "stage3_unit4_relu1_scale"
    input: "stage3_unit4_relu1_zero_point"
    output: "stage3_unit4_relu1_stage3_unit4_conv2_QuantizeLinear"
    name: "stage3_unit4_relu1_stage3_unit4_conv2_QuantizeLinear"
    op_type: "QuantizeLinear"
  }
  node {
    input: "stage3_unit4_relu1_stage3_unit4_conv2_QuantizeLinear"
    input: "stage3_unit4_relu1_scale"
    input: "stage3_unit4_relu1_zero_point"
    input: "ConvBnFusion_W_stage3_unit4_conv2_weight_quantized"
    input: "ConvBnFusion_W_stage3_unit4_conv2_weight_scale"
    input: "ConvBnFusion_W_stage3_unit4_conv2_weight_zero_point"
    input: "stage3_unit4_bn3_scale"
    input: "stage3_unit4_bn3_zero_point"
    input: "ConvBnFusion_BN_B_stage3_unit4_bn3_beta_quantized"
    output: "stage3_unit4_bn3_quantized"
    name: "stage3_unit4_conv2_quant"
    op_type: "QLinearConv"
    attribute {
      name: "auto_pad"
      s: "NOTSET"
      type: STRING
    }
    attribute {
      name: "dilations"
      ints: 1
      ints: 1
      type: INTS
    }
    attribute {
      name: "group"
      i: 1
      type: INT
    }
    attribute {
      name: "kernel_shape"
      ints: 3
      ints: 3
      type: INTS
    }
    attribute {
      name: "pads"
      ints: 1
      ints: 1
      ints: 1
      ints: 1
      type: INTS
    }
    attribute {
      name: "strides"
      ints: 1
      ints: 1
      type: INTS
    }
  }
  node {
    input: "stage3_unit4_bn3_quantized"
    input: "stage3_unit4_bn3_scale"
    input: "stage3_unit4_bn3_zero_point"
    input: "_plus18_quantized"
    input: "_plus18_scale"
    input: "_plus18_zero_point"
    input: "_plus19_scale"
    input: "_plus19_zero_point"
    output: "_plus19_quantized"
    name: "_plus19_quant"
    op_type: "QLinearAdd"
    domain: "com.microsoft"
  }
  node {
    input: "_plus19_quantized"
    input: "_plus19_scale"
    input: "_plus19_zero_point"
    output: "_plus19"
    name: "_plus19__plus19_DequantizeLinear"
    op_type: "DequantizeLinear"
  }
  node {
    input: "_plus19"
    input: "stage3_unit5_bn1_gamma"
    input: "stage3_unit5_bn1_beta"
    input: "stage3_unit5_bn1_moving_mean"
    input: "stage3_unit5_bn1_moving_var"
    output: "stage3_unit5_bn1"
    name: "stage3_unit5_bn1"
    op_type: "BatchNormalization"
    attribute {
      name: "momentum"
      f: 0.9
      type: FLOAT
    }
    attribute {
      name: "epsilon"
      f: 2e-05
      type: FLOAT
    }
  }
  node {
    input: "stage3_unit5_bn1"
    input: "stage3_unit5_bn1_scale"
    input: "stage3_unit5_bn1_zero_point"
    output: "stage3_unit5_bn1_stage3_unit5_conv1_QuantizeLinear"
    name: "stage3_unit5_bn1_stage3_unit5_conv1_QuantizeLinear"
    op_type: "QuantizeLinear"
  }
  node {
    input: "stage3_unit5_bn1_stage3_unit5_conv1_QuantizeLinear"
    input: "stage3_unit5_bn1_scale"
    input: "stage3_unit5_bn1_zero_point"
    input: "ConvBnFusion_W_stage3_unit5_conv1_weight_quantized"
    input: "ConvBnFusion_W_stage3_unit5_conv1_weight_scale"
    input: "ConvBnFusion_W_stage3_unit5_conv1_weight_zero_point"
    input: "stage3_unit5_bn2_scale"
    input: "stage3_unit5_bn2_zero_point"
    input: "ConvBnFusion_BN_B_stage3_unit5_bn2_beta_quantized"
    output: "stage3_unit5_bn2_quantized"
    name: "stage3_unit5_conv1_quant"
    op_type: "QLinearConv"
    attribute {
      name: "auto_pad"
      s: "NOTSET"
      type: STRING
    }
    attribute {
      name: "dilations"
      ints: 1
      ints: 1
      type: INTS
    }
    attribute {
      name: "group"
      i: 1
      type: INT
    }
    attribute {
      name: "kernel_shape"
      ints: 3
      ints: 3
      type: INTS
    }
    attribute {
      name: "pads"
      ints: 1
      ints: 1
      ints: 1
      ints: 1
      type: INTS
    }
    attribute {
      name: "strides"
      ints: 1
      ints: 1
      type: INTS
    }
  }
  node {
    input: "stage3_unit5_bn2_quantized"
    input: "stage3_unit5_bn2_scale"
    input: "stage3_unit5_bn2_zero_point"
    output: "stage3_unit5_bn2"
    name: "stage3_unit5_bn2_stage3_unit5_conv1_DequantizeLinear"
    op_type: "DequantizeLinear"
  }
  node {
    input: "stage3_unit5_bn2"
    input: "slope487"
    output: "stage3_unit5_relu1"
    name: "stage3_unit5_relu1"
    op_type: "PRelu"
  }
  node {
    input: "stage3_unit5_relu1"
    input: "stage3_unit5_relu1_scale"
    input: "stage3_unit5_relu1_zero_point"
    output: "stage3_unit5_relu1_stage3_unit5_conv2_QuantizeLinear"
    name: "stage3_unit5_relu1_stage3_unit5_conv2_QuantizeLinear"
    op_type: "QuantizeLinear"
  }
  node {
    input: "stage3_unit5_relu1_stage3_unit5_conv2_QuantizeLinear"
    input: "stage3_unit5_relu1_scale"
    input: "stage3_unit5_relu1_zero_point"
    input: "ConvBnFusion_W_stage3_unit5_conv2_weight_quantized"
    input: "ConvBnFusion_W_stage3_unit5_conv2_weight_scale"
    input: "ConvBnFusion_W_stage3_unit5_conv2_weight_zero_point"
    input: "stage3_unit5_bn3_scale"
    input: "stage3_unit5_bn3_zero_point"
    input: "ConvBnFusion_BN_B_stage3_unit5_bn3_beta_quantized"
    output: "stage3_unit5_bn3_quantized"
    name: "stage3_unit5_conv2_quant"
    op_type: "QLinearConv"
    attribute {
      name: "auto_pad"
      s: "NOTSET"
      type: STRING
    }
    attribute {
      name: "dilations"
      ints: 1
      ints: 1
      type: INTS
    }
    attribute {
      name: "group"
      i: 1
      type: INT
    }
    attribute {
      name: "kernel_shape"
      ints: 3
      ints: 3
      type: INTS
    }
    attribute {
      name: "pads"
      ints: 1
      ints: 1
      ints: 1
      ints: 1
      type: INTS
    }
    attribute {
      name: "strides"
      ints: 1
      ints: 1
      type: INTS
    }
  }
  node {
    input: "stage3_unit5_bn3_quantized"
    input: "stage3_unit5_bn3_scale"
    input: "stage3_unit5_bn3_zero_point"
    input: "_plus19_quantized"
    input: "_plus19_scale"
    input: "_plus19_zero_point"
    input: "_plus20_scale"
    input: "_plus20_zero_point"
    output: "_plus20_quantized"
    name: "_plus20_quant"
    op_type: "QLinearAdd"
    domain: "com.microsoft"
  }
  node {
    input: "_plus20_quantized"
    input: "_plus20_scale"
    input: "_plus20_zero_point"
    output: "_plus20"
    name: "_plus20__plus20_DequantizeLinear"
    op_type: "DequantizeLinear"
  }
  node {
    input: "_plus20"
    input: "stage3_unit6_bn1_gamma"
    input: "stage3_unit6_bn1_beta"
    input: "stage3_unit6_bn1_moving_mean"
    input: "stage3_unit6_bn1_moving_var"
    output: "stage3_unit6_bn1"
    name: "stage3_unit6_bn1"
    op_type: "BatchNormalization"
    attribute {
      name: "momentum"
      f: 0.9
      type: FLOAT
    }
    attribute {
      name: "epsilon"
      f: 2e-05
      type: FLOAT
    }
  }
  node {
    input: "stage3_unit6_bn1"
    input: "stage3_unit6_bn1_scale"
    input: "stage3_unit6_bn1_zero_point"
    output: "stage3_unit6_bn1_stage3_unit6_conv1_QuantizeLinear"
    name: "stage3_unit6_bn1_stage3_unit6_conv1_QuantizeLinear"
    op_type: "QuantizeLinear"
  }
  node {
    input: "stage3_unit6_bn1_stage3_unit6_conv1_QuantizeLinear"
    input: "stage3_unit6_bn1_scale"
    input: "stage3_unit6_bn1_zero_point"
    input: "ConvBnFusion_W_stage3_unit6_conv1_weight_quantized"
    input: "ConvBnFusion_W_stage3_unit6_conv1_weight_scale"
    input: "ConvBnFusion_W_stage3_unit6_conv1_weight_zero_point"
    input: "stage3_unit6_bn2_scale"
    input: "stage3_unit6_bn2_zero_point"
    input: "ConvBnFusion_BN_B_stage3_unit6_bn2_beta_quantized"
    output: "stage3_unit6_bn2_quantized"
    name: "stage3_unit6_conv1_quant"
    op_type: "QLinearConv"
    attribute {
      name: "auto_pad"
      s: "NOTSET"
      type: STRING
    }
    attribute {
      name: "dilations"
      ints: 1
      ints: 1
      type: INTS
    }
    attribute {
      name: "group"
      i: 1
      type: INT
    }
    attribute {
      name: "kernel_shape"
      ints: 3
      ints: 3
      type: INTS
    }
    attribute {
      name: "pads"
      ints: 1
      ints: 1
      ints: 1
      ints: 1
      type: INTS
    }
    attribute {
      name: "strides"
      ints: 1
      ints: 1
      type: INTS
    }
  }
  node {
    input: "stage3_unit6_bn2_quantized"
    input: "stage3_unit6_bn2_scale"
    input: "stage3_unit6_bn2_zero_point"
    output: "stage3_unit6_bn2"
    name: "stage3_unit6_bn2_stage3_unit6_conv1_DequantizeLinear"
    op_type: "DequantizeLinear"
  }
  node {
    input: "stage3_unit6_bn2"
    input: "slope509"
    output: "stage3_unit6_relu1"
    name: "stage3_unit6_relu1"
    op_type: "PRelu"
  }
  node {
    input: "stage3_unit6_relu1"
    input: "stage3_unit6_relu1_scale"
    input: "stage3_unit6_relu1_zero_point"
    output: "stage3_unit6_relu1_stage3_unit6_conv2_QuantizeLinear"
    name: "stage3_unit6_relu1_stage3_unit6_conv2_QuantizeLinear"
    op_type: "QuantizeLinear"
  }
  node {
    input: "stage3_unit6_relu1_stage3_unit6_conv2_QuantizeLinear"
    input: "stage3_unit6_relu1_scale"
    input: "stage3_unit6_relu1_zero_point"
    input: "ConvBnFusion_W_stage3_unit6_conv2_weight_quantized"
    input: "ConvBnFusion_W_stage3_unit6_conv2_weight_scale"
    input: "ConvBnFusion_W_stage3_unit6_conv2_weight_zero_point"
    input: "stage3_unit6_bn3_scale"
    input: "stage3_unit6_bn3_zero_point"
    input: "ConvBnFusion_BN_B_stage3_unit6_bn3_beta_quantized"
    output: "stage3_unit6_bn3_quantized"
    name: "stage3_unit6_conv2_quant"
    op_type: "QLinearConv"
    attribute {
      name: "auto_pad"
      s: "NOTSET"
      type: STRING
    }
    attribute {
      name: "dilations"
      ints: 1
      ints: 1
      type: INTS
    }
    attribute {
      name: "group"
      i: 1
      type: INT
    }
    attribute {
      name: "kernel_shape"
      ints: 3
      ints: 3
      type: INTS
    }
    attribute {
      name: "pads"
      ints: 1
      ints: 1
      ints: 1
      ints: 1
      type: INTS
    }
    attribute {
      name: "strides"
      ints: 1
      ints: 1
      type: INTS
    }
  }
  node {
    input: "stage3_unit6_bn3_quantized"
    input: "stage3_unit6_bn3_scale"
    input: "stage3_unit6_bn3_zero_point"
    input: "_plus20_quantized"
    input: "_plus20_scale"
    input: "_plus20_zero_point"
    input: "_plus21_scale"
    input: "_plus21_zero_point"
    output: "_plus21_quantized"
    name: "_plus21_quant"
    op_type: "QLinearAdd"
    domain: "com.microsoft"
  }
  node {
    input: "_plus21_quantized"
    input: "_plus21_scale"
    input: "_plus21_zero_point"
    output: "_plus21"
    name: "_plus21__plus21_DequantizeLinear"
    op_type: "DequantizeLinear"
  }
  node {
    input: "_plus21"
    input: "stage3_unit7_bn1_gamma"
    input: "stage3_unit7_bn1_beta"
    input: "stage3_unit7_bn1_moving_mean"
    input: "stage3_unit7_bn1_moving_var"
    output: "stage3_unit7_bn1"
    name: "stage3_unit7_bn1"
    op_type: "BatchNormalization"
    attribute {
      name: "momentum"
      f: 0.9
      type: FLOAT
    }
    attribute {
      name: "epsilon"
      f: 2e-05
      type: FLOAT
    }
  }
  node {
    input: "stage3_unit7_bn1"
    input: "stage3_unit7_bn1_scale"
    input: "stage3_unit7_bn1_zero_point"
    output: "stage3_unit7_bn1_stage3_unit7_conv1_QuantizeLinear"
    name: "stage3_unit7_bn1_stage3_unit7_conv1_QuantizeLinear"
    op_type: "QuantizeLinear"
  }
  node {
    input: "stage3_unit7_bn1_stage3_unit7_conv1_QuantizeLinear"
    input: "stage3_unit7_bn1_scale"
    input: "stage3_unit7_bn1_zero_point"
    input: "ConvBnFusion_W_stage3_unit7_conv1_weight_quantized"
    input: "ConvBnFusion_W_stage3_unit7_conv1_weight_scale"
    input: "ConvBnFusion_W_stage3_unit7_conv1_weight_zero_point"
    input: "stage3_unit7_bn2_scale"
    input: "stage3_unit7_bn2_zero_point"
    input: "ConvBnFusion_BN_B_stage3_unit7_bn2_beta_quantized"
    output: "stage3_unit7_bn2_quantized"
    name: "stage3_unit7_conv1_quant"
    op_type: "QLinearConv"
    attribute {
      name: "auto_pad"
      s: "NOTSET"
      type: STRING
    }
    attribute {
      name: "dilations"
      ints: 1
      ints: 1
      type: INTS
    }
    attribute {
      name: "group"
      i: 1
      type: INT
    }
    attribute {
      name: "kernel_shape"
      ints: 3
      ints: 3
      type: INTS
    }
    attribute {
      name: "pads"
      ints: 1
      ints: 1
      ints: 1
      ints: 1
      type: INTS
    }
    attribute {
      name: "strides"
      ints: 1
      ints: 1
      type: INTS
    }
  }
  node {
    input: "stage3_unit7_bn2_quantized"
    input: "stage3_unit7_bn2_scale"
    input: "stage3_unit7_bn2_zero_point"
    output: "stage3_unit7_bn2"
    name: "stage3_unit7_bn2_stage3_unit7_conv1_DequantizeLinear"
    op_type: "DequantizeLinear"
  }
  node {
    input: "stage3_unit7_bn2"
    input: "slope531"
    output: "stage3_unit7_relu1"
    name: "stage3_unit7_relu1"
    op_type: "PRelu"
  }
  node {
    input: "stage3_unit7_relu1"
    input: "stage3_unit7_relu1_scale"
    input: "stage3_unit7_relu1_zero_point"
    output: "stage3_unit7_relu1_stage3_unit7_conv2_QuantizeLinear"
    name: "stage3_unit7_relu1_stage3_unit7_conv2_QuantizeLinear"
    op_type: "QuantizeLinear"
  }
  node {
    input: "stage3_unit7_relu1_stage3_unit7_conv2_QuantizeLinear"
    input: "stage3_unit7_relu1_scale"
    input: "stage3_unit7_relu1_zero_point"
    input: "ConvBnFusion_W_stage3_unit7_conv2_weight_quantized"
    input: "ConvBnFusion_W_stage3_unit7_conv2_weight_scale"
    input: "ConvBnFusion_W_stage3_unit7_conv2_weight_zero_point"
    input: "stage3_unit7_bn3_scale"
    input: "stage3_unit7_bn3_zero_point"
    input: "ConvBnFusion_BN_B_stage3_unit7_bn3_beta_quantized"
    output: "stage3_unit7_bn3_quantized"
    name: "stage3_unit7_conv2_quant"
    op_type: "QLinearConv"
    attribute {
      name: "auto_pad"
      s: "NOTSET"
      type: STRING
    }
    attribute {
      name: "dilations"
      ints: 1
      ints: 1
      type: INTS
    }
    attribute {
      name: "group"
      i: 1
      type: INT
    }
    attribute {
      name: "kernel_shape"
      ints: 3
      ints: 3
      type: INTS
    }
    attribute {
      name: "pads"
      ints: 1
      ints: 1
      ints: 1
      ints: 1
      type: INTS
    }
    attribute {
      name: "strides"
      ints: 1
      ints: 1
      type: INTS
    }
  }
  node {
    input: "stage3_unit7_bn3_quantized"
    input: "stage3_unit7_bn3_scale"
    input: "stage3_unit7_bn3_zero_point"
    input: "_plus21_quantized"
    input: "_plus21_scale"
    input: "_plus21_zero_point"
    input: "_plus22_scale"
    input: "_plus22_zero_point"
    output: "_plus22_quantized"
    name: "_plus22_quant"
    op_type: "QLinearAdd"
    domain: "com.microsoft"
  }
  node {
    input: "_plus22_quantized"
    input: "_plus22_scale"
    input: "_plus22_zero_point"
    output: "_plus22"
    name: "_plus22__plus22_DequantizeLinear"
    op_type: "DequantizeLinear"
  }
  node {
    input: "_plus22"
    input: "stage3_unit8_bn1_gamma"
    input: "stage3_unit8_bn1_beta"
    input: "stage3_unit8_bn1_moving_mean"
    input: "stage3_unit8_bn1_moving_var"
    output: "stage3_unit8_bn1"
    name: "stage3_unit8_bn1"
    op_type: "BatchNormalization"
    attribute {
      name: "momentum"
      f: 0.9
      type: FLOAT
    }
    attribute {
      name: "epsilon"
      f: 2e-05
      type: FLOAT
    }
  }
  node {
    input: "stage3_unit8_bn1"
    input: "stage3_unit8_bn1_scale"
    input: "stage3_unit8_bn1_zero_point"
    output: "stage3_unit8_bn1_stage3_unit8_conv1_QuantizeLinear"
    name: "stage3_unit8_bn1_stage3_unit8_conv1_QuantizeLinear"
    op_type: "QuantizeLinear"
  }
  node {
    input: "stage3_unit8_bn1_stage3_unit8_conv1_QuantizeLinear"
    input: "stage3_unit8_bn1_scale"
    input: "stage3_unit8_bn1_zero_point"
    input: "ConvBnFusion_W_stage3_unit8_conv1_weight_quantized"
    input: "ConvBnFusion_W_stage3_unit8_conv1_weight_scale"
    input: "ConvBnFusion_W_stage3_unit8_conv1_weight_zero_point"
    input: "stage3_unit8_bn2_scale"
    input: "stage3_unit8_bn2_zero_point"
    input: "ConvBnFusion_BN_B_stage3_unit8_bn2_beta_quantized"
    output: "stage3_unit8_bn2_quantized"
    name: "stage3_unit8_conv1_quant"
    op_type: "QLinearConv"
    attribute {
      name: "auto_pad"
      s: "NOTSET"
      type: STRING
    }
    attribute {
      name: "dilations"
      ints: 1
      ints: 1
      type: INTS
    }
    attribute {
      name: "group"
      i: 1
      type: INT
    }
    attribute {
      name: "kernel_shape"
      ints: 3
      ints: 3
      type: INTS
    }
    attribute {
      name: "pads"
      ints: 1
      ints: 1
      ints: 1
      ints: 1
      type: INTS
    }
    attribute {
      name: "strides"
      ints: 1
      ints: 1
      type: INTS
    }
  }
  node {
    input: "stage3_unit8_bn2_quantized"
    input: "stage3_unit8_bn2_scale"
    input: "stage3_unit8_bn2_zero_point"
    output: "stage3_unit8_bn2"
    name: "stage3_unit8_bn2_stage3_unit8_conv1_DequantizeLinear"
    op_type: "DequantizeLinear"
  }
  node {
    input: "stage3_unit8_bn2"
    input: "slope553"
    output: "stage3_unit8_relu1"
    name: "stage3_unit8_relu1"
    op_type: "PRelu"
  }
  node {
    input: "stage3_unit8_relu1"
    input: "stage3_unit8_relu1_scale"
    input: "stage3_unit8_relu1_zero_point"
    output: "stage3_unit8_relu1_stage3_unit8_conv2_QuantizeLinear"
    name: "stage3_unit8_relu1_stage3_unit8_conv2_QuantizeLinear"
    op_type: "QuantizeLinear"
  }
  node {
    input: "stage3_unit8_relu1_stage3_unit8_conv2_QuantizeLinear"
    input: "stage3_unit8_relu1_scale"
    input: "stage3_unit8_relu1_zero_point"
    input: "ConvBnFusion_W_stage3_unit8_conv2_weight_quantized"
    input: "ConvBnFusion_W_stage3_unit8_conv2_weight_scale"
    input: "ConvBnFusion_W_stage3_unit8_conv2_weight_zero_point"
    input: "stage3_unit8_bn3_scale"
    input: "stage3_unit8_bn3_zero_point"
    input: "ConvBnFusion_BN_B_stage3_unit8_bn3_beta_quantized"
    output: "stage3_unit8_bn3_quantized"
    name: "stage3_unit8_conv2_quant"
    op_type: "QLinearConv"
    attribute {
      name: "auto_pad"
      s: "NOTSET"
      type: STRING
    }
    attribute {
      name: "dilations"
      ints: 1
      ints: 1
      type: INTS
    }
    attribute {
      name: "group"
      i: 1
      type: INT
    }
    attribute {
      name: "kernel_shape"
      ints: 3
      ints: 3
      type: INTS
    }
    attribute {
      name: "pads"
      ints: 1
      ints: 1
      ints: 1
      ints: 1
      type: INTS
    }
    attribute {
      name: "strides"
      ints: 1
      ints: 1
      type: INTS
    }
  }
  node {
    input: "stage3_unit8_bn3_quantized"
    input: "stage3_unit8_bn3_scale"
    input: "stage3_unit8_bn3_zero_point"
    input: "_plus22_quantized"
    input: "_plus22_scale"
    input: "_plus22_zero_point"
    input: "_plus23_scale"
    input: "_plus23_zero_point"
    output: "_plus23_quantized"
    name: "_plus23_quant"
    op_type: "QLinearAdd"
    domain: "com.microsoft"
  }
  node {
    input: "_plus23_quantized"
    input: "_plus23_scale"
    input: "_plus23_zero_point"
    output: "_plus23"
    name: "_plus23__plus23_DequantizeLinear"
    op_type: "DequantizeLinear"
  }
  node {
    input: "_plus23"
    input: "stage3_unit9_bn1_gamma"
    input: "stage3_unit9_bn1_beta"
    input: "stage3_unit9_bn1_moving_mean"
    input: "stage3_unit9_bn1_moving_var"
    output: "stage3_unit9_bn1"
    name: "stage3_unit9_bn1"
    op_type: "BatchNormalization"
    attribute {
      name: "momentum"
      f: 0.9
      type: FLOAT
    }
    attribute {
      name: "epsilon"
      f: 2e-05
      type: FLOAT
    }
  }
  node {
    input: "stage3_unit9_bn1"
    input: "stage3_unit9_bn1_scale"
    input: "stage3_unit9_bn1_zero_point"
    output: "stage3_unit9_bn1_stage3_unit9_conv1_QuantizeLinear"
    name: "stage3_unit9_bn1_stage3_unit9_conv1_QuantizeLinear"
    op_type: "QuantizeLinear"
  }
  node {
    input: "stage3_unit9_bn1_stage3_unit9_conv1_QuantizeLinear"
    input: "stage3_unit9_bn1_scale"
    input: "stage3_unit9_bn1_zero_point"
    input: "ConvBnFusion_W_stage3_unit9_conv1_weight_quantized"
    input: "ConvBnFusion_W_stage3_unit9_conv1_weight_scale"
    input: "ConvBnFusion_W_stage3_unit9_conv1_weight_zero_point"
    input: "stage3_unit9_bn2_scale"
    input: "stage3_unit9_bn2_zero_point"
    input: "ConvBnFusion_BN_B_stage3_unit9_bn2_beta_quantized"
    output: "stage3_unit9_bn2_quantized"
    name: "stage3_unit9_conv1_quant"
    op_type: "QLinearConv"
    attribute {
      name: "auto_pad"
      s: "NOTSET"
      type: STRING
    }
    attribute {
      name: "dilations"
      ints: 1
      ints: 1
      type: INTS
    }
    attribute {
      name: "group"
      i: 1
      type: INT
    }
    attribute {
      name: "kernel_shape"
      ints: 3
      ints: 3
      type: INTS
    }
    attribute {
      name: "pads"
      ints: 1
      ints: 1
      ints: 1
      ints: 1
      type: INTS
    }
    attribute {
      name: "strides"
      ints: 1
      ints: 1
      type: INTS
    }
  }
  node {
    input: "stage3_unit9_bn2_quantized"
    input: "stage3_unit9_bn2_scale"
    input: "stage3_unit9_bn2_zero_point"
    output: "stage3_unit9_bn2"
    name: "stage3_unit9_bn2_stage3_unit9_conv1_DequantizeLinear"
    op_type: "DequantizeLinear"
  }
  node {
    input: "stage3_unit9_bn2"
    input: "slope575"
    output: "stage3_unit9_relu1"
    name: "stage3_unit9_relu1"
    op_type: "PRelu"
  }
  node {
    input: "stage3_unit9_relu1"
    input: "stage3_unit9_relu1_scale"
    input: "stage3_unit9_relu1_zero_point"
    output: "stage3_unit9_relu1_stage3_unit9_conv2_QuantizeLinear"
    name: "stage3_unit9_relu1_stage3_unit9_conv2_QuantizeLinear"
    op_type: "QuantizeLinear"
  }
  node {
    input: "stage3_unit9_relu1_stage3_unit9_conv2_QuantizeLinear"
    input: "stage3_unit9_relu1_scale"
    input: "stage3_unit9_relu1_zero_point"
    input: "ConvBnFusion_W_stage3_unit9_conv2_weight_quantized"
    input: "ConvBnFusion_W_stage3_unit9_conv2_weight_scale"
    input: "ConvBnFusion_W_stage3_unit9_conv2_weight_zero_point"
    input: "stage3_unit9_bn3_scale"
    input: "stage3_unit9_bn3_zero_point"
    input: "ConvBnFusion_BN_B_stage3_unit9_bn3_beta_quantized"
    output: "stage3_unit9_bn3_quantized"
    name: "stage3_unit9_conv2_quant"
    op_type: "QLinearConv"
    attribute {
      name: "auto_pad"
      s: "NOTSET"
      type: STRING
    }
    attribute {
      name: "dilations"
      ints: 1
      ints: 1
      type: INTS
    }
    attribute {
      name: "group"
      i: 1
      type: INT
    }
    attribute {
      name: "kernel_shape"
      ints: 3
      ints: 3
      type: INTS
    }
    attribute {
      name: "pads"
      ints: 1
      ints: 1
      ints: 1
      ints: 1
      type: INTS
    }
    attribute {
      name: "strides"
      ints: 1
      ints: 1
      type: INTS
    }
  }
  node {
    input: "stage3_unit9_bn3_quantized"
    input: "stage3_unit9_bn3_scale"
    input: "stage3_unit9_bn3_zero_point"
    input: "_plus23_quantized"
    input: "_plus23_scale"
    input: "_plus23_zero_point"
    input: "_plus24_scale"
    input: "_plus24_zero_point"
    output: "_plus24_quantized"
    name: "_plus24_quant"
    op_type: "QLinearAdd"
    domain: "com.microsoft"
  }
  node {
    input: "_plus24_quantized"
    input: "_plus24_scale"
    input: "_plus24_zero_point"
    output: "_plus24"
    name: "_plus24__plus24_DequantizeLinear"
    op_type: "DequantizeLinear"
  }
  node {
    input: "_plus24"
    input: "stage3_unit10_bn1_gamma"
    input: "stage3_unit10_bn1_beta"
    input: "stage3_unit10_bn1_moving_mean"
    input: "stage3_unit10_bn1_moving_var"
    output: "stage3_unit10_bn1"
    name: "stage3_unit10_bn1"
    op_type: "BatchNormalization"
    attribute {
      name: "momentum"
      f: 0.9
      type: FLOAT
    }
    attribute {
      name: "epsilon"
      f: 2e-05
      type: FLOAT
    }
  }
  node {
    input: "stage3_unit10_bn1"
    input: "stage3_unit10_bn1_scale"
    input: "stage3_unit10_bn1_zero_point"
    output: "stage3_unit10_bn1_stage3_unit10_conv1_QuantizeLinear"
    name: "stage3_unit10_bn1_stage3_unit10_conv1_QuantizeLinear"
    op_type: "QuantizeLinear"
  }
  node {
    input: "stage3_unit10_bn1_stage3_unit10_conv1_QuantizeLinear"
    input: "stage3_unit10_bn1_scale"
    input: "stage3_unit10_bn1_zero_point"
    input: "ConvBnFusion_W_stage3_unit10_conv1_weight_quantized"
    input: "ConvBnFusion_W_stage3_unit10_conv1_weight_scale"
    input: "ConvBnFusion_W_stage3_unit10_conv1_weight_zero_point"
    input: "stage3_unit10_bn2_scale"
    input: "stage3_unit10_bn2_zero_point"
    input: "ConvBnFusion_BN_B_stage3_unit10_bn2_beta_quantized"
    output: "stage3_unit10_bn2_quantized"
    name: "stage3_unit10_conv1_quant"
    op_type: "QLinearConv"
    attribute {
      name: "auto_pad"
      s: "NOTSET"
      type: STRING
    }
    attribute {
      name: "dilations"
      ints: 1
      ints: 1
      type: INTS
    }
    attribute {
      name: "group"
      i: 1
      type: INT
    }
    attribute {
      name: "kernel_shape"
      ints: 3
      ints: 3
      type: INTS
    }
    attribute {
      name: "pads"
      ints: 1
      ints: 1
      ints: 1
      ints: 1
      type: INTS
    }
    attribute {
      name: "strides"
      ints: 1
      ints: 1
      type: INTS
    }
  }
  node {
    input: "stage3_unit10_bn2_quantized"
    input: "stage3_unit10_bn2_scale"
    input: "stage3_unit10_bn2_zero_point"
    output: "stage3_unit10_bn2"
    name: "stage3_unit10_bn2_stage3_unit10_conv1_DequantizeLinear"
    op_type: "DequantizeLinear"
  }
  node {
    input: "stage3_unit10_bn2"
    input: "slope597"
    output: "stage3_unit10_relu1"
    name: "stage3_unit10_relu1"
    op_type: "PRelu"
  }
  node {
    input: "stage3_unit10_relu1"
    input: "stage3_unit10_relu1_scale"
    input: "stage3_unit10_relu1_zero_point"
    output: "stage3_unit10_relu1_stage3_unit10_conv2_QuantizeLinear"
    name: "stage3_unit10_relu1_stage3_unit10_conv2_QuantizeLinear"
    op_type: "QuantizeLinear"
  }
  node {
    input: "stage3_unit10_relu1_stage3_unit10_conv2_QuantizeLinear"
    input: "stage3_unit10_relu1_scale"
    input: "stage3_unit10_relu1_zero_point"
    input: "ConvBnFusion_W_stage3_unit10_conv2_weight_quantized"
    input: "ConvBnFusion_W_stage3_unit10_conv2_weight_scale"
    input: "ConvBnFusion_W_stage3_unit10_conv2_weight_zero_point"
    input: "stage3_unit10_bn3_scale"
    input: "stage3_unit10_bn3_zero_point"
    input: "ConvBnFusion_BN_B_stage3_unit10_bn3_beta_quantized"
    output: "stage3_unit10_bn3_quantized"
    name: "stage3_unit10_conv2_quant"
    op_type: "QLinearConv"
    attribute {
      name: "auto_pad"
      s: "NOTSET"
      type: STRING
    }
    attribute {
      name: "dilations"
      ints: 1
      ints: 1
      type: INTS
    }
    attribute {
      name: "group"
      i: 1
      type: INT
    }
    attribute {
      name: "kernel_shape"
      ints: 3
      ints: 3
      type: INTS
    }
    attribute {
      name: "pads"
      ints: 1
      ints: 1
      ints: 1
      ints: 1
      type: INTS
    }
    attribute {
      name: "strides"
      ints: 1
      ints: 1
      type: INTS
    }
  }
  node {
    input: "stage3_unit10_bn3_quantized"
    input: "stage3_unit10_bn3_scale"
    input: "stage3_unit10_bn3_zero_point"
    input: "_plus24_quantized"
    input: "_plus24_scale"
    input: "_plus24_zero_point"
    input: "_plus25_scale"
    input: "_plus25_zero_point"
    output: "_plus25_quantized"
    name: "_plus25_quant"
    op_type: "QLinearAdd"
    domain: "com.microsoft"
  }
  node {
    input: "_plus25_quantized"
    input: "_plus25_scale"
    input: "_plus25_zero_point"
    output: "_plus25"
    name: "_plus25__plus25_DequantizeLinear"
    op_type: "DequantizeLinear"
  }
  node {
    input: "_plus25"
    input: "stage3_unit11_bn1_gamma"
    input: "stage3_unit11_bn1_beta"
    input: "stage3_unit11_bn1_moving_mean"
    input: "stage3_unit11_bn1_moving_var"
    output: "stage3_unit11_bn1"
    name: "stage3_unit11_bn1"
    op_type: "BatchNormalization"
    attribute {
      name: "momentum"
      f: 0.9
      type: FLOAT
    }
    attribute {
      name: "epsilon"
      f: 2e-05
      type: FLOAT
    }
  }
  node {
    input: "stage3_unit11_bn1"
    input: "stage3_unit11_bn1_scale"
    input: "stage3_unit11_bn1_zero_point"
    output: "stage3_unit11_bn1_stage3_unit11_conv1_QuantizeLinear"
    name: "stage3_unit11_bn1_stage3_unit11_conv1_QuantizeLinear"
    op_type: "QuantizeLinear"
  }
  node {
    input: "stage3_unit11_bn1_stage3_unit11_conv1_QuantizeLinear"
    input: "stage3_unit11_bn1_scale"
    input: "stage3_unit11_bn1_zero_point"
    input: "ConvBnFusion_W_stage3_unit11_conv1_weight_quantized"
    input: "ConvBnFusion_W_stage3_unit11_conv1_weight_scale"
    input: "ConvBnFusion_W_stage3_unit11_conv1_weight_zero_point"
    input: "stage3_unit11_bn2_scale"
    input: "stage3_unit11_bn2_zero_point"
    input: "ConvBnFusion_BN_B_stage3_unit11_bn2_beta_quantized"
    output: "stage3_unit11_bn2_quantized"
    name: "stage3_unit11_conv1_quant"
    op_type: "QLinearConv"
    attribute {
      name: "auto_pad"
      s: "NOTSET"
      type: STRING
    }
    attribute {
      name: "dilations"
      ints: 1
      ints: 1
      type: INTS
    }
    attribute {
      name: "group"
      i: 1
      type: INT
    }
    attribute {
      name: "kernel_shape"
      ints: 3
      ints: 3
      type: INTS
    }
    attribute {
      name: "pads"
      ints: 1
      ints: 1
      ints: 1
      ints: 1
      type: INTS
    }
    attribute {
      name: "strides"
      ints: 1
      ints: 1
      type: INTS
    }
  }
  node {
    input: "stage3_unit11_bn2_quantized"
    input: "stage3_unit11_bn2_scale"
    input: "stage3_unit11_bn2_zero_point"
    output: "stage3_unit11_bn2"
    name: "stage3_unit11_bn2_stage3_unit11_conv1_DequantizeLinear"
    op_type: "DequantizeLinear"
  }
  node {
    input: "stage3_unit11_bn2"
    input: "slope619"
    output: "stage3_unit11_relu1"
    name: "stage3_unit11_relu1"
    op_type: "PRelu"
  }
  node {
    input: "stage3_unit11_relu1"
    input: "stage3_unit11_relu1_scale"
    input: "stage3_unit11_relu1_zero_point"
    output: "stage3_unit11_relu1_stage3_unit11_conv2_QuantizeLinear"
    name: "stage3_unit11_relu1_stage3_unit11_conv2_QuantizeLinear"
    op_type: "QuantizeLinear"
  }
  node {
    input: "stage3_unit11_relu1_stage3_unit11_conv2_QuantizeLinear"
    input: "stage3_unit11_relu1_scale"
    input: "stage3_unit11_relu1_zero_point"
    input: "ConvBnFusion_W_stage3_unit11_conv2_weight_quantized"
    input: "ConvBnFusion_W_stage3_unit11_conv2_weight_scale"
    input: "ConvBnFusion_W_stage3_unit11_conv2_weight_zero_point"
    input: "stage3_unit11_bn3_scale"
    input: "stage3_unit11_bn3_zero_point"
    input: "ConvBnFusion_BN_B_stage3_unit11_bn3_beta_quantized"
    output: "stage3_unit11_bn3_quantized"
    name: "stage3_unit11_conv2_quant"
    op_type: "QLinearConv"
    attribute {
      name: "auto_pad"
      s: "NOTSET"
      type: STRING
    }
    attribute {
      name: "dilations"
      ints: 1
      ints: 1
      type: INTS
    }
    attribute {
      name: "group"
      i: 1
      type: INT
    }
    attribute {
      name: "kernel_shape"
      ints: 3
      ints: 3
      type: INTS
    }
    attribute {
      name: "pads"
      ints: 1
      ints: 1
      ints: 1
      ints: 1
      type: INTS
    }
    attribute {
      name: "strides"
      ints: 1
      ints: 1
      type: INTS
    }
  }
  node {
    input: "stage3_unit11_bn3_quantized"
    input: "stage3_unit11_bn3_scale"
    input: "stage3_unit11_bn3_zero_point"
    input: "_plus25_quantized"
    input: "_plus25_scale"
    input: "_plus25_zero_point"
    input: "_plus26_scale"
    input: "_plus26_zero_point"
    output: "_plus26_quantized"
    name: "_plus26_quant"
    op_type: "QLinearAdd"
    domain: "com.microsoft"
  }
  node {
    input: "_plus26_quantized"
    input: "_plus26_scale"
    input: "_plus26_zero_point"
    output: "_plus26"
    name: "_plus26__plus26_DequantizeLinear"
    op_type: "DequantizeLinear"
  }
  node {
    input: "_plus26"
    input: "stage3_unit12_bn1_gamma"
    input: "stage3_unit12_bn1_beta"
    input: "stage3_unit12_bn1_moving_mean"
    input: "stage3_unit12_bn1_moving_var"
    output: "stage3_unit12_bn1"
    name: "stage3_unit12_bn1"
    op_type: "BatchNormalization"
    attribute {
      name: "momentum"
      f: 0.9
      type: FLOAT
    }
    attribute {
      name: "epsilon"
      f: 2e-05
      type: FLOAT
    }
  }
  node {
    input: "stage3_unit12_bn1"
    input: "stage3_unit12_bn1_scale"
    input: "stage3_unit12_bn1_zero_point"
    output: "stage3_unit12_bn1_stage3_unit12_conv1_QuantizeLinear"
    name: "stage3_unit12_bn1_stage3_unit12_conv1_QuantizeLinear"
    op_type: "QuantizeLinear"
  }
  node {
    input: "stage3_unit12_bn1_stage3_unit12_conv1_QuantizeLinear"
    input: "stage3_unit12_bn1_scale"
    input: "stage3_unit12_bn1_zero_point"
    input: "ConvBnFusion_W_stage3_unit12_conv1_weight_quantized"
    input: "ConvBnFusion_W_stage3_unit12_conv1_weight_scale"
    input: "ConvBnFusion_W_stage3_unit12_conv1_weight_zero_point"
    input: "stage3_unit12_bn2_scale"
    input: "stage3_unit12_bn2_zero_point"
    input: "ConvBnFusion_BN_B_stage3_unit12_bn2_beta_quantized"
    output: "stage3_unit12_bn2_quantized"
    name: "stage3_unit12_conv1_quant"
    op_type: "QLinearConv"
    attribute {
      name: "auto_pad"
      s: "NOTSET"
      type: STRING
    }
    attribute {
      name: "dilations"
      ints: 1
      ints: 1
      type: INTS
    }
    attribute {
      name: "group"
      i: 1
      type: INT
    }
    attribute {
      name: "kernel_shape"
      ints: 3
      ints: 3
      type: INTS
    }
    attribute {
      name: "pads"
      ints: 1
      ints: 1
      ints: 1
      ints: 1
      type: INTS
    }
    attribute {
      name: "strides"
      ints: 1
      ints: 1
      type: INTS
    }
  }
  node {
    input: "stage3_unit12_bn2_quantized"
    input: "stage3_unit12_bn2_scale"
    input: "stage3_unit12_bn2_zero_point"
    output: "stage3_unit12_bn2"
    name: "stage3_unit12_bn2_stage3_unit12_conv1_DequantizeLinear"
    op_type: "DequantizeLinear"
  }
  node {
    input: "stage3_unit12_bn2"
    input: "slope641"
    output: "stage3_unit12_relu1"
    name: "stage3_unit12_relu1"
    op_type: "PRelu"
  }
  node {
    input: "stage3_unit12_relu1"
    input: "stage3_unit12_relu1_scale"
    input: "stage3_unit12_relu1_zero_point"
    output: "stage3_unit12_relu1_stage3_unit12_conv2_QuantizeLinear"
    name: "stage3_unit12_relu1_stage3_unit12_conv2_QuantizeLinear"
    op_type: "QuantizeLinear"
  }
  node {
    input: "stage3_unit12_relu1_stage3_unit12_conv2_QuantizeLinear"
    input: "stage3_unit12_relu1_scale"
    input: "stage3_unit12_relu1_zero_point"
    input: "ConvBnFusion_W_stage3_unit12_conv2_weight_quantized"
    input: "ConvBnFusion_W_stage3_unit12_conv2_weight_scale"
    input: "ConvBnFusion_W_stage3_unit12_conv2_weight_zero_point"
    input: "stage3_unit12_bn3_scale"
    input: "stage3_unit12_bn3_zero_point"
    input: "ConvBnFusion_BN_B_stage3_unit12_bn3_beta_quantized"
    output: "stage3_unit12_bn3_quantized"
    name: "stage3_unit12_conv2_quant"
    op_type: "QLinearConv"
    attribute {
      name: "auto_pad"
      s: "NOTSET"
      type: STRING
    }
    attribute {
      name: "dilations"
      ints: 1
      ints: 1
      type: INTS
    }
    attribute {
      name: "group"
      i: 1
      type: INT
    }
    attribute {
      name: "kernel_shape"
      ints: 3
      ints: 3
      type: INTS
    }
    attribute {
      name: "pads"
      ints: 1
      ints: 1
      ints: 1
      ints: 1
      type: INTS
    }
    attribute {
      name: "strides"
      ints: 1
      ints: 1
      type: INTS
    }
  }
  node {
    input: "stage3_unit12_bn3_quantized"
    input: "stage3_unit12_bn3_scale"
    input: "stage3_unit12_bn3_zero_point"
    input: "_plus26_quantized"
    input: "_plus26_scale"
    input: "_plus26_zero_point"
    input: "_plus27_scale"
    input: "_plus27_zero_point"
    output: "_plus27_quantized"
    name: "_plus27_quant"
    op_type: "QLinearAdd"
    domain: "com.microsoft"
  }
  node {
    input: "_plus27_quantized"
    input: "_plus27_scale"
    input: "_plus27_zero_point"
    output: "_plus27"
    name: "_plus27__plus27_DequantizeLinear"
    op_type: "DequantizeLinear"
  }
  node {
    input: "_plus27"
    input: "stage3_unit13_bn1_gamma"
    input: "stage3_unit13_bn1_beta"
    input: "stage3_unit13_bn1_moving_mean"
    input: "stage3_unit13_bn1_moving_var"
    output: "stage3_unit13_bn1"
    name: "stage3_unit13_bn1"
    op_type: "BatchNormalization"
    attribute {
      name: "momentum"
      f: 0.9
      type: FLOAT
    }
    attribute {
      name: "epsilon"
      f: 2e-05
      type: FLOAT
    }
  }
  node {
    input: "stage3_unit13_bn1"
    input: "stage3_unit13_bn1_scale"
    input: "stage3_unit13_bn1_zero_point"
    output: "stage3_unit13_bn1_stage3_unit13_conv1_QuantizeLinear"
    name: "stage3_unit13_bn1_stage3_unit13_conv1_QuantizeLinear"
    op_type: "QuantizeLinear"
  }
  node {
    input: "stage3_unit13_bn1_stage3_unit13_conv1_QuantizeLinear"
    input: "stage3_unit13_bn1_scale"
    input: "stage3_unit13_bn1_zero_point"
    input: "ConvBnFusion_W_stage3_unit13_conv1_weight_quantized"
    input: "ConvBnFusion_W_stage3_unit13_conv1_weight_scale"
    input: "ConvBnFusion_W_stage3_unit13_conv1_weight_zero_point"
    input: "stage3_unit13_bn2_scale"
    input: "stage3_unit13_bn2_zero_point"
    input: "ConvBnFusion_BN_B_stage3_unit13_bn2_beta_quantized"
    output: "stage3_unit13_bn2_quantized"
    name: "stage3_unit13_conv1_quant"
    op_type: "QLinearConv"
    attribute {
      name: "auto_pad"
      s: "NOTSET"
      type: STRING
    }
    attribute {
      name: "dilations"
      ints: 1
      ints: 1
      type: INTS
    }
    attribute {
      name: "group"
      i: 1
      type: INT
    }
    attribute {
      name: "kernel_shape"
      ints: 3
      ints: 3
      type: INTS
    }
    attribute {
      name: "pads"
      ints: 1
      ints: 1
      ints: 1
      ints: 1
      type: INTS
    }
    attribute {
      name: "strides"
      ints: 1
      ints: 1
      type: INTS
    }
  }
  node {
    input: "stage3_unit13_bn2_quantized"
    input: "stage3_unit13_bn2_scale"
    input: "stage3_unit13_bn2_zero_point"
    output: "stage3_unit13_bn2"
    name: "stage3_unit13_bn2_stage3_unit13_conv1_DequantizeLinear"
    op_type: "DequantizeLinear"
  }
  node {
    input: "stage3_unit13_bn2"
    input: "slope663"
    output: "stage3_unit13_relu1"
    name: "stage3_unit13_relu1"
    op_type: "PRelu"
  }
  node {
    input: "stage3_unit13_relu1"
    input: "stage3_unit13_relu1_scale"
    input: "stage3_unit13_relu1_zero_point"
    output: "stage3_unit13_relu1_stage3_unit13_conv2_QuantizeLinear"
    name: "stage3_unit13_relu1_stage3_unit13_conv2_QuantizeLinear"
    op_type: "QuantizeLinear"
  }
  node {
    input: "stage3_unit13_relu1_stage3_unit13_conv2_QuantizeLinear"
    input: "stage3_unit13_relu1_scale"
    input: "stage3_unit13_relu1_zero_point"
    input: "ConvBnFusion_W_stage3_unit13_conv2_weight_quantized"
    input: "ConvBnFusion_W_stage3_unit13_conv2_weight_scale"
    input: "ConvBnFusion_W_stage3_unit13_conv2_weight_zero_point"
    input: "stage3_unit13_bn3_scale"
    input: "stage3_unit13_bn3_zero_point"
    input: "ConvBnFusion_BN_B_stage3_unit13_bn3_beta_quantized"
    output: "stage3_unit13_bn3_quantized"
    name: "stage3_unit13_conv2_quant"
    op_type: "QLinearConv"
    attribute {
      name: "auto_pad"
      s: "NOTSET"
      type: STRING
    }
    attribute {
      name: "dilations"
      ints: 1
      ints: 1
      type: INTS
    }
    attribute {
      name: "group"
      i: 1
      type: INT
    }
    attribute {
      name: "kernel_shape"
      ints: 3
      ints: 3
      type: INTS
    }
    attribute {
      name: "pads"
      ints: 1
      ints: 1
      ints: 1
      ints: 1
      type: INTS
    }
    attribute {
      name: "strides"
      ints: 1
      ints: 1
      type: INTS
    }
  }
  node {
    input: "stage3_unit13_bn3_quantized"
    input: "stage3_unit13_bn3_scale"
    input: "stage3_unit13_bn3_zero_point"
    input: "_plus27_quantized"
    input: "_plus27_scale"
    input: "_plus27_zero_point"
    input: "_plus28_scale"
    input: "_plus28_zero_point"
    output: "_plus28_quantized"
    name: "_plus28_quant"
    op_type: "QLinearAdd"
    domain: "com.microsoft"
  }
  node {
    input: "_plus28_quantized"
    input: "_plus28_scale"
    input: "_plus28_zero_point"
    output: "_plus28"
    name: "_plus28__plus28_DequantizeLinear"
    op_type: "DequantizeLinear"
  }
  node {
    input: "_plus28"
    input: "stage3_unit14_bn1_gamma"
    input: "stage3_unit14_bn1_beta"
    input: "stage3_unit14_bn1_moving_mean"
    input: "stage3_unit14_bn1_moving_var"
    output: "stage3_unit14_bn1"
    name: "stage3_unit14_bn1"
    op_type: "BatchNormalization"
    attribute {
      name: "momentum"
      f: 0.9
      type: FLOAT
    }
    attribute {
      name: "epsilon"
      f: 2e-05
      type: FLOAT
    }
  }
  node {
    input: "stage3_unit14_bn1"
    input: "stage3_unit14_bn1_scale"
    input: "stage3_unit14_bn1_zero_point"
    output: "stage3_unit14_bn1_stage3_unit14_conv1_QuantizeLinear"
    name: "stage3_unit14_bn1_stage3_unit14_conv1_QuantizeLinear"
    op_type: "QuantizeLinear"
  }
  node {
    input: "stage3_unit14_bn1_stage3_unit14_conv1_QuantizeLinear"
    input: "stage3_unit14_bn1_scale"
    input: "stage3_unit14_bn1_zero_point"
    input: "ConvBnFusion_W_stage3_unit14_conv1_weight_quantized"
    input: "ConvBnFusion_W_stage3_unit14_conv1_weight_scale"
    input: "ConvBnFusion_W_stage3_unit14_conv1_weight_zero_point"
    input: "stage3_unit14_bn2_scale"
    input: "stage3_unit14_bn2_zero_point"
    input: "ConvBnFusion_BN_B_stage3_unit14_bn2_beta_quantized"
    output: "stage3_unit14_bn2_quantized"
    name: "stage3_unit14_conv1_quant"
    op_type: "QLinearConv"
    attribute {
      name: "auto_pad"
      s: "NOTSET"
      type: STRING
    }
    attribute {
      name: "dilations"
      ints: 1
      ints: 1
      type: INTS
    }
    attribute {
      name: "group"
      i: 1
      type: INT
    }
    attribute {
      name: "kernel_shape"
      ints: 3
      ints: 3
      type: INTS
    }
    attribute {
      name: "pads"
      ints: 1
      ints: 1
      ints: 1
      ints: 1
      type: INTS
    }
    attribute {
      name: "strides"
      ints: 1
      ints: 1
      type: INTS
    }
  }
  node {
    input: "stage3_unit14_bn2_quantized"
    input: "stage3_unit14_bn2_scale"
    input: "stage3_unit14_bn2_zero_point"
    output: "stage3_unit14_bn2"
    name: "stage3_unit14_bn2_stage3_unit14_conv1_DequantizeLinear"
    op_type: "DequantizeLinear"
  }
  node {
    input: "stage3_unit14_bn2"
    input: "slope685"
    output: "stage3_unit14_relu1"
    name: "stage3_unit14_relu1"
    op_type: "PRelu"
  }
  node {
    input: "stage3_unit14_relu1"
    input: "stage3_unit14_relu1_scale"
    input: "stage3_unit14_relu1_zero_point"
    output: "stage3_unit14_relu1_stage3_unit14_conv2_QuantizeLinear"
    name: "stage3_unit14_relu1_stage3_unit14_conv2_QuantizeLinear"
    op_type: "QuantizeLinear"
  }
  node {
    input: "stage3_unit14_relu1_stage3_unit14_conv2_QuantizeLinear"
    input: "stage3_unit14_relu1_scale"
    input: "stage3_unit14_relu1_zero_point"
    input: "ConvBnFusion_W_stage3_unit14_conv2_weight_quantized"
    input: "ConvBnFusion_W_stage3_unit14_conv2_weight_scale"
    input: "ConvBnFusion_W_stage3_unit14_conv2_weight_zero_point"
    input: "stage3_unit14_bn3_scale"
    input: "stage3_unit14_bn3_zero_point"
    input: "ConvBnFusion_BN_B_stage3_unit14_bn3_beta_quantized"
    output: "stage3_unit14_bn3_quantized"
    name: "stage3_unit14_conv2_quant"
    op_type: "QLinearConv"
    attribute {
      name: "auto_pad"
      s: "NOTSET"
      type: STRING
    }
    attribute {
      name: "dilations"
      ints: 1
      ints: 1
      type: INTS
    }
    attribute {
      name: "group"
      i: 1
      type: INT
    }
    attribute {
      name: "kernel_shape"
      ints: 3
      ints: 3
      type: INTS
    }
    attribute {
      name: "pads"
      ints: 1
      ints: 1
      ints: 1
      ints: 1
      type: INTS
    }
    attribute {
      name: "strides"
      ints: 1
      ints: 1
      type: INTS
    }
  }
  node {
    input: "stage3_unit14_bn3_quantized"
    input: "stage3_unit14_bn3_scale"
    input: "stage3_unit14_bn3_zero_point"
    input: "_plus28_quantized"
    input: "_plus28_scale"
    input: "_plus28_zero_point"
    input: "_plus29_scale"
    input: "_plus29_zero_point"
    output: "_plus29_quantized"
    name: "_plus29_quant"
    op_type: "QLinearAdd"
    domain: "com.microsoft"
  }
  node {
    input: "_plus29_quantized"
    input: "_plus29_scale"
    input: "_plus29_zero_point"
    output: "_plus29"
    name: "_plus29__plus29_DequantizeLinear"
    op_type: "DequantizeLinear"
  }
  node {
    input: "_plus29"
    input: "stage3_unit15_bn1_gamma"
    input: "stage3_unit15_bn1_beta"
    input: "stage3_unit15_bn1_moving_mean"
    input: "stage3_unit15_bn1_moving_var"
    output: "stage3_unit15_bn1"
    name: "stage3_unit15_bn1"
    op_type: "BatchNormalization"
    attribute {
      name: "momentum"
      f: 0.9
      type: FLOAT
    }
    attribute {
      name: "epsilon"
      f: 2e-05
      type: FLOAT
    }
  }
  node {
    input: "stage3_unit15_bn1"
    input: "stage3_unit15_bn1_scale"
    input: "stage3_unit15_bn1_zero_point"
    output: "stage3_unit15_bn1_stage3_unit15_conv1_QuantizeLinear"
    name: "stage3_unit15_bn1_stage3_unit15_conv1_QuantizeLinear"
    op_type: "QuantizeLinear"
  }
  node {
    input: "stage3_unit15_bn1_stage3_unit15_conv1_QuantizeLinear"
    input: "stage3_unit15_bn1_scale"
    input: "stage3_unit15_bn1_zero_point"
    input: "ConvBnFusion_W_stage3_unit15_conv1_weight_quantized"
    input: "ConvBnFusion_W_stage3_unit15_conv1_weight_scale"
    input: "ConvBnFusion_W_stage3_unit15_conv1_weight_zero_point"
    input: "stage3_unit15_bn2_scale"
    input: "stage3_unit15_bn2_zero_point"
    input: "ConvBnFusion_BN_B_stage3_unit15_bn2_beta_quantized"
    output: "stage3_unit15_bn2_quantized"
    name: "stage3_unit15_conv1_quant"
    op_type: "QLinearConv"
    attribute {
      name: "auto_pad"
      s: "NOTSET"
      type: STRING
    }
    attribute {
      name: "dilations"
      ints: 1
      ints: 1
      type: INTS
    }
    attribute {
      name: "group"
      i: 1
      type: INT
    }
    attribute {
      name: "kernel_shape"
      ints: 3
      ints: 3
      type: INTS
    }
    attribute {
      name: "pads"
      ints: 1
      ints: 1
      ints: 1
      ints: 1
      type: INTS
    }
    attribute {
      name: "strides"
      ints: 1
      ints: 1
      type: INTS
    }
  }
  node {
    input: "stage3_unit15_bn2_quantized"
    input: "stage3_unit15_bn2_scale"
    input: "stage3_unit15_bn2_zero_point"
    output: "stage3_unit15_bn2"
    name: "stage3_unit15_bn2_stage3_unit15_conv1_DequantizeLinear"
    op_type: "DequantizeLinear"
  }
  node {
    input: "stage3_unit15_bn2"
    input: "slope707"
    output: "stage3_unit15_relu1"
    name: "stage3_unit15_relu1"
    op_type: "PRelu"
  }
  node {
    input: "stage3_unit15_relu1"
    input: "stage3_unit15_relu1_scale"
    input: "stage3_unit15_relu1_zero_point"
    output: "stage3_unit15_relu1_stage3_unit15_conv2_QuantizeLinear"
    name: "stage3_unit15_relu1_stage3_unit15_conv2_QuantizeLinear"
    op_type: "QuantizeLinear"
  }
  node {
    input: "stage3_unit15_relu1_stage3_unit15_conv2_QuantizeLinear"
    input: "stage3_unit15_relu1_scale"
    input: "stage3_unit15_relu1_zero_point"
    input: "ConvBnFusion_W_stage3_unit15_conv2_weight_quantized"
    input: "ConvBnFusion_W_stage3_unit15_conv2_weight_scale"
    input: "ConvBnFusion_W_stage3_unit15_conv2_weight_zero_point"
    input: "stage3_unit15_bn3_scale"
    input: "stage3_unit15_bn3_zero_point"
    input: "ConvBnFusion_BN_B_stage3_unit15_bn3_beta_quantized"
    output: "stage3_unit15_bn3_quantized"
    name: "stage3_unit15_conv2_quant"
    op_type: "QLinearConv"
    attribute {
      name: "auto_pad"
      s: "NOTSET"
      type: STRING
    }
    attribute {
      name: "dilations"
      ints: 1
      ints: 1
      type: INTS
    }
    attribute {
      name: "group"
      i: 1
      type: INT
    }
    attribute {
      name: "kernel_shape"
      ints: 3
      ints: 3
      type: INTS
    }
    attribute {
      name: "pads"
      ints: 1
      ints: 1
      ints: 1
      ints: 1
      type: INTS
    }
    attribute {
      name: "strides"
      ints: 1
      ints: 1
      type: INTS
    }
  }
  node {
    input: "stage3_unit15_bn3_quantized"
    input: "stage3_unit15_bn3_scale"
    input: "stage3_unit15_bn3_zero_point"
    input: "_plus29_quantized"
    input: "_plus29_scale"
    input: "_plus29_zero_point"
    input: "_plus30_scale"
    input: "_plus30_zero_point"
    output: "_plus30_quantized"
    name: "_plus30_quant"
    op_type: "QLinearAdd"
    domain: "com.microsoft"
  }
  node {
    input: "_plus30_quantized"
    input: "_plus30_scale"
    input: "_plus30_zero_point"
    output: "_plus30"
    name: "_plus30__plus30_DequantizeLinear"
    op_type: "DequantizeLinear"
  }
  node {
    input: "_plus30"
    input: "stage3_unit16_bn1_gamma"
    input: "stage3_unit16_bn1_beta"
    input: "stage3_unit16_bn1_moving_mean"
    input: "stage3_unit16_bn1_moving_var"
    output: "stage3_unit16_bn1"
    name: "stage3_unit16_bn1"
    op_type: "BatchNormalization"
    attribute {
      name: "momentum"
      f: 0.9
      type: FLOAT
    }
    attribute {
      name: "epsilon"
      f: 2e-05
      type: FLOAT
    }
  }
  node {
    input: "stage3_unit16_bn1"
    input: "stage3_unit16_bn1_scale"
    input: "stage3_unit16_bn1_zero_point"
    output: "stage3_unit16_bn1_stage3_unit16_conv1_QuantizeLinear"
    name: "stage3_unit16_bn1_stage3_unit16_conv1_QuantizeLinear"
    op_type: "QuantizeLinear"
  }
  node {
    input: "stage3_unit16_bn1_stage3_unit16_conv1_QuantizeLinear"
    input: "stage3_unit16_bn1_scale"
    input: "stage3_unit16_bn1_zero_point"
    input: "ConvBnFusion_W_stage3_unit16_conv1_weight_quantized"
    input: "ConvBnFusion_W_stage3_unit16_conv1_weight_scale"
    input: "ConvBnFusion_W_stage3_unit16_conv1_weight_zero_point"
    input: "stage3_unit16_bn2_scale"
    input: "stage3_unit16_bn2_zero_point"
    input: "ConvBnFusion_BN_B_stage3_unit16_bn2_beta_quantized"
    output: "stage3_unit16_bn2_quantized"
    name: "stage3_unit16_conv1_quant"
    op_type: "QLinearConv"
    attribute {
      name: "auto_pad"
      s: "NOTSET"
      type: STRING
    }
    attribute {
      name: "dilations"
      ints: 1
      ints: 1
      type: INTS
    }
    attribute {
      name: "group"
      i: 1
      type: INT
    }
    attribute {
      name: "kernel_shape"
      ints: 3
      ints: 3
      type: INTS
    }
    attribute {
      name: "pads"
      ints: 1
      ints: 1
      ints: 1
      ints: 1
      type: INTS
    }
    attribute {
      name: "strides"
      ints: 1
      ints: 1
      type: INTS
    }
  }
  node {
    input: "stage3_unit16_bn2_quantized"
    input: "stage3_unit16_bn2_scale"
    input: "stage3_unit16_bn2_zero_point"
    output: "stage3_unit16_bn2"
    name: "stage3_unit16_bn2_stage3_unit16_conv1_DequantizeLinear"
    op_type: "DequantizeLinear"
  }
  node {
    input: "stage3_unit16_bn2"
    input: "slope729"
    output: "stage3_unit16_relu1"
    name: "stage3_unit16_relu1"
    op_type: "PRelu"
  }
  node {
    input: "stage3_unit16_relu1"
    input: "stage3_unit16_relu1_scale"
    input: "stage3_unit16_relu1_zero_point"
    output: "stage3_unit16_relu1_stage3_unit16_conv2_QuantizeLinear"
    name: "stage3_unit16_relu1_stage3_unit16_conv2_QuantizeLinear"
    op_type: "QuantizeLinear"
  }
  node {
    input: "stage3_unit16_relu1_stage3_unit16_conv2_QuantizeLinear"
    input: "stage3_unit16_relu1_scale"
    input: "stage3_unit16_relu1_zero_point"
    input: "ConvBnFusion_W_stage3_unit16_conv2_weight_quantized"
    input: "ConvBnFusion_W_stage3_unit16_conv2_weight_scale"
    input: "ConvBnFusion_W_stage3_unit16_conv2_weight_zero_point"
    input: "stage3_unit16_bn3_scale"
    input: "stage3_unit16_bn3_zero_point"
    input: "ConvBnFusion_BN_B_stage3_unit16_bn3_beta_quantized"
    output: "stage3_unit16_bn3_quantized"
    name: "stage3_unit16_conv2_quant"
    op_type: "QLinearConv"
    attribute {
      name: "auto_pad"
      s: "NOTSET"
      type: STRING
    }
    attribute {
      name: "dilations"
      ints: 1
      ints: 1
      type: INTS
    }
    attribute {
      name: "group"
      i: 1
      type: INT
    }
    attribute {
      name: "kernel_shape"
      ints: 3
      ints: 3
      type: INTS
    }
    attribute {
      name: "pads"
      ints: 1
      ints: 1
      ints: 1
      ints: 1
      type: INTS
    }
    attribute {
      name: "strides"
      ints: 1
      ints: 1
      type: INTS
    }
  }
  node {
    input: "stage3_unit16_bn3_quantized"
    input: "stage3_unit16_bn3_scale"
    input: "stage3_unit16_bn3_zero_point"
    input: "_plus30_quantized"
    input: "_plus30_scale"
    input: "_plus30_zero_point"
    input: "_plus31_scale"
    input: "_plus31_zero_point"
    output: "_plus31_quantized"
    name: "_plus31_quant"
    op_type: "QLinearAdd"
    domain: "com.microsoft"
  }
  node {
    input: "_plus31_quantized"
    input: "_plus31_scale"
    input: "_plus31_zero_point"
    output: "_plus31"
    name: "_plus31__plus31_DequantizeLinear"
    op_type: "DequantizeLinear"
  }
  node {
    input: "_plus31"
    input: "stage3_unit17_bn1_gamma"
    input: "stage3_unit17_bn1_beta"
    input: "stage3_unit17_bn1_moving_mean"
    input: "stage3_unit17_bn1_moving_var"
    output: "stage3_unit17_bn1"
    name: "stage3_unit17_bn1"
    op_type: "BatchNormalization"
    attribute {
      name: "momentum"
      f: 0.9
      type: FLOAT
    }
    attribute {
      name: "epsilon"
      f: 2e-05
      type: FLOAT
    }
  }
  node {
    input: "stage3_unit17_bn1"
    input: "stage3_unit17_bn1_scale"
    input: "stage3_unit17_bn1_zero_point"
    output: "stage3_unit17_bn1_stage3_unit17_conv1_QuantizeLinear"
    name: "stage3_unit17_bn1_stage3_unit17_conv1_QuantizeLinear"
    op_type: "QuantizeLinear"
  }
  node {
    input: "stage3_unit17_bn1_stage3_unit17_conv1_QuantizeLinear"
    input: "stage3_unit17_bn1_scale"
    input: "stage3_unit17_bn1_zero_point"
    input: "ConvBnFusion_W_stage3_unit17_conv1_weight_quantized"
    input: "ConvBnFusion_W_stage3_unit17_conv1_weight_scale"
    input: "ConvBnFusion_W_stage3_unit17_conv1_weight_zero_point"
    input: "stage3_unit17_bn2_scale"
    input: "stage3_unit17_bn2_zero_point"
    input: "ConvBnFusion_BN_B_stage3_unit17_bn2_beta_quantized"
    output: "stage3_unit17_bn2_quantized"
    name: "stage3_unit17_conv1_quant"
    op_type: "QLinearConv"
    attribute {
      name: "auto_pad"
      s: "NOTSET"
      type: STRING
    }
    attribute {
      name: "dilations"
      ints: 1
      ints: 1
      type: INTS
    }
    attribute {
      name: "group"
      i: 1
      type: INT
    }
    attribute {
      name: "kernel_shape"
      ints: 3
      ints: 3
      type: INTS
    }
    attribute {
      name: "pads"
      ints: 1
      ints: 1
      ints: 1
      ints: 1
      type: INTS
    }
    attribute {
      name: "strides"
      ints: 1
      ints: 1
      type: INTS
    }
  }
  node {
    input: "stage3_unit17_bn2_quantized"
    input: "stage3_unit17_bn2_scale"
    input: "stage3_unit17_bn2_zero_point"
    output: "stage3_unit17_bn2"
    name: "stage3_unit17_bn2_stage3_unit17_conv1_DequantizeLinear"
    op_type: "DequantizeLinear"
  }
  node {
    input: "stage3_unit17_bn2"
    input: "slope751"
    output: "stage3_unit17_relu1"
    name: "stage3_unit17_relu1"
    op_type: "PRelu"
  }
  node {
    input: "stage3_unit17_relu1"
    input: "stage3_unit17_relu1_scale"
    input: "stage3_unit17_relu1_zero_point"
    output: "stage3_unit17_relu1_stage3_unit17_conv2_QuantizeLinear"
    name: "stage3_unit17_relu1_stage3_unit17_conv2_QuantizeLinear"
    op_type: "QuantizeLinear"
  }
  node {
    input: "stage3_unit17_relu1_stage3_unit17_conv2_QuantizeLinear"
    input: "stage3_unit17_relu1_scale"
    input: "stage3_unit17_relu1_zero_point"
    input: "ConvBnFusion_W_stage3_unit17_conv2_weight_quantized"
    input: "ConvBnFusion_W_stage3_unit17_conv2_weight_scale"
    input: "ConvBnFusion_W_stage3_unit17_conv2_weight_zero_point"
    input: "stage3_unit17_bn3_scale"
    input: "stage3_unit17_bn3_zero_point"
    input: "ConvBnFusion_BN_B_stage3_unit17_bn3_beta_quantized"
    output: "stage3_unit17_bn3_quantized"
    name: "stage3_unit17_conv2_quant"
    op_type: "QLinearConv"
    attribute {
      name: "auto_pad"
      s: "NOTSET"
      type: STRING
    }
    attribute {
      name: "dilations"
      ints: 1
      ints: 1
      type: INTS
    }
    attribute {
      name: "group"
      i: 1
      type: INT
    }
    attribute {
      name: "kernel_shape"
      ints: 3
      ints: 3
      type: INTS
    }
    attribute {
      name: "pads"
      ints: 1
      ints: 1
      ints: 1
      ints: 1
      type: INTS
    }
    attribute {
      name: "strides"
      ints: 1
      ints: 1
      type: INTS
    }
  }
  node {
    input: "stage3_unit17_bn3_quantized"
    input: "stage3_unit17_bn3_scale"
    input: "stage3_unit17_bn3_zero_point"
    input: "_plus31_quantized"
    input: "_plus31_scale"
    input: "_plus31_zero_point"
    input: "_plus32_scale"
    input: "_plus32_zero_point"
    output: "_plus32_quantized"
    name: "_plus32_quant"
    op_type: "QLinearAdd"
    domain: "com.microsoft"
  }
  node {
    input: "_plus32_quantized"
    input: "_plus32_scale"
    input: "_plus32_zero_point"
    output: "_plus32"
    name: "_plus32__plus32_DequantizeLinear"
    op_type: "DequantizeLinear"
  }
  node {
    input: "_plus32"
    input: "stage3_unit18_bn1_gamma"
    input: "stage3_unit18_bn1_beta"
    input: "stage3_unit18_bn1_moving_mean"
    input: "stage3_unit18_bn1_moving_var"
    output: "stage3_unit18_bn1"
    name: "stage3_unit18_bn1"
    op_type: "BatchNormalization"
    attribute {
      name: "momentum"
      f: 0.9
      type: FLOAT
    }
    attribute {
      name: "epsilon"
      f: 2e-05
      type: FLOAT
    }
  }
  node {
    input: "stage3_unit18_bn1"
    input: "stage3_unit18_bn1_scale"
    input: "stage3_unit18_bn1_zero_point"
    output: "stage3_unit18_bn1_stage3_unit18_conv1_QuantizeLinear"
    name: "stage3_unit18_bn1_stage3_unit18_conv1_QuantizeLinear"
    op_type: "QuantizeLinear"
  }
  node {
    input: "stage3_unit18_bn1_stage3_unit18_conv1_QuantizeLinear"
    input: "stage3_unit18_bn1_scale"
    input: "stage3_unit18_bn1_zero_point"
    input: "ConvBnFusion_W_stage3_unit18_conv1_weight_quantized"
    input: "ConvBnFusion_W_stage3_unit18_conv1_weight_scale"
    input: "ConvBnFusion_W_stage3_unit18_conv1_weight_zero_point"
    input: "stage3_unit18_bn2_scale"
    input: "stage3_unit18_bn2_zero_point"
    input: "ConvBnFusion_BN_B_stage3_unit18_bn2_beta_quantized"
    output: "stage3_unit18_bn2_quantized"
    name: "stage3_unit18_conv1_quant"
    op_type: "QLinearConv"
    attribute {
      name: "auto_pad"
      s: "NOTSET"
      type: STRING
    }
    attribute {
      name: "dilations"
      ints: 1
      ints: 1
      type: INTS
    }
    attribute {
      name: "group"
      i: 1
      type: INT
    }
    attribute {
      name: "kernel_shape"
      ints: 3
      ints: 3
      type: INTS
    }
    attribute {
      name: "pads"
      ints: 1
      ints: 1
      ints: 1
      ints: 1
      type: INTS
    }
    attribute {
      name: "strides"
      ints: 1
      ints: 1
      type: INTS
    }
  }
  node {
    input: "stage3_unit18_bn2_quantized"
    input: "stage3_unit18_bn2_scale"
    input: "stage3_unit18_bn2_zero_point"
    output: "stage3_unit18_bn2"
    name: "stage3_unit18_bn2_stage3_unit18_conv1_DequantizeLinear"
    op_type: "DequantizeLinear"
  }
  node {
    input: "stage3_unit18_bn2"
    input: "slope773"
    output: "stage3_unit18_relu1"
    name: "stage3_unit18_relu1"
    op_type: "PRelu"
  }
  node {
    input: "stage3_unit18_relu1"
    input: "stage3_unit18_relu1_scale"
    input: "stage3_unit18_relu1_zero_point"
    output: "stage3_unit18_relu1_stage3_unit18_conv2_QuantizeLinear"
    name: "stage3_unit18_relu1_stage3_unit18_conv2_QuantizeLinear"
    op_type: "QuantizeLinear"
  }
  node {
    input: "stage3_unit18_relu1_stage3_unit18_conv2_QuantizeLinear"
    input: "stage3_unit18_relu1_scale"
    input: "stage3_unit18_relu1_zero_point"
    input: "ConvBnFusion_W_stage3_unit18_conv2_weight_quantized"
    input: "ConvBnFusion_W_stage3_unit18_conv2_weight_scale"
    input: "ConvBnFusion_W_stage3_unit18_conv2_weight_zero_point"
    input: "stage3_unit18_bn3_scale"
    input: "stage3_unit18_bn3_zero_point"
    input: "ConvBnFusion_BN_B_stage3_unit18_bn3_beta_quantized"
    output: "stage3_unit18_bn3_quantized"
    name: "stage3_unit18_conv2_quant"
    op_type: "QLinearConv"
    attribute {
      name: "auto_pad"
      s: "NOTSET"
      type: STRING
    }
    attribute {
      name: "dilations"
      ints: 1
      ints: 1
      type: INTS
    }
    attribute {
      name: "group"
      i: 1
      type: INT
…
          }
          dim {
            dim_value: 28
          }
          dim {
            dim_value: 28
          }
        }
      }
    }
  }
  value_info {
    name: "stage2_unit12_relu1"
    type {
      tensor_type {
        elem_type: 1
        shape {
          dim {
            dim_value: 1
          }
          dim {
            dim_value: 128
          }
          dim {
            dim_value: 28
          }
          dim {
            dim_value: 28
          }
        }
      }
    }
  }
  value_info {
    name: "_plus14"
    type {
      tensor_type {
        elem_type: 1
        shape {
          dim {
            dim_value: 1
          }
          dim {
            dim_value: 128
          }
          dim {
            dim_value: 28
          }
          dim {
            dim_value: 28
          }
        }
      }
    }
  }
  value_info {
    name: "stage2_unit13_bn1"
    type {
      tensor_type {
        elem_type: 1
        shape {
          dim {
            dim_value: 1
          }
          dim {
            dim_value: 128
          }
          dim {
            dim_value: 28
          }
          dim {
            dim_value: 28
          }
        }
      }
    }
  }
  value_info {
    name: "stage2_unit13_bn2"
    type {
      tensor_type {
        elem_type: 1
        shape {
          dim {
            dim_value: 1
          }
          dim {
            dim_value: 128
          }
          dim {
            dim_value: 28
          }
          dim {
            dim_value: 28
          }
        }
      }
    }
  }
  value_info {
    name: "stage2_unit13_relu1"
    type {
      tensor_type {
        elem_type: 1
        shape {
          dim {
            dim_value: 1
          }
          dim {
            dim_value: 128
          }
          dim {
            dim_value: 28
          }
          dim {
            dim_value: 28
          }
        }
      }
    }
  }
  value_info {
    name: "_plus15"
    type {
      tensor_type {
        elem_type: 1
        shape {
          dim {
            dim_value: 1
          }
          dim {
            dim_value: 128
          }
          dim {
            dim_value: 28
          }
          dim {
            dim_value: 28
          }
        }
      }
    }
  }
  value_info {
    name: "stage3_unit1_bn1"
    type {
      tensor_type {
        elem_type: 1
        shape {
          dim {
            dim_value: 1
          }
          dim {
            dim_value: 128
          }
          dim {
            dim_value: 28
          }
          dim {
            dim_value: 28
          }
        }
      }
    }
  }
  value_info {
    name: "stage3_unit1_bn2"
    type {
      tensor_type {
        elem_type: 1
        shape {
          dim {
            dim_value: 1
          }
          dim {
            dim_value: 256
          }
          dim {
            dim_value: 28
          }
          dim {
            dim_value: 28
          }
        }
      }
    }
  }
  value_info {
    name: "stage3_unit1_relu1"
    type {
      tensor_type {
        elem_type: 1
        shape {
          dim {
            dim_value: 1
          }
          dim {
            dim_value: 256
          }
          dim {
            dim_value: 28
          }
          dim {
            dim_value: 28
          }
        }
      }
    }
  }
  value_info {
    name: "_plus16"
    type {
      tensor_type {
        elem_type: 1
        shape {
          dim {
            dim_value: 1
          }
          dim {
            dim_value: 256
          }
          dim {
            dim_value: 14
          }
          dim {
            dim_value: 14
          }
        }
      }
    }
  }
  value_info {
    name: "stage3_unit2_bn1"
    type {
      tensor_type {
        elem_type: 1
        shape {
          dim {
            dim_value: 1
          }
          dim {
            dim_value: 256
          }
          dim {
            dim_value: 14
          }
          dim {
            dim_value: 14
          }
        }
      }
    }
  }
  value_info {
    name: "stage3_unit2_bn2"
    type {
      tensor_type {
        elem_type: 1
        shape {
          dim {
            dim_value: 1
          }
          dim {
            dim_value: 256
          }
          dim {
            dim_value: 14
          }
          dim {
            dim_value: 14
          }
        }
      }
    }
  }
  value_info {
    name: "stage3_unit2_relu1"
    type {
      tensor_type {
        elem_type: 1
        shape {
          dim {
            dim_value: 1
          }
          dim {
            dim_value: 256
          }
          dim {
            dim_value: 14
          }
          dim {
            dim_value: 14
          }
        }
      }
    }
  }
  value_info {
    name: "_plus17"
    type {
      tensor_type {
        elem_type: 1
        shape {
          dim {
            dim_value: 1
          }
          dim {
            dim_value: 256
          }
          dim {
            dim_value: 14
          }
          dim {
            dim_value: 14
          }
        }
      }
    }
  }
  value_info {
    name: "stage3_unit3_bn1"
    type {
      tensor_type {
        elem_type: 1
        shape {
          dim {
            dim_value: 1
          }
          dim {
            dim_value: 256
          }
          dim {
            dim_value: 14
          }
          dim {
            dim_value: 14
          }
        }
      }
    }
  }
  value_info {
    name: "stage3_unit3_bn2"
    type {
      tensor_type {
        elem_type: 1
        shape {
          dim {
            dim_value: 1
          }
          dim {
            dim_value: 256
          }
          dim {
            dim_value: 14
          }
          dim {
            dim_value: 14
          }
        }
      }
    }
  }
  value_info {
    name: "stage3_unit3_relu1"
    type {
      tensor_type {
        elem_type: 1
        shape {
          dim {
            dim_value: 1
          }
          dim {
            dim_value: 256
          }
          dim {
            dim_value: 14
          }
          dim {
            dim_value: 14
          }
        }
      }
    }
  }
  value_info {
    name: "_plus18"
    type {
      tensor_type {
        elem_type: 1
        shape {
          dim {
            dim_value: 1
          }
          dim {
            dim_value: 256
          }
          dim {
            dim_value: 14
          }
          dim {
            dim_value: 14
          }
        }
      }
    }
  }
  value_info {
    name: "stage3_unit4_bn1"
    type {
      tensor_type {
        elem_type: 1
        shape {
          dim {
            dim_value: 1
          }
          dim {
            dim_value: 256
          }
          dim {
            dim_value: 14
          }
          dim {
            dim_value: 14
          }
        }
      }
    }
  }
  value_info {
    name: "stage3_unit4_bn2"
    type {
      tensor_type {
        elem_type: 1
        shape {
          dim {
            dim_value: 1
          }
          dim {
            dim_value: 256
          }
          dim {
            dim_value: 14
          }
          dim {
            dim_value: 14
          }
        }
      }
    }
  }
  value_info {
    name: "stage3_unit4_relu1"
    type {
      tensor_type {
        elem_type: 1
        shape {
          dim {
            dim_value: 1
          }
          dim {
            dim_value: 256
          }
          dim {
            dim_value: 14
          }
          dim {
            dim_value: 14
          }
        }
      }
    }
  }
  value_info {
    name: "_plus19"
    type {
      tensor_type {
        elem_type: 1
        shape {
          dim {
            dim_value: 1
          }
          dim {
            dim_value: 256
          }
          dim {
            dim_value: 14
          }
          dim {
            dim_value: 14
          }
        }
      }
    }
  }
  value_info {
    name: "stage3_unit5_bn1"
    type {
      tensor_type {
        elem_type: 1
        shape {
          dim {
            dim_value: 1
          }
          dim {
            dim_value: 256
          }
          dim {
            dim_value: 14
          }
          dim {
            dim_value: 14
          }
        }
      }
    }
  }
  value_info {
    name: "stage3_unit5_bn2"
    type {
      tensor_type {
        elem_type: 1
        shape {
          dim {
            dim_value: 1
          }
          dim {
            dim_value: 256
          }
          dim {
            dim_value: 14
          }
          dim {
            dim_value: 14
          }
        }
      }
    }
  }
  value_info {
    name: "stage3_unit5_relu1"
    type {
      tensor_type {
        elem_type: 1
        shape {
          dim {
            dim_value: 1
          }
          dim {
            dim_value: 256
          }
          dim {
            dim_value: 14
          }
          dim {
            dim_value: 14
          }
        }
      }
    }
  }
  value_info {
    name: "_plus20"
    type {
      tensor_type {
        elem_type: 1
        shape {
          dim {
            dim_value: 1
          }
          dim {
            dim_value: 256
          }
          dim {
            dim_value: 14
          }
          dim {
            dim_value: 14
          }
        }
      }
    }
  }
  value_info {
    name: "stage3_unit6_bn1"
    type {
      tensor_type {
        elem_type: 1
        shape {
          dim {
            dim_value: 1
          }
          dim {
            dim_value: 256
          }
          dim {
            dim_value: 14
          }
          dim {
            dim_value: 14
          }
        }
      }
    }
  }
  value_info {
    name: "stage3_unit6_bn2"
    type {
      tensor_type {
        elem_type: 1
        shape {
          dim {
            dim_value: 1
          }
          dim {
            dim_value: 256
          }
          dim {
            dim_value: 14
          }
          dim {
            dim_value: 14
          }
        }
      }
    }
  }
  value_info {
    name: "stage3_unit6_relu1"
    type {
      tensor_type {
        elem_type: 1
        shape {
          dim {
            dim_value: 1
          }
          dim {
            dim_value: 256
          }
          dim {
            dim_value: 14
          }
          dim {
            dim_value: 14
          }
        }
      }
    }
  }
  value_info {
    name: "_plus21"
    type {
      tensor_type {
        elem_type: 1
        shape {
          dim {
            dim_value: 1
          }
          dim {
            dim_value: 256
          }
          dim {
            dim_value: 14
          }
          dim {
            dim_value: 14
          }
        }
      }
    }
  }
  value_info {
    name: "stage3_unit7_bn1"
    type {
      tensor_type {
        elem_type: 1
        shape {
          dim {
            dim_value: 1
          }
          dim {
            dim_value: 256
          }
          dim {
            dim_value: 14
          }
          dim {
            dim_value: 14
          }
        }
      }
    }
  }
  value_info {
    name: "stage3_unit7_bn2"
    type {
      tensor_type {
        elem_type: 1
        shape {
          dim {
            dim_value: 1
          }
          dim {
            dim_value: 256
          }
          dim {
            dim_value: 14
          }
          dim {
            dim_value: 14
          }
        }
      }
    }
  }
  value_info {
    name: "stage3_unit7_relu1"
    type {
      tensor_type {
        elem_type: 1
        shape {
          dim {
            dim_value: 1
          }
          dim {
            dim_value: 256
          }
          dim {
            dim_value: 14
          }
          dim {
            dim_value: 14
          }
        }
      }
    }
  }
  value_info {
    name: "_plus22"
    type {
      tensor_type {
        elem_type: 1
        shape {
          dim {
            dim_value: 1
          }
          dim {
            dim_value: 256
          }
          dim {
            dim_value: 14
          }
          dim {
            dim_value: 14
          }
        }
      }
    }
  }
  value_info {
    name: "stage3_unit8_bn1"
    type {
      tensor_type {
        elem_type: 1
        shape {
          dim {
            dim_value: 1
          }
          dim {
            dim_value: 256
          }
          dim {
            dim_value: 14
          }
          dim {
            dim_value: 14
          }
        }
      }
    }
  }
  value_info {
    name: "stage3_unit8_bn2"
    type {
      tensor_type {
        elem_type: 1
        shape {
          dim {
            dim_value: 1
          }
          dim {
            dim_value: 256
          }
          dim {
            dim_value: 14
          }
          dim {
            dim_value: 14
          }
        }
      }
    }
  }
  value_info {
    name: "stage3_unit8_relu1"
    type {
      tensor_type {
        elem_type: 1
        shape {
          dim {
            dim_value: 1
          }
          dim {
            dim_value: 256
          }
          dim {
            dim_value: 14
          }
          dim {
            dim_value: 14
          }
        }
      }
    }
  }
  value_info {
    name: "_plus23"
    type {
      tensor_type {
        elem_type: 1
        shape {
          dim {
            dim_value: 1
          }
          dim {
            dim_value: 256
          }
          dim {
            dim_value: 14
          }
          dim {
            dim_value: 14
          }
        }
      }
    }
  }
  value_info {
    name: "stage3_unit9_bn1"
    type {
      tensor_type {
        elem_type: 1
        shape {
          dim {
            dim_value: 1
          }
          dim {
            dim_value: 256
          }
          dim {
            dim_value: 14
          }
          dim {
            dim_value: 14
          }
        }
      }
    }
  }
  value_info {
    name: "stage3_unit9_bn2"
    type {
      tensor_type {
        elem_type: 1
        shape {
          dim {
            dim_value: 1
          }
          dim {
            dim_value: 256
          }
          dim {
            dim_value: 14
          }
          dim {
            dim_value: 14
          }
        }
      }
    }
  }
  value_info {
    name: "stage3_unit9_relu1"
    type {
      tensor_type {
        elem_type: 1
        shape {
          dim {
            dim_value: 1
          }
          dim {
            dim_value: 256
          }
          dim {
            dim_value: 14
          }
          dim {
            dim_value: 14
          }
        }
      }
    }
  }
  value_info {
    name: "_plus24"
    type {
      tensor_type {
        elem_type: 1
        shape {
          dim {
            dim_value: 1
          }
          dim {
            dim_value: 256
          }
          dim {
            dim_value: 14
          }
          dim {
            dim_value: 14
          }
        }
      }
    }
  }
  value_info {
    name: "stage3_unit10_bn1"
    type {
      tensor_type {
        elem_type: 1
        shape {
          dim {
            dim_value: 1
          }
          dim {
            dim_value: 256
          }
          dim {
            dim_value: 14
          }
          dim {
            dim_value: 14
          }
        }
      }
    }
  }
  value_info {
    name: "stage3_unit10_bn2"
    type {
      tensor_type {
        elem_type: 1
        shape {
          dim {
            dim_value: 1
          }
          dim {
            dim_value: 256
          }
          dim {
            dim_value: 14
          }
          dim {
            dim_value: 14
          }
        }
      }
    }
  }
  value_info {
    name: "stage3_unit10_relu1"
    type {
      tensor_type {
        elem_type: 1
        shape {
          dim {
            dim_value: 1
          }
          dim {
            dim_value: 256
          }
          dim {
            dim_value: 14
          }
          dim {
            dim_value: 14
          }
        }
      }
    }
  }
  value_info {
    name: "_plus25"
    type {
      tensor_type {
        elem_type: 1
        shape {
          dim {
            dim_value: 1
          }
          dim {
            dim_value: 256
          }
          dim {
            dim_value: 14
          }
          dim {
            dim_value: 14
          }
        }
      }
    }
  }
  value_info {
    name: "stage3_unit11_bn1"
    type {
      tensor_type {
        elem_type: 1
        shape {
          dim {
            dim_value: 1
          }
          dim {
            dim_value: 256
          }
          dim {
            dim_value: 14
          }
          dim {
            dim_value: 14
          }
        }
      }
    }
  }
  value_info {
    name: "stage3_unit11_bn2"
    type {
      tensor_type {
        elem_type: 1
        shape {
          dim {
            dim_value: 1
          }
          dim {
            dim_value: 256
          }
          dim {
            dim_value: 14
          }
          dim {
            dim_value: 14
          }
        }
      }
    }
  }
  value_info {
    name: "stage3_unit11_relu1"
    type {
      tensor_type {
        elem_type: 1
        shape {
          dim {
            dim_value: 1
          }
          dim {
            dim_value: 256
          }
          dim {
            dim_value: 14
          }
          dim {
            dim_value: 14
          }
        }
      }
    }
  }
  value_info {
    name: "_plus26"
    type {
      tensor_type {
        elem_type: 1
        shape {
          dim {
            dim_value: 1
          }
          dim {
            dim_value: 256
          }
          dim {
            dim_value: 14
          }
          dim {
            dim_value: 14
          }
        }
      }
    }
  }
  value_info {
    name: "stage3_unit12_bn1"
    type {
      tensor_type {
        elem_type: 1
        shape {
          dim {
            dim_value: 1
          }
          dim {
            dim_value: 256
          }
          dim {
            dim_value: 14
          }
          dim {
            dim_value: 14
          }
        }
      }
    }
  }
  value_info {
    name: "stage3_unit12_bn2"
    type {
      tensor_type {
        elem_type: 1
        shape {
          dim {
            dim_value: 1
          }
          dim {
            dim_value: 256
          }
          dim {
            dim_value: 14
          }
          dim {
            dim_value: 14
          }
        }
      }
    }
  }
  value_info {
    name: "stage3_unit12_relu1"
    type {
      tensor_type {
        elem_type: 1
        shape {
          dim {
            dim_value: 1
          }
          dim {
            dim_value: 256
          }
          dim {
            dim_value: 14
          }
          dim {
            dim_value: 14
          }
        }
      }
    }
  }
  value_info {
    name: "_plus27"
    type {
      tensor_type {
        elem_type: 1
        shape {
          dim {
            dim_value: 1
          }
          dim {
            dim_value: 256
          }
          dim {
            dim_value: 14
          }
          dim {
            dim_value: 14
          }
        }
      }
    }
  }
  value_info {
    name: "stage3_unit13_bn1"
    type {
      tensor_type {
        elem_type: 1
        shape {
          dim {
            dim_value: 1
          }
          dim {
            dim_value: 256
          }
          dim {
            dim_value: 14
          }
          dim {
            dim_value: 14
          }
        }
      }
    }
  }
  value_info {
    name: "stage3_unit13_bn2"
    type {
      tensor_type {
        elem_type: 1
        shape {
          dim {
            dim_value: 1
          }
          dim {
            dim_value: 256
          }
          dim {
            dim_value: 14
          }
          dim {
            dim_value: 14
          }
        }
      }
    }
  }
  value_info {
    name: "stage3_unit13_relu1"
    type {
      tensor_type {
        elem_type: 1
        shape {
          dim {
            dim_value: 1
          }
          dim {
            dim_value: 256
          }
          dim {
            dim_value: 14
          }
          dim {
            dim_value: 14
          }
        }
      }
    }
  }
  value_info {
    name: "_plus28"
    type {
      tensor_type {
        elem_type: 1
        shape {
          dim {
            dim_value: 1
          }
          dim {
            dim_value: 256
          }
          dim {
            dim_value: 14
          }
          dim {
            dim_value: 14
          }
        }
      }
    }
  }
  value_info {
    name: "stage3_unit14_bn1"
    type {
      tensor_type {
        elem_type: 1
        shape {
          dim {
            dim_value: 1
          }
          dim {
            dim_value: 256
          }
          dim {
            dim_value: 14
          }
          dim {
            dim_value: 14
          }
        }
      }
    }
  }
  value_info {
    name: "stage3_unit14_bn2"
    type {
      tensor_type {
        elem_type: 1
        shape {
          dim {
            dim_value: 1
          }
          dim {
            dim_value: 256
          }
          dim {
            dim_value: 14
          }
          dim {
            dim_value: 14
          }
        }
      }
    }
  }
  value_info {
    name: "stage3_unit14_relu1"
    type {
      tensor_type {
        elem_type: 1
        shape {
          dim {
            dim_value: 1
          }
          dim {
            dim_value: 256
          }
          dim {
            dim_value: 14
          }
          dim {
            dim_value: 14
          }
        }
      }
    }
  }
  value_info {
    name: "_plus29"
    type {
      tensor_type {
        elem_type: 1
        shape {
          dim {
            dim_value: 1
          }
          dim {
            dim_value: 256
          }
          dim {
            dim_value: 14
          }
          dim {
            dim_value: 14
          }
        }
      }
    }
  }
  value_info {
    name: "stage3_unit15_bn1"
    type {
      tensor_type {
        elem_type: 1
        shape {
          dim {
            dim_value: 1
          }
          dim {
            dim_value: 256
          }
          dim {
            dim_value: 14
          }
          dim {
            dim_value: 14
          }
        }
      }
    }
  }
  value_info {
    name: "stage3_unit15_bn2"
    type {
      tensor_type {
        elem_type: 1
        shape {
          dim {
            dim_value: 1
          }
          dim {
            dim_value: 256
          }
          dim {
            dim_value: 14
          }
          dim {
            dim_value: 14
          }
        }
      }
    }
  }
  value_info {
    name: "stage3_unit15_relu1"
    type {
      tensor_type {
        elem_type: 1
        shape {
          dim {
            dim_value: 1
          }
          dim {
            dim_value: 256
          }
          dim {
            dim_value: 14
          }
          dim {
            dim_value: 14
          }
        }
      }
    }
  }
  value_info {
    name: "_plus30"
    type {
      tensor_type {
        elem_type: 1
        shape {
          dim {
            dim_value: 1
          }
          dim {
            dim_value: 256
          }
          dim {
            dim_value: 14
          }
          dim {
            dim_value: 14
          }
        }
      }
    }
  }
  value_info {
    name: "stage3_unit16_bn1"
    type {
      tensor_type {
        elem_type: 1
        shape {
          dim {
            dim_value: 1
          }
          dim {
            dim_value: 256
          }
          dim {
            dim_value: 14
          }
          dim {
            dim_value: 14
          }
        }
      }
    }
  }
  value_info {
    name: "stage3_unit16_bn2"
    type {
      tensor_type {
        elem_type: 1
        shape {
          dim {
            dim_value: 1
          }
          dim {
            dim_value: 256
          }
          dim {
            dim_value: 14
          }
          dim {
            dim_value: 14
          }
        }
      }
    }
  }
  value_info {
    name: "stage3_unit16_relu1"
    type {
      tensor_type {
        elem_type: 1
        shape {
          dim {
            dim_value: 1
          }
          dim {
            dim_value: 256
          }
          dim {
            dim_value: 14
          }
          dim {
            dim_value: 14
          }
        }
      }
    }
  }
  value_info {
    name: "_plus31"
    type {
      tensor_type {
        elem_type: 1
        shape {
          dim {
            dim_value: 1
          }
          dim {
            dim_value: 256
          }
          dim {
            dim_value: 14
          }
          dim {
            dim_value: 14
          }
        }
      }
    }
  }
  value_info {
    name: "stage3_unit17_bn1"
    type {
      tensor_type {
        elem_type: 1
        shape {
          dim {
            dim_value: 1
          }
          dim {
            dim_value: 256
          }
          dim {
            dim_value: 14
          }
          dim {
            dim_value: 14
          }
        }
      }
    }
  }
  value_info {
    name: "stage3_unit17_bn2"
    type {
      tensor_type {
        elem_type: 1
        shape {
          dim {
            dim_value: 1
          }
          dim {
            dim_value: 256
          }
          dim {
            dim_value: 14
          }
          dim {
            dim_value: 14
          }
        }
      }
    }
  }
  value_info {
    name: "stage3_unit17_relu1"
    type {
      tensor_type {
        elem_type: 1
        shape {
          dim {
            dim_value: 1
          }
          dim {
            dim_value: 256
          }
          dim {
            dim_value: 14
          }
          dim {
            dim_value: 14
          }
        }
      }
    }
  }
  value_info {
    name: "_plus32"
    type {
      tensor_type {
        elem_type: 1
        shape {
          dim {
            dim_value: 1
          }
          dim {
            dim_value: 256
          }
          dim {
            dim_value: 14
          }
          dim {
            dim_value: 14
          }
        }
      }
    }
  }
  value_info {
    name: "stage3_unit18_bn1"
    type {
      tensor_type {
        elem_type: 1
        shape {
          dim {
            dim_value: 1
          }
          dim {
            dim_value: 256
          }
          dim {
            dim_value: 14
          }
          dim {
            dim_value: 14
          }
        }
      }
    }
  }
  value_info {
    name: "stage3_unit18_bn2"
    type {
      tensor_type {
        elem_type: 1
        shape {
          dim {
            dim_value: 1
          }
          dim {
            dim_value: 256
          }
          dim {
            dim_value: 14
          }
          dim {
            dim_value: 14
          }
        }
      }
    }
  }
  value_info {
    name: "stage3_unit18_relu1"
    type {
      tensor_type {
        elem_type: 1
        shape {
          dim {
            dim_value: 1
          }
          dim {
            dim_value: 256
          }
          dim {
            dim_value: 14
          }
          dim {
            dim_value: 14
          }
        }
      }
    }
  }
  value_info {
    name: "_plus33"
    type {
      tensor_type {
        elem_type: 1
        shape {
          dim {
            dim_value: 1
          }
          dim {
            dim_value: 256
          }
          dim {
            dim_value: 14
          }
          dim {
            dim_value: 14
          }
        }
      }
    }
  }
  value_info {
    name: "stage3_unit19_bn1"
    type {
      tensor_type {
        elem_type: 1
        shape {
          dim {
            dim_value: 1
          }
          dim {
            dim_value: 256
          }
          dim {
            dim_value: 14
          }
          dim {
            dim_value: 14
          }
        }
      }
    }
  }
  value_info {
    name: "stage3_unit19_bn2"
    type {
      tensor_type {
        elem_type: 1
        shape {
          dim {
            dim_value: 1
          }
          dim {
            dim_value: 256
          }
          dim {
            dim_value: 14
          }
          dim {
            dim_value: 14
          }
        }
      }
    }
  }
  value_info {
    name: "stage3_unit19_relu1"
    type {
      tensor_type {
        elem_type: 1
        shape {
          dim {
            dim_value: 1
          }
          dim {
            dim_value: 256
          }
          dim {
            dim_value: 14
          }
          dim {
            dim_value: 14
          }
        }
      }
    }
  }
  value_info {
    name: "_plus34"
    type {
      tensor_type {
        elem_type: 1
        shape {
          dim {
            dim_value: 1
          }
          dim {
            dim_value: 256
          }
          dim {
            dim_value: 14
          }
          dim {
            dim_value: 14
          }
        }
      }
    }
  }
  value_info {
    name: "stage3_unit20_bn1"
    type {
      tensor_type {
        elem_type: 1
        shape {
          dim {
            dim_value: 1
          }
          dim {
            dim_value: 256
          }
          dim {
            dim_value: 14
          }
          dim {
            dim_value: 14
          }
        }
      }
    }
  }
  value_info {
    name: "stage3_unit20_bn2"
    type {
      tensor_type {
        elem_type: 1
        shape {
          dim {
            dim_value: 1
          }
          dim {
            dim_value: 256
          }
          dim {
            dim_value: 14
          }
          dim {
            dim_value: 14
          }
        }
      }
    }
  }
  value_info {
    name: "stage3_unit20_relu1"
    type {
      tensor_type {
        elem_type: 1
        shape {
          dim {
            dim_value: 1
          }
          dim {
            dim_value: 256
          }
          dim {
            dim_value: 14
          }
          dim {
            dim_value: 14
          }
        }
      }
    }
  }
  value_info {
    name: "_plus35"
    type {
      tensor_type {
        elem_type: 1
        shape {
          dim {
            dim_value: 1
          }
          dim {
            dim_value: 256
          }
          dim {
            dim_value: 14
          }
          dim {
            dim_value: 14
          }
        }
      }
    }
  }
  value_info {
    name: "stage3_unit21_bn1"
    type {
      tensor_type {
        elem_type: 1
        shape {
          dim {
            dim_value: 1
          }
          dim {
            dim_value: 256
          }
          dim {
            dim_value: 14
          }
          dim {
            dim_value: 14
          }
        }
      }
    }
  }
  value_info {
    name: "stage3_unit21_bn2"
    type {
      tensor_type {
        elem_type: 1
        shape {
          dim {
            dim_value: 1
          }
          dim {
            dim_value: 256
          }
          dim {
            dim_value: 14
          }
          dim {
            dim_value: 14
          }
        }
      }
    }
  }
  value_info {
    name: "stage3_unit21_relu1"
    type {
      tensor_type {
        elem_type: 1
        shape {
          dim {
            dim_value: 1
          }
          dim {
            dim_value: 256
          }
          dim {
            dim_value: 14
          }
          dim {
            dim_value: 14
          }
        }
      }
    }
  }
  value_info {
    name: "_plus36"
    type {
      tensor_type {
        elem_type: 1
        shape {
          dim {
            dim_value: 1
          }
          dim {
            dim_value: 256
          }
          dim {
            dim_value: 14
          }
          dim {
            dim_value: 14
          }
        }
      }
    }
  }
  value_info {
    name: "stage3_unit22_bn1"
    type {
      tensor_type {
        elem_type: 1
        shape {
          dim {
            dim_value: 1
          }
          dim {
            dim_value: 256
          }
          dim {
            dim_value: 14
          }
          dim {
            dim_value: 14
          }
        }
      }
    }
  }
  value_info {
    name: "stage3_unit22_bn2"
    type {
      tensor_type {
        elem_type: 1
        shape {
          dim {
            dim_value: 1
          }
          dim {
            dim_value: 256
          }
          dim {
            dim_value: 14
          }
          dim {
            dim_value: 14
          }
        }
      }
    }
  }
  value_info {
    name: "stage3_unit22_relu1"
    type {
      tensor_type {
        elem_type: 1
        shape {
          dim {
            dim_value: 1
          }
          dim {
            dim_value: 256
          }
          dim {
            dim_value: 14
          }
          dim {
            dim_value: 14
          }
        }
      }
    }
  }
  value_info {
    name: "_plus37"
    type {
      tensor_type {
        elem_type: 1
        shape {
          dim {
            dim_value: 1
          }
          dim {
            dim_value: 256
          }
          dim {
            dim_value: 14
          }
          dim {
            dim_value: 14
          }
        }
      }
    }
  }
  value_info {
    name: "stage3_unit23_bn1"
    type {
      tensor_type {
        elem_type: 1
        shape {
          dim {
            dim_value: 1
          }
          dim {
            dim_value: 256
          }
          dim {
            dim_value: 14
          }
          dim {
            dim_value: 14
          }
        }
      }
    }
  }
  value_info {
    name: "stage3_unit23_bn2"
    type {
      tensor_type {
        elem_type: 1
        shape {
          dim {
            dim_value: 1
          }
          dim {
            dim_value: 256
          }
          dim {
            dim_value: 14
          }
          dim {
            dim_value: 14
          }
        }
      }
    }
  }
  value_info {
    name: "stage3_unit23_relu1"
    type {
      tensor_type {
        elem_type: 1
        shape {
          dim {
            dim_value: 1
          }
          dim {
            dim_value: 256
          }
          dim {
            dim_value: 14
          }
          dim {
            dim_value: 14
          }
        }
      }
    }
  }
  value_info {
    name: "_plus38"
    type {
      tensor_type {
        elem_type: 1
        shape {
          dim {
            dim_value: 1
          }
          dim {
            dim_value: 256
          }
          dim {
            dim_value: 14
          }
          dim {
            dim_value: 14
          }
        }
      }
    }
  }
  value_info {
    name: "stage3_unit24_bn1"
    type {
      tensor_type {
        elem_type: 1
        shape {
          dim {
            dim_value: 1
          }
          dim {
            dim_value: 256
          }
          dim {
            dim_value: 14
          }
          dim {
            dim_value: 14
          }
        }
      }
    }
  }
  value_info {
    name: "stage3_unit24_bn2"
    type {
      tensor_type {
        elem_type: 1
        shape {
          dim {
            dim_value: 1
          }
          dim {
            dim_value: 256
          }
          dim {
            dim_value: 14
          }
          dim {
            dim_value: 14
          }
        }
      }
    }
  }
  value_info {
    name: "stage3_unit24_relu1"
    type {
      tensor_type {
        elem_type: 1
        shape {
          dim {
            dim_value: 1
          }
          dim {
            dim_value: 256
          }
          dim {
            dim_value: 14
          }
          dim {
            dim_value: 14
          }
        }
      }
    }
  }
  value_info {
    name: "_plus39"
    type {
      tensor_type {
        elem_type: 1
        shape {
          dim {
            dim_value: 1
          }
          dim {
            dim_value: 256
          }
          dim {
            dim_value: 14
          }
          dim {
            dim_value: 14
          }
        }
      }
    }
  }
  value_info {
    name: "stage3_unit25_bn1"
    type {
      tensor_type {
        elem_type: 1
        shape {
          dim {
            dim_value: 1
          }
          dim {
            dim_value: 256
          }
          dim {
            dim_value: 14
          }
          dim {
            dim_value: 14
          }
        }
      }
    }
  }
  value_info {
    name: "stage3_unit25_bn2"
    type {
      tensor_type {
        elem_type: 1
        shape {
          dim {
            dim_value: 1
          }
          dim {
            dim_value: 256
          }
          dim {
            dim_value: 14
          }
          dim {
            dim_value: 14
          }
        }
      }
    }
  }
  value_info {
    name: "stage3_unit25_relu1"
    type {
      tensor_type {
        elem_type: 1
        shape {
          dim {
            dim_value: 1
          }
          dim {
            dim_value: 256
          }
          dim {
            dim_value: 14
          }
          dim {
            dim_value: 14
          }
        }
      }
    }
  }
  value_info {
    name: "_plus40"
    type {
      tensor_type {
        elem_type: 1
        shape {
          dim {
            dim_value: 1
          }
          dim {
            dim_value: 256
          }
          dim {
            dim_value: 14
          }
          dim {
            dim_value: 14
          }
        }
      }
    }
  }
  value_info {
    name: "stage3_unit26_bn1"
    type {
      tensor_type {
        elem_type: 1
        shape {
          dim {
            dim_value: 1
          }
          dim {
            dim_value: 256
          }
          dim {
            dim_value: 14
          }
          dim {
            dim_value: 14
          }
        }
      }
    }
  }
  value_info {
    name: "stage3_unit26_bn2"
    type {
      tensor_type {
        elem_type: 1
        shape {
          dim {
            dim_value: 1
          }
          dim {
            dim_value: 256
          }
          dim {
            dim_value: 14
          }
          dim {
            dim_value: 14
          }
        }
      }
    }
  }
  value_info {
    name: "stage3_unit26_relu1"
    type {
      tensor_type {
        elem_type: 1
        shape {
          dim {
            dim_value: 1
          }
          dim {
            dim_value: 256
          }
          dim {
            dim_value: 14
          }
          dim {
            dim_value: 14
          }
        }
      }
    }
  }
  value_info {
    name: "_plus41"
    type {
      tensor_type {
        elem_type: 1
        shape {
          dim {
            dim_value: 1
          }
          dim {
            dim_value: 256
          }
          dim {
            dim_value: 14
          }
          dim {
            dim_value: 14
          }
        }
      }
    }
  }
  value_info {
    name: "stage3_unit27_bn1"
    type {
      tensor_type {
        elem_type: 1
        shape {
          dim {
            dim_value: 1
          }
          dim {
            dim_value: 256
          }
          dim {
            dim_value: 14
          }
          dim {
            dim_value: 14
          }
        }
      }
    }
  }
  value_info {
    name: "stage3_unit27_bn2"
    type {
      tensor_type {
        elem_type: 1
        shape {
          dim {
            dim_value: 1
          }
          dim {
            dim_value: 256
          }
          dim {
            dim_value: 14
          }
          dim {
            dim_value: 14
          }
        }
      }
    }
  }
  value_info {
    name: "stage3_unit27_relu1"
    type {
      tensor_type {
        elem_type: 1
        shape {
          dim {
            dim_value: 1
          }
          dim {
            dim_value: 256
          }
          dim {
            dim_value: 14
          }
          dim {
            dim_value: 14
          }
        }
      }
    }
  }
  value_info {
    name: "_plus42"
    type {
      tensor_type {
        elem_type: 1
        shape {
          dim {
            dim_value: 1
          }
          dim {
            dim_value: 256
          }
          dim {
            dim_value: 14
          }
          dim {
            dim_value: 14
          }
        }
      }
    }
  }
  value_info {
    name: "stage3_unit28_bn1"
    type {
      tensor_type {
        elem_type: 1
        shape {
          dim {
            dim_value: 1
          }
          dim {
            dim_value: 256
          }
          dim {
            dim_value: 14
          }
          dim {
            dim_value: 14
          }
        }
      }
    }
  }
  value_info {
    name: "stage3_unit28_bn2"
    type {
      tensor_type {
        elem_type: 1
        shape {
          dim {
            dim_value: 1
          }
          dim {
            dim_value: 256
          }
          dim {
            dim_value: 14
          }
          dim {
            dim_value: 14
          }
        }
      }
    }
  }
  value_info {
    name: "stage3_unit28_relu1"
    type {
      tensor_type {
        elem_type: 1
        shape {
          dim {
            dim_value: 1
          }
          dim {
            dim_value: 256
          }
          dim {
            dim_value: 14
          }
          dim {
            dim_value: 14
          }
        }
      }
    }
  }
  value_info {
    name: "_plus43"
    type {
      tensor_type {
        elem_type: 1
        shape {
          dim {
            dim_value: 1
          }
          dim {
            dim_value: 256
          }
          dim {
            dim_value: 14
          }
          dim {
            dim_value: 14
          }
        }
      }
    }
  }
  value_info {
    name: "stage3_unit29_bn1"
    type {
      tensor_type {
        elem_type: 1
        shape {
          dim {
            dim_value: 1
          }
          dim {
            dim_value: 256
          }
          dim {
            dim_value: 14
          }
          dim {
            dim_value: 14
          }
        }
      }
    }
  }
  value_info {
    name: "stage3_unit29_bn2"
    type {
      tensor_type {
        elem_type: 1
        shape {
          dim {
            dim_value: 1
          }
          dim {
            dim_value: 256
          }
          dim {
            dim_value: 14
          }
          dim {
            dim_value: 14
          }
        }
      }
    }
  }
  value_info {
    name: "stage3_unit29_relu1"
    type {
      tensor_type {
        elem_type: 1
        shape {
          dim {
            dim_value: 1
          }
          dim {
            dim_value: 256
          }
          dim {
            dim_value: 14
          }
          dim {
            dim_value: 14
          }
        }
      }
    }
  }
  value_info {
    name: "_plus44"
    type {
      tensor_type {
        elem_type: 1
        shape {
          dim {
            dim_value: 1
          }
          dim {
            dim_value: 256
          }
          dim {
            dim_value: 14
          }
          dim {
            dim_value: 14
          }
        }
      }
    }
  }
  value_info {
    name: "stage3_unit30_bn1"
    type {
      tensor_type {
        elem_type: 1
        shape {
          dim {
            dim_value: 1
          }
          dim {
            dim_value: 256
          }
          dim {
            dim_value: 14
          }
          dim {
            dim_value: 14
          }
        }
      }
    }
  }
  value_info {
    name: "stage3_unit30_bn2"
    type {
      tensor_type {
        elem_type: 1
        shape {
          dim {
            dim_value: 1
          }
          dim {
            dim_value: 256
          }
          dim {
            dim_value: 14
          }
          dim {
            dim_value: 14
          }
        }
      }
    }
  }
  value_info {
    name: "stage3_unit30_relu1"
    type {
      tensor_type {
        elem_type: 1
        shape {
          dim {
            dim_value: 1
          }
          dim {
            dim_value: 256
          }
          dim {
            dim_value: 14
          }
          dim {
            dim_value: 14
          }
        }
      }
    }
  }
  value_info {
    name: "_plus45"
    type {
      tensor_type {
        elem_type: 1
        shape {
          dim {
            dim_value: 1
          }
          dim {
            dim_value: 256
          }
          dim {
            dim_value: 14
          }
          dim {
            dim_value: 14
          }
        }
      }
    }
  }
  value_info {
    name: "stage4_unit1_bn1"
    type {
      tensor_type {
        elem_type: 1
        shape {
          dim {
            dim_value: 1
          }
          dim {
            dim_value: 256
          }
          dim {
            dim_value: 14
          }
          dim {
            dim_value: 14
          }
        }
      }
    }
  }
  value_info {
    name: "stage4_unit1_bn2"
    type {
      tensor_type {
        elem_type: 1
        shape {
          dim {
            dim_value: 1
          }
          dim {
            dim_value: 512
          }
          dim {
            dim_value: 14
          }
          dim {
            dim_value: 14
          }
        }
      }
    }
  }
  value_info {
    name: "stage4_unit1_relu1"
    type {
      tensor_type {
        elem_type: 1
        shape {
          dim {
            dim_value: 1
          }
          dim {
            dim_value: 512
          }
          dim {
            dim_value: 14
          }
          dim {
            dim_value: 14
          }
        }
      }
    }
  }
  value_info {
    name: "_plus46"
    type {
      tensor_type {
        elem_type: 1
        shape {
          dim {
            dim_value: 1
          }
          dim {
            dim_value: 512
          }
          dim {
            dim_value: 7
          }
          dim {
            dim_value: 7
          }
        }
      }
    }
  }
  value_info {
    name: "stage4_unit2_bn1"
    type {
      tensor_type {
        elem_type: 1
        shape {
          dim {
            dim_value: 1
          }
          dim {
            dim_value: 512
          }
          dim {
            dim_value: 7
          }
          dim {
            dim_value: 7
          }
        }
      }
    }
  }
  value_info {
    name: "stage4_unit2_bn2"
    type {
      tensor_type {
        elem_type: 1
        shape {
          dim {
            dim_value: 1
          }
          dim {
            dim_value: 512
          }
          dim {
            dim_value: 7
          }
          dim {
            dim_value: 7
          }
        }
      }
    }
  }
  value_info {
    name: "stage4_unit2_relu1"
    type {
      tensor_type {
        elem_type: 1
        shape {
          dim {
            dim_value: 1
          }
          dim {
            dim_value: 512
          }
          dim {
            dim_value: 7
          }
          dim {
            dim_value: 7
          }
        }
      }
    }
  }
  value_info {
    name: "_plus47"
    type {
      tensor_type {
        elem_type: 1
        shape {
          dim {
            dim_value: 1
          }
          dim {
            dim_value: 512
          }
          dim {
            dim_value: 7
          }
          dim {
            dim_value: 7
          }
        }
      }
    }
  }
  value_info {
    name: "stage4_unit3_bn1"
    type {
      tensor_type {
        elem_type: 1
        shape {
          dim {
            dim_value: 1
          }
          dim {
            dim_value: 512
          }
          dim {
            dim_value: 7
          }
          dim {
            dim_value: 7
          }
        }
      }
    }
  }
  value_info {
    name: "stage4_unit3_bn2"
    type {
      tensor_type {
        elem_type: 1
        shape {
          dim {
            dim_value: 1
          }
          dim {
            dim_value: 512
          }
          dim {
            dim_value: 7
          }
          dim {
            dim_value: 7
          }
        }
      }
    }
  }
  value_info {
    name: "stage4_unit3_relu1"
    type {
      tensor_type {
        elem_type: 1
        shape {
          dim {
            dim_value: 1
          }
          dim {
            dim_value: 512
          }
          dim {
            dim_value: 7
          }
          dim {
            dim_value: 7
          }
        }
      }
    }
  }
  value_info {
    name: "_plus48"
    type {
      tensor_type {
        elem_type: 1
        shape {
          dim {
            dim_value: 1
          }
          dim {
            dim_value: 512
          }
          dim {
            dim_value: 7
          }
          dim {
            dim_value: 7
          }
        }
      }
    }
  }
  value_info {
    name: "bn1"
    type {
      tensor_type {
        elem_type: 1
        shape {
          dim {
            dim_value: 1
          }
          dim {
            dim_value: 512
          }
          dim {
            dim_value: 7
          }
          dim {
            dim_value: 7
          }
        }
      }
    }
  }
  value_info {
    name: "flatten_1127"
    type {
      tensor_type {
        elem_type: 1
        shape {
          dim {
            dim_value: 1
          }
          dim {
            dim_value: 25088
          }
        }
      }
    }
  }
  value_info {
    name: "pre_fc1"
    type {
      tensor_type {
        elem_type: 1
        shape {
          dim {
            dim_value: 1
          }
          dim {
            dim_value: 512
          }
        }
      }
    }
  }
}
opset_import {
  domain: ""
  version: 11
}
opset_import {
  domain: "com.microsoft"
  version: 1
}
