ir_version: 7
producer_name: "onnx-caffe2"
graph {
  node {
    input: "data_0"
    input: "conv1_w_0"
    output: "conv1_1"
    op_type: "Conv"
    attribute {
      name: "strides"
      ints: 2
      ints: 2
      type: INTS
    }
    attribute {
      name: "pads"
      ints: 3
      ints: 3
      ints: 3
      ints: 3
      type: INTS
    }
    attribute {
      name: "kernel_shape"
      ints: 7
      ints: 7
      type: INTS
    }
  }
  node {
    input: "conv1_1"
    input: "conv1/bn_scale_0"
    input: "conv1/bn_bias_0"
    input: "conv1/bn_mean_0"
    input: "conv1/bn_var_0"
    output: "conv1/bn_1"
    op_type: "BatchNormalization"
    attribute {
      name: "epsilon"
      f: 1e-05
      type: FLOAT
    }
  }
  node {
    input: "conv1/bn_w_0"
    output: "OC2_DUMMY_0"
    op_type: "Unsqueeze"
    attribute {
      name: "axes"
      ints: 1
      ints: 2
      type: INTS
    }
  }
  node {
    input: "conv1/bn_1"
    input: "OC2_DUMMY_0"
    output: "conv1/bn_internal_1"
    op_type: "Mul"
  }
  node {
    input: "conv1/bn_b_0"
    output: "OC2_DUMMY_1"
    op_type: "Unsqueeze"
    attribute {
      name: "axes"
      ints: 1
      ints: 2
      type: INTS
    }
  }
  node {
    input: "conv1/bn_internal_1"
    input: "OC2_DUMMY_1"
    output: "conv1/bn_2"
    op_type: "Add"
  }
  node {
    input: "conv1/bn_2"
    output: "conv1/bn_3"
    op_type: "Relu"
  }
  node {
    input: "conv1/bn_3"
    output: "pool1_1"
    op_type: "MaxPool"
    attribute {
      name: "strides"
      ints: 2
      ints: 2
      type: INTS
    }
    attribute {
      name: "pads"
      ints: 1
      ints: 1
      ints: 1
      ints: 1
      type: INTS
    }
    attribute {
      name: "kernel_shape"
      ints: 3
      ints: 3
      type: INTS
    }
  }
  node {
    input: "pool1_1"
    input: "conv2_1/x1/bn_scale_0"
    input: "conv2_1/x1/bn_bias_0"
    input: "conv2_1/x1/bn_mean_0"
    input: "conv2_1/x1/bn_var_0"
    output: "conv2_1/x1/bn_1"
    op_type: "BatchNormalization"
    attribute {
      name: "epsilon"
      f: 1e-05
      type: FLOAT
    }
  }
  node {
    input: "conv2_1/x1/bn_w_0"
    output: "OC2_DUMMY_2"
    op_type: "Unsqueeze"
    attribute {
      name: "axes"
      ints: 1
      ints: 2
      type: INTS
    }
  }
  node {
    input: "conv2_1/x1/bn_1"
    input: "OC2_DUMMY_2"
    output: "conv2_1/x1/bn_internal_1"
    op_type: "Mul"
  }
  node {
    input: "conv2_1/x1/bn_b_0"
    output: "OC2_DUMMY_3"
    op_type: "Unsqueeze"
    attribute {
      name: "axes"
      ints: 1
      ints: 2
      type: INTS
    }
  }
  node {
    input: "conv2_1/x1/bn_internal_1"
    input: "OC2_DUMMY_3"
    output: "conv2_1/x1/bn_2"
    op_type: "Add"
  }
  node {
    input: "conv2_1/x1/bn_2"
    output: "conv2_1/x1/bn_3"
    op_type: "Relu"
  }
  node {
    input: "conv2_1/x1/bn_3"
    input: "conv2_1/x1_w_0"
    output: "conv2_1/x1_1"
    op_type: "Conv"
    attribute {
      name: "strides"
      ints: 1
      ints: 1
      type: INTS
    }
    attribute {
      name: "pads"
      ints: 0
      ints: 0
      ints: 0
      ints: 0
      type: INTS
    }
    attribute {
      name: "kernel_shape"
      ints: 1
      ints: 1
      type: INTS
    }
  }
  node {
    input: "conv2_1/x1_1"
    input: "conv2_1/x2/bn_scale_0"
    input: "conv2_1/x2/bn_bias_0"
    input: "conv2_1/x2/bn_mean_0"
    input: "conv2_1/x2/bn_var_0"
    output: "conv2_1/x2/bn_1"
    op_type: "BatchNormalization"
    attribute {
      name: "epsilon"
      f: 1e-05
      type: FLOAT
    }
  }
  node {
    input: "conv2_1/x2/bn_w_0"
    output: "OC2_DUMMY_4"
    op_type: "Unsqueeze"
    attribute {
      name: "axes"
      ints: 1
      ints: 2
      type: INTS
    }
  }
  node {
    input: "conv2_1/x2/bn_1"
    input: "OC2_DUMMY_4"
    output: "conv2_1/x2/bn_internal_1"
    op_type: "Mul"
  }
  node {
    input: "conv2_1/x2/bn_b_0"
    output: "OC2_DUMMY_5"
    op_type: "Unsqueeze"
    attribute {
      name: "axes"
      ints: 1
      ints: 2
      type: INTS
    }
  }
  node {
    input: "conv2_1/x2/bn_internal_1"
    input: "OC2_DUMMY_5"
    output: "conv2_1/x2/bn_2"
    op_type: "Add"
  }
  node {
    input: "conv2_1/x2/bn_2"
    output: "conv2_1/x2/bn_3"
    op_type: "Relu"
  }
  node {
    input: "conv2_1/x2/bn_3"
    input: "conv2_1/x2_w_0"
    output: "conv2_1/x2_1"
    op_type: "Conv"
    attribute {
      name: "strides"
      ints: 1
      ints: 1
      type: INTS
    }
    attribute {
      name: "pads"
      ints: 1
      ints: 1
      ints: 1
      ints: 1
      type: INTS
    }
    attribute {
      name: "kernel_shape"
      ints: 3
      ints: 3
      type: INTS
    }
  }
  node {
    input: "pool1_1"
    input: "conv2_1/x2_1"
    output: "concat_2_1_1"
    op_type: "Concat"
    attribute {
      name: "axis"
      i: 1
      type: INT
    }
  }
  node {
    input: "concat_2_1_1"
    input: "conv2_2/x1/bn_scale_0"
    input: "conv2_2/x1/bn_bias_0"
    input: "conv2_2/x1/bn_mean_0"
    input: "conv2_2/x1/bn_var_0"
    output: "conv2_2/x1/bn_1"
    op_type: "BatchNormalization"
    attribute {
      name: "epsilon"
      f: 1e-05
      type: FLOAT
    }
  }
  node {
    input: "conv2_2/x1/bn_w_0"
    output: "OC2_DUMMY_6"
    op_type: "Unsqueeze"
    attribute {
      name: "axes"
      ints: 1
      ints: 2
      type: INTS
    }
  }
  node {
    input: "conv2_2/x1/bn_1"
    input: "OC2_DUMMY_6"
    output: "conv2_2/x1/bn_internal_1"
    op_type: "Mul"
  }
  node {
    input: "conv2_2/x1/bn_b_0"
    output: "OC2_DUMMY_7"
    op_type: "Unsqueeze"
    attribute {
      name: "axes"
      ints: 1
      ints: 2
      type: INTS
    }
  }
  node {
    input: "conv2_2/x1/bn_internal_1"
    input: "OC2_DUMMY_7"
    output: "conv2_2/x1/bn_2"
    op_type: "Add"
  }
  node {
    input: "conv2_2/x1/bn_2"
    output: "conv2_2/x1/bn_3"
    op_type: "Relu"
  }
  node {
    input: "conv2_2/x1/bn_3"
    input: "conv2_2/x1_w_0"
    output: "conv2_2/x1_1"
    op_type: "Conv"
    attribute {
      name: "strides"
      ints: 1
      ints: 1
      type: INTS
    }
    attribute {
      name: "pads"
      ints: 0
      ints: 0
      ints: 0
      ints: 0
      type: INTS
    }
    attribute {
      name: "kernel_shape"
      ints: 1
      ints: 1
      type: INTS
    }
  }
  node {
    input: "conv2_2/x1_1"
    input: "conv2_2/x2/bn_scale_0"
    input: "conv2_2/x2/bn_bias_0"
    input: "conv2_2/x2/bn_mean_0"
    input: "conv2_2/x2/bn_var_0"
    output: "conv2_2/x2/bn_1"
    op_type: "BatchNormalization"
    attribute {
      name: "epsilon"
      f: 1e-05
      type: FLOAT
    }
  }
  node {
    input: "conv2_2/x2/bn_w_0"
    output: "OC2_DUMMY_8"
    op_type: "Unsqueeze"
    attribute {
      name: "axes"
      ints: 1
      ints: 2
      type: INTS
    }
  }
  node {
    input: "conv2_2/x2/bn_1"
    input: "OC2_DUMMY_8"
    output: "conv2_2/x2/bn_internal_1"
    op_type: "Mul"
  }
  node {
    input: "conv2_2/x2/bn_b_0"
    output: "OC2_DUMMY_9"
    op_type: "Unsqueeze"
    attribute {
      name: "axes"
      ints: 1
      ints: 2
      type: INTS
    }
  }
  node {
    input: "conv2_2/x2/bn_internal_1"
    input: "OC2_DUMMY_9"
    output: "conv2_2/x2/bn_2"
    op_type: "Add"
  }
  node {
    input: "conv2_2/x2/bn_2"
    output: "conv2_2/x2/bn_3"
    op_type: "Relu"
  }
  node {
    input: "conv2_2/x2/bn_3"
    input: "conv2_2/x2_w_0"
    output: "conv2_2/x2_1"
    op_type: "Conv"
    attribute {
      name: "strides"
      ints: 1
      ints: 1
      type: INTS
    }
    attribute {
      name: "pads"
      ints: 1
      ints: 1
      ints: 1
      ints: 1
      type: INTS
    }
    attribute {
      name: "kernel_shape"
      ints: 3
      ints: 3
      type: INTS
    }
  }
  node {
    input: "concat_2_1_1"
    input: "conv2_2/x2_1"
    output: "concat_2_2_1"
    op_type: "Concat"
    attribute {
      name: "axis"
      i: 1
      type: INT
    }
  }
  node {
    input: "concat_2_2_1"
    input: "conv2_3/x1/bn_scale_0"
    input: "conv2_3/x1/bn_bias_0"
    input: "conv2_3/x1/bn_mean_0"
    input: "conv2_3/x1/bn_var_0"
    output: "conv2_3/x1/bn_1"
    op_type: "BatchNormalization"
    attribute {
      name: "epsilon"
      f: 1e-05
      type: FLOAT
    }
  }
  node {
    input: "conv2_3/x1/bn_w_0"
    output: "OC2_DUMMY_10"
    op_type: "Unsqueeze"
    attribute {
      name: "axes"
      ints: 1
      ints: 2
      type: INTS
    }
  }
  node {
    input: "conv2_3/x1/bn_1"
    input: "OC2_DUMMY_10"
    output: "conv2_3/x1/bn_internal_1"
    op_type: "Mul"
  }
  node {
    input: "conv2_3/x1/bn_b_0"
    output: "OC2_DUMMY_11"
    op_type: "Unsqueeze"
    attribute {
      name: "axes"
      ints: 1
      ints: 2
      type: INTS
    }
  }
  node {
    input: "conv2_3/x1/bn_internal_1"
    input: "OC2_DUMMY_11"
    output: "conv2_3/x1/bn_2"
    op_type: "Add"
  }
  node {
    input: "conv2_3/x1/bn_2"
    output: "conv2_3/x1/bn_3"
    op_type: "Relu"
  }
  node {
    input: "conv2_3/x1/bn_3"
    input: "conv2_3/x1_w_0"
    output: "conv2_3/x1_1"
    op_type: "Conv"
    attribute {
      name: "strides"
      ints: 1
      ints: 1
      type: INTS
    }
    attribute {
      name: "pads"
      ints: 0
      ints: 0
      ints: 0
      ints: 0
      type: INTS
    }
    attribute {
      name: "kernel_shape"
      ints: 1
      ints: 1
      type: INTS
    }
  }
  node {
    input: "conv2_3/x1_1"
    input: "conv2_3/x2/bn_scale_0"
    input: "conv2_3/x2/bn_bias_0"
    input: "conv2_3/x2/bn_mean_0"
    input: "conv2_3/x2/bn_var_0"
    output: "conv2_3/x2/bn_1"
    op_type: "BatchNormalization"
    attribute {
      name: "epsilon"
      f: 1e-05
      type: FLOAT
    }
  }
  node {
    input: "conv2_3/x2/bn_w_0"
    output: "OC2_DUMMY_12"
    op_type: "Unsqueeze"
    attribute {
      name: "axes"
      ints: 1
      ints: 2
      type: INTS
    }
  }
  node {
    input: "conv2_3/x2/bn_1"
    input: "OC2_DUMMY_12"
    output: "conv2_3/x2/bn_internal_1"
    op_type: "Mul"
  }
  node {
    input: "conv2_3/x2/bn_b_0"
    output: "OC2_DUMMY_13"
    op_type: "Unsqueeze"
    attribute {
      name: "axes"
      ints: 1
      ints: 2
      type: INTS
    }
  }
  node {
    input: "conv2_3/x2/bn_internal_1"
    input: "OC2_DUMMY_13"
    output: "conv2_3/x2/bn_2"
    op_type: "Add"
  }
  node {
    input: "conv2_3/x2/bn_2"
    output: "conv2_3/x2/bn_3"
    op_type: "Relu"
  }
  node {
    input: "conv2_3/x2/bn_3"
    input: "conv2_3/x2_w_0"
    output: "conv2_3/x2_1"
    op_type: "Conv"
    attribute {
      name: "strides"
      ints: 1
      ints: 1
      type: INTS
    }
    attribute {
      name: "pads"
      ints: 1
      ints: 1
      ints: 1
      ints: 1
      type: INTS
    }
    attribute {
      name: "kernel_shape"
      ints: 3
      ints: 3
      type: INTS
    }
  }
  node {
    input: "concat_2_2_1"
    input: "conv2_3/x2_1"
    output: "concat_2_3_1"
    op_type: "Concat"
    attribute {
      name: "axis"
      i: 1
      type: INT
    }
  }
  node {
    input: "concat_2_3_1"
    input: "conv2_4/x1/bn_scale_0"
    input: "conv2_4/x1/bn_bias_0"
    input: "conv2_4/x1/bn_mean_0"
    input: "conv2_4/x1/bn_var_0"
    output: "conv2_4/x1/bn_1"
    op_type: "BatchNormalization"
    attribute {
      name: "epsilon"
      f: 1e-05
      type: FLOAT
    }
  }
  node {
    input: "conv2_4/x1/bn_w_0"
    output: "OC2_DUMMY_14"
    op_type: "Unsqueeze"
    attribute {
      name: "axes"
      ints: 1
      ints: 2
      type: INTS
    }
  }
  node {
    input: "conv2_4/x1/bn_1"
    input: "OC2_DUMMY_14"
    output: "conv2_4/x1/bn_internal_1"
    op_type: "Mul"
  }
  node {
    input: "conv2_4/x1/bn_b_0"
    output: "OC2_DUMMY_15"
    op_type: "Unsqueeze"
    attribute {
      name: "axes"
      ints: 1
      ints: 2
      type: INTS
    }
  }
  node {
    input: "conv2_4/x1/bn_internal_1"
    input: "OC2_DUMMY_15"
    output: "conv2_4/x1/bn_2"
    op_type: "Add"
  }
  node {
    input: "conv2_4/x1/bn_2"
    output: "conv2_4/x1/bn_3"
    op_type: "Relu"
  }
  node {
    input: "conv2_4/x1/bn_3"
    input: "conv2_4/x1_w_0"
    output: "conv2_4/x1_1"
    op_type: "Conv"
    attribute {
      name: "strides"
      ints: 1
      ints: 1
      type: INTS
    }
    attribute {
      name: "pads"
      ints: 0
      ints: 0
      ints: 0
      ints: 0
      type: INTS
    }
    attribute {
      name: "kernel_shape"
      ints: 1
      ints: 1
      type: INTS
    }
  }
  node {
    input: "conv2_4/x1_1"
    input: "conv2_4/x2/bn_scale_0"
    input: "conv2_4/x2/bn_bias_0"
    input: "conv2_4/x2/bn_mean_0"
    input: "conv2_4/x2/bn_var_0"
    output: "conv2_4/x2/bn_1"
    op_type: "BatchNormalization"
    attribute {
      name: "epsilon"
      f: 1e-05
      type: FLOAT
    }
  }
  node {
    input: "conv2_4/x2/bn_w_0"
    output: "OC2_DUMMY_16"
    op_type: "Unsqueeze"
    attribute {
      name: "axes"
      ints: 1
      ints: 2
      type: INTS
    }
  }
  node {
    input: "conv2_4/x2/bn_1"
    input: "OC2_DUMMY_16"
    output: "conv2_4/x2/bn_internal_1"
    op_type: "Mul"
  }
  node {
    input: "conv2_4/x2/bn_b_0"
    output: "OC2_DUMMY_17"
    op_type: "Unsqueeze"
    attribute {
      name: "axes"
      ints: 1
      ints: 2
      type: INTS
    }
  }
  node {
    input: "conv2_4/x2/bn_internal_1"
    input: "OC2_DUMMY_17"
    output: "conv2_4/x2/bn_2"
    op_type: "Add"
  }
  node {
    input: "conv2_4/x2/bn_2"
    output: "conv2_4/x2/bn_3"
    op_type: "Relu"
  }
  node {
    input: "conv2_4/x2/bn_3"
    input: "conv2_4/x2_w_0"
    output: "conv2_4/x2_1"
    op_type: "Conv"
    attribute {
      name: "strides"
      ints: 1
      ints: 1
      type: INTS
    }
    attribute {
      name: "pads"
      ints: 1
      ints: 1
      ints: 1
      ints: 1
      type: INTS
    }
    attribute {
      name: "kernel_shape"
      ints: 3
      ints: 3
      type: INTS
    }
  }
  node {
    input: "concat_2_3_1"
    input: "conv2_4/x2_1"
    output: "concat_2_4_1"
    op_type: "Concat"
    attribute {
      name: "axis"
      i: 1
      type: INT
    }
  }
  node {
    input: "concat_2_4_1"
    input: "conv2_5/x1/bn_scale_0"
    input: "conv2_5/x1/bn_bias_0"
    input: "conv2_5/x1/bn_mean_0"
    input: "conv2_5/x1/bn_var_0"
    output: "conv2_5/x1/bn_1"
    op_type: "BatchNormalization"
    attribute {
      name: "epsilon"
      f: 1e-05
      type: FLOAT
    }
  }
  node {
    input: "conv2_5/x1/bn_w_0"
    output: "OC2_DUMMY_18"
    op_type: "Unsqueeze"
    attribute {
      name: "axes"
      ints: 1
      ints: 2
      type: INTS
    }
  }
  node {
    input: "conv2_5/x1/bn_1"
    input: "OC2_DUMMY_18"
    output: "conv2_5/x1/bn_internal_1"
    op_type: "Mul"
  }
  node {
    input: "conv2_5/x1/bn_b_0"
    output: "OC2_DUMMY_19"
    op_type: "Unsqueeze"
    attribute {
      name: "axes"
      ints: 1
      ints: 2
      type: INTS
    }
  }
  node {
    input: "conv2_5/x1/bn_internal_1"
    input: "OC2_DUMMY_19"
    output: "conv2_5/x1/bn_2"
    op_type: "Add"
  }
  node {
    input: "conv2_5/x1/bn_2"
    output: "conv2_5/x1/bn_3"
    op_type: "Relu"
  }
  node {
    input: "conv2_5/x1/bn_3"
    input: "conv2_5/x1_w_0"
    output: "conv2_5/x1_1"
    op_type: "Conv"
    attribute {
      name: "strides"
      ints: 1
      ints: 1
      type: INTS
    }
    attribute {
      name: "pads"
      ints: 0
      ints: 0
      ints: 0
      ints: 0
      type: INTS
    }
    attribute {
      name: "kernel_shape"
      ints: 1
      ints: 1
      type: INTS
    }
  }
  node {
    input: "conv2_5/x1_1"
    input: "conv2_5/x2/bn_scale_0"
    input: "conv2_5/x2/bn_bias_0"
    input: "conv2_5/x2/bn_mean_0"
    input: "conv2_5/x2/bn_var_0"
    output: "conv2_5/x2/bn_1"
    op_type: "BatchNormalization"
    attribute {
      name: "epsilon"
      f: 1e-05
      type: FLOAT
    }
  }
  node {
    input: "conv2_5/x2/bn_w_0"
    output: "OC2_DUMMY_20"
    op_type: "Unsqueeze"
    attribute {
      name: "axes"
      ints: 1
      ints: 2
      type: INTS
    }
  }
  node {
    input: "conv2_5/x2/bn_1"
    input: "OC2_DUMMY_20"
    output: "conv2_5/x2/bn_internal_1"
    op_type: "Mul"
  }
  node {
    input: "conv2_5/x2/bn_b_0"
    output: "OC2_DUMMY_21"
    op_type: "Unsqueeze"
    attribute {
      name: "axes"
      ints: 1
      ints: 2
      type: INTS
    }
  }
  node {
    input: "conv2_5/x2/bn_internal_1"
    input: "OC2_DUMMY_21"
    output: "conv2_5/x2/bn_2"
    op_type: "Add"
  }
  node {
    input: "conv2_5/x2/bn_2"
    output: "conv2_5/x2/bn_3"
    op_type: "Relu"
  }
  node {
    input: "conv2_5/x2/bn_3"
    input: "conv2_5/x2_w_0"
    output: "conv2_5/x2_1"
    op_type: "Conv"
    attribute {
      name: "strides"
      ints: 1
      ints: 1
      type: INTS
    }
    attribute {
      name: "pads"
      ints: 1
      ints: 1
      ints: 1
      ints: 1
      type: INTS
    }
    attribute {
      name: "kernel_shape"
      ints: 3
      ints: 3
      type: INTS
    }
  }
  node {
    input: "concat_2_4_1"
    input: "conv2_5/x2_1"
    output: "concat_2_5_1"
    op_type: "Concat"
    attribute {
      name: "axis"
      i: 1
      type: INT
    }
  }
  node {
    input: "concat_2_5_1"
    input: "conv2_6/x1/bn_scale_0"
    input: "conv2_6/x1/bn_bias_0"
    input: "conv2_6/x1/bn_mean_0"
    input: "conv2_6/x1/bn_var_0"
    output: "conv2_6/x1/bn_1"
    op_type: "BatchNormalization"
    attribute {
      name: "epsilon"
      f: 1e-05
      type: FLOAT
    }
  }
  node {
    input: "conv2_6/x1/bn_w_0"
    output: "OC2_DUMMY_22"
    op_type: "Unsqueeze"
    attribute {
      name: "axes"
      ints: 1
      ints: 2
      type: INTS
    }
  }
  node {
    input: "conv2_6/x1/bn_1"
    input: "OC2_DUMMY_22"
    output: "conv2_6/x1/bn_internal_1"
    op_type: "Mul"
  }
  node {
    input: "conv2_6/x1/bn_b_0"
    output: "OC2_DUMMY_23"
    op_type: "Unsqueeze"
    attribute {
      name: "axes"
      ints: 1
      ints: 2
      type: INTS
    }
  }
  node {
    input: "conv2_6/x1/bn_internal_1"
    input: "OC2_DUMMY_23"
    output: "conv2_6/x1/bn_2"
    op_type: "Add"
  }
  node {
    input: "conv2_6/x1/bn_2"
    output: "conv2_6/x1/bn_3"
    op_type: "Relu"
  }
  node {
    input: "conv2_6/x1/bn_3"
    input: "conv2_6/x1_w_0"
    output: "conv2_6/x1_1"
    op_type: "Conv"
    attribute {
      name: "strides"
      ints: 1
      ints: 1
      type: INTS
    }
    attribute {
      name: "pads"
      ints: 0
      ints: 0
      ints: 0
      ints: 0
      type: INTS
    }
    attribute {
      name: "kernel_shape"
      ints: 1
      ints: 1
      type: INTS
    }
  }
  node {
    input: "conv2_6/x1_1"
    input: "conv2_6/x2/bn_scale_0"
    input: "conv2_6/x2/bn_bias_0"
    input: "conv2_6/x2/bn_mean_0"
    input: "conv2_6/x2/bn_var_0"
    output: "conv2_6/x2/bn_1"
    op_type: "BatchNormalization"
    attribute {
      name: "epsilon"
      f: 1e-05
      type: FLOAT
    }
  }
  node {
    input: "conv2_6/x2/bn_w_0"
    output: "OC2_DUMMY_24"
    op_type: "Unsqueeze"
    attribute {
      name: "axes"
      ints: 1
      ints: 2
      type: INTS
    }
  }
  node {
    input: "conv2_6/x2/bn_1"
    input: "OC2_DUMMY_24"
    output: "conv2_6/x2/bn_internal_1"
    op_type: "Mul"
  }
  node {
    input: "conv2_6/x2/bn_b_0"
    output: "OC2_DUMMY_25"
    op_type: "Unsqueeze"
    attribute {
      name: "axes"
      ints: 1
      ints: 2
      type: INTS
    }
  }
  node {
    input: "conv2_6/x2/bn_internal_1"
    input: "OC2_DUMMY_25"
    output: "conv2_6/x2/bn_2"
    op_type: "Add"
  }
  node {
    input: "conv2_6/x2/bn_2"
    output: "conv2_6/x2/bn_3"
    op_type: "Relu"
  }
  node {
    input: "conv2_6/x2/bn_3"
    input: "conv2_6/x2_w_0"
    output: "conv2_6/x2_1"
    op_type: "Conv"
    attribute {
      name: "strides"
      ints: 1
      ints: 1
      type: INTS
    }
    attribute {
      name: "pads"
      ints: 1
      ints: 1
      ints: 1
      ints: 1
      type: INTS
    }
    attribute {
      name: "kernel_shape"
      ints: 3
      ints: 3
      type: INTS
    }
  }
  node {
    input: "concat_2_5_1"
    input: "conv2_6/x2_1"
    output: "concat_2_6_1"
    op_type: "Concat"
    attribute {
      name: "axis"
      i: 1
      type: INT
    }
  }
  node {
    input: "concat_2_6_1"
    input: "conv2_blk/bn_scale_0"
    input: "conv2_blk/bn_bias_0"
    input: "conv2_blk/bn_mean_0"
    input: "conv2_blk/bn_var_0"
    output: "conv2_blk/bn_1"
    op_type: "BatchNormalization"
    attribute {
      name: "epsilon"
      f: 1e-05
      type: FLOAT
    }
  }
  node {
    input: "conv2_blk/bn_w_0"
    output: "OC2_DUMMY_26"
    op_type: "Unsqueeze"
    attribute {
      name: "axes"
      ints: 1
      ints: 2
      type: INTS
    }
  }
  node {
    input: "conv2_blk/bn_1"
    input: "OC2_DUMMY_26"
    output: "conv2_blk/bn_internal_1"
    op_type: "Mul"
  }
  node {
    input: "conv2_blk/bn_b_0"
    output: "OC2_DUMMY_27"
    op_type: "Unsqueeze"
    attribute {
      name: "axes"
      ints: 1
      ints: 2
      type: INTS
    }
  }
  node {
    input: "conv2_blk/bn_internal_1"
    input: "OC2_DUMMY_27"
    output: "conv2_blk/bn_2"
    op_type: "Add"
  }
  node {
    input: "conv2_blk/bn_2"
    output: "conv2_blk/bn_3"
    op_type: "Relu"
  }
  node {
    input: "conv2_blk/bn_3"
    input: "conv2_blk_w_0"
    output: "conv2_blk_1"
    op_type: "Conv"
    attribute {
      name: "strides"
      ints: 1
      ints: 1
      type: INTS
    }
    attribute {
      name: "pads"
      ints: 0
      ints: 0
      ints: 0
      ints: 0
      type: INTS
    }
    attribute {
      name: "kernel_shape"
      ints: 1
      ints: 1
      type: INTS
    }
  }
  node {
    input: "conv2_blk_1"
    output: "pool2_1"
    op_type: "AveragePool"
    attribute {
      name: "strides"
      ints: 2
      ints: 2
      type: INTS
    }
    attribute {
      name: "pads"
      ints: 0
      ints: 0
      ints: 0
      ints: 0
      type: INTS
    }
    attribute {
      name: "kernel_shape"
      ints: 2
      ints: 2
      type: INTS
    }
  }
  node {
    input: "pool2_1"
    input: "conv3_1/x1/bn_scale_0"
    input: "conv3_1/x1/bn_bias_0"
    input: "conv3_1/x1/bn_mean_0"
    input: "conv3_1/x1/bn_var_0"
    output: "conv3_1/x1/bn_1"
    op_type: "BatchNormalization"
    attribute {
      name: "epsilon"
      f: 1e-05
      type: FLOAT
    }
  }
  node {
    input: "conv3_1/x1/bn_w_0"
    output: "OC2_DUMMY_28"
    op_type: "Unsqueeze"
    attribute {
      name: "axes"
      ints: 1
      ints: 2
      type: INTS
    }
  }
  node {
    input: "conv3_1/x1/bn_1"
    input: "OC2_DUMMY_28"
    output: "conv3_1/x1/bn_internal_1"
    op_type: "Mul"
  }
  node {
    input: "conv3_1/x1/bn_b_0"
    output: "OC2_DUMMY_29"
    op_type: "Unsqueeze"
    attribute {
      name: "axes"
      ints: 1
      ints: 2
      type: INTS
    }
  }
  node {
    input: "conv3_1/x1/bn_internal_1"
    input: "OC2_DUMMY_29"
    output: "conv3_1/x1/bn_2"
    op_type: "Add"
  }
  node {
    input: "conv3_1/x1/bn_2"
    output: "conv3_1/x1/bn_3"
    op_type: "Relu"
  }
  node {
    input: "conv3_1/x1/bn_3"
    input: "conv3_1/x1_w_0"
    output: "conv3_1/x1_1"
    op_type: "Conv"
    attribute {
      name: "strides"
      ints: 1
      ints: 1
      type: INTS
    }
    attribute {
      name: "pads"
      ints: 0
      ints: 0
      ints: 0
      ints: 0
      type: INTS
    }
    attribute {
      name: "kernel_shape"
      ints: 1
      ints: 1
      type: INTS
    }
  }
  node {
    input: "conv3_1/x1_1"
    input: "conv3_1/x2/bn_scale_0"
    input: "conv3_1/x2/bn_bias_0"
    input: "conv3_1/x2/bn_mean_0"
    input: "conv3_1/x2/bn_var_0"
    output: "conv3_1/x2/bn_1"
    op_type: "BatchNormalization"
    attribute {
      name: "epsilon"
      f: 1e-05
      type: FLOAT
    }
  }
  node {
    input: "conv3_1/x2/bn_w_0"
    output: "OC2_DUMMY_30"
    op_type: "Unsqueeze"
    attribute {
      name: "axes"
      ints: 1
      ints: 2
      type: INTS
    }
  }
  node {
    input: "conv3_1/x2/bn_1"
    input: "OC2_DUMMY_30"
    output: "conv3_1/x2/bn_internal_1"
    op_type: "Mul"
  }
  node {
    input: "conv3_1/x2/bn_b_0"
    output: "OC2_DUMMY_31"
    op_type: "Unsqueeze"
    attribute {
      name: "axes"
      ints: 1
      ints: 2
      type: INTS
    }
  }
  node {
    input: "conv3_1/x2/bn_internal_1"
    input: "OC2_DUMMY_31"
    output: "conv3_1/x2/bn_2"
    op_type: "Add"
  }
  node {
    input: "conv3_1/x2/bn_2"
    output: "conv3_1/x2/bn_3"
    op_type: "Relu"
  }
  node {
    input: "conv3_1/x2/bn_3"
    input: "conv3_1/x2_w_0"
    output: "conv3_1/x2_1"
    op_type: "Conv"
    attribute {
      name: "strides"
      ints: 1
      ints: 1
      type: INTS
    }
    attribute {
      name: "pads"
      ints: 1
      ints: 1
      ints: 1
      ints: 1
      type: INTS
    }
    attribute {
      name: "kernel_shape"
      ints: 3
      ints: 3
      type: INTS
    }
  }
  node {
    input: "pool2_1"
    input: "conv3_1/x2_1"
    output: "concat_3_1_1"
    op_type: "Concat"
    attribute {
      name: "axis"
      i: 1
      type: INT
    }
  }
  node {
    input: "concat_3_1_1"
    input: "conv3_2/x1/bn_scale_0"
    input: "conv3_2/x1/bn_bias_0"
    input: "conv3_2/x1/bn_mean_0"
    input: "conv3_2/x1/bn_var_0"
    output: "conv3_2/x1/bn_1"
    op_type: "BatchNormalization"
    attribute {
      name: "epsilon"
      f: 1e-05
      type: FLOAT
    }
  }
  node {
    input: "conv3_2/x1/bn_w_0"
    output: "OC2_DUMMY_32"
    op_type: "Unsqueeze"
    attribute {
      name: "axes"
      ints: 1
      ints: 2
      type: INTS
    }
  }
  node {
    input: "conv3_2/x1/bn_1"
    input: "OC2_DUMMY_32"
    output: "conv3_2/x1/bn_internal_1"
    op_type: "Mul"
  }
  node {
    input: "conv3_2/x1/bn_b_0"
    output: "OC2_DUMMY_33"
    op_type: "Unsqueeze"
    attribute {
      name: "axes"
      ints: 1
      ints: 2
      type: INTS
    }
  }
  node {
    input: "conv3_2/x1/bn_internal_1"
    input: "OC2_DUMMY_33"
    output: "conv3_2/x1/bn_2"
    op_type: "Add"
  }
  node {
    input: "conv3_2/x1/bn_2"
    output: "conv3_2/x1/bn_3"
    op_type: "Relu"
  }
  node {
    input: "conv3_2/x1/bn_3"
    input: "conv3_2/x1_w_0"
    output: "conv3_2/x1_1"
    op_type: "Conv"
    attribute {
      name: "strides"
      ints: 1
      ints: 1
      type: INTS
    }
    attribute {
      name: "pads"
      ints: 0
      ints: 0
      ints: 0
      ints: 0
      type: INTS
    }
    attribute {
      name: "kernel_shape"
      ints: 1
      ints: 1
      type: INTS
    }
  }
  node {
    input: "conv3_2/x1_1"
    input: "conv3_2/x2/bn_scale_0"
    input: "conv3_2/x2/bn_bias_0"
    input: "conv3_2/x2/bn_mean_0"
    input: "conv3_2/x2/bn_var_0"
    output: "conv3_2/x2/bn_1"
    op_type: "BatchNormalization"
    attribute {
      name: "epsilon"
      f: 1e-05
      type: FLOAT
    }
  }
  node {
    input: "conv3_2/x2/bn_w_0"
    output: "OC2_DUMMY_34"
    op_type: "Unsqueeze"
    attribute {
      name: "axes"
      ints: 1
      ints: 2
      type: INTS
    }
  }
  node {
    input: "conv3_2/x2/bn_1"
    input: "OC2_DUMMY_34"
    output: "conv3_2/x2/bn_internal_1"
    op_type: "Mul"
  }
  node {
    input: "conv3_2/x2/bn_b_0"
    output: "OC2_DUMMY_35"
    op_type: "Unsqueeze"
    attribute {
      name: "axes"
      ints: 1
      ints: 2
      type: INTS
    }
  }
  node {
    input: "conv3_2/x2/bn_internal_1"
    input: "OC2_DUMMY_35"
    output: "conv3_2/x2/bn_2"
    op_type: "Add"
  }
  node {
    input: "conv3_2/x2/bn_2"
    output: "conv3_2/x2/bn_3"
    op_type: "Relu"
  }
  node {
    input: "conv3_2/x2/bn_3"
    input: "conv3_2/x2_w_0"
    output: "conv3_2/x2_1"
    op_type: "Conv"
    attribute {
      name: "strides"
      ints: 1
      ints: 1
      type: INTS
    }
    attribute {
      name: "pads"
      ints: 1
      ints: 1
      ints: 1
      ints: 1
      type: INTS
    }
    attribute {
      name: "kernel_shape"
      ints: 3
      ints: 3
      type: INTS
    }
  }
  node {
    input: "concat_3_1_1"
    input: "conv3_2/x2_1"
    output: "concat_3_2_1"
    op_type: "Concat"
    attribute {
      name: "axis"
      i: 1
      type: INT
    }
  }
  node {
    input: "concat_3_2_1"
    input: "conv3_3/x1/bn_scale_0"
    input: "conv3_3/x1/bn_bias_0"
    input: "conv3_3/x1/bn_mean_0"
    input: "conv3_3/x1/bn_var_0"
    output: "conv3_3/x1/bn_1"
    op_type: "BatchNormalization"
    attribute {
      name: "epsilon"
      f: 1e-05
      type: FLOAT
    }
  }
  node {
    input: "conv3_3/x1/bn_w_0"
    output: "OC2_DUMMY_36"
    op_type: "Unsqueeze"
    attribute {
      name: "axes"
      ints: 1
      ints: 2
      type: INTS
    }
  }
  node {
    input: "conv3_3/x1/bn_1"
    input: "OC2_DUMMY_36"
    output: "conv3_3/x1/bn_internal_1"
    op_type: "Mul"
  }
  node {
    input: "conv3_3/x1/bn_b_0"
    output: "OC2_DUMMY_37"
    op_type: "Unsqueeze"
    attribute {
      name: "axes"
      ints: 1
      ints: 2
      type: INTS
    }
  }
  node {
    input: "conv3_3/x1/bn_internal_1"
    input: "OC2_DUMMY_37"
    output: "conv3_3/x1/bn_2"
    op_type: "Add"
  }
  node {
    input: "conv3_3/x1/bn_2"
    output: "conv3_3/x1/bn_3"
    op_type: "Relu"
  }
  node {
    input: "conv3_3/x1/bn_3"
    input: "conv3_3/x1_w_0"
    output: "conv3_3/x1_1"
    op_type: "Conv"
    attribute {
      name: "strides"
      ints: 1
      ints: 1
      type: INTS
    }
    attribute {
      name: "pads"
      ints: 0
      ints: 0
      ints: 0
      ints: 0
      type: INTS
    }
    attribute {
      name: "kernel_shape"
      ints: 1
      ints: 1
      type: INTS
    }
  }
  node {
    input: "conv3_3/x1_1"
    input: "conv3_3/x2/bn_scale_0"
    input: "conv3_3/x2/bn_bias_0"
    input: "conv3_3/x2/bn_mean_0"
    input: "conv3_3/x2/bn_var_0"
    output: "conv3_3/x2/bn_1"
    op_type: "BatchNormalization"
    attribute {
      name: "epsilon"
      f: 1e-05
      type: FLOAT
    }
  }
  node {
    input: "conv3_3/x2/bn_w_0"
    output: "OC2_DUMMY_38"
    op_type: "Unsqueeze"
    attribute {
      name: "axes"
      ints: 1
      ints: 2
      type: INTS
    }
  }
  node {
    input: "conv3_3/x2/bn_1"
    input: "OC2_DUMMY_38"
    output: "conv3_3/x2/bn_internal_1"
    op_type: "Mul"
  }
  node {
    input: "conv3_3/x2/bn_b_0"
    output: "OC2_DUMMY_39"
    op_type: "Unsqueeze"
    attribute {
      name: "axes"
      ints: 1
      ints: 2
      type: INTS
    }
  }
  node {
    input: "conv3_3/x2/bn_internal_1"
    input: "OC2_DUMMY_39"
    output: "conv3_3/x2/bn_2"
    op_type: "Add"
  }
  node {
    input: "conv3_3/x2/bn_2"
    output: "conv3_3/x2/bn_3"
    op_type: "Relu"
  }
  node {
    input: "conv3_3/x2/bn_3"
    input: "conv3_3/x2_w_0"
    output: "conv3_3/x2_1"
    op_type: "Conv"
    attribute {
      name: "strides"
      ints: 1
      ints: 1
      type: INTS
    }
    attribute {
      name: "pads"
      ints: 1
      ints: 1
      ints: 1
      ints: 1
      type: INTS
    }
    attribute {
      name: "kernel_shape"
      ints: 3
      ints: 3
      type: INTS
    }
  }
  node {
    input: "concat_3_2_1"
    input: "conv3_3/x2_1"
    output: "concat_3_3_1"
    op_type: "Concat"
    attribute {
      name: "axis"
      i: 1
      type: INT
    }
  }
  node {
    input: "concat_3_3_1"
    input: "conv3_4/x1/bn_scale_0"
    input: "conv3_4/x1/bn_bias_0"
    input: "conv3_4/x1/bn_mean_0"
    input: "conv3_4/x1/bn_var_0"
    output: "conv3_4/x1/bn_1"
    op_type: "BatchNormalization"
    attribute {
      name: "epsilon"
      f: 1e-05
      type: FLOAT
    }
  }
  node {
    input: "conv3_4/x1/bn_w_0"
    output: "OC2_DUMMY_40"
    op_type: "Unsqueeze"
    attribute {
      name: "axes"
      ints: 1
      ints: 2
      type: INTS
    }
  }
  node {
    input: "conv3_4/x1/bn_1"
    input: "OC2_DUMMY_40"
    output: "conv3_4/x1/bn_internal_1"
    op_type: "Mul"
  }
  node {
    input: "conv3_4/x1/bn_b_0"
    output: "OC2_DUMMY_41"
    op_type: "Unsqueeze"
    attribute {
      name: "axes"
      ints: 1
      ints: 2
      type: INTS
    }
  }
  node {
    input: "conv3_4/x1/bn_internal_1"
    input: "OC2_DUMMY_41"
    output: "conv3_4/x1/bn_2"
    op_type: "Add"
  }
  node {
    input: "conv3_4/x1/bn_2"
    output: "conv3_4/x1/bn_3"
    op_type: "Relu"
  }
  node {
    input: "conv3_4/x1/bn_3"
    input: "conv3_4/x1_w_0"
    output: "conv3_4/x1_1"
    op_type: "Conv"
    attribute {
      name: "strides"
      ints: 1
      ints: 1
      type: INTS
    }
    attribute {
      name: "pads"
      ints: 0
      ints: 0
      ints: 0
      ints: 0
      type: INTS
    }
    attribute {
      name: "kernel_shape"
      ints: 1
      ints: 1
      type: INTS
    }
  }
  node {
    input: "conv3_4/x1_1"
    input: "conv3_4/x2/bn_scale_0"
    input: "conv3_4/x2/bn_bias_0"
    input: "conv3_4/x2/bn_mean_0"
    input: "conv3_4/x2/bn_var_0"
    output: "conv3_4/x2/bn_1"
    op_type: "BatchNormalization"
    attribute {
      name: "epsilon"
      f: 1e-05
      type: FLOAT
    }
  }
  node {
    input: "conv3_4/x2/bn_w_0"
    output: "OC2_DUMMY_42"
    op_type: "Unsqueeze"
    attribute {
      name: "axes"
      ints: 1
      ints: 2
      type: INTS
    }
  }
  node {
    input: "conv3_4/x2/bn_1"
    input: "OC2_DUMMY_42"
    output: "conv3_4/x2/bn_internal_1"
    op_type: "Mul"
  }
  node {
    input: "conv3_4/x2/bn_b_0"
    output: "OC2_DUMMY_43"
    op_type: "Unsqueeze"
    attribute {
      name: "axes"
      ints: 1
      ints: 2
      type: INTS
    }
  }
  node {
    input: "conv3_4/x2/bn_internal_1"
    input: "OC2_DUMMY_43"
    output: "conv3_4/x2/bn_2"
    op_type: "Add"
  }
  node {
    input: "conv3_4/x2/bn_2"
    output: "conv3_4/x2/bn_3"
    op_type: "Relu"
  }
  node {
    input: "conv3_4/x2/bn_3"
    input: "conv3_4/x2_w_0"
    output: "conv3_4/x2_1"
    op_type: "Conv"
    attribute {
      name: "strides"
      ints: 1
      ints: 1
      type: INTS
    }
    attribute {
      name: "pads"
      ints: 1
      ints: 1
      ints: 1
      ints: 1
      type: INTS
    }
    attribute {
      name: "kernel_shape"
      ints: 3
      ints: 3
      type: INTS
    }
  }
  node {
    input: "concat_3_3_1"
    input: "conv3_4/x2_1"
    output: "concat_3_4_1"
    op_type: "Concat"
    attribute {
      name: "axis"
      i: 1
      type: INT
    }
  }
  node {
    input: "concat_3_4_1"
    input: "conv3_5/x1/bn_scale_0"
    input: "conv3_5/x1/bn_bias_0"
    input: "conv3_5/x1/bn_mean_0"
    input: "conv3_5/x1/bn_var_0"
    output: "conv3_5/x1/bn_1"
    op_type: "BatchNormalization"
    attribute {
      name: "epsilon"
      f: 1e-05
      type: FLOAT
    }
  }
  node {
    input: "conv3_5/x1/bn_w_0"
    output: "OC2_DUMMY_44"
    op_type: "Unsqueeze"
    attribute {
      name: "axes"
      ints: 1
      ints: 2
      type: INTS
    }
  }
  node {
    input: "conv3_5/x1/bn_1"
    input: "OC2_DUMMY_44"
    output: "conv3_5/x1/bn_internal_1"
    op_type: "Mul"
  }
  node {
    input: "conv3_5/x1/bn_b_0"
    output: "OC2_DUMMY_45"
    op_type: "Unsqueeze"
    attribute {
      name: "axes"
      ints: 1
      ints: 2
      type: INTS
    }
  }
  node {
    input: "conv3_5/x1/bn_internal_1"
    input: "OC2_DUMMY_45"
    output: "conv3_5/x1/bn_2"
    op_type: "Add"
  }
  node {
    input: "conv3_5/x1/bn_2"
    output: "conv3_5/x1/bn_3"
    op_type: "Relu"
  }
  node {
    input: "conv3_5/x1/bn_3"
    input: "conv3_5/x1_w_0"
    output: "conv3_5/x1_1"
    op_type: "Conv"
    attribute {
      name: "strides"
      ints: 1
      ints: 1
      type: INTS
    }
    attribute {
      name: "pads"
      ints: 0
      ints: 0
      ints: 0
      ints: 0
      type: INTS
    }
    attribute {
      name: "kernel_shape"
      ints: 1
      ints: 1
      type: INTS
    }
  }
  node {
    input: "conv3_5/x1_1"
    input: "conv3_5/x2/bn_scale_0"
    input: "conv3_5/x2/bn_bias_0"
    input: "conv3_5/x2/bn_mean_0"
    input: "conv3_5/x2/bn_var_0"
    output: "conv3_5/x2/bn_1"
    op_type: "BatchNormalization"
    attribute {
      name: "epsilon"
      f: 1e-05
      type: FLOAT
    }
  }
  node {
    input: "conv3_5/x2/bn_w_0"
    output: "OC2_DUMMY_46"
    op_type: "Unsqueeze"
    attribute {
      name: "axes"
      ints: 1
      ints: 2
      type: INTS
    }
  }
  node {
    input: "conv3_5/x2/bn_1"
    input: "OC2_DUMMY_46"
    output: "conv3_5/x2/bn_internal_1"
    op_type: "Mul"
  }
  node {
    input: "conv3_5/x2/bn_b_0"
    output: "OC2_DUMMY_47"
    op_type: "Unsqueeze"
    attribute {
      name: "axes"
      ints: 1
      ints: 2
      type: INTS
    }
  }
  node {
    input: "conv3_5/x2/bn_internal_1"
    input: "OC2_DUMMY_47"
    output: "conv3_5/x2/bn_2"
    op_type: "Add"
  }
  node {
    input: "conv3_5/x2/bn_2"
    output: "conv3_5/x2/bn_3"
    op_type: "Relu"
  }
  node {
    input: "conv3_5/x2/bn_3"
    input: "conv3_5/x2_w_0"
    output: "conv3_5/x2_1"
    op_type: "Conv"
    attribute {
      name: "strides"
      ints: 1
      ints: 1
      type: INTS
    }
    attribute {
      name: "pads"
      ints: 1
      ints: 1
      ints: 1
      ints: 1
      type: INTS
    }
    attribute {
      name: "kernel_shape"
      ints: 3
      ints: 3
      type: INTS
    }
  }
  node {
    input: "concat_3_4_1"
    input: "conv3_5/x2_1"
    output: "concat_3_5_1"
    op_type: "Concat"
    attribute {
      name: "axis"
      i: 1
      type: INT
    }
  }
  node {
    input: "concat_3_5_1"
    input: "conv3_6/x1/bn_scale_0"
    input: "conv3_6/x1/bn_bias_0"
    input: "conv3_6/x1/bn_mean_0"
    input: "conv3_6/x1/bn_var_0"
    output: "conv3_6/x1/bn_1"
    op_type: "BatchNormalization"
    attribute {
      name: "epsilon"
      f: 1e-05
      type: FLOAT
    }
  }
  node {
    input: "conv3_6/x1/bn_w_0"
    output: "OC2_DUMMY_48"
    op_type: "Unsqueeze"
    attribute {
      name: "axes"
      ints: 1
      ints: 2
      type: INTS
    }
  }
  node {
    input: "conv3_6/x1/bn_1"
    input: "OC2_DUMMY_48"
    output: "conv3_6/x1/bn_internal_1"
    op_type: "Mul"
  }
  node {
    input: "conv3_6/x1/bn_b_0"
    output: "OC2_DUMMY_49"
    op_type: "Unsqueeze"
    attribute {
      name: "axes"
      ints: 1
      ints: 2
      type: INTS
    }
  }
  node {
    input: "conv3_6/x1/bn_internal_1"
    input: "OC2_DUMMY_49"
    output: "conv3_6/x1/bn_2"
    op_type: "Add"
  }
  node {
    input: "conv3_6/x1/bn_2"
    output: "conv3_6/x1/bn_3"
    op_type: "Relu"
  }
  node {
    input: "conv3_6/x1/bn_3"
    input: "conv3_6/x1_w_0"
    output: "conv3_6/x1_1"
    op_type: "Conv"
    attribute {
      name: "strides"
      ints: 1
      ints: 1
      type: INTS
    }
    attribute {
      name: "pads"
      ints: 0
      ints: 0
      ints: 0
      ints: 0
      type: INTS
    }
    attribute {
      name: "kernel_shape"
      ints: 1
      ints: 1
      type: INTS
    }
  }
  node {
    input: "conv3_6/x1_1"
    input: "conv3_6/x2/bn_scale_0"
    input: "conv3_6/x2/bn_bias_0"
    input: "conv3_6/x2/bn_mean_0"
    input: "conv3_6/x2/bn_var_0"
    output: "conv3_6/x2/bn_1"
    op_type: "BatchNormalization"
    attribute {
      name: "epsilon"
      f: 1e-05
      type: FLOAT
    }
  }
  node {
    input: "conv3_6/x2/bn_w_0"
    output: "OC2_DUMMY_50"
    op_type: "Unsqueeze"
    attribute {
      name: "axes"
      ints: 1
      ints: 2
      type: INTS
    }
  }
  node {
    input: "conv3_6/x2/bn_1"
    input: "OC2_DUMMY_50"
    output: "conv3_6/x2/bn_internal_1"
    op_type: "Mul"
  }
  node {
    input: "conv3_6/x2/bn_b_0"
    output: "OC2_DUMMY_51"
    op_type: "Unsqueeze"
    attribute {
      name: "axes"
      ints: 1
      ints: 2
      type: INTS
    }
  }
  node {
    input: "conv3_6/x2/bn_internal_1"
    input: "OC2_DUMMY_51"
    output: "conv3_6/x2/bn_2"
    op_type: "Add"
  }
  node {
    input: "conv3_6/x2/bn_2"
    output: "conv3_6/x2/bn_3"
    op_type: "Relu"
  }
  node {
    input: "conv3_6/x2/bn_3"
    input: "conv3_6/x2_w_0"
    output: "conv3_6/x2_1"
    op_type: "Conv"
    attribute {
      name: "strides"
      ints: 1
      ints: 1
      type: INTS
    }
    attribute {
      name: "pads"
      ints: 1
      ints: 1
      ints: 1
      ints: 1
      type: INTS
    }
    attribute {
      name: "kernel_shape"
      ints: 3
      ints: 3
      type: INTS
    }
  }
  node {
    input: "concat_3_5_1"
    input: "conv3_6/x2_1"
    output: "concat_3_6_1"
    op_type: "Concat"
    attribute {
      name: "axis"
      i: 1
      type: INT
    }
  }
  node {
    input: "concat_3_6_1"
    input: "conv3_7/x1/bn_scale_0"
    input: "conv3_7/x1/bn_bias_0"
    input: "conv3_7/x1/bn_mean_0"
    input: "conv3_7/x1/bn_var_0"
    output: "conv3_7/x1/bn_1"
    op_type: "BatchNormalization"
    attribute {
      name: "epsilon"
      f: 1e-05
      type: FLOAT
    }
  }
  node {
    input: "conv3_7/x1/bn_w_0"
    output: "OC2_DUMMY_52"
    op_type: "Unsqueeze"
    attribute {
      name: "axes"
      ints: 1
      ints: 2
      type: INTS
    }
  }
  node {
    input: "conv3_7/x1/bn_1"
    input: "OC2_DUMMY_52"
    output: "conv3_7/x1/bn_internal_1"
    op_type: "Mul"
  }
  node {
    input: "conv3_7/x1/bn_b_0"
    output: "OC2_DUMMY_53"
    op_type: "Unsqueeze"
    attribute {
      name: "axes"
      ints: 1
      ints: 2
      type: INTS
    }
  }
  node {
    input: "conv3_7/x1/bn_internal_1"
    input: "OC2_DUMMY_53"
    output: "conv3_7/x1/bn_2"
    op_type: "Add"
  }
  node {
    input: "conv3_7/x1/bn_2"
    output: "conv3_7/x1/bn_3"
    op_type: "Relu"
  }
  node {
    input: "conv3_7/x1/bn_3"
    input: "conv3_7/x1_w_0"
    output: "conv3_7/x1_1"
    op_type: "Conv"
    attribute {
      name: "strides"
      ints: 1
      ints: 1
      type: INTS
    }
    attribute {
      name: "pads"
      ints: 0
      ints: 0
      ints: 0
      ints: 0
      type: INTS
    }
    attribute {
      name: "kernel_shape"
      ints: 1
      ints: 1
      type: INTS
    }
  }
  node {
    input: "conv3_7/x1_1"
    input: "conv3_7/x2/bn_scale_0"
    input: "conv3_7/x2/bn_bias_0"
    input: "conv3_7/x2/bn_mean_0"
    input: "conv3_7/x2/bn_var_0"
    output: "conv3_7/x2/bn_1"
    op_type: "BatchNormalization"
    attribute {
      name: "epsilon"
      f: 1e-05
      type: FLOAT
    }
  }
  node {
    input: "conv3_7/x2/bn_w_0"
    output: "OC2_DUMMY_54"
    op_type: "Unsqueeze"
    attribute {
      name: "axes"
      ints: 1
      ints: 2
      type: INTS
    }
  }
  node {
    input: "conv3_7/x2/bn_1"
    input: "OC2_DUMMY_54"
    output: "conv3_7/x2/bn_internal_1"
    op_type: "Mul"
  }
  node {
    input: "conv3_7/x2/bn_b_0"
    output: "OC2_DUMMY_55"
    op_type: "Unsqueeze"
    attribute {
      name: "axes"
      ints: 1
      ints: 2
      type: INTS
    }
  }
  node {
    input: "conv3_7/x2/bn_internal_1"
    input: "OC2_DUMMY_55"
    output: "conv3_7/x2/bn_2"
    op_type: "Add"
  }
  node {
    input: "conv3_7/x2/bn_2"
    output: "conv3_7/x2/bn_3"
    op_type: "Relu"
  }
  node {
    input: "conv3_7/x2/bn_3"
    input: "conv3_7/x2_w_0"
    output: "conv3_7/x2_1"
    op_type: "Conv"
    attribute {
      name: "strides"
      ints: 1
      ints: 1
      type: INTS
    }
    attribute {
      name: "pads"
      ints: 1
      ints: 1
      ints: 1
      ints: 1
      type: INTS
    }
    attribute {
      name: "kernel_shape"
      ints: 3
      ints: 3
      type: INTS
    }
  }
  node {
    input: "concat_3_6_1"
    input: "conv3_7/x2_1"
    output: "concat_3_7_1"
    op_type: "Concat"
    attribute {
      name: "axis"
      i: 1
      type: INT
    }
  }
  node {
    input: "concat_3_7_1"
    input: "conv3_8/x1/bn_scale_0"
    input: "conv3_8/x1/bn_bias_0"
    input: "conv3_8/x1/bn_mean_0"
    input: "conv3_8/x1/bn_var_0"
    output: "conv3_8/x1/bn_1"
    op_type: "BatchNormalization"
    attribute {
      name: "epsilon"
      f: 1e-05
      type: FLOAT
    }
  }
  node {
    input: "conv3_8/x1/bn_w_0"
    output: "OC2_DUMMY_56"
    op_type: "Unsqueeze"
    attribute {
      name: "axes"
      ints: 1
      ints: 2
      type: INTS
    }
  }
  node {
    input: "conv3_8/x1/bn_1"
    input: "OC2_DUMMY_56"
    output: "conv3_8/x1/bn_internal_1"
    op_type: "Mul"
  }
  node {
    input: "conv3_8/x1/bn_b_0"
    output: "OC2_DUMMY_57"
    op_type: "Unsqueeze"
    attribute {
      name: "axes"
      ints: 1
      ints: 2
      type: INTS
    }
  }
  node {
    input: "conv3_8/x1/bn_internal_1"
    input: "OC2_DUMMY_57"
    output: "conv3_8/x1/bn_2"
    op_type: "Add"
  }
  node {
    input: "conv3_8/x1/bn_2"
    output: "conv3_8/x1/bn_3"
    op_type: "Relu"
  }
  node {
    input: "conv3_8/x1/bn_3"
    input: "conv3_8/x1_w_0"
    output: "conv3_8/x1_1"
    op_type: "Conv"
    attribute {
      name: "strides"
      ints: 1
      ints: 1
      type: INTS
    }
    attribute {
      name: "pads"
      ints: 0
      ints: 0
      ints: 0
      ints: 0
      type: INTS
    }
    attribute {
      name: "kernel_shape"
      ints: 1
      ints: 1
      type: INTS
    }
  }
  node {
    input: "conv3_8/x1_1"
    input: "conv3_8/x2/bn_scale_0"
    input: "conv3_8/x2/bn_bias_0"
    input: "conv3_8/x2/bn_mean_0"
    input: "conv3_8/x2/bn_var_0"
    output: "conv3_8/x2/bn_1"
    op_type: "BatchNormalization"
    attribute {
      name: "epsilon"
      f: 1e-05
      type: FLOAT
    }
  }
  node {
    input: "conv3_8/x2/bn_w_0"
    output: "OC2_DUMMY_58"
    op_type: "Unsqueeze"
    attribute {
      name: "axes"
      ints: 1
      ints: 2
      type: INTS
    }
  }
  node {
    input: "conv3_8/x2/bn_1"
    input: "OC2_DUMMY_58"
    output: "conv3_8/x2/bn_internal_1"
    op_type: "Mul"
  }
  node {
    input: "conv3_8/x2/bn_b_0"
    output: "OC2_DUMMY_59"
    op_type: "Unsqueeze"
    attribute {
      name: "axes"
      ints: 1
      ints: 2
      type: INTS
    }
  }
  node {
    input: "conv3_8/x2/bn_internal_1"
    input: "OC2_DUMMY_59"
    output: "conv3_8/x2/bn_2"
    op_type: "Add"
  }
  node {
    input: "conv3_8/x2/bn_2"
    output: "conv3_8/x2/bn_3"
    op_type: "Relu"
  }
  node {
    input: "conv3_8/x2/bn_3"
    input: "conv3_8/x2_w_0"
    output: "conv3_8/x2_1"
    op_type: "Conv"
    attribute {
      name: "strides"
      ints: 1
      ints: 1
      type: INTS
    }
    attribute {
      name: "pads"
      ints: 1
      ints: 1
      ints: 1
      ints: 1
      type: INTS
    }
    attribute {
      name: "kernel_shape"
      ints: 3
      ints: 3
      type: INTS
    }
  }
  node {
    input: "concat_3_7_1"
    input: "conv3_8/x2_1"
    output: "concat_3_8_1"
    op_type: "Concat"
    attribute {
      name: "axis"
      i: 1
      type: INT
    }
  }
  node {
    input: "concat_3_8_1"
    input: "conv3_9/x1/bn_scale_0"
    input: "conv3_9/x1/bn_bias_0"
    input: "conv3_9/x1/bn_mean_0"
    input: "conv3_9/x1/bn_var_0"
    output: "conv3_9/x1/bn_1"
    op_type: "BatchNormalization"
    attribute {
      name: "epsilon"
      f: 1e-05
      type: FLOAT
    }
  }
  node {
    input: "conv3_9/x1/bn_w_0"
    output: "OC2_DUMMY_60"
    op_type: "Unsqueeze"
    attribute {
      name: "axes"
      ints: 1
      ints: 2
      type: INTS
    }
  }
  node {
    input: "conv3_9/x1/bn_1"
    input: "OC2_DUMMY_60"
    output: "conv3_9/x1/bn_internal_1"
    op_type: "Mul"
  }
  node {
    input: "conv3_9/x1/bn_b_0"
    output: "OC2_DUMMY_61"
    op_type: "Unsqueeze"
    attribute {
      name: "axes"
      ints: 1
      ints: 2
      type: INTS
    }
  }
  node {
    input: "conv3_9/x1/bn_internal_1"
    input: "OC2_DUMMY_61"
    output: "conv3_9/x1/bn_2"
    op_type: "Add"
  }
  node {
    input: "conv3_9/x1/bn_2"
    output: "conv3_9/x1/bn_3"
    op_type: "Relu"
  }
  node {
    input: "conv3_9/x1/bn_3"
    input: "conv3_9/x1_w_0"
    output: "conv3_9/x1_1"
    op_type: "Conv"
    attribute {
      name: "strides"
      ints: 1
      ints: 1
      type: INTS
    }
    attribute {
      name: "pads"
      ints: 0
      ints: 0
      ints: 0
      ints: 0
      type: INTS
    }
    attribute {
      name: "kernel_shape"
      ints: 1
      ints: 1
      type: INTS
    }
  }
  node {
    input: "conv3_9/x1_1"
    input: "conv3_9/x2/bn_scale_0"
    input: "conv3_9/x2/bn_bias_0"
    input: "conv3_9/x2/bn_mean_0"
    input: "conv3_9/x2/bn_var_0"
    output: "conv3_9/x2/bn_1"
    op_type: "BatchNormalization"
    attribute {
      name: "epsilon"
      f: 1e-05
      type: FLOAT
    }
  }
  node {
    input: "conv3_9/x2/bn_w_0"
    output: "OC2_DUMMY_62"
    op_type: "Unsqueeze"
    attribute {
      name: "axes"
      ints: 1
      ints: 2
      type: INTS
    }
  }
  node {
    input: "conv3_9/x2/bn_1"
    input: "OC2_DUMMY_62"
    output: "conv3_9/x2/bn_internal_1"
    op_type: "Mul"
  }
  node {
    input: "conv3_9/x2/bn_b_0"
    output: "OC2_DUMMY_63"
    op_type: "Unsqueeze"
    attribute {
      name: "axes"
      ints: 1
      ints: 2
      type: INTS
    }
  }
  node {
    input: "conv3_9/x2/bn_internal_1"
    input: "OC2_DUMMY_63"
    output: "conv3_9/x2/bn_2"
    op_type: "Add"
  }
  node {
    input: "conv3_9/x2/bn_2"
    output: "conv3_9/x2/bn_3"
    op_type: "Relu"
  }
  node {
    input: "conv3_9/x2/bn_3"
    input: "conv3_9/x2_w_0"
    output: "conv3_9/x2_1"
    op_type: "Conv"
    attribute {
      name: "strides"
      ints: 1
      ints: 1
      type: INTS
    }
    attribute {
      name: "pads"
      ints: 1
      ints: 1
      ints: 1
      ints: 1
      type: INTS
    }
    attribute {
      name: "kernel_shape"
      ints: 3
      ints: 3
      type: INTS
    }
  }
  node {
    input: "concat_3_8_1"
    input: "conv3_9/x2_1"
    output: "concat_3_9_1"
    op_type: "Concat"
    attribute {
      name: "axis"
      i: 1
      type: INT
    }
  }
  node {
    input: "concat_3_9_1"
    input: "conv3_10/x1/bn_scale_0"
    input: "conv3_10/x1/bn_bias_0"
    input: "conv3_10/x1/bn_mean_0"
    input: "conv3_10/x1/bn_var_0"
    output: "conv3_10/x1/bn_1"
    op_type: "BatchNormalization"
    attribute {
      name: "epsilon"
      f: 1e-05
      type: FLOAT
    }
  }
  node {
    input: "conv3_10/x1/bn_w_0"
    output: "OC2_DUMMY_64"
    op_type: "Unsqueeze"
    attribute {
      name: "axes"
      ints: 1
      ints: 2
      type: INTS
    }
  }
  node {
    input: "conv3_10/x1/bn_1"
    input: "OC2_DUMMY_64"
    output: "conv3_10/x1/bn_internal_1"
    op_type: "Mul"
  }
  node {
    input: "conv3_10/x1/bn_b_0"
    output: "OC2_DUMMY_65"
    op_type: "Unsqueeze"
    attribute {
      name: "axes"
      ints: 1
      ints: 2
      type: INTS
    }
  }
  node {
    input: "conv3_10/x1/bn_internal_1"
    input: "OC2_DUMMY_65"
    output: "conv3_10/x1/bn_2"
    op_type: "Add"
  }
  node {
    input: "conv3_10/x1/bn_2"
    output: "conv3_10/x1/bn_3"
    op_type: "Relu"
  }
  node {
    input: "conv3_10/x1/bn_3"
    input: "conv3_10/x1_w_0"
    output: "conv3_10/x1_1"
    op_type: "Conv"
    attribute {
      name: "strides"
      ints: 1
      ints: 1
      type: INTS
    }
    attribute {
      name: "pads"
      ints: 0
      ints: 0
      ints: 0
      ints: 0
      type: INTS
    }
    attribute {
      name: "kernel_shape"
      ints: 1
      ints: 1
      type: INTS
    }
  }
  node {
    input: "conv3_10/x1_1"
    input: "conv3_10/x2/bn_scale_0"
    input: "conv3_10/x2/bn_bias_0"
    input: "conv3_10/x2/bn_mean_0"
    input: "conv3_10/x2/bn_var_0"
    output: "conv3_10/x2/bn_1"
    op_type: "BatchNormalization"
    attribute {
      name: "epsilon"
      f: 1e-05
      type: FLOAT
    }
  }
  node {
    input: "conv3_10/x2/bn_w_0"
    output: "OC2_DUMMY_66"
    op_type: "Unsqueeze"
    attribute {
      name: "axes"
      ints: 1
      ints: 2
      type: INTS
    }
  }
  node {
    input: "conv3_10/x2/bn_1"
    input: "OC2_DUMMY_66"
    output: "conv3_10/x2/bn_internal_1"
    op_type: "Mul"
  }
  node {
    input: "conv3_10/x2/bn_b_0"
    output: "OC2_DUMMY_67"
    op_type: "Unsqueeze"
    attribute {
      name: "axes"
      ints: 1
      ints: 2
      type: INTS
    }
  }
  node {
    input: "conv3_10/x2/bn_internal_1"
    input: "OC2_DUMMY_67"
    output: "conv3_10/x2/bn_2"
    op_type: "Add"
  }
  node {
    input: "conv3_10/x2/bn_2"
    output: "conv3_10/x2/bn_3"
    op_type: "Relu"
  }
  node {
    input: "conv3_10/x2/bn_3"
    input: "conv3_10/x2_w_0"
    output: "conv3_10/x2_1"
    op_type: "Conv"
    attribute {
      name: "strides"
      ints: 1
      ints: 1
      type: INTS
    }
    attribute {
      name: "pads"
      ints: 1
      ints: 1
      ints: 1
      ints: 1
      type: INTS
    }
    attribute {
      name: "kernel_shape"
      ints: 3
      ints: 3
      type: INTS
    }
  }
  node {
    input: "concat_3_9_1"
    input: "conv3_10/x2_1"
    output: "concat_3_10_1"
    op_type: "Concat"
    attribute {
      name: "axis"
      i: 1
      type: INT
    }
  }
  node {
    input: "concat_3_10_1"
    input: "conv3_11/x1/bn_scale_0"
    input: "conv3_11/x1/bn_bias_0"
    input: "conv3_11/x1/bn_mean_0"
    input: "conv3_11/x1/bn_var_0"
    output: "conv3_11/x1/bn_1"
    op_type: "BatchNormalization"
    attribute {
      name: "epsilon"
      f: 1e-05
      type: FLOAT
    }
  }
  node {
    input: "conv3_11/x1/bn_w_0"
    output: "OC2_DUMMY_68"
    op_type: "Unsqueeze"
    attribute {
      name: "axes"
      ints: 1
      ints: 2
      type: INTS
    }
  }
  node {
    input: "conv3_11/x1/bn_1"
    input: "OC2_DUMMY_68"
    output: "conv3_11/x1/bn_internal_1"
    op_type: "Mul"
  }
  node {
    input: "conv3_11/x1/bn_b_0"
    output: "OC2_DUMMY_69"
    op_type: "Unsqueeze"
    attribute {
      name: "axes"
      ints: 1
      ints: 2
      type: INTS
    }
  }
  node {
    input: "conv3_11/x1/bn_internal_1"
    input: "OC2_DUMMY_69"
    output: "conv3_11/x1/bn_2"
    op_type: "Add"
  }
  node {
    input: "conv3_11/x1/bn_2"
    output: "conv3_11/x1/bn_3"
    op_type: "Relu"
  }
  node {
    input: "conv3_11/x1/bn_3"
    input: "conv3_11/x1_w_0"
    output: "conv3_11/x1_1"
    op_type: "Conv"
    attribute {
      name: "strides"
      ints: 1
      ints: 1
      type: INTS
    }
    attribute {
      name: "pads"
      ints: 0
      ints: 0
      ints: 0
      ints: 0
      type: INTS
    }
    attribute {
      name: "kernel_shape"
      ints: 1
      ints: 1
      type: INTS
    }
  }
  node {
    input: "conv3_11/x1_1"
    input: "conv3_11/x2/bn_scale_0"
    input: "conv3_11/x2/bn_bias_0"
    input: "conv3_11/x2/bn_mean_0"
    input: "conv3_11/x2/bn_var_0"
    output: "conv3_11/x2/bn_1"
    op_type: "BatchNormalization"
    attribute {
      name: "epsilon"
      f: 1e-05
      type: FLOAT
    }
  }
  node {
    input: "conv3_11/x2/bn_w_0"
    output: "OC2_DUMMY_70"
    op_type: "Unsqueeze"
    attribute {
      name: "axes"
      ints: 1
      ints: 2
      type: INTS
    }
  }
  node {
    input: "conv3_11/x2/bn_1"
    input: "OC2_DUMMY_70"
    output: "conv3_11/x2/bn_internal_1"
    op_type: "Mul"
  }
  node {
    input: "conv3_11/x2/bn_b_0"
    output: "OC2_DUMMY_71"
    op_type: "Unsqueeze"
    attribute {
      name: "axes"
      ints: 1
      ints: 2
      type: INTS
    }
  }
  node {
    input: "conv3_11/x2/bn_internal_1"
    input: "OC2_DUMMY_71"
    output: "conv3_11/x2/bn_2"
    op_type: "Add"
  }
  node {
    input: "conv3_11/x2/bn_2"
    output: "conv3_11/x2/bn_3"
    op_type: "Relu"
  }
  node {
    input: "conv3_11/x2/bn_3"
    input: "conv3_11/x2_w_0"
    output: "conv3_11/x2_1"
    op_type: "Conv"
    attribute {
      name: "strides"
      ints: 1
      ints: 1
      type: INTS
    }
    attribute {
      name: "pads"
      ints: 1
      ints: 1
      ints: 1
      ints: 1
      type: INTS
    }
    attribute {
      name: "kernel_shape"
      ints: 3
      ints: 3
      type: INTS
    }
  }
  node {
    input: "concat_3_10_1"
    input: "conv3_11/x2_1"
    output: "concat_3_11_1"
    op_type: "Concat"
    attribute {
      name: "axis"
      i: 1
      type: INT
    }
  }
  node {
    input: "concat_3_11_1"
    input: "conv3_12/x1/bn_scale_0"
    input: "conv3_12/x1/bn_bias_0"
    input: "conv3_12/x1/bn_mean_0"
    input: "conv3_12/x1/bn_var_0"
    output: "conv3_12/x1/bn_1"
    op_type: "BatchNormalization"
    attribute {
      name: "epsilon"
      f: 1e-05
      type: FLOAT
    }
  }
  node {
    input: "conv3_12/x1/bn_w_0"
    output: "OC2_DUMMY_72"
    op_type: "Unsqueeze"
    attribute {
      name: "axes"
      ints: 1
      ints: 2
      type: INTS
    }
  }
  node {
    input: "conv3_12/x1/bn_1"
    input: "OC2_DUMMY_72"
    output: "conv3_12/x1/bn_internal_1"
    op_type: "Mul"
  }
  node {
    input: "conv3_12/x1/bn_b_0"
    output: "OC2_DUMMY_73"
    op_type: "Unsqueeze"
    attribute {
      name: "axes"
      ints: 1
      ints: 2
      type: INTS
    }
  }
  node {
    input: "conv3_12/x1/bn_internal_1"
    input: "OC2_DUMMY_73"
    output: "conv3_12/x1/bn_2"
    op_type: "Add"
  }
  node {
    input: "conv3_12/x1/bn_2"
    output: "conv3_12/x1/bn_3"
    op_type: "Relu"
  }
  node {
    input: "conv3_12/x1/bn_3"
    input: "conv3_12/x1_w_0"
    output: "conv3_12/x1_1"
    op_type: "Conv"
    attribute {
      name: "strides"
      ints: 1
      ints: 1
      type: INTS
    }
    attribute {
      name: "pads"
      ints: 0
      ints: 0
      ints: 0
      ints: 0
      type: INTS
    }
    attribute {
      name: "kernel_shape"
      ints: 1
      ints: 1
      type: INTS
    }
  }
  node {
    input: "conv3_12/x1_1"
    input: "conv3_12/x2/bn_scale_0"
    input: "conv3_12/x2/bn_bias_0"
    input: "conv3_12/x2/bn_mean_0"
    input: "conv3_12/x2/bn_var_0"
    output: "conv3_12/x2/bn_1"
    op_type: "BatchNormalization"
    attribute {
      name: "epsilon"
      f: 1e-05
      type: FLOAT
    }
  }
  node {
    input: "conv3_12/x2/bn_w_0"
    output: "OC2_DUMMY_74"
    op_type: "Unsqueeze"
    attribute {
      name: "axes"
      ints: 1
      ints: 2
      type: INTS
    }
  }
  node {
    input: "conv3_12/x2/bn_1"
    input: "OC2_DUMMY_74"
    output: "conv3_12/x2/bn_internal_1"
    op_type: "Mul"
  }
  node {
    input: "conv3_12/x2/bn_b_0"
    output: "OC2_DUMMY_75"
    op_type: "Unsqueeze"
    attribute {
      name: "axes"
      ints: 1
      ints: 2
      type: INTS
    }
  }
  node {
    input: "conv3_12/x2/bn_internal_1"
    input: "OC2_DUMMY_75"
    output: "conv3_12/x2/bn_2"
    op_type: "Add"
  }
  node {
    input: "conv3_12/x2/bn_2"
    output: "conv3_12/x2/bn_3"
    op_type: "Relu"
  }
  node {
    input: "conv3_12/x2/bn_3"
    input: "conv3_12/x2_w_0"
    output: "conv3_12/x2_1"
    op_type: "Conv"
    attribute {
      name: "strides"
      ints: 1
      ints: 1
      type: INTS
    }
    attribute {
      name: "pads"
      ints: 1
      ints: 1
      ints: 1
      ints: 1
      type: INTS
    }
    attribute {
      name: "kernel_shape"
      ints: 3
      ints: 3
      type: INTS
    }
  }
  node {
    input: "concat_3_11_1"
    input: "conv3_12/x2_1"
    output: "concat_3_12_1"
    op_type: "Concat"
    attribute {
      name: "axis"
      i: 1
      type: INT
    }
  }
  node {
    input: "concat_3_12_1"
    input: "conv3_blk/bn_scale_0"
    input: "conv3_blk/bn_bias_0"
    input: "conv3_blk/bn_mean_0"
    input: "conv3_blk/bn_var_0"
    output: "conv3_blk/bn_1"
    op_type: "BatchNormalization"
    attribute {
      name: "epsilon"
      f: 1e-05
      type: FLOAT
    }
  }
  node {
    input: "conv3_blk/bn_w_0"
    output: "OC2_DUMMY_76"
    op_type: "Unsqueeze"
    attribute {
      name: "axes"
      ints: 1
      ints: 2
      type: INTS
    }
  }
  node {
    input: "conv3_blk/bn_1"
    input: "OC2_DUMMY_76"
    output: "conv3_blk/bn_internal_1"
    op_type: "Mul"
  }
  node {
    input: "conv3_blk/bn_b_0"
    output: "OC2_DUMMY_77"
    op_type: "Unsqueeze"
    attribute {
      name: "axes"
      ints: 1
      ints: 2
      type: INTS
    }
  }
  node {
    input: "conv3_blk/bn_internal_1"
    input: "OC2_DUMMY_77"
    output: "conv3_blk/bn_2"
    op_type: "Add"
  }
  node {
    input: "conv3_blk/bn_2"
    output: "conv3_blk/bn_3"
    op_type: "Relu"
  }
  node {
    input: "conv3_blk/bn_3"
    input: "conv3_blk_w_0"
    output: "conv3_blk_1"
    op_type: "Conv"
    attribute {
      name: "strides"
      ints: 1
      ints: 1
      type: INTS
    }
    attribute {
      name: "pads"
      ints: 0
      ints: 0
      ints: 0
      ints: 0
      type: INTS
    }
    attribute {
      name: "kernel_shape"
      ints: 1
      ints: 1
      type: INTS
    }
  }
  node {
    input: "conv3_blk_1"
    output: "pool3_1"
    op_type: "AveragePool"
    attribute {
      name: "strides"
      ints: 2
      ints: 2
      type: INTS
    }
    attribute {
      name: "pads"
      ints: 0
      ints: 0
      ints: 0
      ints: 0
      type: INTS
    }
    attribute {
      name: "kernel_shape"
      ints: 2
      ints: 2
      type: INTS
    }
  }
  node {
    input: "pool3_1"
    input: "conv4_1/x1/bn_scale_0"
    input: "conv4_1/x1/bn_bias_0"
    input: "conv4_1/x1/bn_mean_0"
    input: "conv4_1/x1/bn_var_0"
    output: "conv4_1/x1/bn_1"
    op_type: "BatchNormalization"
    attribute {
      name: "epsilon"
      f: 1e-05
      type: FLOAT
    }
  }
  node {
    input: "conv4_1/x1/bn_w_0"
    output: "OC2_DUMMY_78"
    op_type: "Unsqueeze"
    attribute {
      name: "axes"
      ints: 1
      ints: 2
      type: INTS
    }
  }
  node {
    input: "conv4_1/x1/bn_1"
    input: "OC2_DUMMY_78"
    output: "conv4_1/x1/bn_internal_1"
    op_type: "Mul"
  }
  node {
    input: "conv4_1/x1/bn_b_0"
    output: "OC2_DUMMY_79"
    op_type: "Unsqueeze"
    attribute {
      name: "axes"
      ints: 1
      ints: 2
      type: INTS
    }
  }
  node {
    input: "conv4_1/x1/bn_internal_1"
    input: "OC2_DUMMY_79"
    output: "conv4_1/x1/bn_2"
    op_type: "Add"
  }
  node {
    input: "conv4_1/x1/bn_2"
    output: "conv4_1/x1/bn_3"
    op_type: "Relu"
  }
  node {
    input: "conv4_1/x1/bn_3"
    input: "conv4_1/x1_w_0"
    output: "conv4_1/x1_1"
    op_type: "Conv"
    attribute {
      name: "strides"
      ints: 1
      ints: 1
      type: INTS
    }
    attribute {
      name: "pads"
      ints: 0
      ints: 0
      ints: 0
      ints: 0
      type: INTS
    }
    attribute {
      name: "kernel_shape"
      ints: 1
      ints: 1
      type: INTS
    }
  }
  node {
    input: "conv4_1/x1_1"
    input: "conv4_1/x2/bn_scale_0"
    input: "conv4_1/x2/bn_bias_0"
    input: "conv4_1/x2/bn_mean_0"
    input: "conv4_1/x2/bn_var_0"
    output: "conv4_1/x2/bn_1"
    op_type: "BatchNormalization"
    attribute {
      name: "epsilon"
      f: 1e-05
      type: FLOAT
    }
  }
  node {
    input: "conv4_1/x2/bn_w_0"
    output: "OC2_DUMMY_80"
    op_type: "Unsqueeze"
    attribute {
      name: "axes"
      ints: 1
      ints: 2
      type: INTS
    }
  }
  node {
    input: "conv4_1/x2/bn_1"
    input: "OC2_DUMMY_80"
    output: "conv4_1/x2/bn_internal_1"
    op_type: "Mul"
  }
  node {
    input: "conv4_1/x2/bn_b_0"
    output: "OC2_DUMMY_81"
    op_type: "Unsqueeze"
    attribute {
      name: "axes"
      ints: 1
      ints: 2
      type: INTS
    }
  }
  node {
    input: "conv4_1/x2/bn_internal_1"
    input: "OC2_DUMMY_81"
    output: "conv4_1/x2/bn_2"
    op_type: "Add"
  }
  node {
    input: "conv4_1/x2/bn_2"
    output: "conv4_1/x2/bn_3"
    op_type: "Relu"
  }
  node {
    input: "conv4_1/x2/bn_3"
    input: "conv4_1/x2_w_0"
    output: "conv4_1/x2_1"
    op_type: "Conv"
    attribute {
      name: "strides"
      ints: 1
      ints: 1
      type: INTS
    }
    attribute {
      name: "pads"
      ints: 1
      ints: 1
      ints: 1
      ints: 1
      type: INTS
    }
    attribute {
      name: "kernel_shape"
      ints: 3
      ints: 3
      type: INTS
    }
  }
  node {
    input: "pool3_1"
    input: "conv4_1/x2_1"
    output: "concat_4_1_1"
    op_type: "Concat"
    attribute {
      name: "axis"
      i: 1
      type: INT
    }
  }
  node {
    input: "concat_4_1_1"
    input: "conv4_2/x1/bn_scale_0"
    input: "conv4_2/x1/bn_bias_0"
    input: "conv4_2/x1/bn_mean_0"
    input: "conv4_2/x1/bn_var_0"
    output: "conv4_2/x1/bn_1"
    op_type: "BatchNormalization"
    attribute {
      name: "epsilon"
      f: 1e-05
      type: FLOAT
    }
  }
  node {
    input: "conv4_2/x1/bn_w_0"
    output: "OC2_DUMMY_82"
    op_type: "Unsqueeze"
    attribute {
      name: "axes"
      ints: 1
      ints: 2
      type: INTS
    }
  }
  node {
    input: "conv4_2/x1/bn_1"
    input: "OC2_DUMMY_82"
    output: "conv4_2/x1/bn_internal_1"
    op_type: "Mul"
  }
  node {
    input: "conv4_2/x1/bn_b_0"
    output: "OC2_DUMMY_83"
    op_type: "Unsqueeze"
    attribute {
      name: "axes"
      ints: 1
      ints: 2
      type: INTS
    }
  }
  node {
    input: "conv4_2/x1/bn_internal_1"
    input: "OC2_DUMMY_83"
    output: "conv4_2/x1/bn_2"
    op_type: "Add"
  }
  node {
    input: "conv4_2/x1/bn_2"
    output: "conv4_2/x1/bn_3"
    op_type: "Relu"
  }
  node {
    input: "conv4_2/x1/bn_3"
    input: "conv4_2/x1_w_0"
    output: "conv4_2/x1_1"
    op_type: "Conv"
    attribute {
      name: "strides"
      ints: 1
      ints: 1
      type: INTS
    }
    attribute {
      name: "pads"
      ints: 0
      ints: 0
      ints: 0
      ints: 0
      type: INTS
    }
    attribute {
      name: "kernel_shape"
      ints: 1
      ints: 1
      type: INTS
    }
  }
  node {
    input: "conv4_2/x1_1"
    input: "conv4_2/x2/bn_scale_0"
    input: "conv4_2/x2/bn_bias_0"
    input: "conv4_2/x2/bn_mean_0"
    input: "conv4_2/x2/bn_var_0"
    output: "conv4_2/x2/bn_1"
    op_type: "BatchNormalization"
    attribute {
      name: "epsilon"
      f: 1e-05
      type: FLOAT
    }
  }
  node {
    input: "conv4_2/x2/bn_w_0"
    output: "OC2_DUMMY_84"
    op_type: "Unsqueeze"
    attribute {
      name: "axes"
      ints: 1
      ints: 2
      type: INTS
    }
  }
  node {
    input: "conv4_2/x2/bn_1"
    input: "OC2_DUMMY_84"
    output: "conv4_2/x2/bn_internal_1"
    op_type: "Mul"
  }
  node {
    input: "conv4_2/x2/bn_b_0"
    output: "OC2_DUMMY_85"
    op_type: "Unsqueeze"
    attribute {
      name: "axes"
      ints: 1
      ints: 2
      type: INTS
    }
  }
  node {
    input: "conv4_2/x2/bn_internal_1"
    input: "OC2_DUMMY_85"
    output: "conv4_2/x2/bn_2"
    op_type: "Add"
  }
  node {
    input: "conv4_2/x2/bn_2"
    output: "conv4_2/x2/bn_3"
    op_type: "Relu"
  }
  node {
    input: "conv4_2/x2/bn_3"
    input: "conv4_2/x2_w_0"
    output: "conv4_2/x2_1"
    op_type: "Conv"
    attribute {
      name: "strides"
      ints: 1
      ints: 1
      type: INTS
    }
    attribute {
      name: "pads"
      ints: 1
      ints: 1
      ints: 1
      ints: 1
      type: INTS
    }
    attribute {
      name: "kernel_shape"
      ints: 3
      ints: 3
      type: INTS
    }
  }
  node {
    input: "concat_4_1_1"
    input: "conv4_2/x2_1"
    output: "concat_4_2_1"
    op_type: "Concat"
    attribute {
      name: "axis"
      i: 1
      type: INT
    }
  }
  node {
    input: "concat_4_2_1"
    input: "conv4_3/x1/bn_scale_0"
    input: "conv4_3/x1/bn_bias_0"
    input: "conv4_3/x1/bn_mean_0"
    input: "conv4_3/x1/bn_var_0"
    output: "conv4_3/x1/bn_1"
    op_type: "BatchNormalization"
    attribute {
      name: "epsilon"
      f: 1e-05
      type: FLOAT
    }
  }
  node {
    input: "conv4_3/x1/bn_w_0"
    output: "OC2_DUMMY_86"
    op_type: "Unsqueeze"
    attribute {
      name: "axes"
      ints: 1
      ints: 2
      type: INTS
    }
  }
  node {
    input: "conv4_3/x1/bn_1"
    input: "OC2_DUMMY_86"
    output: "conv4_3/x1/bn_internal_1"
    op_type: "Mul"
  }
  node {
    input: "conv4_3/x1/bn_b_0"
    output: "OC2_DUMMY_87"
    op_type: "Unsqueeze"
    attribute {
      name: "axes"
      ints: 1
      ints: 2
      type: INTS
    }
  }
  node {
    input: "conv4_3/x1/bn_internal_1"
    input: "OC2_DUMMY_87"
    output: "conv4_3/x1/bn_2"
    op_type: "Add"
  }
  node {
    input: "conv4_3/x1/bn_2"
    output: "conv4_3/x1/bn_3"
    op_type: "Relu"
  }
  node {
    input: "conv4_3/x1/bn_3"
    input: "conv4_3/x1_w_0"
    output: "conv4_3/x1_1"
    op_type: "Conv"
    attribute {
      name: "strides"
      ints: 1
      ints: 1
      type: INTS
    }
    attribute {
      name: "pads"
      ints: 0
      ints: 0
      ints: 0
      ints: 0
      type: INTS
    }
    attribute {
      name: "kernel_shape"
      ints: 1
      ints: 1
      type: INTS
    }
  }
  node {
    input: "conv4_3/x1_1"
    input: "conv4_3/x2/bn_scale_0"
    input: "conv4_3/x2/bn_bias_0"
    input: "conv4_3/x2/bn_mean_0"
    input: "conv4_3/x2/bn_var_0"
    output: "conv4_3/x2/bn_1"
    op_type: "BatchNormalization"
    attribute {
      name: "epsilon"
      f: 1e-05
      type: FLOAT
    }
  }
  node {
    input: "conv4_3/x2/bn_w_0"
    output: "OC2_DUMMY_88"
    op_type: "Unsqueeze"
    attribute {
      name: "axes"
      ints: 1
      ints: 2
      type: INTS
    }
  }
  node {
    input: "conv4_3/x2/bn_1"
    input: "OC2_DUMMY_88"
    output: "conv4_3/x2/bn_internal_1"
    op_type: "Mul"
  }
  node {
    input: "conv4_3/x2/bn_b_0"
    output: "OC2_DUMMY_89"
    op_type: "Unsqueeze"
    attribute {
      name: "axes"
      ints: 1
      ints: 2
      type: INTS
    }
  }
  node {
    input: "conv4_3/x2/bn_internal_1"
    input: "OC2_DUMMY_89"
    output: "conv4_3/x2/bn_2"
    op_type: "Add"
  }
  node {
    input: "conv4_3/x2/bn_2"
    output: "conv4_3/x2/bn_3"
    op_type: "Relu"
  }
  node {
    input: "conv4_3/x2/bn_3"
    input: "conv4_3/x2_w_0"
    output: "conv4_3/x2_1"
    op_type: "Conv"
    attribute {
      name: "strides"
      ints: 1
      ints: 1
      type: INTS
    }
    attribute {
      name: "pads"
      ints: 1
      ints: 1
      ints: 1
      ints: 1
      type: INTS
    }
    attribute {
      name: "kernel_shape"
      ints: 3
      ints: 3
      type: INTS
    }
  }
  node {
    input: "concat_4_2_1"
    input: "conv4_3/x2_1"
    output: "concat_4_3_1"
    op_type: "Concat"
    attribute {
      name: "axis"
      i: 1
      type: INT
    }
  }
  node {
    input: "concat_4_3_1"
    input: "conv4_4/x1/bn_scale_0"
    input: "conv4_4/x1/bn_bias_0"
    input: "conv4_4/x1/bn_mean_0"
    input: "conv4_4/x1/bn_var_0"
    output: "conv4_4/x1/bn_1"
    op_type: "BatchNormalization"
    attribute {
      name: "epsilon"
      f: 1e-05
      type: FLOAT
    }
  }
  node {
    input: "conv4_4/x1/bn_w_0"
    output: "OC2_DUMMY_90"
    op_type: "Unsqueeze"
    attribute {
      name: "axes"
      ints: 1
      ints: 2
      type: INTS
    }
  }
  node {
    input: "conv4_4/x1/bn_1"
    input: "OC2_DUMMY_90"
    output: "conv4_4/x1/bn_internal_1"
    op_type: "Mul"
  }
  node {
    input: "conv4_4/x1/bn_b_0"
    output: "OC2_DUMMY_91"
    op_type: "Unsqueeze"
    attribute {
      name: "axes"
      ints: 1
      ints: 2
      type: INTS
    }
  }
  node {
    input: "conv4_4/x1/bn_internal_1"
    input: "OC2_DUMMY_91"
    output: "conv4_4/x1/bn_2"
    op_type: "Add"
  }
  node {
    input: "conv4_4/x1/bn_2"
    output: "conv4_4/x1/bn_3"
    op_type: "Relu"
  }
  node {
    input: "conv4_4/x1/bn_3"
    input: "conv4_4/x1_w_0"
    output: "conv4_4/x1_1"
    op_type: "Conv"
    attribute {
      name: "strides"
      ints: 1
      ints: 1
      type: INTS
    }
    attribute {
      name: "pads"
      ints: 0
      ints: 0
      ints: 0
      ints: 0
      type: INTS
    }
    attribute {
      name: "kernel_shape"
      ints: 1
      ints: 1
      type: INTS
    }
  }
  node {
    input: "conv4_4/x1_1"
    input: "conv4_4/x2/bn_scale_0"
    input: "conv4_4/x2/bn_bias_0"
    input: "conv4_4/x2/bn_mean_0"
    input: "conv4_4/x2/bn_var_0"
    output: "conv4_4/x2/bn_1"
    op_type: "BatchNormalization"
    attribute {
      name: "epsilon"
      f: 1e-05
      type: FLOAT
    }
  }
  node {
    input: "conv4_4/x2/bn_w_0"
    output: "OC2_DUMMY_92"
    op_type: "Unsqueeze"
    attribute {
      name: "axes"
      ints: 1
      ints: 2
      type: INTS
    }
  }
  node {
    input: "conv4_4/x2/bn_1"
    input: "OC2_DUMMY_92"
    output: "conv4_4/x2/bn_internal_1"
    op_type: "Mul"
  }
  node {
    input: "conv4_4/x2/bn_b_0"
    output: "OC2_DUMMY_93"
    op_type: "Unsqueeze"
    attribute {
      name: "axes"
      ints: 1
      ints: 2
      type: INTS
    }
  }
  node {
    input: "conv4_4/x2/bn_internal_1"
    input: "OC2_DUMMY_93"
    output: "conv4_4/x2/bn_2"
    op_type: "Add"
  }
  node {
    input: "conv4_4/x2/bn_2"
    output: "conv4_4/x2/bn_3"
    op_type: "Relu"
  }
  node {
    input: "conv4_4/x2/bn_3"
    input: "conv4_4/x2_w_0"
    output: "conv4_4/x2_1"
    op_type: "Conv"
    attribute {
      name: "strides"
      ints: 1
      ints: 1
      type: INTS
    }
    attribute {
      name: "pads"
      ints: 1
      ints: 1
      ints: 1
      ints: 1
      type: INTS
    }
    attribute {
      name: "kernel_shape"
      ints: 3
      ints: 3
      type: INTS
    }
  }
  node {
    input: "concat_4_3_1"
    input: "conv4_4/x2_1"
    output: "concat_4_4_1"
    op_type: "Concat"
    attribute {
      name: "axis"
      i: 1
      type: INT
    }
  }
  node {
    input: "concat_4_4_1"
    input: "conv4_5/x1/bn_scale_0"
    input: "conv4_5/x1/bn_bias_0"
    input: "conv4_5/x1/bn_mean_0"
    input: "conv4_5/x1/bn_var_0"
    output: "conv4_5/x1/bn_1"
    op_type: "BatchNormalization"
    attribute {
      name: "epsilon"
      f: 1e-05
      type: FLOAT
    }
  }
  node {
    input: "conv4_5/x1/bn_w_0"
    output: "OC2_DUMMY_94"
    op_type: "Unsqueeze"
    attribute {
      name: "axes"
      ints: 1
      ints: 2
      type: INTS
    }
  }
  node {
    input: "conv4_5/x1/bn_1"
    input: "OC2_DUMMY_94"
    output: "conv4_5/x1/bn_internal_1"
    op_type: "Mul"
  }
  node {
    input: "conv4_5/x1/bn_b_0"
    output: "OC2_DUMMY_95"
    op_type: "Unsqueeze"
    attribute {
      name: "axes"
      ints: 1
      ints: 2
      type: INTS
    }
  }
  node {
    input: "conv4_5/x1/bn_internal_1"
    input: "OC2_DUMMY_95"
    output: "conv4_5/x1/bn_2"
    op_type: "Add"
  }
  node {
    input: "conv4_5/x1/bn_2"
    output: "conv4_5/x1/bn_3"
    op_type: "Relu"
  }
  node {
    input: "conv4_5/x1/bn_3"
    input: "conv4_5/x1_w_0"
    output: "conv4_5/x1_1"
    op_type: "Conv"
    attribute {
      name: "strides"
      ints: 1
      ints: 1
      type: INTS
    }
    attribute {
      name: "pads"
      ints: 0
      ints: 0
      ints: 0
      ints: 0
      type: INTS
    }
    attribute {
      name: "kernel_shape"
      ints: 1
      ints: 1
      type: INTS
    }
  }
  node {
    input: "conv4_5/x1_1"
    input: "conv4_5/x2/bn_scale_0"
    input: "conv4_5/x2/bn_bias_0"
    input: "conv4_5/x2/bn_mean_0"
    input: "conv4_5/x2/bn_var_0"
    output: "conv4_5/x2/bn_1"
    op_type: "BatchNormalization"
    attribute {
      name: "epsilon"
      f: 1e-05
      type: FLOAT
    }
  }
  node {
    input: "conv4_5/x2/bn_w_0"
    output: "OC2_DUMMY_96"
    op_type: "Unsqueeze"
    attribute {
      name: "axes"
      ints: 1
      ints: 2
      type: INTS
    }
  }
  node {
    input: "conv4_5/x2/bn_1"
    input: "OC2_DUMMY_96"
    output: "conv4_5/x2/bn_internal_1"
    op_type: "Mul"
  }
  node {
    input: "conv4_5/x2/bn_b_0"
    output: "OC2_DUMMY_97"
    op_type: "Unsqueeze"
    attribute {
      name: "axes"
      ints: 1
      ints: 2
      type: INTS
    }
  }
  node {
    input: "conv4_5/x2/bn_internal_1"
    input: "OC2_DUMMY_97"
    output: "conv4_5/x2/bn_2"
    op_type: "Add"
  }
  node {
    input: "conv4_5/x2/bn_2"
    output: "conv4_5/x2/bn_3"
    op_type: "Relu"
  }
  node {
    input: "conv4_5/x2/bn_3"
    input: "conv4_5/x2_w_0"
    output: "conv4_5/x2_1"
    op_type: "Conv"
    attribute {
      name: "strides"
      ints: 1
      ints: 1
      type: INTS
    }
    attribute {
      name: "pads"
      ints: 1
      ints: 1
      ints: 1
      ints: 1
      type: INTS
    }
    attribute {
      name: "kernel_shape"
      ints: 3
      ints: 3
      type: INTS
    }
  }
  node {
    input: "concat_4_4_1"
    input: "conv4_5/x2_1"
    output: "concat_4_5_1"
    op_type: "Concat"
    attribute {
      name: "axis"
      i: 1
      type: INT
    }
  }
  node {
    input: "concat_4_5_1"
    input: "conv4_6/x1/bn_scale_0"
    input: "conv4_6/x1/bn_bias_0"
    input: "conv4_6/x1/bn_mean_0"
    input: "conv4_6/x1/bn_var_0"
    output: "conv4_6/x1/bn_1"
    op_type: "BatchNormalization"
    attribute {
      name: "epsilon"
      f: 1e-05
      type: FLOAT
    }
  }
  node {
    input: "conv4_6/x1/bn_w_0"
    output: "OC2_DUMMY_98"
    op_type: "Unsqueeze"
    attribute {
      name: "axes"
      ints: 1
      ints: 2
      type: INTS
    }
  }
  node {
    input: "conv4_6/x1/bn_1"
    input: "OC2_DUMMY_98"
    output: "conv4_6/x1/bn_internal_1"
    op_type: "Mul"
  }
  node {
    input: "conv4_6/x1/bn_b_0"
    output: "OC2_DUMMY_99"
    op_type: "Unsqueeze"
    attribute {
      name: "axes"
      ints: 1
      ints: 2
      type: INTS
    }
  }
  node {
    input: "conv4_6/x1/bn_internal_1"
    input: "OC2_DUMMY_99"
    output: "conv4_6/x1/bn_2"
    op_type: "Add"
  }
  node {
    input: "conv4_6/x1/bn_2"
    output: "conv4_6/x1/bn_3"
    op_type: "Relu"
  }
  node {
    input: "conv4_6/x1/bn_3"
    input: "conv4_6/x1_w_0"
    output: "conv4_6/x1_1"
    op_type: "Conv"
    attribute {
      name: "strides"
      ints: 1
      ints: 1
      type: INTS
    }
    attribute {
      name: "pads"
      ints: 0
      ints: 0
      ints: 0
      ints: 0
      type: INTS
    }
    attribute {
      name: "kernel_shape"
      ints: 1
      ints: 1
      type: INTS
    }
  }
  node {
    input: "conv4_6/x1_1"
    input: "conv4_6/x2/bn_scale_0"
    input: "conv4_6/x2/bn_bias_0"
    input: "conv4_6/x2/bn_mean_0"
    input: "conv4_6/x2/bn_var_0"
    output: "conv4_6/x2/bn_1"
    op_type: "BatchNormalization"
    attribute {
      name: "epsilon"
      f: 1e-05
      type: FLOAT
    }
  }
  node {
    input: "conv4_6/x2/bn_w_0"
    output: "OC2_DUMMY_100"
    op_type: "Unsqueeze"
    attribute {
      name: "axes"
      ints: 1
      ints: 2
      type: INTS
    }
  }
  node {
    input: "conv4_6/x2/bn_1"
    input: "OC2_DUMMY_100"
    output: "conv4_6/x2/bn_internal_1"
    op_type: "Mul"
  }
  node {
    input: "conv4_6/x2/bn_b_0"
    output: "OC2_DUMMY_101"
    op_type: "Unsqueeze"
    attribute {
      name: "axes"
      ints: 1
      ints: 2
      type: INTS
    }
  }
  node {
    input: "conv4_6/x2/bn_internal_1"
    input: "OC2_DUMMY_101"
    output: "conv4_6/x2/bn_2"
    op_type: "Add"
  }
  node {
    input: "conv4_6/x2/bn_2"
    output: "conv4_6/x2/bn_3"
    op_type: "Relu"
  }
  node {
    input: "conv4_6/x2/bn_3"
    input: "conv4_6/x2_w_0"
    output: "conv4_6/x2_1"
    op_type: "Conv"
    attribute {
      name: "strides"
      ints: 1
      ints: 1
      type: INTS
    }
    attribute {
      name: "pads"
      ints: 1
      ints: 1
      ints: 1
      ints: 1
      type: INTS
    }
    attribute {
      name: "kernel_shape"
      ints: 3
      ints: 3
      type: INTS
    }
  }
  node {
    input: "concat_4_5_1"
    input: "conv4_6/x2_1"
    output: "concat_4_6_1"
    op_type: "Concat"
    attribute {
      name: "axis"
      i: 1
      type: INT
    }
  }
  node {
    input: "concat_4_6_1"
    input: "conv4_7/x1/bn_scale_0"
    input: "conv4_7/x1/bn_bias_0"
    input: "conv4_7/x1/bn_mean_0"
    input: "conv4_7/x1/bn_var_0"
    output: "conv4_7/x1/bn_1"
    op_type: "BatchNormalization"
    attribute {
      name: "epsilon"
      f: 1e-05
      type: FLOAT
    }
  }
  node {
    input: "conv4_7/x1/bn_w_0"
    output: "OC2_DUMMY_102"
    op_type: "Unsqueeze"
    attribute {
      name: "axes"
      ints: 1
      ints: 2
      type: INTS
    }
  }
  node {
    input: "conv4_7/x1/bn_1"
    input: "OC2_DUMMY_102"
    output: "conv4_7/x1/bn_internal_1"
    op_type: "Mul"
  }
  node {
    input: "conv4_7/x1/bn_b_0"
    output: "OC2_DUMMY_103"
    op_type: "Unsqueeze"
    attribute {
      name: "axes"
      ints: 1
      ints: 2
      type: INTS
    }
  }
  node {
    input: "conv4_7/x1/bn_internal_1"
    input: "OC2_DUMMY_103"
    output: "conv4_7/x1/bn_2"
    op_type: "Add"
  }
  node {
    input: "conv4_7/x1/bn_2"
    output: "conv4_7/x1/bn_3"
    op_type: "Relu"
  }
  node {
    input: "conv4_7/x1/bn_3"
    input: "conv4_7/x1_w_0"
    output: "conv4_7/x1_1"
    op_type: "Conv"
    attribute {
      name: "strides"
      ints: 1
      ints: 1
      type: INTS
    }
    attribute {
      name: "pads"
      ints: 0
      ints: 0
      ints: 0
      ints: 0
      type: INTS
    }
    attribute {
      name: "kernel_shape"
      ints: 1
      ints: 1
      type: INTS
    }
  }
  node {
    input: "conv4_7/x1_1"
    input: "conv4_7/x2/bn_scale_0"
    input: "conv4_7/x2/bn_bias_0"
    input: "conv4_7/x2/bn_mean_0"
    input: "conv4_7/x2/bn_var_0"
    output: "conv4_7/x2/bn_1"
    op_type: "BatchNormalization"
    attribute {
      name: "epsilon"
      f: 1e-05
      type: FLOAT
    }
  }
  node {
    input: "conv4_7/x2/bn_w_0"
    output: "OC2_DUMMY_104"
    op_type: "Unsqueeze"
    attribute {
      name: "axes"
      ints: 1
      ints: 2
      type: INTS
    }
  }
  node {
    input: "conv4_7/x2/bn_1"
    input: "OC2_DUMMY_104"
    output: "conv4_7/x2/bn_internal_1"
    op_type: "Mul"
  }
  node {
    input: "conv4_7/x2/bn_b_0"
    output: "OC2_DUMMY_105"
    op_type: "Unsqueeze"
    attribute {
      name: "axes"
      ints: 1
      ints: 2
      type: INTS
    }
  }
  node {
    input: "conv4_7/x2/bn_internal_1"
    input: "OC2_DUMMY_105"
    output: "conv4_7/x2/bn_2"
    op_type: "Add"
  }
  node {
    input: "conv4_7/x2/bn_2"
    output: "conv4_7/x2/bn_3"
    op_type: "Relu"
  }
  node {
    input: "conv4_7/x2/bn_3"
    input: "conv4_7/x2_w_0"
    output: "conv4_7/x2_1"
    op_type: "Conv"
    attribute {
      name: "strides"
      ints: 1
      ints: 1
      type: INTS
    }
    attribute {
      name: "pads"
      ints: 1
      ints: 1
      ints: 1
      ints: 1
      type: INTS
    }
    attribute {
      name: "kernel_shape"
      ints: 3
      ints: 3
      type: INTS
    }
  }
  node {
    input: "concat_4_6_1"
    input: "conv4_7/x2_1"
    output: "concat_4_7_1"
    op_type: "Concat"
    attribute {
      name: "axis"
      i: 1
      type: INT
    }
  }
  node {
    input: "concat_4_7_1"
    input: "conv4_8/x1/bn_scale_0"
    input: "conv4_8/x1/bn_bias_0"
    input: "conv4_8/x1/bn_mean_0"
    input: "conv4_8/x1/bn_var_0"
    output: "conv4_8/x1/bn_1"
    op_type: "BatchNormalization"
    attribute {
      name: "epsilon"
      f: 1e-05
      type: FLOAT
    }
  }
  node {
    input: "conv4_8/x1/bn_w_0"
    output: "OC2_DUMMY_106"
    op_type: "Unsqueeze"
    attribute {
      name: "axes"
      ints: 1
      ints: 2
      type: INTS
    }
  }
  node {
    input: "conv4_8/x1/bn_1"
    input: "OC2_DUMMY_106"
    output: "conv4_8/x1/bn_internal_1"
    op_type: "Mul"
  }
  node {
    input: "conv4_8/x1/bn_b_0"
    output: "OC2_DUMMY_107"
    op_type: "Unsqueeze"
    attribute {
      name: "axes"
      ints: 1
      ints: 2
      type: INTS
    }
  }
  node {
    input: "conv4_8/x1/bn_internal_1"
    input: "OC2_DUMMY_107"
    output: "conv4_8/x1/bn_2"
    op_type: "Add"
  }
  node {
    input: "conv4_8/x1/bn_2"
    output: "conv4_8/x1/bn_3"
    op_type: "Relu"
  }
  node {
    input: "conv4_8/x1/bn_3"
    input: "conv4_8/x1_w_0"
    output: "conv4_8/x1_1"
    op_type: "Conv"
    attribute {
      name: "strides"
      ints: 1
      ints: 1
      type: INTS
    }
    attribute {
      name: "pads"
      ints: 0
      ints: 0
      ints: 0
      ints: 0
      type: INTS
    }
    attribute {
      name: "kernel_shape"
      ints: 1
      ints: 1
      type: INTS
    }
  }
  node {
    input: "conv4_8/x1_1"
    input: "conv4_8/x2/bn_scale_0"
    input: "conv4_8/x2/bn_bias_0"
    input: "conv4_8/x2/bn_mean_0"
    input: "conv4_8/x2/bn_var_0"
    output: "conv4_8/x2/bn_1"
    op_type: "BatchNormalization"
    attribute {
      name: "epsilon"
      f: 1e-05
      type: FLOAT
    }
  }
  node {
    input: "conv4_8/x2/bn_w_0"
    output: "OC2_DUMMY_108"
    op_type: "Unsqueeze"
    attribute {
      name: "axes"
      ints: 1
      ints: 2
      type: INTS
    }
  }
  node {
    input: "conv4_8/x2/bn_1"
    input: "OC2_DUMMY_108"
    output: "conv4_8/x2/bn_internal_1"
    op_type: "Mul"
  }
  node {
    input: "conv4_8/x2/bn_b_0"
    output: "OC2_DUMMY_109"
    op_type: "Unsqueeze"
    attribute {
      name: "axes"
      ints: 1
      ints: 2
      type: INTS
    }
  }
  node {
    input: "conv4_8/x2/bn_internal_1"
    input: "OC2_DUMMY_109"
    output: "conv4_8/x2/bn_2"
    op_type: "Add"
  }
  node {
    input: "conv4_8/x2/bn_2"
    output: "conv4_8/x2/bn_3"
    op_type: "Relu"
  }
  node {
    input: "conv4_8/x2/bn_3"
    input: "conv4_8/x2_w_0"
    output: "conv4_8/x2_1"
    op_type: "Conv"
    attribute {
      name: "strides"
      ints: 1
      ints: 1
      type: INTS
    }
    attribute {
      name: "pads"
      ints: 1
      ints: 1
      ints: 1
      ints: 1
      type: INTS
    }
    attribute {
      name: "kernel_shape"
      ints: 3
      ints: 3
      type: INTS
    }
  }
  node {
    input: "concat_4_7_1"
    input: "conv4_8/x2_1"
    output: "concat_4_8_1"
    op_type: "Concat"
    attribute {
      name: "axis"
      i: 1
      type: INT
    }
  }
  node {
    input: "concat_4_8_1"
    input: "conv4_9/x1/bn_scale_0"
    input: "conv4_9/x1/bn_bias_0"
    input: "conv4_9/x1/bn_mean_0"
    input: "conv4_9/x1/bn_var_0"
    output: "conv4_9/x1/bn_1"
    op_type: "BatchNormalization"
    attribute {
      name: "epsilon"
      f: 1e-05
      type: FLOAT
    }
  }
  node {
    input: "conv4_9/x1/bn_w_0"
    output: "OC2_DUMMY_110"
    op_type: "Unsqueeze"
    attribute {
      name: "axes"
      ints: 1
      ints: 2
      type: INTS
    }
  }
  node {
    input: "conv4_9/x1/bn_1"
    input: "OC2_DUMMY_110"
    output: "conv4_9/x1/bn_internal_1"
    op_type: "Mul"
  }
  node {
    input: "conv4_9/x1/bn_b_0"
    output: "OC2_DUMMY_111"
    op_type: "Unsqueeze"
    attribute {
      name: "axes"
      ints: 1
      ints: 2
      type: INTS
    }
  }
  node {
    input: "conv4_9/x1/bn_internal_1"
    input: "OC2_DUMMY_111"
    output: "conv4_9/x1/bn_2"
    op_type: "Add"
  }
  node {
    input: "conv4_9/x1/bn_2"
    output: "conv4_9/x1/bn_3"
    op_type: "Relu"
  }
  node {
    input: "conv4_9/x1/bn_3"
    input: "conv4_9/x1_w_0"
    output: "conv4_9/x1_1"
    op_type: "Conv"
    attribute {
      name: "strides"
      ints: 1
      ints: 1
      type: INTS
    }
    attribute {
      name: "pads"
      ints: 0
      ints: 0
      ints: 0
      ints: 0
      type: INTS
    }
    attribute {
      name: "kernel_shape"
      ints: 1
      ints: 1
      type: INTS
    }
  }
  node {
    input: "conv4_9/x1_1"
    input: "conv4_9/x2/bn_scale_0"
    input: "conv4_9/x2/bn_bias_0"
    input: "conv4_9/x2/bn_mean_0"
    input: "conv4_9/x2/bn_var_0"
    output: "conv4_9/x2/bn_1"
    op_type: "BatchNormalization"
    attribute {
      name: "epsilon"
      f: 1e-05
      type: FLOAT
    }
  }
  node {
    input: "conv4_9/x2/bn_w_0"
    output: "OC2_DUMMY_112"
    op_type: "Unsqueeze"
    attribute {
      name: "axes"
      ints: 1
      ints: 2
      type: INTS
    }
  }
  node {
    input: "conv4_9/x2/bn_1"
    input: "OC2_DUMMY_112"
    output: "conv4_9/x2/bn_internal_1"
    op_type: "Mul"
  }
  node {
    input: "conv4_9/x2/bn_b_0"
    output: "OC2_DUMMY_113"
    op_type: "Unsqueeze"
    attribute {
      name: "axes"
      ints: 1
      ints: 2
      type: INTS
    }
  }
  node {
    input: "conv4_9/x2/bn_internal_1"
    input: "OC2_DUMMY_113"
    output: "conv4_9/x2/bn_2"
    op_type: "Add"
  }
  node {
    input: "conv4_9/x2/bn_2"
    output: "conv4_9/x2/bn_3"
    op_type: "Relu"
  }
  node {
    input: "conv4_9/x2/bn_3"
    input: "conv4_9/x2_w_0"
    output: "conv4_9/x2_1"
    op_type: "Conv"
    attribute {
      name: "strides"
      ints: 1
      ints: 1
      type: INTS
    }
    attribute {
      name: "pads"
      ints: 1
      ints: 1
      ints: 1
      ints: 1
      type: INTS
    }
    attribute {
      name: "kernel_shape"
      ints: 3
      ints: 3
      type: INTS
    }
  }
  node {
    input: "concat_4_8_1"
    input: "conv4_9/x2_1"
    output: "concat_4_9_1"
    op_type: "Concat"
    attribute {
      name: "axis"
      i: 1
      type: INT
    }
  }
  node {
    input: "concat_4_9_1"
    input: "conv4_10/x1/bn_scale_0"
    input: "conv4_10/x1/bn_bias_0"
    input: "conv4_10/x1/bn_mean_0"
    input: "conv4_10/x1/bn_var_0"
    output: "conv4_10/x1/bn_1"
    op_type: "BatchNormalization"
    attribute {
      name: "epsilon"
      f: 1e-05
      type: FLOAT
    }
  }
  node {
    input: "conv4_10/x1/bn_w_0"
    output: "OC2_DUMMY_114"
    op_type: "Unsqueeze"
    attribute {
      name: "axes"
      ints: 1
      ints: 2
      type: INTS
    }
  }
  node {
    input: "conv4_10/x1/bn_1"
    input: "OC2_DUMMY_114"
    output: "conv4_10/x1/bn_internal_1"
    op_type: "Mul"
  }
  node {
    input: "conv4_10/x1/bn_b_0"
    output: "OC2_DUMMY_115"
    op_type: "Unsqueeze"
    attribute {
      name: "axes"
      ints: 1
      ints: 2
      type: INTS
    }
  }
  node {
    input: "conv4_10/x1/bn_internal_1"
    input: "OC2_DUMMY_115"
    output: "conv4_10/x1/bn_2"
    op_type: "Add"
  }
  node {
    input: "conv4_10/x1/bn_2"
    output: "conv4_10/x1/bn_3"
    op_type: "Relu"
  }
  node {
    input: "conv4_10/x1/bn_3"
    input: "conv4_10/x1_w_0"
    output: "conv4_10/x1_1"
    op_type: "Conv"
    attribute {
      name: "strides"
      ints: 1
      ints: 1
      type: INTS
    }
    attribute {
      name: "pads"
      ints: 0
      ints: 0
      ints: 0
      ints: 0
      type: INTS
    }
    attribute {
      name: "kernel_shape"
      ints: 1
      ints: 1
      type: INTS
    }
  }
  node {
    input: "conv4_10/x1_1"
    input: "conv4_10/x2/bn_scale_0"
    input: "conv4_10/x2/bn_bias_0"
    input: "conv4_10/x2/bn_mean_0"
    input: "conv4_10/x2/bn_var_0"
    output: "conv4_10/x2/bn_1"
    op_type: "BatchNormalization"
    attribute {
      name: "epsilon"
      f: 1e-05
      type: FLOAT
    }
  }
  node {
    input: "conv4_10/x2/bn_w_0"
    output: "OC2_DUMMY_116"
    op_type: "Unsqueeze"
    attribute {
      name: "axes"
      ints: 1
      ints: 2
      type: INTS
    }
  }
  node {
    input: "conv4_10/x2/bn_1"
    input: "OC2_DUMMY_116"
    output: "conv4_10/x2/bn_internal_1"
    op_type: "Mul"
  }
  node {
    input: "conv4_10/x2/bn_b_0"
    output: "OC2_DUMMY_117"
    op_type: "Unsqueeze"
    attribute {
      name: "axes"
      ints: 1
      ints: 2
      type: INTS
    }
  }
  node {
    input: "conv4_10/x2/bn_internal_1"
    input: "OC2_DUMMY_117"
    output: "conv4_10/x2/bn_2"
    op_type: "Add"
  }
  node {
    input: "conv4_10/x2/bn_2"
    output: "conv4_10/x2/bn_3"
    op_type: "Relu"
  }
  node {
    input: "conv4_10/x2/bn_3"
    input: "conv4_10/x2_w_0"
    output: "conv4_10/x2_1"
    op_type: "Conv"
    attribute {
      name: "strides"
      ints: 1
      ints: 1
      type: INTS
    }
    attribute {
      name: "pads"
      ints: 1
      ints: 1
      ints: 1
      ints: 1
      type: INTS
    }
    attribute {
      name: "kernel_shape"
      ints: 3
      ints: 3
      type: INTS
    }
  }
  node {
    input: "concat_4_9_1"
    input: "conv4_10/x2_1"
    output: "concat_4_10_1"
    op_type: "Concat"
    attribute {
      name: "axis"
      i: 1
      type: INT
    }
  }
  node {
    input: "concat_4_10_1"
    input: "conv4_11/x1/bn_scale_0"
    input: "conv4_11/x1/bn_bias_0"
    input: "conv4_11/x1/bn_mean_0"
    input: "conv4_11/x1/bn_var_0"
    output: "conv4_11/x1/bn_1"
    op_type: "BatchNormalization"
    attribute {
      name: "epsilon"
      f: 1e-05
      type: FLOAT
    }
  }
  node {
    input: "conv4_11/x1/bn_w_0"
    output: "OC2_DUMMY_118"
    op_type: "Unsqueeze"
    attribute {
      name: "axes"
      ints: 1
      ints: 2
      type: INTS
    }
  }
  node {
    input: "conv4_11/x1/bn_1"
    input: "OC2_DUMMY_118"
    output: "conv4_11/x1/bn_internal_1"
    op_type: "Mul"
  }
  node {
    input: "conv4_11/x1/bn_b_0"
    output: "OC2_DUMMY_119"
    op_type: "Unsqueeze"
    attribute {
      name: "axes"
      ints: 1
      ints: 2
      type: INTS
    }
  }
  node {
    input: "conv4_11/x1/bn_internal_1"
    input: "OC2_DUMMY_119"
    output: "conv4_11/x1/bn_2"
    op_type: "Add"
  }
  node {
    input: "conv4_11/x1/bn_2"
    output: "conv4_11/x1/bn_3"
    op_type: "Relu"
  }
  node {
    input: "conv4_11/x1/bn_3"
    input: "conv4_11/x1_w_0"
    output: "conv4_11/x1_1"
    op_type: "Conv"
    attribute {
      name: "strides"
      ints: 1
      ints: 1
      type: INTS
    }
    attribute {
      name: "pads"
      ints: 0
      ints: 0
      ints: 0
      ints: 0
      type: INTS
    }
    attribute {
      name: "kernel_shape"
      ints: 1
      ints: 1
      type: INTS
    }
  }
  node {
    input: "conv4_11/x1_1"
    input: "conv4_11/x2/bn_scale_0"
    input: "conv4_11/x2/bn_bias_0"
    input: "conv4_11/x2/bn_mean_0"
    input: "conv4_11/x2/bn_var_0"
    output: "conv4_11/x2/bn_1"
    op_type: "BatchNormalization"
    attribute {
      name: "epsilon"
      f: 1e-05
      type: FLOAT
    }
  }
  node {
    input: "conv4_11/x2/bn_w_0"
    output: "OC2_DUMMY_120"
    op_type: "Unsqueeze"
    attribute {
      name: "axes"
      ints: 1
      ints: 2
      type: INTS
    }
  }
  node {
    input: "conv4_11/x2/bn_1"
    input: "OC2_DUMMY_120"
    output: "conv4_11/x2/bn_internal_1"
    op_type: "Mul"
  }
  node {
    input: "conv4_11/x2/bn_b_0"
    output: "OC2_DUMMY_121"
    op_type: "Unsqueeze"
    attribute {
      name: "axes"
      ints: 1
      ints: 2
      type: INTS
    }
  }
  node {
    input: "conv4_11/x2/bn_internal_1"
    input: "OC2_DUMMY_121"
    output: "conv4_11/x2/bn_2"
    op_type: "Add"
  }
  node {
    input: "conv4_11/x2/bn_2"
    output: "conv4_11/x2/bn_3"
    op_type: "Relu"
  }
  node {
    input: "conv4_11/x2/bn_3"
    input: "conv4_11/x2_w_0"
    output: "conv4_11/x2_1"
    op_type: "Conv"
    attribute {
      name: "strides"
      ints: 1
      ints: 1
      type: INTS
    }
    attribute {
      name: "pads"
      ints: 1
      ints: 1
      ints: 1
      ints: 1
      type: INTS
    }
    attribute {
      name: "kernel_shape"
      ints: 3
      ints: 3
      type: INTS
    }
  }
  node {
    input: "concat_4_10_1"
    input: "conv4_11/x2_1"
    output: "concat_4_11_1"
    op_type: "Concat"
    attribute {
      name: "axis"
      i: 1
      type: INT
    }
  }
  node {
    input: "concat_4_11_1"
    input: "conv4_12/x1/bn_scale_0"
    input: "conv4_12/x1/bn_bias_0"
    input: "conv4_12/x1/bn_mean_0"
    input: "conv4_12/x1/bn_var_0"
    output: "conv4_12/x1/bn_1"
    op_type: "BatchNormalization"
    attribute {
      name: "epsilon"
      f: 1e-05
      type: FLOAT
    }
  }
  node {
    input: "conv4_12/x1/bn_w_0"
    output: "OC2_DUMMY_122"
    op_type: "Unsqueeze"
    attribute {
      name: "axes"
      ints: 1
      ints: 2
      type: INTS
    }
  }
  node {
    input: "conv4_12/x1/bn_1"
    input: "OC2_DUMMY_122"
    output: "conv4_12/x1/bn_internal_1"
    op_type: "Mul"
  }
  node {
    input: "conv4_12/x1/bn_b_0"
    output: "OC2_DUMMY_123"
    op_type: "Unsqueeze"
    attribute {
      name: "axes"
      ints: 1
      ints: 2
      type: INTS
    }
  }
  node {
    input: "conv4_12/x1/bn_internal_1"
    input: "OC2_DUMMY_123"
    output: "conv4_12/x1/bn_2"
    op_type: "Add"
  }
  node {
    input: "conv4_12/x1/bn_2"
    output: "conv4_12/x1/bn_3"
    op_type: "Relu"
  }
  node {
    input: "conv4_12/x1/bn_3"
    input: "conv4_12/x1_w_0"
    output: "conv4_12/x1_1"
    op_type: "Conv"
    attribute {
      name: "strides"
      ints: 1
      ints: 1
      type: INTS
    }
    attribute {
      name: "pads"
      ints: 0
      ints: 0
      ints: 0
      ints: 0
      type: INTS
    }
    attribute {
      name: "kernel_shape"
      ints: 1
      ints: 1
      type: INTS
    }
  }
  node {
    input: "conv4_12/x1_1"
    input: "conv4_12/x2/bn_scale_0"
    input: "conv4_12/x2/bn_bias_0"
    input: "conv4_12/x2/bn_mean_0"
    input: "conv4_12/x2/bn_var_0"
    output: "conv4_12/x2/bn_1"
    op_type: "BatchNormalization"
    attribute {
      name: "epsilon"
      f: 1e-05
      type: FLOAT
    }
  }
  node {
    input: "conv4_12/x2/bn_w_0"
    output: "OC2_DUMMY_124"
    op_type: "Unsqueeze"
    attribute {
      name: "axes"
      ints: 1
      ints: 2
      type: INTS
    }
  }
  node {
    input: "conv4_12/x2/bn_1"
    input: "OC2_DUMMY_124"
    output: "conv4_12/x2/bn_internal_1"
    op_type: "Mul"
  }
  node {
    input: "conv4_12/x2/bn_b_0"
    output: "OC2_DUMMY_125"
    op_type: "Unsqueeze"
    attribute {
      name: "axes"
      ints: 1
      ints: 2
      type: INTS
    }
  }
  node {
    input: "conv4_12/x2/bn_internal_1"
    input: "OC2_DUMMY_125"
    output: "conv4_12/x2/bn_2"
    op_type: "Add"
  }
  node {
    input: "conv4_12/x2/bn_2"
    output: "conv4_12/x2/bn_3"
    op_type: "Relu"
  }
  node {
    input: "conv4_12/x2/bn_3"
    input: "conv4_12/x2_w_0"
    output: "conv4_12/x2_1"
    op_type: "Conv"
    attribute {
      name: "strides"
      ints: 1
      ints: 1
      type: INTS
    }
    attribute {
      name: "pads"
      ints: 1
      ints: 1
      ints: 1
      ints: 1
      type: INTS
    }
    attribute {
      name: "kernel_shape"
      ints: 3
      ints: 3
      type: INTS
    }
  }
  node {
    input: "concat_4_11_1"
    input: "conv4_12/x2_1"
    output: "concat_4_12_1"
    op_type: "Concat"
    attribute {
      name: "axis"
      i: 1
      type: INT
    }
  }
  node {
    input: "concat_4_12_1"
    input: "conv4_13/x1/bn_scale_0"
    input: "conv4_13/x1/bn_bias_0"
    input: "conv4_13/x1/bn_mean_0"
    input: "conv4_13/x1/bn_var_0"
    output: "conv4_13/x1/bn_1"
    op_type: "BatchNormalization"
    attribute {
      name: "epsilon"
      f: 1e-05
      type: FLOAT
    }
  }
  node {
    input: "conv4_13/x1/bn_w_0"
    output: "OC2_DUMMY_126"
    op_type: "Unsqueeze"
    attribute {
      name: "axes"
      ints: 1
      ints: 2
      type: INTS
    }
  }
  node {
    input: "conv4_13/x1/bn_1"
    input: "OC2_DUMMY_126"
    output: "conv4_13/x1/bn_internal_1"
    op_type: "Mul"
  }
  node {
    input: "conv4_13/x1/bn_b_0"
    output: "OC2_DUMMY_127"
    op_type: "Unsqueeze"
    attribute {
      name: "axes"
      ints: 1
      ints: 2
      type: INTS
    }
  }
  node {
    input: "conv4_13/x1/bn_internal_1"
    input: "OC2_DUMMY_127"
    output: "conv4_13/x1/bn_2"
    op_type: "Add"
  }
  node {
    input: "conv4_13/x1/bn_2"
    output: "conv4_13/x1/bn_3"
    op_type: "Relu"
  }
  node {
    input: "conv4_13/x1/bn_3"
    input: "conv4_13/x1_w_0"
    output: "conv4_13/x1_1"
    op_type: "Conv"
    attribute {
      name: "strides"
      ints: 1
      ints: 1
      type: INTS
    }
    attribute {
      name: "pads"
      ints: 0
      ints: 0
      ints: 0
      ints: 0
      type: INTS
    }
    attribute {
      name: "kernel_shape"
      ints: 1
      ints: 1
      type: INTS
    }
  }
  node {
    input: "conv4_13/x1_1"
    input: "conv4_13/x2/bn_scale_0"
    input: "conv4_13/x2/bn_bias_0"
    input: "conv4_13/x2/bn_mean_0"
    input: "conv4_13/x2/bn_var_0"
    output: "conv4_13/x2/bn_1"
    op_type: "BatchNormalization"
    attribute {
      name: "epsilon"
      f: 1e-05
      type: FLOAT
    }
  }
  node {
    input: "conv4_13/x2/bn_w_0"
    output: "OC2_DUMMY_128"
    op_type: "Unsqueeze"
    attribute {
      name: "axes"
      ints: 1
      ints: 2
      type: INTS
    }
  }
  node {
    input: "conv4_13/x2/bn_1"
    input: "OC2_DUMMY_128"
    output: "conv4_13/x2/bn_internal_1"
    op_type: "Mul"
  }
  node {
    input: "conv4_13/x2/bn_b_0"
    output: "OC2_DUMMY_129"
    op_type: "Unsqueeze"
    attribute {
      name: "axes"
      ints: 1
      ints: 2
      type: INTS
    }
  }
  node {
    input: "conv4_13/x2/bn_internal_1"
    input: "OC2_DUMMY_129"
    output: "conv4_13/x2/bn_2"
    op_type: "Add"
  }
  node {
    input: "conv4_13/x2/bn_2"
    output: "conv4_13/x2/bn_3"
    op_type: "Relu"
  }
  node {
    input: "conv4_13/x2/bn_3"
    input: "conv4_13/x2_w_0"
    output: "conv4_13/x2_1"
    op_type: "Conv"
    attribute {
      name: "strides"
      ints: 1
      ints: 1
      type: INTS
    }
    attribute {
      name: "pads"
      ints: 1
      ints: 1
      ints: 1
      ints: 1
      type: INTS
    }
    attribute {
      name: "kernel_shape"
      ints: 3
      ints: 3
      type: INTS
    }
  }
  node {
    input: "concat_4_12_1"
    input: "conv4_13/x2_1"
    output: "concat_4_13_1"
    op_type: "Concat"
    attribute {
      name: "axis"
      i: 1
      type: INT
    }
  }
  node {
    input: "concat_4_13_1"
    input: "conv4_14/x1/bn_scale_0"
    input: "conv4_14/x1/bn_bias_0"
    input: "conv4_14/x1/bn_mean_0"
    input: "conv4_14/x1/bn_var_0"
    output: "conv4_14/x1/bn_1"
    op_type: "BatchNormalization"
    attribute {
      name: "epsilon"
      f: 1e-05
      type: FLOAT
    }
  }
  node {
    input: "conv4_14/x1/bn_w_0"
    output: "OC2_DUMMY_130"
    op_type: "Unsqueeze"
    attribute {
      name: "axes"
      ints: 1
      ints: 2
      type: INTS
    }
  }
  node {
    input: "conv4_14/x1/bn_1"
    input: "OC2_DUMMY_130"
    output: "conv4_14/x1/bn_internal_1"
    op_type: "Mul"
  }
  node {
    input: "conv4_14/x1/bn_b_0"
    output: "OC2_DUMMY_131"
    op_type: "Unsqueeze"
    attribute {
      name: "axes"
      ints: 1
      ints: 2
      type: INTS
    }
  }
  node {
    input: "conv4_14/x1/bn_internal_1"
    input: "OC2_DUMMY_131"
    output: "conv4_14/x1/bn_2"
    op_type: "Add"
  }
  node {
    input: "conv4_14/x1/bn_2"
    output: "conv4_14/x1/bn_3"
    op_type: "Relu"
  }
  node {
    input: "conv4_14/x1/bn_3"
    input: "conv4_14/x1_w_0"
    output: "conv4_14/x1_1"
    op_type: "Conv"
    attribute {
      name: "strides"
      ints: 1
      ints: 1
      type: INTS
    }
    attribute {
      name: "pads"
      ints: 0
      ints: 0
      ints: 0
      ints: 0
      type: INTS
    }
    attribute {
      name: "kernel_shape"
      ints: 1
      ints: 1
      type: INTS
    }
  }
  node {
    input: "conv4_14/x1_1"
    input: "conv4_14/x2/bn_scale_0"
    input: "conv4_14/x2/bn_bias_0"
    input: "conv4_14/x2/bn_mean_0"
    input: "conv4_14/x2/bn_var_0"
    output: "conv4_14/x2/bn_1"
    op_type: "BatchNormalization"
    attribute {
      name: "epsilon"
      f: 1e-05
      type: FLOAT
    }
  }
  node {
    input: "conv4_14/x2/bn_w_0"
    output: "OC2_DUMMY_132"
    op_type: "Unsqueeze"
    attribute {
      name: "axes"
      ints: 1
      ints: 2
      type: INTS
    }
  }
  node {
    input: "conv4_14/x2/bn_1"
    input: "OC2_DUMMY_132"
    output: "conv4_14/x2/bn_internal_1"
    op_type: "Mul"
  }
  node {
    input: "conv4_14/x2/bn_b_0"
    output: "OC2_DUMMY_133"
    op_type: "Unsqueeze"
    attribute {
      name: "axes"
      ints: 1
      ints: 2
      type: INTS
    }
  }
  node {
    input: "conv4_14/x2/bn_internal_1"
    input: "OC2_DUMMY_133"
    output: "conv4_14/x2/bn_2"
    op_type: "Add"
  }
  node {
    input: "conv4_14/x2/bn_2"
    output: "conv4_14/x2/bn_3"
    op_type: "Relu"
  }
  node {
    input: "conv4_14/x2/bn_3"
    input: "conv4_14/x2_w_0"
    output: "conv4_14/x2_1"
    op_type: "Conv"
    attribute {
      name: "strides"
      ints: 1
      ints: 1
      type: INTS
    }
    attribute {
      name: "pads"
      ints: 1
      ints: 1
      ints: 1
      ints: 1
      type: INTS
    }
    attribute {
      name: "kernel_shape"
      ints: 3
      ints: 3
      type: INTS
    }
  }
  node {
    input: "concat_4_13_1"
    input: "conv4_14/x2_1"
    output: "concat_4_14_1"
    op_type: "Concat"
    attribute {
      name: "axis"
      i: 1
      type: INT
    }
  }
  node {
    input: "concat_4_14_1"
    input: "conv4_15/x1/bn_scale_0"
    input: "conv4_15/x1/bn_bias_0"
    input: "conv4_15/x1/bn_mean_0"
    input: "conv4_15/x1/bn_var_0"
    output: "conv4_15/x1/bn_1"
    op_type: "BatchNormalization"
    attribute {
      name: "epsilon"
      f: 1e-05
      type: FLOAT
    }
  }
  node {
    input: "conv4_15/x1/bn_w_0"
    output: "OC2_DUMMY_134"
    op_type: "Unsqueeze"
    attribute {
      name: "axes"
      ints: 1
      ints: 2
      type: INTS
    }
  }
  node {
    input: "conv4_15/x1/bn_1"
    input: "OC2_DUMMY_134"
    output: "conv4_15/x1/bn_internal_1"
    op_type: "Mul"
  }
  node {
    input: "conv4_15/x1/bn_b_0"
    output: "OC2_DUMMY_135"
    op_type: "Unsqueeze"
    attribute {
      name: "axes"
      ints: 1
      ints: 2
      type: INTS
    }
  }
  node {
    input: "conv4_15/x1/bn_internal_1"
    input: "OC2_DUMMY_135"
    output: "conv4_15/x1/bn_2"
    op_type: "Add"
  }
  node {
    input: "conv4_15/x1/bn_2"
    output: "conv4_15/x1/bn_3"
    op_type: "Relu"
  }
  node {
    input: "conv4_15/x1/bn_3"
    input: "conv4_15/x1_w_0"
    output: "conv4_15/x1_1"
    op_type: "Conv"
    attribute {
      name: "strides"
      ints: 1
      ints: 1
      type: INTS
    }
    attribute {
      name: "pads"
      ints: 0
      ints: 0
      ints: 0
      ints: 0
      type: INTS
    }
    attribute {
      name: "kernel_shape"
      ints: 1
      ints: 1
      type: INTS
    }
  }
  node {
    input: "conv4_15/x1_1"
    input: "conv4_15/x2/bn_scale_0"
    input: "conv4_15/x2/bn_bias_0"
    input: "conv4_15/x2/bn_mean_0"
    input: "conv4_15/x2/bn_var_0"
    output: "conv4_15/x2/bn_1"
    op_type: "BatchNormalization"
    attribute {
      name: "epsilon"
      f: 1e-05
      type: FLOAT
    }
  }
  node {
    input: "conv4_15/x2/bn_w_0"
    output: "OC2_DUMMY_136"
    op_type: "Unsqueeze"
    attribute {
      name: "axes"
      ints: 1
      ints: 2
      type: INTS
    }
  }
  node {
    input: "conv4_15/x2/bn_1"
    input: "OC2_DUMMY_136"
    output: "conv4_15/x2/bn_internal_1"
    op_type: "Mul"
  }
  node {
    input: "conv4_15/x2/bn_b_0"
    output: "OC2_DUMMY_137"
    op_type: "Unsqueeze"
    attribute {
      name: "axes"
      ints: 1
      ints: 2
      type: INTS
    }
  }
  node {
    input: "conv4_15/x2/bn_internal_1"
    input: "OC2_DUMMY_137"
    output: "conv4_15/x2/bn_2"
    op_type: "Add"
  }
  node {
    input: "conv4_15/x2/bn_2"
    output: "conv4_15/x2/bn_3"
    op_type: "Relu"
  }
  node {
    input: "conv4_15/x2/bn_3"
    input: "conv4_15/x2_w_0"
    output: "conv4_15/x2_1"
    op_type: "Conv"
    attribute {
      name: "strides"
      ints: 1
      ints: 1
      type: INTS
    }
    attribute {
      name: "pads"
      ints: 1
      ints: 1
      ints: 1
      ints: 1
      type: INTS
    }
    attribute {
      name: "kernel_shape"
      ints: 3
      ints: 3
      type: INTS
    }
  }
  node {
    input: "concat_4_14_1"
    input: "conv4_15/x2_1"
    output: "concat_4_15_1"
    op_type: "Concat"
    attribute {
      name: "axis"
      i: 1
      type: INT
    }
  }
  node {
    input: "concat_4_15_1"
    input: "conv4_16/x1/bn_scale_0"
    input: "conv4_16/x1/bn_bias_0"
    input: "conv4_16/x1/bn_mean_0"
    input: "conv4_16/x1/bn_var_0"
    output: "conv4_16/x1/bn_1"
    op_type: "BatchNormalization"
    attribute {
      name: "epsilon"
      f: 1e-05
      type: FLOAT
    }
  }
  node {
    input: "conv4_16/x1/bn_w_0"
    output: "OC2_DUMMY_138"
    op_type: "Unsqueeze"
    attribute {
      name: "axes"
      ints: 1
      ints: 2
      type: INTS
    }
  }
  node {
    input: "conv4_16/x1/bn_1"
    input: "OC2_DUMMY_138"
    output: "conv4_16/x1/bn_internal_1"
    op_type: "Mul"
  }
  node {
    input: "conv4_16/x1/bn_b_0"
    output: "OC2_DUMMY_139"
    op_type: "Unsqueeze"
    attribute {
      name: "axes"
      ints: 1
      ints: 2
      type: INTS
    }
  }
  node {
    input: "conv4_16/x1/bn_internal_1"
    input: "OC2_DUMMY_139"
    output: "conv4_16/x1/bn_2"
    op_type: "Add"
  }
  node {
    input: "conv4_16/x1/bn_2"
    output: "conv4_16/x1/bn_3"
    op_type: "Relu"
  }
  node {
    input: "conv4_16/x1/bn_3"
    input: "conv4_16/x1_w_0"
    output: "conv4_16/x1_1"
    op_type: "Conv"
    attribute {
      name: "strides"
      ints: 1
      ints: 1
      type: INTS
    }
    attribute {
      name: "pads"
      ints: 0
      ints: 0
      ints: 0
      ints: 0
      type: INTS
    }
    attribute {
      name: "kernel_shape"
      ints: 1
      ints: 1
      type: INTS
    }
  }
  node {
    input: "conv4_16/x1_1"
    input: "conv4_16/x2/bn_scale_0"
    input: "conv4_16/x2/bn_bias_0"
    input: "conv4_16/x2/bn_mean_0"
    input: "conv4_16/x2/bn_var_0"
    output: "conv4_16/x2/bn_1"
    op_type: "BatchNormalization"
    attribute {
      name: "epsilon"
      f: 1e-05
      type: FLOAT
    }
  }
  node {
    input: "conv4_16/x2/bn_w_0"
    output: "OC2_DUMMY_140"
    op_type: "Unsqueeze"
    attribute {
      name: "axes"
      ints: 1
      ints: 2
      type: INTS
    }
  }
  node {
    input: "conv4_16/x2/bn_1"
    input: "OC2_DUMMY_140"
    output: "conv4_16/x2/bn_internal_1"
    op_type: "Mul"
  }
  node {
    input: "conv4_16/x2/bn_b_0"
    output: "OC2_DUMMY_141"
    op_type: "Unsqueeze"
    attribute {
      name: "axes"
      ints: 1
      ints: 2
      type: INTS
    }
  }
  node {
    input: "conv4_16/x2/bn_internal_1"
    input: "OC2_DUMMY_141"
    output: "conv4_16/x2/bn_2"
    op_type: "Add"
  }
  node {
    input: "conv4_16/x2/bn_2"
    output: "conv4_16/x2/bn_3"
    op_type: "Relu"
  }
  node {
    input: "conv4_16/x2/bn_3"
    input: "conv4_16/x2_w_0"
    output: "conv4_16/x2_1"
    op_type: "Conv"
    attribute {
      name: "strides"
      ints: 1
      ints: 1
      type: INTS
    }
    attribute {
      name: "pads"
      ints: 1
      ints: 1
      ints: 1
      ints: 1
      type: INTS
    }
    attribute {
      name: "kernel_shape"
      ints: 3
      ints: 3
      type: INTS
    }
  }
  node {
    input: "concat_4_15_1"
    input: "conv4_16/x2_1"
    output: "concat_4_16_1"
    op_type: "Concat"
    attribute {
      name: "axis"
      i: 1
      type: INT
    }
  }
  node {
    input: "concat_4_16_1"
    input: "conv4_17/x1/bn_scale_0"
    input: "conv4_17/x1/bn_bias_0"
    input: "conv4_17/x1/bn_mean_0"
    input: "conv4_17/x1/bn_var_0"
    output: "conv4_17/x1/bn_1"
    op_type: "BatchNormalization"
    attribute {
      name: "epsilon"
      f: 1e-05
      type: FLOAT
    }
  }
  node {
    input: "conv4_17/x1/bn_w_0"
    output: "OC2_DUMMY_142"
    op_type: "Unsqueeze"
    attribute {
      name: "axes"
      ints: 1
      ints: 2
      type: INTS
    }
  }
  node {
    input: "conv4_17/x1/bn_1"
    input: "OC2_DUMMY_142"
    output: "conv4_17/x1/bn_internal_1"
    op_type: "Mul"
  }
  node {
    input: "conv4_17/x1/bn_b_0"
    output: "OC2_DUMMY_143"
    op_type: "Unsqueeze"
    attribute {
      name: "axes"
      ints: 1
      ints: 2
      type: INTS
    }
  }
  node {
    input: "conv4_17/x1/bn_internal_1"
    input: "OC2_DUMMY_143"
    output: "conv4_17/x1/bn_2"
    op_type: "Add"
  }
  node {
    input: "conv4_17/x1/bn_2"
    output: "conv4_17/x1/bn_3"
    op_type: "Relu"
  }
  node {
    input: "conv4_17/x1/bn_3"
    input: "conv4_17/x1_w_0"
    output: "conv4_17/x1_1"
    op_type: "Conv"
    attribute {
      name: "strides"
      ints: 1
      ints: 1
      type: INTS
    }
    attribute {
      name: "pads"
      ints: 0
      ints: 0
      ints: 0
      ints: 0
      type: INTS
    }
    attribute {
      name: "kernel_shape"
      ints: 1
      ints: 1
      type: INTS
    }
  }
  node {
    input: "conv4_17/x1_1"
    input: "conv4_17/x2/bn_scale_0"
    input: "conv4_17/x2/bn_bias_0"
    input: "conv4_17/x2/bn_mean_0"
    input: "conv4_17/x2/bn_var_0"
    output: "conv4_17/x2/bn_1"
    op_type: "BatchNormalization"
    attribute {
      name: "epsilon"
      f: 1e-05
      type: FLOAT
    }
  }
  node {
    input: "conv4_17/x2/bn_w_0"
    output: "OC2_DUMMY_144"
    op_type: "Unsqueeze"
    attribute {
      name: "axes"
      ints: 1
      ints: 2
      type: INTS
    }
  }
  node {
    input: "conv4_17/x2/bn_1"
    input: "OC2_DUMMY_144"
    output: "conv4_17/x2/bn_internal_1"
    op_type: "Mul"
  }
  node {
    input: "conv4_17/x2/bn_b_0"
    output: "OC2_DUMMY_145"
    op_type: "Unsqueeze"
    attribute {
      name: "axes"
      ints: 1
      ints: 2
      type: INTS
    }
  }
  node {
    input: "conv4_17/x2/bn_internal_1"
    input: "OC2_DUMMY_145"
    output: "conv4_17/x2/bn_2"
    op_type: "Add"
  }
  node {
    input: "conv4_17/x2/bn_2"
    output: "conv4_17/x2/bn_3"
    op_type: "Relu"
  }
  node {
    input: "conv4_17/x2/bn_3"
    input: "conv4_17/x2_w_0"
    output: "conv4_17/x2_1"
    op_type: "Conv"
    attribute {
      name: "strides"
      ints: 1
      ints: 1
      type: INTS
    }
    attribute {
      name: "pads"
      ints: 1
      ints: 1
      ints: 1
      ints: 1
      type: INTS
    }
    attribute {
      name: "kernel_shape"
      ints: 3
      ints: 3
      type: INTS
    }
  }
  node {
    input: "concat_4_16_1"
    input: "conv4_17/x2_1"
    output: "concat_4_17_1"
    op_type: "Concat"
    attribute {
      name: "axis"
      i: 1
      type: INT
    }
  }
  node {
    input: "concat_4_17_1"
    input: "conv4_18/x1/bn_scale_0"
    input: "conv4_18/x1/bn_bias_0"
    input: "conv4_18/x1/bn_mean_0"
    input: "conv4_18/x1/bn_var_0"
    output: "conv4_18/x1/bn_1"
    op_type: "BatchNormalization"
    attribute {
      name: "epsilon"
      f: 1e-05
      type: FLOAT
    }
  }
  node {
    input: "conv4_18/x1/bn_w_0"
    output: "OC2_DUMMY_146"
    op_type: "Unsqueeze"
    attribute {
      name: "axes"
      ints: 1
      ints: 2
      type: INTS
    }
  }
  node {
    input: "conv4_18/x1/bn_1"
    input: "OC2_DUMMY_146"
    output: "conv4_18/x1/bn_internal_1"
    op_type: "Mul"
  }
  node {
    input: "conv4_18/x1/bn_b_0"
    output: "OC2_DUMMY_147"
    op_type: "Unsqueeze"
    attribute {
      name: "axes"
      ints: 1
      ints: 2
      type: INTS
    }
  }
  node {
    input: "conv4_18/x1/bn_internal_1"
    input: "OC2_DUMMY_147"
    output: "conv4_18/x1/bn_2"
    op_type: "Add"
  }
  node {
    input: "conv4_18/x1/bn_2"
    output: "conv4_18/x1/bn_3"
    op_type: "Relu"
  }
  node {
    input: "conv4_18/x1/bn_3"
    input: "conv4_18/x1_w_0"
    output: "conv4_18/x1_1"
    op_type: "Conv"
    attribute {
      name: "strides"
      ints: 1
      ints: 1
      type: INTS
    }
    attribute {
      name: "pads"
      ints: 0
      ints: 0
      ints: 0
      ints: 0
      type: INTS
    }
    attribute {
      name: "kernel_shape"
      ints: 1
      ints: 1
      type: INTS
    }
  }
  node {
    input: "conv4_18/x1_1"
    input: "conv4_18/x2/bn_scale_0"
    input: "conv4_18/x2/bn_bias_0"
    input: "conv4_18/x2/bn_mean_0"
    input: "conv4_18/x2/bn_var_0"
    output: "conv4_18/x2/bn_1"
    op_type: "BatchNormalization"
    attribute {
      name: "epsilon"
      f: 1e-05
      type: FLOAT
    }
  }
  node {
    input: "conv4_18/x2/bn_w_0"
    output: "OC2_DUMMY_148"
    op_type: "Unsqueeze"
    attribute {
      name: "axes"
      ints: 1
      ints: 2
      type: INTS
    }
  }
  node {
    input: "conv4_18/x2/bn_1"
    input: "OC2_DUMMY_148"
    output: "conv4_18/x2/bn_internal_1"
    op_type: "Mul"
  }
  node {
    input: "conv4_18/x2/bn_b_0"
    output: "OC2_DUMMY_149"
    op_type: "Unsqueeze"
    attribute {
      name: "axes"
      ints: 1
      ints: 2
      type: INTS
    }
  }
  node {
    input: "conv4_18/x2/bn_internal_1"
    input: "OC2_DUMMY_149"
    output: "conv4_18/x2/bn_2"
    op_type: "Add"
  }
  node {
    input: "conv4_18/x2/bn_2"
    output: "conv4_18/x2/bn_3"
    op_type: "Relu"
  }
  node {
    input: "conv4_18/x2/bn_3"
    input: "conv4_18/x2_w_0"
    output: "conv4_18/x2_1"
    op_type: "Conv"
    attribute {
      name: "strides"
      ints: 1
      ints: 1
      type: INTS
    }
    attribute {
      name: "pads"
      ints: 1
      ints: 1
      ints: 1
      ints: 1
      type: INTS
    }
    attribute {
      name: "kernel_shape"
      ints: 3
      ints: 3
      type: INTS
    }
  }
  node {
    input: "concat_4_17_1"
    input: "conv4_18/x2_1"
    output: "concat_4_18_1"
    op_type: "Concat"
    attribute {
      name: "axis"
      i: 1
      type: INT
    }
  }
  node {
    input: "concat_4_18_1"
    input: "conv4_19/x1/bn_scale_0"
    input: "conv4_19/x1/bn_bias_0"
    input: "conv4_19/x1/bn_mean_0"
    input: "conv4_19/x1/bn_var_0"
    output: "conv4_19/x1/bn_1"
    op_type: "BatchNormalization"
    attribute {
      name: "epsilon"
      f: 1e-05
      type: FLOAT
    }
  }
  node {
    input: "conv4_19/x1/bn_w_0"
    output: "OC2_DUMMY_150"
    op_type: "Unsqueeze"
    attribute {
      name: "axes"
      ints: 1
      ints: 2
      type: INTS
    }
  }
  node {
    input: "conv4_19/x1/bn_1"
    input: "OC2_DUMMY_150"
    output: "conv4_19/x1/bn_internal_1"
    op_type: "Mul"
  }
  node {
    input: "conv4_19/x1/bn_b_0"
    output: "OC2_DUMMY_151"
    op_type: "Unsqueeze"
    attribute {
      name: "axes"
      ints: 1
      ints: 2
      type: INTS
    }
  }
  node {
    input: "conv4_19/x1/bn_internal_1"
    input: "OC2_DUMMY_151"
    output: "conv4_19/x1/bn_2"
    op_type: "Add"
  }
  node {
    input: "conv4_19/x1/bn_2"
    output: "conv4_19/x1/bn_3"
    op_type: "Relu"
  }
  node {
    input: "conv4_19/x1/bn_3"
    input: "conv4_19/x1_w_0"
    output: "conv4_19/x1_1"
    op_type: "Conv"
    attribute {
      name: "strides"
      ints: 1
      ints: 1
      type: INTS
    }
    attribute {
      name: "pads"
      ints: 0
      ints: 0
      ints: 0
      ints: 0
      type: INTS
    }
    attribute {
      name: "kernel_shape"
      ints: 1
      ints: 1
      type: INTS
    }
  }
  node {
    input: "conv4_19/x1_1"
    input: "conv4_19/x2/bn_scale_0"
    input: "conv4_19/x2/bn_bias_0"
    input: "conv4_19/x2/bn_mean_0"
    input: "conv4_19/x2/bn_var_0"
    output: "conv4_19/x2/bn_1"
    op_type: "BatchNormalization"
    attribute {
      name: "epsilon"
      f: 1e-05
      type: FLOAT
    }
  }
  node {
    input: "conv4_19/x2/bn_w_0"
    output: "OC2_DUMMY_152"
    op_type: "Unsqueeze"
    attribute {
      name: "axes"
      ints: 1
      ints: 2
      type: INTS
    }
  }
  node {
    input: "conv4_19/x2/bn_1"
    input: "OC2_DUMMY_152"
    output: "conv4_19/x2/bn_internal_1"
    op_type: "Mul"
  }
  node {
    input: "conv4_19/x2/bn_b_0"
    output: "OC2_DUMMY_153"
    op_type: "Unsqueeze"
    attribute {
      name: "axes"
      ints: 1
      ints: 2
      type: INTS
    }
  }
  node {
    input: "conv4_19/x2/bn_internal_1"
    input: "OC2_DUMMY_153"
    output: "conv4_19/x2/bn_2"
    op_type: "Add"
  }
  node {
    input: "conv4_19/x2/bn_2"
    output: "conv4_19/x2/bn_3"
    op_type: "Relu"
  }
  node {
    input: "conv4_19/x2/bn_3"
    input: "conv4_19/x2_w_0"
    output: "conv4_19/x2_1"
    op_type: "Conv"
    attribute {
      name: "strides"
      ints: 1
      ints: 1
      type: INTS
    }
    attribute {
      name: "pads"
      ints: 1
      ints: 1
      ints: 1
      ints: 1
      type: INTS
    }
    attribute {
      name: "kernel_shape"
      ints: 3
      ints: 3
      type: INTS
    }
  }
  node {
    input: "concat_4_18_1"
    input: "conv4_19/x2_1"
    output: "concat_4_19_1"
    op_type: "Concat"
    attribute {
      name: "axis"
      i: 1
      type: INT
    }
  }
  node {
    input: "concat_4_19_1"
    input: "conv4_20/x1/bn_scale_0"
    input: "conv4_20/x1/bn_bias_0"
    input: "conv4_20/x1/bn_mean_0"
    input: "conv4_20/x1/bn_var_0"
    output: "conv4_20/x1/bn_1"
    op_type: "BatchNormalization"
    attribute {
      name: "epsilon"
      f: 1e-05
      type: FLOAT
    }
  }
  node {
    input: "conv4_20/x1/bn_w_0"
    output: "OC2_DUMMY_154"
    op_type: "Unsqueeze"
    attribute {
      name: "axes"
      ints: 1
      ints: 2
      type: INTS
    }
  }
  node {
    input: "conv4_20/x1/bn_1"
    input: "OC2_DUMMY_154"
    output: "conv4_20/x1/bn_internal_1"
    op_type: "Mul"
  }
  node {
    input: "conv4_20/x1/bn_b_0"
    output: "OC2_DUMMY_155"
    op_type: "Unsqueeze"
    attribute {
      name: "axes"
      ints: 1
      ints: 2
      type: INTS
    }
  }
  node {
    input: "conv4_20/x1/bn_internal_1"
    input: "OC2_DUMMY_155"
    output: "conv4_20/x1/bn_2"
    op_type: "Add"
  }
  node {
    input: "conv4_20/x1/bn_2"
    output: "conv4_20/x1/bn_3"
    op_type: "Relu"
  }
  node {
    input: "conv4_20/x1/bn_3"
    input: "conv4_20/x1_w_0"
    output: "conv4_20/x1_1"
    op_type: "Conv"
    attribute {
      name: "strides"
      ints: 1
      ints: 1
      type: INTS
    }
    attribute {
      name: "pads"
      ints: 0
      ints: 0
      ints: 0
      ints: 0
      type: INTS
    }
    attribute {
      name: "kernel_shape"
      ints: 1
      ints: 1
      type: INTS
    }
  }
  node {
    input: "conv4_20/x1_1"
    input: "conv4_20/x2/bn_scale_0"
    input: "conv4_20/x2/bn_bias_0"
    input: "conv4_20/x2/bn_mean_0"
    input: "conv4_20/x2/bn_var_0"
    output: "conv4_20/x2/bn_1"
    op_type: "BatchNormalization"
    attribute {
      name: "epsilon"
      f: 1e-05
      type: FLOAT
    }
  }
  node {
    input: "conv4_20/x2/bn_w_0"
    output: "OC2_DUMMY_156"
    op_type: "Unsqueeze"
    attribute {
      name: "axes"
      ints: 1
      ints: 2
      type: INTS
    }
  }
  node {
    input: "conv4_20/x2/bn_1"
    input: "OC2_DUMMY_156"
    output: "conv4_20/x2/bn_internal_1"
    op_type: "Mul"
  }
  node {
    input: "conv4_20/x2/bn_b_0"
    output: "OC2_DUMMY_157"
    op_type: "Unsqueeze"
    attribute {
      name: "axes"
      ints: 1
      ints: 2
      type: INTS
    }
  }
  node {
    input: "conv4_20/x2/bn_internal_1"
    input: "OC2_DUMMY_157"
    output: "conv4_20/x2/bn_2"
    op_type: "Add"
  }
  node {
    input: "conv4_20/x2/bn_2"
    output: "conv4_20/x2/bn_3"
    op_type: "Relu"
  }
  node {
    input: "conv4_20/x2/bn_3"
    input: "conv4_20/x2_w_0"
    output: "conv4_20/x2_1"
    op_type: "Conv"
    attribute {
      name: "strides"
      ints: 1
      ints: 1
      type: INTS
    }
    attribute {
      name: "pads"
      ints: 1
      ints: 1
      ints: 1
      ints: 1
      type: INTS
    }
    attribute {
      name: "kernel_shape"
      ints: 3
      ints: 3
      type: INTS
    }
  }
  node {
    input: "concat_4_19_1"
    input: "conv4_20/x2_1"
    output: "concat_4_20_1"
    op_type: "Concat"
    attribute {
      name: "axis"
      i: 1
      type: INT
    }
  }
  node {
    input: "concat_4_20_1"
    input: "conv4_21/x1/bn_scale_0"
    input: "conv4_21/x1/bn_bias_0"
    input: "conv4_21/x1/bn_mean_0"
    input: "conv4_21/x1/bn_var_0"
    output: "conv4_21/x1/bn_1"
    op_type: "BatchNormalization"
    attribute {
      name: "epsilon"
      f: 1e-05
      type: FLOAT
    }
  }
  node {
    input: "conv4_21/x1/bn_w_0"
    output: "OC2_DUMMY_158"
    op_type: "Unsqueeze"
    attribute {
      name: "axes"
      ints: 1
      ints: 2
      type: INTS
    }
  }
  node {
    input: "conv4_21/x1/bn_1"
    input: "OC2_DUMMY_158"
    output: "conv4_21/x1/bn_internal_1"
    op_type: "Mul"
  }
  node {
    input: "conv4_21/x1/bn_b_0"
    output: "OC2_DUMMY_159"
    op_type: "Unsqueeze"
    attribute {
      name: "axes"
      ints: 1
      ints: 2
      type: INTS
    }
  }
  node {
    input: "conv4_21/x1/bn_internal_1"
    input: "OC2_DUMMY_159"
    output: "conv4_21/x1/bn_2"
    op_type: "Add"
  }
  node {
    input: "conv4_21/x1/bn_2"
    output: "conv4_21/x1/bn_3"
    op_type: "Relu"
  }
  node {
    input: "conv4_21/x1/bn_3"
    input: "conv4_21/x1_w_0"
    output: "conv4_21/x1_1"
    op_type: "Conv"
    attribute {
      name: "strides"
      ints: 1
      ints: 1
      type: INTS
    }
    attribute {
      name: "pads"
      ints: 0
      ints: 0
      ints: 0
      ints: 0
      type: INTS
    }
    attribute {
      name: "kernel_shape"
      ints: 1
      ints: 1
      type: INTS
    }
  }
  node {
    input: "conv4_21/x1_1"
    input: "conv4_21/x2/bn_scale_0"
    input: "conv4_21/x2/bn_bias_0"
    input: "conv4_21/x2/bn_mean_0"
    input: "conv4_21/x2/bn_var_0"
    output: "conv4_21/x2/bn_1"
    op_type: "BatchNormalization"
    attribute {
      name: "epsilon"
      f: 1e-05
      type: FLOAT
    }
  }
  node {
    input: "conv4_21/x2/bn_w_0"
    output: "OC2_DUMMY_160"
    op_type: "Unsqueeze"
    attribute {
      name: "axes"
      ints: 1
      ints: 2
      type: INTS
    }
  }
  node {
    input: "conv4_21/x2/bn_1"
    input: "OC2_DUMMY_160"
    output: "conv4_21/x2/bn_internal_1"
    op_type: "Mul"
  }
  node {
    input: "conv4_21/x2/bn_b_0"
    output: "OC2_DUMMY_161"
    op_type: "Unsqueeze"
    attribute {
      name: "axes"
      ints: 1
      ints: 2
      type: INTS
    }
  }
  node {
    input: "conv4_21/x2/bn_internal_1"
    input: "OC2_DUMMY_161"
    output: "conv4_21/x2/bn_2"
    op_type: "Add"
  }
  node {
    input: "conv4_21/x2/bn_2"
    output: "conv4_21/x2/bn_3"
    op_type: "Relu"
  }
  node {
    input: "conv4_21/x2/bn_3"
    input: "conv4_21/x2_w_0"
    output: "conv4_21/x2_1"
    op_type: "Conv"
    attribute {
      name: "strides"
      ints: 1
      ints: 1
      type: INTS
    }
    attribute {
      name: "pads"
      ints: 1
      ints: 1
      ints: 1
      ints: 1
      type: INTS
    }
    attribute {
      name: "kernel_shape"
      ints: 3
      ints: 3
      type: INTS
    }
  }
  node {
    input: "concat_4_20_1"
    input: "conv4_21/x2_1"
    output: "concat_4_21_1"
    op_type: "Concat"
    attribute {
      name: "axis"
      i: 1
      type: INT
    }
  }
  node {
    input: "concat_4_21_1"
    input: "conv4_22/x1/bn_scale_0"
    input: "conv4_22/x1/bn_bias_0"
    input: "conv4_22/x1/bn_mean_0"
    input: "conv4_22/x1/bn_var_0"
    output: "conv4_22/x1/bn_1"
    op_type: "BatchNormalization"
    attribute {
      name: "epsilon"
      f: 1e-05
      type: FLOAT
    }
  }
  node {
    input: "conv4_22/x1/bn_w_0"
    output: "OC2_DUMMY_162"
    op_type: "Unsqueeze"
    attribute {
      name: "axes"
      ints: 1
      ints: 2
      type: INTS
    }
  }
  node {
    input: "conv4_22/x1/bn_1"
    input: "OC2_DUMMY_162"
    output: "conv4_22/x1/bn_internal_1"
    op_type: "Mul"
  }
  node {
    input: "conv4_22/x1/bn_b_0"
    output: "OC2_DUMMY_163"
    op_type: "Unsqueeze"
    attribute {
      name: "axes"
      ints: 1
      ints: 2
      type: INTS
    }
  }
  node {
    input: "conv4_22/x1/bn_internal_1"
    input: "OC2_DUMMY_163"
    output: "conv4_22/x1/bn_2"
    op_type: "Add"
  }
  node {
    input: "conv4_22/x1/bn_2"
    output: "conv4_22/x1/bn_3"
    op_type: "Relu"
  }
  node {
    input: "conv4_22/x1/bn_3"
    input: "conv4_22/x1_w_0"
    output: "conv4_22/x1_1"
    op_type: "Conv"
    attribute {
      name: "strides"
      ints: 1
      ints: 1
      type: INTS
    }
    attribute {
      name: "pads"
      ints: 0
      ints: 0
      ints: 0
      ints: 0
      type: INTS
    }
    attribute {
      name: "kernel_shape"
      ints: 1
      ints: 1
      type: INTS
    }
  }
  node {
    input: "conv4_22/x1_1"
    input: "conv4_22/x2/bn_scale_0"
    input: "conv4_22/x2/bn_bias_0"
    input: "conv4_22/x2/bn_mean_0"
    input: "conv4_22/x2/bn_var_0"
    output: "conv4_22/x2/bn_1"
    op_type: "BatchNormalization"
    attribute {
      name: "epsilon"
      f: 1e-05
      type: FLOAT
    }
  }
  node {
    input: "conv4_22/x2/bn_w_0"
    output: "OC2_DUMMY_164"
    op_type: "Unsqueeze"
    attribute {
      name: "axes"
      ints: 1
      ints: 2
      type: INTS
    }
  }
  node {
    input: "conv4_22/x2/bn_1"
    input: "OC2_DUMMY_164"
    output: "conv4_22/x2/bn_internal_1"
    op_type: "Mul"
  }
  node {
    input: "conv4_22/x2/bn_b_0"
    output: "OC2_DUMMY_165"
    op_type: "Unsqueeze"
    attribute {
      name: "axes"
      ints: 1
      ints: 2
      type: INTS
    }
  }
  node {
    input: "conv4_22/x2/bn_internal_1"
    input: "OC2_DUMMY_165"
    output: "conv4_22/x2/bn_2"
    op_type: "Add"
  }
  node {
    input: "conv4_22/x2/bn_2"
    output: "conv4_22/x2/bn_3"
    op_type: "Relu"
  }
  node {
    input: "conv4_22/x2/bn_3"
    input: "conv4_22/x2_w_0"
    output: "conv4_22/x2_1"
    op_type: "Conv"
    attribute {
      name: "strides"
      ints: 1
      ints: 1
      type: INTS
    }
    attribute {
      name: "pads"
      ints: 1
      ints: 1
      ints: 1
      ints: 1
      type: INTS
    }
    attribute {
      name: "kernel_shape"
      ints: 3
      ints: 3
      type: INTS
    }
  }
  node {
    input: "concat_4_21_1"
    input: "conv4_22/x2_1"
    output: "concat_4_22_1"
    op_type: "Concat"
    attribute {
      name: "axis"
      i: 1
      type: INT
    }
  }
  node {
    input: "concat_4_22_1"
    input: "conv4_23/x1/bn_scale_0"
    input: "conv4_23/x1/bn_bias_0"
    input: "conv4_23/x1/bn_mean_0"
    input: "conv4_23/x1/bn_var_0"
    output: "conv4_23/x1/bn_1"
    op_type: "BatchNormalization"
    attribute {
      name: "epsilon"
      f: 1e-05
      type: FLOAT
    }
  }
  node {
    input: "conv4_23/x1/bn_w_0"
    output: "OC2_DUMMY_166"
    op_type: "Unsqueeze"
    attribute {
      name: "axes"
      ints: 1
      ints: 2
      type: INTS
    }
  }
  node {
    input: "conv4_23/x1/bn_1"
    input: "OC2_DUMMY_166"
    output: "conv4_23/x1/bn_internal_1"
    op_type: "Mul"
  }
  node {
    input: "conv4_23/x1/bn_b_0"
    output: "OC2_DUMMY_167"
    op_type: "Unsqueeze"
    attribute {
      name: "axes"
      ints: 1
      ints: 2
      type: INTS
    }
  }
  node {
    input: "conv4_23/x1/bn_internal_1"
    input: "OC2_DUMMY_167"
    output: "conv4_23/x1/bn_2"
    op_type: "Add"
  }
  node {
    input: "conv4_23/x1/bn_2"
    output: "conv4_23/x1/bn_3"
    op_type: "Relu"
  }
  node {
    input: "conv4_23/x1/bn_3"
    input: "conv4_23/x1_w_0"
    output: "conv4_23/x1_1"
    op_type: "Conv"
    attribute {
      name: "strides"
      ints: 1
      ints: 1
      type: INTS
    }
    attribute {
      name: "pads"
      ints: 0
      ints: 0
      ints: 0
      ints: 0
      type: INTS
    }
    attribute {
      name: "kernel_shape"
      ints: 1
      ints: 1
      type: INTS
    }
  }
  node {
    input: "conv4_23/x1_1"
    input: "conv4_23/x2/bn_scale_0"
    input: "conv4_23/x2/bn_bias_0"
    input: "conv4_23/x2/bn_mean_0"
    input: "conv4_23/x2/bn_var_0"
    output: "conv4_23/x2/bn_1"
    op_type: "BatchNormalization"
    attribute {
      name: "epsilon"
      f: 1e-05
      type: FLOAT
    }
  }
  node {
    input: "conv4_23/x2/bn_w_0"
    output: "OC2_DUMMY_168"
    op_type: "Unsqueeze"
    attribute {
      name: "axes"
      ints: 1
      ints: 2
      type: INTS
    }
  }
  node {
    input: "conv4_23/x2/bn_1"
    input: "OC2_DUMMY_168"
    output: "conv4_23/x2/bn_internal_1"
    op_type: "Mul"
  }
  node {
    input: "conv4_23/x2/bn_b_0"
    output: "OC2_DUMMY_169"
    op_type: "Unsqueeze"
    attribute {
      name: "axes"
      ints: 1
      ints: 2
      type: INTS
    }
  }
  node {
    input: "conv4_23/x2/bn_internal_1"
    input: "OC2_DUMMY_169"
    output: "conv4_23/x2/bn_2"
    op_type: "Add"
  }
  node {
    input: "conv4_23/x2/bn_2"
    output: "conv4_23/x2/bn_3"
    op_type: "Relu"
  }
  node {
    input: "conv4_23/x2/bn_3"
    input: "conv4_23/x2_w_0"
    output: "conv4_23/x2_1"
    op_type: "Conv"
    attribute {
      name: "strides"
      ints: 1
      ints: 1
      type: INTS
    }
    attribute {
      name: "pads"
      ints: 1
      ints: 1
      ints: 1
      ints: 1
      type: INTS
    }
    attribute {
      name: "kernel_shape"
      ints: 3
      ints: 3
      type: INTS
    }
  }
  node {
    input: "concat_4_22_1"
    input: "conv4_23/x2_1"
    output: "concat_4_23_1"
    op_type: "Concat"
    attribute {
      name: "axis"
      i: 1
      type: INT
    }
  }
  node {
    input: "concat_4_23_1"
    input: "conv4_24/x1/bn_scale_0"
    input: "conv4_24/x1/bn_bias_0"
    input: "conv4_24/x1/bn_mean_0"
    input: "conv4_24/x1/bn_var_0"
    output: "conv4_24/x1/bn_1"
    op_type: "BatchNormalization"
    attribute {
      name: "epsilon"
      f: 1e-05
      type: FLOAT
    }
  }
  node {
    input: "conv4_24/x1/bn_w_0"
    output: "OC2_DUMMY_170"
    op_type: "Unsqueeze"
    attribute {
      name: "axes"
      ints: 1
      ints: 2
      type: INTS
    }
  }
  node {
    input: "conv4_24/x1/bn_1"
    input: "OC2_DUMMY_170"
    output: "conv4_24/x1/bn_internal_1"
    op_type: "Mul"
  }
  node {
    input: "conv4_24/x1/bn_b_0"
    output: "OC2_DUMMY_171"
    op_type: "Unsqueeze"
    attribute {
      name: "axes"
      ints: 1
      ints: 2
      type: INTS
    }
  }
  node {
    input: "conv4_24/x1/bn_internal_1"
    input: "OC2_DUMMY_171"
    output: "conv4_24/x1/bn_2"
    op_type: "Add"
  }
  node {
    input: "conv4_24/x1/bn_2"
    output: "conv4_24/x1/bn_3"
    op_type: "Relu"
  }
  node {
    input: "conv4_24/x1/bn_3"
    input: "conv4_24/x1_w_0"
    output: "conv4_24/x1_1"
    op_type: "Conv"
    attribute {
      name: "strides"
      ints: 1
      ints: 1
      type: INTS
    }
    attribute {
      name: "pads"
      ints: 0
      ints: 0
      ints: 0
      ints: 0
      type: INTS
    }
    attribute {
      name: "kernel_shape"
      ints: 1
      ints: 1
      type: INTS
    }
  }
  node {
    input: "conv4_24/x1_1"
    input: "conv4_24/x2/bn_scale_0"
    input: "conv4_24/x2/bn_bias_0"
    input: "conv4_24/x2/bn_mean_0"
    input: "conv4_24/x2/bn_var_0"
    output: "conv4_24/x2/bn_1"
    op_type: "BatchNormalization"
    attribute {
      name: "epsilon"
      f: 1e-05
      type: FLOAT
    }
  }
  node {
    input: "conv4_24/x2/bn_w_0"
    output: "OC2_DUMMY_172"
    op_type: "Unsqueeze"
    attribute {
      name: "axes"
      ints: 1
      ints: 2
      type: INTS
    }
  }
  node {
    input: "conv4_24/x2/bn_1"
    input: "OC2_DUMMY_172"
    output: "conv4_24/x2/bn_internal_1"
    op_type: "Mul"
  }
  node {
    input: "conv4_24/x2/bn_b_0"
    output: "OC2_DUMMY_173"
    op_type: "Unsqueeze"
    attribute {
      name: "axes"
      ints: 1
      ints: 2
      type: INTS
    }
  }
  node {
    input: "conv4_24/x2/bn_internal_1"
    input: "OC2_DUMMY_173"
    output: "conv4_24/x2/bn_2"
    op_type: "Add"
  }
  node {
    input: "conv4_24/x2/bn_2"
    output: "conv4_24/x2/bn_3"
    op_type: "Relu"
  }
  node {
    input: "conv4_24/x2/bn_3"
    input: "conv4_24/x2_w_0"
    output: "conv4_24/x2_1"
    op_type: "Conv"
    attribute {
      name: "strides"
      ints: 1
      ints: 1
      type: INTS
    }
    attribute {
      name: "pads"
      ints: 1
      ints: 1
      ints: 1
      ints: 1
      type: INTS
    }
    attribute {
      name: "kernel_shape"
      ints: 3
      ints: 3
      type: INTS
    }
  }
  node {
    input: "concat_4_23_1"
    input: "conv4_24/x2_1"
    output: "concat_4_24_1"
    op_type: "Concat"
    attribute {
      name: "axis"
      i: 1
      type: INT
    }
  }
  node {
    input: "concat_4_24_1"
    input: "conv4_blk/bn_scale_0"
    input: "conv4_blk/bn_bias_0"
    input: "conv4_blk/bn_mean_0"
    input: "conv4_blk/bn_var_0"
    output: "conv4_blk/bn_1"
    op_type: "BatchNormalization"
    attribute {
      name: "epsilon"
      f: 1e-05
      type: FLOAT
    }
  }
  node {
    input: "conv4_blk/bn_w_0"
    output: "OC2_DUMMY_174"
    op_type: "Unsqueeze"
    attribute {
      name: "axes"
      ints: 1
      ints: 2
      type: INTS
    }
  }
  node {
    input: "conv4_blk/bn_1"
    input: "OC2_DUMMY_174"
    output: "conv4_blk/bn_internal_1"
    op_type: "Mul"
  }
  node {
    input: "conv4_blk/bn_b_0"
    output: "OC2_DUMMY_175"
    op_type: "Unsqueeze"
    attribute {
      name: "axes"
      ints: 1
      ints: 2
      type: INTS
    }
  }
  node {
    input: "conv4_blk/bn_internal_1"
    input: "OC2_DUMMY_175"
    output: "conv4_blk/bn_2"
    op_type: "Add"
  }
  node {
    input: "conv4_blk/bn_2"
    output: "conv4_blk/bn_3"
    op_type: "Relu"
  }
  node {
    input: "conv4_blk/bn_3"
    input: "conv4_blk_w_0"
    output: "conv4_blk_1"
    op_type: "Conv"
    attribute {
      name: "strides"
      ints: 1
      ints: 1
      type: INTS
    }
    attribute {
      name: "pads"
      ints: 0
      ints: 0
      ints: 0
      ints: 0
      type: INTS
    }
    attribute {
      name: "kernel_shape"
      ints: 1
      ints: 1
      type: INTS
    }
  }
  node {
    input: "conv4_blk_1"
    output: "pool4_1"
    op_type: "AveragePool"
    attribute {
      name: "strides"
      ints: 2
      ints: 2
      type: INTS
    }
    attribute {
      name: "pads"
      ints: 0
      ints: 0
      ints: 0
      ints: 0
      type: INTS
    }
    attribute {
      name: "kernel_shape"
      ints: 2
      ints: 2
      type: INTS
    }
  }
  node {
    input: "pool4_1"
    input: "conv5_1/x1/bn_scale_0"
    input: "conv5_1/x1/bn_bias_0"
    input: "conv5_1/x1/bn_mean_0"
    input: "conv5_1/x1/bn_var_0"
    output: "conv5_1/x1/bn_1"
    op_type: "BatchNormalization"
    attribute {
      name: "epsilon"
      f: 1e-05
      type: FLOAT
    }
  }
  node {
    input: "conv5_1/x1/bn_w_0"
    output: "OC2_DUMMY_176"
    op_type: "Unsqueeze"
    attribute {
      name: "axes"
      ints: 1
      ints: 2
      type: INTS
    }
  }
  node {
    input: "conv5_1/x1/bn_1"
    input: "OC2_DUMMY_176"
    output: "conv5_1/x1/bn_internal_1"
    op_type: "Mul"
  }
  node {
    input: "conv5_1/x1/bn_b_0"
    output: "OC2_DUMMY_177"
    op_type: "Unsqueeze"
    attribute {
      name: "axes"
      ints: 1
      ints: 2
      type: INTS
    }
  }
  node {
    input: "conv5_1/x1/bn_internal_1"
    input: "OC2_DUMMY_177"
    output: "conv5_1/x1/bn_2"
    op_type: "Add"
  }
  node {
    input: "conv5_1/x1/bn_2"
    output: "conv5_1/x1/bn_3"
    op_type: "Relu"
  }
  node {
    input: "conv5_1/x1/bn_3"
    input: "conv5_1/x1_w_0"
    output: "conv5_1/x1_1"
    op_type: "Conv"
    attribute {
      name: "strides"
      ints: 1
      ints: 1
      type: INTS
    }
    attribute {
      name: "pads"
      ints: 0
      ints: 0
      ints: 0
      ints: 0
      type: INTS
    }
    attribute {
      name: "kernel_shape"
      ints: 1
      ints: 1
      type: INTS
    }
  }
  node {
    input: "conv5_1/x1_1"
    input: "conv5_1/x2/bn_scale_0"
    input: "conv5_1/x2/bn_bias_0"
    input: "conv5_1/x2/bn_mean_0"
    input: "conv5_1/x2/bn_var_0"
    output: "conv5_1/x2/bn_1"
    op_type: "BatchNormalization"
    attribute {
      name: "epsilon"
      f: 1e-05
      type: FLOAT
    }
  }
  node {
    input: "conv5_1/x2/bn_w_0"
    output: "OC2_DUMMY_178"
    op_type: "Unsqueeze"
    attribute {
      name: "axes"
      ints: 1
      ints: 2
      type: INTS
    }
  }
  node {
    input: "conv5_1/x2/bn_1"
    input: "OC2_DUMMY_178"
    output: "conv5_1/x2/bn_internal_1"
    op_type: "Mul"
  }
  node {
    input: "conv5_1/x2/bn_b_0"
    output: "OC2_DUMMY_179"
    op_type: "Unsqueeze"
    attribute {
      name: "axes"
      ints: 1
      ints: 2
      type: INTS
    }
  }
  node {
    input: "conv5_1/x2/bn_internal_1"
    input: "OC2_DUMMY_179"
    output: "conv5_1/x2/bn_2"
    op_type: "Add"
  }
  node {
    input: "conv5_1/x2/bn_2"
    output: "conv5_1/x2/bn_3"
    op_type: "Relu"
  }
  node {
    input: "conv5_1/x2/bn_3"
    input: "conv5_1/x2_w_0"
    output: "conv5_1/x2_1"
    op_type: "Conv"
    attribute {
      name: "strides"
      ints: 1
      ints: 1
      type: INTS
    }
    attribute {
      name: "pads"
      ints: 1
      ints: 1
      ints: 1
      ints: 1
      type: INTS
    }
    attribute {
      name: "kernel_shape"
      ints: 3
      ints: 3
      type: INTS
    }
  }
  node {
    input: "pool4_1"
    input: "conv5_1/x2_1"
    output: "concat_5_1_1"
    op_type: "Concat"
    attribute {
      name: "axis"
      i: 1
      type: INT
    }
  }
  node {
    input: "concat_5_1_1"
    input: "conv5_2/x1/bn_scale_0"
    input: "conv5_2/x1/bn_bias_0"
    input: "conv5_2/x1/bn_mean_0"
    input: "conv5_2/x1/bn_var_0"
    output: "conv5_2/x1/bn_1"
    op_type: "BatchNormalization"
    attribute {
      name: "epsilon"
      f: 1e-05
      type: FLOAT
    }
  }
  node {
    input: "conv5_2/x1/bn_w_0"
    output: "OC2_DUMMY_180"
    op_type: "Unsqueeze"
    attribute {
      name: "axes"
      ints: 1
      ints: 2
      type: INTS
    }
  }
  node {
    input: "conv5_2/x1/bn_1"
    input: "OC2_DUMMY_180"
    output: "conv5_2/x1/bn_internal_1"
    op_type: "Mul"
  }
  node {
    input: "conv5_2/x1/bn_b_0"
    output: "OC2_DUMMY_181"
    op_type: "Unsqueeze"
    attribute {
      name: "axes"
      ints: 1
      ints: 2
      type: INTS
    }
  }
  node {
    input: "conv5_2/x1/bn_internal_1"
    input: "OC2_DUMMY_181"
    output: "conv5_2/x1/bn_2"
    op_type: "Add"
  }
  node {
    input: "conv5_2/x1/bn_2"
    output: "conv5_2/x1/bn_3"
    op_type: "Relu"
  }
  node {
    input: "conv5_2/x1/bn_3"
    input: "conv5_2/x1_w_0"
    output: "conv5_2/x1_1"
    op_type: "Conv"
    attribute {
      name: "strides"
      ints: 1
      ints: 1
      type: INTS
    }
    attribute {
      name: "pads"
      ints: 0
      ints: 0
      ints: 0
      ints: 0
      type: INTS
    }
    attribute {
      name: "kernel_shape"
      ints: 1
      ints: 1
      type: INTS
    }
  }
  node {
    input: "conv5_2/x1_1"
    input: "conv5_2/x2/bn_scale_0"
    input: "conv5_2/x2/bn_bias_0"
    input: "conv5_2/x2/bn_mean_0"
    input: "conv5_2/x2/bn_var_0"
    output: "conv5_2/x2/bn_1"
    op_type: "BatchNormalization"
    attribute {
      name: "epsilon"
      f: 1e-05
      type: FLOAT
    }
  }
  node {
    input: "conv5_2/x2/bn_w_0"
    output: "OC2_DUMMY_182"
    op_type: "Unsqueeze"
    attribute {
      name: "axes"
      ints: 1
      ints: 2
      type: INTS
    }
  }
  node {
    input: "conv5_2/x2/bn_1"
    input: "OC2_DUMMY_182"
    output: "conv5_2/x2/bn_internal_1"
    op_type: "Mul"
  }
  node {
    input: "conv5_2/x2/bn_b_0"
    output: "OC2_DUMMY_183"
    op_type: "Unsqueeze"
    attribute {
      name: "axes"
      ints: 1
      ints: 2
      type: INTS
    }
  }
  node {
    input: "conv5_2/x2/bn_internal_1"
    input: "OC2_DUMMY_183"
    output: "conv5_2/x2/bn_2"
    op_type: "Add"
  }
  node {
    input: "conv5_2/x2/bn_2"
    output: "conv5_2/x2/bn_3"
    op_type: "Relu"
  }
  node {
    input: "conv5_2/x2/bn_3"
    input: "conv5_2/x2_w_0"
    output: "conv5_2/x2_1"
    op_type: "Conv"
    attribute {
      name: "strides"
      ints: 1
      ints: 1
      type: INTS
    }
    attribute {
      name: "pads"
      ints: 1
      ints: 1
      ints: 1
      ints: 1
      type: INTS
    }
    attribute {
      name: "kernel_shape"
      ints: 3
      ints: 3
      type: INTS
    }
  }
  node {
    input: "concat_5_1_1"
    input: "conv5_2/x2_1"
    output: "concat_5_2_1"
    op_type: "Concat"
    attribute {
      name: "axis"
      i: 1
      type: INT
    }
  }
  node {
    input: "concat_5_2_1"
    input: "conv5_3/x1/bn_scale_0"
    input: "conv5_3/x1/bn_bias_0"
    input: "conv5_3/x1/bn_mean_0"
    input: "conv5_3/x1/bn_var_0"
    output: "conv5_3/x1/bn_1"
    op_type: "BatchNormalization"
    attribute {
      name: "epsilon"
      f: 1e-05
      type: FLOAT
    }
  }
  node {
    input: "conv5_3/x1/bn_w_0"
    output: "OC2_DUMMY_184"
    op_type: "Unsqueeze"
    attribute {
      name: "axes"
      ints: 1
      ints: 2
      type: INTS
    }
  }
  node {
    input: "conv5_3/x1/bn_1"
    input: "OC2_DUMMY_184"
    output: "conv5_3/x1/bn_internal_1"
    op_type: "Mul"
  }
  node {
    input: "conv5_3/x1/bn_b_0"
    output: "OC2_DUMMY_185"
    op_type: "Unsqueeze"
    attribute {
      name: "axes"
      ints: 1
      ints: 2
      type: INTS
    }
  }
  node {
    input: "conv5_3/x1/bn_internal_1"
    input: "OC2_DUMMY_185"
    output: "conv5_3/x1/bn_2"
    op_type: "Add"
  }
  node {
    input: "conv5_3/x1/bn_2"
    output: "conv5_3/x1/bn_3"
    op_type: "Relu"
  }
  node {
    input: "conv5_3/x1/bn_3"
    input: "conv5_3/x1_w_0"
    output: "conv5_3/x1_1"
    op_type: "Conv"
    attribute {
      name: "strides"
      ints: 1
      ints: 1
      type: INTS
    }
    attribute {
      name: "pads"
      ints: 0
      ints: 0
      ints: 0
      ints: 0
      type: INTS
    }
    attribute {
      name: "kernel_shape"
      ints: 1
      ints: 1
      type: INTS
    }
  }
  node {
    input: "conv5_3/x1_1"
    input: "conv5_3/x2/bn_scale_0"
    input: "conv5_3/x2/bn_bias_0"
    input: "conv5_3/x2/bn_mean_0"
    input: "conv5_3/x2/bn_var_0"
    output: "conv5_3/x2/bn_1"
    op_type: "BatchNormalization"
    attribute {
      name: "epsilon"
      f: 1e-05
      type: FLOAT
    }
  }
  node {
    input: "conv5_3/x2/bn_w_0"
    output: "OC2_DUMMY_186"
    op_type: "Unsqueeze"
    attribute {
      name: "axes"
      ints: 1
      ints: 2
      type: INTS
    }
  }
  node {
    input: "conv5_3/x2/bn_1"
    input: "OC2_DUMMY_186"
    output: "conv5_3/x2/bn_internal_1"
    op_type: "Mul"
  }
  node {
    input: "conv5_3/x2/bn_b_0"
    output: "OC2_DUMMY_187"
    op_type: "Unsqueeze"
    attribute {
      name: "axes"
      ints: 1
      ints: 2
      type: INTS
    }
  }
  node {
    input: "conv5_3/x2/bn_internal_1"
    input: "OC2_DUMMY_187"
    output: "conv5_3/x2/bn_2"
    op_type: "Add"
  }
  node {
    input: "conv5_3/x2/bn_2"
    output: "conv5_3/x2/bn_3"
    op_type: "Relu"
  }
  node {
    input: "conv5_3/x2/bn_3"
    input: "conv5_3/x2_w_0"
    output: "conv5_3/x2_1"
    op_type: "Conv"
    attribute {
      name: "strides"
      ints: 1
      ints: 1
      type: INTS
    }
    attribute {
      name: "pads"
      ints: 1
      ints: 1
      ints: 1
      ints: 1
      type: INTS
    }
    attribute {
      name: "kernel_shape"
      ints: 3
      ints: 3
      type: INTS
    }
  }
  node {
    input: "concat_5_2_1"
    input: "conv5_3/x2_1"
    output: "concat_5_3_1"
    op_type: "Concat"
    attribute {
      name: "axis"
      i: 1
      type: INT
    }
  }
  node {
    input: "concat_5_3_1"
    input: "conv5_4/x1/bn_scale_0"
    input: "conv5_4/x1/bn_bias_0"
    input: "conv5_4/x1/bn_mean_0"
    input: "conv5_4/x1/bn_var_0"
    output: "conv5_4/x1/bn_1"
    op_type: "BatchNormalization"
    attribute {
      name: "epsilon"
      f: 1e-05
      type: FLOAT
    }
  }
  node {
    input: "conv5_4/x1/bn_w_0"
    output: "OC2_DUMMY_188"
    op_type: "Unsqueeze"
    attribute {
      name: "axes"
      ints: 1
      ints: 2
      type: INTS
    }
  }
  node {
    input: "conv5_4/x1/bn_1"
    input: "OC2_DUMMY_188"
    output: "conv5_4/x1/bn_internal_1"
    op_type: "Mul"
  }
  node {
    input: "conv5_4/x1/bn_b_0"
    output: "OC2_DUMMY_189"
    op_type: "Unsqueeze"
    attribute {
      name: "axes"
      ints: 1
      ints: 2
      type: INTS
    }
  }
  node {
    input: "conv5_4/x1/bn_internal_1"
    input: "OC2_DUMMY_189"
    output: "conv5_4/x1/bn_2"
    op_type: "Add"
  }
  node {
    input: "conv5_4/x1/bn_2"
    output: "conv5_4/x1/bn_3"
    op_type: "Relu"
  }
  node {
    input: "conv5_4/x1/bn_3"
    input: "conv5_4/x1_w_0"
    output: "conv5_4/x1_1"
    op_type: "Conv"
    attribute {
      name: "strides"
      ints: 1
      ints: 1
      type: INTS
    }
    attribute {
      name: "pads"
      ints: 0
      ints: 0
      ints: 0
      ints: 0
      type: INTS
    }
    attribute {
      name: "kernel_shape"
      ints: 1
      ints: 1
      type: INTS
    }
  }
  node {
    input: "conv5_4/x1_1"
    input: "conv5_4/x2/bn_scale_0"
    input: "conv5_4/x2/bn_bias_0"
    input: "conv5_4/x2/bn_mean_0"
    input: "conv5_4/x2/bn_var_0"
    output: "conv5_4/x2/bn_1"
    op_type: "BatchNormalization"
    attribute {
      name: "epsilon"
      f: 1e-05
      type: FLOAT
    }
  }
  node {
    input: "conv5_4/x2/bn_w_0"
    output: "OC2_DUMMY_190"
    op_type: "Unsqueeze"
    attribute {
      name: "axes"
      ints: 1
      ints: 2
      type: INTS
    }
  }
  node {
    input: "conv5_4/x2/bn_1"
    input: "OC2_DUMMY_190"
    output: "conv5_4/x2/bn_internal_1"
    op_type: "Mul"
  }
  node {
    input: "conv5_4/x2/bn_b_0"
    output: "OC2_DUMMY_191"
    op_type: "Unsqueeze"
    attribute {
      name: "axes"
      ints: 1
      ints: 2
      type: INTS
    }
  }
  node {
    input: "conv5_4/x2/bn_internal_1"
    input: "OC2_DUMMY_191"
    output: "conv5_4/x2/bn_2"
    op_type: "Add"
  }
  node {
    input: "conv5_4/x2/bn_2"
    output: "conv5_4/x2/bn_3"
    op_type: "Relu"
  }
  node {
    input: "conv5_4/x2/bn_3"
    input: "conv5_4/x2_w_0"
    output: "conv5_4/x2_1"
    op_type: "Conv"
    attribute {
      name: "strides"
      ints: 1
      ints: 1
      type: INTS
    }
    attribute {
      name: "pads"
      ints: 1
      ints: 1
      ints: 1
      ints: 1
      type: INTS
    }
    attribute {
      name: "kernel_shape"
      ints: 3
      ints: 3
      type: INTS
    }
  }
  node {
    input: "concat_5_3_1"
    input: "conv5_4/x2_1"
    output: "concat_5_4_1"
    op_type: "Concat"
    attribute {
      name: "axis"
      i: 1
      type: INT
    }
  }
  node {
    input: "concat_5_4_1"
    input: "conv5_5/x1/bn_scale_0"
    input: "conv5_5/x1/bn_bias_0"
    input: "conv5_5/x1/bn_mean_0"
    input: "conv5_5/x1/bn_var_0"
    output: "conv5_5/x1/bn_1"
    op_type: "BatchNormalization"
    attribute {
      name: "epsilon"
      f: 1e-05
      type: FLOAT
    }
  }
  node {
    input: "conv5_5/x1/bn_w_0"
    output: "OC2_DUMMY_192"
    op_type: "Unsqueeze"
    attribute {
      name: "axes"
      ints: 1
      ints: 2
      type: INTS
    }
  }
  node {
    input: "conv5_5/x1/bn_1"
    input: "OC2_DUMMY_192"
    output: "conv5_5/x1/bn_internal_1"
    op_type: "Mul"
  }
  node {
    input: "conv5_5/x1/bn_b_0"
    output: "OC2_DUMMY_193"
    op_type: "Unsqueeze"
    attribute {
      name: "axes"
      ints: 1
      ints: 2
      type: INTS
    }
  }
  node {
    input: "conv5_5/x1/bn_internal_1"
    input: "OC2_DUMMY_193"
    output: "conv5_5/x1/bn_2"
    op_type: "Add"
  }
  node {
    input: "conv5_5/x1/bn_2"
    output: "conv5_5/x1/bn_3"
    op_type: "Relu"
  }
  node {
    input: "conv5_5/x1/bn_3"
    input: "conv5_5/x1_w_0"
    output: "conv5_5/x1_1"
    op_type: "Conv"
    attribute {
      name: "strides"
      ints: 1
      ints: 1
      type: INTS
    }
    attribute {
      name: "pads"
      ints: 0
      ints: 0
      ints: 0
      ints: 0
      type: INTS
    }
…
            dim_value: 7
          }
        }
      }
    }
  }
  value_info {
    name: "OC2_DUMMY_203"
    type {
      tensor_type {
        elem_type: 1
        shape {
          dim {
            dim_value: 128
          }
          dim {
            dim_value: 1
          }
          dim {
            dim_value: 1
          }
        }
      }
    }
  }
  value_info {
    name: "conv5_7/x2/bn_2"
    type {
      tensor_type {
        elem_type: 1
        shape {
          dim {
            dim_value: 1
          }
          dim {
            dim_value: 128
          }
          dim {
            dim_value: 7
          }
          dim {
            dim_value: 7
          }
        }
      }
    }
  }
  value_info {
    name: "conv5_7/x2/bn_3"
    type {
      tensor_type {
        elem_type: 1
        shape {
          dim {
            dim_value: 1
          }
          dim {
            dim_value: 128
          }
          dim {
            dim_value: 7
          }
          dim {
            dim_value: 7
          }
        }
      }
    }
  }
  value_info {
    name: "conv5_7/x2_1"
    type {
      tensor_type {
        elem_type: 1
        shape {
          dim {
            dim_value: 1
          }
          dim {
            dim_value: 32
          }
          dim {
            dim_value: 7
          }
          dim {
            dim_value: 7
          }
        }
      }
    }
  }
  value_info {
    name: "concat_5_7_1"
    type {
      tensor_type {
        elem_type: 1
        shape {
          dim {
            dim_value: 1
          }
          dim {
            dim_value: 736
          }
          dim {
            dim_value: 7
          }
          dim {
            dim_value: 7
          }
        }
      }
    }
  }
  value_info {
    name: "conv5_8/x1/bn_1"
    type {
      tensor_type {
        elem_type: 1
        shape {
          dim {
            dim_value: 1
          }
          dim {
            dim_value: 736
          }
          dim {
            dim_value: 7
          }
          dim {
            dim_value: 7
          }
        }
      }
    }
  }
  value_info {
    name: "OC2_DUMMY_204"
    type {
      tensor_type {
        elem_type: 1
        shape {
          dim {
            dim_value: 736
          }
          dim {
            dim_value: 1
          }
          dim {
            dim_value: 1
          }
        }
      }
    }
  }
  value_info {
    name: "conv5_8/x1/bn_internal_1"
    type {
      tensor_type {
        elem_type: 1
        shape {
          dim {
            dim_value: 1
          }
          dim {
            dim_value: 736
          }
          dim {
            dim_value: 7
          }
          dim {
            dim_value: 7
          }
        }
      }
    }
  }
  value_info {
    name: "OC2_DUMMY_205"
    type {
      tensor_type {
        elem_type: 1
        shape {
          dim {
            dim_value: 736
          }
          dim {
            dim_value: 1
          }
          dim {
            dim_value: 1
          }
        }
      }
    }
  }
  value_info {
    name: "conv5_8/x1/bn_2"
    type {
      tensor_type {
        elem_type: 1
        shape {
          dim {
            dim_value: 1
          }
          dim {
            dim_value: 736
          }
          dim {
            dim_value: 7
          }
          dim {
            dim_value: 7
          }
        }
      }
    }
  }
  value_info {
    name: "conv5_8/x1/bn_3"
    type {
      tensor_type {
        elem_type: 1
        shape {
          dim {
            dim_value: 1
          }
          dim {
            dim_value: 736
          }
          dim {
            dim_value: 7
          }
          dim {
            dim_value: 7
          }
        }
      }
    }
  }
  value_info {
    name: "conv5_8/x1_1"
    type {
      tensor_type {
        elem_type: 1
        shape {
          dim {
            dim_value: 1
          }
          dim {
            dim_value: 128
          }
          dim {
            dim_value: 7
          }
          dim {
            dim_value: 7
          }
        }
      }
    }
  }
  value_info {
    name: "conv5_8/x2/bn_1"
    type {
      tensor_type {
        elem_type: 1
        shape {
          dim {
            dim_value: 1
          }
          dim {
            dim_value: 128
          }
          dim {
            dim_value: 7
          }
          dim {
            dim_value: 7
          }
        }
      }
    }
  }
  value_info {
    name: "OC2_DUMMY_206"
    type {
      tensor_type {
        elem_type: 1
        shape {
          dim {
            dim_value: 128
          }
          dim {
            dim_value: 1
          }
          dim {
            dim_value: 1
          }
        }
      }
    }
  }
  value_info {
    name: "conv5_8/x2/bn_internal_1"
    type {
      tensor_type {
        elem_type: 1
        shape {
          dim {
            dim_value: 1
          }
          dim {
            dim_value: 128
          }
          dim {
            dim_value: 7
          }
          dim {
            dim_value: 7
          }
        }
      }
    }
  }
  value_info {
    name: "OC2_DUMMY_207"
    type {
      tensor_type {
        elem_type: 1
        shape {
          dim {
            dim_value: 128
          }
          dim {
            dim_value: 1
          }
          dim {
            dim_value: 1
          }
        }
      }
    }
  }
  value_info {
    name: "conv5_8/x2/bn_2"
    type {
      tensor_type {
        elem_type: 1
        shape {
          dim {
            dim_value: 1
          }
          dim {
            dim_value: 128
          }
          dim {
            dim_value: 7
          }
          dim {
            dim_value: 7
          }
        }
      }
    }
  }
  value_info {
    name: "conv5_8/x2/bn_3"
    type {
      tensor_type {
        elem_type: 1
        shape {
          dim {
            dim_value: 1
          }
          dim {
            dim_value: 128
          }
          dim {
            dim_value: 7
          }
          dim {
            dim_value: 7
          }
        }
      }
    }
  }
  value_info {
    name: "conv5_8/x2_1"
    type {
      tensor_type {
        elem_type: 1
        shape {
          dim {
            dim_value: 1
          }
          dim {
            dim_value: 32
          }
          dim {
            dim_value: 7
          }
          dim {
            dim_value: 7
          }
        }
      }
    }
  }
  value_info {
    name: "concat_5_8_1"
    type {
      tensor_type {
        elem_type: 1
        shape {
          dim {
            dim_value: 1
          }
          dim {
            dim_value: 768
          }
          dim {
            dim_value: 7
          }
          dim {
            dim_value: 7
          }
        }
      }
    }
  }
  value_info {
    name: "conv5_9/x1/bn_1"
    type {
      tensor_type {
        elem_type: 1
        shape {
          dim {
            dim_value: 1
          }
          dim {
            dim_value: 768
          }
          dim {
            dim_value: 7
          }
          dim {
            dim_value: 7
          }
        }
      }
    }
  }
  value_info {
    name: "OC2_DUMMY_208"
    type {
      tensor_type {
        elem_type: 1
        shape {
          dim {
            dim_value: 768
          }
          dim {
            dim_value: 1
          }
          dim {
            dim_value: 1
          }
        }
      }
    }
  }
  value_info {
    name: "conv5_9/x1/bn_internal_1"
    type {
      tensor_type {
        elem_type: 1
        shape {
          dim {
            dim_value: 1
          }
          dim {
            dim_value: 768
          }
          dim {
            dim_value: 7
          }
          dim {
            dim_value: 7
          }
        }
      }
    }
  }
  value_info {
    name: "OC2_DUMMY_209"
    type {
      tensor_type {
        elem_type: 1
        shape {
          dim {
            dim_value: 768
          }
          dim {
            dim_value: 1
          }
          dim {
            dim_value: 1
          }
        }
      }
    }
  }
  value_info {
    name: "conv5_9/x1/bn_2"
    type {
      tensor_type {
        elem_type: 1
        shape {
          dim {
            dim_value: 1
          }
          dim {
            dim_value: 768
          }
          dim {
            dim_value: 7
          }
          dim {
            dim_value: 7
          }
        }
      }
    }
  }
  value_info {
    name: "conv5_9/x1/bn_3"
    type {
      tensor_type {
        elem_type: 1
        shape {
          dim {
            dim_value: 1
          }
          dim {
            dim_value: 768
          }
          dim {
            dim_value: 7
          }
          dim {
            dim_value: 7
          }
        }
      }
    }
  }
  value_info {
    name: "conv5_9/x1_1"
    type {
      tensor_type {
        elem_type: 1
        shape {
          dim {
            dim_value: 1
          }
          dim {
            dim_value: 128
          }
          dim {
            dim_value: 7
          }
          dim {
            dim_value: 7
          }
        }
      }
    }
  }
  value_info {
    name: "conv5_9/x2/bn_1"
    type {
      tensor_type {
        elem_type: 1
        shape {
          dim {
            dim_value: 1
          }
          dim {
            dim_value: 128
          }
          dim {
            dim_value: 7
          }
          dim {
            dim_value: 7
          }
        }
      }
    }
  }
  value_info {
    name: "OC2_DUMMY_210"
    type {
      tensor_type {
        elem_type: 1
        shape {
          dim {
            dim_value: 128
          }
          dim {
            dim_value: 1
          }
          dim {
            dim_value: 1
          }
        }
      }
    }
  }
  value_info {
    name: "conv5_9/x2/bn_internal_1"
    type {
      tensor_type {
        elem_type: 1
        shape {
          dim {
            dim_value: 1
          }
          dim {
            dim_value: 128
          }
          dim {
            dim_value: 7
          }
          dim {
            dim_value: 7
          }
        }
      }
    }
  }
  value_info {
    name: "OC2_DUMMY_211"
    type {
      tensor_type {
        elem_type: 1
        shape {
          dim {
            dim_value: 128
          }
          dim {
            dim_value: 1
          }
          dim {
            dim_value: 1
          }
        }
      }
    }
  }
  value_info {
    name: "conv5_9/x2/bn_2"
    type {
      tensor_type {
        elem_type: 1
        shape {
          dim {
            dim_value: 1
          }
          dim {
            dim_value: 128
          }
          dim {
            dim_value: 7
          }
          dim {
            dim_value: 7
          }
        }
      }
    }
  }
  value_info {
    name: "conv5_9/x2/bn_3"
    type {
      tensor_type {
        elem_type: 1
        shape {
          dim {
            dim_value: 1
          }
          dim {
            dim_value: 128
          }
          dim {
            dim_value: 7
          }
          dim {
            dim_value: 7
          }
        }
      }
    }
  }
  value_info {
    name: "conv5_9/x2_1"
    type {
      tensor_type {
        elem_type: 1
        shape {
          dim {
            dim_value: 1
          }
          dim {
            dim_value: 32
          }
          dim {
            dim_value: 7
          }
          dim {
            dim_value: 7
          }
        }
      }
    }
  }
  value_info {
    name: "concat_5_9_1"
    type {
      tensor_type {
        elem_type: 1
        shape {
          dim {
            dim_value: 1
          }
          dim {
            dim_value: 800
          }
          dim {
            dim_value: 7
          }
          dim {
            dim_value: 7
          }
        }
      }
    }
  }
  value_info {
    name: "conv5_10/x1/bn_1"
    type {
      tensor_type {
        elem_type: 1
        shape {
          dim {
            dim_value: 1
          }
          dim {
            dim_value: 800
          }
          dim {
            dim_value: 7
          }
          dim {
            dim_value: 7
          }
        }
      }
    }
  }
  value_info {
    name: "OC2_DUMMY_212"
    type {
      tensor_type {
        elem_type: 1
        shape {
          dim {
            dim_value: 800
          }
          dim {
            dim_value: 1
          }
          dim {
            dim_value: 1
          }
        }
      }
    }
  }
  value_info {
    name: "conv5_10/x1/bn_internal_1"
    type {
      tensor_type {
        elem_type: 1
        shape {
          dim {
            dim_value: 1
          }
          dim {
            dim_value: 800
          }
          dim {
            dim_value: 7
          }
          dim {
            dim_value: 7
          }
        }
      }
    }
  }
  value_info {
    name: "OC2_DUMMY_213"
    type {
      tensor_type {
        elem_type: 1
        shape {
          dim {
            dim_value: 800
          }
          dim {
            dim_value: 1
          }
          dim {
            dim_value: 1
          }
        }
      }
    }
  }
  value_info {
    name: "conv5_10/x1/bn_2"
    type {
      tensor_type {
        elem_type: 1
        shape {
          dim {
            dim_value: 1
          }
          dim {
            dim_value: 800
          }
          dim {
            dim_value: 7
          }
          dim {
            dim_value: 7
          }
        }
      }
    }
  }
  value_info {
    name: "conv5_10/x1/bn_3"
    type {
      tensor_type {
        elem_type: 1
        shape {
          dim {
            dim_value: 1
          }
          dim {
            dim_value: 800
          }
          dim {
            dim_value: 7
          }
          dim {
            dim_value: 7
          }
        }
      }
    }
  }
  value_info {
    name: "conv5_10/x1_1"
    type {
      tensor_type {
        elem_type: 1
        shape {
          dim {
            dim_value: 1
          }
          dim {
            dim_value: 128
          }
          dim {
            dim_value: 7
          }
          dim {
            dim_value: 7
          }
        }
      }
    }
  }
  value_info {
    name: "conv5_10/x2/bn_1"
    type {
      tensor_type {
        elem_type: 1
        shape {
          dim {
            dim_value: 1
          }
          dim {
            dim_value: 128
          }
          dim {
            dim_value: 7
          }
          dim {
            dim_value: 7
          }
        }
      }
    }
  }
  value_info {
    name: "OC2_DUMMY_214"
    type {
      tensor_type {
        elem_type: 1
        shape {
          dim {
            dim_value: 128
          }
          dim {
            dim_value: 1
          }
          dim {
            dim_value: 1
          }
        }
      }
    }
  }
  value_info {
    name: "conv5_10/x2/bn_internal_1"
    type {
      tensor_type {
        elem_type: 1
        shape {
          dim {
            dim_value: 1
          }
          dim {
            dim_value: 128
          }
          dim {
            dim_value: 7
          }
          dim {
            dim_value: 7
          }
        }
      }
    }
  }
  value_info {
    name: "OC2_DUMMY_215"
    type {
      tensor_type {
        elem_type: 1
        shape {
          dim {
            dim_value: 128
          }
          dim {
            dim_value: 1
          }
          dim {
            dim_value: 1
          }
        }
      }
    }
  }
  value_info {
    name: "conv5_10/x2/bn_2"
    type {
      tensor_type {
        elem_type: 1
        shape {
          dim {
            dim_value: 1
          }
          dim {
            dim_value: 128
          }
          dim {
            dim_value: 7
          }
          dim {
            dim_value: 7
          }
        }
      }
    }
  }
  value_info {
    name: "conv5_10/x2/bn_3"
    type {
      tensor_type {
        elem_type: 1
        shape {
          dim {
            dim_value: 1
          }
          dim {
            dim_value: 128
          }
          dim {
            dim_value: 7
          }
          dim {
            dim_value: 7
          }
        }
      }
    }
  }
  value_info {
    name: "conv5_10/x2_1"
    type {
      tensor_type {
        elem_type: 1
        shape {
          dim {
            dim_value: 1
          }
          dim {
            dim_value: 32
          }
          dim {
            dim_value: 7
          }
          dim {
            dim_value: 7
          }
        }
      }
    }
  }
  value_info {
    name: "concat_5_10_1"
    type {
      tensor_type {
        elem_type: 1
        shape {
          dim {
            dim_value: 1
          }
          dim {
            dim_value: 832
          }
          dim {
            dim_value: 7
          }
          dim {
            dim_value: 7
          }
        }
      }
    }
  }
  value_info {
    name: "conv5_11/x1/bn_1"
    type {
      tensor_type {
        elem_type: 1
        shape {
          dim {
            dim_value: 1
          }
          dim {
            dim_value: 832
          }
          dim {
            dim_value: 7
          }
          dim {
            dim_value: 7
          }
        }
      }
    }
  }
  value_info {
    name: "OC2_DUMMY_216"
    type {
      tensor_type {
        elem_type: 1
        shape {
          dim {
            dim_value: 832
          }
          dim {
            dim_value: 1
          }
          dim {
            dim_value: 1
          }
        }
      }
    }
  }
  value_info {
    name: "conv5_11/x1/bn_internal_1"
    type {
      tensor_type {
        elem_type: 1
        shape {
          dim {
            dim_value: 1
          }
          dim {
            dim_value: 832
          }
          dim {
            dim_value: 7
          }
          dim {
            dim_value: 7
          }
        }
      }
    }
  }
  value_info {
    name: "OC2_DUMMY_217"
    type {
      tensor_type {
        elem_type: 1
        shape {
          dim {
            dim_value: 832
          }
          dim {
            dim_value: 1
          }
          dim {
            dim_value: 1
          }
        }
      }
    }
  }
  value_info {
    name: "conv5_11/x1/bn_2"
    type {
      tensor_type {
        elem_type: 1
        shape {
          dim {
            dim_value: 1
          }
          dim {
            dim_value: 832
          }
          dim {
            dim_value: 7
          }
          dim {
            dim_value: 7
          }
        }
      }
    }
  }
  value_info {
    name: "conv5_11/x1/bn_3"
    type {
      tensor_type {
        elem_type: 1
        shape {
          dim {
            dim_value: 1
          }
          dim {
            dim_value: 832
          }
          dim {
            dim_value: 7
          }
          dim {
            dim_value: 7
          }
        }
      }
    }
  }
  value_info {
    name: "conv5_11/x1_1"
    type {
      tensor_type {
        elem_type: 1
        shape {
          dim {
            dim_value: 1
          }
          dim {
            dim_value: 128
          }
          dim {
            dim_value: 7
          }
          dim {
            dim_value: 7
          }
        }
      }
    }
  }
  value_info {
    name: "conv5_11/x2/bn_1"
    type {
      tensor_type {
        elem_type: 1
        shape {
          dim {
            dim_value: 1
          }
          dim {
            dim_value: 128
          }
          dim {
            dim_value: 7
          }
          dim {
            dim_value: 7
          }
        }
      }
    }
  }
  value_info {
    name: "OC2_DUMMY_218"
    type {
      tensor_type {
        elem_type: 1
        shape {
          dim {
            dim_value: 128
          }
          dim {
            dim_value: 1
          }
          dim {
            dim_value: 1
          }
        }
      }
    }
  }
  value_info {
    name: "conv5_11/x2/bn_internal_1"
    type {
      tensor_type {
        elem_type: 1
        shape {
          dim {
            dim_value: 1
          }
          dim {
            dim_value: 128
          }
          dim {
            dim_value: 7
          }
          dim {
            dim_value: 7
          }
        }
      }
    }
  }
  value_info {
    name: "OC2_DUMMY_219"
    type {
      tensor_type {
        elem_type: 1
        shape {
          dim {
            dim_value: 128
          }
          dim {
            dim_value: 1
          }
          dim {
            dim_value: 1
          }
        }
      }
    }
  }
  value_info {
    name: "conv5_11/x2/bn_2"
    type {
      tensor_type {
        elem_type: 1
        shape {
          dim {
            dim_value: 1
          }
          dim {
            dim_value: 128
          }
          dim {
            dim_value: 7
          }
          dim {
            dim_value: 7
          }
        }
      }
    }
  }
  value_info {
    name: "conv5_11/x2/bn_3"
    type {
      tensor_type {
        elem_type: 1
        shape {
          dim {
            dim_value: 1
          }
          dim {
            dim_value: 128
          }
          dim {
            dim_value: 7
          }
          dim {
            dim_value: 7
          }
        }
      }
    }
  }
  value_info {
    name: "conv5_11/x2_1"
    type {
      tensor_type {
        elem_type: 1
        shape {
          dim {
            dim_value: 1
          }
          dim {
            dim_value: 32
          }
          dim {
            dim_value: 7
          }
          dim {
            dim_value: 7
          }
        }
      }
    }
  }
  value_info {
    name: "concat_5_11_1"
    type {
      tensor_type {
        elem_type: 1
        shape {
          dim {
            dim_value: 1
          }
          dim {
            dim_value: 864
          }
          dim {
            dim_value: 7
          }
          dim {
            dim_value: 7
          }
        }
      }
    }
  }
  value_info {
    name: "conv5_12/x1/bn_1"
    type {
      tensor_type {
        elem_type: 1
        shape {
          dim {
            dim_value: 1
          }
          dim {
            dim_value: 864
          }
          dim {
            dim_value: 7
          }
          dim {
            dim_value: 7
          }
        }
      }
    }
  }
  value_info {
    name: "OC2_DUMMY_220"
    type {
      tensor_type {
        elem_type: 1
        shape {
          dim {
            dim_value: 864
          }
          dim {
            dim_value: 1
          }
          dim {
            dim_value: 1
          }
        }
      }
    }
  }
  value_info {
    name: "conv5_12/x1/bn_internal_1"
    type {
      tensor_type {
        elem_type: 1
        shape {
          dim {
            dim_value: 1
          }
          dim {
            dim_value: 864
          }
          dim {
            dim_value: 7
          }
          dim {
            dim_value: 7
          }
        }
      }
    }
  }
  value_info {
    name: "OC2_DUMMY_221"
    type {
      tensor_type {
        elem_type: 1
        shape {
          dim {
            dim_value: 864
          }
          dim {
            dim_value: 1
          }
          dim {
            dim_value: 1
          }
        }
      }
    }
  }
  value_info {
    name: "conv5_12/x1/bn_2"
    type {
      tensor_type {
        elem_type: 1
        shape {
          dim {
            dim_value: 1
          }
          dim {
            dim_value: 864
          }
          dim {
            dim_value: 7
          }
          dim {
            dim_value: 7
          }
        }
      }
    }
  }
  value_info {
    name: "conv5_12/x1/bn_3"
    type {
      tensor_type {
        elem_type: 1
        shape {
          dim {
            dim_value: 1
          }
          dim {
            dim_value: 864
          }
          dim {
            dim_value: 7
          }
          dim {
            dim_value: 7
          }
        }
      }
    }
  }
  value_info {
    name: "conv5_12/x1_1"
    type {
      tensor_type {
        elem_type: 1
        shape {
          dim {
            dim_value: 1
          }
          dim {
            dim_value: 128
          }
          dim {
            dim_value: 7
          }
          dim {
            dim_value: 7
          }
        }
      }
    }
  }
  value_info {
    name: "conv5_12/x2/bn_1"
    type {
      tensor_type {
        elem_type: 1
        shape {
          dim {
            dim_value: 1
          }
          dim {
            dim_value: 128
          }
          dim {
            dim_value: 7
          }
          dim {
            dim_value: 7
          }
        }
      }
    }
  }
  value_info {
    name: "OC2_DUMMY_222"
    type {
      tensor_type {
        elem_type: 1
        shape {
          dim {
            dim_value: 128
          }
          dim {
            dim_value: 1
          }
          dim {
            dim_value: 1
          }
        }
      }
    }
  }
  value_info {
    name: "conv5_12/x2/bn_internal_1"
    type {
      tensor_type {
        elem_type: 1
        shape {
          dim {
            dim_value: 1
          }
          dim {
            dim_value: 128
          }
          dim {
            dim_value: 7
          }
          dim {
            dim_value: 7
          }
        }
      }
    }
  }
  value_info {
    name: "OC2_DUMMY_223"
    type {
      tensor_type {
        elem_type: 1
        shape {
          dim {
            dim_value: 128
          }
          dim {
            dim_value: 1
          }
          dim {
            dim_value: 1
          }
        }
      }
    }
  }
  value_info {
    name: "conv5_12/x2/bn_2"
    type {
      tensor_type {
        elem_type: 1
        shape {
          dim {
            dim_value: 1
          }
          dim {
            dim_value: 128
          }
          dim {
            dim_value: 7
          }
          dim {
            dim_value: 7
          }
        }
      }
    }
  }
  value_info {
    name: "conv5_12/x2/bn_3"
    type {
      tensor_type {
        elem_type: 1
        shape {
          dim {
            dim_value: 1
          }
          dim {
            dim_value: 128
          }
          dim {
            dim_value: 7
          }
          dim {
            dim_value: 7
          }
        }
      }
    }
  }
  value_info {
    name: "conv5_12/x2_1"
    type {
      tensor_type {
        elem_type: 1
        shape {
          dim {
            dim_value: 1
          }
          dim {
            dim_value: 32
          }
          dim {
            dim_value: 7
          }
          dim {
            dim_value: 7
          }
        }
      }
    }
  }
  value_info {
    name: "concat_5_12_1"
    type {
      tensor_type {
        elem_type: 1
        shape {
          dim {
            dim_value: 1
          }
          dim {
            dim_value: 896
          }
          dim {
            dim_value: 7
          }
          dim {
            dim_value: 7
          }
        }
      }
    }
  }
  value_info {
    name: "conv5_13/x1/bn_1"
    type {
      tensor_type {
        elem_type: 1
        shape {
          dim {
            dim_value: 1
          }
          dim {
            dim_value: 896
          }
          dim {
            dim_value: 7
          }
          dim {
            dim_value: 7
          }
        }
      }
    }
  }
  value_info {
    name: "OC2_DUMMY_224"
    type {
      tensor_type {
        elem_type: 1
        shape {
          dim {
            dim_value: 896
          }
          dim {
            dim_value: 1
          }
          dim {
            dim_value: 1
          }
        }
      }
    }
  }
  value_info {
    name: "conv5_13/x1/bn_internal_1"
    type {
      tensor_type {
        elem_type: 1
        shape {
          dim {
            dim_value: 1
          }
          dim {
            dim_value: 896
          }
          dim {
            dim_value: 7
          }
          dim {
            dim_value: 7
          }
        }
      }
    }
  }
  value_info {
    name: "OC2_DUMMY_225"
    type {
      tensor_type {
        elem_type: 1
        shape {
          dim {
            dim_value: 896
          }
          dim {
            dim_value: 1
          }
          dim {
            dim_value: 1
          }
        }
      }
    }
  }
  value_info {
    name: "conv5_13/x1/bn_2"
    type {
      tensor_type {
        elem_type: 1
        shape {
          dim {
            dim_value: 1
          }
          dim {
            dim_value: 896
          }
          dim {
            dim_value: 7
          }
          dim {
            dim_value: 7
          }
        }
      }
    }
  }
  value_info {
    name: "conv5_13/x1/bn_3"
    type {
      tensor_type {
        elem_type: 1
        shape {
          dim {
            dim_value: 1
          }
          dim {
            dim_value: 896
          }
          dim {
            dim_value: 7
          }
          dim {
            dim_value: 7
          }
        }
      }
    }
  }
  value_info {
    name: "conv5_13/x1_1"
    type {
      tensor_type {
        elem_type: 1
        shape {
          dim {
            dim_value: 1
          }
          dim {
            dim_value: 128
          }
          dim {
            dim_value: 7
          }
          dim {
            dim_value: 7
          }
        }
      }
    }
  }
  value_info {
    name: "conv5_13/x2/bn_1"
    type {
      tensor_type {
        elem_type: 1
        shape {
          dim {
            dim_value: 1
          }
          dim {
            dim_value: 128
          }
          dim {
            dim_value: 7
          }
          dim {
            dim_value: 7
          }
        }
      }
    }
  }
  value_info {
    name: "OC2_DUMMY_226"
    type {
      tensor_type {
        elem_type: 1
        shape {
          dim {
            dim_value: 128
          }
          dim {
            dim_value: 1
          }
          dim {
            dim_value: 1
          }
        }
      }
    }
  }
  value_info {
    name: "conv5_13/x2/bn_internal_1"
    type {
      tensor_type {
        elem_type: 1
        shape {
          dim {
            dim_value: 1
          }
          dim {
            dim_value: 128
          }
          dim {
            dim_value: 7
          }
          dim {
            dim_value: 7
          }
        }
      }
    }
  }
  value_info {
    name: "OC2_DUMMY_227"
    type {
      tensor_type {
        elem_type: 1
        shape {
          dim {
            dim_value: 128
          }
          dim {
            dim_value: 1
          }
          dim {
            dim_value: 1
          }
        }
      }
    }
  }
  value_info {
    name: "conv5_13/x2/bn_2"
    type {
      tensor_type {
        elem_type: 1
        shape {
          dim {
            dim_value: 1
          }
          dim {
            dim_value: 128
          }
          dim {
            dim_value: 7
          }
          dim {
            dim_value: 7
          }
        }
      }
    }
  }
  value_info {
    name: "conv5_13/x2/bn_3"
    type {
      tensor_type {
        elem_type: 1
        shape {
          dim {
            dim_value: 1
          }
          dim {
            dim_value: 128
          }
          dim {
            dim_value: 7
          }
          dim {
            dim_value: 7
          }
        }
      }
    }
  }
  value_info {
    name: "conv5_13/x2_1"
    type {
      tensor_type {
        elem_type: 1
        shape {
          dim {
            dim_value: 1
          }
          dim {
            dim_value: 32
          }
          dim {
            dim_value: 7
          }
          dim {
            dim_value: 7
          }
        }
      }
    }
  }
  value_info {
    name: "concat_5_13_1"
    type {
      tensor_type {
        elem_type: 1
        shape {
          dim {
            dim_value: 1
          }
          dim {
            dim_value: 928
          }
          dim {
            dim_value: 7
          }
          dim {
            dim_value: 7
          }
        }
      }
    }
  }
  value_info {
    name: "conv5_14/x1/bn_1"
    type {
      tensor_type {
        elem_type: 1
        shape {
          dim {
            dim_value: 1
          }
          dim {
            dim_value: 928
          }
          dim {
            dim_value: 7
          }
          dim {
            dim_value: 7
          }
        }
      }
    }
  }
  value_info {
    name: "OC2_DUMMY_228"
    type {
      tensor_type {
        elem_type: 1
        shape {
          dim {
            dim_value: 928
          }
          dim {
            dim_value: 1
          }
          dim {
            dim_value: 1
          }
        }
      }
    }
  }
  value_info {
    name: "conv5_14/x1/bn_internal_1"
    type {
      tensor_type {
        elem_type: 1
        shape {
          dim {
            dim_value: 1
          }
          dim {
            dim_value: 928
          }
          dim {
            dim_value: 7
          }
          dim {
            dim_value: 7
          }
        }
      }
    }
  }
  value_info {
    name: "OC2_DUMMY_229"
    type {
      tensor_type {
        elem_type: 1
        shape {
          dim {
            dim_value: 928
          }
          dim {
            dim_value: 1
          }
          dim {
            dim_value: 1
          }
        }
      }
    }
  }
  value_info {
    name: "conv5_14/x1/bn_2"
    type {
      tensor_type {
        elem_type: 1
        shape {
          dim {
            dim_value: 1
          }
          dim {
            dim_value: 928
          }
          dim {
            dim_value: 7
          }
          dim {
            dim_value: 7
          }
        }
      }
    }
  }
  value_info {
    name: "conv5_14/x1/bn_3"
    type {
      tensor_type {
        elem_type: 1
        shape {
          dim {
            dim_value: 1
          }
          dim {
            dim_value: 928
          }
          dim {
            dim_value: 7
          }
          dim {
            dim_value: 7
          }
        }
      }
    }
  }
  value_info {
    name: "conv5_14/x1_1"
    type {
      tensor_type {
        elem_type: 1
        shape {
          dim {
            dim_value: 1
          }
          dim {
            dim_value: 128
          }
          dim {
            dim_value: 7
          }
          dim {
            dim_value: 7
          }
        }
      }
    }
  }
  value_info {
    name: "conv5_14/x2/bn_1"
    type {
      tensor_type {
        elem_type: 1
        shape {
          dim {
            dim_value: 1
          }
          dim {
            dim_value: 128
          }
          dim {
            dim_value: 7
          }
          dim {
            dim_value: 7
          }
        }
      }
    }
  }
  value_info {
    name: "OC2_DUMMY_230"
    type {
      tensor_type {
        elem_type: 1
        shape {
          dim {
            dim_value: 128
          }
          dim {
            dim_value: 1
          }
          dim {
            dim_value: 1
          }
        }
      }
    }
  }
  value_info {
    name: "conv5_14/x2/bn_internal_1"
    type {
      tensor_type {
        elem_type: 1
        shape {
          dim {
            dim_value: 1
          }
          dim {
            dim_value: 128
          }
          dim {
            dim_value: 7
          }
          dim {
            dim_value: 7
          }
        }
      }
    }
  }
  value_info {
    name: "OC2_DUMMY_231"
    type {
      tensor_type {
        elem_type: 1
        shape {
          dim {
            dim_value: 128
          }
          dim {
            dim_value: 1
          }
          dim {
            dim_value: 1
          }
        }
      }
    }
  }
  value_info {
    name: "conv5_14/x2/bn_2"
    type {
      tensor_type {
        elem_type: 1
        shape {
          dim {
            dim_value: 1
          }
          dim {
            dim_value: 128
          }
          dim {
            dim_value: 7
          }
          dim {
            dim_value: 7
          }
        }
      }
    }
  }
  value_info {
    name: "conv5_14/x2/bn_3"
    type {
      tensor_type {
        elem_type: 1
        shape {
          dim {
            dim_value: 1
          }
          dim {
            dim_value: 128
          }
          dim {
            dim_value: 7
          }
          dim {
            dim_value: 7
          }
        }
      }
    }
  }
  value_info {
    name: "conv5_14/x2_1"
    type {
      tensor_type {
        elem_type: 1
        shape {
          dim {
            dim_value: 1
          }
          dim {
            dim_value: 32
          }
          dim {
            dim_value: 7
          }
          dim {
            dim_value: 7
          }
        }
      }
    }
  }
  value_info {
    name: "concat_5_14_1"
    type {
      tensor_type {
        elem_type: 1
        shape {
          dim {
            dim_value: 1
          }
          dim {
            dim_value: 960
          }
          dim {
            dim_value: 7
          }
          dim {
            dim_value: 7
          }
        }
      }
    }
  }
  value_info {
    name: "conv5_15/x1/bn_1"
    type {
      tensor_type {
        elem_type: 1
        shape {
          dim {
            dim_value: 1
          }
          dim {
            dim_value: 960
          }
          dim {
            dim_value: 7
          }
          dim {
            dim_value: 7
          }
        }
      }
    }
  }
  value_info {
    name: "OC2_DUMMY_232"
    type {
      tensor_type {
        elem_type: 1
        shape {
          dim {
            dim_value: 960
          }
          dim {
            dim_value: 1
          }
          dim {
            dim_value: 1
          }
        }
      }
    }
  }
  value_info {
    name: "conv5_15/x1/bn_internal_1"
    type {
      tensor_type {
        elem_type: 1
        shape {
          dim {
            dim_value: 1
          }
          dim {
            dim_value: 960
          }
          dim {
            dim_value: 7
          }
          dim {
            dim_value: 7
          }
        }
      }
    }
  }
  value_info {
    name: "OC2_DUMMY_233"
    type {
      tensor_type {
        elem_type: 1
        shape {
          dim {
            dim_value: 960
          }
          dim {
            dim_value: 1
          }
          dim {
            dim_value: 1
          }
        }
      }
    }
  }
  value_info {
    name: "conv5_15/x1/bn_2"
    type {
      tensor_type {
        elem_type: 1
        shape {
          dim {
            dim_value: 1
          }
          dim {
            dim_value: 960
          }
          dim {
            dim_value: 7
          }
          dim {
            dim_value: 7
          }
        }
      }
    }
  }
  value_info {
    name: "conv5_15/x1/bn_3"
    type {
      tensor_type {
        elem_type: 1
        shape {
          dim {
            dim_value: 1
          }
          dim {
            dim_value: 960
          }
          dim {
            dim_value: 7
          }
          dim {
            dim_value: 7
          }
        }
      }
    }
  }
  value_info {
    name: "conv5_15/x1_1"
    type {
      tensor_type {
        elem_type: 1
        shape {
          dim {
            dim_value: 1
          }
          dim {
            dim_value: 128
          }
          dim {
            dim_value: 7
          }
          dim {
            dim_value: 7
          }
        }
      }
    }
  }
  value_info {
    name: "conv5_15/x2/bn_1"
    type {
      tensor_type {
        elem_type: 1
        shape {
          dim {
            dim_value: 1
          }
          dim {
            dim_value: 128
          }
          dim {
            dim_value: 7
          }
          dim {
            dim_value: 7
          }
        }
      }
    }
  }
  value_info {
    name: "OC2_DUMMY_234"
    type {
      tensor_type {
        elem_type: 1
        shape {
          dim {
            dim_value: 128
          }
          dim {
            dim_value: 1
          }
          dim {
            dim_value: 1
          }
        }
      }
    }
  }
  value_info {
    name: "conv5_15/x2/bn_internal_1"
    type {
      tensor_type {
        elem_type: 1
        shape {
          dim {
            dim_value: 1
          }
          dim {
            dim_value: 128
          }
          dim {
            dim_value: 7
          }
          dim {
            dim_value: 7
          }
        }
      }
    }
  }
  value_info {
    name: "OC2_DUMMY_235"
    type {
      tensor_type {
        elem_type: 1
        shape {
          dim {
            dim_value: 128
          }
          dim {
            dim_value: 1
          }
          dim {
            dim_value: 1
          }
        }
      }
    }
  }
  value_info {
    name: "conv5_15/x2/bn_2"
    type {
      tensor_type {
        elem_type: 1
        shape {
          dim {
            dim_value: 1
          }
          dim {
            dim_value: 128
          }
          dim {
            dim_value: 7
          }
          dim {
            dim_value: 7
          }
        }
      }
    }
  }
  value_info {
    name: "conv5_15/x2/bn_3"
    type {
      tensor_type {
        elem_type: 1
        shape {
          dim {
            dim_value: 1
          }
          dim {
            dim_value: 128
          }
          dim {
            dim_value: 7
          }
          dim {
            dim_value: 7
          }
        }
      }
    }
  }
  value_info {
    name: "conv5_15/x2_1"
    type {
      tensor_type {
        elem_type: 1
        shape {
          dim {
            dim_value: 1
          }
          dim {
            dim_value: 32
          }
          dim {
            dim_value: 7
          }
          dim {
            dim_value: 7
          }
        }
      }
    }
  }
  value_info {
    name: "concat_5_15_1"
    type {
      tensor_type {
        elem_type: 1
        shape {
          dim {
            dim_value: 1
          }
          dim {
            dim_value: 992
          }
          dim {
            dim_value: 7
          }
          dim {
            dim_value: 7
          }
        }
      }
    }
  }
  value_info {
    name: "conv5_16/x1/bn_1"
    type {
      tensor_type {
        elem_type: 1
        shape {
          dim {
            dim_value: 1
          }
          dim {
            dim_value: 992
          }
          dim {
            dim_value: 7
          }
          dim {
            dim_value: 7
          }
        }
      }
    }
  }
  value_info {
    name: "OC2_DUMMY_236"
    type {
      tensor_type {
        elem_type: 1
        shape {
          dim {
            dim_value: 992
          }
          dim {
            dim_value: 1
          }
          dim {
            dim_value: 1
          }
        }
      }
    }
  }
  value_info {
    name: "conv5_16/x1/bn_internal_1"
    type {
      tensor_type {
        elem_type: 1
        shape {
          dim {
            dim_value: 1
          }
          dim {
            dim_value: 992
          }
          dim {
            dim_value: 7
          }
          dim {
            dim_value: 7
          }
        }
      }
    }
  }
  value_info {
    name: "OC2_DUMMY_237"
    type {
      tensor_type {
        elem_type: 1
        shape {
          dim {
            dim_value: 992
          }
          dim {
            dim_value: 1
          }
          dim {
            dim_value: 1
          }
        }
      }
    }
  }
  value_info {
    name: "conv5_16/x1/bn_2"
    type {
      tensor_type {
        elem_type: 1
        shape {
          dim {
            dim_value: 1
          }
          dim {
            dim_value: 992
          }
          dim {
            dim_value: 7
          }
          dim {
            dim_value: 7
          }
        }
      }
    }
  }
  value_info {
    name: "conv5_16/x1/bn_3"
    type {
      tensor_type {
        elem_type: 1
        shape {
          dim {
            dim_value: 1
          }
          dim {
            dim_value: 992
          }
          dim {
            dim_value: 7
          }
          dim {
            dim_value: 7
          }
        }
      }
    }
  }
  value_info {
    name: "conv5_16/x1_1"
    type {
      tensor_type {
        elem_type: 1
        shape {
          dim {
            dim_value: 1
          }
          dim {
            dim_value: 128
          }
          dim {
            dim_value: 7
          }
          dim {
            dim_value: 7
          }
        }
      }
    }
  }
  value_info {
    name: "conv5_16/x2/bn_1"
    type {
      tensor_type {
        elem_type: 1
        shape {
          dim {
            dim_value: 1
          }
          dim {
            dim_value: 128
          }
          dim {
            dim_value: 7
          }
          dim {
            dim_value: 7
          }
        }
      }
    }
  }
  value_info {
    name: "OC2_DUMMY_238"
    type {
      tensor_type {
        elem_type: 1
        shape {
          dim {
            dim_value: 128
          }
          dim {
            dim_value: 1
          }
          dim {
            dim_value: 1
          }
        }
      }
    }
  }
  value_info {
    name: "conv5_16/x2/bn_internal_1"
    type {
      tensor_type {
        elem_type: 1
        shape {
          dim {
            dim_value: 1
          }
          dim {
            dim_value: 128
          }
          dim {
            dim_value: 7
          }
          dim {
            dim_value: 7
          }
        }
      }
    }
  }
  value_info {
    name: "OC2_DUMMY_239"
    type {
      tensor_type {
        elem_type: 1
        shape {
          dim {
            dim_value: 128
          }
          dim {
            dim_value: 1
          }
          dim {
            dim_value: 1
          }
        }
      }
    }
  }
  value_info {
    name: "conv5_16/x2/bn_2"
    type {
      tensor_type {
        elem_type: 1
        shape {
          dim {
            dim_value: 1
          }
          dim {
            dim_value: 128
          }
          dim {
            dim_value: 7
          }
          dim {
            dim_value: 7
          }
        }
      }
    }
  }
  value_info {
    name: "conv5_16/x2/bn_3"
    type {
      tensor_type {
        elem_type: 1
        shape {
          dim {
            dim_value: 1
          }
          dim {
            dim_value: 128
          }
          dim {
            dim_value: 7
          }
          dim {
            dim_value: 7
          }
        }
      }
    }
  }
  value_info {
    name: "conv5_16/x2_1"
    type {
      tensor_type {
        elem_type: 1
        shape {
          dim {
            dim_value: 1
          }
          dim {
            dim_value: 32
          }
          dim {
            dim_value: 7
          }
          dim {
            dim_value: 7
          }
        }
      }
    }
  }
  value_info {
    name: "concat_5_16_1"
    type {
      tensor_type {
        elem_type: 1
        shape {
          dim {
            dim_value: 1
          }
          dim {
            dim_value: 1024
          }
          dim {
            dim_value: 7
          }
          dim {
            dim_value: 7
          }
        }
      }
    }
  }
  value_info {
    name: "conv5_blk/bn_1"
    type {
      tensor_type {
        elem_type: 1
        shape {
          dim {
            dim_value: 1
          }
          dim {
            dim_value: 1024
          }
          dim {
            dim_value: 7
          }
          dim {
            dim_value: 7
          }
        }
      }
    }
  }
  value_info {
    name: "OC2_DUMMY_240"
    type {
      tensor_type {
        elem_type: 1
        shape {
          dim {
            dim_value: 1024
          }
          dim {
            dim_value: 1
          }
          dim {
            dim_value: 1
          }
        }
      }
    }
  }
  value_info {
    name: "conv5_blk/bn_internal_1"
    type {
      tensor_type {
        elem_type: 1
        shape {
          dim {
            dim_value: 1
          }
          dim {
            dim_value: 1024
          }
          dim {
            dim_value: 7
          }
          dim {
            dim_value: 7
          }
        }
      }
    }
  }
  value_info {
    name: "OC2_DUMMY_241"
    type {
      tensor_type {
        elem_type: 1
        shape {
          dim {
            dim_value: 1024
          }
          dim {
            dim_value: 1
          }
          dim {
            dim_value: 1
          }
        }
      }
    }
  }
  value_info {
    name: "conv5_blk/bn_2"
    type {
      tensor_type {
        elem_type: 1
        shape {
          dim {
            dim_value: 1
          }
          dim {
            dim_value: 1024
          }
          dim {
            dim_value: 7
          }
          dim {
            dim_value: 7
          }
        }
      }
    }
  }
  value_info {
    name: "conv5_blk/bn_3"
    type {
      tensor_type {
        elem_type: 1
        shape {
          dim {
            dim_value: 1
          }
          dim {
            dim_value: 1024
          }
          dim {
            dim_value: 7
          }
          dim {
            dim_value: 7
          }
        }
      }
    }
  }
  value_info {
    name: "pool5_1"
    type {
      tensor_type {
        elem_type: 1
        shape {
          dim {
            dim_value: 1
          }
          dim {
            dim_value: 1024
          }
          dim {
            dim_value: 1
          }
          dim {
            dim_value: 1
          }
        }
      }
    }
  }
}
opset_import {
  domain: ""
  version: 12
}
