ir_version: 6
producer_name: "onnx.quantize"
producer_version: "0.1.0"
graph {
  node {
    input: "images:0"
    output: "efficientnet-lite4/model/stem/conv2d/Conv2D__5:0"
    name: "efficientnet-lite4/model/stem/conv2d/Conv2D__5"
    op_type: "Transpose"
    attribute {
      name: "perm"
      ints: 0
      ints: 3
      ints: 1
      ints: 2
      type: INTS
    }
  }
  node {
    input: "efficientnet-lite4/model/stem/conv2d/Conv2D__5:0"
    input: "efficientnet-lite4/model/stem/conv2d/Conv2D__5:0_scale"
    input: "efficientnet-lite4/model/stem/conv2d/Conv2D__5:0_zero_point"
    output: "efficientnet-lite4/model/stem/conv2d/Conv2D__5:0_efficientnet-lite4/model/stem/conv2d/Conv2D_QuantizeLinear"
    name: "efficientnet-lite4/model/stem/conv2d/Conv2D__5:0_efficientnet-lite4/model/stem/conv2d/Conv2D_QuantizeLinear"
    op_type: "QuantizeLinear"
  }
  node {
    input: "efficientnet-lite4/model/stem/conv2d/Conv2D_bias_fused_bn_quantized"
    input: "efficientnet-lite4/model/stem/conv2d/Conv2D_bias_fused_bn_scale"
    input: "efficientnet-lite4/model/stem/conv2d/Conv2D_bias_fused_bn_zero_point"
    output: "efficientnet-lite4/model/stem/conv2d/Conv2D_bias_fused_bn_dequantized"
    name: "efficientnet-lite4/model/stem/conv2d/Conv2D_bias_fused_bn_DequantizeLinear"
    op_type: "DequantizeLinear"
  }
  node {
    input: "efficientnet-lite4/model/stem/conv2d/Conv2D_weights_fused_bn_quantized"
    input: "efficientnet-lite4/model/stem/conv2d/Conv2D_weights_fused_bn_scale"
    input: "efficientnet-lite4/model/stem/conv2d/Conv2D_weights_fused_bn_zero_point"
    output: "efficientnet-lite4/model/stem/conv2d/Conv2D_weights_fused_bn_dequantized"
    name: "efficientnet-lite4/model/stem/conv2d/Conv2D_weights_fused_bn_DequantizeLinear"
    op_type: "DequantizeLinear"
  }
  node {
    input: "efficientnet-lite4/model/stem/conv2d/Conv2D__5:0_efficientnet-lite4/model/stem/conv2d/Conv2D_QuantizeLinear"
    input: "efficientnet-lite4/model/stem/conv2d/Conv2D__5:0_scale"
    input: "efficientnet-lite4/model/stem/conv2d/Conv2D__5:0_zero_point"
    output: "efficientnet-lite4/model/stem/conv2d/Conv2D__5:0_efficientnet-lite4/model/stem/conv2d/Conv2D_dequantized"
    name: "efficientnet-lite4/model/stem/conv2d/Conv2D__5:0_efficientnet-lite4/model/stem/conv2d/Conv2D_DequantizeLinear"
    op_type: "DequantizeLinear"
  }
  node {
    input: "efficientnet-lite4/model/stem/conv2d/Conv2D__5:0_efficientnet-lite4/model/stem/conv2d/Conv2D_dequantized"
    input: "efficientnet-lite4/model/stem/conv2d/Conv2D_weights_fused_bn_dequantized"
    input: "efficientnet-lite4/model/stem/conv2d/Conv2D_bias_fused_bn_dequantized"
    output: "efficientnet-lite4/model/stem/tpu_batch_normalization/FusedBatchNormV3:0_QuantizeInput"
    name: "efficientnet-lite4/model/stem/conv2d/Conv2D_quant"
    op_type: "Conv"
    attribute {
      name: "group"
      i: 1
      type: INT
    }
    attribute {
      name: "dilations"
      ints: 1
      ints: 1
      type: INTS
    }
    attribute {
      name: "strides"
      ints: 2
      ints: 2
      type: INTS
    }
    attribute {
      name: "kernel_shape"
      ints: 3
      ints: 3
      type: INTS
    }
    attribute {
      name: "pads"
      ints: 0
      ints: 0
      ints: 1
      ints: 1
      type: INTS
    }
    attribute {
      name: "auto_pad"
      s: "NOTSET"
      type: STRING
    }
  }
  node {
    input: "efficientnet-lite4/model/stem/tpu_batch_normalization/FusedBatchNormV3:0_QuantizeInput"
    input: "efficientnet-lite4/model/stem/tpu_batch_normalization/FusedBatchNormV3:0_scale"
    input: "efficientnet-lite4/model/stem/tpu_batch_normalization/FusedBatchNormV3:0_zero_point"
    output: "efficientnet-lite4/model/stem/tpu_batch_normalization/FusedBatchNormV3:0_quantized"
    name: "efficientnet-lite4/model/stem/tpu_batch_normalization/FusedBatchNormV3:0_efficientnet-lite4/model/stem/conv2d/Conv2D_QuantizeLinear"
    op_type: "QuantizeLinear"
  }
  node {
    input: "efficientnet-lite4/model/blocks_0/depthwise_conv2d/depthwise_bias_fused_bn_quantized"
    input: "efficientnet-lite4/model/blocks_0/depthwise_conv2d/depthwise_bias_fused_bn_scale"
    input: "efficientnet-lite4/model/blocks_0/depthwise_conv2d/depthwise_bias_fused_bn_zero_point"
    output: "efficientnet-lite4/model/blocks_0/depthwise_conv2d/depthwise_bias_fused_bn_dequantized"
    name: "efficientnet-lite4/model/blocks_0/depthwise_conv2d/depthwise_bias_fused_bn_DequantizeLinear"
    op_type: "DequantizeLinear"
  }
  node {
    input: "efficientnet-lite4/model/blocks_0/depthwise_conv2d/depthwise_weights_fused_bn_quantized"
    input: "efficientnet-lite4/model/blocks_0/depthwise_conv2d/depthwise_weights_fused_bn_scale"
    input: "efficientnet-lite4/model/blocks_0/depthwise_conv2d/depthwise_weights_fused_bn_zero_point"
    output: "efficientnet-lite4/model/blocks_0/depthwise_conv2d/depthwise_weights_fused_bn_dequantized"
    name: "efficientnet-lite4/model/blocks_0/depthwise_conv2d/depthwise_weights_fused_bn_DequantizeLinear"
    op_type: "DequantizeLinear"
  }
  node {
    input: "efficientnet-lite4/model/stem/tpu_batch_normalization/FusedBatchNormV3:0_quantized"
    input: "efficientnet-lite4/model/stem/tpu_batch_normalization/FusedBatchNormV3:0_scale"
    input: "efficientnet-lite4/model/stem/tpu_batch_normalization/FusedBatchNormV3:0_zero_point"
    output: "efficientnet-lite4/model/stem/tpu_batch_normalization/FusedBatchNormV3:0_efficientnet-lite4/model/blocks_0/depthwise_conv2d/depthwise_dequantized"
    name: "efficientnet-lite4/model/stem/tpu_batch_normalization/FusedBatchNormV3:0_efficientnet-lite4/model/blocks_0/depthwise_conv2d/depthwise_DequantizeLinear"
    op_type: "DequantizeLinear"
  }
  node {
    input: "efficientnet-lite4/model/stem/tpu_batch_normalization/FusedBatchNormV3:0_efficientnet-lite4/model/blocks_0/depthwise_conv2d/depthwise_dequantized"
    input: "efficientnet-lite4/model/blocks_0/depthwise_conv2d/depthwise_weights_fused_bn_dequantized"
    input: "efficientnet-lite4/model/blocks_0/depthwise_conv2d/depthwise_bias_fused_bn_dequantized"
    output: "efficientnet-lite4/model/blocks_0/tpu_batch_normalization/FusedBatchNormV3:0_QuantizeInput"
    name: "efficientnet-lite4/model/blocks_0/depthwise_conv2d/depthwise_quant"
    op_type: "Conv"
    attribute {
      name: "auto_pad"
      s: "NOTSET"
      type: STRING
    }
    attribute {
      name: "dilations"
      ints: 1
      ints: 1
      type: INTS
    }
    attribute {
      name: "strides"
      ints: 1
      ints: 1
      type: INTS
    }
    attribute {
      name: "group"
      i: 32
      type: INT
    }
    attribute {
      name: "kernel_shape"
      ints: 3
      ints: 3
      type: INTS
    }
    attribute {
      name: "pads"
      ints: 1
      ints: 1
      ints: 1
      ints: 1
      type: INTS
    }
  }
  node {
    input: "efficientnet-lite4/model/blocks_0/tpu_batch_normalization/FusedBatchNormV3:0_QuantizeInput"
    input: "efficientnet-lite4/model/blocks_0/tpu_batch_normalization/FusedBatchNormV3:0_scale"
    input: "efficientnet-lite4/model/blocks_0/tpu_batch_normalization/FusedBatchNormV3:0_zero_point"
    output: "efficientnet-lite4/model/blocks_0/tpu_batch_normalization/FusedBatchNormV3:0_quantized"
    name: "efficientnet-lite4/model/blocks_0/tpu_batch_normalization/FusedBatchNormV3:0_efficientnet-lite4/model/blocks_0/depthwise_conv2d/depthwise_QuantizeLinear"
    op_type: "QuantizeLinear"
  }
  node {
    input: "efficientnet-lite4/model/blocks_0/conv2d/Conv2D_bias_fused_bn_quantized"
    input: "efficientnet-lite4/model/blocks_0/conv2d/Conv2D_bias_fused_bn_scale"
    input: "efficientnet-lite4/model/blocks_0/conv2d/Conv2D_bias_fused_bn_zero_point"
    output: "efficientnet-lite4/model/blocks_0/conv2d/Conv2D_bias_fused_bn_dequantized"
    name: "efficientnet-lite4/model/blocks_0/conv2d/Conv2D_bias_fused_bn_DequantizeLinear"
    op_type: "DequantizeLinear"
  }
  node {
    input: "efficientnet-lite4/model/blocks_0/conv2d/Conv2D_weights_fused_bn_quantized"
    input: "efficientnet-lite4/model/blocks_0/conv2d/Conv2D_weights_fused_bn_scale"
    input: "efficientnet-lite4/model/blocks_0/conv2d/Conv2D_weights_fused_bn_zero_point"
    output: "efficientnet-lite4/model/blocks_0/conv2d/Conv2D_weights_fused_bn_dequantized"
    name: "efficientnet-lite4/model/blocks_0/conv2d/Conv2D_weights_fused_bn_DequantizeLinear"
    op_type: "DequantizeLinear"
  }
  node {
    input: "efficientnet-lite4/model/blocks_0/tpu_batch_normalization/FusedBatchNormV3:0_quantized"
    input: "efficientnet-lite4/model/blocks_0/tpu_batch_normalization/FusedBatchNormV3:0_scale"
    input: "efficientnet-lite4/model/blocks_0/tpu_batch_normalization/FusedBatchNormV3:0_zero_point"
    output: "efficientnet-lite4/model/blocks_0/tpu_batch_normalization/FusedBatchNormV3:0_efficientnet-lite4/model/blocks_0/conv2d/Conv2D_dequantized"
    name: "efficientnet-lite4/model/blocks_0/tpu_batch_normalization/FusedBatchNormV3:0_efficientnet-lite4/model/blocks_0/conv2d/Conv2D_DequantizeLinear"
    op_type: "DequantizeLinear"
  }
  node {
    input: "efficientnet-lite4/model/blocks_0/tpu_batch_normalization/FusedBatchNormV3:0_efficientnet-lite4/model/blocks_0/conv2d/Conv2D_dequantized"
    input: "efficientnet-lite4/model/blocks_0/conv2d/Conv2D_weights_fused_bn_dequantized"
    input: "efficientnet-lite4/model/blocks_0/conv2d/Conv2D_bias_fused_bn_dequantized"
    output: "efficientnet-lite4/model/blocks_0/tpu_batch_normalization_1/FusedBatchNormV3:0_QuantizeInput"
    name: "efficientnet-lite4/model/blocks_0/conv2d/Conv2D_quant"
    op_type: "Conv"
    attribute {
      name: "group"
      i: 1
      type: INT
    }
    attribute {
      name: "dilations"
      ints: 1
      ints: 1
      type: INTS
    }
    attribute {
      name: "strides"
      ints: 1
      ints: 1
      type: INTS
    }
    attribute {
      name: "kernel_shape"
      ints: 1
      ints: 1
      type: INTS
    }
    attribute {
      name: "pads"
      ints: 0
      ints: 0
      ints: 0
      ints: 0
      type: INTS
    }
    attribute {
      name: "auto_pad"
      s: "NOTSET"
      type: STRING
    }
  }
  node {
    input: "efficientnet-lite4/model/blocks_0/tpu_batch_normalization_1/FusedBatchNormV3:0_QuantizeInput"
    input: "efficientnet-lite4/model/blocks_0/tpu_batch_normalization_1/FusedBatchNormV3:0_scale"
    input: "efficientnet-lite4/model/blocks_0/tpu_batch_normalization_1/FusedBatchNormV3:0_zero_point"
    output: "efficientnet-lite4/model/blocks_0/tpu_batch_normalization_1/FusedBatchNormV3:0_quantized"
    name: "efficientnet-lite4/model/blocks_0/tpu_batch_normalization_1/FusedBatchNormV3:0_efficientnet-lite4/model/blocks_0/conv2d/Conv2D_QuantizeLinear"
    op_type: "QuantizeLinear"
  }
  node {
    input: "ConvBnFusion_BN_B_efficientnet-lite4/model/blocks_1/tpu_batch_normalization/ReadVariableOp_1:0_quantized"
    input: "ConvBnFusion_BN_B_efficientnet-lite4/model/blocks_1/tpu_batch_normalization/ReadVariableOp_1:0_scale"
    input: "ConvBnFusion_BN_B_efficientnet-lite4/model/blocks_1/tpu_batch_normalization/ReadVariableOp_1:0_zero_point"
    output: "ConvBnFusion_BN_B_efficientnet-lite4/model/blocks_1/tpu_batch_normalization/ReadVariableOp_1:0_dequantized"
    name: "ConvBnFusion_BN_B_efficientnet-lite4/model/blocks_1/tpu_batch_normalization/ReadVariableOp_1:0_DequantizeLinear"
    op_type: "DequantizeLinear"
  }
  node {
    input: "ConvBnFusion_W_efficientnet-lite4/model/blocks_1/conv2d/Conv2D/ReadVariableOp:0_quantized"
    input: "ConvBnFusion_W_efficientnet-lite4/model/blocks_1/conv2d/Conv2D/ReadVariableOp:0_scale"
    input: "ConvBnFusion_W_efficientnet-lite4/model/blocks_1/conv2d/Conv2D/ReadVariableOp:0_zero_point"
    output: "ConvBnFusion_W_efficientnet-lite4/model/blocks_1/conv2d/Conv2D/ReadVariableOp:0_dequantized"
    name: "ConvBnFusion_W_efficientnet-lite4/model/blocks_1/conv2d/Conv2D/ReadVariableOp:0_DequantizeLinear"
    op_type: "DequantizeLinear"
  }
  node {
    input: "efficientnet-lite4/model/blocks_0/tpu_batch_normalization_1/FusedBatchNormV3:0_quantized"
    input: "efficientnet-lite4/model/blocks_0/tpu_batch_normalization_1/FusedBatchNormV3:0_scale"
    input: "efficientnet-lite4/model/blocks_0/tpu_batch_normalization_1/FusedBatchNormV3:0_zero_point"
    output: "efficientnet-lite4/model/blocks_0/tpu_batch_normalization_1/FusedBatchNormV3:0_efficientnet-lite4/model/blocks_1/conv2d/Conv2D_dequantized"
    name: "efficientnet-lite4/model/blocks_0/tpu_batch_normalization_1/FusedBatchNormV3:0_efficientnet-lite4/model/blocks_1/conv2d/Conv2D_DequantizeLinear"
    op_type: "DequantizeLinear"
  }
  node {
    input: "efficientnet-lite4/model/blocks_0/tpu_batch_normalization_1/FusedBatchNormV3:0_efficientnet-lite4/model/blocks_1/conv2d/Conv2D_dequantized"
    input: "ConvBnFusion_W_efficientnet-lite4/model/blocks_1/conv2d/Conv2D/ReadVariableOp:0_dequantized"
    input: "ConvBnFusion_BN_B_efficientnet-lite4/model/blocks_1/tpu_batch_normalization/ReadVariableOp_1:0_dequantized"
    output: "efficientnet-lite4/model/blocks_1/tpu_batch_normalization/FusedBatchNormV3:0_QuantizeInput"
    name: "efficientnet-lite4/model/blocks_1/conv2d/Conv2D_quant"
    op_type: "Conv"
    attribute {
      name: "group"
      i: 1
      type: INT
    }
    attribute {
      name: "dilations"
      ints: 1
      ints: 1
      type: INTS
    }
    attribute {
      name: "strides"
      ints: 1
      ints: 1
      type: INTS
    }
    attribute {
      name: "kernel_shape"
      ints: 1
      ints: 1
      type: INTS
    }
    attribute {
      name: "pads"
      ints: 0
      ints: 0
      ints: 0
      ints: 0
      type: INTS
    }
    attribute {
      name: "auto_pad"
      s: "NOTSET"
      type: STRING
    }
  }
  node {
    input: "efficientnet-lite4/model/blocks_1/tpu_batch_normalization/FusedBatchNormV3:0_QuantizeInput"
    input: "efficientnet-lite4/model/blocks_1/tpu_batch_normalization/FusedBatchNormV3:0_scale"
    input: "efficientnet-lite4/model/blocks_1/tpu_batch_normalization/FusedBatchNormV3:0_zero_point"
    output: "efficientnet-lite4/model/blocks_1/tpu_batch_normalization/FusedBatchNormV3:0_quantized"
    name: "efficientnet-lite4/model/blocks_1/tpu_batch_normalization/FusedBatchNormV3:0_efficientnet-lite4/model/blocks_1/conv2d/Conv2D_QuantizeLinear"
    op_type: "QuantizeLinear"
  }
  node {
    input: "efficientnet-lite4/model/blocks_1/depthwise_conv2d/depthwise_bias_fused_bn_quantized"
    input: "efficientnet-lite4/model/blocks_1/depthwise_conv2d/depthwise_bias_fused_bn_scale"
    input: "efficientnet-lite4/model/blocks_1/depthwise_conv2d/depthwise_bias_fused_bn_zero_point"
    output: "efficientnet-lite4/model/blocks_1/depthwise_conv2d/depthwise_bias_fused_bn_dequantized"
    name: "efficientnet-lite4/model/blocks_1/depthwise_conv2d/depthwise_bias_fused_bn_DequantizeLinear"
    op_type: "DequantizeLinear"
  }
  node {
    input: "efficientnet-lite4/model/blocks_1/depthwise_conv2d/depthwise_weights_fused_bn_quantized"
    input: "efficientnet-lite4/model/blocks_1/depthwise_conv2d/depthwise_weights_fused_bn_scale"
    input: "efficientnet-lite4/model/blocks_1/depthwise_conv2d/depthwise_weights_fused_bn_zero_point"
    output: "efficientnet-lite4/model/blocks_1/depthwise_conv2d/depthwise_weights_fused_bn_dequantized"
    name: "efficientnet-lite4/model/blocks_1/depthwise_conv2d/depthwise_weights_fused_bn_DequantizeLinear"
    op_type: "DequantizeLinear"
  }
  node {
    input: "efficientnet-lite4/model/blocks_1/tpu_batch_normalization/FusedBatchNormV3:0_quantized"
    input: "efficientnet-lite4/model/blocks_1/tpu_batch_normalization/FusedBatchNormV3:0_scale"
    input: "efficientnet-lite4/model/blocks_1/tpu_batch_normalization/FusedBatchNormV3:0_zero_point"
    output: "efficientnet-lite4/model/blocks_1/tpu_batch_normalization/FusedBatchNormV3:0_efficientnet-lite4/model/blocks_1/depthwise_conv2d/depthwise_dequantized"
    name: "efficientnet-lite4/model/blocks_1/tpu_batch_normalization/FusedBatchNormV3:0_efficientnet-lite4/model/blocks_1/depthwise_conv2d/depthwise_DequantizeLinear"
    op_type: "DequantizeLinear"
  }
  node {
    input: "efficientnet-lite4/model/blocks_1/tpu_batch_normalization/FusedBatchNormV3:0_efficientnet-lite4/model/blocks_1/depthwise_conv2d/depthwise_dequantized"
    input: "efficientnet-lite4/model/blocks_1/depthwise_conv2d/depthwise_weights_fused_bn_dequantized"
    input: "efficientnet-lite4/model/blocks_1/depthwise_conv2d/depthwise_bias_fused_bn_dequantized"
    output: "efficientnet-lite4/model/blocks_1/tpu_batch_normalization_1/FusedBatchNormV3:0_QuantizeInput"
    name: "efficientnet-lite4/model/blocks_1/depthwise_conv2d/depthwise_quant"
    op_type: "Conv"
    attribute {
      name: "auto_pad"
      s: "NOTSET"
      type: STRING
    }
    attribute {
      name: "dilations"
      ints: 1
      ints: 1
      type: INTS
    }
    attribute {
      name: "strides"
      ints: 2
      ints: 2
      type: INTS
    }
    attribute {
      name: "group"
      i: 144
      type: INT
    }
    attribute {
      name: "kernel_shape"
      ints: 3
      ints: 3
      type: INTS
    }
    attribute {
      name: "pads"
      ints: 0
      ints: 0
      ints: 1
      ints: 1
      type: INTS
    }
  }
  node {
    input: "efficientnet-lite4/model/blocks_1/tpu_batch_normalization_1/FusedBatchNormV3:0_QuantizeInput"
    input: "efficientnet-lite4/model/blocks_1/tpu_batch_normalization_1/FusedBatchNormV3:0_scale"
    input: "efficientnet-lite4/model/blocks_1/tpu_batch_normalization_1/FusedBatchNormV3:0_zero_point"
    output: "efficientnet-lite4/model/blocks_1/tpu_batch_normalization_1/FusedBatchNormV3:0_quantized"
    name: "efficientnet-lite4/model/blocks_1/tpu_batch_normalization_1/FusedBatchNormV3:0_efficientnet-lite4/model/blocks_1/depthwise_conv2d/depthwise_QuantizeLinear"
    op_type: "QuantizeLinear"
  }
  node {
    input: "efficientnet-lite4/model/blocks_1/conv2d_1/Conv2D_bias_fused_bn_quantized"
    input: "efficientnet-lite4/model/blocks_1/conv2d_1/Conv2D_bias_fused_bn_scale"
    input: "efficientnet-lite4/model/blocks_1/conv2d_1/Conv2D_bias_fused_bn_zero_point"
    output: "efficientnet-lite4/model/blocks_1/conv2d_1/Conv2D_bias_fused_bn_dequantized"
    name: "efficientnet-lite4/model/blocks_1/conv2d_1/Conv2D_bias_fused_bn_DequantizeLinear"
    op_type: "DequantizeLinear"
  }
  node {
    input: "efficientnet-lite4/model/blocks_1/conv2d_1/Conv2D_weights_fused_bn_quantized"
    input: "efficientnet-lite4/model/blocks_1/conv2d_1/Conv2D_weights_fused_bn_scale"
    input: "efficientnet-lite4/model/blocks_1/conv2d_1/Conv2D_weights_fused_bn_zero_point"
    output: "efficientnet-lite4/model/blocks_1/conv2d_1/Conv2D_weights_fused_bn_dequantized"
    name: "efficientnet-lite4/model/blocks_1/conv2d_1/Conv2D_weights_fused_bn_DequantizeLinear"
    op_type: "DequantizeLinear"
  }
  node {
    input: "efficientnet-lite4/model/blocks_1/tpu_batch_normalization_1/FusedBatchNormV3:0_quantized"
    input: "efficientnet-lite4/model/blocks_1/tpu_batch_normalization_1/FusedBatchNormV3:0_scale"
    input: "efficientnet-lite4/model/blocks_1/tpu_batch_normalization_1/FusedBatchNormV3:0_zero_point"
    output: "efficientnet-lite4/model/blocks_1/tpu_batch_normalization_1/FusedBatchNormV3:0_efficientnet-lite4/model/blocks_1/conv2d_1/Conv2D_dequantized"
    name: "efficientnet-lite4/model/blocks_1/tpu_batch_normalization_1/FusedBatchNormV3:0_efficientnet-lite4/model/blocks_1/conv2d_1/Conv2D_DequantizeLinear"
    op_type: "DequantizeLinear"
  }
  node {
    input: "efficientnet-lite4/model/blocks_1/tpu_batch_normalization_1/FusedBatchNormV3:0_efficientnet-lite4/model/blocks_1/conv2d_1/Conv2D_dequantized"
    input: "efficientnet-lite4/model/blocks_1/conv2d_1/Conv2D_weights_fused_bn_dequantized"
    input: "efficientnet-lite4/model/blocks_1/conv2d_1/Conv2D_bias_fused_bn_dequantized"
    output: "efficientnet-lite4/model/blocks_1/tpu_batch_normalization_2/FusedBatchNormV3:0_QuantizeInput"
    name: "efficientnet-lite4/model/blocks_1/conv2d_1/Conv2D_quant"
    op_type: "Conv"
    attribute {
      name: "group"
      i: 1
      type: INT
    }
    attribute {
      name: "dilations"
      ints: 1
      ints: 1
      type: INTS
    }
    attribute {
      name: "strides"
      ints: 1
      ints: 1
      type: INTS
    }
    attribute {
      name: "kernel_shape"
      ints: 1
      ints: 1
      type: INTS
    }
    attribute {
      name: "pads"
      ints: 0
      ints: 0
      ints: 0
      ints: 0
      type: INTS
    }
    attribute {
      name: "auto_pad"
      s: "NOTSET"
      type: STRING
    }
  }
  node {
    input: "efficientnet-lite4/model/blocks_1/tpu_batch_normalization_2/FusedBatchNormV3:0_QuantizeInput"
    input: "efficientnet-lite4/model/blocks_1/tpu_batch_normalization_2/FusedBatchNormV3:0_scale"
    input: "efficientnet-lite4/model/blocks_1/tpu_batch_normalization_2/FusedBatchNormV3:0_zero_point"
    output: "efficientnet-lite4/model/blocks_1/tpu_batch_normalization_2/FusedBatchNormV3:0_quantized"
    name: "efficientnet-lite4/model/blocks_1/tpu_batch_normalization_2/FusedBatchNormV3:0_efficientnet-lite4/model/blocks_1/conv2d_1/Conv2D_QuantizeLinear"
    op_type: "QuantizeLinear"
  }
  node {
    input: "ConvBnFusion_BN_B_efficientnet-lite4/model/blocks_2/tpu_batch_normalization/ReadVariableOp_1:0_quantized"
    input: "ConvBnFusion_BN_B_efficientnet-lite4/model/blocks_2/tpu_batch_normalization/ReadVariableOp_1:0_scale"
    input: "ConvBnFusion_BN_B_efficientnet-lite4/model/blocks_2/tpu_batch_normalization/ReadVariableOp_1:0_zero_point"
    output: "ConvBnFusion_BN_B_efficientnet-lite4/model/blocks_2/tpu_batch_normalization/ReadVariableOp_1:0_dequantized"
    name: "ConvBnFusion_BN_B_efficientnet-lite4/model/blocks_2/tpu_batch_normalization/ReadVariableOp_1:0_DequantizeLinear"
    op_type: "DequantizeLinear"
  }
  node {
    input: "ConvBnFusion_W_efficientnet-lite4/model/blocks_2/conv2d/Conv2D/ReadVariableOp:0_quantized"
    input: "ConvBnFusion_W_efficientnet-lite4/model/blocks_2/conv2d/Conv2D/ReadVariableOp:0_scale"
    input: "ConvBnFusion_W_efficientnet-lite4/model/blocks_2/conv2d/Conv2D/ReadVariableOp:0_zero_point"
    output: "ConvBnFusion_W_efficientnet-lite4/model/blocks_2/conv2d/Conv2D/ReadVariableOp:0_dequantized"
    name: "ConvBnFusion_W_efficientnet-lite4/model/blocks_2/conv2d/Conv2D/ReadVariableOp:0_DequantizeLinear"
    op_type: "DequantizeLinear"
  }
  node {
    input: "efficientnet-lite4/model/blocks_2/depthwise_conv2d/depthwise_bias_fused_bn_quantized"
    input: "efficientnet-lite4/model/blocks_2/depthwise_conv2d/depthwise_bias_fused_bn_scale"
    input: "efficientnet-lite4/model/blocks_2/depthwise_conv2d/depthwise_bias_fused_bn_zero_point"
    output: "efficientnet-lite4/model/blocks_2/depthwise_conv2d/depthwise_bias_fused_bn_dequantized"
    name: "efficientnet-lite4/model/blocks_2/depthwise_conv2d/depthwise_bias_fused_bn_DequantizeLinear"
    op_type: "DequantizeLinear"
  }
  node {
    input: "efficientnet-lite4/model/blocks_2/depthwise_conv2d/depthwise_weights_fused_bn_quantized"
    input: "efficientnet-lite4/model/blocks_2/depthwise_conv2d/depthwise_weights_fused_bn_scale"
    input: "efficientnet-lite4/model/blocks_2/depthwise_conv2d/depthwise_weights_fused_bn_zero_point"
    output: "efficientnet-lite4/model/blocks_2/depthwise_conv2d/depthwise_weights_fused_bn_dequantized"
    name: "efficientnet-lite4/model/blocks_2/depthwise_conv2d/depthwise_weights_fused_bn_DequantizeLinear"
    op_type: "DequantizeLinear"
  }
  node {
    input: "efficientnet-lite4/model/blocks_1/tpu_batch_normalization_2/FusedBatchNormV3:0_quantized"
    input: "efficientnet-lite4/model/blocks_1/tpu_batch_normalization_2/FusedBatchNormV3:0_scale"
    input: "efficientnet-lite4/model/blocks_1/tpu_batch_normalization_2/FusedBatchNormV3:0_zero_point"
    output: "efficientnet-lite4/model/blocks_1/tpu_batch_normalization_2/FusedBatchNormV3:0"
    name: "efficientnet-lite4/model/blocks_1/tpu_batch_normalization_2/FusedBatchNormV3:0_efficientnet-lite4/model/blocks_1/conv2d_1/Conv2D_DequantizeLinear"
    op_type: "DequantizeLinear"
  }
  node {
    input: "efficientnet-lite4/model/blocks_1/tpu_batch_normalization_2/FusedBatchNormV3:0"
    input: "ConvBnFusion_W_efficientnet-lite4/model/blocks_2/conv2d/Conv2D/ReadVariableOp:0_dequantized"
    input: "ConvBnFusion_BN_B_efficientnet-lite4/model/blocks_2/tpu_batch_normalization/ReadVariableOp_1:0_dequantized"
    output: "efficientnet-lite4/model/blocks_2/tpu_batch_normalization/FusedBatchNormV3:0_QuantizeInput"
    name: "efficientnet-lite4/model/blocks_2/conv2d/Conv2D_quant"
    op_type: "Conv"
    attribute {
      name: "group"
      i: 1
      type: INT
    }
    attribute {
      name: "dilations"
      ints: 1
      ints: 1
      type: INTS
    }
    attribute {
      name: "strides"
      ints: 1
      ints: 1
      type: INTS
    }
    attribute {
      name: "kernel_shape"
      ints: 1
      ints: 1
      type: INTS
    }
    attribute {
      name: "pads"
      ints: 0
      ints: 0
      ints: 0
      ints: 0
      type: INTS
    }
    attribute {
      name: "auto_pad"
      s: "NOTSET"
      type: STRING
    }
  }
  node {
    input: "efficientnet-lite4/model/blocks_2/tpu_batch_normalization/FusedBatchNormV3:0_QuantizeInput"
    input: "efficientnet-lite4/model/blocks_2/tpu_batch_normalization/FusedBatchNormV3:0_scale"
    input: "efficientnet-lite4/model/blocks_2/tpu_batch_normalization/FusedBatchNormV3:0_zero_point"
    output: "efficientnet-lite4/model/blocks_2/tpu_batch_normalization/FusedBatchNormV3:0_quantized"
    name: "efficientnet-lite4/model/blocks_2/tpu_batch_normalization/FusedBatchNormV3:0_efficientnet-lite4/model/blocks_2/conv2d/Conv2D_QuantizeLinear"
    op_type: "QuantizeLinear"
  }
  node {
    input: "efficientnet-lite4/model/blocks_2/tpu_batch_normalization/FusedBatchNormV3:0_quantized"
    input: "efficientnet-lite4/model/blocks_2/tpu_batch_normalization/FusedBatchNormV3:0_scale"
    input: "efficientnet-lite4/model/blocks_2/tpu_batch_normalization/FusedBatchNormV3:0_zero_point"
    output: "efficientnet-lite4/model/blocks_2/tpu_batch_normalization/FusedBatchNormV3:0_efficientnet-lite4/model/blocks_2/depthwise_conv2d/depthwise_dequantized"
    name: "efficientnet-lite4/model/blocks_2/tpu_batch_normalization/FusedBatchNormV3:0_efficientnet-lite4/model/blocks_2/depthwise_conv2d/depthwise_DequantizeLinear"
    op_type: "DequantizeLinear"
  }
  node {
    input: "efficientnet-lite4/model/blocks_2/tpu_batch_normalization/FusedBatchNormV3:0_efficientnet-lite4/model/blocks_2/depthwise_conv2d/depthwise_dequantized"
    input: "efficientnet-lite4/model/blocks_2/depthwise_conv2d/depthwise_weights_fused_bn_dequantized"
    input: "efficientnet-lite4/model/blocks_2/depthwise_conv2d/depthwise_bias_fused_bn_dequantized"
    output: "efficientnet-lite4/model/blocks_2/tpu_batch_normalization_1/FusedBatchNormV3:0_QuantizeInput"
    name: "efficientnet-lite4/model/blocks_2/depthwise_conv2d/depthwise_quant"
    op_type: "Conv"
    attribute {
      name: "auto_pad"
      s: "NOTSET"
      type: STRING
    }
    attribute {
      name: "dilations"
      ints: 1
      ints: 1
      type: INTS
    }
    attribute {
      name: "strides"
      ints: 1
      ints: 1
      type: INTS
    }
    attribute {
      name: "group"
      i: 192
      type: INT
    }
    attribute {
      name: "kernel_shape"
      ints: 3
      ints: 3
      type: INTS
    }
    attribute {
      name: "pads"
      ints: 1
      ints: 1
      ints: 1
      ints: 1
      type: INTS
    }
  }
  node {
    input: "efficientnet-lite4/model/blocks_2/tpu_batch_normalization_1/FusedBatchNormV3:0_QuantizeInput"
    input: "efficientnet-lite4/model/blocks_2/tpu_batch_normalization_1/FusedBatchNormV3:0_scale"
    input: "efficientnet-lite4/model/blocks_2/tpu_batch_normalization_1/FusedBatchNormV3:0_zero_point"
    output: "efficientnet-lite4/model/blocks_2/tpu_batch_normalization_1/FusedBatchNormV3:0_quantized"
    name: "efficientnet-lite4/model/blocks_2/tpu_batch_normalization_1/FusedBatchNormV3:0_efficientnet-lite4/model/blocks_2/depthwise_conv2d/depthwise_QuantizeLinear"
    op_type: "QuantizeLinear"
  }
  node {
    input: "efficientnet-lite4/model/blocks_2/conv2d_1/Conv2D_bias_fused_bn_quantized"
    input: "efficientnet-lite4/model/blocks_2/conv2d_1/Conv2D_bias_fused_bn_scale"
    input: "efficientnet-lite4/model/blocks_2/conv2d_1/Conv2D_bias_fused_bn_zero_point"
    output: "efficientnet-lite4/model/blocks_2/conv2d_1/Conv2D_bias_fused_bn_dequantized"
    name: "efficientnet-lite4/model/blocks_2/conv2d_1/Conv2D_bias_fused_bn_DequantizeLinear"
    op_type: "DequantizeLinear"
  }
  node {
    input: "efficientnet-lite4/model/blocks_2/conv2d_1/Conv2D_weights_fused_bn_quantized"
    input: "efficientnet-lite4/model/blocks_2/conv2d_1/Conv2D_weights_fused_bn_scale"
    input: "efficientnet-lite4/model/blocks_2/conv2d_1/Conv2D_weights_fused_bn_zero_point"
    output: "efficientnet-lite4/model/blocks_2/conv2d_1/Conv2D_weights_fused_bn_dequantized"
    name: "efficientnet-lite4/model/blocks_2/conv2d_1/Conv2D_weights_fused_bn_DequantizeLinear"
    op_type: "DequantizeLinear"
  }
  node {
    input: "efficientnet-lite4/model/blocks_2/tpu_batch_normalization_1/FusedBatchNormV3:0_quantized"
    input: "efficientnet-lite4/model/blocks_2/tpu_batch_normalization_1/FusedBatchNormV3:0_scale"
    input: "efficientnet-lite4/model/blocks_2/tpu_batch_normalization_1/FusedBatchNormV3:0_zero_point"
    output: "efficientnet-lite4/model/blocks_2/tpu_batch_normalization_1/FusedBatchNormV3:0_efficientnet-lite4/model/blocks_2/conv2d_1/Conv2D_dequantized"
    name: "efficientnet-lite4/model/blocks_2/tpu_batch_normalization_1/FusedBatchNormV3:0_efficientnet-lite4/model/blocks_2/conv2d_1/Conv2D_DequantizeLinear"
    op_type: "DequantizeLinear"
  }
  node {
    input: "efficientnet-lite4/model/blocks_2/tpu_batch_normalization_1/FusedBatchNormV3:0_efficientnet-lite4/model/blocks_2/conv2d_1/Conv2D_dequantized"
    input: "efficientnet-lite4/model/blocks_2/conv2d_1/Conv2D_weights_fused_bn_dequantized"
    input: "efficientnet-lite4/model/blocks_2/conv2d_1/Conv2D_bias_fused_bn_dequantized"
    output: "efficientnet-lite4/model/blocks_2/tpu_batch_normalization_2/FusedBatchNormV3:0_QuantizeInput"
    name: "efficientnet-lite4/model/blocks_2/conv2d_1/Conv2D_quant"
    op_type: "Conv"
    attribute {
      name: "group"
      i: 1
      type: INT
    }
    attribute {
      name: "dilations"
      ints: 1
      ints: 1
      type: INTS
    }
    attribute {
      name: "strides"
      ints: 1
      ints: 1
      type: INTS
    }
    attribute {
      name: "kernel_shape"
      ints: 1
      ints: 1
      type: INTS
    }
    attribute {
      name: "pads"
      ints: 0
      ints: 0
      ints: 0
      ints: 0
      type: INTS
    }
    attribute {
      name: "auto_pad"
      s: "NOTSET"
      type: STRING
    }
  }
  node {
    input: "efficientnet-lite4/model/blocks_2/tpu_batch_normalization_2/FusedBatchNormV3:0_QuantizeInput"
    input: "efficientnet-lite4/model/blocks_2/tpu_batch_normalization_2/FusedBatchNormV3:0_scale"
    input: "efficientnet-lite4/model/blocks_2/tpu_batch_normalization_2/FusedBatchNormV3:0_zero_point"
    output: "efficientnet-lite4/model/blocks_2/tpu_batch_normalization_2/FusedBatchNormV3:0_quantized"
    name: "efficientnet-lite4/model/blocks_2/tpu_batch_normalization_2/FusedBatchNormV3:0_efficientnet-lite4/model/blocks_2/conv2d_1/Conv2D_QuantizeLinear"
    op_type: "QuantizeLinear"
  }
  node {
    input: "efficientnet-lite4/model/blocks_2/tpu_batch_normalization_2/FusedBatchNormV3:0_quantized"
    input: "efficientnet-lite4/model/blocks_2/tpu_batch_normalization_2/FusedBatchNormV3:0_scale"
    input: "efficientnet-lite4/model/blocks_2/tpu_batch_normalization_2/FusedBatchNormV3:0_zero_point"
    output: "efficientnet-lite4/model/blocks_2/tpu_batch_normalization_2/FusedBatchNormV3:0"
    name: "efficientnet-lite4/model/blocks_2/tpu_batch_normalization_2/FusedBatchNormV3:0_efficientnet-lite4/model/blocks_2/conv2d_1/Conv2D_DequantizeLinear"
    op_type: "DequantizeLinear"
  }
  node {
    input: "efficientnet-lite4/model/blocks_3/conv2d/Conv2D_bias_fused_bn_quantized"
    input: "efficientnet-lite4/model/blocks_3/conv2d/Conv2D_bias_fused_bn_scale"
    input: "efficientnet-lite4/model/blocks_3/conv2d/Conv2D_bias_fused_bn_zero_point"
    output: "efficientnet-lite4/model/blocks_3/conv2d/Conv2D_bias_fused_bn_dequantized"
    name: "efficientnet-lite4/model/blocks_3/conv2d/Conv2D_bias_fused_bn_DequantizeLinear"
    op_type: "DequantizeLinear"
  }
  node {
    input: "efficientnet-lite4/model/blocks_3/conv2d/Conv2D_weights_fused_bn_quantized"
    input: "efficientnet-lite4/model/blocks_3/conv2d/Conv2D_weights_fused_bn_scale"
    input: "efficientnet-lite4/model/blocks_3/conv2d/Conv2D_weights_fused_bn_zero_point"
    output: "efficientnet-lite4/model/blocks_3/conv2d/Conv2D_weights_fused_bn_dequantized"
    name: "efficientnet-lite4/model/blocks_3/conv2d/Conv2D_weights_fused_bn_DequantizeLinear"
    op_type: "DequantizeLinear"
  }
  node {
    input: "efficientnet-lite4/model/blocks_3/depthwise_conv2d/depthwise_bias_fused_bn_quantized"
    input: "efficientnet-lite4/model/blocks_3/depthwise_conv2d/depthwise_bias_fused_bn_scale"
    input: "efficientnet-lite4/model/blocks_3/depthwise_conv2d/depthwise_bias_fused_bn_zero_point"
    output: "efficientnet-lite4/model/blocks_3/depthwise_conv2d/depthwise_bias_fused_bn_dequantized"
    name: "efficientnet-lite4/model/blocks_3/depthwise_conv2d/depthwise_bias_fused_bn_DequantizeLinear"
    op_type: "DequantizeLinear"
  }
  node {
    input: "efficientnet-lite4/model/blocks_3/depthwise_conv2d/depthwise_weights_fused_bn_quantized"
    input: "efficientnet-lite4/model/blocks_3/depthwise_conv2d/depthwise_weights_fused_bn_scale"
    input: "efficientnet-lite4/model/blocks_3/depthwise_conv2d/depthwise_weights_fused_bn_zero_point"
    output: "efficientnet-lite4/model/blocks_3/depthwise_conv2d/depthwise_weights_fused_bn_dequantized"
    name: "efficientnet-lite4/model/blocks_3/depthwise_conv2d/depthwise_weights_fused_bn_DequantizeLinear"
    op_type: "DequantizeLinear"
  }
  node {
    input: "efficientnet-lite4/model/blocks_2/tpu_batch_normalization_2/FusedBatchNormV3:0"
    input: "efficientnet-lite4/model/blocks_1/tpu_batch_normalization_2/FusedBatchNormV3:0"
    output: "efficientnet-lite4/model/blocks_2/Add:0"
    name: "efficientnet-lite4/model/blocks_2/Add"
    op_type: "Add"
  }
  node {
    input: "efficientnet-lite4/model/blocks_2/Add:0"
    input: "efficientnet-lite4/model/blocks_2/Add:0_scale"
    input: "efficientnet-lite4/model/blocks_2/Add:0_zero_point"
    output: "efficientnet-lite4/model/blocks_2/Add:0_efficientnet-lite4/model/blocks_3/conv2d/Conv2D_QuantizeLinear"
    name: "efficientnet-lite4/model/blocks_2/Add:0_efficientnet-lite4/model/blocks_3/conv2d/Conv2D_QuantizeLinear"
    op_type: "QuantizeLinear"
  }
  node {
    input: "efficientnet-lite4/model/blocks_2/Add:0_efficientnet-lite4/model/blocks_3/conv2d/Conv2D_QuantizeLinear"
    input: "efficientnet-lite4/model/blocks_2/Add:0_scale"
    input: "efficientnet-lite4/model/blocks_2/Add:0_zero_point"
    output: "efficientnet-lite4/model/blocks_2/Add:0_efficientnet-lite4/model/blocks_3/conv2d/Conv2D_dequantized"
    name: "efficientnet-lite4/model/blocks_2/Add:0_efficientnet-lite4/model/blocks_3/conv2d/Conv2D_DequantizeLinear"
    op_type: "DequantizeLinear"
  }
  node {
    input: "efficientnet-lite4/model/blocks_2/Add:0_efficientnet-lite4/model/blocks_3/conv2d/Conv2D_dequantized"
    input: "efficientnet-lite4/model/blocks_3/conv2d/Conv2D_weights_fused_bn_dequantized"
    input: "efficientnet-lite4/model/blocks_3/conv2d/Conv2D_bias_fused_bn_dequantized"
    output: "efficientnet-lite4/model/blocks_3/tpu_batch_normalization/FusedBatchNormV3:0_QuantizeInput"
    name: "efficientnet-lite4/model/blocks_3/conv2d/Conv2D_quant"
    op_type: "Conv"
    attribute {
      name: "group"
      i: 1
      type: INT
    }
    attribute {
      name: "dilations"
      ints: 1
      ints: 1
      type: INTS
    }
    attribute {
      name: "strides"
      ints: 1
      ints: 1
      type: INTS
    }
    attribute {
      name: "kernel_shape"
      ints: 1
      ints: 1
      type: INTS
    }
    attribute {
      name: "pads"
      ints: 0
      ints: 0
      ints: 0
      ints: 0
      type: INTS
    }
    attribute {
      name: "auto_pad"
      s: "NOTSET"
      type: STRING
    }
  }
  node {
    input: "efficientnet-lite4/model/blocks_3/tpu_batch_normalization/FusedBatchNormV3:0_QuantizeInput"
    input: "efficientnet-lite4/model/blocks_3/tpu_batch_normalization/FusedBatchNormV3:0_scale"
    input: "efficientnet-lite4/model/blocks_3/tpu_batch_normalization/FusedBatchNormV3:0_zero_point"
    output: "efficientnet-lite4/model/blocks_3/tpu_batch_normalization/FusedBatchNormV3:0_quantized"
    name: "efficientnet-lite4/model/blocks_3/tpu_batch_normalization/FusedBatchNormV3:0_efficientnet-lite4/model/blocks_3/conv2d/Conv2D_QuantizeLinear"
    op_type: "QuantizeLinear"
  }
  node {
    input: "efficientnet-lite4/model/blocks_3/tpu_batch_normalization/FusedBatchNormV3:0_quantized"
    input: "efficientnet-lite4/model/blocks_3/tpu_batch_normalization/FusedBatchNormV3:0_scale"
    input: "efficientnet-lite4/model/blocks_3/tpu_batch_normalization/FusedBatchNormV3:0_zero_point"
    output: "efficientnet-lite4/model/blocks_3/tpu_batch_normalization/FusedBatchNormV3:0_efficientnet-lite4/model/blocks_3/depthwise_conv2d/depthwise_dequantized"
    name: "efficientnet-lite4/model/blocks_3/tpu_batch_normalization/FusedBatchNormV3:0_efficientnet-lite4/model/blocks_3/depthwise_conv2d/depthwise_DequantizeLinear"
    op_type: "DequantizeLinear"
  }
  node {
    input: "efficientnet-lite4/model/blocks_3/tpu_batch_normalization/FusedBatchNormV3:0_efficientnet-lite4/model/blocks_3/depthwise_conv2d/depthwise_dequantized"
    input: "efficientnet-lite4/model/blocks_3/depthwise_conv2d/depthwise_weights_fused_bn_dequantized"
    input: "efficientnet-lite4/model/blocks_3/depthwise_conv2d/depthwise_bias_fused_bn_dequantized"
    output: "efficientnet-lite4/model/blocks_3/tpu_batch_normalization_1/FusedBatchNormV3:0_QuantizeInput"
    name: "efficientnet-lite4/model/blocks_3/depthwise_conv2d/depthwise_quant"
    op_type: "Conv"
    attribute {
      name: "auto_pad"
      s: "NOTSET"
      type: STRING
    }
    attribute {
      name: "dilations"
      ints: 1
      ints: 1
      type: INTS
    }
    attribute {
      name: "strides"
      ints: 1
      ints: 1
      type: INTS
    }
    attribute {
      name: "group"
      i: 192
      type: INT
    }
    attribute {
      name: "kernel_shape"
      ints: 3
      ints: 3
      type: INTS
    }
    attribute {
      name: "pads"
      ints: 1
      ints: 1
      ints: 1
      ints: 1
      type: INTS
    }
  }
  node {
    input: "efficientnet-lite4/model/blocks_3/tpu_batch_normalization_1/FusedBatchNormV3:0_QuantizeInput"
    input: "efficientnet-lite4/model/blocks_3/tpu_batch_normalization_1/FusedBatchNormV3:0_scale"
    input: "efficientnet-lite4/model/blocks_3/tpu_batch_normalization_1/FusedBatchNormV3:0_zero_point"
    output: "efficientnet-lite4/model/blocks_3/tpu_batch_normalization_1/FusedBatchNormV3:0_quantized"
    name: "efficientnet-lite4/model/blocks_3/tpu_batch_normalization_1/FusedBatchNormV3:0_efficientnet-lite4/model/blocks_3/depthwise_conv2d/depthwise_QuantizeLinear"
    op_type: "QuantizeLinear"
  }
  node {
    input: "efficientnet-lite4/model/blocks_3/conv2d_1/Conv2D_bias_fused_bn_quantized"
    input: "efficientnet-lite4/model/blocks_3/conv2d_1/Conv2D_bias_fused_bn_scale"
    input: "efficientnet-lite4/model/blocks_3/conv2d_1/Conv2D_bias_fused_bn_zero_point"
    output: "efficientnet-lite4/model/blocks_3/conv2d_1/Conv2D_bias_fused_bn_dequantized"
    name: "efficientnet-lite4/model/blocks_3/conv2d_1/Conv2D_bias_fused_bn_DequantizeLinear"
    op_type: "DequantizeLinear"
  }
  node {
    input: "efficientnet-lite4/model/blocks_3/conv2d_1/Conv2D_weights_fused_bn_quantized"
    input: "efficientnet-lite4/model/blocks_3/conv2d_1/Conv2D_weights_fused_bn_scale"
    input: "efficientnet-lite4/model/blocks_3/conv2d_1/Conv2D_weights_fused_bn_zero_point"
    output: "efficientnet-lite4/model/blocks_3/conv2d_1/Conv2D_weights_fused_bn_dequantized"
    name: "efficientnet-lite4/model/blocks_3/conv2d_1/Conv2D_weights_fused_bn_DequantizeLinear"
    op_type: "DequantizeLinear"
  }
  node {
    input: "efficientnet-lite4/model/blocks_3/tpu_batch_normalization_1/FusedBatchNormV3:0_quantized"
    input: "efficientnet-lite4/model/blocks_3/tpu_batch_normalization_1/FusedBatchNormV3:0_scale"
    input: "efficientnet-lite4/model/blocks_3/tpu_batch_normalization_1/FusedBatchNormV3:0_zero_point"
    output: "efficientnet-lite4/model/blocks_3/tpu_batch_normalization_1/FusedBatchNormV3:0_efficientnet-lite4/model/blocks_3/conv2d_1/Conv2D_dequantized"
    name: "efficientnet-lite4/model/blocks_3/tpu_batch_normalization_1/FusedBatchNormV3:0_efficientnet-lite4/model/blocks_3/conv2d_1/Conv2D_DequantizeLinear"
    op_type: "DequantizeLinear"
  }
  node {
    input: "efficientnet-lite4/model/blocks_3/tpu_batch_normalization_1/FusedBatchNormV3:0_efficientnet-lite4/model/blocks_3/conv2d_1/Conv2D_dequantized"
    input: "efficientnet-lite4/model/blocks_3/conv2d_1/Conv2D_weights_fused_bn_dequantized"
    input: "efficientnet-lite4/model/blocks_3/conv2d_1/Conv2D_bias_fused_bn_dequantized"
    output: "efficientnet-lite4/model/blocks_3/tpu_batch_normalization_2/FusedBatchNormV3:0_QuantizeInput"
    name: "efficientnet-lite4/model/blocks_3/conv2d_1/Conv2D_quant"
    op_type: "Conv"
    attribute {
      name: "group"
      i: 1
      type: INT
    }
    attribute {
      name: "dilations"
      ints: 1
      ints: 1
      type: INTS
    }
    attribute {
      name: "strides"
      ints: 1
      ints: 1
      type: INTS
    }
    attribute {
      name: "kernel_shape"
      ints: 1
      ints: 1
      type: INTS
    }
    attribute {
      name: "pads"
      ints: 0
      ints: 0
      ints: 0
      ints: 0
      type: INTS
    }
    attribute {
      name: "auto_pad"
      s: "NOTSET"
      type: STRING
    }
  }
  node {
    input: "efficientnet-lite4/model/blocks_3/tpu_batch_normalization_2/FusedBatchNormV3:0_QuantizeInput"
    input: "efficientnet-lite4/model/blocks_3/tpu_batch_normalization_2/FusedBatchNormV3:0_scale"
    input: "efficientnet-lite4/model/blocks_3/tpu_batch_normalization_2/FusedBatchNormV3:0_zero_point"
    output: "efficientnet-lite4/model/blocks_3/tpu_batch_normalization_2/FusedBatchNormV3:0_quantized"
    name: "efficientnet-lite4/model/blocks_3/tpu_batch_normalization_2/FusedBatchNormV3:0_efficientnet-lite4/model/blocks_3/conv2d_1/Conv2D_QuantizeLinear"
    op_type: "QuantizeLinear"
  }
  node {
    input: "efficientnet-lite4/model/blocks_3/tpu_batch_normalization_2/FusedBatchNormV3:0_quantized"
    input: "efficientnet-lite4/model/blocks_3/tpu_batch_normalization_2/FusedBatchNormV3:0_scale"
    input: "efficientnet-lite4/model/blocks_3/tpu_batch_normalization_2/FusedBatchNormV3:0_zero_point"
    output: "efficientnet-lite4/model/blocks_3/tpu_batch_normalization_2/FusedBatchNormV3:0"
    name: "efficientnet-lite4/model/blocks_3/tpu_batch_normalization_2/FusedBatchNormV3:0_efficientnet-lite4/model/blocks_3/conv2d_1/Conv2D_DequantizeLinear"
    op_type: "DequantizeLinear"
  }
  node {
    input: "efficientnet-lite4/model/blocks_4/conv2d/Conv2D_bias_fused_bn_quantized"
    input: "efficientnet-lite4/model/blocks_4/conv2d/Conv2D_bias_fused_bn_scale"
    input: "efficientnet-lite4/model/blocks_4/conv2d/Conv2D_bias_fused_bn_zero_point"
    output: "efficientnet-lite4/model/blocks_4/conv2d/Conv2D_bias_fused_bn_dequantized"
    name: "efficientnet-lite4/model/blocks_4/conv2d/Conv2D_bias_fused_bn_DequantizeLinear"
    op_type: "DequantizeLinear"
  }
  node {
    input: "efficientnet-lite4/model/blocks_4/conv2d/Conv2D_weights_fused_bn_quantized"
    input: "efficientnet-lite4/model/blocks_4/conv2d/Conv2D_weights_fused_bn_scale"
    input: "efficientnet-lite4/model/blocks_4/conv2d/Conv2D_weights_fused_bn_zero_point"
    output: "efficientnet-lite4/model/blocks_4/conv2d/Conv2D_weights_fused_bn_dequantized"
    name: "efficientnet-lite4/model/blocks_4/conv2d/Conv2D_weights_fused_bn_DequantizeLinear"
    op_type: "DequantizeLinear"
  }
  node {
    input: "efficientnet-lite4/model/blocks_4/depthwise_conv2d/depthwise_bias_fused_bn_quantized"
    input: "efficientnet-lite4/model/blocks_4/depthwise_conv2d/depthwise_bias_fused_bn_scale"
    input: "efficientnet-lite4/model/blocks_4/depthwise_conv2d/depthwise_bias_fused_bn_zero_point"
    output: "efficientnet-lite4/model/blocks_4/depthwise_conv2d/depthwise_bias_fused_bn_dequantized"
    name: "efficientnet-lite4/model/blocks_4/depthwise_conv2d/depthwise_bias_fused_bn_DequantizeLinear"
    op_type: "DequantizeLinear"
  }
  node {
    input: "efficientnet-lite4/model/blocks_4/depthwise_conv2d/depthwise_weights_fused_bn_quantized"
    input: "efficientnet-lite4/model/blocks_4/depthwise_conv2d/depthwise_weights_fused_bn_scale"
    input: "efficientnet-lite4/model/blocks_4/depthwise_conv2d/depthwise_weights_fused_bn_zero_point"
    output: "efficientnet-lite4/model/blocks_4/depthwise_conv2d/depthwise_weights_fused_bn_dequantized"
    name: "efficientnet-lite4/model/blocks_4/depthwise_conv2d/depthwise_weights_fused_bn_DequantizeLinear"
    op_type: "DequantizeLinear"
  }
  node {
    input: "efficientnet-lite4/model/blocks_3/tpu_batch_normalization_2/FusedBatchNormV3:0"
    input: "efficientnet-lite4/model/blocks_2/Add:0"
    output: "efficientnet-lite4/model/blocks_3/Add:0"
    name: "efficientnet-lite4/model/blocks_3/Add"
    op_type: "Add"
  }
  node {
    input: "efficientnet-lite4/model/blocks_3/Add:0"
    input: "efficientnet-lite4/model/blocks_3/Add:0_scale"
    input: "efficientnet-lite4/model/blocks_3/Add:0_zero_point"
    output: "efficientnet-lite4/model/blocks_3/Add:0_efficientnet-lite4/model/blocks_4/conv2d/Conv2D_QuantizeLinear"
    name: "efficientnet-lite4/model/blocks_3/Add:0_efficientnet-lite4/model/blocks_4/conv2d/Conv2D_QuantizeLinear"
    op_type: "QuantizeLinear"
  }
  node {
    input: "efficientnet-lite4/model/blocks_3/Add:0_efficientnet-lite4/model/blocks_4/conv2d/Conv2D_QuantizeLinear"
    input: "efficientnet-lite4/model/blocks_3/Add:0_scale"
    input: "efficientnet-lite4/model/blocks_3/Add:0_zero_point"
    output: "efficientnet-lite4/model/blocks_3/Add:0_efficientnet-lite4/model/blocks_4/conv2d/Conv2D_dequantized"
    name: "efficientnet-lite4/model/blocks_3/Add:0_efficientnet-lite4/model/blocks_4/conv2d/Conv2D_DequantizeLinear"
    op_type: "DequantizeLinear"
  }
  node {
    input: "efficientnet-lite4/model/blocks_3/Add:0_efficientnet-lite4/model/blocks_4/conv2d/Conv2D_dequantized"
    input: "efficientnet-lite4/model/blocks_4/conv2d/Conv2D_weights_fused_bn_dequantized"
    input: "efficientnet-lite4/model/blocks_4/conv2d/Conv2D_bias_fused_bn_dequantized"
    output: "efficientnet-lite4/model/blocks_4/tpu_batch_normalization/FusedBatchNormV3:0_QuantizeInput"
    name: "efficientnet-lite4/model/blocks_4/conv2d/Conv2D_quant"
    op_type: "Conv"
    attribute {
      name: "group"
      i: 1
      type: INT
    }
    attribute {
      name: "dilations"
      ints: 1
      ints: 1
      type: INTS
    }
    attribute {
      name: "strides"
      ints: 1
      ints: 1
      type: INTS
    }
    attribute {
      name: "kernel_shape"
      ints: 1
      ints: 1
      type: INTS
    }
    attribute {
      name: "pads"
      ints: 0
      ints: 0
      ints: 0
      ints: 0
      type: INTS
    }
    attribute {
      name: "auto_pad"
      s: "NOTSET"
      type: STRING
    }
  }
  node {
    input: "efficientnet-lite4/model/blocks_4/tpu_batch_normalization/FusedBatchNormV3:0_QuantizeInput"
    input: "efficientnet-lite4/model/blocks_4/tpu_batch_normalization/FusedBatchNormV3:0_scale"
    input: "efficientnet-lite4/model/blocks_4/tpu_batch_normalization/FusedBatchNormV3:0_zero_point"
    output: "efficientnet-lite4/model/blocks_4/tpu_batch_normalization/FusedBatchNormV3:0_quantized"
    name: "efficientnet-lite4/model/blocks_4/tpu_batch_normalization/FusedBatchNormV3:0_efficientnet-lite4/model/blocks_4/conv2d/Conv2D_QuantizeLinear"
    op_type: "QuantizeLinear"
  }
  node {
    input: "efficientnet-lite4/model/blocks_4/tpu_batch_normalization/FusedBatchNormV3:0_quantized"
    input: "efficientnet-lite4/model/blocks_4/tpu_batch_normalization/FusedBatchNormV3:0_scale"
    input: "efficientnet-lite4/model/blocks_4/tpu_batch_normalization/FusedBatchNormV3:0_zero_point"
    output: "efficientnet-lite4/model/blocks_4/tpu_batch_normalization/FusedBatchNormV3:0_efficientnet-lite4/model/blocks_4/depthwise_conv2d/depthwise_dequantized"
    name: "efficientnet-lite4/model/blocks_4/tpu_batch_normalization/FusedBatchNormV3:0_efficientnet-lite4/model/blocks_4/depthwise_conv2d/depthwise_DequantizeLinear"
    op_type: "DequantizeLinear"
  }
  node {
    input: "efficientnet-lite4/model/blocks_4/tpu_batch_normalization/FusedBatchNormV3:0_efficientnet-lite4/model/blocks_4/depthwise_conv2d/depthwise_dequantized"
    input: "efficientnet-lite4/model/blocks_4/depthwise_conv2d/depthwise_weights_fused_bn_dequantized"
    input: "efficientnet-lite4/model/blocks_4/depthwise_conv2d/depthwise_bias_fused_bn_dequantized"
    output: "efficientnet-lite4/model/blocks_4/tpu_batch_normalization_1/FusedBatchNormV3:0_QuantizeInput"
    name: "efficientnet-lite4/model/blocks_4/depthwise_conv2d/depthwise_quant"
    op_type: "Conv"
    attribute {
      name: "auto_pad"
      s: "NOTSET"
      type: STRING
    }
    attribute {
      name: "dilations"
      ints: 1
      ints: 1
      type: INTS
    }
    attribute {
      name: "strides"
      ints: 1
      ints: 1
      type: INTS
    }
    attribute {
      name: "group"
      i: 192
      type: INT
    }
    attribute {
      name: "kernel_shape"
      ints: 3
      ints: 3
      type: INTS
    }
    attribute {
      name: "pads"
      ints: 1
      ints: 1
      ints: 1
      ints: 1
      type: INTS
    }
  }
  node {
    input: "efficientnet-lite4/model/blocks_4/tpu_batch_normalization_1/FusedBatchNormV3:0_QuantizeInput"
    input: "efficientnet-lite4/model/blocks_4/tpu_batch_normalization_1/FusedBatchNormV3:0_scale"
    input: "efficientnet-lite4/model/blocks_4/tpu_batch_normalization_1/FusedBatchNormV3:0_zero_point"
    output: "efficientnet-lite4/model/blocks_4/tpu_batch_normalization_1/FusedBatchNormV3:0_quantized"
    name: "efficientnet-lite4/model/blocks_4/tpu_batch_normalization_1/FusedBatchNormV3:0_efficientnet-lite4/model/blocks_4/depthwise_conv2d/depthwise_QuantizeLinear"
    op_type: "QuantizeLinear"
  }
  node {
    input: "efficientnet-lite4/model/blocks_4/conv2d_1/Conv2D_bias_fused_bn_quantized"
    input: "efficientnet-lite4/model/blocks_4/conv2d_1/Conv2D_bias_fused_bn_scale"
    input: "efficientnet-lite4/model/blocks_4/conv2d_1/Conv2D_bias_fused_bn_zero_point"
    output: "efficientnet-lite4/model/blocks_4/conv2d_1/Conv2D_bias_fused_bn_dequantized"
    name: "efficientnet-lite4/model/blocks_4/conv2d_1/Conv2D_bias_fused_bn_DequantizeLinear"
    op_type: "DequantizeLinear"
  }
  node {
    input: "efficientnet-lite4/model/blocks_4/conv2d_1/Conv2D_weights_fused_bn_quantized"
    input: "efficientnet-lite4/model/blocks_4/conv2d_1/Conv2D_weights_fused_bn_scale"
    input: "efficientnet-lite4/model/blocks_4/conv2d_1/Conv2D_weights_fused_bn_zero_point"
    output: "efficientnet-lite4/model/blocks_4/conv2d_1/Conv2D_weights_fused_bn_dequantized"
    name: "efficientnet-lite4/model/blocks_4/conv2d_1/Conv2D_weights_fused_bn_DequantizeLinear"
    op_type: "DequantizeLinear"
  }
  node {
    input: "efficientnet-lite4/model/blocks_4/tpu_batch_normalization_1/FusedBatchNormV3:0_quantized"
    input: "efficientnet-lite4/model/blocks_4/tpu_batch_normalization_1/FusedBatchNormV3:0_scale"
    input: "efficientnet-lite4/model/blocks_4/tpu_batch_normalization_1/FusedBatchNormV3:0_zero_point"
    output: "efficientnet-lite4/model/blocks_4/tpu_batch_normalization_1/FusedBatchNormV3:0_efficientnet-lite4/model/blocks_4/conv2d_1/Conv2D_dequantized"
    name: "efficientnet-lite4/model/blocks_4/tpu_batch_normalization_1/FusedBatchNormV3:0_efficientnet-lite4/model/blocks_4/conv2d_1/Conv2D_DequantizeLinear"
    op_type: "DequantizeLinear"
  }
  node {
    input: "efficientnet-lite4/model/blocks_4/tpu_batch_normalization_1/FusedBatchNormV3:0_efficientnet-lite4/model/blocks_4/conv2d_1/Conv2D_dequantized"
    input: "efficientnet-lite4/model/blocks_4/conv2d_1/Conv2D_weights_fused_bn_dequantized"
    input: "efficientnet-lite4/model/blocks_4/conv2d_1/Conv2D_bias_fused_bn_dequantized"
    output: "efficientnet-lite4/model/blocks_4/tpu_batch_normalization_2/FusedBatchNormV3:0_QuantizeInput"
    name: "efficientnet-lite4/model/blocks_4/conv2d_1/Conv2D_quant"
    op_type: "Conv"
    attribute {
      name: "group"
      i: 1
      type: INT
    }
    attribute {
      name: "dilations"
      ints: 1
      ints: 1
      type: INTS
    }
    attribute {
      name: "strides"
      ints: 1
      ints: 1
      type: INTS
    }
    attribute {
      name: "kernel_shape"
      ints: 1
      ints: 1
      type: INTS
    }
    attribute {
      name: "pads"
      ints: 0
      ints: 0
      ints: 0
      ints: 0
      type: INTS
    }
    attribute {
      name: "auto_pad"
      s: "NOTSET"
      type: STRING
    }
  }
  node {
    input: "efficientnet-lite4/model/blocks_4/tpu_batch_normalization_2/FusedBatchNormV3:0_QuantizeInput"
    input: "efficientnet-lite4/model/blocks_4/tpu_batch_normalization_2/FusedBatchNormV3:0_scale"
    input: "efficientnet-lite4/model/blocks_4/tpu_batch_normalization_2/FusedBatchNormV3:0_zero_point"
    output: "efficientnet-lite4/model/blocks_4/tpu_batch_normalization_2/FusedBatchNormV3:0_quantized"
    name: "efficientnet-lite4/model/blocks_4/tpu_batch_normalization_2/FusedBatchNormV3:0_efficientnet-lite4/model/blocks_4/conv2d_1/Conv2D_QuantizeLinear"
    op_type: "QuantizeLinear"
  }
  node {
    input: "efficientnet-lite4/model/blocks_4/tpu_batch_normalization_2/FusedBatchNormV3:0_quantized"
    input: "efficientnet-lite4/model/blocks_4/tpu_batch_normalization_2/FusedBatchNormV3:0_scale"
    input: "efficientnet-lite4/model/blocks_4/tpu_batch_normalization_2/FusedBatchNormV3:0_zero_point"
    output: "efficientnet-lite4/model/blocks_4/tpu_batch_normalization_2/FusedBatchNormV3:0"
    name: "efficientnet-lite4/model/blocks_4/tpu_batch_normalization_2/FusedBatchNormV3:0_efficientnet-lite4/model/blocks_4/conv2d_1/Conv2D_DequantizeLinear"
    op_type: "DequantizeLinear"
  }
  node {
    input: "efficientnet-lite4/model/blocks_4/tpu_batch_normalization_2/FusedBatchNormV3:0"
    input: "efficientnet-lite4/model/blocks_3/Add:0"
    output: "efficientnet-lite4/model/blocks_4/Add:0"
    name: "efficientnet-lite4/model/blocks_4/Add"
    op_type: "Add"
  }
  node {
    input: "efficientnet-lite4/model/blocks_4/Add:0"
    input: "efficientnet-lite4/model/blocks_4/Add:0_scale"
    input: "efficientnet-lite4/model/blocks_4/Add:0_zero_point"
    output: "efficientnet-lite4/model/blocks_4/Add:0_efficientnet-lite4/model/blocks_5/conv2d/Conv2D_QuantizeLinear"
    name: "efficientnet-lite4/model/blocks_4/Add:0_efficientnet-lite4/model/blocks_5/conv2d/Conv2D_QuantizeLinear"
    op_type: "QuantizeLinear"
  }
  node {
    input: "efficientnet-lite4/model/blocks_5/conv2d/Conv2D_bias_fused_bn_quantized"
    input: "efficientnet-lite4/model/blocks_5/conv2d/Conv2D_bias_fused_bn_scale"
    input: "efficientnet-lite4/model/blocks_5/conv2d/Conv2D_bias_fused_bn_zero_point"
    output: "efficientnet-lite4/model/blocks_5/conv2d/Conv2D_bias_fused_bn_dequantized"
    name: "efficientnet-lite4/model/blocks_5/conv2d/Conv2D_bias_fused_bn_DequantizeLinear"
    op_type: "DequantizeLinear"
  }
  node {
    input: "efficientnet-lite4/model/blocks_5/conv2d/Conv2D_weights_fused_bn_quantized"
    input: "efficientnet-lite4/model/blocks_5/conv2d/Conv2D_weights_fused_bn_scale"
    input: "efficientnet-lite4/model/blocks_5/conv2d/Conv2D_weights_fused_bn_zero_point"
    output: "efficientnet-lite4/model/blocks_5/conv2d/Conv2D_weights_fused_bn_dequantized"
    name: "efficientnet-lite4/model/blocks_5/conv2d/Conv2D_weights_fused_bn_DequantizeLinear"
    op_type: "DequantizeLinear"
  }
  node {
    input: "efficientnet-lite4/model/blocks_4/Add:0_efficientnet-lite4/model/blocks_5/conv2d/Conv2D_QuantizeLinear"
    input: "efficientnet-lite4/model/blocks_4/Add:0_scale"
    input: "efficientnet-lite4/model/blocks_4/Add:0_zero_point"
    output: "efficientnet-lite4/model/blocks_4/Add:0_efficientnet-lite4/model/blocks_5/conv2d/Conv2D_dequantized"
    name: "efficientnet-lite4/model/blocks_4/Add:0_efficientnet-lite4/model/blocks_5/conv2d/Conv2D_DequantizeLinear"
    op_type: "DequantizeLinear"
  }
  node {
    input: "efficientnet-lite4/model/blocks_4/Add:0_efficientnet-lite4/model/blocks_5/conv2d/Conv2D_dequantized"
    input: "efficientnet-lite4/model/blocks_5/conv2d/Conv2D_weights_fused_bn_dequantized"
    input: "efficientnet-lite4/model/blocks_5/conv2d/Conv2D_bias_fused_bn_dequantized"
    output: "efficientnet-lite4/model/blocks_5/tpu_batch_normalization/FusedBatchNormV3:0_QuantizeInput"
    name: "efficientnet-lite4/model/blocks_5/conv2d/Conv2D_quant"
    op_type: "Conv"
    attribute {
      name: "group"
      i: 1
      type: INT
    }
    attribute {
      name: "dilations"
      ints: 1
      ints: 1
      type: INTS
    }
    attribute {
      name: "strides"
      ints: 1
      ints: 1
      type: INTS
    }
    attribute {
      name: "kernel_shape"
      ints: 1
      ints: 1
      type: INTS
    }
    attribute {
      name: "pads"
      ints: 0
      ints: 0
      ints: 0
      ints: 0
      type: INTS
    }
    attribute {
      name: "auto_pad"
      s: "NOTSET"
      type: STRING
    }
  }
  node {
    input: "efficientnet-lite4/model/blocks_5/tpu_batch_normalization/FusedBatchNormV3:0_QuantizeInput"
    input: "efficientnet-lite4/model/blocks_5/tpu_batch_normalization/FusedBatchNormV3:0_scale"
    input: "efficientnet-lite4/model/blocks_5/tpu_batch_normalization/FusedBatchNormV3:0_zero_point"
    output: "efficientnet-lite4/model/blocks_5/tpu_batch_normalization/FusedBatchNormV3:0_quantized"
    name: "efficientnet-lite4/model/blocks_5/tpu_batch_normalization/FusedBatchNormV3:0_efficientnet-lite4/model/blocks_5/conv2d/Conv2D_QuantizeLinear"
    op_type: "QuantizeLinear"
  }
  node {
    input: "efficientnet-lite4/model/blocks_5/depthwise_conv2d/depthwise_bias_fused_bn_quantized"
    input: "efficientnet-lite4/model/blocks_5/depthwise_conv2d/depthwise_bias_fused_bn_scale"
    input: "efficientnet-lite4/model/blocks_5/depthwise_conv2d/depthwise_bias_fused_bn_zero_point"
    output: "efficientnet-lite4/model/blocks_5/depthwise_conv2d/depthwise_bias_fused_bn_dequantized"
    name: "efficientnet-lite4/model/blocks_5/depthwise_conv2d/depthwise_bias_fused_bn_DequantizeLinear"
    op_type: "DequantizeLinear"
  }
  node {
    input: "efficientnet-lite4/model/blocks_5/depthwise_conv2d/depthwise_weights_fused_bn_quantized"
    input: "efficientnet-lite4/model/blocks_5/depthwise_conv2d/depthwise_weights_fused_bn_scale"
    input: "efficientnet-lite4/model/blocks_5/depthwise_conv2d/depthwise_weights_fused_bn_zero_point"
    output: "efficientnet-lite4/model/blocks_5/depthwise_conv2d/depthwise_weights_fused_bn_dequantized"
    name: "efficientnet-lite4/model/blocks_5/depthwise_conv2d/depthwise_weights_fused_bn_DequantizeLinear"
    op_type: "DequantizeLinear"
  }
  node {
    input: "efficientnet-lite4/model/blocks_5/tpu_batch_normalization/FusedBatchNormV3:0_quantized"
    input: "efficientnet-lite4/model/blocks_5/tpu_batch_normalization/FusedBatchNormV3:0_scale"
    input: "efficientnet-lite4/model/blocks_5/tpu_batch_normalization/FusedBatchNormV3:0_zero_point"
    output: "efficientnet-lite4/model/blocks_5/tpu_batch_normalization/FusedBatchNormV3:0_efficientnet-lite4/model/blocks_5/depthwise_conv2d/depthwise_dequantized"
    name: "efficientnet-lite4/model/blocks_5/tpu_batch_normalization/FusedBatchNormV3:0_efficientnet-lite4/model/blocks_5/depthwise_conv2d/depthwise_DequantizeLinear"
    op_type: "DequantizeLinear"
  }
  node {
    input: "efficientnet-lite4/model/blocks_5/tpu_batch_normalization/FusedBatchNormV3:0_efficientnet-lite4/model/blocks_5/depthwise_conv2d/depthwise_dequantized"
    input: "efficientnet-lite4/model/blocks_5/depthwise_conv2d/depthwise_weights_fused_bn_dequantized"
    input: "efficientnet-lite4/model/blocks_5/depthwise_conv2d/depthwise_bias_fused_bn_dequantized"
    output: "efficientnet-lite4/model/blocks_5/tpu_batch_normalization_1/FusedBatchNormV3:0_QuantizeInput"
    name: "efficientnet-lite4/model/blocks_5/depthwise_conv2d/depthwise_quant"
    op_type: "Conv"
    attribute {
      name: "auto_pad"
      s: "NOTSET"
      type: STRING
    }
    attribute {
      name: "dilations"
      ints: 1
      ints: 1
      type: INTS
    }
    attribute {
      name: "strides"
      ints: 2
      ints: 2
      type: INTS
    }
    attribute {
      name: "group"
      i: 192
      type: INT
    }
    attribute {
      name: "kernel_shape"
      ints: 5
      ints: 5
      type: INTS
    }
    attribute {
      name: "pads"
      ints: 1
      ints: 1
      ints: 2
      ints: 2
      type: INTS
    }
  }
  node {
    input: "efficientnet-lite4/model/blocks_5/tpu_batch_normalization_1/FusedBatchNormV3:0_QuantizeInput"
    input: "efficientnet-lite4/model/blocks_5/tpu_batch_normalization_1/FusedBatchNormV3:0_scale"
    input: "efficientnet-lite4/model/blocks_5/tpu_batch_normalization_1/FusedBatchNormV3:0_zero_point"
    output: "efficientnet-lite4/model/blocks_5/tpu_batch_normalization_1/FusedBatchNormV3:0_quantized"
    name: "efficientnet-lite4/model/blocks_5/tpu_batch_normalization_1/FusedBatchNormV3:0_efficientnet-lite4/model/blocks_5/depthwise_conv2d/depthwise_QuantizeLinear"
    op_type: "QuantizeLinear"
  }
  node {
    input: "efficientnet-lite4/model/blocks_5/conv2d_1/Conv2D_bias_fused_bn_quantized"
    input: "efficientnet-lite4/model/blocks_5/conv2d_1/Conv2D_bias_fused_bn_scale"
    input: "efficientnet-lite4/model/blocks_5/conv2d_1/Conv2D_bias_fused_bn_zero_point"
    output: "efficientnet-lite4/model/blocks_5/conv2d_1/Conv2D_bias_fused_bn_dequantized"
    name: "efficientnet-lite4/model/blocks_5/conv2d_1/Conv2D_bias_fused_bn_DequantizeLinear"
    op_type: "DequantizeLinear"
  }
  node {
    input: "efficientnet-lite4/model/blocks_5/conv2d_1/Conv2D_weights_fused_bn_quantized"
    input: "efficientnet-lite4/model/blocks_5/conv2d_1/Conv2D_weights_fused_bn_scale"
    input: "efficientnet-lite4/model/blocks_5/conv2d_1/Conv2D_weights_fused_bn_zero_point"
    output: "efficientnet-lite4/model/blocks_5/conv2d_1/Conv2D_weights_fused_bn_dequantized"
    name: "efficientnet-lite4/model/blocks_5/conv2d_1/Conv2D_weights_fused_bn_DequantizeLinear"
    op_type: "DequantizeLinear"
  }
  node {
    input: "efficientnet-lite4/model/blocks_5/tpu_batch_normalization_1/FusedBatchNormV3:0_quantized"
    input: "efficientnet-lite4/model/blocks_5/tpu_batch_normalization_1/FusedBatchNormV3:0_scale"
    input: "efficientnet-lite4/model/blocks_5/tpu_batch_normalization_1/FusedBatchNormV3:0_zero_point"
    output: "efficientnet-lite4/model/blocks_5/tpu_batch_normalization_1/FusedBatchNormV3:0_efficientnet-lite4/model/blocks_5/conv2d_1/Conv2D_dequantized"
    name: "efficientnet-lite4/model/blocks_5/tpu_batch_normalization_1/FusedBatchNormV3:0_efficientnet-lite4/model/blocks_5/conv2d_1/Conv2D_DequantizeLinear"
    op_type: "DequantizeLinear"
  }
  node {
    input: "efficientnet-lite4/model/blocks_5/tpu_batch_normalization_1/FusedBatchNormV3:0_efficientnet-lite4/model/blocks_5/conv2d_1/Conv2D_dequantized"
    input: "efficientnet-lite4/model/blocks_5/conv2d_1/Conv2D_weights_fused_bn_dequantized"
    input: "efficientnet-lite4/model/blocks_5/conv2d_1/Conv2D_bias_fused_bn_dequantized"
    output: "efficientnet-lite4/model/blocks_5/tpu_batch_normalization_2/FusedBatchNormV3:0_QuantizeInput"
    name: "efficientnet-lite4/model/blocks_5/conv2d_1/Conv2D_quant"
    op_type: "Conv"
    attribute {
      name: "group"
      i: 1
      type: INT
    }
    attribute {
      name: "dilations"
      ints: 1
      ints: 1
      type: INTS
    }
    attribute {
      name: "strides"
      ints: 1
      ints: 1
      type: INTS
    }
    attribute {
      name: "kernel_shape"
      ints: 1
      ints: 1
      type: INTS
    }
    attribute {
      name: "pads"
      ints: 0
      ints: 0
      ints: 0
      ints: 0
      type: INTS
    }
    attribute {
      name: "auto_pad"
      s: "NOTSET"
      type: STRING
    }
  }
  node {
    input: "efficientnet-lite4/model/blocks_5/tpu_batch_normalization_2/FusedBatchNormV3:0_QuantizeInput"
    input: "efficientnet-lite4/model/blocks_5/tpu_batch_normalization_2/FusedBatchNormV3:0_scale"
    input: "efficientnet-lite4/model/blocks_5/tpu_batch_normalization_2/FusedBatchNormV3:0_zero_point"
    output: "efficientnet-lite4/model/blocks_5/tpu_batch_normalization_2/FusedBatchNormV3:0_quantized"
    name: "efficientnet-lite4/model/blocks_5/tpu_batch_normalization_2/FusedBatchNormV3:0_efficientnet-lite4/model/blocks_5/conv2d_1/Conv2D_QuantizeLinear"
    op_type: "QuantizeLinear"
  }
  node {
    input: "ConvBnFusion_BN_B_efficientnet-lite4/model/blocks_6/tpu_batch_normalization/ReadVariableOp_1:0_quantized"
    input: "ConvBnFusion_BN_B_efficientnet-lite4/model/blocks_6/tpu_batch_normalization/ReadVariableOp_1:0_scale"
    input: "ConvBnFusion_BN_B_efficientnet-lite4/model/blocks_6/tpu_batch_normalization/ReadVariableOp_1:0_zero_point"
    output: "ConvBnFusion_BN_B_efficientnet-lite4/model/blocks_6/tpu_batch_normalization/ReadVariableOp_1:0_dequantized"
    name: "ConvBnFusion_BN_B_efficientnet-lite4/model/blocks_6/tpu_batch_normalization/ReadVariableOp_1:0_DequantizeLinear"
    op_type: "DequantizeLinear"
  }
  node {
    input: "ConvBnFusion_W_efficientnet-lite4/model/blocks_6/conv2d/Conv2D/ReadVariableOp:0_quantized"
    input: "ConvBnFusion_W_efficientnet-lite4/model/blocks_6/conv2d/Conv2D/ReadVariableOp:0_scale"
    input: "ConvBnFusion_W_efficientnet-lite4/model/blocks_6/conv2d/Conv2D/ReadVariableOp:0_zero_point"
    output: "ConvBnFusion_W_efficientnet-lite4/model/blocks_6/conv2d/Conv2D/ReadVariableOp:0_dequantized"
    name: "ConvBnFusion_W_efficientnet-lite4/model/blocks_6/conv2d/Conv2D/ReadVariableOp:0_DequantizeLinear"
    op_type: "DequantizeLinear"
  }
  node {
    input: "efficientnet-lite4/model/blocks_6/depthwise_conv2d/depthwise_bias_fused_bn_quantized"
    input: "efficientnet-lite4/model/blocks_6/depthwise_conv2d/depthwise_bias_fused_bn_scale"
    input: "efficientnet-lite4/model/blocks_6/depthwise_conv2d/depthwise_bias_fused_bn_zero_point"
    output: "efficientnet-lite4/model/blocks_6/depthwise_conv2d/depthwise_bias_fused_bn_dequantized"
    name: "efficientnet-lite4/model/blocks_6/depthwise_conv2d/depthwise_bias_fused_bn_DequantizeLinear"
    op_type: "DequantizeLinear"
  }
  node {
    input: "efficientnet-lite4/model/blocks_6/depthwise_conv2d/depthwise_weights_fused_bn_quantized"
    input: "efficientnet-lite4/model/blocks_6/depthwise_conv2d/depthwise_weights_fused_bn_scale"
    input: "efficientnet-lite4/model/blocks_6/depthwise_conv2d/depthwise_weights_fused_bn_zero_point"
    output: "efficientnet-lite4/model/blocks_6/depthwise_conv2d/depthwise_weights_fused_bn_dequantized"
    name: "efficientnet-lite4/model/blocks_6/depthwise_conv2d/depthwise_weights_fused_bn_DequantizeLinear"
    op_type: "DequantizeLinear"
  }
  node {
    input: "efficientnet-lite4/model/blocks_5/tpu_batch_normalization_2/FusedBatchNormV3:0_quantized"
    input: "efficientnet-lite4/model/blocks_5/tpu_batch_normalization_2/FusedBatchNormV3:0_scale"
    input: "efficientnet-lite4/model/blocks_5/tpu_batch_normalization_2/FusedBatchNormV3:0_zero_point"
    output: "efficientnet-lite4/model/blocks_5/tpu_batch_normalization_2/FusedBatchNormV3:0"
    name: "efficientnet-lite4/model/blocks_5/tpu_batch_normalization_2/FusedBatchNormV3:0_efficientnet-lite4/model/blocks_5/conv2d_1/Conv2D_DequantizeLinear"
    op_type: "DequantizeLinear"
  }
  node {
    input: "efficientnet-lite4/model/blocks_5/tpu_batch_normalization_2/FusedBatchNormV3:0"
    input: "ConvBnFusion_W_efficientnet-lite4/model/blocks_6/conv2d/Conv2D/ReadVariableOp:0_dequantized"
    input: "ConvBnFusion_BN_B_efficientnet-lite4/model/blocks_6/tpu_batch_normalization/ReadVariableOp_1:0_dequantized"
    output: "efficientnet-lite4/model/blocks_6/tpu_batch_normalization/FusedBatchNormV3:0_QuantizeInput"
    name: "efficientnet-lite4/model/blocks_6/conv2d/Conv2D_quant"
    op_type: "Conv"
    attribute {
      name: "group"
      i: 1
      type: INT
    }
    attribute {
      name: "dilations"
      ints: 1
      ints: 1
      type: INTS
    }
    attribute {
      name: "strides"
      ints: 1
      ints: 1
      type: INTS
    }
    attribute {
      name: "kernel_shape"
      ints: 1
      ints: 1
      type: INTS
    }
    attribute {
      name: "pads"
      ints: 0
      ints: 0
      ints: 0
      ints: 0
      type: INTS
    }
    attribute {
      name: "auto_pad"
      s: "NOTSET"
      type: STRING
    }
  }
  node {
    input: "efficientnet-lite4/model/blocks_6/tpu_batch_normalization/FusedBatchNormV3:0_QuantizeInput"
    input: "efficientnet-lite4/model/blocks_6/tpu_batch_normalization/FusedBatchNormV3:0_scale"
    input: "efficientnet-lite4/model/blocks_6/tpu_batch_normalization/FusedBatchNormV3:0_zero_point"
    output: "efficientnet-lite4/model/blocks_6/tpu_batch_normalization/FusedBatchNormV3:0_quantized"
    name: "efficientnet-lite4/model/blocks_6/tpu_batch_normalization/FusedBatchNormV3:0_efficientnet-lite4/model/blocks_6/conv2d/Conv2D_QuantizeLinear"
    op_type: "QuantizeLinear"
  }
  node {
    input: "efficientnet-lite4/model/blocks_6/tpu_batch_normalization/FusedBatchNormV3:0_quantized"
    input: "efficientnet-lite4/model/blocks_6/tpu_batch_normalization/FusedBatchNormV3:0_scale"
    input: "efficientnet-lite4/model/blocks_6/tpu_batch_normalization/FusedBatchNormV3:0_zero_point"
    output: "efficientnet-lite4/model/blocks_6/tpu_batch_normalization/FusedBatchNormV3:0_efficientnet-lite4/model/blocks_6/depthwise_conv2d/depthwise_dequantized"
    name: "efficientnet-lite4/model/blocks_6/tpu_batch_normalization/FusedBatchNormV3:0_efficientnet-lite4/model/blocks_6/depthwise_conv2d/depthwise_DequantizeLinear"
    op_type: "DequantizeLinear"
  }
  node {
    input: "efficientnet-lite4/model/blocks_6/tpu_batch_normalization/FusedBatchNormV3:0_efficientnet-lite4/model/blocks_6/depthwise_conv2d/depthwise_dequantized"
    input: "efficientnet-lite4/model/blocks_6/depthwise_conv2d/depthwise_weights_fused_bn_dequantized"
    input: "efficientnet-lite4/model/blocks_6/depthwise_conv2d/depthwise_bias_fused_bn_dequantized"
    output: "efficientnet-lite4/model/blocks_6/tpu_batch_normalization_1/FusedBatchNormV3:0_QuantizeInput"
    name: "efficientnet-lite4/model/blocks_6/depthwise_conv2d/depthwise_quant"
    op_type: "Conv"
    attribute {
      name: "auto_pad"
      s: "NOTSET"
      type: STRING
    }
    attribute {
      name: "dilations"
      ints: 1
      ints: 1
      type: INTS
    }
    attribute {
      name: "strides"
      ints: 1
      ints: 1
      type: INTS
    }
    attribute {
      name: "group"
      i: 336
      type: INT
    }
    attribute {
      name: "kernel_shape"
      ints: 5
      ints: 5
      type: INTS
    }
    attribute {
      name: "pads"
      ints: 2
      ints: 2
      ints: 2
      ints: 2
      type: INTS
    }
  }
  node {
    input: "efficientnet-lite4/model/blocks_6/tpu_batch_normalization_1/FusedBatchNormV3:0_QuantizeInput"
    input: "efficientnet-lite4/model/blocks_6/tpu_batch_normalization_1/FusedBatchNormV3:0_scale"
    input: "efficientnet-lite4/model/blocks_6/tpu_batch_normalization_1/FusedBatchNormV3:0_zero_point"
    output: "efficientnet-lite4/model/blocks_6/tpu_batch_normalization_1/FusedBatchNormV3:0_quantized"
    name: "efficientnet-lite4/model/blocks_6/tpu_batch_normalization_1/FusedBatchNormV3:0_efficientnet-lite4/model/blocks_6/depthwise_conv2d/depthwise_QuantizeLinear"
    op_type: "QuantizeLinear"
  }
  node {
    input: "efficientnet-lite4/model/blocks_6/conv2d_1/Conv2D_bias_fused_bn_quantized"
    input: "efficientnet-lite4/model/blocks_6/conv2d_1/Conv2D_bias_fused_bn_scale"
    input: "efficientnet-lite4/model/blocks_6/conv2d_1/Conv2D_bias_fused_bn_zero_point"
    output: "efficientnet-lite4/model/blocks_6/conv2d_1/Conv2D_bias_fused_bn_dequantized"
    name: "efficientnet-lite4/model/blocks_6/conv2d_1/Conv2D_bias_fused_bn_DequantizeLinear"
    op_type: "DequantizeLinear"
  }
  node {
    input: "efficientnet-lite4/model/blocks_6/conv2d_1/Conv2D_weights_fused_bn_quantized"
    input: "efficientnet-lite4/model/blocks_6/conv2d_1/Conv2D_weights_fused_bn_scale"
    input: "efficientnet-lite4/model/blocks_6/conv2d_1/Conv2D_weights_fused_bn_zero_point"
    output: "efficientnet-lite4/model/blocks_6/conv2d_1/Conv2D_weights_fused_bn_dequantized"
    name: "efficientnet-lite4/model/blocks_6/conv2d_1/Conv2D_weights_fused_bn_DequantizeLinear"
    op_type: "DequantizeLinear"
  }
  node {
    input: "efficientnet-lite4/model/blocks_6/tpu_batch_normalization_1/FusedBatchNormV3:0_quantized"
    input: "efficientnet-lite4/model/blocks_6/tpu_batch_normalization_1/FusedBatchNormV3:0_scale"
    input: "efficientnet-lite4/model/blocks_6/tpu_batch_normalization_1/FusedBatchNormV3:0_zero_point"
    output: "efficientnet-lite4/model/blocks_6/tpu_batch_normalization_1/FusedBatchNormV3:0_efficientnet-lite4/model/blocks_6/conv2d_1/Conv2D_dequantized"
    name: "efficientnet-lite4/model/blocks_6/tpu_batch_normalization_1/FusedBatchNormV3:0_efficientnet-lite4/model/blocks_6/conv2d_1/Conv2D_DequantizeLinear"
    op_type: "DequantizeLinear"
  }
  node {
    input: "efficientnet-lite4/model/blocks_6/tpu_batch_normalization_1/FusedBatchNormV3:0_efficientnet-lite4/model/blocks_6/conv2d_1/Conv2D_dequantized"
    input: "efficientnet-lite4/model/blocks_6/conv2d_1/Conv2D_weights_fused_bn_dequantized"
    input: "efficientnet-lite4/model/blocks_6/conv2d_1/Conv2D_bias_fused_bn_dequantized"
    output: "efficientnet-lite4/model/blocks_6/tpu_batch_normalization_2/FusedBatchNormV3:0_QuantizeInput"
    name: "efficientnet-lite4/model/blocks_6/conv2d_1/Conv2D_quant"
    op_type: "Conv"
    attribute {
      name: "group"
      i: 1
      type: INT
    }
    attribute {
      name: "dilations"
      ints: 1
      ints: 1
      type: INTS
    }
    attribute {
      name: "strides"
      ints: 1
      ints: 1
      type: INTS
    }
    attribute {
      name: "kernel_shape"
      ints: 1
      ints: 1
      type: INTS
    }
    attribute {
      name: "pads"
      ints: 0
      ints: 0
      ints: 0
      ints: 0
      type: INTS
    }
    attribute {
      name: "auto_pad"
      s: "NOTSET"
      type: STRING
    }
  }
  node {
    input: "efficientnet-lite4/model/blocks_6/tpu_batch_normalization_2/FusedBatchNormV3:0_QuantizeInput"
    input: "efficientnet-lite4/model/blocks_6/tpu_batch_normalization_2/FusedBatchNormV3:0_scale"
    input: "efficientnet-lite4/model/blocks_6/tpu_batch_normalization_2/FusedBatchNormV3:0_zero_point"
    output: "efficientnet-lite4/model/blocks_6/tpu_batch_normalization_2/FusedBatchNormV3:0_quantized"
    name: "efficientnet-lite4/model/blocks_6/tpu_batch_normalization_2/FusedBatchNormV3:0_efficientnet-lite4/model/blocks_6/conv2d_1/Conv2D_QuantizeLinear"
    op_type: "QuantizeLinear"
  }
  node {
    input: "efficientnet-lite4/model/blocks_6/tpu_batch_normalization_2/FusedBatchNormV3:0_quantized"
    input: "efficientnet-lite4/model/blocks_6/tpu_batch_normalization_2/FusedBatchNormV3:0_scale"
    input: "efficientnet-lite4/model/blocks_6/tpu_batch_normalization_2/FusedBatchNormV3:0_zero_point"
    output: "efficientnet-lite4/model/blocks_6/tpu_batch_normalization_2/FusedBatchNormV3:0"
    name: "efficientnet-lite4/model/blocks_6/tpu_batch_normalization_2/FusedBatchNormV3:0_efficientnet-lite4/model/blocks_6/conv2d_1/Conv2D_DequantizeLinear"
    op_type: "DequantizeLinear"
  }
  node {
    input: "efficientnet-lite4/model/blocks_7/conv2d/Conv2D_bias_fused_bn_quantized"
    input: "efficientnet-lite4/model/blocks_7/conv2d/Conv2D_bias_fused_bn_scale"
    input: "efficientnet-lite4/model/blocks_7/conv2d/Conv2D_bias_fused_bn_zero_point"
    output: "efficientnet-lite4/model/blocks_7/conv2d/Conv2D_bias_fused_bn_dequantized"
    name: "efficientnet-lite4/model/blocks_7/conv2d/Conv2D_bias_fused_bn_DequantizeLinear"
    op_type: "DequantizeLinear"
  }
  node {
    input: "efficientnet-lite4/model/blocks_7/conv2d/Conv2D_weights_fused_bn_quantized"
    input: "efficientnet-lite4/model/blocks_7/conv2d/Conv2D_weights_fused_bn_scale"
    input: "efficientnet-lite4/model/blocks_7/conv2d/Conv2D_weights_fused_bn_zero_point"
    output: "efficientnet-lite4/model/blocks_7/conv2d/Conv2D_weights_fused_bn_dequantized"
    name: "efficientnet-lite4/model/blocks_7/conv2d/Conv2D_weights_fused_bn_DequantizeLinear"
    op_type: "DequantizeLinear"
  }
  node {
    input: "efficientnet-lite4/model/blocks_7/depthwise_conv2d/depthwise_bias_fused_bn_quantized"
    input: "efficientnet-lite4/model/blocks_7/depthwise_conv2d/depthwise_bias_fused_bn_scale"
    input: "efficientnet-lite4/model/blocks_7/depthwise_conv2d/depthwise_bias_fused_bn_zero_point"
    output: "efficientnet-lite4/model/blocks_7/depthwise_conv2d/depthwise_bias_fused_bn_dequantized"
    name: "efficientnet-lite4/model/blocks_7/depthwise_conv2d/depthwise_bias_fused_bn_DequantizeLinear"
    op_type: "DequantizeLinear"
  }
  node {
    input: "efficientnet-lite4/model/blocks_7/depthwise_conv2d/depthwise_weights_fused_bn_quantized"
    input: "efficientnet-lite4/model/blocks_7/depthwise_conv2d/depthwise_weights_fused_bn_scale"
    input: "efficientnet-lite4/model/blocks_7/depthwise_conv2d/depthwise_weights_fused_bn_zero_point"
    output: "efficientnet-lite4/model/blocks_7/depthwise_conv2d/depthwise_weights_fused_bn_dequantized"
    name: "efficientnet-lite4/model/blocks_7/depthwise_conv2d/depthwise_weights_fused_bn_DequantizeLinear"
    op_type: "DequantizeLinear"
  }
  node {
    input: "efficientnet-lite4/model/blocks_6/tpu_batch_normalization_2/FusedBatchNormV3:0"
    input: "efficientnet-lite4/model/blocks_5/tpu_batch_normalization_2/FusedBatchNormV3:0"
    output: "efficientnet-lite4/model/blocks_6/Add:0"
    name: "efficientnet-lite4/model/blocks_6/Add"
    op_type: "Add"
  }
  node {
    input: "efficientnet-lite4/model/blocks_6/Add:0"
    input: "efficientnet-lite4/model/blocks_6/Add:0_scale"
    input: "efficientnet-lite4/model/blocks_6/Add:0_zero_point"
    output: "efficientnet-lite4/model/blocks_6/Add:0_efficientnet-lite4/model/blocks_7/conv2d/Conv2D_QuantizeLinear"
    name: "efficientnet-lite4/model/blocks_6/Add:0_efficientnet-lite4/model/blocks_7/conv2d/Conv2D_QuantizeLinear"
    op_type: "QuantizeLinear"
  }
  node {
    input: "efficientnet-lite4/model/blocks_6/Add:0_efficientnet-lite4/model/blocks_7/conv2d/Conv2D_QuantizeLinear"
    input: "efficientnet-lite4/model/blocks_6/Add:0_scale"
    input: "efficientnet-lite4/model/blocks_6/Add:0_zero_point"
    output: "efficientnet-lite4/model/blocks_6/Add:0_efficientnet-lite4/model/blocks_7/conv2d/Conv2D_dequantized"
    name: "efficientnet-lite4/model/blocks_6/Add:0_efficientnet-lite4/model/blocks_7/conv2d/Conv2D_DequantizeLinear"
    op_type: "DequantizeLinear"
  }
  node {
    input: "efficientnet-lite4/model/blocks_6/Add:0_efficientnet-lite4/model/blocks_7/conv2d/Conv2D_dequantized"
    input: "efficientnet-lite4/model/blocks_7/conv2d/Conv2D_weights_fused_bn_dequantized"
    input: "efficientnet-lite4/model/blocks_7/conv2d/Conv2D_bias_fused_bn_dequantized"
    output: "efficientnet-lite4/model/blocks_7/tpu_batch_normalization/FusedBatchNormV3:0_QuantizeInput"
    name: "efficientnet-lite4/model/blocks_7/conv2d/Conv2D_quant"
    op_type: "Conv"
    attribute {
      name: "group"
      i: 1
      type: INT
    }
    attribute {
      name: "dilations"
      ints: 1
      ints: 1
      type: INTS
    }
    attribute {
      name: "strides"
      ints: 1
      ints: 1
      type: INTS
    }
    attribute {
      name: "kernel_shape"
      ints: 1
      ints: 1
      type: INTS
    }
    attribute {
      name: "pads"
      ints: 0
      ints: 0
      ints: 0
      ints: 0
      type: INTS
    }
    attribute {
      name: "auto_pad"
      s: "NOTSET"
      type: STRING
    }
  }
  node {
    input: "efficientnet-lite4/model/blocks_7/tpu_batch_normalization/FusedBatchNormV3:0_QuantizeInput"
    input: "efficientnet-lite4/model/blocks_7/tpu_batch_normalization/FusedBatchNormV3:0_scale"
    input: "efficientnet-lite4/model/blocks_7/tpu_batch_normalization/FusedBatchNormV3:0_zero_point"
    output: "efficientnet-lite4/model/blocks_7/tpu_batch_normalization/FusedBatchNormV3:0_quantized"
    name: "efficientnet-lite4/model/blocks_7/tpu_batch_normalization/FusedBatchNormV3:0_efficientnet-lite4/model/blocks_7/conv2d/Conv2D_QuantizeLinear"
    op_type: "QuantizeLinear"
  }
  node {
    input: "efficientnet-lite4/model/blocks_7/tpu_batch_normalization/FusedBatchNormV3:0_quantized"
    input: "efficientnet-lite4/model/blocks_7/tpu_batch_normalization/FusedBatchNormV3:0_scale"
    input: "efficientnet-lite4/model/blocks_7/tpu_batch_normalization/FusedBatchNormV3:0_zero_point"
    output: "efficientnet-lite4/model/blocks_7/tpu_batch_normalization/FusedBatchNormV3:0_efficientnet-lite4/model/blocks_7/depthwise_conv2d/depthwise_dequantized"
    name: "efficientnet-lite4/model/blocks_7/tpu_batch_normalization/FusedBatchNormV3:0_efficientnet-lite4/model/blocks_7/depthwise_conv2d/depthwise_DequantizeLinear"
    op_type: "DequantizeLinear"
  }
  node {
    input: "efficientnet-lite4/model/blocks_7/tpu_batch_normalization/FusedBatchNormV3:0_efficientnet-lite4/model/blocks_7/depthwise_conv2d/depthwise_dequantized"
    input: "efficientnet-lite4/model/blocks_7/depthwise_conv2d/depthwise_weights_fused_bn_dequantized"
    input: "efficientnet-lite4/model/blocks_7/depthwise_conv2d/depthwise_bias_fused_bn_dequantized"
    output: "efficientnet-lite4/model/blocks_7/tpu_batch_normalization_1/FusedBatchNormV3:0_QuantizeInput"
    name: "efficientnet-lite4/model/blocks_7/depthwise_conv2d/depthwise_quant"
    op_type: "Conv"
    attribute {
      name: "auto_pad"
      s: "NOTSET"
      type: STRING
    }
    attribute {
      name: "dilations"
      ints: 1
      ints: 1
      type: INTS
    }
    attribute {
      name: "strides"
      ints: 1
      ints: 1
      type: INTS
    }
    attribute {
      name: "group"
      i: 336
      type: INT
    }
    attribute {
      name: "kernel_shape"
      ints: 5
      ints: 5
      type: INTS
    }
    attribute {
      name: "pads"
      ints: 2
      ints: 2
      ints: 2
      ints: 2
      type: INTS
    }
  }
  node {
    input: "efficientnet-lite4/model/blocks_7/tpu_batch_normalization_1/FusedBatchNormV3:0_QuantizeInput"
    input: "efficientnet-lite4/model/blocks_7/tpu_batch_normalization_1/FusedBatchNormV3:0_scale"
    input: "efficientnet-lite4/model/blocks_7/tpu_batch_normalization_1/FusedBatchNormV3:0_zero_point"
    output: "efficientnet-lite4/model/blocks_7/tpu_batch_normalization_1/FusedBatchNormV3:0_quantized"
    name: "efficientnet-lite4/model/blocks_7/tpu_batch_normalization_1/FusedBatchNormV3:0_efficientnet-lite4/model/blocks_7/depthwise_conv2d/depthwise_QuantizeLinear"
    op_type: "QuantizeLinear"
  }
  node {
    input: "efficientnet-lite4/model/blocks_7/conv2d_1/Conv2D_bias_fused_bn_quantized"
    input: "efficientnet-lite4/model/blocks_7/conv2d_1/Conv2D_bias_fused_bn_scale"
    input: "efficientnet-lite4/model/blocks_7/conv2d_1/Conv2D_bias_fused_bn_zero_point"
    output: "efficientnet-lite4/model/blocks_7/conv2d_1/Conv2D_bias_fused_bn_dequantized"
    name: "efficientnet-lite4/model/blocks_7/conv2d_1/Conv2D_bias_fused_bn_DequantizeLinear"
    op_type: "DequantizeLinear"
  }
  node {
    input: "efficientnet-lite4/model/blocks_7/conv2d_1/Conv2D_weights_fused_bn_quantized"
    input: "efficientnet-lite4/model/blocks_7/conv2d_1/Conv2D_weights_fused_bn_scale"
    input: "efficientnet-lite4/model/blocks_7/conv2d_1/Conv2D_weights_fused_bn_zero_point"
    output: "efficientnet-lite4/model/blocks_7/conv2d_1/Conv2D_weights_fused_bn_dequantized"
    name: "efficientnet-lite4/model/blocks_7/conv2d_1/Conv2D_weights_fused_bn_DequantizeLinear"
    op_type: "DequantizeLinear"
  }
  node {
    input: "efficientnet-lite4/model/blocks_7/tpu_batch_normalization_1/FusedBatchNormV3:0_quantized"
    input: "efficientnet-lite4/model/blocks_7/tpu_batch_normalization_1/FusedBatchNormV3:0_scale"
    input: "efficientnet-lite4/model/blocks_7/tpu_batch_normalization_1/FusedBatchNormV3:0_zero_point"
    output: "efficientnet-lite4/model/blocks_7/tpu_batch_normalization_1/FusedBatchNormV3:0_efficientnet-lite4/model/blocks_7/conv2d_1/Conv2D_dequantized"
    name: "efficientnet-lite4/model/blocks_7/tpu_batch_normalization_1/FusedBatchNormV3:0_efficientnet-lite4/model/blocks_7/conv2d_1/Conv2D_DequantizeLinear"
    op_type: "DequantizeLinear"
  }
  node {
    input: "efficientnet-lite4/model/blocks_7/tpu_batch_normalization_1/FusedBatchNormV3:0_efficientnet-lite4/model/blocks_7/conv2d_1/Conv2D_dequantized"
    input: "efficientnet-lite4/model/blocks_7/conv2d_1/Conv2D_weights_fused_bn_dequantized"
    input: "efficientnet-lite4/model/blocks_7/conv2d_1/Conv2D_bias_fused_bn_dequantized"
    output: "efficientnet-lite4/model/blocks_7/tpu_batch_normalization_2/FusedBatchNormV3:0_QuantizeInput"
    name: "efficientnet-lite4/model/blocks_7/conv2d_1/Conv2D_quant"
    op_type: "Conv"
    attribute {
      name: "group"
      i: 1
      type: INT
    }
    attribute {
      name: "dilations"
      ints: 1
      ints: 1
      type: INTS
    }
    attribute {
      name: "strides"
      ints: 1
      ints: 1
      type: INTS
    }
    attribute {
      name: "kernel_shape"
      ints: 1
      ints: 1
      type: INTS
    }
    attribute {
      name: "pads"
      ints: 0
      ints: 0
      ints: 0
      ints: 0
      type: INTS
    }
    attribute {
      name: "auto_pad"
      s: "NOTSET"
      type: STRING
    }
  }
  node {
    input: "efficientnet-lite4/model/blocks_7/tpu_batch_normalization_2/FusedBatchNormV3:0_QuantizeInput"
    input: "efficientnet-lite4/model/blocks_7/tpu_batch_normalization_2/FusedBatchNormV3:0_scale"
    input: "efficientnet-lite4/model/blocks_7/tpu_batch_normalization_2/FusedBatchNormV3:0_zero_point"
    output: "efficientnet-lite4/model/blocks_7/tpu_batch_normalization_2/FusedBatchNormV3:0_quantized"
    name: "efficientnet-lite4/model/blocks_7/tpu_batch_normalization_2/FusedBatchNormV3:0_efficientnet-lite4/model/blocks_7/conv2d_1/Conv2D_QuantizeLinear"
    op_type: "QuantizeLinear"
  }
  node {
    input: "efficientnet-lite4/model/blocks_7/tpu_batch_normalization_2/FusedBatchNormV3:0_quantized"
    input: "efficientnet-lite4/model/blocks_7/tpu_batch_normalization_2/FusedBatchNormV3:0_scale"
    input: "efficientnet-lite4/model/blocks_7/tpu_batch_normalization_2/FusedBatchNormV3:0_zero_point"
    output: "efficientnet-lite4/model/blocks_7/tpu_batch_normalization_2/FusedBatchNormV3:0"
    name: "efficientnet-lite4/model/blocks_7/tpu_batch_normalization_2/FusedBatchNormV3:0_efficientnet-lite4/model/blocks_7/conv2d_1/Conv2D_DequantizeLinear"
    op_type: "DequantizeLinear"
  }
  node {
    input: "efficientnet-lite4/model/blocks_8/conv2d/Conv2D_bias_fused_bn_quantized"
    input: "efficientnet-lite4/model/blocks_8/conv2d/Conv2D_bias_fused_bn_scale"
    input: "efficientnet-lite4/model/blocks_8/conv2d/Conv2D_bias_fused_bn_zero_point"
    output: "efficientnet-lite4/model/blocks_8/conv2d/Conv2D_bias_fused_bn_dequantized"
    name: "efficientnet-lite4/model/blocks_8/conv2d/Conv2D_bias_fused_bn_DequantizeLinear"
    op_type: "DequantizeLinear"
  }
  node {
    input: "efficientnet-lite4/model/blocks_8/conv2d/Conv2D_weights_fused_bn_quantized"
    input: "efficientnet-lite4/model/blocks_8/conv2d/Conv2D_weights_fused_bn_scale"
    input: "efficientnet-lite4/model/blocks_8/conv2d/Conv2D_weights_fused_bn_zero_point"
    output: "efficientnet-lite4/model/blocks_8/conv2d/Conv2D_weights_fused_bn_dequantized"
    name: "efficientnet-lite4/model/blocks_8/conv2d/Conv2D_weights_fused_bn_DequantizeLinear"
    op_type: "DequantizeLinear"
  }
  node {
    input: "efficientnet-lite4/model/blocks_8/depthwise_conv2d/depthwise_bias_fused_bn_quantized"
    input: "efficientnet-lite4/model/blocks_8/depthwise_conv2d/depthwise_bias_fused_bn_scale"
    input: "efficientnet-lite4/model/blocks_8/depthwise_conv2d/depthwise_bias_fused_bn_zero_point"
    output: "efficientnet-lite4/model/blocks_8/depthwise_conv2d/depthwise_bias_fused_bn_dequantized"
    name: "efficientnet-lite4/model/blocks_8/depthwise_conv2d/depthwise_bias_fused_bn_DequantizeLinear"
    op_type: "DequantizeLinear"
  }
  node {
    input: "efficientnet-lite4/model/blocks_8/depthwise_conv2d/depthwise_weights_fused_bn_quantized"
    input: "efficientnet-lite4/model/blocks_8/depthwise_conv2d/depthwise_weights_fused_bn_scale"
    input: "efficientnet-lite4/model/blocks_8/depthwise_conv2d/depthwise_weights_fused_bn_zero_point"
    output: "efficientnet-lite4/model/blocks_8/depthwise_conv2d/depthwise_weights_fused_bn_dequantized"
    name: "efficientnet-lite4/model/blocks_8/depthwise_conv2d/depthwise_weights_fused_bn_DequantizeLinear"
    op_type: "DequantizeLinear"
  }
  node {
    input: "efficientnet-lite4/model/blocks_7/tpu_batch_normalization_2/FusedBatchNormV3:0"
    input: "efficientnet-lite4/model/blocks_6/Add:0"
    output: "efficientnet-lite4/model/blocks_7/Add:0"
    name: "efficientnet-lite4/model/blocks_7/Add"
    op_type: "Add"
  }
  node {
    input: "efficientnet-lite4/model/blocks_7/Add:0"
    input: "efficientnet-lite4/model/blocks_7/Add:0_scale"
    input: "efficientnet-lite4/model/blocks_7/Add:0_zero_point"
    output: "efficientnet-lite4/model/blocks_7/Add:0_efficientnet-lite4/model/blocks_8/conv2d/Conv2D_QuantizeLinear"
    name: "efficientnet-lite4/model/blocks_7/Add:0_efficientnet-lite4/model/blocks_8/conv2d/Conv2D_QuantizeLinear"
    op_type: "QuantizeLinear"
  }
  node {
    input: "efficientnet-lite4/model/blocks_7/Add:0_efficientnet-lite4/model/blocks_8/conv2d/Conv2D_QuantizeLinear"
    input: "efficientnet-lite4/model/blocks_7/Add:0_scale"
    input: "efficientnet-lite4/model/blocks_7/Add:0_zero_point"
    output: "efficientnet-lite4/model/blocks_7/Add:0_efficientnet-lite4/model/blocks_8/conv2d/Conv2D_dequantized"
    name: "efficientnet-lite4/model/blocks_7/Add:0_efficientnet-lite4/model/blocks_8/conv2d/Conv2D_DequantizeLinear"
    op_type: "DequantizeLinear"
  }
  node {
    input: "efficientnet-lite4/model/blocks_7/Add:0_efficientnet-lite4/model/blocks_8/conv2d/Conv2D_dequantized"
    input: "efficientnet-lite4/model/blocks_8/conv2d/Conv2D_weights_fused_bn_dequantized"
    input: "efficientnet-lite4/model/blocks_8/conv2d/Conv2D_bias_fused_bn_dequantized"
    output: "efficientnet-lite4/model/blocks_8/tpu_batch_normalization/FusedBatchNormV3:0_QuantizeInput"
    name: "efficientnet-lite4/model/blocks_8/conv2d/Conv2D_quant"
    op_type: "Conv"
    attribute {
      name: "group"
      i: 1
      type: INT
    }
    attribute {
      name: "dilations"
      ints: 1
      ints: 1
      type: INTS
    }
    attribute {
      name: "strides"
      ints: 1
      ints: 1
      type: INTS
    }
    attribute {
      name: "kernel_shape"
      ints: 1
      ints: 1
      type: INTS
    }
    attribute {
      name: "pads"
      ints: 0
      ints: 0
      ints: 0
      ints: 0
      type: INTS
    }
    attribute {
      name: "auto_pad"
      s: "NOTSET"
      type: STRING
    }
  }
  node {
    input: "efficientnet-lite4/model/blocks_8/tpu_batch_normalization/FusedBatchNormV3:0_QuantizeInput"
    input: "efficientnet-lite4/model/blocks_8/tpu_batch_normalization/FusedBatchNormV3:0_scale"
    input: "efficientnet-lite4/model/blocks_8/tpu_batch_normalization/FusedBatchNormV3:0_zero_point"
    output: "efficientnet-lite4/model/blocks_8/tpu_batch_normalization/FusedBatchNormV3:0_quantized"
    name: "efficientnet-lite4/model/blocks_8/tpu_batch_normalization/FusedBatchNormV3:0_efficientnet-lite4/model/blocks_8/conv2d/Conv2D_QuantizeLinear"
    op_type: "QuantizeLinear"
  }
  node {
    input: "efficientnet-lite4/model/blocks_8/tpu_batch_normalization/FusedBatchNormV3:0_quantized"
    input: "efficientnet-lite4/model/blocks_8/tpu_batch_normalization/FusedBatchNormV3:0_scale"
    input: "efficientnet-lite4/model/blocks_8/tpu_batch_normalization/FusedBatchNormV3:0_zero_point"
    output: "efficientnet-lite4/model/blocks_8/tpu_batch_normalization/FusedBatchNormV3:0_efficientnet-lite4/model/blocks_8/depthwise_conv2d/depthwise_dequantized"
    name: "efficientnet-lite4/model/blocks_8/tpu_batch_normalization/FusedBatchNormV3:0_efficientnet-lite4/model/blocks_8/depthwise_conv2d/depthwise_DequantizeLinear"
    op_type: "DequantizeLinear"
  }
  node {
    input: "efficientnet-lite4/model/blocks_8/tpu_batch_normalization/FusedBatchNormV3:0_efficientnet-lite4/model/blocks_8/depthwise_conv2d/depthwise_dequantized"
    input: "efficientnet-lite4/model/blocks_8/depthwise_conv2d/depthwise_weights_fused_bn_dequantized"
    input: "efficientnet-lite4/model/blocks_8/depthwise_conv2d/depthwise_bias_fused_bn_dequantized"
    output: "efficientnet-lite4/model/blocks_8/tpu_batch_normalization_1/FusedBatchNormV3:0_QuantizeInput"
    name: "efficientnet-lite4/model/blocks_8/depthwise_conv2d/depthwise_quant"
    op_type: "Conv"
    attribute {
      name: "auto_pad"
      s: "NOTSET"
      type: STRING
    }
    attribute {
      name: "dilations"
      ints: 1
      ints: 1
      type: INTS
    }
    attribute {
      name: "strides"
      ints: 1
      ints: 1
      type: INTS
    }
    attribute {
      name: "group"
      i: 336
      type: INT
    }
    attribute {
      name: "kernel_shape"
      ints: 5
      ints: 5
      type: INTS
    }
    attribute {
      name: "pads"
      ints: 2
      ints: 2
      ints: 2
      ints: 2
      type: INTS
    }
  }
  node {
    input: "efficientnet-lite4/model/blocks_8/tpu_batch_normalization_1/FusedBatchNormV3:0_QuantizeInput"
    input: "efficientnet-lite4/model/blocks_8/tpu_batch_normalization_1/FusedBatchNormV3:0_scale"
    input: "efficientnet-lite4/model/blocks_8/tpu_batch_normalization_1/FusedBatchNormV3:0_zero_point"
    output: "efficientnet-lite4/model/blocks_8/tpu_batch_normalization_1/FusedBatchNormV3:0_quantized"
    name: "efficientnet-lite4/model/blocks_8/tpu_batch_normalization_1/FusedBatchNormV3:0_efficientnet-lite4/model/blocks_8/depthwise_conv2d/depthwise_QuantizeLinear"
    op_type: "QuantizeLinear"
  }
  node {
    input: "efficientnet-lite4/model/blocks_8/conv2d_1/Conv2D_bias_fused_bn_quantized"
    input: "efficientnet-lite4/model/blocks_8/conv2d_1/Conv2D_bias_fused_bn_scale"
    input: "efficientnet-lite4/model/blocks_8/conv2d_1/Conv2D_bias_fused_bn_zero_point"
    output: "efficientnet-lite4/model/blocks_8/conv2d_1/Conv2D_bias_fused_bn_dequantized"
    name: "efficientnet-lite4/model/blocks_8/conv2d_1/Conv2D_bias_fused_bn_DequantizeLinear"
    op_type: "DequantizeLinear"
  }
  node {
    input: "efficientnet-lite4/model/blocks_8/conv2d_1/Conv2D_weights_fused_bn_quantized"
    input: "efficientnet-lite4/model/blocks_8/conv2d_1/Conv2D_weights_fused_bn_scale"
    input: "efficientnet-lite4/model/blocks_8/conv2d_1/Conv2D_weights_fused_bn_zero_point"
    output: "efficientnet-lite4/model/blocks_8/conv2d_1/Conv2D_weights_fused_bn_dequantized"
    name: "efficientnet-lite4/model/blocks_8/conv2d_1/Conv2D_weights_fused_bn_DequantizeLinear"
    op_type: "DequantizeLinear"
  }
  node {
    input: "efficientnet-lite4/model/blocks_8/tpu_batch_normalization_1/FusedBatchNormV3:0_quantized"
    input: "efficientnet-lite4/model/blocks_8/tpu_batch_normalization_1/FusedBatchNormV3:0_scale"
    input: "efficientnet-lite4/model/blocks_8/tpu_batch_normalization_1/FusedBatchNormV3:0_zero_point"
    output: "efficientnet-lite4/model/blocks_8/tpu_batch_normalization_1/FusedBatchNormV3:0_efficientnet-lite4/model/blocks_8/conv2d_1/Conv2D_dequantized"
    name: "efficientnet-lite4/model/blocks_8/tpu_batch_normalization_1/FusedBatchNormV3:0_efficientnet-lite4/model/blocks_8/conv2d_1/Conv2D_DequantizeLinear"
    op_type: "DequantizeLinear"
  }
  node {
    input: "efficientnet-lite4/model/blocks_8/tpu_batch_normalization_1/FusedBatchNormV3:0_efficientnet-lite4/model/blocks_8/conv2d_1/Conv2D_dequantized"
    input: "efficientnet-lite4/model/blocks_8/conv2d_1/Conv2D_weights_fused_bn_dequantized"
    input: "efficientnet-lite4/model/blocks_8/conv2d_1/Conv2D_bias_fused_bn_dequantized"
    output: "efficientnet-lite4/model/blocks_8/tpu_batch_normalization_2/FusedBatchNormV3:0_QuantizeInput"
    name: "efficientnet-lite4/model/blocks_8/conv2d_1/Conv2D_quant"
    op_type: "Conv"
    attribute {
      name: "group"
      i: 1
      type: INT
    }
    attribute {
      name: "dilations"
      ints: 1
      ints: 1
      type: INTS
    }
    attribute {
      name: "strides"
      ints: 1
      ints: 1
      type: INTS
    }
    attribute {
      name: "kernel_shape"
      ints: 1
      ints: 1
      type: INTS
    }
    attribute {
      name: "pads"
      ints: 0
      ints: 0
      ints: 0
      ints: 0
      type: INTS
    }
    attribute {
      name: "auto_pad"
      s: "NOTSET"
      type: STRING
    }
  }
  node {
    input: "efficientnet-lite4/model/blocks_8/tpu_batch_normalization_2/FusedBatchNormV3:0_QuantizeInput"
    input: "efficientnet-lite4/model/blocks_8/tpu_batch_normalization_2/FusedBatchNormV3:0_scale"
    input: "efficientnet-lite4/model/blocks_8/tpu_batch_normalization_2/FusedBatchNormV3:0_zero_point"
    output: "efficientnet-lite4/model/blocks_8/tpu_batch_normalization_2/FusedBatchNormV3:0_quantized"
    name: "efficientnet-lite4/model/blocks_8/tpu_batch_normalization_2/FusedBatchNormV3:0_efficientnet-lite4/model/blocks_8/conv2d_1/Conv2D_QuantizeLinear"
    op_type: "QuantizeLinear"
  }
  node {
    input: "efficientnet-lite4/model/blocks_8/tpu_batch_normalization_2/FusedBatchNormV3:0_quantized"
    input: "efficientnet-lite4/model/blocks_8/tpu_batch_normalization_2/FusedBatchNormV3:0_scale"
    input: "efficientnet-lite4/model/blocks_8/tpu_batch_normalization_2/FusedBatchNormV3:0_zero_point"
    output: "efficientnet-lite4/model/blocks_8/tpu_batch_normalization_2/FusedBatchNormV3:0"
    name: "efficientnet-lite4/model/blocks_8/tpu_batch_normalization_2/FusedBatchNormV3:0_efficientnet-lite4/model/blocks_8/conv2d_1/Conv2D_DequantizeLinear"
    op_type: "DequantizeLinear"
  }
  node {
    input: "efficientnet-lite4/model/blocks_8/tpu_batch_normalization_2/FusedBatchNormV3:0"
    input: "efficientnet-lite4/model/blocks_7/Add:0"
    output: "efficientnet-lite4/model/blocks_8/Add:0"
    name: "efficientnet-lite4/model/blocks_8/Add"
    op_type: "Add"
  }
  node {
    input: "efficientnet-lite4/model/blocks_8/Add:0"
    input: "efficientnet-lite4/model/blocks_8/Add:0_scale"
    input: "efficientnet-lite4/model/blocks_8/Add:0_zero_point"
    output: "efficientnet-lite4/model/blocks_8/Add:0_efficientnet-lite4/model/blocks_9/conv2d/Conv2D_QuantizeLinear"
    name: "efficientnet-lite4/model/blocks_8/Add:0_efficientnet-lite4/model/blocks_9/conv2d/Conv2D_QuantizeLinear"
    op_type: "QuantizeLinear"
  }
  node {
    input: "efficientnet-lite4/model/blocks_9/conv2d/Conv2D_bias_fused_bn_quantized"
    input: "efficientnet-lite4/model/blocks_9/conv2d/Conv2D_bias_fused_bn_scale"
    input: "efficientnet-lite4/model/blocks_9/conv2d/Conv2D_bias_fused_bn_zero_point"
    output: "efficientnet-lite4/model/blocks_9/conv2d/Conv2D_bias_fused_bn_dequantized"
    name: "efficientnet-lite4/model/blocks_9/conv2d/Conv2D_bias_fused_bn_DequantizeLinear"
    op_type: "DequantizeLinear"
  }
  node {
    input: "efficientnet-lite4/model/blocks_9/conv2d/Conv2D_weights_fused_bn_quantized"
    input: "efficientnet-lite4/model/blocks_9/conv2d/Conv2D_weights_fused_bn_scale"
    input: "efficientnet-lite4/model/blocks_9/conv2d/Conv2D_weights_fused_bn_zero_point"
    output: "efficientnet-lite4/model/blocks_9/conv2d/Conv2D_weights_fused_bn_dequantized"
    name: "efficientnet-lite4/model/blocks_9/conv2d/Conv2D_weights_fused_bn_DequantizeLinear"
    op_type: "DequantizeLinear"
  }
  node {
    input: "efficientnet-lite4/model/blocks_8/Add:0_efficientnet-lite4/model/blocks_9/conv2d/Conv2D_QuantizeLinear"
    input: "efficientnet-lite4/model/blocks_8/Add:0_scale"
    input: "efficientnet-lite4/model/blocks_8/Add:0_zero_point"
    output: "efficientnet-lite4/model/blocks_8/Add:0_efficientnet-lite4/model/blocks_9/conv2d/Conv2D_dequantized"
    name: "efficientnet-lite4/model/blocks_8/Add:0_efficientnet-lite4/model/blocks_9/conv2d/Conv2D_DequantizeLinear"
    op_type: "DequantizeLinear"
  }
  node {
    input: "efficientnet-lite4/model/blocks_8/Add:0_efficientnet-lite4/model/blocks_9/conv2d/Conv2D_dequantized"
    input: "efficientnet-lite4/model/blocks_9/conv2d/Conv2D_weights_fused_bn_dequantized"
    input: "efficientnet-lite4/model/blocks_9/conv2d/Conv2D_bias_fused_bn_dequantized"
    output: "efficientnet-lite4/model/blocks_9/tpu_batch_normalization/FusedBatchNormV3:0_QuantizeInput"
    name: "efficientnet-lite4/model/blocks_9/conv2d/Conv2D_quant"
    op_type: "Conv"
    attribute {
      name: "group"
      i: 1
      type: INT
    }
    attribute {
      name: "dilations"
      ints: 1
      ints: 1
      type: INTS
    }
    attribute {
      name: "strides"
      ints: 1
      ints: 1
      type: INTS
    }
    attribute {
      name: "kernel_shape"
      ints: 1
      ints: 1
      type: INTS
    }
    attribute {
      name: "pads"
      ints: 0
      ints: 0
      ints: 0
      ints: 0
      type: INTS
    }
    attribute {
      name: "auto_pad"
      s: "NOTSET"
      type: STRING
    }
  }
  node {
    input: "efficientnet-lite4/model/blocks_9/tpu_batch_normalization/FusedBatchNormV3:0_QuantizeInput"
    input: "efficientnet-lite4/model/blocks_9/tpu_batch_normalization/FusedBatchNormV3:0_scale"
    input: "efficientnet-lite4/model/blocks_9/tpu_batch_normalization/FusedBatchNormV3:0_zero_point"
    output: "efficientnet-lite4/model/blocks_9/tpu_batch_normalization/FusedBatchNormV3:0_quantized"
    name: "efficientnet-lite4/model/blocks_9/tpu_batch_normalization/FusedBatchNormV3:0_efficientnet-lite4/model/blocks_9/conv2d/Conv2D_QuantizeLinear"
    op_type: "QuantizeLinear"
  }
  node {
    input: "efficientnet-lite4/model/blocks_9/depthwise_conv2d/depthwise_bias_fused_bn_quantized"
    input: "efficientnet-lite4/model/blocks_9/depthwise_conv2d/depthwise_bias_fused_bn_scale"
    input: "efficientnet-lite4/model/blocks_9/depthwise_conv2d/depthwise_bias_fused_bn_zero_point"
    output: "efficientnet-lite4/model/blocks_9/depthwise_conv2d/depthwise_bias_fused_bn_dequantized"
    name: "efficientnet-lite4/model/blocks_9/depthwise_conv2d/depthwise_bias_fused_bn_DequantizeLinear"
    op_type: "DequantizeLinear"
  }
  node {
    input: "efficientnet-lite4/model/blocks_9/depthwise_conv2d/depthwise_weights_fused_bn_quantized"
    input: "efficientnet-lite4/model/blocks_9/depthwise_conv2d/depthwise_weights_fused_bn_scale"
    input: "efficientnet-lite4/model/blocks_9/depthwise_conv2d/depthwise_weights_fused_bn_zero_point"
    output: "efficientnet-lite4/model/blocks_9/depthwise_conv2d/depthwise_weights_fused_bn_dequantized"
    name: "efficientnet-lite4/model/blocks_9/depthwise_conv2d/depthwise_weights_fused_bn_DequantizeLinear"
    op_type: "DequantizeLinear"
  }
  node {
    input: "efficientnet-lite4/model/blocks_9/tpu_batch_normalization/FusedBatchNormV3:0_quantized"
    input: "efficientnet-lite4/model/blocks_9/tpu_batch_normalization/FusedBatchNormV3:0_scale"
    input: "efficientnet-lite4/model/blocks_9/tpu_batch_normalization/FusedBatchNormV3:0_zero_point"
    output: "efficientnet-lite4/model/blocks_9/tpu_batch_normalization/FusedBatchNormV3:0_efficientnet-lite4/model/blocks_9/depthwise_conv2d/depthwise_dequantized"
    name: "efficientnet-lite4/model/blocks_9/tpu_batch_normalization/FusedBatchNormV3:0_efficientnet-lite4/model/blocks_9/depthwise_conv2d/depthwise_DequantizeLinear"
    op_type: "DequantizeLinear"
  }
  node {
    input: "efficientnet-lite4/model/blocks_9/tpu_batch_normalization/FusedBatchNormV3:0_efficientnet-lite4/model/blocks_9/depthwise_conv2d/depthwise_dequantized"
    input: "efficientnet-lite4/model/blocks_9/depthwise_conv2d/depthwise_weights_fused_bn_dequantized"
    input: "efficientnet-lite4/model/blocks_9/depthwise_conv2d/depthwise_bias_fused_bn_dequantized"
    output: "efficientnet-lite4/model/blocks_9/tpu_batch_normalization_1/FusedBatchNormV3:0_QuantizeInput"
    name: "efficientnet-lite4/model/blocks_9/depthwise_conv2d/depthwise_quant"
    op_type: "Conv"
    attribute {
      name: "auto_pad"
      s: "NOTSET"
      type: STRING
    }
    attribute {
      name: "dilations"
      ints: 1
      ints: 1
      type: INTS
    }
    attribute {
      name: "strides"
      ints: 2
      ints: 2
      type: INTS
    }
    attribute {
      name: "group"
      i: 336
      type: INT
    }
    attribute {
      name: "kernel_shape"
      ints: 3
      ints: 3
      type: INTS
    }
    attribute {
      name: "pads"
      ints: 0
      ints: 0
      ints: 1
      ints: 1
      type: INTS
    }
  }
  node {
    input: "efficientnet-lite4/model/blocks_9/tpu_batch_normalization_1/FusedBatchNormV3:0_QuantizeInput"
    input: "efficientnet-lite4/model/blocks_9/tpu_batch_normalization_1/FusedBatchNormV3:0_scale"
    input: "efficientnet-lite4/model/blocks_9/tpu_batch_normalization_1/FusedBatchNormV3:0_zero_point"
    output: "efficientnet-lite4/model/blocks_9/tpu_batch_normalization_1/FusedBatchNormV3:0_quantized"
    name: "efficientnet-lite4/model/blocks_9/tpu_batch_normalization_1/FusedBatchNormV3:0_efficientnet-lite4/model/blocks_9/depthwise_conv2d/depthwise_QuantizeLinear"
    op_type: "QuantizeLinear"
  }
  node {
    input: "efficientnet-lite4/model/blocks_9/conv2d_1/Conv2D_bias_fused_bn_quantized"
    input: "efficientnet-lite4/model/blocks_9/conv2d_1/Conv2D_bias_fused_bn_scale"
    input: "efficientnet-lite4/model/blocks_9/conv2d_1/Conv2D_bias_fused_bn_zero_point"
    output: "efficientnet-lite4/model/blocks_9/conv2d_1/Conv2D_bias_fused_bn_dequantized"
    name: "efficientnet-lite4/model/blocks_9/conv2d_1/Conv2D_bias_fused_bn_DequantizeLinear"
    op_type: "DequantizeLinear"
  }
  node {
    input: "efficientnet-lite4/model/blocks_9/conv2d_1/Conv2D_weights_fused_bn_quantized"
    input: "efficientnet-lite4/model/blocks_9/conv2d_1/Conv2D_weights_fused_bn_scale"
    input: "efficientnet-lite4/model/blocks_9/conv2d_1/Conv2D_weights_fused_bn_zero_point"
    output: "efficientnet-lite4/model/blocks_9/conv2d_1/Conv2D_weights_fused_bn_dequantized"
    name: "efficientnet-lite4/model/blocks_9/conv2d_1/Conv2D_weights_fused_bn_DequantizeLinear"
    op_type: "DequantizeLinear"
  }
  node {
    input: "efficientnet-lite4/model/blocks_9/tpu_batch_normalization_1/FusedBatchNormV3:0_quantized"
    input: "efficientnet-lite4/model/blocks_9/tpu_batch_normalization_1/FusedBatchNormV3:0_scale"
    input: "efficientnet-lite4/model/blocks_9/tpu_batch_normalization_1/FusedBatchNormV3:0_zero_point"
    output: "efficientnet-lite4/model/blocks_9/tpu_batch_normalization_1/FusedBatchNormV3:0_efficientnet-lite4/model/blocks_9/conv2d_1/Conv2D_dequantized"
    name: "efficientnet-lite4/model/blocks_9/tpu_batch_normalization_1/FusedBatchNormV3:0_efficientnet-lite4/model/blocks_9/conv2d_1/Conv2D_DequantizeLinear"
    op_type: "DequantizeLinear"
  }
  node {
    input: "efficientnet-lite4/model/blocks_9/tpu_batch_normalization_1/FusedBatchNormV3:0_efficientnet-lite4/model/blocks_9/conv2d_1/Conv2D_dequantized"
    input: "efficientnet-lite4/model/blocks_9/conv2d_1/Conv2D_weights_fused_bn_dequantized"
    input: "efficientnet-lite4/model/blocks_9/conv2d_1/Conv2D_bias_fused_bn_dequantized"
    output: "efficientnet-lite4/model/blocks_9/tpu_batch_normalization_2/FusedBatchNormV3:0_QuantizeInput"
    name: "efficientnet-lite4/model/blocks_9/conv2d_1/Conv2D_quant"
    op_type: "Conv"
    attribute {
      name: "group"
      i: 1
      type: INT
    }
    attribute {
      name: "dilations"
      ints: 1
      ints: 1
      type: INTS
    }
    attribute {
      name: "strides"
      ints: 1
      ints: 1
      type: INTS
    }
    attribute {
      name: "kernel_shape"
      ints: 1
      ints: 1
      type: INTS
    }
    attribute {
      name: "pads"
      ints: 0
      ints: 0
      ints: 0
      ints: 0
      type: INTS
    }
    attribute {
      name: "auto_pad"
      s: "NOTSET"
      type: STRING
    }
  }
  node {
    input: "efficientnet-lite4/model/blocks_9/tpu_batch_normalization_2/FusedBatchNormV3:0_QuantizeInput"
    input: "efficientnet-lite4/model/blocks_9/tpu_batch_normalization_2/FusedBatchNormV3:0_scale"
    input: "efficientnet-lite4/model/blocks_9/tpu_batch_normalization_2/FusedBatchNormV3:0_zero_point"
    output: "efficientnet-lite4/model/blocks_9/tpu_batch_normalization_2/FusedBatchNormV3:0_quantized"
    name: "efficientnet-lite4/model/blocks_9/tpu_batch_normalization_2/FusedBatchNormV3:0_efficientnet-lite4/model/blocks_9/conv2d_1/Conv2D_QuantizeLinear"
    op_type: "QuantizeLinear"
  }
  node {
    input: "ConvBnFusion_BN_B_efficientnet-lite4/model/blocks_10/tpu_batch_normalization/ReadVariableOp_1:0_quantized"
    input: "ConvBnFusion_BN_B_efficientnet-lite4/model/blocks_10/tpu_batch_normalization/ReadVariableOp_1:0_scale"
    input: "ConvBnFusion_BN_B_efficientnet-lite4/model/blocks_10/tpu_batch_normalization/ReadVariableOp_1:0_zero_point"
    output: "ConvBnFusion_BN_B_efficientnet-lite4/model/blocks_10/tpu_batch_normalization/ReadVariableOp_1:0_dequantized"
    name: "ConvBnFusion_BN_B_efficientnet-lite4/model/blocks_10/tpu_batch_normalization/ReadVariableOp_1:0_DequantizeLinear"
    op_type: "DequantizeLinear"
  }
  node {
    input: "ConvBnFusion_W_efficientnet-lite4/model/blocks_10/conv2d/Conv2D/ReadVariableOp:0_quantized"
    input: "ConvBnFusion_W_efficientnet-lite4/model/blocks_10/conv2d/Conv2D/ReadVariableOp:0_scale"
    input: "ConvBnFusion_W_efficientnet-lite4/model/blocks_10/conv2d/Conv2D/ReadVariableOp:0_zero_point"
    output: "ConvBnFusion_W_efficientnet-lite4/model/blocks_10/conv2d/Conv2D/ReadVariableOp:0_dequantized"
    name: "ConvBnFusion_W_efficientnet-lite4/model/blocks_10/conv2d/Conv2D/ReadVariableOp:0_DequantizeLinear"
    op_type: "DequantizeLinear"
  }
  node {
    input: "efficientnet-lite4/model/blocks_10/depthwise_conv2d/depthwise_bias_fused_bn_quantized"
    input: "efficientnet-lite4/model/blocks_10/depthwise_conv2d/depthwise_bias_fused_bn_scale"
    input: "efficientnet-lite4/model/blocks_10/depthwise_conv2d/depthwise_bias_fused_bn_zero_point"
    output: "efficientnet-lite4/model/blocks_10/depthwise_conv2d/depthwise_bias_fused_bn_dequantized"
    name: "efficientnet-lite4/model/blocks_10/depthwise_conv2d/depthwise_bias_fused_bn_DequantizeLinear"
    op_type: "DequantizeLinear"
  }
  node {
    input: "efficientnet-lite4/model/blocks_10/depthwise_conv2d/depthwise_weights_fused_bn_quantized"
    input: "efficientnet-lite4/model/blocks_10/depthwise_conv2d/depthwise_weights_fused_bn_scale"
    input: "efficientnet-lite4/model/blocks_10/depthwise_conv2d/depthwise_weights_fused_bn_zero_point"
    output: "efficientnet-lite4/model/blocks_10/depthwise_conv2d/depthwise_weights_fused_bn_dequantized"
    name: "efficientnet-lite4/model/blocks_10/depthwise_conv2d/depthwise_weights_fused_bn_DequantizeLinear"
    op_type: "DequantizeLinear"
  }
  node {
    input: "efficientnet-lite4/model/blocks_9/tpu_batch_normalization_2/FusedBatchNormV3:0_quantized"
    input: "efficientnet-lite4/model/blocks_9/tpu_batch_normalization_2/FusedBatchNormV3:0_scale"
    input: "efficientnet-lite4/model/blocks_9/tpu_batch_normalization_2/FusedBatchNormV3:0_zero_point"
    output: "efficientnet-lite4/model/blocks_9/tpu_batch_normalization_2/FusedBatchNormV3:0"
    name: "efficientnet-lite4/model/blocks_9/tpu_batch_normalization_2/FusedBatchNormV3:0_efficientnet-lite4/model/blocks_9/conv2d_1/Conv2D_DequantizeLinear"
    op_type: "DequantizeLinear"
  }
  node {
    input: "efficientnet-lite4/model/blocks_9/tpu_batch_normalization_2/FusedBatchNormV3:0"
    input: "ConvBnFusion_W_efficientnet-lite4/model/blocks_10/conv2d/Conv2D/ReadVariableOp:0_dequantized"
    input: "ConvBnFusion_BN_B_efficientnet-lite4/model/blocks_10/tpu_batch_normalization/ReadVariableOp_1:0_dequantized"
    output: "efficientnet-lite4/model/blocks_10/tpu_batch_normalization/FusedBatchNormV3:0_QuantizeInput"
    name: "efficientnet-lite4/model/blocks_10/conv2d/Conv2D_quant"
    op_type: "Conv"
    attribute {
      name: "group"
      i: 1
      type: INT
    }
    attribute {
      name: "dilations"
      ints: 1
      ints: 1
      type: INTS
    }
    attribute {
      name: "strides"
      ints: 1
      ints: 1
      type: INTS
    }
    attribute {
      name: "kernel_shape"
      ints: 1
      ints: 1
      type: INTS
    }
    attribute {
      name: "pads"
      ints: 0
      ints: 0
      ints: 0
      ints: 0
      type: INTS
    }
    attribute {
      name: "auto_pad"
      s: "NOTSET"
      type: STRING
    }
  }
  node {
    input: "efficientnet-lite4/model/blocks_10/tpu_batch_normalization/FusedBatchNormV3:0_QuantizeInput"
    input: "efficientnet-lite4/model/blocks_10/tpu_batch_normalization/FusedBatchNormV3:0_scale"
    input: "efficientnet-lite4/model/blocks_10/tpu_batch_normalization/FusedBatchNormV3:0_zero_point"
    output: "efficientnet-lite4/model/blocks_10/tpu_batch_normalization/FusedBatchNormV3:0_quantized"
    name: "efficientnet-lite4/model/blocks_10/tpu_batch_normalization/FusedBatchNormV3:0_efficientnet-lite4/model/blocks_10/conv2d/Conv2D_QuantizeLinear"
    op_type: "QuantizeLinear"
  }
  node {
    input: "efficientnet-lite4/model/blocks_10/tpu_batch_normalization/FusedBatchNormV3:0_quantized"
    input: "efficientnet-lite4/model/blocks_10/tpu_batch_normalization/FusedBatchNormV3:0_scale"
    input: "efficientnet-lite4/model/blocks_10/tpu_batch_normalization/FusedBatchNormV3:0_zero_point"
    output: "efficientnet-lite4/model/blocks_10/tpu_batch_normalization/FusedBatchNormV3:0_efficientnet-lite4/model/blocks_10/depthwise_conv2d/depthwise_dequantized"
    name: "efficientnet-lite4/model/blocks_10/tpu_batch_normalization/FusedBatchNormV3:0_efficientnet-lite4/model/blocks_10/depthwise_conv2d/depthwise_DequantizeLinear"
    op_type: "DequantizeLinear"
  }
  node {
    input: "efficientnet-lite4/model/blocks_10/tpu_batch_normalization/FusedBatchNormV3:0_efficientnet-lite4/model/blocks_10/depthwise_conv2d/depthwise_dequantized"
    input: "efficientnet-lite4/model/blocks_10/depthwise_conv2d/depthwise_weights_fused_bn_dequantized"
    input: "efficientnet-lite4/model/blocks_10/depthwise_conv2d/depthwise_bias_fused_bn_dequantized"
    output: "efficientnet-lite4/model/blocks_10/tpu_batch_normalization_1/FusedBatchNormV3:0_QuantizeInput"
    name: "efficientnet-lite4/model/blocks_10/depthwise_conv2d/depthwise_quant"
    op_type: "Conv"
    attribute {
      name: "auto_pad"
      s: "NOTSET"
      type: STRING
    }
    attribute {
      name: "dilations"
      ints: 1
      ints: 1
      type: INTS
    }
    attribute {
      name: "strides"
      ints: 1
      ints: 1
      type: INTS
    }
    attribute {
      name: "group"
      i: 672
      type: INT
    }
    attribute {
      name: "kernel_shape"
      ints: 3
      ints: 3
      type: INTS
    }
    attribute {
      name: "pads"
      ints: 1
      ints: 1
      ints: 1
      ints: 1
      type: INTS
    }
  }
  node {
    input: "efficientnet-lite4/model/blocks_10/tpu_batch_normalization_1/FusedBatchNormV3:0_QuantizeInput"
    input: "efficientnet-lite4/model/blocks_10/tpu_batch_normalization_1/FusedBatchNormV3:0_scale"
    input: "efficientnet-lite4/model/blocks_10/tpu_batch_normalization_1/FusedBatchNormV3:0_zero_point"
    output: "efficientnet-lite4/model/blocks_10/tpu_batch_normalization_1/FusedBatchNormV3:0_quantized"
    name: "efficientnet-lite4/model/blocks_10/tpu_batch_normalization_1/FusedBatchNormV3:0_efficientnet-lite4/model/blocks_10/depthwise_conv2d/depthwise_QuantizeLinear"
    op_type: "QuantizeLinear"
  }
  node {
    input: "efficientnet-lite4/model/blocks_10/conv2d_1/Conv2D_bias_fused_bn_quantized"
    input: "efficientnet-lite4/model/blocks_10/conv2d_1/Conv2D_bias_fused_bn_scale"
    input: "efficientnet-lite4/model/blocks_10/conv2d_1/Conv2D_bias_fused_bn_zero_point"
    output: "efficientnet-lite4/model/blocks_10/conv2d_1/Conv2D_bias_fused_bn_dequantized"
    name: "efficientnet-lite4/model/blocks_10/conv2d_1/Conv2D_bias_fused_bn_DequantizeLinear"
    op_type: "DequantizeLinear"
  }
  node {
    input: "efficientnet-lite4/model/blocks_10/conv2d_1/Conv2D_weights_fused_bn_quantized"
    input: "efficientnet-lite4/model/blocks_10/conv2d_1/Conv2D_weights_fused_bn_scale"
    input: "efficientnet-lite4/model/blocks_10/conv2d_1/Conv2D_weights_fused_bn_zero_point"
    output: "efficientnet-lite4/model/blocks_10/conv2d_1/Conv2D_weights_fused_bn_dequantized"
    name: "efficientnet-lite4/model/blocks_10/conv2d_1/Conv2D_weights_fused_bn_DequantizeLinear"
    op_type: "DequantizeLinear"
  }
  node {
    input: "efficientnet-lite4/model/blocks_10/tpu_batch_normalization_1/FusedBatchNormV3:0_quantized"
    input: "efficientnet-lite4/model/blocks_10/tpu_batch_normalization_1/FusedBatchNormV3:0_scale"
    input: "efficientnet-lite4/model/blocks_10/tpu_batch_normalization_1/FusedBatchNormV3:0_zero_point"
    output: "efficientnet-lite4/model/blocks_10/tpu_batch_normalization_1/FusedBatchNormV3:0_efficientnet-lite4/model/blocks_10/conv2d_1/Conv2D_dequantized"
    name: "efficientnet-lite4/model/blocks_10/tpu_batch_normalization_1/FusedBatchNormV3:0_efficientnet-lite4/model/blocks_10/conv2d_1/Conv2D_DequantizeLinear"
    op_type: "DequantizeLinear"
  }
  node {
    input: "efficientnet-lite4/model/blocks_10/tpu_batch_normalization_1/FusedBatchNormV3:0_efficientnet-lite4/model/blocks_10/conv2d_1/Conv2D_dequantized"
    input: "efficientnet-lite4/model/blocks_10/conv2d_1/Conv2D_weights_fused_bn_dequantized"
    input: "efficientnet-lite4/model/blocks_10/conv2d_1/Conv2D_bias_fused_bn_dequantized"
    output: "efficientnet-lite4/model/blocks_10/tpu_batch_normalization_2/FusedBatchNormV3:0_QuantizeInput"
    name: "efficientnet-lite4/model/blocks_10/conv2d_1/Conv2D_quant"
    op_type: "Conv"
    attribute {
      name: "group"
      i: 1
      type: INT
    }
    attribute {
      name: "dilations"
      ints: 1
      ints: 1
      type: INTS
    }
    attribute {
      name: "strides"
      ints: 1
      ints: 1
      type: INTS
    }
    attribute {
      name: "kernel_shape"
      ints: 1
      ints: 1
      type: INTS
    }
    attribute {
      name: "pads"
      ints: 0
      ints: 0
      ints: 0
      ints: 0
      type: INTS
    }
    attribute {
      name: "auto_pad"
      s: "NOTSET"
      type: STRING
    }
  }
  node {
    input: "efficientnet-lite4/model/blocks_10/tpu_batch_normalization_2/FusedBatchNormV3:0_QuantizeInput"
    input: "efficientnet-lite4/model/blocks_10/tpu_batch_normalization_2/FusedBatchNormV3:0_scale"
    input: "efficientnet-lite4/model/blocks_10/tpu_batch_normalization_2/FusedBatchNormV3:0_zero_point"
    output: "efficientnet-lite4/model/blocks_10/tpu_batch_normalization_2/FusedBatchNormV3:0_quantized"
    name: "efficientnet-lite4/model/blocks_10/tpu_batch_normalization_2/FusedBatchNormV3:0_efficientnet-lite4/model/blocks_10/conv2d_1/Conv2D_QuantizeLinear"
    op_type: "QuantizeLinear"
  }
  node {
    input: "efficientnet-lite4/model/blocks_10/tpu_batch_normalization_2/FusedBatchNormV3:0_quantized"
    input: "efficientnet-lite4/model/blocks_10/tpu_batch_normalization_2/FusedBatchNormV3:0_scale"
    input: "efficientnet-lite4/model/blocks_10/tpu_batch_normalization_2/FusedBatchNormV3:0_zero_point"
    output: "efficientnet-lite4/model/blocks_10/tpu_batch_normalization_2/FusedBatchNormV3:0"
    name: "efficientnet-lite4/model/blocks_10/tpu_batch_normalization_2/FusedBatchNormV3:0_efficientnet-lite4/model/blocks_10/conv2d_1/Conv2D_DequantizeLinear"
    op_type: "DequantizeLinear"
  }
  node {
    input: "efficientnet-lite4/model/blocks_11/conv2d/Conv2D_bias_fused_bn_quantized"
    input: "efficientnet-lite4/model/blocks_11/conv2d/Conv2D_bias_fused_bn_scale"
    input: "efficientnet-lite4/model/blocks_11/conv2d/Conv2D_bias_fused_bn_zero_point"
    output: "efficientnet-lite4/model/blocks_11/conv2d/Conv2D_bias_fused_bn_dequantized"
    name: "efficientnet-lite4/model/blocks_11/conv2d/Conv2D_bias_fused_bn_DequantizeLinear"
    op_type: "DequantizeLinear"
  }
  node {
    input: "efficientnet-lite4/model/blocks_11/conv2d/Conv2D_weights_fused_bn_quantized"
    input: "efficientnet-lite4/model/blocks_11/conv2d/Conv2D_weights_fused_bn_scale"
    input: "efficientnet-lite4/model/blocks_11/conv2d/Conv2D_weights_fused_bn_zero_point"
    output: "efficientnet-lite4/model/blocks_11/conv2d/Conv2D_weights_fused_bn_dequantized"
    name: "efficientnet-lite4/model/blocks_11/conv2d/Conv2D_weights_fused_bn_DequantizeLinear"
    op_type: "DequantizeLinear"
  }
  node {
    input: "efficientnet-lite4/model/blocks_11/depthwise_conv2d/depthwise_bias_fused_bn_quantized"
    input: "efficientnet-lite4/model/blocks_11/depthwise_conv2d/depthwise_bias_fused_bn_scale"
    input: "efficientnet-lite4/model/blocks_11/depthwise_conv2d/depthwise_bias_fused_bn_zero_point"
    output: "efficientnet-lite4/model/blocks_11/depthwise_conv2d/depthwise_bias_fused_bn_dequantized"
    name: "efficientnet-lite4/model/blocks_11/depthwise_conv2d/depthwise_bias_fused_bn_DequantizeLinear"
    op_type: "DequantizeLinear"
  }
  node {
    input: "efficientnet-lite4/model/blocks_11/depthwise_conv2d/depthwise_weights_fused_bn_quantized"
    input: "efficientnet-lite4/model/blocks_11/depthwise_conv2d/depthwise_weights_fused_bn_scale"
    input: "efficientnet-lite4/model/blocks_11/depthwise_conv2d/depthwise_weights_fused_bn_zero_point"
    output: "efficientnet-lite4/model/blocks_11/depthwise_conv2d/depthwise_weights_fused_bn_dequantized"
    name: "efficientnet-lite4/model/blocks_11/depthwise_conv2d/depthwise_weights_fused_bn_DequantizeLinear"
    op_type: "DequantizeLinear"
  }
  node {
    input: "efficientnet-lite4/model/blocks_10/tpu_batch_normalization_2/FusedBatchNormV3:0"
    input: "efficientnet-lite4/model/blocks_9/tpu_batch_normalization_2/FusedBatchNormV3:0"
    output: "efficientnet-lite4/model/blocks_10/Add:0"
    name: "efficientnet-lite4/model/blocks_10/Add"
    op_type: "Add"
  }
  node {
    input: "efficientnet-lite4/model/blocks_10/Add:0"
    input: "efficientnet-lite4/model/blocks_10/Add:0_scale"
    input: "efficientnet-lite4/model/blocks_10/Add:0_zero_point"
    output: "efficientnet-lite4/model/blocks_10/Add:0_efficientnet-lite4/model/blocks_11/conv2d/Conv2D_QuantizeLinear"
    name: "efficientnet-lite4/model/blocks_10/Add:0_efficientnet-lite4/model/blocks_11/conv2d/Conv2D_QuantizeLinear"
    op_type: "QuantizeLinear"
  }
  node {
    input: "efficientnet-lite4/model/blocks_10/Add:0_efficientnet-lite4/model/blocks_11/conv2d/Conv2D_QuantizeLinear"
    input: "efficientnet-lite4/model/blocks_10/Add:0_scale"
    input: "efficientnet-lite4/model/blocks_10/Add:0_zero_point"
    output: "efficientnet-lite4/model/blocks_10/Add:0_efficientnet-lite4/model/blocks_11/conv2d/Conv2D_dequantized"
    name: "efficientnet-lite4/model/blocks_10/Add:0_efficientnet-lite4/model/blocks_11/conv2d/Conv2D_DequantizeLinear"
    op_type: "DequantizeLinear"
  }
  node {
    input: "efficientnet-lite4/model/blocks_10/Add:0_efficientnet-lite4/model/blocks_11/conv2d/Conv2D_dequantized"
    input: "efficientnet-lite4/model/blocks_11/conv2d/Conv2D_weights_fused_bn_dequantized"
    input: "efficientnet-lite4/model/blocks_11/conv2d/Conv2D_bias_fused_bn_dequantized"
    output: "efficientnet-lite4/model/blocks_11/tpu_batch_normalization/FusedBatchNormV3:0_QuantizeInput"
    name: "efficientnet-lite4/model/blocks_11/conv2d/Conv2D_quant"
    op_type: "Conv"
    attribute {
      name: "group"
      i: 1
      type: INT
    }
    attribute {
      name: "dilations"
      ints: 1
      ints: 1
      type: INTS
    }
    attribute {
      name: "strides"
      ints: 1
      ints: 1
      type: INTS
    }
    attribute {
      name: "kernel_shape"
      ints: 1
      ints: 1
      type: INTS
    }
    attribute {
      name: "pads"
      ints: 0
      ints: 0
      ints: 0
      ints: 0
      type: INTS
    }
    attribute {
      name: "auto_pad"
      s: "NOTSET"
      type: STRING
    }
  }
  node {
    input: "efficientnet-lite4/model/blocks_11/tpu_batch_normalization/FusedBatchNormV3:0_QuantizeInput"
    input: "efficientnet-lite4/model/blocks_11/tpu_batch_normalization/FusedBatchNormV3:0_scale"
    input: "efficientnet-lite4/model/blocks_11/tpu_batch_normalization/FusedBatchNormV3:0_zero_point"
    output: "efficientnet-lite4/model/blocks_11/tpu_batch_normalization/FusedBatchNormV3:0_quantized"
    name: "efficientnet-lite4/model/blocks_11/tpu_batch_normalization/FusedBatchNormV3:0_efficientnet-lite4/model/blocks_11/conv2d/Conv2D_QuantizeLinear"
    op_type: "QuantizeLinear"
  }
  node {
    input: "efficientnet-lite4/model/blocks_11/tpu_batch_normalization/FusedBatchNormV3:0_quantized"
    input: "efficientnet-lite4/model/blocks_11/tpu_batch_normalization/FusedBatchNormV3:0_scale"
    input: "efficientnet-lite4/model/blocks_11/tpu_batch_normalization/FusedBatchNormV3:0_zero_point"
    output: "efficientnet-lite4/model/blocks_11/tpu_batch_normalization/FusedBatchNormV3:0_efficientnet-lite4/model/blocks_11/depthwise_conv2d/depthwise_dequantized"
    name: "efficientnet-lite4/model/blocks_11/tpu_batch_normalization/FusedBatchNormV3:0_efficientnet-lite4/model/blocks_11/depthwise_conv2d/depthwise_DequantizeLinear"
    op_type: "DequantizeLinear"
  }
  node {
    input: "efficientnet-lite4/model/blocks_11/tpu_batch_normalization/FusedBatchNormV3:0_efficientnet-lite4/model/blocks_11/depthwise_conv2d/depthwise_dequantized"
    input: "efficientnet-lite4/model/blocks_11/depthwise_conv2d/depthwise_weights_fused_bn_dequantized"
    input: "efficientnet-lite4/model/blocks_11/depthwise_conv2d/depthwise_bias_fused_bn_dequantized"
    output: "efficientnet-lite4/model/blocks_11/tpu_batch_normalization_1/FusedBatchNormV3:0_QuantizeInput"
    name: "efficientnet-lite4/model/blocks_11/depthwise_conv2d/depthwise_quant"
    op_type: "Conv"
    attribute {
      name: "auto_pad"
      s: "NOTSET"
      type: STRING
    }
    attribute {
      name: "dilations"
      ints: 1
      ints: 1
      type: INTS
    }
    attribute {
      name: "strides"
      ints: 1
      ints: 1
      type: INTS
    }
    attribute {
      name: "group"
      i: 672
      type: INT
    }
    attribute {
      name: "kernel_shape"
      ints: 3
      ints: 3
      type: INTS
    }
    attribute {
      name: "pads"
      ints: 1
      ints: 1
      ints: 1
      ints: 1
      type: INTS
    }
  }
  node {
    input: "efficientnet-lite4/model/blocks_11/tpu_batch_normalization_1/FusedBatchNormV3:0_QuantizeInput"
    input: "efficientnet-lite4/model/blocks_11/tpu_batch_normalization_1/FusedBatchNormV3:0_scale"
    input: "efficientnet-lite4/model/blocks_11/tpu_batch_normalization_1/FusedBatchNormV3:0_zero_point"
    output: "efficientnet-lite4/model/blocks_11/tpu_batch_normalization_1/FusedBatchNormV3:0_quantized"
    name: "efficientnet-lite4/model/blocks_11/tpu_batch_normalization_1/FusedBatchNormV3:0_efficientnet-lite4/model/blocks_11/depthwise_conv2d/depthwise_QuantizeLinear"
    op_type: "QuantizeLinear"
  }
  node {
    input: "efficientnet-lite4/model/blocks_11/conv2d_1/Conv2D_bias_fused_bn_quantized"
    input: "efficientnet-lite4/model/blocks_11/conv2d_1/Conv2D_bias_fused_bn_scale"
    input: "efficientnet-lite4/model/blocks_11/conv2d_1/Conv2D_bias_fused_bn_zero_point"
    output: "efficientnet-lite4/model/blocks_11/conv2d_1/Conv2D_bias_fused_bn_dequantized"
    name: "efficientnet-lite4/model/blocks_11/conv2d_1/Conv2D_bias_fused_bn_DequantizeLinear"
    op_type: "DequantizeLinear"
  }
  node {
    input: "efficientnet-lite4/model/blocks_11/conv2d_1/Conv2D_weights_fused_bn_quantized"
    input: "efficientnet-lite4/model/blocks_11/conv2d_1/Conv2D_weights_fused_bn_scale"
    input: "efficientnet-lite4/model/blocks_11/conv2d_1/Conv2D_weights_fused_bn_zero_point"
    output: "efficientnet-lite4/model/blocks_11/conv2d_1/Conv2D_weights_fused_bn_dequantized"
    name: "efficientnet-lite4/model/blocks_11/conv2d_1/Conv2D_weights_fused_bn_DequantizeLinear"
    op_type: "DequantizeLinear"
  }
  node {
    input: "efficientnet-lite4/model/blocks_11/tpu_batch_normalization_1/FusedBatchNormV3:0_quantized"
    input: "efficientnet-lite4/model/blocks_11/tpu_batch_normalization_1/FusedBatchNormV3:0_scale"
    input: "efficientnet-lite4/model/blocks_11/tpu_batch_normalization_1/FusedBatchNormV3:0_zero_point"
    output: "efficientnet-lite4/model/blocks_11/tpu_batch_normalization_1/FusedBatchNormV3:0_efficientnet-lite4/model/blocks_11/conv2d_1/Conv2D_dequantized"
    name: "efficientnet-lite4/model/blocks_11/tpu_batch_normalization_1/FusedBatchNormV3:0_efficientnet-lite4/model/blocks_11/conv2d_1/Conv2D_DequantizeLinear"
    op_type: "DequantizeLinear"
  }
  node {
    input: "efficientnet-lite4/model/blocks_11/tpu_batch_normalization_1/FusedBatchNormV3:0_efficientnet-lite4/model/blocks_11/conv2d_1/Conv2D_dequantized"
    input: "efficientnet-lite4/model/blocks_11/conv2d_1/Conv2D_weights_fused_bn_dequantized"
    input: "efficientnet-lite4/model/blocks_11/conv2d_1/Conv2D_bias_fused_bn_dequantized"
    output: "efficientnet-lite4/model/blocks_11/tpu_batch_normalization_2/FusedBatchNormV3:0_QuantizeInput"
    name: "efficientnet-lite4/model/blocks_11/conv2d_1/Conv2D_quant"
    op_type: "Conv"
    attribute {
      name: "group"
      i: 1
      type: INT
    }
    attribute {
      name: "dilations"
      ints: 1
      ints: 1
      type: INTS
    }
    attribute {
      name: "strides"
      ints: 1
      ints: 1
      type: INTS
    }
    attribute {
      name: "kernel_shape"
      ints: 1
      ints: 1
      type: INTS
    }
    attribute {
      name: "pads"
      ints: 0
      ints: 0
      ints: 0
      ints: 0
      type: INTS
    }
    attribute {
      name: "auto_pad"
      s: "NOTSET"
      type: STRING
    }
  }
  node {
    input: "efficientnet-lite4/model/blocks_11/tpu_batch_normalization_2/FusedBatchNormV3:0_QuantizeInput"
    input: "efficientnet-lite4/model/blocks_11/tpu_batch_normalization_2/FusedBatchNormV3:0_scale"
    input: "efficientnet-lite4/model/blocks_11/tpu_batch_normalization_2/FusedBatchNormV3:0_zero_point"
    output: "efficientnet-lite4/model/blocks_11/tpu_batch_normalization_2/FusedBatchNormV3:0_quantized"
    name: "efficientnet-lite4/model/blocks_11/tpu_batch_normalization_2/FusedBatchNormV3:0_efficientnet-lite4/model/blocks_11/conv2d_1/Conv2D_QuantizeLinear"
    op_type: "QuantizeLinear"
  }
  node {
    input: "efficientnet-lite4/model/blocks_11/tpu_batch_normalization_2/FusedBatchNormV3:0_quantized"
    input: "efficientnet-lite4/model/blocks_11/tpu_batch_normalization_2/FusedBatchNormV3:0_scale"
    input: "efficientnet-lite4/model/blocks_11/tpu_batch_normalization_2/FusedBatchNormV3:0_zero_point"
    output: "efficientnet-lite4/model/blocks_11/tpu_batch_normalization_2/FusedBatchNormV3:0"
    name: "efficientnet-lite4/model/blocks_11/tpu_batch_normalization_2/FusedBatchNormV3:0_efficientnet-lite4/model/blocks_11/conv2d_1/Conv2D_DequantizeLinear"
    op_type: "DequantizeLinear"
  }
  node {
    input: "efficientnet-lite4/model/blocks_12/conv2d/Conv2D_bias_fused_bn_quantized"
    input: "efficientnet-lite4/model/blocks_12/conv2d/Conv2D_bias_fused_bn_scale"
    input: "efficientnet-lite4/model/blocks_12/conv2d/Conv2D_bias_fused_bn_zero_point"
    output: "efficientnet-lite4/model/blocks_12/conv2d/Conv2D_bias_fused_bn_dequantized"
    name: "efficientnet-lite4/model/blocks_12/conv2d/Conv2D_bias_fused_bn_DequantizeLinear"
    op_type: "DequantizeLinear"
  }
  node {
    input: "efficientnet-lite4/model/blocks_12/conv2d/Conv2D_weights_fused_bn_quantized"
    input: "efficientnet-lite4/model/blocks_12/conv2d/Conv2D_weights_fused_bn_scale"
    input: "efficientnet-lite4/model/blocks_12/conv2d/Conv2D_weights_fused_bn_zero_point"
    output: "efficientnet-lite4/model/blocks_12/conv2d/Conv2D_weights_fused_bn_dequantized"
    name: "efficientnet-lite4/model/blocks_12/conv2d/Conv2D_weights_fused_bn_DequantizeLinear"
    op_type: "DequantizeLinear"
  }
  node {
    input: "efficientnet-lite4/model/blocks_12/depthwise_conv2d/depthwise_bias_fused_bn_quantized"
    input: "efficientnet-lite4/model/blocks_12/depthwise_conv2d/depthwise_bias_fused_bn_scale"
    input: "efficientnet-lite4/model/blocks_12/depthwise_conv2d/depthwise_bias_fused_bn_zero_point"
    output: "efficientnet-lite4/model/blocks_12/depthwise_conv2d/depthwise_bias_fused_bn_dequantized"
    name: "efficientnet-lite4/model/blocks_12/depthwise_conv2d/depthwise_bias_fused_bn_DequantizeLinear"
    op_type: "DequantizeLinear"
  }
  node {
    input: "efficientnet-lite4/model/blocks_12/depthwise_conv2d/depthwise_weights_fused_bn_quantized"
    input: "efficientnet-lite4/model/blocks_12/depthwise_conv2d/depthwise_weights_fused_bn_scale"
    input: "efficientnet-lite4/model/blocks_12/depthwise_conv2d/depthwise_weights_fused_bn_zero_point"
    output: "efficientnet-lite4/model/blocks_12/depthwise_conv2d/depthwise_weights_fused_bn_dequantized"
    name: "efficientnet-lite4/model/blocks_12/depthwise_conv2d/depthwise_weights_fused_bn_DequantizeLinear"
    op_type: "DequantizeLinear"
  }
  node {
    input: "efficientnet-lite4/model/blocks_11/tpu_batch_normalization_2/FusedBatchNormV3:0"
    input: "efficientnet-lite4/model/blocks_10/Add:0"
    output: "efficientnet-lite4/model/blocks_11/Add:0"
    name: "efficientnet-lite4/model/blocks_11/Add"
    op_type: "Add"
  }
  node {
    input: "efficientnet-lite4/model/blocks_11/Add:0"
    input: "efficientnet-lite4/model/blocks_11/Add:0_scale"
    input: "efficientnet-lite4/model/blocks_11/Add:0_zero_point"
    output: "efficientnet-lite4/model/blocks_11/Add:0_efficientnet-lite4/model/blocks_12/conv2d/Conv2D_QuantizeLinear"
    name: "efficientnet-lite4/model/blocks_11/Add:0_efficientnet-lite4/model/blocks_12/conv2d/Conv2D_QuantizeLinear"
    op_type: "QuantizeLinear"
  }
  node {
    input: "efficientnet-lite4/model/blocks_11/Add:0_efficientnet-lite4/model/blocks_12/conv2d/Conv2D_QuantizeLinear"
    input: "efficientnet-lite4/model/blocks_11/Add:0_scale"
    input: "efficientnet-lite4/model/blocks_11/Add:0_zero_point"
    output: "efficientnet-lite4/model/blocks_11/Add:0_efficientnet-lite4/model/blocks_12/conv2d/Conv2D_dequantized"
    name: "efficientnet-lite4/model/blocks_11/Add:0_efficientnet-lite4/model/blocks_12/conv2d/Conv2D_DequantizeLinear"
    op_type: "DequantizeLinear"
  }
  node {
    input: "efficientnet-lite4/model/blocks_11/Add:0_efficientnet-lite4/model/blocks_12/conv2d/Conv2D_dequantized"
    input: "efficientnet-lite4/model/blocks_12/conv2d/Conv2D_weights_fused_bn_dequantized"
    input: "efficientnet-lite4/model/blocks_12/conv2d/Conv2D_bias_fused_bn_dequantized"
    output: "efficientnet-lite4/model/blocks_12/tpu_batch_normalization/FusedBatchNormV3:0_QuantizeInput"
    name: "efficientnet-lite4/model/blocks_12/conv2d/Conv2D_quant"
    op_type: "Conv"
    attribute {
      name: "group"
      i: 1
      type: INT
    }
    attribute {
      name: "dilations"
      ints: 1
      ints: 1
      type: INTS
    }
    attribute {
      name: "strides"
      ints: 1
      ints: 1
      type: INTS
    }
    attribute {
      name: "kernel_shape"
      ints: 1
      ints: 1
      type: INTS
    }
    attribute {
      name: "pads"
      ints: 0
      ints: 0
      ints: 0
      ints: 0
      type: INTS
    }
    attribute {
      name: "auto_pad"
      s: "NOTSET"
      type: STRING
    }
  }
  node {
    input: "efficientnet-lite4/model/blocks_12/tpu_batch_normalization/FusedBatchNormV3:0_QuantizeInput"
    input: "efficientnet-lite4/model/blocks_12/tpu_batch_normalization/FusedBatchNormV3:0_scale"
    input: "efficientnet-lite4/model/blocks_12/tpu_batch_normalization/FusedBatchNormV3:0_zero_point"
    output: "efficientnet-lite4/model/blocks_12/tpu_batch_normalization/FusedBatchNormV3:0_quantized"
    name: "efficientnet-lite4/model/blocks_12/tpu_batch_normalization/FusedBatchNormV3:0_efficientnet-lite4/model/blocks_12/conv2d/Conv2D_QuantizeLinear"
    op_type: "QuantizeLinear"
  }
  node {
    input: "efficientnet-lite4/model/blocks_12/tpu_batch_normalization/FusedBatchNormV3:0_quantized"
    input: "efficientnet-lite4/model/blocks_12/tpu_batch_normalization/FusedBatchNormV3:0_scale"
    input: "efficientnet-lite4/model/blocks_12/tpu_batch_normalization/FusedBatchNormV3:0_zero_point"
    output: "efficientnet-lite4/model/blocks_12/tpu_batch_normalization/FusedBatchNormV3:0_efficientnet-lite4/model/blocks_12/depthwise_conv2d/depthwise_dequantized"
    name: "efficientnet-lite4/model/blocks_12/tpu_batch_normalization/FusedBatchNormV3:0_efficientnet-lite4/model/blocks_12/depthwise_conv2d/depthwise_DequantizeLinear"
    op_type: "DequantizeLinear"
  }
  node {
    input: "efficientnet-lite4/model/blocks_12/tpu_batch_normalization/FusedBatchNormV3:0_efficientnet-lite4/model/blocks_12/depthwise_conv2d/depthwise_dequantized"
    input: "efficientnet-lite4/model/blocks_12/depthwise_conv2d/depthwise_weights_fused_bn_dequantized"
    input: "efficientnet-lite4/model/blocks_12/depthwise_conv2d/depthwise_bias_fused_bn_dequantized"
    output: "efficientnet-lite4/model/blocks_12/tpu_batch_normalization_1/FusedBatchNormV3:0_QuantizeInput"
    name: "efficientnet-lite4/model/blocks_12/depthwise_conv2d/depthwise_quant"
    op_type: "Conv"
    attribute {
      name: "auto_pad"
      s: "NOTSET"
      type: STRING
    }
    attribute {
      name: "dilations"
      ints: 1
      ints: 1
      type: INTS
    }
    attribute {
      name: "strides"
      ints: 1
      ints: 1
      type: INTS
    }
    attribute {
      name: "group"
      i: 672
      type: INT
    }
    attribute {
      name: "kernel_shape"
      ints: 3
      ints: 3
      type: INTS
    }
    attribute {
      name: "pads"
      ints: 1
      ints: 1
      ints: 1
      ints: 1
      type: INTS
    }
  }
  node {
    input: "efficientnet-lite4/model/blocks_12/tpu_batch_normalization_1/FusedBatchNormV3:0_QuantizeInput"
    input: "efficientnet-lite4/model/blocks_12/tpu_batch_normalization_1/FusedBatchNormV3:0_scale"
    input: "efficientnet-lite4/model/blocks_12/tpu_batch_normalization_1/FusedBatchNormV3:0_zero_point"
    output: "efficientnet-lite4/model/blocks_12/tpu_batch_normalization_1/FusedBatchNormV3:0_quantized"
    name: "efficientnet-lite4/model/blocks_12/tpu_batch_normalization_1/FusedBatchNormV3:0_efficientnet-lite4/model/blocks_12/depthwise_conv2d/depthwise_QuantizeLinear"
    op_type: "QuantizeLinear"
  }
  node {
    input: "efficientnet-lite4/model/blocks_12/conv2d_1/Conv2D_bias_fused_bn_quantized"
    input: "efficientnet-lite4/model/blocks_12/conv2d_1/Conv2D_bias_fused_bn_scale"
    input: "efficientnet-lite4/model/blocks_12/conv2d_1/Conv2D_bias_fused_bn_zero_point"
    output: "efficientnet-lite4/model/blocks_12/conv2d_1/Conv2D_bias_fused_bn_dequantized"
    name: "efficientnet-lite4/model/blocks_12/conv2d_1/Conv2D_bias_fused_bn_DequantizeLinear"
    op_type: "DequantizeLinear"
  }
  node {
    input: "efficientnet-lite4/model/blocks_12/conv2d_1/Conv2D_weights_fused_bn_quantized"
    input: "efficientnet-lite4/model/blocks_12/conv2d_1/Conv2D_weights_fused_bn_scale"
    input: "efficientnet-lite4/model/blocks_12/conv2d_1/Conv2D_weights_fused_bn_zero_point"
    output: "efficientnet-lite4/model/blocks_12/conv2d_1/Conv2D_weights_fused_bn_dequantized"
    name: "efficientnet-lite4/model/blocks_12/conv2d_1/Conv2D_weights_fused_bn_DequantizeLinear"
    op_type: "DequantizeLinear"
  }
  node {
    input: "efficientnet-lite4/model/blocks_12/tpu_batch_normalization_1/FusedBatchNormV3:0_quantized"
    input: "efficientnet-lite4/model/blocks_12/tpu_batch_normalization_1/FusedBatchNormV3:0_scale"
    input: "efficientnet-lite4/model/blocks_12/tpu_batch_normalization_1/FusedBatchNormV3:0_zero_point"
    output: "efficientnet-lite4/model/blocks_12/tpu_batch_normalization_1/FusedBatchNormV3:0_efficientnet-lite4/model/blocks_12/conv2d_1/Conv2D_dequantized"
    name: "efficientnet-lite4/model/blocks_12/tpu_batch_normalization_1/FusedBatchNormV3:0_efficientnet-lite4/model/blocks_12/conv2d_1/Conv2D_DequantizeLinear"
    op_type: "DequantizeLinear"
  }
  node {
    input: "efficientnet-lite4/model/blocks_12/tpu_batch_normalization_1/FusedBatchNormV3:0_efficientnet-lite4/model/blocks_12/conv2d_1/Conv2D_dequantized"
    input: "efficientnet-lite4/model/blocks_12/conv2d_1/Conv2D_weights_fused_bn_dequantized"
    input: "efficientnet-lite4/model/blocks_12/conv2d_1/Conv2D_bias_fused_bn_dequantized"
    output: "efficientnet-lite4/model/blocks_12/tpu_batch_normalization_2/FusedBatchNormV3:0_QuantizeInput"
    name: "efficientnet-lite4/model/blocks_12/conv2d_1/Conv2D_quant"
    op_type: "Conv"
    attribute {
      name: "group"
      i: 1
      type: INT
    }
    attribute {
      name: "dilations"
      ints: 1
      ints: 1
      type: INTS
    }
    attribute {
      name: "strides"
      ints: 1
      ints: 1
      type: INTS
    }
    attribute {
      name: "kernel_shape"
      ints: 1
      ints: 1
      type: INTS
    }
    attribute {
      name: "pads"
      ints: 0
      ints: 0
      ints: 0
      ints: 0
      type: INTS
    }
    attribute {
      name: "auto_pad"
      s: "NOTSET"
      type: STRING
    }
  }
  node {
    input: "efficientnet-lite4/model/blocks_12/tpu_batch_normalization_2/FusedBatchNormV3:0_QuantizeInput"
    input: "efficientnet-lite4/model/blocks_12/tpu_batch_normalization_2/FusedBatchNormV3:0_scale"
    input: "efficientnet-lite4/model/blocks_12/tpu_batch_normalization_2/FusedBatchNormV3:0_zero_point"
    output: "efficientnet-lite4/model/blocks_12/tpu_batch_normalization_2/FusedBatchNormV3:0_quantized"
    name: "efficientnet-lite4/model/blocks_12/tpu_batch_normalization_2/FusedBatchNormV3:0_efficientnet-lite4/model/blocks_12/conv2d_1/Conv2D_QuantizeLinear"
    op_type: "QuantizeLinear"
  }
  node {
    input: "efficientnet-lite4/model/blocks_12/tpu_batch_normalization_2/FusedBatchNormV3:0_quantized"
    input: "efficientnet-lite4/model/blocks_12/tpu_batch_normalization_2/FusedBatchNormV3:0_scale"
    input: "efficientnet-lite4/model/blocks_12/tpu_batch_normalization_2/FusedBatchNormV3:0_zero_point"
    output: "efficientnet-lite4/model/blocks_12/tpu_batch_normalization_2/FusedBatchNormV3:0"
    name: "efficientnet-lite4/model/blocks_12/tpu_batch_normalization_2/FusedBatchNormV3:0_efficientnet-lite4/model/blocks_12/conv2d_1/Conv2D_DequantizeLinear"
    op_type: "DequantizeLinear"
  }
  node {
    input: "efficientnet-lite4/model/blocks_13/conv2d/Conv2D_bias_fused_bn_quantized"
    input: "efficientnet-lite4/model/blocks_13/conv2d/Conv2D_bias_fused_bn_scale"
    input: "efficientnet-lite4/model/blocks_13/conv2d/Conv2D_bias_fused_bn_zero_point"
    output: "efficientnet-lite4/model/blocks_13/conv2d/Conv2D_bias_fused_bn_dequantized"
    name: "efficientnet-lite4/model/blocks_13/conv2d/Conv2D_bias_fused_bn_DequantizeLinear"
    op_type: "DequantizeLinear"
  }
  node {
    input: "efficientnet-lite4/model/blocks_13/conv2d/Conv2D_weights_fused_bn_quantized"
    input: "efficientnet-lite4/model/blocks_13/conv2d/Conv2D_weights_fused_bn_scale"
    input: "efficientnet-lite4/model/blocks_13/conv2d/Conv2D_weights_fused_bn_zero_point"
    output: "efficientnet-lite4/model/blocks_13/conv2d/Conv2D_weights_fused_bn_dequantized"
    name: "efficientnet-lite4/model/blocks_13/conv2d/Conv2D_weights_fused_bn_DequantizeLinear"
    op_type: "DequantizeLinear"
  }
  node {
    input: "efficientnet-lite4/model/blocks_13/depthwise_conv2d/depthwise_bias_fused_bn_quantized"
    input: "efficientnet-lite4/model/blocks_13/depthwise_conv2d/depthwise_bias_fused_bn_scale"
    input: "efficientnet-lite4/model/blocks_13/depthwise_conv2d/depthwise_bias_fused_bn_zero_point"
    output: "efficientnet-lite4/model/blocks_13/depthwise_conv2d/depthwise_bias_fused_bn_dequantized"
    name: "efficientnet-lite4/model/blocks_13/depthwise_conv2d/depthwise_bias_fused_bn_DequantizeLinear"
    op_type: "DequantizeLinear"
  }
  node {
    input: "efficientnet-lite4/model/blocks_13/depthwise_conv2d/depthwise_weights_fused_bn_quantized"
    input: "efficientnet-lite4/model/blocks_13/depthwise_conv2d/depthwise_weights_fused_bn_scale"
    input: "efficientnet-lite4/model/blocks_13/depthwise_conv2d/depthwise_weights_fused_bn_zero_point"
    output: "efficientnet-lite4/model/blocks_13/depthwise_conv2d/depthwise_weights_fused_bn_dequantized"
    name: "efficientnet-lite4/model/blocks_13/depthwise_conv2d/depthwise_weights_fused_bn_DequantizeLinear"
    op_type: "DequantizeLinear"
  }
  node {
    input: "efficientnet-lite4/model/blocks_12/tpu_batch_normalization_2/FusedBatchNormV3:0"
    input: "efficientnet-lite4/model/blocks_11/Add:0"
    output: "efficientnet-lite4/model/blocks_12/Add:0"
    name: "efficientnet-lite4/model/blocks_12/Add"
    op_type: "Add"
  }
  node {
    input: "efficientnet-lite4/model/blocks_12/Add:0"
    input: "efficientnet-lite4/model/blocks_12/Add:0_scale"
    input: "efficientnet-lite4/model/blocks_12/Add:0_zero_point"
    output: "efficientnet-lite4/model/blocks_12/Add:0_efficientnet-lite4/model/blocks_13/conv2d/Conv2D_QuantizeLinear"
    name: "efficientnet-lite4/model/blocks_12/Add:0_efficientnet-lite4/model/blocks_13/conv2d/Conv2D_QuantizeLinear"
    op_type: "QuantizeLinear"
  }
  node {
    input: "efficientnet-lite4/model/blocks_12/Add:0_efficientnet-lite4/model/blocks_13/conv2d/Conv2D_QuantizeLinear"
    input: "efficientnet-lite4/model/blocks_12/Add:0_scale"
    input: "efficientnet-lite4/model/blocks_12/Add:0_zero_point"
    output: "efficientnet-lite4/model/blocks_12/Add:0_efficientnet-lite4/model/blocks_13/conv2d/Conv2D_dequantized"
    name: "efficientnet-lite4/model/blocks_12/Add:0_efficientnet-lite4/model/blocks_13/conv2d/Conv2D_DequantizeLinear"
    op_type: "DequantizeLinear"
  }
  node {
    input: "efficientnet-lite4/model/blocks_12/Add:0_efficientnet-lite4/model/blocks_13/conv2d/Conv2D_dequantized"
    input: "efficientnet-lite4/model/blocks_13/conv2d/Conv2D_weights_fused_bn_dequantized"
    input: "efficientnet-lite4/model/blocks_13/conv2d/Conv2D_bias_fused_bn_dequantized"
    output: "efficientnet-lite4/model/blocks_13/tpu_batch_normalization/FusedBatchNormV3:0_QuantizeInput"
    name: "efficientnet-lite4/model/blocks_13/conv2d/Conv2D_quant"
    op_type: "Conv"
    attribute {
      name: "group"
      i: 1
      type: INT
    }
    attribute {
      name: "dilations"
      ints: 1
      ints: 1
      type: INTS
    }
    attribute {
      name: "strides"
      ints: 1
      ints: 1
      type: INTS
    }
    attribute {
      name: "kernel_shape"
      ints: 1
      ints: 1
      type: INTS
    }
    attribute {
      name: "pads"
      ints: 0
      ints: 0
      ints: 0
      ints: 0
      type: INTS
    }
    attribute {
      name: "auto_pad"
      s: "NOTSET"
      type: STRING
    }
  }
  node {
    input: "efficientnet-lite4/model/blocks_13/tpu_batch_normalization/FusedBatchNormV3:0_QuantizeInput"
    input: "efficientnet-lite4/model/blocks_13/tpu_batch_normalization/FusedBatchNormV3:0_scale"
    input: "efficientnet-lite4/model/blocks_13/tpu_batch_normalization/FusedBatchNormV3:0_zero_point"
    output: "efficientnet-lite4/model/blocks_13/tpu_batch_normalization/FusedBatchNormV3:0_quantized"
    name: "efficientnet-lite4/model/blocks_13/tpu_batch_normalization/FusedBatchNormV3:0_efficientnet-lite4/model/blocks_13/conv2d/Conv2D_QuantizeLinear"
    op_type: "QuantizeLinear"
  }
  node {
    input: "efficientnet-lite4/model/blocks_13/tpu_batch_normalization/FusedBatchNormV3:0_quantized"
    input: "efficientnet-lite4/model/blocks_13/tpu_batch_normalization/FusedBatchNormV3:0_scale"
    input: "efficientnet-lite4/model/blocks_13/tpu_batch_normalization/FusedBatchNormV3:0_zero_point"
    output: "efficientnet-lite4/model/blocks_13/tpu_batch_normalization/FusedBatchNormV3:0_efficientnet-lite4/model/blocks_13/depthwise_conv2d/depthwise_dequantized"
    name: "efficientnet-lite4/model/blocks_13/tpu_batch_normalization/FusedBatchNormV3:0_efficientnet-lite4/model/blocks_13/depthwise_conv2d/depthwise_DequantizeLinear"
    op_type: "DequantizeLinear"
  }
  node {
    input: "efficientnet-lite4/model/blocks_13/tpu_batch_normalization/FusedBatchNormV3:0_efficientnet-lite4/model/blocks_13/depthwise_conv2d/depthwise_dequantized"
    input: "efficientnet-lite4/model/blocks_13/depthwise_conv2d/depthwise_weights_fused_bn_dequantized"
    input: "efficientnet-lite4/model/blocks_13/depthwise_conv2d/depthwise_bias_fused_bn_dequantized"
    output: "efficientnet-lite4/model/blocks_13/tpu_batch_normalization_1/FusedBatchNormV3:0_QuantizeInput"
    name: "efficientnet-lite4/model/blocks_13/depthwise_conv2d/depthwise_quant"
    op_type: "Conv"
    attribute {
      name: "auto_pad"
      s: "NOTSET"
      type: STRING
    }
    attribute {
      name: "dilations"
      ints: 1
      ints: 1
      type: INTS
    }
    attribute {
      name: "strides"
      ints: 1
      ints: 1
…
      tensor_type {
        elem_type: 1
        shape {
        }
      }
    }
  }
  value_info {
    name: "efficientnet-lite4/model/blocks_24/conv2d/Conv2D_weights_fused_bn_zero_point"
    type {
      tensor_type {
        elem_type: 3
        shape {
        }
      }
    }
  }
  value_info {
    name: "efficientnet-lite4/model/blocks_24/tpu_batch_normalization/FusedBatchNormV3:0_zero_point"
    type {
      tensor_type {
        elem_type: 2
        shape {
        }
      }
    }
  }
  value_info {
    name: "efficientnet-lite4/model/blocks_24/tpu_batch_normalization/FusedBatchNormV3:0_scale"
    type {
      tensor_type {
        elem_type: 1
        shape {
        }
      }
    }
  }
  value_info {
    name: "efficientnet-lite4/model/blocks_24/conv2d/Conv2D_bias_fused_bn_scale"
    type {
      tensor_type {
        elem_type: 1
        shape {
          dim {
            dim_value: 1
          }
        }
      }
    }
  }
  value_info {
    name: "efficientnet-lite4/model/blocks_24/conv2d/Conv2D_bias_fused_bn_zero_point"
    type {
      tensor_type {
        elem_type: 6
        shape {
          dim {
            dim_value: 1
          }
        }
      }
    }
  }
  value_info {
    name: "efficientnet-lite4/model/blocks_24/depthwise_conv2d/depthwise_weights_fused_bn_scale"
    type {
      tensor_type {
        elem_type: 1
        shape {
        }
      }
    }
  }
  value_info {
    name: "efficientnet-lite4/model/blocks_24/depthwise_conv2d/depthwise_weights_fused_bn_zero_point"
    type {
      tensor_type {
        elem_type: 3
        shape {
        }
      }
    }
  }
  value_info {
    name: "efficientnet-lite4/model/blocks_24/tpu_batch_normalization_1/FusedBatchNormV3:0_zero_point"
    type {
      tensor_type {
        elem_type: 2
        shape {
        }
      }
    }
  }
  value_info {
    name: "efficientnet-lite4/model/blocks_24/tpu_batch_normalization_1/FusedBatchNormV3:0_scale"
    type {
      tensor_type {
        elem_type: 1
        shape {
        }
      }
    }
  }
  value_info {
    name: "efficientnet-lite4/model/blocks_24/depthwise_conv2d/depthwise_bias_fused_bn_scale"
    type {
      tensor_type {
        elem_type: 1
        shape {
          dim {
            dim_value: 1
          }
        }
      }
    }
  }
  value_info {
    name: "efficientnet-lite4/model/blocks_24/depthwise_conv2d/depthwise_bias_fused_bn_zero_point"
    type {
      tensor_type {
        elem_type: 6
        shape {
          dim {
            dim_value: 1
          }
        }
      }
    }
  }
  value_info {
    name: "efficientnet-lite4/model/blocks_24/conv2d_1/Conv2D_weights_fused_bn_scale"
    type {
      tensor_type {
        elem_type: 1
        shape {
        }
      }
    }
  }
  value_info {
    name: "efficientnet-lite4/model/blocks_24/conv2d_1/Conv2D_weights_fused_bn_zero_point"
    type {
      tensor_type {
        elem_type: 3
        shape {
        }
      }
    }
  }
  value_info {
    name: "efficientnet-lite4/model/blocks_24/tpu_batch_normalization_2/FusedBatchNormV3:0_zero_point"
    type {
      tensor_type {
        elem_type: 2
        shape {
        }
      }
    }
  }
  value_info {
    name: "efficientnet-lite4/model/blocks_24/tpu_batch_normalization_2/FusedBatchNormV3:0_scale"
    type {
      tensor_type {
        elem_type: 1
        shape {
        }
      }
    }
  }
  value_info {
    name: "efficientnet-lite4/model/blocks_24/conv2d_1/Conv2D_bias_fused_bn_scale"
    type {
      tensor_type {
        elem_type: 1
        shape {
          dim {
            dim_value: 1
          }
        }
      }
    }
  }
  value_info {
    name: "efficientnet-lite4/model/blocks_24/conv2d_1/Conv2D_bias_fused_bn_zero_point"
    type {
      tensor_type {
        elem_type: 6
        shape {
          dim {
            dim_value: 1
          }
        }
      }
    }
  }
  value_info {
    name: "efficientnet-lite4/model/blocks_24/Add:0_zero_point"
    type {
      tensor_type {
        elem_type: 2
        shape {
        }
      }
    }
  }
  value_info {
    name: "efficientnet-lite4/model/blocks_24/Add:0_scale"
    type {
      tensor_type {
        elem_type: 1
        shape {
        }
      }
    }
  }
  value_info {
    name: "efficientnet-lite4/model/blocks_25/conv2d/Conv2D_weights_fused_bn_scale"
    type {
      tensor_type {
        elem_type: 1
        shape {
        }
      }
    }
  }
  value_info {
    name: "efficientnet-lite4/model/blocks_25/conv2d/Conv2D_weights_fused_bn_zero_point"
    type {
      tensor_type {
        elem_type: 3
        shape {
        }
      }
    }
  }
  value_info {
    name: "efficientnet-lite4/model/blocks_25/tpu_batch_normalization/FusedBatchNormV3:0_zero_point"
    type {
      tensor_type {
        elem_type: 2
        shape {
        }
      }
    }
  }
  value_info {
    name: "efficientnet-lite4/model/blocks_25/tpu_batch_normalization/FusedBatchNormV3:0_scale"
    type {
      tensor_type {
        elem_type: 1
        shape {
        }
      }
    }
  }
  value_info {
    name: "efficientnet-lite4/model/blocks_25/conv2d/Conv2D_bias_fused_bn_scale"
    type {
      tensor_type {
        elem_type: 1
        shape {
          dim {
            dim_value: 1
          }
        }
      }
    }
  }
  value_info {
    name: "efficientnet-lite4/model/blocks_25/conv2d/Conv2D_bias_fused_bn_zero_point"
    type {
      tensor_type {
        elem_type: 6
        shape {
          dim {
            dim_value: 1
          }
        }
      }
    }
  }
  value_info {
    name: "efficientnet-lite4/model/blocks_25/depthwise_conv2d/depthwise_weights_fused_bn_scale"
    type {
      tensor_type {
        elem_type: 1
        shape {
        }
      }
    }
  }
  value_info {
    name: "efficientnet-lite4/model/blocks_25/depthwise_conv2d/depthwise_weights_fused_bn_zero_point"
    type {
      tensor_type {
        elem_type: 3
        shape {
        }
      }
    }
  }
  value_info {
    name: "efficientnet-lite4/model/blocks_25/tpu_batch_normalization_1/FusedBatchNormV3:0_zero_point"
    type {
      tensor_type {
        elem_type: 2
        shape {
        }
      }
    }
  }
  value_info {
    name: "efficientnet-lite4/model/blocks_25/tpu_batch_normalization_1/FusedBatchNormV3:0_scale"
    type {
      tensor_type {
        elem_type: 1
        shape {
        }
      }
    }
  }
  value_info {
    name: "efficientnet-lite4/model/blocks_25/depthwise_conv2d/depthwise_bias_fused_bn_scale"
    type {
      tensor_type {
        elem_type: 1
        shape {
          dim {
            dim_value: 1
          }
        }
      }
    }
  }
  value_info {
    name: "efficientnet-lite4/model/blocks_25/depthwise_conv2d/depthwise_bias_fused_bn_zero_point"
    type {
      tensor_type {
        elem_type: 6
        shape {
          dim {
            dim_value: 1
          }
        }
      }
    }
  }
  value_info {
    name: "efficientnet-lite4/model/blocks_25/conv2d_1/Conv2D_weights_fused_bn_scale"
    type {
      tensor_type {
        elem_type: 1
        shape {
        }
      }
    }
  }
  value_info {
    name: "efficientnet-lite4/model/blocks_25/conv2d_1/Conv2D_weights_fused_bn_zero_point"
    type {
      tensor_type {
        elem_type: 3
        shape {
        }
      }
    }
  }
  value_info {
    name: "efficientnet-lite4/model/blocks_25/tpu_batch_normalization_2/FusedBatchNormV3:0_zero_point"
    type {
      tensor_type {
        elem_type: 2
        shape {
        }
      }
    }
  }
  value_info {
    name: "efficientnet-lite4/model/blocks_25/tpu_batch_normalization_2/FusedBatchNormV3:0_scale"
    type {
      tensor_type {
        elem_type: 1
        shape {
        }
      }
    }
  }
  value_info {
    name: "efficientnet-lite4/model/blocks_25/conv2d_1/Conv2D_bias_fused_bn_scale"
    type {
      tensor_type {
        elem_type: 1
        shape {
          dim {
            dim_value: 1
          }
        }
      }
    }
  }
  value_info {
    name: "efficientnet-lite4/model/blocks_25/conv2d_1/Conv2D_bias_fused_bn_zero_point"
    type {
      tensor_type {
        elem_type: 6
        shape {
          dim {
            dim_value: 1
          }
        }
      }
    }
  }
  value_info {
    name: "efficientnet-lite4/model/blocks_25/Add:0_zero_point"
    type {
      tensor_type {
        elem_type: 2
        shape {
        }
      }
    }
  }
  value_info {
    name: "efficientnet-lite4/model/blocks_25/Add:0_scale"
    type {
      tensor_type {
        elem_type: 1
        shape {
        }
      }
    }
  }
  value_info {
    name: "efficientnet-lite4/model/blocks_26/conv2d/Conv2D_weights_fused_bn_scale"
    type {
      tensor_type {
        elem_type: 1
        shape {
        }
      }
    }
  }
  value_info {
    name: "efficientnet-lite4/model/blocks_26/conv2d/Conv2D_weights_fused_bn_zero_point"
    type {
      tensor_type {
        elem_type: 3
        shape {
        }
      }
    }
  }
  value_info {
    name: "efficientnet-lite4/model/blocks_26/tpu_batch_normalization/FusedBatchNormV3:0_zero_point"
    type {
      tensor_type {
        elem_type: 2
        shape {
        }
      }
    }
  }
  value_info {
    name: "efficientnet-lite4/model/blocks_26/tpu_batch_normalization/FusedBatchNormV3:0_scale"
    type {
      tensor_type {
        elem_type: 1
        shape {
        }
      }
    }
  }
  value_info {
    name: "efficientnet-lite4/model/blocks_26/conv2d/Conv2D_bias_fused_bn_scale"
    type {
      tensor_type {
        elem_type: 1
        shape {
          dim {
            dim_value: 1
          }
        }
      }
    }
  }
  value_info {
    name: "efficientnet-lite4/model/blocks_26/conv2d/Conv2D_bias_fused_bn_zero_point"
    type {
      tensor_type {
        elem_type: 6
        shape {
          dim {
            dim_value: 1
          }
        }
      }
    }
  }
  value_info {
    name: "efficientnet-lite4/model/blocks_26/depthwise_conv2d/depthwise_weights_fused_bn_scale"
    type {
      tensor_type {
        elem_type: 1
        shape {
        }
      }
    }
  }
  value_info {
    name: "efficientnet-lite4/model/blocks_26/depthwise_conv2d/depthwise_weights_fused_bn_zero_point"
    type {
      tensor_type {
        elem_type: 3
        shape {
        }
      }
    }
  }
  value_info {
    name: "efficientnet-lite4/model/blocks_26/tpu_batch_normalization_1/FusedBatchNormV3:0_zero_point"
    type {
      tensor_type {
        elem_type: 2
        shape {
        }
      }
    }
  }
  value_info {
    name: "efficientnet-lite4/model/blocks_26/tpu_batch_normalization_1/FusedBatchNormV3:0_scale"
    type {
      tensor_type {
        elem_type: 1
        shape {
        }
      }
    }
  }
  value_info {
    name: "efficientnet-lite4/model/blocks_26/depthwise_conv2d/depthwise_bias_fused_bn_scale"
    type {
      tensor_type {
        elem_type: 1
        shape {
          dim {
            dim_value: 1
          }
        }
      }
    }
  }
  value_info {
    name: "efficientnet-lite4/model/blocks_26/depthwise_conv2d/depthwise_bias_fused_bn_zero_point"
    type {
      tensor_type {
        elem_type: 6
        shape {
          dim {
            dim_value: 1
          }
        }
      }
    }
  }
  value_info {
    name: "efficientnet-lite4/model/blocks_26/conv2d_1/Conv2D_weights_fused_bn_scale"
    type {
      tensor_type {
        elem_type: 1
        shape {
        }
      }
    }
  }
  value_info {
    name: "efficientnet-lite4/model/blocks_26/conv2d_1/Conv2D_weights_fused_bn_zero_point"
    type {
      tensor_type {
        elem_type: 3
        shape {
        }
      }
    }
  }
  value_info {
    name: "efficientnet-lite4/model/blocks_26/tpu_batch_normalization_2/FusedBatchNormV3:0_zero_point"
    type {
      tensor_type {
        elem_type: 2
        shape {
        }
      }
    }
  }
  value_info {
    name: "efficientnet-lite4/model/blocks_26/tpu_batch_normalization_2/FusedBatchNormV3:0_scale"
    type {
      tensor_type {
        elem_type: 1
        shape {
        }
      }
    }
  }
  value_info {
    name: "efficientnet-lite4/model/blocks_26/conv2d_1/Conv2D_bias_fused_bn_scale"
    type {
      tensor_type {
        elem_type: 1
        shape {
          dim {
            dim_value: 1
          }
        }
      }
    }
  }
  value_info {
    name: "efficientnet-lite4/model/blocks_26/conv2d_1/Conv2D_bias_fused_bn_zero_point"
    type {
      tensor_type {
        elem_type: 6
        shape {
          dim {
            dim_value: 1
          }
        }
      }
    }
  }
  value_info {
    name: "efficientnet-lite4/model/blocks_26/Add:0_zero_point"
    type {
      tensor_type {
        elem_type: 2
        shape {
        }
      }
    }
  }
  value_info {
    name: "efficientnet-lite4/model/blocks_26/Add:0_scale"
    type {
      tensor_type {
        elem_type: 1
        shape {
        }
      }
    }
  }
  value_info {
    name: "efficientnet-lite4/model/blocks_27/conv2d/Conv2D_weights_fused_bn_scale"
    type {
      tensor_type {
        elem_type: 1
        shape {
        }
      }
    }
  }
  value_info {
    name: "efficientnet-lite4/model/blocks_27/conv2d/Conv2D_weights_fused_bn_zero_point"
    type {
      tensor_type {
        elem_type: 3
        shape {
        }
      }
    }
  }
  value_info {
    name: "efficientnet-lite4/model/blocks_27/tpu_batch_normalization/FusedBatchNormV3:0_zero_point"
    type {
      tensor_type {
        elem_type: 2
        shape {
        }
      }
    }
  }
  value_info {
    name: "efficientnet-lite4/model/blocks_27/tpu_batch_normalization/FusedBatchNormV3:0_scale"
    type {
      tensor_type {
        elem_type: 1
        shape {
        }
      }
    }
  }
  value_info {
    name: "efficientnet-lite4/model/blocks_27/conv2d/Conv2D_bias_fused_bn_scale"
    type {
      tensor_type {
        elem_type: 1
        shape {
          dim {
            dim_value: 1
          }
        }
      }
    }
  }
  value_info {
    name: "efficientnet-lite4/model/blocks_27/conv2d/Conv2D_bias_fused_bn_zero_point"
    type {
      tensor_type {
        elem_type: 6
        shape {
          dim {
            dim_value: 1
          }
        }
      }
    }
  }
  value_info {
    name: "efficientnet-lite4/model/blocks_27/depthwise_conv2d/depthwise_weights_fused_bn_scale"
    type {
      tensor_type {
        elem_type: 1
        shape {
        }
      }
    }
  }
  value_info {
    name: "efficientnet-lite4/model/blocks_27/depthwise_conv2d/depthwise_weights_fused_bn_zero_point"
    type {
      tensor_type {
        elem_type: 3
        shape {
        }
      }
    }
  }
  value_info {
    name: "efficientnet-lite4/model/blocks_27/tpu_batch_normalization_1/FusedBatchNormV3:0_zero_point"
    type {
      tensor_type {
        elem_type: 2
        shape {
        }
      }
    }
  }
  value_info {
    name: "efficientnet-lite4/model/blocks_27/tpu_batch_normalization_1/FusedBatchNormV3:0_scale"
    type {
      tensor_type {
        elem_type: 1
        shape {
        }
      }
    }
  }
  value_info {
    name: "efficientnet-lite4/model/blocks_27/depthwise_conv2d/depthwise_bias_fused_bn_scale"
    type {
      tensor_type {
        elem_type: 1
        shape {
          dim {
            dim_value: 1
          }
        }
      }
    }
  }
  value_info {
    name: "efficientnet-lite4/model/blocks_27/depthwise_conv2d/depthwise_bias_fused_bn_zero_point"
    type {
      tensor_type {
        elem_type: 6
        shape {
          dim {
            dim_value: 1
          }
        }
      }
    }
  }
  value_info {
    name: "efficientnet-lite4/model/blocks_27/conv2d_1/Conv2D_weights_fused_bn_scale"
    type {
      tensor_type {
        elem_type: 1
        shape {
        }
      }
    }
  }
  value_info {
    name: "efficientnet-lite4/model/blocks_27/conv2d_1/Conv2D_weights_fused_bn_zero_point"
    type {
      tensor_type {
        elem_type: 3
        shape {
        }
      }
    }
  }
  value_info {
    name: "efficientnet-lite4/model/blocks_27/tpu_batch_normalization_2/FusedBatchNormV3:0_zero_point"
    type {
      tensor_type {
        elem_type: 2
        shape {
        }
      }
    }
  }
  value_info {
    name: "efficientnet-lite4/model/blocks_27/tpu_batch_normalization_2/FusedBatchNormV3:0_scale"
    type {
      tensor_type {
        elem_type: 1
        shape {
        }
      }
    }
  }
  value_info {
    name: "efficientnet-lite4/model/blocks_27/conv2d_1/Conv2D_bias_fused_bn_scale"
    type {
      tensor_type {
        elem_type: 1
        shape {
          dim {
            dim_value: 1
          }
        }
      }
    }
  }
  value_info {
    name: "efficientnet-lite4/model/blocks_27/conv2d_1/Conv2D_bias_fused_bn_zero_point"
    type {
      tensor_type {
        elem_type: 6
        shape {
          dim {
            dim_value: 1
          }
        }
      }
    }
  }
  value_info {
    name: "efficientnet-lite4/model/blocks_27/Add:0_zero_point"
    type {
      tensor_type {
        elem_type: 2
        shape {
        }
      }
    }
  }
  value_info {
    name: "efficientnet-lite4/model/blocks_27/Add:0_scale"
    type {
      tensor_type {
        elem_type: 1
        shape {
        }
      }
    }
  }
  value_info {
    name: "efficientnet-lite4/model/blocks_28/conv2d/Conv2D_weights_fused_bn_scale"
    type {
      tensor_type {
        elem_type: 1
        shape {
        }
      }
    }
  }
  value_info {
    name: "efficientnet-lite4/model/blocks_28/conv2d/Conv2D_weights_fused_bn_zero_point"
    type {
      tensor_type {
        elem_type: 3
        shape {
        }
      }
    }
  }
  value_info {
    name: "efficientnet-lite4/model/blocks_28/tpu_batch_normalization/FusedBatchNormV3:0_zero_point"
    type {
      tensor_type {
        elem_type: 2
        shape {
        }
      }
    }
  }
  value_info {
    name: "efficientnet-lite4/model/blocks_28/tpu_batch_normalization/FusedBatchNormV3:0_scale"
    type {
      tensor_type {
        elem_type: 1
        shape {
        }
      }
    }
  }
  value_info {
    name: "efficientnet-lite4/model/blocks_28/conv2d/Conv2D_bias_fused_bn_scale"
    type {
      tensor_type {
        elem_type: 1
        shape {
          dim {
            dim_value: 1
          }
        }
      }
    }
  }
  value_info {
    name: "efficientnet-lite4/model/blocks_28/conv2d/Conv2D_bias_fused_bn_zero_point"
    type {
      tensor_type {
        elem_type: 6
        shape {
          dim {
            dim_value: 1
          }
        }
      }
    }
  }
  value_info {
    name: "efficientnet-lite4/model/blocks_28/depthwise_conv2d/depthwise_weights_fused_bn_scale"
    type {
      tensor_type {
        elem_type: 1
        shape {
        }
      }
    }
  }
  value_info {
    name: "efficientnet-lite4/model/blocks_28/depthwise_conv2d/depthwise_weights_fused_bn_zero_point"
    type {
      tensor_type {
        elem_type: 3
        shape {
        }
      }
    }
  }
  value_info {
    name: "efficientnet-lite4/model/blocks_28/tpu_batch_normalization_1/FusedBatchNormV3:0_zero_point"
    type {
      tensor_type {
        elem_type: 2
        shape {
        }
      }
    }
  }
  value_info {
    name: "efficientnet-lite4/model/blocks_28/tpu_batch_normalization_1/FusedBatchNormV3:0_scale"
    type {
      tensor_type {
        elem_type: 1
        shape {
        }
      }
    }
  }
  value_info {
    name: "efficientnet-lite4/model/blocks_28/depthwise_conv2d/depthwise_bias_fused_bn_scale"
    type {
      tensor_type {
        elem_type: 1
        shape {
          dim {
            dim_value: 1
          }
        }
      }
    }
  }
  value_info {
    name: "efficientnet-lite4/model/blocks_28/depthwise_conv2d/depthwise_bias_fused_bn_zero_point"
    type {
      tensor_type {
        elem_type: 6
        shape {
          dim {
            dim_value: 1
          }
        }
      }
    }
  }
  value_info {
    name: "efficientnet-lite4/model/blocks_28/conv2d_1/Conv2D_weights_fused_bn_scale"
    type {
      tensor_type {
        elem_type: 1
        shape {
        }
      }
    }
  }
  value_info {
    name: "efficientnet-lite4/model/blocks_28/conv2d_1/Conv2D_weights_fused_bn_zero_point"
    type {
      tensor_type {
        elem_type: 3
        shape {
        }
      }
    }
  }
  value_info {
    name: "efficientnet-lite4/model/blocks_28/tpu_batch_normalization_2/FusedBatchNormV3:0_zero_point"
    type {
      tensor_type {
        elem_type: 2
        shape {
        }
      }
    }
  }
  value_info {
    name: "efficientnet-lite4/model/blocks_28/tpu_batch_normalization_2/FusedBatchNormV3:0_scale"
    type {
      tensor_type {
        elem_type: 1
        shape {
        }
      }
    }
  }
  value_info {
    name: "efficientnet-lite4/model/blocks_28/conv2d_1/Conv2D_bias_fused_bn_scale"
    type {
      tensor_type {
        elem_type: 1
        shape {
          dim {
            dim_value: 1
          }
        }
      }
    }
  }
  value_info {
    name: "efficientnet-lite4/model/blocks_28/conv2d_1/Conv2D_bias_fused_bn_zero_point"
    type {
      tensor_type {
        elem_type: 6
        shape {
          dim {
            dim_value: 1
          }
        }
      }
    }
  }
  value_info {
    name: "efficientnet-lite4/model/blocks_28/Add:0_zero_point"
    type {
      tensor_type {
        elem_type: 2
        shape {
        }
      }
    }
  }
  value_info {
    name: "efficientnet-lite4/model/blocks_28/Add:0_scale"
    type {
      tensor_type {
        elem_type: 1
        shape {
        }
      }
    }
  }
  value_info {
    name: "efficientnet-lite4/model/blocks_29/conv2d/Conv2D_weights_fused_bn_scale"
    type {
      tensor_type {
        elem_type: 1
        shape {
        }
      }
    }
  }
  value_info {
    name: "efficientnet-lite4/model/blocks_29/conv2d/Conv2D_weights_fused_bn_zero_point"
    type {
      tensor_type {
        elem_type: 3
        shape {
        }
      }
    }
  }
  value_info {
    name: "efficientnet-lite4/model/blocks_29/tpu_batch_normalization/FusedBatchNormV3:0_zero_point"
    type {
      tensor_type {
        elem_type: 2
        shape {
        }
      }
    }
  }
  value_info {
    name: "efficientnet-lite4/model/blocks_29/tpu_batch_normalization/FusedBatchNormV3:0_scale"
    type {
      tensor_type {
        elem_type: 1
        shape {
        }
      }
    }
  }
  value_info {
    name: "efficientnet-lite4/model/blocks_29/conv2d/Conv2D_bias_fused_bn_scale"
    type {
      tensor_type {
        elem_type: 1
        shape {
          dim {
            dim_value: 1
          }
        }
      }
    }
  }
  value_info {
    name: "efficientnet-lite4/model/blocks_29/conv2d/Conv2D_bias_fused_bn_zero_point"
    type {
      tensor_type {
        elem_type: 6
        shape {
          dim {
            dim_value: 1
          }
        }
      }
    }
  }
  value_info {
    name: "efficientnet-lite4/model/blocks_29/depthwise_conv2d/depthwise_weights_fused_bn_scale"
    type {
      tensor_type {
        elem_type: 1
        shape {
        }
      }
    }
  }
  value_info {
    name: "efficientnet-lite4/model/blocks_29/depthwise_conv2d/depthwise_weights_fused_bn_zero_point"
    type {
      tensor_type {
        elem_type: 3
        shape {
        }
      }
    }
  }
  value_info {
    name: "efficientnet-lite4/model/blocks_29/tpu_batch_normalization_1/FusedBatchNormV3:0_zero_point"
    type {
      tensor_type {
        elem_type: 2
        shape {
        }
      }
    }
  }
  value_info {
    name: "efficientnet-lite4/model/blocks_29/tpu_batch_normalization_1/FusedBatchNormV3:0_scale"
    type {
      tensor_type {
        elem_type: 1
        shape {
        }
      }
    }
  }
  value_info {
    name: "efficientnet-lite4/model/blocks_29/depthwise_conv2d/depthwise_bias_fused_bn_scale"
    type {
      tensor_type {
        elem_type: 1
        shape {
          dim {
            dim_value: 1
          }
        }
      }
    }
  }
  value_info {
    name: "efficientnet-lite4/model/blocks_29/depthwise_conv2d/depthwise_bias_fused_bn_zero_point"
    type {
      tensor_type {
        elem_type: 6
        shape {
          dim {
            dim_value: 1
          }
        }
      }
    }
  }
  value_info {
    name: "efficientnet-lite4/model/blocks_29/conv2d_1/Conv2D_weights_fused_bn_scale"
    type {
      tensor_type {
        elem_type: 1
        shape {
        }
      }
    }
  }
  value_info {
    name: "efficientnet-lite4/model/blocks_29/conv2d_1/Conv2D_weights_fused_bn_zero_point"
    type {
      tensor_type {
        elem_type: 3
        shape {
        }
      }
    }
  }
  value_info {
    name: "efficientnet-lite4/model/blocks_29/tpu_batch_normalization_2/FusedBatchNormV3:0_zero_point"
    type {
      tensor_type {
        elem_type: 2
        shape {
        }
      }
    }
  }
  value_info {
    name: "efficientnet-lite4/model/blocks_29/tpu_batch_normalization_2/FusedBatchNormV3:0_scale"
    type {
      tensor_type {
        elem_type: 1
        shape {
        }
      }
    }
  }
  value_info {
    name: "efficientnet-lite4/model/blocks_29/conv2d_1/Conv2D_bias_fused_bn_scale"
    type {
      tensor_type {
        elem_type: 1
        shape {
          dim {
            dim_value: 1
          }
        }
      }
    }
  }
  value_info {
    name: "efficientnet-lite4/model/blocks_29/conv2d_1/Conv2D_bias_fused_bn_zero_point"
    type {
      tensor_type {
        elem_type: 6
        shape {
          dim {
            dim_value: 1
          }
        }
      }
    }
  }
  value_info {
    name: "ConvBnFusion_W_efficientnet-lite4/model/head/conv2d/Conv2D/ReadVariableOp:0_scale"
    type {
      tensor_type {
        elem_type: 1
        shape {
        }
      }
    }
  }
  value_info {
    name: "ConvBnFusion_W_efficientnet-lite4/model/head/conv2d/Conv2D/ReadVariableOp:0_zero_point"
    type {
      tensor_type {
        elem_type: 3
        shape {
        }
      }
    }
  }
  value_info {
    name: "efficientnet-lite4/model/head/tpu_batch_normalization/FusedBatchNormV3:0_zero_point"
    type {
      tensor_type {
        elem_type: 2
        shape {
        }
      }
    }
  }
  value_info {
    name: "efficientnet-lite4/model/head/tpu_batch_normalization/FusedBatchNormV3:0_scale"
    type {
      tensor_type {
        elem_type: 1
        shape {
        }
      }
    }
  }
  value_info {
    name: "ConvBnFusion_BN_B_efficientnet-lite4/model/head/tpu_batch_normalization/ReadVariableOp_1:0_scale"
    type {
      tensor_type {
        elem_type: 1
        shape {
          dim {
            dim_value: 1
          }
        }
      }
    }
  }
  value_info {
    name: "ConvBnFusion_BN_B_efficientnet-lite4/model/head/tpu_batch_normalization/ReadVariableOp_1:0_zero_point"
    type {
      tensor_type {
        elem_type: 6
        shape {
          dim {
            dim_value: 1
          }
        }
      }
    }
  }
  value_info {
    name: "efficientnet-lite4/model/head/AvgPool:0_zero_point"
    type {
      tensor_type {
        elem_type: 2
        shape {
        }
      }
    }
  }
  value_info {
    name: "efficientnet-lite4/model/head/AvgPool:0_scale"
    type {
      tensor_type {
        elem_type: 1
        shape {
        }
      }
    }
  }
  value_info {
    name: "efficientnet-lite4/model/head/dense/MatMul/ReadVariableOp:0_scale"
    type {
      tensor_type {
        elem_type: 1
        shape {
        }
      }
    }
  }
  value_info {
    name: "efficientnet-lite4/model/head/dense/MatMul/ReadVariableOp:0_zero_point"
    type {
      tensor_type {
        elem_type: 3
        shape {
        }
      }
    }
  }
  value_info {
    name: "efficientnet-lite4/model/head/dense/BiasAdd:0_MatMul_zero_point"
    type {
      tensor_type {
        elem_type: 2
        shape {
        }
      }
    }
  }
  value_info {
    name: "efficientnet-lite4/model/head/dense/BiasAdd:0_MatMul_scale"
    type {
      tensor_type {
        elem_type: 1
        shape {
        }
      }
    }
  }
  value_info {
    name: "efficientnet-lite4/model/stem/conv2d/Conv2D__5:0"
    type {
      tensor_type {
        elem_type: 1
        shape {
          dim {
            dim_value: 1
          }
          dim {
            dim_value: 3
          }
          dim {
            dim_value: 224
          }
          dim {
            dim_value: 224
          }
        }
      }
    }
  }
  value_info {
    name: "efficientnet-lite4/model/blocks_1/tpu_batch_normalization_2/FusedBatchNormV3:0"
    type {
      tensor_type {
        elem_type: 1
        shape {
          dim {
            dim_value: 1
          }
          dim {
            dim_value: 32
          }
          dim {
            dim_value: 56
          }
          dim {
            dim_value: 56
          }
        }
      }
    }
  }
  value_info {
    name: "efficientnet-lite4/model/blocks_2/tpu_batch_normalization_2/FusedBatchNormV3:0"
    type {
      tensor_type {
        elem_type: 1
        shape {
          dim {
            dim_value: 1
          }
          dim {
            dim_value: 32
          }
          dim {
            dim_value: 56
          }
          dim {
            dim_value: 56
          }
        }
      }
    }
  }
  value_info {
    name: "efficientnet-lite4/model/blocks_2/Add:0"
    type {
      tensor_type {
        elem_type: 1
        shape {
          dim {
            dim_value: 1
          }
          dim {
            dim_value: 32
          }
          dim {
            dim_value: 56
          }
          dim {
            dim_value: 56
          }
        }
      }
    }
  }
  value_info {
    name: "efficientnet-lite4/model/blocks_3/tpu_batch_normalization_2/FusedBatchNormV3:0"
    type {
      tensor_type {
        elem_type: 1
        shape {
          dim {
            dim_value: 1
          }
          dim {
            dim_value: 32
          }
          dim {
            dim_value: 56
          }
          dim {
            dim_value: 56
          }
        }
      }
    }
  }
  value_info {
    name: "efficientnet-lite4/model/blocks_3/Add:0"
    type {
      tensor_type {
        elem_type: 1
        shape {
          dim {
            dim_value: 1
          }
          dim {
            dim_value: 32
          }
          dim {
            dim_value: 56
          }
          dim {
            dim_value: 56
          }
        }
      }
    }
  }
  value_info {
    name: "efficientnet-lite4/model/blocks_4/tpu_batch_normalization_2/FusedBatchNormV3:0"
    type {
      tensor_type {
        elem_type: 1
        shape {
          dim {
            dim_value: 1
          }
          dim {
            dim_value: 32
          }
          dim {
            dim_value: 56
          }
          dim {
            dim_value: 56
          }
        }
      }
    }
  }
  value_info {
    name: "efficientnet-lite4/model/blocks_4/Add:0"
    type {
      tensor_type {
        elem_type: 1
        shape {
          dim {
            dim_value: 1
          }
          dim {
            dim_value: 32
          }
          dim {
            dim_value: 56
          }
          dim {
            dim_value: 56
          }
        }
      }
    }
  }
  value_info {
    name: "efficientnet-lite4/model/blocks_5/tpu_batch_normalization_2/FusedBatchNormV3:0"
    type {
      tensor_type {
        elem_type: 1
        shape {
          dim {
            dim_value: 1
          }
          dim {
            dim_value: 56
          }
          dim {
            dim_value: 28
          }
          dim {
            dim_value: 28
          }
        }
      }
    }
  }
  value_info {
    name: "efficientnet-lite4/model/blocks_6/tpu_batch_normalization_2/FusedBatchNormV3:0"
    type {
      tensor_type {
        elem_type: 1
        shape {
          dim {
            dim_value: 1
          }
          dim {
            dim_value: 56
          }
          dim {
            dim_value: 28
          }
          dim {
            dim_value: 28
          }
        }
      }
    }
  }
  value_info {
    name: "efficientnet-lite4/model/blocks_6/Add:0"
    type {
      tensor_type {
        elem_type: 1
        shape {
          dim {
            dim_value: 1
          }
          dim {
            dim_value: 56
          }
          dim {
            dim_value: 28
          }
          dim {
            dim_value: 28
          }
        }
      }
    }
  }
  value_info {
    name: "efficientnet-lite4/model/blocks_7/tpu_batch_normalization_2/FusedBatchNormV3:0"
    type {
      tensor_type {
        elem_type: 1
        shape {
          dim {
            dim_value: 1
          }
          dim {
            dim_value: 56
          }
          dim {
            dim_value: 28
          }
          dim {
            dim_value: 28
          }
        }
      }
    }
  }
  value_info {
    name: "efficientnet-lite4/model/blocks_7/Add:0"
    type {
      tensor_type {
        elem_type: 1
        shape {
          dim {
            dim_value: 1
          }
          dim {
            dim_value: 56
          }
          dim {
            dim_value: 28
          }
          dim {
            dim_value: 28
          }
        }
      }
    }
  }
  value_info {
    name: "efficientnet-lite4/model/blocks_8/tpu_batch_normalization_2/FusedBatchNormV3:0"
    type {
      tensor_type {
        elem_type: 1
        shape {
          dim {
            dim_value: 1
          }
          dim {
            dim_value: 56
          }
          dim {
            dim_value: 28
          }
          dim {
            dim_value: 28
          }
        }
      }
    }
  }
  value_info {
    name: "efficientnet-lite4/model/blocks_8/Add:0"
    type {
      tensor_type {
        elem_type: 1
        shape {
          dim {
            dim_value: 1
          }
          dim {
            dim_value: 56
          }
          dim {
            dim_value: 28
          }
          dim {
            dim_value: 28
          }
        }
      }
    }
  }
  value_info {
    name: "efficientnet-lite4/model/blocks_9/tpu_batch_normalization_2/FusedBatchNormV3:0"
    type {
      tensor_type {
        elem_type: 1
        shape {
          dim {
            dim_value: 1
          }
          dim {
            dim_value: 112
          }
          dim {
            dim_value: 14
          }
          dim {
            dim_value: 14
          }
        }
      }
    }
  }
  value_info {
    name: "efficientnet-lite4/model/blocks_10/tpu_batch_normalization_2/FusedBatchNormV3:0"
    type {
      tensor_type {
        elem_type: 1
        shape {
          dim {
            dim_value: 1
          }
          dim {
            dim_value: 112
          }
          dim {
            dim_value: 14
          }
          dim {
            dim_value: 14
          }
        }
      }
    }
  }
  value_info {
    name: "efficientnet-lite4/model/blocks_10/Add:0"
    type {
      tensor_type {
        elem_type: 1
        shape {
          dim {
            dim_value: 1
          }
          dim {
            dim_value: 112
          }
          dim {
            dim_value: 14
          }
          dim {
            dim_value: 14
          }
        }
      }
    }
  }
  value_info {
    name: "efficientnet-lite4/model/blocks_11/tpu_batch_normalization_2/FusedBatchNormV3:0"
    type {
      tensor_type {
        elem_type: 1
        shape {
          dim {
            dim_value: 1
          }
          dim {
            dim_value: 112
          }
          dim {
            dim_value: 14
          }
          dim {
            dim_value: 14
          }
        }
      }
    }
  }
  value_info {
    name: "efficientnet-lite4/model/blocks_11/Add:0"
    type {
      tensor_type {
        elem_type: 1
        shape {
          dim {
            dim_value: 1
          }
          dim {
            dim_value: 112
          }
          dim {
            dim_value: 14
          }
          dim {
            dim_value: 14
          }
        }
      }
    }
  }
  value_info {
    name: "efficientnet-lite4/model/blocks_12/tpu_batch_normalization_2/FusedBatchNormV3:0"
    type {
      tensor_type {
        elem_type: 1
        shape {
          dim {
            dim_value: 1
          }
          dim {
            dim_value: 112
          }
          dim {
            dim_value: 14
          }
          dim {
            dim_value: 14
          }
        }
      }
    }
  }
  value_info {
    name: "efficientnet-lite4/model/blocks_12/Add:0"
    type {
      tensor_type {
        elem_type: 1
        shape {
          dim {
            dim_value: 1
          }
          dim {
            dim_value: 112
          }
          dim {
            dim_value: 14
          }
          dim {
            dim_value: 14
          }
        }
      }
    }
  }
  value_info {
    name: "efficientnet-lite4/model/blocks_13/tpu_batch_normalization_2/FusedBatchNormV3:0"
    type {
      tensor_type {
        elem_type: 1
        shape {
          dim {
            dim_value: 1
          }
          dim {
            dim_value: 112
          }
          dim {
            dim_value: 14
          }
          dim {
            dim_value: 14
          }
        }
      }
    }
  }
  value_info {
    name: "efficientnet-lite4/model/blocks_13/Add:0"
    type {
      tensor_type {
        elem_type: 1
        shape {
          dim {
            dim_value: 1
          }
          dim {
            dim_value: 112
          }
          dim {
            dim_value: 14
          }
          dim {
            dim_value: 14
          }
        }
      }
    }
  }
  value_info {
    name: "efficientnet-lite4/model/blocks_14/tpu_batch_normalization_2/FusedBatchNormV3:0"
    type {
      tensor_type {
        elem_type: 1
        shape {
          dim {
            dim_value: 1
          }
          dim {
            dim_value: 112
          }
          dim {
            dim_value: 14
          }
          dim {
            dim_value: 14
          }
        }
      }
    }
  }
  value_info {
    name: "efficientnet-lite4/model/blocks_14/Add:0"
    type {
      tensor_type {
        elem_type: 1
        shape {
          dim {
            dim_value: 1
          }
          dim {
            dim_value: 112
          }
          dim {
            dim_value: 14
          }
          dim {
            dim_value: 14
          }
        }
      }
    }
  }
  value_info {
    name: "efficientnet-lite4/model/blocks_15/tpu_batch_normalization_2/FusedBatchNormV3:0"
    type {
      tensor_type {
        elem_type: 1
        shape {
          dim {
            dim_value: 1
          }
          dim {
            dim_value: 160
          }
          dim {
            dim_value: 14
          }
          dim {
            dim_value: 14
          }
        }
      }
    }
  }
  value_info {
    name: "efficientnet-lite4/model/blocks_16/tpu_batch_normalization_2/FusedBatchNormV3:0"
    type {
      tensor_type {
        elem_type: 1
        shape {
          dim {
            dim_value: 1
          }
          dim {
            dim_value: 160
          }
          dim {
            dim_value: 14
          }
          dim {
            dim_value: 14
          }
        }
      }
    }
  }
  value_info {
    name: "efficientnet-lite4/model/blocks_16/Add:0"
    type {
      tensor_type {
        elem_type: 1
        shape {
          dim {
            dim_value: 1
          }
          dim {
            dim_value: 160
          }
          dim {
            dim_value: 14
          }
          dim {
            dim_value: 14
          }
        }
      }
    }
  }
  value_info {
    name: "efficientnet-lite4/model/blocks_17/tpu_batch_normalization_2/FusedBatchNormV3:0"
    type {
      tensor_type {
        elem_type: 1
        shape {
          dim {
            dim_value: 1
          }
          dim {
            dim_value: 160
          }
          dim {
            dim_value: 14
          }
          dim {
            dim_value: 14
          }
        }
      }
    }
  }
  value_info {
    name: "efficientnet-lite4/model/blocks_17/Add:0"
    type {
      tensor_type {
        elem_type: 1
        shape {
          dim {
            dim_value: 1
          }
          dim {
            dim_value: 160
          }
          dim {
            dim_value: 14
          }
          dim {
            dim_value: 14
          }
        }
      }
    }
  }
  value_info {
    name: "efficientnet-lite4/model/blocks_18/tpu_batch_normalization_2/FusedBatchNormV3:0"
    type {
      tensor_type {
        elem_type: 1
        shape {
          dim {
            dim_value: 1
          }
          dim {
            dim_value: 160
          }
          dim {
            dim_value: 14
          }
          dim {
            dim_value: 14
          }
        }
      }
    }
  }
  value_info {
    name: "efficientnet-lite4/model/blocks_18/Add:0"
    type {
      tensor_type {
        elem_type: 1
        shape {
          dim {
            dim_value: 1
          }
          dim {
            dim_value: 160
          }
          dim {
            dim_value: 14
          }
          dim {
            dim_value: 14
          }
        }
      }
    }
  }
  value_info {
    name: "efficientnet-lite4/model/blocks_19/tpu_batch_normalization_2/FusedBatchNormV3:0"
    type {
      tensor_type {
        elem_type: 1
        shape {
          dim {
            dim_value: 1
          }
          dim {
            dim_value: 160
          }
          dim {
            dim_value: 14
          }
          dim {
            dim_value: 14
          }
        }
      }
    }
  }
  value_info {
    name: "efficientnet-lite4/model/blocks_19/Add:0"
    type {
      tensor_type {
        elem_type: 1
        shape {
          dim {
            dim_value: 1
          }
          dim {
            dim_value: 160
          }
          dim {
            dim_value: 14
          }
          dim {
            dim_value: 14
          }
        }
      }
    }
  }
  value_info {
    name: "efficientnet-lite4/model/blocks_20/tpu_batch_normalization_2/FusedBatchNormV3:0"
    type {
      tensor_type {
        elem_type: 1
        shape {
          dim {
            dim_value: 1
          }
          dim {
            dim_value: 160
          }
          dim {
            dim_value: 14
          }
          dim {
            dim_value: 14
          }
        }
      }
    }
  }
  value_info {
    name: "efficientnet-lite4/model/blocks_20/Add:0"
    type {
      tensor_type {
        elem_type: 1
        shape {
          dim {
            dim_value: 1
          }
          dim {
            dim_value: 160
          }
          dim {
            dim_value: 14
          }
          dim {
            dim_value: 14
          }
        }
      }
    }
  }
  value_info {
    name: "efficientnet-lite4/model/blocks_21/tpu_batch_normalization_2/FusedBatchNormV3:0"
    type {
      tensor_type {
        elem_type: 1
        shape {
          dim {
            dim_value: 1
          }
          dim {
            dim_value: 272
          }
          dim {
            dim_value: 7
          }
          dim {
            dim_value: 7
          }
        }
      }
    }
  }
  value_info {
    name: "efficientnet-lite4/model/blocks_22/tpu_batch_normalization_2/FusedBatchNormV3:0"
    type {
      tensor_type {
        elem_type: 1
        shape {
          dim {
            dim_value: 1
          }
          dim {
            dim_value: 272
          }
          dim {
            dim_value: 7
          }
          dim {
            dim_value: 7
          }
        }
      }
    }
  }
  value_info {
    name: "efficientnet-lite4/model/blocks_22/Add:0"
    type {
      tensor_type {
        elem_type: 1
        shape {
          dim {
            dim_value: 1
          }
          dim {
            dim_value: 272
          }
          dim {
            dim_value: 7
          }
          dim {
            dim_value: 7
          }
        }
      }
    }
  }
  value_info {
    name: "efficientnet-lite4/model/blocks_23/tpu_batch_normalization_2/FusedBatchNormV3:0"
    type {
      tensor_type {
        elem_type: 1
        shape {
          dim {
            dim_value: 1
          }
          dim {
            dim_value: 272
          }
          dim {
            dim_value: 7
          }
          dim {
            dim_value: 7
          }
        }
      }
    }
  }
  value_info {
    name: "efficientnet-lite4/model/blocks_23/Add:0"
    type {
      tensor_type {
        elem_type: 1
        shape {
          dim {
            dim_value: 1
          }
          dim {
            dim_value: 272
          }
          dim {
            dim_value: 7
          }
          dim {
            dim_value: 7
          }
        }
      }
    }
  }
  value_info {
    name: "efficientnet-lite4/model/blocks_24/tpu_batch_normalization_2/FusedBatchNormV3:0"
    type {
      tensor_type {
        elem_type: 1
        shape {
          dim {
            dim_value: 1
          }
          dim {
            dim_value: 272
          }
          dim {
            dim_value: 7
          }
          dim {
            dim_value: 7
          }
        }
      }
    }
  }
  value_info {
    name: "efficientnet-lite4/model/blocks_24/Add:0"
    type {
      tensor_type {
        elem_type: 1
        shape {
          dim {
            dim_value: 1
          }
          dim {
            dim_value: 272
          }
          dim {
            dim_value: 7
          }
          dim {
            dim_value: 7
          }
        }
      }
    }
  }
  value_info {
    name: "efficientnet-lite4/model/blocks_25/tpu_batch_normalization_2/FusedBatchNormV3:0"
    type {
      tensor_type {
        elem_type: 1
        shape {
          dim {
            dim_value: 1
          }
          dim {
            dim_value: 272
          }
          dim {
            dim_value: 7
          }
          dim {
            dim_value: 7
          }
        }
      }
    }
  }
  value_info {
    name: "efficientnet-lite4/model/blocks_25/Add:0"
    type {
      tensor_type {
        elem_type: 1
        shape {
          dim {
            dim_value: 1
          }
          dim {
            dim_value: 272
          }
          dim {
            dim_value: 7
          }
          dim {
            dim_value: 7
          }
        }
      }
    }
  }
  value_info {
    name: "efficientnet-lite4/model/blocks_26/tpu_batch_normalization_2/FusedBatchNormV3:0"
    type {
      tensor_type {
        elem_type: 1
        shape {
          dim {
            dim_value: 1
          }
          dim {
            dim_value: 272
          }
          dim {
            dim_value: 7
          }
          dim {
            dim_value: 7
          }
        }
      }
    }
  }
  value_info {
    name: "efficientnet-lite4/model/blocks_26/Add:0"
    type {
      tensor_type {
        elem_type: 1
        shape {
          dim {
            dim_value: 1
          }
          dim {
            dim_value: 272
          }
          dim {
            dim_value: 7
          }
          dim {
            dim_value: 7
          }
        }
      }
    }
  }
  value_info {
    name: "efficientnet-lite4/model/blocks_27/tpu_batch_normalization_2/FusedBatchNormV3:0"
    type {
      tensor_type {
        elem_type: 1
        shape {
          dim {
            dim_value: 1
          }
          dim {
            dim_value: 272
          }
          dim {
            dim_value: 7
          }
          dim {
            dim_value: 7
          }
        }
      }
    }
  }
  value_info {
    name: "efficientnet-lite4/model/blocks_27/Add:0"
    type {
      tensor_type {
        elem_type: 1
        shape {
          dim {
            dim_value: 1
          }
          dim {
            dim_value: 272
          }
          dim {
            dim_value: 7
          }
          dim {
            dim_value: 7
          }
        }
      }
    }
  }
  value_info {
    name: "efficientnet-lite4/model/blocks_28/tpu_batch_normalization_2/FusedBatchNormV3:0"
    type {
      tensor_type {
        elem_type: 1
        shape {
          dim {
            dim_value: 1
          }
          dim {
            dim_value: 272
          }
          dim {
            dim_value: 7
          }
          dim {
            dim_value: 7
          }
        }
      }
    }
  }
  value_info {
    name: "efficientnet-lite4/model/blocks_28/Add:0"
    type {
      tensor_type {
        elem_type: 1
        shape {
          dim {
            dim_value: 1
          }
          dim {
            dim_value: 272
          }
          dim {
            dim_value: 7
          }
          dim {
            dim_value: 7
          }
        }
      }
    }
  }
  value_info {
    name: "efficientnet-lite4/model/head/dense/BiasAdd:0_MatMul"
    type {
      tensor_type {
        elem_type: 1
        shape {
          dim {
            dim_value: 1
          }
          dim {
            dim_value: 1000
          }
        }
      }
    }
  }
  value_info {
    name: "efficientnet-lite4/model/head/dense/BiasAdd:0"
    type {
      tensor_type {
        elem_type: 1
        shape {
          dim {
            dim_value: 1
          }
          dim {
            dim_value: 1000
          }
        }
      }
    }
  }
}
opset_import {
  domain: ""
  version: 11
}
opset_import {
  domain: "ai.onnx.preview.training"
  version: 1
}
opset_import {
  domain: "ai.onnx.training"
  version: 1
}
opset_import {
  domain: "com.ms.internal.nhwc"
  version: 1
}
opset_import {
  domain: "org.pytorch.aten"
  version: 1
}
opset_import {
  domain: "com.microsoft"
  version: 1
}
opset_import {
  domain: "ai.onnx.contrib"
  version: 1000
}
opset_import {
  domain: "com.microsoft.nchwc"
  version: 1
}
opset_import {
  domain: "com.microsoft.experimental"
  version: 1
}
opset_import {
  domain: "ai.onnx.ml"
  version: 3
}
