ir_version: 6
producer_name: "tf2onnx"
producer_version: "1.7.0"
graph {
  node {
    input: "images:0"
    output: "efficientnet-lite4/model/stem/conv2d/Conv2D__5:0"
    name: "efficientnet-lite4/model/stem/conv2d/Conv2D__5"
    op_type: "Transpose"
    attribute {
      name: "perm"
      ints: 0
      ints: 3
      ints: 1
      ints: 2
      type: INTS
    }
  }
  node {
    input: "efficientnet-lite4/model/stem/conv2d/Conv2D__5:0"
    input: "efficientnet-lite4/model/stem/conv2d/Conv2D_weights_fused_bn"
    input: "efficientnet-lite4/model/stem/conv2d/Conv2D_bias_fused_bn"
    output: "efficientnet-lite4/model/stem/tpu_batch_normalization/FusedBatchNormV3:0"
    name: "efficientnet-lite4/model/stem/conv2d/Conv2D"
    op_type: "Conv"
    attribute {
      name: "dilations"
      ints: 1
      ints: 1
      type: INTS
    }
    attribute {
      name: "strides"
      ints: 2
      ints: 2
      type: INTS
    }
    attribute {
      name: "kernel_shape"
      ints: 3
      ints: 3
      type: INTS
    }
    attribute {
      name: "pads"
      ints: 0
      ints: 0
      ints: 1
      ints: 1
      type: INTS
    }
  }
  node {
    input: "efficientnet-lite4/model/stem/tpu_batch_normalization/FusedBatchNormV3:0"
    input: "efficientnet-lite4/model/blocks_29/Relu6_1_min__569"
    input: "efficientnet-lite4/model/blocks_19/Relu6_1_max__380"
    output: "efficientnet-lite4/model/stem/Relu6:0"
    name: "efficientnet-lite4/model/stem/Relu6"
    op_type: "Clip"
  }
  node {
    input: "efficientnet-lite4/model/stem/Relu6:0"
    input: "efficientnet-lite4/model/blocks_0/depthwise_conv2d/depthwise_weights_fused_bn"
    input: "efficientnet-lite4/model/blocks_0/depthwise_conv2d/depthwise_bias_fused_bn"
    output: "efficientnet-lite4/model/blocks_0/tpu_batch_normalization/FusedBatchNormV3:0"
    name: "efficientnet-lite4/model/blocks_0/depthwise_conv2d/depthwise"
    op_type: "Conv"
    attribute {
      name: "dilations"
      ints: 1
      ints: 1
      type: INTS
    }
    attribute {
      name: "strides"
      ints: 1
      ints: 1
      type: INTS
    }
    attribute {
      name: "kernel_shape"
      ints: 3
      ints: 3
      type: INTS
    }
    attribute {
      name: "group"
      i: 32
      type: INT
    }
    attribute {
      name: "pads"
      ints: 1
      ints: 1
      ints: 1
      ints: 1
      type: INTS
    }
  }
  node {
    input: "efficientnet-lite4/model/blocks_0/tpu_batch_normalization/FusedBatchNormV3:0"
    input: "efficientnet-lite4/model/blocks_29/Relu6_1_min__569"
    input: "efficientnet-lite4/model/blocks_19/Relu6_1_max__380"
    output: "efficientnet-lite4/model/blocks_0/Relu6:0"
    name: "efficientnet-lite4/model/blocks_0/Relu6"
    op_type: "Clip"
  }
  node {
    input: "efficientnet-lite4/model/blocks_0/Relu6:0"
    input: "efficientnet-lite4/model/blocks_0/conv2d/Conv2D_weights_fused_bn"
    input: "efficientnet-lite4/model/blocks_0/conv2d/Conv2D_bias_fused_bn"
    output: "efficientnet-lite4/model/blocks_0/tpu_batch_normalization_1/FusedBatchNormV3:0"
    name: "efficientnet-lite4/model/blocks_0/conv2d/Conv2D"
    op_type: "Conv"
    attribute {
      name: "dilations"
      ints: 1
      ints: 1
      type: INTS
    }
    attribute {
      name: "strides"
      ints: 1
      ints: 1
      type: INTS
    }
    attribute {
      name: "kernel_shape"
      ints: 1
      ints: 1
      type: INTS
    }
    attribute {
      name: "pads"
      ints: 0
      ints: 0
      ints: 0
      ints: 0
      type: INTS
    }
  }
  node {
    input: "efficientnet-lite4/model/blocks_0/tpu_batch_normalization_1/FusedBatchNormV3:0"
    input: "efficientnet-lite4/model/blocks_1/conv2d/Conv2D/ReadVariableOp:0"
    output: "efficientnet-lite4/model/blocks_1/conv2d/Conv2D:0"
    name: "efficientnet-lite4/model/blocks_1/conv2d/Conv2D"
    op_type: "Conv"
    attribute {
      name: "dilations"
      ints: 1
      ints: 1
      type: INTS
    }
    attribute {
      name: "strides"
      ints: 1
      ints: 1
      type: INTS
    }
    attribute {
      name: "kernel_shape"
      ints: 1
      ints: 1
      type: INTS
    }
    attribute {
      name: "pads"
      ints: 0
      ints: 0
      ints: 0
      ints: 0
      type: INTS
    }
  }
  node {
    input: "efficientnet-lite4/model/blocks_1/conv2d/Conv2D:0"
    input: "efficientnet-lite4/model/blocks_1/tpu_batch_normalization/ReadVariableOp:0"
    input: "efficientnet-lite4/model/blocks_1/tpu_batch_normalization/ReadVariableOp_1:0"
    input: "efficientnet-lite4/model/blocks_1/tpu_batch_normalization/FusedBatchNormV3/ReadVariableOp:0"
    input: "efficientnet-lite4/model/blocks_1/tpu_batch_normalization/FusedBatchNormV3/ReadVariableOp_1:0"
    output: "efficientnet-lite4/model/blocks_1/tpu_batch_normalization/FusedBatchNormV3:0"
    name: "efficientnet-lite4/model/blocks_1/tpu_batch_normalization/FusedBatchNormV3"
    op_type: "BatchNormalization"
    attribute {
      name: "epsilon"
      f: 0.001
      type: FLOAT
    }
  }
  node {
    input: "efficientnet-lite4/model/blocks_1/tpu_batch_normalization/FusedBatchNormV3:0"
    input: "efficientnet-lite4/model/blocks_29/Relu6_1_min__569"
    input: "efficientnet-lite4/model/blocks_19/Relu6_1_max__380"
    output: "efficientnet-lite4/model/blocks_1/Relu6:0"
    name: "efficientnet-lite4/model/blocks_1/Relu6"
    op_type: "Clip"
  }
  node {
    input: "efficientnet-lite4/model/blocks_1/Relu6:0"
    input: "efficientnet-lite4/model/blocks_1/depthwise_conv2d/depthwise_weights_fused_bn"
    input: "efficientnet-lite4/model/blocks_1/depthwise_conv2d/depthwise_bias_fused_bn"
    output: "efficientnet-lite4/model/blocks_1/tpu_batch_normalization_1/FusedBatchNormV3:0"
    name: "efficientnet-lite4/model/blocks_1/depthwise_conv2d/depthwise"
    op_type: "Conv"
    attribute {
      name: "dilations"
      ints: 1
      ints: 1
      type: INTS
    }
    attribute {
      name: "strides"
      ints: 2
      ints: 2
      type: INTS
    }
    attribute {
      name: "kernel_shape"
      ints: 3
      ints: 3
      type: INTS
    }
    attribute {
      name: "group"
      i: 144
      type: INT
    }
    attribute {
      name: "pads"
      ints: 0
      ints: 0
      ints: 1
      ints: 1
      type: INTS
    }
  }
  node {
    input: "efficientnet-lite4/model/blocks_1/tpu_batch_normalization_1/FusedBatchNormV3:0"
    input: "efficientnet-lite4/model/blocks_29/Relu6_1_min__569"
    input: "efficientnet-lite4/model/blocks_19/Relu6_1_max__380"
    output: "efficientnet-lite4/model/blocks_1/Relu6_1:0"
    name: "efficientnet-lite4/model/blocks_1/Relu6_1"
    op_type: "Clip"
  }
  node {
    input: "efficientnet-lite4/model/blocks_1/Relu6_1:0"
    input: "efficientnet-lite4/model/blocks_1/conv2d_1/Conv2D_weights_fused_bn"
    input: "efficientnet-lite4/model/blocks_1/conv2d_1/Conv2D_bias_fused_bn"
    output: "efficientnet-lite4/model/blocks_1/tpu_batch_normalization_2/FusedBatchNormV3:0"
    name: "efficientnet-lite4/model/blocks_1/conv2d_1/Conv2D"
    op_type: "Conv"
    attribute {
      name: "dilations"
      ints: 1
      ints: 1
      type: INTS
    }
    attribute {
      name: "strides"
      ints: 1
      ints: 1
      type: INTS
    }
    attribute {
      name: "kernel_shape"
      ints: 1
      ints: 1
      type: INTS
    }
    attribute {
      name: "pads"
      ints: 0
      ints: 0
      ints: 0
      ints: 0
      type: INTS
    }
  }
  node {
    input: "efficientnet-lite4/model/blocks_1/tpu_batch_normalization_2/FusedBatchNormV3:0"
    input: "efficientnet-lite4/model/blocks_2/conv2d/Conv2D/ReadVariableOp:0"
    output: "efficientnet-lite4/model/blocks_2/conv2d/Conv2D:0"
    name: "efficientnet-lite4/model/blocks_2/conv2d/Conv2D"
    op_type: "Conv"
    attribute {
      name: "dilations"
      ints: 1
      ints: 1
      type: INTS
    }
    attribute {
      name: "strides"
      ints: 1
      ints: 1
      type: INTS
    }
    attribute {
      name: "kernel_shape"
      ints: 1
      ints: 1
      type: INTS
    }
    attribute {
      name: "pads"
      ints: 0
      ints: 0
      ints: 0
      ints: 0
      type: INTS
    }
  }
  node {
    input: "efficientnet-lite4/model/blocks_2/conv2d/Conv2D:0"
    input: "efficientnet-lite4/model/blocks_2/tpu_batch_normalization/ReadVariableOp:0"
    input: "efficientnet-lite4/model/blocks_2/tpu_batch_normalization/ReadVariableOp_1:0"
    input: "efficientnet-lite4/model/blocks_2/tpu_batch_normalization/FusedBatchNormV3/ReadVariableOp:0"
    input: "efficientnet-lite4/model/blocks_2/tpu_batch_normalization/FusedBatchNormV3/ReadVariableOp_1:0"
    output: "efficientnet-lite4/model/blocks_2/tpu_batch_normalization/FusedBatchNormV3:0"
    name: "efficientnet-lite4/model/blocks_2/tpu_batch_normalization/FusedBatchNormV3"
    op_type: "BatchNormalization"
    attribute {
      name: "epsilon"
      f: 0.001
      type: FLOAT
    }
  }
  node {
    input: "efficientnet-lite4/model/blocks_2/tpu_batch_normalization/FusedBatchNormV3:0"
    input: "efficientnet-lite4/model/blocks_29/Relu6_1_min__569"
    input: "efficientnet-lite4/model/blocks_19/Relu6_1_max__380"
    output: "efficientnet-lite4/model/blocks_2/Relu6:0"
    name: "efficientnet-lite4/model/blocks_2/Relu6"
    op_type: "Clip"
  }
  node {
    input: "efficientnet-lite4/model/blocks_2/Relu6:0"
    input: "efficientnet-lite4/model/blocks_2/depthwise_conv2d/depthwise_weights_fused_bn"
    input: "efficientnet-lite4/model/blocks_2/depthwise_conv2d/depthwise_bias_fused_bn"
    output: "efficientnet-lite4/model/blocks_2/tpu_batch_normalization_1/FusedBatchNormV3:0"
    name: "efficientnet-lite4/model/blocks_2/depthwise_conv2d/depthwise"
    op_type: "Conv"
    attribute {
      name: "dilations"
      ints: 1
      ints: 1
      type: INTS
    }
    attribute {
      name: "strides"
      ints: 1
      ints: 1
      type: INTS
    }
    attribute {
      name: "kernel_shape"
      ints: 3
      ints: 3
      type: INTS
    }
    attribute {
      name: "group"
      i: 192
      type: INT
    }
    attribute {
      name: "pads"
      ints: 1
      ints: 1
      ints: 1
      ints: 1
      type: INTS
    }
  }
  node {
    input: "efficientnet-lite4/model/blocks_2/tpu_batch_normalization_1/FusedBatchNormV3:0"
    input: "efficientnet-lite4/model/blocks_29/Relu6_1_min__569"
    input: "efficientnet-lite4/model/blocks_19/Relu6_1_max__380"
    output: "efficientnet-lite4/model/blocks_2/Relu6_1:0"
    name: "efficientnet-lite4/model/blocks_2/Relu6_1"
    op_type: "Clip"
  }
  node {
    input: "efficientnet-lite4/model/blocks_2/Relu6_1:0"
    input: "efficientnet-lite4/model/blocks_2/conv2d_1/Conv2D_weights_fused_bn"
    input: "efficientnet-lite4/model/blocks_2/conv2d_1/Conv2D_bias_fused_bn"
    output: "efficientnet-lite4/model/blocks_2/tpu_batch_normalization_2/FusedBatchNormV3:0"
    name: "efficientnet-lite4/model/blocks_2/conv2d_1/Conv2D"
    op_type: "Conv"
    attribute {
      name: "dilations"
      ints: 1
      ints: 1
      type: INTS
    }
    attribute {
      name: "strides"
      ints: 1
      ints: 1
      type: INTS
    }
    attribute {
      name: "kernel_shape"
      ints: 1
      ints: 1
      type: INTS
    }
    attribute {
      name: "pads"
      ints: 0
      ints: 0
      ints: 0
      ints: 0
      type: INTS
    }
  }
  node {
    input: "efficientnet-lite4/model/blocks_2/tpu_batch_normalization_2/FusedBatchNormV3:0"
    input: "efficientnet-lite4/model/blocks_1/tpu_batch_normalization_2/FusedBatchNormV3:0"
    output: "efficientnet-lite4/model/blocks_2/Add:0"
    name: "efficientnet-lite4/model/blocks_2/Add"
    op_type: "Add"
  }
  node {
    input: "efficientnet-lite4/model/blocks_2/Add:0"
    input: "efficientnet-lite4/model/blocks_3/conv2d/Conv2D_weights_fused_bn"
    input: "efficientnet-lite4/model/blocks_3/conv2d/Conv2D_bias_fused_bn"
    output: "efficientnet-lite4/model/blocks_3/tpu_batch_normalization/FusedBatchNormV3:0"
    name: "efficientnet-lite4/model/blocks_3/conv2d/Conv2D"
    op_type: "Conv"
    attribute {
      name: "dilations"
      ints: 1
      ints: 1
      type: INTS
    }
    attribute {
      name: "strides"
      ints: 1
      ints: 1
      type: INTS
    }
    attribute {
      name: "kernel_shape"
      ints: 1
      ints: 1
      type: INTS
    }
    attribute {
      name: "pads"
      ints: 0
      ints: 0
      ints: 0
      ints: 0
      type: INTS
    }
  }
  node {
    input: "efficientnet-lite4/model/blocks_3/tpu_batch_normalization/FusedBatchNormV3:0"
    input: "efficientnet-lite4/model/blocks_29/Relu6_1_min__569"
    input: "efficientnet-lite4/model/blocks_19/Relu6_1_max__380"
    output: "efficientnet-lite4/model/blocks_3/Relu6:0"
    name: "efficientnet-lite4/model/blocks_3/Relu6"
    op_type: "Clip"
  }
  node {
    input: "efficientnet-lite4/model/blocks_3/Relu6:0"
    input: "efficientnet-lite4/model/blocks_3/depthwise_conv2d/depthwise_weights_fused_bn"
    input: "efficientnet-lite4/model/blocks_3/depthwise_conv2d/depthwise_bias_fused_bn"
    output: "efficientnet-lite4/model/blocks_3/tpu_batch_normalization_1/FusedBatchNormV3:0"
    name: "efficientnet-lite4/model/blocks_3/depthwise_conv2d/depthwise"
    op_type: "Conv"
    attribute {
      name: "dilations"
      ints: 1
      ints: 1
      type: INTS
    }
    attribute {
      name: "strides"
      ints: 1
      ints: 1
      type: INTS
    }
    attribute {
      name: "kernel_shape"
      ints: 3
      ints: 3
      type: INTS
    }
    attribute {
      name: "group"
      i: 192
      type: INT
    }
    attribute {
      name: "pads"
      ints: 1
      ints: 1
      ints: 1
      ints: 1
      type: INTS
    }
  }
  node {
    input: "efficientnet-lite4/model/blocks_3/tpu_batch_normalization_1/FusedBatchNormV3:0"
    input: "efficientnet-lite4/model/blocks_29/Relu6_1_min__569"
    input: "efficientnet-lite4/model/blocks_19/Relu6_1_max__380"
    output: "efficientnet-lite4/model/blocks_3/Relu6_1:0"
    name: "efficientnet-lite4/model/blocks_3/Relu6_1"
    op_type: "Clip"
  }
  node {
    input: "efficientnet-lite4/model/blocks_3/Relu6_1:0"
    input: "efficientnet-lite4/model/blocks_3/conv2d_1/Conv2D_weights_fused_bn"
    input: "efficientnet-lite4/model/blocks_3/conv2d_1/Conv2D_bias_fused_bn"
    output: "efficientnet-lite4/model/blocks_3/tpu_batch_normalization_2/FusedBatchNormV3:0"
    name: "efficientnet-lite4/model/blocks_3/conv2d_1/Conv2D"
    op_type: "Conv"
    attribute {
      name: "dilations"
      ints: 1
      ints: 1
      type: INTS
    }
    attribute {
      name: "strides"
      ints: 1
      ints: 1
      type: INTS
    }
    attribute {
      name: "kernel_shape"
      ints: 1
      ints: 1
      type: INTS
    }
    attribute {
      name: "pads"
      ints: 0
      ints: 0
      ints: 0
      ints: 0
      type: INTS
    }
  }
  node {
    input: "efficientnet-lite4/model/blocks_3/tpu_batch_normalization_2/FusedBatchNormV3:0"
    input: "efficientnet-lite4/model/blocks_2/Add:0"
    output: "efficientnet-lite4/model/blocks_3/Add:0"
    name: "efficientnet-lite4/model/blocks_3/Add"
    op_type: "Add"
  }
  node {
    input: "efficientnet-lite4/model/blocks_3/Add:0"
    input: "efficientnet-lite4/model/blocks_4/conv2d/Conv2D_weights_fused_bn"
    input: "efficientnet-lite4/model/blocks_4/conv2d/Conv2D_bias_fused_bn"
    output: "efficientnet-lite4/model/blocks_4/tpu_batch_normalization/FusedBatchNormV3:0"
    name: "efficientnet-lite4/model/blocks_4/conv2d/Conv2D"
    op_type: "Conv"
    attribute {
      name: "dilations"
      ints: 1
      ints: 1
      type: INTS
    }
    attribute {
      name: "strides"
      ints: 1
      ints: 1
      type: INTS
    }
    attribute {
      name: "kernel_shape"
      ints: 1
      ints: 1
      type: INTS
    }
    attribute {
      name: "pads"
      ints: 0
      ints: 0
      ints: 0
      ints: 0
      type: INTS
    }
  }
  node {
    input: "efficientnet-lite4/model/blocks_4/tpu_batch_normalization/FusedBatchNormV3:0"
    input: "efficientnet-lite4/model/blocks_29/Relu6_1_min__569"
    input: "efficientnet-lite4/model/blocks_19/Relu6_1_max__380"
    output: "efficientnet-lite4/model/blocks_4/Relu6:0"
    name: "efficientnet-lite4/model/blocks_4/Relu6"
    op_type: "Clip"
  }
  node {
    input: "efficientnet-lite4/model/blocks_4/Relu6:0"
    input: "efficientnet-lite4/model/blocks_4/depthwise_conv2d/depthwise_weights_fused_bn"
    input: "efficientnet-lite4/model/blocks_4/depthwise_conv2d/depthwise_bias_fused_bn"
    output: "efficientnet-lite4/model/blocks_4/tpu_batch_normalization_1/FusedBatchNormV3:0"
    name: "efficientnet-lite4/model/blocks_4/depthwise_conv2d/depthwise"
    op_type: "Conv"
    attribute {
      name: "dilations"
      ints: 1
      ints: 1
      type: INTS
    }
    attribute {
      name: "strides"
      ints: 1
      ints: 1
      type: INTS
    }
    attribute {
      name: "kernel_shape"
      ints: 3
      ints: 3
      type: INTS
    }
    attribute {
      name: "group"
      i: 192
      type: INT
    }
    attribute {
      name: "pads"
      ints: 1
      ints: 1
      ints: 1
      ints: 1
      type: INTS
    }
  }
  node {
    input: "efficientnet-lite4/model/blocks_4/tpu_batch_normalization_1/FusedBatchNormV3:0"
    input: "efficientnet-lite4/model/blocks_29/Relu6_1_min__569"
    input: "efficientnet-lite4/model/blocks_19/Relu6_1_max__380"
    output: "efficientnet-lite4/model/blocks_4/Relu6_1:0"
    name: "efficientnet-lite4/model/blocks_4/Relu6_1"
    op_type: "Clip"
  }
  node {
    input: "efficientnet-lite4/model/blocks_4/Relu6_1:0"
    input: "efficientnet-lite4/model/blocks_4/conv2d_1/Conv2D_weights_fused_bn"
    input: "efficientnet-lite4/model/blocks_4/conv2d_1/Conv2D_bias_fused_bn"
    output: "efficientnet-lite4/model/blocks_4/tpu_batch_normalization_2/FusedBatchNormV3:0"
    name: "efficientnet-lite4/model/blocks_4/conv2d_1/Conv2D"
    op_type: "Conv"
    attribute {
      name: "dilations"
      ints: 1
      ints: 1
      type: INTS
    }
    attribute {
      name: "strides"
      ints: 1
      ints: 1
      type: INTS
    }
    attribute {
      name: "kernel_shape"
      ints: 1
      ints: 1
      type: INTS
    }
    attribute {
      name: "pads"
      ints: 0
      ints: 0
      ints: 0
      ints: 0
      type: INTS
    }
  }
  node {
    input: "efficientnet-lite4/model/blocks_4/tpu_batch_normalization_2/FusedBatchNormV3:0"
    input: "efficientnet-lite4/model/blocks_3/Add:0"
    output: "efficientnet-lite4/model/blocks_4/Add:0"
    name: "efficientnet-lite4/model/blocks_4/Add"
    op_type: "Add"
  }
  node {
    input: "efficientnet-lite4/model/blocks_4/Add:0"
    input: "efficientnet-lite4/model/blocks_5/conv2d/Conv2D_weights_fused_bn"
    input: "efficientnet-lite4/model/blocks_5/conv2d/Conv2D_bias_fused_bn"
    output: "efficientnet-lite4/model/blocks_5/tpu_batch_normalization/FusedBatchNormV3:0"
    name: "efficientnet-lite4/model/blocks_5/conv2d/Conv2D"
    op_type: "Conv"
    attribute {
      name: "dilations"
      ints: 1
      ints: 1
      type: INTS
    }
    attribute {
      name: "strides"
      ints: 1
      ints: 1
      type: INTS
    }
    attribute {
      name: "kernel_shape"
      ints: 1
      ints: 1
      type: INTS
    }
    attribute {
      name: "pads"
      ints: 0
      ints: 0
      ints: 0
      ints: 0
      type: INTS
    }
  }
  node {
    input: "efficientnet-lite4/model/blocks_5/tpu_batch_normalization/FusedBatchNormV3:0"
    input: "efficientnet-lite4/model/blocks_29/Relu6_1_min__569"
    input: "efficientnet-lite4/model/blocks_19/Relu6_1_max__380"
    output: "efficientnet-lite4/model/blocks_5/Relu6:0"
    name: "efficientnet-lite4/model/blocks_5/Relu6"
    op_type: "Clip"
  }
  node {
    input: "efficientnet-lite4/model/blocks_5/Relu6:0"
    input: "efficientnet-lite4/model/blocks_5/depthwise_conv2d/depthwise_weights_fused_bn"
    input: "efficientnet-lite4/model/blocks_5/depthwise_conv2d/depthwise_bias_fused_bn"
    output: "efficientnet-lite4/model/blocks_5/tpu_batch_normalization_1/FusedBatchNormV3:0"
    name: "efficientnet-lite4/model/blocks_5/depthwise_conv2d/depthwise"
    op_type: "Conv"
    attribute {
      name: "dilations"
      ints: 1
      ints: 1
      type: INTS
    }
    attribute {
      name: "strides"
      ints: 2
      ints: 2
      type: INTS
    }
    attribute {
      name: "kernel_shape"
      ints: 5
      ints: 5
      type: INTS
    }
    attribute {
      name: "group"
      i: 192
      type: INT
    }
    attribute {
      name: "pads"
      ints: 1
      ints: 1
      ints: 2
      ints: 2
      type: INTS
    }
  }
  node {
    input: "efficientnet-lite4/model/blocks_5/tpu_batch_normalization_1/FusedBatchNormV3:0"
    input: "efficientnet-lite4/model/blocks_29/Relu6_1_min__569"
    input: "efficientnet-lite4/model/blocks_19/Relu6_1_max__380"
    output: "efficientnet-lite4/model/blocks_5/Relu6_1:0"
    name: "efficientnet-lite4/model/blocks_5/Relu6_1"
    op_type: "Clip"
  }
  node {
    input: "efficientnet-lite4/model/blocks_5/Relu6_1:0"
    input: "efficientnet-lite4/model/blocks_5/conv2d_1/Conv2D_weights_fused_bn"
    input: "efficientnet-lite4/model/blocks_5/conv2d_1/Conv2D_bias_fused_bn"
    output: "efficientnet-lite4/model/blocks_5/tpu_batch_normalization_2/FusedBatchNormV3:0"
    name: "efficientnet-lite4/model/blocks_5/conv2d_1/Conv2D"
    op_type: "Conv"
    attribute {
      name: "dilations"
      ints: 1
      ints: 1
      type: INTS
    }
    attribute {
      name: "strides"
      ints: 1
      ints: 1
      type: INTS
    }
    attribute {
      name: "kernel_shape"
      ints: 1
      ints: 1
      type: INTS
    }
    attribute {
      name: "pads"
      ints: 0
      ints: 0
      ints: 0
      ints: 0
      type: INTS
    }
  }
  node {
    input: "efficientnet-lite4/model/blocks_5/tpu_batch_normalization_2/FusedBatchNormV3:0"
    input: "efficientnet-lite4/model/blocks_6/conv2d/Conv2D/ReadVariableOp:0"
    output: "efficientnet-lite4/model/blocks_6/conv2d/Conv2D:0"
    name: "efficientnet-lite4/model/blocks_6/conv2d/Conv2D"
    op_type: "Conv"
    attribute {
      name: "dilations"
      ints: 1
      ints: 1
      type: INTS
    }
    attribute {
      name: "strides"
      ints: 1
      ints: 1
      type: INTS
    }
    attribute {
      name: "kernel_shape"
      ints: 1
      ints: 1
      type: INTS
    }
    attribute {
      name: "pads"
      ints: 0
      ints: 0
      ints: 0
      ints: 0
      type: INTS
    }
  }
  node {
    input: "efficientnet-lite4/model/blocks_6/conv2d/Conv2D:0"
    input: "efficientnet-lite4/model/blocks_6/tpu_batch_normalization/ReadVariableOp:0"
    input: "efficientnet-lite4/model/blocks_6/tpu_batch_normalization/ReadVariableOp_1:0"
    input: "efficientnet-lite4/model/blocks_6/tpu_batch_normalization/FusedBatchNormV3/ReadVariableOp:0"
    input: "efficientnet-lite4/model/blocks_6/tpu_batch_normalization/FusedBatchNormV3/ReadVariableOp_1:0"
    output: "efficientnet-lite4/model/blocks_6/tpu_batch_normalization/FusedBatchNormV3:0"
    name: "efficientnet-lite4/model/blocks_6/tpu_batch_normalization/FusedBatchNormV3"
    op_type: "BatchNormalization"
    attribute {
      name: "epsilon"
      f: 0.001
      type: FLOAT
    }
  }
  node {
    input: "efficientnet-lite4/model/blocks_6/tpu_batch_normalization/FusedBatchNormV3:0"
    input: "efficientnet-lite4/model/blocks_29/Relu6_1_min__569"
    input: "efficientnet-lite4/model/blocks_19/Relu6_1_max__380"
    output: "efficientnet-lite4/model/blocks_6/Relu6:0"
    name: "efficientnet-lite4/model/blocks_6/Relu6"
    op_type: "Clip"
  }
  node {
    input: "efficientnet-lite4/model/blocks_6/Relu6:0"
    input: "efficientnet-lite4/model/blocks_6/depthwise_conv2d/depthwise_weights_fused_bn"
    input: "efficientnet-lite4/model/blocks_6/depthwise_conv2d/depthwise_bias_fused_bn"
    output: "efficientnet-lite4/model/blocks_6/tpu_batch_normalization_1/FusedBatchNormV3:0"
    name: "efficientnet-lite4/model/blocks_6/depthwise_conv2d/depthwise"
    op_type: "Conv"
    attribute {
      name: "dilations"
      ints: 1
      ints: 1
      type: INTS
    }
    attribute {
      name: "strides"
      ints: 1
      ints: 1
      type: INTS
    }
    attribute {
      name: "kernel_shape"
      ints: 5
      ints: 5
      type: INTS
    }
    attribute {
      name: "group"
      i: 336
      type: INT
    }
    attribute {
      name: "pads"
      ints: 2
      ints: 2
      ints: 2
      ints: 2
      type: INTS
    }
  }
  node {
    input: "efficientnet-lite4/model/blocks_6/tpu_batch_normalization_1/FusedBatchNormV3:0"
    input: "efficientnet-lite4/model/blocks_29/Relu6_1_min__569"
    input: "efficientnet-lite4/model/blocks_19/Relu6_1_max__380"
    output: "efficientnet-lite4/model/blocks_6/Relu6_1:0"
    name: "efficientnet-lite4/model/blocks_6/Relu6_1"
    op_type: "Clip"
  }
  node {
    input: "efficientnet-lite4/model/blocks_6/Relu6_1:0"
    input: "efficientnet-lite4/model/blocks_6/conv2d_1/Conv2D_weights_fused_bn"
    input: "efficientnet-lite4/model/blocks_6/conv2d_1/Conv2D_bias_fused_bn"
    output: "efficientnet-lite4/model/blocks_6/tpu_batch_normalization_2/FusedBatchNormV3:0"
    name: "efficientnet-lite4/model/blocks_6/conv2d_1/Conv2D"
    op_type: "Conv"
    attribute {
      name: "dilations"
      ints: 1
      ints: 1
      type: INTS
    }
    attribute {
      name: "strides"
      ints: 1
      ints: 1
      type: INTS
    }
    attribute {
      name: "kernel_shape"
      ints: 1
      ints: 1
      type: INTS
    }
    attribute {
      name: "pads"
      ints: 0
      ints: 0
      ints: 0
      ints: 0
      type: INTS
    }
  }
  node {
    input: "efficientnet-lite4/model/blocks_6/tpu_batch_normalization_2/FusedBatchNormV3:0"
    input: "efficientnet-lite4/model/blocks_5/tpu_batch_normalization_2/FusedBatchNormV3:0"
    output: "efficientnet-lite4/model/blocks_6/Add:0"
    name: "efficientnet-lite4/model/blocks_6/Add"
    op_type: "Add"
  }
  node {
    input: "efficientnet-lite4/model/blocks_6/Add:0"
    input: "efficientnet-lite4/model/blocks_7/conv2d/Conv2D_weights_fused_bn"
    input: "efficientnet-lite4/model/blocks_7/conv2d/Conv2D_bias_fused_bn"
    output: "efficientnet-lite4/model/blocks_7/tpu_batch_normalization/FusedBatchNormV3:0"
    name: "efficientnet-lite4/model/blocks_7/conv2d/Conv2D"
    op_type: "Conv"
    attribute {
      name: "dilations"
      ints: 1
      ints: 1
      type: INTS
    }
    attribute {
      name: "strides"
      ints: 1
      ints: 1
      type: INTS
    }
    attribute {
      name: "kernel_shape"
      ints: 1
      ints: 1
      type: INTS
    }
    attribute {
      name: "pads"
      ints: 0
      ints: 0
      ints: 0
      ints: 0
      type: INTS
    }
  }
  node {
    input: "efficientnet-lite4/model/blocks_7/tpu_batch_normalization/FusedBatchNormV3:0"
    input: "efficientnet-lite4/model/blocks_29/Relu6_1_min__569"
    input: "efficientnet-lite4/model/blocks_19/Relu6_1_max__380"
    output: "efficientnet-lite4/model/blocks_7/Relu6:0"
    name: "efficientnet-lite4/model/blocks_7/Relu6"
    op_type: "Clip"
  }
  node {
    input: "efficientnet-lite4/model/blocks_7/Relu6:0"
    input: "efficientnet-lite4/model/blocks_7/depthwise_conv2d/depthwise_weights_fused_bn"
    input: "efficientnet-lite4/model/blocks_7/depthwise_conv2d/depthwise_bias_fused_bn"
    output: "efficientnet-lite4/model/blocks_7/tpu_batch_normalization_1/FusedBatchNormV3:0"
    name: "efficientnet-lite4/model/blocks_7/depthwise_conv2d/depthwise"
    op_type: "Conv"
    attribute {
      name: "dilations"
      ints: 1
      ints: 1
      type: INTS
    }
    attribute {
      name: "strides"
      ints: 1
      ints: 1
      type: INTS
    }
    attribute {
      name: "kernel_shape"
      ints: 5
      ints: 5
      type: INTS
    }
    attribute {
      name: "group"
      i: 336
      type: INT
    }
    attribute {
      name: "pads"
      ints: 2
      ints: 2
      ints: 2
      ints: 2
      type: INTS
    }
  }
  node {
    input: "efficientnet-lite4/model/blocks_7/tpu_batch_normalization_1/FusedBatchNormV3:0"
    input: "efficientnet-lite4/model/blocks_29/Relu6_1_min__569"
    input: "efficientnet-lite4/model/blocks_19/Relu6_1_max__380"
    output: "efficientnet-lite4/model/blocks_7/Relu6_1:0"
    name: "efficientnet-lite4/model/blocks_7/Relu6_1"
    op_type: "Clip"
  }
  node {
    input: "efficientnet-lite4/model/blocks_7/Relu6_1:0"
    input: "efficientnet-lite4/model/blocks_7/conv2d_1/Conv2D_weights_fused_bn"
    input: "efficientnet-lite4/model/blocks_7/conv2d_1/Conv2D_bias_fused_bn"
    output: "efficientnet-lite4/model/blocks_7/tpu_batch_normalization_2/FusedBatchNormV3:0"
    name: "efficientnet-lite4/model/blocks_7/conv2d_1/Conv2D"
    op_type: "Conv"
    attribute {
      name: "dilations"
      ints: 1
      ints: 1
      type: INTS
    }
    attribute {
      name: "strides"
      ints: 1
      ints: 1
      type: INTS
    }
    attribute {
      name: "kernel_shape"
      ints: 1
      ints: 1
      type: INTS
    }
    attribute {
      name: "pads"
      ints: 0
      ints: 0
      ints: 0
      ints: 0
      type: INTS
    }
  }
  node {
    input: "efficientnet-lite4/model/blocks_7/tpu_batch_normalization_2/FusedBatchNormV3:0"
    input: "efficientnet-lite4/model/blocks_6/Add:0"
    output: "efficientnet-lite4/model/blocks_7/Add:0"
    name: "efficientnet-lite4/model/blocks_7/Add"
    op_type: "Add"
  }
  node {
    input: "efficientnet-lite4/model/blocks_7/Add:0"
    input: "efficientnet-lite4/model/blocks_8/conv2d/Conv2D_weights_fused_bn"
    input: "efficientnet-lite4/model/blocks_8/conv2d/Conv2D_bias_fused_bn"
    output: "efficientnet-lite4/model/blocks_8/tpu_batch_normalization/FusedBatchNormV3:0"
    name: "efficientnet-lite4/model/blocks_8/conv2d/Conv2D"
    op_type: "Conv"
    attribute {
      name: "dilations"
      ints: 1
      ints: 1
      type: INTS
    }
    attribute {
      name: "strides"
      ints: 1
      ints: 1
      type: INTS
    }
    attribute {
      name: "kernel_shape"
      ints: 1
      ints: 1
      type: INTS
    }
    attribute {
      name: "pads"
      ints: 0
      ints: 0
      ints: 0
      ints: 0
      type: INTS
    }
  }
  node {
    input: "efficientnet-lite4/model/blocks_8/tpu_batch_normalization/FusedBatchNormV3:0"
    input: "efficientnet-lite4/model/blocks_29/Relu6_1_min__569"
    input: "efficientnet-lite4/model/blocks_19/Relu6_1_max__380"
    output: "efficientnet-lite4/model/blocks_8/Relu6:0"
    name: "efficientnet-lite4/model/blocks_8/Relu6"
    op_type: "Clip"
  }
  node {
    input: "efficientnet-lite4/model/blocks_8/Relu6:0"
    input: "efficientnet-lite4/model/blocks_8/depthwise_conv2d/depthwise_weights_fused_bn"
    input: "efficientnet-lite4/model/blocks_8/depthwise_conv2d/depthwise_bias_fused_bn"
    output: "efficientnet-lite4/model/blocks_8/tpu_batch_normalization_1/FusedBatchNormV3:0"
    name: "efficientnet-lite4/model/blocks_8/depthwise_conv2d/depthwise"
    op_type: "Conv"
    attribute {
      name: "dilations"
      ints: 1
      ints: 1
      type: INTS
    }
    attribute {
      name: "strides"
      ints: 1
      ints: 1
      type: INTS
    }
    attribute {
      name: "kernel_shape"
      ints: 5
      ints: 5
      type: INTS
    }
    attribute {
      name: "group"
      i: 336
      type: INT
    }
    attribute {
      name: "pads"
      ints: 2
      ints: 2
      ints: 2
      ints: 2
      type: INTS
    }
  }
  node {
    input: "efficientnet-lite4/model/blocks_8/tpu_batch_normalization_1/FusedBatchNormV3:0"
    input: "efficientnet-lite4/model/blocks_29/Relu6_1_min__569"
    input: "efficientnet-lite4/model/blocks_19/Relu6_1_max__380"
    output: "efficientnet-lite4/model/blocks_8/Relu6_1:0"
    name: "efficientnet-lite4/model/blocks_8/Relu6_1"
    op_type: "Clip"
  }
  node {
    input: "efficientnet-lite4/model/blocks_8/Relu6_1:0"
    input: "efficientnet-lite4/model/blocks_8/conv2d_1/Conv2D_weights_fused_bn"
    input: "efficientnet-lite4/model/blocks_8/conv2d_1/Conv2D_bias_fused_bn"
    output: "efficientnet-lite4/model/blocks_8/tpu_batch_normalization_2/FusedBatchNormV3:0"
    name: "efficientnet-lite4/model/blocks_8/conv2d_1/Conv2D"
    op_type: "Conv"
    attribute {
      name: "dilations"
      ints: 1
      ints: 1
      type: INTS
    }
    attribute {
      name: "strides"
      ints: 1
      ints: 1
      type: INTS
    }
    attribute {
      name: "kernel_shape"
      ints: 1
      ints: 1
      type: INTS
    }
    attribute {
      name: "pads"
      ints: 0
      ints: 0
      ints: 0
      ints: 0
      type: INTS
    }
  }
  node {
    input: "efficientnet-lite4/model/blocks_8/tpu_batch_normalization_2/FusedBatchNormV3:0"
    input: "efficientnet-lite4/model/blocks_7/Add:0"
    output: "efficientnet-lite4/model/blocks_8/Add:0"
    name: "efficientnet-lite4/model/blocks_8/Add"
    op_type: "Add"
  }
  node {
    input: "efficientnet-lite4/model/blocks_8/Add:0"
    input: "efficientnet-lite4/model/blocks_9/conv2d/Conv2D_weights_fused_bn"
    input: "efficientnet-lite4/model/blocks_9/conv2d/Conv2D_bias_fused_bn"
    output: "efficientnet-lite4/model/blocks_9/tpu_batch_normalization/FusedBatchNormV3:0"
    name: "efficientnet-lite4/model/blocks_9/conv2d/Conv2D"
    op_type: "Conv"
    attribute {
      name: "dilations"
      ints: 1
      ints: 1
      type: INTS
    }
    attribute {
      name: "strides"
      ints: 1
      ints: 1
      type: INTS
    }
    attribute {
      name: "kernel_shape"
      ints: 1
      ints: 1
      type: INTS
    }
    attribute {
      name: "pads"
      ints: 0
      ints: 0
      ints: 0
      ints: 0
      type: INTS
    }
  }
  node {
    input: "efficientnet-lite4/model/blocks_9/tpu_batch_normalization/FusedBatchNormV3:0"
    input: "efficientnet-lite4/model/blocks_29/Relu6_1_min__569"
    input: "efficientnet-lite4/model/blocks_19/Relu6_1_max__380"
    output: "efficientnet-lite4/model/blocks_9/Relu6:0"
    name: "efficientnet-lite4/model/blocks_9/Relu6"
    op_type: "Clip"
  }
  node {
    input: "efficientnet-lite4/model/blocks_9/Relu6:0"
    input: "efficientnet-lite4/model/blocks_9/depthwise_conv2d/depthwise_weights_fused_bn"
    input: "efficientnet-lite4/model/blocks_9/depthwise_conv2d/depthwise_bias_fused_bn"
    output: "efficientnet-lite4/model/blocks_9/tpu_batch_normalization_1/FusedBatchNormV3:0"
    name: "efficientnet-lite4/model/blocks_9/depthwise_conv2d/depthwise"
    op_type: "Conv"
    attribute {
      name: "dilations"
      ints: 1
      ints: 1
      type: INTS
    }
    attribute {
      name: "strides"
      ints: 2
      ints: 2
      type: INTS
    }
    attribute {
      name: "kernel_shape"
      ints: 3
      ints: 3
      type: INTS
    }
    attribute {
      name: "group"
      i: 336
      type: INT
    }
    attribute {
      name: "pads"
      ints: 0
      ints: 0
      ints: 1
      ints: 1
      type: INTS
    }
  }
  node {
    input: "efficientnet-lite4/model/blocks_9/tpu_batch_normalization_1/FusedBatchNormV3:0"
    input: "efficientnet-lite4/model/blocks_29/Relu6_1_min__569"
    input: "efficientnet-lite4/model/blocks_19/Relu6_1_max__380"
    output: "efficientnet-lite4/model/blocks_9/Relu6_1:0"
    name: "efficientnet-lite4/model/blocks_9/Relu6_1"
    op_type: "Clip"
  }
  node {
    input: "efficientnet-lite4/model/blocks_9/Relu6_1:0"
    input: "efficientnet-lite4/model/blocks_9/conv2d_1/Conv2D_weights_fused_bn"
    input: "efficientnet-lite4/model/blocks_9/conv2d_1/Conv2D_bias_fused_bn"
    output: "efficientnet-lite4/model/blocks_9/tpu_batch_normalization_2/FusedBatchNormV3:0"
    name: "efficientnet-lite4/model/blocks_9/conv2d_1/Conv2D"
    op_type: "Conv"
    attribute {
      name: "dilations"
      ints: 1
      ints: 1
      type: INTS
    }
    attribute {
      name: "strides"
      ints: 1
      ints: 1
      type: INTS
    }
    attribute {
      name: "kernel_shape"
      ints: 1
      ints: 1
      type: INTS
    }
    attribute {
      name: "pads"
      ints: 0
      ints: 0
      ints: 0
      ints: 0
      type: INTS
    }
  }
  node {
    input: "efficientnet-lite4/model/blocks_9/tpu_batch_normalization_2/FusedBatchNormV3:0"
    input: "efficientnet-lite4/model/blocks_10/conv2d/Conv2D/ReadVariableOp:0"
    output: "efficientnet-lite4/model/blocks_10/conv2d/Conv2D:0"
    name: "efficientnet-lite4/model/blocks_10/conv2d/Conv2D"
    op_type: "Conv"
    attribute {
      name: "dilations"
      ints: 1
      ints: 1
      type: INTS
    }
    attribute {
      name: "strides"
      ints: 1
      ints: 1
      type: INTS
    }
    attribute {
      name: "kernel_shape"
      ints: 1
      ints: 1
      type: INTS
    }
    attribute {
      name: "pads"
      ints: 0
      ints: 0
      ints: 0
      ints: 0
      type: INTS
    }
  }
  node {
    input: "efficientnet-lite4/model/blocks_10/conv2d/Conv2D:0"
    input: "efficientnet-lite4/model/blocks_10/tpu_batch_normalization/ReadVariableOp:0"
    input: "efficientnet-lite4/model/blocks_10/tpu_batch_normalization/ReadVariableOp_1:0"
    input: "efficientnet-lite4/model/blocks_10/tpu_batch_normalization/FusedBatchNormV3/ReadVariableOp:0"
    input: "efficientnet-lite4/model/blocks_10/tpu_batch_normalization/FusedBatchNormV3/ReadVariableOp_1:0"
    output: "efficientnet-lite4/model/blocks_10/tpu_batch_normalization/FusedBatchNormV3:0"
    name: "efficientnet-lite4/model/blocks_10/tpu_batch_normalization/FusedBatchNormV3"
    op_type: "BatchNormalization"
    attribute {
      name: "epsilon"
      f: 0.001
      type: FLOAT
    }
  }
  node {
    input: "efficientnet-lite4/model/blocks_10/tpu_batch_normalization/FusedBatchNormV3:0"
    input: "efficientnet-lite4/model/blocks_29/Relu6_1_min__569"
    input: "efficientnet-lite4/model/blocks_19/Relu6_1_max__380"
    output: "efficientnet-lite4/model/blocks_10/Relu6:0"
    name: "efficientnet-lite4/model/blocks_10/Relu6"
    op_type: "Clip"
  }
  node {
    input: "efficientnet-lite4/model/blocks_10/Relu6:0"
    input: "efficientnet-lite4/model/blocks_10/depthwise_conv2d/depthwise_weights_fused_bn"
    input: "efficientnet-lite4/model/blocks_10/depthwise_conv2d/depthwise_bias_fused_bn"
    output: "efficientnet-lite4/model/blocks_10/tpu_batch_normalization_1/FusedBatchNormV3:0"
    name: "efficientnet-lite4/model/blocks_10/depthwise_conv2d/depthwise"
    op_type: "Conv"
    attribute {
      name: "dilations"
      ints: 1
      ints: 1
      type: INTS
    }
    attribute {
      name: "strides"
      ints: 1
      ints: 1
      type: INTS
    }
    attribute {
      name: "kernel_shape"
      ints: 3
      ints: 3
      type: INTS
    }
    attribute {
      name: "group"
      i: 672
      type: INT
    }
    attribute {
      name: "pads"
      ints: 1
      ints: 1
      ints: 1
      ints: 1
      type: INTS
    }
  }
  node {
    input: "efficientnet-lite4/model/blocks_10/tpu_batch_normalization_1/FusedBatchNormV3:0"
    input: "efficientnet-lite4/model/blocks_29/Relu6_1_min__569"
    input: "efficientnet-lite4/model/blocks_19/Relu6_1_max__380"
    output: "efficientnet-lite4/model/blocks_10/Relu6_1:0"
    name: "efficientnet-lite4/model/blocks_10/Relu6_1"
    op_type: "Clip"
  }
  node {
    input: "efficientnet-lite4/model/blocks_10/Relu6_1:0"
    input: "efficientnet-lite4/model/blocks_10/conv2d_1/Conv2D_weights_fused_bn"
    input: "efficientnet-lite4/model/blocks_10/conv2d_1/Conv2D_bias_fused_bn"
    output: "efficientnet-lite4/model/blocks_10/tpu_batch_normalization_2/FusedBatchNormV3:0"
    name: "efficientnet-lite4/model/blocks_10/conv2d_1/Conv2D"
    op_type: "Conv"
    attribute {
      name: "dilations"
      ints: 1
      ints: 1
      type: INTS
    }
    attribute {
      name: "strides"
      ints: 1
      ints: 1
      type: INTS
    }
    attribute {
      name: "kernel_shape"
      ints: 1
      ints: 1
      type: INTS
    }
    attribute {
      name: "pads"
      ints: 0
      ints: 0
      ints: 0
      ints: 0
      type: INTS
    }
  }
  node {
    input: "efficientnet-lite4/model/blocks_10/tpu_batch_normalization_2/FusedBatchNormV3:0"
    input: "efficientnet-lite4/model/blocks_9/tpu_batch_normalization_2/FusedBatchNormV3:0"
    output: "efficientnet-lite4/model/blocks_10/Add:0"
    name: "efficientnet-lite4/model/blocks_10/Add"
    op_type: "Add"
  }
  node {
    input: "efficientnet-lite4/model/blocks_10/Add:0"
    input: "efficientnet-lite4/model/blocks_11/conv2d/Conv2D_weights_fused_bn"
    input: "efficientnet-lite4/model/blocks_11/conv2d/Conv2D_bias_fused_bn"
    output: "efficientnet-lite4/model/blocks_11/tpu_batch_normalization/FusedBatchNormV3:0"
    name: "efficientnet-lite4/model/blocks_11/conv2d/Conv2D"
    op_type: "Conv"
    attribute {
      name: "dilations"
      ints: 1
      ints: 1
      type: INTS
    }
    attribute {
      name: "strides"
      ints: 1
      ints: 1
      type: INTS
    }
    attribute {
      name: "kernel_shape"
      ints: 1
      ints: 1
      type: INTS
    }
    attribute {
      name: "pads"
      ints: 0
      ints: 0
      ints: 0
      ints: 0
      type: INTS
    }
  }
  node {
    input: "efficientnet-lite4/model/blocks_11/tpu_batch_normalization/FusedBatchNormV3:0"
    input: "efficientnet-lite4/model/blocks_29/Relu6_1_min__569"
    input: "efficientnet-lite4/model/blocks_19/Relu6_1_max__380"
    output: "efficientnet-lite4/model/blocks_11/Relu6:0"
    name: "efficientnet-lite4/model/blocks_11/Relu6"
    op_type: "Clip"
  }
  node {
    input: "efficientnet-lite4/model/blocks_11/Relu6:0"
    input: "efficientnet-lite4/model/blocks_11/depthwise_conv2d/depthwise_weights_fused_bn"
    input: "efficientnet-lite4/model/blocks_11/depthwise_conv2d/depthwise_bias_fused_bn"
    output: "efficientnet-lite4/model/blocks_11/tpu_batch_normalization_1/FusedBatchNormV3:0"
    name: "efficientnet-lite4/model/blocks_11/depthwise_conv2d/depthwise"
    op_type: "Conv"
    attribute {
      name: "dilations"
      ints: 1
      ints: 1
      type: INTS
    }
    attribute {
      name: "strides"
      ints: 1
      ints: 1
      type: INTS
    }
    attribute {
      name: "kernel_shape"
      ints: 3
      ints: 3
      type: INTS
    }
    attribute {
      name: "group"
      i: 672
      type: INT
    }
    attribute {
      name: "pads"
      ints: 1
      ints: 1
      ints: 1
      ints: 1
      type: INTS
    }
  }
  node {
    input: "efficientnet-lite4/model/blocks_11/tpu_batch_normalization_1/FusedBatchNormV3:0"
    input: "efficientnet-lite4/model/blocks_29/Relu6_1_min__569"
    input: "efficientnet-lite4/model/blocks_19/Relu6_1_max__380"
    output: "efficientnet-lite4/model/blocks_11/Relu6_1:0"
    name: "efficientnet-lite4/model/blocks_11/Relu6_1"
    op_type: "Clip"
  }
  node {
    input: "efficientnet-lite4/model/blocks_11/Relu6_1:0"
    input: "efficientnet-lite4/model/blocks_11/conv2d_1/Conv2D_weights_fused_bn"
    input: "efficientnet-lite4/model/blocks_11/conv2d_1/Conv2D_bias_fused_bn"
    output: "efficientnet-lite4/model/blocks_11/tpu_batch_normalization_2/FusedBatchNormV3:0"
    name: "efficientnet-lite4/model/blocks_11/conv2d_1/Conv2D"
    op_type: "Conv"
    attribute {
      name: "dilations"
      ints: 1
      ints: 1
      type: INTS
    }
    attribute {
      name: "strides"
      ints: 1
      ints: 1
      type: INTS
    }
    attribute {
      name: "kernel_shape"
      ints: 1
      ints: 1
      type: INTS
    }
    attribute {
      name: "pads"
      ints: 0
      ints: 0
      ints: 0
      ints: 0
      type: INTS
    }
  }
  node {
    input: "efficientnet-lite4/model/blocks_11/tpu_batch_normalization_2/FusedBatchNormV3:0"
    input: "efficientnet-lite4/model/blocks_10/Add:0"
    output: "efficientnet-lite4/model/blocks_11/Add:0"
    name: "efficientnet-lite4/model/blocks_11/Add"
    op_type: "Add"
  }
  node {
    input: "efficientnet-lite4/model/blocks_11/Add:0"
    input: "efficientnet-lite4/model/blocks_12/conv2d/Conv2D_weights_fused_bn"
    input: "efficientnet-lite4/model/blocks_12/conv2d/Conv2D_bias_fused_bn"
    output: "efficientnet-lite4/model/blocks_12/tpu_batch_normalization/FusedBatchNormV3:0"
    name: "efficientnet-lite4/model/blocks_12/conv2d/Conv2D"
    op_type: "Conv"
    attribute {
      name: "dilations"
      ints: 1
      ints: 1
      type: INTS
    }
    attribute {
      name: "strides"
      ints: 1
      ints: 1
      type: INTS
    }
    attribute {
      name: "kernel_shape"
      ints: 1
      ints: 1
      type: INTS
    }
    attribute {
      name: "pads"
      ints: 0
      ints: 0
      ints: 0
      ints: 0
      type: INTS
    }
  }
  node {
    input: "efficientnet-lite4/model/blocks_12/tpu_batch_normalization/FusedBatchNormV3:0"
    input: "efficientnet-lite4/model/blocks_29/Relu6_1_min__569"
    input: "efficientnet-lite4/model/blocks_19/Relu6_1_max__380"
    output: "efficientnet-lite4/model/blocks_12/Relu6:0"
    name: "efficientnet-lite4/model/blocks_12/Relu6"
    op_type: "Clip"
  }
  node {
    input: "efficientnet-lite4/model/blocks_12/Relu6:0"
    input: "efficientnet-lite4/model/blocks_12/depthwise_conv2d/depthwise_weights_fused_bn"
    input: "efficientnet-lite4/model/blocks_12/depthwise_conv2d/depthwise_bias_fused_bn"
    output: "efficientnet-lite4/model/blocks_12/tpu_batch_normalization_1/FusedBatchNormV3:0"
    name: "efficientnet-lite4/model/blocks_12/depthwise_conv2d/depthwise"
    op_type: "Conv"
    attribute {
      name: "dilations"
      ints: 1
      ints: 1
      type: INTS
    }
    attribute {
      name: "strides"
      ints: 1
      ints: 1
      type: INTS
    }
    attribute {
      name: "kernel_shape"
      ints: 3
      ints: 3
      type: INTS
    }
    attribute {
      name: "group"
      i: 672
      type: INT
    }
    attribute {
      name: "pads"
      ints: 1
      ints: 1
      ints: 1
      ints: 1
      type: INTS
    }
  }
  node {
    input: "efficientnet-lite4/model/blocks_12/tpu_batch_normalization_1/FusedBatchNormV3:0"
    input: "efficientnet-lite4/model/blocks_29/Relu6_1_min__569"
    input: "efficientnet-lite4/model/blocks_19/Relu6_1_max__380"
    output: "efficientnet-lite4/model/blocks_12/Relu6_1:0"
    name: "efficientnet-lite4/model/blocks_12/Relu6_1"
    op_type: "Clip"
  }
  node {
    input: "efficientnet-lite4/model/blocks_12/Relu6_1:0"
    input: "efficientnet-lite4/model/blocks_12/conv2d_1/Conv2D_weights_fused_bn"
    input: "efficientnet-lite4/model/blocks_12/conv2d_1/Conv2D_bias_fused_bn"
    output: "efficientnet-lite4/model/blocks_12/tpu_batch_normalization_2/FusedBatchNormV3:0"
    name: "efficientnet-lite4/model/blocks_12/conv2d_1/Conv2D"
    op_type: "Conv"
    attribute {
      name: "dilations"
      ints: 1
      ints: 1
      type: INTS
    }
    attribute {
      name: "strides"
      ints: 1
      ints: 1
      type: INTS
    }
    attribute {
      name: "kernel_shape"
      ints: 1
      ints: 1
      type: INTS
    }
    attribute {
      name: "pads"
      ints: 0
      ints: 0
      ints: 0
      ints: 0
      type: INTS
    }
  }
  node {
    input: "efficientnet-lite4/model/blocks_12/tpu_batch_normalization_2/FusedBatchNormV3:0"
    input: "efficientnet-lite4/model/blocks_11/Add:0"
    output: "efficientnet-lite4/model/blocks_12/Add:0"
    name: "efficientnet-lite4/model/blocks_12/Add"
    op_type: "Add"
  }
  node {
    input: "efficientnet-lite4/model/blocks_12/Add:0"
    input: "efficientnet-lite4/model/blocks_13/conv2d/Conv2D_weights_fused_bn"
    input: "efficientnet-lite4/model/blocks_13/conv2d/Conv2D_bias_fused_bn"
    output: "efficientnet-lite4/model/blocks_13/tpu_batch_normalization/FusedBatchNormV3:0"
    name: "efficientnet-lite4/model/blocks_13/conv2d/Conv2D"
    op_type: "Conv"
    attribute {
      name: "dilations"
      ints: 1
      ints: 1
      type: INTS
    }
    attribute {
      name: "strides"
      ints: 1
      ints: 1
      type: INTS
    }
    attribute {
      name: "kernel_shape"
      ints: 1
      ints: 1
      type: INTS
    }
    attribute {
      name: "pads"
      ints: 0
      ints: 0
      ints: 0
      ints: 0
      type: INTS
    }
  }
  node {
    input: "efficientnet-lite4/model/blocks_13/tpu_batch_normalization/FusedBatchNormV3:0"
    input: "efficientnet-lite4/model/blocks_29/Relu6_1_min__569"
    input: "efficientnet-lite4/model/blocks_19/Relu6_1_max__380"
    output: "efficientnet-lite4/model/blocks_13/Relu6:0"
    name: "efficientnet-lite4/model/blocks_13/Relu6"
    op_type: "Clip"
  }
  node {
    input: "efficientnet-lite4/model/blocks_13/Relu6:0"
    input: "efficientnet-lite4/model/blocks_13/depthwise_conv2d/depthwise_weights_fused_bn"
    input: "efficientnet-lite4/model/blocks_13/depthwise_conv2d/depthwise_bias_fused_bn"
    output: "efficientnet-lite4/model/blocks_13/tpu_batch_normalization_1/FusedBatchNormV3:0"
    name: "efficientnet-lite4/model/blocks_13/depthwise_conv2d/depthwise"
    op_type: "Conv"
    attribute {
      name: "dilations"
      ints: 1
      ints: 1
      type: INTS
    }
    attribute {
      name: "strides"
      ints: 1
      ints: 1
      type: INTS
    }
    attribute {
      name: "kernel_shape"
      ints: 3
      ints: 3
      type: INTS
    }
    attribute {
      name: "group"
      i: 672
      type: INT
    }
    attribute {
      name: "pads"
      ints: 1
      ints: 1
      ints: 1
      ints: 1
      type: INTS
    }
  }
  node {
    input: "efficientnet-lite4/model/blocks_13/tpu_batch_normalization_1/FusedBatchNormV3:0"
    input: "efficientnet-lite4/model/blocks_29/Relu6_1_min__569"
    input: "efficientnet-lite4/model/blocks_19/Relu6_1_max__380"
    output: "efficientnet-lite4/model/blocks_13/Relu6_1:0"
    name: "efficientnet-lite4/model/blocks_13/Relu6_1"
    op_type: "Clip"
  }
  node {
    input: "efficientnet-lite4/model/blocks_13/Relu6_1:0"
    input: "efficientnet-lite4/model/blocks_13/conv2d_1/Conv2D_weights_fused_bn"
    input: "efficientnet-lite4/model/blocks_13/conv2d_1/Conv2D_bias_fused_bn"
    output: "efficientnet-lite4/model/blocks_13/tpu_batch_normalization_2/FusedBatchNormV3:0"
    name: "efficientnet-lite4/model/blocks_13/conv2d_1/Conv2D"
    op_type: "Conv"
    attribute {
      name: "dilations"
      ints: 1
      ints: 1
      type: INTS
    }
    attribute {
      name: "strides"
      ints: 1
      ints: 1
      type: INTS
    }
    attribute {
      name: "kernel_shape"
      ints: 1
      ints: 1
      type: INTS
    }
    attribute {
      name: "pads"
      ints: 0
      ints: 0
      ints: 0
      ints: 0
      type: INTS
    }
  }
  node {
    input: "efficientnet-lite4/model/blocks_13/tpu_batch_normalization_2/FusedBatchNormV3:0"
    input: "efficientnet-lite4/model/blocks_12/Add:0"
    output: "efficientnet-lite4/model/blocks_13/Add:0"
    name: "efficientnet-lite4/model/blocks_13/Add"
    op_type: "Add"
  }
  node {
    input: "efficientnet-lite4/model/blocks_13/Add:0"
    input: "efficientnet-lite4/model/blocks_14/conv2d/Conv2D_weights_fused_bn"
    input: "efficientnet-lite4/model/blocks_14/conv2d/Conv2D_bias_fused_bn"
    output: "efficientnet-lite4/model/blocks_14/tpu_batch_normalization/FusedBatchNormV3:0"
    name: "efficientnet-lite4/model/blocks_14/conv2d/Conv2D"
    op_type: "Conv"
    attribute {
      name: "dilations"
      ints: 1
      ints: 1
      type: INTS
    }
    attribute {
      name: "strides"
      ints: 1
      ints: 1
      type: INTS
    }
    attribute {
      name: "kernel_shape"
      ints: 1
      ints: 1
      type: INTS
    }
    attribute {
      name: "pads"
      ints: 0
      ints: 0
      ints: 0
      ints: 0
      type: INTS
    }
  }
  node {
    input: "efficientnet-lite4/model/blocks_14/tpu_batch_normalization/FusedBatchNormV3:0"
    input: "efficientnet-lite4/model/blocks_29/Relu6_1_min__569"
    input: "efficientnet-lite4/model/blocks_19/Relu6_1_max__380"
    output: "efficientnet-lite4/model/blocks_14/Relu6:0"
    name: "efficientnet-lite4/model/blocks_14/Relu6"
    op_type: "Clip"
  }
  node {
    input: "efficientnet-lite4/model/blocks_14/Relu6:0"
    input: "efficientnet-lite4/model/blocks_14/depthwise_conv2d/depthwise_weights_fused_bn"
    input: "efficientnet-lite4/model/blocks_14/depthwise_conv2d/depthwise_bias_fused_bn"
    output: "efficientnet-lite4/model/blocks_14/tpu_batch_normalization_1/FusedBatchNormV3:0"
    name: "efficientnet-lite4/model/blocks_14/depthwise_conv2d/depthwise"
    op_type: "Conv"
    attribute {
      name: "dilations"
      ints: 1
      ints: 1
      type: INTS
    }
    attribute {
      name: "strides"
      ints: 1
      ints: 1
      type: INTS
    }
    attribute {
      name: "kernel_shape"
      ints: 3
      ints: 3
      type: INTS
    }
    attribute {
      name: "group"
      i: 672
      type: INT
    }
    attribute {
      name: "pads"
      ints: 1
      ints: 1
      ints: 1
      ints: 1
      type: INTS
    }
  }
  node {
    input: "efficientnet-lite4/model/blocks_14/tpu_batch_normalization_1/FusedBatchNormV3:0"
    input: "efficientnet-lite4/model/blocks_29/Relu6_1_min__569"
    input: "efficientnet-lite4/model/blocks_19/Relu6_1_max__380"
    output: "efficientnet-lite4/model/blocks_14/Relu6_1:0"
    name: "efficientnet-lite4/model/blocks_14/Relu6_1"
    op_type: "Clip"
  }
  node {
    input: "efficientnet-lite4/model/blocks_14/Relu6_1:0"
    input: "efficientnet-lite4/model/blocks_14/conv2d_1/Conv2D_weights_fused_bn"
    input: "efficientnet-lite4/model/blocks_14/conv2d_1/Conv2D_bias_fused_bn"
    output: "efficientnet-lite4/model/blocks_14/tpu_batch_normalization_2/FusedBatchNormV3:0"
    name: "efficientnet-lite4/model/blocks_14/conv2d_1/Conv2D"
    op_type: "Conv"
    attribute {
      name: "dilations"
      ints: 1
      ints: 1
      type: INTS
    }
    attribute {
      name: "strides"
      ints: 1
      ints: 1
      type: INTS
    }
    attribute {
      name: "kernel_shape"
      ints: 1
      ints: 1
      type: INTS
    }
    attribute {
      name: "pads"
      ints: 0
      ints: 0
      ints: 0
      ints: 0
      type: INTS
    }
  }
  node {
    input: "efficientnet-lite4/model/blocks_14/tpu_batch_normalization_2/FusedBatchNormV3:0"
    input: "efficientnet-lite4/model/blocks_13/Add:0"
    output: "efficientnet-lite4/model/blocks_14/Add:0"
    name: "efficientnet-lite4/model/blocks_14/Add"
    op_type: "Add"
  }
  node {
    input: "efficientnet-lite4/model/blocks_14/Add:0"
    input: "efficientnet-lite4/model/blocks_15/conv2d/Conv2D_weights_fused_bn"
    input: "efficientnet-lite4/model/blocks_15/conv2d/Conv2D_bias_fused_bn"
    output: "efficientnet-lite4/model/blocks_15/tpu_batch_normalization/FusedBatchNormV3:0"
    name: "efficientnet-lite4/model/blocks_15/conv2d/Conv2D"
    op_type: "Conv"
    attribute {
      name: "dilations"
      ints: 1
      ints: 1
      type: INTS
    }
    attribute {
      name: "strides"
      ints: 1
      ints: 1
      type: INTS
    }
    attribute {
      name: "kernel_shape"
      ints: 1
      ints: 1
      type: INTS
    }
    attribute {
      name: "pads"
      ints: 0
      ints: 0
      ints: 0
      ints: 0
      type: INTS
    }
  }
  node {
    input: "efficientnet-lite4/model/blocks_15/tpu_batch_normalization/FusedBatchNormV3:0"
    input: "efficientnet-lite4/model/blocks_29/Relu6_1_min__569"
    input: "efficientnet-lite4/model/blocks_19/Relu6_1_max__380"
    output: "efficientnet-lite4/model/blocks_15/Relu6:0"
    name: "efficientnet-lite4/model/blocks_15/Relu6"
    op_type: "Clip"
  }
  node {
    input: "efficientnet-lite4/model/blocks_15/Relu6:0"
    input: "efficientnet-lite4/model/blocks_15/depthwise_conv2d/depthwise_weights_fused_bn"
    input: "efficientnet-lite4/model/blocks_15/depthwise_conv2d/depthwise_bias_fused_bn"
    output: "efficientnet-lite4/model/blocks_15/tpu_batch_normalization_1/FusedBatchNormV3:0"
    name: "efficientnet-lite4/model/blocks_15/depthwise_conv2d/depthwise"
    op_type: "Conv"
    attribute {
      name: "dilations"
      ints: 1
      ints: 1
      type: INTS
    }
    attribute {
      name: "strides"
      ints: 1
      ints: 1
      type: INTS
    }
    attribute {
      name: "kernel_shape"
      ints: 5
      ints: 5
      type: INTS
    }
    attribute {
      name: "group"
      i: 672
      type: INT
    }
    attribute {
      name: "pads"
      ints: 2
      ints: 2
      ints: 2
      ints: 2
      type: INTS
    }
  }
  node {
    input: "efficientnet-lite4/model/blocks_15/tpu_batch_normalization_1/FusedBatchNormV3:0"
    input: "efficientnet-lite4/model/blocks_29/Relu6_1_min__569"
    input: "efficientnet-lite4/model/blocks_19/Relu6_1_max__380"
    output: "efficientnet-lite4/model/blocks_15/Relu6_1:0"
    name: "efficientnet-lite4/model/blocks_15/Relu6_1"
    op_type: "Clip"
  }
  node {
    input: "efficientnet-lite4/model/blocks_15/Relu6_1:0"
    input: "efficientnet-lite4/model/blocks_15/conv2d_1/Conv2D_weights_fused_bn"
    input: "efficientnet-lite4/model/blocks_15/conv2d_1/Conv2D_bias_fused_bn"
    output: "efficientnet-lite4/model/blocks_15/tpu_batch_normalization_2/FusedBatchNormV3:0"
    name: "efficientnet-lite4/model/blocks_15/conv2d_1/Conv2D"
    op_type: "Conv"
    attribute {
      name: "dilations"
      ints: 1
      ints: 1
      type: INTS
    }
    attribute {
      name: "strides"
      ints: 1
      ints: 1
      type: INTS
    }
    attribute {
      name: "kernel_shape"
      ints: 1
      ints: 1
      type: INTS
    }
    attribute {
      name: "pads"
      ints: 0
      ints: 0
      ints: 0
      ints: 0
      type: INTS
    }
  }
  node {
    input: "efficientnet-lite4/model/blocks_15/tpu_batch_normalization_2/FusedBatchNormV3:0"
    input: "efficientnet-lite4/model/blocks_16/conv2d/Conv2D/ReadVariableOp:0"
    output: "efficientnet-lite4/model/blocks_16/conv2d/Conv2D:0"
    name: "efficientnet-lite4/model/blocks_16/conv2d/Conv2D"
    op_type: "Conv"
    attribute {
      name: "dilations"
      ints: 1
      ints: 1
      type: INTS
    }
    attribute {
      name: "strides"
      ints: 1
      ints: 1
      type: INTS
    }
    attribute {
      name: "kernel_shape"
      ints: 1
      ints: 1
      type: INTS
    }
    attribute {
      name: "pads"
      ints: 0
      ints: 0
      ints: 0
      ints: 0
      type: INTS
    }
  }
  node {
    input: "efficientnet-lite4/model/blocks_16/conv2d/Conv2D:0"
    input: "efficientnet-lite4/model/blocks_16/tpu_batch_normalization/ReadVariableOp:0"
    input: "efficientnet-lite4/model/blocks_16/tpu_batch_normalization/ReadVariableOp_1:0"
    input: "efficientnet-lite4/model/blocks_16/tpu_batch_normalization/FusedBatchNormV3/ReadVariableOp:0"
    input: "efficientnet-lite4/model/blocks_16/tpu_batch_normalization/FusedBatchNormV3/ReadVariableOp_1:0"
    output: "efficientnet-lite4/model/blocks_16/tpu_batch_normalization/FusedBatchNormV3:0"
    name: "efficientnet-lite4/model/blocks_16/tpu_batch_normalization/FusedBatchNormV3"
    op_type: "BatchNormalization"
    attribute {
      name: "epsilon"
      f: 0.001
      type: FLOAT
    }
  }
  node {
    input: "efficientnet-lite4/model/blocks_16/tpu_batch_normalization/FusedBatchNormV3:0"
    input: "efficientnet-lite4/model/blocks_29/Relu6_1_min__569"
    input: "efficientnet-lite4/model/blocks_19/Relu6_1_max__380"
    output: "efficientnet-lite4/model/blocks_16/Relu6:0"
    name: "efficientnet-lite4/model/blocks_16/Relu6"
    op_type: "Clip"
  }
  node {
    input: "efficientnet-lite4/model/blocks_16/Relu6:0"
    input: "efficientnet-lite4/model/blocks_16/depthwise_conv2d/depthwise_weights_fused_bn"
    input: "efficientnet-lite4/model/blocks_16/depthwise_conv2d/depthwise_bias_fused_bn"
    output: "efficientnet-lite4/model/blocks_16/tpu_batch_normalization_1/FusedBatchNormV3:0"
    name: "efficientnet-lite4/model/blocks_16/depthwise_conv2d/depthwise"
    op_type: "Conv"
    attribute {
      name: "dilations"
      ints: 1
      ints: 1
      type: INTS
    }
    attribute {
      name: "strides"
      ints: 1
      ints: 1
      type: INTS
    }
    attribute {
      name: "kernel_shape"
      ints: 5
      ints: 5
      type: INTS
    }
    attribute {
      name: "group"
      i: 960
      type: INT
    }
    attribute {
      name: "pads"
      ints: 2
      ints: 2
      ints: 2
      ints: 2
      type: INTS
    }
  }
  node {
    input: "efficientnet-lite4/model/blocks_16/tpu_batch_normalization_1/FusedBatchNormV3:0"
    input: "efficientnet-lite4/model/blocks_29/Relu6_1_min__569"
    input: "efficientnet-lite4/model/blocks_19/Relu6_1_max__380"
    output: "efficientnet-lite4/model/blocks_16/Relu6_1:0"
    name: "efficientnet-lite4/model/blocks_16/Relu6_1"
    op_type: "Clip"
  }
  node {
    input: "efficientnet-lite4/model/blocks_16/Relu6_1:0"
    input: "efficientnet-lite4/model/blocks_16/conv2d_1/Conv2D_weights_fused_bn"
    input: "efficientnet-lite4/model/blocks_16/conv2d_1/Conv2D_bias_fused_bn"
    output: "efficientnet-lite4/model/blocks_16/tpu_batch_normalization_2/FusedBatchNormV3:0"
    name: "efficientnet-lite4/model/blocks_16/conv2d_1/Conv2D"
    op_type: "Conv"
    attribute {
      name: "dilations"
      ints: 1
      ints: 1
      type: INTS
    }
    attribute {
      name: "strides"
      ints: 1
      ints: 1
      type: INTS
    }
    attribute {
      name: "kernel_shape"
      ints: 1
      ints: 1
      type: INTS
    }
    attribute {
      name: "pads"
      ints: 0
      ints: 0
      ints: 0
      ints: 0
      type: INTS
    }
  }
  node {
    input: "efficientnet-lite4/model/blocks_16/tpu_batch_normalization_2/FusedBatchNormV3:0"
    input: "efficientnet-lite4/model/blocks_15/tpu_batch_normalization_2/FusedBatchNormV3:0"
    output: "efficientnet-lite4/model/blocks_16/Add:0"
    name: "efficientnet-lite4/model/blocks_16/Add"
    op_type: "Add"
  }
  node {
    input: "efficientnet-lite4/model/blocks_16/Add:0"
    input: "efficientnet-lite4/model/blocks_17/conv2d/Conv2D_weights_fused_bn"
    input: "efficientnet-lite4/model/blocks_17/conv2d/Conv2D_bias_fused_bn"
    output: "efficientnet-lite4/model/blocks_17/tpu_batch_normalization/FusedBatchNormV3:0"
    name: "efficientnet-lite4/model/blocks_17/conv2d/Conv2D"
    op_type: "Conv"
    attribute {
      name: "dilations"
      ints: 1
      ints: 1
      type: INTS
    }
    attribute {
      name: "strides"
      ints: 1
      ints: 1
      type: INTS
    }
    attribute {
      name: "kernel_shape"
      ints: 1
      ints: 1
      type: INTS
    }
    attribute {
      name: "pads"
      ints: 0
      ints: 0
      ints: 0
      ints: 0
      type: INTS
    }
  }
  node {
    input: "efficientnet-lite4/model/blocks_17/tpu_batch_normalization/FusedBatchNormV3:0"
    input: "efficientnet-lite4/model/blocks_29/Relu6_1_min__569"
    input: "efficientnet-lite4/model/blocks_19/Relu6_1_max__380"
    output: "efficientnet-lite4/model/blocks_17/Relu6:0"
    name: "efficientnet-lite4/model/blocks_17/Relu6"
    op_type: "Clip"
  }
  node {
    input: "efficientnet-lite4/model/blocks_17/Relu6:0"
    input: "efficientnet-lite4/model/blocks_17/depthwise_conv2d/depthwise_weights_fused_bn"
    input: "efficientnet-lite4/model/blocks_17/depthwise_conv2d/depthwise_bias_fused_bn"
    output: "efficientnet-lite4/model/blocks_17/tpu_batch_normalization_1/FusedBatchNormV3:0"
    name: "efficientnet-lite4/model/blocks_17/depthwise_conv2d/depthwise"
    op_type: "Conv"
    attribute {
      name: "dilations"
      ints: 1
      ints: 1
      type: INTS
    }
    attribute {
      name: "strides"
      ints: 1
      ints: 1
      type: INTS
    }
    attribute {
      name: "kernel_shape"
      ints: 5
      ints: 5
      type: INTS
    }
    attribute {
      name: "group"
      i: 960
      type: INT
    }
    attribute {
      name: "pads"
      ints: 2
      ints: 2
      ints: 2
      ints: 2
      type: INTS
    }
  }
  node {
    input: "efficientnet-lite4/model/blocks_17/tpu_batch_normalization_1/FusedBatchNormV3:0"
    input: "efficientnet-lite4/model/blocks_29/Relu6_1_min__569"
    input: "efficientnet-lite4/model/blocks_19/Relu6_1_max__380"
    output: "efficientnet-lite4/model/blocks_17/Relu6_1:0"
    name: "efficientnet-lite4/model/blocks_17/Relu6_1"
    op_type: "Clip"
  }
  node {
    input: "efficientnet-lite4/model/blocks_17/Relu6_1:0"
    input: "efficientnet-lite4/model/blocks_17/conv2d_1/Conv2D_weights_fused_bn"
    input: "efficientnet-lite4/model/blocks_17/conv2d_1/Conv2D_bias_fused_bn"
    output: "efficientnet-lite4/model/blocks_17/tpu_batch_normalization_2/FusedBatchNormV3:0"
    name: "efficientnet-lite4/model/blocks_17/conv2d_1/Conv2D"
    op_type: "Conv"
    attribute {
      name: "dilations"
      ints: 1
      ints: 1
      type: INTS
    }
    attribute {
      name: "strides"
      ints: 1
      ints: 1
      type: INTS
    }
    attribute {
      name: "kernel_shape"
      ints: 1
      ints: 1
      type: INTS
    }
    attribute {
      name: "pads"
      ints: 0
      ints: 0
      ints: 0
      ints: 0
      type: INTS
    }
  }
  node {
    input: "efficientnet-lite4/model/blocks_17/tpu_batch_normalization_2/FusedBatchNormV3:0"
    input: "efficientnet-lite4/model/blocks_16/Add:0"
    output: "efficientnet-lite4/model/blocks_17/Add:0"
    name: "efficientnet-lite4/model/blocks_17/Add"
    op_type: "Add"
  }
  node {
    input: "efficientnet-lite4/model/blocks_17/Add:0"
    input: "efficientnet-lite4/model/blocks_18/conv2d/Conv2D_weights_fused_bn"
    input: "efficientnet-lite4/model/blocks_18/conv2d/Conv2D_bias_fused_bn"
    output: "efficientnet-lite4/model/blocks_18/tpu_batch_normalization/FusedBatchNormV3:0"
    name: "efficientnet-lite4/model/blocks_18/conv2d/Conv2D"
    op_type: "Conv"
    attribute {
      name: "dilations"
      ints: 1
      ints: 1
      type: INTS
    }
    attribute {
      name: "strides"
      ints: 1
      ints: 1
      type: INTS
    }
    attribute {
      name: "kernel_shape"
      ints: 1
      ints: 1
      type: INTS
    }
    attribute {
      name: "pads"
      ints: 0
      ints: 0
      ints: 0
      ints: 0
      type: INTS
    }
  }
  node {
    input: "efficientnet-lite4/model/blocks_18/tpu_batch_normalization/FusedBatchNormV3:0"
    input: "efficientnet-lite4/model/blocks_29/Relu6_1_min__569"
    input: "efficientnet-lite4/model/blocks_19/Relu6_1_max__380"
    output: "efficientnet-lite4/model/blocks_18/Relu6:0"
    name: "efficientnet-lite4/model/blocks_18/Relu6"
    op_type: "Clip"
  }
  node {
    input: "efficientnet-lite4/model/blocks_18/Relu6:0"
    input: "efficientnet-lite4/model/blocks_18/depthwise_conv2d/depthwise_weights_fused_bn"
    input: "efficientnet-lite4/model/blocks_18/depthwise_conv2d/depthwise_bias_fused_bn"
    output: "efficientnet-lite4/model/blocks_18/tpu_batch_normalization_1/FusedBatchNormV3:0"
    name: "efficientnet-lite4/model/blocks_18/depthwise_conv2d/depthwise"
    op_type: "Conv"
    attribute {
      name: "dilations"
      ints: 1
      ints: 1
      type: INTS
    }
    attribute {
      name: "strides"
      ints: 1
      ints: 1
      type: INTS
    }
    attribute {
      name: "kernel_shape"
      ints: 5
      ints: 5
      type: INTS
    }
    attribute {
      name: "group"
      i: 960
      type: INT
    }
    attribute {
      name: "pads"
      ints: 2
      ints: 2
      ints: 2
      ints: 2
      type: INTS
    }
  }
  node {
    input: "efficientnet-lite4/model/blocks_18/tpu_batch_normalization_1/FusedBatchNormV3:0"
    input: "efficientnet-lite4/model/blocks_29/Relu6_1_min__569"
    input: "efficientnet-lite4/model/blocks_19/Relu6_1_max__380"
    output: "efficientnet-lite4/model/blocks_18/Relu6_1:0"
    name: "efficientnet-lite4/model/blocks_18/Relu6_1"
    op_type: "Clip"
  }
  node {
    input: "efficientnet-lite4/model/blocks_18/Relu6_1:0"
    input: "efficientnet-lite4/model/blocks_18/conv2d_1/Conv2D_weights_fused_bn"
    input: "efficientnet-lite4/model/blocks_18/conv2d_1/Conv2D_bias_fused_bn"
    output: "efficientnet-lite4/model/blocks_18/tpu_batch_normalization_2/FusedBatchNormV3:0"
    name: "efficientnet-lite4/model/blocks_18/conv2d_1/Conv2D"
    op_type: "Conv"
    attribute {
      name: "dilations"
      ints: 1
      ints: 1
      type: INTS
    }
    attribute {
      name: "strides"
      ints: 1
      ints: 1
      type: INTS
    }
    attribute {
      name: "kernel_shape"
      ints: 1
      ints: 1
      type: INTS
    }
    attribute {
      name: "pads"
      ints: 0
      ints: 0
      ints: 0
      ints: 0
      type: INTS
    }
  }
  node {
    input: "efficientnet-lite4/model/blocks_18/tpu_batch_normalization_2/FusedBatchNormV3:0"
    input: "efficientnet-lite4/model/blocks_17/Add:0"
    output: "efficientnet-lite4/model/blocks_18/Add:0"
    name: "efficientnet-lite4/model/blocks_18/Add"
    op_type: "Add"
  }
  node {
    input: "efficientnet-lite4/model/blocks_18/Add:0"
    input: "efficientnet-lite4/model/blocks_19/conv2d/Conv2D_weights_fused_bn"
    input: "efficientnet-lite4/model/blocks_19/conv2d/Conv2D_bias_fused_bn"
    output: "efficientnet-lite4/model/blocks_19/tpu_batch_normalization/FusedBatchNormV3:0"
    name: "efficientnet-lite4/model/blocks_19/conv2d/Conv2D"
    op_type: "Conv"
    attribute {
      name: "dilations"
      ints: 1
      ints: 1
      type: INTS
    }
    attribute {
      name: "strides"
      ints: 1
      ints: 1
      type: INTS
    }
    attribute {
      name: "kernel_shape"
      ints: 1
      ints: 1
      type: INTS
    }
    attribute {
      name: "pads"
      ints: 0
      ints: 0
      ints: 0
      ints: 0
      type: INTS
    }
  }
  node {
    input: "efficientnet-lite4/model/blocks_19/tpu_batch_normalization/FusedBatchNormV3:0"
    input: "efficientnet-lite4/model/blocks_29/Relu6_1_min__569"
    input: "efficientnet-lite4/model/blocks_19/Relu6_1_max__380"
    output: "efficientnet-lite4/model/blocks_19/Relu6:0"
    name: "efficientnet-lite4/model/blocks_19/Relu6"
    op_type: "Clip"
  }
  node {
    input: "efficientnet-lite4/model/blocks_19/Relu6:0"
    input: "efficientnet-lite4/model/blocks_19/depthwise_conv2d/depthwise_weights_fused_bn"
    input: "efficientnet-lite4/model/blocks_19/depthwise_conv2d/depthwise_bias_fused_bn"
    output: "efficientnet-lite4/model/blocks_19/tpu_batch_normalization_1/FusedBatchNormV3:0"
    name: "efficientnet-lite4/model/blocks_19/depthwise_conv2d/depthwise"
    op_type: "Conv"
    attribute {
      name: "dilations"
      ints: 1
      ints: 1
      type: INTS
    }
    attribute {
      name: "strides"
      ints: 1
      ints: 1
      type: INTS
    }
    attribute {
      name: "kernel_shape"
      ints: 5
      ints: 5
      type: INTS
    }
    attribute {
      name: "group"
      i: 960
      type: INT
    }
    attribute {
      name: "pads"
      ints: 2
      ints: 2
      ints: 2
      ints: 2
      type: INTS
    }
  }
  node {
    input: "efficientnet-lite4/model/blocks_19/tpu_batch_normalization_1/FusedBatchNormV3:0"
    input: "efficientnet-lite4/model/blocks_29/Relu6_1_min__569"
    input: "efficientnet-lite4/model/blocks_19/Relu6_1_max__380"
    output: "efficientnet-lite4/model/blocks_19/Relu6_1:0"
    name: "efficientnet-lite4/model/blocks_19/Relu6_1"
    op_type: "Clip"
  }
  node {
    input: "efficientnet-lite4/model/blocks_19/Relu6_1:0"
    input: "efficientnet-lite4/model/blocks_19/conv2d_1/Conv2D_weights_fused_bn"
    input: "efficientnet-lite4/model/blocks_19/conv2d_1/Conv2D_bias_fused_bn"
    output: "efficientnet-lite4/model/blocks_19/tpu_batch_normalization_2/FusedBatchNormV3:0"
    name: "efficientnet-lite4/model/blocks_19/conv2d_1/Conv2D"
    op_type: "Conv"
    attribute {
      name: "dilations"
      ints: 1
      ints: 1
      type: INTS
    }
    attribute {
      name: "strides"
      ints: 1
      ints: 1
      type: INTS
    }
    attribute {
      name: "kernel_shape"
      ints: 1
      ints: 1
      type: INTS
    }
    attribute {
      name: "pads"
      ints: 0
      ints: 0
      ints: 0
      ints: 0
      type: INTS
    }
  }
  node {
    input: "efficientnet-lite4/model/blocks_19/tpu_batch_normalization_2/FusedBatchNormV3:0"
    input: "efficientnet-lite4/model/blocks_18/Add:0"
    output: "efficientnet-lite4/model/blocks_19/Add:0"
    name: "efficientnet-lite4/model/blocks_19/Add"
    op_type: "Add"
  }
  node {
    input: "efficientnet-lite4/model/blocks_19/Add:0"
    input: "efficientnet-lite4/model/blocks_20/conv2d/Conv2D_weights_fused_bn"
    input: "efficientnet-lite4/model/blocks_20/conv2d/Conv2D_bias_fused_bn"
    output: "efficientnet-lite4/model/blocks_20/tpu_batch_normalization/FusedBatchNormV3:0"
    name: "efficientnet-lite4/model/blocks_20/conv2d/Conv2D"
    op_type: "Conv"
    attribute {
      name: "dilations"
      ints: 1
      ints: 1
      type: INTS
    }
    attribute {
      name: "strides"
      ints: 1
      ints: 1
      type: INTS
    }
    attribute {
      name: "kernel_shape"
      ints: 1
      ints: 1
      type: INTS
    }
    attribute {
      name: "pads"
      ints: 0
      ints: 0
      ints: 0
      ints: 0
      type: INTS
    }
  }
  node {
    input: "efficientnet-lite4/model/blocks_20/tpu_batch_normalization/FusedBatchNormV3:0"
    input: "efficientnet-lite4/model/blocks_29/Relu6_1_min__569"
    input: "efficientnet-lite4/model/blocks_19/Relu6_1_max__380"
    output: "efficientnet-lite4/model/blocks_20/Relu6:0"
    name: "efficientnet-lite4/model/blocks_20/Relu6"
    op_type: "Clip"
  }
  node {
    input: "efficientnet-lite4/model/blocks_20/Relu6:0"
    input: "efficientnet-lite4/model/blocks_20/depthwise_conv2d/depthwise_weights_fused_bn"
    input: "efficientnet-lite4/model/blocks_20/depthwise_conv2d/depthwise_bias_fused_bn"
    output: "efficientnet-lite4/model/blocks_20/tpu_batch_normalization_1/FusedBatchNormV3:0"
    name: "efficientnet-lite4/model/blocks_20/depthwise_conv2d/depthwise"
    op_type: "Conv"
    attribute {
      name: "dilations"
      ints: 1
      ints: 1
      type: INTS
    }
    attribute {
      name: "strides"
      ints: 1
      ints: 1
      type: INTS
    }
    attribute {
      name: "kernel_shape"
      ints: 5
      ints: 5
      type: INTS
    }
    attribute {
      name: "group"
      i: 960
      type: INT
    }
    attribute {
      name: "pads"
      ints: 2
      ints: 2
      ints: 2
      ints: 2
      type: INTS
    }
  }
  node {
    input: "efficientnet-lite4/model/blocks_20/tpu_batch_normalization_1/FusedBatchNormV3:0"
    input: "efficientnet-lite4/model/blocks_29/Relu6_1_min__569"
    input: "efficientnet-lite4/model/blocks_19/Relu6_1_max__380"
    output: "efficientnet-lite4/model/blocks_20/Relu6_1:0"
    name: "efficientnet-lite4/model/blocks_20/Relu6_1"
    op_type: "Clip"
  }
  node {
    input: "efficientnet-lite4/model/blocks_20/Relu6_1:0"
    input: "efficientnet-lite4/model/blocks_20/conv2d_1/Conv2D_weights_fused_bn"
    input: "efficientnet-lite4/model/blocks_20/conv2d_1/Conv2D_bias_fused_bn"
    output: "efficientnet-lite4/model/blocks_20/tpu_batch_normalization_2/FusedBatchNormV3:0"
    name: "efficientnet-lite4/model/blocks_20/conv2d_1/Conv2D"
    op_type: "Conv"
    attribute {
      name: "dilations"
      ints: 1
      ints: 1
      type: INTS
    }
    attribute {
      name: "strides"
      ints: 1
      ints: 1
      type: INTS
    }
    attribute {
      name: "kernel_shape"
      ints: 1
      ints: 1
      type: INTS
    }
    attribute {
      name: "pads"
      ints: 0
      ints: 0
      ints: 0
      ints: 0
      type: INTS
    }
  }
  node {
    input: "efficientnet-lite4/model/blocks_20/tpu_batch_normalization_2/FusedBatchNormV3:0"
    input: "efficientnet-lite4/model/blocks_19/Add:0"
    output: "efficientnet-lite4/model/blocks_20/Add:0"
    name: "efficientnet-lite4/model/blocks_20/Add"
    op_type: "Add"
  }
  node {
    input: "efficientnet-lite4/model/blocks_20/Add:0"
    input: "efficientnet-lite4/model/blocks_21/conv2d/Conv2D_weights_fused_bn"
    input: "efficientnet-lite4/model/blocks_21/conv2d/Conv2D_bias_fused_bn"
    output: "efficientnet-lite4/model/blocks_21/tpu_batch_normalization/FusedBatchNormV3:0"
    name: "efficientnet-lite4/model/blocks_21/conv2d/Conv2D"
    op_type: "Conv"
    attribute {
      name: "dilations"
      ints: 1
      ints: 1
      type: INTS
    }
    attribute {
      name: "strides"
      ints: 1
      ints: 1
      type: INTS
    }
    attribute {
      name: "kernel_shape"
      ints: 1
      ints: 1
      type: INTS
    }
    attribute {
      name: "pads"
      ints: 0
      ints: 0
      ints: 0
      ints: 0
      type: INTS
    }
  }
  node {
    input: "efficientnet-lite4/model/blocks_21/tpu_batch_normalization/FusedBatchNormV3:0"
    input: "efficientnet-lite4/model/blocks_29/Relu6_1_min__569"
    input: "efficientnet-lite4/model/blocks_19/Relu6_1_max__380"
    output: "efficientnet-lite4/model/blocks_21/Relu6:0"
    name: "efficientnet-lite4/model/blocks_21/Relu6"
    op_type: "Clip"
  }
  node {
    input: "efficientnet-lite4/model/blocks_21/Relu6:0"
    input: "efficientnet-lite4/model/blocks_21/depthwise_conv2d/depthwise_weights_fused_bn"
    input: "efficientnet-lite4/model/blocks_21/depthwise_conv2d/depthwise_bias_fused_bn"
    output: "efficientnet-lite4/model/blocks_21/tpu_batch_normalization_1/FusedBatchNormV3:0"
    name: "efficientnet-lite4/model/blocks_21/depthwise_conv2d/depthwise"
    op_type: "Conv"
    attribute {
      name: "dilations"
      ints: 1
      ints: 1
      type: INTS
    }
    attribute {
      name: "strides"
      ints: 2
      ints: 2
      type: INTS
    }
    attribute {
      name: "kernel_shape"
      ints: 5
      ints: 5
      type: INTS
    }
    attribute {
      name: "group"
      i: 960
      type: INT
    }
    attribute {
      name: "pads"
      ints: 1
      ints: 1
      ints: 2
      ints: 2
      type: INTS
    }
  }
  node {
    input: "efficientnet-lite4/model/blocks_21/tpu_batch_normalization_1/FusedBatchNormV3:0"
    input: "efficientnet-lite4/model/blocks_29/Relu6_1_min__569"
    input: "efficientnet-lite4/model/blocks_19/Relu6_1_max__380"
    output: "efficientnet-lite4/model/blocks_21/Relu6_1:0"
    name: "efficientnet-lite4/model/blocks_21/Relu6_1"
    op_type: "Clip"
  }
  node {
    input: "efficientnet-lite4/model/blocks_21/Relu6_1:0"
    input: "efficientnet-lite4/model/blocks_21/conv2d_1/Conv2D_weights_fused_bn"
    input: "efficientnet-lite4/model/blocks_21/conv2d_1/Conv2D_bias_fused_bn"
    output: "efficientnet-lite4/model/blocks_21/tpu_batch_normalization_2/FusedBatchNormV3:0"
    name: "efficientnet-lite4/model/blocks_21/conv2d_1/Conv2D"
    op_type: "Conv"
    attribute {
      name: "dilations"
      ints: 1
      ints: 1
      type: INTS
    }
    attribute {
      name: "strides"
      ints: 1
      ints: 1
      type: INTS
    }
    attribute {
      name: "kernel_shape"
      ints: 1
      ints: 1
      type: INTS
    }
    attribute {
      name: "pads"
      ints: 0
      ints: 0
      ints: 0
      ints: 0
      type: INTS
    }
  }
  node {
    input: "efficientnet-lite4/model/blocks_21/tpu_batch_normalization_2/FusedBatchNormV3:0"
    input: "efficientnet-lite4/model/blocks_22/conv2d/Conv2D/ReadVariableOp:0"
    output: "efficientnet-lite4/model/blocks_22/conv2d/Conv2D:0"
    name: "efficientnet-lite4/model/blocks_22/conv2d/Conv2D"
    op_type: "Conv"
    attribute {
      name: "dilations"
      ints: 1
      ints: 1
      type: INTS
    }
    attribute {
      name: "strides"
      ints: 1
      ints: 1
      type: INTS
    }
    attribute {
      name: "kernel_shape"
      ints: 1
      ints: 1
      type: INTS
    }
    attribute {
      name: "pads"
      ints: 0
      ints: 0
      ints: 0
      ints: 0
      type: INTS
    }
  }
  node {
    input: "efficientnet-lite4/model/blocks_22/conv2d/Conv2D:0"
    input: "efficientnet-lite4/model/blocks_22/tpu_batch_normalization/ReadVariableOp:0"
    input: "efficientnet-lite4/model/blocks_22/tpu_batch_normalization/ReadVariableOp_1:0"
    input: "efficientnet-lite4/model/blocks_22/tpu_batch_normalization/FusedBatchNormV3/ReadVariableOp:0"
    input: "efficientnet-lite4/model/blocks_22/tpu_batch_normalization/FusedBatchNormV3/ReadVariableOp_1:0"
    output: "efficientnet-lite4/model/blocks_22/tpu_batch_normalization/FusedBatchNormV3:0"
    name: "efficientnet-lite4/model/blocks_22/tpu_batch_normalization/FusedBatchNormV3"
    op_type: "BatchNormalization"
    attribute {
      name: "epsilon"
      f: 0.001
      type: FLOAT
    }
  }
  node {
    input: "efficientnet-lite4/model/blocks_22/tpu_batch_normalization/FusedBatchNormV3:0"
    input: "efficientnet-lite4/model/blocks_29/Relu6_1_min__569"
    input: "efficientnet-lite4/model/blocks_19/Relu6_1_max__380"
    output: "efficientnet-lite4/model/blocks_22/Relu6:0"
    name: "efficientnet-lite4/model/blocks_22/Relu6"
    op_type: "Clip"
  }
  node {
    input: "efficientnet-lite4/model/blocks_22/Relu6:0"
    input: "efficientnet-lite4/model/blocks_22/depthwise_conv2d/depthwise_weights_fused_bn"
    input: "efficientnet-lite4/model/blocks_22/depthwise_conv2d/depthwise_bias_fused_bn"
    output: "efficientnet-lite4/model/blocks_22/tpu_batch_normalization_1/FusedBatchNormV3:0"
    name: "efficientnet-lite4/model/blocks_22/depthwise_conv2d/depthwise"
    op_type: "Conv"
    attribute {
      name: "dilations"
      ints: 1
      ints: 1
      type: INTS
    }
    attribute {
      name: "strides"
      ints: 1
      ints: 1
      type: INTS
    }
    attribute {
      name: "kernel_shape"
      ints: 5
      ints: 5
      type: INTS
    }
    attribute {
      name: "group"
      i: 1632
      type: INT
    }
    attribute {
      name: "pads"
      ints: 2
      ints: 2
      ints: 2
      ints: 2
      type: INTS
    }
  }
  node {
    input: "efficientnet-lite4/model/blocks_22/tpu_batch_normalization_1/FusedBatchNormV3:0"
    input: "efficientnet-lite4/model/blocks_29/Relu6_1_min__569"
    input: "efficientnet-lite4/model/blocks_19/Relu6_1_max__380"
    output: "efficientnet-lite4/model/blocks_22/Relu6_1:0"
    name: "efficientnet-lite4/model/blocks_22/Relu6_1"
    op_type: "Clip"
  }
  node {
    input: "efficientnet-lite4/model/blocks_22/Relu6_1:0"
    input: "efficientnet-lite4/model/blocks_22/conv2d_1/Conv2D_weights_fused_bn"
    input: "efficientnet-lite4/model/blocks_22/conv2d_1/Conv2D_bias_fused_bn"
    output: "efficientnet-lite4/model/blocks_22/tpu_batch_normalization_2/FusedBatchNormV3:0"
    name: "efficientnet-lite4/model/blocks_22/conv2d_1/Conv2D"
    op_type: "Conv"
    attribute {
      name: "dilations"
      ints: 1
      ints: 1
      type: INTS
    }
    attribute {
      name: "strides"
      ints: 1
      ints: 1
      type: INTS
    }
    attribute {
      name: "kernel_shape"
      ints: 1
      ints: 1
      type: INTS
    }
    attribute {
      name: "pads"
      ints: 0
      ints: 0
      ints: 0
      ints: 0
      type: INTS
    }
  }
  node {
    input: "efficientnet-lite4/model/blocks_22/tpu_batch_normalization_2/FusedBatchNormV3:0"
    input: "efficientnet-lite4/model/blocks_21/tpu_batch_normalization_2/FusedBatchNormV3:0"
    output: "efficientnet-lite4/model/blocks_22/Add:0"
    name: "efficientnet-lite4/model/blocks_22/Add"
    op_type: "Add"
  }
  node {
    input: "efficientnet-lite4/model/blocks_22/Add:0"
    input: "efficientnet-lite4/model/blocks_23/conv2d/Conv2D_weights_fused_bn"
    input: "efficientnet-lite4/model/blocks_23/conv2d/Conv2D_bias_fused_bn"
    output: "efficientnet-lite4/model/blocks_23/tpu_batch_normalization/FusedBatchNormV3:0"
    name: "efficientnet-lite4/model/blocks_23/conv2d/Conv2D"
    op_type: "Conv"
    attribute {
      name: "dilations"
      ints: 1
      ints: 1
      type: INTS
    }
    attribute {
      name: "strides"
      ints: 1
      ints: 1
      type: INTS
    }
    attribute {
      name: "kernel_shape"
      ints: 1
      ints: 1
      type: INTS
    }
    attribute {
      name: "pads"
      ints: 0
      ints: 0
      ints: 0
      ints: 0
      type: INTS
    }
  }
  node {
    input: "efficientnet-lite4/model/blocks_23/tpu_batch_normalization/FusedBatchNormV3:0"
    input: "efficientnet-lite4/model/blocks_29/Relu6_1_min__569"
    input: "efficientnet-lite4/model/blocks_19/Relu6_1_max__380"
    output: "efficientnet-lite4/model/blocks_23/Relu6:0"
    name: "efficientnet-lite4/model/blocks_23/Relu6"
    op_type: "Clip"
  }
  node {
    input: "efficientnet-lite4/model/blocks_23/Relu6:0"
    input: "efficientnet-lite4/model/blocks_23/depthwise_conv2d/depthwise_weights_fused_bn"
    input: "efficientnet-lite4/model/blocks_23/depthwise_conv2d/depthwise_bias_fused_bn"
    output: "efficientnet-lite4/model/blocks_23/tpu_batch_normalization_1/FusedBatchNormV3:0"
    name: "efficientnet-lite4/model/blocks_23/depthwise_conv2d/depthwise"
    op_type: "Conv"
    attribute {
      name: "dilations"
      ints: 1
      ints: 1
      type: INTS
    }
    attribute {
      name: "strides"
      ints: 1
      ints: 1
      type: INTS
    }
    attribute {
      name: "kernel_shape"
      ints: 5
      ints: 5
      type: INTS
    }
    attribute {
      name: "group"
      i: 1632
      type: INT
    }
    attribute {
      name: "pads"
      ints: 2
      ints: 2
      ints: 2
      ints: 2
      type: INTS
    }
  }
  node {
    input: "efficientnet-lite4/model/blocks_23/tpu_batch_normalization_1/FusedBatchNormV3:0"
    input: "efficientnet-lite4/model/blocks_29/Relu6_1_min__569"
    input: "efficientnet-lite4/model/blocks_19/Relu6_1_max__380"
    output: "efficientnet-lite4/model/blocks_23/Relu6_1:0"
    name: "efficientnet-lite4/model/blocks_23/Relu6_1"
    op_type: "Clip"
  }
  node {
    input: "efficientnet-lite4/model/blocks_23/Relu6_1:0"
    input: "efficientnet-lite4/model/blocks_23/conv2d_1/Conv2D_weights_fused_bn"
    input: "efficientnet-lite4/model/blocks_23/conv2d_1/Conv2D_bias_fused_bn"
    output: "efficientnet-lite4/model/blocks_23/tpu_batch_normalization_2/FusedBatchNormV3:0"
    name: "efficientnet-lite4/model/blocks_23/conv2d_1/Conv2D"
    op_type: "Conv"
    attribute {
      name: "dilations"
      ints: 1
      ints: 1
      type: INTS
    }
    attribute {
      name: "strides"
      ints: 1
      ints: 1
      type: INTS
    }
    attribute {
      name: "kernel_shape"
      ints: 1
      ints: 1
      type: INTS
    }
    attribute {
      name: "pads"
      ints: 0
      ints: 0
      ints: 0
      ints: 0
      type: INTS
    }
  }
  node {
    input: "efficientnet-lite4/model/blocks_23/tpu_batch_normalization_2/FusedBatchNormV3:0"
    input: "efficientnet-lite4/model/blocks_22/Add:0"
    output: "efficientnet-lite4/model/blocks_23/Add:0"
    name: "efficientnet-lite4/model/blocks_23/Add"
    op_type: "Add"
  }
  node {
    input: "efficientnet-lite4/model/blocks_23/Add:0"
    input: "efficientnet-lite4/model/blocks_24/conv2d/Conv2D_weights_fused_bn"
    input: "efficientnet-lite4/model/blocks_24/conv2d/Conv2D_bias_fused_bn"
    output: "efficientnet-lite4/model/blocks_24/tpu_batch_normalization/FusedBatchNormV3:0"
    name: "efficientnet-lite4/model/blocks_24/conv2d/Conv2D"
    op_type: "Conv"
    attribute {
      name: "dilations"
      ints: 1
      ints: 1
      type: INTS
    }
    attribute {
      name: "strides"
      ints: 1
      ints: 1
      type: INTS
    }
    attribute {
      name: "kernel_shape"
      ints: 1
      ints: 1
      type: INTS
    }
    attribute {
      name: "pads"
      ints: 0
      ints: 0
      ints: 0
      ints: 0
      type: INTS
    }
  }
  node {
    input: "efficientnet-lite4/model/blocks_24/tpu_batch_normalization/FusedBatchNormV3:0"
    input: "efficientnet-lite4/model/blocks_29/Relu6_1_min__569"
    input: "efficientnet-lite4/model/blocks_19/Relu6_1_max__380"
    output: "efficientnet-lite4/model/blocks_24/Relu6:0"
    name: "efficientnet-lite4/model/blocks_24/Relu6"
    op_type: "Clip"
  }
  node {
    input: "efficientnet-lite4/model/blocks_24/Relu6:0"
    input: "efficientnet-lite4/model/blocks_24/depthwise_conv2d/depthwise_weights_fused_bn"
    input: "efficientnet-lite4/model/blocks_24/depthwise_conv2d/depthwise_bias_fused_bn"
    output: "efficientnet-lite4/model/blocks_24/tpu_batch_normalization_1/FusedBatchNormV3:0"
    name: "efficientnet-lite4/model/blocks_24/depthwise_conv2d/depthwise"
    op_type: "Conv"
    attribute {
      name: "dilations"
      ints: 1
      ints: 1
      type: INTS
    }
    attribute {
      name: "strides"
      ints: 1
      ints: 1
      type: INTS
    }
    attribute {
      name: "kernel_shape"
      ints: 5
      ints: 5
      type: INTS
    }
    attribute {
      name: "group"
      i: 1632
      type: INT
    }
    attribute {
      name: "pads"
      ints: 2
      ints: 2
      ints: 2
      ints: 2
      type: INTS
    }
  }
  node {
    input: "efficientnet-lite4/model/blocks_24/tpu_batch_normalization_1/FusedBatchNormV3:0"
    input: "efficientnet-lite4/model/blocks_29/Relu6_1_min__569"
    input: "efficientnet-lite4/model/blocks_19/Relu6_1_max__380"
    output: "efficientnet-lite4/model/blocks_24/Relu6_1:0"
    name: "efficientnet-lite4/model/blocks_24/Relu6_1"
    op_type: "Clip"
  }
  node {
    input: "efficientnet-lite4/model/blocks_24/Relu6_1:0"
    input: "efficientnet-lite4/model/blocks_24/conv2d_1/Conv2D_weights_fused_bn"
    input: "efficientnet-lite4/model/blocks_24/conv2d_1/Conv2D_bias_fused_bn"
    output: "efficientnet-lite4/model/blocks_24/tpu_batch_normalization_2/FusedBatchNormV3:0"
    name: "efficientnet-lite4/model/blocks_24/conv2d_1/Conv2D"
    op_type: "Conv"
    attribute {
      name: "dilations"
      ints: 1
      ints: 1
      type: INTS
    }
    attribute {
      name: "strides"
      ints: 1
      ints: 1
      type: INTS
    }
    attribute {
      name: "kernel_shape"
      ints: 1
      ints: 1
      type: INTS
    }
    attribute {
      name: "pads"
      ints: 0
      ints: 0
      ints: 0
      ints: 0
      type: INTS
    }
  }
  node {
    input: "efficientnet-lite4/model/blocks_24/tpu_batch_normalization_2/FusedBatchNormV3:0"
    input: "efficientnet-lite4/model/blocks_23/Add:0"
    output: "efficientnet-lite4/model/blocks_24/Add:0"
    name: "efficientnet-lite4/model/blocks_24/Add"
    op_type: "Add"
  }
  node {
    input: "efficientnet-lite4/model/blocks_24/Add:0"
    input: "efficientnet-lite4/model/blocks_25/conv2d/Conv2D_weights_fused_bn"
    input: "efficientnet-lite4/model/blocks_25/conv2d/Conv2D_bias_fused_bn"
    output: "efficientnet-lite4/model/blocks_25/tpu_batch_normalization/FusedBatchNormV3:0"
    name: "efficientnet-lite4/model/blocks_25/conv2d/Conv2D"
    op_type: "Conv"
    attribute {
      name: "dilations"
      ints: 1
      ints: 1
      type: INTS
    }
    attribute {
      name: "strides"
      ints: 1
      ints: 1
      type: INTS
    }
    attribute {
      name: "kernel_shape"
      ints: 1
      ints: 1
      type: INTS
    }
    attribute {
      name: "pads"
      ints: 0
      ints: 0
      ints: 0
      ints: 0
      type: INTS
    }
  }
  node {
    input: "efficientnet-lite4/model/blocks_25/tpu_batch_normalization/FusedBatchNormV3:0"
    input: "efficientnet-lite4/model/blocks_29/Relu6_1_min__569"
    input: "efficientnet-lite4/model/blocks_19/Relu6_1_max__380"
    output: "efficientnet-lite4/model/blocks_25/Relu6:0"
    name: "efficientnet-lite4/model/blocks_25/Relu6"
    op_type: "Clip"
  }
  node {
    input: "efficientnet-lite4/model/blocks_25/Relu6:0"
    input: "efficientnet-lite4/model/blocks_25/depthwise_conv2d/depthwise_weights_fused_bn"
    input: "efficientnet-lite4/model/blocks_25/depthwise_conv2d/depthwise_bias_fused_bn"
    output: "efficientnet-lite4/model/blocks_25/tpu_batch_normalization_1/FusedBatchNormV3:0"
    name: "efficientnet-lite4/model/blocks_25/depthwise_conv2d/depthwise"
    op_type: "Conv"
    attribute {
      name: "dilations"
      ints: 1
      ints: 1
      type: INTS
    }
    attribute {
      name: "strides"
      ints: 1
      ints: 1
      type: INTS
    }
    attribute {
      name: "kernel_shape"
      ints: 5
      ints: 5
      type: INTS
    }
    attribute {
      name: "group"
      i: 1632
      type: INT
    }
    attribute {
      name: "pads"
      ints: 2
      ints: 2
      ints: 2
      ints: 2
      type: INTS
    }
  }
  node {
    input: "efficientnet-lite4/model/blocks_25/tpu_batch_normalization_1/FusedBatchNormV3:0"
    input: "efficientnet-lite4/model/blocks_29/Relu6_1_min__569"
    input: "efficientnet-lite4/model/blocks_19/Relu6_1_max__380"
    output: "efficientnet-lite4/model/blocks_25/Relu6_1:0"
    name: "efficientnet-lite4/model/blocks_25/Relu6_1"
    op_type: "Clip"
  }
  node {
    input: "efficientnet-lite4/model/blocks_25/Relu6_1:0"
    input: "efficientnet-lite4/model/blocks_25/conv2d_1/Conv2D_weights_fused_bn"
    input: "efficientnet-lite4/model/blocks_25/conv2d_1/Conv2D_bias_fused_bn"
    output: "efficientnet-lite4/model/blocks_25/tpu_batch_normalization_2/FusedBatchNormV3:0"
    name: "efficientnet-lite4/model/blocks_25/conv2d_1/Conv2D"
    op_type: "Conv"
    attribute {
      name: "dilations"
      ints: 1
      ints: 1
      type: INTS
    }
    attribute {
      name: "strides"
      ints: 1
      ints: 1
      type: INTS
    }
    attribute {
      name: "kernel_shape"
      ints: 1
      ints: 1
      type: INTS
    }
    attribute {
      name: "pads"
      ints: 0
      ints: 0
      ints: 0
      ints: 0
      type: INTS
    }
  }
  node {
    input: "efficientnet-lite4/model/blocks_25/tpu_batch_normalization_2/FusedBatchNormV3:0"
    input: "efficientnet-lite4/model/blocks_24/Add:0"
    output: "efficientnet-lite4/model/blocks_25/Add:0"
    name: "efficientnet-lite4/model/blocks_25/Add"
    op_type: "Add"
  }
  node {
    input: "efficientnet-lite4/model/blocks_25/Add:0"
    input: "efficientnet-lite4/model/blocks_26/conv2d/Conv2D_weights_fused_bn"
    input: "efficientnet-lite4/model/blocks_26/conv2d/Conv2D_bias_fused_bn"
    output: "efficientnet-lite4/model/blocks_26/tpu_batch_normalization/FusedBatchNormV3:0"
    name: "efficientnet-lite4/model/blocks_26/conv2d/Conv2D"
    op_type: "Conv"
    attribute {
      name: "dilations"
      ints: 1
      ints: 1
      type: INTS
    }
    attribute {
      name: "strides"
      ints: 1
      ints: 1
      type: INTS
    }
    attribute {
      name: "kernel_shape"
      ints: 1
      ints: 1
      type: INTS
    }
    attribute {
      name: "pads"
      ints: 0
      ints: 0
      ints: 0
      ints: 0
      type: INTS
    }
  }
  node {
    input: "efficientnet-lite4/model/blocks_26/tpu_batch_normalization/FusedBatchNormV3:0"
    input: "efficientnet-lite4/model/blocks_29/Relu6_1_min__569"
    input: "efficientnet-lite4/model/blocks_19/Relu6_1_max__380"
    output: "efficientnet-lite4/model/blocks_26/Relu6:0"
    name: "efficientnet-lite4/model/blocks_26/Relu6"
    op_type: "Clip"
  }
  node {
    input: "efficientnet-lite4/model/blocks_26/Relu6:0"
    input: "efficientnet-lite4/model/blocks_26/depthwise_conv2d/depthwise_weights_fused_bn"
    input: "efficientnet-lite4/model/blocks_26/depthwise_conv2d/depthwise_bias_fused_bn"
    output: "efficientnet-lite4/model/blocks_26/tpu_batch_normalization_1/FusedBatchNormV3:0"
    name: "efficientnet-lite4/model/blocks_26/depthwise_conv2d/depthwise"
    op_type: "Conv"
    attribute {
      name: "dilations"
      ints: 1
      ints: 1
      type: INTS
    }
    attribute {
      name: "strides"
      ints: 1
      ints: 1
      type: INTS
    }
    attribute {
      name: "kernel_shape"
      ints: 5
      ints: 5
      type: INTS
    }
    attribute {
      name: "group"
      i: 1632
      type: INT
    }
    attribute {
      name: "pads"
      ints: 2
      ints: 2
      ints: 2
      ints: 2
      type: INTS
    }
  }
  node {
    input: "efficientnet-lite4/model/blocks_26/tpu_batch_normalization_1/FusedBatchNormV3:0"
    input: "efficientnet-lite4/model/blocks_29/Relu6_1_min__569"
    input: "efficientnet-lite4/model/blocks_19/Relu6_1_max__380"
    output: "efficientnet-lite4/model/blocks_26/Relu6_1:0"
    name: "efficientnet-lite4/model/blocks_26/Relu6_1"
    op_type: "Clip"
  }
  node {
    input: "efficientnet-lite4/model/blocks_26/Relu6_1:0"
    input: "efficientnet-lite4/model/blocks_26/conv2d_1/Conv2D_weights_fused_bn"
    input: "efficientnet-lite4/model/blocks_26/conv2d_1/Conv2D_bias_fused_bn"
    output: "efficientnet-lite4/model/blocks_26/tpu_batch_normalization_2/FusedBatchNormV3:0"
    name: "efficientnet-lite4/model/blocks_26/conv2d_1/Conv2D"
    op_type: "Conv"
    attribute {
      name: "dilations"
      ints: 1
      ints: 1
      type: INTS
    }
    attribute {
      name: "strides"
      ints: 1
      ints: 1
      type: INTS
    }
    attribute {
      name: "kernel_shape"
      ints: 1
      ints: 1
      type: INTS
    }
    attribute {
      name: "pads"
      ints: 0
      ints: 0
      ints: 0
      ints: 0
      type: INTS
    }
  }
  node {
    input: "efficientnet-lite4/model/blocks_26/tpu_batch_normalization_2/FusedBatchNormV3:0"
    input: "efficientnet-lite4/model/blocks_25/Add:0"
    output: "efficientnet-lite4/model/blocks_26/Add:0"
    name: "efficientnet-lite4/model/blocks_26/Add"
    op_type: "Add"
  }
  node {
    input: "efficientnet-lite4/model/blocks_26/Add:0"
    input: "efficientnet-lite4/model/blocks_27/conv2d/Conv2D_weights_fused_bn"
    input: "efficientnet-lite4/model/blocks_27/conv2d/Conv2D_bias_fused_bn"
    output: "efficientnet-lite4/model/blocks_27/tpu_batch_normalization/FusedBatchNormV3:0"
    name: "efficientnet-lite4/model/blocks_27/conv2d/Conv2D"
    op_type: "Conv"
    attribute {
      name: "dilations"
      ints: 1
      ints: 1
      type: INTS
    }
    attribute {
      name: "strides"
      ints: 1
      ints: 1
      type: INTS
    }
    attribute {
      name: "kernel_shape"
      ints: 1
      ints: 1
      type: INTS
    }
    attribute {
      name: "pads"
      ints: 0
      ints: 0
      ints: 0
      ints: 0
      type: INTS
    }
  }
  node {
    input: "efficientnet-lite4/model/blocks_27/tpu_batch_normalization/FusedBatchNormV3:0"
    input: "efficientnet-lite4/model/blocks_29/Relu6_1_min__569"
    input: "efficientnet-lite4/model/blocks_19/Relu6_1_max__380"
    output: "efficientnet-lite4/model/blocks_27/Relu6:0"
    name: "efficientnet-lite4/model/blocks_27/Relu6"
    op_type: "Clip"
  }
  node {
    input: "efficientnet-lite4/model/blocks_27/Relu6:0"
    input: "efficientnet-lite4/model/blocks_27/depthwise_conv2d/depthwise_weights_fused_bn"
    input: "efficientnet-lite4/model/blocks_27/depthwise_conv2d/depthwise_bias_fused_bn"
    output: "efficientnet-lite4/model/blocks_27/tpu_batch_normalization_1/FusedBatchNormV3:0"
    name: "efficientnet-lite4/model/blocks_27/depthwise_conv2d/depthwise"
    op_type: "Conv"
    attribute {
      name: "dilations"
      ints: 1
      ints: 1
      type: INTS
    }
    attribute {
      name: "strides"
      ints: 1
      ints: 1
      type: INTS
    }
    attribute {
      name: "kernel_shape"
      ints: 5
      ints: 5
      type: INTS
    }
    attribute {
      name: "group"
      i: 1632
      type: INT
    }
    attribute {
      name: "pads"
      ints: 2
      ints: 2
      ints: 2
      ints: 2
      type: INTS
    }
  }
  node {
    input: "efficientnet-lite4/model/blocks_27/tpu_batch_normalization_1/FusedBatchNormV3:0"
    input: "efficientnet-lite4/model/blocks_29/Relu6_1_min__569"
    input: "efficientnet-lite4/model/blocks_19/Relu6_1_max__380"
    output: "efficientnet-lite4/model/blocks_27/Relu6_1:0"
    name: "efficientnet-lite4/model/blocks_27/Relu6_1"
    op_type: "Clip"
  }
  node {
    input: "efficientnet-lite4/model/blocks_27/Relu6_1:0"
    input: "efficientnet-lite4/model/blocks_27/conv2d_1/Conv2D_weights_fused_bn"
    input: "efficientnet-lite4/model/blocks_27/conv2d_1/Conv2D_bias_fused_bn"
    output: "efficientnet-lite4/model/blocks_27/tpu_batch_normalization_2/FusedBatchNormV3:0"
    name: "efficientnet-lite4/model/blocks_27/conv2d_1/Conv2D"
    op_type: "Conv"
    attribute {
      name: "dilations"
      ints: 1
      ints: 1
      type: INTS
    }
    attribute {
      name: "strides"
      ints: 1
      ints: 1
      type: INTS
    }
    attribute {
      name: "kernel_shape"
      ints: 1
      ints: 1
      type: INTS
    }
    attribute {
      name: "pads"
      ints: 0
      ints: 0
      ints: 0
      ints: 0
      type: INTS
    }
  }
  node {
    input: "efficientnet-lite4/model/blocks_27/tpu_batch_normalization_2/FusedBatchNormV3:0"
    input: "efficientnet-lite4/model/blocks_26/Add:0"
    output: "efficientnet-lite4/model/blocks_27/Add:0"
    name: "efficientnet-lite4/model/blocks_27/Add"
    op_type: "Add"
  }
  node {
    input: "efficientnet-lite4/model/blocks_27/Add:0"
    input: "efficientnet-lite4/model/blocks_28/conv2d/Conv2D_weights_fused_bn"
    input: "efficientnet-lite4/model/blocks_28/conv2d/Conv2D_bias_fused_bn"
    output: "efficientnet-lite4/model/blocks_28/tpu_batch_normalization/FusedBatchNormV3:0"
    name: "efficientnet-lite4/model/blocks_28/conv2d/Conv2D"
    op_type: "Conv"
    attribute {
      name: "dilations"
      ints: 1
      ints: 1
      type: INTS
    }
    attribute {
      name: "strides"
      ints: 1
      ints: 1
      type: INTS
    }
    attribute {
      name: "kernel_shape"
      ints: 1
      ints: 1
      type: INTS
    }
    attribute {
      name: "pads"
      ints: 0
      ints: 0
      ints: 0
      ints: 0
      type: INTS
    }
  }
  node {
    input: "efficientnet-lite4/model/blocks_28/tpu_batch_normalization/FusedBatchNormV3:0"
    input: "efficientnet-lite4/model/blocks_29/Relu6_1_min__569"
    input: "efficientnet-lite4/model/blocks_19/Relu6_1_max__380"
    output: "efficientnet-lite4/model/blocks_28/Relu6:0"
    name: "efficientnet-lite4/model/blocks_28/Relu6"
    op_type: "Clip"
  }
  node {
    input: "efficientnet-lite4/model/blocks_28/Relu6:0"
    input: "efficientnet-lite4/model/blocks_28/depthwise_conv2d/depthwise_weights_fused_bn"
    input: "efficientnet-lite4/model/blocks_28/depthwise_conv2d/depthwise_bias_fused_bn"
    output: "efficientnet-lite4/model/blocks_28/tpu_batch_normalization_1/FusedBatchNormV3:0"
    name: "efficientnet-lite4/model/blocks_28/depthwise_conv2d/depthwise"
    op_type: "Conv"
    attribute {
      name: "dilations"
      ints: 1
      ints: 1
      type: INTS
    }
    attribute {
      name: "strides"
      ints: 1
      ints: 1
      type: INTS
    }
    attribute {
      name: "kernel_shape"
      ints: 5
      ints: 5
      type: INTS
    }
    attribute {
      name: "group"
      i: 1632
      type: INT
    }
    attribute {
      name: "pads"
      ints: 2
      ints: 2
      ints: 2
      ints: 2
      type: INTS
    }
  }
  node {
    input: "efficientnet-lite4/model/blocks_28/tpu_batch_normalization_1/FusedBatchNormV3:0"
    input: "efficientnet-lite4/model/blocks_29/Relu6_1_min__569"
    input: "efficientnet-lite4/model/blocks_19/Relu6_1_max__380"
    output: "efficientnet-lite4/model/blocks_28/Relu6_1:0"
    name: "efficientnet-lite4/model/blocks_28/Relu6_1"
    op_type: "Clip"
  }
  node {
    input: "efficientnet-lite4/model/blocks_28/Relu6_1:0"
    input: "efficientnet-lite4/model/blocks_28/conv2d_1/Conv2D_weights_fused_bn"
    input: "efficientnet-lite4/model/blocks_28/conv2d_1/Conv2D_bias_fused_bn"
    output: "efficientnet-lite4/model/blocks_28/tpu_batch_normalization_2/FusedBatchNormV3:0"
    name: "efficientnet-lite4/model/blocks_28/conv2d_1/Conv2D"
    op_type: "Conv"
    attribute {
      name: "dilations"
      ints: 1
      ints: 1
      type: INTS
    }
    attribute {
      name: "strides"
      ints: 1
      ints: 1
      type: INTS
    }
    attribute {
      name: "kernel_shape"
      ints: 1
      ints: 1
      type: INTS
    }
    attribute {
      name: "pads"
      ints: 0
      ints: 0
      ints: 0
      ints: 0
      type: INTS
    }
  }
  node {
    input: "efficientnet-lite4/model/blocks_28/tpu_batch_normalization_2/FusedBatchNormV3:0"
    input: "efficientnet-lite4/model/blocks_27/Add:0"
    output: "efficientnet-lite4/model/blocks_28/Add:0"
    name: "efficientnet-lite4/model/blocks_28/Add"
    op_type: "Add"
  }
  node {
    input: "efficientnet-lite4/model/blocks_28/Add:0"
    input: "efficientnet-lite4/model/blocks_29/conv2d/Conv2D_weights_fused_bn"
    input: "efficientnet-lite4/model/blocks_29/conv2d/Conv2D_bias_fused_bn"
    output: "efficientnet-lite4/model/blocks_29/tpu_batch_normalization/FusedBatchNormV3:0"
    name: "efficientnet-lite4/model/blocks_29/conv2d/Conv2D"
    op_type: "Conv"
    attribute {
      name: "dilations"
      ints: 1
      ints: 1
      type: INTS
    }
    attribute {
      name: "strides"
      ints: 1
      ints: 1
      type: INTS
    }
    attribute {
      name: "kernel_shape"
      ints: 1
      ints: 1
      type: INTS
    }
    attribute {
      name: "pads"
      ints: 0
      ints: 0
      ints: 0
      ints: 0
      type: INTS
    }
  }
  node {
    input: "efficientnet-lite4/model/blocks_29/tpu_batch_normalization/FusedBatchNormV3:0"
    input: "efficientnet-lite4/model/blocks_29/Relu6_1_min__569"
    input: "efficientnet-lite4/model/blocks_19/Relu6_1_max__380"
    output: "efficientnet-lite4/model/blocks_29/Relu6:0"
    name: "efficientnet-lite4/model/blocks_29/Relu6"
    op_type: "Clip"
  }
  node {
    input: "efficientnet-lite4/model/blocks_29/Relu6:0"
    input: "efficientnet-lite4/model/blocks_29/depthwise_conv2d/depthwise_weights_fused_bn"
    input: "efficientnet-lite4/model/blocks_29/depthwise_conv2d/depthwise_bias_fused_bn"
    output: "efficientnet-lite4/model/blocks_29/tpu_batch_normalization_1/FusedBatchNormV3:0"
    name: "efficientnet-lite4/model/blocks_29/depthwise_conv2d/depthwise"
    op_type: "Conv"
    attribute {
      name: "dilations"
      ints: 1
      ints: 1
      type: INTS
    }
    attribute {
      name: "strides"
      ints: 1
      ints: 1
      type: INTS
    }
    attribute {
      name: "kernel_shape"
      ints: 3
      ints: 3
      type: INTS
    }
    attribute {
      name: "group"
      i: 1632
      type: INT
    }
    attribute {
      name: "pads"
      ints: 1
      ints: 1
      ints: 1
      ints: 1
      type: INTS
    }
  }
  node {
    input: "efficientnet-lite4/model/blocks_29/tpu_batch_normalization_1/FusedBatchNormV3:0"
    input: "efficientnet-lite4/model/blocks_29/Relu6_1_min__569"
    input: "efficientnet-lite4/model/blocks_19/Relu6_1_max__380"
    output: "efficientnet-lite4/model/blocks_29/Relu6_1:0"
    name: "efficientnet-lite4/model/blocks_29/Relu6_1"
    op_type: "Clip"
  }
  node {
    input: "efficientnet-lite4/model/blocks_29/Relu6_1:0"
    input: "efficientnet-lite4/model/blocks_29/conv2d_1/Conv2D_weights_fused_bn"
    input: "efficientnet-lite4/model/blocks_29/conv2d_1/Conv2D_bias_fused_bn"
    output: "efficientnet-lite4/model/blocks_29/tpu_batch_normalization_2/FusedBatchNormV3:0"
    name: "efficientnet-lite4/model/blocks_29/conv2d_1/Conv2D"
    op_type: "Conv"
    attribute {
      name: "dilations"
      ints: 1
      ints: 1
      type: INTS
    }
    attribute {
      name: "strides"
      ints: 1
      ints: 1
      type: INTS
    }
    attribute {
      name: "kernel_shape"
      ints: 1
      ints: 1
      type: INTS
    }
    attribute {
      name: "pads"
      ints: 0
      ints: 0
      ints: 0
      ints: 0
      type: INTS
    }
  }
  node {
    input: "efficientnet-lite4/model/blocks_29/tpu_batch_normalization_2/FusedBatchNormV3:0"
    input: "efficientnet-lite4/model/head/conv2d/Conv2D/ReadVariableOp:0"
    output: "efficientnet-lite4/model/head/conv2d/Conv2D:0"
    name: "efficientnet-lite4/model/head/conv2d/Conv2D"
    op_type: "Conv"
    attribute {
      name: "dilations"
      ints: 1
      ints: 1
      type: INTS
    }
    attribute {
      name: "strides"
      ints: 1
      ints: 1
      type: INTS
    }
    attribute {
      name: "kernel_shape"
      ints: 1
      ints: 1
      type: INTS
    }
    attribute {
      name: "pads"
      ints: 0
      ints: 0
      ints: 0
      ints: 0
      type: INTS
    }
  }
  node {
    input: "efficientnet-lite4/model/head/conv2d/Conv2D:0"
    input: "efficientnet-lite4/model/head/tpu_batch_normalization/ReadVariableOp:0"
    input: "efficientnet-lite4/model/head/tpu_batch_normalization/ReadVariableOp_1:0"
    input: "efficientnet-lite4/model/head/tpu_batch_normalization/FusedBatchNormV3/ReadVariableOp:0"
    input: "efficientnet-lite4/model/head/tpu_batch_normalization/FusedBatchNormV3/ReadVariableOp_1:0"
    output: "efficientnet-lite4/model/head/tpu_batch_normalization/FusedBatchNormV3:0"
    name: "efficientnet-lite4/model/head/tpu_batch_normalization/FusedBatchNormV3"
    op_type: "BatchNormalization"
    attribute {
      name: "epsilon"
      f: 0.001
      type: FLOAT
    }
  }
  node {
    input: "efficientnet-lite4/model/head/tpu_batch_normalization/FusedBatchNormV3:0"
    input: "efficientnet-lite4/model/blocks_29/Relu6_1_min__569"
    input: "efficientnet-lite4/model/blocks_19/Relu6_1_max__380"
    output: "efficientnet-lite4/model/head/Relu6:0"
    name: "efficientnet-lite4/model/head/Relu6"
    op_type: "Clip"
  }
  node {
    input: "efficientnet-lite4/model/head/Relu6:0"
    output: "efficientnet-lite4/model/head/AvgPool:0"
    name: "efficientnet-lite4/model/head/AvgPool"
    op_type: "AveragePool"
    attribute {
      name: "strides"
      ints: 1
      ints: 1
      type: INTS
    }
    attribute {
      name: "kernel_shape"
      ints: 7
      ints: 7
      type: INTS
    }
  }
  node {
    input: "efficientnet-lite4/model/head/AvgPool:0"
    output: "efficientnet-lite4/model/head/Squeeze:0"
    name: "efficientnet-lite4/model/head/Squeeze"
    op_type: "Squeeze"
    attribute {
      name: "axes"
      ints: 2
      ints: 3
      type: INTS
    }
  }
  node {
    input: "efficientnet-lite4/model/head/Squeeze:0"
    input: "efficientnet-lite4/model/head/dense/MatMul/ReadVariableOp:0"
    output: "efficientnet-lite4/model/head/dense/MatMul:0"
    name: "efficientnet-lite4/model/head/dense/MatMul"
    op_type: "MatMul"
  }
  node {
    input: "efficientnet-lite4/model/head/dense/MatMul:0"
    input: "efficientnet-lite4/model/head/dense/BiasAdd/ReadVariableOp:0"
    output: "efficientnet-lite4/model/head/dense/BiasAdd:0"
    name: "efficientnet-lite4/model/head/dense/BiasAdd"
    op_type: "Add"
  }
  node {
    input: "efficientnet-lite4/model/head/dense/BiasAdd:0"
    output: "Softmax:0"
    name: "Softmax"
    op_type: "Softmax"
    attribute {
      name: "axis"
      i: 1
      type: INT
    }
  }
  name: "tf2onnx"
  initializer {
    dims: 32
    data_type: 1
    name: "efficientnet-lite4/model/stem/conv2d/Conv2D_bias_fused_bn"
    raw_data: "…"
  }
  initializer {
    dims: 56
    data_type: 1
    name: "efficientnet-lite4/model/blocks_8/conv2d_1/Conv2D_bias_fused_bn"
    raw_data: "…"
  }
  initializer {
    dims: 56
    data_type: 1
    name: "efficientnet-lite4/model/blocks_7/conv2d_1/Conv2D_bias_fused_bn"
    raw_data: "…"
  }
  initializer {
    dims: 56
    data_type: 1
    name: "efficientnet-lite4/model/blocks_6/conv2d_1/Conv2D_bias_fused_bn"
    raw_data: "…"
  }
  initializer {
    dims: 56
    data_type: 1
    name: "efficientnet-lite4/model/blocks_5/conv2d_1/Conv2D_bias_fused_bn"
    raw_data: "…"
  }
  initializer {
    dims: 32
    data_type: 1
    name: "efficientnet-lite4/model/blocks_4/conv2d_1/Conv2D_bias_fused_bn"
    raw_data: "…"
  }
  initializer {
    dims: 32
    data_type: 1
    name: "efficientnet-lite4/model/blocks_3/conv2d_1/Conv2D_bias_fused_bn"
    raw_data: "…"
  }
  initializer {
    data_type: 1
    name: "efficientnet-lite4/model/blocks_29/Relu6_1_min__569"
    raw_data: "\000\000\000\000"
  }
  initializer {
    dims: 32
    data_type: 1
    name: "efficientnet-lite4/model/blocks_2/conv2d_1/Conv2D_bias_fused_bn"
    raw_data: "…"
  }
  initializer {
    data_type: 1
    name: "efficientnet-lite4/model/blocks_19/Relu6_1_max__380"
    raw_data: "\000\000\300@"
  }
  initializer {
    dims: 32
    data_type: 1
    name: "efficientnet-lite4/model/blocks_1/conv2d_1/Conv2D_bias_fused_bn"
    raw_data: "…"
  }
  initializer {
    dims: 32
    data_type: 1
    name: "efficientnet-lite4/model/blocks_0/depthwise_conv2d/depthwise_bias_fused_bn"
    raw_data: "…"
  }
  initializer {
    dims: 24
    data_type: 1
    name: "efficientnet-lite4/model/blocks_0/conv2d/Conv2D_bias_fused_bn"
    raw_data: "…"
  }
  doc_string: "converted from saved_model_lite"
  input {
    name: "images:0"
    type {
      tensor_type {
        elem_type: 1
        shape {
          dim {
            dim_value: 1
          }
          dim {
            dim_value: 224
          }
          dim {
            dim_value: 224
          }
          dim {
            dim_value: 3
          }
        }
      }
    }
  }
  input {
    name: "efficientnet-lite4/model/stem/conv2d/Conv2D_weights_fused_bn"
    type {
      tensor_type {
        elem_type: 1
        shape {
          dim {
            dim_value: 32
          }
          dim {
            dim_value: 3
          }
          dim {
            dim_value: 3
          }
          dim {
            dim_value: 3
          }
        }
      }
    }
  }
  input {
    name: "efficientnet-lite4/model/head/tpu_batch_normalization/ReadVariableOp_1:0"
    type {
      tensor_type {
        elem_type: 1
        shape {
          dim {
            dim_value: 1280
          }
        }
      }
    }
  }
  input {
    name: "efficientnet-lite4/model/head/tpu_batch_normalization/ReadVariableOp:0"
    type {
      tensor_type {
        elem_type: 1
        shape {
          dim {
            dim_value: 1280
          }
        }
      }
    }
  }
  input {
    name: "efficientnet-lite4/model/head/tpu_batch_normalization/FusedBatchNormV3/ReadVariableOp_1:0"
    type {
      tensor_type {
        elem_type: 1
        shape {
          dim {
            dim_value: 1280
          }
        }
      }
    }
  }
  input {
    name: "efficientnet-lite4/model/head/tpu_batch_normalization/FusedBatchNormV3/ReadVariableOp:0"
    type {
      tensor_type {
        elem_type: 1
        shape {
          dim {
            dim_value: 1280
          }
        }
      }
    }
  }
  input {
    name: "efficientnet-lite4/model/head/dense/MatMul/ReadVariableOp:0"
    type {
      tensor_type {
        elem_type: 1
        shape {
          dim {
            dim_value: 1280
          }
          dim {
            dim_value: 1000
          }
        }
      }
    }
  }
  input {
    name: "efficientnet-lite4/model/head/dense/BiasAdd/ReadVariableOp:0"
    type {
      tensor_type {
        elem_type: 1
        shape {
          dim {
            dim_value: 1000
          }
        }
      }
    }
  }
  input {
    name: "efficientnet-lite4/model/head/conv2d/Conv2D/ReadVariableOp:0"
    type {
      tensor_type {
        elem_type: 1
        shape {
          dim {
            dim_value: 1280
          }
          dim {
            dim_value: 448
          }
          dim {
            dim_value: 1
          }
          dim {
            dim_value: 1
          }
        }
      }
    }
  }
  input {
    name: "efficientnet-lite4/model/blocks_9/depthwise_conv2d/depthwise_weights_fused_bn"
    type {
      tensor_type {
        elem_type: 1
        shape {
          dim {
            dim_value: 336
          }
          dim {
            dim_value: 1
          }
          dim {
            dim_value: 3
          }
          dim {
            dim_value: 3
          }
        }
      }
    }
  }
  input {
    name: "efficientnet-lite4/model/blocks_9/depthwise_conv2d/depthwise_bias_fused_bn"
    type {
      tensor_type {
        elem_type: 1
        shape {
          dim {
            dim_value: 336
          }
        }
      }
    }
  }
  input {
    name: "efficientnet-lite4/model/blocks_9/conv2d_1/Conv2D_weights_fused_bn"
    type {
      tensor_type {
        elem_type: 1
        shape {
          dim {
            dim_value: 112
          }
          dim {
            dim_value: 336
          }
          dim {
            dim_value: 1
          }
          dim {
            dim_value: 1
          }
        }
      }
    }
  }
  input {
    name: "efficientnet-lite4/model/blocks_9/conv2d_1/Conv2D_bias_fused_bn"
    type {
      tensor_type {
        elem_type: 1
        shape {
          dim {
            dim_value: 112
          }
        }
      }
    }
  }
  input {
    name: "efficientnet-lite4/model/blocks_9/conv2d/Conv2D_weights_fused_bn"
    type {
      tensor_type {
        elem_type: 1
        shape {
          dim {
            dim_value: 336
          }
          dim {
            dim_value: 56
          }
          dim {
            dim_value: 1
          }
          dim {
            dim_value: 1
          }
        }
      }
    }
  }
  input {
    name: "efficientnet-lite4/model/blocks_9/conv2d/Conv2D_bias_fused_bn"
    type {
      tensor_type {
        elem_type: 1
        shape {
          dim {
            dim_value: 336
          }
        }
      }
    }
  }
  input {
    name: "efficientnet-lite4/model/blocks_8/depthwise_conv2d/depthwise_weights_fused_bn"
    type {
      tensor_type {
        elem_type: 1
        shape {
          dim {
            dim_value: 336
          }
          dim {
            dim_value: 1
          }
          dim {
            dim_value: 5
          }
          dim {
            dim_value: 5
          }
        }
      }
    }
  }
  input {
    name: "efficientnet-lite4/model/blocks_8/depthwise_conv2d/depthwise_bias_fused_bn"
    type {
      tensor_type {
        elem_type: 1
        shape {
          dim {
            dim_value: 336
          }
        }
      }
    }
  }
  input {
    name: "efficientnet-lite4/model/blocks_8/conv2d_1/Conv2D_weights_fused_bn"
    type {
      tensor_type {
        elem_type: 1
        shape {
          dim {
            dim_value: 56
          }
          dim {
            dim_value: 336
          }
          dim {
            dim_value: 1
          }
          dim {
            dim_value: 1
          }
        }
      }
    }
  }
  input {
    name: "efficientnet-lite4/model/blocks_8/conv2d/Conv2D_weights_fused_bn"
    type {
      tensor_type {
        elem_type: 1
        shape {
          dim {
            dim_value: 336
          }
          dim {
            dim_value: 56
          }
          dim {
            dim_value: 1
          }
          dim {
            dim_value: 1
          }
        }
      }
    }
  }
  input {
    name: "efficientnet-lite4/model/blocks_8/conv2d/Conv2D_bias_fused_bn"
    type {
      tensor_type {
        elem_type: 1
        shape {
          dim {
            dim_value: 336
          }
        }
      }
    }
  }
  input {
    name: "efficientnet-lite4/model/blocks_7/depthwise_conv2d/depthwise_weights_fused_bn"
    type {
      tensor_type {
        elem_type: 1
        shape {
          dim {
            dim_value: 336
          }
          dim {
            dim_value: 1
          }
          dim {
            dim_value: 5
          }
          dim {
            dim_value: 5
          }
        }
      }
    }
  }
  input {
    name: "efficientnet-lite4/model/blocks_7/depthwise_conv2d/depthwise_bias_fused_bn"
    type {
      tensor_type {
        elem_type: 1
        shape {
          dim {
            dim_value: 336
          }
        }
      }
    }
  }
  input {
    name: "efficientnet-lite4/model/blocks_7/conv2d_1/Conv2D_weights_fused_bn"
    type {
      tensor_type {
        elem_type: 1
        shape {
          dim {
            dim_value: 56
          }
          dim {
            dim_value: 336
          }
          dim {
            dim_value: 1
          }
          dim {
            dim_value: 1
          }
        }
      }
    }
  }
  input {
    name: "efficientnet-lite4/model/blocks_7/conv2d/Conv2D_weights_fused_bn"
    type {
      tensor_type {
        elem_type: 1
        shape {
          dim {
            dim_value: 336
          }
          dim {
            dim_value: 56
          }
          dim {
            dim_value: 1
          }
          dim {
            dim_value: 1
          }
        }
      }
    }
  }
  input {
    name: "efficientnet-lite4/model/blocks_7/conv2d/Conv2D_bias_fused_bn"
    type {
      tensor_type {
        elem_type: 1
        shape {
          dim {
            dim_value: 336
          }
        }
      }
    }
  }
  input {
    name: "efficientnet-lite4/model/blocks_6/tpu_batch_normalization/ReadVariableOp_1:0"
    type {
      tensor_type {
        elem_type: 1
        shape {
          dim {
            dim_value: 336
          }
        }
      }
    }
  }
  input {
    name: "efficientnet-lite4/model/blocks_6/tpu_batch_normalization/ReadVariableOp:0"
    type {
      tensor_type {
        elem_type: 1
        shape {
          dim {
            dim_value: 336
          }
        }
      }
    }
  }
  input {
    name: "efficientnet-lite4/model/blocks_6/tpu_batch_normalization/FusedBatchNormV3/ReadVariableOp_1:0"
    type {
      tensor_type {
        elem_type: 1
        shape {
          dim {
            dim_value: 336
          }
        }
      }
    }
  }
  input {
    name: "efficientnet-lite4/model/blocks_6/tpu_batch_normalization/FusedBatchNormV3/ReadVariableOp:0"
    type {
      tensor_type {
        elem_type: 1
        shape {
          dim {
            dim_value: 336
          }
        }
      }
    }
  }
  input {
    name: "efficientnet-lite4/model/blocks_6/depthwise_conv2d/depthwise_weights_fused_bn"
    type {
      tensor_type {
        elem_type: 1
        shape {
          dim {
            dim_value: 336
          }
          dim {
            dim_value: 1
          }
          dim {
            dim_value: 5
          }
          dim {
            dim_value: 5
          }
        }
      }
    }
  }
  input {
    name: "efficientnet-lite4/model/blocks_6/depthwise_conv2d/depthwise_bias_fused_bn"
    type {
      tensor_type {
        elem_type: 1
        shape {
          dim {
            dim_value: 336
          }
        }
      }
    }
  }
  input {
    name: "efficientnet-lite4/model/blocks_6/conv2d_1/Conv2D_weights_fused_bn"
    type {
      tensor_type {
        elem_type: 1
        shape {
          dim {
            dim_value: 56
          }
          dim {
            dim_value: 336
          }
          dim {
            dim_value: 1
          }
          dim {
            dim_value: 1
          }
        }
      }
    }
  }
  input {
    name: "efficientnet-lite4/model/blocks_6/conv2d/Conv2D/ReadVariableOp:0"
    type {
      tensor_type {
        elem_type: 1
        shape {
          dim {
            dim_value: 336
          }
          dim {
            dim_value: 56
          }
          dim {
            dim_value: 1
          }
          dim {
            dim_value: 1
          }
        }
      }
    }
  }
  input {
    name: "efficientnet-lite4/model/blocks_5/depthwise_conv2d/depthwise_weights_fused_bn"
    type {
      tensor_type {
        elem_type: 1
        shape {
          dim {
            dim_value: 192
          }
          dim {
            dim_value: 1
          }
          dim {
            dim_value: 5
          }
          dim {
            dim_value: 5
          }
        }
      }
    }
  }
  input {
    name: "efficientnet-lite4/model/blocks_5/depthwise_conv2d/depthwise_bias_fused_bn"
    type {
      tensor_type {
        elem_type: 1
        shape {
          dim {
            dim_value: 192
          }
        }
      }
    }
  }
  input {
    name: "efficientnet-lite4/model/blocks_5/conv2d_1/Conv2D_weights_fused_bn"
    type {
      tensor_type {
        elem_type: 1
        shape {
          dim {
            dim_value: 56
          }
          dim {
            dim_value: 192
          }
          dim {
            dim_value: 1
          }
          dim {
            dim_value: 1
          }
        }
      }
    }
  }
  input {
    name: "efficientnet-lite4/model/blocks_5/conv2d/Conv2D_weights_fused_bn"
    type {
      tensor_type {
        elem_type: 1
        shape {
          dim {
            dim_value: 192
          }
          dim {
            dim_value: 32
          }
          dim {
            dim_value: 1
          }
          dim {
            dim_value: 1
          }
        }
      }
    }
  }
  input {
    name: "efficientnet-lite4/model/blocks_5/conv2d/Conv2D_bias_fused_bn"
    type {
      tensor_type {
        elem_type: 1
        shape {
          dim {
            dim_value: 192
          }
        }
      }
    }
  }
  input {
    name: "efficientnet-lite4/model/blocks_4/depthwise_conv2d/depthwise_weights_fused_bn"
    type {
      tensor_type {
        elem_type: 1
        shape {
          dim {
            dim_value: 192
          }
          dim {
            dim_value: 1
          }
          dim {
            dim_value: 3
          }
          dim {
            dim_value: 3
          }
        }
      }
    }
  }
  input {
    name: "efficientnet-lite4/model/blocks_4/depthwise_conv2d/depthwise_bias_fused_bn"
    type {
      tensor_type {
        elem_type: 1
        shape {
          dim {
            dim_value: 192
          }
        }
      }
    }
  }
  input {
    name: "efficientnet-lite4/model/blocks_4/conv2d_1/Conv2D_weights_fused_bn"
    type {
      tensor_type {
        elem_type: 1
        shape {
          dim {
            dim_value: 32
          }
          dim {
            dim_value: 192
          }
          dim {
            dim_value: 1
          }
          dim {
            dim_value: 1
          }
        }
      }
    }
  }
  input {
    name: "efficientnet-lite4/model/blocks_4/conv2d/Conv2D_weights_fused_bn"
    type {
      tensor_type {
        elem_type: 1
        shape {
          dim {
            dim_value: 192
          }
          dim {
            dim_value: 32
          }
          dim {
            dim_value: 1
          }
          dim {
            dim_value: 1
          }
        }
      }
    }
  }
  input {
    name: "efficientnet-lite4/model/blocks_4/conv2d/Conv2D_bias_fused_bn"
    type {
      tensor_type {
        elem_type: 1
        shape {
          dim {
            dim_value: 192
          }
        }
      }
    }
  }
  input {
    name: "efficientnet-lite4/model/blocks_3/depthwise_conv2d/depthwise_weights_fused_bn"
    type {
      tensor_type {
        elem_type: 1
        shape {
          dim {
            dim_value: 192
          }
          dim {
            dim_value: 1
          }
          dim {
            dim_value: 3
          }
          dim {
            dim_value: 3
          }
        }
      }
    }
  }
  input {
    name: "efficientnet-lite4/model/blocks_3/depthwise_conv2d/depthwise_bias_fused_bn"
    type {
      tensor_type {
        elem_type: 1
        shape {
          dim {
            dim_value: 192
          }
        }
      }
    }
  }
  input {
    name: "efficientnet-lite4/model/blocks_3/conv2d_1/Conv2D_weights_fused_bn"
    type {
      tensor_type {
        elem_type: 1
        shape {
          dim {
            dim_value: 32
          }
          dim {
            dim_value: 192
          }
          dim {
            dim_value: 1
          }
          dim {
            dim_value: 1
          }
        }
      }
    }
  }
  input {
    name: "efficientnet-lite4/model/blocks_3/conv2d/Conv2D_weights_fused_bn"
    type {
      tensor_type {
        elem_type: 1
        shape {
          dim {
            dim_value: 192
          }
          dim {
            dim_value: 32
          }
          dim {
            dim_value: 1
          }
          dim {
            dim_value: 1
          }
        }
      }
    }
  }
  input {
    name: "efficientnet-lite4/model/blocks_3/conv2d/Conv2D_bias_fused_bn"
    type {
      tensor_type {
        elem_type: 1
        shape {
          dim {
            dim_value: 192
          }
        }
      }
    }
  }
  input {
    name: "efficientnet-lite4/model/blocks_29/depthwise_conv2d/depthwise_weights_fused_bn"
    type {
      tensor_type {
        elem_type: 1
        shape {
          dim {
            dim_value: 1632
          }
          dim {
            dim_value: 1
          }
          dim {
            dim_value: 3
          }
          dim {
            dim_value: 3
          }
        }
      }
    }
  }
  input {
    name: "efficientnet-lite4/model/blocks_29/depthwise_conv2d/depthwise_bias_fused_bn"
    type {
      tensor_type {
        elem_type: 1
        shape {
          dim {
            dim_value: 1632
          }
        }
      }
    }
  }
  input {
    name: "efficientnet-lite4/model/blocks_29/conv2d_1/Conv2D_weights_fused_bn"
    type {
      tensor_type {
        elem_type: 1
        shape {
          dim {
            dim_value: 448
          }
          dim {
            dim_value: 1632
          }
          dim {
            dim_value: 1
          }
          dim {
            dim_value: 1
          }
        }
      }
    }
  }
  input {
    name: "efficientnet-lite4/model/blocks_29/conv2d_1/Conv2D_bias_fused_bn"
    type {
      tensor_type {
        elem_type: 1
        shape {
          dim {
            dim_value: 448
          }
        }
      }
    }
  }
  input {
    name: "efficientnet-lite4/model/blocks_29/conv2d/Conv2D_weights_fused_bn"
    type {
      tensor_type {
        elem_type: 1
        shape {
          dim {
            dim_value: 1632
          }
          dim {
            dim_value: 272
          }
          dim {
            dim_value: 1
          }
          dim {
            dim_value: 1
          }
        }
      }
    }
  }
  input {
    name: "efficientnet-lite4/model/blocks_29/conv2d/Conv2D_bias_fused_bn"
    type {
      tensor_type {
        elem_type: 1
        shape {
          dim {
            dim_value: 1632
          }
        }
      }
    }
  }
  input {
    name: "efficientnet-lite4/model/blocks_28/depthwise_conv2d/depthwise_weights_fused_bn"
    type {
      tensor_type {
        elem_type: 1
        shape {
          dim {
            dim_value: 1632
          }
          dim {
            dim_value: 1
          }
          dim {
            dim_value: 5
          }
          dim {
            dim_value: 5
          }
        }
      }
    }
  }
  input {
    name: "efficientnet-lite4/model/blocks_28/depthwise_conv2d/depthwise_bias_fused_bn"
    type {
      tensor_type {
        elem_type: 1
        shape {
          dim {
            dim_value: 1632
          }
        }
      }
    }
  }
  input {
    name: "efficientnet-lite4/model/blocks_28/conv2d_1/Conv2D_weights_fused_bn"
    type {
      tensor_type {
        elem_type: 1
        shape {
          dim {
            dim_value: 272
          }
          dim {
            dim_value: 1632
          }
          dim {
            dim_value: 1
          }
          dim {
            dim_value: 1
          }
        }
      }
    }
  }
  input {
    name: "efficientnet-lite4/model/blocks_28/conv2d_1/Conv2D_bias_fused_bn"
    type {
      tensor_type {
        elem_type: 1
        shape {
          dim {
            dim_value: 272
          }
        }
      }
    }
  }
  input {
    name: "efficientnet-lite4/model/blocks_28/conv2d/Conv2D_weights_fused_bn"
    type {
      tensor_type {
        elem_type: 1
        shape {
          dim {
            dim_value: 1632
          }
          dim {
            dim_value: 272
          }
          dim {
            dim_value: 1
          }
          dim {
            dim_value: 1
          }
        }
      }
    }
  }
  input {
    name: "efficientnet-lite4/model/blocks_28/conv2d/Conv2D_bias_fused_bn"
    type {
      tensor_type {
        elem_type: 1
        shape {
          dim {
            dim_value: 1632
          }
        }
      }
    }
  }
  input {
    name: "efficientnet-lite4/model/blocks_27/depthwise_conv2d/depthwise_weights_fused_bn"
    type {
      tensor_type {
        elem_type: 1
        shape {
          dim {
            dim_value: 1632
          }
          dim {
            dim_value: 1
          }
          dim {
            dim_value: 5
          }
          dim {
            dim_value: 5
          }
        }
      }
    }
  }
  input {
    name: "efficientnet-lite4/model/blocks_27/depthwise_conv2d/depthwise_bias_fused_bn"
    type {
      tensor_type {
        elem_type: 1
        shape {
          dim {
            dim_value: 1632
          }
        }
      }
    }
  }
  input {
    name: "efficientnet-lite4/model/blocks_27/conv2d_1/Conv2D_weights_fused_bn"
    type {
      tensor_type {
        elem_type: 1
        shape {
          dim {
            dim_value: 272
          }
          dim {
            dim_value: 1632
          }
          dim {
            dim_value: 1
          }
          dim {
            dim_value: 1
          }
        }
      }
    }
  }
  input {
    name: "efficientnet-lite4/model/blocks_27/conv2d_1/Conv2D_bias_fused_bn"
    type {
      tensor_type {
        elem_type: 1
        shape {
          dim {
            dim_value: 272
          }
        }
      }
    }
  }
  input {
    name: "efficientnet-lite4/model/blocks_27/conv2d/Conv2D_weights_fused_bn"
    type {
      tensor_type {
        elem_type: 1
        shape {
          dim {
            dim_value: 1632
          }
          dim {
            dim_value: 272
          }
          dim {
            dim_value: 1
          }
          dim {
            dim_value: 1
          }
        }
      }
    }
  }
  input {
    name: "efficientnet-lite4/model/blocks_27/conv2d/Conv2D_bias_fused_bn"
    type {
      tensor_type {
        elem_type: 1
        shape {
          dim {
            dim_value: 1632
          }
        }
      }
    }
  }
  input {
    name: "efficientnet-lite4/model/blocks_26/depthwise_conv2d/depthwise_weights_fused_bn"
    type {
      tensor_type {
        elem_type: 1
        shape {
          dim {
            dim_value: 1632
          }
          dim {
            dim_value: 1
          }
          dim {
            dim_value: 5
          }
          dim {
            dim_value: 5
          }
        }
      }
    }
  }
  input {
    name: "efficientnet-lite4/model/blocks_26/depthwise_conv2d/depthwise_bias_fused_bn"
    type {
      tensor_type {
        elem_type: 1
        shape {
          dim {
            dim_value: 1632
          }
        }
      }
    }
  }
  input {
    name: "efficientnet-lite4/model/blocks_26/conv2d_1/Conv2D_weights_fused_bn"
    type {
      tensor_type {
        elem_type: 1
        shape {
          dim {
            dim_value: 272
          }
          dim {
            dim_value: 1632
          }
          dim {
            dim_value: 1
          }
          dim {
            dim_value: 1
          }
        }
      }
    }
  }
  input {
    name: "efficientnet-lite4/model/blocks_26/conv2d_1/Conv2D_bias_fused_bn"
    type {
      tensor_type {
        elem_type: 1
        shape {
          dim {
            dim_value: 272
          }
        }
      }
    }
  }
  input {
    name: "efficientnet-lite4/model/blocks_26/conv2d/Conv2D_weights_fused_bn"
    type {
      tensor_type {
        elem_type: 1
        shape {
          dim {
            dim_value: 1632
          }
          dim {
            dim_value: 272
          }
          dim {
            dim_value: 1
          }
          dim {
            dim_value: 1
          }
        }
      }
    }
  }
  input {
    name: "efficientnet-lite4/model/blocks_26/conv2d/Conv2D_bias_fused_bn"
    type {
      tensor_type {
        elem_type: 1
        shape {
          dim {
            dim_value: 1632
          }
        }
      }
    }
  }
  input {
    name: "efficientnet-lite4/model/blocks_25/depthwise_conv2d/depthwise_weights_fused_bn"
    type {
      tensor_type {
        elem_type: 1
        shape {
          dim {
            dim_value: 1632
          }
          dim {
            dim_value: 1
          }
          dim {
            dim_value: 5
          }
          dim {
            dim_value: 5
          }
        }
      }
    }
  }
  input {
    name: "efficientnet-lite4/model/blocks_25/depthwise_conv2d/depthwise_bias_fused_bn"
    type {
      tensor_type {
        elem_type: 1
        shape {
          dim {
            dim_value: 1632
          }
        }
      }
    }
  }
  input {
    name: "efficientnet-lite4/model/blocks_25/conv2d_1/Conv2D_weights_fused_bn"
    type {
      tensor_type {
        elem_type: 1
        shape {
          dim {
            dim_value: 272
          }
          dim {
            dim_value: 1632
          }
          dim {
            dim_value: 1
          }
          dim {
            dim_value: 1
          }
        }
      }
    }
  }
  input {
    name: "efficientnet-lite4/model/blocks_25/conv2d_1/Conv2D_bias_fused_bn"
    type {
      tensor_type {
        elem_type: 1
        shape {
          dim {
            dim_value: 272
          }
        }
      }
    }
  }
  input {
    name: "efficientnet-lite4/model/blocks_25/conv2d/Conv2D_weights_fused_bn"
    type {
      tensor_type {
        elem_type: 1
        shape {
          dim {
            dim_value: 1632
          }
          dim {
            dim_value: 272
          }
          dim {
            dim_value: 1
          }
          dim {
            dim_value: 1
          }
        }
      }
    }
  }
  input {
    name: "efficientnet-lite4/model/blocks_25/conv2d/Conv2D_bias_fused_bn"
    type {
      tensor_type {
        elem_type: 1
        shape {
          dim {
            dim_value: 1632
          }
        }
      }
    }
  }
  input {
    name: "efficientnet-lite4/model/blocks_24/depthwise_conv2d/depthwise_weights_fused_bn"
    type {
      tensor_type {
        elem_type: 1
        shape {
          dim {
            dim_value: 1632
          }
          dim {
            dim_value: 1
          }
          dim {
            dim_value: 5
          }
          dim {
            dim_value: 5
          }
        }
      }
    }
  }
  input {
    name: "efficientnet-lite4/model/blocks_24/depthwise_conv2d/depthwise_bias_fused_bn"
    type {
      tensor_type {
        elem_type: 1
        shape {
          dim {
            dim_value: 1632
          }
        }
      }
    }
  }
  input {
    name: "efficientnet-lite4/model/blocks_24/conv2d_1/Conv2D_weights_fused_bn"
    type {
      tensor_type {
        elem_type: 1
        shape {
          dim {
            dim_value: 272
          }
          dim {
            dim_value: 1632
          }
          dim {
            dim_value: 1
          }
          dim {
            dim_value: 1
          }
        }
      }
    }
  }
  input {
    name: "efficientnet-lite4/model/blocks_24/conv2d_1/Conv2D_bias_fused_bn"
    type {
      tensor_type {
        elem_type: 1
        shape {
          dim {
            dim_value: 272
          }
        }
      }
    }
  }
  input {
    name: "efficientnet-lite4/model/blocks_24/conv2d/Conv2D_weights_fused_bn"
    type {
      tensor_type {
        elem_type: 1
        shape {
          dim {
            dim_value: 1632
          }
          dim {
            dim_value: 272
          }
          dim {
            dim_value: 1
          }
          dim {
            dim_value: 1
          }
        }
      }
    }
  }
  input {
    name: "efficientnet-lite4/model/blocks_24/conv2d/Conv2D_bias_fused_bn"
    type {
      tensor_type {
        elem_type: 1
        shape {
          dim {
            dim_value: 1632
          }
        }
      }
    }
  }
  input {
    name: "efficientnet-lite4/model/blocks_23/depthwise_conv2d/depthwise_weights_fused_bn"
    type {
      tensor_type {
        elem_type: 1
        shape {
          dim {
            dim_value: 1632
          }
          dim {
            dim_value: 1
          }
          dim {
            dim_value: 5
          }
          dim {
            dim_value: 5
          }
        }
      }
    }
  }
  input {
    name: "efficientnet-lite4/model/blocks_23/depthwise_conv2d/depthwise_bias_fused_bn"
    type {
      tensor_type {
        elem_type: 1
        shape {
          dim {
            dim_value: 1632
          }
        }
      }
    }
  }
  input {
    name: "efficientnet-lite4/model/blocks_23/conv2d_1/Conv2D_weights_fused_bn"
    type {
      tensor_type {
        elem_type: 1
        shape {
          dim {
            dim_value: 272
          }
          dim {
            dim_value: 1632
          }
          dim {
            dim_value: 1
          }
          dim {
            dim_value: 1
          }
        }
      }
    }
  }
  input {
    name: "efficientnet-lite4/model/blocks_23/conv2d_1/Conv2D_bias_fused_bn"
    type {
      tensor_type {
        elem_type: 1
        shape {
          dim {
            dim_value: 272
          }
        }
      }
    }
  }
  input {
    name: "efficientnet-lite4/model/blocks_23/conv2d/Conv2D_weights_fused_bn"
    type {
      tensor_type {
        elem_type: 1
        shape {
          dim {
            dim_value: 1632
          }
          dim {
            dim_value: 272
          }
          dim {
            dim_value: 1
          }
          dim {
            dim_value: 1
          }
        }
      }
    }
  }
  input {
    name: "efficientnet-lite4/model/blocks_23/conv2d/Conv2D_bias_fused_bn"
    type {
      tensor_type {
        elem_type: 1
        shape {
          dim {
            dim_value: 1632
          }
        }
      }
    }
  }
  input {
    name: "efficientnet-lite4/model/blocks_22/tpu_batch_normalization/ReadVariableOp_1:0"
    type {
      tensor_type {
        elem_type: 1
        shape {
          dim {
            dim_value: 1632
          }
        }
      }
    }
  }
  input {
    name: "efficientnet-lite4/model/blocks_22/tpu_batch_normalization/ReadVariableOp:0"
    type {
      tensor_type {
        elem_type: 1
        shape {
          dim {
            dim_value: 1632
          }
        }
      }
    }
  }
  input {
    name: "efficientnet-lite4/model/blocks_22/tpu_batch_normalization/FusedBatchNormV3/ReadVariableOp_1:0"
    type {
      tensor_type {
        elem_type: 1
        shape {
          dim {
            dim_value: 1632
          }
        }
      }
    }
  }
  input {
    name: "efficientnet-lite4/model/blocks_22/tpu_batch_normalization/FusedBatchNormV3/ReadVariableOp:0"
    type {
      tensor_type {
        elem_type: 1
        shape {
          dim {
            dim_value: 1632
          }
        }
      }
    }
  }
  input {
    name: "efficientnet-lite4/model/blocks_22/depthwise_conv2d/depthwise_weights_fused_bn"
    type {
      tensor_type {
        elem_type: 1
        shape {
          dim {
            dim_value: 1632
          }
          dim {
            dim_value: 1
          }
          dim {
            dim_value: 5
          }
          dim {
            dim_value: 5
          }
        }
      }
    }
  }
  input {
    name: "efficientnet-lite4/model/blocks_22/depthwise_conv2d/depthwise_bias_fused_bn"
    type {
      tensor_type {
        elem_type: 1
        shape {
          dim {
            dim_value: 1632
          }
        }
      }
    }
  }
  input {
    name: "efficientnet-lite4/model/blocks_22/conv2d_1/Conv2D_weights_fused_bn"
    type {
      tensor_type {
        elem_type: 1
        shape {
          dim {
            dim_value: 272
          }
          dim {
            dim_value: 1632
          }
          dim {
            dim_value: 1
          }
          dim {
            dim_value: 1
          }
        }
      }
    }
  }
  input {
    name: "efficientnet-lite4/model/blocks_22/conv2d_1/Conv2D_bias_fused_bn"
    type {
      tensor_type {
        elem_type: 1
        shape {
          dim {
            dim_value: 272
          }
        }
      }
    }
  }
  input {
    name: "efficientnet-lite4/model/blocks_22/conv2d/Conv2D/ReadVariableOp:0"
    type {
      tensor_type {
        elem_type: 1
        shape {
          dim {
            dim_value: 1632
          }
          dim {
            dim_value: 272
          }
          dim {
            dim_value: 1
          }
          dim {
            dim_value: 1
          }
        }
      }
    }
  }
  input {
    name: "efficientnet-lite4/model/blocks_21/depthwise_conv2d/depthwise_weights_fused_bn"
    type {
      tensor_type {
        elem_type: 1
        shape {
          dim {
            dim_value: 960
          }
          dim {
            dim_value: 1
          }
          dim {
            dim_value: 5
          }
          dim {
            dim_value: 5
          }
        }
      }
    }
  }
  input {
    name: "efficientnet-lite4/model/blocks_21/depthwise_conv2d/depthwise_bias_fused_bn"
    type {
      tensor_type {
        elem_type: 1
        shape {
          dim {
            dim_value: 960
          }
        }
      }
    }
  }
  input {
    name: "efficientnet-lite4/model/blocks_21/conv2d_1/Conv2D_weights_fused_bn"
    type {
      tensor_type {
        elem_type: 1
        shape {
          dim {
            dim_value: 272
          }
          dim {
            dim_value: 960
          }
          dim {
            dim_value: 1
          }
          dim {
            dim_value: 1
          }
        }
      }
    }
  }
  input {
    name: "efficientnet-lite4/model/blocks_21/conv2d_1/Conv2D_bias_fused_bn"
    type {
      tensor_type {
        elem_type: 1
        shape {
          dim {
            dim_value: 272
          }
        }
      }
    }
  }
  input {
    name: "efficientnet-lite4/model/blocks_21/conv2d/Conv2D_weights_fused_bn"
    type {
      tensor_type {
        elem_type: 1
        shape {
          dim {
            dim_value: 960
          }
          dim {
            dim_value: 160
          }
          dim {
            dim_value: 1
          }
          dim {
            dim_value: 1
          }
        }
      }
    }
  }
  input {
    name: "efficientnet-lite4/model/blocks_21/conv2d/Conv2D_bias_fused_bn"
    type {
      tensor_type {
        elem_type: 1
        shape {
          dim {
            dim_value: 960
          }
        }
      }
    }
  }
  input {
    name: "efficientnet-lite4/model/blocks_20/depthwise_conv2d/depthwise_weights_fused_bn"
    type {
      tensor_type {
        elem_type: 1
        shape {
          dim {
            dim_value: 960
          }
          dim {
            dim_value: 1
          }
          dim {
            dim_value: 5
          }
          dim {
            dim_value: 5
          }
        }
      }
    }
  }
  input {
    name: "efficientnet-lite4/model/blocks_20/depthwise_conv2d/depthwise_bias_fused_bn"
    type {
      tensor_type {
        elem_type: 1
        shape {
          dim {
            dim_value: 960
          }
        }
      }
    }
  }
  input {
    name: "efficientnet-lite4/model/blocks_20/conv2d_1/Conv2D_weights_fused_bn"
    type {
      tensor_type {
        elem_type: 1
        shape {
          dim {
            dim_value: 160
          }
          dim {
            dim_value: 960
          }
          dim {
            dim_value: 1
          }
          dim {
            dim_value: 1
          }
        }
      }
    }
  }
  input {
    name: "efficientnet-lite4/model/blocks_20/conv2d_1/Conv2D_bias_fused_bn"
    type {
      tensor_type {
        elem_type: 1
        shape {
          dim {
            dim_value: 160
          }
        }
      }
    }
  }
  input {
    name: "efficientnet-lite4/model/blocks_20/conv2d/Conv2D_weights_fused_bn"
    type {
      tensor_type {
        elem_type: 1
        shape {
          dim {
            dim_value: 960
          }
          dim {
            dim_value: 160
          }
          dim {
            dim_value: 1
          }
          dim {
            dim_value: 1
          }
        }
      }
    }
  }
  input {
    name: "efficientnet-lite4/model/blocks_20/conv2d/Conv2D_bias_fused_bn"
    type {
      tensor_type {
        elem_type: 1
        shape {
          dim {
            dim_value: 960
          }
        }
      }
    }
  }
  input {
    name: "efficientnet-lite4/model/blocks_2/tpu_batch_normalization/ReadVariableOp_1:0"
    type {
      tensor_type {
        elem_type: 1
        shape {
          dim {
            dim_value: 192
          }
        }
      }
    }
  }
  input {
    name: "efficientnet-lite4/model/blocks_2/tpu_batch_normalization/ReadVariableOp:0"
    type {
      tensor_type {
        elem_type: 1
        shape {
          dim {
            dim_value: 192
          }
        }
      }
    }
  }
  input {
    name: "efficientnet-lite4/model/blocks_2/tpu_batch_normalization/FusedBatchNormV3/ReadVariableOp_1:0"
    type {
      tensor_type {
        elem_type: 1
        shape {
          dim {
            dim_value: 192
          }
        }
      }
    }
  }
  input {
    name: "efficientnet-lite4/model/blocks_2/tpu_batch_normalization/FusedBatchNormV3/ReadVariableOp:0"
    type {
      tensor_type {
        elem_type: 1
        shape {
          dim {
            dim_value: 192
          }
        }
      }
    }
  }
  input {
    name: "efficientnet-lite4/model/blocks_2/depthwise_conv2d/depthwise_weights_fused_bn"
    type {
      tensor_type {
        elem_type: 1
        shape {
          dim {
            dim_value: 192
          }
          dim {
            dim_value: 1
          }
          dim {
            dim_value: 3
          }
          dim {
            dim_value: 3
          }
        }
      }
    }
  }
  input {
    name: "efficientnet-lite4/model/blocks_2/depthwise_conv2d/depthwise_bias_fused_bn"
    type {
      tensor_type {
        elem_type: 1
        shape {
          dim {
            dim_value: 192
          }
        }
      }
    }
  }
  input {
    name: "efficientnet-lite4/model/blocks_2/conv2d_1/Conv2D_weights_fused_bn"
    type {
      tensor_type {
        elem_type: 1
        shape {
          dim {
            dim_value: 32
          }
          dim {
            dim_value: 192
          }
          dim {
            dim_value: 1
          }
          dim {
            dim_value: 1
          }
        }
      }
    }
  }
  input {
    name: "efficientnet-lite4/model/blocks_2/conv2d/Conv2D/ReadVariableOp:0"
    type {
      tensor_type {
        elem_type: 1
        shape {
          dim {
            dim_value: 192
          }
          dim {
            dim_value: 32
          }
          dim {
            dim_value: 1
          }
          dim {
            dim_value: 1
          }
        }
      }
    }
  }
  input {
    name: "efficientnet-lite4/model/blocks_19/depthwise_conv2d/depthwise_weights_fused_bn"
    type {
      tensor_type {
        elem_type: 1
        shape {
          dim {
            dim_value: 960
          }
          dim {
            dim_value: 1
          }
          dim {
            dim_value: 5
          }
          dim {
            dim_value: 5
          }
        }
      }
    }
  }
  input {
    name: "efficientnet-lite4/model/blocks_19/depthwise_conv2d/depthwise_bias_fused_bn"
    type {
      tensor_type {
        elem_type: 1
        shape {
          dim {
            dim_value: 960
          }
        }
      }
    }
  }
  input {
    name: "efficientnet-lite4/model/blocks_19/conv2d_1/Conv2D_weights_fused_bn"
    type {
      tensor_type {
        elem_type: 1
        shape {
          dim {
            dim_value: 160
          }
          dim {
            dim_value: 960
          }
          dim {
            dim_value: 1
          }
          dim {
            dim_value: 1
          }
        }
      }
    }
  }
  input {
    name: "efficientnet-lite4/model/blocks_19/conv2d_1/Conv2D_bias_fused_bn"
    type {
      tensor_type {
        elem_type: 1
        shape {
          dim {
            dim_value: 160
          }
        }
      }
    }
  }
  input {
    name: "efficientnet-lite4/model/blocks_19/conv2d/Conv2D_weights_fused_bn"
    type {
      tensor_type {
        elem_type: 1
        shape {
          dim {
            dim_value: 960
          }
          dim {
            dim_value: 160
          }
          dim {
            dim_value: 1
          }
          dim {
            dim_value: 1
          }
        }
      }
    }
  }
  input {
    name: "efficientnet-lite4/model/blocks_19/conv2d/Conv2D_bias_fused_bn"
    type {
      tensor_type {
        elem_type: 1
        shape {
          dim {
            dim_value: 960
          }
        }
      }
    }
  }
  input {
    name: "efficientnet-lite4/model/blocks_18/depthwise_conv2d/depthwise_weights_fused_bn"
    type {
      tensor_type {
        elem_type: 1
        shape {
          dim {
            dim_value: 960
          }
          dim {
            dim_value: 1
          }
          dim {
            dim_value: 5
          }
          dim {
            dim_value: 5
          }
        }
      }
    }
  }
  input {
    name: "efficientnet-lite4/model/blocks_18/depthwise_conv2d/depthwise_bias_fused_bn"
    type {
      tensor_type {
        elem_type: 1
        shape {
          dim {
            dim_value: 960
          }
        }
      }
    }
  }
  input {
    name: "efficientnet-lite4/model/blocks_18/conv2d_1/Conv2D_weights_fused_bn"
    type {
      tensor_type {
        elem_type: 1
        shape {
          dim {
            dim_value: 160
          }
          dim {
            dim_value: 960
          }
          dim {
            dim_value: 1
          }
          dim {
            dim_value: 1
          }
        }
      }
    }
  }
  input {
    name: "efficientnet-lite4/model/blocks_18/conv2d_1/Conv2D_bias_fused_bn"
    type {
      tensor_type {
        elem_type: 1
        shape {
          dim {
            dim_value: 160
          }
        }
      }
    }
  }
  input {
    name: "efficientnet-lite4/model/blocks_18/conv2d/Conv2D_weights_fused_bn"
    type {
      tensor_type {
        elem_type: 1
        shape {
          dim {
            dim_value: 960
          }
          dim {
            dim_value: 160
          }
          dim {
            dim_value: 1
          }
          dim {
            dim_value: 1
          }
        }
      }
    }
  }
  input {
    name: "efficientnet-lite4/model/blocks_18/conv2d/Conv2D_bias_fused_bn"
    type {
      tensor_type {
        elem_type: 1
        shape {
          dim {
            dim_value: 960
          }
        }
      }
    }
  }
  input {
    name: "efficientnet-lite4/model/blocks_17/depthwise_conv2d/depthwise_weights_fused_bn"
    type {
      tensor_type {
        elem_type: 1
        shape {
          dim {
            dim_value: 960
          }
          dim {
            dim_value: 1
          }
          dim {
            dim_value: 5
          }
          dim {
            dim_value: 5
          }
        }
      }
    }
  }
  input {
    name: "efficientnet-lite4/model/blocks_17/depthwise_conv2d/depthwise_bias_fused_bn"
    type {
      tensor_type {
        elem_type: 1
        shape {
          dim {
            dim_value: 960
          }
        }
      }
    }
  }
  input {
    name: "efficientnet-lite4/model/blocks_17/conv2d_1/Conv2D_weights_fused_bn"
    type {
      tensor_type {
        elem_type: 1
        shape {
          dim {
            dim_value: 160
          }
          dim {
            dim_value: 960
          }
          dim {
            dim_value: 1
          }
          dim {
            dim_value: 1
          }
        }
      }
    }
  }
  input {
    name: "efficientnet-lite4/model/blocks_17/conv2d_1/Conv2D_bias_fused_bn"
    type {
      tensor_type {
        elem_type: 1
        shape {
          dim {
            dim_value: 160
          }
        }
      }
    }
  }
  input {
    name: "efficientnet-lite4/model/blocks_17/conv2d/Conv2D_weights_fused_bn"
    type {
      tensor_type {
        elem_type: 1
        shape {
          dim {
            dim_value: 960
          }
          dim {
            dim_value: 160
          }
          dim {
            dim_value: 1
          }
          dim {
            dim_value: 1
          }
        }
      }
    }
  }
  input {
    name: "efficientnet-lite4/model/blocks_17/conv2d/Conv2D_bias_fused_bn"
    type {
      tensor_type {
        elem_type: 1
        shape {
          dim {
            dim_value: 960
          }
        }
      }
    }
  }
  input {
    name: "efficientnet-lite4/model/blocks_16/tpu_batch_normalization/ReadVariableOp_1:0"
    type {
      tensor_type {
        elem_type: 1
        shape {
          dim {
            dim_value: 960
          }
        }
      }
    }
  }
  input {
    name: "efficientnet-lite4/model/blocks_16/tpu_batch_normalization/ReadVariableOp:0"
    type {
      tensor_type {
        elem_type: 1
        shape {
          dim {
            dim_value: 960
          }
        }
      }
    }
  }
  input {
    name: "efficientnet-lite4/model/blocks_16/tpu_batch_normalization/FusedBatchNormV3/ReadVariableOp_1:0"
    type {
      tensor_type {
        elem_type: 1
        shape {
          dim {
            dim_value: 960
          }
        }
      }
    }
  }
  input {
    name: "efficientnet-lite4/model/blocks_16/tpu_batch_normalization/FusedBatchNormV3/ReadVariableOp:0"
    type {
      tensor_type {
        elem_type: 1
        shape {
          dim {
            dim_value: 960
          }
        }
      }
    }
  }
  input {
    name: "efficientnet-lite4/model/blocks_16/depthwise_conv2d/depthwise_weights_fused_bn"
    type {
      tensor_type {
        elem_type: 1
        shape {
          dim {
            dim_value: 960
          }
          dim {
            dim_value: 1
          }
          dim {
            dim_value: 5
          }
          dim {
            dim_value: 5
          }
        }
      }
    }
  }
  input {
    name: "efficientnet-lite4/model/blocks_16/depthwise_conv2d/depthwise_bias_fused_bn"
    type {
      tensor_type {
        elem_type: 1
        shape {
          dim {
            dim_value: 960
          }
        }
      }
    }
  }
  input {
    name: "efficientnet-lite4/model/blocks_16/conv2d_1/Conv2D_weights_fused_bn"
    type {
      tensor_type {
        elem_type: 1
        shape {
          dim {
            dim_value: 160
          }
          dim {
            dim_value: 960
          }
          dim {
            dim_value: 1
          }
          dim {
            dim_value: 1
          }
        }
      }
    }
  }
  input {
    name: "efficientnet-lite4/model/blocks_16/conv2d_1/Conv2D_bias_fused_bn"
    type {
      tensor_type {
        elem_type: 1
        shape {
          dim {
            dim_value: 160
          }
        }
      }
    }
  }
  input {
    name: "efficientnet-lite4/model/blocks_16/conv2d/Conv2D/ReadVariableOp:0"
    type {
      tensor_type {
        elem_type: 1
        shape {
          dim {
            dim_value: 960
          }
          dim {
            dim_value: 160
          }
          dim {
            dim_value: 1
          }
          dim {
            dim_value: 1
          }
        }
      }
    }
  }
  input {
    name: "efficientnet-lite4/model/blocks_15/depthwise_conv2d/depthwise_weights_fused_bn"
    type {
      tensor_type {
        elem_type: 1
        shape {
          dim {
            dim_value: 672
          }
          dim {
            dim_value: 1
          }
          dim {
            dim_value: 5
          }
          dim {
            dim_value: 5
          }
        }
      }
    }
  }
  input {
    name: "efficientnet-lite4/model/blocks_15/depthwise_conv2d/depthwise_bias_fused_bn"
    type {
      tensor_type {
        elem_type: 1
        shape {
          dim {
            dim_value: 672
          }
        }
      }
    }
  }
  input {
    name: "efficientnet-lite4/model/blocks_15/conv2d_1/Conv2D_weights_fused_bn"
    type {
      tensor_type {
        elem_type: 1
        shape {
          dim {
            dim_value: 160
          }
          dim {
            dim_value: 672
          }
          dim {
            dim_value: 1
          }
          dim {
            dim_value: 1
          }
        }
      }
    }
  }
  input {
    name: "efficientnet-lite4/model/blocks_15/conv2d_1/Conv2D_bias_fused_bn"
    type {
      tensor_type {
        elem_type: 1
        shape {
          dim {
            dim_value: 160
          }
        }
      }
    }
  }
  input {
    name: "efficientnet-lite4/model/blocks_15/conv2d/Conv2D_weights_fused_bn"
    type {
      tensor_type {
        elem_type: 1
        shape {
          dim {
            dim_value: 672
          }
          dim {
            dim_value: 112
          }
          dim {
            dim_value: 1
          }
          dim {
            dim_value: 1
          }
        }
      }
    }
  }
  input {
    name: "efficientnet-lite4/model/blocks_15/conv2d/Conv2D_bias_fused_bn"
    type {
      tensor_type {
        elem_type: 1
        shape {
          dim {
            dim_value: 672
          }
        }
      }
    }
  }
  input {
    name: "efficientnet-lite4/model/blocks_14/depthwise_conv2d/depthwise_weights_fused_bn"
    type {
      tensor_type {
        elem_type: 1
        shape {
          dim {
            dim_value: 672
          }
          dim {
            dim_value: 1
          }
          dim {
            dim_value: 3
          }
          dim {
            dim_value: 3
          }
        }
      }
    }
  }
  input {
    name: "efficientnet-lite4/model/blocks_14/depthwise_conv2d/depthwise_bias_fused_bn"
    type {
      tensor_type {
        elem_type: 1
        shape {
          dim {
            dim_value: 672
          }
        }
      }
    }
  }
  input {
    name: "efficientnet-lite4/model/blocks_14/conv2d_1/Conv2D_weights_fused_bn"
    type {
      tensor_type {
        elem_type: 1
        shape {
          dim {
            dim_value: 112
          }
          dim {
            dim_value: 672
          }
          dim {
            dim_value: 1
          }
          dim {
            dim_value: 1
          }
        }
      }
    }
  }
  input {
    name: "efficientnet-lite4/model/blocks_14/conv2d_1/Conv2D_bias_fused_bn"
    type {
      tensor_type {
        elem_type: 1
        shape {
          dim {
            dim_value: 112
          }
        }
      }
    }
  }
  input {
    name: "efficientnet-lite4/model/blocks_14/conv2d/Conv2D_weights_fused_bn"
    type {
      tensor_type {
        elem_type: 1
        shape {
          dim {
            dim_value: 672
          }
          dim {
            dim_value: 112
          }
          dim {
            dim_value: 1
          }
          dim {
            dim_value: 1
          }
        }
      }
    }
  }
  input {
    name: "efficientnet-lite4/model/blocks_14/conv2d/Conv2D_bias_fused_bn"
    type {
      tensor_type {
        elem_type: 1
        shape {
          dim {
            dim_value: 672
          }
        }
      }
    }
  }
  input {
    name: "efficientnet-lite4/model/blocks_13/depthwise_conv2d/depthwise_weights_fused_bn"
    type {
      tensor_type {
        elem_type: 1
        shape {
          dim {
            dim_value: 672
          }
          dim {
            dim_value: 1
          }
          dim {
            dim_value: 3
          }
          dim {
            dim_value: 3
          }
        }
      }
    }
  }
  input {
    name: "efficientnet-lite4/model/blocks_13/depthwise_conv2d/depthwise_bias_fused_bn"
    type {
      tensor_type {
        elem_type: 1
        shape {
          dim {
            dim_value: 672
          }
        }
      }
    }
  }
  input {
    name: "efficientnet-lite4/model/blocks_13/conv2d_1/Conv2D_weights_fused_bn"
    type {
      tensor_type {
        elem_type: 1
        shape {
          dim {
            dim_value: 112
          }
          dim {
            dim_value: 672
          }
          dim {
            dim_value: 1
          }
          dim {
            dim_value: 1
          }
        }
      }
    }
  }
  input {
    name: "efficientnet-lite4/model/blocks_13/conv2d_1/Conv2D_bias_fused_bn"
    type {
      tensor_type {
        elem_type: 1
        shape {
          dim {
            dim_value: 112
          }
        }
      }
    }
  }
  input {
    name: "efficientnet-lite4/model/blocks_13/conv2d/Conv2D_weights_fused_bn"
    type {
      tensor_type {
        elem_type: 1
        shape {
          dim {
            dim_value: 672
          }
          dim {
            dim_value: 112
          }
          dim {
            dim_value: 1
          }
          dim {
            dim_value: 1
          }
        }
      }
    }
  }
  input {
    name: "efficientnet-lite4/model/blocks_13/conv2d/Conv2D_bias_fused_bn"
    type {
      tensor_type {
        elem_type: 1
        shape {
          dim {
            dim_value: 672
          }
        }
      }
    }
  }
  input {
    name: "efficientnet-lite4/model/blocks_12/depthwise_conv2d/depthwise_weights_fused_bn"
    type {
      tensor_type {
        elem_type: 1
        shape {
          dim {
            dim_value: 672
          }
          dim {
            dim_value: 1
          }
          dim {
            dim_value: 3
          }
          dim {
            dim_value: 3
          }
        }
      }
    }
  }
  input {
    name: "efficientnet-lite4/model/blocks_12/depthwise_conv2d/depthwise_bias_fused_bn"
    type {
      tensor_type {
        elem_type: 1
        shape {
          dim {
            dim_value: 672
          }
        }
      }
    }
  }
  input {
    name: "efficientnet-lite4/model/blocks_12/conv2d_1/Conv2D_weights_fused_bn"
    type {
      tensor_type {
        elem_type: 1
        shape {
          dim {
            dim_value: 112
          }
          dim {
            dim_value: 672
          }
          dim {
            dim_value: 1
          }
          dim {
            dim_value: 1
          }
        }
      }
    }
  }
  input {
    name: "efficientnet-lite4/model/blocks_12/conv2d_1/Conv2D_bias_fused_bn"
    type {
      tensor_type {
        elem_type: 1
        shape {
          dim {
            dim_value: 112
          }
        }
      }
    }
  }
  input {
    name: "efficientnet-lite4/model/blocks_12/conv2d/Conv2D_weights_fused_bn"
    type {
      tensor_type {
        elem_type: 1
        shape {
          dim {
            dim_value: 672
          }
          dim {
            dim_value: 112
          }
          dim {
            dim_value: 1
          }
          dim {
            dim_value: 1
          }
        }
      }
    }
  }
  input {
    name: "efficientnet-lite4/model/blocks_12/conv2d/Conv2D_bias_fused_bn"
    type {
      tensor_type {
        elem_type: 1
        shape {
          dim {
            dim_value: 672
          }
        }
      }
    }
  }
  input {
    name: "efficientnet-lite4/model/blocks_11/depthwise_conv2d/depthwise_weights_fused_bn"
    type {
      tensor_type {
        elem_type: 1
        shape {
          dim {
            dim_value: 672
          }
          dim {
            dim_value: 1
          }
          dim {
            dim_value: 3
          }
          dim {
            dim_value: 3
          }
        }
      }
    }
  }
  input {
    name: "efficientnet-lite4/model/blocks_11/depthwise_conv2d/depthwise_bias_fused_bn"
    type {
      tensor_type {
        elem_type: 1
        shape {
          dim {
            dim_value: 672
          }
        }
      }
    }
  }
  input {
    name: "efficientnet-lite4/model/blocks_11/conv2d_1/Conv2D_weights_fused_bn"
    type {
      tensor_type {
        elem_type: 1
        shape {
          dim {
            dim_value: 112
          }
          dim {
            dim_value: 672
          }
          dim {
            dim_value: 1
          }
          dim {
            dim_value: 1
          }
        }
      }
    }
  }
  input {
    name: "efficientnet-lite4/model/blocks_11/conv2d_1/Conv2D_bias_fused_bn"
    type {
      tensor_type {
        elem_type: 1
        shape {
          dim {
            dim_value: 112
          }
        }
      }
    }
  }
  input {
    name: "efficientnet-lite4/model/blocks_11/conv2d/Conv2D_weights_fused_bn"
    type {
      tensor_type {
        elem_type: 1
        shape {
          dim {
            dim_value: 672
          }
          dim {
            dim_value: 112
          }
          dim {
            dim_value: 1
          }
          dim {
            dim_value: 1
          }
        }
      }
    }
  }
  input {
    name: "efficientnet-lite4/model/blocks_11/conv2d/Conv2D_bias_fused_bn"
    type {
      tensor_type {
        elem_type: 1
        shape {
          dim {
            dim_value: 672
          }
        }
      }
    }
  }
  input {
    name: "efficientnet-lite4/model/blocks_10/tpu_batch_normalization/ReadVariableOp_1:0"
    type {
      tensor_type {
        elem_type: 1
        shape {
          dim {
            dim_value: 672
          }
        }
      }
    }
  }
  input {
    name: "efficientnet-lite4/model/blocks_10/tpu_batch_normalization/ReadVariableOp:0"
    type {
      tensor_type {
        elem_type: 1
        shape {
          dim {
            dim_value: 672
          }
        }
      }
    }
  }
  input {
    name: "efficientnet-lite4/model/blocks_10/tpu_batch_normalization/FusedBatchNormV3/ReadVariableOp_1:0"
    type {
      tensor_type {
        elem_type: 1
        shape {
          dim {
            dim_value: 672
          }
        }
      }
    }
  }
  input {
    name: "efficientnet-lite4/model/blocks_10/tpu_batch_normalization/FusedBatchNormV3/ReadVariableOp:0"
    type {
      tensor_type {
        elem_type: 1
        shape {
          dim {
            dim_value: 672
          }
        }
      }
    }
  }
  input {
    name: "efficientnet-lite4/model/blocks_10/depthwise_conv2d/depthwise_weights_fused_bn"
    type {
      tensor_type {
        elem_type: 1
        shape {
          dim {
            dim_value: 672
          }
          dim {
            dim_value: 1
          }
          dim {
            dim_value: 3
          }
          dim {
            dim_value: 3
          }
        }
      }
    }
  }
  input {
    name: "efficientnet-lite4/model/blocks_10/depthwise_conv2d/depthwise_bias_fused_bn"
    type {
      tensor_type {
        elem_type: 1
        shape {
          dim {
            dim_value: 672
          }
        }
      }
    }
  }
  input {
    name: "efficientnet-lite4/model/blocks_10/conv2d_1/Conv2D_weights_fused_bn"
    type {
      tensor_type {
        elem_type: 1
        shape {
          dim {
            dim_value: 112
          }
          dim {
            dim_value: 672
          }
          dim {
            dim_value: 1
          }
          dim {
            dim_value: 1
          }
        }
      }
    }
  }
  input {
    name: "efficientnet-lite4/model/blocks_10/conv2d_1/Conv2D_bias_fused_bn"
    type {
      tensor_type {
        elem_type: 1
        shape {
          dim {
            dim_value: 112
          }
        }
      }
    }
  }
  input {
    name: "efficientnet-lite4/model/blocks_10/conv2d/Conv2D/ReadVariableOp:0"
    type {
      tensor_type {
        elem_type: 1
        shape {
          dim {
            dim_value: 672
          }
          dim {
            dim_value: 112
          }
          dim {
            dim_value: 1
          }
          dim {
            dim_value: 1
          }
        }
      }
    }
  }
  input {
    name: "efficientnet-lite4/model/blocks_1/tpu_batch_normalization/ReadVariableOp_1:0"
    type {
      tensor_type {
        elem_type: 1
        shape {
          dim {
            dim_value: 144
          }
        }
      }
    }
  }
  input {
    name: "efficientnet-lite4/model/blocks_1/tpu_batch_normalization/ReadVariableOp:0"
    type {
      tensor_type {
        elem_type: 1
        shape {
          dim {
            dim_value: 144
          }
        }
      }
    }
  }
  input {
    name: "efficientnet-lite4/model/blocks_1/tpu_batch_normalization/FusedBatchNormV3/ReadVariableOp_1:0"
    type {
      tensor_type {
        elem_type: 1
        shape {
          dim {
            dim_value: 144
          }
        }
      }
    }
  }
  input {
    name: "efficientnet-lite4/model/blocks_1/tpu_batch_normalization/FusedBatchNormV3/ReadVariableOp:0"
    type {
      tensor_type {
        elem_type: 1
        shape {
          dim {
            dim_value: 144
          }
        }
      }
    }
  }
  input {
    name: "efficientnet-lite4/model/blocks_1/depthwise_conv2d/depthwise_weights_fused_bn"
    type {
      tensor_type {
        elem_type: 1
        shape {
          dim {
            dim_value: 144
          }
          dim {
            dim_value: 1
          }
          dim {
            dim_value: 3
          }
          dim {
            dim_value: 3
          }
        }
      }
    }
  }
  input {
    name: "efficientnet-lite4/model/blocks_1/depthwise_conv2d/depthwise_bias_fused_bn"
    type {
      tensor_type {
        elem_type: 1
        shape {
          dim {
            dim_value: 144
          }
        }
      }
    }
  }
  input {
    name: "efficientnet-lite4/model/blocks_1/conv2d_1/Conv2D_weights_fused_bn"
    type {
      tensor_type {
        elem_type: 1
        shape {
          dim {
            dim_value: 32
          }
          dim {
            dim_value: 144
          }
          dim {
            dim_value: 1
          }
          dim {
            dim_value: 1
          }
        }
      }
    }
  }
  input {
    name: "efficientnet-lite4/model/blocks_1/conv2d/Conv2D/ReadVariableOp:0"
    type {
      tensor_type {
        elem_type: 1
        shape {
          dim {
            dim_value: 144
          }
          dim {
            dim_value: 24
          }
          dim {
            dim_value: 1
          }
          dim {
            dim_value: 1
          }
        }
      }
    }
  }
  input {
    name: "efficientnet-lite4/model/blocks_0/depthwise_conv2d/depthwise_weights_fused_bn"
    type {
      tensor_type {
        elem_type: 1
        shape {
          dim {
            dim_value: 32
          }
          dim {
            dim_value: 1
          }
          dim {
            dim_value: 3
          }
          dim {
            dim_value: 3
          }
        }
      }
    }
  }
  input {
    name: "efficientnet-lite4/model/blocks_0/conv2d/Conv2D_weights_fused_bn"
    type {
      tensor_type {
        elem_type: 1
        shape {
          dim {
            dim_value: 24
          }
          dim {
            dim_value: 32
          }
          dim {
            dim_value: 1
          }
          dim {
            dim_value: 1
          }
        }
      }
    }
  }
  output {
    name: "Softmax:0"
    type {
      tensor_type {
        elem_type: 1
        shape {
          dim {
            dim_value: 1
          }
          dim {
            dim_value: 1000
          }
        }
      }
    }
  }
  value_info {
    name: "efficientnet-lite4/model/stem/conv2d/Conv2D_bias_fused_bn"
    type {
      tensor_type {
        elem_type: 1
        shape {
          dim {
            dim_value: 32
          }
        }
      }
    }
  }
  value_info {
    name: "efficientnet-lite4/model/blocks_8/conv2d_1/Conv2D_bias_fused_bn"
    type {
      tensor_type {
        elem_type: 1
        shape {
          dim {
            dim_value: 56
          }
        }
      }
    }
  }
  value_info {
    name: "efficientnet-lite4/model/blocks_7/conv2d_1/Conv2D_bias_fused_bn"
    type {
      tensor_type {
        elem_type: 1
        shape {
          dim {
            dim_value: 56
          }
        }
      }
    }
  }
  value_info {
    name: "efficientnet-lite4/model/blocks_6/conv2d_1/Conv2D_bias_fused_bn"
    type {
      tensor_type {
        elem_type: 1
        shape {
          dim {
            dim_value: 56
          }
        }
      }
    }
  }
  value_info {
    name: "efficientnet-lite4/model/blocks_5/conv2d_1/Conv2D_bias_fused_bn"
    type {
      tensor_type {
        elem_type: 1
        shape {
          dim {
            dim_value: 56
          }
        }
      }
    }
  }
  value_info {
    name: "efficientnet-lite4/model/blocks_4/conv2d_1/Conv2D_bias_fused_bn"
    type {
      tensor_type {
        elem_type: 1
        shape {
          dim {
            dim_value: 32
          }
        }
      }
    }
  }
  value_info {
    name: "efficientnet-lite4/model/blocks_3/conv2d_1/Conv2D_bias_fused_bn"
    type {
      tensor_type {
        elem_type: 1
        shape {
          dim {
            dim_value: 32
          }
        }
      }
    }
  }
  value_info {
    name: "efficientnet-lite4/model/blocks_29/Relu6_1_min__569"
    type {
      tensor_type {
        elem_type: 1
        shape {
        }
      }
    }
  }
  value_info {
    name: "efficientnet-lite4/model/blocks_2/conv2d_1/Conv2D_bias_fused_bn"
    type {
      tensor_type {
        elem_type: 1
        shape {
          dim {
            dim_value: 32
          }
        }
      }
    }
  }
  value_info {
    name: "efficientnet-lite4/model/blocks_19/Relu6_1_max__380"
    type {
      tensor_type {
        elem_type: 1
        shape {
        }
      }
    }
  }
  value_info {
    name: "efficientnet-lite4/model/blocks_1/conv2d_1/Conv2D_bias_fused_bn"
    type {
      tensor_type {
        elem_type: 1
        shape {
          dim {
            dim_value: 32
          }
        }
      }
    }
  }
  value_info {
    name: "efficientnet-lite4/model/blocks_0/depthwise_conv2d/depthwise_bias_fused_bn"
    type {
      tensor_type {
        elem_type: 1
        shape {
          dim {
            dim_value: 32
          }
        }
      }
    }
  }
  value_info {
    name: "efficientnet-lite4/model/blocks_0/conv2d/Conv2D_bias_fused_bn"
    type {
      tensor_type {
        elem_type: 1
        shape {
          dim {
            dim_value: 24
          }
        }
      }
    }
  }
}
opset_import {
  domain: ""
  version: 11
}
