ir_version: 7
producer_name: "onnx.quantize"
producer_version: "0.1.0"
graph {
  node {
    input: "data_0"
    input: "data_0_scale"
    input: "data_0_zero_point"
    output: "data_0_quantized"
    name: "data_0_QuantizeLinear"
    op_type: "QuantizeLinear"
  }
  node {
    input: "data_0_quantized"
    input: "data_0_scale"
    input: "data_0_zero_point"
    input: "conv1/7x7_s2_w_0_quantized"
    input: "conv1/7x7_s2_w_0_scale"
    input: "conv1/7x7_s2_w_0_zero_point"
    input: "conv1/7x7_s2_1_scale"
    input: "conv1/7x7_s2_1_zero_point"
    input: "conv1/7x7_s2_b_0_quantized"
    output: "conv1/7x7_s2_1_quantized"
    name: "Conv_nc_rename_0_quant"
    op_type: "QLinearConv"
    attribute {
      name: "auto_pad"
      s: "NOTSET"
      type: STRING
    }
    attribute {
      name: "group"
      i: 1
      type: INT
    }
    attribute {
      name: "kernel_shape"
      ints: 7
      ints: 7
      type: INTS
    }
    attribute {
      name: "pads"
      ints: 3
      ints: 3
      ints: 3
      ints: 3
      type: INTS
    }
    attribute {
      name: "strides"
      ints: 2
      ints: 2
      type: INTS
    }
  }
  node {
    input: "conv1/7x7_s2_1_quantized"
    output: "pool1/3x3_s2_1_quantized"
    name: "MaxPool_nc_rename_2_quant"
    op_type: "MaxPool"
    attribute {
      name: "auto_pad"
      s: "NOTSET"
      type: STRING
    }
    attribute {
      name: "storage_order"
      i: 0
      type: INT
    }
    attribute {
      name: "strides"
      ints: 2
      ints: 2
      type: INTS
    }
    attribute {
      name: "pads"
      ints: 0
      ints: 0
      ints: 2
      ints: 2
      type: INTS
    }
    attribute {
      name: "ceil_mode"
      i: 0
      type: INT
    }
    attribute {
      name: "kernel_shape"
      ints: 3
      ints: 3
      type: INTS
    }
  }
  node {
    input: "pool1/3x3_s2_1_quantized"
    input: "conv1/7x7_s2_1_scale"
    input: "conv1/7x7_s2_1_zero_point"
    output: "pool1/3x3_s2_1"
    name: "pool1/3x3_s2_1_DequantizeLinear"
    op_type: "DequantizeLinear"
  }
  node {
    input: "pool1/3x3_s2_1"
    output: "pool1/norm1_1"
    name: "LRN_nc_rename_3"
    op_type: "LRN"
    attribute {
      name: "beta"
      f: 0.75
      type: FLOAT
    }
    attribute {
      name: "alpha"
      f: 0.0001
      type: FLOAT
    }
    attribute {
      name: "bias"
      f: 1.0
      type: FLOAT
    }
    attribute {
      name: "size"
      i: 5
      type: INT
    }
  }
  node {
    input: "pool1/norm1_1"
    input: "pool1/norm1_1_scale"
    input: "pool1/norm1_1_zero_point"
    output: "pool1/norm1_1_quantized"
    name: "pool1/norm1_1_QuantizeLinear"
    op_type: "QuantizeLinear"
  }
  node {
    input: "pool1/norm1_1_quantized"
    input: "pool1/norm1_1_scale"
    input: "pool1/norm1_1_zero_point"
    input: "conv2/3x3_reduce_w_0_quantized"
    input: "conv2/3x3_reduce_w_0_scale"
    input: "conv2/3x3_reduce_w_0_zero_point"
    input: "conv2/3x3_reduce_1_scale"
    input: "conv2/3x3_reduce_1_zero_point"
    input: "conv2/3x3_reduce_b_0_quantized"
    output: "conv2/3x3_reduce_1_quantized"
    name: "Conv_nc_rename_4_quant"
    op_type: "QLinearConv"
    attribute {
      name: "auto_pad"
      s: "NOTSET"
      type: STRING
    }
    attribute {
      name: "group"
      i: 1
      type: INT
    }
    attribute {
      name: "kernel_shape"
      ints: 1
      ints: 1
      type: INTS
    }
    attribute {
      name: "pads"
      ints: 0
      ints: 0
      ints: 0
      ints: 0
      type: INTS
    }
    attribute {
      name: "strides"
      ints: 1
      ints: 1
      type: INTS
    }
  }
  node {
    input: "conv2/3x3_reduce_1_quantized"
    input: "conv2/3x3_reduce_1_scale"
    input: "conv2/3x3_reduce_1_zero_point"
    input: "conv2/3x3_w_0_quantized"
    input: "conv2/3x3_w_0_scale"
    input: "conv2/3x3_w_0_zero_point"
    input: "conv2/3x3_1_scale"
    input: "conv2/3x3_1_zero_point"
    input: "conv2/3x3_b_0_quantized"
    output: "conv2/3x3_1_quantized"
    name: "Conv_nc_rename_6_quant"
    op_type: "QLinearConv"
    attribute {
      name: "auto_pad"
      s: "NOTSET"
      type: STRING
    }
    attribute {
      name: "group"
      i: 1
      type: INT
    }
    attribute {
      name: "kernel_shape"
      ints: 3
      ints: 3
      type: INTS
    }
    attribute {
      name: "pads"
      ints: 1
      ints: 1
      ints: 1
      ints: 1
      type: INTS
    }
    attribute {
      name: "strides"
      ints: 1
      ints: 1
      type: INTS
    }
  }
  node {
    input: "conv2/3x3_1_quantized"
    input: "conv2/3x3_1_scale"
    input: "conv2/3x3_1_zero_point"
    output: "conv2/3x3_2"
    name: "conv2/3x3_2_DequantizeLinear"
    op_type: "DequantizeLinear"
  }
  node {
    input: "conv2/3x3_2"
    output: "conv2/norm2_1"
    name: "LRN_nc_rename_8"
    op_type: "LRN"
    attribute {
      name: "beta"
      f: 0.75
      type: FLOAT
    }
    attribute {
      name: "alpha"
      f: 0.0001
      type: FLOAT
    }
    attribute {
      name: "bias"
      f: 1.0
      type: FLOAT
    }
    attribute {
      name: "size"
      i: 5
      type: INT
    }
  }
  node {
    input: "conv2/norm2_1"
    output: "pool2/3x3_s2_1"
    name: "MaxPool_nc_rename_9"
    op_type: "MaxPool"
    attribute {
      name: "auto_pad"
      s: "NOTSET"
      type: STRING
    }
    attribute {
      name: "storage_order"
      i: 0
      type: INT
    }
    attribute {
      name: "strides"
      ints: 2
      ints: 2
      type: INTS
    }
    attribute {
      name: "pads"
      ints: 0
      ints: 0
      ints: 2
      ints: 2
      type: INTS
    }
    attribute {
      name: "ceil_mode"
      i: 0
      type: INT
    }
    attribute {
      name: "kernel_shape"
      ints: 3
      ints: 3
      type: INTS
    }
  }
  node {
    input: "pool2/3x3_s2_1"
    output: "inception_3a/pool_1"
    name: "MaxPool_nc_rename_10"
    op_type: "MaxPool"
    attribute {
      name: "auto_pad"
      s: "NOTSET"
      type: STRING
    }
    attribute {
      name: "storage_order"
      i: 0
      type: INT
    }
    attribute {
      name: "strides"
      ints: 1
      ints: 1
      type: INTS
    }
    attribute {
      name: "pads"
      ints: 1
      ints: 1
      ints: 1
      ints: 1
      type: INTS
    }
    attribute {
      name: "ceil_mode"
      i: 0
      type: INT
    }
    attribute {
      name: "kernel_shape"
      ints: 3
      ints: 3
      type: INTS
    }
  }
  node {
    input: "inception_3a/pool_1"
    input: "inception_3a/pool_1_scale"
    input: "inception_3a/pool_1_zero_point"
    output: "inception_3a/pool_1_quantized"
    name: "inception_3a/pool_1_QuantizeLinear"
    op_type: "QuantizeLinear"
  }
  node {
    input: "inception_3a/pool_1_quantized"
    input: "inception_3a/pool_1_scale"
    input: "inception_3a/pool_1_zero_point"
    input: "inception_3a/pool_proj_w_0_quantized"
    input: "inception_3a/pool_proj_w_0_scale"
    input: "inception_3a/pool_proj_w_0_zero_point"
    input: "inception_3a/pool_proj_1_scale"
    input: "inception_3a/pool_proj_1_zero_point"
    input: "inception_3a/pool_proj_b_0_quantized"
    output: "inception_3a/pool_proj_1_quantized"
    name: "Conv_nc_rename_11_quant"
    op_type: "QLinearConv"
    attribute {
      name: "auto_pad"
      s: "NOTSET"
      type: STRING
    }
    attribute {
      name: "group"
      i: 1
      type: INT
    }
    attribute {
      name: "kernel_shape"
      ints: 1
      ints: 1
      type: INTS
    }
    attribute {
      name: "pads"
      ints: 0
      ints: 0
      ints: 0
      ints: 0
      type: INTS
    }
    attribute {
      name: "strides"
      ints: 1
      ints: 1
      type: INTS
    }
  }
  node {
    input: "pool2/3x3_s2_1"
    input: "pool2/3x3_s2_1_scale"
    input: "pool2/3x3_s2_1_zero_point"
    output: "pool2/3x3_s2_1_quantized"
    name: "pool2/3x3_s2_1_QuantizeLinear"
    op_type: "QuantizeLinear"
  }
  node {
    input: "pool2/3x3_s2_1_quantized"
    input: "pool2/3x3_s2_1_scale"
    input: "pool2/3x3_s2_1_zero_point"
    input: "inception_3a/5x5_reduce_w_0_quantized"
    input: "inception_3a/5x5_reduce_w_0_scale"
    input: "inception_3a/5x5_reduce_w_0_zero_point"
    input: "inception_3a/5x5_reduce_1_scale"
    input: "inception_3a/5x5_reduce_1_zero_point"
    input: "inception_3a/5x5_reduce_b_0_quantized"
    output: "inception_3a/5x5_reduce_1_quantized"
    name: "Conv_nc_rename_13_quant"
    op_type: "QLinearConv"
    attribute {
      name: "auto_pad"
      s: "NOTSET"
      type: STRING
    }
    attribute {
      name: "group"
      i: 1
      type: INT
    }
    attribute {
      name: "kernel_shape"
      ints: 1
      ints: 1
      type: INTS
    }
    attribute {
      name: "pads"
      ints: 0
      ints: 0
      ints: 0
      ints: 0
      type: INTS
    }
    attribute {
      name: "strides"
      ints: 1
      ints: 1
      type: INTS
    }
  }
  node {
    input: "inception_3a/5x5_reduce_1_quantized"
    input: "inception_3a/5x5_reduce_1_scale"
    input: "inception_3a/5x5_reduce_1_zero_point"
    input: "inception_3a/5x5_w_0_quantized"
    input: "inception_3a/5x5_w_0_scale"
    input: "inception_3a/5x5_w_0_zero_point"
    input: "inception_3a/5x5_1_scale"
    input: "inception_3a/5x5_1_zero_point"
    input: "inception_3a/5x5_b_0_quantized"
    output: "inception_3a/5x5_1_quantized"
    name: "Conv_nc_rename_15_quant"
    op_type: "QLinearConv"
    attribute {
      name: "auto_pad"
      s: "NOTSET"
      type: STRING
    }
    attribute {
      name: "group"
      i: 1
      type: INT
    }
    attribute {
      name: "kernel_shape"
      ints: 5
      ints: 5
      type: INTS
    }
    attribute {
      name: "pads"
      ints: 2
      ints: 2
      ints: 2
      ints: 2
      type: INTS
    }
    attribute {
      name: "strides"
      ints: 1
      ints: 1
      type: INTS
    }
  }
  node {
    input: "pool2/3x3_s2_1_quantized"
    input: "pool2/3x3_s2_1_scale"
    input: "pool2/3x3_s2_1_zero_point"
    input: "inception_3a/3x3_reduce_w_0_quantized"
    input: "inception_3a/3x3_reduce_w_0_scale"
    input: "inception_3a/3x3_reduce_w_0_zero_point"
    input: "inception_3a/3x3_reduce_1_scale"
    input: "inception_3a/3x3_reduce_1_zero_point"
    input: "inception_3a/3x3_reduce_b_0_quantized"
    output: "inception_3a/3x3_reduce_1_quantized"
    name: "Conv_nc_rename_17_quant"
    op_type: "QLinearConv"
    attribute {
      name: "auto_pad"
      s: "NOTSET"
      type: STRING
    }
    attribute {
      name: "group"
      i: 1
      type: INT
    }
    attribute {
      name: "kernel_shape"
      ints: 1
      ints: 1
      type: INTS
    }
    attribute {
      name: "pads"
      ints: 0
      ints: 0
      ints: 0
      ints: 0
      type: INTS
    }
    attribute {
      name: "strides"
      ints: 1
      ints: 1
      type: INTS
    }
  }
  node {
    input: "inception_3a/3x3_reduce_1_quantized"
    input: "inception_3a/3x3_reduce_1_scale"
    input: "inception_3a/3x3_reduce_1_zero_point"
    input: "inception_3a/3x3_w_0_quantized"
    input: "inception_3a/3x3_w_0_scale"
    input: "inception_3a/3x3_w_0_zero_point"
    input: "inception_3a/3x3_1_scale"
    input: "inception_3a/3x3_1_zero_point"
    input: "inception_3a/3x3_b_0_quantized"
    output: "inception_3a/3x3_1_quantized"
    name: "Conv_nc_rename_19_quant"
    op_type: "QLinearConv"
    attribute {
      name: "auto_pad"
      s: "NOTSET"
      type: STRING
    }
    attribute {
      name: "group"
      i: 1
      type: INT
    }
    attribute {
      name: "kernel_shape"
      ints: 3
      ints: 3
      type: INTS
    }
    attribute {
      name: "pads"
      ints: 1
      ints: 1
      ints: 1
      ints: 1
      type: INTS
    }
    attribute {
      name: "strides"
      ints: 1
      ints: 1
      type: INTS
    }
  }
  node {
    input: "pool2/3x3_s2_1_quantized"
    input: "pool2/3x3_s2_1_scale"
    input: "pool2/3x3_s2_1_zero_point"
    input: "inception_3a/1x1_w_0_quantized"
    input: "inception_3a/1x1_w_0_scale"
    input: "inception_3a/1x1_w_0_zero_point"
    input: "inception_3a/1x1_1_scale"
    input: "inception_3a/1x1_1_zero_point"
    input: "inception_3a/1x1_b_0_quantized"
    output: "inception_3a/1x1_1_quantized"
    name: "Conv_nc_rename_21_quant"
    op_type: "QLinearConv"
    attribute {
      name: "auto_pad"
      s: "NOTSET"
      type: STRING
    }
    attribute {
      name: "group"
      i: 1
      type: INT
    }
    attribute {
      name: "kernel_shape"
      ints: 1
      ints: 1
      type: INTS
    }
    attribute {
      name: "pads"
      ints: 0
      ints: 0
      ints: 0
      ints: 0
      type: INTS
    }
    attribute {
      name: "strides"
      ints: 1
      ints: 1
      type: INTS
    }
  }
  node {
    input: "inception_3a/1x1_1_quantized"
    input: "inception_3a/1x1_1_scale"
    input: "inception_3a/1x1_1_zero_point"
    output: "inception_3a/1x1_2"
    name: "inception_3a/1x1_2_DequantizeLinear"
    op_type: "DequantizeLinear"
  }
  node {
    input: "inception_3a/3x3_1_quantized"
    input: "inception_3a/3x3_1_scale"
    input: "inception_3a/3x3_1_zero_point"
    output: "inception_3a/3x3_2"
    name: "inception_3a/3x3_2_DequantizeLinear"
    op_type: "DequantizeLinear"
  }
  node {
    input: "inception_3a/5x5_1_quantized"
    input: "inception_3a/5x5_1_scale"
    input: "inception_3a/5x5_1_zero_point"
    output: "inception_3a/5x5_2"
    name: "inception_3a/5x5_2_DequantizeLinear"
    op_type: "DequantizeLinear"
  }
  node {
    input: "inception_3a/pool_proj_1_quantized"
    input: "inception_3a/pool_proj_1_scale"
    input: "inception_3a/pool_proj_1_zero_point"
    output: "inception_3a/pool_proj_2"
    name: "inception_3a/pool_proj_2_DequantizeLinear"
    op_type: "DequantizeLinear"
  }
  node {
    input: "inception_3a/1x1_2"
    input: "inception_3a/3x3_2"
    input: "inception_3a/5x5_2"
    input: "inception_3a/pool_proj_2"
    output: "inception_3a/output_1"
    name: "Concat_nc_rename_23"
    op_type: "Concat"
    attribute {
      name: "axis"
      i: 1
      type: INT
    }
  }
  node {
    input: "inception_3a/output_1"
    output: "inception_3b/pool_1"
    name: "MaxPool_nc_rename_24"
    op_type: "MaxPool"
    attribute {
      name: "auto_pad"
      s: "NOTSET"
      type: STRING
    }
    attribute {
      name: "storage_order"
      i: 0
      type: INT
    }
    attribute {
      name: "strides"
      ints: 1
      ints: 1
      type: INTS
    }
    attribute {
      name: "pads"
      ints: 1
      ints: 1
      ints: 1
      ints: 1
      type: INTS
    }
    attribute {
      name: "ceil_mode"
      i: 0
      type: INT
    }
    attribute {
      name: "kernel_shape"
      ints: 3
      ints: 3
      type: INTS
    }
  }
  node {
    input: "inception_3b/pool_1"
    input: "inception_3b/pool_1_scale"
    input: "inception_3b/pool_1_zero_point"
    output: "inception_3b/pool_1_quantized"
    name: "inception_3b/pool_1_QuantizeLinear"
    op_type: "QuantizeLinear"
  }
  node {
    input: "inception_3b/pool_1_quantized"
    input: "inception_3b/pool_1_scale"
    input: "inception_3b/pool_1_zero_point"
    input: "inception_3b/pool_proj_w_0_quantized"
    input: "inception_3b/pool_proj_w_0_scale"
    input: "inception_3b/pool_proj_w_0_zero_point"
    input: "inception_3b/pool_proj_1_scale"
    input: "inception_3b/pool_proj_1_zero_point"
    input: "inception_3b/pool_proj_b_0_quantized"
    output: "inception_3b/pool_proj_1_quantized"
    name: "Conv_nc_rename_25_quant"
    op_type: "QLinearConv"
    attribute {
      name: "auto_pad"
      s: "NOTSET"
      type: STRING
    }
    attribute {
      name: "group"
      i: 1
      type: INT
    }
    attribute {
      name: "kernel_shape"
      ints: 1
      ints: 1
      type: INTS
    }
    attribute {
      name: "pads"
      ints: 0
      ints: 0
      ints: 0
      ints: 0
      type: INTS
    }
    attribute {
      name: "strides"
      ints: 1
      ints: 1
      type: INTS
    }
  }
  node {
    input: "inception_3a/output_1"
    input: "inception_3a/output_1_scale"
    input: "inception_3a/output_1_zero_point"
    output: "inception_3a/output_1_quantized"
    name: "inception_3a/output_1_QuantizeLinear"
    op_type: "QuantizeLinear"
  }
  node {
    input: "inception_3a/output_1_quantized"
    input: "inception_3a/output_1_scale"
    input: "inception_3a/output_1_zero_point"
    input: "inception_3b/5x5_reduce_w_0_quantized"
    input: "inception_3b/5x5_reduce_w_0_scale"
    input: "inception_3b/5x5_reduce_w_0_zero_point"
    input: "inception_3b/5x5_reduce_1_scale"
    input: "inception_3b/5x5_reduce_1_zero_point"
    input: "inception_3b/5x5_reduce_b_0_quantized"
    output: "inception_3b/5x5_reduce_1_quantized"
    name: "Conv_nc_rename_27_quant"
    op_type: "QLinearConv"
    attribute {
      name: "auto_pad"
      s: "NOTSET"
      type: STRING
    }
    attribute {
      name: "group"
      i: 1
      type: INT
    }
    attribute {
      name: "kernel_shape"
      ints: 1
      ints: 1
      type: INTS
    }
    attribute {
      name: "pads"
      ints: 0
      ints: 0
      ints: 0
      ints: 0
      type: INTS
    }
    attribute {
      name: "strides"
      ints: 1
      ints: 1
      type: INTS
    }
  }
  node {
    input: "inception_3b/5x5_reduce_1_quantized"
    input: "inception_3b/5x5_reduce_1_scale"
    input: "inception_3b/5x5_reduce_1_zero_point"
    input: "inception_3b/5x5_w_0_quantized"
    input: "inception_3b/5x5_w_0_scale"
    input: "inception_3b/5x5_w_0_zero_point"
    input: "inception_3b/5x5_1_scale"
    input: "inception_3b/5x5_1_zero_point"
    input: "inception_3b/5x5_b_0_quantized"
    output: "inception_3b/5x5_1_quantized"
    name: "Conv_nc_rename_29_quant"
    op_type: "QLinearConv"
    attribute {
      name: "auto_pad"
      s: "NOTSET"
      type: STRING
    }
    attribute {
      name: "group"
      i: 1
      type: INT
    }
    attribute {
      name: "kernel_shape"
      ints: 5
      ints: 5
      type: INTS
    }
    attribute {
      name: "pads"
      ints: 2
      ints: 2
      ints: 2
      ints: 2
      type: INTS
    }
    attribute {
      name: "strides"
      ints: 1
      ints: 1
      type: INTS
    }
  }
  node {
    input: "inception_3a/output_1_quantized"
    input: "inception_3a/output_1_scale"
    input: "inception_3a/output_1_zero_point"
    input: "inception_3b/3x3_reduce_w_0_quantized"
    input: "inception_3b/3x3_reduce_w_0_scale"
    input: "inception_3b/3x3_reduce_w_0_zero_point"
    input: "inception_3b/3x3_reduce_1_scale"
    input: "inception_3b/3x3_reduce_1_zero_point"
    input: "inception_3b/3x3_reduce_b_0_quantized"
    output: "inception_3b/3x3_reduce_1_quantized"
    name: "Conv_nc_rename_31_quant"
    op_type: "QLinearConv"
    attribute {
      name: "auto_pad"
      s: "NOTSET"
      type: STRING
    }
    attribute {
      name: "group"
      i: 1
      type: INT
    }
    attribute {
      name: "kernel_shape"
      ints: 1
      ints: 1
      type: INTS
    }
    attribute {
      name: "pads"
      ints: 0
      ints: 0
      ints: 0
      ints: 0
      type: INTS
    }
    attribute {
      name: "strides"
      ints: 1
      ints: 1
      type: INTS
    }
  }
  node {
    input: "inception_3b/3x3_reduce_1_quantized"
    input: "inception_3b/3x3_reduce_1_scale"
    input: "inception_3b/3x3_reduce_1_zero_point"
    input: "inception_3b/3x3_w_0_quantized"
    input: "inception_3b/3x3_w_0_scale"
    input: "inception_3b/3x3_w_0_zero_point"
    input: "inception_3b/3x3_1_scale"
    input: "inception_3b/3x3_1_zero_point"
    input: "inception_3b/3x3_b_0_quantized"
    output: "inception_3b/3x3_1_quantized"
    name: "Conv_nc_rename_33_quant"
    op_type: "QLinearConv"
    attribute {
      name: "auto_pad"
      s: "NOTSET"
      type: STRING
    }
    attribute {
      name: "group"
      i: 1
      type: INT
    }
    attribute {
      name: "kernel_shape"
      ints: 3
      ints: 3
      type: INTS
    }
    attribute {
      name: "pads"
      ints: 1
      ints: 1
      ints: 1
      ints: 1
      type: INTS
    }
    attribute {
      name: "strides"
      ints: 1
      ints: 1
      type: INTS
    }
  }
  node {
    input: "inception_3a/output_1_quantized"
    input: "inception_3a/output_1_scale"
    input: "inception_3a/output_1_zero_point"
    input: "inception_3b/1x1_w_0_quantized"
    input: "inception_3b/1x1_w_0_scale"
    input: "inception_3b/1x1_w_0_zero_point"
    input: "inception_3b/1x1_1_scale"
    input: "inception_3b/1x1_1_zero_point"
    input: "inception_3b/1x1_b_0_quantized"
    output: "inception_3b/1x1_1_quantized"
    name: "Conv_nc_rename_35_quant"
    op_type: "QLinearConv"
    attribute {
      name: "auto_pad"
      s: "NOTSET"
      type: STRING
    }
    attribute {
      name: "group"
      i: 1
      type: INT
    }
    attribute {
      name: "kernel_shape"
      ints: 1
      ints: 1
      type: INTS
    }
    attribute {
      name: "pads"
      ints: 0
      ints: 0
      ints: 0
      ints: 0
      type: INTS
    }
    attribute {
      name: "strides"
      ints: 1
      ints: 1
      type: INTS
    }
  }
  node {
    input: "inception_3b/1x1_1_quantized"
    input: "inception_3b/1x1_1_scale"
    input: "inception_3b/1x1_1_zero_point"
    output: "inception_3b/1x1_2"
    name: "inception_3b/1x1_2_DequantizeLinear"
    op_type: "DequantizeLinear"
  }
  node {
    input: "inception_3b/3x3_1_quantized"
    input: "inception_3b/3x3_1_scale"
    input: "inception_3b/3x3_1_zero_point"
    output: "inception_3b/3x3_2"
    name: "inception_3b/3x3_2_DequantizeLinear"
    op_type: "DequantizeLinear"
  }
  node {
    input: "inception_3b/5x5_1_quantized"
    input: "inception_3b/5x5_1_scale"
    input: "inception_3b/5x5_1_zero_point"
    output: "inception_3b/5x5_2"
    name: "inception_3b/5x5_2_DequantizeLinear"
    op_type: "DequantizeLinear"
  }
  node {
    input: "inception_3b/pool_proj_1_quantized"
    input: "inception_3b/pool_proj_1_scale"
    input: "inception_3b/pool_proj_1_zero_point"
    output: "inception_3b/pool_proj_2"
    name: "inception_3b/pool_proj_2_DequantizeLinear"
    op_type: "DequantizeLinear"
  }
  node {
    input: "inception_3b/1x1_2"
    input: "inception_3b/3x3_2"
    input: "inception_3b/5x5_2"
    input: "inception_3b/pool_proj_2"
    output: "inception_3b/output_1"
    name: "Concat_nc_rename_37"
    op_type: "Concat"
    attribute {
      name: "axis"
      i: 1
      type: INT
    }
  }
  node {
    input: "inception_3b/output_1"
    output: "pool3/3x3_s2_1"
    name: "MaxPool_nc_rename_38"
    op_type: "MaxPool"
    attribute {
      name: "auto_pad"
      s: "NOTSET"
      type: STRING
    }
    attribute {
      name: "storage_order"
      i: 0
      type: INT
    }
    attribute {
      name: "strides"
      ints: 2
      ints: 2
      type: INTS
    }
    attribute {
      name: "pads"
      ints: 0
      ints: 0
      ints: 2
      ints: 2
      type: INTS
    }
    attribute {
      name: "ceil_mode"
      i: 0
      type: INT
    }
    attribute {
      name: "kernel_shape"
      ints: 3
      ints: 3
      type: INTS
    }
  }
  node {
    input: "pool3/3x3_s2_1"
    output: "inception_4a/pool_1"
    name: "MaxPool_nc_rename_39"
    op_type: "MaxPool"
    attribute {
      name: "auto_pad"
      s: "NOTSET"
      type: STRING
    }
    attribute {
      name: "storage_order"
      i: 0
      type: INT
    }
    attribute {
      name: "strides"
      ints: 1
      ints: 1
      type: INTS
    }
    attribute {
      name: "pads"
      ints: 1
      ints: 1
      ints: 1
      ints: 1
      type: INTS
    }
    attribute {
      name: "ceil_mode"
      i: 0
      type: INT
    }
    attribute {
      name: "kernel_shape"
      ints: 3
      ints: 3
      type: INTS
    }
  }
  node {
    input: "inception_4a/pool_1"
    input: "inception_4a/pool_1_scale"
    input: "inception_4a/pool_1_zero_point"
    output: "inception_4a/pool_1_quantized"
    name: "inception_4a/pool_1_QuantizeLinear"
    op_type: "QuantizeLinear"
  }
  node {
    input: "inception_4a/pool_1_quantized"
    input: "inception_4a/pool_1_scale"
    input: "inception_4a/pool_1_zero_point"
    input: "inception_4a/pool_proj_w_0_quantized"
    input: "inception_4a/pool_proj_w_0_scale"
    input: "inception_4a/pool_proj_w_0_zero_point"
    input: "inception_4a/pool_proj_1_scale"
    input: "inception_4a/pool_proj_1_zero_point"
    input: "inception_4a/pool_proj_b_0_quantized"
    output: "inception_4a/pool_proj_1_quantized"
    name: "Conv_nc_rename_40_quant"
    op_type: "QLinearConv"
    attribute {
      name: "auto_pad"
      s: "NOTSET"
      type: STRING
    }
    attribute {
      name: "group"
      i: 1
      type: INT
    }
    attribute {
      name: "kernel_shape"
      ints: 1
      ints: 1
      type: INTS
    }
    attribute {
      name: "pads"
      ints: 0
      ints: 0
      ints: 0
      ints: 0
      type: INTS
    }
    attribute {
      name: "strides"
      ints: 1
      ints: 1
      type: INTS
    }
  }
  node {
    input: "pool3/3x3_s2_1"
    input: "pool3/3x3_s2_1_scale"
    input: "pool3/3x3_s2_1_zero_point"
    output: "pool3/3x3_s2_1_quantized"
    name: "pool3/3x3_s2_1_QuantizeLinear"
    op_type: "QuantizeLinear"
  }
  node {
    input: "pool3/3x3_s2_1_quantized"
    input: "pool3/3x3_s2_1_scale"
    input: "pool3/3x3_s2_1_zero_point"
    input: "inception_4a/5x5_reduce_w_0_quantized"
    input: "inception_4a/5x5_reduce_w_0_scale"
    input: "inception_4a/5x5_reduce_w_0_zero_point"
    input: "inception_4a/5x5_reduce_1_scale"
    input: "inception_4a/5x5_reduce_1_zero_point"
    input: "inception_4a/5x5_reduce_b_0_quantized"
    output: "inception_4a/5x5_reduce_1_quantized"
    name: "Conv_nc_rename_42_quant"
    op_type: "QLinearConv"
    attribute {
      name: "auto_pad"
      s: "NOTSET"
      type: STRING
    }
    attribute {
      name: "group"
      i: 1
      type: INT
    }
    attribute {
      name: "kernel_shape"
      ints: 1
      ints: 1
      type: INTS
    }
    attribute {
      name: "pads"
      ints: 0
      ints: 0
      ints: 0
      ints: 0
      type: INTS
    }
    attribute {
      name: "strides"
      ints: 1
      ints: 1
      type: INTS
    }
  }
  node {
    input: "inception_4a/5x5_reduce_1_quantized"
    input: "inception_4a/5x5_reduce_1_scale"
    input: "inception_4a/5x5_reduce_1_zero_point"
    input: "inception_4a/5x5_w_0_quantized"
    input: "inception_4a/5x5_w_0_scale"
    input: "inception_4a/5x5_w_0_zero_point"
    input: "inception_4a/5x5_1_scale"
    input: "inception_4a/5x5_1_zero_point"
    input: "inception_4a/5x5_b_0_quantized"
    output: "inception_4a/5x5_1_quantized"
    name: "Conv_nc_rename_44_quant"
    op_type: "QLinearConv"
    attribute {
      name: "auto_pad"
      s: "NOTSET"
      type: STRING
    }
    attribute {
      name: "group"
      i: 1
      type: INT
    }
    attribute {
      name: "kernel_shape"
      ints: 5
      ints: 5
      type: INTS
    }
    attribute {
      name: "pads"
      ints: 2
      ints: 2
      ints: 2
      ints: 2
      type: INTS
    }
    attribute {
      name: "strides"
      ints: 1
      ints: 1
      type: INTS
    }
  }
  node {
    input: "pool3/3x3_s2_1_quantized"
    input: "pool3/3x3_s2_1_scale"
    input: "pool3/3x3_s2_1_zero_point"
    input: "inception_4a/3x3_reduce_w_0_quantized"
    input: "inception_4a/3x3_reduce_w_0_scale"
    input: "inception_4a/3x3_reduce_w_0_zero_point"
    input: "inception_4a/3x3_reduce_1_scale"
    input: "inception_4a/3x3_reduce_1_zero_point"
    input: "inception_4a/3x3_reduce_b_0_quantized"
    output: "inception_4a/3x3_reduce_1_quantized"
    name: "Conv_nc_rename_46_quant"
    op_type: "QLinearConv"
    attribute {
      name: "auto_pad"
      s: "NOTSET"
      type: STRING
    }
    attribute {
      name: "group"
      i: 1
      type: INT
    }
    attribute {
      name: "kernel_shape"
      ints: 1
      ints: 1
      type: INTS
    }
    attribute {
      name: "pads"
      ints: 0
      ints: 0
      ints: 0
      ints: 0
      type: INTS
    }
    attribute {
      name: "strides"
      ints: 1
      ints: 1
      type: INTS
    }
  }
  node {
    input: "inception_4a/3x3_reduce_1_quantized"
    input: "inception_4a/3x3_reduce_1_scale"
    input: "inception_4a/3x3_reduce_1_zero_point"
    input: "inception_4a/3x3_w_0_quantized"
    input: "inception_4a/3x3_w_0_scale"
    input: "inception_4a/3x3_w_0_zero_point"
    input: "inception_4a/3x3_1_scale"
    input: "inception_4a/3x3_1_zero_point"
    input: "inception_4a/3x3_b_0_quantized"
    output: "inception_4a/3x3_1_quantized"
    name: "Conv_nc_rename_48_quant"
    op_type: "QLinearConv"
    attribute {
      name: "auto_pad"
      s: "NOTSET"
      type: STRING
    }
    attribute {
      name: "group"
      i: 1
      type: INT
    }
    attribute {
      name: "kernel_shape"
      ints: 3
      ints: 3
      type: INTS
    }
    attribute {
      name: "pads"
      ints: 1
      ints: 1
      ints: 1
      ints: 1
      type: INTS
    }
    attribute {
      name: "strides"
      ints: 1
      ints: 1
      type: INTS
    }
  }
  node {
    input: "pool3/3x3_s2_1_quantized"
    input: "pool3/3x3_s2_1_scale"
    input: "pool3/3x3_s2_1_zero_point"
    input: "inception_4a/1x1_w_0_quantized"
    input: "inception_4a/1x1_w_0_scale"
    input: "inception_4a/1x1_w_0_zero_point"
    input: "inception_4a/1x1_1_scale"
    input: "inception_4a/1x1_1_zero_point"
    input: "inception_4a/1x1_b_0_quantized"
    output: "inception_4a/1x1_1_quantized"
    name: "Conv_nc_rename_50_quant"
    op_type: "QLinearConv"
    attribute {
      name: "auto_pad"
      s: "NOTSET"
      type: STRING
    }
    attribute {
      name: "group"
      i: 1
      type: INT
    }
    attribute {
      name: "kernel_shape"
      ints: 1
      ints: 1
      type: INTS
    }
    attribute {
      name: "pads"
      ints: 0
      ints: 0
      ints: 0
      ints: 0
      type: INTS
    }
    attribute {
      name: "strides"
      ints: 1
      ints: 1
      type: INTS
    }
  }
  node {
    input: "inception_4a/1x1_1_quantized"
    input: "inception_4a/1x1_1_scale"
    input: "inception_4a/1x1_1_zero_point"
    output: "inception_4a/1x1_2"
    name: "inception_4a/1x1_2_DequantizeLinear"
    op_type: "DequantizeLinear"
  }
  node {
    input: "inception_4a/3x3_1_quantized"
    input: "inception_4a/3x3_1_scale"
    input: "inception_4a/3x3_1_zero_point"
    output: "inception_4a/3x3_2"
    name: "inception_4a/3x3_2_DequantizeLinear"
    op_type: "DequantizeLinear"
  }
  node {
    input: "inception_4a/5x5_1_quantized"
    input: "inception_4a/5x5_1_scale"
    input: "inception_4a/5x5_1_zero_point"
    output: "inception_4a/5x5_2"
    name: "inception_4a/5x5_2_DequantizeLinear"
    op_type: "DequantizeLinear"
  }
  node {
    input: "inception_4a/pool_proj_1_quantized"
    input: "inception_4a/pool_proj_1_scale"
    input: "inception_4a/pool_proj_1_zero_point"
    output: "inception_4a/pool_proj_2"
    name: "inception_4a/pool_proj_2_DequantizeLinear"
    op_type: "DequantizeLinear"
  }
  node {
    input: "inception_4a/1x1_2"
    input: "inception_4a/3x3_2"
    input: "inception_4a/5x5_2"
    input: "inception_4a/pool_proj_2"
    output: "inception_4a/output_1"
    name: "Concat_nc_rename_52"
    op_type: "Concat"
    attribute {
      name: "axis"
      i: 1
      type: INT
    }
  }
  node {
    input: "inception_4a/output_1"
    output: "inception_4b/pool_1"
    name: "MaxPool_nc_rename_53"
    op_type: "MaxPool"
    attribute {
      name: "auto_pad"
      s: "NOTSET"
      type: STRING
    }
    attribute {
      name: "storage_order"
      i: 0
      type: INT
    }
    attribute {
      name: "strides"
      ints: 1
      ints: 1
      type: INTS
    }
    attribute {
      name: "pads"
      ints: 1
      ints: 1
      ints: 1
      ints: 1
      type: INTS
    }
    attribute {
      name: "ceil_mode"
      i: 0
      type: INT
    }
    attribute {
      name: "kernel_shape"
      ints: 3
      ints: 3
      type: INTS
    }
  }
  node {
    input: "inception_4b/pool_1"
    input: "inception_4b/pool_1_scale"
    input: "inception_4b/pool_1_zero_point"
    output: "inception_4b/pool_1_quantized"
    name: "inception_4b/pool_1_QuantizeLinear"
    op_type: "QuantizeLinear"
  }
  node {
    input: "inception_4b/pool_1_quantized"
    input: "inception_4b/pool_1_scale"
    input: "inception_4b/pool_1_zero_point"
    input: "inception_4b/pool_proj_w_0_quantized"
    input: "inception_4b/pool_proj_w_0_scale"
    input: "inception_4b/pool_proj_w_0_zero_point"
    input: "inception_4b/pool_proj_1_scale"
    input: "inception_4b/pool_proj_1_zero_point"
    input: "inception_4b/pool_proj_b_0_quantized"
    output: "inception_4b/pool_proj_1_quantized"
    name: "Conv_nc_rename_54_quant"
    op_type: "QLinearConv"
    attribute {
      name: "auto_pad"
      s: "NOTSET"
      type: STRING
    }
    attribute {
      name: "group"
      i: 1
      type: INT
    }
    attribute {
      name: "kernel_shape"
      ints: 1
      ints: 1
      type: INTS
    }
    attribute {
      name: "pads"
      ints: 0
      ints: 0
      ints: 0
      ints: 0
      type: INTS
    }
    attribute {
      name: "strides"
      ints: 1
      ints: 1
      type: INTS
    }
  }
  node {
    input: "inception_4a/output_1"
    input: "inception_4a/output_1_scale"
    input: "inception_4a/output_1_zero_point"
    output: "inception_4a/output_1_quantized"
    name: "inception_4a/output_1_QuantizeLinear"
    op_type: "QuantizeLinear"
  }
  node {
    input: "inception_4a/output_1_quantized"
    input: "inception_4a/output_1_scale"
    input: "inception_4a/output_1_zero_point"
    input: "inception_4b/5x5_reduce_w_0_quantized"
    input: "inception_4b/5x5_reduce_w_0_scale"
    input: "inception_4b/5x5_reduce_w_0_zero_point"
    input: "inception_4b/5x5_reduce_1_scale"
    input: "inception_4b/5x5_reduce_1_zero_point"
    input: "inception_4b/5x5_reduce_b_0_quantized"
    output: "inception_4b/5x5_reduce_1_quantized"
    name: "Conv_nc_rename_56_quant"
    op_type: "QLinearConv"
    attribute {
      name: "auto_pad"
      s: "NOTSET"
      type: STRING
    }
    attribute {
      name: "group"
      i: 1
      type: INT
    }
    attribute {
      name: "kernel_shape"
      ints: 1
      ints: 1
      type: INTS
    }
    attribute {
      name: "pads"
      ints: 0
      ints: 0
      ints: 0
      ints: 0
      type: INTS
    }
    attribute {
      name: "strides"
      ints: 1
      ints: 1
      type: INTS
    }
  }
  node {
    input: "inception_4b/5x5_reduce_1_quantized"
    input: "inception_4b/5x5_reduce_1_scale"
    input: "inception_4b/5x5_reduce_1_zero_point"
    input: "inception_4b/5x5_w_0_quantized"
    input: "inception_4b/5x5_w_0_scale"
    input: "inception_4b/5x5_w_0_zero_point"
    input: "inception_4b/5x5_1_scale"
    input: "inception_4b/5x5_1_zero_point"
    input: "inception_4b/5x5_b_0_quantized"
    output: "inception_4b/5x5_1_quantized"
    name: "Conv_nc_rename_58_quant"
    op_type: "QLinearConv"
    attribute {
      name: "auto_pad"
      s: "NOTSET"
      type: STRING
    }
    attribute {
      name: "group"
      i: 1
      type: INT
    }
    attribute {
      name: "kernel_shape"
      ints: 5
      ints: 5
      type: INTS
    }
    attribute {
      name: "pads"
      ints: 2
      ints: 2
      ints: 2
      ints: 2
      type: INTS
    }
    attribute {
      name: "strides"
      ints: 1
      ints: 1
      type: INTS
    }
  }
  node {
    input: "inception_4a/output_1_quantized"
    input: "inception_4a/output_1_scale"
    input: "inception_4a/output_1_zero_point"
    input: "inception_4b/3x3_reduce_w_0_quantized"
    input: "inception_4b/3x3_reduce_w_0_scale"
    input: "inception_4b/3x3_reduce_w_0_zero_point"
    input: "inception_4b/3x3_reduce_1_scale"
    input: "inception_4b/3x3_reduce_1_zero_point"
    input: "inception_4b/3x3_reduce_b_0_quantized"
    output: "inception_4b/3x3_reduce_1_quantized"
    name: "Conv_nc_rename_60_quant"
    op_type: "QLinearConv"
    attribute {
      name: "auto_pad"
      s: "NOTSET"
      type: STRING
    }
    attribute {
      name: "group"
      i: 1
      type: INT
    }
    attribute {
      name: "kernel_shape"
      ints: 1
      ints: 1
      type: INTS
    }
    attribute {
      name: "pads"
      ints: 0
      ints: 0
      ints: 0
      ints: 0
      type: INTS
    }
    attribute {
      name: "strides"
      ints: 1
      ints: 1
      type: INTS
    }
  }
  node {
    input: "inception_4b/3x3_reduce_1_quantized"
    input: "inception_4b/3x3_reduce_1_scale"
    input: "inception_4b/3x3_reduce_1_zero_point"
    input: "inception_4b/3x3_w_0_quantized"
    input: "inception_4b/3x3_w_0_scale"
    input: "inception_4b/3x3_w_0_zero_point"
    input: "inception_4b/3x3_1_scale"
    input: "inception_4b/3x3_1_zero_point"
    input: "inception_4b/3x3_b_0_quantized"
    output: "inception_4b/3x3_1_quantized"
    name: "Conv_nc_rename_62_quant"
    op_type: "QLinearConv"
    attribute {
      name: "auto_pad"
      s: "NOTSET"
      type: STRING
    }
    attribute {
      name: "group"
      i: 1
      type: INT
    }
    attribute {
      name: "kernel_shape"
      ints: 3
      ints: 3
      type: INTS
    }
    attribute {
      name: "pads"
      ints: 1
      ints: 1
      ints: 1
      ints: 1
      type: INTS
    }
    attribute {
      name: "strides"
      ints: 1
      ints: 1
      type: INTS
    }
  }
  node {
    input: "inception_4a/output_1_quantized"
    input: "inception_4a/output_1_scale"
    input: "inception_4a/output_1_zero_point"
    input: "inception_4b/1x1_w_0_quantized"
    input: "inception_4b/1x1_w_0_scale"
    input: "inception_4b/1x1_w_0_zero_point"
    input: "inception_4b/1x1_1_scale"
    input: "inception_4b/1x1_1_zero_point"
    input: "inception_4b/1x1_b_0_quantized"
    output: "inception_4b/1x1_1_quantized"
    name: "Conv_nc_rename_64_quant"
    op_type: "QLinearConv"
    attribute {
      name: "auto_pad"
      s: "NOTSET"
      type: STRING
    }
    attribute {
      name: "group"
      i: 1
      type: INT
    }
    attribute {
      name: "kernel_shape"
      ints: 1
      ints: 1
      type: INTS
    }
    attribute {
      name: "pads"
      ints: 0
      ints: 0
      ints: 0
      ints: 0
      type: INTS
    }
    attribute {
      name: "strides"
      ints: 1
      ints: 1
      type: INTS
    }
  }
  node {
    input: "inception_4b/1x1_1_quantized"
    input: "inception_4b/1x1_1_scale"
    input: "inception_4b/1x1_1_zero_point"
    output: "inception_4b/1x1_2"
    name: "inception_4b/1x1_2_DequantizeLinear"
    op_type: "DequantizeLinear"
  }
  node {
    input: "inception_4b/3x3_1_quantized"
    input: "inception_4b/3x3_1_scale"
    input: "inception_4b/3x3_1_zero_point"
    output: "inception_4b/3x3_2"
    name: "inception_4b/3x3_2_DequantizeLinear"
    op_type: "DequantizeLinear"
  }
  node {
    input: "inception_4b/5x5_1_quantized"
    input: "inception_4b/5x5_1_scale"
    input: "inception_4b/5x5_1_zero_point"
    output: "inception_4b/5x5_2"
    name: "inception_4b/5x5_2_DequantizeLinear"
    op_type: "DequantizeLinear"
  }
  node {
    input: "inception_4b/pool_proj_1_quantized"
    input: "inception_4b/pool_proj_1_scale"
    input: "inception_4b/pool_proj_1_zero_point"
    output: "inception_4b/pool_proj_2"
    name: "inception_4b/pool_proj_2_DequantizeLinear"
    op_type: "DequantizeLinear"
  }
  node {
    input: "inception_4b/1x1_2"
    input: "inception_4b/3x3_2"
    input: "inception_4b/5x5_2"
    input: "inception_4b/pool_proj_2"
    output: "inception_4b/output_1"
    name: "Concat_nc_rename_66"
    op_type: "Concat"
    attribute {
      name: "axis"
      i: 1
      type: INT
    }
  }
  node {
    input: "inception_4b/output_1"
    output: "inception_4c/pool_1"
    name: "MaxPool_nc_rename_67"
    op_type: "MaxPool"
    attribute {
      name: "auto_pad"
      s: "NOTSET"
      type: STRING
    }
    attribute {
      name: "storage_order"
      i: 0
      type: INT
    }
    attribute {
      name: "strides"
      ints: 1
      ints: 1
      type: INTS
    }
    attribute {
      name: "pads"
      ints: 1
      ints: 1
      ints: 1
      ints: 1
      type: INTS
    }
    attribute {
      name: "ceil_mode"
      i: 0
      type: INT
    }
    attribute {
      name: "kernel_shape"
      ints: 3
      ints: 3
      type: INTS
    }
  }
  node {
    input: "inception_4c/pool_1"
    input: "inception_4c/pool_1_scale"
    input: "inception_4c/pool_1_zero_point"
    output: "inception_4c/pool_1_quantized"
    name: "inception_4c/pool_1_QuantizeLinear"
    op_type: "QuantizeLinear"
  }
  node {
    input: "inception_4c/pool_1_quantized"
    input: "inception_4c/pool_1_scale"
    input: "inception_4c/pool_1_zero_point"
    input: "inception_4c/pool_proj_w_0_quantized"
    input: "inception_4c/pool_proj_w_0_scale"
    input: "inception_4c/pool_proj_w_0_zero_point"
    input: "inception_4c/pool_proj_1_scale"
    input: "inception_4c/pool_proj_1_zero_point"
    input: "inception_4c/pool_proj_b_0_quantized"
    output: "inception_4c/pool_proj_1_quantized"
    name: "Conv_nc_rename_68_quant"
    op_type: "QLinearConv"
    attribute {
      name: "auto_pad"
      s: "NOTSET"
      type: STRING
    }
    attribute {
      name: "group"
      i: 1
      type: INT
    }
    attribute {
      name: "kernel_shape"
      ints: 1
      ints: 1
      type: INTS
    }
    attribute {
      name: "pads"
      ints: 0
      ints: 0
      ints: 0
      ints: 0
      type: INTS
    }
    attribute {
      name: "strides"
      ints: 1
      ints: 1
      type: INTS
    }
  }
  node {
    input: "inception_4b/output_1"
    input: "inception_4b/output_1_scale"
    input: "inception_4b/output_1_zero_point"
    output: "inception_4b/output_1_quantized"
    name: "inception_4b/output_1_QuantizeLinear"
    op_type: "QuantizeLinear"
  }
  node {
    input: "inception_4b/output_1_quantized"
    input: "inception_4b/output_1_scale"
    input: "inception_4b/output_1_zero_point"
    input: "inception_4c/5x5_reduce_w_0_quantized"
    input: "inception_4c/5x5_reduce_w_0_scale"
    input: "inception_4c/5x5_reduce_w_0_zero_point"
    input: "inception_4c/5x5_reduce_1_scale"
    input: "inception_4c/5x5_reduce_1_zero_point"
    input: "inception_4c/5x5_reduce_b_0_quantized"
    output: "inception_4c/5x5_reduce_1_quantized"
    name: "Conv_nc_rename_70_quant"
    op_type: "QLinearConv"
    attribute {
      name: "auto_pad"
      s: "NOTSET"
      type: STRING
    }
    attribute {
      name: "group"
      i: 1
      type: INT
    }
    attribute {
      name: "kernel_shape"
      ints: 1
      ints: 1
      type: INTS
    }
    attribute {
      name: "pads"
      ints: 0
      ints: 0
      ints: 0
      ints: 0
      type: INTS
    }
    attribute {
      name: "strides"
      ints: 1
      ints: 1
      type: INTS
    }
  }
  node {
    input: "inception_4c/5x5_reduce_1_quantized"
    input: "inception_4c/5x5_reduce_1_scale"
    input: "inception_4c/5x5_reduce_1_zero_point"
    input: "inception_4c/5x5_w_0_quantized"
    input: "inception_4c/5x5_w_0_scale"
    input: "inception_4c/5x5_w_0_zero_point"
    input: "inception_4c/5x5_1_scale"
    input: "inception_4c/5x5_1_zero_point"
    input: "inception_4c/5x5_b_0_quantized"
    output: "inception_4c/5x5_1_quantized"
    name: "Conv_nc_rename_72_quant"
    op_type: "QLinearConv"
    attribute {
      name: "auto_pad"
      s: "NOTSET"
      type: STRING
    }
    attribute {
      name: "group"
      i: 1
      type: INT
    }
    attribute {
      name: "kernel_shape"
      ints: 5
      ints: 5
      type: INTS
    }
    attribute {
      name: "pads"
      ints: 2
      ints: 2
      ints: 2
      ints: 2
      type: INTS
    }
    attribute {
      name: "strides"
      ints: 1
      ints: 1
      type: INTS
    }
  }
  node {
    input: "inception_4b/output_1_quantized"
    input: "inception_4b/output_1_scale"
    input: "inception_4b/output_1_zero_point"
    input: "inception_4c/3x3_reduce_w_0_quantized"
    input: "inception_4c/3x3_reduce_w_0_scale"
    input: "inception_4c/3x3_reduce_w_0_zero_point"
    input: "inception_4c/3x3_reduce_1_scale"
    input: "inception_4c/3x3_reduce_1_zero_point"
    input: "inception_4c/3x3_reduce_b_0_quantized"
    output: "inception_4c/3x3_reduce_1_quantized"
    name: "Conv_nc_rename_74_quant"
    op_type: "QLinearConv"
    attribute {
      name: "auto_pad"
      s: "NOTSET"
      type: STRING
    }
    attribute {
      name: "group"
      i: 1
      type: INT
    }
    attribute {
      name: "kernel_shape"
      ints: 1
      ints: 1
      type: INTS
    }
    attribute {
      name: "pads"
      ints: 0
      ints: 0
      ints: 0
      ints: 0
      type: INTS
    }
    attribute {
      name: "strides"
      ints: 1
      ints: 1
      type: INTS
    }
  }
  node {
    input: "inception_4c/3x3_reduce_1_quantized"
    input: "inception_4c/3x3_reduce_1_scale"
    input: "inception_4c/3x3_reduce_1_zero_point"
    input: "inception_4c/3x3_w_0_quantized"
    input: "inception_4c/3x3_w_0_scale"
    input: "inception_4c/3x3_w_0_zero_point"
    input: "inception_4c/3x3_1_scale"
    input: "inception_4c/3x3_1_zero_point"
    input: "inception_4c/3x3_b_0_quantized"
    output: "inception_4c/3x3_1_quantized"
    name: "Conv_nc_rename_76_quant"
    op_type: "QLinearConv"
    attribute {
      name: "auto_pad"
      s: "NOTSET"
      type: STRING
    }
    attribute {
      name: "group"
      i: 1
      type: INT
    }
    attribute {
      name: "kernel_shape"
      ints: 3
      ints: 3
      type: INTS
    }
    attribute {
      name: "pads"
      ints: 1
      ints: 1
      ints: 1
      ints: 1
      type: INTS
    }
    attribute {
      name: "strides"
      ints: 1
      ints: 1
      type: INTS
    }
  }
  node {
    input: "inception_4b/output_1_quantized"
    input: "inception_4b/output_1_scale"
    input: "inception_4b/output_1_zero_point"
    input: "inception_4c/1x1_w_0_quantized"
    input: "inception_4c/1x1_w_0_scale"
    input: "inception_4c/1x1_w_0_zero_point"
    input: "inception_4c/1x1_1_scale"
    input: "inception_4c/1x1_1_zero_point"
    input: "inception_4c/1x1_b_0_quantized"
    output: "inception_4c/1x1_1_quantized"
    name: "Conv_nc_rename_78_quant"
    op_type: "QLinearConv"
    attribute {
      name: "auto_pad"
      s: "NOTSET"
      type: STRING
    }
    attribute {
      name: "group"
      i: 1
      type: INT
    }
    attribute {
      name: "kernel_shape"
      ints: 1
      ints: 1
      type: INTS
    }
    attribute {
      name: "pads"
      ints: 0
      ints: 0
      ints: 0
      ints: 0
      type: INTS
    }
    attribute {
      name: "strides"
      ints: 1
      ints: 1
      type: INTS
    }
  }
  node {
    input: "inception_4c/1x1_1_quantized"
    input: "inception_4c/1x1_1_scale"
    input: "inception_4c/1x1_1_zero_point"
    output: "inception_4c/1x1_2"
    name: "inception_4c/1x1_2_DequantizeLinear"
    op_type: "DequantizeLinear"
  }
  node {
    input: "inception_4c/3x3_1_quantized"
    input: "inception_4c/3x3_1_scale"
    input: "inception_4c/3x3_1_zero_point"
    output: "inception_4c/3x3_2"
    name: "inception_4c/3x3_2_DequantizeLinear"
    op_type: "DequantizeLinear"
  }
  node {
    input: "inception_4c/5x5_1_quantized"
    input: "inception_4c/5x5_1_scale"
    input: "inception_4c/5x5_1_zero_point"
    output: "inception_4c/5x5_2"
    name: "inception_4c/5x5_2_DequantizeLinear"
    op_type: "DequantizeLinear"
  }
  node {
    input: "inception_4c/pool_proj_1_quantized"
    input: "inception_4c/pool_proj_1_scale"
    input: "inception_4c/pool_proj_1_zero_point"
    output: "inception_4c/pool_proj_2"
    name: "inception_4c/pool_proj_2_DequantizeLinear"
    op_type: "DequantizeLinear"
  }
  node {
    input: "inception_4c/1x1_2"
    input: "inception_4c/3x3_2"
    input: "inception_4c/5x5_2"
    input: "inception_4c/pool_proj_2"
    output: "inception_4c/output_1"
    name: "Concat_nc_rename_80"
    op_type: "Concat"
    attribute {
      name: "axis"
      i: 1
      type: INT
    }
  }
  node {
    input: "inception_4c/output_1"
    output: "inception_4d/pool_1"
    name: "MaxPool_nc_rename_81"
    op_type: "MaxPool"
    attribute {
      name: "auto_pad"
      s: "NOTSET"
      type: STRING
    }
    attribute {
      name: "storage_order"
      i: 0
      type: INT
    }
    attribute {
      name: "strides"
      ints: 1
      ints: 1
      type: INTS
    }
    attribute {
      name: "pads"
      ints: 1
      ints: 1
      ints: 1
      ints: 1
      type: INTS
    }
    attribute {
      name: "ceil_mode"
      i: 0
      type: INT
    }
    attribute {
      name: "kernel_shape"
      ints: 3
      ints: 3
      type: INTS
    }
  }
  node {
    input: "inception_4d/pool_1"
    input: "inception_4d/pool_1_scale"
    input: "inception_4d/pool_1_zero_point"
    output: "inception_4d/pool_1_quantized"
    name: "inception_4d/pool_1_QuantizeLinear"
    op_type: "QuantizeLinear"
  }
  node {
    input: "inception_4d/pool_1_quantized"
    input: "inception_4d/pool_1_scale"
    input: "inception_4d/pool_1_zero_point"
    input: "inception_4d/pool_proj_w_0_quantized"
    input: "inception_4d/pool_proj_w_0_scale"
    input: "inception_4d/pool_proj_w_0_zero_point"
    input: "inception_4d/pool_proj_1_scale"
    input: "inception_4d/pool_proj_1_zero_point"
    input: "inception_4d/pool_proj_b_0_quantized"
    output: "inception_4d/pool_proj_1_quantized"
    name: "Conv_nc_rename_82_quant"
    op_type: "QLinearConv"
    attribute {
      name: "auto_pad"
      s: "NOTSET"
      type: STRING
    }
    attribute {
      name: "group"
      i: 1
      type: INT
    }
    attribute {
      name: "kernel_shape"
      ints: 1
      ints: 1
      type: INTS
    }
    attribute {
      name: "pads"
      ints: 0
      ints: 0
      ints: 0
      ints: 0
      type: INTS
    }
    attribute {
      name: "strides"
      ints: 1
      ints: 1
      type: INTS
    }
  }
  node {
    input: "inception_4c/output_1"
    input: "inception_4c/output_1_scale"
    input: "inception_4c/output_1_zero_point"
    output: "inception_4c/output_1_quantized"
    name: "inception_4c/output_1_QuantizeLinear"
    op_type: "QuantizeLinear"
  }
  node {
    input: "inception_4c/output_1_quantized"
    input: "inception_4c/output_1_scale"
    input: "inception_4c/output_1_zero_point"
    input: "inception_4d/5x5_reduce_w_0_quantized"
    input: "inception_4d/5x5_reduce_w_0_scale"
    input: "inception_4d/5x5_reduce_w_0_zero_point"
    input: "inception_4d/5x5_reduce_1_scale"
    input: "inception_4d/5x5_reduce_1_zero_point"
    input: "inception_4d/5x5_reduce_b_0_quantized"
    output: "inception_4d/5x5_reduce_1_quantized"
    name: "Conv_nc_rename_84_quant"
    op_type: "QLinearConv"
    attribute {
      name: "auto_pad"
      s: "NOTSET"
      type: STRING
    }
    attribute {
      name: "group"
      i: 1
      type: INT
    }
    attribute {
      name: "kernel_shape"
      ints: 1
      ints: 1
      type: INTS
    }
    attribute {
      name: "pads"
      ints: 0
      ints: 0
      ints: 0
      ints: 0
      type: INTS
    }
    attribute {
      name: "strides"
      ints: 1
      ints: 1
      type: INTS
    }
  }
  node {
    input: "inception_4d/5x5_reduce_1_quantized"
    input: "inception_4d/5x5_reduce_1_scale"
    input: "inception_4d/5x5_reduce_1_zero_point"
    input: "inception_4d/5x5_w_0_quantized"
    input: "inception_4d/5x5_w_0_scale"
    input: "inception_4d/5x5_w_0_zero_point"
    input: "inception_4d/5x5_1_scale"
    input: "inception_4d/5x5_1_zero_point"
    input: "inception_4d/5x5_b_0_quantized"
    output: "inception_4d/5x5_1_quantized"
    name: "Conv_nc_rename_86_quant"
    op_type: "QLinearConv"
    attribute {
      name: "auto_pad"
      s: "NOTSET"
      type: STRING
    }
    attribute {
      name: "group"
      i: 1
      type: INT
    }
    attribute {
      name: "kernel_shape"
      ints: 5
      ints: 5
      type: INTS
    }
    attribute {
      name: "pads"
      ints: 2
      ints: 2
      ints: 2
      ints: 2
      type: INTS
    }
    attribute {
      name: "strides"
      ints: 1
      ints: 1
      type: INTS
    }
  }
  node {
    input: "inception_4c/output_1_quantized"
    input: "inception_4c/output_1_scale"
    input: "inception_4c/output_1_zero_point"
    input: "inception_4d/3x3_reduce_w_0_quantized"
    input: "inception_4d/3x3_reduce_w_0_scale"
    input: "inception_4d/3x3_reduce_w_0_zero_point"
    input: "inception_4d/3x3_reduce_1_scale"
    input: "inception_4d/3x3_reduce_1_zero_point"
    input: "inception_4d/3x3_reduce_b_0_quantized"
    output: "inception_4d/3x3_reduce_1_quantized"
    name: "Conv_nc_rename_88_quant"
    op_type: "QLinearConv"
    attribute {
      name: "auto_pad"
      s: "NOTSET"
      type: STRING
    }
    attribute {
      name: "group"
      i: 1
      type: INT
    }
    attribute {
      name: "kernel_shape"
      ints: 1
      ints: 1
      type: INTS
    }
    attribute {
      name: "pads"
      ints: 0
      ints: 0
      ints: 0
      ints: 0
      type: INTS
    }
    attribute {
      name: "strides"
      ints: 1
      ints: 1
      type: INTS
    }
  }
  node {
    input: "inception_4d/3x3_reduce_1_quantized"
    input: "inception_4d/3x3_reduce_1_scale"
    input: "inception_4d/3x3_reduce_1_zero_point"
    input: "inception_4d/3x3_w_0_quantized"
    input: "inception_4d/3x3_w_0_scale"
    input: "inception_4d/3x3_w_0_zero_point"
    input: "inception_4d/3x3_1_scale"
    input: "inception_4d/3x3_1_zero_point"
    input: "inception_4d/3x3_b_0_quantized"
    output: "inception_4d/3x3_1_quantized"
    name: "Conv_nc_rename_90_quant"
    op_type: "QLinearConv"
    attribute {
      name: "auto_pad"
      s: "NOTSET"
      type: STRING
    }
    attribute {
      name: "group"
      i: 1
      type: INT
    }
    attribute {
      name: "kernel_shape"
      ints: 3
      ints: 3
      type: INTS
    }
    attribute {
      name: "pads"
      ints: 1
      ints: 1
      ints: 1
      ints: 1
      type: INTS
    }
    attribute {
      name: "strides"
      ints: 1
      ints: 1
      type: INTS
    }
  }
  node {
    input: "inception_4c/output_1_quantized"
    input: "inception_4c/output_1_scale"
    input: "inception_4c/output_1_zero_point"
    input: "inception_4d/1x1_w_0_quantized"
    input: "inception_4d/1x1_w_0_scale"
    input: "inception_4d/1x1_w_0_zero_point"
    input: "inception_4d/1x1_1_scale"
    input: "inception_4d/1x1_1_zero_point"
    input: "inception_4d/1x1_b_0_quantized"
    output: "inception_4d/1x1_1_quantized"
    name: "Conv_nc_rename_92_quant"
    op_type: "QLinearConv"
    attribute {
      name: "auto_pad"
      s: "NOTSET"
      type: STRING
    }
    attribute {
      name: "group"
      i: 1
      type: INT
    }
    attribute {
      name: "kernel_shape"
      ints: 1
      ints: 1
      type: INTS
    }
    attribute {
      name: "pads"
      ints: 0
      ints: 0
      ints: 0
      ints: 0
      type: INTS
    }
    attribute {
      name: "strides"
      ints: 1
      ints: 1
      type: INTS
    }
  }
  node {
    input: "inception_4d/1x1_1_quantized"
    input: "inception_4d/1x1_1_scale"
    input: "inception_4d/1x1_1_zero_point"
    output: "inception_4d/1x1_2"
    name: "inception_4d/1x1_2_DequantizeLinear"
    op_type: "DequantizeLinear"
  }
  node {
    input: "inception_4d/3x3_1_quantized"
    input: "inception_4d/3x3_1_scale"
    input: "inception_4d/3x3_1_zero_point"
    output: "inception_4d/3x3_2"
    name: "inception_4d/3x3_2_DequantizeLinear"
    op_type: "DequantizeLinear"
  }
  node {
    input: "inception_4d/5x5_1_quantized"
    input: "inception_4d/5x5_1_scale"
    input: "inception_4d/5x5_1_zero_point"
    output: "inception_4d/5x5_2"
    name: "inception_4d/5x5_2_DequantizeLinear"
    op_type: "DequantizeLinear"
  }
  node {
    input: "inception_4d/pool_proj_1_quantized"
    input: "inception_4d/pool_proj_1_scale"
    input: "inception_4d/pool_proj_1_zero_point"
    output: "inception_4d/pool_proj_2"
    name: "inception_4d/pool_proj_2_DequantizeLinear"
    op_type: "DequantizeLinear"
  }
  node {
    input: "inception_4d/1x1_2"
    input: "inception_4d/3x3_2"
    input: "inception_4d/5x5_2"
    input: "inception_4d/pool_proj_2"
    output: "inception_4d/output_1"
    name: "Concat_nc_rename_94"
    op_type: "Concat"
    attribute {
      name: "axis"
      i: 1
      type: INT
    }
  }
  node {
    input: "inception_4d/output_1"
    output: "inception_4e/pool_1"
    name: "MaxPool_nc_rename_95"
    op_type: "MaxPool"
    attribute {
      name: "auto_pad"
      s: "NOTSET"
      type: STRING
    }
    attribute {
      name: "storage_order"
      i: 0
      type: INT
    }
    attribute {
      name: "strides"
      ints: 1
      ints: 1
      type: INTS
    }
    attribute {
      name: "pads"
      ints: 1
      ints: 1
      ints: 1
      ints: 1
      type: INTS
    }
    attribute {
      name: "ceil_mode"
      i: 0
      type: INT
    }
    attribute {
      name: "kernel_shape"
      ints: 3
      ints: 3
      type: INTS
    }
  }
  node {
    input: "inception_4e/pool_1"
    input: "inception_4e/pool_1_scale"
    input: "inception_4e/pool_1_zero_point"
    output: "inception_4e/pool_1_quantized"
    name: "inception_4e/pool_1_QuantizeLinear"
    op_type: "QuantizeLinear"
  }
  node {
    input: "inception_4e/pool_1_quantized"
    input: "inception_4e/pool_1_scale"
    input: "inception_4e/pool_1_zero_point"
    input: "inception_4e/pool_proj_w_0_quantized"
    input: "inception_4e/pool_proj_w_0_scale"
    input: "inception_4e/pool_proj_w_0_zero_point"
    input: "inception_4e/pool_proj_1_scale"
    input: "inception_4e/pool_proj_1_zero_point"
    input: "inception_4e/pool_proj_b_0_quantized"
    output: "inception_4e/pool_proj_1_quantized"
    name: "Conv_nc_rename_96_quant"
    op_type: "QLinearConv"
    attribute {
      name: "auto_pad"
      s: "NOTSET"
      type: STRING
    }
    attribute {
      name: "group"
      i: 1
      type: INT
    }
    attribute {
      name: "kernel_shape"
      ints: 1
      ints: 1
      type: INTS
    }
    attribute {
      name: "pads"
      ints: 0
      ints: 0
      ints: 0
      ints: 0
      type: INTS
    }
    attribute {
      name: "strides"
      ints: 1
      ints: 1
      type: INTS
    }
  }
  node {
    input: "inception_4d/output_1"
    input: "inception_4d/output_1_scale"
    input: "inception_4d/output_1_zero_point"
    output: "inception_4d/output_1_quantized"
    name: "inception_4d/output_1_QuantizeLinear"
    op_type: "QuantizeLinear"
  }
  node {
    input: "inception_4d/output_1_quantized"
    input: "inception_4d/output_1_scale"
    input: "inception_4d/output_1_zero_point"
    input: "inception_4e/5x5_reduce_w_0_quantized"
    input: "inception_4e/5x5_reduce_w_0_scale"
    input: "inception_4e/5x5_reduce_w_0_zero_point"
    input: "inception_4e/5x5_reduce_1_scale"
    input: "inception_4e/5x5_reduce_1_zero_point"
    input: "inception_4e/5x5_reduce_b_0_quantized"
    output: "inception_4e/5x5_reduce_1_quantized"
    name: "Conv_nc_rename_98_quant"
    op_type: "QLinearConv"
    attribute {
      name: "auto_pad"
      s: "NOTSET"
      type: STRING
    }
    attribute {
      name: "group"
      i: 1
      type: INT
    }
    attribute {
      name: "kernel_shape"
      ints: 1
      ints: 1
      type: INTS
    }
    attribute {
      name: "pads"
      ints: 0
      ints: 0
      ints: 0
      ints: 0
      type: INTS
    }
    attribute {
      name: "strides"
      ints: 1
      ints: 1
      type: INTS
    }
  }
  node {
    input: "inception_4e/5x5_reduce_1_quantized"
    input: "inception_4e/5x5_reduce_1_scale"
    input: "inception_4e/5x5_reduce_1_zero_point"
    input: "inception_4e/5x5_w_0_quantized"
    input: "inception_4e/5x5_w_0_scale"
    input: "inception_4e/5x5_w_0_zero_point"
    input: "inception_4e/5x5_1_scale"
    input: "inception_4e/5x5_1_zero_point"
    input: "inception_4e/5x5_b_0_quantized"
    output: "inception_4e/5x5_1_quantized"
    name: "Conv_nc_rename_100_quant"
    op_type: "QLinearConv"
    attribute {
      name: "auto_pad"
      s: "NOTSET"
      type: STRING
    }
    attribute {
      name: "group"
      i: 1
      type: INT
    }
    attribute {
      name: "kernel_shape"
      ints: 5
      ints: 5
      type: INTS
    }
    attribute {
      name: "pads"
      ints: 2
      ints: 2
      ints: 2
      ints: 2
      type: INTS
    }
    attribute {
      name: "strides"
      ints: 1
      ints: 1
      type: INTS
    }
  }
  node {
    input: "inception_4d/output_1_quantized"
    input: "inception_4d/output_1_scale"
    input: "inception_4d/output_1_zero_point"
    input: "inception_4e/3x3_reduce_w_0_quantized"
    input: "inception_4e/3x3_reduce_w_0_scale"
    input: "inception_4e/3x3_reduce_w_0_zero_point"
    input: "inception_4e/3x3_reduce_1_scale"
    input: "inception_4e/3x3_reduce_1_zero_point"
    input: "inception_4e/3x3_reduce_b_0_quantized"
    output: "inception_4e/3x3_reduce_1_quantized"
    name: "Conv_nc_rename_102_quant"
    op_type: "QLinearConv"
    attribute {
      name: "auto_pad"
      s: "NOTSET"
      type: STRING
    }
    attribute {
      name: "group"
      i: 1
      type: INT
    }
    attribute {
      name: "kernel_shape"
      ints: 1
      ints: 1
      type: INTS
    }
    attribute {
      name: "pads"
      ints: 0
      ints: 0
      ints: 0
      ints: 0
      type: INTS
    }
    attribute {
      name: "strides"
      ints: 1
      ints: 1
      type: INTS
    }
  }
  node {
    input: "inception_4e/3x3_reduce_1_quantized"
    input: "inception_4e/3x3_reduce_1_scale"
    input: "inception_4e/3x3_reduce_1_zero_point"
    input: "inception_4e/3x3_w_0_quantized"
    input: "inception_4e/3x3_w_0_scale"
    input: "inception_4e/3x3_w_0_zero_point"
    input: "inception_4e/3x3_1_scale"
    input: "inception_4e/3x3_1_zero_point"
    input: "inception_4e/3x3_b_0_quantized"
    output: "inception_4e/3x3_1_quantized"
    name: "Conv_nc_rename_104_quant"
    op_type: "QLinearConv"
    attribute {
      name: "auto_pad"
      s: "NOTSET"
      type: STRING
    }
    attribute {
      name: "group"
      i: 1
      type: INT
    }
    attribute {
      name: "kernel_shape"
      ints: 3
      ints: 3
      type: INTS
    }
    attribute {
      name: "pads"
      ints: 1
      ints: 1
      ints: 1
      ints: 1
      type: INTS
    }
    attribute {
      name: "strides"
      ints: 1
      ints: 1
      type: INTS
    }
  }
  node {
    input: "inception_4d/output_1_quantized"
    input: "inception_4d/output_1_scale"
    input: "inception_4d/output_1_zero_point"
    input: "inception_4e/1x1_w_0_quantized"
    input: "inception_4e/1x1_w_0_scale"
    input: "inception_4e/1x1_w_0_zero_point"
    input: "inception_4e/1x1_1_scale"
    input: "inception_4e/1x1_1_zero_point"
    input: "inception_4e/1x1_b_0_quantized"
    output: "inception_4e/1x1_1_quantized"
    name: "Conv_nc_rename_106_quant"
    op_type: "QLinearConv"
    attribute {
      name: "auto_pad"
      s: "NOTSET"
      type: STRING
    }
    attribute {
      name: "group"
      i: 1
      type: INT
    }
    attribute {
      name: "kernel_shape"
      ints: 1
      ints: 1
      type: INTS
    }
    attribute {
      name: "pads"
      ints: 0
      ints: 0
      ints: 0
      ints: 0
      type: INTS
    }
    attribute {
      name: "strides"
      ints: 1
      ints: 1
      type: INTS
    }
  }
  node {
    input: "inception_4e/1x1_1_quantized"
    input: "inception_4e/1x1_1_scale"
    input: "inception_4e/1x1_1_zero_point"
    output: "inception_4e/1x1_2"
    name: "inception_4e/1x1_2_DequantizeLinear"
    op_type: "DequantizeLinear"
  }
  node {
    input: "inception_4e/3x3_1_quantized"
    input: "inception_4e/3x3_1_scale"
    input: "inception_4e/3x3_1_zero_point"
    output: "inception_4e/3x3_2"
    name: "inception_4e/3x3_2_DequantizeLinear"
    op_type: "DequantizeLinear"
  }
  node {
    input: "inception_4e/5x5_1_quantized"
    input: "inception_4e/5x5_1_scale"
    input: "inception_4e/5x5_1_zero_point"
    output: "inception_4e/5x5_2"
    name: "inception_4e/5x5_2_DequantizeLinear"
    op_type: "DequantizeLinear"
  }
  node {
    input: "inception_4e/pool_proj_1_quantized"
    input: "inception_4e/pool_proj_1_scale"
    input: "inception_4e/pool_proj_1_zero_point"
    output: "inception_4e/pool_proj_2"
    name: "inception_4e/pool_proj_2_DequantizeLinear"
    op_type: "DequantizeLinear"
  }
  node {
    input: "inception_4e/1x1_2"
    input: "inception_4e/3x3_2"
    input: "inception_4e/5x5_2"
    input: "inception_4e/pool_proj_2"
    output: "inception_4e/output_1"
    name: "Concat_nc_rename_108"
    op_type: "Concat"
    attribute {
      name: "axis"
      i: 1
      type: INT
    }
  }
  node {
    input: "inception_4e/output_1"
    output: "pool4/3x3_s2_1"
    name: "MaxPool_nc_rename_109"
    op_type: "MaxPool"
    attribute {
      name: "auto_pad"
      s: "NOTSET"
      type: STRING
    }
    attribute {
      name: "storage_order"
      i: 0
      type: INT
    }
    attribute {
      name: "strides"
      ints: 2
      ints: 2
      type: INTS
    }
    attribute {
      name: "pads"
      ints: 0
      ints: 0
      ints: 2
      ints: 2
      type: INTS
    }
    attribute {
      name: "ceil_mode"
      i: 0
      type: INT
    }
    attribute {
      name: "kernel_shape"
      ints: 3
      ints: 3
      type: INTS
    }
  }
  node {
    input: "pool4/3x3_s2_1"
    output: "inception_5a/pool_1"
    name: "MaxPool_nc_rename_110"
    op_type: "MaxPool"
    attribute {
      name: "auto_pad"
      s: "NOTSET"
      type: STRING
    }
    attribute {
      name: "storage_order"
      i: 0
      type: INT
    }
    attribute {
      name: "strides"
      ints: 1
      ints: 1
      type: INTS
    }
    attribute {
      name: "pads"
      ints: 1
      ints: 1
      ints: 1
      ints: 1
      type: INTS
    }
    attribute {
      name: "ceil_mode"
      i: 0
      type: INT
    }
    attribute {
      name: "kernel_shape"
      ints: 3
      ints: 3
      type: INTS
    }
  }
  node {
    input: "inception_5a/pool_1"
    input: "inception_5a/pool_1_scale"
    input: "inception_5a/pool_1_zero_point"
    output: "inception_5a/pool_1_quantized"
    name: "inception_5a/pool_1_QuantizeLinear"
    op_type: "QuantizeLinear"
  }
  node {
    input: "inception_5a/pool_1_quantized"
    input: "inception_5a/pool_1_scale"
    input: "inception_5a/pool_1_zero_point"
    input: "inception_5a/pool_proj_w_0_quantized"
    input: "inception_5a/pool_proj_w_0_scale"
    input: "inception_5a/pool_proj_w_0_zero_point"
    input: "inception_5a/pool_proj_1_scale"
    input: "inception_5a/pool_proj_1_zero_point"
    input: "inception_5a/pool_proj_b_0_quantized"
    output: "inception_5a/pool_proj_1_quantized"
    name: "Conv_nc_rename_111_quant"
    op_type: "QLinearConv"
    attribute {
      name: "auto_pad"
      s: "NOTSET"
      type: STRING
    }
    attribute {
      name: "group"
      i: 1
      type: INT
    }
    attribute {
      name: "kernel_shape"
      ints: 1
      ints: 1
      type: INTS
    }
    attribute {
      name: "pads"
      ints: 0
      ints: 0
      ints: 0
      ints: 0
      type: INTS
    }
    attribute {
      name: "strides"
      ints: 1
      ints: 1
      type: INTS
    }
  }
  node {
    input: "pool4/3x3_s2_1"
    input: "pool4/3x3_s2_1_scale"
    input: "pool4/3x3_s2_1_zero_point"
    output: "pool4/3x3_s2_1_quantized"
    name: "pool4/3x3_s2_1_QuantizeLinear"
    op_type: "QuantizeLinear"
  }
  node {
    input: "pool4/3x3_s2_1_quantized"
    input: "pool4/3x3_s2_1_scale"
    input: "pool4/3x3_s2_1_zero_point"
    input: "inception_5a/5x5_reduce_w_0_quantized"
    input: "inception_5a/5x5_reduce_w_0_scale"
    input: "inception_5a/5x5_reduce_w_0_zero_point"
    input: "inception_5a/5x5_reduce_1_scale"
    input: "inception_5a/5x5_reduce_1_zero_point"
    input: "inception_5a/5x5_reduce_b_0_quantized"
    output: "inception_5a/5x5_reduce_1_quantized"
    name: "Conv_nc_rename_113_quant"
    op_type: "QLinearConv"
    attribute {
      name: "auto_pad"
      s: "NOTSET"
      type: STRING
    }
    attribute {
      name: "group"
      i: 1
      type: INT
    }
    attribute {
      name: "kernel_shape"
      ints: 1
      ints: 1
      type: INTS
    }
    attribute {
      name: "pads"
      ints: 0
      ints: 0
      ints: 0
      ints: 0
      type: INTS
    }
    attribute {
      name: "strides"
      ints: 1
      ints: 1
      type: INTS
    }
  }
  node {
    input: "inception_5a/5x5_reduce_1_quantized"
    input: "inception_5a/5x5_reduce_1_scale"
    input: "inception_5a/5x5_reduce_1_zero_point"
    input: "inception_5a/5x5_w_0_quantized"
    input: "inception_5a/5x5_w_0_scale"
    input: "inception_5a/5x5_w_0_zero_point"
    input: "inception_5a/5x5_1_scale"
    input: "inception_5a/5x5_1_zero_point"
    input: "inception_5a/5x5_b_0_quantized"
    output: "inception_5a/5x5_1_quantized"
    name: "Conv_nc_rename_115_quant"
    op_type: "QLinearConv"
    attribute {
      name: "auto_pad"
      s: "NOTSET"
      type: STRING
    }
    attribute {
      name: "group"
      i: 1
      type: INT
    }
    attribute {
      name: "kernel_shape"
      ints: 5
      ints: 5
      type: INTS
    }
    attribute {
      name: "pads"
      ints: 2
      ints: 2
      ints: 2
      ints: 2
      type: INTS
    }
    attribute {
      name: "strides"
      ints: 1
      ints: 1
      type: INTS
    }
  }
  node {
    input: "pool4/3x3_s2_1_quantized"
    input: "pool4/3x3_s2_1_scale"
    input: "pool4/3x3_s2_1_zero_point"
    input: "inception_5a/3x3_reduce_w_0_quantized"
    input: "inception_5a/3x3_reduce_w_0_scale"
    input: "inception_5a/3x3_reduce_w_0_zero_point"
    input: "inception_5a/3x3_reduce_1_scale"
    input: "inception_5a/3x3_reduce_1_zero_point"
    input: "inception_5a/3x3_reduce_b_0_quantized"
    output: "inception_5a/3x3_reduce_1_quantized"
    name: "Conv_nc_rename_117_quant"
    op_type: "QLinearConv"
    attribute {
      name: "auto_pad"
      s: "NOTSET"
      type: STRING
    }
    attribute {
      name: "group"
      i: 1
      type: INT
    }
    attribute {
      name: "kernel_shape"
      ints: 1
      ints: 1
      type: INTS
    }
    attribute {
      name: "pads"
      ints: 0
      ints: 0
      ints: 0
      ints: 0
      type: INTS
    }
    attribute {
      name: "strides"
      ints: 1
      ints: 1
      type: INTS
    }
  }
  node {
    input: "inception_5a/3x3_reduce_1_quantized"
    input: "inception_5a/3x3_reduce_1_scale"
    input: "inception_5a/3x3_reduce_1_zero_point"
    input: "inception_5a/3x3_w_0_quantized"
    input: "inception_5a/3x3_w_0_scale"
    input: "inception_5a/3x3_w_0_zero_point"
    input: "inception_5a/3x3_1_scale"
    input: "inception_5a/3x3_1_zero_point"
    input: "inception_5a/3x3_b_0_quantized"
    output: "inception_5a/3x3_1_quantized"
    name: "Conv_nc_rename_119_quant"
    op_type: "QLinearConv"
    attribute {
      name: "auto_pad"
      s: "NOTSET"
      type: STRING
    }
    attribute {
      name: "group"
      i: 1
      type: INT
    }
    attribute {
      name: "kernel_shape"
      ints: 3
      ints: 3
      type: INTS
    }
    attribute {
      name: "pads"
      ints: 1
      ints: 1
      ints: 1
      ints: 1
      type: INTS
    }
    attribute {
      name: "strides"
      ints: 1
      ints: 1
      type: INTS
    }
  }
  node {
    input: "pool4/3x3_s2_1_quantized"
    input: "pool4/3x3_s2_1_scale"
    input: "pool4/3x3_s2_1_zero_point"
    input: "inception_5a/1x1_w_0_quantized"
    input: "inception_5a/1x1_w_0_scale"
    input: "inception_5a/1x1_w_0_zero_point"
    input: "inception_5a/1x1_1_scale"
    input: "inception_5a/1x1_1_zero_point"
    input: "inception_5a/1x1_b_0_quantized"
    output: "inception_5a/1x1_1_quantized"
    name: "Conv_nc_rename_121_quant"
    op_type: "QLinearConv"
    attribute {
      name: "auto_pad"
      s: "NOTSET"
      type: STRING
    }
    attribute {
      name: "group"
      i: 1
      type: INT
    }
    attribute {
      name: "kernel_shape"
      ints: 1
      ints: 1
      type: INTS
    }
    attribute {
      name: "pads"
      ints: 0
      ints: 0
      ints: 0
      ints: 0
      type: INTS
    }
    attribute {
      name: "strides"
      ints: 1
      ints: 1
      type: INTS
    }
  }
  node {
    input: "inception_5a/1x1_1_quantized"
    input: "inception_5a/1x1_1_scale"
    input: "inception_5a/1x1_1_zero_point"
    output: "inception_5a/1x1_2"
    name: "inception_5a/1x1_2_DequantizeLinear"
    op_type: "DequantizeLinear"
  }
  node {
    input: "inception_5a/3x3_1_quantized"
    input: "inception_5a/3x3_1_scale"
    input: "inception_5a/3x3_1_zero_point"
    output: "inception_5a/3x3_2"
    name: "inception_5a/3x3_2_DequantizeLinear"
    op_type: "DequantizeLinear"
  }
  node {
    input: "inception_5a/5x5_1_quantized"
    input: "inception_5a/5x5_1_scale"
    input: "inception_5a/5x5_1_zero_point"
    output: "inception_5a/5x5_2"
    name: "inception_5a/5x5_2_DequantizeLinear"
    op_type: "DequantizeLinear"
  }
  node {
    input: "inception_5a/pool_proj_1_quantized"
    input: "inception_5a/pool_proj_1_scale"
    input: "inception_5a/pool_proj_1_zero_point"
    output: "inception_5a/pool_proj_2"
    name: "inception_5a/pool_proj_2_DequantizeLinear"
    op_type: "DequantizeLinear"
  }
  node {
    input: "inception_5a/1x1_2"
    input: "inception_5a/3x3_2"
    input: "inception_5a/5x5_2"
    input: "inception_5a/pool_proj_2"
    output: "inception_5a/output_1"
    name: "Concat_nc_rename_123"
    op_type: "Concat"
    attribute {
      name: "axis"
      i: 1
      type: INT
    }
  }
  node {
    input: "inception_5a/output_1"
    output: "inception_5b/pool_1"
    name: "MaxPool_nc_rename_124"
    op_type: "MaxPool"
    attribute {
      name: "auto_pad"
      s: "NOTSET"
      type: STRING
    }
    attribute {
      name: "storage_order"
      i: 0
      type: INT
    }
    attribute {
      name: "strides"
      ints: 1
      ints: 1
      type: INTS
    }
    attribute {
      name: "pads"
      ints: 1
      ints: 1
      ints: 1
      ints: 1
      type: INTS
    }
    attribute {
      name: "ceil_mode"
      i: 0
      type: INT
    }
    attribute {
      name: "kernel_shape"
      ints: 3
      ints: 3
      type: INTS
    }
  }
  node {
    input: "inception_5b/pool_1"
    input: "inception_5b/pool_1_scale"
    input: "inception_5b/pool_1_zero_point"
    output: "inception_5b/pool_1_quantized"
    name: "inception_5b/pool_1_QuantizeLinear"
    op_type: "QuantizeLinear"
  }
  node {
    input: "inception_5b/pool_1_quantized"
    input: "inception_5b/pool_1_scale"
    input: "inception_5b/pool_1_zero_point"
    input: "inception_5b/pool_proj_w_0_quantized"
    input: "inception_5b/pool_proj_w_0_scale"
    input: "inception_5b/pool_proj_w_0_zero_point"
    input: "inception_5b/pool_proj_1_scale"
    input: "inception_5b/pool_proj_1_zero_point"
    input: "inception_5b/pool_proj_b_0_quantized"
    output: "inception_5b/pool_proj_1_quantized"
    name: "Conv_nc_rename_125_quant"
    op_type: "QLinearConv"
    attribute {
      name: "auto_pad"
      s: "NOTSET"
      type: STRING
    }
    attribute {
      name: "group"
      i: 1
      type: INT
    }
    attribute {
      name: "kernel_shape"
      ints: 1
      ints: 1
      type: INTS
    }
    attribute {
      name: "pads"
      ints: 0
      ints: 0
      ints: 0
      ints: 0
      type: INTS
    }
    attribute {
      name: "strides"
      ints: 1
      ints: 1
      type: INTS
    }
  }
  node {
    input: "inception_5a/output_1"
    input: "inception_5a/output_1_scale"
    input: "inception_5a/output_1_zero_point"
    output: "inception_5a/output_1_quantized"
    name: "inception_5a/output_1_QuantizeLinear"
    op_type: "QuantizeLinear"
  }
  node {
    input: "inception_5a/output_1_quantized"
    input: "inception_5a/output_1_scale"
    input: "inception_5a/output_1_zero_point"
    input: "inception_5b/5x5_reduce_w_0_quantized"
    input: "inception_5b/5x5_reduce_w_0_scale"
    input: "inception_5b/5x5_reduce_w_0_zero_point"
    input: "inception_5b/5x5_reduce_1_scale"
    input: "inception_5b/5x5_reduce_1_zero_point"
    input: "inception_5b/5x5_reduce_b_0_quantized"
    output: "inception_5b/5x5_reduce_1_quantized"
    name: "Conv_nc_rename_127_quant"
    op_type: "QLinearConv"
    attribute {
      name: "auto_pad"
      s: "NOTSET"
      type: STRING
    }
    attribute {
      name: "group"
      i: 1
      type: INT
    }
    attribute {
      name: "kernel_shape"
      ints: 1
      ints: 1
      type: INTS
    }
    attribute {
      name: "pads"
      ints: 0
      ints: 0
      ints: 0
      ints: 0
      type: INTS
    }
    attribute {
      name: "strides"
      ints: 1
      ints: 1
      type: INTS
    }
  }
  node {
    input: "inception_5b/5x5_reduce_1_quantized"
    input: "inception_5b/5x5_reduce_1_scale"
    input: "inception_5b/5x5_reduce_1_zero_point"
    input: "inception_5b/5x5_w_0_quantized"
    input: "inception_5b/5x5_w_0_scale"
    input: "inception_5b/5x5_w_0_zero_point"
    input: "inception_5b/5x5_1_scale"
    input: "inception_5b/5x5_1_zero_point"
    input: "inception_5b/5x5_b_0_quantized"
    output: "inception_5b/5x5_1_quantized"
    name: "Conv_nc_rename_129_quant"
    op_type: "QLinearConv"
    attribute {
      name: "auto_pad"
      s: "NOTSET"
      type: STRING
    }
    attribute {
      name: "group"
      i: 1
      type: INT
    }
    attribute {
      name: "kernel_shape"
      ints: 5
      ints: 5
      type: INTS
    }
    attribute {
      name: "pads"
      ints: 2
      ints: 2
      ints: 2
      ints: 2
      type: INTS
    }
    attribute {
      name: "strides"
      ints: 1
      ints: 1
      type: INTS
    }
  }
  node {
    input: "inception_5a/output_1_quantized"
    input: "inception_5a/output_1_scale"
    input: "inception_5a/output_1_zero_point"
    input: "inception_5b/3x3_reduce_w_0_quantized"
    input: "inception_5b/3x3_reduce_w_0_scale"
    input: "inception_5b/3x3_reduce_w_0_zero_point"
    input: "inception_5b/3x3_reduce_1_scale"
    input: "inception_5b/3x3_reduce_1_zero_point"
    input: "inception_5b/3x3_reduce_b_0_quantized"
    output: "inception_5b/3x3_reduce_1_quantized"
    name: "Conv_nc_rename_131_quant"
    op_type: "QLinearConv"
    attribute {
      name: "auto_pad"
      s: "NOTSET"
      type: STRING
    }
    attribute {
      name: "group"
      i: 1
      type: INT
    }
    attribute {
      name: "kernel_shape"
      ints: 1
      ints: 1
      type: INTS
    }
    attribute {
      name: "pads"
      ints: 0
      ints: 0
      ints: 0
      ints: 0
      type: INTS
    }
    attribute {
      name: "strides"
      ints: 1
      ints: 1
      type: INTS
    }
  }
  node {
    input: "inception_5b/3x3_reduce_1_quantized"
    input: "inception_5b/3x3_reduce_1_scale"
    input: "inception_5b/3x3_reduce_1_zero_point"
    input: "inception_5b/3x3_w_0_quantized"
    input: "inception_5b/3x3_w_0_scale"
    input: "inception_5b/3x3_w_0_zero_point"
    input: "inception_5b/3x3_1_scale"
    input: "inception_5b/3x3_1_zero_point"
    input: "inception_5b/3x3_b_0_quantized"
    output: "inception_5b/3x3_1_quantized"
    name: "Conv_nc_rename_133_quant"
    op_type: "QLinearConv"
    attribute {
      name: "auto_pad"
      s: "NOTSET"
      type: STRING
    }
    attribute {
      name: "group"
      i: 1
      type: INT
    }
    attribute {
      name: "kernel_shape"
      ints: 3
      ints: 3
      type: INTS
    }
    attribute {
      name: "pads"
      ints: 1
      ints: 1
      ints: 1
      ints: 1
      type: INTS
    }
    attribute {
      name: "strides"
      ints: 1
      ints: 1
      type: INTS
    }
  }
  node {
    input: "inception_5a/output_1_quantized"
    input: "inception_5a/output_1_scale"
    input: "inception_5a/output_1_zero_point"
    input: "inception_5b/1x1_w_0_quantized"
    input: "inception_5b/1x1_w_0_scale"
    input: "inception_5b/1x1_w_0_zero_point"
    input: "inception_5b/1x1_1_scale"
    input: "inception_5b/1x1_1_zero_point"
    input: "inception_5b/1x1_b_0_quantized"
    output: "inception_5b/1x1_1_quantized"
    name: "Conv_nc_rename_135_quant"
    op_type: "QLinearConv"
    attribute {
      name: "auto_pad"
      s: "NOTSET"
      type: STRING
    }
    attribute {
      name: "group"
      i: 1
      type: INT
    }
    attribute {
      name: "kernel_shape"
      ints: 1
      ints: 1
      type: INTS
    }
    attribute {
      name: "pads"
      ints: 0
      ints: 0
      ints: 0
      ints: 0
      type: INTS
    }
    attribute {
      name: "strides"
      ints: 1
      ints: 1
      type: INTS
    }
  }
  node {
    input: "inception_5b/1x1_1_quantized"
    input: "inception_5b/1x1_1_scale"
    input: "inception_5b/1x1_1_zero_point"
    output: "inception_5b/1x1_2"
    name: "inception_5b/1x1_2_DequantizeLinear"
    op_type: "DequantizeLinear"
  }
  node {
    input: "inception_5b/3x3_1_quantized"
    input: "inception_5b/3x3_1_scale"
    input: "inception_5b/3x3_1_zero_point"
    output: "inception_5b/3x3_2"
    name: "inception_5b/3x3_2_DequantizeLinear"
    op_type: "DequantizeLinear"
  }
  node {
    input: "inception_5b/5x5_1_quantized"
    input: "inception_5b/5x5_1_scale"
    input: "inception_5b/5x5_1_zero_point"
    output: "inception_5b/5x5_2"
    name: "inception_5b/5x5_2_DequantizeLinear"
    op_type: "DequantizeLinear"
  }
  node {
    input: "inception_5b/pool_proj_1_quantized"
    input: "inception_5b/pool_proj_1_scale"
    input: "inception_5b/pool_proj_1_zero_point"
    output: "inception_5b/pool_proj_2"
    name: "inception_5b/pool_proj_2_DequantizeLinear"
    op_type: "DequantizeLinear"
  }
  node {
    input: "inception_5b/1x1_2"
    input: "inception_5b/3x3_2"
    input: "inception_5b/5x5_2"
    input: "inception_5b/pool_proj_2"
    output: "inception_5b/output_1"
    name: "Concat_nc_rename_137"
    op_type: "Concat"
    attribute {
      name: "axis"
      i: 1
      type: INT
    }
  }
  node {
    input: "inception_5b/output_1"
    output: "pool5/7x7_s1_1"
    name: "AveragePool_nc_rename_138"
    op_type: "AveragePool"
    attribute {
      name: "auto_pad"
      s: "NOTSET"
      type: STRING
    }
    attribute {
      name: "strides"
      ints: 1
      ints: 1
      type: INTS
    }
    attribute {
      name: "pads"
      ints: 0
      ints: 0
      ints: 0
      ints: 0
      type: INTS
    }
    attribute {
      name: "count_include_pad"
      i: 0
      type: INT
    }
    attribute {
      name: "ceil_mode"
      i: 0
      type: INT
    }
    attribute {
      name: "kernel_shape"
      ints: 7
      ints: 7
      type: INTS
    }
  }
  node {
    input: "pool5/7x7_s1_1"
    input: "OC2_DUMMY_1"
    output: "OC2_DUMMY_0"
    name: "Reshape_nc_rename_139"
    op_type: "Reshape"
  }
  node {
    input: "OC2_DUMMY_0"
    input: "OC2_DUMMY_0_scale"
    input: "OC2_DUMMY_0_zero_point"
    output: "OC2_DUMMY_0_quantized"
    name: "OC2_DUMMY_0_QuantizeLinear"
    op_type: "QuantizeLinear"
  }
  node {
    input: "OC2_DUMMY_0_quantized"
    input: "OC2_DUMMY_0_scale"
    input: "OC2_DUMMY_0_zero_point"
    input: "loss3/classifier_w_0_quantized"
    input: "loss3/classifier_w_0_scale"
    input: "loss3/classifier_w_0_zero_point"
    input: "loss3/classifier_1_MatMul_scale"
    input: "loss3/classifier_1_MatMul_zero_point"
    output: "loss3/classifier_1_MatMul_quantized"
    name: "_MatMul_quant"
    op_type: "QLinearMatMul"
  }
  node {
    input: "loss3/classifier_1_MatMul_quantized"
    input: "loss3/classifier_1_MatMul_scale"
    input: "loss3/classifier_1_MatMul_zero_point"
    input: "loss3/classifier_b_0_quantized"
    input: "loss3/classifier_b_0_scale"
    input: "loss3/classifier_b_0_zero_point"
    input: "loss3/classifier_1_scale"
    input: "loss3/classifier_1_zero_point"
    output: "loss3/classifier_1_quantized"
    name: "_Add_quant"
    op_type: "QLinearAdd"
    domain: "com.microsoft"
  }
  node {
    input: "loss3/classifier_1_quantized"
    input: "loss3/classifier_1_scale"
    input: "loss3/classifier_1_zero_point"
    output: "loss3/classifier_1"
    name: "loss3/classifier_1_DequantizeLinear"
    op_type: "DequantizeLinear"
  }
  node {
    input: "loss3/classifier_1"
    output: "prob_1"
    name: "Softmax_nc_rename_142"
    op_type: "Softmax"
    attribute {
      name: "axis"
      i: 1
      type: INT
    }
  }
  name: "bvlc_googlenet"
  initializer {
    dims: 2
    data_type: 7
    name: "OC2_DUMMY_1"
    raw_data: "\001\000\000\000\000\000\000\000\000\004\000\000\000\000\000\000"
  }
  initializer {
    data_type: 2
    int32_data: 115
    name: "data_0_zero_point"
  }
  initializer {
    data_type: 1
    float_data: 1.0774157
    name: "data_0_scale"
  }
  initializer {
    dims: 64
    data_type: 1
…
    name: "conv1/7x7_s2_w_0_scale"
  }
  initializer {
    dims: 64
    data_type: 3
    int32_data: 0
    int32_data: 0
    int32_data: 0
    int32_data: 0
    int32_data: 0
    int32_data: 0
    int32_data: 0
    int32_data: 0
    int32_data: 0
    int32_data: 0
    int32_data: 0
    int32_data: 0
    int32_data: 0
    int32_data: 0
    int32_data: 0
    int32_data: 0
    int32_data: 0
    int32_data: 0
    int32_data: 0
    int32_data: 0
    int32_data: 0
    int32_data: 0
    int32_data: 0
    int32_data: 0
    int32_data: 0
    int32_data: 0
    int32_data: 0
    int32_data: 0
    int32_data: 0
    int32_data: 0
    int32_data: 0
    int32_data: 0
    int32_data: 0
    int32_data: 0
    int32_data: 0
    int32_data: 0
    int32_data: 0
    int32_data: 0
    int32_data: 0
    int32_data: 0
    int32_data: 0
    int32_data: 0
    int32_data: 0
    int32_data: 0
    int32_data: 0
    int32_data: 0
    int32_data: 0
    int32_data: 0
    int32_data: 0
    int32_data: 0
    int32_data: 0
    int32_data: 0
    int32_data: 0
    int32_data: 0
    int32_data: 0
    int32_data: 0
    int32_data: 0
    int32_data: 0
    int32_data: 0
    int32_data: 0
    int32_data: 0
    int32_data: 0
    int32_data: 0
    int32_data: 0
    name: "conv1/7x7_s2_w_0_zero_point"
  }
  initializer {
    dims: 64
    data_type: 6
    name: "conv1/7x7_s2_b_0_quantized"
    raw_data: "…"
  }
  initializer {
    data_type: 2
    int32_data: 0
    name: "conv1/7x7_s2_1_zero_point"
  }
  initializer {
    data_type: 1
    float_data: 17.311962
    name: "conv1/7x7_s2_1_scale"
  }
  initializer {
    data_type: 2
    int32_data: 0
    name: "pool1/norm1_1_zero_point"
  }
  initializer {
    data_type: 1
    float_data: 0.5440252
    name: "pool1/norm1_1_scale"
  }
  initializer {
    dims: 64
    data_type: 1
…
    name: "conv2/3x3_reduce_w_0_scale"
  }
  initializer {
    dims: 64
    data_type: 3
    int32_data: 0
    int32_data: 0
    int32_data: 0
    int32_data: 0
    int32_data: 0
    int32_data: 0
    int32_data: 0
    int32_data: 0
    int32_data: 0
    int32_data: 0
    int32_data: 0
    int32_data: 0
    int32_data: 0
    int32_data: 0
    int32_data: 0
    int32_data: 0
    int32_data: 0
    int32_data: 0
    int32_data: 0
    int32_data: 0
    int32_data: 0
    int32_data: 0
    int32_data: 0
    int32_data: 0
    int32_data: 0
    int32_data: 0
    int32_data: 0
    int32_data: 0
    int32_data: 0
    int32_data: 0
    int32_data: 0
    int32_data: 0
    int32_data: 0
    int32_data: 0
    int32_data: 0
    int32_data: 0
    int32_data: 0
    int32_data: 0
    int32_data: 0
    int32_data: 0
    int32_data: 0
    int32_data: 0
    int32_data: 0
    int32_data: 0
    int32_data: 0
    int32_data: 0
    int32_data: 0
    int32_data: 0
    int32_data: 0
    int32_data: 0
    int32_data: 0
    int32_data: 0
    int32_data: 0
    int32_data: 0
    int32_data: 0
    int32_data: 0
    int32_data: 0
    int32_data: 0
    int32_data: 0
    int32_data: 0
    int32_data: 0
    int32_data: 0
    int32_data: 0
    int32_data: 0
    name: "conv2/3x3_reduce_w_0_zero_point"
  }
  initializer {
    dims: 64
    data_type: 6
    name: "conv2/3x3_reduce_b_0_quantized"
    raw_data: "…"
  }
  initializer {
    data_type: 2
    int32_data: 0
    name: "conv2/3x3_reduce_1_zero_point"
  }
  initializer {
    data_type: 1
    float_data: 1.4368634
    name: "conv2/3x3_reduce_1_scale"
  }
  initializer {
    data_type: 2
    int32_data: 0
    name: "conv2/3x3_1_zero_point"
  }
  initializer {
    data_type: 1
    float_data: 2.716502
    name: "conv2/3x3_1_scale"
  }
  initializer {
    data_type: 2
    int32_data: 0
    name: "inception_3a/pool_1_zero_point"
  }
  initializer {
    data_type: 1
    float_data: 0.5440251
    name: "inception_3a/pool_1_scale"
  }
  initializer {
    dims: 32
    data_type: 1
…
    name: "inception_3a/pool_proj_w_0_scale"
  }
  initializer {
    dims: 32
    data_type: 3
    int32_data: 0
    int32_data: 0
    int32_data: 0
    int32_data: 0
    int32_data: 0
    int32_data: 0
    int32_data: 0
    int32_data: 0
    int32_data: 0
    int32_data: 0
    int32_data: 0
    int32_data: 0
    int32_data: 0
    int32_data: 0
    int32_data: 0
    int32_data: 0
    int32_data: 0
    int32_data: 0
    int32_data: 0
    int32_data: 0
    int32_data: 0
    int32_data: 0
    int32_data: 0
    int32_data: 0
    int32_data: 0
    int32_data: 0
    int32_data: 0
    int32_data: 0
    int32_data: 0
    int32_data: 0
    int32_data: 0
    int32_data: 0
    name: "inception_3a/pool_proj_w_0_zero_point"
  }
  initializer {
    dims: 32
    data_type: 6
    name: "inception_3a/pool_proj_b_0_quantized"
    raw_data: "…"
  }
  initializer {
    data_type: 2
    int32_data: 0
    name: "inception_3a/pool_proj_1_zero_point"
  }
  initializer {
    data_type: 1
    float_data: 1.5121464
    name: "inception_3a/pool_proj_1_scale"
  }
  initializer {
    data_type: 2
    int32_data: 0
    name: "pool2/3x3_s2_1_zero_point"
  }
  initializer {
    data_type: 1
    float_data: 0.5440251
    name: "pool2/3x3_s2_1_scale"
  }
  initializer {
    dims: 16
    data_type: 1
…
    name: "inception_3a/5x5_reduce_w_0_scale"
  }
  initializer {
    dims: 16
    data_type: 3
    int32_data: 0
    int32_data: 0
    int32_data: 0
    int32_data: 0
    int32_data: 0
    int32_data: 0
    int32_data: 0
    int32_data: 0
    int32_data: 0
    int32_data: 0
    int32_data: 0
    int32_data: 0
    int32_data: 0
    int32_data: 0
    int32_data: 0
    int32_data: 0
    name: "inception_3a/5x5_reduce_w_0_zero_point"
  }
  initializer {
    dims: 16
    data_type: 6
    name: "inception_3a/5x5_reduce_b_0_quantized"
    raw_data: "…"
  }
  initializer {
    data_type: 2
    int32_data: 0
    name: "inception_3a/5x5_reduce_1_zero_point"
  }
  initializer {
    data_type: 1
    float_data: 1.4883603
    name: "inception_3a/5x5_reduce_1_scale"
  }
  initializer {
    dims: 32
    data_type: 1
…
    name: "inception_3a/5x5_w_0_scale"
  }
  initializer {
    dims: 32
    data_type: 3
    int32_data: 0
    int32_data: 0
    int32_data: 0
    int32_data: 0
    int32_data: 0
    int32_data: 0
    int32_data: 0
    int32_data: 0
    int32_data: 0
    int32_data: 0
    int32_data: 0
    int32_data: 0
    int32_data: 0
    int32_data: 0
    int32_data: 0
    int32_data: 0
    int32_data: 0
    int32_data: 0
    int32_data: 0
    int32_data: 0
    int32_data: 0
    int32_data: 0
    int32_data: 0
    int32_data: 0
    int32_data: 0
    int32_data: 0
    int32_data: 0
    int32_data: 0
    int32_data: 0
    int32_data: 0
    int32_data: 0
    int32_data: 0
    name: "inception_3a/5x5_w_0_zero_point"
  }
  initializer {
    dims: 32
    data_type: 6
    name: "inception_3a/5x5_b_0_quantized"
    raw_data: "…"
  }
  initializer {
    data_type: 2
    int32_data: 0
    name: "inception_3a/5x5_1_zero_point"
  }
  initializer {
    data_type: 1
    float_data: 2.3982127
    name: "inception_3a/5x5_1_scale"
  }
  initializer {
    data_type: 2
    int32_data: 0
    name: "inception_3a/3x3_reduce_1_zero_point"
  }
  initializer {
    data_type: 1
    float_data: 1.6134868
    name: "inception_3a/3x3_reduce_1_scale"
  }
  initializer {
    data_type: 2
    int32_data: 0
    name: "inception_3a/3x3_1_zero_point"
  }
  initializer {
    data_type: 1
    float_data: 2.8600767
    name: "inception_3a/3x3_1_scale"
  }
  initializer {
    dims: 64
    data_type: 1
…
    name: "inception_3a/1x1_w_0_scale"
  }
  initializer {
    dims: 64
    data_type: 3
    int32_data: 0
    int32_data: 0
    int32_data: 0
    int32_data: 0
    int32_data: 0
    int32_data: 0
    int32_data: 0
    int32_data: 0
    int32_data: 0
    int32_data: 0
    int32_data: 0
    int32_data: 0
    int32_data: 0
    int32_data: 0
    int32_data: 0
    int32_data: 0
    int32_data: 0
    int32_data: 0
    int32_data: 0
    int32_data: 0
    int32_data: 0
    int32_data: 0
    int32_data: 0
    int32_data: 0
    int32_data: 0
    int32_data: 0
    int32_data: 0
    int32_data: 0
    int32_data: 0
    int32_data: 0
    int32_data: 0
    int32_data: 0
    int32_data: 0
    int32_data: 0
    int32_data: 0
    int32_data: 0
    int32_data: 0
    int32_data: 0
    int32_data: 0
    int32_data: 0
    int32_data: 0
    int32_data: 0
    int32_data: 0
    int32_data: 0
    int32_data: 0
    int32_data: 0
    int32_data: 0
    int32_data: 0
    int32_data: 0
    int32_data: 0
    int32_data: 0
    int32_data: 0
    int32_data: 0
    int32_data: 0
    int32_data: 0
    int32_data: 0
    int32_data: 0
    int32_data: 0
    int32_data: 0
    int32_data: 0
    int32_data: 0
    int32_data: 0
    int32_data: 0
    int32_data: 0
    name: "inception_3a/1x1_w_0_zero_point"
  }
  initializer {
    dims: 64
    data_type: 6
    name: "inception_3a/1x1_b_0_quantized"
    raw_data: "…"
  }
  initializer {
    data_type: 2
    int32_data: 0
    name: "inception_3a/1x1_1_zero_point"
  }
  initializer {
    data_type: 1
    float_data: 2.0146937
    name: "inception_3a/1x1_1_scale"
  }
  initializer {
    data_type: 2
    int32_data: 0
    name: "inception_3b/pool_1_zero_point"
  }
  initializer {
    data_type: 1
    float_data: 2.8600767
    name: "inception_3b/pool_1_scale"
  }
  initializer {
    dims: 64
    data_type: 1
…
    name: "inception_3b/pool_proj_w_0_scale"
  }
  initializer {
    dims: 64
    data_type: 3
    int32_data: 0
    int32_data: 0
    int32_data: 0
    int32_data: 0
    int32_data: 0
    int32_data: 0
    int32_data: 0
    int32_data: 0
    int32_data: 0
    int32_data: 0
    int32_data: 0
    int32_data: 0
    int32_data: 0
    int32_data: 0
    int32_data: 0
    int32_data: 0
    int32_data: 0
    int32_data: 0
    int32_data: 0
    int32_data: 0
    int32_data: 0
    int32_data: 0
    int32_data: 0
    int32_data: 0
    int32_data: 0
    int32_data: 0
    int32_data: 0
    int32_data: 0
    int32_data: 0
    int32_data: 0
    int32_data: 0
    int32_data: 0
    int32_data: 0
    int32_data: 0
    int32_data: 0
    int32_data: 0
    int32_data: 0
    int32_data: 0
    int32_data: 0
    int32_data: 0
    int32_data: 0
    int32_data: 0
    int32_data: 0
    int32_data: 0
    int32_data: 0
    int32_data: 0
    int32_data: 0
    int32_data: 0
    int32_data: 0
    int32_data: 0
    int32_data: 0
    int32_data: 0
    int32_data: 0
    int32_data: 0
    int32_data: 0
    int32_data: 0
    int32_data: 0
    int32_data: 0
    int32_data: 0
    int32_data: 0
    int32_data: 0
    int32_data: 0
    int32_data: 0
    int32_data: 0
    name: "inception_3b/pool_proj_w_0_zero_point"
  }
  initializer {
    dims: 64
    data_type: 6
    name: "inception_3b/pool_proj_b_0_quantized"
    raw_data: "…"
  }
  initializer {
    data_type: 2
    int32_data: 0
    name: "inception_3b/pool_proj_1_zero_point"
  }
  initializer {
    data_type: 1
    float_data: 2.1880186
    name: "inception_3b/pool_proj_1_scale"
  }
  initializer {
    data_type: 2
    int32_data: 0
    name: "inception_3a/output_1_zero_point"
  }
  initializer {
    data_type: 1
    float_data: 2.8600767
    name: "inception_3a/output_1_scale"
  }
  initializer {
    dims: 32
    data_type: 1
…
    name: "inception_3b/5x5_reduce_w_0_scale"
  }
  initializer {
    dims: 32
    data_type: 3
    int32_data: 0
    int32_data: 0
    int32_data: 0
    int32_data: 0
    int32_data: 0
    int32_data: 0
    int32_data: 0
    int32_data: 0
    int32_data: 0
    int32_data: 0
    int32_data: 0
    int32_data: 0
    int32_data: 0
    int32_data: 0
    int32_data: 0
    int32_data: 0
    int32_data: 0
    int32_data: 0
    int32_data: 0
    int32_data: 0
    int32_data: 0
    int32_data: 0
    int32_data: 0
    int32_data: 0
    int32_data: 0
    int32_data: 0
    int32_data: 0
    int32_data: 0
    int32_data: 0
    int32_data: 0
    int32_data: 0
    int32_data: 0
    name: "inception_3b/5x5_reduce_w_0_zero_point"
  }
  initializer {
    dims: 32
    data_type: 6
    name: "inception_3b/5x5_reduce_b_0_quantized"
    raw_data: "…"
  }
  initializer {
    data_type: 2
    int32_data: 0
    name: "inception_3b/5x5_reduce_1_zero_point"
  }
  initializer {
    data_type: 1
    float_data: 2.396673
    name: "inception_3b/5x5_reduce_1_scale"
  }
  initializer {
    data_type: 2
    int32_data: 0
    name: "inception_3b/5x5_1_zero_point"
  }
  initializer {
    data_type: 1
    float_data: 2.376792
    name: "inception_3b/5x5_1_scale"
  }
  initializer {
    data_type: 2
    int32_data: 0
    name: "inception_3b/3x3_reduce_1_zero_point"
  }
  initializer {
    data_type: 1
    float_data: 2.7019947
    name: "inception_3b/3x3_reduce_1_scale"
  }
  initializer {
    data_type: 2
    int32_data: 0
    name: "inception_3b/3x3_1_zero_point"
  }
  initializer {
    data_type: 1
    float_data: 2.2015886
    name: "inception_3b/3x3_1_scale"
  }
  initializer {
    data_type: 2
    int32_data: 0
    name: "inception_3b/1x1_1_zero_point"
  }
  initializer {
    data_type: 1
    float_data: 2.107024
    name: "inception_3b/1x1_1_scale"
  }
  initializer {
    data_type: 2
    int32_data: 0
    name: "inception_4a/pool_1_zero_point"
  }
  initializer {
    data_type: 1
    float_data: 2.376792
    name: "inception_4a/pool_1_scale"
  }
  initializer {
    dims: 64
    data_type: 1
…
    name: "inception_4a/pool_proj_w_0_scale"
  }
  initializer {
    dims: 64
    data_type: 3
    int32_data: 0
    int32_data: 0
    int32_data: 0
    int32_data: 0
    int32_data: 0
    int32_data: 0
    int32_data: 0
    int32_data: 0
    int32_data: 0
    int32_data: 0
    int32_data: 0
    int32_data: 0
    int32_data: 0
    int32_data: 0
    int32_data: 0
    int32_data: 0
    int32_data: 0
    int32_data: 0
    int32_data: 0
    int32_data: 0
    int32_data: 0
    int32_data: 0
    int32_data: 0
    int32_data: 0
    int32_data: 0
    int32_data: 0
    int32_data: 0
    int32_data: 0
    int32_data: 0
    int32_data: 0
    int32_data: 0
    int32_data: 0
    int32_data: 0
    int32_data: 0
    int32_data: 0
    int32_data: 0
    int32_data: 0
    int32_data: 0
    int32_data: 0
    int32_data: 0
    int32_data: 0
    int32_data: 0
    int32_data: 0
    int32_data: 0
    int32_data: 0
    int32_data: 0
    int32_data: 0
    int32_data: 0
    int32_data: 0
    int32_data: 0
    int32_data: 0
    int32_data: 0
    int32_data: 0
    int32_data: 0
    int32_data: 0
    int32_data: 0
    int32_data: 0
    int32_data: 0
    int32_data: 0
    int32_data: 0
    int32_data: 0
    int32_data: 0
    int32_data: 0
    int32_data: 0
    name: "inception_4a/pool_proj_w_0_zero_point"
  }
  initializer {
    dims: 64
    data_type: 6
    name: "inception_4a/pool_proj_b_0_quantized"
    raw_data: "…"
  }
  initializer {
    data_type: 2
    int32_data: 0
    name: "inception_4a/pool_proj_1_zero_point"
  }
  initializer {
    data_type: 1
    float_data: 1.887155
    name: "inception_4a/pool_proj_1_scale"
  }
  initializer {
    data_type: 2
    int32_data: 0
    name: "pool3/3x3_s2_1_zero_point"
  }
  initializer {
    data_type: 1
    float_data: 2.376792
    name: "pool3/3x3_s2_1_scale"
  }
  initializer {
    dims: 16
    data_type: 1
…
    name: "inception_4a/5x5_reduce_w_0_scale"
  }
  initializer {
    dims: 16
    data_type: 3
    int32_data: 0
    int32_data: 0
    int32_data: 0
    int32_data: 0
    int32_data: 0
    int32_data: 0
    int32_data: 0
    int32_data: 0
    int32_data: 0
    int32_data: 0
    int32_data: 0
    int32_data: 0
    int32_data: 0
    int32_data: 0
    int32_data: 0
    int32_data: 0
    name: "inception_4a/5x5_reduce_w_0_zero_point"
  }
  initializer {
    dims: 16
    data_type: 6
    name: "inception_4a/5x5_reduce_b_0_quantized"
    raw_data: "…"
  }
  initializer {
    data_type: 2
    int32_data: 0
    name: "inception_4a/5x5_reduce_1_zero_point"
  }
  initializer {
    data_type: 1
    float_data: 2.2997596
    name: "inception_4a/5x5_reduce_1_scale"
  }
  initializer {
    dims: 48
    data_type: 1
…
    name: "inception_4a/5x5_w_0_scale"
  }
  initializer {
    dims: 48
    data_type: 3
    int32_data: 0
    int32_data: 0
    int32_data: 0
    int32_data: 0
    int32_data: 0
    int32_data: 0
    int32_data: 0
    int32_data: 0
    int32_data: 0
    int32_data: 0
    int32_data: 0
    int32_data: 0
    int32_data: 0
    int32_data: 0
    int32_data: 0
    int32_data: 0
    int32_data: 0
    int32_data: 0
    int32_data: 0
    int32_data: 0
    int32_data: 0
    int32_data: 0
    int32_data: 0
    int32_data: 0
    int32_data: 0
    int32_data: 0
    int32_data: 0
    int32_data: 0
    int32_data: 0
    int32_data: 0
    int32_data: 0
    int32_data: 0
    int32_data: 0
    int32_data: 0
    int32_data: 0
    int32_data: 0
    int32_data: 0
    int32_data: 0
    int32_data: 0
    int32_data: 0
    int32_data: 0
    int32_data: 0
    int32_data: 0
    int32_data: 0
    int32_data: 0
    int32_data: 0
    int32_data: 0
    int32_data: 0
    name: "inception_4a/5x5_w_0_zero_point"
  }
  initializer {
    dims: 48
    data_type: 6
    name: "inception_4a/5x5_b_0_quantized"
    raw_data: "…"
  }
  initializer {
    data_type: 2
    int32_data: 0
    name: "inception_4a/5x5_1_zero_point"
  }
  initializer {
    data_type: 1
    float_data: 1.7888914
    name: "inception_4a/5x5_1_scale"
  }
  initializer {
    data_type: 2
    int32_data: 0
    name: "inception_4a/3x3_reduce_1_zero_point"
  }
  initializer {
    data_type: 1
    float_data: 3.9466846
    name: "inception_4a/3x3_reduce_1_scale"
  }
  initializer {
    data_type: 2
    int32_data: 0
    name: "inception_4a/3x3_1_zero_point"
  }
  initializer {
    data_type: 1
    float_data: 3.7547288
    name: "inception_4a/3x3_1_scale"
  }
  initializer {
    data_type: 2
    int32_data: 0
    name: "inception_4a/1x1_1_zero_point"
  }
  initializer {
    data_type: 1
    float_data: 2.6117723
    name: "inception_4a/1x1_1_scale"
  }
  initializer {
    data_type: 2
    int32_data: 0
    name: "inception_4b/pool_1_zero_point"
  }
  initializer {
    data_type: 1
    float_data: 3.7547288
    name: "inception_4b/pool_1_scale"
  }
  initializer {
    dims: 64
    data_type: 1
…
    name: "inception_4b/pool_proj_w_0_scale"
  }
  initializer {
    dims: 64
    data_type: 3
    int32_data: 0
    int32_data: 0
    int32_data: 0
    int32_data: 0
    int32_data: 0
    int32_data: 0
    int32_data: 0
    int32_data: 0
    int32_data: 0
    int32_data: 0
    int32_data: 0
    int32_data: 0
    int32_data: 0
    int32_data: 0
    int32_data: 0
    int32_data: 0
    int32_data: 0
    int32_data: 0
    int32_data: 0
    int32_data: 0
    int32_data: 0
    int32_data: 0
    int32_data: 0
    int32_data: 0
    int32_data: 0
    int32_data: 0
    int32_data: 0
    int32_data: 0
    int32_data: 0
    int32_data: 0
    int32_data: 0
    int32_data: 0
    int32_data: 0
    int32_data: 0
    int32_data: 0
    int32_data: 0
    int32_data: 0
    int32_data: 0
    int32_data: 0
    int32_data: 0
    int32_data: 0
    int32_data: 0
    int32_data: 0
    int32_data: 0
    int32_data: 0
    int32_data: 0
    int32_data: 0
    int32_data: 0
    int32_data: 0
    int32_data: 0
    int32_data: 0
    int32_data: 0
    int32_data: 0
    int32_data: 0
    int32_data: 0
    int32_data: 0
    int32_data: 0
    int32_data: 0
    int32_data: 0
    int32_data: 0
    int32_data: 0
    int32_data: 0
    int32_data: 0
    int32_data: 0
    name: "inception_4b/pool_proj_w_0_zero_point"
  }
  initializer {
    dims: 64
    data_type: 6
    name: "inception_4b/pool_proj_b_0_quantized"
    raw_data: "…"
  }
  initializer {
    data_type: 2
    int32_data: 0
    name: "inception_4b/pool_proj_1_zero_point"
  }
  initializer {
    data_type: 1
    float_data: 1.8319241
    name: "inception_4b/pool_proj_1_scale"
  }
  initializer {
    data_type: 2
    int32_data: 0
    name: "inception_4a/output_1_zero_point"
  }
  initializer {
    data_type: 1
    float_data: 3.7547288
    name: "inception_4a/output_1_scale"
  }
  initializer {
    dims: 24
    data_type: 1
…
    name: "inception_4b/5x5_reduce_w_0_scale"
  }
  initializer {
    dims: 24
    data_type: 3
    int32_data: 0
    int32_data: 0
    int32_data: 0
    int32_data: 0
    int32_data: 0
    int32_data: 0
    int32_data: 0
    int32_data: 0
    int32_data: 0
    int32_data: 0
    int32_data: 0
    int32_data: 0
    int32_data: 0
    int32_data: 0
    int32_data: 0
    int32_data: 0
    int32_data: 0
    int32_data: 0
    int32_data: 0
    int32_data: 0
    int32_data: 0
    int32_data: 0
    int32_data: 0
    int32_data: 0
    name: "inception_4b/5x5_reduce_w_0_zero_point"
  }
  initializer {
    dims: 24
    data_type: 6
    name: "inception_4b/5x5_reduce_b_0_quantized"
    raw_data: "…"
  }
  initializer {
    data_type: 2
    int32_data: 0
    name: "inception_4b/5x5_reduce_1_zero_point"
  }
  initializer {
    data_type: 1
    float_data: 2.3206325
    name: "inception_4b/5x5_reduce_1_scale"
  }
  initializer {
    dims: 64
    data_type: 1
…
    name: "inception_4b/5x5_w_0_scale"
  }
  initializer {
    dims: 64
    data_type: 3
    int32_data: 0
    int32_data: 0
    int32_data: 0
    int32_data: 0
    int32_data: 0
    int32_data: 0
    int32_data: 0
    int32_data: 0
    int32_data: 0
    int32_data: 0
    int32_data: 0
    int32_data: 0
    int32_data: 0
    int32_data: 0
    int32_data: 0
    int32_data: 0
    int32_data: 0
    int32_data: 0
    int32_data: 0
    int32_data: 0
    int32_data: 0
    int32_data: 0
    int32_data: 0
    int32_data: 0
    int32_data: 0
    int32_data: 0
    int32_data: 0
    int32_data: 0
    int32_data: 0
    int32_data: 0
    int32_data: 0
    int32_data: 0
    int32_data: 0
    int32_data: 0
    int32_data: 0
    int32_data: 0
    int32_data: 0
    int32_data: 0
    int32_data: 0
    int32_data: 0
    int32_data: 0
    int32_data: 0
    int32_data: 0
    int32_data: 0
    int32_data: 0
    int32_data: 0
    int32_data: 0
    int32_data: 0
    int32_data: 0
    int32_data: 0
    int32_data: 0
    int32_data: 0
    int32_data: 0
    int32_data: 0
    int32_data: 0
    int32_data: 0
    int32_data: 0
    int32_data: 0
    int32_data: 0
    int32_data: 0
    int32_data: 0
    int32_data: 0
    int32_data: 0
    int32_data: 0
    name: "inception_4b/5x5_w_0_zero_point"
  }
  initializer {
    dims: 64
    data_type: 6
    name: "inception_4b/5x5_b_0_quantized"
    raw_data: "…"
  }
  initializer {
    data_type: 2
    int32_data: 0
    name: "inception_4b/5x5_1_zero_point"
  }
  initializer {
    data_type: 1
    float_data: 1.7836614
    name: "inception_4b/5x5_1_scale"
  }
  initializer {
    data_type: 2
    int32_data: 0
    name: "inception_4b/3x3_reduce_1_zero_point"
  }
  initializer {
    data_type: 1
    float_data: 3.781104
    name: "inception_4b/3x3_reduce_1_scale"
  }
  initializer {
    data_type: 2
    int32_data: 0
    name: "inception_4b/3x3_1_zero_point"
  }
  initializer {
    data_type: 1
    float_data: 2.47321
    name: "inception_4b/3x3_1_scale"
  }
  initializer {
    data_type: 2
    int32_data: 0
    name: "inception_4b/1x1_1_zero_point"
  }
  initializer {
    data_type: 1
    float_data: 2.072522
    name: "inception_4b/1x1_1_scale"
  }
  initializer {
    data_type: 2
    int32_data: 0
    name: "inception_4c/pool_1_zero_point"
  }
  initializer {
    data_type: 1
    float_data: 2.47321
    name: "inception_4c/pool_1_scale"
  }
  initializer {
    dims: 64
    data_type: 1
…
    name: "inception_4c/pool_proj_w_0_scale"
  }
  initializer {
    dims: 64
    data_type: 3
    int32_data: 0
    int32_data: 0
    int32_data: 0
    int32_data: 0
    int32_data: 0
    int32_data: 0
    int32_data: 0
    int32_data: 0
    int32_data: 0
    int32_data: 0
    int32_data: 0
    int32_data: 0
    int32_data: 0
    int32_data: 0
    int32_data: 0
    int32_data: 0
    int32_data: 0
    int32_data: 0
    int32_data: 0
    int32_data: 0
    int32_data: 0
    int32_data: 0
    int32_data: 0
    int32_data: 0
    int32_data: 0
    int32_data: 0
    int32_data: 0
    int32_data: 0
    int32_data: 0
    int32_data: 0
    int32_data: 0
    int32_data: 0
    int32_data: 0
    int32_data: 0
    int32_data: 0
    int32_data: 0
    int32_data: 0
    int32_data: 0
    int32_data: 0
    int32_data: 0
    int32_data: 0
    int32_data: 0
    int32_data: 0
    int32_data: 0
    int32_data: 0
    int32_data: 0
    int32_data: 0
    int32_data: 0
    int32_data: 0
    int32_data: 0
    int32_data: 0
    int32_data: 0
    int32_data: 0
    int32_data: 0
    int32_data: 0
    int32_data: 0
    int32_data: 0
    int32_data: 0
    int32_data: 0
    int32_data: 0
    int32_data: 0
    int32_data: 0
    int32_data: 0
    int32_data: 0
    name: "inception_4c/pool_proj_w_0_zero_point"
  }
  initializer {
    dims: 64
    data_type: 6
    name: "inception_4c/pool_proj_b_0_quantized"
    raw_data: "…"
  }
  initializer {
    data_type: 2
    int32_data: 0
    name: "inception_4c/pool_proj_1_zero_point"
  }
  initializer {
    data_type: 1
    float_data: 1.884395
    name: "inception_4c/pool_proj_1_scale"
  }
  initializer {
    data_type: 2
    int32_data: 0
    name: "inception_4b/output_1_zero_point"
  }
  initializer {
    data_type: 1
    float_data: 2.47321
    name: "inception_4b/output_1_scale"
  }
  initializer {
    dims: 24
    data_type: 1
…
    name: "inception_4c/5x5_reduce_w_0_scale"
  }
  initializer {
    dims: 24
    data_type: 3
    int32_data: 0
    int32_data: 0
    int32_data: 0
    int32_data: 0
    int32_data: 0
    int32_data: 0
    int32_data: 0
    int32_data: 0
    int32_data: 0
    int32_data: 0
    int32_data: 0
    int32_data: 0
    int32_data: 0
    int32_data: 0
    int32_data: 0
    int32_data: 0
    int32_data: 0
    int32_data: 0
    int32_data: 0
    int32_data: 0
    int32_data: 0
    int32_data: 0
    int32_data: 0
    int32_data: 0
    name: "inception_4c/5x5_reduce_w_0_zero_point"
  }
  initializer {
    dims: 24
    data_type: 6
    name: "inception_4c/5x5_reduce_b_0_quantized"
    raw_data: "…"
  }
  initializer {
    data_type: 2
    int32_data: 0
    name: "inception_4c/5x5_reduce_1_zero_point"
  }
  initializer {
    data_type: 1
    float_data: 4.187342
    name: "inception_4c/5x5_reduce_1_scale"
  }
  initializer {
    dims: 64
    data_type: 1
…
    name: "inception_4c/5x5_w_0_scale"
  }
  initializer {
    dims: 64
    data_type: 3
    int32_data: 0
    int32_data: 0
    int32_data: 0
    int32_data: 0
    int32_data: 0
    int32_data: 0
    int32_data: 0
    int32_data: 0
    int32_data: 0
    int32_data: 0
    int32_data: 0
    int32_data: 0
    int32_data: 0
    int32_data: 0
    int32_data: 0
    int32_data: 0
    int32_data: 0
    int32_data: 0
    int32_data: 0
    int32_data: 0
    int32_data: 0
    int32_data: 0
    int32_data: 0
    int32_data: 0
    int32_data: 0
    int32_data: 0
    int32_data: 0
    int32_data: 0
    int32_data: 0
    int32_data: 0
    int32_data: 0
    int32_data: 0
    int32_data: 0
    int32_data: 0
    int32_data: 0
    int32_data: 0
    int32_data: 0
    int32_data: 0
    int32_data: 0
    int32_data: 0
    int32_data: 0
    int32_data: 0
    int32_data: 0
    int32_data: 0
    int32_data: 0
    int32_data: 0
    int32_data: 0
    int32_data: 0
    int32_data: 0
    int32_data: 0
    int32_data: 0
    int32_data: 0
    int32_data: 0
    int32_data: 0
    int32_data: 0
    int32_data: 0
    int32_data: 0
    int32_data: 0
    int32_data: 0
    int32_data: 0
    int32_data: 0
    int32_data: 0
    int32_data: 0
    int32_data: 0
    name: "inception_4c/5x5_w_0_zero_point"
  }
  initializer {
    dims: 64
    data_type: 6
    name: "inception_4c/5x5_b_0_quantized"
    raw_data: "…"
  }
  initializer {
    data_type: 2
    int32_data: 0
    name: "inception_4c/5x5_1_zero_point"
  }
  initializer {
    data_type: 1
    float_data: 2.27902
    name: "inception_4c/5x5_1_scale"
  }
  initializer {
    data_type: 2
    int32_data: 0
    name: "inception_4c/3x3_reduce_1_zero_point"
  }
  initializer {
    data_type: 1
    float_data: 2.120869
    name: "inception_4c/3x3_reduce_1_scale"
  }
  initializer {
    data_type: 2
    int32_data: 0
    name: "inception_4c/3x3_1_zero_point"
  }
  initializer {
    data_type: 1
    float_data: 2.5642006
    name: "inception_4c/3x3_1_scale"
  }
  initializer {
    data_type: 2
    int32_data: 0
    name: "inception_4c/1x1_1_zero_point"
  }
  initializer {
    data_type: 1
    float_data: 2.165882
    name: "inception_4c/1x1_1_scale"
  }
  initializer {
    data_type: 2
    int32_data: 0
    name: "inception_4d/pool_1_zero_point"
  }
  initializer {
    data_type: 1
    float_data: 2.5642006
    name: "inception_4d/pool_1_scale"
  }
  initializer {
    dims: 64
    data_type: 1
…
    name: "inception_4d/pool_proj_w_0_scale"
  }
  initializer {
    dims: 64
    data_type: 3
    int32_data: 0
    int32_data: 0
    int32_data: 0
    int32_data: 0
    int32_data: 0
    int32_data: 0
    int32_data: 0
    int32_data: 0
    int32_data: 0
    int32_data: 0
    int32_data: 0
    int32_data: 0
    int32_data: 0
    int32_data: 0
    int32_data: 0
    int32_data: 0
    int32_data: 0
    int32_data: 0
    int32_data: 0
    int32_data: 0
    int32_data: 0
    int32_data: 0
    int32_data: 0
    int32_data: 0
    int32_data: 0
    int32_data: 0
    int32_data: 0
    int32_data: 0
    int32_data: 0
    int32_data: 0
    int32_data: 0
    int32_data: 0
    int32_data: 0
    int32_data: 0
    int32_data: 0
    int32_data: 0
    int32_data: 0
    int32_data: 0
    int32_data: 0
    int32_data: 0
    int32_data: 0
    int32_data: 0
    int32_data: 0
    int32_data: 0
    int32_data: 0
    int32_data: 0
    int32_data: 0
    int32_data: 0
    int32_data: 0
    int32_data: 0
    int32_data: 0
    int32_data: 0
    int32_data: 0
    int32_data: 0
    int32_data: 0
    int32_data: 0
    int32_data: 0
    int32_data: 0
    int32_data: 0
    int32_data: 0
    int32_data: 0
    int32_data: 0
    int32_data: 0
    int32_data: 0
    name: "inception_4d/pool_proj_w_0_zero_point"
  }
  initializer {
    dims: 64
    data_type: 6
    name: "inception_4d/pool_proj_b_0_quantized"
    raw_data: "…"
  }
  initializer {
    data_type: 2
    int32_data: 0
    name: "inception_4d/pool_proj_1_zero_point"
  }
  initializer {
    data_type: 1
    float_data: 1.790422
    name: "inception_4d/pool_proj_1_scale"
  }
  initializer {
    data_type: 2
    int32_data: 0
    name: "inception_4c/output_1_zero_point"
  }
  initializer {
    data_type: 1
    float_data: 2.5642006
    name: "inception_4c/output_1_scale"
  }
  initializer {
    dims: 32
    data_type: 1
…
    name: "inception_4d/5x5_reduce_w_0_scale"
  }
  initializer {
    dims: 32
    data_type: 3
    int32_data: 0
    int32_data: 0
    int32_data: 0
    int32_data: 0
    int32_data: 0
    int32_data: 0
    int32_data: 0
    int32_data: 0
    int32_data: 0
    int32_data: 0
    int32_data: 0
    int32_data: 0
    int32_data: 0
    int32_data: 0
    int32_data: 0
    int32_data: 0
    int32_data: 0
    int32_data: 0
    int32_data: 0
    int32_data: 0
    int32_data: 0
    int32_data: 0
    int32_data: 0
    int32_data: 0
    int32_data: 0
    int32_data: 0
    int32_data: 0
    int32_data: 0
    int32_data: 0
    int32_data: 0
    int32_data: 0
    int32_data: 0
    name: "inception_4d/5x5_reduce_w_0_zero_point"
  }
  initializer {
    dims: 32
    data_type: 6
    name: "inception_4d/5x5_reduce_b_0_quantized"
    raw_data: "…"
  }
  initializer {
    data_type: 2
    int32_data: 0
    name: "inception_4d/5x5_reduce_1_zero_point"
  }
  initializer {
    data_type: 1
    float_data: 1.2773327
    name: "inception_4d/5x5_reduce_1_scale"
  }
  initializer {
    dims: 64
    data_type: 1
…
    name: "inception_4d/5x5_w_0_scale"
  }
  initializer {
    dims: 64
    data_type: 3
    int32_data: 0
    int32_data: 0
    int32_data: 0
    int32_data: 0
    int32_data: 0
    int32_data: 0
    int32_data: 0
    int32_data: 0
    int32_data: 0
    int32_data: 0
    int32_data: 0
    int32_data: 0
    int32_data: 0
    int32_data: 0
    int32_data: 0
    int32_data: 0
    int32_data: 0
    int32_data: 0
    int32_data: 0
    int32_data: 0
    int32_data: 0
    int32_data: 0
    int32_data: 0
    int32_data: 0
    int32_data: 0
    int32_data: 0
    int32_data: 0
    int32_data: 0
    int32_data: 0
    int32_data: 0
    int32_data: 0
    int32_data: 0
    int32_data: 0
    int32_data: 0
    int32_data: 0
    int32_data: 0
    int32_data: 0
    int32_data: 0
    int32_data: 0
    int32_data: 0
    int32_data: 0
    int32_data: 0
    int32_data: 0
    int32_data: 0
    int32_data: 0
    int32_data: 0
    int32_data: 0
    int32_data: 0
    int32_data: 0
    int32_data: 0
    int32_data: 0
    int32_data: 0
    int32_data: 0
    int32_data: 0
    int32_data: 0
    int32_data: 0
    int32_data: 0
    int32_data: 0
    int32_data: 0
    int32_data: 0
    int32_data: 0
    int32_data: 0
    int32_data: 0
    int32_data: 0
    name: "inception_4d/5x5_w_0_zero_point"
  }
  initializer {
    dims: 64
    data_type: 6
    name: "inception_4d/5x5_b_0_quantized"
    raw_data: "…"
  }
  initializer {
    data_type: 2
    int32_data: 0
    name: "inception_4d/5x5_1_zero_point"
  }
  initializer {
    data_type: 1
    float_data: 1.3712404
    name: "inception_4d/5x5_1_scale"
  }
  initializer {
    data_type: 2
    int32_data: 0
    name: "inception_4d/3x3_reduce_1_zero_point"
  }
  initializer {
    data_type: 1
    float_data: 2.0219715
    name: "inception_4d/3x3_reduce_1_scale"
  }
  initializer {
    data_type: 2
    int32_data: 0
    name: "inception_4d/3x3_1_zero_point"
  }
  initializer {
    data_type: 1
    float_data: 1.824706
    name: "inception_4d/3x3_1_scale"
  }
  initializer {
    data_type: 2
    int32_data: 0
    name: "inception_4d/1x1_1_zero_point"
  }
  initializer {
    data_type: 1
    float_data: 1.46499
    name: "inception_4d/1x1_1_scale"
  }
  initializer {
    data_type: 2
    int32_data: 0
    name: "inception_4e/pool_1_zero_point"
  }
  initializer {
    data_type: 1
    float_data: 1.824706
    name: "inception_4e/pool_1_scale"
  }
  initializer {
    data_type: 2
    int32_data: 0
    name: "inception_4e/pool_proj_1_zero_point"
  }
  initializer {
    data_type: 1
    float_data: 1.5673128
    name: "inception_4e/pool_proj_1_scale"
  }
  initializer {
    data_type: 2
    int32_data: 0
    name: "inception_4d/output_1_zero_point"
  }
  initializer {
    data_type: 1
    float_data: 1.824706
    name: "inception_4d/output_1_scale"
  }
  initializer {
    dims: 32
    data_type: 1
…
    name: "inception_4e/5x5_reduce_w_0_scale"
  }
  initializer {
    dims: 32
    data_type: 3
    int32_data: 0
    int32_data: 0
    int32_data: 0
    int32_data: 0
    int32_data: 0
    int32_data: 0
    int32_data: 0
    int32_data: 0
    int32_data: 0
    int32_data: 0
    int32_data: 0
    int32_data: 0
    int32_data: 0
    int32_data: 0
    int32_data: 0
    int32_data: 0
    int32_data: 0
    int32_data: 0
    int32_data: 0
    int32_data: 0
    int32_data: 0
    int32_data: 0
    int32_data: 0
    int32_data: 0
    int32_data: 0
    int32_data: 0
    int32_data: 0
    int32_data: 0
    int32_data: 0
    int32_data: 0
    int32_data: 0
    int32_data: 0
    name: "inception_4e/5x5_reduce_w_0_zero_point"
  }
  initializer {
    dims: 32
    data_type: 6
    name: "inception_4e/5x5_reduce_b_0_quantized"
    raw_data: "…"
  }
  initializer {
    data_type: 2
    int32_data: 0
    name: "inception_4e/5x5_reduce_1_zero_point"
  }
  initializer {
    data_type: 1
    float_data: 0.9466537
    name: "inception_4e/5x5_reduce_1_scale"
  }
  initializer {
    data_type: 2
    int32_data: 0
    name: "inception_4e/5x5_1_zero_point"
  }
  initializer {
    data_type: 1
    float_data: 0.7622495
    name: "inception_4e/5x5_1_scale"
  }
  initializer {
    data_type: 2
    int32_data: 0
    name: "inception_4e/3x3_reduce_1_zero_point"
  }
  initializer {
    data_type: 1
    float_data: 0.89041466
    name: "inception_4e/3x3_reduce_1_scale"
  }
  initializer {
    data_type: 2
    int32_data: 0
    name: "inception_4e/3x3_1_zero_point"
  }
  initializer {
    data_type: 1
    float_data: 0.82708114
    name: "inception_4e/3x3_1_scale"
  }
  initializer {
    data_type: 2
    int32_data: 0
    name: "inception_4e/1x1_1_zero_point"
  }
  initializer {
    data_type: 1
    float_data: 1.0830048
    name: "inception_4e/1x1_1_scale"
  }
  initializer {
    data_type: 2
    int32_data: 0
    name: "inception_5a/pool_1_zero_point"
  }
  initializer {
    data_type: 1
    float_data: 1.5673128
    name: "inception_5a/pool_1_scale"
  }
  initializer {
    data_type: 2
    int32_data: 0
    name: "inception_5a/pool_proj_1_zero_point"
  }
  initializer {
    data_type: 1
    float_data: 0.6251597
    name: "inception_5a/pool_proj_1_scale"
  }
  initializer {
    data_type: 2
    int32_data: 0
    name: "pool4/3x3_s2_1_zero_point"
  }
  initializer {
    data_type: 1
    float_data: 1.5673128
    name: "pool4/3x3_s2_1_scale"
  }
  initializer {
    dims: 32
    data_type: 1
…
    name: "inception_5a/5x5_reduce_w_0_scale"
  }
  initializer {
    dims: 32
    data_type: 3
    int32_data: 0
    int32_data: 0
    int32_data: 0
    int32_data: 0
    int32_data: 0
    int32_data: 0
    int32_data: 0
    int32_data: 0
    int32_data: 0
    int32_data: 0
    int32_data: 0
    int32_data: 0
    int32_data: 0
    int32_data: 0
    int32_data: 0
    int32_data: 0
    int32_data: 0
    int32_data: 0
    int32_data: 0
    int32_data: 0
    int32_data: 0
    int32_data: 0
    int32_data: 0
    int32_data: 0
    int32_data: 0
    int32_data: 0
    int32_data: 0
    int32_data: 0
    int32_data: 0
    int32_data: 0
    int32_data: 0
    int32_data: 0
    name: "inception_5a/5x5_reduce_w_0_zero_point"
  }
  initializer {
    dims: 32
    data_type: 6
    name: "inception_5a/5x5_reduce_b_0_quantized"
    raw_data: "…"
  }
  initializer {
    data_type: 2
    int32_data: 0
    name: "inception_5a/5x5_reduce_1_zero_point"
  }
  initializer {
    data_type: 1
    float_data: 0.877405
    name: "inception_5a/5x5_reduce_1_scale"
  }
  initializer {
    data_type: 2
    int32_data: 0
    name: "inception_5a/5x5_1_zero_point"
  }
  initializer {
    data_type: 1
    float_data: 0.4732085
    name: "inception_5a/5x5_1_scale"
  }
  initializer {
    data_type: 2
    int32_data: 0
    name: "inception_5a/3x3_reduce_1_zero_point"
  }
  initializer {
    data_type: 1
    float_data: 0.7665556
    name: "inception_5a/3x3_reduce_1_scale"
  }
  initializer {
    data_type: 2
    int32_data: 0
    name: "inception_5a/3x3_1_zero_point"
  }
  initializer {
    data_type: 1
    float_data: 0.4690009
    name: "inception_5a/3x3_1_scale"
  }
  initializer {
    data_type: 2
    int32_data: 0
    name: "inception_5a/1x1_1_zero_point"
  }
  initializer {
    data_type: 1
    float_data: 0.72467995
    name: "inception_5a/1x1_1_scale"
  }
  initializer {
    data_type: 2
    int32_data: 0
    name: "inception_5b/pool_1_zero_point"
  }
  initializer {
    data_type: 1
    float_data: 0.72467995
    name: "inception_5b/pool_1_scale"
  }
  initializer {
    data_type: 2
    int32_data: 0
    name: "inception_5b/pool_proj_1_zero_point"
  }
  initializer {
    data_type: 1
    float_data: 0.223944
    name: "inception_5b/pool_proj_1_scale"
  }
  initializer {
    data_type: 2
    int32_data: 0
    name: "inception_5a/output_1_zero_point"
  }
  initializer {
    data_type: 1
    float_data: 0.72467995
    name: "inception_5a/output_1_scale"
  }
  initializer {
    dims: 48
    data_type: 1
…
    name: "inception_5b/5x5_reduce_w_0_scale"
  }
  initializer {
    dims: 48
    data_type: 3
    int32_data: 0
    int32_data: 0
    int32_data: 0
    int32_data: 0
    int32_data: 0
    int32_data: 0
    int32_data: 0
    int32_data: 0
    int32_data: 0
    int32_data: 0
    int32_data: 0
    int32_data: 0
    int32_data: 0
    int32_data: 0
    int32_data: 0
    int32_data: 0
    int32_data: 0
    int32_data: 0
    int32_data: 0
    int32_data: 0
    int32_data: 0
    int32_data: 0
    int32_data: 0
    int32_data: 0
    int32_data: 0
    int32_data: 0
    int32_data: 0
    int32_data: 0
    int32_data: 0
    int32_data: 0
    int32_data: 0
    int32_data: 0
    int32_data: 0
    int32_data: 0
    int32_data: 0
    int32_data: 0
    int32_data: 0
    int32_data: 0
    int32_data: 0
    int32_data: 0
    int32_data: 0
    int32_data: 0
    int32_data: 0
    int32_data: 0
    int32_data: 0
    int32_data: 0
    int32_data: 0
    int32_data: 0
    name: "inception_5b/5x5_reduce_w_0_zero_point"
  }
  initializer {
    dims: 48
    data_type: 6
    name: "inception_5b/5x5_reduce_b_0_quantized"
    raw_data: "…"
  }
  initializer {
    data_type: 2
    int32_data: 0
    name: "inception_5b/5x5_reduce_1_zero_point"
  }
  initializer {
    data_type: 1
    float_data: 0.3181677
    name: "inception_5b/5x5_reduce_1_scale"
  }
  initializer {
    data_type: 2
    int32_data: 0
    name: "inception_5b/5x5_1_zero_point"
  }
  initializer {
    data_type: 1
    float_data: 0.18101123
    name: "inception_5b/5x5_1_scale"
  }
  initializer {
    data_type: 2
    int32_data: 0
    name: "inception_5b/3x3_reduce_1_zero_point"
  }
  initializer {
    data_type: 1
    float_data: 0.48244599
    name: "inception_5b/3x3_reduce_1_scale"
  }
  initializer {
    data_type: 2
    int32_data: 0
    name: "inception_5b/3x3_1_zero_point"
  }
  initializer {
    data_type: 1
    float_data: 0.2214351
    name: "inception_5b/3x3_1_scale"
  }
  initializer {
    data_type: 2
    int32_data: 0
    name: "inception_5b/1x1_1_zero_point"
  }
  initializer {
    data_type: 1
    float_data: 0.2372171
    name: "inception_5b/1x1_1_scale"
  }
  initializer {
    data_type: 2
    int32_data: 0
    name: "OC2_DUMMY_0_zero_point"
  }
  initializer {
    data_type: 1
    float_data: 0.07527726
    name: "OC2_DUMMY_0_scale"
  }
  initializer {
    data_type: 1
    float_data: 0.0025682074
    name: "loss3/classifier_w_0_scale"
  }
  initializer {
    data_type: 3
    int32_data: 0
    name: "loss3/classifier_w_0_zero_point"
  }
  initializer {
    data_type: 2
    int32_data: 57
    name: "loss3/classifier_1_MatMul_zero_point"
  }
  initializer {
    data_type: 1
    float_data: 0.21743579
    name: "loss3/classifier_1_MatMul_scale"
  }
  initializer {
    data_type: 2
    int32_data: 56
    name: "loss3/classifier_1_zero_point"
  }
  initializer {
    data_type: 1
    float_data: 0.21099061
    name: "loss3/classifier_1_scale"
  }
  initializer {
    data_type: 1
    float_data: 0.03209604
    name: "loss3/classifier_b_0_scale"
  }
  initializer {
    data_type: 2
    int32_data: 70
    name: "loss3/classifier_b_0_zero_point"
  }
  input {
    name: "data_0"
    type {
      tensor_type {
        elem_type: 1
        shape {
          dim {
            dim_value: 1
          }
          dim {
            dim_value: 3
          }
          dim {
            dim_value: 224
          }
          dim {
            dim_value: 224
          }
        }
      }
    }
  }
  input {
    name: "conv1/7x7_s2_w_0_quantized"
    type {
      tensor_type {
        elem_type: 3
        shape {
          dim {
            dim_value: 64
          }
          dim {
            dim_value: 3
          }
          dim {
            dim_value: 7
          }
          dim {
            dim_value: 7
          }
        }
      }
    }
  }
  input {
    name: "conv2/3x3_reduce_w_0_quantized"
    type {
      tensor_type {
        elem_type: 3
        shape {
          dim {
            dim_value: 64
          }
          dim {
            dim_value: 64
          }
          dim {
            dim_value: 1
          }
          dim {
            dim_value: 1
          }
        }
      }
    }
  }
  input {
    name: "conv2/3x3_w_0_quantized"
    type {
      tensor_type {
        elem_type: 3
        shape {
          dim {
            dim_value: 192
          }
          dim {
            dim_value: 64
          }
          dim {
            dim_value: 3
          }
          dim {
            dim_value: 3
          }
        }
      }
    }
  }
  input {
    name: "conv2/3x3_w_0_scale"
    type {
      tensor_type {
        elem_type: 1
        shape {
          dim {
            dim_value: 192
          }
        }
      }
    }
  }
  input {
    name: "conv2/3x3_w_0_zero_point"
    type {
      tensor_type {
        elem_type: 3
        shape {
          dim {
            dim_value: 192
          }
        }
      }
    }
  }
  input {
    name: "conv2/3x3_b_0_quantized"
    type {
      tensor_type {
        elem_type: 6
        shape {
          dim {
            dim_value: 192
          }
        }
      }
    }
  }
  input {
    name: "inception_3a/pool_proj_w_0_quantized"
    type {
      tensor_type {
        elem_type: 3
        shape {
          dim {
            dim_value: 32
          }
          dim {
            dim_value: 192
          }
          dim {
            dim_value: 1
          }
          dim {
            dim_value: 1
          }
        }
      }
    }
  }
  input {
    name: "inception_3a/5x5_reduce_w_0_quantized"
    type {
      tensor_type {
        elem_type: 3
        shape {
          dim {
            dim_value: 16
          }
          dim {
            dim_value: 192
          }
          dim {
            dim_value: 1
          }
          dim {
            dim_value: 1
          }
        }
      }
    }
  }
  input {
    name: "inception_3a/5x5_w_0_quantized"
    type {
      tensor_type {
        elem_type: 3
        shape {
          dim {
            dim_value: 32
          }
          dim {
            dim_value: 16
          }
          dim {
            dim_value: 5
          }
          dim {
            dim_value: 5
          }
        }
      }
    }
  }
  input {
    name: "inception_3a/3x3_reduce_w_0_quantized"
    type {
      tensor_type {
        elem_type: 3
        shape {
          dim {
            dim_value: 96
          }
          dim {
            dim_value: 192
          }
          dim {
            dim_value: 1
          }
          dim {
            dim_value: 1
          }
        }
      }
    }
  }
  input {
    name: "inception_3a/3x3_reduce_w_0_scale"
    type {
      tensor_type {
        elem_type: 1
        shape {
          dim {
            dim_value: 96
          }
        }
      }
    }
  }
  input {
    name: "inception_3a/3x3_reduce_w_0_zero_point"
    type {
      tensor_type {
        elem_type: 3
        shape {
          dim {
            dim_value: 96
          }
        }
      }
    }
  }
  input {
    name: "inception_3a/3x3_reduce_b_0_quantized"
    type {
      tensor_type {
        elem_type: 6
        shape {
          dim {
            dim_value: 96
          }
        }
      }
    }
  }
  input {
    name: "inception_3a/3x3_w_0_quantized"
    type {
      tensor_type {
        elem_type: 3
        shape {
          dim {
            dim_value: 128
          }
          dim {
            dim_value: 96
          }
          dim {
            dim_value: 3
          }
          dim {
            dim_value: 3
          }
        }
      }
    }
  }
  input {
    name: "inception_3a/3x3_w_0_scale"
    type {
      tensor_type {
        elem_type: 1
        shape {
          dim {
            dim_value: 128
          }
        }
      }
    }
  }
  input {
    name: "inception_3a/3x3_w_0_zero_point"
    type {
      tensor_type {
        elem_type: 3
        shape {
          dim {
            dim_value: 128
          }
        }
      }
    }
  }
  input {
    name: "inception_3a/3x3_b_0_quantized"
    type {
      tensor_type {
        elem_type: 6
        shape {
          dim {
            dim_value: 128
          }
        }
      }
    }
  }
  input {
    name: "inception_3a/1x1_w_0_quantized"
    type {
      tensor_type {
        elem_type: 3
        shape {
          dim {
            dim_value: 64
          }
          dim {
            dim_value: 192
          }
          dim {
            dim_value: 1
          }
          dim {
            dim_value: 1
          }
        }
      }
    }
  }
  input {
    name: "inception_3b/pool_proj_w_0_quantized"
    type {
      tensor_type {
        elem_type: 3
        shape {
          dim {
            dim_value: 64
          }
          dim {
            dim_value: 256
          }
          dim {
            dim_value: 1
          }
          dim {
            dim_value: 1
          }
        }
      }
    }
  }
  input {
    name: "inception_3b/5x5_reduce_w_0_quantized"
    type {
      tensor_type {
        elem_type: 3
        shape {
          dim {
            dim_value: 32
          }
          dim {
            dim_value: 256
          }
          dim {
            dim_value: 1
          }
          dim {
            dim_value: 1
          }
        }
      }
    }
  }
  input {
    name: "inception_3b/5x5_w_0_quantized"
    type {
      tensor_type {
        elem_type: 3
        shape {
          dim {
            dim_value: 96
          }
          dim {
            dim_value: 32
          }
          dim {
            dim_value: 5
          }
          dim {
            dim_value: 5
          }
        }
      }
    }
  }
  input {
    name: "inception_3b/5x5_w_0_scale"
    type {
      tensor_type {
        elem_type: 1
        shape {
          dim {
            dim_value: 96
          }
        }
      }
    }
  }
  input {
    name: "inception_3b/5x5_w_0_zero_point"
    type {
      tensor_type {
        elem_type: 3
        shape {
          dim {
            dim_value: 96
          }
        }
      }
    }
  }
  input {
    name: "inception_3b/5x5_b_0_quantized"
    type {
      tensor_type {
        elem_type: 6
        shape {
          dim {
            dim_value: 96
          }
        }
      }
    }
  }
  input {
    name: "inception_3b/3x3_reduce_w_0_quantized"
    type {
      tensor_type {
        elem_type: 3
        shape {
          dim {
            dim_value: 128
          }
          dim {
            dim_value: 256
          }
          dim {
            dim_value: 1
          }
          dim {
            dim_value: 1
          }
        }
      }
    }
  }
  input {
    name: "inception_3b/3x3_reduce_w_0_scale"
    type {
      tensor_type {
        elem_type: 1
        shape {
          dim {
            dim_value: 128
          }
        }
      }
    }
  }
  input {
    name: "inception_3b/3x3_reduce_w_0_zero_point"
    type {
      tensor_type {
        elem_type: 3
        shape {
          dim {
            dim_value: 128
          }
        }
      }
    }
  }
  input {
    name: "inception_3b/3x3_reduce_b_0_quantized"
    type {
      tensor_type {
        elem_type: 6
        shape {
          dim {
            dim_value: 128
          }
        }
      }
    }
  }
  input {
    name: "inception_3b/3x3_w_0_quantized"
    type {
      tensor_type {
        elem_type: 3
        shape {
          dim {
            dim_value: 192
          }
          dim {
            dim_value: 128
          }
          dim {
            dim_value: 3
          }
          dim {
            dim_value: 3
          }
        }
      }
    }
  }
  input {
    name: "inception_3b/3x3_w_0_scale"
    type {
      tensor_type {
        elem_type: 1
        shape {
          dim {
            dim_value: 192
          }
        }
      }
    }
  }
  input {
    name: "inception_3b/3x3_w_0_zero_point"
    type {
      tensor_type {
        elem_type: 3
        shape {
          dim {
            dim_value: 192
          }
        }
      }
    }
  }
  input {
    name: "inception_3b/3x3_b_0_quantized"
    type {
      tensor_type {
        elem_type: 6
        shape {
          dim {
            dim_value: 192
          }
        }
      }
    }
  }
  input {
    name: "inception_3b/1x1_w_0_quantized"
    type {
      tensor_type {
        elem_type: 3
        shape {
          dim {
            dim_value: 128
          }
          dim {
            dim_value: 256
          }
          dim {
            dim_value: 1
          }
          dim {
            dim_value: 1
          }
        }
      }
    }
  }
  input {
    name: "inception_3b/1x1_w_0_scale"
    type {
      tensor_type {
        elem_type: 1
        shape {
          dim {
            dim_value: 128
          }
        }
      }
    }
  }
  input {
    name: "inception_3b/1x1_w_0_zero_point"
    type {
      tensor_type {
        elem_type: 3
        shape {
          dim {
            dim_value: 128
          }
        }
      }
    }
  }
  input {
    name: "inception_3b/1x1_b_0_quantized"
    type {
      tensor_type {
        elem_type: 6
        shape {
          dim {
            dim_value: 128
          }
        }
      }
    }
  }
  input {
    name: "inception_4a/pool_proj_w_0_quantized"
    type {
      tensor_type {
        elem_type: 3
        shape {
          dim {
            dim_value: 64
          }
          dim {
            dim_value: 480
          }
          dim {
            dim_value: 1
          }
          dim {
            dim_value: 1
          }
        }
      }
    }
  }
  input {
    name: "inception_4a/5x5_reduce_w_0_quantized"
    type {
      tensor_type {
        elem_type: 3
        shape {
          dim {
            dim_value: 16
          }
          dim {
            dim_value: 480
          }
          dim {
            dim_value: 1
          }
          dim {
            dim_value: 1
          }
        }
      }
    }
  }
  input {
    name: "inception_4a/5x5_w_0_quantized"
    type {
      tensor_type {
        elem_type: 3
        shape {
          dim {
            dim_value: 48
          }
          dim {
            dim_value: 16
          }
          dim {
            dim_value: 5
          }
          dim {
            dim_value: 5
          }
        }
      }
    }
  }
  input {
    name: "inception_4a/3x3_reduce_w_0_quantized"
    type {
      tensor_type {
        elem_type: 3
        shape {
          dim {
            dim_value: 96
          }
          dim {
            dim_value: 480
          }
          dim {
            dim_value: 1
          }
          dim {
            dim_value: 1
          }
        }
      }
    }
  }
  input {
    name: "inception_4a/3x3_reduce_w_0_scale"
    type {
      tensor_type {
        elem_type: 1
        shape {
          dim {
            dim_value: 96
          }
        }
      }
    }
  }
  input {
    name: "inception_4a/3x3_reduce_w_0_zero_point"
    type {
      tensor_type {
        elem_type: 3
        shape {
          dim {
            dim_value: 96
          }
        }
      }
    }
  }
  input {
    name: "inception_4a/3x3_reduce_b_0_quantized"
    type {
      tensor_type {
        elem_type: 6
        shape {
          dim {
            dim_value: 96
          }
        }
      }
    }
  }
  input {
    name: "inception_4a/3x3_w_0_quantized"
    type {
      tensor_type {
        elem_type: 3
        shape {
          dim {
            dim_value: 208
          }
          dim {
            dim_value: 96
          }
          dim {
            dim_value: 3
          }
          dim {
            dim_value: 3
          }
        }
      }
    }
  }
  input {
    name: "inception_4a/3x3_w_0_scale"
    type {
      tensor_type {
        elem_type: 1
        shape {
          dim {
            dim_value: 208
          }
        }
      }
    }
  }
  input {
    name: "inception_4a/3x3_w_0_zero_point"
    type {
      tensor_type {
        elem_type: 3
        shape {
          dim {
            dim_value: 208
          }
        }
      }
    }
  }
  input {
    name: "inception_4a/3x3_b_0_quantized"
    type {
      tensor_type {
        elem_type: 6
        shape {
          dim {
            dim_value: 208
          }
        }
      }
    }
  }
  input {
    name: "inception_4a/1x1_w_0_quantized"
    type {
      tensor_type {
        elem_type: 3
        shape {
          dim {
            dim_value: 192
          }
          dim {
            dim_value: 480
          }
          dim {
            dim_value: 1
          }
          dim {
            dim_value: 1
          }
        }
      }
    }
  }
  input {
    name: "inception_4a/1x1_w_0_scale"
    type {
      tensor_type {
        elem_type: 1
        shape {
          dim {
            dim_value: 192
          }
        }
      }
    }
  }
  input {
    name: "inception_4a/1x1_w_0_zero_point"
    type {
      tensor_type {
        elem_type: 3
        shape {
          dim {
            dim_value: 192
          }
        }
      }
    }
  }
  input {
    name: "inception_4a/1x1_b_0_quantized"
    type {
      tensor_type {
        elem_type: 6
        shape {
          dim {
            dim_value: 192
          }
        }
      }
    }
  }
  input {
    name: "inception_4b/pool_proj_w_0_quantized"
    type {
      tensor_type {
        elem_type: 3
        shape {
          dim {
            dim_value: 64
          }
          dim {
            dim_value: 512
          }
          dim {
            dim_value: 1
          }
          dim {
            dim_value: 1
          }
        }
      }
    }
  }
  input {
    name: "inception_4b/5x5_reduce_w_0_quantized"
    type {
      tensor_type {
        elem_type: 3
        shape {
          dim {
            dim_value: 24
          }
          dim {
            dim_value: 512
          }
          dim {
            dim_value: 1
          }
          dim {
            dim_value: 1
          }
        }
      }
    }
  }
  input {
    name: "inception_4b/5x5_w_0_quantized"
    type {
      tensor_type {
        elem_type: 3
        shape {
          dim {
            dim_value: 64
          }
          dim {
            dim_value: 24
          }
          dim {
            dim_value: 5
          }
          dim {
            dim_value: 5
          }
        }
      }
    }
  }
  input {
    name: "inception_4b/3x3_reduce_w_0_quantized"
    type {
      tensor_type {
        elem_type: 3
        shape {
          dim {
            dim_value: 112
          }
          dim {
            dim_value: 512
          }
          dim {
            dim_value: 1
          }
          dim {
            dim_value: 1
          }
        }
      }
    }
  }
  input {
    name: "inception_4b/3x3_reduce_w_0_scale"
    type {
      tensor_type {
        elem_type: 1
        shape {
          dim {
            dim_value: 112
          }
        }
      }
    }
  }
  input {
    name: "inception_4b/3x3_reduce_w_0_zero_point"
    type {
      tensor_type {
        elem_type: 3
        shape {
          dim {
            dim_value: 112
          }
        }
      }
    }
  }
  input {
    name: "inception_4b/3x3_reduce_b_0_quantized"
    type {
      tensor_type {
        elem_type: 6
        shape {
          dim {
            dim_value: 112
          }
        }
      }
    }
  }
  input {
    name: "inception_4b/3x3_w_0_quantized"
    type {
      tensor_type {
        elem_type: 3
        shape {
          dim {
            dim_value: 224
          }
          dim {
            dim_value: 112
          }
          dim {
            dim_value: 3
          }
          dim {
            dim_value: 3
          }
        }
      }
    }
  }
  input {
    name: "inception_4b/3x3_w_0_scale"
    type {
      tensor_type {
        elem_type: 1
        shape {
          dim {
            dim_value: 224
          }
        }
      }
    }
  }
  input {
    name: "inception_4b/3x3_w_0_zero_point"
    type {
      tensor_type {
        elem_type: 3
        shape {
          dim {
            dim_value: 224
          }
        }
      }
    }
  }
  input {
    name: "inception_4b/3x3_b_0_quantized"
    type {
      tensor_type {
        elem_type: 6
        shape {
          dim {
            dim_value: 224
          }
        }
      }
    }
  }
  input {
    name: "inception_4b/1x1_w_0_quantized"
    type {
      tensor_type {
        elem_type: 3
        shape {
          dim {
            dim_value: 160
          }
          dim {
            dim_value: 512
          }
          dim {
            dim_value: 1
          }
          dim {
            dim_value: 1
          }
        }
      }
    }
  }
  input {
    name: "inception_4b/1x1_w_0_scale"
    type {
      tensor_type {
        elem_type: 1
        shape {
          dim {
            dim_value: 160
          }
        }
      }
    }
  }
  input {
    name: "inception_4b/1x1_w_0_zero_point"
    type {
      tensor_type {
        elem_type: 3
        shape {
          dim {
            dim_value: 160
          }
        }
      }
    }
  }
  input {
    name: "inception_4b/1x1_b_0_quantized"
    type {
      tensor_type {
        elem_type: 6
        shape {
          dim {
            dim_value: 160
          }
        }
      }
    }
  }
  input {
    name: "inception_4c/pool_proj_w_0_quantized"
    type {
      tensor_type {
        elem_type: 3
        shape {
          dim {
            dim_value: 64
          }
          dim {
            dim_value: 512
          }
          dim {
            dim_value: 1
          }
          dim {
            dim_value: 1
          }
        }
      }
    }
  }
  input {
    name: "inception_4c/5x5_reduce_w_0_quantized"
    type {
      tensor_type {
        elem_type: 3
        shape {
          dim {
            dim_value: 24
          }
          dim {
            dim_value: 512
          }
          dim {
            dim_value: 1
          }
          dim {
            dim_value: 1
          }
        }
      }
    }
  }
  input {
    name: "inception_4c/5x5_w_0_quantized"
    type {
      tensor_type {
        elem_type: 3
        shape {
          dim {
            dim_value: 64
          }
          dim {
            dim_value: 24
          }
          dim {
            dim_value: 5
          }
          dim {
            dim_value: 5
          }
        }
      }
    }
  }
  input {
    name: "inception_4c/3x3_reduce_w_0_quantized"
    type {
      tensor_type {
        elem_type: 3
        shape {
          dim {
            dim_value: 128
          }
          dim {
            dim_value: 512
          }
          dim {
            dim_value: 1
          }
          dim {
            dim_value: 1
          }
        }
      }
    }
  }
  input {
    name: "inception_4c/3x3_reduce_w_0_scale"
    type {
      tensor_type {
        elem_type: 1
        shape {
          dim {
            dim_value: 128
          }
        }
      }
    }
  }
  input {
    name: "inception_4c/3x3_reduce_w_0_zero_point"
    type {
      tensor_type {
        elem_type: 3
        shape {
          dim {
            dim_value: 128
          }
        }
      }
    }
  }
  input {
    name: "inception_4c/3x3_reduce_b_0_quantized"
    type {
      tensor_type {
        elem_type: 6
        shape {
          dim {
            dim_value: 128
          }
        }
      }
    }
  }
  input {
    name: "inception_4c/3x3_w_0_quantized"
    type {
      tensor_type {
        elem_type: 3
        shape {
          dim {
            dim_value: 256
          }
          dim {
            dim_value: 128
          }
          dim {
            dim_value: 3
          }
          dim {
            dim_value: 3
          }
        }
      }
    }
  }
  input {
    name: "inception_4c/3x3_w_0_scale"
    type {
      tensor_type {
        elem_type: 1
        shape {
          dim {
            dim_value: 256
          }
        }
      }
    }
  }
  input {
    name: "inception_4c/3x3_w_0_zero_point"
    type {
      tensor_type {
        elem_type: 3
        shape {
          dim {
            dim_value: 256
          }
        }
      }
    }
  }
  input {
    name: "inception_4c/3x3_b_0_quantized"
    type {
      tensor_type {
        elem_type: 6
        shape {
          dim {
            dim_value: 256
          }
        }
      }
    }
  }
  input {
    name: "inception_4c/1x1_w_0_quantized"
    type {
      tensor_type {
        elem_type: 3
        shape {
          dim {
            dim_value: 128
          }
          dim {
            dim_value: 512
          }
          dim {
            dim_value: 1
          }
          dim {
            dim_value: 1
          }
        }
      }
    }
  }
  input {
    name: "inception_4c/1x1_w_0_scale"
    type {
      tensor_type {
        elem_type: 1
        shape {
          dim {
            dim_value: 128
          }
        }
      }
    }
  }
  input {
    name: "inception_4c/1x1_w_0_zero_point"
    type {
      tensor_type {
        elem_type: 3
        shape {
          dim {
            dim_value: 128
          }
        }
      }
    }
  }
  input {
    name: "inception_4c/1x1_b_0_quantized"
    type {
      tensor_type {
        elem_type: 6
        shape {
          dim {
            dim_value: 128
          }
        }
      }
    }
  }
  input {
…
    }
  }
  value_info {
    name: "pool3/3x3_s2_1_scale"
    type {
      tensor_type {
        elem_type: 1
        shape {
        }
      }
    }
  }
  value_info {
    name: "inception_4a/5x5_reduce_w_0_scale"
    type {
      tensor_type {
        elem_type: 1
        shape {
          dim {
            dim_value: 16
          }
        }
      }
    }
  }
  value_info {
    name: "inception_4a/5x5_reduce_w_0_zero_point"
    type {
      tensor_type {
        elem_type: 3
        shape {
          dim {
            dim_value: 16
          }
        }
      }
    }
  }
  value_info {
    name: "inception_4a/5x5_reduce_b_0_quantized"
    type {
      tensor_type {
        elem_type: 6
        shape {
          dim {
            dim_value: 16
          }
        }
      }
    }
  }
  value_info {
    name: "inception_4a/5x5_reduce_1_zero_point"
    type {
      tensor_type {
        elem_type: 2
        shape {
        }
      }
    }
  }
  value_info {
    name: "inception_4a/5x5_reduce_1_scale"
    type {
      tensor_type {
        elem_type: 1
        shape {
        }
      }
    }
  }
  value_info {
    name: "inception_4a/5x5_w_0_scale"
    type {
      tensor_type {
        elem_type: 1
        shape {
          dim {
            dim_value: 48
          }
        }
      }
    }
  }
  value_info {
    name: "inception_4a/5x5_w_0_zero_point"
    type {
      tensor_type {
        elem_type: 3
        shape {
          dim {
            dim_value: 48
          }
        }
      }
    }
  }
  value_info {
    name: "inception_4a/5x5_b_0_quantized"
    type {
      tensor_type {
        elem_type: 6
        shape {
          dim {
            dim_value: 48
          }
        }
      }
    }
  }
  value_info {
    name: "inception_4a/5x5_1_zero_point"
    type {
      tensor_type {
        elem_type: 2
        shape {
        }
      }
    }
  }
  value_info {
    name: "inception_4a/5x5_1_scale"
    type {
      tensor_type {
        elem_type: 1
        shape {
        }
      }
    }
  }
  value_info {
    name: "inception_4a/3x3_reduce_1_zero_point"
    type {
      tensor_type {
        elem_type: 2
        shape {
        }
      }
    }
  }
  value_info {
    name: "inception_4a/3x3_reduce_1_scale"
    type {
      tensor_type {
        elem_type: 1
        shape {
        }
      }
    }
  }
  value_info {
    name: "inception_4a/3x3_1_zero_point"
    type {
      tensor_type {
        elem_type: 2
        shape {
        }
      }
    }
  }
  value_info {
    name: "inception_4a/3x3_1_scale"
    type {
      tensor_type {
        elem_type: 1
        shape {
        }
      }
    }
  }
  value_info {
    name: "inception_4a/1x1_1_zero_point"
    type {
      tensor_type {
        elem_type: 2
        shape {
        }
      }
    }
  }
  value_info {
    name: "inception_4a/1x1_1_scale"
    type {
      tensor_type {
        elem_type: 1
        shape {
        }
      }
    }
  }
  value_info {
    name: "inception_4b/pool_1_zero_point"
    type {
      tensor_type {
        elem_type: 2
        shape {
        }
      }
    }
  }
  value_info {
    name: "inception_4b/pool_1_scale"
    type {
      tensor_type {
        elem_type: 1
        shape {
        }
      }
    }
  }
  value_info {
    name: "inception_4b/pool_proj_w_0_scale"
    type {
      tensor_type {
        elem_type: 1
        shape {
          dim {
            dim_value: 64
          }
        }
      }
    }
  }
  value_info {
    name: "inception_4b/pool_proj_w_0_zero_point"
    type {
      tensor_type {
        elem_type: 3
        shape {
          dim {
            dim_value: 64
          }
        }
      }
    }
  }
  value_info {
    name: "inception_4b/pool_proj_b_0_quantized"
    type {
      tensor_type {
        elem_type: 6
        shape {
          dim {
            dim_value: 64
          }
        }
      }
    }
  }
  value_info {
    name: "inception_4b/pool_proj_1_zero_point"
    type {
      tensor_type {
        elem_type: 2
        shape {
        }
      }
    }
  }
  value_info {
    name: "inception_4b/pool_proj_1_scale"
    type {
      tensor_type {
        elem_type: 1
        shape {
        }
      }
    }
  }
  value_info {
    name: "inception_4a/output_1_zero_point"
    type {
      tensor_type {
        elem_type: 2
        shape {
        }
      }
    }
  }
  value_info {
    name: "inception_4a/output_1_scale"
    type {
      tensor_type {
        elem_type: 1
        shape {
        }
      }
    }
  }
  value_info {
    name: "inception_4b/5x5_reduce_w_0_scale"
    type {
      tensor_type {
        elem_type: 1
        shape {
          dim {
            dim_value: 24
          }
        }
      }
    }
  }
  value_info {
    name: "inception_4b/5x5_reduce_w_0_zero_point"
    type {
      tensor_type {
        elem_type: 3
        shape {
          dim {
            dim_value: 24
          }
        }
      }
    }
  }
  value_info {
    name: "inception_4b/5x5_reduce_b_0_quantized"
    type {
      tensor_type {
        elem_type: 6
        shape {
          dim {
            dim_value: 24
          }
        }
      }
    }
  }
  value_info {
    name: "inception_4b/5x5_reduce_1_zero_point"
    type {
      tensor_type {
        elem_type: 2
        shape {
        }
      }
    }
  }
  value_info {
    name: "inception_4b/5x5_reduce_1_scale"
    type {
      tensor_type {
        elem_type: 1
        shape {
        }
      }
    }
  }
  value_info {
    name: "inception_4b/5x5_w_0_scale"
    type {
      tensor_type {
        elem_type: 1
        shape {
          dim {
            dim_value: 64
          }
        }
      }
    }
  }
  value_info {
    name: "inception_4b/5x5_w_0_zero_point"
    type {
      tensor_type {
        elem_type: 3
        shape {
          dim {
            dim_value: 64
          }
        }
      }
    }
  }
  value_info {
    name: "inception_4b/5x5_b_0_quantized"
    type {
      tensor_type {
        elem_type: 6
        shape {
          dim {
            dim_value: 64
          }
        }
      }
    }
  }
  value_info {
    name: "inception_4b/5x5_1_zero_point"
    type {
      tensor_type {
        elem_type: 2
        shape {
        }
      }
    }
  }
  value_info {
    name: "inception_4b/5x5_1_scale"
    type {
      tensor_type {
        elem_type: 1
        shape {
        }
      }
    }
  }
  value_info {
    name: "inception_4b/3x3_reduce_1_zero_point"
    type {
      tensor_type {
        elem_type: 2
        shape {
        }
      }
    }
  }
  value_info {
    name: "inception_4b/3x3_reduce_1_scale"
    type {
      tensor_type {
        elem_type: 1
        shape {
        }
      }
    }
  }
  value_info {
    name: "inception_4b/3x3_1_zero_point"
    type {
      tensor_type {
        elem_type: 2
        shape {
        }
      }
    }
  }
  value_info {
    name: "inception_4b/3x3_1_scale"
    type {
      tensor_type {
        elem_type: 1
        shape {
        }
      }
    }
  }
  value_info {
    name: "inception_4b/1x1_1_zero_point"
    type {
      tensor_type {
        elem_type: 2
        shape {
        }
      }
    }
  }
  value_info {
    name: "inception_4b/1x1_1_scale"
    type {
      tensor_type {
        elem_type: 1
        shape {
        }
      }
    }
  }
  value_info {
    name: "inception_4c/pool_1_zero_point"
    type {
      tensor_type {
        elem_type: 2
        shape {
        }
      }
    }
  }
  value_info {
    name: "inception_4c/pool_1_scale"
    type {
      tensor_type {
        elem_type: 1
        shape {
        }
      }
    }
  }
  value_info {
    name: "inception_4c/pool_proj_w_0_scale"
    type {
      tensor_type {
        elem_type: 1
        shape {
          dim {
            dim_value: 64
          }
        }
      }
    }
  }
  value_info {
    name: "inception_4c/pool_proj_w_0_zero_point"
    type {
      tensor_type {
        elem_type: 3
        shape {
          dim {
            dim_value: 64
          }
        }
      }
    }
  }
  value_info {
    name: "inception_4c/pool_proj_b_0_quantized"
    type {
      tensor_type {
        elem_type: 6
        shape {
          dim {
            dim_value: 64
          }
        }
      }
    }
  }
  value_info {
    name: "inception_4c/pool_proj_1_zero_point"
    type {
      tensor_type {
        elem_type: 2
        shape {
        }
      }
    }
  }
  value_info {
    name: "inception_4c/pool_proj_1_scale"
    type {
      tensor_type {
        elem_type: 1
        shape {
        }
      }
    }
  }
  value_info {
    name: "inception_4b/output_1_zero_point"
    type {
      tensor_type {
        elem_type: 2
        shape {
        }
      }
    }
  }
  value_info {
    name: "inception_4b/output_1_scale"
    type {
      tensor_type {
        elem_type: 1
        shape {
        }
      }
    }
  }
  value_info {
    name: "inception_4c/5x5_reduce_w_0_scale"
    type {
      tensor_type {
        elem_type: 1
        shape {
          dim {
            dim_value: 24
          }
        }
      }
    }
  }
  value_info {
    name: "inception_4c/5x5_reduce_w_0_zero_point"
    type {
      tensor_type {
        elem_type: 3
        shape {
          dim {
            dim_value: 24
          }
        }
      }
    }
  }
  value_info {
    name: "inception_4c/5x5_reduce_b_0_quantized"
    type {
      tensor_type {
        elem_type: 6
        shape {
          dim {
            dim_value: 24
          }
        }
      }
    }
  }
  value_info {
    name: "inception_4c/5x5_reduce_1_zero_point"
    type {
      tensor_type {
        elem_type: 2
        shape {
        }
      }
    }
  }
  value_info {
    name: "inception_4c/5x5_reduce_1_scale"
    type {
      tensor_type {
        elem_type: 1
        shape {
        }
      }
    }
  }
  value_info {
    name: "inception_4c/5x5_w_0_scale"
    type {
      tensor_type {
        elem_type: 1
        shape {
          dim {
            dim_value: 64
          }
        }
      }
    }
  }
  value_info {
    name: "inception_4c/5x5_w_0_zero_point"
    type {
      tensor_type {
        elem_type: 3
        shape {
          dim {
            dim_value: 64
          }
        }
      }
    }
  }
  value_info {
    name: "inception_4c/5x5_b_0_quantized"
    type {
      tensor_type {
        elem_type: 6
        shape {
          dim {
            dim_value: 64
          }
        }
      }
    }
  }
  value_info {
    name: "inception_4c/5x5_1_zero_point"
    type {
      tensor_type {
        elem_type: 2
        shape {
        }
      }
    }
  }
  value_info {
    name: "inception_4c/5x5_1_scale"
    type {
      tensor_type {
        elem_type: 1
        shape {
        }
      }
    }
  }
  value_info {
    name: "inception_4c/3x3_reduce_1_zero_point"
    type {
      tensor_type {
        elem_type: 2
        shape {
        }
      }
    }
  }
  value_info {
    name: "inception_4c/3x3_reduce_1_scale"
    type {
      tensor_type {
        elem_type: 1
        shape {
        }
      }
    }
  }
  value_info {
    name: "inception_4c/3x3_1_zero_point"
    type {
      tensor_type {
        elem_type: 2
        shape {
        }
      }
    }
  }
  value_info {
    name: "inception_4c/3x3_1_scale"
    type {
      tensor_type {
        elem_type: 1
        shape {
        }
      }
    }
  }
  value_info {
    name: "inception_4c/1x1_1_zero_point"
    type {
      tensor_type {
        elem_type: 2
        shape {
        }
      }
    }
  }
  value_info {
    name: "inception_4c/1x1_1_scale"
    type {
      tensor_type {
        elem_type: 1
        shape {
        }
      }
    }
  }
  value_info {
    name: "inception_4d/pool_1_zero_point"
    type {
      tensor_type {
        elem_type: 2
        shape {
        }
      }
    }
  }
  value_info {
    name: "inception_4d/pool_1_scale"
    type {
      tensor_type {
        elem_type: 1
        shape {
        }
      }
    }
  }
  value_info {
    name: "inception_4d/pool_proj_w_0_scale"
    type {
      tensor_type {
        elem_type: 1
        shape {
          dim {
            dim_value: 64
          }
        }
      }
    }
  }
  value_info {
    name: "inception_4d/pool_proj_w_0_zero_point"
    type {
      tensor_type {
        elem_type: 3
        shape {
          dim {
            dim_value: 64
          }
        }
      }
    }
  }
  value_info {
    name: "inception_4d/pool_proj_b_0_quantized"
    type {
      tensor_type {
        elem_type: 6
        shape {
          dim {
            dim_value: 64
          }
        }
      }
    }
  }
  value_info {
    name: "inception_4d/pool_proj_1_zero_point"
    type {
      tensor_type {
        elem_type: 2
        shape {
        }
      }
    }
  }
  value_info {
    name: "inception_4d/pool_proj_1_scale"
    type {
      tensor_type {
        elem_type: 1
        shape {
        }
      }
    }
  }
  value_info {
    name: "inception_4c/output_1_zero_point"
    type {
      tensor_type {
        elem_type: 2
        shape {
        }
      }
    }
  }
  value_info {
    name: "inception_4c/output_1_scale"
    type {
      tensor_type {
        elem_type: 1
        shape {
        }
      }
    }
  }
  value_info {
    name: "inception_4d/5x5_reduce_w_0_scale"
    type {
      tensor_type {
        elem_type: 1
        shape {
          dim {
            dim_value: 32
          }
        }
      }
    }
  }
  value_info {
    name: "inception_4d/5x5_reduce_w_0_zero_point"
    type {
      tensor_type {
        elem_type: 3
        shape {
          dim {
            dim_value: 32
          }
        }
      }
    }
  }
  value_info {
    name: "inception_4d/5x5_reduce_b_0_quantized"
    type {
      tensor_type {
        elem_type: 6
        shape {
          dim {
            dim_value: 32
          }
        }
      }
    }
  }
  value_info {
    name: "inception_4d/5x5_reduce_1_zero_point"
    type {
      tensor_type {
        elem_type: 2
        shape {
        }
      }
    }
  }
  value_info {
    name: "inception_4d/5x5_reduce_1_scale"
    type {
      tensor_type {
        elem_type: 1
        shape {
        }
      }
    }
  }
  value_info {
    name: "inception_4d/5x5_w_0_scale"
    type {
      tensor_type {
        elem_type: 1
        shape {
          dim {
            dim_value: 64
          }
        }
      }
    }
  }
  value_info {
    name: "inception_4d/5x5_w_0_zero_point"
    type {
      tensor_type {
        elem_type: 3
        shape {
          dim {
            dim_value: 64
          }
        }
      }
    }
  }
  value_info {
    name: "inception_4d/5x5_b_0_quantized"
    type {
      tensor_type {
        elem_type: 6
        shape {
          dim {
            dim_value: 64
          }
        }
      }
    }
  }
  value_info {
    name: "inception_4d/5x5_1_zero_point"
    type {
      tensor_type {
        elem_type: 2
        shape {
        }
      }
    }
  }
  value_info {
    name: "inception_4d/5x5_1_scale"
    type {
      tensor_type {
        elem_type: 1
        shape {
        }
      }
    }
  }
  value_info {
    name: "inception_4d/3x3_reduce_1_zero_point"
    type {
      tensor_type {
        elem_type: 2
        shape {
        }
      }
    }
  }
  value_info {
    name: "inception_4d/3x3_reduce_1_scale"
    type {
      tensor_type {
        elem_type: 1
        shape {
        }
      }
    }
  }
  value_info {
    name: "inception_4d/3x3_1_zero_point"
    type {
      tensor_type {
        elem_type: 2
        shape {
        }
      }
    }
  }
  value_info {
    name: "inception_4d/3x3_1_scale"
    type {
      tensor_type {
        elem_type: 1
        shape {
        }
      }
    }
  }
  value_info {
    name: "inception_4d/1x1_1_zero_point"
    type {
      tensor_type {
        elem_type: 2
        shape {
        }
      }
    }
  }
  value_info {
    name: "inception_4d/1x1_1_scale"
    type {
      tensor_type {
        elem_type: 1
        shape {
        }
      }
    }
  }
  value_info {
    name: "inception_4e/pool_1_zero_point"
    type {
      tensor_type {
        elem_type: 2
        shape {
        }
      }
    }
  }
  value_info {
    name: "inception_4e/pool_1_scale"
    type {
      tensor_type {
        elem_type: 1
        shape {
        }
      }
    }
  }
  value_info {
    name: "inception_4e/pool_proj_1_zero_point"
    type {
      tensor_type {
        elem_type: 2
        shape {
        }
      }
    }
  }
  value_info {
    name: "inception_4e/pool_proj_1_scale"
    type {
      tensor_type {
        elem_type: 1
        shape {
        }
      }
    }
  }
  value_info {
    name: "inception_4d/output_1_zero_point"
    type {
      tensor_type {
        elem_type: 2
        shape {
        }
      }
    }
  }
  value_info {
    name: "inception_4d/output_1_scale"
    type {
      tensor_type {
        elem_type: 1
        shape {
        }
      }
    }
  }
  value_info {
    name: "inception_4e/5x5_reduce_w_0_scale"
    type {
      tensor_type {
        elem_type: 1
        shape {
          dim {
            dim_value: 32
          }
        }
      }
    }
  }
  value_info {
    name: "inception_4e/5x5_reduce_w_0_zero_point"
    type {
      tensor_type {
        elem_type: 3
        shape {
          dim {
            dim_value: 32
          }
        }
      }
    }
  }
  value_info {
    name: "inception_4e/5x5_reduce_b_0_quantized"
    type {
      tensor_type {
        elem_type: 6
        shape {
          dim {
            dim_value: 32
          }
        }
      }
    }
  }
  value_info {
    name: "inception_4e/5x5_reduce_1_zero_point"
    type {
      tensor_type {
        elem_type: 2
        shape {
        }
      }
    }
  }
  value_info {
    name: "inception_4e/5x5_reduce_1_scale"
    type {
      tensor_type {
        elem_type: 1
        shape {
        }
      }
    }
  }
  value_info {
    name: "inception_4e/5x5_1_zero_point"
    type {
      tensor_type {
        elem_type: 2
        shape {
        }
      }
    }
  }
  value_info {
    name: "inception_4e/5x5_1_scale"
    type {
      tensor_type {
        elem_type: 1
        shape {
        }
      }
    }
  }
  value_info {
    name: "inception_4e/3x3_reduce_1_zero_point"
    type {
      tensor_type {
        elem_type: 2
        shape {
        }
      }
    }
  }
  value_info {
    name: "inception_4e/3x3_reduce_1_scale"
    type {
      tensor_type {
        elem_type: 1
        shape {
        }
      }
    }
  }
  value_info {
    name: "inception_4e/3x3_1_zero_point"
    type {
      tensor_type {
        elem_type: 2
        shape {
        }
      }
    }
  }
  value_info {
    name: "inception_4e/3x3_1_scale"
    type {
      tensor_type {
        elem_type: 1
        shape {
        }
      }
    }
  }
  value_info {
    name: "inception_4e/1x1_1_zero_point"
    type {
      tensor_type {
        elem_type: 2
        shape {
        }
      }
    }
  }
  value_info {
    name: "inception_4e/1x1_1_scale"
    type {
      tensor_type {
        elem_type: 1
        shape {
        }
      }
    }
  }
  value_info {
    name: "inception_5a/pool_1_zero_point"
    type {
      tensor_type {
        elem_type: 2
        shape {
        }
      }
    }
  }
  value_info {
    name: "inception_5a/pool_1_scale"
    type {
      tensor_type {
        elem_type: 1
        shape {
        }
      }
    }
  }
  value_info {
    name: "inception_5a/pool_proj_1_zero_point"
    type {
      tensor_type {
        elem_type: 2
        shape {
        }
      }
    }
  }
  value_info {
    name: "inception_5a/pool_proj_1_scale"
    type {
      tensor_type {
        elem_type: 1
        shape {
        }
      }
    }
  }
  value_info {
    name: "pool4/3x3_s2_1_zero_point"
    type {
      tensor_type {
        elem_type: 2
        shape {
        }
      }
    }
  }
  value_info {
    name: "pool4/3x3_s2_1_scale"
    type {
      tensor_type {
        elem_type: 1
        shape {
        }
      }
    }
  }
  value_info {
    name: "inception_5a/5x5_reduce_w_0_scale"
    type {
      tensor_type {
        elem_type: 1
        shape {
          dim {
            dim_value: 32
          }
        }
      }
    }
  }
  value_info {
    name: "inception_5a/5x5_reduce_w_0_zero_point"
    type {
      tensor_type {
        elem_type: 3
        shape {
          dim {
            dim_value: 32
          }
        }
      }
    }
  }
  value_info {
    name: "inception_5a/5x5_reduce_b_0_quantized"
    type {
      tensor_type {
        elem_type: 6
        shape {
          dim {
            dim_value: 32
          }
        }
      }
    }
  }
  value_info {
    name: "inception_5a/5x5_reduce_1_zero_point"
    type {
      tensor_type {
        elem_type: 2
        shape {
        }
      }
    }
  }
  value_info {
    name: "inception_5a/5x5_reduce_1_scale"
    type {
      tensor_type {
        elem_type: 1
        shape {
        }
      }
    }
  }
  value_info {
    name: "inception_5a/5x5_1_zero_point"
    type {
      tensor_type {
        elem_type: 2
        shape {
        }
      }
    }
  }
  value_info {
    name: "inception_5a/5x5_1_scale"
    type {
      tensor_type {
        elem_type: 1
        shape {
        }
      }
    }
  }
  value_info {
    name: "inception_5a/3x3_reduce_1_zero_point"
    type {
      tensor_type {
        elem_type: 2
        shape {
        }
      }
    }
  }
  value_info {
    name: "inception_5a/3x3_reduce_1_scale"
    type {
      tensor_type {
        elem_type: 1
        shape {
        }
      }
    }
  }
  value_info {
    name: "inception_5a/3x3_1_zero_point"
    type {
      tensor_type {
        elem_type: 2
        shape {
        }
      }
    }
  }
  value_info {
    name: "inception_5a/3x3_1_scale"
    type {
      tensor_type {
        elem_type: 1
        shape {
        }
      }
    }
  }
  value_info {
    name: "inception_5a/1x1_1_zero_point"
    type {
      tensor_type {
        elem_type: 2
        shape {
        }
      }
    }
  }
  value_info {
    name: "inception_5a/1x1_1_scale"
    type {
      tensor_type {
        elem_type: 1
        shape {
        }
      }
    }
  }
  value_info {
    name: "inception_5b/pool_1_zero_point"
    type {
      tensor_type {
        elem_type: 2
        shape {
        }
      }
    }
  }
  value_info {
    name: "inception_5b/pool_1_scale"
    type {
      tensor_type {
        elem_type: 1
        shape {
        }
      }
    }
  }
  value_info {
    name: "inception_5b/pool_proj_1_zero_point"
    type {
      tensor_type {
        elem_type: 2
        shape {
        }
      }
    }
  }
  value_info {
    name: "inception_5b/pool_proj_1_scale"
    type {
      tensor_type {
        elem_type: 1
        shape {
        }
      }
    }
  }
  value_info {
    name: "inception_5a/output_1_zero_point"
    type {
      tensor_type {
        elem_type: 2
        shape {
        }
      }
    }
  }
  value_info {
    name: "inception_5a/output_1_scale"
    type {
      tensor_type {
        elem_type: 1
        shape {
        }
      }
    }
  }
  value_info {
    name: "inception_5b/5x5_reduce_w_0_scale"
    type {
      tensor_type {
        elem_type: 1
        shape {
          dim {
            dim_value: 48
          }
        }
      }
    }
  }
  value_info {
    name: "inception_5b/5x5_reduce_w_0_zero_point"
    type {
      tensor_type {
        elem_type: 3
        shape {
          dim {
            dim_value: 48
          }
        }
      }
    }
  }
  value_info {
    name: "inception_5b/5x5_reduce_b_0_quantized"
    type {
      tensor_type {
        elem_type: 6
        shape {
          dim {
            dim_value: 48
          }
        }
      }
    }
  }
  value_info {
    name: "inception_5b/5x5_reduce_1_zero_point"
    type {
      tensor_type {
        elem_type: 2
        shape {
        }
      }
    }
  }
  value_info {
    name: "inception_5b/5x5_reduce_1_scale"
    type {
      tensor_type {
        elem_type: 1
        shape {
        }
      }
    }
  }
  value_info {
    name: "inception_5b/5x5_1_zero_point"
    type {
      tensor_type {
        elem_type: 2
        shape {
        }
      }
    }
  }
  value_info {
    name: "inception_5b/5x5_1_scale"
    type {
      tensor_type {
        elem_type: 1
        shape {
        }
      }
    }
  }
  value_info {
    name: "inception_5b/3x3_reduce_1_zero_point"
    type {
      tensor_type {
        elem_type: 2
        shape {
        }
      }
    }
  }
  value_info {
    name: "inception_5b/3x3_reduce_1_scale"
    type {
      tensor_type {
        elem_type: 1
        shape {
        }
      }
    }
  }
  value_info {
    name: "inception_5b/3x3_1_zero_point"
    type {
      tensor_type {
        elem_type: 2
        shape {
        }
      }
    }
  }
  value_info {
    name: "inception_5b/3x3_1_scale"
    type {
      tensor_type {
        elem_type: 1
        shape {
        }
      }
    }
  }
  value_info {
    name: "inception_5b/1x1_1_zero_point"
    type {
      tensor_type {
        elem_type: 2
        shape {
        }
      }
    }
  }
  value_info {
    name: "inception_5b/1x1_1_scale"
    type {
      tensor_type {
        elem_type: 1
        shape {
        }
      }
    }
  }
  value_info {
    name: "OC2_DUMMY_0_zero_point"
    type {
      tensor_type {
        elem_type: 2
        shape {
        }
      }
    }
  }
  value_info {
    name: "OC2_DUMMY_0_scale"
    type {
      tensor_type {
        elem_type: 1
        shape {
        }
      }
    }
  }
  value_info {
    name: "loss3/classifier_w_0_scale"
    type {
      tensor_type {
        elem_type: 1
        shape {
        }
      }
    }
  }
  value_info {
    name: "loss3/classifier_w_0_zero_point"
    type {
      tensor_type {
        elem_type: 3
        shape {
        }
      }
    }
  }
  value_info {
    name: "loss3/classifier_1_MatMul_zero_point"
    type {
      tensor_type {
        elem_type: 2
        shape {
        }
      }
    }
  }
  value_info {
    name: "loss3/classifier_1_MatMul_scale"
    type {
      tensor_type {
        elem_type: 1
        shape {
        }
      }
    }
  }
  value_info {
    name: "loss3/classifier_1_zero_point"
    type {
      tensor_type {
        elem_type: 2
        shape {
        }
      }
    }
  }
  value_info {
    name: "loss3/classifier_1_scale"
    type {
      tensor_type {
        elem_type: 1
        shape {
        }
      }
    }
  }
  value_info {
    name: "loss3/classifier_b_0_scale"
    type {
      tensor_type {
        elem_type: 1
        shape {
        }
      }
    }
  }
  value_info {
    name: "loss3/classifier_b_0_zero_point"
    type {
      tensor_type {
        elem_type: 2
        shape {
        }
      }
    }
  }
  value_info {
    name: "pool1/3x3_s2_1"
    type {
      tensor_type {
        elem_type: 1
        shape {
          dim {
            dim_value: 1
          }
          dim {
            dim_value: 64
          }
          dim {
            dim_value: 56
          }
          dim {
            dim_value: 56
          }
        }
      }
    }
  }
  value_info {
    name: "pool1/norm1_1"
    type {
      tensor_type {
        elem_type: 1
        shape {
          dim {
            dim_value: 1
          }
          dim {
            dim_value: 64
          }
          dim {
            dim_value: 56
          }
          dim {
            dim_value: 56
          }
        }
      }
    }
  }
  value_info {
    name: "conv2/3x3_2"
    type {
      tensor_type {
        elem_type: 1
        shape {
          dim {
            dim_value: 1
          }
          dim {
            dim_value: 192
          }
          dim {
            dim_value: 56
          }
          dim {
            dim_value: 56
          }
        }
      }
    }
  }
  value_info {
    name: "conv2/norm2_1"
    type {
      tensor_type {
        elem_type: 1
        shape {
          dim {
            dim_value: 1
          }
          dim {
            dim_value: 192
          }
          dim {
            dim_value: 56
          }
          dim {
            dim_value: 56
          }
        }
      }
    }
  }
  value_info {
    name: "pool2/3x3_s2_1"
    type {
      tensor_type {
        elem_type: 1
        shape {
          dim {
            dim_value: 1
          }
          dim {
            dim_value: 192
          }
          dim {
            dim_value: 28
          }
          dim {
            dim_value: 28
          }
        }
      }
    }
  }
  value_info {
    name: "inception_3a/pool_1"
    type {
      tensor_type {
        elem_type: 1
        shape {
          dim {
            dim_value: 1
          }
          dim {
            dim_value: 192
          }
          dim {
            dim_value: 28
          }
          dim {
            dim_value: 28
          }
        }
      }
    }
  }
  value_info {
    name: "inception_3a/1x1_2"
    type {
      tensor_type {
        elem_type: 1
        shape {
          dim {
            dim_value: 1
          }
          dim {
            dim_value: 64
          }
          dim {
            dim_value: 28
          }
          dim {
            dim_value: 28
          }
        }
      }
    }
  }
  value_info {
    name: "inception_3a/3x3_2"
    type {
      tensor_type {
        elem_type: 1
        shape {
          dim {
            dim_value: 1
          }
          dim {
            dim_value: 128
          }
          dim {
            dim_value: 28
          }
          dim {
            dim_value: 28
          }
        }
      }
    }
  }
  value_info {
    name: "inception_3a/5x5_2"
    type {
      tensor_type {
        elem_type: 1
        shape {
          dim {
            dim_value: 1
          }
          dim {
            dim_value: 32
          }
          dim {
            dim_value: 28
          }
          dim {
            dim_value: 28
          }
        }
      }
    }
  }
  value_info {
    name: "inception_3a/pool_proj_2"
    type {
      tensor_type {
        elem_type: 1
        shape {
          dim {
            dim_value: 1
          }
          dim {
            dim_value: 32
          }
          dim {
            dim_value: 28
          }
          dim {
            dim_value: 28
          }
        }
      }
    }
  }
  value_info {
    name: "inception_3a/output_1"
    type {
      tensor_type {
        elem_type: 1
        shape {
          dim {
            dim_value: 1
          }
          dim {
            dim_value: 256
          }
          dim {
            dim_value: 28
          }
          dim {
            dim_value: 28
          }
        }
      }
    }
  }
  value_info {
    name: "inception_3b/pool_1"
    type {
      tensor_type {
        elem_type: 1
        shape {
          dim {
            dim_value: 1
          }
          dim {
            dim_value: 256
          }
          dim {
            dim_value: 28
          }
          dim {
            dim_value: 28
          }
        }
      }
    }
  }
  value_info {
    name: "inception_3b/1x1_2"
    type {
      tensor_type {
        elem_type: 1
        shape {
          dim {
            dim_value: 1
          }
          dim {
            dim_value: 128
          }
          dim {
            dim_value: 28
          }
          dim {
            dim_value: 28
          }
        }
      }
    }
  }
  value_info {
    name: "inception_3b/3x3_2"
    type {
      tensor_type {
        elem_type: 1
        shape {
          dim {
            dim_value: 1
          }
          dim {
            dim_value: 192
          }
          dim {
            dim_value: 28
          }
          dim {
            dim_value: 28
          }
        }
      }
    }
  }
  value_info {
    name: "inception_3b/5x5_2"
    type {
      tensor_type {
        elem_type: 1
        shape {
          dim {
            dim_value: 1
          }
          dim {
            dim_value: 96
          }
          dim {
            dim_value: 28
          }
          dim {
            dim_value: 28
          }
        }
      }
    }
  }
  value_info {
    name: "inception_3b/pool_proj_2"
    type {
      tensor_type {
        elem_type: 1
        shape {
          dim {
            dim_value: 1
          }
          dim {
            dim_value: 64
          }
          dim {
            dim_value: 28
          }
          dim {
            dim_value: 28
          }
        }
      }
    }
  }
  value_info {
    name: "inception_3b/output_1"
    type {
      tensor_type {
        elem_type: 1
        shape {
          dim {
            dim_value: 1
          }
          dim {
            dim_value: 480
          }
          dim {
            dim_value: 28
          }
          dim {
            dim_value: 28
          }
        }
      }
    }
  }
  value_info {
    name: "pool3/3x3_s2_1"
    type {
      tensor_type {
        elem_type: 1
        shape {
          dim {
            dim_value: 1
          }
          dim {
            dim_value: 480
          }
          dim {
            dim_value: 14
          }
          dim {
            dim_value: 14
          }
        }
      }
    }
  }
  value_info {
    name: "inception_4a/pool_1"
    type {
      tensor_type {
        elem_type: 1
        shape {
          dim {
            dim_value: 1
          }
          dim {
            dim_value: 480
          }
          dim {
            dim_value: 14
          }
          dim {
            dim_value: 14
          }
        }
      }
    }
  }
  value_info {
    name: "inception_4a/1x1_2"
    type {
      tensor_type {
        elem_type: 1
        shape {
          dim {
            dim_value: 1
          }
          dim {
            dim_value: 192
          }
          dim {
            dim_value: 14
          }
          dim {
            dim_value: 14
          }
        }
      }
    }
  }
  value_info {
    name: "inception_4a/3x3_2"
    type {
      tensor_type {
        elem_type: 1
        shape {
          dim {
            dim_value: 1
          }
          dim {
            dim_value: 208
          }
          dim {
            dim_value: 14
          }
          dim {
            dim_value: 14
          }
        }
      }
    }
  }
  value_info {
    name: "inception_4a/5x5_2"
    type {
      tensor_type {
        elem_type: 1
        shape {
          dim {
            dim_value: 1
          }
          dim {
            dim_value: 48
          }
          dim {
            dim_value: 14
          }
          dim {
            dim_value: 14
          }
        }
      }
    }
  }
  value_info {
    name: "inception_4a/pool_proj_2"
    type {
      tensor_type {
        elem_type: 1
        shape {
          dim {
            dim_value: 1
          }
          dim {
            dim_value: 64
          }
          dim {
            dim_value: 14
          }
          dim {
            dim_value: 14
          }
        }
      }
    }
  }
  value_info {
    name: "inception_4a/output_1"
    type {
      tensor_type {
        elem_type: 1
        shape {
          dim {
            dim_value: 1
          }
          dim {
            dim_value: 512
          }
          dim {
            dim_value: 14
          }
          dim {
            dim_value: 14
          }
        }
      }
    }
  }
  value_info {
    name: "inception_4b/pool_1"
    type {
      tensor_type {
        elem_type: 1
        shape {
          dim {
            dim_value: 1
          }
          dim {
            dim_value: 512
          }
          dim {
            dim_value: 14
          }
          dim {
            dim_value: 14
          }
        }
      }
    }
  }
  value_info {
    name: "inception_4b/1x1_2"
    type {
      tensor_type {
        elem_type: 1
        shape {
          dim {
            dim_value: 1
          }
          dim {
            dim_value: 160
          }
          dim {
            dim_value: 14
          }
          dim {
            dim_value: 14
          }
        }
      }
    }
  }
  value_info {
    name: "inception_4b/3x3_2"
    type {
      tensor_type {
        elem_type: 1
        shape {
          dim {
            dim_value: 1
          }
          dim {
            dim_value: 224
          }
          dim {
            dim_value: 14
          }
          dim {
            dim_value: 14
          }
        }
      }
    }
  }
  value_info {
    name: "inception_4b/5x5_2"
    type {
      tensor_type {
        elem_type: 1
        shape {
          dim {
            dim_value: 1
          }
          dim {
            dim_value: 64
          }
          dim {
            dim_value: 14
          }
          dim {
            dim_value: 14
          }
        }
      }
    }
  }
  value_info {
    name: "inception_4b/pool_proj_2"
    type {
      tensor_type {
        elem_type: 1
        shape {
          dim {
            dim_value: 1
          }
          dim {
            dim_value: 64
          }
          dim {
            dim_value: 14
          }
          dim {
            dim_value: 14
          }
        }
      }
    }
  }
  value_info {
    name: "inception_4b/output_1"
    type {
      tensor_type {
        elem_type: 1
        shape {
          dim {
            dim_value: 1
          }
          dim {
            dim_value: 512
          }
          dim {
            dim_value: 14
          }
          dim {
            dim_value: 14
          }
        }
      }
    }
  }
  value_info {
    name: "inception_4c/pool_1"
    type {
      tensor_type {
        elem_type: 1
        shape {
          dim {
            dim_value: 1
          }
          dim {
            dim_value: 512
          }
          dim {
            dim_value: 14
          }
          dim {
            dim_value: 14
          }
        }
      }
    }
  }
  value_info {
    name: "inception_4c/1x1_2"
    type {
      tensor_type {
        elem_type: 1
        shape {
          dim {
            dim_value: 1
          }
          dim {
            dim_value: 128
          }
          dim {
            dim_value: 14
          }
          dim {
            dim_value: 14
          }
        }
      }
    }
  }
  value_info {
    name: "inception_4c/3x3_2"
    type {
      tensor_type {
        elem_type: 1
        shape {
          dim {
            dim_value: 1
          }
          dim {
            dim_value: 256
          }
          dim {
            dim_value: 14
          }
          dim {
            dim_value: 14
          }
        }
      }
    }
  }
  value_info {
    name: "inception_4c/5x5_2"
    type {
      tensor_type {
        elem_type: 1
        shape {
          dim {
            dim_value: 1
          }
          dim {
            dim_value: 64
          }
          dim {
            dim_value: 14
          }
          dim {
            dim_value: 14
          }
        }
      }
    }
  }
  value_info {
    name: "inception_4c/pool_proj_2"
    type {
      tensor_type {
        elem_type: 1
        shape {
          dim {
            dim_value: 1
          }
          dim {
            dim_value: 64
          }
          dim {
            dim_value: 14
          }
          dim {
            dim_value: 14
          }
        }
      }
    }
  }
  value_info {
    name: "inception_4c/output_1"
    type {
      tensor_type {
        elem_type: 1
        shape {
          dim {
            dim_value: 1
          }
          dim {
            dim_value: 512
          }
          dim {
            dim_value: 14
          }
          dim {
            dim_value: 14
          }
        }
      }
    }
  }
  value_info {
    name: "inception_4d/pool_1"
    type {
      tensor_type {
        elem_type: 1
        shape {
          dim {
            dim_value: 1
          }
          dim {
            dim_value: 512
          }
          dim {
            dim_value: 14
          }
          dim {
            dim_value: 14
          }
        }
      }
    }
  }
  value_info {
    name: "inception_4d/1x1_2"
    type {
      tensor_type {
        elem_type: 1
        shape {
          dim {
            dim_value: 1
          }
          dim {
            dim_value: 112
          }
          dim {
            dim_value: 14
          }
          dim {
            dim_value: 14
          }
        }
      }
    }
  }
  value_info {
    name: "inception_4d/3x3_2"
    type {
      tensor_type {
        elem_type: 1
        shape {
          dim {
            dim_value: 1
          }
          dim {
            dim_value: 288
          }
          dim {
            dim_value: 14
          }
          dim {
            dim_value: 14
          }
        }
      }
    }
  }
  value_info {
    name: "inception_4d/5x5_2"
    type {
      tensor_type {
        elem_type: 1
        shape {
          dim {
            dim_value: 1
          }
          dim {
            dim_value: 64
          }
          dim {
            dim_value: 14
          }
          dim {
            dim_value: 14
          }
        }
      }
    }
  }
  value_info {
    name: "inception_4d/pool_proj_2"
    type {
      tensor_type {
        elem_type: 1
        shape {
          dim {
            dim_value: 1
          }
          dim {
            dim_value: 64
          }
          dim {
            dim_value: 14
          }
          dim {
            dim_value: 14
          }
        }
      }
    }
  }
  value_info {
    name: "inception_4d/output_1"
    type {
      tensor_type {
        elem_type: 1
        shape {
          dim {
            dim_value: 1
          }
          dim {
            dim_value: 528
          }
          dim {
            dim_value: 14
          }
          dim {
            dim_value: 14
          }
        }
      }
    }
  }
  value_info {
    name: "inception_4e/pool_1"
    type {
      tensor_type {
        elem_type: 1
        shape {
          dim {
            dim_value: 1
          }
          dim {
            dim_value: 528
          }
          dim {
            dim_value: 14
          }
          dim {
            dim_value: 14
          }
        }
      }
    }
  }
  value_info {
    name: "inception_4e/1x1_2"
    type {
      tensor_type {
        elem_type: 1
        shape {
          dim {
            dim_value: 1
          }
          dim {
            dim_value: 256
          }
          dim {
            dim_value: 14
          }
          dim {
            dim_value: 14
          }
        }
      }
    }
  }
  value_info {
    name: "inception_4e/3x3_2"
    type {
      tensor_type {
        elem_type: 1
        shape {
          dim {
            dim_value: 1
          }
          dim {
            dim_value: 320
          }
          dim {
            dim_value: 14
          }
          dim {
            dim_value: 14
          }
        }
      }
    }
  }
  value_info {
    name: "inception_4e/5x5_2"
    type {
      tensor_type {
        elem_type: 1
        shape {
          dim {
            dim_value: 1
          }
          dim {
            dim_value: 128
          }
          dim {
            dim_value: 14
          }
          dim {
            dim_value: 14
          }
        }
      }
    }
  }
  value_info {
    name: "inception_4e/pool_proj_2"
    type {
      tensor_type {
        elem_type: 1
        shape {
          dim {
            dim_value: 1
          }
          dim {
            dim_value: 128
          }
          dim {
            dim_value: 14
          }
          dim {
            dim_value: 14
          }
        }
      }
    }
  }
  value_info {
    name: "inception_4e/output_1"
    type {
      tensor_type {
        elem_type: 1
        shape {
          dim {
            dim_value: 1
          }
          dim {
            dim_value: 832
          }
          dim {
            dim_value: 14
          }
          dim {
            dim_value: 14
          }
        }
      }
    }
  }
  value_info {
    name: "pool4/3x3_s2_1"
    type {
      tensor_type {
        elem_type: 1
        shape {
          dim {
            dim_value: 1
          }
          dim {
            dim_value: 832
          }
          dim {
            dim_value: 7
          }
          dim {
            dim_value: 7
          }
        }
      }
    }
  }
  value_info {
    name: "inception_5a/pool_1"
    type {
      tensor_type {
        elem_type: 1
        shape {
          dim {
            dim_value: 1
          }
          dim {
            dim_value: 832
          }
          dim {
            dim_value: 7
          }
          dim {
            dim_value: 7
          }
        }
      }
    }
  }
  value_info {
    name: "inception_5a/1x1_2"
    type {
      tensor_type {
        elem_type: 1
        shape {
          dim {
            dim_value: 1
          }
          dim {
            dim_value: 256
          }
          dim {
            dim_value: 7
          }
          dim {
            dim_value: 7
          }
        }
      }
    }
  }
  value_info {
    name: "inception_5a/3x3_2"
    type {
      tensor_type {
        elem_type: 1
        shape {
          dim {
            dim_value: 1
          }
          dim {
            dim_value: 320
          }
          dim {
            dim_value: 7
          }
          dim {
            dim_value: 7
          }
        }
      }
    }
  }
  value_info {
    name: "inception_5a/5x5_2"
    type {
      tensor_type {
        elem_type: 1
        shape {
          dim {
            dim_value: 1
          }
          dim {
            dim_value: 128
          }
          dim {
            dim_value: 7
          }
          dim {
            dim_value: 7
          }
        }
      }
    }
  }
  value_info {
    name: "inception_5a/pool_proj_2"
    type {
      tensor_type {
        elem_type: 1
        shape {
          dim {
            dim_value: 1
          }
          dim {
            dim_value: 128
          }
          dim {
            dim_value: 7
          }
          dim {
            dim_value: 7
          }
        }
      }
    }
  }
  value_info {
    name: "inception_5a/output_1"
    type {
      tensor_type {
        elem_type: 1
        shape {
          dim {
            dim_value: 1
          }
          dim {
            dim_value: 832
          }
          dim {
            dim_value: 7
          }
          dim {
            dim_value: 7
          }
        }
      }
    }
  }
  value_info {
    name: "inception_5b/pool_1"
    type {
      tensor_type {
        elem_type: 1
        shape {
          dim {
            dim_value: 1
          }
          dim {
            dim_value: 832
          }
          dim {
            dim_value: 7
          }
          dim {
            dim_value: 7
          }
        }
      }
    }
  }
  value_info {
    name: "inception_5b/1x1_2"
    type {
      tensor_type {
        elem_type: 1
        shape {
          dim {
            dim_value: 1
          }
          dim {
            dim_value: 384
          }
          dim {
            dim_value: 7
          }
          dim {
            dim_value: 7
          }
        }
      }
    }
  }
  value_info {
    name: "inception_5b/3x3_2"
    type {
      tensor_type {
        elem_type: 1
        shape {
          dim {
            dim_value: 1
          }
          dim {
            dim_value: 384
          }
          dim {
            dim_value: 7
          }
          dim {
            dim_value: 7
          }
        }
      }
    }
  }
  value_info {
    name: "inception_5b/5x5_2"
    type {
      tensor_type {
        elem_type: 1
        shape {
          dim {
            dim_value: 1
          }
          dim {
            dim_value: 128
          }
          dim {
            dim_value: 7
          }
          dim {
            dim_value: 7
          }
        }
      }
    }
  }
  value_info {
    name: "inception_5b/pool_proj_2"
    type {
      tensor_type {
        elem_type: 1
        shape {
          dim {
            dim_value: 1
          }
          dim {
            dim_value: 128
          }
          dim {
            dim_value: 7
          }
          dim {
            dim_value: 7
          }
        }
      }
    }
  }
  value_info {
    name: "inception_5b/output_1"
    type {
      tensor_type {
        elem_type: 1
        shape {
          dim {
            dim_value: 1
          }
          dim {
            dim_value: 1024
          }
          dim {
            dim_value: 7
          }
          dim {
            dim_value: 7
          }
        }
      }
    }
  }
  value_info {
    name: "pool5/7x7_s1_1"
    type {
      tensor_type {
        elem_type: 1
        shape {
          dim {
            dim_value: 1
          }
          dim {
            dim_value: 1024
          }
          dim {
            dim_value: 1
          }
          dim {
            dim_value: 1
          }
        }
      }
    }
  }
  value_info {
    name: "OC2_DUMMY_0"
    type {
      tensor_type {
        elem_type: 1
        shape {
          dim {
            dim_value: 1
          }
          dim {
            dim_value: 1024
          }
        }
      }
    }
  }
  value_info {
    name: "loss3/classifier_1"
    type {
      tensor_type {
        elem_type: 1
        shape {
          dim {
            dim_value: 1
          }
          dim {
            dim_value: 1000
          }
        }
      }
    }
  }
}
opset_import {
  domain: ""
  version: 12
}
opset_import {
  domain: "com.microsoft"
  version: 1
}
opset_import {
  domain: "com.microsoft.mlfeaturizers"
  version: 1
}
opset_import {
  domain: "com.microsoft.nchwc"
  version: 1
}
opset_import {
  domain: "ai.onnx.training"
  version: 1
}
opset_import {
  domain: "ai.onnx.preview.training"
  version: 1
}
opset_import {
  domain: "com.microsoft.experimental"
  version: 1
}
opset_import {
  domain: "ai.onnx.ml"
  version: 2
}
