ir_version: 4
producer_name: "pytorch"
producer_version: "1.1"
graph {
  node {
    input: "image"
    output: "1"
    name: "0"
    op_type: "Unsqueeze"
    attribute {
      name: "axes"
      ints: 0
      type: INTS
    }
  }
  node {
    input: "1"
    input: "2"
    output: "3"
    name: "2"
    op_type: "Conv"
    attribute {
      name: "dilations"
      ints: 1
      ints: 1
      type: INTS
    }
    attribute {
      name: "group"
      i: 1
      type: INT
    }
    attribute {
      name: "kernel_shape"
      ints: 7
      ints: 7
      type: INTS
    }
    attribute {
      name: "pads"
      ints: 3
      ints: 3
      ints: 3
      ints: 3
      type: INTS
    }
    attribute {
      name: "strides"
      ints: 2
      ints: 2
      type: INTS
    }
  }
  node {
    input: "3"
    input: "4"
    output: "6"
    name: "5"
    op_type: "Mul"
  }
  node {
    input: "6"
    input: "5"
    output: "7"
    name: "6"
    op_type: "Add"
  }
  node {
    input: "7"
    output: "8"
    name: "7"
    op_type: "Relu"
  }
  node {
    input: "8"
    output: "9"
    name: "8"
    op_type: "MaxPool"
    attribute {
      name: "ceil_mode"
      i: 0
      type: INT
    }
    attribute {
      name: "kernel_shape"
      ints: 3
      ints: 3
      type: INTS
    }
    attribute {
      name: "pads"
      ints: 1
      ints: 1
      ints: 1
      ints: 1
      type: INTS
    }
    attribute {
      name: "strides"
      ints: 2
      ints: 2
      type: INTS
    }
  }
  node {
    input: "9"
    input: "10"
    output: "11"
    name: "10"
    op_type: "Conv"
    attribute {
      name: "dilations"
      ints: 1
      ints: 1
      type: INTS
    }
    attribute {
      name: "group"
      i: 1
      type: INT
    }
    attribute {
      name: "kernel_shape"
      ints: 1
      ints: 1
      type: INTS
    }
    attribute {
      name: "pads"
      ints: 0
      ints: 0
      ints: 0
      ints: 0
      type: INTS
    }
    attribute {
      name: "strides"
      ints: 1
      ints: 1
      type: INTS
    }
  }
  node {
    input: "11"
    input: "12"
    output: "14"
    name: "13"
    op_type: "Mul"
  }
  node {
    input: "14"
    input: "13"
    output: "15"
    name: "14"
    op_type: "Add"
  }
  node {
    input: "15"
    output: "16"
    name: "15"
    op_type: "Relu"
  }
  node {
    input: "16"
    input: "17"
    output: "18"
    name: "17"
    op_type: "Conv"
    attribute {
      name: "dilations"
      ints: 1
      ints: 1
      type: INTS
    }
    attribute {
      name: "group"
      i: 1
      type: INT
    }
    attribute {
      name: "kernel_shape"
      ints: 3
      ints: 3
      type: INTS
    }
    attribute {
      name: "pads"
      ints: 1
      ints: 1
      ints: 1
      ints: 1
      type: INTS
    }
    attribute {
      name: "strides"
      ints: 1
      ints: 1
      type: INTS
    }
  }
  node {
    input: "18"
    input: "19"
    output: "21"
    name: "20"
    op_type: "Mul"
  }
  node {
    input: "21"
    input: "20"
    output: "22"
    name: "21"
    op_type: "Add"
  }
  node {
    input: "22"
    output: "23"
    name: "22"
    op_type: "Relu"
  }
  node {
    input: "23"
    input: "24"
    output: "25"
    name: "24"
    op_type: "Conv"
    attribute {
      name: "dilations"
      ints: 1
      ints: 1
      type: INTS
    }
    attribute {
      name: "group"
      i: 1
      type: INT
    }
    attribute {
      name: "kernel_shape"
      ints: 1
      ints: 1
      type: INTS
    }
    attribute {
      name: "pads"
      ints: 0
      ints: 0
      ints: 0
      ints: 0
      type: INTS
    }
    attribute {
      name: "strides"
      ints: 1
      ints: 1
      type: INTS
    }
  }
  node {
    input: "25"
    input: "26"
    output: "28"
    name: "27"
    op_type: "Mul"
  }
  node {
    input: "28"
    input: "27"
    output: "29"
    name: "28"
    op_type: "Add"
  }
  node {
    input: "9"
    input: "30"
    output: "31"
    name: "30"
    op_type: "Conv"
    attribute {
      name: "dilations"
      ints: 1
      ints: 1
      type: INTS
    }
    attribute {
      name: "group"
      i: 1
      type: INT
    }
    attribute {
      name: "kernel_shape"
      ints: 1
      ints: 1
      type: INTS
    }
    attribute {
      name: "pads"
      ints: 0
      ints: 0
      ints: 0
      ints: 0
      type: INTS
    }
    attribute {
      name: "strides"
      ints: 1
      ints: 1
      type: INTS
    }
  }
  node {
    input: "31"
    input: "32"
    output: "34"
    name: "33"
    op_type: "Mul"
  }
  node {
    input: "34"
    input: "33"
    output: "35"
    name: "34"
    op_type: "Add"
  }
  node {
    input: "29"
    input: "35"
    output: "36"
    name: "35"
    op_type: "Add"
  }
  node {
    input: "36"
    output: "37"
    name: "36"
    op_type: "Relu"
  }
  node {
    input: "37"
    input: "38"
    output: "39"
    name: "38"
    op_type: "Conv"
    attribute {
      name: "dilations"
      ints: 1
      ints: 1
      type: INTS
    }
    attribute {
      name: "group"
      i: 1
      type: INT
    }
    attribute {
      name: "kernel_shape"
      ints: 1
      ints: 1
      type: INTS
    }
    attribute {
      name: "pads"
      ints: 0
      ints: 0
      ints: 0
      ints: 0
      type: INTS
    }
    attribute {
      name: "strides"
      ints: 1
      ints: 1
      type: INTS
    }
  }
  node {
    input: "39"
    input: "40"
    output: "42"
    name: "41"
    op_type: "Mul"
  }
  node {
    input: "42"
    input: "41"
    output: "43"
    name: "42"
    op_type: "Add"
  }
  node {
    input: "43"
    output: "44"
    name: "43"
    op_type: "Relu"
  }
  node {
    input: "44"
    input: "45"
    output: "46"
    name: "45"
    op_type: "Conv"
    attribute {
      name: "dilations"
      ints: 1
      ints: 1
      type: INTS
    }
    attribute {
      name: "group"
      i: 1
      type: INT
    }
    attribute {
      name: "kernel_shape"
      ints: 3
      ints: 3
      type: INTS
    }
    attribute {
      name: "pads"
      ints: 1
      ints: 1
      ints: 1
      ints: 1
      type: INTS
    }
    attribute {
      name: "strides"
      ints: 1
      ints: 1
      type: INTS
    }
  }
  node {
    input: "46"
    input: "47"
    output: "49"
    name: "48"
    op_type: "Mul"
  }
  node {
    input: "49"
    input: "48"
    output: "50"
    name: "49"
    op_type: "Add"
  }
  node {
    input: "50"
    output: "51"
    name: "50"
    op_type: "Relu"
  }
  node {
    input: "51"
    input: "52"
    output: "53"
    name: "52"
    op_type: "Conv"
    attribute {
      name: "dilations"
      ints: 1
      ints: 1
      type: INTS
    }
    attribute {
      name: "group"
      i: 1
      type: INT
    }
    attribute {
      name: "kernel_shape"
      ints: 1
      ints: 1
      type: INTS
    }
    attribute {
      name: "pads"
      ints: 0
      ints: 0
      ints: 0
      ints: 0
      type: INTS
    }
    attribute {
      name: "strides"
      ints: 1
      ints: 1
      type: INTS
    }
  }
  node {
    input: "53"
    input: "54"
    output: "56"
    name: "55"
    op_type: "Mul"
  }
  node {
    input: "56"
    input: "55"
    output: "57"
    name: "56"
    op_type: "Add"
  }
  node {
    input: "57"
    input: "37"
    output: "58"
    name: "57"
    op_type: "Add"
  }
  node {
    input: "58"
    output: "59"
    name: "58"
    op_type: "Relu"
  }
  node {
    input: "59"
    input: "60"
    output: "61"
    name: "60"
    op_type: "Conv"
    attribute {
      name: "dilations"
      ints: 1
      ints: 1
      type: INTS
    }
    attribute {
      name: "group"
      i: 1
      type: INT
    }
    attribute {
      name: "kernel_shape"
      ints: 1
      ints: 1
      type: INTS
    }
    attribute {
      name: "pads"
      ints: 0
      ints: 0
      ints: 0
      ints: 0
      type: INTS
    }
    attribute {
      name: "strides"
      ints: 1
      ints: 1
      type: INTS
    }
  }
  node {
    input: "61"
    input: "62"
    output: "64"
    name: "63"
    op_type: "Mul"
  }
  node {
    input: "64"
    input: "63"
    output: "65"
    name: "64"
    op_type: "Add"
  }
  node {
    input: "65"
    output: "66"
    name: "65"
    op_type: "Relu"
  }
  node {
    input: "66"
    input: "67"
    output: "68"
    name: "67"
    op_type: "Conv"
    attribute {
      name: "dilations"
      ints: 1
      ints: 1
      type: INTS
    }
    attribute {
      name: "group"
      i: 1
      type: INT
    }
    attribute {
      name: "kernel_shape"
      ints: 3
      ints: 3
      type: INTS
    }
    attribute {
      name: "pads"
      ints: 1
      ints: 1
      ints: 1
      ints: 1
      type: INTS
    }
    attribute {
      name: "strides"
      ints: 1
      ints: 1
      type: INTS
    }
  }
  node {
    input: "68"
    input: "69"
    output: "71"
    name: "70"
    op_type: "Mul"
  }
  node {
    input: "71"
    input: "70"
    output: "72"
    name: "71"
    op_type: "Add"
  }
  node {
    input: "72"
    output: "73"
    name: "72"
    op_type: "Relu"
  }
  node {
    input: "73"
    input: "74"
    output: "75"
    name: "74"
    op_type: "Conv"
    attribute {
      name: "dilations"
      ints: 1
      ints: 1
      type: INTS
    }
    attribute {
      name: "group"
      i: 1
      type: INT
    }
    attribute {
      name: "kernel_shape"
      ints: 1
      ints: 1
      type: INTS
    }
    attribute {
      name: "pads"
      ints: 0
      ints: 0
      ints: 0
      ints: 0
      type: INTS
    }
    attribute {
      name: "strides"
      ints: 1
      ints: 1
      type: INTS
    }
  }
  node {
    input: "75"
    input: "76"
    output: "78"
    name: "77"
    op_type: "Mul"
  }
  node {
    input: "78"
    input: "77"
    output: "79"
    name: "78"
    op_type: "Add"
  }
  node {
    input: "79"
    input: "59"
    output: "80"
    name: "79"
    op_type: "Add"
  }
  node {
    input: "80"
    output: "81"
    name: "80"
    op_type: "Relu"
  }
  node {
    input: "81"
    input: "82"
    output: "83"
    name: "82"
    op_type: "Conv"
    attribute {
      name: "dilations"
      ints: 1
      ints: 1
      type: INTS
    }
    attribute {
      name: "group"
      i: 1
      type: INT
    }
    attribute {
      name: "kernel_shape"
      ints: 1
      ints: 1
      type: INTS
    }
    attribute {
      name: "pads"
      ints: 0
      ints: 0
      ints: 0
      ints: 0
      type: INTS
    }
    attribute {
      name: "strides"
      ints: 2
      ints: 2
      type: INTS
    }
  }
  node {
    input: "83"
    input: "84"
    output: "86"
    name: "85"
    op_type: "Mul"
  }
  node {
    input: "86"
    input: "85"
    output: "87"
    name: "86"
    op_type: "Add"
  }
  node {
    input: "87"
    output: "88"
    name: "87"
    op_type: "Relu"
  }
  node {
    input: "88"
    input: "89"
    output: "90"
    name: "89"
    op_type: "Conv"
    attribute {
      name: "dilations"
      ints: 1
      ints: 1
      type: INTS
    }
    attribute {
      name: "group"
      i: 1
      type: INT
    }
    attribute {
      name: "kernel_shape"
      ints: 3
      ints: 3
      type: INTS
    }
    attribute {
      name: "pads"
      ints: 1
      ints: 1
      ints: 1
      ints: 1
      type: INTS
    }
    attribute {
      name: "strides"
      ints: 1
      ints: 1
      type: INTS
    }
  }
  node {
    input: "90"
    input: "91"
    output: "93"
    name: "92"
    op_type: "Mul"
  }
  node {
    input: "93"
    input: "92"
    output: "94"
    name: "93"
    op_type: "Add"
  }
  node {
    input: "94"
    output: "95"
    name: "94"
    op_type: "Relu"
  }
  node {
    input: "95"
    input: "96"
    output: "97"
    name: "96"
    op_type: "Conv"
    attribute {
      name: "dilations"
      ints: 1
      ints: 1
      type: INTS
    }
    attribute {
      name: "group"
      i: 1
      type: INT
    }
    attribute {
      name: "kernel_shape"
      ints: 1
      ints: 1
      type: INTS
    }
    attribute {
      name: "pads"
      ints: 0
      ints: 0
      ints: 0
      ints: 0
      type: INTS
    }
    attribute {
      name: "strides"
      ints: 1
      ints: 1
      type: INTS
    }
  }
  node {
    input: "97"
    input: "98"
    output: "100"
    name: "99"
    op_type: "Mul"
  }
  node {
    input: "100"
    input: "99"
    output: "101"
    name: "100"
    op_type: "Add"
  }
  node {
    input: "81"
    input: "102"
    output: "103"
    name: "102"
    op_type: "Conv"
    attribute {
      name: "dilations"
      ints: 1
      ints: 1
      type: INTS
    }
    attribute {
      name: "group"
      i: 1
      type: INT
    }
    attribute {
      name: "kernel_shape"
      ints: 1
      ints: 1
      type: INTS
    }
    attribute {
      name: "pads"
      ints: 0
      ints: 0
      ints: 0
      ints: 0
      type: INTS
    }
    attribute {
      name: "strides"
      ints: 2
      ints: 2
      type: INTS
    }
  }
  node {
    input: "103"
    input: "104"
    output: "106"
    name: "105"
    op_type: "Mul"
  }
  node {
    input: "106"
    input: "105"
    output: "107"
    name: "106"
    op_type: "Add"
  }
  node {
    input: "101"
    input: "107"
    output: "108"
    name: "107"
    op_type: "Add"
  }
  node {
    input: "108"
    output: "109"
    name: "108"
    op_type: "Relu"
  }
  node {
    input: "109"
    input: "110"
    output: "111"
    name: "110"
    op_type: "Conv"
    attribute {
      name: "dilations"
      ints: 1
      ints: 1
      type: INTS
    }
    attribute {
      name: "group"
      i: 1
      type: INT
    }
    attribute {
      name: "kernel_shape"
      ints: 1
      ints: 1
      type: INTS
    }
    attribute {
      name: "pads"
      ints: 0
      ints: 0
      ints: 0
      ints: 0
      type: INTS
    }
    attribute {
      name: "strides"
      ints: 1
      ints: 1
      type: INTS
    }
  }
  node {
    input: "111"
    input: "112"
    output: "114"
    name: "113"
    op_type: "Mul"
  }
  node {
    input: "114"
    input: "113"
    output: "115"
    name: "114"
    op_type: "Add"
  }
  node {
    input: "115"
    output: "116"
    name: "115"
    op_type: "Relu"
  }
  node {
    input: "116"
    input: "117"
    output: "118"
    name: "117"
    op_type: "Conv"
    attribute {
      name: "dilations"
      ints: 1
      ints: 1
      type: INTS
    }
    attribute {
      name: "group"
      i: 1
      type: INT
    }
    attribute {
      name: "kernel_shape"
      ints: 3
      ints: 3
      type: INTS
    }
    attribute {
      name: "pads"
      ints: 1
      ints: 1
      ints: 1
      ints: 1
      type: INTS
    }
    attribute {
      name: "strides"
      ints: 1
      ints: 1
      type: INTS
    }
  }
  node {
    input: "118"
    input: "119"
    output: "121"
    name: "120"
    op_type: "Mul"
  }
  node {
    input: "121"
    input: "120"
    output: "122"
    name: "121"
    op_type: "Add"
  }
  node {
    input: "122"
    output: "123"
    name: "122"
    op_type: "Relu"
  }
  node {
    input: "123"
    input: "124"
    output: "125"
    name: "124"
    op_type: "Conv"
    attribute {
      name: "dilations"
      ints: 1
      ints: 1
      type: INTS
    }
    attribute {
      name: "group"
      i: 1
      type: INT
    }
    attribute {
      name: "kernel_shape"
      ints: 1
      ints: 1
      type: INTS
    }
    attribute {
      name: "pads"
      ints: 0
      ints: 0
      ints: 0
      ints: 0
      type: INTS
    }
    attribute {
      name: "strides"
      ints: 1
      ints: 1
      type: INTS
    }
  }
  node {
    input: "125"
    input: "126"
    output: "128"
    name: "127"
    op_type: "Mul"
  }
  node {
    input: "128"
    input: "127"
    output: "129"
    name: "128"
    op_type: "Add"
  }
  node {
    input: "129"
    input: "109"
    output: "130"
    name: "129"
    op_type: "Add"
  }
  node {
    input: "130"
    output: "131"
    name: "130"
    op_type: "Relu"
  }
  node {
    input: "131"
    input: "132"
    output: "133"
    name: "132"
    op_type: "Conv"
    attribute {
      name: "dilations"
      ints: 1
      ints: 1
      type: INTS
    }
    attribute {
      name: "group"
      i: 1
      type: INT
    }
    attribute {
      name: "kernel_shape"
      ints: 1
      ints: 1
      type: INTS
    }
    attribute {
      name: "pads"
      ints: 0
      ints: 0
      ints: 0
      ints: 0
      type: INTS
    }
    attribute {
      name: "strides"
      ints: 1
      ints: 1
      type: INTS
    }
  }
  node {
    input: "133"
    input: "134"
    output: "136"
    name: "135"
    op_type: "Mul"
  }
  node {
    input: "136"
    input: "135"
    output: "137"
    name: "136"
    op_type: "Add"
  }
  node {
    input: "137"
    output: "138"
    name: "137"
    op_type: "Relu"
  }
  node {
    input: "138"
    input: "139"
    output: "140"
    name: "139"
    op_type: "Conv"
    attribute {
      name: "dilations"
      ints: 1
      ints: 1
      type: INTS
    }
    attribute {
      name: "group"
      i: 1
      type: INT
    }
    attribute {
      name: "kernel_shape"
      ints: 3
      ints: 3
      type: INTS
    }
    attribute {
      name: "pads"
      ints: 1
      ints: 1
      ints: 1
      ints: 1
      type: INTS
    }
    attribute {
      name: "strides"
      ints: 1
      ints: 1
      type: INTS
    }
  }
  node {
    input: "140"
    input: "141"
    output: "143"
    name: "142"
    op_type: "Mul"
  }
  node {
    input: "143"
    input: "142"
    output: "144"
    name: "143"
    op_type: "Add"
  }
  node {
    input: "144"
    output: "145"
    name: "144"
    op_type: "Relu"
  }
  node {
    input: "145"
    input: "146"
    output: "147"
    name: "146"
    op_type: "Conv"
    attribute {
      name: "dilations"
      ints: 1
      ints: 1
      type: INTS
    }
    attribute {
      name: "group"
      i: 1
      type: INT
    }
    attribute {
      name: "kernel_shape"
      ints: 1
      ints: 1
      type: INTS
    }
    attribute {
      name: "pads"
      ints: 0
      ints: 0
      ints: 0
      ints: 0
      type: INTS
    }
    attribute {
      name: "strides"
      ints: 1
      ints: 1
      type: INTS
    }
  }
  node {
    input: "147"
    input: "148"
    output: "150"
    name: "149"
    op_type: "Mul"
  }
  node {
    input: "150"
    input: "149"
    output: "151"
    name: "150"
    op_type: "Add"
  }
  node {
    input: "151"
    input: "131"
    output: "152"
    name: "151"
    op_type: "Add"
  }
  node {
    input: "152"
    output: "153"
    name: "152"
    op_type: "Relu"
  }
  node {
    input: "153"
    input: "154"
    output: "155"
    name: "154"
    op_type: "Conv"
    attribute {
      name: "dilations"
      ints: 1
      ints: 1
      type: INTS
    }
    attribute {
      name: "group"
      i: 1
      type: INT
    }
    attribute {
      name: "kernel_shape"
      ints: 1
      ints: 1
      type: INTS
    }
    attribute {
      name: "pads"
      ints: 0
      ints: 0
      ints: 0
      ints: 0
      type: INTS
    }
    attribute {
      name: "strides"
      ints: 1
      ints: 1
      type: INTS
    }
  }
  node {
    input: "155"
    input: "156"
    output: "158"
    name: "157"
    op_type: "Mul"
  }
  node {
    input: "158"
    input: "157"
    output: "159"
    name: "158"
    op_type: "Add"
  }
  node {
    input: "159"
    output: "160"
    name: "159"
    op_type: "Relu"
  }
  node {
    input: "160"
    input: "161"
    output: "162"
    name: "161"
    op_type: "Conv"
    attribute {
      name: "dilations"
      ints: 1
      ints: 1
      type: INTS
    }
    attribute {
      name: "group"
      i: 1
      type: INT
    }
    attribute {
      name: "kernel_shape"
      ints: 3
      ints: 3
      type: INTS
    }
    attribute {
      name: "pads"
      ints: 1
      ints: 1
      ints: 1
      ints: 1
      type: INTS
    }
    attribute {
      name: "strides"
      ints: 1
      ints: 1
      type: INTS
    }
  }
  node {
    input: "162"
    input: "163"
    output: "165"
    name: "164"
    op_type: "Mul"
  }
  node {
    input: "165"
    input: "164"
    output: "166"
    name: "165"
    op_type: "Add"
  }
  node {
    input: "166"
    output: "167"
    name: "166"
    op_type: "Relu"
  }
  node {
    input: "167"
    input: "168"
    output: "169"
    name: "168"
    op_type: "Conv"
    attribute {
      name: "dilations"
      ints: 1
      ints: 1
      type: INTS
    }
    attribute {
      name: "group"
      i: 1
      type: INT
    }
    attribute {
      name: "kernel_shape"
      ints: 1
      ints: 1
      type: INTS
    }
    attribute {
      name: "pads"
      ints: 0
      ints: 0
      ints: 0
      ints: 0
      type: INTS
    }
    attribute {
      name: "strides"
      ints: 1
      ints: 1
      type: INTS
    }
  }
  node {
    input: "169"
    input: "170"
    output: "172"
    name: "171"
    op_type: "Mul"
  }
  node {
    input: "172"
    input: "171"
    output: "173"
    name: "172"
    op_type: "Add"
  }
  node {
    input: "173"
    input: "153"
    output: "174"
    name: "173"
    op_type: "Add"
  }
  node {
    input: "174"
    output: "175"
    name: "174"
    op_type: "Relu"
  }
  node {
    input: "175"
    input: "176"
    output: "177"
    name: "176"
    op_type: "Conv"
    attribute {
      name: "dilations"
      ints: 1
      ints: 1
      type: INTS
    }
    attribute {
      name: "group"
      i: 1
      type: INT
    }
    attribute {
      name: "kernel_shape"
      ints: 1
      ints: 1
      type: INTS
    }
    attribute {
      name: "pads"
      ints: 0
      ints: 0
      ints: 0
      ints: 0
      type: INTS
    }
    attribute {
      name: "strides"
      ints: 2
      ints: 2
      type: INTS
    }
  }
  node {
    input: "177"
    input: "178"
    output: "180"
    name: "179"
    op_type: "Mul"
  }
  node {
    input: "180"
    input: "179"
    output: "181"
    name: "180"
    op_type: "Add"
  }
  node {
    input: "181"
    output: "182"
    name: "181"
    op_type: "Relu"
  }
  node {
    input: "182"
    input: "183"
    output: "184"
    name: "183"
    op_type: "Conv"
    attribute {
      name: "dilations"
      ints: 1
      ints: 1
      type: INTS
    }
    attribute {
      name: "group"
      i: 1
      type: INT
    }
    attribute {
      name: "kernel_shape"
      ints: 3
      ints: 3
      type: INTS
    }
    attribute {
      name: "pads"
      ints: 1
      ints: 1
      ints: 1
      ints: 1
      type: INTS
    }
    attribute {
      name: "strides"
      ints: 1
      ints: 1
      type: INTS
    }
  }
  node {
    input: "184"
    input: "185"
    output: "187"
    name: "186"
    op_type: "Mul"
  }
  node {
    input: "187"
    input: "186"
    output: "188"
    name: "187"
    op_type: "Add"
  }
  node {
    input: "188"
    output: "189"
    name: "188"
    op_type: "Relu"
  }
  node {
    input: "189"
    input: "190"
    output: "191"
    name: "190"
    op_type: "Conv"
    attribute {
      name: "dilations"
      ints: 1
      ints: 1
      type: INTS
    }
    attribute {
      name: "group"
      i: 1
      type: INT
    }
    attribute {
      name: "kernel_shape"
      ints: 1
      ints: 1
      type: INTS
    }
    attribute {
      name: "pads"
      ints: 0
      ints: 0
      ints: 0
      ints: 0
      type: INTS
    }
    attribute {
      name: "strides"
      ints: 1
      ints: 1
      type: INTS
    }
  }
  node {
    input: "191"
    input: "192"
    output: "194"
    name: "193"
    op_type: "Mul"
  }
  node {
    input: "194"
    input: "193"
    output: "195"
    name: "194"
    op_type: "Add"
  }
  node {
    input: "175"
    input: "196"
    output: "197"
    name: "196"
    op_type: "Conv"
    attribute {
      name: "dilations"
      ints: 1
      ints: 1
      type: INTS
    }
    attribute {
      name: "group"
      i: 1
      type: INT
    }
    attribute {
      name: "kernel_shape"
      ints: 1
      ints: 1
      type: INTS
    }
    attribute {
      name: "pads"
      ints: 0
      ints: 0
      ints: 0
      ints: 0
      type: INTS
    }
    attribute {
      name: "strides"
      ints: 2
      ints: 2
      type: INTS
    }
  }
  node {
    input: "197"
    input: "198"
    output: "200"
    name: "199"
    op_type: "Mul"
  }
  node {
    input: "200"
    input: "199"
    output: "201"
    name: "200"
    op_type: "Add"
  }
  node {
    input: "195"
    input: "201"
    output: "202"
    name: "201"
    op_type: "Add"
  }
  node {
    input: "202"
    output: "203"
    name: "202"
    op_type: "Relu"
  }
  node {
    input: "203"
    input: "204"
    output: "205"
    name: "204"
    op_type: "Conv"
    attribute {
      name: "dilations"
      ints: 1
      ints: 1
      type: INTS
    }
    attribute {
      name: "group"
      i: 1
      type: INT
    }
    attribute {
      name: "kernel_shape"
      ints: 1
      ints: 1
      type: INTS
    }
    attribute {
      name: "pads"
      ints: 0
      ints: 0
      ints: 0
      ints: 0
      type: INTS
    }
    attribute {
      name: "strides"
      ints: 1
      ints: 1
      type: INTS
    }
  }
  node {
    input: "205"
    input: "206"
    output: "208"
    name: "207"
    op_type: "Mul"
  }
  node {
    input: "208"
    input: "207"
    output: "209"
    name: "208"
    op_type: "Add"
  }
  node {
    input: "209"
    output: "210"
    name: "209"
    op_type: "Relu"
  }
  node {
    input: "210"
    input: "211"
    output: "212"
    name: "211"
    op_type: "Conv"
    attribute {
      name: "dilations"
      ints: 1
      ints: 1
      type: INTS
    }
    attribute {
      name: "group"
      i: 1
      type: INT
    }
    attribute {
      name: "kernel_shape"
      ints: 3
      ints: 3
      type: INTS
    }
    attribute {
      name: "pads"
      ints: 1
      ints: 1
      ints: 1
      ints: 1
      type: INTS
    }
    attribute {
      name: "strides"
      ints: 1
      ints: 1
      type: INTS
    }
  }
  node {
    input: "212"
    input: "213"
    output: "215"
    name: "214"
    op_type: "Mul"
  }
  node {
    input: "215"
    input: "214"
    output: "216"
    name: "215"
    op_type: "Add"
  }
  node {
    input: "216"
    output: "217"
    name: "216"
    op_type: "Relu"
  }
  node {
    input: "217"
    input: "218"
    output: "219"
    name: "218"
    op_type: "Conv"
    attribute {
      name: "dilations"
      ints: 1
      ints: 1
      type: INTS
    }
    attribute {
      name: "group"
      i: 1
      type: INT
    }
    attribute {
      name: "kernel_shape"
      ints: 1
      ints: 1
      type: INTS
    }
    attribute {
      name: "pads"
      ints: 0
      ints: 0
      ints: 0
      ints: 0
      type: INTS
    }
    attribute {
      name: "strides"
      ints: 1
      ints: 1
      type: INTS
    }
  }
  node {
    input: "219"
    input: "220"
    output: "222"
    name: "221"
    op_type: "Mul"
  }
  node {
    input: "222"
    input: "221"
    output: "223"
    name: "222"
    op_type: "Add"
  }
  node {
    input: "223"
    input: "203"
    output: "224"
    name: "223"
    op_type: "Add"
  }
  node {
    input: "224"
    output: "225"
    name: "224"
    op_type: "Relu"
  }
  node {
    input: "225"
    input: "226"
    output: "227"
    name: "226"
    op_type: "Conv"
    attribute {
      name: "dilations"
      ints: 1
      ints: 1
      type: INTS
    }
    attribute {
      name: "group"
      i: 1
      type: INT
    }
    attribute {
      name: "kernel_shape"
      ints: 1
      ints: 1
      type: INTS
    }
    attribute {
      name: "pads"
      ints: 0
      ints: 0
      ints: 0
      ints: 0
      type: INTS
    }
    attribute {
      name: "strides"
      ints: 1
      ints: 1
      type: INTS
    }
  }
  node {
    input: "227"
    input: "228"
    output: "230"
    name: "229"
    op_type: "Mul"
  }
  node {
    input: "230"
    input: "229"
    output: "231"
    name: "230"
    op_type: "Add"
  }
  node {
    input: "231"
    output: "232"
    name: "231"
    op_type: "Relu"
  }
  node {
    input: "232"
    input: "233"
    output: "234"
    name: "233"
    op_type: "Conv"
    attribute {
      name: "dilations"
      ints: 1
      ints: 1
      type: INTS
    }
    attribute {
      name: "group"
      i: 1
      type: INT
    }
    attribute {
      name: "kernel_shape"
      ints: 3
      ints: 3
      type: INTS
    }
    attribute {
      name: "pads"
      ints: 1
      ints: 1
      ints: 1
      ints: 1
      type: INTS
    }
    attribute {
      name: "strides"
      ints: 1
      ints: 1
      type: INTS
    }
  }
  node {
    input: "234"
    input: "235"
    output: "237"
    name: "236"
    op_type: "Mul"
  }
  node {
    input: "237"
    input: "236"
    output: "238"
    name: "237"
    op_type: "Add"
  }
  node {
    input: "238"
    output: "239"
    name: "238"
    op_type: "Relu"
  }
  node {
    input: "239"
    input: "240"
    output: "241"
    name: "240"
    op_type: "Conv"
    attribute {
      name: "dilations"
      ints: 1
      ints: 1
      type: INTS
    }
    attribute {
      name: "group"
      i: 1
      type: INT
    }
    attribute {
      name: "kernel_shape"
      ints: 1
      ints: 1
      type: INTS
    }
    attribute {
      name: "pads"
      ints: 0
      ints: 0
      ints: 0
      ints: 0
      type: INTS
    }
    attribute {
      name: "strides"
      ints: 1
      ints: 1
      type: INTS
    }
  }
  node {
    input: "241"
    input: "242"
    output: "244"
    name: "243"
    op_type: "Mul"
  }
  node {
    input: "244"
    input: "243"
    output: "245"
    name: "244"
    op_type: "Add"
  }
  node {
    input: "245"
    input: "225"
    output: "246"
    name: "245"
    op_type: "Add"
  }
  node {
    input: "246"
    output: "247"
    name: "246"
    op_type: "Relu"
  }
  node {
    input: "247"
    input: "248"
    output: "249"
    name: "248"
    op_type: "Conv"
    attribute {
      name: "dilations"
      ints: 1
      ints: 1
      type: INTS
    }
    attribute {
      name: "group"
      i: 1
      type: INT
    }
    attribute {
      name: "kernel_shape"
      ints: 1
      ints: 1
      type: INTS
    }
    attribute {
      name: "pads"
      ints: 0
      ints: 0
      ints: 0
      ints: 0
      type: INTS
    }
    attribute {
      name: "strides"
      ints: 1
      ints: 1
      type: INTS
    }
  }
  node {
    input: "249"
    input: "250"
    output: "252"
    name: "251"
    op_type: "Mul"
  }
  node {
    input: "252"
    input: "251"
    output: "253"
    name: "252"
    op_type: "Add"
  }
  node {
    input: "253"
    output: "254"
    name: "253"
    op_type: "Relu"
  }
  node {
    input: "254"
    input: "255"
    output: "256"
    name: "255"
    op_type: "Conv"
    attribute {
      name: "dilations"
      ints: 1
      ints: 1
      type: INTS
    }
    attribute {
      name: "group"
      i: 1
      type: INT
    }
    attribute {
      name: "kernel_shape"
      ints: 3
      ints: 3
      type: INTS
    }
    attribute {
      name: "pads"
      ints: 1
      ints: 1
      ints: 1
      ints: 1
      type: INTS
    }
    attribute {
      name: "strides"
      ints: 1
      ints: 1
      type: INTS
    }
  }
  node {
    input: "256"
    input: "257"
    output: "259"
    name: "258"
    op_type: "Mul"
  }
  node {
    input: "259"
    input: "258"
    output: "260"
    name: "259"
    op_type: "Add"
  }
  node {
    input: "260"
    output: "261"
    name: "260"
    op_type: "Relu"
  }
  node {
    input: "261"
    input: "262"
    output: "263"
    name: "262"
    op_type: "Conv"
    attribute {
      name: "dilations"
      ints: 1
      ints: 1
      type: INTS
    }
    attribute {
      name: "group"
      i: 1
      type: INT
    }
    attribute {
      name: "kernel_shape"
      ints: 1
      ints: 1
      type: INTS
    }
    attribute {
      name: "pads"
      ints: 0
      ints: 0
      ints: 0
      ints: 0
      type: INTS
    }
    attribute {
      name: "strides"
      ints: 1
      ints: 1
      type: INTS
    }
  }
  node {
    input: "263"
    input: "264"
    output: "266"
    name: "265"
    op_type: "Mul"
  }
  node {
    input: "266"
    input: "265"
    output: "267"
    name: "266"
    op_type: "Add"
  }
  node {
    input: "267"
    input: "247"
    output: "268"
    name: "267"
    op_type: "Add"
  }
  node {
    input: "268"
    output: "269"
    name: "268"
    op_type: "Relu"
  }
  node {
    input: "269"
    input: "270"
    output: "271"
    name: "270"
    op_type: "Conv"
    attribute {
      name: "dilations"
      ints: 1
      ints: 1
      type: INTS
    }
    attribute {
      name: "group"
      i: 1
      type: INT
    }
    attribute {
      name: "kernel_shape"
      ints: 1
      ints: 1
      type: INTS
    }
    attribute {
      name: "pads"
      ints: 0
      ints: 0
      ints: 0
      ints: 0
      type: INTS
    }
    attribute {
      name: "strides"
      ints: 1
      ints: 1
      type: INTS
    }
  }
  node {
    input: "271"
    input: "272"
    output: "274"
    name: "273"
    op_type: "Mul"
  }
  node {
    input: "274"
    input: "273"
    output: "275"
    name: "274"
    op_type: "Add"
  }
  node {
    input: "275"
    output: "276"
    name: "275"
    op_type: "Relu"
  }
  node {
    input: "276"
    input: "277"
    output: "278"
    name: "277"
    op_type: "Conv"
    attribute {
      name: "dilations"
      ints: 1
      ints: 1
      type: INTS
    }
    attribute {
      name: "group"
      i: 1
      type: INT
    }
    attribute {
      name: "kernel_shape"
      ints: 3
      ints: 3
      type: INTS
    }
    attribute {
      name: "pads"
      ints: 1
      ints: 1
      ints: 1
      ints: 1
      type: INTS
    }
    attribute {
      name: "strides"
      ints: 1
      ints: 1
      type: INTS
    }
  }
  node {
    input: "278"
    input: "279"
    output: "281"
    name: "280"
    op_type: "Mul"
  }
  node {
    input: "281"
    input: "280"
    output: "282"
    name: "281"
    op_type: "Add"
  }
  node {
    input: "282"
    output: "283"
    name: "282"
    op_type: "Relu"
  }
  node {
    input: "283"
    input: "284"
    output: "285"
    name: "284"
    op_type: "Conv"
    attribute {
      name: "dilations"
      ints: 1
      ints: 1
      type: INTS
    }
    attribute {
      name: "group"
      i: 1
      type: INT
    }
    attribute {
      name: "kernel_shape"
      ints: 1
      ints: 1
      type: INTS
    }
    attribute {
      name: "pads"
      ints: 0
      ints: 0
      ints: 0
      ints: 0
      type: INTS
    }
    attribute {
      name: "strides"
      ints: 1
      ints: 1
      type: INTS
    }
  }
  node {
    input: "285"
    input: "286"
    output: "288"
    name: "287"
    op_type: "Mul"
  }
  node {
    input: "288"
    input: "287"
    output: "289"
    name: "288"
    op_type: "Add"
  }
  node {
    input: "289"
    input: "269"
    output: "290"
    name: "289"
    op_type: "Add"
  }
  node {
    input: "290"
    output: "291"
    name: "290"
    op_type: "Relu"
  }
  node {
    input: "291"
    input: "292"
    output: "293"
    name: "292"
    op_type: "Conv"
    attribute {
      name: "dilations"
      ints: 1
      ints: 1
      type: INTS
    }
    attribute {
      name: "group"
      i: 1
      type: INT
    }
    attribute {
      name: "kernel_shape"
      ints: 1
      ints: 1
      type: INTS
    }
    attribute {
      name: "pads"
      ints: 0
      ints: 0
      ints: 0
      ints: 0
      type: INTS
    }
    attribute {
      name: "strides"
      ints: 1
      ints: 1
      type: INTS
    }
  }
  node {
    input: "293"
    input: "294"
    output: "296"
    name: "295"
    op_type: "Mul"
  }
  node {
    input: "296"
    input: "295"
    output: "297"
    name: "296"
    op_type: "Add"
  }
  node {
    input: "297"
    output: "298"
    name: "297"
    op_type: "Relu"
  }
  node {
    input: "298"
    input: "299"
    output: "300"
    name: "299"
    op_type: "Conv"
    attribute {
      name: "dilations"
      ints: 1
      ints: 1
      type: INTS
    }
    attribute {
      name: "group"
      i: 1
      type: INT
    }
    attribute {
      name: "kernel_shape"
      ints: 3
      ints: 3
      type: INTS
    }
    attribute {
      name: "pads"
      ints: 1
      ints: 1
      ints: 1
      ints: 1
      type: INTS
    }
    attribute {
      name: "strides"
      ints: 1
      ints: 1
      type: INTS
    }
  }
  node {
    input: "300"
    input: "301"
    output: "303"
    name: "302"
    op_type: "Mul"
  }
  node {
    input: "303"
    input: "302"
    output: "304"
    name: "303"
    op_type: "Add"
  }
  node {
    input: "304"
    output: "305"
    name: "304"
    op_type: "Relu"
  }
  node {
    input: "305"
    input: "306"
    output: "307"
    name: "306"
    op_type: "Conv"
    attribute {
      name: "dilations"
      ints: 1
      ints: 1
      type: INTS
    }
    attribute {
      name: "group"
      i: 1
      type: INT
    }
    attribute {
      name: "kernel_shape"
      ints: 1
      ints: 1
      type: INTS
    }
    attribute {
      name: "pads"
      ints: 0
      ints: 0
      ints: 0
      ints: 0
      type: INTS
    }
    attribute {
      name: "strides"
      ints: 1
      ints: 1
      type: INTS
    }
  }
  node {
    input: "307"
    input: "308"
    output: "310"
    name: "309"
    op_type: "Mul"
  }
  node {
    input: "310"
    input: "309"
    output: "311"
    name: "310"
    op_type: "Add"
  }
  node {
    input: "311"
    input: "291"
    output: "312"
    name: "311"
    op_type: "Add"
  }
  node {
    input: "312"
    output: "313"
    name: "312"
    op_type: "Relu"
  }
  node {
    input: "313"
    input: "314"
    output: "315"
    name: "314"
    op_type: "Conv"
    attribute {
      name: "dilations"
      ints: 1
      ints: 1
      type: INTS
    }
    attribute {
      name: "group"
      i: 1
      type: INT
    }
    attribute {
      name: "kernel_shape"
      ints: 1
      ints: 1
      type: INTS
    }
    attribute {
      name: "pads"
      ints: 0
      ints: 0
      ints: 0
      ints: 0
      type: INTS
    }
    attribute {
      name: "strides"
      ints: 2
      ints: 2
      type: INTS
    }
  }
  node {
    input: "315"
    input: "316"
    output: "318"
    name: "317"
    op_type: "Mul"
  }
  node {
    input: "318"
    input: "317"
    output: "319"
    name: "318"
    op_type: "Add"
  }
  node {
    input: "319"
    output: "320"
    name: "319"
    op_type: "Relu"
  }
  node {
    input: "320"
    input: "321"
    output: "322"
    name: "321"
    op_type: "Conv"
    attribute {
      name: "dilations"
      ints: 1
      ints: 1
      type: INTS
    }
    attribute {
      name: "group"
      i: 1
      type: INT
    }
    attribute {
      name: "kernel_shape"
      ints: 3
      ints: 3
      type: INTS
    }
    attribute {
      name: "pads"
      ints: 1
      ints: 1
      ints: 1
      ints: 1
      type: INTS
    }
    attribute {
      name: "strides"
      ints: 1
      ints: 1
      type: INTS
    }
  }
  node {
    input: "322"
    input: "323"
    output: "325"
    name: "324"
    op_type: "Mul"
  }
  node {
    input: "325"
    input: "324"
    output: "326"
    name: "325"
    op_type: "Add"
  }
  node {
    input: "326"
    output: "327"
    name: "326"
    op_type: "Relu"
  }
  node {
    input: "327"
    input: "328"
    output: "329"
    name: "328"
    op_type: "Conv"
    attribute {
      name: "dilations"
      ints: 1
      ints: 1
      type: INTS
    }
    attribute {
      name: "group"
      i: 1
      type: INT
    }
    attribute {
      name: "kernel_shape"
      ints: 1
      ints: 1
      type: INTS
    }
    attribute {
      name: "pads"
      ints: 0
      ints: 0
      ints: 0
      ints: 0
      type: INTS
    }
    attribute {
      name: "strides"
      ints: 1
      ints: 1
      type: INTS
    }
  }
  node {
    input: "329"
    input: "330"
    output: "332"
    name: "331"
    op_type: "Mul"
  }
  node {
    input: "332"
    input: "331"
    output: "333"
    name: "332"
    op_type: "Add"
  }
  node {
    input: "313"
    input: "334"
    output: "335"
    name: "334"
    op_type: "Conv"
    attribute {
      name: "dilations"
      ints: 1
      ints: 1
      type: INTS
    }
    attribute {
      name: "group"
      i: 1
      type: INT
    }
    attribute {
      name: "kernel_shape"
      ints: 1
      ints: 1
      type: INTS
    }
    attribute {
      name: "pads"
      ints: 0
      ints: 0
      ints: 0
      ints: 0
      type: INTS
    }
    attribute {
      name: "strides"
      ints: 2
      ints: 2
      type: INTS
    }
  }
  node {
    input: "335"
    input: "336"
    output: "338"
    name: "337"
    op_type: "Mul"
  }
  node {
    input: "338"
    input: "337"
    output: "339"
    name: "338"
    op_type: "Add"
  }
  node {
    input: "333"
    input: "339"
    output: "340"
    name: "339"
    op_type: "Add"
  }
  node {
    input: "340"
    output: "341"
    name: "340"
    op_type: "Relu"
  }
  node {
    input: "341"
    input: "342"
    output: "343"
    name: "342"
    op_type: "Conv"
    attribute {
      name: "dilations"
      ints: 1
      ints: 1
      type: INTS
    }
    attribute {
      name: "group"
      i: 1
      type: INT
    }
    attribute {
      name: "kernel_shape"
      ints: 1
      ints: 1
      type: INTS
    }
    attribute {
      name: "pads"
      ints: 0
      ints: 0
      ints: 0
      ints: 0
      type: INTS
    }
    attribute {
      name: "strides"
      ints: 1
      ints: 1
      type: INTS
    }
  }
  node {
    input: "343"
    input: "344"
    output: "346"
    name: "345"
    op_type: "Mul"
  }
  node {
    input: "346"
    input: "345"
    output: "347"
    name: "346"
    op_type: "Add"
  }
  node {
    input: "347"
    output: "348"
    name: "347"
    op_type: "Relu"
  }
  node {
    input: "348"
    input: "349"
    output: "350"
    name: "349"
    op_type: "Conv"
    attribute {
      name: "dilations"
      ints: 1
      ints: 1
      type: INTS
    }
    attribute {
      name: "group"
      i: 1
      type: INT
    }
    attribute {
      name: "kernel_shape"
      ints: 3
      ints: 3
      type: INTS
    }
    attribute {
      name: "pads"
      ints: 1
      ints: 1
      ints: 1
      ints: 1
      type: INTS
    }
    attribute {
      name: "strides"
      ints: 1
      ints: 1
      type: INTS
    }
  }
  node {
    input: "350"
    input: "351"
    output: "353"
    name: "352"
    op_type: "Mul"
  }
  node {
    input: "353"
    input: "352"
    output: "354"
    name: "353"
    op_type: "Add"
  }
  node {
    input: "354"
    output: "355"
    name: "354"
    op_type: "Relu"
  }
  node {
    input: "355"
    input: "356"
    output: "357"
    name: "356"
    op_type: "Conv"
    attribute {
      name: "dilations"
      ints: 1
      ints: 1
      type: INTS
    }
    attribute {
      name: "group"
      i: 1
      type: INT
    }
    attribute {
      name: "kernel_shape"
      ints: 1
      ints: 1
      type: INTS
    }
    attribute {
      name: "pads"
      ints: 0
      ints: 0
      ints: 0
      ints: 0
      type: INTS
    }
    attribute {
      name: "strides"
      ints: 1
      ints: 1
      type: INTS
    }
  }
  node {
    input: "357"
    input: "358"
    output: "360"
    name: "359"
    op_type: "Mul"
  }
  node {
    input: "360"
    input: "359"
    output: "361"
    name: "360"
    op_type: "Add"
  }
  node {
    input: "361"
    input: "341"
    output: "362"
    name: "361"
    op_type: "Add"
  }
  node {
    input: "362"
    output: "363"
    name: "362"
    op_type: "Relu"
  }
  node {
    input: "363"
    input: "364"
    output: "365"
    name: "364"
    op_type: "Conv"
    attribute {
      name: "dilations"
      ints: 1
      ints: 1
      type: INTS
    }
    attribute {
      name: "group"
      i: 1
      type: INT
    }
    attribute {
      name: "kernel_shape"
      ints: 1
      ints: 1
      type: INTS
    }
    attribute {
      name: "pads"
      ints: 0
      ints: 0
      ints: 0
      ints: 0
      type: INTS
    }
    attribute {
      name: "strides"
      ints: 1
      ints: 1
      type: INTS
    }
  }
  node {
    input: "365"
    input: "366"
    output: "368"
    name: "367"
    op_type: "Mul"
  }
  node {
    input: "368"
    input: "367"
    output: "369"
    name: "368"
    op_type: "Add"
  }
  node {
    input: "369"
    output: "370"
    name: "369"
    op_type: "Relu"
  }
  node {
    input: "370"
    input: "371"
    output: "372"
    name: "371"
    op_type: "Conv"
    attribute {
      name: "dilations"
      ints: 1
      ints: 1
      type: INTS
    }
    attribute {
      name: "group"
      i: 1
      type: INT
    }
    attribute {
      name: "kernel_shape"
      ints: 3
      ints: 3
      type: INTS
    }
    attribute {
      name: "pads"
      ints: 1
      ints: 1
      ints: 1
      ints: 1
      type: INTS
    }
    attribute {
      name: "strides"
      ints: 1
      ints: 1
      type: INTS
    }
  }
  node {
    input: "372"
    input: "373"
    output: "375"
    name: "374"
    op_type: "Mul"
  }
  node {
    input: "375"
    input: "374"
    output: "376"
    name: "375"
    op_type: "Add"
  }
  node {
    input: "376"
    output: "377"
    name: "376"
    op_type: "Relu"
  }
  node {
    input: "377"
    input: "378"
    output: "379"
    name: "378"
    op_type: "Conv"
    attribute {
      name: "dilations"
      ints: 1
      ints: 1
      type: INTS
    }
    attribute {
      name: "group"
      i: 1
      type: INT
    }
    attribute {
      name: "kernel_shape"
      ints: 1
      ints: 1
      type: INTS
    }
    attribute {
      name: "pads"
      ints: 0
      ints: 0
      ints: 0
      ints: 0
      type: INTS
    }
    attribute {
      name: "strides"
      ints: 1
      ints: 1
      type: INTS
    }
  }
  node {
    input: "379"
    input: "380"
    output: "382"
    name: "381"
    op_type: "Mul"
  }
  node {
    input: "382"
    input: "381"
    output: "383"
    name: "382"
    op_type: "Add"
  }
  node {
    input: "383"
    input: "363"
    output: "384"
    name: "383"
    op_type: "Add"
  }
  node {
    input: "384"
    output: "385"
    name: "384"
    op_type: "Relu"
  }
  node {
    input: "385"
    input: "386"
    input: "387"
    output: "388"
    name: "387"
    op_type: "Conv"
    attribute {
      name: "dilations"
      ints: 1
      ints: 1
      type: INTS
    }
    attribute {
      name: "group"
      i: 1
      type: INT
    }
    attribute {
      name: "kernel_shape"
      ints: 1
      ints: 1
      type: INTS
    }
    attribute {
      name: "pads"
      ints: 0
      ints: 0
      ints: 0
      ints: 0
      type: INTS
    }
    attribute {
      name: "strides"
      ints: 1
      ints: 1
      type: INTS
    }
  }
  node {
    input: "388"
    input: "389"
    input: "390"
    output: "391"
    name: "390"
    op_type: "Conv"
    attribute {
      name: "dilations"
      ints: 1
      ints: 1
      type: INTS
    }
    attribute {
      name: "group"
      i: 1
      type: INT
    }
    attribute {
      name: "kernel_shape"
      ints: 3
      ints: 3
      type: INTS
    }
    attribute {
      name: "pads"
      ints: 1
      ints: 1
      ints: 1
      ints: 1
      type: INTS
    }
    attribute {
      name: "strides"
      ints: 1
      ints: 1
      type: INTS
    }
  }
  node {
    output: "392"
    name: "391"
    op_type: "Constant"
    attribute {
      name: "value"
      t {
        data_type: 7
        raw_data: "\002\000\000\000\000\000\000\000"
      }
      type: TENSOR
    }
  }
  node {
    input: "388"
    output: "393"
    name: "392"
    op_type: "Shape"
  }
  node {
    input: "393"
    input: "392"
    output: "394"
    name: "393"
    op_type: "Gather"
    attribute {
      name: "axis"
      i: 0
      type: INT
    }
  }
  node {
    output: "395"
    name: "394"
    op_type: "Constant"
    attribute {
      name: "value"
      t {
        data_type: 7
        raw_data: "\002\000\000\000\000\000\000\000"
      }
      type: TENSOR
    }
  }
  node {
    input: "394"
    input: "395"
    output: "396"
    name: "395"
    op_type: "Mul"
  }
  node {
    output: "398"
    name: "397"
    op_type: "Constant"
    attribute {
      name: "value"
      t {
        data_type: 7
        raw_data: "\003\000\000\000\000\000\000\000"
      }
      type: TENSOR
    }
  }
  node {
    input: "388"
    output: "399"
    name: "398"
    op_type: "Shape"
  }
  node {
    input: "399"
    input: "398"
    output: "400"
    name: "399"
    op_type: "Gather"
    attribute {
      name: "axis"
      i: 0
      type: INT
    }
  }
  node {
    output: "401"
    name: "400"
    op_type: "Constant"
    attribute {
      name: "value"
      t {
        data_type: 7
        raw_data: "\002\000\000\000\000\000\000\000"
      }
      type: TENSOR
    }
  }
  node {
    input: "400"
    input: "401"
    output: "402"
    name: "401"
    op_type: "Mul"
  }
  node {
    input: "396"
    output: "404"
    name: "403"
    op_type: "Unsqueeze"
    attribute {
      name: "axes"
      ints: 0
      type: INTS
    }
  }
  node {
    input: "402"
    output: "405"
    name: "404"
    op_type: "Unsqueeze"
    attribute {
      name: "axes"
      ints: 0
      type: INTS
    }
  }
  node {
    input: "404"
    input: "405"
    output: "406"
    name: "405"
    op_type: "Concat"
    attribute {
      name: "axis"
      i: 0
      type: INT
    }
  }
  node {
    input: "406"
    output: "407"
    name: "406"
    op_type: "Cast"
    attribute {
      name: "to"
      i: 1
      type: INT
    }
  }
  node {
    input: "388"
    output: "408"
    name: "407"
    op_type: "Shape"
  }
  node {
    output: "409"
    name: "408"
    op_type: "Constant"
    attribute {
      name: "value"
      t {
        dims: 1
        data_type: 7
        raw_data: "\002\000\000\000\000\000\000\000"
      }
      type: TENSOR
    }
  }
  node {
    output: "410"
    name: "409"
    op_type: "Constant"
    attribute {
      name: "value"
      t {
        dims: 1
        data_type: 7
        raw_data: "\004\000\000\000\000\000\000\000"
      }
      type: TENSOR
    }
  }
  node {
    input: "408"
    input: "409"
    input: "410"
    output: "411"
    name: "410"
    op_type: "Slice"
  }
  node {
    input: "411"
    output: "412"
    name: "411"
    op_type: "Cast"
    attribute {
      name: "to"
      i: 1
      type: INT
    }
  }
  node {
    output: "413"
    name: "412"
    op_type: "Constant"
    attribute {
      name: "value"
      t {
        dims: 2
        data_type: 1
        raw_data: "\000\000\200?\000\000\200?"
      }
      type: TENSOR
    }
  }
  node {
    input: "407"
    input: "412"
    output: "414"
    name: "413"
    op_type: "Div"
  }
  node {
    input: "413"
    input: "414"
    output: "415"
    name: "414"
    op_type: "Concat"
    attribute {
      name: "axis"
      i: 0
      type: INT
    }
  }
  node {
    input: "388"
    input: "415"
    output: "416"
    name: "415"
    op_type: "Resize"
    attribute {
      name: "mode"
      s: "nearest"
      type: STRING
    }
  }
  node {
    input: "313"
    input: "417"
    input: "418"
    output: "419"
    name: "418"
    op_type: "Conv"
    attribute {
      name: "dilations"
      ints: 1
      ints: 1
      type: INTS
    }
    attribute {
      name: "group"
      i: 1
      type: INT
    }
    attribute {
      name: "kernel_shape"
      ints: 1
      ints: 1
      type: INTS
    }
    attribute {
      name: "pads"
      ints: 0
      ints: 0
      ints: 0
      ints: 0
      type: INTS
    }
    attribute {
      name: "strides"
      ints: 1
      ints: 1
      type: INTS
    }
  }
  node {
    input: "419"
    input: "416"
    output: "420"
    name: "419"
    op_type: "Add"
  }
  node {
    input: "420"
    input: "421"
    input: "422"
    output: "423"
    name: "422"
    op_type: "Conv"
    attribute {
      name: "dilations"
      ints: 1
      ints: 1
      type: INTS
    }
    attribute {
      name: "group"
      i: 1
      type: INT
    }
    attribute {
      name: "kernel_shape"
      ints: 3
      ints: 3
      type: INTS
    }
    attribute {
      name: "pads"
      ints: 1
      ints: 1
      ints: 1
      ints: 1
      type: INTS
    }
    attribute {
      name: "strides"
      ints: 1
      ints: 1
      type: INTS
    }
  }
  node {
    output: "424"
    name: "423"
    op_type: "Constant"
    attribute {
      name: "value"
      t {
        data_type: 7
        raw_data: "\002\000\000\000\000\000\000\000"
      }
      type: TENSOR
    }
  }
  node {
    input: "420"
    output: "425"
    name: "424"
    op_type: "Shape"
  }
  node {
    input: "425"
    input: "424"
    output: "426"
    name: "425"
    op_type: "Gather"
    attribute {
      name: "axis"
      i: 0
      type: INT
    }
  }
  node {
    output: "427"
    name: "426"
    op_type: "Constant"
    attribute {
      name: "value"
      t {
        data_type: 7
        raw_data: "\002\000\000\000\000\000\000\000"
      }
      type: TENSOR
    }
  }
  node {
    input: "426"
    input: "427"
    output: "428"
    name: "427"
    op_type: "Mul"
  }
  node {
    output: "430"
    name: "429"
    op_type: "Constant"
    attribute {
      name: "value"
      t {
        data_type: 7
        raw_data: "\003\000\000\000\000\000\000\000"
      }
      type: TENSOR
    }
  }
  node {
    input: "420"
    output: "431"
    name: "430"
    op_type: "Shape"
  }
  node {
    input: "431"
    input: "430"
    output: "432"
    name: "431"
    op_type: "Gather"
    attribute {
      name: "axis"
      i: 0
      type: INT
    }
  }
  node {
    output: "433"
    name: "432"
    op_type: "Constant"
    attribute {
      name: "value"
      t {
        data_type: 7
        raw_data: "\002\000\000\000\000\000\000\000"
      }
      type: TENSOR
    }
  }
  node {
    input: "432"
    input: "433"
    output: "434"
    name: "433"
    op_type: "Mul"
  }
  node {
    input: "428"
    output: "436"
    name: "435"
    op_type: "Unsqueeze"
    attribute {
      name: "axes"
      ints: 0
      type: INTS
    }
  }
  node {
    input: "434"
    output: "437"
    name: "436"
    op_type: "Unsqueeze"
    attribute {
      name: "axes"
      ints: 0
      type: INTS
    }
  }
  node {
    input: "436"
    input: "437"
    output: "438"
    name: "437"
    op_type: "Concat"
    attribute {
      name: "axis"
      i: 0
      type: INT
    }
  }
  node {
    input: "438"
    output: "439"
    name: "438"
    op_type: "Cast"
    attribute {
      name: "to"
      i: 1
      type: INT
    }
  }
  node {
    input: "420"
    output: "440"
    name: "439"
    op_type: "Shape"
  }
  node {
    output: "441"
    name: "440"
    op_type: "Constant"
    attribute {
      name: "value"
      t {
        dims: 1
        data_type: 7
        raw_data: "\002\000\000\000\000\000\000\000"
      }
      type: TENSOR
    }
  }
  node {
    output: "442"
    name: "441"
    op_type: "Constant"
    attribute {
      name: "value"
      t {
        dims: 1
        data_type: 7
        raw_data: "\004\000\000\000\000\000\000\000"
      }
      type: TENSOR
    }
  }
  node {
    input: "440"
    input: "441"
    input: "442"
    output: "443"
    name: "442"
    op_type: "Slice"
  }
  node {
    input: "443"
    output: "444"
    name: "443"
    op_type: "Cast"
    attribute {
      name: "to"
      i: 1
      type: INT
    }
  }
  node {
    output: "445"
    name: "444"
    op_type: "Constant"
    attribute {
      name: "value"
      t {
        dims: 2
        data_type: 1
        raw_data: "\000\000\200?\000\000\200?"
      }
      type: TENSOR
    }
  }
  node {
    input: "439"
    input: "444"
    output: "446"
    name: "445"
    op_type: "Div"
  }
  node {
    input: "445"
    input: "446"
    output: "447"
    name: "446"
    op_type: "Concat"
    attribute {
      name: "axis"
      i: 0
      type: INT
    }
  }
  node {
    input: "420"
    input: "447"
    output: "448"
    name: "447"
    op_type: "Resize"
    attribute {
      name: "mode"
      s: "nearest"
      type: STRING
    }
  }
  node {
    input: "175"
    input: "449"
    input: "450"
    output: "451"
    name: "450"
    op_type: "Conv"
    attribute {
      name: "dilations"
      ints: 1
      ints: 1
      type: INTS
    }
    attribute {
      name: "group"
      i: 1
      type: INT
    }
    attribute {
      name: "kernel_shape"
      ints: 1
      ints: 1
      type: INTS
    }
    attribute {
      name: "pads"
      ints: 0
      ints: 0
      ints: 0
      ints: 0
      type: INTS
    }
    attribute {
      name: "strides"
      ints: 1
      ints: 1
      type: INTS
    }
  }
  node {
    input: "451"
    input: "448"
    output: "452"
    name: "451"
    op_type: "Add"
  }
  node {
    input: "452"
    input: "453"
    input: "454"
    output: "455"
    name: "454"
    op_type: "Conv"
    attribute {
      name: "dilations"
      ints: 1
      ints: 1
      type: INTS
    }
    attribute {
      name: "group"
      i: 1
      type: INT
    }
    attribute {
      name: "kernel_shape"
      ints: 3
      ints: 3
      type: INTS
    }
    attribute {
      name: "pads"
      ints: 1
      ints: 1
      ints: 1
      ints: 1
      type: INTS
    }
    attribute {
      name: "strides"
      ints: 1
      ints: 1
      type: INTS
    }
  }
  node {
    output: "456"
    name: "455"
    op_type: "Constant"
    attribute {
      name: "value"
      t {
        data_type: 7
        raw_data: "\002\000\000\000\000\000\000\000"
      }
      type: TENSOR
    }
  }
  node {
    input: "452"
    output: "457"
    name: "456"
    op_type: "Shape"
  }
  node {
    input: "457"
    input: "456"
    output: "458"
    name: "457"
    op_type: "Gather"
    attribute {
      name: "axis"
      i: 0
      type: INT
    }
  }
  node {
    output: "459"
    name: "458"
    op_type: "Constant"
    attribute {
      name: "value"
      t {
        data_type: 7
        raw_data: "\002\000\000\000\000\000\000\000"
      }
      type: TENSOR
    }
  }
  node {
    input: "458"
    input: "459"
    output: "460"
    name: "459"
    op_type: "Mul"
  }
  node {
    output: "462"
    name: "461"
    op_type: "Constant"
    attribute {
      name: "value"
      t {
        data_type: 7
        raw_data: "\003\000\000\000\000\000\000\000"
      }
      type: TENSOR
    }
  }
  node {
    input: "452"
    output: "463"
    name: "462"
    op_type: "Shape"
  }
  node {
    input: "463"
    input: "462"
    output: "464"
    name: "463"
    op_type: "Gather"
    attribute {
      name: "axis"
      i: 0
      type: INT
    }
  }
  node {
    output: "465"
    name: "464"
    op_type: "Constant"
    attribute {
      name: "value"
      t {
        data_type: 7
        raw_data: "\002\000\000\000\000\000\000\000"
      }
      type: TENSOR
    }
  }
  node {
    input: "464"
    input: "465"
    output: "466"
    name: "465"
    op_type: "Mul"
  }
  node {
    input: "460"
    output: "468"
    name: "467"
    op_type: "Unsqueeze"
    attribute {
      name: "axes"
      ints: 0
      type: INTS
    }
  }
  node {
    input: "466"
    output: "469"
    name: "468"
    op_type: "Unsqueeze"
    attribute {
      name: "axes"
      ints: 0
      type: INTS
    }
  }
  node {
    input: "468"
    input: "469"
    output: "470"
    name: "469"
    op_type: "Concat"
    attribute {
      name: "axis"
      i: 0
      type: INT
    }
  }
  node {
    input: "470"
    output: "471"
    name: "470"
    op_type: "Cast"
    attribute {
      name: "to"
      i: 1
      type: INT
    }
  }
  node {
    input: "452"
    output: "472"
    name: "471"
    op_type: "Shape"
  }
  node {
    output: "473"
    name: "472"
    op_type: "Constant"
    attribute {
      name: "value"
      t {
        dims: 1
        data_type: 7
        raw_data: "\002\000\000\000\000\000\000\000"
      }
      type: TENSOR
    }
  }
  node {
    output: "474"
    name: "473"
    op_type: "Constant"
    attribute {
      name: "value"
      t {
        dims: 1
        data_type: 7
        raw_data: "\004\000\000\000\000\000\000\000"
      }
      type: TENSOR
    }
  }
  node {
    input: "472"
    input: "473"
    input: "474"
    output: "475"
    name: "474"
    op_type: "Slice"
  }
  node {
    input: "475"
    output: "476"
    name: "475"
    op_type: "Cast"
    attribute {
      name: "to"
      i: 1
      type: INT
    }
  }
  node {
    output: "477"
    name: "476"
    op_type: "Constant"
    attribute {
      name: "value"
      t {
        dims: 2
        data_type: 1
        raw_data: "\000\000\200?\000\000\200?"
      }
      type: TENSOR
    }
  }
  node {
    input: "471"
    input: "476"
    output: "478"
    name: "477"
    op_type: "Div"
  }
  node {
    input: "477"
    input: "478"
    output: "479"
    name: "478"
    op_type: "Concat"
    attribute {
      name: "axis"
      i: 0
      type: INT
    }
  }
  node {
    input: "452"
    input: "479"
    output: "480"
    name: "479"
    op_type: "Resize"
    attribute {
      name: "mode"
      s: "nearest"
      type: STRING
    }
  }
  node {
    input: "81"
    input: "481"
    input: "482"
    output: "483"
    name: "482"
    op_type: "Conv"
    attribute {
      name: "dilations"
      ints: 1
      ints: 1
      type: INTS
    }
    attribute {
      name: "group"
      i: 1
      type: INT
    }
    attribute {
      name: "kernel_shape"
      ints: 1
      ints: 1
      type: INTS
    }
    attribute {
      name: "pads"
      ints: 0
      ints: 0
      ints: 0
      ints: 0
      type: INTS
    }
    attribute {
      name: "strides"
      ints: 1
      ints: 1
      type: INTS
    }
  }
  node {
    input: "483"
    input: "480"
    output: "484"
    name: "483"
    op_type: "Add"
  }
  node {
    input: "484"
    input: "485"
    input: "486"
    output: "487"
    name: "486"
    op_type: "Conv"
    attribute {
      name: "dilations"
      ints: 1
      ints: 1
      type: INTS
    }
    attribute {
      name: "group"
      i: 1
      type: INT
    }
    attribute {
      name: "kernel_shape"
      ints: 3
      ints: 3
      type: INTS
    }
    attribute {
      name: "pads"
      ints: 1
      ints: 1
      ints: 1
      ints: 1
      type: INTS
    }
    attribute {
      name: "strides"
      ints: 1
      ints: 1
      type: INTS
    }
  }
  node {
    input: "391"
    output: "488"
    name: "487"
    op_type: "MaxPool"
    attribute {
      name: "ceil_mode"
      i: 0
      type: INT
    }
    attribute {
      name: "kernel_shape"
      ints: 1
      ints: 1
      type: INTS
    }
    attribute {
      name: "pads"
      ints: 0
      ints: 0
      ints: 0
      ints: 0
      type: INTS
    }
    attribute {
      name: "strides"
      ints: 2
      ints: 2
      type: INTS
    }
  }
  node {
    input: "487"
    input: "489"
    input: "490"
    output: "491"
    name: "490"
    op_type: "Conv"
    attribute {
      name: "dilations"
      ints: 1
      ints: 1
      type: INTS
    }
    attribute {
      name: "group"
      i: 1
      type: INT
    }
    attribute {
      name: "kernel_shape"
      ints: 3
      ints: 3
      type: INTS
    }
    attribute {
      name: "pads"
      ints: 1
      ints: 1
      ints: 1
      ints: 1
      type: INTS
    }
    attribute {
      name: "strides"
      ints: 1
      ints: 1
      type: INTS
    }
  }
  node {
    input: "491"
    output: "492"
    name: "491"
    op_type: "Relu"
  }
  node {
    output: "494"
    name: "493"
    op_type: "Constant"
    attribute {
      name: "value"
      t {
        dims: 3
        data_type: 1
        raw_data: "\270\363\344>\302\222(?\022\214\017>"
      }
      type: TENSOR
    }
  }
  node {
    input: "492"
    input: "493"
    input: "494"
    output: "495"
    name: "494"
    op_type: "Conv"
    attribute {
      name: "dilations"
      ints: 1
      ints: 1
      type: INTS
    }
    attribute {
      name: "group"
      i: 1
      type: INT
    }
    attribute {
      name: "kernel_shape"
      ints: 1
      ints: 1
      type: INTS
    }
    attribute {
      name: "pads"
      ints: 0
      ints: 0
      ints: 0
      ints: 0
      type: INTS
    }
    attribute {
      name: "strides"
      ints: 1
      ints: 1
      type: INTS
    }
  }
  node {
    output: "497"
    name: "496"
    op_type: "Constant"
    attribute {
      name: "value"
      t {
        dims: 12
        data_type: 1
        raw_data: "…"
      }
      type: TENSOR
    }
  }
  node {
    input: "492"
    input: "496"
    input: "497"
    output: "498"
    name: "497"
    op_type: "Conv"
    attribute {
      name: "dilations"
      ints: 1
      ints: 1
      type: INTS
    }
    attribute {
      name: "group"
      i: 1
      type: INT
    }
    attribute {
      name: "kernel_shape"
      ints: 1
      ints: 1
      type: INTS
    }
    attribute {
      name: "pads"
      ints: 0
      ints: 0
      ints: 0
      ints: 0
      type: INTS
    }
    attribute {
      name: "strides"
      ints: 1
      ints: 1
      type: INTS
    }
  }
  node {
    input: "455"
    input: "489"
    input: "490"
    output: "499"
    name: "498"
    op_type: "Conv"
    attribute {
      name: "dilations"
      ints: 1
      ints: 1
      type: INTS
    }
    attribute {
      name: "group"
      i: 1
      type: INT
    }
    attribute {
      name: "kernel_shape"
      ints: 3
      ints: 3
      type: INTS
    }
    attribute {
      name: "pads"
      ints: 1
      ints: 1
      ints: 1
      ints: 1
      type: INTS
    }
    attribute {
      name: "strides"
      ints: 1
      ints: 1
      type: INTS
    }
  }
  node {
    input: "499"
    output: "500"
    name: "499"
    op_type: "Relu"
  }
  node {
    input: "500"
    input: "493"
    input: "494"
    output: "501"
    name: "500"
    op_type: "Conv"
    attribute {
      name: "dilations"
      ints: 1
      ints: 1
      type: INTS
    }
    attribute {
      name: "group"
      i: 1
      type: INT
    }
    attribute {
      name: "kernel_shape"
      ints: 1
      ints: 1
      type: INTS
    }
    attribute {
      name: "pads"
      ints: 0
      ints: 0
      ints: 0
      ints: 0
      type: INTS
    }
    attribute {
      name: "strides"
      ints: 1
      ints: 1
      type: INTS
    }
  }
  node {
    input: "500"
    input: "496"
    input: "497"
    output: "502"
    name: "501"
    op_type: "Conv"
    attribute {
      name: "dilations"
      ints: 1
      ints: 1
      type: INTS
    }
    attribute {
      name: "group"
      i: 1
      type: INT
    }
    attribute {
      name: "kernel_shape"
      ints: 1
      ints: 1
      type: INTS
    }
    attribute {
      name: "pads"
      ints: 0
      ints: 0
      ints: 0
      ints: 0
      type: INTS
    }
    attribute {
      name: "strides"
      ints: 1
      ints: 1
      type: INTS
    }
  }
  node {
    input: "423"
    input: "489"
    input: "490"
    output: "503"
    name: "502"
    op_type: "Conv"
    attribute {
      name: "dilations"
      ints: 1
      ints: 1
      type: INTS
    }
    attribute {
      name: "group"
      i: 1
      type: INT
    }
    attribute {
      name: "kernel_shape"
      ints: 3
      ints: 3
      type: INTS
    }
    attribute {
      name: "pads"
      ints: 1
      ints: 1
      ints: 1
      ints: 1
      type: INTS
    }
    attribute {
      name: "strides"
      ints: 1
      ints: 1
      type: INTS
    }
  }
  node {
    input: "503"
    output: "504"
    name: "503"
    op_type: "Relu"
  }
  node {
    input: "504"
    input: "493"
    input: "494"
    output: "505"
    name: "504"
    op_type: "Conv"
    attribute {
      name: "dilations"
      ints: 1
      ints: 1
      type: INTS
    }
    attribute {
      name: "group"
      i: 1
      type: INT
    }
    attribute {
      name: "kernel_shape"
      ints: 1
      ints: 1
      type: INTS
    }
    attribute {
      name: "pads"
      ints: 0
      ints: 0
      ints: 0
      ints: 0
      type: INTS
    }
    attribute {
      name: "strides"
      ints: 1
      ints: 1
      type: INTS
    }
  }
  node {
    input: "504"
    input: "496"
    input: "497"
    output: "506"
    name: "505"
    op_type: "Conv"
    attribute {
      name: "dilations"
      ints: 1
      ints: 1
      type: INTS
    }
    attribute {
      name: "group"
      i: 1
      type: INT
    }
    attribute {
      name: "kernel_shape"
      ints: 1
      ints: 1
      type: INTS
    }
    attribute {
      name: "pads"
      ints: 0
      ints: 0
      ints: 0
      ints: 0
      type: INTS
    }
    attribute {
      name: "strides"
      ints: 1
      ints: 1
      type: INTS
    }
  }
  node {
    input: "391"
    input: "489"
    input: "490"
    output: "507"
    name: "506"
    op_type: "Conv"
    attribute {
      name: "dilations"
      ints: 1
      ints: 1
      type: INTS
    }
    attribute {
      name: "group"
      i: 1
      type: INT
    }
    attribute {
      name: "kernel_shape"
      ints: 3
      ints: 3
      type: INTS
    }
    attribute {
      name: "pads"
      ints: 1
      ints: 1
      ints: 1
      ints: 1
      type: INTS
    }
    attribute {
      name: "strides"
      ints: 1
      ints: 1
      type: INTS
    }
  }
  node {
    input: "507"
    output: "508"
    name: "507"
    op_type: "Relu"
  }
  node {
    input: "508"
    input: "493"
    input: "494"
    output: "509"
    name: "508"
    op_type: "Conv"
    attribute {
      name: "dilations"
      ints: 1
      ints: 1
      type: INTS
    }
    attribute {
      name: "group"
      i: 1
      type: INT
    }
    attribute {
      name: "kernel_shape"
      ints: 1
      ints: 1
      type: INTS
    }
    attribute {
      name: "pads"
      ints: 0
      ints: 0
      ints: 0
      ints: 0
      type: INTS
    }
    attribute {
      name: "strides"
      ints: 1
      ints: 1
      type: INTS
    }
  }
  node {
    input: "508"
    input: "496"
    input: "497"
    output: "510"
    name: "509"
    op_type: "Conv"
    attribute {
      name: "dilations"
      ints: 1
      ints: 1
      type: INTS
    }
    attribute {
      name: "group"
      i: 1
      type: INT
    }
    attribute {
      name: "kernel_shape"
      ints: 1
      ints: 1
      type: INTS
    }
    attribute {
      name: "pads"
      ints: 0
      ints: 0
      ints: 0
      ints: 0
      type: INTS
    }
    attribute {
      name: "strides"
      ints: 1
      ints: 1
      type: INTS
    }
  }
  node {
    input: "488"
    input: "489"
    input: "490"
    output: "511"
    name: "510"
    op_type: "Conv"
    attribute {
      name: "dilations"
      ints: 1
      ints: 1
      type: INTS
    }
    attribute {
      name: "group"
      i: 1
      type: INT
    }
    attribute {
      name: "kernel_shape"
      ints: 3
      ints: 3
      type: INTS
    }
    attribute {
      name: "pads"
      ints: 1
      ints: 1
      ints: 1
      ints: 1
      type: INTS
    }
    attribute {
      name: "strides"
      ints: 1
      ints: 1
      type: INTS
    }
  }
  node {
    input: "511"
    output: "512"
    name: "511"
    op_type: "Relu"
  }
  node {
    input: "512"
    input: "493"
    input: "494"
    output: "513"
    name: "512"
    op_type: "Conv"
    attribute {
      name: "dilations"
      ints: 1
      ints: 1
      type: INTS
    }
    attribute {
      name: "group"
      i: 1
      type: INT
    }
    attribute {
      name: "kernel_shape"
      ints: 1
      ints: 1
      type: INTS
    }
    attribute {
      name: "pads"
      ints: 0
      ints: 0
      ints: 0
      ints: 0
      type: INTS
    }
    attribute {
      name: "strides"
      ints: 1
      ints: 1
      type: INTS
    }
  }
  node {
    input: "512"
    input: "496"
    input: "497"
    output: "514"
    name: "513"
    op_type: "Conv"
    attribute {
      name: "dilations"
      ints: 1
      ints: 1
      type: INTS
    }
    attribute {
      name: "group"
      i: 1
      type: INT
    }
    attribute {
      name: "kernel_shape"
      ints: 1
      ints: 1
      type: INTS
    }
    attribute {
      name: "pads"
      ints: 0
      ints: 0
      ints: 0
      ints: 0
      type: INTS
    }
    attribute {
      name: "strides"
      ints: 1
      ints: 1
      type: INTS
    }
  }
  node {
    output: "515"
    name: "514"
    op_type: "Constant"
    attribute {
      name: "value"
      t {
        data_type: 7
        raw_data: "\002\000\000\000\000\000\000\000"
      }
      type: TENSOR
    }
  }
  node {
    input: "487"
    output: "516"
    name: "515"
    op_type: "Shape"
  }
  node {
    input: "516"
    input: "515"
    output: "517"
    name: "516"
    op_type: "Gather"
    attribute {
      name: "axis"
      i: 0
      type: INT
    }
  }
  node {
    output: "518"
    name: "517"
    op_type: "Constant"
    attribute {
      name: "value"
      t {
        data_type: 7
        raw_data: "\003\000\000\000\000\000\000\000"
      }
      type: TENSOR
    }
  }
  node {
    input: "487"
    output: "519"
    name: "518"
    op_type: "Shape"
  }
  node {
    input: "519"
    input: "518"
    output: "520"
    name: "519"
    op_type: "Gather"
    attribute {
      name: "axis"
      i: 0
      type: INT
    }
  }
  node {
    output: "521"
    name: "520"
    op_type: "Constant"
    attribute {
      name: "value"
      t {
        data_type: 7
        raw_data: "\002\000\000\000\000\000\000\000"
      }
      type: TENSOR
    }
  }
  node {
    input: "455"
    output: "522"
    name: "521"
    op_type: "Shape"
  }
  node {
    input: "522"
    input: "521"
    output: "523"
    name: "522"
    op_type: "Gather"
    attribute {
      name: "axis"
      i: 0
      type: INT
    }
  }
  node {
    output: "524"
    name: "523"
    op_type: "Constant"
    attribute {
      name: "value"
      t {
        data_type: 7
        raw_data: "\003\000\000\000\000\000\000\000"
      }
      type: TENSOR
    }
  }
  node {
    input: "455"
    output: "525"
    name: "524"
    op_type: "Shape"
  }
  node {
    input: "525"
    input: "524"
    output: "526"
    name: "525"
    op_type: "Gather"
    attribute {
      name: "axis"
      i: 0
      type: INT
    }
  }
  node {
    output: "527"
    name: "526"
    op_type: "Constant"
    attribute {
      name: "value"
      t {
        data_type: 7
        raw_data: "\002\000\000\000\000\000\000\000"
      }
      type: TENSOR
    }
  }
  node {
    input: "423"
    output: "528"
    name: "527"
    op_type: "Shape"
  }
  node {
    input: "528"
    input: "527"
    output: "529"
    name: "528"
    op_type: "Gather"
    attribute {
      name: "axis"
      i: 0
      type: INT
    }
  }
  node {
    output: "530"
    name: "529"
    op_type: "Constant"
    attribute {
      name: "value"
      t {
        data_type: 7
        raw_data: "\003\000\000\000\000\000\000\000"
      }
      type: TENSOR
    }
  }
  node {
    input: "423"
    output: "531"
    name: "530"
    op_type: "Shape"
  }
  node {
    input: "531"
    input: "530"
    output: "532"
    name: "531"
    op_type: "Gather"
    attribute {
      name: "axis"
      i: 0
      type: INT
    }
  }
  node {
    output: "533"
    name: "532"
    op_type: "Constant"
    attribute {
      name: "value"
      t {
        data_type: 7
        raw_data: "\002\000\000\000\000\000\000\000"
      }
      type: TENSOR
    }
  }
  node {
    input: "391"
    output: "534"
    name: "533"
    op_type: "Shape"
  }
  node {
    input: "534"
    input: "533"
    output: "535"
    name: "534"
    op_type: "Gather"
    attribute {
      name: "axis"
      i: 0
      type: INT
    }
  }
  node {
    output: "536"
    name: "535"
    op_type: "Constant"
    attribute {
      name: "value"
      t {
        data_type: 7
        raw_data: "\003\000\000\000\000\000\000\000"
      }
      type: TENSOR
    }
  }
  node {
    input: "391"
    output: "537"
    name: "536"
    op_type: "Shape"
  }
  node {
    input: "537"
    input: "536"
    output: "538"
    name: "537"
    op_type: "Gather"
    attribute {
      name: "axis"
      i: 0
      type: INT
    }
  }
  node {
    output: "539"
    name: "538"
    op_type: "Constant"
    attribute {
      name: "value"
      t {
        data_type: 7
        raw_data: "\002\000\000\000\000\000\000\000"
      }
      type: TENSOR
    }
  }
  node {
    input: "488"
    output: "540"
    name: "539"
    op_type: "Shape"
  }
  node {
    input: "540"
    input: "539"
    output: "541"
    name: "540"
    op_type: "Gather"
    attribute {
      name: "axis"
      i: 0
      type: INT
    }
  }
  node {
    output: "542"
    name: "541"
    op_type: "Constant"
    attribute {
      name: "value"
      t {
        data_type: 7
        raw_data: "\003\000\000\000\000\000\000\000"
      }
      type: TENSOR
    }
  }
  node {
    input: "488"
    output: "543"
    name: "542"
    op_type: "Shape"
  }
  node {
    input: "543"
    input: "542"
    output: "544"
    name: "543"
    op_type: "Gather"
    attribute {
      name: "axis"
      i: 0
      type: INT
    }
  }
  node {
    output: "545"
    name: "544"
    op_type: "Constant"
    attribute {
      name: "value"
      t {
        data_type: 7
        raw_data: "\004\000\000\000\000\000\000\000"
      }
      type: TENSOR
    }
  }
  node {
    input: "520"
    input: "545"
    output: "546"
    name: "545"
    op_type: "Mul"
  }
  node {
    input: "546"
    output: "547"
    name: "546"
    op_type: "Unsqueeze"
    attribute {
      name: "axes"
      ints: 0
      type: INTS
    }
  }
  node {
    input: "547"
    output: "548"
    name: "547"
    op_type: "Concat"
    attribute {
      name: "axis"
      i: 0
      type: INT
    }
  }
  node {
    input: "548"
    output: "549"
    name: "548"
    op_type: "ConstantOfShape"
    attribute {
      name: "value"
      t {
        dims: 1
        data_type: 1
        raw_data: "\000\000\200?"
      }
      type: TENSOR
    }
  }
  node {
    input: "549"
    output: "550"
    name: "549"
    op_type: "Cast"
    attribute {
      name: "to"
      i: 1
      type: INT
    }
  }
  node {
    input: "550"
    output: "551"
    name: "550"
    op_type: "NonZero"
  }
  node {
    input: "551"
    output: "552"
    name: "551"
    op_type: "Transpose"
    attribute {
      name: "perm"
      ints: 1
      ints: 0
      type: INTS
    }
  }
  node {
    output: "553"
    name: "552"
    op_type: "Constant"
    attribute {
      name: "value"
      t {
        data_type: 7
        raw_data: "\004\000\000\000\000\000\000\000"
      }
      type: TENSOR
    }
  }
  node {
    input: "520"
    output: "554"
    name: "553"
    op_type: "Unsqueeze"
    attribute {
      name: "axes"
      ints: 0
      type: INTS
    }
  }
  node {
    input: "553"
    output: "555"
    name: "554"
    op_type: "Unsqueeze"
    attribute {
      name: "axes"
      ints: 0
      type: INTS
    }
  }
  node {
    input: "554"
    input: "555"
    output: "556"
    name: "555"
    op_type: "Concat"
    attribute {
      name: "axis"
      i: 0
      type: INT
    }
  }
  node {
    input: "552"
    input: "556"
    output: "557"
    name: "556"
    op_type: "Reshape"
  }
  node {
    input: "557"
    output: "558"
    name: "557"
    op_type: "Cast"
    attribute {
      name: "to"
      i: 1
      type: INT
    }
  }
  node {
    output: "559"
    name: "558"
    op_type: "Constant"
    attribute {
      name: "value"
      t {
        dims: 1
        data_type: 7
        raw_data: "\000\000\000\000\000\000\000\000"
      }
      type: TENSOR
    }
  }
  node {
    input: "558"
    input: "559"
    output: "560"
    name: "559"
    op_type: "Gather"
    attribute {
      name: "axis"
      i: 1
      type: INT
    }
  }
  node {
    input: "560"
    output: "561"
    name: "560"
    op_type: "Cast"
    attribute {
      name: "to"
      i: 1
      type: INT
    }
  }
  node {
    output: "562"
    name: "561"
    op_type: "Constant"
    attribute {
      name: "value"
      t {
        data_type: 7
        raw_data: "\004\000\000\000\000\000\000\000"
      }
      type: TENSOR
    }
  }
  node {
    input: "517"
    input: "562"
    output: "563"
    name: "562"
    op_type: "Mul"
  }
  node {
    input: "563"
    output: "564"
    name: "563"
    op_type: "Unsqueeze"
    attribute {
      name: "axes"
      ints: 0
      type: INTS
    }
  }
  node {
    input: "564"
    output: "565"
    name: "564"
    op_type: "Concat"
    attribute {
      name: "axis"
      i: 0
      type: INT
    }
  }
  node {
    input: "565"
    output: "566"
    name: "565"
    op_type: "ConstantOfShape"
    attribute {
      name: "value"
      t {
        dims: 1
        data_type: 1
        raw_data: "\000\000\200?"
      }
      type: TENSOR
    }
  }
  node {
    input: "566"
    output: "567"
    name: "566"
    op_type: "Cast"
    attribute {
      name: "to"
      i: 1
      type: INT
    }
  }
  node {
    input: "567"
    output: "568"
    name: "567"
    op_type: "NonZero"
  }
  node {
    input: "568"
    output: "569"
    name: "568"
    op_type: "Transpose"
    attribute {
      name: "perm"
      ints: 1
      ints: 0
      type: INTS
    }
  }
  node {
    output: "570"
    name: "569"
    op_type: "Constant"
    attribute {
      name: "value"
      t {
        data_type: 7
        raw_data: "\004\000\000\000\000\000\000\000"
      }
      type: TENSOR
    }
  }
  node {
    input: "517"
    output: "571"
    name: "570"
    op_type: "Unsqueeze"
    attribute {
      name: "axes"
      ints: 0
      type: INTS
    }
  }
  node {
    input: "570"
    output: "572"
    name: "571"
    op_type: "Unsqueeze"
    attribute {
      name: "axes"
      ints: 0
      type: INTS
    }
  }
  node {
    input: "571"
    input: "572"
    output: "573"
    name: "572"
    op_type: "Concat"
    attribute {
      name: "axis"
      i: 0
      type: INT
    }
  }
  node {
    input: "569"
    input: "573"
    output: "574"
    name: "573"
    op_type: "Reshape"
  }
  node {
    input: "574"
    output: "575"
    name: "574"
    op_type: "Cast"
    attribute {
      name: "to"
      i: 1
      type: INT
    }
  }
  node {
    output: "576"
    name: "575"
    op_type: "Constant"
    attribute {
      name: "value"
      t {
        dims: 1
        data_type: 7
        raw_data: "\000\000\000\000\000\000\000\000"
      }
      type: TENSOR
    }
  }
  node {
    input: "575"
    input: "576"
    output: "577"
    name: "576"
    op_type: "Gather"
    attribute {
      name: "axis"
      i: 1
      type: INT
    }
  }
  node {
    input: "577"
    output: "578"
    name: "577"
    op_type: "Cast"
    attribute {
      name: "to"
      i: 1
      type: INT
    }
  }
  node {
    output: "579"
    name: "578"
    op_type: "Constant"
    attribute {
      name: "value"
      t {
        dims: 2
        data_type: 7
        raw_data: "\377\377\377\377\377\377\377\377\001\000\000\000\000\000\000\000"
      }
      type: TENSOR
    }
  }
  node {
    input: "578"
    input: "579"
    output: "580"
    name: "579"
    op_type: "Reshape"
  }
  node {
    input: "517"
    output: "581"
    name: "580"
    op_type: "Unsqueeze"
    attribute {
      name: "axes"
      ints: 0
      type: INTS
    }
  }
  node {
    input: "520"
    output: "582"
    name: "581"
    op_type: "Unsqueeze"
    attribute {
      name: "axes"
      ints: 0
      type: INTS
    }
  }
  node {
    input: "581"
    input: "582"
    output: "583"
    name: "582"
    op_type: "Concat"
    attribute {
      name: "axis"
      i: 0
      type: INT
    }
  }
  node {
    input: "580"
    input: "583"
    output: "584"
    name: "583"
    op_type: "Expand"
  }
  node {
    output: "585"
    name: "584"
    op_type: "Constant"
    attribute {
      name: "value"
      t {
        dims: 2
        data_type: 7
        raw_data: "\001\000\000\000\000\000\000\000\377\377\377\377\377\377\377\377"
      }
      type: TENSOR
    }
  }
  node {
    input: "561"
    input: "585"
    output: "586"
    name: "585"
    op_type: "Reshape"
  }
  node {
    input: "517"
    output: "587"
    name: "586"
    op_type: "Unsqueeze"
    attribute {
      name: "axes"
      ints: 0
      type: INTS
    }
  }
  node {
    input: "520"
    output: "588"
    name: "587"
    op_type: "Unsqueeze"
    attribute {
      name: "axes"
      ints: 0
      type: INTS
    }
  }
  node {
    input: "587"
    input: "588"
    output: "589"
    name: "588"
    op_type: "Concat"
    attribute {
      name: "axis"
      i: 0
      type: INT
    }
  }
  node {
    input: "586"
    input: "589"
    output: "590"
    name: "589"
    op_type: "Expand"
  }
  node {
    output: "591"
    name: "590"
    op_type: "Constant"
    attribute {
      name: "value"
      t {
        dims: 1
        data_type: 7
        raw_data: "\377\377\377\377\377\377\377\377"
      }
      type: TENSOR
    }
  }
  node {
    input: "590"
    input: "591"
    output: "592"
    name: "591"
    op_type: "Reshape"
  }
  node {
    output: "593"
    name: "592"
    op_type: "Constant"
    attribute {
      name: "value"
      t {
        dims: 1
        data_type: 7
        raw_data: "\377\377\377\377\377\377\377\377"
      }
      type: TENSOR
    }
  }
  node {
    input: "584"
    input: "593"
    output: "594"
    name: "593"
    op_type: "Reshape"
  }
  node {
    input: "592"
    output: "595"
    name: "594"
    op_type: "Unsqueeze"
    attribute {
      name: "axes"
      ints: 1
      type: INTS
    }
  }
  node {
    input: "594"
    output: "596"
    name: "595"
    op_type: "Unsqueeze"
    attribute {
      name: "axes"
      ints: 1
      type: INTS
    }
  }
  node {
    input: "592"
    output: "597"
    name: "596"
    op_type: "Unsqueeze"
    attribute {
      name: "axes"
      ints: 1
      type: INTS
    }
  }
  node {
    input: "594"
    output: "598"
    name: "597"
    op_type: "Unsqueeze"
    attribute {
      name: "axes"
      ints: 1
      type: INTS
    }
  }
  node {
    input: "595"
    input: "596"
    input: "597"
    input: "598"
    output: "599"
    name: "598"
    op_type: "Concat"
    attribute {
      name: "axis"
      i: 1
      type: INT
    }
  }
  node {
    output: "600"
    name: "599"
    op_type: "Constant"
    attribute {
      name: "value"
      t {
        dims: 3
        data_type: 7
        raw_data: "\377\377\377\377\377\377\377\377\001\000\000\000\000\000\000\000\004\000\000\000\000\000\000\000"
      }
      type: TENSOR
    }
  }
  node {
    input: "599"
    input: "600"
    output: "601"
    name: "600"
    op_type: "Reshape"
  }
  node {
    output: "602"
    name: "601"
    op_type: "Constant"
    attribute {
      name: "value"
      t {
        dims: 1
        dims: 3
        dims: 4
        data_type: 1
        raw_data: "…"
      }
      type: TENSOR
    }
  }
  node {
    input: "601"
    input: "602"
    output: "603"
    name: "602"
    op_type: "Add"
  }
  node {
    output: "604"
    name: "603"
    op_type: "Constant"
    attribute {
      name: "value"
      t {
        dims: 2
        data_type: 7
        raw_data: "\377\377\377\377\377\377\377\377\004\000\000\000\000\000\000\000"
      }
      type: TENSOR
    }
  }
  node {
    input: "603"
    input: "604"
    output: "605"
    name: "604"
    op_type: "Reshape"
  }
  node {
    output: "606"
    name: "605"
    op_type: "Constant"
    attribute {
      name: "value"
      t {
        data_type: 7
        raw_data: "\010\000\000\000\000\000\000\000"
      }
      type: TENSOR
    }
  }
  node {
    input: "526"
    input: "606"
    output: "607"
    name: "606"
    op_type: "Mul"
  }
  node {
    input: "607"
    output: "608"
    name: "607"
    op_type: "Unsqueeze"
    attribute {
      name: "axes"
      ints: 0
      type: INTS
    }
  }
  node {
    input: "608"
    output: "609"
    name: "608"
    op_type: "Concat"
    attribute {
      name: "axis"
      i: 0
      type: INT
    }
  }
  node {
    input: "609"
    output: "610"
    name: "609"
    op_type: "ConstantOfShape"
    attribute {
      name: "value"
      t {
        dims: 1
        data_type: 1
        raw_data: "\000\000\200?"
      }
      type: TENSOR
    }
  }
  node {
    input: "610"
    output: "611"
    name: "610"
    op_type: "Cast"
    attribute {
      name: "to"
      i: 1
      type: INT
    }
  }
  node {
    input: "611"
    output: "612"
    name: "611"
    op_type: "NonZero"
  }
  node {
    input: "612"
    output: "613"
    name: "612"
    op_type: "Transpose"
    attribute {
      name: "perm"
      ints: 1
      ints: 0
      type: INTS
    }
  }
  node {
    output: "614"
    name: "613"
    op_type: "Constant"
    attribute {
      name: "value"
      t {
        data_type: 7
        raw_data: "\010\000\000\000\000\000\000\000"
      }
      type: TENSOR
    }
  }
  node {
    input: "526"
    output: "615"
    name: "614"
    op_type: "Unsqueeze"
    attribute {
      name: "axes"
      ints: 0
      type: INTS
    }
  }
  node {
    input: "614"
    output: "616"
    name: "615"
    op_type: "Unsqueeze"
    attribute {
      name: "axes"
      ints: 0
      type: INTS
    }
  }
  node {
    input: "615"
    input: "616"
    output: "617"
    name: "616"
    op_type: "Concat"
    attribute {
      name: "axis"
      i: 0
      type: INT
    }
  }
  node {
    input: "613"
    input: "617"
    output: "618"
    name: "617"
    op_type: "Reshape"
  }
  node {
    input: "618"
    output: "619"
    name: "618"
    op_type: "Cast"
    attribute {
      name: "to"
      i: 1
      type: INT
    }
  }
  node {
    output: "620"
    name: "619"
    op_type: "Constant"
    attribute {
      name: "value"
      t {
        dims: 1
        data_type: 7
        raw_data: "\000\000\000\000\000\000\000\000"
      }
      type: TENSOR
    }
  }
  node {
    input: "619"
    input: "620"
    output: "621"
    name: "620"
    op_type: "Gather"
    attribute {
      name: "axis"
      i: 1
      type: INT
    }
  }
  node {
    input: "621"
    output: "622"
    name: "621"
    op_type: "Cast"
    attribute {
      name: "to"
      i: 1
      type: INT
    }
  }
  node {
    output: "623"
    name: "622"
    op_type: "Constant"
    attribute {
      name: "value"
      t {
        data_type: 7
        raw_data: "\010\000\000\000\000\000\000\000"
      }
      type: TENSOR
    }
  }
  node {
    input: "523"
    input: "623"
    output: "624"
    name: "623"
    op_type: "Mul"
  }
  node {
    input: "624"
    output: "625"
    name: "624"
    op_type: "Unsqueeze"
    attribute {
      name: "axes"
      ints: 0
      type: INTS
    }
  }
  node {
    input: "625"
    output: "626"
    name: "625"
    op_type: "Concat"
    attribute {
      name: "axis"
      i: 0
      type: INT
    }
  }
  node {
    input: "626"
    output: "627"
    name: "626"
    op_type: "ConstantOfShape"
    attribute {
      name: "value"
      t {
        dims: 1
        data_type: 1
        raw_data: "\000\000\200?"
      }
      type: TENSOR
    }
  }
  node {
    input: "627"
    output: "628"
    name: "627"
    op_type: "Cast"
    attribute {
      name: "to"
      i: 1
      type: INT
    }
  }
  node {
    input: "628"
    output: "629"
    name: "628"
    op_type: "NonZero"
  }
  node {
    input: "629"
    output: "630"
    name: "629"
    op_type: "Transpose"
    attribute {
      name: "perm"
      ints: 1
      ints: 0
      type: INTS
    }
  }
  node {
    output: "631"
    name: "630"
    op_type: "Constant"
    attribute {
      name: "value"
      t {
        data_type: 7
        raw_data: "\010\000\000\000\000\000\000\000"
      }
      type: TENSOR
    }
  }
  node {
    input: "523"
    output: "632"
    name: "631"
    op_type: "Unsqueeze"
    attribute {
      name: "axes"
      ints: 0
      type: INTS
    }
  }
  node {
    input: "631"
    output: "633"
    name: "632"
    op_type: "Unsqueeze"
    attribute {
      name: "axes"
      ints: 0
      type: INTS
    }
  }
  node {
    input: "632"
    input: "633"
    output: "634"
    name: "633"
    op_type: "Concat"
    attribute {
      name: "axis"
      i: 0
      type: INT
    }
  }
  node {
    input: "630"
    input: "634"
    output: "635"
    name: "634"
    op_type: "Reshape"
  }
  node {
    input: "635"
    output: "636"
    name: "635"
    op_type: "Cast"
    attribute {
      name: "to"
      i: 1
      type: INT
    }
  }
  node {
    output: "637"
    name: "636"
    op_type: "Constant"
    attribute {
      name: "value"
      t {
        dims: 1
        data_type: 7
        raw_data: "\000\000\000\000\000\000\000\000"
      }
      type: TENSOR
    }
  }
  node {
    input: "636"
    input: "637"
    output: "638"
    name: "637"
    op_type: "Gather"
    attribute {
      name: "axis"
      i: 1
      type: INT
    }
  }
  node {
    input: "638"
    output: "639"
    name: "638"
    op_type: "Cast"
    attribute {
      name: "to"
      i: 1
      type: INT
    }
  }
  node {
    output: "640"
    name: "639"
    op_type: "Constant"
    attribute {
      name: "value"
      t {
        dims: 2
        data_type: 7
        raw_data: "\377\377\377\377\377\377\377\377\001\000\000\000\000\000\000\000"
      }
      type: TENSOR
    }
  }
  node {
    input: "639"
    input: "640"
    output: "641"
    name: "640"
    op_type: "Reshape"
  }
  node {
    input: "523"
    output: "642"
    name: "641"
    op_type: "Unsqueeze"
    attribute {
      name: "axes"
      ints: 0
      type: INTS
    }
  }
  node {
    input: "526"
    output: "643"
    name: "642"
    op_type: "Unsqueeze"
    attribute {
      name: "axes"
      ints: 0
      type: INTS
    }
  }
  node {
    input: "642"
    input: "643"
    output: "644"
    name: "643"
    op_type: "Concat"
    attribute {
      name: "axis"
      i: 0
      type: INT
    }
  }
  node {
    input: "641"
    input: "644"
    output: "645"
    name: "644"
    op_type: "Expand"
  }
  node {
    output: "646"
    name: "645"
    op_type: "Constant"
    attribute {
      name: "value"
      t {
        dims: 2
        data_type: 7
        raw_data: "\001\000\000\000\000\000\000\000\377\377\377\377\377\377\377\377"
      }
      type: TENSOR
    }
  }
  node {
    input: "622"
    input: "646"
    output: "647"
    name: "646"
    op_type: "Reshape"
  }
  node {
    input: "523"
    output: "648"
    name: "647"
    op_type: "Unsqueeze"
    attribute {
      name: "axes"
      ints: 0
      type: INTS
    }
  }
  node {
    input: "526"
    output: "649"
    name: "648"
    op_type: "Unsqueeze"
    attribute {
      name: "axes"
      ints: 0
      type: INTS
    }
  }
  node {
    input: "648"
    input: "649"
    output: "650"
    name: "649"
    op_type: "Concat"
    attribute {
      name: "axis"
      i: 0
      type: INT
    }
  }
  node {
    input: "647"
    input: "650"
    output: "651"
    name: "650"
    op_type: "Expand"
  }
  node {
    output: "652"
    name: "651"
    op_type: "Constant"
    attribute {
      name: "value"
      t {
        dims: 1
        data_type: 7
        raw_data: "\377\377\377\377\377\377\377\377"
      }
      type: TENSOR
    }
  }
  node {
    input: "651"
    input: "652"
    output: "653"
    name: "652"
    op_type: "Reshape"
  }
  node {
    output: "654"
    name: "653"
    op_type: "Constant"
    attribute {
      name: "value"
      t {
        dims: 1
        data_type: 7
        raw_data: "\377\377\377\377\377\377\377\377"
      }
      type: TENSOR
    }
  }
  node {
    input: "645"
    input: "654"
    output: "655"
    name: "654"
    op_type: "Reshape"
  }
  node {
    input: "653"
    output: "656"
    name: "655"
    op_type: "Unsqueeze"
    attribute {
      name: "axes"
      ints: 1
      type: INTS
    }
  }
  node {
    input: "655"
    output: "657"
    name: "656"
    op_type: "Unsqueeze"
    attribute {
      name: "axes"
      ints: 1
      type: INTS
    }
  }
  node {
    input: "653"
    output: "658"
    name: "657"
    op_type: "Unsqueeze"
    attribute {
      name: "axes"
      ints: 1
      type: INTS
    }
  }
  node {
    input: "655"
    output: "659"
    name: "658"
    op_type: "Unsqueeze"
    attribute {
      name: "axes"
      ints: 1
      type: INTS
    }
  }
  node {
    input: "656"
    input: "657"
    input: "658"
    input: "659"
    output: "660"
    name: "659"
    op_type: "Concat"
    attribute {
      name: "axis"
      i: 1
      type: INT
    }
  }
  node {
    output: "661"
    name: "660"
    op_type: "Constant"
    attribute {
      name: "value"
      t {
        dims: 3
        data_type: 7
        raw_data: "\377\377\377\377\377\377\377\377\001\000\000\000\000\000\000\000\004\000\000\000\000\000\000\000"
      }
      type: TENSOR
    }
  }
  node {
    input: "660"
    input: "661"
    output: "662"
    name: "661"
    op_type: "Reshape"
  }
  node {
    output: "663"
    name: "662"
    op_type: "Constant"
    attribute {
      name: "value"
      t {
        dims: 1
        dims: 3
        dims: 4
        data_type: 1
        raw_data: "…"
      }
      type: TENSOR
    }
  }
  node {
    input: "662"
    input: "663"
    output: "664"
    name: "663"
    op_type: "Add"
  }
  node {
    output: "665"
    name: "664"
    op_type: "Constant"
    attribute {
      name: "value"
      t {
        dims: 2
        data_type: 7
        raw_data: "\377\377\377\377\377\377\377\377\004\000\000\000\000\000\000\000"
      }
      type: TENSOR
    }
  }
  node {
    input: "664"
    input: "665"
    output: "666"
    name: "665"
    op_type: "Reshape"
  }
  node {
    output: "667"
    name: "666"
    op_type: "Constant"
    attribute {
      name: "value"
      t {
        data_type: 7
        raw_data: "\020\000\000\000\000\000\000\000"
      }
      type: TENSOR
    }
  }
  node {
    input: "532"
    input: "667"
    output: "668"
    name: "667"
    op_type: "Mul"
  }
  node {
    input: "668"
    output: "669"
    name: "668"
    op_type: "Unsqueeze"
    attribute {
      name: "axes"
      ints: 0
      type: INTS
    }
  }
  node {
    input: "669"
    output: "670"
    name: "669"
    op_type: "Concat"
    attribute {
      name: "axis"
      i: 0
      type: INT
    }
  }
  node {
    input: "670"
    output: "671"
    name: "670"
    op_type: "ConstantOfShape"
    attribute {
      name: "value"
      t {
        dims: 1
        data_type: 1
        raw_data: "\000\000\200?"
      }
      type: TENSOR
    }
  }
  node {
    input: "671"
    output: "672"
    name: "671"
    op_type: "Cast"
    attribute {
      name: "to"
      i: 1
      type: INT
    }
  }
  node {
    input: "672"
    output: "673"
    name: "672"
    op_type: "NonZero"
  }
  node {
    input: "673"
    output: "674"
    name: "673"
    op_type: "Transpose"
    attribute {
      name: "perm"
      ints: 1
      ints: 0
      type: INTS
    }
  }
  node {
    output: "675"
    name: "674"
    op_type: "Constant"
    attribute {
      name: "value"
      t {
        data_type: 7
        raw_data: "\020\000\000\000\000\000\000\000"
      }
      type: TENSOR
    }
  }
  node {
    input: "532"
    output: "676"
    name: "675"
    op_type: "Unsqueeze"
    attribute {
      name: "axes"
      ints: 0
      type: INTS
    }
  }
  node {
    input: "675"
    output: "677"
    name: "676"
    op_type: "Unsqueeze"
    attribute {
      name: "axes"
      ints: 0
      type: INTS
    }
  }
  node {
    input: "676"
    input: "677"
    output: "678"
    name: "677"
    op_type: "Concat"
    attribute {
      name: "axis"
      i: 0
      type: INT
    }
  }
  node {
    input: "674"
    input: "678"
    output: "679"
    name: "678"
    op_type: "Reshape"
  }
  node {
    input: "679"
    output: "680"
    name: "679"
    op_type: "Cast"
    attribute {
      name: "to"
      i: 1
      type: INT
    }
  }
  node {
    output: "681"
    name: "680"
    op_type: "Constant"
    attribute {
      name: "value"
      t {
        dims: 1
        data_type: 7
        raw_data: "\000\000\000\000\000\000\000\000"
      }
      type: TENSOR
    }
  }
  node {
    input: "680"
    input: "681"
    output: "682"
    name: "681"
    op_type: "Gather"
    attribute {
      name: "axis"
      i: 1
      type: INT
    }
  }
  node {
    input: "682"
    output: "683"
    name: "682"
    op_type: "Cast"
    attribute {
      name: "to"
      i: 1
      type: INT
    }
  }
  node {
    output: "684"
    name: "683"
    op_type: "Constant"
    attribute {
      name: "value"
      t {
        data_type: 7
        raw_data: "\020\000\000\000\000\000\000\000"
      }
      type: TENSOR
    }
  }
  node {
    input: "529"
    input: "684"
    output: "685"
    name: "684"
    op_type: "Mul"
  }
  node {
    input: "685"
    output: "686"
    name: "685"
    op_type: "Unsqueeze"
    attribute {
      name: "axes"
      ints: 0
      type: INTS
    }
  }
  node {
    input: "686"
    output: "687"
    name: "686"
    op_type: "Concat"
    attribute {
      name: "axis"
      i: 0
      type: INT
    }
  }
  node {
    input: "687"
    output: "688"
    name: "687"
    op_type: "ConstantOfShape"
    attribute {
      name: "value"
      t {
        dims: 1
        data_type: 1
        raw_data: "\000\000\200?"
      }
      type: TENSOR
    }
  }
  node {
    input: "688"
    output: "689"
    name: "688"
    op_type: "Cast"
    attribute {
      name: "to"
      i: 1
      type: INT
    }
  }
  node {
    input: "689"
    output: "690"
    name: "689"
    op_type: "NonZero"
  }
  node {
    input: "690"
    output: "691"
    name: "690"
    op_type: "Transpose"
    attribute {
      name: "perm"
      ints: 1
      ints: 0
      type: INTS
    }
  }
  node {
    output: "692"
    name: "691"
    op_type: "Constant"
    attribute {
      name: "value"
      t {
        data_type: 7
        raw_data: "\020\000\000\000\000\000\000\000"
      }
      type: TENSOR
    }
  }
  node {
    input: "529"
    output: "693"
    name: "692"
    op_type: "Unsqueeze"
    attribute {
      name: "axes"
      ints: 0
      type: INTS
    }
  }
  node {
    input: "692"
    output: "694"
    name: "693"
    op_type: "Unsqueeze"
    attribute {
      name: "axes"
      ints: 0
      type: INTS
    }
  }
  node {
    input: "693"
    input: "694"
    output: "695"
    name: "694"
    op_type: "Concat"
    attribute {
      name: "axis"
      i: 0
      type: INT
    }
  }
  node {
    input: "691"
    input: "695"
    output: "696"
    name: "695"
    op_type: "Reshape"
  }
  node {
    input: "696"
    output: "697"
    name: "696"
    op_type: "Cast"
    attribute {
      name: "to"
      i: 1
      type: INT
    }
  }
  node {
    output: "698"
    name: "697"
    op_type: "Constant"
    attribute {
      name: "value"
      t {
        dims: 1
        data_type: 7
        raw_data: "\000\000\000\000\000\000\000\000"
      }
      type: TENSOR
    }
  }
  node {
    input: "697"
    input: "698"
    output: "699"
    name: "698"
    op_type: "Gather"
    attribute {
      name: "axis"
      i: 1
      type: INT
    }
  }
  node {
    input: "699"
    output: "700"
    name: "699"
    op_type: "Cast"
    attribute {
      name: "to"
      i: 1
      type: INT
    }
  }
  node {
    output: "701"
    name: "700"
    op_type: "Constant"
    attribute {
      name: "value"
      t {
        dims: 2
        data_type: 7
        raw_data: "\377\377\377\377\377\377\377\377\001\000\000\000\000\000\000\000"
      }
      type: TENSOR
    }
  }
  node {
    input: "700"
    input: "701"
    output: "702"
    name: "701"
    op_type: "Reshape"
  }
  node {
    input: "529"
    output: "703"
    name: "702"
    op_type: "Unsqueeze"
    attribute {
      name: "axes"
      ints: 0
      type: INTS
    }
  }
  node {
    input: "532"
    output: "704"
    name: "703"
    op_type: "Unsqueeze"
    attribute {
      name: "axes"
      ints: 0
      type: INTS
    }
  }
  node {
    input: "703"
    input: "704"
    output: "705"
    name: "704"
    op_type: "Concat"
    attribute {
      name: "axis"
      i: 0
      type: INT
    }
  }
  node {
    input: "702"
    input: "705"
    output: "706"
    name: "705"
    op_type: "Expand"
  }
  node {
    output: "707"
    name: "706"
    op_type: "Constant"
    attribute {
      name: "value"
      t {
        dims: 2
        data_type: 7
        raw_data: "\001\000\000\000\000\000\000\000\377\377\377\377\377\377\377\377"
      }
      type: TENSOR
    }
  }
  node {
    input: "683"
    input: "707"
    output: "708"
    name: "707"
    op_type: "Reshape"
  }
  node {
    input: "529"
    output: "709"
    name: "708"
    op_type: "Unsqueeze"
    attribute {
      name: "axes"
      ints: 0
      type: INTS
    }
  }
  node {
    input: "532"
    output: "710"
    name: "709"
    op_type: "Unsqueeze"
    attribute {
      name: "axes"
      ints: 0
      type: INTS
    }
  }
  node {
    input: "709"
    input: "710"
    output: "711"
    name: "710"
    op_type: "Concat"
    attribute {
      name: "axis"
      i: 0
      type: INT
    }
  }
  node {
    input: "708"
    input: "711"
    output: "712"
    name: "711"
    op_type: "Expand"
  }
  node {
    output: "713"
    name: "712"
    op_type: "Constant"
    attribute {
      name: "value"
      t {
        dims: 1
        data_type: 7
        raw_data: "\377\377\377\377\377\377\377\377"
      }
      type: TENSOR
    }
  }
  node {
    input: "712"
    input: "713"
    output: "714"
    name: "713"
    op_type: "Reshape"
  }
  node {
    output: "715"
    name: "714"
    op_type: "Constant"
    attribute {
      name: "value"
      t {
        dims: 1
        data_type: 7
        raw_data: "\377\377\377\377\377\377\377\377"
      }
      type: TENSOR
    }
  }
  node {
    input: "706"
    input: "715"
    output: "716"
    name: "715"
    op_type: "Reshape"
  }
  node {
    input: "714"
    output: "717"
    name: "716"
    op_type: "Unsqueeze"
    attribute {
      name: "axes"
      ints: 1
      type: INTS
    }
  }
  node {
    input: "716"
    output: "718"
    name: "717"
    op_type: "Unsqueeze"
    attribute {
      name: "axes"
      ints: 1
      type: INTS
    }
  }
  node {
    input: "714"
    output: "719"
    name: "718"
    op_type: "Unsqueeze"
    attribute {
      name: "axes"
      ints: 1
      type: INTS
    }
  }
  node {
    input: "716"
    output: "720"
    name: "719"
    op_type: "Unsqueeze"
    attribute {
      name: "axes"
      ints: 1
      type: INTS
    }
  }
  node {
    input: "717"
    input: "718"
    input: "719"
    input: "720"
    output: "721"
    name: "720"
    op_type: "Concat"
    attribute {
      name: "axis"
      i: 1
      type: INT
    }
  }
  node {
    output: "722"
    name: "721"
    op_type: "Constant"
    attribute {
      name: "value"
      t {
        dims: 3
        data_type: 7
        raw_data: "\377\377\377\377\377\377\377\377\001\000\000\000\000\000\000\000\004\000\000\000\000\000\000\000"
      }
      type: TENSOR
    }
  }
  node {
    input: "721"
    input: "722"
    output: "723"
    name: "722"
    op_type: "Reshape"
  }
  node {
    output: "724"
    name: "723"
    op_type: "Constant"
    attribute {
      name: "value"
      t {
        dims: 1
        dims: 3
        dims: 4
        data_type: 1
        raw_data: "…"
      }
      type: TENSOR
    }
  }
  node {
    input: "723"
    input: "724"
    output: "725"
    name: "724"
    op_type: "Add"
  }
  node {
    output: "726"
    name: "725"
    op_type: "Constant"
    attribute {
      name: "value"
      t {
        dims: 2
        data_type: 7
        raw_data: "\377\377\377\377\377\377\377\377\004\000\000\000\000\000\000\000"
      }
      type: TENSOR
    }
  }
  node {
    input: "725"
    input: "726"
    output: "727"
    name: "726"
    op_type: "Reshape"
  }
  node {
    output: "728"
    name: "727"
    op_type: "Constant"
    attribute {
      name: "value"
      t {
        data_type: 7
        raw_data: " \000\000\000\000\000\000\000"
      }
      type: TENSOR
    }
  }
  node {
    input: "538"
    input: "728"
    output: "729"
    name: "728"
    op_type: "Mul"
  }
  node {
    input: "729"
    output: "730"
    name: "729"
    op_type: "Unsqueeze"
    attribute {
      name: "axes"
      ints: 0
      type: INTS
    }
  }
  node {
    input: "730"
    output: "731"
    name: "730"
    op_type: "Concat"
    attribute {
      name: "axis"
      i: 0
      type: INT
    }
  }
  node {
    input: "731"
    output: "732"
    name: "731"
    op_type: "ConstantOfShape"
    attribute {
      name: "value"
      t {
        dims: 1
        data_type: 1
        raw_data: "\000\000\200?"
      }
      type: TENSOR
    }
  }
  node {
    input: "732"
    output: "733"
    name: "732"
    op_type: "Cast"
    attribute {
      name: "to"
      i: 1
      type: INT
    }
  }
  node {
    input: "733"
    output: "734"
    name: "733"
    op_type: "NonZero"
  }
  node {
    input: "734"
    output: "735"
    name: "734"
    op_type: "Transpose"
    attribute {
      name: "perm"
      ints: 1
      ints: 0
      type: INTS
    }
  }
  node {
    output: "736"
    name: "735"
    op_type: "Constant"
    attribute {
      name: "value"
      t {
        data_type: 7
        raw_data: " \000\000\000\000\000\000\000"
      }
      type: TENSOR
    }
  }
  node {
    input: "538"
    output: "737"
    name: "736"
    op_type: "Unsqueeze"
    attribute {
      name: "axes"
      ints: 0
      type: INTS
    }
  }
  node {
    input: "736"
    output: "738"
    name: "737"
    op_type: "Unsqueeze"
    attribute {
      name: "axes"
      ints: 0
      type: INTS
    }
  }
  node {
    input: "737"
    input: "738"
    output: "739"
    name: "738"
    op_type: "Concat"
    attribute {
      name: "axis"
      i: 0
      type: INT
    }
  }
  node {
    input: "735"
    input: "739"
    output: "740"
    name: "739"
    op_type: "Reshape"
  }
  node {
    input: "740"
    output: "741"
    name: "740"
    op_type: "Cast"
    attribute {
      name: "to"
      i: 1
      type: INT
    }
  }
  node {
    output: "742"
    name: "741"
    op_type: "Constant"
    attribute {
      name: "value"
      t {
        dims: 1
        data_type: 7
        raw_data: "\000\000\000\000\000\000\000\000"
      }
      type: TENSOR
    }
  }
  node {
    input: "741"
    input: "742"
    output: "743"
    name: "742"
    op_type: "Gather"
    attribute {
      name: "axis"
      i: 1
      type: INT
    }
  }
  node {
    input: "743"
    output: "744"
    name: "743"
    op_type: "Cast"
    attribute {
      name: "to"
      i: 1
      type: INT
    }
  }
  node {
    output: "745"
    name: "744"
    op_type: "Constant"
    attribute {
      name: "value"
      t {
        data_type: 7
        raw_data: " \000\000\000\000\000\000\000"
      }
      type: TENSOR
    }
  }
  node {
    input: "535"
    input: "745"
    output: "746"
    name: "745"
    op_type: "Mul"
  }
  node {
    input: "746"
    output: "747"
    name: "746"
    op_type: "Unsqueeze"
    attribute {
      name: "axes"
      ints: 0
      type: INTS
    }
  }
  node {
    input: "747"
    output: "748"
    name: "747"
    op_type: "Concat"
    attribute {
      name: "axis"
      i: 0
      type: INT
    }
  }
  node {
    input: "748"
    output: "749"
    name: "748"
    op_type: "ConstantOfShape"
    attribute {
      name: "value"
      t {
        dims: 1
        data_type: 1
        raw_data: "\000\000\200?"
      }
      type: TENSOR
    }
  }
  node {
    input: "749"
    output: "750"
    name: "749"
    op_type: "Cast"
    attribute {
      name: "to"
      i: 1
      type: INT
    }
  }
  node {
    input: "750"
    output: "751"
    name: "750"
    op_type: "NonZero"
  }
  node {
    input: "751"
    output: "752"
    name: "751"
    op_type: "Transpose"
    attribute {
      name: "perm"
      ints: 1
      ints: 0
      type: INTS
    }
  }
  node {
    output: "753"
    name: "752"
    op_type: "Constant"
    attribute {
      name: "value"
      t {
        data_type: 7
        raw_data: " \000\000\000\000\000\000\000"
      }
      type: TENSOR
    }
  }
  node {
    input: "535"
    output: "754"
    name: "753"
    op_type: "Unsqueeze"
    attribute {
      name: "axes"
      ints: 0
      type: INTS
    }
  }
  node {
    input: "753"
    output: "755"
    name: "754"
    op_type: "Unsqueeze"
    attribute {
      name: "axes"
      ints: 0
      type: INTS
    }
  }
  node {
    input: "754"
    input: "755"
    output: "756"
    name: "755"
    op_type: "Concat"
    attribute {
      name: "axis"
      i: 0
      type: INT
    }
  }
  node {
    input: "752"
    input: "756"
    output: "757"
    name: "756"
    op_type: "Reshape"
  }
  node {
    input: "757"
    output: "758"
    name: "757"
    op_type: "Cast"
    attribute {
      name: "to"
      i: 1
      type: INT
    }
  }
  node {
    output: "759"
    name: "758"
    op_type: "Constant"
    attribute {
      name: "value"
      t {
        dims: 1
        data_type: 7
        raw_data: "\000\000\000\000\000\000\000\000"
      }
      type: TENSOR
    }
  }
  node {
    input: "758"
    input: "759"
    output: "760"
    name: "759"
    op_type: "Gather"
    attribute {
      name: "axis"
      i: 1
      type: INT
    }
  }
  node {
    input: "760"
    output: "761"
    name: "760"
    op_type: "Cast"
    attribute {
      name: "to"
      i: 1
      type: INT
    }
  }
  node {
    output: "762"
    name: "761"
    op_type: "Constant"
    attribute {
      name: "value"
      t {
        dims: 2
        data_type: 7
        raw_data: "\377\377\377\377\377\377\377\377\001\000\000\000\000\000\000\000"
      }
      type: TENSOR
    }
  }
  node {
    input: "761"
    input: "762"
    output: "763"
    name: "762"
    op_type: "Reshape"
  }
  node {
    input: "535"
    output: "764"
    name: "763"
    op_type: "Unsqueeze"
    attribute {
      name: "axes"
      ints: 0
      type: INTS
    }
  }
  node {
    input: "538"
    output: "765"
    name: "764"
    op_type: "Unsqueeze"
    attribute {
      name: "axes"
      ints: 0
      type: INTS
    }
  }
  node {
    input: "764"
    input: "765"
    output: "766"
    name: "765"
    op_type: "Concat"
    attribute {
      name: "axis"
      i: 0
      type: INT
    }
  }
  node {
    input: "763"
    input: "766"
    output: "767"
    name: "766"
    op_type: "Expand"
  }
  node {
    output: "768"
    name: "767"
    op_type: "Constant"
    attribute {
      name: "value"
      t {
        dims: 2
        data_type: 7
        raw_data: "\001\000\000\000\000\000\000\000\377\377\377\377\377\377\377\377"
      }
      type: TENSOR
    }
  }
  node {
    input: "744"
    input: "768"
    output: "769"
    name: "768"
    op_type: "Reshape"
  }
  node {
    input: "535"
    output: "770"
    name: "769"
    op_type: "Unsqueeze"
    attribute {
      name: "axes"
      ints: 0
      type: INTS
    }
  }
  node {
    input: "538"
    output: "771"
    name: "770"
    op_type: "Unsqueeze"
    attribute {
      name: "axes"
      ints: 0
      type: INTS
    }
  }
  node {
    input: "770"
    input: "771"
    output: "772"
    name: "771"
    op_type: "Concat"
    attribute {
      name: "axis"
      i: 0
      type: INT
    }
  }
  node {
    input: "769"
    input: "772"
    output: "773"
    name: "772"
    op_type: "Expand"
  }
  node {
    output: "774"
    name: "773"
    op_type: "Constant"
    attribute {
      name: "value"
      t {
        dims: 1
        data_type: 7
        raw_data: "\377\377\377\377\377\377\377\377"
      }
      type: TENSOR
    }
  }
  node {
    input: "773"
    input: "774"
    output: "775"
    name: "774"
    op_type: "Reshape"
  }
  node {
    output: "776"
    name: "775"
    op_type: "Constant"
    attribute {
      name: "value"
      t {
        dims: 1
        data_type: 7
        raw_data: "\377\377\377\377\377\377\377\377"
      }
      type: TENSOR
    }
  }
  node {
    input: "767"
    input: "776"
    output: "777"
    name: "776"
    op_type: "Reshape"
  }
  node {
    input: "775"
    output: "778"
    name: "777"
    op_type: "Unsqueeze"
    attribute {
      name: "axes"
      ints: 1
      type: INTS
    }
  }
  node {
    input: "777"
    output: "779"
    name: "778"
    op_type: "Unsqueeze"
    attribute {
      name: "axes"
      ints: 1
      type: INTS
    }
  }
  node {
    input: "775"
    output: "780"
    name: "779"
    op_type: "Unsqueeze"
    attribute {
      name: "axes"
      ints: 1
      type: INTS
    }
  }
  node {
    input: "777"
    output: "781"
    name: "780"
    op_type: "Unsqueeze"
    attribute {
      name: "axes"
      ints: 1
      type: INTS
    }
  }
  node {
    input: "778"
    input: "779"
    input: "780"
    input: "781"
    output: "782"
    name: "781"
    op_type: "Concat"
    attribute {
      name: "axis"
      i: 1
      type: INT
    }
  }
  node {
    output: "783"
    name: "782"
    op_type: "Constant"
    attribute {
      name: "value"
      t {
        dims: 3
        data_type: 7
        raw_data: "\377\377\377\377\377\377\377\377\001\000\000\000\000\000\000\000\004\000\000\000\000\000\000\000"
      }
      type: TENSOR
    }
  }
  node {
    input: "782"
    input: "783"
    output: "784"
    name: "783"
    op_type: "Reshape"
  }
  node {
    output: "785"
    name: "784"
    op_type: "Constant"
    attribute {
      name: "value"
      t {
        dims: 1
        dims: 3
        dims: 4
        data_type: 1
        raw_data: "…"
      }
      type: TENSOR
    }
  }
  node {
    input: "784"
    input: "785"
    output: "786"
    name: "785"
    op_type: "Add"
  }
  node {
    output: "787"
    name: "786"
    op_type: "Constant"
    attribute {
      name: "value"
      t {
        dims: 2
        data_type: 7
        raw_data: "\377\377\377\377\377\377\377\377\004\000\000\000\000\000\000\000"
      }
      type: TENSOR
    }
  }
  node {
    input: "786"
    input: "787"
    output: "788"
    name: "787"
    op_type: "Reshape"
  }
  node {
    output: "789"
    name: "788"
    op_type: "Constant"
    attribute {
      name: "value"
      t {
        data_type: 7
        raw_data: "@\000\000\000\000\000\000\000"
      }
      type: TENSOR
    }
  }
  node {
    input: "544"
    input: "789"
    output: "790"
    name: "789"
    op_type: "Mul"
  }
  node {
    input: "790"
    output: "791"
    name: "790"
    op_type: "Unsqueeze"
    attribute {
      name: "axes"
      ints: 0
      type: INTS
    }
  }
  node {
    input: "791"
    output: "792"
    name: "791"
    op_type: "Concat"
    attribute {
      name: "axis"
      i: 0
      type: INT
    }
  }
  node {
    input: "792"
    output: "793"
    name: "792"
    op_type: "ConstantOfShape"
    attribute {
      name: "value"
      t {
        dims: 1
        data_type: 1
        raw_data: "\000\000\200?"
      }
      type: TENSOR
    }
  }
  node {
    input: "793"
    output: "794"
    name: "793"
    op_type: "Cast"
    attribute {
      name: "to"
      i: 1
      type: INT
    }
  }
  node {
    input: "794"
    output: "795"
    name: "794"
    op_type: "NonZero"
  }
  node {
    input: "795"
    output: "796"
    name: "795"
    op_type: "Transpose"
    attribute {
      name: "perm"
      ints: 1
      ints: 0
      type: INTS
    }
  }
  node {
    output: "797"
    name: "796"
    op_type: "Constant"
    attribute {
      name: "value"
      t {
        data_type: 7
        raw_data: "@\000\000\000\000\000\000\000"
      }
      type: TENSOR
    }
  }
  node {
    input: "544"
    output: "798"
    name: "797"
    op_type: "Unsqueeze"
    attribute {
      name: "axes"
      ints: 0
      type: INTS
    }
  }
  node {
    input: "797"
    output: "799"
    name: "798"
    op_type: "Unsqueeze"
    attribute {
      name: "axes"
      ints: 0
      type: INTS
    }
  }
  node {
    input: "798"
    input: "799"
    output: "800"
    name: "799"
    op_type: "Concat"
    attribute {
      name: "axis"
      i: 0
      type: INT
    }
  }
  node {
    input: "796"
    input: "800"
    output: "801"
    name: "800"
    op_type: "Reshape"
  }
  node {
    input: "801"
    output: "802"
    name: "801"
    op_type: "Cast"
    attribute {
      name: "to"
      i: 1
      type: INT
    }
  }
  node {
    output: "803"
    name: "802"
    op_type: "Constant"
    attribute {
      name: "value"
      t {
        dims: 1
        data_type: 7
        raw_data: "\000\000\000\000\000\000\000\000"
      }
      type: TENSOR
    }
  }
  node {
    input: "802"
    input: "803"
    output: "804"
    name: "803"
    op_type: "Gather"
    attribute {
      name: "axis"
      i: 1
      type: INT
    }
  }
  node {
    input: "804"
    output: "805"
    name: "804"
    op_type: "Cast"
    attribute {
      name: "to"
      i: 1
      type: INT
    }
  }
  node {
    output: "806"
    name: "805"
    op_type: "Constant"
    attribute {
      name: "value"
      t {
        data_type: 7
        raw_data: "@\000\000\000\000\000\000\000"
      }
      type: TENSOR
    }
  }
  node {
    input: "541"
    input: "806"
    output: "807"
    name: "806"
    op_type: "Mul"
  }
  node {
    input: "807"
    output: "808"
    name: "807"
    op_type: "Unsqueeze"
    attribute {
      name: "axes"
      ints: 0
      type: INTS
    }
  }
  node {
    input: "808"
    output: "809"
    name: "808"
    op_type: "Concat"
    attribute {
      name: "axis"
      i: 0
      type: INT
    }
  }
  node {
    input: "809"
    output: "810"
    name: "809"
    op_type: "ConstantOfShape"
    attribute {
      name: "value"
      t {
        dims: 1
        data_type: 1
        raw_data: "\000\000\200?"
      }
      type: TENSOR
    }
  }
  node {
    input: "810"
    output: "811"
    name: "810"
    op_type: "Cast"
    attribute {
      name: "to"
      i: 1
      type: INT
    }
  }
  node {
    input: "811"
    output: "812"
    name: "811"
    op_type: "NonZero"
  }
  node {
    input: "812"
    output: "813"
    name: "812"
    op_type: "Transpose"
    attribute {
      name: "perm"
      ints: 1
      ints: 0
      type: INTS
    }
  }
  node {
    output: "814"
    name: "813"
    op_type: "Constant"
    attribute {
      name: "value"
      t {
        data_type: 7
        raw_data: "@\000\000\000\000\000\000\000"
      }
      type: TENSOR
    }
  }
  node {
    input: "541"
    output: "815"
    name: "814"
    op_type: "Unsqueeze"
    attribute {
      name: "axes"
      ints: 0
      type: INTS
    }
  }
  node {
    input: "814"
    output: "816"
    name: "815"
    op_type: "Unsqueeze"
    attribute {
      name: "axes"
      ints: 0
      type: INTS
    }
  }
  node {
    input: "815"
    input: "816"
    output: "817"
    name: "816"
    op_type: "Concat"
    attribute {
      name: "axis"
      i: 0
      type: INT
    }
  }
  node {
    input: "813"
    input: "817"
    output: "818"
    name: "817"
    op_type: "Reshape"
  }
  node {
    input: "818"
    output: "819"
    name: "818"
    op_type: "Cast"
    attribute {
      name: "to"
      i: 1
      type: INT
    }
  }
  node {
    output: "820"
    name: "819"
    op_type: "Constant"
    attribute {
      name: "value"
      t {
        dims: 1
        data_type: 7
        raw_data: "\000\000\000\000\000\000\000\000"
      }
      type: TENSOR
    }
  }
  node {
    input: "819"
    input: "820"
    output: "821"
    name: "820"
    op_type: "Gather"
    attribute {
      name: "axis"
      i: 1
      type: INT
    }
  }
  node {
    input: "821"
    output: "822"
    name: "821"
    op_type: "Cast"
    attribute {
      name: "to"
      i: 1
      type: INT
    }
  }
  node {
    output: "823"
    name: "822"
    op_type: "Constant"
    attribute {
      name: "value"
      t {
        dims: 2
        data_type: 7
        raw_data: "\377\377\377\377\377\377\377\377\001\000\000\000\000\000\000\000"
      }
      type: TENSOR
    }
  }
  node {
    input: "822"
    input: "823"
    output: "824"
    name: "823"
    op_type: "Reshape"
  }
  node {
    input: "541"
    output: "825"
    name: "824"
    op_type: "Unsqueeze"
    attribute {
      name: "axes"
      ints: 0
      type: INTS
    }
  }
  node {
    input: "544"
    output: "826"
    name: "825"
    op_type: "Unsqueeze"
    attribute {
      name: "axes"
      ints: 0
      type: INTS
    }
  }
  node {
    input: "825"
    input: "826"
    output: "827"
    name: "826"
    op_type: "Concat"
    attribute {
      name: "axis"
      i: 0
      type: INT
    }
  }
  node {
    input: "824"
    input: "827"
    output: "828"
    name: "827"
    op_type: "Expand"
  }
  node {
    output: "829"
    name: "828"
    op_type: "Constant"
    attribute {
      name: "value"
      t {
        dims: 2
        data_type: 7
        raw_data: "\001\000\000\000\000\000\000\000\377\377\377\377\377\377\377\377"
      }
      type: TENSOR
    }
  }
  node {
    input: "805"
    input: "829"
    output: "830"
    name: "829"
    op_type: "Reshape"
  }
  node {
    input: "541"
    output: "831"
    name: "830"
    op_type: "Unsqueeze"
    attribute {
      name: "axes"
      ints: 0
      type: INTS
    }
  }
  node {
    input: "544"
    output: "832"
    name: "831"
    op_type: "Unsqueeze"
    attribute {
      name: "axes"
      ints: 0
      type: INTS
    }
  }
  node {
    input: "831"
    input: "832"
    output: "833"
    name: "832"
    op_type: "Concat"
    attribute {
      name: "axis"
      i: 0
      type: INT
    }
  }
  node {
    input: "830"
    input: "833"
    output: "834"
    name: "833"
    op_type: "Expand"
  }
  node {
    output: "835"
    name: "834"
    op_type: "Constant"
    attribute {
      name: "value"
      t {
        dims: 1
        data_type: 7
        raw_data: "\377\377\377\377\377\377\377\377"
      }
      type: TENSOR
    }
  }
  node {
    input: "834"
    input: "835"
    output: "836"
    name: "835"
    op_type: "Reshape"
  }
  node {
    output: "837"
    name: "836"
    op_type: "Constant"
    attribute {
      name: "value"
      t {
        dims: 1
        data_type: 7
        raw_data: "\377\377\377\377\377\377\377\377"
      }
      type: TENSOR
    }
  }
  node {
    input: "828"
    input: "837"
    output: "838"
    name: "837"
    op_type: "Reshape"
  }
  node {
    input: "836"
    output: "839"
    name: "838"
    op_type: "Unsqueeze"
    attribute {
      name: "axes"
      ints: 1
      type: INTS
    }
  }
  node {
    input: "838"
    output: "840"
    name: "839"
    op_type: "Unsqueeze"
    attribute {
      name: "axes"
      ints: 1
      type: INTS
    }
  }
  node {
    input: "836"
    output: "841"
    name: "840"
    op_type: "Unsqueeze"
    attribute {
      name: "axes"
      ints: 1
      type: INTS
    }
  }
  node {
    input: "838"
    output: "842"
    name: "841"
    op_type: "Unsqueeze"
    attribute {
      name: "axes"
      ints: 1
      type: INTS
    }
  }
  node {
    input: "839"
    input: "840"
    input: "841"
    input: "842"
    output: "843"
    name: "842"
    op_type: "Concat"
    attribute {
      name: "axis"
      i: 1
      type: INT
    }
  }
  node {
    output: "844"
    name: "843"
    op_type: "Constant"
    attribute {
      name: "value"
      t {
        dims: 3
        data_type: 7
        raw_data: "\377\377\377\377\377\377\377\377\001\000\000\000\000\000\000\000\004\000\000\000\000\000\000\000"
      }
      type: TENSOR
    }
  }
  node {
    input: "843"
    input: "844"
    output: "845"
    name: "844"
    op_type: "Reshape"
  }
  node {
    output: "846"
    name: "845"
    op_type: "Constant"
    attribute {
      name: "value"
      t {
        dims: 1
        dims: 3
        dims: 4
        data_type: 1
        raw_data: "…"
      }
      type: TENSOR
    }
  }
  node {
    input: "845"
    input: "846"
    output: "847"
    name: "846"
    op_type: "Add"
  }
  node {
    output: "848"
    name: "847"
    op_type: "Constant"
    attribute {
      name: "value"
      t {
        dims: 2
        data_type: 7
        raw_data: "\377\377\377\377\377\377\377\377\004\000\000\000\000\000\000\000"
      }
      type: TENSOR
    }
  }
  node {
    input: "847"
    input: "848"
    output: "849"
    name: "848"
    op_type: "Reshape"
  }
  node {
    output: "850"
    name: "849"
    op_type: "Constant"
    attribute {
      name: "value"
      t {
        data_type: 7
        raw_data: "\000\000\000\000\000\000\000\000"
      }
      type: TENSOR
    }
  }
  node {
    input: "495"
    output: "851"
    name: "850"
    op_type: "Shape"
  }
  node {
    input: "851"
    input: "850"
    output: "852"
    name: "851"
    op_type: "Gather"
    attribute {
      name: "axis"
      i: 0
      type: INT
    }
  }
  node {
    output: "853"
    name: "852"
    op_type: "Constant"
    attribute {
      name: "value"
      t {
        data_type: 7
        raw_data: "\002\000\000\000\000\000\000\000"
      }
      type: TENSOR
    }
  }
  node {
    input: "495"
    output: "854"
    name: "853"
    op_type: "Shape"
  }
  node {
    input: "854"
    input: "853"
    output: "855"
    name: "854"
    op_type: "Gather"
    attribute {
      name: "axis"
      i: 0
      type: INT
    }
  }
  node {
    output: "856"
    name: "855"
    op_type: "Constant"
    attribute {
      name: "value"
      t {
        data_type: 7
        raw_data: "\003\000\000\000\000\000\000\000"
      }
      type: TENSOR
    }
  }
  node {
    input: "495"
    output: "857"
    name: "856"
    op_type: "Shape"
  }
  node {
    input: "857"
    input: "856"
    output: "858"
    name: "857"
    op_type: "Gather"
    attribute {
      name: "axis"
      i: 0
      type: INT
    }
  }
  node {
    output: "859"
    name: "858"
    op_type: "Constant"
    attribute {
      name: "value"
      t {
        data_type: 7
        raw_data: "\377\377\377\377\377\377\377\377"
      }
      type: TENSOR
    }
  }
  node {
    output: "860"
    name: "859"
    op_type: "Constant"
    attribute {
      name: "value"
      t {
        data_type: 7
        raw_data: "\001\000\000\000\000\000\000\000"
      }
      type: TENSOR
    }
  }
  node {
    input: "852"
    output: "861"
    name: "860"
    op_type: "Unsqueeze"
    attribute {
      name: "axes"
      ints: 0
      type: INTS
    }
  }
  node {
    input: "859"
    output: "862"
    name: "861"
    op_type: "Unsqueeze"
    attribute {
      name: "axes"
      ints: 0
      type: INTS
    }
  }
  node {
    input: "860"
    output: "863"
    name: "862"
    op_type: "Unsqueeze"
    attribute {
      name: "axes"
      ints: 0
      type: INTS
    }
  }
  node {
    input: "855"
    output: "864"
    name: "863"
    op_type: "Unsqueeze"
    attribute {
      name: "axes"
      ints: 0
      type: INTS
    }
  }
  node {
    input: "858"
    output: "865"
    name: "864"
    op_type: "Unsqueeze"
    attribute {
      name: "axes"
      ints: 0
      type: INTS
    }
  }
  node {
    input: "861"
    input: "862"
    input: "863"
    input: "864"
    input: "865"
    output: "866"
    name: "865"
    op_type: "Concat"
    attribute {
      name: "axis"
      i: 0
      type: INT
    }
  }
  node {
    input: "495"
    input: "866"
    output: "867"
    name: "866"
    op_type: "Reshape"
  }
  node {
    input: "867"
    output: "868"
    name: "867"
    op_type: "Transpose"
    attribute {
      name: "perm"
      ints: 0
      ints: 3
      ints: 4
      ints: 1
      ints: 2
      type: INTS
    }
  }
  node {
    output: "869"
    name: "868"
    op_type: "Constant"
    attribute {
      name: "value"
      t {
        data_type: 7
        raw_data: "\377\377\377\377\377\377\377\377"
      }
      type: TENSOR
    }
  }
  node {
    output: "870"
    name: "869"
    op_type: "Constant"
    attribute {
      name: "value"
      t {
        data_type: 7
        raw_data: "\001\000\000\000\000\000\000\000"
      }
      type: TENSOR
    }
  }
  node {
    input: "852"
    output: "871"
    name: "870"
    op_type: "Unsqueeze"
    attribute {
      name: "axes"
      ints: 0
      type: INTS
    }
  }
  node {
    input: "869"
    output: "872"
    name: "871"
    op_type: "Unsqueeze"
    attribute {
      name: "axes"
      ints: 0
      type: INTS
    }
  }
  node {
    input: "870"
    output: "873"
    name: "872"
    op_type: "Unsqueeze"
    attribute {
      name: "axes"
      ints: 0
      type: INTS
    }
  }
  node {
    input: "871"
    input: "872"
    input: "873"
    output: "874"
    name: "873"
    op_type: "Concat"
    attribute {
      name: "axis"
      i: 0
      type: INT
    }
  }
  node {
    input: "868"
    input: "874"
    output: "875"
    name: "874"
    op_type: "Reshape"
  }
  node {
    output: "876"
    name: "875"
    op_type: "Constant"
    attribute {
      name: "value"
      t {
        data_type: 7
        raw_data: "\377\377\377\377\377\377\377\377"
      }
      type: TENSOR
    }
  }
  node {
    input: "852"
    output: "877"
    name: "876"
    op_type: "Unsqueeze"
    attribute {
      name: "axes"
      ints: 0
      type: INTS
    }
  }
  node {
    input: "876"
    output: "878"
    name: "877"
    op_type: "Unsqueeze"
    attribute {
      name: "axes"
      ints: 0
      type: INTS
    }
  }
  node {
    input: "877"
    input: "878"
    output: "879"
    name: "878"
    op_type: "Concat"
    attribute {
      name: "axis"
      i: 0
      type: INT
    }
  }
  node {
    input: "875"
    input: "879"
    output: "880"
    name: "879"
    op_type: "Reshape"
  }
  node {
    input: "880"
    output: "881"
    name: "880"
    op_type: "Sigmoid"
  }
  node {
    output: "882"
    name: "881"
    op_type: "Constant"
    attribute {
      name: "value"
      t {
        data_type: 7
        raw_data: "\377\377\377\377\377\377\377\377"
      }
      type: TENSOR
    }
  }
  node {
    output: "883"
    name: "882"
    op_type: "Constant"
    attribute {
      name: "value"
      t {
        data_type: 7
        raw_data: "\004\000\000\000\000\000\000\000"
      }
      type: TENSOR
    }
  }
  node {
    input: "852"
    output: "884"
    name: "883"
    op_type: "Unsqueeze"
    attribute {
      name: "axes"
      ints: 0
      type: INTS
    }
  }
  node {
    input: "882"
    output: "885"
    name: "884"
    op_type: "Unsqueeze"
    attribute {
      name: "axes"
      ints: 0
      type: INTS
    }
  }
  node {
    input: "883"
    output: "886"
    name: "885"
    op_type: "Unsqueeze"
    attribute {
      name: "axes"
      ints: 0
      type: INTS
    }
  }
  node {
    input: "855"
    output: "887"
    name: "886"
    op_type: "Unsqueeze"
    attribute {
      name: "axes"
      ints: 0
      type: INTS
    }
  }
  node {
    input: "858"
    output: "888"
    name: "887"
    op_type: "Unsqueeze"
    attribute {
      name: "axes"
      ints: 0
      type: INTS
    }
  }
  node {
    input: "884"
    input: "885"
    input: "886"
    input: "887"
    input: "888"
    output: "889"
    name: "888"
    op_type: "Concat"
    attribute {
      name: "axis"
      i: 0
      type: INT
    }
  }
  node {
    input: "498"
    input: "889"
    output: "890"
    name: "889"
    op_type: "Reshape"
  }
  node {
    input: "890"
    output: "891"
    name: "890"
    op_type: "Transpose"
    attribute {
      name: "perm"
      ints: 0
      ints: 3
      ints: 4
      ints: 1
      ints: 2
      type: INTS
    }
  }
  node {
    output: "892"
    name: "891"
    op_type: "Constant"
    attribute {
      name: "value"
      t {
        data_type: 7
        raw_data: "\377\377\377\377\377\377\377\377"
      }
      type: TENSOR
    }
  }
  node {
    output: "893"
    name: "892"
    op_type: "Constant"
    attribute {
      name: "value"
      t {
        data_type: 7
        raw_data: "\004\000\000\000\000\000\000\000"
      }
      type: TENSOR
    }
  }
  node {
    input: "852"
    output: "894"
    name: "893"
    op_type: "Unsqueeze"
    attribute {
      name: "axes"
      ints: 0
      type: INTS
    }
  }
  node {
    input: "892"
    output: "895"
    name: "894"
    op_type: "Unsqueeze"
    attribute {
      name: "axes"
      ints: 0
      type: INTS
    }
  }
  node {
    input: "893"
    output: "896"
    name: "895"
    op_type: "Unsqueeze"
    attribute {
      name: "axes"
      ints: 0
      type: INTS
    }
  }
  node {
    input: "894"
    input: "895"
    input: "896"
    output: "897"
    name: "896"
    op_type: "Concat"
    attribute {
      name: "axis"
      i: 0
      type: INT
    }
  }
  node {
    input: "891"
    input: "897"
    output: "898"
    name: "897"
    op_type: "Reshape"
  }
  node {
    input: "881"
    output: "899"
    name: "898"
    op_type: "Shape"
  }
  node {
    output: "900"
    name: "899"
    op_type: "Constant"
    attribute {
      name: "value"
      t {
        data_type: 7
        raw_data: "\001\000\000\000\000\000\000\000"
      }
      type: TENSOR
    }
  }
  node {
    input: "899"
    input: "900"
    output: "901"
    name: "900"
    op_type: "Gather"
    attribute {
      name: "axis"
      i: 0
      type: INT
    }
  }
  node {
    input: "901"
    output: "902"
    name: "901"
    op_type: "Unsqueeze"
    attribute {
      name: "axes"
      ints: 0
      type: INTS
    }
  }
  node {
    output: "903"
    name: "902"
    op_type: "Constant"
    attribute {
      name: "value"
      t {
        dims: 1
        data_type: 7
        raw_data: "\350\003\000\000\000\000\000\000"
      }
      type: TENSOR
    }
  }
  node {
    input: "903"
    input: "902"
    output: "904"
    name: "903"
    op_type: "Concat"
    attribute {
      name: "axis"
      i: 0
      type: INT
    }
  }
  node {
    input: "904"
    output: "905"
    name: "904"
    op_type: "Cast"
    attribute {
      name: "to"
      i: 6
      type: INT
    }
  }
  node {
    input: "905"
    output: "906"
    name: "905"
    op_type: "ReduceMin"
    attribute {
      name: "keepdims"
      i: 0
      type: INT
    }
  }
  node {
    input: "906"
    output: "907"
    name: "906"
    op_type: "Cast"
    attribute {
      name: "to"
      i: 7
      type: INT
    }
  }
  node {
    input: "907"
    output: "908"
    name: "907"
    op_type: "Unsqueeze"
    attribute {
      name: "axes"
      ints: 0
      type: INTS
    }
  }
  node {
    input: "881"
    input: "908"
    output: "909"
    output: "910"
    name: "908"
    op_type: "TopK"
    attribute {
      name: "axis"
      i: 1
      type: INT
    }
  }
  node {
    input: "910"
    output: "911"
    name: "909"
    op_type: "Squeeze"
    attribute {
      name: "axes"
      ints: 0
      type: INTS
    }
  }
  node {
    input: "898"
    input: "911"
    output: "912"
    name: "910"
    op_type: "Gather"
    attribute {
      name: "axis"
      i: 1
      type: INT
    }
  }
  node {
    input: "605"
    output: "913"
    name: "911"
    op_type: "Concat"
    attribute {
      name: "axis"
      i: 0
      type: INT
    }
  }
  node {
    output: "914"
    name: "912"
    op_type: "Constant"
    attribute {
      name: "value"
      t {
        data_type: 7
        raw_data: "\377\377\377\377\377\377\377\377"
      }
      type: TENSOR
    }
  }
  node {
    output: "915"
    name: "913"
    op_type: "Constant"
    attribute {
      name: "value"
      t {
        data_type: 7
        raw_data: "\004\000\000\000\000\000\000\000"
      }
      type: TENSOR
    }
  }
  node {
    input: "852"
    output: "916"
    name: "914"
    op_type: "Unsqueeze"
    attribute {
      name: "axes"
      ints: 0
      type: INTS
    }
  }
  node {
    input: "914"
    output: "917"
    name: "915"
    op_type: "Unsqueeze"
    attribute {
      name: "axes"
      ints: 0
      type: INTS
    }
  }
  node {
    input: "915"
    output: "918"
    name: "916"
    op_type: "Unsqueeze"
    attribute {
      name: "axes"
      ints: 0
      type: INTS
    }
  }
  node {
    input: "916"
    input: "917"
    input: "918"
    output: "919"
    name: "917"
    op_type: "Concat"
    attribute {
      name: "axis"
      i: 0
      type: INT
    }
  }
  node {
    input: "913"
    input: "919"
    output: "920"
    name: "918"
    op_type: "Reshape"
  }
  node {
    input: "920"
    input: "911"
    output: "921"
    name: "919"
    op_type: "Gather"
    attribute {
      name: "axis"
      i: 1
      type: INT
    }
  }
  node {
    output: "922"
    name: "920"
    op_type: "Constant"
    attribute {
      name: "value"
      t {
        dims: 2
        data_type: 7
        raw_data: "\377\377\377\377\377\377\377\377\004\000\000\000\000\000\000\000"
      }
      type: TENSOR
    }
  }
  node {
    input: "912"
    input: "922"
    output: "923"
    name: "921"
    op_type: "Reshape"
  }
  node {
    output: "924"
    name: "922"
    op_type: "Constant"
    attribute {
      name: "value"
      t {
        dims: 2
        data_type: 7
        raw_data: "\377\377\377\377\377\377\377\377\004\000\000\000\000\000\000\000"
      }
      type: TENSOR
    }
  }
  node {
    input: "921"
    input: "924"
    output: "925"
    name: "923"
    op_type: "Reshape"
  }
  node {
    input: "925"
    output: "926"
    name: "924"
    op_type: "Cast"
    attribute {
      name: "to"
      i: 1
      type: INT
    }
  }
  node {
    output: "927"
    name: "925"
    op_type: "Constant"
    attribute {
      name: "value"
      t {
        dims: 1
        data_type: 7
        raw_data: "\000\000\000\000\000\000\000\000"
      }
      type: TENSOR
    }
  }
  node {
    output: "928"
    name: "926"
    op_type: "Constant"
    attribute {
      name: "value"
      t {
        dims: 1
        data_type: 7
        raw_data: "\377\377\377\377\377\377\377\177"
      }
      type: TENSOR
    }
  }
  node {
    output: "929"
    name: "927"
    op_type: "Constant"
    attribute {
      name: "value"
      t {
        dims: 1
        data_type: 7
        raw_data: "\000\000\000\000\000\000\000\000"
      }
      type: TENSOR
    }
  }
  node {
    output: "930"
    name: "928"
    op_type: "Constant"
    attribute {
      name: "value"
      t {
        dims: 1
        data_type: 7
        raw_data: "\001\000\000\000\000\000\000\000"
      }
      type: TENSOR
    }
  }
  node {
    input: "926"
    input: "927"
    input: "928"
    input: "929"
    input: "930"
    output: "931"
    name: "929"
    op_type: "Slice"
  }
  node {
    output: "932"
    name: "930"
    op_type: "Constant"
    attribute {
      name: "value"
      t {
        data_type: 7
        raw_data: "\002\000\000\000\000\000\000\000"
      }
      type: TENSOR
    }
  }
  node {
    input: "931"
    input: "932"
    output: "933"
    name: "931"
    op_type: "Gather"
    attribute {
      name: "axis"
      i: 1
      type: INT
    }
  }
  node {
    output: "934"
    name: "932"
    op_type: "Constant"
    attribute {
      name: "value"
      t {
        dims: 1
        data_type: 7
        raw_data: "\000\000\000\000\000\000\000\000"
      }
      type: TENSOR
    }
  }
  node {
    output: "935"
    name: "933"
    op_type: "Constant"
    attribute {
      name: "value"
      t {
        dims: 1
        data_type: 7
        raw_data: "\377\377\377\377\377\377\377\177"
      }
      type: TENSOR
    }
  }
  node {
    output: "936"
    name: "934"
    op_type: "Constant"
    attribute {
      name: "value"
      t {
        dims: 1
        data_type: 7
        raw_data: "\000\000\000\000\000\000\000\000"
      }
      type: TENSOR
    }
  }
  node {
    output: "937"
    name: "935"
    op_type: "Constant"
    attribute {
      name: "value"
      t {
        dims: 1
        data_type: 7
        raw_data: "\001\000\000\000\000\000\000\000"
      }
      type: TENSOR
    }
  }
  node {
    input: "926"
    input: "934"
    input: "935"
    input: "936"
    input: "937"
    output: "938"
    name: "936"
    op_type: "Slice"
  }
  node {
    output: "939"
    name: "937"
    op_type: "Constant"
    attribute {
      name: "value"
      t {
        data_type: 7
        raw_data: "\000\000\000\000\000\000\000\000"
      }
      type: TENSOR
    }
  }
  node {
    input: "938"
    input: "939"
    output: "940"
    name: "938"
    op_type: "Gather"
    attribute {
      name: "axis"
      i: 1
      type: INT
    }
  }
  node {
    input: "933"
    input: "940"
    output: "941"
    name: "939"
    op_type: "Sub"
  }
  node {
    output: "942"
    name: "940"
    op_type: "Constant"
    attribute {
      name: "value"
      t {
        data_type: 1
        raw_data: "\000\000\200?"
      }
      type: TENSOR
    }
  }
  node {
    input: "941"
    input: "942"
    output: "943"
    name: "941"
    op_type: "Add"
  }
  node {
    output: "944"
    name: "942"
    op_type: "Constant"
    attribute {
      name: "value"
      t {
        dims: 1
        data_type: 7
        raw_data: "\000\000\000\000\000\000\000\000"
      }
      type: TENSOR
    }
  }
  node {
    output: "945"
    name: "943"
    op_type: "Constant"
    attribute {
      name: "value"
      t {
        dims: 1
        data_type: 7
        raw_data: "\377\377\377\377\377\377\377\177"
      }
      type: TENSOR
    }
  }
  node {
    output: "946"
    name: "944"
    op_type: "Constant"
    attribute {
      name: "value"
      t {
        dims: 1
        data_type: 7
        raw_data: "\000\000\000\000\000\000\000\000"
      }
      type: TENSOR
    }
  }
  node {
    output: "947"
    name: "945"
    op_type: "Constant"
    attribute {
      name: "value"
      t {
        dims: 1
        data_type: 7
        raw_data: "\001\000\000\000\000\000\000\000"
      }
      type: TENSOR
    }
  }
  node {
    input: "926"
    input: "944"
    input: "945"
    input: "946"
    input: "947"
    output: "948"
    name: "946"
    op_type: "Slice"
  }
  node {
    output: "949"
    name: "947"
    op_type: "Constant"
    attribute {
      name: "value"
      t {
        data_type: 7
        raw_data: "\003\000\000\000\000\000\000\000"
      }
      type: TENSOR
    }
  }
  node {
    input: "948"
    input: "949"
    output: "950"
    name: "948"
    op_type: "Gather"
    attribute {
      name: "axis"
      i: 1
      type: INT
    }
  }
  node {
    output: "951"
    name: "949"
    op_type: "Constant"
    attribute {
      name: "value"
      t {
        dims: 1
        data_type: 7
        raw_data: "\000\000\000\000\000\000\000\000"
      }
      type: TENSOR
    }
  }
  node {
    output: "952"
    name: "950"
    op_type: "Constant"
    attribute {
      name: "value"
      t {
        dims: 1
        data_type: 7
        raw_data: "\377\377\377\377\377\377\377\177"
      }
      type: TENSOR
    }
  }
  node {
    output: "953"
    name: "951"
    op_type: "Constant"
    attribute {
      name: "value"
      t {
        dims: 1
        data_type: 7
        raw_data: "\000\000\000\000\000\000\000\000"
      }
      type: TENSOR
    }
  }
  node {
    output: "954"
    name: "952"
    op_type: "Constant"
    attribute {
      name: "value"
      t {
        dims: 1
        data_type: 7
        raw_data: "\001\000\000\000\000\000\000\000"
      }
      type: TENSOR
    }
  }
  node {
    input: "926"
    input: "951"
    input: "952"
    input: "953"
    input: "954"
    output: "955"
    name: "953"
    op_type: "Slice"
  }
  node {
    output: "956"
    name: "954"
    op_type: "Constant"
    attribute {
      name: "value"
      t {
        data_type: 7
        raw_data: "\001\000\000\000\000\000\000\000"
      }
      type: TENSOR
    }
  }
  node {
    input: "955"
    input: "956"
    output: "957"
    name: "955"
    op_type: "Gather"
    attribute {
      name: "axis"
      i: 1
      type: INT
    }
  }
  node {
    input: "950"
    input: "957"
    output: "958"
    name: "956"
    op_type: "Sub"
  }
  node {
    output: "959"
    name: "957"
    op_type: "Constant"
    attribute {
      name: "value"
      t {
        data_type: 1
        raw_data: "\000\000\200?"
      }
      type: TENSOR
    }
  }
  node {
    input: "958"
    input: "959"
    output: "960"
    name: "958"
    op_type: "Add"
  }
  node {
    output: "961"
    name: "959"
    op_type: "Constant"
    attribute {
      name: "value"
      t {
        dims: 1
        data_type: 7
        raw_data: "\000\000\000\000\000\000\000\000"
      }
      type: TENSOR
    }
  }
  node {
    output: "962"
    name: "960"
    op_type: "Constant"
    attribute {
      name: "value"
      t {
        dims: 1
        data_type: 7
        raw_data: "\377\377\377\377\377\377\377\177"
      }
      type: TENSOR
    }
  }
  node {
    output: "963"
    name: "961"
    op_type: "Constant"
    attribute {
      name: "value"
      t {
        dims: 1
        data_type: 7
        raw_data: "\000\000\000\000\000\000\000\000"
      }
      type: TENSOR
    }
  }
  node {
    output: "964"
    name: "962"
    op_type: "Constant"
    attribute {
      name: "value"
      t {
        dims: 1
        data_type: 7
        raw_data: "\001\000\000\000\000\000\000\000"
      }
      type: TENSOR
    }
  }
  node {
    input: "926"
    input: "961"
    input: "962"
    input: "963"
    input: "964"
    output: "965"
    name: "963"
    op_type: "Slice"
  }
  node {
    output: "966"
    name: "964"
    op_type: "Constant"
    attribute {
      name: "value"
      t {
        data_type: 7
        raw_data: "\000\000\000\000\000\000\000\000"
      }
      type: TENSOR
    }
  }
  node {
    input: "965"
    input: "966"
    output: "967"
    name: "965"
    op_type: "Gather"
    attribute {
      name: "axis"
      i: 1
      type: INT
    }
  }
  node {
…
            dim_value: 128
          }
          dim {
            dim_value: 3
          }
          dim {
            dim_value: 3
          }
        }
      }
    }
  }
  input {
    name: "141"
    type {
      tensor_type {
        elem_type: 1
        shape {
          dim {
            dim_value: 1
          }
          dim {
            dim_value: 128
          }
          dim {
            dim_value: 1
          }
          dim {
            dim_value: 1
          }
        }
      }
    }
  }
  input {
    name: "142"
    type {
      tensor_type {
        elem_type: 1
        shape {
          dim {
            dim_value: 1
          }
          dim {
            dim_value: 128
          }
          dim {
            dim_value: 1
          }
          dim {
            dim_value: 1
          }
        }
      }
    }
  }
  input {
    name: "146"
    type {
      tensor_type {
        elem_type: 1
        shape {
          dim {
            dim_value: 512
          }
          dim {
            dim_value: 128
          }
          dim {
            dim_value: 1
          }
          dim {
            dim_value: 1
          }
        }
      }
    }
  }
  input {
    name: "148"
    type {
      tensor_type {
        elem_type: 1
        shape {
          dim {
            dim_value: 1
          }
          dim {
            dim_value: 512
          }
          dim {
            dim_value: 1
          }
          dim {
            dim_value: 1
          }
        }
      }
    }
  }
  input {
    name: "149"
    type {
      tensor_type {
        elem_type: 1
        shape {
          dim {
            dim_value: 1
          }
          dim {
            dim_value: 512
          }
          dim {
            dim_value: 1
          }
          dim {
            dim_value: 1
          }
        }
      }
    }
  }
  input {
    name: "154"
    type {
      tensor_type {
        elem_type: 1
        shape {
          dim {
            dim_value: 128
          }
          dim {
            dim_value: 512
          }
          dim {
            dim_value: 1
          }
          dim {
            dim_value: 1
          }
        }
      }
    }
  }
  input {
    name: "156"
    type {
      tensor_type {
        elem_type: 1
        shape {
          dim {
            dim_value: 1
          }
          dim {
            dim_value: 128
          }
          dim {
            dim_value: 1
          }
          dim {
            dim_value: 1
          }
        }
      }
    }
  }
  input {
    name: "157"
    type {
      tensor_type {
        elem_type: 1
        shape {
          dim {
            dim_value: 1
          }
          dim {
            dim_value: 128
          }
          dim {
            dim_value: 1
          }
          dim {
            dim_value: 1
          }
        }
      }
    }
  }
  input {
    name: "161"
    type {
      tensor_type {
        elem_type: 1
        shape {
          dim {
            dim_value: 128
          }
          dim {
            dim_value: 128
          }
          dim {
            dim_value: 3
          }
          dim {
            dim_value: 3
          }
        }
      }
    }
  }
  input {
    name: "163"
    type {
      tensor_type {
        elem_type: 1
        shape {
          dim {
            dim_value: 1
          }
          dim {
            dim_value: 128
          }
          dim {
            dim_value: 1
          }
          dim {
            dim_value: 1
          }
        }
      }
    }
  }
  input {
    name: "164"
    type {
      tensor_type {
        elem_type: 1
        shape {
          dim {
            dim_value: 1
          }
          dim {
            dim_value: 128
          }
          dim {
            dim_value: 1
          }
          dim {
            dim_value: 1
          }
        }
      }
    }
  }
  input {
    name: "168"
    type {
      tensor_type {
        elem_type: 1
        shape {
          dim {
            dim_value: 512
          }
          dim {
            dim_value: 128
          }
          dim {
            dim_value: 1
          }
          dim {
            dim_value: 1
          }
        }
      }
    }
  }
  input {
    name: "170"
    type {
      tensor_type {
        elem_type: 1
        shape {
          dim {
            dim_value: 1
          }
          dim {
            dim_value: 512
          }
          dim {
            dim_value: 1
          }
          dim {
            dim_value: 1
          }
        }
      }
    }
  }
  input {
    name: "171"
    type {
      tensor_type {
        elem_type: 1
        shape {
          dim {
            dim_value: 1
          }
          dim {
            dim_value: 512
          }
          dim {
            dim_value: 1
          }
          dim {
            dim_value: 1
          }
        }
      }
    }
  }
  input {
    name: "176"
    type {
      tensor_type {
        elem_type: 1
        shape {
          dim {
            dim_value: 256
          }
          dim {
            dim_value: 512
          }
          dim {
            dim_value: 1
          }
          dim {
            dim_value: 1
          }
        }
      }
    }
  }
  input {
    name: "178"
    type {
      tensor_type {
        elem_type: 1
        shape {
          dim {
            dim_value: 1
          }
          dim {
            dim_value: 256
          }
          dim {
            dim_value: 1
          }
          dim {
            dim_value: 1
          }
        }
      }
    }
  }
  input {
    name: "179"
    type {
      tensor_type {
        elem_type: 1
        shape {
          dim {
            dim_value: 1
          }
          dim {
            dim_value: 256
          }
          dim {
            dim_value: 1
          }
          dim {
            dim_value: 1
          }
        }
      }
    }
  }
  input {
    name: "183"
    type {
      tensor_type {
        elem_type: 1
        shape {
          dim {
            dim_value: 256
          }
          dim {
            dim_value: 256
          }
          dim {
            dim_value: 3
          }
          dim {
            dim_value: 3
          }
        }
      }
    }
  }
  input {
    name: "185"
    type {
      tensor_type {
        elem_type: 1
        shape {
          dim {
            dim_value: 1
          }
          dim {
            dim_value: 256
          }
          dim {
            dim_value: 1
          }
          dim {
            dim_value: 1
          }
        }
      }
    }
  }
  input {
    name: "186"
    type {
      tensor_type {
        elem_type: 1
        shape {
          dim {
            dim_value: 1
          }
          dim {
            dim_value: 256
          }
          dim {
            dim_value: 1
          }
          dim {
            dim_value: 1
          }
        }
      }
    }
  }
  input {
    name: "190"
    type {
      tensor_type {
        elem_type: 1
        shape {
          dim {
            dim_value: 1024
          }
          dim {
            dim_value: 256
          }
          dim {
            dim_value: 1
          }
          dim {
            dim_value: 1
          }
        }
      }
    }
  }
  input {
    name: "192"
    type {
      tensor_type {
        elem_type: 1
        shape {
          dim {
            dim_value: 1
          }
          dim {
            dim_value: 1024
          }
          dim {
            dim_value: 1
          }
          dim {
            dim_value: 1
          }
        }
      }
    }
  }
  input {
    name: "193"
    type {
      tensor_type {
        elem_type: 1
        shape {
          dim {
            dim_value: 1
          }
          dim {
            dim_value: 1024
          }
          dim {
            dim_value: 1
          }
          dim {
            dim_value: 1
          }
        }
      }
    }
  }
  input {
    name: "196"
    type {
      tensor_type {
        elem_type: 1
        shape {
          dim {
            dim_value: 1024
          }
          dim {
            dim_value: 512
          }
          dim {
            dim_value: 1
          }
          dim {
            dim_value: 1
          }
        }
      }
    }
  }
  input {
    name: "198"
    type {
      tensor_type {
        elem_type: 1
        shape {
          dim {
            dim_value: 1
          }
          dim {
            dim_value: 1024
          }
          dim {
            dim_value: 1
          }
          dim {
            dim_value: 1
          }
        }
      }
    }
  }
  input {
    name: "199"
    type {
      tensor_type {
        elem_type: 1
        shape {
          dim {
            dim_value: 1
          }
          dim {
            dim_value: 1024
          }
          dim {
            dim_value: 1
          }
          dim {
            dim_value: 1
          }
        }
      }
    }
  }
  input {
    name: "204"
    type {
      tensor_type {
        elem_type: 1
        shape {
          dim {
            dim_value: 256
          }
          dim {
            dim_value: 1024
          }
          dim {
            dim_value: 1
          }
          dim {
            dim_value: 1
          }
        }
      }
    }
  }
  input {
    name: "206"
    type {
      tensor_type {
        elem_type: 1
        shape {
          dim {
            dim_value: 1
          }
          dim {
            dim_value: 256
          }
          dim {
            dim_value: 1
          }
          dim {
            dim_value: 1
          }
        }
      }
    }
  }
  input {
    name: "207"
    type {
      tensor_type {
        elem_type: 1
        shape {
          dim {
            dim_value: 1
          }
          dim {
            dim_value: 256
          }
          dim {
            dim_value: 1
          }
          dim {
            dim_value: 1
          }
        }
      }
    }
  }
  input {
    name: "211"
    type {
      tensor_type {
        elem_type: 1
        shape {
          dim {
            dim_value: 256
          }
          dim {
            dim_value: 256
          }
          dim {
            dim_value: 3
          }
          dim {
            dim_value: 3
          }
        }
      }
    }
  }
  input {
    name: "213"
    type {
      tensor_type {
        elem_type: 1
        shape {
          dim {
            dim_value: 1
          }
          dim {
            dim_value: 256
          }
          dim {
            dim_value: 1
          }
          dim {
            dim_value: 1
          }
        }
      }
    }
  }
  input {
    name: "214"
    type {
      tensor_type {
        elem_type: 1
        shape {
          dim {
            dim_value: 1
          }
          dim {
            dim_value: 256
          }
          dim {
            dim_value: 1
          }
          dim {
            dim_value: 1
          }
        }
      }
    }
  }
  input {
    name: "218"
    type {
      tensor_type {
        elem_type: 1
        shape {
          dim {
            dim_value: 1024
          }
          dim {
            dim_value: 256
          }
          dim {
            dim_value: 1
          }
          dim {
            dim_value: 1
          }
        }
      }
    }
  }
  input {
    name: "220"
    type {
      tensor_type {
        elem_type: 1
        shape {
          dim {
            dim_value: 1
          }
          dim {
            dim_value: 1024
          }
          dim {
            dim_value: 1
          }
          dim {
            dim_value: 1
          }
        }
      }
    }
  }
  input {
    name: "221"
    type {
      tensor_type {
        elem_type: 1
        shape {
          dim {
            dim_value: 1
          }
          dim {
            dim_value: 1024
          }
          dim {
            dim_value: 1
          }
          dim {
            dim_value: 1
          }
        }
      }
    }
  }
  input {
    name: "226"
    type {
      tensor_type {
        elem_type: 1
        shape {
          dim {
            dim_value: 256
          }
          dim {
            dim_value: 1024
          }
          dim {
            dim_value: 1
          }
          dim {
            dim_value: 1
          }
        }
      }
    }
  }
  input {
    name: "228"
    type {
      tensor_type {
        elem_type: 1
        shape {
          dim {
            dim_value: 1
          }
          dim {
            dim_value: 256
          }
          dim {
            dim_value: 1
          }
          dim {
            dim_value: 1
          }
        }
      }
    }
  }
  input {
    name: "229"
    type {
      tensor_type {
        elem_type: 1
        shape {
          dim {
            dim_value: 1
          }
          dim {
            dim_value: 256
          }
          dim {
            dim_value: 1
          }
          dim {
            dim_value: 1
          }
        }
      }
    }
  }
  input {
    name: "233"
    type {
      tensor_type {
        elem_type: 1
        shape {
          dim {
            dim_value: 256
          }
          dim {
            dim_value: 256
          }
          dim {
            dim_value: 3
          }
          dim {
            dim_value: 3
          }
        }
      }
    }
  }
  input {
    name: "235"
    type {
      tensor_type {
        elem_type: 1
        shape {
          dim {
            dim_value: 1
          }
          dim {
            dim_value: 256
          }
          dim {
            dim_value: 1
          }
          dim {
            dim_value: 1
          }
        }
      }
    }
  }
  input {
    name: "236"
    type {
      tensor_type {
        elem_type: 1
        shape {
          dim {
            dim_value: 1
          }
          dim {
            dim_value: 256
          }
          dim {
            dim_value: 1
          }
          dim {
            dim_value: 1
          }
        }
      }
    }
  }
  input {
    name: "240"
    type {
      tensor_type {
        elem_type: 1
        shape {
          dim {
            dim_value: 1024
          }
          dim {
            dim_value: 256
          }
          dim {
            dim_value: 1
          }
          dim {
            dim_value: 1
          }
        }
      }
    }
  }
  input {
    name: "242"
    type {
      tensor_type {
        elem_type: 1
        shape {
          dim {
            dim_value: 1
          }
          dim {
            dim_value: 1024
          }
          dim {
            dim_value: 1
          }
          dim {
            dim_value: 1
          }
        }
      }
    }
  }
  input {
    name: "243"
    type {
      tensor_type {
        elem_type: 1
        shape {
          dim {
            dim_value: 1
          }
          dim {
            dim_value: 1024
          }
          dim {
            dim_value: 1
          }
          dim {
            dim_value: 1
          }
        }
      }
    }
  }
  input {
    name: "248"
    type {
      tensor_type {
        elem_type: 1
        shape {
          dim {
            dim_value: 256
          }
          dim {
            dim_value: 1024
          }
          dim {
            dim_value: 1
          }
          dim {
            dim_value: 1
          }
        }
      }
    }
  }
  input {
    name: "250"
    type {
      tensor_type {
        elem_type: 1
        shape {
          dim {
            dim_value: 1
          }
          dim {
            dim_value: 256
          }
          dim {
            dim_value: 1
          }
          dim {
            dim_value: 1
          }
        }
      }
    }
  }
  input {
    name: "251"
    type {
      tensor_type {
        elem_type: 1
        shape {
          dim {
            dim_value: 1
          }
          dim {
            dim_value: 256
          }
          dim {
            dim_value: 1
          }
          dim {
            dim_value: 1
          }
        }
      }
    }
  }
  input {
    name: "255"
    type {
      tensor_type {
        elem_type: 1
        shape {
          dim {
            dim_value: 256
          }
          dim {
            dim_value: 256
          }
          dim {
            dim_value: 3
          }
          dim {
            dim_value: 3
          }
        }
      }
    }
  }
  input {
    name: "257"
    type {
      tensor_type {
        elem_type: 1
        shape {
          dim {
            dim_value: 1
          }
          dim {
            dim_value: 256
          }
          dim {
            dim_value: 1
          }
          dim {
            dim_value: 1
          }
        }
      }
    }
  }
  input {
    name: "258"
    type {
      tensor_type {
        elem_type: 1
        shape {
          dim {
            dim_value: 1
          }
          dim {
            dim_value: 256
          }
          dim {
            dim_value: 1
          }
          dim {
            dim_value: 1
          }
        }
      }
    }
  }
  input {
    name: "262"
    type {
      tensor_type {
        elem_type: 1
        shape {
          dim {
            dim_value: 1024
          }
          dim {
            dim_value: 256
          }
          dim {
            dim_value: 1
          }
          dim {
            dim_value: 1
          }
        }
      }
    }
  }
  input {
    name: "264"
    type {
      tensor_type {
        elem_type: 1
        shape {
          dim {
            dim_value: 1
          }
          dim {
            dim_value: 1024
          }
          dim {
            dim_value: 1
          }
          dim {
            dim_value: 1
          }
        }
      }
    }
  }
  input {
    name: "265"
    type {
      tensor_type {
        elem_type: 1
        shape {
          dim {
            dim_value: 1
          }
          dim {
            dim_value: 1024
          }
          dim {
            dim_value: 1
          }
          dim {
            dim_value: 1
          }
        }
      }
    }
  }
  input {
    name: "270"
    type {
      tensor_type {
        elem_type: 1
        shape {
          dim {
            dim_value: 256
          }
          dim {
            dim_value: 1024
          }
          dim {
            dim_value: 1
          }
          dim {
            dim_value: 1
          }
        }
      }
    }
  }
  input {
    name: "272"
    type {
      tensor_type {
        elem_type: 1
        shape {
          dim {
            dim_value: 1
          }
          dim {
            dim_value: 256
          }
          dim {
            dim_value: 1
          }
          dim {
            dim_value: 1
          }
        }
      }
    }
  }
  input {
    name: "273"
    type {
      tensor_type {
        elem_type: 1
        shape {
          dim {
            dim_value: 1
          }
          dim {
            dim_value: 256
          }
          dim {
            dim_value: 1
          }
          dim {
            dim_value: 1
          }
        }
      }
    }
  }
  input {
    name: "277"
    type {
      tensor_type {
        elem_type: 1
        shape {
          dim {
            dim_value: 256
          }
          dim {
            dim_value: 256
          }
          dim {
            dim_value: 3
          }
          dim {
            dim_value: 3
          }
        }
      }
    }
  }
  input {
    name: "279"
    type {
      tensor_type {
        elem_type: 1
        shape {
          dim {
            dim_value: 1
          }
          dim {
            dim_value: 256
          }
          dim {
            dim_value: 1
          }
          dim {
            dim_value: 1
          }
        }
      }
    }
  }
  input {
    name: "280"
    type {
      tensor_type {
        elem_type: 1
        shape {
          dim {
            dim_value: 1
          }
          dim {
            dim_value: 256
          }
          dim {
            dim_value: 1
          }
          dim {
            dim_value: 1
          }
        }
      }
    }
  }
  input {
    name: "284"
    type {
      tensor_type {
        elem_type: 1
        shape {
          dim {
            dim_value: 1024
          }
          dim {
            dim_value: 256
          }
          dim {
            dim_value: 1
          }
          dim {
            dim_value: 1
          }
        }
      }
    }
  }
  input {
    name: "286"
    type {
      tensor_type {
        elem_type: 1
        shape {
          dim {
            dim_value: 1
          }
          dim {
            dim_value: 1024
          }
          dim {
            dim_value: 1
          }
          dim {
            dim_value: 1
          }
        }
      }
    }
  }
  input {
    name: "287"
    type {
      tensor_type {
        elem_type: 1
        shape {
          dim {
            dim_value: 1
          }
          dim {
            dim_value: 1024
          }
          dim {
            dim_value: 1
          }
          dim {
            dim_value: 1
          }
        }
      }
    }
  }
  input {
    name: "292"
    type {
      tensor_type {
        elem_type: 1
        shape {
          dim {
            dim_value: 256
          }
          dim {
            dim_value: 1024
          }
          dim {
            dim_value: 1
          }
          dim {
            dim_value: 1
          }
        }
      }
    }
  }
  input {
    name: "294"
    type {
      tensor_type {
        elem_type: 1
        shape {
          dim {
            dim_value: 1
          }
          dim {
            dim_value: 256
          }
          dim {
            dim_value: 1
          }
          dim {
            dim_value: 1
          }
        }
      }
    }
  }
  input {
    name: "295"
    type {
      tensor_type {
        elem_type: 1
        shape {
          dim {
            dim_value: 1
          }
          dim {
            dim_value: 256
          }
          dim {
            dim_value: 1
          }
          dim {
            dim_value: 1
          }
        }
      }
    }
  }
  input {
    name: "299"
    type {
      tensor_type {
        elem_type: 1
        shape {
          dim {
            dim_value: 256
          }
          dim {
            dim_value: 256
          }
          dim {
            dim_value: 3
          }
          dim {
            dim_value: 3
          }
        }
      }
    }
  }
  input {
    name: "301"
    type {
      tensor_type {
        elem_type: 1
        shape {
          dim {
            dim_value: 1
          }
          dim {
            dim_value: 256
          }
          dim {
            dim_value: 1
          }
          dim {
            dim_value: 1
          }
        }
      }
    }
  }
  input {
    name: "302"
    type {
      tensor_type {
        elem_type: 1
        shape {
          dim {
            dim_value: 1
          }
          dim {
            dim_value: 256
          }
          dim {
            dim_value: 1
          }
          dim {
            dim_value: 1
          }
        }
      }
    }
  }
  input {
    name: "306"
    type {
      tensor_type {
        elem_type: 1
        shape {
          dim {
            dim_value: 1024
          }
          dim {
            dim_value: 256
          }
          dim {
            dim_value: 1
          }
          dim {
            dim_value: 1
          }
        }
      }
    }
  }
  input {
    name: "308"
    type {
      tensor_type {
        elem_type: 1
        shape {
          dim {
            dim_value: 1
          }
          dim {
            dim_value: 1024
          }
          dim {
            dim_value: 1
          }
          dim {
            dim_value: 1
          }
        }
      }
    }
  }
  input {
    name: "309"
    type {
      tensor_type {
        elem_type: 1
        shape {
          dim {
            dim_value: 1
          }
          dim {
            dim_value: 1024
          }
          dim {
            dim_value: 1
          }
          dim {
            dim_value: 1
          }
        }
      }
    }
  }
  input {
    name: "314"
    type {
      tensor_type {
        elem_type: 1
        shape {
          dim {
            dim_value: 512
          }
          dim {
            dim_value: 1024
          }
          dim {
            dim_value: 1
          }
          dim {
            dim_value: 1
          }
        }
      }
    }
  }
  input {
    name: "316"
    type {
      tensor_type {
        elem_type: 1
        shape {
          dim {
            dim_value: 1
          }
          dim {
            dim_value: 512
          }
          dim {
            dim_value: 1
          }
          dim {
            dim_value: 1
          }
        }
      }
    }
  }
  input {
    name: "317"
    type {
      tensor_type {
        elem_type: 1
        shape {
          dim {
            dim_value: 1
          }
          dim {
            dim_value: 512
          }
          dim {
            dim_value: 1
          }
          dim {
            dim_value: 1
          }
        }
      }
    }
  }
  input {
    name: "321"
    type {
      tensor_type {
        elem_type: 1
        shape {
          dim {
            dim_value: 512
          }
          dim {
            dim_value: 512
          }
          dim {
            dim_value: 3
          }
          dim {
            dim_value: 3
          }
        }
      }
    }
  }
  input {
    name: "323"
    type {
      tensor_type {
        elem_type: 1
        shape {
          dim {
            dim_value: 1
          }
          dim {
            dim_value: 512
          }
          dim {
            dim_value: 1
          }
          dim {
            dim_value: 1
          }
        }
      }
    }
  }
  input {
    name: "324"
    type {
      tensor_type {
        elem_type: 1
        shape {
          dim {
            dim_value: 1
          }
          dim {
            dim_value: 512
          }
          dim {
            dim_value: 1
          }
          dim {
            dim_value: 1
          }
        }
      }
    }
  }
  input {
    name: "328"
    type {
      tensor_type {
        elem_type: 1
        shape {
          dim {
            dim_value: 2048
          }
          dim {
            dim_value: 512
          }
          dim {
            dim_value: 1
          }
          dim {
            dim_value: 1
          }
        }
      }
    }
  }
  input {
    name: "330"
    type {
      tensor_type {
        elem_type: 1
        shape {
          dim {
            dim_value: 1
          }
          dim {
            dim_value: 2048
          }
          dim {
            dim_value: 1
          }
          dim {
            dim_value: 1
          }
        }
      }
    }
  }
  input {
    name: "331"
    type {
      tensor_type {
        elem_type: 1
        shape {
          dim {
            dim_value: 1
          }
          dim {
            dim_value: 2048
          }
          dim {
            dim_value: 1
          }
          dim {
            dim_value: 1
          }
        }
      }
    }
  }
  input {
    name: "334"
    type {
      tensor_type {
        elem_type: 1
        shape {
          dim {
            dim_value: 2048
          }
          dim {
            dim_value: 1024
          }
          dim {
            dim_value: 1
          }
          dim {
            dim_value: 1
          }
        }
      }
    }
  }
  input {
    name: "336"
    type {
      tensor_type {
        elem_type: 1
        shape {
          dim {
            dim_value: 1
          }
          dim {
            dim_value: 2048
          }
          dim {
            dim_value: 1
          }
          dim {
            dim_value: 1
          }
        }
      }
    }
  }
  input {
    name: "337"
    type {
      tensor_type {
        elem_type: 1
        shape {
          dim {
            dim_value: 1
          }
          dim {
            dim_value: 2048
          }
          dim {
            dim_value: 1
          }
          dim {
            dim_value: 1
          }
        }
      }
    }
  }
  input {
    name: "342"
    type {
      tensor_type {
        elem_type: 1
        shape {
          dim {
            dim_value: 512
          }
          dim {
            dim_value: 2048
          }
          dim {
            dim_value: 1
          }
          dim {
            dim_value: 1
          }
        }
      }
    }
  }
  input {
    name: "344"
    type {
      tensor_type {
        elem_type: 1
        shape {
          dim {
            dim_value: 1
          }
          dim {
            dim_value: 512
          }
          dim {
            dim_value: 1
          }
          dim {
            dim_value: 1
          }
        }
      }
    }
  }
  input {
    name: "345"
    type {
      tensor_type {
        elem_type: 1
        shape {
          dim {
            dim_value: 1
          }
          dim {
            dim_value: 512
          }
          dim {
            dim_value: 1
          }
          dim {
            dim_value: 1
          }
        }
      }
    }
  }
  input {
    name: "349"
    type {
      tensor_type {
        elem_type: 1
        shape {
          dim {
            dim_value: 512
          }
          dim {
            dim_value: 512
          }
          dim {
            dim_value: 3
          }
          dim {
            dim_value: 3
          }
        }
      }
    }
  }
  input {
    name: "351"
    type {
      tensor_type {
        elem_type: 1
        shape {
          dim {
            dim_value: 1
          }
          dim {
            dim_value: 512
          }
          dim {
            dim_value: 1
          }
          dim {
            dim_value: 1
          }
        }
      }
    }
  }
  input {
    name: "352"
    type {
      tensor_type {
        elem_type: 1
        shape {
          dim {
            dim_value: 1
          }
          dim {
            dim_value: 512
          }
          dim {
            dim_value: 1
          }
          dim {
            dim_value: 1
          }
        }
      }
    }
  }
  input {
    name: "356"
    type {
      tensor_type {
        elem_type: 1
        shape {
          dim {
            dim_value: 2048
          }
          dim {
            dim_value: 512
          }
          dim {
            dim_value: 1
          }
          dim {
            dim_value: 1
          }
        }
      }
    }
  }
  input {
    name: "358"
    type {
      tensor_type {
        elem_type: 1
        shape {
          dim {
            dim_value: 1
          }
          dim {
            dim_value: 2048
          }
          dim {
            dim_value: 1
          }
          dim {
            dim_value: 1
          }
        }
      }
    }
  }
  input {
    name: "359"
    type {
      tensor_type {
        elem_type: 1
        shape {
          dim {
            dim_value: 1
          }
          dim {
            dim_value: 2048
          }
          dim {
            dim_value: 1
          }
          dim {
            dim_value: 1
          }
        }
      }
    }
  }
  input {
    name: "364"
    type {
      tensor_type {
        elem_type: 1
        shape {
          dim {
            dim_value: 512
          }
          dim {
            dim_value: 2048
          }
          dim {
            dim_value: 1
          }
          dim {
            dim_value: 1
          }
        }
      }
    }
  }
  input {
    name: "366"
    type {
      tensor_type {
        elem_type: 1
        shape {
          dim {
            dim_value: 1
          }
          dim {
            dim_value: 512
          }
          dim {
            dim_value: 1
          }
          dim {
            dim_value: 1
          }
        }
      }
    }
  }
  input {
    name: "367"
    type {
      tensor_type {
        elem_type: 1
        shape {
          dim {
            dim_value: 1
          }
          dim {
            dim_value: 512
          }
          dim {
            dim_value: 1
          }
          dim {
            dim_value: 1
          }
        }
      }
    }
  }
  input {
    name: "371"
    type {
      tensor_type {
        elem_type: 1
        shape {
          dim {
            dim_value: 512
          }
          dim {
            dim_value: 512
          }
          dim {
            dim_value: 3
          }
          dim {
            dim_value: 3
          }
        }
      }
    }
  }
  input {
    name: "373"
    type {
      tensor_type {
        elem_type: 1
        shape {
          dim {
            dim_value: 1
          }
          dim {
            dim_value: 512
          }
          dim {
            dim_value: 1
          }
          dim {
            dim_value: 1
          }
        }
      }
    }
  }
  input {
    name: "374"
    type {
      tensor_type {
        elem_type: 1
        shape {
          dim {
            dim_value: 1
          }
          dim {
            dim_value: 512
          }
          dim {
            dim_value: 1
          }
          dim {
            dim_value: 1
          }
        }
      }
    }
  }
  input {
    name: "378"
    type {
      tensor_type {
        elem_type: 1
        shape {
          dim {
            dim_value: 2048
          }
          dim {
            dim_value: 512
          }
          dim {
            dim_value: 1
          }
          dim {
            dim_value: 1
          }
        }
      }
    }
  }
  input {
    name: "380"
    type {
      tensor_type {
        elem_type: 1
        shape {
          dim {
            dim_value: 1
          }
          dim {
            dim_value: 2048
          }
          dim {
            dim_value: 1
          }
          dim {
            dim_value: 1
          }
        }
      }
    }
  }
  input {
    name: "381"
    type {
      tensor_type {
        elem_type: 1
        shape {
          dim {
            dim_value: 1
          }
          dim {
            dim_value: 2048
          }
          dim {
            dim_value: 1
          }
          dim {
            dim_value: 1
          }
        }
      }
    }
  }
  input {
    name: "386"
    type {
      tensor_type {
        elem_type: 1
        shape {
          dim {
            dim_value: 256
          }
          dim {
            dim_value: 2048
          }
          dim {
            dim_value: 1
          }
          dim {
            dim_value: 1
          }
        }
      }
    }
  }
  input {
    name: "387"
    type {
      tensor_type {
        elem_type: 1
        shape {
          dim {
            dim_value: 256
          }
        }
      }
    }
  }
  input {
    name: "389"
    type {
      tensor_type {
        elem_type: 1
        shape {
          dim {
            dim_value: 256
          }
          dim {
            dim_value: 256
          }
          dim {
            dim_value: 3
          }
          dim {
            dim_value: 3
          }
        }
      }
    }
  }
  input {
    name: "390"
    type {
      tensor_type {
        elem_type: 1
        shape {
          dim {
            dim_value: 256
          }
        }
      }
    }
  }
  input {
    name: "417"
    type {
      tensor_type {
        elem_type: 1
        shape {
          dim {
            dim_value: 256
          }
          dim {
            dim_value: 1024
          }
          dim {
            dim_value: 1
          }
          dim {
            dim_value: 1
          }
        }
      }
    }
  }
  input {
    name: "418"
    type {
      tensor_type {
        elem_type: 1
        shape {
          dim {
            dim_value: 256
          }
        }
      }
    }
  }
  input {
    name: "421"
    type {
      tensor_type {
        elem_type: 1
        shape {
          dim {
            dim_value: 256
          }
          dim {
            dim_value: 256
          }
          dim {
            dim_value: 3
          }
          dim {
            dim_value: 3
          }
        }
      }
    }
  }
  input {
    name: "422"
    type {
      tensor_type {
        elem_type: 1
        shape {
          dim {
            dim_value: 256
          }
        }
      }
    }
  }
  input {
    name: "449"
    type {
      tensor_type {
        elem_type: 1
        shape {
          dim {
            dim_value: 256
          }
          dim {
            dim_value: 512
          }
          dim {
            dim_value: 1
          }
          dim {
            dim_value: 1
          }
        }
      }
    }
  }
  input {
    name: "450"
    type {
      tensor_type {
        elem_type: 1
        shape {
          dim {
            dim_value: 256
          }
        }
      }
    }
  }
  input {
    name: "453"
    type {
      tensor_type {
        elem_type: 1
        shape {
          dim {
            dim_value: 256
          }
          dim {
            dim_value: 256
          }
          dim {
            dim_value: 3
          }
          dim {
            dim_value: 3
          }
        }
      }
    }
  }
  input {
    name: "454"
    type {
      tensor_type {
        elem_type: 1
        shape {
          dim {
            dim_value: 256
          }
        }
      }
    }
  }
  input {
    name: "481"
    type {
      tensor_type {
        elem_type: 1
        shape {
          dim {
            dim_value: 256
          }
          dim {
            dim_value: 256
          }
          dim {
            dim_value: 1
          }
          dim {
            dim_value: 1
          }
        }
      }
    }
  }
  input {
    name: "482"
    type {
      tensor_type {
        elem_type: 1
        shape {
          dim {
            dim_value: 256
          }
        }
      }
    }
  }
  input {
    name: "485"
    type {
      tensor_type {
        elem_type: 1
        shape {
          dim {
            dim_value: 256
          }
          dim {
            dim_value: 256
          }
          dim {
            dim_value: 3
          }
          dim {
            dim_value: 3
          }
        }
      }
    }
  }
  input {
    name: "486"
    type {
      tensor_type {
        elem_type: 1
        shape {
          dim {
            dim_value: 256
          }
        }
      }
    }
  }
  input {
    name: "489"
    type {
      tensor_type {
        elem_type: 1
        shape {
          dim {
            dim_value: 256
          }
          dim {
            dim_value: 256
          }
          dim {
            dim_value: 3
          }
          dim {
            dim_value: 3
          }
        }
      }
    }
  }
  input {
    name: "490"
    type {
      tensor_type {
        elem_type: 1
        shape {
          dim {
            dim_value: 256
          }
        }
      }
    }
  }
  input {
    name: "493"
    type {
      tensor_type {
        elem_type: 1
        shape {
          dim {
            dim_value: 3
          }
          dim {
            dim_value: 256
          }
          dim {
            dim_value: 1
          }
          dim {
            dim_value: 1
          }
        }
      }
    }
  }
  input {
    name: "496"
    type {
      tensor_type {
        elem_type: 1
        shape {
          dim {
            dim_value: 12
          }
          dim {
            dim_value: 256
          }
          dim {
            dim_value: 1
          }
          dim {
            dim_value: 1
          }
        }
      }
    }
  }
  input {
    name: "2797"
    type {
      tensor_type {
        elem_type: 1
        shape {
          dim {
            dim_value: 12544
          }
          dim {
            dim_value: 1024
          }
        }
      }
    }
  }
  input {
    name: "2798"
    type {
      tensor_type {
        elem_type: 1
        shape {
          dim {
            dim_value: 1024
          }
        }
      }
    }
  }
  input {
    name: "2801"
    type {
      tensor_type {
        elem_type: 1
        shape {
          dim {
            dim_value: 1024
          }
          dim {
            dim_value: 1024
          }
        }
      }
    }
  }
  input {
    name: "2802"
    type {
      tensor_type {
        elem_type: 1
        shape {
          dim {
            dim_value: 1024
          }
        }
      }
    }
  }
  input {
    name: "2805"
    type {
      tensor_type {
        elem_type: 1
        shape {
          dim {
            dim_value: 1024
          }
          dim {
            dim_value: 81
          }
        }
      }
    }
  }
  input {
    name: "2806"
    type {
      tensor_type {
        elem_type: 1
        shape {
          dim {
            dim_value: 81
          }
        }
      }
    }
  }
  input {
    name: "2808"
    type {
      tensor_type {
        elem_type: 1
        shape {
          dim {
            dim_value: 1024
          }
          dim {
            dim_value: 324
          }
        }
      }
    }
  }
  input {
    name: "2809"
    type {
      tensor_type {
        elem_type: 1
        shape {
          dim {
            dim_value: 324
          }
        }
      }
    }
  }
  input {
    name: "6834"
    type {
      tensor_type {
        elem_type: 1
        shape {
          dim {
            dim_value: 256
          }
          dim {
            dim_value: 256
          }
          dim {
            dim_value: 3
          }
          dim {
            dim_value: 3
          }
        }
      }
    }
  }
  input {
    name: "6835"
    type {
      tensor_type {
        elem_type: 1
        shape {
          dim {
            dim_value: 256
          }
        }
      }
    }
  }
  input {
    name: "6838"
    type {
      tensor_type {
        elem_type: 1
        shape {
          dim {
            dim_value: 256
          }
          dim {
            dim_value: 256
          }
          dim {
            dim_value: 3
          }
          dim {
            dim_value: 3
          }
        }
      }
    }
  }
  input {
    name: "6839"
    type {
      tensor_type {
        elem_type: 1
        shape {
          dim {
            dim_value: 256
          }
        }
      }
    }
  }
  input {
    name: "6842"
    type {
      tensor_type {
        elem_type: 1
        shape {
          dim {
            dim_value: 256
          }
          dim {
            dim_value: 256
          }
          dim {
            dim_value: 3
          }
          dim {
            dim_value: 3
          }
        }
      }
    }
  }
  input {
    name: "6843"
    type {
      tensor_type {
        elem_type: 1
        shape {
          dim {
            dim_value: 256
          }
        }
      }
    }
  }
  input {
    name: "6846"
    type {
      tensor_type {
        elem_type: 1
        shape {
          dim {
            dim_value: 256
          }
          dim {
            dim_value: 256
          }
          dim {
            dim_value: 3
          }
          dim {
            dim_value: 3
          }
        }
      }
    }
  }
  input {
    name: "6847"
    type {
      tensor_type {
        elem_type: 1
        shape {
          dim {
            dim_value: 256
          }
        }
      }
    }
  }
  input {
    name: "6850"
    type {
      tensor_type {
        elem_type: 1
        shape {
          dim {
            dim_value: 256
          }
          dim {
            dim_value: 256
          }
          dim {
            dim_value: 2
          }
          dim {
            dim_value: 2
          }
        }
      }
    }
  }
  input {
    name: "6851"
    type {
      tensor_type {
        elem_type: 1
        shape {
          dim {
            dim_value: 256
          }
        }
      }
    }
  }
  input {
    name: "6854"
    type {
      tensor_type {
        elem_type: 1
        shape {
          dim {
            dim_value: 81
          }
          dim {
            dim_value: 256
          }
          dim {
            dim_value: 1
          }
          dim {
            dim_value: 1
          }
        }
      }
    }
  }
  input {
    name: "6855"
    type {
      tensor_type {
        elem_type: 1
        shape {
          dim {
            dim_value: 81
          }
        }
      }
    }
  }
  output {
    name: "6568"
    type {
      tensor_type {
        elem_type: 1
        shape {
          dim {
            dim_param: "nbox"
          }
          dim {
            dim_value: 4
          }
        }
      }
    }
  }
  output {
    name: "6570"
    type {
      tensor_type {
        elem_type: 7
        shape {
          dim {
            dim_param: "nbox"
          }
        }
      }
    }
  }
  output {
    name: "6572"
    type {
      tensor_type {
        elem_type: 1
        shape {
          dim {
            dim_param: "nbox"
          }
        }
      }
    }
  }
  output {
    name: "6887"
    type {
      tensor_type {
        elem_type: 1
        shape {
          dim {
            dim_param: "nbox"
          }
          dim {
            dim_value: 1
          }
          dim {
            dim_value: 28
          }
          dim {
            dim_value: 28
          }
        }
      }
    }
  }
  value_info {
    name: "4"
    type {
      tensor_type {
        elem_type: 1
        shape {
          dim {
            dim_value: 1
          }
          dim {
            dim_value: 64
          }
          dim {
            dim_value: 1
          }
          dim {
            dim_value: 1
          }
        }
      }
    }
  }
  value_info {
    name: "5"
    type {
      tensor_type {
        elem_type: 1
        shape {
          dim {
            dim_value: 1
          }
          dim {
            dim_value: 64
          }
          dim {
            dim_value: 1
          }
          dim {
            dim_value: 1
          }
        }
      }
    }
  }
  value_info {
    name: "12"
    type {
      tensor_type {
        elem_type: 1
        shape {
          dim {
            dim_value: 1
          }
          dim {
            dim_value: 64
          }
          dim {
            dim_value: 1
          }
          dim {
            dim_value: 1
          }
        }
      }
    }
  }
  value_info {
    name: "13"
    type {
      tensor_type {
        elem_type: 1
        shape {
          dim {
            dim_value: 1
          }
          dim {
            dim_value: 64
          }
          dim {
            dim_value: 1
          }
          dim {
            dim_value: 1
          }
        }
      }
    }
  }
  value_info {
    name: "19"
    type {
      tensor_type {
        elem_type: 1
        shape {
          dim {
            dim_value: 1
          }
          dim {
            dim_value: 64
          }
          dim {
            dim_value: 1
          }
          dim {
            dim_value: 1
          }
        }
      }
    }
  }
  value_info {
    name: "20"
    type {
      tensor_type {
        elem_type: 1
        shape {
          dim {
            dim_value: 1
          }
          dim {
            dim_value: 64
          }
          dim {
            dim_value: 1
          }
          dim {
            dim_value: 1
          }
        }
      }
    }
  }
  value_info {
    name: "40"
    type {
      tensor_type {
        elem_type: 1
        shape {
          dim {
            dim_value: 1
          }
          dim {
            dim_value: 64
          }
          dim {
            dim_value: 1
          }
          dim {
            dim_value: 1
          }
        }
      }
    }
  }
  value_info {
    name: "41"
    type {
      tensor_type {
        elem_type: 1
        shape {
          dim {
            dim_value: 1
          }
          dim {
            dim_value: 64
          }
          dim {
            dim_value: 1
          }
          dim {
            dim_value: 1
          }
        }
      }
    }
  }
  value_info {
    name: "47"
    type {
      tensor_type {
        elem_type: 1
        shape {
          dim {
            dim_value: 1
          }
          dim {
            dim_value: 64
          }
          dim {
            dim_value: 1
          }
          dim {
            dim_value: 1
          }
        }
      }
    }
  }
  value_info {
    name: "48"
    type {
      tensor_type {
        elem_type: 1
        shape {
          dim {
            dim_value: 1
          }
          dim {
            dim_value: 64
          }
          dim {
            dim_value: 1
          }
          dim {
            dim_value: 1
          }
        }
      }
    }
  }
  value_info {
    name: "62"
    type {
      tensor_type {
        elem_type: 1
        shape {
          dim {
            dim_value: 1
          }
          dim {
            dim_value: 64
          }
          dim {
            dim_value: 1
          }
          dim {
            dim_value: 1
          }
        }
      }
    }
  }
  value_info {
    name: "63"
    type {
      tensor_type {
        elem_type: 1
        shape {
          dim {
            dim_value: 1
          }
          dim {
            dim_value: 64
          }
          dim {
            dim_value: 1
          }
          dim {
            dim_value: 1
          }
        }
      }
    }
  }
  value_info {
    name: "69"
    type {
      tensor_type {
        elem_type: 1
        shape {
          dim {
            dim_value: 1
          }
          dim {
            dim_value: 64
          }
          dim {
            dim_value: 1
          }
          dim {
            dim_value: 1
          }
        }
      }
    }
  }
  value_info {
    name: "70"
    type {
      tensor_type {
        elem_type: 1
        shape {
          dim {
            dim_value: 1
          }
          dim {
            dim_value: 64
          }
          dim {
            dim_value: 1
          }
          dim {
            dim_value: 1
          }
        }
      }
    }
  }
}
opset_import {
  domain: ""
  version: 10
}
