ir_version: 7
producer_name: "onnx.quantize"
producer_version: "0.1.0"
graph {
  node {
    input: "image"
    output: "1"
    name: "0"
    op_type: "Unsqueeze"
    attribute {
      name: "axes"
      ints: 0
      type: INTS
    }
  }
  node {
    input: "1"
    input: "1_scale"
    input: "1_zero_point"
    output: "1_2_QuantizeLinear"
    name: "1_2_QuantizeLinear"
    op_type: "QuantizeLinear"
  }
  node {
    input: "1_2_QuantizeLinear"
    input: "1_scale"
    input: "1_zero_point"
    input: "ConvMulFusion_W_2_quantized"
    input: "ConvMulFusion_W_2_scale"
    input: "ConvMulFusion_W_2_zero_point"
    input: "7_scale"
    input: "7_zero_point"
    input: "ConvAddFusion_Add_B_5_quantized"
    output: "7_quantized"
    name: "2_quant"
    op_type: "QLinearConv"
    attribute {
      name: "auto_pad"
      s: "NOTSET"
      type: STRING
    }
    attribute {
      name: "dilations"
      ints: 1
      ints: 1
      type: INTS
    }
    attribute {
      name: "group"
      i: 1
      type: INT
    }
    attribute {
      name: "kernel_shape"
      ints: 7
      ints: 7
      type: INTS
    }
    attribute {
      name: "pads"
      ints: 3
      ints: 3
      ints: 3
      ints: 3
      type: INTS
    }
    attribute {
      name: "strides"
      ints: 2
      ints: 2
      type: INTS
    }
  }
  node {
    input: "7_quantized"
    output: "9_QuantizeInput_quantized"
    name: "8_quant"
    op_type: "MaxPool"
    attribute {
      name: "auto_pad"
      s: "NOTSET"
      type: STRING
    }
    attribute {
      name: "pads"
      ints: 1
      ints: 1
      ints: 1
      ints: 1
      type: INTS
    }
    attribute {
      name: "kernel_shape"
      ints: 3
      ints: 3
      type: INTS
    }
    attribute {
      name: "ceil_mode"
      i: 0
      type: INT
    }
    attribute {
      name: "strides"
      ints: 2
      ints: 2
      type: INTS
    }
    attribute {
      name: "storage_order"
      i: 0
      type: INT
    }
  }
  node {
    input: "9_QuantizeInput_quantized"
    input: "7_scale"
    input: "7_zero_point"
    input: "ConvMulFusion_W_10_quantized"
    input: "ConvMulFusion_W_10_scale"
    input: "ConvMulFusion_W_10_zero_point"
    input: "15_scale"
    input: "15_zero_point"
    input: "ConvAddFusion_Add_B_13_quantized"
    output: "15_quantized"
    name: "10_quant"
    op_type: "QLinearConv"
    attribute {
      name: "auto_pad"
      s: "NOTSET"
      type: STRING
    }
    attribute {
      name: "dilations"
      ints: 1
      ints: 1
      type: INTS
    }
    attribute {
      name: "group"
      i: 1
      type: INT
    }
    attribute {
      name: "kernel_shape"
      ints: 1
      ints: 1
      type: INTS
    }
    attribute {
      name: "pads"
      ints: 0
      ints: 0
      ints: 0
      ints: 0
      type: INTS
    }
    attribute {
      name: "strides"
      ints: 1
      ints: 1
      type: INTS
    }
  }
  node {
    input: "9_QuantizeInput_quantized"
    input: "7_scale"
    input: "7_zero_point"
    input: "ConvMulFusion_W_30_quantized"
    input: "ConvMulFusion_W_30_scale"
    input: "ConvMulFusion_W_30_zero_point"
    input: "35_scale"
    input: "35_zero_point"
    input: "ConvAddFusion_Add_B_33_quantized"
    output: "35_quantized"
    name: "30_quant"
    op_type: "QLinearConv"
    attribute {
      name: "auto_pad"
      s: "NOTSET"
      type: STRING
    }
    attribute {
      name: "dilations"
      ints: 1
      ints: 1
      type: INTS
    }
    attribute {
      name: "group"
      i: 1
      type: INT
    }
    attribute {
      name: "kernel_shape"
      ints: 1
      ints: 1
      type: INTS
    }
    attribute {
      name: "pads"
      ints: 0
      ints: 0
      ints: 0
      ints: 0
      type: INTS
    }
    attribute {
      name: "strides"
      ints: 1
      ints: 1
      type: INTS
    }
  }
  node {
    input: "15_quantized"
    input: "15_scale"
    input: "15_zero_point"
    input: "ConvMulFusion_W_17_quantized"
    input: "ConvMulFusion_W_17_scale"
    input: "ConvMulFusion_W_17_zero_point"
    input: "22_scale"
    input: "22_zero_point"
    input: "ConvAddFusion_Add_B_20_quantized"
    output: "22_quantized"
    name: "17_quant"
    op_type: "QLinearConv"
    attribute {
      name: "auto_pad"
      s: "NOTSET"
      type: STRING
    }
    attribute {
      name: "dilations"
      ints: 1
      ints: 1
      type: INTS
    }
    attribute {
      name: "group"
      i: 1
      type: INT
    }
    attribute {
      name: "kernel_shape"
      ints: 3
      ints: 3
      type: INTS
    }
    attribute {
      name: "pads"
      ints: 1
      ints: 1
      ints: 1
      ints: 1
      type: INTS
    }
    attribute {
      name: "strides"
      ints: 1
      ints: 1
      type: INTS
    }
  }
  node {
    input: "22_quantized"
    input: "22_scale"
    input: "22_zero_point"
    input: "ConvMulFusion_W_24_quantized"
    input: "ConvMulFusion_W_24_scale"
    input: "ConvMulFusion_W_24_zero_point"
    input: "29_scale"
    input: "29_zero_point"
    input: "ConvAddFusion_Add_B_27_quantized"
    output: "29_quantized"
    name: "24_quant"
    op_type: "QLinearConv"
    attribute {
      name: "auto_pad"
      s: "NOTSET"
      type: STRING
    }
    attribute {
      name: "dilations"
      ints: 1
      ints: 1
      type: INTS
    }
    attribute {
      name: "group"
      i: 1
      type: INT
    }
    attribute {
      name: "kernel_shape"
      ints: 1
      ints: 1
      type: INTS
    }
    attribute {
      name: "pads"
      ints: 0
      ints: 0
      ints: 0
      ints: 0
      type: INTS
    }
    attribute {
      name: "strides"
      ints: 1
      ints: 1
      type: INTS
    }
  }
  node {
    input: "29_quantized"
    input: "29_scale"
    input: "29_zero_point"
    input: "35_quantized"
    input: "35_scale"
    input: "35_zero_point"
    input: "36_scale"
    input: "36_zero_point"
    output: "36_quantized"
    name: "35_quant"
    op_type: "QLinearAdd"
    domain: "com.microsoft"
  }
  node {
    input: "36_quantized"
    input: "36_scale"
    input: "36_zero_point"
    input: "ConvMulFusion_W_38_quantized"
    input: "ConvMulFusion_W_38_scale"
    input: "ConvMulFusion_W_38_zero_point"
    input: "43_scale"
    input: "43_zero_point"
    input: "ConvAddFusion_Add_B_41_quantized"
    output: "43_quantized"
    name: "38_quant"
    op_type: "QLinearConv"
    attribute {
      name: "auto_pad"
      s: "NOTSET"
      type: STRING
    }
    attribute {
      name: "dilations"
      ints: 1
      ints: 1
      type: INTS
    }
    attribute {
      name: "group"
      i: 1
      type: INT
    }
    attribute {
      name: "kernel_shape"
      ints: 1
      ints: 1
      type: INTS
    }
    attribute {
      name: "pads"
      ints: 0
      ints: 0
      ints: 0
      ints: 0
      type: INTS
    }
    attribute {
      name: "strides"
      ints: 1
      ints: 1
      type: INTS
    }
  }
  node {
    input: "43_quantized"
    input: "43_scale"
    input: "43_zero_point"
    input: "ConvMulFusion_W_45_quantized"
    input: "ConvMulFusion_W_45_scale"
    input: "ConvMulFusion_W_45_zero_point"
    input: "50_scale"
    input: "50_zero_point"
    input: "ConvAddFusion_Add_B_48_quantized"
    output: "50_quantized"
    name: "45_quant"
    op_type: "QLinearConv"
    attribute {
      name: "auto_pad"
      s: "NOTSET"
      type: STRING
    }
    attribute {
      name: "dilations"
      ints: 1
      ints: 1
      type: INTS
    }
    attribute {
      name: "group"
      i: 1
      type: INT
    }
    attribute {
      name: "kernel_shape"
      ints: 3
      ints: 3
      type: INTS
    }
    attribute {
      name: "pads"
      ints: 1
      ints: 1
      ints: 1
      ints: 1
      type: INTS
    }
    attribute {
      name: "strides"
      ints: 1
      ints: 1
      type: INTS
    }
  }
  node {
    input: "50_quantized"
    input: "50_scale"
    input: "50_zero_point"
    input: "ConvMulFusion_W_52_quantized"
    input: "ConvMulFusion_W_52_scale"
    input: "ConvMulFusion_W_52_zero_point"
    input: "57_scale"
    input: "57_zero_point"
    input: "ConvAddFusion_Add_B_55_quantized"
    output: "57_quantized"
    name: "52_quant"
    op_type: "QLinearConv"
    attribute {
      name: "auto_pad"
      s: "NOTSET"
      type: STRING
    }
    attribute {
      name: "dilations"
      ints: 1
      ints: 1
      type: INTS
    }
    attribute {
      name: "group"
      i: 1
      type: INT
    }
    attribute {
      name: "kernel_shape"
      ints: 1
      ints: 1
      type: INTS
    }
    attribute {
      name: "pads"
      ints: 0
      ints: 0
      ints: 0
      ints: 0
      type: INTS
    }
    attribute {
      name: "strides"
      ints: 1
      ints: 1
      type: INTS
    }
  }
  node {
    input: "57_quantized"
    input: "57_scale"
    input: "57_zero_point"
    input: "36_quantized"
    input: "36_scale"
    input: "36_zero_point"
    input: "58_scale"
    input: "58_zero_point"
    output: "58_quantized"
    name: "57_quant"
    op_type: "QLinearAdd"
    domain: "com.microsoft"
  }
  node {
    input: "58_quantized"
    input: "58_scale"
    input: "58_zero_point"
    input: "ConvMulFusion_W_60_quantized"
    input: "ConvMulFusion_W_60_scale"
    input: "ConvMulFusion_W_60_zero_point"
    input: "65_scale"
    input: "65_zero_point"
    input: "ConvAddFusion_Add_B_63_quantized"
    output: "65_quantized"
    name: "60_quant"
    op_type: "QLinearConv"
    attribute {
      name: "auto_pad"
      s: "NOTSET"
      type: STRING
    }
    attribute {
      name: "dilations"
      ints: 1
      ints: 1
      type: INTS
    }
    attribute {
      name: "group"
      i: 1
      type: INT
    }
    attribute {
      name: "kernel_shape"
      ints: 1
      ints: 1
      type: INTS
    }
    attribute {
      name: "pads"
      ints: 0
      ints: 0
      ints: 0
      ints: 0
      type: INTS
    }
    attribute {
      name: "strides"
      ints: 1
      ints: 1
      type: INTS
    }
  }
  node {
    input: "65_quantized"
    input: "65_scale"
    input: "65_zero_point"
    input: "ConvMulFusion_W_67_quantized"
    input: "ConvMulFusion_W_67_scale"
    input: "ConvMulFusion_W_67_zero_point"
    input: "72_scale"
    input: "72_zero_point"
    input: "ConvAddFusion_Add_B_70_quantized"
    output: "72_quantized"
    name: "67_quant"
    op_type: "QLinearConv"
    attribute {
      name: "auto_pad"
      s: "NOTSET"
      type: STRING
    }
    attribute {
      name: "dilations"
      ints: 1
      ints: 1
      type: INTS
    }
    attribute {
      name: "group"
      i: 1
      type: INT
    }
    attribute {
      name: "kernel_shape"
      ints: 3
      ints: 3
      type: INTS
    }
    attribute {
      name: "pads"
      ints: 1
      ints: 1
      ints: 1
      ints: 1
      type: INTS
    }
    attribute {
      name: "strides"
      ints: 1
      ints: 1
      type: INTS
    }
  }
  node {
    input: "72_quantized"
    input: "72_scale"
    input: "72_zero_point"
    input: "ConvMulFusion_W_74_quantized"
    input: "ConvMulFusion_W_74_scale"
    input: "ConvMulFusion_W_74_zero_point"
    input: "79_scale"
    input: "79_zero_point"
    input: "ConvAddFusion_Add_B_77_quantized"
    output: "79_quantized"
    name: "74_quant"
    op_type: "QLinearConv"
    attribute {
      name: "auto_pad"
      s: "NOTSET"
      type: STRING
    }
    attribute {
      name: "dilations"
      ints: 1
      ints: 1
      type: INTS
    }
    attribute {
      name: "group"
      i: 1
      type: INT
    }
    attribute {
      name: "kernel_shape"
      ints: 1
      ints: 1
      type: INTS
    }
    attribute {
      name: "pads"
      ints: 0
      ints: 0
      ints: 0
      ints: 0
      type: INTS
    }
    attribute {
      name: "strides"
      ints: 1
      ints: 1
      type: INTS
    }
  }
  node {
    input: "79_quantized"
    input: "79_scale"
    input: "79_zero_point"
    input: "58_quantized"
    input: "58_scale"
    input: "58_zero_point"
    input: "80_scale"
    input: "80_zero_point"
    output: "80_quantized"
    name: "79_quant"
    op_type: "QLinearAdd"
    domain: "com.microsoft"
  }
  node {
    input: "80_quantized"
    input: "80_scale"
    input: "80_zero_point"
    input: "ConvMulFusion_W_82_quantized"
    input: "ConvMulFusion_W_82_scale"
    input: "ConvMulFusion_W_82_zero_point"
    input: "87_scale"
    input: "87_zero_point"
    input: "ConvAddFusion_Add_B_85_quantized"
    output: "87_quantized"
    name: "82_quant"
    op_type: "QLinearConv"
    attribute {
      name: "auto_pad"
      s: "NOTSET"
      type: STRING
    }
    attribute {
      name: "dilations"
      ints: 1
      ints: 1
      type: INTS
    }
    attribute {
      name: "group"
      i: 1
      type: INT
    }
    attribute {
      name: "kernel_shape"
      ints: 1
      ints: 1
      type: INTS
    }
    attribute {
      name: "pads"
      ints: 0
      ints: 0
      ints: 0
      ints: 0
      type: INTS
    }
    attribute {
      name: "strides"
      ints: 2
      ints: 2
      type: INTS
    }
  }
  node {
    input: "80_quantized"
    input: "80_scale"
    input: "80_zero_point"
    input: "ConvMulFusion_W_102_quantized"
    input: "ConvMulFusion_W_102_scale"
    input: "ConvMulFusion_W_102_zero_point"
    input: "107_scale"
    input: "107_zero_point"
    input: "ConvAddFusion_Add_B_105_quantized"
    output: "107_quantized"
    name: "102_quant"
    op_type: "QLinearConv"
    attribute {
      name: "auto_pad"
      s: "NOTSET"
      type: STRING
    }
    attribute {
      name: "dilations"
      ints: 1
      ints: 1
      type: INTS
    }
    attribute {
      name: "group"
      i: 1
      type: INT
    }
    attribute {
      name: "kernel_shape"
      ints: 1
      ints: 1
      type: INTS
    }
    attribute {
      name: "pads"
      ints: 0
      ints: 0
      ints: 0
      ints: 0
      type: INTS
    }
    attribute {
      name: "strides"
      ints: 2
      ints: 2
      type: INTS
    }
  }
  node {
    input: "80_quantized"
    input: "80_scale"
    input: "80_zero_point"
    input: "481_quantized"
    input: "481_scale"
    input: "481_zero_point"
    input: "483_scale"
    input: "483_zero_point"
    input: "482_quantized"
    output: "483_quantized"
    name: "482_quant"
    op_type: "QLinearConv"
    attribute {
      name: "auto_pad"
      s: "NOTSET"
      type: STRING
    }
    attribute {
      name: "dilations"
      ints: 1
      ints: 1
      type: INTS
    }
    attribute {
      name: "group"
      i: 1
      type: INT
    }
    attribute {
      name: "kernel_shape"
      ints: 1
      ints: 1
      type: INTS
    }
    attribute {
      name: "pads"
      ints: 0
      ints: 0
      ints: 0
      ints: 0
      type: INTS
    }
    attribute {
      name: "strides"
      ints: 1
      ints: 1
      type: INTS
    }
  }
  node {
    input: "87_quantized"
    input: "87_scale"
    input: "87_zero_point"
    input: "ConvMulFusion_W_89_quantized"
    input: "ConvMulFusion_W_89_scale"
    input: "ConvMulFusion_W_89_zero_point"
    input: "94_scale"
    input: "94_zero_point"
    input: "ConvAddFusion_Add_B_92_quantized"
    output: "94_quantized"
    name: "89_quant"
    op_type: "QLinearConv"
    attribute {
      name: "auto_pad"
      s: "NOTSET"
      type: STRING
    }
    attribute {
      name: "dilations"
      ints: 1
      ints: 1
      type: INTS
    }
    attribute {
      name: "group"
      i: 1
      type: INT
    }
    attribute {
      name: "kernel_shape"
      ints: 3
      ints: 3
      type: INTS
    }
    attribute {
      name: "pads"
      ints: 1
      ints: 1
      ints: 1
      ints: 1
      type: INTS
    }
    attribute {
      name: "strides"
      ints: 1
      ints: 1
      type: INTS
    }
  }
  node {
    input: "94_quantized"
    input: "94_scale"
    input: "94_zero_point"
    input: "ConvMulFusion_W_96_quantized"
    input: "ConvMulFusion_W_96_scale"
    input: "ConvMulFusion_W_96_zero_point"
    input: "101_scale"
    input: "101_zero_point"
    input: "ConvAddFusion_Add_B_99_quantized"
    output: "101_quantized"
    name: "96_quant"
    op_type: "QLinearConv"
    attribute {
      name: "auto_pad"
      s: "NOTSET"
      type: STRING
    }
    attribute {
      name: "dilations"
      ints: 1
      ints: 1
      type: INTS
    }
    attribute {
      name: "group"
      i: 1
      type: INT
    }
    attribute {
      name: "kernel_shape"
      ints: 1
      ints: 1
      type: INTS
    }
    attribute {
      name: "pads"
      ints: 0
      ints: 0
      ints: 0
      ints: 0
      type: INTS
    }
    attribute {
      name: "strides"
      ints: 1
      ints: 1
      type: INTS
    }
  }
  node {
    input: "101_quantized"
    input: "101_scale"
    input: "101_zero_point"
    input: "107_quantized"
    input: "107_scale"
    input: "107_zero_point"
    input: "108_scale"
    input: "108_zero_point"
    output: "108_quantized"
    name: "107_quant"
    op_type: "QLinearAdd"
    domain: "com.microsoft"
  }
  node {
    input: "108_quantized"
    input: "108_scale"
    input: "108_zero_point"
    input: "ConvMulFusion_W_110_quantized"
    input: "ConvMulFusion_W_110_scale"
    input: "ConvMulFusion_W_110_zero_point"
    input: "115_scale"
    input: "115_zero_point"
    input: "ConvAddFusion_Add_B_113_quantized"
    output: "115_quantized"
    name: "110_quant"
    op_type: "QLinearConv"
    attribute {
      name: "auto_pad"
      s: "NOTSET"
      type: STRING
    }
    attribute {
      name: "dilations"
      ints: 1
      ints: 1
      type: INTS
    }
    attribute {
      name: "group"
      i: 1
      type: INT
    }
    attribute {
      name: "kernel_shape"
      ints: 1
      ints: 1
      type: INTS
    }
    attribute {
      name: "pads"
      ints: 0
      ints: 0
      ints: 0
      ints: 0
      type: INTS
    }
    attribute {
      name: "strides"
      ints: 1
      ints: 1
      type: INTS
    }
  }
  node {
    input: "115_quantized"
    input: "115_scale"
    input: "115_zero_point"
    input: "ConvMulFusion_W_117_quantized"
    input: "ConvMulFusion_W_117_scale"
    input: "ConvMulFusion_W_117_zero_point"
    input: "122_scale"
    input: "122_zero_point"
    input: "ConvAddFusion_Add_B_120_quantized"
    output: "122_quantized"
    name: "117_quant"
    op_type: "QLinearConv"
    attribute {
      name: "auto_pad"
      s: "NOTSET"
      type: STRING
    }
    attribute {
      name: "dilations"
      ints: 1
      ints: 1
      type: INTS
    }
    attribute {
      name: "group"
      i: 1
      type: INT
    }
    attribute {
      name: "kernel_shape"
      ints: 3
      ints: 3
      type: INTS
    }
    attribute {
      name: "pads"
      ints: 1
      ints: 1
      ints: 1
      ints: 1
      type: INTS
    }
    attribute {
      name: "strides"
      ints: 1
      ints: 1
      type: INTS
    }
  }
  node {
    input: "122_quantized"
    input: "122_scale"
    input: "122_zero_point"
    input: "ConvMulFusion_W_124_quantized"
    input: "ConvMulFusion_W_124_scale"
    input: "ConvMulFusion_W_124_zero_point"
    input: "129_scale"
    input: "129_zero_point"
    input: "ConvAddFusion_Add_B_127_quantized"
    output: "129_quantized"
    name: "124_quant"
    op_type: "QLinearConv"
    attribute {
      name: "auto_pad"
      s: "NOTSET"
      type: STRING
    }
    attribute {
      name: "dilations"
      ints: 1
      ints: 1
      type: INTS
    }
    attribute {
      name: "group"
      i: 1
      type: INT
    }
    attribute {
      name: "kernel_shape"
      ints: 1
      ints: 1
      type: INTS
    }
    attribute {
      name: "pads"
      ints: 0
      ints: 0
      ints: 0
      ints: 0
      type: INTS
    }
    attribute {
      name: "strides"
      ints: 1
      ints: 1
      type: INTS
    }
  }
  node {
    input: "129_quantized"
    input: "129_scale"
    input: "129_zero_point"
    input: "108_quantized"
    input: "108_scale"
    input: "108_zero_point"
    input: "130_scale"
    input: "130_zero_point"
    output: "130_quantized"
    name: "129_quant"
    op_type: "QLinearAdd"
    domain: "com.microsoft"
  }
  node {
    input: "130_quantized"
    input: "130_scale"
    input: "130_zero_point"
    input: "ConvMulFusion_W_132_quantized"
    input: "ConvMulFusion_W_132_scale"
    input: "ConvMulFusion_W_132_zero_point"
    input: "137_scale"
    input: "137_zero_point"
    input: "ConvAddFusion_Add_B_135_quantized"
    output: "137_quantized"
    name: "132_quant"
    op_type: "QLinearConv"
    attribute {
      name: "auto_pad"
      s: "NOTSET"
      type: STRING
    }
    attribute {
      name: "dilations"
      ints: 1
      ints: 1
      type: INTS
    }
    attribute {
      name: "group"
      i: 1
      type: INT
    }
    attribute {
      name: "kernel_shape"
      ints: 1
      ints: 1
      type: INTS
    }
    attribute {
      name: "pads"
      ints: 0
      ints: 0
      ints: 0
      ints: 0
      type: INTS
    }
    attribute {
      name: "strides"
      ints: 1
      ints: 1
      type: INTS
    }
  }
  node {
    input: "137_quantized"
    input: "137_scale"
    input: "137_zero_point"
    input: "ConvMulFusion_W_139_quantized"
    input: "ConvMulFusion_W_139_scale"
    input: "ConvMulFusion_W_139_zero_point"
    input: "144_scale"
    input: "144_zero_point"
    input: "ConvAddFusion_Add_B_142_quantized"
    output: "144_quantized"
    name: "139_quant"
    op_type: "QLinearConv"
    attribute {
      name: "auto_pad"
      s: "NOTSET"
      type: STRING
    }
    attribute {
      name: "dilations"
      ints: 1
      ints: 1
      type: INTS
    }
    attribute {
      name: "group"
      i: 1
      type: INT
    }
    attribute {
      name: "kernel_shape"
      ints: 3
      ints: 3
      type: INTS
    }
    attribute {
      name: "pads"
      ints: 1
      ints: 1
      ints: 1
      ints: 1
      type: INTS
    }
    attribute {
      name: "strides"
      ints: 1
      ints: 1
      type: INTS
    }
  }
  node {
    input: "144_quantized"
    input: "144_scale"
    input: "144_zero_point"
    input: "ConvMulFusion_W_146_quantized"
    input: "ConvMulFusion_W_146_scale"
    input: "ConvMulFusion_W_146_zero_point"
    input: "151_scale"
    input: "151_zero_point"
    input: "ConvAddFusion_Add_B_149_quantized"
    output: "151_quantized"
    name: "146_quant"
    op_type: "QLinearConv"
    attribute {
      name: "auto_pad"
      s: "NOTSET"
      type: STRING
    }
    attribute {
      name: "dilations"
      ints: 1
      ints: 1
      type: INTS
    }
    attribute {
      name: "group"
      i: 1
      type: INT
    }
    attribute {
      name: "kernel_shape"
      ints: 1
      ints: 1
      type: INTS
    }
    attribute {
      name: "pads"
      ints: 0
      ints: 0
      ints: 0
      ints: 0
      type: INTS
    }
    attribute {
      name: "strides"
      ints: 1
      ints: 1
      type: INTS
    }
  }
  node {
    input: "151_quantized"
    input: "151_scale"
    input: "151_zero_point"
    input: "130_quantized"
    input: "130_scale"
    input: "130_zero_point"
    input: "152_scale"
    input: "152_zero_point"
    output: "152_quantized"
    name: "151_quant"
    op_type: "QLinearAdd"
    domain: "com.microsoft"
  }
  node {
    input: "152_quantized"
    input: "152_scale"
    input: "152_zero_point"
    input: "ConvMulFusion_W_154_quantized"
    input: "ConvMulFusion_W_154_scale"
    input: "ConvMulFusion_W_154_zero_point"
    input: "159_scale"
    input: "159_zero_point"
    input: "ConvAddFusion_Add_B_157_quantized"
    output: "159_quantized"
    name: "154_quant"
    op_type: "QLinearConv"
    attribute {
      name: "auto_pad"
      s: "NOTSET"
      type: STRING
    }
    attribute {
      name: "dilations"
      ints: 1
      ints: 1
      type: INTS
    }
    attribute {
      name: "group"
      i: 1
      type: INT
    }
    attribute {
      name: "kernel_shape"
      ints: 1
      ints: 1
      type: INTS
    }
    attribute {
      name: "pads"
      ints: 0
      ints: 0
      ints: 0
      ints: 0
      type: INTS
    }
    attribute {
      name: "strides"
      ints: 1
      ints: 1
      type: INTS
    }
  }
  node {
    input: "159_quantized"
    input: "159_scale"
    input: "159_zero_point"
    input: "ConvMulFusion_W_161_quantized"
    input: "ConvMulFusion_W_161_scale"
    input: "ConvMulFusion_W_161_zero_point"
    input: "166_scale"
    input: "166_zero_point"
    input: "ConvAddFusion_Add_B_164_quantized"
    output: "166_quantized"
    name: "161_quant"
    op_type: "QLinearConv"
    attribute {
      name: "auto_pad"
      s: "NOTSET"
      type: STRING
    }
    attribute {
      name: "dilations"
      ints: 1
      ints: 1
      type: INTS
    }
    attribute {
      name: "group"
      i: 1
      type: INT
    }
    attribute {
      name: "kernel_shape"
      ints: 3
      ints: 3
      type: INTS
    }
    attribute {
      name: "pads"
      ints: 1
      ints: 1
      ints: 1
      ints: 1
      type: INTS
    }
    attribute {
      name: "strides"
      ints: 1
      ints: 1
      type: INTS
    }
  }
  node {
    input: "166_quantized"
    input: "166_scale"
    input: "166_zero_point"
    input: "ConvMulFusion_W_168_quantized"
    input: "ConvMulFusion_W_168_scale"
    input: "ConvMulFusion_W_168_zero_point"
    input: "173_scale"
    input: "173_zero_point"
    input: "ConvAddFusion_Add_B_171_quantized"
    output: "173_quantized"
    name: "168_quant"
    op_type: "QLinearConv"
    attribute {
      name: "auto_pad"
      s: "NOTSET"
      type: STRING
    }
    attribute {
      name: "dilations"
      ints: 1
      ints: 1
      type: INTS
    }
    attribute {
      name: "group"
      i: 1
      type: INT
    }
    attribute {
      name: "kernel_shape"
      ints: 1
      ints: 1
      type: INTS
    }
    attribute {
      name: "pads"
      ints: 0
      ints: 0
      ints: 0
      ints: 0
      type: INTS
    }
    attribute {
      name: "strides"
      ints: 1
      ints: 1
      type: INTS
    }
  }
  node {
    input: "173_quantized"
    input: "173_scale"
    input: "173_zero_point"
    input: "152_quantized"
    input: "152_scale"
    input: "152_zero_point"
    input: "174_scale"
    input: "174_zero_point"
    output: "174_quantized"
    name: "173_quant"
    op_type: "QLinearAdd"
    domain: "com.microsoft"
  }
  node {
    input: "174_quantized"
    input: "174_scale"
    input: "174_zero_point"
    input: "ConvMulFusion_W_176_quantized"
    input: "ConvMulFusion_W_176_scale"
    input: "ConvMulFusion_W_176_zero_point"
    input: "181_scale"
    input: "181_zero_point"
    input: "ConvAddFusion_Add_B_179_quantized"
    output: "181_quantized"
    name: "176_quant"
    op_type: "QLinearConv"
    attribute {
      name: "auto_pad"
      s: "NOTSET"
      type: STRING
    }
    attribute {
      name: "dilations"
      ints: 1
      ints: 1
      type: INTS
    }
    attribute {
      name: "group"
      i: 1
      type: INT
    }
    attribute {
      name: "kernel_shape"
      ints: 1
      ints: 1
      type: INTS
    }
    attribute {
      name: "pads"
      ints: 0
      ints: 0
      ints: 0
      ints: 0
      type: INTS
    }
    attribute {
      name: "strides"
      ints: 2
      ints: 2
      type: INTS
    }
  }
  node {
    input: "174_quantized"
    input: "174_scale"
    input: "174_zero_point"
    input: "ConvMulFusion_W_196_quantized"
    input: "ConvMulFusion_W_196_scale"
    input: "ConvMulFusion_W_196_zero_point"
    input: "201_scale"
    input: "201_zero_point"
    input: "ConvAddFusion_Add_B_199_quantized"
    output: "201_quantized"
    name: "196_quant"
    op_type: "QLinearConv"
    attribute {
      name: "auto_pad"
      s: "NOTSET"
      type: STRING
    }
    attribute {
      name: "dilations"
      ints: 1
      ints: 1
      type: INTS
    }
    attribute {
      name: "group"
      i: 1
      type: INT
    }
    attribute {
      name: "kernel_shape"
      ints: 1
      ints: 1
      type: INTS
    }
    attribute {
      name: "pads"
      ints: 0
      ints: 0
      ints: 0
      ints: 0
      type: INTS
    }
    attribute {
      name: "strides"
      ints: 2
      ints: 2
      type: INTS
    }
  }
  node {
    input: "174_quantized"
    input: "174_scale"
    input: "174_zero_point"
    input: "449_quantized"
    input: "449_scale"
    input: "449_zero_point"
    input: "451_scale"
    input: "451_zero_point"
    input: "450_quantized"
    output: "451_quantized"
    name: "450_quant"
    op_type: "QLinearConv"
    attribute {
      name: "auto_pad"
      s: "NOTSET"
      type: STRING
    }
    attribute {
      name: "dilations"
      ints: 1
      ints: 1
      type: INTS
    }
    attribute {
      name: "group"
      i: 1
      type: INT
    }
    attribute {
      name: "kernel_shape"
      ints: 1
      ints: 1
      type: INTS
    }
    attribute {
      name: "pads"
      ints: 0
      ints: 0
      ints: 0
      ints: 0
      type: INTS
    }
    attribute {
      name: "strides"
      ints: 1
      ints: 1
      type: INTS
    }
  }
  node {
    input: "181_quantized"
    input: "181_scale"
    input: "181_zero_point"
    input: "ConvMulFusion_W_183_quantized"
    input: "ConvMulFusion_W_183_scale"
    input: "ConvMulFusion_W_183_zero_point"
    input: "188_scale"
    input: "188_zero_point"
    input: "ConvAddFusion_Add_B_186_quantized"
    output: "188_quantized"
    name: "183_quant"
    op_type: "QLinearConv"
    attribute {
      name: "auto_pad"
      s: "NOTSET"
      type: STRING
    }
    attribute {
      name: "dilations"
      ints: 1
      ints: 1
      type: INTS
    }
    attribute {
      name: "group"
      i: 1
      type: INT
    }
    attribute {
      name: "kernel_shape"
      ints: 3
      ints: 3
      type: INTS
    }
    attribute {
      name: "pads"
      ints: 1
      ints: 1
      ints: 1
      ints: 1
      type: INTS
    }
    attribute {
      name: "strides"
      ints: 1
      ints: 1
      type: INTS
    }
  }
  node {
    input: "188_quantized"
    input: "188_scale"
    input: "188_zero_point"
    input: "ConvMulFusion_W_190_quantized"
    input: "ConvMulFusion_W_190_scale"
    input: "ConvMulFusion_W_190_zero_point"
    input: "195_scale"
    input: "195_zero_point"
    input: "ConvAddFusion_Add_B_193_quantized"
    output: "195_quantized"
    name: "190_quant"
    op_type: "QLinearConv"
    attribute {
      name: "auto_pad"
      s: "NOTSET"
      type: STRING
    }
    attribute {
      name: "dilations"
      ints: 1
      ints: 1
      type: INTS
    }
    attribute {
      name: "group"
      i: 1
      type: INT
    }
    attribute {
      name: "kernel_shape"
      ints: 1
      ints: 1
      type: INTS
    }
    attribute {
      name: "pads"
      ints: 0
      ints: 0
      ints: 0
      ints: 0
      type: INTS
    }
    attribute {
      name: "strides"
      ints: 1
      ints: 1
      type: INTS
    }
  }
  node {
    input: "195_quantized"
    input: "195_scale"
    input: "195_zero_point"
    input: "201_quantized"
    input: "201_scale"
    input: "201_zero_point"
    input: "202_scale"
    input: "202_zero_point"
    output: "202_quantized"
    name: "201_quant"
    op_type: "QLinearAdd"
    domain: "com.microsoft"
  }
  node {
    input: "202_quantized"
    input: "202_scale"
    input: "202_zero_point"
    input: "ConvMulFusion_W_204_quantized"
    input: "ConvMulFusion_W_204_scale"
    input: "ConvMulFusion_W_204_zero_point"
    input: "209_scale"
    input: "209_zero_point"
    input: "ConvAddFusion_Add_B_207_quantized"
    output: "209_quantized"
    name: "204_quant"
    op_type: "QLinearConv"
    attribute {
      name: "auto_pad"
      s: "NOTSET"
      type: STRING
    }
    attribute {
      name: "dilations"
      ints: 1
      ints: 1
      type: INTS
    }
    attribute {
      name: "group"
      i: 1
      type: INT
    }
    attribute {
      name: "kernel_shape"
      ints: 1
      ints: 1
      type: INTS
    }
    attribute {
      name: "pads"
      ints: 0
      ints: 0
      ints: 0
      ints: 0
      type: INTS
    }
    attribute {
      name: "strides"
      ints: 1
      ints: 1
      type: INTS
    }
  }
  node {
    input: "209_quantized"
    input: "209_scale"
    input: "209_zero_point"
    input: "ConvMulFusion_W_211_quantized"
    input: "ConvMulFusion_W_211_scale"
    input: "ConvMulFusion_W_211_zero_point"
    input: "216_scale"
    input: "216_zero_point"
    input: "ConvAddFusion_Add_B_214_quantized"
    output: "216_quantized"
    name: "211_quant"
    op_type: "QLinearConv"
    attribute {
      name: "auto_pad"
      s: "NOTSET"
      type: STRING
    }
    attribute {
      name: "dilations"
      ints: 1
      ints: 1
      type: INTS
    }
    attribute {
      name: "group"
      i: 1
      type: INT
    }
    attribute {
      name: "kernel_shape"
      ints: 3
      ints: 3
      type: INTS
    }
    attribute {
      name: "pads"
      ints: 1
      ints: 1
      ints: 1
      ints: 1
      type: INTS
    }
    attribute {
      name: "strides"
      ints: 1
      ints: 1
      type: INTS
    }
  }
  node {
    input: "216_quantized"
    input: "216_scale"
    input: "216_zero_point"
    input: "ConvMulFusion_W_218_quantized"
    input: "ConvMulFusion_W_218_scale"
    input: "ConvMulFusion_W_218_zero_point"
    input: "223_scale"
    input: "223_zero_point"
    input: "ConvAddFusion_Add_B_221_quantized"
    output: "223_quantized"
    name: "218_quant"
    op_type: "QLinearConv"
    attribute {
      name: "auto_pad"
      s: "NOTSET"
      type: STRING
    }
    attribute {
      name: "dilations"
      ints: 1
      ints: 1
      type: INTS
    }
    attribute {
      name: "group"
      i: 1
      type: INT
    }
    attribute {
      name: "kernel_shape"
      ints: 1
      ints: 1
      type: INTS
    }
    attribute {
      name: "pads"
      ints: 0
      ints: 0
      ints: 0
      ints: 0
      type: INTS
    }
    attribute {
      name: "strides"
      ints: 1
      ints: 1
      type: INTS
    }
  }
  node {
    input: "223_quantized"
    input: "223_scale"
    input: "223_zero_point"
    input: "202_quantized"
    input: "202_scale"
    input: "202_zero_point"
    input: "224_scale"
    input: "224_zero_point"
    output: "224_quantized"
    name: "223_quant"
    op_type: "QLinearAdd"
    domain: "com.microsoft"
  }
  node {
    input: "224_quantized"
    input: "224_scale"
    input: "224_zero_point"
    input: "ConvMulFusion_W_226_quantized"
    input: "ConvMulFusion_W_226_scale"
    input: "ConvMulFusion_W_226_zero_point"
    input: "231_scale"
    input: "231_zero_point"
    input: "ConvAddFusion_Add_B_229_quantized"
    output: "231_quantized"
    name: "226_quant"
    op_type: "QLinearConv"
    attribute {
      name: "auto_pad"
      s: "NOTSET"
      type: STRING
    }
    attribute {
      name: "dilations"
      ints: 1
      ints: 1
      type: INTS
    }
    attribute {
      name: "group"
      i: 1
      type: INT
    }
    attribute {
      name: "kernel_shape"
      ints: 1
      ints: 1
      type: INTS
    }
    attribute {
      name: "pads"
      ints: 0
      ints: 0
      ints: 0
      ints: 0
      type: INTS
    }
    attribute {
      name: "strides"
      ints: 1
      ints: 1
      type: INTS
    }
  }
  node {
    input: "231_quantized"
    input: "231_scale"
    input: "231_zero_point"
    input: "ConvMulFusion_W_233_quantized"
    input: "ConvMulFusion_W_233_scale"
    input: "ConvMulFusion_W_233_zero_point"
    input: "238_scale"
    input: "238_zero_point"
    input: "ConvAddFusion_Add_B_236_quantized"
    output: "238_quantized"
    name: "233_quant"
    op_type: "QLinearConv"
    attribute {
      name: "auto_pad"
      s: "NOTSET"
      type: STRING
    }
    attribute {
      name: "dilations"
      ints: 1
      ints: 1
      type: INTS
    }
    attribute {
      name: "group"
      i: 1
      type: INT
    }
    attribute {
      name: "kernel_shape"
      ints: 3
      ints: 3
      type: INTS
    }
    attribute {
      name: "pads"
      ints: 1
      ints: 1
      ints: 1
      ints: 1
      type: INTS
    }
    attribute {
      name: "strides"
      ints: 1
      ints: 1
      type: INTS
    }
  }
  node {
    input: "238_quantized"
    input: "238_scale"
    input: "238_zero_point"
    input: "ConvMulFusion_W_240_quantized"
    input: "ConvMulFusion_W_240_scale"
    input: "ConvMulFusion_W_240_zero_point"
    input: "245_scale"
    input: "245_zero_point"
    input: "ConvAddFusion_Add_B_243_quantized"
    output: "245_quantized"
    name: "240_quant"
    op_type: "QLinearConv"
    attribute {
      name: "auto_pad"
      s: "NOTSET"
      type: STRING
    }
    attribute {
      name: "dilations"
      ints: 1
      ints: 1
      type: INTS
    }
    attribute {
      name: "group"
      i: 1
      type: INT
    }
    attribute {
      name: "kernel_shape"
      ints: 1
      ints: 1
      type: INTS
    }
    attribute {
      name: "pads"
      ints: 0
      ints: 0
      ints: 0
      ints: 0
      type: INTS
    }
    attribute {
      name: "strides"
      ints: 1
      ints: 1
      type: INTS
    }
  }
  node {
    input: "245_quantized"
    input: "245_scale"
    input: "245_zero_point"
    input: "224_quantized"
    input: "224_scale"
    input: "224_zero_point"
    input: "246_scale"
    input: "246_zero_point"
    output: "246_quantized"
    name: "245_quant"
    op_type: "QLinearAdd"
    domain: "com.microsoft"
  }
  node {
    input: "246_quantized"
    input: "246_scale"
    input: "246_zero_point"
    input: "ConvMulFusion_W_248_quantized"
    input: "ConvMulFusion_W_248_scale"
    input: "ConvMulFusion_W_248_zero_point"
    input: "253_scale"
    input: "253_zero_point"
    input: "ConvAddFusion_Add_B_251_quantized"
    output: "253_quantized"
    name: "248_quant"
    op_type: "QLinearConv"
    attribute {
      name: "auto_pad"
      s: "NOTSET"
      type: STRING
    }
    attribute {
      name: "dilations"
      ints: 1
      ints: 1
      type: INTS
    }
    attribute {
      name: "group"
      i: 1
      type: INT
    }
    attribute {
      name: "kernel_shape"
      ints: 1
      ints: 1
      type: INTS
    }
    attribute {
      name: "pads"
      ints: 0
      ints: 0
      ints: 0
      ints: 0
      type: INTS
    }
    attribute {
      name: "strides"
      ints: 1
      ints: 1
      type: INTS
    }
  }
  node {
    input: "253_quantized"
    input: "253_scale"
    input: "253_zero_point"
    input: "ConvMulFusion_W_255_quantized"
    input: "ConvMulFusion_W_255_scale"
    input: "ConvMulFusion_W_255_zero_point"
    input: "260_scale"
    input: "260_zero_point"
    input: "ConvAddFusion_Add_B_258_quantized"
    output: "260_quantized"
    name: "255_quant"
    op_type: "QLinearConv"
    attribute {
      name: "auto_pad"
      s: "NOTSET"
      type: STRING
    }
    attribute {
      name: "dilations"
      ints: 1
      ints: 1
      type: INTS
    }
    attribute {
      name: "group"
      i: 1
      type: INT
    }
    attribute {
      name: "kernel_shape"
      ints: 3
      ints: 3
      type: INTS
    }
    attribute {
      name: "pads"
      ints: 1
      ints: 1
      ints: 1
      ints: 1
      type: INTS
    }
    attribute {
      name: "strides"
      ints: 1
      ints: 1
      type: INTS
    }
  }
  node {
    input: "260_quantized"
    input: "260_scale"
    input: "260_zero_point"
    input: "ConvMulFusion_W_262_quantized"
    input: "ConvMulFusion_W_262_scale"
    input: "ConvMulFusion_W_262_zero_point"
    input: "267_scale"
    input: "267_zero_point"
    input: "ConvAddFusion_Add_B_265_quantized"
    output: "267_quantized"
    name: "262_quant"
    op_type: "QLinearConv"
    attribute {
      name: "auto_pad"
      s: "NOTSET"
      type: STRING
    }
    attribute {
      name: "dilations"
      ints: 1
      ints: 1
      type: INTS
    }
    attribute {
      name: "group"
      i: 1
      type: INT
    }
    attribute {
      name: "kernel_shape"
      ints: 1
      ints: 1
      type: INTS
    }
    attribute {
      name: "pads"
      ints: 0
      ints: 0
      ints: 0
      ints: 0
      type: INTS
    }
    attribute {
      name: "strides"
      ints: 1
      ints: 1
      type: INTS
    }
  }
  node {
    input: "267_quantized"
    input: "267_scale"
    input: "267_zero_point"
    input: "246_quantized"
    input: "246_scale"
    input: "246_zero_point"
    input: "268_scale"
    input: "268_zero_point"
    output: "268_quantized"
    name: "267_quant"
    op_type: "QLinearAdd"
    domain: "com.microsoft"
  }
  node {
    input: "268_quantized"
    input: "268_scale"
    input: "268_zero_point"
    input: "ConvMulFusion_W_270_quantized"
    input: "ConvMulFusion_W_270_scale"
    input: "ConvMulFusion_W_270_zero_point"
    input: "275_scale"
    input: "275_zero_point"
    input: "ConvAddFusion_Add_B_273_quantized"
    output: "275_quantized"
    name: "270_quant"
    op_type: "QLinearConv"
    attribute {
      name: "auto_pad"
      s: "NOTSET"
      type: STRING
    }
    attribute {
      name: "dilations"
      ints: 1
      ints: 1
      type: INTS
    }
    attribute {
      name: "group"
      i: 1
      type: INT
    }
    attribute {
      name: "kernel_shape"
      ints: 1
      ints: 1
      type: INTS
    }
    attribute {
      name: "pads"
      ints: 0
      ints: 0
      ints: 0
      ints: 0
      type: INTS
    }
    attribute {
      name: "strides"
      ints: 1
      ints: 1
      type: INTS
    }
  }
  node {
    input: "275_quantized"
    input: "275_scale"
    input: "275_zero_point"
    input: "ConvMulFusion_W_277_quantized"
    input: "ConvMulFusion_W_277_scale"
    input: "ConvMulFusion_W_277_zero_point"
    input: "282_scale"
    input: "282_zero_point"
    input: "ConvAddFusion_Add_B_280_quantized"
    output: "282_quantized"
    name: "277_quant"
    op_type: "QLinearConv"
    attribute {
      name: "auto_pad"
      s: "NOTSET"
      type: STRING
    }
    attribute {
      name: "dilations"
      ints: 1
      ints: 1
      type: INTS
    }
    attribute {
      name: "group"
      i: 1
      type: INT
    }
    attribute {
      name: "kernel_shape"
      ints: 3
      ints: 3
      type: INTS
    }
    attribute {
      name: "pads"
      ints: 1
      ints: 1
      ints: 1
      ints: 1
      type: INTS
    }
    attribute {
      name: "strides"
      ints: 1
      ints: 1
      type: INTS
    }
  }
  node {
    input: "282_quantized"
    input: "282_scale"
    input: "282_zero_point"
    input: "ConvMulFusion_W_284_quantized"
    input: "ConvMulFusion_W_284_scale"
    input: "ConvMulFusion_W_284_zero_point"
    input: "289_scale"
    input: "289_zero_point"
    input: "ConvAddFusion_Add_B_287_quantized"
    output: "289_quantized"
    name: "284_quant"
    op_type: "QLinearConv"
    attribute {
      name: "auto_pad"
      s: "NOTSET"
      type: STRING
    }
    attribute {
      name: "dilations"
      ints: 1
      ints: 1
      type: INTS
    }
    attribute {
      name: "group"
      i: 1
      type: INT
    }
    attribute {
      name: "kernel_shape"
      ints: 1
      ints: 1
      type: INTS
    }
    attribute {
      name: "pads"
      ints: 0
      ints: 0
      ints: 0
      ints: 0
      type: INTS
    }
    attribute {
      name: "strides"
      ints: 1
      ints: 1
      type: INTS
    }
  }
  node {
    input: "289_quantized"
    input: "289_scale"
    input: "289_zero_point"
    input: "268_quantized"
    input: "268_scale"
    input: "268_zero_point"
    input: "290_scale"
    input: "290_zero_point"
    output: "290_quantized"
    name: "289_quant"
    op_type: "QLinearAdd"
    domain: "com.microsoft"
  }
  node {
    input: "290_quantized"
    input: "290_scale"
    input: "290_zero_point"
    input: "ConvMulFusion_W_292_quantized"
    input: "ConvMulFusion_W_292_scale"
    input: "ConvMulFusion_W_292_zero_point"
    input: "297_scale"
    input: "297_zero_point"
    input: "ConvAddFusion_Add_B_295_quantized"
    output: "297_quantized"
    name: "292_quant"
    op_type: "QLinearConv"
    attribute {
      name: "auto_pad"
      s: "NOTSET"
      type: STRING
    }
    attribute {
      name: "dilations"
      ints: 1
      ints: 1
      type: INTS
    }
    attribute {
      name: "group"
      i: 1
      type: INT
    }
    attribute {
      name: "kernel_shape"
      ints: 1
      ints: 1
      type: INTS
    }
    attribute {
      name: "pads"
      ints: 0
      ints: 0
      ints: 0
      ints: 0
      type: INTS
    }
    attribute {
      name: "strides"
      ints: 1
      ints: 1
      type: INTS
    }
  }
  node {
    input: "297_quantized"
    input: "297_scale"
    input: "297_zero_point"
    input: "ConvMulFusion_W_299_quantized"
    input: "ConvMulFusion_W_299_scale"
    input: "ConvMulFusion_W_299_zero_point"
    input: "304_scale"
    input: "304_zero_point"
    input: "ConvAddFusion_Add_B_302_quantized"
    output: "304_quantized"
    name: "299_quant"
    op_type: "QLinearConv"
    attribute {
      name: "auto_pad"
      s: "NOTSET"
      type: STRING
    }
    attribute {
      name: "dilations"
      ints: 1
      ints: 1
      type: INTS
    }
    attribute {
      name: "group"
      i: 1
      type: INT
    }
    attribute {
      name: "kernel_shape"
      ints: 3
      ints: 3
      type: INTS
    }
    attribute {
      name: "pads"
      ints: 1
      ints: 1
      ints: 1
      ints: 1
      type: INTS
    }
    attribute {
      name: "strides"
      ints: 1
      ints: 1
      type: INTS
    }
  }
  node {
    input: "304_quantized"
    input: "304_scale"
    input: "304_zero_point"
    input: "ConvMulFusion_W_306_quantized"
    input: "ConvMulFusion_W_306_scale"
    input: "ConvMulFusion_W_306_zero_point"
    input: "311_scale"
    input: "311_zero_point"
    input: "ConvAddFusion_Add_B_309_quantized"
    output: "311_quantized"
    name: "306_quant"
    op_type: "QLinearConv"
    attribute {
      name: "auto_pad"
      s: "NOTSET"
      type: STRING
    }
    attribute {
      name: "dilations"
      ints: 1
      ints: 1
      type: INTS
    }
    attribute {
      name: "group"
      i: 1
      type: INT
    }
    attribute {
      name: "kernel_shape"
      ints: 1
      ints: 1
      type: INTS
    }
    attribute {
      name: "pads"
      ints: 0
      ints: 0
      ints: 0
      ints: 0
      type: INTS
    }
    attribute {
      name: "strides"
      ints: 1
      ints: 1
      type: INTS
    }
  }
  node {
    input: "311_quantized"
    input: "311_scale"
    input: "311_zero_point"
    input: "290_quantized"
    input: "290_scale"
    input: "290_zero_point"
    input: "312_scale"
    input: "312_zero_point"
    output: "312_quantized"
    name: "311_quant"
    op_type: "QLinearAdd"
    domain: "com.microsoft"
  }
  node {
    input: "312_quantized"
    input: "312_scale"
    input: "312_zero_point"
    input: "ConvMulFusion_W_314_quantized"
    input: "ConvMulFusion_W_314_scale"
    input: "ConvMulFusion_W_314_zero_point"
    input: "319_scale"
    input: "319_zero_point"
    input: "ConvAddFusion_Add_B_317_quantized"
    output: "319_quantized"
    name: "314_quant"
    op_type: "QLinearConv"
    attribute {
      name: "auto_pad"
      s: "NOTSET"
      type: STRING
    }
    attribute {
      name: "dilations"
      ints: 1
      ints: 1
      type: INTS
    }
    attribute {
      name: "group"
      i: 1
      type: INT
    }
    attribute {
      name: "kernel_shape"
      ints: 1
      ints: 1
      type: INTS
    }
    attribute {
      name: "pads"
      ints: 0
      ints: 0
      ints: 0
      ints: 0
      type: INTS
    }
    attribute {
      name: "strides"
      ints: 2
      ints: 2
      type: INTS
    }
  }
  node {
    input: "312_quantized"
    input: "312_scale"
    input: "312_zero_point"
    input: "ConvMulFusion_W_334_quantized"
    input: "ConvMulFusion_W_334_scale"
    input: "ConvMulFusion_W_334_zero_point"
    input: "339_scale"
    input: "339_zero_point"
    input: "ConvAddFusion_Add_B_337_quantized"
    output: "339_quantized"
    name: "334_quant"
    op_type: "QLinearConv"
    attribute {
      name: "auto_pad"
      s: "NOTSET"
      type: STRING
    }
    attribute {
      name: "dilations"
      ints: 1
      ints: 1
      type: INTS
    }
    attribute {
      name: "group"
      i: 1
      type: INT
    }
    attribute {
      name: "kernel_shape"
      ints: 1
      ints: 1
      type: INTS
    }
    attribute {
      name: "pads"
      ints: 0
      ints: 0
      ints: 0
      ints: 0
      type: INTS
    }
    attribute {
      name: "strides"
      ints: 2
      ints: 2
      type: INTS
    }
  }
  node {
    input: "312_quantized"
    input: "312_scale"
    input: "312_zero_point"
    input: "417_quantized"
    input: "417_scale"
    input: "417_zero_point"
    input: "419_scale"
    input: "419_zero_point"
    input: "418_quantized"
    output: "419_quantized"
    name: "418_quant"
    op_type: "QLinearConv"
    attribute {
      name: "auto_pad"
      s: "NOTSET"
      type: STRING
    }
    attribute {
      name: "dilations"
      ints: 1
      ints: 1
      type: INTS
    }
    attribute {
      name: "group"
      i: 1
      type: INT
    }
    attribute {
      name: "kernel_shape"
      ints: 1
      ints: 1
      type: INTS
    }
    attribute {
      name: "pads"
      ints: 0
      ints: 0
      ints: 0
      ints: 0
      type: INTS
    }
    attribute {
      name: "strides"
      ints: 1
      ints: 1
      type: INTS
    }
  }
  node {
    input: "319_quantized"
    input: "319_scale"
    input: "319_zero_point"
    input: "ConvMulFusion_W_321_quantized"
    input: "ConvMulFusion_W_321_scale"
    input: "ConvMulFusion_W_321_zero_point"
    input: "326_scale"
    input: "326_zero_point"
    input: "ConvAddFusion_Add_B_324_quantized"
    output: "326_quantized"
    name: "321_quant"
    op_type: "QLinearConv"
    attribute {
      name: "auto_pad"
      s: "NOTSET"
      type: STRING
    }
    attribute {
      name: "dilations"
      ints: 1
      ints: 1
      type: INTS
    }
    attribute {
      name: "group"
      i: 1
      type: INT
    }
    attribute {
      name: "kernel_shape"
      ints: 3
      ints: 3
      type: INTS
    }
    attribute {
      name: "pads"
      ints: 1
      ints: 1
      ints: 1
      ints: 1
      type: INTS
    }
    attribute {
      name: "strides"
      ints: 1
      ints: 1
      type: INTS
    }
  }
  node {
    input: "326_quantized"
    input: "326_scale"
    input: "326_zero_point"
    input: "ConvMulFusion_W_328_quantized"
    input: "ConvMulFusion_W_328_scale"
    input: "ConvMulFusion_W_328_zero_point"
    input: "333_scale"
    input: "333_zero_point"
    input: "ConvAddFusion_Add_B_331_quantized"
    output: "333_quantized"
    name: "328_quant"
    op_type: "QLinearConv"
    attribute {
      name: "auto_pad"
      s: "NOTSET"
      type: STRING
    }
    attribute {
      name: "dilations"
      ints: 1
      ints: 1
      type: INTS
    }
    attribute {
      name: "group"
      i: 1
      type: INT
    }
    attribute {
      name: "kernel_shape"
      ints: 1
      ints: 1
      type: INTS
    }
    attribute {
      name: "pads"
      ints: 0
      ints: 0
      ints: 0
      ints: 0
      type: INTS
    }
    attribute {
      name: "strides"
      ints: 1
      ints: 1
      type: INTS
    }
  }
  node {
    input: "333_quantized"
    input: "333_scale"
    input: "333_zero_point"
    input: "339_quantized"
    input: "339_scale"
    input: "339_zero_point"
    input: "340_scale"
    input: "340_zero_point"
    output: "340_quantized"
    name: "339_quant"
    op_type: "QLinearAdd"
    domain: "com.microsoft"
  }
  node {
    input: "340_quantized"
    input: "340_scale"
    input: "340_zero_point"
    input: "ConvMulFusion_W_342_quantized"
    input: "ConvMulFusion_W_342_scale"
    input: "ConvMulFusion_W_342_zero_point"
    input: "347_scale"
    input: "347_zero_point"
    input: "ConvAddFusion_Add_B_345_quantized"
    output: "347_quantized"
    name: "342_quant"
    op_type: "QLinearConv"
    attribute {
      name: "auto_pad"
      s: "NOTSET"
      type: STRING
    }
    attribute {
      name: "dilations"
      ints: 1
      ints: 1
      type: INTS
    }
    attribute {
      name: "group"
      i: 1
      type: INT
    }
    attribute {
      name: "kernel_shape"
      ints: 1
      ints: 1
      type: INTS
    }
    attribute {
      name: "pads"
      ints: 0
      ints: 0
      ints: 0
      ints: 0
      type: INTS
    }
    attribute {
      name: "strides"
      ints: 1
      ints: 1
      type: INTS
    }
  }
  node {
    input: "347_quantized"
    input: "347_scale"
    input: "347_zero_point"
    input: "ConvMulFusion_W_349_quantized"
    input: "ConvMulFusion_W_349_scale"
    input: "ConvMulFusion_W_349_zero_point"
    input: "354_scale"
    input: "354_zero_point"
    input: "ConvAddFusion_Add_B_352_quantized"
    output: "354_quantized"
    name: "349_quant"
    op_type: "QLinearConv"
    attribute {
      name: "auto_pad"
      s: "NOTSET"
      type: STRING
    }
    attribute {
      name: "dilations"
      ints: 1
      ints: 1
      type: INTS
    }
    attribute {
      name: "group"
      i: 1
      type: INT
    }
    attribute {
      name: "kernel_shape"
      ints: 3
      ints: 3
      type: INTS
    }
    attribute {
      name: "pads"
      ints: 1
      ints: 1
      ints: 1
      ints: 1
      type: INTS
    }
    attribute {
      name: "strides"
      ints: 1
      ints: 1
      type: INTS
    }
  }
  node {
    input: "354_quantized"
    input: "354_scale"
    input: "354_zero_point"
    input: "ConvMulFusion_W_356_quantized"
    input: "ConvMulFusion_W_356_scale"
    input: "ConvMulFusion_W_356_zero_point"
    input: "361_scale"
    input: "361_zero_point"
    input: "ConvAddFusion_Add_B_359_quantized"
    output: "361_quantized"
    name: "356_quant"
    op_type: "QLinearConv"
    attribute {
      name: "auto_pad"
      s: "NOTSET"
      type: STRING
    }
    attribute {
      name: "dilations"
      ints: 1
      ints: 1
      type: INTS
    }
    attribute {
      name: "group"
      i: 1
      type: INT
    }
    attribute {
      name: "kernel_shape"
      ints: 1
      ints: 1
      type: INTS
    }
    attribute {
      name: "pads"
      ints: 0
      ints: 0
      ints: 0
      ints: 0
      type: INTS
    }
    attribute {
      name: "strides"
      ints: 1
      ints: 1
      type: INTS
    }
  }
  node {
    input: "361_quantized"
    input: "361_scale"
    input: "361_zero_point"
    input: "340_quantized"
    input: "340_scale"
    input: "340_zero_point"
    input: "362_scale"
    input: "362_zero_point"
    output: "362_quantized"
    name: "361_quant"
    op_type: "QLinearAdd"
    domain: "com.microsoft"
  }
  node {
    input: "362_quantized"
    input: "362_scale"
    input: "362_zero_point"
    input: "ConvMulFusion_W_364_quantized"
    input: "ConvMulFusion_W_364_scale"
    input: "ConvMulFusion_W_364_zero_point"
    input: "369_scale"
    input: "369_zero_point"
    input: "ConvAddFusion_Add_B_367_quantized"
    output: "369_quantized"
    name: "364_quant"
    op_type: "QLinearConv"
    attribute {
      name: "auto_pad"
      s: "NOTSET"
      type: STRING
    }
    attribute {
      name: "dilations"
      ints: 1
      ints: 1
      type: INTS
    }
    attribute {
      name: "group"
      i: 1
      type: INT
    }
    attribute {
      name: "kernel_shape"
      ints: 1
      ints: 1
      type: INTS
    }
    attribute {
      name: "pads"
      ints: 0
      ints: 0
      ints: 0
      ints: 0
      type: INTS
    }
    attribute {
      name: "strides"
      ints: 1
      ints: 1
      type: INTS
    }
  }
  node {
    input: "369_quantized"
    input: "369_scale"
    input: "369_zero_point"
    input: "ConvMulFusion_W_371_quantized"
    input: "ConvMulFusion_W_371_scale"
    input: "ConvMulFusion_W_371_zero_point"
    input: "376_scale"
    input: "376_zero_point"
    input: "ConvAddFusion_Add_B_374_quantized"
    output: "376_quantized"
    name: "371_quant"
    op_type: "QLinearConv"
    attribute {
      name: "auto_pad"
      s: "NOTSET"
      type: STRING
    }
    attribute {
      name: "dilations"
      ints: 1
      ints: 1
      type: INTS
    }
    attribute {
      name: "group"
      i: 1
      type: INT
    }
    attribute {
      name: "kernel_shape"
      ints: 3
      ints: 3
      type: INTS
    }
    attribute {
      name: "pads"
      ints: 1
      ints: 1
      ints: 1
      ints: 1
      type: INTS
    }
    attribute {
      name: "strides"
      ints: 1
      ints: 1
      type: INTS
    }
  }
  node {
    input: "376_quantized"
    input: "376_scale"
    input: "376_zero_point"
    input: "ConvMulFusion_W_378_quantized"
    input: "ConvMulFusion_W_378_scale"
    input: "ConvMulFusion_W_378_zero_point"
    input: "383_scale"
    input: "383_zero_point"
    input: "ConvAddFusion_Add_B_381_quantized"
    output: "383_quantized"
    name: "378_quant"
    op_type: "QLinearConv"
    attribute {
      name: "auto_pad"
      s: "NOTSET"
      type: STRING
    }
    attribute {
      name: "dilations"
      ints: 1
      ints: 1
      type: INTS
    }
    attribute {
      name: "group"
      i: 1
      type: INT
    }
    attribute {
      name: "kernel_shape"
      ints: 1
      ints: 1
      type: INTS
    }
    attribute {
      name: "pads"
      ints: 0
      ints: 0
      ints: 0
      ints: 0
      type: INTS
    }
    attribute {
      name: "strides"
      ints: 1
      ints: 1
      type: INTS
    }
  }
  node {
    input: "383_quantized"
    input: "383_scale"
    input: "383_zero_point"
    input: "362_quantized"
    input: "362_scale"
    input: "362_zero_point"
    input: "384_scale"
    input: "384_zero_point"
    output: "384_quantized"
    name: "383_quant"
    op_type: "QLinearAdd"
    domain: "com.microsoft"
  }
  node {
    input: "384_quantized"
    input: "384_scale"
    input: "384_zero_point"
    input: "386_quantized"
    input: "386_scale"
    input: "386_zero_point"
    input: "388_scale"
    input: "388_zero_point"
    input: "387_quantized"
    output: "388_quantized"
    name: "387_quant"
    op_type: "QLinearConv"
    attribute {
      name: "auto_pad"
      s: "NOTSET"
      type: STRING
    }
    attribute {
      name: "dilations"
      ints: 1
      ints: 1
      type: INTS
    }
    attribute {
      name: "group"
      i: 1
      type: INT
    }
    attribute {
      name: "kernel_shape"
      ints: 1
      ints: 1
      type: INTS
    }
    attribute {
      name: "pads"
      ints: 0
      ints: 0
      ints: 0
      ints: 0
      type: INTS
    }
    attribute {
      name: "strides"
      ints: 1
      ints: 1
      type: INTS
    }
  }
  node {
    input: "388_quantized"
    input: "388_scale"
    input: "388_zero_point"
    output: "388"
    name: "388_387_DequantizeLinear"
    op_type: "DequantizeLinear"
  }
  node {
    input: "388_quantized"
    input: "388_scale"
    input: "388_zero_point"
    input: "389_quantized"
    input: "389_scale"
    input: "389_zero_point"
    input: "391_scale"
    input: "391_zero_point"
    input: "390_quantized"
    output: "391_quantized"
    name: "390_quant"
    op_type: "QLinearConv"
    attribute {
      name: "auto_pad"
      s: "NOTSET"
      type: STRING
    }
    attribute {
      name: "dilations"
      ints: 1
      ints: 1
      type: INTS
    }
    attribute {
      name: "group"
      i: 1
      type: INT
    }
    attribute {
      name: "kernel_shape"
      ints: 3
      ints: 3
      type: INTS
    }
    attribute {
      name: "pads"
      ints: 1
      ints: 1
      ints: 1
      ints: 1
      type: INTS
    }
    attribute {
      name: "strides"
      ints: 1
      ints: 1
      type: INTS
    }
  }
  node {
    input: "388"
    output: "393"
    name: "392"
    op_type: "Shape"
  }
  node {
    input: "391_quantized"
    output: "488_QuantizeInput_quantized"
    name: "487_quant"
    op_type: "MaxPool"
    attribute {
      name: "auto_pad"
      s: "NOTSET"
      type: STRING
    }
    attribute {
      name: "pads"
      ints: 0
      ints: 0
      ints: 0
      ints: 0
      type: INTS
    }
    attribute {
      name: "kernel_shape"
      ints: 1
      ints: 1
      type: INTS
    }
    attribute {
      name: "ceil_mode"
      i: 0
      type: INT
    }
    attribute {
      name: "strides"
      ints: 2
      ints: 2
      type: INTS
    }
    attribute {
      name: "storage_order"
      i: 0
      type: INT
    }
  }
  node {
    input: "391_quantized"
    input: "391_scale"
    input: "391_zero_point"
    output: "391"
    name: "391_390_DequantizeLinear"
    op_type: "DequantizeLinear"
  }
  node {
    input: "391_quantized"
    input: "391_scale"
    input: "391_zero_point"
    input: "489_quantized"
    input: "489_scale"
    input: "489_zero_point"
    input: "507_scale"
    input: "507_zero_point"
    input: "490_nc_split_506_quantized"
    output: "507_quantized"
    name: "506_quant"
    op_type: "QLinearConv"
    attribute {
      name: "auto_pad"
      s: "NOTSET"
      type: STRING
    }
    attribute {
      name: "dilations"
      ints: 1
      ints: 1
      type: INTS
    }
    attribute {
      name: "group"
      i: 1
      type: INT
    }
    attribute {
      name: "kernel_shape"
      ints: 3
      ints: 3
      type: INTS
    }
    attribute {
      name: "pads"
      ints: 1
      ints: 1
      ints: 1
      ints: 1
      type: INTS
    }
    attribute {
      name: "strides"
      ints: 1
      ints: 1
      type: INTS
    }
  }
  node {
    input: "393"
    input: "392"
    output: "394"
    name: "393"
    op_type: "Gather"
    attribute {
      name: "axis"
      i: 0
      type: INT
    }
  }
  node {
    input: "393"
    input: "398"
    output: "400"
    name: "399"
    op_type: "Gather"
    attribute {
      name: "axis"
      i: 0
      type: INT
    }
  }
  node {
    input: "393"
    input: "409"
    input: "410"
    output: "411"
    name: "410"
    op_type: "Slice"
  }
  node {
    input: "488_QuantizeInput_quantized"
    input: "391_scale"
    input: "391_zero_point"
    output: "488"
    name: "488_487_DequantizeLinear"
    op_type: "DequantizeLinear"
  }
  node {
    input: "488_QuantizeInput_quantized"
    input: "391_scale"
    input: "391_zero_point"
    input: "489_quantized"
    input: "489_scale"
    input: "489_zero_point"
    input: "511_scale"
    input: "511_zero_point"
    input: "490_nc_split_510_quantized"
    output: "511_quantized"
    name: "510_quant"
    op_type: "QLinearConv"
    attribute {
      name: "auto_pad"
      s: "NOTSET"
      type: STRING
    }
    attribute {
      name: "dilations"
      ints: 1
      ints: 1
      type: INTS
    }
    attribute {
      name: "group"
      i: 1
      type: INT
    }
    attribute {
      name: "kernel_shape"
      ints: 3
      ints: 3
      type: INTS
    }
    attribute {
      name: "pads"
      ints: 1
      ints: 1
      ints: 1
      ints: 1
      type: INTS
    }
    attribute {
      name: "strides"
      ints: 1
      ints: 1
      type: INTS
    }
  }
  node {
    input: "391"
    output: "537"
    name: "536"
    op_type: "Shape"
  }
  node {
    input: "507_quantized"
    input: "507_scale"
    input: "507_zero_point"
    input: "496_quantized"
    input: "496_scale"
    input: "496_zero_point"
    input: "510_scale"
    input: "510_zero_point"
    input: "497_nc_split_509_quantized"
    output: "510_quantized"
    name: "509_quant"
    op_type: "QLinearConv"
    attribute {
      name: "auto_pad"
      s: "NOTSET"
      type: STRING
    }
    attribute {
      name: "dilations"
      ints: 1
      ints: 1
      type: INTS
    }
    attribute {
      name: "group"
      i: 1
      type: INT
    }
    attribute {
      name: "kernel_shape"
      ints: 1
      ints: 1
      type: INTS
    }
    attribute {
      name: "pads"
      ints: 0
      ints: 0
      ints: 0
      ints: 0
      type: INTS
    }
    attribute {
      name: "strides"
      ints: 1
      ints: 1
      type: INTS
    }
  }
  node {
    input: "507_quantized"
    input: "507_scale"
    input: "507_zero_point"
    input: "493_quantized"
    input: "493_scale"
    input: "493_zero_point"
    input: "509_scale"
    input: "509_zero_point"
    input: "494_nc_split_508_quantized"
    output: "509_quantized"
    name: "508_quant"
    op_type: "QLinearConv"
    attribute {
      name: "auto_pad"
      s: "NOTSET"
      type: STRING
    }
    attribute {
      name: "dilations"
      ints: 1
      ints: 1
      type: INTS
    }
    attribute {
      name: "group"
      i: 1
      type: INT
    }
    attribute {
      name: "kernel_shape"
      ints: 1
      ints: 1
      type: INTS
    }
    attribute {
      name: "pads"
      ints: 0
      ints: 0
      ints: 0
      ints: 0
      type: INTS
    }
    attribute {
      name: "strides"
      ints: 1
      ints: 1
      type: INTS
    }
  }
  node {
    input: "394"
    input: "395"
    output: "396"
    name: "395"
    op_type: "Mul"
  }
  node {
    input: "400"
    input: "401"
    output: "402"
    name: "401"
    op_type: "Mul"
  }
  node {
    input: "411"
    output: "412"
    name: "411"
    op_type: "Cast"
    attribute {
      name: "to"
      i: 1
      type: INT
    }
  }
  node {
    input: "488"
    output: "543"
    name: "542"
    op_type: "Shape"
  }
  node {
    input: "511_quantized"
    input: "511_scale"
    input: "511_zero_point"
    input: "496_quantized"
    input: "496_scale"
    input: "496_zero_point"
    input: "514_scale"
    input: "514_zero_point"
    input: "497_nc_split_513_quantized"
    output: "514_quantized"
    name: "513_quant"
    op_type: "QLinearConv"
    attribute {
      name: "auto_pad"
      s: "NOTSET"
      type: STRING
    }
    attribute {
      name: "dilations"
      ints: 1
      ints: 1
      type: INTS
    }
    attribute {
      name: "group"
      i: 1
      type: INT
    }
    attribute {
      name: "kernel_shape"
      ints: 1
      ints: 1
      type: INTS
    }
    attribute {
      name: "pads"
      ints: 0
      ints: 0
      ints: 0
      ints: 0
      type: INTS
    }
    attribute {
      name: "strides"
      ints: 1
      ints: 1
      type: INTS
    }
  }
  node {
    input: "511_quantized"
    input: "511_scale"
    input: "511_zero_point"
    input: "493_quantized"
    input: "493_scale"
    input: "493_zero_point"
    input: "513_scale"
    input: "513_zero_point"
    input: "494_nc_split_512_quantized"
    output: "513_quantized"
    name: "512_quant"
    op_type: "QLinearConv"
    attribute {
      name: "auto_pad"
      s: "NOTSET"
      type: STRING
    }
    attribute {
      name: "dilations"
      ints: 1
      ints: 1
      type: INTS
    }
    attribute {
      name: "group"
      i: 1
      type: INT
    }
    attribute {
      name: "kernel_shape"
      ints: 1
      ints: 1
      type: INTS
    }
    attribute {
      name: "pads"
      ints: 0
      ints: 0
      ints: 0
      ints: 0
      type: INTS
    }
    attribute {
      name: "strides"
      ints: 1
      ints: 1
      type: INTS
    }
  }
  node {
    input: "537"
    input: "536"
    output: "538"
    name: "537"
    op_type: "Gather"
    attribute {
      name: "axis"
      i: 0
      type: INT
    }
  }
  node {
    input: "537"
    input: "533"
    output: "535"
    name: "534"
    op_type: "Gather"
    attribute {
      name: "axis"
      i: 0
      type: INT
    }
  }
  node {
    input: "509_quantized"
    input: "509_scale"
    input: "509_zero_point"
    output: "509"
    name: "509_508_DequantizeLinear"
    op_type: "DequantizeLinear"
  }
  node {
    input: "396"
    output: "404"
    name: "403"
    op_type: "Unsqueeze"
    attribute {
      name: "axes"
      ints: 0
      type: INTS
    }
  }
  node {
    input: "402"
    output: "405"
    name: "404"
    op_type: "Unsqueeze"
    attribute {
      name: "axes"
      ints: 0
      type: INTS
    }
  }
  node {
    input: "543"
    input: "542"
    output: "544"
    name: "543"
    op_type: "Gather"
    attribute {
      name: "axis"
      i: 0
      type: INT
    }
  }
  node {
    input: "543"
    input: "539"
    output: "541"
    name: "540"
    op_type: "Gather"
    attribute {
      name: "axis"
      i: 0
      type: INT
    }
  }
  node {
    input: "513_quantized"
    input: "513_scale"
    input: "513_zero_point"
    output: "513"
    name: "513_512_DequantizeLinear"
    op_type: "DequantizeLinear"
  }
  node {
    input: "538"
    input: "728"
    output: "729"
    name: "728"
    op_type: "Mul"
  }
  node {
    input: "538"
    output: "737"
    name: "736"
    op_type: "Unsqueeze"
    attribute {
      name: "axes"
      ints: 0
      type: INTS
    }
  }
  node {
    input: "535"
    output: "770"
    name: "769"
    op_type: "Unsqueeze"
    attribute {
      name: "axes"
      ints: 0
      type: INTS
    }
  }
  node {
    input: "535"
    input: "745"
    output: "746"
    name: "745"
    op_type: "Mul"
  }
  node {
    input: "509"
    output: "1850"
    name: "1828"
    op_type: "Shape"
  }
  node {
    input: "404"
    input: "405"
    output: "406"
    name: "405"
    op_type: "Concat"
    attribute {
      name: "axis"
      i: 0
      type: INT
    }
  }
  node {
    input: "544"
    input: "789"
    output: "790"
    name: "789"
    op_type: "Mul"
  }
  node {
    input: "544"
    output: "798"
    name: "797"
    op_type: "Unsqueeze"
    attribute {
      name: "axes"
      ints: 0
      type: INTS
    }
  }
  node {
    input: "541"
    output: "831"
    name: "830"
    op_type: "Unsqueeze"
    attribute {
      name: "axes"
      ints: 0
      type: INTS
    }
  }
  node {
    input: "541"
    input: "806"
    output: "807"
    name: "806"
    op_type: "Mul"
  }
  node {
    input: "513"
    output: "2183"
    name: "2154"
    op_type: "Shape"
  }
  node {
    input: "729"
    output: "730"
    name: "729"
    op_type: "Unsqueeze"
    attribute {
      name: "axes"
      ints: 0
      type: INTS
    }
  }
  node {
    input: "770"
    input: "737"
    output: "772"
    name: "771"
    op_type: "Concat"
    attribute {
      name: "axis"
      i: 0
      type: INT
    }
  }
  node {
    input: "746"
    output: "747"
    name: "746"
    op_type: "Unsqueeze"
    attribute {
      name: "axes"
      ints: 0
      type: INTS
    }
  }
  node {
    input: "1850"
    input: "1849"
    output: "1851"
    name: "1829"
    op_type: "Gather"
    attribute {
      name: "axis"
      i: 0
      type: INT
    }
  }
  node {
    input: "1850"
    input: "1852"
    output: "1854"
    name: "1832"
    op_type: "Gather"
    attribute {
      name: "axis"
      i: 0
      type: INT
    }
  }
  node {
    input: "1850"
    input: "1855"
    output: "1857"
    name: "1835"
    op_type: "Gather"
    attribute {
      name: "axis"
      i: 0
      type: INT
    }
  }
  node {
    input: "406"
    output: "407"
    name: "406"
    op_type: "Cast"
    attribute {
      name: "to"
      i: 1
      type: INT
    }
  }
  node {
    input: "790"
    output: "791"
    name: "790"
    op_type: "Unsqueeze"
    attribute {
      name: "axes"
      ints: 0
      type: INTS
    }
  }
  node {
    input: "831"
    input: "798"
    output: "833"
    name: "832"
    op_type: "Concat"
    attribute {
      name: "axis"
      i: 0
      type: INT
    }
  }
  node {
    input: "807"
    output: "808"
    name: "807"
    op_type: "Unsqueeze"
    attribute {
      name: "axes"
      ints: 0
      type: INTS
    }
  }
  node {
    input: "2183"
    input: "2182"
    output: "2184"
    name: "2155"
    op_type: "Gather"
    attribute {
      name: "axis"
      i: 0
      type: INT
    }
  }
  node {
    input: "2183"
    input: "2185"
    output: "2187"
    name: "2158"
    op_type: "Gather"
    attribute {
      name: "axis"
      i: 0
      type: INT
    }
  }
  node {
    input: "2183"
    input: "2188"
    output: "2190"
    name: "2161"
    op_type: "Gather"
    attribute {
      name: "axis"
      i: 0
      type: INT
    }
  }
  node {
    input: "730"
    output: "731"
    name: "730"
    op_type: "Concat"
    attribute {
      name: "axis"
      i: 0
      type: INT
    }
  }
  node {
    input: "747"
    output: "748"
    name: "747"
    op_type: "Concat"
    attribute {
      name: "axis"
      i: 0
      type: INT
    }
  }
  node {
    input: "1851"
    output: "1883"
    name: "1861"
    op_type: "Unsqueeze"
    attribute {
      name: "axes"
      ints: 0
      type: INTS
    }
  }
  node {
    input: "1854"
    output: "1886"
    name: "1864"
    op_type: "Unsqueeze"
    attribute {
      name: "axes"
      ints: 0
      type: INTS
    }
  }
  node {
    input: "1857"
    output: "1887"
    name: "1865"
    op_type: "Unsqueeze"
    attribute {
      name: "axes"
      ints: 0
      type: INTS
    }
  }
  node {
    input: "407"
    input: "412"
    output: "414"
    name: "413"
    op_type: "Div"
  }
  node {
    input: "791"
    output: "792"
    name: "791"
    op_type: "Concat"
    attribute {
      name: "axis"
      i: 0
      type: INT
    }
  }
  node {
    input: "808"
    output: "809"
    name: "808"
    op_type: "Concat"
    attribute {
      name: "axis"
      i: 0
      type: INT
    }
  }
  node {
    input: "2184"
    output: "2216"
    name: "2187"
    op_type: "Unsqueeze"
    attribute {
      name: "axes"
      ints: 0
      type: INTS
    }
  }
  node {
    input: "2187"
    output: "2219"
    name: "2190"
    op_type: "Unsqueeze"
    attribute {
      name: "axes"
      ints: 0
      type: INTS
    }
  }
  node {
    input: "2190"
    output: "2220"
    name: "2191"
    op_type: "Unsqueeze"
    attribute {
      name: "axes"
      ints: 0
      type: INTS
    }
  }
  node {
    input: "731"
    output: "732"
    name: "731"
    op_type: "ConstantOfShape"
    attribute {
      name: "value"
      t {
        dims: 1
        data_type: 1
        raw_data: "\000\000\200?"
      }
      type: TENSOR
    }
  }
  node {
    input: "748"
    output: "749"
    name: "748"
    op_type: "ConstantOfShape"
    attribute {
      name: "value"
      t {
        dims: 1
        data_type: 1
        raw_data: "\000\000\200?"
      }
      type: TENSOR
    }
  }
  node {
    input: "1883"
    input: "UnsqueezeElimination_1881"
    input: "UnsqueezeElimination_1882"
    input: "1886"
    input: "1887"
    output: "1888"
    name: "1866"
    op_type: "Concat"
    attribute {
      name: "axis"
      i: 0
      type: INT
    }
  }
  node {
    input: "1883"
    input: "UnsqueezeElimination_1891"
    input: "UnsqueezeElimination_1892"
    output: "1896"
    name: "1874"
    op_type: "Concat"
    attribute {
      name: "axis"
      i: 0
      type: INT
    }
  }
  node {
    input: "1883"
    input: "UnsqueezeElimination_1858"
    input: "UnsqueezeElimination_1859"
    input: "1886"
    input: "1887"
    output: "1865"
    name: "1843"
    op_type: "Concat"
    attribute {
      name: "axis"
      i: 0
      type: INT
    }
  }
  node {
    input: "1883"
    input: "UnsqueezeElimination_1868"
    input: "UnsqueezeElimination_1869"
    output: "1873"
    name: "1851"
    op_type: "Concat"
    attribute {
      name: "axis"
      i: 0
      type: INT
    }
  }
  node {
    input: "1883"
    input: "UnsqueezeElimination_1875"
    output: "1878"
    name: "1856"
    op_type: "Concat"
    attribute {
      name: "axis"
      i: 0
      type: INT
    }
  }
  node {
    input: "1883"
    input: "UnsqueezeElimination_1913"
    input: "UnsqueezeElimination_1914"
    output: "1918"
    name: "1895"
    op_type: "Concat"
    attribute {
      name: "axis"
      i: 0
      type: INT
    }
  }
  node {
    input: "1883"
    input: "UnsqueezeElimination_2089"
    input: "UnsqueezeElimination_2090"
    output: "2094"
    name: "2071"
    op_type: "Concat"
    attribute {
      name: "axis"
      i: 0
      type: INT
    }
  }
  node {
    input: "413"
    input: "414"
    output: "415"
    name: "414"
    op_type: "Concat"
    attribute {
      name: "axis"
      i: 0
      type: INT
    }
  }
  node {
    input: "792"
    output: "793"
    name: "792"
    op_type: "ConstantOfShape"
    attribute {
      name: "value"
      t {
        dims: 1
        data_type: 1
        raw_data: "\000\000\200?"
      }
      type: TENSOR
    }
  }
  node {
    input: "809"
    output: "810"
    name: "809"
    op_type: "ConstantOfShape"
    attribute {
      name: "value"
      t {
        dims: 1
        data_type: 1
        raw_data: "\000\000\200?"
      }
      type: TENSOR
    }
  }
  node {
    input: "2216"
    input: "UnsqueezeElimination_2214"
    input: "UnsqueezeElimination_2215"
    input: "2219"
    input: "2220"
    output: "2221"
    name: "2192"
    op_type: "Concat"
    attribute {
      name: "axis"
      i: 0
      type: INT
    }
  }
  node {
    input: "2216"
    input: "UnsqueezeElimination_2224"
    input: "UnsqueezeElimination_2225"
    output: "2229"
    name: "2200"
    op_type: "Concat"
    attribute {
      name: "axis"
      i: 0
      type: INT
    }
  }
  node {
    input: "2216"
    input: "UnsqueezeElimination_2191"
    input: "UnsqueezeElimination_2192"
    input: "2219"
    input: "2220"
    output: "2198"
    name: "2169"
    op_type: "Concat"
    attribute {
      name: "axis"
      i: 0
      type: INT
    }
  }
  node {
    input: "2216"
    input: "UnsqueezeElimination_2201"
    input: "UnsqueezeElimination_2202"
    output: "2206"
    name: "2177"
    op_type: "Concat"
    attribute {
      name: "axis"
      i: 0
      type: INT
    }
  }
  node {
    input: "2216"
    input: "UnsqueezeElimination_2208"
    output: "2211"
    name: "2182"
    op_type: "Concat"
    attribute {
      name: "axis"
      i: 0
      type: INT
    }
  }
  node {
    input: "2216"
    input: "UnsqueezeElimination_2246"
    input: "UnsqueezeElimination_2247"
    output: "2251"
    name: "2221"
    op_type: "Concat"
    attribute {
      name: "axis"
      i: 0
      type: INT
    }
  }
  node {
    input: "2216"
    input: "UnsqueezeElimination_2422"
    input: "UnsqueezeElimination_2423"
    output: "2427"
    name: "2397"
    op_type: "Concat"
    attribute {
      name: "axis"
      i: 0
      type: INT
    }
  }
  node {
    input: "732"
    output: "734"
    name: "733"
    op_type: "NonZero"
  }
  node {
    input: "749"
    output: "751"
    name: "750"
    op_type: "NonZero"
  }
  node {
    input: "510_quantized"
    input: "1888"
    output: "1889_QuantizeInput_quantized"
    name: "1867_quant"
    op_type: "Reshape"
  }
  node {
    input: "509_quantized"
    input: "1865"
    output: "1866_QuantizeInput_quantized"
    name: "1844_quant"
    op_type: "Reshape"
  }
  node {
    input: "388_quantized"
    input: "6888"
    input: "415"
    output: "416_QuantizeInput_quantized"
    name: "415_quant"
    op_type: "Resize"
    attribute {
      name: "extrapolation_value"
      f: 0.0
      type: FLOAT
    }
    attribute {
      name: "cubic_coeff_a"
      f: -0.75
      type: FLOAT
    }
    attribute {
      name: "exclude_outside"
      i: 0
      type: INT
    }
    attribute {
      name: "mode"
      s: "nearest"
      type: STRING
    }
    attribute {
      name: "coordinate_transformation_mode"
      s: "half_pixel"
      type: STRING
    }
    attribute {
      name: "nearest_mode"
      s: "round_prefer_floor"
      type: STRING
    }
  }
  node {
    input: "793"
    output: "795"
    name: "794"
    op_type: "NonZero"
  }
  node {
    input: "810"
    output: "812"
    name: "811"
    op_type: "NonZero"
  }
  node {
    input: "514_quantized"
    input: "2221"
    output: "2222_QuantizeInput_quantized"
    name: "2193_quant"
    op_type: "Reshape"
  }
  node {
    input: "513_quantized"
    input: "2198"
    output: "2199_QuantizeInput_quantized"
    name: "2170_quant"
    op_type: "Reshape"
  }
  node {
    input: "734"
    output: "735"
    name: "734"
    op_type: "Transpose"
    attribute {
      name: "perm"
      ints: 1
      ints: 0
      type: INTS
    }
  }
  node {
    input: "751"
    output: "752"
    name: "751"
    op_type: "Transpose"
    attribute {
      name: "perm"
      ints: 1
      ints: 0
      type: INTS
    }
  }
  node {
    input: "1889_QuantizeInput_quantized"
    output: "1890_QuantizeInput_quantized"
    name: "1868_quant"
    op_type: "Transpose"
    attribute {
      name: "perm"
      ints: 0
      ints: 3
      ints: 4
      ints: 1
      ints: 2
      type: INTS
    }
  }
  node {
    input: "1866_QuantizeInput_quantized"
    output: "1867_QuantizeInput_quantized"
    name: "1845_quant"
    op_type: "Transpose"
    attribute {
      name: "perm"
      ints: 0
      ints: 3
      ints: 4
      ints: 1
      ints: 2
      type: INTS
    }
  }
  node {
    input: "419_quantized"
    input: "419_scale"
    input: "419_zero_point"
    input: "416_QuantizeInput_quantized"
    input: "388_scale"
    input: "388_zero_point"
    input: "420_scale"
    input: "420_zero_point"
    output: "420_quantized"
    name: "419_quant"
    op_type: "QLinearAdd"
    domain: "com.microsoft"
  }
  node {
    input: "795"
    output: "796"
    name: "795"
    op_type: "Transpose"
    attribute {
      name: "perm"
      ints: 1
      ints: 0
      type: INTS
    }
  }
  node {
    input: "812"
    output: "813"
    name: "812"
    op_type: "Transpose"
    attribute {
      name: "perm"
      ints: 1
      ints: 0
      type: INTS
    }
  }
  node {
    input: "2222_QuantizeInput_quantized"
    output: "2223_QuantizeInput_quantized"
    name: "2194_quant"
    op_type: "Transpose"
    attribute {
      name: "perm"
      ints: 0
      ints: 3
      ints: 4
      ints: 1
      ints: 2
      type: INTS
    }
  }
  node {
    input: "2199_QuantizeInput_quantized"
    output: "2200_QuantizeInput_quantized"
    name: "2171_quant"
    op_type: "Transpose"
    attribute {
      name: "perm"
      ints: 0
      ints: 3
      ints: 4
      ints: 1
      ints: 2
      type: INTS
    }
  }
  node {
    input: "735"
    input: "739"
    output: "740"
    name: "739"
    op_type: "Reshape"
  }
  node {
    input: "752"
    input: "756"
    output: "757"
    name: "756"
    op_type: "Reshape"
  }
  node {
    input: "1890_QuantizeInput_quantized"
    input: "1896"
    output: "1897_QuantizeInput_quantized"
    name: "1875_quant"
    op_type: "Reshape"
  }
  node {
    input: "1867_QuantizeInput_quantized"
    input: "1873"
    output: "1874_QuantizeInput_quantized"
    name: "1852_quant"
    op_type: "Reshape"
  }
  node {
    input: "420_quantized"
    input: "420_scale"
    input: "420_zero_point"
    output: "420"
    name: "420_419_DequantizeLinear"
    op_type: "DequantizeLinear"
  }
  node {
    input: "420_quantized"
    input: "420_scale"
    input: "420_zero_point"
    input: "421_quantized"
    input: "421_scale"
    input: "421_zero_point"
    input: "423_scale"
    input: "423_zero_point"
    input: "422_quantized"
    output: "423_quantized"
    name: "422_quant"
    op_type: "QLinearConv"
    attribute {
      name: "auto_pad"
      s: "NOTSET"
      type: STRING
    }
    attribute {
      name: "dilations"
      ints: 1
      ints: 1
      type: INTS
    }
    attribute {
      name: "group"
      i: 1
      type: INT
    }
    attribute {
      name: "kernel_shape"
      ints: 3
      ints: 3
      type: INTS
    }
    attribute {
      name: "pads"
      ints: 1
      ints: 1
      ints: 1
      ints: 1
      type: INTS
    }
    attribute {
      name: "strides"
      ints: 1
      ints: 1
      type: INTS
    }
  }
  node {
    input: "796"
    input: "800"
    output: "801"
    name: "800"
    op_type: "Reshape"
  }
  node {
    input: "813"
    input: "817"
    output: "818"
    name: "817"
    op_type: "Reshape"
  }
  node {
    input: "2223_QuantizeInput_quantized"
    input: "2229"
    output: "2230_QuantizeInput_quantized"
    name: "2201_quant"
    op_type: "Reshape"
  }
  node {
    input: "2200_QuantizeInput_quantized"
    input: "2206"
    output: "2207_QuantizeInput_quantized"
    name: "2178_quant"
    op_type: "Reshape"
  }
  node {
    input: "740"
    output: "741"
    name: "740"
    op_type: "Cast"
    attribute {
      name: "to"
      i: 1
      type: INT
    }
  }
  node {
    input: "757"
    output: "758"
    name: "757"
    op_type: "Cast"
    attribute {
      name: "to"
      i: 1
      type: INT
    }
  }
  node {
    input: "1874_QuantizeInput_quantized"
    input: "1878"
    output: "1879_QuantizeInput_quantized"
    name: "1857_quant"
    op_type: "Reshape"
  }
  node {
    input: "420"
    output: "425"
    name: "424"
    op_type: "Shape"
  }
  node {
    input: "423_quantized"
    input: "423_scale"
    input: "423_zero_point"
    output: "423"
    name: "423_422_DequantizeLinear"
    op_type: "DequantizeLinear"
  }
  node {
    input: "423_quantized"
    input: "423_scale"
    input: "423_zero_point"
    input: "489_quantized"
    input: "489_scale"
    input: "489_zero_point"
    input: "503_scale"
    input: "503_zero_point"
    input: "490_nc_split_502_quantized"
    output: "503_quantized"
    name: "502_quant"
    op_type: "QLinearConv"
    attribute {
      name: "auto_pad"
      s: "NOTSET"
      type: STRING
    }
    attribute {
      name: "dilations"
      ints: 1
      ints: 1
      type: INTS
    }
    attribute {
      name: "group"
      i: 1
      type: INT
    }
    attribute {
      name: "kernel_shape"
      ints: 3
      ints: 3
      type: INTS
    }
    attribute {
      name: "pads"
      ints: 1
      ints: 1
      ints: 1
      ints: 1
      type: INTS
    }
    attribute {
      name: "strides"
      ints: 1
      ints: 1
      type: INTS
    }
  }
  node {
    input: "801"
    output: "802"
    name: "801"
    op_type: "Cast"
    attribute {
      name: "to"
      i: 1
      type: INT
    }
  }
  node {
    input: "818"
    output: "819"
    name: "818"
    op_type: "Cast"
    attribute {
      name: "to"
      i: 1
      type: INT
    }
  }
  node {
    input: "2207_QuantizeInput_quantized"
    input: "2211"
    output: "2212_QuantizeInput_quantized"
    name: "2183_quant"
    op_type: "Reshape"
  }
  node {
    input: "741"
    input: "742"
    output: "743"
    name: "742"
    op_type: "Gather"
    attribute {
      name: "axis"
      i: 1
      type: INT
    }
  }
  node {
    input: "758"
    input: "759"
    output: "760"
    name: "759"
    op_type: "Gather"
    attribute {
      name: "axis"
      i: 1
      type: INT
    }
  }
  node {
    input: "1879_QuantizeInput_quantized"
    input: "509_scale"
    input: "509_zero_point"
    input: "1880_scale"
    input: "1880_zero_point"
    output: "1880_quantized"
    name: "1858_quant"
    op_type: "QLinearSigmoid"
    domain: "com.microsoft"
  }
  node {
    input: "425"
    input: "424"
    output: "426"
    name: "425"
    op_type: "Gather"
    attribute {
      name: "axis"
      i: 0
      type: INT
    }
  }
  node {
    input: "425"
    input: "430"
    output: "432"
    name: "431"
    op_type: "Gather"
    attribute {
      name: "axis"
      i: 0
      type: INT
    }
  }
  node {
    input: "425"
    input: "441"
    input: "442"
    output: "443"
    name: "442"
    op_type: "Slice"
  }
  node {
    input: "423"
    output: "531"
    name: "530"
    op_type: "Shape"
  }
  node {
    input: "503_quantized"
    input: "503_scale"
    input: "503_zero_point"
    input: "496_quantized"
    input: "496_scale"
    input: "496_zero_point"
    input: "506_scale"
    input: "506_zero_point"
    input: "497_nc_split_505_quantized"
    output: "506_quantized"
    name: "505_quant"
    op_type: "QLinearConv"
    attribute {
      name: "auto_pad"
      s: "NOTSET"
      type: STRING
    }
    attribute {
      name: "dilations"
      ints: 1
      ints: 1
      type: INTS
    }
    attribute {
      name: "group"
      i: 1
      type: INT
    }
    attribute {
      name: "kernel_shape"
      ints: 1
      ints: 1
      type: INTS
    }
    attribute {
      name: "pads"
      ints: 0
      ints: 0
      ints: 0
      ints: 0
      type: INTS
    }
    attribute {
      name: "strides"
      ints: 1
      ints: 1
      type: INTS
    }
  }
  node {
    input: "503_quantized"
    input: "503_scale"
    input: "503_zero_point"
    input: "493_quantized"
    input: "493_scale"
    input: "493_zero_point"
    input: "505_scale"
    input: "505_zero_point"
    input: "494_nc_split_504_quantized"
    output: "505_quantized"
    name: "504_quant"
    op_type: "QLinearConv"
    attribute {
      name: "auto_pad"
      s: "NOTSET"
      type: STRING
    }
    attribute {
      name: "dilations"
      ints: 1
      ints: 1
      type: INTS
    }
    attribute {
      name: "group"
      i: 1
      type: INT
    }
    attribute {
      name: "kernel_shape"
      ints: 1
      ints: 1
      type: INTS
    }
    attribute {
      name: "pads"
      ints: 0
      ints: 0
      ints: 0
      ints: 0
      type: INTS
    }
    attribute {
      name: "strides"
      ints: 1
      ints: 1
      type: INTS
    }
  }
  node {
    input: "802"
    input: "803"
    output: "804"
    name: "803"
    op_type: "Gather"
    attribute {
      name: "axis"
      i: 1
      type: INT
    }
  }
  node {
    input: "819"
    input: "820"
    output: "821"
    name: "820"
    op_type: "Gather"
    attribute {
      name: "axis"
      i: 1
      type: INT
    }
  }
  node {
    input: "2212_QuantizeInput_quantized"
    input: "513_scale"
    input: "513_zero_point"
    input: "2213_scale"
    input: "2213_zero_point"
    output: "2213_quantized"
    name: "2184_quant"
    op_type: "QLinearSigmoid"
    domain: "com.microsoft"
  }
  node {
    input: "743"
    input: "768"
    output: "769"
    name: "768"
    op_type: "Reshape"
  }
  node {
    input: "760"
    input: "762"
    output: "763"
    name: "762"
    op_type: "Reshape"
  }
  node {
    input: "1880_quantized"
    input: "1880_scale"
    input: "1880_zero_point"
    output: "1880"
    name: "1880_1858_DequantizeLinear"
    op_type: "DequantizeLinear"
  }
  node {
    input: "426"
    input: "427"
    output: "428"
    name: "427"
    op_type: "Mul"
  }
  node {
    input: "432"
    input: "433"
    output: "434"
    name: "433"
    op_type: "Mul"
  }
  node {
    input: "443"
    output: "444"
    name: "443"
    op_type: "Cast"
    attribute {
      name: "to"
      i: 1
      type: INT
    }
  }
  node {
    input: "531"
    input: "530"
    output: "532"
    name: "531"
    op_type: "Gather"
    attribute {
      name: "axis"
      i: 0
      type: INT
    }
  }
  node {
    input: "531"
    input: "527"
    output: "529"
    name: "528"
    op_type: "Gather"
    attribute {
      name: "axis"
      i: 0
      type: INT
    }
  }
  node {
    input: "505_quantized"
    input: "505_scale"
    input: "505_zero_point"
    output: "505"
    name: "505_504_DequantizeLinear"
    op_type: "DequantizeLinear"
  }
  node {
    input: "804"
    input: "829"
    output: "830"
    name: "829"
    op_type: "Reshape"
  }
  node {
    input: "821"
    input: "823"
    output: "824"
    name: "823"
    op_type: "Reshape"
  }
  node {
    input: "2213_quantized"
    input: "2213_scale"
    input: "2213_zero_point"
    output: "2213"
    name: "2213_2184_DequantizeLinear"
    op_type: "DequantizeLinear"
  }
  node {
    input: "769"
    input: "772"
    output: "773"
    name: "772"
    op_type: "Expand"
  }
  node {
    input: "763"
    input: "772"
    output: "767"
    name: "766"
    op_type: "Expand"
  }
  node {
    input: "1880"
    output: "1898"
    name: "1876"
    op_type: "Shape"
  }
  node {
    input: "428"
    output: "436"
    name: "435"
    op_type: "Unsqueeze"
    attribute {
      name: "axes"
      ints: 0
      type: INTS
    }
  }
  node {
    input: "434"
    output: "437"
    name: "436"
    op_type: "Unsqueeze"
    attribute {
      name: "axes"
      ints: 0
      type: INTS
    }
  }
  node {
    input: "532"
    input: "667"
    output: "668"
    name: "667"
    op_type: "Mul"
  }
  node {
    input: "532"
    output: "676"
    name: "675"
    op_type: "Unsqueeze"
    attribute {
      name: "axes"
      ints: 0
      type: INTS
    }
  }
  node {
    input: "529"
    output: "709"
    name: "708"
    op_type: "Unsqueeze"
    attribute {
      name: "axes"
      ints: 0
      type: INTS
    }
  }
  node {
    input: "529"
    input: "684"
    output: "685"
    name: "684"
    op_type: "Mul"
  }
  node {
    input: "505"
    output: "1517"
    name: "1502"
    op_type: "Shape"
  }
  node {
    input: "830"
    input: "833"
    output: "834"
    name: "833"
    op_type: "Expand"
  }
  node {
    input: "824"
    input: "833"
    output: "828"
    name: "827"
    op_type: "Expand"
  }
  node {
    input: "2213"
    output: "2231"
    name: "2202"
    op_type: "Shape"
  }
  node {
    input: "773"
    input: "774"
    output: "775"
    name: "774"
    op_type: "Reshape"
  }
  node {
    input: "767"
    input: "776"
    output: "777"
    name: "776"
    op_type: "Reshape"
  }
  node {
    input: "1898"
    input: "1899"
    output: "1900"
    name: "1878"
    op_type: "Gather"
    attribute {
      name: "axis"
      i: 0
      type: INT
    }
  }
  node {
    input: "436"
    input: "437"
    output: "438"
    name: "437"
    op_type: "Concat"
    attribute {
      name: "axis"
      i: 0
      type: INT
    }
  }
  node {
    input: "668"
    output: "669"
    name: "668"
    op_type: "Unsqueeze"
    attribute {
      name: "axes"
      ints: 0
      type: INTS
    }
  }
  node {
    input: "709"
    input: "676"
    output: "711"
    name: "710"
    op_type: "Concat"
    attribute {
      name: "axis"
      i: 0
      type: INT
    }
  }
  node {
    input: "685"
    output: "686"
    name: "685"
    op_type: "Unsqueeze"
    attribute {
      name: "axes"
      ints: 0
      type: INTS
    }
  }
  node {
    input: "1517"
    input: "1516"
    output: "1518"
    name: "1503"
    op_type: "Gather"
    attribute {
      name: "axis"
      i: 0
      type: INT
    }
  }
  node {
    input: "1517"
    input: "1519"
    output: "1521"
    name: "1506"
    op_type: "Gather"
    attribute {
      name: "axis"
      i: 0
      type: INT
    }
  }
  node {
    input: "1517"
    input: "1522"
    output: "1524"
    name: "1509"
    op_type: "Gather"
    attribute {
      name: "axis"
      i: 0
      type: INT
    }
  }
  node {
    input: "834"
    input: "835"
    output: "836"
    name: "835"
    op_type: "Reshape"
  }
  node {
    input: "828"
    input: "837"
    output: "838"
    name: "837"
    op_type: "Reshape"
  }
  node {
    input: "2231"
    input: "2232"
    output: "2233"
    name: "2204"
    op_type: "Gather"
    attribute {
      name: "axis"
      i: 0
      type: INT
    }
  }
  node {
    input: "775"
    output: "778"
    name: "777"
    op_type: "Unsqueeze"
    attribute {
      name: "axes"
      ints: 1
      type: INTS
    }
  }
  node {
    input: "777"
    output: "779"
    name: "778"
    op_type: "Unsqueeze"
    attribute {
      name: "axes"
      ints: 1
      type: INTS
    }
  }
  node {
    input: "1900"
    output: "1901"
    name: "1879"
    op_type: "Unsqueeze"
    attribute {
      name: "axes"
      ints: 0
      type: INTS
    }
  }
  node {
    input: "438"
    output: "439"
    name: "438"
    op_type: "Cast"
    attribute {
      name: "to"
      i: 1
      type: INT
    }
  }
  node {
    input: "669"
    output: "670"
    name: "669"
    op_type: "Concat"
    attribute {
      name: "axis"
      i: 0
      type: INT
    }
  }
  node {
    input: "686"
    output: "687"
    name: "686"
    op_type: "Concat"
    attribute {
      name: "axis"
      i: 0
      type: INT
    }
  }
  node {
    input: "1518"
    output: "1550"
    name: "1535"
    op_type: "Unsqueeze"
    attribute {
      name: "axes"
      ints: 0
      type: INTS
    }
  }
  node {
    input: "1521"
    output: "1553"
    name: "1538"
    op_type: "Unsqueeze"
    attribute {
      name: "axes"
      ints: 0
      type: INTS
    }
  }
  node {
    input: "1524"
    output: "1554"
    name: "1539"
    op_type: "Unsqueeze"
    attribute {
      name: "axes"
      ints: 0
      type: INTS
    }
  }
  node {
    input: "836"
    output: "839"
    name: "838"
    op_type: "Unsqueeze"
    attribute {
      name: "axes"
      ints: 1
      type: INTS
    }
  }
  node {
    input: "838"
    output: "840"
    name: "839"
    op_type: "Unsqueeze"
    attribute {
      name: "axes"
      ints: 1
      type: INTS
    }
  }
  node {
    input: "2233"
    output: "2234"
    name: "2205"
    op_type: "Unsqueeze"
    attribute {
      name: "axes"
      ints: 0
      type: INTS
    }
  }
  node {
    input: "778"
    input: "779"
    input: "778"
    input: "779"
    output: "782"
    name: "781"
    op_type: "Concat"
    attribute {
      name: "axis"
      i: 1
      type: INT
    }
  }
  node {
    input: "1902"
    input: "1901"
    output: "1903"
    name: "1881"
    op_type: "Concat"
    attribute {
      name: "axis"
      i: 0
      type: INT
    }
  }
  node {
    input: "439"
    input: "444"
    output: "446"
    name: "445"
    op_type: "Div"
  }
  node {
    input: "670"
    output: "671"
    name: "670"
    op_type: "ConstantOfShape"
    attribute {
      name: "value"
      t {
        dims: 1
        data_type: 1
        raw_data: "\000\000\200?"
      }
      type: TENSOR
    }
  }
  node {
    input: "687"
    output: "688"
    name: "687"
    op_type: "ConstantOfShape"
    attribute {
      name: "value"
      t {
        dims: 1
        data_type: 1
        raw_data: "\000\000\200?"
      }
      type: TENSOR
    }
  }
  node {
    input: "1550"
    input: "UnsqueezeElimination_1548"
    input: "UnsqueezeElimination_1549"
    input: "1553"
    input: "1554"
    output: "1555"
    name: "1540"
    op_type: "Concat"
    attribute {
      name: "axis"
      i: 0
      type: INT
    }
  }
  node {
    input: "1550"
    input: "UnsqueezeElimination_1558"
    input: "UnsqueezeElimination_1559"
    output: "1563"
    name: "1548"
    op_type: "Concat"
    attribute {
      name: "axis"
      i: 0
      type: INT
    }
  }
  node {
    input: "1550"
    input: "UnsqueezeElimination_1525"
    input: "UnsqueezeElimination_1526"
    input: "1553"
    input: "1554"
    output: "1532"
    name: "1517"
    op_type: "Concat"
    attribute {
      name: "axis"
      i: 0
      type: INT
    }
  }
  node {
    input: "1550"
    input: "UnsqueezeElimination_1535"
    input: "UnsqueezeElimination_1536"
    output: "1540"
    name: "1525"
    op_type: "Concat"
    attribute {
      name: "axis"
      i: 0
      type: INT
    }
  }
  node {
    input: "1550"
    input: "UnsqueezeElimination_1542"
    output: "1545"
    name: "1530"
    op_type: "Concat"
    attribute {
      name: "axis"
      i: 0
      type: INT
    }
  }
  node {
    input: "1550"
    input: "UnsqueezeElimination_1580"
    input: "UnsqueezeElimination_1581"
    output: "1585"
    name: "1569"
    op_type: "Concat"
    attribute {
      name: "axis"
      i: 0
      type: INT
    }
  }
  node {
    input: "1550"
    input: "UnsqueezeElimination_1756"
    input: "UnsqueezeElimination_1757"
    output: "1761"
    name: "1745"
    op_type: "Concat"
    attribute {
      name: "axis"
      i: 0
      type: INT
    }
  }
  node {
    input: "839"
    input: "840"
    input: "839"
    input: "840"
    output: "843"
    name: "842"
    op_type: "Concat"
    attribute {
      name: "axis"
      i: 1
      type: INT
    }
  }
  node {
    input: "2235"
    input: "2234"
    output: "2236"
    name: "2207"
    op_type: "Concat"
    attribute {
      name: "axis"
      i: 0
      type: INT
    }
  }
  node {
    input: "782"
    input: "783"
    output: "784"
    name: "783"
    op_type: "Reshape"
  }
  node {
    input: "1903"
    output: "1904"
    name: "1882"
    op_type: "Cast"
    attribute {
      name: "to"
      i: 6
      type: INT
    }
  }
  node {
    input: "445"
    input: "446"
    output: "447"
    name: "446"
    op_type: "Concat"
    attribute {
      name: "axis"
      i: 0
      type: INT
    }
  }
  node {
    input: "671"
    output: "673"
    name: "672"
    op_type: "NonZero"
  }
  node {
    input: "688"
    output: "690"
    name: "689"
    op_type: "NonZero"
  }
  node {
    input: "506_quantized"
    input: "1555"
    output: "1556_QuantizeInput_quantized"
    name: "1541_quant"
    op_type: "Reshape"
  }
  node {
    input: "505_quantized"
    input: "1532"
    output: "1533_QuantizeInput_quantized"
    name: "1518_quant"
    op_type: "Reshape"
  }
  node {
    input: "843"
    input: "844"
    output: "845"
    name: "844"
    op_type: "Reshape"
  }
  node {
    input: "2236"
    output: "2237"
    name: "2208"
    op_type: "Cast"
    attribute {
      name: "to"
      i: 6
      type: INT
    }
  }
  node {
    input: "784"
    input: "785"
    output: "786"
    name: "785"
    op_type: "Add"
  }
  node {
    input: "1904"
    output: "1905"
    name: "1883"
    op_type: "ReduceMin"
    attribute {
      name: "keepdims"
      i: 0
      type: INT
    }
  }
  node {
    input: "420_quantized"
    input: "6890"
    input: "447"
    output: "448_QuantizeInput_quantized"
    name: "447_quant"
    op_type: "Resize"
    attribute {
      name: "extrapolation_value"
      f: 0.0
      type: FLOAT
    }
    attribute {
      name: "cubic_coeff_a"
      f: -0.75
      type: FLOAT
    }
    attribute {
      name: "exclude_outside"
      i: 0
      type: INT
    }
    attribute {
      name: "mode"
      s: "nearest"
      type: STRING
    }
    attribute {
      name: "coordinate_transformation_mode"
      s: "half_pixel"
      type: STRING
    }
    attribute {
      name: "nearest_mode"
      s: "round_prefer_floor"
      type: STRING
    }
  }
  node {
    input: "673"
    output: "674"
    name: "673"
    op_type: "Transpose"
    attribute {
      name: "perm"
      ints: 1
      ints: 0
      type: INTS
    }
  }
  node {
    input: "690"
    output: "691"
    name: "690"
    op_type: "Transpose"
    attribute {
      name: "perm"
      ints: 1
      ints: 0
      type: INTS
    }
  }
  node {
    input: "1556_QuantizeInput_quantized"
    output: "1557_QuantizeInput_quantized"
    name: "1542_quant"
    op_type: "Transpose"
    attribute {
      name: "perm"
      ints: 0
      ints: 3
      ints: 4
      ints: 1
      ints: 2
      type: INTS
    }
  }
  node {
    input: "1533_QuantizeInput_quantized"
    output: "1534_QuantizeInput_quantized"
    name: "1519_quant"
    op_type: "Transpose"
    attribute {
      name: "perm"
      ints: 0
      ints: 3
      ints: 4
      ints: 1
      ints: 2
      type: INTS
    }
  }
  node {
    input: "845"
    input: "846"
    output: "847"
    name: "846"
    op_type: "Add"
  }
  node {
    input: "2237"
    output: "2238"
    name: "2209"
    op_type: "ReduceMin"
    attribute {
      name: "keepdims"
      i: 0
      type: INT
    }
  }
  node {
    input: "786"
    input: "787"
    output: "788"
    name: "787"
    op_type: "Reshape"
  }
  node {
    input: "1905"
    output: "1906"
    name: "1884"
    op_type: "Cast"
    attribute {
      name: "to"
      i: 7
      type: INT
    }
  }
  node {
    input: "451_quantized"
    input: "451_scale"
    input: "451_zero_point"
    input: "448_QuantizeInput_quantized"
    input: "420_scale"
    input: "420_zero_point"
    input: "452_scale"
    input: "452_zero_point"
    output: "452_quantized"
    name: "451_quant"
    op_type: "QLinearAdd"
    domain: "com.microsoft"
  }
  node {
    input: "674"
    input: "678"
    output: "679"
    name: "678"
    op_type: "Reshape"
  }
  node {
    input: "691"
    input: "695"
    output: "696"
    name: "695"
    op_type: "Reshape"
  }
  node {
    input: "1557_QuantizeInput_quantized"
    input: "1563"
    output: "1564_QuantizeInput_quantized"
    name: "1549_quant"
    op_type: "Reshape"
  }
  node {
    input: "1534_QuantizeInput_quantized"
    input: "1540"
    output: "1541_QuantizeInput_quantized"
    name: "1526_quant"
    op_type: "Reshape"
  }
  node {
    input: "847"
    input: "848"
    output: "849"
    name: "848"
    op_type: "Reshape"
  }
  node {
    input: "2238"
    output: "2239"
    name: "2210"
    op_type: "Cast"
    attribute {
      name: "to"
      i: 7
      type: INT
    }
  }
  node {
    input: "788"
    output: "1912"
    name: "1889"
    op_type: "Concat"
    attribute {
      name: "axis"
      i: 0
      type: INT
    }
  }
  node {
    input: "1906"
    output: "1907"
    name: "1885"
    op_type: "Unsqueeze"
    attribute {
      name: "axes"
      ints: 0
      type: INTS
    }
  }
  node {
    input: "452_quantized"
    input: "452_scale"
    input: "452_zero_point"
    output: "452"
    name: "452_451_DequantizeLinear"
    op_type: "DequantizeLinear"
  }
  node {
    input: "452_quantized"
    input: "452_scale"
    input: "452_zero_point"
    input: "453_quantized"
    input: "453_scale"
    input: "453_zero_point"
    input: "455_scale"
    input: "455_zero_point"
    input: "454_quantized"
    output: "455_quantized"
    name: "454_quant"
    op_type: "QLinearConv"
    attribute {
      name: "auto_pad"
      s: "NOTSET"
      type: STRING
    }
    attribute {
      name: "dilations"
      ints: 1
      ints: 1
      type: INTS
    }
    attribute {
      name: "group"
      i: 1
      type: INT
    }
    attribute {
      name: "kernel_shape"
      ints: 3
      ints: 3
      type: INTS
    }
    attribute {
      name: "pads"
      ints: 1
      ints: 1
      ints: 1
      ints: 1
      type: INTS
    }
    attribute {
      name: "strides"
      ints: 1
      ints: 1
      type: INTS
    }
  }
  node {
    input: "679"
    output: "680"
    name: "679"
    op_type: "Cast"
    attribute {
      name: "to"
      i: 1
      type: INT
    }
  }
  node {
    input: "696"
    output: "697"
    name: "696"
    op_type: "Cast"
    attribute {
      name: "to"
      i: 1
      type: INT
    }
  }
  node {
    input: "1541_QuantizeInput_quantized"
    input: "1545"
    output: "1546_QuantizeInput_quantized"
    name: "1531_quant"
    op_type: "Reshape"
  }
  node {
    input: "849"
    output: "2245"
    name: "2215"
    op_type: "Concat"
    attribute {
      name: "axis"
      i: 0
      type: INT
    }
  }
  node {
    input: "2239"
    output: "2240"
    name: "2211"
    op_type: "Unsqueeze"
    attribute {
      name: "axes"
      ints: 0
      type: INTS
    }
  }
  node {
    input: "1912"
    input: "1918"
    output: "1919"
    name: "1896"
    op_type: "Reshape"
  }
  node {
    input: "1880"
    input: "1907"
    output: "1908"
    output: "1909"
    name: "1886"
    op_type: "TopK"
    attribute {
      name: "axis"
      i: 1
      type: INT
    }
    attribute {
      name: "largest"
      i: 1
      type: INT
    }
    attribute {
      name: "sorted"
      i: 1
      type: INT
    }
  }
  node {
    input: "452"
    output: "457"
    name: "456"
    op_type: "Shape"
  }
  node {
    input: "455_quantized"
    input: "455_scale"
    input: "455_zero_point"
    output: "455"
    name: "455_454_DequantizeLinear"
    op_type: "DequantizeLinear"
  }
  node {
    input: "455_quantized"
    input: "455_scale"
    input: "455_zero_point"
    input: "489_quantized"
    input: "489_scale"
    input: "489_zero_point"
    input: "499_scale"
    input: "499_zero_point"
    input: "490_nc_split_498_quantized"
    output: "499_quantized"
    name: "498_quant"
    op_type: "QLinearConv"
    attribute {
      name: "auto_pad"
      s: "NOTSET"
      type: STRING
    }
    attribute {
      name: "dilations"
      ints: 1
      ints: 1
      type: INTS
    }
    attribute {
      name: "group"
      i: 1
      type: INT
    }
    attribute {
      name: "kernel_shape"
      ints: 3
      ints: 3
      type: INTS
    }
    attribute {
      name: "pads"
      ints: 1
      ints: 1
      ints: 1
      ints: 1
      type: INTS
    }
    attribute {
      name: "strides"
      ints: 1
      ints: 1
      type: INTS
    }
  }
  node {
    input: "680"
    input: "681"
    output: "682"
    name: "681"
    op_type: "Gather"
    attribute {
      name: "axis"
      i: 1
      type: INT
    }
  }
  node {
    input: "697"
    input: "698"
    output: "699"
    name: "698"
    op_type: "Gather"
    attribute {
      name: "axis"
      i: 1
      type: INT
    }
  }
  node {
    input: "1546_QuantizeInput_quantized"
    input: "505_scale"
    input: "505_zero_point"
    input: "1547_scale"
    input: "1547_zero_point"
    output: "1547_quantized"
    name: "1532_quant"
    op_type: "QLinearSigmoid"
    domain: "com.microsoft"
  }
  node {
    input: "2245"
    input: "2251"
    output: "2252"
    name: "2222"
    op_type: "Reshape"
  }
  node {
    input: "2213"
    input: "2240"
    output: "2241"
    output: "2242"
    name: "2212"
    op_type: "TopK"
    attribute {
      name: "axis"
      i: 1
      type: INT
    }
    attribute {
      name: "largest"
      i: 1
      type: INT
    }
    attribute {
      name: "sorted"
      i: 1
      type: INT
    }
  }
  node {
    input: "1908"
    input: "2098"
    output: "2099"
    name: "2076"
    op_type: "Gather"
    attribute {
      name: "axis"
      i: 0
      type: INT
    }
  }
  node {
    input: "1909"
    output: "1910"
    name: "1887"
    op_type: "Squeeze"
    attribute {
      name: "axes"
      ints: 0
      type: INTS
    }
  }
  node {
    input: "457"
    input: "456"
    output: "458"
    name: "457"
    op_type: "Gather"
    attribute {
      name: "axis"
      i: 0
      type: INT
    }
  }
  node {
    input: "457"
    input: "462"
    output: "464"
    name: "463"
    op_type: "Gather"
    attribute {
      name: "axis"
      i: 0
      type: INT
    }
  }
  node {
    input: "457"
    input: "473"
    input: "474"
    output: "475"
    name: "474"
    op_type: "Slice"
  }
  node {
    input: "455"
    output: "525"
    name: "524"
    op_type: "Shape"
  }
  node {
    input: "499_quantized"
    input: "499_scale"
    input: "499_zero_point"
    input: "496_quantized"
    input: "496_scale"
    input: "496_zero_point"
    input: "502_scale"
    input: "502_zero_point"
    input: "497_nc_split_501_quantized"
    output: "502_quantized"
    name: "501_quant"
    op_type: "QLinearConv"
    attribute {
      name: "auto_pad"
      s: "NOTSET"
      type: STRING
    }
    attribute {
      name: "dilations"
      ints: 1
      ints: 1
      type: INTS
    }
    attribute {
      name: "group"
      i: 1
      type: INT
    }
    attribute {
      name: "kernel_shape"
      ints: 1
      ints: 1
      type: INTS
    }
    attribute {
      name: "pads"
      ints: 0
      ints: 0
      ints: 0
      ints: 0
      type: INTS
    }
    attribute {
      name: "strides"
      ints: 1
      ints: 1
      type: INTS
    }
  }
  node {
    input: "499_quantized"
    input: "499_scale"
    input: "499_zero_point"
    input: "493_quantized"
    input: "493_scale"
    input: "493_zero_point"
    input: "501_scale"
    input: "501_zero_point"
    input: "494_nc_split_500_quantized"
    output: "501_quantized"
    name: "500_quant"
    op_type: "QLinearConv"
    attribute {
      name: "auto_pad"
      s: "NOTSET"
      type: STRING
    }
    attribute {
      name: "dilations"
      ints: 1
      ints: 1
      type: INTS
    }
    attribute {
      name: "group"
      i: 1
      type: INT
    }
    attribute {
      name: "kernel_shape"
      ints: 1
      ints: 1
      type: INTS
    }
    attribute {
      name: "pads"
      ints: 0
      ints: 0
      ints: 0
      ints: 0
      type: INTS
    }
    attribute {
      name: "strides"
      ints: 1
      ints: 1
      type: INTS
    }
  }
  node {
    input: "682"
    input: "707"
    output: "708"
    name: "707"
    op_type: "Reshape"
  }
  node {
    input: "699"
    input: "701"
    output: "702"
    name: "701"
    op_type: "Reshape"
  }
  node {
    input: "1547_quantized"
    input: "1547_scale"
    input: "1547_zero_point"
    output: "1547"
    name: "1547_1532_DequantizeLinear"
    op_type: "DequantizeLinear"
  }
  node {
    input: "2241"
    input: "2431"
    output: "2432"
    name: "2402"
    op_type: "Gather"
    attribute {
      name: "axis"
      i: 0
      type: INT
    }
  }
  node {
    input: "2242"
    output: "2243"
    name: "2213"
    op_type: "Squeeze"
    attribute {
      name: "axes"
      ints: 0
      type: INTS
    }
  }
  node {
    input: "1919"
    input: "1910"
    output: "1920"
    name: "1897"
    op_type: "Gather"
    attribute {
      name: "axis"
      i: 1
      type: INT
    }
  }
  node {
    input: "1897_QuantizeInput_quantized"
    input: "1910"
    output: "1911_QuantizeInput_quantized"
    name: "1888_quant"
    op_type: "Gather"
    attribute {
      name: "axis"
      i: 1
      type: INT
    }
  }
  node {
    input: "458"
    input: "459"
    output: "460"
    name: "459"
    op_type: "Mul"
  }
  node {
    input: "464"
    input: "465"
    output: "466"
    name: "465"
    op_type: "Mul"
  }
  node {
    input: "475"
    output: "476"
    name: "475"
    op_type: "Cast"
    attribute {
      name: "to"
      i: 1
      type: INT
    }
  }
  node {
    input: "525"
    input: "524"
    output: "526"
    name: "525"
    op_type: "Gather"
    attribute {
      name: "axis"
      i: 0
      type: INT
    }
  }
  node {
    input: "525"
    input: "521"
    output: "523"
    name: "522"
    op_type: "Gather"
    attribute {
      name: "axis"
      i: 0
      type: INT
    }
  }
  node {
    input: "501_quantized"
    input: "501_scale"
    input: "501_zero_point"
    output: "501"
    name: "501_500_DequantizeLinear"
    op_type: "DequantizeLinear"
  }
  node {
    input: "708"
    input: "711"
    output: "712"
    name: "711"
    op_type: "Expand"
  }
  node {
    input: "702"
    input: "711"
    output: "706"
    name: "705"
    op_type: "Expand"
  }
  node {
    input: "1547"
    output: "1565"
    name: "1550"
    op_type: "Shape"
  }
  node {
    input: "2252"
    input: "2243"
    output: "2253"
    name: "2223"
    op_type: "Gather"
    attribute {
      name: "axis"
      i: 1
      type: INT
    }
  }
  node {
    input: "2230_QuantizeInput_quantized"
    input: "2243"
    output: "2244_QuantizeInput_quantized"
    name: "2214_quant"
    op_type: "Gather"
    attribute {
      name: "axis"
      i: 1
      type: INT
    }
  }
  node {
    input: "1920"
    input: "1923"
    output: "1924"
    name: "1901"
    op_type: "Reshape"
  }
  node {
    input: "1911_QuantizeInput_quantized"
    input: "1921"
    output: "1922_QuantizeInput_quantized"
    name: "1899_quant"
    op_type: "Reshape"
  }
  node {
    input: "460"
    output: "468"
    name: "467"
    op_type: "Unsqueeze"
    attribute {
      name: "axes"
      ints: 0
      type: INTS
    }
  }
  node {
    input: "466"
    output: "469"
    name: "468"
    op_type: "Unsqueeze"
    attribute {
      name: "axes"
      ints: 0
      type: INTS
    }
  }
  node {
    input: "526"
    input: "606"
    output: "607"
    name: "606"
    op_type: "Mul"
  }
  node {
    input: "526"
    output: "615"
    name: "614"
    op_type: "Unsqueeze"
    attribute {
      name: "axes"
      ints: 0
      type: INTS
    }
  }
  node {
    input: "523"
    output: "648"
    name: "647"
    op_type: "Unsqueeze"
    attribute {
      name: "axes"
      ints: 0
      type: INTS
    }
  }
  node {
    input: "523"
    input: "623"
    output: "624"
    name: "623"
    op_type: "Mul"
  }
  node {
    input: "501"
    output: "1184"
    name: "1176"
    op_type: "Shape"
  }
  node {
    input: "712"
    input: "713"
    output: "714"
    name: "713"
    op_type: "Reshape"
  }
  node {
    input: "706"
    input: "715"
    output: "716"
    name: "715"
    op_type: "Reshape"
  }
  node {
    input: "1565"
    input: "1566"
    output: "1567"
    name: "1552"
    op_type: "Gather"
    attribute {
      name: "axis"
      i: 0
      type: INT
    }
  }
  node {
    input: "2253"
    input: "2256"
    output: "2257"
    name: "2227"
    op_type: "Reshape"
  }
  node {
    input: "2244_QuantizeInput_quantized"
    input: "2254"
    output: "2255_QuantizeInput_quantized"
    name: "2225_quant"
    op_type: "Reshape"
  }
  node {
    input: "1924"
    input: "1931"
    output: "1932"
    name: "1909"
    op_type: "Gather"
    attribute {
      name: "axis"
      i: 1
      type: INT
    }
  }
  node {
    input: "1924"
    input: "1938"
    output: "1939"
    name: "1916"
    op_type: "Gather"
    attribute {
      name: "axis"
      i: 1
      type: INT
    }
  }
  node {
    input: "1924"
    input: "1965"
    output: "1966"
    name: "1943"
    op_type: "Gather"
    attribute {
      name: "axis"
      i: 1
      type: INT
    }
  }
  node {
    input: "1924"
    input: "1948"
    output: "1949"
    name: "1926"
    op_type: "Gather"
    attribute {
      name: "axis"
      i: 1
      type: INT
    }
  }
  node {
    input: "1924"
    input: "1955"
    output: "1956"
    name: "1933"
    op_type: "Gather"
    attribute {
      name: "axis"
      i: 1
      type: INT
    }
  }
  node {
    input: "1924"
    input: "1975"
    output: "1976"
    name: "1953"
    op_type: "Gather"
    attribute {
      name: "axis"
      i: 1
      type: INT
    }
  }
  node {
    input: "1922_QuantizeInput_quantized"
    input: "1911_scale"
    input: "1911_zero_point"
    output: "1922"
    name: "1922_1899_DequantizeLinear"
    op_type: "DequantizeLinear"
  }
  node {
    input: "468"
    input: "469"
    output: "470"
    name: "469"
    op_type: "Concat"
    attribute {
      name: "axis"
      i: 0
      type: INT
    }
  }
  node {
    input: "607"
    output: "608"
    name: "607"
    op_type: "Unsqueeze"
    attribute {
      name: "axes"
      ints: 0
      type: INTS
    }
  }
  node {
    input: "648"
    input: "615"
    output: "650"
    name: "649"
    op_type: "Concat"
    attribute {
      name: "axis"
      i: 0
      type: INT
    }
  }
  node {
    input: "624"
    output: "625"
    name: "624"
    op_type: "Unsqueeze"
    attribute {
      name: "axes"
      ints: 0
      type: INTS
    }
  }
  node {
    input: "1184"
    input: "1183"
    output: "1185"
    name: "1177"
    op_type: "Gather"
    attribute {
      name: "axis"
      i: 0
      type: INT
    }
  }
  node {
    input: "1184"
    input: "1186"
    output: "1188"
    name: "1180"
    op_type: "Gather"
    attribute {
      name: "axis"
      i: 0
      type: INT
    }
  }
  node {
    input: "1184"
    input: "1189"
    output: "1191"
    name: "1183"
    op_type: "Gather"
    attribute {
      name: "axis"
      i: 0
      type: INT
    }
  }
  node {
    input: "714"
    output: "717"
    name: "716"
    op_type: "Unsqueeze"
    attribute {
      name: "axes"
      ints: 1
      type: INTS
    }
  }
  node {
    input: "716"
    output: "718"
    name: "717"
    op_type: "Unsqueeze"
    attribute {
      name: "axes"
      ints: 1
      type: INTS
    }
  }
  node {
    input: "1567"
    output: "1568"
    name: "1553"
    op_type: "Unsqueeze"
    attribute {
      name: "axes"
      ints: 0
      type: INTS
    }
  }
  node {
    input: "2257"
    input: "2264"
    output: "2265"
    name: "2235"
    op_type: "Gather"
    attribute {
      name: "axis"
      i: 1
      type: INT
    }
  }
  node {
    input: "2257"
    input: "2271"
    output: "2272"
    name: "2242"
    op_type: "Gather"
    attribute {
      name: "axis"
      i: 1
      type: INT
    }
  }
  node {
    input: "2257"
    input: "2298"
    output: "2299"
    name: "2269"
    op_type: "Gather"
    attribute {
      name: "axis"
      i: 1
      type: INT
    }
  }
  node {
    input: "2257"
    input: "2281"
    output: "2282"
    name: "2252"
    op_type: "Gather"
    attribute {
      name: "axis"
      i: 1
      type: INT
    }
  }
  node {
    input: "2257"
    input: "2288"
    output: "2289"
    name: "2259"
    op_type: "Gather"
    attribute {
      name: "axis"
      i: 1
      type: INT
    }
  }
  node {
    input: "2257"
    input: "2308"
    output: "2309"
    name: "2279"
    op_type: "Gather"
    attribute {
      name: "axis"
      i: 1
      type: INT
    }
  }
  node {
    input: "2255_QuantizeInput_quantized"
    input: "2244_scale"
    input: "2244_zero_point"
    output: "2255"
    name: "2255_2225_DequantizeLinear"
    op_type: "DequantizeLinear"
  }
  node {
    input: "1932"
    input: "1939"
    output: "1940"
    name: "1917"
    op_type: "Sub"
  }
  node {
    input: "1949"
    input: "1956"
    output: "1957"
    name: "1934"
    op_type: "Sub"
  }
  node {
    input: "1922"
    input: "2005"
    input: "2006"
    input: "2007"
    input: "2008"
    output: "2009"
    name: "1986"
    op_type: "Slice"
  }
  node {
    input: "1922"
    input: "1985"
    input: "1986"
    input: "1987"
    input: "1988"
    output: "1989"
    name: "1966"
    op_type: "Slice"
  }
  node {
    input: "1922"
    input: "2015"
    input: "2016"
    input: "2017"
    input: "2018"
    output: "2019"
    name: "1996"
    op_type: "Slice"
  }
  node {
    input: "1922"
    input: "1995"
    input: "1996"
    input: "1997"
    input: "1998"
    output: "1999"
    name: "1976"
    op_type: "Slice"
  }
  node {
    input: "1922"
    output: "2087"
    name: "2064"
    op_type: "Shape"
  }
  node {
    input: "470"
    output: "471"
    name: "470"
    op_type: "Cast"
    attribute {
      name: "to"
      i: 1
      type: INT
    }
  }
  node {
    input: "608"
    output: "609"
    name: "608"
    op_type: "Concat"
    attribute {
      name: "axis"
      i: 0
      type: INT
    }
  }
  node {
    input: "625"
    output: "626"
    name: "625"
    op_type: "Concat"
    attribute {
      name: "axis"
      i: 0
      type: INT
    }
  }
  node {
    input: "1185"
    output: "1217"
    name: "1209"
    op_type: "Unsqueeze"
    attribute {
      name: "axes"
      ints: 0
      type: INTS
    }
  }
  node {
    input: "1188"
    output: "1220"
    name: "1212"
    op_type: "Unsqueeze"
    attribute {
      name: "axes"
      ints: 0
      type: INTS
    }
  }
  node {
    input: "1191"
    output: "1221"
    name: "1213"
    op_type: "Unsqueeze"
    attribute {
      name: "axes"
      ints: 0
      type: INTS
    }
  }
  node {
    input: "717"
    input: "718"
    input: "717"
    input: "718"
    output: "721"
    name: "720"
    op_type: "Concat"
    attribute {
      name: "axis"
      i: 1
      type: INT
    }
  }
  node {
    input: "1569"
    input: "1568"
    output: "1570"
    name: "1555"
    op_type: "Concat"
    attribute {
      name: "axis"
      i: 0
      type: INT
    }
  }
  node {
    input: "2265"
    input: "2272"
    output: "2273"
    name: "2243"
    op_type: "Sub"
  }
  node {
    input: "2282"
    input: "2289"
    output: "2290"
    name: "2260"
    op_type: "Sub"
  }
  node {
    input: "2255"
    input: "2338"
    input: "2339"
    input: "2340"
    input: "2341"
    output: "2342"
    name: "2312"
    op_type: "Slice"
  }
  node {
    input: "2255"
    input: "2318"
    input: "2319"
    input: "2320"
    input: "2321"
    output: "2322"
    name: "2292"
    op_type: "Slice"
  }
  node {
    input: "2255"
    input: "2348"
    input: "2349"
    input: "2350"
    input: "2351"
    output: "2352"
    name: "2322"
    op_type: "Slice"
  }
  node {
    input: "2255"
    input: "2328"
    input: "2329"
    input: "2330"
    input: "2331"
    output: "2332"
    name: "2302"
    op_type: "Slice"
  }
  node {
    input: "2255"
    output: "2420"
    name: "2390"
    op_type: "Shape"
  }
  node {
    input: "1940"
    input: "1941"
    output: "1942"
    name: "1919"
    op_type: "Add"
  }
  node {
    input: "1957"
    input: "1958"
    output: "1959"
    name: "1936"
    op_type: "Add"
  }
  node {
    input: "2009"
    input: "6942"
    input: "6944"
    output: "2020"
    name: "1997"
    op_type: "Clip"
  }
  node {
    input: "2019"
    input: "6946"
    input: "6948"
    output: "2021"
    name: "1998"
    op_type: "Clip"
  }
  node {
    input: "471"
    input: "476"
    output: "478"
    name: "477"
    op_type: "Div"
  }
  node {
    input: "609"
    output: "610"
    name: "609"
    op_type: "ConstantOfShape"
    attribute {
      name: "value"
      t {
        dims: 1
        data_type: 1
        raw_data: "\000\000\200?"
      }
      type: TENSOR
    }
  }
  node {
    input: "626"
    output: "627"
    name: "626"
    op_type: "ConstantOfShape"
    attribute {
      name: "value"
      t {
        dims: 1
        data_type: 1
        raw_data: "\000\000\200?"
      }
      type: TENSOR
    }
  }
  node {
    input: "1217"
    input: "UnsqueezeElimination_1215"
    input: "UnsqueezeElimination_1216"
    input: "1220"
    input: "1221"
    output: "1222"
    name: "1214"
    op_type: "Concat"
    attribute {
      name: "axis"
      i: 0
      type: INT
    }
  }
  node {
    input: "1217"
    input: "UnsqueezeElimination_1225"
    input: "UnsqueezeElimination_1226"
    output: "1230"
    name: "1222"
    op_type: "Concat"
    attribute {
      name: "axis"
      i: 0
      type: INT
    }
  }
  node {
    input: "1217"
    input: "UnsqueezeElimination_1192"
    input: "UnsqueezeElimination_1193"
    input: "1220"
    input: "1221"
    output: "1199"
    name: "1191"
    op_type: "Concat"
    attribute {
      name: "axis"
      i: 0
      type: INT
    }
  }
  node {
    input: "1217"
    input: "UnsqueezeElimination_1202"
    input: "UnsqueezeElimination_1203"
    output: "1207"
    name: "1199"
    op_type: "Concat"
    attribute {
      name: "axis"
      i: 0
      type: INT
    }
  }
  node {
    input: "1217"
    input: "UnsqueezeElimination_1209"
    output: "1212"
    name: "1204"
    op_type: "Concat"
    attribute {
      name: "axis"
      i: 0
      type: INT
    }
  }
  node {
    input: "1217"
    input: "UnsqueezeElimination_1247"
    input: "UnsqueezeElimination_1248"
    output: "1252"
    name: "1243"
    op_type: "Concat"
    attribute {
      name: "axis"
      i: 0
      type: INT
    }
  }
  node {
    input: "1217"
    input: "UnsqueezeElimination_1423"
    input: "UnsqueezeElimination_1424"
    output: "1428"
    name: "1419"
    op_type: "Concat"
    attribute {
      name: "axis"
      i: 0
      type: INT
    }
  }
  node {
    input: "721"
    input: "722"
    output: "723"
    name: "722"
    op_type: "Reshape"
  }
  node {
    input: "1570"
    output: "1571"
    name: "1556"
    op_type: "Cast"
    attribute {
      name: "to"
      i: 6
      type: INT
    }
  }
  node {
    input: "2273"
    input: "2274"
    output: "2275"
    name: "2245"
    op_type: "Add"
  }
  node {
    input: "2290"
    input: "2291"
    output: "2292"
    name: "2262"
    op_type: "Add"
  }
  node {
    input: "2342"
    input: "6958"
    input: "6960"
    output: "2353"
    name: "2323"
    op_type: "Clip"
  }
  node {
    input: "2352"
    input: "6962"
    input: "6964"
    output: "2354"
    name: "2324"
    op_type: "Clip"
  }
  node {
    input: "1942"
    output: "2056"
    name: "2033"
    op_type: "Unsqueeze"
    attribute {
      name: "axes"
      ints: 1
      type: INTS
    }
  }
  node {
    input: "1967"
    input: "1942"
    output: "1968"
    name: "1945"
    op_type: "Mul"
  }
  node {
    input: "1959"
    output: "2064"
    name: "2041"
    op_type: "Unsqueeze"
    attribute {
      name: "axes"
      ints: 1
      type: INTS
    }
  }
  node {
    input: "1977"
    input: "1959"
    output: "1978"
    name: "1955"
    op_type: "Mul"
  }
  node {
    input: "2020"
    output: "2050"
    name: "2027"
    op_type: "Exp"
  }
  node {
    input: "2021"
    output: "2058"
    name: "2035"
    op_type: "Exp"
  }
  node {
    input: "477"
    input: "478"
    output: "479"
    name: "478"
    op_type: "Concat"
    attribute {
      name: "axis"
      i: 0
      type: INT
    }
  }
  node {
    input: "610"
    output: "612"
    name: "611"
    op_type: "NonZero"
  }
  node {
    input: "627"
    output: "629"
    name: "628"
    op_type: "NonZero"
  }
  node {
    input: "502_quantized"
    input: "1222"
    output: "1223_QuantizeInput_quantized"
    name: "1215_quant"
    op_type: "Reshape"
  }
  node {
    input: "501_quantized"
    input: "1199"
    output: "1200_QuantizeInput_quantized"
    name: "1192_quant"
    op_type: "Reshape"
  }
  node {
    input: "723"
    input: "724"
    output: "725"
    name: "724"
    op_type: "Add"
  }
  node {
    input: "1571"
    output: "1572"
    name: "1557"
    op_type: "ReduceMin"
    attribute {
      name: "keepdims"
      i: 0
      type: INT
    }
  }
  node {
    input: "2275"
    output: "2389"
    name: "2359"
    op_type: "Unsqueeze"
    attribute {
      name: "axes"
      ints: 1
      type: INTS
    }
  }
  node {
    input: "2300"
    input: "2275"
    output: "2301"
    name: "2271"
    op_type: "Mul"
  }
  node {
    input: "2292"
    output: "2397"
    name: "2367"
    op_type: "Unsqueeze"
    attribute {
      name: "axes"
      ints: 1
      type: INTS
    }
  }
  node {
    input: "2310"
    input: "2292"
    output: "2311"
    name: "2281"
    op_type: "Mul"
  }
  node {
    input: "2353"
    output: "2383"
    name: "2353"
    op_type: "Exp"
  }
  node {
    input: "2354"
    output: "2391"
    name: "2361"
    op_type: "Exp"
  }
  node {
    input: "2050"
    input: "2056"
    output: "2057"
    name: "2034"
    op_type: "Mul"
  }
  node {
    input: "1989"
    input: "2056"
    output: "2028"
    name: "2005"
    op_type: "Mul"
  }
  node {
    input: "1966"
    input: "1968"
    output: "1969"
    name: "1946"
    op_type: "Add"
  }
  node {
    input: "2058"
    input: "2064"
    output: "2065"
    name: "2042"
    op_type: "Mul"
  }
  node {
    input: "1999"
    input: "2064"
    output: "2042"
    name: "2019"
    op_type: "Mul"
  }
  node {
    input: "1976"
    input: "1978"
    output: "1979"
    name: "1956"
    op_type: "Add"
  }
  node {
    input: "452_quantized"
    input: "6892"
    input: "479"
    output: "480_QuantizeInput_quantized"
    name: "479_quant"
    op_type: "Resize"
    attribute {
      name: "extrapolation_value"
      f: 0.0
      type: FLOAT
    }
    attribute {
      name: "cubic_coeff_a"
      f: -0.75
      type: FLOAT
    }
    attribute {
      name: "exclude_outside"
      i: 0
      type: INT
    }
    attribute {
      name: "mode"
      s: "nearest"
      type: STRING
    }
    attribute {
      name: "coordinate_transformation_mode"
      s: "half_pixel"
      type: STRING
    }
    attribute {
      name: "nearest_mode"
      s: "round_prefer_floor"
      type: STRING
    }
  }
  node {
    input: "612"
    output: "613"
    name: "612"
    op_type: "Transpose"
    attribute {
      name: "perm"
      ints: 1
      ints: 0
      type: INTS
    }
  }
  node {
    input: "629"
    output: "630"
    name: "629"
    op_type: "Transpose"
    attribute {
      name: "perm"
      ints: 1
      ints: 0
      type: INTS
    }
  }
  node {
    input: "1223_QuantizeInput_quantized"
    output: "1224_QuantizeInput_quantized"
    name: "1216_quant"
    op_type: "Transpose"
    attribute {
      name: "perm"
      ints: 0
      ints: 3
      ints: 4
      ints: 1
      ints: 2
      type: INTS
    }
  }
  node {
    input: "1200_QuantizeInput_quantized"
    output: "1201_QuantizeInput_quantized"
    name: "1193_quant"
    op_type: "Transpose"
    attribute {
      name: "perm"
      ints: 0
      ints: 3
      ints: 4
      ints: 1
      ints: 2
      type: INTS
    }
  }
  node {
    input: "725"
    input: "726"
    output: "727"
    name: "726"
    op_type: "Reshape"
  }
  node {
    input: "1572"
    output: "1573"
    name: "1558"
    op_type: "Cast"
    attribute {
      name: "to"
      i: 7
      type: INT
    }
  }
  node {
    input: "2383"
    input: "2389"
    output: "2390"
    name: "2360"
    op_type: "Mul"
  }
  node {
    input: "2322"
    input: "2389"
    output: "2361"
    name: "2331"
    op_type: "Mul"
  }
  node {
    input: "2299"
    input: "2301"
    output: "2302"
    name: "2272"
    op_type: "Add"
  }
  node {
    input: "2391"
    input: "2397"
    output: "2398"
    name: "2368"
    op_type: "Mul"
  }
  node {
    input: "2332"
    input: "2397"
    output: "2375"
    name: "2345"
    op_type: "Mul"
  }
  node {
    input: "2309"
    input: "2311"
    output: "2312"
    name: "2282"
    op_type: "Add"
  }
  node {
    input: "2057"
    input: "2066"
    output: "2067"
    name: "2044"
    op_type: "Mul"
  }
  node {
    input: "2057"
    input: "2072"
    output: "2073"
    name: "2050"
    op_type: "Mul"
  }
  node {
    input: "1969"
    output: "2034"
    name: "2011"
    op_type: "Unsqueeze"
    attribute {
      name: "axes"
      ints: 1
      type: INTS
    }
  }
  node {
    input: "2065"
    input: "2069"
    output: "2070"
    name: "2047"
    op_type: "Mul"
  }
  node {
    input: "2065"
    input: "2077"
    output: "2078"
    name: "2055"
    op_type: "Mul"
  }
  node {
    input: "1979"
    output: "2048"
    name: "2025"
    op_type: "Unsqueeze"
    attribute {
      name: "axes"
      ints: 1
      type: INTS
    }
  }
  node {
    input: "483_quantized"
    input: "483_scale"
    input: "483_zero_point"
    input: "480_QuantizeInput_quantized"
    input: "452_scale"
    input: "452_zero_point"
    input: "484_scale"
    input: "484_zero_point"
    output: "484_quantized"
    name: "483_quant"
    op_type: "QLinearAdd"
    domain: "com.microsoft"
  }
  node {
    input: "613"
    input: "617"
    output: "618"
    name: "617"
    op_type: "Reshape"
  }
  node {
    input: "630"
    input: "634"
    output: "635"
    name: "634"
    op_type: "Reshape"
  }
  node {
    input: "1224_QuantizeInput_quantized"
    input: "1230"
    output: "1231_QuantizeInput_quantized"
    name: "1223_quant"
    op_type: "Reshape"
  }
  node {
    input: "1201_QuantizeInput_quantized"
    input: "1207"
    output: "1208_QuantizeInput_quantized"
    name: "1200_quant"
    op_type: "Reshape"
  }
  node {
    input: "727"
    output: "1579"
    name: "1563"
    op_type: "Concat"
    attribute {
      name: "axis"
      i: 0
      type: INT
    }
  }
  node {
    input: "1573"
    output: "1574"
    name: "1559"
    op_type: "Unsqueeze"
    attribute {
      name: "axes"
      ints: 0
      type: INTS
    }
  }
  node {
    input: "2390"
    input: "2399"
    output: "2400"
    name: "2370"
    op_type: "Mul"
  }
  node {
    input: "2390"
    input: "2405"
    output: "2406"
    name: "2376"
    op_type: "Mul"
  }
  node {
    input: "2302"
    output: "2367"
    name: "2337"
    op_type: "Unsqueeze"
    attribute {
      name: "axes"
      ints: 1
      type: INTS
    }
  }
  node {
    input: "2398"
    input: "2402"
    output: "2403"
    name: "2373"
    op_type: "Mul"
  }
  node {
    input: "2398"
    input: "2410"
    output: "2411"
    name: "2381"
    op_type: "Mul"
  }
  node {
    input: "2312"
    output: "2381"
    name: "2351"
    op_type: "Unsqueeze"
    attribute {
      name: "axes"
      ints: 1
      type: INTS
    }
  }
  node {
    input: "2028"
    input: "2034"
    output: "2035"
    name: "2012"
    op_type: "Add"
  }
  node {
    input: "2042"
    input: "2048"
    output: "2049"
    name: "2026"
    op_type: "Add"
  }
  node {
    input: "484_quantized"
    input: "484_scale"
    input: "484_zero_point"
    input: "485_quantized"
    input: "485_scale"
    input: "485_zero_point"
    input: "487_scale"
    input: "487_zero_point"
    input: "486_quantized"
    output: "487_quantized"
    name: "486_quant"
    op_type: "QLinearConv"
    attribute {
      name: "auto_pad"
      s: "NOTSET"
      type: STRING
    }
    attribute {
      name: "dilations"
      ints: 1
      ints: 1
      type: INTS
    }
    attribute {
      name: "group"
      i: 1
      type: INT
    }
    attribute {
      name: "kernel_shape"
      ints: 3
      ints: 3
      type: INTS
    }
    attribute {
      name: "pads"
      ints: 1
      ints: 1
      ints: 1
      ints: 1
      type: INTS
    }
    attribute {
      name: "strides"
      ints: 1
      ints: 1
      type: INTS
    }
  }
  node {
    input: "618"
    output: "619"
    name: "618"
    op_type: "Cast"
    attribute {
      name: "to"
      i: 1
      type: INT
    }
  }
  node {
    input: "635"
    output: "636"
    name: "635"
    op_type: "Cast"
    attribute {
      name: "to"
      i: 1
      type: INT
    }
  }
  node {
    input: "1208_QuantizeInput_quantized"
    input: "1212"
    output: "1213_QuantizeInput_quantized"
    name: "1205_quant"
    op_type: "Reshape"
  }
  node {
    input: "1579"
    input: "1585"
    output: "1586"
    name: "1570"
    op_type: "Reshape"
  }
  node {
    input: "1547"
    input: "1574"
    output: "1575"
    output: "1576"
    name: "1560"
    op_type: "TopK"
    attribute {
      name: "axis"
      i: 1
      type: INT
    }
    attribute {
      name: "largest"
      i: 1
      type: INT
    }
    attribute {
      name: "sorted"
      i: 1
      type: INT
    }
  }
  node {
    input: "2361"
    input: "2367"
    output: "2368"
    name: "2338"
    op_type: "Add"
  }
  node {
    input: "2375"
    input: "2381"
    output: "2382"
    name: "2352"
    op_type: "Add"
  }
  node {
    input: "2035"
    input: "2067"
    output: "2068"
    name: "2045"
    op_type: "Sub"
  }
  node {
    input: "2035"
    input: "2073"
    output: "2074"
    name: "2051"
    op_type: "Add"
  }
  node {
    input: "2049"
    input: "2070"
    output: "2071"
    name: "2048"
    op_type: "Sub"
  }
  node {
    input: "2049"
    input: "2078"
    output: "2079"
    name: "2056"
    op_type: "Add"
  }
  node {
    input: "487_quantized"
    input: "487_scale"
    input: "487_zero_point"
    output: "487"
    name: "487_486_DequantizeLinear"
    op_type: "DequantizeLinear"
  }
  node {
    input: "487_quantized"
    input: "487_scale"
    input: "487_zero_point"
    input: "489_quantized"
    input: "489_scale"
    input: "489_zero_point"
    input: "491_scale"
    input: "491_zero_point"
    input: "490_quantized"
    output: "491_quantized"
    name: "490_quant"
    op_type: "QLinearConv"
    attribute {
      name: "auto_pad"
      s: "NOTSET"
      type: STRING
    }
    attribute {
      name: "dilations"
      ints: 1
      ints: 1
      type: INTS
    }
    attribute {
      name: "group"
      i: 1
      type: INT
    }
    attribute {
      name: "kernel_shape"
      ints: 3
      ints: 3
      type: INTS
    }
    attribute {
      name: "pads"
      ints: 1
      ints: 1
      ints: 1
      ints: 1
      type: INTS
    }
    attribute {
      name: "strides"
      ints: 1
      ints: 1
      type: INTS
    }
  }
  node {
    input: "619"
    input: "620"
    output: "621"
    name: "620"
    op_type: "Gather"
    attribute {
      name: "axis"
      i: 1
      type: INT
    }
  }
  node {
    input: "636"
    input: "637"
    output: "638"
    name: "637"
    op_type: "Gather"
    attribute {
      name: "axis"
      i: 1
      type: INT
    }
  }
  node {
    input: "1213_QuantizeInput_quantized"
    input: "501_scale"
    input: "501_zero_point"
    input: "1214_scale"
    input: "1214_zero_point"
    output: "1214_quantized"
    name: "1206_quant"
    op_type: "QLinearSigmoid"
    domain: "com.microsoft"
  }
  node {
    input: "1575"
    input: "1765"
    output: "1766"
    name: "1750"
    op_type: "Gather"
    attribute {
      name: "axis"
      i: 0
      type: INT
    }
  }
  node {
    input: "1576"
    output: "1577"
    name: "1561"
    op_type: "Squeeze"
    attribute {
      name: "axes"
      ints: 0
      type: INTS
    }
  }
  node {
    input: "2368"
    input: "2400"
    output: "2401"
    name: "2371"
    op_type: "Sub"
  }
  node {
    input: "2368"
    input: "2406"
    output: "2407"
    name: "2377"
    op_type: "Add"
  }
  node {
    input: "2382"
    input: "2403"
    output: "2404"
    name: "2374"
    op_type: "Sub"
  }
  node {
    input: "2382"
    input: "2411"
    output: "2412"
    name: "2382"
    op_type: "Add"
  }
  node {
    input: "2068"
    output: "2082"
    name: "2059"
    op_type: "Unsqueeze"
    attribute {
      name: "axes"
      ints: 2
      type: INTS
    }
  }
  node {
    input: "2074"
    input: "2075"
    output: "2076"
    name: "2053"
    op_type: "Sub"
  }
  node {
    input: "2071"
    output: "2083"
    name: "2060"
    op_type: "Unsqueeze"
    attribute {
      name: "axes"
      ints: 2
      type: INTS
    }
  }
  node {
    input: "2079"
    input: "2080"
    output: "2081"
    name: "2058"
    op_type: "Sub"
  }
  node {
    input: "487"
    output: "519"
    name: "518"
    op_type: "Shape"
  }
  node {
    input: "491_quantized"
    input: "491_scale"
    input: "491_zero_point"
    input: "496_quantized"
    input: "496_scale"
    input: "496_zero_point"
    input: "498_scale"
    input: "498_zero_point"
    input: "497_quantized"
    output: "498_quantized"
    name: "497_quant"
    op_type: "QLinearConv"
    attribute {
      name: "auto_pad"
      s: "NOTSET"
      type: STRING
    }
    attribute {
      name: "dilations"
      ints: 1
      ints: 1
      type: INTS
    }
    attribute {
      name: "group"
      i: 1
      type: INT
    }
    attribute {
      name: "kernel_shape"
      ints: 1
      ints: 1
      type: INTS
    }
    attribute {
      name: "pads"
      ints: 0
      ints: 0
      ints: 0
      ints: 0
      type: INTS
    }
    attribute {
      name: "strides"
      ints: 1
      ints: 1
      type: INTS
    }
  }
  node {
    input: "491_quantized"
    input: "491_scale"
    input: "491_zero_point"
    input: "493_quantized"
    input: "493_scale"
    input: "493_zero_point"
    input: "495_scale"
    input: "495_zero_point"
    input: "494_quantized"
    output: "495_quantized"
    name: "494_quant"
    op_type: "QLinearConv"
    attribute {
      name: "auto_pad"
      s: "NOTSET"
      type: STRING
    }
    attribute {
      name: "dilations"
      ints: 1
      ints: 1
      type: INTS
    }
    attribute {
      name: "group"
      i: 1
      type: INT
    }
    attribute {
      name: "kernel_shape"
      ints: 1
      ints: 1
      type: INTS
    }
    attribute {
      name: "pads"
      ints: 0
      ints: 0
      ints: 0
      ints: 0
      type: INTS
    }
    attribute {
      name: "strides"
      ints: 1
      ints: 1
      type: INTS
    }
  }
  node {
    input: "621"
    input: "646"
    output: "647"
    name: "646"
    op_type: "Reshape"
  }
  node {
    input: "638"
    input: "640"
    output: "641"
    name: "640"
    op_type: "Reshape"
  }
  node {
    input: "1214_quantized"
    input: "1214_scale"
    input: "1214_zero_point"
    output: "1214"
    name: "1214_1206_DequantizeLinear"
    op_type: "DequantizeLinear"
  }
  node {
    input: "1586"
    input: "1577"
    output: "1587"
    name: "1571"
    op_type: "Gather"
    attribute {
      name: "axis"
      i: 1
      type: INT
    }
  }
  node {
    input: "1564_QuantizeInput_quantized"
    input: "1577"
    output: "1578_QuantizeInput_quantized"
    name: "1562_quant"
    op_type: "Gather"
    attribute {
      name: "axis"
      i: 1
      type: INT
    }
  }
  node {
    input: "2401"
    output: "2415"
    name: "2385"
    op_type: "Unsqueeze"
    attribute {
      name: "axes"
      ints: 2
      type: INTS
    }
  }
  node {
    input: "2407"
    input: "2408"
    output: "2409"
    name: "2379"
    op_type: "Sub"
  }
  node {
    input: "2404"
    output: "2416"
    name: "2386"
    op_type: "Unsqueeze"
    attribute {
      name: "axes"
      ints: 2
      type: INTS
    }
  }
  node {
    input: "2412"
    input: "2413"
    output: "2414"
    name: "2384"
    op_type: "Sub"
  }
  node {
    input: "2076"
    output: "2084"
    name: "2061"
    op_type: "Unsqueeze"
    attribute {
      name: "axes"
      ints: 2
      type: INTS
    }
  }
  node {
    input: "2081"
    output: "2085"
    name: "2062"
    op_type: "Unsqueeze"
    attribute {
      name: "axes"
      ints: 2
      type: INTS
    }
  }
  node {
    input: "519"
    input: "518"
    output: "520"
    name: "519"
    op_type: "Gather"
    attribute {
      name: "axis"
      i: 0
      type: INT
    }
  }
  node {
    input: "519"
    input: "515"
    output: "517"
    name: "516"
    op_type: "Gather"
    attribute {
      name: "axis"
      i: 0
      type: INT
    }
  }
  node {
    input: "495_quantized"
    input: "495_scale"
    input: "495_zero_point"
    output: "495"
    name: "495_494_DequantizeLinear"
    op_type: "DequantizeLinear"
  }
  node {
    input: "647"
    input: "650"
    output: "651"
    name: "650"
    op_type: "Expand"
  }
  node {
    input: "641"
    input: "650"
    output: "645"
    name: "644"
    op_type: "Expand"
  }
  node {
    input: "1214"
    output: "1232"
    name: "1224"
    op_type: "Shape"
  }
  node {
    input: "1587"
    input: "1590"
    output: "1591"
    name: "1575"
    op_type: "Reshape"
  }
  node {
    input: "1578_QuantizeInput_quantized"
    input: "1588"
    output: "1589_QuantizeInput_quantized"
    name: "1573_quant"
    op_type: "Reshape"
  }
  node {
    input: "2409"
    output: "2417"
    name: "2387"
    op_type: "Unsqueeze"
    attribute {
      name: "axes"
      ints: 2
      type: INTS
    }
  }
  node {
    input: "2414"
    output: "2418"
    name: "2388"
    op_type: "Unsqueeze"
    attribute {
      name: "axes"
      ints: 2
      type: INTS
    }
  }
  node {
    input: "2082"
    input: "2083"
    input: "2084"
    input: "2085"
    output: "2086"
    name: "2063"
    op_type: "Concat"
    attribute {
      name: "axis"
      i: 2
      type: INT
    }
  }
  node {
    input: "520"
    input: "545"
    output: "546"
    name: "545"
    op_type: "Mul"
  }
  node {
    input: "520"
    output: "554"
    name: "553"
    op_type: "Unsqueeze"
    attribute {
      name: "axes"
      ints: 0
      type: INTS
    }
  }
  node {
    input: "517"
    output: "587"
    name: "586"
    op_type: "Unsqueeze"
    attribute {
      name: "axes"
      ints: 0
      type: INTS
    }
  }
  node {
    input: "517"
    input: "562"
    output: "563"
    name: "562"
    op_type: "Mul"
  }
  node {
    input: "495"
    output: "851"
    name: "850"
    op_type: "Shape"
  }
  node {
    input: "651"
    input: "652"
    output: "653"
    name: "652"
    op_type: "Reshape"
  }
  node {
    input: "645"
    input: "654"
    output: "655"
    name: "654"
    op_type: "Reshape"
  }
  node {
    input: "1232"
    input: "1233"
    output: "1234"
    name: "1226"
    op_type: "Gather"
    attribute {
      name: "axis"
      i: 0
      type: INT
    }
  }
  node {
    input: "1591"
    input: "1598"
    output: "1599"
    name: "1583"
    op_type: "Gather"
    attribute {
      name: "axis"
      i: 1
      type: INT
    }
  }
  node {
    input: "1591"
    input: "1605"
    output: "1606"
    name: "1590"
    op_type: "Gather"
    attribute {
      name: "axis"
      i: 1
      type: INT
    }
  }
  node {
    input: "1591"
    input: "1632"
    output: "1633"
    name: "1617"
    op_type: "Gather"
    attribute {
      name: "axis"
      i: 1
      type: INT
    }
  }
  node {
    input: "1591"
    input: "1615"
    output: "1616"
    name: "1600"
    op_type: "Gather"
    attribute {
      name: "axis"
      i: 1
      type: INT
    }
  }
  node {
    input: "1591"
    input: "1622"
    output: "1623"
    name: "1607"
    op_type: "Gather"
    attribute {
      name: "axis"
      i: 1
      type: INT
    }
  }
  node {
    input: "1591"
    input: "1642"
    output: "1643"
    name: "1627"
    op_type: "Gather"
    attribute {
      name: "axis"
      i: 1
      type: INT
    }
  }
  node {
    input: "1589_QuantizeInput_quantized"
    input: "1578_scale"
    input: "1578_zero_point"
    output: "1589"
    name: "1589_1573_DequantizeLinear"
    op_type: "DequantizeLinear"
  }
  node {
    input: "2415"
    input: "2416"
    input: "2417"
    input: "2418"
    output: "2419"
    name: "2389"
    op_type: "Concat"
    attribute {
      name: "axis"
      i: 2
      type: INT
    }
  }
  node {
    input: "2086"
    input: "2087"
    output: "2088"
    name: "2065"
    op_type: "Reshape"
  }
  node {
    input: "546"
    output: "547"
    name: "546"
    op_type: "Unsqueeze"
    attribute {
      name: "axes"
      ints: 0
      type: INTS
    }
  }
  node {
    input: "587"
    input: "554"
    output: "589"
    name: "588"
    op_type: "Concat"
    attribute {
      name: "axis"
      i: 0
      type: INT
    }
  }
  node {
    input: "563"
    output: "564"
    name: "563"
    op_type: "Unsqueeze"
    attribute {
      name: "axes"
      ints: 0
      type: INTS
    }
  }
  node {
    input: "851"
    input: "850"
    output: "852"
    name: "851"
    op_type: "Gather"
    attribute {
      name: "axis"
      i: 0
      type: INT
    }
  }
  node {
    input: "851"
    input: "853"
    output: "855"
    name: "854"
    op_type: "Gather"
    attribute {
      name: "axis"
      i: 0
      type: INT
    }
  }
  node {
    input: "851"
    input: "856"
    output: "858"
    name: "857"
    op_type: "Gather"
    attribute {
      name: "axis"
      i: 0
      type: INT
    }
  }
  node {
    input: "653"
    output: "656"
    name: "655"
    op_type: "Unsqueeze"
    attribute {
      name: "axes"
      ints: 1
      type: INTS
    }
  }
  node {
    input: "655"
    output: "657"
    name: "656"
    op_type: "Unsqueeze"
    attribute {
      name: "axes"
      ints: 1
      type: INTS
    }
  }
  node {
…
    name: "4441"
    type {
      tensor_type {
        elem_type: 7
        shape {
          dim {
          }
        }
      }
    }
  }
  value_info {
    name: "4485"
    type {
      tensor_type {
        elem_type: 7
        shape {
          dim {
          }
        }
      }
    }
  }
  value_info {
    name: "4529"
    type {
      tensor_type {
        elem_type: 7
        shape {
          dim {
          }
        }
      }
    }
  }
  value_info {
    name: "4573"
    type {
      tensor_type {
        elem_type: 7
        shape {
          dim {
          }
        }
      }
    }
  }
  value_info {
    name: "4617"
    type {
      tensor_type {
        elem_type: 7
        shape {
          dim {
          }
        }
      }
    }
  }
  value_info {
    name: "4661"
    type {
      tensor_type {
        elem_type: 7
        shape {
          dim {
          }
        }
      }
    }
  }
  value_info {
    name: "4705"
    type {
      tensor_type {
        elem_type: 7
        shape {
          dim {
          }
        }
      }
    }
  }
  value_info {
    name: "4749"
    type {
      tensor_type {
        elem_type: 7
        shape {
          dim {
          }
        }
      }
    }
  }
  value_info {
    name: "4793"
    type {
      tensor_type {
        elem_type: 7
        shape {
          dim {
          }
        }
      }
    }
  }
  value_info {
    name: "4837"
    type {
      tensor_type {
        elem_type: 7
        shape {
          dim {
          }
        }
      }
    }
  }
  value_info {
    name: "4881"
    type {
      tensor_type {
        elem_type: 7
        shape {
          dim {
          }
        }
      }
    }
  }
  value_info {
    name: "4925"
    type {
      tensor_type {
        elem_type: 7
        shape {
          dim {
          }
        }
      }
    }
  }
  value_info {
    name: "4969"
    type {
      tensor_type {
        elem_type: 7
        shape {
          dim {
          }
        }
      }
    }
  }
  value_info {
    name: "5013"
    type {
      tensor_type {
        elem_type: 7
        shape {
          dim {
          }
        }
      }
    }
  }
  value_info {
    name: "5057"
    type {
      tensor_type {
        elem_type: 7
        shape {
          dim {
          }
        }
      }
    }
  }
  value_info {
    name: "5101"
    type {
      tensor_type {
        elem_type: 7
        shape {
          dim {
          }
        }
      }
    }
  }
  value_info {
    name: "5145"
    type {
      tensor_type {
        elem_type: 7
        shape {
          dim {
          }
        }
      }
    }
  }
  value_info {
    name: "5189"
    type {
      tensor_type {
        elem_type: 7
        shape {
          dim {
          }
        }
      }
    }
  }
  value_info {
    name: "5233"
    type {
      tensor_type {
        elem_type: 7
        shape {
          dim {
          }
        }
      }
    }
  }
  value_info {
    name: "5277"
    type {
      tensor_type {
        elem_type: 7
        shape {
          dim {
          }
        }
      }
    }
  }
  value_info {
    name: "5321"
    type {
      tensor_type {
        elem_type: 7
        shape {
          dim {
          }
        }
      }
    }
  }
  value_info {
    name: "5365"
    type {
      tensor_type {
        elem_type: 7
        shape {
          dim {
          }
        }
      }
    }
  }
  value_info {
    name: "5409"
    type {
      tensor_type {
        elem_type: 7
        shape {
          dim {
          }
        }
      }
    }
  }
  value_info {
    name: "5453"
    type {
      tensor_type {
        elem_type: 7
        shape {
          dim {
          }
        }
      }
    }
  }
  value_info {
    name: "5497"
    type {
      tensor_type {
        elem_type: 7
        shape {
          dim {
          }
        }
      }
    }
  }
  value_info {
    name: "5541"
    type {
      tensor_type {
        elem_type: 7
        shape {
          dim {
          }
        }
      }
    }
  }
  value_info {
    name: "5585"
    type {
      tensor_type {
        elem_type: 7
        shape {
          dim {
          }
        }
      }
    }
  }
  value_info {
    name: "5629"
    type {
      tensor_type {
        elem_type: 7
        shape {
          dim {
          }
        }
      }
    }
  }
  value_info {
    name: "5673"
    type {
      tensor_type {
        elem_type: 7
        shape {
          dim {
          }
        }
      }
    }
  }
  value_info {
    name: "5717"
    type {
      tensor_type {
        elem_type: 7
        shape {
          dim {
          }
        }
      }
    }
  }
  value_info {
    name: "5761"
    type {
      tensor_type {
        elem_type: 7
        shape {
          dim {
          }
        }
      }
    }
  }
  value_info {
    name: "5805"
    type {
      tensor_type {
        elem_type: 7
        shape {
          dim {
          }
        }
      }
    }
  }
  value_info {
    name: "5849"
    type {
      tensor_type {
        elem_type: 7
        shape {
          dim {
          }
        }
      }
    }
  }
  value_info {
    name: "5893"
    type {
      tensor_type {
        elem_type: 7
        shape {
          dim {
          }
        }
      }
    }
  }
  value_info {
    name: "5937"
    type {
      tensor_type {
        elem_type: 7
        shape {
          dim {
          }
        }
      }
    }
  }
  value_info {
    name: "5981"
    type {
      tensor_type {
        elem_type: 7
        shape {
          dim {
          }
        }
      }
    }
  }
  value_info {
    name: "6025"
    type {
      tensor_type {
        elem_type: 7
        shape {
          dim {
          }
        }
      }
    }
  }
  value_info {
    name: "6069"
    type {
      tensor_type {
        elem_type: 7
        shape {
          dim {
          }
        }
      }
    }
  }
  value_info {
    name: "6113"
    type {
      tensor_type {
        elem_type: 7
        shape {
          dim {
          }
        }
      }
    }
  }
  value_info {
    name: "6157"
    type {
      tensor_type {
        elem_type: 7
        shape {
          dim {
          }
        }
      }
    }
  }
  value_info {
    name: "6201"
    type {
      tensor_type {
        elem_type: 7
        shape {
          dim {
          }
        }
      }
    }
  }
  value_info {
    name: "6245"
    type {
      tensor_type {
        elem_type: 7
        shape {
          dim {
          }
        }
      }
    }
  }
  value_info {
    name: "6289"
    type {
      tensor_type {
        elem_type: 7
        shape {
          dim {
          }
        }
      }
    }
  }
  value_info {
    name: "6333"
    type {
      tensor_type {
        elem_type: 7
        shape {
          dim {
          }
        }
      }
    }
  }
  value_info {
    name: "6377"
    type {
      tensor_type {
        elem_type: 7
        shape {
          dim {
          }
        }
      }
    }
  }
  value_info {
    name: "6421"
    type {
      tensor_type {
        elem_type: 7
        shape {
          dim {
          }
        }
      }
    }
  }
  value_info {
    name: "6465"
    type {
      tensor_type {
        elem_type: 7
        shape {
          dim {
          }
        }
      }
    }
  }
  value_info {
    name: "6509"
    type {
      tensor_type {
        elem_type: 7
        shape {
          dim {
          }
        }
      }
    }
  }
  value_info {
    name: "6553"
    type {
      tensor_type {
        elem_type: 7
        shape {
          dim {
          }
        }
      }
    }
  }
  value_info {
    name: "6560"
    type {
      tensor_type {
        elem_type: 7
        shape {
          dim {
          }
        }
      }
    }
  }
  value_info {
    name: "3078"
    type {
      tensor_type {
        elem_type: 7
      }
    }
  }
  value_info {
    name: "3122"
    type {
      tensor_type {
        elem_type: 7
      }
    }
  }
  value_info {
    name: "3166"
    type {
      tensor_type {
        elem_type: 7
      }
    }
  }
  value_info {
    name: "3210"
    type {
      tensor_type {
        elem_type: 7
      }
    }
  }
  value_info {
    name: "3254"
    type {
      tensor_type {
        elem_type: 7
      }
    }
  }
  value_info {
    name: "3298"
    type {
      tensor_type {
        elem_type: 7
      }
    }
  }
  value_info {
    name: "3342"
    type {
      tensor_type {
        elem_type: 7
      }
    }
  }
  value_info {
    name: "3386"
    type {
      tensor_type {
        elem_type: 7
      }
    }
  }
  value_info {
    name: "3430"
    type {
      tensor_type {
        elem_type: 7
      }
    }
  }
  value_info {
    name: "3474"
    type {
      tensor_type {
        elem_type: 7
      }
    }
  }
  value_info {
    name: "3518"
    type {
      tensor_type {
        elem_type: 7
      }
    }
  }
  value_info {
    name: "3562"
    type {
      tensor_type {
        elem_type: 7
      }
    }
  }
  value_info {
    name: "3606"
    type {
      tensor_type {
        elem_type: 7
      }
    }
  }
  value_info {
    name: "3650"
    type {
      tensor_type {
        elem_type: 7
      }
    }
  }
  value_info {
    name: "3694"
    type {
      tensor_type {
        elem_type: 7
      }
    }
  }
  value_info {
    name: "3738"
    type {
      tensor_type {
        elem_type: 7
      }
    }
  }
  value_info {
    name: "3782"
    type {
      tensor_type {
        elem_type: 7
      }
    }
  }
  value_info {
    name: "3826"
    type {
      tensor_type {
        elem_type: 7
      }
    }
  }
  value_info {
    name: "3870"
    type {
      tensor_type {
        elem_type: 7
      }
    }
  }
  value_info {
    name: "3914"
    type {
      tensor_type {
        elem_type: 7
      }
    }
  }
  value_info {
    name: "3958"
    type {
      tensor_type {
        elem_type: 7
      }
    }
  }
  value_info {
    name: "4002"
    type {
      tensor_type {
        elem_type: 7
      }
    }
  }
  value_info {
    name: "4046"
    type {
      tensor_type {
        elem_type: 7
      }
    }
  }
  value_info {
    name: "4090"
    type {
      tensor_type {
        elem_type: 7
      }
    }
  }
  value_info {
    name: "4134"
    type {
      tensor_type {
        elem_type: 7
      }
    }
  }
  value_info {
    name: "4178"
    type {
      tensor_type {
        elem_type: 7
      }
    }
  }
  value_info {
    name: "4222"
    type {
      tensor_type {
        elem_type: 7
      }
    }
  }
  value_info {
    name: "4266"
    type {
      tensor_type {
        elem_type: 7
      }
    }
  }
  value_info {
    name: "4310"
    type {
      tensor_type {
        elem_type: 7
      }
    }
  }
  value_info {
    name: "4354"
    type {
      tensor_type {
        elem_type: 7
      }
    }
  }
  value_info {
    name: "4398"
    type {
      tensor_type {
        elem_type: 7
      }
    }
  }
  value_info {
    name: "4442"
    type {
      tensor_type {
        elem_type: 7
      }
    }
  }
  value_info {
    name: "4486"
    type {
      tensor_type {
        elem_type: 7
      }
    }
  }
  value_info {
    name: "4530"
    type {
      tensor_type {
        elem_type: 7
      }
    }
  }
  value_info {
    name: "4574"
    type {
      tensor_type {
        elem_type: 7
      }
    }
  }
  value_info {
    name: "4618"
    type {
      tensor_type {
        elem_type: 7
      }
    }
  }
  value_info {
    name: "4662"
    type {
      tensor_type {
        elem_type: 7
      }
    }
  }
  value_info {
    name: "4706"
    type {
      tensor_type {
        elem_type: 7
      }
    }
  }
  value_info {
    name: "4750"
    type {
      tensor_type {
        elem_type: 7
      }
    }
  }
  value_info {
    name: "4794"
    type {
      tensor_type {
        elem_type: 7
      }
    }
  }
  value_info {
    name: "4838"
    type {
      tensor_type {
        elem_type: 7
      }
    }
  }
  value_info {
    name: "4882"
    type {
      tensor_type {
        elem_type: 7
      }
    }
  }
  value_info {
    name: "4926"
    type {
      tensor_type {
        elem_type: 7
      }
    }
  }
  value_info {
    name: "4970"
    type {
      tensor_type {
        elem_type: 7
      }
    }
  }
  value_info {
    name: "5014"
    type {
      tensor_type {
        elem_type: 7
      }
    }
  }
  value_info {
    name: "5058"
    type {
      tensor_type {
        elem_type: 7
      }
    }
  }
  value_info {
    name: "5102"
    type {
      tensor_type {
        elem_type: 7
      }
    }
  }
  value_info {
    name: "5146"
    type {
      tensor_type {
        elem_type: 7
      }
    }
  }
  value_info {
    name: "5190"
    type {
      tensor_type {
        elem_type: 7
      }
    }
  }
  value_info {
    name: "5234"
    type {
      tensor_type {
        elem_type: 7
      }
    }
  }
  value_info {
    name: "5278"
    type {
      tensor_type {
        elem_type: 7
      }
    }
  }
  value_info {
    name: "5322"
    type {
      tensor_type {
        elem_type: 7
      }
    }
  }
  value_info {
    name: "5366"
    type {
      tensor_type {
        elem_type: 7
      }
    }
  }
  value_info {
    name: "5410"
    type {
      tensor_type {
        elem_type: 7
      }
    }
  }
  value_info {
    name: "5454"
    type {
      tensor_type {
        elem_type: 7
      }
    }
  }
  value_info {
    name: "5498"
    type {
      tensor_type {
        elem_type: 7
      }
    }
  }
  value_info {
    name: "5542"
    type {
      tensor_type {
        elem_type: 7
      }
    }
  }
  value_info {
    name: "5586"
    type {
      tensor_type {
        elem_type: 7
      }
    }
  }
  value_info {
    name: "5630"
    type {
      tensor_type {
        elem_type: 7
      }
    }
  }
  value_info {
    name: "5674"
    type {
      tensor_type {
        elem_type: 7
      }
    }
  }
  value_info {
    name: "5718"
    type {
      tensor_type {
        elem_type: 7
      }
    }
  }
  value_info {
    name: "5762"
    type {
      tensor_type {
        elem_type: 7
      }
    }
  }
  value_info {
    name: "5806"
    type {
      tensor_type {
        elem_type: 7
      }
    }
  }
  value_info {
    name: "5850"
    type {
      tensor_type {
        elem_type: 7
      }
    }
  }
  value_info {
    name: "5894"
    type {
      tensor_type {
        elem_type: 7
      }
    }
  }
  value_info {
    name: "5938"
    type {
      tensor_type {
        elem_type: 7
      }
    }
  }
  value_info {
    name: "5982"
    type {
      tensor_type {
        elem_type: 7
      }
    }
  }
  value_info {
    name: "6026"
    type {
      tensor_type {
        elem_type: 7
      }
    }
  }
  value_info {
    name: "6070"
    type {
      tensor_type {
        elem_type: 7
      }
    }
  }
  value_info {
    name: "6114"
    type {
      tensor_type {
        elem_type: 7
      }
    }
  }
  value_info {
    name: "6158"
    type {
      tensor_type {
        elem_type: 7
      }
    }
  }
  value_info {
    name: "6202"
    type {
      tensor_type {
        elem_type: 7
      }
    }
  }
  value_info {
    name: "6246"
    type {
      tensor_type {
        elem_type: 7
      }
    }
  }
  value_info {
    name: "6290"
    type {
      tensor_type {
        elem_type: 7
      }
    }
  }
  value_info {
    name: "6334"
    type {
      tensor_type {
        elem_type: 7
      }
    }
  }
  value_info {
    name: "6378"
    type {
      tensor_type {
        elem_type: 7
      }
    }
  }
  value_info {
    name: "6422"
    type {
      tensor_type {
        elem_type: 7
      }
    }
  }
  value_info {
    name: "6466"
    type {
      tensor_type {
        elem_type: 7
      }
    }
  }
  value_info {
    name: "6510"
    type {
      tensor_type {
        elem_type: 7
      }
    }
  }
  value_info {
    name: "6554"
    type {
      tensor_type {
        elem_type: 7
      }
    }
  }
  value_info {
    name: "6561"
    type {
      tensor_type {
        elem_type: 6
        shape {
          dim {
          }
        }
      }
    }
  }
  value_info {
    name: "6556"
    type {
      tensor_type {
        elem_type: 7
      }
    }
  }
  value_info {
    name: "6562"
    type {
      tensor_type {
        elem_type: 6
        shape {
        }
      }
    }
  }
  value_info {
    name: "6563"
    type {
      tensor_type {
        elem_type: 7
        shape {
        }
      }
    }
  }
  value_info {
    name: "6564"
    type {
      tensor_type {
        elem_type: 7
        shape {
          dim {
            dim_value: 1
          }
        }
      }
    }
  }
  value_info {
    name: "6565"
    type {
      tensor_type {
        elem_type: 1
      }
    }
  }
  value_info {
    name: "6566"
    type {
      tensor_type {
        elem_type: 7
      }
    }
  }
  value_info {
    name: "6592"
    type {
      tensor_type {
        elem_type: 1
        shape {
          dim {
            dim_param: "nbox"
          }
        }
      }
    }
  }
  value_info {
    name: "6599"
    type {
      tensor_type {
        elem_type: 1
        shape {
          dim {
            dim_param: "nbox"
          }
        }
      }
    }
  }
  value_info {
    name: "6609"
    type {
      tensor_type {
        elem_type: 1
        shape {
          dim {
            dim_param: "nbox"
          }
        }
      }
    }
  }
  value_info {
    name: "6616"
    type {
      tensor_type {
        elem_type: 1
        shape {
          dim {
            dim_param: "nbox"
          }
        }
      }
    }
  }
  value_info {
    name: "6582"
    type {
      tensor_type {
        elem_type: 1
        shape {
          dim {
            dim_param: "nbox"
          }
          dim {
            dim_value: 1
          }
        }
      }
    }
  }
  value_info {
    name: "6858"
    type {
      tensor_type {
        elem_type: 7
        shape {
          dim {
            dim_param: "nbox"
          }
        }
      }
    }
  }
  value_info {
    name: "6600"
    type {
      tensor_type {
        elem_type: 1
        shape {
          dim {
            dim_param: "nbox"
          }
        }
      }
    }
  }
  value_info {
    name: "6617"
    type {
      tensor_type {
        elem_type: 1
        shape {
          dim {
            dim_param: "nbox"
          }
        }
      }
    }
  }
  value_info {
    name: "6583"
    type {
      tensor_type {
        elem_type: 7
        shape {
          dim {
            dim_value: 2
          }
        }
      }
    }
  }
  value_info {
    name: "6602"
    type {
      tensor_type {
        elem_type: 1
        shape {
          dim {
            dim_param: "nbox"
          }
        }
      }
    }
  }
  value_info {
    name: "6619"
    type {
      tensor_type {
        elem_type: 1
        shape {
          dim {
            dim_param: "nbox"
          }
        }
      }
    }
  }
  value_info {
    name: "6584"
    type {
      tensor_type {
        elem_type: 1
        shape {
          dim {
          }
          dim {
          }
        }
      }
    }
  }
  value_info {
    name: "6620"
    type {
      tensor_type {
        elem_type: 1
        shape {
          dim {
            dim_param: "nbox"
          }
        }
      }
    }
  }
  value_info {
    name: "6585"
    type {
      tensor_type {
        elem_type: 1
        shape {
          dim {
            dim_param: "nbox"
          }
          dim {
          }
        }
      }
    }
  }
  value_info {
    name: "6621"
    type {
      tensor_type {
        elem_type: 1
        shape {
          dim {
            dim_param: "nbox"
          }
        }
      }
    }
  }
  value_info {
    name: "6624"
    type {
      tensor_type {
        elem_type: 1
        shape {
          dim {
            dim_param: "nbox"
          }
        }
      }
    }
  }
  value_info {
    name: "6625"
    type {
      tensor_type {
        elem_type: 1
        shape {
          dim {
            dim_param: "nbox"
          }
        }
      }
    }
  }
  value_info {
    name: "6626"
    type {
      tensor_type {
        elem_type: 1
        shape {
          dim {
            dim_param: "nbox"
          }
        }
      }
    }
  }
  value_info {
    name: "6628"
    type {
      tensor_type {
        elem_type: 1
        shape {
          dim {
            dim_param: "nbox"
          }
        }
      }
    }
  }
  value_info {
    name: "6630"
    type {
      tensor_type {
        elem_type: 1
        shape {
          dim {
            dim_param: "nbox"
          }
        }
      }
    }
  }
  value_info {
    name: "6631"
    type {
      tensor_type {
        elem_type: 1
        shape {
          dim {
            dim_param: "nbox"
          }
        }
      }
    }
  }
  value_info {
    name: "6632"
    type {
      tensor_type {
        elem_type: 1
        shape {
          dim {
            dim_param: "nbox"
          }
        }
      }
    }
  }
  value_info {
    name: "6633"
    type {
      tensor_type {
        elem_type: 7
        shape {
          dim {
            dim_param: "nbox"
          }
        }
      }
    }
  }
  value_info {
    name: "6635"
    type {
      tensor_type {
        elem_type: 7
        shape {
          dim {
            dim_param: "nbox"
          }
        }
      }
    }
  }
  value_info {
    name: "6807"
    type {
      tensor_type {
        elem_type: 9
        shape {
          dim {
            dim_param: "nbox"
          }
        }
      }
    }
  }
  value_info {
    name: "6688"
    type {
      tensor_type {
        elem_type: 9
        shape {
          dim {
            dim_param: "nbox"
          }
        }
      }
    }
  }
  value_info {
    name: "6779"
    type {
      tensor_type {
        elem_type: 9
        shape {
          dim {
            dim_param: "nbox"
          }
        }
      }
    }
  }
  value_info {
    name: "6671"
    type {
      tensor_type {
        elem_type: 9
        shape {
          dim {
            dim_param: "nbox"
          }
        }
      }
    }
  }
  value_info {
    name: "6751"
    type {
      tensor_type {
        elem_type: 9
        shape {
          dim {
            dim_param: "nbox"
          }
        }
      }
    }
  }
  value_info {
    name: "6654"
    type {
      tensor_type {
        elem_type: 9
        shape {
          dim {
            dim_param: "nbox"
          }
        }
      }
    }
  }
  value_info {
    name: "6705"
    type {
      tensor_type {
        elem_type: 7
        shape {
          dim {
            dim_value: 1
          }
        }
      }
    }
  }
  value_info {
    name: "6637"
    type {
      tensor_type {
        elem_type: 9
        shape {
          dim {
            dim_param: "nbox"
          }
        }
      }
    }
  }
  value_info {
    name: "6723"
    type {
      tensor_type {
        elem_type: 9
        shape {
          dim {
            dim_param: "nbox"
          }
        }
      }
    }
  }
  value_info {
    name: "6809"
    type {
      tensor_type {
        elem_type: 1
        shape {
          dim {
            dim_param: "nbox"
          }
        }
      }
    }
  }
  value_info {
    name: "6690"
    type {
      tensor_type {
        elem_type: 1
        shape {
          dim {
            dim_param: "nbox"
          }
        }
      }
    }
  }
  value_info {
    name: "6781"
    type {
      tensor_type {
        elem_type: 1
        shape {
          dim {
            dim_param: "nbox"
          }
        }
      }
    }
  }
  value_info {
    name: "6673"
    type {
      tensor_type {
        elem_type: 1
        shape {
          dim {
            dim_param: "nbox"
          }
        }
      }
    }
  }
  value_info {
    name: "6753"
    type {
      tensor_type {
        elem_type: 1
        shape {
          dim {
            dim_param: "nbox"
          }
        }
      }
    }
  }
  value_info {
    name: "6656"
    type {
      tensor_type {
        elem_type: 1
        shape {
          dim {
            dim_param: "nbox"
          }
        }
      }
    }
  }
  value_info {
    name: "6706"
    type {
      tensor_type {
        elem_type: 7
        shape {
        }
      }
    }
  }
  value_info {
    name: "6639"
    type {
      tensor_type {
        elem_type: 1
        shape {
          dim {
            dim_param: "nbox"
          }
        }
      }
    }
  }
  value_info {
    name: "6725"
    type {
      tensor_type {
        elem_type: 1
        shape {
          dim {
            dim_param: "nbox"
          }
        }
      }
    }
  }
  value_info {
    name: "6810"
    type {
      tensor_type {
        elem_type: 7
        shape {
          dim {
            dim_value: 1
          }
          dim {
          }
        }
      }
    }
  }
  value_info {
    name: "6691"
    type {
      tensor_type {
        elem_type: 7
        shape {
          dim {
            dim_value: 1
          }
          dim {
          }
        }
      }
    }
  }
  value_info {
    name: "6782"
    type {
      tensor_type {
        elem_type: 7
        shape {
          dim {
            dim_value: 1
          }
          dim {
          }
        }
      }
    }
  }
  value_info {
    name: "6674"
    type {
      tensor_type {
        elem_type: 7
        shape {
          dim {
            dim_value: 1
          }
          dim {
          }
        }
      }
    }
  }
  value_info {
    name: "6754"
    type {
      tensor_type {
        elem_type: 7
        shape {
          dim {
            dim_value: 1
          }
          dim {
          }
        }
      }
    }
  }
  value_info {
    name: "6657"
    type {
      tensor_type {
        elem_type: 7
        shape {
          dim {
            dim_value: 1
          }
          dim {
          }
        }
      }
    }
  }
  value_info {
    name: "6716"
    type {
      tensor_type {
        elem_type: 7
        shape {
          dim {
            dim_value: 1
          }
        }
      }
    }
  }
  value_info {
    name: "6640"
    type {
      tensor_type {
        elem_type: 7
        shape {
          dim {
            dim_value: 1
          }
          dim {
          }
        }
      }
    }
  }
  value_info {
    name: "6726"
    type {
      tensor_type {
        elem_type: 7
        shape {
          dim {
            dim_value: 1
          }
          dim {
          }
        }
      }
    }
  }
  value_info {
    name: "6811"
    type {
      tensor_type {
        elem_type: 7
        shape {
          dim {
          }
          dim {
            dim_value: 1
          }
        }
      }
    }
  }
  value_info {
    name: "6692"
    type {
      tensor_type {
        elem_type: 7
        shape {
          dim {
          }
          dim {
            dim_value: 1
          }
        }
      }
    }
  }
  value_info {
    name: "6783"
    type {
      tensor_type {
        elem_type: 7
        shape {
          dim {
          }
          dim {
            dim_value: 1
          }
        }
      }
    }
  }
  value_info {
    name: "6675"
    type {
      tensor_type {
        elem_type: 7
        shape {
          dim {
          }
          dim {
            dim_value: 1
          }
        }
      }
    }
  }
  value_info {
    name: "6755"
    type {
      tensor_type {
        elem_type: 7
        shape {
          dim {
          }
          dim {
            dim_value: 1
          }
        }
      }
    }
  }
  value_info {
    name: "6658"
    type {
      tensor_type {
        elem_type: 7
        shape {
          dim {
          }
          dim {
            dim_value: 1
          }
        }
      }
    }
  }
  value_info {
    name: "6641"
    type {
      tensor_type {
        elem_type: 7
        shape {
          dim {
          }
          dim {
            dim_value: 1
          }
        }
      }
    }
  }
  value_info {
    name: "6727"
    type {
      tensor_type {
        elem_type: 7
        shape {
          dim {
          }
          dim {
            dim_value: 1
          }
        }
      }
    }
  }
  value_info {
    name: "6813"
    type {
      tensor_type {
        elem_type: 7
        shape {
          dim {
          }
          dim {
            dim_value: 1
          }
          dim {
            dim_value: 1
          }
          dim {
            dim_value: 1
          }
        }
      }
    }
  }
  value_info {
    name: "6693"
    type {
      tensor_type {
        elem_type: 7
        shape {
          dim {
          }
        }
      }
    }
  }
  value_info {
    name: "6785"
    type {
      tensor_type {
        elem_type: 7
        shape {
          dim {
          }
          dim {
            dim_value: 1
          }
          dim {
            dim_value: 1
          }
          dim {
            dim_value: 1
          }
        }
      }
    }
  }
  value_info {
    name: "6676"
    type {
      tensor_type {
        elem_type: 7
        shape {
          dim {
          }
        }
      }
    }
  }
  value_info {
    name: "6757"
    type {
      tensor_type {
        elem_type: 7
        shape {
          dim {
          }
          dim {
            dim_value: 1
          }
          dim {
            dim_value: 1
          }
          dim {
            dim_value: 1
          }
        }
      }
    }
  }
  value_info {
    name: "6659"
    type {
      tensor_type {
        elem_type: 7
        shape {
          dim {
          }
        }
      }
    }
  }
  value_info {
    name: "6642"
    type {
      tensor_type {
        elem_type: 7
        shape {
          dim {
          }
        }
      }
    }
  }
  value_info {
    name: "6729"
    type {
      tensor_type {
        elem_type: 7
        shape {
          dim {
          }
          dim {
            dim_value: 1
          }
          dim {
            dim_value: 1
          }
          dim {
            dim_value: 1
          }
        }
      }
    }
  }
  value_info {
    name: "6815"
    type {
      tensor_type {
        elem_type: 7
        shape {
          dim {
            dim_value: 4
          }
        }
      }
    }
  }
  value_info {
    name: "6695"
    type {
      tensor_type {
        elem_type: 1
        shape {
          dim {
          }
          dim {
          }
        }
      }
    }
  }
  value_info {
    name: "6787"
    type {
      tensor_type {
        elem_type: 7
        shape {
          dim {
            dim_value: 4
          }
        }
      }
    }
  }
  value_info {
    name: "6678"
    type {
      tensor_type {
        elem_type: 1
        shape {
          dim {
          }
          dim {
          }
        }
      }
    }
  }
  value_info {
    name: "6759"
    type {
      tensor_type {
        elem_type: 7
        shape {
          dim {
            dim_value: 4
          }
        }
      }
    }
  }
  value_info {
    name: "6661"
    type {
      tensor_type {
        elem_type: 1
        shape {
          dim {
          }
          dim {
          }
        }
      }
    }
  }
  value_info {
    name: "6644"
    type {
      tensor_type {
        elem_type: 1
        shape {
          dim {
          }
          dim {
          }
        }
      }
    }
  }
  value_info {
    name: "6731"
    type {
      tensor_type {
        elem_type: 7
        shape {
          dim {
            dim_value: 4
          }
        }
      }
    }
  }
  value_info {
    name: "6816"
    type {
      tensor_type {
        elem_type: 7
        shape {
        }
      }
    }
  }
  value_info {
    name: "6697"
    type {
      tensor_type {
        elem_type: 1
        shape {
          dim {
          }
          dim {
            dim_value: 1
          }
        }
      }
    }
  }
  value_info {
    name: "6701"
    type {
      tensor_type {
        elem_type: 1
        shape {
          dim {
          }
          dim {
            dim_value: 4
          }
        }
      }
    }
  }
  value_info {
    name: "6788"
    type {
      tensor_type {
        elem_type: 7
        shape {
        }
      }
    }
  }
  value_info {
    name: "6680"
    type {
      tensor_type {
        elem_type: 1
        shape {
          dim {
          }
          dim {
            dim_value: 1
          }
        }
      }
    }
  }
  value_info {
    name: "6684"
    type {
      tensor_type {
        elem_type: 1
        shape {
          dim {
          }
          dim {
            dim_value: 4
          }
        }
      }
    }
  }
  value_info {
    name: "6760"
    type {
      tensor_type {
        elem_type: 7
        shape {
        }
      }
    }
  }
  value_info {
    name: "6663"
    type {
      tensor_type {
        elem_type: 1
        shape {
          dim {
          }
          dim {
            dim_value: 1
          }
        }
      }
    }
  }
  value_info {
    name: "6667"
    type {
      tensor_type {
        elem_type: 1
        shape {
          dim {
          }
          dim {
            dim_value: 4
          }
        }
      }
    }
  }
  value_info {
    name: "6646"
    type {
      tensor_type {
        elem_type: 1
        shape {
          dim {
          }
          dim {
            dim_value: 1
          }
        }
      }
    }
  }
  value_info {
    name: "6650"
    type {
      tensor_type {
        elem_type: 1
        shape {
          dim {
          }
          dim {
            dim_value: 4
          }
        }
      }
    }
  }
  value_info {
    name: "6732"
    type {
      tensor_type {
        elem_type: 7
        shape {
        }
      }
    }
  }
  value_info {
    name: "6826"
    type {
      tensor_type {
        elem_type: 7
        shape {
          dim {
            dim_value: 1
          }
        }
      }
    }
  }
  value_info {
    name: "6698"
    type {
      tensor_type {
        elem_type: 1
        shape {
          dim {
          }
        }
      }
    }
  }
  value_info {
    name: "6798"
    type {
      tensor_type {
        elem_type: 7
        shape {
          dim {
            dim_value: 1
          }
        }
      }
    }
  }
  value_info {
    name: "6681"
    type {
      tensor_type {
        elem_type: 1
        shape {
          dim {
          }
        }
      }
    }
  }
  value_info {
    name: "6770"
    type {
      tensor_type {
        elem_type: 7
        shape {
          dim {
            dim_value: 1
          }
        }
      }
    }
  }
  value_info {
    name: "6664"
    type {
      tensor_type {
        elem_type: 1
        shape {
          dim {
          }
        }
      }
    }
  }
  value_info {
    name: "6647"
    type {
      tensor_type {
        elem_type: 1
        shape {
          dim {
          }
        }
      }
    }
  }
  value_info {
    name: "6742"
    type {
      tensor_type {
        elem_type: 7
        shape {
          dim {
            dim_value: 1
          }
        }
      }
    }
  }
  value_info {
    name: "6699"
    type {
      tensor_type {
        elem_type: 7
        shape {
          dim {
          }
        }
      }
    }
  }
  value_info {
    name: "6682"
    type {
      tensor_type {
        elem_type: 7
        shape {
          dim {
          }
        }
      }
    }
  }
  value_info {
    name: "6665"
    type {
      tensor_type {
        elem_type: 7
        shape {
          dim {
          }
        }
      }
    }
  }
  value_info {
    name: "6648"
    type {
      tensor_type {
        elem_type: 7
        shape {
          dim {
          }
        }
      }
    }
  }
  value_info {
    name: "6702"
    type {
      tensor_type {
        elem_type: 1
        shape {
          dim {
          }
          dim {
            dim_value: 256
          }
          dim {
            dim_value: 14
          }
          dim {
            dim_value: 14
          }
        }
      }
    }
  }
  value_info {
    name: "6685"
    type {
      tensor_type {
        elem_type: 1
        shape {
          dim {
          }
          dim {
            dim_value: 256
          }
          dim {
            dim_value: 14
          }
          dim {
            dim_value: 14
          }
        }
      }
    }
  }
  value_info {
    name: "6668"
    type {
      tensor_type {
        elem_type: 1
        shape {
          dim {
          }
          dim {
            dim_value: 256
          }
          dim {
            dim_value: 14
          }
          dim {
            dim_value: 14
          }
        }
      }
    }
  }
  value_info {
    name: "6651"
    type {
      tensor_type {
        elem_type: 1
        shape {
          dim {
          }
          dim {
            dim_value: 256
          }
          dim {
            dim_value: 14
          }
          dim {
            dim_value: 14
          }
        }
      }
    }
  }
  value_info {
    name: "6818"
    type {
      tensor_type {
        elem_type: 7
        shape {
          dim {
            dim_value: 4
          }
        }
      }
    }
  }
  value_info {
    name: "6790"
    type {
      tensor_type {
        elem_type: 7
        shape {
          dim {
            dim_value: 4
          }
        }
      }
    }
  }
  value_info {
    name: "6762"
    type {
      tensor_type {
        elem_type: 7
        shape {
          dim {
            dim_value: 4
          }
        }
      }
    }
  }
  value_info {
    name: "6708"
    type {
      tensor_type {
        elem_type: 7
        shape {
          dim {
            dim_value: 4
          }
        }
      }
    }
  }
  value_info {
    name: "6819"
    type {
      tensor_type {
        elem_type: 7
        shape {
        }
      }
    }
  }
  value_info {
    name: "6822"
    type {
      tensor_type {
        elem_type: 7
        shape {
        }
      }
    }
  }
  value_info {
    name: "6825"
    type {
      tensor_type {
        elem_type: 7
        shape {
        }
      }
    }
  }
  value_info {
    name: "6791"
    type {
      tensor_type {
        elem_type: 7
        shape {
        }
      }
    }
  }
  value_info {
    name: "6794"
    type {
      tensor_type {
        elem_type: 7
        shape {
        }
      }
    }
  }
  value_info {
    name: "6797"
    type {
      tensor_type {
        elem_type: 7
        shape {
        }
      }
    }
  }
  value_info {
    name: "6763"
    type {
      tensor_type {
        elem_type: 7
        shape {
        }
      }
    }
  }
  value_info {
    name: "6766"
    type {
      tensor_type {
        elem_type: 7
        shape {
        }
      }
    }
  }
  value_info {
    name: "6769"
    type {
      tensor_type {
        elem_type: 7
        shape {
        }
      }
    }
  }
  value_info {
    name: "6709"
    type {
      tensor_type {
        elem_type: 7
        shape {
        }
      }
    }
  }
  value_info {
    name: "6712"
    type {
      tensor_type {
        elem_type: 7
        shape {
        }
      }
    }
  }
  value_info {
    name: "6715"
    type {
      tensor_type {
        elem_type: 7
        shape {
        }
      }
    }
  }
  value_info {
    name: "6735"
    type {
      tensor_type {
        elem_type: 7
        shape {
        }
      }
    }
  }
  value_info {
    name: "6738"
    type {
      tensor_type {
        elem_type: 7
        shape {
        }
      }
    }
  }
  value_info {
    name: "6741"
    type {
      tensor_type {
        elem_type: 7
        shape {
        }
      }
    }
  }
  value_info {
    name: "6827"
    type {
      tensor_type {
        elem_type: 7
        shape {
          dim {
            dim_value: 1
          }
        }
      }
    }
  }
  value_info {
    name: "6828"
    type {
      tensor_type {
        elem_type: 7
        shape {
          dim {
            dim_value: 1
          }
        }
      }
    }
  }
  value_info {
    name: "6829"
    type {
      tensor_type {
        elem_type: 7
        shape {
          dim {
            dim_value: 1
          }
        }
      }
    }
  }
  value_info {
    name: "6799"
    type {
      tensor_type {
        elem_type: 7
        shape {
          dim {
            dim_value: 1
          }
        }
      }
    }
  }
  value_info {
    name: "6800"
    type {
      tensor_type {
        elem_type: 7
        shape {
          dim {
            dim_value: 1
          }
        }
      }
    }
  }
  value_info {
    name: "6801"
    type {
      tensor_type {
        elem_type: 7
        shape {
          dim {
            dim_value: 1
          }
        }
      }
    }
  }
  value_info {
    name: "6771"
    type {
      tensor_type {
        elem_type: 7
        shape {
          dim {
            dim_value: 1
          }
        }
      }
    }
  }
  value_info {
    name: "6772"
    type {
      tensor_type {
        elem_type: 7
        shape {
          dim {
            dim_value: 1
          }
        }
      }
    }
  }
  value_info {
    name: "6773"
    type {
      tensor_type {
        elem_type: 7
        shape {
          dim {
            dim_value: 1
          }
        }
      }
    }
  }
  value_info {
    name: "6717"
    type {
      tensor_type {
        elem_type: 7
        shape {
          dim {
            dim_value: 1
          }
        }
      }
    }
  }
  value_info {
    name: "6718"
    type {
      tensor_type {
        elem_type: 7
        shape {
          dim {
            dim_value: 1
          }
        }
      }
    }
  }
  value_info {
    name: "6719"
    type {
      tensor_type {
        elem_type: 7
        shape {
          dim {
            dim_value: 1
          }
        }
      }
    }
  }
  value_info {
    name: "6743"
    type {
      tensor_type {
        elem_type: 7
        shape {
          dim {
            dim_value: 1
          }
        }
      }
    }
  }
  value_info {
    name: "6744"
    type {
      tensor_type {
        elem_type: 7
        shape {
          dim {
            dim_value: 1
          }
        }
      }
    }
  }
  value_info {
    name: "6745"
    type {
      tensor_type {
        elem_type: 7
        shape {
          dim {
            dim_value: 1
          }
        }
      }
    }
  }
  value_info {
    name: "6830"
    type {
      tensor_type {
        elem_type: 7
        shape {
          dim {
            dim_value: 4
          }
        }
      }
    }
  }
  value_info {
    name: "6802"
    type {
      tensor_type {
        elem_type: 7
        shape {
          dim {
            dim_value: 4
          }
        }
      }
    }
  }
  value_info {
    name: "6774"
    type {
      tensor_type {
        elem_type: 7
        shape {
          dim {
            dim_value: 4
          }
        }
      }
    }
  }
  value_info {
    name: "6720"
    type {
      tensor_type {
        elem_type: 7
        shape {
          dim {
            dim_value: 4
          }
        }
      }
    }
  }
  value_info {
    name: "6746"
    type {
      tensor_type {
        elem_type: 7
        shape {
          dim {
            dim_value: 4
          }
        }
      }
    }
  }
  value_info {
    name: "6831"
    type {
      tensor_type {
        elem_type: 7
        shape {
          dim {
          }
          dim {
          }
          dim {
          }
          dim {
          }
        }
      }
    }
  }
  value_info {
    name: "6803"
    type {
      tensor_type {
        elem_type: 7
        shape {
          dim {
          }
          dim {
          }
          dim {
          }
          dim {
          }
        }
      }
    }
  }
  value_info {
    name: "6775"
    type {
      tensor_type {
        elem_type: 7
        shape {
          dim {
          }
          dim {
          }
          dim {
          }
          dim {
          }
        }
      }
    }
  }
  value_info {
    name: "6721"
    type {
      tensor_type {
        elem_type: 1
        shape {
          dim {
          }
          dim {
          }
          dim {
          }
          dim {
          }
        }
      }
    }
  }
  value_info {
    name: "6747"
    type {
      tensor_type {
        elem_type: 7
        shape {
          dim {
          }
          dim {
          }
          dim {
          }
          dim {
          }
        }
      }
    }
  }
  value_info {
    name: "6749"
    type {
      tensor_type {
        elem_type: 1
        shape {
          dim {
          }
          dim {
          }
          dim {
          }
          dim {
          }
        }
      }
    }
  }
  value_info {
    name: "6777"
    type {
      tensor_type {
        elem_type: 1
        shape {
          dim {
          }
          dim {
          }
          dim {
          }
          dim {
          }
        }
      }
    }
  }
  value_info {
    name: "6805"
    type {
      tensor_type {
        elem_type: 1
        shape {
          dim {
          }
          dim {
          }
          dim {
          }
          dim {
          }
        }
      }
    }
  }
  value_info {
    name: "6833"
    type {
      tensor_type {
        elem_type: 1
        shape {
          dim {
          }
          dim {
          }
          dim {
          }
          dim {
          }
        }
      }
    }
  }
  value_info {
    name: "6848"
    type {
      tensor_type {
        elem_type: 1
        shape {
          dim {
          }
          dim {
            dim_value: 256
          }
          dim {
          }
          dim {
          }
        }
      }
    }
  }
  value_info {
    name: "6852"
    type {
      tensor_type {
        elem_type: 1
        shape {
          dim {
          }
          dim {
            dim_value: 256
          }
          dim {
          }
          dim {
          }
        }
      }
    }
  }
  value_info {
    name: "6853"
    type {
      tensor_type {
        elem_type: 1
        shape {
          dim {
          }
          dim {
            dim_value: 256
          }
          dim {
          }
          dim {
          }
        }
      }
    }
  }
  value_info {
    name: "6856"
    type {
      tensor_type {
        elem_type: 1
        shape {
          dim {
          }
          dim {
            dim_value: 81
          }
          dim {
          }
          dim {
          }
        }
      }
    }
  }
  value_info {
    name: "6857"
    type {
      tensor_type {
        elem_type: 1
        shape {
          dim {
          }
          dim {
            dim_value: 81
          }
          dim {
          }
          dim {
          }
        }
      }
    }
  }
  value_info {
    name: "6860"
    type {
      tensor_type {
        elem_type: 7
        shape {
          dim {
            dim_value: 4
          }
        }
      }
    }
  }
  value_info {
    name: "6870"
    type {
      tensor_type {
        elem_type: 7
        shape {
          dim {
            dim_value: 4
          }
        }
      }
    }
  }
  value_info {
    name: "6861"
    type {
      tensor_type {
        elem_type: 7
        shape {
        }
      }
    }
  }
  value_info {
    name: "6871"
    type {
      tensor_type {
        elem_type: 7
        shape {
        }
      }
    }
  }
  value_info {
    name: "6874"
    type {
      tensor_type {
        elem_type: 7
        shape {
        }
      }
    }
  }
  value_info {
    name: "6883"
    type {
      tensor_type {
        elem_type: 7
        shape {
        }
      }
    }
  }
  value_info {
    name: "6862"
    type {
      tensor_type {
        elem_type: 7
        shape {
          dim {
            dim_value: 1
          }
        }
      }
    }
  }
  value_info {
    name: "6877"
    type {
      tensor_type {
        elem_type: 7
        shape {
          dim {
            dim_value: 1
          }
        }
      }
    }
  }
  value_info {
    name: "6878"
    type {
      tensor_type {
        elem_type: 7
        shape {
          dim {
            dim_value: 1
          }
        }
      }
    }
  }
  value_info {
    name: "6863"
    type {
      tensor_type {
        elem_type: 7
        shape {
          dim {
            dim_value: 1
          }
        }
      }
    }
  }
  value_info {
    name: "6879"
    type {
      tensor_type {
        elem_type: 7
        shape {
          dim {
            dim_value: 3
          }
        }
      }
    }
  }
  value_info {
    name: "6864"
    type {
      tensor_type {
        elem_type: 7
        shape {
          dim {
          }
        }
      }
    }
  }
  value_info {
    name: "6880"
    type {
      tensor_type {
        elem_type: 1
      }
    }
  }
  value_info {
    name: "6865"
    type {
      tensor_type {
        elem_type: 1
        shape {
          dim {
          }
        }
      }
    }
  }
  value_info {
    name: "6866"
    type {
      tensor_type {
        elem_type: 7
        shape {
          dim {
            dim_value: 1
          }
          dim {
          }
        }
      }
    }
  }
  value_info {
    name: "6867"
    type {
      tensor_type {
        elem_type: 7
        shape {
          dim {
          }
          dim {
            dim_value: 1
          }
        }
      }
    }
  }
  value_info {
    name: "6868"
    type {
      tensor_type {
        elem_type: 7
        shape {
          dim {
          }
        }
      }
    }
  }
  value_info {
    name: "6884"
    type {
      tensor_type {
        elem_type: 7
        shape {
          dim {
          }
        }
      }
    }
  }
  value_info {
    name: "6885"
    type {
      tensor_type {
        elem_type: 7
        shape {
          dim {
          }
        }
      }
    }
  }
  value_info {
    name: "6886"
    type {
      tensor_type {
        elem_type: 1
      }
    }
  }
}
opset_import {
  domain: ""
  version: 12
}
opset_import {
  domain: "com.microsoft"
  version: 1
}
