ir_version: 7
producer_name: "onnx.quantize"
producer_version: "0.1.0"
graph {
  node {
    input: "input"
    input: "input_scale"
    input: "input_zero_point"
    output: "input_quantized"
    name: "input_Conv_0_QuantizeLinear"
    op_type: "QuantizeLinear"
  }
  node {
    input: "476_quantized"
    input: "476_scale"
    input: "476_zero_point"
    output: "476_dequantized"
    name: "476_DequantizeLinear"
    op_type: "DequantizeLinear"
  }
  node {
    input: "475_quantized"
    input: "475_scale"
    input: "475_zero_point"
    output: "475_dequantized"
    name: "475_DequantizeLinear"
    op_type: "DequantizeLinear"
  }
  node {
    input: "input_quantized"
    input: "input_scale"
    input: "input_zero_point"
    output: "input_dequantized"
    name: "input_Conv_0_DequantizeLinear"
    op_type: "DequantizeLinear"
  }
  node {
    input: "input_dequantized"
    input: "475_dequantized"
    input: "476_dequantized"
    output: "474_QuantizeInput"
    name: "Conv_0_quant"
    op_type: "Conv"
    attribute {
      name: "dilations"
      ints: 1
      ints: 1
      type: INTS
    }
    attribute {
      name: "group"
      i: 1
      type: INT
    }
    attribute {
      name: "kernel_shape"
      ints: 3
      ints: 3
      type: INTS
    }
    attribute {
      name: "pads"
      ints: 1
      ints: 1
      ints: 1
      ints: 1
      type: INTS
    }
    attribute {
      name: "strides"
      ints: 2
      ints: 2
      type: INTS
    }
  }
  node {
    input: "474_QuantizeInput"
    input: "474_scale"
    input: "474_zero_point"
    output: "474_quantized"
    name: "474_Conv_0_QuantizeLinear"
    op_type: "QuantizeLinear"
  }
  node {
    input: "479_quantized"
    input: "479_scale"
    input: "479_zero_point"
    output: "479_dequantized"
    name: "479_DequantizeLinear"
    op_type: "DequantizeLinear"
  }
  node {
    input: "478_quantized"
    input: "478_scale"
    input: "478_zero_point"
    output: "478_dequantized"
    name: "478_DequantizeLinear"
    op_type: "DequantizeLinear"
  }
  node {
    input: "474_quantized"
    input: "474_scale"
    input: "474_zero_point"
    output: "474_Conv_2_dequantized"
    name: "474_Conv_2_DequantizeLinear"
    op_type: "DequantizeLinear"
  }
  node {
    input: "474_Conv_2_dequantized"
    input: "478_dequantized"
    input: "479_dequantized"
    output: "477_QuantizeInput"
    name: "Conv_2_quant"
    op_type: "Conv"
    attribute {
      name: "dilations"
      ints: 1
      ints: 1
      type: INTS
    }
    attribute {
      name: "group"
      i: 32
      type: INT
    }
    attribute {
      name: "kernel_shape"
      ints: 3
      ints: 3
      type: INTS
    }
    attribute {
      name: "pads"
      ints: 1
      ints: 1
      ints: 1
      ints: 1
      type: INTS
    }
    attribute {
      name: "strides"
      ints: 1
      ints: 1
      type: INTS
    }
  }
  node {
    input: "477_QuantizeInput"
    input: "477_scale"
    input: "477_zero_point"
    output: "477_quantized"
    name: "477_Conv_2_QuantizeLinear"
    op_type: "QuantizeLinear"
  }
  node {
    input: "482_quantized"
    input: "482_scale"
    input: "482_zero_point"
    output: "482_dequantized"
    name: "482_DequantizeLinear"
    op_type: "DequantizeLinear"
  }
  node {
    input: "481_quantized"
    input: "481_scale"
    input: "481_zero_point"
    output: "481_dequantized"
    name: "481_DequantizeLinear"
    op_type: "DequantizeLinear"
  }
  node {
    input: "477_quantized"
    input: "477_scale"
    input: "477_zero_point"
    output: "477_Conv_4_dequantized"
    name: "477_Conv_4_DequantizeLinear"
    op_type: "DequantizeLinear"
  }
  node {
    input: "477_Conv_4_dequantized"
    input: "481_dequantized"
    input: "482_dequantized"
    output: "480_QuantizeInput"
    name: "Conv_4_quant"
    op_type: "Conv"
    attribute {
      name: "dilations"
      ints: 1
      ints: 1
      type: INTS
    }
    attribute {
      name: "group"
      i: 1
      type: INT
    }
    attribute {
      name: "kernel_shape"
      ints: 1
      ints: 1
      type: INTS
    }
    attribute {
      name: "pads"
      ints: 0
      ints: 0
      ints: 0
      ints: 0
      type: INTS
    }
    attribute {
      name: "strides"
      ints: 1
      ints: 1
      type: INTS
    }
  }
  node {
    input: "480_QuantizeInput"
    input: "480_scale"
    input: "480_zero_point"
    output: "480_quantized"
    name: "480_Conv_4_QuantizeLinear"
    op_type: "QuantizeLinear"
  }
  node {
    input: "485_quantized"
    input: "485_scale"
    input: "485_zero_point"
    output: "485_dequantized"
    name: "485_DequantizeLinear"
    op_type: "DequantizeLinear"
  }
  node {
    input: "484_quantized"
    input: "484_scale"
    input: "484_zero_point"
    output: "484_dequantized"
    name: "484_DequantizeLinear"
    op_type: "DequantizeLinear"
  }
  node {
    input: "480_quantized"
    input: "480_scale"
    input: "480_zero_point"
    output: "480_Conv_5_dequantized"
    name: "480_Conv_5_DequantizeLinear"
    op_type: "DequantizeLinear"
  }
  node {
    input: "480_Conv_5_dequantized"
    input: "484_dequantized"
    input: "485_dequantized"
    output: "483_QuantizeInput"
    name: "Conv_5_quant"
    op_type: "Conv"
    attribute {
      name: "dilations"
      ints: 1
      ints: 1
      type: INTS
    }
    attribute {
      name: "group"
      i: 1
      type: INT
    }
    attribute {
      name: "kernel_shape"
      ints: 1
      ints: 1
      type: INTS
    }
    attribute {
      name: "pads"
      ints: 0
      ints: 0
      ints: 0
      ints: 0
      type: INTS
    }
    attribute {
      name: "strides"
      ints: 1
      ints: 1
      type: INTS
    }
  }
  node {
    input: "483_QuantizeInput"
    input: "483_scale"
    input: "483_zero_point"
    output: "483_quantized"
    name: "483_Conv_5_QuantizeLinear"
    op_type: "QuantizeLinear"
  }
  node {
    input: "488_quantized"
    input: "488_scale"
    input: "488_zero_point"
    output: "488_dequantized"
    name: "488_DequantizeLinear"
    op_type: "DequantizeLinear"
  }
  node {
    input: "487_quantized"
    input: "487_scale"
    input: "487_zero_point"
    output: "487_dequantized"
    name: "487_DequantizeLinear"
    op_type: "DequantizeLinear"
  }
  node {
    input: "483_quantized"
    input: "483_scale"
    input: "483_zero_point"
    output: "483_Conv_7_dequantized"
    name: "483_Conv_7_DequantizeLinear"
    op_type: "DequantizeLinear"
  }
  node {
    input: "483_Conv_7_dequantized"
    input: "487_dequantized"
    input: "488_dequantized"
    output: "486_QuantizeInput"
    name: "Conv_7_quant"
    op_type: "Conv"
    attribute {
      name: "dilations"
      ints: 1
      ints: 1
      type: INTS
    }
    attribute {
      name: "group"
      i: 96
      type: INT
    }
    attribute {
      name: "kernel_shape"
      ints: 3
      ints: 3
      type: INTS
    }
    attribute {
      name: "pads"
      ints: 1
      ints: 1
      ints: 1
      ints: 1
      type: INTS
    }
    attribute {
      name: "strides"
      ints: 2
      ints: 2
      type: INTS
    }
  }
  node {
    input: "486_QuantizeInput"
    input: "486_scale"
    input: "486_zero_point"
    output: "486_quantized"
    name: "486_Conv_7_QuantizeLinear"
    op_type: "QuantizeLinear"
  }
  node {
    input: "491_quantized"
    input: "491_scale"
    input: "491_zero_point"
    output: "491_dequantized"
    name: "491_DequantizeLinear"
    op_type: "DequantizeLinear"
  }
  node {
    input: "490_quantized"
    input: "490_scale"
    input: "490_zero_point"
    output: "490_dequantized"
    name: "490_DequantizeLinear"
    op_type: "DequantizeLinear"
  }
  node {
    input: "486_quantized"
    input: "486_scale"
    input: "486_zero_point"
    output: "486_Conv_9_dequantized"
    name: "486_Conv_9_DequantizeLinear"
    op_type: "DequantizeLinear"
  }
  node {
    input: "486_Conv_9_dequantized"
    input: "490_dequantized"
    input: "491_dequantized"
    output: "489_QuantizeInput"
    name: "Conv_9_quant"
    op_type: "Conv"
    attribute {
      name: "dilations"
      ints: 1
      ints: 1
      type: INTS
    }
    attribute {
      name: "group"
      i: 1
      type: INT
    }
    attribute {
      name: "kernel_shape"
      ints: 1
      ints: 1
      type: INTS
    }
    attribute {
      name: "pads"
      ints: 0
      ints: 0
      ints: 0
      ints: 0
      type: INTS
    }
    attribute {
      name: "strides"
      ints: 1
      ints: 1
      type: INTS
    }
  }
  node {
    input: "489_QuantizeInput"
    input: "489_scale"
    input: "489_zero_point"
    output: "489_quantized"
    name: "489_Conv_9_QuantizeLinear"
    op_type: "QuantizeLinear"
  }
  node {
    input: "494_quantized"
    input: "494_scale"
    input: "494_zero_point"
    output: "494_dequantized"
    name: "494_DequantizeLinear"
    op_type: "DequantizeLinear"
  }
  node {
    input: "493_quantized"
    input: "493_scale"
    input: "493_zero_point"
    output: "493_dequantized"
    name: "493_DequantizeLinear"
    op_type: "DequantizeLinear"
  }
  node {
    input: "497_quantized"
    input: "497_scale"
    input: "497_zero_point"
    output: "497_dequantized"
    name: "497_DequantizeLinear"
    op_type: "DequantizeLinear"
  }
  node {
    input: "496_quantized"
    input: "496_scale"
    input: "496_zero_point"
    output: "496_dequantized"
    name: "496_DequantizeLinear"
    op_type: "DequantizeLinear"
  }
  node {
    input: "489_quantized"
    input: "489_scale"
    input: "489_zero_point"
    output: "489"
    name: "489_Conv_9_DequantizeLinear"
    op_type: "DequantizeLinear"
  }
  node {
    input: "489"
    input: "493_dequantized"
    input: "494_dequantized"
    output: "492_QuantizeInput"
    name: "Conv_10_quant"
    op_type: "Conv"
    attribute {
      name: "dilations"
      ints: 1
      ints: 1
      type: INTS
    }
    attribute {
      name: "group"
      i: 1
      type: INT
    }
    attribute {
      name: "kernel_shape"
      ints: 1
      ints: 1
      type: INTS
    }
    attribute {
      name: "pads"
      ints: 0
      ints: 0
      ints: 0
      ints: 0
      type: INTS
    }
    attribute {
      name: "strides"
      ints: 1
      ints: 1
      type: INTS
    }
  }
  node {
    input: "492_QuantizeInput"
    input: "492_scale"
    input: "492_zero_point"
    output: "492_quantized"
    name: "492_Conv_10_QuantizeLinear"
    op_type: "QuantizeLinear"
  }
  node {
    input: "492_quantized"
    input: "492_scale"
    input: "492_zero_point"
    output: "492_Conv_12_dequantized"
    name: "492_Conv_12_DequantizeLinear"
    op_type: "DequantizeLinear"
  }
  node {
    input: "492_Conv_12_dequantized"
    input: "496_dequantized"
    input: "497_dequantized"
    output: "495_QuantizeInput"
    name: "Conv_12_quant"
    op_type: "Conv"
    attribute {
      name: "dilations"
      ints: 1
      ints: 1
      type: INTS
    }
    attribute {
      name: "group"
      i: 144
      type: INT
    }
    attribute {
      name: "kernel_shape"
      ints: 3
      ints: 3
      type: INTS
    }
    attribute {
      name: "pads"
      ints: 1
      ints: 1
      ints: 1
      ints: 1
      type: INTS
    }
    attribute {
      name: "strides"
      ints: 1
      ints: 1
      type: INTS
    }
  }
  node {
    input: "495_QuantizeInput"
    input: "495_scale"
    input: "495_zero_point"
    output: "495_quantized"
    name: "495_Conv_12_QuantizeLinear"
    op_type: "QuantizeLinear"
  }
  node {
    input: "500_quantized"
    input: "500_scale"
    input: "500_zero_point"
    output: "500_dequantized"
    name: "500_DequantizeLinear"
    op_type: "DequantizeLinear"
  }
  node {
    input: "499_quantized"
    input: "499_scale"
    input: "499_zero_point"
    output: "499_dequantized"
    name: "499_DequantizeLinear"
    op_type: "DequantizeLinear"
  }
  node {
    input: "495_quantized"
    input: "495_scale"
    input: "495_zero_point"
    output: "495_Conv_14_dequantized"
    name: "495_Conv_14_DequantizeLinear"
    op_type: "DequantizeLinear"
  }
  node {
    input: "495_Conv_14_dequantized"
    input: "499_dequantized"
    input: "500_dequantized"
    output: "498_QuantizeInput"
    name: "Conv_14_quant"
    op_type: "Conv"
    attribute {
      name: "dilations"
      ints: 1
      ints: 1
      type: INTS
    }
    attribute {
      name: "group"
      i: 1
      type: INT
    }
    attribute {
      name: "kernel_shape"
      ints: 1
      ints: 1
      type: INTS
    }
    attribute {
      name: "pads"
      ints: 0
      ints: 0
      ints: 0
      ints: 0
      type: INTS
    }
    attribute {
      name: "strides"
      ints: 1
      ints: 1
      type: INTS
    }
  }
  node {
    input: "498_QuantizeInput"
    input: "498_scale"
    input: "498_zero_point"
    output: "498_quantized"
    name: "498_Conv_14_QuantizeLinear"
    op_type: "QuantizeLinear"
  }
  node {
    input: "498_quantized"
    input: "498_scale"
    input: "498_zero_point"
    output: "498"
    name: "498_Conv_14_DequantizeLinear"
    op_type: "DequantizeLinear"
  }
  node {
    input: "489"
    input: "498"
    output: "339"
    name: "Add_15"
    op_type: "Add"
  }
  node {
    input: "339"
    input: "339_scale"
    input: "339_zero_point"
    output: "339_Conv_16_QuantizeLinear"
    name: "339_Conv_16_QuantizeLinear"
    op_type: "QuantizeLinear"
  }
  node {
    input: "503_quantized"
    input: "503_scale"
    input: "503_zero_point"
    output: "503_dequantized"
    name: "503_DequantizeLinear"
    op_type: "DequantizeLinear"
  }
  node {
    input: "502_quantized"
    input: "502_scale"
    input: "502_zero_point"
    output: "502_dequantized"
    name: "502_DequantizeLinear"
    op_type: "DequantizeLinear"
  }
  node {
    input: "339_Conv_16_QuantizeLinear"
    input: "339_scale"
    input: "339_zero_point"
    output: "339_Conv_16_dequantized"
    name: "339_Conv_16_DequantizeLinear"
    op_type: "DequantizeLinear"
  }
  node {
    input: "339_Conv_16_dequantized"
    input: "502_dequantized"
    input: "503_dequantized"
    output: "501_QuantizeInput"
    name: "Conv_16_quant"
    op_type: "Conv"
    attribute {
      name: "dilations"
      ints: 1
      ints: 1
      type: INTS
    }
    attribute {
      name: "group"
      i: 1
      type: INT
    }
    attribute {
      name: "kernel_shape"
      ints: 1
      ints: 1
      type: INTS
    }
    attribute {
      name: "pads"
      ints: 0
      ints: 0
      ints: 0
      ints: 0
      type: INTS
    }
    attribute {
      name: "strides"
      ints: 1
      ints: 1
      type: INTS
    }
  }
  node {
    input: "501_QuantizeInput"
    input: "501_scale"
    input: "501_zero_point"
    output: "501_quantized"
    name: "501_Conv_16_QuantizeLinear"
    op_type: "QuantizeLinear"
  }
  node {
    input: "506_quantized"
    input: "506_scale"
    input: "506_zero_point"
    output: "506_dequantized"
    name: "506_DequantizeLinear"
    op_type: "DequantizeLinear"
  }
  node {
    input: "505_quantized"
    input: "505_scale"
    input: "505_zero_point"
    output: "505_dequantized"
    name: "505_DequantizeLinear"
    op_type: "DequantizeLinear"
  }
  node {
    input: "501_quantized"
    input: "501_scale"
    input: "501_zero_point"
    output: "501_Conv_18_dequantized"
    name: "501_Conv_18_DequantizeLinear"
    op_type: "DequantizeLinear"
  }
  node {
    input: "501_Conv_18_dequantized"
    input: "505_dequantized"
    input: "506_dequantized"
    output: "504_QuantizeInput"
    name: "Conv_18_quant"
    op_type: "Conv"
    attribute {
      name: "dilations"
      ints: 1
      ints: 1
      type: INTS
    }
    attribute {
      name: "group"
      i: 144
      type: INT
    }
    attribute {
      name: "kernel_shape"
      ints: 3
      ints: 3
      type: INTS
    }
    attribute {
      name: "pads"
      ints: 1
      ints: 1
      ints: 1
      ints: 1
      type: INTS
    }
    attribute {
      name: "strides"
      ints: 2
      ints: 2
      type: INTS
    }
  }
  node {
    input: "504_QuantizeInput"
    input: "504_scale"
    input: "504_zero_point"
    output: "504_quantized"
    name: "504_Conv_18_QuantizeLinear"
    op_type: "QuantizeLinear"
  }
  node {
    input: "509_quantized"
    input: "509_scale"
    input: "509_zero_point"
    output: "509_dequantized"
    name: "509_DequantizeLinear"
    op_type: "DequantizeLinear"
  }
  node {
    input: "508_quantized"
    input: "508_scale"
    input: "508_zero_point"
    output: "508_dequantized"
    name: "508_DequantizeLinear"
    op_type: "DequantizeLinear"
  }
  node {
    input: "504_quantized"
    input: "504_scale"
    input: "504_zero_point"
    output: "504_Conv_20_dequantized"
    name: "504_Conv_20_DequantizeLinear"
    op_type: "DequantizeLinear"
  }
  node {
    input: "504_Conv_20_dequantized"
    input: "508_dequantized"
    input: "509_dequantized"
    output: "507_QuantizeInput"
    name: "Conv_20_quant"
    op_type: "Conv"
    attribute {
      name: "dilations"
      ints: 1
      ints: 1
      type: INTS
    }
    attribute {
      name: "group"
      i: 1
      type: INT
    }
    attribute {
      name: "kernel_shape"
      ints: 1
      ints: 1
      type: INTS
    }
    attribute {
      name: "pads"
      ints: 0
      ints: 0
      ints: 0
      ints: 0
      type: INTS
    }
    attribute {
      name: "strides"
      ints: 1
      ints: 1
      type: INTS
    }
  }
  node {
    input: "507_QuantizeInput"
    input: "507_scale"
    input: "507_zero_point"
    output: "507_quantized"
    name: "507_Conv_20_QuantizeLinear"
    op_type: "QuantizeLinear"
  }
  node {
    input: "512_quantized"
    input: "512_scale"
    input: "512_zero_point"
    output: "512_dequantized"
    name: "512_DequantizeLinear"
    op_type: "DequantizeLinear"
  }
  node {
    input: "511_quantized"
    input: "511_scale"
    input: "511_zero_point"
    output: "511_dequantized"
    name: "511_DequantizeLinear"
    op_type: "DequantizeLinear"
  }
  node {
    input: "515_quantized"
    input: "515_scale"
    input: "515_zero_point"
    output: "515_dequantized"
    name: "515_DequantizeLinear"
    op_type: "DequantizeLinear"
  }
  node {
    input: "514_quantized"
    input: "514_scale"
    input: "514_zero_point"
    output: "514_dequantized"
    name: "514_DequantizeLinear"
    op_type: "DequantizeLinear"
  }
  node {
    input: "507_quantized"
    input: "507_scale"
    input: "507_zero_point"
    output: "507"
    name: "507_Conv_20_DequantizeLinear"
    op_type: "DequantizeLinear"
  }
  node {
    input: "507"
    input: "511_dequantized"
    input: "512_dequantized"
    output: "510_QuantizeInput"
    name: "Conv_21_quant"
    op_type: "Conv"
    attribute {
      name: "dilations"
      ints: 1
      ints: 1
      type: INTS
    }
    attribute {
      name: "group"
      i: 1
      type: INT
    }
    attribute {
      name: "kernel_shape"
      ints: 1
      ints: 1
      type: INTS
    }
    attribute {
      name: "pads"
      ints: 0
      ints: 0
      ints: 0
      ints: 0
      type: INTS
    }
    attribute {
      name: "strides"
      ints: 1
      ints: 1
      type: INTS
    }
  }
  node {
    input: "510_QuantizeInput"
    input: "510_scale"
    input: "510_zero_point"
    output: "510_quantized"
    name: "510_Conv_21_QuantizeLinear"
    op_type: "QuantizeLinear"
  }
  node {
    input: "510_quantized"
    input: "510_scale"
    input: "510_zero_point"
    output: "510_Conv_23_dequantized"
    name: "510_Conv_23_DequantizeLinear"
    op_type: "DequantizeLinear"
  }
  node {
    input: "510_Conv_23_dequantized"
    input: "514_dequantized"
    input: "515_dequantized"
    output: "513_QuantizeInput"
    name: "Conv_23_quant"
    op_type: "Conv"
    attribute {
      name: "dilations"
      ints: 1
      ints: 1
      type: INTS
    }
    attribute {
      name: "group"
      i: 192
      type: INT
    }
    attribute {
      name: "kernel_shape"
      ints: 3
      ints: 3
      type: INTS
    }
    attribute {
      name: "pads"
      ints: 1
      ints: 1
      ints: 1
      ints: 1
      type: INTS
    }
    attribute {
      name: "strides"
      ints: 1
      ints: 1
      type: INTS
    }
  }
  node {
    input: "513_QuantizeInput"
    input: "513_scale"
    input: "513_zero_point"
    output: "513_quantized"
    name: "513_Conv_23_QuantizeLinear"
    op_type: "QuantizeLinear"
  }
  node {
    input: "518_quantized"
    input: "518_scale"
    input: "518_zero_point"
    output: "518_dequantized"
    name: "518_DequantizeLinear"
    op_type: "DequantizeLinear"
  }
  node {
    input: "517_quantized"
    input: "517_scale"
    input: "517_zero_point"
    output: "517_dequantized"
    name: "517_DequantizeLinear"
    op_type: "DequantizeLinear"
  }
  node {
    input: "513_quantized"
    input: "513_scale"
    input: "513_zero_point"
    output: "513_Conv_25_dequantized"
    name: "513_Conv_25_DequantizeLinear"
    op_type: "DequantizeLinear"
  }
  node {
    input: "513_Conv_25_dequantized"
    input: "517_dequantized"
    input: "518_dequantized"
    output: "516_QuantizeInput"
    name: "Conv_25_quant"
    op_type: "Conv"
    attribute {
      name: "dilations"
      ints: 1
      ints: 1
      type: INTS
    }
    attribute {
      name: "group"
      i: 1
      type: INT
    }
    attribute {
      name: "kernel_shape"
      ints: 1
      ints: 1
      type: INTS
    }
    attribute {
      name: "pads"
      ints: 0
      ints: 0
      ints: 0
      ints: 0
      type: INTS
    }
    attribute {
      name: "strides"
      ints: 1
      ints: 1
      type: INTS
    }
  }
  node {
    input: "516_QuantizeInput"
    input: "516_scale"
    input: "516_zero_point"
    output: "516_quantized"
    name: "516_Conv_25_QuantizeLinear"
    op_type: "QuantizeLinear"
  }
  node {
    input: "516_quantized"
    input: "516_scale"
    input: "516_zero_point"
    output: "516"
    name: "516_Conv_25_DequantizeLinear"
    op_type: "DequantizeLinear"
  }
  node {
    input: "521_quantized"
    input: "521_scale"
    input: "521_zero_point"
    output: "521_dequantized"
    name: "521_DequantizeLinear"
    op_type: "DequantizeLinear"
  }
  node {
    input: "520_quantized"
    input: "520_scale"
    input: "520_zero_point"
    output: "520_dequantized"
    name: "520_DequantizeLinear"
    op_type: "DequantizeLinear"
  }
  node {
    input: "524_quantized"
    input: "524_scale"
    input: "524_zero_point"
    output: "524_dequantized"
    name: "524_DequantizeLinear"
    op_type: "DequantizeLinear"
  }
  node {
    input: "523_quantized"
    input: "523_scale"
    input: "523_zero_point"
    output: "523_dequantized"
    name: "523_DequantizeLinear"
    op_type: "DequantizeLinear"
  }
  node {
    input: "507"
    input: "516"
    output: "356"
    name: "Add_26"
    op_type: "Add"
  }
  node {
    input: "356"
    input: "356_scale"
    input: "356_zero_point"
    output: "356_Conv_27_QuantizeLinear"
    name: "356_Conv_27_QuantizeLinear"
    op_type: "QuantizeLinear"
  }
  node {
    input: "356_Conv_27_QuantizeLinear"
    input: "356_scale"
    input: "356_zero_point"
    output: "356_Conv_27_dequantized"
    name: "356_Conv_27_DequantizeLinear"
    op_type: "DequantizeLinear"
  }
  node {
    input: "356_Conv_27_dequantized"
    input: "520_dequantized"
    input: "521_dequantized"
    output: "519_QuantizeInput"
    name: "Conv_27_quant"
    op_type: "Conv"
    attribute {
      name: "dilations"
      ints: 1
      ints: 1
      type: INTS
    }
    attribute {
      name: "group"
      i: 1
      type: INT
    }
    attribute {
      name: "kernel_shape"
      ints: 1
      ints: 1
      type: INTS
    }
    attribute {
      name: "pads"
      ints: 0
      ints: 0
      ints: 0
      ints: 0
      type: INTS
    }
    attribute {
      name: "strides"
      ints: 1
      ints: 1
      type: INTS
    }
  }
  node {
    input: "519_QuantizeInput"
    input: "519_scale"
    input: "519_zero_point"
    output: "519_quantized"
    name: "519_Conv_27_QuantizeLinear"
    op_type: "QuantizeLinear"
  }
  node {
    input: "519_quantized"
    input: "519_scale"
    input: "519_zero_point"
    output: "519_Conv_29_dequantized"
    name: "519_Conv_29_DequantizeLinear"
    op_type: "DequantizeLinear"
  }
  node {
    input: "519_Conv_29_dequantized"
    input: "523_dequantized"
    input: "524_dequantized"
    output: "522_QuantizeInput"
    name: "Conv_29_quant"
    op_type: "Conv"
    attribute {
      name: "dilations"
      ints: 1
      ints: 1
      type: INTS
    }
    attribute {
      name: "group"
      i: 192
      type: INT
    }
    attribute {
      name: "kernel_shape"
      ints: 3
      ints: 3
      type: INTS
    }
    attribute {
      name: "pads"
      ints: 1
      ints: 1
      ints: 1
      ints: 1
      type: INTS
    }
    attribute {
      name: "strides"
      ints: 1
      ints: 1
      type: INTS
    }
  }
  node {
    input: "522_QuantizeInput"
    input: "522_scale"
    input: "522_zero_point"
    output: "522_quantized"
    name: "522_Conv_29_QuantizeLinear"
    op_type: "QuantizeLinear"
  }
  node {
    input: "527_quantized"
    input: "527_scale"
    input: "527_zero_point"
    output: "527_dequantized"
    name: "527_DequantizeLinear"
    op_type: "DequantizeLinear"
  }
  node {
    input: "526_quantized"
    input: "526_scale"
    input: "526_zero_point"
    output: "526_dequantized"
    name: "526_DequantizeLinear"
    op_type: "DequantizeLinear"
  }
  node {
    input: "522_quantized"
    input: "522_scale"
    input: "522_zero_point"
    output: "522_Conv_31_dequantized"
    name: "522_Conv_31_DequantizeLinear"
    op_type: "DequantizeLinear"
  }
  node {
    input: "522_Conv_31_dequantized"
    input: "526_dequantized"
    input: "527_dequantized"
    output: "525_QuantizeInput"
    name: "Conv_31_quant"
    op_type: "Conv"
    attribute {
      name: "dilations"
      ints: 1
      ints: 1
      type: INTS
    }
    attribute {
      name: "group"
      i: 1
      type: INT
    }
    attribute {
      name: "kernel_shape"
      ints: 1
      ints: 1
      type: INTS
    }
    attribute {
      name: "pads"
      ints: 0
      ints: 0
      ints: 0
      ints: 0
      type: INTS
    }
    attribute {
      name: "strides"
      ints: 1
      ints: 1
      type: INTS
    }
  }
  node {
    input: "525_QuantizeInput"
    input: "525_scale"
    input: "525_zero_point"
    output: "525_quantized"
    name: "525_Conv_31_QuantizeLinear"
    op_type: "QuantizeLinear"
  }
  node {
    input: "525_quantized"
    input: "525_scale"
    input: "525_zero_point"
    output: "525"
    name: "525_Conv_31_DequantizeLinear"
    op_type: "DequantizeLinear"
  }
  node {
    input: "356"
    input: "525"
    output: "365"
    name: "Add_32"
    op_type: "Add"
  }
  node {
    input: "365"
    input: "365_scale"
    input: "365_zero_point"
    output: "365_Conv_33_QuantizeLinear"
    name: "365_Conv_33_QuantizeLinear"
    op_type: "QuantizeLinear"
  }
  node {
    input: "530_quantized"
    input: "530_scale"
    input: "530_zero_point"
    output: "530_dequantized"
    name: "530_DequantizeLinear"
    op_type: "DequantizeLinear"
  }
  node {
    input: "529_quantized"
    input: "529_scale"
    input: "529_zero_point"
    output: "529_dequantized"
    name: "529_DequantizeLinear"
    op_type: "DequantizeLinear"
  }
  node {
    input: "365_Conv_33_QuantizeLinear"
    input: "365_scale"
    input: "365_zero_point"
    output: "365_Conv_33_dequantized"
    name: "365_Conv_33_DequantizeLinear"
    op_type: "DequantizeLinear"
  }
  node {
    input: "365_Conv_33_dequantized"
    input: "529_dequantized"
    input: "530_dequantized"
    output: "528_QuantizeInput"
    name: "Conv_33_quant"
    op_type: "Conv"
    attribute {
      name: "dilations"
      ints: 1
      ints: 1
      type: INTS
    }
    attribute {
      name: "group"
      i: 1
      type: INT
    }
    attribute {
      name: "kernel_shape"
      ints: 1
      ints: 1
      type: INTS
    }
    attribute {
      name: "pads"
      ints: 0
      ints: 0
      ints: 0
      ints: 0
      type: INTS
    }
    attribute {
      name: "strides"
      ints: 1
      ints: 1
      type: INTS
    }
  }
  node {
    input: "528_QuantizeInput"
    input: "528_scale"
    input: "528_zero_point"
    output: "528_quantized"
    name: "528_Conv_33_QuantizeLinear"
    op_type: "QuantizeLinear"
  }
  node {
    input: "533_quantized"
    input: "533_scale"
    input: "533_zero_point"
    output: "533_dequantized"
    name: "533_DequantizeLinear"
    op_type: "DequantizeLinear"
  }
  node {
    input: "532_quantized"
    input: "532_scale"
    input: "532_zero_point"
    output: "532_dequantized"
    name: "532_DequantizeLinear"
    op_type: "DequantizeLinear"
  }
  node {
    input: "528_quantized"
    input: "528_scale"
    input: "528_zero_point"
    output: "528_Conv_35_dequantized"
    name: "528_Conv_35_DequantizeLinear"
    op_type: "DequantizeLinear"
  }
  node {
    input: "528_Conv_35_dequantized"
    input: "532_dequantized"
    input: "533_dequantized"
    output: "531_QuantizeInput"
    name: "Conv_35_quant"
    op_type: "Conv"
    attribute {
      name: "dilations"
      ints: 1
      ints: 1
      type: INTS
    }
    attribute {
      name: "group"
      i: 192
      type: INT
    }
    attribute {
      name: "kernel_shape"
      ints: 3
      ints: 3
      type: INTS
    }
    attribute {
      name: "pads"
      ints: 1
      ints: 1
      ints: 1
      ints: 1
      type: INTS
    }
    attribute {
      name: "strides"
      ints: 2
      ints: 2
      type: INTS
    }
  }
  node {
    input: "531_QuantizeInput"
    input: "531_scale"
    input: "531_zero_point"
    output: "531_quantized"
    name: "531_Conv_35_QuantizeLinear"
    op_type: "QuantizeLinear"
  }
  node {
    input: "536_quantized"
    input: "536_scale"
    input: "536_zero_point"
    output: "536_dequantized"
    name: "536_DequantizeLinear"
    op_type: "DequantizeLinear"
  }
  node {
    input: "535_quantized"
    input: "535_scale"
    input: "535_zero_point"
    output: "535_dequantized"
    name: "535_DequantizeLinear"
    op_type: "DequantizeLinear"
  }
  node {
    input: "531_quantized"
    input: "531_scale"
    input: "531_zero_point"
    output: "531_Conv_37_dequantized"
    name: "531_Conv_37_DequantizeLinear"
    op_type: "DequantizeLinear"
  }
  node {
    input: "531_Conv_37_dequantized"
    input: "535_dequantized"
    input: "536_dequantized"
    output: "534_QuantizeInput"
    name: "Conv_37_quant"
    op_type: "Conv"
    attribute {
      name: "dilations"
      ints: 1
      ints: 1
      type: INTS
    }
    attribute {
      name: "group"
      i: 1
      type: INT
    }
    attribute {
      name: "kernel_shape"
      ints: 1
      ints: 1
      type: INTS
    }
    attribute {
      name: "pads"
      ints: 0
      ints: 0
      ints: 0
      ints: 0
      type: INTS
    }
    attribute {
      name: "strides"
      ints: 1
      ints: 1
      type: INTS
    }
  }
  node {
    input: "534_QuantizeInput"
    input: "534_scale"
    input: "534_zero_point"
    output: "534_quantized"
    name: "534_Conv_37_QuantizeLinear"
    op_type: "QuantizeLinear"
  }
  node {
    input: "539_quantized"
    input: "539_scale"
    input: "539_zero_point"
    output: "539_dequantized"
    name: "539_DequantizeLinear"
    op_type: "DequantizeLinear"
  }
  node {
    input: "538_quantized"
    input: "538_scale"
    input: "538_zero_point"
    output: "538_dequantized"
    name: "538_DequantizeLinear"
    op_type: "DequantizeLinear"
  }
  node {
    input: "542_quantized"
    input: "542_scale"
    input: "542_zero_point"
    output: "542_dequantized"
    name: "542_DequantizeLinear"
    op_type: "DequantizeLinear"
  }
  node {
    input: "541_quantized"
    input: "541_scale"
    input: "541_zero_point"
    output: "541_dequantized"
    name: "541_DequantizeLinear"
    op_type: "DequantizeLinear"
  }
  node {
    input: "534_quantized"
    input: "534_scale"
    input: "534_zero_point"
    output: "534"
    name: "534_Conv_37_DequantizeLinear"
    op_type: "DequantizeLinear"
  }
  node {
    input: "534"
    input: "538_dequantized"
    input: "539_dequantized"
    output: "537_QuantizeInput"
    name: "Conv_38_quant"
    op_type: "Conv"
    attribute {
      name: "dilations"
      ints: 1
      ints: 1
      type: INTS
    }
    attribute {
      name: "group"
      i: 1
      type: INT
    }
    attribute {
      name: "kernel_shape"
      ints: 1
      ints: 1
      type: INTS
    }
    attribute {
      name: "pads"
      ints: 0
      ints: 0
      ints: 0
      ints: 0
      type: INTS
    }
    attribute {
      name: "strides"
      ints: 1
      ints: 1
      type: INTS
    }
  }
  node {
    input: "537_QuantizeInput"
    input: "537_scale"
    input: "537_zero_point"
    output: "537_quantized"
    name: "537_Conv_38_QuantizeLinear"
    op_type: "QuantizeLinear"
  }
  node {
    input: "537_quantized"
    input: "537_scale"
    input: "537_zero_point"
    output: "537_Conv_40_dequantized"
    name: "537_Conv_40_DequantizeLinear"
    op_type: "DequantizeLinear"
  }
  node {
    input: "537_Conv_40_dequantized"
    input: "541_dequantized"
    input: "542_dequantized"
    output: "540_QuantizeInput"
    name: "Conv_40_quant"
    op_type: "Conv"
    attribute {
      name: "dilations"
      ints: 1
      ints: 1
      type: INTS
    }
    attribute {
      name: "group"
      i: 384
      type: INT
    }
    attribute {
      name: "kernel_shape"
      ints: 3
      ints: 3
      type: INTS
    }
    attribute {
      name: "pads"
      ints: 1
      ints: 1
      ints: 1
      ints: 1
      type: INTS
    }
    attribute {
      name: "strides"
      ints: 1
      ints: 1
      type: INTS
    }
  }
  node {
    input: "540_QuantizeInput"
    input: "540_scale"
    input: "540_zero_point"
    output: "540_quantized"
    name: "540_Conv_40_QuantizeLinear"
    op_type: "QuantizeLinear"
  }
  node {
    input: "545_quantized"
    input: "545_scale"
    input: "545_zero_point"
    output: "545_dequantized"
    name: "545_DequantizeLinear"
    op_type: "DequantizeLinear"
  }
  node {
    input: "544_quantized"
    input: "544_scale"
    input: "544_zero_point"
    output: "544_dequantized"
    name: "544_DequantizeLinear"
    op_type: "DequantizeLinear"
  }
  node {
    input: "540_quantized"
    input: "540_scale"
    input: "540_zero_point"
    output: "540_Conv_42_dequantized"
    name: "540_Conv_42_DequantizeLinear"
    op_type: "DequantizeLinear"
  }
  node {
    input: "540_Conv_42_dequantized"
    input: "544_dequantized"
    input: "545_dequantized"
    output: "543_QuantizeInput"
    name: "Conv_42_quant"
    op_type: "Conv"
    attribute {
      name: "dilations"
      ints: 1
      ints: 1
      type: INTS
    }
    attribute {
      name: "group"
      i: 1
      type: INT
    }
    attribute {
      name: "kernel_shape"
      ints: 1
      ints: 1
      type: INTS
    }
    attribute {
      name: "pads"
      ints: 0
      ints: 0
      ints: 0
      ints: 0
      type: INTS
    }
    attribute {
      name: "strides"
      ints: 1
      ints: 1
      type: INTS
    }
  }
  node {
    input: "543_QuantizeInput"
    input: "543_scale"
    input: "543_zero_point"
    output: "543_quantized"
    name: "543_Conv_42_QuantizeLinear"
    op_type: "QuantizeLinear"
  }
  node {
    input: "543_quantized"
    input: "543_scale"
    input: "543_zero_point"
    output: "543"
    name: "543_Conv_42_DequantizeLinear"
    op_type: "DequantizeLinear"
  }
  node {
    input: "548_quantized"
    input: "548_scale"
    input: "548_zero_point"
    output: "548_dequantized"
    name: "548_DequantizeLinear"
    op_type: "DequantizeLinear"
  }
  node {
    input: "547_quantized"
    input: "547_scale"
    input: "547_zero_point"
    output: "547_dequantized"
    name: "547_DequantizeLinear"
    op_type: "DequantizeLinear"
  }
  node {
    input: "551_quantized"
    input: "551_scale"
    input: "551_zero_point"
    output: "551_dequantized"
    name: "551_DequantizeLinear"
    op_type: "DequantizeLinear"
  }
  node {
    input: "550_quantized"
    input: "550_scale"
    input: "550_zero_point"
    output: "550_dequantized"
    name: "550_DequantizeLinear"
    op_type: "DequantizeLinear"
  }
  node {
    input: "534"
    input: "543"
    output: "382"
    name: "Add_43"
    op_type: "Add"
  }
  node {
    input: "382"
    input: "382_scale"
    input: "382_zero_point"
    output: "382_Conv_44_QuantizeLinear"
    name: "382_Conv_44_QuantizeLinear"
    op_type: "QuantizeLinear"
  }
  node {
    input: "382_Conv_44_QuantizeLinear"
    input: "382_scale"
    input: "382_zero_point"
    output: "382_Conv_44_dequantized"
    name: "382_Conv_44_DequantizeLinear"
    op_type: "DequantizeLinear"
  }
  node {
    input: "382_Conv_44_dequantized"
    input: "547_dequantized"
    input: "548_dequantized"
    output: "546_QuantizeInput"
    name: "Conv_44_quant"
    op_type: "Conv"
    attribute {
      name: "dilations"
      ints: 1
      ints: 1
      type: INTS
    }
    attribute {
      name: "group"
      i: 1
      type: INT
    }
    attribute {
      name: "kernel_shape"
      ints: 1
      ints: 1
      type: INTS
    }
    attribute {
      name: "pads"
      ints: 0
      ints: 0
      ints: 0
      ints: 0
      type: INTS
    }
    attribute {
      name: "strides"
      ints: 1
      ints: 1
      type: INTS
    }
  }
  node {
    input: "546_QuantizeInput"
    input: "546_scale"
    input: "546_zero_point"
    output: "546_quantized"
    name: "546_Conv_44_QuantizeLinear"
    op_type: "QuantizeLinear"
  }
  node {
    input: "546_quantized"
    input: "546_scale"
    input: "546_zero_point"
    output: "546_Conv_46_dequantized"
    name: "546_Conv_46_DequantizeLinear"
    op_type: "DequantizeLinear"
  }
  node {
    input: "546_Conv_46_dequantized"
    input: "550_dequantized"
    input: "551_dequantized"
    output: "549_QuantizeInput"
    name: "Conv_46_quant"
    op_type: "Conv"
    attribute {
      name: "dilations"
      ints: 1
      ints: 1
      type: INTS
    }
    attribute {
      name: "group"
      i: 384
      type: INT
    }
    attribute {
      name: "kernel_shape"
      ints: 3
      ints: 3
      type: INTS
    }
    attribute {
      name: "pads"
      ints: 1
      ints: 1
      ints: 1
      ints: 1
      type: INTS
    }
    attribute {
      name: "strides"
      ints: 1
      ints: 1
      type: INTS
    }
  }
  node {
    input: "549_QuantizeInput"
    input: "549_scale"
    input: "549_zero_point"
    output: "549_quantized"
    name: "549_Conv_46_QuantizeLinear"
    op_type: "QuantizeLinear"
  }
  node {
    input: "554_quantized"
    input: "554_scale"
    input: "554_zero_point"
    output: "554_dequantized"
    name: "554_DequantizeLinear"
    op_type: "DequantizeLinear"
  }
  node {
    input: "553_quantized"
    input: "553_scale"
    input: "553_zero_point"
    output: "553_dequantized"
    name: "553_DequantizeLinear"
    op_type: "DequantizeLinear"
  }
  node {
    input: "549_quantized"
    input: "549_scale"
    input: "549_zero_point"
    output: "549_Conv_48_dequantized"
    name: "549_Conv_48_DequantizeLinear"
    op_type: "DequantizeLinear"
  }
  node {
    input: "549_Conv_48_dequantized"
    input: "553_dequantized"
    input: "554_dequantized"
    output: "552_QuantizeInput"
    name: "Conv_48_quant"
    op_type: "Conv"
    attribute {
      name: "dilations"
      ints: 1
      ints: 1
      type: INTS
    }
    attribute {
      name: "group"
      i: 1
      type: INT
    }
    attribute {
      name: "kernel_shape"
      ints: 1
      ints: 1
      type: INTS
    }
    attribute {
      name: "pads"
      ints: 0
      ints: 0
      ints: 0
      ints: 0
      type: INTS
    }
    attribute {
      name: "strides"
      ints: 1
      ints: 1
      type: INTS
    }
  }
  node {
    input: "552_QuantizeInput"
    input: "552_scale"
    input: "552_zero_point"
    output: "552_quantized"
    name: "552_Conv_48_QuantizeLinear"
    op_type: "QuantizeLinear"
  }
  node {
    input: "552_quantized"
    input: "552_scale"
    input: "552_zero_point"
    output: "552"
    name: "552_Conv_48_DequantizeLinear"
    op_type: "DequantizeLinear"
  }
  node {
    input: "557_quantized"
    input: "557_scale"
    input: "557_zero_point"
    output: "557_dequantized"
    name: "557_DequantizeLinear"
    op_type: "DequantizeLinear"
  }
  node {
    input: "556_quantized"
    input: "556_scale"
    input: "556_zero_point"
    output: "556_dequantized"
    name: "556_DequantizeLinear"
    op_type: "DequantizeLinear"
  }
  node {
    input: "560_quantized"
    input: "560_scale"
    input: "560_zero_point"
    output: "560_dequantized"
    name: "560_DequantizeLinear"
    op_type: "DequantizeLinear"
  }
  node {
    input: "559_quantized"
    input: "559_scale"
    input: "559_zero_point"
    output: "559_dequantized"
    name: "559_DequantizeLinear"
    op_type: "DequantizeLinear"
  }
  node {
    input: "382"
    input: "552"
    output: "391"
    name: "Add_49"
    op_type: "Add"
  }
  node {
    input: "391"
    input: "391_scale"
    input: "391_zero_point"
    output: "391_Conv_50_QuantizeLinear"
    name: "391_Conv_50_QuantizeLinear"
    op_type: "QuantizeLinear"
  }
  node {
    input: "391_Conv_50_QuantizeLinear"
    input: "391_scale"
    input: "391_zero_point"
    output: "391_Conv_50_dequantized"
    name: "391_Conv_50_DequantizeLinear"
    op_type: "DequantizeLinear"
  }
  node {
    input: "391_Conv_50_dequantized"
    input: "556_dequantized"
    input: "557_dequantized"
    output: "555_QuantizeInput"
    name: "Conv_50_quant"
    op_type: "Conv"
    attribute {
      name: "dilations"
      ints: 1
      ints: 1
      type: INTS
    }
    attribute {
      name: "group"
      i: 1
      type: INT
    }
    attribute {
      name: "kernel_shape"
      ints: 1
      ints: 1
      type: INTS
    }
    attribute {
      name: "pads"
      ints: 0
      ints: 0
      ints: 0
      ints: 0
      type: INTS
    }
    attribute {
      name: "strides"
      ints: 1
      ints: 1
      type: INTS
    }
  }
  node {
    input: "555_QuantizeInput"
    input: "555_scale"
    input: "555_zero_point"
    output: "555_quantized"
    name: "555_Conv_50_QuantizeLinear"
    op_type: "QuantizeLinear"
  }
  node {
    input: "555_quantized"
    input: "555_scale"
    input: "555_zero_point"
    output: "555_Conv_52_dequantized"
    name: "555_Conv_52_DequantizeLinear"
    op_type: "DequantizeLinear"
  }
  node {
    input: "555_Conv_52_dequantized"
    input: "559_dequantized"
    input: "560_dequantized"
    output: "558_QuantizeInput"
    name: "Conv_52_quant"
    op_type: "Conv"
    attribute {
      name: "dilations"
      ints: 1
      ints: 1
      type: INTS
    }
    attribute {
      name: "group"
      i: 384
      type: INT
    }
    attribute {
      name: "kernel_shape"
      ints: 3
      ints: 3
      type: INTS
    }
    attribute {
      name: "pads"
      ints: 1
      ints: 1
      ints: 1
      ints: 1
      type: INTS
    }
    attribute {
      name: "strides"
      ints: 1
      ints: 1
      type: INTS
    }
  }
  node {
    input: "558_QuantizeInput"
    input: "558_scale"
    input: "558_zero_point"
    output: "558_quantized"
    name: "558_Conv_52_QuantizeLinear"
    op_type: "QuantizeLinear"
  }
  node {
    input: "563_quantized"
    input: "563_scale"
    input: "563_zero_point"
    output: "563_dequantized"
    name: "563_DequantizeLinear"
    op_type: "DequantizeLinear"
  }
  node {
    input: "562_quantized"
    input: "562_scale"
    input: "562_zero_point"
    output: "562_dequantized"
    name: "562_DequantizeLinear"
    op_type: "DequantizeLinear"
  }
  node {
    input: "558_quantized"
    input: "558_scale"
    input: "558_zero_point"
    output: "558_Conv_54_dequantized"
    name: "558_Conv_54_DequantizeLinear"
    op_type: "DequantizeLinear"
  }
  node {
    input: "558_Conv_54_dequantized"
    input: "562_dequantized"
    input: "563_dequantized"
    output: "561_QuantizeInput"
    name: "Conv_54_quant"
    op_type: "Conv"
    attribute {
      name: "dilations"
      ints: 1
      ints: 1
      type: INTS
    }
    attribute {
      name: "group"
      i: 1
      type: INT
    }
    attribute {
      name: "kernel_shape"
      ints: 1
      ints: 1
      type: INTS
    }
    attribute {
      name: "pads"
      ints: 0
      ints: 0
      ints: 0
      ints: 0
      type: INTS
    }
    attribute {
      name: "strides"
      ints: 1
      ints: 1
      type: INTS
    }
  }
  node {
    input: "561_QuantizeInput"
    input: "561_scale"
    input: "561_zero_point"
    output: "561_quantized"
    name: "561_Conv_54_QuantizeLinear"
    op_type: "QuantizeLinear"
  }
  node {
    input: "561_quantized"
    input: "561_scale"
    input: "561_zero_point"
    output: "561"
    name: "561_Conv_54_DequantizeLinear"
    op_type: "DequantizeLinear"
  }
  node {
    input: "391"
    input: "561"
    output: "400"
    name: "Add_55"
    op_type: "Add"
  }
  node {
    input: "400"
    input: "400_scale"
    input: "400_zero_point"
    output: "400_Conv_56_QuantizeLinear"
    name: "400_Conv_56_QuantizeLinear"
    op_type: "QuantizeLinear"
  }
  node {
    input: "566_quantized"
    input: "566_scale"
    input: "566_zero_point"
    output: "566_dequantized"
    name: "566_DequantizeLinear"
    op_type: "DequantizeLinear"
  }
  node {
    input: "565_quantized"
    input: "565_scale"
    input: "565_zero_point"
    output: "565_dequantized"
    name: "565_DequantizeLinear"
    op_type: "DequantizeLinear"
  }
  node {
    input: "400_Conv_56_QuantizeLinear"
    input: "400_scale"
    input: "400_zero_point"
    output: "400_Conv_56_dequantized"
    name: "400_Conv_56_DequantizeLinear"
    op_type: "DequantizeLinear"
  }
  node {
    input: "400_Conv_56_dequantized"
    input: "565_dequantized"
    input: "566_dequantized"
    output: "564_QuantizeInput"
    name: "Conv_56_quant"
    op_type: "Conv"
    attribute {
      name: "dilations"
      ints: 1
      ints: 1
      type: INTS
    }
    attribute {
      name: "group"
      i: 1
      type: INT
    }
    attribute {
      name: "kernel_shape"
      ints: 1
      ints: 1
      type: INTS
    }
    attribute {
      name: "pads"
      ints: 0
      ints: 0
      ints: 0
      ints: 0
      type: INTS
    }
    attribute {
      name: "strides"
      ints: 1
      ints: 1
      type: INTS
    }
  }
  node {
    input: "564_QuantizeInput"
    input: "564_scale"
    input: "564_zero_point"
    output: "564_quantized"
    name: "564_Conv_56_QuantizeLinear"
    op_type: "QuantizeLinear"
  }
  node {
    input: "569_quantized"
    input: "569_scale"
    input: "569_zero_point"
    output: "569_dequantized"
    name: "569_DequantizeLinear"
    op_type: "DequantizeLinear"
  }
  node {
    input: "568_quantized"
    input: "568_scale"
    input: "568_zero_point"
    output: "568_dequantized"
    name: "568_DequantizeLinear"
    op_type: "DequantizeLinear"
  }
  node {
    input: "564_quantized"
    input: "564_scale"
    input: "564_zero_point"
    output: "564_Conv_58_dequantized"
    name: "564_Conv_58_DequantizeLinear"
    op_type: "DequantizeLinear"
  }
  node {
    input: "564_Conv_58_dequantized"
    input: "568_dequantized"
    input: "569_dequantized"
    output: "567_QuantizeInput"
    name: "Conv_58_quant"
    op_type: "Conv"
    attribute {
      name: "dilations"
      ints: 1
      ints: 1
      type: INTS
    }
    attribute {
      name: "group"
      i: 384
      type: INT
    }
    attribute {
      name: "kernel_shape"
      ints: 3
      ints: 3
      type: INTS
    }
    attribute {
      name: "pads"
      ints: 1
      ints: 1
      ints: 1
      ints: 1
      type: INTS
    }
    attribute {
      name: "strides"
      ints: 1
      ints: 1
      type: INTS
    }
  }
  node {
    input: "567_QuantizeInput"
    input: "567_scale"
    input: "567_zero_point"
    output: "567_quantized"
    name: "567_Conv_58_QuantizeLinear"
    op_type: "QuantizeLinear"
  }
  node {
    input: "572_quantized"
    input: "572_scale"
    input: "572_zero_point"
    output: "572_dequantized"
    name: "572_DequantizeLinear"
    op_type: "DequantizeLinear"
  }
  node {
    input: "571_quantized"
    input: "571_scale"
    input: "571_zero_point"
    output: "571_dequantized"
    name: "571_DequantizeLinear"
    op_type: "DequantizeLinear"
  }
  node {
    input: "567_quantized"
    input: "567_scale"
    input: "567_zero_point"
    output: "567_Conv_60_dequantized"
    name: "567_Conv_60_DequantizeLinear"
    op_type: "DequantizeLinear"
  }
  node {
    input: "567_Conv_60_dequantized"
    input: "571_dequantized"
    input: "572_dequantized"
    output: "570_QuantizeInput"
    name: "Conv_60_quant"
    op_type: "Conv"
    attribute {
      name: "dilations"
      ints: 1
      ints: 1
      type: INTS
    }
    attribute {
      name: "group"
      i: 1
      type: INT
    }
    attribute {
      name: "kernel_shape"
      ints: 1
      ints: 1
      type: INTS
    }
    attribute {
      name: "pads"
      ints: 0
      ints: 0
      ints: 0
      ints: 0
      type: INTS
    }
    attribute {
      name: "strides"
      ints: 1
      ints: 1
      type: INTS
    }
  }
  node {
    input: "570_QuantizeInput"
    input: "570_scale"
    input: "570_zero_point"
    output: "570_quantized"
    name: "570_Conv_60_QuantizeLinear"
    op_type: "QuantizeLinear"
  }
  node {
    input: "575_quantized"
    input: "575_scale"
    input: "575_zero_point"
    output: "575_dequantized"
    name: "575_DequantizeLinear"
    op_type: "DequantizeLinear"
  }
  node {
    input: "574_quantized"
    input: "574_scale"
    input: "574_zero_point"
    output: "574_dequantized"
    name: "574_DequantizeLinear"
    op_type: "DequantizeLinear"
  }
  node {
    input: "578_quantized"
    input: "578_scale"
    input: "578_zero_point"
    output: "578_dequantized"
    name: "578_DequantizeLinear"
    op_type: "DequantizeLinear"
  }
  node {
    input: "577_quantized"
    input: "577_scale"
    input: "577_zero_point"
    output: "577_dequantized"
    name: "577_DequantizeLinear"
    op_type: "DequantizeLinear"
  }
  node {
    input: "570_quantized"
    input: "570_scale"
    input: "570_zero_point"
    output: "570"
    name: "570_Conv_60_DequantizeLinear"
    op_type: "DequantizeLinear"
  }
  node {
    input: "570"
    input: "574_dequantized"
    input: "575_dequantized"
    output: "573_QuantizeInput"
    name: "Conv_61_quant"
    op_type: "Conv"
    attribute {
      name: "dilations"
      ints: 1
      ints: 1
      type: INTS
    }
    attribute {
      name: "group"
      i: 1
      type: INT
    }
    attribute {
      name: "kernel_shape"
      ints: 1
      ints: 1
      type: INTS
    }
    attribute {
      name: "pads"
      ints: 0
      ints: 0
      ints: 0
      ints: 0
      type: INTS
    }
    attribute {
      name: "strides"
      ints: 1
      ints: 1
      type: INTS
    }
  }
  node {
    input: "573_QuantizeInput"
    input: "573_scale"
    input: "573_zero_point"
    output: "573_quantized"
    name: "573_Conv_61_QuantizeLinear"
    op_type: "QuantizeLinear"
  }
  node {
    input: "573_quantized"
    input: "573_scale"
    input: "573_zero_point"
    output: "573_Conv_63_dequantized"
    name: "573_Conv_63_DequantizeLinear"
    op_type: "DequantizeLinear"
  }
  node {
    input: "573_Conv_63_dequantized"
    input: "577_dequantized"
    input: "578_dequantized"
    output: "576_QuantizeInput"
    name: "Conv_63_quant"
    op_type: "Conv"
    attribute {
      name: "dilations"
      ints: 1
      ints: 1
      type: INTS
    }
    attribute {
      name: "group"
      i: 576
      type: INT
    }
    attribute {
      name: "kernel_shape"
      ints: 3
      ints: 3
      type: INTS
    }
    attribute {
      name: "pads"
      ints: 1
      ints: 1
      ints: 1
      ints: 1
      type: INTS
    }
    attribute {
      name: "strides"
      ints: 1
      ints: 1
      type: INTS
    }
  }
  node {
    input: "576_QuantizeInput"
    input: "576_scale"
    input: "576_zero_point"
    output: "576_quantized"
    name: "576_Conv_63_QuantizeLinear"
    op_type: "QuantizeLinear"
  }
  node {
    input: "581_quantized"
    input: "581_scale"
    input: "581_zero_point"
    output: "581_dequantized"
    name: "581_DequantizeLinear"
    op_type: "DequantizeLinear"
  }
  node {
    input: "580_quantized"
    input: "580_scale"
    input: "580_zero_point"
    output: "580_dequantized"
    name: "580_DequantizeLinear"
    op_type: "DequantizeLinear"
  }
  node {
    input: "576_quantized"
    input: "576_scale"
    input: "576_zero_point"
    output: "576_Conv_65_dequantized"
    name: "576_Conv_65_DequantizeLinear"
    op_type: "DequantizeLinear"
  }
  node {
    input: "576_Conv_65_dequantized"
    input: "580_dequantized"
    input: "581_dequantized"
    output: "579_QuantizeInput"
    name: "Conv_65_quant"
    op_type: "Conv"
    attribute {
      name: "dilations"
      ints: 1
      ints: 1
      type: INTS
    }
    attribute {
      name: "group"
      i: 1
      type: INT
    }
    attribute {
      name: "kernel_shape"
      ints: 1
      ints: 1
      type: INTS
    }
    attribute {
      name: "pads"
      ints: 0
      ints: 0
      ints: 0
      ints: 0
      type: INTS
    }
    attribute {
      name: "strides"
      ints: 1
      ints: 1
      type: INTS
    }
  }
  node {
    input: "579_QuantizeInput"
    input: "579_scale"
    input: "579_zero_point"
    output: "579_quantized"
    name: "579_Conv_65_QuantizeLinear"
    op_type: "QuantizeLinear"
  }
  node {
    input: "579_quantized"
    input: "579_scale"
    input: "579_zero_point"
    output: "579"
    name: "579_Conv_65_DequantizeLinear"
    op_type: "DequantizeLinear"
  }
  node {
    input: "584_quantized"
    input: "584_scale"
    input: "584_zero_point"
    output: "584_dequantized"
    name: "584_DequantizeLinear"
    op_type: "DequantizeLinear"
  }
  node {
    input: "583_quantized"
    input: "583_scale"
    input: "583_zero_point"
    output: "583_dequantized"
    name: "583_DequantizeLinear"
    op_type: "DequantizeLinear"
  }
  node {
    input: "587_quantized"
    input: "587_scale"
    input: "587_zero_point"
    output: "587_dequantized"
    name: "587_DequantizeLinear"
    op_type: "DequantizeLinear"
  }
  node {
    input: "586_quantized"
    input: "586_scale"
    input: "586_zero_point"
    output: "586_dequantized"
    name: "586_DequantizeLinear"
    op_type: "DequantizeLinear"
  }
  node {
    input: "570"
    input: "579"
    output: "417"
    name: "Add_66"
    op_type: "Add"
  }
  node {
    input: "417"
    input: "417_scale"
    input: "417_zero_point"
    output: "417_Conv_67_QuantizeLinear"
    name: "417_Conv_67_QuantizeLinear"
    op_type: "QuantizeLinear"
  }
  node {
    input: "417_Conv_67_QuantizeLinear"
    input: "417_scale"
    input: "417_zero_point"
    output: "417_Conv_67_dequantized"
    name: "417_Conv_67_DequantizeLinear"
    op_type: "DequantizeLinear"
  }
  node {
    input: "417_Conv_67_dequantized"
    input: "583_dequantized"
    input: "584_dequantized"
    output: "582_QuantizeInput"
    name: "Conv_67_quant"
    op_type: "Conv"
    attribute {
      name: "dilations"
      ints: 1
      ints: 1
      type: INTS
    }
    attribute {
      name: "group"
      i: 1
      type: INT
    }
    attribute {
      name: "kernel_shape"
      ints: 1
      ints: 1
      type: INTS
    }
    attribute {
      name: "pads"
      ints: 0
      ints: 0
      ints: 0
      ints: 0
      type: INTS
    }
    attribute {
      name: "strides"
      ints: 1
      ints: 1
      type: INTS
    }
  }
  node {
    input: "582_QuantizeInput"
    input: "582_scale"
    input: "582_zero_point"
    output: "582_quantized"
    name: "582_Conv_67_QuantizeLinear"
    op_type: "QuantizeLinear"
  }
  node {
    input: "582_quantized"
    input: "582_scale"
    input: "582_zero_point"
    output: "582_Conv_69_dequantized"
    name: "582_Conv_69_DequantizeLinear"
    op_type: "DequantizeLinear"
  }
  node {
    input: "582_Conv_69_dequantized"
    input: "586_dequantized"
    input: "587_dequantized"
    output: "585_QuantizeInput"
    name: "Conv_69_quant"
    op_type: "Conv"
    attribute {
      name: "dilations"
      ints: 1
      ints: 1
      type: INTS
    }
    attribute {
      name: "group"
      i: 576
      type: INT
    }
    attribute {
      name: "kernel_shape"
      ints: 3
      ints: 3
      type: INTS
    }
    attribute {
      name: "pads"
      ints: 1
      ints: 1
      ints: 1
      ints: 1
      type: INTS
    }
    attribute {
      name: "strides"
      ints: 1
      ints: 1
      type: INTS
    }
  }
  node {
    input: "585_QuantizeInput"
    input: "585_scale"
    input: "585_zero_point"
    output: "585_quantized"
    name: "585_Conv_69_QuantizeLinear"
    op_type: "QuantizeLinear"
  }
  node {
    input: "590_quantized"
    input: "590_scale"
    input: "590_zero_point"
    output: "590_dequantized"
    name: "590_DequantizeLinear"
    op_type: "DequantizeLinear"
  }
  node {
    input: "589_quantized"
    input: "589_scale"
    input: "589_zero_point"
    output: "589_dequantized"
    name: "589_DequantizeLinear"
    op_type: "DequantizeLinear"
  }
  node {
    input: "585_quantized"
    input: "585_scale"
    input: "585_zero_point"
    output: "585_Conv_71_dequantized"
    name: "585_Conv_71_DequantizeLinear"
    op_type: "DequantizeLinear"
  }
  node {
    input: "585_Conv_71_dequantized"
    input: "589_dequantized"
    input: "590_dequantized"
    output: "588_QuantizeInput"
    name: "Conv_71_quant"
    op_type: "Conv"
    attribute {
      name: "dilations"
      ints: 1
      ints: 1
      type: INTS
    }
    attribute {
      name: "group"
      i: 1
      type: INT
    }
    attribute {
      name: "kernel_shape"
      ints: 1
      ints: 1
      type: INTS
    }
    attribute {
      name: "pads"
      ints: 0
      ints: 0
      ints: 0
      ints: 0
      type: INTS
    }
    attribute {
      name: "strides"
      ints: 1
      ints: 1
      type: INTS
    }
  }
  node {
    input: "588_QuantizeInput"
    input: "588_scale"
    input: "588_zero_point"
    output: "588_quantized"
    name: "588_Conv_71_QuantizeLinear"
    op_type: "QuantizeLinear"
  }
  node {
    input: "588_quantized"
    input: "588_scale"
    input: "588_zero_point"
    output: "588"
    name: "588_Conv_71_DequantizeLinear"
    op_type: "DequantizeLinear"
  }
  node {
    input: "417"
    input: "588"
    output: "426"
    name: "Add_72"
    op_type: "Add"
  }
  node {
    input: "426"
    input: "426_scale"
    input: "426_zero_point"
    output: "426_Conv_73_QuantizeLinear"
    name: "426_Conv_73_QuantizeLinear"
    op_type: "QuantizeLinear"
  }
  node {
    input: "593_quantized"
    input: "593_scale"
    input: "593_zero_point"
    output: "593_dequantized"
    name: "593_DequantizeLinear"
    op_type: "DequantizeLinear"
  }
  node {
    input: "592_quantized"
    input: "592_scale"
    input: "592_zero_point"
    output: "592_dequantized"
    name: "592_DequantizeLinear"
    op_type: "DequantizeLinear"
  }
  node {
    input: "426_Conv_73_QuantizeLinear"
    input: "426_scale"
    input: "426_zero_point"
    output: "426_Conv_73_dequantized"
    name: "426_Conv_73_DequantizeLinear"
    op_type: "DequantizeLinear"
  }
  node {
    input: "426_Conv_73_dequantized"
    input: "592_dequantized"
    input: "593_dequantized"
    output: "591_QuantizeInput"
    name: "Conv_73_quant"
    op_type: "Conv"
    attribute {
      name: "dilations"
      ints: 1
      ints: 1
      type: INTS
    }
    attribute {
      name: "group"
      i: 1
      type: INT
    }
    attribute {
      name: "kernel_shape"
      ints: 1
      ints: 1
      type: INTS
    }
    attribute {
      name: "pads"
      ints: 0
      ints: 0
      ints: 0
      ints: 0
      type: INTS
    }
    attribute {
      name: "strides"
      ints: 1
      ints: 1
      type: INTS
    }
  }
  node {
    input: "591_QuantizeInput"
    input: "591_scale"
    input: "591_zero_point"
    output: "591_quantized"
    name: "591_Conv_73_QuantizeLinear"
    op_type: "QuantizeLinear"
  }
  node {
    input: "596_quantized"
    input: "596_scale"
    input: "596_zero_point"
    output: "596_dequantized"
    name: "596_DequantizeLinear"
    op_type: "DequantizeLinear"
  }
  node {
    input: "595_quantized"
    input: "595_scale"
    input: "595_zero_point"
    output: "595_dequantized"
    name: "595_DequantizeLinear"
    op_type: "DequantizeLinear"
  }
  node {
    input: "591_quantized"
    input: "591_scale"
    input: "591_zero_point"
    output: "591_Conv_75_dequantized"
    name: "591_Conv_75_DequantizeLinear"
    op_type: "DequantizeLinear"
  }
  node {
    input: "591_Conv_75_dequantized"
    input: "595_dequantized"
    input: "596_dequantized"
    output: "594_QuantizeInput"
    name: "Conv_75_quant"
    op_type: "Conv"
    attribute {
      name: "dilations"
      ints: 1
      ints: 1
      type: INTS
    }
    attribute {
      name: "group"
      i: 576
      type: INT
    }
    attribute {
      name: "kernel_shape"
      ints: 3
      ints: 3
      type: INTS
    }
    attribute {
      name: "pads"
      ints: 1
      ints: 1
      ints: 1
      ints: 1
      type: INTS
    }
    attribute {
      name: "strides"
      ints: 2
      ints: 2
      type: INTS
    }
  }
  node {
    input: "594_QuantizeInput"
    input: "594_scale"
    input: "594_zero_point"
    output: "594_quantized"
    name: "594_Conv_75_QuantizeLinear"
    op_type: "QuantizeLinear"
  }
  node {
    input: "599_quantized"
    input: "599_scale"
    input: "599_zero_point"
    output: "599_dequantized"
    name: "599_DequantizeLinear"
    op_type: "DequantizeLinear"
  }
  node {
    input: "598_quantized"
    input: "598_scale"
    input: "598_zero_point"
    output: "598_dequantized"
    name: "598_DequantizeLinear"
    op_type: "DequantizeLinear"
  }
  node {
    input: "594_quantized"
    input: "594_scale"
    input: "594_zero_point"
    output: "594_Conv_77_dequantized"
    name: "594_Conv_77_DequantizeLinear"
    op_type: "DequantizeLinear"
  }
  node {
    input: "594_Conv_77_dequantized"
    input: "598_dequantized"
    input: "599_dequantized"
    output: "597_QuantizeInput"
    name: "Conv_77_quant"
    op_type: "Conv"
    attribute {
      name: "dilations"
      ints: 1
      ints: 1
      type: INTS
    }
    attribute {
      name: "group"
      i: 1
      type: INT
    }
    attribute {
      name: "kernel_shape"
      ints: 1
      ints: 1
      type: INTS
    }
    attribute {
      name: "pads"
      ints: 0
      ints: 0
      ints: 0
      ints: 0
      type: INTS
    }
    attribute {
      name: "strides"
      ints: 1
      ints: 1
      type: INTS
    }
  }
  node {
    input: "597_QuantizeInput"
    input: "597_scale"
    input: "597_zero_point"
    output: "597_quantized"
    name: "597_Conv_77_QuantizeLinear"
    op_type: "QuantizeLinear"
  }
  node {
    input: "602_quantized"
    input: "602_scale"
    input: "602_zero_point"
    output: "602_dequantized"
    name: "602_DequantizeLinear"
    op_type: "DequantizeLinear"
  }
  node {
    input: "601_quantized"
    input: "601_scale"
    input: "601_zero_point"
    output: "601_dequantized"
    name: "601_DequantizeLinear"
    op_type: "DequantizeLinear"
  }
  node {
    input: "605_quantized"
    input: "605_scale"
    input: "605_zero_point"
    output: "605_dequantized"
    name: "605_DequantizeLinear"
    op_type: "DequantizeLinear"
  }
  node {
    input: "604_quantized"
    input: "604_scale"
    input: "604_zero_point"
    output: "604_dequantized"
    name: "604_DequantizeLinear"
    op_type: "DequantizeLinear"
  }
  node {
    input: "597_quantized"
    input: "597_scale"
    input: "597_zero_point"
    output: "597"
    name: "597_Conv_77_DequantizeLinear"
    op_type: "DequantizeLinear"
  }
  node {
    input: "597"
    input: "601_dequantized"
    input: "602_dequantized"
    output: "600_QuantizeInput"
    name: "Conv_78_quant"
    op_type: "Conv"
    attribute {
      name: "dilations"
      ints: 1
      ints: 1
      type: INTS
    }
    attribute {
      name: "group"
      i: 1
      type: INT
    }
    attribute {
      name: "kernel_shape"
      ints: 1
      ints: 1
      type: INTS
    }
    attribute {
      name: "pads"
      ints: 0
      ints: 0
      ints: 0
      ints: 0
      type: INTS
    }
    attribute {
      name: "strides"
      ints: 1
      ints: 1
      type: INTS
    }
  }
  node {
    input: "600_QuantizeInput"
    input: "600_scale"
    input: "600_zero_point"
    output: "600_quantized"
    name: "600_Conv_78_QuantizeLinear"
    op_type: "QuantizeLinear"
  }
  node {
    input: "600_quantized"
    input: "600_scale"
    input: "600_zero_point"
    output: "600_Conv_80_dequantized"
    name: "600_Conv_80_DequantizeLinear"
    op_type: "DequantizeLinear"
  }
  node {
    input: "600_Conv_80_dequantized"
    input: "604_dequantized"
    input: "605_dequantized"
    output: "603_QuantizeInput"
    name: "Conv_80_quant"
    op_type: "Conv"
    attribute {
      name: "dilations"
      ints: 1
      ints: 1
      type: INTS
    }
    attribute {
      name: "group"
      i: 960
      type: INT
    }
    attribute {
      name: "kernel_shape"
      ints: 3
      ints: 3
      type: INTS
    }
    attribute {
      name: "pads"
      ints: 1
      ints: 1
      ints: 1
      ints: 1
      type: INTS
    }
    attribute {
      name: "strides"
      ints: 1
      ints: 1
      type: INTS
    }
  }
  node {
    input: "603_QuantizeInput"
    input: "603_scale"
    input: "603_zero_point"
    output: "603_quantized"
    name: "603_Conv_80_QuantizeLinear"
    op_type: "QuantizeLinear"
  }
  node {
    input: "608_quantized"
    input: "608_scale"
    input: "608_zero_point"
    output: "608_dequantized"
    name: "608_DequantizeLinear"
    op_type: "DequantizeLinear"
  }
  node {
    input: "607_quantized"
    input: "607_scale"
    input: "607_zero_point"
    output: "607_dequantized"
    name: "607_DequantizeLinear"
    op_type: "DequantizeLinear"
  }
  node {
    input: "603_quantized"
    input: "603_scale"
    input: "603_zero_point"
    output: "603_Conv_82_dequantized"
    name: "603_Conv_82_DequantizeLinear"
    op_type: "DequantizeLinear"
  }
  node {
    input: "603_Conv_82_dequantized"
    input: "607_dequantized"
    input: "608_dequantized"
    output: "606_QuantizeInput"
    name: "Conv_82_quant"
    op_type: "Conv"
    attribute {
      name: "dilations"
      ints: 1
      ints: 1
      type: INTS
    }
    attribute {
      name: "group"
      i: 1
      type: INT
    }
    attribute {
      name: "kernel_shape"
      ints: 1
      ints: 1
      type: INTS
    }
    attribute {
      name: "pads"
      ints: 0
      ints: 0
      ints: 0
      ints: 0
      type: INTS
    }
    attribute {
      name: "strides"
      ints: 1
      ints: 1
      type: INTS
    }
  }
  node {
    input: "606_QuantizeInput"
    input: "606_scale"
    input: "606_zero_point"
    output: "606_quantized"
    name: "606_Conv_82_QuantizeLinear"
    op_type: "QuantizeLinear"
  }
  node {
    input: "606_quantized"
    input: "606_scale"
    input: "606_zero_point"
    output: "606"
    name: "606_Conv_82_DequantizeLinear"
    op_type: "DequantizeLinear"
  }
  node {
    input: "611_quantized"
    input: "611_scale"
    input: "611_zero_point"
    output: "611_dequantized"
    name: "611_DequantizeLinear"
    op_type: "DequantizeLinear"
  }
  node {
    input: "610_quantized"
    input: "610_scale"
    input: "610_zero_point"
    output: "610_dequantized"
    name: "610_DequantizeLinear"
    op_type: "DequantizeLinear"
  }
  node {
    input: "614_quantized"
    input: "614_scale"
    input: "614_zero_point"
    output: "614_dequantized"
    name: "614_DequantizeLinear"
    op_type: "DequantizeLinear"
  }
  node {
    input: "613_quantized"
    input: "613_scale"
    input: "613_zero_point"
    output: "613_dequantized"
    name: "613_DequantizeLinear"
    op_type: "DequantizeLinear"
  }
  node {
    input: "597"
    input: "606"
    output: "443"
    name: "Add_83"
    op_type: "Add"
  }
  node {
    input: "443"
    input: "443_scale"
    input: "443_zero_point"
    output: "443_Conv_84_QuantizeLinear"
    name: "443_Conv_84_QuantizeLinear"
    op_type: "QuantizeLinear"
  }
  node {
    input: "443_Conv_84_QuantizeLinear"
    input: "443_scale"
    input: "443_zero_point"
    output: "443_Conv_84_dequantized"
    name: "443_Conv_84_DequantizeLinear"
    op_type: "DequantizeLinear"
  }
  node {
    input: "443_Conv_84_dequantized"
    input: "610_dequantized"
    input: "611_dequantized"
    output: "609_QuantizeInput"
    name: "Conv_84_quant"
    op_type: "Conv"
    attribute {
      name: "dilations"
      ints: 1
      ints: 1
      type: INTS
    }
    attribute {
      name: "group"
      i: 1
      type: INT
    }
    attribute {
      name: "kernel_shape"
      ints: 1
      ints: 1
      type: INTS
    }
    attribute {
      name: "pads"
      ints: 0
      ints: 0
      ints: 0
      ints: 0
      type: INTS
    }
    attribute {
      name: "strides"
      ints: 1
      ints: 1
      type: INTS
    }
  }
  node {
    input: "609_QuantizeInput"
    input: "609_scale"
    input: "609_zero_point"
    output: "609_quantized"
    name: "609_Conv_84_QuantizeLinear"
    op_type: "QuantizeLinear"
  }
  node {
    input: "609_quantized"
    input: "609_scale"
    input: "609_zero_point"
    output: "609_Conv_86_dequantized"
    name: "609_Conv_86_DequantizeLinear"
    op_type: "DequantizeLinear"
  }
  node {
    input: "609_Conv_86_dequantized"
    input: "613_dequantized"
    input: "614_dequantized"
    output: "612_QuantizeInput"
    name: "Conv_86_quant"
    op_type: "Conv"
    attribute {
      name: "dilations"
      ints: 1
      ints: 1
      type: INTS
    }
    attribute {
      name: "group"
      i: 960
      type: INT
    }
    attribute {
      name: "kernel_shape"
      ints: 3
      ints: 3
      type: INTS
    }
    attribute {
      name: "pads"
      ints: 1
      ints: 1
      ints: 1
      ints: 1
      type: INTS
    }
    attribute {
      name: "strides"
      ints: 1
      ints: 1
      type: INTS
    }
  }
  node {
    input: "612_QuantizeInput"
    input: "612_scale"
    input: "612_zero_point"
    output: "612_quantized"
    name: "612_Conv_86_QuantizeLinear"
    op_type: "QuantizeLinear"
  }
  node {
    input: "617_quantized"
    input: "617_scale"
    input: "617_zero_point"
    output: "617_dequantized"
    name: "617_DequantizeLinear"
    op_type: "DequantizeLinear"
  }
  node {
    input: "616_quantized"
    input: "616_scale"
    input: "616_zero_point"
    output: "616_dequantized"
    name: "616_DequantizeLinear"
    op_type: "DequantizeLinear"
  }
  node {
    input: "612_quantized"
    input: "612_scale"
    input: "612_zero_point"
    output: "612_Conv_88_dequantized"
    name: "612_Conv_88_DequantizeLinear"
    op_type: "DequantizeLinear"
  }
  node {
    input: "612_Conv_88_dequantized"
    input: "616_dequantized"
    input: "617_dequantized"
    output: "615_QuantizeInput"
    name: "Conv_88_quant"
    op_type: "Conv"
    attribute {
      name: "dilations"
      ints: 1
      ints: 1
      type: INTS
    }
    attribute {
      name: "group"
      i: 1
      type: INT
    }
    attribute {
      name: "kernel_shape"
      ints: 1
      ints: 1
      type: INTS
    }
    attribute {
      name: "pads"
      ints: 0
      ints: 0
      ints: 0
      ints: 0
      type: INTS
    }
    attribute {
      name: "strides"
      ints: 1
      ints: 1
      type: INTS
    }
  }
  node {
    input: "615_QuantizeInput"
    input: "615_scale"
    input: "615_zero_point"
    output: "615_quantized"
    name: "615_Conv_88_QuantizeLinear"
    op_type: "QuantizeLinear"
  }
  node {
    input: "615_quantized"
    input: "615_scale"
    input: "615_zero_point"
    output: "615"
    name: "615_Conv_88_DequantizeLinear"
    op_type: "DequantizeLinear"
  }
  node {
    input: "443"
    input: "615"
    output: "452"
    name: "Add_89"
    op_type: "Add"
  }
  node {
    input: "452"
    input: "452_scale"
    input: "452_zero_point"
    output: "452_Conv_90_QuantizeLinear"
    name: "452_Conv_90_QuantizeLinear"
    op_type: "QuantizeLinear"
  }
  node {
    input: "620_quantized"
    input: "620_scale"
    input: "620_zero_point"
    output: "620_dequantized"
    name: "620_DequantizeLinear"
    op_type: "DequantizeLinear"
  }
  node {
    input: "619_quantized"
    input: "619_scale"
    input: "619_zero_point"
    output: "619_dequantized"
    name: "619_DequantizeLinear"
    op_type: "DequantizeLinear"
  }
  node {
    input: "452_Conv_90_QuantizeLinear"
    input: "452_scale"
    input: "452_zero_point"
    output: "452_Conv_90_dequantized"
    name: "452_Conv_90_DequantizeLinear"
    op_type: "DequantizeLinear"
  }
  node {
    input: "452_Conv_90_dequantized"
    input: "619_dequantized"
    input: "620_dequantized"
    output: "618_QuantizeInput"
    name: "Conv_90_quant"
    op_type: "Conv"
    attribute {
      name: "dilations"
      ints: 1
      ints: 1
      type: INTS
    }
    attribute {
      name: "group"
      i: 1
      type: INT
    }
    attribute {
      name: "kernel_shape"
      ints: 1
      ints: 1
      type: INTS
    }
    attribute {
      name: "pads"
      ints: 0
      ints: 0
      ints: 0
      ints: 0
      type: INTS
    }
    attribute {
      name: "strides"
      ints: 1
      ints: 1
      type: INTS
    }
  }
  node {
    input: "618_QuantizeInput"
    input: "618_scale"
    input: "618_zero_point"
    output: "618_quantized"
    name: "618_Conv_90_QuantizeLinear"
    op_type: "QuantizeLinear"
  }
  node {
    input: "623_quantized"
    input: "623_scale"
    input: "623_zero_point"
    output: "623_dequantized"
    name: "623_DequantizeLinear"
    op_type: "DequantizeLinear"
  }
  node {
    input: "622_quantized"
    input: "622_scale"
    input: "622_zero_point"
    output: "622_dequantized"
    name: "622_DequantizeLinear"
    op_type: "DequantizeLinear"
  }
  node {
    input: "618_quantized"
    input: "618_scale"
    input: "618_zero_point"
    output: "618_Conv_92_dequantized"
    name: "618_Conv_92_DequantizeLinear"
    op_type: "DequantizeLinear"
  }
  node {
    input: "618_Conv_92_dequantized"
    input: "622_dequantized"
    input: "623_dequantized"
    output: "621_QuantizeInput"
    name: "Conv_92_quant"
    op_type: "Conv"
    attribute {
      name: "dilations"
      ints: 1
      ints: 1
      type: INTS
    }
    attribute {
      name: "group"
      i: 960
      type: INT
    }
    attribute {
      name: "kernel_shape"
      ints: 3
      ints: 3
      type: INTS
    }
    attribute {
      name: "pads"
      ints: 1
      ints: 1
      ints: 1
      ints: 1
      type: INTS
    }
    attribute {
      name: "strides"
      ints: 1
      ints: 1
      type: INTS
    }
  }
  node {
    input: "621_QuantizeInput"
    input: "621_scale"
    input: "621_zero_point"
    output: "621_quantized"
    name: "621_Conv_92_QuantizeLinear"
    op_type: "QuantizeLinear"
  }
  node {
    input: "626_quantized"
    input: "626_scale"
    input: "626_zero_point"
    output: "626_dequantized"
    name: "626_DequantizeLinear"
    op_type: "DequantizeLinear"
  }
  node {
    input: "625_quantized"
    input: "625_scale"
    input: "625_zero_point"
    output: "625_dequantized"
    name: "625_DequantizeLinear"
    op_type: "DequantizeLinear"
  }
  node {
    input: "621_quantized"
    input: "621_scale"
    input: "621_zero_point"
    output: "621_Conv_94_dequantized"
    name: "621_Conv_94_DequantizeLinear"
    op_type: "DequantizeLinear"
  }
  node {
    input: "621_Conv_94_dequantized"
    input: "625_dequantized"
    input: "626_dequantized"
    output: "624_QuantizeInput"
    name: "Conv_94_quant"
    op_type: "Conv"
    attribute {
      name: "dilations"
      ints: 1
      ints: 1
      type: INTS
    }
    attribute {
      name: "group"
      i: 1
      type: INT
    }
    attribute {
      name: "kernel_shape"
      ints: 1
      ints: 1
      type: INTS
    }
    attribute {
      name: "pads"
      ints: 0
      ints: 0
      ints: 0
      ints: 0
      type: INTS
    }
    attribute {
      name: "strides"
      ints: 1
      ints: 1
      type: INTS
    }
  }
  node {
    input: "624_QuantizeInput"
    input: "624_scale"
    input: "624_zero_point"
    output: "624_quantized"
    name: "624_Conv_94_QuantizeLinear"
    op_type: "QuantizeLinear"
  }
  node {
    input: "629_quantized"
    input: "629_scale"
    input: "629_zero_point"
    output: "629_dequantized"
    name: "629_DequantizeLinear"
    op_type: "DequantizeLinear"
  }
  node {
    input: "628_quantized"
    input: "628_scale"
    input: "628_zero_point"
    output: "628_dequantized"
    name: "628_DequantizeLinear"
    op_type: "DequantizeLinear"
  }
  node {
    input: "624_quantized"
    input: "624_scale"
    input: "624_zero_point"
    output: "624_Conv_95_dequantized"
    name: "624_Conv_95_DequantizeLinear"
    op_type: "DequantizeLinear"
  }
  node {
    input: "624_Conv_95_dequantized"
    input: "628_dequantized"
    input: "629_dequantized"
    output: "627_QuantizeInput"
    name: "Conv_95_quant"
    op_type: "Conv"
    attribute {
      name: "dilations"
      ints: 1
      ints: 1
      type: INTS
    }
    attribute {
      name: "group"
      i: 1
      type: INT
    }
    attribute {
      name: "kernel_shape"
      ints: 1
      ints: 1
      type: INTS
    }
    attribute {
      name: "pads"
      ints: 0
      ints: 0
      ints: 0
      ints: 0
      type: INTS
    }
    attribute {
      name: "strides"
      ints: 1
      ints: 1
      type: INTS
    }
  }
  node {
    input: "627_QuantizeInput"
    input: "627_scale"
    input: "627_zero_point"
    output: "627_quantized"
    name: "627_Conv_95_QuantizeLinear"
    op_type: "QuantizeLinear"
  }
  node {
    input: "627_quantized"
    input: "627_scale"
    input: "627_zero_point"
    output: "627"
    name: "627_Conv_95_DequantizeLinear"
    op_type: "DequantizeLinear"
  }
  node {
    input: "627"
    output: "465"
    name: "Shape_98"
    op_type: "Shape"
  }
  node {
    input: "465"
    input: "466"
    output: "467"
    name: "Gather_100"
    op_type: "Gather"
    attribute {
      name: "axis"
      i: 0
      type: INT
    }
  }
  node {
    input: "627"
    output: "464_QuantizeInput"
    name: "GlobalAveragePool_97"
    op_type: "GlobalAveragePool"
  }
  node {
    input: "467"
    output: "469"
    name: "Unsqueeze_101"
    op_type: "Unsqueeze"
    attribute {
      name: "axes"
      ints: 0
      type: INTS
    }
  }
  node {
    input: "464_QuantizeInput"
    input: "464_scale"
    input: "464_zero_point"
    output: "464_quantized"
    name: "464_GlobalAveragePool_97_QuantizeLinear"
    op_type: "QuantizeLinear"
  }
  node {
    input: "469"
    input: "630"
    output: "471"
    name: "Concat_102"
    op_type: "Concat"
    attribute {
      name: "axis"
      i: 0
      type: INT
    }
  }
  node {
    input: "464_quantized"
    input: "464_scale"
    input: "464_zero_point"
    output: "464_Reshape_103_dequantized"
    name: "464_Reshape_103_DequantizeLinear"
    op_type: "DequantizeLinear"
  }
  node {
    input: "464_Reshape_103_dequantized"
    input: "471"
    output: "472_QuantizeInput"
    name: "Reshape_103_quant"
    op_type: "Reshape"
  }
  node {
    input: "472_QuantizeInput"
    input: "464_scale"
    input: "464_zero_point"
    output: "472_quantized"
    name: "472_Reshape_103_QuantizeLinear"
    op_type: "QuantizeLinear"
  }
  node {
    input: "classifier.1.weight_quantized"
    input: "classifier.1.weight_scale"
    input: "classifier.1.weight_zero_point"
    output: "classifier.1.weight_dequantized"
    name: "classifier.1.weight_DequantizeLinear"
    op_type: "DequantizeLinear"
  }
  node {
    input: "472_quantized"
    input: "464_scale"
    input: "464_zero_point"
    output: "472_Gemm_104_MatMul_dequantized"
    name: "472_Gemm_104_MatMul_DequantizeLinear"
    op_type: "DequantizeLinear"
  }
  node {
    input: "472_Gemm_104_MatMul_dequantized"
    input: "classifier.1.weight_dequantized"
    output: "output_MatMul_QuantizeInput"
    name: "Gemm_104_MatMul_quant"
    op_type: "MatMul"
  }
  node {
    input: "output_MatMul_QuantizeInput"
    input: "output_MatMul_scale"
    input: "output_MatMul_zero_point"
    output: "output_MatMul_quantized"
    name: "output_MatMul_Gemm_104_MatMul_QuantizeLinear"
    op_type: "QuantizeLinear"
  }
  node {
    input: "output_MatMul_quantized"
    input: "output_MatMul_scale"
    input: "output_MatMul_zero_point"
    output: "output_MatMul"
    name: "output_MatMul_Gemm_104_MatMul_DequantizeLinear"
    op_type: "DequantizeLinear"
  }
  node {
    input: "output_MatMul"
    input: "classifier.1.bias"
    output: "output"
    name: "Gemm_104_Add"
    op_type: "Add"
  }
  name: "torch-jit-export"
  initializer {
    dims: 1
    data_type: 7
    name: "630"
    raw_data: "\377\377\377\377\377\377\377\377"
  }
  initializer {
    data_type: 7
    name: "466"
    raw_data: "\000\000\000\000\000\000\000\000"
  }
  initializer {
    data_type: 2
    int32_data: 114
    name: "input_zero_point"
  }
  initializer {
    data_type: 1
    float_data: 0.018658448
    name: "input_scale"
  }
  initializer {
    data_type: 1
    float_data: 0.0028556427
    name: "475_scale"
  }
  initializer {
    data_type: 3
    int32_data: 0
    name: "475_zero_point"
  }
  initializer {
    data_type: 2
    int32_data: 0
    name: "474_zero_point"
  }
  initializer {
    data_type: 1
    float_data: 0.017607756
    name: "474_scale"
  }
  initializer {
    dims: 32
    data_type: 6
    name: "476_quantized"
    raw_data: "…"
  }
  initializer {
    dims: 1
    data_type: 1
    name: "476_scale"
    raw_data: "\366z_8"
  }
  initializer {
    dims: 1
    data_type: 6
    name: "476_zero_point"
    raw_data: "\000\000\000\000"
  }
  initializer {
    data_type: 1
    float_data: 0.11868368
    name: "478_scale"
  }
  initializer {
    data_type: 3
    int32_data: 0
    name: "478_zero_point"
  }
  initializer {
    data_type: 2
    int32_data: 0
    name: "477_zero_point"
  }
  initializer {
    data_type: 1
    float_data: 0.023529412
    name: "477_scale"
  }
  initializer {
    dims: 32
    data_type: 6
    name: "479_quantized"
    raw_data: "…"
  }
  initializer {
    dims: 1
    data_type: 1
    name: "479_scale"
    raw_data: ">\364\010;"
  }
  initializer {
    dims: 1
    data_type: 6
    name: "479_zero_point"
    raw_data: "\000\000\000\000"
  }
  initializer {
    data_type: 1
    float_data: 0.0081530325
    name: "481_scale"
  }
  initializer {
    data_type: 3
    int32_data: 0
    name: "481_zero_point"
  }
  initializer {
    data_type: 2
    int32_data: 119
    name: "480_zero_point"
  }
  initializer {
    data_type: 1
    float_data: 0.06564797
    name: "480_scale"
  }
  initializer {
    dims: 16
    data_type: 6
    name: "482_quantized"
    raw_data: "…"
  }
  initializer {
    dims: 1
    data_type: 1
    name: "482_scale"
    raw_data: "\232\'I9"
  }
  initializer {
    dims: 1
    data_type: 6
    name: "482_zero_point"
    raw_data: "\000\000\000\000"
  }
  initializer {
    data_type: 1
    float_data: 0.004745323
    name: "484_scale"
  }
  initializer {
    data_type: 3
    int32_data: 0
    name: "484_zero_point"
  }
  initializer {
    data_type: 2
    int32_data: 0
    name: "483_zero_point"
  }
  initializer {
    data_type: 1
    float_data: 0.023529412
    name: "483_scale"
  }
  initializer {
    dims: 1
    data_type: 1
    name: "485_scale"
    raw_data: "\236S\2439"
  }
  initializer {
    dims: 1
    data_type: 6
    name: "485_zero_point"
    raw_data: "\000\000\000\000"
  }
  initializer {
    data_type: 1
    float_data: 0.05006342
    name: "487_scale"
  }
  initializer {
    data_type: 3
    int32_data: 0
    name: "487_zero_point"
  }
  initializer {
    data_type: 2
    int32_data: 0
    name: "486_zero_point"
  }
  initializer {
    data_type: 1
    float_data: 0.023529412
    name: "486_scale"
  }
  initializer {
    dims: 1
    data_type: 1
    name: "488_scale"
    raw_data: "\340e\232:"
  }
  initializer {
    dims: 1
    data_type: 6
    name: "488_zero_point"
    raw_data: "\000\000\000\000"
  }
  initializer {
    data_type: 1
    float_data: 0.005946148
    name: "490_scale"
  }
  initializer {
    data_type: 3
    int32_data: 0
    name: "490_zero_point"
  }
  initializer {
    data_type: 2
    int32_data: 107
    name: "489_zero_point"
  }
  initializer {
    data_type: 1
    float_data: 0.03971019
    name: "489_scale"
  }
  initializer {
    dims: 24
    data_type: 6
    name: "491_quantized"
    raw_data: "…"
  }
  initializer {
    dims: 1
    data_type: 1
    name: "491_scale"
    raw_data: "\243\264\0229"
  }
  initializer {
    dims: 1
    data_type: 6
    name: "491_zero_point"
    raw_data: "\000\000\000\000"
  }
  initializer {
    data_type: 1
    float_data: 0.0026336643
    name: "493_scale"
  }
  initializer {
    data_type: 3
    int32_data: 0
    name: "493_zero_point"
  }
  initializer {
    data_type: 2
    int32_data: 0
    name: "492_zero_point"
  }
  initializer {
    data_type: 1
    float_data: 0.009025857
    name: "492_scale"
  }
  initializer {
    dims: 1
    data_type: 1
    name: "494_scale"
    raw_data: "\275S\3338"
  }
  initializer {
    dims: 1
    data_type: 6
    name: "494_zero_point"
    raw_data: "\000\000\000\000"
  }
  initializer {
    data_type: 1
    float_data: 0.037832465
    name: "496_scale"
  }
  initializer {
    data_type: 3
    int32_data: 0
    name: "496_zero_point"
  }
  initializer {
    data_type: 2
    int32_data: 0
    name: "495_zero_point"
  }
  initializer {
    data_type: 1
    float_data: 0.019913742
    name: "495_scale"
  }
  initializer {
    dims: 1
    data_type: 1
    name: "497_scale"
    raw_data: "b\007\2639"
  }
  initializer {
    dims: 1
    data_type: 6
    name: "497_zero_point"
    raw_data: "\000\000\000\000"
  }
  initializer {
    data_type: 1
    float_data: 0.009542276
    name: "499_scale"
  }
  initializer {
    data_type: 3
    int32_data: 0
    name: "499_zero_point"
  }
  initializer {
    data_type: 2
    int32_data: 127
    name: "498_zero_point"
  }
  initializer {
    data_type: 1
    float_data: 0.04609981
    name: "498_scale"
  }
  initializer {
    dims: 24
    data_type: 6
    name: "500_quantized"
    raw_data: "…"
  }
  initializer {
    dims: 1
    data_type: 1
    name: "500_scale"
    raw_data: "\302@G9"
  }
  initializer {
    dims: 1
    data_type: 6
    name: "500_zero_point"
    raw_data: "\000\000\000\000"
  }
  initializer {
    data_type: 2
    int32_data: 125
    name: "339_zero_point"
  }
  initializer {
    data_type: 1
    float_data: 0.057971675
    name: "339_scale"
  }
  initializer {
    data_type: 1
    float_data: 0.0024801705
    name: "502_scale"
  }
  initializer {
    data_type: 3
    int32_data: 0
    name: "502_zero_point"
  }
  initializer {
    data_type: 2
    int32_data: 0
    name: "501_zero_point"
  }
  initializer {
    data_type: 1
    float_data: 0.013438906
    name: "501_scale"
  }
  initializer {
    dims: 1
    data_type: 1
    name: "503_scale"
    raw_data: "\215\303\0269"
  }
  initializer {
    dims: 1
    data_type: 6
    name: "503_zero_point"
    raw_data: "\000\000\000\000"
  }
  initializer {
    data_type: 1
    float_data: 0.046499304
    name: "505_scale"
  }
  initializer {
    data_type: 3
    int32_data: 0
    name: "505_zero_point"
  }
  initializer {
    data_type: 2
    int32_data: 0
    name: "504_zero_point"
  }
  initializer {
    data_type: 1
    float_data: 0.014856177
    name: "504_scale"
  }
  initializer {
    dims: 1
    data_type: 1
    name: "506_scale"
    raw_data: "P\320#:"
  }
  initializer {
    dims: 1
    data_type: 6
    name: "506_zero_point"
    raw_data: "\000\000\000\000"
  }
  initializer {
    data_type: 1
    float_data: 0.006835098
    name: "508_scale"
  }
  initializer {
    data_type: 3
    int32_data: 0
    name: "508_zero_point"
  }
  initializer {
    data_type: 2
    int32_data: 132
    name: "507_zero_point"
  }
  initializer {
    data_type: 1
    float_data: 0.035562083
    name: "507_scale"
  }
  initializer {
    dims: 32
    data_type: 6
    name: "509_quantized"
    raw_data: "…"
  }
  initializer {
    dims: 1
    data_type: 1
    name: "509_scale"
    raw_data: "\266\363\3248"
  }
  initializer {
    dims: 1
    data_type: 6
    name: "509_zero_point"
    raw_data: "\000\000\000\000"
  }
  initializer {
    data_type: 1
    float_data: 0.0015136111
    name: "511_scale"
  }
  initializer {
    data_type: 3
    int32_data: 0
    name: "511_zero_point"
  }
  initializer {
    data_type: 2
    int32_data: 0
    name: "510_zero_point"
  }
  initializer {
    data_type: 1
    float_data: 0.008627743
    name: "510_scale"
  }
  initializer {
    dims: 1
    data_type: 1
    name: "512_scale"
    raw_data: "z\304a8"
  }
  initializer {
    dims: 1
    data_type: 6
    name: "512_zero_point"
    raw_data: "\000\000\000\000"
  }
  initializer {
    data_type: 1
    float_data: 0.05171833
    name: "514_scale"
  }
  initializer {
    data_type: 3
    int32_data: 0
    name: "514_zero_point"
  }
  initializer {
    data_type: 2
    int32_data: 0
    name: "513_zero_point"
  }
  initializer {
    data_type: 1
    float_data: 0.012746858
    name: "513_scale"
  }
  initializer {
    dims: 1
    data_type: 1
    name: "515_scale"
    raw_data: "\240\361\3519"
  }
  initializer {
    dims: 1
    data_type: 6
    name: "515_zero_point"
    raw_data: "\000\000\000\000"
  }
  initializer {
    data_type: 1
    float_data: 0.0065188585
    name: "517_scale"
  }
  initializer {
    data_type: 3
    int32_data: 0
    name: "517_zero_point"
  }
  initializer {
    data_type: 2
    int32_data: 128
    name: "516_zero_point"
  }
  initializer {
    data_type: 1
    float_data: 0.028934278
    name: "516_scale"
  }
  initializer {
    dims: 32
    data_type: 6
    name: "518_quantized"
    raw_data: "…"
  }
  initializer {
    dims: 1
    data_type: 1
    name: "518_scale"
    raw_data: "EC\2568"
  }
  initializer {
    dims: 1
    data_type: 6
    name: "518_zero_point"
    raw_data: "\000\000\000\000"
  }
  initializer {
    data_type: 2
    int32_data: 108
    name: "356_zero_point"
  }
  initializer {
    data_type: 1
    float_data: 0.04353522
    name: "356_scale"
  }
  initializer {
    data_type: 1
    float_data: 0.0012169179
    name: "520_scale"
  }
  initializer {
    data_type: 3
    int32_data: 0
    name: "520_zero_point"
  }
  initializer {
    data_type: 2
    int32_data: 0
    name: "519_zero_point"
  }
  initializer {
    data_type: 1
    float_data: 0.007658489
    name: "519_scale"
  }
  initializer {
    dims: 1
    data_type: 1
    name: "521_scale"
    raw_data: "\2135^8"
  }
  initializer {
    dims: 1
    data_type: 6
    name: "521_zero_point"
    raw_data: "\000\000\000\000"
  }
  initializer {
    data_type: 1
    float_data: 0.039709866
    name: "523_scale"
  }
  initializer {
    data_type: 3
    int32_data: 0
    name: "523_zero_point"
  }
  initializer {
    data_type: 2
    int32_data: 0
    name: "522_zero_point"
  }
  initializer {
    data_type: 1
    float_data: 0.010573713
    name: "522_scale"
  }
  initializer {
    dims: 1
    data_type: 1
    name: "524_scale"
    raw_data: "\370q\2379"
  }
  initializer {
    dims: 1
    data_type: 6
    name: "524_zero_point"
    raw_data: "\000\000\000\000"
  }
  initializer {
    data_type: 1
    float_data: 0.0074411356
    name: "526_scale"
  }
  initializer {
    data_type: 3
    int32_data: 0
    name: "526_zero_point"
  }
  initializer {
    data_type: 2
    int32_data: 126
    name: "525_zero_point"
  }
  initializer {
    data_type: 1
    float_data: 0.026068475
    name: "525_scale"
  }
  initializer {
    dims: 32
    data_type: 6
    name: "527_quantized"
    raw_data: "…"
  }
  initializer {
    dims: 1
    data_type: 1
    name: "527_scale"
    raw_data: "<\001\2458"
  }
  initializer {
    dims: 1
    data_type: 6
    name: "527_zero_point"
    raw_data: "\000\000\000\000"
  }
  initializer {
    data_type: 2
    int32_data: 120
    name: "365_zero_point"
  }
  initializer {
    data_type: 1
    float_data: 0.049828876
    name: "365_scale"
  }
  initializer {
    data_type: 1
    float_data: 0.0017131757
    name: "529_scale"
  }
  initializer {
    data_type: 3
    int32_data: 0
    name: "529_zero_point"
  }
  initializer {
    data_type: 2
    int32_data: 0
    name: "528_zero_point"
  }
  initializer {
    data_type: 1
    float_data: 0.011388029
    name: "528_scale"
  }
  initializer {
    dims: 1
    data_type: 1
    name: "530_scale"
    raw_data: "Q\006\2638"
  }
  initializer {
    dims: 1
    data_type: 6
    name: "530_zero_point"
    raw_data: "\000\000\000\000"
  }
  initializer {
    data_type: 1
    float_data: 0.019297061
    name: "532_scale"
  }
  initializer {
    data_type: 3
    int32_data: 0
    name: "532_zero_point"
  }
  initializer {
    data_type: 2
    int32_data: 0
    name: "531_zero_point"
  }
  initializer {
    data_type: 1
    float_data: 0.014233097
    name: "531_scale"
  }
  initializer {
    dims: 1
    data_type: 1
    name: "533_scale"
    raw_data: "+nf9"
  }
  initializer {
    dims: 1
    data_type: 6
    name: "533_zero_point"
    raw_data: "\000\000\000\000"
  }
  initializer {
    data_type: 1
    float_data: 0.0054431446
    name: "535_scale"
  }
  initializer {
    data_type: 3
    int32_data: 0
    name: "535_zero_point"
  }
  initializer {
    data_type: 2
    int32_data: 143
    name: "534_zero_point"
  }
  initializer {
    data_type: 1
    float_data: 0.028401868
    name: "534_scale"
  }
  initializer {
    dims: 64
    data_type: 6
    name: "536_quantized"
    raw_data: "…"
  }
  initializer {
    dims: 1
    data_type: 1
    name: "536_scale"
    raw_data: "\346x\2428"
  }
  initializer {
    dims: 1
    data_type: 6
    name: "536_zero_point"
    raw_data: "\000\000\000\000"
  }
  initializer {
    data_type: 1
    float_data: 0.0011173795
    name: "538_scale"
  }
  initializer {
    data_type: 3
    int32_data: 0
    name: "538_zero_point"
  }
  initializer {
    data_type: 2
    int32_data: 0
    name: "537_zero_point"
  }
  initializer {
    data_type: 1
    float_data: 0.0043541207
    name: "537_scale"
  }
  initializer {
    dims: 1
    data_type: 1
    name: "539_scale"
    raw_data: "\351\033\0058"
  }
  initializer {
    dims: 1
    data_type: 6
    name: "539_zero_point"
    raw_data: "\000\000\000\000"
  }
  initializer {
    data_type: 1
    float_data: 0.043541186
    name: "541_scale"
  }
  initializer {
    data_type: 3
    int32_data: 0
    name: "541_zero_point"
  }
  initializer {
    data_type: 2
    int32_data: 0
    name: "540_zero_point"
  }
  initializer {
    data_type: 1
    float_data: 0.0067695524
    name: "540_scale"
  }
  initializer {
    dims: 1
    data_type: 1
    name: "542_scale"
    raw_data: "\364\312F9"
  }
  initializer {
    dims: 1
    data_type: 6
    name: "542_zero_point"
    raw_data: "\000\000\000\000"
  }
  initializer {
    data_type: 1
    float_data: 0.0054894034
    name: "544_scale"
  }
  initializer {
    data_type: 3
    int32_data: 0
    name: "544_zero_point"
  }
  initializer {
    data_type: 2
    int32_data: 130
    name: "543_zero_point"
  }
  initializer {
    data_type: 1
    float_data: 0.019568179
    name: "543_scale"
  }
  initializer {
    dims: 64
    data_type: 6
    name: "545_quantized"
    raw_data: "…"
  }
  initializer {
    dims: 1
    data_type: 1
    name: "545_scale"
    raw_data: "\034\335\0338"
  }
  initializer {
    dims: 1
    data_type: 6
    name: "545_zero_point"
    raw_data: "\000\000\000\000"
  }
  initializer {
    data_type: 2
    int32_data: 136
    name: "382_zero_point"
  }
  initializer {
    data_type: 1
    float_data: 0.029870728
    name: "382_scale"
  }
  initializer {
    data_type: 1
    float_data: 0.0008492199
    name: "547_scale"
  }
  initializer {
    data_type: 3
    int32_data: 0
    name: "547_zero_point"
  }
  initializer {
    data_type: 2
    int32_data: 0
    name: "546_zero_point"
  }
  initializer {
    data_type: 1
    float_data: 0.004029288
    name: "546_scale"
  }
  initializer {
    dims: 1
    data_type: 1
    name: "548_scale"
    raw_data: "\323\312\3247"
  }
  initializer {
    dims: 1
    data_type: 6
    name: "548_zero_point"
    raw_data: "\000\000\000\000"
  }
  initializer {
    data_type: 1
    float_data: 0.088971674
    name: "550_scale"
  }
  initializer {
    data_type: 3
    int32_data: 0
    name: "550_zero_point"
  }
  initializer {
    data_type: 2
    int32_data: 0
    name: "549_zero_point"
  }
  initializer {
    data_type: 1
    float_data: 0.006989649
    name: "549_scale"
  }
  initializer {
    dims: 1
    data_type: 1
    name: "551_scale"
    raw_data: "\014\364\2739"
  }
  initializer {
    dims: 1
    data_type: 6
    name: "551_zero_point"
    raw_data: "\000\000\000\000"
  }
  initializer {
    data_type: 1
    float_data: 0.0055298656
    name: "553_scale"
  }
  initializer {
    data_type: 3
    int32_data: 0
    name: "553_zero_point"
  }
  initializer {
    data_type: 2
    int32_data: 130
    name: "552_zero_point"
  }
  initializer {
    data_type: 1
    float_data: 0.016850423
    name: "552_scale"
  }
  initializer {
    dims: 64
    data_type: 6
    name: "554_quantized"
    raw_data: "…"
  }
  initializer {
    dims: 1
    data_type: 1
    name: "554_scale"
    raw_data: "\023\036\"8"
  }
  initializer {
    dims: 1
    data_type: 6
    name: "554_zero_point"
    raw_data: "\000\000\000\000"
  }
  initializer {
    data_type: 2
    int32_data: 126
    name: "391_zero_point"
  }
  initializer {
    data_type: 1
    float_data: 0.031078013
    name: "391_scale"
  }
  initializer {
    data_type: 1
    float_data: 0.0008293222
    name: "556_scale"
  }
  initializer {
    data_type: 3
    int32_data: 0
    name: "556_zero_point"
  }
  initializer {
    data_type: 2
    int32_data: 0
    name: "555_zero_point"
  }
  initializer {
    data_type: 1
    float_data: 0.005010089
    name: "555_scale"
  }
  initializer {
    dims: 1
    data_type: 1
    name: "557_scale"
    raw_data: "\2224\3307"
  }
  initializer {
    dims: 1
    data_type: 6
    name: "557_zero_point"
    raw_data: "\000\000\000\000"
  }
  initializer {
    data_type: 1
    float_data: 0.039976027
    name: "559_scale"
  }
  initializer {
    data_type: 3
    int32_data: 0
    name: "559_zero_point"
  }
  initializer {
    data_type: 2
    int32_data: 0
    name: "558_zero_point"
  }
  initializer {
    data_type: 1
    float_data: 0.021815652
    name: "558_scale"
  }
  initializer {
    dims: 1
    data_type: 1
    name: "560_scale"
    raw_data: ".\003R9"
  }
  initializer {
    dims: 1
    data_type: 6
    name: "560_zero_point"
    raw_data: "\000\000\000\000"
  }
  initializer {
    data_type: 1
    float_data: 0.006337489
    name: "562_scale"
  }
  initializer {
    data_type: 3
    int32_data: 0
    name: "562_zero_point"
  }
  initializer {
    data_type: 2
    int32_data: 160
    name: "561_zero_point"
  }
  initializer {
    data_type: 1
    float_data: 0.033086453
    name: "561_scale"
  }
  initializer {
    dims: 64
    data_type: 6
    name: "563_quantized"
    raw_data: "…"
  }
  initializer {
    dims: 1
    data_type: 1
    name: "563_scale"
    raw_data: "\357\370\0209"
  }
  initializer {
    dims: 1
    data_type: 6
    name: "563_zero_point"
    raw_data: "\000\000\000\000"
  }
  initializer {
    data_type: 2
    int32_data: 139
    name: "400_zero_point"
  }
  initializer {
    data_type: 1
    float_data: 0.03736598
    name: "400_scale"
  }
  initializer {
    data_type: 1
    float_data: 0.0011116444
    name: "565_scale"
  }
  initializer {
    data_type: 3
    int32_data: 0
    name: "565_zero_point"
  }
  initializer {
    data_type: 2
    int32_data: 0
    name: "564_zero_point"
  }
  initializer {
    data_type: 1
    float_data: 0.006757779
    name: "564_scale"
  }
  initializer {
    dims: 1
    data_type: 1
    name: "566_scale"
    raw_data: "\3008.8"
  }
  initializer {
    dims: 1
    data_type: 6
    name: "566_zero_point"
    raw_data: "\000\000\000\000"
  }
  initializer {
    data_type: 1
    float_data: 0.051308464
    name: "568_scale"
  }
  initializer {
    data_type: 3
    int32_data: 0
    name: "568_zero_point"
  }
  initializer {
    data_type: 2
    int32_data: 0
    name: "567_zero_point"
  }
  initializer {
    data_type: 1
    float_data: 0.012513305
    name: "567_scale"
  }
  initializer {
    dims: 1
    data_type: 1
    name: "569_scale"
    raw_data: "|\311\2659"
  }
  initializer {
    dims: 1
    data_type: 6
    name: "569_zero_point"
    raw_data: "\000\000\000\000"
  }
  initializer {
    data_type: 1
    float_data: 0.00487904
    name: "571_scale"
  }
  initializer {
    data_type: 3
    int32_data: 0
    name: "571_zero_point"
  }
  initializer {
    data_type: 2
    int32_data: 123
    name: "570_zero_point"
  }
  initializer {
    data_type: 1
    float_data: 0.024123587
    name: "570_scale"
  }
  initializer {
    dims: 1
    data_type: 1
    name: "572_scale"
    raw_data: "\211\t\2008"
  }
  initializer {
    dims: 1
    data_type: 6
    name: "572_zero_point"
    raw_data: "\000\000\000\000"
  }
  initializer {
    data_type: 1
    float_data: 0.0013143878
    name: "574_scale"
  }
  initializer {
    data_type: 3
    int32_data: 0
    name: "574_zero_point"
  }
  initializer {
    data_type: 2
    int32_data: 0
    name: "573_zero_point"
  }
  initializer {
    data_type: 1
    float_data: 0.0067103086
    name: "573_scale"
  }
  initializer {
    dims: 1
    data_type: 1
    name: "575_scale"
    raw_data: "\357\375\0048"
  }
  initializer {
    dims: 1
    data_type: 6
    name: "575_zero_point"
    raw_data: "\000\000\000\000"
  }
  initializer {
    data_type: 1
    float_data: 0.07777221
    name: "577_scale"
  }
  initializer {
    data_type: 3
    int32_data: 0
    name: "577_zero_point"
  }
  initializer {
    data_type: 2
    int32_data: 0
    name: "576_zero_point"
  }
  initializer {
    data_type: 1
    float_data: 0.023529412
    name: "576_scale"
  }
  initializer {
    dims: 1
    data_type: 1
    name: "578_scale"
    raw_data: "y\316\010:"
  }
  initializer {
    dims: 1
    data_type: 6
    name: "578_zero_point"
    raw_data: "\000\000\000\000"
  }
  initializer {
    data_type: 1
    float_data: 0.003954809
    name: "580_scale"
  }
  initializer {
    data_type: 3
    int32_data: 0
    name: "580_zero_point"
  }
  initializer {
    data_type: 2
    int32_data: 115
    name: "579_zero_point"
  }
  initializer {
    data_type: 1
    float_data: 0.02798538
    name: "579_scale"
  }
  initializer {
    dims: 1
    data_type: 1
    name: "581_scale"
    raw_data: "*&\3038"
  }
  initializer {
    dims: 1
    data_type: 6
    name: "581_zero_point"
    raw_data: "\000\000\000\000"
  }
  initializer {
    data_type: 2
    int32_data: 109
    name: "417_zero_point"
  }
  initializer {
    data_type: 1
    float_data: 0.031824797
    name: "417_scale"
  }
  initializer {
    data_type: 1
    float_data: 0.0017125434
    name: "583_scale"
  }
  initializer {
    data_type: 3
    int32_data: 0
    name: "583_zero_point"
  }
  initializer {
    data_type: 2
    int32_data: 0
    name: "582_zero_point"
  }
  initializer {
    data_type: 1
    float_data: 0.018577984
    name: "582_scale"
  }
  initializer {
    dims: 1
    data_type: 1
    name: "584_scale"
    raw_data: "`\230d8"
  }
  initializer {
    dims: 1
    data_type: 6
    name: "584_zero_point"
    raw_data: "\000\000\000\000"
  }
  initializer {
    data_type: 1
    float_data: 0.06750055
    name: "586_scale"
  }
  initializer {
    data_type: 3
    int32_data: 0
    name: "586_zero_point"
  }
  initializer {
    data_type: 2
    int32_data: 0
    name: "585_zero_point"
  }
  initializer {
    data_type: 1
    float_data: 0.023529412
    name: "585_scale"
  }
  initializer {
    dims: 1
    data_type: 1
    name: "587_scale"
    raw_data: "\021^\244:"
  }
  initializer {
    dims: 1
    data_type: 6
    name: "587_zero_point"
    raw_data: "\000\000\000\000"
  }
  initializer {
    data_type: 1
    float_data: 0.009840593
    name: "589_scale"
  }
  initializer {
    data_type: 3
    int32_data: 0
    name: "589_zero_point"
  }
  initializer {
    data_type: 2
    int32_data: 142
    name: "588_zero_point"
  }
  initializer {
    data_type: 1
    float_data: 0.06331735
    name: "588_scale"
  }
  initializer {
    dims: 1
    data_type: 1
    name: "590_scale"
    raw_data: "s\312r9"
  }
  initializer {
    dims: 1
    data_type: 6
    name: "590_zero_point"
    raw_data: "\000\000\000\000"
  }
  initializer {
    data_type: 2
    int32_data: 123
    name: "426_zero_point"
  }
  initializer {
    data_type: 1
    float_data: 0.07048993
    name: "426_scale"
  }
  initializer {
    data_type: 1
    float_data: 0.0014183413
    name: "592_scale"
  }
  initializer {
    data_type: 3
    int32_data: 0
    name: "592_zero_point"
  }
  initializer {
    data_type: 2
    int32_data: 0
    name: "591_zero_point"
  }
  initializer {
    data_type: 1
    float_data: 0.014397864
    name: "591_scale"
  }
  initializer {
    dims: 1
    data_type: 1
    name: "593_scale"
    raw_data: "\262\253\3218"
  }
  initializer {
    dims: 1
    data_type: 6
    name: "593_zero_point"
    raw_data: "\000\000\000\000"
  }
  initializer {
    data_type: 1
    float_data: 0.018182425
    name: "595_scale"
  }
  initializer {
    data_type: 3
    int32_data: 0
    name: "595_zero_point"
  }
  initializer {
    data_type: 2
    int32_data: 0
    name: "594_zero_point"
  }
  initializer {
    data_type: 1
    float_data: 0.023529412
    name: "594_scale"
  }
  initializer {
    dims: 1
    data_type: 1
    name: "596_scale"
    raw_data: "\232@\2119"
  }
  initializer {
    dims: 1
    data_type: 6
    name: "596_zero_point"
    raw_data: "\000\000\000\000"
  }
  initializer {
    data_type: 1
    float_data: 0.0025079844
    name: "598_scale"
  }
  initializer {
    data_type: 3
    int32_data: 0
    name: "598_zero_point"
  }
  initializer {
    data_type: 2
    int32_data: 149
    name: "597_zero_point"
  }
  initializer {
    data_type: 1
    float_data: 0.06929498
    name: "597_scale"
  }
  initializer {
    dims: 1
    data_type: 1
    name: "599_scale"
    raw_data: "\002\203w8"
  }
  initializer {
    dims: 1
    data_type: 6
    name: "599_zero_point"
    raw_data: "\000\000\000\000"
  }
  initializer {
    data_type: 1
    float_data: 0.0029125263
    name: "601_scale"
  }
  initializer {
    data_type: 3
    int32_data: 0
    name: "601_zero_point"
  }
  initializer {
    data_type: 2
    int32_data: 0
    name: "600_zero_point"
  }
  initializer {
    data_type: 1
    float_data: 0.020971533
    name: "600_scale"
  }
  initializer {
    dims: 1
    data_type: 1
    name: "602_scale"
    raw_data: "\222\240S9"
  }
  initializer {
    dims: 1
    data_type: 6
    name: "602_zero_point"
    raw_data: "\000\000\000\000"
  }
  initializer {
    data_type: 1
    float_data: 0.07850213
    name: "604_scale"
  }
  initializer {
    data_type: 3
    int32_data: 0
    name: "604_zero_point"
  }
  initializer {
    data_type: 2
    int32_data: 0
    name: "603_zero_point"
  }
  initializer {
    data_type: 1
    float_data: 0.022908082
    name: "603_scale"
  }
  initializer {
    dims: 1
    data_type: 1
    name: "605_scale"
    raw_data: "\000\311\327:"
  }
  initializer {
    dims: 1
    data_type: 6
    name: "605_zero_point"
    raw_data: "\000\000\000\000"
  }
  initializer {
    data_type: 1
    float_data: 0.002574469
    name: "607_scale"
  }
  initializer {
    data_type: 3
    int32_data: 0
    name: "607_zero_point"
  }
  initializer {
    data_type: 2
    int32_data: 105
    name: "606_zero_point"
  }
  initializer {
    data_type: 1
    float_data: 0.06415011
    name: "606_scale"
  }
  initializer {
    dims: 1
    data_type: 1
    name: "608_scale"
    raw_data: "(]w8"
  }
  initializer {
    dims: 1
    data_type: 6
    name: "608_zero_point"
    raw_data: "\000\000\000\000"
  }
  initializer {
    data_type: 2
    int32_data: 119
    name: "443_zero_point"
  }
  initializer {
    data_type: 1
    float_data: 0.12168143
    name: "443_scale"
  }
  initializer {
    data_type: 1
    float_data: 0.0016836411
    name: "610_scale"
  }
  initializer {
    data_type: 3
    int32_data: 0
    name: "610_zero_point"
  }
  initializer {
    data_type: 2
    int32_data: 0
    name: "609_zero_point"
  }
  initializer {
    data_type: 1
    float_data: 0.02009347
    name: "609_scale"
  }
  initializer {
    dims: 1
    data_type: 1
    name: "611_scale"
    raw_data: "\314\321V9"
  }
  initializer {
    dims: 1
    data_type: 6
    name: "611_zero_point"
    raw_data: "\000\000\000\000"
  }
  initializer {
    data_type: 1
    float_data: 0.057705373
    name: "613_scale"
  }
  initializer {
    data_type: 3
    int32_data: 0
    name: "613_zero_point"
  }
  initializer {
    data_type: 2
    int32_data: 0
    name: "612_zero_point"
  }
  initializer {
    data_type: 1
    float_data: 0.023529412
    name: "612_scale"
  }
  initializer {
    dims: 1
    data_type: 1
    name: "614_scale"
    raw_data: "h\372\227:"
  }
  initializer {
    dims: 1
    data_type: 6
    name: "614_zero_point"
    raw_data: "\000\000\000\000"
  }
  initializer {
    data_type: 1
    float_data: 0.004802136
    name: "616_scale"
  }
  initializer {
    data_type: 3
    int32_data: 0
    name: "616_zero_point"
  }
  initializer {
    data_type: 2
    int32_data: 131
    name: "615_zero_point"
  }
  initializer {
    data_type: 1
    float_data: 0.1445715
    name: "615_scale"
  }
  initializer {
    dims: 1
    data_type: 1
    name: "617_scale"
    raw_data: "\322\365\3548"
  }
  initializer {
    dims: 1
    data_type: 6
    name: "617_zero_point"
    raw_data: "\000\000\000\000"
  }
  initializer {
    data_type: 2
    int32_data: 110
    name: "452_zero_point"
  }
  initializer {
    data_type: 1
    float_data: 0.23722179
    name: "452_scale"
  }
  initializer {
    data_type: 1
    float_data: 0.0010381987
    name: "619_scale"
  }
  initializer {
    data_type: 3
    int32_data: 0
    name: "619_zero_point"
  }
  initializer {
    data_type: 2
    int32_data: 0
    name: "618_zero_point"
  }
  initializer {
    data_type: 1
    float_data: 0.015018467
    name: "618_scale"
  }
  initializer {
    dims: 1
    data_type: 1
    name: "620_scale"
    raw_data: "\230\037\2019"
  }
  initializer {
    dims: 1
    data_type: 6
    name: "620_zero_point"
    raw_data: "\000\000\000\000"
  }
  initializer {
    data_type: 1
    float_data: 0.07043054
    name: "622_scale"
  }
  initializer {
    data_type: 3
    int32_data: 0
    name: "622_zero_point"
  }
  initializer {
    data_type: 2
    int32_data: 0
    name: "621_zero_point"
  }
  initializer {
    data_type: 1
    float_data: 0.008207709
    name: "621_scale"
  }
  initializer {
    dims: 1
    data_type: 1
    name: "623_scale"
    raw_data: "~\244\212:"
  }
  initializer {
    dims: 1
    data_type: 6
    name: "623_zero_point"
    raw_data: "\000\000\000\000"
  }
  initializer {
    data_type: 1
    float_data: 0.00507597
    name: "625_scale"
  }
  initializer {
    data_type: 3
    int32_data: 0
    name: "625_zero_point"
  }
  initializer {
    data_type: 2
    int32_data: 123
    name: "624_zero_point"
  }
  initializer {
    data_type: 1
    float_data: 0.014525251
    name: "624_scale"
  }
  initializer {
    dims: 1
    data_type: 1
    name: "626_scale"
    raw_data: "S\276.8"
  }
  initializer {
    dims: 1
    data_type: 6
    name: "626_zero_point"
    raw_data: "\000\000\000\000"
  }
  initializer {
    data_type: 1
    float_data: 0.013814686
    name: "628_scale"
  }
  initializer {
    data_type: 3
    int32_data: 0
    name: "628_zero_point"
  }
  initializer {
    data_type: 2
    int32_data: 0
    name: "627_zero_point"
  }
  initializer {
    data_type: 1
    float_data: 0.023529412
    name: "627_scale"
  }
  initializer {
    dims: 1
    data_type: 1
    name: "629_scale"
    raw_data: "\275hR9"
  }
  initializer {
    dims: 1
    data_type: 6
    name: "629_zero_point"
    raw_data: "\000\000\000\000"
  }
  initializer {
    data_type: 2
    int32_data: 0
    name: "464_zero_point"
  }
  initializer {
    data_type: 1
    float_data: 0.019110054
    name: "464_scale"
  }
  initializer {
    data_type: 1
    float_data: 0.0026049719
    name: "classifier.1.weight_scale"
  }
  initializer {
    data_type: 3
    int32_data: 0
    name: "classifier.1.weight_zero_point"
  }
  initializer {
    data_type: 2
    int32_data: 76
    name: "output_MatMul_zero_point"
  }
  initializer {
    data_type: 1
    float_data: 0.16079935
    name: "output_MatMul_scale"
  }
  input {
    name: "input"
    type {
      tensor_type {
        elem_type: 1
        shape {
          dim {
            dim_param: "batch_size"
          }
          dim {
            dim_value: 3
          }
          dim {
            dim_value: 224
          }
          dim {
            dim_value: 224
          }
        }
      }
    }
  }
  input {
    name: "classifier.1.bias"
    type {
      tensor_type {
        elem_type: 1
        shape {
          dim {
            dim_value: 1000
          }
        }
      }
    }
  }
  input {
    name: "475_quantized"
    type {
      tensor_type {
        elem_type: 3
        shape {
          dim {
            dim_value: 32
          }
          dim {
            dim_value: 3
          }
          dim {
            dim_value: 3
          }
          dim {
            dim_value: 3
          }
        }
      }
    }
  }
  input {
    name: "478_quantized"
    type {
      tensor_type {
        elem_type: 3
        shape {
          dim {
            dim_value: 32
          }
          dim {
            dim_value: 1
          }
          dim {
            dim_value: 3
          }
          dim {
            dim_value: 3
          }
        }
      }
    }
  }
  input {
    name: "481_quantized"
    type {
      tensor_type {
        elem_type: 3
        shape {
          dim {
            dim_value: 16
          }
          dim {
            dim_value: 32
          }
          dim {
            dim_value: 1
          }
          dim {
            dim_value: 1
          }
        }
      }
    }
  }
  input {
    name: "484_quantized"
    type {
      tensor_type {
        elem_type: 3
        shape {
          dim {
            dim_value: 96
          }
          dim {
            dim_value: 16
          }
          dim {
            dim_value: 1
          }
          dim {
            dim_value: 1
          }
        }
      }
    }
  }
  input {
    name: "485_quantized"
    type {
      tensor_type {
        elem_type: 6
        shape {
          dim {
            dim_value: 96
          }
        }
      }
    }
  }
  input {
    name: "487_quantized"
    type {
      tensor_type {
        elem_type: 3
        shape {
          dim {
            dim_value: 96
          }
          dim {
            dim_value: 1
          }
          dim {
            dim_value: 3
          }
          dim {
            dim_value: 3
          }
        }
      }
    }
  }
  input {
    name: "488_quantized"
    type {
      tensor_type {
        elem_type: 6
        shape {
          dim {
            dim_value: 96
          }
        }
      }
    }
  }
  input {
    name: "490_quantized"
    type {
      tensor_type {
        elem_type: 3
        shape {
          dim {
            dim_value: 24
          }
          dim {
            dim_value: 96
          }
          dim {
            dim_value: 1
          }
          dim {
            dim_value: 1
          }
        }
      }
    }
  }
  input {
    name: "493_quantized"
    type {
      tensor_type {
        elem_type: 3
        shape {
          dim {
            dim_value: 144
          }
          dim {
            dim_value: 24
          }
          dim {
            dim_value: 1
          }
          dim {
            dim_value: 1
          }
        }
      }
    }
  }
  input {
    name: "494_quantized"
    type {
      tensor_type {
        elem_type: 6
        shape {
          dim {
            dim_value: 144
          }
        }
      }
    }
  }
  input {
    name: "496_quantized"
    type {
      tensor_type {
        elem_type: 3
        shape {
          dim {
            dim_value: 144
          }
          dim {
            dim_value: 1
          }
          dim {
            dim_value: 3
          }
          dim {
            dim_value: 3
          }
        }
      }
    }
  }
  input {
    name: "497_quantized"
    type {
      tensor_type {
        elem_type: 6
        shape {
          dim {
            dim_value: 144
          }
        }
      }
    }
  }
  input {
    name: "499_quantized"
    type {
      tensor_type {
        elem_type: 3
        shape {
          dim {
            dim_value: 24
          }
          dim {
            dim_value: 144
          }
          dim {
            dim_value: 1
          }
          dim {
            dim_value: 1
          }
        }
      }
    }
  }
  input {
    name: "502_quantized"
    type {
      tensor_type {
        elem_type: 3
        shape {
          dim {
            dim_value: 144
          }
          dim {
            dim_value: 24
          }
          dim {
            dim_value: 1
          }
          dim {
            dim_value: 1
          }
        }
      }
    }
  }
  input {
    name: "503_quantized"
    type {
      tensor_type {
        elem_type: 6
        shape {
          dim {
            dim_value: 144
          }
        }
      }
    }
  }
  input {
    name: "505_quantized"
    type {
      tensor_type {
        elem_type: 3
        shape {
          dim {
            dim_value: 144
          }
          dim {
            dim_value: 1
          }
          dim {
            dim_value: 3
          }
          dim {
            dim_value: 3
          }
        }
      }
    }
  }
  input {
    name: "506_quantized"
    type {
      tensor_type {
        elem_type: 6
        shape {
          dim {
            dim_value: 144
          }
        }
      }
    }
  }
  input {
    name: "508_quantized"
    type {
      tensor_type {
        elem_type: 3
        shape {
          dim {
            dim_value: 32
          }
          dim {
            dim_value: 144
          }
          dim {
            dim_value: 1
          }
          dim {
            dim_value: 1
          }
        }
      }
    }
  }
  input {
    name: "511_quantized"
    type {
      tensor_type {
        elem_type: 3
        shape {
          dim {
            dim_value: 192
          }
          dim {
            dim_value: 32
          }
          dim {
            dim_value: 1
          }
          dim {
            dim_value: 1
          }
        }
      }
    }
  }
  input {
    name: "512_quantized"
    type {
      tensor_type {
        elem_type: 6
        shape {
          dim {
            dim_value: 192
          }
        }
      }
    }
  }
  input {
    name: "514_quantized"
    type {
      tensor_type {
        elem_type: 3
        shape {
          dim {
            dim_value: 192
          }
          dim {
            dim_value: 1
          }
          dim {
            dim_value: 3
          }
          dim {
            dim_value: 3
          }
        }
      }
    }
  }
  input {
    name: "515_quantized"
    type {
      tensor_type {
        elem_type: 6
        shape {
          dim {
            dim_value: 192
          }
        }
      }
    }
  }
  input {
    name: "517_quantized"
    type {
      tensor_type {
        elem_type: 3
        shape {
          dim {
            dim_value: 32
          }
          dim {
            dim_value: 192
          }
          dim {
            dim_value: 1
          }
          dim {
            dim_value: 1
          }
        }
      }
    }
  }
  input {
    name: "520_quantized"
    type {
      tensor_type {
        elem_type: 3
        shape {
          dim {
            dim_value: 192
          }
          dim {
            dim_value: 32
          }
          dim {
            dim_value: 1
          }
          dim {
            dim_value: 1
          }
        }
      }
    }
  }
  input {
    name: "521_quantized"
    type {
      tensor_type {
        elem_type: 6
        shape {
          dim {
            dim_value: 192
          }
        }
      }
    }
  }
  input {
    name: "523_quantized"
    type {
      tensor_type {
        elem_type: 3
        shape {
          dim {
            dim_value: 192
          }
          dim {
            dim_value: 1
          }
          dim {
            dim_value: 3
          }
          dim {
            dim_value: 3
          }
        }
      }
    }
  }
  input {
    name: "524_quantized"
    type {
      tensor_type {
        elem_type: 6
        shape {
          dim {
            dim_value: 192
          }
        }
      }
    }
  }
  input {
    name: "526_quantized"
    type {
      tensor_type {
        elem_type: 3
        shape {
          dim {
            dim_value: 32
          }
          dim {
            dim_value: 192
          }
          dim {
            dim_value: 1
          }
          dim {
            dim_value: 1
          }
        }
      }
    }
  }
  input {
    name: "529_quantized"
    type {
      tensor_type {
        elem_type: 3
        shape {
          dim {
            dim_value: 192
          }
          dim {
            dim_value: 32
          }
          dim {
            dim_value: 1
          }
          dim {
            dim_value: 1
          }
        }
      }
    }
  }
  input {
    name: "530_quantized"
    type {
      tensor_type {
        elem_type: 6
        shape {
          dim {
            dim_value: 192
          }
        }
      }
    }
  }
  input {
    name: "532_quantized"
    type {
      tensor_type {
        elem_type: 3
        shape {
          dim {
            dim_value: 192
          }
          dim {
            dim_value: 1
          }
          dim {
            dim_value: 3
          }
          dim {
            dim_value: 3
          }
        }
      }
    }
  }
  input {
    name: "533_quantized"
    type {
      tensor_type {
        elem_type: 6
        shape {
          dim {
            dim_value: 192
          }
        }
      }
    }
  }
  input {
    name: "535_quantized"
    type {
      tensor_type {
        elem_type: 3
        shape {
          dim {
            dim_value: 64
          }
          dim {
            dim_value: 192
          }
          dim {
            dim_value: 1
          }
          dim {
            dim_value: 1
          }
        }
      }
    }
  }
  input {
    name: "538_quantized"
    type {
      tensor_type {
        elem_type: 3
        shape {
          dim {
            dim_value: 384
          }
          dim {
            dim_value: 64
          }
          dim {
            dim_value: 1
          }
          dim {
            dim_value: 1
          }
        }
      }
    }
  }
  input {
    name: "539_quantized"
    type {
      tensor_type {
        elem_type: 6
        shape {
          dim {
            dim_value: 384
          }
        }
      }
    }
  }
  input {
    name: "541_quantized"
    type {
      tensor_type {
        elem_type: 3
        shape {
          dim {
            dim_value: 384
          }
          dim {
            dim_value: 1
          }
          dim {
            dim_value: 3
          }
          dim {
            dim_value: 3
          }
        }
      }
    }
  }
  input {
    name: "542_quantized"
    type {
      tensor_type {
        elem_type: 6
        shape {
          dim {
            dim_value: 384
          }
        }
      }
    }
  }
  input {
    name: "544_quantized"
    type {
      tensor_type {
        elem_type: 3
        shape {
          dim {
            dim_value: 64
          }
          dim {
            dim_value: 384
          }
          dim {
            dim_value: 1
          }
          dim {
            dim_value: 1
          }
        }
      }
    }
  }
  input {
    name: "547_quantized"
    type {
      tensor_type {
        elem_type: 3
        shape {
          dim {
            dim_value: 384
          }
          dim {
            dim_value: 64
          }
          dim {
            dim_value: 1
          }
          dim {
            dim_value: 1
          }
        }
      }
    }
  }
  input {
    name: "548_quantized"
    type {
      tensor_type {
        elem_type: 6
        shape {
          dim {
            dim_value: 384
          }
        }
      }
    }
  }
  input {
    name: "550_quantized"
    type {
      tensor_type {
        elem_type: 3
        shape {
          dim {
            dim_value: 384
          }
          dim {
            dim_value: 1
          }
          dim {
            dim_value: 3
          }
          dim {
            dim_value: 3
          }
        }
      }
    }
  }
  input {
    name: "551_quantized"
    type {
      tensor_type {
        elem_type: 6
        shape {
          dim {
            dim_value: 384
          }
        }
      }
    }
  }
  input {
    name: "553_quantized"
    type {
      tensor_type {
        elem_type: 3
        shape {
          dim {
            dim_value: 64
          }
          dim {
            dim_value: 384
          }
          dim {
            dim_value: 1
          }
          dim {
            dim_value: 1
          }
        }
      }
    }
  }
  input {
    name: "556_quantized"
    type {
      tensor_type {
        elem_type: 3
        shape {
          dim {
            dim_value: 384
          }
          dim {
            dim_value: 64
          }
          dim {
            dim_value: 1
          }
          dim {
            dim_value: 1
          }
        }
      }
    }
  }
  input {
    name: "557_quantized"
    type {
      tensor_type {
        elem_type: 6
        shape {
          dim {
            dim_value: 384
          }
        }
      }
    }
  }
  input {
    name: "559_quantized"
    type {
      tensor_type {
        elem_type: 3
        shape {
          dim {
            dim_value: 384
          }
          dim {
            dim_value: 1
          }
          dim {
            dim_value: 3
          }
          dim {
            dim_value: 3
          }
        }
      }
    }
  }
  input {
    name: "560_quantized"
    type {
      tensor_type {
        elem_type: 6
        shape {
          dim {
            dim_value: 384
          }
        }
      }
    }
  }
  input {
    name: "562_quantized"
    type {
      tensor_type {
        elem_type: 3
        shape {
          dim {
            dim_value: 64
          }
          dim {
            dim_value: 384
          }
          dim {
            dim_value: 1
          }
          dim {
            dim_value: 1
          }
        }
      }
    }
  }
  input {
    name: "565_quantized"
    type {
      tensor_type {
        elem_type: 3
        shape {
          dim {
            dim_value: 384
          }
          dim {
            dim_value: 64
          }
          dim {
            dim_value: 1
          }
          dim {
            dim_value: 1
          }
        }
      }
    }
  }
  input {
    name: "566_quantized"
    type {
      tensor_type {
        elem_type: 6
        shape {
          dim {
            dim_value: 384
          }
        }
      }
    }
  }
  input {
    name: "568_quantized"
    type {
      tensor_type {
        elem_type: 3
        shape {
          dim {
            dim_value: 384
          }
          dim {
            dim_value: 1
          }
          dim {
            dim_value: 3
          }
          dim {
            dim_value: 3
          }
        }
      }
    }
  }
  input {
    name: "569_quantized"
    type {
      tensor_type {
        elem_type: 6
        shape {
          dim {
            dim_value: 384
          }
        }
      }
    }
  }
  input {
    name: "571_quantized"
    type {
      tensor_type {
        elem_type: 3
        shape {
          dim {
            dim_value: 96
          }
          dim {
            dim_value: 384
          }
          dim {
            dim_value: 1
          }
          dim {
            dim_value: 1
          }
        }
      }
    }
  }
  input {
    name: "572_quantized"
    type {
      tensor_type {
        elem_type: 6
        shape {
          dim {
            dim_value: 96
          }
        }
      }
    }
  }
  input {
    name: "574_quantized"
    type {
      tensor_type {
        elem_type: 3
        shape {
          dim {
            dim_value: 576
          }
          dim {
            dim_value: 96
          }
          dim {
            dim_value: 1
          }
          dim {
            dim_value: 1
          }
        }
      }
    }
  }
  input {
    name: "575_quantized"
    type {
      tensor_type {
        elem_type: 6
        shape {
          dim {
            dim_value: 576
          }
        }
      }
    }
  }
  input {
    name: "577_quantized"
    type {
      tensor_type {
        elem_type: 3
        shape {
          dim {
            dim_value: 576
          }
          dim {
            dim_value: 1
          }
          dim {
            dim_value: 3
          }
          dim {
            dim_value: 3
          }
        }
      }
    }
  }
  input {
    name: "578_quantized"
    type {
      tensor_type {
        elem_type: 6
        shape {
          dim {
            dim_value: 576
          }
        }
      }
    }
  }
  input {
    name: "580_quantized"
    type {
      tensor_type {
        elem_type: 3
        shape {
          dim {
            dim_value: 96
          }
          dim {
            dim_value: 576
          }
          dim {
            dim_value: 1
          }
          dim {
            dim_value: 1
          }
        }
      }
    }
  }
  input {
    name: "581_quantized"
    type {
      tensor_type {
        elem_type: 6
        shape {
          dim {
            dim_value: 96
          }
        }
      }
    }
  }
  input {
    name: "583_quantized"
    type {
      tensor_type {
        elem_type: 3
        shape {
          dim {
            dim_value: 576
          }
          dim {
            dim_value: 96
          }
          dim {
            dim_value: 1
          }
          dim {
            dim_value: 1
          }
        }
      }
    }
  }
  input {
    name: "584_quantized"
    type {
      tensor_type {
        elem_type: 6
        shape {
          dim {
            dim_value: 576
          }
        }
      }
    }
  }
  input {
    name: "586_quantized"
    type {
      tensor_type {
        elem_type: 3
        shape {
          dim {
            dim_value: 576
          }
          dim {
            dim_value: 1
          }
          dim {
            dim_value: 3
          }
          dim {
            dim_value: 3
          }
        }
      }
    }
  }
  input {
    name: "587_quantized"
    type {
      tensor_type {
        elem_type: 6
        shape {
          dim {
            dim_value: 576
          }
        }
      }
    }
  }
  input {
    name: "589_quantized"
    type {
      tensor_type {
        elem_type: 3
        shape {
          dim {
            dim_value: 96
          }
          dim {
            dim_value: 576
          }
          dim {
            dim_value: 1
          }
          dim {
            dim_value: 1
          }
        }
      }
    }
  }
  input {
    name: "590_quantized"
    type {
      tensor_type {
        elem_type: 6
        shape {
          dim {
            dim_value: 96
          }
        }
      }
    }
  }
  input {
    name: "592_quantized"
    type {
      tensor_type {
        elem_type: 3
        shape {
          dim {
            dim_value: 576
          }
          dim {
            dim_value: 96
          }
          dim {
            dim_value: 1
          }
          dim {
            dim_value: 1
          }
        }
      }
    }
  }
  input {
    name: "593_quantized"
    type {
      tensor_type {
        elem_type: 6
        shape {
          dim {
            dim_value: 576
          }
        }
      }
    }
  }
  input {
    name: "595_quantized"
    type {
      tensor_type {
        elem_type: 3
        shape {
          dim {
            dim_value: 576
          }
          dim {
            dim_value: 1
          }
          dim {
            dim_value: 3
          }
          dim {
            dim_value: 3
          }
        }
      }
    }
  }
  input {
    name: "596_quantized"
    type {
      tensor_type {
        elem_type: 6
        shape {
          dim {
            dim_value: 576
          }
        }
      }
    }
  }
  input {
    name: "598_quantized"
    type {
      tensor_type {
        elem_type: 3
        shape {
          dim {
            dim_value: 160
          }
          dim {
            dim_value: 576
          }
          dim {
            dim_value: 1
          }
          dim {
            dim_value: 1
          }
        }
      }
    }
  }
  input {
    name: "599_quantized"
    type {
      tensor_type {
        elem_type: 6
        shape {
          dim {
            dim_value: 160
          }
        }
      }
    }
  }
  input {
    name: "601_quantized"
    type {
      tensor_type {
        elem_type: 3
        shape {
          dim {
            dim_value: 960
          }
          dim {
            dim_value: 160
          }
          dim {
            dim_value: 1
          }
          dim {
            dim_value: 1
          }
        }
      }
    }
  }
  input {
    name: "602_quantized"
    type {
      tensor_type {
        elem_type: 6
        shape {
          dim {
            dim_value: 960
          }
        }
      }
    }
  }
  input {
    name: "604_quantized"
    type {
      tensor_type {
        elem_type: 3
        shape {
          dim {
            dim_value: 960
          }
          dim {
            dim_value: 1
          }
          dim {
            dim_value: 3
          }
          dim {
            dim_value: 3
          }
        }
      }
    }
  }
  input {
    name: "605_quantized"
    type {
      tensor_type {
        elem_type: 6
        shape {
          dim {
            dim_value: 960
          }
        }
      }
    }
  }
  input {
    name: "607_quantized"
    type {
      tensor_type {
        elem_type: 3
        shape {
          dim {
            dim_value: 160
          }
          dim {
            dim_value: 960
          }
          dim {
            dim_value: 1
          }
          dim {
            dim_value: 1
          }
        }
      }
    }
  }
  input {
    name: "608_quantized"
    type {
      tensor_type {
        elem_type: 6
        shape {
          dim {
            dim_value: 160
          }
        }
      }
    }
  }
  input {
    name: "610_quantized"
    type {
      tensor_type {
        elem_type: 3
        shape {
          dim {
            dim_value: 960
          }
          dim {
            dim_value: 160
          }
          dim {
            dim_value: 1
          }
          dim {
            dim_value: 1
          }
        }
      }
    }
  }
  input {
    name: "611_quantized"
    type {
      tensor_type {
        elem_type: 6
        shape {
          dim {
            dim_value: 960
          }
        }
      }
    }
  }
  input {
    name: "613_quantized"
    type {
      tensor_type {
        elem_type: 3
        shape {
          dim {
            dim_value: 960
          }
          dim {
            dim_value: 1
          }
          dim {
            dim_value: 3
          }
          dim {
            dim_value: 3
          }
        }
      }
    }
  }
  input {
    name: "614_quantized"
    type {
      tensor_type {
        elem_type: 6
        shape {
          dim {
            dim_value: 960
          }
        }
      }
    }
  }
  input {
    name: "616_quantized"
    type {
      tensor_type {
        elem_type: 3
        shape {
          dim {
            dim_value: 160
          }
          dim {
            dim_value: 960
          }
          dim {
            dim_value: 1
          }
          dim {
            dim_value: 1
          }
        }
      }
    }
  }
  input {
    name: "617_quantized"
    type {
      tensor_type {
        elem_type: 6
        shape {
          dim {
            dim_value: 160
          }
        }
      }
    }
  }
  input {
    name: "619_quantized"
    type {
      tensor_type {
        elem_type: 3
        shape {
          dim {
            dim_value: 960
          }
          dim {
            dim_value: 160
          }
          dim {
            dim_value: 1
          }
          dim {
            dim_value: 1
          }
        }
      }
    }
  }
  input {
    name: "620_quantized"
    type {
      tensor_type {
        elem_type: 6
        shape {
          dim {
            dim_value: 960
          }
        }
      }
    }
  }
  input {
    name: "622_quantized"
    type {
      tensor_type {
        elem_type: 3
        shape {
          dim {
            dim_value: 960
          }
          dim {
            dim_value: 1
          }
          dim {
            dim_value: 3
          }
          dim {
            dim_value: 3
          }
        }
      }
    }
  }
  input {
    name: "623_quantized"
    type {
      tensor_type {
        elem_type: 6
        shape {
          dim {
            dim_value: 960
          }
        }
      }
    }
  }
  input {
    name: "625_quantized"
    type {
      tensor_type {
        elem_type: 3
        shape {
          dim {
            dim_value: 320
          }
          dim {
            dim_value: 960
          }
          dim {
            dim_value: 1
          }
          dim {
            dim_value: 1
          }
        }
      }
    }
  }
  input {
    name: "626_quantized"
    type {
      tensor_type {
        elem_type: 6
        shape {
          dim {
            dim_value: 320
          }
        }
      }
    }
  }
  input {
    name: "628_quantized"
    type {
      tensor_type {
        elem_type: 3
        shape {
          dim {
            dim_value: 1280
          }
          dim {
            dim_value: 320
          }
          dim {
            dim_value: 1
          }
          dim {
            dim_value: 1
          }
        }
      }
    }
  }
  input {
    name: "629_quantized"
    type {
      tensor_type {
        elem_type: 6
        shape {
          dim {
            dim_value: 1280
          }
        }
      }
    }
  }
  input {
    name: "classifier.1.weight_quantized"
    type {
      tensor_type {
        elem_type: 3
        shape {
          dim {
            dim_value: 1280
          }
          dim {
            dim_value: 1000
          }
        }
      }
    }
  }
  output {
    name: "output"
    type {
      tensor_type {
        elem_type: 1
        shape {
          dim {
            dim_param: "batch_size"
          }
          dim {
            dim_value: 1000
          }
        }
      }
    }
  }
  value_info {
    name: "630"
    type {
      tensor_type {
        elem_type: 7
        shape {
          dim {
            dim_value: 1
          }
        }
      }
    }
  }
  value_info {
    name: "466"
    type {
      tensor_type {
        elem_type: 7
        shape {
        }
      }
    }
  }
  value_info {
    name: "input_zero_point"
    type {
      tensor_type {
        elem_type: 2
        shape {
        }
      }
    }
  }
  value_info {
    name: "input_scale"
    type {
      tensor_type {
        elem_type: 1
        shape {
        }
      }
    }
  }
  value_info {
    name: "475_scale"
    type {
      tensor_type {
        elem_type: 1
        shape {
        }
      }
    }
  }
  value_info {
    name: "475_zero_point"
    type {
      tensor_type {
        elem_type: 3
        shape {
        }
      }
    }
  }
  value_info {
    name: "474_zero_point"
    type {
      tensor_type {
        elem_type: 2
        shape {
        }
      }
    }
  }
  value_info {
    name: "474_scale"
    type {
      tensor_type {
        elem_type: 1
        shape {
        }
      }
    }
  }
  value_info {
    name: "476_quantized"
    type {
      tensor_type {
        elem_type: 6
        shape {
          dim {
            dim_value: 32
          }
        }
      }
    }
  }
  value_info {
    name: "476_scale"
    type {
      tensor_type {
        elem_type: 1
        shape {
          dim {
            dim_value: 1
          }
        }
      }
    }
  }
  value_info {
    name: "476_zero_point"
    type {
      tensor_type {
        elem_type: 6
        shape {
          dim {
            dim_value: 1
          }
        }
      }
    }
  }
  value_info {
    name: "478_scale"
    type {
      tensor_type {
        elem_type: 1
        shape {
        }
      }
    }
  }
  value_info {
    name: "478_zero_point"
    type {
      tensor_type {
        elem_type: 3
        shape {
        }
      }
    }
  }
  value_info {
    name: "477_zero_point"
    type {
      tensor_type {
        elem_type: 2
        shape {
        }
      }
    }
  }
  value_info {
    name: "477_scale"
    type {
      tensor_type {
        elem_type: 1
        shape {
        }
      }
    }
  }
  value_info {
    name: "479_quantized"
    type {
      tensor_type {
        elem_type: 6
        shape {
          dim {
            dim_value: 32
          }
        }
      }
    }
  }
  value_info {
    name: "479_scale"
    type {
      tensor_type {
        elem_type: 1
        shape {
          dim {
            dim_value: 1
          }
        }
      }
    }
  }
  value_info {
    name: "479_zero_point"
    type {
      tensor_type {
        elem_type: 6
        shape {
          dim {
            dim_value: 1
          }
        }
      }
    }
  }
  value_info {
    name: "481_scale"
    type {
      tensor_type {
        elem_type: 1
        shape {
        }
      }
    }
  }
  value_info {
    name: "481_zero_point"
    type {
      tensor_type {
        elem_type: 3
        shape {
        }
      }
    }
  }
  value_info {
    name: "480_zero_point"
    type {
      tensor_type {
        elem_type: 2
        shape {
        }
      }
    }
  }
  value_info {
    name: "480_scale"
    type {
      tensor_type {
        elem_type: 1
        shape {
        }
      }
    }
  }
  value_info {
    name: "482_quantized"
    type {
      tensor_type {
        elem_type: 6
        shape {
          dim {
            dim_value: 16
          }
        }
      }
    }
  }
  value_info {
    name: "482_scale"
    type {
      tensor_type {
        elem_type: 1
        shape {
          dim {
            dim_value: 1
          }
        }
      }
    }
  }
  value_info {
    name: "482_zero_point"
    type {
      tensor_type {
        elem_type: 6
        shape {
          dim {
            dim_value: 1
          }
        }
      }
    }
  }
  value_info {
    name: "484_scale"
    type {
      tensor_type {
        elem_type: 1
        shape {
        }
      }
    }
  }
  value_info {
    name: "484_zero_point"
    type {
      tensor_type {
        elem_type: 3
        shape {
        }
      }
    }
  }
  value_info {
    name: "483_zero_point"
    type {
      tensor_type {
        elem_type: 2
        shape {
        }
      }
    }
  }
  value_info {
    name: "483_scale"
    type {
      tensor_type {
        elem_type: 1
        shape {
        }
      }
    }
  }
  value_info {
    name: "485_scale"
    type {
      tensor_type {
        elem_type: 1
        shape {
          dim {
            dim_value: 1
          }
        }
      }
    }
  }
  value_info {
    name: "485_zero_point"
    type {
      tensor_type {
        elem_type: 6
        shape {
          dim {
            dim_value: 1
          }
        }
      }
    }
  }
  value_info {
    name: "487_scale"
    type {
      tensor_type {
        elem_type: 1
        shape {
        }
      }
    }
  }
  value_info {
    name: "487_zero_point"
    type {
      tensor_type {
        elem_type: 3
        shape {
        }
      }
    }
  }
  value_info {
    name: "486_zero_point"
    type {
      tensor_type {
        elem_type: 2
        shape {
        }
      }
    }
  }
  value_info {
    name: "486_scale"
    type {
      tensor_type {
        elem_type: 1
        shape {
        }
      }
    }
  }
  value_info {
    name: "488_scale"
    type {
      tensor_type {
        elem_type: 1
        shape {
          dim {
            dim_value: 1
          }
        }
      }
    }
  }
  value_info {
    name: "488_zero_point"
    type {
      tensor_type {
        elem_type: 6
        shape {
          dim {
            dim_value: 1
          }
        }
      }
    }
  }
  value_info {
    name: "490_scale"
    type {
      tensor_type {
        elem_type: 1
        shape {
        }
      }
    }
  }
  value_info {
    name: "490_zero_point"
    type {
      tensor_type {
        elem_type: 3
        shape {
        }
      }
    }
  }
  value_info {
    name: "489_zero_point"
    type {
      tensor_type {
        elem_type: 2
        shape {
        }
      }
    }
  }
  value_info {
    name: "489_scale"
    type {
      tensor_type {
        elem_type: 1
        shape {
        }
      }
    }
  }
  value_info {
    name: "491_quantized"
    type {
      tensor_type {
        elem_type: 6
        shape {
          dim {
            dim_value: 24
          }
        }
      }
    }
  }
  value_info {
    name: "491_scale"
    type {
      tensor_type {
        elem_type: 1
        shape {
          dim {
            dim_value: 1
          }
        }
      }
    }
  }
  value_info {
    name: "491_zero_point"
    type {
      tensor_type {
        elem_type: 6
        shape {
          dim {
            dim_value: 1
          }
        }
      }
    }
  }
  value_info {
    name: "493_scale"
    type {
      tensor_type {
        elem_type: 1
        shape {
        }
      }
    }
  }
  value_info {
    name: "493_zero_point"
    type {
      tensor_type {
        elem_type: 3
        shape {
        }
      }
    }
  }
  value_info {
    name: "492_zero_point"
    type {
      tensor_type {
        elem_type: 2
        shape {
        }
      }
    }
  }
  value_info {
    name: "492_scale"
    type {
      tensor_type {
        elem_type: 1
        shape {
        }
      }
    }
  }
  value_info {
    name: "494_scale"
    type {
      tensor_type {
        elem_type: 1
        shape {
          dim {
            dim_value: 1
          }
        }
      }
    }
  }
  value_info {
    name: "494_zero_point"
    type {
      tensor_type {
        elem_type: 6
        shape {
          dim {
            dim_value: 1
          }
        }
      }
    }
  }
  value_info {
    name: "496_scale"
    type {
      tensor_type {
        elem_type: 1
        shape {
        }
      }
    }
  }
  value_info {
    name: "496_zero_point"
    type {
      tensor_type {
        elem_type: 3
        shape {
        }
      }
    }
  }
  value_info {
    name: "495_zero_point"
    type {
      tensor_type {
        elem_type: 2
        shape {
        }
      }
    }
  }
  value_info {
    name: "495_scale"
    type {
      tensor_type {
        elem_type: 1
        shape {
        }
      }
    }
  }
  value_info {
    name: "497_scale"
    type {
      tensor_type {
        elem_type: 1
        shape {
          dim {
            dim_value: 1
          }
        }
      }
    }
  }
  value_info {
    name: "497_zero_point"
    type {
      tensor_type {
        elem_type: 6
        shape {
          dim {
            dim_value: 1
          }
        }
      }
    }
  }
  value_info {
    name: "499_scale"
    type {
      tensor_type {
        elem_type: 1
        shape {
        }
      }
    }
  }
  value_info {
    name: "499_zero_point"
    type {
      tensor_type {
        elem_type: 3
        shape {
        }
      }
    }
  }
  value_info {
    name: "498_zero_point"
    type {
      tensor_type {
        elem_type: 2
        shape {
        }
      }
    }
  }
  value_info {
    name: "498_scale"
    type {
      tensor_type {
        elem_type: 1
        shape {
        }
      }
    }
  }
  value_info {
    name: "500_quantized"
    type {
      tensor_type {
        elem_type: 6
        shape {
          dim {
            dim_value: 24
          }
        }
      }
    }
  }
  value_info {
    name: "500_scale"
    type {
      tensor_type {
        elem_type: 1
        shape {
          dim {
            dim_value: 1
          }
        }
      }
    }
  }
  value_info {
    name: "500_zero_point"
    type {
      tensor_type {
        elem_type: 6
        shape {
          dim {
            dim_value: 1
          }
        }
      }
    }
  }
  value_info {
    name: "339_zero_point"
    type {
      tensor_type {
        elem_type: 2
        shape {
        }
      }
    }
  }
  value_info {
    name: "339_scale"
    type {
      tensor_type {
        elem_type: 1
…
        shape {
          dim {
            dim_value: 1
          }
        }
      }
    }
  }
  value_info {
    name: "517_scale"
    type {
      tensor_type {
        elem_type: 1
        shape {
        }
      }
    }
  }
  value_info {
    name: "517_zero_point"
    type {
      tensor_type {
        elem_type: 3
        shape {
        }
      }
    }
  }
  value_info {
    name: "516_zero_point"
    type {
      tensor_type {
        elem_type: 2
        shape {
        }
      }
    }
  }
  value_info {
    name: "516_scale"
    type {
      tensor_type {
        elem_type: 1
        shape {
        }
      }
    }
  }
  value_info {
    name: "518_quantized"
    type {
      tensor_type {
        elem_type: 6
        shape {
          dim {
            dim_value: 32
          }
        }
      }
    }
  }
  value_info {
    name: "518_scale"
    type {
      tensor_type {
        elem_type: 1
        shape {
          dim {
            dim_value: 1
          }
        }
      }
    }
  }
  value_info {
    name: "518_zero_point"
    type {
      tensor_type {
        elem_type: 6
        shape {
          dim {
            dim_value: 1
          }
        }
      }
    }
  }
  value_info {
    name: "356_zero_point"
    type {
      tensor_type {
        elem_type: 2
        shape {
        }
      }
    }
  }
  value_info {
    name: "356_scale"
    type {
      tensor_type {
        elem_type: 1
        shape {
        }
      }
    }
  }
  value_info {
    name: "520_scale"
    type {
      tensor_type {
        elem_type: 1
        shape {
        }
      }
    }
  }
  value_info {
    name: "520_zero_point"
    type {
      tensor_type {
        elem_type: 3
        shape {
        }
      }
    }
  }
  value_info {
    name: "519_zero_point"
    type {
      tensor_type {
        elem_type: 2
        shape {
        }
      }
    }
  }
  value_info {
    name: "519_scale"
    type {
      tensor_type {
        elem_type: 1
        shape {
        }
      }
    }
  }
  value_info {
    name: "521_scale"
    type {
      tensor_type {
        elem_type: 1
        shape {
          dim {
            dim_value: 1
          }
        }
      }
    }
  }
  value_info {
    name: "521_zero_point"
    type {
      tensor_type {
        elem_type: 6
        shape {
          dim {
            dim_value: 1
          }
        }
      }
    }
  }
  value_info {
    name: "523_scale"
    type {
      tensor_type {
        elem_type: 1
        shape {
        }
      }
    }
  }
  value_info {
    name: "523_zero_point"
    type {
      tensor_type {
        elem_type: 3
        shape {
        }
      }
    }
  }
  value_info {
    name: "522_zero_point"
    type {
      tensor_type {
        elem_type: 2
        shape {
        }
      }
    }
  }
  value_info {
    name: "522_scale"
    type {
      tensor_type {
        elem_type: 1
        shape {
        }
      }
    }
  }
  value_info {
    name: "524_scale"
    type {
      tensor_type {
        elem_type: 1
        shape {
          dim {
            dim_value: 1
          }
        }
      }
    }
  }
  value_info {
    name: "524_zero_point"
    type {
      tensor_type {
        elem_type: 6
        shape {
          dim {
            dim_value: 1
          }
        }
      }
    }
  }
  value_info {
    name: "526_scale"
    type {
      tensor_type {
        elem_type: 1
        shape {
        }
      }
    }
  }
  value_info {
    name: "526_zero_point"
    type {
      tensor_type {
        elem_type: 3
        shape {
        }
      }
    }
  }
  value_info {
    name: "525_zero_point"
    type {
      tensor_type {
        elem_type: 2
        shape {
        }
      }
    }
  }
  value_info {
    name: "525_scale"
    type {
      tensor_type {
        elem_type: 1
        shape {
        }
      }
    }
  }
  value_info {
    name: "527_quantized"
    type {
      tensor_type {
        elem_type: 6
        shape {
          dim {
            dim_value: 32
          }
        }
      }
    }
  }
  value_info {
    name: "527_scale"
    type {
      tensor_type {
        elem_type: 1
        shape {
          dim {
            dim_value: 1
          }
        }
      }
    }
  }
  value_info {
    name: "527_zero_point"
    type {
      tensor_type {
        elem_type: 6
        shape {
          dim {
            dim_value: 1
          }
        }
      }
    }
  }
  value_info {
    name: "365_zero_point"
    type {
      tensor_type {
        elem_type: 2
        shape {
        }
      }
    }
  }
  value_info {
    name: "365_scale"
    type {
      tensor_type {
        elem_type: 1
        shape {
        }
      }
    }
  }
  value_info {
    name: "529_scale"
    type {
      tensor_type {
        elem_type: 1
        shape {
        }
      }
    }
  }
  value_info {
    name: "529_zero_point"
    type {
      tensor_type {
        elem_type: 3
        shape {
        }
      }
    }
  }
  value_info {
    name: "528_zero_point"
    type {
      tensor_type {
        elem_type: 2
        shape {
        }
      }
    }
  }
  value_info {
    name: "528_scale"
    type {
      tensor_type {
        elem_type: 1
        shape {
        }
      }
    }
  }
  value_info {
    name: "530_scale"
    type {
      tensor_type {
        elem_type: 1
        shape {
          dim {
            dim_value: 1
          }
        }
      }
    }
  }
  value_info {
    name: "530_zero_point"
    type {
      tensor_type {
        elem_type: 6
        shape {
          dim {
            dim_value: 1
          }
        }
      }
    }
  }
  value_info {
    name: "532_scale"
    type {
      tensor_type {
        elem_type: 1
        shape {
        }
      }
    }
  }
  value_info {
    name: "532_zero_point"
    type {
      tensor_type {
        elem_type: 3
        shape {
        }
      }
    }
  }
  value_info {
    name: "531_zero_point"
    type {
      tensor_type {
        elem_type: 2
        shape {
        }
      }
    }
  }
  value_info {
    name: "531_scale"
    type {
      tensor_type {
        elem_type: 1
        shape {
        }
      }
    }
  }
  value_info {
    name: "533_scale"
    type {
      tensor_type {
        elem_type: 1
        shape {
          dim {
            dim_value: 1
          }
        }
      }
    }
  }
  value_info {
    name: "533_zero_point"
    type {
      tensor_type {
        elem_type: 6
        shape {
          dim {
            dim_value: 1
          }
        }
      }
    }
  }
  value_info {
    name: "535_scale"
    type {
      tensor_type {
        elem_type: 1
        shape {
        }
      }
    }
  }
  value_info {
    name: "535_zero_point"
    type {
      tensor_type {
        elem_type: 3
        shape {
        }
      }
    }
  }
  value_info {
    name: "534_zero_point"
    type {
      tensor_type {
        elem_type: 2
        shape {
        }
      }
    }
  }
  value_info {
    name: "534_scale"
    type {
      tensor_type {
        elem_type: 1
        shape {
        }
      }
    }
  }
  value_info {
    name: "536_quantized"
    type {
      tensor_type {
        elem_type: 6
        shape {
          dim {
            dim_value: 64
          }
        }
      }
    }
  }
  value_info {
    name: "536_scale"
    type {
      tensor_type {
        elem_type: 1
        shape {
          dim {
            dim_value: 1
          }
        }
      }
    }
  }
  value_info {
    name: "536_zero_point"
    type {
      tensor_type {
        elem_type: 6
        shape {
          dim {
            dim_value: 1
          }
        }
      }
    }
  }
  value_info {
    name: "538_scale"
    type {
      tensor_type {
        elem_type: 1
        shape {
        }
      }
    }
  }
  value_info {
    name: "538_zero_point"
    type {
      tensor_type {
        elem_type: 3
        shape {
        }
      }
    }
  }
  value_info {
    name: "537_zero_point"
    type {
      tensor_type {
        elem_type: 2
        shape {
        }
      }
    }
  }
  value_info {
    name: "537_scale"
    type {
      tensor_type {
        elem_type: 1
        shape {
        }
      }
    }
  }
  value_info {
    name: "539_scale"
    type {
      tensor_type {
        elem_type: 1
        shape {
          dim {
            dim_value: 1
          }
        }
      }
    }
  }
  value_info {
    name: "539_zero_point"
    type {
      tensor_type {
        elem_type: 6
        shape {
          dim {
            dim_value: 1
          }
        }
      }
    }
  }
  value_info {
    name: "541_scale"
    type {
      tensor_type {
        elem_type: 1
        shape {
        }
      }
    }
  }
  value_info {
    name: "541_zero_point"
    type {
      tensor_type {
        elem_type: 3
        shape {
        }
      }
    }
  }
  value_info {
    name: "540_zero_point"
    type {
      tensor_type {
        elem_type: 2
        shape {
        }
      }
    }
  }
  value_info {
    name: "540_scale"
    type {
      tensor_type {
        elem_type: 1
        shape {
        }
      }
    }
  }
  value_info {
    name: "542_scale"
    type {
      tensor_type {
        elem_type: 1
        shape {
          dim {
            dim_value: 1
          }
        }
      }
    }
  }
  value_info {
    name: "542_zero_point"
    type {
      tensor_type {
        elem_type: 6
        shape {
          dim {
            dim_value: 1
          }
        }
      }
    }
  }
  value_info {
    name: "544_scale"
    type {
      tensor_type {
        elem_type: 1
        shape {
        }
      }
    }
  }
  value_info {
    name: "544_zero_point"
    type {
      tensor_type {
        elem_type: 3
        shape {
        }
      }
    }
  }
  value_info {
    name: "543_zero_point"
    type {
      tensor_type {
        elem_type: 2
        shape {
        }
      }
    }
  }
  value_info {
    name: "543_scale"
    type {
      tensor_type {
        elem_type: 1
        shape {
        }
      }
    }
  }
  value_info {
    name: "545_quantized"
    type {
      tensor_type {
        elem_type: 6
        shape {
          dim {
            dim_value: 64
          }
        }
      }
    }
  }
  value_info {
    name: "545_scale"
    type {
      tensor_type {
        elem_type: 1
        shape {
          dim {
            dim_value: 1
          }
        }
      }
    }
  }
  value_info {
    name: "545_zero_point"
    type {
      tensor_type {
        elem_type: 6
        shape {
          dim {
            dim_value: 1
          }
        }
      }
    }
  }
  value_info {
    name: "382_zero_point"
    type {
      tensor_type {
        elem_type: 2
        shape {
        }
      }
    }
  }
  value_info {
    name: "382_scale"
    type {
      tensor_type {
        elem_type: 1
        shape {
        }
      }
    }
  }
  value_info {
    name: "547_scale"
    type {
      tensor_type {
        elem_type: 1
        shape {
        }
      }
    }
  }
  value_info {
    name: "547_zero_point"
    type {
      tensor_type {
        elem_type: 3
        shape {
        }
      }
    }
  }
  value_info {
    name: "546_zero_point"
    type {
      tensor_type {
        elem_type: 2
        shape {
        }
      }
    }
  }
  value_info {
    name: "546_scale"
    type {
      tensor_type {
        elem_type: 1
        shape {
        }
      }
    }
  }
  value_info {
    name: "548_scale"
    type {
      tensor_type {
        elem_type: 1
        shape {
          dim {
            dim_value: 1
          }
        }
      }
    }
  }
  value_info {
    name: "548_zero_point"
    type {
      tensor_type {
        elem_type: 6
        shape {
          dim {
            dim_value: 1
          }
        }
      }
    }
  }
  value_info {
    name: "550_scale"
    type {
      tensor_type {
        elem_type: 1
        shape {
        }
      }
    }
  }
  value_info {
    name: "550_zero_point"
    type {
      tensor_type {
        elem_type: 3
        shape {
        }
      }
    }
  }
  value_info {
    name: "549_zero_point"
    type {
      tensor_type {
        elem_type: 2
        shape {
        }
      }
    }
  }
  value_info {
    name: "549_scale"
    type {
      tensor_type {
        elem_type: 1
        shape {
        }
      }
    }
  }
  value_info {
    name: "551_scale"
    type {
      tensor_type {
        elem_type: 1
        shape {
          dim {
            dim_value: 1
          }
        }
      }
    }
  }
  value_info {
    name: "551_zero_point"
    type {
      tensor_type {
        elem_type: 6
        shape {
          dim {
            dim_value: 1
          }
        }
      }
    }
  }
  value_info {
    name: "553_scale"
    type {
      tensor_type {
        elem_type: 1
        shape {
        }
      }
    }
  }
  value_info {
    name: "553_zero_point"
    type {
      tensor_type {
        elem_type: 3
        shape {
        }
      }
    }
  }
  value_info {
    name: "552_zero_point"
    type {
      tensor_type {
        elem_type: 2
        shape {
        }
      }
    }
  }
  value_info {
    name: "552_scale"
    type {
      tensor_type {
        elem_type: 1
        shape {
        }
      }
    }
  }
  value_info {
    name: "554_quantized"
    type {
      tensor_type {
        elem_type: 6
        shape {
          dim {
            dim_value: 64
          }
        }
      }
    }
  }
  value_info {
    name: "554_scale"
    type {
      tensor_type {
        elem_type: 1
        shape {
          dim {
            dim_value: 1
          }
        }
      }
    }
  }
  value_info {
    name: "554_zero_point"
    type {
      tensor_type {
        elem_type: 6
        shape {
          dim {
            dim_value: 1
          }
        }
      }
    }
  }
  value_info {
    name: "391_zero_point"
    type {
      tensor_type {
        elem_type: 2
        shape {
        }
      }
    }
  }
  value_info {
    name: "391_scale"
    type {
      tensor_type {
        elem_type: 1
        shape {
        }
      }
    }
  }
  value_info {
    name: "556_scale"
    type {
      tensor_type {
        elem_type: 1
        shape {
        }
      }
    }
  }
  value_info {
    name: "556_zero_point"
    type {
      tensor_type {
        elem_type: 3
        shape {
        }
      }
    }
  }
  value_info {
    name: "555_zero_point"
    type {
      tensor_type {
        elem_type: 2
        shape {
        }
      }
    }
  }
  value_info {
    name: "555_scale"
    type {
      tensor_type {
        elem_type: 1
        shape {
        }
      }
    }
  }
  value_info {
    name: "557_scale"
    type {
      tensor_type {
        elem_type: 1
        shape {
          dim {
            dim_value: 1
          }
        }
      }
    }
  }
  value_info {
    name: "557_zero_point"
    type {
      tensor_type {
        elem_type: 6
        shape {
          dim {
            dim_value: 1
          }
        }
      }
    }
  }
  value_info {
    name: "559_scale"
    type {
      tensor_type {
        elem_type: 1
        shape {
        }
      }
    }
  }
  value_info {
    name: "559_zero_point"
    type {
      tensor_type {
        elem_type: 3
        shape {
        }
      }
    }
  }
  value_info {
    name: "558_zero_point"
    type {
      tensor_type {
        elem_type: 2
        shape {
        }
      }
    }
  }
  value_info {
    name: "558_scale"
    type {
      tensor_type {
        elem_type: 1
        shape {
        }
      }
    }
  }
  value_info {
    name: "560_scale"
    type {
      tensor_type {
        elem_type: 1
        shape {
          dim {
            dim_value: 1
          }
        }
      }
    }
  }
  value_info {
    name: "560_zero_point"
    type {
      tensor_type {
        elem_type: 6
        shape {
          dim {
            dim_value: 1
          }
        }
      }
    }
  }
  value_info {
    name: "562_scale"
    type {
      tensor_type {
        elem_type: 1
        shape {
        }
      }
    }
  }
  value_info {
    name: "562_zero_point"
    type {
      tensor_type {
        elem_type: 3
        shape {
        }
      }
    }
  }
  value_info {
    name: "561_zero_point"
    type {
      tensor_type {
        elem_type: 2
        shape {
        }
      }
    }
  }
  value_info {
    name: "561_scale"
    type {
      tensor_type {
        elem_type: 1
        shape {
        }
      }
    }
  }
  value_info {
    name: "563_quantized"
    type {
      tensor_type {
        elem_type: 6
        shape {
          dim {
            dim_value: 64
          }
        }
      }
    }
  }
  value_info {
    name: "563_scale"
    type {
      tensor_type {
        elem_type: 1
        shape {
          dim {
            dim_value: 1
          }
        }
      }
    }
  }
  value_info {
    name: "563_zero_point"
    type {
      tensor_type {
        elem_type: 6
        shape {
          dim {
            dim_value: 1
          }
        }
      }
    }
  }
  value_info {
    name: "400_zero_point"
    type {
      tensor_type {
        elem_type: 2
        shape {
        }
      }
    }
  }
  value_info {
    name: "400_scale"
    type {
      tensor_type {
        elem_type: 1
        shape {
        }
      }
    }
  }
  value_info {
    name: "565_scale"
    type {
      tensor_type {
        elem_type: 1
        shape {
        }
      }
    }
  }
  value_info {
    name: "565_zero_point"
    type {
      tensor_type {
        elem_type: 3
        shape {
        }
      }
    }
  }
  value_info {
    name: "564_zero_point"
    type {
      tensor_type {
        elem_type: 2
        shape {
        }
      }
    }
  }
  value_info {
    name: "564_scale"
    type {
      tensor_type {
        elem_type: 1
        shape {
        }
      }
    }
  }
  value_info {
    name: "566_scale"
    type {
      tensor_type {
        elem_type: 1
        shape {
          dim {
            dim_value: 1
          }
        }
      }
    }
  }
  value_info {
    name: "566_zero_point"
    type {
      tensor_type {
        elem_type: 6
        shape {
          dim {
            dim_value: 1
          }
        }
      }
    }
  }
  value_info {
    name: "568_scale"
    type {
      tensor_type {
        elem_type: 1
        shape {
        }
      }
    }
  }
  value_info {
    name: "568_zero_point"
    type {
      tensor_type {
        elem_type: 3
        shape {
        }
      }
    }
  }
  value_info {
    name: "567_zero_point"
    type {
      tensor_type {
        elem_type: 2
        shape {
        }
      }
    }
  }
  value_info {
    name: "567_scale"
    type {
      tensor_type {
        elem_type: 1
        shape {
        }
      }
    }
  }
  value_info {
    name: "569_scale"
    type {
      tensor_type {
        elem_type: 1
        shape {
          dim {
            dim_value: 1
          }
        }
      }
    }
  }
  value_info {
    name: "569_zero_point"
    type {
      tensor_type {
        elem_type: 6
        shape {
          dim {
            dim_value: 1
          }
        }
      }
    }
  }
  value_info {
    name: "571_scale"
    type {
      tensor_type {
        elem_type: 1
        shape {
        }
      }
    }
  }
  value_info {
    name: "571_zero_point"
    type {
      tensor_type {
        elem_type: 3
        shape {
        }
      }
    }
  }
  value_info {
    name: "570_zero_point"
    type {
      tensor_type {
        elem_type: 2
        shape {
        }
      }
    }
  }
  value_info {
    name: "570_scale"
    type {
      tensor_type {
        elem_type: 1
        shape {
        }
      }
    }
  }
  value_info {
    name: "572_scale"
    type {
      tensor_type {
        elem_type: 1
        shape {
          dim {
            dim_value: 1
          }
        }
      }
    }
  }
  value_info {
    name: "572_zero_point"
    type {
      tensor_type {
        elem_type: 6
        shape {
          dim {
            dim_value: 1
          }
        }
      }
    }
  }
  value_info {
    name: "574_scale"
    type {
      tensor_type {
        elem_type: 1
        shape {
        }
      }
    }
  }
  value_info {
    name: "574_zero_point"
    type {
      tensor_type {
        elem_type: 3
        shape {
        }
      }
    }
  }
  value_info {
    name: "573_zero_point"
    type {
      tensor_type {
        elem_type: 2
        shape {
        }
      }
    }
  }
  value_info {
    name: "573_scale"
    type {
      tensor_type {
        elem_type: 1
        shape {
        }
      }
    }
  }
  value_info {
    name: "575_scale"
    type {
      tensor_type {
        elem_type: 1
        shape {
          dim {
            dim_value: 1
          }
        }
      }
    }
  }
  value_info {
    name: "575_zero_point"
    type {
      tensor_type {
        elem_type: 6
        shape {
          dim {
            dim_value: 1
          }
        }
      }
    }
  }
  value_info {
    name: "577_scale"
    type {
      tensor_type {
        elem_type: 1
        shape {
        }
      }
    }
  }
  value_info {
    name: "577_zero_point"
    type {
      tensor_type {
        elem_type: 3
        shape {
        }
      }
    }
  }
  value_info {
    name: "576_zero_point"
    type {
      tensor_type {
        elem_type: 2
        shape {
        }
      }
    }
  }
  value_info {
    name: "576_scale"
    type {
      tensor_type {
        elem_type: 1
        shape {
        }
      }
    }
  }
  value_info {
    name: "578_scale"
    type {
      tensor_type {
        elem_type: 1
        shape {
          dim {
            dim_value: 1
          }
        }
      }
    }
  }
  value_info {
    name: "578_zero_point"
    type {
      tensor_type {
        elem_type: 6
        shape {
          dim {
            dim_value: 1
          }
        }
      }
    }
  }
  value_info {
    name: "580_scale"
    type {
      tensor_type {
        elem_type: 1
        shape {
        }
      }
    }
  }
  value_info {
    name: "580_zero_point"
    type {
      tensor_type {
        elem_type: 3
        shape {
        }
      }
    }
  }
  value_info {
    name: "579_zero_point"
    type {
      tensor_type {
        elem_type: 2
        shape {
        }
      }
    }
  }
  value_info {
    name: "579_scale"
    type {
      tensor_type {
        elem_type: 1
        shape {
        }
      }
    }
  }
  value_info {
    name: "581_scale"
    type {
      tensor_type {
        elem_type: 1
        shape {
          dim {
            dim_value: 1
          }
        }
      }
    }
  }
  value_info {
    name: "581_zero_point"
    type {
      tensor_type {
        elem_type: 6
        shape {
          dim {
            dim_value: 1
          }
        }
      }
    }
  }
  value_info {
    name: "417_zero_point"
    type {
      tensor_type {
        elem_type: 2
        shape {
        }
      }
    }
  }
  value_info {
    name: "417_scale"
    type {
      tensor_type {
        elem_type: 1
        shape {
        }
      }
    }
  }
  value_info {
    name: "583_scale"
    type {
      tensor_type {
        elem_type: 1
        shape {
        }
      }
    }
  }
  value_info {
    name: "583_zero_point"
    type {
      tensor_type {
        elem_type: 3
        shape {
        }
      }
    }
  }
  value_info {
    name: "582_zero_point"
    type {
      tensor_type {
        elem_type: 2
        shape {
        }
      }
    }
  }
  value_info {
    name: "582_scale"
    type {
      tensor_type {
        elem_type: 1
        shape {
        }
      }
    }
  }
  value_info {
    name: "584_scale"
    type {
      tensor_type {
        elem_type: 1
        shape {
          dim {
            dim_value: 1
          }
        }
      }
    }
  }
  value_info {
    name: "584_zero_point"
    type {
      tensor_type {
        elem_type: 6
        shape {
          dim {
            dim_value: 1
          }
        }
      }
    }
  }
  value_info {
    name: "586_scale"
    type {
      tensor_type {
        elem_type: 1
        shape {
        }
      }
    }
  }
  value_info {
    name: "586_zero_point"
    type {
      tensor_type {
        elem_type: 3
        shape {
        }
      }
    }
  }
  value_info {
    name: "585_zero_point"
    type {
      tensor_type {
        elem_type: 2
        shape {
        }
      }
    }
  }
  value_info {
    name: "585_scale"
    type {
      tensor_type {
        elem_type: 1
        shape {
        }
      }
    }
  }
  value_info {
    name: "587_scale"
    type {
      tensor_type {
        elem_type: 1
        shape {
          dim {
            dim_value: 1
          }
        }
      }
    }
  }
  value_info {
    name: "587_zero_point"
    type {
      tensor_type {
        elem_type: 6
        shape {
          dim {
            dim_value: 1
          }
        }
      }
    }
  }
  value_info {
    name: "589_scale"
    type {
      tensor_type {
        elem_type: 1
        shape {
        }
      }
    }
  }
  value_info {
    name: "589_zero_point"
    type {
      tensor_type {
        elem_type: 3
        shape {
        }
      }
    }
  }
  value_info {
    name: "588_zero_point"
    type {
      tensor_type {
        elem_type: 2
        shape {
        }
      }
    }
  }
  value_info {
    name: "588_scale"
    type {
      tensor_type {
        elem_type: 1
        shape {
        }
      }
    }
  }
  value_info {
    name: "590_scale"
    type {
      tensor_type {
        elem_type: 1
        shape {
          dim {
            dim_value: 1
          }
        }
      }
    }
  }
  value_info {
    name: "590_zero_point"
    type {
      tensor_type {
        elem_type: 6
        shape {
          dim {
            dim_value: 1
          }
        }
      }
    }
  }
  value_info {
    name: "426_zero_point"
    type {
      tensor_type {
        elem_type: 2
        shape {
        }
      }
    }
  }
  value_info {
    name: "426_scale"
    type {
      tensor_type {
        elem_type: 1
        shape {
        }
      }
    }
  }
  value_info {
    name: "592_scale"
    type {
      tensor_type {
        elem_type: 1
        shape {
        }
      }
    }
  }
  value_info {
    name: "592_zero_point"
    type {
      tensor_type {
        elem_type: 3
        shape {
        }
      }
    }
  }
  value_info {
    name: "591_zero_point"
    type {
      tensor_type {
        elem_type: 2
        shape {
        }
      }
    }
  }
  value_info {
    name: "591_scale"
    type {
      tensor_type {
        elem_type: 1
        shape {
        }
      }
    }
  }
  value_info {
    name: "593_scale"
    type {
      tensor_type {
        elem_type: 1
        shape {
          dim {
            dim_value: 1
          }
        }
      }
    }
  }
  value_info {
    name: "593_zero_point"
    type {
      tensor_type {
        elem_type: 6
        shape {
          dim {
            dim_value: 1
          }
        }
      }
    }
  }
  value_info {
    name: "595_scale"
    type {
      tensor_type {
        elem_type: 1
        shape {
        }
      }
    }
  }
  value_info {
    name: "595_zero_point"
    type {
      tensor_type {
        elem_type: 3
        shape {
        }
      }
    }
  }
  value_info {
    name: "594_zero_point"
    type {
      tensor_type {
        elem_type: 2
        shape {
        }
      }
    }
  }
  value_info {
    name: "594_scale"
    type {
      tensor_type {
        elem_type: 1
        shape {
        }
      }
    }
  }
  value_info {
    name: "596_scale"
    type {
      tensor_type {
        elem_type: 1
        shape {
          dim {
            dim_value: 1
          }
        }
      }
    }
  }
  value_info {
    name: "596_zero_point"
    type {
      tensor_type {
        elem_type: 6
        shape {
          dim {
            dim_value: 1
          }
        }
      }
    }
  }
  value_info {
    name: "598_scale"
    type {
      tensor_type {
        elem_type: 1
        shape {
        }
      }
    }
  }
  value_info {
    name: "598_zero_point"
    type {
      tensor_type {
        elem_type: 3
        shape {
        }
      }
    }
  }
  value_info {
    name: "597_zero_point"
    type {
      tensor_type {
        elem_type: 2
        shape {
        }
      }
    }
  }
  value_info {
    name: "597_scale"
    type {
      tensor_type {
        elem_type: 1
        shape {
        }
      }
    }
  }
  value_info {
    name: "599_scale"
    type {
      tensor_type {
        elem_type: 1
        shape {
          dim {
            dim_value: 1
          }
        }
      }
    }
  }
  value_info {
    name: "599_zero_point"
    type {
      tensor_type {
        elem_type: 6
        shape {
          dim {
            dim_value: 1
          }
        }
      }
    }
  }
  value_info {
    name: "601_scale"
    type {
      tensor_type {
        elem_type: 1
        shape {
        }
      }
    }
  }
  value_info {
    name: "601_zero_point"
    type {
      tensor_type {
        elem_type: 3
        shape {
        }
      }
    }
  }
  value_info {
    name: "600_zero_point"
    type {
      tensor_type {
        elem_type: 2
        shape {
        }
      }
    }
  }
  value_info {
    name: "600_scale"
    type {
      tensor_type {
        elem_type: 1
        shape {
        }
      }
    }
  }
  value_info {
    name: "602_scale"
    type {
      tensor_type {
        elem_type: 1
        shape {
          dim {
            dim_value: 1
          }
        }
      }
    }
  }
  value_info {
    name: "602_zero_point"
    type {
      tensor_type {
        elem_type: 6
        shape {
          dim {
            dim_value: 1
          }
        }
      }
    }
  }
  value_info {
    name: "604_scale"
    type {
      tensor_type {
        elem_type: 1
        shape {
        }
      }
    }
  }
  value_info {
    name: "604_zero_point"
    type {
      tensor_type {
        elem_type: 3
        shape {
        }
      }
    }
  }
  value_info {
    name: "603_zero_point"
    type {
      tensor_type {
        elem_type: 2
        shape {
        }
      }
    }
  }
  value_info {
    name: "603_scale"
    type {
      tensor_type {
        elem_type: 1
        shape {
        }
      }
    }
  }
  value_info {
    name: "605_scale"
    type {
      tensor_type {
        elem_type: 1
        shape {
          dim {
            dim_value: 1
          }
        }
      }
    }
  }
  value_info {
    name: "605_zero_point"
    type {
      tensor_type {
        elem_type: 6
        shape {
          dim {
            dim_value: 1
          }
        }
      }
    }
  }
  value_info {
    name: "607_scale"
    type {
      tensor_type {
        elem_type: 1
        shape {
        }
      }
    }
  }
  value_info {
    name: "607_zero_point"
    type {
      tensor_type {
        elem_type: 3
        shape {
        }
      }
    }
  }
  value_info {
    name: "606_zero_point"
    type {
      tensor_type {
        elem_type: 2
        shape {
        }
      }
    }
  }
  value_info {
    name: "606_scale"
    type {
      tensor_type {
        elem_type: 1
        shape {
        }
      }
    }
  }
  value_info {
    name: "608_scale"
    type {
      tensor_type {
        elem_type: 1
        shape {
          dim {
            dim_value: 1
          }
        }
      }
    }
  }
  value_info {
    name: "608_zero_point"
    type {
      tensor_type {
        elem_type: 6
        shape {
          dim {
            dim_value: 1
          }
        }
      }
    }
  }
  value_info {
    name: "443_zero_point"
    type {
      tensor_type {
        elem_type: 2
        shape {
        }
      }
    }
  }
  value_info {
    name: "443_scale"
    type {
      tensor_type {
        elem_type: 1
        shape {
        }
      }
    }
  }
  value_info {
    name: "610_scale"
    type {
      tensor_type {
        elem_type: 1
        shape {
        }
      }
    }
  }
  value_info {
    name: "610_zero_point"
    type {
      tensor_type {
        elem_type: 3
        shape {
        }
      }
    }
  }
  value_info {
    name: "609_zero_point"
    type {
      tensor_type {
        elem_type: 2
        shape {
        }
      }
    }
  }
  value_info {
    name: "609_scale"
    type {
      tensor_type {
        elem_type: 1
        shape {
        }
      }
    }
  }
  value_info {
    name: "611_scale"
    type {
      tensor_type {
        elem_type: 1
        shape {
          dim {
            dim_value: 1
          }
        }
      }
    }
  }
  value_info {
    name: "611_zero_point"
    type {
      tensor_type {
        elem_type: 6
        shape {
          dim {
            dim_value: 1
          }
        }
      }
    }
  }
  value_info {
    name: "613_scale"
    type {
      tensor_type {
        elem_type: 1
        shape {
        }
      }
    }
  }
  value_info {
    name: "613_zero_point"
    type {
      tensor_type {
        elem_type: 3
        shape {
        }
      }
    }
  }
  value_info {
    name: "612_zero_point"
    type {
      tensor_type {
        elem_type: 2
        shape {
        }
      }
    }
  }
  value_info {
    name: "612_scale"
    type {
      tensor_type {
        elem_type: 1
        shape {
        }
      }
    }
  }
  value_info {
    name: "614_scale"
    type {
      tensor_type {
        elem_type: 1
        shape {
          dim {
            dim_value: 1
          }
        }
      }
    }
  }
  value_info {
    name: "614_zero_point"
    type {
      tensor_type {
        elem_type: 6
        shape {
          dim {
            dim_value: 1
          }
        }
      }
    }
  }
  value_info {
    name: "616_scale"
    type {
      tensor_type {
        elem_type: 1
        shape {
        }
      }
    }
  }
  value_info {
    name: "616_zero_point"
    type {
      tensor_type {
        elem_type: 3
        shape {
        }
      }
    }
  }
  value_info {
    name: "615_zero_point"
    type {
      tensor_type {
        elem_type: 2
        shape {
        }
      }
    }
  }
  value_info {
    name: "615_scale"
    type {
      tensor_type {
        elem_type: 1
        shape {
        }
      }
    }
  }
  value_info {
    name: "617_scale"
    type {
      tensor_type {
        elem_type: 1
        shape {
          dim {
            dim_value: 1
          }
        }
      }
    }
  }
  value_info {
    name: "617_zero_point"
    type {
      tensor_type {
        elem_type: 6
        shape {
          dim {
            dim_value: 1
          }
        }
      }
    }
  }
  value_info {
    name: "452_zero_point"
    type {
      tensor_type {
        elem_type: 2
        shape {
        }
      }
    }
  }
  value_info {
    name: "452_scale"
    type {
      tensor_type {
        elem_type: 1
        shape {
        }
      }
    }
  }
  value_info {
    name: "619_scale"
    type {
      tensor_type {
        elem_type: 1
        shape {
        }
      }
    }
  }
  value_info {
    name: "619_zero_point"
    type {
      tensor_type {
        elem_type: 3
        shape {
        }
      }
    }
  }
  value_info {
    name: "618_zero_point"
    type {
      tensor_type {
        elem_type: 2
        shape {
        }
      }
    }
  }
  value_info {
    name: "618_scale"
    type {
      tensor_type {
        elem_type: 1
        shape {
        }
      }
    }
  }
  value_info {
    name: "620_scale"
    type {
      tensor_type {
        elem_type: 1
        shape {
          dim {
            dim_value: 1
          }
        }
      }
    }
  }
  value_info {
    name: "620_zero_point"
    type {
      tensor_type {
        elem_type: 6
        shape {
          dim {
            dim_value: 1
          }
        }
      }
    }
  }
  value_info {
    name: "622_scale"
    type {
      tensor_type {
        elem_type: 1
        shape {
        }
      }
    }
  }
  value_info {
    name: "622_zero_point"
    type {
      tensor_type {
        elem_type: 3
        shape {
        }
      }
    }
  }
  value_info {
    name: "621_zero_point"
    type {
      tensor_type {
        elem_type: 2
        shape {
        }
      }
    }
  }
  value_info {
    name: "621_scale"
    type {
      tensor_type {
        elem_type: 1
        shape {
        }
      }
    }
  }
  value_info {
    name: "623_scale"
    type {
      tensor_type {
        elem_type: 1
        shape {
          dim {
            dim_value: 1
          }
        }
      }
    }
  }
  value_info {
    name: "623_zero_point"
    type {
      tensor_type {
        elem_type: 6
        shape {
          dim {
            dim_value: 1
          }
        }
      }
    }
  }
  value_info {
    name: "625_scale"
    type {
      tensor_type {
        elem_type: 1
        shape {
        }
      }
    }
  }
  value_info {
    name: "625_zero_point"
    type {
      tensor_type {
        elem_type: 3
        shape {
        }
      }
    }
  }
  value_info {
    name: "624_zero_point"
    type {
      tensor_type {
        elem_type: 2
        shape {
        }
      }
    }
  }
  value_info {
    name: "624_scale"
    type {
      tensor_type {
        elem_type: 1
        shape {
        }
      }
    }
  }
  value_info {
    name: "626_scale"
    type {
      tensor_type {
        elem_type: 1
        shape {
          dim {
            dim_value: 1
          }
        }
      }
    }
  }
  value_info {
    name: "626_zero_point"
    type {
      tensor_type {
        elem_type: 6
        shape {
          dim {
            dim_value: 1
          }
        }
      }
    }
  }
  value_info {
    name: "628_scale"
    type {
      tensor_type {
        elem_type: 1
        shape {
        }
      }
    }
  }
  value_info {
    name: "628_zero_point"
    type {
      tensor_type {
        elem_type: 3
        shape {
        }
      }
    }
  }
  value_info {
    name: "627_zero_point"
    type {
      tensor_type {
        elem_type: 2
        shape {
        }
      }
    }
  }
  value_info {
    name: "627_scale"
    type {
      tensor_type {
        elem_type: 1
        shape {
        }
      }
    }
  }
  value_info {
    name: "629_scale"
    type {
      tensor_type {
        elem_type: 1
        shape {
          dim {
            dim_value: 1
          }
        }
      }
    }
  }
  value_info {
    name: "629_zero_point"
    type {
      tensor_type {
        elem_type: 6
        shape {
          dim {
            dim_value: 1
          }
        }
      }
    }
  }
  value_info {
    name: "464_zero_point"
    type {
      tensor_type {
        elem_type: 2
        shape {
        }
      }
    }
  }
  value_info {
    name: "464_scale"
    type {
      tensor_type {
        elem_type: 1
        shape {
        }
      }
    }
  }
  value_info {
    name: "classifier.1.weight_scale"
    type {
      tensor_type {
        elem_type: 1
        shape {
        }
      }
    }
  }
  value_info {
    name: "classifier.1.weight_zero_point"
    type {
      tensor_type {
        elem_type: 3
        shape {
        }
      }
    }
  }
  value_info {
    name: "output_MatMul_zero_point"
    type {
      tensor_type {
        elem_type: 2
        shape {
        }
      }
    }
  }
  value_info {
    name: "output_MatMul_scale"
    type {
      tensor_type {
        elem_type: 1
        shape {
        }
      }
    }
  }
  value_info {
    name: "489"
    type {
      tensor_type {
        elem_type: 1
        shape {
          dim {
            dim_param: "batch_size"
          }
          dim {
            dim_value: 24
          }
          dim {
            dim_value: 56
          }
          dim {
            dim_value: 56
          }
        }
      }
    }
  }
  value_info {
    name: "498"
    type {
      tensor_type {
        elem_type: 1
        shape {
          dim {
            dim_param: "batch_size"
          }
          dim {
            dim_value: 24
          }
          dim {
            dim_value: 56
          }
          dim {
            dim_value: 56
          }
        }
      }
    }
  }
  value_info {
    name: "339"
    type {
      tensor_type {
        elem_type: 1
        shape {
          dim {
            dim_param: "batch_size"
          }
          dim {
            dim_value: 24
          }
          dim {
            dim_value: 56
          }
          dim {
            dim_value: 56
          }
        }
      }
    }
  }
  value_info {
    name: "507"
    type {
      tensor_type {
        elem_type: 1
        shape {
          dim {
            dim_param: "batch_size"
          }
          dim {
            dim_value: 32
          }
          dim {
            dim_value: 28
          }
          dim {
            dim_value: 28
          }
        }
      }
    }
  }
  value_info {
    name: "516"
    type {
      tensor_type {
        elem_type: 1
        shape {
          dim {
            dim_param: "batch_size"
          }
          dim {
            dim_value: 32
          }
          dim {
            dim_value: 28
          }
          dim {
            dim_value: 28
          }
        }
      }
    }
  }
  value_info {
    name: "356"
    type {
      tensor_type {
        elem_type: 1
        shape {
          dim {
            dim_param: "batch_size"
          }
          dim {
            dim_value: 32
          }
          dim {
            dim_value: 28
          }
          dim {
            dim_value: 28
          }
        }
      }
    }
  }
  value_info {
    name: "525"
    type {
      tensor_type {
        elem_type: 1
        shape {
          dim {
            dim_param: "batch_size"
          }
          dim {
            dim_value: 32
          }
          dim {
            dim_value: 28
          }
          dim {
            dim_value: 28
          }
        }
      }
    }
  }
  value_info {
    name: "365"
    type {
      tensor_type {
        elem_type: 1
        shape {
          dim {
            dim_param: "batch_size"
          }
          dim {
            dim_value: 32
          }
          dim {
            dim_value: 28
          }
          dim {
            dim_value: 28
          }
        }
      }
    }
  }
  value_info {
    name: "534"
    type {
      tensor_type {
        elem_type: 1
        shape {
          dim {
            dim_param: "batch_size"
          }
          dim {
            dim_value: 64
          }
          dim {
            dim_value: 14
          }
          dim {
            dim_value: 14
          }
        }
      }
    }
  }
  value_info {
    name: "543"
    type {
      tensor_type {
        elem_type: 1
        shape {
          dim {
            dim_param: "batch_size"
          }
          dim {
            dim_value: 64
          }
          dim {
            dim_value: 14
          }
          dim {
            dim_value: 14
          }
        }
      }
    }
  }
  value_info {
    name: "382"
    type {
      tensor_type {
        elem_type: 1
        shape {
          dim {
            dim_param: "batch_size"
          }
          dim {
            dim_value: 64
          }
          dim {
            dim_value: 14
          }
          dim {
            dim_value: 14
          }
        }
      }
    }
  }
  value_info {
    name: "552"
    type {
      tensor_type {
        elem_type: 1
        shape {
          dim {
            dim_param: "batch_size"
          }
          dim {
            dim_value: 64
          }
          dim {
            dim_value: 14
          }
          dim {
            dim_value: 14
          }
        }
      }
    }
  }
  value_info {
    name: "391"
    type {
      tensor_type {
        elem_type: 1
        shape {
          dim {
            dim_param: "batch_size"
          }
          dim {
            dim_value: 64
          }
          dim {
            dim_value: 14
          }
          dim {
            dim_value: 14
          }
        }
      }
    }
  }
  value_info {
    name: "561"
    type {
      tensor_type {
        elem_type: 1
        shape {
          dim {
            dim_param: "batch_size"
          }
          dim {
            dim_value: 64
          }
          dim {
            dim_value: 14
          }
          dim {
            dim_value: 14
          }
        }
      }
    }
  }
  value_info {
    name: "400"
    type {
      tensor_type {
        elem_type: 1
        shape {
          dim {
            dim_param: "batch_size"
          }
          dim {
            dim_value: 64
          }
          dim {
            dim_value: 14
          }
          dim {
            dim_value: 14
          }
        }
      }
    }
  }
  value_info {
    name: "570"
    type {
      tensor_type {
        elem_type: 1
        shape {
          dim {
            dim_param: "batch_size"
          }
          dim {
            dim_value: 96
          }
          dim {
            dim_value: 14
          }
          dim {
            dim_value: 14
          }
        }
      }
    }
  }
  value_info {
    name: "579"
    type {
      tensor_type {
        elem_type: 1
        shape {
          dim {
            dim_param: "batch_size"
          }
          dim {
            dim_value: 96
          }
          dim {
            dim_value: 14
          }
          dim {
            dim_value: 14
          }
        }
      }
    }
  }
  value_info {
    name: "417"
    type {
      tensor_type {
        elem_type: 1
        shape {
          dim {
            dim_param: "batch_size"
          }
          dim {
            dim_value: 96
          }
          dim {
            dim_value: 14
          }
          dim {
            dim_value: 14
          }
        }
      }
    }
  }
  value_info {
    name: "588"
    type {
      tensor_type {
        elem_type: 1
        shape {
          dim {
            dim_param: "batch_size"
          }
          dim {
            dim_value: 96
          }
          dim {
            dim_value: 14
          }
          dim {
            dim_value: 14
          }
        }
      }
    }
  }
  value_info {
    name: "426"
    type {
      tensor_type {
        elem_type: 1
        shape {
          dim {
            dim_param: "batch_size"
          }
          dim {
            dim_value: 96
          }
          dim {
            dim_value: 14
          }
          dim {
            dim_value: 14
          }
        }
      }
    }
  }
  value_info {
    name: "597"
    type {
      tensor_type {
        elem_type: 1
        shape {
          dim {
            dim_param: "batch_size"
          }
          dim {
            dim_value: 160
          }
          dim {
            dim_value: 7
          }
          dim {
            dim_value: 7
          }
        }
      }
    }
  }
  value_info {
    name: "606"
    type {
      tensor_type {
        elem_type: 1
        shape {
          dim {
            dim_param: "batch_size"
          }
          dim {
            dim_value: 160
          }
          dim {
            dim_value: 7
          }
          dim {
            dim_value: 7
          }
        }
      }
    }
  }
  value_info {
    name: "443"
    type {
      tensor_type {
        elem_type: 1
        shape {
          dim {
            dim_param: "batch_size"
          }
          dim {
            dim_value: 160
          }
          dim {
            dim_value: 7
          }
          dim {
            dim_value: 7
          }
        }
      }
    }
  }
  value_info {
    name: "615"
    type {
      tensor_type {
        elem_type: 1
        shape {
          dim {
            dim_param: "batch_size"
          }
          dim {
            dim_value: 160
          }
          dim {
            dim_value: 7
          }
          dim {
            dim_value: 7
          }
        }
      }
    }
  }
  value_info {
    name: "452"
    type {
      tensor_type {
        elem_type: 1
        shape {
          dim {
            dim_param: "batch_size"
          }
          dim {
            dim_value: 160
          }
          dim {
            dim_value: 7
          }
          dim {
            dim_value: 7
          }
        }
      }
    }
  }
  value_info {
    name: "627"
    type {
      tensor_type {
        elem_type: 1
        shape {
          dim {
            dim_param: "batch_size"
          }
          dim {
            dim_value: 1280
          }
          dim {
            dim_value: 7
          }
          dim {
            dim_value: 7
          }
        }
      }
    }
  }
  value_info {
    name: "465"
    type {
      tensor_type {
        elem_type: 7
        shape {
          dim {
            dim_value: 4
          }
        }
      }
    }
  }
  value_info {
    name: "467"
    type {
      tensor_type {
        elem_type: 7
        shape {
        }
      }
    }
  }
  value_info {
    name: "469"
    type {
      tensor_type {
        elem_type: 7
        shape {
          dim {
            dim_value: 1
          }
        }
      }
    }
  }
  value_info {
    name: "471"
    type {
      tensor_type {
        elem_type: 7
        shape {
          dim {
            dim_value: 2
          }
        }
      }
    }
  }
  value_info {
    name: "output_MatMul"
    type {
      tensor_type {
        elem_type: 1
      }
    }
  }
}
opset_import {
  domain: ""
  version: 12
}
opset_import {
  domain: "ai.onnx.preview.training"
  version: 1
}
opset_import {
  domain: "ai.onnx.training"
  version: 1
}
opset_import {
  domain: "com.ms.internal.nhwc"
  version: 1
}
opset_import {
  domain: "org.pytorch.aten"
  version: 1
}
opset_import {
  domain: "com.microsoft"
  version: 1
}
opset_import {
  domain: "ai.onnx.contrib"
  version: 1000
}
opset_import {
  domain: "com.microsoft.nchwc"
  version: 1
}
opset_import {
  domain: "com.microsoft.experimental"
  version: 1
}
opset_import {
  domain: "ai.onnx.ml"
  version: 3
}
