ir_version: 4
producer_name: "pytorch"
producer_version: "1.1"
graph {
  node {
    input: "input1"
    output: "63"
    op_type: "Pad"
    attribute {
      name: "mode"
      s: "reflect"
      type: STRING
    }
    attribute {
      name: "pads"
      ints: 0
      ints: 0
      ints: 4
      ints: 4
      ints: 0
      ints: 0
      ints: 4
      ints: 4
      type: INTS
    }
  }
  node {
    input: "63"
    input: "conv1.conv2d.weight"
    input: "conv1.conv2d.bias"
    output: "64"
    op_type: "Conv"
    attribute {
      name: "dilations"
      ints: 1
      ints: 1
      type: INTS
    }
    attribute {
      name: "group"
      i: 1
      type: INT
    }
    attribute {
      name: "kernel_shape"
      ints: 9
      ints: 9
      type: INTS
    }
    attribute {
      name: "pads"
      ints: 0
      ints: 0
      ints: 0
      ints: 0
      type: INTS
    }
    attribute {
      name: "strides"
      ints: 1
      ints: 1
      type: INTS
    }
  }
  node {
    input: "64"
    input: "in1.weight"
    input: "in1.bias"
    output: "65"
    op_type: "InstanceNormalization"
    attribute {
      name: "epsilon"
      f: 1e-05
      type: FLOAT
    }
  }
  node {
    input: "65"
    output: "66"
    op_type: "Relu"
  }
  node {
    input: "66"
    output: "67"
    op_type: "Pad"
    attribute {
      name: "mode"
      s: "reflect"
      type: STRING
    }
    attribute {
      name: "pads"
      ints: 0
      ints: 0
      ints: 1
      ints: 1
      ints: 0
      ints: 0
      ints: 1
      ints: 1
      type: INTS
    }
  }
  node {
    input: "67"
    input: "conv2.conv2d.weight"
    input: "conv2.conv2d.bias"
    output: "68"
    op_type: "Conv"
    attribute {
      name: "dilations"
      ints: 1
      ints: 1
      type: INTS
    }
    attribute {
      name: "group"
      i: 1
      type: INT
    }
    attribute {
      name: "kernel_shape"
      ints: 3
      ints: 3
      type: INTS
    }
    attribute {
      name: "pads"
      ints: 0
      ints: 0
      ints: 0
      ints: 0
      type: INTS
    }
    attribute {
      name: "strides"
      ints: 2
      ints: 2
      type: INTS
    }
  }
  node {
    input: "68"
    input: "in2.weight"
    input: "in2.bias"
    output: "69"
    op_type: "InstanceNormalization"
    attribute {
      name: "epsilon"
      f: 1e-05
      type: FLOAT
    }
  }
  node {
    input: "69"
    output: "70"
    op_type: "Relu"
  }
  node {
    input: "70"
    output: "71"
    op_type: "Pad"
    attribute {
      name: "mode"
      s: "reflect"
      type: STRING
    }
    attribute {
      name: "pads"
      ints: 0
      ints: 0
      ints: 1
      ints: 1
      ints: 0
      ints: 0
      ints: 1
      ints: 1
      type: INTS
    }
  }
  node {
    input: "71"
    input: "conv3.conv2d.weight"
    input: "conv3.conv2d.bias"
    output: "72"
    op_type: "Conv"
    attribute {
      name: "dilations"
      ints: 1
      ints: 1
      type: INTS
    }
    attribute {
      name: "group"
      i: 1
      type: INT
    }
    attribute {
      name: "kernel_shape"
      ints: 3
      ints: 3
      type: INTS
    }
    attribute {
      name: "pads"
      ints: 0
      ints: 0
      ints: 0
      ints: 0
      type: INTS
    }
    attribute {
      name: "strides"
      ints: 2
      ints: 2
      type: INTS
    }
  }
  node {
    input: "72"
    input: "in3.weight"
    input: "in3.bias"
    output: "73"
    op_type: "InstanceNormalization"
    attribute {
      name: "epsilon"
      f: 1e-05
      type: FLOAT
    }
  }
  node {
    input: "73"
    output: "74"
    op_type: "Relu"
  }
  node {
    input: "74"
    output: "75"
    op_type: "Pad"
    attribute {
      name: "mode"
      s: "reflect"
      type: STRING
    }
    attribute {
      name: "pads"
      ints: 0
      ints: 0
      ints: 1
      ints: 1
      ints: 0
      ints: 0
      ints: 1
      ints: 1
      type: INTS
    }
  }
  node {
    input: "75"
    input: "res1.conv1.conv2d.weight"
    input: "res1.conv1.conv2d.bias"
    output: "76"
    op_type: "Conv"
    attribute {
      name: "dilations"
      ints: 1
      ints: 1
      type: INTS
    }
    attribute {
      name: "group"
      i: 1
      type: INT
    }
    attribute {
      name: "kernel_shape"
      ints: 3
      ints: 3
      type: INTS
    }
    attribute {
      name: "pads"
      ints: 0
      ints: 0
      ints: 0
      ints: 0
      type: INTS
    }
    attribute {
      name: "strides"
      ints: 1
      ints: 1
      type: INTS
    }
  }
  node {
    input: "76"
    input: "res1.in1.weight"
    input: "res1.in1.bias"
    output: "77"
    op_type: "InstanceNormalization"
    attribute {
      name: "epsilon"
      f: 1e-05
      type: FLOAT
    }
  }
  node {
    input: "77"
    output: "78"
    op_type: "Relu"
  }
  node {
    input: "78"
    output: "79"
    op_type: "Pad"
    attribute {
      name: "mode"
      s: "reflect"
      type: STRING
    }
    attribute {
      name: "pads"
      ints: 0
      ints: 0
      ints: 1
      ints: 1
      ints: 0
      ints: 0
      ints: 1
      ints: 1
      type: INTS
    }
  }
  node {
    input: "79"
    input: "res1.conv2.conv2d.weight"
    input: "res1.conv2.conv2d.bias"
    output: "80"
    op_type: "Conv"
    attribute {
      name: "dilations"
      ints: 1
      ints: 1
      type: INTS
    }
    attribute {
      name: "group"
      i: 1
      type: INT
    }
    attribute {
      name: "kernel_shape"
      ints: 3
      ints: 3
      type: INTS
    }
    attribute {
      name: "pads"
      ints: 0
      ints: 0
      ints: 0
      ints: 0
      type: INTS
    }
    attribute {
      name: "strides"
      ints: 1
      ints: 1
      type: INTS
    }
  }
  node {
    input: "80"
    input: "res1.in2.weight"
    input: "res1.in2.bias"
    output: "81"
    op_type: "InstanceNormalization"
    attribute {
      name: "epsilon"
      f: 1e-05
      type: FLOAT
    }
  }
  node {
    input: "81"
    input: "74"
    output: "82"
    op_type: "Add"
  }
  node {
    input: "82"
    output: "83"
    op_type: "Pad"
    attribute {
      name: "mode"
      s: "reflect"
      type: STRING
    }
    attribute {
      name: "pads"
      ints: 0
      ints: 0
      ints: 1
      ints: 1
      ints: 0
      ints: 0
      ints: 1
      ints: 1
      type: INTS
    }
  }
  node {
    input: "83"
    input: "res2.conv1.conv2d.weight"
    input: "res2.conv1.conv2d.bias"
    output: "84"
    op_type: "Conv"
    attribute {
      name: "dilations"
      ints: 1
      ints: 1
      type: INTS
    }
    attribute {
      name: "group"
      i: 1
      type: INT
    }
    attribute {
      name: "kernel_shape"
      ints: 3
      ints: 3
      type: INTS
    }
    attribute {
      name: "pads"
      ints: 0
      ints: 0
      ints: 0
      ints: 0
      type: INTS
    }
    attribute {
      name: "strides"
      ints: 1
      ints: 1
      type: INTS
    }
  }
  node {
    input: "84"
    input: "res2.in1.weight"
    input: "res2.in1.bias"
    output: "85"
    op_type: "InstanceNormalization"
    attribute {
      name: "epsilon"
      f: 1e-05
      type: FLOAT
    }
  }
  node {
    input: "85"
    output: "86"
    op_type: "Relu"
  }
  node {
    input: "86"
    output: "87"
    op_type: "Pad"
    attribute {
      name: "mode"
      s: "reflect"
      type: STRING
    }
    attribute {
      name: "pads"
      ints: 0
      ints: 0
      ints: 1
      ints: 1
      ints: 0
      ints: 0
      ints: 1
      ints: 1
      type: INTS
    }
  }
  node {
    input: "87"
    input: "res2.conv2.conv2d.weight"
    input: "res2.conv2.conv2d.bias"
    output: "88"
    op_type: "Conv"
    attribute {
      name: "dilations"
      ints: 1
      ints: 1
      type: INTS
    }
    attribute {
      name: "group"
      i: 1
      type: INT
    }
    attribute {
      name: "kernel_shape"
      ints: 3
      ints: 3
      type: INTS
    }
    attribute {
      name: "pads"
      ints: 0
      ints: 0
      ints: 0
      ints: 0
      type: INTS
    }
    attribute {
      name: "strides"
      ints: 1
      ints: 1
      type: INTS
    }
  }
  node {
    input: "88"
    input: "res2.in2.weight"
    input: "res2.in2.bias"
    output: "89"
    op_type: "InstanceNormalization"
    attribute {
      name: "epsilon"
      f: 1e-05
      type: FLOAT
    }
  }
  node {
    input: "89"
    input: "82"
    output: "90"
    op_type: "Add"
  }
  node {
    input: "90"
    output: "91"
    op_type: "Pad"
    attribute {
      name: "mode"
      s: "reflect"
      type: STRING
    }
    attribute {
      name: "pads"
      ints: 0
      ints: 0
      ints: 1
      ints: 1
      ints: 0
      ints: 0
      ints: 1
      ints: 1
      type: INTS
    }
  }
  node {
    input: "91"
    input: "res3.conv1.conv2d.weight"
    input: "res3.conv1.conv2d.bias"
    output: "92"
    op_type: "Conv"
    attribute {
      name: "dilations"
      ints: 1
      ints: 1
      type: INTS
    }
    attribute {
      name: "group"
      i: 1
      type: INT
    }
    attribute {
      name: "kernel_shape"
      ints: 3
      ints: 3
      type: INTS
    }
    attribute {
      name: "pads"
      ints: 0
      ints: 0
      ints: 0
      ints: 0
      type: INTS
    }
    attribute {
      name: "strides"
      ints: 1
      ints: 1
      type: INTS
    }
  }
  node {
    input: "92"
    input: "res3.in1.weight"
    input: "res3.in1.bias"
    output: "93"
    op_type: "InstanceNormalization"
    attribute {
      name: "epsilon"
      f: 1e-05
      type: FLOAT
    }
  }
  node {
    input: "93"
    output: "94"
    op_type: "Relu"
  }
  node {
    input: "94"
    output: "95"
    op_type: "Pad"
    attribute {
      name: "mode"
      s: "reflect"
      type: STRING
    }
    attribute {
      name: "pads"
      ints: 0
      ints: 0
      ints: 1
      ints: 1
      ints: 0
      ints: 0
      ints: 1
      ints: 1
      type: INTS
    }
  }
  node {
    input: "95"
    input: "res3.conv2.conv2d.weight"
    input: "res3.conv2.conv2d.bias"
    output: "96"
    op_type: "Conv"
    attribute {
      name: "dilations"
      ints: 1
      ints: 1
      type: INTS
    }
    attribute {
      name: "group"
      i: 1
      type: INT
    }
    attribute {
      name: "kernel_shape"
      ints: 3
      ints: 3
      type: INTS
    }
    attribute {
      name: "pads"
      ints: 0
      ints: 0
      ints: 0
      ints: 0
      type: INTS
    }
    attribute {
      name: "strides"
      ints: 1
      ints: 1
      type: INTS
    }
  }
  node {
    input: "96"
    input: "res3.in2.weight"
    input: "res3.in2.bias"
    output: "97"
    op_type: "InstanceNormalization"
    attribute {
      name: "epsilon"
      f: 1e-05
      type: FLOAT
    }
  }
  node {
    input: "97"
    input: "90"
    output: "98"
    op_type: "Add"
  }
  node {
    input: "98"
    output: "99"
    op_type: "Pad"
    attribute {
      name: "mode"
      s: "reflect"
      type: STRING
    }
    attribute {
      name: "pads"
      ints: 0
      ints: 0
      ints: 1
      ints: 1
      ints: 0
      ints: 0
      ints: 1
      ints: 1
      type: INTS
    }
  }
  node {
    input: "99"
    input: "res4.conv1.conv2d.weight"
    input: "res4.conv1.conv2d.bias"
    output: "100"
    op_type: "Conv"
    attribute {
      name: "dilations"
      ints: 1
      ints: 1
      type: INTS
    }
    attribute {
      name: "group"
      i: 1
      type: INT
    }
    attribute {
      name: "kernel_shape"
      ints: 3
      ints: 3
      type: INTS
    }
    attribute {
      name: "pads"
      ints: 0
      ints: 0
      ints: 0
      ints: 0
      type: INTS
    }
    attribute {
      name: "strides"
      ints: 1
      ints: 1
      type: INTS
    }
  }
  node {
    input: "100"
    input: "res4.in1.weight"
    input: "res4.in1.bias"
    output: "101"
    op_type: "InstanceNormalization"
    attribute {
      name: "epsilon"
      f: 1e-05
      type: FLOAT
    }
  }
  node {
    input: "101"
    output: "102"
    op_type: "Relu"
  }
  node {
    input: "102"
    output: "103"
    op_type: "Pad"
    attribute {
      name: "mode"
      s: "reflect"
      type: STRING
    }
    attribute {
      name: "pads"
      ints: 0
      ints: 0
      ints: 1
      ints: 1
      ints: 0
      ints: 0
      ints: 1
      ints: 1
      type: INTS
    }
  }
  node {
    input: "103"
    input: "res4.conv2.conv2d.weight"
    input: "res4.conv2.conv2d.bias"
    output: "104"
    op_type: "Conv"
    attribute {
      name: "dilations"
      ints: 1
      ints: 1
      type: INTS
    }
    attribute {
      name: "group"
      i: 1
      type: INT
    }
    attribute {
      name: "kernel_shape"
      ints: 3
      ints: 3
      type: INTS
    }
    attribute {
      name: "pads"
      ints: 0
      ints: 0
      ints: 0
      ints: 0
      type: INTS
    }
    attribute {
      name: "strides"
      ints: 1
      ints: 1
      type: INTS
    }
  }
  node {
    input: "104"
    input: "res4.in2.weight"
    input: "res4.in2.bias"
    output: "105"
    op_type: "InstanceNormalization"
    attribute {
      name: "epsilon"
      f: 1e-05
      type: FLOAT
    }
  }
  node {
    input: "105"
    input: "98"
    output: "106"
    op_type: "Add"
  }
  node {
    input: "106"
    output: "107"
    op_type: "Pad"
    attribute {
      name: "mode"
      s: "reflect"
      type: STRING
    }
    attribute {
      name: "pads"
      ints: 0
      ints: 0
      ints: 1
      ints: 1
      ints: 0
      ints: 0
      ints: 1
      ints: 1
      type: INTS
    }
  }
  node {
    input: "107"
    input: "res5.conv1.conv2d.weight"
    input: "res5.conv1.conv2d.bias"
    output: "108"
    op_type: "Conv"
    attribute {
      name: "dilations"
      ints: 1
      ints: 1
      type: INTS
    }
    attribute {
      name: "group"
      i: 1
      type: INT
    }
    attribute {
      name: "kernel_shape"
      ints: 3
      ints: 3
      type: INTS
    }
    attribute {
      name: "pads"
      ints: 0
      ints: 0
      ints: 0
      ints: 0
      type: INTS
    }
    attribute {
      name: "strides"
      ints: 1
      ints: 1
      type: INTS
    }
  }
  node {
    input: "108"
    input: "res5.in1.weight"
    input: "res5.in1.bias"
    output: "109"
    op_type: "InstanceNormalization"
    attribute {
      name: "epsilon"
      f: 1e-05
      type: FLOAT
    }
  }
  node {
    input: "109"
    output: "110"
    op_type: "Relu"
  }
  node {
    input: "110"
    output: "111"
    op_type: "Pad"
    attribute {
      name: "mode"
      s: "reflect"
      type: STRING
    }
    attribute {
      name: "pads"
      ints: 0
      ints: 0
      ints: 1
      ints: 1
      ints: 0
      ints: 0
      ints: 1
      ints: 1
      type: INTS
    }
  }
  node {
    input: "111"
    input: "res5.conv2.conv2d.weight"
    input: "res5.conv2.conv2d.bias"
    output: "112"
    op_type: "Conv"
    attribute {
      name: "dilations"
      ints: 1
      ints: 1
      type: INTS
    }
    attribute {
      name: "group"
      i: 1
      type: INT
    }
    attribute {
      name: "kernel_shape"
      ints: 3
      ints: 3
      type: INTS
    }
    attribute {
      name: "pads"
      ints: 0
      ints: 0
      ints: 0
      ints: 0
      type: INTS
    }
    attribute {
      name: "strides"
      ints: 1
      ints: 1
      type: INTS
    }
  }
  node {
    input: "112"
    input: "res5.in2.weight"
    input: "res5.in2.bias"
    output: "113"
    op_type: "InstanceNormalization"
    attribute {
      name: "epsilon"
      f: 1e-05
      type: FLOAT
    }
  }
  node {
    input: "113"
    input: "106"
    output: "114"
    op_type: "Add"
  }
  node {
    output: "115"
    op_type: "Constant"
    attribute {
      name: "value"
      t {
        data_type: 7
        raw_data: "\002\000\000\000\000\000\000\000"
      }
      type: TENSOR
    }
  }
  node {
    input: "114"
    output: "116"
    op_type: "Shape"
  }
  node {
    input: "116"
    input: "115"
    output: "117"
    op_type: "Gather"
    attribute {
      name: "axis"
      i: 0
      type: INT
    }
  }
  node {
    output: "118"
    op_type: "Constant"
    attribute {
      name: "value"
      t {
        data_type: 7
        raw_data: "\002\000\000\000\000\000\000\000"
      }
      type: TENSOR
    }
  }
  node {
    input: "117"
    input: "118"
    output: "119"
    op_type: "Mul"
  }
  node {
    input: "119"
    output: "120"
    op_type: "Cast"
    attribute {
      name: "to"
      i: 1
      type: INT
    }
  }
  node {
    input: "120"
    output: "121"
    op_type: "Floor"
  }
  node {
    output: "122"
    op_type: "Constant"
    attribute {
      name: "value"
      t {
        data_type: 7
        raw_data: "\003\000\000\000\000\000\000\000"
      }
      type: TENSOR
    }
  }
  node {
    input: "114"
    output: "123"
    op_type: "Shape"
  }
  node {
    input: "123"
    input: "122"
    output: "124"
    op_type: "Gather"
    attribute {
      name: "axis"
      i: 0
      type: INT
    }
  }
  node {
    output: "125"
    op_type: "Constant"
    attribute {
      name: "value"
      t {
        data_type: 7
        raw_data: "\002\000\000\000\000\000\000\000"
      }
      type: TENSOR
    }
  }
  node {
    input: "124"
    input: "125"
    output: "126"
    op_type: "Mul"
  }
  node {
    input: "126"
    output: "127"
    op_type: "Cast"
    attribute {
      name: "to"
      i: 1
      type: INT
    }
  }
  node {
    input: "127"
    output: "128"
    op_type: "Floor"
  }
  node {
    input: "121"
    output: "129"
    op_type: "Unsqueeze"
    attribute {
      name: "axes"
      ints: 0
      type: INTS
    }
  }
  node {
    input: "128"
    output: "130"
    op_type: "Unsqueeze"
    attribute {
      name: "axes"
      ints: 0
      type: INTS
    }
  }
  node {
    input: "129"
    input: "130"
    output: "131"
    op_type: "Concat"
    attribute {
      name: "axis"
      i: 0
      type: INT
    }
  }
  node {
    output: "132"
    op_type: "Constant"
    attribute {
      name: "value"
      t {
        dims: 2
        data_type: 1
        raw_data: "\000\000\200?\000\000\200?"
      }
      type: TENSOR
    }
  }
  node {
    input: "131"
    output: "133"
    op_type: "Cast"
    attribute {
      name: "to"
      i: 1
      type: INT
    }
  }
  node {
    input: "114"
    output: "134"
    op_type: "Shape"
  }
  node {
    input: "134"
    output: "135"
    op_type: "Slice"
    attribute {
      name: "axes"
      ints: 0
      type: INTS
    }
    attribute {
      name: "ends"
      ints: 4
      type: INTS
    }
    attribute {
      name: "starts"
      ints: 2
      type: INTS
    }
  }
  node {
    input: "135"
    output: "136"
    op_type: "Cast"
    attribute {
      name: "to"
      i: 1
      type: INT
    }
  }
  node {
    input: "133"
    input: "136"
    output: "137"
    op_type: "Div"
  }
  node {
    input: "132"
    input: "137"
    output: "138"
    op_type: "Concat"
    attribute {
      name: "axis"
      i: 0
      type: INT
    }
  }
  node {
    input: "114"
    input: "138"
    output: "139"
    op_type: "Upsample"
    attribute {
      name: "mode"
      s: "nearest"
      type: STRING
    }
  }
  node {
    input: "139"
    output: "140"
    op_type: "Pad"
    attribute {
      name: "mode"
      s: "reflect"
      type: STRING
    }
    attribute {
      name: "pads"
      ints: 0
      ints: 0
      ints: 1
      ints: 1
      ints: 0
      ints: 0
      ints: 1
      ints: 1
      type: INTS
    }
  }
  node {
    input: "140"
    input: "deconv1.conv2d.weight"
    input: "deconv1.conv2d.bias"
    output: "141"
    op_type: "Conv"
    attribute {
      name: "dilations"
      ints: 1
      ints: 1
      type: INTS
    }
    attribute {
      name: "group"
      i: 1
      type: INT
    }
    attribute {
      name: "kernel_shape"
      ints: 3
      ints: 3
      type: INTS
    }
    attribute {
      name: "pads"
      ints: 0
      ints: 0
      ints: 0
      ints: 0
      type: INTS
    }
    attribute {
      name: "strides"
      ints: 1
      ints: 1
      type: INTS
    }
  }
  node {
    input: "141"
    input: "in4.weight"
    input: "in4.bias"
    output: "142"
    op_type: "InstanceNormalization"
    attribute {
      name: "epsilon"
      f: 1e-05
      type: FLOAT
    }
  }
  node {
    input: "142"
    output: "143"
    op_type: "Relu"
  }
  node {
    output: "144"
    op_type: "Constant"
    attribute {
      name: "value"
      t {
        data_type: 7
        raw_data: "\002\000\000\000\000\000\000\000"
      }
      type: TENSOR
    }
  }
  node {
    input: "143"
    output: "145"
    op_type: "Shape"
  }
  node {
    input: "145"
    input: "144"
    output: "146"
    op_type: "Gather"
    attribute {
      name: "axis"
      i: 0
      type: INT
    }
  }
  node {
    output: "147"
    op_type: "Constant"
    attribute {
      name: "value"
      t {
        data_type: 7
        raw_data: "\002\000\000\000\000\000\000\000"
      }
      type: TENSOR
    }
  }
  node {
    input: "146"
    input: "147"
    output: "148"
    op_type: "Mul"
  }
  node {
    input: "148"
    output: "149"
    op_type: "Cast"
    attribute {
      name: "to"
      i: 1
      type: INT
    }
  }
  node {
    input: "149"
    output: "150"
    op_type: "Floor"
  }
  node {
    output: "151"
    op_type: "Constant"
    attribute {
      name: "value"
      t {
        data_type: 7
        raw_data: "\003\000\000\000\000\000\000\000"
      }
      type: TENSOR
    }
  }
  node {
    input: "143"
    output: "152"
    op_type: "Shape"
  }
  node {
    input: "152"
    input: "151"
    output: "153"
    op_type: "Gather"
    attribute {
      name: "axis"
      i: 0
      type: INT
    }
  }
  node {
    output: "154"
    op_type: "Constant"
    attribute {
      name: "value"
      t {
        data_type: 7
        raw_data: "\002\000\000\000\000\000\000\000"
      }
      type: TENSOR
    }
  }
  node {
    input: "153"
    input: "154"
    output: "155"
    op_type: "Mul"
  }
  node {
    input: "155"
    output: "156"
    op_type: "Cast"
    attribute {
      name: "to"
      i: 1
      type: INT
    }
  }
  node {
    input: "156"
    output: "157"
    op_type: "Floor"
  }
  node {
    input: "150"
    output: "158"
    op_type: "Unsqueeze"
    attribute {
      name: "axes"
      ints: 0
      type: INTS
    }
  }
  node {
    input: "157"
    output: "159"
    op_type: "Unsqueeze"
    attribute {
      name: "axes"
      ints: 0
      type: INTS
    }
  }
  node {
    input: "158"
    input: "159"
    output: "160"
    op_type: "Concat"
    attribute {
      name: "axis"
      i: 0
      type: INT
    }
  }
  node {
    output: "161"
    op_type: "Constant"
    attribute {
      name: "value"
      t {
        dims: 2
        data_type: 1
        raw_data: "\000\000\200?\000\000\200?"
      }
      type: TENSOR
    }
  }
  node {
    input: "160"
    output: "162"
    op_type: "Cast"
    attribute {
      name: "to"
      i: 1
      type: INT
    }
  }
  node {
    input: "143"
    output: "163"
    op_type: "Shape"
  }
  node {
    input: "163"
    output: "164"
    op_type: "Slice"
    attribute {
      name: "axes"
      ints: 0
      type: INTS
    }
    attribute {
      name: "ends"
      ints: 4
      type: INTS
    }
    attribute {
      name: "starts"
      ints: 2
      type: INTS
    }
  }
  node {
    input: "164"
    output: "165"
    op_type: "Cast"
    attribute {
      name: "to"
      i: 1
      type: INT
    }
  }
  node {
    input: "162"
    input: "165"
    output: "166"
    op_type: "Div"
  }
  node {
    input: "161"
    input: "166"
    output: "167"
    op_type: "Concat"
    attribute {
      name: "axis"
      i: 0
      type: INT
    }
  }
  node {
    input: "143"
    input: "167"
    output: "168"
    op_type: "Upsample"
    attribute {
      name: "mode"
      s: "nearest"
      type: STRING
    }
  }
  node {
    input: "168"
    output: "169"
    op_type: "Pad"
    attribute {
      name: "mode"
      s: "reflect"
      type: STRING
    }
    attribute {
      name: "pads"
      ints: 0
      ints: 0
      ints: 1
      ints: 1
      ints: 0
      ints: 0
      ints: 1
      ints: 1
      type: INTS
    }
  }
  node {
    input: "169"
    input: "deconv2.conv2d.weight"
    input: "deconv2.conv2d.bias"
    output: "170"
    op_type: "Conv"
    attribute {
      name: "dilations"
      ints: 1
      ints: 1
      type: INTS
    }
    attribute {
      name: "group"
      i: 1
      type: INT
    }
    attribute {
      name: "kernel_shape"
      ints: 3
      ints: 3
      type: INTS
    }
    attribute {
      name: "pads"
      ints: 0
      ints: 0
      ints: 0
      ints: 0
      type: INTS
    }
    attribute {
      name: "strides"
      ints: 1
      ints: 1
      type: INTS
    }
  }
  node {
    input: "170"
    input: "in5.weight"
    input: "in5.bias"
    output: "171"
    op_type: "InstanceNormalization"
    attribute {
      name: "epsilon"
      f: 1e-05
      type: FLOAT
    }
  }
  node {
    input: "171"
    output: "172"
    op_type: "Relu"
  }
  node {
    input: "172"
    output: "173"
    op_type: "Pad"
    attribute {
      name: "mode"
      s: "reflect"
      type: STRING
    }
    attribute {
      name: "pads"
      ints: 0
      ints: 0
      ints: 4
      ints: 4
      ints: 0
      ints: 0
      ints: 4
      ints: 4
      type: INTS
    }
  }
  node {
    input: "173"
    input: "deconv3.conv2d.weight"
    input: "deconv3.conv2d.bias"
    output: "output1"
    op_type: "Conv"
    attribute {
      name: "dilations"
      ints: 1
      ints: 1
      type: INTS
    }
    attribute {
      name: "group"
      i: 1
      type: INT
    }
    attribute {
      name: "kernel_shape"
      ints: 9
      ints: 9
      type: INTS
    }
    attribute {
      name: "pads"
      ints: 0
      ints: 0
      ints: 0
      ints: 0
      type: INTS
    }
    attribute {
      name: "strides"
      ints: 1
      ints: 1
      type: INTS
    }
  }
  name: "torch-jit-export"
  initializer {
    dims: 32
    data_type: 1
    name: "conv1.conv2d.bias"
    raw_data: "…"
  }
  initializer {
    dims: 64
    data_type: 1
    name: "conv2.conv2d.bias"
    raw_data: "…"
  }
  initializer {
    dims: 64
    data_type: 1
    name: "deconv1.conv2d.bias"
    raw_data: "…"
  }
  initializer {
    dims: 32
    data_type: 1
    name: "deconv2.conv2d.bias"
    raw_data: "…"
  }
  initializer {
    dims: 3
    data_type: 1
    name: "deconv3.conv2d.bias"
    raw_data: "\251wO>\231%v>\3448\245="
  }
  initializer {
    dims: 32
    data_type: 1
    name: "in1.bias"
    raw_data: "…"
  }
  initializer {
    dims: 32
    data_type: 1
    name: "in1.weight"
    raw_data: "…"
  }
  initializer {
    dims: 64
    data_type: 1
    name: "in2.bias"
    raw_data: "…"
  }
  initializer {
    dims: 64
    data_type: 1
    name: "in2.weight"
    raw_data: "…"
  }
  initializer {
    dims: 64
    data_type: 1
    name: "in4.bias"
    raw_data: "…"
  }
  initializer {
    dims: 64
    data_type: 1
    name: "in4.weight"
    raw_data: "…"
  }
  initializer {
    dims: 32
    data_type: 1
    name: "in5.bias"
    raw_data: "…"
  }
  initializer {
    dims: 32
    data_type: 1
    name: "in5.weight"
    raw_data: "…"
  }
  input {
    name: "input1"
    type {
      tensor_type {
        elem_type: 1
        shape {
          dim {
            dim_value: 1
          }
          dim {
            dim_value: 3
          }
          dim {
            dim_value: 224
          }
          dim {
            dim_value: 224
          }
        }
      }
    }
  }
  input {
    name: "conv1.conv2d.weight"
    type {
      tensor_type {
        elem_type: 1
        shape {
          dim {
            dim_value: 32
          }
          dim {
            dim_value: 3
          }
          dim {
            dim_value: 9
          }
          dim {
            dim_value: 9
          }
        }
      }
    }
  }
  input {
    name: "conv1.conv2d.bias"
    type {
      tensor_type {
        elem_type: 1
        shape {
          dim {
            dim_value: 32
          }
        }
      }
    }
  }
  input {
    name: "in1.weight"
    type {
      tensor_type {
        elem_type: 1
        shape {
          dim {
            dim_value: 32
          }
        }
      }
    }
  }
  input {
    name: "in1.bias"
    type {
      tensor_type {
        elem_type: 1
        shape {
          dim {
            dim_value: 32
          }
        }
      }
    }
  }
  input {
    name: "conv2.conv2d.weight"
    type {
      tensor_type {
        elem_type: 1
        shape {
          dim {
            dim_value: 64
          }
          dim {
            dim_value: 32
          }
          dim {
            dim_value: 3
          }
          dim {
            dim_value: 3
          }
        }
      }
    }
  }
  input {
    name: "conv2.conv2d.bias"
    type {
      tensor_type {
        elem_type: 1
        shape {
          dim {
            dim_value: 64
          }
        }
      }
    }
  }
  input {
    name: "in2.weight"
    type {
      tensor_type {
        elem_type: 1
        shape {
          dim {
            dim_value: 64
          }
        }
      }
    }
  }
  input {
    name: "in2.bias"
    type {
      tensor_type {
        elem_type: 1
        shape {
          dim {
            dim_value: 64
          }
        }
      }
    }
  }
  input {
    name: "conv3.conv2d.weight"
    type {
      tensor_type {
        elem_type: 1
        shape {
          dim {
            dim_value: 128
          }
          dim {
            dim_value: 64
          }
          dim {
            dim_value: 3
          }
          dim {
            dim_value: 3
          }
        }
      }
    }
  }
  input {
    name: "conv3.conv2d.bias"
    type {
      tensor_type {
        elem_type: 1
        shape {
          dim {
            dim_value: 128
          }
        }
      }
    }
  }
  input {
    name: "in3.weight"
    type {
      tensor_type {
        elem_type: 1
        shape {
          dim {
            dim_value: 128
          }
        }
      }
    }
  }
  input {
    name: "in3.bias"
    type {
      tensor_type {
        elem_type: 1
        shape {
          dim {
            dim_value: 128
          }
        }
      }
    }
  }
  input {
    name: "res1.conv1.conv2d.weight"
    type {
      tensor_type {
        elem_type: 1
        shape {
          dim {
            dim_value: 128
          }
          dim {
            dim_value: 128
          }
          dim {
            dim_value: 3
          }
          dim {
            dim_value: 3
          }
        }
      }
    }
  }
  input {
    name: "res1.conv1.conv2d.bias"
    type {
      tensor_type {
        elem_type: 1
        shape {
          dim {
            dim_value: 128
          }
        }
      }
    }
  }
  input {
    name: "res1.in1.weight"
    type {
      tensor_type {
        elem_type: 1
        shape {
          dim {
            dim_value: 128
          }
        }
      }
    }
  }
  input {
    name: "res1.in1.bias"
    type {
      tensor_type {
        elem_type: 1
        shape {
          dim {
            dim_value: 128
          }
        }
      }
    }
  }
  input {
    name: "res1.conv2.conv2d.weight"
    type {
      tensor_type {
        elem_type: 1
        shape {
          dim {
            dim_value: 128
          }
          dim {
            dim_value: 128
          }
          dim {
            dim_value: 3
          }
          dim {
            dim_value: 3
          }
        }
      }
    }
  }
  input {
    name: "res1.conv2.conv2d.bias"
    type {
      tensor_type {
        elem_type: 1
        shape {
          dim {
            dim_value: 128
          }
        }
      }
    }
  }
  input {
    name: "res1.in2.weight"
    type {
      tensor_type {
        elem_type: 1
        shape {
          dim {
            dim_value: 128
          }
        }
      }
    }
  }
  input {
    name: "res1.in2.bias"
    type {
      tensor_type {
        elem_type: 1
        shape {
          dim {
            dim_value: 128
          }
        }
      }
    }
  }
  input {
    name: "res2.conv1.conv2d.weight"
    type {
      tensor_type {
        elem_type: 1
        shape {
          dim {
            dim_value: 128
          }
          dim {
            dim_value: 128
          }
          dim {
            dim_value: 3
          }
          dim {
            dim_value: 3
          }
        }
      }
    }
  }
  input {
    name: "res2.conv1.conv2d.bias"
    type {
      tensor_type {
        elem_type: 1
        shape {
          dim {
            dim_value: 128
          }
        }
      }
    }
  }
  input {
    name: "res2.in1.weight"
    type {
      tensor_type {
        elem_type: 1
        shape {
          dim {
            dim_value: 128
          }
        }
      }
    }
  }
  input {
    name: "res2.in1.bias"
    type {
      tensor_type {
        elem_type: 1
        shape {
          dim {
            dim_value: 128
          }
        }
      }
    }
  }
  input {
    name: "res2.conv2.conv2d.weight"
    type {
      tensor_type {
        elem_type: 1
        shape {
          dim {
            dim_value: 128
          }
          dim {
            dim_value: 128
          }
          dim {
            dim_value: 3
          }
          dim {
            dim_value: 3
          }
        }
      }
    }
  }
  input {
    name: "res2.conv2.conv2d.bias"
    type {
      tensor_type {
        elem_type: 1
        shape {
          dim {
            dim_value: 128
          }
        }
      }
    }
  }
  input {
    name: "res2.in2.weight"
    type {
      tensor_type {
        elem_type: 1
        shape {
          dim {
            dim_value: 128
          }
        }
      }
    }
  }
  input {
    name: "res2.in2.bias"
    type {
      tensor_type {
        elem_type: 1
        shape {
          dim {
            dim_value: 128
          }
        }
      }
    }
  }
  input {
    name: "res3.conv1.conv2d.weight"
    type {
      tensor_type {
        elem_type: 1
        shape {
          dim {
            dim_value: 128
          }
          dim {
            dim_value: 128
          }
          dim {
            dim_value: 3
          }
          dim {
            dim_value: 3
          }
        }
      }
    }
  }
  input {
    name: "res3.conv1.conv2d.bias"
    type {
      tensor_type {
        elem_type: 1
        shape {
          dim {
            dim_value: 128
          }
        }
      }
    }
  }
  input {
    name: "res3.in1.weight"
    type {
      tensor_type {
        elem_type: 1
        shape {
          dim {
            dim_value: 128
          }
        }
      }
    }
  }
  input {
    name: "res3.in1.bias"
    type {
      tensor_type {
        elem_type: 1
        shape {
          dim {
            dim_value: 128
          }
        }
      }
    }
  }
  input {
    name: "res3.conv2.conv2d.weight"
    type {
      tensor_type {
        elem_type: 1
        shape {
          dim {
            dim_value: 128
          }
          dim {
            dim_value: 128
          }
          dim {
            dim_value: 3
          }
          dim {
            dim_value: 3
          }
        }
      }
    }
  }
  input {
    name: "res3.conv2.conv2d.bias"
    type {
      tensor_type {
        elem_type: 1
        shape {
          dim {
            dim_value: 128
          }
        }
      }
    }
  }
  input {
    name: "res3.in2.weight"
    type {
      tensor_type {
        elem_type: 1
        shape {
          dim {
            dim_value: 128
          }
        }
      }
    }
  }
  input {
    name: "res3.in2.bias"
    type {
      tensor_type {
        elem_type: 1
        shape {
          dim {
            dim_value: 128
          }
        }
      }
    }
  }
  input {
    name: "res4.conv1.conv2d.weight"
    type {
      tensor_type {
        elem_type: 1
        shape {
          dim {
            dim_value: 128
          }
          dim {
            dim_value: 128
          }
          dim {
            dim_value: 3
          }
          dim {
            dim_value: 3
          }
        }
      }
    }
  }
  input {
    name: "res4.conv1.conv2d.bias"
    type {
      tensor_type {
        elem_type: 1
        shape {
          dim {
            dim_value: 128
          }
        }
      }
    }
  }
  input {
    name: "res4.in1.weight"
    type {
      tensor_type {
        elem_type: 1
        shape {
          dim {
            dim_value: 128
          }
        }
      }
    }
  }
  input {
    name: "res4.in1.bias"
    type {
      tensor_type {
        elem_type: 1
        shape {
          dim {
            dim_value: 128
          }
        }
      }
    }
  }
  input {
    name: "res4.conv2.conv2d.weight"
    type {
      tensor_type {
        elem_type: 1
        shape {
          dim {
            dim_value: 128
          }
          dim {
            dim_value: 128
          }
          dim {
            dim_value: 3
          }
          dim {
            dim_value: 3
          }
        }
      }
    }
  }
  input {
    name: "res4.conv2.conv2d.bias"
    type {
      tensor_type {
        elem_type: 1
        shape {
          dim {
            dim_value: 128
          }
        }
      }
    }
  }
  input {
    name: "res4.in2.weight"
    type {
      tensor_type {
        elem_type: 1
        shape {
          dim {
            dim_value: 128
          }
        }
      }
    }
  }
  input {
    name: "res4.in2.bias"
    type {
      tensor_type {
        elem_type: 1
        shape {
          dim {
            dim_value: 128
          }
        }
      }
    }
  }
  input {
    name: "res5.conv1.conv2d.weight"
    type {
      tensor_type {
        elem_type: 1
        shape {
          dim {
            dim_value: 128
          }
          dim {
            dim_value: 128
          }
          dim {
            dim_value: 3
          }
          dim {
            dim_value: 3
          }
        }
      }
    }
  }
  input {
    name: "res5.conv1.conv2d.bias"
    type {
      tensor_type {
        elem_type: 1
        shape {
          dim {
            dim_value: 128
          }
        }
      }
    }
  }
  input {
    name: "res5.in1.weight"
    type {
      tensor_type {
        elem_type: 1
        shape {
          dim {
            dim_value: 128
          }
        }
      }
    }
  }
  input {
    name: "res5.in1.bias"
    type {
      tensor_type {
        elem_type: 1
        shape {
          dim {
            dim_value: 128
          }
        }
      }
    }
  }
  input {
    name: "res5.conv2.conv2d.weight"
    type {
      tensor_type {
        elem_type: 1
        shape {
          dim {
            dim_value: 128
          }
          dim {
            dim_value: 128
          }
          dim {
            dim_value: 3
          }
          dim {
            dim_value: 3
          }
        }
      }
    }
  }
  input {
    name: "res5.conv2.conv2d.bias"
    type {
      tensor_type {
        elem_type: 1
        shape {
          dim {
            dim_value: 128
          }
        }
      }
    }
  }
  input {
    name: "res5.in2.weight"
    type {
      tensor_type {
        elem_type: 1
        shape {
          dim {
            dim_value: 128
          }
        }
      }
    }
  }
  input {
    name: "res5.in2.bias"
    type {
      tensor_type {
        elem_type: 1
        shape {
          dim {
            dim_value: 128
          }
        }
      }
    }
  }
  input {
    name: "deconv1.conv2d.weight"
    type {
      tensor_type {
        elem_type: 1
        shape {
          dim {
            dim_value: 64
          }
          dim {
            dim_value: 128
          }
          dim {
            dim_value: 3
          }
          dim {
            dim_value: 3
          }
        }
      }
    }
  }
  input {
    name: "deconv1.conv2d.bias"
    type {
      tensor_type {
        elem_type: 1
        shape {
          dim {
            dim_value: 64
          }
        }
      }
    }
  }
  input {
    name: "in4.weight"
    type {
      tensor_type {
        elem_type: 1
        shape {
          dim {
            dim_value: 64
          }
        }
      }
    }
  }
  input {
    name: "in4.bias"
    type {
      tensor_type {
        elem_type: 1
        shape {
          dim {
            dim_value: 64
          }
        }
      }
    }
  }
  input {
    name: "deconv2.conv2d.weight"
    type {
      tensor_type {
        elem_type: 1
        shape {
          dim {
            dim_value: 32
          }
          dim {
            dim_value: 64
          }
          dim {
            dim_value: 3
          }
          dim {
            dim_value: 3
          }
        }
      }
    }
  }
  input {
    name: "deconv2.conv2d.bias"
    type {
      tensor_type {
        elem_type: 1
        shape {
          dim {
            dim_value: 32
          }
        }
      }
    }
  }
  input {
    name: "in5.weight"
    type {
      tensor_type {
        elem_type: 1
        shape {
          dim {
            dim_value: 32
          }
        }
      }
    }
  }
  input {
    name: "in5.bias"
    type {
      tensor_type {
        elem_type: 1
        shape {
          dim {
            dim_value: 32
          }
        }
      }
    }
  }
  input {
    name: "deconv3.conv2d.weight"
    type {
      tensor_type {
        elem_type: 1
        shape {
          dim {
            dim_value: 3
          }
          dim {
            dim_value: 32
          }
          dim {
            dim_value: 9
          }
          dim {
            dim_value: 9
          }
        }
      }
    }
  }
  input {
    name: "deconv3.conv2d.bias"
    type {
      tensor_type {
        elem_type: 1
        shape {
          dim {
            dim_value: 3
          }
        }
      }
    }
  }
  output {
    name: "output1"
    type {
      tensor_type {
        elem_type: 1
        shape {
          dim {
            dim_value: 1
          }
          dim {
            dim_value: 3
          }
          dim {
            dim_value: 224
          }
          dim {
            dim_value: 224
          }
        }
      }
    }
  }
}
opset_import {
  domain: ""
  version: 9
}
