ir_version: 3
graph {
  node {
    input: "data"
    input: "resnetv19_conv0_weight"
    output: "resnetv19_conv0_fwd"
    name: "resnetv19_conv0_fwd"
    op_type: "Conv"
    attribute {
      name: "dilations"
      ints: 1
      ints: 1
      type: INTS
    }
    attribute {
      name: "group"
      i: 1
      type: INT
    }
    attribute {
      name: "kernel_shape"
      ints: 7
      ints: 7
      type: INTS
    }
    attribute {
      name: "pads"
      ints: 3
      ints: 3
      ints: 3
      ints: 3
      type: INTS
    }
    attribute {
      name: "strides"
      ints: 2
      ints: 2
      type: INTS
    }
  }
  node {
    input: "resnetv19_conv0_fwd"
    input: "resnetv19_batchnorm0_gamma"
    input: "resnetv19_batchnorm0_beta"
    input: "resnetv19_batchnorm0_running_mean"
    input: "resnetv19_batchnorm0_running_var"
    output: "resnetv19_batchnorm0_fwd"
    name: "resnetv19_batchnorm0_fwd"
    op_type: "BatchNormalization"
    attribute {
      name: "epsilon"
      f: 1e-05
      type: FLOAT
    }
    attribute {
      name: "momentum"
      f: 0.9
      type: FLOAT
    }
    attribute {
      name: "spatial"
      i: 1
      type: INT
    }
  }
  node {
    input: "resnetv19_batchnorm0_fwd"
    output: "resnetv19_relu0_fwd"
    name: "resnetv19_relu0_fwd"
    op_type: "Relu"
  }
  node {
    input: "resnetv19_relu0_fwd"
    output: "resnetv19_pool0_fwd"
    name: "resnetv19_pool0_fwd"
    op_type: "MaxPool"
    attribute {
      name: "kernel_shape"
      ints: 3
      ints: 3
      type: INTS
    }
    attribute {
      name: "pads"
      ints: 1
      ints: 1
      ints: 1
      ints: 1
      type: INTS
    }
    attribute {
      name: "strides"
      ints: 2
      ints: 2
      type: INTS
    }
  }
  node {
    input: "resnetv19_pool0_fwd"
    input: "resnetv19_stage1_conv0_weight"
    input: "resnetv19_stage1_conv0_bias"
    output: "resnetv19_stage1_conv0_fwd"
    name: "resnetv19_stage1_conv0_fwd"
    op_type: "Conv"
    attribute {
      name: "dilations"
      ints: 1
      ints: 1
      type: INTS
    }
    attribute {
      name: "group"
      i: 1
      type: INT
    }
    attribute {
      name: "kernel_shape"
      ints: 1
      ints: 1
      type: INTS
    }
    attribute {
      name: "pads"
      ints: 0
      ints: 0
      ints: 0
      ints: 0
      type: INTS
    }
    attribute {
      name: "strides"
      ints: 1
      ints: 1
      type: INTS
    }
  }
  node {
    input: "resnetv19_stage1_conv0_fwd"
    input: "resnetv19_stage1_batchnorm0_gamma"
    input: "resnetv19_stage1_batchnorm0_beta"
    input: "resnetv19_stage1_batchnorm0_running_mean"
    input: "resnetv19_stage1_batchnorm0_running_var"
    output: "resnetv19_stage1_batchnorm0_fwd"
    name: "resnetv19_stage1_batchnorm0_fwd"
    op_type: "BatchNormalization"
    attribute {
      name: "epsilon"
      f: 1e-05
      type: FLOAT
    }
    attribute {
      name: "momentum"
      f: 0.9
      type: FLOAT
    }
    attribute {
      name: "spatial"
      i: 1
      type: INT
    }
  }
  node {
    input: "resnetv19_stage1_batchnorm0_fwd"
    output: "resnetv19_stage1_relu0_fwd"
    name: "resnetv19_stage1_relu0_fwd"
    op_type: "Relu"
  }
  node {
    input: "resnetv19_stage1_relu0_fwd"
    input: "resnetv19_stage1_conv1_weight"
    output: "resnetv19_stage1_conv1_fwd"
    name: "resnetv19_stage1_conv1_fwd"
    op_type: "Conv"
    attribute {
      name: "dilations"
      ints: 1
      ints: 1
      type: INTS
    }
    attribute {
      name: "group"
      i: 1
      type: INT
    }
    attribute {
      name: "kernel_shape"
      ints: 3
      ints: 3
      type: INTS
    }
    attribute {
      name: "pads"
      ints: 1
      ints: 1
      ints: 1
      ints: 1
      type: INTS
    }
    attribute {
      name: "strides"
      ints: 1
      ints: 1
      type: INTS
    }
  }
  node {
    input: "resnetv19_stage1_conv1_fwd"
    input: "resnetv19_stage1_batchnorm1_gamma"
    input: "resnetv19_stage1_batchnorm1_beta"
    input: "resnetv19_stage1_batchnorm1_running_mean"
    input: "resnetv19_stage1_batchnorm1_running_var"
    output: "resnetv19_stage1_batchnorm1_fwd"
    name: "resnetv19_stage1_batchnorm1_fwd"
    op_type: "BatchNormalization"
    attribute {
      name: "epsilon"
      f: 1e-05
      type: FLOAT
    }
    attribute {
      name: "momentum"
      f: 0.9
      type: FLOAT
    }
    attribute {
      name: "spatial"
      i: 1
      type: INT
    }
  }
  node {
    input: "resnetv19_stage1_batchnorm1_fwd"
    output: "resnetv19_stage1_relu1_fwd"
    name: "resnetv19_stage1_relu1_fwd"
    op_type: "Relu"
  }
  node {
    input: "resnetv19_stage1_relu1_fwd"
    input: "resnetv19_stage1_conv2_weight"
    input: "resnetv19_stage1_conv2_bias"
    output: "resnetv19_stage1_conv2_fwd"
    name: "resnetv19_stage1_conv2_fwd"
    op_type: "Conv"
    attribute {
      name: "dilations"
      ints: 1
      ints: 1
      type: INTS
    }
    attribute {
      name: "group"
      i: 1
      type: INT
    }
    attribute {
      name: "kernel_shape"
      ints: 1
      ints: 1
      type: INTS
    }
    attribute {
      name: "pads"
      ints: 0
      ints: 0
      ints: 0
      ints: 0
      type: INTS
    }
    attribute {
      name: "strides"
      ints: 1
      ints: 1
      type: INTS
    }
  }
  node {
    input: "resnetv19_stage1_conv2_fwd"
    input: "resnetv19_stage1_batchnorm2_gamma"
    input: "resnetv19_stage1_batchnorm2_beta"
    input: "resnetv19_stage1_batchnorm2_running_mean"
    input: "resnetv19_stage1_batchnorm2_running_var"
    output: "resnetv19_stage1_batchnorm2_fwd"
    name: "resnetv19_stage1_batchnorm2_fwd"
    op_type: "BatchNormalization"
    attribute {
      name: "epsilon"
      f: 1e-05
      type: FLOAT
    }
    attribute {
      name: "momentum"
      f: 0.9
      type: FLOAT
    }
    attribute {
      name: "spatial"
      i: 1
      type: INT
    }
  }
  node {
    input: "resnetv19_pool0_fwd"
    input: "resnetv19_stage1_conv3_weight"
    output: "resnetv19_stage1_conv3_fwd"
    name: "resnetv19_stage1_conv3_fwd"
    op_type: "Conv"
    attribute {
      name: "dilations"
      ints: 1
      ints: 1
      type: INTS
    }
    attribute {
      name: "group"
      i: 1
      type: INT
    }
    attribute {
      name: "kernel_shape"
      ints: 1
      ints: 1
      type: INTS
    }
    attribute {
      name: "pads"
      ints: 0
      ints: 0
      ints: 0
      ints: 0
      type: INTS
    }
    attribute {
      name: "strides"
      ints: 1
      ints: 1
      type: INTS
    }
  }
  node {
    input: "resnetv19_stage1_conv3_fwd"
    input: "resnetv19_stage1_batchnorm3_gamma"
    input: "resnetv19_stage1_batchnorm3_beta"
    input: "resnetv19_stage1_batchnorm3_running_mean"
    input: "resnetv19_stage1_batchnorm3_running_var"
    output: "resnetv19_stage1_batchnorm3_fwd"
    name: "resnetv19_stage1_batchnorm3_fwd"
    op_type: "BatchNormalization"
    attribute {
      name: "epsilon"
      f: 1e-05
      type: FLOAT
    }
    attribute {
      name: "momentum"
      f: 0.9
      type: FLOAT
    }
    attribute {
      name: "spatial"
      i: 1
      type: INT
    }
  }
  node {
    input: "resnetv19_stage1_batchnorm2_fwd"
    input: "resnetv19_stage1_batchnorm3_fwd"
    output: "resnetv19_stage1__plus0"
    name: "resnetv19_stage1__plus0"
    op_type: "Add"
  }
  node {
    input: "resnetv19_stage1__plus0"
    output: "resnetv19_stage1_activation0"
    name: "resnetv19_stage1_activation0"
    op_type: "Relu"
  }
  node {
    input: "resnetv19_stage1_activation0"
    input: "resnetv19_stage1_conv4_weight"
    input: "resnetv19_stage1_conv4_bias"
    output: "resnetv19_stage1_conv4_fwd"
    name: "resnetv19_stage1_conv4_fwd"
    op_type: "Conv"
    attribute {
      name: "dilations"
      ints: 1
      ints: 1
      type: INTS
    }
    attribute {
      name: "group"
      i: 1
      type: INT
    }
    attribute {
      name: "kernel_shape"
      ints: 1
      ints: 1
      type: INTS
    }
    attribute {
      name: "pads"
      ints: 0
      ints: 0
      ints: 0
      ints: 0
      type: INTS
    }
    attribute {
      name: "strides"
      ints: 1
      ints: 1
      type: INTS
    }
  }
  node {
    input: "resnetv19_stage1_conv4_fwd"
    input: "resnetv19_stage1_batchnorm4_gamma"
    input: "resnetv19_stage1_batchnorm4_beta"
    input: "resnetv19_stage1_batchnorm4_running_mean"
    input: "resnetv19_stage1_batchnorm4_running_var"
    output: "resnetv19_stage1_batchnorm4_fwd"
    name: "resnetv19_stage1_batchnorm4_fwd"
    op_type: "BatchNormalization"
    attribute {
      name: "epsilon"
      f: 1e-05
      type: FLOAT
    }
    attribute {
      name: "momentum"
      f: 0.9
      type: FLOAT
    }
    attribute {
      name: "spatial"
      i: 1
      type: INT
    }
  }
  node {
    input: "resnetv19_stage1_batchnorm4_fwd"
    output: "resnetv19_stage1_relu2_fwd"
    name: "resnetv19_stage1_relu2_fwd"
    op_type: "Relu"
  }
  node {
    input: "resnetv19_stage1_relu2_fwd"
    input: "resnetv19_stage1_conv5_weight"
    output: "resnetv19_stage1_conv5_fwd"
    name: "resnetv19_stage1_conv5_fwd"
    op_type: "Conv"
    attribute {
      name: "dilations"
      ints: 1
      ints: 1
      type: INTS
    }
    attribute {
      name: "group"
      i: 1
      type: INT
    }
    attribute {
      name: "kernel_shape"
      ints: 3
      ints: 3
      type: INTS
    }
    attribute {
      name: "pads"
      ints: 1
      ints: 1
      ints: 1
      ints: 1
      type: INTS
    }
    attribute {
      name: "strides"
      ints: 1
      ints: 1
      type: INTS
    }
  }
  node {
    input: "resnetv19_stage1_conv5_fwd"
    input: "resnetv19_stage1_batchnorm5_gamma"
    input: "resnetv19_stage1_batchnorm5_beta"
    input: "resnetv19_stage1_batchnorm5_running_mean"
    input: "resnetv19_stage1_batchnorm5_running_var"
    output: "resnetv19_stage1_batchnorm5_fwd"
    name: "resnetv19_stage1_batchnorm5_fwd"
    op_type: "BatchNormalization"
    attribute {
      name: "epsilon"
      f: 1e-05
      type: FLOAT
    }
    attribute {
      name: "momentum"
      f: 0.9
      type: FLOAT
    }
    attribute {
      name: "spatial"
      i: 1
      type: INT
    }
  }
  node {
    input: "resnetv19_stage1_batchnorm5_fwd"
    output: "resnetv19_stage1_relu3_fwd"
    name: "resnetv19_stage1_relu3_fwd"
    op_type: "Relu"
  }
  node {
    input: "resnetv19_stage1_relu3_fwd"
    input: "resnetv19_stage1_conv6_weight"
    input: "resnetv19_stage1_conv6_bias"
    output: "resnetv19_stage1_conv6_fwd"
    name: "resnetv19_stage1_conv6_fwd"
    op_type: "Conv"
    attribute {
      name: "dilations"
      ints: 1
      ints: 1
      type: INTS
    }
    attribute {
      name: "group"
      i: 1
      type: INT
    }
    attribute {
      name: "kernel_shape"
      ints: 1
      ints: 1
      type: INTS
    }
    attribute {
      name: "pads"
      ints: 0
      ints: 0
      ints: 0
      ints: 0
      type: INTS
    }
    attribute {
      name: "strides"
      ints: 1
      ints: 1
      type: INTS
    }
  }
  node {
    input: "resnetv19_stage1_conv6_fwd"
    input: "resnetv19_stage1_batchnorm6_gamma"
    input: "resnetv19_stage1_batchnorm6_beta"
    input: "resnetv19_stage1_batchnorm6_running_mean"
    input: "resnetv19_stage1_batchnorm6_running_var"
    output: "resnetv19_stage1_batchnorm6_fwd"
    name: "resnetv19_stage1_batchnorm6_fwd"
    op_type: "BatchNormalization"
    attribute {
      name: "epsilon"
      f: 1e-05
      type: FLOAT
    }
    attribute {
      name: "momentum"
      f: 0.9
      type: FLOAT
    }
    attribute {
      name: "spatial"
      i: 1
      type: INT
    }
  }
  node {
    input: "resnetv19_stage1_batchnorm6_fwd"
    input: "resnetv19_stage1_activation0"
    output: "resnetv19_stage1__plus1"
    name: "resnetv19_stage1__plus1"
    op_type: "Add"
  }
  node {
    input: "resnetv19_stage1__plus1"
    output: "resnetv19_stage1_activation1"
    name: "resnetv19_stage1_activation1"
    op_type: "Relu"
  }
  node {
    input: "resnetv19_stage1_activation1"
    input: "resnetv19_stage1_conv7_weight"
    input: "resnetv19_stage1_conv7_bias"
    output: "resnetv19_stage1_conv7_fwd"
    name: "resnetv19_stage1_conv7_fwd"
    op_type: "Conv"
    attribute {
      name: "dilations"
      ints: 1
      ints: 1
      type: INTS
    }
    attribute {
      name: "group"
      i: 1
      type: INT
    }
    attribute {
      name: "kernel_shape"
      ints: 1
      ints: 1
      type: INTS
    }
    attribute {
      name: "pads"
      ints: 0
      ints: 0
      ints: 0
      ints: 0
      type: INTS
    }
    attribute {
      name: "strides"
      ints: 1
      ints: 1
      type: INTS
    }
  }
  node {
    input: "resnetv19_stage1_conv7_fwd"
    input: "resnetv19_stage1_batchnorm7_gamma"
    input: "resnetv19_stage1_batchnorm7_beta"
    input: "resnetv19_stage1_batchnorm7_running_mean"
    input: "resnetv19_stage1_batchnorm7_running_var"
    output: "resnetv19_stage1_batchnorm7_fwd"
    name: "resnetv19_stage1_batchnorm7_fwd"
    op_type: "BatchNormalization"
    attribute {
      name: "epsilon"
      f: 1e-05
      type: FLOAT
    }
    attribute {
      name: "momentum"
      f: 0.9
      type: FLOAT
    }
    attribute {
      name: "spatial"
      i: 1
      type: INT
    }
  }
  node {
    input: "resnetv19_stage1_batchnorm7_fwd"
    output: "resnetv19_stage1_relu4_fwd"
    name: "resnetv19_stage1_relu4_fwd"
    op_type: "Relu"
  }
  node {
    input: "resnetv19_stage1_relu4_fwd"
    input: "resnetv19_stage1_conv8_weight"
    output: "resnetv19_stage1_conv8_fwd"
    name: "resnetv19_stage1_conv8_fwd"
    op_type: "Conv"
    attribute {
      name: "dilations"
      ints: 1
      ints: 1
      type: INTS
    }
    attribute {
      name: "group"
      i: 1
      type: INT
    }
    attribute {
      name: "kernel_shape"
      ints: 3
      ints: 3
      type: INTS
    }
    attribute {
      name: "pads"
      ints: 1
      ints: 1
      ints: 1
      ints: 1
      type: INTS
    }
    attribute {
      name: "strides"
      ints: 1
      ints: 1
      type: INTS
    }
  }
  node {
    input: "resnetv19_stage1_conv8_fwd"
    input: "resnetv19_stage1_batchnorm8_gamma"
    input: "resnetv19_stage1_batchnorm8_beta"
    input: "resnetv19_stage1_batchnorm8_running_mean"
    input: "resnetv19_stage1_batchnorm8_running_var"
    output: "resnetv19_stage1_batchnorm8_fwd"
    name: "resnetv19_stage1_batchnorm8_fwd"
    op_type: "BatchNormalization"
    attribute {
      name: "epsilon"
      f: 1e-05
      type: FLOAT
    }
    attribute {
      name: "momentum"
      f: 0.9
      type: FLOAT
    }
    attribute {
      name: "spatial"
      i: 1
      type: INT
    }
  }
  node {
    input: "resnetv19_stage1_batchnorm8_fwd"
    output: "resnetv19_stage1_relu5_fwd"
    name: "resnetv19_stage1_relu5_fwd"
    op_type: "Relu"
  }
  node {
    input: "resnetv19_stage1_relu5_fwd"
    input: "resnetv19_stage1_conv9_weight"
    input: "resnetv19_stage1_conv9_bias"
    output: "resnetv19_stage1_conv9_fwd"
    name: "resnetv19_stage1_conv9_fwd"
    op_type: "Conv"
    attribute {
      name: "dilations"
      ints: 1
      ints: 1
      type: INTS
    }
    attribute {
      name: "group"
      i: 1
      type: INT
    }
    attribute {
      name: "kernel_shape"
      ints: 1
      ints: 1
      type: INTS
    }
    attribute {
      name: "pads"
      ints: 0
      ints: 0
      ints: 0
      ints: 0
      type: INTS
    }
    attribute {
      name: "strides"
      ints: 1
      ints: 1
      type: INTS
    }
  }
  node {
    input: "resnetv19_stage1_conv9_fwd"
    input: "resnetv19_stage1_batchnorm9_gamma"
    input: "resnetv19_stage1_batchnorm9_beta"
    input: "resnetv19_stage1_batchnorm9_running_mean"
    input: "resnetv19_stage1_batchnorm9_running_var"
    output: "resnetv19_stage1_batchnorm9_fwd"
    name: "resnetv19_stage1_batchnorm9_fwd"
    op_type: "BatchNormalization"
    attribute {
      name: "epsilon"
      f: 1e-05
      type: FLOAT
    }
    attribute {
      name: "momentum"
      f: 0.9
      type: FLOAT
    }
    attribute {
      name: "spatial"
      i: 1
      type: INT
    }
  }
  node {
    input: "resnetv19_stage1_batchnorm9_fwd"
    input: "resnetv19_stage1_activation1"
    output: "resnetv19_stage1__plus2"
    name: "resnetv19_stage1__plus2"
    op_type: "Add"
  }
  node {
    input: "resnetv19_stage1__plus2"
    output: "resnetv19_stage1_activation2"
    name: "resnetv19_stage1_activation2"
    op_type: "Relu"
  }
  node {
    input: "resnetv19_stage1_activation2"
    input: "resnetv19_stage2_conv0_weight"
    input: "resnetv19_stage2_conv0_bias"
    output: "resnetv19_stage2_conv0_fwd"
    name: "resnetv19_stage2_conv0_fwd"
    op_type: "Conv"
    attribute {
      name: "dilations"
      ints: 1
      ints: 1
      type: INTS
    }
    attribute {
      name: "group"
      i: 1
      type: INT
    }
    attribute {
      name: "kernel_shape"
      ints: 1
      ints: 1
      type: INTS
    }
    attribute {
      name: "pads"
      ints: 0
      ints: 0
      ints: 0
      ints: 0
      type: INTS
    }
    attribute {
      name: "strides"
      ints: 2
      ints: 2
      type: INTS
    }
  }
  node {
    input: "resnetv19_stage2_conv0_fwd"
    input: "resnetv19_stage2_batchnorm0_gamma"
    input: "resnetv19_stage2_batchnorm0_beta"
    input: "resnetv19_stage2_batchnorm0_running_mean"
    input: "resnetv19_stage2_batchnorm0_running_var"
    output: "resnetv19_stage2_batchnorm0_fwd"
    name: "resnetv19_stage2_batchnorm0_fwd"
    op_type: "BatchNormalization"
    attribute {
      name: "epsilon"
      f: 1e-05
      type: FLOAT
    }
    attribute {
      name: "momentum"
      f: 0.9
      type: FLOAT
    }
    attribute {
      name: "spatial"
      i: 1
      type: INT
    }
  }
  node {
    input: "resnetv19_stage2_batchnorm0_fwd"
    output: "resnetv19_stage2_relu0_fwd"
    name: "resnetv19_stage2_relu0_fwd"
    op_type: "Relu"
  }
  node {
    input: "resnetv19_stage2_relu0_fwd"
    input: "resnetv19_stage2_conv1_weight"
    output: "resnetv19_stage2_conv1_fwd"
    name: "resnetv19_stage2_conv1_fwd"
    op_type: "Conv"
    attribute {
      name: "dilations"
      ints: 1
      ints: 1
      type: INTS
    }
    attribute {
      name: "group"
      i: 1
      type: INT
    }
    attribute {
      name: "kernel_shape"
      ints: 3
      ints: 3
      type: INTS
    }
    attribute {
      name: "pads"
      ints: 1
      ints: 1
      ints: 1
      ints: 1
      type: INTS
    }
    attribute {
      name: "strides"
      ints: 1
      ints: 1
      type: INTS
    }
  }
  node {
    input: "resnetv19_stage2_conv1_fwd"
    input: "resnetv19_stage2_batchnorm1_gamma"
    input: "resnetv19_stage2_batchnorm1_beta"
    input: "resnetv19_stage2_batchnorm1_running_mean"
    input: "resnetv19_stage2_batchnorm1_running_var"
    output: "resnetv19_stage2_batchnorm1_fwd"
    name: "resnetv19_stage2_batchnorm1_fwd"
    op_type: "BatchNormalization"
    attribute {
      name: "epsilon"
      f: 1e-05
      type: FLOAT
    }
    attribute {
      name: "momentum"
      f: 0.9
      type: FLOAT
    }
    attribute {
      name: "spatial"
      i: 1
      type: INT
    }
  }
  node {
    input: "resnetv19_stage2_batchnorm1_fwd"
    output: "resnetv19_stage2_relu1_fwd"
    name: "resnetv19_stage2_relu1_fwd"
    op_type: "Relu"
  }
  node {
    input: "resnetv19_stage2_relu1_fwd"
    input: "resnetv19_stage2_conv2_weight"
    input: "resnetv19_stage2_conv2_bias"
    output: "resnetv19_stage2_conv2_fwd"
    name: "resnetv19_stage2_conv2_fwd"
    op_type: "Conv"
    attribute {
      name: "dilations"
      ints: 1
      ints: 1
      type: INTS
    }
    attribute {
      name: "group"
      i: 1
      type: INT
    }
    attribute {
      name: "kernel_shape"
      ints: 1
      ints: 1
      type: INTS
    }
    attribute {
      name: "pads"
      ints: 0
      ints: 0
      ints: 0
      ints: 0
      type: INTS
    }
    attribute {
      name: "strides"
      ints: 1
      ints: 1
      type: INTS
    }
  }
  node {
    input: "resnetv19_stage2_conv2_fwd"
    input: "resnetv19_stage2_batchnorm2_gamma"
    input: "resnetv19_stage2_batchnorm2_beta"
    input: "resnetv19_stage2_batchnorm2_running_mean"
    input: "resnetv19_stage2_batchnorm2_running_var"
    output: "resnetv19_stage2_batchnorm2_fwd"
    name: "resnetv19_stage2_batchnorm2_fwd"
    op_type: "BatchNormalization"
    attribute {
      name: "epsilon"
      f: 1e-05
      type: FLOAT
    }
    attribute {
      name: "momentum"
      f: 0.9
      type: FLOAT
    }
    attribute {
      name: "spatial"
      i: 1
      type: INT
    }
  }
  node {
    input: "resnetv19_stage1_activation2"
    input: "resnetv19_stage2_conv3_weight"
    output: "resnetv19_stage2_conv3_fwd"
    name: "resnetv19_stage2_conv3_fwd"
    op_type: "Conv"
    attribute {
      name: "dilations"
      ints: 1
      ints: 1
      type: INTS
    }
    attribute {
      name: "group"
      i: 1
      type: INT
    }
    attribute {
      name: "kernel_shape"
      ints: 1
      ints: 1
      type: INTS
    }
    attribute {
      name: "pads"
      ints: 0
      ints: 0
      ints: 0
      ints: 0
      type: INTS
    }
    attribute {
      name: "strides"
      ints: 2
      ints: 2
      type: INTS
    }
  }
  node {
    input: "resnetv19_stage2_conv3_fwd"
    input: "resnetv19_stage2_batchnorm3_gamma"
    input: "resnetv19_stage2_batchnorm3_beta"
    input: "resnetv19_stage2_batchnorm3_running_mean"
    input: "resnetv19_stage2_batchnorm3_running_var"
    output: "resnetv19_stage2_batchnorm3_fwd"
    name: "resnetv19_stage2_batchnorm3_fwd"
    op_type: "BatchNormalization"
    attribute {
      name: "epsilon"
      f: 1e-05
      type: FLOAT
    }
    attribute {
      name: "momentum"
      f: 0.9
      type: FLOAT
    }
    attribute {
      name: "spatial"
      i: 1
      type: INT
    }
  }
  node {
    input: "resnetv19_stage2_batchnorm2_fwd"
    input: "resnetv19_stage2_batchnorm3_fwd"
    output: "resnetv19_stage2__plus0"
    name: "resnetv19_stage2__plus0"
    op_type: "Add"
  }
  node {
    input: "resnetv19_stage2__plus0"
    output: "resnetv19_stage2_activation0"
    name: "resnetv19_stage2_activation0"
    op_type: "Relu"
  }
  node {
    input: "resnetv19_stage2_activation0"
    input: "resnetv19_stage2_conv4_weight"
    input: "resnetv19_stage2_conv4_bias"
    output: "resnetv19_stage2_conv4_fwd"
    name: "resnetv19_stage2_conv4_fwd"
    op_type: "Conv"
    attribute {
      name: "dilations"
      ints: 1
      ints: 1
      type: INTS
    }
    attribute {
      name: "group"
      i: 1
      type: INT
    }
    attribute {
      name: "kernel_shape"
      ints: 1
      ints: 1
      type: INTS
    }
    attribute {
      name: "pads"
      ints: 0
      ints: 0
      ints: 0
      ints: 0
      type: INTS
    }
    attribute {
      name: "strides"
      ints: 1
      ints: 1
      type: INTS
    }
  }
  node {
    input: "resnetv19_stage2_conv4_fwd"
    input: "resnetv19_stage2_batchnorm4_gamma"
    input: "resnetv19_stage2_batchnorm4_beta"
    input: "resnetv19_stage2_batchnorm4_running_mean"
    input: "resnetv19_stage2_batchnorm4_running_var"
    output: "resnetv19_stage2_batchnorm4_fwd"
    name: "resnetv19_stage2_batchnorm4_fwd"
    op_type: "BatchNormalization"
    attribute {
      name: "epsilon"
      f: 1e-05
      type: FLOAT
    }
    attribute {
      name: "momentum"
      f: 0.9
      type: FLOAT
    }
    attribute {
      name: "spatial"
      i: 1
      type: INT
    }
  }
  node {
    input: "resnetv19_stage2_batchnorm4_fwd"
    output: "resnetv19_stage2_relu2_fwd"
    name: "resnetv19_stage2_relu2_fwd"
    op_type: "Relu"
  }
  node {
    input: "resnetv19_stage2_relu2_fwd"
    input: "resnetv19_stage2_conv5_weight"
    output: "resnetv19_stage2_conv5_fwd"
    name: "resnetv19_stage2_conv5_fwd"
    op_type: "Conv"
    attribute {
      name: "dilations"
      ints: 1
      ints: 1
      type: INTS
    }
    attribute {
      name: "group"
      i: 1
      type: INT
    }
    attribute {
      name: "kernel_shape"
      ints: 3
      ints: 3
      type: INTS
    }
    attribute {
      name: "pads"
      ints: 1
      ints: 1
      ints: 1
      ints: 1
      type: INTS
    }
    attribute {
      name: "strides"
      ints: 1
      ints: 1
      type: INTS
    }
  }
  node {
    input: "resnetv19_stage2_conv5_fwd"
    input: "resnetv19_stage2_batchnorm5_gamma"
    input: "resnetv19_stage2_batchnorm5_beta"
    input: "resnetv19_stage2_batchnorm5_running_mean"
    input: "resnetv19_stage2_batchnorm5_running_var"
    output: "resnetv19_stage2_batchnorm5_fwd"
    name: "resnetv19_stage2_batchnorm5_fwd"
    op_type: "BatchNormalization"
    attribute {
      name: "epsilon"
      f: 1e-05
      type: FLOAT
    }
    attribute {
      name: "momentum"
      f: 0.9
      type: FLOAT
    }
    attribute {
      name: "spatial"
      i: 1
      type: INT
    }
  }
  node {
    input: "resnetv19_stage2_batchnorm5_fwd"
    output: "resnetv19_stage2_relu3_fwd"
    name: "resnetv19_stage2_relu3_fwd"
    op_type: "Relu"
  }
  node {
    input: "resnetv19_stage2_relu3_fwd"
    input: "resnetv19_stage2_conv6_weight"
    input: "resnetv19_stage2_conv6_bias"
    output: "resnetv19_stage2_conv6_fwd"
    name: "resnetv19_stage2_conv6_fwd"
    op_type: "Conv"
    attribute {
      name: "dilations"
      ints: 1
      ints: 1
      type: INTS
    }
    attribute {
      name: "group"
      i: 1
      type: INT
    }
    attribute {
      name: "kernel_shape"
      ints: 1
      ints: 1
      type: INTS
    }
    attribute {
      name: "pads"
      ints: 0
      ints: 0
      ints: 0
      ints: 0
      type: INTS
    }
    attribute {
      name: "strides"
      ints: 1
      ints: 1
      type: INTS
    }
  }
  node {
    input: "resnetv19_stage2_conv6_fwd"
    input: "resnetv19_stage2_batchnorm6_gamma"
    input: "resnetv19_stage2_batchnorm6_beta"
    input: "resnetv19_stage2_batchnorm6_running_mean"
    input: "resnetv19_stage2_batchnorm6_running_var"
    output: "resnetv19_stage2_batchnorm6_fwd"
    name: "resnetv19_stage2_batchnorm6_fwd"
    op_type: "BatchNormalization"
    attribute {
      name: "epsilon"
      f: 1e-05
      type: FLOAT
    }
    attribute {
      name: "momentum"
      f: 0.9
      type: FLOAT
    }
    attribute {
      name: "spatial"
      i: 1
      type: INT
    }
  }
  node {
    input: "resnetv19_stage2_batchnorm6_fwd"
    input: "resnetv19_stage2_activation0"
    output: "resnetv19_stage2__plus1"
    name: "resnetv19_stage2__plus1"
    op_type: "Add"
  }
  node {
    input: "resnetv19_stage2__plus1"
    output: "resnetv19_stage2_activation1"
    name: "resnetv19_stage2_activation1"
    op_type: "Relu"
  }
  node {
    input: "resnetv19_stage2_activation1"
    input: "resnetv19_stage2_conv7_weight"
    input: "resnetv19_stage2_conv7_bias"
    output: "resnetv19_stage2_conv7_fwd"
    name: "resnetv19_stage2_conv7_fwd"
    op_type: "Conv"
    attribute {
      name: "dilations"
      ints: 1
      ints: 1
      type: INTS
    }
    attribute {
      name: "group"
      i: 1
      type: INT
    }
    attribute {
      name: "kernel_shape"
      ints: 1
      ints: 1
      type: INTS
    }
    attribute {
      name: "pads"
      ints: 0
      ints: 0
      ints: 0
      ints: 0
      type: INTS
    }
    attribute {
      name: "strides"
      ints: 1
      ints: 1
      type: INTS
    }
  }
  node {
    input: "resnetv19_stage2_conv7_fwd"
    input: "resnetv19_stage2_batchnorm7_gamma"
    input: "resnetv19_stage2_batchnorm7_beta"
    input: "resnetv19_stage2_batchnorm7_running_mean"
    input: "resnetv19_stage2_batchnorm7_running_var"
    output: "resnetv19_stage2_batchnorm7_fwd"
    name: "resnetv19_stage2_batchnorm7_fwd"
    op_type: "BatchNormalization"
    attribute {
      name: "epsilon"
      f: 1e-05
      type: FLOAT
    }
    attribute {
      name: "momentum"
      f: 0.9
      type: FLOAT
    }
    attribute {
      name: "spatial"
      i: 1
      type: INT
    }
  }
  node {
    input: "resnetv19_stage2_batchnorm7_fwd"
    output: "resnetv19_stage2_relu4_fwd"
    name: "resnetv19_stage2_relu4_fwd"
    op_type: "Relu"
  }
  node {
    input: "resnetv19_stage2_relu4_fwd"
    input: "resnetv19_stage2_conv8_weight"
    output: "resnetv19_stage2_conv8_fwd"
    name: "resnetv19_stage2_conv8_fwd"
    op_type: "Conv"
    attribute {
      name: "dilations"
      ints: 1
      ints: 1
      type: INTS
    }
    attribute {
      name: "group"
      i: 1
      type: INT
    }
    attribute {
      name: "kernel_shape"
      ints: 3
      ints: 3
      type: INTS
    }
    attribute {
      name: "pads"
      ints: 1
      ints: 1
      ints: 1
      ints: 1
      type: INTS
    }
    attribute {
      name: "strides"
      ints: 1
      ints: 1
      type: INTS
    }
  }
  node {
    input: "resnetv19_stage2_conv8_fwd"
    input: "resnetv19_stage2_batchnorm8_gamma"
    input: "resnetv19_stage2_batchnorm8_beta"
    input: "resnetv19_stage2_batchnorm8_running_mean"
    input: "resnetv19_stage2_batchnorm8_running_var"
    output: "resnetv19_stage2_batchnorm8_fwd"
    name: "resnetv19_stage2_batchnorm8_fwd"
    op_type: "BatchNormalization"
    attribute {
      name: "epsilon"
      f: 1e-05
      type: FLOAT
    }
    attribute {
      name: "momentum"
      f: 0.9
      type: FLOAT
    }
    attribute {
      name: "spatial"
      i: 1
      type: INT
    }
  }
  node {
    input: "resnetv19_stage2_batchnorm8_fwd"
    output: "resnetv19_stage2_relu5_fwd"
    name: "resnetv19_stage2_relu5_fwd"
    op_type: "Relu"
  }
  node {
    input: "resnetv19_stage2_relu5_fwd"
    input: "resnetv19_stage2_conv9_weight"
    input: "resnetv19_stage2_conv9_bias"
    output: "resnetv19_stage2_conv9_fwd"
    name: "resnetv19_stage2_conv9_fwd"
    op_type: "Conv"
    attribute {
      name: "dilations"
      ints: 1
      ints: 1
      type: INTS
    }
    attribute {
      name: "group"
      i: 1
      type: INT
    }
    attribute {
      name: "kernel_shape"
      ints: 1
      ints: 1
      type: INTS
    }
    attribute {
      name: "pads"
      ints: 0
      ints: 0
      ints: 0
      ints: 0
      type: INTS
    }
    attribute {
      name: "strides"
      ints: 1
      ints: 1
      type: INTS
    }
  }
  node {
    input: "resnetv19_stage2_conv9_fwd"
    input: "resnetv19_stage2_batchnorm9_gamma"
    input: "resnetv19_stage2_batchnorm9_beta"
    input: "resnetv19_stage2_batchnorm9_running_mean"
    input: "resnetv19_stage2_batchnorm9_running_var"
    output: "resnetv19_stage2_batchnorm9_fwd"
    name: "resnetv19_stage2_batchnorm9_fwd"
    op_type: "BatchNormalization"
    attribute {
      name: "epsilon"
      f: 1e-05
      type: FLOAT
    }
    attribute {
      name: "momentum"
      f: 0.9
      type: FLOAT
    }
    attribute {
      name: "spatial"
      i: 1
      type: INT
    }
  }
  node {
    input: "resnetv19_stage2_batchnorm9_fwd"
    input: "resnetv19_stage2_activation1"
    output: "resnetv19_stage2__plus2"
    name: "resnetv19_stage2__plus2"
    op_type: "Add"
  }
  node {
    input: "resnetv19_stage2__plus2"
    output: "resnetv19_stage2_activation2"
    name: "resnetv19_stage2_activation2"
    op_type: "Relu"
  }
  node {
    input: "resnetv19_stage2_activation2"
    input: "resnetv19_stage2_conv10_weight"
    input: "resnetv19_stage2_conv10_bias"
    output: "resnetv19_stage2_conv10_fwd"
    name: "resnetv19_stage2_conv10_fwd"
    op_type: "Conv"
    attribute {
      name: "dilations"
      ints: 1
      ints: 1
      type: INTS
    }
    attribute {
      name: "group"
      i: 1
      type: INT
    }
    attribute {
      name: "kernel_shape"
      ints: 1
      ints: 1
      type: INTS
    }
    attribute {
      name: "pads"
      ints: 0
      ints: 0
      ints: 0
      ints: 0
      type: INTS
    }
    attribute {
      name: "strides"
      ints: 1
      ints: 1
      type: INTS
    }
  }
  node {
    input: "resnetv19_stage2_conv10_fwd"
    input: "resnetv19_stage2_batchnorm10_gamma"
    input: "resnetv19_stage2_batchnorm10_beta"
    input: "resnetv19_stage2_batchnorm10_running_mean"
    input: "resnetv19_stage2_batchnorm10_running_var"
    output: "resnetv19_stage2_batchnorm10_fwd"
    name: "resnetv19_stage2_batchnorm10_fwd"
    op_type: "BatchNormalization"
    attribute {
      name: "epsilon"
      f: 1e-05
      type: FLOAT
    }
    attribute {
      name: "momentum"
      f: 0.9
      type: FLOAT
    }
    attribute {
      name: "spatial"
      i: 1
      type: INT
    }
  }
  node {
    input: "resnetv19_stage2_batchnorm10_fwd"
    output: "resnetv19_stage2_relu6_fwd"
    name: "resnetv19_stage2_relu6_fwd"
    op_type: "Relu"
  }
  node {
    input: "resnetv19_stage2_relu6_fwd"
    input: "resnetv19_stage2_conv11_weight"
    output: "resnetv19_stage2_conv11_fwd"
    name: "resnetv19_stage2_conv11_fwd"
    op_type: "Conv"
    attribute {
      name: "dilations"
      ints: 1
      ints: 1
      type: INTS
    }
    attribute {
      name: "group"
      i: 1
      type: INT
    }
    attribute {
      name: "kernel_shape"
      ints: 3
      ints: 3
      type: INTS
    }
    attribute {
      name: "pads"
      ints: 1
      ints: 1
      ints: 1
      ints: 1
      type: INTS
    }
    attribute {
      name: "strides"
      ints: 1
      ints: 1
      type: INTS
    }
  }
  node {
    input: "resnetv19_stage2_conv11_fwd"
    input: "resnetv19_stage2_batchnorm11_gamma"
    input: "resnetv19_stage2_batchnorm11_beta"
    input: "resnetv19_stage2_batchnorm11_running_mean"
    input: "resnetv19_stage2_batchnorm11_running_var"
    output: "resnetv19_stage2_batchnorm11_fwd"
    name: "resnetv19_stage2_batchnorm11_fwd"
    op_type: "BatchNormalization"
    attribute {
      name: "epsilon"
      f: 1e-05
      type: FLOAT
    }
    attribute {
      name: "momentum"
      f: 0.9
      type: FLOAT
    }
    attribute {
      name: "spatial"
      i: 1
      type: INT
    }
  }
  node {
    input: "resnetv19_stage2_batchnorm11_fwd"
    output: "resnetv19_stage2_relu7_fwd"
    name: "resnetv19_stage2_relu7_fwd"
    op_type: "Relu"
  }
  node {
    input: "resnetv19_stage2_relu7_fwd"
    input: "resnetv19_stage2_conv12_weight"
    input: "resnetv19_stage2_conv12_bias"
    output: "resnetv19_stage2_conv12_fwd"
    name: "resnetv19_stage2_conv12_fwd"
    op_type: "Conv"
    attribute {
      name: "dilations"
      ints: 1
      ints: 1
      type: INTS
    }
    attribute {
      name: "group"
      i: 1
      type: INT
    }
    attribute {
      name: "kernel_shape"
      ints: 1
      ints: 1
      type: INTS
    }
    attribute {
      name: "pads"
      ints: 0
      ints: 0
      ints: 0
      ints: 0
      type: INTS
    }
    attribute {
      name: "strides"
      ints: 1
      ints: 1
      type: INTS
    }
  }
  node {
    input: "resnetv19_stage2_conv12_fwd"
    input: "resnetv19_stage2_batchnorm12_gamma"
    input: "resnetv19_stage2_batchnorm12_beta"
    input: "resnetv19_stage2_batchnorm12_running_mean"
    input: "resnetv19_stage2_batchnorm12_running_var"
    output: "resnetv19_stage2_batchnorm12_fwd"
    name: "resnetv19_stage2_batchnorm12_fwd"
    op_type: "BatchNormalization"
    attribute {
      name: "epsilon"
      f: 1e-05
      type: FLOAT
    }
    attribute {
      name: "momentum"
      f: 0.9
      type: FLOAT
    }
    attribute {
      name: "spatial"
      i: 1
      type: INT
    }
  }
  node {
    input: "resnetv19_stage2_batchnorm12_fwd"
    input: "resnetv19_stage2_activation2"
    output: "resnetv19_stage2__plus3"
    name: "resnetv19_stage2__plus3"
    op_type: "Add"
  }
  node {
    input: "resnetv19_stage2__plus3"
    output: "resnetv19_stage2_activation3"
    name: "resnetv19_stage2_activation3"
    op_type: "Relu"
  }
  node {
    input: "resnetv19_stage2_activation3"
    input: "resnetv19_stage2_conv13_weight"
    input: "resnetv19_stage2_conv13_bias"
    output: "resnetv19_stage2_conv13_fwd"
    name: "resnetv19_stage2_conv13_fwd"
    op_type: "Conv"
    attribute {
      name: "dilations"
      ints: 1
      ints: 1
      type: INTS
    }
    attribute {
      name: "group"
      i: 1
      type: INT
    }
    attribute {
      name: "kernel_shape"
      ints: 1
      ints: 1
      type: INTS
    }
    attribute {
      name: "pads"
      ints: 0
      ints: 0
      ints: 0
      ints: 0
      type: INTS
    }
    attribute {
      name: "strides"
      ints: 1
      ints: 1
      type: INTS
    }
  }
  node {
    input: "resnetv19_stage2_conv13_fwd"
    input: "resnetv19_stage2_batchnorm13_gamma"
    input: "resnetv19_stage2_batchnorm13_beta"
    input: "resnetv19_stage2_batchnorm13_running_mean"
    input: "resnetv19_stage2_batchnorm13_running_var"
    output: "resnetv19_stage2_batchnorm13_fwd"
    name: "resnetv19_stage2_batchnorm13_fwd"
    op_type: "BatchNormalization"
    attribute {
      name: "epsilon"
      f: 1e-05
      type: FLOAT
    }
    attribute {
      name: "momentum"
      f: 0.9
      type: FLOAT
    }
    attribute {
      name: "spatial"
      i: 1
      type: INT
    }
  }
  node {
    input: "resnetv19_stage2_batchnorm13_fwd"
    output: "resnetv19_stage2_relu8_fwd"
    name: "resnetv19_stage2_relu8_fwd"
    op_type: "Relu"
  }
  node {
    input: "resnetv19_stage2_relu8_fwd"
    input: "resnetv19_stage2_conv14_weight"
    output: "resnetv19_stage2_conv14_fwd"
    name: "resnetv19_stage2_conv14_fwd"
    op_type: "Conv"
    attribute {
      name: "dilations"
      ints: 1
      ints: 1
      type: INTS
    }
    attribute {
      name: "group"
      i: 1
      type: INT
    }
    attribute {
      name: "kernel_shape"
      ints: 3
      ints: 3
      type: INTS
    }
    attribute {
      name: "pads"
      ints: 1
      ints: 1
      ints: 1
      ints: 1
      type: INTS
    }
    attribute {
      name: "strides"
      ints: 1
      ints: 1
      type: INTS
    }
  }
  node {
    input: "resnetv19_stage2_conv14_fwd"
    input: "resnetv19_stage2_batchnorm14_gamma"
    input: "resnetv19_stage2_batchnorm14_beta"
    input: "resnetv19_stage2_batchnorm14_running_mean"
    input: "resnetv19_stage2_batchnorm14_running_var"
    output: "resnetv19_stage2_batchnorm14_fwd"
    name: "resnetv19_stage2_batchnorm14_fwd"
    op_type: "BatchNormalization"
    attribute {
      name: "epsilon"
      f: 1e-05
      type: FLOAT
    }
    attribute {
      name: "momentum"
      f: 0.9
      type: FLOAT
    }
    attribute {
      name: "spatial"
      i: 1
      type: INT
    }
  }
  node {
    input: "resnetv19_stage2_batchnorm14_fwd"
    output: "resnetv19_stage2_relu9_fwd"
    name: "resnetv19_stage2_relu9_fwd"
    op_type: "Relu"
  }
  node {
    input: "resnetv19_stage2_relu9_fwd"
    input: "resnetv19_stage2_conv15_weight"
    input: "resnetv19_stage2_conv15_bias"
    output: "resnetv19_stage2_conv15_fwd"
    name: "resnetv19_stage2_conv15_fwd"
    op_type: "Conv"
    attribute {
      name: "dilations"
      ints: 1
      ints: 1
      type: INTS
    }
    attribute {
      name: "group"
      i: 1
      type: INT
    }
    attribute {
      name: "kernel_shape"
      ints: 1
      ints: 1
      type: INTS
    }
    attribute {
      name: "pads"
      ints: 0
      ints: 0
      ints: 0
      ints: 0
      type: INTS
    }
    attribute {
      name: "strides"
      ints: 1
      ints: 1
      type: INTS
    }
  }
  node {
    input: "resnetv19_stage2_conv15_fwd"
    input: "resnetv19_stage2_batchnorm15_gamma"
    input: "resnetv19_stage2_batchnorm15_beta"
    input: "resnetv19_stage2_batchnorm15_running_mean"
    input: "resnetv19_stage2_batchnorm15_running_var"
    output: "resnetv19_stage2_batchnorm15_fwd"
    name: "resnetv19_stage2_batchnorm15_fwd"
    op_type: "BatchNormalization"
    attribute {
      name: "epsilon"
      f: 1e-05
      type: FLOAT
    }
    attribute {
      name: "momentum"
      f: 0.9
      type: FLOAT
    }
    attribute {
      name: "spatial"
      i: 1
      type: INT
    }
  }
  node {
    input: "resnetv19_stage2_batchnorm15_fwd"
    input: "resnetv19_stage2_activation3"
    output: "resnetv19_stage2__plus4"
    name: "resnetv19_stage2__plus4"
    op_type: "Add"
  }
  node {
    input: "resnetv19_stage2__plus4"
    output: "resnetv19_stage2_activation4"
    name: "resnetv19_stage2_activation4"
    op_type: "Relu"
  }
  node {
    input: "resnetv19_stage2_activation4"
    input: "resnetv19_stage2_conv16_weight"
    input: "resnetv19_stage2_conv16_bias"
    output: "resnetv19_stage2_conv16_fwd"
    name: "resnetv19_stage2_conv16_fwd"
    op_type: "Conv"
    attribute {
      name: "dilations"
      ints: 1
      ints: 1
      type: INTS
    }
    attribute {
      name: "group"
      i: 1
      type: INT
    }
    attribute {
      name: "kernel_shape"
      ints: 1
      ints: 1
      type: INTS
    }
    attribute {
      name: "pads"
      ints: 0
      ints: 0
      ints: 0
      ints: 0
      type: INTS
    }
    attribute {
      name: "strides"
      ints: 1
      ints: 1
      type: INTS
    }
  }
  node {
    input: "resnetv19_stage2_conv16_fwd"
    input: "resnetv19_stage2_batchnorm16_gamma"
    input: "resnetv19_stage2_batchnorm16_beta"
    input: "resnetv19_stage2_batchnorm16_running_mean"
    input: "resnetv19_stage2_batchnorm16_running_var"
    output: "resnetv19_stage2_batchnorm16_fwd"
    name: "resnetv19_stage2_batchnorm16_fwd"
    op_type: "BatchNormalization"
    attribute {
      name: "epsilon"
      f: 1e-05
      type: FLOAT
    }
    attribute {
      name: "momentum"
      f: 0.9
      type: FLOAT
    }
    attribute {
      name: "spatial"
      i: 1
      type: INT
    }
  }
  node {
    input: "resnetv19_stage2_batchnorm16_fwd"
    output: "resnetv19_stage2_relu10_fwd"
    name: "resnetv19_stage2_relu10_fwd"
    op_type: "Relu"
  }
  node {
    input: "resnetv19_stage2_relu10_fwd"
    input: "resnetv19_stage2_conv17_weight"
    output: "resnetv19_stage2_conv17_fwd"
    name: "resnetv19_stage2_conv17_fwd"
    op_type: "Conv"
    attribute {
      name: "dilations"
      ints: 1
      ints: 1
      type: INTS
    }
    attribute {
      name: "group"
      i: 1
      type: INT
    }
    attribute {
      name: "kernel_shape"
      ints: 3
      ints: 3
      type: INTS
    }
    attribute {
      name: "pads"
      ints: 1
      ints: 1
      ints: 1
      ints: 1
      type: INTS
    }
    attribute {
      name: "strides"
      ints: 1
      ints: 1
      type: INTS
    }
  }
  node {
    input: "resnetv19_stage2_conv17_fwd"
    input: "resnetv19_stage2_batchnorm17_gamma"
    input: "resnetv19_stage2_batchnorm17_beta"
    input: "resnetv19_stage2_batchnorm17_running_mean"
    input: "resnetv19_stage2_batchnorm17_running_var"
    output: "resnetv19_stage2_batchnorm17_fwd"
    name: "resnetv19_stage2_batchnorm17_fwd"
    op_type: "BatchNormalization"
    attribute {
      name: "epsilon"
      f: 1e-05
      type: FLOAT
    }
    attribute {
      name: "momentum"
      f: 0.9
      type: FLOAT
    }
    attribute {
      name: "spatial"
      i: 1
      type: INT
    }
  }
  node {
    input: "resnetv19_stage2_batchnorm17_fwd"
    output: "resnetv19_stage2_relu11_fwd"
    name: "resnetv19_stage2_relu11_fwd"
    op_type: "Relu"
  }
  node {
    input: "resnetv19_stage2_relu11_fwd"
    input: "resnetv19_stage2_conv18_weight"
    input: "resnetv19_stage2_conv18_bias"
    output: "resnetv19_stage2_conv18_fwd"
    name: "resnetv19_stage2_conv18_fwd"
    op_type: "Conv"
    attribute {
      name: "dilations"
      ints: 1
      ints: 1
      type: INTS
    }
    attribute {
      name: "group"
      i: 1
      type: INT
    }
    attribute {
      name: "kernel_shape"
      ints: 1
      ints: 1
      type: INTS
    }
    attribute {
      name: "pads"
      ints: 0
      ints: 0
      ints: 0
      ints: 0
      type: INTS
    }
    attribute {
      name: "strides"
      ints: 1
      ints: 1
      type: INTS
    }
  }
  node {
    input: "resnetv19_stage2_conv18_fwd"
    input: "resnetv19_stage2_batchnorm18_gamma"
    input: "resnetv19_stage2_batchnorm18_beta"
    input: "resnetv19_stage2_batchnorm18_running_mean"
    input: "resnetv19_stage2_batchnorm18_running_var"
    output: "resnetv19_stage2_batchnorm18_fwd"
    name: "resnetv19_stage2_batchnorm18_fwd"
    op_type: "BatchNormalization"
    attribute {
      name: "epsilon"
      f: 1e-05
      type: FLOAT
    }
    attribute {
      name: "momentum"
      f: 0.9
      type: FLOAT
    }
    attribute {
      name: "spatial"
      i: 1
      type: INT
    }
  }
  node {
    input: "resnetv19_stage2_batchnorm18_fwd"
    input: "resnetv19_stage2_activation4"
    output: "resnetv19_stage2__plus5"
    name: "resnetv19_stage2__plus5"
    op_type: "Add"
  }
  node {
    input: "resnetv19_stage2__plus5"
    output: "resnetv19_stage2_activation5"
    name: "resnetv19_stage2_activation5"
    op_type: "Relu"
  }
  node {
    input: "resnetv19_stage2_activation5"
    input: "resnetv19_stage2_conv19_weight"
    input: "resnetv19_stage2_conv19_bias"
    output: "resnetv19_stage2_conv19_fwd"
    name: "resnetv19_stage2_conv19_fwd"
    op_type: "Conv"
    attribute {
      name: "dilations"
      ints: 1
      ints: 1
      type: INTS
    }
    attribute {
      name: "group"
      i: 1
      type: INT
    }
    attribute {
      name: "kernel_shape"
      ints: 1
      ints: 1
      type: INTS
    }
    attribute {
      name: "pads"
      ints: 0
      ints: 0
      ints: 0
      ints: 0
      type: INTS
    }
    attribute {
      name: "strides"
      ints: 1
      ints: 1
      type: INTS
    }
  }
  node {
    input: "resnetv19_stage2_conv19_fwd"
    input: "resnetv19_stage2_batchnorm19_gamma"
    input: "resnetv19_stage2_batchnorm19_beta"
    input: "resnetv19_stage2_batchnorm19_running_mean"
    input: "resnetv19_stage2_batchnorm19_running_var"
    output: "resnetv19_stage2_batchnorm19_fwd"
    name: "resnetv19_stage2_batchnorm19_fwd"
    op_type: "BatchNormalization"
    attribute {
      name: "epsilon"
      f: 1e-05
      type: FLOAT
    }
    attribute {
      name: "momentum"
      f: 0.9
      type: FLOAT
    }
    attribute {
      name: "spatial"
      i: 1
      type: INT
    }
  }
  node {
    input: "resnetv19_stage2_batchnorm19_fwd"
    output: "resnetv19_stage2_relu12_fwd"
    name: "resnetv19_stage2_relu12_fwd"
    op_type: "Relu"
  }
  node {
    input: "resnetv19_stage2_relu12_fwd"
    input: "resnetv19_stage2_conv20_weight"
    output: "resnetv19_stage2_conv20_fwd"
    name: "resnetv19_stage2_conv20_fwd"
    op_type: "Conv"
    attribute {
      name: "dilations"
      ints: 1
      ints: 1
      type: INTS
    }
    attribute {
      name: "group"
      i: 1
      type: INT
    }
    attribute {
      name: "kernel_shape"
      ints: 3
      ints: 3
      type: INTS
    }
    attribute {
      name: "pads"
      ints: 1
      ints: 1
      ints: 1
      ints: 1
      type: INTS
    }
    attribute {
      name: "strides"
      ints: 1
      ints: 1
      type: INTS
    }
  }
  node {
    input: "resnetv19_stage2_conv20_fwd"
    input: "resnetv19_stage2_batchnorm20_gamma"
    input: "resnetv19_stage2_batchnorm20_beta"
    input: "resnetv19_stage2_batchnorm20_running_mean"
    input: "resnetv19_stage2_batchnorm20_running_var"
    output: "resnetv19_stage2_batchnorm20_fwd"
    name: "resnetv19_stage2_batchnorm20_fwd"
    op_type: "BatchNormalization"
    attribute {
      name: "epsilon"
      f: 1e-05
      type: FLOAT
    }
    attribute {
      name: "momentum"
      f: 0.9
      type: FLOAT
    }
    attribute {
      name: "spatial"
      i: 1
      type: INT
    }
  }
  node {
    input: "resnetv19_stage2_batchnorm20_fwd"
    output: "resnetv19_stage2_relu13_fwd"
    name: "resnetv19_stage2_relu13_fwd"
    op_type: "Relu"
  }
  node {
    input: "resnetv19_stage2_relu13_fwd"
    input: "resnetv19_stage2_conv21_weight"
    input: "resnetv19_stage2_conv21_bias"
    output: "resnetv19_stage2_conv21_fwd"
    name: "resnetv19_stage2_conv21_fwd"
    op_type: "Conv"
    attribute {
      name: "dilations"
      ints: 1
      ints: 1
      type: INTS
    }
    attribute {
      name: "group"
      i: 1
      type: INT
    }
    attribute {
      name: "kernel_shape"
      ints: 1
      ints: 1
      type: INTS
    }
    attribute {
      name: "pads"
      ints: 0
      ints: 0
      ints: 0
      ints: 0
      type: INTS
    }
    attribute {
      name: "strides"
      ints: 1
      ints: 1
      type: INTS
    }
  }
  node {
    input: "resnetv19_stage2_conv21_fwd"
    input: "resnetv19_stage2_batchnorm21_gamma"
    input: "resnetv19_stage2_batchnorm21_beta"
    input: "resnetv19_stage2_batchnorm21_running_mean"
    input: "resnetv19_stage2_batchnorm21_running_var"
    output: "resnetv19_stage2_batchnorm21_fwd"
    name: "resnetv19_stage2_batchnorm21_fwd"
    op_type: "BatchNormalization"
    attribute {
      name: "epsilon"
      f: 1e-05
      type: FLOAT
    }
    attribute {
      name: "momentum"
      f: 0.9
      type: FLOAT
    }
    attribute {
      name: "spatial"
      i: 1
      type: INT
    }
  }
  node {
    input: "resnetv19_stage2_batchnorm21_fwd"
    input: "resnetv19_stage2_activation5"
    output: "resnetv19_stage2__plus6"
    name: "resnetv19_stage2__plus6"
    op_type: "Add"
  }
  node {
    input: "resnetv19_stage2__plus6"
    output: "resnetv19_stage2_activation6"
    name: "resnetv19_stage2_activation6"
    op_type: "Relu"
  }
  node {
    input: "resnetv19_stage2_activation6"
    input: "resnetv19_stage2_conv22_weight"
    input: "resnetv19_stage2_conv22_bias"
    output: "resnetv19_stage2_conv22_fwd"
    name: "resnetv19_stage2_conv22_fwd"
    op_type: "Conv"
    attribute {
      name: "dilations"
      ints: 1
      ints: 1
      type: INTS
    }
    attribute {
      name: "group"
      i: 1
      type: INT
    }
    attribute {
      name: "kernel_shape"
      ints: 1
      ints: 1
      type: INTS
    }
    attribute {
      name: "pads"
      ints: 0
      ints: 0
      ints: 0
      ints: 0
      type: INTS
    }
    attribute {
      name: "strides"
      ints: 1
      ints: 1
      type: INTS
    }
  }
  node {
    input: "resnetv19_stage2_conv22_fwd"
    input: "resnetv19_stage2_batchnorm22_gamma"
    input: "resnetv19_stage2_batchnorm22_beta"
    input: "resnetv19_stage2_batchnorm22_running_mean"
    input: "resnetv19_stage2_batchnorm22_running_var"
    output: "resnetv19_stage2_batchnorm22_fwd"
    name: "resnetv19_stage2_batchnorm22_fwd"
    op_type: "BatchNormalization"
    attribute {
      name: "epsilon"
      f: 1e-05
      type: FLOAT
    }
    attribute {
      name: "momentum"
      f: 0.9
      type: FLOAT
    }
    attribute {
      name: "spatial"
      i: 1
      type: INT
    }
  }
  node {
    input: "resnetv19_stage2_batchnorm22_fwd"
    output: "resnetv19_stage2_relu14_fwd"
    name: "resnetv19_stage2_relu14_fwd"
    op_type: "Relu"
  }
  node {
    input: "resnetv19_stage2_relu14_fwd"
    input: "resnetv19_stage2_conv23_weight"
    output: "resnetv19_stage2_conv23_fwd"
    name: "resnetv19_stage2_conv23_fwd"
    op_type: "Conv"
    attribute {
      name: "dilations"
      ints: 1
      ints: 1
      type: INTS
    }
    attribute {
      name: "group"
      i: 1
      type: INT
    }
    attribute {
      name: "kernel_shape"
      ints: 3
      ints: 3
      type: INTS
    }
    attribute {
      name: "pads"
      ints: 1
      ints: 1
      ints: 1
      ints: 1
      type: INTS
    }
    attribute {
      name: "strides"
      ints: 1
      ints: 1
      type: INTS
    }
  }
  node {
    input: "resnetv19_stage2_conv23_fwd"
    input: "resnetv19_stage2_batchnorm23_gamma"
    input: "resnetv19_stage2_batchnorm23_beta"
    input: "resnetv19_stage2_batchnorm23_running_mean"
    input: "resnetv19_stage2_batchnorm23_running_var"
    output: "resnetv19_stage2_batchnorm23_fwd"
    name: "resnetv19_stage2_batchnorm23_fwd"
    op_type: "BatchNormalization"
    attribute {
      name: "epsilon"
      f: 1e-05
      type: FLOAT
    }
    attribute {
      name: "momentum"
      f: 0.9
      type: FLOAT
    }
    attribute {
      name: "spatial"
      i: 1
      type: INT
    }
  }
  node {
    input: "resnetv19_stage2_batchnorm23_fwd"
    output: "resnetv19_stage2_relu15_fwd"
    name: "resnetv19_stage2_relu15_fwd"
    op_type: "Relu"
  }
  node {
    input: "resnetv19_stage2_relu15_fwd"
    input: "resnetv19_stage2_conv24_weight"
    input: "resnetv19_stage2_conv24_bias"
    output: "resnetv19_stage2_conv24_fwd"
    name: "resnetv19_stage2_conv24_fwd"
    op_type: "Conv"
    attribute {
      name: "dilations"
      ints: 1
      ints: 1
      type: INTS
    }
    attribute {
      name: "group"
      i: 1
      type: INT
    }
    attribute {
      name: "kernel_shape"
      ints: 1
      ints: 1
      type: INTS
    }
    attribute {
      name: "pads"
      ints: 0
      ints: 0
      ints: 0
      ints: 0
      type: INTS
    }
    attribute {
      name: "strides"
      ints: 1
      ints: 1
      type: INTS
    }
  }
  node {
    input: "resnetv19_stage2_conv24_fwd"
    input: "resnetv19_stage2_batchnorm24_gamma"
    input: "resnetv19_stage2_batchnorm24_beta"
    input: "resnetv19_stage2_batchnorm24_running_mean"
    input: "resnetv19_stage2_batchnorm24_running_var"
    output: "resnetv19_stage2_batchnorm24_fwd"
    name: "resnetv19_stage2_batchnorm24_fwd"
    op_type: "BatchNormalization"
    attribute {
      name: "epsilon"
      f: 1e-05
      type: FLOAT
    }
    attribute {
      name: "momentum"
      f: 0.9
      type: FLOAT
    }
    attribute {
      name: "spatial"
      i: 1
      type: INT
    }
  }
  node {
    input: "resnetv19_stage2_batchnorm24_fwd"
    input: "resnetv19_stage2_activation6"
    output: "resnetv19_stage2__plus7"
    name: "resnetv19_stage2__plus7"
    op_type: "Add"
  }
  node {
    input: "resnetv19_stage2__plus7"
    output: "resnetv19_stage2_activation7"
    name: "resnetv19_stage2_activation7"
    op_type: "Relu"
  }
  node {
    input: "resnetv19_stage2_activation7"
    input: "resnetv19_stage3_conv0_weight"
    input: "resnetv19_stage3_conv0_bias"
    output: "resnetv19_stage3_conv0_fwd"
    name: "resnetv19_stage3_conv0_fwd"
    op_type: "Conv"
    attribute {
      name: "dilations"
      ints: 1
      ints: 1
      type: INTS
    }
    attribute {
      name: "group"
      i: 1
      type: INT
    }
    attribute {
      name: "kernel_shape"
      ints: 1
      ints: 1
      type: INTS
    }
    attribute {
      name: "pads"
      ints: 0
      ints: 0
      ints: 0
      ints: 0
      type: INTS
    }
    attribute {
      name: "strides"
      ints: 2
      ints: 2
      type: INTS
    }
  }
  node {
    input: "resnetv19_stage3_conv0_fwd"
    input: "resnetv19_stage3_batchnorm0_gamma"
    input: "resnetv19_stage3_batchnorm0_beta"
    input: "resnetv19_stage3_batchnorm0_running_mean"
    input: "resnetv19_stage3_batchnorm0_running_var"
    output: "resnetv19_stage3_batchnorm0_fwd"
    name: "resnetv19_stage3_batchnorm0_fwd"
    op_type: "BatchNormalization"
    attribute {
      name: "epsilon"
      f: 1e-05
      type: FLOAT
    }
    attribute {
      name: "momentum"
      f: 0.9
      type: FLOAT
    }
    attribute {
      name: "spatial"
      i: 1
      type: INT
    }
  }
  node {
    input: "resnetv19_stage3_batchnorm0_fwd"
    output: "resnetv19_stage3_relu0_fwd"
    name: "resnetv19_stage3_relu0_fwd"
    op_type: "Relu"
  }
  node {
    input: "resnetv19_stage3_relu0_fwd"
    input: "resnetv19_stage3_conv1_weight"
    output: "resnetv19_stage3_conv1_fwd"
    name: "resnetv19_stage3_conv1_fwd"
    op_type: "Conv"
    attribute {
      name: "dilations"
      ints: 1
      ints: 1
      type: INTS
    }
    attribute {
      name: "group"
      i: 1
      type: INT
    }
    attribute {
      name: "kernel_shape"
      ints: 3
      ints: 3
      type: INTS
    }
    attribute {
      name: "pads"
      ints: 1
      ints: 1
      ints: 1
      ints: 1
      type: INTS
    }
    attribute {
      name: "strides"
      ints: 1
      ints: 1
      type: INTS
    }
  }
  node {
    input: "resnetv19_stage3_conv1_fwd"
    input: "resnetv19_stage3_batchnorm1_gamma"
    input: "resnetv19_stage3_batchnorm1_beta"
    input: "resnetv19_stage3_batchnorm1_running_mean"
    input: "resnetv19_stage3_batchnorm1_running_var"
    output: "resnetv19_stage3_batchnorm1_fwd"
    name: "resnetv19_stage3_batchnorm1_fwd"
    op_type: "BatchNormalization"
    attribute {
      name: "epsilon"
      f: 1e-05
      type: FLOAT
    }
    attribute {
      name: "momentum"
      f: 0.9
      type: FLOAT
    }
    attribute {
      name: "spatial"
      i: 1
      type: INT
    }
  }
  node {
    input: "resnetv19_stage3_batchnorm1_fwd"
    output: "resnetv19_stage3_relu1_fwd"
    name: "resnetv19_stage3_relu1_fwd"
    op_type: "Relu"
  }
  node {
    input: "resnetv19_stage3_relu1_fwd"
    input: "resnetv19_stage3_conv2_weight"
    input: "resnetv19_stage3_conv2_bias"
    output: "resnetv19_stage3_conv2_fwd"
    name: "resnetv19_stage3_conv2_fwd"
    op_type: "Conv"
    attribute {
      name: "dilations"
      ints: 1
      ints: 1
      type: INTS
    }
    attribute {
      name: "group"
      i: 1
      type: INT
    }
    attribute {
      name: "kernel_shape"
      ints: 1
      ints: 1
      type: INTS
    }
    attribute {
      name: "pads"
      ints: 0
      ints: 0
      ints: 0
      ints: 0
      type: INTS
    }
    attribute {
      name: "strides"
      ints: 1
      ints: 1
      type: INTS
    }
  }
  node {
    input: "resnetv19_stage3_conv2_fwd"
    input: "resnetv19_stage3_batchnorm2_gamma"
    input: "resnetv19_stage3_batchnorm2_beta"
    input: "resnetv19_stage3_batchnorm2_running_mean"
    input: "resnetv19_stage3_batchnorm2_running_var"
    output: "resnetv19_stage3_batchnorm2_fwd"
    name: "resnetv19_stage3_batchnorm2_fwd"
    op_type: "BatchNormalization"
    attribute {
      name: "epsilon"
      f: 1e-05
      type: FLOAT
    }
    attribute {
      name: "momentum"
      f: 0.9
      type: FLOAT
    }
    attribute {
      name: "spatial"
      i: 1
      type: INT
    }
  }
  node {
    input: "resnetv19_stage2_activation7"
    input: "resnetv19_stage3_conv3_weight"
    output: "resnetv19_stage3_conv3_fwd"
    name: "resnetv19_stage3_conv3_fwd"
    op_type: "Conv"
    attribute {
      name: "dilations"
      ints: 1
      ints: 1
      type: INTS
    }
    attribute {
      name: "group"
      i: 1
      type: INT
    }
    attribute {
      name: "kernel_shape"
      ints: 1
      ints: 1
      type: INTS
    }
    attribute {
      name: "pads"
      ints: 0
      ints: 0
      ints: 0
      ints: 0
      type: INTS
    }
    attribute {
      name: "strides"
      ints: 2
      ints: 2
      type: INTS
    }
  }
  node {
    input: "resnetv19_stage3_conv3_fwd"
    input: "resnetv19_stage3_batchnorm3_gamma"
    input: "resnetv19_stage3_batchnorm3_beta"
    input: "resnetv19_stage3_batchnorm3_running_mean"
    input: "resnetv19_stage3_batchnorm3_running_var"
    output: "resnetv19_stage3_batchnorm3_fwd"
    name: "resnetv19_stage3_batchnorm3_fwd"
    op_type: "BatchNormalization"
    attribute {
      name: "epsilon"
      f: 1e-05
      type: FLOAT
    }
    attribute {
      name: "momentum"
      f: 0.9
      type: FLOAT
    }
    attribute {
      name: "spatial"
      i: 1
      type: INT
    }
  }
  node {
    input: "resnetv19_stage3_batchnorm2_fwd"
    input: "resnetv19_stage3_batchnorm3_fwd"
    output: "resnetv19_stage3__plus0"
    name: "resnetv19_stage3__plus0"
    op_type: "Add"
  }
  node {
    input: "resnetv19_stage3__plus0"
    output: "resnetv19_stage3_activation0"
    name: "resnetv19_stage3_activation0"
    op_type: "Relu"
  }
  node {
    input: "resnetv19_stage3_activation0"
    input: "resnetv19_stage3_conv4_weight"
    input: "resnetv19_stage3_conv4_bias"
    output: "resnetv19_stage3_conv4_fwd"
    name: "resnetv19_stage3_conv4_fwd"
    op_type: "Conv"
    attribute {
      name: "dilations"
      ints: 1
      ints: 1
      type: INTS
    }
    attribute {
      name: "group"
      i: 1
      type: INT
    }
    attribute {
      name: "kernel_shape"
      ints: 1
      ints: 1
      type: INTS
    }
    attribute {
      name: "pads"
      ints: 0
      ints: 0
      ints: 0
      ints: 0
      type: INTS
    }
    attribute {
      name: "strides"
      ints: 1
      ints: 1
      type: INTS
    }
  }
  node {
    input: "resnetv19_stage3_conv4_fwd"
    input: "resnetv19_stage3_batchnorm4_gamma"
    input: "resnetv19_stage3_batchnorm4_beta"
    input: "resnetv19_stage3_batchnorm4_running_mean"
    input: "resnetv19_stage3_batchnorm4_running_var"
    output: "resnetv19_stage3_batchnorm4_fwd"
    name: "resnetv19_stage3_batchnorm4_fwd"
    op_type: "BatchNormalization"
    attribute {
      name: "epsilon"
      f: 1e-05
      type: FLOAT
    }
    attribute {
      name: "momentum"
      f: 0.9
      type: FLOAT
    }
    attribute {
      name: "spatial"
      i: 1
      type: INT
    }
  }
  node {
    input: "resnetv19_stage3_batchnorm4_fwd"
    output: "resnetv19_stage3_relu2_fwd"
    name: "resnetv19_stage3_relu2_fwd"
    op_type: "Relu"
  }
  node {
    input: "resnetv19_stage3_relu2_fwd"
    input: "resnetv19_stage3_conv5_weight"
    output: "resnetv19_stage3_conv5_fwd"
    name: "resnetv19_stage3_conv5_fwd"
    op_type: "Conv"
    attribute {
      name: "dilations"
      ints: 1
      ints: 1
      type: INTS
    }
    attribute {
      name: "group"
      i: 1
      type: INT
    }
    attribute {
      name: "kernel_shape"
      ints: 3
      ints: 3
      type: INTS
    }
    attribute {
      name: "pads"
      ints: 1
      ints: 1
      ints: 1
      ints: 1
      type: INTS
    }
    attribute {
      name: "strides"
      ints: 1
      ints: 1
      type: INTS
    }
  }
  node {
    input: "resnetv19_stage3_conv5_fwd"
    input: "resnetv19_stage3_batchnorm5_gamma"
    input: "resnetv19_stage3_batchnorm5_beta"
    input: "resnetv19_stage3_batchnorm5_running_mean"
    input: "resnetv19_stage3_batchnorm5_running_var"
    output: "resnetv19_stage3_batchnorm5_fwd"
    name: "resnetv19_stage3_batchnorm5_fwd"
    op_type: "BatchNormalization"
    attribute {
      name: "epsilon"
      f: 1e-05
      type: FLOAT
    }
    attribute {
      name: "momentum"
      f: 0.9
      type: FLOAT
    }
    attribute {
      name: "spatial"
      i: 1
      type: INT
    }
  }
  node {
    input: "resnetv19_stage3_batchnorm5_fwd"
    output: "resnetv19_stage3_relu3_fwd"
    name: "resnetv19_stage3_relu3_fwd"
    op_type: "Relu"
  }
  node {
    input: "resnetv19_stage3_relu3_fwd"
    input: "resnetv19_stage3_conv6_weight"
    input: "resnetv19_stage3_conv6_bias"
    output: "resnetv19_stage3_conv6_fwd"
    name: "resnetv19_stage3_conv6_fwd"
    op_type: "Conv"
    attribute {
      name: "dilations"
      ints: 1
      ints: 1
      type: INTS
    }
    attribute {
      name: "group"
      i: 1
      type: INT
    }
    attribute {
      name: "kernel_shape"
      ints: 1
      ints: 1
      type: INTS
    }
    attribute {
      name: "pads"
      ints: 0
      ints: 0
      ints: 0
      ints: 0
      type: INTS
    }
    attribute {
      name: "strides"
      ints: 1
      ints: 1
      type: INTS
    }
  }
  node {
    input: "resnetv19_stage3_conv6_fwd"
    input: "resnetv19_stage3_batchnorm6_gamma"
    input: "resnetv19_stage3_batchnorm6_beta"
    input: "resnetv19_stage3_batchnorm6_running_mean"
    input: "resnetv19_stage3_batchnorm6_running_var"
    output: "resnetv19_stage3_batchnorm6_fwd"
    name: "resnetv19_stage3_batchnorm6_fwd"
    op_type: "BatchNormalization"
    attribute {
      name: "epsilon"
      f: 1e-05
      type: FLOAT
    }
    attribute {
      name: "momentum"
      f: 0.9
      type: FLOAT
    }
    attribute {
      name: "spatial"
      i: 1
      type: INT
    }
  }
  node {
    input: "resnetv19_stage3_batchnorm6_fwd"
    input: "resnetv19_stage3_activation0"
    output: "resnetv19_stage3__plus1"
    name: "resnetv19_stage3__plus1"
    op_type: "Add"
  }
  node {
    input: "resnetv19_stage3__plus1"
    output: "resnetv19_stage3_activation1"
    name: "resnetv19_stage3_activation1"
    op_type: "Relu"
  }
  node {
    input: "resnetv19_stage3_activation1"
    input: "resnetv19_stage3_conv7_weight"
    input: "resnetv19_stage3_conv7_bias"
    output: "resnetv19_stage3_conv7_fwd"
    name: "resnetv19_stage3_conv7_fwd"
    op_type: "Conv"
    attribute {
      name: "dilations"
      ints: 1
      ints: 1
      type: INTS
    }
    attribute {
      name: "group"
      i: 1
      type: INT
    }
    attribute {
      name: "kernel_shape"
      ints: 1
      ints: 1
      type: INTS
    }
    attribute {
      name: "pads"
      ints: 0
      ints: 0
      ints: 0
      ints: 0
      type: INTS
    }
    attribute {
      name: "strides"
      ints: 1
      ints: 1
      type: INTS
    }
  }
  node {
    input: "resnetv19_stage3_conv7_fwd"
    input: "resnetv19_stage3_batchnorm7_gamma"
    input: "resnetv19_stage3_batchnorm7_beta"
    input: "resnetv19_stage3_batchnorm7_running_mean"
    input: "resnetv19_stage3_batchnorm7_running_var"
    output: "resnetv19_stage3_batchnorm7_fwd"
    name: "resnetv19_stage3_batchnorm7_fwd"
    op_type: "BatchNormalization"
    attribute {
      name: "epsilon"
      f: 1e-05
      type: FLOAT
    }
    attribute {
      name: "momentum"
      f: 0.9
      type: FLOAT
    }
    attribute {
      name: "spatial"
      i: 1
      type: INT
    }
  }
  node {
    input: "resnetv19_stage3_batchnorm7_fwd"
    output: "resnetv19_stage3_relu4_fwd"
    name: "resnetv19_stage3_relu4_fwd"
    op_type: "Relu"
  }
  node {
    input: "resnetv19_stage3_relu4_fwd"
    input: "resnetv19_stage3_conv8_weight"
    output: "resnetv19_stage3_conv8_fwd"
    name: "resnetv19_stage3_conv8_fwd"
    op_type: "Conv"
    attribute {
      name: "dilations"
      ints: 1
      ints: 1
      type: INTS
    }
    attribute {
      name: "group"
      i: 1
      type: INT
    }
    attribute {
      name: "kernel_shape"
      ints: 3
      ints: 3
      type: INTS
    }
    attribute {
      name: "pads"
      ints: 1
      ints: 1
      ints: 1
      ints: 1
      type: INTS
    }
    attribute {
      name: "strides"
      ints: 1
      ints: 1
      type: INTS
    }
  }
  node {
    input: "resnetv19_stage3_conv8_fwd"
    input: "resnetv19_stage3_batchnorm8_gamma"
    input: "resnetv19_stage3_batchnorm8_beta"
    input: "resnetv19_stage3_batchnorm8_running_mean"
    input: "resnetv19_stage3_batchnorm8_running_var"
    output: "resnetv19_stage3_batchnorm8_fwd"
    name: "resnetv19_stage3_batchnorm8_fwd"
    op_type: "BatchNormalization"
    attribute {
      name: "epsilon"
      f: 1e-05
      type: FLOAT
    }
    attribute {
      name: "momentum"
      f: 0.9
      type: FLOAT
    }
    attribute {
      name: "spatial"
      i: 1
      type: INT
    }
  }
  node {
    input: "resnetv19_stage3_batchnorm8_fwd"
    output: "resnetv19_stage3_relu5_fwd"
    name: "resnetv19_stage3_relu5_fwd"
    op_type: "Relu"
  }
  node {
    input: "resnetv19_stage3_relu5_fwd"
    input: "resnetv19_stage3_conv9_weight"
    input: "resnetv19_stage3_conv9_bias"
    output: "resnetv19_stage3_conv9_fwd"
    name: "resnetv19_stage3_conv9_fwd"
    op_type: "Conv"
    attribute {
      name: "dilations"
      ints: 1
      ints: 1
      type: INTS
    }
    attribute {
      name: "group"
      i: 1
      type: INT
    }
    attribute {
      name: "kernel_shape"
      ints: 1
      ints: 1
      type: INTS
    }
    attribute {
      name: "pads"
      ints: 0
      ints: 0
      ints: 0
      ints: 0
      type: INTS
    }
    attribute {
      name: "strides"
      ints: 1
      ints: 1
      type: INTS
    }
  }
  node {
    input: "resnetv19_stage3_conv9_fwd"
    input: "resnetv19_stage3_batchnorm9_gamma"
    input: "resnetv19_stage3_batchnorm9_beta"
    input: "resnetv19_stage3_batchnorm9_running_mean"
    input: "resnetv19_stage3_batchnorm9_running_var"
    output: "resnetv19_stage3_batchnorm9_fwd"
    name: "resnetv19_stage3_batchnorm9_fwd"
    op_type: "BatchNormalization"
    attribute {
      name: "epsilon"
      f: 1e-05
      type: FLOAT
    }
    attribute {
      name: "momentum"
      f: 0.9
      type: FLOAT
    }
    attribute {
      name: "spatial"
      i: 1
      type: INT
    }
  }
  node {
    input: "resnetv19_stage3_batchnorm9_fwd"
    input: "resnetv19_stage3_activation1"
    output: "resnetv19_stage3__plus2"
    name: "resnetv19_stage3__plus2"
    op_type: "Add"
  }
  node {
    input: "resnetv19_stage3__plus2"
    output: "resnetv19_stage3_activation2"
    name: "resnetv19_stage3_activation2"
    op_type: "Relu"
  }
  node {
    input: "resnetv19_stage3_activation2"
    input: "resnetv19_stage3_conv10_weight"
    input: "resnetv19_stage3_conv10_bias"
    output: "resnetv19_stage3_conv10_fwd"
    name: "resnetv19_stage3_conv10_fwd"
    op_type: "Conv"
    attribute {
      name: "dilations"
      ints: 1
      ints: 1
      type: INTS
    }
    attribute {
      name: "group"
      i: 1
      type: INT
    }
    attribute {
      name: "kernel_shape"
      ints: 1
      ints: 1
      type: INTS
    }
    attribute {
      name: "pads"
      ints: 0
      ints: 0
      ints: 0
      ints: 0
      type: INTS
    }
    attribute {
      name: "strides"
      ints: 1
      ints: 1
      type: INTS
    }
  }
  node {
    input: "resnetv19_stage3_conv10_fwd"
    input: "resnetv19_stage3_batchnorm10_gamma"
    input: "resnetv19_stage3_batchnorm10_beta"
    input: "resnetv19_stage3_batchnorm10_running_mean"
    input: "resnetv19_stage3_batchnorm10_running_var"
    output: "resnetv19_stage3_batchnorm10_fwd"
    name: "resnetv19_stage3_batchnorm10_fwd"
    op_type: "BatchNormalization"
    attribute {
      name: "epsilon"
      f: 1e-05
      type: FLOAT
    }
    attribute {
      name: "momentum"
      f: 0.9
      type: FLOAT
    }
    attribute {
      name: "spatial"
      i: 1
      type: INT
    }
  }
  node {
    input: "resnetv19_stage3_batchnorm10_fwd"
    output: "resnetv19_stage3_relu6_fwd"
    name: "resnetv19_stage3_relu6_fwd"
    op_type: "Relu"
  }
  node {
    input: "resnetv19_stage3_relu6_fwd"
    input: "resnetv19_stage3_conv11_weight"
    output: "resnetv19_stage3_conv11_fwd"
    name: "resnetv19_stage3_conv11_fwd"
    op_type: "Conv"
    attribute {
      name: "dilations"
      ints: 1
      ints: 1
      type: INTS
    }
    attribute {
      name: "group"
      i: 1
      type: INT
    }
    attribute {
      name: "kernel_shape"
      ints: 3
      ints: 3
      type: INTS
    }
    attribute {
      name: "pads"
      ints: 1
      ints: 1
      ints: 1
      ints: 1
      type: INTS
    }
    attribute {
      name: "strides"
      ints: 1
      ints: 1
      type: INTS
    }
  }
  node {
    input: "resnetv19_stage3_conv11_fwd"
    input: "resnetv19_stage3_batchnorm11_gamma"
    input: "resnetv19_stage3_batchnorm11_beta"
    input: "resnetv19_stage3_batchnorm11_running_mean"
    input: "resnetv19_stage3_batchnorm11_running_var"
    output: "resnetv19_stage3_batchnorm11_fwd"
    name: "resnetv19_stage3_batchnorm11_fwd"
    op_type: "BatchNormalization"
    attribute {
      name: "epsilon"
      f: 1e-05
      type: FLOAT
    }
    attribute {
      name: "momentum"
      f: 0.9
      type: FLOAT
    }
    attribute {
      name: "spatial"
      i: 1
      type: INT
    }
  }
  node {
    input: "resnetv19_stage3_batchnorm11_fwd"
    output: "resnetv19_stage3_relu7_fwd"
    name: "resnetv19_stage3_relu7_fwd"
    op_type: "Relu"
  }
  node {
    input: "resnetv19_stage3_relu7_fwd"
    input: "resnetv19_stage3_conv12_weight"
    input: "resnetv19_stage3_conv12_bias"
    output: "resnetv19_stage3_conv12_fwd"
    name: "resnetv19_stage3_conv12_fwd"
    op_type: "Conv"
    attribute {
      name: "dilations"
      ints: 1
      ints: 1
      type: INTS
    }
    attribute {
      name: "group"
      i: 1
      type: INT
    }
    attribute {
      name: "kernel_shape"
      ints: 1
      ints: 1
      type: INTS
    }
    attribute {
      name: "pads"
      ints: 0
      ints: 0
      ints: 0
      ints: 0
      type: INTS
    }
    attribute {
      name: "strides"
      ints: 1
      ints: 1
      type: INTS
    }
  }
  node {
    input: "resnetv19_stage3_conv12_fwd"
    input: "resnetv19_stage3_batchnorm12_gamma"
    input: "resnetv19_stage3_batchnorm12_beta"
    input: "resnetv19_stage3_batchnorm12_running_mean"
    input: "resnetv19_stage3_batchnorm12_running_var"
    output: "resnetv19_stage3_batchnorm12_fwd"
    name: "resnetv19_stage3_batchnorm12_fwd"
    op_type: "BatchNormalization"
    attribute {
      name: "epsilon"
      f: 1e-05
      type: FLOAT
    }
    attribute {
      name: "momentum"
      f: 0.9
      type: FLOAT
    }
    attribute {
      name: "spatial"
      i: 1
      type: INT
    }
  }
  node {
    input: "resnetv19_stage3_batchnorm12_fwd"
    input: "resnetv19_stage3_activation2"
    output: "resnetv19_stage3__plus3"
    name: "resnetv19_stage3__plus3"
    op_type: "Add"
  }
  node {
    input: "resnetv19_stage3__plus3"
    output: "resnetv19_stage3_activation3"
    name: "resnetv19_stage3_activation3"
    op_type: "Relu"
  }
  node {
    input: "resnetv19_stage3_activation3"
    input: "resnetv19_stage3_conv13_weight"
    input: "resnetv19_stage3_conv13_bias"
    output: "resnetv19_stage3_conv13_fwd"
    name: "resnetv19_stage3_conv13_fwd"
    op_type: "Conv"
    attribute {
      name: "dilations"
      ints: 1
      ints: 1
      type: INTS
    }
    attribute {
      name: "group"
      i: 1
      type: INT
    }
    attribute {
      name: "kernel_shape"
      ints: 1
      ints: 1
      type: INTS
    }
    attribute {
      name: "pads"
      ints: 0
      ints: 0
      ints: 0
      ints: 0
      type: INTS
    }
    attribute {
      name: "strides"
      ints: 1
      ints: 1
      type: INTS
    }
  }
  node {
    input: "resnetv19_stage3_conv13_fwd"
    input: "resnetv19_stage3_batchnorm13_gamma"
    input: "resnetv19_stage3_batchnorm13_beta"
    input: "resnetv19_stage3_batchnorm13_running_mean"
    input: "resnetv19_stage3_batchnorm13_running_var"
    output: "resnetv19_stage3_batchnorm13_fwd"
    name: "resnetv19_stage3_batchnorm13_fwd"
    op_type: "BatchNormalization"
    attribute {
      name: "epsilon"
      f: 1e-05
      type: FLOAT
    }
    attribute {
      name: "momentum"
      f: 0.9
      type: FLOAT
    }
    attribute {
      name: "spatial"
      i: 1
      type: INT
    }
  }
  node {
    input: "resnetv19_stage3_batchnorm13_fwd"
    output: "resnetv19_stage3_relu8_fwd"
    name: "resnetv19_stage3_relu8_fwd"
    op_type: "Relu"
  }
  node {
    input: "resnetv19_stage3_relu8_fwd"
    input: "resnetv19_stage3_conv14_weight"
    output: "resnetv19_stage3_conv14_fwd"
    name: "resnetv19_stage3_conv14_fwd"
    op_type: "Conv"
    attribute {
      name: "dilations"
      ints: 1
      ints: 1
      type: INTS
    }
    attribute {
      name: "group"
      i: 1
      type: INT
    }
    attribute {
      name: "kernel_shape"
      ints: 3
      ints: 3
      type: INTS
    }
    attribute {
      name: "pads"
      ints: 1
      ints: 1
      ints: 1
      ints: 1
      type: INTS
    }
    attribute {
      name: "strides"
      ints: 1
      ints: 1
      type: INTS
    }
  }
  node {
    input: "resnetv19_stage3_conv14_fwd"
    input: "resnetv19_stage3_batchnorm14_gamma"
    input: "resnetv19_stage3_batchnorm14_beta"
    input: "resnetv19_stage3_batchnorm14_running_mean"
    input: "resnetv19_stage3_batchnorm14_running_var"
    output: "resnetv19_stage3_batchnorm14_fwd"
    name: "resnetv19_stage3_batchnorm14_fwd"
    op_type: "BatchNormalization"
    attribute {
      name: "epsilon"
      f: 1e-05
      type: FLOAT
    }
    attribute {
      name: "momentum"
      f: 0.9
      type: FLOAT
    }
    attribute {
      name: "spatial"
      i: 1
      type: INT
    }
  }
  node {
    input: "resnetv19_stage3_batchnorm14_fwd"
    output: "resnetv19_stage3_relu9_fwd"
    name: "resnetv19_stage3_relu9_fwd"
    op_type: "Relu"
  }
  node {
    input: "resnetv19_stage3_relu9_fwd"
    input: "resnetv19_stage3_conv15_weight"
    input: "resnetv19_stage3_conv15_bias"
    output: "resnetv19_stage3_conv15_fwd"
    name: "resnetv19_stage3_conv15_fwd"
    op_type: "Conv"
    attribute {
      name: "dilations"
      ints: 1
      ints: 1
      type: INTS
    }
    attribute {
      name: "group"
      i: 1
      type: INT
    }
    attribute {
      name: "kernel_shape"
      ints: 1
      ints: 1
      type: INTS
    }
    attribute {
      name: "pads"
      ints: 0
      ints: 0
      ints: 0
      ints: 0
      type: INTS
    }
    attribute {
      name: "strides"
      ints: 1
      ints: 1
      type: INTS
    }
  }
  node {
    input: "resnetv19_stage3_conv15_fwd"
    input: "resnetv19_stage3_batchnorm15_gamma"
    input: "resnetv19_stage3_batchnorm15_beta"
    input: "resnetv19_stage3_batchnorm15_running_mean"
    input: "resnetv19_stage3_batchnorm15_running_var"
    output: "resnetv19_stage3_batchnorm15_fwd"
    name: "resnetv19_stage3_batchnorm15_fwd"
    op_type: "BatchNormalization"
    attribute {
      name: "epsilon"
      f: 1e-05
      type: FLOAT
    }
    attribute {
      name: "momentum"
      f: 0.9
      type: FLOAT
    }
    attribute {
      name: "spatial"
      i: 1
      type: INT
    }
  }
  node {
    input: "resnetv19_stage3_batchnorm15_fwd"
    input: "resnetv19_stage3_activation3"
    output: "resnetv19_stage3__plus4"
    name: "resnetv19_stage3__plus4"
    op_type: "Add"
  }
  node {
    input: "resnetv19_stage3__plus4"
    output: "resnetv19_stage3_activation4"
    name: "resnetv19_stage3_activation4"
    op_type: "Relu"
  }
  node {
    input: "resnetv19_stage3_activation4"
    input: "resnetv19_stage3_conv16_weight"
    input: "resnetv19_stage3_conv16_bias"
    output: "resnetv19_stage3_conv16_fwd"
    name: "resnetv19_stage3_conv16_fwd"
    op_type: "Conv"
    attribute {
      name: "dilations"
      ints: 1
      ints: 1
      type: INTS
    }
    attribute {
      name: "group"
      i: 1
      type: INT
    }
    attribute {
      name: "kernel_shape"
      ints: 1
      ints: 1
      type: INTS
    }
    attribute {
      name: "pads"
      ints: 0
      ints: 0
      ints: 0
      ints: 0
      type: INTS
    }
    attribute {
      name: "strides"
      ints: 1
      ints: 1
      type: INTS
    }
  }
  node {
    input: "resnetv19_stage3_conv16_fwd"
    input: "resnetv19_stage3_batchnorm16_gamma"
    input: "resnetv19_stage3_batchnorm16_beta"
    input: "resnetv19_stage3_batchnorm16_running_mean"
    input: "resnetv19_stage3_batchnorm16_running_var"
    output: "resnetv19_stage3_batchnorm16_fwd"
    name: "resnetv19_stage3_batchnorm16_fwd"
    op_type: "BatchNormalization"
    attribute {
      name: "epsilon"
      f: 1e-05
      type: FLOAT
    }
    attribute {
      name: "momentum"
      f: 0.9
      type: FLOAT
    }
    attribute {
      name: "spatial"
      i: 1
      type: INT
    }
  }
  node {
    input: "resnetv19_stage3_batchnorm16_fwd"
    output: "resnetv19_stage3_relu10_fwd"
    name: "resnetv19_stage3_relu10_fwd"
    op_type: "Relu"
  }
  node {
    input: "resnetv19_stage3_relu10_fwd"
    input: "resnetv19_stage3_conv17_weight"
    output: "resnetv19_stage3_conv17_fwd"
    name: "resnetv19_stage3_conv17_fwd"
    op_type: "Conv"
    attribute {
      name: "dilations"
      ints: 1
      ints: 1
      type: INTS
    }
    attribute {
      name: "group"
      i: 1
      type: INT
    }
    attribute {
      name: "kernel_shape"
      ints: 3
      ints: 3
      type: INTS
    }
    attribute {
      name: "pads"
      ints: 1
      ints: 1
      ints: 1
      ints: 1
      type: INTS
    }
    attribute {
      name: "strides"
      ints: 1
      ints: 1
      type: INTS
    }
  }
  node {
    input: "resnetv19_stage3_conv17_fwd"
    input: "resnetv19_stage3_batchnorm17_gamma"
    input: "resnetv19_stage3_batchnorm17_beta"
    input: "resnetv19_stage3_batchnorm17_running_mean"
    input: "resnetv19_stage3_batchnorm17_running_var"
    output: "resnetv19_stage3_batchnorm17_fwd"
    name: "resnetv19_stage3_batchnorm17_fwd"
    op_type: "BatchNormalization"
    attribute {
      name: "epsilon"
      f: 1e-05
      type: FLOAT
    }
    attribute {
      name: "momentum"
      f: 0.9
      type: FLOAT
    }
    attribute {
      name: "spatial"
      i: 1
      type: INT
    }
  }
  node {
    input: "resnetv19_stage3_batchnorm17_fwd"
    output: "resnetv19_stage3_relu11_fwd"
    name: "resnetv19_stage3_relu11_fwd"
    op_type: "Relu"
  }
  node {
    input: "resnetv19_stage3_relu11_fwd"
    input: "resnetv19_stage3_conv18_weight"
    input: "resnetv19_stage3_conv18_bias"
    output: "resnetv19_stage3_conv18_fwd"
    name: "resnetv19_stage3_conv18_fwd"
    op_type: "Conv"
    attribute {
      name: "dilations"
      ints: 1
      ints: 1
      type: INTS
    }
    attribute {
      name: "group"
      i: 1
      type: INT
    }
    attribute {
      name: "kernel_shape"
      ints: 1
      ints: 1
      type: INTS
    }
    attribute {
      name: "pads"
      ints: 0
      ints: 0
      ints: 0
      ints: 0
      type: INTS
    }
    attribute {
      name: "strides"
      ints: 1
      ints: 1
      type: INTS
    }
  }
  node {
    input: "resnetv19_stage3_conv18_fwd"
    input: "resnetv19_stage3_batchnorm18_gamma"
    input: "resnetv19_stage3_batchnorm18_beta"
    input: "resnetv19_stage3_batchnorm18_running_mean"
    input: "resnetv19_stage3_batchnorm18_running_var"
    output: "resnetv19_stage3_batchnorm18_fwd"
    name: "resnetv19_stage3_batchnorm18_fwd"
    op_type: "BatchNormalization"
    attribute {
      name: "epsilon"
      f: 1e-05
      type: FLOAT
    }
    attribute {
      name: "momentum"
      f: 0.9
      type: FLOAT
    }
    attribute {
      name: "spatial"
      i: 1
      type: INT
    }
  }
  node {
    input: "resnetv19_stage3_batchnorm18_fwd"
    input: "resnetv19_stage3_activation4"
    output: "resnetv19_stage3__plus5"
    name: "resnetv19_stage3__plus5"
    op_type: "Add"
  }
  node {
    input: "resnetv19_stage3__plus5"
    output: "resnetv19_stage3_activation5"
    name: "resnetv19_stage3_activation5"
    op_type: "Relu"
  }
  node {
    input: "resnetv19_stage3_activation5"
    input: "resnetv19_stage3_conv19_weight"
    input: "resnetv19_stage3_conv19_bias"
    output: "resnetv19_stage3_conv19_fwd"
    name: "resnetv19_stage3_conv19_fwd"
    op_type: "Conv"
    attribute {
      name: "dilations"
      ints: 1
      ints: 1
      type: INTS
    }
    attribute {
      name: "group"
      i: 1
      type: INT
    }
    attribute {
      name: "kernel_shape"
      ints: 1
      ints: 1
      type: INTS
    }
    attribute {
      name: "pads"
      ints: 0
      ints: 0
      ints: 0
      ints: 0
      type: INTS
    }
    attribute {
      name: "strides"
      ints: 1
      ints: 1
      type: INTS
    }
  }
  node {
    input: "resnetv19_stage3_conv19_fwd"
    input: "resnetv19_stage3_batchnorm19_gamma"
    input: "resnetv19_stage3_batchnorm19_beta"
    input: "resnetv19_stage3_batchnorm19_running_mean"
    input: "resnetv19_stage3_batchnorm19_running_var"
    output: "resnetv19_stage3_batchnorm19_fwd"
    name: "resnetv19_stage3_batchnorm19_fwd"
    op_type: "BatchNormalization"
    attribute {
      name: "epsilon"
      f: 1e-05
      type: FLOAT
    }
    attribute {
      name: "momentum"
      f: 0.9
      type: FLOAT
    }
    attribute {
      name: "spatial"
      i: 1
      type: INT
    }
  }
  node {
    input: "resnetv19_stage3_batchnorm19_fwd"
    output: "resnetv19_stage3_relu12_fwd"
    name: "resnetv19_stage3_relu12_fwd"
    op_type: "Relu"
  }
  node {
    input: "resnetv19_stage3_relu12_fwd"
    input: "resnetv19_stage3_conv20_weight"
    output: "resnetv19_stage3_conv20_fwd"
    name: "resnetv19_stage3_conv20_fwd"
    op_type: "Conv"
    attribute {
      name: "dilations"
      ints: 1
      ints: 1
      type: INTS
    }
    attribute {
      name: "group"
      i: 1
      type: INT
    }
    attribute {
      name: "kernel_shape"
      ints: 3
      ints: 3
      type: INTS
    }
    attribute {
      name: "pads"
      ints: 1
      ints: 1
      ints: 1
      ints: 1
      type: INTS
    }
    attribute {
      name: "strides"
      ints: 1
      ints: 1
      type: INTS
    }
  }
  node {
    input: "resnetv19_stage3_conv20_fwd"
    input: "resnetv19_stage3_batchnorm20_gamma"
    input: "resnetv19_stage3_batchnorm20_beta"
    input: "resnetv19_stage3_batchnorm20_running_mean"
    input: "resnetv19_stage3_batchnorm20_running_var"
    output: "resnetv19_stage3_batchnorm20_fwd"
    name: "resnetv19_stage3_batchnorm20_fwd"
    op_type: "BatchNormalization"
    attribute {
      name: "epsilon"
      f: 1e-05
      type: FLOAT
    }
    attribute {
      name: "momentum"
      f: 0.9
      type: FLOAT
    }
    attribute {
      name: "spatial"
      i: 1
      type: INT
    }
  }
  node {
    input: "resnetv19_stage3_batchnorm20_fwd"
    output: "resnetv19_stage3_relu13_fwd"
    name: "resnetv19_stage3_relu13_fwd"
    op_type: "Relu"
  }
  node {
    input: "resnetv19_stage3_relu13_fwd"
    input: "resnetv19_stage3_conv21_weight"
    input: "resnetv19_stage3_conv21_bias"
    output: "resnetv19_stage3_conv21_fwd"
    name: "resnetv19_stage3_conv21_fwd"
    op_type: "Conv"
    attribute {
      name: "dilations"
      ints: 1
      ints: 1
      type: INTS
    }
    attribute {
      name: "group"
      i: 1
      type: INT
    }
    attribute {
      name: "kernel_shape"
      ints: 1
      ints: 1
      type: INTS
    }
    attribute {
      name: "pads"
      ints: 0
      ints: 0
      ints: 0
      ints: 0
      type: INTS
    }
    attribute {
      name: "strides"
      ints: 1
      ints: 1
      type: INTS
    }
  }
  node {
    input: "resnetv19_stage3_conv21_fwd"
    input: "resnetv19_stage3_batchnorm21_gamma"
    input: "resnetv19_stage3_batchnorm21_beta"
    input: "resnetv19_stage3_batchnorm21_running_mean"
    input: "resnetv19_stage3_batchnorm21_running_var"
    output: "resnetv19_stage3_batchnorm21_fwd"
    name: "resnetv19_stage3_batchnorm21_fwd"
    op_type: "BatchNormalization"
    attribute {
      name: "epsilon"
      f: 1e-05
      type: FLOAT
    }
    attribute {
      name: "momentum"
      f: 0.9
      type: FLOAT
    }
    attribute {
      name: "spatial"
      i: 1
      type: INT
    }
  }
  node {
    input: "resnetv19_stage3_batchnorm21_fwd"
    input: "resnetv19_stage3_activation5"
    output: "resnetv19_stage3__plus6"
    name: "resnetv19_stage3__plus6"
    op_type: "Add"
  }
  node {
    input: "resnetv19_stage3__plus6"
    output: "resnetv19_stage3_activation6"
    name: "resnetv19_stage3_activation6"
    op_type: "Relu"
  }
  node {
    input: "resnetv19_stage3_activation6"
    input: "resnetv19_stage3_conv22_weight"
    input: "resnetv19_stage3_conv22_bias"
    output: "resnetv19_stage3_conv22_fwd"
    name: "resnetv19_stage3_conv22_fwd"
    op_type: "Conv"
    attribute {
      name: "dilations"
      ints: 1
      ints: 1
      type: INTS
    }
    attribute {
      name: "group"
      i: 1
      type: INT
    }
    attribute {
      name: "kernel_shape"
      ints: 1
      ints: 1
      type: INTS
    }
    attribute {
      name: "pads"
      ints: 0
      ints: 0
      ints: 0
      ints: 0
      type: INTS
    }
    attribute {
      name: "strides"
      ints: 1
      ints: 1
      type: INTS
    }
  }
  node {
    input: "resnetv19_stage3_conv22_fwd"
    input: "resnetv19_stage3_batchnorm22_gamma"
    input: "resnetv19_stage3_batchnorm22_beta"
    input: "resnetv19_stage3_batchnorm22_running_mean"
    input: "resnetv19_stage3_batchnorm22_running_var"
    output: "resnetv19_stage3_batchnorm22_fwd"
    name: "resnetv19_stage3_batchnorm22_fwd"
    op_type: "BatchNormalization"
    attribute {
      name: "epsilon"
      f: 1e-05
      type: FLOAT
    }
    attribute {
      name: "momentum"
      f: 0.9
      type: FLOAT
    }
    attribute {
      name: "spatial"
      i: 1
      type: INT
    }
  }
  node {
    input: "resnetv19_stage3_batchnorm22_fwd"
    output: "resnetv19_stage3_relu14_fwd"
    name: "resnetv19_stage3_relu14_fwd"
    op_type: "Relu"
  }
  node {
    input: "resnetv19_stage3_relu14_fwd"
    input: "resnetv19_stage3_conv23_weight"
    output: "resnetv19_stage3_conv23_fwd"
    name: "resnetv19_stage3_conv23_fwd"
    op_type: "Conv"
    attribute {
      name: "dilations"
      ints: 1
      ints: 1
      type: INTS
    }
    attribute {
      name: "group"
      i: 1
      type: INT
    }
    attribute {
      name: "kernel_shape"
      ints: 3
      ints: 3
      type: INTS
    }
    attribute {
      name: "pads"
      ints: 1
      ints: 1
      ints: 1
      ints: 1
      type: INTS
    }
    attribute {
      name: "strides"
      ints: 1
      ints: 1
      type: INTS
    }
  }
  node {
    input: "resnetv19_stage3_conv23_fwd"
    input: "resnetv19_stage3_batchnorm23_gamma"
    input: "resnetv19_stage3_batchnorm23_beta"
    input: "resnetv19_stage3_batchnorm23_running_mean"
    input: "resnetv19_stage3_batchnorm23_running_var"
    output: "resnetv19_stage3_batchnorm23_fwd"
    name: "resnetv19_stage3_batchnorm23_fwd"
    op_type: "BatchNormalization"
    attribute {
      name: "epsilon"
      f: 1e-05
      type: FLOAT
    }
    attribute {
      name: "momentum"
      f: 0.9
      type: FLOAT
    }
    attribute {
      name: "spatial"
      i: 1
      type: INT
    }
  }
  node {
    input: "resnetv19_stage3_batchnorm23_fwd"
    output: "resnetv19_stage3_relu15_fwd"
    name: "resnetv19_stage3_relu15_fwd"
    op_type: "Relu"
  }
  node {
    input: "resnetv19_stage3_relu15_fwd"
    input: "resnetv19_stage3_conv24_weight"
    input: "resnetv19_stage3_conv24_bias"
    output: "resnetv19_stage3_conv24_fwd"
    name: "resnetv19_stage3_conv24_fwd"
    op_type: "Conv"
    attribute {
      name: "dilations"
      ints: 1
      ints: 1
      type: INTS
    }
    attribute {
      name: "group"
      i: 1
      type: INT
    }
    attribute {
      name: "kernel_shape"
      ints: 1
      ints: 1
      type: INTS
    }
    attribute {
      name: "pads"
      ints: 0
      ints: 0
      ints: 0
      ints: 0
      type: INTS
    }
    attribute {
      name: "strides"
      ints: 1
      ints: 1
      type: INTS
    }
  }
  node {
    input: "resnetv19_stage3_conv24_fwd"
    input: "resnetv19_stage3_batchnorm24_gamma"
    input: "resnetv19_stage3_batchnorm24_beta"
    input: "resnetv19_stage3_batchnorm24_running_mean"
    input: "resnetv19_stage3_batchnorm24_running_var"
    output: "resnetv19_stage3_batchnorm24_fwd"
    name: "resnetv19_stage3_batchnorm24_fwd"
    op_type: "BatchNormalization"
    attribute {
      name: "epsilon"
      f: 1e-05
      type: FLOAT
    }
    attribute {
      name: "momentum"
      f: 0.9
      type: FLOAT
    }
    attribute {
      name: "spatial"
      i: 1
      type: INT
    }
  }
  node {
    input: "resnetv19_stage3_batchnorm24_fwd"
    input: "resnetv19_stage3_activation6"
    output: "resnetv19_stage3__plus7"
    name: "resnetv19_stage3__plus7"
    op_type: "Add"
  }
  node {
    input: "resnetv19_stage3__plus7"
    output: "resnetv19_stage3_activation7"
    name: "resnetv19_stage3_activation7"
    op_type: "Relu"
  }
  node {
    input: "resnetv19_stage3_activation7"
    input: "resnetv19_stage3_conv25_weight"
    input: "resnetv19_stage3_conv25_bias"
    output: "resnetv19_stage3_conv25_fwd"
    name: "resnetv19_stage3_conv25_fwd"
    op_type: "Conv"
    attribute {
      name: "dilations"
      ints: 1
      ints: 1
      type: INTS
    }
    attribute {
      name: "group"
      i: 1
      type: INT
    }
    attribute {
      name: "kernel_shape"
      ints: 1
      ints: 1
      type: INTS
    }
    attribute {
      name: "pads"
      ints: 0
      ints: 0
      ints: 0
      ints: 0
      type: INTS
    }
    attribute {
      name: "strides"
      ints: 1
      ints: 1
      type: INTS
    }
  }
  node {
    input: "resnetv19_stage3_conv25_fwd"
    input: "resnetv19_stage3_batchnorm25_gamma"
    input: "resnetv19_stage3_batchnorm25_beta"
    input: "resnetv19_stage3_batchnorm25_running_mean"
    input: "resnetv19_stage3_batchnorm25_running_var"
    output: "resnetv19_stage3_batchnorm25_fwd"
    name: "resnetv19_stage3_batchnorm25_fwd"
    op_type: "BatchNormalization"
    attribute {
      name: "epsilon"
      f: 1e-05
      type: FLOAT
    }
    attribute {
      name: "momentum"
      f: 0.9
      type: FLOAT
    }
    attribute {
      name: "spatial"
      i: 1
      type: INT
    }
  }
  node {
    input: "resnetv19_stage3_batchnorm25_fwd"
    output: "resnetv19_stage3_relu16_fwd"
    name: "resnetv19_stage3_relu16_fwd"
    op_type: "Relu"
  }
  node {
    input: "resnetv19_stage3_relu16_fwd"
    input: "resnetv19_stage3_conv26_weight"
    output: "resnetv19_stage3_conv26_fwd"
    name: "resnetv19_stage3_conv26_fwd"
    op_type: "Conv"
    attribute {
      name: "dilations"
      ints: 1
      ints: 1
      type: INTS
    }
    attribute {
      name: "group"
      i: 1
      type: INT
    }
    attribute {
      name: "kernel_shape"
      ints: 3
      ints: 3
      type: INTS
    }
    attribute {
      name: "pads"
      ints: 1
      ints: 1
      ints: 1
      ints: 1
      type: INTS
    }
    attribute {
      name: "strides"
      ints: 1
      ints: 1
      type: INTS
    }
  }
  node {
    input: "resnetv19_stage3_conv26_fwd"
    input: "resnetv19_stage3_batchnorm26_gamma"
    input: "resnetv19_stage3_batchnorm26_beta"
    input: "resnetv19_stage3_batchnorm26_running_mean"
    input: "resnetv19_stage3_batchnorm26_running_var"
    output: "resnetv19_stage3_batchnorm26_fwd"
    name: "resnetv19_stage3_batchnorm26_fwd"
    op_type: "BatchNormalization"
    attribute {
      name: "epsilon"
      f: 1e-05
      type: FLOAT
    }
    attribute {
      name: "momentum"
      f: 0.9
      type: FLOAT
    }
    attribute {
      name: "spatial"
      i: 1
      type: INT
    }
  }
  node {
    input: "resnetv19_stage3_batchnorm26_fwd"
    output: "resnetv19_stage3_relu17_fwd"
    name: "resnetv19_stage3_relu17_fwd"
    op_type: "Relu"
  }
  node {
    input: "resnetv19_stage3_relu17_fwd"
    input: "resnetv19_stage3_conv27_weight"
    input: "resnetv19_stage3_conv27_bias"
    output: "resnetv19_stage3_conv27_fwd"
    name: "resnetv19_stage3_conv27_fwd"
    op_type: "Conv"
    attribute {
      name: "dilations"
      ints: 1
      ints: 1
      type: INTS
    }
    attribute {
      name: "group"
      i: 1
      type: INT
    }
    attribute {
      name: "kernel_shape"
      ints: 1
      ints: 1
      type: INTS
    }
    attribute {
      name: "pads"
      ints: 0
      ints: 0
      ints: 0
      ints: 0
      type: INTS
    }
    attribute {
      name: "strides"
      ints: 1
      ints: 1
      type: INTS
    }
  }
  node {
    input: "resnetv19_stage3_conv27_fwd"
    input: "resnetv19_stage3_batchnorm27_gamma"
    input: "resnetv19_stage3_batchnorm27_beta"
    input: "resnetv19_stage3_batchnorm27_running_mean"
    input: "resnetv19_stage3_batchnorm27_running_var"
    output: "resnetv19_stage3_batchnorm27_fwd"
    name: "resnetv19_stage3_batchnorm27_fwd"
    op_type: "BatchNormalization"
    attribute {
      name: "epsilon"
      f: 1e-05
      type: FLOAT
    }
    attribute {
      name: "momentum"
      f: 0.9
      type: FLOAT
    }
    attribute {
      name: "spatial"
      i: 1
      type: INT
    }
  }
  node {
    input: "resnetv19_stage3_batchnorm27_fwd"
    input: "resnetv19_stage3_activation7"
    output: "resnetv19_stage3__plus8"
    name: "resnetv19_stage3__plus8"
    op_type: "Add"
  }
  node {
    input: "resnetv19_stage3__plus8"
    output: "resnetv19_stage3_activation8"
    name: "resnetv19_stage3_activation8"
    op_type: "Relu"
  }
  node {
    input: "resnetv19_stage3_activation8"
    input: "resnetv19_stage3_conv28_weight"
    input: "resnetv19_stage3_conv28_bias"
    output: "resnetv19_stage3_conv28_fwd"
    name: "resnetv19_stage3_conv28_fwd"
    op_type: "Conv"
    attribute {
      name: "dilations"
      ints: 1
      ints: 1
      type: INTS
    }
    attribute {
      name: "group"
      i: 1
      type: INT
    }
    attribute {
      name: "kernel_shape"
      ints: 1
      ints: 1
      type: INTS
    }
    attribute {
      name: "pads"
      ints: 0
      ints: 0
      ints: 0
      ints: 0
      type: INTS
    }
    attribute {
      name: "strides"
      ints: 1
      ints: 1
      type: INTS
    }
  }
  node {
    input: "resnetv19_stage3_conv28_fwd"
    input: "resnetv19_stage3_batchnorm28_gamma"
    input: "resnetv19_stage3_batchnorm28_beta"
    input: "resnetv19_stage3_batchnorm28_running_mean"
    input: "resnetv19_stage3_batchnorm28_running_var"
    output: "resnetv19_stage3_batchnorm28_fwd"
    name: "resnetv19_stage3_batchnorm28_fwd"
    op_type: "BatchNormalization"
    attribute {
      name: "epsilon"
      f: 1e-05
      type: FLOAT
    }
    attribute {
      name: "momentum"
      f: 0.9
      type: FLOAT
    }
    attribute {
      name: "spatial"
      i: 1
      type: INT
    }
  }
  node {
    input: "resnetv19_stage3_batchnorm28_fwd"
    output: "resnetv19_stage3_relu18_fwd"
    name: "resnetv19_stage3_relu18_fwd"
    op_type: "Relu"
  }
  node {
    input: "resnetv19_stage3_relu18_fwd"
    input: "resnetv19_stage3_conv29_weight"
    output: "resnetv19_stage3_conv29_fwd"
    name: "resnetv19_stage3_conv29_fwd"
    op_type: "Conv"
    attribute {
      name: "dilations"
      ints: 1
      ints: 1
      type: INTS
    }
    attribute {
      name: "group"
      i: 1
      type: INT
    }
    attribute {
      name: "kernel_shape"
      ints: 3
      ints: 3
      type: INTS
    }
    attribute {
      name: "pads"
      ints: 1
      ints: 1
      ints: 1
      ints: 1
      type: INTS
    }
    attribute {
      name: "strides"
      ints: 1
      ints: 1
      type: INTS
    }
  }
  node {
    input: "resnetv19_stage3_conv29_fwd"
    input: "resnetv19_stage3_batchnorm29_gamma"
    input: "resnetv19_stage3_batchnorm29_beta"
    input: "resnetv19_stage3_batchnorm29_running_mean"
    input: "resnetv19_stage3_batchnorm29_running_var"
    output: "resnetv19_stage3_batchnorm29_fwd"
    name: "resnetv19_stage3_batchnorm29_fwd"
    op_type: "BatchNormalization"
    attribute {
      name: "epsilon"
      f: 1e-05
      type: FLOAT
    }
    attribute {
      name: "momentum"
      f: 0.9
      type: FLOAT
    }
    attribute {
      name: "spatial"
      i: 1
      type: INT
    }
  }
  node {
    input: "resnetv19_stage3_batchnorm29_fwd"
    output: "resnetv19_stage3_relu19_fwd"
    name: "resnetv19_stage3_relu19_fwd"
    op_type: "Relu"
  }
  node {
    input: "resnetv19_stage3_relu19_fwd"
    input: "resnetv19_stage3_conv30_weight"
    input: "resnetv19_stage3_conv30_bias"
    output: "resnetv19_stage3_conv30_fwd"
    name: "resnetv19_stage3_conv30_fwd"
    op_type: "Conv"
    attribute {
      name: "dilations"
      ints: 1
      ints: 1
      type: INTS
    }
    attribute {
      name: "group"
      i: 1
      type: INT
    }
    attribute {
      name: "kernel_shape"
      ints: 1
      ints: 1
      type: INTS
    }
    attribute {
      name: "pads"
      ints: 0
      ints: 0
      ints: 0
      ints: 0
      type: INTS
    }
    attribute {
      name: "strides"
      ints: 1
      ints: 1
      type: INTS
    }
  }
  node {
    input: "resnetv19_stage3_conv30_fwd"
    input: "resnetv19_stage3_batchnorm30_gamma"
    input: "resnetv19_stage3_batchnorm30_beta"
    input: "resnetv19_stage3_batchnorm30_running_mean"
    input: "resnetv19_stage3_batchnorm30_running_var"
    output: "resnetv19_stage3_batchnorm30_fwd"
    name: "resnetv19_stage3_batchnorm30_fwd"
    op_type: "BatchNormalization"
    attribute {
      name: "epsilon"
      f: 1e-05
      type: FLOAT
    }
    attribute {
      name: "momentum"
      f: 0.9
      type: FLOAT
    }
    attribute {
      name: "spatial"
      i: 1
      type: INT
    }
  }
  node {
    input: "resnetv19_stage3_batchnorm30_fwd"
    input: "resnetv19_stage3_activation8"
    output: "resnetv19_stage3__plus9"
    name: "resnetv19_stage3__plus9"
    op_type: "Add"
  }
  node {
    input: "resnetv19_stage3__plus9"
    output: "resnetv19_stage3_activation9"
    name: "resnetv19_stage3_activation9"
    op_type: "Relu"
  }
  node {
    input: "resnetv19_stage3_activation9"
    input: "resnetv19_stage3_conv31_weight"
    input: "resnetv19_stage3_conv31_bias"
    output: "resnetv19_stage3_conv31_fwd"
    name: "resnetv19_stage3_conv31_fwd"
    op_type: "Conv"
    attribute {
      name: "dilations"
      ints: 1
      ints: 1
      type: INTS
    }
    attribute {
      name: "group"
      i: 1
      type: INT
    }
    attribute {
      name: "kernel_shape"
      ints: 1
      ints: 1
      type: INTS
    }
    attribute {
      name: "pads"
      ints: 0
      ints: 0
      ints: 0
      ints: 0
      type: INTS
    }
    attribute {
      name: "strides"
      ints: 1
      ints: 1
      type: INTS
    }
  }
  node {
    input: "resnetv19_stage3_conv31_fwd"
    input: "resnetv19_stage3_batchnorm31_gamma"
    input: "resnetv19_stage3_batchnorm31_beta"
    input: "resnetv19_stage3_batchnorm31_running_mean"
    input: "resnetv19_stage3_batchnorm31_running_var"
    output: "resnetv19_stage3_batchnorm31_fwd"
    name: "resnetv19_stage3_batchnorm31_fwd"
    op_type: "BatchNormalization"
    attribute {
      name: "epsilon"
      f: 1e-05
      type: FLOAT
    }
    attribute {
      name: "momentum"
      f: 0.9
      type: FLOAT
    }
    attribute {
      name: "spatial"
      i: 1
      type: INT
    }
  }
  node {
    input: "resnetv19_stage3_batchnorm31_fwd"
    output: "resnetv19_stage3_relu20_fwd"
    name: "resnetv19_stage3_relu20_fwd"
    op_type: "Relu"
  }
  node {
    input: "resnetv19_stage3_relu20_fwd"
    input: "resnetv19_stage3_conv32_weight"
    output: "resnetv19_stage3_conv32_fwd"
    name: "resnetv19_stage3_conv32_fwd"
    op_type: "Conv"
    attribute {
      name: "dilations"
      ints: 1
      ints: 1
      type: INTS
    }
    attribute {
      name: "group"
      i: 1
      type: INT
    }
    attribute {
      name: "kernel_shape"
      ints: 3
      ints: 3
      type: INTS
    }
    attribute {
      name: "pads"
      ints: 1
      ints: 1
      ints: 1
      ints: 1
      type: INTS
    }
    attribute {
      name: "strides"
      ints: 1
      ints: 1
      type: INTS
    }
  }
  node {
    input: "resnetv19_stage3_conv32_fwd"
    input: "resnetv19_stage3_batchnorm32_gamma"
    input: "resnetv19_stage3_batchnorm32_beta"
    input: "resnetv19_stage3_batchnorm32_running_mean"
    input: "resnetv19_stage3_batchnorm32_running_var"
    output: "resnetv19_stage3_batchnorm32_fwd"
    name: "resnetv19_stage3_batchnorm32_fwd"
    op_type: "BatchNormalization"
    attribute {
      name: "epsilon"
      f: 1e-05
      type: FLOAT
    }
    attribute {
      name: "momentum"
      f: 0.9
      type: FLOAT
    }
    attribute {
      name: "spatial"
      i: 1
      type: INT
    }
  }
  node {
    input: "resnetv19_stage3_batchnorm32_fwd"
    output: "resnetv19_stage3_relu21_fwd"
    name: "resnetv19_stage3_relu21_fwd"
    op_type: "Relu"
  }
  node {
    input: "resnetv19_stage3_relu21_fwd"
    input: "resnetv19_stage3_conv33_weight"
    input: "resnetv19_stage3_conv33_bias"
    output: "resnetv19_stage3_conv33_fwd"
    name: "resnetv19_stage3_conv33_fwd"
    op_type: "Conv"
    attribute {
      name: "dilations"
      ints: 1
      ints: 1
      type: INTS
    }
    attribute {
      name: "group"
      i: 1
      type: INT
    }
    attribute {
      name: "kernel_shape"
      ints: 1
      ints: 1
      type: INTS
    }
    attribute {
      name: "pads"
      ints: 0
      ints: 0
      ints: 0
      ints: 0
      type: INTS
    }
    attribute {
      name: "strides"
      ints: 1
      ints: 1
      type: INTS
    }
  }
  node {
    input: "resnetv19_stage3_conv33_fwd"
    input: "resnetv19_stage3_batchnorm33_gamma"
    input: "resnetv19_stage3_batchnorm33_beta"
    input: "resnetv19_stage3_batchnorm33_running_mean"
    input: "resnetv19_stage3_batchnorm33_running_var"
    output: "resnetv19_stage3_batchnorm33_fwd"
    name: "resnetv19_stage3_batchnorm33_fwd"
    op_type: "BatchNormalization"
    attribute {
      name: "epsilon"
      f: 1e-05
      type: FLOAT
    }
    attribute {
      name: "momentum"
      f: 0.9
      type: FLOAT
    }
    attribute {
      name: "spatial"
      i: 1
      type: INT
    }
  }
  node {
    input: "resnetv19_stage3_batchnorm33_fwd"
    input: "resnetv19_stage3_activation9"
    output: "resnetv19_stage3__plus10"
    name: "resnetv19_stage3__plus10"
    op_type: "Add"
  }
  node {
    input: "resnetv19_stage3__plus10"
    output: "resnetv19_stage3_activation10"
    name: "resnetv19_stage3_activation10"
    op_type: "Relu"
  }
  node {
    input: "resnetv19_stage3_activation10"
    input: "resnetv19_stage3_conv34_weight"
    input: "resnetv19_stage3_conv34_bias"
    output: "resnetv19_stage3_conv34_fwd"
    name: "resnetv19_stage3_conv34_fwd"
    op_type: "Conv"
    attribute {
      name: "dilations"
      ints: 1
      ints: 1
      type: INTS
    }
    attribute {
      name: "group"
      i: 1
      type: INT
    }
    attribute {
      name: "kernel_shape"
      ints: 1
      ints: 1
      type: INTS
    }
    attribute {
      name: "pads"
      ints: 0
      ints: 0
      ints: 0
      ints: 0
      type: INTS
    }
    attribute {
      name: "strides"
      ints: 1
      ints: 1
      type: INTS
    }
  }
  node {
    input: "resnetv19_stage3_conv34_fwd"
    input: "resnetv19_stage3_batchnorm34_gamma"
    input: "resnetv19_stage3_batchnorm34_beta"
    input: "resnetv19_stage3_batchnorm34_running_mean"
    input: "resnetv19_stage3_batchnorm34_running_var"
    output: "resnetv19_stage3_batchnorm34_fwd"
    name: "resnetv19_stage3_batchnorm34_fwd"
    op_type: "BatchNormalization"
    attribute {
      name: "epsilon"
      f: 1e-05
      type: FLOAT
    }
    attribute {
      name: "momentum"
      f: 0.9
      type: FLOAT
    }
    attribute {
      name: "spatial"
      i: 1
      type: INT
    }
  }
  node {
    input: "resnetv19_stage3_batchnorm34_fwd"
    output: "resnetv19_stage3_relu22_fwd"
    name: "resnetv19_stage3_relu22_fwd"
    op_type: "Relu"
  }
  node {
    input: "resnetv19_stage3_relu22_fwd"
    input: "resnetv19_stage3_conv35_weight"
    output: "resnetv19_stage3_conv35_fwd"
    name: "resnetv19_stage3_conv35_fwd"
    op_type: "Conv"
    attribute {
      name: "dilations"
      ints: 1
      ints: 1
      type: INTS
    }
    attribute {
      name: "group"
      i: 1
      type: INT
    }
    attribute {
      name: "kernel_shape"
      ints: 3
      ints: 3
      type: INTS
    }
    attribute {
      name: "pads"
      ints: 1
      ints: 1
      ints: 1
      ints: 1
      type: INTS
    }
    attribute {
      name: "strides"
      ints: 1
      ints: 1
      type: INTS
    }
  }
  node {
    input: "resnetv19_stage3_conv35_fwd"
    input: "resnetv19_stage3_batchnorm35_gamma"
    input: "resnetv19_stage3_batchnorm35_beta"
    input: "resnetv19_stage3_batchnorm35_running_mean"
    input: "resnetv19_stage3_batchnorm35_running_var"
    output: "resnetv19_stage3_batchnorm35_fwd"
    name: "resnetv19_stage3_batchnorm35_fwd"
    op_type: "BatchNormalization"
    attribute {
      name: "epsilon"
      f: 1e-05
      type: FLOAT
    }
    attribute {
      name: "momentum"
      f: 0.9
      type: FLOAT
    }
    attribute {
      name: "spatial"
      i: 1
      type: INT
    }
  }
  node {
    input: "resnetv19_stage3_batchnorm35_fwd"
    output: "resnetv19_stage3_relu23_fwd"
    name: "resnetv19_stage3_relu23_fwd"
    op_type: "Relu"
  }
  node {
    input: "resnetv19_stage3_relu23_fwd"
    input: "resnetv19_stage3_conv36_weight"
    input: "resnetv19_stage3_conv36_bias"
    output: "resnetv19_stage3_conv36_fwd"
    name: "resnetv19_stage3_conv36_fwd"
    op_type: "Conv"
    attribute {
      name: "dilations"
      ints: 1
      ints: 1
      type: INTS
    }
    attribute {
      name: "group"
      i: 1
      type: INT
    }
    attribute {
      name: "kernel_shape"
      ints: 1
      ints: 1
      type: INTS
    }
    attribute {
      name: "pads"
      ints: 0
      ints: 0
      ints: 0
      ints: 0
      type: INTS
    }
    attribute {
      name: "strides"
      ints: 1
      ints: 1
      type: INTS
    }
  }
  node {
    input: "resnetv19_stage3_conv36_fwd"
    input: "resnetv19_stage3_batchnorm36_gamma"
    input: "resnetv19_stage3_batchnorm36_beta"
    input: "resnetv19_stage3_batchnorm36_running_mean"
    input: "resnetv19_stage3_batchnorm36_running_var"
    output: "resnetv19_stage3_batchnorm36_fwd"
    name: "resnetv19_stage3_batchnorm36_fwd"
    op_type: "BatchNormalization"
    attribute {
      name: "epsilon"
      f: 1e-05
      type: FLOAT
    }
    attribute {
      name: "momentum"
      f: 0.9
      type: FLOAT
    }
    attribute {
      name: "spatial"
      i: 1
      type: INT
    }
  }
  node {
    input: "resnetv19_stage3_batchnorm36_fwd"
    input: "resnetv19_stage3_activation10"
    output: "resnetv19_stage3__plus11"
    name: "resnetv19_stage3__plus11"
    op_type: "Add"
  }
  node {
    input: "resnetv19_stage3__plus11"
    output: "resnetv19_stage3_activation11"
    name: "resnetv19_stage3_activation11"
    op_type: "Relu"
  }
  node {
    input: "resnetv19_stage3_activation11"
    input: "resnetv19_stage3_conv37_weight"
    input: "resnetv19_stage3_conv37_bias"
    output: "resnetv19_stage3_conv37_fwd"
    name: "resnetv19_stage3_conv37_fwd"
    op_type: "Conv"
    attribute {
      name: "dilations"
      ints: 1
      ints: 1
      type: INTS
    }
    attribute {
      name: "group"
      i: 1
      type: INT
    }
    attribute {
      name: "kernel_shape"
      ints: 1
      ints: 1
      type: INTS
    }
    attribute {
      name: "pads"
      ints: 0
      ints: 0
      ints: 0
      ints: 0
      type: INTS
    }
    attribute {
      name: "strides"
      ints: 1
      ints: 1
      type: INTS
    }
  }
  node {
    input: "resnetv19_stage3_conv37_fwd"
    input: "resnetv19_stage3_batchnorm37_gamma"
    input: "resnetv19_stage3_batchnorm37_beta"
    input: "resnetv19_stage3_batchnorm37_running_mean"
    input: "resnetv19_stage3_batchnorm37_running_var"
    output: "resnetv19_stage3_batchnorm37_fwd"
    name: "resnetv19_stage3_batchnorm37_fwd"
    op_type: "BatchNormalization"
    attribute {
      name: "epsilon"
      f: 1e-05
      type: FLOAT
    }
    attribute {
      name: "momentum"
      f: 0.9
      type: FLOAT
    }
    attribute {
      name: "spatial"
      i: 1
      type: INT
    }
  }
  node {
    input: "resnetv19_stage3_batchnorm37_fwd"
    output: "resnetv19_stage3_relu24_fwd"
    name: "resnetv19_stage3_relu24_fwd"
    op_type: "Relu"
  }
  node {
    input: "resnetv19_stage3_relu24_fwd"
    input: "resnetv19_stage3_conv38_weight"
    output: "resnetv19_stage3_conv38_fwd"
    name: "resnetv19_stage3_conv38_fwd"
    op_type: "Conv"
    attribute {
      name: "dilations"
      ints: 1
      ints: 1
      type: INTS
    }
    attribute {
      name: "group"
      i: 1
      type: INT
    }
    attribute {
      name: "kernel_shape"
      ints: 3
      ints: 3
      type: INTS
    }
    attribute {
      name: "pads"
      ints: 1
      ints: 1
      ints: 1
      ints: 1
      type: INTS
    }
    attribute {
      name: "strides"
      ints: 1
      ints: 1
      type: INTS
    }
  }
  node {
    input: "resnetv19_stage3_conv38_fwd"
    input: "resnetv19_stage3_batchnorm38_gamma"
    input: "resnetv19_stage3_batchnorm38_beta"
    input: "resnetv19_stage3_batchnorm38_running_mean"
    input: "resnetv19_stage3_batchnorm38_running_var"
    output: "resnetv19_stage3_batchnorm38_fwd"
    name: "resnetv19_stage3_batchnorm38_fwd"
    op_type: "BatchNormalization"
    attribute {
      name: "epsilon"
      f: 1e-05
      type: FLOAT
    }
    attribute {
      name: "momentum"
      f: 0.9
      type: FLOAT
    }
    attribute {
      name: "spatial"
      i: 1
      type: INT
    }
  }
  node {
    input: "resnetv19_stage3_batchnorm38_fwd"
    output: "resnetv19_stage3_relu25_fwd"
    name: "resnetv19_stage3_relu25_fwd"
    op_type: "Relu"
  }
  node {
    input: "resnetv19_stage3_relu25_fwd"
    input: "resnetv19_stage3_conv39_weight"
    input: "resnetv19_stage3_conv39_bias"
    output: "resnetv19_stage3_conv39_fwd"
    name: "resnetv19_stage3_conv39_fwd"
    op_type: "Conv"
    attribute {
      name: "dilations"
      ints: 1
      ints: 1
      type: INTS
    }
    attribute {
      name: "group"
      i: 1
      type: INT
    }
    attribute {
      name: "kernel_shape"
      ints: 1
      ints: 1
      type: INTS
    }
    attribute {
      name: "pads"
      ints: 0
      ints: 0
      ints: 0
      ints: 0
      type: INTS
    }
    attribute {
      name: "strides"
      ints: 1
      ints: 1
      type: INTS
    }
  }
  node {
    input: "resnetv19_stage3_conv39_fwd"
    input: "resnetv19_stage3_batchnorm39_gamma"
    input: "resnetv19_stage3_batchnorm39_beta"
    input: "resnetv19_stage3_batchnorm39_running_mean"
    input: "resnetv19_stage3_batchnorm39_running_var"
    output: "resnetv19_stage3_batchnorm39_fwd"
    name: "resnetv19_stage3_batchnorm39_fwd"
    op_type: "BatchNormalization"
    attribute {
      name: "epsilon"
      f: 1e-05
      type: FLOAT
    }
    attribute {
      name: "momentum"
      f: 0.9
      type: FLOAT
    }
    attribute {
      name: "spatial"
      i: 1
      type: INT
    }
  }
  node {
    input: "resnetv19_stage3_batchnorm39_fwd"
    input: "resnetv19_stage3_activation11"
    output: "resnetv19_stage3__plus12"
    name: "resnetv19_stage3__plus12"
    op_type: "Add"
  }
  node {
    input: "resnetv19_stage3__plus12"
    output: "resnetv19_stage3_activation12"
    name: "resnetv19_stage3_activation12"
    op_type: "Relu"
  }
  node {
    input: "resnetv19_stage3_activation12"
    input: "resnetv19_stage3_conv40_weight"
    input: "resnetv19_stage3_conv40_bias"
    output: "resnetv19_stage3_conv40_fwd"
    name: "resnetv19_stage3_conv40_fwd"
    op_type: "Conv"
    attribute {
      name: "dilations"
      ints: 1
      ints: 1
      type: INTS
    }
    attribute {
      name: "group"
      i: 1
      type: INT
    }
    attribute {
      name: "kernel_shape"
      ints: 1
      ints: 1
      type: INTS
    }
    attribute {
      name: "pads"
      ints: 0
      ints: 0
      ints: 0
      ints: 0
      type: INTS
    }
    attribute {
      name: "strides"
      ints: 1
      ints: 1
      type: INTS
    }
  }
  node {
    input: "resnetv19_stage3_conv40_fwd"
    input: "resnetv19_stage3_batchnorm40_gamma"
    input: "resnetv19_stage3_batchnorm40_beta"
    input: "resnetv19_stage3_batchnorm40_running_mean"
    input: "resnetv19_stage3_batchnorm40_running_var"
    output: "resnetv19_stage3_batchnorm40_fwd"
    name: "resnetv19_stage3_batchnorm40_fwd"
    op_type: "BatchNormalization"
    attribute {
      name: "epsilon"
      f: 1e-05
      type: FLOAT
    }
    attribute {
      name: "momentum"
      f: 0.9
      type: FLOAT
    }
    attribute {
      name: "spatial"
      i: 1
      type: INT
    }
  }
  node {
    input: "resnetv19_stage3_batchnorm40_fwd"
    output: "resnetv19_stage3_relu26_fwd"
    name: "resnetv19_stage3_relu26_fwd"
    op_type: "Relu"
  }
  node {
    input: "resnetv19_stage3_relu26_fwd"
    input: "resnetv19_stage3_conv41_weight"
    output: "resnetv19_stage3_conv41_fwd"
    name: "resnetv19_stage3_conv41_fwd"
    op_type: "Conv"
    attribute {
      name: "dilations"
      ints: 1
      ints: 1
      type: INTS
    }
    attribute {
      name: "group"
      i: 1
      type: INT
    }
    attribute {
      name: "kernel_shape"
      ints: 3
      ints: 3
      type: INTS
    }
    attribute {
      name: "pads"
      ints: 1
      ints: 1
      ints: 1
      ints: 1
      type: INTS
    }
    attribute {
      name: "strides"
      ints: 1
      ints: 1
      type: INTS
    }
  }
  node {
    input: "resnetv19_stage3_conv41_fwd"
    input: "resnetv19_stage3_batchnorm41_gamma"
    input: "resnetv19_stage3_batchnorm41_beta"
    input: "resnetv19_stage3_batchnorm41_running_mean"
    input: "resnetv19_stage3_batchnorm41_running_var"
    output: "resnetv19_stage3_batchnorm41_fwd"
    name: "resnetv19_stage3_batchnorm41_fwd"
    op_type: "BatchNormalization"
    attribute {
      name: "epsilon"
      f: 1e-05
      type: FLOAT
    }
    attribute {
      name: "momentum"
      f: 0.9
      type: FLOAT
    }
    attribute {
      name: "spatial"
      i: 1
      type: INT
    }
  }
  node {
    input: "resnetv19_stage3_batchnorm41_fwd"
    output: "resnetv19_stage3_relu27_fwd"
    name: "resnetv19_stage3_relu27_fwd"
    op_type: "Relu"
  }
  node {
    input: "resnetv19_stage3_relu27_fwd"
    input: "resnetv19_stage3_conv42_weight"
    input: "resnetv19_stage3_conv42_bias"
    output: "resnetv19_stage3_conv42_fwd"
    name: "resnetv19_stage3_conv42_fwd"
    op_type: "Conv"
    attribute {
      name: "dilations"
      ints: 1
      ints: 1
      type: INTS
    }
    attribute {
      name: "group"
      i: 1
      type: INT
    }
    attribute {
      name: "kernel_shape"
      ints: 1
      ints: 1
      type: INTS
    }
    attribute {
      name: "pads"
      ints: 0
      ints: 0
      ints: 0
      ints: 0
      type: INTS
    }
    attribute {
      name: "strides"
      ints: 1
      ints: 1
      type: INTS
    }
  }
  node {
    input: "resnetv19_stage3_conv42_fwd"
    input: "resnetv19_stage3_batchnorm42_gamma"
    input: "resnetv19_stage3_batchnorm42_beta"
    input: "resnetv19_stage3_batchnorm42_running_mean"
    input: "resnetv19_stage3_batchnorm42_running_var"
    output: "resnetv19_stage3_batchnorm42_fwd"
    name: "resnetv19_stage3_batchnorm42_fwd"
    op_type: "BatchNormalization"
    attribute {
      name: "epsilon"
      f: 1e-05
      type: FLOAT
    }
    attribute {
      name: "momentum"
      f: 0.9
      type: FLOAT
    }
    attribute {
      name: "spatial"
      i: 1
      type: INT
    }
  }
  node {
    input: "resnetv19_stage3_batchnorm42_fwd"
    input: "resnetv19_stage3_activation12"
    output: "resnetv19_stage3__plus13"
    name: "resnetv19_stage3__plus13"
    op_type: "Add"
  }
  node {
    input: "resnetv19_stage3__plus13"
    output: "resnetv19_stage3_activation13"
    name: "resnetv19_stage3_activation13"
    op_type: "Relu"
  }
  node {
    input: "resnetv19_stage3_activation13"
    input: "resnetv19_stage3_conv43_weight"
    input: "resnetv19_stage3_conv43_bias"
    output: "resnetv19_stage3_conv43_fwd"
    name: "resnetv19_stage3_conv43_fwd"
    op_type: "Conv"
    attribute {
      name: "dilations"
      ints: 1
      ints: 1
      type: INTS
    }
    attribute {
      name: "group"
      i: 1
      type: INT
    }
    attribute {
      name: "kernel_shape"
      ints: 1
      ints: 1
      type: INTS
    }
    attribute {
      name: "pads"
      ints: 0
      ints: 0
      ints: 0
      ints: 0
      type: INTS
    }
    attribute {
      name: "strides"
      ints: 1
      ints: 1
      type: INTS
    }
  }
  node {
    input: "resnetv19_stage3_conv43_fwd"
    input: "resnetv19_stage3_batchnorm43_gamma"
    input: "resnetv19_stage3_batchnorm43_beta"
    input: "resnetv19_stage3_batchnorm43_running_mean"
    input: "resnetv19_stage3_batchnorm43_running_var"
    output: "resnetv19_stage3_batchnorm43_fwd"
    name: "resnetv19_stage3_batchnorm43_fwd"
    op_type: "BatchNormalization"
    attribute {
      name: "epsilon"
      f: 1e-05
      type: FLOAT
    }
    attribute {
      name: "momentum"
      f: 0.9
      type: FLOAT
    }
    attribute {
      name: "spatial"
      i: 1
      type: INT
    }
  }
  node {
    input: "resnetv19_stage3_batchnorm43_fwd"
    output: "resnetv19_stage3_relu28_fwd"
    name: "resnetv19_stage3_relu28_fwd"
    op_type: "Relu"
  }
  node {
    input: "resnetv19_stage3_relu28_fwd"
    input: "resnetv19_stage3_conv44_weight"
    output: "resnetv19_stage3_conv44_fwd"
    name: "resnetv19_stage3_conv44_fwd"
    op_type: "Conv"
    attribute {
      name: "dilations"
      ints: 1
      ints: 1
      type: INTS
    }
    attribute {
      name: "group"
      i: 1
      type: INT
    }
    attribute {
      name: "kernel_shape"
      ints: 3
      ints: 3
      type: INTS
    }
    attribute {
      name: "pads"
      ints: 1
      ints: 1
      ints: 1
      ints: 1
      type: INTS
    }
    attribute {
      name: "strides"
      ints: 1
      ints: 1
      type: INTS
    }
  }
  node {
    input: "resnetv19_stage3_conv44_fwd"
    input: "resnetv19_stage3_batchnorm44_gamma"
    input: "resnetv19_stage3_batchnorm44_beta"
    input: "resnetv19_stage3_batchnorm44_running_mean"
    input: "resnetv19_stage3_batchnorm44_running_var"
    output: "resnetv19_stage3_batchnorm44_fwd"
    name: "resnetv19_stage3_batchnorm44_fwd"
    op_type: "BatchNormalization"
    attribute {
      name: "epsilon"
      f: 1e-05
      type: FLOAT
    }
    attribute {
      name: "momentum"
      f: 0.9
      type: FLOAT
    }
    attribute {
      name: "spatial"
      i: 1
      type: INT
    }
  }
  node {
    input: "resnetv19_stage3_batchnorm44_fwd"
    output: "resnetv19_stage3_relu29_fwd"
    name: "resnetv19_stage3_relu29_fwd"
    op_type: "Relu"
  }
  node {
    input: "resnetv19_stage3_relu29_fwd"
    input: "resnetv19_stage3_conv45_weight"
    input: "resnetv19_stage3_conv45_bias"
    output: "resnetv19_stage3_conv45_fwd"
    name: "resnetv19_stage3_conv45_fwd"
    op_type: "Conv"
    attribute {
      name: "dilations"
      ints: 1
      ints: 1
      type: INTS
    }
    attribute {
      name: "group"
      i: 1
      type: INT
    }
    attribute {
      name: "kernel_shape"
      ints: 1
      ints: 1
      type: INTS
    }
    attribute {
      name: "pads"
      ints: 0
      ints: 0
      ints: 0
      ints: 0
      type: INTS
    }
    attribute {
      name: "strides"
      ints: 1
      ints: 1
      type: INTS
    }
  }
  node {
    input: "resnetv19_stage3_conv45_fwd"
    input: "resnetv19_stage3_batchnorm45_gamma"
    input: "resnetv19_stage3_batchnorm45_beta"
    input: "resnetv19_stage3_batchnorm45_running_mean"
    input: "resnetv19_stage3_batchnorm45_running_var"
    output: "resnetv19_stage3_batchnorm45_fwd"
    name: "resnetv19_stage3_batchnorm45_fwd"
    op_type: "BatchNormalization"
    attribute {
      name: "epsilon"
      f: 1e-05
      type: FLOAT
    }
    attribute {
      name: "momentum"
      f: 0.9
      type: FLOAT
    }
    attribute {
      name: "spatial"
      i: 1
      type: INT
    }
  }
  node {
    input: "resnetv19_stage3_batchnorm45_fwd"
    input: "resnetv19_stage3_activation13"
    output: "resnetv19_stage3__plus14"
    name: "resnetv19_stage3__plus14"
    op_type: "Add"
  }
  node {
    input: "resnetv19_stage3__plus14"
    output: "resnetv19_stage3_activation14"
    name: "resnetv19_stage3_activation14"
    op_type: "Relu"
  }
  node {
    input: "resnetv19_stage3_activation14"
    input: "resnetv19_stage3_conv46_weight"
    input: "resnetv19_stage3_conv46_bias"
    output: "resnetv19_stage3_conv46_fwd"
    name: "resnetv19_stage3_conv46_fwd"
    op_type: "Conv"
    attribute {
      name: "dilations"
      ints: 1
      ints: 1
      type: INTS
    }
    attribute {
      name: "group"
      i: 1
      type: INT
    }
    attribute {
      name: "kernel_shape"
      ints: 1
      ints: 1
      type: INTS
    }
    attribute {
      name: "pads"
      ints: 0
      ints: 0
      ints: 0
      ints: 0
      type: INTS
    }
    attribute {
      name: "strides"
      ints: 1
      ints: 1
      type: INTS
    }
  }
  node {
    input: "resnetv19_stage3_conv46_fwd"
    input: "resnetv19_stage3_batchnorm46_gamma"
    input: "resnetv19_stage3_batchnorm46_beta"
    input: "resnetv19_stage3_batchnorm46_running_mean"
    input: "resnetv19_stage3_batchnorm46_running_var"
    output: "resnetv19_stage3_batchnorm46_fwd"
    name: "resnetv19_stage3_batchnorm46_fwd"
    op_type: "BatchNormalization"
    attribute {
      name: "epsilon"
      f: 1e-05
      type: FLOAT
    }
    attribute {
      name: "momentum"
      f: 0.9
      type: FLOAT
    }
    attribute {
      name: "spatial"
      i: 1
      type: INT
    }
  }
  node {
    input: "resnetv19_stage3_batchnorm46_fwd"
    output: "resnetv19_stage3_relu30_fwd"
    name: "resnetv19_stage3_relu30_fwd"
    op_type: "Relu"
  }
  node {
    input: "resnetv19_stage3_relu30_fwd"
    input: "resnetv19_stage3_conv47_weight"
    output: "resnetv19_stage3_conv47_fwd"
    name: "resnetv19_stage3_conv47_fwd"
    op_type: "Conv"
    attribute {
      name: "dilations"
      ints: 1
      ints: 1
      type: INTS
    }
    attribute {
      name: "group"
      i: 1
      type: INT
    }
    attribute {
      name: "kernel_shape"
      ints: 3
      ints: 3
      type: INTS
    }
    attribute {
      name: "pads"
      ints: 1
      ints: 1
      ints: 1
      ints: 1
      type: INTS
    }
    attribute {
      name: "strides"
      ints: 1
      ints: 1
      type: INTS
    }
  }
  node {
    input: "resnetv19_stage3_conv47_fwd"
    input: "resnetv19_stage3_batchnorm47_gamma"
    input: "resnetv19_stage3_batchnorm47_beta"
    input: "resnetv19_stage3_batchnorm47_running_mean"
    input: "resnetv19_stage3_batchnorm47_running_var"
    output: "resnetv19_stage3_batchnorm47_fwd"
    name: "resnetv19_stage3_batchnorm47_fwd"
    op_type: "BatchNormalization"
    attribute {
      name: "epsilon"
      f: 1e-05
      type: FLOAT
    }
    attribute {
      name: "momentum"
      f: 0.9
      type: FLOAT
    }
    attribute {
      name: "spatial"
      i: 1
      type: INT
    }
  }
  node {
    input: "resnetv19_stage3_batchnorm47_fwd"
    output: "resnetv19_stage3_relu31_fwd"
    name: "resnetv19_stage3_relu31_fwd"
    op_type: "Relu"
  }
  node {
    input: "resnetv19_stage3_relu31_fwd"
    input: "resnetv19_stage3_conv48_weight"
    input: "resnetv19_stage3_conv48_bias"
    output: "resnetv19_stage3_conv48_fwd"
    name: "resnetv19_stage3_conv48_fwd"
    op_type: "Conv"
    attribute {
      name: "dilations"
      ints: 1
      ints: 1
      type: INTS
    }
    attribute {
      name: "group"
      i: 1
      type: INT
    }
    attribute {
      name: "kernel_shape"
      ints: 1
      ints: 1
      type: INTS
    }
    attribute {
      name: "pads"
      ints: 0
      ints: 0
      ints: 0
      ints: 0
      type: INTS
    }
    attribute {
      name: "strides"
      ints: 1
      ints: 1
      type: INTS
    }
  }
  node {
    input: "resnetv19_stage3_conv48_fwd"
    input: "resnetv19_stage3_batchnorm48_gamma"
    input: "resnetv19_stage3_batchnorm48_beta"
    input: "resnetv19_stage3_batchnorm48_running_mean"
    input: "resnetv19_stage3_batchnorm48_running_var"
    output: "resnetv19_stage3_batchnorm48_fwd"
    name: "resnetv19_stage3_batchnorm48_fwd"
    op_type: "BatchNormalization"
    attribute {
      name: "epsilon"
      f: 1e-05
      type: FLOAT
    }
    attribute {
      name: "momentum"
      f: 0.9
      type: FLOAT
    }
    attribute {
      name: "spatial"
      i: 1
      type: INT
    }
  }
  node {
    input: "resnetv19_stage3_batchnorm48_fwd"
    input: "resnetv19_stage3_activation14"
    output: "resnetv19_stage3__plus15"
    name: "resnetv19_stage3__plus15"
    op_type: "Add"
  }
  node {
    input: "resnetv19_stage3__plus15"
    output: "resnetv19_stage3_activation15"
    name: "resnetv19_stage3_activation15"
    op_type: "Relu"
  }
  node {
    input: "resnetv19_stage3_activation15"
    input: "resnetv19_stage3_conv49_weight"
    input: "resnetv19_stage3_conv49_bias"
    output: "resnetv19_stage3_conv49_fwd"
    name: "resnetv19_stage3_conv49_fwd"
    op_type: "Conv"
    attribute {
      name: "dilations"
      ints: 1
      ints: 1
      type: INTS
    }
    attribute {
      name: "group"
      i: 1
      type: INT
    }
    attribute {
      name: "kernel_shape"
      ints: 1
      ints: 1
      type: INTS
    }
    attribute {
      name: "pads"
      ints: 0
      ints: 0
      ints: 0
      ints: 0
      type: INTS
    }
    attribute {
      name: "strides"
      ints: 1
      ints: 1
      type: INTS
    }
  }
  node {
    input: "resnetv19_stage3_conv49_fwd"
    input: "resnetv19_stage3_batchnorm49_gamma"
    input: "resnetv19_stage3_batchnorm49_beta"
    input: "resnetv19_stage3_batchnorm49_running_mean"
    input: "resnetv19_stage3_batchnorm49_running_var"
    output: "resnetv19_stage3_batchnorm49_fwd"
    name: "resnetv19_stage3_batchnorm49_fwd"
    op_type: "BatchNormalization"
    attribute {
      name: "epsilon"
      f: 1e-05
      type: FLOAT
    }
    attribute {
      name: "momentum"
      f: 0.9
      type: FLOAT
    }
    attribute {
      name: "spatial"
      i: 1
      type: INT
    }
  }
  node {
    input: "resnetv19_stage3_batchnorm49_fwd"
    output: "resnetv19_stage3_relu32_fwd"
    name: "resnetv19_stage3_relu32_fwd"
    op_type: "Relu"
  }
  node {
    input: "resnetv19_stage3_relu32_fwd"
    input: "resnetv19_stage3_conv50_weight"
    output: "resnetv19_stage3_conv50_fwd"
    name: "resnetv19_stage3_conv50_fwd"
    op_type: "Conv"
    attribute {
      name: "dilations"
      ints: 1
      ints: 1
      type: INTS
    }
    attribute {
      name: "group"
      i: 1
      type: INT
    }
    attribute {
      name: "kernel_shape"
      ints: 3
      ints: 3
      type: INTS
    }
    attribute {
      name: "pads"
      ints: 1
      ints: 1
      ints: 1
      ints: 1
      type: INTS
    }
    attribute {
      name: "strides"
      ints: 1
      ints: 1
      type: INTS
    }
  }
  node {
    input: "resnetv19_stage3_conv50_fwd"
    input: "resnetv19_stage3_batchnorm50_gamma"
    input: "resnetv19_stage3_batchnorm50_beta"
    input: "resnetv19_stage3_batchnorm50_running_mean"
    input: "resnetv19_stage3_batchnorm50_running_var"
    output: "resnetv19_stage3_batchnorm50_fwd"
    name: "resnetv19_stage3_batchnorm50_fwd"
    op_type: "BatchNormalization"
    attribute {
      name: "epsilon"
      f: 1e-05
      type: FLOAT
    }
    attribute {
      name: "momentum"
      f: 0.9
      type: FLOAT
    }
    attribute {
      name: "spatial"
      i: 1
      type: INT
    }
  }
  node {
    input: "resnetv19_stage3_batchnorm50_fwd"
    output: "resnetv19_stage3_relu33_fwd"
    name: "resnetv19_stage3_relu33_fwd"
    op_type: "Relu"
  }
  node {
    input: "resnetv19_stage3_relu33_fwd"
    input: "resnetv19_stage3_conv51_weight"
    input: "resnetv19_stage3_conv51_bias"
    output: "resnetv19_stage3_conv51_fwd"
    name: "resnetv19_stage3_conv51_fwd"
    op_type: "Conv"
    attribute {
      name: "dilations"
      ints: 1
      ints: 1
      type: INTS
    }
    attribute {
      name: "group"
      i: 1
      type: INT
    }
    attribute {
      name: "kernel_shape"
      ints: 1
      ints: 1
      type: INTS
    }
    attribute {
      name: "pads"
      ints: 0
      ints: 0
      ints: 0
      ints: 0
      type: INTS
    }
    attribute {
      name: "strides"
      ints: 1
      ints: 1
      type: INTS
    }
  }
  node {
    input: "resnetv19_stage3_conv51_fwd"
    input: "resnetv19_stage3_batchnorm51_gamma"
    input: "resnetv19_stage3_batchnorm51_beta"
    input: "resnetv19_stage3_batchnorm51_running_mean"
    input: "resnetv19_stage3_batchnorm51_running_var"
    output: "resnetv19_stage3_batchnorm51_fwd"
    name: "resnetv19_stage3_batchnorm51_fwd"
    op_type: "BatchNormalization"
    attribute {
      name: "epsilon"
      f: 1e-05
      type: FLOAT
    }
    attribute {
      name: "momentum"
      f: 0.9
      type: FLOAT
    }
    attribute {
      name: "spatial"
      i: 1
      type: INT
    }
  }
  node {
    input: "resnetv19_stage3_batchnorm51_fwd"
    input: "resnetv19_stage3_activation15"
    output: "resnetv19_stage3__plus16"
    name: "resnetv19_stage3__plus16"
    op_type: "Add"
  }
  node {
    input: "resnetv19_stage3__plus16"
    output: "resnetv19_stage3_activation16"
    name: "resnetv19_stage3_activation16"
    op_type: "Relu"
  }
  node {
    input: "resnetv19_stage3_activation16"
    input: "resnetv19_stage3_conv52_weight"
    input: "resnetv19_stage3_conv52_bias"
    output: "resnetv19_stage3_conv52_fwd"
    name: "resnetv19_stage3_conv52_fwd"
    op_type: "Conv"
    attribute {
      name: "dilations"
      ints: 1
      ints: 1
      type: INTS
    }
    attribute {
      name: "group"
      i: 1
      type: INT
    }
    attribute {
      name: "kernel_shape"
      ints: 1
      ints: 1
      type: INTS
    }
    attribute {
      name: "pads"
      ints: 0
      ints: 0
      ints: 0
      ints: 0
      type: INTS
    }
    attribute {
      name: "strides"
      ints: 1
      ints: 1
      type: INTS
    }
  }
  node {
    input: "resnetv19_stage3_conv52_fwd"
    input: "resnetv19_stage3_batchnorm52_gamma"
    input: "resnetv19_stage3_batchnorm52_beta"
    input: "resnetv19_stage3_batchnorm52_running_mean"
    input: "resnetv19_stage3_batchnorm52_running_var"
    output: "resnetv19_stage3_batchnorm52_fwd"
    name: "resnetv19_stage3_batchnorm52_fwd"
    op_type: "BatchNormalization"
    attribute {
      name: "epsilon"
      f: 1e-05
      type: FLOAT
    }
    attribute {
      name: "momentum"
      f: 0.9
      type: FLOAT
    }
    attribute {
      name: "spatial"
      i: 1
      type: INT
    }
  }
  node {
    input: "resnetv19_stage3_batchnorm52_fwd"
    output: "resnetv19_stage3_relu34_fwd"
    name: "resnetv19_stage3_relu34_fwd"
    op_type: "Relu"
  }
  node {
    input: "resnetv19_stage3_relu34_fwd"
    input: "resnetv19_stage3_conv53_weight"
    output: "resnetv19_stage3_conv53_fwd"
    name: "resnetv19_stage3_conv53_fwd"
    op_type: "Conv"
    attribute {
      name: "dilations"
      ints: 1
      ints: 1
      type: INTS
    }
    attribute {
      name: "group"
      i: 1
      type: INT
    }
    attribute {
      name: "kernel_shape"
      ints: 3
      ints: 3
      type: INTS
    }
    attribute {
      name: "pads"
      ints: 1
      ints: 1
      ints: 1
      ints: 1
      type: INTS
    }
    attribute {
      name: "strides"
      ints: 1
      ints: 1
      type: INTS
    }
  }
  node {
    input: "resnetv19_stage3_conv53_fwd"
    input: "resnetv19_stage3_batchnorm53_gamma"
    input: "resnetv19_stage3_batchnorm53_beta"
    input: "resnetv19_stage3_batchnorm53_running_mean"
    input: "resnetv19_stage3_batchnorm53_running_var"
    output: "resnetv19_stage3_batchnorm53_fwd"
    name: "resnetv19_stage3_batchnorm53_fwd"
    op_type: "BatchNormalization"
    attribute {
      name: "epsilon"
      f: 1e-05
      type: FLOAT
    }
    attribute {
      name: "momentum"
      f: 0.9
      type: FLOAT
    }
    attribute {
      name: "spatial"
      i: 1
      type: INT
    }
  }
  node {
    input: "resnetv19_stage3_batchnorm53_fwd"
    output: "resnetv19_stage3_relu35_fwd"
    name: "resnetv19_stage3_relu35_fwd"
    op_type: "Relu"
  }
  node {
    input: "resnetv19_stage3_relu35_fwd"
    input: "resnetv19_stage3_conv54_weight"
    input: "resnetv19_stage3_conv54_bias"
    output: "resnetv19_stage3_conv54_fwd"
    name: "resnetv19_stage3_conv54_fwd"
    op_type: "Conv"
    attribute {
      name: "dilations"
      ints: 1
      ints: 1
      type: INTS
    }
    attribute {
      name: "group"
      i: 1
      type: INT
    }
    attribute {
      name: "kernel_shape"
      ints: 1
      ints: 1
      type: INTS
    }
    attribute {
      name: "pads"
      ints: 0
      ints: 0
      ints: 0
      ints: 0
      type: INTS
    }
    attribute {
      name: "strides"
      ints: 1
      ints: 1
      type: INTS
    }
  }
  node {
    input: "resnetv19_stage3_conv54_fwd"
    input: "resnetv19_stage3_batchnorm54_gamma"
    input: "resnetv19_stage3_batchnorm54_beta"
    input: "resnetv19_stage3_batchnorm54_running_mean"
    input: "resnetv19_stage3_batchnorm54_running_var"
    output: "resnetv19_stage3_batchnorm54_fwd"
    name: "resnetv19_stage3_batchnorm54_fwd"
    op_type: "BatchNormalization"
    attribute {
      name: "epsilon"
      f: 1e-05
      type: FLOAT
    }
    attribute {
      name: "momentum"
      f: 0.9
      type: FLOAT
    }
    attribute {
      name: "spatial"
      i: 1
      type: INT
    }
  }
  node {
    input: "resnetv19_stage3_batchnorm54_fwd"
    input: "resnetv19_stage3_activation16"
    output: "resnetv19_stage3__plus17"
    name: "resnetv19_stage3__plus17"
    op_type: "Add"
  }
  node {
    input: "resnetv19_stage3__plus17"
    output: "resnetv19_stage3_activation17"
    name: "resnetv19_stage3_activation17"
    op_type: "Relu"
  }
  node {
    input: "resnetv19_stage3_activation17"
    input: "resnetv19_stage3_conv55_weight"
    input: "resnetv19_stage3_conv55_bias"
    output: "resnetv19_stage3_conv55_fwd"
    name: "resnetv19_stage3_conv55_fwd"
    op_type: "Conv"
    attribute {
      name: "dilations"
      ints: 1
      ints: 1
      type: INTS
    }
    attribute {
      name: "group"
      i: 1
      type: INT
    }
    attribute {
      name: "kernel_shape"
      ints: 1
      ints: 1
      type: INTS
    }
    attribute {
      name: "pads"
      ints: 0
      ints: 0
      ints: 0
      ints: 0
      type: INTS
    }
    attribute {
      name: "strides"
      ints: 1
      ints: 1
      type: INTS
    }
  }
  node {
    input: "resnetv19_stage3_conv55_fwd"
    input: "resnetv19_stage3_batchnorm55_gamma"
    input: "resnetv19_stage3_batchnorm55_beta"
    input: "resnetv19_stage3_batchnorm55_running_mean"
    input: "resnetv19_stage3_batchnorm55_running_var"
    output: "resnetv19_stage3_batchnorm55_fwd"
    name: "resnetv19_stage3_batchnorm55_fwd"
    op_type: "BatchNormalization"
    attribute {
      name: "epsilon"
      f: 1e-05
      type: FLOAT
    }
    attribute {
      name: "momentum"
      f: 0.9
      type: FLOAT
    }
    attribute {
      name: "spatial"
      i: 1
      type: INT
    }
  }
  node {
    input: "resnetv19_stage3_batchnorm55_fwd"
    output: "resnetv19_stage3_relu36_fwd"
    name: "resnetv19_stage3_relu36_fwd"
    op_type: "Relu"
  }
  node {
    input: "resnetv19_stage3_relu36_fwd"
    input: "resnetv19_stage3_conv56_weight"
    output: "resnetv19_stage3_conv56_fwd"
    name: "resnetv19_stage3_conv56_fwd"
    op_type: "Conv"
    attribute {
      name: "dilations"
      ints: 1
      ints: 1
      type: INTS
    }
    attribute {
      name: "group"
      i: 1
      type: INT
    }
    attribute {
      name: "kernel_shape"
      ints: 3
      ints: 3
      type: INTS
    }
    attribute {
      name: "pads"
      ints: 1
      ints: 1
      ints: 1
      ints: 1
      type: INTS
    }
    attribute {
      name: "strides"
      ints: 1
      ints: 1
      type: INTS
    }
  }
  node {
    input: "resnetv19_stage3_conv56_fwd"
    input: "resnetv19_stage3_batchnorm56_gamma"
    input: "resnetv19_stage3_batchnorm56_beta"
    input: "resnetv19_stage3_batchnorm56_running_mean"
    input: "resnetv19_stage3_batchnorm56_running_var"
    output: "resnetv19_stage3_batchnorm56_fwd"
    name: "resnetv19_stage3_batchnorm56_fwd"
    op_type: "BatchNormalization"
    attribute {
      name: "epsilon"
      f: 1e-05
      type: FLOAT
    }
    attribute {
      name: "momentum"
      f: 0.9
      type: FLOAT
    }
    attribute {
      name: "spatial"
      i: 1
      type: INT
    }
  }
  node {
    input: "resnetv19_stage3_batchnorm56_fwd"
    output: "resnetv19_stage3_relu37_fwd"
    name: "resnetv19_stage3_relu37_fwd"
    op_type: "Relu"
  }
  node {
    input: "resnetv19_stage3_relu37_fwd"
    input: "resnetv19_stage3_conv57_weight"
    input: "resnetv19_stage3_conv57_bias"
    output: "resnetv19_stage3_conv57_fwd"
    name: "resnetv19_stage3_conv57_fwd"
    op_type: "Conv"
    attribute {
      name: "dilations"
      ints: 1
      ints: 1
      type: INTS
    }
    attribute {
      name: "group"
      i: 1
      type: INT
    }
    attribute {
      name: "kernel_shape"
      ints: 1
      ints: 1
      type: INTS
    }
    attribute {
      name: "pads"
      ints: 0
      ints: 0
      ints: 0
      ints: 0
      type: INTS
    }
    attribute {
      name: "strides"
      ints: 1
      ints: 1
      type: INTS
    }
  }
  node {
    input: "resnetv19_stage3_conv57_fwd"
    input: "resnetv19_stage3_batchnorm57_gamma"
    input: "resnetv19_stage3_batchnorm57_beta"
    input: "resnetv19_stage3_batchnorm57_running_mean"
    input: "resnetv19_stage3_batchnorm57_running_var"
    output: "resnetv19_stage3_batchnorm57_fwd"
    name: "resnetv19_stage3_batchnorm57_fwd"
    op_type: "BatchNormalization"
    attribute {
      name: "epsilon"
      f: 1e-05
      type: FLOAT
    }
    attribute {
      name: "momentum"
      f: 0.9
      type: FLOAT
    }
    attribute {
      name: "spatial"
      i: 1
      type: INT
    }
  }
  node {
    input: "resnetv19_stage3_batchnorm57_fwd"
    input: "resnetv19_stage3_activation17"
    output: "resnetv19_stage3__plus18"
    name: "resnetv19_stage3__plus18"
    op_type: "Add"
  }
  node {
    input: "resnetv19_stage3__plus18"
    output: "resnetv19_stage3_activation18"
    name: "resnetv19_stage3_activation18"
    op_type: "Relu"
  }
  node {
    input: "resnetv19_stage3_activation18"
    input: "resnetv19_stage3_conv58_weight"
    input: "resnetv19_stage3_conv58_bias"
    output: "resnetv19_stage3_conv58_fwd"
    name: "resnetv19_stage3_conv58_fwd"
    op_type: "Conv"
    attribute {
      name: "dilations"
      ints: 1
      ints: 1
      type: INTS
    }
    attribute {
      name: "group"
      i: 1
      type: INT
    }
    attribute {
      name: "kernel_shape"
      ints: 1
      ints: 1
      type: INTS
    }
    attribute {
      name: "pads"
      ints: 0
      ints: 0
      ints: 0
      ints: 0
      type: INTS
    }
    attribute {
      name: "strides"
      ints: 1
      ints: 1
      type: INTS
    }
  }
  node {
    input: "resnetv19_stage3_conv58_fwd"
    input: "resnetv19_stage3_batchnorm58_gamma"
    input: "resnetv19_stage3_batchnorm58_beta"
    input: "resnetv19_stage3_batchnorm58_running_mean"
    input: "resnetv19_stage3_batchnorm58_running_var"
    output: "resnetv19_stage3_batchnorm58_fwd"
    name: "resnetv19_stage3_batchnorm58_fwd"
    op_type: "BatchNormalization"
    attribute {
      name: "epsilon"
      f: 1e-05
      type: FLOAT
    }
    attribute {
      name: "momentum"
      f: 0.9
      type: FLOAT
    }
    attribute {
      name: "spatial"
      i: 1
      type: INT
    }
  }
  node {
    input: "resnetv19_stage3_batchnorm58_fwd"
    output: "resnetv19_stage3_relu38_fwd"
    name: "resnetv19_stage3_relu38_fwd"
    op_type: "Relu"
  }
  node {
    input: "resnetv19_stage3_relu38_fwd"
    input: "resnetv19_stage3_conv59_weight"
    output: "resnetv19_stage3_conv59_fwd"
    name: "resnetv19_stage3_conv59_fwd"
    op_type: "Conv"
    attribute {
      name: "dilations"
      ints: 1
      ints: 1
      type: INTS
    }
    attribute {
      name: "group"
      i: 1
      type: INT
    }
    attribute {
      name: "kernel_shape"
      ints: 3
      ints: 3
      type: INTS
    }
    attribute {
      name: "pads"
      ints: 1
      ints: 1
      ints: 1
      ints: 1
      type: INTS
    }
    attribute {
      name: "strides"
      ints: 1
      ints: 1
      type: INTS
    }
  }
  node {
    input: "resnetv19_stage3_conv59_fwd"
    input: "resnetv19_stage3_batchnorm59_gamma"
    input: "resnetv19_stage3_batchnorm59_beta"
    input: "resnetv19_stage3_batchnorm59_running_mean"
    input: "resnetv19_stage3_batchnorm59_running_var"
    output: "resnetv19_stage3_batchnorm59_fwd"
    name: "resnetv19_stage3_batchnorm59_fwd"
    op_type: "BatchNormalization"
    attribute {
      name: "epsilon"
      f: 1e-05
      type: FLOAT
    }
    attribute {
      name: "momentum"
      f: 0.9
      type: FLOAT
    }
    attribute {
      name: "spatial"
      i: 1
      type: INT
    }
  }
  node {
    input: "resnetv19_stage3_batchnorm59_fwd"
    output: "resnetv19_stage3_relu39_fwd"
    name: "resnetv19_stage3_relu39_fwd"
    op_type: "Relu"
  }
  node {
    input: "resnetv19_stage3_relu39_fwd"
    input: "resnetv19_stage3_conv60_weight"
    input: "resnetv19_stage3_conv60_bias"
    output: "resnetv19_stage3_conv60_fwd"
    name: "resnetv19_stage3_conv60_fwd"
    op_type: "Conv"
    attribute {
      name: "dilations"
      ints: 1
      ints: 1
      type: INTS
    }
    attribute {
      name: "group"
      i: 1
      type: INT
    }
    attribute {
      name: "kernel_shape"
      ints: 1
      ints: 1
      type: INTS
    }
    attribute {
      name: "pads"
      ints: 0
      ints: 0
      ints: 0
      ints: 0
      type: INTS
    }
    attribute {
      name: "strides"
      ints: 1
      ints: 1
      type: INTS
    }
  }
  node {
    input: "resnetv19_stage3_conv60_fwd"
    input: "resnetv19_stage3_batchnorm60_gamma"
    input: "resnetv19_stage3_batchnorm60_beta"
    input: "resnetv19_stage3_batchnorm60_running_mean"
    input: "resnetv19_stage3_batchnorm60_running_var"
    output: "resnetv19_stage3_batchnorm60_fwd"
    name: "resnetv19_stage3_batchnorm60_fwd"
    op_type: "BatchNormalization"
    attribute {
      name: "epsilon"
      f: 1e-05
      type: FLOAT
    }
    attribute {
      name: "momentum"
      f: 0.9
      type: FLOAT
    }
    attribute {
      name: "spatial"
      i: 1
      type: INT
    }
  }
  node {
    input: "resnetv19_stage3_batchnorm60_fwd"
    input: "resnetv19_stage3_activation18"
    output: "resnetv19_stage3__plus19"
    name: "resnetv19_stage3__plus19"
    op_type: "Add"
  }
  node {
    input: "resnetv19_stage3__plus19"
    output: "resnetv19_stage3_activation19"
    name: "resnetv19_stage3_activation19"
    op_type: "Relu"
  }
  node {
    input: "resnetv19_stage3_activation19"
    input: "resnetv19_stage3_conv61_weight"
    input: "resnetv19_stage3_conv61_bias"
    output: "resnetv19_stage3_conv61_fwd"
    name: "resnetv19_stage3_conv61_fwd"
    op_type: "Conv"
    attribute {
      name: "dilations"
      ints: 1
      ints: 1
      type: INTS
    }
    attribute {
      name: "group"
      i: 1
      type: INT
    }
    attribute {
      name: "kernel_shape"
      ints: 1
      ints: 1
      type: INTS
    }
    attribute {
      name: "pads"
      ints: 0
      ints: 0
      ints: 0
      ints: 0
      type: INTS
    }
    attribute {
      name: "strides"
      ints: 1
      ints: 1
      type: INTS
    }
  }
  node {
    input: "resnetv19_stage3_conv61_fwd"
    input: "resnetv19_stage3_batchnorm61_gamma"
    input: "resnetv19_stage3_batchnorm61_beta"
    input: "resnetv19_stage3_batchnorm61_running_mean"
    input: "resnetv19_stage3_batchnorm61_running_var"
    output: "resnetv19_stage3_batchnorm61_fwd"
    name: "resnetv19_stage3_batchnorm61_fwd"
    op_type: "BatchNormalization"
    attribute {
      name: "epsilon"
      f: 1e-05
      type: FLOAT
    }
    attribute {
      name: "momentum"
      f: 0.9
      type: FLOAT
    }
    attribute {
      name: "spatial"
      i: 1
      type: INT
    }
  }
  node {
    input: "resnetv19_stage3_batchnorm61_fwd"
    output: "resnetv19_stage3_relu40_fwd"
    name: "resnetv19_stage3_relu40_fwd"
    op_type: "Relu"
  }
  node {
    input: "resnetv19_stage3_relu40_fwd"
    input: "resnetv19_stage3_conv62_weight"
    output: "resnetv19_stage3_conv62_fwd"
    name: "resnetv19_stage3_conv62_fwd"
    op_type: "Conv"
    attribute {
      name: "dilations"
      ints: 1
      ints: 1
      type: INTS
    }
    attribute {
      name: "group"
      i: 1
      type: INT
    }
    attribute {
      name: "kernel_shape"
      ints: 3
      ints: 3
      type: INTS
    }
    attribute {
      name: "pads"
      ints: 1
      ints: 1
      ints: 1
      ints: 1
      type: INTS
    }
    attribute {
      name: "strides"
      ints: 1
      ints: 1
      type: INTS
    }
  }
  node {
    input: "resnetv19_stage3_conv62_fwd"
    input: "resnetv19_stage3_batchnorm62_gamma"
    input: "resnetv19_stage3_batchnorm62_beta"
    input: "resnetv19_stage3_batchnorm62_running_mean"
    input: "resnetv19_stage3_batchnorm62_running_var"
    output: "resnetv19_stage3_batchnorm62_fwd"
    name: "resnetv19_stage3_batchnorm62_fwd"
    op_type: "BatchNormalization"
    attribute {
      name: "epsilon"
      f: 1e-05
      type: FLOAT
    }
    attribute {
      name: "momentum"
      f: 0.9
      type: FLOAT
    }
    attribute {
      name: "spatial"
      i: 1
      type: INT
    }
  }
  node {
    input: "resnetv19_stage3_batchnorm62_fwd"
    output: "resnetv19_stage3_relu41_fwd"
    name: "resnetv19_stage3_relu41_fwd"
    op_type: "Relu"
  }
  node {
    input: "resnetv19_stage3_relu41_fwd"
    input: "resnetv19_stage3_conv63_weight"
    input: "resnetv19_stage3_conv63_bias"
    output: "resnetv19_stage3_conv63_fwd"
    name: "resnetv19_stage3_conv63_fwd"
    op_type: "Conv"
    attribute {
      name: "dilations"
      ints: 1
      ints: 1
      type: INTS
    }
    attribute {
      name: "group"
      i: 1
      type: INT
    }
    attribute {
      name: "kernel_shape"
      ints: 1
      ints: 1
      type: INTS
    }
    attribute {
      name: "pads"
      ints: 0
      ints: 0
      ints: 0
      ints: 0
      type: INTS
    }
    attribute {
      name: "strides"
      ints: 1
      ints: 1
      type: INTS
    }
  }
  node {
    input: "resnetv19_stage3_conv63_fwd"
    input: "resnetv19_stage3_batchnorm63_gamma"
    input: "resnetv19_stage3_batchnorm63_beta"
…
    name: "resnetv19_stage3_conv82_bias"
    type {
      tensor_type {
        elem_type: 1
        shape {
          dim {
            dim_value: 256
          }
        }
      }
    }
  }
  input {
    name: "resnetv19_stage3_batchnorm82_gamma"
    type {
      tensor_type {
        elem_type: 1
        shape {
          dim {
            dim_value: 256
          }
        }
      }
    }
  }
  input {
    name: "resnetv19_stage3_batchnorm82_beta"
    type {
      tensor_type {
        elem_type: 1
        shape {
          dim {
            dim_value: 256
          }
        }
      }
    }
  }
  input {
    name: "resnetv19_stage3_batchnorm82_running_mean"
    type {
      tensor_type {
        elem_type: 1
        shape {
          dim {
            dim_value: 256
          }
        }
      }
    }
  }
  input {
    name: "resnetv19_stage3_batchnorm82_running_var"
    type {
      tensor_type {
        elem_type: 1
        shape {
          dim {
            dim_value: 256
          }
        }
      }
    }
  }
  input {
    name: "resnetv19_stage3_conv83_weight"
    type {
      tensor_type {
        elem_type: 1
        shape {
          dim {
            dim_value: 256
          }
          dim {
            dim_value: 256
          }
          dim {
            dim_value: 3
          }
          dim {
            dim_value: 3
          }
        }
      }
    }
  }
  input {
    name: "resnetv19_stage3_batchnorm83_gamma"
    type {
      tensor_type {
        elem_type: 1
        shape {
          dim {
            dim_value: 256
          }
        }
      }
    }
  }
  input {
    name: "resnetv19_stage3_batchnorm83_beta"
    type {
      tensor_type {
        elem_type: 1
        shape {
          dim {
            dim_value: 256
          }
        }
      }
    }
  }
  input {
    name: "resnetv19_stage3_batchnorm83_running_mean"
    type {
      tensor_type {
        elem_type: 1
        shape {
          dim {
            dim_value: 256
          }
        }
      }
    }
  }
  input {
    name: "resnetv19_stage3_batchnorm83_running_var"
    type {
      tensor_type {
        elem_type: 1
        shape {
          dim {
            dim_value: 256
          }
        }
      }
    }
  }
  input {
    name: "resnetv19_stage3_conv84_weight"
    type {
      tensor_type {
        elem_type: 1
        shape {
          dim {
            dim_value: 1024
          }
          dim {
            dim_value: 256
          }
          dim {
            dim_value: 1
          }
          dim {
            dim_value: 1
          }
        }
      }
    }
  }
  input {
    name: "resnetv19_stage3_conv84_bias"
    type {
      tensor_type {
        elem_type: 1
        shape {
          dim {
            dim_value: 1024
          }
        }
      }
    }
  }
  input {
    name: "resnetv19_stage3_batchnorm84_gamma"
    type {
      tensor_type {
        elem_type: 1
        shape {
          dim {
            dim_value: 1024
          }
        }
      }
    }
  }
  input {
    name: "resnetv19_stage3_batchnorm84_beta"
    type {
      tensor_type {
        elem_type: 1
        shape {
          dim {
            dim_value: 1024
          }
        }
      }
    }
  }
  input {
    name: "resnetv19_stage3_batchnorm84_running_mean"
    type {
      tensor_type {
        elem_type: 1
        shape {
          dim {
            dim_value: 1024
          }
        }
      }
    }
  }
  input {
    name: "resnetv19_stage3_batchnorm84_running_var"
    type {
      tensor_type {
        elem_type: 1
        shape {
          dim {
            dim_value: 1024
          }
        }
      }
    }
  }
  input {
    name: "resnetv19_stage3_conv85_weight"
    type {
      tensor_type {
        elem_type: 1
        shape {
          dim {
            dim_value: 256
          }
          dim {
            dim_value: 1024
          }
          dim {
            dim_value: 1
          }
          dim {
            dim_value: 1
          }
        }
      }
    }
  }
  input {
    name: "resnetv19_stage3_conv85_bias"
    type {
      tensor_type {
        elem_type: 1
        shape {
          dim {
            dim_value: 256
          }
        }
      }
    }
  }
  input {
    name: "resnetv19_stage3_batchnorm85_gamma"
    type {
      tensor_type {
        elem_type: 1
        shape {
          dim {
            dim_value: 256
          }
        }
      }
    }
  }
  input {
    name: "resnetv19_stage3_batchnorm85_beta"
    type {
      tensor_type {
        elem_type: 1
        shape {
          dim {
            dim_value: 256
          }
        }
      }
    }
  }
  input {
    name: "resnetv19_stage3_batchnorm85_running_mean"
    type {
      tensor_type {
        elem_type: 1
        shape {
          dim {
            dim_value: 256
          }
        }
      }
    }
  }
  input {
    name: "resnetv19_stage3_batchnorm85_running_var"
    type {
      tensor_type {
        elem_type: 1
        shape {
          dim {
            dim_value: 256
          }
        }
      }
    }
  }
  input {
    name: "resnetv19_stage3_conv86_weight"
    type {
      tensor_type {
        elem_type: 1
        shape {
          dim {
            dim_value: 256
          }
          dim {
            dim_value: 256
          }
          dim {
            dim_value: 3
          }
          dim {
            dim_value: 3
          }
        }
      }
    }
  }
  input {
    name: "resnetv19_stage3_batchnorm86_gamma"
    type {
      tensor_type {
        elem_type: 1
        shape {
          dim {
            dim_value: 256
          }
        }
      }
    }
  }
  input {
    name: "resnetv19_stage3_batchnorm86_beta"
    type {
      tensor_type {
        elem_type: 1
        shape {
          dim {
            dim_value: 256
          }
        }
      }
    }
  }
  input {
    name: "resnetv19_stage3_batchnorm86_running_mean"
    type {
      tensor_type {
        elem_type: 1
        shape {
          dim {
            dim_value: 256
          }
        }
      }
    }
  }
  input {
    name: "resnetv19_stage3_batchnorm86_running_var"
    type {
      tensor_type {
        elem_type: 1
        shape {
          dim {
            dim_value: 256
          }
        }
      }
    }
  }
  input {
    name: "resnetv19_stage3_conv87_weight"
    type {
      tensor_type {
        elem_type: 1
        shape {
          dim {
            dim_value: 1024
          }
          dim {
            dim_value: 256
          }
          dim {
            dim_value: 1
          }
          dim {
            dim_value: 1
          }
        }
      }
    }
  }
  input {
    name: "resnetv19_stage3_conv87_bias"
    type {
      tensor_type {
        elem_type: 1
        shape {
          dim {
            dim_value: 1024
          }
        }
      }
    }
  }
  input {
    name: "resnetv19_stage3_batchnorm87_gamma"
    type {
      tensor_type {
        elem_type: 1
        shape {
          dim {
            dim_value: 1024
          }
        }
      }
    }
  }
  input {
    name: "resnetv19_stage3_batchnorm87_beta"
    type {
      tensor_type {
        elem_type: 1
        shape {
          dim {
            dim_value: 1024
          }
        }
      }
    }
  }
  input {
    name: "resnetv19_stage3_batchnorm87_running_mean"
    type {
      tensor_type {
        elem_type: 1
        shape {
          dim {
            dim_value: 1024
          }
        }
      }
    }
  }
  input {
    name: "resnetv19_stage3_batchnorm87_running_var"
    type {
      tensor_type {
        elem_type: 1
        shape {
          dim {
            dim_value: 1024
          }
        }
      }
    }
  }
  input {
    name: "resnetv19_stage3_conv88_weight"
    type {
      tensor_type {
        elem_type: 1
        shape {
          dim {
            dim_value: 256
          }
          dim {
            dim_value: 1024
          }
          dim {
            dim_value: 1
          }
          dim {
            dim_value: 1
          }
        }
      }
    }
  }
  input {
    name: "resnetv19_stage3_conv88_bias"
    type {
      tensor_type {
        elem_type: 1
        shape {
          dim {
            dim_value: 256
          }
        }
      }
    }
  }
  input {
    name: "resnetv19_stage3_batchnorm88_gamma"
    type {
      tensor_type {
        elem_type: 1
        shape {
          dim {
            dim_value: 256
          }
        }
      }
    }
  }
  input {
    name: "resnetv19_stage3_batchnorm88_beta"
    type {
      tensor_type {
        elem_type: 1
        shape {
          dim {
            dim_value: 256
          }
        }
      }
    }
  }
  input {
    name: "resnetv19_stage3_batchnorm88_running_mean"
    type {
      tensor_type {
        elem_type: 1
        shape {
          dim {
            dim_value: 256
          }
        }
      }
    }
  }
  input {
    name: "resnetv19_stage3_batchnorm88_running_var"
    type {
      tensor_type {
        elem_type: 1
        shape {
          dim {
            dim_value: 256
          }
        }
      }
    }
  }
  input {
    name: "resnetv19_stage3_conv89_weight"
    type {
      tensor_type {
        elem_type: 1
        shape {
          dim {
            dim_value: 256
          }
          dim {
            dim_value: 256
          }
          dim {
            dim_value: 3
          }
          dim {
            dim_value: 3
          }
        }
      }
    }
  }
  input {
    name: "resnetv19_stage3_batchnorm89_gamma"
    type {
      tensor_type {
        elem_type: 1
        shape {
          dim {
            dim_value: 256
          }
        }
      }
    }
  }
  input {
    name: "resnetv19_stage3_batchnorm89_beta"
    type {
      tensor_type {
        elem_type: 1
        shape {
          dim {
            dim_value: 256
          }
        }
      }
    }
  }
  input {
    name: "resnetv19_stage3_batchnorm89_running_mean"
    type {
      tensor_type {
        elem_type: 1
        shape {
          dim {
            dim_value: 256
          }
        }
      }
    }
  }
  input {
    name: "resnetv19_stage3_batchnorm89_running_var"
    type {
      tensor_type {
        elem_type: 1
        shape {
          dim {
            dim_value: 256
          }
        }
      }
    }
  }
  input {
    name: "resnetv19_stage3_conv90_weight"
    type {
      tensor_type {
        elem_type: 1
        shape {
          dim {
            dim_value: 1024
          }
          dim {
            dim_value: 256
          }
          dim {
            dim_value: 1
          }
          dim {
            dim_value: 1
          }
        }
      }
    }
  }
  input {
    name: "resnetv19_stage3_conv90_bias"
    type {
      tensor_type {
        elem_type: 1
        shape {
          dim {
            dim_value: 1024
          }
        }
      }
    }
  }
  input {
    name: "resnetv19_stage3_batchnorm90_gamma"
    type {
      tensor_type {
        elem_type: 1
        shape {
          dim {
            dim_value: 1024
          }
        }
      }
    }
  }
  input {
    name: "resnetv19_stage3_batchnorm90_beta"
    type {
      tensor_type {
        elem_type: 1
        shape {
          dim {
            dim_value: 1024
          }
        }
      }
    }
  }
  input {
    name: "resnetv19_stage3_batchnorm90_running_mean"
    type {
      tensor_type {
        elem_type: 1
        shape {
          dim {
            dim_value: 1024
          }
        }
      }
    }
  }
  input {
    name: "resnetv19_stage3_batchnorm90_running_var"
    type {
      tensor_type {
        elem_type: 1
        shape {
          dim {
            dim_value: 1024
          }
        }
      }
    }
  }
  input {
    name: "resnetv19_stage3_conv91_weight"
    type {
      tensor_type {
        elem_type: 1
        shape {
          dim {
            dim_value: 256
          }
          dim {
            dim_value: 1024
          }
          dim {
            dim_value: 1
          }
          dim {
            dim_value: 1
          }
        }
      }
    }
  }
  input {
    name: "resnetv19_stage3_conv91_bias"
    type {
      tensor_type {
        elem_type: 1
        shape {
          dim {
            dim_value: 256
          }
        }
      }
    }
  }
  input {
    name: "resnetv19_stage3_batchnorm91_gamma"
    type {
      tensor_type {
        elem_type: 1
        shape {
          dim {
            dim_value: 256
          }
        }
      }
    }
  }
  input {
    name: "resnetv19_stage3_batchnorm91_beta"
    type {
      tensor_type {
        elem_type: 1
        shape {
          dim {
            dim_value: 256
          }
        }
      }
    }
  }
  input {
    name: "resnetv19_stage3_batchnorm91_running_mean"
    type {
      tensor_type {
        elem_type: 1
        shape {
          dim {
            dim_value: 256
          }
        }
      }
    }
  }
  input {
    name: "resnetv19_stage3_batchnorm91_running_var"
    type {
      tensor_type {
        elem_type: 1
        shape {
          dim {
            dim_value: 256
          }
        }
      }
    }
  }
  input {
    name: "resnetv19_stage3_conv92_weight"
    type {
      tensor_type {
        elem_type: 1
        shape {
          dim {
            dim_value: 256
          }
          dim {
            dim_value: 256
          }
          dim {
            dim_value: 3
          }
          dim {
            dim_value: 3
          }
        }
      }
    }
  }
  input {
    name: "resnetv19_stage3_batchnorm92_gamma"
    type {
      tensor_type {
        elem_type: 1
        shape {
          dim {
            dim_value: 256
          }
        }
      }
    }
  }
  input {
    name: "resnetv19_stage3_batchnorm92_beta"
    type {
      tensor_type {
        elem_type: 1
        shape {
          dim {
            dim_value: 256
          }
        }
      }
    }
  }
  input {
    name: "resnetv19_stage3_batchnorm92_running_mean"
    type {
      tensor_type {
        elem_type: 1
        shape {
          dim {
            dim_value: 256
          }
        }
      }
    }
  }
  input {
    name: "resnetv19_stage3_batchnorm92_running_var"
    type {
      tensor_type {
        elem_type: 1
        shape {
          dim {
            dim_value: 256
          }
        }
      }
    }
  }
  input {
    name: "resnetv19_stage3_conv93_weight"
    type {
      tensor_type {
        elem_type: 1
        shape {
          dim {
            dim_value: 1024
          }
          dim {
            dim_value: 256
          }
          dim {
            dim_value: 1
          }
          dim {
            dim_value: 1
          }
        }
      }
    }
  }
  input {
    name: "resnetv19_stage3_conv93_bias"
    type {
      tensor_type {
        elem_type: 1
        shape {
          dim {
            dim_value: 1024
          }
        }
      }
    }
  }
  input {
    name: "resnetv19_stage3_batchnorm93_gamma"
    type {
      tensor_type {
        elem_type: 1
        shape {
          dim {
            dim_value: 1024
          }
        }
      }
    }
  }
  input {
    name: "resnetv19_stage3_batchnorm93_beta"
    type {
      tensor_type {
        elem_type: 1
        shape {
          dim {
            dim_value: 1024
          }
        }
      }
    }
  }
  input {
    name: "resnetv19_stage3_batchnorm93_running_mean"
    type {
      tensor_type {
        elem_type: 1
        shape {
          dim {
            dim_value: 1024
          }
        }
      }
    }
  }
  input {
    name: "resnetv19_stage3_batchnorm93_running_var"
    type {
      tensor_type {
        elem_type: 1
        shape {
          dim {
            dim_value: 1024
          }
        }
      }
    }
  }
  input {
    name: "resnetv19_stage3_conv94_weight"
    type {
      tensor_type {
        elem_type: 1
        shape {
          dim {
            dim_value: 256
          }
          dim {
            dim_value: 1024
          }
          dim {
            dim_value: 1
          }
          dim {
            dim_value: 1
          }
        }
      }
    }
  }
  input {
    name: "resnetv19_stage3_conv94_bias"
    type {
      tensor_type {
        elem_type: 1
        shape {
          dim {
            dim_value: 256
          }
        }
      }
    }
  }
  input {
    name: "resnetv19_stage3_batchnorm94_gamma"
    type {
      tensor_type {
        elem_type: 1
        shape {
          dim {
            dim_value: 256
          }
        }
      }
    }
  }
  input {
    name: "resnetv19_stage3_batchnorm94_beta"
    type {
      tensor_type {
        elem_type: 1
        shape {
          dim {
            dim_value: 256
          }
        }
      }
    }
  }
  input {
    name: "resnetv19_stage3_batchnorm94_running_mean"
    type {
      tensor_type {
        elem_type: 1
        shape {
          dim {
            dim_value: 256
          }
        }
      }
    }
  }
  input {
    name: "resnetv19_stage3_batchnorm94_running_var"
    type {
      tensor_type {
        elem_type: 1
        shape {
          dim {
            dim_value: 256
          }
        }
      }
    }
  }
  input {
    name: "resnetv19_stage3_conv95_weight"
    type {
      tensor_type {
        elem_type: 1
        shape {
          dim {
            dim_value: 256
          }
          dim {
            dim_value: 256
          }
          dim {
            dim_value: 3
          }
          dim {
            dim_value: 3
          }
        }
      }
    }
  }
  input {
    name: "resnetv19_stage3_batchnorm95_gamma"
    type {
      tensor_type {
        elem_type: 1
        shape {
          dim {
            dim_value: 256
          }
        }
      }
    }
  }
  input {
    name: "resnetv19_stage3_batchnorm95_beta"
    type {
      tensor_type {
        elem_type: 1
        shape {
          dim {
            dim_value: 256
          }
        }
      }
    }
  }
  input {
    name: "resnetv19_stage3_batchnorm95_running_mean"
    type {
      tensor_type {
        elem_type: 1
        shape {
          dim {
            dim_value: 256
          }
        }
      }
    }
  }
  input {
    name: "resnetv19_stage3_batchnorm95_running_var"
    type {
      tensor_type {
        elem_type: 1
        shape {
          dim {
            dim_value: 256
          }
        }
      }
    }
  }
  input {
    name: "resnetv19_stage3_conv96_weight"
    type {
      tensor_type {
        elem_type: 1
        shape {
          dim {
            dim_value: 1024
          }
          dim {
            dim_value: 256
          }
          dim {
            dim_value: 1
          }
          dim {
            dim_value: 1
          }
        }
      }
    }
  }
  input {
    name: "resnetv19_stage3_conv96_bias"
    type {
      tensor_type {
        elem_type: 1
        shape {
          dim {
            dim_value: 1024
          }
        }
      }
    }
  }
  input {
    name: "resnetv19_stage3_batchnorm96_gamma"
    type {
      tensor_type {
        elem_type: 1
        shape {
          dim {
            dim_value: 1024
          }
        }
      }
    }
  }
  input {
    name: "resnetv19_stage3_batchnorm96_beta"
    type {
      tensor_type {
        elem_type: 1
        shape {
          dim {
            dim_value: 1024
          }
        }
      }
    }
  }
  input {
    name: "resnetv19_stage3_batchnorm96_running_mean"
    type {
      tensor_type {
        elem_type: 1
        shape {
          dim {
            dim_value: 1024
          }
        }
      }
    }
  }
  input {
    name: "resnetv19_stage3_batchnorm96_running_var"
    type {
      tensor_type {
        elem_type: 1
        shape {
          dim {
            dim_value: 1024
          }
        }
      }
    }
  }
  input {
    name: "resnetv19_stage3_conv97_weight"
    type {
      tensor_type {
        elem_type: 1
        shape {
          dim {
            dim_value: 256
          }
          dim {
            dim_value: 1024
          }
          dim {
            dim_value: 1
          }
          dim {
            dim_value: 1
          }
        }
      }
    }
  }
  input {
    name: "resnetv19_stage3_conv97_bias"
    type {
      tensor_type {
        elem_type: 1
        shape {
          dim {
            dim_value: 256
          }
        }
      }
    }
  }
  input {
    name: "resnetv19_stage3_batchnorm97_gamma"
    type {
      tensor_type {
        elem_type: 1
        shape {
          dim {
            dim_value: 256
          }
        }
      }
    }
  }
  input {
    name: "resnetv19_stage3_batchnorm97_beta"
    type {
      tensor_type {
        elem_type: 1
        shape {
          dim {
            dim_value: 256
          }
        }
      }
    }
  }
  input {
    name: "resnetv19_stage3_batchnorm97_running_mean"
    type {
      tensor_type {
        elem_type: 1
        shape {
          dim {
            dim_value: 256
          }
        }
      }
    }
  }
  input {
    name: "resnetv19_stage3_batchnorm97_running_var"
    type {
      tensor_type {
        elem_type: 1
        shape {
          dim {
            dim_value: 256
          }
        }
      }
    }
  }
  input {
    name: "resnetv19_stage3_conv98_weight"
    type {
      tensor_type {
        elem_type: 1
        shape {
          dim {
            dim_value: 256
          }
          dim {
            dim_value: 256
          }
          dim {
            dim_value: 3
          }
          dim {
            dim_value: 3
          }
        }
      }
    }
  }
  input {
    name: "resnetv19_stage3_batchnorm98_gamma"
    type {
      tensor_type {
        elem_type: 1
        shape {
          dim {
            dim_value: 256
          }
        }
      }
    }
  }
  input {
    name: "resnetv19_stage3_batchnorm98_beta"
    type {
      tensor_type {
        elem_type: 1
        shape {
          dim {
            dim_value: 256
          }
        }
      }
    }
  }
  input {
    name: "resnetv19_stage3_batchnorm98_running_mean"
    type {
      tensor_type {
        elem_type: 1
        shape {
          dim {
            dim_value: 256
          }
        }
      }
    }
  }
  input {
    name: "resnetv19_stage3_batchnorm98_running_var"
    type {
      tensor_type {
        elem_type: 1
        shape {
          dim {
            dim_value: 256
          }
        }
      }
    }
  }
  input {
    name: "resnetv19_stage3_conv99_weight"
    type {
      tensor_type {
        elem_type: 1
        shape {
          dim {
            dim_value: 1024
          }
          dim {
            dim_value: 256
          }
          dim {
            dim_value: 1
          }
          dim {
            dim_value: 1
          }
        }
      }
    }
  }
  input {
    name: "resnetv19_stage3_conv99_bias"
    type {
      tensor_type {
        elem_type: 1
        shape {
          dim {
            dim_value: 1024
          }
        }
      }
    }
  }
  input {
    name: "resnetv19_stage3_batchnorm99_gamma"
    type {
      tensor_type {
        elem_type: 1
        shape {
          dim {
            dim_value: 1024
          }
        }
      }
    }
  }
  input {
    name: "resnetv19_stage3_batchnorm99_beta"
    type {
      tensor_type {
        elem_type: 1
        shape {
          dim {
            dim_value: 1024
          }
        }
      }
    }
  }
  input {
    name: "resnetv19_stage3_batchnorm99_running_mean"
    type {
      tensor_type {
        elem_type: 1
        shape {
          dim {
            dim_value: 1024
          }
        }
      }
    }
  }
  input {
    name: "resnetv19_stage3_batchnorm99_running_var"
    type {
      tensor_type {
        elem_type: 1
        shape {
          dim {
            dim_value: 1024
          }
        }
      }
    }
  }
  input {
    name: "resnetv19_stage3_conv100_weight"
    type {
      tensor_type {
        elem_type: 1
        shape {
          dim {
            dim_value: 256
          }
          dim {
            dim_value: 1024
          }
          dim {
            dim_value: 1
          }
          dim {
            dim_value: 1
          }
        }
      }
    }
  }
  input {
    name: "resnetv19_stage3_conv100_bias"
    type {
      tensor_type {
        elem_type: 1
        shape {
          dim {
            dim_value: 256
          }
        }
      }
    }
  }
  input {
    name: "resnetv19_stage3_batchnorm100_gamma"
    type {
      tensor_type {
        elem_type: 1
        shape {
          dim {
            dim_value: 256
          }
        }
      }
    }
  }
  input {
    name: "resnetv19_stage3_batchnorm100_beta"
    type {
      tensor_type {
        elem_type: 1
        shape {
          dim {
            dim_value: 256
          }
        }
      }
    }
  }
  input {
    name: "resnetv19_stage3_batchnorm100_running_mean"
    type {
      tensor_type {
        elem_type: 1
        shape {
          dim {
            dim_value: 256
          }
        }
      }
    }
  }
  input {
    name: "resnetv19_stage3_batchnorm100_running_var"
    type {
      tensor_type {
        elem_type: 1
        shape {
          dim {
            dim_value: 256
          }
        }
      }
    }
  }
  input {
    name: "resnetv19_stage3_conv101_weight"
    type {
      tensor_type {
        elem_type: 1
        shape {
          dim {
            dim_value: 256
          }
          dim {
            dim_value: 256
          }
          dim {
            dim_value: 3
          }
          dim {
            dim_value: 3
          }
        }
      }
    }
  }
  input {
    name: "resnetv19_stage3_batchnorm101_gamma"
    type {
      tensor_type {
        elem_type: 1
        shape {
          dim {
            dim_value: 256
          }
        }
      }
    }
  }
  input {
    name: "resnetv19_stage3_batchnorm101_beta"
    type {
      tensor_type {
        elem_type: 1
        shape {
          dim {
            dim_value: 256
          }
        }
      }
    }
  }
  input {
    name: "resnetv19_stage3_batchnorm101_running_mean"
    type {
      tensor_type {
        elem_type: 1
        shape {
          dim {
            dim_value: 256
          }
        }
      }
    }
  }
  input {
    name: "resnetv19_stage3_batchnorm101_running_var"
    type {
      tensor_type {
        elem_type: 1
        shape {
          dim {
            dim_value: 256
          }
        }
      }
    }
  }
  input {
    name: "resnetv19_stage3_conv102_weight"
    type {
      tensor_type {
        elem_type: 1
        shape {
          dim {
            dim_value: 1024
          }
          dim {
            dim_value: 256
          }
          dim {
            dim_value: 1
          }
          dim {
            dim_value: 1
          }
        }
      }
    }
  }
  input {
    name: "resnetv19_stage3_conv102_bias"
    type {
      tensor_type {
        elem_type: 1
        shape {
          dim {
            dim_value: 1024
          }
        }
      }
    }
  }
  input {
    name: "resnetv19_stage3_batchnorm102_gamma"
    type {
      tensor_type {
        elem_type: 1
        shape {
          dim {
            dim_value: 1024
          }
        }
      }
    }
  }
  input {
    name: "resnetv19_stage3_batchnorm102_beta"
    type {
      tensor_type {
        elem_type: 1
        shape {
          dim {
            dim_value: 1024
          }
        }
      }
    }
  }
  input {
    name: "resnetv19_stage3_batchnorm102_running_mean"
    type {
      tensor_type {
        elem_type: 1
        shape {
          dim {
            dim_value: 1024
          }
        }
      }
    }
  }
  input {
    name: "resnetv19_stage3_batchnorm102_running_var"
    type {
      tensor_type {
        elem_type: 1
        shape {
          dim {
            dim_value: 1024
          }
        }
      }
    }
  }
  input {
    name: "resnetv19_stage3_conv103_weight"
    type {
      tensor_type {
        elem_type: 1
        shape {
          dim {
            dim_value: 256
          }
          dim {
            dim_value: 1024
          }
          dim {
            dim_value: 1
          }
          dim {
            dim_value: 1
          }
        }
      }
    }
  }
  input {
    name: "resnetv19_stage3_conv103_bias"
    type {
      tensor_type {
        elem_type: 1
        shape {
          dim {
            dim_value: 256
          }
        }
      }
    }
  }
  input {
    name: "resnetv19_stage3_batchnorm103_gamma"
    type {
      tensor_type {
        elem_type: 1
        shape {
          dim {
            dim_value: 256
          }
        }
      }
    }
  }
  input {
    name: "resnetv19_stage3_batchnorm103_beta"
    type {
      tensor_type {
        elem_type: 1
        shape {
          dim {
            dim_value: 256
          }
        }
      }
    }
  }
  input {
    name: "resnetv19_stage3_batchnorm103_running_mean"
    type {
      tensor_type {
        elem_type: 1
        shape {
          dim {
            dim_value: 256
          }
        }
      }
    }
  }
  input {
    name: "resnetv19_stage3_batchnorm103_running_var"
    type {
      tensor_type {
        elem_type: 1
        shape {
          dim {
            dim_value: 256
          }
        }
      }
    }
  }
  input {
    name: "resnetv19_stage3_conv104_weight"
    type {
      tensor_type {
        elem_type: 1
        shape {
          dim {
            dim_value: 256
          }
          dim {
            dim_value: 256
          }
          dim {
            dim_value: 3
          }
          dim {
            dim_value: 3
          }
        }
      }
    }
  }
  input {
    name: "resnetv19_stage3_batchnorm104_gamma"
    type {
      tensor_type {
        elem_type: 1
        shape {
          dim {
            dim_value: 256
          }
        }
      }
    }
  }
  input {
    name: "resnetv19_stage3_batchnorm104_beta"
    type {
      tensor_type {
        elem_type: 1
        shape {
          dim {
            dim_value: 256
          }
        }
      }
    }
  }
  input {
    name: "resnetv19_stage3_batchnorm104_running_mean"
    type {
      tensor_type {
        elem_type: 1
        shape {
          dim {
            dim_value: 256
          }
        }
      }
    }
  }
  input {
    name: "resnetv19_stage3_batchnorm104_running_var"
    type {
      tensor_type {
        elem_type: 1
        shape {
          dim {
            dim_value: 256
          }
        }
      }
    }
  }
  input {
    name: "resnetv19_stage3_conv105_weight"
    type {
      tensor_type {
        elem_type: 1
        shape {
          dim {
            dim_value: 1024
          }
          dim {
            dim_value: 256
          }
          dim {
            dim_value: 1
          }
          dim {
            dim_value: 1
          }
        }
      }
    }
  }
  input {
    name: "resnetv19_stage3_conv105_bias"
    type {
      tensor_type {
        elem_type: 1
        shape {
          dim {
            dim_value: 1024
          }
        }
      }
    }
  }
  input {
    name: "resnetv19_stage3_batchnorm105_gamma"
    type {
      tensor_type {
        elem_type: 1
        shape {
          dim {
            dim_value: 1024
          }
        }
      }
    }
  }
  input {
    name: "resnetv19_stage3_batchnorm105_beta"
    type {
      tensor_type {
        elem_type: 1
        shape {
          dim {
            dim_value: 1024
          }
        }
      }
    }
  }
  input {
    name: "resnetv19_stage3_batchnorm105_running_mean"
    type {
      tensor_type {
        elem_type: 1
        shape {
          dim {
            dim_value: 1024
          }
        }
      }
    }
  }
  input {
    name: "resnetv19_stage3_batchnorm105_running_var"
    type {
      tensor_type {
        elem_type: 1
        shape {
          dim {
            dim_value: 1024
          }
        }
      }
    }
  }
  input {
    name: "resnetv19_stage3_conv106_weight"
    type {
      tensor_type {
        elem_type: 1
        shape {
          dim {
            dim_value: 256
          }
          dim {
            dim_value: 1024
          }
          dim {
            dim_value: 1
          }
          dim {
            dim_value: 1
          }
        }
      }
    }
  }
  input {
    name: "resnetv19_stage3_conv106_bias"
    type {
      tensor_type {
        elem_type: 1
        shape {
          dim {
            dim_value: 256
          }
        }
      }
    }
  }
  input {
    name: "resnetv19_stage3_batchnorm106_gamma"
    type {
      tensor_type {
        elem_type: 1
        shape {
          dim {
            dim_value: 256
          }
        }
      }
    }
  }
  input {
    name: "resnetv19_stage3_batchnorm106_beta"
    type {
      tensor_type {
        elem_type: 1
        shape {
          dim {
            dim_value: 256
          }
        }
      }
    }
  }
  input {
    name: "resnetv19_stage3_batchnorm106_running_mean"
    type {
      tensor_type {
        elem_type: 1
        shape {
          dim {
            dim_value: 256
          }
        }
      }
    }
  }
  input {
    name: "resnetv19_stage3_batchnorm106_running_var"
    type {
      tensor_type {
        elem_type: 1
        shape {
          dim {
            dim_value: 256
          }
        }
      }
    }
  }
  input {
    name: "resnetv19_stage3_conv107_weight"
    type {
      tensor_type {
        elem_type: 1
        shape {
          dim {
            dim_value: 256
          }
          dim {
            dim_value: 256
          }
          dim {
            dim_value: 3
          }
          dim {
            dim_value: 3
          }
        }
      }
    }
  }
  input {
    name: "resnetv19_stage3_batchnorm107_gamma"
    type {
      tensor_type {
        elem_type: 1
        shape {
          dim {
            dim_value: 256
          }
        }
      }
    }
  }
  input {
    name: "resnetv19_stage3_batchnorm107_beta"
    type {
      tensor_type {
        elem_type: 1
        shape {
          dim {
            dim_value: 256
          }
        }
      }
    }
  }
  input {
    name: "resnetv19_stage3_batchnorm107_running_mean"
    type {
      tensor_type {
        elem_type: 1
        shape {
          dim {
            dim_value: 256
          }
        }
      }
    }
  }
  input {
    name: "resnetv19_stage3_batchnorm107_running_var"
    type {
      tensor_type {
        elem_type: 1
        shape {
          dim {
            dim_value: 256
          }
        }
      }
    }
  }
  input {
    name: "resnetv19_stage3_conv108_weight"
    type {
      tensor_type {
        elem_type: 1
        shape {
          dim {
            dim_value: 1024
          }
          dim {
            dim_value: 256
          }
          dim {
            dim_value: 1
          }
          dim {
            dim_value: 1
          }
        }
      }
    }
  }
  input {
    name: "resnetv19_stage3_conv108_bias"
    type {
      tensor_type {
        elem_type: 1
        shape {
          dim {
            dim_value: 1024
          }
        }
      }
    }
  }
  input {
    name: "resnetv19_stage3_batchnorm108_gamma"
    type {
      tensor_type {
        elem_type: 1
        shape {
          dim {
            dim_value: 1024
          }
        }
      }
    }
  }
  input {
    name: "resnetv19_stage3_batchnorm108_beta"
    type {
      tensor_type {
        elem_type: 1
        shape {
          dim {
            dim_value: 1024
          }
        }
      }
    }
  }
  input {
    name: "resnetv19_stage3_batchnorm108_running_mean"
    type {
      tensor_type {
        elem_type: 1
        shape {
          dim {
            dim_value: 1024
          }
        }
      }
    }
  }
  input {
    name: "resnetv19_stage3_batchnorm108_running_var"
    type {
      tensor_type {
        elem_type: 1
        shape {
          dim {
            dim_value: 1024
          }
        }
      }
    }
  }
  input {
    name: "resnetv19_stage4_conv0_weight"
    type {
      tensor_type {
        elem_type: 1
        shape {
          dim {
            dim_value: 512
          }
          dim {
            dim_value: 1024
          }
          dim {
            dim_value: 1
          }
          dim {
            dim_value: 1
          }
        }
      }
    }
  }
  input {
    name: "resnetv19_stage4_conv0_bias"
    type {
      tensor_type {
        elem_type: 1
        shape {
          dim {
            dim_value: 512
          }
        }
      }
    }
  }
  input {
    name: "resnetv19_stage4_batchnorm0_gamma"
    type {
      tensor_type {
        elem_type: 1
        shape {
          dim {
            dim_value: 512
          }
        }
      }
    }
  }
  input {
    name: "resnetv19_stage4_batchnorm0_beta"
    type {
      tensor_type {
        elem_type: 1
        shape {
          dim {
            dim_value: 512
          }
        }
      }
    }
  }
  input {
    name: "resnetv19_stage4_batchnorm0_running_mean"
    type {
      tensor_type {
        elem_type: 1
        shape {
          dim {
            dim_value: 512
          }
        }
      }
    }
  }
  input {
    name: "resnetv19_stage4_batchnorm0_running_var"
    type {
      tensor_type {
        elem_type: 1
        shape {
          dim {
            dim_value: 512
          }
        }
      }
    }
  }
  input {
    name: "resnetv19_stage4_conv1_weight"
    type {
      tensor_type {
        elem_type: 1
        shape {
          dim {
            dim_value: 512
          }
          dim {
            dim_value: 512
          }
          dim {
            dim_value: 3
          }
          dim {
            dim_value: 3
          }
        }
      }
    }
  }
  input {
    name: "resnetv19_stage4_batchnorm1_gamma"
    type {
      tensor_type {
        elem_type: 1
        shape {
          dim {
            dim_value: 512
          }
        }
      }
    }
  }
  input {
    name: "resnetv19_stage4_batchnorm1_beta"
    type {
      tensor_type {
        elem_type: 1
        shape {
          dim {
            dim_value: 512
          }
        }
      }
    }
  }
  input {
    name: "resnetv19_stage4_batchnorm1_running_mean"
    type {
      tensor_type {
        elem_type: 1
        shape {
          dim {
            dim_value: 512
          }
        }
      }
    }
  }
  input {
    name: "resnetv19_stage4_batchnorm1_running_var"
    type {
      tensor_type {
        elem_type: 1
        shape {
          dim {
            dim_value: 512
          }
        }
      }
    }
  }
  input {
    name: "resnetv19_stage4_conv2_weight"
    type {
      tensor_type {
        elem_type: 1
        shape {
          dim {
            dim_value: 2048
          }
          dim {
            dim_value: 512
          }
          dim {
            dim_value: 1
          }
          dim {
            dim_value: 1
          }
        }
      }
    }
  }
  input {
    name: "resnetv19_stage4_conv2_bias"
    type {
      tensor_type {
        elem_type: 1
        shape {
          dim {
            dim_value: 2048
          }
        }
      }
    }
  }
  input {
    name: "resnetv19_stage4_batchnorm2_gamma"
    type {
      tensor_type {
        elem_type: 1
        shape {
          dim {
            dim_value: 2048
          }
        }
      }
    }
  }
  input {
    name: "resnetv19_stage4_batchnorm2_beta"
    type {
      tensor_type {
        elem_type: 1
        shape {
          dim {
            dim_value: 2048
          }
        }
      }
    }
  }
  input {
    name: "resnetv19_stage4_batchnorm2_running_mean"
    type {
      tensor_type {
        elem_type: 1
        shape {
          dim {
            dim_value: 2048
          }
        }
      }
    }
  }
  input {
    name: "resnetv19_stage4_batchnorm2_running_var"
    type {
      tensor_type {
        elem_type: 1
        shape {
          dim {
            dim_value: 2048
          }
        }
      }
    }
  }
  input {
    name: "resnetv19_stage4_conv3_weight"
    type {
      tensor_type {
        elem_type: 1
        shape {
          dim {
            dim_value: 2048
          }
          dim {
            dim_value: 1024
          }
          dim {
            dim_value: 1
          }
          dim {
            dim_value: 1
          }
        }
      }
    }
  }
  input {
    name: "resnetv19_stage4_batchnorm3_gamma"
    type {
      tensor_type {
        elem_type: 1
        shape {
          dim {
            dim_value: 2048
          }
        }
      }
    }
  }
  input {
    name: "resnetv19_stage4_batchnorm3_beta"
    type {
      tensor_type {
        elem_type: 1
        shape {
          dim {
            dim_value: 2048
          }
        }
      }
    }
  }
  input {
    name: "resnetv19_stage4_batchnorm3_running_mean"
    type {
      tensor_type {
        elem_type: 1
        shape {
          dim {
            dim_value: 2048
          }
        }
      }
    }
  }
  input {
    name: "resnetv19_stage4_batchnorm3_running_var"
    type {
      tensor_type {
        elem_type: 1
        shape {
          dim {
            dim_value: 2048
          }
        }
      }
    }
  }
  input {
    name: "resnetv19_stage4_conv4_weight"
    type {
      tensor_type {
        elem_type: 1
        shape {
          dim {
            dim_value: 512
          }
          dim {
            dim_value: 2048
          }
          dim {
            dim_value: 1
          }
          dim {
            dim_value: 1
          }
        }
      }
    }
  }
  input {
    name: "resnetv19_stage4_conv4_bias"
    type {
      tensor_type {
        elem_type: 1
        shape {
          dim {
            dim_value: 512
          }
        }
      }
    }
  }
  input {
    name: "resnetv19_stage4_batchnorm4_gamma"
    type {
      tensor_type {
        elem_type: 1
        shape {
          dim {
            dim_value: 512
          }
        }
      }
    }
  }
  input {
    name: "resnetv19_stage4_batchnorm4_beta"
    type {
      tensor_type {
        elem_type: 1
        shape {
          dim {
            dim_value: 512
          }
        }
      }
    }
  }
  input {
    name: "resnetv19_stage4_batchnorm4_running_mean"
    type {
      tensor_type {
        elem_type: 1
        shape {
          dim {
            dim_value: 512
          }
        }
      }
    }
  }
  input {
    name: "resnetv19_stage4_batchnorm4_running_var"
    type {
      tensor_type {
        elem_type: 1
        shape {
          dim {
            dim_value: 512
          }
        }
      }
    }
  }
  input {
    name: "resnetv19_stage4_conv5_weight"
    type {
      tensor_type {
        elem_type: 1
        shape {
          dim {
            dim_value: 512
          }
          dim {
            dim_value: 512
          }
          dim {
            dim_value: 3
          }
          dim {
            dim_value: 3
          }
        }
      }
    }
  }
  input {
    name: "resnetv19_stage4_batchnorm5_gamma"
    type {
      tensor_type {
        elem_type: 1
        shape {
          dim {
            dim_value: 512
          }
        }
      }
    }
  }
  input {
    name: "resnetv19_stage4_batchnorm5_beta"
    type {
      tensor_type {
        elem_type: 1
        shape {
          dim {
            dim_value: 512
          }
        }
      }
    }
  }
  input {
    name: "resnetv19_stage4_batchnorm5_running_mean"
    type {
      tensor_type {
        elem_type: 1
        shape {
          dim {
            dim_value: 512
          }
        }
      }
    }
  }
  input {
    name: "resnetv19_stage4_batchnorm5_running_var"
    type {
      tensor_type {
        elem_type: 1
        shape {
          dim {
            dim_value: 512
          }
        }
      }
    }
  }
  input {
    name: "resnetv19_stage4_conv6_weight"
    type {
      tensor_type {
        elem_type: 1
        shape {
          dim {
            dim_value: 2048
          }
          dim {
            dim_value: 512
          }
          dim {
            dim_value: 1
          }
          dim {
            dim_value: 1
          }
        }
      }
    }
  }
  input {
    name: "resnetv19_stage4_conv6_bias"
    type {
      tensor_type {
        elem_type: 1
        shape {
          dim {
            dim_value: 2048
          }
        }
      }
    }
  }
  input {
    name: "resnetv19_stage4_batchnorm6_gamma"
    type {
      tensor_type {
        elem_type: 1
        shape {
          dim {
            dim_value: 2048
          }
        }
      }
    }
  }
  input {
    name: "resnetv19_stage4_batchnorm6_beta"
    type {
      tensor_type {
        elem_type: 1
        shape {
          dim {
            dim_value: 2048
          }
        }
      }
    }
  }
  input {
    name: "resnetv19_stage4_batchnorm6_running_mean"
    type {
      tensor_type {
        elem_type: 1
        shape {
          dim {
            dim_value: 2048
          }
        }
      }
    }
  }
  input {
    name: "resnetv19_stage4_batchnorm6_running_var"
    type {
      tensor_type {
        elem_type: 1
        shape {
          dim {
            dim_value: 2048
          }
        }
      }
    }
  }
  input {
    name: "resnetv19_stage4_conv7_weight"
    type {
      tensor_type {
        elem_type: 1
        shape {
          dim {
            dim_value: 512
          }
          dim {
            dim_value: 2048
          }
          dim {
            dim_value: 1
          }
          dim {
            dim_value: 1
          }
        }
      }
    }
  }
  input {
    name: "resnetv19_stage4_conv7_bias"
    type {
      tensor_type {
        elem_type: 1
        shape {
          dim {
            dim_value: 512
          }
        }
      }
    }
  }
  input {
    name: "resnetv19_stage4_batchnorm7_gamma"
    type {
      tensor_type {
        elem_type: 1
        shape {
          dim {
            dim_value: 512
          }
        }
      }
    }
  }
  input {
    name: "resnetv19_stage4_batchnorm7_beta"
    type {
      tensor_type {
        elem_type: 1
        shape {
          dim {
            dim_value: 512
          }
        }
      }
    }
  }
  input {
    name: "resnetv19_stage4_batchnorm7_running_mean"
    type {
      tensor_type {
        elem_type: 1
        shape {
          dim {
            dim_value: 512
          }
        }
      }
    }
  }
  input {
    name: "resnetv19_stage4_batchnorm7_running_var"
    type {
      tensor_type {
        elem_type: 1
        shape {
          dim {
            dim_value: 512
          }
        }
      }
    }
  }
  input {
    name: "resnetv19_stage4_conv8_weight"
    type {
      tensor_type {
        elem_type: 1
        shape {
          dim {
            dim_value: 512
          }
          dim {
            dim_value: 512
          }
          dim {
            dim_value: 3
          }
          dim {
            dim_value: 3
          }
        }
      }
    }
  }
  input {
    name: "resnetv19_stage4_batchnorm8_gamma"
    type {
      tensor_type {
        elem_type: 1
        shape {
          dim {
            dim_value: 512
          }
        }
      }
    }
  }
  input {
    name: "resnetv19_stage4_batchnorm8_beta"
    type {
      tensor_type {
        elem_type: 1
        shape {
          dim {
            dim_value: 512
          }
        }
      }
    }
  }
  input {
    name: "resnetv19_stage4_batchnorm8_running_mean"
    type {
      tensor_type {
        elem_type: 1
        shape {
          dim {
            dim_value: 512
          }
        }
      }
    }
  }
  input {
    name: "resnetv19_stage4_batchnorm8_running_var"
    type {
      tensor_type {
        elem_type: 1
        shape {
          dim {
            dim_value: 512
          }
        }
      }
    }
  }
  input {
    name: "resnetv19_stage4_conv9_weight"
    type {
      tensor_type {
        elem_type: 1
        shape {
          dim {
            dim_value: 2048
          }
          dim {
            dim_value: 512
          }
          dim {
            dim_value: 1
          }
          dim {
            dim_value: 1
          }
        }
      }
    }
  }
  input {
    name: "resnetv19_stage4_conv9_bias"
    type {
      tensor_type {
        elem_type: 1
        shape {
          dim {
            dim_value: 2048
          }
        }
      }
    }
  }
  input {
    name: "resnetv19_stage4_batchnorm9_gamma"
    type {
      tensor_type {
        elem_type: 1
        shape {
          dim {
            dim_value: 2048
          }
        }
      }
    }
  }
  input {
    name: "resnetv19_stage4_batchnorm9_beta"
    type {
      tensor_type {
        elem_type: 1
        shape {
          dim {
            dim_value: 2048
          }
        }
      }
    }
  }
  input {
    name: "resnetv19_stage4_batchnorm9_running_mean"
    type {
      tensor_type {
        elem_type: 1
        shape {
          dim {
            dim_value: 2048
          }
        }
      }
    }
  }
  input {
    name: "resnetv19_stage4_batchnorm9_running_var"
    type {
      tensor_type {
        elem_type: 1
        shape {
          dim {
            dim_value: 2048
          }
        }
      }
    }
  }
  input {
    name: "resnetv19_dense0_weight"
    type {
      tensor_type {
        elem_type: 1
        shape {
          dim {
            dim_value: 1000
          }
          dim {
            dim_value: 2048
          }
        }
      }
    }
  }
  input {
    name: "resnetv19_dense0_bias"
    type {
      tensor_type {
        elem_type: 1
        shape {
          dim {
            dim_value: 1000
          }
        }
      }
    }
  }
  output {
    name: "resnetv19_dense0_fwd"
    type {
      tensor_type {
        elem_type: 1
        shape {
          dim {
            dim_param: "N"
          }
          dim {
            dim_value: 1000
          }
        }
      }
    }
  }
}
opset_import {
  domain: ""
  version: 8
}
