ir_version: 3
graph {
  node {
    input: "data"
    input: "resnetv24_batchnorm0_gamma"
    input: "resnetv24_batchnorm0_beta"
    input: "resnetv24_batchnorm0_running_mean"
    input: "resnetv24_batchnorm0_running_var"
    output: "resnetv24_batchnorm0_fwd"
    name: "resnetv24_batchnorm0_fwd"
    op_type: "BatchNormalization"
    attribute {
      name: "epsilon"
      f: 1e-05
      type: FLOAT
    }
    attribute {
      name: "momentum"
      f: 0.9
      type: FLOAT
    }
    attribute {
      name: "spatial"
      i: 1
      type: INT
    }
  }
  node {
    input: "resnetv24_batchnorm0_fwd"
    input: "resnetv24_conv0_weight"
    output: "resnetv24_conv0_fwd"
    name: "resnetv24_conv0_fwd"
    op_type: "Conv"
    attribute {
      name: "dilations"
      ints: 1
      ints: 1
      type: INTS
    }
    attribute {
      name: "group"
      i: 1
      type: INT
    }
    attribute {
      name: "kernel_shape"
      ints: 7
      ints: 7
      type: INTS
    }
    attribute {
      name: "pads"
      ints: 3
      ints: 3
      ints: 3
      ints: 3
      type: INTS
    }
    attribute {
      name: "strides"
      ints: 2
      ints: 2
      type: INTS
    }
  }
  node {
    input: "resnetv24_conv0_fwd"
    input: "resnetv24_batchnorm1_gamma"
    input: "resnetv24_batchnorm1_beta"
    input: "resnetv24_batchnorm1_running_mean"
    input: "resnetv24_batchnorm1_running_var"
    output: "resnetv24_batchnorm1_fwd"
    name: "resnetv24_batchnorm1_fwd"
    op_type: "BatchNormalization"
    attribute {
      name: "epsilon"
      f: 1e-05
      type: FLOAT
    }
    attribute {
      name: "momentum"
      f: 0.9
      type: FLOAT
    }
    attribute {
      name: "spatial"
      i: 1
      type: INT
    }
  }
  node {
    input: "resnetv24_batchnorm1_fwd"
    output: "resnetv24_relu0_fwd"
    name: "resnetv24_relu0_fwd"
    op_type: "Relu"
  }
  node {
    input: "resnetv24_relu0_fwd"
    output: "resnetv24_pool0_fwd"
    name: "resnetv24_pool0_fwd"
    op_type: "MaxPool"
    attribute {
      name: "kernel_shape"
      ints: 3
      ints: 3
      type: INTS
    }
    attribute {
      name: "pads"
      ints: 1
      ints: 1
      ints: 1
      ints: 1
      type: INTS
    }
    attribute {
      name: "strides"
      ints: 2
      ints: 2
      type: INTS
    }
  }
  node {
    input: "resnetv24_pool0_fwd"
    input: "resnetv24_stage1_batchnorm0_gamma"
    input: "resnetv24_stage1_batchnorm0_beta"
    input: "resnetv24_stage1_batchnorm0_running_mean"
    input: "resnetv24_stage1_batchnorm0_running_var"
    output: "resnetv24_stage1_batchnorm0_fwd"
    name: "resnetv24_stage1_batchnorm0_fwd"
    op_type: "BatchNormalization"
    attribute {
      name: "epsilon"
      f: 1e-05
      type: FLOAT
    }
    attribute {
      name: "momentum"
      f: 0.9
      type: FLOAT
    }
    attribute {
      name: "spatial"
      i: 1
      type: INT
    }
  }
  node {
    input: "resnetv24_stage1_batchnorm0_fwd"
    output: "resnetv24_stage1_activation0"
    name: "resnetv24_stage1_activation0"
    op_type: "Relu"
  }
  node {
    input: "resnetv24_stage1_activation0"
    input: "resnetv24_stage1_conv0_weight"
    output: "resnetv24_stage1_conv0_fwd"
    name: "resnetv24_stage1_conv0_fwd"
    op_type: "Conv"
    attribute {
      name: "dilations"
      ints: 1
      ints: 1
      type: INTS
    }
    attribute {
      name: "group"
      i: 1
      type: INT
    }
    attribute {
      name: "kernel_shape"
      ints: 1
      ints: 1
      type: INTS
    }
    attribute {
      name: "pads"
      ints: 0
      ints: 0
      ints: 0
      ints: 0
      type: INTS
    }
    attribute {
      name: "strides"
      ints: 1
      ints: 1
      type: INTS
    }
  }
  node {
    input: "resnetv24_stage1_conv0_fwd"
    input: "resnetv24_stage1_batchnorm1_gamma"
    input: "resnetv24_stage1_batchnorm1_beta"
    input: "resnetv24_stage1_batchnorm1_running_mean"
    input: "resnetv24_stage1_batchnorm1_running_var"
    output: "resnetv24_stage1_batchnorm1_fwd"
    name: "resnetv24_stage1_batchnorm1_fwd"
    op_type: "BatchNormalization"
    attribute {
      name: "epsilon"
      f: 1e-05
      type: FLOAT
    }
    attribute {
      name: "momentum"
      f: 0.9
      type: FLOAT
    }
    attribute {
      name: "spatial"
      i: 1
      type: INT
    }
  }
  node {
    input: "resnetv24_stage1_batchnorm1_fwd"
    output: "resnetv24_stage1_activation1"
    name: "resnetv24_stage1_activation1"
    op_type: "Relu"
  }
  node {
    input: "resnetv24_stage1_activation1"
    input: "resnetv24_stage1_conv1_weight"
    output: "resnetv24_stage1_conv1_fwd"
    name: "resnetv24_stage1_conv1_fwd"
    op_type: "Conv"
    attribute {
      name: "dilations"
      ints: 1
      ints: 1
      type: INTS
    }
    attribute {
      name: "group"
      i: 1
      type: INT
    }
    attribute {
      name: "kernel_shape"
      ints: 3
      ints: 3
      type: INTS
    }
    attribute {
      name: "pads"
      ints: 1
      ints: 1
      ints: 1
      ints: 1
      type: INTS
    }
    attribute {
      name: "strides"
      ints: 1
      ints: 1
      type: INTS
    }
  }
  node {
    input: "resnetv24_stage1_conv1_fwd"
    input: "resnetv24_stage1_batchnorm2_gamma"
    input: "resnetv24_stage1_batchnorm2_beta"
    input: "resnetv24_stage1_batchnorm2_running_mean"
    input: "resnetv24_stage1_batchnorm2_running_var"
    output: "resnetv24_stage1_batchnorm2_fwd"
    name: "resnetv24_stage1_batchnorm2_fwd"
    op_type: "BatchNormalization"
    attribute {
      name: "epsilon"
      f: 1e-05
      type: FLOAT
    }
    attribute {
      name: "momentum"
      f: 0.9
      type: FLOAT
    }
    attribute {
      name: "spatial"
      i: 1
      type: INT
    }
  }
  node {
    input: "resnetv24_stage1_batchnorm2_fwd"
    output: "resnetv24_stage1_activation2"
    name: "resnetv24_stage1_activation2"
    op_type: "Relu"
  }
  node {
    input: "resnetv24_stage1_activation2"
    input: "resnetv24_stage1_conv2_weight"
    output: "resnetv24_stage1_conv2_fwd"
    name: "resnetv24_stage1_conv2_fwd"
    op_type: "Conv"
    attribute {
      name: "dilations"
      ints: 1
      ints: 1
      type: INTS
    }
    attribute {
      name: "group"
      i: 1
      type: INT
    }
    attribute {
      name: "kernel_shape"
      ints: 1
      ints: 1
      type: INTS
    }
    attribute {
      name: "pads"
      ints: 0
      ints: 0
      ints: 0
      ints: 0
      type: INTS
    }
    attribute {
      name: "strides"
      ints: 1
      ints: 1
      type: INTS
    }
  }
  node {
    input: "resnetv24_stage1_activation0"
    input: "resnetv24_stage1_conv3_weight"
    output: "resnetv24_stage1_conv3_fwd"
    name: "resnetv24_stage1_conv3_fwd"
    op_type: "Conv"
    attribute {
      name: "dilations"
      ints: 1
      ints: 1
      type: INTS
    }
    attribute {
      name: "group"
      i: 1
      type: INT
    }
    attribute {
      name: "kernel_shape"
      ints: 1
      ints: 1
      type: INTS
    }
    attribute {
      name: "pads"
      ints: 0
      ints: 0
      ints: 0
      ints: 0
      type: INTS
    }
    attribute {
      name: "strides"
      ints: 1
      ints: 1
      type: INTS
    }
  }
  node {
    input: "resnetv24_stage1_conv2_fwd"
    input: "resnetv24_stage1_conv3_fwd"
    output: "resnetv24_stage1__plus0"
    name: "resnetv24_stage1__plus0"
    op_type: "Add"
  }
  node {
    input: "resnetv24_stage1__plus0"
    input: "resnetv24_stage1_batchnorm3_gamma"
    input: "resnetv24_stage1_batchnorm3_beta"
    input: "resnetv24_stage1_batchnorm3_running_mean"
    input: "resnetv24_stage1_batchnorm3_running_var"
    output: "resnetv24_stage1_batchnorm3_fwd"
    name: "resnetv24_stage1_batchnorm3_fwd"
    op_type: "BatchNormalization"
    attribute {
      name: "epsilon"
      f: 1e-05
      type: FLOAT
    }
    attribute {
      name: "momentum"
      f: 0.9
      type: FLOAT
    }
    attribute {
      name: "spatial"
      i: 1
      type: INT
    }
  }
  node {
    input: "resnetv24_stage1_batchnorm3_fwd"
    output: "resnetv24_stage1_activation3"
    name: "resnetv24_stage1_activation3"
    op_type: "Relu"
  }
  node {
    input: "resnetv24_stage1_activation3"
    input: "resnetv24_stage1_conv4_weight"
    output: "resnetv24_stage1_conv4_fwd"
    name: "resnetv24_stage1_conv4_fwd"
    op_type: "Conv"
    attribute {
      name: "dilations"
      ints: 1
      ints: 1
      type: INTS
    }
    attribute {
      name: "group"
      i: 1
      type: INT
    }
    attribute {
      name: "kernel_shape"
      ints: 1
      ints: 1
      type: INTS
    }
    attribute {
      name: "pads"
      ints: 0
      ints: 0
      ints: 0
      ints: 0
      type: INTS
    }
    attribute {
      name: "strides"
      ints: 1
      ints: 1
      type: INTS
    }
  }
  node {
    input: "resnetv24_stage1_conv4_fwd"
    input: "resnetv24_stage1_batchnorm4_gamma"
    input: "resnetv24_stage1_batchnorm4_beta"
    input: "resnetv24_stage1_batchnorm4_running_mean"
    input: "resnetv24_stage1_batchnorm4_running_var"
    output: "resnetv24_stage1_batchnorm4_fwd"
    name: "resnetv24_stage1_batchnorm4_fwd"
    op_type: "BatchNormalization"
    attribute {
      name: "epsilon"
      f: 1e-05
      type: FLOAT
    }
    attribute {
      name: "momentum"
      f: 0.9
      type: FLOAT
    }
    attribute {
      name: "spatial"
      i: 1
      type: INT
    }
  }
  node {
    input: "resnetv24_stage1_batchnorm4_fwd"
    output: "resnetv24_stage1_activation4"
    name: "resnetv24_stage1_activation4"
    op_type: "Relu"
  }
  node {
    input: "resnetv24_stage1_activation4"
    input: "resnetv24_stage1_conv5_weight"
    output: "resnetv24_stage1_conv5_fwd"
    name: "resnetv24_stage1_conv5_fwd"
    op_type: "Conv"
    attribute {
      name: "dilations"
      ints: 1
      ints: 1
      type: INTS
    }
    attribute {
      name: "group"
      i: 1
      type: INT
    }
    attribute {
      name: "kernel_shape"
      ints: 3
      ints: 3
      type: INTS
    }
    attribute {
      name: "pads"
      ints: 1
      ints: 1
      ints: 1
      ints: 1
      type: INTS
    }
    attribute {
      name: "strides"
      ints: 1
      ints: 1
      type: INTS
    }
  }
  node {
    input: "resnetv24_stage1_conv5_fwd"
    input: "resnetv24_stage1_batchnorm5_gamma"
    input: "resnetv24_stage1_batchnorm5_beta"
    input: "resnetv24_stage1_batchnorm5_running_mean"
    input: "resnetv24_stage1_batchnorm5_running_var"
    output: "resnetv24_stage1_batchnorm5_fwd"
    name: "resnetv24_stage1_batchnorm5_fwd"
    op_type: "BatchNormalization"
    attribute {
      name: "epsilon"
      f: 1e-05
      type: FLOAT
    }
    attribute {
      name: "momentum"
      f: 0.9
      type: FLOAT
    }
    attribute {
      name: "spatial"
      i: 1
      type: INT
    }
  }
  node {
    input: "resnetv24_stage1_batchnorm5_fwd"
    output: "resnetv24_stage1_activation5"
    name: "resnetv24_stage1_activation5"
    op_type: "Relu"
  }
  node {
    input: "resnetv24_stage1_activation5"
    input: "resnetv24_stage1_conv6_weight"
    output: "resnetv24_stage1_conv6_fwd"
    name: "resnetv24_stage1_conv6_fwd"
    op_type: "Conv"
    attribute {
      name: "dilations"
      ints: 1
      ints: 1
      type: INTS
    }
    attribute {
      name: "group"
      i: 1
      type: INT
    }
    attribute {
      name: "kernel_shape"
      ints: 1
      ints: 1
      type: INTS
    }
    attribute {
      name: "pads"
      ints: 0
      ints: 0
      ints: 0
      ints: 0
      type: INTS
    }
    attribute {
      name: "strides"
      ints: 1
      ints: 1
      type: INTS
    }
  }
  node {
    input: "resnetv24_stage1_conv6_fwd"
    input: "resnetv24_stage1__plus0"
    output: "resnetv24_stage1__plus1"
    name: "resnetv24_stage1__plus1"
    op_type: "Add"
  }
  node {
    input: "resnetv24_stage1__plus1"
    input: "resnetv24_stage1_batchnorm6_gamma"
    input: "resnetv24_stage1_batchnorm6_beta"
    input: "resnetv24_stage1_batchnorm6_running_mean"
    input: "resnetv24_stage1_batchnorm6_running_var"
    output: "resnetv24_stage1_batchnorm6_fwd"
    name: "resnetv24_stage1_batchnorm6_fwd"
    op_type: "BatchNormalization"
    attribute {
      name: "epsilon"
      f: 1e-05
      type: FLOAT
    }
    attribute {
      name: "momentum"
      f: 0.9
      type: FLOAT
    }
    attribute {
      name: "spatial"
      i: 1
      type: INT
    }
  }
  node {
    input: "resnetv24_stage1_batchnorm6_fwd"
    output: "resnetv24_stage1_activation6"
    name: "resnetv24_stage1_activation6"
    op_type: "Relu"
  }
  node {
    input: "resnetv24_stage1_activation6"
    input: "resnetv24_stage1_conv7_weight"
    output: "resnetv24_stage1_conv7_fwd"
    name: "resnetv24_stage1_conv7_fwd"
    op_type: "Conv"
    attribute {
      name: "dilations"
      ints: 1
      ints: 1
      type: INTS
    }
    attribute {
      name: "group"
      i: 1
      type: INT
    }
    attribute {
      name: "kernel_shape"
      ints: 1
      ints: 1
      type: INTS
    }
    attribute {
      name: "pads"
      ints: 0
      ints: 0
      ints: 0
      ints: 0
      type: INTS
    }
    attribute {
      name: "strides"
      ints: 1
      ints: 1
      type: INTS
    }
  }
  node {
    input: "resnetv24_stage1_conv7_fwd"
    input: "resnetv24_stage1_batchnorm7_gamma"
    input: "resnetv24_stage1_batchnorm7_beta"
    input: "resnetv24_stage1_batchnorm7_running_mean"
    input: "resnetv24_stage1_batchnorm7_running_var"
    output: "resnetv24_stage1_batchnorm7_fwd"
    name: "resnetv24_stage1_batchnorm7_fwd"
    op_type: "BatchNormalization"
    attribute {
      name: "epsilon"
      f: 1e-05
      type: FLOAT
    }
    attribute {
      name: "momentum"
      f: 0.9
      type: FLOAT
    }
    attribute {
      name: "spatial"
      i: 1
      type: INT
    }
  }
  node {
    input: "resnetv24_stage1_batchnorm7_fwd"
    output: "resnetv24_stage1_activation7"
    name: "resnetv24_stage1_activation7"
    op_type: "Relu"
  }
  node {
    input: "resnetv24_stage1_activation7"
    input: "resnetv24_stage1_conv8_weight"
    output: "resnetv24_stage1_conv8_fwd"
    name: "resnetv24_stage1_conv8_fwd"
    op_type: "Conv"
    attribute {
      name: "dilations"
      ints: 1
      ints: 1
      type: INTS
    }
    attribute {
      name: "group"
      i: 1
      type: INT
    }
    attribute {
      name: "kernel_shape"
      ints: 3
      ints: 3
      type: INTS
    }
    attribute {
      name: "pads"
      ints: 1
      ints: 1
      ints: 1
      ints: 1
      type: INTS
    }
    attribute {
      name: "strides"
      ints: 1
      ints: 1
      type: INTS
    }
  }
  node {
    input: "resnetv24_stage1_conv8_fwd"
    input: "resnetv24_stage1_batchnorm8_gamma"
    input: "resnetv24_stage1_batchnorm8_beta"
    input: "resnetv24_stage1_batchnorm8_running_mean"
    input: "resnetv24_stage1_batchnorm8_running_var"
    output: "resnetv24_stage1_batchnorm8_fwd"
    name: "resnetv24_stage1_batchnorm8_fwd"
    op_type: "BatchNormalization"
    attribute {
      name: "epsilon"
      f: 1e-05
      type: FLOAT
    }
    attribute {
      name: "momentum"
      f: 0.9
      type: FLOAT
    }
    attribute {
      name: "spatial"
      i: 1
      type: INT
    }
  }
  node {
    input: "resnetv24_stage1_batchnorm8_fwd"
    output: "resnetv24_stage1_activation8"
    name: "resnetv24_stage1_activation8"
    op_type: "Relu"
  }
  node {
    input: "resnetv24_stage1_activation8"
    input: "resnetv24_stage1_conv9_weight"
    output: "resnetv24_stage1_conv9_fwd"
    name: "resnetv24_stage1_conv9_fwd"
    op_type: "Conv"
    attribute {
      name: "dilations"
      ints: 1
      ints: 1
      type: INTS
    }
    attribute {
      name: "group"
      i: 1
      type: INT
    }
    attribute {
      name: "kernel_shape"
      ints: 1
      ints: 1
      type: INTS
    }
    attribute {
      name: "pads"
      ints: 0
      ints: 0
      ints: 0
      ints: 0
      type: INTS
    }
    attribute {
      name: "strides"
      ints: 1
      ints: 1
      type: INTS
    }
  }
  node {
    input: "resnetv24_stage1_conv9_fwd"
    input: "resnetv24_stage1__plus1"
    output: "resnetv24_stage1__plus2"
    name: "resnetv24_stage1__plus2"
    op_type: "Add"
  }
  node {
    input: "resnetv24_stage1__plus2"
    input: "resnetv24_stage2_batchnorm0_gamma"
    input: "resnetv24_stage2_batchnorm0_beta"
    input: "resnetv24_stage2_batchnorm0_running_mean"
    input: "resnetv24_stage2_batchnorm0_running_var"
    output: "resnetv24_stage2_batchnorm0_fwd"
    name: "resnetv24_stage2_batchnorm0_fwd"
    op_type: "BatchNormalization"
    attribute {
      name: "epsilon"
      f: 1e-05
      type: FLOAT
    }
    attribute {
      name: "momentum"
      f: 0.9
      type: FLOAT
    }
    attribute {
      name: "spatial"
      i: 1
      type: INT
    }
  }
  node {
    input: "resnetv24_stage2_batchnorm0_fwd"
    output: "resnetv24_stage2_activation0"
    name: "resnetv24_stage2_activation0"
    op_type: "Relu"
  }
  node {
    input: "resnetv24_stage2_activation0"
    input: "resnetv24_stage2_conv0_weight"
    output: "resnetv24_stage2_conv0_fwd"
    name: "resnetv24_stage2_conv0_fwd"
    op_type: "Conv"
    attribute {
      name: "dilations"
      ints: 1
      ints: 1
      type: INTS
    }
    attribute {
      name: "group"
      i: 1
      type: INT
    }
    attribute {
      name: "kernel_shape"
      ints: 1
      ints: 1
      type: INTS
    }
    attribute {
      name: "pads"
      ints: 0
      ints: 0
      ints: 0
      ints: 0
      type: INTS
    }
    attribute {
      name: "strides"
      ints: 1
      ints: 1
      type: INTS
    }
  }
  node {
    input: "resnetv24_stage2_conv0_fwd"
    input: "resnetv24_stage2_batchnorm1_gamma"
    input: "resnetv24_stage2_batchnorm1_beta"
    input: "resnetv24_stage2_batchnorm1_running_mean"
    input: "resnetv24_stage2_batchnorm1_running_var"
    output: "resnetv24_stage2_batchnorm1_fwd"
    name: "resnetv24_stage2_batchnorm1_fwd"
    op_type: "BatchNormalization"
    attribute {
      name: "epsilon"
      f: 1e-05
      type: FLOAT
    }
    attribute {
      name: "momentum"
      f: 0.9
      type: FLOAT
    }
    attribute {
      name: "spatial"
      i: 1
      type: INT
    }
  }
  node {
    input: "resnetv24_stage2_batchnorm1_fwd"
    output: "resnetv24_stage2_activation1"
    name: "resnetv24_stage2_activation1"
    op_type: "Relu"
  }
  node {
    input: "resnetv24_stage2_activation1"
    input: "resnetv24_stage2_conv1_weight"
    output: "resnetv24_stage2_conv1_fwd"
    name: "resnetv24_stage2_conv1_fwd"
    op_type: "Conv"
    attribute {
      name: "dilations"
      ints: 1
      ints: 1
      type: INTS
    }
    attribute {
      name: "group"
      i: 1
      type: INT
    }
    attribute {
      name: "kernel_shape"
      ints: 3
      ints: 3
      type: INTS
    }
    attribute {
      name: "pads"
      ints: 1
      ints: 1
      ints: 1
      ints: 1
      type: INTS
    }
    attribute {
      name: "strides"
      ints: 2
      ints: 2
      type: INTS
    }
  }
  node {
    input: "resnetv24_stage2_conv1_fwd"
    input: "resnetv24_stage2_batchnorm2_gamma"
    input: "resnetv24_stage2_batchnorm2_beta"
    input: "resnetv24_stage2_batchnorm2_running_mean"
    input: "resnetv24_stage2_batchnorm2_running_var"
    output: "resnetv24_stage2_batchnorm2_fwd"
    name: "resnetv24_stage2_batchnorm2_fwd"
    op_type: "BatchNormalization"
    attribute {
      name: "epsilon"
      f: 1e-05
      type: FLOAT
    }
    attribute {
      name: "momentum"
      f: 0.9
      type: FLOAT
    }
    attribute {
      name: "spatial"
      i: 1
      type: INT
    }
  }
  node {
    input: "resnetv24_stage2_batchnorm2_fwd"
    output: "resnetv24_stage2_activation2"
    name: "resnetv24_stage2_activation2"
    op_type: "Relu"
  }
  node {
    input: "resnetv24_stage2_activation2"
    input: "resnetv24_stage2_conv2_weight"
    output: "resnetv24_stage2_conv2_fwd"
    name: "resnetv24_stage2_conv2_fwd"
    op_type: "Conv"
    attribute {
      name: "dilations"
      ints: 1
      ints: 1
      type: INTS
    }
    attribute {
      name: "group"
      i: 1
      type: INT
    }
    attribute {
      name: "kernel_shape"
      ints: 1
      ints: 1
      type: INTS
    }
    attribute {
      name: "pads"
      ints: 0
      ints: 0
      ints: 0
      ints: 0
      type: INTS
    }
    attribute {
      name: "strides"
      ints: 1
      ints: 1
      type: INTS
    }
  }
  node {
    input: "resnetv24_stage2_activation0"
    input: "resnetv24_stage2_conv3_weight"
    output: "resnetv24_stage2_conv3_fwd"
    name: "resnetv24_stage2_conv3_fwd"
    op_type: "Conv"
    attribute {
      name: "dilations"
      ints: 1
      ints: 1
      type: INTS
    }
    attribute {
      name: "group"
      i: 1
      type: INT
    }
    attribute {
      name: "kernel_shape"
      ints: 1
      ints: 1
      type: INTS
    }
    attribute {
      name: "pads"
      ints: 0
      ints: 0
      ints: 0
      ints: 0
      type: INTS
    }
    attribute {
      name: "strides"
      ints: 2
      ints: 2
      type: INTS
    }
  }
  node {
    input: "resnetv24_stage2_conv2_fwd"
    input: "resnetv24_stage2_conv3_fwd"
    output: "resnetv24_stage2__plus0"
    name: "resnetv24_stage2__plus0"
    op_type: "Add"
  }
  node {
    input: "resnetv24_stage2__plus0"
    input: "resnetv24_stage2_batchnorm3_gamma"
    input: "resnetv24_stage2_batchnorm3_beta"
    input: "resnetv24_stage2_batchnorm3_running_mean"
    input: "resnetv24_stage2_batchnorm3_running_var"
    output: "resnetv24_stage2_batchnorm3_fwd"
    name: "resnetv24_stage2_batchnorm3_fwd"
    op_type: "BatchNormalization"
    attribute {
      name: "epsilon"
      f: 1e-05
      type: FLOAT
    }
    attribute {
      name: "momentum"
      f: 0.9
      type: FLOAT
    }
    attribute {
      name: "spatial"
      i: 1
      type: INT
    }
  }
  node {
    input: "resnetv24_stage2_batchnorm3_fwd"
    output: "resnetv24_stage2_activation3"
    name: "resnetv24_stage2_activation3"
    op_type: "Relu"
  }
  node {
    input: "resnetv24_stage2_activation3"
    input: "resnetv24_stage2_conv4_weight"
    output: "resnetv24_stage2_conv4_fwd"
    name: "resnetv24_stage2_conv4_fwd"
    op_type: "Conv"
    attribute {
      name: "dilations"
      ints: 1
      ints: 1
      type: INTS
    }
    attribute {
      name: "group"
      i: 1
      type: INT
    }
    attribute {
      name: "kernel_shape"
      ints: 1
      ints: 1
      type: INTS
    }
    attribute {
      name: "pads"
      ints: 0
      ints: 0
      ints: 0
      ints: 0
      type: INTS
    }
    attribute {
      name: "strides"
      ints: 1
      ints: 1
      type: INTS
    }
  }
  node {
    input: "resnetv24_stage2_conv4_fwd"
    input: "resnetv24_stage2_batchnorm4_gamma"
    input: "resnetv24_stage2_batchnorm4_beta"
    input: "resnetv24_stage2_batchnorm4_running_mean"
    input: "resnetv24_stage2_batchnorm4_running_var"
    output: "resnetv24_stage2_batchnorm4_fwd"
    name: "resnetv24_stage2_batchnorm4_fwd"
    op_type: "BatchNormalization"
    attribute {
      name: "epsilon"
      f: 1e-05
      type: FLOAT
    }
    attribute {
      name: "momentum"
      f: 0.9
      type: FLOAT
    }
    attribute {
      name: "spatial"
      i: 1
      type: INT
    }
  }
  node {
    input: "resnetv24_stage2_batchnorm4_fwd"
    output: "resnetv24_stage2_activation4"
    name: "resnetv24_stage2_activation4"
    op_type: "Relu"
  }
  node {
    input: "resnetv24_stage2_activation4"
    input: "resnetv24_stage2_conv5_weight"
    output: "resnetv24_stage2_conv5_fwd"
    name: "resnetv24_stage2_conv5_fwd"
    op_type: "Conv"
    attribute {
      name: "dilations"
      ints: 1
      ints: 1
      type: INTS
    }
    attribute {
      name: "group"
      i: 1
      type: INT
    }
    attribute {
      name: "kernel_shape"
      ints: 3
      ints: 3
      type: INTS
    }
    attribute {
      name: "pads"
      ints: 1
      ints: 1
      ints: 1
      ints: 1
      type: INTS
    }
    attribute {
      name: "strides"
      ints: 1
      ints: 1
      type: INTS
    }
  }
  node {
    input: "resnetv24_stage2_conv5_fwd"
    input: "resnetv24_stage2_batchnorm5_gamma"
    input: "resnetv24_stage2_batchnorm5_beta"
    input: "resnetv24_stage2_batchnorm5_running_mean"
    input: "resnetv24_stage2_batchnorm5_running_var"
    output: "resnetv24_stage2_batchnorm5_fwd"
    name: "resnetv24_stage2_batchnorm5_fwd"
    op_type: "BatchNormalization"
    attribute {
      name: "epsilon"
      f: 1e-05
      type: FLOAT
    }
    attribute {
      name: "momentum"
      f: 0.9
      type: FLOAT
    }
    attribute {
      name: "spatial"
      i: 1
      type: INT
    }
  }
  node {
    input: "resnetv24_stage2_batchnorm5_fwd"
    output: "resnetv24_stage2_activation5"
    name: "resnetv24_stage2_activation5"
    op_type: "Relu"
  }
  node {
    input: "resnetv24_stage2_activation5"
    input: "resnetv24_stage2_conv6_weight"
    output: "resnetv24_stage2_conv6_fwd"
    name: "resnetv24_stage2_conv6_fwd"
    op_type: "Conv"
    attribute {
      name: "dilations"
      ints: 1
      ints: 1
      type: INTS
    }
    attribute {
      name: "group"
      i: 1
      type: INT
    }
    attribute {
      name: "kernel_shape"
      ints: 1
      ints: 1
      type: INTS
    }
    attribute {
      name: "pads"
      ints: 0
      ints: 0
      ints: 0
      ints: 0
      type: INTS
    }
    attribute {
      name: "strides"
      ints: 1
      ints: 1
      type: INTS
    }
  }
  node {
    input: "resnetv24_stage2_conv6_fwd"
    input: "resnetv24_stage2__plus0"
    output: "resnetv24_stage2__plus1"
    name: "resnetv24_stage2__plus1"
    op_type: "Add"
  }
  node {
    input: "resnetv24_stage2__plus1"
    input: "resnetv24_stage2_batchnorm6_gamma"
    input: "resnetv24_stage2_batchnorm6_beta"
    input: "resnetv24_stage2_batchnorm6_running_mean"
    input: "resnetv24_stage2_batchnorm6_running_var"
    output: "resnetv24_stage2_batchnorm6_fwd"
    name: "resnetv24_stage2_batchnorm6_fwd"
    op_type: "BatchNormalization"
    attribute {
      name: "epsilon"
      f: 1e-05
      type: FLOAT
    }
    attribute {
      name: "momentum"
      f: 0.9
      type: FLOAT
    }
    attribute {
      name: "spatial"
      i: 1
      type: INT
    }
  }
  node {
    input: "resnetv24_stage2_batchnorm6_fwd"
    output: "resnetv24_stage2_activation6"
    name: "resnetv24_stage2_activation6"
    op_type: "Relu"
  }
  node {
    input: "resnetv24_stage2_activation6"
    input: "resnetv24_stage2_conv7_weight"
    output: "resnetv24_stage2_conv7_fwd"
    name: "resnetv24_stage2_conv7_fwd"
    op_type: "Conv"
    attribute {
      name: "dilations"
      ints: 1
      ints: 1
      type: INTS
    }
    attribute {
      name: "group"
      i: 1
      type: INT
    }
    attribute {
      name: "kernel_shape"
      ints: 1
      ints: 1
      type: INTS
    }
    attribute {
      name: "pads"
      ints: 0
      ints: 0
      ints: 0
      ints: 0
      type: INTS
    }
    attribute {
      name: "strides"
      ints: 1
      ints: 1
      type: INTS
    }
  }
  node {
    input: "resnetv24_stage2_conv7_fwd"
    input: "resnetv24_stage2_batchnorm7_gamma"
    input: "resnetv24_stage2_batchnorm7_beta"
    input: "resnetv24_stage2_batchnorm7_running_mean"
    input: "resnetv24_stage2_batchnorm7_running_var"
    output: "resnetv24_stage2_batchnorm7_fwd"
    name: "resnetv24_stage2_batchnorm7_fwd"
    op_type: "BatchNormalization"
    attribute {
      name: "epsilon"
      f: 1e-05
      type: FLOAT
    }
    attribute {
      name: "momentum"
      f: 0.9
      type: FLOAT
    }
    attribute {
      name: "spatial"
      i: 1
      type: INT
    }
  }
  node {
    input: "resnetv24_stage2_batchnorm7_fwd"
    output: "resnetv24_stage2_activation7"
    name: "resnetv24_stage2_activation7"
    op_type: "Relu"
  }
  node {
    input: "resnetv24_stage2_activation7"
    input: "resnetv24_stage2_conv8_weight"
    output: "resnetv24_stage2_conv8_fwd"
    name: "resnetv24_stage2_conv8_fwd"
    op_type: "Conv"
    attribute {
      name: "dilations"
      ints: 1
      ints: 1
      type: INTS
    }
    attribute {
      name: "group"
      i: 1
      type: INT
    }
    attribute {
      name: "kernel_shape"
      ints: 3
      ints: 3
      type: INTS
    }
    attribute {
      name: "pads"
      ints: 1
      ints: 1
      ints: 1
      ints: 1
      type: INTS
    }
    attribute {
      name: "strides"
      ints: 1
      ints: 1
      type: INTS
    }
  }
  node {
    input: "resnetv24_stage2_conv8_fwd"
    input: "resnetv24_stage2_batchnorm8_gamma"
    input: "resnetv24_stage2_batchnorm8_beta"
    input: "resnetv24_stage2_batchnorm8_running_mean"
    input: "resnetv24_stage2_batchnorm8_running_var"
    output: "resnetv24_stage2_batchnorm8_fwd"
    name: "resnetv24_stage2_batchnorm8_fwd"
    op_type: "BatchNormalization"
    attribute {
      name: "epsilon"
      f: 1e-05
      type: FLOAT
    }
    attribute {
      name: "momentum"
      f: 0.9
      type: FLOAT
    }
    attribute {
      name: "spatial"
      i: 1
      type: INT
    }
  }
  node {
    input: "resnetv24_stage2_batchnorm8_fwd"
    output: "resnetv24_stage2_activation8"
    name: "resnetv24_stage2_activation8"
    op_type: "Relu"
  }
  node {
    input: "resnetv24_stage2_activation8"
    input: "resnetv24_stage2_conv9_weight"
    output: "resnetv24_stage2_conv9_fwd"
    name: "resnetv24_stage2_conv9_fwd"
    op_type: "Conv"
    attribute {
      name: "dilations"
      ints: 1
      ints: 1
      type: INTS
    }
    attribute {
      name: "group"
      i: 1
      type: INT
    }
    attribute {
      name: "kernel_shape"
      ints: 1
      ints: 1
      type: INTS
    }
    attribute {
      name: "pads"
      ints: 0
      ints: 0
      ints: 0
      ints: 0
      type: INTS
    }
    attribute {
      name: "strides"
      ints: 1
      ints: 1
      type: INTS
    }
  }
  node {
    input: "resnetv24_stage2_conv9_fwd"
    input: "resnetv24_stage2__plus1"
    output: "resnetv24_stage2__plus2"
    name: "resnetv24_stage2__plus2"
    op_type: "Add"
  }
  node {
    input: "resnetv24_stage2__plus2"
    input: "resnetv24_stage2_batchnorm9_gamma"
    input: "resnetv24_stage2_batchnorm9_beta"
    input: "resnetv24_stage2_batchnorm9_running_mean"
    input: "resnetv24_stage2_batchnorm9_running_var"
    output: "resnetv24_stage2_batchnorm9_fwd"
    name: "resnetv24_stage2_batchnorm9_fwd"
    op_type: "BatchNormalization"
    attribute {
      name: "epsilon"
      f: 1e-05
      type: FLOAT
    }
    attribute {
      name: "momentum"
      f: 0.9
      type: FLOAT
    }
    attribute {
      name: "spatial"
      i: 1
      type: INT
    }
  }
  node {
    input: "resnetv24_stage2_batchnorm9_fwd"
    output: "resnetv24_stage2_activation9"
    name: "resnetv24_stage2_activation9"
    op_type: "Relu"
  }
  node {
    input: "resnetv24_stage2_activation9"
    input: "resnetv24_stage2_conv10_weight"
    output: "resnetv24_stage2_conv10_fwd"
    name: "resnetv24_stage2_conv10_fwd"
    op_type: "Conv"
    attribute {
      name: "dilations"
      ints: 1
      ints: 1
      type: INTS
    }
    attribute {
      name: "group"
      i: 1
      type: INT
    }
    attribute {
      name: "kernel_shape"
      ints: 1
      ints: 1
      type: INTS
    }
    attribute {
      name: "pads"
      ints: 0
      ints: 0
      ints: 0
      ints: 0
      type: INTS
    }
    attribute {
      name: "strides"
      ints: 1
      ints: 1
      type: INTS
    }
  }
  node {
    input: "resnetv24_stage2_conv10_fwd"
    input: "resnetv24_stage2_batchnorm10_gamma"
    input: "resnetv24_stage2_batchnorm10_beta"
    input: "resnetv24_stage2_batchnorm10_running_mean"
    input: "resnetv24_stage2_batchnorm10_running_var"
    output: "resnetv24_stage2_batchnorm10_fwd"
    name: "resnetv24_stage2_batchnorm10_fwd"
    op_type: "BatchNormalization"
    attribute {
      name: "epsilon"
      f: 1e-05
      type: FLOAT
    }
    attribute {
      name: "momentum"
      f: 0.9
      type: FLOAT
    }
    attribute {
      name: "spatial"
      i: 1
      type: INT
    }
  }
  node {
    input: "resnetv24_stage2_batchnorm10_fwd"
    output: "resnetv24_stage2_activation10"
    name: "resnetv24_stage2_activation10"
    op_type: "Relu"
  }
  node {
    input: "resnetv24_stage2_activation10"
    input: "resnetv24_stage2_conv11_weight"
    output: "resnetv24_stage2_conv11_fwd"
    name: "resnetv24_stage2_conv11_fwd"
    op_type: "Conv"
    attribute {
      name: "dilations"
      ints: 1
      ints: 1
      type: INTS
    }
    attribute {
      name: "group"
      i: 1
      type: INT
    }
    attribute {
      name: "kernel_shape"
      ints: 3
      ints: 3
      type: INTS
    }
    attribute {
      name: "pads"
      ints: 1
      ints: 1
      ints: 1
      ints: 1
      type: INTS
    }
    attribute {
      name: "strides"
      ints: 1
      ints: 1
      type: INTS
    }
  }
  node {
    input: "resnetv24_stage2_conv11_fwd"
    input: "resnetv24_stage2_batchnorm11_gamma"
    input: "resnetv24_stage2_batchnorm11_beta"
    input: "resnetv24_stage2_batchnorm11_running_mean"
    input: "resnetv24_stage2_batchnorm11_running_var"
    output: "resnetv24_stage2_batchnorm11_fwd"
    name: "resnetv24_stage2_batchnorm11_fwd"
    op_type: "BatchNormalization"
    attribute {
      name: "epsilon"
      f: 1e-05
      type: FLOAT
    }
    attribute {
      name: "momentum"
      f: 0.9
      type: FLOAT
    }
    attribute {
      name: "spatial"
      i: 1
      type: INT
    }
  }
  node {
    input: "resnetv24_stage2_batchnorm11_fwd"
    output: "resnetv24_stage2_activation11"
    name: "resnetv24_stage2_activation11"
    op_type: "Relu"
  }
  node {
    input: "resnetv24_stage2_activation11"
    input: "resnetv24_stage2_conv12_weight"
    output: "resnetv24_stage2_conv12_fwd"
    name: "resnetv24_stage2_conv12_fwd"
    op_type: "Conv"
    attribute {
      name: "dilations"
      ints: 1
      ints: 1
      type: INTS
    }
    attribute {
      name: "group"
      i: 1
      type: INT
    }
    attribute {
      name: "kernel_shape"
      ints: 1
      ints: 1
      type: INTS
    }
    attribute {
      name: "pads"
      ints: 0
      ints: 0
      ints: 0
      ints: 0
      type: INTS
    }
    attribute {
      name: "strides"
      ints: 1
      ints: 1
      type: INTS
    }
  }
  node {
    input: "resnetv24_stage2_conv12_fwd"
    input: "resnetv24_stage2__plus2"
    output: "resnetv24_stage2__plus3"
    name: "resnetv24_stage2__plus3"
    op_type: "Add"
  }
  node {
    input: "resnetv24_stage2__plus3"
    input: "resnetv24_stage3_batchnorm0_gamma"
    input: "resnetv24_stage3_batchnorm0_beta"
    input: "resnetv24_stage3_batchnorm0_running_mean"
    input: "resnetv24_stage3_batchnorm0_running_var"
    output: "resnetv24_stage3_batchnorm0_fwd"
    name: "resnetv24_stage3_batchnorm0_fwd"
    op_type: "BatchNormalization"
    attribute {
      name: "epsilon"
      f: 1e-05
      type: FLOAT
    }
    attribute {
      name: "momentum"
      f: 0.9
      type: FLOAT
    }
    attribute {
      name: "spatial"
      i: 1
      type: INT
    }
  }
  node {
    input: "resnetv24_stage3_batchnorm0_fwd"
    output: "resnetv24_stage3_activation0"
    name: "resnetv24_stage3_activation0"
    op_type: "Relu"
  }
  node {
    input: "resnetv24_stage3_activation0"
    input: "resnetv24_stage3_conv0_weight"
    output: "resnetv24_stage3_conv0_fwd"
    name: "resnetv24_stage3_conv0_fwd"
    op_type: "Conv"
    attribute {
      name: "dilations"
      ints: 1
      ints: 1
      type: INTS
    }
    attribute {
      name: "group"
      i: 1
      type: INT
    }
    attribute {
      name: "kernel_shape"
      ints: 1
      ints: 1
      type: INTS
    }
    attribute {
      name: "pads"
      ints: 0
      ints: 0
      ints: 0
      ints: 0
      type: INTS
    }
    attribute {
      name: "strides"
      ints: 1
      ints: 1
      type: INTS
    }
  }
  node {
    input: "resnetv24_stage3_conv0_fwd"
    input: "resnetv24_stage3_batchnorm1_gamma"
    input: "resnetv24_stage3_batchnorm1_beta"
    input: "resnetv24_stage3_batchnorm1_running_mean"
    input: "resnetv24_stage3_batchnorm1_running_var"
    output: "resnetv24_stage3_batchnorm1_fwd"
    name: "resnetv24_stage3_batchnorm1_fwd"
    op_type: "BatchNormalization"
    attribute {
      name: "epsilon"
      f: 1e-05
      type: FLOAT
    }
    attribute {
      name: "momentum"
      f: 0.9
      type: FLOAT
    }
    attribute {
      name: "spatial"
      i: 1
      type: INT
    }
  }
  node {
    input: "resnetv24_stage3_batchnorm1_fwd"
    output: "resnetv24_stage3_activation1"
    name: "resnetv24_stage3_activation1"
    op_type: "Relu"
  }
  node {
    input: "resnetv24_stage3_activation1"
    input: "resnetv24_stage3_conv1_weight"
    output: "resnetv24_stage3_conv1_fwd"
    name: "resnetv24_stage3_conv1_fwd"
    op_type: "Conv"
    attribute {
      name: "dilations"
      ints: 1
      ints: 1
      type: INTS
    }
    attribute {
      name: "group"
      i: 1
      type: INT
    }
    attribute {
      name: "kernel_shape"
      ints: 3
      ints: 3
      type: INTS
    }
    attribute {
      name: "pads"
      ints: 1
      ints: 1
      ints: 1
      ints: 1
      type: INTS
    }
    attribute {
      name: "strides"
      ints: 2
      ints: 2
      type: INTS
    }
  }
  node {
    input: "resnetv24_stage3_conv1_fwd"
    input: "resnetv24_stage3_batchnorm2_gamma"
    input: "resnetv24_stage3_batchnorm2_beta"
    input: "resnetv24_stage3_batchnorm2_running_mean"
    input: "resnetv24_stage3_batchnorm2_running_var"
    output: "resnetv24_stage3_batchnorm2_fwd"
    name: "resnetv24_stage3_batchnorm2_fwd"
    op_type: "BatchNormalization"
    attribute {
      name: "epsilon"
      f: 1e-05
      type: FLOAT
    }
    attribute {
      name: "momentum"
      f: 0.9
      type: FLOAT
    }
    attribute {
      name: "spatial"
      i: 1
      type: INT
    }
  }
  node {
    input: "resnetv24_stage3_batchnorm2_fwd"
    output: "resnetv24_stage3_activation2"
    name: "resnetv24_stage3_activation2"
    op_type: "Relu"
  }
  node {
    input: "resnetv24_stage3_activation2"
    input: "resnetv24_stage3_conv2_weight"
    output: "resnetv24_stage3_conv2_fwd"
    name: "resnetv24_stage3_conv2_fwd"
    op_type: "Conv"
    attribute {
      name: "dilations"
      ints: 1
      ints: 1
      type: INTS
    }
    attribute {
      name: "group"
      i: 1
      type: INT
    }
    attribute {
      name: "kernel_shape"
      ints: 1
      ints: 1
      type: INTS
    }
    attribute {
      name: "pads"
      ints: 0
      ints: 0
      ints: 0
      ints: 0
      type: INTS
    }
    attribute {
      name: "strides"
      ints: 1
      ints: 1
      type: INTS
    }
  }
  node {
    input: "resnetv24_stage3_activation0"
    input: "resnetv24_stage3_conv3_weight"
    output: "resnetv24_stage3_conv3_fwd"
    name: "resnetv24_stage3_conv3_fwd"
    op_type: "Conv"
    attribute {
      name: "dilations"
      ints: 1
      ints: 1
      type: INTS
    }
    attribute {
      name: "group"
      i: 1
      type: INT
    }
    attribute {
      name: "kernel_shape"
      ints: 1
      ints: 1
      type: INTS
    }
    attribute {
      name: "pads"
      ints: 0
      ints: 0
      ints: 0
      ints: 0
      type: INTS
    }
    attribute {
      name: "strides"
      ints: 2
      ints: 2
      type: INTS
    }
  }
  node {
    input: "resnetv24_stage3_conv2_fwd"
    input: "resnetv24_stage3_conv3_fwd"
    output: "resnetv24_stage3__plus0"
    name: "resnetv24_stage3__plus0"
    op_type: "Add"
  }
  node {
    input: "resnetv24_stage3__plus0"
    input: "resnetv24_stage3_batchnorm3_gamma"
    input: "resnetv24_stage3_batchnorm3_beta"
    input: "resnetv24_stage3_batchnorm3_running_mean"
    input: "resnetv24_stage3_batchnorm3_running_var"
    output: "resnetv24_stage3_batchnorm3_fwd"
    name: "resnetv24_stage3_batchnorm3_fwd"
    op_type: "BatchNormalization"
    attribute {
      name: "epsilon"
      f: 1e-05
      type: FLOAT
    }
    attribute {
      name: "momentum"
      f: 0.9
      type: FLOAT
    }
    attribute {
      name: "spatial"
      i: 1
      type: INT
    }
  }
  node {
    input: "resnetv24_stage3_batchnorm3_fwd"
    output: "resnetv24_stage3_activation3"
    name: "resnetv24_stage3_activation3"
    op_type: "Relu"
  }
  node {
    input: "resnetv24_stage3_activation3"
    input: "resnetv24_stage3_conv4_weight"
    output: "resnetv24_stage3_conv4_fwd"
    name: "resnetv24_stage3_conv4_fwd"
    op_type: "Conv"
    attribute {
      name: "dilations"
      ints: 1
      ints: 1
      type: INTS
    }
    attribute {
      name: "group"
      i: 1
      type: INT
    }
    attribute {
      name: "kernel_shape"
      ints: 1
      ints: 1
      type: INTS
    }
    attribute {
      name: "pads"
      ints: 0
      ints: 0
      ints: 0
      ints: 0
      type: INTS
    }
    attribute {
      name: "strides"
      ints: 1
      ints: 1
      type: INTS
    }
  }
  node {
    input: "resnetv24_stage3_conv4_fwd"
    input: "resnetv24_stage3_batchnorm4_gamma"
    input: "resnetv24_stage3_batchnorm4_beta"
    input: "resnetv24_stage3_batchnorm4_running_mean"
    input: "resnetv24_stage3_batchnorm4_running_var"
    output: "resnetv24_stage3_batchnorm4_fwd"
    name: "resnetv24_stage3_batchnorm4_fwd"
    op_type: "BatchNormalization"
    attribute {
      name: "epsilon"
      f: 1e-05
      type: FLOAT
    }
    attribute {
      name: "momentum"
      f: 0.9
      type: FLOAT
    }
    attribute {
      name: "spatial"
      i: 1
      type: INT
    }
  }
  node {
    input: "resnetv24_stage3_batchnorm4_fwd"
    output: "resnetv24_stage3_activation4"
    name: "resnetv24_stage3_activation4"
    op_type: "Relu"
  }
  node {
    input: "resnetv24_stage3_activation4"
    input: "resnetv24_stage3_conv5_weight"
    output: "resnetv24_stage3_conv5_fwd"
    name: "resnetv24_stage3_conv5_fwd"
    op_type: "Conv"
    attribute {
      name: "dilations"
      ints: 1
      ints: 1
      type: INTS
    }
    attribute {
      name: "group"
      i: 1
      type: INT
    }
    attribute {
      name: "kernel_shape"
      ints: 3
      ints: 3
      type: INTS
    }
    attribute {
      name: "pads"
      ints: 1
      ints: 1
      ints: 1
      ints: 1
      type: INTS
    }
    attribute {
      name: "strides"
      ints: 1
      ints: 1
      type: INTS
    }
  }
  node {
    input: "resnetv24_stage3_conv5_fwd"
    input: "resnetv24_stage3_batchnorm5_gamma"
    input: "resnetv24_stage3_batchnorm5_beta"
    input: "resnetv24_stage3_batchnorm5_running_mean"
    input: "resnetv24_stage3_batchnorm5_running_var"
    output: "resnetv24_stage3_batchnorm5_fwd"
    name: "resnetv24_stage3_batchnorm5_fwd"
    op_type: "BatchNormalization"
    attribute {
      name: "epsilon"
      f: 1e-05
      type: FLOAT
    }
    attribute {
      name: "momentum"
      f: 0.9
      type: FLOAT
    }
    attribute {
      name: "spatial"
      i: 1
      type: INT
    }
  }
  node {
    input: "resnetv24_stage3_batchnorm5_fwd"
    output: "resnetv24_stage3_activation5"
    name: "resnetv24_stage3_activation5"
    op_type: "Relu"
  }
  node {
    input: "resnetv24_stage3_activation5"
    input: "resnetv24_stage3_conv6_weight"
    output: "resnetv24_stage3_conv6_fwd"
    name: "resnetv24_stage3_conv6_fwd"
    op_type: "Conv"
    attribute {
      name: "dilations"
      ints: 1
      ints: 1
      type: INTS
    }
    attribute {
      name: "group"
      i: 1
      type: INT
    }
    attribute {
      name: "kernel_shape"
      ints: 1
      ints: 1
      type: INTS
    }
    attribute {
      name: "pads"
      ints: 0
      ints: 0
      ints: 0
      ints: 0
      type: INTS
    }
    attribute {
      name: "strides"
      ints: 1
      ints: 1
      type: INTS
    }
  }
  node {
    input: "resnetv24_stage3_conv6_fwd"
    input: "resnetv24_stage3__plus0"
    output: "resnetv24_stage3__plus1"
    name: "resnetv24_stage3__plus1"
    op_type: "Add"
  }
  node {
    input: "resnetv24_stage3__plus1"
    input: "resnetv24_stage3_batchnorm6_gamma"
    input: "resnetv24_stage3_batchnorm6_beta"
    input: "resnetv24_stage3_batchnorm6_running_mean"
    input: "resnetv24_stage3_batchnorm6_running_var"
    output: "resnetv24_stage3_batchnorm6_fwd"
    name: "resnetv24_stage3_batchnorm6_fwd"
    op_type: "BatchNormalization"
    attribute {
      name: "epsilon"
      f: 1e-05
      type: FLOAT
    }
    attribute {
      name: "momentum"
      f: 0.9
      type: FLOAT
    }
    attribute {
      name: "spatial"
      i: 1
      type: INT
    }
  }
  node {
    input: "resnetv24_stage3_batchnorm6_fwd"
    output: "resnetv24_stage3_activation6"
    name: "resnetv24_stage3_activation6"
    op_type: "Relu"
  }
  node {
    input: "resnetv24_stage3_activation6"
    input: "resnetv24_stage3_conv7_weight"
    output: "resnetv24_stage3_conv7_fwd"
    name: "resnetv24_stage3_conv7_fwd"
    op_type: "Conv"
    attribute {
      name: "dilations"
      ints: 1
      ints: 1
      type: INTS
    }
    attribute {
      name: "group"
      i: 1
      type: INT
    }
    attribute {
      name: "kernel_shape"
      ints: 1
      ints: 1
      type: INTS
    }
    attribute {
      name: "pads"
      ints: 0
      ints: 0
      ints: 0
      ints: 0
      type: INTS
    }
    attribute {
      name: "strides"
      ints: 1
      ints: 1
      type: INTS
    }
  }
  node {
    input: "resnetv24_stage3_conv7_fwd"
    input: "resnetv24_stage3_batchnorm7_gamma"
    input: "resnetv24_stage3_batchnorm7_beta"
    input: "resnetv24_stage3_batchnorm7_running_mean"
    input: "resnetv24_stage3_batchnorm7_running_var"
    output: "resnetv24_stage3_batchnorm7_fwd"
    name: "resnetv24_stage3_batchnorm7_fwd"
    op_type: "BatchNormalization"
    attribute {
      name: "epsilon"
      f: 1e-05
      type: FLOAT
    }
    attribute {
      name: "momentum"
      f: 0.9
      type: FLOAT
    }
    attribute {
      name: "spatial"
      i: 1
      type: INT
    }
  }
  node {
    input: "resnetv24_stage3_batchnorm7_fwd"
    output: "resnetv24_stage3_activation7"
    name: "resnetv24_stage3_activation7"
    op_type: "Relu"
  }
  node {
    input: "resnetv24_stage3_activation7"
    input: "resnetv24_stage3_conv8_weight"
    output: "resnetv24_stage3_conv8_fwd"
    name: "resnetv24_stage3_conv8_fwd"
    op_type: "Conv"
    attribute {
      name: "dilations"
      ints: 1
      ints: 1
      type: INTS
    }
    attribute {
      name: "group"
      i: 1
      type: INT
    }
    attribute {
      name: "kernel_shape"
      ints: 3
      ints: 3
      type: INTS
    }
    attribute {
      name: "pads"
      ints: 1
      ints: 1
      ints: 1
      ints: 1
      type: INTS
    }
    attribute {
      name: "strides"
      ints: 1
      ints: 1
      type: INTS
    }
  }
  node {
    input: "resnetv24_stage3_conv8_fwd"
    input: "resnetv24_stage3_batchnorm8_gamma"
    input: "resnetv24_stage3_batchnorm8_beta"
    input: "resnetv24_stage3_batchnorm8_running_mean"
    input: "resnetv24_stage3_batchnorm8_running_var"
    output: "resnetv24_stage3_batchnorm8_fwd"
    name: "resnetv24_stage3_batchnorm8_fwd"
    op_type: "BatchNormalization"
    attribute {
      name: "epsilon"
      f: 1e-05
      type: FLOAT
    }
    attribute {
      name: "momentum"
      f: 0.9
      type: FLOAT
    }
    attribute {
      name: "spatial"
      i: 1
      type: INT
    }
  }
  node {
    input: "resnetv24_stage3_batchnorm8_fwd"
    output: "resnetv24_stage3_activation8"
    name: "resnetv24_stage3_activation8"
    op_type: "Relu"
  }
  node {
    input: "resnetv24_stage3_activation8"
    input: "resnetv24_stage3_conv9_weight"
    output: "resnetv24_stage3_conv9_fwd"
    name: "resnetv24_stage3_conv9_fwd"
    op_type: "Conv"
    attribute {
      name: "dilations"
      ints: 1
      ints: 1
      type: INTS
    }
    attribute {
      name: "group"
      i: 1
      type: INT
    }
    attribute {
      name: "kernel_shape"
      ints: 1
      ints: 1
      type: INTS
    }
    attribute {
      name: "pads"
      ints: 0
      ints: 0
      ints: 0
      ints: 0
      type: INTS
    }
    attribute {
      name: "strides"
      ints: 1
      ints: 1
      type: INTS
    }
  }
  node {
    input: "resnetv24_stage3_conv9_fwd"
    input: "resnetv24_stage3__plus1"
    output: "resnetv24_stage3__plus2"
    name: "resnetv24_stage3__plus2"
    op_type: "Add"
  }
  node {
    input: "resnetv24_stage3__plus2"
    input: "resnetv24_stage3_batchnorm9_gamma"
    input: "resnetv24_stage3_batchnorm9_beta"
    input: "resnetv24_stage3_batchnorm9_running_mean"
    input: "resnetv24_stage3_batchnorm9_running_var"
    output: "resnetv24_stage3_batchnorm9_fwd"
    name: "resnetv24_stage3_batchnorm9_fwd"
    op_type: "BatchNormalization"
    attribute {
      name: "epsilon"
      f: 1e-05
      type: FLOAT
    }
    attribute {
      name: "momentum"
      f: 0.9
      type: FLOAT
    }
    attribute {
      name: "spatial"
      i: 1
      type: INT
    }
  }
  node {
    input: "resnetv24_stage3_batchnorm9_fwd"
    output: "resnetv24_stage3_activation9"
    name: "resnetv24_stage3_activation9"
    op_type: "Relu"
  }
  node {
    input: "resnetv24_stage3_activation9"
    input: "resnetv24_stage3_conv10_weight"
    output: "resnetv24_stage3_conv10_fwd"
    name: "resnetv24_stage3_conv10_fwd"
    op_type: "Conv"
    attribute {
      name: "dilations"
      ints: 1
      ints: 1
      type: INTS
    }
    attribute {
      name: "group"
      i: 1
      type: INT
    }
    attribute {
      name: "kernel_shape"
      ints: 1
      ints: 1
      type: INTS
    }
    attribute {
      name: "pads"
      ints: 0
      ints: 0
      ints: 0
      ints: 0
      type: INTS
    }
    attribute {
      name: "strides"
      ints: 1
      ints: 1
      type: INTS
    }
  }
  node {
    input: "resnetv24_stage3_conv10_fwd"
    input: "resnetv24_stage3_batchnorm10_gamma"
    input: "resnetv24_stage3_batchnorm10_beta"
    input: "resnetv24_stage3_batchnorm10_running_mean"
    input: "resnetv24_stage3_batchnorm10_running_var"
    output: "resnetv24_stage3_batchnorm10_fwd"
    name: "resnetv24_stage3_batchnorm10_fwd"
    op_type: "BatchNormalization"
    attribute {
      name: "epsilon"
      f: 1e-05
      type: FLOAT
    }
    attribute {
      name: "momentum"
      f: 0.9
      type: FLOAT
    }
    attribute {
      name: "spatial"
      i: 1
      type: INT
    }
  }
  node {
    input: "resnetv24_stage3_batchnorm10_fwd"
    output: "resnetv24_stage3_activation10"
    name: "resnetv24_stage3_activation10"
    op_type: "Relu"
  }
  node {
    input: "resnetv24_stage3_activation10"
    input: "resnetv24_stage3_conv11_weight"
    output: "resnetv24_stage3_conv11_fwd"
    name: "resnetv24_stage3_conv11_fwd"
    op_type: "Conv"
    attribute {
      name: "dilations"
      ints: 1
      ints: 1
      type: INTS
    }
    attribute {
      name: "group"
      i: 1
      type: INT
    }
    attribute {
      name: "kernel_shape"
      ints: 3
      ints: 3
      type: INTS
    }
    attribute {
      name: "pads"
      ints: 1
      ints: 1
      ints: 1
      ints: 1
      type: INTS
    }
    attribute {
      name: "strides"
      ints: 1
      ints: 1
      type: INTS
    }
  }
  node {
    input: "resnetv24_stage3_conv11_fwd"
    input: "resnetv24_stage3_batchnorm11_gamma"
    input: "resnetv24_stage3_batchnorm11_beta"
    input: "resnetv24_stage3_batchnorm11_running_mean"
    input: "resnetv24_stage3_batchnorm11_running_var"
    output: "resnetv24_stage3_batchnorm11_fwd"
    name: "resnetv24_stage3_batchnorm11_fwd"
    op_type: "BatchNormalization"
    attribute {
      name: "epsilon"
      f: 1e-05
      type: FLOAT
    }
    attribute {
      name: "momentum"
      f: 0.9
      type: FLOAT
    }
    attribute {
      name: "spatial"
      i: 1
      type: INT
    }
  }
  node {
    input: "resnetv24_stage3_batchnorm11_fwd"
    output: "resnetv24_stage3_activation11"
    name: "resnetv24_stage3_activation11"
    op_type: "Relu"
  }
  node {
    input: "resnetv24_stage3_activation11"
    input: "resnetv24_stage3_conv12_weight"
    output: "resnetv24_stage3_conv12_fwd"
    name: "resnetv24_stage3_conv12_fwd"
    op_type: "Conv"
    attribute {
      name: "dilations"
      ints: 1
      ints: 1
      type: INTS
    }
    attribute {
      name: "group"
      i: 1
      type: INT
    }
    attribute {
      name: "kernel_shape"
      ints: 1
      ints: 1
      type: INTS
    }
    attribute {
      name: "pads"
      ints: 0
      ints: 0
      ints: 0
      ints: 0
      type: INTS
    }
    attribute {
      name: "strides"
      ints: 1
      ints: 1
      type: INTS
    }
  }
  node {
    input: "resnetv24_stage3_conv12_fwd"
    input: "resnetv24_stage3__plus2"
    output: "resnetv24_stage3__plus3"
    name: "resnetv24_stage3__plus3"
    op_type: "Add"
  }
  node {
    input: "resnetv24_stage3__plus3"
    input: "resnetv24_stage3_batchnorm12_gamma"
    input: "resnetv24_stage3_batchnorm12_beta"
    input: "resnetv24_stage3_batchnorm12_running_mean"
    input: "resnetv24_stage3_batchnorm12_running_var"
    output: "resnetv24_stage3_batchnorm12_fwd"
    name: "resnetv24_stage3_batchnorm12_fwd"
    op_type: "BatchNormalization"
    attribute {
      name: "epsilon"
      f: 1e-05
      type: FLOAT
    }
    attribute {
      name: "momentum"
      f: 0.9
      type: FLOAT
    }
    attribute {
      name: "spatial"
      i: 1
      type: INT
    }
  }
  node {
    input: "resnetv24_stage3_batchnorm12_fwd"
    output: "resnetv24_stage3_activation12"
    name: "resnetv24_stage3_activation12"
    op_type: "Relu"
  }
  node {
    input: "resnetv24_stage3_activation12"
    input: "resnetv24_stage3_conv13_weight"
    output: "resnetv24_stage3_conv13_fwd"
    name: "resnetv24_stage3_conv13_fwd"
    op_type: "Conv"
    attribute {
      name: "dilations"
      ints: 1
      ints: 1
      type: INTS
    }
    attribute {
      name: "group"
      i: 1
      type: INT
    }
    attribute {
      name: "kernel_shape"
      ints: 1
      ints: 1
      type: INTS
    }
    attribute {
      name: "pads"
      ints: 0
      ints: 0
      ints: 0
      ints: 0
      type: INTS
    }
    attribute {
      name: "strides"
      ints: 1
      ints: 1
      type: INTS
    }
  }
  node {
    input: "resnetv24_stage3_conv13_fwd"
    input: "resnetv24_stage3_batchnorm13_gamma"
    input: "resnetv24_stage3_batchnorm13_beta"
    input: "resnetv24_stage3_batchnorm13_running_mean"
    input: "resnetv24_stage3_batchnorm13_running_var"
    output: "resnetv24_stage3_batchnorm13_fwd"
    name: "resnetv24_stage3_batchnorm13_fwd"
    op_type: "BatchNormalization"
    attribute {
      name: "epsilon"
      f: 1e-05
      type: FLOAT
    }
    attribute {
      name: "momentum"
      f: 0.9
      type: FLOAT
    }
    attribute {
      name: "spatial"
      i: 1
      type: INT
    }
  }
  node {
    input: "resnetv24_stage3_batchnorm13_fwd"
    output: "resnetv24_stage3_activation13"
    name: "resnetv24_stage3_activation13"
    op_type: "Relu"
  }
  node {
    input: "resnetv24_stage3_activation13"
    input: "resnetv24_stage3_conv14_weight"
    output: "resnetv24_stage3_conv14_fwd"
    name: "resnetv24_stage3_conv14_fwd"
    op_type: "Conv"
    attribute {
      name: "dilations"
      ints: 1
      ints: 1
      type: INTS
    }
    attribute {
      name: "group"
      i: 1
      type: INT
    }
    attribute {
      name: "kernel_shape"
      ints: 3
      ints: 3
      type: INTS
    }
    attribute {
      name: "pads"
      ints: 1
      ints: 1
      ints: 1
      ints: 1
      type: INTS
    }
    attribute {
      name: "strides"
      ints: 1
      ints: 1
      type: INTS
    }
  }
  node {
    input: "resnetv24_stage3_conv14_fwd"
    input: "resnetv24_stage3_batchnorm14_gamma"
    input: "resnetv24_stage3_batchnorm14_beta"
    input: "resnetv24_stage3_batchnorm14_running_mean"
    input: "resnetv24_stage3_batchnorm14_running_var"
    output: "resnetv24_stage3_batchnorm14_fwd"
    name: "resnetv24_stage3_batchnorm14_fwd"
    op_type: "BatchNormalization"
    attribute {
      name: "epsilon"
      f: 1e-05
      type: FLOAT
    }
    attribute {
      name: "momentum"
      f: 0.9
      type: FLOAT
    }
    attribute {
      name: "spatial"
      i: 1
      type: INT
    }
  }
  node {
    input: "resnetv24_stage3_batchnorm14_fwd"
    output: "resnetv24_stage3_activation14"
    name: "resnetv24_stage3_activation14"
    op_type: "Relu"
  }
  node {
    input: "resnetv24_stage3_activation14"
    input: "resnetv24_stage3_conv15_weight"
    output: "resnetv24_stage3_conv15_fwd"
    name: "resnetv24_stage3_conv15_fwd"
    op_type: "Conv"
    attribute {
      name: "dilations"
      ints: 1
      ints: 1
      type: INTS
    }
    attribute {
      name: "group"
      i: 1
      type: INT
    }
    attribute {
      name: "kernel_shape"
      ints: 1
      ints: 1
      type: INTS
    }
    attribute {
      name: "pads"
      ints: 0
      ints: 0
      ints: 0
      ints: 0
      type: INTS
    }
    attribute {
      name: "strides"
      ints: 1
      ints: 1
      type: INTS
    }
  }
  node {
    input: "resnetv24_stage3_conv15_fwd"
    input: "resnetv24_stage3__plus3"
    output: "resnetv24_stage3__plus4"
    name: "resnetv24_stage3__plus4"
    op_type: "Add"
  }
  node {
    input: "resnetv24_stage3__plus4"
    input: "resnetv24_stage3_batchnorm15_gamma"
    input: "resnetv24_stage3_batchnorm15_beta"
    input: "resnetv24_stage3_batchnorm15_running_mean"
    input: "resnetv24_stage3_batchnorm15_running_var"
    output: "resnetv24_stage3_batchnorm15_fwd"
    name: "resnetv24_stage3_batchnorm15_fwd"
    op_type: "BatchNormalization"
    attribute {
      name: "epsilon"
      f: 1e-05
      type: FLOAT
    }
    attribute {
      name: "momentum"
      f: 0.9
      type: FLOAT
    }
    attribute {
      name: "spatial"
      i: 1
      type: INT
    }
  }
  node {
    input: "resnetv24_stage3_batchnorm15_fwd"
    output: "resnetv24_stage3_activation15"
    name: "resnetv24_stage3_activation15"
    op_type: "Relu"
  }
  node {
    input: "resnetv24_stage3_activation15"
    input: "resnetv24_stage3_conv16_weight"
    output: "resnetv24_stage3_conv16_fwd"
    name: "resnetv24_stage3_conv16_fwd"
    op_type: "Conv"
    attribute {
      name: "dilations"
      ints: 1
      ints: 1
      type: INTS
    }
    attribute {
      name: "group"
      i: 1
      type: INT
    }
    attribute {
      name: "kernel_shape"
      ints: 1
      ints: 1
      type: INTS
    }
    attribute {
      name: "pads"
      ints: 0
      ints: 0
      ints: 0
      ints: 0
      type: INTS
    }
    attribute {
      name: "strides"
      ints: 1
      ints: 1
      type: INTS
    }
  }
  node {
    input: "resnetv24_stage3_conv16_fwd"
    input: "resnetv24_stage3_batchnorm16_gamma"
    input: "resnetv24_stage3_batchnorm16_beta"
    input: "resnetv24_stage3_batchnorm16_running_mean"
    input: "resnetv24_stage3_batchnorm16_running_var"
    output: "resnetv24_stage3_batchnorm16_fwd"
    name: "resnetv24_stage3_batchnorm16_fwd"
    op_type: "BatchNormalization"
    attribute {
      name: "epsilon"
      f: 1e-05
      type: FLOAT
    }
    attribute {
      name: "momentum"
      f: 0.9
      type: FLOAT
    }
    attribute {
      name: "spatial"
      i: 1
      type: INT
    }
  }
  node {
    input: "resnetv24_stage3_batchnorm16_fwd"
    output: "resnetv24_stage3_activation16"
    name: "resnetv24_stage3_activation16"
    op_type: "Relu"
  }
  node {
    input: "resnetv24_stage3_activation16"
    input: "resnetv24_stage3_conv17_weight"
    output: "resnetv24_stage3_conv17_fwd"
    name: "resnetv24_stage3_conv17_fwd"
    op_type: "Conv"
    attribute {
      name: "dilations"
      ints: 1
      ints: 1
      type: INTS
    }
    attribute {
      name: "group"
      i: 1
      type: INT
    }
    attribute {
      name: "kernel_shape"
      ints: 3
      ints: 3
      type: INTS
    }
    attribute {
      name: "pads"
      ints: 1
      ints: 1
      ints: 1
      ints: 1
      type: INTS
    }
    attribute {
      name: "strides"
      ints: 1
      ints: 1
      type: INTS
    }
  }
  node {
    input: "resnetv24_stage3_conv17_fwd"
    input: "resnetv24_stage3_batchnorm17_gamma"
    input: "resnetv24_stage3_batchnorm17_beta"
    input: "resnetv24_stage3_batchnorm17_running_mean"
    input: "resnetv24_stage3_batchnorm17_running_var"
    output: "resnetv24_stage3_batchnorm17_fwd"
    name: "resnetv24_stage3_batchnorm17_fwd"
    op_type: "BatchNormalization"
    attribute {
      name: "epsilon"
      f: 1e-05
      type: FLOAT
    }
    attribute {
      name: "momentum"
      f: 0.9
      type: FLOAT
    }
    attribute {
      name: "spatial"
      i: 1
      type: INT
    }
  }
  node {
    input: "resnetv24_stage3_batchnorm17_fwd"
    output: "resnetv24_stage3_activation17"
    name: "resnetv24_stage3_activation17"
    op_type: "Relu"
  }
  node {
    input: "resnetv24_stage3_activation17"
    input: "resnetv24_stage3_conv18_weight"
    output: "resnetv24_stage3_conv18_fwd"
    name: "resnetv24_stage3_conv18_fwd"
    op_type: "Conv"
    attribute {
      name: "dilations"
      ints: 1
      ints: 1
      type: INTS
    }
    attribute {
      name: "group"
      i: 1
      type: INT
    }
    attribute {
      name: "kernel_shape"
      ints: 1
      ints: 1
      type: INTS
    }
    attribute {
      name: "pads"
      ints: 0
      ints: 0
      ints: 0
      ints: 0
      type: INTS
    }
    attribute {
      name: "strides"
      ints: 1
      ints: 1
      type: INTS
    }
  }
  node {
    input: "resnetv24_stage3_conv18_fwd"
    input: "resnetv24_stage3__plus4"
    output: "resnetv24_stage3__plus5"
    name: "resnetv24_stage3__plus5"
    op_type: "Add"
  }
  node {
    input: "resnetv24_stage3__plus5"
    input: "resnetv24_stage4_batchnorm0_gamma"
    input: "resnetv24_stage4_batchnorm0_beta"
    input: "resnetv24_stage4_batchnorm0_running_mean"
    input: "resnetv24_stage4_batchnorm0_running_var"
    output: "resnetv24_stage4_batchnorm0_fwd"
    name: "resnetv24_stage4_batchnorm0_fwd"
    op_type: "BatchNormalization"
    attribute {
      name: "epsilon"
      f: 1e-05
      type: FLOAT
    }
    attribute {
      name: "momentum"
      f: 0.9
      type: FLOAT
    }
    attribute {
      name: "spatial"
      i: 1
      type: INT
    }
  }
  node {
    input: "resnetv24_stage4_batchnorm0_fwd"
    output: "resnetv24_stage4_activation0"
    name: "resnetv24_stage4_activation0"
    op_type: "Relu"
  }
  node {
    input: "resnetv24_stage4_activation0"
    input: "resnetv24_stage4_conv0_weight"
    output: "resnetv24_stage4_conv0_fwd"
    name: "resnetv24_stage4_conv0_fwd"
    op_type: "Conv"
    attribute {
      name: "dilations"
      ints: 1
      ints: 1
      type: INTS
    }
    attribute {
      name: "group"
      i: 1
      type: INT
    }
    attribute {
      name: "kernel_shape"
      ints: 1
      ints: 1
      type: INTS
    }
    attribute {
      name: "pads"
      ints: 0
      ints: 0
      ints: 0
      ints: 0
      type: INTS
    }
    attribute {
      name: "strides"
      ints: 1
      ints: 1
      type: INTS
    }
  }
  node {
    input: "resnetv24_stage4_conv0_fwd"
    input: "resnetv24_stage4_batchnorm1_gamma"
    input: "resnetv24_stage4_batchnorm1_beta"
    input: "resnetv24_stage4_batchnorm1_running_mean"
    input: "resnetv24_stage4_batchnorm1_running_var"
    output: "resnetv24_stage4_batchnorm1_fwd"
    name: "resnetv24_stage4_batchnorm1_fwd"
    op_type: "BatchNormalization"
    attribute {
      name: "epsilon"
      f: 1e-05
      type: FLOAT
    }
    attribute {
      name: "momentum"
      f: 0.9
      type: FLOAT
    }
    attribute {
      name: "spatial"
      i: 1
      type: INT
    }
  }
  node {
    input: "resnetv24_stage4_batchnorm1_fwd"
    output: "resnetv24_stage4_activation1"
    name: "resnetv24_stage4_activation1"
    op_type: "Relu"
  }
  node {
    input: "resnetv24_stage4_activation1"
    input: "resnetv24_stage4_conv1_weight"
    output: "resnetv24_stage4_conv1_fwd"
    name: "resnetv24_stage4_conv1_fwd"
    op_type: "Conv"
    attribute {
      name: "dilations"
      ints: 1
      ints: 1
      type: INTS
    }
    attribute {
      name: "group"
      i: 1
      type: INT
    }
    attribute {
      name: "kernel_shape"
      ints: 3
      ints: 3
      type: INTS
    }
    attribute {
      name: "pads"
      ints: 1
      ints: 1
      ints: 1
      ints: 1
      type: INTS
    }
    attribute {
      name: "strides"
      ints: 2
      ints: 2
      type: INTS
    }
  }
  node {
    input: "resnetv24_stage4_conv1_fwd"
    input: "resnetv24_stage4_batchnorm2_gamma"
    input: "resnetv24_stage4_batchnorm2_beta"
    input: "resnetv24_stage4_batchnorm2_running_mean"
    input: "resnetv24_stage4_batchnorm2_running_var"
    output: "resnetv24_stage4_batchnorm2_fwd"
    name: "resnetv24_stage4_batchnorm2_fwd"
    op_type: "BatchNormalization"
    attribute {
      name: "epsilon"
      f: 1e-05
      type: FLOAT
    }
    attribute {
      name: "momentum"
      f: 0.9
      type: FLOAT
    }
    attribute {
      name: "spatial"
      i: 1
      type: INT
    }
  }
  node {
    input: "resnetv24_stage4_batchnorm2_fwd"
    output: "resnetv24_stage4_activation2"
    name: "resnetv24_stage4_activation2"
    op_type: "Relu"
  }
  node {
    input: "resnetv24_stage4_activation2"
    input: "resnetv24_stage4_conv2_weight"
    output: "resnetv24_stage4_conv2_fwd"
    name: "resnetv24_stage4_conv2_fwd"
    op_type: "Conv"
    attribute {
      name: "dilations"
      ints: 1
      ints: 1
      type: INTS
    }
    attribute {
      name: "group"
      i: 1
      type: INT
    }
    attribute {
      name: "kernel_shape"
      ints: 1
      ints: 1
      type: INTS
    }
    attribute {
      name: "pads"
      ints: 0
      ints: 0
      ints: 0
      ints: 0
      type: INTS
    }
    attribute {
      name: "strides"
      ints: 1
      ints: 1
      type: INTS
    }
  }
  node {
    input: "resnetv24_stage4_activation0"
    input: "resnetv24_stage4_conv3_weight"
    output: "resnetv24_stage4_conv3_fwd"
    name: "resnetv24_stage4_conv3_fwd"
    op_type: "Conv"
    attribute {
      name: "dilations"
      ints: 1
      ints: 1
      type: INTS
    }
    attribute {
      name: "group"
      i: 1
      type: INT
    }
    attribute {
      name: "kernel_shape"
      ints: 1
      ints: 1
      type: INTS
    }
    attribute {
      name: "pads"
      ints: 0
      ints: 0
      ints: 0
      ints: 0
      type: INTS
    }
    attribute {
      name: "strides"
      ints: 2
      ints: 2
      type: INTS
    }
  }
  node {
    input: "resnetv24_stage4_conv2_fwd"
    input: "resnetv24_stage4_conv3_fwd"
    output: "resnetv24_stage4__plus0"
    name: "resnetv24_stage4__plus0"
    op_type: "Add"
  }
  node {
    input: "resnetv24_stage4__plus0"
    input: "resnetv24_stage4_batchnorm3_gamma"
    input: "resnetv24_stage4_batchnorm3_beta"
    input: "resnetv24_stage4_batchnorm3_running_mean"
    input: "resnetv24_stage4_batchnorm3_running_var"
    output: "resnetv24_stage4_batchnorm3_fwd"
    name: "resnetv24_stage4_batchnorm3_fwd"
    op_type: "BatchNormalization"
    attribute {
      name: "epsilon"
      f: 1e-05
      type: FLOAT
    }
    attribute {
      name: "momentum"
      f: 0.9
      type: FLOAT
    }
    attribute {
      name: "spatial"
      i: 1
      type: INT
    }
  }
  node {
    input: "resnetv24_stage4_batchnorm3_fwd"
    output: "resnetv24_stage4_activation3"
    name: "resnetv24_stage4_activation3"
    op_type: "Relu"
  }
  node {
    input: "resnetv24_stage4_activation3"
    input: "resnetv24_stage4_conv4_weight"
    output: "resnetv24_stage4_conv4_fwd"
    name: "resnetv24_stage4_conv4_fwd"
    op_type: "Conv"
    attribute {
      name: "dilations"
      ints: 1
      ints: 1
      type: INTS
    }
    attribute {
      name: "group"
      i: 1
      type: INT
    }
    attribute {
      name: "kernel_shape"
      ints: 1
      ints: 1
      type: INTS
    }
    attribute {
      name: "pads"
      ints: 0
      ints: 0
      ints: 0
      ints: 0
      type: INTS
    }
    attribute {
      name: "strides"
      ints: 1
      ints: 1
      type: INTS
    }
  }
  node {
    input: "resnetv24_stage4_conv4_fwd"
    input: "resnetv24_stage4_batchnorm4_gamma"
    input: "resnetv24_stage4_batchnorm4_beta"
    input: "resnetv24_stage4_batchnorm4_running_mean"
    input: "resnetv24_stage4_batchnorm4_running_var"
    output: "resnetv24_stage4_batchnorm4_fwd"
    name: "resnetv24_stage4_batchnorm4_fwd"
    op_type: "BatchNormalization"
    attribute {
      name: "epsilon"
      f: 1e-05
      type: FLOAT
    }
    attribute {
      name: "momentum"
      f: 0.9
      type: FLOAT
    }
    attribute {
      name: "spatial"
      i: 1
      type: INT
    }
  }
  node {
    input: "resnetv24_stage4_batchnorm4_fwd"
    output: "resnetv24_stage4_activation4"
    name: "resnetv24_stage4_activation4"
    op_type: "Relu"
  }
  node {
    input: "resnetv24_stage4_activation4"
    input: "resnetv24_stage4_conv5_weight"
    output: "resnetv24_stage4_conv5_fwd"
    name: "resnetv24_stage4_conv5_fwd"
    op_type: "Conv"
    attribute {
      name: "dilations"
      ints: 1
      ints: 1
      type: INTS
    }
    attribute {
      name: "group"
      i: 1
      type: INT
    }
    attribute {
      name: "kernel_shape"
      ints: 3
      ints: 3
      type: INTS
    }
    attribute {
      name: "pads"
      ints: 1
      ints: 1
      ints: 1
      ints: 1
      type: INTS
    }
    attribute {
      name: "strides"
      ints: 1
      ints: 1
      type: INTS
    }
  }
  node {
    input: "resnetv24_stage4_conv5_fwd"
    input: "resnetv24_stage4_batchnorm5_gamma"
    input: "resnetv24_stage4_batchnorm5_beta"
    input: "resnetv24_stage4_batchnorm5_running_mean"
    input: "resnetv24_stage4_batchnorm5_running_var"
    output: "resnetv24_stage4_batchnorm5_fwd"
    name: "resnetv24_stage4_batchnorm5_fwd"
    op_type: "BatchNormalization"
    attribute {
      name: "epsilon"
      f: 1e-05
      type: FLOAT
    }
    attribute {
      name: "momentum"
      f: 0.9
      type: FLOAT
    }
    attribute {
      name: "spatial"
      i: 1
      type: INT
    }
  }
  node {
    input: "resnetv24_stage4_batchnorm5_fwd"
    output: "resnetv24_stage4_activation5"
    name: "resnetv24_stage4_activation5"
    op_type: "Relu"
  }
  node {
    input: "resnetv24_stage4_activation5"
    input: "resnetv24_stage4_conv6_weight"
    output: "resnetv24_stage4_conv6_fwd"
    name: "resnetv24_stage4_conv6_fwd"
    op_type: "Conv"
    attribute {
      name: "dilations"
      ints: 1
      ints: 1
      type: INTS
    }
    attribute {
      name: "group"
      i: 1
      type: INT
    }
    attribute {
      name: "kernel_shape"
      ints: 1
      ints: 1
      type: INTS
    }
    attribute {
      name: "pads"
      ints: 0
      ints: 0
      ints: 0
      ints: 0
      type: INTS
    }
    attribute {
      name: "strides"
      ints: 1
      ints: 1
      type: INTS
    }
  }
  node {
    input: "resnetv24_stage4_conv6_fwd"
    input: "resnetv24_stage4__plus0"
    output: "resnetv24_stage4__plus1"
    name: "resnetv24_stage4__plus1"
    op_type: "Add"
  }
  node {
    input: "resnetv24_stage4__plus1"
    input: "resnetv24_stage4_batchnorm6_gamma"
    input: "resnetv24_stage4_batchnorm6_beta"
    input: "resnetv24_stage4_batchnorm6_running_mean"
    input: "resnetv24_stage4_batchnorm6_running_var"
    output: "resnetv24_stage4_batchnorm6_fwd"
    name: "resnetv24_stage4_batchnorm6_fwd"
    op_type: "BatchNormalization"
    attribute {
      name: "epsilon"
      f: 1e-05
      type: FLOAT
    }
    attribute {
      name: "momentum"
      f: 0.9
      type: FLOAT
    }
    attribute {
      name: "spatial"
      i: 1
      type: INT
    }
  }
  node {
    input: "resnetv24_stage4_batchnorm6_fwd"
    output: "resnetv24_stage4_activation6"
    name: "resnetv24_stage4_activation6"
    op_type: "Relu"
  }
  node {
    input: "resnetv24_stage4_activation6"
    input: "resnetv24_stage4_conv7_weight"
    output: "resnetv24_stage4_conv7_fwd"
    name: "resnetv24_stage4_conv7_fwd"
    op_type: "Conv"
    attribute {
      name: "dilations"
      ints: 1
      ints: 1
      type: INTS
    }
    attribute {
      name: "group"
      i: 1
      type: INT
    }
    attribute {
      name: "kernel_shape"
      ints: 1
      ints: 1
      type: INTS
    }
    attribute {
      name: "pads"
      ints: 0
      ints: 0
      ints: 0
      ints: 0
      type: INTS
    }
    attribute {
      name: "strides"
      ints: 1
      ints: 1
      type: INTS
    }
  }
  node {
    input: "resnetv24_stage4_conv7_fwd"
    input: "resnetv24_stage4_batchnorm7_gamma"
    input: "resnetv24_stage4_batchnorm7_beta"
    input: "resnetv24_stage4_batchnorm7_running_mean"
    input: "resnetv24_stage4_batchnorm7_running_var"
    output: "resnetv24_stage4_batchnorm7_fwd"
    name: "resnetv24_stage4_batchnorm7_fwd"
    op_type: "BatchNormalization"
    attribute {
      name: "epsilon"
      f: 1e-05
      type: FLOAT
    }
    attribute {
      name: "momentum"
      f: 0.9
      type: FLOAT
    }
    attribute {
      name: "spatial"
      i: 1
      type: INT
    }
  }
  node {
    input: "resnetv24_stage4_batchnorm7_fwd"
    output: "resnetv24_stage4_activation7"
    name: "resnetv24_stage4_activation7"
    op_type: "Relu"
  }
  node {
    input: "resnetv24_stage4_activation7"
    input: "resnetv24_stage4_conv8_weight"
    output: "resnetv24_stage4_conv8_fwd"
    name: "resnetv24_stage4_conv8_fwd"
    op_type: "Conv"
    attribute {
      name: "dilations"
      ints: 1
      ints: 1
      type: INTS
    }
    attribute {
      name: "group"
      i: 1
      type: INT
    }
    attribute {
      name: "kernel_shape"
      ints: 3
      ints: 3
      type: INTS
    }
    attribute {
      name: "pads"
      ints: 1
      ints: 1
      ints: 1
      ints: 1
      type: INTS
    }
    attribute {
      name: "strides"
      ints: 1
      ints: 1
      type: INTS
    }
  }
  node {
    input: "resnetv24_stage4_conv8_fwd"
    input: "resnetv24_stage4_batchnorm8_gamma"
    input: "resnetv24_stage4_batchnorm8_beta"
    input: "resnetv24_stage4_batchnorm8_running_mean"
    input: "resnetv24_stage4_batchnorm8_running_var"
    output: "resnetv24_stage4_batchnorm8_fwd"
    name: "resnetv24_stage4_batchnorm8_fwd"
    op_type: "BatchNormalization"
    attribute {
      name: "epsilon"
      f: 1e-05
      type: FLOAT
    }
    attribute {
      name: "momentum"
      f: 0.9
      type: FLOAT
    }
    attribute {
      name: "spatial"
      i: 1
      type: INT
    }
  }
  node {
    input: "resnetv24_stage4_batchnorm8_fwd"
    output: "resnetv24_stage4_activation8"
    name: "resnetv24_stage4_activation8"
    op_type: "Relu"
  }
  node {
    input: "resnetv24_stage4_activation8"
    input: "resnetv24_stage4_conv9_weight"
    output: "resnetv24_stage4_conv9_fwd"
    name: "resnetv24_stage4_conv9_fwd"
    op_type: "Conv"
    attribute {
      name: "dilations"
      ints: 1
      ints: 1
      type: INTS
    }
    attribute {
      name: "group"
      i: 1
      type: INT
    }
    attribute {
      name: "kernel_shape"
      ints: 1
      ints: 1
      type: INTS
    }
    attribute {
      name: "pads"
      ints: 0
      ints: 0
      ints: 0
      ints: 0
      type: INTS
    }
    attribute {
      name: "strides"
      ints: 1
      ints: 1
      type: INTS
    }
  }
  node {
    input: "resnetv24_stage4_conv9_fwd"
    input: "resnetv24_stage4__plus1"
    output: "resnetv24_stage4__plus2"
    name: "resnetv24_stage4__plus2"
    op_type: "Add"
  }
  node {
    input: "resnetv24_stage4__plus2"
    input: "resnetv24_batchnorm2_gamma"
    input: "resnetv24_batchnorm2_beta"
    input: "resnetv24_batchnorm2_running_mean"
    input: "resnetv24_batchnorm2_running_var"
    output: "resnetv24_batchnorm2_fwd"
    name: "resnetv24_batchnorm2_fwd"
    op_type: "BatchNormalization"
    attribute {
      name: "epsilon"
      f: 1e-05
      type: FLOAT
    }
    attribute {
      name: "momentum"
      f: 0.9
      type: FLOAT
    }
    attribute {
      name: "spatial"
      i: 1
      type: INT
    }
  }
  node {
    input: "resnetv24_batchnorm2_fwd"
    output: "resnetv24_relu1_fwd"
    name: "resnetv24_relu1_fwd"
    op_type: "Relu"
  }
  node {
    input: "resnetv24_relu1_fwd"
    output: "resnetv24_pool1_fwd"
    name: "resnetv24_pool1_fwd"
    op_type: "GlobalAveragePool"
  }
  node {
    input: "resnetv24_pool1_fwd"
    input: "reshape_attr_tensor430"
    output: "resnetv24_flatten0_reshape0"
    name: "resnetv24_flatten0_reshape0"
    op_type: "Reshape"
  }
  node {
    input: "resnetv24_flatten0_reshape0"
    input: "resnetv24_dense0_weight"
    input: "resnetv24_dense0_bias"
    output: "resnetv24_dense0_fwd"
    name: "resnetv24_dense0_fwd"
    op_type: "Gemm"
    attribute {
      name: "alpha"
      f: 1.0
      type: FLOAT
    }
    attribute {
      name: "beta"
      f: 1.0
      type: FLOAT
    }
    attribute {
      name: "transA"
      i: 0
      type: INT
    }
    attribute {
      name: "transB"
      i: 1
      type: INT
    }
  }
  name: "main"
  initializer {
    dims: 3
    data_type: 1
    float_data: 1.0
    float_data: 1.0
    float_data: 1.0
    name: "resnetv24_batchnorm0_gamma"
  }
  initializer {
    dims: 3
    data_type: 1
    float_data: 0.0
    float_data: 0.0
    float_data: 0.0
    name: "resnetv24_batchnorm0_beta"
  }
  initializer {
    dims: 3
    data_type: 1
    float_data: -0.14313038
    float_data: -0.1352455
    float_data: -0.1263626
    name: "resnetv24_batchnorm0_running_mean"
  }
  initializer {
    dims: 3
    data_type: 1
    float_data: 1.5544605
    float_data: 1.5500668
    float_data: 1.5742931
    name: "resnetv24_batchnorm0_running_var"
  }
  initializer {
    dims: 64
    data_type: 1
…
    name: "resnetv24_batchnorm1_gamma"
  }
  initializer {
    dims: 64
    data_type: 1
…
    name: "resnetv24_batchnorm1_beta"
  }
  initializer {
    dims: 64
    data_type: 1
…
    name: "resnetv24_batchnorm1_running_mean"
  }
  initializer {
    dims: 64
    data_type: 1
…
    name: "resnetv24_batchnorm1_running_var"
  }
  initializer {
    dims: 64
    data_type: 1
…
    name: "resnetv24_stage1_batchnorm0_gamma"
  }
  initializer {
    dims: 64
    data_type: 1
…
    name: "resnetv24_stage1_batchnorm0_beta"
  }
  initializer {
    dims: 64
    data_type: 1
…
    name: "resnetv24_stage1_batchnorm0_running_mean"
  }
  initializer {
    dims: 64
    data_type: 1
…
    name: "resnetv24_stage1_batchnorm0_running_var"
  }
  initializer {
    dims: 64
    data_type: 1
…
    name: "resnetv24_stage1_batchnorm1_gamma"
  }
  initializer {
    dims: 64
    data_type: 1
…
    name: "resnetv24_stage1_batchnorm1_beta"
  }
  initializer {
    dims: 64
    data_type: 1
…
    name: "resnetv24_stage1_batchnorm1_running_mean"
  }
  initializer {
    dims: 64
    data_type: 1
…
    name: "resnetv24_stage1_batchnorm1_running_var"
  }
  initializer {
    dims: 64
    data_type: 1
…
    name: "resnetv24_stage1_batchnorm2_gamma"
  }
  initializer {
    dims: 64
    data_type: 1
…
    name: "resnetv24_stage1_batchnorm2_beta"
  }
  initializer {
    dims: 64
    data_type: 1
…
    name: "resnetv24_stage1_batchnorm2_running_mean"
  }
  initializer {
    dims: 64
    data_type: 1
…
    name: "resnetv24_stage1_batchnorm2_running_var"
  }
  initializer {
    dims: 64
    data_type: 1
…
    name: "resnetv24_stage1_batchnorm4_gamma"
  }
  initializer {
    dims: 64
    data_type: 1
…
    name: "resnetv24_stage1_batchnorm4_beta"
  }
  initializer {
    dims: 64
    data_type: 1
…
    name: "resnetv24_stage1_batchnorm4_running_mean"
  }
  initializer {
    dims: 64
    data_type: 1
…
    name: "resnetv24_stage1_batchnorm4_running_var"
  }
  initializer {
    dims: 64
    data_type: 1
…
    name: "resnetv24_stage1_batchnorm5_gamma"
  }
  initializer {
    dims: 64
    data_type: 1
…
    name: "resnetv24_stage1_batchnorm5_beta"
  }
  initializer {
    dims: 64
    data_type: 1
…
    name: "resnetv24_stage1_batchnorm5_running_mean"
  }
  initializer {
    dims: 64
    data_type: 1
…
    name: "resnetv24_stage1_batchnorm5_running_var"
  }
  initializer {
    dims: 64
    data_type: 1
…
    name: "resnetv24_stage1_batchnorm7_gamma"
  }
  initializer {
    dims: 64
    data_type: 1
…
    name: "resnetv24_stage1_batchnorm7_beta"
  }
  initializer {
    dims: 64
    data_type: 1
…
    name: "resnetv24_stage1_batchnorm7_running_mean"
  }
  initializer {
    dims: 64
    data_type: 1
…
    name: "resnetv24_stage1_batchnorm7_running_var"
  }
  initializer {
    dims: 64
    data_type: 1
…
    name: "resnetv24_stage1_batchnorm8_gamma"
  }
  initializer {
    dims: 64
    data_type: 1
…
    name: "resnetv24_stage1_batchnorm8_beta"
  }
  initializer {
    dims: 64
    data_type: 1
…
    name: "resnetv24_stage1_batchnorm8_running_mean"
  }
  initializer {
    dims: 64
    data_type: 1
…
    name: "resnetv24_stage1_batchnorm8_running_var"
  }
  initializer {
    dims: 2
    data_type: 7
    int64_data: 0
    int64_data: -1
    name: "reshape_attr_tensor430"
  }
  input {
    name: "data"
    type {
      tensor_type {
        elem_type: 1
        shape {
          dim {
            dim_param: "N"
          }
          dim {
            dim_value: 3
          }
          dim {
            dim_value: 224
          }
          dim {
            dim_value: 224
          }
        }
      }
    }
  }
  input {
    name: "resnetv24_batchnorm0_gamma"
    type {
      tensor_type {
        elem_type: 1
        shape {
          dim {
            dim_value: 3
          }
        }
      }
    }
  }
  input {
    name: "resnetv24_batchnorm0_beta"
    type {
      tensor_type {
        elem_type: 1
        shape {
          dim {
            dim_value: 3
          }
        }
      }
    }
  }
  input {
    name: "resnetv24_batchnorm0_running_mean"
    type {
      tensor_type {
        elem_type: 1
        shape {
          dim {
            dim_value: 3
          }
        }
      }
    }
  }
  input {
    name: "resnetv24_batchnorm0_running_var"
    type {
      tensor_type {
        elem_type: 1
        shape {
          dim {
            dim_value: 3
          }
        }
      }
    }
  }
  input {
    name: "resnetv24_conv0_weight"
    type {
      tensor_type {
        elem_type: 1
        shape {
          dim {
            dim_value: 64
          }
          dim {
            dim_value: 3
          }
          dim {
            dim_value: 7
          }
          dim {
            dim_value: 7
          }
        }
      }
    }
  }
  input {
    name: "resnetv24_batchnorm1_gamma"
    type {
      tensor_type {
        elem_type: 1
        shape {
          dim {
            dim_value: 64
          }
        }
      }
    }
  }
  input {
    name: "resnetv24_batchnorm1_beta"
    type {
      tensor_type {
        elem_type: 1
        shape {
          dim {
            dim_value: 64
          }
        }
      }
    }
  }
  input {
    name: "resnetv24_batchnorm1_running_mean"
    type {
      tensor_type {
        elem_type: 1
        shape {
          dim {
            dim_value: 64
          }
        }
      }
    }
  }
  input {
    name: "resnetv24_batchnorm1_running_var"
    type {
      tensor_type {
        elem_type: 1
        shape {
          dim {
            dim_value: 64
          }
        }
      }
    }
  }
  input {
    name: "resnetv24_stage1_batchnorm0_gamma"
    type {
      tensor_type {
        elem_type: 1
        shape {
          dim {
            dim_value: 64
          }
        }
      }
    }
  }
  input {
    name: "resnetv24_stage1_batchnorm0_beta"
    type {
      tensor_type {
        elem_type: 1
        shape {
          dim {
            dim_value: 64
          }
        }
      }
    }
  }
  input {
    name: "resnetv24_stage1_batchnorm0_running_mean"
    type {
      tensor_type {
        elem_type: 1
        shape {
          dim {
            dim_value: 64
          }
        }
      }
    }
  }
  input {
    name: "resnetv24_stage1_batchnorm0_running_var"
    type {
      tensor_type {
        elem_type: 1
        shape {
          dim {
            dim_value: 64
          }
        }
      }
    }
  }
  input {
    name: "resnetv24_stage1_conv0_weight"
    type {
      tensor_type {
        elem_type: 1
        shape {
          dim {
            dim_value: 64
          }
          dim {
            dim_value: 64
          }
          dim {
            dim_value: 1
          }
          dim {
            dim_value: 1
          }
        }
      }
    }
  }
  input {
    name: "resnetv24_stage1_batchnorm1_gamma"
    type {
      tensor_type {
        elem_type: 1
        shape {
          dim {
            dim_value: 64
          }
        }
      }
    }
  }
  input {
    name: "resnetv24_stage1_batchnorm1_beta"
    type {
      tensor_type {
        elem_type: 1
        shape {
          dim {
            dim_value: 64
          }
        }
      }
    }
  }
  input {
    name: "resnetv24_stage1_batchnorm1_running_mean"
    type {
      tensor_type {
        elem_type: 1
        shape {
          dim {
            dim_value: 64
          }
        }
      }
    }
  }
  input {
    name: "resnetv24_stage1_batchnorm1_running_var"
    type {
      tensor_type {
        elem_type: 1
        shape {
          dim {
            dim_value: 64
          }
        }
      }
    }
  }
  input {
    name: "resnetv24_stage1_conv1_weight"
    type {
      tensor_type {
        elem_type: 1
        shape {
          dim {
            dim_value: 64
          }
          dim {
            dim_value: 64
          }
          dim {
            dim_value: 3
          }
          dim {
            dim_value: 3
          }
        }
      }
    }
  }
  input {
    name: "resnetv24_stage1_batchnorm2_gamma"
    type {
      tensor_type {
        elem_type: 1
        shape {
          dim {
            dim_value: 64
          }
        }
      }
    }
  }
  input {
    name: "resnetv24_stage1_batchnorm2_beta"
    type {
      tensor_type {
        elem_type: 1
        shape {
          dim {
            dim_value: 64
          }
        }
      }
    }
  }
  input {
    name: "resnetv24_stage1_batchnorm2_running_mean"
    type {
      tensor_type {
        elem_type: 1
        shape {
          dim {
            dim_value: 64
          }
        }
      }
    }
  }
  input {
    name: "resnetv24_stage1_batchnorm2_running_var"
    type {
      tensor_type {
        elem_type: 1
        shape {
          dim {
            dim_value: 64
          }
        }
      }
    }
  }
  input {
    name: "resnetv24_stage1_conv2_weight"
    type {
      tensor_type {
        elem_type: 1
        shape {
          dim {
            dim_value: 256
          }
          dim {
            dim_value: 64
          }
          dim {
            dim_value: 1
          }
          dim {
            dim_value: 1
          }
        }
      }
    }
  }
  input {
    name: "resnetv24_stage1_conv3_weight"
    type {
      tensor_type {
        elem_type: 1
        shape {
          dim {
            dim_value: 256
          }
          dim {
            dim_value: 64
          }
          dim {
            dim_value: 1
          }
          dim {
            dim_value: 1
          }
        }
      }
    }
  }
  input {
    name: "resnetv24_stage1_batchnorm3_gamma"
    type {
      tensor_type {
        elem_type: 1
        shape {
          dim {
            dim_value: 256
          }
        }
      }
    }
  }
  input {
    name: "resnetv24_stage1_batchnorm3_beta"
    type {
      tensor_type {
        elem_type: 1
        shape {
          dim {
            dim_value: 256
          }
        }
      }
    }
  }
  input {
    name: "resnetv24_stage1_batchnorm3_running_mean"
    type {
      tensor_type {
        elem_type: 1
        shape {
          dim {
            dim_value: 256
          }
        }
      }
    }
  }
  input {
    name: "resnetv24_stage1_batchnorm3_running_var"
    type {
      tensor_type {
        elem_type: 1
        shape {
          dim {
            dim_value: 256
          }
        }
      }
    }
  }
  input {
    name: "resnetv24_stage1_conv4_weight"
    type {
      tensor_type {
        elem_type: 1
        shape {
          dim {
            dim_value: 64
          }
          dim {
            dim_value: 256
          }
          dim {
            dim_value: 1
          }
          dim {
            dim_value: 1
          }
        }
      }
    }
  }
  input {
    name: "resnetv24_stage1_batchnorm4_gamma"
    type {
      tensor_type {
        elem_type: 1
        shape {
          dim {
            dim_value: 64
          }
        }
      }
    }
  }
  input {
    name: "resnetv24_stage1_batchnorm4_beta"
    type {
      tensor_type {
        elem_type: 1
        shape {
          dim {
            dim_value: 64
          }
        }
      }
    }
  }
  input {
    name: "resnetv24_stage1_batchnorm4_running_mean"
    type {
      tensor_type {
        elem_type: 1
        shape {
          dim {
            dim_value: 64
          }
        }
      }
    }
  }
  input {
    name: "resnetv24_stage1_batchnorm4_running_var"
    type {
      tensor_type {
        elem_type: 1
        shape {
          dim {
            dim_value: 64
          }
        }
      }
    }
  }
  input {
    name: "resnetv24_stage1_conv5_weight"
    type {
      tensor_type {
        elem_type: 1
        shape {
          dim {
            dim_value: 64
          }
          dim {
            dim_value: 64
          }
          dim {
            dim_value: 3
          }
          dim {
            dim_value: 3
          }
        }
      }
    }
  }
  input {
    name: "resnetv24_stage1_batchnorm5_gamma"
    type {
      tensor_type {
        elem_type: 1
        shape {
          dim {
            dim_value: 64
          }
        }
      }
    }
  }
  input {
    name: "resnetv24_stage1_batchnorm5_beta"
    type {
      tensor_type {
        elem_type: 1
        shape {
          dim {
            dim_value: 64
          }
        }
      }
    }
  }
  input {
    name: "resnetv24_stage1_batchnorm5_running_mean"
    type {
      tensor_type {
        elem_type: 1
        shape {
          dim {
            dim_value: 64
          }
        }
      }
    }
  }
  input {
    name: "resnetv24_stage1_batchnorm5_running_var"
    type {
      tensor_type {
        elem_type: 1
        shape {
          dim {
            dim_value: 64
          }
        }
      }
    }
  }
  input {
    name: "resnetv24_stage1_conv6_weight"
    type {
      tensor_type {
        elem_type: 1
        shape {
          dim {
            dim_value: 256
          }
          dim {
            dim_value: 64
          }
          dim {
            dim_value: 1
          }
          dim {
            dim_value: 1
          }
        }
      }
    }
  }
  input {
    name: "resnetv24_stage1_batchnorm6_gamma"
    type {
      tensor_type {
        elem_type: 1
        shape {
          dim {
            dim_value: 256
          }
        }
      }
    }
  }
  input {
    name: "resnetv24_stage1_batchnorm6_beta"
    type {
      tensor_type {
        elem_type: 1
        shape {
          dim {
            dim_value: 256
          }
        }
      }
    }
  }
  input {
    name: "resnetv24_stage1_batchnorm6_running_mean"
    type {
      tensor_type {
        elem_type: 1
        shape {
          dim {
            dim_value: 256
          }
        }
      }
    }
  }
  input {
    name: "resnetv24_stage1_batchnorm6_running_var"
    type {
      tensor_type {
        elem_type: 1
        shape {
          dim {
            dim_value: 256
          }
        }
      }
    }
  }
  input {
    name: "resnetv24_stage1_conv7_weight"
    type {
      tensor_type {
        elem_type: 1
        shape {
          dim {
            dim_value: 64
          }
          dim {
            dim_value: 256
          }
          dim {
            dim_value: 1
          }
          dim {
            dim_value: 1
          }
        }
      }
    }
  }
  input {
    name: "resnetv24_stage1_batchnorm7_gamma"
    type {
      tensor_type {
        elem_type: 1
        shape {
          dim {
            dim_value: 64
          }
        }
      }
    }
  }
  input {
    name: "resnetv24_stage1_batchnorm7_beta"
    type {
      tensor_type {
        elem_type: 1
        shape {
          dim {
            dim_value: 64
          }
        }
      }
    }
  }
  input {
    name: "resnetv24_stage1_batchnorm7_running_mean"
    type {
      tensor_type {
        elem_type: 1
        shape {
          dim {
            dim_value: 64
          }
        }
      }
    }
  }
  input {
    name: "resnetv24_stage1_batchnorm7_running_var"
    type {
      tensor_type {
        elem_type: 1
        shape {
          dim {
            dim_value: 64
          }
        }
      }
    }
  }
  input {
    name: "resnetv24_stage1_conv8_weight"
    type {
      tensor_type {
        elem_type: 1
        shape {
          dim {
            dim_value: 64
          }
          dim {
            dim_value: 64
          }
          dim {
            dim_value: 3
          }
          dim {
            dim_value: 3
          }
        }
      }
    }
  }
  input {
    name: "resnetv24_stage1_batchnorm8_gamma"
    type {
      tensor_type {
        elem_type: 1
        shape {
          dim {
            dim_value: 64
          }
        }
      }
    }
  }
  input {
    name: "resnetv24_stage1_batchnorm8_beta"
    type {
      tensor_type {
        elem_type: 1
        shape {
          dim {
            dim_value: 64
          }
        }
      }
    }
  }
  input {
    name: "resnetv24_stage1_batchnorm8_running_mean"
    type {
      tensor_type {
        elem_type: 1
        shape {
          dim {
            dim_value: 64
          }
        }
      }
    }
  }
  input {
    name: "resnetv24_stage1_batchnorm8_running_var"
    type {
      tensor_type {
        elem_type: 1
        shape {
          dim {
            dim_value: 64
          }
        }
      }
    }
  }
  input {
    name: "resnetv24_stage1_conv9_weight"
    type {
      tensor_type {
        elem_type: 1
        shape {
          dim {
            dim_value: 256
          }
          dim {
            dim_value: 64
          }
          dim {
            dim_value: 1
          }
          dim {
            dim_value: 1
          }
        }
      }
    }
  }
  input {
    name: "resnetv24_stage2_batchnorm0_gamma"
    type {
      tensor_type {
        elem_type: 1
        shape {
          dim {
            dim_value: 256
          }
        }
      }
    }
  }
  input {
    name: "resnetv24_stage2_batchnorm0_beta"
    type {
      tensor_type {
        elem_type: 1
        shape {
          dim {
            dim_value: 256
          }
        }
      }
    }
  }
  input {
    name: "resnetv24_stage2_batchnorm0_running_mean"
    type {
      tensor_type {
        elem_type: 1
        shape {
          dim {
            dim_value: 256
          }
        }
      }
    }
  }
  input {
    name: "resnetv24_stage2_batchnorm0_running_var"
    type {
      tensor_type {
        elem_type: 1
        shape {
          dim {
            dim_value: 256
          }
        }
      }
    }
  }
  input {
    name: "resnetv24_stage2_conv0_weight"
    type {
      tensor_type {
        elem_type: 1
        shape {
          dim {
            dim_value: 128
          }
          dim {
            dim_value: 256
          }
          dim {
            dim_value: 1
          }
          dim {
            dim_value: 1
          }
        }
      }
    }
  }
  input {
    name: "resnetv24_stage2_batchnorm1_gamma"
    type {
      tensor_type {
        elem_type: 1
        shape {
          dim {
            dim_value: 128
          }
        }
      }
    }
  }
  input {
    name: "resnetv24_stage2_batchnorm1_beta"
    type {
      tensor_type {
        elem_type: 1
        shape {
          dim {
            dim_value: 128
          }
        }
      }
    }
  }
  input {
    name: "resnetv24_stage2_batchnorm1_running_mean"
    type {
      tensor_type {
        elem_type: 1
        shape {
          dim {
            dim_value: 128
          }
        }
      }
    }
  }
  input {
    name: "resnetv24_stage2_batchnorm1_running_var"
    type {
      tensor_type {
        elem_type: 1
        shape {
          dim {
            dim_value: 128
          }
        }
      }
    }
  }
  input {
    name: "resnetv24_stage2_conv1_weight"
    type {
      tensor_type {
        elem_type: 1
        shape {
          dim {
            dim_value: 128
          }
          dim {
            dim_value: 128
          }
          dim {
            dim_value: 3
          }
          dim {
            dim_value: 3
          }
        }
      }
    }
  }
  input {
    name: "resnetv24_stage2_batchnorm2_gamma"
    type {
      tensor_type {
        elem_type: 1
        shape {
          dim {
            dim_value: 128
          }
        }
      }
    }
  }
  input {
    name: "resnetv24_stage2_batchnorm2_beta"
    type {
      tensor_type {
        elem_type: 1
        shape {
          dim {
            dim_value: 128
          }
        }
      }
    }
  }
  input {
    name: "resnetv24_stage2_batchnorm2_running_mean"
    type {
      tensor_type {
        elem_type: 1
        shape {
          dim {
            dim_value: 128
          }
        }
      }
    }
  }
  input {
    name: "resnetv24_stage2_batchnorm2_running_var"
    type {
      tensor_type {
        elem_type: 1
        shape {
          dim {
            dim_value: 128
          }
        }
      }
    }
  }
  input {
    name: "resnetv24_stage2_conv2_weight"
    type {
      tensor_type {
        elem_type: 1
        shape {
          dim {
            dim_value: 512
          }
          dim {
            dim_value: 128
          }
          dim {
            dim_value: 1
          }
          dim {
            dim_value: 1
          }
        }
      }
    }
  }
  input {
    name: "resnetv24_stage2_conv3_weight"
    type {
      tensor_type {
        elem_type: 1
        shape {
          dim {
            dim_value: 512
          }
          dim {
            dim_value: 256
          }
          dim {
            dim_value: 1
          }
          dim {
            dim_value: 1
          }
        }
      }
    }
  }
  input {
    name: "resnetv24_stage2_batchnorm3_gamma"
    type {
      tensor_type {
        elem_type: 1
        shape {
          dim {
            dim_value: 512
          }
        }
      }
    }
  }
  input {
    name: "resnetv24_stage2_batchnorm3_beta"
    type {
      tensor_type {
        elem_type: 1
        shape {
          dim {
            dim_value: 512
          }
        }
      }
    }
  }
  input {
    name: "resnetv24_stage2_batchnorm3_running_mean"
    type {
      tensor_type {
        elem_type: 1
        shape {
          dim {
            dim_value: 512
          }
        }
      }
    }
  }
  input {
    name: "resnetv24_stage2_batchnorm3_running_var"
    type {
      tensor_type {
        elem_type: 1
        shape {
          dim {
            dim_value: 512
          }
        }
      }
    }
  }
  input {
    name: "resnetv24_stage2_conv4_weight"
    type {
      tensor_type {
        elem_type: 1
        shape {
          dim {
            dim_value: 128
          }
          dim {
            dim_value: 512
          }
          dim {
            dim_value: 1
          }
          dim {
            dim_value: 1
          }
        }
      }
    }
  }
  input {
    name: "resnetv24_stage2_batchnorm4_gamma"
    type {
      tensor_type {
        elem_type: 1
        shape {
          dim {
            dim_value: 128
          }
        }
      }
    }
  }
  input {
    name: "resnetv24_stage2_batchnorm4_beta"
    type {
      tensor_type {
        elem_type: 1
        shape {
          dim {
            dim_value: 128
          }
        }
      }
    }
  }
  input {
    name: "resnetv24_stage2_batchnorm4_running_mean"
    type {
      tensor_type {
        elem_type: 1
        shape {
          dim {
            dim_value: 128
          }
        }
      }
    }
  }
  input {
    name: "resnetv24_stage2_batchnorm4_running_var"
    type {
      tensor_type {
        elem_type: 1
        shape {
          dim {
            dim_value: 128
          }
        }
      }
    }
  }
  input {
    name: "resnetv24_stage2_conv5_weight"
    type {
      tensor_type {
        elem_type: 1
        shape {
          dim {
            dim_value: 128
          }
          dim {
            dim_value: 128
          }
          dim {
            dim_value: 3
          }
          dim {
            dim_value: 3
          }
        }
      }
    }
  }
  input {
    name: "resnetv24_stage2_batchnorm5_gamma"
    type {
      tensor_type {
        elem_type: 1
        shape {
          dim {
            dim_value: 128
          }
        }
      }
    }
  }
  input {
    name: "resnetv24_stage2_batchnorm5_beta"
    type {
      tensor_type {
        elem_type: 1
        shape {
          dim {
            dim_value: 128
          }
        }
      }
    }
  }
  input {
    name: "resnetv24_stage2_batchnorm5_running_mean"
    type {
      tensor_type {
        elem_type: 1
        shape {
          dim {
            dim_value: 128
          }
        }
      }
    }
  }
  input {
    name: "resnetv24_stage2_batchnorm5_running_var"
    type {
      tensor_type {
        elem_type: 1
        shape {
          dim {
            dim_value: 128
          }
        }
      }
    }
  }
  input {
    name: "resnetv24_stage2_conv6_weight"
    type {
      tensor_type {
        elem_type: 1
        shape {
          dim {
            dim_value: 512
          }
          dim {
            dim_value: 128
          }
          dim {
            dim_value: 1
          }
          dim {
            dim_value: 1
          }
        }
      }
    }
  }
  input {
    name: "resnetv24_stage2_batchnorm6_gamma"
    type {
      tensor_type {
        elem_type: 1
        shape {
          dim {
            dim_value: 512
          }
        }
      }
    }
  }
  input {
    name: "resnetv24_stage2_batchnorm6_beta"
    type {
      tensor_type {
        elem_type: 1
        shape {
          dim {
            dim_value: 512
          }
        }
      }
    }
  }
  input {
    name: "resnetv24_stage2_batchnorm6_running_mean"
    type {
      tensor_type {
        elem_type: 1
        shape {
          dim {
            dim_value: 512
          }
        }
      }
    }
  }
  input {
    name: "resnetv24_stage2_batchnorm6_running_var"
    type {
      tensor_type {
        elem_type: 1
        shape {
          dim {
            dim_value: 512
          }
        }
      }
    }
  }
  input {
    name: "resnetv24_stage2_conv7_weight"
    type {
      tensor_type {
        elem_type: 1
        shape {
          dim {
            dim_value: 128
          }
          dim {
            dim_value: 512
          }
          dim {
            dim_value: 1
          }
          dim {
            dim_value: 1
          }
        }
      }
    }
  }
  input {
    name: "resnetv24_stage2_batchnorm7_gamma"
    type {
      tensor_type {
        elem_type: 1
        shape {
          dim {
            dim_value: 128
          }
        }
      }
    }
  }
  input {
    name: "resnetv24_stage2_batchnorm7_beta"
    type {
      tensor_type {
        elem_type: 1
        shape {
          dim {
            dim_value: 128
          }
        }
      }
    }
  }
  input {
    name: "resnetv24_stage2_batchnorm7_running_mean"
    type {
      tensor_type {
        elem_type: 1
        shape {
          dim {
            dim_value: 128
          }
        }
      }
    }
  }
  input {
    name: "resnetv24_stage2_batchnorm7_running_var"
    type {
      tensor_type {
        elem_type: 1
        shape {
          dim {
            dim_value: 128
          }
        }
      }
    }
  }
  input {
    name: "resnetv24_stage2_conv8_weight"
    type {
      tensor_type {
        elem_type: 1
        shape {
          dim {
            dim_value: 128
          }
          dim {
            dim_value: 128
          }
          dim {
            dim_value: 3
          }
          dim {
            dim_value: 3
          }
        }
      }
    }
  }
  input {
    name: "resnetv24_stage2_batchnorm8_gamma"
    type {
      tensor_type {
        elem_type: 1
        shape {
          dim {
            dim_value: 128
          }
        }
      }
    }
  }
  input {
    name: "resnetv24_stage2_batchnorm8_beta"
    type {
      tensor_type {
        elem_type: 1
        shape {
          dim {
            dim_value: 128
          }
        }
      }
    }
  }
  input {
    name: "resnetv24_stage2_batchnorm8_running_mean"
    type {
      tensor_type {
        elem_type: 1
        shape {
          dim {
            dim_value: 128
          }
        }
      }
    }
  }
  input {
    name: "resnetv24_stage2_batchnorm8_running_var"
    type {
      tensor_type {
        elem_type: 1
        shape {
          dim {
            dim_value: 128
          }
        }
      }
    }
  }
  input {
    name: "resnetv24_stage2_conv9_weight"
    type {
      tensor_type {
        elem_type: 1
        shape {
          dim {
            dim_value: 512
          }
          dim {
            dim_value: 128
          }
          dim {
            dim_value: 1
          }
          dim {
            dim_value: 1
          }
        }
      }
    }
  }
  input {
    name: "resnetv24_stage2_batchnorm9_gamma"
    type {
      tensor_type {
        elem_type: 1
        shape {
          dim {
            dim_value: 512
          }
        }
      }
    }
  }
  input {
    name: "resnetv24_stage2_batchnorm9_beta"
    type {
      tensor_type {
        elem_type: 1
        shape {
          dim {
            dim_value: 512
          }
        }
      }
    }
  }
  input {
    name: "resnetv24_stage2_batchnorm9_running_mean"
    type {
      tensor_type {
        elem_type: 1
        shape {
          dim {
            dim_value: 512
          }
        }
      }
    }
  }
  input {
    name: "resnetv24_stage2_batchnorm9_running_var"
    type {
      tensor_type {
        elem_type: 1
        shape {
          dim {
            dim_value: 512
          }
        }
      }
    }
  }
  input {
    name: "resnetv24_stage2_conv10_weight"
    type {
      tensor_type {
        elem_type: 1
        shape {
          dim {
            dim_value: 128
          }
          dim {
            dim_value: 512
          }
          dim {
            dim_value: 1
          }
          dim {
            dim_value: 1
          }
        }
      }
    }
  }
  input {
    name: "resnetv24_stage2_batchnorm10_gamma"
    type {
      tensor_type {
        elem_type: 1
        shape {
          dim {
            dim_value: 128
          }
        }
      }
    }
  }
  input {
    name: "resnetv24_stage2_batchnorm10_beta"
    type {
      tensor_type {
        elem_type: 1
        shape {
          dim {
            dim_value: 128
          }
        }
      }
    }
  }
  input {
    name: "resnetv24_stage2_batchnorm10_running_mean"
    type {
      tensor_type {
        elem_type: 1
        shape {
          dim {
            dim_value: 128
          }
        }
      }
    }
  }
  input {
    name: "resnetv24_stage2_batchnorm10_running_var"
    type {
      tensor_type {
        elem_type: 1
        shape {
          dim {
            dim_value: 128
          }
        }
      }
    }
  }
  input {
    name: "resnetv24_stage2_conv11_weight"
    type {
      tensor_type {
        elem_type: 1
        shape {
          dim {
            dim_value: 128
          }
          dim {
            dim_value: 128
          }
          dim {
            dim_value: 3
          }
          dim {
            dim_value: 3
          }
        }
      }
    }
  }
  input {
    name: "resnetv24_stage2_batchnorm11_gamma"
    type {
      tensor_type {
        elem_type: 1
        shape {
          dim {
            dim_value: 128
          }
        }
      }
    }
  }
  input {
    name: "resnetv24_stage2_batchnorm11_beta"
    type {
      tensor_type {
        elem_type: 1
        shape {
          dim {
            dim_value: 128
          }
        }
      }
    }
  }
  input {
    name: "resnetv24_stage2_batchnorm11_running_mean"
    type {
      tensor_type {
        elem_type: 1
        shape {
          dim {
            dim_value: 128
          }
        }
      }
    }
  }
  input {
    name: "resnetv24_stage2_batchnorm11_running_var"
    type {
      tensor_type {
        elem_type: 1
        shape {
          dim {
            dim_value: 128
          }
        }
      }
    }
  }
  input {
    name: "resnetv24_stage2_conv12_weight"
    type {
      tensor_type {
        elem_type: 1
        shape {
          dim {
            dim_value: 512
          }
          dim {
            dim_value: 128
          }
          dim {
            dim_value: 1
          }
          dim {
            dim_value: 1
          }
        }
      }
    }
  }
  input {
    name: "resnetv24_stage3_batchnorm0_gamma"
    type {
      tensor_type {
        elem_type: 1
        shape {
          dim {
            dim_value: 512
          }
        }
      }
    }
  }
  input {
    name: "resnetv24_stage3_batchnorm0_beta"
    type {
      tensor_type {
        elem_type: 1
        shape {
          dim {
            dim_value: 512
          }
        }
      }
    }
  }
  input {
    name: "resnetv24_stage3_batchnorm0_running_mean"
    type {
      tensor_type {
        elem_type: 1
        shape {
          dim {
            dim_value: 512
          }
        }
      }
    }
  }
  input {
    name: "resnetv24_stage3_batchnorm0_running_var"
    type {
      tensor_type {
        elem_type: 1
        shape {
          dim {
            dim_value: 512
          }
        }
      }
    }
  }
  input {
    name: "resnetv24_stage3_conv0_weight"
    type {
      tensor_type {
        elem_type: 1
        shape {
          dim {
            dim_value: 256
          }
          dim {
            dim_value: 512
          }
          dim {
            dim_value: 1
          }
          dim {
            dim_value: 1
          }
        }
      }
    }
  }
  input {
    name: "resnetv24_stage3_batchnorm1_gamma"
    type {
      tensor_type {
        elem_type: 1
        shape {
          dim {
            dim_value: 256
          }
        }
      }
    }
  }
  input {
    name: "resnetv24_stage3_batchnorm1_beta"
    type {
      tensor_type {
        elem_type: 1
        shape {
          dim {
            dim_value: 256
          }
        }
      }
    }
  }
  input {
    name: "resnetv24_stage3_batchnorm1_running_mean"
    type {
      tensor_type {
        elem_type: 1
        shape {
          dim {
            dim_value: 256
          }
        }
      }
    }
  }
  input {
    name: "resnetv24_stage3_batchnorm1_running_var"
    type {
      tensor_type {
        elem_type: 1
        shape {
          dim {
            dim_value: 256
          }
        }
      }
    }
  }
  input {
    name: "resnetv24_stage3_conv1_weight"
    type {
      tensor_type {
        elem_type: 1
        shape {
          dim {
            dim_value: 256
          }
          dim {
            dim_value: 256
          }
          dim {
            dim_value: 3
          }
          dim {
            dim_value: 3
          }
        }
      }
    }
  }
  input {
    name: "resnetv24_stage3_batchnorm2_gamma"
    type {
      tensor_type {
        elem_type: 1
        shape {
          dim {
            dim_value: 256
          }
        }
      }
    }
  }
  input {
    name: "resnetv24_stage3_batchnorm2_beta"
    type {
      tensor_type {
        elem_type: 1
        shape {
          dim {
            dim_value: 256
          }
        }
      }
    }
  }
  input {
    name: "resnetv24_stage3_batchnorm2_running_mean"
    type {
      tensor_type {
        elem_type: 1
        shape {
          dim {
            dim_value: 256
          }
        }
      }
    }
  }
  input {
    name: "resnetv24_stage3_batchnorm2_running_var"
    type {
      tensor_type {
        elem_type: 1
        shape {
          dim {
            dim_value: 256
          }
        }
      }
    }
  }
  input {
    name: "resnetv24_stage3_conv2_weight"
    type {
      tensor_type {
        elem_type: 1
        shape {
          dim {
            dim_value: 1024
          }
          dim {
            dim_value: 256
          }
          dim {
            dim_value: 1
          }
          dim {
            dim_value: 1
          }
        }
      }
    }
  }
  input {
    name: "resnetv24_stage3_conv3_weight"
    type {
      tensor_type {
        elem_type: 1
        shape {
          dim {
            dim_value: 1024
          }
          dim {
            dim_value: 512
          }
          dim {
            dim_value: 1
          }
          dim {
            dim_value: 1
          }
        }
      }
    }
  }
  input {
    name: "resnetv24_stage3_batchnorm3_gamma"
    type {
      tensor_type {
        elem_type: 1
        shape {
          dim {
            dim_value: 1024
          }
        }
      }
    }
  }
  input {
    name: "resnetv24_stage3_batchnorm3_beta"
    type {
      tensor_type {
        elem_type: 1
        shape {
          dim {
            dim_value: 1024
          }
        }
      }
    }
  }
  input {
    name: "resnetv24_stage3_batchnorm3_running_mean"
    type {
      tensor_type {
        elem_type: 1
        shape {
          dim {
            dim_value: 1024
          }
        }
      }
    }
  }
  input {
    name: "resnetv24_stage3_batchnorm3_running_var"
    type {
      tensor_type {
        elem_type: 1
        shape {
          dim {
            dim_value: 1024
          }
        }
      }
    }
  }
  input {
    name: "resnetv24_stage3_conv4_weight"
    type {
      tensor_type {
        elem_type: 1
        shape {
          dim {
            dim_value: 256
          }
          dim {
            dim_value: 1024
          }
          dim {
            dim_value: 1
          }
          dim {
            dim_value: 1
          }
        }
      }
    }
  }
  input {
    name: "resnetv24_stage3_batchnorm4_gamma"
    type {
      tensor_type {
        elem_type: 1
        shape {
          dim {
            dim_value: 256
          }
        }
      }
    }
  }
  input {
    name: "resnetv24_stage3_batchnorm4_beta"
    type {
      tensor_type {
        elem_type: 1
        shape {
          dim {
            dim_value: 256
          }
        }
      }
    }
  }
  input {
    name: "resnetv24_stage3_batchnorm4_running_mean"
    type {
      tensor_type {
        elem_type: 1
        shape {
          dim {
            dim_value: 256
          }
        }
      }
    }
  }
  input {
    name: "resnetv24_stage3_batchnorm4_running_var"
    type {
      tensor_type {
        elem_type: 1
        shape {
          dim {
            dim_value: 256
          }
        }
      }
    }
  }
  input {
    name: "resnetv24_stage3_conv5_weight"
    type {
      tensor_type {
        elem_type: 1
        shape {
          dim {
            dim_value: 256
          }
          dim {
            dim_value: 256
          }
          dim {
            dim_value: 3
          }
          dim {
            dim_value: 3
          }
        }
      }
    }
  }
  input {
    name: "resnetv24_stage3_batchnorm5_gamma"
    type {
      tensor_type {
        elem_type: 1
        shape {
          dim {
            dim_value: 256
          }
        }
      }
    }
  }
  input {
    name: "resnetv24_stage3_batchnorm5_beta"
    type {
      tensor_type {
        elem_type: 1
        shape {
          dim {
            dim_value: 256
          }
        }
      }
    }
  }
  input {
    name: "resnetv24_stage3_batchnorm5_running_mean"
    type {
      tensor_type {
        elem_type: 1
        shape {
          dim {
            dim_value: 256
          }
        }
      }
    }
  }
  input {
    name: "resnetv24_stage3_batchnorm5_running_var"
    type {
      tensor_type {
        elem_type: 1
        shape {
          dim {
            dim_value: 256
          }
        }
      }
    }
  }
  input {
    name: "resnetv24_stage3_conv6_weight"
    type {
      tensor_type {
        elem_type: 1
        shape {
          dim {
            dim_value: 1024
          }
          dim {
            dim_value: 256
          }
          dim {
            dim_value: 1
          }
          dim {
            dim_value: 1
          }
        }
      }
    }
  }
  input {
    name: "resnetv24_stage3_batchnorm6_gamma"
    type {
      tensor_type {
        elem_type: 1
        shape {
          dim {
            dim_value: 1024
          }
        }
      }
    }
  }
  input {
    name: "resnetv24_stage3_batchnorm6_beta"
    type {
      tensor_type {
        elem_type: 1
        shape {
          dim {
            dim_value: 1024
          }
        }
      }
    }
  }
  input {
    name: "resnetv24_stage3_batchnorm6_running_mean"
    type {
      tensor_type {
        elem_type: 1
        shape {
          dim {
            dim_value: 1024
          }
        }
      }
    }
  }
  input {
    name: "resnetv24_stage3_batchnorm6_running_var"
    type {
      tensor_type {
        elem_type: 1
        shape {
          dim {
            dim_value: 1024
          }
        }
      }
    }
  }
  input {
    name: "resnetv24_stage3_conv7_weight"
    type {
      tensor_type {
        elem_type: 1
        shape {
          dim {
            dim_value: 256
          }
          dim {
            dim_value: 1024
          }
          dim {
            dim_value: 1
          }
          dim {
            dim_value: 1
          }
        }
      }
    }
  }
  input {
    name: "resnetv24_stage3_batchnorm7_gamma"
    type {
      tensor_type {
        elem_type: 1
        shape {
          dim {
            dim_value: 256
          }
        }
      }
    }
  }
  input {
    name: "resnetv24_stage3_batchnorm7_beta"
    type {
      tensor_type {
        elem_type: 1
        shape {
          dim {
            dim_value: 256
          }
        }
      }
    }
  }
  input {
    name: "resnetv24_stage3_batchnorm7_running_mean"
    type {
      tensor_type {
        elem_type: 1
        shape {
          dim {
            dim_value: 256
          }
        }
      }
    }
  }
  input {
    name: "resnetv24_stage3_batchnorm7_running_var"
    type {
      tensor_type {
        elem_type: 1
        shape {
          dim {
            dim_value: 256
          }
        }
      }
    }
  }
  input {
    name: "resnetv24_stage3_conv8_weight"
    type {
      tensor_type {
        elem_type: 1
        shape {
          dim {
            dim_value: 256
          }
          dim {
            dim_value: 256
          }
          dim {
            dim_value: 3
          }
          dim {
            dim_value: 3
          }
        }
      }
    }
  }
  input {
    name: "resnetv24_stage3_batchnorm8_gamma"
    type {
      tensor_type {
        elem_type: 1
        shape {
          dim {
            dim_value: 256
          }
        }
      }
    }
  }
  input {
    name: "resnetv24_stage3_batchnorm8_beta"
    type {
      tensor_type {
        elem_type: 1
        shape {
          dim {
            dim_value: 256
          }
        }
      }
    }
  }
  input {
    name: "resnetv24_stage3_batchnorm8_running_mean"
    type {
      tensor_type {
        elem_type: 1
        shape {
          dim {
            dim_value: 256
          }
        }
      }
    }
  }
  input {
    name: "resnetv24_stage3_batchnorm8_running_var"
    type {
      tensor_type {
        elem_type: 1
        shape {
          dim {
            dim_value: 256
          }
        }
      }
    }
  }
  input {
    name: "resnetv24_stage3_conv9_weight"
    type {
      tensor_type {
        elem_type: 1
        shape {
          dim {
            dim_value: 1024
          }
          dim {
            dim_value: 256
          }
          dim {
            dim_value: 1
          }
          dim {
            dim_value: 1
          }
        }
      }
    }
  }
  input {
    name: "resnetv24_stage3_batchnorm9_gamma"
    type {
      tensor_type {
        elem_type: 1
        shape {
          dim {
            dim_value: 1024
          }
        }
      }
    }
  }
  input {
    name: "resnetv24_stage3_batchnorm9_beta"
    type {
      tensor_type {
        elem_type: 1
        shape {
          dim {
            dim_value: 1024
          }
        }
      }
    }
  }
  input {
    name: "resnetv24_stage3_batchnorm9_running_mean"
    type {
      tensor_type {
        elem_type: 1
        shape {
          dim {
            dim_value: 1024
          }
        }
      }
    }
  }
  input {
    name: "resnetv24_stage3_batchnorm9_running_var"
    type {
      tensor_type {
        elem_type: 1
        shape {
          dim {
            dim_value: 1024
          }
        }
      }
    }
  }
  input {
    name: "resnetv24_stage3_conv10_weight"
    type {
      tensor_type {
        elem_type: 1
        shape {
          dim {
            dim_value: 256
          }
          dim {
            dim_value: 1024
          }
          dim {
            dim_value: 1
          }
          dim {
            dim_value: 1
          }
        }
      }
    }
  }
  input {
    name: "resnetv24_stage3_batchnorm10_gamma"
    type {
      tensor_type {
        elem_type: 1
        shape {
          dim {
            dim_value: 256
          }
        }
      }
    }
  }
  input {
    name: "resnetv24_stage3_batchnorm10_beta"
    type {
      tensor_type {
        elem_type: 1
        shape {
          dim {
            dim_value: 256
          }
        }
      }
    }
  }
  input {
    name: "resnetv24_stage3_batchnorm10_running_mean"
    type {
      tensor_type {
        elem_type: 1
        shape {
          dim {
            dim_value: 256
          }
        }
      }
    }
  }
  input {
    name: "resnetv24_stage3_batchnorm10_running_var"
    type {
      tensor_type {
        elem_type: 1
        shape {
          dim {
            dim_value: 256
          }
        }
      }
    }
  }
  input {
    name: "resnetv24_stage3_conv11_weight"
    type {
      tensor_type {
        elem_type: 1
        shape {
          dim {
            dim_value: 256
          }
          dim {
            dim_value: 256
          }
          dim {
            dim_value: 3
          }
          dim {
            dim_value: 3
          }
        }
      }
    }
  }
  input {
    name: "resnetv24_stage3_batchnorm11_gamma"
    type {
      tensor_type {
        elem_type: 1
        shape {
          dim {
            dim_value: 256
          }
        }
      }
    }
  }
  input {
    name: "resnetv24_stage3_batchnorm11_beta"
    type {
      tensor_type {
        elem_type: 1
        shape {
          dim {
            dim_value: 256
          }
        }
      }
    }
  }
  input {
    name: "resnetv24_stage3_batchnorm11_running_mean"
    type {
      tensor_type {
        elem_type: 1
        shape {
          dim {
            dim_value: 256
          }
        }
      }
    }
  }
  input {
    name: "resnetv24_stage3_batchnorm11_running_var"
    type {
      tensor_type {
        elem_type: 1
        shape {
          dim {
            dim_value: 256
          }
        }
      }
    }
  }
  input {
    name: "resnetv24_stage3_conv12_weight"
    type {
      tensor_type {
        elem_type: 1
        shape {
          dim {
            dim_value: 1024
          }
          dim {
            dim_value: 256
          }
          dim {
            dim_value: 1
          }
          dim {
            dim_value: 1
          }
        }
      }
    }
  }
  input {
    name: "resnetv24_stage3_batchnorm12_gamma"
    type {
      tensor_type {
        elem_type: 1
        shape {
          dim {
            dim_value: 1024
          }
        }
      }
    }
  }
  input {
    name: "resnetv24_stage3_batchnorm12_beta"
    type {
      tensor_type {
        elem_type: 1
        shape {
          dim {
            dim_value: 1024
          }
        }
      }
    }
  }
  input {
    name: "resnetv24_stage3_batchnorm12_running_mean"
    type {
      tensor_type {
        elem_type: 1
        shape {
          dim {
            dim_value: 1024
          }
        }
      }
    }
  }
  input {
    name: "resnetv24_stage3_batchnorm12_running_var"
    type {
      tensor_type {
        elem_type: 1
        shape {
          dim {
            dim_value: 1024
          }
        }
      }
    }
  }
  input {
    name: "resnetv24_stage3_conv13_weight"
    type {
      tensor_type {
        elem_type: 1
        shape {
          dim {
            dim_value: 256
          }
          dim {
            dim_value: 1024
          }
          dim {
            dim_value: 1
          }
          dim {
            dim_value: 1
          }
        }
      }
    }
  }
  input {
    name: "resnetv24_stage3_batchnorm13_gamma"
    type {
      tensor_type {
        elem_type: 1
        shape {
          dim {
            dim_value: 256
          }
        }
      }
    }
  }
  input {
    name: "resnetv24_stage3_batchnorm13_beta"
    type {
      tensor_type {
        elem_type: 1
        shape {
          dim {
            dim_value: 256
          }
        }
      }
    }
  }
  input {
    name: "resnetv24_stage3_batchnorm13_running_mean"
    type {
      tensor_type {
        elem_type: 1
        shape {
          dim {
            dim_value: 256
          }
        }
      }
    }
  }
  input {
    name: "resnetv24_stage3_batchnorm13_running_var"
    type {
      tensor_type {
        elem_type: 1
        shape {
          dim {
            dim_value: 256
          }
        }
      }
    }
  }
  input {
    name: "resnetv24_stage3_conv14_weight"
    type {
      tensor_type {
        elem_type: 1
        shape {
          dim {
            dim_value: 256
          }
          dim {
            dim_value: 256
          }
          dim {
            dim_value: 3
          }
          dim {
            dim_value: 3
          }
        }
      }
    }
  }
  input {
    name: "resnetv24_stage3_batchnorm14_gamma"
    type {
      tensor_type {
        elem_type: 1
        shape {
          dim {
            dim_value: 256
          }
        }
      }
    }
  }
  input {
    name: "resnetv24_stage3_batchnorm14_beta"
    type {
      tensor_type {
        elem_type: 1
        shape {
          dim {
            dim_value: 256
          }
        }
      }
    }
  }
  input {
    name: "resnetv24_stage3_batchnorm14_running_mean"
    type {
      tensor_type {
        elem_type: 1
        shape {
          dim {
            dim_value: 256
          }
        }
      }
    }
  }
  input {
    name: "resnetv24_stage3_batchnorm14_running_var"
    type {
      tensor_type {
        elem_type: 1
        shape {
          dim {
            dim_value: 256
          }
        }
      }
    }
  }
  input {
    name: "resnetv24_stage3_conv15_weight"
    type {
      tensor_type {
        elem_type: 1
        shape {
          dim {
            dim_value: 1024
          }
          dim {
            dim_value: 256
          }
          dim {
            dim_value: 1
          }
          dim {
            dim_value: 1
          }
        }
      }
    }
  }
  input {
    name: "resnetv24_stage3_batchnorm15_gamma"
    type {
      tensor_type {
        elem_type: 1
        shape {
          dim {
            dim_value: 1024
          }
        }
      }
    }
  }
  input {
    name: "resnetv24_stage3_batchnorm15_beta"
    type {
      tensor_type {
        elem_type: 1
        shape {
          dim {
            dim_value: 1024
          }
        }
      }
    }
  }
  input {
    name: "resnetv24_stage3_batchnorm15_running_mean"
    type {
      tensor_type {
        elem_type: 1
        shape {
          dim {
            dim_value: 1024
          }
        }
      }
    }
  }
  input {
    name: "resnetv24_stage3_batchnorm15_running_var"
    type {
      tensor_type {
        elem_type: 1
        shape {
          dim {
            dim_value: 1024
          }
        }
      }
    }
  }
  input {
    name: "resnetv24_stage3_conv16_weight"
    type {
      tensor_type {
        elem_type: 1
        shape {
          dim {
            dim_value: 256
          }
          dim {
            dim_value: 1024
          }
          dim {
            dim_value: 1
          }
          dim {
            dim_value: 1
          }
        }
      }
    }
  }
  input {
    name: "resnetv24_stage3_batchnorm16_gamma"
    type {
      tensor_type {
        elem_type: 1
        shape {
          dim {
            dim_value: 256
          }
        }
      }
    }
  }
  input {
    name: "resnetv24_stage3_batchnorm16_beta"
    type {
      tensor_type {
        elem_type: 1
        shape {
          dim {
            dim_value: 256
          }
        }
      }
    }
  }
  input {
    name: "resnetv24_stage3_batchnorm16_running_mean"
    type {
      tensor_type {
        elem_type: 1
        shape {
          dim {
            dim_value: 256
          }
        }
      }
    }
  }
  input {
    name: "resnetv24_stage3_batchnorm16_running_var"
    type {
      tensor_type {
        elem_type: 1
        shape {
          dim {
            dim_value: 256
          }
        }
      }
    }
  }
  input {
    name: "resnetv24_stage3_conv17_weight"
    type {
      tensor_type {
        elem_type: 1
        shape {
          dim {
            dim_value: 256
          }
          dim {
            dim_value: 256
          }
          dim {
            dim_value: 3
          }
          dim {
            dim_value: 3
          }
        }
      }
    }
  }
  input {
    name: "resnetv24_stage3_batchnorm17_gamma"
    type {
      tensor_type {
        elem_type: 1
        shape {
          dim {
            dim_value: 256
          }
        }
      }
    }
  }
  input {
    name: "resnetv24_stage3_batchnorm17_beta"
    type {
      tensor_type {
        elem_type: 1
        shape {
          dim {
            dim_value: 256
          }
        }
      }
    }
  }
  input {
    name: "resnetv24_stage3_batchnorm17_running_mean"
    type {
      tensor_type {
        elem_type: 1
        shape {
          dim {
            dim_value: 256
          }
        }
      }
    }
  }
  input {
    name: "resnetv24_stage3_batchnorm17_running_var"
    type {
      tensor_type {
        elem_type: 1
        shape {
          dim {
            dim_value: 256
          }
        }
      }
    }
  }
  input {
    name: "resnetv24_stage3_conv18_weight"
    type {
      tensor_type {
        elem_type: 1
        shape {
          dim {
            dim_value: 1024
          }
          dim {
            dim_value: 256
          }
          dim {
            dim_value: 1
          }
          dim {
            dim_value: 1
          }
        }
      }
    }
  }
  input {
    name: "resnetv24_stage4_batchnorm0_gamma"
    type {
      tensor_type {
        elem_type: 1
        shape {
          dim {
            dim_value: 1024
          }
        }
      }
    }
  }
  input {
    name: "resnetv24_stage4_batchnorm0_beta"
    type {
      tensor_type {
        elem_type: 1
        shape {
          dim {
            dim_value: 1024
          }
        }
      }
    }
  }
  input {
    name: "resnetv24_stage4_batchnorm0_running_mean"
    type {
      tensor_type {
        elem_type: 1
        shape {
          dim {
            dim_value: 1024
          }
        }
      }
    }
  }
  input {
    name: "resnetv24_stage4_batchnorm0_running_var"
    type {
      tensor_type {
        elem_type: 1
        shape {
          dim {
            dim_value: 1024
          }
        }
      }
    }
  }
  input {
    name: "resnetv24_stage4_conv0_weight"
    type {
      tensor_type {
        elem_type: 1
        shape {
          dim {
            dim_value: 512
          }
          dim {
            dim_value: 1024
          }
          dim {
            dim_value: 1
          }
          dim {
            dim_value: 1
          }
        }
      }
    }
  }
  input {
    name: "resnetv24_stage4_batchnorm1_gamma"
    type {
      tensor_type {
        elem_type: 1
        shape {
          dim {
            dim_value: 512
          }
        }
      }
    }
  }
  input {
    name: "resnetv24_stage4_batchnorm1_beta"
    type {
      tensor_type {
        elem_type: 1
        shape {
          dim {
            dim_value: 512
          }
        }
      }
    }
  }
  input {
    name: "resnetv24_stage4_batchnorm1_running_mean"
    type {
      tensor_type {
        elem_type: 1
        shape {
          dim {
            dim_value: 512
          }
        }
      }
    }
  }
  input {
    name: "resnetv24_stage4_batchnorm1_running_var"
    type {
      tensor_type {
        elem_type: 1
        shape {
          dim {
            dim_value: 512
          }
        }
      }
    }
  }
  input {
    name: "resnetv24_stage4_conv1_weight"
    type {
      tensor_type {
        elem_type: 1
        shape {
          dim {
            dim_value: 512
          }
          dim {
            dim_value: 512
          }
          dim {
            dim_value: 3
          }
          dim {
            dim_value: 3
          }
        }
      }
    }
  }
  input {
    name: "resnetv24_stage4_batchnorm2_gamma"
    type {
      tensor_type {
        elem_type: 1
        shape {
          dim {
            dim_value: 512
          }
        }
      }
    }
  }
  input {
    name: "resnetv24_stage4_batchnorm2_beta"
    type {
      tensor_type {
        elem_type: 1
        shape {
          dim {
            dim_value: 512
          }
        }
      }
    }
  }
  input {
    name: "resnetv24_stage4_batchnorm2_running_mean"
    type {
      tensor_type {
        elem_type: 1
        shape {
          dim {
            dim_value: 512
          }
        }
      }
    }
  }
  input {
    name: "resnetv24_stage4_batchnorm2_running_var"
    type {
      tensor_type {
        elem_type: 1
        shape {
          dim {
            dim_value: 512
          }
        }
      }
    }
  }
  input {
    name: "resnetv24_stage4_conv2_weight"
    type {
      tensor_type {
        elem_type: 1
        shape {
          dim {
            dim_value: 2048
          }
          dim {
            dim_value: 512
          }
          dim {
            dim_value: 1
          }
          dim {
            dim_value: 1
          }
        }
      }
    }
  }
  input {
    name: "resnetv24_stage4_conv3_weight"
    type {
      tensor_type {
        elem_type: 1
        shape {
          dim {
            dim_value: 2048
          }
          dim {
            dim_value: 1024
          }
          dim {
            dim_value: 1
          }
          dim {
            dim_value: 1
          }
        }
      }
    }
  }
  input {
    name: "resnetv24_stage4_batchnorm3_gamma"
    type {
      tensor_type {
        elem_type: 1
        shape {
          dim {
            dim_value: 2048
          }
        }
      }
    }
  }
  input {
    name: "resnetv24_stage4_batchnorm3_beta"
    type {
      tensor_type {
        elem_type: 1
        shape {
          dim {
            dim_value: 2048
          }
        }
      }
    }
  }
  input {
    name: "resnetv24_stage4_batchnorm3_running_mean"
    type {
      tensor_type {
        elem_type: 1
        shape {
          dim {
            dim_value: 2048
          }
        }
      }
    }
  }
  input {
    name: "resnetv24_stage4_batchnorm3_running_var"
    type {
      tensor_type {
        elem_type: 1
        shape {
          dim {
            dim_value: 2048
          }
        }
      }
    }
  }
  input {
    name: "resnetv24_stage4_conv4_weight"
    type {
      tensor_type {
        elem_type: 1
        shape {
          dim {
            dim_value: 512
          }
          dim {
            dim_value: 2048
          }
          dim {
            dim_value: 1
          }
          dim {
            dim_value: 1
          }
        }
      }
    }
  }
  input {
    name: "resnetv24_stage4_batchnorm4_gamma"
    type {
      tensor_type {
        elem_type: 1
        shape {
          dim {
            dim_value: 512
          }
        }
      }
    }
  }
  input {
    name: "resnetv24_stage4_batchnorm4_beta"
    type {
      tensor_type {
        elem_type: 1
        shape {
          dim {
            dim_value: 512
          }
        }
      }
    }
  }
  input {
    name: "resnetv24_stage4_batchnorm4_running_mean"
    type {
      tensor_type {
        elem_type: 1
        shape {
          dim {
            dim_value: 512
          }
        }
      }
    }
  }
  input {
    name: "resnetv24_stage4_batchnorm4_running_var"
    type {
      tensor_type {
        elem_type: 1
        shape {
          dim {
            dim_value: 512
          }
        }
      }
    }
  }
  input {
    name: "resnetv24_stage4_conv5_weight"
    type {
      tensor_type {
        elem_type: 1
        shape {
          dim {
            dim_value: 512
          }
          dim {
            dim_value: 512
          }
          dim {
            dim_value: 3
          }
          dim {
            dim_value: 3
          }
        }
      }
    }
  }
  input {
    name: "resnetv24_stage4_batchnorm5_gamma"
    type {
      tensor_type {
        elem_type: 1
        shape {
          dim {
            dim_value: 512
          }
        }
      }
    }
  }
  input {
    name: "resnetv24_stage4_batchnorm5_beta"
    type {
      tensor_type {
        elem_type: 1
        shape {
          dim {
            dim_value: 512
          }
        }
      }
    }
  }
  input {
    name: "resnetv24_stage4_batchnorm5_running_mean"
    type {
      tensor_type {
        elem_type: 1
        shape {
          dim {
            dim_value: 512
          }
        }
      }
    }
  }
  input {
    name: "resnetv24_stage4_batchnorm5_running_var"
    type {
      tensor_type {
        elem_type: 1
        shape {
          dim {
            dim_value: 512
          }
        }
      }
    }
  }
  input {
    name: "resnetv24_stage4_conv6_weight"
    type {
      tensor_type {
        elem_type: 1
        shape {
          dim {
            dim_value: 2048
          }
          dim {
            dim_value: 512
          }
          dim {
            dim_value: 1
          }
          dim {
            dim_value: 1
          }
        }
      }
    }
  }
  input {
    name: "resnetv24_stage4_batchnorm6_gamma"
    type {
      tensor_type {
        elem_type: 1
        shape {
          dim {
            dim_value: 2048
          }
        }
      }
    }
  }
  input {
    name: "resnetv24_stage4_batchnorm6_beta"
    type {
      tensor_type {
        elem_type: 1
        shape {
          dim {
            dim_value: 2048
          }
        }
      }
    }
  }
  input {
    name: "resnetv24_stage4_batchnorm6_running_mean"
    type {
      tensor_type {
        elem_type: 1
        shape {
          dim {
            dim_value: 2048
          }
        }
      }
    }
  }
  input {
    name: "resnetv24_stage4_batchnorm6_running_var"
    type {
      tensor_type {
        elem_type: 1
        shape {
          dim {
            dim_value: 2048
          }
        }
      }
    }
  }
  input {
    name: "resnetv24_stage4_conv7_weight"
    type {
      tensor_type {
        elem_type: 1
        shape {
          dim {
            dim_value: 512
          }
          dim {
            dim_value: 2048
          }
          dim {
            dim_value: 1
          }
          dim {
            dim_value: 1
          }
        }
      }
    }
  }
  input {
    name: "resnetv24_stage4_batchnorm7_gamma"
    type {
      tensor_type {
        elem_type: 1
        shape {
          dim {
            dim_value: 512
          }
        }
      }
    }
  }
  input {
    name: "resnetv24_stage4_batchnorm7_beta"
    type {
      tensor_type {
        elem_type: 1
        shape {
          dim {
            dim_value: 512
          }
        }
      }
    }
  }
  input {
    name: "resnetv24_stage4_batchnorm7_running_mean"
    type {
      tensor_type {
        elem_type: 1
        shape {
          dim {
            dim_value: 512
          }
        }
      }
    }
  }
  input {
    name: "resnetv24_stage4_batchnorm7_running_var"
    type {
      tensor_type {
        elem_type: 1
        shape {
          dim {
            dim_value: 512
          }
        }
      }
    }
  }
  input {
    name: "resnetv24_stage4_conv8_weight"
    type {
      tensor_type {
        elem_type: 1
        shape {
          dim {
            dim_value: 512
          }
          dim {
            dim_value: 512
          }
          dim {
            dim_value: 3
          }
          dim {
            dim_value: 3
          }
        }
      }
    }
  }
  input {
    name: "resnetv24_stage4_batchnorm8_gamma"
    type {
      tensor_type {
        elem_type: 1
        shape {
          dim {
            dim_value: 512
          }
        }
      }
    }
  }
  input {
    name: "resnetv24_stage4_batchnorm8_beta"
    type {
      tensor_type {
        elem_type: 1
        shape {
          dim {
            dim_value: 512
          }
        }
      }
    }
  }
  input {
    name: "resnetv24_stage4_batchnorm8_running_mean"
    type {
      tensor_type {
        elem_type: 1
        shape {
          dim {
            dim_value: 512
          }
        }
      }
    }
  }
  input {
    name: "resnetv24_stage4_batchnorm8_running_var"
    type {
      tensor_type {
        elem_type: 1
        shape {
          dim {
            dim_value: 512
          }
        }
      }
    }
  }
  input {
    name: "resnetv24_stage4_conv9_weight"
    type {
      tensor_type {
        elem_type: 1
        shape {
          dim {
            dim_value: 2048
          }
          dim {
            dim_value: 512
          }
          dim {
            dim_value: 1
          }
          dim {
            dim_value: 1
          }
        }
      }
    }
  }
  input {
    name: "resnetv24_batchnorm2_gamma"
    type {
      tensor_type {
        elem_type: 1
        shape {
          dim {
            dim_value: 2048
          }
        }
      }
    }
  }
  input {
    name: "resnetv24_batchnorm2_beta"
    type {
      tensor_type {
        elem_type: 1
        shape {
          dim {
            dim_value: 2048
          }
        }
      }
    }
  }
  input {
    name: "resnetv24_batchnorm2_running_mean"
    type {
      tensor_type {
        elem_type: 1
        shape {
          dim {
            dim_value: 2048
          }
        }
      }
    }
  }
  input {
    name: "resnetv24_batchnorm2_running_var"
    type {
      tensor_type {
        elem_type: 1
        shape {
          dim {
            dim_value: 2048
          }
        }
      }
    }
  }
  input {
    name: "reshape_attr_tensor430"
    type {
      tensor_type {
        elem_type: 7
        shape {
          dim {
            dim_value: 2
          }
        }
      }
    }
  }
  input {
    name: "resnetv24_dense0_weight"
    type {
      tensor_type {
        elem_type: 1
        shape {
          dim {
            dim_value: 1000
          }
          dim {
            dim_value: 2048
          }
        }
      }
    }
  }
  input {
    name: "resnetv24_dense0_bias"
    type {
      tensor_type {
        elem_type: 1
        shape {
          dim {
            dim_value: 1000
          }
        }
      }
    }
  }
  output {
    name: "resnetv24_dense0_fwd"
    type {
      tensor_type {
        elem_type: 1
        shape {
          dim {
            dim_param: "N"
          }
          dim {
            dim_value: 1000
          }
        }
      }
    }
  }
}
opset_import {
  domain: ""
  version: 7
}
