ir_version: 3
producer_name: "onnx-caffe2"
graph {
  node {
    input: "gpu_0/data_0"
    input: "gpu_0/conv1_w_0"
    output: "gpu_0/conv1_1"
    op_type: "Conv"
    attribute {
      name: "pads"
      ints: 3
      ints: 3
      ints: 3
      ints: 3
      type: INTS
    }
    attribute {
      name: "kernel_shape"
      ints: 7
      ints: 7
      type: INTS
    }
    attribute {
      name: "strides"
      ints: 2
      ints: 2
      type: INTS
    }
  }
  node {
    input: "gpu_0/conv1_1"
    input: "gpu_0/res_conv1_bn_s_0"
    input: "gpu_0/res_conv1_bn_b_0"
    input: "gpu_0/res_conv1_bn_rm_0"
    input: "gpu_0/res_conv1_bn_riv_0"
    output: "gpu_0/res_conv1_bn_1"
    op_type: "BatchNormalization"
    attribute {
      name: "epsilon"
      f: 1.0000001e-05
      type: FLOAT
    }
  }
  node {
    input: "gpu_0/res_conv1_bn_1"
    output: "gpu_0/res_conv1_bn_2"
    op_type: "Relu"
  }
  node {
    input: "gpu_0/res_conv1_bn_2"
    output: "gpu_0/pool1_1"
    op_type: "MaxPool"
    attribute {
      name: "pads"
      ints: 1
      ints: 1
      ints: 1
      ints: 1
      type: INTS
    }
    attribute {
      name: "kernel_shape"
      ints: 3
      ints: 3
      type: INTS
    }
    attribute {
      name: "strides"
      ints: 2
      ints: 2
      type: INTS
    }
  }
  node {
    input: "gpu_0/pool1_1"
    input: "gpu_0/res2_0_branch2a_w_0"
    output: "gpu_0/res2_0_branch2a_1"
    op_type: "Conv"
    attribute {
      name: "pads"
      ints: 0
      ints: 0
      ints: 0
      ints: 0
      type: INTS
    }
    attribute {
      name: "kernel_shape"
      ints: 1
      ints: 1
      type: INTS
    }
    attribute {
      name: "strides"
      ints: 1
      ints: 1
      type: INTS
    }
  }
  node {
    input: "gpu_0/res2_0_branch2a_1"
    input: "gpu_0/res2_0_branch2a_bn_s_0"
    input: "gpu_0/res2_0_branch2a_bn_b_0"
    input: "gpu_0/res2_0_branch2a_bn_rm_0"
    input: "gpu_0/res2_0_branch2a_bn_riv_0"
    output: "gpu_0/res2_0_branch2a_bn_1"
    op_type: "BatchNormalization"
    attribute {
      name: "epsilon"
      f: 1.0000001e-05
      type: FLOAT
    }
  }
  node {
    input: "gpu_0/res2_0_branch2a_bn_1"
    output: "gpu_0/res2_0_branch2a_bn_2"
    op_type: "Relu"
  }
  node {
    input: "gpu_0/res2_0_branch2a_bn_2"
    input: "gpu_0/res2_0_branch2b_w_0"
    output: "gpu_0/res2_0_branch2b_1"
    op_type: "Conv"
    attribute {
      name: "pads"
      ints: 1
      ints: 1
      ints: 1
      ints: 1
      type: INTS
    }
    attribute {
      name: "kernel_shape"
      ints: 3
      ints: 3
      type: INTS
    }
    attribute {
      name: "strides"
      ints: 1
      ints: 1
      type: INTS
    }
  }
  node {
    input: "gpu_0/res2_0_branch2b_1"
    input: "gpu_0/res2_0_branch2b_bn_s_0"
    input: "gpu_0/res2_0_branch2b_bn_b_0"
    input: "gpu_0/res2_0_branch2b_bn_rm_0"
    input: "gpu_0/res2_0_branch2b_bn_riv_0"
    output: "gpu_0/res2_0_branch2b_bn_1"
    op_type: "BatchNormalization"
    attribute {
      name: "epsilon"
      f: 1.0000001e-05
      type: FLOAT
    }
  }
  node {
    input: "gpu_0/res2_0_branch2b_bn_1"
    output: "gpu_0/res2_0_branch2b_bn_2"
    op_type: "Relu"
  }
  node {
    input: "gpu_0/res2_0_branch2b_bn_2"
    input: "gpu_0/res2_0_branch2c_w_0"
    output: "gpu_0/res2_0_branch2c_1"
    op_type: "Conv"
    attribute {
      name: "pads"
      ints: 0
      ints: 0
      ints: 0
      ints: 0
      type: INTS
    }
    attribute {
      name: "kernel_shape"
      ints: 1
      ints: 1
      type: INTS
    }
    attribute {
      name: "strides"
      ints: 1
      ints: 1
      type: INTS
    }
  }
  node {
    input: "gpu_0/res2_0_branch2c_1"
    input: "gpu_0/res2_0_branch2c_bn_s_0"
    input: "gpu_0/res2_0_branch2c_bn_b_0"
    input: "gpu_0/res2_0_branch2c_bn_rm_0"
    input: "gpu_0/res2_0_branch2c_bn_riv_0"
    output: "gpu_0/res2_0_branch2c_bn_1"
    op_type: "BatchNormalization"
    attribute {
      name: "epsilon"
      f: 1.0000001e-05
      type: FLOAT
    }
  }
  node {
    input: "gpu_0/pool1_1"
    input: "gpu_0/res2_0_branch1_w_0"
    output: "gpu_0/res2_0_branch1_1"
    op_type: "Conv"
    attribute {
      name: "strides"
      ints: 1
      ints: 1
      type: INTS
    }
    attribute {
      name: "kernel_shape"
      ints: 1
      ints: 1
      type: INTS
    }
  }
  node {
    input: "gpu_0/res2_0_branch1_1"
    input: "gpu_0/res2_0_branch1_bn_s_0"
    input: "gpu_0/res2_0_branch1_bn_b_0"
    input: "gpu_0/res2_0_branch1_bn_rm_0"
    input: "gpu_0/res2_0_branch1_bn_riv_0"
    output: "gpu_0/res2_0_branch1_bn_1"
    op_type: "BatchNormalization"
    attribute {
      name: "epsilon"
      f: 1.0000001e-05
      type: FLOAT
    }
  }
  node {
    input: "gpu_0/res2_0_branch2c_bn_1"
    input: "gpu_0/res2_0_branch1_bn_1"
    output: "gpu_0/res2_0_branch2c_bn_2"
    op_type: "Sum"
  }
  node {
    input: "gpu_0/res2_0_branch2c_bn_2"
    output: "gpu_0/res2_0_branch2c_bn_3"
    op_type: "Relu"
  }
  node {
    input: "gpu_0/res2_0_branch2c_bn_3"
    input: "gpu_0/res2_1_branch2a_w_0"
    output: "gpu_0/res2_1_branch2a_1"
    op_type: "Conv"
    attribute {
      name: "pads"
      ints: 0
      ints: 0
      ints: 0
      ints: 0
      type: INTS
    }
    attribute {
      name: "kernel_shape"
      ints: 1
      ints: 1
      type: INTS
    }
    attribute {
      name: "strides"
      ints: 1
      ints: 1
      type: INTS
    }
  }
  node {
    input: "gpu_0/res2_1_branch2a_1"
    input: "gpu_0/res2_1_branch2a_bn_s_0"
    input: "gpu_0/res2_1_branch2a_bn_b_0"
    input: "gpu_0/res2_1_branch2a_bn_rm_0"
    input: "gpu_0/res2_1_branch2a_bn_riv_0"
    output: "gpu_0/res2_1_branch2a_bn_1"
    op_type: "BatchNormalization"
    attribute {
      name: "epsilon"
      f: 1.0000001e-05
      type: FLOAT
    }
  }
  node {
    input: "gpu_0/res2_1_branch2a_bn_1"
    output: "gpu_0/res2_1_branch2a_bn_2"
    op_type: "Relu"
  }
  node {
    input: "gpu_0/res2_1_branch2a_bn_2"
    input: "gpu_0/res2_1_branch2b_w_0"
    output: "gpu_0/res2_1_branch2b_1"
    op_type: "Conv"
    attribute {
      name: "pads"
      ints: 1
      ints: 1
      ints: 1
      ints: 1
      type: INTS
    }
    attribute {
      name: "kernel_shape"
      ints: 3
      ints: 3
      type: INTS
    }
    attribute {
      name: "strides"
      ints: 1
      ints: 1
      type: INTS
    }
  }
  node {
    input: "gpu_0/res2_1_branch2b_1"
    input: "gpu_0/res2_1_branch2b_bn_s_0"
    input: "gpu_0/res2_1_branch2b_bn_b_0"
    input: "gpu_0/res2_1_branch2b_bn_rm_0"
    input: "gpu_0/res2_1_branch2b_bn_riv_0"
    output: "gpu_0/res2_1_branch2b_bn_1"
    op_type: "BatchNormalization"
    attribute {
      name: "epsilon"
      f: 1.0000001e-05
      type: FLOAT
    }
  }
  node {
    input: "gpu_0/res2_1_branch2b_bn_1"
    output: "gpu_0/res2_1_branch2b_bn_2"
    op_type: "Relu"
  }
  node {
    input: "gpu_0/res2_1_branch2b_bn_2"
    input: "gpu_0/res2_1_branch2c_w_0"
    output: "gpu_0/res2_1_branch2c_1"
    op_type: "Conv"
    attribute {
      name: "pads"
      ints: 0
      ints: 0
      ints: 0
      ints: 0
      type: INTS
    }
    attribute {
      name: "kernel_shape"
      ints: 1
      ints: 1
      type: INTS
    }
    attribute {
      name: "strides"
      ints: 1
      ints: 1
      type: INTS
    }
  }
  node {
    input: "gpu_0/res2_1_branch2c_1"
    input: "gpu_0/res2_1_branch2c_bn_s_0"
    input: "gpu_0/res2_1_branch2c_bn_b_0"
    input: "gpu_0/res2_1_branch2c_bn_rm_0"
    input: "gpu_0/res2_1_branch2c_bn_riv_0"
    output: "gpu_0/res2_1_branch2c_bn_1"
    op_type: "BatchNormalization"
    attribute {
      name: "epsilon"
      f: 1.0000001e-05
      type: FLOAT
    }
  }
  node {
    input: "gpu_0/res2_1_branch2c_bn_1"
    input: "gpu_0/res2_0_branch2c_bn_3"
    output: "gpu_0/res2_1_branch2c_bn_2"
    op_type: "Sum"
  }
  node {
    input: "gpu_0/res2_1_branch2c_bn_2"
    output: "gpu_0/res2_1_branch2c_bn_3"
    op_type: "Relu"
  }
  node {
    input: "gpu_0/res2_1_branch2c_bn_3"
    input: "gpu_0/res2_2_branch2a_w_0"
    output: "gpu_0/res2_2_branch2a_1"
    op_type: "Conv"
    attribute {
      name: "pads"
      ints: 0
      ints: 0
      ints: 0
      ints: 0
      type: INTS
    }
    attribute {
      name: "kernel_shape"
      ints: 1
      ints: 1
      type: INTS
    }
    attribute {
      name: "strides"
      ints: 1
      ints: 1
      type: INTS
    }
  }
  node {
    input: "gpu_0/res2_2_branch2a_1"
    input: "gpu_0/res2_2_branch2a_bn_s_0"
    input: "gpu_0/res2_2_branch2a_bn_b_0"
    input: "gpu_0/res2_2_branch2a_bn_rm_0"
    input: "gpu_0/res2_2_branch2a_bn_riv_0"
    output: "gpu_0/res2_2_branch2a_bn_1"
    op_type: "BatchNormalization"
    attribute {
      name: "epsilon"
      f: 1.0000001e-05
      type: FLOAT
    }
  }
  node {
    input: "gpu_0/res2_2_branch2a_bn_1"
    output: "gpu_0/res2_2_branch2a_bn_2"
    op_type: "Relu"
  }
  node {
    input: "gpu_0/res2_2_branch2a_bn_2"
    input: "gpu_0/res2_2_branch2b_w_0"
    output: "gpu_0/res2_2_branch2b_1"
    op_type: "Conv"
    attribute {
      name: "pads"
      ints: 1
      ints: 1
      ints: 1
      ints: 1
      type: INTS
    }
    attribute {
      name: "kernel_shape"
      ints: 3
      ints: 3
      type: INTS
    }
    attribute {
      name: "strides"
      ints: 1
      ints: 1
      type: INTS
    }
  }
  node {
    input: "gpu_0/res2_2_branch2b_1"
    input: "gpu_0/res2_2_branch2b_bn_s_0"
    input: "gpu_0/res2_2_branch2b_bn_b_0"
    input: "gpu_0/res2_2_branch2b_bn_rm_0"
    input: "gpu_0/res2_2_branch2b_bn_riv_0"
    output: "gpu_0/res2_2_branch2b_bn_1"
    op_type: "BatchNormalization"
    attribute {
      name: "epsilon"
      f: 1.0000001e-05
      type: FLOAT
    }
  }
  node {
    input: "gpu_0/res2_2_branch2b_bn_1"
    output: "gpu_0/res2_2_branch2b_bn_2"
    op_type: "Relu"
  }
  node {
    input: "gpu_0/res2_2_branch2b_bn_2"
    input: "gpu_0/res2_2_branch2c_w_0"
    output: "gpu_0/res2_2_branch2c_1"
    op_type: "Conv"
    attribute {
      name: "pads"
      ints: 0
      ints: 0
      ints: 0
      ints: 0
      type: INTS
    }
    attribute {
      name: "kernel_shape"
      ints: 1
      ints: 1
      type: INTS
    }
    attribute {
      name: "strides"
      ints: 1
      ints: 1
      type: INTS
    }
  }
  node {
    input: "gpu_0/res2_2_branch2c_1"
    input: "gpu_0/res2_2_branch2c_bn_s_0"
    input: "gpu_0/res2_2_branch2c_bn_b_0"
    input: "gpu_0/res2_2_branch2c_bn_rm_0"
    input: "gpu_0/res2_2_branch2c_bn_riv_0"
    output: "gpu_0/res2_2_branch2c_bn_1"
    op_type: "BatchNormalization"
    attribute {
      name: "epsilon"
      f: 1.0000001e-05
      type: FLOAT
    }
  }
  node {
    input: "gpu_0/res2_2_branch2c_bn_1"
    input: "gpu_0/res2_1_branch2c_bn_3"
    output: "gpu_0/res2_2_branch2c_bn_2"
    op_type: "Sum"
  }
  node {
    input: "gpu_0/res2_2_branch2c_bn_2"
    output: "gpu_0/res2_2_branch2c_bn_3"
    op_type: "Relu"
  }
  node {
    input: "gpu_0/res2_2_branch2c_bn_3"
    input: "gpu_0/res3_0_branch2a_w_0"
    output: "gpu_0/res3_0_branch2a_1"
    op_type: "Conv"
    attribute {
      name: "pads"
      ints: 0
      ints: 0
      ints: 0
      ints: 0
      type: INTS
    }
    attribute {
      name: "kernel_shape"
      ints: 1
      ints: 1
      type: INTS
    }
    attribute {
      name: "strides"
      ints: 1
      ints: 1
      type: INTS
    }
  }
  node {
    input: "gpu_0/res3_0_branch2a_1"
    input: "gpu_0/res3_0_branch2a_bn_s_0"
    input: "gpu_0/res3_0_branch2a_bn_b_0"
    input: "gpu_0/res3_0_branch2a_bn_rm_0"
    input: "gpu_0/res3_0_branch2a_bn_riv_0"
    output: "gpu_0/res3_0_branch2a_bn_1"
    op_type: "BatchNormalization"
    attribute {
      name: "epsilon"
      f: 1.0000001e-05
      type: FLOAT
    }
  }
  node {
    input: "gpu_0/res3_0_branch2a_bn_1"
    output: "gpu_0/res3_0_branch2a_bn_2"
    op_type: "Relu"
  }
  node {
    input: "gpu_0/res3_0_branch2a_bn_2"
    input: "gpu_0/res3_0_branch2b_w_0"
    output: "gpu_0/res3_0_branch2b_1"
    op_type: "Conv"
    attribute {
      name: "pads"
      ints: 1
      ints: 1
      ints: 1
      ints: 1
      type: INTS
    }
    attribute {
      name: "kernel_shape"
      ints: 3
      ints: 3
      type: INTS
    }
    attribute {
      name: "strides"
      ints: 2
      ints: 2
      type: INTS
    }
  }
  node {
    input: "gpu_0/res3_0_branch2b_1"
    input: "gpu_0/res3_0_branch2b_bn_s_0"
    input: "gpu_0/res3_0_branch2b_bn_b_0"
    input: "gpu_0/res3_0_branch2b_bn_rm_0"
    input: "gpu_0/res3_0_branch2b_bn_riv_0"
    output: "gpu_0/res3_0_branch2b_bn_1"
    op_type: "BatchNormalization"
    attribute {
      name: "epsilon"
      f: 1.0000001e-05
      type: FLOAT
    }
  }
  node {
    input: "gpu_0/res3_0_branch2b_bn_1"
    output: "gpu_0/res3_0_branch2b_bn_2"
    op_type: "Relu"
  }
  node {
    input: "gpu_0/res3_0_branch2b_bn_2"
    input: "gpu_0/res3_0_branch2c_w_0"
    output: "gpu_0/res3_0_branch2c_1"
    op_type: "Conv"
    attribute {
      name: "pads"
      ints: 0
      ints: 0
      ints: 0
      ints: 0
      type: INTS
    }
    attribute {
      name: "kernel_shape"
      ints: 1
      ints: 1
      type: INTS
    }
    attribute {
      name: "strides"
      ints: 1
      ints: 1
      type: INTS
    }
  }
  node {
    input: "gpu_0/res3_0_branch2c_1"
    input: "gpu_0/res3_0_branch2c_bn_s_0"
    input: "gpu_0/res3_0_branch2c_bn_b_0"
    input: "gpu_0/res3_0_branch2c_bn_rm_0"
    input: "gpu_0/res3_0_branch2c_bn_riv_0"
    output: "gpu_0/res3_0_branch2c_bn_1"
    op_type: "BatchNormalization"
    attribute {
      name: "epsilon"
      f: 1.0000001e-05
      type: FLOAT
    }
  }
  node {
    input: "gpu_0/res2_2_branch2c_bn_3"
    input: "gpu_0/res3_0_branch1_w_0"
    output: "gpu_0/res3_0_branch1_1"
    op_type: "Conv"
    attribute {
      name: "strides"
      ints: 2
      ints: 2
      type: INTS
    }
    attribute {
      name: "kernel_shape"
      ints: 1
      ints: 1
      type: INTS
    }
  }
  node {
    input: "gpu_0/res3_0_branch1_1"
    input: "gpu_0/res3_0_branch1_bn_s_0"
    input: "gpu_0/res3_0_branch1_bn_b_0"
    input: "gpu_0/res3_0_branch1_bn_rm_0"
    input: "gpu_0/res3_0_branch1_bn_riv_0"
    output: "gpu_0/res3_0_branch1_bn_1"
    op_type: "BatchNormalization"
    attribute {
      name: "epsilon"
      f: 1.0000001e-05
      type: FLOAT
    }
  }
  node {
    input: "gpu_0/res3_0_branch2c_bn_1"
    input: "gpu_0/res3_0_branch1_bn_1"
    output: "gpu_0/res3_0_branch2c_bn_2"
    op_type: "Sum"
  }
  node {
    input: "gpu_0/res3_0_branch2c_bn_2"
    output: "gpu_0/res3_0_branch2c_bn_3"
    op_type: "Relu"
  }
  node {
    input: "gpu_0/res3_0_branch2c_bn_3"
    input: "gpu_0/res3_1_branch2a_w_0"
    output: "gpu_0/res3_1_branch2a_1"
    op_type: "Conv"
    attribute {
      name: "pads"
      ints: 0
      ints: 0
      ints: 0
      ints: 0
      type: INTS
    }
    attribute {
      name: "kernel_shape"
      ints: 1
      ints: 1
      type: INTS
    }
    attribute {
      name: "strides"
      ints: 1
      ints: 1
      type: INTS
    }
  }
  node {
    input: "gpu_0/res3_1_branch2a_1"
    input: "gpu_0/res3_1_branch2a_bn_s_0"
    input: "gpu_0/res3_1_branch2a_bn_b_0"
    input: "gpu_0/res3_1_branch2a_bn_rm_0"
    input: "gpu_0/res3_1_branch2a_bn_riv_0"
    output: "gpu_0/res3_1_branch2a_bn_1"
    op_type: "BatchNormalization"
    attribute {
      name: "epsilon"
      f: 1.0000001e-05
      type: FLOAT
    }
  }
  node {
    input: "gpu_0/res3_1_branch2a_bn_1"
    output: "gpu_0/res3_1_branch2a_bn_2"
    op_type: "Relu"
  }
  node {
    input: "gpu_0/res3_1_branch2a_bn_2"
    input: "gpu_0/res3_1_branch2b_w_0"
    output: "gpu_0/res3_1_branch2b_1"
    op_type: "Conv"
    attribute {
      name: "pads"
      ints: 1
      ints: 1
      ints: 1
      ints: 1
      type: INTS
    }
    attribute {
      name: "kernel_shape"
      ints: 3
      ints: 3
      type: INTS
    }
    attribute {
      name: "strides"
      ints: 1
      ints: 1
      type: INTS
    }
  }
  node {
    input: "gpu_0/res3_1_branch2b_1"
    input: "gpu_0/res3_1_branch2b_bn_s_0"
    input: "gpu_0/res3_1_branch2b_bn_b_0"
    input: "gpu_0/res3_1_branch2b_bn_rm_0"
    input: "gpu_0/res3_1_branch2b_bn_riv_0"
    output: "gpu_0/res3_1_branch2b_bn_1"
    op_type: "BatchNormalization"
    attribute {
      name: "epsilon"
      f: 1.0000001e-05
      type: FLOAT
    }
  }
  node {
    input: "gpu_0/res3_1_branch2b_bn_1"
    output: "gpu_0/res3_1_branch2b_bn_2"
    op_type: "Relu"
  }
  node {
    input: "gpu_0/res3_1_branch2b_bn_2"
    input: "gpu_0/res3_1_branch2c_w_0"
    output: "gpu_0/res3_1_branch2c_1"
    op_type: "Conv"
    attribute {
      name: "pads"
      ints: 0
      ints: 0
      ints: 0
      ints: 0
      type: INTS
    }
    attribute {
      name: "kernel_shape"
      ints: 1
      ints: 1
      type: INTS
    }
    attribute {
      name: "strides"
      ints: 1
      ints: 1
      type: INTS
    }
  }
  node {
    input: "gpu_0/res3_1_branch2c_1"
    input: "gpu_0/res3_1_branch2c_bn_s_0"
    input: "gpu_0/res3_1_branch2c_bn_b_0"
    input: "gpu_0/res3_1_branch2c_bn_rm_0"
    input: "gpu_0/res3_1_branch2c_bn_riv_0"
    output: "gpu_0/res3_1_branch2c_bn_1"
    op_type: "BatchNormalization"
    attribute {
      name: "epsilon"
      f: 1.0000001e-05
      type: FLOAT
    }
  }
  node {
    input: "gpu_0/res3_1_branch2c_bn_1"
    input: "gpu_0/res3_0_branch2c_bn_3"
    output: "gpu_0/res3_1_branch2c_bn_2"
    op_type: "Sum"
  }
  node {
    input: "gpu_0/res3_1_branch2c_bn_2"
    output: "gpu_0/res3_1_branch2c_bn_3"
    op_type: "Relu"
  }
  node {
    input: "gpu_0/res3_1_branch2c_bn_3"
    input: "gpu_0/res3_2_branch2a_w_0"
    output: "gpu_0/res3_2_branch2a_1"
    op_type: "Conv"
    attribute {
      name: "pads"
      ints: 0
      ints: 0
      ints: 0
      ints: 0
      type: INTS
    }
    attribute {
      name: "kernel_shape"
      ints: 1
      ints: 1
      type: INTS
    }
    attribute {
      name: "strides"
      ints: 1
      ints: 1
      type: INTS
    }
  }
  node {
    input: "gpu_0/res3_2_branch2a_1"
    input: "gpu_0/res3_2_branch2a_bn_s_0"
    input: "gpu_0/res3_2_branch2a_bn_b_0"
    input: "gpu_0/res3_2_branch2a_bn_rm_0"
    input: "gpu_0/res3_2_branch2a_bn_riv_0"
    output: "gpu_0/res3_2_branch2a_bn_1"
    op_type: "BatchNormalization"
    attribute {
      name: "epsilon"
      f: 1.0000001e-05
      type: FLOAT
    }
  }
  node {
    input: "gpu_0/res3_2_branch2a_bn_1"
    output: "gpu_0/res3_2_branch2a_bn_2"
    op_type: "Relu"
  }
  node {
    input: "gpu_0/res3_2_branch2a_bn_2"
    input: "gpu_0/res3_2_branch2b_w_0"
    output: "gpu_0/res3_2_branch2b_1"
    op_type: "Conv"
    attribute {
      name: "pads"
      ints: 1
      ints: 1
      ints: 1
      ints: 1
      type: INTS
    }
    attribute {
      name: "kernel_shape"
      ints: 3
      ints: 3
      type: INTS
    }
    attribute {
      name: "strides"
      ints: 1
      ints: 1
      type: INTS
    }
  }
  node {
    input: "gpu_0/res3_2_branch2b_1"
    input: "gpu_0/res3_2_branch2b_bn_s_0"
    input: "gpu_0/res3_2_branch2b_bn_b_0"
    input: "gpu_0/res3_2_branch2b_bn_rm_0"
    input: "gpu_0/res3_2_branch2b_bn_riv_0"
    output: "gpu_0/res3_2_branch2b_bn_1"
    op_type: "BatchNormalization"
    attribute {
      name: "epsilon"
      f: 1.0000001e-05
      type: FLOAT
    }
  }
  node {
    input: "gpu_0/res3_2_branch2b_bn_1"
    output: "gpu_0/res3_2_branch2b_bn_2"
    op_type: "Relu"
  }
  node {
    input: "gpu_0/res3_2_branch2b_bn_2"
    input: "gpu_0/res3_2_branch2c_w_0"
    output: "gpu_0/res3_2_branch2c_1"
    op_type: "Conv"
    attribute {
      name: "pads"
      ints: 0
      ints: 0
      ints: 0
      ints: 0
      type: INTS
    }
    attribute {
      name: "kernel_shape"
      ints: 1
      ints: 1
      type: INTS
    }
    attribute {
      name: "strides"
      ints: 1
      ints: 1
      type: INTS
    }
  }
  node {
    input: "gpu_0/res3_2_branch2c_1"
    input: "gpu_0/res3_2_branch2c_bn_s_0"
    input: "gpu_0/res3_2_branch2c_bn_b_0"
    input: "gpu_0/res3_2_branch2c_bn_rm_0"
    input: "gpu_0/res3_2_branch2c_bn_riv_0"
    output: "gpu_0/res3_2_branch2c_bn_1"
    op_type: "BatchNormalization"
    attribute {
      name: "epsilon"
      f: 1.0000001e-05
      type: FLOAT
    }
  }
  node {
    input: "gpu_0/res3_2_branch2c_bn_1"
    input: "gpu_0/res3_1_branch2c_bn_3"
    output: "gpu_0/res3_2_branch2c_bn_2"
    op_type: "Sum"
  }
  node {
    input: "gpu_0/res3_2_branch2c_bn_2"
    output: "gpu_0/res3_2_branch2c_bn_3"
    op_type: "Relu"
  }
  node {
    input: "gpu_0/res3_2_branch2c_bn_3"
    input: "gpu_0/res3_3_branch2a_w_0"
    output: "gpu_0/res3_3_branch2a_1"
    op_type: "Conv"
    attribute {
      name: "pads"
      ints: 0
      ints: 0
      ints: 0
      ints: 0
      type: INTS
    }
    attribute {
      name: "kernel_shape"
      ints: 1
      ints: 1
      type: INTS
    }
    attribute {
      name: "strides"
      ints: 1
      ints: 1
      type: INTS
    }
  }
  node {
    input: "gpu_0/res3_3_branch2a_1"
    input: "gpu_0/res3_3_branch2a_bn_s_0"
    input: "gpu_0/res3_3_branch2a_bn_b_0"
    input: "gpu_0/res3_3_branch2a_bn_rm_0"
    input: "gpu_0/res3_3_branch2a_bn_riv_0"
    output: "gpu_0/res3_3_branch2a_bn_1"
    op_type: "BatchNormalization"
    attribute {
      name: "epsilon"
      f: 1.0000001e-05
      type: FLOAT
    }
  }
  node {
    input: "gpu_0/res3_3_branch2a_bn_1"
    output: "gpu_0/res3_3_branch2a_bn_2"
    op_type: "Relu"
  }
  node {
    input: "gpu_0/res3_3_branch2a_bn_2"
    input: "gpu_0/res3_3_branch2b_w_0"
    output: "gpu_0/res3_3_branch2b_1"
    op_type: "Conv"
    attribute {
      name: "pads"
      ints: 1
      ints: 1
      ints: 1
      ints: 1
      type: INTS
    }
    attribute {
      name: "kernel_shape"
      ints: 3
      ints: 3
      type: INTS
    }
    attribute {
      name: "strides"
      ints: 1
      ints: 1
      type: INTS
    }
  }
  node {
    input: "gpu_0/res3_3_branch2b_1"
    input: "gpu_0/res3_3_branch2b_bn_s_0"
    input: "gpu_0/res3_3_branch2b_bn_b_0"
    input: "gpu_0/res3_3_branch2b_bn_rm_0"
    input: "gpu_0/res3_3_branch2b_bn_riv_0"
    output: "gpu_0/res3_3_branch2b_bn_1"
    op_type: "BatchNormalization"
    attribute {
      name: "epsilon"
      f: 1.0000001e-05
      type: FLOAT
    }
  }
  node {
    input: "gpu_0/res3_3_branch2b_bn_1"
    output: "gpu_0/res3_3_branch2b_bn_2"
    op_type: "Relu"
  }
  node {
    input: "gpu_0/res3_3_branch2b_bn_2"
    input: "gpu_0/res3_3_branch2c_w_0"
    output: "gpu_0/res3_3_branch2c_1"
    op_type: "Conv"
    attribute {
      name: "pads"
      ints: 0
      ints: 0
      ints: 0
      ints: 0
      type: INTS
    }
    attribute {
      name: "kernel_shape"
      ints: 1
      ints: 1
      type: INTS
    }
    attribute {
      name: "strides"
      ints: 1
      ints: 1
      type: INTS
    }
  }
  node {
    input: "gpu_0/res3_3_branch2c_1"
    input: "gpu_0/res3_3_branch2c_bn_s_0"
    input: "gpu_0/res3_3_branch2c_bn_b_0"
    input: "gpu_0/res3_3_branch2c_bn_rm_0"
    input: "gpu_0/res3_3_branch2c_bn_riv_0"
    output: "gpu_0/res3_3_branch2c_bn_1"
    op_type: "BatchNormalization"
    attribute {
      name: "epsilon"
      f: 1.0000001e-05
      type: FLOAT
    }
  }
  node {
    input: "gpu_0/res3_3_branch2c_bn_1"
    input: "gpu_0/res3_2_branch2c_bn_3"
    output: "gpu_0/res3_3_branch2c_bn_2"
    op_type: "Sum"
  }
  node {
    input: "gpu_0/res3_3_branch2c_bn_2"
    output: "gpu_0/res3_3_branch2c_bn_3"
    op_type: "Relu"
  }
  node {
    input: "gpu_0/res3_3_branch2c_bn_3"
    input: "gpu_0/res4_0_branch2a_w_0"
    output: "gpu_0/res4_0_branch2a_1"
    op_type: "Conv"
    attribute {
      name: "pads"
      ints: 0
      ints: 0
      ints: 0
      ints: 0
      type: INTS
    }
    attribute {
      name: "kernel_shape"
      ints: 1
      ints: 1
      type: INTS
    }
    attribute {
      name: "strides"
      ints: 1
      ints: 1
      type: INTS
    }
  }
  node {
    input: "gpu_0/res4_0_branch2a_1"
    input: "gpu_0/res4_0_branch2a_bn_s_0"
    input: "gpu_0/res4_0_branch2a_bn_b_0"
    input: "gpu_0/res4_0_branch2a_bn_rm_0"
    input: "gpu_0/res4_0_branch2a_bn_riv_0"
    output: "gpu_0/res4_0_branch2a_bn_1"
    op_type: "BatchNormalization"
    attribute {
      name: "epsilon"
      f: 1.0000001e-05
      type: FLOAT
    }
  }
  node {
    input: "gpu_0/res4_0_branch2a_bn_1"
    output: "gpu_0/res4_0_branch2a_bn_2"
    op_type: "Relu"
  }
  node {
    input: "gpu_0/res4_0_branch2a_bn_2"
    input: "gpu_0/res4_0_branch2b_w_0"
    output: "gpu_0/res4_0_branch2b_1"
    op_type: "Conv"
    attribute {
      name: "pads"
      ints: 1
      ints: 1
      ints: 1
      ints: 1
      type: INTS
    }
    attribute {
      name: "kernel_shape"
      ints: 3
      ints: 3
      type: INTS
    }
    attribute {
      name: "strides"
      ints: 2
      ints: 2
      type: INTS
    }
  }
  node {
    input: "gpu_0/res4_0_branch2b_1"
    input: "gpu_0/res4_0_branch2b_bn_s_0"
    input: "gpu_0/res4_0_branch2b_bn_b_0"
    input: "gpu_0/res4_0_branch2b_bn_rm_0"
    input: "gpu_0/res4_0_branch2b_bn_riv_0"
    output: "gpu_0/res4_0_branch2b_bn_1"
    op_type: "BatchNormalization"
    attribute {
      name: "epsilon"
      f: 1.0000001e-05
      type: FLOAT
    }
  }
  node {
    input: "gpu_0/res4_0_branch2b_bn_1"
    output: "gpu_0/res4_0_branch2b_bn_2"
    op_type: "Relu"
  }
  node {
    input: "gpu_0/res4_0_branch2b_bn_2"
    input: "gpu_0/res4_0_branch2c_w_0"
    output: "gpu_0/res4_0_branch2c_1"
    op_type: "Conv"
    attribute {
      name: "pads"
      ints: 0
      ints: 0
      ints: 0
      ints: 0
      type: INTS
    }
    attribute {
      name: "kernel_shape"
      ints: 1
      ints: 1
      type: INTS
    }
    attribute {
      name: "strides"
      ints: 1
      ints: 1
      type: INTS
    }
  }
  node {
    input: "gpu_0/res4_0_branch2c_1"
    input: "gpu_0/res4_0_branch2c_bn_s_0"
    input: "gpu_0/res4_0_branch2c_bn_b_0"
    input: "gpu_0/res4_0_branch2c_bn_rm_0"
    input: "gpu_0/res4_0_branch2c_bn_riv_0"
    output: "gpu_0/res4_0_branch2c_bn_1"
    op_type: "BatchNormalization"
    attribute {
      name: "epsilon"
      f: 1.0000001e-05
      type: FLOAT
    }
  }
  node {
    input: "gpu_0/res3_3_branch2c_bn_3"
    input: "gpu_0/res4_0_branch1_w_0"
    output: "gpu_0/res4_0_branch1_1"
    op_type: "Conv"
    attribute {
      name: "strides"
      ints: 2
      ints: 2
      type: INTS
    }
    attribute {
      name: "kernel_shape"
      ints: 1
      ints: 1
      type: INTS
    }
  }
  node {
    input: "gpu_0/res4_0_branch1_1"
    input: "gpu_0/res4_0_branch1_bn_s_0"
    input: "gpu_0/res4_0_branch1_bn_b_0"
    input: "gpu_0/res4_0_branch1_bn_rm_0"
    input: "gpu_0/res4_0_branch1_bn_riv_0"
    output: "gpu_0/res4_0_branch1_bn_1"
    op_type: "BatchNormalization"
    attribute {
      name: "epsilon"
      f: 1.0000001e-05
      type: FLOAT
    }
  }
  node {
    input: "gpu_0/res4_0_branch2c_bn_1"
    input: "gpu_0/res4_0_branch1_bn_1"
    output: "gpu_0/res4_0_branch2c_bn_2"
    op_type: "Sum"
  }
  node {
    input: "gpu_0/res4_0_branch2c_bn_2"
    output: "gpu_0/res4_0_branch2c_bn_3"
    op_type: "Relu"
  }
  node {
    input: "gpu_0/res4_0_branch2c_bn_3"
    input: "gpu_0/res4_1_branch2a_w_0"
    output: "gpu_0/res4_1_branch2a_1"
    op_type: "Conv"
    attribute {
      name: "pads"
      ints: 0
      ints: 0
      ints: 0
      ints: 0
      type: INTS
    }
    attribute {
      name: "kernel_shape"
      ints: 1
      ints: 1
      type: INTS
    }
    attribute {
      name: "strides"
      ints: 1
      ints: 1
      type: INTS
    }
  }
  node {
    input: "gpu_0/res4_1_branch2a_1"
    input: "gpu_0/res4_1_branch2a_bn_s_0"
    input: "gpu_0/res4_1_branch2a_bn_b_0"
    input: "gpu_0/res4_1_branch2a_bn_rm_0"
    input: "gpu_0/res4_1_branch2a_bn_riv_0"
    output: "gpu_0/res4_1_branch2a_bn_1"
    op_type: "BatchNormalization"
    attribute {
      name: "epsilon"
      f: 1.0000001e-05
      type: FLOAT
    }
  }
  node {
    input: "gpu_0/res4_1_branch2a_bn_1"
    output: "gpu_0/res4_1_branch2a_bn_2"
    op_type: "Relu"
  }
  node {
    input: "gpu_0/res4_1_branch2a_bn_2"
    input: "gpu_0/res4_1_branch2b_w_0"
    output: "gpu_0/res4_1_branch2b_1"
    op_type: "Conv"
    attribute {
      name: "pads"
      ints: 1
      ints: 1
      ints: 1
      ints: 1
      type: INTS
    }
    attribute {
      name: "kernel_shape"
      ints: 3
      ints: 3
      type: INTS
    }
    attribute {
      name: "strides"
      ints: 1
      ints: 1
      type: INTS
    }
  }
  node {
    input: "gpu_0/res4_1_branch2b_1"
    input: "gpu_0/res4_1_branch2b_bn_s_0"
    input: "gpu_0/res4_1_branch2b_bn_b_0"
    input: "gpu_0/res4_1_branch2b_bn_rm_0"
    input: "gpu_0/res4_1_branch2b_bn_riv_0"
    output: "gpu_0/res4_1_branch2b_bn_1"
    op_type: "BatchNormalization"
    attribute {
      name: "epsilon"
      f: 1.0000001e-05
      type: FLOAT
    }
  }
  node {
    input: "gpu_0/res4_1_branch2b_bn_1"
    output: "gpu_0/res4_1_branch2b_bn_2"
    op_type: "Relu"
  }
  node {
    input: "gpu_0/res4_1_branch2b_bn_2"
    input: "gpu_0/res4_1_branch2c_w_0"
    output: "gpu_0/res4_1_branch2c_1"
    op_type: "Conv"
    attribute {
      name: "pads"
      ints: 0
      ints: 0
      ints: 0
      ints: 0
      type: INTS
    }
    attribute {
      name: "kernel_shape"
      ints: 1
      ints: 1
      type: INTS
    }
    attribute {
      name: "strides"
      ints: 1
      ints: 1
      type: INTS
    }
  }
  node {
    input: "gpu_0/res4_1_branch2c_1"
    input: "gpu_0/res4_1_branch2c_bn_s_0"
    input: "gpu_0/res4_1_branch2c_bn_b_0"
    input: "gpu_0/res4_1_branch2c_bn_rm_0"
    input: "gpu_0/res4_1_branch2c_bn_riv_0"
    output: "gpu_0/res4_1_branch2c_bn_1"
    op_type: "BatchNormalization"
    attribute {
      name: "epsilon"
      f: 1.0000001e-05
      type: FLOAT
    }
  }
  node {
    input: "gpu_0/res4_1_branch2c_bn_1"
    input: "gpu_0/res4_0_branch2c_bn_3"
    output: "gpu_0/res4_1_branch2c_bn_2"
    op_type: "Sum"
  }
  node {
    input: "gpu_0/res4_1_branch2c_bn_2"
    output: "gpu_0/res4_1_branch2c_bn_3"
    op_type: "Relu"
  }
  node {
    input: "gpu_0/res4_1_branch2c_bn_3"
    input: "gpu_0/res4_2_branch2a_w_0"
    output: "gpu_0/res4_2_branch2a_1"
    op_type: "Conv"
    attribute {
      name: "pads"
      ints: 0
      ints: 0
      ints: 0
      ints: 0
      type: INTS
    }
    attribute {
      name: "kernel_shape"
      ints: 1
      ints: 1
      type: INTS
    }
    attribute {
      name: "strides"
      ints: 1
      ints: 1
      type: INTS
    }
  }
  node {
    input: "gpu_0/res4_2_branch2a_1"
    input: "gpu_0/res4_2_branch2a_bn_s_0"
    input: "gpu_0/res4_2_branch2a_bn_b_0"
    input: "gpu_0/res4_2_branch2a_bn_rm_0"
    input: "gpu_0/res4_2_branch2a_bn_riv_0"
    output: "gpu_0/res4_2_branch2a_bn_1"
    op_type: "BatchNormalization"
    attribute {
      name: "epsilon"
      f: 1.0000001e-05
      type: FLOAT
    }
  }
  node {
    input: "gpu_0/res4_2_branch2a_bn_1"
    output: "gpu_0/res4_2_branch2a_bn_2"
    op_type: "Relu"
  }
  node {
    input: "gpu_0/res4_2_branch2a_bn_2"
    input: "gpu_0/res4_2_branch2b_w_0"
    output: "gpu_0/res4_2_branch2b_1"
    op_type: "Conv"
    attribute {
      name: "pads"
      ints: 1
      ints: 1
      ints: 1
      ints: 1
      type: INTS
    }
    attribute {
      name: "kernel_shape"
      ints: 3
      ints: 3
      type: INTS
    }
    attribute {
      name: "strides"
      ints: 1
      ints: 1
      type: INTS
    }
  }
  node {
    input: "gpu_0/res4_2_branch2b_1"
    input: "gpu_0/res4_2_branch2b_bn_s_0"
    input: "gpu_0/res4_2_branch2b_bn_b_0"
    input: "gpu_0/res4_2_branch2b_bn_rm_0"
    input: "gpu_0/res4_2_branch2b_bn_riv_0"
    output: "gpu_0/res4_2_branch2b_bn_1"
    op_type: "BatchNormalization"
    attribute {
      name: "epsilon"
      f: 1.0000001e-05
      type: FLOAT
    }
  }
  node {
    input: "gpu_0/res4_2_branch2b_bn_1"
    output: "gpu_0/res4_2_branch2b_bn_2"
    op_type: "Relu"
  }
  node {
    input: "gpu_0/res4_2_branch2b_bn_2"
    input: "gpu_0/res4_2_branch2c_w_0"
    output: "gpu_0/res4_2_branch2c_1"
    op_type: "Conv"
    attribute {
      name: "pads"
      ints: 0
      ints: 0
      ints: 0
      ints: 0
      type: INTS
    }
    attribute {
      name: "kernel_shape"
      ints: 1
      ints: 1
      type: INTS
    }
    attribute {
      name: "strides"
      ints: 1
      ints: 1
      type: INTS
    }
  }
  node {
    input: "gpu_0/res4_2_branch2c_1"
    input: "gpu_0/res4_2_branch2c_bn_s_0"
    input: "gpu_0/res4_2_branch2c_bn_b_0"
    input: "gpu_0/res4_2_branch2c_bn_rm_0"
    input: "gpu_0/res4_2_branch2c_bn_riv_0"
    output: "gpu_0/res4_2_branch2c_bn_1"
    op_type: "BatchNormalization"
    attribute {
      name: "epsilon"
      f: 1.0000001e-05
      type: FLOAT
    }
  }
  node {
    input: "gpu_0/res4_2_branch2c_bn_1"
    input: "gpu_0/res4_1_branch2c_bn_3"
    output: "gpu_0/res4_2_branch2c_bn_2"
    op_type: "Sum"
  }
  node {
    input: "gpu_0/res4_2_branch2c_bn_2"
    output: "gpu_0/res4_2_branch2c_bn_3"
    op_type: "Relu"
  }
  node {
    input: "gpu_0/res4_2_branch2c_bn_3"
    input: "gpu_0/res4_3_branch2a_w_0"
    output: "gpu_0/res4_3_branch2a_1"
    op_type: "Conv"
    attribute {
      name: "pads"
      ints: 0
      ints: 0
      ints: 0
      ints: 0
      type: INTS
    }
    attribute {
      name: "kernel_shape"
      ints: 1
      ints: 1
      type: INTS
    }
    attribute {
      name: "strides"
      ints: 1
      ints: 1
      type: INTS
    }
  }
  node {
    input: "gpu_0/res4_3_branch2a_1"
    input: "gpu_0/res4_3_branch2a_bn_s_0"
    input: "gpu_0/res4_3_branch2a_bn_b_0"
    input: "gpu_0/res4_3_branch2a_bn_rm_0"
    input: "gpu_0/res4_3_branch2a_bn_riv_0"
    output: "gpu_0/res4_3_branch2a_bn_1"
    op_type: "BatchNormalization"
    attribute {
      name: "epsilon"
      f: 1.0000001e-05
      type: FLOAT
    }
  }
  node {
    input: "gpu_0/res4_3_branch2a_bn_1"
    output: "gpu_0/res4_3_branch2a_bn_2"
    op_type: "Relu"
  }
  node {
    input: "gpu_0/res4_3_branch2a_bn_2"
    input: "gpu_0/res4_3_branch2b_w_0"
    output: "gpu_0/res4_3_branch2b_1"
    op_type: "Conv"
    attribute {
      name: "pads"
      ints: 1
      ints: 1
      ints: 1
      ints: 1
      type: INTS
    }
    attribute {
      name: "kernel_shape"
      ints: 3
      ints: 3
      type: INTS
    }
    attribute {
      name: "strides"
      ints: 1
      ints: 1
      type: INTS
    }
  }
  node {
    input: "gpu_0/res4_3_branch2b_1"
    input: "gpu_0/res4_3_branch2b_bn_s_0"
    input: "gpu_0/res4_3_branch2b_bn_b_0"
    input: "gpu_0/res4_3_branch2b_bn_rm_0"
    input: "gpu_0/res4_3_branch2b_bn_riv_0"
    output: "gpu_0/res4_3_branch2b_bn_1"
    op_type: "BatchNormalization"
    attribute {
      name: "epsilon"
      f: 1.0000001e-05
      type: FLOAT
    }
  }
  node {
    input: "gpu_0/res4_3_branch2b_bn_1"
    output: "gpu_0/res4_3_branch2b_bn_2"
    op_type: "Relu"
  }
  node {
    input: "gpu_0/res4_3_branch2b_bn_2"
    input: "gpu_0/res4_3_branch2c_w_0"
    output: "gpu_0/res4_3_branch2c_1"
    op_type: "Conv"
    attribute {
      name: "pads"
      ints: 0
      ints: 0
      ints: 0
      ints: 0
      type: INTS
    }
    attribute {
      name: "kernel_shape"
      ints: 1
      ints: 1
      type: INTS
    }
    attribute {
      name: "strides"
      ints: 1
      ints: 1
      type: INTS
    }
  }
  node {
    input: "gpu_0/res4_3_branch2c_1"
    input: "gpu_0/res4_3_branch2c_bn_s_0"
    input: "gpu_0/res4_3_branch2c_bn_b_0"
    input: "gpu_0/res4_3_branch2c_bn_rm_0"
    input: "gpu_0/res4_3_branch2c_bn_riv_0"
    output: "gpu_0/res4_3_branch2c_bn_1"
    op_type: "BatchNormalization"
    attribute {
      name: "epsilon"
      f: 1.0000001e-05
      type: FLOAT
    }
  }
  node {
    input: "gpu_0/res4_3_branch2c_bn_1"
    input: "gpu_0/res4_2_branch2c_bn_3"
    output: "gpu_0/res4_3_branch2c_bn_2"
    op_type: "Sum"
  }
  node {
    input: "gpu_0/res4_3_branch2c_bn_2"
    output: "gpu_0/res4_3_branch2c_bn_3"
    op_type: "Relu"
  }
  node {
    input: "gpu_0/res4_3_branch2c_bn_3"
    input: "gpu_0/res4_4_branch2a_w_0"
    output: "gpu_0/res4_4_branch2a_1"
    op_type: "Conv"
    attribute {
      name: "pads"
      ints: 0
      ints: 0
      ints: 0
      ints: 0
      type: INTS
    }
    attribute {
      name: "kernel_shape"
      ints: 1
      ints: 1
      type: INTS
    }
    attribute {
      name: "strides"
      ints: 1
      ints: 1
      type: INTS
    }
  }
  node {
    input: "gpu_0/res4_4_branch2a_1"
    input: "gpu_0/res4_4_branch2a_bn_s_0"
    input: "gpu_0/res4_4_branch2a_bn_b_0"
    input: "gpu_0/res4_4_branch2a_bn_rm_0"
    input: "gpu_0/res4_4_branch2a_bn_riv_0"
    output: "gpu_0/res4_4_branch2a_bn_1"
    op_type: "BatchNormalization"
    attribute {
      name: "epsilon"
      f: 1.0000001e-05
      type: FLOAT
    }
  }
  node {
    input: "gpu_0/res4_4_branch2a_bn_1"
    output: "gpu_0/res4_4_branch2a_bn_2"
    op_type: "Relu"
  }
  node {
    input: "gpu_0/res4_4_branch2a_bn_2"
    input: "gpu_0/res4_4_branch2b_w_0"
    output: "gpu_0/res4_4_branch2b_1"
    op_type: "Conv"
    attribute {
      name: "pads"
      ints: 1
      ints: 1
      ints: 1
      ints: 1
      type: INTS
    }
    attribute {
      name: "kernel_shape"
      ints: 3
      ints: 3
      type: INTS
    }
    attribute {
      name: "strides"
      ints: 1
      ints: 1
      type: INTS
    }
  }
  node {
    input: "gpu_0/res4_4_branch2b_1"
    input: "gpu_0/res4_4_branch2b_bn_s_0"
    input: "gpu_0/res4_4_branch2b_bn_b_0"
    input: "gpu_0/res4_4_branch2b_bn_rm_0"
    input: "gpu_0/res4_4_branch2b_bn_riv_0"
    output: "gpu_0/res4_4_branch2b_bn_1"
    op_type: "BatchNormalization"
    attribute {
      name: "epsilon"
      f: 1.0000001e-05
      type: FLOAT
    }
  }
  node {
    input: "gpu_0/res4_4_branch2b_bn_1"
    output: "gpu_0/res4_4_branch2b_bn_2"
    op_type: "Relu"
  }
  node {
    input: "gpu_0/res4_4_branch2b_bn_2"
    input: "gpu_0/res4_4_branch2c_w_0"
    output: "gpu_0/res4_4_branch2c_1"
    op_type: "Conv"
    attribute {
      name: "pads"
      ints: 0
      ints: 0
      ints: 0
      ints: 0
      type: INTS
    }
    attribute {
      name: "kernel_shape"
      ints: 1
      ints: 1
      type: INTS
    }
    attribute {
      name: "strides"
      ints: 1
      ints: 1
      type: INTS
    }
  }
  node {
    input: "gpu_0/res4_4_branch2c_1"
    input: "gpu_0/res4_4_branch2c_bn_s_0"
    input: "gpu_0/res4_4_branch2c_bn_b_0"
    input: "gpu_0/res4_4_branch2c_bn_rm_0"
    input: "gpu_0/res4_4_branch2c_bn_riv_0"
    output: "gpu_0/res4_4_branch2c_bn_1"
    op_type: "BatchNormalization"
    attribute {
      name: "epsilon"
      f: 1.0000001e-05
      type: FLOAT
    }
  }
  node {
    input: "gpu_0/res4_4_branch2c_bn_1"
    input: "gpu_0/res4_3_branch2c_bn_3"
    output: "gpu_0/res4_4_branch2c_bn_2"
    op_type: "Sum"
  }
  node {
    input: "gpu_0/res4_4_branch2c_bn_2"
    output: "gpu_0/res4_4_branch2c_bn_3"
    op_type: "Relu"
  }
  node {
    input: "gpu_0/res4_4_branch2c_bn_3"
    input: "gpu_0/res4_5_branch2a_w_0"
    output: "gpu_0/res4_5_branch2a_1"
    op_type: "Conv"
    attribute {
      name: "pads"
      ints: 0
      ints: 0
      ints: 0
      ints: 0
      type: INTS
    }
    attribute {
      name: "kernel_shape"
      ints: 1
      ints: 1
      type: INTS
    }
    attribute {
      name: "strides"
      ints: 1
      ints: 1
      type: INTS
    }
  }
  node {
    input: "gpu_0/res4_5_branch2a_1"
    input: "gpu_0/res4_5_branch2a_bn_s_0"
    input: "gpu_0/res4_5_branch2a_bn_b_0"
    input: "gpu_0/res4_5_branch2a_bn_rm_0"
    input: "gpu_0/res4_5_branch2a_bn_riv_0"
    output: "gpu_0/res4_5_branch2a_bn_1"
    op_type: "BatchNormalization"
    attribute {
      name: "epsilon"
      f: 1.0000001e-05
      type: FLOAT
    }
  }
  node {
    input: "gpu_0/res4_5_branch2a_bn_1"
    output: "gpu_0/res4_5_branch2a_bn_2"
    op_type: "Relu"
  }
  node {
    input: "gpu_0/res4_5_branch2a_bn_2"
    input: "gpu_0/res4_5_branch2b_w_0"
    output: "gpu_0/res4_5_branch2b_1"
    op_type: "Conv"
    attribute {
      name: "pads"
      ints: 1
      ints: 1
      ints: 1
      ints: 1
      type: INTS
    }
    attribute {
      name: "kernel_shape"
      ints: 3
      ints: 3
      type: INTS
    }
    attribute {
      name: "strides"
      ints: 1
      ints: 1
      type: INTS
    }
  }
  node {
    input: "gpu_0/res4_5_branch2b_1"
    input: "gpu_0/res4_5_branch2b_bn_s_0"
    input: "gpu_0/res4_5_branch2b_bn_b_0"
    input: "gpu_0/res4_5_branch2b_bn_rm_0"
    input: "gpu_0/res4_5_branch2b_bn_riv_0"
    output: "gpu_0/res4_5_branch2b_bn_1"
    op_type: "BatchNormalization"
    attribute {
      name: "epsilon"
      f: 1.0000001e-05
      type: FLOAT
    }
  }
  node {
    input: "gpu_0/res4_5_branch2b_bn_1"
    output: "gpu_0/res4_5_branch2b_bn_2"
    op_type: "Relu"
  }
  node {
    input: "gpu_0/res4_5_branch2b_bn_2"
    input: "gpu_0/res4_5_branch2c_w_0"
    output: "gpu_0/res4_5_branch2c_1"
    op_type: "Conv"
    attribute {
      name: "pads"
      ints: 0
      ints: 0
      ints: 0
      ints: 0
      type: INTS
    }
    attribute {
      name: "kernel_shape"
      ints: 1
      ints: 1
      type: INTS
    }
    attribute {
      name: "strides"
      ints: 1
      ints: 1
      type: INTS
    }
  }
  node {
    input: "gpu_0/res4_5_branch2c_1"
    input: "gpu_0/res4_5_branch2c_bn_s_0"
    input: "gpu_0/res4_5_branch2c_bn_b_0"
    input: "gpu_0/res4_5_branch2c_bn_rm_0"
    input: "gpu_0/res4_5_branch2c_bn_riv_0"
    output: "gpu_0/res4_5_branch2c_bn_1"
    op_type: "BatchNormalization"
    attribute {
      name: "epsilon"
      f: 1.0000001e-05
      type: FLOAT
    }
  }
  node {
    input: "gpu_0/res4_5_branch2c_bn_1"
    input: "gpu_0/res4_4_branch2c_bn_3"
    output: "gpu_0/res4_5_branch2c_bn_2"
    op_type: "Sum"
  }
  node {
    input: "gpu_0/res4_5_branch2c_bn_2"
    output: "gpu_0/res4_5_branch2c_bn_3"
    op_type: "Relu"
  }
  node {
    input: "gpu_0/res4_5_branch2c_bn_3"
    input: "gpu_0/res5_0_branch2a_w_0"
    output: "gpu_0/res5_0_branch2a_1"
    op_type: "Conv"
    attribute {
      name: "pads"
      ints: 0
      ints: 0
      ints: 0
      ints: 0
      type: INTS
    }
    attribute {
      name: "kernel_shape"
      ints: 1
      ints: 1
      type: INTS
    }
    attribute {
      name: "strides"
      ints: 1
      ints: 1
      type: INTS
    }
  }
  node {
    input: "gpu_0/res5_0_branch2a_1"
    input: "gpu_0/res5_0_branch2a_bn_s_0"
    input: "gpu_0/res5_0_branch2a_bn_b_0"
    input: "gpu_0/res5_0_branch2a_bn_rm_0"
    input: "gpu_0/res5_0_branch2a_bn_riv_0"
    output: "gpu_0/res5_0_branch2a_bn_1"
    op_type: "BatchNormalization"
    attribute {
      name: "epsilon"
      f: 1.0000001e-05
      type: FLOAT
    }
  }
  node {
    input: "gpu_0/res5_0_branch2a_bn_1"
    output: "gpu_0/res5_0_branch2a_bn_2"
    op_type: "Relu"
  }
  node {
    input: "gpu_0/res5_0_branch2a_bn_2"
    input: "gpu_0/res5_0_branch2b_w_0"
    output: "gpu_0/res5_0_branch2b_1"
    op_type: "Conv"
    attribute {
      name: "pads"
      ints: 1
      ints: 1
      ints: 1
      ints: 1
      type: INTS
    }
    attribute {
      name: "kernel_shape"
      ints: 3
      ints: 3
      type: INTS
    }
    attribute {
      name: "strides"
      ints: 2
      ints: 2
      type: INTS
    }
  }
  node {
    input: "gpu_0/res5_0_branch2b_1"
    input: "gpu_0/res5_0_branch2b_bn_s_0"
    input: "gpu_0/res5_0_branch2b_bn_b_0"
    input: "gpu_0/res5_0_branch2b_bn_rm_0"
    input: "gpu_0/res5_0_branch2b_bn_riv_0"
    output: "gpu_0/res5_0_branch2b_bn_1"
    op_type: "BatchNormalization"
    attribute {
      name: "epsilon"
      f: 1.0000001e-05
      type: FLOAT
    }
  }
  node {
    input: "gpu_0/res5_0_branch2b_bn_1"
    output: "gpu_0/res5_0_branch2b_bn_2"
    op_type: "Relu"
  }
  node {
    input: "gpu_0/res5_0_branch2b_bn_2"
    input: "gpu_0/res5_0_branch2c_w_0"
    output: "gpu_0/res5_0_branch2c_1"
    op_type: "Conv"
    attribute {
      name: "pads"
      ints: 0
      ints: 0
      ints: 0
      ints: 0
      type: INTS
    }
    attribute {
      name: "kernel_shape"
      ints: 1
      ints: 1
      type: INTS
    }
    attribute {
      name: "strides"
      ints: 1
      ints: 1
      type: INTS
    }
  }
  node {
    input: "gpu_0/res5_0_branch2c_1"
    input: "gpu_0/res5_0_branch2c_bn_s_0"
    input: "gpu_0/res5_0_branch2c_bn_b_0"
    input: "gpu_0/res5_0_branch2c_bn_rm_0"
    input: "gpu_0/res5_0_branch2c_bn_riv_0"
    output: "gpu_0/res5_0_branch2c_bn_1"
    op_type: "BatchNormalization"
    attribute {
      name: "epsilon"
      f: 1.0000001e-05
      type: FLOAT
    }
  }
  node {
    input: "gpu_0/res4_5_branch2c_bn_3"
    input: "gpu_0/res5_0_branch1_w_0"
    output: "gpu_0/res5_0_branch1_1"
    op_type: "Conv"
    attribute {
      name: "strides"
      ints: 2
      ints: 2
      type: INTS
    }
    attribute {
      name: "kernel_shape"
      ints: 1
      ints: 1
      type: INTS
    }
  }
  node {
    input: "gpu_0/res5_0_branch1_1"
    input: "gpu_0/res5_0_branch1_bn_s_0"
    input: "gpu_0/res5_0_branch1_bn_b_0"
    input: "gpu_0/res5_0_branch1_bn_rm_0"
    input: "gpu_0/res5_0_branch1_bn_riv_0"
    output: "gpu_0/res5_0_branch1_bn_1"
    op_type: "BatchNormalization"
    attribute {
      name: "epsilon"
      f: 1.0000001e-05
      type: FLOAT
    }
  }
  node {
    input: "gpu_0/res5_0_branch2c_bn_1"
    input: "gpu_0/res5_0_branch1_bn_1"
    output: "gpu_0/res5_0_branch2c_bn_2"
    op_type: "Sum"
  }
  node {
    input: "gpu_0/res5_0_branch2c_bn_2"
    output: "gpu_0/res5_0_branch2c_bn_3"
    op_type: "Relu"
  }
  node {
    input: "gpu_0/res5_0_branch2c_bn_3"
    input: "gpu_0/res5_1_branch2a_w_0"
    output: "gpu_0/res5_1_branch2a_1"
    op_type: "Conv"
    attribute {
      name: "pads"
      ints: 0
      ints: 0
      ints: 0
      ints: 0
      type: INTS
    }
    attribute {
      name: "kernel_shape"
      ints: 1
      ints: 1
      type: INTS
    }
    attribute {
      name: "strides"
      ints: 1
      ints: 1
      type: INTS
    }
  }
  node {
    input: "gpu_0/res5_1_branch2a_1"
    input: "gpu_0/res5_1_branch2a_bn_s_0"
    input: "gpu_0/res5_1_branch2a_bn_b_0"
    input: "gpu_0/res5_1_branch2a_bn_rm_0"
    input: "gpu_0/res5_1_branch2a_bn_riv_0"
    output: "gpu_0/res5_1_branch2a_bn_1"
    op_type: "BatchNormalization"
    attribute {
      name: "epsilon"
      f: 1.0000001e-05
      type: FLOAT
    }
  }
  node {
    input: "gpu_0/res5_1_branch2a_bn_1"
    output: "gpu_0/res5_1_branch2a_bn_2"
    op_type: "Relu"
  }
  node {
    input: "gpu_0/res5_1_branch2a_bn_2"
    input: "gpu_0/res5_1_branch2b_w_0"
    output: "gpu_0/res5_1_branch2b_1"
    op_type: "Conv"
    attribute {
      name: "pads"
      ints: 1
      ints: 1
      ints: 1
      ints: 1
      type: INTS
    }
    attribute {
      name: "kernel_shape"
      ints: 3
      ints: 3
      type: INTS
    }
    attribute {
      name: "strides"
      ints: 1
      ints: 1
      type: INTS
    }
  }
  node {
    input: "gpu_0/res5_1_branch2b_1"
    input: "gpu_0/res5_1_branch2b_bn_s_0"
    input: "gpu_0/res5_1_branch2b_bn_b_0"
    input: "gpu_0/res5_1_branch2b_bn_rm_0"
    input: "gpu_0/res5_1_branch2b_bn_riv_0"
    output: "gpu_0/res5_1_branch2b_bn_1"
    op_type: "BatchNormalization"
    attribute {
      name: "epsilon"
      f: 1.0000001e-05
      type: FLOAT
    }
  }
  node {
    input: "gpu_0/res5_1_branch2b_bn_1"
    output: "gpu_0/res5_1_branch2b_bn_2"
    op_type: "Relu"
  }
  node {
    input: "gpu_0/res5_1_branch2b_bn_2"
    input: "gpu_0/res5_1_branch2c_w_0"
    output: "gpu_0/res5_1_branch2c_1"
    op_type: "Conv"
    attribute {
      name: "pads"
      ints: 0
      ints: 0
      ints: 0
      ints: 0
      type: INTS
    }
    attribute {
      name: "kernel_shape"
      ints: 1
      ints: 1
      type: INTS
    }
    attribute {
      name: "strides"
      ints: 1
      ints: 1
      type: INTS
    }
  }
  node {
    input: "gpu_0/res5_1_branch2c_1"
    input: "gpu_0/res5_1_branch2c_bn_s_0"
    input: "gpu_0/res5_1_branch2c_bn_b_0"
    input: "gpu_0/res5_1_branch2c_bn_rm_0"
    input: "gpu_0/res5_1_branch2c_bn_riv_0"
    output: "gpu_0/res5_1_branch2c_bn_1"
    op_type: "BatchNormalization"
    attribute {
      name: "epsilon"
      f: 1.0000001e-05
      type: FLOAT
    }
  }
  node {
    input: "gpu_0/res5_1_branch2c_bn_1"
    input: "gpu_0/res5_0_branch2c_bn_3"
    output: "gpu_0/res5_1_branch2c_bn_2"
    op_type: "Sum"
  }
  node {
    input: "gpu_0/res5_1_branch2c_bn_2"
    output: "gpu_0/res5_1_branch2c_bn_3"
    op_type: "Relu"
  }
  node {
    input: "gpu_0/res5_1_branch2c_bn_3"
    input: "gpu_0/res5_2_branch2a_w_0"
    output: "gpu_0/res5_2_branch2a_1"
    op_type: "Conv"
    attribute {
      name: "pads"
      ints: 0
      ints: 0
      ints: 0
      ints: 0
      type: INTS
    }
    attribute {
      name: "kernel_shape"
      ints: 1
      ints: 1
      type: INTS
    }
    attribute {
      name: "strides"
      ints: 1
      ints: 1
      type: INTS
    }
  }
  node {
    input: "gpu_0/res5_2_branch2a_1"
    input: "gpu_0/res5_2_branch2a_bn_s_0"
    input: "gpu_0/res5_2_branch2a_bn_b_0"
    input: "gpu_0/res5_2_branch2a_bn_rm_0"
    input: "gpu_0/res5_2_branch2a_bn_riv_0"
    output: "gpu_0/res5_2_branch2a_bn_1"
    op_type: "BatchNormalization"
    attribute {
      name: "epsilon"
      f: 1.0000001e-05
      type: FLOAT
    }
  }
  node {
    input: "gpu_0/res5_2_branch2a_bn_1"
    output: "gpu_0/res5_2_branch2a_bn_2"
    op_type: "Relu"
  }
  node {
    input: "gpu_0/res5_2_branch2a_bn_2"
    input: "gpu_0/res5_2_branch2b_w_0"
    output: "gpu_0/res5_2_branch2b_1"
    op_type: "Conv"
    attribute {
      name: "pads"
      ints: 1
      ints: 1
      ints: 1
      ints: 1
      type: INTS
    }
    attribute {
      name: "kernel_shape"
      ints: 3
      ints: 3
      type: INTS
    }
    attribute {
      name: "strides"
      ints: 1
      ints: 1
      type: INTS
    }
  }
  node {
    input: "gpu_0/res5_2_branch2b_1"
    input: "gpu_0/res5_2_branch2b_bn_s_0"
    input: "gpu_0/res5_2_branch2b_bn_b_0"
    input: "gpu_0/res5_2_branch2b_bn_rm_0"
    input: "gpu_0/res5_2_branch2b_bn_riv_0"
    output: "gpu_0/res5_2_branch2b_bn_1"
    op_type: "BatchNormalization"
    attribute {
      name: "epsilon"
      f: 1.0000001e-05
      type: FLOAT
    }
  }
  node {
    input: "gpu_0/res5_2_branch2b_bn_1"
    output: "gpu_0/res5_2_branch2b_bn_2"
    op_type: "Relu"
  }
  node {
    input: "gpu_0/res5_2_branch2b_bn_2"
    input: "gpu_0/res5_2_branch2c_w_0"
    output: "gpu_0/res5_2_branch2c_1"
    op_type: "Conv"
    attribute {
      name: "pads"
      ints: 0
      ints: 0
      ints: 0
      ints: 0
      type: INTS
    }
    attribute {
      name: "kernel_shape"
      ints: 1
      ints: 1
      type: INTS
    }
    attribute {
      name: "strides"
      ints: 1
      ints: 1
      type: INTS
    }
  }
  node {
    input: "gpu_0/res5_2_branch2c_1"
    input: "gpu_0/res5_2_branch2c_bn_s_0"
    input: "gpu_0/res5_2_branch2c_bn_b_0"
    input: "gpu_0/res5_2_branch2c_bn_rm_0"
    input: "gpu_0/res5_2_branch2c_bn_riv_0"
    output: "gpu_0/res5_2_branch2c_bn_1"
    op_type: "BatchNormalization"
    attribute {
      name: "epsilon"
      f: 1.0000001e-05
      type: FLOAT
    }
  }
  node {
    input: "gpu_0/res5_2_branch2c_bn_1"
    input: "gpu_0/res5_1_branch2c_bn_3"
    output: "gpu_0/res5_2_branch2c_bn_2"
    op_type: "Sum"
  }
  node {
    input: "gpu_0/res5_2_branch2c_bn_2"
    output: "gpu_0/res5_2_branch2c_bn_3"
    op_type: "Relu"
  }
  node {
    input: "gpu_0/res5_2_branch2c_bn_3"
    output: "gpu_0/pool5_1"
    op_type: "AveragePool"
    attribute {
      name: "strides"
      ints: 1
      ints: 1
      type: INTS
    }
    attribute {
      name: "kernel_shape"
      ints: 7
      ints: 7
      type: INTS
    }
  }
  node {
    input: "gpu_0/pool5_1"
    input: "OC2_DUMMY_1"
    output: "OC2_DUMMY_0"
    op_type: "Reshape"
  }
  node {
    input: "OC2_DUMMY_0"
    input: "gpu_0/pred_w_0"
    input: "gpu_0/pred_b_0"
    output: "gpu_0/pred_1"
    op_type: "Gemm"
    attribute {
      name: "transB"
      i: 1
      type: INT
    }
  }
  node {
    input: "gpu_0/pred_1"
    output: "gpu_0/softmax_1"
    op_type: "Softmax"
  }
  name: "resnet50"
  initializer {
    dims: 1
    dims: 1
    data_type: 1
    name: "gpu_0/imagenet1k_blobs_queue_f22e83c9-22cd-4a8b-a66d-113af6b832b4_0"
    raw_data: "\000\000\000\000"
  }
  initializer {
    dims: 64
    data_type: 1
    name: "gpu_0/res2_0_branch2a_bn_b_0"
    raw_data: "…"
  }
  initializer {
    dims: 64
    data_type: 1
    name: "gpu_0/res2_0_branch2a_bn_riv_0"
    raw_data: "…"
  }
  initializer {
    dims: 64
    data_type: 1
    name: "gpu_0/res2_0_branch2a_bn_rm_0"
    raw_data: "…"
  }
  initializer {
    dims: 64
    data_type: 1
    name: "gpu_0/res2_0_branch2a_bn_s_0"
    raw_data: "…"
  }
  initializer {
    dims: 64
    data_type: 1
    name: "gpu_0/res2_0_branch2b_bn_b_0"
    raw_data: "…"
  }
  initializer {
    dims: 64
    data_type: 1
    name: "gpu_0/res2_0_branch2b_bn_riv_0"
    raw_data: "…"
  }
  initializer {
    dims: 64
    data_type: 1
    name: "gpu_0/res2_0_branch2b_bn_rm_0"
    raw_data: "…"
  }
  initializer {
    dims: 64
    data_type: 1
    name: "gpu_0/res2_0_branch2b_bn_s_0"
    raw_data: "…"
  }
  initializer {
    dims: 64
    data_type: 1
    name: "gpu_0/res2_1_branch2a_bn_b_0"
    raw_data: "…"
  }
  initializer {
    dims: 64
    data_type: 1
    name: "gpu_0/res2_1_branch2a_bn_riv_0"
    raw_data: "…"
  }
  initializer {
    dims: 64
    data_type: 1
    name: "gpu_0/res2_1_branch2a_bn_rm_0"
    raw_data: "…"
  }
  initializer {
    dims: 64
    data_type: 1
    name: "gpu_0/res2_1_branch2a_bn_s_0"
    raw_data: "…"
  }
  initializer {
    dims: 64
    data_type: 1
    name: "gpu_0/res2_1_branch2b_bn_b_0"
    raw_data: "…"
  }
  initializer {
    dims: 64
    data_type: 1
    name: "gpu_0/res2_1_branch2b_bn_riv_0"
    raw_data: "…"
  }
  initializer {
    dims: 64
    data_type: 1
    name: "gpu_0/res2_1_branch2b_bn_rm_0"
    raw_data: "…"
  }
  initializer {
    dims: 64
    data_type: 1
    name: "gpu_0/res2_1_branch2b_bn_s_0"
    raw_data: "…"
  }
  initializer {
    dims: 64
    data_type: 1
    name: "gpu_0/res2_2_branch2a_bn_b_0"
    raw_data: "…"
  }
  initializer {
    dims: 64
    data_type: 1
    name: "gpu_0/res2_2_branch2a_bn_riv_0"
    raw_data: "…"
  }
  initializer {
    dims: 64
    data_type: 1
    name: "gpu_0/res2_2_branch2a_bn_rm_0"
    raw_data: "…"
  }
  initializer {
    dims: 64
    data_type: 1
    name: "gpu_0/res2_2_branch2a_bn_s_0"
    raw_data: "…"
  }
  initializer {
    dims: 64
    data_type: 1
    name: "gpu_0/res2_2_branch2b_bn_b_0"
    raw_data: "…"
  }
  initializer {
    dims: 64
    data_type: 1
    name: "gpu_0/res2_2_branch2b_bn_riv_0"
    raw_data: "…"
  }
  initializer {
    dims: 64
    data_type: 1
    name: "gpu_0/res2_2_branch2b_bn_rm_0"
    raw_data: "…"
  }
  initializer {
    dims: 64
    data_type: 1
    name: "gpu_0/res2_2_branch2b_bn_s_0"
    raw_data: "…"
  }
  initializer {
    dims: 64
    data_type: 1
    name: "gpu_0/res_conv1_bn_b_0"
    raw_data: "…"
  }
  initializer {
    dims: 64
    data_type: 1
    name: "gpu_0/res_conv1_bn_riv_0"
    raw_data: "…"
  }
  initializer {
    dims: 64
    data_type: 1
    name: "gpu_0/res_conv1_bn_rm_0"
    raw_data: "…"
  }
  initializer {
    dims: 64
    data_type: 1
    name: "gpu_0/res_conv1_bn_s_0"
    raw_data: "…"
  }
  initializer {
    dims: 2
    data_type: 7
    name: "OC2_DUMMY_1"
    raw_data: "\001\000\000\000\000\000\000\000\000\010\000\000\000\000\000\000"
  }
  input {
    name: "gpu_0/data_0"
    type {
      tensor_type {
        elem_type: 1
        shape {
          dim {
            dim_param: "N"
          }
          dim {
            dim_value: 3
          }
          dim {
            dim_value: 224
          }
          dim {
            dim_value: 224
          }
        }
      }
    }
  }
  input {
    name: "gpu_0/conv1_w_0"
    type {
      tensor_type {
        elem_type: 1
        shape {
          dim {
            dim_value: 64
          }
          dim {
            dim_value: 3
          }
          dim {
            dim_value: 7
          }
          dim {
            dim_value: 7
          }
        }
      }
    }
  }
  input {
    name: "gpu_0/res_conv1_bn_s_0"
    type {
      tensor_type {
        elem_type: 1
        shape {
          dim {
            dim_value: 64
          }
        }
      }
    }
  }
  input {
    name: "gpu_0/res_conv1_bn_b_0"
    type {
      tensor_type {
        elem_type: 1
        shape {
          dim {
            dim_value: 64
          }
        }
      }
    }
  }
  input {
    name: "gpu_0/res2_0_branch2a_w_0"
    type {
      tensor_type {
        elem_type: 1
        shape {
          dim {
            dim_value: 64
          }
          dim {
            dim_value: 64
          }
          dim {
            dim_value: 1
          }
          dim {
            dim_value: 1
          }
        }
      }
    }
  }
  input {
    name: "gpu_0/res2_0_branch2a_bn_s_0"
    type {
      tensor_type {
        elem_type: 1
        shape {
          dim {
            dim_value: 64
          }
        }
      }
    }
  }
  input {
    name: "gpu_0/res2_0_branch2a_bn_b_0"
    type {
      tensor_type {
        elem_type: 1
        shape {
          dim {
            dim_value: 64
          }
        }
      }
    }
  }
  input {
    name: "gpu_0/res2_0_branch2b_w_0"
    type {
      tensor_type {
        elem_type: 1
        shape {
          dim {
            dim_value: 64
          }
          dim {
            dim_value: 64
          }
          dim {
            dim_value: 3
          }
          dim {
            dim_value: 3
          }
        }
      }
    }
  }
  input {
    name: "gpu_0/res2_0_branch2b_bn_s_0"
    type {
      tensor_type {
        elem_type: 1
        shape {
          dim {
            dim_value: 64
          }
        }
      }
    }
  }
  input {
    name: "gpu_0/res2_0_branch2b_bn_b_0"
    type {
      tensor_type {
        elem_type: 1
        shape {
          dim {
            dim_value: 64
          }
        }
      }
    }
  }
  input {
    name: "gpu_0/res2_0_branch2c_w_0"
    type {
      tensor_type {
        elem_type: 1
        shape {
          dim {
            dim_value: 256
          }
          dim {
            dim_value: 64
          }
          dim {
            dim_value: 1
          }
          dim {
            dim_value: 1
          }
        }
      }
    }
  }
  input {
    name: "gpu_0/res2_0_branch2c_bn_s_0"
    type {
      tensor_type {
        elem_type: 1
        shape {
          dim {
            dim_value: 256
          }
        }
      }
    }
  }
  input {
    name: "gpu_0/res2_0_branch2c_bn_b_0"
    type {
      tensor_type {
        elem_type: 1
        shape {
          dim {
            dim_value: 256
          }
        }
      }
    }
  }
  input {
    name: "gpu_0/res2_0_branch1_w_0"
    type {
      tensor_type {
        elem_type: 1
        shape {
          dim {
            dim_value: 256
          }
          dim {
            dim_value: 64
          }
          dim {
            dim_value: 1
          }
          dim {
            dim_value: 1
          }
        }
      }
    }
  }
  input {
    name: "gpu_0/res2_0_branch1_bn_s_0"
    type {
      tensor_type {
        elem_type: 1
        shape {
          dim {
            dim_value: 256
          }
        }
      }
    }
  }
  input {
    name: "gpu_0/res2_0_branch1_bn_b_0"
    type {
      tensor_type {
        elem_type: 1
        shape {
          dim {
            dim_value: 256
          }
        }
      }
    }
  }
  input {
    name: "gpu_0/res2_1_branch2a_w_0"
    type {
      tensor_type {
        elem_type: 1
        shape {
          dim {
            dim_value: 64
          }
          dim {
            dim_value: 256
          }
          dim {
            dim_value: 1
          }
          dim {
            dim_value: 1
          }
        }
      }
    }
  }
  input {
    name: "gpu_0/res2_1_branch2a_bn_s_0"
    type {
      tensor_type {
        elem_type: 1
        shape {
          dim {
            dim_value: 64
          }
        }
      }
    }
  }
  input {
    name: "gpu_0/res2_1_branch2a_bn_b_0"
    type {
      tensor_type {
        elem_type: 1
        shape {
          dim {
            dim_value: 64
          }
        }
      }
    }
  }
  input {
    name: "gpu_0/res2_1_branch2b_w_0"
    type {
      tensor_type {
        elem_type: 1
        shape {
          dim {
            dim_value: 64
          }
          dim {
            dim_value: 64
          }
          dim {
            dim_value: 3
          }
          dim {
            dim_value: 3
          }
        }
      }
    }
  }
  input {
    name: "gpu_0/res2_1_branch2b_bn_s_0"
    type {
      tensor_type {
        elem_type: 1
        shape {
          dim {
            dim_value: 64
          }
        }
      }
    }
  }
  input {
    name: "gpu_0/res2_1_branch2b_bn_b_0"
    type {
      tensor_type {
        elem_type: 1
        shape {
          dim {
            dim_value: 64
          }
        }
      }
    }
  }
  input {
    name: "gpu_0/res2_1_branch2c_w_0"
    type {
      tensor_type {
        elem_type: 1
        shape {
          dim {
            dim_value: 256
          }
          dim {
            dim_value: 64
          }
          dim {
            dim_value: 1
          }
          dim {
            dim_value: 1
          }
        }
      }
    }
  }
  input {
    name: "gpu_0/res2_1_branch2c_bn_s_0"
    type {
      tensor_type {
        elem_type: 1
        shape {
          dim {
            dim_value: 256
          }
        }
      }
    }
  }
  input {
    name: "gpu_0/res2_1_branch2c_bn_b_0"
    type {
      tensor_type {
        elem_type: 1
        shape {
          dim {
            dim_value: 256
          }
        }
      }
    }
  }
  input {
    name: "gpu_0/res2_2_branch2a_w_0"
    type {
      tensor_type {
        elem_type: 1
        shape {
          dim {
            dim_value: 64
          }
          dim {
            dim_value: 256
          }
          dim {
            dim_value: 1
          }
          dim {
            dim_value: 1
          }
        }
      }
    }
  }
  input {
    name: "gpu_0/res2_2_branch2a_bn_s_0"
    type {
      tensor_type {
        elem_type: 1
        shape {
          dim {
            dim_value: 64
          }
        }
      }
    }
  }
  input {
    name: "gpu_0/res2_2_branch2a_bn_b_0"
    type {
      tensor_type {
        elem_type: 1
        shape {
          dim {
            dim_value: 64
          }
        }
      }
    }
  }
  input {
    name: "gpu_0/res2_2_branch2b_w_0"
    type {
      tensor_type {
        elem_type: 1
        shape {
          dim {
            dim_value: 64
          }
          dim {
            dim_value: 64
          }
          dim {
            dim_value: 3
          }
          dim {
            dim_value: 3
          }
        }
      }
    }
  }
  input {
    name: "gpu_0/res2_2_branch2b_bn_s_0"
    type {
      tensor_type {
        elem_type: 1
        shape {
          dim {
            dim_value: 64
          }
        }
      }
    }
  }
  input {
    name: "gpu_0/res2_2_branch2b_bn_b_0"
    type {
      tensor_type {
        elem_type: 1
        shape {
          dim {
            dim_value: 64
          }
        }
      }
    }
  }
  input {
    name: "gpu_0/res2_2_branch2c_w_0"
    type {
      tensor_type {
        elem_type: 1
        shape {
          dim {
            dim_value: 256
          }
          dim {
            dim_value: 64
          }
          dim {
            dim_value: 1
          }
          dim {
            dim_value: 1
          }
        }
      }
    }
  }
  input {
    name: "gpu_0/res2_2_branch2c_bn_s_0"
    type {
      tensor_type {
        elem_type: 1
        shape {
          dim {
            dim_value: 256
          }
        }
      }
    }
  }
  input {
    name: "gpu_0/res2_2_branch2c_bn_b_0"
    type {
      tensor_type {
        elem_type: 1
        shape {
          dim {
            dim_value: 256
          }
        }
      }
    }
  }
  input {
    name: "gpu_0/res3_0_branch2a_w_0"
    type {
      tensor_type {
        elem_type: 1
        shape {
          dim {
            dim_value: 128
          }
          dim {
            dim_value: 256
          }
          dim {
            dim_value: 1
          }
          dim {
            dim_value: 1
          }
        }
      }
    }
  }
  input {
    name: "gpu_0/res3_0_branch2a_bn_s_0"
    type {
      tensor_type {
        elem_type: 1
        shape {
          dim {
            dim_value: 128
          }
        }
      }
    }
  }
  input {
    name: "gpu_0/res3_0_branch2a_bn_b_0"
    type {
      tensor_type {
        elem_type: 1
        shape {
          dim {
            dim_value: 128
          }
        }
      }
    }
  }
  input {
    name: "gpu_0/res3_0_branch2b_w_0"
    type {
      tensor_type {
        elem_type: 1
        shape {
          dim {
            dim_value: 128
          }
          dim {
            dim_value: 128
          }
          dim {
            dim_value: 3
          }
          dim {
            dim_value: 3
          }
        }
      }
    }
  }
  input {
    name: "gpu_0/res3_0_branch2b_bn_s_0"
    type {
      tensor_type {
        elem_type: 1
        shape {
          dim {
            dim_value: 128
          }
        }
      }
    }
  }
  input {
    name: "gpu_0/res3_0_branch2b_bn_b_0"
    type {
      tensor_type {
        elem_type: 1
        shape {
          dim {
            dim_value: 128
          }
        }
      }
    }
  }
  input {
    name: "gpu_0/res3_0_branch2c_w_0"
    type {
      tensor_type {
        elem_type: 1
        shape {
          dim {
            dim_value: 512
          }
          dim {
            dim_value: 128
          }
          dim {
            dim_value: 1
          }
          dim {
            dim_value: 1
          }
        }
      }
    }
  }
  input {
    name: "gpu_0/res3_0_branch2c_bn_s_0"
    type {
      tensor_type {
        elem_type: 1
        shape {
          dim {
            dim_value: 512
          }
        }
      }
    }
  }
  input {
    name: "gpu_0/res3_0_branch2c_bn_b_0"
    type {
      tensor_type {
        elem_type: 1
        shape {
          dim {
            dim_value: 512
          }
        }
      }
    }
  }
  input {
    name: "gpu_0/res3_0_branch1_w_0"
    type {
      tensor_type {
        elem_type: 1
        shape {
          dim {
            dim_value: 512
          }
          dim {
            dim_value: 256
          }
          dim {
            dim_value: 1
          }
          dim {
            dim_value: 1
          }
        }
      }
    }
  }
  input {
    name: "gpu_0/res3_0_branch1_bn_s_0"
    type {
      tensor_type {
        elem_type: 1
        shape {
          dim {
            dim_value: 512
          }
        }
      }
    }
  }
  input {
    name: "gpu_0/res3_0_branch1_bn_b_0"
    type {
      tensor_type {
        elem_type: 1
        shape {
          dim {
            dim_value: 512
          }
        }
      }
    }
  }
  input {
    name: "gpu_0/res3_1_branch2a_w_0"
    type {
      tensor_type {
        elem_type: 1
        shape {
          dim {
            dim_value: 128
          }
          dim {
            dim_value: 512
          }
          dim {
            dim_value: 1
          }
          dim {
            dim_value: 1
          }
        }
      }
    }
  }
  input {
    name: "gpu_0/res3_1_branch2a_bn_s_0"
    type {
      tensor_type {
        elem_type: 1
        shape {
          dim {
            dim_value: 128
          }
        }
      }
    }
  }
  input {
    name: "gpu_0/res3_1_branch2a_bn_b_0"
    type {
      tensor_type {
        elem_type: 1
        shape {
          dim {
            dim_value: 128
          }
        }
      }
    }
  }
  input {
    name: "gpu_0/res3_1_branch2b_w_0"
    type {
      tensor_type {
        elem_type: 1
        shape {
          dim {
            dim_value: 128
          }
          dim {
            dim_value: 128
          }
          dim {
            dim_value: 3
          }
          dim {
            dim_value: 3
          }
        }
      }
    }
  }
  input {
    name: "gpu_0/res3_1_branch2b_bn_s_0"
    type {
      tensor_type {
        elem_type: 1
        shape {
          dim {
            dim_value: 128
          }
        }
      }
    }
  }
  input {
    name: "gpu_0/res3_1_branch2b_bn_b_0"
    type {
      tensor_type {
        elem_type: 1
        shape {
          dim {
            dim_value: 128
          }
        }
      }
    }
  }
  input {
    name: "gpu_0/res3_1_branch2c_w_0"
    type {
      tensor_type {
        elem_type: 1
        shape {
          dim {
            dim_value: 512
          }
          dim {
            dim_value: 128
          }
          dim {
            dim_value: 1
          }
          dim {
            dim_value: 1
          }
        }
      }
    }
  }
  input {
    name: "gpu_0/res3_1_branch2c_bn_s_0"
    type {
      tensor_type {
        elem_type: 1
        shape {
          dim {
            dim_value: 512
          }
        }
      }
    }
  }
  input {
    name: "gpu_0/res3_1_branch2c_bn_b_0"
    type {
      tensor_type {
        elem_type: 1
        shape {
          dim {
            dim_value: 512
          }
        }
      }
    }
  }
  input {
    name: "gpu_0/res3_2_branch2a_w_0"
    type {
      tensor_type {
        elem_type: 1
        shape {
          dim {
            dim_value: 128
          }
          dim {
            dim_value: 512
          }
          dim {
            dim_value: 1
          }
          dim {
            dim_value: 1
          }
        }
      }
    }
  }
  input {
    name: "gpu_0/res3_2_branch2a_bn_s_0"
    type {
      tensor_type {
        elem_type: 1
        shape {
          dim {
            dim_value: 128
          }
        }
      }
    }
  }
  input {
    name: "gpu_0/res3_2_branch2a_bn_b_0"
    type {
      tensor_type {
        elem_type: 1
        shape {
          dim {
            dim_value: 128
          }
        }
      }
    }
  }
  input {
    name: "gpu_0/res3_2_branch2b_w_0"
    type {
      tensor_type {
        elem_type: 1
        shape {
          dim {
            dim_value: 128
          }
          dim {
            dim_value: 128
          }
          dim {
            dim_value: 3
          }
          dim {
            dim_value: 3
          }
        }
      }
    }
  }
  input {
    name: "gpu_0/res3_2_branch2b_bn_s_0"
    type {
      tensor_type {
        elem_type: 1
        shape {
          dim {
            dim_value: 128
          }
        }
      }
    }
  }
  input {
    name: "gpu_0/res3_2_branch2b_bn_b_0"
    type {
      tensor_type {
        elem_type: 1
        shape {
          dim {
            dim_value: 128
          }
        }
      }
    }
  }
  input {
    name: "gpu_0/res3_2_branch2c_w_0"
    type {
      tensor_type {
        elem_type: 1
        shape {
          dim {
            dim_value: 512
          }
          dim {
            dim_value: 128
          }
          dim {
            dim_value: 1
          }
          dim {
            dim_value: 1
          }
        }
      }
    }
  }
  input {
    name: "gpu_0/res3_2_branch2c_bn_s_0"
    type {
      tensor_type {
        elem_type: 1
        shape {
          dim {
            dim_value: 512
          }
        }
      }
    }
  }
  input {
    name: "gpu_0/res3_2_branch2c_bn_b_0"
    type {
      tensor_type {
        elem_type: 1
        shape {
          dim {
            dim_value: 512
          }
        }
      }
    }
  }
  input {
    name: "gpu_0/res3_3_branch2a_w_0"
    type {
      tensor_type {
        elem_type: 1
        shape {
          dim {
            dim_value: 128
          }
          dim {
            dim_value: 512
          }
          dim {
            dim_value: 1
          }
          dim {
            dim_value: 1
          }
        }
      }
    }
  }
  input {
    name: "gpu_0/res3_3_branch2a_bn_s_0"
    type {
      tensor_type {
        elem_type: 1
        shape {
          dim {
            dim_value: 128
          }
        }
      }
    }
  }
  input {
    name: "gpu_0/res3_3_branch2a_bn_b_0"
    type {
      tensor_type {
        elem_type: 1
        shape {
          dim {
            dim_value: 128
          }
        }
      }
    }
  }
  input {
    name: "gpu_0/res3_3_branch2b_w_0"
    type {
      tensor_type {
        elem_type: 1
        shape {
          dim {
            dim_value: 128
          }
          dim {
            dim_value: 128
          }
          dim {
            dim_value: 3
          }
          dim {
            dim_value: 3
          }
        }
      }
    }
  }
  input {
    name: "gpu_0/res3_3_branch2b_bn_s_0"
    type {
      tensor_type {
        elem_type: 1
        shape {
          dim {
            dim_value: 128
          }
        }
      }
    }
  }
  input {
    name: "gpu_0/res3_3_branch2b_bn_b_0"
    type {
      tensor_type {
        elem_type: 1
        shape {
          dim {
            dim_value: 128
          }
        }
      }
    }
  }
  input {
    name: "gpu_0/res3_3_branch2c_w_0"
    type {
      tensor_type {
        elem_type: 1
        shape {
          dim {
            dim_value: 512
          }
          dim {
            dim_value: 128
          }
          dim {
            dim_value: 1
          }
          dim {
            dim_value: 1
          }
        }
      }
    }
  }
  input {
    name: "gpu_0/res3_3_branch2c_bn_s_0"
    type {
      tensor_type {
        elem_type: 1
        shape {
          dim {
            dim_value: 512
          }
        }
      }
    }
  }
  input {
    name: "gpu_0/res3_3_branch2c_bn_b_0"
    type {
      tensor_type {
        elem_type: 1
        shape {
          dim {
            dim_value: 512
          }
        }
      }
    }
  }
  input {
    name: "gpu_0/res4_0_branch2a_w_0"
    type {
      tensor_type {
        elem_type: 1
        shape {
          dim {
            dim_value: 256
          }
          dim {
            dim_value: 512
          }
          dim {
            dim_value: 1
          }
          dim {
            dim_value: 1
          }
        }
      }
    }
  }
  input {
    name: "gpu_0/res4_0_branch2a_bn_s_0"
    type {
      tensor_type {
        elem_type: 1
        shape {
          dim {
            dim_value: 256
          }
        }
      }
    }
  }
  input {
    name: "gpu_0/res4_0_branch2a_bn_b_0"
    type {
      tensor_type {
        elem_type: 1
        shape {
          dim {
            dim_value: 256
          }
        }
      }
    }
  }
  input {
    name: "gpu_0/res4_0_branch2b_w_0"
    type {
      tensor_type {
        elem_type: 1
        shape {
          dim {
            dim_value: 256
          }
          dim {
            dim_value: 256
          }
          dim {
            dim_value: 3
          }
          dim {
            dim_value: 3
          }
        }
      }
    }
  }
  input {
    name: "gpu_0/res4_0_branch2b_bn_s_0"
    type {
      tensor_type {
        elem_type: 1
        shape {
          dim {
            dim_value: 256
          }
        }
      }
    }
  }
  input {
    name: "gpu_0/res4_0_branch2b_bn_b_0"
    type {
      tensor_type {
        elem_type: 1
        shape {
          dim {
            dim_value: 256
          }
        }
      }
    }
  }
  input {
    name: "gpu_0/res4_0_branch2c_w_0"
    type {
      tensor_type {
        elem_type: 1
        shape {
          dim {
            dim_value: 1024
          }
          dim {
            dim_value: 256
          }
          dim {
            dim_value: 1
          }
          dim {
            dim_value: 1
          }
        }
      }
    }
  }
  input {
    name: "gpu_0/res4_0_branch2c_bn_s_0"
    type {
      tensor_type {
        elem_type: 1
        shape {
          dim {
            dim_value: 1024
          }
        }
      }
    }
  }
  input {
    name: "gpu_0/res4_0_branch2c_bn_b_0"
    type {
      tensor_type {
        elem_type: 1
        shape {
          dim {
            dim_value: 1024
          }
        }
      }
    }
  }
  input {
    name: "gpu_0/res4_0_branch1_w_0"
    type {
      tensor_type {
        elem_type: 1
        shape {
          dim {
            dim_value: 1024
          }
          dim {
            dim_value: 512
          }
          dim {
            dim_value: 1
          }
          dim {
            dim_value: 1
          }
        }
      }
    }
  }
  input {
    name: "gpu_0/res4_0_branch1_bn_s_0"
    type {
      tensor_type {
        elem_type: 1
        shape {
          dim {
            dim_value: 1024
          }
        }
      }
    }
  }
  input {
    name: "gpu_0/res4_0_branch1_bn_b_0"
    type {
      tensor_type {
        elem_type: 1
        shape {
          dim {
            dim_value: 1024
          }
        }
      }
    }
  }
  input {
    name: "gpu_0/res4_1_branch2a_w_0"
    type {
      tensor_type {
        elem_type: 1
        shape {
          dim {
            dim_value: 256
          }
          dim {
            dim_value: 1024
          }
          dim {
            dim_value: 1
          }
          dim {
            dim_value: 1
          }
        }
      }
    }
  }
  input {
    name: "gpu_0/res4_1_branch2a_bn_s_0"
    type {
      tensor_type {
        elem_type: 1
        shape {
          dim {
            dim_value: 256
          }
        }
      }
    }
  }
  input {
    name: "gpu_0/res4_1_branch2a_bn_b_0"
    type {
      tensor_type {
        elem_type: 1
        shape {
          dim {
            dim_value: 256
          }
        }
      }
    }
  }
  input {
    name: "gpu_0/res4_1_branch2b_w_0"
    type {
      tensor_type {
        elem_type: 1
        shape {
          dim {
            dim_value: 256
          }
          dim {
            dim_value: 256
          }
          dim {
            dim_value: 3
          }
          dim {
            dim_value: 3
          }
        }
      }
    }
  }
  input {
    name: "gpu_0/res4_1_branch2b_bn_s_0"
    type {
      tensor_type {
        elem_type: 1
        shape {
          dim {
            dim_value: 256
          }
        }
      }
    }
  }
  input {
    name: "gpu_0/res4_1_branch2b_bn_b_0"
    type {
      tensor_type {
        elem_type: 1
        shape {
          dim {
            dim_value: 256
          }
        }
      }
    }
  }
  input {
    name: "gpu_0/res4_1_branch2c_w_0"
    type {
      tensor_type {
        elem_type: 1
        shape {
          dim {
            dim_value: 1024
          }
          dim {
            dim_value: 256
          }
          dim {
            dim_value: 1
          }
          dim {
            dim_value: 1
          }
        }
      }
    }
  }
  input {
    name: "gpu_0/res4_1_branch2c_bn_s_0"
    type {
      tensor_type {
        elem_type: 1
        shape {
          dim {
            dim_value: 1024
          }
        }
      }
    }
  }
  input {
    name: "gpu_0/res4_1_branch2c_bn_b_0"
    type {
      tensor_type {
        elem_type: 1
        shape {
          dim {
            dim_value: 1024
          }
        }
      }
    }
  }
  input {
    name: "gpu_0/res4_2_branch2a_w_0"
    type {
      tensor_type {
        elem_type: 1
        shape {
          dim {
            dim_value: 256
          }
          dim {
            dim_value: 1024
          }
          dim {
            dim_value: 1
          }
          dim {
            dim_value: 1
          }
        }
      }
    }
  }
  input {
    name: "gpu_0/res4_2_branch2a_bn_s_0"
    type {
      tensor_type {
        elem_type: 1
        shape {
          dim {
            dim_value: 256
          }
        }
      }
    }
  }
  input {
    name: "gpu_0/res4_2_branch2a_bn_b_0"
    type {
      tensor_type {
        elem_type: 1
        shape {
          dim {
            dim_value: 256
          }
        }
      }
    }
  }
  input {
    name: "gpu_0/res4_2_branch2b_w_0"
    type {
      tensor_type {
        elem_type: 1
        shape {
          dim {
            dim_value: 256
          }
          dim {
            dim_value: 256
          }
          dim {
            dim_value: 3
          }
          dim {
            dim_value: 3
          }
        }
      }
    }
  }
  input {
    name: "gpu_0/res4_2_branch2b_bn_s_0"
    type {
      tensor_type {
        elem_type: 1
        shape {
          dim {
            dim_value: 256
          }
        }
      }
    }
  }
  input {
    name: "gpu_0/res4_2_branch2b_bn_b_0"
    type {
      tensor_type {
        elem_type: 1
        shape {
          dim {
            dim_value: 256
          }
        }
      }
    }
  }
  input {
    name: "gpu_0/res4_2_branch2c_w_0"
    type {
      tensor_type {
        elem_type: 1
        shape {
          dim {
            dim_value: 1024
          }
          dim {
            dim_value: 256
          }
          dim {
            dim_value: 1
          }
          dim {
            dim_value: 1
          }
        }
      }
    }
  }
  input {
    name: "gpu_0/res4_2_branch2c_bn_s_0"
    type {
      tensor_type {
        elem_type: 1
        shape {
          dim {
            dim_value: 1024
          }
        }
      }
    }
  }
  input {
    name: "gpu_0/res4_2_branch2c_bn_b_0"
    type {
      tensor_type {
        elem_type: 1
        shape {
          dim {
            dim_value: 1024
          }
        }
      }
    }
  }
  input {
    name: "gpu_0/res4_3_branch2a_w_0"
    type {
      tensor_type {
        elem_type: 1
        shape {
          dim {
            dim_value: 256
          }
          dim {
            dim_value: 1024
          }
          dim {
            dim_value: 1
          }
          dim {
            dim_value: 1
          }
        }
      }
    }
  }
  input {
    name: "gpu_0/res4_3_branch2a_bn_s_0"
    type {
      tensor_type {
        elem_type: 1
        shape {
          dim {
            dim_value: 256
          }
        }
      }
    }
  }
  input {
    name: "gpu_0/res4_3_branch2a_bn_b_0"
    type {
      tensor_type {
        elem_type: 1
        shape {
          dim {
            dim_value: 256
          }
        }
      }
    }
  }
  input {
    name: "gpu_0/res4_3_branch2b_w_0"
    type {
      tensor_type {
        elem_type: 1
        shape {
          dim {
            dim_value: 256
          }
          dim {
            dim_value: 256
          }
          dim {
            dim_value: 3
          }
          dim {
            dim_value: 3
          }
        }
      }
    }
  }
  input {
    name: "gpu_0/res4_3_branch2b_bn_s_0"
    type {
      tensor_type {
        elem_type: 1
        shape {
          dim {
            dim_value: 256
          }
        }
      }
    }
  }
  input {
    name: "gpu_0/res4_3_branch2b_bn_b_0"
    type {
      tensor_type {
        elem_type: 1
        shape {
          dim {
            dim_value: 256
          }
        }
      }
    }
  }
  input {
    name: "gpu_0/res4_3_branch2c_w_0"
    type {
      tensor_type {
        elem_type: 1
        shape {
          dim {
            dim_value: 1024
          }
          dim {
            dim_value: 256
          }
          dim {
            dim_value: 1
          }
          dim {
            dim_value: 1
          }
        }
      }
    }
  }
  input {
    name: "gpu_0/res4_3_branch2c_bn_s_0"
    type {
      tensor_type {
        elem_type: 1
        shape {
          dim {
            dim_value: 1024
          }
        }
      }
    }
  }
  input {
    name: "gpu_0/res4_3_branch2c_bn_b_0"
    type {
      tensor_type {
        elem_type: 1
        shape {
          dim {
            dim_value: 1024
          }
        }
      }
    }
  }
  input {
    name: "gpu_0/res4_4_branch2a_w_0"
    type {
      tensor_type {
        elem_type: 1
        shape {
          dim {
            dim_value: 256
          }
          dim {
            dim_value: 1024
          }
          dim {
            dim_value: 1
          }
          dim {
            dim_value: 1
          }
        }
      }
    }
  }
  input {
    name: "gpu_0/res4_4_branch2a_bn_s_0"
    type {
      tensor_type {
        elem_type: 1
        shape {
          dim {
            dim_value: 256
          }
        }
      }
    }
  }
  input {
    name: "gpu_0/res4_4_branch2a_bn_b_0"
    type {
      tensor_type {
        elem_type: 1
        shape {
          dim {
            dim_value: 256
          }
        }
      }
    }
  }
  input {
    name: "gpu_0/res4_4_branch2b_w_0"
    type {
      tensor_type {
        elem_type: 1
        shape {
          dim {
            dim_value: 256
          }
          dim {
            dim_value: 256
          }
          dim {
            dim_value: 3
          }
          dim {
            dim_value: 3
          }
        }
      }
    }
  }
  input {
    name: "gpu_0/res4_4_branch2b_bn_s_0"
    type {
      tensor_type {
        elem_type: 1
        shape {
          dim {
            dim_value: 256
          }
        }
      }
    }
  }
  input {
    name: "gpu_0/res4_4_branch2b_bn_b_0"
    type {
      tensor_type {
        elem_type: 1
        shape {
          dim {
            dim_value: 256
          }
        }
      }
    }
  }
  input {
    name: "gpu_0/res4_4_branch2c_w_0"
    type {
      tensor_type {
        elem_type: 1
        shape {
          dim {
            dim_value: 1024
          }
          dim {
            dim_value: 256
          }
          dim {
            dim_value: 1
          }
          dim {
            dim_value: 1
          }
        }
      }
    }
  }
  input {
    name: "gpu_0/res4_4_branch2c_bn_s_0"
    type {
      tensor_type {
        elem_type: 1
        shape {
          dim {
            dim_value: 1024
          }
        }
      }
    }
  }
  input {
    name: "gpu_0/res4_4_branch2c_bn_b_0"
    type {
      tensor_type {
        elem_type: 1
        shape {
          dim {
            dim_value: 1024
          }
        }
      }
    }
  }
  input {
    name: "gpu_0/res4_5_branch2a_w_0"
    type {
      tensor_type {
        elem_type: 1
        shape {
          dim {
            dim_value: 256
          }
          dim {
            dim_value: 1024
          }
          dim {
            dim_value: 1
          }
          dim {
            dim_value: 1
          }
        }
      }
    }
  }
  input {
    name: "gpu_0/res4_5_branch2a_bn_s_0"
    type {
      tensor_type {
        elem_type: 1
        shape {
          dim {
            dim_value: 256
          }
        }
      }
    }
  }
  input {
    name: "gpu_0/res4_5_branch2a_bn_b_0"
    type {
      tensor_type {
        elem_type: 1
        shape {
          dim {
            dim_value: 256
          }
        }
      }
    }
  }
  input {
    name: "gpu_0/res4_5_branch2b_w_0"
    type {
      tensor_type {
        elem_type: 1
        shape {
          dim {
            dim_value: 256
          }
          dim {
            dim_value: 256
          }
          dim {
            dim_value: 3
          }
          dim {
            dim_value: 3
          }
        }
      }
    }
  }
  input {
    name: "gpu_0/res4_5_branch2b_bn_s_0"
    type {
      tensor_type {
        elem_type: 1
        shape {
          dim {
            dim_value: 256
          }
        }
      }
    }
  }
  input {
    name: "gpu_0/res4_5_branch2b_bn_b_0"
    type {
      tensor_type {
        elem_type: 1
        shape {
          dim {
            dim_value: 256
          }
        }
      }
    }
  }
  input {
    name: "gpu_0/res4_5_branch2c_w_0"
    type {
      tensor_type {
        elem_type: 1
        shape {
          dim {
            dim_value: 1024
          }
          dim {
            dim_value: 256
          }
          dim {
            dim_value: 1
          }
          dim {
            dim_value: 1
          }
        }
      }
    }
  }
  input {
    name: "gpu_0/res4_5_branch2c_bn_s_0"
    type {
      tensor_type {
        elem_type: 1
        shape {
          dim {
            dim_value: 1024
          }
        }
      }
    }
  }
  input {
    name: "gpu_0/res4_5_branch2c_bn_b_0"
    type {
      tensor_type {
        elem_type: 1
        shape {
          dim {
            dim_value: 1024
          }
        }
      }
    }
  }
  input {
    name: "gpu_0/res5_0_branch2a_w_0"
    type {
      tensor_type {
        elem_type: 1
        shape {
          dim {
            dim_value: 512
          }
          dim {
            dim_value: 1024
          }
          dim {
            dim_value: 1
          }
          dim {
            dim_value: 1
          }
        }
      }
    }
  }
  input {
    name: "gpu_0/res5_0_branch2a_bn_s_0"
    type {
      tensor_type {
        elem_type: 1
        shape {
          dim {
            dim_value: 512
          }
        }
      }
    }
  }
  input {
    name: "gpu_0/res5_0_branch2a_bn_b_0"
    type {
      tensor_type {
        elem_type: 1
        shape {
          dim {
            dim_value: 512
          }
        }
      }
    }
  }
  input {
    name: "gpu_0/res5_0_branch2b_w_0"
    type {
      tensor_type {
        elem_type: 1
        shape {
          dim {
            dim_value: 512
          }
          dim {
            dim_value: 512
          }
          dim {
            dim_value: 3
          }
          dim {
            dim_value: 3
          }
        }
      }
    }
  }
  input {
    name: "gpu_0/res5_0_branch2b_bn_s_0"
    type {
      tensor_type {
        elem_type: 1
        shape {
          dim {
            dim_value: 512
          }
        }
      }
    }
  }
  input {
    name: "gpu_0/res5_0_branch2b_bn_b_0"
    type {
      tensor_type {
        elem_type: 1
        shape {
          dim {
            dim_value: 512
          }
        }
      }
    }
  }
  input {
    name: "gpu_0/res5_0_branch2c_w_0"
    type {
      tensor_type {
        elem_type: 1
        shape {
          dim {
            dim_value: 2048
          }
          dim {
            dim_value: 512
          }
          dim {
            dim_value: 1
          }
          dim {
            dim_value: 1
          }
        }
      }
    }
  }
  input {
    name: "gpu_0/res5_0_branch2c_bn_s_0"
    type {
      tensor_type {
        elem_type: 1
        shape {
          dim {
            dim_value: 2048
          }
        }
      }
    }
  }
  input {
    name: "gpu_0/res5_0_branch2c_bn_b_0"
    type {
      tensor_type {
        elem_type: 1
        shape {
          dim {
            dim_value: 2048
          }
        }
      }
    }
  }
  input {
    name: "gpu_0/res5_0_branch1_w_0"
    type {
      tensor_type {
        elem_type: 1
        shape {
          dim {
            dim_value: 2048
          }
          dim {
            dim_value: 1024
          }
          dim {
            dim_value: 1
          }
          dim {
            dim_value: 1
          }
        }
      }
    }
  }
  input {
    name: "gpu_0/res5_0_branch1_bn_s_0"
    type {
      tensor_type {
        elem_type: 1
        shape {
          dim {
            dim_value: 2048
          }
        }
      }
    }
  }
  input {
    name: "gpu_0/res5_0_branch1_bn_b_0"
    type {
      tensor_type {
        elem_type: 1
        shape {
          dim {
            dim_value: 2048
          }
        }
      }
    }
  }
  input {
    name: "gpu_0/res5_1_branch2a_w_0"
    type {
      tensor_type {
        elem_type: 1
        shape {
          dim {
            dim_value: 512
          }
          dim {
            dim_value: 2048
          }
          dim {
            dim_value: 1
          }
          dim {
            dim_value: 1
          }
        }
      }
    }
  }
  input {
    name: "gpu_0/res5_1_branch2a_bn_s_0"
    type {
      tensor_type {
        elem_type: 1
        shape {
          dim {
            dim_value: 512
          }
        }
      }
    }
  }
  input {
    name: "gpu_0/res5_1_branch2a_bn_b_0"
    type {
      tensor_type {
        elem_type: 1
        shape {
          dim {
            dim_value: 512
          }
        }
      }
    }
  }
  input {
    name: "gpu_0/res5_1_branch2b_w_0"
    type {
      tensor_type {
        elem_type: 1
        shape {
          dim {
            dim_value: 512
          }
          dim {
            dim_value: 512
          }
          dim {
            dim_value: 3
          }
          dim {
            dim_value: 3
          }
        }
      }
    }
  }
  input {
    name: "gpu_0/res5_1_branch2b_bn_s_0"
    type {
      tensor_type {
        elem_type: 1
        shape {
          dim {
            dim_value: 512
          }
        }
      }
    }
  }
  input {
    name: "gpu_0/res5_1_branch2b_bn_b_0"
    type {
      tensor_type {
        elem_type: 1
        shape {
          dim {
            dim_value: 512
          }
        }
      }
    }
  }
  input {
    name: "gpu_0/res5_1_branch2c_w_0"
    type {
      tensor_type {
        elem_type: 1
        shape {
          dim {
            dim_value: 2048
          }
          dim {
            dim_value: 512
          }
          dim {
            dim_value: 1
          }
          dim {
            dim_value: 1
          }
        }
      }
    }
  }
  input {
    name: "gpu_0/res5_1_branch2c_bn_s_0"
    type {
      tensor_type {
        elem_type: 1
        shape {
          dim {
            dim_value: 2048
          }
        }
      }
    }
  }
  input {
    name: "gpu_0/res5_1_branch2c_bn_b_0"
    type {
      tensor_type {
        elem_type: 1
        shape {
          dim {
            dim_value: 2048
          }
        }
      }
    }
  }
  input {
    name: "gpu_0/res5_2_branch2a_w_0"
    type {
      tensor_type {
        elem_type: 1
        shape {
          dim {
            dim_value: 512
          }
          dim {
            dim_value: 2048
          }
          dim {
            dim_value: 1
          }
          dim {
            dim_value: 1
          }
        }
      }
    }
  }
  input {
    name: "gpu_0/res5_2_branch2a_bn_s_0"
    type {
      tensor_type {
        elem_type: 1
        shape {
          dim {
            dim_value: 512
          }
        }
      }
    }
  }
  input {
    name: "gpu_0/res5_2_branch2a_bn_b_0"
    type {
      tensor_type {
        elem_type: 1
        shape {
          dim {
            dim_value: 512
          }
        }
      }
    }
  }
  input {
    name: "gpu_0/res5_2_branch2b_w_0"
    type {
      tensor_type {
        elem_type: 1
        shape {
          dim {
            dim_value: 512
          }
          dim {
            dim_value: 512
          }
          dim {
            dim_value: 3
          }
          dim {
            dim_value: 3
          }
        }
      }
    }
  }
  input {
    name: "gpu_0/res5_2_branch2b_bn_s_0"
    type {
      tensor_type {
        elem_type: 1
        shape {
          dim {
            dim_value: 512
          }
        }
      }
    }
  }
  input {
    name: "gpu_0/res5_2_branch2b_bn_b_0"
    type {
      tensor_type {
        elem_type: 1
        shape {
          dim {
            dim_value: 512
          }
        }
      }
    }
  }
  input {
    name: "gpu_0/res5_2_branch2c_w_0"
    type {
      tensor_type {
        elem_type: 1
        shape {
          dim {
            dim_value: 2048
          }
          dim {
            dim_value: 512
          }
          dim {
            dim_value: 1
          }
          dim {
            dim_value: 1
          }
        }
      }
    }
  }
  input {
    name: "gpu_0/res5_2_branch2c_bn_s_0"
    type {
      tensor_type {
        elem_type: 1
        shape {
          dim {
            dim_value: 2048
          }
        }
      }
    }
  }
  input {
    name: "gpu_0/res5_2_branch2c_bn_b_0"
    type {
      tensor_type {
        elem_type: 1
        shape {
          dim {
            dim_value: 2048
          }
        }
      }
    }
  }
  input {
    name: "gpu_0/pred_w_0"
    type {
      tensor_type {
        elem_type: 1
        shape {
          dim {
            dim_value: 1000
          }
          dim {
            dim_value: 2048
          }
        }
      }
    }
  }
  input {
    name: "gpu_0/pred_b_0"
    type {
      tensor_type {
        elem_type: 1
        shape {
          dim {
            dim_value: 1000
          }
        }
      }
    }
  }
  input {
    name: "gpu_0/res_conv1_bn_rm_0"
    type {
      tensor_type {
        elem_type: 1
        shape {
          dim {
            dim_value: 64
          }
        }
      }
    }
  }
  input {
    name: "gpu_0/res_conv1_bn_riv_0"
    type {
      tensor_type {
        elem_type: 1
        shape {
          dim {
            dim_value: 64
          }
        }
      }
    }
  }
  input {
    name: "gpu_0/res2_0_branch2a_bn_rm_0"
    type {
      tensor_type {
        elem_type: 1
        shape {
          dim {
            dim_value: 64
          }
        }
      }
    }
  }
  input {
    name: "gpu_0/res2_0_branch2a_bn_riv_0"
    type {
      tensor_type {
        elem_type: 1
        shape {
          dim {
            dim_value: 64
          }
        }
      }
    }
  }
  input {
    name: "gpu_0/res2_0_branch2b_bn_rm_0"
    type {
      tensor_type {
        elem_type: 1
        shape {
          dim {
            dim_value: 64
          }
        }
      }
    }
  }
  input {
    name: "gpu_0/res2_0_branch2b_bn_riv_0"
    type {
      tensor_type {
        elem_type: 1
        shape {
          dim {
            dim_value: 64
          }
        }
      }
    }
  }
  input {
    name: "gpu_0/res2_0_branch2c_bn_rm_0"
    type {
      tensor_type {
        elem_type: 1
        shape {
          dim {
            dim_value: 256
          }
        }
      }
    }
  }
  input {
    name: "gpu_0/res2_0_branch2c_bn_riv_0"
    type {
      tensor_type {
        elem_type: 1
        shape {
          dim {
            dim_value: 256
          }
        }
      }
    }
  }
  input {
    name: "gpu_0/res2_0_branch1_bn_rm_0"
    type {
      tensor_type {
        elem_type: 1
        shape {
          dim {
            dim_value: 256
          }
        }
      }
    }
  }
  input {
    name: "gpu_0/res2_0_branch1_bn_riv_0"
    type {
      tensor_type {
        elem_type: 1
        shape {
          dim {
            dim_value: 256
          }
        }
      }
    }
  }
  input {
    name: "gpu_0/res2_1_branch2a_bn_rm_0"
    type {
      tensor_type {
        elem_type: 1
        shape {
          dim {
            dim_value: 64
          }
        }
      }
    }
  }
  input {
    name: "gpu_0/res2_1_branch2a_bn_riv_0"
    type {
      tensor_type {
        elem_type: 1
        shape {
          dim {
            dim_value: 64
          }
        }
      }
    }
  }
  input {
    name: "gpu_0/res2_1_branch2b_bn_rm_0"
    type {
      tensor_type {
        elem_type: 1
        shape {
          dim {
            dim_value: 64
          }
        }
      }
    }
  }
  input {
    name: "gpu_0/res2_1_branch2b_bn_riv_0"
    type {
      tensor_type {
        elem_type: 1
        shape {
          dim {
            dim_value: 64
          }
        }
      }
    }
  }
  input {
    name: "gpu_0/res2_1_branch2c_bn_rm_0"
    type {
      tensor_type {
        elem_type: 1
        shape {
          dim {
            dim_value: 256
          }
        }
      }
    }
  }
  input {
    name: "gpu_0/res2_1_branch2c_bn_riv_0"
    type {
      tensor_type {
        elem_type: 1
        shape {
          dim {
            dim_value: 256
          }
        }
      }
    }
  }
  input {
    name: "gpu_0/res2_2_branch2a_bn_rm_0"
    type {
      tensor_type {
        elem_type: 1
        shape {
          dim {
            dim_value: 64
          }
        }
      }
    }
  }
  input {
    name: "gpu_0/res2_2_branch2a_bn_riv_0"
    type {
      tensor_type {
        elem_type: 1
        shape {
          dim {
            dim_value: 64
          }
        }
      }
    }
  }
  input {
    name: "gpu_0/res2_2_branch2b_bn_rm_0"
    type {
      tensor_type {
        elem_type: 1
        shape {
          dim {
            dim_value: 64
          }
        }
      }
    }
  }
  input {
    name: "gpu_0/res2_2_branch2b_bn_riv_0"
    type {
      tensor_type {
        elem_type: 1
        shape {
          dim {
            dim_value: 64
          }
        }
      }
    }
  }
  input {
    name: "gpu_0/res2_2_branch2c_bn_rm_0"
    type {
      tensor_type {
        elem_type: 1
        shape {
          dim {
            dim_value: 256
          }
        }
      }
    }
  }
  input {
    name: "gpu_0/res2_2_branch2c_bn_riv_0"
    type {
      tensor_type {
        elem_type: 1
        shape {
          dim {
            dim_value: 256
          }
        }
      }
    }
  }
  input {
    name: "gpu_0/res3_0_branch2a_bn_rm_0"
    type {
      tensor_type {
        elem_type: 1
        shape {
          dim {
            dim_value: 128
          }
        }
      }
    }
  }
  input {
    name: "gpu_0/res3_0_branch2a_bn_riv_0"
    type {
      tensor_type {
        elem_type: 1
        shape {
          dim {
            dim_value: 128
          }
        }
      }
    }
  }
  input {
    name: "gpu_0/res3_0_branch2b_bn_rm_0"
    type {
      tensor_type {
        elem_type: 1
        shape {
          dim {
            dim_value: 128
          }
        }
      }
    }
  }
  input {
    name: "gpu_0/res3_0_branch2b_bn_riv_0"
    type {
      tensor_type {
        elem_type: 1
        shape {
          dim {
            dim_value: 128
          }
        }
      }
    }
  }
  input {
    name: "gpu_0/res3_0_branch2c_bn_rm_0"
    type {
      tensor_type {
        elem_type: 1
        shape {
          dim {
            dim_value: 512
          }
        }
      }
    }
  }
  input {
    name: "gpu_0/res3_0_branch2c_bn_riv_0"
    type {
      tensor_type {
        elem_type: 1
        shape {
          dim {
            dim_value: 512
          }
        }
      }
    }
  }
  input {
    name: "gpu_0/res3_0_branch1_bn_rm_0"
    type {
      tensor_type {
        elem_type: 1
        shape {
          dim {
            dim_value: 512
          }
        }
      }
    }
  }
  input {
    name: "gpu_0/res3_0_branch1_bn_riv_0"
    type {
      tensor_type {
        elem_type: 1
        shape {
          dim {
            dim_value: 512
          }
        }
      }
    }
  }
  input {
    name: "gpu_0/res3_1_branch2a_bn_rm_0"
    type {
      tensor_type {
        elem_type: 1
        shape {
          dim {
            dim_value: 128
          }
        }
      }
    }
  }
  input {
    name: "gpu_0/res3_1_branch2a_bn_riv_0"
    type {
      tensor_type {
        elem_type: 1
        shape {
          dim {
            dim_value: 128
          }
        }
      }
    }
  }
  input {
    name: "gpu_0/res3_1_branch2b_bn_rm_0"
    type {
      tensor_type {
        elem_type: 1
        shape {
          dim {
            dim_value: 128
          }
        }
      }
    }
  }
  input {
    name: "gpu_0/res3_1_branch2b_bn_riv_0"
    type {
      tensor_type {
        elem_type: 1
        shape {
          dim {
            dim_value: 128
          }
        }
      }
    }
  }
  input {
    name: "gpu_0/res3_1_branch2c_bn_rm_0"
    type {
      tensor_type {
        elem_type: 1
        shape {
          dim {
            dim_value: 512
          }
        }
      }
    }
  }
  input {
    name: "gpu_0/res3_1_branch2c_bn_riv_0"
    type {
      tensor_type {
        elem_type: 1
        shape {
          dim {
            dim_value: 512
          }
        }
      }
    }
  }
  input {
    name: "gpu_0/res3_2_branch2a_bn_rm_0"
    type {
      tensor_type {
        elem_type: 1
        shape {
          dim {
            dim_value: 128
          }
        }
      }
    }
  }
  input {
    name: "gpu_0/res3_2_branch2a_bn_riv_0"
    type {
      tensor_type {
        elem_type: 1
        shape {
          dim {
            dim_value: 128
          }
        }
      }
    }
  }
  input {
    name: "gpu_0/res3_2_branch2b_bn_rm_0"
    type {
      tensor_type {
        elem_type: 1
        shape {
          dim {
            dim_value: 128
          }
        }
      }
    }
  }
  input {
    name: "gpu_0/res3_2_branch2b_bn_riv_0"
    type {
      tensor_type {
        elem_type: 1
        shape {
          dim {
            dim_value: 128
          }
        }
      }
    }
  }
  input {
    name: "gpu_0/res3_2_branch2c_bn_rm_0"
    type {
      tensor_type {
        elem_type: 1
        shape {
          dim {
            dim_value: 512
          }
        }
      }
    }
  }
  input {
    name: "gpu_0/res3_2_branch2c_bn_riv_0"
    type {
      tensor_type {
        elem_type: 1
        shape {
          dim {
            dim_value: 512
          }
        }
      }
    }
  }
  input {
    name: "gpu_0/res3_3_branch2a_bn_rm_0"
    type {
      tensor_type {
        elem_type: 1
        shape {
          dim {
            dim_value: 128
          }
        }
      }
    }
  }
  input {
    name: "gpu_0/res3_3_branch2a_bn_riv_0"
    type {
      tensor_type {
        elem_type: 1
        shape {
          dim {
            dim_value: 128
          }
        }
      }
    }
  }
  input {
    name: "gpu_0/res3_3_branch2b_bn_rm_0"
    type {
      tensor_type {
        elem_type: 1
        shape {
          dim {
            dim_value: 128
          }
        }
      }
    }
  }
  input {
    name: "gpu_0/res3_3_branch2b_bn_riv_0"
    type {
      tensor_type {
        elem_type: 1
        shape {
          dim {
            dim_value: 128
          }
        }
      }
    }
  }
  input {
    name: "gpu_0/res3_3_branch2c_bn_rm_0"
    type {
      tensor_type {
        elem_type: 1
        shape {
          dim {
            dim_value: 512
          }
        }
      }
    }
  }
  input {
    name: "gpu_0/res3_3_branch2c_bn_riv_0"
    type {
      tensor_type {
        elem_type: 1
        shape {
          dim {
            dim_value: 512
          }
        }
      }
    }
  }
  input {
    name: "gpu_0/res4_0_branch2a_bn_rm_0"
    type {
      tensor_type {
        elem_type: 1
        shape {
          dim {
            dim_value: 256
          }
        }
      }
    }
  }
  input {
    name: "gpu_0/res4_0_branch2a_bn_riv_0"
    type {
      tensor_type {
        elem_type: 1
        shape {
          dim {
            dim_value: 256
          }
        }
      }
    }
  }
  input {
    name: "gpu_0/res4_0_branch2b_bn_rm_0"
    type {
      tensor_type {
        elem_type: 1
        shape {
          dim {
            dim_value: 256
          }
        }
      }
    }
  }
  input {
    name: "gpu_0/res4_0_branch2b_bn_riv_0"
    type {
      tensor_type {
        elem_type: 1
        shape {
          dim {
            dim_value: 256
          }
        }
      }
    }
  }
  input {
    name: "gpu_0/res4_0_branch2c_bn_rm_0"
    type {
      tensor_type {
        elem_type: 1
        shape {
          dim {
            dim_value: 1024
          }
        }
      }
    }
  }
  input {
    name: "gpu_0/res4_0_branch2c_bn_riv_0"
    type {
      tensor_type {
        elem_type: 1
        shape {
          dim {
            dim_value: 1024
          }
        }
      }
    }
  }
  input {
    name: "gpu_0/res4_0_branch1_bn_rm_0"
    type {
      tensor_type {
        elem_type: 1
        shape {
          dim {
            dim_value: 1024
          }
        }
      }
    }
  }
  input {
    name: "gpu_0/res4_0_branch1_bn_riv_0"
    type {
      tensor_type {
        elem_type: 1
        shape {
          dim {
            dim_value: 1024
          }
        }
      }
    }
  }
  input {
    name: "gpu_0/res4_1_branch2a_bn_rm_0"
    type {
      tensor_type {
        elem_type: 1
        shape {
          dim {
            dim_value: 256
          }
        }
      }
    }
  }
  input {
    name: "gpu_0/res4_1_branch2a_bn_riv_0"
    type {
      tensor_type {
        elem_type: 1
        shape {
          dim {
            dim_value: 256
          }
        }
      }
    }
  }
  input {
    name: "gpu_0/res4_1_branch2b_bn_rm_0"
    type {
      tensor_type {
        elem_type: 1
        shape {
          dim {
            dim_value: 256
          }
        }
      }
    }
  }
  input {
    name: "gpu_0/res4_1_branch2b_bn_riv_0"
    type {
      tensor_type {
        elem_type: 1
        shape {
          dim {
            dim_value: 256
          }
        }
      }
    }
  }
  input {
    name: "gpu_0/res4_1_branch2c_bn_rm_0"
    type {
      tensor_type {
        elem_type: 1
        shape {
          dim {
            dim_value: 1024
          }
        }
      }
    }
  }
  input {
    name: "gpu_0/res4_1_branch2c_bn_riv_0"
    type {
      tensor_type {
        elem_type: 1
        shape {
          dim {
            dim_value: 1024
          }
        }
      }
    }
  }
  input {
    name: "gpu_0/res4_2_branch2a_bn_rm_0"
    type {
      tensor_type {
        elem_type: 1
        shape {
          dim {
            dim_value: 256
          }
        }
      }
    }
  }
  input {
    name: "gpu_0/res4_2_branch2a_bn_riv_0"
    type {
      tensor_type {
        elem_type: 1
        shape {
          dim {
            dim_value: 256
          }
        }
      }
    }
  }
  input {
    name: "gpu_0/res4_2_branch2b_bn_rm_0"
    type {
      tensor_type {
        elem_type: 1
        shape {
          dim {
            dim_value: 256
          }
        }
      }
    }
  }
  input {
    name: "gpu_0/res4_2_branch2b_bn_riv_0"
    type {
      tensor_type {
        elem_type: 1
        shape {
          dim {
            dim_value: 256
          }
        }
      }
    }
  }
  input {
    name: "gpu_0/res4_2_branch2c_bn_rm_0"
    type {
      tensor_type {
        elem_type: 1
        shape {
          dim {
            dim_value: 1024
          }
        }
      }
    }
  }
  input {
    name: "gpu_0/res4_2_branch2c_bn_riv_0"
    type {
      tensor_type {
        elem_type: 1
        shape {
          dim {
            dim_value: 1024
          }
        }
      }
    }
  }
  input {
    name: "gpu_0/res4_3_branch2a_bn_rm_0"
    type {
      tensor_type {
        elem_type: 1
        shape {
          dim {
            dim_value: 256
          }
        }
      }
    }
  }
  input {
    name: "gpu_0/res4_3_branch2a_bn_riv_0"
    type {
      tensor_type {
        elem_type: 1
        shape {
          dim {
            dim_value: 256
          }
        }
      }
    }
  }
  input {
    name: "gpu_0/res4_3_branch2b_bn_rm_0"
    type {
      tensor_type {
        elem_type: 1
        shape {
          dim {
            dim_value: 256
          }
        }
      }
    }
  }
  input {
    name: "gpu_0/res4_3_branch2b_bn_riv_0"
    type {
      tensor_type {
        elem_type: 1
        shape {
          dim {
            dim_value: 256
          }
        }
      }
    }
  }
  input {
    name: "gpu_0/res4_3_branch2c_bn_rm_0"
    type {
      tensor_type {
        elem_type: 1
        shape {
          dim {
            dim_value: 1024
          }
        }
      }
    }
  }
  input {
    name: "gpu_0/res4_3_branch2c_bn_riv_0"
    type {
      tensor_type {
        elem_type: 1
        shape {
          dim {
            dim_value: 1024
          }
        }
      }
    }
  }
  input {
    name: "gpu_0/res4_4_branch2a_bn_rm_0"
    type {
      tensor_type {
        elem_type: 1
        shape {
          dim {
            dim_value: 256
          }
        }
      }
    }
  }
  input {
    name: "gpu_0/res4_4_branch2a_bn_riv_0"
    type {
      tensor_type {
        elem_type: 1
        shape {
          dim {
            dim_value: 256
          }
        }
      }
    }
  }
  input {
    name: "gpu_0/res4_4_branch2b_bn_rm_0"
    type {
      tensor_type {
        elem_type: 1
        shape {
          dim {
            dim_value: 256
          }
        }
      }
    }
  }
  input {
    name: "gpu_0/res4_4_branch2b_bn_riv_0"
    type {
      tensor_type {
        elem_type: 1
        shape {
          dim {
            dim_value: 256
          }
        }
      }
    }
  }
  input {
    name: "gpu_0/res4_4_branch2c_bn_rm_0"
    type {
      tensor_type {
        elem_type: 1
        shape {
          dim {
            dim_value: 1024
          }
        }
      }
    }
  }
  input {
    name: "gpu_0/res4_4_branch2c_bn_riv_0"
    type {
      tensor_type {
        elem_type: 1
        shape {
          dim {
            dim_value: 1024
          }
        }
      }
    }
  }
  input {
    name: "gpu_0/res4_5_branch2a_bn_rm_0"
    type {
      tensor_type {
        elem_type: 1
        shape {
          dim {
            dim_value: 256
          }
        }
      }
    }
  }
  input {
    name: "gpu_0/res4_5_branch2a_bn_riv_0"
    type {
      tensor_type {
        elem_type: 1
        shape {
          dim {
            dim_value: 256
          }
        }
      }
    }
  }
  input {
    name: "gpu_0/res4_5_branch2b_bn_rm_0"
    type {
      tensor_type {
        elem_type: 1
        shape {
          dim {
            dim_value: 256
          }
        }
      }
    }
  }
  input {
    name: "gpu_0/res4_5_branch2b_bn_riv_0"
    type {
      tensor_type {
        elem_type: 1
        shape {
          dim {
            dim_value: 256
          }
        }
      }
    }
  }
  input {
    name: "gpu_0/res4_5_branch2c_bn_rm_0"
    type {
      tensor_type {
        elem_type: 1
        shape {
          dim {
            dim_value: 1024
          }
        }
      }
    }
  }
  input {
    name: "gpu_0/res4_5_branch2c_bn_riv_0"
    type {
      tensor_type {
        elem_type: 1
        shape {
          dim {
            dim_value: 1024
          }
        }
      }
    }
  }
  input {
    name: "gpu_0/res5_0_branch2a_bn_rm_0"
    type {
      tensor_type {
        elem_type: 1
        shape {
          dim {
            dim_value: 512
          }
        }
      }
    }
  }
  input {
    name: "gpu_0/res5_0_branch2a_bn_riv_0"
    type {
      tensor_type {
        elem_type: 1
        shape {
          dim {
            dim_value: 512
          }
        }
      }
    }
  }
  input {
    name: "gpu_0/res5_0_branch2b_bn_rm_0"
    type {
      tensor_type {
        elem_type: 1
        shape {
          dim {
            dim_value: 512
          }
        }
      }
    }
  }
  input {
    name: "gpu_0/res5_0_branch2b_bn_riv_0"
    type {
      tensor_type {
        elem_type: 1
        shape {
          dim {
            dim_value: 512
          }
        }
      }
    }
  }
  input {
    name: "gpu_0/res5_0_branch2c_bn_rm_0"
    type {
      tensor_type {
        elem_type: 1
        shape {
          dim {
            dim_value: 2048
          }
        }
      }
    }
  }
  input {
    name: "gpu_0/res5_0_branch2c_bn_riv_0"
    type {
      tensor_type {
        elem_type: 1
        shape {
          dim {
            dim_value: 2048
          }
        }
      }
    }
  }
  input {
    name: "gpu_0/res5_0_branch1_bn_rm_0"
    type {
      tensor_type {
        elem_type: 1
        shape {
          dim {
            dim_value: 2048
          }
        }
      }
    }
  }
  input {
    name: "gpu_0/res5_0_branch1_bn_riv_0"
    type {
      tensor_type {
        elem_type: 1
        shape {
          dim {
            dim_value: 2048
          }
        }
      }
    }
  }
  input {
    name: "gpu_0/res5_1_branch2a_bn_rm_0"
    type {
      tensor_type {
        elem_type: 1
        shape {
          dim {
            dim_value: 512
          }
        }
      }
    }
  }
  input {
    name: "gpu_0/res5_1_branch2a_bn_riv_0"
    type {
      tensor_type {
        elem_type: 1
        shape {
          dim {
            dim_value: 512
          }
        }
      }
    }
  }
  input {
    name: "gpu_0/res5_1_branch2b_bn_rm_0"
    type {
      tensor_type {
        elem_type: 1
        shape {
          dim {
            dim_value: 512
          }
        }
      }
    }
  }
  input {
    name: "gpu_0/res5_1_branch2b_bn_riv_0"
    type {
      tensor_type {
        elem_type: 1
        shape {
          dim {
            dim_value: 512
          }
        }
      }
    }
  }
  input {
    name: "gpu_0/res5_1_branch2c_bn_rm_0"
    type {
      tensor_type {
        elem_type: 1
        shape {
          dim {
            dim_value: 2048
          }
        }
      }
    }
  }
  input {
    name: "gpu_0/res5_1_branch2c_bn_riv_0"
    type {
      tensor_type {
        elem_type: 1
        shape {
          dim {
            dim_value: 2048
          }
        }
      }
    }
  }
  input {
    name: "gpu_0/res5_2_branch2a_bn_rm_0"
    type {
      tensor_type {
        elem_type: 1
        shape {
          dim {
            dim_value: 512
          }
        }
      }
    }
  }
  input {
    name: "gpu_0/res5_2_branch2a_bn_riv_0"
    type {
      tensor_type {
        elem_type: 1
        shape {
          dim {
            dim_value: 512
          }
        }
      }
    }
  }
  input {
    name: "gpu_0/res5_2_branch2b_bn_rm_0"
    type {
      tensor_type {
        elem_type: 1
        shape {
          dim {
            dim_value: 512
          }
        }
      }
    }
  }
  input {
    name: "gpu_0/res5_2_branch2b_bn_riv_0"
    type {
      tensor_type {
        elem_type: 1
        shape {
          dim {
            dim_value: 512
          }
        }
      }
    }
  }
  input {
    name: "gpu_0/res5_2_branch2c_bn_rm_0"
    type {
      tensor_type {
        elem_type: 1
        shape {
          dim {
            dim_value: 2048
          }
        }
      }
    }
  }
  input {
    name: "gpu_0/res5_2_branch2c_bn_riv_0"
    type {
      tensor_type {
        elem_type: 1
        shape {
          dim {
            dim_value: 2048
          }
        }
      }
    }
  }
  input {
    name: "gpu_0/imagenet1k_blobs_queue_f22e83c9-22cd-4a8b-a66d-113af6b832b4_0"
    type {
      tensor_type {
        elem_type: 1
        shape {
          dim {
            dim_value: 1
          }
          dim {
            dim_value: 1
          }
        }
      }
    }
  }
  input {
    name: "OC2_DUMMY_1"
    type {
      tensor_type {
        elem_type: 7
        shape {
          dim {
            dim_value: 2
          }
        }
      }
    }
  }
  output {
    name: "gpu_0/softmax_1"
    type {
      tensor_type {
        elem_type: 1
        shape {
          dim {
            dim_param: "N"
          }
          dim {
            dim_value: 1000
          }
        }
      }
    }
  }
}
opset_import {
  domain: ""
  version: 9
}
