ir_version: 3
graph {
  node {
    input: "data"
    input: "resnetv25_batchnorm0_gamma"
    input: "resnetv25_batchnorm0_beta"
    input: "resnetv25_batchnorm0_running_mean"
    input: "resnetv25_batchnorm0_running_var"
    output: "resnetv25_batchnorm0_fwd"
    name: "resnetv25_batchnorm0_fwd"
    op_type: "BatchNormalization"
    attribute {
      name: "epsilon"
      f: 1e-05
      type: FLOAT
    }
    attribute {
      name: "momentum"
      f: 0.9
      type: FLOAT
    }
    attribute {
      name: "spatial"
      i: 1
      type: INT
    }
  }
  node {
    input: "resnetv25_batchnorm0_fwd"
    input: "resnetv25_conv0_weight"
    output: "resnetv25_conv0_fwd"
    name: "resnetv25_conv0_fwd"
    op_type: "Conv"
    attribute {
      name: "dilations"
      ints: 1
      ints: 1
      type: INTS
    }
    attribute {
      name: "group"
      i: 1
      type: INT
    }
    attribute {
      name: "kernel_shape"
      ints: 7
      ints: 7
      type: INTS
    }
    attribute {
      name: "pads"
      ints: 3
      ints: 3
      ints: 3
      ints: 3
      type: INTS
    }
    attribute {
      name: "strides"
      ints: 2
      ints: 2
      type: INTS
    }
  }
  node {
    input: "resnetv25_conv0_fwd"
    input: "resnetv25_batchnorm1_gamma"
    input: "resnetv25_batchnorm1_beta"
    input: "resnetv25_batchnorm1_running_mean"
    input: "resnetv25_batchnorm1_running_var"
    output: "resnetv25_batchnorm1_fwd"
    name: "resnetv25_batchnorm1_fwd"
    op_type: "BatchNormalization"
    attribute {
      name: "epsilon"
      f: 1e-05
      type: FLOAT
    }
    attribute {
      name: "momentum"
      f: 0.9
      type: FLOAT
    }
    attribute {
      name: "spatial"
      i: 1
      type: INT
    }
  }
  node {
    input: "resnetv25_batchnorm1_fwd"
    output: "resnetv25_relu0_fwd"
    name: "resnetv25_relu0_fwd"
    op_type: "Relu"
  }
  node {
    input: "resnetv25_relu0_fwd"
    output: "resnetv25_pool0_fwd"
    name: "resnetv25_pool0_fwd"
    op_type: "MaxPool"
    attribute {
      name: "kernel_shape"
      ints: 3
      ints: 3
      type: INTS
    }
    attribute {
      name: "pads"
      ints: 1
      ints: 1
      ints: 1
      ints: 1
      type: INTS
    }
    attribute {
      name: "strides"
      ints: 2
      ints: 2
      type: INTS
    }
  }
  node {
    input: "resnetv25_pool0_fwd"
    input: "resnetv25_stage1_batchnorm0_gamma"
    input: "resnetv25_stage1_batchnorm0_beta"
    input: "resnetv25_stage1_batchnorm0_running_mean"
    input: "resnetv25_stage1_batchnorm0_running_var"
    output: "resnetv25_stage1_batchnorm0_fwd"
    name: "resnetv25_stage1_batchnorm0_fwd"
    op_type: "BatchNormalization"
    attribute {
      name: "epsilon"
      f: 1e-05
      type: FLOAT
    }
    attribute {
      name: "momentum"
      f: 0.9
      type: FLOAT
    }
    attribute {
      name: "spatial"
      i: 1
      type: INT
    }
  }
  node {
    input: "resnetv25_stage1_batchnorm0_fwd"
    output: "resnetv25_stage1_activation0"
    name: "resnetv25_stage1_activation0"
    op_type: "Relu"
  }
  node {
    input: "resnetv25_stage1_activation0"
    input: "resnetv25_stage1_conv0_weight"
    output: "resnetv25_stage1_conv0_fwd"
    name: "resnetv25_stage1_conv0_fwd"
    op_type: "Conv"
    attribute {
      name: "dilations"
      ints: 1
      ints: 1
      type: INTS
    }
    attribute {
      name: "group"
      i: 1
      type: INT
    }
    attribute {
      name: "kernel_shape"
      ints: 1
      ints: 1
      type: INTS
    }
    attribute {
      name: "pads"
      ints: 0
      ints: 0
      ints: 0
      ints: 0
      type: INTS
    }
    attribute {
      name: "strides"
      ints: 1
      ints: 1
      type: INTS
    }
  }
  node {
    input: "resnetv25_stage1_conv0_fwd"
    input: "resnetv25_stage1_batchnorm1_gamma"
    input: "resnetv25_stage1_batchnorm1_beta"
    input: "resnetv25_stage1_batchnorm1_running_mean"
    input: "resnetv25_stage1_batchnorm1_running_var"
    output: "resnetv25_stage1_batchnorm1_fwd"
    name: "resnetv25_stage1_batchnorm1_fwd"
    op_type: "BatchNormalization"
    attribute {
      name: "epsilon"
      f: 1e-05
      type: FLOAT
    }
    attribute {
      name: "momentum"
      f: 0.9
      type: FLOAT
    }
    attribute {
      name: "spatial"
      i: 1
      type: INT
    }
  }
  node {
    input: "resnetv25_stage1_batchnorm1_fwd"
    output: "resnetv25_stage1_activation1"
    name: "resnetv25_stage1_activation1"
    op_type: "Relu"
  }
  node {
    input: "resnetv25_stage1_activation1"
    input: "resnetv25_stage1_conv1_weight"
    output: "resnetv25_stage1_conv1_fwd"
    name: "resnetv25_stage1_conv1_fwd"
    op_type: "Conv"
    attribute {
      name: "dilations"
      ints: 1
      ints: 1
      type: INTS
    }
    attribute {
      name: "group"
      i: 1
      type: INT
    }
    attribute {
      name: "kernel_shape"
      ints: 3
      ints: 3
      type: INTS
    }
    attribute {
      name: "pads"
      ints: 1
      ints: 1
      ints: 1
      ints: 1
      type: INTS
    }
    attribute {
      name: "strides"
      ints: 1
      ints: 1
      type: INTS
    }
  }
  node {
    input: "resnetv25_stage1_conv1_fwd"
    input: "resnetv25_stage1_batchnorm2_gamma"
    input: "resnetv25_stage1_batchnorm2_beta"
    input: "resnetv25_stage1_batchnorm2_running_mean"
    input: "resnetv25_stage1_batchnorm2_running_var"
    output: "resnetv25_stage1_batchnorm2_fwd"
    name: "resnetv25_stage1_batchnorm2_fwd"
    op_type: "BatchNormalization"
    attribute {
      name: "epsilon"
      f: 1e-05
      type: FLOAT
    }
    attribute {
      name: "momentum"
      f: 0.9
      type: FLOAT
    }
    attribute {
      name: "spatial"
      i: 1
      type: INT
    }
  }
  node {
    input: "resnetv25_stage1_batchnorm2_fwd"
    output: "resnetv25_stage1_activation2"
    name: "resnetv25_stage1_activation2"
    op_type: "Relu"
  }
  node {
    input: "resnetv25_stage1_activation2"
    input: "resnetv25_stage1_conv2_weight"
    output: "resnetv25_stage1_conv2_fwd"
    name: "resnetv25_stage1_conv2_fwd"
    op_type: "Conv"
    attribute {
      name: "dilations"
      ints: 1
      ints: 1
      type: INTS
    }
    attribute {
      name: "group"
      i: 1
      type: INT
    }
    attribute {
      name: "kernel_shape"
      ints: 1
      ints: 1
      type: INTS
    }
    attribute {
      name: "pads"
      ints: 0
      ints: 0
      ints: 0
      ints: 0
      type: INTS
    }
    attribute {
      name: "strides"
      ints: 1
      ints: 1
      type: INTS
    }
  }
  node {
    input: "resnetv25_stage1_activation0"
    input: "resnetv25_stage1_conv3_weight"
    output: "resnetv25_stage1_conv3_fwd"
    name: "resnetv25_stage1_conv3_fwd"
    op_type: "Conv"
    attribute {
      name: "dilations"
      ints: 1
      ints: 1
      type: INTS
    }
    attribute {
      name: "group"
      i: 1
      type: INT
    }
    attribute {
      name: "kernel_shape"
      ints: 1
      ints: 1
      type: INTS
    }
    attribute {
      name: "pads"
      ints: 0
      ints: 0
      ints: 0
      ints: 0
      type: INTS
    }
    attribute {
      name: "strides"
      ints: 1
      ints: 1
      type: INTS
    }
  }
  node {
    input: "resnetv25_stage1_conv2_fwd"
    input: "resnetv25_stage1_conv3_fwd"
    output: "resnetv25_stage1__plus0"
    name: "resnetv25_stage1__plus0"
    op_type: "Add"
  }
  node {
    input: "resnetv25_stage1__plus0"
    input: "resnetv25_stage1_batchnorm3_gamma"
    input: "resnetv25_stage1_batchnorm3_beta"
    input: "resnetv25_stage1_batchnorm3_running_mean"
    input: "resnetv25_stage1_batchnorm3_running_var"
    output: "resnetv25_stage1_batchnorm3_fwd"
    name: "resnetv25_stage1_batchnorm3_fwd"
    op_type: "BatchNormalization"
    attribute {
      name: "epsilon"
      f: 1e-05
      type: FLOAT
    }
    attribute {
      name: "momentum"
      f: 0.9
      type: FLOAT
    }
    attribute {
      name: "spatial"
      i: 1
      type: INT
    }
  }
  node {
    input: "resnetv25_stage1_batchnorm3_fwd"
    output: "resnetv25_stage1_activation3"
    name: "resnetv25_stage1_activation3"
    op_type: "Relu"
  }
  node {
    input: "resnetv25_stage1_activation3"
    input: "resnetv25_stage1_conv4_weight"
    output: "resnetv25_stage1_conv4_fwd"
    name: "resnetv25_stage1_conv4_fwd"
    op_type: "Conv"
    attribute {
      name: "dilations"
      ints: 1
      ints: 1
      type: INTS
    }
    attribute {
      name: "group"
      i: 1
      type: INT
    }
    attribute {
      name: "kernel_shape"
      ints: 1
      ints: 1
      type: INTS
    }
    attribute {
      name: "pads"
      ints: 0
      ints: 0
      ints: 0
      ints: 0
      type: INTS
    }
    attribute {
      name: "strides"
      ints: 1
      ints: 1
      type: INTS
    }
  }
  node {
    input: "resnetv25_stage1_conv4_fwd"
    input: "resnetv25_stage1_batchnorm4_gamma"
    input: "resnetv25_stage1_batchnorm4_beta"
    input: "resnetv25_stage1_batchnorm4_running_mean"
    input: "resnetv25_stage1_batchnorm4_running_var"
    output: "resnetv25_stage1_batchnorm4_fwd"
    name: "resnetv25_stage1_batchnorm4_fwd"
    op_type: "BatchNormalization"
    attribute {
      name: "epsilon"
      f: 1e-05
      type: FLOAT
    }
    attribute {
      name: "momentum"
      f: 0.9
      type: FLOAT
    }
    attribute {
      name: "spatial"
      i: 1
      type: INT
    }
  }
  node {
    input: "resnetv25_stage1_batchnorm4_fwd"
    output: "resnetv25_stage1_activation4"
    name: "resnetv25_stage1_activation4"
    op_type: "Relu"
  }
  node {
    input: "resnetv25_stage1_activation4"
    input: "resnetv25_stage1_conv5_weight"
    output: "resnetv25_stage1_conv5_fwd"
    name: "resnetv25_stage1_conv5_fwd"
    op_type: "Conv"
    attribute {
      name: "dilations"
      ints: 1
      ints: 1
      type: INTS
    }
    attribute {
      name: "group"
      i: 1
      type: INT
    }
    attribute {
      name: "kernel_shape"
      ints: 3
      ints: 3
      type: INTS
    }
    attribute {
      name: "pads"
      ints: 1
      ints: 1
      ints: 1
      ints: 1
      type: INTS
    }
    attribute {
      name: "strides"
      ints: 1
      ints: 1
      type: INTS
    }
  }
  node {
    input: "resnetv25_stage1_conv5_fwd"
    input: "resnetv25_stage1_batchnorm5_gamma"
    input: "resnetv25_stage1_batchnorm5_beta"
    input: "resnetv25_stage1_batchnorm5_running_mean"
    input: "resnetv25_stage1_batchnorm5_running_var"
    output: "resnetv25_stage1_batchnorm5_fwd"
    name: "resnetv25_stage1_batchnorm5_fwd"
    op_type: "BatchNormalization"
    attribute {
      name: "epsilon"
      f: 1e-05
      type: FLOAT
    }
    attribute {
      name: "momentum"
      f: 0.9
      type: FLOAT
    }
    attribute {
      name: "spatial"
      i: 1
      type: INT
    }
  }
  node {
    input: "resnetv25_stage1_batchnorm5_fwd"
    output: "resnetv25_stage1_activation5"
    name: "resnetv25_stage1_activation5"
    op_type: "Relu"
  }
  node {
    input: "resnetv25_stage1_activation5"
    input: "resnetv25_stage1_conv6_weight"
    output: "resnetv25_stage1_conv6_fwd"
    name: "resnetv25_stage1_conv6_fwd"
    op_type: "Conv"
    attribute {
      name: "dilations"
      ints: 1
      ints: 1
      type: INTS
    }
    attribute {
      name: "group"
      i: 1
      type: INT
    }
    attribute {
      name: "kernel_shape"
      ints: 1
      ints: 1
      type: INTS
    }
    attribute {
      name: "pads"
      ints: 0
      ints: 0
      ints: 0
      ints: 0
      type: INTS
    }
    attribute {
      name: "strides"
      ints: 1
      ints: 1
      type: INTS
    }
  }
  node {
    input: "resnetv25_stage1_conv6_fwd"
    input: "resnetv25_stage1__plus0"
    output: "resnetv25_stage1__plus1"
    name: "resnetv25_stage1__plus1"
    op_type: "Add"
  }
  node {
    input: "resnetv25_stage1__plus1"
    input: "resnetv25_stage1_batchnorm6_gamma"
    input: "resnetv25_stage1_batchnorm6_beta"
    input: "resnetv25_stage1_batchnorm6_running_mean"
    input: "resnetv25_stage1_batchnorm6_running_var"
    output: "resnetv25_stage1_batchnorm6_fwd"
    name: "resnetv25_stage1_batchnorm6_fwd"
    op_type: "BatchNormalization"
    attribute {
      name: "epsilon"
      f: 1e-05
      type: FLOAT
    }
    attribute {
      name: "momentum"
      f: 0.9
      type: FLOAT
    }
    attribute {
      name: "spatial"
      i: 1
      type: INT
    }
  }
  node {
    input: "resnetv25_stage1_batchnorm6_fwd"
    output: "resnetv25_stage1_activation6"
    name: "resnetv25_stage1_activation6"
    op_type: "Relu"
  }
  node {
    input: "resnetv25_stage1_activation6"
    input: "resnetv25_stage1_conv7_weight"
    output: "resnetv25_stage1_conv7_fwd"
    name: "resnetv25_stage1_conv7_fwd"
    op_type: "Conv"
    attribute {
      name: "dilations"
      ints: 1
      ints: 1
      type: INTS
    }
    attribute {
      name: "group"
      i: 1
      type: INT
    }
    attribute {
      name: "kernel_shape"
      ints: 1
      ints: 1
      type: INTS
    }
    attribute {
      name: "pads"
      ints: 0
      ints: 0
      ints: 0
      ints: 0
      type: INTS
    }
    attribute {
      name: "strides"
      ints: 1
      ints: 1
      type: INTS
    }
  }
  node {
    input: "resnetv25_stage1_conv7_fwd"
    input: "resnetv25_stage1_batchnorm7_gamma"
    input: "resnetv25_stage1_batchnorm7_beta"
    input: "resnetv25_stage1_batchnorm7_running_mean"
    input: "resnetv25_stage1_batchnorm7_running_var"
    output: "resnetv25_stage1_batchnorm7_fwd"
    name: "resnetv25_stage1_batchnorm7_fwd"
    op_type: "BatchNormalization"
    attribute {
      name: "epsilon"
      f: 1e-05
      type: FLOAT
    }
    attribute {
      name: "momentum"
      f: 0.9
      type: FLOAT
    }
    attribute {
      name: "spatial"
      i: 1
      type: INT
    }
  }
  node {
    input: "resnetv25_stage1_batchnorm7_fwd"
    output: "resnetv25_stage1_activation7"
    name: "resnetv25_stage1_activation7"
    op_type: "Relu"
  }
  node {
    input: "resnetv25_stage1_activation7"
    input: "resnetv25_stage1_conv8_weight"
    output: "resnetv25_stage1_conv8_fwd"
    name: "resnetv25_stage1_conv8_fwd"
    op_type: "Conv"
    attribute {
      name: "dilations"
      ints: 1
      ints: 1
      type: INTS
    }
    attribute {
      name: "group"
      i: 1
      type: INT
    }
    attribute {
      name: "kernel_shape"
      ints: 3
      ints: 3
      type: INTS
    }
    attribute {
      name: "pads"
      ints: 1
      ints: 1
      ints: 1
      ints: 1
      type: INTS
    }
    attribute {
      name: "strides"
      ints: 1
      ints: 1
      type: INTS
    }
  }
  node {
    input: "resnetv25_stage1_conv8_fwd"
    input: "resnetv25_stage1_batchnorm8_gamma"
    input: "resnetv25_stage1_batchnorm8_beta"
    input: "resnetv25_stage1_batchnorm8_running_mean"
    input: "resnetv25_stage1_batchnorm8_running_var"
    output: "resnetv25_stage1_batchnorm8_fwd"
    name: "resnetv25_stage1_batchnorm8_fwd"
    op_type: "BatchNormalization"
    attribute {
      name: "epsilon"
      f: 1e-05
      type: FLOAT
    }
    attribute {
      name: "momentum"
      f: 0.9
      type: FLOAT
    }
    attribute {
      name: "spatial"
      i: 1
      type: INT
    }
  }
  node {
    input: "resnetv25_stage1_batchnorm8_fwd"
    output: "resnetv25_stage1_activation8"
    name: "resnetv25_stage1_activation8"
    op_type: "Relu"
  }
  node {
    input: "resnetv25_stage1_activation8"
    input: "resnetv25_stage1_conv9_weight"
    output: "resnetv25_stage1_conv9_fwd"
    name: "resnetv25_stage1_conv9_fwd"
    op_type: "Conv"
    attribute {
      name: "dilations"
      ints: 1
      ints: 1
      type: INTS
    }
    attribute {
      name: "group"
      i: 1
      type: INT
    }
    attribute {
      name: "kernel_shape"
      ints: 1
      ints: 1
      type: INTS
    }
    attribute {
      name: "pads"
      ints: 0
      ints: 0
      ints: 0
      ints: 0
      type: INTS
    }
    attribute {
      name: "strides"
      ints: 1
      ints: 1
      type: INTS
    }
  }
  node {
    input: "resnetv25_stage1_conv9_fwd"
    input: "resnetv25_stage1__plus1"
    output: "resnetv25_stage1__plus2"
    name: "resnetv25_stage1__plus2"
    op_type: "Add"
  }
  node {
    input: "resnetv25_stage1__plus2"
    input: "resnetv25_stage2_batchnorm0_gamma"
    input: "resnetv25_stage2_batchnorm0_beta"
    input: "resnetv25_stage2_batchnorm0_running_mean"
    input: "resnetv25_stage2_batchnorm0_running_var"
    output: "resnetv25_stage2_batchnorm0_fwd"
    name: "resnetv25_stage2_batchnorm0_fwd"
    op_type: "BatchNormalization"
    attribute {
      name: "epsilon"
      f: 1e-05
      type: FLOAT
    }
    attribute {
      name: "momentum"
      f: 0.9
      type: FLOAT
    }
    attribute {
      name: "spatial"
      i: 1
      type: INT
    }
  }
  node {
    input: "resnetv25_stage2_batchnorm0_fwd"
    output: "resnetv25_stage2_activation0"
    name: "resnetv25_stage2_activation0"
    op_type: "Relu"
  }
  node {
    input: "resnetv25_stage2_activation0"
    input: "resnetv25_stage2_conv0_weight"
    output: "resnetv25_stage2_conv0_fwd"
    name: "resnetv25_stage2_conv0_fwd"
    op_type: "Conv"
    attribute {
      name: "dilations"
      ints: 1
      ints: 1
      type: INTS
    }
    attribute {
      name: "group"
      i: 1
      type: INT
    }
    attribute {
      name: "kernel_shape"
      ints: 1
      ints: 1
      type: INTS
    }
    attribute {
      name: "pads"
      ints: 0
      ints: 0
      ints: 0
      ints: 0
      type: INTS
    }
    attribute {
      name: "strides"
      ints: 1
      ints: 1
      type: INTS
    }
  }
  node {
    input: "resnetv25_stage2_conv0_fwd"
    input: "resnetv25_stage2_batchnorm1_gamma"
    input: "resnetv25_stage2_batchnorm1_beta"
    input: "resnetv25_stage2_batchnorm1_running_mean"
    input: "resnetv25_stage2_batchnorm1_running_var"
    output: "resnetv25_stage2_batchnorm1_fwd"
    name: "resnetv25_stage2_batchnorm1_fwd"
    op_type: "BatchNormalization"
    attribute {
      name: "epsilon"
      f: 1e-05
      type: FLOAT
    }
    attribute {
      name: "momentum"
      f: 0.9
      type: FLOAT
    }
    attribute {
      name: "spatial"
      i: 1
      type: INT
    }
  }
  node {
    input: "resnetv25_stage2_batchnorm1_fwd"
    output: "resnetv25_stage2_activation1"
    name: "resnetv25_stage2_activation1"
    op_type: "Relu"
  }
  node {
    input: "resnetv25_stage2_activation1"
    input: "resnetv25_stage2_conv1_weight"
    output: "resnetv25_stage2_conv1_fwd"
    name: "resnetv25_stage2_conv1_fwd"
    op_type: "Conv"
    attribute {
      name: "dilations"
      ints: 1
      ints: 1
      type: INTS
    }
    attribute {
      name: "group"
      i: 1
      type: INT
    }
    attribute {
      name: "kernel_shape"
      ints: 3
      ints: 3
      type: INTS
    }
    attribute {
      name: "pads"
      ints: 1
      ints: 1
      ints: 1
      ints: 1
      type: INTS
    }
    attribute {
      name: "strides"
      ints: 2
      ints: 2
      type: INTS
    }
  }
  node {
    input: "resnetv25_stage2_conv1_fwd"
    input: "resnetv25_stage2_batchnorm2_gamma"
    input: "resnetv25_stage2_batchnorm2_beta"
    input: "resnetv25_stage2_batchnorm2_running_mean"
    input: "resnetv25_stage2_batchnorm2_running_var"
    output: "resnetv25_stage2_batchnorm2_fwd"
    name: "resnetv25_stage2_batchnorm2_fwd"
    op_type: "BatchNormalization"
    attribute {
      name: "epsilon"
      f: 1e-05
      type: FLOAT
    }
    attribute {
      name: "momentum"
      f: 0.9
      type: FLOAT
    }
    attribute {
      name: "spatial"
      i: 1
      type: INT
    }
  }
  node {
    input: "resnetv25_stage2_batchnorm2_fwd"
    output: "resnetv25_stage2_activation2"
    name: "resnetv25_stage2_activation2"
    op_type: "Relu"
  }
  node {
    input: "resnetv25_stage2_activation2"
    input: "resnetv25_stage2_conv2_weight"
    output: "resnetv25_stage2_conv2_fwd"
    name: "resnetv25_stage2_conv2_fwd"
    op_type: "Conv"
    attribute {
      name: "dilations"
      ints: 1
      ints: 1
      type: INTS
    }
    attribute {
      name: "group"
      i: 1
      type: INT
    }
    attribute {
      name: "kernel_shape"
      ints: 1
      ints: 1
      type: INTS
    }
    attribute {
      name: "pads"
      ints: 0
      ints: 0
      ints: 0
      ints: 0
      type: INTS
    }
    attribute {
      name: "strides"
      ints: 1
      ints: 1
      type: INTS
    }
  }
  node {
    input: "resnetv25_stage2_activation0"
    input: "resnetv25_stage2_conv3_weight"
    output: "resnetv25_stage2_conv3_fwd"
    name: "resnetv25_stage2_conv3_fwd"
    op_type: "Conv"
    attribute {
      name: "dilations"
      ints: 1
      ints: 1
      type: INTS
    }
    attribute {
      name: "group"
      i: 1
      type: INT
    }
    attribute {
      name: "kernel_shape"
      ints: 1
      ints: 1
      type: INTS
    }
    attribute {
      name: "pads"
      ints: 0
      ints: 0
      ints: 0
      ints: 0
      type: INTS
    }
    attribute {
      name: "strides"
      ints: 2
      ints: 2
      type: INTS
    }
  }
  node {
    input: "resnetv25_stage2_conv2_fwd"
    input: "resnetv25_stage2_conv3_fwd"
    output: "resnetv25_stage2__plus0"
    name: "resnetv25_stage2__plus0"
    op_type: "Add"
  }
  node {
    input: "resnetv25_stage2__plus0"
    input: "resnetv25_stage2_batchnorm3_gamma"
    input: "resnetv25_stage2_batchnorm3_beta"
    input: "resnetv25_stage2_batchnorm3_running_mean"
    input: "resnetv25_stage2_batchnorm3_running_var"
    output: "resnetv25_stage2_batchnorm3_fwd"
    name: "resnetv25_stage2_batchnorm3_fwd"
    op_type: "BatchNormalization"
    attribute {
      name: "epsilon"
      f: 1e-05
      type: FLOAT
    }
    attribute {
      name: "momentum"
      f: 0.9
      type: FLOAT
    }
    attribute {
      name: "spatial"
      i: 1
      type: INT
    }
  }
  node {
    input: "resnetv25_stage2_batchnorm3_fwd"
    output: "resnetv25_stage2_activation3"
    name: "resnetv25_stage2_activation3"
    op_type: "Relu"
  }
  node {
    input: "resnetv25_stage2_activation3"
    input: "resnetv25_stage2_conv4_weight"
    output: "resnetv25_stage2_conv4_fwd"
    name: "resnetv25_stage2_conv4_fwd"
    op_type: "Conv"
    attribute {
      name: "dilations"
      ints: 1
      ints: 1
      type: INTS
    }
    attribute {
      name: "group"
      i: 1
      type: INT
    }
    attribute {
      name: "kernel_shape"
      ints: 1
      ints: 1
      type: INTS
    }
    attribute {
      name: "pads"
      ints: 0
      ints: 0
      ints: 0
      ints: 0
      type: INTS
    }
    attribute {
      name: "strides"
      ints: 1
      ints: 1
      type: INTS
    }
  }
  node {
    input: "resnetv25_stage2_conv4_fwd"
    input: "resnetv25_stage2_batchnorm4_gamma"
    input: "resnetv25_stage2_batchnorm4_beta"
    input: "resnetv25_stage2_batchnorm4_running_mean"
    input: "resnetv25_stage2_batchnorm4_running_var"
    output: "resnetv25_stage2_batchnorm4_fwd"
    name: "resnetv25_stage2_batchnorm4_fwd"
    op_type: "BatchNormalization"
    attribute {
      name: "epsilon"
      f: 1e-05
      type: FLOAT
    }
    attribute {
      name: "momentum"
      f: 0.9
      type: FLOAT
    }
    attribute {
      name: "spatial"
      i: 1
      type: INT
    }
  }
  node {
    input: "resnetv25_stage2_batchnorm4_fwd"
    output: "resnetv25_stage2_activation4"
    name: "resnetv25_stage2_activation4"
    op_type: "Relu"
  }
  node {
    input: "resnetv25_stage2_activation4"
    input: "resnetv25_stage2_conv5_weight"
    output: "resnetv25_stage2_conv5_fwd"
    name: "resnetv25_stage2_conv5_fwd"
    op_type: "Conv"
    attribute {
      name: "dilations"
      ints: 1
      ints: 1
      type: INTS
    }
    attribute {
      name: "group"
      i: 1
      type: INT
    }
    attribute {
      name: "kernel_shape"
      ints: 3
      ints: 3
      type: INTS
    }
    attribute {
      name: "pads"
      ints: 1
      ints: 1
      ints: 1
      ints: 1
      type: INTS
    }
    attribute {
      name: "strides"
      ints: 1
      ints: 1
      type: INTS
    }
  }
  node {
    input: "resnetv25_stage2_conv5_fwd"
    input: "resnetv25_stage2_batchnorm5_gamma"
    input: "resnetv25_stage2_batchnorm5_beta"
    input: "resnetv25_stage2_batchnorm5_running_mean"
    input: "resnetv25_stage2_batchnorm5_running_var"
    output: "resnetv25_stage2_batchnorm5_fwd"
    name: "resnetv25_stage2_batchnorm5_fwd"
    op_type: "BatchNormalization"
    attribute {
      name: "epsilon"
      f: 1e-05
      type: FLOAT
    }
    attribute {
      name: "momentum"
      f: 0.9
      type: FLOAT
    }
    attribute {
      name: "spatial"
      i: 1
      type: INT
    }
  }
  node {
    input: "resnetv25_stage2_batchnorm5_fwd"
    output: "resnetv25_stage2_activation5"
    name: "resnetv25_stage2_activation5"
    op_type: "Relu"
  }
  node {
    input: "resnetv25_stage2_activation5"
    input: "resnetv25_stage2_conv6_weight"
    output: "resnetv25_stage2_conv6_fwd"
    name: "resnetv25_stage2_conv6_fwd"
    op_type: "Conv"
    attribute {
      name: "dilations"
      ints: 1
      ints: 1
      type: INTS
    }
    attribute {
      name: "group"
      i: 1
      type: INT
    }
    attribute {
      name: "kernel_shape"
      ints: 1
      ints: 1
      type: INTS
    }
    attribute {
      name: "pads"
      ints: 0
      ints: 0
      ints: 0
      ints: 0
      type: INTS
    }
    attribute {
      name: "strides"
      ints: 1
      ints: 1
      type: INTS
    }
  }
  node {
    input: "resnetv25_stage2_conv6_fwd"
    input: "resnetv25_stage2__plus0"
    output: "resnetv25_stage2__plus1"
    name: "resnetv25_stage2__plus1"
    op_type: "Add"
  }
  node {
    input: "resnetv25_stage2__plus1"
    input: "resnetv25_stage2_batchnorm6_gamma"
    input: "resnetv25_stage2_batchnorm6_beta"
    input: "resnetv25_stage2_batchnorm6_running_mean"
    input: "resnetv25_stage2_batchnorm6_running_var"
    output: "resnetv25_stage2_batchnorm6_fwd"
    name: "resnetv25_stage2_batchnorm6_fwd"
    op_type: "BatchNormalization"
    attribute {
      name: "epsilon"
      f: 1e-05
      type: FLOAT
    }
    attribute {
      name: "momentum"
      f: 0.9
      type: FLOAT
    }
    attribute {
      name: "spatial"
      i: 1
      type: INT
    }
  }
  node {
    input: "resnetv25_stage2_batchnorm6_fwd"
    output: "resnetv25_stage2_activation6"
    name: "resnetv25_stage2_activation6"
    op_type: "Relu"
  }
  node {
    input: "resnetv25_stage2_activation6"
    input: "resnetv25_stage2_conv7_weight"
    output: "resnetv25_stage2_conv7_fwd"
    name: "resnetv25_stage2_conv7_fwd"
    op_type: "Conv"
    attribute {
      name: "dilations"
      ints: 1
      ints: 1
      type: INTS
    }
    attribute {
      name: "group"
      i: 1
      type: INT
    }
    attribute {
      name: "kernel_shape"
      ints: 1
      ints: 1
      type: INTS
    }
    attribute {
      name: "pads"
      ints: 0
      ints: 0
      ints: 0
      ints: 0
      type: INTS
    }
    attribute {
      name: "strides"
      ints: 1
      ints: 1
      type: INTS
    }
  }
  node {
    input: "resnetv25_stage2_conv7_fwd"
    input: "resnetv25_stage2_batchnorm7_gamma"
    input: "resnetv25_stage2_batchnorm7_beta"
    input: "resnetv25_stage2_batchnorm7_running_mean"
    input: "resnetv25_stage2_batchnorm7_running_var"
    output: "resnetv25_stage2_batchnorm7_fwd"
    name: "resnetv25_stage2_batchnorm7_fwd"
    op_type: "BatchNormalization"
    attribute {
      name: "epsilon"
      f: 1e-05
      type: FLOAT
    }
    attribute {
      name: "momentum"
      f: 0.9
      type: FLOAT
    }
    attribute {
      name: "spatial"
      i: 1
      type: INT
    }
  }
  node {
    input: "resnetv25_stage2_batchnorm7_fwd"
    output: "resnetv25_stage2_activation7"
    name: "resnetv25_stage2_activation7"
    op_type: "Relu"
  }
  node {
    input: "resnetv25_stage2_activation7"
    input: "resnetv25_stage2_conv8_weight"
    output: "resnetv25_stage2_conv8_fwd"
    name: "resnetv25_stage2_conv8_fwd"
    op_type: "Conv"
    attribute {
      name: "dilations"
      ints: 1
      ints: 1
      type: INTS
    }
    attribute {
      name: "group"
      i: 1
      type: INT
    }
    attribute {
      name: "kernel_shape"
      ints: 3
      ints: 3
      type: INTS
    }
    attribute {
      name: "pads"
      ints: 1
      ints: 1
      ints: 1
      ints: 1
      type: INTS
    }
    attribute {
      name: "strides"
      ints: 1
      ints: 1
      type: INTS
    }
  }
  node {
    input: "resnetv25_stage2_conv8_fwd"
    input: "resnetv25_stage2_batchnorm8_gamma"
    input: "resnetv25_stage2_batchnorm8_beta"
    input: "resnetv25_stage2_batchnorm8_running_mean"
    input: "resnetv25_stage2_batchnorm8_running_var"
    output: "resnetv25_stage2_batchnorm8_fwd"
    name: "resnetv25_stage2_batchnorm8_fwd"
    op_type: "BatchNormalization"
    attribute {
      name: "epsilon"
      f: 1e-05
      type: FLOAT
    }
    attribute {
      name: "momentum"
      f: 0.9
      type: FLOAT
    }
    attribute {
      name: "spatial"
      i: 1
      type: INT
    }
  }
  node {
    input: "resnetv25_stage2_batchnorm8_fwd"
    output: "resnetv25_stage2_activation8"
    name: "resnetv25_stage2_activation8"
    op_type: "Relu"
  }
  node {
    input: "resnetv25_stage2_activation8"
    input: "resnetv25_stage2_conv9_weight"
    output: "resnetv25_stage2_conv9_fwd"
    name: "resnetv25_stage2_conv9_fwd"
    op_type: "Conv"
    attribute {
      name: "dilations"
      ints: 1
      ints: 1
      type: INTS
    }
    attribute {
      name: "group"
      i: 1
      type: INT
    }
    attribute {
      name: "kernel_shape"
      ints: 1
      ints: 1
      type: INTS
    }
    attribute {
      name: "pads"
      ints: 0
      ints: 0
      ints: 0
      ints: 0
      type: INTS
    }
    attribute {
      name: "strides"
      ints: 1
      ints: 1
      type: INTS
    }
  }
  node {
    input: "resnetv25_stage2_conv9_fwd"
    input: "resnetv25_stage2__plus1"
    output: "resnetv25_stage2__plus2"
    name: "resnetv25_stage2__plus2"
    op_type: "Add"
  }
  node {
    input: "resnetv25_stage2__plus2"
    input: "resnetv25_stage2_batchnorm9_gamma"
    input: "resnetv25_stage2_batchnorm9_beta"
    input: "resnetv25_stage2_batchnorm9_running_mean"
    input: "resnetv25_stage2_batchnorm9_running_var"
    output: "resnetv25_stage2_batchnorm9_fwd"
    name: "resnetv25_stage2_batchnorm9_fwd"
    op_type: "BatchNormalization"
    attribute {
      name: "epsilon"
      f: 1e-05
      type: FLOAT
    }
    attribute {
      name: "momentum"
      f: 0.9
      type: FLOAT
    }
    attribute {
      name: "spatial"
      i: 1
      type: INT
    }
  }
  node {
    input: "resnetv25_stage2_batchnorm9_fwd"
    output: "resnetv25_stage2_activation9"
    name: "resnetv25_stage2_activation9"
    op_type: "Relu"
  }
  node {
    input: "resnetv25_stage2_activation9"
    input: "resnetv25_stage2_conv10_weight"
    output: "resnetv25_stage2_conv10_fwd"
    name: "resnetv25_stage2_conv10_fwd"
    op_type: "Conv"
    attribute {
      name: "dilations"
      ints: 1
      ints: 1
      type: INTS
    }
    attribute {
      name: "group"
      i: 1
      type: INT
    }
    attribute {
      name: "kernel_shape"
      ints: 1
      ints: 1
      type: INTS
    }
    attribute {
      name: "pads"
      ints: 0
      ints: 0
      ints: 0
      ints: 0
      type: INTS
    }
    attribute {
      name: "strides"
      ints: 1
      ints: 1
      type: INTS
    }
  }
  node {
    input: "resnetv25_stage2_conv10_fwd"
    input: "resnetv25_stage2_batchnorm10_gamma"
    input: "resnetv25_stage2_batchnorm10_beta"
    input: "resnetv25_stage2_batchnorm10_running_mean"
    input: "resnetv25_stage2_batchnorm10_running_var"
    output: "resnetv25_stage2_batchnorm10_fwd"
    name: "resnetv25_stage2_batchnorm10_fwd"
    op_type: "BatchNormalization"
    attribute {
      name: "epsilon"
      f: 1e-05
      type: FLOAT
    }
    attribute {
      name: "momentum"
      f: 0.9
      type: FLOAT
    }
    attribute {
      name: "spatial"
      i: 1
      type: INT
    }
  }
  node {
    input: "resnetv25_stage2_batchnorm10_fwd"
    output: "resnetv25_stage2_activation10"
    name: "resnetv25_stage2_activation10"
    op_type: "Relu"
  }
  node {
    input: "resnetv25_stage2_activation10"
    input: "resnetv25_stage2_conv11_weight"
    output: "resnetv25_stage2_conv11_fwd"
    name: "resnetv25_stage2_conv11_fwd"
    op_type: "Conv"
    attribute {
      name: "dilations"
      ints: 1
      ints: 1
      type: INTS
    }
    attribute {
      name: "group"
      i: 1
      type: INT
    }
    attribute {
      name: "kernel_shape"
      ints: 3
      ints: 3
      type: INTS
    }
    attribute {
      name: "pads"
      ints: 1
      ints: 1
      ints: 1
      ints: 1
      type: INTS
    }
    attribute {
      name: "strides"
      ints: 1
      ints: 1
      type: INTS
    }
  }
  node {
    input: "resnetv25_stage2_conv11_fwd"
    input: "resnetv25_stage2_batchnorm11_gamma"
    input: "resnetv25_stage2_batchnorm11_beta"
    input: "resnetv25_stage2_batchnorm11_running_mean"
    input: "resnetv25_stage2_batchnorm11_running_var"
    output: "resnetv25_stage2_batchnorm11_fwd"
    name: "resnetv25_stage2_batchnorm11_fwd"
    op_type: "BatchNormalization"
    attribute {
      name: "epsilon"
      f: 1e-05
      type: FLOAT
    }
    attribute {
      name: "momentum"
      f: 0.9
      type: FLOAT
    }
    attribute {
      name: "spatial"
      i: 1
      type: INT
    }
  }
  node {
    input: "resnetv25_stage2_batchnorm11_fwd"
    output: "resnetv25_stage2_activation11"
    name: "resnetv25_stage2_activation11"
    op_type: "Relu"
  }
  node {
    input: "resnetv25_stage2_activation11"
    input: "resnetv25_stage2_conv12_weight"
    output: "resnetv25_stage2_conv12_fwd"
    name: "resnetv25_stage2_conv12_fwd"
    op_type: "Conv"
    attribute {
      name: "dilations"
      ints: 1
      ints: 1
      type: INTS
    }
    attribute {
      name: "group"
      i: 1
      type: INT
    }
    attribute {
      name: "kernel_shape"
      ints: 1
      ints: 1
      type: INTS
    }
    attribute {
      name: "pads"
      ints: 0
      ints: 0
      ints: 0
      ints: 0
      type: INTS
    }
    attribute {
      name: "strides"
      ints: 1
      ints: 1
      type: INTS
    }
  }
  node {
    input: "resnetv25_stage2_conv12_fwd"
    input: "resnetv25_stage2__plus2"
    output: "resnetv25_stage2__plus3"
    name: "resnetv25_stage2__plus3"
    op_type: "Add"
  }
  node {
    input: "resnetv25_stage2__plus3"
    input: "resnetv25_stage3_batchnorm0_gamma"
    input: "resnetv25_stage3_batchnorm0_beta"
    input: "resnetv25_stage3_batchnorm0_running_mean"
    input: "resnetv25_stage3_batchnorm0_running_var"
    output: "resnetv25_stage3_batchnorm0_fwd"
    name: "resnetv25_stage3_batchnorm0_fwd"
    op_type: "BatchNormalization"
    attribute {
      name: "epsilon"
      f: 1e-05
      type: FLOAT
    }
    attribute {
      name: "momentum"
      f: 0.9
      type: FLOAT
    }
    attribute {
      name: "spatial"
      i: 1
      type: INT
    }
  }
  node {
    input: "resnetv25_stage3_batchnorm0_fwd"
    output: "resnetv25_stage3_activation0"
    name: "resnetv25_stage3_activation0"
    op_type: "Relu"
  }
  node {
    input: "resnetv25_stage3_activation0"
    input: "resnetv25_stage3_conv0_weight"
    output: "resnetv25_stage3_conv0_fwd"
    name: "resnetv25_stage3_conv0_fwd"
    op_type: "Conv"
    attribute {
      name: "dilations"
      ints: 1
      ints: 1
      type: INTS
    }
    attribute {
      name: "group"
      i: 1
      type: INT
    }
    attribute {
      name: "kernel_shape"
      ints: 1
      ints: 1
      type: INTS
    }
    attribute {
      name: "pads"
      ints: 0
      ints: 0
      ints: 0
      ints: 0
      type: INTS
    }
    attribute {
      name: "strides"
      ints: 1
      ints: 1
      type: INTS
    }
  }
  node {
    input: "resnetv25_stage3_conv0_fwd"
    input: "resnetv25_stage3_batchnorm1_gamma"
    input: "resnetv25_stage3_batchnorm1_beta"
    input: "resnetv25_stage3_batchnorm1_running_mean"
    input: "resnetv25_stage3_batchnorm1_running_var"
    output: "resnetv25_stage3_batchnorm1_fwd"
    name: "resnetv25_stage3_batchnorm1_fwd"
    op_type: "BatchNormalization"
    attribute {
      name: "epsilon"
      f: 1e-05
      type: FLOAT
    }
    attribute {
      name: "momentum"
      f: 0.9
      type: FLOAT
    }
    attribute {
      name: "spatial"
      i: 1
      type: INT
    }
  }
  node {
    input: "resnetv25_stage3_batchnorm1_fwd"
    output: "resnetv25_stage3_activation1"
    name: "resnetv25_stage3_activation1"
    op_type: "Relu"
  }
  node {
    input: "resnetv25_stage3_activation1"
    input: "resnetv25_stage3_conv1_weight"
    output: "resnetv25_stage3_conv1_fwd"
    name: "resnetv25_stage3_conv1_fwd"
    op_type: "Conv"
    attribute {
      name: "dilations"
      ints: 1
      ints: 1
      type: INTS
    }
    attribute {
      name: "group"
      i: 1
      type: INT
    }
    attribute {
      name: "kernel_shape"
      ints: 3
      ints: 3
      type: INTS
    }
    attribute {
      name: "pads"
      ints: 1
      ints: 1
      ints: 1
      ints: 1
      type: INTS
    }
    attribute {
      name: "strides"
      ints: 2
      ints: 2
      type: INTS
    }
  }
  node {
    input: "resnetv25_stage3_conv1_fwd"
    input: "resnetv25_stage3_batchnorm2_gamma"
    input: "resnetv25_stage3_batchnorm2_beta"
    input: "resnetv25_stage3_batchnorm2_running_mean"
    input: "resnetv25_stage3_batchnorm2_running_var"
    output: "resnetv25_stage3_batchnorm2_fwd"
    name: "resnetv25_stage3_batchnorm2_fwd"
    op_type: "BatchNormalization"
    attribute {
      name: "epsilon"
      f: 1e-05
      type: FLOAT
    }
    attribute {
      name: "momentum"
      f: 0.9
      type: FLOAT
    }
    attribute {
      name: "spatial"
      i: 1
      type: INT
    }
  }
  node {
    input: "resnetv25_stage3_batchnorm2_fwd"
    output: "resnetv25_stage3_activation2"
    name: "resnetv25_stage3_activation2"
    op_type: "Relu"
  }
  node {
    input: "resnetv25_stage3_activation2"
    input: "resnetv25_stage3_conv2_weight"
    output: "resnetv25_stage3_conv2_fwd"
    name: "resnetv25_stage3_conv2_fwd"
    op_type: "Conv"
    attribute {
      name: "dilations"
      ints: 1
      ints: 1
      type: INTS
    }
    attribute {
      name: "group"
      i: 1
      type: INT
    }
    attribute {
      name: "kernel_shape"
      ints: 1
      ints: 1
      type: INTS
    }
    attribute {
      name: "pads"
      ints: 0
      ints: 0
      ints: 0
      ints: 0
      type: INTS
    }
    attribute {
      name: "strides"
      ints: 1
      ints: 1
      type: INTS
    }
  }
  node {
    input: "resnetv25_stage3_activation0"
    input: "resnetv25_stage3_conv3_weight"
    output: "resnetv25_stage3_conv3_fwd"
    name: "resnetv25_stage3_conv3_fwd"
    op_type: "Conv"
    attribute {
      name: "dilations"
      ints: 1
      ints: 1
      type: INTS
    }
    attribute {
      name: "group"
      i: 1
      type: INT
    }
    attribute {
      name: "kernel_shape"
      ints: 1
      ints: 1
      type: INTS
    }
    attribute {
      name: "pads"
      ints: 0
      ints: 0
      ints: 0
      ints: 0
      type: INTS
    }
    attribute {
      name: "strides"
      ints: 2
      ints: 2
      type: INTS
    }
  }
  node {
    input: "resnetv25_stage3_conv2_fwd"
    input: "resnetv25_stage3_conv3_fwd"
    output: "resnetv25_stage3__plus0"
    name: "resnetv25_stage3__plus0"
    op_type: "Add"
  }
  node {
    input: "resnetv25_stage3__plus0"
    input: "resnetv25_stage3_batchnorm3_gamma"
    input: "resnetv25_stage3_batchnorm3_beta"
    input: "resnetv25_stage3_batchnorm3_running_mean"
    input: "resnetv25_stage3_batchnorm3_running_var"
    output: "resnetv25_stage3_batchnorm3_fwd"
    name: "resnetv25_stage3_batchnorm3_fwd"
    op_type: "BatchNormalization"
    attribute {
      name: "epsilon"
      f: 1e-05
      type: FLOAT
    }
    attribute {
      name: "momentum"
      f: 0.9
      type: FLOAT
    }
    attribute {
      name: "spatial"
      i: 1
      type: INT
    }
  }
  node {
    input: "resnetv25_stage3_batchnorm3_fwd"
    output: "resnetv25_stage3_activation3"
    name: "resnetv25_stage3_activation3"
    op_type: "Relu"
  }
  node {
    input: "resnetv25_stage3_activation3"
    input: "resnetv25_stage3_conv4_weight"
    output: "resnetv25_stage3_conv4_fwd"
    name: "resnetv25_stage3_conv4_fwd"
    op_type: "Conv"
    attribute {
      name: "dilations"
      ints: 1
      ints: 1
      type: INTS
    }
    attribute {
      name: "group"
      i: 1
      type: INT
    }
    attribute {
      name: "kernel_shape"
      ints: 1
      ints: 1
      type: INTS
    }
    attribute {
      name: "pads"
      ints: 0
      ints: 0
      ints: 0
      ints: 0
      type: INTS
    }
    attribute {
      name: "strides"
      ints: 1
      ints: 1
      type: INTS
    }
  }
  node {
    input: "resnetv25_stage3_conv4_fwd"
    input: "resnetv25_stage3_batchnorm4_gamma"
    input: "resnetv25_stage3_batchnorm4_beta"
    input: "resnetv25_stage3_batchnorm4_running_mean"
    input: "resnetv25_stage3_batchnorm4_running_var"
    output: "resnetv25_stage3_batchnorm4_fwd"
    name: "resnetv25_stage3_batchnorm4_fwd"
    op_type: "BatchNormalization"
    attribute {
      name: "epsilon"
      f: 1e-05
      type: FLOAT
    }
    attribute {
      name: "momentum"
      f: 0.9
      type: FLOAT
    }
    attribute {
      name: "spatial"
      i: 1
      type: INT
    }
  }
  node {
    input: "resnetv25_stage3_batchnorm4_fwd"
    output: "resnetv25_stage3_activation4"
    name: "resnetv25_stage3_activation4"
    op_type: "Relu"
  }
  node {
    input: "resnetv25_stage3_activation4"
    input: "resnetv25_stage3_conv5_weight"
    output: "resnetv25_stage3_conv5_fwd"
    name: "resnetv25_stage3_conv5_fwd"
    op_type: "Conv"
    attribute {
      name: "dilations"
      ints: 1
      ints: 1
      type: INTS
    }
    attribute {
      name: "group"
      i: 1
      type: INT
    }
    attribute {
      name: "kernel_shape"
      ints: 3
      ints: 3
      type: INTS
    }
    attribute {
      name: "pads"
      ints: 1
      ints: 1
      ints: 1
      ints: 1
      type: INTS
    }
    attribute {
      name: "strides"
      ints: 1
      ints: 1
      type: INTS
    }
  }
  node {
    input: "resnetv25_stage3_conv5_fwd"
    input: "resnetv25_stage3_batchnorm5_gamma"
    input: "resnetv25_stage3_batchnorm5_beta"
    input: "resnetv25_stage3_batchnorm5_running_mean"
    input: "resnetv25_stage3_batchnorm5_running_var"
    output: "resnetv25_stage3_batchnorm5_fwd"
    name: "resnetv25_stage3_batchnorm5_fwd"
    op_type: "BatchNormalization"
    attribute {
      name: "epsilon"
      f: 1e-05
      type: FLOAT
    }
    attribute {
      name: "momentum"
      f: 0.9
      type: FLOAT
    }
    attribute {
      name: "spatial"
      i: 1
      type: INT
    }
  }
  node {
    input: "resnetv25_stage3_batchnorm5_fwd"
    output: "resnetv25_stage3_activation5"
    name: "resnetv25_stage3_activation5"
    op_type: "Relu"
  }
  node {
    input: "resnetv25_stage3_activation5"
    input: "resnetv25_stage3_conv6_weight"
    output: "resnetv25_stage3_conv6_fwd"
    name: "resnetv25_stage3_conv6_fwd"
    op_type: "Conv"
    attribute {
      name: "dilations"
      ints: 1
      ints: 1
      type: INTS
    }
    attribute {
      name: "group"
      i: 1
      type: INT
    }
    attribute {
      name: "kernel_shape"
      ints: 1
      ints: 1
      type: INTS
    }
    attribute {
      name: "pads"
      ints: 0
      ints: 0
      ints: 0
      ints: 0
      type: INTS
    }
    attribute {
      name: "strides"
      ints: 1
      ints: 1
      type: INTS
    }
  }
  node {
    input: "resnetv25_stage3_conv6_fwd"
    input: "resnetv25_stage3__plus0"
    output: "resnetv25_stage3__plus1"
    name: "resnetv25_stage3__plus1"
    op_type: "Add"
  }
  node {
    input: "resnetv25_stage3__plus1"
    input: "resnetv25_stage3_batchnorm6_gamma"
    input: "resnetv25_stage3_batchnorm6_beta"
    input: "resnetv25_stage3_batchnorm6_running_mean"
    input: "resnetv25_stage3_batchnorm6_running_var"
    output: "resnetv25_stage3_batchnorm6_fwd"
    name: "resnetv25_stage3_batchnorm6_fwd"
    op_type: "BatchNormalization"
    attribute {
      name: "epsilon"
      f: 1e-05
      type: FLOAT
    }
    attribute {
      name: "momentum"
      f: 0.9
      type: FLOAT
    }
    attribute {
      name: "spatial"
      i: 1
      type: INT
    }
  }
  node {
    input: "resnetv25_stage3_batchnorm6_fwd"
    output: "resnetv25_stage3_activation6"
    name: "resnetv25_stage3_activation6"
    op_type: "Relu"
  }
  node {
    input: "resnetv25_stage3_activation6"
    input: "resnetv25_stage3_conv7_weight"
    output: "resnetv25_stage3_conv7_fwd"
    name: "resnetv25_stage3_conv7_fwd"
    op_type: "Conv"
    attribute {
      name: "dilations"
      ints: 1
      ints: 1
      type: INTS
    }
    attribute {
      name: "group"
      i: 1
      type: INT
    }
    attribute {
      name: "kernel_shape"
      ints: 1
      ints: 1
      type: INTS
    }
    attribute {
      name: "pads"
      ints: 0
      ints: 0
      ints: 0
      ints: 0
      type: INTS
    }
    attribute {
      name: "strides"
      ints: 1
      ints: 1
      type: INTS
    }
  }
  node {
    input: "resnetv25_stage3_conv7_fwd"
    input: "resnetv25_stage3_batchnorm7_gamma"
    input: "resnetv25_stage3_batchnorm7_beta"
    input: "resnetv25_stage3_batchnorm7_running_mean"
    input: "resnetv25_stage3_batchnorm7_running_var"
    output: "resnetv25_stage3_batchnorm7_fwd"
    name: "resnetv25_stage3_batchnorm7_fwd"
    op_type: "BatchNormalization"
    attribute {
      name: "epsilon"
      f: 1e-05
      type: FLOAT
    }
    attribute {
      name: "momentum"
      f: 0.9
      type: FLOAT
    }
    attribute {
      name: "spatial"
      i: 1
      type: INT
    }
  }
  node {
    input: "resnetv25_stage3_batchnorm7_fwd"
    output: "resnetv25_stage3_activation7"
    name: "resnetv25_stage3_activation7"
    op_type: "Relu"
  }
  node {
    input: "resnetv25_stage3_activation7"
    input: "resnetv25_stage3_conv8_weight"
    output: "resnetv25_stage3_conv8_fwd"
    name: "resnetv25_stage3_conv8_fwd"
    op_type: "Conv"
    attribute {
      name: "dilations"
      ints: 1
      ints: 1
      type: INTS
    }
    attribute {
      name: "group"
      i: 1
      type: INT
    }
    attribute {
      name: "kernel_shape"
      ints: 3
      ints: 3
      type: INTS
    }
    attribute {
      name: "pads"
      ints: 1
      ints: 1
      ints: 1
      ints: 1
      type: INTS
    }
    attribute {
      name: "strides"
      ints: 1
      ints: 1
      type: INTS
    }
  }
  node {
    input: "resnetv25_stage3_conv8_fwd"
    input: "resnetv25_stage3_batchnorm8_gamma"
    input: "resnetv25_stage3_batchnorm8_beta"
    input: "resnetv25_stage3_batchnorm8_running_mean"
    input: "resnetv25_stage3_batchnorm8_running_var"
    output: "resnetv25_stage3_batchnorm8_fwd"
    name: "resnetv25_stage3_batchnorm8_fwd"
    op_type: "BatchNormalization"
    attribute {
      name: "epsilon"
      f: 1e-05
      type: FLOAT
    }
    attribute {
      name: "momentum"
      f: 0.9
      type: FLOAT
    }
    attribute {
      name: "spatial"
      i: 1
      type: INT
    }
  }
  node {
    input: "resnetv25_stage3_batchnorm8_fwd"
    output: "resnetv25_stage3_activation8"
    name: "resnetv25_stage3_activation8"
    op_type: "Relu"
  }
  node {
    input: "resnetv25_stage3_activation8"
    input: "resnetv25_stage3_conv9_weight"
    output: "resnetv25_stage3_conv9_fwd"
    name: "resnetv25_stage3_conv9_fwd"
    op_type: "Conv"
    attribute {
      name: "dilations"
      ints: 1
      ints: 1
      type: INTS
    }
    attribute {
      name: "group"
      i: 1
      type: INT
    }
    attribute {
      name: "kernel_shape"
      ints: 1
      ints: 1
      type: INTS
    }
    attribute {
      name: "pads"
      ints: 0
      ints: 0
      ints: 0
      ints: 0
      type: INTS
    }
    attribute {
      name: "strides"
      ints: 1
      ints: 1
      type: INTS
    }
  }
  node {
    input: "resnetv25_stage3_conv9_fwd"
    input: "resnetv25_stage3__plus1"
    output: "resnetv25_stage3__plus2"
    name: "resnetv25_stage3__plus2"
    op_type: "Add"
  }
  node {
    input: "resnetv25_stage3__plus2"
    input: "resnetv25_stage3_batchnorm9_gamma"
    input: "resnetv25_stage3_batchnorm9_beta"
    input: "resnetv25_stage3_batchnorm9_running_mean"
    input: "resnetv25_stage3_batchnorm9_running_var"
    output: "resnetv25_stage3_batchnorm9_fwd"
    name: "resnetv25_stage3_batchnorm9_fwd"
    op_type: "BatchNormalization"
    attribute {
      name: "epsilon"
      f: 1e-05
      type: FLOAT
    }
    attribute {
      name: "momentum"
      f: 0.9
      type: FLOAT
    }
    attribute {
      name: "spatial"
      i: 1
      type: INT
    }
  }
  node {
    input: "resnetv25_stage3_batchnorm9_fwd"
    output: "resnetv25_stage3_activation9"
    name: "resnetv25_stage3_activation9"
    op_type: "Relu"
  }
  node {
    input: "resnetv25_stage3_activation9"
    input: "resnetv25_stage3_conv10_weight"
    output: "resnetv25_stage3_conv10_fwd"
    name: "resnetv25_stage3_conv10_fwd"
    op_type: "Conv"
    attribute {
      name: "dilations"
      ints: 1
      ints: 1
      type: INTS
    }
    attribute {
      name: "group"
      i: 1
      type: INT
    }
    attribute {
      name: "kernel_shape"
      ints: 1
      ints: 1
      type: INTS
    }
    attribute {
      name: "pads"
      ints: 0
      ints: 0
      ints: 0
      ints: 0
      type: INTS
    }
    attribute {
      name: "strides"
      ints: 1
      ints: 1
      type: INTS
    }
  }
  node {
    input: "resnetv25_stage3_conv10_fwd"
    input: "resnetv25_stage3_batchnorm10_gamma"
    input: "resnetv25_stage3_batchnorm10_beta"
    input: "resnetv25_stage3_batchnorm10_running_mean"
    input: "resnetv25_stage3_batchnorm10_running_var"
    output: "resnetv25_stage3_batchnorm10_fwd"
    name: "resnetv25_stage3_batchnorm10_fwd"
    op_type: "BatchNormalization"
    attribute {
      name: "epsilon"
      f: 1e-05
      type: FLOAT
    }
    attribute {
      name: "momentum"
      f: 0.9
      type: FLOAT
    }
    attribute {
      name: "spatial"
      i: 1
      type: INT
    }
  }
  node {
    input: "resnetv25_stage3_batchnorm10_fwd"
    output: "resnetv25_stage3_activation10"
    name: "resnetv25_stage3_activation10"
    op_type: "Relu"
  }
  node {
    input: "resnetv25_stage3_activation10"
    input: "resnetv25_stage3_conv11_weight"
    output: "resnetv25_stage3_conv11_fwd"
    name: "resnetv25_stage3_conv11_fwd"
    op_type: "Conv"
    attribute {
      name: "dilations"
      ints: 1
      ints: 1
      type: INTS
    }
    attribute {
      name: "group"
      i: 1
      type: INT
    }
    attribute {
      name: "kernel_shape"
      ints: 3
      ints: 3
      type: INTS
    }
    attribute {
      name: "pads"
      ints: 1
      ints: 1
      ints: 1
      ints: 1
      type: INTS
    }
    attribute {
      name: "strides"
      ints: 1
      ints: 1
      type: INTS
    }
  }
  node {
    input: "resnetv25_stage3_conv11_fwd"
    input: "resnetv25_stage3_batchnorm11_gamma"
    input: "resnetv25_stage3_batchnorm11_beta"
    input: "resnetv25_stage3_batchnorm11_running_mean"
    input: "resnetv25_stage3_batchnorm11_running_var"
    output: "resnetv25_stage3_batchnorm11_fwd"
    name: "resnetv25_stage3_batchnorm11_fwd"
    op_type: "BatchNormalization"
    attribute {
      name: "epsilon"
      f: 1e-05
      type: FLOAT
    }
    attribute {
      name: "momentum"
      f: 0.9
      type: FLOAT
    }
    attribute {
      name: "spatial"
      i: 1
      type: INT
    }
  }
  node {
    input: "resnetv25_stage3_batchnorm11_fwd"
    output: "resnetv25_stage3_activation11"
    name: "resnetv25_stage3_activation11"
    op_type: "Relu"
  }
  node {
    input: "resnetv25_stage3_activation11"
    input: "resnetv25_stage3_conv12_weight"
    output: "resnetv25_stage3_conv12_fwd"
    name: "resnetv25_stage3_conv12_fwd"
    op_type: "Conv"
    attribute {
      name: "dilations"
      ints: 1
      ints: 1
      type: INTS
    }
    attribute {
      name: "group"
      i: 1
      type: INT
    }
    attribute {
      name: "kernel_shape"
      ints: 1
      ints: 1
      type: INTS
    }
    attribute {
      name: "pads"
      ints: 0
      ints: 0
      ints: 0
      ints: 0
      type: INTS
    }
    attribute {
      name: "strides"
      ints: 1
      ints: 1
      type: INTS
    }
  }
  node {
    input: "resnetv25_stage3_conv12_fwd"
    input: "resnetv25_stage3__plus2"
    output: "resnetv25_stage3__plus3"
    name: "resnetv25_stage3__plus3"
    op_type: "Add"
  }
  node {
    input: "resnetv25_stage3__plus3"
    input: "resnetv25_stage3_batchnorm12_gamma"
    input: "resnetv25_stage3_batchnorm12_beta"
    input: "resnetv25_stage3_batchnorm12_running_mean"
    input: "resnetv25_stage3_batchnorm12_running_var"
    output: "resnetv25_stage3_batchnorm12_fwd"
    name: "resnetv25_stage3_batchnorm12_fwd"
    op_type: "BatchNormalization"
    attribute {
      name: "epsilon"
      f: 1e-05
      type: FLOAT
    }
    attribute {
      name: "momentum"
      f: 0.9
      type: FLOAT
    }
    attribute {
      name: "spatial"
      i: 1
      type: INT
    }
  }
  node {
    input: "resnetv25_stage3_batchnorm12_fwd"
    output: "resnetv25_stage3_activation12"
    name: "resnetv25_stage3_activation12"
    op_type: "Relu"
  }
  node {
    input: "resnetv25_stage3_activation12"
    input: "resnetv25_stage3_conv13_weight"
    output: "resnetv25_stage3_conv13_fwd"
    name: "resnetv25_stage3_conv13_fwd"
    op_type: "Conv"
    attribute {
      name: "dilations"
      ints: 1
      ints: 1
      type: INTS
    }
    attribute {
      name: "group"
      i: 1
      type: INT
    }
    attribute {
      name: "kernel_shape"
      ints: 1
      ints: 1
      type: INTS
    }
    attribute {
      name: "pads"
      ints: 0
      ints: 0
      ints: 0
      ints: 0
      type: INTS
    }
    attribute {
      name: "strides"
      ints: 1
      ints: 1
      type: INTS
    }
  }
  node {
    input: "resnetv25_stage3_conv13_fwd"
    input: "resnetv25_stage3_batchnorm13_gamma"
    input: "resnetv25_stage3_batchnorm13_beta"
    input: "resnetv25_stage3_batchnorm13_running_mean"
    input: "resnetv25_stage3_batchnorm13_running_var"
    output: "resnetv25_stage3_batchnorm13_fwd"
    name: "resnetv25_stage3_batchnorm13_fwd"
    op_type: "BatchNormalization"
    attribute {
      name: "epsilon"
      f: 1e-05
      type: FLOAT
    }
    attribute {
      name: "momentum"
      f: 0.9
      type: FLOAT
    }
    attribute {
      name: "spatial"
      i: 1
      type: INT
    }
  }
  node {
    input: "resnetv25_stage3_batchnorm13_fwd"
    output: "resnetv25_stage3_activation13"
    name: "resnetv25_stage3_activation13"
    op_type: "Relu"
  }
  node {
    input: "resnetv25_stage3_activation13"
    input: "resnetv25_stage3_conv14_weight"
    output: "resnetv25_stage3_conv14_fwd"
    name: "resnetv25_stage3_conv14_fwd"
    op_type: "Conv"
    attribute {
      name: "dilations"
      ints: 1
      ints: 1
      type: INTS
    }
    attribute {
      name: "group"
      i: 1
      type: INT
    }
    attribute {
      name: "kernel_shape"
      ints: 3
      ints: 3
      type: INTS
    }
    attribute {
      name: "pads"
      ints: 1
      ints: 1
      ints: 1
      ints: 1
      type: INTS
    }
    attribute {
      name: "strides"
      ints: 1
      ints: 1
      type: INTS
    }
  }
  node {
    input: "resnetv25_stage3_conv14_fwd"
    input: "resnetv25_stage3_batchnorm14_gamma"
    input: "resnetv25_stage3_batchnorm14_beta"
    input: "resnetv25_stage3_batchnorm14_running_mean"
    input: "resnetv25_stage3_batchnorm14_running_var"
    output: "resnetv25_stage3_batchnorm14_fwd"
    name: "resnetv25_stage3_batchnorm14_fwd"
    op_type: "BatchNormalization"
    attribute {
      name: "epsilon"
      f: 1e-05
      type: FLOAT
    }
    attribute {
      name: "momentum"
      f: 0.9
      type: FLOAT
    }
    attribute {
      name: "spatial"
      i: 1
      type: INT
    }
  }
  node {
    input: "resnetv25_stage3_batchnorm14_fwd"
    output: "resnetv25_stage3_activation14"
    name: "resnetv25_stage3_activation14"
    op_type: "Relu"
  }
  node {
    input: "resnetv25_stage3_activation14"
    input: "resnetv25_stage3_conv15_weight"
    output: "resnetv25_stage3_conv15_fwd"
    name: "resnetv25_stage3_conv15_fwd"
    op_type: "Conv"
    attribute {
      name: "dilations"
      ints: 1
      ints: 1
      type: INTS
    }
    attribute {
      name: "group"
      i: 1
      type: INT
    }
    attribute {
      name: "kernel_shape"
      ints: 1
      ints: 1
      type: INTS
    }
    attribute {
      name: "pads"
      ints: 0
      ints: 0
      ints: 0
      ints: 0
      type: INTS
    }
    attribute {
      name: "strides"
      ints: 1
      ints: 1
      type: INTS
    }
  }
  node {
    input: "resnetv25_stage3_conv15_fwd"
    input: "resnetv25_stage3__plus3"
    output: "resnetv25_stage3__plus4"
    name: "resnetv25_stage3__plus4"
    op_type: "Add"
  }
  node {
    input: "resnetv25_stage3__plus4"
    input: "resnetv25_stage3_batchnorm15_gamma"
    input: "resnetv25_stage3_batchnorm15_beta"
    input: "resnetv25_stage3_batchnorm15_running_mean"
    input: "resnetv25_stage3_batchnorm15_running_var"
    output: "resnetv25_stage3_batchnorm15_fwd"
    name: "resnetv25_stage3_batchnorm15_fwd"
    op_type: "BatchNormalization"
    attribute {
      name: "epsilon"
      f: 1e-05
      type: FLOAT
    }
    attribute {
      name: "momentum"
      f: 0.9
      type: FLOAT
    }
    attribute {
      name: "spatial"
      i: 1
      type: INT
    }
  }
  node {
    input: "resnetv25_stage3_batchnorm15_fwd"
    output: "resnetv25_stage3_activation15"
    name: "resnetv25_stage3_activation15"
    op_type: "Relu"
  }
  node {
    input: "resnetv25_stage3_activation15"
    input: "resnetv25_stage3_conv16_weight"
    output: "resnetv25_stage3_conv16_fwd"
    name: "resnetv25_stage3_conv16_fwd"
    op_type: "Conv"
    attribute {
      name: "dilations"
      ints: 1
      ints: 1
      type: INTS
    }
    attribute {
      name: "group"
      i: 1
      type: INT
    }
    attribute {
      name: "kernel_shape"
      ints: 1
      ints: 1
      type: INTS
    }
    attribute {
      name: "pads"
      ints: 0
      ints: 0
      ints: 0
      ints: 0
      type: INTS
    }
    attribute {
      name: "strides"
      ints: 1
      ints: 1
      type: INTS
    }
  }
  node {
    input: "resnetv25_stage3_conv16_fwd"
    input: "resnetv25_stage3_batchnorm16_gamma"
    input: "resnetv25_stage3_batchnorm16_beta"
    input: "resnetv25_stage3_batchnorm16_running_mean"
    input: "resnetv25_stage3_batchnorm16_running_var"
    output: "resnetv25_stage3_batchnorm16_fwd"
    name: "resnetv25_stage3_batchnorm16_fwd"
    op_type: "BatchNormalization"
    attribute {
      name: "epsilon"
      f: 1e-05
      type: FLOAT
    }
    attribute {
      name: "momentum"
      f: 0.9
      type: FLOAT
    }
    attribute {
      name: "spatial"
      i: 1
      type: INT
    }
  }
  node {
    input: "resnetv25_stage3_batchnorm16_fwd"
    output: "resnetv25_stage3_activation16"
    name: "resnetv25_stage3_activation16"
    op_type: "Relu"
  }
  node {
    input: "resnetv25_stage3_activation16"
    input: "resnetv25_stage3_conv17_weight"
    output: "resnetv25_stage3_conv17_fwd"
    name: "resnetv25_stage3_conv17_fwd"
    op_type: "Conv"
    attribute {
      name: "dilations"
      ints: 1
      ints: 1
      type: INTS
    }
    attribute {
      name: "group"
      i: 1
      type: INT
    }
    attribute {
      name: "kernel_shape"
      ints: 3
      ints: 3
      type: INTS
    }
    attribute {
      name: "pads"
      ints: 1
      ints: 1
      ints: 1
      ints: 1
      type: INTS
    }
    attribute {
      name: "strides"
      ints: 1
      ints: 1
      type: INTS
    }
  }
  node {
    input: "resnetv25_stage3_conv17_fwd"
    input: "resnetv25_stage3_batchnorm17_gamma"
    input: "resnetv25_stage3_batchnorm17_beta"
    input: "resnetv25_stage3_batchnorm17_running_mean"
    input: "resnetv25_stage3_batchnorm17_running_var"
    output: "resnetv25_stage3_batchnorm17_fwd"
    name: "resnetv25_stage3_batchnorm17_fwd"
    op_type: "BatchNormalization"
    attribute {
      name: "epsilon"
      f: 1e-05
      type: FLOAT
    }
    attribute {
      name: "momentum"
      f: 0.9
      type: FLOAT
    }
    attribute {
      name: "spatial"
      i: 1
      type: INT
    }
  }
  node {
    input: "resnetv25_stage3_batchnorm17_fwd"
    output: "resnetv25_stage3_activation17"
    name: "resnetv25_stage3_activation17"
    op_type: "Relu"
  }
  node {
    input: "resnetv25_stage3_activation17"
    input: "resnetv25_stage3_conv18_weight"
    output: "resnetv25_stage3_conv18_fwd"
    name: "resnetv25_stage3_conv18_fwd"
    op_type: "Conv"
    attribute {
      name: "dilations"
      ints: 1
      ints: 1
      type: INTS
    }
    attribute {
      name: "group"
      i: 1
      type: INT
    }
    attribute {
      name: "kernel_shape"
      ints: 1
      ints: 1
      type: INTS
    }
    attribute {
      name: "pads"
      ints: 0
      ints: 0
      ints: 0
      ints: 0
      type: INTS
    }
    attribute {
      name: "strides"
      ints: 1
      ints: 1
      type: INTS
    }
  }
  node {
    input: "resnetv25_stage3_conv18_fwd"
    input: "resnetv25_stage3__plus4"
    output: "resnetv25_stage3__plus5"
    name: "resnetv25_stage3__plus5"
    op_type: "Add"
  }
  node {
    input: "resnetv25_stage3__plus5"
    input: "resnetv25_stage3_batchnorm18_gamma"
    input: "resnetv25_stage3_batchnorm18_beta"
    input: "resnetv25_stage3_batchnorm18_running_mean"
    input: "resnetv25_stage3_batchnorm18_running_var"
    output: "resnetv25_stage3_batchnorm18_fwd"
    name: "resnetv25_stage3_batchnorm18_fwd"
    op_type: "BatchNormalization"
    attribute {
      name: "epsilon"
      f: 1e-05
      type: FLOAT
    }
    attribute {
      name: "momentum"
      f: 0.9
      type: FLOAT
    }
    attribute {
      name: "spatial"
      i: 1
      type: INT
    }
  }
  node {
    input: "resnetv25_stage3_batchnorm18_fwd"
    output: "resnetv25_stage3_activation18"
    name: "resnetv25_stage3_activation18"
    op_type: "Relu"
  }
  node {
    input: "resnetv25_stage3_activation18"
    input: "resnetv25_stage3_conv19_weight"
    output: "resnetv25_stage3_conv19_fwd"
    name: "resnetv25_stage3_conv19_fwd"
    op_type: "Conv"
    attribute {
      name: "dilations"
      ints: 1
      ints: 1
      type: INTS
    }
    attribute {
      name: "group"
      i: 1
      type: INT
    }
    attribute {
      name: "kernel_shape"
      ints: 1
      ints: 1
      type: INTS
    }
    attribute {
      name: "pads"
      ints: 0
      ints: 0
      ints: 0
      ints: 0
      type: INTS
    }
    attribute {
      name: "strides"
      ints: 1
      ints: 1
      type: INTS
    }
  }
  node {
    input: "resnetv25_stage3_conv19_fwd"
    input: "resnetv25_stage3_batchnorm19_gamma"
    input: "resnetv25_stage3_batchnorm19_beta"
    input: "resnetv25_stage3_batchnorm19_running_mean"
    input: "resnetv25_stage3_batchnorm19_running_var"
    output: "resnetv25_stage3_batchnorm19_fwd"
    name: "resnetv25_stage3_batchnorm19_fwd"
    op_type: "BatchNormalization"
    attribute {
      name: "epsilon"
      f: 1e-05
      type: FLOAT
    }
    attribute {
      name: "momentum"
      f: 0.9
      type: FLOAT
    }
    attribute {
      name: "spatial"
      i: 1
      type: INT
    }
  }
  node {
    input: "resnetv25_stage3_batchnorm19_fwd"
    output: "resnetv25_stage3_activation19"
    name: "resnetv25_stage3_activation19"
    op_type: "Relu"
  }
  node {
    input: "resnetv25_stage3_activation19"
    input: "resnetv25_stage3_conv20_weight"
    output: "resnetv25_stage3_conv20_fwd"
    name: "resnetv25_stage3_conv20_fwd"
    op_type: "Conv"
    attribute {
      name: "dilations"
      ints: 1
      ints: 1
      type: INTS
    }
    attribute {
      name: "group"
      i: 1
      type: INT
    }
    attribute {
      name: "kernel_shape"
      ints: 3
      ints: 3
      type: INTS
    }
    attribute {
      name: "pads"
      ints: 1
      ints: 1
      ints: 1
      ints: 1
      type: INTS
    }
    attribute {
      name: "strides"
      ints: 1
      ints: 1
      type: INTS
    }
  }
  node {
    input: "resnetv25_stage3_conv20_fwd"
    input: "resnetv25_stage3_batchnorm20_gamma"
    input: "resnetv25_stage3_batchnorm20_beta"
    input: "resnetv25_stage3_batchnorm20_running_mean"
    input: "resnetv25_stage3_batchnorm20_running_var"
    output: "resnetv25_stage3_batchnorm20_fwd"
    name: "resnetv25_stage3_batchnorm20_fwd"
    op_type: "BatchNormalization"
    attribute {
      name: "epsilon"
      f: 1e-05
      type: FLOAT
    }
    attribute {
      name: "momentum"
      f: 0.9
      type: FLOAT
    }
    attribute {
      name: "spatial"
      i: 1
      type: INT
    }
  }
  node {
    input: "resnetv25_stage3_batchnorm20_fwd"
    output: "resnetv25_stage3_activation20"
    name: "resnetv25_stage3_activation20"
    op_type: "Relu"
  }
  node {
    input: "resnetv25_stage3_activation20"
    input: "resnetv25_stage3_conv21_weight"
    output: "resnetv25_stage3_conv21_fwd"
    name: "resnetv25_stage3_conv21_fwd"
    op_type: "Conv"
    attribute {
      name: "dilations"
      ints: 1
      ints: 1
      type: INTS
    }
    attribute {
      name: "group"
      i: 1
      type: INT
    }
    attribute {
      name: "kernel_shape"
      ints: 1
      ints: 1
      type: INTS
    }
    attribute {
      name: "pads"
      ints: 0
      ints: 0
      ints: 0
      ints: 0
      type: INTS
    }
    attribute {
      name: "strides"
      ints: 1
      ints: 1
      type: INTS
    }
  }
  node {
    input: "resnetv25_stage3_conv21_fwd"
    input: "resnetv25_stage3__plus5"
    output: "resnetv25_stage3__plus6"
    name: "resnetv25_stage3__plus6"
    op_type: "Add"
  }
  node {
    input: "resnetv25_stage3__plus6"
    input: "resnetv25_stage3_batchnorm21_gamma"
    input: "resnetv25_stage3_batchnorm21_beta"
    input: "resnetv25_stage3_batchnorm21_running_mean"
    input: "resnetv25_stage3_batchnorm21_running_var"
    output: "resnetv25_stage3_batchnorm21_fwd"
    name: "resnetv25_stage3_batchnorm21_fwd"
    op_type: "BatchNormalization"
    attribute {
      name: "epsilon"
      f: 1e-05
      type: FLOAT
    }
    attribute {
      name: "momentum"
      f: 0.9
      type: FLOAT
    }
    attribute {
      name: "spatial"
      i: 1
      type: INT
    }
  }
  node {
    input: "resnetv25_stage3_batchnorm21_fwd"
    output: "resnetv25_stage3_activation21"
    name: "resnetv25_stage3_activation21"
    op_type: "Relu"
  }
  node {
    input: "resnetv25_stage3_activation21"
    input: "resnetv25_stage3_conv22_weight"
    output: "resnetv25_stage3_conv22_fwd"
    name: "resnetv25_stage3_conv22_fwd"
    op_type: "Conv"
    attribute {
      name: "dilations"
      ints: 1
      ints: 1
      type: INTS
    }
    attribute {
      name: "group"
      i: 1
      type: INT
    }
    attribute {
      name: "kernel_shape"
      ints: 1
      ints: 1
      type: INTS
    }
    attribute {
      name: "pads"
      ints: 0
      ints: 0
      ints: 0
      ints: 0
      type: INTS
    }
    attribute {
      name: "strides"
      ints: 1
      ints: 1
      type: INTS
    }
  }
  node {
    input: "resnetv25_stage3_conv22_fwd"
    input: "resnetv25_stage3_batchnorm22_gamma"
    input: "resnetv25_stage3_batchnorm22_beta"
    input: "resnetv25_stage3_batchnorm22_running_mean"
    input: "resnetv25_stage3_batchnorm22_running_var"
    output: "resnetv25_stage3_batchnorm22_fwd"
    name: "resnetv25_stage3_batchnorm22_fwd"
    op_type: "BatchNormalization"
    attribute {
      name: "epsilon"
      f: 1e-05
      type: FLOAT
    }
    attribute {
      name: "momentum"
      f: 0.9
      type: FLOAT
    }
    attribute {
      name: "spatial"
      i: 1
      type: INT
    }
  }
  node {
    input: "resnetv25_stage3_batchnorm22_fwd"
    output: "resnetv25_stage3_activation22"
    name: "resnetv25_stage3_activation22"
    op_type: "Relu"
  }
  node {
    input: "resnetv25_stage3_activation22"
    input: "resnetv25_stage3_conv23_weight"
    output: "resnetv25_stage3_conv23_fwd"
    name: "resnetv25_stage3_conv23_fwd"
    op_type: "Conv"
    attribute {
      name: "dilations"
      ints: 1
      ints: 1
      type: INTS
    }
    attribute {
      name: "group"
      i: 1
      type: INT
    }
    attribute {
      name: "kernel_shape"
      ints: 3
      ints: 3
      type: INTS
    }
    attribute {
      name: "pads"
      ints: 1
      ints: 1
      ints: 1
      ints: 1
      type: INTS
    }
    attribute {
      name: "strides"
      ints: 1
      ints: 1
      type: INTS
    }
  }
  node {
    input: "resnetv25_stage3_conv23_fwd"
    input: "resnetv25_stage3_batchnorm23_gamma"
    input: "resnetv25_stage3_batchnorm23_beta"
    input: "resnetv25_stage3_batchnorm23_running_mean"
    input: "resnetv25_stage3_batchnorm23_running_var"
    output: "resnetv25_stage3_batchnorm23_fwd"
    name: "resnetv25_stage3_batchnorm23_fwd"
    op_type: "BatchNormalization"
    attribute {
      name: "epsilon"
      f: 1e-05
      type: FLOAT
    }
    attribute {
      name: "momentum"
      f: 0.9
      type: FLOAT
    }
    attribute {
      name: "spatial"
      i: 1
      type: INT
    }
  }
  node {
    input: "resnetv25_stage3_batchnorm23_fwd"
    output: "resnetv25_stage3_activation23"
    name: "resnetv25_stage3_activation23"
    op_type: "Relu"
  }
  node {
    input: "resnetv25_stage3_activation23"
    input: "resnetv25_stage3_conv24_weight"
    output: "resnetv25_stage3_conv24_fwd"
    name: "resnetv25_stage3_conv24_fwd"
    op_type: "Conv"
    attribute {
      name: "dilations"
      ints: 1
      ints: 1
      type: INTS
    }
    attribute {
      name: "group"
      i: 1
      type: INT
    }
    attribute {
      name: "kernel_shape"
      ints: 1
      ints: 1
      type: INTS
    }
    attribute {
      name: "pads"
      ints: 0
      ints: 0
      ints: 0
      ints: 0
      type: INTS
    }
    attribute {
      name: "strides"
      ints: 1
      ints: 1
      type: INTS
    }
  }
  node {
    input: "resnetv25_stage3_conv24_fwd"
    input: "resnetv25_stage3__plus6"
    output: "resnetv25_stage3__plus7"
    name: "resnetv25_stage3__plus7"
    op_type: "Add"
  }
  node {
    input: "resnetv25_stage3__plus7"
    input: "resnetv25_stage3_batchnorm24_gamma"
    input: "resnetv25_stage3_batchnorm24_beta"
    input: "resnetv25_stage3_batchnorm24_running_mean"
    input: "resnetv25_stage3_batchnorm24_running_var"
    output: "resnetv25_stage3_batchnorm24_fwd"
    name: "resnetv25_stage3_batchnorm24_fwd"
    op_type: "BatchNormalization"
    attribute {
      name: "epsilon"
      f: 1e-05
      type: FLOAT
    }
    attribute {
      name: "momentum"
      f: 0.9
      type: FLOAT
    }
    attribute {
      name: "spatial"
      i: 1
      type: INT
    }
  }
  node {
    input: "resnetv25_stage3_batchnorm24_fwd"
    output: "resnetv25_stage3_activation24"
    name: "resnetv25_stage3_activation24"
    op_type: "Relu"
  }
  node {
    input: "resnetv25_stage3_activation24"
    input: "resnetv25_stage3_conv25_weight"
    output: "resnetv25_stage3_conv25_fwd"
    name: "resnetv25_stage3_conv25_fwd"
    op_type: "Conv"
    attribute {
      name: "dilations"
      ints: 1
      ints: 1
      type: INTS
    }
    attribute {
      name: "group"
      i: 1
      type: INT
    }
    attribute {
      name: "kernel_shape"
      ints: 1
      ints: 1
      type: INTS
    }
    attribute {
      name: "pads"
      ints: 0
      ints: 0
      ints: 0
      ints: 0
      type: INTS
    }
    attribute {
      name: "strides"
      ints: 1
      ints: 1
      type: INTS
    }
  }
  node {
    input: "resnetv25_stage3_conv25_fwd"
    input: "resnetv25_stage3_batchnorm25_gamma"
    input: "resnetv25_stage3_batchnorm25_beta"
    input: "resnetv25_stage3_batchnorm25_running_mean"
    input: "resnetv25_stage3_batchnorm25_running_var"
    output: "resnetv25_stage3_batchnorm25_fwd"
    name: "resnetv25_stage3_batchnorm25_fwd"
    op_type: "BatchNormalization"
    attribute {
      name: "epsilon"
      f: 1e-05
      type: FLOAT
    }
    attribute {
      name: "momentum"
      f: 0.9
      type: FLOAT
    }
    attribute {
      name: "spatial"
      i: 1
      type: INT
    }
  }
  node {
    input: "resnetv25_stage3_batchnorm25_fwd"
    output: "resnetv25_stage3_activation25"
    name: "resnetv25_stage3_activation25"
    op_type: "Relu"
  }
  node {
    input: "resnetv25_stage3_activation25"
    input: "resnetv25_stage3_conv26_weight"
    output: "resnetv25_stage3_conv26_fwd"
    name: "resnetv25_stage3_conv26_fwd"
    op_type: "Conv"
    attribute {
      name: "dilations"
      ints: 1
      ints: 1
      type: INTS
    }
    attribute {
      name: "group"
      i: 1
      type: INT
    }
    attribute {
      name: "kernel_shape"
      ints: 3
      ints: 3
      type: INTS
    }
    attribute {
      name: "pads"
      ints: 1
      ints: 1
      ints: 1
      ints: 1
      type: INTS
    }
    attribute {
      name: "strides"
      ints: 1
      ints: 1
      type: INTS
    }
  }
  node {
    input: "resnetv25_stage3_conv26_fwd"
    input: "resnetv25_stage3_batchnorm26_gamma"
    input: "resnetv25_stage3_batchnorm26_beta"
    input: "resnetv25_stage3_batchnorm26_running_mean"
    input: "resnetv25_stage3_batchnorm26_running_var"
    output: "resnetv25_stage3_batchnorm26_fwd"
    name: "resnetv25_stage3_batchnorm26_fwd"
    op_type: "BatchNormalization"
    attribute {
      name: "epsilon"
      f: 1e-05
      type: FLOAT
    }
    attribute {
      name: "momentum"
      f: 0.9
      type: FLOAT
    }
    attribute {
      name: "spatial"
      i: 1
      type: INT
    }
  }
  node {
    input: "resnetv25_stage3_batchnorm26_fwd"
    output: "resnetv25_stage3_activation26"
    name: "resnetv25_stage3_activation26"
    op_type: "Relu"
  }
  node {
    input: "resnetv25_stage3_activation26"
    input: "resnetv25_stage3_conv27_weight"
    output: "resnetv25_stage3_conv27_fwd"
    name: "resnetv25_stage3_conv27_fwd"
    op_type: "Conv"
    attribute {
      name: "dilations"
      ints: 1
      ints: 1
      type: INTS
    }
    attribute {
      name: "group"
      i: 1
      type: INT
    }
    attribute {
      name: "kernel_shape"
      ints: 1
      ints: 1
      type: INTS
    }
    attribute {
      name: "pads"
      ints: 0
      ints: 0
      ints: 0
      ints: 0
      type: INTS
    }
    attribute {
      name: "strides"
      ints: 1
      ints: 1
      type: INTS
    }
  }
  node {
    input: "resnetv25_stage3_conv27_fwd"
    input: "resnetv25_stage3__plus7"
    output: "resnetv25_stage3__plus8"
    name: "resnetv25_stage3__plus8"
    op_type: "Add"
  }
  node {
    input: "resnetv25_stage3__plus8"
    input: "resnetv25_stage3_batchnorm27_gamma"
    input: "resnetv25_stage3_batchnorm27_beta"
    input: "resnetv25_stage3_batchnorm27_running_mean"
    input: "resnetv25_stage3_batchnorm27_running_var"
    output: "resnetv25_stage3_batchnorm27_fwd"
    name: "resnetv25_stage3_batchnorm27_fwd"
    op_type: "BatchNormalization"
    attribute {
      name: "epsilon"
      f: 1e-05
      type: FLOAT
    }
    attribute {
      name: "momentum"
      f: 0.9
      type: FLOAT
    }
    attribute {
      name: "spatial"
      i: 1
      type: INT
    }
  }
  node {
    input: "resnetv25_stage3_batchnorm27_fwd"
    output: "resnetv25_stage3_activation27"
    name: "resnetv25_stage3_activation27"
    op_type: "Relu"
  }
  node {
    input: "resnetv25_stage3_activation27"
    input: "resnetv25_stage3_conv28_weight"
    output: "resnetv25_stage3_conv28_fwd"
    name: "resnetv25_stage3_conv28_fwd"
    op_type: "Conv"
    attribute {
      name: "dilations"
      ints: 1
      ints: 1
      type: INTS
    }
    attribute {
      name: "group"
      i: 1
      type: INT
    }
    attribute {
      name: "kernel_shape"
      ints: 1
      ints: 1
      type: INTS
    }
    attribute {
      name: "pads"
      ints: 0
      ints: 0
      ints: 0
      ints: 0
      type: INTS
    }
    attribute {
      name: "strides"
      ints: 1
      ints: 1
      type: INTS
    }
  }
  node {
    input: "resnetv25_stage3_conv28_fwd"
    input: "resnetv25_stage3_batchnorm28_gamma"
    input: "resnetv25_stage3_batchnorm28_beta"
    input: "resnetv25_stage3_batchnorm28_running_mean"
    input: "resnetv25_stage3_batchnorm28_running_var"
    output: "resnetv25_stage3_batchnorm28_fwd"
    name: "resnetv25_stage3_batchnorm28_fwd"
    op_type: "BatchNormalization"
    attribute {
      name: "epsilon"
      f: 1e-05
      type: FLOAT
    }
    attribute {
      name: "momentum"
      f: 0.9
      type: FLOAT
    }
    attribute {
      name: "spatial"
      i: 1
      type: INT
    }
  }
  node {
    input: "resnetv25_stage3_batchnorm28_fwd"
    output: "resnetv25_stage3_activation28"
    name: "resnetv25_stage3_activation28"
    op_type: "Relu"
  }
  node {
    input: "resnetv25_stage3_activation28"
    input: "resnetv25_stage3_conv29_weight"
    output: "resnetv25_stage3_conv29_fwd"
    name: "resnetv25_stage3_conv29_fwd"
    op_type: "Conv"
    attribute {
      name: "dilations"
      ints: 1
      ints: 1
      type: INTS
    }
    attribute {
      name: "group"
      i: 1
      type: INT
    }
    attribute {
      name: "kernel_shape"
      ints: 3
      ints: 3
      type: INTS
    }
    attribute {
      name: "pads"
      ints: 1
      ints: 1
      ints: 1
      ints: 1
      type: INTS
    }
    attribute {
      name: "strides"
      ints: 1
      ints: 1
      type: INTS
    }
  }
  node {
    input: "resnetv25_stage3_conv29_fwd"
    input: "resnetv25_stage3_batchnorm29_gamma"
    input: "resnetv25_stage3_batchnorm29_beta"
    input: "resnetv25_stage3_batchnorm29_running_mean"
    input: "resnetv25_stage3_batchnorm29_running_var"
    output: "resnetv25_stage3_batchnorm29_fwd"
    name: "resnetv25_stage3_batchnorm29_fwd"
    op_type: "BatchNormalization"
    attribute {
      name: "epsilon"
      f: 1e-05
      type: FLOAT
    }
    attribute {
      name: "momentum"
      f: 0.9
      type: FLOAT
    }
    attribute {
      name: "spatial"
      i: 1
      type: INT
    }
  }
  node {
    input: "resnetv25_stage3_batchnorm29_fwd"
    output: "resnetv25_stage3_activation29"
    name: "resnetv25_stage3_activation29"
    op_type: "Relu"
  }
  node {
    input: "resnetv25_stage3_activation29"
    input: "resnetv25_stage3_conv30_weight"
    output: "resnetv25_stage3_conv30_fwd"
    name: "resnetv25_stage3_conv30_fwd"
    op_type: "Conv"
    attribute {
      name: "dilations"
      ints: 1
      ints: 1
      type: INTS
    }
    attribute {
      name: "group"
      i: 1
      type: INT
    }
    attribute {
      name: "kernel_shape"
      ints: 1
      ints: 1
      type: INTS
    }
    attribute {
      name: "pads"
      ints: 0
      ints: 0
      ints: 0
      ints: 0
      type: INTS
    }
    attribute {
      name: "strides"
      ints: 1
      ints: 1
      type: INTS
    }
  }
  node {
    input: "resnetv25_stage3_conv30_fwd"
    input: "resnetv25_stage3__plus8"
    output: "resnetv25_stage3__plus9"
    name: "resnetv25_stage3__plus9"
    op_type: "Add"
  }
  node {
    input: "resnetv25_stage3__plus9"
    input: "resnetv25_stage3_batchnorm30_gamma"
    input: "resnetv25_stage3_batchnorm30_beta"
    input: "resnetv25_stage3_batchnorm30_running_mean"
    input: "resnetv25_stage3_batchnorm30_running_var"
    output: "resnetv25_stage3_batchnorm30_fwd"
    name: "resnetv25_stage3_batchnorm30_fwd"
    op_type: "BatchNormalization"
    attribute {
      name: "epsilon"
      f: 1e-05
      type: FLOAT
    }
    attribute {
      name: "momentum"
      f: 0.9
      type: FLOAT
    }
    attribute {
      name: "spatial"
      i: 1
      type: INT
    }
  }
  node {
    input: "resnetv25_stage3_batchnorm30_fwd"
    output: "resnetv25_stage3_activation30"
    name: "resnetv25_stage3_activation30"
    op_type: "Relu"
  }
  node {
    input: "resnetv25_stage3_activation30"
    input: "resnetv25_stage3_conv31_weight"
    output: "resnetv25_stage3_conv31_fwd"
    name: "resnetv25_stage3_conv31_fwd"
    op_type: "Conv"
    attribute {
      name: "dilations"
      ints: 1
      ints: 1
      type: INTS
    }
    attribute {
      name: "group"
      i: 1
      type: INT
    }
    attribute {
      name: "kernel_shape"
      ints: 1
      ints: 1
      type: INTS
    }
    attribute {
      name: "pads"
      ints: 0
      ints: 0
      ints: 0
      ints: 0
      type: INTS
    }
    attribute {
      name: "strides"
      ints: 1
      ints: 1
      type: INTS
    }
  }
  node {
    input: "resnetv25_stage3_conv31_fwd"
    input: "resnetv25_stage3_batchnorm31_gamma"
    input: "resnetv25_stage3_batchnorm31_beta"
    input: "resnetv25_stage3_batchnorm31_running_mean"
    input: "resnetv25_stage3_batchnorm31_running_var"
    output: "resnetv25_stage3_batchnorm31_fwd"
    name: "resnetv25_stage3_batchnorm31_fwd"
    op_type: "BatchNormalization"
    attribute {
      name: "epsilon"
      f: 1e-05
      type: FLOAT
    }
    attribute {
      name: "momentum"
      f: 0.9
      type: FLOAT
    }
    attribute {
      name: "spatial"
      i: 1
      type: INT
    }
  }
  node {
    input: "resnetv25_stage3_batchnorm31_fwd"
    output: "resnetv25_stage3_activation31"
    name: "resnetv25_stage3_activation31"
    op_type: "Relu"
  }
  node {
    input: "resnetv25_stage3_activation31"
    input: "resnetv25_stage3_conv32_weight"
    output: "resnetv25_stage3_conv32_fwd"
    name: "resnetv25_stage3_conv32_fwd"
    op_type: "Conv"
    attribute {
      name: "dilations"
      ints: 1
      ints: 1
      type: INTS
    }
    attribute {
      name: "group"
      i: 1
      type: INT
    }
    attribute {
      name: "kernel_shape"
      ints: 3
      ints: 3
      type: INTS
    }
    attribute {
      name: "pads"
      ints: 1
      ints: 1
      ints: 1
      ints: 1
      type: INTS
    }
    attribute {
      name: "strides"
      ints: 1
      ints: 1
      type: INTS
    }
  }
  node {
    input: "resnetv25_stage3_conv32_fwd"
    input: "resnetv25_stage3_batchnorm32_gamma"
    input: "resnetv25_stage3_batchnorm32_beta"
    input: "resnetv25_stage3_batchnorm32_running_mean"
    input: "resnetv25_stage3_batchnorm32_running_var"
    output: "resnetv25_stage3_batchnorm32_fwd"
    name: "resnetv25_stage3_batchnorm32_fwd"
    op_type: "BatchNormalization"
    attribute {
      name: "epsilon"
      f: 1e-05
      type: FLOAT
    }
    attribute {
      name: "momentum"
      f: 0.9
      type: FLOAT
    }
    attribute {
      name: "spatial"
      i: 1
      type: INT
    }
  }
  node {
    input: "resnetv25_stage3_batchnorm32_fwd"
    output: "resnetv25_stage3_activation32"
    name: "resnetv25_stage3_activation32"
    op_type: "Relu"
  }
  node {
    input: "resnetv25_stage3_activation32"
    input: "resnetv25_stage3_conv33_weight"
    output: "resnetv25_stage3_conv33_fwd"
    name: "resnetv25_stage3_conv33_fwd"
    op_type: "Conv"
    attribute {
      name: "dilations"
      ints: 1
      ints: 1
      type: INTS
    }
    attribute {
      name: "group"
      i: 1
      type: INT
    }
    attribute {
      name: "kernel_shape"
      ints: 1
      ints: 1
      type: INTS
    }
    attribute {
      name: "pads"
      ints: 0
      ints: 0
      ints: 0
      ints: 0
      type: INTS
    }
    attribute {
      name: "strides"
      ints: 1
      ints: 1
      type: INTS
    }
  }
  node {
    input: "resnetv25_stage3_conv33_fwd"
    input: "resnetv25_stage3__plus9"
    output: "resnetv25_stage3__plus10"
    name: "resnetv25_stage3__plus10"
    op_type: "Add"
  }
  node {
    input: "resnetv25_stage3__plus10"
    input: "resnetv25_stage3_batchnorm33_gamma"
    input: "resnetv25_stage3_batchnorm33_beta"
    input: "resnetv25_stage3_batchnorm33_running_mean"
    input: "resnetv25_stage3_batchnorm33_running_var"
    output: "resnetv25_stage3_batchnorm33_fwd"
    name: "resnetv25_stage3_batchnorm33_fwd"
    op_type: "BatchNormalization"
    attribute {
      name: "epsilon"
      f: 1e-05
      type: FLOAT
    }
    attribute {
      name: "momentum"
      f: 0.9
      type: FLOAT
    }
    attribute {
      name: "spatial"
      i: 1
      type: INT
    }
  }
  node {
    input: "resnetv25_stage3_batchnorm33_fwd"
    output: "resnetv25_stage3_activation33"
    name: "resnetv25_stage3_activation33"
    op_type: "Relu"
  }
  node {
    input: "resnetv25_stage3_activation33"
    input: "resnetv25_stage3_conv34_weight"
    output: "resnetv25_stage3_conv34_fwd"
    name: "resnetv25_stage3_conv34_fwd"
    op_type: "Conv"
    attribute {
      name: "dilations"
      ints: 1
      ints: 1
      type: INTS
    }
    attribute {
      name: "group"
      i: 1
      type: INT
    }
    attribute {
      name: "kernel_shape"
      ints: 1
      ints: 1
      type: INTS
    }
    attribute {
      name: "pads"
      ints: 0
      ints: 0
      ints: 0
      ints: 0
      type: INTS
    }
    attribute {
      name: "strides"
      ints: 1
      ints: 1
      type: INTS
    }
  }
  node {
    input: "resnetv25_stage3_conv34_fwd"
    input: "resnetv25_stage3_batchnorm34_gamma"
    input: "resnetv25_stage3_batchnorm34_beta"
    input: "resnetv25_stage3_batchnorm34_running_mean"
    input: "resnetv25_stage3_batchnorm34_running_var"
    output: "resnetv25_stage3_batchnorm34_fwd"
    name: "resnetv25_stage3_batchnorm34_fwd"
    op_type: "BatchNormalization"
    attribute {
      name: "epsilon"
      f: 1e-05
      type: FLOAT
    }
    attribute {
      name: "momentum"
      f: 0.9
      type: FLOAT
    }
    attribute {
      name: "spatial"
      i: 1
      type: INT
    }
  }
  node {
    input: "resnetv25_stage3_batchnorm34_fwd"
    output: "resnetv25_stage3_activation34"
    name: "resnetv25_stage3_activation34"
    op_type: "Relu"
  }
  node {
    input: "resnetv25_stage3_activation34"
    input: "resnetv25_stage3_conv35_weight"
    output: "resnetv25_stage3_conv35_fwd"
    name: "resnetv25_stage3_conv35_fwd"
    op_type: "Conv"
    attribute {
      name: "dilations"
      ints: 1
      ints: 1
      type: INTS
    }
    attribute {
      name: "group"
      i: 1
      type: INT
    }
    attribute {
      name: "kernel_shape"
      ints: 3
      ints: 3
      type: INTS
    }
    attribute {
      name: "pads"
      ints: 1
      ints: 1
      ints: 1
      ints: 1
      type: INTS
    }
    attribute {
      name: "strides"
      ints: 1
      ints: 1
      type: INTS
    }
  }
  node {
    input: "resnetv25_stage3_conv35_fwd"
    input: "resnetv25_stage3_batchnorm35_gamma"
    input: "resnetv25_stage3_batchnorm35_beta"
    input: "resnetv25_stage3_batchnorm35_running_mean"
    input: "resnetv25_stage3_batchnorm35_running_var"
    output: "resnetv25_stage3_batchnorm35_fwd"
    name: "resnetv25_stage3_batchnorm35_fwd"
    op_type: "BatchNormalization"
    attribute {
      name: "epsilon"
      f: 1e-05
      type: FLOAT
    }
    attribute {
      name: "momentum"
      f: 0.9
      type: FLOAT
    }
    attribute {
      name: "spatial"
      i: 1
      type: INT
    }
  }
  node {
    input: "resnetv25_stage3_batchnorm35_fwd"
    output: "resnetv25_stage3_activation35"
    name: "resnetv25_stage3_activation35"
    op_type: "Relu"
  }
  node {
    input: "resnetv25_stage3_activation35"
    input: "resnetv25_stage3_conv36_weight"
    output: "resnetv25_stage3_conv36_fwd"
    name: "resnetv25_stage3_conv36_fwd"
    op_type: "Conv"
    attribute {
      name: "dilations"
      ints: 1
      ints: 1
      type: INTS
    }
    attribute {
      name: "group"
      i: 1
      type: INT
    }
    attribute {
      name: "kernel_shape"
      ints: 1
      ints: 1
      type: INTS
    }
    attribute {
      name: "pads"
      ints: 0
      ints: 0
      ints: 0
      ints: 0
      type: INTS
    }
    attribute {
      name: "strides"
      ints: 1
      ints: 1
      type: INTS
    }
  }
  node {
    input: "resnetv25_stage3_conv36_fwd"
    input: "resnetv25_stage3__plus10"
    output: "resnetv25_stage3__plus11"
    name: "resnetv25_stage3__plus11"
    op_type: "Add"
  }
  node {
    input: "resnetv25_stage3__plus11"
    input: "resnetv25_stage3_batchnorm36_gamma"
    input: "resnetv25_stage3_batchnorm36_beta"
    input: "resnetv25_stage3_batchnorm36_running_mean"
    input: "resnetv25_stage3_batchnorm36_running_var"
    output: "resnetv25_stage3_batchnorm36_fwd"
    name: "resnetv25_stage3_batchnorm36_fwd"
    op_type: "BatchNormalization"
    attribute {
      name: "epsilon"
      f: 1e-05
      type: FLOAT
    }
    attribute {
      name: "momentum"
      f: 0.9
      type: FLOAT
    }
    attribute {
      name: "spatial"
      i: 1
      type: INT
    }
  }
  node {
    input: "resnetv25_stage3_batchnorm36_fwd"
    output: "resnetv25_stage3_activation36"
    name: "resnetv25_stage3_activation36"
    op_type: "Relu"
  }
  node {
    input: "resnetv25_stage3_activation36"
    input: "resnetv25_stage3_conv37_weight"
    output: "resnetv25_stage3_conv37_fwd"
    name: "resnetv25_stage3_conv37_fwd"
    op_type: "Conv"
    attribute {
      name: "dilations"
      ints: 1
      ints: 1
      type: INTS
    }
    attribute {
      name: "group"
      i: 1
      type: INT
    }
    attribute {
      name: "kernel_shape"
      ints: 1
      ints: 1
      type: INTS
    }
    attribute {
      name: "pads"
      ints: 0
      ints: 0
      ints: 0
      ints: 0
      type: INTS
    }
    attribute {
      name: "strides"
      ints: 1
      ints: 1
      type: INTS
    }
  }
  node {
    input: "resnetv25_stage3_conv37_fwd"
    input: "resnetv25_stage3_batchnorm37_gamma"
    input: "resnetv25_stage3_batchnorm37_beta"
    input: "resnetv25_stage3_batchnorm37_running_mean"
    input: "resnetv25_stage3_batchnorm37_running_var"
    output: "resnetv25_stage3_batchnorm37_fwd"
    name: "resnetv25_stage3_batchnorm37_fwd"
    op_type: "BatchNormalization"
    attribute {
      name: "epsilon"
      f: 1e-05
      type: FLOAT
    }
    attribute {
      name: "momentum"
      f: 0.9
      type: FLOAT
    }
    attribute {
      name: "spatial"
      i: 1
      type: INT
    }
  }
  node {
    input: "resnetv25_stage3_batchnorm37_fwd"
    output: "resnetv25_stage3_activation37"
    name: "resnetv25_stage3_activation37"
    op_type: "Relu"
  }
  node {
    input: "resnetv25_stage3_activation37"
    input: "resnetv25_stage3_conv38_weight"
    output: "resnetv25_stage3_conv38_fwd"
    name: "resnetv25_stage3_conv38_fwd"
    op_type: "Conv"
    attribute {
      name: "dilations"
      ints: 1
      ints: 1
      type: INTS
    }
    attribute {
      name: "group"
      i: 1
      type: INT
    }
    attribute {
      name: "kernel_shape"
      ints: 3
      ints: 3
      type: INTS
    }
    attribute {
      name: "pads"
      ints: 1
      ints: 1
      ints: 1
      ints: 1
      type: INTS
    }
    attribute {
      name: "strides"
      ints: 1
      ints: 1
      type: INTS
    }
  }
  node {
    input: "resnetv25_stage3_conv38_fwd"
    input: "resnetv25_stage3_batchnorm38_gamma"
    input: "resnetv25_stage3_batchnorm38_beta"
    input: "resnetv25_stage3_batchnorm38_running_mean"
    input: "resnetv25_stage3_batchnorm38_running_var"
    output: "resnetv25_stage3_batchnorm38_fwd"
    name: "resnetv25_stage3_batchnorm38_fwd"
    op_type: "BatchNormalization"
    attribute {
      name: "epsilon"
      f: 1e-05
      type: FLOAT
    }
    attribute {
      name: "momentum"
      f: 0.9
      type: FLOAT
    }
    attribute {
      name: "spatial"
      i: 1
      type: INT
    }
  }
  node {
    input: "resnetv25_stage3_batchnorm38_fwd"
    output: "resnetv25_stage3_activation38"
    name: "resnetv25_stage3_activation38"
    op_type: "Relu"
  }
  node {
    input: "resnetv25_stage3_activation38"
    input: "resnetv25_stage3_conv39_weight"
    output: "resnetv25_stage3_conv39_fwd"
    name: "resnetv25_stage3_conv39_fwd"
    op_type: "Conv"
    attribute {
      name: "dilations"
      ints: 1
      ints: 1
      type: INTS
    }
    attribute {
      name: "group"
      i: 1
      type: INT
    }
    attribute {
      name: "kernel_shape"
      ints: 1
      ints: 1
      type: INTS
    }
    attribute {
      name: "pads"
      ints: 0
      ints: 0
      ints: 0
      ints: 0
      type: INTS
    }
    attribute {
      name: "strides"
      ints: 1
      ints: 1
      type: INTS
    }
  }
  node {
    input: "resnetv25_stage3_conv39_fwd"
    input: "resnetv25_stage3__plus11"
    output: "resnetv25_stage3__plus12"
    name: "resnetv25_stage3__plus12"
    op_type: "Add"
  }
  node {
    input: "resnetv25_stage3__plus12"
    input: "resnetv25_stage3_batchnorm39_gamma"
    input: "resnetv25_stage3_batchnorm39_beta"
    input: "resnetv25_stage3_batchnorm39_running_mean"
    input: "resnetv25_stage3_batchnorm39_running_var"
    output: "resnetv25_stage3_batchnorm39_fwd"
    name: "resnetv25_stage3_batchnorm39_fwd"
    op_type: "BatchNormalization"
    attribute {
      name: "epsilon"
      f: 1e-05
      type: FLOAT
    }
    attribute {
      name: "momentum"
      f: 0.9
      type: FLOAT
    }
    attribute {
      name: "spatial"
      i: 1
      type: INT
    }
  }
  node {
    input: "resnetv25_stage3_batchnorm39_fwd"
    output: "resnetv25_stage3_activation39"
    name: "resnetv25_stage3_activation39"
    op_type: "Relu"
  }
  node {
    input: "resnetv25_stage3_activation39"
    input: "resnetv25_stage3_conv40_weight"
    output: "resnetv25_stage3_conv40_fwd"
    name: "resnetv25_stage3_conv40_fwd"
    op_type: "Conv"
    attribute {
      name: "dilations"
      ints: 1
      ints: 1
      type: INTS
    }
    attribute {
      name: "group"
      i: 1
      type: INT
    }
    attribute {
      name: "kernel_shape"
      ints: 1
      ints: 1
      type: INTS
    }
    attribute {
      name: "pads"
      ints: 0
      ints: 0
      ints: 0
      ints: 0
      type: INTS
    }
    attribute {
      name: "strides"
      ints: 1
      ints: 1
      type: INTS
    }
  }
  node {
    input: "resnetv25_stage3_conv40_fwd"
    input: "resnetv25_stage3_batchnorm40_gamma"
    input: "resnetv25_stage3_batchnorm40_beta"
    input: "resnetv25_stage3_batchnorm40_running_mean"
    input: "resnetv25_stage3_batchnorm40_running_var"
    output: "resnetv25_stage3_batchnorm40_fwd"
    name: "resnetv25_stage3_batchnorm40_fwd"
    op_type: "BatchNormalization"
    attribute {
      name: "epsilon"
      f: 1e-05
      type: FLOAT
    }
    attribute {
      name: "momentum"
      f: 0.9
      type: FLOAT
    }
    attribute {
      name: "spatial"
      i: 1
      type: INT
    }
  }
  node {
    input: "resnetv25_stage3_batchnorm40_fwd"
    output: "resnetv25_stage3_activation40"
    name: "resnetv25_stage3_activation40"
    op_type: "Relu"
  }
  node {
    input: "resnetv25_stage3_activation40"
    input: "resnetv25_stage3_conv41_weight"
    output: "resnetv25_stage3_conv41_fwd"
    name: "resnetv25_stage3_conv41_fwd"
    op_type: "Conv"
    attribute {
      name: "dilations"
      ints: 1
      ints: 1
      type: INTS
    }
    attribute {
      name: "group"
      i: 1
      type: INT
    }
    attribute {
      name: "kernel_shape"
      ints: 3
      ints: 3
      type: INTS
    }
    attribute {
      name: "pads"
      ints: 1
      ints: 1
      ints: 1
      ints: 1
      type: INTS
    }
    attribute {
      name: "strides"
      ints: 1
      ints: 1
      type: INTS
    }
  }
  node {
    input: "resnetv25_stage3_conv41_fwd"
    input: "resnetv25_stage3_batchnorm41_gamma"
    input: "resnetv25_stage3_batchnorm41_beta"
    input: "resnetv25_stage3_batchnorm41_running_mean"
    input: "resnetv25_stage3_batchnorm41_running_var"
    output: "resnetv25_stage3_batchnorm41_fwd"
    name: "resnetv25_stage3_batchnorm41_fwd"
    op_type: "BatchNormalization"
    attribute {
      name: "epsilon"
      f: 1e-05
      type: FLOAT
    }
    attribute {
      name: "momentum"
      f: 0.9
      type: FLOAT
    }
    attribute {
      name: "spatial"
      i: 1
      type: INT
    }
  }
  node {
    input: "resnetv25_stage3_batchnorm41_fwd"
    output: "resnetv25_stage3_activation41"
    name: "resnetv25_stage3_activation41"
    op_type: "Relu"
  }
  node {
    input: "resnetv25_stage3_activation41"
    input: "resnetv25_stage3_conv42_weight"
    output: "resnetv25_stage3_conv42_fwd"
    name: "resnetv25_stage3_conv42_fwd"
    op_type: "Conv"
    attribute {
      name: "dilations"
      ints: 1
      ints: 1
      type: INTS
    }
    attribute {
      name: "group"
      i: 1
      type: INT
    }
    attribute {
      name: "kernel_shape"
      ints: 1
      ints: 1
      type: INTS
    }
    attribute {
      name: "pads"
      ints: 0
      ints: 0
      ints: 0
      ints: 0
      type: INTS
    }
    attribute {
      name: "strides"
      ints: 1
      ints: 1
      type: INTS
    }
  }
  node {
    input: "resnetv25_stage3_conv42_fwd"
    input: "resnetv25_stage3__plus12"
    output: "resnetv25_stage3__plus13"
    name: "resnetv25_stage3__plus13"
    op_type: "Add"
  }
  node {
    input: "resnetv25_stage3__plus13"
    input: "resnetv25_stage3_batchnorm42_gamma"
    input: "resnetv25_stage3_batchnorm42_beta"
    input: "resnetv25_stage3_batchnorm42_running_mean"
    input: "resnetv25_stage3_batchnorm42_running_var"
    output: "resnetv25_stage3_batchnorm42_fwd"
    name: "resnetv25_stage3_batchnorm42_fwd"
    op_type: "BatchNormalization"
    attribute {
      name: "epsilon"
      f: 1e-05
      type: FLOAT
    }
    attribute {
      name: "momentum"
      f: 0.9
      type: FLOAT
    }
    attribute {
      name: "spatial"
      i: 1
      type: INT
    }
  }
  node {
    input: "resnetv25_stage3_batchnorm42_fwd"
    output: "resnetv25_stage3_activation42"
    name: "resnetv25_stage3_activation42"
    op_type: "Relu"
  }
  node {
    input: "resnetv25_stage3_activation42"
    input: "resnetv25_stage3_conv43_weight"
    output: "resnetv25_stage3_conv43_fwd"
    name: "resnetv25_stage3_conv43_fwd"
    op_type: "Conv"
    attribute {
      name: "dilations"
      ints: 1
      ints: 1
      type: INTS
    }
    attribute {
      name: "group"
      i: 1
      type: INT
    }
    attribute {
      name: "kernel_shape"
      ints: 1
      ints: 1
      type: INTS
    }
    attribute {
      name: "pads"
      ints: 0
      ints: 0
      ints: 0
      ints: 0
      type: INTS
    }
    attribute {
      name: "strides"
      ints: 1
      ints: 1
      type: INTS
    }
  }
  node {
    input: "resnetv25_stage3_conv43_fwd"
    input: "resnetv25_stage3_batchnorm43_gamma"
    input: "resnetv25_stage3_batchnorm43_beta"
    input: "resnetv25_stage3_batchnorm43_running_mean"
    input: "resnetv25_stage3_batchnorm43_running_var"
    output: "resnetv25_stage3_batchnorm43_fwd"
    name: "resnetv25_stage3_batchnorm43_fwd"
    op_type: "BatchNormalization"
    attribute {
      name: "epsilon"
      f: 1e-05
      type: FLOAT
    }
    attribute {
      name: "momentum"
      f: 0.9
      type: FLOAT
    }
    attribute {
      name: "spatial"
      i: 1
      type: INT
    }
  }
  node {
    input: "resnetv25_stage3_batchnorm43_fwd"
    output: "resnetv25_stage3_activation43"
    name: "resnetv25_stage3_activation43"
    op_type: "Relu"
  }
  node {
    input: "resnetv25_stage3_activation43"
    input: "resnetv25_stage3_conv44_weight"
    output: "resnetv25_stage3_conv44_fwd"
    name: "resnetv25_stage3_conv44_fwd"
    op_type: "Conv"
    attribute {
      name: "dilations"
      ints: 1
      ints: 1
      type: INTS
    }
    attribute {
      name: "group"
      i: 1
      type: INT
    }
    attribute {
      name: "kernel_shape"
      ints: 3
      ints: 3
      type: INTS
    }
    attribute {
      name: "pads"
      ints: 1
      ints: 1
      ints: 1
      ints: 1
      type: INTS
    }
    attribute {
      name: "strides"
      ints: 1
      ints: 1
      type: INTS
    }
  }
  node {
    input: "resnetv25_stage3_conv44_fwd"
    input: "resnetv25_stage3_batchnorm44_gamma"
    input: "resnetv25_stage3_batchnorm44_beta"
    input: "resnetv25_stage3_batchnorm44_running_mean"
    input: "resnetv25_stage3_batchnorm44_running_var"
    output: "resnetv25_stage3_batchnorm44_fwd"
    name: "resnetv25_stage3_batchnorm44_fwd"
    op_type: "BatchNormalization"
    attribute {
      name: "epsilon"
      f: 1e-05
      type: FLOAT
    }
    attribute {
      name: "momentum"
      f: 0.9
      type: FLOAT
    }
    attribute {
      name: "spatial"
      i: 1
      type: INT
    }
  }
  node {
    input: "resnetv25_stage3_batchnorm44_fwd"
    output: "resnetv25_stage3_activation44"
    name: "resnetv25_stage3_activation44"
    op_type: "Relu"
  }
  node {
    input: "resnetv25_stage3_activation44"
    input: "resnetv25_stage3_conv45_weight"
    output: "resnetv25_stage3_conv45_fwd"
    name: "resnetv25_stage3_conv45_fwd"
    op_type: "Conv"
    attribute {
      name: "dilations"
      ints: 1
      ints: 1
      type: INTS
    }
    attribute {
      name: "group"
      i: 1
      type: INT
    }
    attribute {
      name: "kernel_shape"
      ints: 1
      ints: 1
      type: INTS
    }
    attribute {
      name: "pads"
      ints: 0
      ints: 0
      ints: 0
      ints: 0
      type: INTS
    }
    attribute {
      name: "strides"
      ints: 1
      ints: 1
      type: INTS
    }
  }
  node {
    input: "resnetv25_stage3_conv45_fwd"
    input: "resnetv25_stage3__plus13"
    output: "resnetv25_stage3__plus14"
    name: "resnetv25_stage3__plus14"
    op_type: "Add"
  }
  node {
    input: "resnetv25_stage3__plus14"
    input: "resnetv25_stage3_batchnorm45_gamma"
    input: "resnetv25_stage3_batchnorm45_beta"
    input: "resnetv25_stage3_batchnorm45_running_mean"
    input: "resnetv25_stage3_batchnorm45_running_var"
    output: "resnetv25_stage3_batchnorm45_fwd"
    name: "resnetv25_stage3_batchnorm45_fwd"
    op_type: "BatchNormalization"
    attribute {
      name: "epsilon"
      f: 1e-05
      type: FLOAT
    }
    attribute {
      name: "momentum"
      f: 0.9
      type: FLOAT
    }
    attribute {
      name: "spatial"
      i: 1
      type: INT
    }
  }
  node {
    input: "resnetv25_stage3_batchnorm45_fwd"
    output: "resnetv25_stage3_activation45"
    name: "resnetv25_stage3_activation45"
    op_type: "Relu"
  }
  node {
    input: "resnetv25_stage3_activation45"
    input: "resnetv25_stage3_conv46_weight"
    output: "resnetv25_stage3_conv46_fwd"
    name: "resnetv25_stage3_conv46_fwd"
    op_type: "Conv"
    attribute {
      name: "dilations"
      ints: 1
      ints: 1
      type: INTS
    }
    attribute {
      name: "group"
      i: 1
      type: INT
    }
    attribute {
      name: "kernel_shape"
      ints: 1
      ints: 1
      type: INTS
    }
    attribute {
      name: "pads"
      ints: 0
      ints: 0
      ints: 0
      ints: 0
      type: INTS
    }
    attribute {
      name: "strides"
      ints: 1
      ints: 1
      type: INTS
    }
  }
  node {
    input: "resnetv25_stage3_conv46_fwd"
    input: "resnetv25_stage3_batchnorm46_gamma"
    input: "resnetv25_stage3_batchnorm46_beta"
    input: "resnetv25_stage3_batchnorm46_running_mean"
    input: "resnetv25_stage3_batchnorm46_running_var"
    output: "resnetv25_stage3_batchnorm46_fwd"
    name: "resnetv25_stage3_batchnorm46_fwd"
    op_type: "BatchNormalization"
    attribute {
      name: "epsilon"
      f: 1e-05
      type: FLOAT
    }
    attribute {
      name: "momentum"
      f: 0.9
      type: FLOAT
    }
    attribute {
      name: "spatial"
      i: 1
      type: INT
    }
  }
  node {
    input: "resnetv25_stage3_batchnorm46_fwd"
    output: "resnetv25_stage3_activation46"
    name: "resnetv25_stage3_activation46"
    op_type: "Relu"
  }
  node {
    input: "resnetv25_stage3_activation46"
    input: "resnetv25_stage3_conv47_weight"
    output: "resnetv25_stage3_conv47_fwd"
    name: "resnetv25_stage3_conv47_fwd"
    op_type: "Conv"
    attribute {
      name: "dilations"
      ints: 1
      ints: 1
      type: INTS
    }
    attribute {
      name: "group"
      i: 1
      type: INT
    }
    attribute {
      name: "kernel_shape"
      ints: 3
      ints: 3
      type: INTS
    }
    attribute {
      name: "pads"
      ints: 1
      ints: 1
      ints: 1
      ints: 1
      type: INTS
    }
    attribute {
      name: "strides"
      ints: 1
      ints: 1
      type: INTS
    }
  }
  node {
    input: "resnetv25_stage3_conv47_fwd"
    input: "resnetv25_stage3_batchnorm47_gamma"
    input: "resnetv25_stage3_batchnorm47_beta"
    input: "resnetv25_stage3_batchnorm47_running_mean"
    input: "resnetv25_stage3_batchnorm47_running_var"
    output: "resnetv25_stage3_batchnorm47_fwd"
    name: "resnetv25_stage3_batchnorm47_fwd"
    op_type: "BatchNormalization"
    attribute {
      name: "epsilon"
      f: 1e-05
      type: FLOAT
    }
    attribute {
      name: "momentum"
      f: 0.9
      type: FLOAT
    }
    attribute {
      name: "spatial"
      i: 1
      type: INT
    }
  }
  node {
    input: "resnetv25_stage3_batchnorm47_fwd"
    output: "resnetv25_stage3_activation47"
    name: "resnetv25_stage3_activation47"
    op_type: "Relu"
  }
  node {
    input: "resnetv25_stage3_activation47"
    input: "resnetv25_stage3_conv48_weight"
    output: "resnetv25_stage3_conv48_fwd"
    name: "resnetv25_stage3_conv48_fwd"
    op_type: "Conv"
    attribute {
      name: "dilations"
      ints: 1
      ints: 1
      type: INTS
    }
    attribute {
      name: "group"
      i: 1
      type: INT
    }
    attribute {
      name: "kernel_shape"
      ints: 1
      ints: 1
      type: INTS
    }
    attribute {
      name: "pads"
      ints: 0
      ints: 0
      ints: 0
      ints: 0
      type: INTS
    }
    attribute {
      name: "strides"
      ints: 1
      ints: 1
      type: INTS
    }
  }
  node {
    input: "resnetv25_stage3_conv48_fwd"
    input: "resnetv25_stage3__plus14"
    output: "resnetv25_stage3__plus15"
    name: "resnetv25_stage3__plus15"
    op_type: "Add"
  }
  node {
    input: "resnetv25_stage3__plus15"
    input: "resnetv25_stage3_batchnorm48_gamma"
    input: "resnetv25_stage3_batchnorm48_beta"
    input: "resnetv25_stage3_batchnorm48_running_mean"
    input: "resnetv25_stage3_batchnorm48_running_var"
    output: "resnetv25_stage3_batchnorm48_fwd"
    name: "resnetv25_stage3_batchnorm48_fwd"
    op_type: "BatchNormalization"
    attribute {
      name: "epsilon"
      f: 1e-05
      type: FLOAT
    }
    attribute {
      name: "momentum"
      f: 0.9
      type: FLOAT
    }
    attribute {
      name: "spatial"
      i: 1
      type: INT
    }
  }
  node {
    input: "resnetv25_stage3_batchnorm48_fwd"
    output: "resnetv25_stage3_activation48"
    name: "resnetv25_stage3_activation48"
    op_type: "Relu"
  }
  node {
    input: "resnetv25_stage3_activation48"
    input: "resnetv25_stage3_conv49_weight"
    output: "resnetv25_stage3_conv49_fwd"
    name: "resnetv25_stage3_conv49_fwd"
    op_type: "Conv"
    attribute {
      name: "dilations"
      ints: 1
      ints: 1
      type: INTS
    }
    attribute {
      name: "group"
      i: 1
      type: INT
    }
    attribute {
      name: "kernel_shape"
      ints: 1
      ints: 1
      type: INTS
    }
    attribute {
      name: "pads"
      ints: 0
      ints: 0
      ints: 0
      ints: 0
      type: INTS
    }
    attribute {
      name: "strides"
      ints: 1
      ints: 1
      type: INTS
    }
  }
  node {
    input: "resnetv25_stage3_conv49_fwd"
    input: "resnetv25_stage3_batchnorm49_gamma"
    input: "resnetv25_stage3_batchnorm49_beta"
    input: "resnetv25_stage3_batchnorm49_running_mean"
    input: "resnetv25_stage3_batchnorm49_running_var"
    output: "resnetv25_stage3_batchnorm49_fwd"
    name: "resnetv25_stage3_batchnorm49_fwd"
    op_type: "BatchNormalization"
    attribute {
      name: "epsilon"
      f: 1e-05
      type: FLOAT
    }
    attribute {
      name: "momentum"
      f: 0.9
      type: FLOAT
    }
    attribute {
      name: "spatial"
      i: 1
      type: INT
    }
  }
  node {
    input: "resnetv25_stage3_batchnorm49_fwd"
    output: "resnetv25_stage3_activation49"
    name: "resnetv25_stage3_activation49"
    op_type: "Relu"
  }
  node {
    input: "resnetv25_stage3_activation49"
    input: "resnetv25_stage3_conv50_weight"
    output: "resnetv25_stage3_conv50_fwd"
    name: "resnetv25_stage3_conv50_fwd"
    op_type: "Conv"
    attribute {
      name: "dilations"
      ints: 1
      ints: 1
      type: INTS
    }
    attribute {
      name: "group"
      i: 1
      type: INT
    }
    attribute {
      name: "kernel_shape"
      ints: 3
      ints: 3
      type: INTS
    }
    attribute {
      name: "pads"
      ints: 1
      ints: 1
      ints: 1
      ints: 1
      type: INTS
    }
    attribute {
      name: "strides"
      ints: 1
      ints: 1
      type: INTS
    }
  }
  node {
    input: "resnetv25_stage3_conv50_fwd"
    input: "resnetv25_stage3_batchnorm50_gamma"
    input: "resnetv25_stage3_batchnorm50_beta"
    input: "resnetv25_stage3_batchnorm50_running_mean"
    input: "resnetv25_stage3_batchnorm50_running_var"
    output: "resnetv25_stage3_batchnorm50_fwd"
    name: "resnetv25_stage3_batchnorm50_fwd"
    op_type: "BatchNormalization"
    attribute {
      name: "epsilon"
      f: 1e-05
      type: FLOAT
    }
    attribute {
      name: "momentum"
      f: 0.9
      type: FLOAT
    }
    attribute {
      name: "spatial"
      i: 1
      type: INT
    }
  }
  node {
    input: "resnetv25_stage3_batchnorm50_fwd"
    output: "resnetv25_stage3_activation50"
    name: "resnetv25_stage3_activation50"
    op_type: "Relu"
  }
  node {
    input: "resnetv25_stage3_activation50"
    input: "resnetv25_stage3_conv51_weight"
    output: "resnetv25_stage3_conv51_fwd"
    name: "resnetv25_stage3_conv51_fwd"
    op_type: "Conv"
    attribute {
      name: "dilations"
      ints: 1
      ints: 1
      type: INTS
    }
    attribute {
      name: "group"
      i: 1
      type: INT
    }
    attribute {
      name: "kernel_shape"
      ints: 1
      ints: 1
      type: INTS
    }
    attribute {
      name: "pads"
      ints: 0
      ints: 0
      ints: 0
      ints: 0
      type: INTS
    }
    attribute {
      name: "strides"
      ints: 1
      ints: 1
      type: INTS
    }
  }
  node {
    input: "resnetv25_stage3_conv51_fwd"
    input: "resnetv25_stage3__plus15"
    output: "resnetv25_stage3__plus16"
    name: "resnetv25_stage3__plus16"
    op_type: "Add"
  }
  node {
    input: "resnetv25_stage3__plus16"
    input: "resnetv25_stage3_batchnorm51_gamma"
    input: "resnetv25_stage3_batchnorm51_beta"
    input: "resnetv25_stage3_batchnorm51_running_mean"
    input: "resnetv25_stage3_batchnorm51_running_var"
    output: "resnetv25_stage3_batchnorm51_fwd"
    name: "resnetv25_stage3_batchnorm51_fwd"
    op_type: "BatchNormalization"
    attribute {
      name: "epsilon"
      f: 1e-05
      type: FLOAT
    }
    attribute {
      name: "momentum"
      f: 0.9
      type: FLOAT
    }
    attribute {
      name: "spatial"
      i: 1
      type: INT
    }
  }
  node {
    input: "resnetv25_stage3_batchnorm51_fwd"
    output: "resnetv25_stage3_activation51"
    name: "resnetv25_stage3_activation51"
    op_type: "Relu"
  }
  node {
    input: "resnetv25_stage3_activation51"
    input: "resnetv25_stage3_conv52_weight"
    output: "resnetv25_stage3_conv52_fwd"
    name: "resnetv25_stage3_conv52_fwd"
    op_type: "Conv"
    attribute {
      name: "dilations"
      ints: 1
      ints: 1
      type: INTS
    }
    attribute {
      name: "group"
      i: 1
      type: INT
    }
    attribute {
      name: "kernel_shape"
      ints: 1
      ints: 1
      type: INTS
    }
    attribute {
      name: "pads"
      ints: 0
      ints: 0
      ints: 0
      ints: 0
      type: INTS
    }
    attribute {
      name: "strides"
      ints: 1
      ints: 1
      type: INTS
    }
  }
  node {
    input: "resnetv25_stage3_conv52_fwd"
    input: "resnetv25_stage3_batchnorm52_gamma"
    input: "resnetv25_stage3_batchnorm52_beta"
    input: "resnetv25_stage3_batchnorm52_running_mean"
    input: "resnetv25_stage3_batchnorm52_running_var"
    output: "resnetv25_stage3_batchnorm52_fwd"
    name: "resnetv25_stage3_batchnorm52_fwd"
    op_type: "BatchNormalization"
    attribute {
      name: "epsilon"
      f: 1e-05
      type: FLOAT
    }
    attribute {
      name: "momentum"
      f: 0.9
      type: FLOAT
    }
    attribute {
      name: "spatial"
      i: 1
      type: INT
    }
  }
  node {
    input: "resnetv25_stage3_batchnorm52_fwd"
    output: "resnetv25_stage3_activation52"
    name: "resnetv25_stage3_activation52"
    op_type: "Relu"
  }
  node {
    input: "resnetv25_stage3_activation52"
    input: "resnetv25_stage3_conv53_weight"
    output: "resnetv25_stage3_conv53_fwd"
    name: "resnetv25_stage3_conv53_fwd"
    op_type: "Conv"
    attribute {
      name: "dilations"
      ints: 1
      ints: 1
      type: INTS
    }
    attribute {
      name: "group"
      i: 1
      type: INT
    }
    attribute {
      name: "kernel_shape"
      ints: 3
      ints: 3
      type: INTS
    }
    attribute {
      name: "pads"
      ints: 1
      ints: 1
      ints: 1
      ints: 1
      type: INTS
    }
    attribute {
      name: "strides"
      ints: 1
      ints: 1
      type: INTS
    }
  }
  node {
    input: "resnetv25_stage3_conv53_fwd"
    input: "resnetv25_stage3_batchnorm53_gamma"
    input: "resnetv25_stage3_batchnorm53_beta"
    input: "resnetv25_stage3_batchnorm53_running_mean"
    input: "resnetv25_stage3_batchnorm53_running_var"
    output: "resnetv25_stage3_batchnorm53_fwd"
    name: "resnetv25_stage3_batchnorm53_fwd"
    op_type: "BatchNormalization"
    attribute {
      name: "epsilon"
      f: 1e-05
      type: FLOAT
    }
    attribute {
      name: "momentum"
      f: 0.9
      type: FLOAT
    }
    attribute {
      name: "spatial"
      i: 1
      type: INT
    }
  }
  node {
    input: "resnetv25_stage3_batchnorm53_fwd"
    output: "resnetv25_stage3_activation53"
    name: "resnetv25_stage3_activation53"
    op_type: "Relu"
  }
  node {
    input: "resnetv25_stage3_activation53"
    input: "resnetv25_stage3_conv54_weight"
    output: "resnetv25_stage3_conv54_fwd"
    name: "resnetv25_stage3_conv54_fwd"
    op_type: "Conv"
    attribute {
      name: "dilations"
      ints: 1
      ints: 1
      type: INTS
    }
    attribute {
      name: "group"
      i: 1
      type: INT
    }
    attribute {
      name: "kernel_shape"
      ints: 1
      ints: 1
      type: INTS
    }
    attribute {
      name: "pads"
      ints: 0
      ints: 0
      ints: 0
      ints: 0
      type: INTS
    }
    attribute {
      name: "strides"
      ints: 1
      ints: 1
      type: INTS
    }
  }
  node {
    input: "resnetv25_stage3_conv54_fwd"
    input: "resnetv25_stage3__plus16"
    output: "resnetv25_stage3__plus17"
    name: "resnetv25_stage3__plus17"
    op_type: "Add"
  }
  node {
    input: "resnetv25_stage3__plus17"
    input: "resnetv25_stage3_batchnorm54_gamma"
    input: "resnetv25_stage3_batchnorm54_beta"
    input: "resnetv25_stage3_batchnorm54_running_mean"
    input: "resnetv25_stage3_batchnorm54_running_var"
    output: "resnetv25_stage3_batchnorm54_fwd"
    name: "resnetv25_stage3_batchnorm54_fwd"
    op_type: "BatchNormalization"
    attribute {
      name: "epsilon"
      f: 1e-05
      type: FLOAT
    }
    attribute {
      name: "momentum"
      f: 0.9
      type: FLOAT
    }
    attribute {
      name: "spatial"
      i: 1
      type: INT
    }
  }
  node {
    input: "resnetv25_stage3_batchnorm54_fwd"
    output: "resnetv25_stage3_activation54"
    name: "resnetv25_stage3_activation54"
    op_type: "Relu"
  }
  node {
    input: "resnetv25_stage3_activation54"
    input: "resnetv25_stage3_conv55_weight"
    output: "resnetv25_stage3_conv55_fwd"
    name: "resnetv25_stage3_conv55_fwd"
    op_type: "Conv"
    attribute {
      name: "dilations"
      ints: 1
      ints: 1
      type: INTS
    }
    attribute {
      name: "group"
      i: 1
      type: INT
    }
    attribute {
      name: "kernel_shape"
      ints: 1
      ints: 1
      type: INTS
    }
    attribute {
      name: "pads"
      ints: 0
      ints: 0
      ints: 0
      ints: 0
      type: INTS
    }
    attribute {
      name: "strides"
      ints: 1
      ints: 1
      type: INTS
    }
  }
  node {
    input: "resnetv25_stage3_conv55_fwd"
    input: "resnetv25_stage3_batchnorm55_gamma"
    input: "resnetv25_stage3_batchnorm55_beta"
    input: "resnetv25_stage3_batchnorm55_running_mean"
    input: "resnetv25_stage3_batchnorm55_running_var"
    output: "resnetv25_stage3_batchnorm55_fwd"
    name: "resnetv25_stage3_batchnorm55_fwd"
    op_type: "BatchNormalization"
    attribute {
      name: "epsilon"
      f: 1e-05
      type: FLOAT
    }
    attribute {
      name: "momentum"
      f: 0.9
      type: FLOAT
    }
    attribute {
      name: "spatial"
      i: 1
      type: INT
    }
  }
  node {
    input: "resnetv25_stage3_batchnorm55_fwd"
    output: "resnetv25_stage3_activation55"
    name: "resnetv25_stage3_activation55"
    op_type: "Relu"
  }
  node {
    input: "resnetv25_stage3_activation55"
    input: "resnetv25_stage3_conv56_weight"
    output: "resnetv25_stage3_conv56_fwd"
    name: "resnetv25_stage3_conv56_fwd"
    op_type: "Conv"
    attribute {
      name: "dilations"
      ints: 1
      ints: 1
      type: INTS
    }
    attribute {
      name: "group"
      i: 1
      type: INT
    }
    attribute {
      name: "kernel_shape"
      ints: 3
      ints: 3
      type: INTS
    }
    attribute {
      name: "pads"
      ints: 1
      ints: 1
      ints: 1
      ints: 1
      type: INTS
    }
    attribute {
      name: "strides"
      ints: 1
      ints: 1
      type: INTS
    }
  }
  node {
    input: "resnetv25_stage3_conv56_fwd"
    input: "resnetv25_stage3_batchnorm56_gamma"
    input: "resnetv25_stage3_batchnorm56_beta"
    input: "resnetv25_stage3_batchnorm56_running_mean"
    input: "resnetv25_stage3_batchnorm56_running_var"
    output: "resnetv25_stage3_batchnorm56_fwd"
    name: "resnetv25_stage3_batchnorm56_fwd"
    op_type: "BatchNormalization"
    attribute {
      name: "epsilon"
      f: 1e-05
      type: FLOAT
    }
    attribute {
      name: "momentum"
      f: 0.9
      type: FLOAT
    }
    attribute {
      name: "spatial"
      i: 1
      type: INT
    }
  }
  node {
    input: "resnetv25_stage3_batchnorm56_fwd"
    output: "resnetv25_stage3_activation56"
    name: "resnetv25_stage3_activation56"
    op_type: "Relu"
  }
  node {
    input: "resnetv25_stage3_activation56"
    input: "resnetv25_stage3_conv57_weight"
    output: "resnetv25_stage3_conv57_fwd"
    name: "resnetv25_stage3_conv57_fwd"
    op_type: "Conv"
    attribute {
      name: "dilations"
      ints: 1
      ints: 1
      type: INTS
    }
    attribute {
      name: "group"
      i: 1
      type: INT
    }
    attribute {
      name: "kernel_shape"
      ints: 1
      ints: 1
      type: INTS
    }
    attribute {
      name: "pads"
      ints: 0
      ints: 0
      ints: 0
      ints: 0
      type: INTS
    }
    attribute {
      name: "strides"
      ints: 1
      ints: 1
      type: INTS
    }
  }
  node {
    input: "resnetv25_stage3_conv57_fwd"
    input: "resnetv25_stage3__plus17"
    output: "resnetv25_stage3__plus18"
    name: "resnetv25_stage3__plus18"
    op_type: "Add"
  }
  node {
    input: "resnetv25_stage3__plus18"
    input: "resnetv25_stage3_batchnorm57_gamma"
    input: "resnetv25_stage3_batchnorm57_beta"
    input: "resnetv25_stage3_batchnorm57_running_mean"
    input: "resnetv25_stage3_batchnorm57_running_var"
    output: "resnetv25_stage3_batchnorm57_fwd"
    name: "resnetv25_stage3_batchnorm57_fwd"
    op_type: "BatchNormalization"
    attribute {
      name: "epsilon"
      f: 1e-05
      type: FLOAT
    }
    attribute {
      name: "momentum"
      f: 0.9
      type: FLOAT
    }
    attribute {
      name: "spatial"
      i: 1
      type: INT
    }
  }
  node {
    input: "resnetv25_stage3_batchnorm57_fwd"
    output: "resnetv25_stage3_activation57"
    name: "resnetv25_stage3_activation57"
    op_type: "Relu"
  }
  node {
    input: "resnetv25_stage3_activation57"
    input: "resnetv25_stage3_conv58_weight"
    output: "resnetv25_stage3_conv58_fwd"
    name: "resnetv25_stage3_conv58_fwd"
    op_type: "Conv"
    attribute {
      name: "dilations"
      ints: 1
      ints: 1
      type: INTS
    }
    attribute {
      name: "group"
      i: 1
      type: INT
    }
    attribute {
      name: "kernel_shape"
      ints: 1
      ints: 1
      type: INTS
    }
    attribute {
      name: "pads"
      ints: 0
      ints: 0
      ints: 0
      ints: 0
      type: INTS
    }
    attribute {
      name: "strides"
      ints: 1
      ints: 1
      type: INTS
    }
  }
  node {
    input: "resnetv25_stage3_conv58_fwd"
    input: "resnetv25_stage3_batchnorm58_gamma"
    input: "resnetv25_stage3_batchnorm58_beta"
    input: "resnetv25_stage3_batchnorm58_running_mean"
    input: "resnetv25_stage3_batchnorm58_running_var"
    output: "resnetv25_stage3_batchnorm58_fwd"
    name: "resnetv25_stage3_batchnorm58_fwd"
    op_type: "BatchNormalization"
    attribute {
      name: "epsilon"
      f: 1e-05
      type: FLOAT
    }
    attribute {
      name: "momentum"
      f: 0.9
      type: FLOAT
    }
    attribute {
      name: "spatial"
      i: 1
      type: INT
    }
  }
  node {
    input: "resnetv25_stage3_batchnorm58_fwd"
    output: "resnetv25_stage3_activation58"
    name: "resnetv25_stage3_activation58"
    op_type: "Relu"
  }
  node {
    input: "resnetv25_stage3_activation58"
    input: "resnetv25_stage3_conv59_weight"
    output: "resnetv25_stage3_conv59_fwd"
    name: "resnetv25_stage3_conv59_fwd"
    op_type: "Conv"
    attribute {
      name: "dilations"
      ints: 1
      ints: 1
      type: INTS
    }
    attribute {
      name: "group"
      i: 1
      type: INT
    }
    attribute {
      name: "kernel_shape"
      ints: 3
      ints: 3
      type: INTS
    }
    attribute {
      name: "pads"
      ints: 1
      ints: 1
      ints: 1
      ints: 1
      type: INTS
    }
    attribute {
      name: "strides"
      ints: 1
      ints: 1
      type: INTS
    }
  }
  node {
    input: "resnetv25_stage3_conv59_fwd"
    input: "resnetv25_stage3_batchnorm59_gamma"
    input: "resnetv25_stage3_batchnorm59_beta"
    input: "resnetv25_stage3_batchnorm59_running_mean"
    input: "resnetv25_stage3_batchnorm59_running_var"
    output: "resnetv25_stage3_batchnorm59_fwd"
    name: "resnetv25_stage3_batchnorm59_fwd"
    op_type: "BatchNormalization"
    attribute {
      name: "epsilon"
      f: 1e-05
      type: FLOAT
    }
    attribute {
      name: "momentum"
      f: 0.9
      type: FLOAT
    }
    attribute {
      name: "spatial"
      i: 1
      type: INT
    }
  }
  node {
    input: "resnetv25_stage3_batchnorm59_fwd"
    output: "resnetv25_stage3_activation59"
    name: "resnetv25_stage3_activation59"
    op_type: "Relu"
  }
  node {
    input: "resnetv25_stage3_activation59"
    input: "resnetv25_stage3_conv60_weight"
    output: "resnetv25_stage3_conv60_fwd"
    name: "resnetv25_stage3_conv60_fwd"
    op_type: "Conv"
    attribute {
      name: "dilations"
      ints: 1
      ints: 1
      type: INTS
    }
    attribute {
      name: "group"
      i: 1
      type: INT
    }
    attribute {
      name: "kernel_shape"
      ints: 1
      ints: 1
      type: INTS
    }
    attribute {
      name: "pads"
      ints: 0
      ints: 0
      ints: 0
      ints: 0
      type: INTS
    }
    attribute {
      name: "strides"
      ints: 1
      ints: 1
      type: INTS
    }
  }
  node {
    input: "resnetv25_stage3_conv60_fwd"
    input: "resnetv25_stage3__plus18"
    output: "resnetv25_stage3__plus19"
    name: "resnetv25_stage3__plus19"
    op_type: "Add"
  }
  node {
    input: "resnetv25_stage3__plus19"
    input: "resnetv25_stage3_batchnorm60_gamma"
    input: "resnetv25_stage3_batchnorm60_beta"
    input: "resnetv25_stage3_batchnorm60_running_mean"
    input: "resnetv25_stage3_batchnorm60_running_var"
    output: "resnetv25_stage3_batchnorm60_fwd"
    name: "resnetv25_stage3_batchnorm60_fwd"
    op_type: "BatchNormalization"
    attribute {
      name: "epsilon"
      f: 1e-05
      type: FLOAT
    }
    attribute {
      name: "momentum"
      f: 0.9
      type: FLOAT
    }
    attribute {
      name: "spatial"
      i: 1
      type: INT
    }
  }
  node {
    input: "resnetv25_stage3_batchnorm60_fwd"
    output: "resnetv25_stage3_activation60"
    name: "resnetv25_stage3_activation60"
    op_type: "Relu"
  }
  node {
    input: "resnetv25_stage3_activation60"
    input: "resnetv25_stage3_conv61_weight"
    output: "resnetv25_stage3_conv61_fwd"
    name: "resnetv25_stage3_conv61_fwd"
    op_type: "Conv"
    attribute {
      name: "dilations"
      ints: 1
      ints: 1
      type: INTS
    }
    attribute {
      name: "group"
      i: 1
      type: INT
    }
    attribute {
      name: "kernel_shape"
      ints: 1
      ints: 1
      type: INTS
    }
    attribute {
      name: "pads"
      ints: 0
      ints: 0
      ints: 0
      ints: 0
      type: INTS
    }
    attribute {
      name: "strides"
      ints: 1
      ints: 1
      type: INTS
    }
  }
  node {
    input: "resnetv25_stage3_conv61_fwd"
    input: "resnetv25_stage3_batchnorm61_gamma"
    input: "resnetv25_stage3_batchnorm61_beta"
    input: "resnetv25_stage3_batchnorm61_running_mean"
    input: "resnetv25_stage3_batchnorm61_running_var"
    output: "resnetv25_stage3_batchnorm61_fwd"
    name: "resnetv25_stage3_batchnorm61_fwd"
    op_type: "BatchNormalization"
    attribute {
      name: "epsilon"
      f: 1e-05
      type: FLOAT
    }
    attribute {
      name: "momentum"
      f: 0.9
      type: FLOAT
    }
    attribute {
      name: "spatial"
      i: 1
      type: INT
    }
  }
  node {
    input: "resnetv25_stage3_batchnorm61_fwd"
    output: "resnetv25_stage3_activation61"
    name: "resnetv25_stage3_activation61"
    op_type: "Relu"
  }
  node {
    input: "resnetv25_stage3_activation61"
    input: "resnetv25_stage3_conv62_weight"
    output: "resnetv25_stage3_conv62_fwd"
    name: "resnetv25_stage3_conv62_fwd"
    op_type: "Conv"
    attribute {
      name: "dilations"
      ints: 1
      ints: 1
      type: INTS
    }
    attribute {
      name: "group"
      i: 1
      type: INT
    }
    attribute {
      name: "kernel_shape"
      ints: 3
      ints: 3
      type: INTS
    }
    attribute {
      name: "pads"
      ints: 1
      ints: 1
      ints: 1
      ints: 1
      type: INTS
    }
    attribute {
      name: "strides"
      ints: 1
      ints: 1
      type: INTS
    }
  }
  node {
    input: "resnetv25_stage3_conv62_fwd"
    input: "resnetv25_stage3_batchnorm62_gamma"
    input: "resnetv25_stage3_batchnorm62_beta"
    input: "resnetv25_stage3_batchnorm62_running_mean"
    input: "resnetv25_stage3_batchnorm62_running_var"
    output: "resnetv25_stage3_batchnorm62_fwd"
    name: "resnetv25_stage3_batchnorm62_fwd"
    op_type: "BatchNormalization"
    attribute {
      name: "epsilon"
      f: 1e-05
      type: FLOAT
    }
    attribute {
      name: "momentum"
      f: 0.9
      type: FLOAT
    }
    attribute {
      name: "spatial"
      i: 1
      type: INT
    }
  }
  node {
    input: "resnetv25_stage3_batchnorm62_fwd"
    output: "resnetv25_stage3_activation62"
    name: "resnetv25_stage3_activation62"
    op_type: "Relu"
  }
  node {
    input: "resnetv25_stage3_activation62"
    input: "resnetv25_stage3_conv63_weight"
    output: "resnetv25_stage3_conv63_fwd"
    name: "resnetv25_stage3_conv63_fwd"
    op_type: "Conv"
    attribute {
      name: "dilations"
      ints: 1
      ints: 1
      type: INTS
    }
    attribute {
      name: "group"
      i: 1
      type: INT
    }
    attribute {
      name: "kernel_shape"
      ints: 1
      ints: 1
      type: INTS
    }
    attribute {
      name: "pads"
      ints: 0
      ints: 0
      ints: 0
      ints: 0
      type: INTS
    }
    attribute {
      name: "strides"
      ints: 1
      ints: 1
      type: INTS
    }
  }
  node {
    input: "resnetv25_stage3_conv63_fwd"
    input: "resnetv25_stage3__plus19"
    output: "resnetv25_stage3__plus20"
    name: "resnetv25_stage3__plus20"
    op_type: "Add"
  }
  node {
    input: "resnetv25_stage3__plus20"
    input: "resnetv25_stage3_batchnorm63_gamma"
    input: "resnetv25_stage3_batchnorm63_beta"
    input: "resnetv25_stage3_batchnorm63_running_mean"
    input: "resnetv25_stage3_batchnorm63_running_var"
    output: "resnetv25_stage3_batchnorm63_fwd"
    name: "resnetv25_stage3_batchnorm63_fwd"
    op_type: "BatchNormalization"
    attribute {
      name: "epsilon"
      f: 1e-05
      type: FLOAT
    }
    attribute {
      name: "momentum"
      f: 0.9
      type: FLOAT
    }
    attribute {
      name: "spatial"
      i: 1
      type: INT
    }
  }
  node {
    input: "resnetv25_stage3_batchnorm63_fwd"
    output: "resnetv25_stage3_activation63"
    name: "resnetv25_stage3_activation63"
    op_type: "Relu"
  }
  node {
    input: "resnetv25_stage3_activation63"
    input: "resnetv25_stage3_conv64_weight"
    output: "resnetv25_stage3_conv64_fwd"
    name: "resnetv25_stage3_conv64_fwd"
    op_type: "Conv"
    attribute {
      name: "dilations"
      ints: 1
      ints: 1
      type: INTS
    }
    attribute {
      name: "group"
      i: 1
      type: INT
    }
    attribute {
      name: "kernel_shape"
      ints: 1
      ints: 1
      type: INTS
    }
    attribute {
      name: "pads"
      ints: 0
      ints: 0
      ints: 0
      ints: 0
      type: INTS
    }
    attribute {
      name: "strides"
      ints: 1
      ints: 1
      type: INTS
    }
  }
  node {
    input: "resnetv25_stage3_conv64_fwd"
    input: "resnetv25_stage3_batchnorm64_gamma"
    input: "resnetv25_stage3_batchnorm64_beta"
    input: "resnetv25_stage3_batchnorm64_running_mean"
    input: "resnetv25_stage3_batchnorm64_running_var"
    output: "resnetv25_stage3_batchnorm64_fwd"
    name: "resnetv25_stage3_batchnorm64_fwd"
    op_type: "BatchNormalization"
    attribute {
      name: "epsilon"
      f: 1e-05
      type: FLOAT
    }
    attribute {
      name: "momentum"
      f: 0.9
      type: FLOAT
    }
    attribute {
      name: "spatial"
      i: 1
      type: INT
    }
  }
  node {
    input: "resnetv25_stage3_batchnorm64_fwd"
    output: "resnetv25_stage3_activation64"
    name: "resnetv25_stage3_activation64"
    op_type: "Relu"
  }
  node {
    input: "resnetv25_stage3_activation64"
    input: "resnetv25_stage3_conv65_weight"
    output: "resnetv25_stage3_conv65_fwd"
    name: "resnetv25_stage3_conv65_fwd"
    op_type: "Conv"
    attribute {
      name: "dilations"
      ints: 1
      ints: 1
      type: INTS
    }
    attribute {
      name: "group"
      i: 1
      type: INT
    }
    attribute {
      name: "kernel_shape"
      ints: 3
      ints: 3
      type: INTS
    }
    attribute {
      name: "pads"
      ints: 1
      ints: 1
      ints: 1
      ints: 1
      type: INTS
    }
    attribute {
      name: "strides"
      ints: 1
      ints: 1
      type: INTS
    }
  }
  node {
    input: "resnetv25_stage3_conv65_fwd"
    input: "resnetv25_stage3_batchnorm65_gamma"
    input: "resnetv25_stage3_batchnorm65_beta"
    input: "resnetv25_stage3_batchnorm65_running_mean"
    input: "resnetv25_stage3_batchnorm65_running_var"
    output: "resnetv25_stage3_batchnorm65_fwd"
    name: "resnetv25_stage3_batchnorm65_fwd"
    op_type: "BatchNormalization"
    attribute {
      name: "epsilon"
      f: 1e-05
      type: FLOAT
    }
    attribute {
      name: "momentum"
      f: 0.9
      type: FLOAT
    }
    attribute {
      name: "spatial"
      i: 1
      type: INT
    }
  }
  node {
    input: "resnetv25_stage3_batchnorm65_fwd"
    output: "resnetv25_stage3_activation65"
    name: "resnetv25_stage3_activation65"
    op_type: "Relu"
  }
  node {
    input: "resnetv25_stage3_activation65"
    input: "resnetv25_stage3_conv66_weight"
    output: "resnetv25_stage3_conv66_fwd"
    name: "resnetv25_stage3_conv66_fwd"
    op_type: "Conv"
    attribute {
      name: "dilations"
      ints: 1
      ints: 1
      type: INTS
    }
    attribute {
      name: "group"
      i: 1
      type: INT
    }
    attribute {
      name: "kernel_shape"
      ints: 1
      ints: 1
      type: INTS
    }
    attribute {
      name: "pads"
      ints: 0
      ints: 0
      ints: 0
      ints: 0
      type: INTS
    }
    attribute {
      name: "strides"
      ints: 1
      ints: 1
      type: INTS
    }
  }
  node {
    input: "resnetv25_stage3_conv66_fwd"
    input: "resnetv25_stage3__plus20"
    output: "resnetv25_stage3__plus21"
    name: "resnetv25_stage3__plus21"
    op_type: "Add"
  }
  node {
    input: "resnetv25_stage3__plus21"
    input: "resnetv25_stage3_batchnorm66_gamma"
    input: "resnetv25_stage3_batchnorm66_beta"
    input: "resnetv25_stage3_batchnorm66_running_mean"
    input: "resnetv25_stage3_batchnorm66_running_var"
    output: "resnetv25_stage3_batchnorm66_fwd"
    name: "resnetv25_stage3_batchnorm66_fwd"
    op_type: "BatchNormalization"
    attribute {
      name: "epsilon"
      f: 1e-05
      type: FLOAT
    }
    attribute {
      name: "momentum"
      f: 0.9
      type: FLOAT
    }
    attribute {
      name: "spatial"
      i: 1
      type: INT
    }
  }
  node {
    input: "resnetv25_stage3_batchnorm66_fwd"
    output: "resnetv25_stage3_activation66"
    name: "resnetv25_stage3_activation66"
    op_type: "Relu"
  }
  node {
    input: "resnetv25_stage3_activation66"
    input: "resnetv25_stage3_conv67_weight"
    output: "resnetv25_stage3_conv67_fwd"
    name: "resnetv25_stage3_conv67_fwd"
    op_type: "Conv"
    attribute {
      name: "dilations"
      ints: 1
      ints: 1
      type: INTS
    }
    attribute {
      name: "group"
      i: 1
      type: INT
    }
    attribute {
      name: "kernel_shape"
      ints: 1
      ints: 1
      type: INTS
    }
    attribute {
      name: "pads"
      ints: 0
      ints: 0
      ints: 0
      ints: 0
      type: INTS
    }
    attribute {
      name: "strides"
      ints: 1
      ints: 1
      type: INTS
    }
  }
  node {
    input: "resnetv25_stage3_conv67_fwd"
    input: "resnetv25_stage3_batchnorm67_gamma"
    input: "resnetv25_stage3_batchnorm67_beta"
    input: "resnetv25_stage3_batchnorm67_running_mean"
    input: "resnetv25_stage3_batchnorm67_running_var"
    output: "resnetv25_stage3_batchnorm67_fwd"
    name: "resnetv25_stage3_batchnorm67_fwd"
    op_type: "BatchNormalization"
    attribute {
      name: "epsilon"
      f: 1e-05
      type: FLOAT
    }
    attribute {
      name: "momentum"
      f: 0.9
      type: FLOAT
    }
    attribute {
      name: "spatial"
      i: 1
      type: INT
    }
  }
  node {
    input: "resnetv25_stage3_batchnorm67_fwd"
    output: "resnetv25_stage3_activation67"
    name: "resnetv25_stage3_activation67"
    op_type: "Relu"
  }
  node {
    input: "resnetv25_stage3_activation67"
    input: "resnetv25_stage3_conv68_weight"
    output: "resnetv25_stage3_conv68_fwd"
    name: "resnetv25_stage3_conv68_fwd"
    op_type: "Conv"
    attribute {
      name: "dilations"
      ints: 1
      ints: 1
      type: INTS
    }
    attribute {
      name: "group"
      i: 1
      type: INT
    }
    attribute {
      name: "kernel_shape"
      ints: 3
      ints: 3
      type: INTS
    }
    attribute {
      name: "pads"
      ints: 1
      ints: 1
      ints: 1
      ints: 1
      type: INTS
    }
    attribute {
      name: "strides"
      ints: 1
      ints: 1
      type: INTS
    }
  }
  node {
    input: "resnetv25_stage3_conv68_fwd"
    input: "resnetv25_stage3_batchnorm68_gamma"
    input: "resnetv25_stage3_batchnorm68_beta"
    input: "resnetv25_stage3_batchnorm68_running_mean"
    input: "resnetv25_stage3_batchnorm68_running_var"
    output: "resnetv25_stage3_batchnorm68_fwd"
    name: "resnetv25_stage3_batchnorm68_fwd"
    op_type: "BatchNormalization"
    attribute {
      name: "epsilon"
      f: 1e-05
      type: FLOAT
    }
    attribute {
      name: "momentum"
      f: 0.9
      type: FLOAT
    }
    attribute {
      name: "spatial"
      i: 1
      type: INT
    }
  }
  node {
    input: "resnetv25_stage3_batchnorm68_fwd"
    output: "resnetv25_stage3_activation68"
    name: "resnetv25_stage3_activation68"
    op_type: "Relu"
  }
  node {
    input: "resnetv25_stage3_activation68"
    input: "resnetv25_stage3_conv69_weight"
    output: "resnetv25_stage3_conv69_fwd"
    name: "resnetv25_stage3_conv69_fwd"
    op_type: "Conv"
    attribute {
      name: "dilations"
      ints: 1
      ints: 1
      type: INTS
    }
    attribute {
      name: "group"
      i: 1
      type: INT
    }
    attribute {
      name: "kernel_shape"
      ints: 1
      ints: 1
      type: INTS
    }
    attribute {
      name: "pads"
      ints: 0
      ints: 0
      ints: 0
      ints: 0
      type: INTS
    }
    attribute {
      name: "strides"
      ints: 1
      ints: 1
      type: INTS
    }
  }
  node {
    input: "resnetv25_stage3_conv69_fwd"
    input: "resnetv25_stage3__plus21"
    output: "resnetv25_stage3__plus22"
    name: "resnetv25_stage3__plus22"
    op_type: "Add"
  }
  node {
    input: "resnetv25_stage3__plus22"
    input: "resnetv25_stage4_batchnorm0_gamma"
    input: "resnetv25_stage4_batchnorm0_beta"
    input: "resnetv25_stage4_batchnorm0_running_mean"
    input: "resnetv25_stage4_batchnorm0_running_var"
    output: "resnetv25_stage4_batchnorm0_fwd"
    name: "resnetv25_stage4_batchnorm0_fwd"
    op_type: "BatchNormalization"
    attribute {
      name: "epsilon"
      f: 1e-05
      type: FLOAT
    }
    attribute {
      name: "momentum"
      f: 0.9
      type: FLOAT
    }
    attribute {
      name: "spatial"
      i: 1
      type: INT
    }
  }
  node {
    input: "resnetv25_stage4_batchnorm0_fwd"
    output: "resnetv25_stage4_activation0"
    name: "resnetv25_stage4_activation0"
    op_type: "Relu"
  }
  node {
    input: "resnetv25_stage4_activation0"
    input: "resnetv25_stage4_conv0_weight"
    output: "resnetv25_stage4_conv0_fwd"
    name: "resnetv25_stage4_conv0_fwd"
    op_type: "Conv"
    attribute {
      name: "dilations"
      ints: 1
      ints: 1
      type: INTS
    }
    attribute {
      name: "group"
      i: 1
      type: INT
    }
    attribute {
      name: "kernel_shape"
      ints: 1
      ints: 1
      type: INTS
    }
    attribute {
      name: "pads"
      ints: 0
      ints: 0
      ints: 0
      ints: 0
      type: INTS
    }
    attribute {
      name: "strides"
      ints: 1
      ints: 1
      type: INTS
    }
  }
  node {
    input: "resnetv25_stage4_conv0_fwd"
    input: "resnetv25_stage4_batchnorm1_gamma"
    input: "resnetv25_stage4_batchnorm1_beta"
    input: "resnetv25_stage4_batchnorm1_running_mean"
    input: "resnetv25_stage4_batchnorm1_running_var"
    output: "resnetv25_stage4_batchnorm1_fwd"
    name: "resnetv25_stage4_batchnorm1_fwd"
    op_type: "BatchNormalization"
    attribute {
      name: "epsilon"
      f: 1e-05
      type: FLOAT
    }
    attribute {
      name: "momentum"
      f: 0.9
      type: FLOAT
    }
    attribute {
      name: "spatial"
      i: 1
      type: INT
    }
  }
  node {
    input: "resnetv25_stage4_batchnorm1_fwd"
    output: "resnetv25_stage4_activation1"
    name: "resnetv25_stage4_activation1"
    op_type: "Relu"
  }
  node {
    input: "resnetv25_stage4_activation1"
    input: "resnetv25_stage4_conv1_weight"
    output: "resnetv25_stage4_conv1_fwd"
    name: "resnetv25_stage4_conv1_fwd"
    op_type: "Conv"
    attribute {
      name: "dilations"
      ints: 1
      ints: 1
      type: INTS
    }
    attribute {
      name: "group"
      i: 1
      type: INT
    }
    attribute {
      name: "kernel_shape"
      ints: 3
      ints: 3
      type: INTS
    }
    attribute {
      name: "pads"
      ints: 1
      ints: 1
      ints: 1
      ints: 1
      type: INTS
    }
    attribute {
      name: "strides"
      ints: 2
      ints: 2
      type: INTS
    }
  }
  node {
    input: "resnetv25_stage4_conv1_fwd"
    input: "resnetv25_stage4_batchnorm2_gamma"
    input: "resnetv25_stage4_batchnorm2_beta"
    input: "resnetv25_stage4_batchnorm2_running_mean"
    input: "resnetv25_stage4_batchnorm2_running_var"
    output: "resnetv25_stage4_batchnorm2_fwd"
    name: "resnetv25_stage4_batchnorm2_fwd"
    op_type: "BatchNormalization"
    attribute {
      name: "epsilon"
      f: 1e-05
      type: FLOAT
    }
    attribute {
      name: "momentum"
      f: 0.9
      type: FLOAT
    }
    attribute {
      name: "spatial"
      i: 1
      type: INT
    }
  }
  node {
    input: "resnetv25_stage4_batchnorm2_fwd"
    output: "resnetv25_stage4_activation2"
    name: "resnetv25_stage4_activation2"
    op_type: "Relu"
  }
  node {
    input: "resnetv25_stage4_activation2"
    input: "resnetv25_stage4_conv2_weight"
    output: "resnetv25_stage4_conv2_fwd"
    name: "resnetv25_stage4_conv2_fwd"
    op_type: "Conv"
    attribute {
      name: "dilations"
      ints: 1
      ints: 1
      type: INTS
    }
    attribute {
      name: "group"
      i: 1
      type: INT
    }
    attribute {
      name: "kernel_shape"
      ints: 1
      ints: 1
      type: INTS
    }
    attribute {
      name: "pads"
      ints: 0
      ints: 0
      ints: 0
      ints: 0
      type: INTS
    }
    attribute {
      name: "strides"
      ints: 1
      ints: 1
      type: INTS
    }
  }
  node {
    input: "resnetv25_stage4_activation0"
    input: "resnetv25_stage4_conv3_weight"
    output: "resnetv25_stage4_conv3_fwd"
    name: "resnetv25_stage4_conv3_fwd"
    op_type: "Conv"
    attribute {
      name: "dilations"
      ints: 1
      ints: 1
      type: INTS
    }
    attribute {
      name: "group"
      i: 1
      type: INT
    }
    attribute {
      name: "kernel_shape"
      ints: 1
      ints: 1
      type: INTS
    }
    attribute {
      name: "pads"
      ints: 0
      ints: 0
      ints: 0
      ints: 0
      type: INTS
    }
    attribute {
      name: "strides"
      ints: 2
      ints: 2
      type: INTS
    }
  }
  node {
    input: "resnetv25_stage4_conv2_fwd"
    input: "resnetv25_stage4_conv3_fwd"
    output: "resnetv25_stage4__plus0"
    name: "resnetv25_stage4__plus0"
    op_type: "Add"
  }
  node {
    input: "resnetv25_stage4__plus0"
    input: "resnetv25_stage4_batchnorm3_gamma"
    input: "resnetv25_stage4_batchnorm3_beta"
    input: "resnetv25_stage4_batchnorm3_running_mean"
    input: "resnetv25_stage4_batchnorm3_running_var"
    output: "resnetv25_stage4_batchnorm3_fwd"
    name: "resnetv25_stage4_batchnorm3_fwd"
    op_type: "BatchNormalization"
    attribute {
      name: "epsilon"
      f: 1e-05
      type: FLOAT
    }
    attribute {
      name: "momentum"
      f: 0.9
      type: FLOAT
    }
    attribute {
      name: "spatial"
      i: 1
      type: INT
    }
  }
  node {
    input: "resnetv25_stage4_batchnorm3_fwd"
    output: "resnetv25_stage4_activation3"
    name: "resnetv25_stage4_activation3"
    op_type: "Relu"
  }
  node {
    input: "resnetv25_stage4_activation3"
    input: "resnetv25_stage4_conv4_weight"
    output: "resnetv25_stage4_conv4_fwd"
    name: "resnetv25_stage4_conv4_fwd"
    op_type: "Conv"
    attribute {
      name: "dilations"
      ints: 1
      ints: 1
      type: INTS
    }
    attribute {
      name: "group"
      i: 1
      type: INT
    }
    attribute {
      name: "kernel_shape"
      ints: 1
      ints: 1
      type: INTS
    }
    attribute {
      name: "pads"
      ints: 0
      ints: 0
      ints: 0
      ints: 0
      type: INTS
    }
    attribute {
      name: "strides"
      ints: 1
      ints: 1
      type: INTS
    }
  }
  node {
    input: "resnetv25_stage4_conv4_fwd"
    input: "resnetv25_stage4_batchnorm4_gamma"
    input: "resnetv25_stage4_batchnorm4_beta"
    input: "resnetv25_stage4_batchnorm4_running_mean"
    input: "resnetv25_stage4_batchnorm4_running_var"
    output: "resnetv25_stage4_batchnorm4_fwd"
    name: "resnetv25_stage4_batchnorm4_fwd"
    op_type: "BatchNormalization"
    attribute {
      name: "epsilon"
      f: 1e-05
      type: FLOAT
    }
    attribute {
      name: "momentum"
      f: 0.9
      type: FLOAT
    }
    attribute {
      name: "spatial"
      i: 1
      type: INT
    }
  }
  node {
    input: "resnetv25_stage4_batchnorm4_fwd"
    output: "resnetv25_stage4_activation4"
    name: "resnetv25_stage4_activation4"
    op_type: "Relu"
  }
  node {
    input: "resnetv25_stage4_activation4"
    input: "resnetv25_stage4_conv5_weight"
    output: "resnetv25_stage4_conv5_fwd"
    name: "resnetv25_stage4_conv5_fwd"
    op_type: "Conv"
    attribute {
      name: "dilations"
      ints: 1
      ints: 1
      type: INTS
    }
    attribute {
      name: "group"
      i: 1
      type: INT
    }
    attribute {
      name: "kernel_shape"
      ints: 3
      ints: 3
      type: INTS
    }
    attribute {
      name: "pads"
      ints: 1
      ints: 1
      ints: 1
      ints: 1
      type: INTS
    }
    attribute {
      name: "strides"
      ints: 1
      ints: 1
      type: INTS
    }
  }
  node {
    input: "resnetv25_stage4_conv5_fwd"
    input: "resnetv25_stage4_batchnorm5_gamma"
    input: "resnetv25_stage4_batchnorm5_beta"
    input: "resnetv25_stage4_batchnorm5_running_mean"
    input: "resnetv25_stage4_batchnorm5_running_var"
    output: "resnetv25_stage4_batchnorm5_fwd"
    name: "resnetv25_stage4_batchnorm5_fwd"
    op_type: "BatchNormalization"
    attribute {
      name: "epsilon"
      f: 1e-05
      type: FLOAT
    }
    attribute {
      name: "momentum"
      f: 0.9
      type: FLOAT
    }
    attribute {
      name: "spatial"
      i: 1
      type: INT
    }
  }
  node {
    input: "resnetv25_stage4_batchnorm5_fwd"
    output: "resnetv25_stage4_activation5"
    name: "resnetv25_stage4_activation5"
    op_type: "Relu"
  }
  node {
    input: "resnetv25_stage4_activation5"
    input: "resnetv25_stage4_conv6_weight"
    output: "resnetv25_stage4_conv6_fwd"
    name: "resnetv25_stage4_conv6_fwd"
    op_type: "Conv"
    attribute {
      name: "dilations"
      ints: 1
      ints: 1
      type: INTS
    }
    attribute {
      name: "group"
      i: 1
      type: INT
    }
    attribute {
      name: "kernel_shape"
      ints: 1
      ints: 1
      type: INTS
    }
    attribute {
      name: "pads"
      ints: 0
      ints: 0
      ints: 0
      ints: 0
      type: INTS
    }
    attribute {
      name: "strides"
      ints: 1
      ints: 1
      type: INTS
    }
  }
  node {
    input: "resnetv25_stage4_conv6_fwd"
    input: "resnetv25_stage4__plus0"
    output: "resnetv25_stage4__plus1"
    name: "resnetv25_stage4__plus1"
    op_type: "Add"
  }
  node {
    input: "resnetv25_stage4__plus1"
    input: "resnetv25_stage4_batchnorm6_gamma"
    input: "resnetv25_stage4_batchnorm6_beta"
    input: "resnetv25_stage4_batchnorm6_running_mean"
    input: "resnetv25_stage4_batchnorm6_running_var"
    output: "resnetv25_stage4_batchnorm6_fwd"
    name: "resnetv25_stage4_batchnorm6_fwd"
    op_type: "BatchNormalization"
    attribute {
      name: "epsilon"
      f: 1e-05
      type: FLOAT
    }
    attribute {
      name: "momentum"
      f: 0.9
      type: FLOAT
    }
    attribute {
      name: "spatial"
      i: 1
      type: INT
    }
  }
  node {
    input: "resnetv25_stage4_batchnorm6_fwd"
    output: "resnetv25_stage4_activation6"
    name: "resnetv25_stage4_activation6"
    op_type: "Relu"
  }
  node {
    input: "resnetv25_stage4_activation6"
    input: "resnetv25_stage4_conv7_weight"
    output: "resnetv25_stage4_conv7_fwd"
    name: "resnetv25_stage4_conv7_fwd"
    op_type: "Conv"
    attribute {
      name: "dilations"
      ints: 1
      ints: 1
      type: INTS
    }
    attribute {
      name: "group"
      i: 1
      type: INT
    }
    attribute {
      name: "kernel_shape"
      ints: 1
      ints: 1
      type: INTS
    }
    attribute {
      name: "pads"
      ints: 0
      ints: 0
      ints: 0
      ints: 0
      type: INTS
    }
    attribute {
      name: "strides"
      ints: 1
      ints: 1
      type: INTS
    }
  }
  node {
    input: "resnetv25_stage4_conv7_fwd"
    input: "resnetv25_stage4_batchnorm7_gamma"
    input: "resnetv25_stage4_batchnorm7_beta"
    input: "resnetv25_stage4_batchnorm7_running_mean"
    input: "resnetv25_stage4_batchnorm7_running_var"
    output: "resnetv25_stage4_batchnorm7_fwd"
    name: "resnetv25_stage4_batchnorm7_fwd"
    op_type: "BatchNormalization"
    attribute {
      name: "epsilon"
      f: 1e-05
      type: FLOAT
    }
    attribute {
      name: "momentum"
      f: 0.9
      type: FLOAT
    }
    attribute {
      name: "spatial"
      i: 1
      type: INT
    }
  }
  node {
    input: "resnetv25_stage4_batchnorm7_fwd"
    output: "resnetv25_stage4_activation7"
    name: "resnetv25_stage4_activation7"
    op_type: "Relu"
  }
  node {
    input: "resnetv25_stage4_activation7"
…
        elem_type: 1
        shape {
          dim {
            dim_value: 256
          }
        }
      }
    }
  }
  input {
    name: "resnetv25_stage3_batchnorm38_running_var"
    type {
      tensor_type {
        elem_type: 1
        shape {
          dim {
            dim_value: 256
          }
        }
      }
    }
  }
  input {
    name: "resnetv25_stage3_conv39_weight"
    type {
      tensor_type {
        elem_type: 1
        shape {
          dim {
            dim_value: 1024
          }
          dim {
            dim_value: 256
          }
          dim {
            dim_value: 1
          }
          dim {
            dim_value: 1
          }
        }
      }
    }
  }
  input {
    name: "resnetv25_stage3_batchnorm39_gamma"
    type {
      tensor_type {
        elem_type: 1
        shape {
          dim {
            dim_value: 1024
          }
        }
      }
    }
  }
  input {
    name: "resnetv25_stage3_batchnorm39_beta"
    type {
      tensor_type {
        elem_type: 1
        shape {
          dim {
            dim_value: 1024
          }
        }
      }
    }
  }
  input {
    name: "resnetv25_stage3_batchnorm39_running_mean"
    type {
      tensor_type {
        elem_type: 1
        shape {
          dim {
            dim_value: 1024
          }
        }
      }
    }
  }
  input {
    name: "resnetv25_stage3_batchnorm39_running_var"
    type {
      tensor_type {
        elem_type: 1
        shape {
          dim {
            dim_value: 1024
          }
        }
      }
    }
  }
  input {
    name: "resnetv25_stage3_conv40_weight"
    type {
      tensor_type {
        elem_type: 1
        shape {
          dim {
            dim_value: 256
          }
          dim {
            dim_value: 1024
          }
          dim {
            dim_value: 1
          }
          dim {
            dim_value: 1
          }
        }
      }
    }
  }
  input {
    name: "resnetv25_stage3_batchnorm40_gamma"
    type {
      tensor_type {
        elem_type: 1
        shape {
          dim {
            dim_value: 256
          }
        }
      }
    }
  }
  input {
    name: "resnetv25_stage3_batchnorm40_beta"
    type {
      tensor_type {
        elem_type: 1
        shape {
          dim {
            dim_value: 256
          }
        }
      }
    }
  }
  input {
    name: "resnetv25_stage3_batchnorm40_running_mean"
    type {
      tensor_type {
        elem_type: 1
        shape {
          dim {
            dim_value: 256
          }
        }
      }
    }
  }
  input {
    name: "resnetv25_stage3_batchnorm40_running_var"
    type {
      tensor_type {
        elem_type: 1
        shape {
          dim {
            dim_value: 256
          }
        }
      }
    }
  }
  input {
    name: "resnetv25_stage3_conv41_weight"
    type {
      tensor_type {
        elem_type: 1
        shape {
          dim {
            dim_value: 256
          }
          dim {
            dim_value: 256
          }
          dim {
            dim_value: 3
          }
          dim {
            dim_value: 3
          }
        }
      }
    }
  }
  input {
    name: "resnetv25_stage3_batchnorm41_gamma"
    type {
      tensor_type {
        elem_type: 1
        shape {
          dim {
            dim_value: 256
          }
        }
      }
    }
  }
  input {
    name: "resnetv25_stage3_batchnorm41_beta"
    type {
      tensor_type {
        elem_type: 1
        shape {
          dim {
            dim_value: 256
          }
        }
      }
    }
  }
  input {
    name: "resnetv25_stage3_batchnorm41_running_mean"
    type {
      tensor_type {
        elem_type: 1
        shape {
          dim {
            dim_value: 256
          }
        }
      }
    }
  }
  input {
    name: "resnetv25_stage3_batchnorm41_running_var"
    type {
      tensor_type {
        elem_type: 1
        shape {
          dim {
            dim_value: 256
          }
        }
      }
    }
  }
  input {
    name: "resnetv25_stage3_conv42_weight"
    type {
      tensor_type {
        elem_type: 1
        shape {
          dim {
            dim_value: 1024
          }
          dim {
            dim_value: 256
          }
          dim {
            dim_value: 1
          }
          dim {
            dim_value: 1
          }
        }
      }
    }
  }
  input {
    name: "resnetv25_stage3_batchnorm42_gamma"
    type {
      tensor_type {
        elem_type: 1
        shape {
          dim {
            dim_value: 1024
          }
        }
      }
    }
  }
  input {
    name: "resnetv25_stage3_batchnorm42_beta"
    type {
      tensor_type {
        elem_type: 1
        shape {
          dim {
            dim_value: 1024
          }
        }
      }
    }
  }
  input {
    name: "resnetv25_stage3_batchnorm42_running_mean"
    type {
      tensor_type {
        elem_type: 1
        shape {
          dim {
            dim_value: 1024
          }
        }
      }
    }
  }
  input {
    name: "resnetv25_stage3_batchnorm42_running_var"
    type {
      tensor_type {
        elem_type: 1
        shape {
          dim {
            dim_value: 1024
          }
        }
      }
    }
  }
  input {
    name: "resnetv25_stage3_conv43_weight"
    type {
      tensor_type {
        elem_type: 1
        shape {
          dim {
            dim_value: 256
          }
          dim {
            dim_value: 1024
          }
          dim {
            dim_value: 1
          }
          dim {
            dim_value: 1
          }
        }
      }
    }
  }
  input {
    name: "resnetv25_stage3_batchnorm43_gamma"
    type {
      tensor_type {
        elem_type: 1
        shape {
          dim {
            dim_value: 256
          }
        }
      }
    }
  }
  input {
    name: "resnetv25_stage3_batchnorm43_beta"
    type {
      tensor_type {
        elem_type: 1
        shape {
          dim {
            dim_value: 256
          }
        }
      }
    }
  }
  input {
    name: "resnetv25_stage3_batchnorm43_running_mean"
    type {
      tensor_type {
        elem_type: 1
        shape {
          dim {
            dim_value: 256
          }
        }
      }
    }
  }
  input {
    name: "resnetv25_stage3_batchnorm43_running_var"
    type {
      tensor_type {
        elem_type: 1
        shape {
          dim {
            dim_value: 256
          }
        }
      }
    }
  }
  input {
    name: "resnetv25_stage3_conv44_weight"
    type {
      tensor_type {
        elem_type: 1
        shape {
          dim {
            dim_value: 256
          }
          dim {
            dim_value: 256
          }
          dim {
            dim_value: 3
          }
          dim {
            dim_value: 3
          }
        }
      }
    }
  }
  input {
    name: "resnetv25_stage3_batchnorm44_gamma"
    type {
      tensor_type {
        elem_type: 1
        shape {
          dim {
            dim_value: 256
          }
        }
      }
    }
  }
  input {
    name: "resnetv25_stage3_batchnorm44_beta"
    type {
      tensor_type {
        elem_type: 1
        shape {
          dim {
            dim_value: 256
          }
        }
      }
    }
  }
  input {
    name: "resnetv25_stage3_batchnorm44_running_mean"
    type {
      tensor_type {
        elem_type: 1
        shape {
          dim {
            dim_value: 256
          }
        }
      }
    }
  }
  input {
    name: "resnetv25_stage3_batchnorm44_running_var"
    type {
      tensor_type {
        elem_type: 1
        shape {
          dim {
            dim_value: 256
          }
        }
      }
    }
  }
  input {
    name: "resnetv25_stage3_conv45_weight"
    type {
      tensor_type {
        elem_type: 1
        shape {
          dim {
            dim_value: 1024
          }
          dim {
            dim_value: 256
          }
          dim {
            dim_value: 1
          }
          dim {
            dim_value: 1
          }
        }
      }
    }
  }
  input {
    name: "resnetv25_stage3_batchnorm45_gamma"
    type {
      tensor_type {
        elem_type: 1
        shape {
          dim {
            dim_value: 1024
          }
        }
      }
    }
  }
  input {
    name: "resnetv25_stage3_batchnorm45_beta"
    type {
      tensor_type {
        elem_type: 1
        shape {
          dim {
            dim_value: 1024
          }
        }
      }
    }
  }
  input {
    name: "resnetv25_stage3_batchnorm45_running_mean"
    type {
      tensor_type {
        elem_type: 1
        shape {
          dim {
            dim_value: 1024
          }
        }
      }
    }
  }
  input {
    name: "resnetv25_stage3_batchnorm45_running_var"
    type {
      tensor_type {
        elem_type: 1
        shape {
          dim {
            dim_value: 1024
          }
        }
      }
    }
  }
  input {
    name: "resnetv25_stage3_conv46_weight"
    type {
      tensor_type {
        elem_type: 1
        shape {
          dim {
            dim_value: 256
          }
          dim {
            dim_value: 1024
          }
          dim {
            dim_value: 1
          }
          dim {
            dim_value: 1
          }
        }
      }
    }
  }
  input {
    name: "resnetv25_stage3_batchnorm46_gamma"
    type {
      tensor_type {
        elem_type: 1
        shape {
          dim {
            dim_value: 256
          }
        }
      }
    }
  }
  input {
    name: "resnetv25_stage3_batchnorm46_beta"
    type {
      tensor_type {
        elem_type: 1
        shape {
          dim {
            dim_value: 256
          }
        }
      }
    }
  }
  input {
    name: "resnetv25_stage3_batchnorm46_running_mean"
    type {
      tensor_type {
        elem_type: 1
        shape {
          dim {
            dim_value: 256
          }
        }
      }
    }
  }
  input {
    name: "resnetv25_stage3_batchnorm46_running_var"
    type {
      tensor_type {
        elem_type: 1
        shape {
          dim {
            dim_value: 256
          }
        }
      }
    }
  }
  input {
    name: "resnetv25_stage3_conv47_weight"
    type {
      tensor_type {
        elem_type: 1
        shape {
          dim {
            dim_value: 256
          }
          dim {
            dim_value: 256
          }
          dim {
            dim_value: 3
          }
          dim {
            dim_value: 3
          }
        }
      }
    }
  }
  input {
    name: "resnetv25_stage3_batchnorm47_gamma"
    type {
      tensor_type {
        elem_type: 1
        shape {
          dim {
            dim_value: 256
          }
        }
      }
    }
  }
  input {
    name: "resnetv25_stage3_batchnorm47_beta"
    type {
      tensor_type {
        elem_type: 1
        shape {
          dim {
            dim_value: 256
          }
        }
      }
    }
  }
  input {
    name: "resnetv25_stage3_batchnorm47_running_mean"
    type {
      tensor_type {
        elem_type: 1
        shape {
          dim {
            dim_value: 256
          }
        }
      }
    }
  }
  input {
    name: "resnetv25_stage3_batchnorm47_running_var"
    type {
      tensor_type {
        elem_type: 1
        shape {
          dim {
            dim_value: 256
          }
        }
      }
    }
  }
  input {
    name: "resnetv25_stage3_conv48_weight"
    type {
      tensor_type {
        elem_type: 1
        shape {
          dim {
            dim_value: 1024
          }
          dim {
            dim_value: 256
          }
          dim {
            dim_value: 1
          }
          dim {
            dim_value: 1
          }
        }
      }
    }
  }
  input {
    name: "resnetv25_stage3_batchnorm48_gamma"
    type {
      tensor_type {
        elem_type: 1
        shape {
          dim {
            dim_value: 1024
          }
        }
      }
    }
  }
  input {
    name: "resnetv25_stage3_batchnorm48_beta"
    type {
      tensor_type {
        elem_type: 1
        shape {
          dim {
            dim_value: 1024
          }
        }
      }
    }
  }
  input {
    name: "resnetv25_stage3_batchnorm48_running_mean"
    type {
      tensor_type {
        elem_type: 1
        shape {
          dim {
            dim_value: 1024
          }
        }
      }
    }
  }
  input {
    name: "resnetv25_stage3_batchnorm48_running_var"
    type {
      tensor_type {
        elem_type: 1
        shape {
          dim {
            dim_value: 1024
          }
        }
      }
    }
  }
  input {
    name: "resnetv25_stage3_conv49_weight"
    type {
      tensor_type {
        elem_type: 1
        shape {
          dim {
            dim_value: 256
          }
          dim {
            dim_value: 1024
          }
          dim {
            dim_value: 1
          }
          dim {
            dim_value: 1
          }
        }
      }
    }
  }
  input {
    name: "resnetv25_stage3_batchnorm49_gamma"
    type {
      tensor_type {
        elem_type: 1
        shape {
          dim {
            dim_value: 256
          }
        }
      }
    }
  }
  input {
    name: "resnetv25_stage3_batchnorm49_beta"
    type {
      tensor_type {
        elem_type: 1
        shape {
          dim {
            dim_value: 256
          }
        }
      }
    }
  }
  input {
    name: "resnetv25_stage3_batchnorm49_running_mean"
    type {
      tensor_type {
        elem_type: 1
        shape {
          dim {
            dim_value: 256
          }
        }
      }
    }
  }
  input {
    name: "resnetv25_stage3_batchnorm49_running_var"
    type {
      tensor_type {
        elem_type: 1
        shape {
          dim {
            dim_value: 256
          }
        }
      }
    }
  }
  input {
    name: "resnetv25_stage3_conv50_weight"
    type {
      tensor_type {
        elem_type: 1
        shape {
          dim {
            dim_value: 256
          }
          dim {
            dim_value: 256
          }
          dim {
            dim_value: 3
          }
          dim {
            dim_value: 3
          }
        }
      }
    }
  }
  input {
    name: "resnetv25_stage3_batchnorm50_gamma"
    type {
      tensor_type {
        elem_type: 1
        shape {
          dim {
            dim_value: 256
          }
        }
      }
    }
  }
  input {
    name: "resnetv25_stage3_batchnorm50_beta"
    type {
      tensor_type {
        elem_type: 1
        shape {
          dim {
            dim_value: 256
          }
        }
      }
    }
  }
  input {
    name: "resnetv25_stage3_batchnorm50_running_mean"
    type {
      tensor_type {
        elem_type: 1
        shape {
          dim {
            dim_value: 256
          }
        }
      }
    }
  }
  input {
    name: "resnetv25_stage3_batchnorm50_running_var"
    type {
      tensor_type {
        elem_type: 1
        shape {
          dim {
            dim_value: 256
          }
        }
      }
    }
  }
  input {
    name: "resnetv25_stage3_conv51_weight"
    type {
      tensor_type {
        elem_type: 1
        shape {
          dim {
            dim_value: 1024
          }
          dim {
            dim_value: 256
          }
          dim {
            dim_value: 1
          }
          dim {
            dim_value: 1
          }
        }
      }
    }
  }
  input {
    name: "resnetv25_stage3_batchnorm51_gamma"
    type {
      tensor_type {
        elem_type: 1
        shape {
          dim {
            dim_value: 1024
          }
        }
      }
    }
  }
  input {
    name: "resnetv25_stage3_batchnorm51_beta"
    type {
      tensor_type {
        elem_type: 1
        shape {
          dim {
            dim_value: 1024
          }
        }
      }
    }
  }
  input {
    name: "resnetv25_stage3_batchnorm51_running_mean"
    type {
      tensor_type {
        elem_type: 1
        shape {
          dim {
            dim_value: 1024
          }
        }
      }
    }
  }
  input {
    name: "resnetv25_stage3_batchnorm51_running_var"
    type {
      tensor_type {
        elem_type: 1
        shape {
          dim {
            dim_value: 1024
          }
        }
      }
    }
  }
  input {
    name: "resnetv25_stage3_conv52_weight"
    type {
      tensor_type {
        elem_type: 1
        shape {
          dim {
            dim_value: 256
          }
          dim {
            dim_value: 1024
          }
          dim {
            dim_value: 1
          }
          dim {
            dim_value: 1
          }
        }
      }
    }
  }
  input {
    name: "resnetv25_stage3_batchnorm52_gamma"
    type {
      tensor_type {
        elem_type: 1
        shape {
          dim {
            dim_value: 256
          }
        }
      }
    }
  }
  input {
    name: "resnetv25_stage3_batchnorm52_beta"
    type {
      tensor_type {
        elem_type: 1
        shape {
          dim {
            dim_value: 256
          }
        }
      }
    }
  }
  input {
    name: "resnetv25_stage3_batchnorm52_running_mean"
    type {
      tensor_type {
        elem_type: 1
        shape {
          dim {
            dim_value: 256
          }
        }
      }
    }
  }
  input {
    name: "resnetv25_stage3_batchnorm52_running_var"
    type {
      tensor_type {
        elem_type: 1
        shape {
          dim {
            dim_value: 256
          }
        }
      }
    }
  }
  input {
    name: "resnetv25_stage3_conv53_weight"
    type {
      tensor_type {
        elem_type: 1
        shape {
          dim {
            dim_value: 256
          }
          dim {
            dim_value: 256
          }
          dim {
            dim_value: 3
          }
          dim {
            dim_value: 3
          }
        }
      }
    }
  }
  input {
    name: "resnetv25_stage3_batchnorm53_gamma"
    type {
      tensor_type {
        elem_type: 1
        shape {
          dim {
            dim_value: 256
          }
        }
      }
    }
  }
  input {
    name: "resnetv25_stage3_batchnorm53_beta"
    type {
      tensor_type {
        elem_type: 1
        shape {
          dim {
            dim_value: 256
          }
        }
      }
    }
  }
  input {
    name: "resnetv25_stage3_batchnorm53_running_mean"
    type {
      tensor_type {
        elem_type: 1
        shape {
          dim {
            dim_value: 256
          }
        }
      }
    }
  }
  input {
    name: "resnetv25_stage3_batchnorm53_running_var"
    type {
      tensor_type {
        elem_type: 1
        shape {
          dim {
            dim_value: 256
          }
        }
      }
    }
  }
  input {
    name: "resnetv25_stage3_conv54_weight"
    type {
      tensor_type {
        elem_type: 1
        shape {
          dim {
            dim_value: 1024
          }
          dim {
            dim_value: 256
          }
          dim {
            dim_value: 1
          }
          dim {
            dim_value: 1
          }
        }
      }
    }
  }
  input {
    name: "resnetv25_stage3_batchnorm54_gamma"
    type {
      tensor_type {
        elem_type: 1
        shape {
          dim {
            dim_value: 1024
          }
        }
      }
    }
  }
  input {
    name: "resnetv25_stage3_batchnorm54_beta"
    type {
      tensor_type {
        elem_type: 1
        shape {
          dim {
            dim_value: 1024
          }
        }
      }
    }
  }
  input {
    name: "resnetv25_stage3_batchnorm54_running_mean"
    type {
      tensor_type {
        elem_type: 1
        shape {
          dim {
            dim_value: 1024
          }
        }
      }
    }
  }
  input {
    name: "resnetv25_stage3_batchnorm54_running_var"
    type {
      tensor_type {
        elem_type: 1
        shape {
          dim {
            dim_value: 1024
          }
        }
      }
    }
  }
  input {
    name: "resnetv25_stage3_conv55_weight"
    type {
      tensor_type {
        elem_type: 1
        shape {
          dim {
            dim_value: 256
          }
          dim {
            dim_value: 1024
          }
          dim {
            dim_value: 1
          }
          dim {
            dim_value: 1
          }
        }
      }
    }
  }
  input {
    name: "resnetv25_stage3_batchnorm55_gamma"
    type {
      tensor_type {
        elem_type: 1
        shape {
          dim {
            dim_value: 256
          }
        }
      }
    }
  }
  input {
    name: "resnetv25_stage3_batchnorm55_beta"
    type {
      tensor_type {
        elem_type: 1
        shape {
          dim {
            dim_value: 256
          }
        }
      }
    }
  }
  input {
    name: "resnetv25_stage3_batchnorm55_running_mean"
    type {
      tensor_type {
        elem_type: 1
        shape {
          dim {
            dim_value: 256
          }
        }
      }
    }
  }
  input {
    name: "resnetv25_stage3_batchnorm55_running_var"
    type {
      tensor_type {
        elem_type: 1
        shape {
          dim {
            dim_value: 256
          }
        }
      }
    }
  }
  input {
    name: "resnetv25_stage3_conv56_weight"
    type {
      tensor_type {
        elem_type: 1
        shape {
          dim {
            dim_value: 256
          }
          dim {
            dim_value: 256
          }
          dim {
            dim_value: 3
          }
          dim {
            dim_value: 3
          }
        }
      }
    }
  }
  input {
    name: "resnetv25_stage3_batchnorm56_gamma"
    type {
      tensor_type {
        elem_type: 1
        shape {
          dim {
            dim_value: 256
          }
        }
      }
    }
  }
  input {
    name: "resnetv25_stage3_batchnorm56_beta"
    type {
      tensor_type {
        elem_type: 1
        shape {
          dim {
            dim_value: 256
          }
        }
      }
    }
  }
  input {
    name: "resnetv25_stage3_batchnorm56_running_mean"
    type {
      tensor_type {
        elem_type: 1
        shape {
          dim {
            dim_value: 256
          }
        }
      }
    }
  }
  input {
    name: "resnetv25_stage3_batchnorm56_running_var"
    type {
      tensor_type {
        elem_type: 1
        shape {
          dim {
            dim_value: 256
          }
        }
      }
    }
  }
  input {
    name: "resnetv25_stage3_conv57_weight"
    type {
      tensor_type {
        elem_type: 1
        shape {
          dim {
            dim_value: 1024
          }
          dim {
            dim_value: 256
          }
          dim {
            dim_value: 1
          }
          dim {
            dim_value: 1
          }
        }
      }
    }
  }
  input {
    name: "resnetv25_stage3_batchnorm57_gamma"
    type {
      tensor_type {
        elem_type: 1
        shape {
          dim {
            dim_value: 1024
          }
        }
      }
    }
  }
  input {
    name: "resnetv25_stage3_batchnorm57_beta"
    type {
      tensor_type {
        elem_type: 1
        shape {
          dim {
            dim_value: 1024
          }
        }
      }
    }
  }
  input {
    name: "resnetv25_stage3_batchnorm57_running_mean"
    type {
      tensor_type {
        elem_type: 1
        shape {
          dim {
            dim_value: 1024
          }
        }
      }
    }
  }
  input {
    name: "resnetv25_stage3_batchnorm57_running_var"
    type {
      tensor_type {
        elem_type: 1
        shape {
          dim {
            dim_value: 1024
          }
        }
      }
    }
  }
  input {
    name: "resnetv25_stage3_conv58_weight"
    type {
      tensor_type {
        elem_type: 1
        shape {
          dim {
            dim_value: 256
          }
          dim {
            dim_value: 1024
          }
          dim {
            dim_value: 1
          }
          dim {
            dim_value: 1
          }
        }
      }
    }
  }
  input {
    name: "resnetv25_stage3_batchnorm58_gamma"
    type {
      tensor_type {
        elem_type: 1
        shape {
          dim {
            dim_value: 256
          }
        }
      }
    }
  }
  input {
    name: "resnetv25_stage3_batchnorm58_beta"
    type {
      tensor_type {
        elem_type: 1
        shape {
          dim {
            dim_value: 256
          }
        }
      }
    }
  }
  input {
    name: "resnetv25_stage3_batchnorm58_running_mean"
    type {
      tensor_type {
        elem_type: 1
        shape {
          dim {
            dim_value: 256
          }
        }
      }
    }
  }
  input {
    name: "resnetv25_stage3_batchnorm58_running_var"
    type {
      tensor_type {
        elem_type: 1
        shape {
          dim {
            dim_value: 256
          }
        }
      }
    }
  }
  input {
    name: "resnetv25_stage3_conv59_weight"
    type {
      tensor_type {
        elem_type: 1
        shape {
          dim {
            dim_value: 256
          }
          dim {
            dim_value: 256
          }
          dim {
            dim_value: 3
          }
          dim {
            dim_value: 3
          }
        }
      }
    }
  }
  input {
    name: "resnetv25_stage3_batchnorm59_gamma"
    type {
      tensor_type {
        elem_type: 1
        shape {
          dim {
            dim_value: 256
          }
        }
      }
    }
  }
  input {
    name: "resnetv25_stage3_batchnorm59_beta"
    type {
      tensor_type {
        elem_type: 1
        shape {
          dim {
            dim_value: 256
          }
        }
      }
    }
  }
  input {
    name: "resnetv25_stage3_batchnorm59_running_mean"
    type {
      tensor_type {
        elem_type: 1
        shape {
          dim {
            dim_value: 256
          }
        }
      }
    }
  }
  input {
    name: "resnetv25_stage3_batchnorm59_running_var"
    type {
      tensor_type {
        elem_type: 1
        shape {
          dim {
            dim_value: 256
          }
        }
      }
    }
  }
  input {
    name: "resnetv25_stage3_conv60_weight"
    type {
      tensor_type {
        elem_type: 1
        shape {
          dim {
            dim_value: 1024
          }
          dim {
            dim_value: 256
          }
          dim {
            dim_value: 1
          }
          dim {
            dim_value: 1
          }
        }
      }
    }
  }
  input {
    name: "resnetv25_stage3_batchnorm60_gamma"
    type {
      tensor_type {
        elem_type: 1
        shape {
          dim {
            dim_value: 1024
          }
        }
      }
    }
  }
  input {
    name: "resnetv25_stage3_batchnorm60_beta"
    type {
      tensor_type {
        elem_type: 1
        shape {
          dim {
            dim_value: 1024
          }
        }
      }
    }
  }
  input {
    name: "resnetv25_stage3_batchnorm60_running_mean"
    type {
      tensor_type {
        elem_type: 1
        shape {
          dim {
            dim_value: 1024
          }
        }
      }
    }
  }
  input {
    name: "resnetv25_stage3_batchnorm60_running_var"
    type {
      tensor_type {
        elem_type: 1
        shape {
          dim {
            dim_value: 1024
          }
        }
      }
    }
  }
  input {
    name: "resnetv25_stage3_conv61_weight"
    type {
      tensor_type {
        elem_type: 1
        shape {
          dim {
            dim_value: 256
          }
          dim {
            dim_value: 1024
          }
          dim {
            dim_value: 1
          }
          dim {
            dim_value: 1
          }
        }
      }
    }
  }
  input {
    name: "resnetv25_stage3_batchnorm61_gamma"
    type {
      tensor_type {
        elem_type: 1
        shape {
          dim {
            dim_value: 256
          }
        }
      }
    }
  }
  input {
    name: "resnetv25_stage3_batchnorm61_beta"
    type {
      tensor_type {
        elem_type: 1
        shape {
          dim {
            dim_value: 256
          }
        }
      }
    }
  }
  input {
    name: "resnetv25_stage3_batchnorm61_running_mean"
    type {
      tensor_type {
        elem_type: 1
        shape {
          dim {
            dim_value: 256
          }
        }
      }
    }
  }
  input {
    name: "resnetv25_stage3_batchnorm61_running_var"
    type {
      tensor_type {
        elem_type: 1
        shape {
          dim {
            dim_value: 256
          }
        }
      }
    }
  }
  input {
    name: "resnetv25_stage3_conv62_weight"
    type {
      tensor_type {
        elem_type: 1
        shape {
          dim {
            dim_value: 256
          }
          dim {
            dim_value: 256
          }
          dim {
            dim_value: 3
          }
          dim {
            dim_value: 3
          }
        }
      }
    }
  }
  input {
    name: "resnetv25_stage3_batchnorm62_gamma"
    type {
      tensor_type {
        elem_type: 1
        shape {
          dim {
            dim_value: 256
          }
        }
      }
    }
  }
  input {
    name: "resnetv25_stage3_batchnorm62_beta"
    type {
      tensor_type {
        elem_type: 1
        shape {
          dim {
            dim_value: 256
          }
        }
      }
    }
  }
  input {
    name: "resnetv25_stage3_batchnorm62_running_mean"
    type {
      tensor_type {
        elem_type: 1
        shape {
          dim {
            dim_value: 256
          }
        }
      }
    }
  }
  input {
    name: "resnetv25_stage3_batchnorm62_running_var"
    type {
      tensor_type {
        elem_type: 1
        shape {
          dim {
            dim_value: 256
          }
        }
      }
    }
  }
  input {
    name: "resnetv25_stage3_conv63_weight"
    type {
      tensor_type {
        elem_type: 1
        shape {
          dim {
            dim_value: 1024
          }
          dim {
            dim_value: 256
          }
          dim {
            dim_value: 1
          }
          dim {
            dim_value: 1
          }
        }
      }
    }
  }
  input {
    name: "resnetv25_stage3_batchnorm63_gamma"
    type {
      tensor_type {
        elem_type: 1
        shape {
          dim {
            dim_value: 1024
          }
        }
      }
    }
  }
  input {
    name: "resnetv25_stage3_batchnorm63_beta"
    type {
      tensor_type {
        elem_type: 1
        shape {
          dim {
            dim_value: 1024
          }
        }
      }
    }
  }
  input {
    name: "resnetv25_stage3_batchnorm63_running_mean"
    type {
      tensor_type {
        elem_type: 1
        shape {
          dim {
            dim_value: 1024
          }
        }
      }
    }
  }
  input {
    name: "resnetv25_stage3_batchnorm63_running_var"
    type {
      tensor_type {
        elem_type: 1
        shape {
          dim {
            dim_value: 1024
          }
        }
      }
    }
  }
  input {
    name: "resnetv25_stage3_conv64_weight"
    type {
      tensor_type {
        elem_type: 1
        shape {
          dim {
            dim_value: 256
          }
          dim {
            dim_value: 1024
          }
          dim {
            dim_value: 1
          }
          dim {
            dim_value: 1
          }
        }
      }
    }
  }
  input {
    name: "resnetv25_stage3_batchnorm64_gamma"
    type {
      tensor_type {
        elem_type: 1
        shape {
          dim {
            dim_value: 256
          }
        }
      }
    }
  }
  input {
    name: "resnetv25_stage3_batchnorm64_beta"
    type {
      tensor_type {
        elem_type: 1
        shape {
          dim {
            dim_value: 256
          }
        }
      }
    }
  }
  input {
    name: "resnetv25_stage3_batchnorm64_running_mean"
    type {
      tensor_type {
        elem_type: 1
        shape {
          dim {
            dim_value: 256
          }
        }
      }
    }
  }
  input {
    name: "resnetv25_stage3_batchnorm64_running_var"
    type {
      tensor_type {
        elem_type: 1
        shape {
          dim {
            dim_value: 256
          }
        }
      }
    }
  }
  input {
    name: "resnetv25_stage3_conv65_weight"
    type {
      tensor_type {
        elem_type: 1
        shape {
          dim {
            dim_value: 256
          }
          dim {
            dim_value: 256
          }
          dim {
            dim_value: 3
          }
          dim {
            dim_value: 3
          }
        }
      }
    }
  }
  input {
    name: "resnetv25_stage3_batchnorm65_gamma"
    type {
      tensor_type {
        elem_type: 1
        shape {
          dim {
            dim_value: 256
          }
        }
      }
    }
  }
  input {
    name: "resnetv25_stage3_batchnorm65_beta"
    type {
      tensor_type {
        elem_type: 1
        shape {
          dim {
            dim_value: 256
          }
        }
      }
    }
  }
  input {
    name: "resnetv25_stage3_batchnorm65_running_mean"
    type {
      tensor_type {
        elem_type: 1
        shape {
          dim {
            dim_value: 256
          }
        }
      }
    }
  }
  input {
    name: "resnetv25_stage3_batchnorm65_running_var"
    type {
      tensor_type {
        elem_type: 1
        shape {
          dim {
            dim_value: 256
          }
        }
      }
    }
  }
  input {
    name: "resnetv25_stage3_conv66_weight"
    type {
      tensor_type {
        elem_type: 1
        shape {
          dim {
            dim_value: 1024
          }
          dim {
            dim_value: 256
          }
          dim {
            dim_value: 1
          }
          dim {
            dim_value: 1
          }
        }
      }
    }
  }
  input {
    name: "resnetv25_stage3_batchnorm66_gamma"
    type {
      tensor_type {
        elem_type: 1
        shape {
          dim {
            dim_value: 1024
          }
        }
      }
    }
  }
  input {
    name: "resnetv25_stage3_batchnorm66_beta"
    type {
      tensor_type {
        elem_type: 1
        shape {
          dim {
            dim_value: 1024
          }
        }
      }
    }
  }
  input {
    name: "resnetv25_stage3_batchnorm66_running_mean"
    type {
      tensor_type {
        elem_type: 1
        shape {
          dim {
            dim_value: 1024
          }
        }
      }
    }
  }
  input {
    name: "resnetv25_stage3_batchnorm66_running_var"
    type {
      tensor_type {
        elem_type: 1
        shape {
          dim {
            dim_value: 1024
          }
        }
      }
    }
  }
  input {
    name: "resnetv25_stage3_conv67_weight"
    type {
      tensor_type {
        elem_type: 1
        shape {
          dim {
            dim_value: 256
          }
          dim {
            dim_value: 1024
          }
          dim {
            dim_value: 1
          }
          dim {
            dim_value: 1
          }
        }
      }
    }
  }
  input {
    name: "resnetv25_stage3_batchnorm67_gamma"
    type {
      tensor_type {
        elem_type: 1
        shape {
          dim {
            dim_value: 256
          }
        }
      }
    }
  }
  input {
    name: "resnetv25_stage3_batchnorm67_beta"
    type {
      tensor_type {
        elem_type: 1
        shape {
          dim {
            dim_value: 256
          }
        }
      }
    }
  }
  input {
    name: "resnetv25_stage3_batchnorm67_running_mean"
    type {
      tensor_type {
        elem_type: 1
        shape {
          dim {
            dim_value: 256
          }
        }
      }
    }
  }
  input {
    name: "resnetv25_stage3_batchnorm67_running_var"
    type {
      tensor_type {
        elem_type: 1
        shape {
          dim {
            dim_value: 256
          }
        }
      }
    }
  }
  input {
    name: "resnetv25_stage3_conv68_weight"
    type {
      tensor_type {
        elem_type: 1
        shape {
          dim {
            dim_value: 256
          }
          dim {
            dim_value: 256
          }
          dim {
            dim_value: 3
          }
          dim {
            dim_value: 3
          }
        }
      }
    }
  }
  input {
    name: "resnetv25_stage3_batchnorm68_gamma"
    type {
      tensor_type {
        elem_type: 1
        shape {
          dim {
            dim_value: 256
          }
        }
      }
    }
  }
  input {
    name: "resnetv25_stage3_batchnorm68_beta"
    type {
      tensor_type {
        elem_type: 1
        shape {
          dim {
            dim_value: 256
          }
        }
      }
    }
  }
  input {
    name: "resnetv25_stage3_batchnorm68_running_mean"
    type {
      tensor_type {
        elem_type: 1
        shape {
          dim {
            dim_value: 256
          }
        }
      }
    }
  }
  input {
    name: "resnetv25_stage3_batchnorm68_running_var"
    type {
      tensor_type {
        elem_type: 1
        shape {
          dim {
            dim_value: 256
          }
        }
      }
    }
  }
  input {
    name: "resnetv25_stage3_conv69_weight"
    type {
      tensor_type {
        elem_type: 1
        shape {
          dim {
            dim_value: 1024
          }
          dim {
            dim_value: 256
          }
          dim {
            dim_value: 1
          }
          dim {
            dim_value: 1
          }
        }
      }
    }
  }
  input {
    name: "resnetv25_stage4_batchnorm0_gamma"
    type {
      tensor_type {
        elem_type: 1
        shape {
          dim {
            dim_value: 1024
          }
        }
      }
    }
  }
  input {
    name: "resnetv25_stage4_batchnorm0_beta"
    type {
      tensor_type {
        elem_type: 1
        shape {
          dim {
            dim_value: 1024
          }
        }
      }
    }
  }
  input {
    name: "resnetv25_stage4_batchnorm0_running_mean"
    type {
      tensor_type {
        elem_type: 1
        shape {
          dim {
            dim_value: 1024
          }
        }
      }
    }
  }
  input {
    name: "resnetv25_stage4_batchnorm0_running_var"
    type {
      tensor_type {
        elem_type: 1
        shape {
          dim {
            dim_value: 1024
          }
        }
      }
    }
  }
  input {
    name: "resnetv25_stage4_conv0_weight"
    type {
      tensor_type {
        elem_type: 1
        shape {
          dim {
            dim_value: 512
          }
          dim {
            dim_value: 1024
          }
          dim {
            dim_value: 1
          }
          dim {
            dim_value: 1
          }
        }
      }
    }
  }
  input {
    name: "resnetv25_stage4_batchnorm1_gamma"
    type {
      tensor_type {
        elem_type: 1
        shape {
          dim {
            dim_value: 512
          }
        }
      }
    }
  }
  input {
    name: "resnetv25_stage4_batchnorm1_beta"
    type {
      tensor_type {
        elem_type: 1
        shape {
          dim {
            dim_value: 512
          }
        }
      }
    }
  }
  input {
    name: "resnetv25_stage4_batchnorm1_running_mean"
    type {
      tensor_type {
        elem_type: 1
        shape {
          dim {
            dim_value: 512
          }
        }
      }
    }
  }
  input {
    name: "resnetv25_stage4_batchnorm1_running_var"
    type {
      tensor_type {
        elem_type: 1
        shape {
          dim {
            dim_value: 512
          }
        }
      }
    }
  }
  input {
    name: "resnetv25_stage4_conv1_weight"
    type {
      tensor_type {
        elem_type: 1
        shape {
          dim {
            dim_value: 512
          }
          dim {
            dim_value: 512
          }
          dim {
            dim_value: 3
          }
          dim {
            dim_value: 3
          }
        }
      }
    }
  }
  input {
    name: "resnetv25_stage4_batchnorm2_gamma"
    type {
      tensor_type {
        elem_type: 1
        shape {
          dim {
            dim_value: 512
          }
        }
      }
    }
  }
  input {
    name: "resnetv25_stage4_batchnorm2_beta"
    type {
      tensor_type {
        elem_type: 1
        shape {
          dim {
            dim_value: 512
          }
        }
      }
    }
  }
  input {
    name: "resnetv25_stage4_batchnorm2_running_mean"
    type {
      tensor_type {
        elem_type: 1
        shape {
          dim {
            dim_value: 512
          }
        }
      }
    }
  }
  input {
    name: "resnetv25_stage4_batchnorm2_running_var"
    type {
      tensor_type {
        elem_type: 1
        shape {
          dim {
            dim_value: 512
          }
        }
      }
    }
  }
  input {
    name: "resnetv25_stage4_conv2_weight"
    type {
      tensor_type {
        elem_type: 1
        shape {
          dim {
            dim_value: 2048
          }
          dim {
            dim_value: 512
          }
          dim {
            dim_value: 1
          }
          dim {
            dim_value: 1
          }
        }
      }
    }
  }
  input {
    name: "resnetv25_stage4_conv3_weight"
    type {
      tensor_type {
        elem_type: 1
        shape {
          dim {
            dim_value: 2048
          }
          dim {
            dim_value: 1024
          }
          dim {
            dim_value: 1
          }
          dim {
            dim_value: 1
          }
        }
      }
    }
  }
  input {
    name: "resnetv25_stage4_batchnorm3_gamma"
    type {
      tensor_type {
        elem_type: 1
        shape {
          dim {
            dim_value: 2048
          }
        }
      }
    }
  }
  input {
    name: "resnetv25_stage4_batchnorm3_beta"
    type {
      tensor_type {
        elem_type: 1
        shape {
          dim {
            dim_value: 2048
          }
        }
      }
    }
  }
  input {
    name: "resnetv25_stage4_batchnorm3_running_mean"
    type {
      tensor_type {
        elem_type: 1
        shape {
          dim {
            dim_value: 2048
          }
        }
      }
    }
  }
  input {
    name: "resnetv25_stage4_batchnorm3_running_var"
    type {
      tensor_type {
        elem_type: 1
        shape {
          dim {
            dim_value: 2048
          }
        }
      }
    }
  }
  input {
    name: "resnetv25_stage4_conv4_weight"
    type {
      tensor_type {
        elem_type: 1
        shape {
          dim {
            dim_value: 512
          }
          dim {
            dim_value: 2048
          }
          dim {
            dim_value: 1
          }
          dim {
            dim_value: 1
          }
        }
      }
    }
  }
  input {
    name: "resnetv25_stage4_batchnorm4_gamma"
    type {
      tensor_type {
        elem_type: 1
        shape {
          dim {
            dim_value: 512
          }
        }
      }
    }
  }
  input {
    name: "resnetv25_stage4_batchnorm4_beta"
    type {
      tensor_type {
        elem_type: 1
        shape {
          dim {
            dim_value: 512
          }
        }
      }
    }
  }
  input {
    name: "resnetv25_stage4_batchnorm4_running_mean"
    type {
      tensor_type {
        elem_type: 1
        shape {
          dim {
            dim_value: 512
          }
        }
      }
    }
  }
  input {
    name: "resnetv25_stage4_batchnorm4_running_var"
    type {
      tensor_type {
        elem_type: 1
        shape {
          dim {
            dim_value: 512
          }
        }
      }
    }
  }
  input {
    name: "resnetv25_stage4_conv5_weight"
    type {
      tensor_type {
        elem_type: 1
        shape {
          dim {
            dim_value: 512
          }
          dim {
            dim_value: 512
          }
          dim {
            dim_value: 3
          }
          dim {
            dim_value: 3
          }
        }
      }
    }
  }
  input {
    name: "resnetv25_stage4_batchnorm5_gamma"
    type {
      tensor_type {
        elem_type: 1
        shape {
          dim {
            dim_value: 512
          }
        }
      }
    }
  }
  input {
    name: "resnetv25_stage4_batchnorm5_beta"
    type {
      tensor_type {
        elem_type: 1
        shape {
          dim {
            dim_value: 512
          }
        }
      }
    }
  }
  input {
    name: "resnetv25_stage4_batchnorm5_running_mean"
    type {
      tensor_type {
        elem_type: 1
        shape {
          dim {
            dim_value: 512
          }
        }
      }
    }
  }
  input {
    name: "resnetv25_stage4_batchnorm5_running_var"
    type {
      tensor_type {
        elem_type: 1
        shape {
          dim {
            dim_value: 512
          }
        }
      }
    }
  }
  input {
    name: "resnetv25_stage4_conv6_weight"
    type {
      tensor_type {
        elem_type: 1
        shape {
          dim {
            dim_value: 2048
          }
          dim {
            dim_value: 512
          }
          dim {
            dim_value: 1
          }
          dim {
            dim_value: 1
          }
        }
      }
    }
  }
  input {
    name: "resnetv25_stage4_batchnorm6_gamma"
    type {
      tensor_type {
        elem_type: 1
        shape {
          dim {
            dim_value: 2048
          }
        }
      }
    }
  }
  input {
    name: "resnetv25_stage4_batchnorm6_beta"
    type {
      tensor_type {
        elem_type: 1
        shape {
          dim {
            dim_value: 2048
          }
        }
      }
    }
  }
  input {
    name: "resnetv25_stage4_batchnorm6_running_mean"
    type {
      tensor_type {
        elem_type: 1
        shape {
          dim {
            dim_value: 2048
          }
        }
      }
    }
  }
  input {
    name: "resnetv25_stage4_batchnorm6_running_var"
    type {
      tensor_type {
        elem_type: 1
        shape {
          dim {
            dim_value: 2048
          }
        }
      }
    }
  }
  input {
    name: "resnetv25_stage4_conv7_weight"
    type {
      tensor_type {
        elem_type: 1
        shape {
          dim {
            dim_value: 512
          }
          dim {
            dim_value: 2048
          }
          dim {
            dim_value: 1
          }
          dim {
            dim_value: 1
          }
        }
      }
    }
  }
  input {
    name: "resnetv25_stage4_batchnorm7_gamma"
    type {
      tensor_type {
        elem_type: 1
        shape {
          dim {
            dim_value: 512
          }
        }
      }
    }
  }
  input {
    name: "resnetv25_stage4_batchnorm7_beta"
    type {
      tensor_type {
        elem_type: 1
        shape {
          dim {
            dim_value: 512
          }
        }
      }
    }
  }
  input {
    name: "resnetv25_stage4_batchnorm7_running_mean"
    type {
      tensor_type {
        elem_type: 1
        shape {
          dim {
            dim_value: 512
          }
        }
      }
    }
  }
  input {
    name: "resnetv25_stage4_batchnorm7_running_var"
    type {
      tensor_type {
        elem_type: 1
        shape {
          dim {
            dim_value: 512
          }
        }
      }
    }
  }
  input {
    name: "resnetv25_stage4_conv8_weight"
    type {
      tensor_type {
        elem_type: 1
        shape {
          dim {
            dim_value: 512
          }
          dim {
            dim_value: 512
          }
          dim {
            dim_value: 3
          }
          dim {
            dim_value: 3
          }
        }
      }
    }
  }
  input {
    name: "resnetv25_stage4_batchnorm8_gamma"
    type {
      tensor_type {
        elem_type: 1
        shape {
          dim {
            dim_value: 512
          }
        }
      }
    }
  }
  input {
    name: "resnetv25_stage4_batchnorm8_beta"
    type {
      tensor_type {
        elem_type: 1
        shape {
          dim {
            dim_value: 512
          }
        }
      }
    }
  }
  input {
    name: "resnetv25_stage4_batchnorm8_running_mean"
    type {
      tensor_type {
        elem_type: 1
        shape {
          dim {
            dim_value: 512
          }
        }
      }
    }
  }
  input {
    name: "resnetv25_stage4_batchnorm8_running_var"
    type {
      tensor_type {
        elem_type: 1
        shape {
          dim {
            dim_value: 512
          }
        }
      }
    }
  }
  input {
    name: "resnetv25_stage4_conv9_weight"
    type {
      tensor_type {
        elem_type: 1
        shape {
          dim {
            dim_value: 2048
          }
          dim {
            dim_value: 512
          }
          dim {
            dim_value: 1
          }
          dim {
            dim_value: 1
          }
        }
      }
    }
  }
  input {
    name: "resnetv25_batchnorm2_gamma"
    type {
      tensor_type {
        elem_type: 1
        shape {
          dim {
            dim_value: 2048
          }
        }
      }
    }
  }
  input {
    name: "resnetv25_batchnorm2_beta"
    type {
      tensor_type {
        elem_type: 1
        shape {
          dim {
            dim_value: 2048
          }
        }
      }
    }
  }
  input {
    name: "resnetv25_batchnorm2_running_mean"
    type {
      tensor_type {
        elem_type: 1
        shape {
          dim {
            dim_value: 2048
          }
        }
      }
    }
  }
  input {
    name: "resnetv25_batchnorm2_running_var"
    type {
      tensor_type {
        elem_type: 1
        shape {
          dim {
            dim_value: 2048
          }
        }
      }
    }
  }
  input {
    name: "reshape_attr_tensor855"
    type {
      tensor_type {
        elem_type: 7
        shape {
          dim {
            dim_value: 2
          }
        }
      }
    }
  }
  input {
    name: "resnetv25_dense0_weight"
    type {
      tensor_type {
        elem_type: 1
        shape {
          dim {
            dim_value: 1000
          }
          dim {
            dim_value: 2048
          }
        }
      }
    }
  }
  input {
    name: "resnetv25_dense0_bias"
    type {
      tensor_type {
        elem_type: 1
        shape {
          dim {
            dim_value: 1000
          }
        }
      }
    }
  }
  output {
    name: "resnetv25_dense0_fwd"
    type {
      tensor_type {
        elem_type: 1
        shape {
          dim {
            dim_param: "N"
          }
          dim {
            dim_value: 1000
          }
        }
      }
    }
  }
}
opset_import {
  domain: ""
  version: 7
}
