ir_version: 4
graph {
  node {
    input: "data"
    input: "resnetv17_conv0_weight"
    output: "resnetv17_conv0_fwd"
    name: "resnetv17_conv0_fwd"
    op_type: "Conv"
    attribute {
      name: "dilations"
      ints: 1
      ints: 1
      type: INTS
    }
    attribute {
      name: "group"
      i: 1
      type: INT
    }
    attribute {
      name: "kernel_shape"
      ints: 7
      ints: 7
      type: INTS
    }
    attribute {
      name: "pads"
      ints: 3
      ints: 3
      ints: 3
      ints: 3
      type: INTS
    }
    attribute {
      name: "strides"
      ints: 2
      ints: 2
      type: INTS
    }
  }
  node {
    input: "resnetv17_conv0_fwd"
    input: "resnetv17_batchnorm0_gamma"
    input: "resnetv17_batchnorm0_beta"
    input: "resnetv17_batchnorm0_running_mean"
    input: "resnetv17_batchnorm0_running_var"
    output: "resnetv17_batchnorm0_fwd"
    name: "resnetv17_batchnorm0_fwd"
    op_type: "BatchNormalization"
    attribute {
      name: "epsilon"
      f: 1e-05
      type: FLOAT
    }
    attribute {
      name: "momentum"
      f: 0.9
      type: FLOAT
    }
  }
  node {
    input: "resnetv17_batchnorm0_fwd"
    output: "resnetv17_relu0_fwd"
    name: "resnetv17_relu0_fwd"
    op_type: "Relu"
  }
  node {
    input: "resnetv17_relu0_fwd"
    output: "resnetv17_pool0_fwd"
    name: "resnetv17_pool0_fwd"
    op_type: "MaxPool"
    attribute {
      name: "kernel_shape"
      ints: 3
      ints: 3
      type: INTS
    }
    attribute {
      name: "pads"
      ints: 1
      ints: 1
      ints: 1
      ints: 1
      type: INTS
    }
    attribute {
      name: "strides"
      ints: 2
      ints: 2
      type: INTS
    }
  }
  node {
    input: "resnetv17_pool0_fwd"
    input: "resnetv17_stage1_conv0_weight"
    input: "resnetv17_stage1_conv0_bias"
    output: "resnetv17_stage1_conv0_fwd"
    name: "resnetv17_stage1_conv0_fwd"
    op_type: "Conv"
    attribute {
      name: "dilations"
      ints: 1
      ints: 1
      type: INTS
    }
    attribute {
      name: "group"
      i: 1
      type: INT
    }
    attribute {
      name: "kernel_shape"
      ints: 1
      ints: 1
      type: INTS
    }
    attribute {
      name: "pads"
      ints: 0
      ints: 0
      ints: 0
      ints: 0
      type: INTS
    }
    attribute {
      name: "strides"
      ints: 1
      ints: 1
      type: INTS
    }
  }
  node {
    input: "resnetv17_stage1_conv0_fwd"
    input: "resnetv17_stage1_batchnorm0_gamma"
    input: "resnetv17_stage1_batchnorm0_beta"
    input: "resnetv17_stage1_batchnorm0_running_mean"
    input: "resnetv17_stage1_batchnorm0_running_var"
    output: "resnetv17_stage1_batchnorm0_fwd"
    name: "resnetv17_stage1_batchnorm0_fwd"
    op_type: "BatchNormalization"
    attribute {
      name: "epsilon"
      f: 1e-05
      type: FLOAT
    }
    attribute {
      name: "momentum"
      f: 0.9
      type: FLOAT
    }
  }
  node {
    input: "resnetv17_stage1_batchnorm0_fwd"
    output: "resnetv17_stage1_relu0_fwd"
    name: "resnetv17_stage1_relu0_fwd"
    op_type: "Relu"
  }
  node {
    input: "resnetv17_stage1_relu0_fwd"
    input: "resnetv17_stage1_conv1_weight"
    output: "resnetv17_stage1_conv1_fwd"
    name: "resnetv17_stage1_conv1_fwd"
    op_type: "Conv"
    attribute {
      name: "dilations"
      ints: 1
      ints: 1
      type: INTS
    }
    attribute {
      name: "group"
      i: 1
      type: INT
    }
    attribute {
      name: "kernel_shape"
      ints: 3
      ints: 3
      type: INTS
    }
    attribute {
      name: "pads"
      ints: 1
      ints: 1
      ints: 1
      ints: 1
      type: INTS
    }
    attribute {
      name: "strides"
      ints: 1
      ints: 1
      type: INTS
    }
  }
  node {
    input: "resnetv17_stage1_conv1_fwd"
    input: "resnetv17_stage1_batchnorm1_gamma"
    input: "resnetv17_stage1_batchnorm1_beta"
    input: "resnetv17_stage1_batchnorm1_running_mean"
    input: "resnetv17_stage1_batchnorm1_running_var"
    output: "resnetv17_stage1_batchnorm1_fwd"
    name: "resnetv17_stage1_batchnorm1_fwd"
    op_type: "BatchNormalization"
    attribute {
      name: "epsilon"
      f: 1e-05
      type: FLOAT
    }
    attribute {
      name: "momentum"
      f: 0.9
      type: FLOAT
    }
  }
  node {
    input: "resnetv17_stage1_batchnorm1_fwd"
    output: "resnetv17_stage1_relu1_fwd"
    name: "resnetv17_stage1_relu1_fwd"
    op_type: "Relu"
  }
  node {
    input: "resnetv17_stage1_relu1_fwd"
    input: "resnetv17_stage1_conv2_weight"
    input: "resnetv17_stage1_conv2_bias"
    output: "resnetv17_stage1_conv2_fwd"
    name: "resnetv17_stage1_conv2_fwd"
    op_type: "Conv"
    attribute {
      name: "dilations"
      ints: 1
      ints: 1
      type: INTS
    }
    attribute {
      name: "group"
      i: 1
      type: INT
    }
    attribute {
      name: "kernel_shape"
      ints: 1
      ints: 1
      type: INTS
    }
    attribute {
      name: "pads"
      ints: 0
      ints: 0
      ints: 0
      ints: 0
      type: INTS
    }
    attribute {
      name: "strides"
      ints: 1
      ints: 1
      type: INTS
    }
  }
  node {
    input: "resnetv17_stage1_conv2_fwd"
    input: "resnetv17_stage1_batchnorm2_gamma"
    input: "resnetv17_stage1_batchnorm2_beta"
    input: "resnetv17_stage1_batchnorm2_running_mean"
    input: "resnetv17_stage1_batchnorm2_running_var"
    output: "resnetv17_stage1_batchnorm2_fwd"
    name: "resnetv17_stage1_batchnorm2_fwd"
    op_type: "BatchNormalization"
    attribute {
      name: "epsilon"
      f: 1e-05
      type: FLOAT
    }
    attribute {
      name: "momentum"
      f: 0.9
      type: FLOAT
    }
  }
  node {
    input: "resnetv17_pool0_fwd"
    input: "resnetv17_stage1_conv3_weight"
    output: "resnetv17_stage1_conv3_fwd"
    name: "resnetv17_stage1_conv3_fwd"
    op_type: "Conv"
    attribute {
      name: "dilations"
      ints: 1
      ints: 1
      type: INTS
    }
    attribute {
      name: "group"
      i: 1
      type: INT
    }
    attribute {
      name: "kernel_shape"
      ints: 1
      ints: 1
      type: INTS
    }
    attribute {
      name: "pads"
      ints: 0
      ints: 0
      ints: 0
      ints: 0
      type: INTS
    }
    attribute {
      name: "strides"
      ints: 1
      ints: 1
      type: INTS
    }
  }
  node {
    input: "resnetv17_stage1_conv3_fwd"
    input: "resnetv17_stage1_batchnorm3_gamma"
    input: "resnetv17_stage1_batchnorm3_beta"
    input: "resnetv17_stage1_batchnorm3_running_mean"
    input: "resnetv17_stage1_batchnorm3_running_var"
    output: "resnetv17_stage1_batchnorm3_fwd"
    name: "resnetv17_stage1_batchnorm3_fwd"
    op_type: "BatchNormalization"
    attribute {
      name: "epsilon"
      f: 1e-05
      type: FLOAT
    }
    attribute {
      name: "momentum"
      f: 0.9
      type: FLOAT
    }
  }
  node {
    input: "resnetv17_stage1_batchnorm2_fwd"
    input: "resnetv17_stage1_batchnorm3_fwd"
    output: "resnetv17_stage1__plus0"
    name: "resnetv17_stage1__plus0"
    op_type: "Add"
  }
  node {
    input: "resnetv17_stage1__plus0"
    output: "resnetv17_stage1_activation0"
    name: "resnetv17_stage1_activation0"
    op_type: "Relu"
  }
  node {
    input: "resnetv17_stage1_activation0"
    input: "resnetv17_stage1_conv4_weight"
    input: "resnetv17_stage1_conv4_bias"
    output: "resnetv17_stage1_conv4_fwd"
    name: "resnetv17_stage1_conv4_fwd"
    op_type: "Conv"
    attribute {
      name: "dilations"
      ints: 1
      ints: 1
      type: INTS
    }
    attribute {
      name: "group"
      i: 1
      type: INT
    }
    attribute {
      name: "kernel_shape"
      ints: 1
      ints: 1
      type: INTS
    }
    attribute {
      name: "pads"
      ints: 0
      ints: 0
      ints: 0
      ints: 0
      type: INTS
    }
    attribute {
      name: "strides"
      ints: 1
      ints: 1
      type: INTS
    }
  }
  node {
    input: "resnetv17_stage1_conv4_fwd"
    input: "resnetv17_stage1_batchnorm4_gamma"
    input: "resnetv17_stage1_batchnorm4_beta"
    input: "resnetv17_stage1_batchnorm4_running_mean"
    input: "resnetv17_stage1_batchnorm4_running_var"
    output: "resnetv17_stage1_batchnorm4_fwd"
    name: "resnetv17_stage1_batchnorm4_fwd"
    op_type: "BatchNormalization"
    attribute {
      name: "epsilon"
      f: 1e-05
      type: FLOAT
    }
    attribute {
      name: "momentum"
      f: 0.9
      type: FLOAT
    }
  }
  node {
    input: "resnetv17_stage1_batchnorm4_fwd"
    output: "resnetv17_stage1_relu2_fwd"
    name: "resnetv17_stage1_relu2_fwd"
    op_type: "Relu"
  }
  node {
    input: "resnetv17_stage1_relu2_fwd"
    input: "resnetv17_stage1_conv5_weight"
    output: "resnetv17_stage1_conv5_fwd"
    name: "resnetv17_stage1_conv5_fwd"
    op_type: "Conv"
    attribute {
      name: "dilations"
      ints: 1
      ints: 1
      type: INTS
    }
    attribute {
      name: "group"
      i: 1
      type: INT
    }
    attribute {
      name: "kernel_shape"
      ints: 3
      ints: 3
      type: INTS
    }
    attribute {
      name: "pads"
      ints: 1
      ints: 1
      ints: 1
      ints: 1
      type: INTS
    }
    attribute {
      name: "strides"
      ints: 1
      ints: 1
      type: INTS
    }
  }
  node {
    input: "resnetv17_stage1_conv5_fwd"
    input: "resnetv17_stage1_batchnorm5_gamma"
    input: "resnetv17_stage1_batchnorm5_beta"
    input: "resnetv17_stage1_batchnorm5_running_mean"
    input: "resnetv17_stage1_batchnorm5_running_var"
    output: "resnetv17_stage1_batchnorm5_fwd"
    name: "resnetv17_stage1_batchnorm5_fwd"
    op_type: "BatchNormalization"
    attribute {
      name: "epsilon"
      f: 1e-05
      type: FLOAT
    }
    attribute {
      name: "momentum"
      f: 0.9
      type: FLOAT
    }
  }
  node {
    input: "resnetv17_stage1_batchnorm5_fwd"
    output: "resnetv17_stage1_relu3_fwd"
    name: "resnetv17_stage1_relu3_fwd"
    op_type: "Relu"
  }
  node {
    input: "resnetv17_stage1_relu3_fwd"
    input: "resnetv17_stage1_conv6_weight"
    input: "resnetv17_stage1_conv6_bias"
    output: "resnetv17_stage1_conv6_fwd"
    name: "resnetv17_stage1_conv6_fwd"
    op_type: "Conv"
    attribute {
      name: "dilations"
      ints: 1
      ints: 1
      type: INTS
    }
    attribute {
      name: "group"
      i: 1
      type: INT
    }
    attribute {
      name: "kernel_shape"
      ints: 1
      ints: 1
      type: INTS
    }
    attribute {
      name: "pads"
      ints: 0
      ints: 0
      ints: 0
      ints: 0
      type: INTS
    }
    attribute {
      name: "strides"
      ints: 1
      ints: 1
      type: INTS
    }
  }
  node {
    input: "resnetv17_stage1_conv6_fwd"
    input: "resnetv17_stage1_batchnorm6_gamma"
    input: "resnetv17_stage1_batchnorm6_beta"
    input: "resnetv17_stage1_batchnorm6_running_mean"
    input: "resnetv17_stage1_batchnorm6_running_var"
    output: "resnetv17_stage1_batchnorm6_fwd"
    name: "resnetv17_stage1_batchnorm6_fwd"
    op_type: "BatchNormalization"
    attribute {
      name: "epsilon"
      f: 1e-05
      type: FLOAT
    }
    attribute {
      name: "momentum"
      f: 0.9
      type: FLOAT
    }
  }
  node {
    input: "resnetv17_stage1_batchnorm6_fwd"
    input: "resnetv17_stage1_activation0"
    output: "resnetv17_stage1__plus1"
    name: "resnetv17_stage1__plus1"
    op_type: "Add"
  }
  node {
    input: "resnetv17_stage1__plus1"
    output: "resnetv17_stage1_activation1"
    name: "resnetv17_stage1_activation1"
    op_type: "Relu"
  }
  node {
    input: "resnetv17_stage1_activation1"
    input: "resnetv17_stage1_conv7_weight"
    input: "resnetv17_stage1_conv7_bias"
    output: "resnetv17_stage1_conv7_fwd"
    name: "resnetv17_stage1_conv7_fwd"
    op_type: "Conv"
    attribute {
      name: "dilations"
      ints: 1
      ints: 1
      type: INTS
    }
    attribute {
      name: "group"
      i: 1
      type: INT
    }
    attribute {
      name: "kernel_shape"
      ints: 1
      ints: 1
      type: INTS
    }
    attribute {
      name: "pads"
      ints: 0
      ints: 0
      ints: 0
      ints: 0
      type: INTS
    }
    attribute {
      name: "strides"
      ints: 1
      ints: 1
      type: INTS
    }
  }
  node {
    input: "resnetv17_stage1_conv7_fwd"
    input: "resnetv17_stage1_batchnorm7_gamma"
    input: "resnetv17_stage1_batchnorm7_beta"
    input: "resnetv17_stage1_batchnorm7_running_mean"
    input: "resnetv17_stage1_batchnorm7_running_var"
    output: "resnetv17_stage1_batchnorm7_fwd"
    name: "resnetv17_stage1_batchnorm7_fwd"
    op_type: "BatchNormalization"
    attribute {
      name: "epsilon"
      f: 1e-05
      type: FLOAT
    }
    attribute {
      name: "momentum"
      f: 0.9
      type: FLOAT
    }
  }
  node {
    input: "resnetv17_stage1_batchnorm7_fwd"
    output: "resnetv17_stage1_relu4_fwd"
    name: "resnetv17_stage1_relu4_fwd"
    op_type: "Relu"
  }
  node {
    input: "resnetv17_stage1_relu4_fwd"
    input: "resnetv17_stage1_conv8_weight"
    output: "resnetv17_stage1_conv8_fwd"
    name: "resnetv17_stage1_conv8_fwd"
    op_type: "Conv"
    attribute {
      name: "dilations"
      ints: 1
      ints: 1
      type: INTS
    }
    attribute {
      name: "group"
      i: 1
      type: INT
    }
    attribute {
      name: "kernel_shape"
      ints: 3
      ints: 3
      type: INTS
    }
    attribute {
      name: "pads"
      ints: 1
      ints: 1
      ints: 1
      ints: 1
      type: INTS
    }
    attribute {
      name: "strides"
      ints: 1
      ints: 1
      type: INTS
    }
  }
  node {
    input: "resnetv17_stage1_conv8_fwd"
    input: "resnetv17_stage1_batchnorm8_gamma"
    input: "resnetv17_stage1_batchnorm8_beta"
    input: "resnetv17_stage1_batchnorm8_running_mean"
    input: "resnetv17_stage1_batchnorm8_running_var"
    output: "resnetv17_stage1_batchnorm8_fwd"
    name: "resnetv17_stage1_batchnorm8_fwd"
    op_type: "BatchNormalization"
    attribute {
      name: "epsilon"
      f: 1e-05
      type: FLOAT
    }
    attribute {
      name: "momentum"
      f: 0.9
      type: FLOAT
    }
  }
  node {
    input: "resnetv17_stage1_batchnorm8_fwd"
    output: "resnetv17_stage1_relu5_fwd"
    name: "resnetv17_stage1_relu5_fwd"
    op_type: "Relu"
  }
  node {
    input: "resnetv17_stage1_relu5_fwd"
    input: "resnetv17_stage1_conv9_weight"
    input: "resnetv17_stage1_conv9_bias"
    output: "resnetv17_stage1_conv9_fwd"
    name: "resnetv17_stage1_conv9_fwd"
    op_type: "Conv"
    attribute {
      name: "dilations"
      ints: 1
      ints: 1
      type: INTS
    }
    attribute {
      name: "group"
      i: 1
      type: INT
    }
    attribute {
      name: "kernel_shape"
      ints: 1
      ints: 1
      type: INTS
    }
    attribute {
      name: "pads"
      ints: 0
      ints: 0
      ints: 0
      ints: 0
      type: INTS
    }
    attribute {
      name: "strides"
      ints: 1
      ints: 1
      type: INTS
    }
  }
  node {
    input: "resnetv17_stage1_conv9_fwd"
    input: "resnetv17_stage1_batchnorm9_gamma"
    input: "resnetv17_stage1_batchnorm9_beta"
    input: "resnetv17_stage1_batchnorm9_running_mean"
    input: "resnetv17_stage1_batchnorm9_running_var"
    output: "resnetv17_stage1_batchnorm9_fwd"
    name: "resnetv17_stage1_batchnorm9_fwd"
    op_type: "BatchNormalization"
    attribute {
      name: "epsilon"
      f: 1e-05
      type: FLOAT
    }
    attribute {
      name: "momentum"
      f: 0.9
      type: FLOAT
    }
  }
  node {
    input: "resnetv17_stage1_batchnorm9_fwd"
    input: "resnetv17_stage1_activation1"
    output: "resnetv17_stage1__plus2"
    name: "resnetv17_stage1__plus2"
    op_type: "Add"
  }
  node {
    input: "resnetv17_stage1__plus2"
    output: "resnetv17_stage1_activation2"
    name: "resnetv17_stage1_activation2"
    op_type: "Relu"
  }
  node {
    input: "resnetv17_stage1_activation2"
    input: "resnetv17_stage2_conv0_weight"
    input: "resnetv17_stage2_conv0_bias"
    output: "resnetv17_stage2_conv0_fwd"
    name: "resnetv17_stage2_conv0_fwd"
    op_type: "Conv"
    attribute {
      name: "dilations"
      ints: 1
      ints: 1
      type: INTS
    }
    attribute {
      name: "group"
      i: 1
      type: INT
    }
    attribute {
      name: "kernel_shape"
      ints: 1
      ints: 1
      type: INTS
    }
    attribute {
      name: "pads"
      ints: 0
      ints: 0
      ints: 0
      ints: 0
      type: INTS
    }
    attribute {
      name: "strides"
      ints: 2
      ints: 2
      type: INTS
    }
  }
  node {
    input: "resnetv17_stage2_conv0_fwd"
    input: "resnetv17_stage2_batchnorm0_gamma"
    input: "resnetv17_stage2_batchnorm0_beta"
    input: "resnetv17_stage2_batchnorm0_running_mean"
    input: "resnetv17_stage2_batchnorm0_running_var"
    output: "resnetv17_stage2_batchnorm0_fwd"
    name: "resnetv17_stage2_batchnorm0_fwd"
    op_type: "BatchNormalization"
    attribute {
      name: "epsilon"
      f: 1e-05
      type: FLOAT
    }
    attribute {
      name: "momentum"
      f: 0.9
      type: FLOAT
    }
  }
  node {
    input: "resnetv17_stage2_batchnorm0_fwd"
    output: "resnetv17_stage2_relu0_fwd"
    name: "resnetv17_stage2_relu0_fwd"
    op_type: "Relu"
  }
  node {
    input: "resnetv17_stage2_relu0_fwd"
    input: "resnetv17_stage2_conv1_weight"
    output: "resnetv17_stage2_conv1_fwd"
    name: "resnetv17_stage2_conv1_fwd"
    op_type: "Conv"
    attribute {
      name: "dilations"
      ints: 1
      ints: 1
      type: INTS
    }
    attribute {
      name: "group"
      i: 1
      type: INT
    }
    attribute {
      name: "kernel_shape"
      ints: 3
      ints: 3
      type: INTS
    }
    attribute {
      name: "pads"
      ints: 1
      ints: 1
      ints: 1
      ints: 1
      type: INTS
    }
    attribute {
      name: "strides"
      ints: 1
      ints: 1
      type: INTS
    }
  }
  node {
    input: "resnetv17_stage2_conv1_fwd"
    input: "resnetv17_stage2_batchnorm1_gamma"
    input: "resnetv17_stage2_batchnorm1_beta"
    input: "resnetv17_stage2_batchnorm1_running_mean"
    input: "resnetv17_stage2_batchnorm1_running_var"
    output: "resnetv17_stage2_batchnorm1_fwd"
    name: "resnetv17_stage2_batchnorm1_fwd"
    op_type: "BatchNormalization"
    attribute {
      name: "epsilon"
      f: 1e-05
      type: FLOAT
    }
    attribute {
      name: "momentum"
      f: 0.9
      type: FLOAT
    }
  }
  node {
    input: "resnetv17_stage2_batchnorm1_fwd"
    output: "resnetv17_stage2_relu1_fwd"
    name: "resnetv17_stage2_relu1_fwd"
    op_type: "Relu"
  }
  node {
    input: "resnetv17_stage2_relu1_fwd"
    input: "resnetv17_stage2_conv2_weight"
    input: "resnetv17_stage2_conv2_bias"
    output: "resnetv17_stage2_conv2_fwd"
    name: "resnetv17_stage2_conv2_fwd"
    op_type: "Conv"
    attribute {
      name: "dilations"
      ints: 1
      ints: 1
      type: INTS
    }
    attribute {
      name: "group"
      i: 1
      type: INT
    }
    attribute {
      name: "kernel_shape"
      ints: 1
      ints: 1
      type: INTS
    }
    attribute {
      name: "pads"
      ints: 0
      ints: 0
      ints: 0
      ints: 0
      type: INTS
    }
    attribute {
      name: "strides"
      ints: 1
      ints: 1
      type: INTS
    }
  }
  node {
    input: "resnetv17_stage2_conv2_fwd"
    input: "resnetv17_stage2_batchnorm2_gamma"
    input: "resnetv17_stage2_batchnorm2_beta"
    input: "resnetv17_stage2_batchnorm2_running_mean"
    input: "resnetv17_stage2_batchnorm2_running_var"
    output: "resnetv17_stage2_batchnorm2_fwd"
    name: "resnetv17_stage2_batchnorm2_fwd"
    op_type: "BatchNormalization"
    attribute {
      name: "epsilon"
      f: 1e-05
      type: FLOAT
    }
    attribute {
      name: "momentum"
      f: 0.9
      type: FLOAT
    }
  }
  node {
    input: "resnetv17_stage1_activation2"
    input: "resnetv17_stage2_conv3_weight"
    output: "resnetv17_stage2_conv3_fwd"
    name: "resnetv17_stage2_conv3_fwd"
    op_type: "Conv"
    attribute {
      name: "dilations"
      ints: 1
      ints: 1
      type: INTS
    }
    attribute {
      name: "group"
      i: 1
      type: INT
    }
    attribute {
      name: "kernel_shape"
      ints: 1
      ints: 1
      type: INTS
    }
    attribute {
      name: "pads"
      ints: 0
      ints: 0
      ints: 0
      ints: 0
      type: INTS
    }
    attribute {
      name: "strides"
      ints: 2
      ints: 2
      type: INTS
    }
  }
  node {
    input: "resnetv17_stage2_conv3_fwd"
    input: "resnetv17_stage2_batchnorm3_gamma"
    input: "resnetv17_stage2_batchnorm3_beta"
    input: "resnetv17_stage2_batchnorm3_running_mean"
    input: "resnetv17_stage2_batchnorm3_running_var"
    output: "resnetv17_stage2_batchnorm3_fwd"
    name: "resnetv17_stage2_batchnorm3_fwd"
    op_type: "BatchNormalization"
    attribute {
      name: "epsilon"
      f: 1e-05
      type: FLOAT
    }
    attribute {
      name: "momentum"
      f: 0.9
      type: FLOAT
    }
  }
  node {
    input: "resnetv17_stage2_batchnorm2_fwd"
    input: "resnetv17_stage2_batchnorm3_fwd"
    output: "resnetv17_stage2__plus0"
    name: "resnetv17_stage2__plus0"
    op_type: "Add"
  }
  node {
    input: "resnetv17_stage2__plus0"
    output: "resnetv17_stage2_activation0"
    name: "resnetv17_stage2_activation0"
    op_type: "Relu"
  }
  node {
    input: "resnetv17_stage2_activation0"
    input: "resnetv17_stage2_conv4_weight"
    input: "resnetv17_stage2_conv4_bias"
    output: "resnetv17_stage2_conv4_fwd"
    name: "resnetv17_stage2_conv4_fwd"
    op_type: "Conv"
    attribute {
      name: "dilations"
      ints: 1
      ints: 1
      type: INTS
    }
    attribute {
      name: "group"
      i: 1
      type: INT
    }
    attribute {
      name: "kernel_shape"
      ints: 1
      ints: 1
      type: INTS
    }
    attribute {
      name: "pads"
      ints: 0
      ints: 0
      ints: 0
      ints: 0
      type: INTS
    }
    attribute {
      name: "strides"
      ints: 1
      ints: 1
      type: INTS
    }
  }
  node {
    input: "resnetv17_stage2_conv4_fwd"
    input: "resnetv17_stage2_batchnorm4_gamma"
    input: "resnetv17_stage2_batchnorm4_beta"
    input: "resnetv17_stage2_batchnorm4_running_mean"
    input: "resnetv17_stage2_batchnorm4_running_var"
    output: "resnetv17_stage2_batchnorm4_fwd"
    name: "resnetv17_stage2_batchnorm4_fwd"
    op_type: "BatchNormalization"
    attribute {
      name: "epsilon"
      f: 1e-05
      type: FLOAT
    }
    attribute {
      name: "momentum"
      f: 0.9
      type: FLOAT
    }
  }
  node {
    input: "resnetv17_stage2_batchnorm4_fwd"
    output: "resnetv17_stage2_relu2_fwd"
    name: "resnetv17_stage2_relu2_fwd"
    op_type: "Relu"
  }
  node {
    input: "resnetv17_stage2_relu2_fwd"
    input: "resnetv17_stage2_conv5_weight"
    output: "resnetv17_stage2_conv5_fwd"
    name: "resnetv17_stage2_conv5_fwd"
    op_type: "Conv"
    attribute {
      name: "dilations"
      ints: 1
      ints: 1
      type: INTS
    }
    attribute {
      name: "group"
      i: 1
      type: INT
    }
    attribute {
      name: "kernel_shape"
      ints: 3
      ints: 3
      type: INTS
    }
    attribute {
      name: "pads"
      ints: 1
      ints: 1
      ints: 1
      ints: 1
      type: INTS
    }
    attribute {
      name: "strides"
      ints: 1
      ints: 1
      type: INTS
    }
  }
  node {
    input: "resnetv17_stage2_conv5_fwd"
    input: "resnetv17_stage2_batchnorm5_gamma"
    input: "resnetv17_stage2_batchnorm5_beta"
    input: "resnetv17_stage2_batchnorm5_running_mean"
    input: "resnetv17_stage2_batchnorm5_running_var"
    output: "resnetv17_stage2_batchnorm5_fwd"
    name: "resnetv17_stage2_batchnorm5_fwd"
    op_type: "BatchNormalization"
    attribute {
      name: "epsilon"
      f: 1e-05
      type: FLOAT
    }
    attribute {
      name: "momentum"
      f: 0.9
      type: FLOAT
    }
  }
  node {
    input: "resnetv17_stage2_batchnorm5_fwd"
    output: "resnetv17_stage2_relu3_fwd"
    name: "resnetv17_stage2_relu3_fwd"
    op_type: "Relu"
  }
  node {
    input: "resnetv17_stage2_relu3_fwd"
    input: "resnetv17_stage2_conv6_weight"
    input: "resnetv17_stage2_conv6_bias"
    output: "resnetv17_stage2_conv6_fwd"
    name: "resnetv17_stage2_conv6_fwd"
    op_type: "Conv"
    attribute {
      name: "dilations"
      ints: 1
      ints: 1
      type: INTS
    }
    attribute {
      name: "group"
      i: 1
      type: INT
    }
    attribute {
      name: "kernel_shape"
      ints: 1
      ints: 1
      type: INTS
    }
    attribute {
      name: "pads"
      ints: 0
      ints: 0
      ints: 0
      ints: 0
      type: INTS
    }
    attribute {
      name: "strides"
      ints: 1
      ints: 1
      type: INTS
    }
  }
  node {
    input: "resnetv17_stage2_conv6_fwd"
    input: "resnetv17_stage2_batchnorm6_gamma"
    input: "resnetv17_stage2_batchnorm6_beta"
    input: "resnetv17_stage2_batchnorm6_running_mean"
    input: "resnetv17_stage2_batchnorm6_running_var"
    output: "resnetv17_stage2_batchnorm6_fwd"
    name: "resnetv17_stage2_batchnorm6_fwd"
    op_type: "BatchNormalization"
    attribute {
      name: "epsilon"
      f: 1e-05
      type: FLOAT
    }
    attribute {
      name: "momentum"
      f: 0.9
      type: FLOAT
    }
  }
  node {
    input: "resnetv17_stage2_batchnorm6_fwd"
    input: "resnetv17_stage2_activation0"
    output: "resnetv17_stage2__plus1"
    name: "resnetv17_stage2__plus1"
    op_type: "Add"
  }
  node {
    input: "resnetv17_stage2__plus1"
    output: "resnetv17_stage2_activation1"
    name: "resnetv17_stage2_activation1"
    op_type: "Relu"
  }
  node {
    input: "resnetv17_stage2_activation1"
    input: "resnetv17_stage2_conv7_weight"
    input: "resnetv17_stage2_conv7_bias"
    output: "resnetv17_stage2_conv7_fwd"
    name: "resnetv17_stage2_conv7_fwd"
    op_type: "Conv"
    attribute {
      name: "dilations"
      ints: 1
      ints: 1
      type: INTS
    }
    attribute {
      name: "group"
      i: 1
      type: INT
    }
    attribute {
      name: "kernel_shape"
      ints: 1
      ints: 1
      type: INTS
    }
    attribute {
      name: "pads"
      ints: 0
      ints: 0
      ints: 0
      ints: 0
      type: INTS
    }
    attribute {
      name: "strides"
      ints: 1
      ints: 1
      type: INTS
    }
  }
  node {
    input: "resnetv17_stage2_conv7_fwd"
    input: "resnetv17_stage2_batchnorm7_gamma"
    input: "resnetv17_stage2_batchnorm7_beta"
    input: "resnetv17_stage2_batchnorm7_running_mean"
    input: "resnetv17_stage2_batchnorm7_running_var"
    output: "resnetv17_stage2_batchnorm7_fwd"
    name: "resnetv17_stage2_batchnorm7_fwd"
    op_type: "BatchNormalization"
    attribute {
      name: "epsilon"
      f: 1e-05
      type: FLOAT
    }
    attribute {
      name: "momentum"
      f: 0.9
      type: FLOAT
    }
  }
  node {
    input: "resnetv17_stage2_batchnorm7_fwd"
    output: "resnetv17_stage2_relu4_fwd"
    name: "resnetv17_stage2_relu4_fwd"
    op_type: "Relu"
  }
  node {
    input: "resnetv17_stage2_relu4_fwd"
    input: "resnetv17_stage2_conv8_weight"
    output: "resnetv17_stage2_conv8_fwd"
    name: "resnetv17_stage2_conv8_fwd"
    op_type: "Conv"
    attribute {
      name: "dilations"
      ints: 1
      ints: 1
      type: INTS
    }
    attribute {
      name: "group"
      i: 1
      type: INT
    }
    attribute {
      name: "kernel_shape"
      ints: 3
      ints: 3
      type: INTS
    }
    attribute {
      name: "pads"
      ints: 1
      ints: 1
      ints: 1
      ints: 1
      type: INTS
    }
    attribute {
      name: "strides"
      ints: 1
      ints: 1
      type: INTS
    }
  }
  node {
    input: "resnetv17_stage2_conv8_fwd"
    input: "resnetv17_stage2_batchnorm8_gamma"
    input: "resnetv17_stage2_batchnorm8_beta"
    input: "resnetv17_stage2_batchnorm8_running_mean"
    input: "resnetv17_stage2_batchnorm8_running_var"
    output: "resnetv17_stage2_batchnorm8_fwd"
    name: "resnetv17_stage2_batchnorm8_fwd"
    op_type: "BatchNormalization"
    attribute {
      name: "epsilon"
      f: 1e-05
      type: FLOAT
    }
    attribute {
      name: "momentum"
      f: 0.9
      type: FLOAT
    }
  }
  node {
    input: "resnetv17_stage2_batchnorm8_fwd"
    output: "resnetv17_stage2_relu5_fwd"
    name: "resnetv17_stage2_relu5_fwd"
    op_type: "Relu"
  }
  node {
    input: "resnetv17_stage2_relu5_fwd"
    input: "resnetv17_stage2_conv9_weight"
    input: "resnetv17_stage2_conv9_bias"
    output: "resnetv17_stage2_conv9_fwd"
    name: "resnetv17_stage2_conv9_fwd"
    op_type: "Conv"
    attribute {
      name: "dilations"
      ints: 1
      ints: 1
      type: INTS
    }
    attribute {
      name: "group"
      i: 1
      type: INT
    }
    attribute {
      name: "kernel_shape"
      ints: 1
      ints: 1
      type: INTS
    }
    attribute {
      name: "pads"
      ints: 0
      ints: 0
      ints: 0
      ints: 0
      type: INTS
    }
    attribute {
      name: "strides"
      ints: 1
      ints: 1
      type: INTS
    }
  }
  node {
    input: "resnetv17_stage2_conv9_fwd"
    input: "resnetv17_stage2_batchnorm9_gamma"
    input: "resnetv17_stage2_batchnorm9_beta"
    input: "resnetv17_stage2_batchnorm9_running_mean"
    input: "resnetv17_stage2_batchnorm9_running_var"
    output: "resnetv17_stage2_batchnorm9_fwd"
    name: "resnetv17_stage2_batchnorm9_fwd"
    op_type: "BatchNormalization"
    attribute {
      name: "epsilon"
      f: 1e-05
      type: FLOAT
    }
    attribute {
      name: "momentum"
      f: 0.9
      type: FLOAT
    }
  }
  node {
    input: "resnetv17_stage2_batchnorm9_fwd"
    input: "resnetv17_stage2_activation1"
    output: "resnetv17_stage2__plus2"
    name: "resnetv17_stage2__plus2"
    op_type: "Add"
  }
  node {
    input: "resnetv17_stage2__plus2"
    output: "resnetv17_stage2_activation2"
    name: "resnetv17_stage2_activation2"
    op_type: "Relu"
  }
  node {
    input: "resnetv17_stage2_activation2"
    input: "resnetv17_stage2_conv10_weight"
    input: "resnetv17_stage2_conv10_bias"
    output: "resnetv17_stage2_conv10_fwd"
    name: "resnetv17_stage2_conv10_fwd"
    op_type: "Conv"
    attribute {
      name: "dilations"
      ints: 1
      ints: 1
      type: INTS
    }
    attribute {
      name: "group"
      i: 1
      type: INT
    }
    attribute {
      name: "kernel_shape"
      ints: 1
      ints: 1
      type: INTS
    }
    attribute {
      name: "pads"
      ints: 0
      ints: 0
      ints: 0
      ints: 0
      type: INTS
    }
    attribute {
      name: "strides"
      ints: 1
      ints: 1
      type: INTS
    }
  }
  node {
    input: "resnetv17_stage2_conv10_fwd"
    input: "resnetv17_stage2_batchnorm10_gamma"
    input: "resnetv17_stage2_batchnorm10_beta"
    input: "resnetv17_stage2_batchnorm10_running_mean"
    input: "resnetv17_stage2_batchnorm10_running_var"
    output: "resnetv17_stage2_batchnorm10_fwd"
    name: "resnetv17_stage2_batchnorm10_fwd"
    op_type: "BatchNormalization"
    attribute {
      name: "epsilon"
      f: 1e-05
      type: FLOAT
    }
    attribute {
      name: "momentum"
      f: 0.9
      type: FLOAT
    }
  }
  node {
    input: "resnetv17_stage2_batchnorm10_fwd"
    output: "resnetv17_stage2_relu6_fwd"
    name: "resnetv17_stage2_relu6_fwd"
    op_type: "Relu"
  }
  node {
    input: "resnetv17_stage2_relu6_fwd"
    input: "resnetv17_stage2_conv11_weight"
    output: "resnetv17_stage2_conv11_fwd"
    name: "resnetv17_stage2_conv11_fwd"
    op_type: "Conv"
    attribute {
      name: "dilations"
      ints: 1
      ints: 1
      type: INTS
    }
    attribute {
      name: "group"
      i: 1
      type: INT
    }
    attribute {
      name: "kernel_shape"
      ints: 3
      ints: 3
      type: INTS
    }
    attribute {
      name: "pads"
      ints: 1
      ints: 1
      ints: 1
      ints: 1
      type: INTS
    }
    attribute {
      name: "strides"
      ints: 1
      ints: 1
      type: INTS
    }
  }
  node {
    input: "resnetv17_stage2_conv11_fwd"
    input: "resnetv17_stage2_batchnorm11_gamma"
    input: "resnetv17_stage2_batchnorm11_beta"
    input: "resnetv17_stage2_batchnorm11_running_mean"
    input: "resnetv17_stage2_batchnorm11_running_var"
    output: "resnetv17_stage2_batchnorm11_fwd"
    name: "resnetv17_stage2_batchnorm11_fwd"
    op_type: "BatchNormalization"
    attribute {
      name: "epsilon"
      f: 1e-05
      type: FLOAT
    }
    attribute {
      name: "momentum"
      f: 0.9
      type: FLOAT
    }
  }
  node {
    input: "resnetv17_stage2_batchnorm11_fwd"
    output: "resnetv17_stage2_relu7_fwd"
    name: "resnetv17_stage2_relu7_fwd"
    op_type: "Relu"
  }
  node {
    input: "resnetv17_stage2_relu7_fwd"
    input: "resnetv17_stage2_conv12_weight"
    input: "resnetv17_stage2_conv12_bias"
    output: "resnetv17_stage2_conv12_fwd"
    name: "resnetv17_stage2_conv12_fwd"
    op_type: "Conv"
    attribute {
      name: "dilations"
      ints: 1
      ints: 1
      type: INTS
    }
    attribute {
      name: "group"
      i: 1
      type: INT
    }
    attribute {
      name: "kernel_shape"
      ints: 1
      ints: 1
      type: INTS
    }
    attribute {
      name: "pads"
      ints: 0
      ints: 0
      ints: 0
      ints: 0
      type: INTS
    }
    attribute {
      name: "strides"
      ints: 1
      ints: 1
      type: INTS
    }
  }
  node {
    input: "resnetv17_stage2_conv12_fwd"
    input: "resnetv17_stage2_batchnorm12_gamma"
    input: "resnetv17_stage2_batchnorm12_beta"
    input: "resnetv17_stage2_batchnorm12_running_mean"
    input: "resnetv17_stage2_batchnorm12_running_var"
    output: "resnetv17_stage2_batchnorm12_fwd"
    name: "resnetv17_stage2_batchnorm12_fwd"
    op_type: "BatchNormalization"
    attribute {
      name: "epsilon"
      f: 1e-05
      type: FLOAT
    }
    attribute {
      name: "momentum"
      f: 0.9
      type: FLOAT
    }
  }
  node {
    input: "resnetv17_stage2_batchnorm12_fwd"
    input: "resnetv17_stage2_activation2"
    output: "resnetv17_stage2__plus3"
    name: "resnetv17_stage2__plus3"
    op_type: "Add"
  }
  node {
    input: "resnetv17_stage2__plus3"
    output: "resnetv17_stage2_activation3"
    name: "resnetv17_stage2_activation3"
    op_type: "Relu"
  }
  node {
    input: "resnetv17_stage2_activation3"
    input: "resnetv17_stage3_conv0_weight"
    input: "resnetv17_stage3_conv0_bias"
    output: "resnetv17_stage3_conv0_fwd"
    name: "resnetv17_stage3_conv0_fwd"
    op_type: "Conv"
    attribute {
      name: "dilations"
      ints: 1
      ints: 1
      type: INTS
    }
    attribute {
      name: "group"
      i: 1
      type: INT
    }
    attribute {
      name: "kernel_shape"
      ints: 1
      ints: 1
      type: INTS
    }
    attribute {
      name: "pads"
      ints: 0
      ints: 0
      ints: 0
      ints: 0
      type: INTS
    }
    attribute {
      name: "strides"
      ints: 2
      ints: 2
      type: INTS
    }
  }
  node {
    input: "resnetv17_stage3_conv0_fwd"
    input: "resnetv17_stage3_batchnorm0_gamma"
    input: "resnetv17_stage3_batchnorm0_beta"
    input: "resnetv17_stage3_batchnorm0_running_mean"
    input: "resnetv17_stage3_batchnorm0_running_var"
    output: "resnetv17_stage3_batchnorm0_fwd"
    name: "resnetv17_stage3_batchnorm0_fwd"
    op_type: "BatchNormalization"
    attribute {
      name: "epsilon"
      f: 1e-05
      type: FLOAT
    }
    attribute {
      name: "momentum"
      f: 0.9
      type: FLOAT
    }
  }
  node {
    input: "resnetv17_stage3_batchnorm0_fwd"
    output: "resnetv17_stage3_relu0_fwd"
    name: "resnetv17_stage3_relu0_fwd"
    op_type: "Relu"
  }
  node {
    input: "resnetv17_stage3_relu0_fwd"
    input: "resnetv17_stage3_conv1_weight"
    output: "resnetv17_stage3_conv1_fwd"
    name: "resnetv17_stage3_conv1_fwd"
    op_type: "Conv"
    attribute {
      name: "dilations"
      ints: 1
      ints: 1
      type: INTS
    }
    attribute {
      name: "group"
      i: 1
      type: INT
    }
    attribute {
      name: "kernel_shape"
      ints: 3
      ints: 3
      type: INTS
    }
    attribute {
      name: "pads"
      ints: 1
      ints: 1
      ints: 1
      ints: 1
      type: INTS
    }
    attribute {
      name: "strides"
      ints: 1
      ints: 1
      type: INTS
    }
  }
  node {
    input: "resnetv17_stage3_conv1_fwd"
    input: "resnetv17_stage3_batchnorm1_gamma"
    input: "resnetv17_stage3_batchnorm1_beta"
    input: "resnetv17_stage3_batchnorm1_running_mean"
    input: "resnetv17_stage3_batchnorm1_running_var"
    output: "resnetv17_stage3_batchnorm1_fwd"
    name: "resnetv17_stage3_batchnorm1_fwd"
    op_type: "BatchNormalization"
    attribute {
      name: "epsilon"
      f: 1e-05
      type: FLOAT
    }
    attribute {
      name: "momentum"
      f: 0.9
      type: FLOAT
    }
  }
  node {
    input: "resnetv17_stage3_batchnorm1_fwd"
    output: "resnetv17_stage3_relu1_fwd"
    name: "resnetv17_stage3_relu1_fwd"
    op_type: "Relu"
  }
  node {
    input: "resnetv17_stage3_relu1_fwd"
    input: "resnetv17_stage3_conv2_weight"
    input: "resnetv17_stage3_conv2_bias"
    output: "resnetv17_stage3_conv2_fwd"
    name: "resnetv17_stage3_conv2_fwd"
    op_type: "Conv"
    attribute {
      name: "dilations"
      ints: 1
      ints: 1
      type: INTS
    }
    attribute {
      name: "group"
      i: 1
      type: INT
    }
    attribute {
      name: "kernel_shape"
      ints: 1
      ints: 1
      type: INTS
    }
    attribute {
      name: "pads"
      ints: 0
      ints: 0
      ints: 0
      ints: 0
      type: INTS
    }
    attribute {
      name: "strides"
      ints: 1
      ints: 1
      type: INTS
    }
  }
  node {
    input: "resnetv17_stage3_conv2_fwd"
    input: "resnetv17_stage3_batchnorm2_gamma"
    input: "resnetv17_stage3_batchnorm2_beta"
    input: "resnetv17_stage3_batchnorm2_running_mean"
    input: "resnetv17_stage3_batchnorm2_running_var"
    output: "resnetv17_stage3_batchnorm2_fwd"
    name: "resnetv17_stage3_batchnorm2_fwd"
    op_type: "BatchNormalization"
    attribute {
      name: "epsilon"
      f: 1e-05
      type: FLOAT
    }
    attribute {
      name: "momentum"
      f: 0.9
      type: FLOAT
    }
  }
  node {
    input: "resnetv17_stage2_activation3"
    input: "resnetv17_stage3_conv3_weight"
    output: "resnetv17_stage3_conv3_fwd"
    name: "resnetv17_stage3_conv3_fwd"
    op_type: "Conv"
    attribute {
      name: "dilations"
      ints: 1
      ints: 1
      type: INTS
    }
    attribute {
      name: "group"
      i: 1
      type: INT
    }
    attribute {
      name: "kernel_shape"
      ints: 1
      ints: 1
      type: INTS
    }
    attribute {
      name: "pads"
      ints: 0
      ints: 0
      ints: 0
      ints: 0
      type: INTS
    }
    attribute {
      name: "strides"
      ints: 2
      ints: 2
      type: INTS
    }
  }
  node {
    input: "resnetv17_stage3_conv3_fwd"
    input: "resnetv17_stage3_batchnorm3_gamma"
    input: "resnetv17_stage3_batchnorm3_beta"
    input: "resnetv17_stage3_batchnorm3_running_mean"
    input: "resnetv17_stage3_batchnorm3_running_var"
    output: "resnetv17_stage3_batchnorm3_fwd"
    name: "resnetv17_stage3_batchnorm3_fwd"
    op_type: "BatchNormalization"
    attribute {
      name: "epsilon"
      f: 1e-05
      type: FLOAT
    }
    attribute {
      name: "momentum"
      f: 0.9
      type: FLOAT
    }
  }
  node {
    input: "resnetv17_stage3_batchnorm2_fwd"
    input: "resnetv17_stage3_batchnorm3_fwd"
    output: "resnetv17_stage3__plus0"
    name: "resnetv17_stage3__plus0"
    op_type: "Add"
  }
  node {
    input: "resnetv17_stage3__plus0"
    output: "resnetv17_stage3_activation0"
    name: "resnetv17_stage3_activation0"
    op_type: "Relu"
  }
  node {
    input: "resnetv17_stage3_activation0"
    input: "resnetv17_stage3_conv4_weight"
    input: "resnetv17_stage3_conv4_bias"
    output: "resnetv17_stage3_conv4_fwd"
    name: "resnetv17_stage3_conv4_fwd"
    op_type: "Conv"
    attribute {
      name: "dilations"
      ints: 1
      ints: 1
      type: INTS
    }
    attribute {
      name: "group"
      i: 1
      type: INT
    }
    attribute {
      name: "kernel_shape"
      ints: 1
      ints: 1
      type: INTS
    }
    attribute {
      name: "pads"
      ints: 0
      ints: 0
      ints: 0
      ints: 0
      type: INTS
    }
    attribute {
      name: "strides"
      ints: 1
      ints: 1
      type: INTS
    }
  }
  node {
    input: "resnetv17_stage3_conv4_fwd"
    input: "resnetv17_stage3_batchnorm4_gamma"
    input: "resnetv17_stage3_batchnorm4_beta"
    input: "resnetv17_stage3_batchnorm4_running_mean"
    input: "resnetv17_stage3_batchnorm4_running_var"
    output: "resnetv17_stage3_batchnorm4_fwd"
    name: "resnetv17_stage3_batchnorm4_fwd"
    op_type: "BatchNormalization"
    attribute {
      name: "epsilon"
      f: 1e-05
      type: FLOAT
    }
    attribute {
      name: "momentum"
      f: 0.9
      type: FLOAT
    }
  }
  node {
    input: "resnetv17_stage3_batchnorm4_fwd"
    output: "resnetv17_stage3_relu2_fwd"
    name: "resnetv17_stage3_relu2_fwd"
    op_type: "Relu"
  }
  node {
    input: "resnetv17_stage3_relu2_fwd"
    input: "resnetv17_stage3_conv5_weight"
    output: "resnetv17_stage3_conv5_fwd"
    name: "resnetv17_stage3_conv5_fwd"
    op_type: "Conv"
    attribute {
      name: "dilations"
      ints: 1
      ints: 1
      type: INTS
    }
    attribute {
      name: "group"
      i: 1
      type: INT
    }
    attribute {
      name: "kernel_shape"
      ints: 3
      ints: 3
      type: INTS
    }
    attribute {
      name: "pads"
      ints: 1
      ints: 1
      ints: 1
      ints: 1
      type: INTS
    }
    attribute {
      name: "strides"
      ints: 1
      ints: 1
      type: INTS
    }
  }
  node {
    input: "resnetv17_stage3_conv5_fwd"
    input: "resnetv17_stage3_batchnorm5_gamma"
    input: "resnetv17_stage3_batchnorm5_beta"
    input: "resnetv17_stage3_batchnorm5_running_mean"
    input: "resnetv17_stage3_batchnorm5_running_var"
    output: "resnetv17_stage3_batchnorm5_fwd"
    name: "resnetv17_stage3_batchnorm5_fwd"
    op_type: "BatchNormalization"
    attribute {
      name: "epsilon"
      f: 1e-05
      type: FLOAT
    }
    attribute {
      name: "momentum"
      f: 0.9
      type: FLOAT
    }
  }
  node {
    input: "resnetv17_stage3_batchnorm5_fwd"
    output: "resnetv17_stage3_relu3_fwd"
    name: "resnetv17_stage3_relu3_fwd"
    op_type: "Relu"
  }
  node {
    input: "resnetv17_stage3_relu3_fwd"
    input: "resnetv17_stage3_conv6_weight"
    input: "resnetv17_stage3_conv6_bias"
    output: "resnetv17_stage3_conv6_fwd"
    name: "resnetv17_stage3_conv6_fwd"
    op_type: "Conv"
    attribute {
      name: "dilations"
      ints: 1
      ints: 1
      type: INTS
    }
    attribute {
      name: "group"
      i: 1
      type: INT
    }
    attribute {
      name: "kernel_shape"
      ints: 1
      ints: 1
      type: INTS
    }
    attribute {
      name: "pads"
      ints: 0
      ints: 0
      ints: 0
      ints: 0
      type: INTS
    }
    attribute {
      name: "strides"
      ints: 1
      ints: 1
      type: INTS
    }
  }
  node {
    input: "resnetv17_stage3_conv6_fwd"
    input: "resnetv17_stage3_batchnorm6_gamma"
    input: "resnetv17_stage3_batchnorm6_beta"
    input: "resnetv17_stage3_batchnorm6_running_mean"
    input: "resnetv17_stage3_batchnorm6_running_var"
    output: "resnetv17_stage3_batchnorm6_fwd"
    name: "resnetv17_stage3_batchnorm6_fwd"
    op_type: "BatchNormalization"
    attribute {
      name: "epsilon"
      f: 1e-05
      type: FLOAT
    }
    attribute {
      name: "momentum"
      f: 0.9
      type: FLOAT
    }
  }
  node {
    input: "resnetv17_stage3_batchnorm6_fwd"
    input: "resnetv17_stage3_activation0"
    output: "resnetv17_stage3__plus1"
    name: "resnetv17_stage3__plus1"
    op_type: "Add"
  }
  node {
    input: "resnetv17_stage3__plus1"
    output: "resnetv17_stage3_activation1"
    name: "resnetv17_stage3_activation1"
    op_type: "Relu"
  }
  node {
    input: "resnetv17_stage3_activation1"
    input: "resnetv17_stage3_conv7_weight"
    input: "resnetv17_stage3_conv7_bias"
    output: "resnetv17_stage3_conv7_fwd"
    name: "resnetv17_stage3_conv7_fwd"
    op_type: "Conv"
    attribute {
      name: "dilations"
      ints: 1
      ints: 1
      type: INTS
    }
    attribute {
      name: "group"
      i: 1
      type: INT
    }
    attribute {
      name: "kernel_shape"
      ints: 1
      ints: 1
      type: INTS
    }
    attribute {
      name: "pads"
      ints: 0
      ints: 0
      ints: 0
      ints: 0
      type: INTS
    }
    attribute {
      name: "strides"
      ints: 1
      ints: 1
      type: INTS
    }
  }
  node {
    input: "resnetv17_stage3_conv7_fwd"
    input: "resnetv17_stage3_batchnorm7_gamma"
    input: "resnetv17_stage3_batchnorm7_beta"
    input: "resnetv17_stage3_batchnorm7_running_mean"
    input: "resnetv17_stage3_batchnorm7_running_var"
    output: "resnetv17_stage3_batchnorm7_fwd"
    name: "resnetv17_stage3_batchnorm7_fwd"
    op_type: "BatchNormalization"
    attribute {
      name: "epsilon"
      f: 1e-05
      type: FLOAT
    }
    attribute {
      name: "momentum"
      f: 0.9
      type: FLOAT
    }
  }
  node {
    input: "resnetv17_stage3_batchnorm7_fwd"
    output: "resnetv17_stage3_relu4_fwd"
    name: "resnetv17_stage3_relu4_fwd"
    op_type: "Relu"
  }
  node {
    input: "resnetv17_stage3_relu4_fwd"
    input: "resnetv17_stage3_conv8_weight"
    output: "resnetv17_stage3_conv8_fwd"
    name: "resnetv17_stage3_conv8_fwd"
    op_type: "Conv"
    attribute {
      name: "dilations"
      ints: 1
      ints: 1
      type: INTS
    }
    attribute {
      name: "group"
      i: 1
      type: INT
    }
    attribute {
      name: "kernel_shape"
      ints: 3
      ints: 3
      type: INTS
    }
    attribute {
      name: "pads"
      ints: 1
      ints: 1
      ints: 1
      ints: 1
      type: INTS
    }
    attribute {
      name: "strides"
      ints: 1
      ints: 1
      type: INTS
    }
  }
  node {
    input: "resnetv17_stage3_conv8_fwd"
    input: "resnetv17_stage3_batchnorm8_gamma"
    input: "resnetv17_stage3_batchnorm8_beta"
    input: "resnetv17_stage3_batchnorm8_running_mean"
    input: "resnetv17_stage3_batchnorm8_running_var"
    output: "resnetv17_stage3_batchnorm8_fwd"
    name: "resnetv17_stage3_batchnorm8_fwd"
    op_type: "BatchNormalization"
    attribute {
      name: "epsilon"
      f: 1e-05
      type: FLOAT
    }
    attribute {
      name: "momentum"
      f: 0.9
      type: FLOAT
    }
  }
  node {
    input: "resnetv17_stage3_batchnorm8_fwd"
    output: "resnetv17_stage3_relu5_fwd"
    name: "resnetv17_stage3_relu5_fwd"
    op_type: "Relu"
  }
  node {
    input: "resnetv17_stage3_relu5_fwd"
    input: "resnetv17_stage3_conv9_weight"
    input: "resnetv17_stage3_conv9_bias"
    output: "resnetv17_stage3_conv9_fwd"
    name: "resnetv17_stage3_conv9_fwd"
    op_type: "Conv"
    attribute {
      name: "dilations"
      ints: 1
      ints: 1
      type: INTS
    }
    attribute {
      name: "group"
      i: 1
      type: INT
    }
    attribute {
      name: "kernel_shape"
      ints: 1
      ints: 1
      type: INTS
    }
    attribute {
      name: "pads"
      ints: 0
      ints: 0
      ints: 0
      ints: 0
      type: INTS
    }
    attribute {
      name: "strides"
      ints: 1
      ints: 1
      type: INTS
    }
  }
  node {
    input: "resnetv17_stage3_conv9_fwd"
    input: "resnetv17_stage3_batchnorm9_gamma"
    input: "resnetv17_stage3_batchnorm9_beta"
    input: "resnetv17_stage3_batchnorm9_running_mean"
    input: "resnetv17_stage3_batchnorm9_running_var"
    output: "resnetv17_stage3_batchnorm9_fwd"
    name: "resnetv17_stage3_batchnorm9_fwd"
    op_type: "BatchNormalization"
    attribute {
      name: "epsilon"
      f: 1e-05
      type: FLOAT
    }
    attribute {
      name: "momentum"
      f: 0.9
      type: FLOAT
    }
  }
  node {
    input: "resnetv17_stage3_batchnorm9_fwd"
    input: "resnetv17_stage3_activation1"
    output: "resnetv17_stage3__plus2"
    name: "resnetv17_stage3__plus2"
    op_type: "Add"
  }
  node {
    input: "resnetv17_stage3__plus2"
    output: "resnetv17_stage3_activation2"
    name: "resnetv17_stage3_activation2"
    op_type: "Relu"
  }
  node {
    input: "resnetv17_stage3_activation2"
    input: "resnetv17_stage3_conv10_weight"
    input: "resnetv17_stage3_conv10_bias"
    output: "resnetv17_stage3_conv10_fwd"
    name: "resnetv17_stage3_conv10_fwd"
    op_type: "Conv"
    attribute {
      name: "dilations"
      ints: 1
      ints: 1
      type: INTS
    }
    attribute {
      name: "group"
      i: 1
      type: INT
    }
    attribute {
      name: "kernel_shape"
      ints: 1
      ints: 1
      type: INTS
    }
    attribute {
      name: "pads"
      ints: 0
      ints: 0
      ints: 0
      ints: 0
      type: INTS
    }
    attribute {
      name: "strides"
      ints: 1
      ints: 1
      type: INTS
    }
  }
  node {
    input: "resnetv17_stage3_conv10_fwd"
    input: "resnetv17_stage3_batchnorm10_gamma"
    input: "resnetv17_stage3_batchnorm10_beta"
    input: "resnetv17_stage3_batchnorm10_running_mean"
    input: "resnetv17_stage3_batchnorm10_running_var"
    output: "resnetv17_stage3_batchnorm10_fwd"
    name: "resnetv17_stage3_batchnorm10_fwd"
    op_type: "BatchNormalization"
    attribute {
      name: "epsilon"
      f: 1e-05
      type: FLOAT
    }
    attribute {
      name: "momentum"
      f: 0.9
      type: FLOAT
    }
  }
  node {
    input: "resnetv17_stage3_batchnorm10_fwd"
    output: "resnetv17_stage3_relu6_fwd"
    name: "resnetv17_stage3_relu6_fwd"
    op_type: "Relu"
  }
  node {
    input: "resnetv17_stage3_relu6_fwd"
    input: "resnetv17_stage3_conv11_weight"
    output: "resnetv17_stage3_conv11_fwd"
    name: "resnetv17_stage3_conv11_fwd"
    op_type: "Conv"
    attribute {
      name: "dilations"
      ints: 1
      ints: 1
      type: INTS
    }
    attribute {
      name: "group"
      i: 1
      type: INT
    }
    attribute {
      name: "kernel_shape"
      ints: 3
      ints: 3
      type: INTS
    }
    attribute {
      name: "pads"
      ints: 1
      ints: 1
      ints: 1
      ints: 1
      type: INTS
    }
    attribute {
      name: "strides"
      ints: 1
      ints: 1
      type: INTS
    }
  }
  node {
    input: "resnetv17_stage3_conv11_fwd"
    input: "resnetv17_stage3_batchnorm11_gamma"
    input: "resnetv17_stage3_batchnorm11_beta"
    input: "resnetv17_stage3_batchnorm11_running_mean"
    input: "resnetv17_stage3_batchnorm11_running_var"
    output: "resnetv17_stage3_batchnorm11_fwd"
    name: "resnetv17_stage3_batchnorm11_fwd"
    op_type: "BatchNormalization"
    attribute {
      name: "epsilon"
      f: 1e-05
      type: FLOAT
    }
    attribute {
      name: "momentum"
      f: 0.9
      type: FLOAT
    }
  }
  node {
    input: "resnetv17_stage3_batchnorm11_fwd"
    output: "resnetv17_stage3_relu7_fwd"
    name: "resnetv17_stage3_relu7_fwd"
    op_type: "Relu"
  }
  node {
    input: "resnetv17_stage3_relu7_fwd"
    input: "resnetv17_stage3_conv12_weight"
    input: "resnetv17_stage3_conv12_bias"
    output: "resnetv17_stage3_conv12_fwd"
    name: "resnetv17_stage3_conv12_fwd"
    op_type: "Conv"
    attribute {
      name: "dilations"
      ints: 1
      ints: 1
      type: INTS
    }
    attribute {
      name: "group"
      i: 1
      type: INT
    }
    attribute {
      name: "kernel_shape"
      ints: 1
      ints: 1
      type: INTS
    }
    attribute {
      name: "pads"
      ints: 0
      ints: 0
      ints: 0
      ints: 0
      type: INTS
    }
    attribute {
      name: "strides"
      ints: 1
      ints: 1
      type: INTS
    }
  }
  node {
    input: "resnetv17_stage3_conv12_fwd"
    input: "resnetv17_stage3_batchnorm12_gamma"
    input: "resnetv17_stage3_batchnorm12_beta"
    input: "resnetv17_stage3_batchnorm12_running_mean"
    input: "resnetv17_stage3_batchnorm12_running_var"
    output: "resnetv17_stage3_batchnorm12_fwd"
    name: "resnetv17_stage3_batchnorm12_fwd"
    op_type: "BatchNormalization"
    attribute {
      name: "epsilon"
      f: 1e-05
      type: FLOAT
    }
    attribute {
      name: "momentum"
      f: 0.9
      type: FLOAT
    }
  }
  node {
    input: "resnetv17_stage3_batchnorm12_fwd"
    input: "resnetv17_stage3_activation2"
    output: "resnetv17_stage3__plus3"
    name: "resnetv17_stage3__plus3"
    op_type: "Add"
  }
  node {
    input: "resnetv17_stage3__plus3"
    output: "resnetv17_stage3_activation3"
    name: "resnetv17_stage3_activation3"
    op_type: "Relu"
  }
  node {
    input: "resnetv17_stage3_activation3"
    input: "resnetv17_stage3_conv13_weight"
    input: "resnetv17_stage3_conv13_bias"
    output: "resnetv17_stage3_conv13_fwd"
    name: "resnetv17_stage3_conv13_fwd"
    op_type: "Conv"
    attribute {
      name: "dilations"
      ints: 1
      ints: 1
      type: INTS
    }
    attribute {
      name: "group"
      i: 1
      type: INT
    }
    attribute {
      name: "kernel_shape"
      ints: 1
      ints: 1
      type: INTS
    }
    attribute {
      name: "pads"
      ints: 0
      ints: 0
      ints: 0
      ints: 0
      type: INTS
    }
    attribute {
      name: "strides"
      ints: 1
      ints: 1
      type: INTS
    }
  }
  node {
    input: "resnetv17_stage3_conv13_fwd"
    input: "resnetv17_stage3_batchnorm13_gamma"
    input: "resnetv17_stage3_batchnorm13_beta"
    input: "resnetv17_stage3_batchnorm13_running_mean"
    input: "resnetv17_stage3_batchnorm13_running_var"
    output: "resnetv17_stage3_batchnorm13_fwd"
    name: "resnetv17_stage3_batchnorm13_fwd"
    op_type: "BatchNormalization"
    attribute {
      name: "epsilon"
      f: 1e-05
      type: FLOAT
    }
    attribute {
      name: "momentum"
      f: 0.9
      type: FLOAT
    }
  }
  node {
    input: "resnetv17_stage3_batchnorm13_fwd"
    output: "resnetv17_stage3_relu8_fwd"
    name: "resnetv17_stage3_relu8_fwd"
    op_type: "Relu"
  }
  node {
    input: "resnetv17_stage3_relu8_fwd"
    input: "resnetv17_stage3_conv14_weight"
    output: "resnetv17_stage3_conv14_fwd"
    name: "resnetv17_stage3_conv14_fwd"
    op_type: "Conv"
    attribute {
      name: "dilations"
      ints: 1
      ints: 1
      type: INTS
    }
    attribute {
      name: "group"
      i: 1
      type: INT
    }
    attribute {
      name: "kernel_shape"
      ints: 3
      ints: 3
      type: INTS
    }
    attribute {
      name: "pads"
      ints: 1
      ints: 1
      ints: 1
      ints: 1
      type: INTS
    }
    attribute {
      name: "strides"
      ints: 1
      ints: 1
      type: INTS
    }
  }
  node {
    input: "resnetv17_stage3_conv14_fwd"
    input: "resnetv17_stage3_batchnorm14_gamma"
    input: "resnetv17_stage3_batchnorm14_beta"
    input: "resnetv17_stage3_batchnorm14_running_mean"
    input: "resnetv17_stage3_batchnorm14_running_var"
    output: "resnetv17_stage3_batchnorm14_fwd"
    name: "resnetv17_stage3_batchnorm14_fwd"
    op_type: "BatchNormalization"
    attribute {
      name: "epsilon"
      f: 1e-05
      type: FLOAT
    }
    attribute {
      name: "momentum"
      f: 0.9
      type: FLOAT
    }
  }
  node {
    input: "resnetv17_stage3_batchnorm14_fwd"
    output: "resnetv17_stage3_relu9_fwd"
    name: "resnetv17_stage3_relu9_fwd"
    op_type: "Relu"
  }
  node {
    input: "resnetv17_stage3_relu9_fwd"
    input: "resnetv17_stage3_conv15_weight"
    input: "resnetv17_stage3_conv15_bias"
    output: "resnetv17_stage3_conv15_fwd"
    name: "resnetv17_stage3_conv15_fwd"
    op_type: "Conv"
    attribute {
      name: "dilations"
      ints: 1
      ints: 1
      type: INTS
    }
    attribute {
      name: "group"
      i: 1
      type: INT
    }
    attribute {
      name: "kernel_shape"
      ints: 1
      ints: 1
      type: INTS
    }
    attribute {
      name: "pads"
      ints: 0
      ints: 0
      ints: 0
      ints: 0
      type: INTS
    }
    attribute {
      name: "strides"
      ints: 1
      ints: 1
      type: INTS
    }
  }
  node {
    input: "resnetv17_stage3_conv15_fwd"
    input: "resnetv17_stage3_batchnorm15_gamma"
    input: "resnetv17_stage3_batchnorm15_beta"
    input: "resnetv17_stage3_batchnorm15_running_mean"
    input: "resnetv17_stage3_batchnorm15_running_var"
    output: "resnetv17_stage3_batchnorm15_fwd"
    name: "resnetv17_stage3_batchnorm15_fwd"
    op_type: "BatchNormalization"
    attribute {
      name: "epsilon"
      f: 1e-05
      type: FLOAT
    }
    attribute {
      name: "momentum"
      f: 0.9
      type: FLOAT
    }
  }
  node {
    input: "resnetv17_stage3_batchnorm15_fwd"
    input: "resnetv17_stage3_activation3"
    output: "resnetv17_stage3__plus4"
    name: "resnetv17_stage3__plus4"
    op_type: "Add"
  }
  node {
    input: "resnetv17_stage3__plus4"
    output: "resnetv17_stage3_activation4"
    name: "resnetv17_stage3_activation4"
    op_type: "Relu"
  }
  node {
    input: "resnetv17_stage3_activation4"
    input: "resnetv17_stage3_conv16_weight"
    input: "resnetv17_stage3_conv16_bias"
    output: "resnetv17_stage3_conv16_fwd"
    name: "resnetv17_stage3_conv16_fwd"
    op_type: "Conv"
    attribute {
      name: "dilations"
      ints: 1
      ints: 1
      type: INTS
    }
    attribute {
      name: "group"
      i: 1
      type: INT
    }
    attribute {
      name: "kernel_shape"
      ints: 1
      ints: 1
      type: INTS
    }
    attribute {
      name: "pads"
      ints: 0
      ints: 0
      ints: 0
      ints: 0
      type: INTS
    }
    attribute {
      name: "strides"
      ints: 1
      ints: 1
      type: INTS
    }
  }
  node {
    input: "resnetv17_stage3_conv16_fwd"
    input: "resnetv17_stage3_batchnorm16_gamma"
    input: "resnetv17_stage3_batchnorm16_beta"
    input: "resnetv17_stage3_batchnorm16_running_mean"
    input: "resnetv17_stage3_batchnorm16_running_var"
    output: "resnetv17_stage3_batchnorm16_fwd"
    name: "resnetv17_stage3_batchnorm16_fwd"
    op_type: "BatchNormalization"
    attribute {
      name: "epsilon"
      f: 1e-05
      type: FLOAT
    }
    attribute {
      name: "momentum"
      f: 0.9
      type: FLOAT
    }
  }
  node {
    input: "resnetv17_stage3_batchnorm16_fwd"
    output: "resnetv17_stage3_relu10_fwd"
    name: "resnetv17_stage3_relu10_fwd"
    op_type: "Relu"
  }
  node {
    input: "resnetv17_stage3_relu10_fwd"
    input: "resnetv17_stage3_conv17_weight"
    output: "resnetv17_stage3_conv17_fwd"
    name: "resnetv17_stage3_conv17_fwd"
    op_type: "Conv"
    attribute {
      name: "dilations"
      ints: 1
      ints: 1
      type: INTS
    }
    attribute {
      name: "group"
      i: 1
      type: INT
    }
    attribute {
      name: "kernel_shape"
      ints: 3
      ints: 3
      type: INTS
    }
    attribute {
      name: "pads"
      ints: 1
      ints: 1
      ints: 1
      ints: 1
      type: INTS
    }
    attribute {
      name: "strides"
      ints: 1
      ints: 1
      type: INTS
    }
  }
  node {
    input: "resnetv17_stage3_conv17_fwd"
    input: "resnetv17_stage3_batchnorm17_gamma"
    input: "resnetv17_stage3_batchnorm17_beta"
    input: "resnetv17_stage3_batchnorm17_running_mean"
    input: "resnetv17_stage3_batchnorm17_running_var"
    output: "resnetv17_stage3_batchnorm17_fwd"
    name: "resnetv17_stage3_batchnorm17_fwd"
    op_type: "BatchNormalization"
    attribute {
      name: "epsilon"
      f: 1e-05
      type: FLOAT
    }
    attribute {
      name: "momentum"
      f: 0.9
      type: FLOAT
    }
  }
  node {
    input: "resnetv17_stage3_batchnorm17_fwd"
    output: "resnetv17_stage3_relu11_fwd"
    name: "resnetv17_stage3_relu11_fwd"
    op_type: "Relu"
  }
  node {
    input: "resnetv17_stage3_relu11_fwd"
    input: "resnetv17_stage3_conv18_weight"
    input: "resnetv17_stage3_conv18_bias"
    output: "resnetv17_stage3_conv18_fwd"
    name: "resnetv17_stage3_conv18_fwd"
    op_type: "Conv"
    attribute {
      name: "dilations"
      ints: 1
      ints: 1
      type: INTS
    }
    attribute {
      name: "group"
      i: 1
      type: INT
    }
    attribute {
      name: "kernel_shape"
      ints: 1
      ints: 1
      type: INTS
    }
    attribute {
      name: "pads"
      ints: 0
      ints: 0
      ints: 0
      ints: 0
      type: INTS
    }
    attribute {
      name: "strides"
      ints: 1
      ints: 1
      type: INTS
    }
  }
  node {
    input: "resnetv17_stage3_conv18_fwd"
    input: "resnetv17_stage3_batchnorm18_gamma"
    input: "resnetv17_stage3_batchnorm18_beta"
    input: "resnetv17_stage3_batchnorm18_running_mean"
    input: "resnetv17_stage3_batchnorm18_running_var"
    output: "resnetv17_stage3_batchnorm18_fwd"
    name: "resnetv17_stage3_batchnorm18_fwd"
    op_type: "BatchNormalization"
    attribute {
      name: "epsilon"
      f: 1e-05
      type: FLOAT
    }
    attribute {
      name: "momentum"
      f: 0.9
      type: FLOAT
    }
  }
  node {
    input: "resnetv17_stage3_batchnorm18_fwd"
    input: "resnetv17_stage3_activation4"
    output: "resnetv17_stage3__plus5"
    name: "resnetv17_stage3__plus5"
    op_type: "Add"
  }
  node {
    input: "resnetv17_stage3__plus5"
    output: "resnetv17_stage3_activation5"
    name: "resnetv17_stage3_activation5"
    op_type: "Relu"
  }
  node {
    input: "resnetv17_stage3_activation5"
    input: "resnetv17_stage4_conv0_weight"
    input: "resnetv17_stage4_conv0_bias"
    output: "resnetv17_stage4_conv0_fwd"
    name: "resnetv17_stage4_conv0_fwd"
    op_type: "Conv"
    attribute {
      name: "dilations"
      ints: 1
      ints: 1
      type: INTS
    }
    attribute {
      name: "group"
      i: 1
      type: INT
    }
    attribute {
      name: "kernel_shape"
      ints: 1
      ints: 1
      type: INTS
    }
    attribute {
      name: "pads"
      ints: 0
      ints: 0
      ints: 0
      ints: 0
      type: INTS
    }
    attribute {
      name: "strides"
      ints: 2
      ints: 2
      type: INTS
    }
  }
  node {
    input: "resnetv17_stage4_conv0_fwd"
    input: "resnetv17_stage4_batchnorm0_gamma"
    input: "resnetv17_stage4_batchnorm0_beta"
    input: "resnetv17_stage4_batchnorm0_running_mean"
    input: "resnetv17_stage4_batchnorm0_running_var"
    output: "resnetv17_stage4_batchnorm0_fwd"
    name: "resnetv17_stage4_batchnorm0_fwd"
    op_type: "BatchNormalization"
    attribute {
      name: "epsilon"
      f: 1e-05
      type: FLOAT
    }
    attribute {
      name: "momentum"
      f: 0.9
      type: FLOAT
    }
  }
  node {
    input: "resnetv17_stage4_batchnorm0_fwd"
    output: "resnetv17_stage4_relu0_fwd"
    name: "resnetv17_stage4_relu0_fwd"
    op_type: "Relu"
  }
  node {
    input: "resnetv17_stage4_relu0_fwd"
    input: "resnetv17_stage4_conv1_weight"
    output: "resnetv17_stage4_conv1_fwd"
    name: "resnetv17_stage4_conv1_fwd"
    op_type: "Conv"
    attribute {
      name: "dilations"
      ints: 1
      ints: 1
      type: INTS
    }
    attribute {
      name: "group"
      i: 1
      type: INT
    }
    attribute {
      name: "kernel_shape"
      ints: 3
      ints: 3
      type: INTS
    }
    attribute {
      name: "pads"
      ints: 1
      ints: 1
      ints: 1
      ints: 1
      type: INTS
    }
    attribute {
      name: "strides"
      ints: 1
      ints: 1
      type: INTS
    }
  }
  node {
    input: "resnetv17_stage4_conv1_fwd"
    input: "resnetv17_stage4_batchnorm1_gamma"
    input: "resnetv17_stage4_batchnorm1_beta"
    input: "resnetv17_stage4_batchnorm1_running_mean"
    input: "resnetv17_stage4_batchnorm1_running_var"
    output: "resnetv17_stage4_batchnorm1_fwd"
    name: "resnetv17_stage4_batchnorm1_fwd"
    op_type: "BatchNormalization"
    attribute {
      name: "epsilon"
      f: 1e-05
      type: FLOAT
    }
    attribute {
      name: "momentum"
      f: 0.9
      type: FLOAT
    }
  }
  node {
    input: "resnetv17_stage4_batchnorm1_fwd"
    output: "resnetv17_stage4_relu1_fwd"
    name: "resnetv17_stage4_relu1_fwd"
    op_type: "Relu"
  }
  node {
    input: "resnetv17_stage4_relu1_fwd"
    input: "resnetv17_stage4_conv2_weight"
    input: "resnetv17_stage4_conv2_bias"
    output: "resnetv17_stage4_conv2_fwd"
    name: "resnetv17_stage4_conv2_fwd"
    op_type: "Conv"
    attribute {
      name: "dilations"
      ints: 1
      ints: 1
      type: INTS
    }
    attribute {
      name: "group"
      i: 1
      type: INT
    }
    attribute {
      name: "kernel_shape"
      ints: 1
      ints: 1
      type: INTS
    }
    attribute {
      name: "pads"
      ints: 0
      ints: 0
      ints: 0
      ints: 0
      type: INTS
    }
    attribute {
      name: "strides"
      ints: 1
      ints: 1
      type: INTS
    }
  }
  node {
    input: "resnetv17_stage4_conv2_fwd"
    input: "resnetv17_stage4_batchnorm2_gamma"
    input: "resnetv17_stage4_batchnorm2_beta"
    input: "resnetv17_stage4_batchnorm2_running_mean"
    input: "resnetv17_stage4_batchnorm2_running_var"
    output: "resnetv17_stage4_batchnorm2_fwd"
    name: "resnetv17_stage4_batchnorm2_fwd"
    op_type: "BatchNormalization"
    attribute {
      name: "epsilon"
      f: 1e-05
      type: FLOAT
    }
    attribute {
      name: "momentum"
      f: 0.9
      type: FLOAT
    }
  }
  node {
    input: "resnetv17_stage3_activation5"
    input: "resnetv17_stage4_conv3_weight"
    output: "resnetv17_stage4_conv3_fwd"
    name: "resnetv17_stage4_conv3_fwd"
    op_type: "Conv"
    attribute {
      name: "dilations"
      ints: 1
      ints: 1
      type: INTS
    }
    attribute {
      name: "group"
      i: 1
      type: INT
    }
    attribute {
      name: "kernel_shape"
      ints: 1
      ints: 1
      type: INTS
    }
    attribute {
      name: "pads"
      ints: 0
      ints: 0
      ints: 0
      ints: 0
      type: INTS
    }
    attribute {
      name: "strides"
      ints: 2
      ints: 2
      type: INTS
    }
  }
  node {
    input: "resnetv17_stage4_conv3_fwd"
    input: "resnetv17_stage4_batchnorm3_gamma"
    input: "resnetv17_stage4_batchnorm3_beta"
    input: "resnetv17_stage4_batchnorm3_running_mean"
    input: "resnetv17_stage4_batchnorm3_running_var"
    output: "resnetv17_stage4_batchnorm3_fwd"
    name: "resnetv17_stage4_batchnorm3_fwd"
    op_type: "BatchNormalization"
    attribute {
      name: "epsilon"
      f: 1e-05
      type: FLOAT
    }
    attribute {
      name: "momentum"
      f: 0.9
      type: FLOAT
    }
  }
  node {
    input: "resnetv17_stage4_batchnorm2_fwd"
    input: "resnetv17_stage4_batchnorm3_fwd"
    output: "resnetv17_stage4__plus0"
    name: "resnetv17_stage4__plus0"
    op_type: "Add"
  }
  node {
    input: "resnetv17_stage4__plus0"
    output: "resnetv17_stage4_activation0"
    name: "resnetv17_stage4_activation0"
    op_type: "Relu"
  }
  node {
    input: "resnetv17_stage4_activation0"
    input: "resnetv17_stage4_conv4_weight"
    input: "resnetv17_stage4_conv4_bias"
    output: "resnetv17_stage4_conv4_fwd"
    name: "resnetv17_stage4_conv4_fwd"
    op_type: "Conv"
    attribute {
      name: "dilations"
      ints: 1
      ints: 1
      type: INTS
    }
    attribute {
      name: "group"
      i: 1
      type: INT
    }
    attribute {
      name: "kernel_shape"
      ints: 1
      ints: 1
      type: INTS
    }
    attribute {
      name: "pads"
      ints: 0
      ints: 0
      ints: 0
      ints: 0
      type: INTS
    }
    attribute {
      name: "strides"
      ints: 1
      ints: 1
      type: INTS
    }
  }
  node {
    input: "resnetv17_stage4_conv4_fwd"
    input: "resnetv17_stage4_batchnorm4_gamma"
    input: "resnetv17_stage4_batchnorm4_beta"
    input: "resnetv17_stage4_batchnorm4_running_mean"
    input: "resnetv17_stage4_batchnorm4_running_var"
    output: "resnetv17_stage4_batchnorm4_fwd"
    name: "resnetv17_stage4_batchnorm4_fwd"
    op_type: "BatchNormalization"
    attribute {
      name: "epsilon"
      f: 1e-05
      type: FLOAT
    }
    attribute {
      name: "momentum"
      f: 0.9
      type: FLOAT
    }
  }
  node {
    input: "resnetv17_stage4_batchnorm4_fwd"
    output: "resnetv17_stage4_relu2_fwd"
    name: "resnetv17_stage4_relu2_fwd"
    op_type: "Relu"
  }
  node {
    input: "resnetv17_stage4_relu2_fwd"
    input: "resnetv17_stage4_conv5_weight"
    output: "resnetv17_stage4_conv5_fwd"
    name: "resnetv17_stage4_conv5_fwd"
    op_type: "Conv"
    attribute {
      name: "dilations"
      ints: 1
      ints: 1
      type: INTS
    }
    attribute {
      name: "group"
      i: 1
      type: INT
    }
    attribute {
      name: "kernel_shape"
      ints: 3
      ints: 3
      type: INTS
    }
    attribute {
      name: "pads"
      ints: 1
      ints: 1
      ints: 1
      ints: 1
      type: INTS
    }
    attribute {
      name: "strides"
      ints: 1
      ints: 1
      type: INTS
    }
  }
  node {
    input: "resnetv17_stage4_conv5_fwd"
    input: "resnetv17_stage4_batchnorm5_gamma"
    input: "resnetv17_stage4_batchnorm5_beta"
    input: "resnetv17_stage4_batchnorm5_running_mean"
    input: "resnetv17_stage4_batchnorm5_running_var"
    output: "resnetv17_stage4_batchnorm5_fwd"
    name: "resnetv17_stage4_batchnorm5_fwd"
    op_type: "BatchNormalization"
    attribute {
      name: "epsilon"
      f: 1e-05
      type: FLOAT
    }
    attribute {
      name: "momentum"
      f: 0.9
      type: FLOAT
    }
  }
  node {
    input: "resnetv17_stage4_batchnorm5_fwd"
    output: "resnetv17_stage4_relu3_fwd"
    name: "resnetv17_stage4_relu3_fwd"
    op_type: "Relu"
  }
  node {
    input: "resnetv17_stage4_relu3_fwd"
    input: "resnetv17_stage4_conv6_weight"
    input: "resnetv17_stage4_conv6_bias"
    output: "resnetv17_stage4_conv6_fwd"
    name: "resnetv17_stage4_conv6_fwd"
    op_type: "Conv"
    attribute {
      name: "dilations"
      ints: 1
      ints: 1
      type: INTS
    }
    attribute {
      name: "group"
      i: 1
      type: INT
    }
    attribute {
      name: "kernel_shape"
      ints: 1
      ints: 1
      type: INTS
    }
    attribute {
      name: "pads"
      ints: 0
      ints: 0
      ints: 0
      ints: 0
      type: INTS
    }
    attribute {
      name: "strides"
      ints: 1
      ints: 1
      type: INTS
    }
  }
  node {
    input: "resnetv17_stage4_conv6_fwd"
    input: "resnetv17_stage4_batchnorm6_gamma"
    input: "resnetv17_stage4_batchnorm6_beta"
    input: "resnetv17_stage4_batchnorm6_running_mean"
    input: "resnetv17_stage4_batchnorm6_running_var"
    output: "resnetv17_stage4_batchnorm6_fwd"
    name: "resnetv17_stage4_batchnorm6_fwd"
    op_type: "BatchNormalization"
    attribute {
      name: "epsilon"
      f: 1e-05
      type: FLOAT
    }
    attribute {
      name: "momentum"
      f: 0.9
      type: FLOAT
    }
  }
  node {
    input: "resnetv17_stage4_batchnorm6_fwd"
    input: "resnetv17_stage4_activation0"
    output: "resnetv17_stage4__plus1"
    name: "resnetv17_stage4__plus1"
    op_type: "Add"
  }
  node {
    input: "resnetv17_stage4__plus1"
    output: "resnetv17_stage4_activation1"
    name: "resnetv17_stage4_activation1"
    op_type: "Relu"
  }
  node {
    input: "resnetv17_stage4_activation1"
    input: "resnetv17_stage4_conv7_weight"
    input: "resnetv17_stage4_conv7_bias"
    output: "resnetv17_stage4_conv7_fwd"
    name: "resnetv17_stage4_conv7_fwd"
    op_type: "Conv"
    attribute {
      name: "dilations"
      ints: 1
      ints: 1
      type: INTS
    }
    attribute {
      name: "group"
      i: 1
      type: INT
    }
    attribute {
      name: "kernel_shape"
      ints: 1
      ints: 1
      type: INTS
    }
    attribute {
      name: "pads"
      ints: 0
      ints: 0
      ints: 0
      ints: 0
      type: INTS
    }
    attribute {
      name: "strides"
      ints: 1
      ints: 1
      type: INTS
    }
  }
  node {
    input: "resnetv17_stage4_conv7_fwd"
    input: "resnetv17_stage4_batchnorm7_gamma"
    input: "resnetv17_stage4_batchnorm7_beta"
    input: "resnetv17_stage4_batchnorm7_running_mean"
    input: "resnetv17_stage4_batchnorm7_running_var"
    output: "resnetv17_stage4_batchnorm7_fwd"
    name: "resnetv17_stage4_batchnorm7_fwd"
    op_type: "BatchNormalization"
    attribute {
      name: "epsilon"
      f: 1e-05
      type: FLOAT
    }
    attribute {
      name: "momentum"
      f: 0.9
      type: FLOAT
    }
  }
  node {
    input: "resnetv17_stage4_batchnorm7_fwd"
    output: "resnetv17_stage4_relu4_fwd"
    name: "resnetv17_stage4_relu4_fwd"
    op_type: "Relu"
  }
  node {
    input: "resnetv17_stage4_relu4_fwd"
    input: "resnetv17_stage4_conv8_weight"
    output: "resnetv17_stage4_conv8_fwd"
    name: "resnetv17_stage4_conv8_fwd"
    op_type: "Conv"
    attribute {
      name: "dilations"
      ints: 1
      ints: 1
      type: INTS
    }
    attribute {
      name: "group"
      i: 1
      type: INT
    }
    attribute {
      name: "kernel_shape"
      ints: 3
      ints: 3
      type: INTS
    }
    attribute {
      name: "pads"
      ints: 1
      ints: 1
      ints: 1
      ints: 1
      type: INTS
    }
    attribute {
      name: "strides"
      ints: 1
      ints: 1
      type: INTS
    }
  }
  node {
    input: "resnetv17_stage4_conv8_fwd"
    input: "resnetv17_stage4_batchnorm8_gamma"
    input: "resnetv17_stage4_batchnorm8_beta"
    input: "resnetv17_stage4_batchnorm8_running_mean"
    input: "resnetv17_stage4_batchnorm8_running_var"
    output: "resnetv17_stage4_batchnorm8_fwd"
    name: "resnetv17_stage4_batchnorm8_fwd"
    op_type: "BatchNormalization"
    attribute {
      name: "epsilon"
      f: 1e-05
      type: FLOAT
    }
    attribute {
      name: "momentum"
      f: 0.9
      type: FLOAT
    }
  }
  node {
    input: "resnetv17_stage4_batchnorm8_fwd"
    output: "resnetv17_stage4_relu5_fwd"
    name: "resnetv17_stage4_relu5_fwd"
    op_type: "Relu"
  }
  node {
    input: "resnetv17_stage4_relu5_fwd"
    input: "resnetv17_stage4_conv9_weight"
    input: "resnetv17_stage4_conv9_bias"
    output: "resnetv17_stage4_conv9_fwd"
    name: "resnetv17_stage4_conv9_fwd"
    op_type: "Conv"
    attribute {
      name: "dilations"
      ints: 1
      ints: 1
      type: INTS
    }
    attribute {
      name: "group"
      i: 1
      type: INT
    }
    attribute {
      name: "kernel_shape"
      ints: 1
      ints: 1
      type: INTS
    }
    attribute {
      name: "pads"
      ints: 0
      ints: 0
      ints: 0
      ints: 0
      type: INTS
    }
    attribute {
      name: "strides"
      ints: 1
      ints: 1
      type: INTS
    }
  }
  node {
    input: "resnetv17_stage4_conv9_fwd"
    input: "resnetv17_stage4_batchnorm9_gamma"
    input: "resnetv17_stage4_batchnorm9_beta"
    input: "resnetv17_stage4_batchnorm9_running_mean"
    input: "resnetv17_stage4_batchnorm9_running_var"
    output: "resnetv17_stage4_batchnorm9_fwd"
    name: "resnetv17_stage4_batchnorm9_fwd"
    op_type: "BatchNormalization"
    attribute {
      name: "epsilon"
      f: 1e-05
      type: FLOAT
    }
    attribute {
      name: "momentum"
      f: 0.9
      type: FLOAT
    }
  }
  node {
    input: "resnetv17_stage4_batchnorm9_fwd"
    input: "resnetv17_stage4_activation1"
    output: "resnetv17_stage4__plus2"
    name: "resnetv17_stage4__plus2"
    op_type: "Add"
  }
  node {
    input: "resnetv17_stage4__plus2"
    output: "resnetv17_stage4_activation2"
    name: "resnetv17_stage4_activation2"
    op_type: "Relu"
  }
  node {
    input: "resnetv17_stage4_activation2"
    output: "resnetv17_pool1_fwd"
    name: "resnetv17_pool1_fwd"
    op_type: "GlobalAveragePool"
  }
  node {
    input: "resnetv17_pool1_fwd"
    output: "flatten_473"
    name: "flatten_473"
    op_type: "Flatten"
  }
  node {
    input: "flatten_473"
    input: "resnetv17_dense0_weight"
    input: "resnetv17_dense0_bias"
    output: "resnetv17_dense0_fwd"
    name: "resnetv17_dense0_fwd"
    op_type: "Gemm"
    attribute {
      name: "alpha"
      f: 1.0
      type: FLOAT
    }
    attribute {
      name: "beta"
      f: 1.0
      type: FLOAT
    }
    attribute {
      name: "transA"
      i: 0
      type: INT
    }
    attribute {
      name: "transB"
      i: 1
      type: INT
    }
  }
  name: "mxnet_converted_model"
  initializer {
    dims: 64
    data_type: 1
…
    name: "resnetv17_batchnorm0_gamma"
  }
  initializer {
    dims: 64
    data_type: 1
…
    name: "resnetv17_batchnorm0_beta"
  }
  initializer {
    dims: 64
    data_type: 1
…
    name: "resnetv17_batchnorm0_running_mean"
  }
  initializer {
    dims: 64
    data_type: 1
…
    name: "resnetv17_batchnorm0_running_var"
  }
  initializer {
    dims: 64
    data_type: 1
…
    name: "resnetv17_stage1_conv0_bias"
  }
  initializer {
    dims: 64
    data_type: 1
…
    name: "resnetv17_stage1_batchnorm0_gamma"
  }
  initializer {
    dims: 64
    data_type: 1
…
    name: "resnetv17_stage1_batchnorm0_beta"
  }
  initializer {
    dims: 64
    data_type: 1
…
    name: "resnetv17_stage1_batchnorm0_running_mean"
  }
  initializer {
    dims: 64
    data_type: 1
…
    name: "resnetv17_stage1_batchnorm0_running_var"
  }
  initializer {
    dims: 64
    data_type: 1
…
    name: "resnetv17_stage1_batchnorm1_gamma"
  }
  initializer {
    dims: 64
    data_type: 1
…
    name: "resnetv17_stage1_batchnorm1_beta"
  }
  initializer {
    dims: 64
    data_type: 1
…
    name: "resnetv17_stage1_batchnorm1_running_mean"
  }
  initializer {
    dims: 64
    data_type: 1
…
    name: "resnetv17_stage1_batchnorm1_running_var"
  }
  initializer {
    dims: 64
    data_type: 1
…
    name: "resnetv17_stage1_conv4_bias"
  }
  initializer {
    dims: 64
    data_type: 1
…
    name: "resnetv17_stage1_batchnorm4_gamma"
  }
  initializer {
    dims: 64
    data_type: 1
…
    name: "resnetv17_stage1_batchnorm4_beta"
  }
  initializer {
    dims: 64
    data_type: 1
…
    name: "resnetv17_stage1_batchnorm4_running_mean"
  }
  initializer {
    dims: 64
    data_type: 1
…
    name: "resnetv17_stage1_batchnorm4_running_var"
  }
  initializer {
    dims: 64
    data_type: 1
…
    name: "resnetv17_stage1_batchnorm5_gamma"
  }
  initializer {
    dims: 64
    data_type: 1
…
    name: "resnetv17_stage1_batchnorm5_beta"
  }
  initializer {
    dims: 64
    data_type: 1
…
    name: "resnetv17_stage1_batchnorm5_running_mean"
  }
  initializer {
    dims: 64
    data_type: 1
…
    name: "resnetv17_stage1_batchnorm5_running_var"
  }
  initializer {
    dims: 64
    data_type: 1
…
    name: "resnetv17_stage1_conv7_bias"
  }
  initializer {
    dims: 64
    data_type: 1
…
    name: "resnetv17_stage1_batchnorm7_gamma"
  }
  initializer {
    dims: 64
    data_type: 1
…
    name: "resnetv17_stage1_batchnorm7_beta"
  }
  initializer {
    dims: 64
    data_type: 1
…
    name: "resnetv17_stage1_batchnorm7_running_mean"
  }
  initializer {
    dims: 64
    data_type: 1
…
    name: "resnetv17_stage1_batchnorm7_running_var"
  }
  initializer {
    dims: 64
    data_type: 1
…
    name: "resnetv17_stage1_batchnorm8_gamma"
  }
  initializer {
    dims: 64
    data_type: 1
…
    name: "resnetv17_stage1_batchnorm8_beta"
  }
  initializer {
    dims: 64
    data_type: 1
…
    name: "resnetv17_stage1_batchnorm8_running_mean"
  }
  initializer {
    dims: 64
    data_type: 1
…
    name: "resnetv17_stage1_batchnorm8_running_var"
  }
  input {
    name: "data"
    type {
      tensor_type {
        elem_type: 1
        shape {
          dim {
            dim_param: "N"
          }
          dim {
            dim_value: 3
          }
          dim {
            dim_value: 224
          }
          dim {
            dim_value: 224
          }
        }
      }
    }
  }
  input {
    name: "resnetv17_conv0_weight"
    type {
      tensor_type {
        elem_type: 1
        shape {
          dim {
            dim_value: 64
          }
          dim {
            dim_value: 3
          }
          dim {
            dim_value: 7
          }
          dim {
            dim_value: 7
          }
        }
      }
    }
  }
  input {
    name: "resnetv17_stage1_conv0_weight"
    type {
      tensor_type {
        elem_type: 1
        shape {
          dim {
            dim_value: 64
          }
          dim {
            dim_value: 64
          }
          dim {
            dim_value: 1
          }
          dim {
            dim_value: 1
          }
        }
      }
    }
  }
  input {
    name: "resnetv17_stage1_conv1_weight"
    type {
      tensor_type {
        elem_type: 1
        shape {
          dim {
            dim_value: 64
          }
          dim {
            dim_value: 64
          }
          dim {
            dim_value: 3
          }
          dim {
            dim_value: 3
          }
        }
      }
    }
  }
  input {
    name: "resnetv17_stage1_conv2_weight"
    type {
      tensor_type {
        elem_type: 1
        shape {
          dim {
            dim_value: 256
          }
          dim {
            dim_value: 64
          }
          dim {
            dim_value: 1
          }
          dim {
            dim_value: 1
          }
        }
      }
    }
  }
  input {
    name: "resnetv17_stage1_conv2_bias"
    type {
      tensor_type {
        elem_type: 1
        shape {
          dim {
            dim_value: 256
          }
        }
      }
    }
  }
  input {
    name: "resnetv17_stage1_batchnorm2_gamma"
    type {
      tensor_type {
        elem_type: 1
        shape {
          dim {
            dim_value: 256
          }
        }
      }
    }
  }
  input {
    name: "resnetv17_stage1_batchnorm2_beta"
    type {
      tensor_type {
        elem_type: 1
        shape {
          dim {
            dim_value: 256
          }
        }
      }
    }
  }
  input {
    name: "resnetv17_stage1_batchnorm2_running_mean"
    type {
      tensor_type {
        elem_type: 1
        shape {
          dim {
            dim_value: 256
          }
        }
      }
    }
  }
  input {
    name: "resnetv17_stage1_batchnorm2_running_var"
    type {
      tensor_type {
        elem_type: 1
        shape {
          dim {
            dim_value: 256
          }
        }
      }
    }
  }
  input {
    name: "resnetv17_stage1_conv3_weight"
    type {
      tensor_type {
        elem_type: 1
        shape {
          dim {
            dim_value: 256
          }
          dim {
            dim_value: 64
          }
          dim {
            dim_value: 1
          }
          dim {
            dim_value: 1
          }
        }
      }
    }
  }
  input {
    name: "resnetv17_stage1_batchnorm3_gamma"
    type {
      tensor_type {
        elem_type: 1
        shape {
          dim {
            dim_value: 256
          }
        }
      }
    }
  }
  input {
    name: "resnetv17_stage1_batchnorm3_beta"
    type {
      tensor_type {
        elem_type: 1
        shape {
          dim {
            dim_value: 256
          }
        }
      }
    }
  }
  input {
    name: "resnetv17_stage1_batchnorm3_running_mean"
    type {
      tensor_type {
        elem_type: 1
        shape {
          dim {
            dim_value: 256
          }
        }
      }
    }
  }
  input {
    name: "resnetv17_stage1_batchnorm3_running_var"
    type {
      tensor_type {
        elem_type: 1
        shape {
          dim {
            dim_value: 256
          }
        }
      }
    }
  }
  input {
    name: "resnetv17_stage1_conv4_weight"
    type {
      tensor_type {
        elem_type: 1
        shape {
          dim {
            dim_value: 64
          }
          dim {
            dim_value: 256
          }
          dim {
            dim_value: 1
          }
          dim {
            dim_value: 1
          }
        }
      }
    }
  }
  input {
    name: "resnetv17_stage1_conv5_weight"
    type {
      tensor_type {
        elem_type: 1
        shape {
          dim {
            dim_value: 64
          }
          dim {
            dim_value: 64
          }
          dim {
            dim_value: 3
          }
          dim {
            dim_value: 3
          }
        }
      }
    }
  }
  input {
    name: "resnetv17_stage1_conv6_weight"
    type {
      tensor_type {
        elem_type: 1
        shape {
          dim {
            dim_value: 256
          }
          dim {
            dim_value: 64
          }
          dim {
            dim_value: 1
          }
          dim {
            dim_value: 1
          }
        }
      }
    }
  }
  input {
    name: "resnetv17_stage1_conv6_bias"
    type {
      tensor_type {
        elem_type: 1
        shape {
          dim {
            dim_value: 256
          }
        }
      }
    }
  }
  input {
    name: "resnetv17_stage1_batchnorm6_gamma"
    type {
      tensor_type {
        elem_type: 1
        shape {
          dim {
            dim_value: 256
          }
        }
      }
    }
  }
  input {
    name: "resnetv17_stage1_batchnorm6_beta"
    type {
      tensor_type {
        elem_type: 1
        shape {
          dim {
            dim_value: 256
          }
        }
      }
    }
  }
  input {
    name: "resnetv17_stage1_batchnorm6_running_mean"
    type {
      tensor_type {
        elem_type: 1
        shape {
          dim {
            dim_value: 256
          }
        }
      }
    }
  }
  input {
    name: "resnetv17_stage1_batchnorm6_running_var"
    type {
      tensor_type {
        elem_type: 1
        shape {
          dim {
            dim_value: 256
          }
        }
      }
    }
  }
  input {
    name: "resnetv17_stage1_conv7_weight"
    type {
      tensor_type {
        elem_type: 1
        shape {
          dim {
            dim_value: 64
          }
          dim {
            dim_value: 256
          }
          dim {
            dim_value: 1
          }
          dim {
            dim_value: 1
          }
        }
      }
    }
  }
  input {
    name: "resnetv17_stage1_conv8_weight"
    type {
      tensor_type {
        elem_type: 1
        shape {
          dim {
            dim_value: 64
          }
          dim {
            dim_value: 64
          }
          dim {
            dim_value: 3
          }
          dim {
            dim_value: 3
          }
        }
      }
    }
  }
  input {
    name: "resnetv17_stage1_conv9_weight"
    type {
      tensor_type {
        elem_type: 1
        shape {
          dim {
            dim_value: 256
          }
          dim {
            dim_value: 64
          }
          dim {
            dim_value: 1
          }
          dim {
            dim_value: 1
          }
        }
      }
    }
  }
  input {
    name: "resnetv17_stage1_conv9_bias"
    type {
      tensor_type {
        elem_type: 1
        shape {
          dim {
            dim_value: 256
          }
        }
      }
    }
  }
  input {
    name: "resnetv17_stage1_batchnorm9_gamma"
    type {
      tensor_type {
        elem_type: 1
        shape {
          dim {
            dim_value: 256
          }
        }
      }
    }
  }
  input {
    name: "resnetv17_stage1_batchnorm9_beta"
    type {
      tensor_type {
        elem_type: 1
        shape {
          dim {
            dim_value: 256
          }
        }
      }
    }
  }
  input {
    name: "resnetv17_stage1_batchnorm9_running_mean"
    type {
      tensor_type {
        elem_type: 1
        shape {
          dim {
            dim_value: 256
          }
        }
      }
    }
  }
  input {
    name: "resnetv17_stage1_batchnorm9_running_var"
    type {
      tensor_type {
        elem_type: 1
        shape {
          dim {
            dim_value: 256
          }
        }
      }
    }
  }
  input {
    name: "resnetv17_stage2_conv0_weight"
    type {
      tensor_type {
        elem_type: 1
        shape {
          dim {
            dim_value: 128
          }
          dim {
            dim_value: 256
          }
          dim {
            dim_value: 1
          }
          dim {
            dim_value: 1
          }
        }
      }
    }
  }
  input {
    name: "resnetv17_stage2_conv0_bias"
    type {
      tensor_type {
        elem_type: 1
        shape {
          dim {
            dim_value: 128
          }
        }
      }
    }
  }
  input {
    name: "resnetv17_stage2_batchnorm0_gamma"
    type {
      tensor_type {
        elem_type: 1
        shape {
          dim {
            dim_value: 128
          }
        }
      }
    }
  }
  input {
    name: "resnetv17_stage2_batchnorm0_beta"
    type {
      tensor_type {
        elem_type: 1
        shape {
          dim {
            dim_value: 128
          }
        }
      }
    }
  }
  input {
    name: "resnetv17_stage2_batchnorm0_running_mean"
    type {
      tensor_type {
        elem_type: 1
        shape {
          dim {
            dim_value: 128
          }
        }
      }
    }
  }
  input {
    name: "resnetv17_stage2_batchnorm0_running_var"
    type {
      tensor_type {
        elem_type: 1
        shape {
          dim {
            dim_value: 128
          }
        }
      }
    }
  }
  input {
    name: "resnetv17_stage2_conv1_weight"
    type {
      tensor_type {
        elem_type: 1
        shape {
          dim {
            dim_value: 128
          }
          dim {
            dim_value: 128
          }
          dim {
            dim_value: 3
          }
          dim {
            dim_value: 3
          }
        }
      }
    }
  }
  input {
    name: "resnetv17_stage2_batchnorm1_gamma"
    type {
      tensor_type {
        elem_type: 1
        shape {
          dim {
            dim_value: 128
          }
        }
      }
    }
  }
  input {
    name: "resnetv17_stage2_batchnorm1_beta"
    type {
      tensor_type {
        elem_type: 1
        shape {
          dim {
            dim_value: 128
          }
        }
      }
    }
  }
  input {
    name: "resnetv17_stage2_batchnorm1_running_mean"
    type {
      tensor_type {
        elem_type: 1
        shape {
          dim {
            dim_value: 128
          }
        }
      }
    }
  }
  input {
    name: "resnetv17_stage2_batchnorm1_running_var"
    type {
      tensor_type {
        elem_type: 1
        shape {
          dim {
            dim_value: 128
          }
        }
      }
    }
  }
  input {
    name: "resnetv17_stage2_conv2_weight"
    type {
      tensor_type {
        elem_type: 1
        shape {
          dim {
            dim_value: 512
          }
          dim {
            dim_value: 128
          }
          dim {
            dim_value: 1
          }
          dim {
            dim_value: 1
          }
        }
      }
    }
  }
  input {
    name: "resnetv17_stage2_conv2_bias"
    type {
      tensor_type {
        elem_type: 1
        shape {
          dim {
            dim_value: 512
          }
        }
      }
    }
  }
  input {
    name: "resnetv17_stage2_batchnorm2_gamma"
    type {
      tensor_type {
        elem_type: 1
        shape {
          dim {
            dim_value: 512
          }
        }
      }
    }
  }
  input {
    name: "resnetv17_stage2_batchnorm2_beta"
    type {
      tensor_type {
        elem_type: 1
        shape {
          dim {
            dim_value: 512
          }
        }
      }
    }
  }
  input {
    name: "resnetv17_stage2_batchnorm2_running_mean"
    type {
      tensor_type {
        elem_type: 1
        shape {
          dim {
            dim_value: 512
          }
        }
      }
    }
  }
  input {
    name: "resnetv17_stage2_batchnorm2_running_var"
    type {
      tensor_type {
        elem_type: 1
        shape {
          dim {
            dim_value: 512
          }
        }
      }
    }
  }
  input {
    name: "resnetv17_stage2_conv3_weight"
    type {
      tensor_type {
        elem_type: 1
        shape {
          dim {
            dim_value: 512
          }
          dim {
            dim_value: 256
          }
          dim {
            dim_value: 1
          }
          dim {
            dim_value: 1
          }
        }
      }
    }
  }
  input {
    name: "resnetv17_stage2_batchnorm3_gamma"
    type {
      tensor_type {
        elem_type: 1
        shape {
          dim {
            dim_value: 512
          }
        }
      }
    }
  }
  input {
    name: "resnetv17_stage2_batchnorm3_beta"
    type {
      tensor_type {
        elem_type: 1
        shape {
          dim {
            dim_value: 512
          }
        }
      }
    }
  }
  input {
    name: "resnetv17_stage2_batchnorm3_running_mean"
    type {
      tensor_type {
        elem_type: 1
        shape {
          dim {
            dim_value: 512
          }
        }
      }
    }
  }
  input {
    name: "resnetv17_stage2_batchnorm3_running_var"
    type {
      tensor_type {
        elem_type: 1
        shape {
          dim {
            dim_value: 512
          }
        }
      }
    }
  }
  input {
    name: "resnetv17_stage2_conv4_weight"
    type {
      tensor_type {
        elem_type: 1
        shape {
          dim {
            dim_value: 128
          }
          dim {
            dim_value: 512
          }
          dim {
            dim_value: 1
          }
          dim {
            dim_value: 1
          }
        }
      }
    }
  }
  input {
    name: "resnetv17_stage2_conv4_bias"
    type {
      tensor_type {
        elem_type: 1
        shape {
          dim {
            dim_value: 128
          }
        }
      }
    }
  }
  input {
    name: "resnetv17_stage2_batchnorm4_gamma"
    type {
      tensor_type {
        elem_type: 1
        shape {
          dim {
            dim_value: 128
          }
        }
      }
    }
  }
  input {
    name: "resnetv17_stage2_batchnorm4_beta"
    type {
      tensor_type {
        elem_type: 1
        shape {
          dim {
            dim_value: 128
          }
        }
      }
    }
  }
  input {
    name: "resnetv17_stage2_batchnorm4_running_mean"
    type {
      tensor_type {
        elem_type: 1
        shape {
          dim {
            dim_value: 128
          }
        }
      }
    }
  }
  input {
    name: "resnetv17_stage2_batchnorm4_running_var"
    type {
      tensor_type {
        elem_type: 1
        shape {
          dim {
            dim_value: 128
          }
        }
      }
    }
  }
  input {
    name: "resnetv17_stage2_conv5_weight"
    type {
      tensor_type {
        elem_type: 1
        shape {
          dim {
            dim_value: 128
          }
          dim {
            dim_value: 128
          }
          dim {
            dim_value: 3
          }
          dim {
            dim_value: 3
          }
        }
      }
    }
  }
  input {
    name: "resnetv17_stage2_batchnorm5_gamma"
    type {
      tensor_type {
        elem_type: 1
        shape {
          dim {
            dim_value: 128
          }
        }
      }
    }
  }
  input {
    name: "resnetv17_stage2_batchnorm5_beta"
    type {
      tensor_type {
        elem_type: 1
        shape {
          dim {
            dim_value: 128
          }
        }
      }
    }
  }
  input {
    name: "resnetv17_stage2_batchnorm5_running_mean"
    type {
      tensor_type {
        elem_type: 1
        shape {
          dim {
            dim_value: 128
          }
        }
      }
    }
  }
  input {
    name: "resnetv17_stage2_batchnorm5_running_var"
    type {
      tensor_type {
        elem_type: 1
        shape {
          dim {
            dim_value: 128
          }
        }
      }
    }
  }
  input {
    name: "resnetv17_stage2_conv6_weight"
    type {
      tensor_type {
        elem_type: 1
        shape {
          dim {
            dim_value: 512
          }
          dim {
            dim_value: 128
          }
          dim {
            dim_value: 1
          }
          dim {
            dim_value: 1
          }
        }
      }
    }
  }
  input {
    name: "resnetv17_stage2_conv6_bias"
    type {
      tensor_type {
        elem_type: 1
        shape {
          dim {
            dim_value: 512
          }
        }
      }
    }
  }
  input {
    name: "resnetv17_stage2_batchnorm6_gamma"
    type {
      tensor_type {
        elem_type: 1
        shape {
          dim {
            dim_value: 512
          }
        }
      }
    }
  }
  input {
    name: "resnetv17_stage2_batchnorm6_beta"
    type {
      tensor_type {
        elem_type: 1
        shape {
          dim {
            dim_value: 512
          }
        }
      }
    }
  }
  input {
    name: "resnetv17_stage2_batchnorm6_running_mean"
    type {
      tensor_type {
        elem_type: 1
        shape {
          dim {
            dim_value: 512
          }
        }
      }
    }
  }
  input {
    name: "resnetv17_stage2_batchnorm6_running_var"
    type {
      tensor_type {
        elem_type: 1
        shape {
          dim {
            dim_value: 512
          }
        }
      }
    }
  }
  input {
    name: "resnetv17_stage2_conv7_weight"
    type {
      tensor_type {
        elem_type: 1
        shape {
          dim {
            dim_value: 128
          }
          dim {
            dim_value: 512
          }
          dim {
            dim_value: 1
          }
          dim {
            dim_value: 1
          }
        }
      }
    }
  }
  input {
    name: "resnetv17_stage2_conv7_bias"
    type {
      tensor_type {
        elem_type: 1
        shape {
          dim {
            dim_value: 128
          }
        }
      }
    }
  }
  input {
    name: "resnetv17_stage2_batchnorm7_gamma"
    type {
      tensor_type {
        elem_type: 1
        shape {
          dim {
            dim_value: 128
          }
        }
      }
    }
  }
  input {
    name: "resnetv17_stage2_batchnorm7_beta"
    type {
      tensor_type {
        elem_type: 1
        shape {
          dim {
            dim_value: 128
          }
        }
      }
    }
  }
  input {
    name: "resnetv17_stage2_batchnorm7_running_mean"
    type {
      tensor_type {
        elem_type: 1
        shape {
          dim {
            dim_value: 128
          }
        }
      }
    }
  }
  input {
    name: "resnetv17_stage2_batchnorm7_running_var"
    type {
      tensor_type {
        elem_type: 1
        shape {
          dim {
            dim_value: 128
          }
        }
      }
    }
  }
  input {
    name: "resnetv17_stage2_conv8_weight"
    type {
      tensor_type {
        elem_type: 1
        shape {
          dim {
            dim_value: 128
          }
          dim {
            dim_value: 128
          }
          dim {
            dim_value: 3
          }
          dim {
            dim_value: 3
          }
        }
      }
    }
  }
  input {
    name: "resnetv17_stage2_batchnorm8_gamma"
    type {
      tensor_type {
        elem_type: 1
        shape {
          dim {
            dim_value: 128
          }
        }
      }
    }
  }
  input {
    name: "resnetv17_stage2_batchnorm8_beta"
    type {
      tensor_type {
        elem_type: 1
        shape {
          dim {
            dim_value: 128
          }
        }
      }
    }
  }
  input {
    name: "resnetv17_stage2_batchnorm8_running_mean"
    type {
      tensor_type {
        elem_type: 1
        shape {
          dim {
            dim_value: 128
          }
        }
      }
    }
  }
  input {
    name: "resnetv17_stage2_batchnorm8_running_var"
    type {
      tensor_type {
        elem_type: 1
        shape {
          dim {
            dim_value: 128
          }
        }
      }
    }
  }
  input {
    name: "resnetv17_stage2_conv9_weight"
    type {
      tensor_type {
        elem_type: 1
        shape {
          dim {
            dim_value: 512
          }
          dim {
            dim_value: 128
          }
          dim {
            dim_value: 1
          }
          dim {
            dim_value: 1
          }
        }
      }
    }
  }
  input {
    name: "resnetv17_stage2_conv9_bias"
    type {
      tensor_type {
        elem_type: 1
        shape {
          dim {
            dim_value: 512
          }
        }
      }
    }
  }
  input {
    name: "resnetv17_stage2_batchnorm9_gamma"
    type {
      tensor_type {
        elem_type: 1
        shape {
          dim {
            dim_value: 512
          }
        }
      }
    }
  }
  input {
    name: "resnetv17_stage2_batchnorm9_beta"
    type {
      tensor_type {
        elem_type: 1
        shape {
          dim {
            dim_value: 512
          }
        }
      }
    }
  }
  input {
    name: "resnetv17_stage2_batchnorm9_running_mean"
    type {
      tensor_type {
        elem_type: 1
        shape {
          dim {
            dim_value: 512
          }
        }
      }
    }
  }
  input {
    name: "resnetv17_stage2_batchnorm9_running_var"
    type {
      tensor_type {
        elem_type: 1
        shape {
          dim {
            dim_value: 512
          }
        }
      }
    }
  }
  input {
    name: "resnetv17_stage2_conv10_weight"
    type {
      tensor_type {
        elem_type: 1
        shape {
          dim {
            dim_value: 128
          }
          dim {
            dim_value: 512
          }
          dim {
            dim_value: 1
          }
          dim {
            dim_value: 1
          }
        }
      }
    }
  }
  input {
    name: "resnetv17_stage2_conv10_bias"
    type {
      tensor_type {
        elem_type: 1
        shape {
          dim {
            dim_value: 128
          }
        }
      }
    }
  }
  input {
    name: "resnetv17_stage2_batchnorm10_gamma"
    type {
      tensor_type {
        elem_type: 1
        shape {
          dim {
            dim_value: 128
          }
        }
      }
    }
  }
  input {
    name: "resnetv17_stage2_batchnorm10_beta"
    type {
      tensor_type {
        elem_type: 1
        shape {
          dim {
            dim_value: 128
          }
        }
      }
    }
  }
  input {
    name: "resnetv17_stage2_batchnorm10_running_mean"
    type {
      tensor_type {
        elem_type: 1
        shape {
          dim {
            dim_value: 128
          }
        }
      }
    }
  }
  input {
    name: "resnetv17_stage2_batchnorm10_running_var"
    type {
      tensor_type {
        elem_type: 1
        shape {
          dim {
            dim_value: 128
          }
        }
      }
    }
  }
  input {
    name: "resnetv17_stage2_conv11_weight"
    type {
      tensor_type {
        elem_type: 1
        shape {
          dim {
            dim_value: 128
          }
          dim {
            dim_value: 128
          }
          dim {
            dim_value: 3
          }
          dim {
            dim_value: 3
          }
        }
      }
    }
  }
  input {
    name: "resnetv17_stage2_batchnorm11_gamma"
    type {
      tensor_type {
        elem_type: 1
        shape {
          dim {
            dim_value: 128
          }
        }
      }
    }
  }
  input {
    name: "resnetv17_stage2_batchnorm11_beta"
    type {
      tensor_type {
        elem_type: 1
        shape {
          dim {
            dim_value: 128
          }
        }
      }
    }
  }
  input {
    name: "resnetv17_stage2_batchnorm11_running_mean"
    type {
      tensor_type {
        elem_type: 1
        shape {
          dim {
            dim_value: 128
          }
        }
      }
    }
  }
  input {
    name: "resnetv17_stage2_batchnorm11_running_var"
    type {
      tensor_type {
        elem_type: 1
        shape {
          dim {
            dim_value: 128
          }
        }
      }
    }
  }
  input {
    name: "resnetv17_stage2_conv12_weight"
    type {
      tensor_type {
        elem_type: 1
        shape {
          dim {
            dim_value: 512
          }
          dim {
            dim_value: 128
          }
          dim {
            dim_value: 1
          }
          dim {
            dim_value: 1
          }
        }
      }
    }
  }
  input {
    name: "resnetv17_stage2_conv12_bias"
    type {
      tensor_type {
        elem_type: 1
        shape {
          dim {
            dim_value: 512
          }
        }
      }
    }
  }
  input {
    name: "resnetv17_stage2_batchnorm12_gamma"
    type {
      tensor_type {
        elem_type: 1
        shape {
          dim {
            dim_value: 512
          }
        }
      }
    }
  }
  input {
    name: "resnetv17_stage2_batchnorm12_beta"
    type {
      tensor_type {
        elem_type: 1
        shape {
          dim {
            dim_value: 512
          }
        }
      }
    }
  }
  input {
    name: "resnetv17_stage2_batchnorm12_running_mean"
    type {
      tensor_type {
        elem_type: 1
        shape {
          dim {
            dim_value: 512
          }
        }
      }
    }
  }
  input {
    name: "resnetv17_stage2_batchnorm12_running_var"
    type {
      tensor_type {
        elem_type: 1
        shape {
          dim {
            dim_value: 512
          }
        }
      }
    }
  }
  input {
    name: "resnetv17_stage3_conv0_weight"
    type {
      tensor_type {
        elem_type: 1
        shape {
          dim {
            dim_value: 256
          }
          dim {
            dim_value: 512
          }
          dim {
            dim_value: 1
          }
          dim {
            dim_value: 1
          }
        }
      }
    }
  }
  input {
    name: "resnetv17_stage3_conv0_bias"
    type {
      tensor_type {
        elem_type: 1
        shape {
          dim {
            dim_value: 256
          }
        }
      }
    }
  }
  input {
    name: "resnetv17_stage3_batchnorm0_gamma"
    type {
      tensor_type {
        elem_type: 1
        shape {
          dim {
            dim_value: 256
          }
        }
      }
    }
  }
  input {
    name: "resnetv17_stage3_batchnorm0_beta"
    type {
      tensor_type {
        elem_type: 1
        shape {
          dim {
            dim_value: 256
          }
        }
      }
    }
  }
  input {
    name: "resnetv17_stage3_batchnorm0_running_mean"
    type {
      tensor_type {
        elem_type: 1
        shape {
          dim {
            dim_value: 256
          }
        }
      }
    }
  }
  input {
    name: "resnetv17_stage3_batchnorm0_running_var"
    type {
      tensor_type {
        elem_type: 1
        shape {
          dim {
            dim_value: 256
          }
        }
      }
    }
  }
  input {
    name: "resnetv17_stage3_conv1_weight"
    type {
      tensor_type {
        elem_type: 1
        shape {
          dim {
            dim_value: 256
          }
          dim {
            dim_value: 256
          }
          dim {
            dim_value: 3
          }
          dim {
            dim_value: 3
          }
        }
      }
    }
  }
  input {
    name: "resnetv17_stage3_batchnorm1_gamma"
    type {
      tensor_type {
        elem_type: 1
        shape {
          dim {
            dim_value: 256
          }
        }
      }
    }
  }
  input {
    name: "resnetv17_stage3_batchnorm1_beta"
    type {
      tensor_type {
        elem_type: 1
        shape {
          dim {
            dim_value: 256
          }
        }
      }
    }
  }
  input {
    name: "resnetv17_stage3_batchnorm1_running_mean"
    type {
      tensor_type {
        elem_type: 1
        shape {
          dim {
            dim_value: 256
          }
        }
      }
    }
  }
  input {
    name: "resnetv17_stage3_batchnorm1_running_var"
    type {
      tensor_type {
        elem_type: 1
        shape {
          dim {
            dim_value: 256
          }
        }
      }
    }
  }
  input {
    name: "resnetv17_stage3_conv2_weight"
    type {
      tensor_type {
        elem_type: 1
        shape {
          dim {
            dim_value: 1024
          }
          dim {
            dim_value: 256
          }
          dim {
            dim_value: 1
          }
          dim {
            dim_value: 1
          }
        }
      }
    }
  }
  input {
    name: "resnetv17_stage3_conv2_bias"
    type {
      tensor_type {
        elem_type: 1
        shape {
          dim {
            dim_value: 1024
          }
        }
      }
    }
  }
  input {
    name: "resnetv17_stage3_batchnorm2_gamma"
    type {
      tensor_type {
        elem_type: 1
        shape {
          dim {
            dim_value: 1024
          }
        }
      }
    }
  }
  input {
    name: "resnetv17_stage3_batchnorm2_beta"
    type {
      tensor_type {
        elem_type: 1
        shape {
          dim {
            dim_value: 1024
          }
        }
      }
    }
  }
  input {
    name: "resnetv17_stage3_batchnorm2_running_mean"
    type {
      tensor_type {
        elem_type: 1
        shape {
          dim {
            dim_value: 1024
          }
        }
      }
    }
  }
  input {
    name: "resnetv17_stage3_batchnorm2_running_var"
    type {
      tensor_type {
        elem_type: 1
        shape {
          dim {
            dim_value: 1024
          }
        }
      }
    }
  }
  input {
    name: "resnetv17_stage3_conv3_weight"
    type {
      tensor_type {
        elem_type: 1
        shape {
          dim {
            dim_value: 1024
          }
          dim {
            dim_value: 512
          }
          dim {
            dim_value: 1
          }
          dim {
            dim_value: 1
          }
        }
      }
    }
  }
  input {
    name: "resnetv17_stage3_batchnorm3_gamma"
    type {
      tensor_type {
        elem_type: 1
        shape {
          dim {
            dim_value: 1024
          }
        }
      }
    }
  }
  input {
    name: "resnetv17_stage3_batchnorm3_beta"
    type {
      tensor_type {
        elem_type: 1
        shape {
          dim {
            dim_value: 1024
          }
        }
      }
    }
  }
  input {
    name: "resnetv17_stage3_batchnorm3_running_mean"
    type {
      tensor_type {
        elem_type: 1
        shape {
          dim {
            dim_value: 1024
          }
        }
      }
    }
  }
  input {
    name: "resnetv17_stage3_batchnorm3_running_var"
    type {
      tensor_type {
        elem_type: 1
        shape {
          dim {
            dim_value: 1024
          }
        }
      }
    }
  }
  input {
    name: "resnetv17_stage3_conv4_weight"
    type {
      tensor_type {
        elem_type: 1
        shape {
          dim {
            dim_value: 256
          }
          dim {
            dim_value: 1024
          }
          dim {
            dim_value: 1
          }
          dim {
            dim_value: 1
          }
        }
      }
    }
  }
  input {
    name: "resnetv17_stage3_conv4_bias"
    type {
      tensor_type {
        elem_type: 1
        shape {
          dim {
            dim_value: 256
          }
        }
      }
    }
  }
  input {
    name: "resnetv17_stage3_batchnorm4_gamma"
    type {
      tensor_type {
        elem_type: 1
        shape {
          dim {
            dim_value: 256
          }
        }
      }
    }
  }
  input {
    name: "resnetv17_stage3_batchnorm4_beta"
    type {
      tensor_type {
        elem_type: 1
        shape {
          dim {
            dim_value: 256
          }
        }
      }
    }
  }
  input {
    name: "resnetv17_stage3_batchnorm4_running_mean"
    type {
      tensor_type {
        elem_type: 1
        shape {
          dim {
            dim_value: 256
          }
        }
      }
    }
  }
  input {
    name: "resnetv17_stage3_batchnorm4_running_var"
    type {
      tensor_type {
        elem_type: 1
        shape {
          dim {
            dim_value: 256
          }
        }
      }
    }
  }
  input {
    name: "resnetv17_stage3_conv5_weight"
    type {
      tensor_type {
        elem_type: 1
        shape {
          dim {
            dim_value: 256
          }
          dim {
            dim_value: 256
          }
          dim {
            dim_value: 3
          }
          dim {
            dim_value: 3
          }
        }
      }
    }
  }
  input {
    name: "resnetv17_stage3_batchnorm5_gamma"
    type {
      tensor_type {
        elem_type: 1
        shape {
          dim {
            dim_value: 256
          }
        }
      }
    }
  }
  input {
    name: "resnetv17_stage3_batchnorm5_beta"
    type {
      tensor_type {
        elem_type: 1
        shape {
          dim {
            dim_value: 256
          }
        }
      }
    }
  }
  input {
    name: "resnetv17_stage3_batchnorm5_running_mean"
    type {
      tensor_type {
        elem_type: 1
        shape {
          dim {
            dim_value: 256
          }
        }
      }
    }
  }
  input {
    name: "resnetv17_stage3_batchnorm5_running_var"
    type {
      tensor_type {
        elem_type: 1
        shape {
          dim {
            dim_value: 256
          }
        }
      }
    }
  }
  input {
    name: "resnetv17_stage3_conv6_weight"
    type {
      tensor_type {
        elem_type: 1
        shape {
          dim {
            dim_value: 1024
          }
          dim {
            dim_value: 256
          }
          dim {
            dim_value: 1
          }
          dim {
            dim_value: 1
          }
        }
      }
    }
  }
  input {
    name: "resnetv17_stage3_conv6_bias"
    type {
      tensor_type {
        elem_type: 1
        shape {
          dim {
            dim_value: 1024
          }
        }
      }
    }
  }
  input {
    name: "resnetv17_stage3_batchnorm6_gamma"
    type {
      tensor_type {
        elem_type: 1
        shape {
          dim {
            dim_value: 1024
          }
        }
      }
    }
  }
  input {
    name: "resnetv17_stage3_batchnorm6_beta"
    type {
      tensor_type {
        elem_type: 1
        shape {
          dim {
            dim_value: 1024
          }
        }
      }
    }
  }
  input {
    name: "resnetv17_stage3_batchnorm6_running_mean"
    type {
      tensor_type {
        elem_type: 1
        shape {
          dim {
            dim_value: 1024
          }
        }
      }
    }
  }
  input {
    name: "resnetv17_stage3_batchnorm6_running_var"
    type {
      tensor_type {
        elem_type: 1
        shape {
          dim {
            dim_value: 1024
          }
        }
      }
    }
  }
  input {
    name: "resnetv17_stage3_conv7_weight"
    type {
      tensor_type {
        elem_type: 1
        shape {
          dim {
            dim_value: 256
          }
          dim {
            dim_value: 1024
          }
          dim {
            dim_value: 1
          }
          dim {
            dim_value: 1
          }
        }
      }
    }
  }
  input {
    name: "resnetv17_stage3_conv7_bias"
    type {
      tensor_type {
        elem_type: 1
        shape {
          dim {
            dim_value: 256
          }
        }
      }
    }
  }
  input {
    name: "resnetv17_stage3_batchnorm7_gamma"
    type {
      tensor_type {
        elem_type: 1
        shape {
          dim {
            dim_value: 256
          }
        }
      }
    }
  }
  input {
    name: "resnetv17_stage3_batchnorm7_beta"
    type {
      tensor_type {
        elem_type: 1
        shape {
          dim {
            dim_value: 256
          }
        }
      }
    }
  }
  input {
    name: "resnetv17_stage3_batchnorm7_running_mean"
    type {
      tensor_type {
        elem_type: 1
        shape {
          dim {
            dim_value: 256
          }
        }
      }
    }
  }
  input {
    name: "resnetv17_stage3_batchnorm7_running_var"
    type {
      tensor_type {
        elem_type: 1
        shape {
          dim {
            dim_value: 256
          }
        }
      }
    }
  }
  input {
    name: "resnetv17_stage3_conv8_weight"
    type {
      tensor_type {
        elem_type: 1
        shape {
          dim {
            dim_value: 256
          }
          dim {
            dim_value: 256
          }
          dim {
            dim_value: 3
          }
          dim {
            dim_value: 3
          }
        }
      }
    }
  }
  input {
    name: "resnetv17_stage3_batchnorm8_gamma"
    type {
      tensor_type {
        elem_type: 1
        shape {
          dim {
            dim_value: 256
          }
        }
      }
    }
  }
  input {
    name: "resnetv17_stage3_batchnorm8_beta"
    type {
      tensor_type {
        elem_type: 1
        shape {
          dim {
            dim_value: 256
          }
        }
      }
    }
  }
  input {
    name: "resnetv17_stage3_batchnorm8_running_mean"
    type {
      tensor_type {
        elem_type: 1
        shape {
          dim {
            dim_value: 256
          }
        }
      }
    }
  }
  input {
    name: "resnetv17_stage3_batchnorm8_running_var"
    type {
      tensor_type {
        elem_type: 1
        shape {
          dim {
            dim_value: 256
          }
        }
      }
    }
  }
  input {
    name: "resnetv17_stage3_conv9_weight"
    type {
      tensor_type {
        elem_type: 1
        shape {
          dim {
            dim_value: 1024
          }
          dim {
            dim_value: 256
          }
          dim {
            dim_value: 1
          }
          dim {
            dim_value: 1
          }
        }
      }
    }
  }
  input {
    name: "resnetv17_stage3_conv9_bias"
    type {
      tensor_type {
        elem_type: 1
        shape {
          dim {
            dim_value: 1024
          }
        }
      }
    }
  }
  input {
    name: "resnetv17_stage3_batchnorm9_gamma"
    type {
      tensor_type {
        elem_type: 1
        shape {
          dim {
            dim_value: 1024
          }
        }
      }
    }
  }
  input {
    name: "resnetv17_stage3_batchnorm9_beta"
    type {
      tensor_type {
        elem_type: 1
        shape {
          dim {
            dim_value: 1024
          }
        }
      }
    }
  }
  input {
    name: "resnetv17_stage3_batchnorm9_running_mean"
    type {
      tensor_type {
        elem_type: 1
        shape {
          dim {
            dim_value: 1024
          }
        }
      }
    }
  }
  input {
    name: "resnetv17_stage3_batchnorm9_running_var"
    type {
      tensor_type {
        elem_type: 1
        shape {
          dim {
            dim_value: 1024
          }
        }
      }
    }
  }
  input {
    name: "resnetv17_stage3_conv10_weight"
    type {
      tensor_type {
        elem_type: 1
        shape {
          dim {
            dim_value: 256
          }
          dim {
            dim_value: 1024
          }
          dim {
            dim_value: 1
          }
          dim {
            dim_value: 1
          }
        }
      }
    }
  }
  input {
    name: "resnetv17_stage3_conv10_bias"
    type {
      tensor_type {
        elem_type: 1
        shape {
          dim {
            dim_value: 256
          }
        }
      }
    }
  }
  input {
    name: "resnetv17_stage3_batchnorm10_gamma"
    type {
      tensor_type {
        elem_type: 1
        shape {
          dim {
            dim_value: 256
          }
        }
      }
    }
  }
  input {
    name: "resnetv17_stage3_batchnorm10_beta"
    type {
      tensor_type {
        elem_type: 1
        shape {
          dim {
            dim_value: 256
          }
        }
      }
    }
  }
  input {
    name: "resnetv17_stage3_batchnorm10_running_mean"
    type {
      tensor_type {
        elem_type: 1
        shape {
          dim {
            dim_value: 256
          }
        }
      }
    }
  }
  input {
    name: "resnetv17_stage3_batchnorm10_running_var"
    type {
      tensor_type {
        elem_type: 1
        shape {
          dim {
            dim_value: 256
          }
        }
      }
    }
  }
  input {
    name: "resnetv17_stage3_conv11_weight"
    type {
      tensor_type {
        elem_type: 1
        shape {
          dim {
            dim_value: 256
          }
          dim {
            dim_value: 256
          }
          dim {
            dim_value: 3
          }
          dim {
            dim_value: 3
          }
        }
      }
    }
  }
  input {
    name: "resnetv17_stage3_batchnorm11_gamma"
    type {
      tensor_type {
        elem_type: 1
        shape {
          dim {
            dim_value: 256
          }
        }
      }
    }
  }
  input {
    name: "resnetv17_stage3_batchnorm11_beta"
    type {
      tensor_type {
        elem_type: 1
        shape {
          dim {
            dim_value: 256
          }
        }
      }
    }
  }
  input {
    name: "resnetv17_stage3_batchnorm11_running_mean"
    type {
      tensor_type {
        elem_type: 1
        shape {
          dim {
            dim_value: 256
          }
        }
      }
    }
  }
  input {
    name: "resnetv17_stage3_batchnorm11_running_var"
    type {
      tensor_type {
        elem_type: 1
        shape {
          dim {
            dim_value: 256
          }
        }
      }
    }
  }
  input {
    name: "resnetv17_stage3_conv12_weight"
    type {
      tensor_type {
        elem_type: 1
        shape {
          dim {
            dim_value: 1024
          }
          dim {
            dim_value: 256
          }
          dim {
            dim_value: 1
          }
          dim {
            dim_value: 1
          }
        }
      }
    }
  }
  input {
    name: "resnetv17_stage3_conv12_bias"
    type {
      tensor_type {
        elem_type: 1
        shape {
          dim {
            dim_value: 1024
          }
        }
      }
    }
  }
  input {
    name: "resnetv17_stage3_batchnorm12_gamma"
    type {
      tensor_type {
        elem_type: 1
        shape {
          dim {
            dim_value: 1024
          }
        }
      }
    }
  }
  input {
    name: "resnetv17_stage3_batchnorm12_beta"
    type {
      tensor_type {
        elem_type: 1
        shape {
          dim {
            dim_value: 1024
          }
        }
      }
    }
  }
  input {
    name: "resnetv17_stage3_batchnorm12_running_mean"
    type {
      tensor_type {
        elem_type: 1
        shape {
          dim {
            dim_value: 1024
          }
        }
      }
    }
  }
  input {
    name: "resnetv17_stage3_batchnorm12_running_var"
    type {
      tensor_type {
        elem_type: 1
        shape {
          dim {
            dim_value: 1024
          }
        }
      }
    }
  }
  input {
    name: "resnetv17_stage3_conv13_weight"
    type {
      tensor_type {
        elem_type: 1
        shape {
          dim {
            dim_value: 256
          }
          dim {
            dim_value: 1024
          }
          dim {
            dim_value: 1
          }
          dim {
            dim_value: 1
          }
        }
      }
    }
  }
  input {
    name: "resnetv17_stage3_conv13_bias"
    type {
      tensor_type {
        elem_type: 1
        shape {
          dim {
            dim_value: 256
          }
        }
      }
    }
  }
  input {
    name: "resnetv17_stage3_batchnorm13_gamma"
    type {
      tensor_type {
        elem_type: 1
        shape {
          dim {
            dim_value: 256
          }
        }
      }
    }
  }
  input {
    name: "resnetv17_stage3_batchnorm13_beta"
    type {
      tensor_type {
        elem_type: 1
        shape {
          dim {
            dim_value: 256
          }
        }
      }
    }
  }
  input {
    name: "resnetv17_stage3_batchnorm13_running_mean"
    type {
      tensor_type {
        elem_type: 1
        shape {
          dim {
            dim_value: 256
          }
        }
      }
    }
  }
  input {
    name: "resnetv17_stage3_batchnorm13_running_var"
    type {
      tensor_type {
        elem_type: 1
        shape {
          dim {
            dim_value: 256
          }
        }
      }
    }
  }
  input {
    name: "resnetv17_stage3_conv14_weight"
    type {
      tensor_type {
        elem_type: 1
        shape {
          dim {
            dim_value: 256
          }
          dim {
            dim_value: 256
          }
          dim {
            dim_value: 3
          }
          dim {
            dim_value: 3
          }
        }
      }
    }
  }
  input {
    name: "resnetv17_stage3_batchnorm14_gamma"
    type {
      tensor_type {
        elem_type: 1
        shape {
          dim {
            dim_value: 256
          }
        }
      }
    }
  }
  input {
    name: "resnetv17_stage3_batchnorm14_beta"
    type {
      tensor_type {
        elem_type: 1
        shape {
          dim {
            dim_value: 256
          }
        }
      }
    }
  }
  input {
    name: "resnetv17_stage3_batchnorm14_running_mean"
    type {
      tensor_type {
        elem_type: 1
        shape {
          dim {
            dim_value: 256
          }
        }
      }
    }
  }
  input {
    name: "resnetv17_stage3_batchnorm14_running_var"
    type {
      tensor_type {
        elem_type: 1
        shape {
          dim {
            dim_value: 256
          }
        }
      }
    }
  }
  input {
    name: "resnetv17_stage3_conv15_weight"
    type {
      tensor_type {
        elem_type: 1
        shape {
          dim {
            dim_value: 1024
          }
          dim {
            dim_value: 256
          }
          dim {
            dim_value: 1
          }
          dim {
            dim_value: 1
          }
        }
      }
    }
  }
  input {
    name: "resnetv17_stage3_conv15_bias"
    type {
      tensor_type {
        elem_type: 1
        shape {
          dim {
            dim_value: 1024
          }
        }
      }
    }
  }
  input {
    name: "resnetv17_stage3_batchnorm15_gamma"
    type {
      tensor_type {
        elem_type: 1
        shape {
          dim {
            dim_value: 1024
          }
        }
      }
    }
  }
  input {
    name: "resnetv17_stage3_batchnorm15_beta"
    type {
      tensor_type {
        elem_type: 1
        shape {
          dim {
            dim_value: 1024
          }
        }
      }
    }
  }
  input {
    name: "resnetv17_stage3_batchnorm15_running_mean"
    type {
      tensor_type {
        elem_type: 1
        shape {
          dim {
            dim_value: 1024
          }
        }
      }
    }
  }
  input {
    name: "resnetv17_stage3_batchnorm15_running_var"
    type {
      tensor_type {
        elem_type: 1
        shape {
          dim {
            dim_value: 1024
          }
        }
      }
    }
  }
  input {
    name: "resnetv17_stage3_conv16_weight"
    type {
      tensor_type {
        elem_type: 1
        shape {
          dim {
            dim_value: 256
          }
          dim {
            dim_value: 1024
          }
          dim {
            dim_value: 1
          }
          dim {
            dim_value: 1
          }
        }
      }
    }
  }
  input {
    name: "resnetv17_stage3_conv16_bias"
    type {
      tensor_type {
        elem_type: 1
        shape {
          dim {
            dim_value: 256
          }
        }
      }
    }
  }
  input {
    name: "resnetv17_stage3_batchnorm16_gamma"
    type {
      tensor_type {
        elem_type: 1
        shape {
          dim {
            dim_value: 256
          }
        }
      }
    }
  }
  input {
    name: "resnetv17_stage3_batchnorm16_beta"
    type {
      tensor_type {
        elem_type: 1
        shape {
          dim {
            dim_value: 256
          }
        }
      }
    }
  }
  input {
    name: "resnetv17_stage3_batchnorm16_running_mean"
    type {
      tensor_type {
        elem_type: 1
        shape {
          dim {
            dim_value: 256
          }
        }
      }
    }
  }
  input {
    name: "resnetv17_stage3_batchnorm16_running_var"
    type {
      tensor_type {
        elem_type: 1
        shape {
          dim {
            dim_value: 256
          }
        }
      }
    }
  }
  input {
    name: "resnetv17_stage3_conv17_weight"
    type {
      tensor_type {
        elem_type: 1
        shape {
          dim {
            dim_value: 256
          }
          dim {
            dim_value: 256
          }
          dim {
            dim_value: 3
          }
          dim {
            dim_value: 3
          }
        }
      }
    }
  }
  input {
    name: "resnetv17_stage3_batchnorm17_gamma"
    type {
      tensor_type {
        elem_type: 1
        shape {
          dim {
            dim_value: 256
          }
        }
      }
    }
  }
  input {
    name: "resnetv17_stage3_batchnorm17_beta"
    type {
      tensor_type {
        elem_type: 1
        shape {
          dim {
            dim_value: 256
          }
        }
      }
    }
  }
  input {
    name: "resnetv17_stage3_batchnorm17_running_mean"
    type {
      tensor_type {
        elem_type: 1
        shape {
          dim {
            dim_value: 256
          }
        }
      }
    }
  }
  input {
    name: "resnetv17_stage3_batchnorm17_running_var"
    type {
      tensor_type {
        elem_type: 1
        shape {
          dim {
            dim_value: 256
          }
        }
      }
    }
  }
  input {
    name: "resnetv17_stage3_conv18_weight"
    type {
      tensor_type {
        elem_type: 1
        shape {
          dim {
            dim_value: 1024
          }
          dim {
            dim_value: 256
          }
          dim {
            dim_value: 1
          }
          dim {
            dim_value: 1
          }
        }
      }
    }
  }
  input {
    name: "resnetv17_stage3_conv18_bias"
    type {
      tensor_type {
        elem_type: 1
        shape {
          dim {
            dim_value: 1024
          }
        }
      }
    }
  }
  input {
    name: "resnetv17_stage3_batchnorm18_gamma"
    type {
      tensor_type {
        elem_type: 1
        shape {
          dim {
            dim_value: 1024
          }
        }
      }
    }
  }
  input {
    name: "resnetv17_stage3_batchnorm18_beta"
    type {
      tensor_type {
        elem_type: 1
        shape {
          dim {
            dim_value: 1024
          }
        }
      }
    }
  }
  input {
    name: "resnetv17_stage3_batchnorm18_running_mean"
    type {
      tensor_type {
        elem_type: 1
        shape {
          dim {
            dim_value: 1024
          }
        }
      }
    }
  }
  input {
    name: "resnetv17_stage3_batchnorm18_running_var"
    type {
      tensor_type {
        elem_type: 1
        shape {
          dim {
            dim_value: 1024
          }
        }
      }
    }
  }
  input {
    name: "resnetv17_stage4_conv0_weight"
    type {
      tensor_type {
        elem_type: 1
        shape {
          dim {
            dim_value: 512
          }
          dim {
            dim_value: 1024
          }
          dim {
            dim_value: 1
          }
          dim {
            dim_value: 1
          }
        }
      }
    }
  }
  input {
    name: "resnetv17_stage4_conv0_bias"
    type {
      tensor_type {
        elem_type: 1
        shape {
          dim {
            dim_value: 512
          }
        }
      }
    }
  }
  input {
    name: "resnetv17_stage4_batchnorm0_gamma"
    type {
      tensor_type {
        elem_type: 1
        shape {
          dim {
            dim_value: 512
          }
        }
      }
    }
  }
  input {
    name: "resnetv17_stage4_batchnorm0_beta"
    type {
      tensor_type {
        elem_type: 1
        shape {
          dim {
            dim_value: 512
          }
        }
      }
    }
  }
  input {
    name: "resnetv17_stage4_batchnorm0_running_mean"
    type {
      tensor_type {
        elem_type: 1
        shape {
          dim {
            dim_value: 512
          }
        }
      }
    }
  }
  input {
    name: "resnetv17_stage4_batchnorm0_running_var"
    type {
      tensor_type {
        elem_type: 1
        shape {
          dim {
            dim_value: 512
          }
        }
      }
    }
  }
  input {
    name: "resnetv17_stage4_conv1_weight"
    type {
      tensor_type {
        elem_type: 1
        shape {
          dim {
            dim_value: 512
          }
          dim {
            dim_value: 512
          }
          dim {
            dim_value: 3
          }
          dim {
            dim_value: 3
          }
        }
      }
    }
  }
  input {
    name: "resnetv17_stage4_batchnorm1_gamma"
    type {
      tensor_type {
        elem_type: 1
        shape {
          dim {
            dim_value: 512
          }
        }
      }
    }
  }
  input {
    name: "resnetv17_stage4_batchnorm1_beta"
    type {
      tensor_type {
        elem_type: 1
        shape {
          dim {
            dim_value: 512
          }
        }
      }
    }
  }
  input {
    name: "resnetv17_stage4_batchnorm1_running_mean"
    type {
      tensor_type {
        elem_type: 1
        shape {
          dim {
            dim_value: 512
          }
        }
      }
    }
  }
  input {
    name: "resnetv17_stage4_batchnorm1_running_var"
    type {
      tensor_type {
        elem_type: 1
        shape {
          dim {
            dim_value: 512
          }
        }
      }
    }
  }
  input {
    name: "resnetv17_stage4_conv2_weight"
    type {
      tensor_type {
        elem_type: 1
        shape {
          dim {
            dim_value: 2048
          }
          dim {
            dim_value: 512
          }
          dim {
            dim_value: 1
          }
          dim {
            dim_value: 1
          }
        }
      }
    }
  }
  input {
    name: "resnetv17_stage4_conv2_bias"
    type {
      tensor_type {
        elem_type: 1
        shape {
          dim {
            dim_value: 2048
          }
        }
      }
    }
  }
  input {
    name: "resnetv17_stage4_batchnorm2_gamma"
    type {
      tensor_type {
        elem_type: 1
        shape {
          dim {
            dim_value: 2048
          }
        }
      }
    }
  }
  input {
    name: "resnetv17_stage4_batchnorm2_beta"
    type {
      tensor_type {
        elem_type: 1
        shape {
          dim {
            dim_value: 2048
          }
        }
      }
    }
  }
  input {
    name: "resnetv17_stage4_batchnorm2_running_mean"
    type {
      tensor_type {
        elem_type: 1
        shape {
          dim {
            dim_value: 2048
          }
        }
      }
    }
  }
  input {
    name: "resnetv17_stage4_batchnorm2_running_var"
    type {
      tensor_type {
        elem_type: 1
        shape {
          dim {
            dim_value: 2048
          }
        }
      }
    }
  }
  input {
    name: "resnetv17_stage4_conv3_weight"
    type {
      tensor_type {
        elem_type: 1
        shape {
          dim {
            dim_value: 2048
          }
          dim {
            dim_value: 1024
          }
          dim {
            dim_value: 1
          }
          dim {
            dim_value: 1
          }
        }
      }
    }
  }
  input {
    name: "resnetv17_stage4_batchnorm3_gamma"
    type {
      tensor_type {
        elem_type: 1
        shape {
          dim {
            dim_value: 2048
          }
        }
      }
    }
  }
  input {
    name: "resnetv17_stage4_batchnorm3_beta"
    type {
      tensor_type {
        elem_type: 1
        shape {
          dim {
            dim_value: 2048
          }
        }
      }
    }
  }
  input {
    name: "resnetv17_stage4_batchnorm3_running_mean"
    type {
      tensor_type {
        elem_type: 1
        shape {
          dim {
            dim_value: 2048
          }
        }
      }
    }
  }
  input {
    name: "resnetv17_stage4_batchnorm3_running_var"
    type {
      tensor_type {
        elem_type: 1
        shape {
          dim {
            dim_value: 2048
          }
        }
      }
    }
  }
  input {
    name: "resnetv17_stage4_conv4_weight"
    type {
      tensor_type {
        elem_type: 1
        shape {
          dim {
            dim_value: 512
          }
          dim {
            dim_value: 2048
          }
          dim {
            dim_value: 1
          }
          dim {
            dim_value: 1
          }
        }
      }
    }
  }
  input {
    name: "resnetv17_stage4_conv4_bias"
    type {
      tensor_type {
        elem_type: 1
        shape {
          dim {
            dim_value: 512
          }
        }
      }
    }
  }
  input {
    name: "resnetv17_stage4_batchnorm4_gamma"
    type {
      tensor_type {
        elem_type: 1
        shape {
          dim {
            dim_value: 512
          }
        }
      }
    }
  }
  input {
    name: "resnetv17_stage4_batchnorm4_beta"
    type {
      tensor_type {
        elem_type: 1
        shape {
          dim {
            dim_value: 512
          }
        }
      }
    }
  }
  input {
    name: "resnetv17_stage4_batchnorm4_running_mean"
    type {
      tensor_type {
        elem_type: 1
        shape {
          dim {
            dim_value: 512
          }
        }
      }
    }
  }
  input {
    name: "resnetv17_stage4_batchnorm4_running_var"
    type {
      tensor_type {
        elem_type: 1
        shape {
          dim {
            dim_value: 512
          }
        }
      }
    }
  }
  input {
    name: "resnetv17_stage4_conv5_weight"
    type {
      tensor_type {
        elem_type: 1
        shape {
          dim {
            dim_value: 512
          }
          dim {
            dim_value: 512
          }
          dim {
            dim_value: 3
          }
          dim {
            dim_value: 3
          }
        }
      }
    }
  }
  input {
    name: "resnetv17_stage4_batchnorm5_gamma"
    type {
      tensor_type {
        elem_type: 1
        shape {
          dim {
            dim_value: 512
          }
        }
      }
    }
  }
  input {
    name: "resnetv17_stage4_batchnorm5_beta"
    type {
      tensor_type {
        elem_type: 1
        shape {
          dim {
            dim_value: 512
          }
        }
      }
    }
  }
  input {
    name: "resnetv17_stage4_batchnorm5_running_mean"
    type {
      tensor_type {
        elem_type: 1
        shape {
          dim {
            dim_value: 512
          }
        }
      }
    }
  }
  input {
    name: "resnetv17_stage4_batchnorm5_running_var"
    type {
      tensor_type {
        elem_type: 1
        shape {
          dim {
            dim_value: 512
          }
        }
      }
    }
  }
  input {
    name: "resnetv17_stage4_conv6_weight"
    type {
      tensor_type {
        elem_type: 1
        shape {
          dim {
            dim_value: 2048
          }
          dim {
            dim_value: 512
          }
          dim {
            dim_value: 1
          }
          dim {
            dim_value: 1
          }
        }
      }
    }
  }
  input {
    name: "resnetv17_stage4_conv6_bias"
    type {
      tensor_type {
        elem_type: 1
        shape {
          dim {
            dim_value: 2048
          }
        }
      }
    }
  }
  input {
    name: "resnetv17_stage4_batchnorm6_gamma"
    type {
      tensor_type {
        elem_type: 1
        shape {
          dim {
            dim_value: 2048
          }
        }
      }
    }
  }
  input {
    name: "resnetv17_stage4_batchnorm6_beta"
    type {
      tensor_type {
        elem_type: 1
        shape {
          dim {
            dim_value: 2048
          }
        }
      }
    }
  }
  input {
    name: "resnetv17_stage4_batchnorm6_running_mean"
    type {
      tensor_type {
        elem_type: 1
        shape {
          dim {
            dim_value: 2048
          }
        }
      }
    }
  }
  input {
    name: "resnetv17_stage4_batchnorm6_running_var"
    type {
      tensor_type {
        elem_type: 1
        shape {
          dim {
            dim_value: 2048
          }
        }
      }
    }
  }
  input {
    name: "resnetv17_stage4_conv7_weight"
    type {
      tensor_type {
        elem_type: 1
        shape {
          dim {
            dim_value: 512
          }
          dim {
            dim_value: 2048
          }
          dim {
            dim_value: 1
          }
          dim {
            dim_value: 1
          }
        }
      }
    }
  }
  input {
    name: "resnetv17_stage4_conv7_bias"
    type {
      tensor_type {
        elem_type: 1
        shape {
          dim {
            dim_value: 512
          }
        }
      }
    }
  }
  input {
    name: "resnetv17_stage4_batchnorm7_gamma"
    type {
      tensor_type {
        elem_type: 1
        shape {
          dim {
            dim_value: 512
          }
        }
      }
    }
  }
  input {
    name: "resnetv17_stage4_batchnorm7_beta"
    type {
      tensor_type {
        elem_type: 1
        shape {
          dim {
            dim_value: 512
          }
        }
      }
    }
  }
  input {
    name: "resnetv17_stage4_batchnorm7_running_mean"
    type {
      tensor_type {
        elem_type: 1
        shape {
          dim {
            dim_value: 512
          }
        }
      }
    }
  }
  input {
    name: "resnetv17_stage4_batchnorm7_running_var"
    type {
      tensor_type {
        elem_type: 1
        shape {
          dim {
            dim_value: 512
          }
        }
      }
    }
  }
  input {
    name: "resnetv17_stage4_conv8_weight"
    type {
      tensor_type {
        elem_type: 1
        shape {
          dim {
            dim_value: 512
          }
          dim {
            dim_value: 512
          }
          dim {
            dim_value: 3
          }
          dim {
            dim_value: 3
          }
        }
      }
    }
  }
  input {
    name: "resnetv17_stage4_batchnorm8_gamma"
    type {
      tensor_type {
        elem_type: 1
        shape {
          dim {
            dim_value: 512
          }
        }
      }
    }
  }
  input {
    name: "resnetv17_stage4_batchnorm8_beta"
    type {
      tensor_type {
        elem_type: 1
        shape {
          dim {
            dim_value: 512
          }
        }
      }
    }
  }
  input {
    name: "resnetv17_stage4_batchnorm8_running_mean"
    type {
      tensor_type {
        elem_type: 1
        shape {
          dim {
            dim_value: 512
          }
        }
      }
    }
  }
  input {
    name: "resnetv17_stage4_batchnorm8_running_var"
    type {
      tensor_type {
        elem_type: 1
        shape {
          dim {
            dim_value: 512
          }
        }
      }
    }
  }
  input {
    name: "resnetv17_stage4_conv9_weight"
    type {
      tensor_type {
        elem_type: 1
        shape {
          dim {
            dim_value: 2048
          }
          dim {
            dim_value: 512
          }
          dim {
            dim_value: 1
          }
          dim {
            dim_value: 1
          }
        }
      }
    }
  }
  input {
    name: "resnetv17_stage4_conv9_bias"
    type {
      tensor_type {
        elem_type: 1
        shape {
          dim {
            dim_value: 2048
          }
        }
      }
    }
  }
  input {
    name: "resnetv17_stage4_batchnorm9_gamma"
    type {
      tensor_type {
        elem_type: 1
        shape {
          dim {
            dim_value: 2048
          }
        }
      }
    }
  }
  input {
    name: "resnetv17_stage4_batchnorm9_beta"
    type {
      tensor_type {
        elem_type: 1
        shape {
          dim {
            dim_value: 2048
          }
        }
      }
    }
  }
  input {
    name: "resnetv17_stage4_batchnorm9_running_mean"
    type {
      tensor_type {
        elem_type: 1
        shape {
          dim {
            dim_value: 2048
          }
        }
      }
    }
  }
  input {
    name: "resnetv17_stage4_batchnorm9_running_var"
    type {
      tensor_type {
        elem_type: 1
        shape {
          dim {
            dim_value: 2048
          }
        }
      }
    }
  }
  input {
    name: "resnetv17_dense0_weight"
    type {
      tensor_type {
        elem_type: 1
        shape {
          dim {
            dim_value: 1000
          }
          dim {
            dim_value: 2048
          }
        }
      }
    }
  }
  input {
    name: "resnetv17_dense0_bias"
    type {
      tensor_type {
        elem_type: 1
        shape {
          dim {
            dim_value: 1000
          }
        }
      }
    }
  }
  output {
    name: "resnetv17_dense0_fwd"
    type {
      tensor_type {
        elem_type: 1
        shape {
          dim {
            dim_param: "N"
          }
          dim {
            dim_value: 1000
          }
        }
      }
    }
  }
  value_info {
    name: "resnetv17_batchnorm0_gamma"
    type {
      tensor_type {
        elem_type: 1
        shape {
          dim {
            dim_value: 64
          }
        }
      }
    }
  }
  value_info {
    name: "resnetv17_batchnorm0_beta"
    type {
      tensor_type {
        elem_type: 1
        shape {
          dim {
            dim_value: 64
          }
        }
      }
    }
  }
  value_info {
    name: "resnetv17_batchnorm0_running_mean"
    type {
      tensor_type {
        elem_type: 1
        shape {
          dim {
            dim_value: 64
          }
        }
      }
    }
  }
  value_info {
    name: "resnetv17_batchnorm0_running_var"
    type {
      tensor_type {
        elem_type: 1
        shape {
          dim {
            dim_value: 64
          }
        }
      }
    }
  }
  value_info {
    name: "resnetv17_stage1_conv0_bias"
    type {
      tensor_type {
        elem_type: 1
        shape {
          dim {
            dim_value: 64
          }
        }
      }
    }
  }
  value_info {
    name: "resnetv17_stage1_batchnorm0_gamma"
    type {
      tensor_type {
        elem_type: 1
        shape {
          dim {
            dim_value: 64
          }
        }
      }
    }
  }
  value_info {
    name: "resnetv17_stage1_batchnorm0_beta"
    type {
      tensor_type {
        elem_type: 1
        shape {
          dim {
            dim_value: 64
          }
        }
      }
    }
  }
  value_info {
    name: "resnetv17_stage1_batchnorm0_running_mean"
    type {
      tensor_type {
        elem_type: 1
        shape {
          dim {
            dim_value: 64
          }
        }
      }
    }
  }
  value_info {
    name: "resnetv17_stage1_batchnorm0_running_var"
    type {
      tensor_type {
        elem_type: 1
        shape {
          dim {
            dim_value: 64
          }
        }
      }
    }
  }
  value_info {
    name: "resnetv17_stage1_batchnorm1_gamma"
    type {
      tensor_type {
        elem_type: 1
        shape {
          dim {
            dim_value: 64
          }
        }
      }
    }
  }
  value_info {
    name: "resnetv17_stage1_batchnorm1_beta"
    type {
      tensor_type {
        elem_type: 1
        shape {
          dim {
            dim_value: 64
          }
        }
      }
    }
  }
  value_info {
    name: "resnetv17_stage1_batchnorm1_running_mean"
    type {
      tensor_type {
        elem_type: 1
        shape {
          dim {
            dim_value: 64
          }
        }
      }
    }
  }
  value_info {
    name: "resnetv17_stage1_batchnorm1_running_var"
    type {
      tensor_type {
        elem_type: 1
        shape {
          dim {
            dim_value: 64
          }
        }
      }
    }
  }
  value_info {
    name: "resnetv17_stage1_conv4_bias"
    type {
      tensor_type {
        elem_type: 1
        shape {
          dim {
            dim_value: 64
          }
        }
      }
    }
  }
  value_info {
    name: "resnetv17_stage1_batchnorm4_gamma"
    type {
      tensor_type {
        elem_type: 1
        shape {
          dim {
            dim_value: 64
          }
        }
      }
    }
  }
  value_info {
    name: "resnetv17_stage1_batchnorm4_beta"
    type {
      tensor_type {
        elem_type: 1
        shape {
          dim {
            dim_value: 64
          }
        }
      }
    }
  }
  value_info {
    name: "resnetv17_stage1_batchnorm4_running_mean"
    type {
      tensor_type {
        elem_type: 1
        shape {
          dim {
            dim_value: 64
          }
        }
      }
    }
  }
  value_info {
    name: "resnetv17_stage1_batchnorm4_running_var"
    type {
      tensor_type {
        elem_type: 1
        shape {
          dim {
            dim_value: 64
          }
        }
      }
    }
  }
  value_info {
    name: "resnetv17_stage1_batchnorm5_gamma"
    type {
      tensor_type {
        elem_type: 1
        shape {
          dim {
            dim_value: 64
          }
        }
      }
    }
  }
  value_info {
    name: "resnetv17_stage1_batchnorm5_beta"
    type {
      tensor_type {
        elem_type: 1
        shape {
          dim {
            dim_value: 64
          }
        }
      }
    }
  }
  value_info {
    name: "resnetv17_stage1_batchnorm5_running_mean"
    type {
      tensor_type {
        elem_type: 1
        shape {
          dim {
            dim_value: 64
          }
        }
      }
    }
  }
  value_info {
    name: "resnetv17_stage1_batchnorm5_running_var"
    type {
      tensor_type {
        elem_type: 1
        shape {
          dim {
            dim_value: 64
          }
        }
      }
    }
  }
  value_info {
    name: "resnetv17_stage1_conv7_bias"
    type {
      tensor_type {
        elem_type: 1
        shape {
          dim {
            dim_value: 64
          }
        }
      }
    }
  }
  value_info {
    name: "resnetv17_stage1_batchnorm7_gamma"
    type {
      tensor_type {
        elem_type: 1
        shape {
          dim {
            dim_value: 64
          }
        }
      }
    }
  }
  value_info {
    name: "resnetv17_stage1_batchnorm7_beta"
    type {
      tensor_type {
        elem_type: 1
        shape {
          dim {
            dim_value: 64
          }
        }
      }
    }
  }
  value_info {
    name: "resnetv17_stage1_batchnorm7_running_mean"
    type {
      tensor_type {
        elem_type: 1
        shape {
          dim {
            dim_value: 64
          }
        }
      }
    }
  }
  value_info {
    name: "resnetv17_stage1_batchnorm7_running_var"
    type {
      tensor_type {
        elem_type: 1
        shape {
          dim {
            dim_value: 64
          }
        }
      }
    }
  }
  value_info {
    name: "resnetv17_stage1_batchnorm8_gamma"
    type {
      tensor_type {
        elem_type: 1
        shape {
          dim {
            dim_value: 64
          }
        }
…
            dim_param: "N"
          }
          dim {
            dim_value: 128
          }
          dim {
            dim_value: 28
          }
          dim {
            dim_value: 28
          }
        }
      }
    }
  }
  value_info {
    name: "resnetv17_stage2_conv1_fwd"
    type {
      tensor_type {
        elem_type: 1
        shape {
          dim {
            dim_param: "N"
          }
          dim {
            dim_value: 128
          }
          dim {
            dim_value: 28
          }
          dim {
            dim_value: 28
          }
        }
      }
    }
  }
  value_info {
    name: "resnetv17_stage2_batchnorm1_fwd"
    type {
      tensor_type {
        elem_type: 1
        shape {
          dim {
            dim_param: "N"
          }
          dim {
            dim_value: 128
          }
          dim {
            dim_value: 28
          }
          dim {
            dim_value: 28
          }
        }
      }
    }
  }
  value_info {
    name: "resnetv17_stage2_relu1_fwd"
    type {
      tensor_type {
        elem_type: 1
        shape {
          dim {
            dim_param: "N"
          }
          dim {
            dim_value: 128
          }
          dim {
            dim_value: 28
          }
          dim {
            dim_value: 28
          }
        }
      }
    }
  }
  value_info {
    name: "resnetv17_stage2_conv2_fwd"
    type {
      tensor_type {
        elem_type: 1
        shape {
          dim {
            dim_param: "N"
          }
          dim {
            dim_value: 512
          }
          dim {
            dim_value: 28
          }
          dim {
            dim_value: 28
          }
        }
      }
    }
  }
  value_info {
    name: "resnetv17_stage2_batchnorm2_fwd"
    type {
      tensor_type {
        elem_type: 1
        shape {
          dim {
            dim_param: "N"
          }
          dim {
            dim_value: 512
          }
          dim {
            dim_value: 28
          }
          dim {
            dim_value: 28
          }
        }
      }
    }
  }
  value_info {
    name: "resnetv17_stage2_conv3_fwd"
    type {
      tensor_type {
        elem_type: 1
        shape {
          dim {
            dim_param: "N"
          }
          dim {
            dim_value: 512
          }
          dim {
            dim_value: 28
          }
          dim {
            dim_value: 28
          }
        }
      }
    }
  }
  value_info {
    name: "resnetv17_stage2_batchnorm3_fwd"
    type {
      tensor_type {
        elem_type: 1
        shape {
          dim {
            dim_param: "N"
          }
          dim {
            dim_value: 512
          }
          dim {
            dim_value: 28
          }
          dim {
            dim_value: 28
          }
        }
      }
    }
  }
  value_info {
    name: "resnetv17_stage2__plus0"
    type {
      tensor_type {
        elem_type: 1
        shape {
          dim {
            dim_param: "N"
          }
          dim {
            dim_value: 512
          }
          dim {
            dim_value: 28
          }
          dim {
            dim_value: 28
          }
        }
      }
    }
  }
  value_info {
    name: "resnetv17_stage2_activation0"
    type {
      tensor_type {
        elem_type: 1
        shape {
          dim {
            dim_param: "N"
          }
          dim {
            dim_value: 512
          }
          dim {
            dim_value: 28
          }
          dim {
            dim_value: 28
          }
        }
      }
    }
  }
  value_info {
    name: "resnetv17_stage2_conv4_fwd"
    type {
      tensor_type {
        elem_type: 1
        shape {
          dim {
            dim_param: "N"
          }
          dim {
            dim_value: 128
          }
          dim {
            dim_value: 28
          }
          dim {
            dim_value: 28
          }
        }
      }
    }
  }
  value_info {
    name: "resnetv17_stage2_batchnorm4_fwd"
    type {
      tensor_type {
        elem_type: 1
        shape {
          dim {
            dim_param: "N"
          }
          dim {
            dim_value: 128
          }
          dim {
            dim_value: 28
          }
          dim {
            dim_value: 28
          }
        }
      }
    }
  }
  value_info {
    name: "resnetv17_stage2_relu2_fwd"
    type {
      tensor_type {
        elem_type: 1
        shape {
          dim {
            dim_param: "N"
          }
          dim {
            dim_value: 128
          }
          dim {
            dim_value: 28
          }
          dim {
            dim_value: 28
          }
        }
      }
    }
  }
  value_info {
    name: "resnetv17_stage2_conv5_fwd"
    type {
      tensor_type {
        elem_type: 1
        shape {
          dim {
            dim_param: "N"
          }
          dim {
            dim_value: 128
          }
          dim {
            dim_value: 28
          }
          dim {
            dim_value: 28
          }
        }
      }
    }
  }
  value_info {
    name: "resnetv17_stage2_batchnorm5_fwd"
    type {
      tensor_type {
        elem_type: 1
        shape {
          dim {
            dim_param: "N"
          }
          dim {
            dim_value: 128
          }
          dim {
            dim_value: 28
          }
          dim {
            dim_value: 28
          }
        }
      }
    }
  }
  value_info {
    name: "resnetv17_stage2_relu3_fwd"
    type {
      tensor_type {
        elem_type: 1
        shape {
          dim {
            dim_param: "N"
          }
          dim {
            dim_value: 128
          }
          dim {
            dim_value: 28
          }
          dim {
            dim_value: 28
          }
        }
      }
    }
  }
  value_info {
    name: "resnetv17_stage2_conv6_fwd"
    type {
      tensor_type {
        elem_type: 1
        shape {
          dim {
            dim_param: "N"
          }
          dim {
            dim_value: 512
          }
          dim {
            dim_value: 28
          }
          dim {
            dim_value: 28
          }
        }
      }
    }
  }
  value_info {
    name: "resnetv17_stage2_batchnorm6_fwd"
    type {
      tensor_type {
        elem_type: 1
        shape {
          dim {
            dim_param: "N"
          }
          dim {
            dim_value: 512
          }
          dim {
            dim_value: 28
          }
          dim {
            dim_value: 28
          }
        }
      }
    }
  }
  value_info {
    name: "resnetv17_stage2__plus1"
    type {
      tensor_type {
        elem_type: 1
        shape {
          dim {
            dim_param: "N"
          }
          dim {
            dim_value: 512
          }
          dim {
            dim_value: 28
          }
          dim {
            dim_value: 28
          }
        }
      }
    }
  }
  value_info {
    name: "resnetv17_stage2_activation1"
    type {
      tensor_type {
        elem_type: 1
        shape {
          dim {
            dim_param: "N"
          }
          dim {
            dim_value: 512
          }
          dim {
            dim_value: 28
          }
          dim {
            dim_value: 28
          }
        }
      }
    }
  }
  value_info {
    name: "resnetv17_stage2_conv7_fwd"
    type {
      tensor_type {
        elem_type: 1
        shape {
          dim {
            dim_param: "N"
          }
          dim {
            dim_value: 128
          }
          dim {
            dim_value: 28
          }
          dim {
            dim_value: 28
          }
        }
      }
    }
  }
  value_info {
    name: "resnetv17_stage2_batchnorm7_fwd"
    type {
      tensor_type {
        elem_type: 1
        shape {
          dim {
            dim_param: "N"
          }
          dim {
            dim_value: 128
          }
          dim {
            dim_value: 28
          }
          dim {
            dim_value: 28
          }
        }
      }
    }
  }
  value_info {
    name: "resnetv17_stage2_relu4_fwd"
    type {
      tensor_type {
        elem_type: 1
        shape {
          dim {
            dim_param: "N"
          }
          dim {
            dim_value: 128
          }
          dim {
            dim_value: 28
          }
          dim {
            dim_value: 28
          }
        }
      }
    }
  }
  value_info {
    name: "resnetv17_stage2_conv8_fwd"
    type {
      tensor_type {
        elem_type: 1
        shape {
          dim {
            dim_param: "N"
          }
          dim {
            dim_value: 128
          }
          dim {
            dim_value: 28
          }
          dim {
            dim_value: 28
          }
        }
      }
    }
  }
  value_info {
    name: "resnetv17_stage2_batchnorm8_fwd"
    type {
      tensor_type {
        elem_type: 1
        shape {
          dim {
            dim_param: "N"
          }
          dim {
            dim_value: 128
          }
          dim {
            dim_value: 28
          }
          dim {
            dim_value: 28
          }
        }
      }
    }
  }
  value_info {
    name: "resnetv17_stage2_relu5_fwd"
    type {
      tensor_type {
        elem_type: 1
        shape {
          dim {
            dim_param: "N"
          }
          dim {
            dim_value: 128
          }
          dim {
            dim_value: 28
          }
          dim {
            dim_value: 28
          }
        }
      }
    }
  }
  value_info {
    name: "resnetv17_stage2_conv9_fwd"
    type {
      tensor_type {
        elem_type: 1
        shape {
          dim {
            dim_param: "N"
          }
          dim {
            dim_value: 512
          }
          dim {
            dim_value: 28
          }
          dim {
            dim_value: 28
          }
        }
      }
    }
  }
  value_info {
    name: "resnetv17_stage2_batchnorm9_fwd"
    type {
      tensor_type {
        elem_type: 1
        shape {
          dim {
            dim_param: "N"
          }
          dim {
            dim_value: 512
          }
          dim {
            dim_value: 28
          }
          dim {
            dim_value: 28
          }
        }
      }
    }
  }
  value_info {
    name: "resnetv17_stage2__plus2"
    type {
      tensor_type {
        elem_type: 1
        shape {
          dim {
            dim_param: "N"
          }
          dim {
            dim_value: 512
          }
          dim {
            dim_value: 28
          }
          dim {
            dim_value: 28
          }
        }
      }
    }
  }
  value_info {
    name: "resnetv17_stage2_activation2"
    type {
      tensor_type {
        elem_type: 1
        shape {
          dim {
            dim_param: "N"
          }
          dim {
            dim_value: 512
          }
          dim {
            dim_value: 28
          }
          dim {
            dim_value: 28
          }
        }
      }
    }
  }
  value_info {
    name: "resnetv17_stage2_conv10_fwd"
    type {
      tensor_type {
        elem_type: 1
        shape {
          dim {
            dim_param: "N"
          }
          dim {
            dim_value: 128
          }
          dim {
            dim_value: 28
          }
          dim {
            dim_value: 28
          }
        }
      }
    }
  }
  value_info {
    name: "resnetv17_stage2_batchnorm10_fwd"
    type {
      tensor_type {
        elem_type: 1
        shape {
          dim {
            dim_param: "N"
          }
          dim {
            dim_value: 128
          }
          dim {
            dim_value: 28
          }
          dim {
            dim_value: 28
          }
        }
      }
    }
  }
  value_info {
    name: "resnetv17_stage2_relu6_fwd"
    type {
      tensor_type {
        elem_type: 1
        shape {
          dim {
            dim_param: "N"
          }
          dim {
            dim_value: 128
          }
          dim {
            dim_value: 28
          }
          dim {
            dim_value: 28
          }
        }
      }
    }
  }
  value_info {
    name: "resnetv17_stage2_conv11_fwd"
    type {
      tensor_type {
        elem_type: 1
        shape {
          dim {
            dim_param: "N"
          }
          dim {
            dim_value: 128
          }
          dim {
            dim_value: 28
          }
          dim {
            dim_value: 28
          }
        }
      }
    }
  }
  value_info {
    name: "resnetv17_stage2_batchnorm11_fwd"
    type {
      tensor_type {
        elem_type: 1
        shape {
          dim {
            dim_param: "N"
          }
          dim {
            dim_value: 128
          }
          dim {
            dim_value: 28
          }
          dim {
            dim_value: 28
          }
        }
      }
    }
  }
  value_info {
    name: "resnetv17_stage2_relu7_fwd"
    type {
      tensor_type {
        elem_type: 1
        shape {
          dim {
            dim_param: "N"
          }
          dim {
            dim_value: 128
          }
          dim {
            dim_value: 28
          }
          dim {
            dim_value: 28
          }
        }
      }
    }
  }
  value_info {
    name: "resnetv17_stage2_conv12_fwd"
    type {
      tensor_type {
        elem_type: 1
        shape {
          dim {
            dim_param: "N"
          }
          dim {
            dim_value: 512
          }
          dim {
            dim_value: 28
          }
          dim {
            dim_value: 28
          }
        }
      }
    }
  }
  value_info {
    name: "resnetv17_stage2_batchnorm12_fwd"
    type {
      tensor_type {
        elem_type: 1
        shape {
          dim {
            dim_param: "N"
          }
          dim {
            dim_value: 512
          }
          dim {
            dim_value: 28
          }
          dim {
            dim_value: 28
          }
        }
      }
    }
  }
  value_info {
    name: "resnetv17_stage2__plus3"
    type {
      tensor_type {
        elem_type: 1
        shape {
          dim {
            dim_param: "N"
          }
          dim {
            dim_value: 512
          }
          dim {
            dim_value: 28
          }
          dim {
            dim_value: 28
          }
        }
      }
    }
  }
  value_info {
    name: "resnetv17_stage2_activation3"
    type {
      tensor_type {
        elem_type: 1
        shape {
          dim {
            dim_param: "N"
          }
          dim {
            dim_value: 512
          }
          dim {
            dim_value: 28
          }
          dim {
            dim_value: 28
          }
        }
      }
    }
  }
  value_info {
    name: "resnetv17_stage3_conv0_fwd"
    type {
      tensor_type {
        elem_type: 1
        shape {
          dim {
            dim_param: "N"
          }
          dim {
            dim_value: 256
          }
          dim {
            dim_value: 14
          }
          dim {
            dim_value: 14
          }
        }
      }
    }
  }
  value_info {
    name: "resnetv17_stage3_batchnorm0_fwd"
    type {
      tensor_type {
        elem_type: 1
        shape {
          dim {
            dim_param: "N"
          }
          dim {
            dim_value: 256
          }
          dim {
            dim_value: 14
          }
          dim {
            dim_value: 14
          }
        }
      }
    }
  }
  value_info {
    name: "resnetv17_stage3_relu0_fwd"
    type {
      tensor_type {
        elem_type: 1
        shape {
          dim {
            dim_param: "N"
          }
          dim {
            dim_value: 256
          }
          dim {
            dim_value: 14
          }
          dim {
            dim_value: 14
          }
        }
      }
    }
  }
  value_info {
    name: "resnetv17_stage3_conv1_fwd"
    type {
      tensor_type {
        elem_type: 1
        shape {
          dim {
            dim_param: "N"
          }
          dim {
            dim_value: 256
          }
          dim {
            dim_value: 14
          }
          dim {
            dim_value: 14
          }
        }
      }
    }
  }
  value_info {
    name: "resnetv17_stage3_batchnorm1_fwd"
    type {
      tensor_type {
        elem_type: 1
        shape {
          dim {
            dim_param: "N"
          }
          dim {
            dim_value: 256
          }
          dim {
            dim_value: 14
          }
          dim {
            dim_value: 14
          }
        }
      }
    }
  }
  value_info {
    name: "resnetv17_stage3_relu1_fwd"
    type {
      tensor_type {
        elem_type: 1
        shape {
          dim {
            dim_param: "N"
          }
          dim {
            dim_value: 256
          }
          dim {
            dim_value: 14
          }
          dim {
            dim_value: 14
          }
        }
      }
    }
  }
  value_info {
    name: "resnetv17_stage3_conv2_fwd"
    type {
      tensor_type {
        elem_type: 1
        shape {
          dim {
            dim_param: "N"
          }
          dim {
            dim_value: 1024
          }
          dim {
            dim_value: 14
          }
          dim {
            dim_value: 14
          }
        }
      }
    }
  }
  value_info {
    name: "resnetv17_stage3_batchnorm2_fwd"
    type {
      tensor_type {
        elem_type: 1
        shape {
          dim {
            dim_param: "N"
          }
          dim {
            dim_value: 1024
          }
          dim {
            dim_value: 14
          }
          dim {
            dim_value: 14
          }
        }
      }
    }
  }
  value_info {
    name: "resnetv17_stage3_conv3_fwd"
    type {
      tensor_type {
        elem_type: 1
        shape {
          dim {
            dim_param: "N"
          }
          dim {
            dim_value: 1024
          }
          dim {
            dim_value: 14
          }
          dim {
            dim_value: 14
          }
        }
      }
    }
  }
  value_info {
    name: "resnetv17_stage3_batchnorm3_fwd"
    type {
      tensor_type {
        elem_type: 1
        shape {
          dim {
            dim_param: "N"
          }
          dim {
            dim_value: 1024
          }
          dim {
            dim_value: 14
          }
          dim {
            dim_value: 14
          }
        }
      }
    }
  }
  value_info {
    name: "resnetv17_stage3__plus0"
    type {
      tensor_type {
        elem_type: 1
        shape {
          dim {
            dim_param: "N"
          }
          dim {
            dim_value: 1024
          }
          dim {
            dim_value: 14
          }
          dim {
            dim_value: 14
          }
        }
      }
    }
  }
  value_info {
    name: "resnetv17_stage3_activation0"
    type {
      tensor_type {
        elem_type: 1
        shape {
          dim {
            dim_param: "N"
          }
          dim {
            dim_value: 1024
          }
          dim {
            dim_value: 14
          }
          dim {
            dim_value: 14
          }
        }
      }
    }
  }
  value_info {
    name: "resnetv17_stage3_conv4_fwd"
    type {
      tensor_type {
        elem_type: 1
        shape {
          dim {
            dim_param: "N"
          }
          dim {
            dim_value: 256
          }
          dim {
            dim_value: 14
          }
          dim {
            dim_value: 14
          }
        }
      }
    }
  }
  value_info {
    name: "resnetv17_stage3_batchnorm4_fwd"
    type {
      tensor_type {
        elem_type: 1
        shape {
          dim {
            dim_param: "N"
          }
          dim {
            dim_value: 256
          }
          dim {
            dim_value: 14
          }
          dim {
            dim_value: 14
          }
        }
      }
    }
  }
  value_info {
    name: "resnetv17_stage3_relu2_fwd"
    type {
      tensor_type {
        elem_type: 1
        shape {
          dim {
            dim_param: "N"
          }
          dim {
            dim_value: 256
          }
          dim {
            dim_value: 14
          }
          dim {
            dim_value: 14
          }
        }
      }
    }
  }
  value_info {
    name: "resnetv17_stage3_conv5_fwd"
    type {
      tensor_type {
        elem_type: 1
        shape {
          dim {
            dim_param: "N"
          }
          dim {
            dim_value: 256
          }
          dim {
            dim_value: 14
          }
          dim {
            dim_value: 14
          }
        }
      }
    }
  }
  value_info {
    name: "resnetv17_stage3_batchnorm5_fwd"
    type {
      tensor_type {
        elem_type: 1
        shape {
          dim {
            dim_param: "N"
          }
          dim {
            dim_value: 256
          }
          dim {
            dim_value: 14
          }
          dim {
            dim_value: 14
          }
        }
      }
    }
  }
  value_info {
    name: "resnetv17_stage3_relu3_fwd"
    type {
      tensor_type {
        elem_type: 1
        shape {
          dim {
            dim_param: "N"
          }
          dim {
            dim_value: 256
          }
          dim {
            dim_value: 14
          }
          dim {
            dim_value: 14
          }
        }
      }
    }
  }
  value_info {
    name: "resnetv17_stage3_conv6_fwd"
    type {
      tensor_type {
        elem_type: 1
        shape {
          dim {
            dim_param: "N"
          }
          dim {
            dim_value: 1024
          }
          dim {
            dim_value: 14
          }
          dim {
            dim_value: 14
          }
        }
      }
    }
  }
  value_info {
    name: "resnetv17_stage3_batchnorm6_fwd"
    type {
      tensor_type {
        elem_type: 1
        shape {
          dim {
            dim_param: "N"
          }
          dim {
            dim_value: 1024
          }
          dim {
            dim_value: 14
          }
          dim {
            dim_value: 14
          }
        }
      }
    }
  }
  value_info {
    name: "resnetv17_stage3__plus1"
    type {
      tensor_type {
        elem_type: 1
        shape {
          dim {
            dim_param: "N"
          }
          dim {
            dim_value: 1024
          }
          dim {
            dim_value: 14
          }
          dim {
            dim_value: 14
          }
        }
      }
    }
  }
  value_info {
    name: "resnetv17_stage3_activation1"
    type {
      tensor_type {
        elem_type: 1
        shape {
          dim {
            dim_param: "N"
          }
          dim {
            dim_value: 1024
          }
          dim {
            dim_value: 14
          }
          dim {
            dim_value: 14
          }
        }
      }
    }
  }
  value_info {
    name: "resnetv17_stage3_conv7_fwd"
    type {
      tensor_type {
        elem_type: 1
        shape {
          dim {
            dim_param: "N"
          }
          dim {
            dim_value: 256
          }
          dim {
            dim_value: 14
          }
          dim {
            dim_value: 14
          }
        }
      }
    }
  }
  value_info {
    name: "resnetv17_stage3_batchnorm7_fwd"
    type {
      tensor_type {
        elem_type: 1
        shape {
          dim {
            dim_param: "N"
          }
          dim {
            dim_value: 256
          }
          dim {
            dim_value: 14
          }
          dim {
            dim_value: 14
          }
        }
      }
    }
  }
  value_info {
    name: "resnetv17_stage3_relu4_fwd"
    type {
      tensor_type {
        elem_type: 1
        shape {
          dim {
            dim_param: "N"
          }
          dim {
            dim_value: 256
          }
          dim {
            dim_value: 14
          }
          dim {
            dim_value: 14
          }
        }
      }
    }
  }
  value_info {
    name: "resnetv17_stage3_conv8_fwd"
    type {
      tensor_type {
        elem_type: 1
        shape {
          dim {
            dim_param: "N"
          }
          dim {
            dim_value: 256
          }
          dim {
            dim_value: 14
          }
          dim {
            dim_value: 14
          }
        }
      }
    }
  }
  value_info {
    name: "resnetv17_stage3_batchnorm8_fwd"
    type {
      tensor_type {
        elem_type: 1
        shape {
          dim {
            dim_param: "N"
          }
          dim {
            dim_value: 256
          }
          dim {
            dim_value: 14
          }
          dim {
            dim_value: 14
          }
        }
      }
    }
  }
  value_info {
    name: "resnetv17_stage3_relu5_fwd"
    type {
      tensor_type {
        elem_type: 1
        shape {
          dim {
            dim_param: "N"
          }
          dim {
            dim_value: 256
          }
          dim {
            dim_value: 14
          }
          dim {
            dim_value: 14
          }
        }
      }
    }
  }
  value_info {
    name: "resnetv17_stage3_conv9_fwd"
    type {
      tensor_type {
        elem_type: 1
        shape {
          dim {
            dim_param: "N"
          }
          dim {
            dim_value: 1024
          }
          dim {
            dim_value: 14
          }
          dim {
            dim_value: 14
          }
        }
      }
    }
  }
  value_info {
    name: "resnetv17_stage3_batchnorm9_fwd"
    type {
      tensor_type {
        elem_type: 1
        shape {
          dim {
            dim_param: "N"
          }
          dim {
            dim_value: 1024
          }
          dim {
            dim_value: 14
          }
          dim {
            dim_value: 14
          }
        }
      }
    }
  }
  value_info {
    name: "resnetv17_stage3__plus2"
    type {
      tensor_type {
        elem_type: 1
        shape {
          dim {
            dim_param: "N"
          }
          dim {
            dim_value: 1024
          }
          dim {
            dim_value: 14
          }
          dim {
            dim_value: 14
          }
        }
      }
    }
  }
  value_info {
    name: "resnetv17_stage3_activation2"
    type {
      tensor_type {
        elem_type: 1
        shape {
          dim {
            dim_param: "N"
          }
          dim {
            dim_value: 1024
          }
          dim {
            dim_value: 14
          }
          dim {
            dim_value: 14
          }
        }
      }
    }
  }
  value_info {
    name: "resnetv17_stage3_conv10_fwd"
    type {
      tensor_type {
        elem_type: 1
        shape {
          dim {
            dim_param: "N"
          }
          dim {
            dim_value: 256
          }
          dim {
            dim_value: 14
          }
          dim {
            dim_value: 14
          }
        }
      }
    }
  }
  value_info {
    name: "resnetv17_stage3_batchnorm10_fwd"
    type {
      tensor_type {
        elem_type: 1
        shape {
          dim {
            dim_param: "N"
          }
          dim {
            dim_value: 256
          }
          dim {
            dim_value: 14
          }
          dim {
            dim_value: 14
          }
        }
      }
    }
  }
  value_info {
    name: "resnetv17_stage3_relu6_fwd"
    type {
      tensor_type {
        elem_type: 1
        shape {
          dim {
            dim_param: "N"
          }
          dim {
            dim_value: 256
          }
          dim {
            dim_value: 14
          }
          dim {
            dim_value: 14
          }
        }
      }
    }
  }
  value_info {
    name: "resnetv17_stage3_conv11_fwd"
    type {
      tensor_type {
        elem_type: 1
        shape {
          dim {
            dim_param: "N"
          }
          dim {
            dim_value: 256
          }
          dim {
            dim_value: 14
          }
          dim {
            dim_value: 14
          }
        }
      }
    }
  }
  value_info {
    name: "resnetv17_stage3_batchnorm11_fwd"
    type {
      tensor_type {
        elem_type: 1
        shape {
          dim {
            dim_param: "N"
          }
          dim {
            dim_value: 256
          }
          dim {
            dim_value: 14
          }
          dim {
            dim_value: 14
          }
        }
      }
    }
  }
  value_info {
    name: "resnetv17_stage3_relu7_fwd"
    type {
      tensor_type {
        elem_type: 1
        shape {
          dim {
            dim_param: "N"
          }
          dim {
            dim_value: 256
          }
          dim {
            dim_value: 14
          }
          dim {
            dim_value: 14
          }
        }
      }
    }
  }
  value_info {
    name: "resnetv17_stage3_conv12_fwd"
    type {
      tensor_type {
        elem_type: 1
        shape {
          dim {
            dim_param: "N"
          }
          dim {
            dim_value: 1024
          }
          dim {
            dim_value: 14
          }
          dim {
            dim_value: 14
          }
        }
      }
    }
  }
  value_info {
    name: "resnetv17_stage3_batchnorm12_fwd"
    type {
      tensor_type {
        elem_type: 1
        shape {
          dim {
            dim_param: "N"
          }
          dim {
            dim_value: 1024
          }
          dim {
            dim_value: 14
          }
          dim {
            dim_value: 14
          }
        }
      }
    }
  }
  value_info {
    name: "resnetv17_stage3__plus3"
    type {
      tensor_type {
        elem_type: 1
        shape {
          dim {
            dim_param: "N"
          }
          dim {
            dim_value: 1024
          }
          dim {
            dim_value: 14
          }
          dim {
            dim_value: 14
          }
        }
      }
    }
  }
  value_info {
    name: "resnetv17_stage3_activation3"
    type {
      tensor_type {
        elem_type: 1
        shape {
          dim {
            dim_param: "N"
          }
          dim {
            dim_value: 1024
          }
          dim {
            dim_value: 14
          }
          dim {
            dim_value: 14
          }
        }
      }
    }
  }
  value_info {
    name: "resnetv17_stage3_conv13_fwd"
    type {
      tensor_type {
        elem_type: 1
        shape {
          dim {
            dim_param: "N"
          }
          dim {
            dim_value: 256
          }
          dim {
            dim_value: 14
          }
          dim {
            dim_value: 14
          }
        }
      }
    }
  }
  value_info {
    name: "resnetv17_stage3_batchnorm13_fwd"
    type {
      tensor_type {
        elem_type: 1
        shape {
          dim {
            dim_param: "N"
          }
          dim {
            dim_value: 256
          }
          dim {
            dim_value: 14
          }
          dim {
            dim_value: 14
          }
        }
      }
    }
  }
  value_info {
    name: "resnetv17_stage3_relu8_fwd"
    type {
      tensor_type {
        elem_type: 1
        shape {
          dim {
            dim_param: "N"
          }
          dim {
            dim_value: 256
          }
          dim {
            dim_value: 14
          }
          dim {
            dim_value: 14
          }
        }
      }
    }
  }
  value_info {
    name: "resnetv17_stage3_conv14_fwd"
    type {
      tensor_type {
        elem_type: 1
        shape {
          dim {
            dim_param: "N"
          }
          dim {
            dim_value: 256
          }
          dim {
            dim_value: 14
          }
          dim {
            dim_value: 14
          }
        }
      }
    }
  }
  value_info {
    name: "resnetv17_stage3_batchnorm14_fwd"
    type {
      tensor_type {
        elem_type: 1
        shape {
          dim {
            dim_param: "N"
          }
          dim {
            dim_value: 256
          }
          dim {
            dim_value: 14
          }
          dim {
            dim_value: 14
          }
        }
      }
    }
  }
  value_info {
    name: "resnetv17_stage3_relu9_fwd"
    type {
      tensor_type {
        elem_type: 1
        shape {
          dim {
            dim_param: "N"
          }
          dim {
            dim_value: 256
          }
          dim {
            dim_value: 14
          }
          dim {
            dim_value: 14
          }
        }
      }
    }
  }
  value_info {
    name: "resnetv17_stage3_conv15_fwd"
    type {
      tensor_type {
        elem_type: 1
        shape {
          dim {
            dim_param: "N"
          }
          dim {
            dim_value: 1024
          }
          dim {
            dim_value: 14
          }
          dim {
            dim_value: 14
          }
        }
      }
    }
  }
  value_info {
    name: "resnetv17_stage3_batchnorm15_fwd"
    type {
      tensor_type {
        elem_type: 1
        shape {
          dim {
            dim_param: "N"
          }
          dim {
            dim_value: 1024
          }
          dim {
            dim_value: 14
          }
          dim {
            dim_value: 14
          }
        }
      }
    }
  }
  value_info {
    name: "resnetv17_stage3__plus4"
    type {
      tensor_type {
        elem_type: 1
        shape {
          dim {
            dim_param: "N"
          }
          dim {
            dim_value: 1024
          }
          dim {
            dim_value: 14
          }
          dim {
            dim_value: 14
          }
        }
      }
    }
  }
  value_info {
    name: "resnetv17_stage3_activation4"
    type {
      tensor_type {
        elem_type: 1
        shape {
          dim {
            dim_param: "N"
          }
          dim {
            dim_value: 1024
          }
          dim {
            dim_value: 14
          }
          dim {
            dim_value: 14
          }
        }
      }
    }
  }
  value_info {
    name: "resnetv17_stage3_conv16_fwd"
    type {
      tensor_type {
        elem_type: 1
        shape {
          dim {
            dim_param: "N"
          }
          dim {
            dim_value: 256
          }
          dim {
            dim_value: 14
          }
          dim {
            dim_value: 14
          }
        }
      }
    }
  }
  value_info {
    name: "resnetv17_stage3_batchnorm16_fwd"
    type {
      tensor_type {
        elem_type: 1
        shape {
          dim {
            dim_param: "N"
          }
          dim {
            dim_value: 256
          }
          dim {
            dim_value: 14
          }
          dim {
            dim_value: 14
          }
        }
      }
    }
  }
  value_info {
    name: "resnetv17_stage3_relu10_fwd"
    type {
      tensor_type {
        elem_type: 1
        shape {
          dim {
            dim_param: "N"
          }
          dim {
            dim_value: 256
          }
          dim {
            dim_value: 14
          }
          dim {
            dim_value: 14
          }
        }
      }
    }
  }
  value_info {
    name: "resnetv17_stage3_conv17_fwd"
    type {
      tensor_type {
        elem_type: 1
        shape {
          dim {
            dim_param: "N"
          }
          dim {
            dim_value: 256
          }
          dim {
            dim_value: 14
          }
          dim {
            dim_value: 14
          }
        }
      }
    }
  }
  value_info {
    name: "resnetv17_stage3_batchnorm17_fwd"
    type {
      tensor_type {
        elem_type: 1
        shape {
          dim {
            dim_param: "N"
          }
          dim {
            dim_value: 256
          }
          dim {
            dim_value: 14
          }
          dim {
            dim_value: 14
          }
        }
      }
    }
  }
  value_info {
    name: "resnetv17_stage3_relu11_fwd"
    type {
      tensor_type {
        elem_type: 1
        shape {
          dim {
            dim_param: "N"
          }
          dim {
            dim_value: 256
          }
          dim {
            dim_value: 14
          }
          dim {
            dim_value: 14
          }
        }
      }
    }
  }
  value_info {
    name: "resnetv17_stage3_conv18_fwd"
    type {
      tensor_type {
        elem_type: 1
        shape {
          dim {
            dim_param: "N"
          }
          dim {
            dim_value: 1024
          }
          dim {
            dim_value: 14
          }
          dim {
            dim_value: 14
          }
        }
      }
    }
  }
  value_info {
    name: "resnetv17_stage3_batchnorm18_fwd"
    type {
      tensor_type {
        elem_type: 1
        shape {
          dim {
            dim_param: "N"
          }
          dim {
            dim_value: 1024
          }
          dim {
            dim_value: 14
          }
          dim {
            dim_value: 14
          }
        }
      }
    }
  }
  value_info {
    name: "resnetv17_stage3__plus5"
    type {
      tensor_type {
        elem_type: 1
        shape {
          dim {
            dim_param: "N"
          }
          dim {
            dim_value: 1024
          }
          dim {
            dim_value: 14
          }
          dim {
            dim_value: 14
          }
        }
      }
    }
  }
  value_info {
    name: "resnetv17_stage3_activation5"
    type {
      tensor_type {
        elem_type: 1
        shape {
          dim {
            dim_param: "N"
          }
          dim {
            dim_value: 1024
          }
          dim {
            dim_value: 14
          }
          dim {
            dim_value: 14
          }
        }
      }
    }
  }
  value_info {
    name: "resnetv17_stage4_conv0_fwd"
    type {
      tensor_type {
        elem_type: 1
        shape {
          dim {
            dim_param: "N"
          }
          dim {
            dim_value: 512
          }
          dim {
            dim_value: 7
          }
          dim {
            dim_value: 7
          }
        }
      }
    }
  }
  value_info {
    name: "resnetv17_stage4_batchnorm0_fwd"
    type {
      tensor_type {
        elem_type: 1
        shape {
          dim {
            dim_param: "N"
          }
          dim {
            dim_value: 512
          }
          dim {
            dim_value: 7
          }
          dim {
            dim_value: 7
          }
        }
      }
    }
  }
  value_info {
    name: "resnetv17_stage4_relu0_fwd"
    type {
      tensor_type {
        elem_type: 1
        shape {
          dim {
            dim_param: "N"
          }
          dim {
            dim_value: 512
          }
          dim {
            dim_value: 7
          }
          dim {
            dim_value: 7
          }
        }
      }
    }
  }
  value_info {
    name: "resnetv17_stage4_conv1_fwd"
    type {
      tensor_type {
        elem_type: 1
        shape {
          dim {
            dim_param: "N"
          }
          dim {
            dim_value: 512
          }
          dim {
            dim_value: 7
          }
          dim {
            dim_value: 7
          }
        }
      }
    }
  }
  value_info {
    name: "resnetv17_stage4_batchnorm1_fwd"
    type {
      tensor_type {
        elem_type: 1
        shape {
          dim {
            dim_param: "N"
          }
          dim {
            dim_value: 512
          }
          dim {
            dim_value: 7
          }
          dim {
            dim_value: 7
          }
        }
      }
    }
  }
  value_info {
    name: "resnetv17_stage4_relu1_fwd"
    type {
      tensor_type {
        elem_type: 1
        shape {
          dim {
            dim_param: "N"
          }
          dim {
            dim_value: 512
          }
          dim {
            dim_value: 7
          }
          dim {
            dim_value: 7
          }
        }
      }
    }
  }
  value_info {
    name: "resnetv17_stage4_conv2_fwd"
    type {
      tensor_type {
        elem_type: 1
        shape {
          dim {
            dim_param: "N"
          }
          dim {
            dim_value: 2048
          }
          dim {
            dim_value: 7
          }
          dim {
            dim_value: 7
          }
        }
      }
    }
  }
  value_info {
    name: "resnetv17_stage4_batchnorm2_fwd"
    type {
      tensor_type {
        elem_type: 1
        shape {
          dim {
            dim_param: "N"
          }
          dim {
            dim_value: 2048
          }
          dim {
            dim_value: 7
          }
          dim {
            dim_value: 7
          }
        }
      }
    }
  }
  value_info {
    name: "resnetv17_stage4_conv3_fwd"
    type {
      tensor_type {
        elem_type: 1
        shape {
          dim {
            dim_param: "N"
          }
          dim {
            dim_value: 2048
          }
          dim {
            dim_value: 7
          }
          dim {
            dim_value: 7
          }
        }
      }
    }
  }
  value_info {
    name: "resnetv17_stage4_batchnorm3_fwd"
    type {
      tensor_type {
        elem_type: 1
        shape {
          dim {
            dim_param: "N"
          }
          dim {
            dim_value: 2048
          }
          dim {
            dim_value: 7
          }
          dim {
            dim_value: 7
          }
        }
      }
    }
  }
  value_info {
    name: "resnetv17_stage4__plus0"
    type {
      tensor_type {
        elem_type: 1
        shape {
          dim {
            dim_param: "N"
          }
          dim {
            dim_value: 2048
          }
          dim {
            dim_value: 7
          }
          dim {
            dim_value: 7
          }
        }
      }
    }
  }
  value_info {
    name: "resnetv17_stage4_activation0"
    type {
      tensor_type {
        elem_type: 1
        shape {
          dim {
            dim_param: "N"
          }
          dim {
            dim_value: 2048
          }
          dim {
            dim_value: 7
          }
          dim {
            dim_value: 7
          }
        }
      }
    }
  }
  value_info {
    name: "resnetv17_stage4_conv4_fwd"
    type {
      tensor_type {
        elem_type: 1
        shape {
          dim {
            dim_param: "N"
          }
          dim {
            dim_value: 512
          }
          dim {
            dim_value: 7
          }
          dim {
            dim_value: 7
          }
        }
      }
    }
  }
  value_info {
    name: "resnetv17_stage4_batchnorm4_fwd"
    type {
      tensor_type {
        elem_type: 1
        shape {
          dim {
            dim_param: "N"
          }
          dim {
            dim_value: 512
          }
          dim {
            dim_value: 7
          }
          dim {
            dim_value: 7
          }
        }
      }
    }
  }
  value_info {
    name: "resnetv17_stage4_relu2_fwd"
    type {
      tensor_type {
        elem_type: 1
        shape {
          dim {
            dim_param: "N"
          }
          dim {
            dim_value: 512
          }
          dim {
            dim_value: 7
          }
          dim {
            dim_value: 7
          }
        }
      }
    }
  }
  value_info {
    name: "resnetv17_stage4_conv5_fwd"
    type {
      tensor_type {
        elem_type: 1
        shape {
          dim {
            dim_param: "N"
          }
          dim {
            dim_value: 512
          }
          dim {
            dim_value: 7
          }
          dim {
            dim_value: 7
          }
        }
      }
    }
  }
  value_info {
    name: "resnetv17_stage4_batchnorm5_fwd"
    type {
      tensor_type {
        elem_type: 1
        shape {
          dim {
            dim_param: "N"
          }
          dim {
            dim_value: 512
          }
          dim {
            dim_value: 7
          }
          dim {
            dim_value: 7
          }
        }
      }
    }
  }
  value_info {
    name: "resnetv17_stage4_relu3_fwd"
    type {
      tensor_type {
        elem_type: 1
        shape {
          dim {
            dim_param: "N"
          }
          dim {
            dim_value: 512
          }
          dim {
            dim_value: 7
          }
          dim {
            dim_value: 7
          }
        }
      }
    }
  }
  value_info {
    name: "resnetv17_stage4_conv6_fwd"
    type {
      tensor_type {
        elem_type: 1
        shape {
          dim {
            dim_param: "N"
          }
          dim {
            dim_value: 2048
          }
          dim {
            dim_value: 7
          }
          dim {
            dim_value: 7
          }
        }
      }
    }
  }
  value_info {
    name: "resnetv17_stage4_batchnorm6_fwd"
    type {
      tensor_type {
        elem_type: 1
        shape {
          dim {
            dim_param: "N"
          }
          dim {
            dim_value: 2048
          }
          dim {
            dim_value: 7
          }
          dim {
            dim_value: 7
          }
        }
      }
    }
  }
  value_info {
    name: "resnetv17_stage4__plus1"
    type {
      tensor_type {
        elem_type: 1
        shape {
          dim {
            dim_param: "N"
          }
          dim {
            dim_value: 2048
          }
          dim {
            dim_value: 7
          }
          dim {
            dim_value: 7
          }
        }
      }
    }
  }
  value_info {
    name: "resnetv17_stage4_activation1"
    type {
      tensor_type {
        elem_type: 1
        shape {
          dim {
            dim_param: "N"
          }
          dim {
            dim_value: 2048
          }
          dim {
            dim_value: 7
          }
          dim {
            dim_value: 7
          }
        }
      }
    }
  }
  value_info {
    name: "resnetv17_stage4_conv7_fwd"
    type {
      tensor_type {
        elem_type: 1
        shape {
          dim {
            dim_param: "N"
          }
          dim {
            dim_value: 512
          }
          dim {
            dim_value: 7
          }
          dim {
            dim_value: 7
          }
        }
      }
    }
  }
  value_info {
    name: "resnetv17_stage4_batchnorm7_fwd"
    type {
      tensor_type {
        elem_type: 1
        shape {
          dim {
            dim_param: "N"
          }
          dim {
            dim_value: 512
          }
          dim {
            dim_value: 7
          }
          dim {
            dim_value: 7
          }
        }
      }
    }
  }
  value_info {
    name: "resnetv17_stage4_relu4_fwd"
    type {
      tensor_type {
        elem_type: 1
        shape {
          dim {
            dim_param: "N"
          }
          dim {
            dim_value: 512
          }
          dim {
            dim_value: 7
          }
          dim {
            dim_value: 7
          }
        }
      }
    }
  }
  value_info {
    name: "resnetv17_stage4_conv8_fwd"
    type {
      tensor_type {
        elem_type: 1
        shape {
          dim {
            dim_param: "N"
          }
          dim {
            dim_value: 512
          }
          dim {
            dim_value: 7
          }
          dim {
            dim_value: 7
          }
        }
      }
    }
  }
  value_info {
    name: "resnetv17_stage4_batchnorm8_fwd"
    type {
      tensor_type {
        elem_type: 1
        shape {
          dim {
            dim_param: "N"
          }
          dim {
            dim_value: 512
          }
          dim {
            dim_value: 7
          }
          dim {
            dim_value: 7
          }
        }
      }
    }
  }
  value_info {
    name: "resnetv17_stage4_relu5_fwd"
    type {
      tensor_type {
        elem_type: 1
        shape {
          dim {
            dim_param: "N"
          }
          dim {
            dim_value: 512
          }
          dim {
            dim_value: 7
          }
          dim {
            dim_value: 7
          }
        }
      }
    }
  }
  value_info {
    name: "resnetv17_stage4_conv9_fwd"
    type {
      tensor_type {
        elem_type: 1
        shape {
          dim {
            dim_param: "N"
          }
          dim {
            dim_value: 2048
          }
          dim {
            dim_value: 7
          }
          dim {
            dim_value: 7
          }
        }
      }
    }
  }
  value_info {
    name: "resnetv17_stage4_batchnorm9_fwd"
    type {
      tensor_type {
        elem_type: 1
        shape {
          dim {
            dim_param: "N"
          }
          dim {
            dim_value: 2048
          }
          dim {
            dim_value: 7
          }
          dim {
            dim_value: 7
          }
        }
      }
    }
  }
  value_info {
    name: "resnetv17_stage4__plus2"
    type {
      tensor_type {
        elem_type: 1
        shape {
          dim {
            dim_param: "N"
          }
          dim {
            dim_value: 2048
          }
          dim {
            dim_value: 7
          }
          dim {
            dim_value: 7
          }
        }
      }
    }
  }
  value_info {
    name: "resnetv17_stage4_activation2"
    type {
      tensor_type {
        elem_type: 1
        shape {
          dim {
            dim_param: "N"
          }
          dim {
            dim_value: 2048
          }
          dim {
            dim_value: 7
          }
          dim {
            dim_value: 7
          }
        }
      }
    }
  }
  value_info {
    name: "resnetv17_pool1_fwd"
    type {
      tensor_type {
        elem_type: 1
        shape {
          dim {
            dim_param: "N"
          }
          dim {
            dim_value: 2048
          }
          dim {
            dim_value: 1
          }
          dim {
            dim_value: 1
          }
        }
      }
    }
  }
  value_info {
    name: "flatten_473"
    type {
      tensor_type {
        elem_type: 1
        shape {
          dim {
            dim_param: "N"
          }
          dim {
            dim_value: 2048
          }
        }
      }
    }
  }
}
opset_import {
  domain: ""
  version: 12
}
