ir_version: 6
producer_name: "pytorch"
producer_version: "1.6"
graph {
  node {
    input: "input"
    input: "backbones.ResNet101FPN.features.conv1.weight"
    output: "663"
    name: "Conv_0"
    op_type: "Conv"
    attribute {
      name: "dilations"
      ints: 1
      ints: 1
      type: INTS
    }
    attribute {
      name: "group"
      i: 1
      type: INT
    }
    attribute {
      name: "kernel_shape"
      ints: 7
      ints: 7
      type: INTS
    }
    attribute {
      name: "pads"
      ints: 3
      ints: 3
      ints: 3
      ints: 3
      type: INTS
    }
    attribute {
      name: "strides"
      ints: 2
      ints: 2
      type: INTS
    }
  }
  node {
    input: "663"
    input: "backbones.ResNet101FPN.features.bn1.weight"
    input: "backbones.ResNet101FPN.features.bn1.bias"
    input: "backbones.ResNet101FPN.features.bn1.running_mean"
    input: "backbones.ResNet101FPN.features.bn1.running_var"
    output: "664"
    name: "BatchNormalization_1"
    op_type: "BatchNormalization"
    attribute {
      name: "epsilon"
      f: 1e-05
      type: FLOAT
    }
    attribute {
      name: "momentum"
      f: 0.9
      type: FLOAT
    }
  }
  node {
    input: "664"
    output: "665"
    name: "Relu_2"
    op_type: "Relu"
  }
  node {
    input: "665"
    output: "666"
    name: "MaxPool_3"
    op_type: "MaxPool"
    attribute {
      name: "kernel_shape"
      ints: 3
      ints: 3
      type: INTS
    }
    attribute {
      name: "pads"
      ints: 1
      ints: 1
      ints: 1
      ints: 1
      type: INTS
    }
    attribute {
      name: "strides"
      ints: 2
      ints: 2
      type: INTS
    }
  }
  node {
    input: "666"
    input: "backbones.ResNet101FPN.features.layer1.0.conv1.weight"
    output: "667"
    name: "Conv_4"
    op_type: "Conv"
    attribute {
      name: "dilations"
      ints: 1
      ints: 1
      type: INTS
    }
    attribute {
      name: "group"
      i: 1
      type: INT
    }
    attribute {
      name: "kernel_shape"
      ints: 1
      ints: 1
      type: INTS
    }
    attribute {
      name: "pads"
      ints: 0
      ints: 0
      ints: 0
      ints: 0
      type: INTS
    }
    attribute {
      name: "strides"
      ints: 1
      ints: 1
      type: INTS
    }
  }
  node {
    input: "667"
    input: "backbones.ResNet101FPN.features.layer1.0.bn1.weight"
    input: "backbones.ResNet101FPN.features.layer1.0.bn1.bias"
    input: "backbones.ResNet101FPN.features.layer1.0.bn1.running_mean"
    input: "backbones.ResNet101FPN.features.layer1.0.bn1.running_var"
    output: "668"
    name: "BatchNormalization_5"
    op_type: "BatchNormalization"
    attribute {
      name: "epsilon"
      f: 1e-05
      type: FLOAT
    }
    attribute {
      name: "momentum"
      f: 0.9
      type: FLOAT
    }
  }
  node {
    input: "668"
    output: "669"
    name: "Relu_6"
    op_type: "Relu"
  }
  node {
    input: "669"
    input: "backbones.ResNet101FPN.features.layer1.0.conv2.weight"
    output: "670"
    name: "Conv_7"
    op_type: "Conv"
    attribute {
      name: "dilations"
      ints: 1
      ints: 1
      type: INTS
    }
    attribute {
      name: "group"
      i: 1
      type: INT
    }
    attribute {
      name: "kernel_shape"
      ints: 3
      ints: 3
      type: INTS
    }
    attribute {
      name: "pads"
      ints: 1
      ints: 1
      ints: 1
      ints: 1
      type: INTS
    }
    attribute {
      name: "strides"
      ints: 1
      ints: 1
      type: INTS
    }
  }
  node {
    input: "670"
    input: "backbones.ResNet101FPN.features.layer1.0.bn2.weight"
    input: "backbones.ResNet101FPN.features.layer1.0.bn2.bias"
    input: "backbones.ResNet101FPN.features.layer1.0.bn2.running_mean"
    input: "backbones.ResNet101FPN.features.layer1.0.bn2.running_var"
    output: "671"
    name: "BatchNormalization_8"
    op_type: "BatchNormalization"
    attribute {
      name: "epsilon"
      f: 1e-05
      type: FLOAT
    }
    attribute {
      name: "momentum"
      f: 0.9
      type: FLOAT
    }
  }
  node {
    input: "671"
    output: "672"
    name: "Relu_9"
    op_type: "Relu"
  }
  node {
    input: "672"
    input: "backbones.ResNet101FPN.features.layer1.0.conv3.weight"
    output: "673"
    name: "Conv_10"
    op_type: "Conv"
    attribute {
      name: "dilations"
      ints: 1
      ints: 1
      type: INTS
    }
    attribute {
      name: "group"
      i: 1
      type: INT
    }
    attribute {
      name: "kernel_shape"
      ints: 1
      ints: 1
      type: INTS
    }
    attribute {
      name: "pads"
      ints: 0
      ints: 0
      ints: 0
      ints: 0
      type: INTS
    }
    attribute {
      name: "strides"
      ints: 1
      ints: 1
      type: INTS
    }
  }
  node {
    input: "673"
    input: "backbones.ResNet101FPN.features.layer1.0.bn3.weight"
    input: "backbones.ResNet101FPN.features.layer1.0.bn3.bias"
    input: "backbones.ResNet101FPN.features.layer1.0.bn3.running_mean"
    input: "backbones.ResNet101FPN.features.layer1.0.bn3.running_var"
    output: "674"
    name: "BatchNormalization_11"
    op_type: "BatchNormalization"
    attribute {
      name: "epsilon"
      f: 1e-05
      type: FLOAT
    }
    attribute {
      name: "momentum"
      f: 0.9
      type: FLOAT
    }
  }
  node {
    input: "666"
    input: "backbones.ResNet101FPN.features.layer1.0.downsample.0.weight"
    output: "675"
    name: "Conv_12"
    op_type: "Conv"
    attribute {
      name: "dilations"
      ints: 1
      ints: 1
      type: INTS
    }
    attribute {
      name: "group"
      i: 1
      type: INT
    }
    attribute {
      name: "kernel_shape"
      ints: 1
      ints: 1
      type: INTS
    }
    attribute {
      name: "pads"
      ints: 0
      ints: 0
      ints: 0
      ints: 0
      type: INTS
    }
    attribute {
      name: "strides"
      ints: 1
      ints: 1
      type: INTS
    }
  }
  node {
    input: "675"
    input: "backbones.ResNet101FPN.features.layer1.0.downsample.1.weight"
    input: "backbones.ResNet101FPN.features.layer1.0.downsample.1.bias"
    input: "backbones.ResNet101FPN.features.layer1.0.downsample.1.running_mean"
    input: "backbones.ResNet101FPN.features.layer1.0.downsample.1.running_var"
    output: "676"
    name: "BatchNormalization_13"
    op_type: "BatchNormalization"
    attribute {
      name: "epsilon"
      f: 1e-05
      type: FLOAT
    }
    attribute {
      name: "momentum"
      f: 0.9
      type: FLOAT
    }
  }
  node {
    input: "674"
    input: "676"
    output: "677"
    name: "Add_14"
    op_type: "Add"
  }
  node {
    input: "677"
    output: "678"
    name: "Relu_15"
    op_type: "Relu"
  }
  node {
    input: "678"
    input: "backbones.ResNet101FPN.features.layer1.1.conv1.weight"
    output: "679"
    name: "Conv_16"
    op_type: "Conv"
    attribute {
      name: "dilations"
      ints: 1
      ints: 1
      type: INTS
    }
    attribute {
      name: "group"
      i: 1
      type: INT
    }
    attribute {
      name: "kernel_shape"
      ints: 1
      ints: 1
      type: INTS
    }
    attribute {
      name: "pads"
      ints: 0
      ints: 0
      ints: 0
      ints: 0
      type: INTS
    }
    attribute {
      name: "strides"
      ints: 1
      ints: 1
      type: INTS
    }
  }
  node {
    input: "679"
    input: "backbones.ResNet101FPN.features.layer1.1.bn1.weight"
    input: "backbones.ResNet101FPN.features.layer1.1.bn1.bias"
    input: "backbones.ResNet101FPN.features.layer1.1.bn1.running_mean"
    input: "backbones.ResNet101FPN.features.layer1.1.bn1.running_var"
    output: "680"
    name: "BatchNormalization_17"
    op_type: "BatchNormalization"
    attribute {
      name: "epsilon"
      f: 1e-05
      type: FLOAT
    }
    attribute {
      name: "momentum"
      f: 0.9
      type: FLOAT
    }
  }
  node {
    input: "680"
    output: "681"
    name: "Relu_18"
    op_type: "Relu"
  }
  node {
    input: "681"
    input: "backbones.ResNet101FPN.features.layer1.1.conv2.weight"
    output: "682"
    name: "Conv_19"
    op_type: "Conv"
    attribute {
      name: "dilations"
      ints: 1
      ints: 1
      type: INTS
    }
    attribute {
      name: "group"
      i: 1
      type: INT
    }
    attribute {
      name: "kernel_shape"
      ints: 3
      ints: 3
      type: INTS
    }
    attribute {
      name: "pads"
      ints: 1
      ints: 1
      ints: 1
      ints: 1
      type: INTS
    }
    attribute {
      name: "strides"
      ints: 1
      ints: 1
      type: INTS
    }
  }
  node {
    input: "682"
    input: "backbones.ResNet101FPN.features.layer1.1.bn2.weight"
    input: "backbones.ResNet101FPN.features.layer1.1.bn2.bias"
    input: "backbones.ResNet101FPN.features.layer1.1.bn2.running_mean"
    input: "backbones.ResNet101FPN.features.layer1.1.bn2.running_var"
    output: "683"
    name: "BatchNormalization_20"
    op_type: "BatchNormalization"
    attribute {
      name: "epsilon"
      f: 1e-05
      type: FLOAT
    }
    attribute {
      name: "momentum"
      f: 0.9
      type: FLOAT
    }
  }
  node {
    input: "683"
    output: "684"
    name: "Relu_21"
    op_type: "Relu"
  }
  node {
    input: "684"
    input: "backbones.ResNet101FPN.features.layer1.1.conv3.weight"
    output: "685"
    name: "Conv_22"
    op_type: "Conv"
    attribute {
      name: "dilations"
      ints: 1
      ints: 1
      type: INTS
    }
    attribute {
      name: "group"
      i: 1
      type: INT
    }
    attribute {
      name: "kernel_shape"
      ints: 1
      ints: 1
      type: INTS
    }
    attribute {
      name: "pads"
      ints: 0
      ints: 0
      ints: 0
      ints: 0
      type: INTS
    }
    attribute {
      name: "strides"
      ints: 1
      ints: 1
      type: INTS
    }
  }
  node {
    input: "685"
    input: "backbones.ResNet101FPN.features.layer1.1.bn3.weight"
    input: "backbones.ResNet101FPN.features.layer1.1.bn3.bias"
    input: "backbones.ResNet101FPN.features.layer1.1.bn3.running_mean"
    input: "backbones.ResNet101FPN.features.layer1.1.bn3.running_var"
    output: "686"
    name: "BatchNormalization_23"
    op_type: "BatchNormalization"
    attribute {
      name: "epsilon"
      f: 1e-05
      type: FLOAT
    }
    attribute {
      name: "momentum"
      f: 0.9
      type: FLOAT
    }
  }
  node {
    input: "686"
    input: "678"
    output: "687"
    name: "Add_24"
    op_type: "Add"
  }
  node {
    input: "687"
    output: "688"
    name: "Relu_25"
    op_type: "Relu"
  }
  node {
    input: "688"
    input: "backbones.ResNet101FPN.features.layer1.2.conv1.weight"
    output: "689"
    name: "Conv_26"
    op_type: "Conv"
    attribute {
      name: "dilations"
      ints: 1
      ints: 1
      type: INTS
    }
    attribute {
      name: "group"
      i: 1
      type: INT
    }
    attribute {
      name: "kernel_shape"
      ints: 1
      ints: 1
      type: INTS
    }
    attribute {
      name: "pads"
      ints: 0
      ints: 0
      ints: 0
      ints: 0
      type: INTS
    }
    attribute {
      name: "strides"
      ints: 1
      ints: 1
      type: INTS
    }
  }
  node {
    input: "689"
    input: "backbones.ResNet101FPN.features.layer1.2.bn1.weight"
    input: "backbones.ResNet101FPN.features.layer1.2.bn1.bias"
    input: "backbones.ResNet101FPN.features.layer1.2.bn1.running_mean"
    input: "backbones.ResNet101FPN.features.layer1.2.bn1.running_var"
    output: "690"
    name: "BatchNormalization_27"
    op_type: "BatchNormalization"
    attribute {
      name: "epsilon"
      f: 1e-05
      type: FLOAT
    }
    attribute {
      name: "momentum"
      f: 0.9
      type: FLOAT
    }
  }
  node {
    input: "690"
    output: "691"
    name: "Relu_28"
    op_type: "Relu"
  }
  node {
    input: "691"
    input: "backbones.ResNet101FPN.features.layer1.2.conv2.weight"
    output: "692"
    name: "Conv_29"
    op_type: "Conv"
    attribute {
      name: "dilations"
      ints: 1
      ints: 1
      type: INTS
    }
    attribute {
      name: "group"
      i: 1
      type: INT
    }
    attribute {
      name: "kernel_shape"
      ints: 3
      ints: 3
      type: INTS
    }
    attribute {
      name: "pads"
      ints: 1
      ints: 1
      ints: 1
      ints: 1
      type: INTS
    }
    attribute {
      name: "strides"
      ints: 1
      ints: 1
      type: INTS
    }
  }
  node {
    input: "692"
    input: "backbones.ResNet101FPN.features.layer1.2.bn2.weight"
    input: "backbones.ResNet101FPN.features.layer1.2.bn2.bias"
    input: "backbones.ResNet101FPN.features.layer1.2.bn2.running_mean"
    input: "backbones.ResNet101FPN.features.layer1.2.bn2.running_var"
    output: "693"
    name: "BatchNormalization_30"
    op_type: "BatchNormalization"
    attribute {
      name: "epsilon"
      f: 1e-05
      type: FLOAT
    }
    attribute {
      name: "momentum"
      f: 0.9
      type: FLOAT
    }
  }
  node {
    input: "693"
    output: "694"
    name: "Relu_31"
    op_type: "Relu"
  }
  node {
    input: "694"
    input: "backbones.ResNet101FPN.features.layer1.2.conv3.weight"
    output: "695"
    name: "Conv_32"
    op_type: "Conv"
    attribute {
      name: "dilations"
      ints: 1
      ints: 1
      type: INTS
    }
    attribute {
      name: "group"
      i: 1
      type: INT
    }
    attribute {
      name: "kernel_shape"
      ints: 1
      ints: 1
      type: INTS
    }
    attribute {
      name: "pads"
      ints: 0
      ints: 0
      ints: 0
      ints: 0
      type: INTS
    }
    attribute {
      name: "strides"
      ints: 1
      ints: 1
      type: INTS
    }
  }
  node {
    input: "695"
    input: "backbones.ResNet101FPN.features.layer1.2.bn3.weight"
    input: "backbones.ResNet101FPN.features.layer1.2.bn3.bias"
    input: "backbones.ResNet101FPN.features.layer1.2.bn3.running_mean"
    input: "backbones.ResNet101FPN.features.layer1.2.bn3.running_var"
    output: "696"
    name: "BatchNormalization_33"
    op_type: "BatchNormalization"
    attribute {
      name: "epsilon"
      f: 1e-05
      type: FLOAT
    }
    attribute {
      name: "momentum"
      f: 0.9
      type: FLOAT
    }
  }
  node {
    input: "696"
    input: "688"
    output: "697"
    name: "Add_34"
    op_type: "Add"
  }
  node {
    input: "697"
    output: "698"
    name: "Relu_35"
    op_type: "Relu"
  }
  node {
    input: "698"
    input: "backbones.ResNet101FPN.features.layer2.0.conv1.weight"
    output: "699"
    name: "Conv_36"
    op_type: "Conv"
    attribute {
      name: "dilations"
      ints: 1
      ints: 1
      type: INTS
    }
    attribute {
      name: "group"
      i: 1
      type: INT
    }
    attribute {
      name: "kernel_shape"
      ints: 1
      ints: 1
      type: INTS
    }
    attribute {
      name: "pads"
      ints: 0
      ints: 0
      ints: 0
      ints: 0
      type: INTS
    }
    attribute {
      name: "strides"
      ints: 1
      ints: 1
      type: INTS
    }
  }
  node {
    input: "699"
    input: "backbones.ResNet101FPN.features.layer2.0.bn1.weight"
    input: "backbones.ResNet101FPN.features.layer2.0.bn1.bias"
    input: "backbones.ResNet101FPN.features.layer2.0.bn1.running_mean"
    input: "backbones.ResNet101FPN.features.layer2.0.bn1.running_var"
    output: "700"
    name: "BatchNormalization_37"
    op_type: "BatchNormalization"
    attribute {
      name: "epsilon"
      f: 1e-05
      type: FLOAT
    }
    attribute {
      name: "momentum"
      f: 0.9
      type: FLOAT
    }
  }
  node {
    input: "700"
    output: "701"
    name: "Relu_38"
    op_type: "Relu"
  }
  node {
    input: "701"
    input: "backbones.ResNet101FPN.features.layer2.0.conv2.weight"
    output: "702"
    name: "Conv_39"
    op_type: "Conv"
    attribute {
      name: "dilations"
      ints: 1
      ints: 1
      type: INTS
    }
    attribute {
      name: "group"
      i: 1
      type: INT
    }
    attribute {
      name: "kernel_shape"
      ints: 3
      ints: 3
      type: INTS
    }
    attribute {
      name: "pads"
      ints: 1
      ints: 1
      ints: 1
      ints: 1
      type: INTS
    }
    attribute {
      name: "strides"
      ints: 2
      ints: 2
      type: INTS
    }
  }
  node {
    input: "702"
    input: "backbones.ResNet101FPN.features.layer2.0.bn2.weight"
    input: "backbones.ResNet101FPN.features.layer2.0.bn2.bias"
    input: "backbones.ResNet101FPN.features.layer2.0.bn2.running_mean"
    input: "backbones.ResNet101FPN.features.layer2.0.bn2.running_var"
    output: "703"
    name: "BatchNormalization_40"
    op_type: "BatchNormalization"
    attribute {
      name: "epsilon"
      f: 1e-05
      type: FLOAT
    }
    attribute {
      name: "momentum"
      f: 0.9
      type: FLOAT
    }
  }
  node {
    input: "703"
    output: "704"
    name: "Relu_41"
    op_type: "Relu"
  }
  node {
    input: "704"
    input: "backbones.ResNet101FPN.features.layer2.0.conv3.weight"
    output: "705"
    name: "Conv_42"
    op_type: "Conv"
    attribute {
      name: "dilations"
      ints: 1
      ints: 1
      type: INTS
    }
    attribute {
      name: "group"
      i: 1
      type: INT
    }
    attribute {
      name: "kernel_shape"
      ints: 1
      ints: 1
      type: INTS
    }
    attribute {
      name: "pads"
      ints: 0
      ints: 0
      ints: 0
      ints: 0
      type: INTS
    }
    attribute {
      name: "strides"
      ints: 1
      ints: 1
      type: INTS
    }
  }
  node {
    input: "705"
    input: "backbones.ResNet101FPN.features.layer2.0.bn3.weight"
    input: "backbones.ResNet101FPN.features.layer2.0.bn3.bias"
    input: "backbones.ResNet101FPN.features.layer2.0.bn3.running_mean"
    input: "backbones.ResNet101FPN.features.layer2.0.bn3.running_var"
    output: "706"
    name: "BatchNormalization_43"
    op_type: "BatchNormalization"
    attribute {
      name: "epsilon"
      f: 1e-05
      type: FLOAT
    }
    attribute {
      name: "momentum"
      f: 0.9
      type: FLOAT
    }
  }
  node {
    input: "698"
    input: "backbones.ResNet101FPN.features.layer2.0.downsample.0.weight"
    output: "707"
    name: "Conv_44"
    op_type: "Conv"
    attribute {
      name: "dilations"
      ints: 1
      ints: 1
      type: INTS
    }
    attribute {
      name: "group"
      i: 1
      type: INT
    }
    attribute {
      name: "kernel_shape"
      ints: 1
      ints: 1
      type: INTS
    }
    attribute {
      name: "pads"
      ints: 0
      ints: 0
      ints: 0
      ints: 0
      type: INTS
    }
    attribute {
      name: "strides"
      ints: 2
      ints: 2
      type: INTS
    }
  }
  node {
    input: "707"
    input: "backbones.ResNet101FPN.features.layer2.0.downsample.1.weight"
    input: "backbones.ResNet101FPN.features.layer2.0.downsample.1.bias"
    input: "backbones.ResNet101FPN.features.layer2.0.downsample.1.running_mean"
    input: "backbones.ResNet101FPN.features.layer2.0.downsample.1.running_var"
    output: "708"
    name: "BatchNormalization_45"
    op_type: "BatchNormalization"
    attribute {
      name: "epsilon"
      f: 1e-05
      type: FLOAT
    }
    attribute {
      name: "momentum"
      f: 0.9
      type: FLOAT
    }
  }
  node {
    input: "706"
    input: "708"
    output: "709"
    name: "Add_46"
    op_type: "Add"
  }
  node {
    input: "709"
    output: "710"
    name: "Relu_47"
    op_type: "Relu"
  }
  node {
    input: "710"
    input: "backbones.ResNet101FPN.features.layer2.1.conv1.weight"
    output: "711"
    name: "Conv_48"
    op_type: "Conv"
    attribute {
      name: "dilations"
      ints: 1
      ints: 1
      type: INTS
    }
    attribute {
      name: "group"
      i: 1
      type: INT
    }
    attribute {
      name: "kernel_shape"
      ints: 1
      ints: 1
      type: INTS
    }
    attribute {
      name: "pads"
      ints: 0
      ints: 0
      ints: 0
      ints: 0
      type: INTS
    }
    attribute {
      name: "strides"
      ints: 1
      ints: 1
      type: INTS
    }
  }
  node {
    input: "711"
    input: "backbones.ResNet101FPN.features.layer2.1.bn1.weight"
    input: "backbones.ResNet101FPN.features.layer2.1.bn1.bias"
    input: "backbones.ResNet101FPN.features.layer2.1.bn1.running_mean"
    input: "backbones.ResNet101FPN.features.layer2.1.bn1.running_var"
    output: "712"
    name: "BatchNormalization_49"
    op_type: "BatchNormalization"
    attribute {
      name: "epsilon"
      f: 1e-05
      type: FLOAT
    }
    attribute {
      name: "momentum"
      f: 0.9
      type: FLOAT
    }
  }
  node {
    input: "712"
    output: "713"
    name: "Relu_50"
    op_type: "Relu"
  }
  node {
    input: "713"
    input: "backbones.ResNet101FPN.features.layer2.1.conv2.weight"
    output: "714"
    name: "Conv_51"
    op_type: "Conv"
    attribute {
      name: "dilations"
      ints: 1
      ints: 1
      type: INTS
    }
    attribute {
      name: "group"
      i: 1
      type: INT
    }
    attribute {
      name: "kernel_shape"
      ints: 3
      ints: 3
      type: INTS
    }
    attribute {
      name: "pads"
      ints: 1
      ints: 1
      ints: 1
      ints: 1
      type: INTS
    }
    attribute {
      name: "strides"
      ints: 1
      ints: 1
      type: INTS
    }
  }
  node {
    input: "714"
    input: "backbones.ResNet101FPN.features.layer2.1.bn2.weight"
    input: "backbones.ResNet101FPN.features.layer2.1.bn2.bias"
    input: "backbones.ResNet101FPN.features.layer2.1.bn2.running_mean"
    input: "backbones.ResNet101FPN.features.layer2.1.bn2.running_var"
    output: "715"
    name: "BatchNormalization_52"
    op_type: "BatchNormalization"
    attribute {
      name: "epsilon"
      f: 1e-05
      type: FLOAT
    }
    attribute {
      name: "momentum"
      f: 0.9
      type: FLOAT
    }
  }
  node {
    input: "715"
    output: "716"
    name: "Relu_53"
    op_type: "Relu"
  }
  node {
    input: "716"
    input: "backbones.ResNet101FPN.features.layer2.1.conv3.weight"
    output: "717"
    name: "Conv_54"
    op_type: "Conv"
    attribute {
      name: "dilations"
      ints: 1
      ints: 1
      type: INTS
    }
    attribute {
      name: "group"
      i: 1
      type: INT
    }
    attribute {
      name: "kernel_shape"
      ints: 1
      ints: 1
      type: INTS
    }
    attribute {
      name: "pads"
      ints: 0
      ints: 0
      ints: 0
      ints: 0
      type: INTS
    }
    attribute {
      name: "strides"
      ints: 1
      ints: 1
      type: INTS
    }
  }
  node {
    input: "717"
    input: "backbones.ResNet101FPN.features.layer2.1.bn3.weight"
    input: "backbones.ResNet101FPN.features.layer2.1.bn3.bias"
    input: "backbones.ResNet101FPN.features.layer2.1.bn3.running_mean"
    input: "backbones.ResNet101FPN.features.layer2.1.bn3.running_var"
    output: "718"
    name: "BatchNormalization_55"
    op_type: "BatchNormalization"
    attribute {
      name: "epsilon"
      f: 1e-05
      type: FLOAT
    }
    attribute {
      name: "momentum"
      f: 0.9
      type: FLOAT
    }
  }
  node {
    input: "718"
    input: "710"
    output: "719"
    name: "Add_56"
    op_type: "Add"
  }
  node {
    input: "719"
    output: "720"
    name: "Relu_57"
    op_type: "Relu"
  }
  node {
    input: "720"
    input: "backbones.ResNet101FPN.features.layer2.2.conv1.weight"
    output: "721"
    name: "Conv_58"
    op_type: "Conv"
    attribute {
      name: "dilations"
      ints: 1
      ints: 1
      type: INTS
    }
    attribute {
      name: "group"
      i: 1
      type: INT
    }
    attribute {
      name: "kernel_shape"
      ints: 1
      ints: 1
      type: INTS
    }
    attribute {
      name: "pads"
      ints: 0
      ints: 0
      ints: 0
      ints: 0
      type: INTS
    }
    attribute {
      name: "strides"
      ints: 1
      ints: 1
      type: INTS
    }
  }
  node {
    input: "721"
    input: "backbones.ResNet101FPN.features.layer2.2.bn1.weight"
    input: "backbones.ResNet101FPN.features.layer2.2.bn1.bias"
    input: "backbones.ResNet101FPN.features.layer2.2.bn1.running_mean"
    input: "backbones.ResNet101FPN.features.layer2.2.bn1.running_var"
    output: "722"
    name: "BatchNormalization_59"
    op_type: "BatchNormalization"
    attribute {
      name: "epsilon"
      f: 1e-05
      type: FLOAT
    }
    attribute {
      name: "momentum"
      f: 0.9
      type: FLOAT
    }
  }
  node {
    input: "722"
    output: "723"
    name: "Relu_60"
    op_type: "Relu"
  }
  node {
    input: "723"
    input: "backbones.ResNet101FPN.features.layer2.2.conv2.weight"
    output: "724"
    name: "Conv_61"
    op_type: "Conv"
    attribute {
      name: "dilations"
      ints: 1
      ints: 1
      type: INTS
    }
    attribute {
      name: "group"
      i: 1
      type: INT
    }
    attribute {
      name: "kernel_shape"
      ints: 3
      ints: 3
      type: INTS
    }
    attribute {
      name: "pads"
      ints: 1
      ints: 1
      ints: 1
      ints: 1
      type: INTS
    }
    attribute {
      name: "strides"
      ints: 1
      ints: 1
      type: INTS
    }
  }
  node {
    input: "724"
    input: "backbones.ResNet101FPN.features.layer2.2.bn2.weight"
    input: "backbones.ResNet101FPN.features.layer2.2.bn2.bias"
    input: "backbones.ResNet101FPN.features.layer2.2.bn2.running_mean"
    input: "backbones.ResNet101FPN.features.layer2.2.bn2.running_var"
    output: "725"
    name: "BatchNormalization_62"
    op_type: "BatchNormalization"
    attribute {
      name: "epsilon"
      f: 1e-05
      type: FLOAT
    }
    attribute {
      name: "momentum"
      f: 0.9
      type: FLOAT
    }
  }
  node {
    input: "725"
    output: "726"
    name: "Relu_63"
    op_type: "Relu"
  }
  node {
    input: "726"
    input: "backbones.ResNet101FPN.features.layer2.2.conv3.weight"
    output: "727"
    name: "Conv_64"
    op_type: "Conv"
    attribute {
      name: "dilations"
      ints: 1
      ints: 1
      type: INTS
    }
    attribute {
      name: "group"
      i: 1
      type: INT
    }
    attribute {
      name: "kernel_shape"
      ints: 1
      ints: 1
      type: INTS
    }
    attribute {
      name: "pads"
      ints: 0
      ints: 0
      ints: 0
      ints: 0
      type: INTS
    }
    attribute {
      name: "strides"
      ints: 1
      ints: 1
      type: INTS
    }
  }
  node {
    input: "727"
    input: "backbones.ResNet101FPN.features.layer2.2.bn3.weight"
    input: "backbones.ResNet101FPN.features.layer2.2.bn3.bias"
    input: "backbones.ResNet101FPN.features.layer2.2.bn3.running_mean"
    input: "backbones.ResNet101FPN.features.layer2.2.bn3.running_var"
    output: "728"
    name: "BatchNormalization_65"
    op_type: "BatchNormalization"
    attribute {
      name: "epsilon"
      f: 1e-05
      type: FLOAT
    }
    attribute {
      name: "momentum"
      f: 0.9
      type: FLOAT
    }
  }
  node {
    input: "728"
    input: "720"
    output: "729"
    name: "Add_66"
    op_type: "Add"
  }
  node {
    input: "729"
    output: "730"
    name: "Relu_67"
    op_type: "Relu"
  }
  node {
    input: "730"
    input: "backbones.ResNet101FPN.features.layer2.3.conv1.weight"
    output: "731"
    name: "Conv_68"
    op_type: "Conv"
    attribute {
      name: "dilations"
      ints: 1
      ints: 1
      type: INTS
    }
    attribute {
      name: "group"
      i: 1
      type: INT
    }
    attribute {
      name: "kernel_shape"
      ints: 1
      ints: 1
      type: INTS
    }
    attribute {
      name: "pads"
      ints: 0
      ints: 0
      ints: 0
      ints: 0
      type: INTS
    }
    attribute {
      name: "strides"
      ints: 1
      ints: 1
      type: INTS
    }
  }
  node {
    input: "731"
    input: "backbones.ResNet101FPN.features.layer2.3.bn1.weight"
    input: "backbones.ResNet101FPN.features.layer2.3.bn1.bias"
    input: "backbones.ResNet101FPN.features.layer2.3.bn1.running_mean"
    input: "backbones.ResNet101FPN.features.layer2.3.bn1.running_var"
    output: "732"
    name: "BatchNormalization_69"
    op_type: "BatchNormalization"
    attribute {
      name: "epsilon"
      f: 1e-05
      type: FLOAT
    }
    attribute {
      name: "momentum"
      f: 0.9
      type: FLOAT
    }
  }
  node {
    input: "732"
    output: "733"
    name: "Relu_70"
    op_type: "Relu"
  }
  node {
    input: "733"
    input: "backbones.ResNet101FPN.features.layer2.3.conv2.weight"
    output: "734"
    name: "Conv_71"
    op_type: "Conv"
    attribute {
      name: "dilations"
      ints: 1
      ints: 1
      type: INTS
    }
    attribute {
      name: "group"
      i: 1
      type: INT
    }
    attribute {
      name: "kernel_shape"
      ints: 3
      ints: 3
      type: INTS
    }
    attribute {
      name: "pads"
      ints: 1
      ints: 1
      ints: 1
      ints: 1
      type: INTS
    }
    attribute {
      name: "strides"
      ints: 1
      ints: 1
      type: INTS
    }
  }
  node {
    input: "734"
    input: "backbones.ResNet101FPN.features.layer2.3.bn2.weight"
    input: "backbones.ResNet101FPN.features.layer2.3.bn2.bias"
    input: "backbones.ResNet101FPN.features.layer2.3.bn2.running_mean"
    input: "backbones.ResNet101FPN.features.layer2.3.bn2.running_var"
    output: "735"
    name: "BatchNormalization_72"
    op_type: "BatchNormalization"
    attribute {
      name: "epsilon"
      f: 1e-05
      type: FLOAT
    }
    attribute {
      name: "momentum"
      f: 0.9
      type: FLOAT
    }
  }
  node {
    input: "735"
    output: "736"
    name: "Relu_73"
    op_type: "Relu"
  }
  node {
    input: "736"
    input: "backbones.ResNet101FPN.features.layer2.3.conv3.weight"
    output: "737"
    name: "Conv_74"
    op_type: "Conv"
    attribute {
      name: "dilations"
      ints: 1
      ints: 1
      type: INTS
    }
    attribute {
      name: "group"
      i: 1
      type: INT
    }
    attribute {
      name: "kernel_shape"
      ints: 1
      ints: 1
      type: INTS
    }
    attribute {
      name: "pads"
      ints: 0
      ints: 0
      ints: 0
      ints: 0
      type: INTS
    }
    attribute {
      name: "strides"
      ints: 1
      ints: 1
      type: INTS
    }
  }
  node {
    input: "737"
    input: "backbones.ResNet101FPN.features.layer2.3.bn3.weight"
    input: "backbones.ResNet101FPN.features.layer2.3.bn3.bias"
    input: "backbones.ResNet101FPN.features.layer2.3.bn3.running_mean"
    input: "backbones.ResNet101FPN.features.layer2.3.bn3.running_var"
    output: "738"
    name: "BatchNormalization_75"
    op_type: "BatchNormalization"
    attribute {
      name: "epsilon"
      f: 1e-05
      type: FLOAT
    }
    attribute {
      name: "momentum"
      f: 0.9
      type: FLOAT
    }
  }
  node {
    input: "738"
    input: "730"
    output: "739"
    name: "Add_76"
    op_type: "Add"
  }
  node {
    input: "739"
    output: "740"
    name: "Relu_77"
    op_type: "Relu"
  }
  node {
    input: "740"
    input: "backbones.ResNet101FPN.features.layer3.0.conv1.weight"
    output: "741"
    name: "Conv_78"
    op_type: "Conv"
    attribute {
      name: "dilations"
      ints: 1
      ints: 1
      type: INTS
    }
    attribute {
      name: "group"
      i: 1
      type: INT
    }
    attribute {
      name: "kernel_shape"
      ints: 1
      ints: 1
      type: INTS
    }
    attribute {
      name: "pads"
      ints: 0
      ints: 0
      ints: 0
      ints: 0
      type: INTS
    }
    attribute {
      name: "strides"
      ints: 1
      ints: 1
      type: INTS
    }
  }
  node {
    input: "741"
    input: "backbones.ResNet101FPN.features.layer3.0.bn1.weight"
    input: "backbones.ResNet101FPN.features.layer3.0.bn1.bias"
    input: "backbones.ResNet101FPN.features.layer3.0.bn1.running_mean"
    input: "backbones.ResNet101FPN.features.layer3.0.bn1.running_var"
    output: "742"
    name: "BatchNormalization_79"
    op_type: "BatchNormalization"
    attribute {
      name: "epsilon"
      f: 1e-05
      type: FLOAT
    }
    attribute {
      name: "momentum"
      f: 0.9
      type: FLOAT
    }
  }
  node {
    input: "742"
    output: "743"
    name: "Relu_80"
    op_type: "Relu"
  }
  node {
    input: "743"
    input: "backbones.ResNet101FPN.features.layer3.0.conv2.weight"
    output: "744"
    name: "Conv_81"
    op_type: "Conv"
    attribute {
      name: "dilations"
      ints: 1
      ints: 1
      type: INTS
    }
    attribute {
      name: "group"
      i: 1
      type: INT
    }
    attribute {
      name: "kernel_shape"
      ints: 3
      ints: 3
      type: INTS
    }
    attribute {
      name: "pads"
      ints: 1
      ints: 1
      ints: 1
      ints: 1
      type: INTS
    }
    attribute {
      name: "strides"
      ints: 2
      ints: 2
      type: INTS
    }
  }
  node {
    input: "744"
    input: "backbones.ResNet101FPN.features.layer3.0.bn2.weight"
    input: "backbones.ResNet101FPN.features.layer3.0.bn2.bias"
    input: "backbones.ResNet101FPN.features.layer3.0.bn2.running_mean"
    input: "backbones.ResNet101FPN.features.layer3.0.bn2.running_var"
    output: "745"
    name: "BatchNormalization_82"
    op_type: "BatchNormalization"
    attribute {
      name: "epsilon"
      f: 1e-05
      type: FLOAT
    }
    attribute {
      name: "momentum"
      f: 0.9
      type: FLOAT
    }
  }
  node {
    input: "745"
    output: "746"
    name: "Relu_83"
    op_type: "Relu"
  }
  node {
    input: "746"
    input: "backbones.ResNet101FPN.features.layer3.0.conv3.weight"
    output: "747"
    name: "Conv_84"
    op_type: "Conv"
    attribute {
      name: "dilations"
      ints: 1
      ints: 1
      type: INTS
    }
    attribute {
      name: "group"
      i: 1
      type: INT
    }
    attribute {
      name: "kernel_shape"
      ints: 1
      ints: 1
      type: INTS
    }
    attribute {
      name: "pads"
      ints: 0
      ints: 0
      ints: 0
      ints: 0
      type: INTS
    }
    attribute {
      name: "strides"
      ints: 1
      ints: 1
      type: INTS
    }
  }
  node {
    input: "747"
    input: "backbones.ResNet101FPN.features.layer3.0.bn3.weight"
    input: "backbones.ResNet101FPN.features.layer3.0.bn3.bias"
    input: "backbones.ResNet101FPN.features.layer3.0.bn3.running_mean"
    input: "backbones.ResNet101FPN.features.layer3.0.bn3.running_var"
    output: "748"
    name: "BatchNormalization_85"
    op_type: "BatchNormalization"
    attribute {
      name: "epsilon"
      f: 1e-05
      type: FLOAT
    }
    attribute {
      name: "momentum"
      f: 0.9
      type: FLOAT
    }
  }
  node {
    input: "740"
    input: "backbones.ResNet101FPN.features.layer3.0.downsample.0.weight"
    output: "749"
    name: "Conv_86"
    op_type: "Conv"
    attribute {
      name: "dilations"
      ints: 1
      ints: 1
      type: INTS
    }
    attribute {
      name: "group"
      i: 1
      type: INT
    }
    attribute {
      name: "kernel_shape"
      ints: 1
      ints: 1
      type: INTS
    }
    attribute {
      name: "pads"
      ints: 0
      ints: 0
      ints: 0
      ints: 0
      type: INTS
    }
    attribute {
      name: "strides"
      ints: 2
      ints: 2
      type: INTS
    }
  }
  node {
    input: "749"
    input: "backbones.ResNet101FPN.features.layer3.0.downsample.1.weight"
    input: "backbones.ResNet101FPN.features.layer3.0.downsample.1.bias"
    input: "backbones.ResNet101FPN.features.layer3.0.downsample.1.running_mean"
    input: "backbones.ResNet101FPN.features.layer3.0.downsample.1.running_var"
    output: "750"
    name: "BatchNormalization_87"
    op_type: "BatchNormalization"
    attribute {
      name: "epsilon"
      f: 1e-05
      type: FLOAT
    }
    attribute {
      name: "momentum"
      f: 0.9
      type: FLOAT
    }
  }
  node {
    input: "748"
    input: "750"
    output: "751"
    name: "Add_88"
    op_type: "Add"
  }
  node {
    input: "751"
    output: "752"
    name: "Relu_89"
    op_type: "Relu"
  }
  node {
    input: "752"
    input: "backbones.ResNet101FPN.features.layer3.1.conv1.weight"
    output: "753"
    name: "Conv_90"
    op_type: "Conv"
    attribute {
      name: "dilations"
      ints: 1
      ints: 1
      type: INTS
    }
    attribute {
      name: "group"
      i: 1
      type: INT
    }
    attribute {
      name: "kernel_shape"
      ints: 1
      ints: 1
      type: INTS
    }
    attribute {
      name: "pads"
      ints: 0
      ints: 0
      ints: 0
      ints: 0
      type: INTS
    }
    attribute {
      name: "strides"
      ints: 1
      ints: 1
      type: INTS
    }
  }
  node {
    input: "753"
    input: "backbones.ResNet101FPN.features.layer3.1.bn1.weight"
    input: "backbones.ResNet101FPN.features.layer3.1.bn1.bias"
    input: "backbones.ResNet101FPN.features.layer3.1.bn1.running_mean"
    input: "backbones.ResNet101FPN.features.layer3.1.bn1.running_var"
    output: "754"
    name: "BatchNormalization_91"
    op_type: "BatchNormalization"
    attribute {
      name: "epsilon"
      f: 1e-05
      type: FLOAT
    }
    attribute {
      name: "momentum"
      f: 0.9
      type: FLOAT
    }
  }
  node {
    input: "754"
    output: "755"
    name: "Relu_92"
    op_type: "Relu"
  }
  node {
    input: "755"
    input: "backbones.ResNet101FPN.features.layer3.1.conv2.weight"
    output: "756"
    name: "Conv_93"
    op_type: "Conv"
    attribute {
      name: "dilations"
      ints: 1
      ints: 1
      type: INTS
    }
    attribute {
      name: "group"
      i: 1
      type: INT
    }
    attribute {
      name: "kernel_shape"
      ints: 3
      ints: 3
      type: INTS
    }
    attribute {
      name: "pads"
      ints: 1
      ints: 1
      ints: 1
      ints: 1
      type: INTS
    }
    attribute {
      name: "strides"
      ints: 1
      ints: 1
      type: INTS
    }
  }
  node {
    input: "756"
    input: "backbones.ResNet101FPN.features.layer3.1.bn2.weight"
    input: "backbones.ResNet101FPN.features.layer3.1.bn2.bias"
    input: "backbones.ResNet101FPN.features.layer3.1.bn2.running_mean"
    input: "backbones.ResNet101FPN.features.layer3.1.bn2.running_var"
    output: "757"
    name: "BatchNormalization_94"
    op_type: "BatchNormalization"
    attribute {
      name: "epsilon"
      f: 1e-05
      type: FLOAT
    }
    attribute {
      name: "momentum"
      f: 0.9
      type: FLOAT
    }
  }
  node {
    input: "757"
    output: "758"
    name: "Relu_95"
    op_type: "Relu"
  }
  node {
    input: "758"
    input: "backbones.ResNet101FPN.features.layer3.1.conv3.weight"
    output: "759"
    name: "Conv_96"
    op_type: "Conv"
    attribute {
      name: "dilations"
      ints: 1
      ints: 1
      type: INTS
    }
    attribute {
      name: "group"
      i: 1
      type: INT
    }
    attribute {
      name: "kernel_shape"
      ints: 1
      ints: 1
      type: INTS
    }
    attribute {
      name: "pads"
      ints: 0
      ints: 0
      ints: 0
      ints: 0
      type: INTS
    }
    attribute {
      name: "strides"
      ints: 1
      ints: 1
      type: INTS
    }
  }
  node {
    input: "759"
    input: "backbones.ResNet101FPN.features.layer3.1.bn3.weight"
    input: "backbones.ResNet101FPN.features.layer3.1.bn3.bias"
    input: "backbones.ResNet101FPN.features.layer3.1.bn3.running_mean"
    input: "backbones.ResNet101FPN.features.layer3.1.bn3.running_var"
    output: "760"
    name: "BatchNormalization_97"
    op_type: "BatchNormalization"
    attribute {
      name: "epsilon"
      f: 1e-05
      type: FLOAT
    }
    attribute {
      name: "momentum"
      f: 0.9
      type: FLOAT
    }
  }
  node {
    input: "760"
    input: "752"
    output: "761"
    name: "Add_98"
    op_type: "Add"
  }
  node {
    input: "761"
    output: "762"
    name: "Relu_99"
    op_type: "Relu"
  }
  node {
    input: "762"
    input: "backbones.ResNet101FPN.features.layer3.2.conv1.weight"
    output: "763"
    name: "Conv_100"
    op_type: "Conv"
    attribute {
      name: "dilations"
      ints: 1
      ints: 1
      type: INTS
    }
    attribute {
      name: "group"
      i: 1
      type: INT
    }
    attribute {
      name: "kernel_shape"
      ints: 1
      ints: 1
      type: INTS
    }
    attribute {
      name: "pads"
      ints: 0
      ints: 0
      ints: 0
      ints: 0
      type: INTS
    }
    attribute {
      name: "strides"
      ints: 1
      ints: 1
      type: INTS
    }
  }
  node {
    input: "763"
    input: "backbones.ResNet101FPN.features.layer3.2.bn1.weight"
    input: "backbones.ResNet101FPN.features.layer3.2.bn1.bias"
    input: "backbones.ResNet101FPN.features.layer3.2.bn1.running_mean"
    input: "backbones.ResNet101FPN.features.layer3.2.bn1.running_var"
    output: "764"
    name: "BatchNormalization_101"
    op_type: "BatchNormalization"
    attribute {
      name: "epsilon"
      f: 1e-05
      type: FLOAT
    }
    attribute {
      name: "momentum"
      f: 0.9
      type: FLOAT
    }
  }
  node {
    input: "764"
    output: "765"
    name: "Relu_102"
    op_type: "Relu"
  }
  node {
    input: "765"
    input: "backbones.ResNet101FPN.features.layer3.2.conv2.weight"
    output: "766"
    name: "Conv_103"
    op_type: "Conv"
    attribute {
      name: "dilations"
      ints: 1
      ints: 1
      type: INTS
    }
    attribute {
      name: "group"
      i: 1
      type: INT
    }
    attribute {
      name: "kernel_shape"
      ints: 3
      ints: 3
      type: INTS
    }
    attribute {
      name: "pads"
      ints: 1
      ints: 1
      ints: 1
      ints: 1
      type: INTS
    }
    attribute {
      name: "strides"
      ints: 1
      ints: 1
      type: INTS
    }
  }
  node {
    input: "766"
    input: "backbones.ResNet101FPN.features.layer3.2.bn2.weight"
    input: "backbones.ResNet101FPN.features.layer3.2.bn2.bias"
    input: "backbones.ResNet101FPN.features.layer3.2.bn2.running_mean"
    input: "backbones.ResNet101FPN.features.layer3.2.bn2.running_var"
    output: "767"
    name: "BatchNormalization_104"
    op_type: "BatchNormalization"
    attribute {
      name: "epsilon"
      f: 1e-05
      type: FLOAT
    }
    attribute {
      name: "momentum"
      f: 0.9
      type: FLOAT
    }
  }
  node {
    input: "767"
    output: "768"
    name: "Relu_105"
    op_type: "Relu"
  }
  node {
    input: "768"
    input: "backbones.ResNet101FPN.features.layer3.2.conv3.weight"
    output: "769"
    name: "Conv_106"
    op_type: "Conv"
    attribute {
      name: "dilations"
      ints: 1
      ints: 1
      type: INTS
    }
    attribute {
      name: "group"
      i: 1
      type: INT
    }
    attribute {
      name: "kernel_shape"
      ints: 1
      ints: 1
      type: INTS
    }
    attribute {
      name: "pads"
      ints: 0
      ints: 0
      ints: 0
      ints: 0
      type: INTS
    }
    attribute {
      name: "strides"
      ints: 1
      ints: 1
      type: INTS
    }
  }
  node {
    input: "769"
    input: "backbones.ResNet101FPN.features.layer3.2.bn3.weight"
    input: "backbones.ResNet101FPN.features.layer3.2.bn3.bias"
    input: "backbones.ResNet101FPN.features.layer3.2.bn3.running_mean"
    input: "backbones.ResNet101FPN.features.layer3.2.bn3.running_var"
    output: "770"
    name: "BatchNormalization_107"
    op_type: "BatchNormalization"
    attribute {
      name: "epsilon"
      f: 1e-05
      type: FLOAT
    }
    attribute {
      name: "momentum"
      f: 0.9
      type: FLOAT
    }
  }
  node {
    input: "770"
    input: "762"
    output: "771"
    name: "Add_108"
    op_type: "Add"
  }
  node {
    input: "771"
    output: "772"
    name: "Relu_109"
    op_type: "Relu"
  }
  node {
    input: "772"
    input: "backbones.ResNet101FPN.features.layer3.3.conv1.weight"
    output: "773"
    name: "Conv_110"
    op_type: "Conv"
    attribute {
      name: "dilations"
      ints: 1
      ints: 1
      type: INTS
    }
    attribute {
      name: "group"
      i: 1
      type: INT
    }
    attribute {
      name: "kernel_shape"
      ints: 1
      ints: 1
      type: INTS
    }
    attribute {
      name: "pads"
      ints: 0
      ints: 0
      ints: 0
      ints: 0
      type: INTS
    }
    attribute {
      name: "strides"
      ints: 1
      ints: 1
      type: INTS
    }
  }
  node {
    input: "773"
    input: "backbones.ResNet101FPN.features.layer3.3.bn1.weight"
    input: "backbones.ResNet101FPN.features.layer3.3.bn1.bias"
    input: "backbones.ResNet101FPN.features.layer3.3.bn1.running_mean"
    input: "backbones.ResNet101FPN.features.layer3.3.bn1.running_var"
    output: "774"
    name: "BatchNormalization_111"
    op_type: "BatchNormalization"
    attribute {
      name: "epsilon"
      f: 1e-05
      type: FLOAT
    }
    attribute {
      name: "momentum"
      f: 0.9
      type: FLOAT
    }
  }
  node {
    input: "774"
    output: "775"
    name: "Relu_112"
    op_type: "Relu"
  }
  node {
    input: "775"
    input: "backbones.ResNet101FPN.features.layer3.3.conv2.weight"
    output: "776"
    name: "Conv_113"
    op_type: "Conv"
    attribute {
      name: "dilations"
      ints: 1
      ints: 1
      type: INTS
    }
    attribute {
      name: "group"
      i: 1
      type: INT
    }
    attribute {
      name: "kernel_shape"
      ints: 3
      ints: 3
      type: INTS
    }
    attribute {
      name: "pads"
      ints: 1
      ints: 1
      ints: 1
      ints: 1
      type: INTS
    }
    attribute {
      name: "strides"
      ints: 1
      ints: 1
      type: INTS
    }
  }
  node {
    input: "776"
    input: "backbones.ResNet101FPN.features.layer3.3.bn2.weight"
    input: "backbones.ResNet101FPN.features.layer3.3.bn2.bias"
    input: "backbones.ResNet101FPN.features.layer3.3.bn2.running_mean"
    input: "backbones.ResNet101FPN.features.layer3.3.bn2.running_var"
    output: "777"
    name: "BatchNormalization_114"
    op_type: "BatchNormalization"
    attribute {
      name: "epsilon"
      f: 1e-05
      type: FLOAT
    }
    attribute {
      name: "momentum"
      f: 0.9
      type: FLOAT
    }
  }
  node {
    input: "777"
    output: "778"
    name: "Relu_115"
    op_type: "Relu"
  }
  node {
    input: "778"
    input: "backbones.ResNet101FPN.features.layer3.3.conv3.weight"
    output: "779"
    name: "Conv_116"
    op_type: "Conv"
    attribute {
      name: "dilations"
      ints: 1
      ints: 1
      type: INTS
    }
    attribute {
      name: "group"
      i: 1
      type: INT
    }
    attribute {
      name: "kernel_shape"
      ints: 1
      ints: 1
      type: INTS
    }
    attribute {
      name: "pads"
      ints: 0
      ints: 0
      ints: 0
      ints: 0
      type: INTS
    }
    attribute {
      name: "strides"
      ints: 1
      ints: 1
      type: INTS
    }
  }
  node {
    input: "779"
    input: "backbones.ResNet101FPN.features.layer3.3.bn3.weight"
    input: "backbones.ResNet101FPN.features.layer3.3.bn3.bias"
    input: "backbones.ResNet101FPN.features.layer3.3.bn3.running_mean"
    input: "backbones.ResNet101FPN.features.layer3.3.bn3.running_var"
    output: "780"
    name: "BatchNormalization_117"
    op_type: "BatchNormalization"
    attribute {
      name: "epsilon"
      f: 1e-05
      type: FLOAT
    }
    attribute {
      name: "momentum"
      f: 0.9
      type: FLOAT
    }
  }
  node {
    input: "780"
    input: "772"
    output: "781"
    name: "Add_118"
    op_type: "Add"
  }
  node {
    input: "781"
    output: "782"
    name: "Relu_119"
    op_type: "Relu"
  }
  node {
    input: "782"
    input: "backbones.ResNet101FPN.features.layer3.4.conv1.weight"
    output: "783"
    name: "Conv_120"
    op_type: "Conv"
    attribute {
      name: "dilations"
      ints: 1
      ints: 1
      type: INTS
    }
    attribute {
      name: "group"
      i: 1
      type: INT
    }
    attribute {
      name: "kernel_shape"
      ints: 1
      ints: 1
      type: INTS
    }
    attribute {
      name: "pads"
      ints: 0
      ints: 0
      ints: 0
      ints: 0
      type: INTS
    }
    attribute {
      name: "strides"
      ints: 1
      ints: 1
      type: INTS
    }
  }
  node {
    input: "783"
    input: "backbones.ResNet101FPN.features.layer3.4.bn1.weight"
    input: "backbones.ResNet101FPN.features.layer3.4.bn1.bias"
    input: "backbones.ResNet101FPN.features.layer3.4.bn1.running_mean"
    input: "backbones.ResNet101FPN.features.layer3.4.bn1.running_var"
    output: "784"
    name: "BatchNormalization_121"
    op_type: "BatchNormalization"
    attribute {
      name: "epsilon"
      f: 1e-05
      type: FLOAT
    }
    attribute {
      name: "momentum"
      f: 0.9
      type: FLOAT
    }
  }
  node {
    input: "784"
    output: "785"
    name: "Relu_122"
    op_type: "Relu"
  }
  node {
    input: "785"
    input: "backbones.ResNet101FPN.features.layer3.4.conv2.weight"
    output: "786"
    name: "Conv_123"
    op_type: "Conv"
    attribute {
      name: "dilations"
      ints: 1
      ints: 1
      type: INTS
    }
    attribute {
      name: "group"
      i: 1
      type: INT
    }
    attribute {
      name: "kernel_shape"
      ints: 3
      ints: 3
      type: INTS
    }
    attribute {
      name: "pads"
      ints: 1
      ints: 1
      ints: 1
      ints: 1
      type: INTS
    }
    attribute {
      name: "strides"
      ints: 1
      ints: 1
      type: INTS
    }
  }
  node {
    input: "786"
    input: "backbones.ResNet101FPN.features.layer3.4.bn2.weight"
    input: "backbones.ResNet101FPN.features.layer3.4.bn2.bias"
    input: "backbones.ResNet101FPN.features.layer3.4.bn2.running_mean"
    input: "backbones.ResNet101FPN.features.layer3.4.bn2.running_var"
    output: "787"
    name: "BatchNormalization_124"
    op_type: "BatchNormalization"
    attribute {
      name: "epsilon"
      f: 1e-05
      type: FLOAT
    }
    attribute {
      name: "momentum"
      f: 0.9
      type: FLOAT
    }
  }
  node {
    input: "787"
    output: "788"
    name: "Relu_125"
    op_type: "Relu"
  }
  node {
    input: "788"
    input: "backbones.ResNet101FPN.features.layer3.4.conv3.weight"
    output: "789"
    name: "Conv_126"
    op_type: "Conv"
    attribute {
      name: "dilations"
      ints: 1
      ints: 1
      type: INTS
    }
    attribute {
      name: "group"
      i: 1
      type: INT
    }
    attribute {
      name: "kernel_shape"
      ints: 1
      ints: 1
      type: INTS
    }
    attribute {
      name: "pads"
      ints: 0
      ints: 0
      ints: 0
      ints: 0
      type: INTS
    }
    attribute {
      name: "strides"
      ints: 1
      ints: 1
      type: INTS
    }
  }
  node {
    input: "789"
    input: "backbones.ResNet101FPN.features.layer3.4.bn3.weight"
    input: "backbones.ResNet101FPN.features.layer3.4.bn3.bias"
    input: "backbones.ResNet101FPN.features.layer3.4.bn3.running_mean"
    input: "backbones.ResNet101FPN.features.layer3.4.bn3.running_var"
    output: "790"
    name: "BatchNormalization_127"
    op_type: "BatchNormalization"
    attribute {
      name: "epsilon"
      f: 1e-05
      type: FLOAT
    }
    attribute {
      name: "momentum"
      f: 0.9
      type: FLOAT
    }
  }
  node {
    input: "790"
    input: "782"
    output: "791"
    name: "Add_128"
    op_type: "Add"
  }
  node {
    input: "791"
    output: "792"
    name: "Relu_129"
    op_type: "Relu"
  }
  node {
    input: "792"
    input: "backbones.ResNet101FPN.features.layer3.5.conv1.weight"
    output: "793"
    name: "Conv_130"
    op_type: "Conv"
    attribute {
      name: "dilations"
      ints: 1
      ints: 1
      type: INTS
    }
    attribute {
      name: "group"
      i: 1
      type: INT
    }
    attribute {
      name: "kernel_shape"
      ints: 1
      ints: 1
      type: INTS
    }
    attribute {
      name: "pads"
      ints: 0
      ints: 0
      ints: 0
      ints: 0
      type: INTS
    }
    attribute {
      name: "strides"
      ints: 1
      ints: 1
      type: INTS
    }
  }
  node {
    input: "793"
    input: "backbones.ResNet101FPN.features.layer3.5.bn1.weight"
    input: "backbones.ResNet101FPN.features.layer3.5.bn1.bias"
    input: "backbones.ResNet101FPN.features.layer3.5.bn1.running_mean"
    input: "backbones.ResNet101FPN.features.layer3.5.bn1.running_var"
    output: "794"
    name: "BatchNormalization_131"
    op_type: "BatchNormalization"
    attribute {
      name: "epsilon"
      f: 1e-05
      type: FLOAT
    }
    attribute {
      name: "momentum"
      f: 0.9
      type: FLOAT
    }
  }
  node {
    input: "794"
    output: "795"
    name: "Relu_132"
    op_type: "Relu"
  }
  node {
    input: "795"
    input: "backbones.ResNet101FPN.features.layer3.5.conv2.weight"
    output: "796"
    name: "Conv_133"
    op_type: "Conv"
    attribute {
      name: "dilations"
      ints: 1
      ints: 1
      type: INTS
    }
    attribute {
      name: "group"
      i: 1
      type: INT
    }
    attribute {
      name: "kernel_shape"
      ints: 3
      ints: 3
      type: INTS
    }
    attribute {
      name: "pads"
      ints: 1
      ints: 1
      ints: 1
      ints: 1
      type: INTS
    }
    attribute {
      name: "strides"
      ints: 1
      ints: 1
      type: INTS
    }
  }
  node {
    input: "796"
    input: "backbones.ResNet101FPN.features.layer3.5.bn2.weight"
    input: "backbones.ResNet101FPN.features.layer3.5.bn2.bias"
    input: "backbones.ResNet101FPN.features.layer3.5.bn2.running_mean"
    input: "backbones.ResNet101FPN.features.layer3.5.bn2.running_var"
    output: "797"
    name: "BatchNormalization_134"
    op_type: "BatchNormalization"
    attribute {
      name: "epsilon"
      f: 1e-05
      type: FLOAT
    }
    attribute {
      name: "momentum"
      f: 0.9
      type: FLOAT
    }
  }
  node {
    input: "797"
    output: "798"
    name: "Relu_135"
    op_type: "Relu"
  }
  node {
    input: "798"
    input: "backbones.ResNet101FPN.features.layer3.5.conv3.weight"
    output: "799"
    name: "Conv_136"
    op_type: "Conv"
    attribute {
      name: "dilations"
      ints: 1
      ints: 1
      type: INTS
    }
    attribute {
      name: "group"
      i: 1
      type: INT
    }
    attribute {
      name: "kernel_shape"
      ints: 1
      ints: 1
      type: INTS
    }
    attribute {
      name: "pads"
      ints: 0
      ints: 0
      ints: 0
      ints: 0
      type: INTS
    }
    attribute {
      name: "strides"
      ints: 1
      ints: 1
      type: INTS
    }
  }
  node {
    input: "799"
    input: "backbones.ResNet101FPN.features.layer3.5.bn3.weight"
    input: "backbones.ResNet101FPN.features.layer3.5.bn3.bias"
    input: "backbones.ResNet101FPN.features.layer3.5.bn3.running_mean"
    input: "backbones.ResNet101FPN.features.layer3.5.bn3.running_var"
    output: "800"
    name: "BatchNormalization_137"
    op_type: "BatchNormalization"
    attribute {
      name: "epsilon"
      f: 1e-05
      type: FLOAT
    }
    attribute {
      name: "momentum"
      f: 0.9
      type: FLOAT
    }
  }
  node {
    input: "800"
    input: "792"
    output: "801"
    name: "Add_138"
    op_type: "Add"
  }
  node {
    input: "801"
    output: "802"
    name: "Relu_139"
    op_type: "Relu"
  }
  node {
    input: "802"
    input: "backbones.ResNet101FPN.features.layer3.6.conv1.weight"
    output: "803"
    name: "Conv_140"
    op_type: "Conv"
    attribute {
      name: "dilations"
      ints: 1
      ints: 1
      type: INTS
    }
    attribute {
      name: "group"
      i: 1
      type: INT
    }
    attribute {
      name: "kernel_shape"
      ints: 1
      ints: 1
      type: INTS
    }
    attribute {
      name: "pads"
      ints: 0
      ints: 0
      ints: 0
      ints: 0
      type: INTS
    }
    attribute {
      name: "strides"
      ints: 1
      ints: 1
      type: INTS
    }
  }
  node {
    input: "803"
    input: "backbones.ResNet101FPN.features.layer3.6.bn1.weight"
    input: "backbones.ResNet101FPN.features.layer3.6.bn1.bias"
    input: "backbones.ResNet101FPN.features.layer3.6.bn1.running_mean"
    input: "backbones.ResNet101FPN.features.layer3.6.bn1.running_var"
    output: "804"
    name: "BatchNormalization_141"
    op_type: "BatchNormalization"
    attribute {
      name: "epsilon"
      f: 1e-05
      type: FLOAT
    }
    attribute {
      name: "momentum"
      f: 0.9
      type: FLOAT
    }
  }
  node {
    input: "804"
    output: "805"
    name: "Relu_142"
    op_type: "Relu"
  }
  node {
    input: "805"
    input: "backbones.ResNet101FPN.features.layer3.6.conv2.weight"
    output: "806"
    name: "Conv_143"
    op_type: "Conv"
    attribute {
      name: "dilations"
      ints: 1
      ints: 1
      type: INTS
    }
    attribute {
      name: "group"
      i: 1
      type: INT
    }
    attribute {
      name: "kernel_shape"
      ints: 3
      ints: 3
      type: INTS
    }
    attribute {
      name: "pads"
      ints: 1
      ints: 1
      ints: 1
      ints: 1
      type: INTS
    }
    attribute {
      name: "strides"
      ints: 1
      ints: 1
      type: INTS
    }
  }
  node {
    input: "806"
    input: "backbones.ResNet101FPN.features.layer3.6.bn2.weight"
    input: "backbones.ResNet101FPN.features.layer3.6.bn2.bias"
    input: "backbones.ResNet101FPN.features.layer3.6.bn2.running_mean"
    input: "backbones.ResNet101FPN.features.layer3.6.bn2.running_var"
    output: "807"
    name: "BatchNormalization_144"
    op_type: "BatchNormalization"
    attribute {
      name: "epsilon"
      f: 1e-05
      type: FLOAT
    }
    attribute {
      name: "momentum"
      f: 0.9
      type: FLOAT
    }
  }
  node {
    input: "807"
    output: "808"
    name: "Relu_145"
    op_type: "Relu"
  }
  node {
    input: "808"
    input: "backbones.ResNet101FPN.features.layer3.6.conv3.weight"
    output: "809"
    name: "Conv_146"
    op_type: "Conv"
    attribute {
      name: "dilations"
      ints: 1
      ints: 1
      type: INTS
    }
    attribute {
      name: "group"
      i: 1
      type: INT
    }
    attribute {
      name: "kernel_shape"
      ints: 1
      ints: 1
      type: INTS
    }
    attribute {
      name: "pads"
      ints: 0
      ints: 0
      ints: 0
      ints: 0
      type: INTS
    }
    attribute {
      name: "strides"
      ints: 1
      ints: 1
      type: INTS
    }
  }
  node {
    input: "809"
    input: "backbones.ResNet101FPN.features.layer3.6.bn3.weight"
    input: "backbones.ResNet101FPN.features.layer3.6.bn3.bias"
    input: "backbones.ResNet101FPN.features.layer3.6.bn3.running_mean"
    input: "backbones.ResNet101FPN.features.layer3.6.bn3.running_var"
    output: "810"
    name: "BatchNormalization_147"
    op_type: "BatchNormalization"
    attribute {
      name: "epsilon"
      f: 1e-05
      type: FLOAT
    }
    attribute {
      name: "momentum"
      f: 0.9
      type: FLOAT
    }
  }
  node {
    input: "810"
    input: "802"
    output: "811"
    name: "Add_148"
    op_type: "Add"
  }
  node {
    input: "811"
    output: "812"
    name: "Relu_149"
    op_type: "Relu"
  }
  node {
    input: "812"
    input: "backbones.ResNet101FPN.features.layer3.7.conv1.weight"
    output: "813"
    name: "Conv_150"
    op_type: "Conv"
    attribute {
      name: "dilations"
      ints: 1
      ints: 1
      type: INTS
    }
    attribute {
      name: "group"
      i: 1
      type: INT
    }
    attribute {
      name: "kernel_shape"
      ints: 1
      ints: 1
      type: INTS
    }
    attribute {
      name: "pads"
      ints: 0
      ints: 0
      ints: 0
      ints: 0
      type: INTS
    }
    attribute {
      name: "strides"
      ints: 1
      ints: 1
      type: INTS
    }
  }
  node {
    input: "813"
    input: "backbones.ResNet101FPN.features.layer3.7.bn1.weight"
    input: "backbones.ResNet101FPN.features.layer3.7.bn1.bias"
    input: "backbones.ResNet101FPN.features.layer3.7.bn1.running_mean"
    input: "backbones.ResNet101FPN.features.layer3.7.bn1.running_var"
    output: "814"
    name: "BatchNormalization_151"
    op_type: "BatchNormalization"
    attribute {
      name: "epsilon"
      f: 1e-05
      type: FLOAT
    }
    attribute {
      name: "momentum"
      f: 0.9
      type: FLOAT
    }
  }
  node {
    input: "814"
    output: "815"
    name: "Relu_152"
    op_type: "Relu"
  }
  node {
    input: "815"
    input: "backbones.ResNet101FPN.features.layer3.7.conv2.weight"
    output: "816"
    name: "Conv_153"
    op_type: "Conv"
    attribute {
      name: "dilations"
      ints: 1
      ints: 1
      type: INTS
    }
    attribute {
      name: "group"
      i: 1
      type: INT
    }
    attribute {
      name: "kernel_shape"
      ints: 3
      ints: 3
      type: INTS
    }
    attribute {
      name: "pads"
      ints: 1
      ints: 1
      ints: 1
      ints: 1
      type: INTS
    }
    attribute {
      name: "strides"
      ints: 1
      ints: 1
      type: INTS
    }
  }
  node {
    input: "816"
    input: "backbones.ResNet101FPN.features.layer3.7.bn2.weight"
    input: "backbones.ResNet101FPN.features.layer3.7.bn2.bias"
    input: "backbones.ResNet101FPN.features.layer3.7.bn2.running_mean"
    input: "backbones.ResNet101FPN.features.layer3.7.bn2.running_var"
    output: "817"
    name: "BatchNormalization_154"
    op_type: "BatchNormalization"
    attribute {
      name: "epsilon"
      f: 1e-05
      type: FLOAT
    }
    attribute {
      name: "momentum"
      f: 0.9
      type: FLOAT
    }
  }
  node {
    input: "817"
    output: "818"
    name: "Relu_155"
    op_type: "Relu"
  }
  node {
    input: "818"
    input: "backbones.ResNet101FPN.features.layer3.7.conv3.weight"
    output: "819"
    name: "Conv_156"
    op_type: "Conv"
    attribute {
      name: "dilations"
      ints: 1
      ints: 1
      type: INTS
    }
    attribute {
      name: "group"
      i: 1
      type: INT
    }
    attribute {
      name: "kernel_shape"
      ints: 1
      ints: 1
      type: INTS
    }
    attribute {
      name: "pads"
      ints: 0
      ints: 0
      ints: 0
      ints: 0
      type: INTS
    }
    attribute {
      name: "strides"
      ints: 1
      ints: 1
      type: INTS
    }
  }
  node {
    input: "819"
    input: "backbones.ResNet101FPN.features.layer3.7.bn3.weight"
    input: "backbones.ResNet101FPN.features.layer3.7.bn3.bias"
    input: "backbones.ResNet101FPN.features.layer3.7.bn3.running_mean"
    input: "backbones.ResNet101FPN.features.layer3.7.bn3.running_var"
    output: "820"
    name: "BatchNormalization_157"
    op_type: "BatchNormalization"
    attribute {
      name: "epsilon"
      f: 1e-05
      type: FLOAT
    }
    attribute {
      name: "momentum"
      f: 0.9
      type: FLOAT
    }
  }
  node {
    input: "820"
    input: "812"
    output: "821"
    name: "Add_158"
    op_type: "Add"
  }
  node {
    input: "821"
    output: "822"
    name: "Relu_159"
    op_type: "Relu"
  }
  node {
    input: "822"
    input: "backbones.ResNet101FPN.features.layer3.8.conv1.weight"
    output: "823"
    name: "Conv_160"
    op_type: "Conv"
    attribute {
      name: "dilations"
      ints: 1
      ints: 1
      type: INTS
    }
    attribute {
      name: "group"
      i: 1
      type: INT
    }
    attribute {
      name: "kernel_shape"
      ints: 1
      ints: 1
      type: INTS
    }
    attribute {
      name: "pads"
      ints: 0
      ints: 0
      ints: 0
      ints: 0
      type: INTS
    }
    attribute {
      name: "strides"
      ints: 1
      ints: 1
      type: INTS
    }
  }
  node {
    input: "823"
    input: "backbones.ResNet101FPN.features.layer3.8.bn1.weight"
    input: "backbones.ResNet101FPN.features.layer3.8.bn1.bias"
    input: "backbones.ResNet101FPN.features.layer3.8.bn1.running_mean"
    input: "backbones.ResNet101FPN.features.layer3.8.bn1.running_var"
    output: "824"
    name: "BatchNormalization_161"
    op_type: "BatchNormalization"
    attribute {
      name: "epsilon"
      f: 1e-05
      type: FLOAT
    }
    attribute {
      name: "momentum"
      f: 0.9
      type: FLOAT
    }
  }
  node {
    input: "824"
    output: "825"
    name: "Relu_162"
    op_type: "Relu"
  }
  node {
    input: "825"
    input: "backbones.ResNet101FPN.features.layer3.8.conv2.weight"
    output: "826"
    name: "Conv_163"
    op_type: "Conv"
    attribute {
      name: "dilations"
      ints: 1
      ints: 1
      type: INTS
    }
    attribute {
      name: "group"
      i: 1
      type: INT
    }
    attribute {
      name: "kernel_shape"
      ints: 3
      ints: 3
      type: INTS
    }
    attribute {
      name: "pads"
      ints: 1
      ints: 1
      ints: 1
      ints: 1
      type: INTS
    }
    attribute {
      name: "strides"
      ints: 1
      ints: 1
      type: INTS
    }
  }
  node {
    input: "826"
    input: "backbones.ResNet101FPN.features.layer3.8.bn2.weight"
    input: "backbones.ResNet101FPN.features.layer3.8.bn2.bias"
    input: "backbones.ResNet101FPN.features.layer3.8.bn2.running_mean"
    input: "backbones.ResNet101FPN.features.layer3.8.bn2.running_var"
    output: "827"
    name: "BatchNormalization_164"
    op_type: "BatchNormalization"
    attribute {
      name: "epsilon"
      f: 1e-05
      type: FLOAT
    }
    attribute {
      name: "momentum"
      f: 0.9
      type: FLOAT
    }
  }
  node {
    input: "827"
    output: "828"
    name: "Relu_165"
    op_type: "Relu"
  }
  node {
    input: "828"
    input: "backbones.ResNet101FPN.features.layer3.8.conv3.weight"
    output: "829"
    name: "Conv_166"
    op_type: "Conv"
    attribute {
      name: "dilations"
      ints: 1
      ints: 1
      type: INTS
    }
    attribute {
      name: "group"
      i: 1
      type: INT
    }
    attribute {
      name: "kernel_shape"
      ints: 1
      ints: 1
      type: INTS
    }
    attribute {
      name: "pads"
      ints: 0
      ints: 0
      ints: 0
      ints: 0
      type: INTS
    }
    attribute {
      name: "strides"
      ints: 1
      ints: 1
      type: INTS
    }
  }
  node {
    input: "829"
    input: "backbones.ResNet101FPN.features.layer3.8.bn3.weight"
    input: "backbones.ResNet101FPN.features.layer3.8.bn3.bias"
    input: "backbones.ResNet101FPN.features.layer3.8.bn3.running_mean"
    input: "backbones.ResNet101FPN.features.layer3.8.bn3.running_var"
    output: "830"
    name: "BatchNormalization_167"
    op_type: "BatchNormalization"
    attribute {
      name: "epsilon"
      f: 1e-05
      type: FLOAT
    }
    attribute {
      name: "momentum"
      f: 0.9
      type: FLOAT
    }
  }
  node {
    input: "830"
    input: "822"
    output: "831"
    name: "Add_168"
    op_type: "Add"
  }
  node {
    input: "831"
    output: "832"
    name: "Relu_169"
    op_type: "Relu"
  }
  node {
    input: "832"
    input: "backbones.ResNet101FPN.features.layer3.9.conv1.weight"
    output: "833"
    name: "Conv_170"
    op_type: "Conv"
    attribute {
      name: "dilations"
      ints: 1
      ints: 1
      type: INTS
    }
    attribute {
      name: "group"
      i: 1
      type: INT
    }
    attribute {
      name: "kernel_shape"
      ints: 1
      ints: 1
      type: INTS
    }
    attribute {
      name: "pads"
      ints: 0
      ints: 0
      ints: 0
      ints: 0
      type: INTS
    }
    attribute {
      name: "strides"
      ints: 1
      ints: 1
      type: INTS
    }
  }
  node {
    input: "833"
    input: "backbones.ResNet101FPN.features.layer3.9.bn1.weight"
    input: "backbones.ResNet101FPN.features.layer3.9.bn1.bias"
    input: "backbones.ResNet101FPN.features.layer3.9.bn1.running_mean"
    input: "backbones.ResNet101FPN.features.layer3.9.bn1.running_var"
    output: "834"
    name: "BatchNormalization_171"
    op_type: "BatchNormalization"
    attribute {
      name: "epsilon"
      f: 1e-05
      type: FLOAT
    }
    attribute {
      name: "momentum"
      f: 0.9
      type: FLOAT
    }
  }
  node {
    input: "834"
    output: "835"
    name: "Relu_172"
    op_type: "Relu"
  }
  node {
    input: "835"
    input: "backbones.ResNet101FPN.features.layer3.9.conv2.weight"
    output: "836"
    name: "Conv_173"
    op_type: "Conv"
    attribute {
      name: "dilations"
      ints: 1
      ints: 1
      type: INTS
    }
    attribute {
      name: "group"
      i: 1
      type: INT
    }
    attribute {
      name: "kernel_shape"
      ints: 3
      ints: 3
      type: INTS
    }
    attribute {
      name: "pads"
      ints: 1
      ints: 1
      ints: 1
      ints: 1
      type: INTS
    }
    attribute {
      name: "strides"
      ints: 1
      ints: 1
      type: INTS
    }
  }
  node {
    input: "836"
    input: "backbones.ResNet101FPN.features.layer3.9.bn2.weight"
    input: "backbones.ResNet101FPN.features.layer3.9.bn2.bias"
    input: "backbones.ResNet101FPN.features.layer3.9.bn2.running_mean"
    input: "backbones.ResNet101FPN.features.layer3.9.bn2.running_var"
    output: "837"
    name: "BatchNormalization_174"
    op_type: "BatchNormalization"
    attribute {
      name: "epsilon"
      f: 1e-05
      type: FLOAT
    }
    attribute {
      name: "momentum"
      f: 0.9
      type: FLOAT
    }
  }
  node {
    input: "837"
    output: "838"
    name: "Relu_175"
    op_type: "Relu"
  }
  node {
    input: "838"
    input: "backbones.ResNet101FPN.features.layer3.9.conv3.weight"
    output: "839"
    name: "Conv_176"
    op_type: "Conv"
    attribute {
      name: "dilations"
      ints: 1
      ints: 1
      type: INTS
    }
    attribute {
      name: "group"
      i: 1
      type: INT
    }
    attribute {
      name: "kernel_shape"
      ints: 1
      ints: 1
      type: INTS
    }
    attribute {
      name: "pads"
      ints: 0
      ints: 0
      ints: 0
      ints: 0
      type: INTS
    }
    attribute {
      name: "strides"
      ints: 1
      ints: 1
      type: INTS
    }
  }
  node {
    input: "839"
    input: "backbones.ResNet101FPN.features.layer3.9.bn3.weight"
    input: "backbones.ResNet101FPN.features.layer3.9.bn3.bias"
    input: "backbones.ResNet101FPN.features.layer3.9.bn3.running_mean"
    input: "backbones.ResNet101FPN.features.layer3.9.bn3.running_var"
    output: "840"
    name: "BatchNormalization_177"
    op_type: "BatchNormalization"
    attribute {
      name: "epsilon"
      f: 1e-05
      type: FLOAT
    }
    attribute {
      name: "momentum"
      f: 0.9
      type: FLOAT
    }
  }
  node {
    input: "840"
    input: "832"
    output: "841"
    name: "Add_178"
    op_type: "Add"
  }
  node {
    input: "841"
    output: "842"
    name: "Relu_179"
    op_type: "Relu"
  }
  node {
    input: "842"
    input: "backbones.ResNet101FPN.features.layer3.10.conv1.weight"
    output: "843"
    name: "Conv_180"
    op_type: "Conv"
    attribute {
      name: "dilations"
      ints: 1
      ints: 1
      type: INTS
    }
    attribute {
      name: "group"
      i: 1
      type: INT
    }
    attribute {
      name: "kernel_shape"
      ints: 1
      ints: 1
      type: INTS
    }
    attribute {
      name: "pads"
      ints: 0
      ints: 0
      ints: 0
      ints: 0
      type: INTS
    }
    attribute {
      name: "strides"
      ints: 1
      ints: 1
      type: INTS
    }
  }
  node {
    input: "843"
    input: "backbones.ResNet101FPN.features.layer3.10.bn1.weight"
    input: "backbones.ResNet101FPN.features.layer3.10.bn1.bias"
    input: "backbones.ResNet101FPN.features.layer3.10.bn1.running_mean"
    input: "backbones.ResNet101FPN.features.layer3.10.bn1.running_var"
    output: "844"
    name: "BatchNormalization_181"
    op_type: "BatchNormalization"
    attribute {
      name: "epsilon"
      f: 1e-05
      type: FLOAT
    }
    attribute {
      name: "momentum"
      f: 0.9
      type: FLOAT
    }
  }
  node {
    input: "844"
    output: "845"
    name: "Relu_182"
    op_type: "Relu"
  }
  node {
    input: "845"
    input: "backbones.ResNet101FPN.features.layer3.10.conv2.weight"
    output: "846"
    name: "Conv_183"
    op_type: "Conv"
    attribute {
      name: "dilations"
      ints: 1
      ints: 1
      type: INTS
    }
    attribute {
      name: "group"
      i: 1
      type: INT
    }
    attribute {
      name: "kernel_shape"
      ints: 3
      ints: 3
      type: INTS
    }
    attribute {
      name: "pads"
      ints: 1
      ints: 1
      ints: 1
      ints: 1
      type: INTS
    }
    attribute {
      name: "strides"
      ints: 1
      ints: 1
      type: INTS
    }
  }
  node {
    input: "846"
    input: "backbones.ResNet101FPN.features.layer3.10.bn2.weight"
    input: "backbones.ResNet101FPN.features.layer3.10.bn2.bias"
    input: "backbones.ResNet101FPN.features.layer3.10.bn2.running_mean"
    input: "backbones.ResNet101FPN.features.layer3.10.bn2.running_var"
    output: "847"
    name: "BatchNormalization_184"
    op_type: "BatchNormalization"
    attribute {
      name: "epsilon"
      f: 1e-05
      type: FLOAT
    }
    attribute {
      name: "momentum"
      f: 0.9
      type: FLOAT
    }
  }
  node {
    input: "847"
    output: "848"
    name: "Relu_185"
    op_type: "Relu"
  }
  node {
    input: "848"
    input: "backbones.ResNet101FPN.features.layer3.10.conv3.weight"
    output: "849"
    name: "Conv_186"
    op_type: "Conv"
    attribute {
      name: "dilations"
      ints: 1
      ints: 1
      type: INTS
    }
    attribute {
      name: "group"
      i: 1
      type: INT
    }
    attribute {
      name: "kernel_shape"
      ints: 1
      ints: 1
      type: INTS
    }
    attribute {
      name: "pads"
      ints: 0
      ints: 0
      ints: 0
      ints: 0
      type: INTS
    }
    attribute {
      name: "strides"
      ints: 1
      ints: 1
      type: INTS
    }
  }
  node {
    input: "849"
    input: "backbones.ResNet101FPN.features.layer3.10.bn3.weight"
    input: "backbones.ResNet101FPN.features.layer3.10.bn3.bias"
    input: "backbones.ResNet101FPN.features.layer3.10.bn3.running_mean"
    input: "backbones.ResNet101FPN.features.layer3.10.bn3.running_var"
    output: "850"
    name: "BatchNormalization_187"
    op_type: "BatchNormalization"
    attribute {
      name: "epsilon"
      f: 1e-05
      type: FLOAT
    }
    attribute {
      name: "momentum"
      f: 0.9
      type: FLOAT
    }
  }
  node {
    input: "850"
    input: "842"
    output: "851"
    name: "Add_188"
    op_type: "Add"
  }
  node {
    input: "851"
    output: "852"
    name: "Relu_189"
    op_type: "Relu"
  }
  node {
    input: "852"
    input: "backbones.ResNet101FPN.features.layer3.11.conv1.weight"
    output: "853"
    name: "Conv_190"
    op_type: "Conv"
    attribute {
      name: "dilations"
      ints: 1
      ints: 1
      type: INTS
    }
    attribute {
      name: "group"
      i: 1
      type: INT
    }
    attribute {
      name: "kernel_shape"
      ints: 1
      ints: 1
      type: INTS
    }
    attribute {
      name: "pads"
      ints: 0
      ints: 0
      ints: 0
      ints: 0
      type: INTS
    }
    attribute {
      name: "strides"
      ints: 1
      ints: 1
      type: INTS
    }
  }
  node {
    input: "853"
    input: "backbones.ResNet101FPN.features.layer3.11.bn1.weight"
    input: "backbones.ResNet101FPN.features.layer3.11.bn1.bias"
    input: "backbones.ResNet101FPN.features.layer3.11.bn1.running_mean"
    input: "backbones.ResNet101FPN.features.layer3.11.bn1.running_var"
    output: "854"
    name: "BatchNormalization_191"
    op_type: "BatchNormalization"
    attribute {
      name: "epsilon"
      f: 1e-05
      type: FLOAT
    }
    attribute {
      name: "momentum"
      f: 0.9
      type: FLOAT
    }
  }
  node {
    input: "854"
    output: "855"
    name: "Relu_192"
    op_type: "Relu"
  }
  node {
    input: "855"
    input: "backbones.ResNet101FPN.features.layer3.11.conv2.weight"
    output: "856"
    name: "Conv_193"
    op_type: "Conv"
    attribute {
      name: "dilations"
      ints: 1
      ints: 1
      type: INTS
    }
    attribute {
      name: "group"
      i: 1
      type: INT
    }
    attribute {
      name: "kernel_shape"
      ints: 3
      ints: 3
      type: INTS
    }
    attribute {
      name: "pads"
      ints: 1
      ints: 1
      ints: 1
      ints: 1
      type: INTS
    }
    attribute {
      name: "strides"
      ints: 1
      ints: 1
      type: INTS
    }
  }
  node {
    input: "856"
    input: "backbones.ResNet101FPN.features.layer3.11.bn2.weight"
    input: "backbones.ResNet101FPN.features.layer3.11.bn2.bias"
    input: "backbones.ResNet101FPN.features.layer3.11.bn2.running_mean"
    input: "backbones.ResNet101FPN.features.layer3.11.bn2.running_var"
    output: "857"
    name: "BatchNormalization_194"
    op_type: "BatchNormalization"
    attribute {
      name: "epsilon"
      f: 1e-05
      type: FLOAT
    }
    attribute {
      name: "momentum"
      f: 0.9
      type: FLOAT
    }
  }
  node {
    input: "857"
    output: "858"
    name: "Relu_195"
    op_type: "Relu"
  }
  node {
    input: "858"
    input: "backbones.ResNet101FPN.features.layer3.11.conv3.weight"
    output: "859"
    name: "Conv_196"
    op_type: "Conv"
    attribute {
      name: "dilations"
      ints: 1
      ints: 1
      type: INTS
    }
    attribute {
      name: "group"
      i: 1
      type: INT
    }
    attribute {
      name: "kernel_shape"
      ints: 1
      ints: 1
      type: INTS
    }
    attribute {
      name: "pads"
      ints: 0
      ints: 0
      ints: 0
      ints: 0
      type: INTS
    }
    attribute {
      name: "strides"
      ints: 1
      ints: 1
      type: INTS
    }
  }
  node {
    input: "859"
    input: "backbones.ResNet101FPN.features.layer3.11.bn3.weight"
    input: "backbones.ResNet101FPN.features.layer3.11.bn3.bias"
    input: "backbones.ResNet101FPN.features.layer3.11.bn3.running_mean"
    input: "backbones.ResNet101FPN.features.layer3.11.bn3.running_var"
    output: "860"
    name: "BatchNormalization_197"
    op_type: "BatchNormalization"
    attribute {
      name: "epsilon"
      f: 1e-05
      type: FLOAT
    }
    attribute {
      name: "momentum"
      f: 0.9
      type: FLOAT
    }
  }
  node {
    input: "860"
    input: "852"
    output: "861"
    name: "Add_198"
    op_type: "Add"
  }
  node {
    input: "861"
    output: "862"
    name: "Relu_199"
    op_type: "Relu"
  }
  node {
    input: "862"
    input: "backbones.ResNet101FPN.features.layer3.12.conv1.weight"
    output: "863"
    name: "Conv_200"
    op_type: "Conv"
    attribute {
      name: "dilations"
      ints: 1
      ints: 1
      type: INTS
    }
    attribute {
      name: "group"
      i: 1
      type: INT
    }
    attribute {
      name: "kernel_shape"
      ints: 1
      ints: 1
      type: INTS
    }
    attribute {
      name: "pads"
      ints: 0
      ints: 0
      ints: 0
      ints: 0
      type: INTS
    }
    attribute {
      name: "strides"
      ints: 1
      ints: 1
      type: INTS
    }
  }
  node {
    input: "863"
    input: "backbones.ResNet101FPN.features.layer3.12.bn1.weight"
    input: "backbones.ResNet101FPN.features.layer3.12.bn1.bias"
    input: "backbones.ResNet101FPN.features.layer3.12.bn1.running_mean"
    input: "backbones.ResNet101FPN.features.layer3.12.bn1.running_var"
    output: "864"
    name: "BatchNormalization_201"
    op_type: "BatchNormalization"
    attribute {
      name: "epsilon"
      f: 1e-05
      type: FLOAT
    }
    attribute {
      name: "momentum"
      f: 0.9
      type: FLOAT
    }
  }
  node {
    input: "864"
    output: "865"
    name: "Relu_202"
    op_type: "Relu"
  }
  node {
    input: "865"
    input: "backbones.ResNet101FPN.features.layer3.12.conv2.weight"
    output: "866"
    name: "Conv_203"
    op_type: "Conv"
    attribute {
      name: "dilations"
      ints: 1
      ints: 1
      type: INTS
    }
    attribute {
      name: "group"
      i: 1
      type: INT
    }
    attribute {
      name: "kernel_shape"
      ints: 3
      ints: 3
      type: INTS
    }
    attribute {
      name: "pads"
      ints: 1
      ints: 1
      ints: 1
      ints: 1
      type: INTS
    }
    attribute {
      name: "strides"
      ints: 1
      ints: 1
      type: INTS
    }
  }
  node {
    input: "866"
    input: "backbones.ResNet101FPN.features.layer3.12.bn2.weight"
    input: "backbones.ResNet101FPN.features.layer3.12.bn2.bias"
    input: "backbones.ResNet101FPN.features.layer3.12.bn2.running_mean"
    input: "backbones.ResNet101FPN.features.layer3.12.bn2.running_var"
    output: "867"
    name: "BatchNormalization_204"
    op_type: "BatchNormalization"
    attribute {
      name: "epsilon"
      f: 1e-05
      type: FLOAT
    }
    attribute {
      name: "momentum"
      f: 0.9
      type: FLOAT
    }
  }
  node {
    input: "867"
    output: "868"
    name: "Relu_205"
    op_type: "Relu"
  }
  node {
    input: "868"
    input: "backbones.ResNet101FPN.features.layer3.12.conv3.weight"
    output: "869"
    name: "Conv_206"
    op_type: "Conv"
    attribute {
      name: "dilations"
      ints: 1
      ints: 1
      type: INTS
    }
    attribute {
      name: "group"
      i: 1
      type: INT
    }
    attribute {
      name: "kernel_shape"
      ints: 1
      ints: 1
      type: INTS
    }
    attribute {
      name: "pads"
      ints: 0
      ints: 0
      ints: 0
      ints: 0
      type: INTS
    }
    attribute {
      name: "strides"
      ints: 1
      ints: 1
      type: INTS
    }
  }
  node {
    input: "869"
    input: "backbones.ResNet101FPN.features.layer3.12.bn3.weight"
    input: "backbones.ResNet101FPN.features.layer3.12.bn3.bias"
    input: "backbones.ResNet101FPN.features.layer3.12.bn3.running_mean"
    input: "backbones.ResNet101FPN.features.layer3.12.bn3.running_var"
    output: "870"
    name: "BatchNormalization_207"
    op_type: "BatchNormalization"
    attribute {
      name: "epsilon"
      f: 1e-05
      type: FLOAT
    }
    attribute {
      name: "momentum"
      f: 0.9
      type: FLOAT
    }
  }
  node {
    input: "870"
    input: "862"
    output: "871"
    name: "Add_208"
    op_type: "Add"
  }
  node {
    input: "871"
    output: "872"
    name: "Relu_209"
    op_type: "Relu"
  }
  node {
    input: "872"
    input: "backbones.ResNet101FPN.features.layer3.13.conv1.weight"
    output: "873"
    name: "Conv_210"
    op_type: "Conv"
    attribute {
      name: "dilations"
      ints: 1
      ints: 1
      type: INTS
    }
    attribute {
      name: "group"
      i: 1
      type: INT
    }
    attribute {
      name: "kernel_shape"
      ints: 1
      ints: 1
      type: INTS
    }
    attribute {
      name: "pads"
      ints: 0
      ints: 0
      ints: 0
      ints: 0
      type: INTS
    }
    attribute {
      name: "strides"
      ints: 1
      ints: 1
      type: INTS
    }
  }
  node {
    input: "873"
    input: "backbones.ResNet101FPN.features.layer3.13.bn1.weight"
    input: "backbones.ResNet101FPN.features.layer3.13.bn1.bias"
    input: "backbones.ResNet101FPN.features.layer3.13.bn1.running_mean"
    input: "backbones.ResNet101FPN.features.layer3.13.bn1.running_var"
    output: "874"
    name: "BatchNormalization_211"
    op_type: "BatchNormalization"
    attribute {
      name: "epsilon"
      f: 1e-05
      type: FLOAT
    }
    attribute {
      name: "momentum"
      f: 0.9
      type: FLOAT
    }
  }
  node {
    input: "874"
    output: "875"
    name: "Relu_212"
    op_type: "Relu"
  }
  node {
    input: "875"
    input: "backbones.ResNet101FPN.features.layer3.13.conv2.weight"
    output: "876"
    name: "Conv_213"
    op_type: "Conv"
    attribute {
      name: "dilations"
      ints: 1
      ints: 1
      type: INTS
    }
    attribute {
      name: "group"
      i: 1
      type: INT
    }
    attribute {
      name: "kernel_shape"
      ints: 3
      ints: 3
      type: INTS
    }
    attribute {
      name: "pads"
      ints: 1
      ints: 1
      ints: 1
      ints: 1
      type: INTS
    }
    attribute {
      name: "strides"
      ints: 1
      ints: 1
      type: INTS
    }
  }
  node {
    input: "876"
    input: "backbones.ResNet101FPN.features.layer3.13.bn2.weight"
    input: "backbones.ResNet101FPN.features.layer3.13.bn2.bias"
    input: "backbones.ResNet101FPN.features.layer3.13.bn2.running_mean"
    input: "backbones.ResNet101FPN.features.layer3.13.bn2.running_var"
    output: "877"
    name: "BatchNormalization_214"
    op_type: "BatchNormalization"
    attribute {
      name: "epsilon"
      f: 1e-05
      type: FLOAT
    }
    attribute {
      name: "momentum"
      f: 0.9
      type: FLOAT
    }
  }
  node {
    input: "877"
    output: "878"
    name: "Relu_215"
    op_type: "Relu"
  }
  node {
    input: "878"
    input: "backbones.ResNet101FPN.features.layer3.13.conv3.weight"
    output: "879"
    name: "Conv_216"
    op_type: "Conv"
    attribute {
      name: "dilations"
      ints: 1
      ints: 1
      type: INTS
    }
    attribute {
      name: "group"
      i: 1
      type: INT
    }
    attribute {
      name: "kernel_shape"
      ints: 1
      ints: 1
      type: INTS
    }
    attribute {
      name: "pads"
      ints: 0
      ints: 0
      ints: 0
      ints: 0
      type: INTS
    }
    attribute {
      name: "strides"
      ints: 1
      ints: 1
      type: INTS
    }
  }
  node {
    input: "879"
    input: "backbones.ResNet101FPN.features.layer3.13.bn3.weight"
    input: "backbones.ResNet101FPN.features.layer3.13.bn3.bias"
    input: "backbones.ResNet101FPN.features.layer3.13.bn3.running_mean"
    input: "backbones.ResNet101FPN.features.layer3.13.bn3.running_var"
    output: "880"
    name: "BatchNormalization_217"
    op_type: "BatchNormalization"
    attribute {
      name: "epsilon"
      f: 1e-05
      type: FLOAT
    }
    attribute {
      name: "momentum"
      f: 0.9
      type: FLOAT
    }
  }
  node {
    input: "880"
    input: "872"
    output: "881"
    name: "Add_218"
    op_type: "Add"
  }
  node {
    input: "881"
    output: "882"
    name: "Relu_219"
    op_type: "Relu"
  }
  node {
    input: "882"
    input: "backbones.ResNet101FPN.features.layer3.14.conv1.weight"
    output: "883"
    name: "Conv_220"
    op_type: "Conv"
    attribute {
      name: "dilations"
      ints: 1
      ints: 1
      type: INTS
    }
    attribute {
      name: "group"
      i: 1
      type: INT
    }
    attribute {
      name: "kernel_shape"
      ints: 1
      ints: 1
      type: INTS
    }
    attribute {
      name: "pads"
      ints: 0
      ints: 0
      ints: 0
      ints: 0
      type: INTS
    }
    attribute {
      name: "strides"
      ints: 1
      ints: 1
      type: INTS
    }
  }
  node {
    input: "883"
    input: "backbones.ResNet101FPN.features.layer3.14.bn1.weight"
    input: "backbones.ResNet101FPN.features.layer3.14.bn1.bias"
    input: "backbones.ResNet101FPN.features.layer3.14.bn1.running_mean"
    input: "backbones.ResNet101FPN.features.layer3.14.bn1.running_var"
    output: "884"
    name: "BatchNormalization_221"
    op_type: "BatchNormalization"
    attribute {
      name: "epsilon"
      f: 1e-05
      type: FLOAT
    }
    attribute {
      name: "momentum"
      f: 0.9
      type: FLOAT
    }
  }
  node {
    input: "884"
    output: "885"
    name: "Relu_222"
    op_type: "Relu"
  }
  node {
    input: "885"
    input: "backbones.ResNet101FPN.features.layer3.14.conv2.weight"
    output: "886"
    name: "Conv_223"
    op_type: "Conv"
    attribute {
      name: "dilations"
      ints: 1
      ints: 1
      type: INTS
    }
    attribute {
      name: "group"
      i: 1
      type: INT
    }
    attribute {
      name: "kernel_shape"
      ints: 3
      ints: 3
      type: INTS
    }
    attribute {
      name: "pads"
      ints: 1
      ints: 1
      ints: 1
      ints: 1
      type: INTS
    }
    attribute {
      name: "strides"
      ints: 1
      ints: 1
      type: INTS
    }
  }
  node {
    input: "886"
    input: "backbones.ResNet101FPN.features.layer3.14.bn2.weight"
    input: "backbones.ResNet101FPN.features.layer3.14.bn2.bias"
    input: "backbones.ResNet101FPN.features.layer3.14.bn2.running_mean"
    input: "backbones.ResNet101FPN.features.layer3.14.bn2.running_var"
    output: "887"
    name: "BatchNormalization_224"
    op_type: "BatchNormalization"
    attribute {
      name: "epsilon"
      f: 1e-05
      type: FLOAT
    }
    attribute {
      name: "momentum"
      f: 0.9
      type: FLOAT
    }
  }
  node {
    input: "887"
    output: "888"
    name: "Relu_225"
    op_type: "Relu"
  }
  node {
    input: "888"
    input: "backbones.ResNet101FPN.features.layer3.14.conv3.weight"
    output: "889"
    name: "Conv_226"
    op_type: "Conv"
    attribute {
      name: "dilations"
      ints: 1
      ints: 1
      type: INTS
    }
    attribute {
      name: "group"
      i: 1
      type: INT
    }
    attribute {
      name: "kernel_shape"
      ints: 1
      ints: 1
      type: INTS
    }
    attribute {
      name: "pads"
      ints: 0
      ints: 0
      ints: 0
      ints: 0
      type: INTS
    }
    attribute {
      name: "strides"
      ints: 1
      ints: 1
      type: INTS
    }
  }
  node {
    input: "889"
    input: "backbones.ResNet101FPN.features.layer3.14.bn3.weight"
    input: "backbones.ResNet101FPN.features.layer3.14.bn3.bias"
    input: "backbones.ResNet101FPN.features.layer3.14.bn3.running_mean"
    input: "backbones.ResNet101FPN.features.layer3.14.bn3.running_var"
    output: "890"
    name: "BatchNormalization_227"
    op_type: "BatchNormalization"
    attribute {
      name: "epsilon"
      f: 1e-05
      type: FLOAT
    }
    attribute {
      name: "momentum"
      f: 0.9
      type: FLOAT
    }
  }
  node {
    input: "890"
    input: "882"
    output: "891"
    name: "Add_228"
    op_type: "Add"
  }
  node {
    input: "891"
    output: "892"
    name: "Relu_229"
    op_type: "Relu"
  }
  node {
    input: "892"
    input: "backbones.ResNet101FPN.features.layer3.15.conv1.weight"
    output: "893"
    name: "Conv_230"
    op_type: "Conv"
    attribute {
      name: "dilations"
      ints: 1
      ints: 1
      type: INTS
    }
    attribute {
      name: "group"
      i: 1
      type: INT
    }
    attribute {
      name: "kernel_shape"
      ints: 1
      ints: 1
      type: INTS
    }
    attribute {
      name: "pads"
      ints: 0
      ints: 0
      ints: 0
      ints: 0
      type: INTS
    }
    attribute {
      name: "strides"
      ints: 1
      ints: 1
      type: INTS
    }
  }
  node {
    input: "893"
    input: "backbones.ResNet101FPN.features.layer3.15.bn1.weight"
    input: "backbones.ResNet101FPN.features.layer3.15.bn1.bias"
    input: "backbones.ResNet101FPN.features.layer3.15.bn1.running_mean"
    input: "backbones.ResNet101FPN.features.layer3.15.bn1.running_var"
    output: "894"
    name: "BatchNormalization_231"
    op_type: "BatchNormalization"
    attribute {
      name: "epsilon"
      f: 1e-05
      type: FLOAT
    }
    attribute {
      name: "momentum"
      f: 0.9
      type: FLOAT
    }
  }
  node {
    input: "894"
    output: "895"
    name: "Relu_232"
    op_type: "Relu"
  }
  node {
    input: "895"
    input: "backbones.ResNet101FPN.features.layer3.15.conv2.weight"
    output: "896"
    name: "Conv_233"
    op_type: "Conv"
    attribute {
      name: "dilations"
      ints: 1
      ints: 1
      type: INTS
    }
    attribute {
      name: "group"
      i: 1
      type: INT
    }
    attribute {
      name: "kernel_shape"
      ints: 3
      ints: 3
      type: INTS
    }
    attribute {
      name: "pads"
      ints: 1
      ints: 1
      ints: 1
      ints: 1
      type: INTS
    }
    attribute {
      name: "strides"
      ints: 1
      ints: 1
      type: INTS
    }
  }
  node {
    input: "896"
    input: "backbones.ResNet101FPN.features.layer3.15.bn2.weight"
    input: "backbones.ResNet101FPN.features.layer3.15.bn2.bias"
    input: "backbones.ResNet101FPN.features.layer3.15.bn2.running_mean"
    input: "backbones.ResNet101FPN.features.layer3.15.bn2.running_var"
    output: "897"
    name: "BatchNormalization_234"
    op_type: "BatchNormalization"
    attribute {
      name: "epsilon"
      f: 1e-05
      type: FLOAT
    }
    attribute {
      name: "momentum"
      f: 0.9
      type: FLOAT
    }
  }
  node {
    input: "897"
    output: "898"
    name: "Relu_235"
    op_type: "Relu"
  }
  node {
    input: "898"
    input: "backbones.ResNet101FPN.features.layer3.15.conv3.weight"
    output: "899"
    name: "Conv_236"
    op_type: "Conv"
    attribute {
      name: "dilations"
      ints: 1
      ints: 1
      type: INTS
    }
    attribute {
      name: "group"
      i: 1
      type: INT
    }
    attribute {
      name: "kernel_shape"
      ints: 1
      ints: 1
      type: INTS
    }
    attribute {
      name: "pads"
      ints: 0
      ints: 0
      ints: 0
      ints: 0
      type: INTS
    }
    attribute {
      name: "strides"
      ints: 1
      ints: 1
      type: INTS
    }
  }
  node {
    input: "899"
    input: "backbones.ResNet101FPN.features.layer3.15.bn3.weight"
    input: "backbones.ResNet101FPN.features.layer3.15.bn3.bias"
    input: "backbones.ResNet101FPN.features.layer3.15.bn3.running_mean"
    input: "backbones.ResNet101FPN.features.layer3.15.bn3.running_var"
    output: "900"
    name: "BatchNormalization_237"
    op_type: "BatchNormalization"
    attribute {
      name: "epsilon"
      f: 1e-05
      type: FLOAT
    }
    attribute {
      name: "momentum"
      f: 0.9
      type: FLOAT
    }
  }
  node {
    input: "900"
    input: "892"
    output: "901"
    name: "Add_238"
    op_type: "Add"
  }
  node {
    input: "901"
    output: "902"
    name: "Relu_239"
    op_type: "Relu"
  }
  node {
    input: "902"
    input: "backbones.ResNet101FPN.features.layer3.16.conv1.weight"
    output: "903"
    name: "Conv_240"
    op_type: "Conv"
    attribute {
      name: "dilations"
      ints: 1
      ints: 1
      type: INTS
    }
    attribute {
      name: "group"
      i: 1
      type: INT
    }
    attribute {
      name: "kernel_shape"
      ints: 1
      ints: 1
      type: INTS
    }
    attribute {
      name: "pads"
      ints: 0
      ints: 0
      ints: 0
      ints: 0
      type: INTS
    }
    attribute {
      name: "strides"
      ints: 1
      ints: 1
      type: INTS
    }
  }
  node {
    input: "903"
    input: "backbones.ResNet101FPN.features.layer3.16.bn1.weight"
    input: "backbones.ResNet101FPN.features.layer3.16.bn1.bias"
    input: "backbones.ResNet101FPN.features.layer3.16.bn1.running_mean"
    input: "backbones.ResNet101FPN.features.layer3.16.bn1.running_var"
    output: "904"
    name: "BatchNormalization_241"
    op_type: "BatchNormalization"
    attribute {
      name: "epsilon"
      f: 1e-05
      type: FLOAT
    }
    attribute {
      name: "momentum"
      f: 0.9
      type: FLOAT
    }
  }
  node {
    input: "904"
    output: "905"
    name: "Relu_242"
    op_type: "Relu"
  }
  node {
    input: "905"
    input: "backbones.ResNet101FPN.features.layer3.16.conv2.weight"
    output: "906"
    name: "Conv_243"
    op_type: "Conv"
    attribute {
      name: "dilations"
      ints: 1
      ints: 1
      type: INTS
    }
    attribute {
      name: "group"
      i: 1
      type: INT
    }
    attribute {
      name: "kernel_shape"
      ints: 3
      ints: 3
      type: INTS
    }
    attribute {
      name: "pads"
      ints: 1
      ints: 1
      ints: 1
      ints: 1
      type: INTS
    }
    attribute {
      name: "strides"
      ints: 1
      ints: 1
      type: INTS
    }
  }
  node {
    input: "906"
    input: "backbones.ResNet101FPN.features.layer3.16.bn2.weight"
    input: "backbones.ResNet101FPN.features.layer3.16.bn2.bias"
    input: "backbones.ResNet101FPN.features.layer3.16.bn2.running_mean"
    input: "backbones.ResNet101FPN.features.layer3.16.bn2.running_var"
    output: "907"
    name: "BatchNormalization_244"
    op_type: "BatchNormalization"
    attribute {
      name: "epsilon"
      f: 1e-05
      type: FLOAT
    }
    attribute {
      name: "momentum"
      f: 0.9
      type: FLOAT
    }
  }
  node {
    input: "907"
    output: "908"
    name: "Relu_245"
    op_type: "Relu"
  }
  node {
    input: "908"
    input: "backbones.ResNet101FPN.features.layer3.16.conv3.weight"
    output: "909"
    name: "Conv_246"
    op_type: "Conv"
    attribute {
      name: "dilations"
      ints: 1
      ints: 1
      type: INTS
    }
    attribute {
      name: "group"
      i: 1
      type: INT
    }
    attribute {
      name: "kernel_shape"
      ints: 1
      ints: 1
      type: INTS
    }
    attribute {
      name: "pads"
      ints: 0
      ints: 0
      ints: 0
      ints: 0
      type: INTS
    }
    attribute {
      name: "strides"
      ints: 1
      ints: 1
      type: INTS
    }
  }
  node {
    input: "909"
    input: "backbones.ResNet101FPN.features.layer3.16.bn3.weight"
    input: "backbones.ResNet101FPN.features.layer3.16.bn3.bias"
    input: "backbones.ResNet101FPN.features.layer3.16.bn3.running_mean"
    input: "backbones.ResNet101FPN.features.layer3.16.bn3.running_var"
    output: "910"
    name: "BatchNormalization_247"
    op_type: "BatchNormalization"
    attribute {
      name: "epsilon"
      f: 1e-05
      type: FLOAT
    }
    attribute {
      name: "momentum"
      f: 0.9
      type: FLOAT
    }
  }
  node {
    input: "910"
    input: "902"
    output: "911"
    name: "Add_248"
    op_type: "Add"
  }
  node {
    input: "911"
    output: "912"
    name: "Relu_249"
    op_type: "Relu"
  }
  node {
    input: "912"
    input: "backbones.ResNet101FPN.features.layer3.17.conv1.weight"
    output: "913"
    name: "Conv_250"
    op_type: "Conv"
    attribute {
      name: "dilations"
      ints: 1
      ints: 1
      type: INTS
    }
    attribute {
      name: "group"
      i: 1
      type: INT
    }
    attribute {
      name: "kernel_shape"
      ints: 1
      ints: 1
      type: INTS
    }
    attribute {
      name: "pads"
      ints: 0
      ints: 0
      ints: 0
      ints: 0
      type: INTS
    }
    attribute {
      name: "strides"
      ints: 1
      ints: 1
      type: INTS
    }
  }
  node {
    input: "913"
    input: "backbones.ResNet101FPN.features.layer3.17.bn1.weight"
    input: "backbones.ResNet101FPN.features.layer3.17.bn1.bias"
    input: "backbones.ResNet101FPN.features.layer3.17.bn1.running_mean"
    input: "backbones.ResNet101FPN.features.layer3.17.bn1.running_var"
    output: "914"
    name: "BatchNormalization_251"
    op_type: "BatchNormalization"
    attribute {
      name: "epsilon"
      f: 1e-05
      type: FLOAT
    }
    attribute {
      name: "momentum"
      f: 0.9
      type: FLOAT
    }
  }
  node {
    input: "914"
    output: "915"
    name: "Relu_252"
    op_type: "Relu"
  }
  node {
    input: "915"
    input: "backbones.ResNet101FPN.features.layer3.17.conv2.weight"
    output: "916"
    name: "Conv_253"
    op_type: "Conv"
    attribute {
      name: "dilations"
      ints: 1
      ints: 1
      type: INTS
    }
    attribute {
      name: "group"
      i: 1
      type: INT
    }
    attribute {
      name: "kernel_shape"
      ints: 3
      ints: 3
      type: INTS
    }
    attribute {
      name: "pads"
      ints: 1
      ints: 1
      ints: 1
      ints: 1
      type: INTS
    }
    attribute {
      name: "strides"
      ints: 1
      ints: 1
      type: INTS
    }
  }
  node {
    input: "916"
    input: "backbones.ResNet101FPN.features.layer3.17.bn2.weight"
    input: "backbones.ResNet101FPN.features.layer3.17.bn2.bias"
    input: "backbones.ResNet101FPN.features.layer3.17.bn2.running_mean"
    input: "backbones.ResNet101FPN.features.layer3.17.bn2.running_var"
    output: "917"
    name: "BatchNormalization_254"
    op_type: "BatchNormalization"
    attribute {
      name: "epsilon"
      f: 1e-05
      type: FLOAT
    }
    attribute {
      name: "momentum"
      f: 0.9
      type: FLOAT
    }
  }
  node {
    input: "917"
    output: "918"
    name: "Relu_255"
    op_type: "Relu"
  }
  node {
    input: "918"
    input: "backbones.ResNet101FPN.features.layer3.17.conv3.weight"
    output: "919"
    name: "Conv_256"
    op_type: "Conv"
    attribute {
      name: "dilations"
      ints: 1
      ints: 1
      type: INTS
    }
    attribute {
      name: "group"
      i: 1
      type: INT
    }
    attribute {
      name: "kernel_shape"
      ints: 1
      ints: 1
      type: INTS
    }
    attribute {
      name: "pads"
      ints: 0
      ints: 0
      ints: 0
      ints: 0
      type: INTS
    }
    attribute {
      name: "strides"
      ints: 1
      ints: 1
      type: INTS
    }
  }
  node {
    input: "919"
    input: "backbones.ResNet101FPN.features.layer3.17.bn3.weight"
    input: "backbones.ResNet101FPN.features.layer3.17.bn3.bias"
    input: "backbones.ResNet101FPN.features.layer3.17.bn3.running_mean"
    input: "backbones.ResNet101FPN.features.layer3.17.bn3.running_var"
    output: "920"
    name: "BatchNormalization_257"
    op_type: "BatchNormalization"
    attribute {
      name: "epsilon"
      f: 1e-05
      type: FLOAT
    }
    attribute {
      name: "momentum"
      f: 0.9
      type: FLOAT
    }
  }
  node {
    input: "920"
    input: "912"
    output: "921"
    name: "Add_258"
    op_type: "Add"
  }
  node {
    input: "921"
    output: "922"
    name: "Relu_259"
    op_type: "Relu"
  }
  node {
    input: "922"
    input: "backbones.ResNet101FPN.features.layer3.18.conv1.weight"
    output: "923"
    name: "Conv_260"
    op_type: "Conv"
    attribute {
      name: "dilations"
      ints: 1
      ints: 1
      type: INTS
    }
    attribute {
      name: "group"
      i: 1
      type: INT
    }
    attribute {
      name: "kernel_shape"
      ints: 1
      ints: 1
      type: INTS
    }
    attribute {
      name: "pads"
      ints: 0
      ints: 0
      ints: 0
      ints: 0
      type: INTS
    }
    attribute {
      name: "strides"
      ints: 1
      ints: 1
      type: INTS
    }
  }
  node {
    input: "923"
    input: "backbones.ResNet101FPN.features.layer3.18.bn1.weight"
    input: "backbones.ResNet101FPN.features.layer3.18.bn1.bias"
    input: "backbones.ResNet101FPN.features.layer3.18.bn1.running_mean"
    input: "backbones.ResNet101FPN.features.layer3.18.bn1.running_var"
    output: "924"
    name: "BatchNormalization_261"
    op_type: "BatchNormalization"
    attribute {
      name: "epsilon"
      f: 1e-05
      type: FLOAT
    }
    attribute {
      name: "momentum"
      f: 0.9
      type: FLOAT
    }
  }
  node {
    input: "924"
    output: "925"
    name: "Relu_262"
    op_type: "Relu"
  }
  node {
    input: "925"
    input: "backbones.ResNet101FPN.features.layer3.18.conv2.weight"
    output: "926"
    name: "Conv_263"
    op_type: "Conv"
    attribute {
      name: "dilations"
      ints: 1
      ints: 1
      type: INTS
    }
    attribute {
      name: "group"
      i: 1
      type: INT
    }
    attribute {
      name: "kernel_shape"
      ints: 3
      ints: 3
      type: INTS
    }
    attribute {
      name: "pads"
      ints: 1
      ints: 1
      ints: 1
      ints: 1
      type: INTS
    }
    attribute {
      name: "strides"
      ints: 1
      ints: 1
      type: INTS
    }
  }
  node {
    input: "926"
    input: "backbones.ResNet101FPN.features.layer3.18.bn2.weight"
    input: "backbones.ResNet101FPN.features.layer3.18.bn2.bias"
    input: "backbones.ResNet101FPN.features.layer3.18.bn2.running_mean"
    input: "backbones.ResNet101FPN.features.layer3.18.bn2.running_var"
    output: "927"
    name: "BatchNormalization_264"
    op_type: "BatchNormalization"
    attribute {
      name: "epsilon"
      f: 1e-05
      type: FLOAT
    }
    attribute {
      name: "momentum"
      f: 0.9
      type: FLOAT
    }
  }
  node {
    input: "927"
    output: "928"
    name: "Relu_265"
    op_type: "Relu"
  }
  node {
    input: "928"
    input: "backbones.ResNet101FPN.features.layer3.18.conv3.weight"
    output: "929"
    name: "Conv_266"
    op_type: "Conv"
    attribute {
      name: "dilations"
      ints: 1
      ints: 1
      type: INTS
    }
    attribute {
      name: "group"
      i: 1
      type: INT
    }
    attribute {
      name: "kernel_shape"
      ints: 1
      ints: 1
      type: INTS
    }
    attribute {
      name: "pads"
      ints: 0
      ints: 0
      ints: 0
      ints: 0
      type: INTS
    }
    attribute {
      name: "strides"
      ints: 1
      ints: 1
      type: INTS
    }
  }
  node {
    input: "929"
    input: "backbones.ResNet101FPN.features.layer3.18.bn3.weight"
    input: "backbones.ResNet101FPN.features.layer3.18.bn3.bias"
    input: "backbones.ResNet101FPN.features.layer3.18.bn3.running_mean"
    input: "backbones.ResNet101FPN.features.layer3.18.bn3.running_var"
    output: "930"
    name: "BatchNormalization_267"
    op_type: "BatchNormalization"
    attribute {
      name: "epsilon"
      f: 1e-05
      type: FLOAT
    }
    attribute {
      name: "momentum"
      f: 0.9
      type: FLOAT
    }
  }
  node {
    input: "930"
    input: "922"
    output: "931"
    name: "Add_268"
    op_type: "Add"
  }
  node {
    input: "931"
    output: "932"
    name: "Relu_269"
    op_type: "Relu"
  }
  node {
    input: "932"
    input: "backbones.ResNet101FPN.features.layer3.19.conv1.weight"
    output: "933"
    name: "Conv_270"
    op_type: "Conv"
    attribute {
      name: "dilations"
      ints: 1
      ints: 1
      type: INTS
    }
    attribute {
      name: "group"
      i: 1
      type: INT
    }
    attribute {
      name: "kernel_shape"
      ints: 1
      ints: 1
      type: INTS
    }
    attribute {
      name: "pads"
      ints: 0
      ints: 0
      ints: 0
      ints: 0
      type: INTS
    }
    attribute {
      name: "strides"
      ints: 1
      ints: 1
      type: INTS
    }
  }
  node {
    input: "933"
    input: "backbones.ResNet101FPN.features.layer3.19.bn1.weight"
    input: "backbones.ResNet101FPN.features.layer3.19.bn1.bias"
    input: "backbones.ResNet101FPN.features.layer3.19.bn1.running_mean"
    input: "backbones.ResNet101FPN.features.layer3.19.bn1.running_var"
    output: "934"
    name: "BatchNormalization_271"
    op_type: "BatchNormalization"
    attribute {
      name: "epsilon"
      f: 1e-05
      type: FLOAT
    }
    attribute {
      name: "momentum"
      f: 0.9
      type: FLOAT
    }
  }
  node {
    input: "934"
    output: "935"
    name: "Relu_272"
    op_type: "Relu"
  }
  node {
    input: "935"
    input: "backbones.ResNet101FPN.features.layer3.19.conv2.weight"
    output: "936"
    name: "Conv_273"
    op_type: "Conv"
    attribute {
      name: "dilations"
      ints: 1
      ints: 1
      type: INTS
    }
    attribute {
      name: "group"
      i: 1
      type: INT
    }
    attribute {
      name: "kernel_shape"
      ints: 3
      ints: 3
      type: INTS
    }
    attribute {
      name: "pads"
      ints: 1
      ints: 1
      ints: 1
      ints: 1
      type: INTS
    }
    attribute {
      name: "strides"
      ints: 1
      ints: 1
      type: INTS
    }
  }
  node {
    input: "936"
    input: "backbones.ResNet101FPN.features.layer3.19.bn2.weight"
    input: "backbones.ResNet101FPN.features.layer3.19.bn2.bias"
    input: "backbones.ResNet101FPN.features.layer3.19.bn2.running_mean"
    input: "backbones.ResNet101FPN.features.layer3.19.bn2.running_var"
    output: "937"
    name: "BatchNormalization_274"
    op_type: "BatchNormalization"
    attribute {
      name: "epsilon"
      f: 1e-05
      type: FLOAT
    }
    attribute {
      name: "momentum"
      f: 0.9
      type: FLOAT
    }
  }
  node {
    input: "937"
    output: "938"
    name: "Relu_275"
    op_type: "Relu"
  }
  node {
    input: "938"
    input: "backbones.ResNet101FPN.features.layer3.19.conv3.weight"
    output: "939"
    name: "Conv_276"
    op_type: "Conv"
    attribute {
      name: "dilations"
      ints: 1
      ints: 1
      type: INTS
    }
    attribute {
      name: "group"
      i: 1
      type: INT
    }
    attribute {
      name: "kernel_shape"
      ints: 1
      ints: 1
      type: INTS
    }
    attribute {
      name: "pads"
      ints: 0
      ints: 0
      ints: 0
      ints: 0
      type: INTS
    }
    attribute {
      name: "strides"
      ints: 1
      ints: 1
      type: INTS
    }
  }
  node {
    input: "939"
    input: "backbones.ResNet101FPN.features.layer3.19.bn3.weight"
    input: "backbones.ResNet101FPN.features.layer3.19.bn3.bias"
    input: "backbones.ResNet101FPN.features.layer3.19.bn3.running_mean"
    input: "backbones.ResNet101FPN.features.layer3.19.bn3.running_var"
    output: "940"
    name: "BatchNormalization_277"
    op_type: "BatchNormalization"
    attribute {
      name: "epsilon"
      f: 1e-05
      type: FLOAT
    }
    attribute {
      name: "momentum"
      f: 0.9
      type: FLOAT
    }
  }
  node {
    input: "940"
    input: "932"
    output: "941"
    name: "Add_278"
    op_type: "Add"
  }
  node {
    input: "941"
    output: "942"
    name: "Relu_279"
    op_type: "Relu"
  }
  node {
    input: "942"
    input: "backbones.ResNet101FPN.features.layer3.20.conv1.weight"
    output: "943"
    name: "Conv_280"
    op_type: "Conv"
    attribute {
      name: "dilations"
      ints: 1
      ints: 1
      type: INTS
    }
    attribute {
      name: "group"
      i: 1
      type: INT
    }
    attribute {
      name: "kernel_shape"
      ints: 1
      ints: 1
      type: INTS
    }
    attribute {
      name: "pads"
      ints: 0
      ints: 0
      ints: 0
      ints: 0
      type: INTS
    }
    attribute {
      name: "strides"
      ints: 1
      ints: 1
      type: INTS
    }
  }
  node {
    input: "943"
    input: "backbones.ResNet101FPN.features.layer3.20.bn1.weight"
    input: "backbones.ResNet101FPN.features.layer3.20.bn1.bias"
    input: "backbones.ResNet101FPN.features.layer3.20.bn1.running_mean"
    input: "backbones.ResNet101FPN.features.layer3.20.bn1.running_var"
    output: "944"
    name: "BatchNormalization_281"
    op_type: "BatchNormalization"
    attribute {
      name: "epsilon"
      f: 1e-05
      type: FLOAT
    }
    attribute {
      name: "momentum"
      f: 0.9
      type: FLOAT
    }
  }
  node {
    input: "944"
    output: "945"
    name: "Relu_282"
    op_type: "Relu"
  }
  node {
    input: "945"
    input: "backbones.ResNet101FPN.features.layer3.20.conv2.weight"
    output: "946"
    name: "Conv_283"
    op_type: "Conv"
    attribute {
      name: "dilations"
      ints: 1
      ints: 1
      type: INTS
    }
    attribute {
      name: "group"
      i: 1
      type: INT
    }
    attribute {
      name: "kernel_shape"
      ints: 3
      ints: 3
      type: INTS
    }
    attribute {
      name: "pads"
      ints: 1
      ints: 1
      ints: 1
      ints: 1
      type: INTS
    }
    attribute {
      name: "strides"
      ints: 1
      ints: 1
      type: INTS
    }
  }
  node {
    input: "946"
    input: "backbones.ResNet101FPN.features.layer3.20.bn2.weight"
    input: "backbones.ResNet101FPN.features.layer3.20.bn2.bias"
    input: "backbones.ResNet101FPN.features.layer3.20.bn2.running_mean"
    input: "backbones.ResNet101FPN.features.layer3.20.bn2.running_var"
    output: "947"
    name: "BatchNormalization_284"
    op_type: "BatchNormalization"
    attribute {
      name: "epsilon"
      f: 1e-05
      type: FLOAT
    }
    attribute {
      name: "momentum"
      f: 0.9
      type: FLOAT
    }
  }
  node {
    input: "947"
    output: "948"
    name: "Relu_285"
    op_type: "Relu"
  }
  node {
    input: "948"
    input: "backbones.ResNet101FPN.features.layer3.20.conv3.weight"
    output: "949"
    name: "Conv_286"
    op_type: "Conv"
    attribute {
      name: "dilations"
      ints: 1
      ints: 1
      type: INTS
    }
    attribute {
      name: "group"
      i: 1
      type: INT
    }
    attribute {
      name: "kernel_shape"
      ints: 1
      ints: 1
      type: INTS
    }
    attribute {
      name: "pads"
      ints: 0
      ints: 0
      ints: 0
      ints: 0
      type: INTS
    }
    attribute {
      name: "strides"
      ints: 1
      ints: 1
      type: INTS
    }
  }
  node {
    input: "949"
    input: "backbones.ResNet101FPN.features.layer3.20.bn3.weight"
    input: "backbones.ResNet101FPN.features.layer3.20.bn3.bias"
    input: "backbones.ResNet101FPN.features.layer3.20.bn3.running_mean"
    input: "backbones.ResNet101FPN.features.layer3.20.bn3.running_var"
    output: "950"
    name: "BatchNormalization_287"
    op_type: "BatchNormalization"
    attribute {
      name: "epsilon"
      f: 1e-05
      type: FLOAT
    }
    attribute {
      name: "momentum"
      f: 0.9
      type: FLOAT
    }
  }
  node {
    input: "950"
    input: "942"
    output: "951"
    name: "Add_288"
    op_type: "Add"
  }
  node {
    input: "951"
    output: "952"
    name: "Relu_289"
    op_type: "Relu"
  }
  node {
    input: "952"
    input: "backbones.ResNet101FPN.features.layer3.21.conv1.weight"
    output: "953"
    name: "Conv_290"
    op_type: "Conv"
    attribute {
      name: "dilations"
      ints: 1
      ints: 1
      type: INTS
    }
    attribute {
      name: "group"
      i: 1
      type: INT
    }
    attribute {
      name: "kernel_shape"
      ints: 1
      ints: 1
      type: INTS
    }
    attribute {
      name: "pads"
      ints: 0
      ints: 0
      ints: 0
      ints: 0
      type: INTS
    }
    attribute {
      name: "strides"
      ints: 1
      ints: 1
      type: INTS
    }
  }
  node {
    input: "953"
    input: "backbones.ResNet101FPN.features.layer3.21.bn1.weight"
    input: "backbones.ResNet101FPN.features.layer3.21.bn1.bias"
    input: "backbones.ResNet101FPN.features.layer3.21.bn1.running_mean"
    input: "backbones.ResNet101FPN.features.layer3.21.bn1.running_var"
    output: "954"
    name: "BatchNormalization_291"
    op_type: "BatchNormalization"
    attribute {
      name: "epsilon"
      f: 1e-05
      type: FLOAT
    }
    attribute {
      name: "momentum"
      f: 0.9
      type: FLOAT
    }
  }
  node {
    input: "954"
    output: "955"
    name: "Relu_292"
    op_type: "Relu"
  }
  node {
    input: "955"
    input: "backbones.ResNet101FPN.features.layer3.21.conv2.weight"
    output: "956"
    name: "Conv_293"
    op_type: "Conv"
    attribute {
      name: "dilations"
      ints: 1
      ints: 1
      type: INTS
    }
    attribute {
      name: "group"
      i: 1
      type: INT
    }
    attribute {
      name: "kernel_shape"
      ints: 3
      ints: 3
      type: INTS
    }
    attribute {
      name: "pads"
      ints: 1
      ints: 1
      ints: 1
      ints: 1
      type: INTS
    }
    attribute {
      name: "strides"
      ints: 1
      ints: 1
      type: INTS
    }
  }
  node {
    input: "956"
    input: "backbones.ResNet101FPN.features.layer3.21.bn2.weight"
    input: "backbones.ResNet101FPN.features.layer3.21.bn2.bias"
    input: "backbones.ResNet101FPN.features.layer3.21.bn2.running_mean"
    input: "backbones.ResNet101FPN.features.layer3.21.bn2.running_var"
    output: "957"
    name: "BatchNormalization_294"
    op_type: "BatchNormalization"
    attribute {
      name: "epsilon"
      f: 1e-05
      type: FLOAT
    }
    attribute {
      name: "momentum"
      f: 0.9
      type: FLOAT
    }
  }
  node {
    input: "957"
    output: "958"
    name: "Relu_295"
    op_type: "Relu"
  }
  node {
    input: "958"
    input: "backbones.ResNet101FPN.features.layer3.21.conv3.weight"
    output: "959"
    name: "Conv_296"
    op_type: "Conv"
    attribute {
      name: "dilations"
      ints: 1
      ints: 1
      type: INTS
    }
    attribute {
      name: "group"
      i: 1
      type: INT
    }
    attribute {
      name: "kernel_shape"
      ints: 1
      ints: 1
      type: INTS
    }
    attribute {
      name: "pads"
      ints: 0
      ints: 0
      ints: 0
      ints: 0
      type: INTS
    }
    attribute {
      name: "strides"
      ints: 1
      ints: 1
      type: INTS
    }
  }
  node {
    input: "959"
    input: "backbones.ResNet101FPN.features.layer3.21.bn3.weight"
    input: "backbones.ResNet101FPN.features.layer3.21.bn3.bias"
    input: "backbones.ResNet101FPN.features.layer3.21.bn3.running_mean"
    input: "backbones.ResNet101FPN.features.layer3.21.bn3.running_var"
    output: "960"
    name: "BatchNormalization_297"
    op_type: "BatchNormalization"
    attribute {
      name: "epsilon"
      f: 1e-05
      type: FLOAT
    }
    attribute {
      name: "momentum"
      f: 0.9
      type: FLOAT
    }
  }
  node {
    input: "960"
    input: "952"
    output: "961"
    name: "Add_298"
    op_type: "Add"
  }
  node {
    input: "961"
    output: "962"
    name: "Relu_299"
    op_type: "Relu"
  }
  node {
    input: "962"
    input: "backbones.ResNet101FPN.features.layer3.22.conv1.weight"
    output: "963"
    name: "Conv_300"
    op_type: "Conv"
    attribute {
      name: "dilations"
      ints: 1
      ints: 1
      type: INTS
    }
    attribute {
      name: "group"
      i: 1
      type: INT
    }
    attribute {
      name: "kernel_shape"
      ints: 1
      ints: 1
      type: INTS
    }
    attribute {
      name: "pads"
      ints: 0
      ints: 0
      ints: 0
      ints: 0
      type: INTS
    }
    attribute {
      name: "strides"
      ints: 1
      ints: 1
      type: INTS
    }
  }
  node {
    input: "963"
    input: "backbones.ResNet101FPN.features.layer3.22.bn1.weight"
    input: "backbones.ResNet101FPN.features.layer3.22.bn1.bias"
    input: "backbones.ResNet101FPN.features.layer3.22.bn1.running_mean"
    input: "backbones.ResNet101FPN.features.layer3.22.bn1.running_var"
    output: "964"
    name: "BatchNormalization_301"
    op_type: "BatchNormalization"
    attribute {
      name: "epsilon"
      f: 1e-05
      type: FLOAT
    }
    attribute {
      name: "momentum"
      f: 0.9
      type: FLOAT
    }
  }
  node {
    input: "964"
    output: "965"
    name: "Relu_302"
    op_type: "Relu"
  }
  node {
    input: "965"
    input: "backbones.ResNet101FPN.features.layer3.22.conv2.weight"
    output: "966"
    name: "Conv_303"
    op_type: "Conv"
    attribute {
      name: "dilations"
      ints: 1
      ints: 1
      type: INTS
    }
    attribute {
      name: "group"
      i: 1
      type: INT
    }
    attribute {
      name: "kernel_shape"
      ints: 3
      ints: 3
      type: INTS
    }
    attribute {
      name: "pads"
      ints: 1
      ints: 1
      ints: 1
      ints: 1
      type: INTS
    }
    attribute {
      name: "strides"
      ints: 1
      ints: 1
      type: INTS
    }
  }
  node {
    input: "966"
    input: "backbones.ResNet101FPN.features.layer3.22.bn2.weight"
    input: "backbones.ResNet101FPN.features.layer3.22.bn2.bias"
    input: "backbones.ResNet101FPN.features.layer3.22.bn2.running_mean"
    input: "backbones.ResNet101FPN.features.layer3.22.bn2.running_var"
    output: "967"
    name: "BatchNormalization_304"
    op_type: "BatchNormalization"
    attribute {
      name: "epsilon"
      f: 1e-05
      type: FLOAT
    }
    attribute {
      name: "momentum"
      f: 0.9
      type: FLOAT
    }
  }
  node {
    input: "967"
    output: "968"
    name: "Relu_305"
    op_type: "Relu"
  }
  node {
    input: "968"
    input: "backbones.ResNet101FPN.features.layer3.22.conv3.weight"
    output: "969"
    name: "Conv_306"
    op_type: "Conv"
    attribute {
      name: "dilations"
      ints: 1
      ints: 1
      type: INTS
    }
    attribute {
      name: "group"
      i: 1
      type: INT
    }
    attribute {
      name: "kernel_shape"
      ints: 1
      ints: 1
      type: INTS
    }
    attribute {
      name: "pads"
      ints: 0
      ints: 0
      ints: 0
      ints: 0
      type: INTS
    }
    attribute {
      name: "strides"
      ints: 1
      ints: 1
      type: INTS
    }
  }
  node {
    input: "969"
    input: "backbones.ResNet101FPN.features.layer3.22.bn3.weight"
    input: "backbones.ResNet101FPN.features.layer3.22.bn3.bias"
    input: "backbones.ResNet101FPN.features.layer3.22.bn3.running_mean"
    input: "backbones.ResNet101FPN.features.layer3.22.bn3.running_var"
    output: "970"
    name: "BatchNormalization_307"
    op_type: "BatchNormalization"
    attribute {
      name: "epsilon"
      f: 1e-05
      type: FLOAT
    }
    attribute {
      name: "momentum"
      f: 0.9
      type: FLOAT
    }
  }
  node {
    input: "970"
    input: "962"
    output: "971"
    name: "Add_308"
    op_type: "Add"
  }
  node {
    input: "971"
    output: "972"
    name: "Relu_309"
    op_type: "Relu"
  }
  node {
    input: "972"
    input: "backbones.ResNet101FPN.features.layer4.0.conv1.weight"
    output: "973"
    name: "Conv_310"
    op_type: "Conv"
    attribute {
      name: "dilations"
      ints: 1
      ints: 1
      type: INTS
    }
    attribute {
      name: "group"
      i: 1
      type: INT
    }
    attribute {
      name: "kernel_shape"
      ints: 1
      ints: 1
      type: INTS
    }
    attribute {
      name: "pads"
      ints: 0
      ints: 0
      ints: 0
      ints: 0
      type: INTS
    }
    attribute {
      name: "strides"
      ints: 1
      ints: 1
      type: INTS
    }
  }
  node {
    input: "973"
    input: "backbones.ResNet101FPN.features.layer4.0.bn1.weight"
    input: "backbones.ResNet101FPN.features.layer4.0.bn1.bias"
    input: "backbones.ResNet101FPN.features.layer4.0.bn1.running_mean"
    input: "backbones.ResNet101FPN.features.layer4.0.bn1.running_var"
    output: "974"
    name: "BatchNormalization_311"
    op_type: "BatchNormalization"
    attribute {
      name: "epsilon"
      f: 1e-05
      type: FLOAT
    }
    attribute {
      name: "momentum"
      f: 0.9
      type: FLOAT
    }
  }
  node {
    input: "974"
    output: "975"
    name: "Relu_312"
    op_type: "Relu"
  }
  node {
    input: "975"
    input: "backbones.ResNet101FPN.features.layer4.0.conv2.weight"
    output: "976"
    name: "Conv_313"
    op_type: "Conv"
    attribute {
      name: "dilations"
      ints: 1
      ints: 1
      type: INTS
    }
    attribute {
      name: "group"
      i: 1
      type: INT
    }
    attribute {
      name: "kernel_shape"
      ints: 3
      ints: 3
      type: INTS
    }
    attribute {
      name: "pads"
      ints: 1
      ints: 1
      ints: 1
      ints: 1
      type: INTS
    }
    attribute {
      name: "strides"
      ints: 2
      ints: 2
      type: INTS
    }
  }
  node {
    input: "976"
    input: "backbones.ResNet101FPN.features.layer4.0.bn2.weight"
    input: "backbones.ResNet101FPN.features.layer4.0.bn2.bias"
    input: "backbones.ResNet101FPN.features.layer4.0.bn2.running_mean"
    input: "backbones.ResNet101FPN.features.layer4.0.bn2.running_var"
    output: "977"
    name: "BatchNormalization_314"
    op_type: "BatchNormalization"
    attribute {
      name: "epsilon"
      f: 1e-05
      type: FLOAT
    }
    attribute {
      name: "momentum"
      f: 0.9
      type: FLOAT
    }
  }
  node {
    input: "977"
    output: "978"
    name: "Relu_315"
    op_type: "Relu"
  }
  node {
    input: "978"
    input: "backbones.ResNet101FPN.features.layer4.0.conv3.weight"
    output: "979"
    name: "Conv_316"
    op_type: "Conv"
    attribute {
      name: "dilations"
      ints: 1
      ints: 1
      type: INTS
    }
    attribute {
      name: "group"
      i: 1
      type: INT
    }
    attribute {
      name: "kernel_shape"
      ints: 1
      ints: 1
      type: INTS
    }
    attribute {
      name: "pads"
      ints: 0
      ints: 0
      ints: 0
      ints: 0
      type: INTS
    }
    attribute {
      name: "strides"
      ints: 1
      ints: 1
      type: INTS
    }
  }
  node {
    input: "979"
    input: "backbones.ResNet101FPN.features.layer4.0.bn3.weight"
    input: "backbones.ResNet101FPN.features.layer4.0.bn3.bias"
    input: "backbones.ResNet101FPN.features.layer4.0.bn3.running_mean"
    input: "backbones.ResNet101FPN.features.layer4.0.bn3.running_var"
    output: "980"
    name: "BatchNormalization_317"
    op_type: "BatchNormalization"
    attribute {
      name: "epsilon"
      f: 1e-05
      type: FLOAT
    }
    attribute {
      name: "momentum"
      f: 0.9
      type: FLOAT
    }
  }
  node {
    input: "972"
    input: "backbones.ResNet101FPN.features.layer4.0.downsample.0.weight"
    output: "981"
    name: "Conv_318"
    op_type: "Conv"
    attribute {
      name: "dilations"
      ints: 1
      ints: 1
      type: INTS
    }
    attribute {
      name: "group"
      i: 1
      type: INT
    }
    attribute {
      name: "kernel_shape"
      ints: 1
      ints: 1
      type: INTS
    }
    attribute {
      name: "pads"
      ints: 0
      ints: 0
      ints: 0
      ints: 0
      type: INTS
    }
    attribute {
      name: "strides"
      ints: 2
      ints: 2
      type: INTS
    }
  }
  node {
    input: "981"
    input: "backbones.ResNet101FPN.features.layer4.0.downsample.1.weight"
    input: "backbones.ResNet101FPN.features.layer4.0.downsample.1.bias"
    input: "backbones.ResNet101FPN.features.layer4.0.downsample.1.running_mean"
    input: "backbones.ResNet101FPN.features.layer4.0.downsample.1.running_var"
    output: "982"
    name: "BatchNormalization_319"
    op_type: "BatchNormalization"
    attribute {
      name: "epsilon"
      f: 1e-05
      type: FLOAT
    }
    attribute {
      name: "momentum"
      f: 0.9
      type: FLOAT
    }
  }
  node {
    input: "980"
    input: "982"
    output: "983"
    name: "Add_320"
    op_type: "Add"
  }
  node {
    input: "983"
    output: "984"
    name: "Relu_321"
    op_type: "Relu"
  }
  node {
    input: "984"
    input: "backbones.ResNet101FPN.features.layer4.1.conv1.weight"
    output: "985"
    name: "Conv_322"
    op_type: "Conv"
    attribute {
      name: "dilations"
      ints: 1
      ints: 1
      type: INTS
    }
    attribute {
      name: "group"
      i: 1
      type: INT
    }
    attribute {
      name: "kernel_shape"
      ints: 1
      ints: 1
      type: INTS
    }
    attribute {
      name: "pads"
      ints: 0
      ints: 0
      ints: 0
      ints: 0
      type: INTS
    }
    attribute {
      name: "strides"
      ints: 1
      ints: 1
      type: INTS
    }
  }
  node {
    input: "985"
    input: "backbones.ResNet101FPN.features.layer4.1.bn1.weight"
    input: "backbones.ResNet101FPN.features.layer4.1.bn1.bias"
    input: "backbones.ResNet101FPN.features.layer4.1.bn1.running_mean"
    input: "backbones.ResNet101FPN.features.layer4.1.bn1.running_var"
    output: "986"
    name: "BatchNormalization_323"
    op_type: "BatchNormalization"
    attribute {
      name: "epsilon"
      f: 1e-05
      type: FLOAT
    }
    attribute {
      name: "momentum"
      f: 0.9
      type: FLOAT
    }
  }
  node {
    input: "986"
    output: "987"
    name: "Relu_324"
    op_type: "Relu"
  }
  node {
    input: "987"
    input: "backbones.ResNet101FPN.features.layer4.1.conv2.weight"
    output: "988"
    name: "Conv_325"
    op_type: "Conv"
    attribute {
      name: "dilations"
      ints: 1
      ints: 1
      type: INTS
    }
    attribute {
      name: "group"
      i: 1
      type: INT
    }
    attribute {
      name: "kernel_shape"
      ints: 3
      ints: 3
      type: INTS
    }
    attribute {
      name: "pads"
      ints: 1
      ints: 1
      ints: 1
      ints: 1
      type: INTS
    }
    attribute {
      name: "strides"
      ints: 1
      ints: 1
      type: INTS
    }
  }
  node {
    input: "988"
    input: "backbones.ResNet101FPN.features.layer4.1.bn2.weight"
    input: "backbones.ResNet101FPN.features.layer4.1.bn2.bias"
    input: "backbones.ResNet101FPN.features.layer4.1.bn2.running_mean"
    input: "backbones.ResNet101FPN.features.layer4.1.bn2.running_var"
    output: "989"
    name: "BatchNormalization_326"
    op_type: "BatchNormalization"
    attribute {
      name: "epsilon"
      f: 1e-05
      type: FLOAT
    }
    attribute {
      name: "momentum"
      f: 0.9
      type: FLOAT
    }
  }
  node {
    input: "989"
    output: "990"
    name: "Relu_327"
    op_type: "Relu"
  }
  node {
    input: "990"
    input: "backbones.ResNet101FPN.features.layer4.1.conv3.weight"
    output: "991"
    name: "Conv_328"
    op_type: "Conv"
    attribute {
      name: "dilations"
      ints: 1
      ints: 1
      type: INTS
    }
    attribute {
      name: "group"
      i: 1
      type: INT
    }
    attribute {
      name: "kernel_shape"
      ints: 1
      ints: 1
      type: INTS
    }
    attribute {
      name: "pads"
      ints: 0
      ints: 0
      ints: 0
      ints: 0
      type: INTS
    }
    attribute {
      name: "strides"
      ints: 1
      ints: 1
      type: INTS
    }
  }
  node {
    input: "991"
    input: "backbones.ResNet101FPN.features.layer4.1.bn3.weight"
    input: "backbones.ResNet101FPN.features.layer4.1.bn3.bias"
    input: "backbones.ResNet101FPN.features.layer4.1.bn3.running_mean"
    input: "backbones.ResNet101FPN.features.layer4.1.bn3.running_var"
    output: "992"
    name: "BatchNormalization_329"
    op_type: "BatchNormalization"
    attribute {
      name: "epsilon"
      f: 1e-05
      type: FLOAT
    }
    attribute {
      name: "momentum"
      f: 0.9
      type: FLOAT
    }
  }
  node {
    input: "992"
    input: "984"
    output: "993"
    name: "Add_330"
    op_type: "Add"
  }
  node {
    input: "993"
    output: "994"
    name: "Relu_331"
    op_type: "Relu"
  }
  node {
    input: "994"
    input: "backbones.ResNet101FPN.features.layer4.2.conv1.weight"
    output: "995"
    name: "Conv_332"
    op_type: "Conv"
    attribute {
      name: "dilations"
      ints: 1
      ints: 1
      type: INTS
    }
    attribute {
      name: "group"
      i: 1
      type: INT
    }
    attribute {
      name: "kernel_shape"
      ints: 1
      ints: 1
      type: INTS
    }
    attribute {
      name: "pads"
      ints: 0
      ints: 0
      ints: 0
      ints: 0
      type: INTS
    }
    attribute {
      name: "strides"
      ints: 1
      ints: 1
      type: INTS
    }
  }
  node {
    input: "995"
    input: "backbones.ResNet101FPN.features.layer4.2.bn1.weight"
    input: "backbones.ResNet101FPN.features.layer4.2.bn1.bias"
    input: "backbones.ResNet101FPN.features.layer4.2.bn1.running_mean"
    input: "backbones.ResNet101FPN.features.layer4.2.bn1.running_var"
    output: "996"
    name: "BatchNormalization_333"
    op_type: "BatchNormalization"
    attribute {
      name: "epsilon"
      f: 1e-05
      type: FLOAT
    }
    attribute {
      name: "momentum"
      f: 0.9
      type: FLOAT
    }
  }
  node {
    input: "996"
    output: "997"
    name: "Relu_334"
    op_type: "Relu"
  }
  node {
    input: "997"
    input: "backbones.ResNet101FPN.features.layer4.2.conv2.weight"
    output: "998"
    name: "Conv_335"
    op_type: "Conv"
    attribute {
      name: "dilations"
      ints: 1
      ints: 1
      type: INTS
    }
    attribute {
      name: "group"
      i: 1
      type: INT
    }
    attribute {
      name: "kernel_shape"
      ints: 3
      ints: 3
      type: INTS
    }
    attribute {
      name: "pads"
      ints: 1
      ints: 1
      ints: 1
      ints: 1
      type: INTS
    }
    attribute {
      name: "strides"
      ints: 1
      ints: 1
      type: INTS
    }
  }
  node {
    input: "998"
    input: "backbones.ResNet101FPN.features.layer4.2.bn2.weight"
    input: "backbones.ResNet101FPN.features.layer4.2.bn2.bias"
    input: "backbones.ResNet101FPN.features.layer4.2.bn2.running_mean"
    input: "backbones.ResNet101FPN.features.layer4.2.bn2.running_var"
    output: "999"
    name: "BatchNormalization_336"
    op_type: "BatchNormalization"
    attribute {
      name: "epsilon"
      f: 1e-05
      type: FLOAT
    }
    attribute {
      name: "momentum"
      f: 0.9
      type: FLOAT
    }
  }
  node {
    input: "999"
    output: "1000"
    name: "Relu_337"
    op_type: "Relu"
  }
  node {
    input: "1000"
    input: "backbones.ResNet101FPN.features.layer4.2.conv3.weight"
    output: "1001"
    name: "Conv_338"
    op_type: "Conv"
    attribute {
      name: "dilations"
      ints: 1
      ints: 1
      type: INTS
    }
    attribute {
      name: "group"
      i: 1
      type: INT
    }
    attribute {
      name: "kernel_shape"
      ints: 1
      ints: 1
      type: INTS
    }
    attribute {
      name: "pads"
      ints: 0
      ints: 0
      ints: 0
      ints: 0
      type: INTS
    }
    attribute {
      name: "strides"
      ints: 1
      ints: 1
      type: INTS
    }
  }
  node {
    input: "1001"
    input: "backbones.ResNet101FPN.features.layer4.2.bn3.weight"
    input: "backbones.ResNet101FPN.features.layer4.2.bn3.bias"
    input: "backbones.ResNet101FPN.features.layer4.2.bn3.running_mean"
    input: "backbones.ResNet101FPN.features.layer4.2.bn3.running_var"
    output: "1002"
    name: "BatchNormalization_339"
    op_type: "BatchNormalization"
    attribute {
      name: "epsilon"
      f: 1e-05
      type: FLOAT
    }
    attribute {
      name: "momentum"
      f: 0.9
      type: FLOAT
    }
  }
  node {
    input: "1002"
    input: "994"
    output: "1003"
    name: "Add_340"
    op_type: "Add"
  }
  node {
    input: "1003"
    output: "1004"
    name: "Relu_341"
    op_type: "Relu"
  }
  node {
    input: "1004"
    input: "backbones.ResNet101FPN.lateral5.weight"
    input: "backbones.ResNet101FPN.lateral5.bias"
    output: "1005"
    name: "Conv_342"
    op_type: "Conv"
    attribute {
      name: "dilations"
      ints: 1
      ints: 1
      type: INTS
    }
    attribute {
      name: "group"
      i: 1
      type: INT
    }
    attribute {
      name: "kernel_shape"
      ints: 1
      ints: 1
      type: INTS
    }
    attribute {
      name: "pads"
      ints: 0
      ints: 0
      ints: 0
      ints: 0
      type: INTS
    }
    attribute {
      name: "strides"
      ints: 1
      ints: 1
      type: INTS
    }
  }
  node {
    input: "972"
    input: "backbones.ResNet101FPN.lateral4.weight"
    input: "backbones.ResNet101FPN.lateral4.bias"
    output: "1006"
    name: "Conv_343"
    op_type: "Conv"
    attribute {
      name: "dilations"
      ints: 1
      ints: 1
      type: INTS
    }
    attribute {
      name: "group"
      i: 1
      type: INT
    }
    attribute {
      name: "kernel_shape"
      ints: 1
      ints: 1
      type: INTS
    }
    attribute {
      name: "pads"
      ints: 0
      ints: 0
      ints: 0
      ints: 0
      type: INTS
    }
    attribute {
      name: "strides"
      ints: 1
      ints: 1
      type: INTS
    }
  }
  node {
    input: "1005"
    input: "1133"
    output: "1015"
    name: "Upsample_344"
    op_type: "Upsample"
    attribute {
      name: "mode"
      s: "nearest"
      type: STRING
    }
  }
  node {
    input: "1015"
    input: "1006"
    output: "1016"
    name: "Add_345"
    op_type: "Add"
  }
  node {
    input: "740"
    input: "backbones.ResNet101FPN.lateral3.weight"
    input: "backbones.ResNet101FPN.lateral3.bias"
    output: "1017"
    name: "Conv_346"
    op_type: "Conv"
    attribute {
      name: "dilations"
      ints: 1
      ints: 1
      type: INTS
    }
    attribute {
      name: "group"
      i: 1
      type: INT
    }
    attribute {
      name: "kernel_shape"
      ints: 1
      ints: 1
      type: INTS
    }
    attribute {
      name: "pads"
      ints: 0
      ints: 0
      ints: 0
      ints: 0
      type: INTS
    }
    attribute {
      name: "strides"
      ints: 1
      ints: 1
      type: INTS
    }
  }
  node {
    input: "1016"
    input: "1138"
    output: "1026"
    name: "Upsample_347"
    op_type: "Upsample"
    attribute {
      name: "mode"
      s: "nearest"
      type: STRING
    }
  }
  node {
    input: "1026"
    input: "1017"
    output: "1027"
    name: "Add_348"
    op_type: "Add"
  }
  node {
    input: "1004"
    input: "backbones.ResNet101FPN.pyramid6.weight"
    input: "backbones.ResNet101FPN.pyramid6.bias"
    output: "1028"
    name: "Conv_349"
    op_type: "Conv"
    attribute {
      name: "dilations"
      ints: 1
      ints: 1
      type: INTS
    }
    attribute {
      name: "group"
      i: 1
      type: INT
    }
    attribute {
      name: "kernel_shape"
      ints: 3
      ints: 3
      type: INTS
    }
    attribute {
      name: "pads"
      ints: 1
      ints: 1
      ints: 1
      ints: 1
      type: INTS
    }
    attribute {
      name: "strides"
      ints: 2
      ints: 2
      type: INTS
    }
  }
  node {
    input: "1028"
    output: "1029"
    name: "Relu_350"
    op_type: "Relu"
  }
  node {
    input: "1029"
    input: "backbones.ResNet101FPN.pyramid7.weight"
    input: "backbones.ResNet101FPN.pyramid7.bias"
    output: "1030"
    name: "Conv_351"
    op_type: "Conv"
    attribute {
      name: "dilations"
      ints: 1
      ints: 1
      type: INTS
    }
    attribute {
      name: "group"
      i: 1
      type: INT
    }
    attribute {
      name: "kernel_shape"
      ints: 3
      ints: 3
      type: INTS
    }
    attribute {
      name: "pads"
      ints: 1
      ints: 1
      ints: 1
      ints: 1
      type: INTS
    }
    attribute {
      name: "strides"
      ints: 2
      ints: 2
      type: INTS
    }
  }
  node {
    input: "1027"
    input: "backbones.ResNet101FPN.smooth3.weight"
    input: "backbones.ResNet101FPN.smooth3.bias"
    output: "1031"
    name: "Conv_352"
    op_type: "Conv"
    attribute {
      name: "dilations"
      ints: 1
      ints: 1
      type: INTS
    }
    attribute {
      name: "group"
      i: 1
      type: INT
    }
    attribute {
      name: "kernel_shape"
      ints: 3
      ints: 3
      type: INTS
    }
    attribute {
      name: "pads"
      ints: 1
      ints: 1
      ints: 1
      ints: 1
      type: INTS
    }
    attribute {
      name: "strides"
      ints: 1
      ints: 1
      type: INTS
    }
  }
  node {
    input: "1016"
    input: "backbones.ResNet101FPN.smooth4.weight"
    input: "backbones.ResNet101FPN.smooth4.bias"
    output: "1032"
    name: "Conv_353"
    op_type: "Conv"
    attribute {
      name: "dilations"
      ints: 1
      ints: 1
      type: INTS
    }
    attribute {
      name: "group"
      i: 1
      type: INT
    }
    attribute {
      name: "kernel_shape"
      ints: 3
      ints: 3
      type: INTS
    }
    attribute {
      name: "pads"
      ints: 1
      ints: 1
      ints: 1
      ints: 1
      type: INTS
    }
    attribute {
      name: "strides"
      ints: 1
      ints: 1
      type: INTS
    }
  }
  node {
    input: "1005"
    input: "backbones.ResNet101FPN.smooth5.weight"
    input: "backbones.ResNet101FPN.smooth5.bias"
    output: "1033"
    name: "Conv_354"
    op_type: "Conv"
    attribute {
      name: "dilations"
      ints: 1
      ints: 1
      type: INTS
    }
    attribute {
      name: "group"
      i: 1
      type: INT
    }
    attribute {
      name: "kernel_shape"
      ints: 3
      ints: 3
      type: INTS
    }
    attribute {
      name: "pads"
      ints: 1
      ints: 1
      ints: 1
      ints: 1
      type: INTS
    }
    attribute {
      name: "strides"
      ints: 1
      ints: 1
      type: INTS
    }
  }
  node {
    input: "1031"
    input: "cls_head.0.weight"
    input: "cls_head.0.bias"
    output: "1034"
    name: "Conv_355"
    op_type: "Conv"
    attribute {
      name: "dilations"
      ints: 1
      ints: 1
      type: INTS
    }
    attribute {
      name: "group"
      i: 1
      type: INT
    }
    attribute {
      name: "kernel_shape"
      ints: 3
      ints: 3
      type: INTS
    }
    attribute {
      name: "pads"
      ints: 1
      ints: 1
      ints: 1
      ints: 1
      type: INTS
    }
    attribute {
      name: "strides"
      ints: 1
      ints: 1
      type: INTS
    }
  }
  node {
    input: "1034"
    output: "1035"
    name: "Relu_356"
    op_type: "Relu"
  }
  node {
    input: "1035"
    input: "cls_head.2.weight"
    input: "cls_head.2.bias"
    output: "1036"
    name: "Conv_357"
    op_type: "Conv"
    attribute {
      name: "dilations"
      ints: 1
      ints: 1
      type: INTS
    }
    attribute {
      name: "group"
      i: 1
      type: INT
    }
    attribute {
      name: "kernel_shape"
      ints: 3
      ints: 3
      type: INTS
    }
    attribute {
      name: "pads"
      ints: 1
      ints: 1
      ints: 1
      ints: 1
      type: INTS
    }
    attribute {
      name: "strides"
      ints: 1
      ints: 1
      type: INTS
    }
  }
  node {
    input: "1036"
    output: "1037"
    name: "Relu_358"
    op_type: "Relu"
  }
  node {
    input: "1037"
    input: "cls_head.4.weight"
    input: "cls_head.4.bias"
    output: "1038"
    name: "Conv_359"
    op_type: "Conv"
    attribute {
      name: "dilations"
      ints: 1
      ints: 1
      type: INTS
    }
    attribute {
      name: "group"
      i: 1
      type: INT
    }
    attribute {
      name: "kernel_shape"
      ints: 3
      ints: 3
      type: INTS
    }
    attribute {
      name: "pads"
      ints: 1
      ints: 1
      ints: 1
      ints: 1
      type: INTS
    }
    attribute {
      name: "strides"
      ints: 1
      ints: 1
      type: INTS
    }
  }
  node {
    input: "1038"
    output: "1039"
    name: "Relu_360"
    op_type: "Relu"
  }
  node {
    input: "1039"
    input: "cls_head.6.weight"
    input: "cls_head.6.bias"
    output: "1040"
    name: "Conv_361"
    op_type: "Conv"
    attribute {
      name: "dilations"
      ints: 1
      ints: 1
      type: INTS
    }
    attribute {
      name: "group"
      i: 1
      type: INT
    }
    attribute {
      name: "kernel_shape"
      ints: 3
      ints: 3
      type: INTS
    }
    attribute {
      name: "pads"
      ints: 1
      ints: 1
      ints: 1
      ints: 1
      type: INTS
    }
    attribute {
      name: "strides"
      ints: 1
      ints: 1
      type: INTS
    }
  }
  node {
    input: "1040"
    output: "1041"
    name: "Relu_362"
    op_type: "Relu"
  }
  node {
    input: "1041"
    input: "cls_head.8.weight"
    input: "cls_head.8.bias"
    output: "1042"
    name: "Conv_363"
    op_type: "Conv"
    attribute {
      name: "dilations"
      ints: 1
      ints: 1
      type: INTS
    }
    attribute {
      name: "group"
      i: 1
      type: INT
    }
    attribute {
      name: "kernel_shape"
      ints: 3
      ints: 3
      type: INTS
    }
    attribute {
      name: "pads"
      ints: 1
      ints: 1
      ints: 1
      ints: 1
      type: INTS
    }
    attribute {
      name: "strides"
      ints: 1
      ints: 1
      type: INTS
    }
  }
  node {
    input: "1032"
    input: "cls_head.0.weight"
    input: "cls_head.0.bias"
    output: "1043"
    name: "Conv_364"
    op_type: "Conv"
    attribute {
      name: "dilations"
      ints: 1
      ints: 1
      type: INTS
    }
    attribute {
      name: "group"
      i: 1
      type: INT
    }
    attribute {
      name: "kernel_shape"
      ints: 3
      ints: 3
      type: INTS
    }
    attribute {
      name: "pads"
      ints: 1
      ints: 1
      ints: 1
      ints: 1
      type: INTS
    }
    attribute {
      name: "strides"
      ints: 1
      ints: 1
      type: INTS
    }
  }
  node {
    input: "1043"
    output: "1044"
    name: "Relu_365"
    op_type: "Relu"
  }
  node {
    input: "1044"
    input: "cls_head.2.weight"
    input: "cls_head.2.bias"
    output: "1045"
    name: "Conv_366"
    op_type: "Conv"
    attribute {
      name: "dilations"
      ints: 1
      ints: 1
      type: INTS
    }
    attribute {
      name: "group"
      i: 1
      type: INT
    }
    attribute {
      name: "kernel_shape"
      ints: 3
      ints: 3
      type: INTS
    }
    attribute {
      name: "pads"
      ints: 1
      ints: 1
      ints: 1
      ints: 1
      type: INTS
    }
    attribute {
      name: "strides"
      ints: 1
      ints: 1
      type: INTS
    }
  }
  node {
    input: "1045"
    output: "1046"
    name: "Relu_367"
    op_type: "Relu"
  }
  node {
    input: "1046"
    input: "cls_head.4.weight"
    input: "cls_head.4.bias"
    output: "1047"
    name: "Conv_368"
    op_type: "Conv"
    attribute {
      name: "dilations"
      ints: 1
      ints: 1
      type: INTS
    }
    attribute {
      name: "group"
      i: 1
      type: INT
    }
    attribute {
      name: "kernel_shape"
      ints: 3
      ints: 3
      type: INTS
    }
    attribute {
      name: "pads"
      ints: 1
      ints: 1
      ints: 1
      ints: 1
      type: INTS
    }
    attribute {
      name: "strides"
      ints: 1
      ints: 1
      type: INTS
    }
  }
  node {
    input: "1047"
    output: "1048"
    name: "Relu_369"
    op_type: "Relu"
  }
  node {
    input: "1048"
    input: "cls_head.6.weight"
    input: "cls_head.6.bias"
    output: "1049"
    name: "Conv_370"
    op_type: "Conv"
    attribute {
      name: "dilations"
      ints: 1
      ints: 1
      type: INTS
    }
    attribute {
      name: "group"
      i: 1
      type: INT
    }
    attribute {
      name: "kernel_shape"
      ints: 3
      ints: 3
      type: INTS
    }
    attribute {
      name: "pads"
      ints: 1
      ints: 1
      ints: 1
      ints: 1
      type: INTS
    }
    attribute {
      name: "strides"
      ints: 1
      ints: 1
      type: INTS
    }
  }
  node {
    input: "1049"
    output: "1050"
    name: "Relu_371"
    op_type: "Relu"
  }
  node {
    input: "1050"
    input: "cls_head.8.weight"
    input: "cls_head.8.bias"
    output: "1051"
    name: "Conv_372"
    op_type: "Conv"
    attribute {
      name: "dilations"
      ints: 1
      ints: 1
      type: INTS
    }
    attribute {
      name: "group"
      i: 1
      type: INT
    }
    attribute {
      name: "kernel_shape"
      ints: 3
      ints: 3
      type: INTS
    }
    attribute {
      name: "pads"
      ints: 1
      ints: 1
      ints: 1
      ints: 1
      type: INTS
    }
    attribute {
      name: "strides"
      ints: 1
      ints: 1
      type: INTS
    }
  }
  node {
    input: "1033"
    input: "cls_head.0.weight"
    input: "cls_head.0.bias"
    output: "1052"
    name: "Conv_373"
    op_type: "Conv"
    attribute {
      name: "dilations"
      ints: 1
      ints: 1
      type: INTS
    }
    attribute {
      name: "group"
      i: 1
      type: INT
    }
    attribute {
      name: "kernel_shape"
      ints: 3
      ints: 3
      type: INTS
    }
    attribute {
      name: "pads"
      ints: 1
      ints: 1
      ints: 1
      ints: 1
      type: INTS
    }
    attribute {
      name: "strides"
      ints: 1
      ints: 1
      type: INTS
    }
  }
  node {
    input: "1052"
    output: "1053"
    name: "Relu_374"
    op_type: "Relu"
  }
  node {
    input: "1053"
    input: "cls_head.2.weight"
    input: "cls_head.2.bias"
    output: "1054"
    name: "Conv_375"
    op_type: "Conv"
    attribute {
      name: "dilations"
      ints: 1
      ints: 1
      type: INTS
    }
    attribute {
      name: "group"
      i: 1
      type: INT
    }
    attribute {
      name: "kernel_shape"
      ints: 3
      ints: 3
      type: INTS
    }
    attribute {
      name: "pads"
      ints: 1
      ints: 1
      ints: 1
      ints: 1
      type: INTS
    }
    attribute {
      name: "strides"
      ints: 1
      ints: 1
      type: INTS
    }
  }
  node {
    input: "1054"
    output: "1055"
    name: "Relu_376"
    op_type: "Relu"
  }
  node {
    input: "1055"
    input: "cls_head.4.weight"
    input: "cls_head.4.bias"
    output: "1056"
    name: "Conv_377"
    op_type: "Conv"
    attribute {
      name: "dilations"
      ints: 1
      ints: 1
      type: INTS
    }
    attribute {
      name: "group"
      i: 1
      type: INT
    }
    attribute {
      name: "kernel_shape"
      ints: 3
      ints: 3
      type: INTS
    }
    attribute {
      name: "pads"
      ints: 1
      ints: 1
      ints: 1
      ints: 1
      type: INTS
    }
    attribute {
      name: "strides"
      ints: 1
      ints: 1
      type: INTS
    }
  }
  node {
    input: "1056"
    output: "1057"
    name: "Relu_378"
    op_type: "Relu"
  }
  node {
    input: "1057"
    input: "cls_head.6.weight"
    input: "cls_head.6.bias"
    output: "1058"
    name: "Conv_379"
    op_type: "Conv"
    attribute {
      name: "dilations"
      ints: 1
      ints: 1
      type: INTS
    }
    attribute {
      name: "group"
      i: 1
      type: INT
    }
    attribute {
      name: "kernel_shape"
      ints: 3
      ints: 3
      type: INTS
    }
    attribute {
      name: "pads"
      ints: 1
      ints: 1
      ints: 1
      ints: 1
      type: INTS
    }
    attribute {
      name: "strides"
      ints: 1
      ints: 1
      type: INTS
    }
  }
  node {
    input: "1058"
    output: "1059"
    name: "Relu_380"
    op_type: "Relu"
  }
  node {
    input: "1059"
    input: "cls_head.8.weight"
    input: "cls_head.8.bias"
    output: "1060"
    name: "Conv_381"
    op_type: "Conv"
    attribute {
      name: "dilations"
      ints: 1
      ints: 1
      type: INTS
    }
    attribute {
      name: "group"
      i: 1
      type: INT
    }
    attribute {
      name: "kernel_shape"
      ints: 3
      ints: 3
      type: INTS
    }
    attribute {
      name: "pads"
      ints: 1
      ints: 1
      ints: 1
      ints: 1
      type: INTS
    }
    attribute {
      name: "strides"
      ints: 1
      ints: 1
      type: INTS
    }
  }
  node {
    input: "1028"
    input: "cls_head.0.weight"
    input: "cls_head.0.bias"
    output: "1061"
    name: "Conv_382"
    op_type: "Conv"
    attribute {
      name: "dilations"
      ints: 1
      ints: 1
      type: INTS
    }
    attribute {
      name: "group"
      i: 1
      type: INT
    }
    attribute {
      name: "kernel_shape"
      ints: 3
      ints: 3
      type: INTS
    }
    attribute {
      name: "pads"
      ints: 1
      ints: 1
      ints: 1
      ints: 1
      type: INTS
    }
    attribute {
      name: "strides"
      ints: 1
      ints: 1
      type: INTS
    }
  }
  node {
    input: "1061"
    output: "1062"
    name: "Relu_383"
    op_type: "Relu"
  }
  node {
    input: "1062"
    input: "cls_head.2.weight"
    input: "cls_head.2.bias"
    output: "1063"
    name: "Conv_384"
    op_type: "Conv"
    attribute {
      name: "dilations"
      ints: 1
      ints: 1
      type: INTS
    }
    attribute {
      name: "group"
      i: 1
      type: INT
    }
    attribute {
      name: "kernel_shape"
      ints: 3
…
        shape {
          dim {
            dim_value: 256
          }
          dim {
            dim_value: 1024
          }
          dim {
            dim_value: 1
          }
          dim {
            dim_value: 1
          }
        }
      }
    }
  }
  input {
    name: "backbones.ResNet101FPN.features.layer3.5.conv2.weight"
    type {
      tensor_type {
        elem_type: 1
        shape {
          dim {
            dim_value: 256
          }
          dim {
            dim_value: 256
          }
          dim {
            dim_value: 3
          }
          dim {
            dim_value: 3
          }
        }
      }
    }
  }
  input {
    name: "backbones.ResNet101FPN.features.layer3.5.conv3.weight"
    type {
      tensor_type {
        elem_type: 1
        shape {
          dim {
            dim_value: 1024
          }
          dim {
            dim_value: 256
          }
          dim {
            dim_value: 1
          }
          dim {
            dim_value: 1
          }
        }
      }
    }
  }
  input {
    name: "backbones.ResNet101FPN.features.layer3.6.bn1.bias"
    type {
      tensor_type {
        elem_type: 1
        shape {
          dim {
            dim_value: 256
          }
        }
      }
    }
  }
  input {
    name: "backbones.ResNet101FPN.features.layer3.6.bn1.running_mean"
    type {
      tensor_type {
        elem_type: 1
        shape {
          dim {
            dim_value: 256
          }
        }
      }
    }
  }
  input {
    name: "backbones.ResNet101FPN.features.layer3.6.bn1.running_var"
    type {
      tensor_type {
        elem_type: 1
        shape {
          dim {
            dim_value: 256
          }
        }
      }
    }
  }
  input {
    name: "backbones.ResNet101FPN.features.layer3.6.bn1.weight"
    type {
      tensor_type {
        elem_type: 1
        shape {
          dim {
            dim_value: 256
          }
        }
      }
    }
  }
  input {
    name: "backbones.ResNet101FPN.features.layer3.6.bn2.bias"
    type {
      tensor_type {
        elem_type: 1
        shape {
          dim {
            dim_value: 256
          }
        }
      }
    }
  }
  input {
    name: "backbones.ResNet101FPN.features.layer3.6.bn2.running_mean"
    type {
      tensor_type {
        elem_type: 1
        shape {
          dim {
            dim_value: 256
          }
        }
      }
    }
  }
  input {
    name: "backbones.ResNet101FPN.features.layer3.6.bn2.running_var"
    type {
      tensor_type {
        elem_type: 1
        shape {
          dim {
            dim_value: 256
          }
        }
      }
    }
  }
  input {
    name: "backbones.ResNet101FPN.features.layer3.6.bn2.weight"
    type {
      tensor_type {
        elem_type: 1
        shape {
          dim {
            dim_value: 256
          }
        }
      }
    }
  }
  input {
    name: "backbones.ResNet101FPN.features.layer3.6.bn3.bias"
    type {
      tensor_type {
        elem_type: 1
        shape {
          dim {
            dim_value: 1024
          }
        }
      }
    }
  }
  input {
    name: "backbones.ResNet101FPN.features.layer3.6.bn3.running_mean"
    type {
      tensor_type {
        elem_type: 1
        shape {
          dim {
            dim_value: 1024
          }
        }
      }
    }
  }
  input {
    name: "backbones.ResNet101FPN.features.layer3.6.bn3.running_var"
    type {
      tensor_type {
        elem_type: 1
        shape {
          dim {
            dim_value: 1024
          }
        }
      }
    }
  }
  input {
    name: "backbones.ResNet101FPN.features.layer3.6.bn3.weight"
    type {
      tensor_type {
        elem_type: 1
        shape {
          dim {
            dim_value: 1024
          }
        }
      }
    }
  }
  input {
    name: "backbones.ResNet101FPN.features.layer3.6.conv1.weight"
    type {
      tensor_type {
        elem_type: 1
        shape {
          dim {
            dim_value: 256
          }
          dim {
            dim_value: 1024
          }
          dim {
            dim_value: 1
          }
          dim {
            dim_value: 1
          }
        }
      }
    }
  }
  input {
    name: "backbones.ResNet101FPN.features.layer3.6.conv2.weight"
    type {
      tensor_type {
        elem_type: 1
        shape {
          dim {
            dim_value: 256
          }
          dim {
            dim_value: 256
          }
          dim {
            dim_value: 3
          }
          dim {
            dim_value: 3
          }
        }
      }
    }
  }
  input {
    name: "backbones.ResNet101FPN.features.layer3.6.conv3.weight"
    type {
      tensor_type {
        elem_type: 1
        shape {
          dim {
            dim_value: 1024
          }
          dim {
            dim_value: 256
          }
          dim {
            dim_value: 1
          }
          dim {
            dim_value: 1
          }
        }
      }
    }
  }
  input {
    name: "backbones.ResNet101FPN.features.layer3.7.bn1.bias"
    type {
      tensor_type {
        elem_type: 1
        shape {
          dim {
            dim_value: 256
          }
        }
      }
    }
  }
  input {
    name: "backbones.ResNet101FPN.features.layer3.7.bn1.running_mean"
    type {
      tensor_type {
        elem_type: 1
        shape {
          dim {
            dim_value: 256
          }
        }
      }
    }
  }
  input {
    name: "backbones.ResNet101FPN.features.layer3.7.bn1.running_var"
    type {
      tensor_type {
        elem_type: 1
        shape {
          dim {
            dim_value: 256
          }
        }
      }
    }
  }
  input {
    name: "backbones.ResNet101FPN.features.layer3.7.bn1.weight"
    type {
      tensor_type {
        elem_type: 1
        shape {
          dim {
            dim_value: 256
          }
        }
      }
    }
  }
  input {
    name: "backbones.ResNet101FPN.features.layer3.7.bn2.bias"
    type {
      tensor_type {
        elem_type: 1
        shape {
          dim {
            dim_value: 256
          }
        }
      }
    }
  }
  input {
    name: "backbones.ResNet101FPN.features.layer3.7.bn2.running_mean"
    type {
      tensor_type {
        elem_type: 1
        shape {
          dim {
            dim_value: 256
          }
        }
      }
    }
  }
  input {
    name: "backbones.ResNet101FPN.features.layer3.7.bn2.running_var"
    type {
      tensor_type {
        elem_type: 1
        shape {
          dim {
            dim_value: 256
          }
        }
      }
    }
  }
  input {
    name: "backbones.ResNet101FPN.features.layer3.7.bn2.weight"
    type {
      tensor_type {
        elem_type: 1
        shape {
          dim {
            dim_value: 256
          }
        }
      }
    }
  }
  input {
    name: "backbones.ResNet101FPN.features.layer3.7.bn3.bias"
    type {
      tensor_type {
        elem_type: 1
        shape {
          dim {
            dim_value: 1024
          }
        }
      }
    }
  }
  input {
    name: "backbones.ResNet101FPN.features.layer3.7.bn3.running_mean"
    type {
      tensor_type {
        elem_type: 1
        shape {
          dim {
            dim_value: 1024
          }
        }
      }
    }
  }
  input {
    name: "backbones.ResNet101FPN.features.layer3.7.bn3.running_var"
    type {
      tensor_type {
        elem_type: 1
        shape {
          dim {
            dim_value: 1024
          }
        }
      }
    }
  }
  input {
    name: "backbones.ResNet101FPN.features.layer3.7.bn3.weight"
    type {
      tensor_type {
        elem_type: 1
        shape {
          dim {
            dim_value: 1024
          }
        }
      }
    }
  }
  input {
    name: "backbones.ResNet101FPN.features.layer3.7.conv1.weight"
    type {
      tensor_type {
        elem_type: 1
        shape {
          dim {
            dim_value: 256
          }
          dim {
            dim_value: 1024
          }
          dim {
            dim_value: 1
          }
          dim {
            dim_value: 1
          }
        }
      }
    }
  }
  input {
    name: "backbones.ResNet101FPN.features.layer3.7.conv2.weight"
    type {
      tensor_type {
        elem_type: 1
        shape {
          dim {
            dim_value: 256
          }
          dim {
            dim_value: 256
          }
          dim {
            dim_value: 3
          }
          dim {
            dim_value: 3
          }
        }
      }
    }
  }
  input {
    name: "backbones.ResNet101FPN.features.layer3.7.conv3.weight"
    type {
      tensor_type {
        elem_type: 1
        shape {
          dim {
            dim_value: 1024
          }
          dim {
            dim_value: 256
          }
          dim {
            dim_value: 1
          }
          dim {
            dim_value: 1
          }
        }
      }
    }
  }
  input {
    name: "backbones.ResNet101FPN.features.layer3.8.bn1.bias"
    type {
      tensor_type {
        elem_type: 1
        shape {
          dim {
            dim_value: 256
          }
        }
      }
    }
  }
  input {
    name: "backbones.ResNet101FPN.features.layer3.8.bn1.running_mean"
    type {
      tensor_type {
        elem_type: 1
        shape {
          dim {
            dim_value: 256
          }
        }
      }
    }
  }
  input {
    name: "backbones.ResNet101FPN.features.layer3.8.bn1.running_var"
    type {
      tensor_type {
        elem_type: 1
        shape {
          dim {
            dim_value: 256
          }
        }
      }
    }
  }
  input {
    name: "backbones.ResNet101FPN.features.layer3.8.bn1.weight"
    type {
      tensor_type {
        elem_type: 1
        shape {
          dim {
            dim_value: 256
          }
        }
      }
    }
  }
  input {
    name: "backbones.ResNet101FPN.features.layer3.8.bn2.bias"
    type {
      tensor_type {
        elem_type: 1
        shape {
          dim {
            dim_value: 256
          }
        }
      }
    }
  }
  input {
    name: "backbones.ResNet101FPN.features.layer3.8.bn2.running_mean"
    type {
      tensor_type {
        elem_type: 1
        shape {
          dim {
            dim_value: 256
          }
        }
      }
    }
  }
  input {
    name: "backbones.ResNet101FPN.features.layer3.8.bn2.running_var"
    type {
      tensor_type {
        elem_type: 1
        shape {
          dim {
            dim_value: 256
          }
        }
      }
    }
  }
  input {
    name: "backbones.ResNet101FPN.features.layer3.8.bn2.weight"
    type {
      tensor_type {
        elem_type: 1
        shape {
          dim {
            dim_value: 256
          }
        }
      }
    }
  }
  input {
    name: "backbones.ResNet101FPN.features.layer3.8.bn3.bias"
    type {
      tensor_type {
        elem_type: 1
        shape {
          dim {
            dim_value: 1024
          }
        }
      }
    }
  }
  input {
    name: "backbones.ResNet101FPN.features.layer3.8.bn3.running_mean"
    type {
      tensor_type {
        elem_type: 1
        shape {
          dim {
            dim_value: 1024
          }
        }
      }
    }
  }
  input {
    name: "backbones.ResNet101FPN.features.layer3.8.bn3.running_var"
    type {
      tensor_type {
        elem_type: 1
        shape {
          dim {
            dim_value: 1024
          }
        }
      }
    }
  }
  input {
    name: "backbones.ResNet101FPN.features.layer3.8.bn3.weight"
    type {
      tensor_type {
        elem_type: 1
        shape {
          dim {
            dim_value: 1024
          }
        }
      }
    }
  }
  input {
    name: "backbones.ResNet101FPN.features.layer3.8.conv1.weight"
    type {
      tensor_type {
        elem_type: 1
        shape {
          dim {
            dim_value: 256
          }
          dim {
            dim_value: 1024
          }
          dim {
            dim_value: 1
          }
          dim {
            dim_value: 1
          }
        }
      }
    }
  }
  input {
    name: "backbones.ResNet101FPN.features.layer3.8.conv2.weight"
    type {
      tensor_type {
        elem_type: 1
        shape {
          dim {
            dim_value: 256
          }
          dim {
            dim_value: 256
          }
          dim {
            dim_value: 3
          }
          dim {
            dim_value: 3
          }
        }
      }
    }
  }
  input {
    name: "backbones.ResNet101FPN.features.layer3.8.conv3.weight"
    type {
      tensor_type {
        elem_type: 1
        shape {
          dim {
            dim_value: 1024
          }
          dim {
            dim_value: 256
          }
          dim {
            dim_value: 1
          }
          dim {
            dim_value: 1
          }
        }
      }
    }
  }
  input {
    name: "backbones.ResNet101FPN.features.layer3.9.bn1.bias"
    type {
      tensor_type {
        elem_type: 1
        shape {
          dim {
            dim_value: 256
          }
        }
      }
    }
  }
  input {
    name: "backbones.ResNet101FPN.features.layer3.9.bn1.running_mean"
    type {
      tensor_type {
        elem_type: 1
        shape {
          dim {
            dim_value: 256
          }
        }
      }
    }
  }
  input {
    name: "backbones.ResNet101FPN.features.layer3.9.bn1.running_var"
    type {
      tensor_type {
        elem_type: 1
        shape {
          dim {
            dim_value: 256
          }
        }
      }
    }
  }
  input {
    name: "backbones.ResNet101FPN.features.layer3.9.bn1.weight"
    type {
      tensor_type {
        elem_type: 1
        shape {
          dim {
            dim_value: 256
          }
        }
      }
    }
  }
  input {
    name: "backbones.ResNet101FPN.features.layer3.9.bn2.bias"
    type {
      tensor_type {
        elem_type: 1
        shape {
          dim {
            dim_value: 256
          }
        }
      }
    }
  }
  input {
    name: "backbones.ResNet101FPN.features.layer3.9.bn2.running_mean"
    type {
      tensor_type {
        elem_type: 1
        shape {
          dim {
            dim_value: 256
          }
        }
      }
    }
  }
  input {
    name: "backbones.ResNet101FPN.features.layer3.9.bn2.running_var"
    type {
      tensor_type {
        elem_type: 1
        shape {
          dim {
            dim_value: 256
          }
        }
      }
    }
  }
  input {
    name: "backbones.ResNet101FPN.features.layer3.9.bn2.weight"
    type {
      tensor_type {
        elem_type: 1
        shape {
          dim {
            dim_value: 256
          }
        }
      }
    }
  }
  input {
    name: "backbones.ResNet101FPN.features.layer3.9.bn3.bias"
    type {
      tensor_type {
        elem_type: 1
        shape {
          dim {
            dim_value: 1024
          }
        }
      }
    }
  }
  input {
    name: "backbones.ResNet101FPN.features.layer3.9.bn3.running_mean"
    type {
      tensor_type {
        elem_type: 1
        shape {
          dim {
            dim_value: 1024
          }
        }
      }
    }
  }
  input {
    name: "backbones.ResNet101FPN.features.layer3.9.bn3.running_var"
    type {
      tensor_type {
        elem_type: 1
        shape {
          dim {
            dim_value: 1024
          }
        }
      }
    }
  }
  input {
    name: "backbones.ResNet101FPN.features.layer3.9.bn3.weight"
    type {
      tensor_type {
        elem_type: 1
        shape {
          dim {
            dim_value: 1024
          }
        }
      }
    }
  }
  input {
    name: "backbones.ResNet101FPN.features.layer3.9.conv1.weight"
    type {
      tensor_type {
        elem_type: 1
        shape {
          dim {
            dim_value: 256
          }
          dim {
            dim_value: 1024
          }
          dim {
            dim_value: 1
          }
          dim {
            dim_value: 1
          }
        }
      }
    }
  }
  input {
    name: "backbones.ResNet101FPN.features.layer3.9.conv2.weight"
    type {
      tensor_type {
        elem_type: 1
        shape {
          dim {
            dim_value: 256
          }
          dim {
            dim_value: 256
          }
          dim {
            dim_value: 3
          }
          dim {
            dim_value: 3
          }
        }
      }
    }
  }
  input {
    name: "backbones.ResNet101FPN.features.layer3.9.conv3.weight"
    type {
      tensor_type {
        elem_type: 1
        shape {
          dim {
            dim_value: 1024
          }
          dim {
            dim_value: 256
          }
          dim {
            dim_value: 1
          }
          dim {
            dim_value: 1
          }
        }
      }
    }
  }
  input {
    name: "backbones.ResNet101FPN.features.layer4.0.bn1.bias"
    type {
      tensor_type {
        elem_type: 1
        shape {
          dim {
            dim_value: 512
          }
        }
      }
    }
  }
  input {
    name: "backbones.ResNet101FPN.features.layer4.0.bn1.running_mean"
    type {
      tensor_type {
        elem_type: 1
        shape {
          dim {
            dim_value: 512
          }
        }
      }
    }
  }
  input {
    name: "backbones.ResNet101FPN.features.layer4.0.bn1.running_var"
    type {
      tensor_type {
        elem_type: 1
        shape {
          dim {
            dim_value: 512
          }
        }
      }
    }
  }
  input {
    name: "backbones.ResNet101FPN.features.layer4.0.bn1.weight"
    type {
      tensor_type {
        elem_type: 1
        shape {
          dim {
            dim_value: 512
          }
        }
      }
    }
  }
  input {
    name: "backbones.ResNet101FPN.features.layer4.0.bn2.bias"
    type {
      tensor_type {
        elem_type: 1
        shape {
          dim {
            dim_value: 512
          }
        }
      }
    }
  }
  input {
    name: "backbones.ResNet101FPN.features.layer4.0.bn2.running_mean"
    type {
      tensor_type {
        elem_type: 1
        shape {
          dim {
            dim_value: 512
          }
        }
      }
    }
  }
  input {
    name: "backbones.ResNet101FPN.features.layer4.0.bn2.running_var"
    type {
      tensor_type {
        elem_type: 1
        shape {
          dim {
            dim_value: 512
          }
        }
      }
    }
  }
  input {
    name: "backbones.ResNet101FPN.features.layer4.0.bn2.weight"
    type {
      tensor_type {
        elem_type: 1
        shape {
          dim {
            dim_value: 512
          }
        }
      }
    }
  }
  input {
    name: "backbones.ResNet101FPN.features.layer4.0.bn3.bias"
    type {
      tensor_type {
        elem_type: 1
        shape {
          dim {
            dim_value: 2048
          }
        }
      }
    }
  }
  input {
    name: "backbones.ResNet101FPN.features.layer4.0.bn3.running_mean"
    type {
      tensor_type {
        elem_type: 1
        shape {
          dim {
            dim_value: 2048
          }
        }
      }
    }
  }
  input {
    name: "backbones.ResNet101FPN.features.layer4.0.bn3.running_var"
    type {
      tensor_type {
        elem_type: 1
        shape {
          dim {
            dim_value: 2048
          }
        }
      }
    }
  }
  input {
    name: "backbones.ResNet101FPN.features.layer4.0.bn3.weight"
    type {
      tensor_type {
        elem_type: 1
        shape {
          dim {
            dim_value: 2048
          }
        }
      }
    }
  }
  input {
    name: "backbones.ResNet101FPN.features.layer4.0.conv1.weight"
    type {
      tensor_type {
        elem_type: 1
        shape {
          dim {
            dim_value: 512
          }
          dim {
            dim_value: 1024
          }
          dim {
            dim_value: 1
          }
          dim {
            dim_value: 1
          }
        }
      }
    }
  }
  input {
    name: "backbones.ResNet101FPN.features.layer4.0.conv2.weight"
    type {
      tensor_type {
        elem_type: 1
        shape {
          dim {
            dim_value: 512
          }
          dim {
            dim_value: 512
          }
          dim {
            dim_value: 3
          }
          dim {
            dim_value: 3
          }
        }
      }
    }
  }
  input {
    name: "backbones.ResNet101FPN.features.layer4.0.conv3.weight"
    type {
      tensor_type {
        elem_type: 1
        shape {
          dim {
            dim_value: 2048
          }
          dim {
            dim_value: 512
          }
          dim {
            dim_value: 1
          }
          dim {
            dim_value: 1
          }
        }
      }
    }
  }
  input {
    name: "backbones.ResNet101FPN.features.layer4.0.downsample.0.weight"
    type {
      tensor_type {
        elem_type: 1
        shape {
          dim {
            dim_value: 2048
          }
          dim {
            dim_value: 1024
          }
          dim {
            dim_value: 1
          }
          dim {
            dim_value: 1
          }
        }
      }
    }
  }
  input {
    name: "backbones.ResNet101FPN.features.layer4.0.downsample.1.bias"
    type {
      tensor_type {
        elem_type: 1
        shape {
          dim {
            dim_value: 2048
          }
        }
      }
    }
  }
  input {
    name: "backbones.ResNet101FPN.features.layer4.0.downsample.1.running_mean"
    type {
      tensor_type {
        elem_type: 1
        shape {
          dim {
            dim_value: 2048
          }
        }
      }
    }
  }
  input {
    name: "backbones.ResNet101FPN.features.layer4.0.downsample.1.running_var"
    type {
      tensor_type {
        elem_type: 1
        shape {
          dim {
            dim_value: 2048
          }
        }
      }
    }
  }
  input {
    name: "backbones.ResNet101FPN.features.layer4.0.downsample.1.weight"
    type {
      tensor_type {
        elem_type: 1
        shape {
          dim {
            dim_value: 2048
          }
        }
      }
    }
  }
  input {
    name: "backbones.ResNet101FPN.features.layer4.1.bn1.bias"
    type {
      tensor_type {
        elem_type: 1
        shape {
          dim {
            dim_value: 512
          }
        }
      }
    }
  }
  input {
    name: "backbones.ResNet101FPN.features.layer4.1.bn1.running_mean"
    type {
      tensor_type {
        elem_type: 1
        shape {
          dim {
            dim_value: 512
          }
        }
      }
    }
  }
  input {
    name: "backbones.ResNet101FPN.features.layer4.1.bn1.running_var"
    type {
      tensor_type {
        elem_type: 1
        shape {
          dim {
            dim_value: 512
          }
        }
      }
    }
  }
  input {
    name: "backbones.ResNet101FPN.features.layer4.1.bn1.weight"
    type {
      tensor_type {
        elem_type: 1
        shape {
          dim {
            dim_value: 512
          }
        }
      }
    }
  }
  input {
    name: "backbones.ResNet101FPN.features.layer4.1.bn2.bias"
    type {
      tensor_type {
        elem_type: 1
        shape {
          dim {
            dim_value: 512
          }
        }
      }
    }
  }
  input {
    name: "backbones.ResNet101FPN.features.layer4.1.bn2.running_mean"
    type {
      tensor_type {
        elem_type: 1
        shape {
          dim {
            dim_value: 512
          }
        }
      }
    }
  }
  input {
    name: "backbones.ResNet101FPN.features.layer4.1.bn2.running_var"
    type {
      tensor_type {
        elem_type: 1
        shape {
          dim {
            dim_value: 512
          }
        }
      }
    }
  }
  input {
    name: "backbones.ResNet101FPN.features.layer4.1.bn2.weight"
    type {
      tensor_type {
        elem_type: 1
        shape {
          dim {
            dim_value: 512
          }
        }
      }
    }
  }
  input {
    name: "backbones.ResNet101FPN.features.layer4.1.bn3.bias"
    type {
      tensor_type {
        elem_type: 1
        shape {
          dim {
            dim_value: 2048
          }
        }
      }
    }
  }
  input {
    name: "backbones.ResNet101FPN.features.layer4.1.bn3.running_mean"
    type {
      tensor_type {
        elem_type: 1
        shape {
          dim {
            dim_value: 2048
          }
        }
      }
    }
  }
  input {
    name: "backbones.ResNet101FPN.features.layer4.1.bn3.running_var"
    type {
      tensor_type {
        elem_type: 1
        shape {
          dim {
            dim_value: 2048
          }
        }
      }
    }
  }
  input {
    name: "backbones.ResNet101FPN.features.layer4.1.bn3.weight"
    type {
      tensor_type {
        elem_type: 1
        shape {
          dim {
            dim_value: 2048
          }
        }
      }
    }
  }
  input {
    name: "backbones.ResNet101FPN.features.layer4.1.conv1.weight"
    type {
      tensor_type {
        elem_type: 1
        shape {
          dim {
            dim_value: 512
          }
          dim {
            dim_value: 2048
          }
          dim {
            dim_value: 1
          }
          dim {
            dim_value: 1
          }
        }
      }
    }
  }
  input {
    name: "backbones.ResNet101FPN.features.layer4.1.conv2.weight"
    type {
      tensor_type {
        elem_type: 1
        shape {
          dim {
            dim_value: 512
          }
          dim {
            dim_value: 512
          }
          dim {
            dim_value: 3
          }
          dim {
            dim_value: 3
          }
        }
      }
    }
  }
  input {
    name: "backbones.ResNet101FPN.features.layer4.1.conv3.weight"
    type {
      tensor_type {
        elem_type: 1
        shape {
          dim {
            dim_value: 2048
          }
          dim {
            dim_value: 512
          }
          dim {
            dim_value: 1
          }
          dim {
            dim_value: 1
          }
        }
      }
    }
  }
  input {
    name: "backbones.ResNet101FPN.features.layer4.2.bn1.bias"
    type {
      tensor_type {
        elem_type: 1
        shape {
          dim {
            dim_value: 512
          }
        }
      }
    }
  }
  input {
    name: "backbones.ResNet101FPN.features.layer4.2.bn1.running_mean"
    type {
      tensor_type {
        elem_type: 1
        shape {
          dim {
            dim_value: 512
          }
        }
      }
    }
  }
  input {
    name: "backbones.ResNet101FPN.features.layer4.2.bn1.running_var"
    type {
      tensor_type {
        elem_type: 1
        shape {
          dim {
            dim_value: 512
          }
        }
      }
    }
  }
  input {
    name: "backbones.ResNet101FPN.features.layer4.2.bn1.weight"
    type {
      tensor_type {
        elem_type: 1
        shape {
          dim {
            dim_value: 512
          }
        }
      }
    }
  }
  input {
    name: "backbones.ResNet101FPN.features.layer4.2.bn2.bias"
    type {
      tensor_type {
        elem_type: 1
        shape {
          dim {
            dim_value: 512
          }
        }
      }
    }
  }
  input {
    name: "backbones.ResNet101FPN.features.layer4.2.bn2.running_mean"
    type {
      tensor_type {
        elem_type: 1
        shape {
          dim {
            dim_value: 512
          }
        }
      }
    }
  }
  input {
    name: "backbones.ResNet101FPN.features.layer4.2.bn2.running_var"
    type {
      tensor_type {
        elem_type: 1
        shape {
          dim {
            dim_value: 512
          }
        }
      }
    }
  }
  input {
    name: "backbones.ResNet101FPN.features.layer4.2.bn2.weight"
    type {
      tensor_type {
        elem_type: 1
        shape {
          dim {
            dim_value: 512
          }
        }
      }
    }
  }
  input {
    name: "backbones.ResNet101FPN.features.layer4.2.bn3.bias"
    type {
      tensor_type {
        elem_type: 1
        shape {
          dim {
            dim_value: 2048
          }
        }
      }
    }
  }
  input {
    name: "backbones.ResNet101FPN.features.layer4.2.bn3.running_mean"
    type {
      tensor_type {
        elem_type: 1
        shape {
          dim {
            dim_value: 2048
          }
        }
      }
    }
  }
  input {
    name: "backbones.ResNet101FPN.features.layer4.2.bn3.running_var"
    type {
      tensor_type {
        elem_type: 1
        shape {
          dim {
            dim_value: 2048
          }
        }
      }
    }
  }
  input {
    name: "backbones.ResNet101FPN.features.layer4.2.bn3.weight"
    type {
      tensor_type {
        elem_type: 1
        shape {
          dim {
            dim_value: 2048
          }
        }
      }
    }
  }
  input {
    name: "backbones.ResNet101FPN.features.layer4.2.conv1.weight"
    type {
      tensor_type {
        elem_type: 1
        shape {
          dim {
            dim_value: 512
          }
          dim {
            dim_value: 2048
          }
          dim {
            dim_value: 1
          }
          dim {
            dim_value: 1
          }
        }
      }
    }
  }
  input {
    name: "backbones.ResNet101FPN.features.layer4.2.conv2.weight"
    type {
      tensor_type {
        elem_type: 1
        shape {
          dim {
            dim_value: 512
          }
          dim {
            dim_value: 512
          }
          dim {
            dim_value: 3
          }
          dim {
            dim_value: 3
          }
        }
      }
    }
  }
  input {
    name: "backbones.ResNet101FPN.features.layer4.2.conv3.weight"
    type {
      tensor_type {
        elem_type: 1
        shape {
          dim {
            dim_value: 2048
          }
          dim {
            dim_value: 512
          }
          dim {
            dim_value: 1
          }
          dim {
            dim_value: 1
          }
        }
      }
    }
  }
  input {
    name: "backbones.ResNet101FPN.lateral3.bias"
    type {
      tensor_type {
        elem_type: 1
        shape {
          dim {
            dim_value: 256
          }
        }
      }
    }
  }
  input {
    name: "backbones.ResNet101FPN.lateral3.weight"
    type {
      tensor_type {
        elem_type: 1
        shape {
          dim {
            dim_value: 256
          }
          dim {
            dim_value: 512
          }
          dim {
            dim_value: 1
          }
          dim {
            dim_value: 1
          }
        }
      }
    }
  }
  input {
    name: "backbones.ResNet101FPN.lateral4.bias"
    type {
      tensor_type {
        elem_type: 1
        shape {
          dim {
            dim_value: 256
          }
        }
      }
    }
  }
  input {
    name: "backbones.ResNet101FPN.lateral4.weight"
    type {
      tensor_type {
        elem_type: 1
        shape {
          dim {
            dim_value: 256
          }
          dim {
            dim_value: 1024
          }
          dim {
            dim_value: 1
          }
          dim {
            dim_value: 1
          }
        }
      }
    }
  }
  input {
    name: "backbones.ResNet101FPN.lateral5.bias"
    type {
      tensor_type {
        elem_type: 1
        shape {
          dim {
            dim_value: 256
          }
        }
      }
    }
  }
  input {
    name: "backbones.ResNet101FPN.lateral5.weight"
    type {
      tensor_type {
        elem_type: 1
        shape {
          dim {
            dim_value: 256
          }
          dim {
            dim_value: 2048
          }
          dim {
            dim_value: 1
          }
          dim {
            dim_value: 1
          }
        }
      }
    }
  }
  input {
    name: "backbones.ResNet101FPN.pyramid6.bias"
    type {
      tensor_type {
        elem_type: 1
        shape {
          dim {
            dim_value: 256
          }
        }
      }
    }
  }
  input {
    name: "backbones.ResNet101FPN.pyramid6.weight"
    type {
      tensor_type {
        elem_type: 1
        shape {
          dim {
            dim_value: 256
          }
          dim {
            dim_value: 2048
          }
          dim {
            dim_value: 3
          }
          dim {
            dim_value: 3
          }
        }
      }
    }
  }
  input {
    name: "backbones.ResNet101FPN.pyramid7.bias"
    type {
      tensor_type {
        elem_type: 1
        shape {
          dim {
            dim_value: 256
          }
        }
      }
    }
  }
  input {
    name: "backbones.ResNet101FPN.pyramid7.weight"
    type {
      tensor_type {
        elem_type: 1
        shape {
          dim {
            dim_value: 256
          }
          dim {
            dim_value: 256
          }
          dim {
            dim_value: 3
          }
          dim {
            dim_value: 3
          }
        }
      }
    }
  }
  input {
    name: "backbones.ResNet101FPN.smooth3.bias"
    type {
      tensor_type {
        elem_type: 1
        shape {
          dim {
            dim_value: 256
          }
        }
      }
    }
  }
  input {
    name: "backbones.ResNet101FPN.smooth3.weight"
    type {
      tensor_type {
        elem_type: 1
        shape {
          dim {
            dim_value: 256
          }
          dim {
            dim_value: 256
          }
          dim {
            dim_value: 3
          }
          dim {
            dim_value: 3
          }
        }
      }
    }
  }
  input {
    name: "backbones.ResNet101FPN.smooth4.bias"
    type {
      tensor_type {
        elem_type: 1
        shape {
          dim {
            dim_value: 256
          }
        }
      }
    }
  }
  input {
    name: "backbones.ResNet101FPN.smooth4.weight"
    type {
      tensor_type {
        elem_type: 1
        shape {
          dim {
            dim_value: 256
          }
          dim {
            dim_value: 256
          }
          dim {
            dim_value: 3
          }
          dim {
            dim_value: 3
          }
        }
      }
    }
  }
  input {
    name: "backbones.ResNet101FPN.smooth5.bias"
    type {
      tensor_type {
        elem_type: 1
        shape {
          dim {
            dim_value: 256
          }
        }
      }
    }
  }
  input {
    name: "backbones.ResNet101FPN.smooth5.weight"
    type {
      tensor_type {
        elem_type: 1
        shape {
          dim {
            dim_value: 256
          }
          dim {
            dim_value: 256
          }
          dim {
            dim_value: 3
          }
          dim {
            dim_value: 3
          }
        }
      }
    }
  }
  input {
    name: "box_head.0.bias"
    type {
      tensor_type {
        elem_type: 1
        shape {
          dim {
            dim_value: 256
          }
        }
      }
    }
  }
  input {
    name: "box_head.0.weight"
    type {
      tensor_type {
        elem_type: 1
        shape {
          dim {
            dim_value: 256
          }
          dim {
            dim_value: 256
          }
          dim {
            dim_value: 3
          }
          dim {
            dim_value: 3
          }
        }
      }
    }
  }
  input {
    name: "box_head.2.bias"
    type {
      tensor_type {
        elem_type: 1
        shape {
          dim {
            dim_value: 256
          }
        }
      }
    }
  }
  input {
    name: "box_head.2.weight"
    type {
      tensor_type {
        elem_type: 1
        shape {
          dim {
            dim_value: 256
          }
          dim {
            dim_value: 256
          }
          dim {
            dim_value: 3
          }
          dim {
            dim_value: 3
          }
        }
      }
    }
  }
  input {
    name: "box_head.4.bias"
    type {
      tensor_type {
        elem_type: 1
        shape {
          dim {
            dim_value: 256
          }
        }
      }
    }
  }
  input {
    name: "box_head.4.weight"
    type {
      tensor_type {
        elem_type: 1
        shape {
          dim {
            dim_value: 256
          }
          dim {
            dim_value: 256
          }
          dim {
            dim_value: 3
          }
          dim {
            dim_value: 3
          }
        }
      }
    }
  }
  input {
    name: "box_head.6.bias"
    type {
      tensor_type {
        elem_type: 1
        shape {
          dim {
            dim_value: 256
          }
        }
      }
    }
  }
  input {
    name: "box_head.6.weight"
    type {
      tensor_type {
        elem_type: 1
        shape {
          dim {
            dim_value: 256
          }
          dim {
            dim_value: 256
          }
          dim {
            dim_value: 3
          }
          dim {
            dim_value: 3
          }
        }
      }
    }
  }
  input {
    name: "box_head.8.weight"
    type {
      tensor_type {
        elem_type: 1
        shape {
          dim {
            dim_value: 36
          }
          dim {
            dim_value: 256
          }
          dim {
            dim_value: 3
          }
          dim {
            dim_value: 3
          }
        }
      }
    }
  }
  input {
    name: "cls_head.0.bias"
    type {
      tensor_type {
        elem_type: 1
        shape {
          dim {
            dim_value: 256
          }
        }
      }
    }
  }
  input {
    name: "cls_head.0.weight"
    type {
      tensor_type {
        elem_type: 1
        shape {
          dim {
            dim_value: 256
          }
          dim {
            dim_value: 256
          }
          dim {
            dim_value: 3
          }
          dim {
            dim_value: 3
          }
        }
      }
    }
  }
  input {
    name: "cls_head.2.bias"
    type {
      tensor_type {
        elem_type: 1
        shape {
          dim {
            dim_value: 256
          }
        }
      }
    }
  }
  input {
    name: "cls_head.2.weight"
    type {
      tensor_type {
        elem_type: 1
        shape {
          dim {
            dim_value: 256
          }
          dim {
            dim_value: 256
          }
          dim {
            dim_value: 3
          }
          dim {
            dim_value: 3
          }
        }
      }
    }
  }
  input {
    name: "cls_head.4.bias"
    type {
      tensor_type {
        elem_type: 1
        shape {
          dim {
            dim_value: 256
          }
        }
      }
    }
  }
  input {
    name: "cls_head.4.weight"
    type {
      tensor_type {
        elem_type: 1
        shape {
          dim {
            dim_value: 256
          }
          dim {
            dim_value: 256
          }
          dim {
            dim_value: 3
          }
          dim {
            dim_value: 3
          }
        }
      }
    }
  }
  input {
    name: "cls_head.6.bias"
    type {
      tensor_type {
        elem_type: 1
        shape {
          dim {
            dim_value: 256
          }
        }
      }
    }
  }
  input {
    name: "cls_head.6.weight"
    type {
      tensor_type {
        elem_type: 1
        shape {
          dim {
            dim_value: 256
          }
          dim {
            dim_value: 256
          }
          dim {
            dim_value: 3
          }
          dim {
            dim_value: 3
          }
        }
      }
    }
  }
  input {
    name: "cls_head.8.bias"
    type {
      tensor_type {
        elem_type: 1
        shape {
          dim {
            dim_value: 720
          }
        }
      }
    }
  }
  input {
    name: "cls_head.8.weight"
    type {
      tensor_type {
        elem_type: 1
        shape {
          dim {
            dim_value: 720
          }
          dim {
            dim_value: 256
          }
          dim {
            dim_value: 3
          }
          dim {
            dim_value: 3
          }
        }
      }
    }
  }
  output {
    name: "output1"
    type {
      tensor_type {
        elem_type: 1
        shape {
          dim {
            dim_value: 1
          }
          dim {
            dim_value: 720
          }
          dim {
            dim_value: 60
          }
          dim {
            dim_value: 80
          }
        }
      }
    }
  }
  output {
    name: "output2"
    type {
      tensor_type {
        elem_type: 1
        shape {
          dim {
            dim_value: 1
          }
          dim {
            dim_value: 720
          }
          dim {
            dim_value: 30
          }
          dim {
            dim_value: 40
          }
        }
      }
    }
  }
  output {
    name: "output3"
    type {
      tensor_type {
        elem_type: 1
        shape {
          dim {
            dim_value: 1
          }
          dim {
            dim_value: 720
          }
          dim {
            dim_value: 15
          }
          dim {
            dim_value: 20
          }
        }
      }
    }
  }
  output {
    name: "output4"
    type {
      tensor_type {
        elem_type: 1
        shape {
          dim {
            dim_value: 1
          }
          dim {
            dim_value: 720
          }
          dim {
            dim_value: 8
          }
          dim {
            dim_value: 10
          }
        }
      }
    }
  }
  output {
    name: "output5"
    type {
      tensor_type {
        elem_type: 1
        shape {
          dim {
            dim_value: 1
          }
          dim {
            dim_value: 720
          }
          dim {
            dim_value: 4
          }
          dim {
            dim_value: 5
          }
        }
      }
    }
  }
  output {
    name: "output6"
    type {
      tensor_type {
        elem_type: 1
        shape {
          dim {
            dim_value: 1
          }
          dim {
            dim_value: 36
          }
          dim {
            dim_value: 60
          }
          dim {
            dim_value: 80
          }
        }
      }
    }
  }
  output {
    name: "output7"
    type {
      tensor_type {
        elem_type: 1
        shape {
          dim {
            dim_value: 1
          }
          dim {
            dim_value: 36
          }
          dim {
            dim_value: 30
          }
          dim {
            dim_value: 40
          }
        }
      }
    }
  }
  output {
    name: "output8"
    type {
      tensor_type {
        elem_type: 1
        shape {
          dim {
            dim_value: 1
          }
          dim {
            dim_value: 36
          }
          dim {
            dim_value: 15
          }
          dim {
            dim_value: 20
          }
        }
      }
    }
  }
  output {
    name: "output9"
    type {
      tensor_type {
        elem_type: 1
        shape {
          dim {
            dim_value: 1
          }
          dim {
            dim_value: 36
          }
          dim {
            dim_value: 8
          }
          dim {
            dim_value: 10
          }
        }
      }
    }
  }
  output {
    name: "output10"
    type {
      tensor_type {
        elem_type: 1
        shape {
          dim {
            dim_value: 1
          }
          dim {
            dim_value: 36
          }
          dim {
            dim_value: 4
          }
          dim {
            dim_value: 5
          }
        }
      }
    }
  }
  value_info {
    name: "1133"
    type {
      tensor_type {
        elem_type: 1
        shape {
          dim {
            dim_value: 4
          }
        }
      }
    }
  }
  value_info {
    name: "1138"
    type {
      tensor_type {
        elem_type: 1
        shape {
          dim {
            dim_value: 4
          }
        }
      }
    }
  }
  value_info {
    name: "backbones.ResNet101FPN.features.bn1.bias"
    type {
      tensor_type {
        elem_type: 1
        shape {
          dim {
            dim_value: 64
          }
        }
      }
    }
  }
  value_info {
    name: "backbones.ResNet101FPN.features.bn1.running_mean"
    type {
      tensor_type {
        elem_type: 1
        shape {
          dim {
            dim_value: 64
          }
        }
      }
    }
  }
  value_info {
    name: "backbones.ResNet101FPN.features.bn1.running_var"
    type {
      tensor_type {
        elem_type: 1
        shape {
          dim {
            dim_value: 64
          }
        }
      }
    }
  }
  value_info {
    name: "backbones.ResNet101FPN.features.bn1.weight"
    type {
      tensor_type {
        elem_type: 1
        shape {
          dim {
            dim_value: 64
          }
        }
      }
    }
  }
  value_info {
    name: "backbones.ResNet101FPN.features.layer1.0.bn1.bias"
    type {
      tensor_type {
        elem_type: 1
        shape {
          dim {
            dim_value: 64
          }
        }
      }
    }
  }
  value_info {
    name: "backbones.ResNet101FPN.features.layer1.0.bn1.running_mean"
    type {
      tensor_type {
        elem_type: 1
        shape {
          dim {
            dim_value: 64
          }
        }
      }
    }
  }
  value_info {
    name: "backbones.ResNet101FPN.features.layer1.0.bn1.running_var"
    type {
      tensor_type {
        elem_type: 1
        shape {
          dim {
            dim_value: 64
          }
        }
      }
    }
  }
  value_info {
    name: "backbones.ResNet101FPN.features.layer1.0.bn1.weight"
    type {
      tensor_type {
        elem_type: 1
        shape {
          dim {
            dim_value: 64
          }
        }
      }
    }
  }
  value_info {
    name: "backbones.ResNet101FPN.features.layer1.0.bn2.bias"
    type {
      tensor_type {
        elem_type: 1
        shape {
          dim {
            dim_value: 64
          }
        }
      }
    }
  }
  value_info {
    name: "backbones.ResNet101FPN.features.layer1.0.bn2.running_mean"
    type {
      tensor_type {
        elem_type: 1
        shape {
          dim {
            dim_value: 64
          }
        }
      }
    }
  }
  value_info {
    name: "backbones.ResNet101FPN.features.layer1.0.bn2.running_var"
    type {
      tensor_type {
        elem_type: 1
        shape {
          dim {
            dim_value: 64
          }
        }
      }
    }
  }
  value_info {
    name: "backbones.ResNet101FPN.features.layer1.0.bn2.weight"
    type {
      tensor_type {
        elem_type: 1
        shape {
          dim {
            dim_value: 64
          }
        }
      }
    }
  }
  value_info {
    name: "backbones.ResNet101FPN.features.layer1.1.bn1.bias"
    type {
      tensor_type {
        elem_type: 1
        shape {
          dim {
            dim_value: 64
          }
        }
      }
    }
  }
  value_info {
    name: "backbones.ResNet101FPN.features.layer1.1.bn1.running_mean"
    type {
      tensor_type {
        elem_type: 1
        shape {
          dim {
            dim_value: 64
          }
        }
      }
    }
  }
  value_info {
    name: "backbones.ResNet101FPN.features.layer1.1.bn1.running_var"
    type {
      tensor_type {
        elem_type: 1
        shape {
          dim {
            dim_value: 64
          }
        }
      }
    }
  }
  value_info {
    name: "backbones.ResNet101FPN.features.layer1.1.bn1.weight"
    type {
      tensor_type {
        elem_type: 1
        shape {
          dim {
            dim_value: 64
          }
        }
      }
    }
  }
  value_info {
    name: "backbones.ResNet101FPN.features.layer1.1.bn2.bias"
    type {
      tensor_type {
        elem_type: 1
        shape {
          dim {
            dim_value: 64
          }
        }
      }
    }
  }
  value_info {
    name: "backbones.ResNet101FPN.features.layer1.1.bn2.running_mean"
    type {
      tensor_type {
        elem_type: 1
        shape {
          dim {
            dim_value: 64
          }
        }
      }
    }
  }
  value_info {
    name: "backbones.ResNet101FPN.features.layer1.1.bn2.running_var"
    type {
      tensor_type {
        elem_type: 1
        shape {
          dim {
            dim_value: 64
          }
        }
      }
    }
  }
  value_info {
    name: "backbones.ResNet101FPN.features.layer1.1.bn2.weight"
    type {
      tensor_type {
        elem_type: 1
        shape {
          dim {
            dim_value: 64
          }
        }
      }
    }
  }
  value_info {
    name: "backbones.ResNet101FPN.features.layer1.2.bn1.bias"
    type {
      tensor_type {
        elem_type: 1
        shape {
          dim {
            dim_value: 64
          }
        }
      }
    }
  }
  value_info {
    name: "backbones.ResNet101FPN.features.layer1.2.bn1.running_mean"
    type {
      tensor_type {
        elem_type: 1
        shape {
          dim {
            dim_value: 64
          }
        }
      }
    }
  }
  value_info {
    name: "backbones.ResNet101FPN.features.layer1.2.bn1.running_var"
    type {
      tensor_type {
        elem_type: 1
        shape {
          dim {
            dim_value: 64
          }
        }
      }
    }
  }
  value_info {
    name: "backbones.ResNet101FPN.features.layer1.2.bn1.weight"
    type {
      tensor_type {
        elem_type: 1
        shape {
          dim {
            dim_value: 64
          }
        }
      }
    }
  }
  value_info {
    name: "backbones.ResNet101FPN.features.layer1.2.bn2.bias"
    type {
      tensor_type {
        elem_type: 1
        shape {
          dim {
            dim_value: 64
          }
        }
      }
    }
  }
  value_info {
    name: "backbones.ResNet101FPN.features.layer1.2.bn2.running_mean"
    type {
      tensor_type {
        elem_type: 1
        shape {
          dim {
            dim_value: 64
          }
        }
      }
    }
  }
  value_info {
    name: "backbones.ResNet101FPN.features.layer1.2.bn2.running_var"
    type {
      tensor_type {
        elem_type: 1
        shape {
          dim {
            dim_value: 64
          }
        }
      }
    }
  }
  value_info {
    name: "backbones.ResNet101FPN.features.layer1.2.bn2.weight"
    type {
      tensor_type {
        elem_type: 1
        shape {
          dim {
            dim_value: 64
          }
        }
      }
    }
  }
  value_info {
    name: "box_head.8.bias"
    type {
      tensor_type {
        elem_type: 1
        shape {
          dim {
            dim_value: 36
          }
        }
      }
    }
  }
}
opset_import {
  domain: ""
  version: 9
}
