ir_version: 6
producer_name: "pytorch"
producer_version: "1.5"
graph {
  node {
    input: "input"
    output: "204"
    name: "Shape_0"
    op_type: "Shape"
  }
  node {
    input: "204"
    output: "205"
    name: "ConstantOfShape_1"
    op_type: "ConstantOfShape"
    attribute {
      name: "value"
      t {
        dims: 1
        data_type: 7
        raw_data: "\001\000\000\000\000\000\000\000"
      }
      type: TENSOR
    }
  }
  node {
    input: "input"
    output: "206"
    name: "Shape_2"
    op_type: "Shape"
  }
  node {
    input: "206"
    output: "207"
    name: "ConstantOfShape_3"
    op_type: "ConstantOfShape"
    attribute {
      name: "value"
      t {
        dims: 1
        data_type: 7
        raw_data: "\000\000\000\000\000\000\000\000"
      }
      type: TENSOR
    }
  }
  node {
    input: "205"
    output: "208"
    name: "Unsqueeze_4"
    op_type: "Unsqueeze"
    attribute {
      name: "axes"
      ints: 1
      type: INTS
    }
  }
  node {
    input: "208"
    output: "209"
    name: "Unsqueeze_5"
    op_type: "Unsqueeze"
    attribute {
      name: "axes"
      ints: 2
      type: INTS
    }
  }
  node {
    input: "209"
    output: "210"
    name: "Cast_6"
    op_type: "Cast"
    attribute {
      name: "to"
      i: 1
      type: INT
    }
  }
  node {
    output: "211"
    name: "Constant_7"
    op_type: "Constant"
    attribute {
      name: "value"
      t {
        data_type: 1
        raw_data: "\000\000\200?"
      }
      type: TENSOR
    }
  }
  node {
    input: "211"
    input: "210"
    output: "212"
    name: "Sub_8"
    op_type: "Sub"
  }
  node {
    output: "213"
    name: "Constant_9"
    op_type: "Constant"
    attribute {
      name: "value"
      t {
        data_type: 1
        raw_data: "\000@\034\306"
      }
      type: TENSOR
    }
  }
  node {
    input: "212"
    input: "213"
    output: "214"
    name: "Mul_10"
    op_type: "Mul"
  }
  node {
    input: "input"
    output: "215"
    name: "Shape_11"
    op_type: "Shape"
  }
  node {
    output: "216"
    name: "Constant_12"
    op_type: "Constant"
    attribute {
      name: "value"
      t {
        data_type: 7
        raw_data: "\001\000\000\000\000\000\000\000"
      }
      type: TENSOR
    }
  }
  node {
    input: "215"
    input: "216"
    output: "217"
    name: "Gather_13"
    op_type: "Gather"
    attribute {
      name: "axis"
      i: 0
      type: INT
    }
  }
  node {
    output: "218"
    name: "Constant_14"
    op_type: "Constant"
    attribute {
      name: "value"
      t {
        data_type: 7
        raw_data: "\001\000\000\000\000\000\000\000"
      }
      type: TENSOR
    }
  }
  node {
    input: "217"
    input: "218"
    output: "219"
    name: "Add_15"
    op_type: "Add"
  }
  node {
    output: "220"
    name: "Constant_16"
    op_type: "Constant"
    attribute {
      name: "value"
      t {
        data_type: 7
        raw_data: "\001\000\000\000\000\000\000\000"
      }
      type: TENSOR
    }
  }
  node {
    input: "219"
    input: "220"
    output: "221"
    name: "Add_17"
    op_type: "Add"
  }
  node {
    input: "221"
    output: "225"
    name: "Unsqueeze_18"
    op_type: "Unsqueeze"
    attribute {
      name: "axes"
      ints: 0
      type: INTS
    }
  }
  node {
    input: "225"
    input: "1629"
    output: "227"
    name: "Sub_19"
    op_type: "Sub"
  }
  node {
    input: "227"
    input: "1628"
    output: "228"
    name: "Div_20"
    op_type: "Div"
  }
  node {
    input: "228"
    output: "229"
    name: "ConstantOfShape_21"
    op_type: "ConstantOfShape"
    attribute {
      name: "value"
      t {
        dims: 1
        data_type: 7
        raw_data: "\001\000\000\000\000\000\000\000"
      }
      type: TENSOR
    }
  }
  node {
    input: "229"
    output: "230"
    name: "NonZero_22"
    op_type: "NonZero"
  }
  node {
    input: "230"
    output: "231"
    name: "Transpose_23"
    op_type: "Transpose"
    attribute {
      name: "perm"
      ints: 1
      ints: 0
      type: INTS
    }
  }
  node {
    input: "231"
    output: "232"
    name: "Squeeze_24"
    op_type: "Squeeze"
    attribute {
      name: "axes"
      ints: 1
      type: INTS
    }
  }
  node {
    input: "232"
    input: "1628"
    output: "233"
    name: "Mul_25"
    op_type: "Mul"
  }
  node {
    input: "233"
    input: "1629"
    output: "234"
    name: "Add_26"
    op_type: "Add"
  }
  node {
    input: "234"
    output: "235"
    name: "Cast_27"
    op_type: "Cast"
    attribute {
      name: "to"
      i: 7
      type: INT
    }
  }
  node {
    input: "235"
    output: "236"
    name: "Unsqueeze_28"
    op_type: "Unsqueeze"
    attribute {
      name: "axes"
      ints: 0
      type: INTS
    }
  }
  node {
    input: "input"
    output: "237"
    name: "Shape_29"
    op_type: "Shape"
  }
  node {
    input: "236"
    input: "237"
    output: "238"
    name: "Expand_30"
    op_type: "Expand"
  }
  node {
    input: "roberta.embeddings.word_embeddings.weight"
    input: "input"
    output: "239"
    name: "Gather_31"
    op_type: "Gather"
  }
  node {
    input: "roberta.embeddings.position_embeddings.weight"
    input: "238"
    output: "240"
    name: "Gather_32"
    op_type: "Gather"
  }
  node {
    input: "roberta.embeddings.token_type_embeddings.weight"
    input: "207"
    output: "241"
    name: "Gather_33"
    op_type: "Gather"
  }
  node {
    input: "239"
    input: "240"
    output: "242"
    name: "Add_34"
    op_type: "Add"
  }
  node {
    input: "242"
    input: "241"
    output: "243"
    name: "Add_35"
    op_type: "Add"
  }
  node {
    input: "243"
    output: "244"
    name: "ReduceMean_36"
    op_type: "ReduceMean"
    attribute {
      name: "axes"
      ints: -1
      type: INTS
    }
  }
  node {
    input: "243"
    input: "244"
    output: "245"
    name: "Sub_37"
    op_type: "Sub"
  }
  node {
    output: "246"
    name: "Constant_38"
    op_type: "Constant"
    attribute {
      name: "value"
      t {
        data_type: 1
        raw_data: "\000\000\000@"
      }
      type: TENSOR
    }
  }
  node {
    input: "245"
    input: "246"
    output: "247"
    name: "Pow_39"
    op_type: "Pow"
  }
  node {
    input: "247"
    output: "248"
    name: "ReduceMean_40"
    op_type: "ReduceMean"
    attribute {
      name: "axes"
      ints: -1
      type: INTS
    }
  }
  node {
    output: "249"
    name: "Constant_41"
    op_type: "Constant"
    attribute {
      name: "value"
      t {
        data_type: 1
        raw_data: "\254\305\'7"
      }
      type: TENSOR
    }
  }
  node {
    input: "248"
    input: "249"
    output: "250"
    name: "Add_42"
    op_type: "Add"
  }
  node {
    input: "250"
    output: "251"
    name: "Sqrt_43"
    op_type: "Sqrt"
  }
  node {
    input: "245"
    input: "251"
    output: "252"
    name: "Div_44"
    op_type: "Div"
  }
  node {
    input: "252"
    input: "roberta.embeddings.LayerNorm.weight"
    output: "253"
    name: "Mul_45"
    op_type: "Mul"
  }
  node {
    input: "253"
    input: "roberta.embeddings.LayerNorm.bias"
    output: "254"
    name: "Add_46"
    op_type: "Add"
  }
  node {
    input: "254"
    input: "1630"
    output: "256"
    name: "MatMul_47"
    op_type: "MatMul"
  }
  node {
    input: "256"
    input: "roberta.encoder.layer.0.attention.self.query.bias"
    output: "257"
    name: "Add_48"
    op_type: "Add"
  }
  node {
    input: "254"
    input: "1631"
    output: "259"
    name: "MatMul_49"
    op_type: "MatMul"
  }
  node {
    input: "259"
    input: "roberta.encoder.layer.0.attention.self.key.bias"
    output: "260"
    name: "Add_50"
    op_type: "Add"
  }
  node {
    input: "254"
    input: "1632"
    output: "262"
    name: "MatMul_51"
    op_type: "MatMul"
  }
  node {
    input: "262"
    input: "roberta.encoder.layer.0.attention.self.value.bias"
    output: "263"
    name: "Add_52"
    op_type: "Add"
  }
  node {
    input: "257"
    output: "264"
    name: "Shape_53"
    op_type: "Shape"
  }
  node {
    output: "265"
    name: "Constant_54"
    op_type: "Constant"
    attribute {
      name: "value"
      t {
        data_type: 7
        raw_data: "\000\000\000\000\000\000\000\000"
      }
      type: TENSOR
    }
  }
  node {
    input: "264"
    input: "265"
    output: "266"
    name: "Gather_55"
    op_type: "Gather"
    attribute {
      name: "axis"
      i: 0
      type: INT
    }
  }
  node {
    input: "257"
    output: "267"
    name: "Shape_56"
    op_type: "Shape"
  }
  node {
    output: "268"
    name: "Constant_57"
    op_type: "Constant"
    attribute {
      name: "value"
      t {
        data_type: 7
        raw_data: "\001\000\000\000\000\000\000\000"
      }
      type: TENSOR
    }
  }
  node {
    input: "267"
    input: "268"
    output: "269"
    name: "Gather_58"
    op_type: "Gather"
    attribute {
      name: "axis"
      i: 0
      type: INT
    }
  }
  node {
    input: "266"
    output: "272"
    name: "Unsqueeze_59"
    op_type: "Unsqueeze"
    attribute {
      name: "axes"
      ints: 0
      type: INTS
    }
  }
  node {
    input: "269"
    output: "273"
    name: "Unsqueeze_60"
    op_type: "Unsqueeze"
    attribute {
      name: "axes"
      ints: 0
      type: INTS
    }
  }
  node {
    input: "272"
    input: "273"
    input: "1633"
    input: "1634"
    output: "276"
    name: "Concat_61"
    op_type: "Concat"
    attribute {
      name: "axis"
      i: 0
      type: INT
    }
  }
  node {
    input: "257"
    input: "276"
    output: "277"
    name: "Reshape_62"
    op_type: "Reshape"
  }
  node {
    input: "277"
    output: "278"
    name: "Transpose_63"
    op_type: "Transpose"
    attribute {
      name: "perm"
      ints: 0
      ints: 2
      ints: 1
      ints: 3
      type: INTS
    }
  }
  node {
    input: "260"
    output: "279"
    name: "Shape_64"
    op_type: "Shape"
  }
  node {
    output: "280"
    name: "Constant_65"
    op_type: "Constant"
    attribute {
      name: "value"
      t {
        data_type: 7
        raw_data: "\000\000\000\000\000\000\000\000"
      }
      type: TENSOR
    }
  }
  node {
    input: "279"
    input: "280"
    output: "281"
    name: "Gather_66"
    op_type: "Gather"
    attribute {
      name: "axis"
      i: 0
      type: INT
    }
  }
  node {
    input: "260"
    output: "282"
    name: "Shape_67"
    op_type: "Shape"
  }
  node {
    output: "283"
    name: "Constant_68"
    op_type: "Constant"
    attribute {
      name: "value"
      t {
        data_type: 7
        raw_data: "\001\000\000\000\000\000\000\000"
      }
      type: TENSOR
    }
  }
  node {
    input: "282"
    input: "283"
    output: "284"
    name: "Gather_69"
    op_type: "Gather"
    attribute {
      name: "axis"
      i: 0
      type: INT
    }
  }
  node {
    input: "281"
    output: "287"
    name: "Unsqueeze_70"
    op_type: "Unsqueeze"
    attribute {
      name: "axes"
      ints: 0
      type: INTS
    }
  }
  node {
    input: "284"
    output: "288"
    name: "Unsqueeze_71"
    op_type: "Unsqueeze"
    attribute {
      name: "axes"
      ints: 0
      type: INTS
    }
  }
  node {
    input: "287"
    input: "288"
    input: "1635"
    input: "1636"
    output: "291"
    name: "Concat_72"
    op_type: "Concat"
    attribute {
      name: "axis"
      i: 0
      type: INT
    }
  }
  node {
    input: "260"
    input: "291"
    output: "292"
    name: "Reshape_73"
    op_type: "Reshape"
  }
  node {
    input: "263"
    output: "293"
    name: "Shape_74"
    op_type: "Shape"
  }
  node {
    output: "294"
    name: "Constant_75"
    op_type: "Constant"
    attribute {
      name: "value"
      t {
        data_type: 7
        raw_data: "\000\000\000\000\000\000\000\000"
      }
      type: TENSOR
    }
  }
  node {
    input: "293"
    input: "294"
    output: "295"
    name: "Gather_76"
    op_type: "Gather"
    attribute {
      name: "axis"
      i: 0
      type: INT
    }
  }
  node {
    input: "263"
    output: "296"
    name: "Shape_77"
    op_type: "Shape"
  }
  node {
    output: "297"
    name: "Constant_78"
    op_type: "Constant"
    attribute {
      name: "value"
      t {
        data_type: 7
        raw_data: "\001\000\000\000\000\000\000\000"
      }
      type: TENSOR
    }
  }
  node {
    input: "296"
    input: "297"
    output: "298"
    name: "Gather_79"
    op_type: "Gather"
    attribute {
      name: "axis"
      i: 0
      type: INT
    }
  }
  node {
    input: "295"
    output: "301"
    name: "Unsqueeze_80"
    op_type: "Unsqueeze"
    attribute {
      name: "axes"
      ints: 0
      type: INTS
    }
  }
  node {
    input: "298"
    output: "302"
    name: "Unsqueeze_81"
    op_type: "Unsqueeze"
    attribute {
      name: "axes"
      ints: 0
      type: INTS
    }
  }
  node {
    input: "301"
    input: "302"
    input: "1637"
    input: "1638"
    output: "305"
    name: "Concat_82"
    op_type: "Concat"
    attribute {
      name: "axis"
      i: 0
      type: INT
    }
  }
  node {
    input: "263"
    input: "305"
    output: "306"
    name: "Reshape_83"
    op_type: "Reshape"
  }
  node {
    input: "306"
    output: "307"
    name: "Transpose_84"
    op_type: "Transpose"
    attribute {
      name: "perm"
      ints: 0
      ints: 2
      ints: 1
      ints: 3
      type: INTS
    }
  }
  node {
    input: "292"
    output: "308"
    name: "Transpose_85"
    op_type: "Transpose"
    attribute {
      name: "perm"
      ints: 0
      ints: 2
      ints: 3
      ints: 1
      type: INTS
    }
  }
  node {
    input: "278"
    input: "308"
    output: "309"
    name: "MatMul_86"
    op_type: "MatMul"
  }
  node {
    output: "310"
    name: "Constant_87"
    op_type: "Constant"
    attribute {
      name: "value"
      t {
        data_type: 1
        raw_data: "\000\000\000A"
      }
      type: TENSOR
    }
  }
  node {
    input: "309"
    input: "310"
    output: "311"
    name: "Div_88"
    op_type: "Div"
  }
  node {
    input: "311"
    input: "214"
    output: "312"
    name: "Add_89"
    op_type: "Add"
  }
  node {
    input: "312"
    output: "313"
    name: "Softmax_90"
    op_type: "Softmax"
    attribute {
      name: "axis"
      i: 3
      type: INT
    }
  }
  node {
    input: "313"
    input: "307"
    output: "314"
    name: "MatMul_91"
    op_type: "MatMul"
  }
  node {
    input: "314"
    output: "315"
    name: "Transpose_92"
    op_type: "Transpose"
    attribute {
      name: "perm"
      ints: 0
      ints: 2
      ints: 1
      ints: 3
      type: INTS
    }
  }
  node {
    input: "315"
    output: "316"
    name: "Shape_93"
    op_type: "Shape"
  }
  node {
    output: "317"
    name: "Constant_94"
    op_type: "Constant"
    attribute {
      name: "value"
      t {
        data_type: 7
        raw_data: "\000\000\000\000\000\000\000\000"
      }
      type: TENSOR
    }
  }
  node {
    input: "316"
    input: "317"
    output: "318"
    name: "Gather_95"
    op_type: "Gather"
    attribute {
      name: "axis"
      i: 0
      type: INT
    }
  }
  node {
    input: "315"
    output: "319"
    name: "Shape_96"
    op_type: "Shape"
  }
  node {
    output: "320"
    name: "Constant_97"
    op_type: "Constant"
    attribute {
      name: "value"
      t {
        data_type: 7
        raw_data: "\001\000\000\000\000\000\000\000"
      }
      type: TENSOR
    }
  }
  node {
    input: "319"
    input: "320"
    output: "321"
    name: "Gather_98"
    op_type: "Gather"
    attribute {
      name: "axis"
      i: 0
      type: INT
    }
  }
  node {
    input: "318"
    output: "323"
    name: "Unsqueeze_99"
    op_type: "Unsqueeze"
    attribute {
      name: "axes"
      ints: 0
      type: INTS
    }
  }
  node {
    input: "321"
    output: "324"
    name: "Unsqueeze_100"
    op_type: "Unsqueeze"
    attribute {
      name: "axes"
      ints: 0
      type: INTS
    }
  }
  node {
    input: "323"
    input: "324"
    input: "1639"
    output: "326"
    name: "Concat_101"
    op_type: "Concat"
    attribute {
      name: "axis"
      i: 0
      type: INT
    }
  }
  node {
    input: "315"
    input: "326"
    output: "327"
    name: "Reshape_102"
    op_type: "Reshape"
  }
  node {
    input: "327"
    input: "1640"
    output: "329"
    name: "MatMul_103"
    op_type: "MatMul"
  }
  node {
    input: "329"
    input: "roberta.encoder.layer.0.attention.output.dense.bias"
    output: "330"
    name: "Add_104"
    op_type: "Add"
  }
  node {
    input: "330"
    input: "254"
    output: "331"
    name: "Add_105"
    op_type: "Add"
  }
  node {
    input: "331"
    output: "332"
    name: "ReduceMean_106"
    op_type: "ReduceMean"
    attribute {
      name: "axes"
      ints: -1
      type: INTS
    }
  }
  node {
    input: "331"
    input: "332"
    output: "333"
    name: "Sub_107"
    op_type: "Sub"
  }
  node {
    output: "334"
    name: "Constant_108"
    op_type: "Constant"
    attribute {
      name: "value"
      t {
        data_type: 1
        raw_data: "\000\000\000@"
      }
      type: TENSOR
    }
  }
  node {
    input: "333"
    input: "334"
    output: "335"
    name: "Pow_109"
    op_type: "Pow"
  }
  node {
    input: "335"
    output: "336"
    name: "ReduceMean_110"
    op_type: "ReduceMean"
    attribute {
      name: "axes"
      ints: -1
      type: INTS
    }
  }
  node {
    output: "337"
    name: "Constant_111"
    op_type: "Constant"
    attribute {
      name: "value"
      t {
        data_type: 1
        raw_data: "\254\305\'7"
      }
      type: TENSOR
    }
  }
  node {
    input: "336"
    input: "337"
    output: "338"
    name: "Add_112"
    op_type: "Add"
  }
  node {
    input: "338"
    output: "339"
    name: "Sqrt_113"
    op_type: "Sqrt"
  }
  node {
    input: "333"
    input: "339"
    output: "340"
    name: "Div_114"
    op_type: "Div"
  }
  node {
    input: "340"
    input: "roberta.encoder.layer.0.attention.output.LayerNorm.weight"
    output: "341"
    name: "Mul_115"
    op_type: "Mul"
  }
  node {
    input: "341"
    input: "roberta.encoder.layer.0.attention.output.LayerNorm.bias"
    output: "342"
    name: "Add_116"
    op_type: "Add"
  }
  node {
    input: "342"
    input: "1641"
    output: "344"
    name: "MatMul_117"
    op_type: "MatMul"
  }
  node {
    input: "344"
    input: "roberta.encoder.layer.0.intermediate.dense.bias"
    output: "345"
    name: "Add_118"
    op_type: "Add"
  }
  node {
    output: "346"
    name: "Constant_119"
    op_type: "Constant"
    attribute {
      name: "value"
      t {
        data_type: 1
        raw_data: "\000\000\000?"
      }
      type: TENSOR
    }
  }
  node {
    input: "345"
    input: "346"
    output: "347"
    name: "Mul_120"
    op_type: "Mul"
  }
  node {
    output: "348"
    name: "Constant_121"
    op_type: "Constant"
    attribute {
      name: "value"
      t {
        data_type: 1
        raw_data: "\363\004\265?"
      }
      type: TENSOR
    }
  }
  node {
    input: "345"
    input: "348"
    output: "349"
    name: "Div_122"
    op_type: "Div"
  }
  node {
    input: "349"
    output: "350"
    name: "Erf_123"
    op_type: "Erf"
  }
  node {
    output: "351"
    name: "Constant_124"
    op_type: "Constant"
    attribute {
      name: "value"
      t {
        data_type: 1
        raw_data: "\000\000\200?"
      }
      type: TENSOR
    }
  }
  node {
    input: "350"
    input: "351"
    output: "352"
    name: "Add_125"
    op_type: "Add"
  }
  node {
    input: "347"
    input: "352"
    output: "353"
    name: "Mul_126"
    op_type: "Mul"
  }
  node {
    input: "353"
    input: "1642"
    output: "355"
    name: "MatMul_127"
    op_type: "MatMul"
  }
  node {
    input: "355"
    input: "roberta.encoder.layer.0.output.dense.bias"
    output: "356"
    name: "Add_128"
    op_type: "Add"
  }
  node {
    input: "356"
    input: "342"
    output: "357"
    name: "Add_129"
    op_type: "Add"
  }
  node {
    input: "357"
    output: "358"
    name: "ReduceMean_130"
    op_type: "ReduceMean"
    attribute {
      name: "axes"
      ints: -1
      type: INTS
    }
  }
  node {
    input: "357"
    input: "358"
    output: "359"
    name: "Sub_131"
    op_type: "Sub"
  }
  node {
    output: "360"
    name: "Constant_132"
    op_type: "Constant"
    attribute {
      name: "value"
      t {
        data_type: 1
        raw_data: "\000\000\000@"
      }
      type: TENSOR
    }
  }
  node {
    input: "359"
    input: "360"
    output: "361"
    name: "Pow_133"
    op_type: "Pow"
  }
  node {
    input: "361"
    output: "362"
    name: "ReduceMean_134"
    op_type: "ReduceMean"
    attribute {
      name: "axes"
      ints: -1
      type: INTS
    }
  }
  node {
    output: "363"
    name: "Constant_135"
    op_type: "Constant"
    attribute {
      name: "value"
      t {
        data_type: 1
        raw_data: "\254\305\'7"
      }
      type: TENSOR
    }
  }
  node {
    input: "362"
    input: "363"
    output: "364"
    name: "Add_136"
    op_type: "Add"
  }
  node {
    input: "364"
    output: "365"
    name: "Sqrt_137"
    op_type: "Sqrt"
  }
  node {
    input: "359"
    input: "365"
    output: "366"
    name: "Div_138"
    op_type: "Div"
  }
  node {
    input: "366"
    input: "roberta.encoder.layer.0.output.LayerNorm.weight"
    output: "367"
    name: "Mul_139"
    op_type: "Mul"
  }
  node {
    input: "367"
    input: "roberta.encoder.layer.0.output.LayerNorm.bias"
    output: "368"
    name: "Add_140"
    op_type: "Add"
  }
  node {
    input: "368"
    input: "1643"
    output: "370"
    name: "MatMul_141"
    op_type: "MatMul"
  }
  node {
    input: "370"
    input: "roberta.encoder.layer.1.attention.self.query.bias"
    output: "371"
    name: "Add_142"
    op_type: "Add"
  }
  node {
    input: "368"
    input: "1644"
    output: "373"
    name: "MatMul_143"
    op_type: "MatMul"
  }
  node {
    input: "373"
    input: "roberta.encoder.layer.1.attention.self.key.bias"
    output: "374"
    name: "Add_144"
    op_type: "Add"
  }
  node {
    input: "368"
    input: "1645"
    output: "376"
    name: "MatMul_145"
    op_type: "MatMul"
  }
  node {
    input: "376"
    input: "roberta.encoder.layer.1.attention.self.value.bias"
    output: "377"
    name: "Add_146"
    op_type: "Add"
  }
  node {
    input: "371"
    output: "378"
    name: "Shape_147"
    op_type: "Shape"
  }
  node {
    output: "379"
    name: "Constant_148"
    op_type: "Constant"
    attribute {
      name: "value"
      t {
        data_type: 7
        raw_data: "\000\000\000\000\000\000\000\000"
      }
      type: TENSOR
    }
  }
  node {
    input: "378"
    input: "379"
    output: "380"
    name: "Gather_149"
    op_type: "Gather"
    attribute {
      name: "axis"
      i: 0
      type: INT
    }
  }
  node {
    input: "371"
    output: "381"
    name: "Shape_150"
    op_type: "Shape"
  }
  node {
    output: "382"
    name: "Constant_151"
    op_type: "Constant"
    attribute {
      name: "value"
      t {
        data_type: 7
        raw_data: "\001\000\000\000\000\000\000\000"
      }
      type: TENSOR
    }
  }
  node {
    input: "381"
    input: "382"
    output: "383"
    name: "Gather_152"
    op_type: "Gather"
    attribute {
      name: "axis"
      i: 0
      type: INT
    }
  }
  node {
    input: "380"
    output: "386"
    name: "Unsqueeze_153"
    op_type: "Unsqueeze"
    attribute {
      name: "axes"
      ints: 0
      type: INTS
    }
  }
  node {
    input: "383"
    output: "387"
    name: "Unsqueeze_154"
    op_type: "Unsqueeze"
    attribute {
      name: "axes"
      ints: 0
      type: INTS
    }
  }
  node {
    input: "386"
    input: "387"
    input: "1646"
    input: "1647"
    output: "390"
    name: "Concat_155"
    op_type: "Concat"
    attribute {
      name: "axis"
      i: 0
      type: INT
    }
  }
  node {
    input: "371"
    input: "390"
    output: "391"
    name: "Reshape_156"
    op_type: "Reshape"
  }
  node {
    input: "391"
    output: "392"
    name: "Transpose_157"
    op_type: "Transpose"
    attribute {
      name: "perm"
      ints: 0
      ints: 2
      ints: 1
      ints: 3
      type: INTS
    }
  }
  node {
    input: "374"
    output: "393"
    name: "Shape_158"
    op_type: "Shape"
  }
  node {
    output: "394"
    name: "Constant_159"
    op_type: "Constant"
    attribute {
      name: "value"
      t {
        data_type: 7
        raw_data: "\000\000\000\000\000\000\000\000"
      }
      type: TENSOR
    }
  }
  node {
    input: "393"
    input: "394"
    output: "395"
    name: "Gather_160"
    op_type: "Gather"
    attribute {
      name: "axis"
      i: 0
      type: INT
    }
  }
  node {
    input: "374"
    output: "396"
    name: "Shape_161"
    op_type: "Shape"
  }
  node {
    output: "397"
    name: "Constant_162"
    op_type: "Constant"
    attribute {
      name: "value"
      t {
        data_type: 7
        raw_data: "\001\000\000\000\000\000\000\000"
      }
      type: TENSOR
    }
  }
  node {
    input: "396"
    input: "397"
    output: "398"
    name: "Gather_163"
    op_type: "Gather"
    attribute {
      name: "axis"
      i: 0
      type: INT
    }
  }
  node {
    input: "395"
    output: "401"
    name: "Unsqueeze_164"
    op_type: "Unsqueeze"
    attribute {
      name: "axes"
      ints: 0
      type: INTS
    }
  }
  node {
    input: "398"
    output: "402"
    name: "Unsqueeze_165"
    op_type: "Unsqueeze"
    attribute {
      name: "axes"
      ints: 0
      type: INTS
    }
  }
  node {
    input: "401"
    input: "402"
    input: "1648"
    input: "1649"
    output: "405"
    name: "Concat_166"
    op_type: "Concat"
    attribute {
      name: "axis"
      i: 0
      type: INT
    }
  }
  node {
    input: "374"
    input: "405"
    output: "406"
    name: "Reshape_167"
    op_type: "Reshape"
  }
  node {
    input: "377"
    output: "407"
    name: "Shape_168"
    op_type: "Shape"
  }
  node {
    output: "408"
    name: "Constant_169"
    op_type: "Constant"
    attribute {
      name: "value"
      t {
        data_type: 7
        raw_data: "\000\000\000\000\000\000\000\000"
      }
      type: TENSOR
    }
  }
  node {
    input: "407"
    input: "408"
    output: "409"
    name: "Gather_170"
    op_type: "Gather"
    attribute {
      name: "axis"
      i: 0
      type: INT
    }
  }
  node {
    input: "377"
    output: "410"
    name: "Shape_171"
    op_type: "Shape"
  }
  node {
    output: "411"
    name: "Constant_172"
    op_type: "Constant"
    attribute {
      name: "value"
      t {
        data_type: 7
        raw_data: "\001\000\000\000\000\000\000\000"
      }
      type: TENSOR
    }
  }
  node {
    input: "410"
    input: "411"
    output: "412"
    name: "Gather_173"
    op_type: "Gather"
    attribute {
      name: "axis"
      i: 0
      type: INT
    }
  }
  node {
    input: "409"
    output: "415"
    name: "Unsqueeze_174"
    op_type: "Unsqueeze"
    attribute {
      name: "axes"
      ints: 0
      type: INTS
    }
  }
  node {
    input: "412"
    output: "416"
    name: "Unsqueeze_175"
    op_type: "Unsqueeze"
    attribute {
      name: "axes"
      ints: 0
      type: INTS
    }
  }
  node {
    input: "415"
    input: "416"
    input: "1650"
    input: "1651"
    output: "419"
    name: "Concat_176"
    op_type: "Concat"
    attribute {
      name: "axis"
      i: 0
      type: INT
    }
  }
  node {
    input: "377"
    input: "419"
    output: "420"
    name: "Reshape_177"
    op_type: "Reshape"
  }
  node {
    input: "420"
    output: "421"
    name: "Transpose_178"
    op_type: "Transpose"
    attribute {
      name: "perm"
      ints: 0
      ints: 2
      ints: 1
      ints: 3
      type: INTS
    }
  }
  node {
    input: "406"
    output: "422"
    name: "Transpose_179"
    op_type: "Transpose"
    attribute {
      name: "perm"
      ints: 0
      ints: 2
      ints: 3
      ints: 1
      type: INTS
    }
  }
  node {
    input: "392"
    input: "422"
    output: "423"
    name: "MatMul_180"
    op_type: "MatMul"
  }
  node {
    output: "424"
    name: "Constant_181"
    op_type: "Constant"
    attribute {
      name: "value"
      t {
        data_type: 1
        raw_data: "\000\000\000A"
      }
      type: TENSOR
    }
  }
  node {
    input: "423"
    input: "424"
    output: "425"
    name: "Div_182"
    op_type: "Div"
  }
  node {
    input: "425"
    input: "214"
    output: "426"
    name: "Add_183"
    op_type: "Add"
  }
  node {
    input: "426"
    output: "427"
    name: "Softmax_184"
    op_type: "Softmax"
    attribute {
      name: "axis"
      i: 3
      type: INT
    }
  }
  node {
    input: "427"
    input: "421"
    output: "428"
    name: "MatMul_185"
    op_type: "MatMul"
  }
  node {
    input: "428"
    output: "429"
    name: "Transpose_186"
    op_type: "Transpose"
    attribute {
      name: "perm"
      ints: 0
      ints: 2
      ints: 1
      ints: 3
      type: INTS
    }
  }
  node {
    input: "429"
    output: "430"
    name: "Shape_187"
    op_type: "Shape"
  }
  node {
    output: "431"
    name: "Constant_188"
    op_type: "Constant"
    attribute {
      name: "value"
      t {
        data_type: 7
        raw_data: "\000\000\000\000\000\000\000\000"
      }
      type: TENSOR
    }
  }
  node {
    input: "430"
    input: "431"
    output: "432"
    name: "Gather_189"
    op_type: "Gather"
    attribute {
      name: "axis"
      i: 0
      type: INT
    }
  }
  node {
    input: "429"
    output: "433"
    name: "Shape_190"
    op_type: "Shape"
  }
  node {
    output: "434"
    name: "Constant_191"
    op_type: "Constant"
    attribute {
      name: "value"
      t {
        data_type: 7
        raw_data: "\001\000\000\000\000\000\000\000"
      }
      type: TENSOR
    }
  }
  node {
    input: "433"
    input: "434"
    output: "435"
    name: "Gather_192"
    op_type: "Gather"
    attribute {
      name: "axis"
      i: 0
      type: INT
    }
  }
  node {
    input: "432"
    output: "437"
    name: "Unsqueeze_193"
    op_type: "Unsqueeze"
    attribute {
      name: "axes"
      ints: 0
      type: INTS
    }
  }
  node {
    input: "435"
    output: "438"
    name: "Unsqueeze_194"
    op_type: "Unsqueeze"
    attribute {
      name: "axes"
      ints: 0
      type: INTS
    }
  }
  node {
    input: "437"
    input: "438"
    input: "1652"
    output: "440"
    name: "Concat_195"
    op_type: "Concat"
    attribute {
      name: "axis"
      i: 0
      type: INT
    }
  }
  node {
    input: "429"
    input: "440"
    output: "441"
    name: "Reshape_196"
    op_type: "Reshape"
  }
  node {
    input: "441"
    input: "1653"
    output: "443"
    name: "MatMul_197"
    op_type: "MatMul"
  }
  node {
    input: "443"
    input: "roberta.encoder.layer.1.attention.output.dense.bias"
    output: "444"
    name: "Add_198"
    op_type: "Add"
  }
  node {
    input: "444"
    input: "368"
    output: "445"
    name: "Add_199"
    op_type: "Add"
  }
  node {
    input: "445"
    output: "446"
    name: "ReduceMean_200"
    op_type: "ReduceMean"
    attribute {
      name: "axes"
      ints: -1
      type: INTS
    }
  }
  node {
    input: "445"
    input: "446"
    output: "447"
    name: "Sub_201"
    op_type: "Sub"
  }
  node {
    output: "448"
    name: "Constant_202"
    op_type: "Constant"
    attribute {
      name: "value"
      t {
        data_type: 1
        raw_data: "\000\000\000@"
      }
      type: TENSOR
    }
  }
  node {
    input: "447"
    input: "448"
    output: "449"
    name: "Pow_203"
    op_type: "Pow"
  }
  node {
    input: "449"
    output: "450"
    name: "ReduceMean_204"
    op_type: "ReduceMean"
    attribute {
      name: "axes"
      ints: -1
      type: INTS
    }
  }
  node {
    output: "451"
    name: "Constant_205"
    op_type: "Constant"
    attribute {
      name: "value"
      t {
        data_type: 1
        raw_data: "\254\305\'7"
      }
      type: TENSOR
    }
  }
  node {
    input: "450"
    input: "451"
    output: "452"
    name: "Add_206"
    op_type: "Add"
  }
  node {
    input: "452"
    output: "453"
    name: "Sqrt_207"
    op_type: "Sqrt"
  }
  node {
    input: "447"
    input: "453"
    output: "454"
    name: "Div_208"
    op_type: "Div"
  }
  node {
    input: "454"
    input: "roberta.encoder.layer.1.attention.output.LayerNorm.weight"
    output: "455"
    name: "Mul_209"
    op_type: "Mul"
  }
  node {
    input: "455"
    input: "roberta.encoder.layer.1.attention.output.LayerNorm.bias"
    output: "456"
    name: "Add_210"
    op_type: "Add"
  }
  node {
    input: "456"
    input: "1654"
    output: "458"
    name: "MatMul_211"
    op_type: "MatMul"
  }
  node {
    input: "458"
    input: "roberta.encoder.layer.1.intermediate.dense.bias"
    output: "459"
    name: "Add_212"
    op_type: "Add"
  }
  node {
    output: "460"
    name: "Constant_213"
    op_type: "Constant"
    attribute {
      name: "value"
      t {
        data_type: 1
        raw_data: "\000\000\000?"
      }
      type: TENSOR
    }
  }
  node {
    input: "459"
    input: "460"
    output: "461"
    name: "Mul_214"
    op_type: "Mul"
  }
  node {
    output: "462"
    name: "Constant_215"
    op_type: "Constant"
    attribute {
      name: "value"
      t {
        data_type: 1
        raw_data: "\363\004\265?"
      }
      type: TENSOR
    }
  }
  node {
    input: "459"
    input: "462"
    output: "463"
    name: "Div_216"
    op_type: "Div"
  }
  node {
    input: "463"
    output: "464"
    name: "Erf_217"
    op_type: "Erf"
  }
  node {
    output: "465"
    name: "Constant_218"
    op_type: "Constant"
    attribute {
      name: "value"
      t {
        data_type: 1
        raw_data: "\000\000\200?"
      }
      type: TENSOR
    }
  }
  node {
    input: "464"
    input: "465"
    output: "466"
    name: "Add_219"
    op_type: "Add"
  }
  node {
    input: "461"
    input: "466"
    output: "467"
    name: "Mul_220"
    op_type: "Mul"
  }
  node {
    input: "467"
    input: "1655"
    output: "469"
    name: "MatMul_221"
    op_type: "MatMul"
  }
  node {
    input: "469"
    input: "roberta.encoder.layer.1.output.dense.bias"
    output: "470"
    name: "Add_222"
    op_type: "Add"
  }
  node {
    input: "470"
    input: "456"
    output: "471"
    name: "Add_223"
    op_type: "Add"
  }
  node {
    input: "471"
    output: "472"
    name: "ReduceMean_224"
    op_type: "ReduceMean"
    attribute {
      name: "axes"
      ints: -1
      type: INTS
    }
  }
  node {
    input: "471"
    input: "472"
    output: "473"
    name: "Sub_225"
    op_type: "Sub"
  }
  node {
    output: "474"
    name: "Constant_226"
    op_type: "Constant"
    attribute {
      name: "value"
      t {
        data_type: 1
        raw_data: "\000\000\000@"
      }
      type: TENSOR
    }
  }
  node {
    input: "473"
    input: "474"
    output: "475"
    name: "Pow_227"
    op_type: "Pow"
  }
  node {
    input: "475"
    output: "476"
    name: "ReduceMean_228"
    op_type: "ReduceMean"
    attribute {
      name: "axes"
      ints: -1
      type: INTS
    }
  }
  node {
    output: "477"
    name: "Constant_229"
    op_type: "Constant"
    attribute {
      name: "value"
      t {
        data_type: 1
        raw_data: "\254\305\'7"
      }
      type: TENSOR
    }
  }
  node {
    input: "476"
    input: "477"
    output: "478"
    name: "Add_230"
    op_type: "Add"
  }
  node {
    input: "478"
    output: "479"
    name: "Sqrt_231"
    op_type: "Sqrt"
  }
  node {
    input: "473"
    input: "479"
    output: "480"
    name: "Div_232"
    op_type: "Div"
  }
  node {
    input: "480"
    input: "roberta.encoder.layer.1.output.LayerNorm.weight"
    output: "481"
    name: "Mul_233"
    op_type: "Mul"
  }
  node {
    input: "481"
    input: "roberta.encoder.layer.1.output.LayerNorm.bias"
    output: "482"
    name: "Add_234"
    op_type: "Add"
  }
  node {
    input: "482"
    input: "1656"
    output: "484"
    name: "MatMul_235"
    op_type: "MatMul"
  }
  node {
    input: "484"
    input: "roberta.encoder.layer.2.attention.self.query.bias"
    output: "485"
    name: "Add_236"
    op_type: "Add"
  }
  node {
    input: "482"
    input: "1657"
    output: "487"
    name: "MatMul_237"
    op_type: "MatMul"
  }
  node {
    input: "487"
    input: "roberta.encoder.layer.2.attention.self.key.bias"
    output: "488"
    name: "Add_238"
    op_type: "Add"
  }
  node {
    input: "482"
    input: "1658"
    output: "490"
    name: "MatMul_239"
    op_type: "MatMul"
  }
  node {
    input: "490"
    input: "roberta.encoder.layer.2.attention.self.value.bias"
    output: "491"
    name: "Add_240"
    op_type: "Add"
  }
  node {
    input: "485"
    output: "492"
    name: "Shape_241"
    op_type: "Shape"
  }
  node {
    output: "493"
    name: "Constant_242"
    op_type: "Constant"
    attribute {
      name: "value"
      t {
        data_type: 7
        raw_data: "\000\000\000\000\000\000\000\000"
      }
      type: TENSOR
    }
  }
  node {
    input: "492"
    input: "493"
    output: "494"
    name: "Gather_243"
    op_type: "Gather"
    attribute {
      name: "axis"
      i: 0
      type: INT
    }
  }
  node {
    input: "485"
    output: "495"
    name: "Shape_244"
    op_type: "Shape"
  }
  node {
    output: "496"
    name: "Constant_245"
    op_type: "Constant"
    attribute {
      name: "value"
      t {
        data_type: 7
        raw_data: "\001\000\000\000\000\000\000\000"
      }
      type: TENSOR
    }
  }
  node {
    input: "495"
    input: "496"
    output: "497"
    name: "Gather_246"
    op_type: "Gather"
    attribute {
      name: "axis"
      i: 0
      type: INT
    }
  }
  node {
    input: "494"
    output: "500"
    name: "Unsqueeze_247"
    op_type: "Unsqueeze"
    attribute {
      name: "axes"
      ints: 0
      type: INTS
    }
  }
  node {
    input: "497"
    output: "501"
    name: "Unsqueeze_248"
    op_type: "Unsqueeze"
    attribute {
      name: "axes"
      ints: 0
      type: INTS
    }
  }
  node {
    input: "500"
    input: "501"
    input: "1659"
    input: "1660"
    output: "504"
    name: "Concat_249"
    op_type: "Concat"
    attribute {
      name: "axis"
      i: 0
      type: INT
    }
  }
  node {
    input: "485"
    input: "504"
    output: "505"
    name: "Reshape_250"
    op_type: "Reshape"
  }
  node {
    input: "505"
    output: "506"
    name: "Transpose_251"
    op_type: "Transpose"
    attribute {
      name: "perm"
      ints: 0
      ints: 2
      ints: 1
      ints: 3
      type: INTS
    }
  }
  node {
    input: "488"
    output: "507"
    name: "Shape_252"
    op_type: "Shape"
  }
  node {
    output: "508"
    name: "Constant_253"
    op_type: "Constant"
    attribute {
      name: "value"
      t {
        data_type: 7
        raw_data: "\000\000\000\000\000\000\000\000"
      }
      type: TENSOR
    }
  }
  node {
    input: "507"
    input: "508"
    output: "509"
    name: "Gather_254"
    op_type: "Gather"
    attribute {
      name: "axis"
      i: 0
      type: INT
    }
  }
  node {
    input: "488"
    output: "510"
    name: "Shape_255"
    op_type: "Shape"
  }
  node {
    output: "511"
    name: "Constant_256"
    op_type: "Constant"
    attribute {
      name: "value"
      t {
        data_type: 7
        raw_data: "\001\000\000\000\000\000\000\000"
      }
      type: TENSOR
    }
  }
  node {
    input: "510"
    input: "511"
    output: "512"
    name: "Gather_257"
    op_type: "Gather"
    attribute {
      name: "axis"
      i: 0
      type: INT
    }
  }
  node {
    input: "509"
    output: "515"
    name: "Unsqueeze_258"
    op_type: "Unsqueeze"
    attribute {
      name: "axes"
      ints: 0
      type: INTS
    }
  }
  node {
    input: "512"
    output: "516"
    name: "Unsqueeze_259"
    op_type: "Unsqueeze"
    attribute {
      name: "axes"
      ints: 0
      type: INTS
    }
  }
  node {
    input: "515"
    input: "516"
    input: "1661"
    input: "1662"
    output: "519"
    name: "Concat_260"
    op_type: "Concat"
    attribute {
      name: "axis"
      i: 0
      type: INT
    }
  }
  node {
    input: "488"
    input: "519"
    output: "520"
    name: "Reshape_261"
    op_type: "Reshape"
  }
  node {
    input: "491"
    output: "521"
    name: "Shape_262"
    op_type: "Shape"
  }
  node {
    output: "522"
    name: "Constant_263"
    op_type: "Constant"
    attribute {
      name: "value"
      t {
        data_type: 7
        raw_data: "\000\000\000\000\000\000\000\000"
      }
      type: TENSOR
    }
  }
  node {
    input: "521"
    input: "522"
    output: "523"
    name: "Gather_264"
    op_type: "Gather"
    attribute {
      name: "axis"
      i: 0
      type: INT
    }
  }
  node {
    input: "491"
    output: "524"
    name: "Shape_265"
    op_type: "Shape"
  }
  node {
    output: "525"
    name: "Constant_266"
    op_type: "Constant"
    attribute {
      name: "value"
      t {
        data_type: 7
        raw_data: "\001\000\000\000\000\000\000\000"
      }
      type: TENSOR
    }
  }
  node {
    input: "524"
    input: "525"
    output: "526"
    name: "Gather_267"
    op_type: "Gather"
    attribute {
      name: "axis"
      i: 0
      type: INT
    }
  }
  node {
    input: "523"
    output: "529"
    name: "Unsqueeze_268"
    op_type: "Unsqueeze"
    attribute {
      name: "axes"
      ints: 0
      type: INTS
    }
  }
  node {
    input: "526"
    output: "530"
    name: "Unsqueeze_269"
    op_type: "Unsqueeze"
    attribute {
      name: "axes"
      ints: 0
      type: INTS
    }
  }
  node {
    input: "529"
    input: "530"
    input: "1663"
    input: "1664"
    output: "533"
    name: "Concat_270"
    op_type: "Concat"
    attribute {
      name: "axis"
      i: 0
      type: INT
    }
  }
  node {
    input: "491"
    input: "533"
    output: "534"
    name: "Reshape_271"
    op_type: "Reshape"
  }
  node {
    input: "534"
    output: "535"
    name: "Transpose_272"
    op_type: "Transpose"
    attribute {
      name: "perm"
      ints: 0
      ints: 2
      ints: 1
      ints: 3
      type: INTS
    }
  }
  node {
    input: "520"
    output: "536"
    name: "Transpose_273"
    op_type: "Transpose"
    attribute {
      name: "perm"
      ints: 0
      ints: 2
      ints: 3
      ints: 1
      type: INTS
    }
  }
  node {
    input: "506"
    input: "536"
    output: "537"
    name: "MatMul_274"
    op_type: "MatMul"
  }
  node {
    output: "538"
    name: "Constant_275"
    op_type: "Constant"
    attribute {
      name: "value"
      t {
        data_type: 1
        raw_data: "\000\000\000A"
      }
      type: TENSOR
    }
  }
  node {
    input: "537"
    input: "538"
    output: "539"
    name: "Div_276"
    op_type: "Div"
  }
  node {
    input: "539"
    input: "214"
    output: "540"
    name: "Add_277"
    op_type: "Add"
  }
  node {
    input: "540"
    output: "541"
    name: "Softmax_278"
    op_type: "Softmax"
    attribute {
      name: "axis"
      i: 3
      type: INT
    }
  }
  node {
    input: "541"
    input: "535"
    output: "542"
    name: "MatMul_279"
    op_type: "MatMul"
  }
  node {
    input: "542"
    output: "543"
    name: "Transpose_280"
    op_type: "Transpose"
    attribute {
      name: "perm"
      ints: 0
      ints: 2
      ints: 1
      ints: 3
      type: INTS
    }
  }
  node {
    input: "543"
    output: "544"
    name: "Shape_281"
    op_type: "Shape"
  }
  node {
    output: "545"
    name: "Constant_282"
    op_type: "Constant"
    attribute {
      name: "value"
      t {
        data_type: 7
        raw_data: "\000\000\000\000\000\000\000\000"
      }
      type: TENSOR
    }
  }
  node {
    input: "544"
    input: "545"
    output: "546"
    name: "Gather_283"
    op_type: "Gather"
    attribute {
      name: "axis"
      i: 0
      type: INT
    }
  }
  node {
    input: "543"
    output: "547"
    name: "Shape_284"
    op_type: "Shape"
  }
  node {
    output: "548"
    name: "Constant_285"
    op_type: "Constant"
    attribute {
      name: "value"
      t {
        data_type: 7
        raw_data: "\001\000\000\000\000\000\000\000"
      }
      type: TENSOR
    }
  }
  node {
    input: "547"
    input: "548"
    output: "549"
    name: "Gather_286"
    op_type: "Gather"
    attribute {
      name: "axis"
      i: 0
      type: INT
    }
  }
  node {
    input: "546"
    output: "551"
    name: "Unsqueeze_287"
    op_type: "Unsqueeze"
    attribute {
      name: "axes"
      ints: 0
      type: INTS
    }
  }
  node {
    input: "549"
    output: "552"
    name: "Unsqueeze_288"
    op_type: "Unsqueeze"
    attribute {
      name: "axes"
      ints: 0
      type: INTS
    }
  }
  node {
    input: "551"
    input: "552"
    input: "1665"
    output: "554"
    name: "Concat_289"
    op_type: "Concat"
    attribute {
      name: "axis"
      i: 0
      type: INT
    }
  }
  node {
    input: "543"
    input: "554"
    output: "555"
    name: "Reshape_290"
    op_type: "Reshape"
  }
  node {
    input: "555"
    input: "1666"
    output: "557"
    name: "MatMul_291"
    op_type: "MatMul"
  }
  node {
    input: "557"
    input: "roberta.encoder.layer.2.attention.output.dense.bias"
    output: "558"
    name: "Add_292"
    op_type: "Add"
  }
  node {
    input: "558"
    input: "482"
    output: "559"
    name: "Add_293"
    op_type: "Add"
  }
  node {
    input: "559"
    output: "560"
    name: "ReduceMean_294"
    op_type: "ReduceMean"
    attribute {
      name: "axes"
      ints: -1
      type: INTS
    }
  }
  node {
    input: "559"
    input: "560"
    output: "561"
    name: "Sub_295"
    op_type: "Sub"
  }
  node {
    output: "562"
    name: "Constant_296"
    op_type: "Constant"
    attribute {
      name: "value"
      t {
        data_type: 1
        raw_data: "\000\000\000@"
      }
      type: TENSOR
    }
  }
  node {
    input: "561"
    input: "562"
    output: "563"
    name: "Pow_297"
    op_type: "Pow"
  }
  node {
    input: "563"
    output: "564"
    name: "ReduceMean_298"
    op_type: "ReduceMean"
    attribute {
      name: "axes"
      ints: -1
      type: INTS
    }
  }
  node {
    output: "565"
    name: "Constant_299"
    op_type: "Constant"
    attribute {
      name: "value"
      t {
        data_type: 1
        raw_data: "\254\305\'7"
      }
      type: TENSOR
    }
  }
  node {
    input: "564"
    input: "565"
    output: "566"
    name: "Add_300"
    op_type: "Add"
  }
  node {
    input: "566"
    output: "567"
    name: "Sqrt_301"
    op_type: "Sqrt"
  }
  node {
    input: "561"
    input: "567"
    output: "568"
    name: "Div_302"
    op_type: "Div"
  }
  node {
    input: "568"
    input: "roberta.encoder.layer.2.attention.output.LayerNorm.weight"
    output: "569"
    name: "Mul_303"
    op_type: "Mul"
  }
  node {
    input: "569"
    input: "roberta.encoder.layer.2.attention.output.LayerNorm.bias"
    output: "570"
    name: "Add_304"
    op_type: "Add"
  }
  node {
    input: "570"
    input: "1667"
    output: "572"
    name: "MatMul_305"
    op_type: "MatMul"
  }
  node {
    input: "572"
    input: "roberta.encoder.layer.2.intermediate.dense.bias"
    output: "573"
    name: "Add_306"
    op_type: "Add"
  }
  node {
    output: "574"
    name: "Constant_307"
    op_type: "Constant"
    attribute {
      name: "value"
      t {
        data_type: 1
        raw_data: "\000\000\000?"
      }
      type: TENSOR
    }
  }
  node {
    input: "573"
    input: "574"
    output: "575"
    name: "Mul_308"
    op_type: "Mul"
  }
  node {
    output: "576"
    name: "Constant_309"
    op_type: "Constant"
    attribute {
      name: "value"
      t {
        data_type: 1
        raw_data: "\363\004\265?"
      }
      type: TENSOR
    }
  }
  node {
    input: "573"
    input: "576"
    output: "577"
    name: "Div_310"
    op_type: "Div"
  }
  node {
    input: "577"
    output: "578"
    name: "Erf_311"
    op_type: "Erf"
  }
  node {
    output: "579"
    name: "Constant_312"
    op_type: "Constant"
    attribute {
      name: "value"
      t {
        data_type: 1
        raw_data: "\000\000\200?"
      }
      type: TENSOR
    }
  }
  node {
    input: "578"
    input: "579"
    output: "580"
    name: "Add_313"
    op_type: "Add"
  }
  node {
    input: "575"
    input: "580"
    output: "581"
    name: "Mul_314"
    op_type: "Mul"
  }
  node {
    input: "581"
    input: "1668"
    output: "583"
    name: "MatMul_315"
    op_type: "MatMul"
  }
  node {
    input: "583"
    input: "roberta.encoder.layer.2.output.dense.bias"
    output: "584"
    name: "Add_316"
    op_type: "Add"
  }
  node {
    input: "584"
    input: "570"
    output: "585"
    name: "Add_317"
    op_type: "Add"
  }
  node {
    input: "585"
    output: "586"
    name: "ReduceMean_318"
    op_type: "ReduceMean"
    attribute {
      name: "axes"
      ints: -1
      type: INTS
    }
  }
  node {
    input: "585"
    input: "586"
    output: "587"
    name: "Sub_319"
    op_type: "Sub"
  }
  node {
    output: "588"
    name: "Constant_320"
    op_type: "Constant"
    attribute {
      name: "value"
      t {
        data_type: 1
        raw_data: "\000\000\000@"
      }
      type: TENSOR
    }
  }
  node {
    input: "587"
    input: "588"
    output: "589"
    name: "Pow_321"
    op_type: "Pow"
  }
  node {
    input: "589"
    output: "590"
    name: "ReduceMean_322"
    op_type: "ReduceMean"
    attribute {
      name: "axes"
      ints: -1
      type: INTS
    }
  }
  node {
    output: "591"
    name: "Constant_323"
    op_type: "Constant"
    attribute {
      name: "value"
      t {
        data_type: 1
        raw_data: "\254\305\'7"
      }
      type: TENSOR
    }
  }
  node {
    input: "590"
    input: "591"
    output: "592"
    name: "Add_324"
    op_type: "Add"
  }
  node {
    input: "592"
    output: "593"
    name: "Sqrt_325"
    op_type: "Sqrt"
  }
  node {
    input: "587"
    input: "593"
    output: "594"
    name: "Div_326"
    op_type: "Div"
  }
  node {
    input: "594"
    input: "roberta.encoder.layer.2.output.LayerNorm.weight"
    output: "595"
    name: "Mul_327"
    op_type: "Mul"
  }
  node {
    input: "595"
    input: "roberta.encoder.layer.2.output.LayerNorm.bias"
    output: "596"
    name: "Add_328"
    op_type: "Add"
  }
  node {
    input: "596"
    input: "1669"
    output: "598"
    name: "MatMul_329"
    op_type: "MatMul"
  }
  node {
    input: "598"
    input: "roberta.encoder.layer.3.attention.self.query.bias"
    output: "599"
    name: "Add_330"
    op_type: "Add"
  }
  node {
    input: "596"
    input: "1670"
    output: "601"
    name: "MatMul_331"
    op_type: "MatMul"
  }
  node {
    input: "601"
    input: "roberta.encoder.layer.3.attention.self.key.bias"
    output: "602"
    name: "Add_332"
    op_type: "Add"
  }
  node {
    input: "596"
    input: "1671"
    output: "604"
    name: "MatMul_333"
    op_type: "MatMul"
  }
  node {
    input: "604"
    input: "roberta.encoder.layer.3.attention.self.value.bias"
    output: "605"
    name: "Add_334"
    op_type: "Add"
  }
  node {
    input: "599"
    output: "606"
    name: "Shape_335"
    op_type: "Shape"
  }
  node {
    output: "607"
    name: "Constant_336"
    op_type: "Constant"
    attribute {
      name: "value"
      t {
        data_type: 7
        raw_data: "\000\000\000\000\000\000\000\000"
      }
      type: TENSOR
    }
  }
  node {
    input: "606"
    input: "607"
    output: "608"
    name: "Gather_337"
    op_type: "Gather"
    attribute {
      name: "axis"
      i: 0
      type: INT
    }
  }
  node {
    input: "599"
    output: "609"
    name: "Shape_338"
    op_type: "Shape"
  }
  node {
    output: "610"
    name: "Constant_339"
    op_type: "Constant"
    attribute {
      name: "value"
      t {
        data_type: 7
        raw_data: "\001\000\000\000\000\000\000\000"
      }
      type: TENSOR
    }
  }
  node {
    input: "609"
    input: "610"
    output: "611"
    name: "Gather_340"
    op_type: "Gather"
    attribute {
      name: "axis"
      i: 0
      type: INT
    }
  }
  node {
    input: "608"
    output: "614"
    name: "Unsqueeze_341"
    op_type: "Unsqueeze"
    attribute {
      name: "axes"
      ints: 0
      type: INTS
    }
  }
  node {
    input: "611"
    output: "615"
    name: "Unsqueeze_342"
    op_type: "Unsqueeze"
    attribute {
      name: "axes"
      ints: 0
      type: INTS
    }
  }
  node {
    input: "614"
    input: "615"
    input: "1672"
    input: "1673"
    output: "618"
    name: "Concat_343"
    op_type: "Concat"
    attribute {
      name: "axis"
      i: 0
      type: INT
    }
  }
  node {
    input: "599"
    input: "618"
    output: "619"
    name: "Reshape_344"
    op_type: "Reshape"
  }
  node {
    input: "619"
    output: "620"
    name: "Transpose_345"
    op_type: "Transpose"
    attribute {
      name: "perm"
      ints: 0
      ints: 2
      ints: 1
      ints: 3
      type: INTS
    }
  }
  node {
    input: "602"
    output: "621"
    name: "Shape_346"
    op_type: "Shape"
  }
  node {
    output: "622"
    name: "Constant_347"
    op_type: "Constant"
    attribute {
      name: "value"
      t {
        data_type: 7
        raw_data: "\000\000\000\000\000\000\000\000"
      }
      type: TENSOR
    }
  }
  node {
    input: "621"
    input: "622"
    output: "623"
    name: "Gather_348"
    op_type: "Gather"
    attribute {
      name: "axis"
      i: 0
      type: INT
    }
  }
  node {
    input: "602"
    output: "624"
    name: "Shape_349"
    op_type: "Shape"
  }
  node {
    output: "625"
    name: "Constant_350"
    op_type: "Constant"
    attribute {
      name: "value"
      t {
        data_type: 7
        raw_data: "\001\000\000\000\000\000\000\000"
      }
      type: TENSOR
    }
  }
  node {
    input: "624"
    input: "625"
    output: "626"
    name: "Gather_351"
    op_type: "Gather"
    attribute {
      name: "axis"
      i: 0
      type: INT
    }
  }
  node {
    input: "623"
    output: "629"
    name: "Unsqueeze_352"
    op_type: "Unsqueeze"
    attribute {
      name: "axes"
      ints: 0
      type: INTS
    }
  }
  node {
    input: "626"
    output: "630"
    name: "Unsqueeze_353"
    op_type: "Unsqueeze"
    attribute {
      name: "axes"
      ints: 0
      type: INTS
    }
  }
  node {
    input: "629"
    input: "630"
    input: "1674"
    input: "1675"
    output: "633"
    name: "Concat_354"
    op_type: "Concat"
    attribute {
      name: "axis"
      i: 0
      type: INT
    }
  }
  node {
    input: "602"
    input: "633"
    output: "634"
    name: "Reshape_355"
    op_type: "Reshape"
  }
  node {
    input: "605"
    output: "635"
    name: "Shape_356"
    op_type: "Shape"
  }
  node {
    output: "636"
    name: "Constant_357"
    op_type: "Constant"
    attribute {
      name: "value"
      t {
        data_type: 7
        raw_data: "\000\000\000\000\000\000\000\000"
      }
      type: TENSOR
    }
  }
  node {
    input: "635"
    input: "636"
    output: "637"
    name: "Gather_358"
    op_type: "Gather"
    attribute {
      name: "axis"
      i: 0
      type: INT
    }
  }
  node {
    input: "605"
    output: "638"
    name: "Shape_359"
    op_type: "Shape"
  }
  node {
    output: "639"
    name: "Constant_360"
    op_type: "Constant"
    attribute {
      name: "value"
      t {
        data_type: 7
        raw_data: "\001\000\000\000\000\000\000\000"
      }
      type: TENSOR
    }
  }
  node {
    input: "638"
    input: "639"
    output: "640"
    name: "Gather_361"
    op_type: "Gather"
    attribute {
      name: "axis"
      i: 0
      type: INT
    }
  }
  node {
    input: "637"
    output: "643"
    name: "Unsqueeze_362"
    op_type: "Unsqueeze"
    attribute {
      name: "axes"
      ints: 0
      type: INTS
    }
  }
  node {
    input: "640"
    output: "644"
    name: "Unsqueeze_363"
    op_type: "Unsqueeze"
    attribute {
      name: "axes"
      ints: 0
      type: INTS
    }
  }
  node {
    input: "643"
    input: "644"
    input: "1676"
    input: "1677"
    output: "647"
    name: "Concat_364"
    op_type: "Concat"
    attribute {
      name: "axis"
      i: 0
      type: INT
    }
  }
  node {
    input: "605"
    input: "647"
    output: "648"
    name: "Reshape_365"
    op_type: "Reshape"
  }
  node {
    input: "648"
    output: "649"
    name: "Transpose_366"
    op_type: "Transpose"
    attribute {
      name: "perm"
      ints: 0
      ints: 2
      ints: 1
      ints: 3
      type: INTS
    }
  }
  node {
    input: "634"
    output: "650"
    name: "Transpose_367"
    op_type: "Transpose"
    attribute {
      name: "perm"
      ints: 0
      ints: 2
      ints: 3
      ints: 1
      type: INTS
    }
  }
  node {
    input: "620"
    input: "650"
    output: "651"
    name: "MatMul_368"
    op_type: "MatMul"
  }
  node {
    output: "652"
    name: "Constant_369"
    op_type: "Constant"
    attribute {
      name: "value"
      t {
        data_type: 1
        raw_data: "\000\000\000A"
      }
      type: TENSOR
    }
  }
  node {
    input: "651"
    input: "652"
    output: "653"
    name: "Div_370"
    op_type: "Div"
  }
  node {
    input: "653"
    input: "214"
    output: "654"
    name: "Add_371"
    op_type: "Add"
  }
  node {
    input: "654"
    output: "655"
    name: "Softmax_372"
    op_type: "Softmax"
    attribute {
      name: "axis"
      i: 3
      type: INT
    }
  }
  node {
    input: "655"
    input: "649"
    output: "656"
    name: "MatMul_373"
    op_type: "MatMul"
  }
  node {
    input: "656"
    output: "657"
    name: "Transpose_374"
    op_type: "Transpose"
    attribute {
      name: "perm"
      ints: 0
      ints: 2
      ints: 1
      ints: 3
      type: INTS
    }
  }
  node {
    input: "657"
    output: "658"
    name: "Shape_375"
    op_type: "Shape"
  }
  node {
    output: "659"
    name: "Constant_376"
    op_type: "Constant"
    attribute {
      name: "value"
      t {
        data_type: 7
        raw_data: "\000\000\000\000\000\000\000\000"
      }
      type: TENSOR
    }
  }
  node {
    input: "658"
    input: "659"
    output: "660"
    name: "Gather_377"
    op_type: "Gather"
    attribute {
      name: "axis"
      i: 0
      type: INT
    }
  }
  node {
    input: "657"
    output: "661"
    name: "Shape_378"
    op_type: "Shape"
  }
  node {
    output: "662"
    name: "Constant_379"
    op_type: "Constant"
    attribute {
      name: "value"
      t {
        data_type: 7
        raw_data: "\001\000\000\000\000\000\000\000"
      }
      type: TENSOR
    }
  }
  node {
    input: "661"
    input: "662"
    output: "663"
    name: "Gather_380"
    op_type: "Gather"
    attribute {
      name: "axis"
      i: 0
      type: INT
    }
  }
  node {
    input: "660"
    output: "665"
    name: "Unsqueeze_381"
    op_type: "Unsqueeze"
    attribute {
      name: "axes"
      ints: 0
      type: INTS
    }
  }
  node {
    input: "663"
    output: "666"
    name: "Unsqueeze_382"
    op_type: "Unsqueeze"
    attribute {
      name: "axes"
      ints: 0
      type: INTS
    }
  }
  node {
    input: "665"
    input: "666"
    input: "1678"
    output: "668"
    name: "Concat_383"
    op_type: "Concat"
    attribute {
      name: "axis"
      i: 0
      type: INT
    }
  }
  node {
    input: "657"
    input: "668"
    output: "669"
    name: "Reshape_384"
    op_type: "Reshape"
  }
  node {
    input: "669"
    input: "1679"
    output: "671"
    name: "MatMul_385"
    op_type: "MatMul"
  }
  node {
    input: "671"
    input: "roberta.encoder.layer.3.attention.output.dense.bias"
    output: "672"
    name: "Add_386"
    op_type: "Add"
  }
  node {
    input: "672"
    input: "596"
    output: "673"
    name: "Add_387"
    op_type: "Add"
  }
  node {
    input: "673"
    output: "674"
    name: "ReduceMean_388"
    op_type: "ReduceMean"
    attribute {
      name: "axes"
      ints: -1
      type: INTS
    }
  }
  node {
    input: "673"
    input: "674"
    output: "675"
    name: "Sub_389"
    op_type: "Sub"
  }
  node {
    output: "676"
    name: "Constant_390"
    op_type: "Constant"
    attribute {
      name: "value"
      t {
        data_type: 1
        raw_data: "\000\000\000@"
      }
      type: TENSOR
    }
  }
  node {
    input: "675"
    input: "676"
    output: "677"
    name: "Pow_391"
    op_type: "Pow"
  }
  node {
    input: "677"
    output: "678"
    name: "ReduceMean_392"
    op_type: "ReduceMean"
    attribute {
      name: "axes"
      ints: -1
      type: INTS
    }
  }
  node {
    output: "679"
    name: "Constant_393"
    op_type: "Constant"
    attribute {
      name: "value"
      t {
        data_type: 1
        raw_data: "\254\305\'7"
      }
      type: TENSOR
    }
  }
  node {
    input: "678"
    input: "679"
    output: "680"
    name: "Add_394"
    op_type: "Add"
  }
  node {
    input: "680"
    output: "681"
    name: "Sqrt_395"
    op_type: "Sqrt"
  }
  node {
    input: "675"
    input: "681"
    output: "682"
    name: "Div_396"
    op_type: "Div"
  }
  node {
    input: "682"
    input: "roberta.encoder.layer.3.attention.output.LayerNorm.weight"
    output: "683"
    name: "Mul_397"
    op_type: "Mul"
  }
  node {
    input: "683"
    input: "roberta.encoder.layer.3.attention.output.LayerNorm.bias"
    output: "684"
    name: "Add_398"
    op_type: "Add"
  }
  node {
    input: "684"
    input: "1680"
    output: "686"
    name: "MatMul_399"
    op_type: "MatMul"
  }
  node {
    input: "686"
    input: "roberta.encoder.layer.3.intermediate.dense.bias"
    output: "687"
    name: "Add_400"
    op_type: "Add"
  }
  node {
    output: "688"
    name: "Constant_401"
    op_type: "Constant"
    attribute {
      name: "value"
      t {
        data_type: 1
        raw_data: "\000\000\000?"
      }
      type: TENSOR
    }
  }
  node {
    input: "687"
    input: "688"
    output: "689"
    name: "Mul_402"
    op_type: "Mul"
  }
  node {
    output: "690"
    name: "Constant_403"
    op_type: "Constant"
    attribute {
      name: "value"
      t {
        data_type: 1
        raw_data: "\363\004\265?"
      }
      type: TENSOR
    }
  }
  node {
    input: "687"
    input: "690"
    output: "691"
    name: "Div_404"
    op_type: "Div"
  }
  node {
    input: "691"
    output: "692"
    name: "Erf_405"
    op_type: "Erf"
  }
  node {
    output: "693"
    name: "Constant_406"
    op_type: "Constant"
    attribute {
      name: "value"
      t {
        data_type: 1
        raw_data: "\000\000\200?"
      }
      type: TENSOR
    }
  }
  node {
    input: "692"
    input: "693"
    output: "694"
    name: "Add_407"
    op_type: "Add"
  }
  node {
    input: "689"
    input: "694"
    output: "695"
    name: "Mul_408"
    op_type: "Mul"
  }
  node {
    input: "695"
    input: "1681"
    output: "697"
    name: "MatMul_409"
    op_type: "MatMul"
  }
  node {
    input: "697"
    input: "roberta.encoder.layer.3.output.dense.bias"
    output: "698"
    name: "Add_410"
    op_type: "Add"
  }
  node {
    input: "698"
    input: "684"
    output: "699"
    name: "Add_411"
    op_type: "Add"
  }
  node {
    input: "699"
    output: "700"
    name: "ReduceMean_412"
    op_type: "ReduceMean"
    attribute {
      name: "axes"
      ints: -1
      type: INTS
    }
  }
  node {
    input: "699"
    input: "700"
    output: "701"
    name: "Sub_413"
    op_type: "Sub"
  }
  node {
    output: "702"
    name: "Constant_414"
    op_type: "Constant"
    attribute {
      name: "value"
      t {
        data_type: 1
        raw_data: "\000\000\000@"
      }
      type: TENSOR
    }
  }
  node {
    input: "701"
    input: "702"
    output: "703"
    name: "Pow_415"
    op_type: "Pow"
  }
  node {
    input: "703"
    output: "704"
    name: "ReduceMean_416"
    op_type: "ReduceMean"
    attribute {
      name: "axes"
      ints: -1
      type: INTS
    }
  }
  node {
    output: "705"
    name: "Constant_417"
    op_type: "Constant"
    attribute {
      name: "value"
      t {
        data_type: 1
        raw_data: "\254\305\'7"
      }
      type: TENSOR
    }
  }
  node {
    input: "704"
    input: "705"
    output: "706"
    name: "Add_418"
    op_type: "Add"
  }
  node {
    input: "706"
    output: "707"
    name: "Sqrt_419"
    op_type: "Sqrt"
  }
  node {
    input: "701"
    input: "707"
    output: "708"
    name: "Div_420"
    op_type: "Div"
  }
  node {
    input: "708"
    input: "roberta.encoder.layer.3.output.LayerNorm.weight"
    output: "709"
    name: "Mul_421"
    op_type: "Mul"
  }
  node {
    input: "709"
    input: "roberta.encoder.layer.3.output.LayerNorm.bias"
    output: "710"
    name: "Add_422"
    op_type: "Add"
  }
  node {
    input: "710"
    input: "1682"
    output: "712"
    name: "MatMul_423"
    op_type: "MatMul"
  }
  node {
    input: "712"
    input: "roberta.encoder.layer.4.attention.self.query.bias"
    output: "713"
    name: "Add_424"
    op_type: "Add"
  }
  node {
    input: "710"
    input: "1683"
    output: "715"
    name: "MatMul_425"
    op_type: "MatMul"
  }
  node {
    input: "715"
    input: "roberta.encoder.layer.4.attention.self.key.bias"
    output: "716"
    name: "Add_426"
    op_type: "Add"
  }
  node {
    input: "710"
    input: "1684"
    output: "718"
    name: "MatMul_427"
    op_type: "MatMul"
  }
  node {
    input: "718"
    input: "roberta.encoder.layer.4.attention.self.value.bias"
    output: "719"
    name: "Add_428"
    op_type: "Add"
  }
  node {
    input: "713"
    output: "720"
    name: "Shape_429"
    op_type: "Shape"
  }
  node {
    output: "721"
    name: "Constant_430"
    op_type: "Constant"
    attribute {
      name: "value"
      t {
        data_type: 7
        raw_data: "\000\000\000\000\000\000\000\000"
      }
      type: TENSOR
    }
  }
  node {
    input: "720"
    input: "721"
    output: "722"
    name: "Gather_431"
    op_type: "Gather"
    attribute {
      name: "axis"
      i: 0
      type: INT
    }
  }
  node {
    input: "713"
    output: "723"
    name: "Shape_432"
    op_type: "Shape"
  }
  node {
    output: "724"
    name: "Constant_433"
    op_type: "Constant"
    attribute {
      name: "value"
      t {
        data_type: 7
        raw_data: "\001\000\000\000\000\000\000\000"
      }
      type: TENSOR
    }
  }
  node {
    input: "723"
    input: "724"
    output: "725"
    name: "Gather_434"
    op_type: "Gather"
    attribute {
      name: "axis"
      i: 0
      type: INT
    }
  }
  node {
    input: "722"
    output: "728"
    name: "Unsqueeze_435"
    op_type: "Unsqueeze"
    attribute {
      name: "axes"
      ints: 0
      type: INTS
    }
  }
  node {
    input: "725"
    output: "729"
    name: "Unsqueeze_436"
    op_type: "Unsqueeze"
    attribute {
      name: "axes"
      ints: 0
      type: INTS
    }
  }
  node {
    input: "728"
    input: "729"
    input: "1685"
    input: "1686"
    output: "732"
    name: "Concat_437"
    op_type: "Concat"
    attribute {
      name: "axis"
      i: 0
      type: INT
    }
  }
  node {
    input: "713"
    input: "732"
    output: "733"
    name: "Reshape_438"
    op_type: "Reshape"
  }
  node {
    input: "733"
    output: "734"
    name: "Transpose_439"
    op_type: "Transpose"
    attribute {
      name: "perm"
      ints: 0
      ints: 2
      ints: 1
      ints: 3
      type: INTS
    }
  }
  node {
    input: "716"
    output: "735"
    name: "Shape_440"
    op_type: "Shape"
  }
  node {
    output: "736"
    name: "Constant_441"
    op_type: "Constant"
    attribute {
      name: "value"
      t {
        data_type: 7
        raw_data: "\000\000\000\000\000\000\000\000"
      }
      type: TENSOR
    }
  }
  node {
    input: "735"
    input: "736"
    output: "737"
    name: "Gather_442"
    op_type: "Gather"
    attribute {
      name: "axis"
      i: 0
      type: INT
    }
  }
  node {
    input: "716"
    output: "738"
    name: "Shape_443"
    op_type: "Shape"
  }
  node {
    output: "739"
    name: "Constant_444"
    op_type: "Constant"
    attribute {
      name: "value"
      t {
        data_type: 7
        raw_data: "\001\000\000\000\000\000\000\000"
      }
      type: TENSOR
    }
  }
  node {
    input: "738"
    input: "739"
    output: "740"
    name: "Gather_445"
    op_type: "Gather"
    attribute {
      name: "axis"
      i: 0
      type: INT
    }
  }
  node {
    input: "737"
    output: "743"
    name: "Unsqueeze_446"
    op_type: "Unsqueeze"
    attribute {
      name: "axes"
      ints: 0
      type: INTS
    }
  }
  node {
    input: "740"
    output: "744"
    name: "Unsqueeze_447"
    op_type: "Unsqueeze"
    attribute {
      name: "axes"
      ints: 0
      type: INTS
    }
  }
  node {
    input: "743"
    input: "744"
    input: "1687"
    input: "1688"
    output: "747"
    name: "Concat_448"
    op_type: "Concat"
    attribute {
      name: "axis"
      i: 0
      type: INT
    }
  }
  node {
    input: "716"
    input: "747"
    output: "748"
    name: "Reshape_449"
    op_type: "Reshape"
  }
  node {
    input: "719"
    output: "749"
    name: "Shape_450"
    op_type: "Shape"
  }
  node {
    output: "750"
    name: "Constant_451"
    op_type: "Constant"
    attribute {
      name: "value"
      t {
        data_type: 7
        raw_data: "\000\000\000\000\000\000\000\000"
      }
      type: TENSOR
    }
  }
  node {
    input: "749"
    input: "750"
    output: "751"
    name: "Gather_452"
    op_type: "Gather"
    attribute {
      name: "axis"
      i: 0
      type: INT
    }
  }
  node {
    input: "719"
    output: "752"
    name: "Shape_453"
    op_type: "Shape"
  }
  node {
    output: "753"
    name: "Constant_454"
    op_type: "Constant"
    attribute {
      name: "value"
      t {
        data_type: 7
        raw_data: "\001\000\000\000\000\000\000\000"
      }
      type: TENSOR
    }
  }
  node {
    input: "752"
    input: "753"
    output: "754"
    name: "Gather_455"
    op_type: "Gather"
    attribute {
      name: "axis"
      i: 0
      type: INT
    }
  }
  node {
    input: "751"
    output: "757"
    name: "Unsqueeze_456"
    op_type: "Unsqueeze"
    attribute {
      name: "axes"
      ints: 0
      type: INTS
    }
  }
  node {
    input: "754"
    output: "758"
    name: "Unsqueeze_457"
    op_type: "Unsqueeze"
    attribute {
      name: "axes"
      ints: 0
      type: INTS
    }
  }
  node {
    input: "757"
    input: "758"
    input: "1689"
    input: "1690"
    output: "761"
    name: "Concat_458"
    op_type: "Concat"
    attribute {
      name: "axis"
      i: 0
      type: INT
    }
  }
  node {
    input: "719"
    input: "761"
    output: "762"
    name: "Reshape_459"
    op_type: "Reshape"
  }
  node {
    input: "762"
    output: "763"
    name: "Transpose_460"
    op_type: "Transpose"
    attribute {
      name: "perm"
      ints: 0
      ints: 2
      ints: 1
      ints: 3
      type: INTS
    }
  }
  node {
    input: "748"
    output: "764"
    name: "Transpose_461"
    op_type: "Transpose"
    attribute {
      name: "perm"
      ints: 0
      ints: 2
      ints: 3
      ints: 1
      type: INTS
    }
  }
  node {
    input: "734"
    input: "764"
    output: "765"
    name: "MatMul_462"
    op_type: "MatMul"
  }
  node {
    output: "766"
    name: "Constant_463"
    op_type: "Constant"
    attribute {
      name: "value"
      t {
        data_type: 1
        raw_data: "\000\000\000A"
      }
      type: TENSOR
    }
  }
  node {
    input: "765"
    input: "766"
    output: "767"
    name: "Div_464"
    op_type: "Div"
  }
  node {
    input: "767"
    input: "214"
    output: "768"
    name: "Add_465"
    op_type: "Add"
  }
  node {
    input: "768"
    output: "769"
    name: "Softmax_466"
    op_type: "Softmax"
    attribute {
      name: "axis"
      i: 3
      type: INT
    }
  }
  node {
    input: "769"
    input: "763"
    output: "770"
    name: "MatMul_467"
    op_type: "MatMul"
  }
  node {
    input: "770"
    output: "771"
    name: "Transpose_468"
    op_type: "Transpose"
    attribute {
      name: "perm"
      ints: 0
      ints: 2
      ints: 1
      ints: 3
      type: INTS
    }
  }
  node {
    input: "771"
    output: "772"
    name: "Shape_469"
    op_type: "Shape"
  }
  node {
    output: "773"
    name: "Constant_470"
    op_type: "Constant"
    attribute {
      name: "value"
      t {
        data_type: 7
        raw_data: "\000\000\000\000\000\000\000\000"
      }
      type: TENSOR
    }
  }
  node {
    input: "772"
    input: "773"
    output: "774"
    name: "Gather_471"
    op_type: "Gather"
    attribute {
      name: "axis"
      i: 0
      type: INT
    }
  }
  node {
    input: "771"
    output: "775"
    name: "Shape_472"
    op_type: "Shape"
  }
  node {
    output: "776"
    name: "Constant_473"
    op_type: "Constant"
    attribute {
      name: "value"
      t {
        data_type: 7
        raw_data: "\001\000\000\000\000\000\000\000"
      }
      type: TENSOR
    }
  }
  node {
    input: "775"
    input: "776"
    output: "777"
    name: "Gather_474"
    op_type: "Gather"
    attribute {
      name: "axis"
      i: 0
      type: INT
    }
  }
  node {
    input: "774"
    output: "779"
    name: "Unsqueeze_475"
    op_type: "Unsqueeze"
    attribute {
      name: "axes"
      ints: 0
      type: INTS
    }
  }
  node {
    input: "777"
    output: "780"
    name: "Unsqueeze_476"
    op_type: "Unsqueeze"
    attribute {
      name: "axes"
      ints: 0
      type: INTS
    }
  }
  node {
    input: "779"
    input: "780"
    input: "1691"
    output: "782"
    name: "Concat_477"
    op_type: "Concat"
    attribute {
      name: "axis"
      i: 0
      type: INT
    }
  }
  node {
    input: "771"
    input: "782"
    output: "783"
    name: "Reshape_478"
    op_type: "Reshape"
  }
  node {
    input: "783"
    input: "1692"
    output: "785"
    name: "MatMul_479"
    op_type: "MatMul"
  }
  node {
    input: "785"
    input: "roberta.encoder.layer.4.attention.output.dense.bias"
    output: "786"
    name: "Add_480"
    op_type: "Add"
  }
  node {
    input: "786"
    input: "710"
    output: "787"
    name: "Add_481"
    op_type: "Add"
  }
  node {
    input: "787"
    output: "788"
    name: "ReduceMean_482"
    op_type: "ReduceMean"
    attribute {
      name: "axes"
      ints: -1
      type: INTS
    }
  }
  node {
    input: "787"
    input: "788"
    output: "789"
    name: "Sub_483"
    op_type: "Sub"
  }
  node {
    output: "790"
    name: "Constant_484"
    op_type: "Constant"
    attribute {
      name: "value"
      t {
        data_type: 1
        raw_data: "\000\000\000@"
      }
      type: TENSOR
    }
  }
  node {
    input: "789"
    input: "790"
    output: "791"
    name: "Pow_485"
    op_type: "Pow"
  }
  node {
    input: "791"
    output: "792"
    name: "ReduceMean_486"
    op_type: "ReduceMean"
    attribute {
      name: "axes"
      ints: -1
      type: INTS
    }
  }
  node {
    output: "793"
    name: "Constant_487"
    op_type: "Constant"
    attribute {
      name: "value"
      t {
        data_type: 1
        raw_data: "\254\305\'7"
      }
      type: TENSOR
    }
  }
  node {
    input: "792"
    input: "793"
    output: "794"
    name: "Add_488"
    op_type: "Add"
  }
  node {
    input: "794"
    output: "795"
    name: "Sqrt_489"
    op_type: "Sqrt"
  }
  node {
    input: "789"
    input: "795"
    output: "796"
    name: "Div_490"
    op_type: "Div"
  }
  node {
    input: "796"
    input: "roberta.encoder.layer.4.attention.output.LayerNorm.weight"
    output: "797"
    name: "Mul_491"
    op_type: "Mul"
  }
  node {
    input: "797"
    input: "roberta.encoder.layer.4.attention.output.LayerNorm.bias"
    output: "798"
    name: "Add_492"
    op_type: "Add"
  }
  node {
    input: "798"
    input: "1693"
    output: "800"
    name: "MatMul_493"
    op_type: "MatMul"
  }
  node {
    input: "800"
    input: "roberta.encoder.layer.4.intermediate.dense.bias"
    output: "801"
    name: "Add_494"
    op_type: "Add"
  }
  node {
    output: "802"
    name: "Constant_495"
    op_type: "Constant"
    attribute {
      name: "value"
      t {
        data_type: 1
        raw_data: "\000\000\000?"
      }
      type: TENSOR
    }
  }
  node {
    input: "801"
    input: "802"
    output: "803"
    name: "Mul_496"
    op_type: "Mul"
  }
  node {
    output: "804"
    name: "Constant_497"
    op_type: "Constant"
    attribute {
      name: "value"
      t {
        data_type: 1
        raw_data: "\363\004\265?"
      }
      type: TENSOR
    }
  }
  node {
    input: "801"
    input: "804"
    output: "805"
    name: "Div_498"
    op_type: "Div"
  }
  node {
    input: "805"
    output: "806"
    name: "Erf_499"
    op_type: "Erf"
  }
  node {
    output: "807"
    name: "Constant_500"
    op_type: "Constant"
    attribute {
      name: "value"
      t {
        data_type: 1
        raw_data: "\000\000\200?"
      }
      type: TENSOR
    }
  }
  node {
    input: "806"
    input: "807"
    output: "808"
    name: "Add_501"
    op_type: "Add"
  }
  node {
    input: "803"
    input: "808"
    output: "809"
    name: "Mul_502"
    op_type: "Mul"
  }
  node {
    input: "809"
    input: "1694"
    output: "811"
    name: "MatMul_503"
    op_type: "MatMul"
  }
  node {
    input: "811"
    input: "roberta.encoder.layer.4.output.dense.bias"
    output: "812"
    name: "Add_504"
    op_type: "Add"
  }
  node {
    input: "812"
    input: "798"
    output: "813"
    name: "Add_505"
    op_type: "Add"
  }
  node {
    input: "813"
    output: "814"
    name: "ReduceMean_506"
    op_type: "ReduceMean"
    attribute {
      name: "axes"
      ints: -1
      type: INTS
    }
  }
  node {
    input: "813"
    input: "814"
    output: "815"
    name: "Sub_507"
    op_type: "Sub"
  }
  node {
    output: "816"
    name: "Constant_508"
    op_type: "Constant"
    attribute {
      name: "value"
      t {
        data_type: 1
        raw_data: "\000\000\000@"
      }
      type: TENSOR
    }
  }
  node {
    input: "815"
    input: "816"
    output: "817"
    name: "Pow_509"
    op_type: "Pow"
  }
  node {
    input: "817"
    output: "818"
    name: "ReduceMean_510"
    op_type: "ReduceMean"
    attribute {
      name: "axes"
      ints: -1
      type: INTS
    }
  }
  node {
    output: "819"
    name: "Constant_511"
    op_type: "Constant"
    attribute {
      name: "value"
      t {
        data_type: 1
        raw_data: "\254\305\'7"
      }
      type: TENSOR
    }
  }
  node {
    input: "818"
    input: "819"
    output: "820"
    name: "Add_512"
    op_type: "Add"
  }
  node {
    input: "820"
    output: "821"
    name: "Sqrt_513"
    op_type: "Sqrt"
  }
  node {
    input: "815"
    input: "821"
    output: "822"
    name: "Div_514"
    op_type: "Div"
  }
  node {
    input: "822"
    input: "roberta.encoder.layer.4.output.LayerNorm.weight"
    output: "823"
    name: "Mul_515"
    op_type: "Mul"
  }
  node {
    input: "823"
    input: "roberta.encoder.layer.4.output.LayerNorm.bias"
    output: "824"
    name: "Add_516"
    op_type: "Add"
  }
  node {
    input: "824"
    input: "1695"
    output: "826"
    name: "MatMul_517"
    op_type: "MatMul"
  }
  node {
    input: "826"
    input: "roberta.encoder.layer.5.attention.self.query.bias"
    output: "827"
    name: "Add_518"
    op_type: "Add"
  }
  node {
    input: "824"
    input: "1696"
    output: "829"
    name: "MatMul_519"
    op_type: "MatMul"
  }
  node {
    input: "829"
    input: "roberta.encoder.layer.5.attention.self.key.bias"
    output: "830"
    name: "Add_520"
    op_type: "Add"
  }
  node {
    input: "824"
    input: "1697"
    output: "832"
    name: "MatMul_521"
    op_type: "MatMul"
  }
  node {
    input: "832"
    input: "roberta.encoder.layer.5.attention.self.value.bias"
    output: "833"
    name: "Add_522"
    op_type: "Add"
  }
  node {
    input: "827"
    output: "834"
    name: "Shape_523"
    op_type: "Shape"
  }
  node {
    output: "835"
    name: "Constant_524"
    op_type: "Constant"
    attribute {
      name: "value"
      t {
        data_type: 7
        raw_data: "\000\000\000\000\000\000\000\000"
      }
      type: TENSOR
    }
  }
  node {
    input: "834"
    input: "835"
    output: "836"
    name: "Gather_525"
    op_type: "Gather"
    attribute {
      name: "axis"
      i: 0
      type: INT
    }
  }
  node {
    input: "827"
    output: "837"
    name: "Shape_526"
    op_type: "Shape"
  }
  node {
    output: "838"
    name: "Constant_527"
    op_type: "Constant"
    attribute {
      name: "value"
      t {
        data_type: 7
        raw_data: "\001\000\000\000\000\000\000\000"
      }
      type: TENSOR
    }
  }
  node {
    input: "837"
    input: "838"
    output: "839"
    name: "Gather_528"
    op_type: "Gather"
    attribute {
      name: "axis"
      i: 0
      type: INT
    }
  }
  node {
    input: "836"
    output: "842"
    name: "Unsqueeze_529"
    op_type: "Unsqueeze"
    attribute {
      name: "axes"
      ints: 0
      type: INTS
    }
  }
  node {
    input: "839"
    output: "843"
    name: "Unsqueeze_530"
    op_type: "Unsqueeze"
    attribute {
      name: "axes"
      ints: 0
      type: INTS
    }
  }
  node {
    input: "842"
    input: "843"
    input: "1698"
    input: "1699"
    output: "846"
    name: "Concat_531"
    op_type: "Concat"
    attribute {
      name: "axis"
      i: 0
      type: INT
    }
  }
  node {
    input: "827"
    input: "846"
    output: "847"
    name: "Reshape_532"
    op_type: "Reshape"
  }
  node {
    input: "847"
    output: "848"
    name: "Transpose_533"
    op_type: "Transpose"
    attribute {
      name: "perm"
      ints: 0
      ints: 2
      ints: 1
      ints: 3
      type: INTS
    }
  }
  node {
    input: "830"
    output: "849"
    name: "Shape_534"
    op_type: "Shape"
  }
  node {
    output: "850"
    name: "Constant_535"
    op_type: "Constant"
    attribute {
      name: "value"
      t {
        data_type: 7
        raw_data: "\000\000\000\000\000\000\000\000"
      }
      type: TENSOR
    }
  }
  node {
    input: "849"
    input: "850"
    output: "851"
    name: "Gather_536"
    op_type: "Gather"
    attribute {
      name: "axis"
      i: 0
      type: INT
    }
  }
  node {
    input: "830"
    output: "852"
    name: "Shape_537"
    op_type: "Shape"
  }
  node {
    output: "853"
    name: "Constant_538"
    op_type: "Constant"
    attribute {
      name: "value"
      t {
        data_type: 7
        raw_data: "\001\000\000\000\000\000\000\000"
      }
      type: TENSOR
    }
  }
  node {
    input: "852"
    input: "853"
    output: "854"
    name: "Gather_539"
    op_type: "Gather"
    attribute {
      name: "axis"
      i: 0
      type: INT
    }
  }
  node {
    input: "851"
    output: "857"
    name: "Unsqueeze_540"
    op_type: "Unsqueeze"
    attribute {
      name: "axes"
      ints: 0
      type: INTS
    }
  }
  node {
    input: "854"
    output: "858"
    name: "Unsqueeze_541"
    op_type: "Unsqueeze"
    attribute {
      name: "axes"
      ints: 0
      type: INTS
    }
  }
  node {
    input: "857"
    input: "858"
    input: "1700"
    input: "1701"
    output: "861"
    name: "Concat_542"
    op_type: "Concat"
    attribute {
      name: "axis"
      i: 0
      type: INT
    }
  }
  node {
    input: "830"
    input: "861"
    output: "862"
    name: "Reshape_543"
    op_type: "Reshape"
  }
  node {
    input: "833"
    output: "863"
    name: "Shape_544"
    op_type: "Shape"
  }
  node {
    output: "864"
    name: "Constant_545"
    op_type: "Constant"
    attribute {
      name: "value"
      t {
        data_type: 7
        raw_data: "\000\000\000\000\000\000\000\000"
      }
      type: TENSOR
    }
  }
  node {
    input: "863"
    input: "864"
    output: "865"
    name: "Gather_546"
    op_type: "Gather"
    attribute {
      name: "axis"
      i: 0
      type: INT
    }
  }
  node {
    input: "833"
    output: "866"
    name: "Shape_547"
    op_type: "Shape"
  }
  node {
    output: "867"
    name: "Constant_548"
    op_type: "Constant"
    attribute {
      name: "value"
      t {
        data_type: 7
        raw_data: "\001\000\000\000\000\000\000\000"
      }
      type: TENSOR
    }
  }
  node {
    input: "866"
    input: "867"
    output: "868"
    name: "Gather_549"
    op_type: "Gather"
    attribute {
      name: "axis"
      i: 0
      type: INT
    }
  }
  node {
    input: "865"
    output: "871"
    name: "Unsqueeze_550"
    op_type: "Unsqueeze"
    attribute {
      name: "axes"
      ints: 0
      type: INTS
    }
  }
  node {
    input: "868"
    output: "872"
    name: "Unsqueeze_551"
    op_type: "Unsqueeze"
    attribute {
      name: "axes"
      ints: 0
      type: INTS
    }
  }
  node {
    input: "871"
    input: "872"
    input: "1702"
    input: "1703"
    output: "875"
    name: "Concat_552"
    op_type: "Concat"
    attribute {
      name: "axis"
      i: 0
      type: INT
    }
  }
  node {
    input: "833"
    input: "875"
    output: "876"
    name: "Reshape_553"
    op_type: "Reshape"
  }
  node {
    input: "876"
    output: "877"
    name: "Transpose_554"
    op_type: "Transpose"
    attribute {
      name: "perm"
      ints: 0
      ints: 2
      ints: 1
      ints: 3
      type: INTS
    }
  }
  node {
    input: "862"
    output: "878"
    name: "Transpose_555"
    op_type: "Transpose"
    attribute {
      name: "perm"
      ints: 0
      ints: 2
      ints: 3
      ints: 1
      type: INTS
    }
  }
  node {
    input: "848"
    input: "878"
    output: "879"
    name: "MatMul_556"
    op_type: "MatMul"
  }
  node {
    output: "880"
    name: "Constant_557"
    op_type: "Constant"
    attribute {
      name: "value"
      t {
        data_type: 1
        raw_data: "\000\000\000A"
      }
      type: TENSOR
    }
  }
  node {
    input: "879"
    input: "880"
    output: "881"
    name: "Div_558"
    op_type: "Div"
  }
  node {
    input: "881"
    input: "214"
    output: "882"
    name: "Add_559"
    op_type: "Add"
  }
  node {
    input: "882"
    output: "883"
    name: "Softmax_560"
    op_type: "Softmax"
    attribute {
      name: "axis"
      i: 3
      type: INT
    }
  }
  node {
    input: "883"
    input: "877"
    output: "884"
    name: "MatMul_561"
    op_type: "MatMul"
  }
  node {
    input: "884"
    output: "885"
    name: "Transpose_562"
    op_type: "Transpose"
    attribute {
      name: "perm"
      ints: 0
      ints: 2
      ints: 1
      ints: 3
      type: INTS
    }
  }
  node {
    input: "885"
    output: "886"
    name: "Shape_563"
    op_type: "Shape"
  }
  node {
    output: "887"
    name: "Constant_564"
    op_type: "Constant"
    attribute {
      name: "value"
      t {
        data_type: 7
        raw_data: "\000\000\000\000\000\000\000\000"
      }
      type: TENSOR
    }
  }
  node {
    input: "886"
    input: "887"
    output: "888"
    name: "Gather_565"
    op_type: "Gather"
    attribute {
      name: "axis"
      i: 0
      type: INT
    }
  }
  node {
    input: "885"
    output: "889"
    name: "Shape_566"
    op_type: "Shape"
  }
  node {
    output: "890"
    name: "Constant_567"
    op_type: "Constant"
    attribute {
      name: "value"
      t {
        data_type: 7
        raw_data: "\001\000\000\000\000\000\000\000"
      }
      type: TENSOR
    }
  }
  node {
    input: "889"
    input: "890"
    output: "891"
    name: "Gather_568"
    op_type: "Gather"
    attribute {
      name: "axis"
      i: 0
      type: INT
    }
  }
  node {
    input: "888"
    output: "893"
    name: "Unsqueeze_569"
    op_type: "Unsqueeze"
    attribute {
      name: "axes"
      ints: 0
      type: INTS
    }
  }
  node {
    input: "891"
    output: "894"
    name: "Unsqueeze_570"
    op_type: "Unsqueeze"
    attribute {
      name: "axes"
      ints: 0
      type: INTS
    }
  }
  node {
    input: "893"
    input: "894"
    input: "1704"
    output: "896"
    name: "Concat_571"
    op_type: "Concat"
    attribute {
      name: "axis"
      i: 0
      type: INT
    }
  }
  node {
    input: "885"
    input: "896"
    output: "897"
    name: "Reshape_572"
    op_type: "Reshape"
  }
  node {
    input: "897"
    input: "1705"
    output: "899"
    name: "MatMul_573"
    op_type: "MatMul"
  }
  node {
    input: "899"
    input: "roberta.encoder.layer.5.attention.output.dense.bias"
    output: "900"
    name: "Add_574"
    op_type: "Add"
  }
  node {
    input: "900"
    input: "824"
    output: "901"
    name: "Add_575"
    op_type: "Add"
  }
  node {
    input: "901"
    output: "902"
    name: "ReduceMean_576"
    op_type: "ReduceMean"
    attribute {
      name: "axes"
      ints: -1
      type: INTS
    }
  }
  node {
    input: "901"
    input: "902"
    output: "903"
    name: "Sub_577"
    op_type: "Sub"
  }
  node {
    output: "904"
    name: "Constant_578"
    op_type: "Constant"
    attribute {
      name: "value"
      t {
        data_type: 1
        raw_data: "\000\000\000@"
      }
      type: TENSOR
    }
  }
  node {
    input: "903"
    input: "904"
    output: "905"
    name: "Pow_579"
    op_type: "Pow"
  }
  node {
    input: "905"
    output: "906"
    name: "ReduceMean_580"
    op_type: "ReduceMean"
    attribute {
      name: "axes"
      ints: -1
      type: INTS
    }
  }
  node {
    output: "907"
    name: "Constant_581"
    op_type: "Constant"
    attribute {
      name: "value"
      t {
        data_type: 1
        raw_data: "\254\305\'7"
      }
      type: TENSOR
    }
  }
  node {
    input: "906"
    input: "907"
    output: "908"
    name: "Add_582"
    op_type: "Add"
  }
  node {
    input: "908"
    output: "909"
    name: "Sqrt_583"
    op_type: "Sqrt"
  }
  node {
    input: "903"
    input: "909"
    output: "910"
    name: "Div_584"
    op_type: "Div"
  }
  node {
    input: "910"
    input: "roberta.encoder.layer.5.attention.output.LayerNorm.weight"
    output: "911"
    name: "Mul_585"
    op_type: "Mul"
  }
  node {
    input: "911"
    input: "roberta.encoder.layer.5.attention.output.LayerNorm.bias"
    output: "912"
    name: "Add_586"
    op_type: "Add"
  }
  node {
    input: "912"
    input: "1706"
    output: "914"
    name: "MatMul_587"
    op_type: "MatMul"
  }
  node {
    input: "914"
    input: "roberta.encoder.layer.5.intermediate.dense.bias"
    output: "915"
    name: "Add_588"
    op_type: "Add"
  }
  node {
    output: "916"
    name: "Constant_589"
    op_type: "Constant"
    attribute {
      name: "value"
      t {
        data_type: 1
        raw_data: "\000\000\000?"
      }
      type: TENSOR
    }
  }
  node {
    input: "915"
    input: "916"
    output: "917"
    name: "Mul_590"
    op_type: "Mul"
  }
  node {
    output: "918"
    name: "Constant_591"
    op_type: "Constant"
    attribute {
      name: "value"
      t {
        data_type: 1
        raw_data: "\363\004\265?"
      }
      type: TENSOR
    }
  }
  node {
    input: "915"
    input: "918"
    output: "919"
    name: "Div_592"
    op_type: "Div"
  }
  node {
    input: "919"
    output: "920"
    name: "Erf_593"
    op_type: "Erf"
  }
  node {
    output: "921"
    name: "Constant_594"
    op_type: "Constant"
    attribute {
      name: "value"
      t {
        data_type: 1
        raw_data: "\000\000\200?"
      }
      type: TENSOR
    }
  }
  node {
    input: "920"
    input: "921"
    output: "922"
    name: "Add_595"
    op_type: "Add"
  }
  node {
    input: "917"
    input: "922"
    output: "923"
    name: "Mul_596"
    op_type: "Mul"
  }
  node {
    input: "923"
    input: "1707"
    output: "925"
    name: "MatMul_597"
    op_type: "MatMul"
  }
  node {
    input: "925"
    input: "roberta.encoder.layer.5.output.dense.bias"
    output: "926"
    name: "Add_598"
    op_type: "Add"
  }
  node {
    input: "926"
    input: "912"
    output: "927"
    name: "Add_599"
    op_type: "Add"
  }
  node {
    input: "927"
    output: "928"
    name: "ReduceMean_600"
    op_type: "ReduceMean"
    attribute {
      name: "axes"
      ints: -1
      type: INTS
    }
  }
  node {
    input: "927"
    input: "928"
    output: "929"
    name: "Sub_601"
    op_type: "Sub"
  }
  node {
    output: "930"
    name: "Constant_602"
    op_type: "Constant"
    attribute {
      name: "value"
      t {
        data_type: 1
        raw_data: "\000\000\000@"
      }
      type: TENSOR
    }
  }
  node {
    input: "929"
    input: "930"
    output: "931"
    name: "Pow_603"
    op_type: "Pow"
  }
  node {
    input: "931"
    output: "932"
    name: "ReduceMean_604"
    op_type: "ReduceMean"
    attribute {
      name: "axes"
      ints: -1
      type: INTS
    }
  }
  node {
    output: "933"
    name: "Constant_605"
    op_type: "Constant"
    attribute {
      name: "value"
      t {
        data_type: 1
        raw_data: "\254\305\'7"
      }
      type: TENSOR
    }
  }
  node {
    input: "932"
    input: "933"
    output: "934"
    name: "Add_606"
    op_type: "Add"
  }
  node {
    input: "934"
    output: "935"
    name: "Sqrt_607"
    op_type: "Sqrt"
  }
  node {
    input: "929"
    input: "935"
    output: "936"
    name: "Div_608"
    op_type: "Div"
  }
  node {
    input: "936"
    input: "roberta.encoder.layer.5.output.LayerNorm.weight"
    output: "937"
    name: "Mul_609"
    op_type: "Mul"
  }
  node {
    input: "937"
    input: "roberta.encoder.layer.5.output.LayerNorm.bias"
    output: "938"
    name: "Add_610"
    op_type: "Add"
  }
  node {
    input: "938"
    input: "1708"
    output: "940"
    name: "MatMul_611"
    op_type: "MatMul"
  }
  node {
    input: "940"
    input: "roberta.encoder.layer.6.attention.self.query.bias"
    output: "941"
    name: "Add_612"
    op_type: "Add"
  }
  node {
    input: "938"
    input: "1709"
    output: "943"
    name: "MatMul_613"
    op_type: "MatMul"
  }
  node {
    input: "943"
    input: "roberta.encoder.layer.6.attention.self.key.bias"
    output: "944"
    name: "Add_614"
    op_type: "Add"
  }
  node {
    input: "938"
    input: "1710"
    output: "946"
    name: "MatMul_615"
    op_type: "MatMul"
  }
  node {
    input: "946"
    input: "roberta.encoder.layer.6.attention.self.value.bias"
    output: "947"
    name: "Add_616"
    op_type: "Add"
  }
  node {
    input: "941"
    output: "948"
    name: "Shape_617"
    op_type: "Shape"
  }
  node {
    output: "949"
    name: "Constant_618"
    op_type: "Constant"
    attribute {
      name: "value"
      t {
        data_type: 7
        raw_data: "\000\000\000\000\000\000\000\000"
      }
      type: TENSOR
    }
  }
  node {
    input: "948"
    input: "949"
    output: "950"
    name: "Gather_619"
    op_type: "Gather"
    attribute {
      name: "axis"
      i: 0
      type: INT
    }
  }
  node {
    input: "941"
    output: "951"
    name: "Shape_620"
    op_type: "Shape"
  }
  node {
    output: "952"
    name: "Constant_621"
    op_type: "Constant"
    attribute {
      name: "value"
      t {
        data_type: 7
        raw_data: "\001\000\000\000\000\000\000\000"
      }
      type: TENSOR
    }
  }
  node {
    input: "951"
    input: "952"
    output: "953"
    name: "Gather_622"
    op_type: "Gather"
    attribute {
      name: "axis"
      i: 0
      type: INT
    }
  }
  node {
    input: "950"
    output: "956"
    name: "Unsqueeze_623"
    op_type: "Unsqueeze"
    attribute {
      name: "axes"
      ints: 0
      type: INTS
    }
  }
  node {
    input: "953"
    output: "957"
    name: "Unsqueeze_624"
    op_type: "Unsqueeze"
    attribute {
      name: "axes"
      ints: 0
      type: INTS
    }
  }
  node {
    input: "956"
    input: "957"
    input: "1711"
    input: "1712"
    output: "960"
    name: "Concat_625"
    op_type: "Concat"
    attribute {
      name: "axis"
      i: 0
      type: INT
    }
  }
  node {
    input: "941"
    input: "960"
    output: "961"
    name: "Reshape_626"
    op_type: "Reshape"
  }
  node {
    input: "961"
    output: "962"
    name: "Transpose_627"
    op_type: "Transpose"
    attribute {
      name: "perm"
      ints: 0
      ints: 2
      ints: 1
      ints: 3
      type: INTS
    }
  }
  node {
    input: "944"
    output: "963"
    name: "Shape_628"
    op_type: "Shape"
  }
  node {
    output: "964"
    name: "Constant_629"
    op_type: "Constant"
    attribute {
      name: "value"
      t {
        data_type: 7
        raw_data: "\000\000\000\000\000\000\000\000"
      }
      type: TENSOR
    }
  }
  node {
    input: "963"
    input: "964"
    output: "965"
    name: "Gather_630"
    op_type: "Gather"
    attribute {
      name: "axis"
      i: 0
      type: INT
    }
  }
  node {
    input: "944"
    output: "966"
    name: "Shape_631"
    op_type: "Shape"
  }
  node {
    output: "967"
    name: "Constant_632"
    op_type: "Constant"
    attribute {
      name: "value"
      t {
        data_type: 7
        raw_data: "\001\000\000\000\000\000\000\000"
      }
      type: TENSOR
    }
  }
  node {
    input: "966"
    input: "967"
    output: "968"
    name: "Gather_633"
    op_type: "Gather"
    attribute {
      name: "axis"
      i: 0
      type: INT
    }
  }
  node {
    input: "965"
    output: "971"
    name: "Unsqueeze_634"
    op_type: "Unsqueeze"
    attribute {
      name: "axes"
      ints: 0
      type: INTS
    }
  }
  node {
    input: "968"
    output: "972"
    name: "Unsqueeze_635"
    op_type: "Unsqueeze"
    attribute {
      name: "axes"
      ints: 0
      type: INTS
    }
  }
  node {
    input: "971"
    input: "972"
    input: "1713"
    input: "1714"
    output: "975"
    name: "Concat_636"
    op_type: "Concat"
    attribute {
      name: "axis"
      i: 0
      type: INT
    }
  }
  node {
    input: "944"
    input: "975"
    output: "976"
    name: "Reshape_637"
    op_type: "Reshape"
  }
  node {
    input: "947"
    output: "977"
    name: "Shape_638"
    op_type: "Shape"
  }
  node {
    output: "978"
    name: "Constant_639"
    op_type: "Constant"
    attribute {
      name: "value"
      t {
        data_type: 7
        raw_data: "\000\000\000\000\000\000\000\000"
      }
      type: TENSOR
    }
  }
  node {
    input: "977"
    input: "978"
    output: "979"
    name: "Gather_640"
    op_type: "Gather"
    attribute {
      name: "axis"
      i: 0
      type: INT
    }
  }
  node {
    input: "947"
    output: "980"
    name: "Shape_641"
    op_type: "Shape"
  }
  node {
    output: "981"
    name: "Constant_642"
    op_type: "Constant"
    attribute {
      name: "value"
      t {
        data_type: 7
        raw_data: "\001\000\000\000\000\000\000\000"
      }
      type: TENSOR
    }
  }
  node {
    input: "980"
    input: "981"
    output: "982"
    name: "Gather_643"
    op_type: "Gather"
    attribute {
      name: "axis"
      i: 0
      type: INT
    }
  }
  node {
    input: "979"
    output: "985"
    name: "Unsqueeze_644"
    op_type: "Unsqueeze"
    attribute {
      name: "axes"
      ints: 0
      type: INTS
    }
  }
  node {
    input: "982"
    output: "986"
    name: "Unsqueeze_645"
    op_type: "Unsqueeze"
    attribute {
      name: "axes"
      ints: 0
      type: INTS
    }
  }
  node {
    input: "985"
    input: "986"
    input: "1715"
    input: "1716"
    output: "989"
    name: "Concat_646"
    op_type: "Concat"
    attribute {
      name: "axis"
      i: 0
      type: INT
    }
  }
  node {
    input: "947"
    input: "989"
    output: "990"
    name: "Reshape_647"
    op_type: "Reshape"
  }
  node {
    input: "990"
    output: "991"
    name: "Transpose_648"
    op_type: "Transpose"
    attribute {
      name: "perm"
      ints: 0
      ints: 2
      ints: 1
      ints: 3
      type: INTS
    }
  }
  node {
    input: "976"
    output: "992"
    name: "Transpose_649"
    op_type: "Transpose"
    attribute {
      name: "perm"
      ints: 0
      ints: 2
      ints: 3
      ints: 1
      type: INTS
    }
  }
  node {
    input: "962"
    input: "992"
    output: "993"
    name: "MatMul_650"
    op_type: "MatMul"
  }
  node {
    output: "994"
    name: "Constant_651"
    op_type: "Constant"
    attribute {
      name: "value"
      t {
        data_type: 1
        raw_data: "\000\000\000A"
      }
      type: TENSOR
    }
  }
  node {
    input: "993"
    input: "994"
    output: "995"
    name: "Div_652"
    op_type: "Div"
  }
  node {
    input: "995"
    input: "214"
    output: "996"
    name: "Add_653"
    op_type: "Add"
  }
  node {
    input: "996"
    output: "997"
    name: "Softmax_654"
    op_type: "Softmax"
    attribute {
      name: "axis"
      i: 3
      type: INT
    }
  }
  node {
    input: "997"
    input: "991"
    output: "998"
    name: "MatMul_655"
    op_type: "MatMul"
  }
  node {
    input: "998"
    output: "999"
    name: "Transpose_656"
    op_type: "Transpose"
    attribute {
      name: "perm"
      ints: 0
      ints: 2
      ints: 1
      ints: 3
      type: INTS
    }
  }
  node {
    input: "999"
    output: "1000"
    name: "Shape_657"
    op_type: "Shape"
  }
  node {
    output: "1001"
    name: "Constant_658"
    op_type: "Constant"
    attribute {
      name: "value"
      t {
        data_type: 7
        raw_data: "\000\000\000\000\000\000\000\000"
      }
      type: TENSOR
    }
  }
  node {
    input: "1000"
    input: "1001"
    output: "1002"
    name: "Gather_659"
    op_type: "Gather"
    attribute {
      name: "axis"
      i: 0
      type: INT
    }
  }
  node {
    input: "999"
    output: "1003"
    name: "Shape_660"
    op_type: "Shape"
  }
  node {
    output: "1004"
    name: "Constant_661"
    op_type: "Constant"
    attribute {
      name: "value"
      t {
        data_type: 7
        raw_data: "\001\000\000\000\000\000\000\000"
      }
      type: TENSOR
    }
  }
  node {
    input: "1003"
    input: "1004"
    output: "1005"
    name: "Gather_662"
    op_type: "Gather"
    attribute {
      name: "axis"
      i: 0
      type: INT
    }
  }
  node {
    input: "1002"
    output: "1007"
    name: "Unsqueeze_663"
    op_type: "Unsqueeze"
    attribute {
      name: "axes"
      ints: 0
      type: INTS
    }
  }
  node {
    input: "1005"
    output: "1008"
    name: "Unsqueeze_664"
    op_type: "Unsqueeze"
    attribute {
      name: "axes"
      ints: 0
      type: INTS
    }
  }
  node {
    input: "1007"
    input: "1008"
    input: "1717"
    output: "1010"
    name: "Concat_665"
    op_type: "Concat"
    attribute {
      name: "axis"
      i: 0
      type: INT
    }
  }
  node {
    input: "999"
    input: "1010"
    output: "1011"
    name: "Reshape_666"
    op_type: "Reshape"
  }
  node {
    input: "1011"
    input: "1718"
    output: "1013"
    name: "MatMul_667"
    op_type: "MatMul"
  }
  node {
    input: "1013"
    input: "roberta.encoder.layer.6.attention.output.dense.bias"
    output: "1014"
    name: "Add_668"
    op_type: "Add"
  }
  node {
    input: "1014"
    input: "938"
    output: "1015"
    name: "Add_669"
    op_type: "Add"
  }
  node {
    input: "1015"
    output: "1016"
    name: "ReduceMean_670"
    op_type: "ReduceMean"
    attribute {
      name: "axes"
      ints: -1
      type: INTS
    }
  }
  node {
    input: "1015"
    input: "1016"
    output: "1017"
    name: "Sub_671"
    op_type: "Sub"
  }
  node {
    output: "1018"
    name: "Constant_672"
    op_type: "Constant"
    attribute {
      name: "value"
      t {
        data_type: 1
        raw_data: "\000\000\000@"
      }
      type: TENSOR
    }
  }
  node {
    input: "1017"
    input: "1018"
    output: "1019"
    name: "Pow_673"
    op_type: "Pow"
  }
  node {
    input: "1019"
    output: "1020"
    name: "ReduceMean_674"
    op_type: "ReduceMean"
    attribute {
      name: "axes"
      ints: -1
      type: INTS
    }
  }
  node {
    output: "1021"
    name: "Constant_675"
    op_type: "Constant"
    attribute {
      name: "value"
      t {
        data_type: 1
        raw_data: "\254\305\'7"
      }
      type: TENSOR
    }
  }
  node {
    input: "1020"
    input: "1021"
    output: "1022"
    name: "Add_676"
    op_type: "Add"
  }
  node {
    input: "1022"
    output: "1023"
    name: "Sqrt_677"
    op_type: "Sqrt"
  }
  node {
    input: "1017"
    input: "1023"
    output: "1024"
    name: "Div_678"
    op_type: "Div"
  }
  node {
    input: "1024"
    input: "roberta.encoder.layer.6.attention.output.LayerNorm.weight"
    output: "1025"
    name: "Mul_679"
    op_type: "Mul"
  }
  node {
    input: "1025"
    input: "roberta.encoder.layer.6.attention.output.LayerNorm.bias"
    output: "1026"
    name: "Add_680"
    op_type: "Add"
  }
  node {
    input: "1026"
    input: "1719"
    output: "1028"
    name: "MatMul_681"
    op_type: "MatMul"
  }
  node {
    input: "1028"
    input: "roberta.encoder.layer.6.intermediate.dense.bias"
    output: "1029"
    name: "Add_682"
    op_type: "Add"
  }
  node {
    output: "1030"
    name: "Constant_683"
    op_type: "Constant"
    attribute {
      name: "value"
      t {
        data_type: 1
        raw_data: "\000\000\000?"
      }
      type: TENSOR
    }
  }
  node {
    input: "1029"
    input: "1030"
    output: "1031"
    name: "Mul_684"
    op_type: "Mul"
  }
  node {
    output: "1032"
    name: "Constant_685"
    op_type: "Constant"
    attribute {
      name: "value"
      t {
        data_type: 1
        raw_data: "\363\004\265?"
      }
      type: TENSOR
    }
  }
  node {
    input: "1029"
    input: "1032"
    output: "1033"
    name: "Div_686"
    op_type: "Div"
  }
  node {
    input: "1033"
    output: "1034"
    name: "Erf_687"
    op_type: "Erf"
  }
  node {
    output: "1035"
    name: "Constant_688"
    op_type: "Constant"
    attribute {
      name: "value"
      t {
        data_type: 1
        raw_data: "\000\000\200?"
      }
      type: TENSOR
    }
  }
  node {
    input: "1034"
    input: "1035"
    output: "1036"
    name: "Add_689"
    op_type: "Add"
  }
  node {
    input: "1031"
    input: "1036"
    output: "1037"
    name: "Mul_690"
    op_type: "Mul"
  }
  node {
    input: "1037"
    input: "1720"
    output: "1039"
    name: "MatMul_691"
    op_type: "MatMul"
  }
  node {
    input: "1039"
    input: "roberta.encoder.layer.6.output.dense.bias"
    output: "1040"
    name: "Add_692"
    op_type: "Add"
  }
  node {
    input: "1040"
    input: "1026"
    output: "1041"
    name: "Add_693"
    op_type: "Add"
  }
  node {
    input: "1041"
    output: "1042"
    name: "ReduceMean_694"
    op_type: "ReduceMean"
    attribute {
      name: "axes"
      ints: -1
      type: INTS
    }
  }
  node {
    input: "1041"
    input: "1042"
    output: "1043"
    name: "Sub_695"
    op_type: "Sub"
  }
  node {
    output: "1044"
    name: "Constant_696"
    op_type: "Constant"
    attribute {
      name: "value"
      t {
        data_type: 1
        raw_data: "\000\000\000@"
      }
      type: TENSOR
    }
  }
  node {
    input: "1043"
    input: "1044"
    output: "1045"
    name: "Pow_697"
    op_type: "Pow"
  }
  node {
    input: "1045"
    output: "1046"
    name: "ReduceMean_698"
    op_type: "ReduceMean"
    attribute {
      name: "axes"
      ints: -1
      type: INTS
    }
  }
  node {
    output: "1047"
    name: "Constant_699"
    op_type: "Constant"
    attribute {
      name: "value"
      t {
        data_type: 1
        raw_data: "\254\305\'7"
      }
      type: TENSOR
    }
  }
  node {
    input: "1046"
    input: "1047"
    output: "1048"
    name: "Add_700"
    op_type: "Add"
  }
  node {
    input: "1048"
    output: "1049"
    name: "Sqrt_701"
    op_type: "Sqrt"
  }
  node {
    input: "1043"
    input: "1049"
    output: "1050"
    name: "Div_702"
    op_type: "Div"
  }
  node {
    input: "1050"
    input: "roberta.encoder.layer.6.output.LayerNorm.weight"
    output: "1051"
    name: "Mul_703"
    op_type: "Mul"
  }
  node {
    input: "1051"
    input: "roberta.encoder.layer.6.output.LayerNorm.bias"
    output: "1052"
    name: "Add_704"
    op_type: "Add"
  }
  node {
    input: "1052"
    input: "1721"
    output: "1054"
    name: "MatMul_705"
    op_type: "MatMul"
  }
  node {
    input: "1054"
    input: "roberta.encoder.layer.7.attention.self.query.bias"
    output: "1055"
    name: "Add_706"
    op_type: "Add"
  }
  node {
    input: "1052"
    input: "1722"
    output: "1057"
    name: "MatMul_707"
    op_type: "MatMul"
  }
  node {
    input: "1057"
    input: "roberta.encoder.layer.7.attention.self.key.bias"
    output: "1058"
    name: "Add_708"
    op_type: "Add"
  }
  node {
    input: "1052"
    input: "1723"
    output: "1060"
    name: "MatMul_709"
    op_type: "MatMul"
  }
  node {
    input: "1060"
    input: "roberta.encoder.layer.7.attention.self.value.bias"
    output: "1061"
    name: "Add_710"
    op_type: "Add"
  }
  node {
    input: "1055"
    output: "1062"
    name: "Shape_711"
    op_type: "Shape"
  }
  node {
    output: "1063"
    name: "Constant_712"
    op_type: "Constant"
    attribute {
      name: "value"
      t {
        data_type: 7
        raw_data: "\000\000\000\000\000\000\000\000"
      }
      type: TENSOR
    }
  }
  node {
    input: "1062"
    input: "1063"
    output: "1064"
    name: "Gather_713"
    op_type: "Gather"
    attribute {
      name: "axis"
      i: 0
      type: INT
    }
  }
  node {
    input: "1055"
    output: "1065"
    name: "Shape_714"
    op_type: "Shape"
  }
  node {
    output: "1066"
    name: "Constant_715"
    op_type: "Constant"
    attribute {
      name: "value"
      t {
        data_type: 7
        raw_data: "\001\000\000\000\000\000\000\000"
      }
      type: TENSOR
    }
  }
  node {
    input: "1065"
    input: "1066"
    output: "1067"
    name: "Gather_716"
    op_type: "Gather"
    attribute {
      name: "axis"
      i: 0
      type: INT
    }
  }
  node {
    input: "1064"
    output: "1070"
    name: "Unsqueeze_717"
    op_type: "Unsqueeze"
    attribute {
      name: "axes"
      ints: 0
      type: INTS
    }
  }
  node {
    input: "1067"
    output: "1071"
    name: "Unsqueeze_718"
    op_type: "Unsqueeze"
    attribute {
      name: "axes"
      ints: 0
      type: INTS
    }
  }
  node {
    input: "1070"
    input: "1071"
    input: "1724"
    input: "1725"
    output: "1074"
    name: "Concat_719"
    op_type: "Concat"
    attribute {
      name: "axis"
      i: 0
      type: INT
    }
  }
  node {
    input: "1055"
    input: "1074"
    output: "1075"
    name: "Reshape_720"
    op_type: "Reshape"
  }
  node {
    input: "1075"
    output: "1076"
    name: "Transpose_721"
    op_type: "Transpose"
    attribute {
      name: "perm"
      ints: 0
      ints: 2
      ints: 1
      ints: 3
      type: INTS
    }
  }
  node {
    input: "1058"
    output: "1077"
    name: "Shape_722"
    op_type: "Shape"
  }
  node {
    output: "1078"
    name: "Constant_723"
    op_type: "Constant"
    attribute {
      name: "value"
      t {
        data_type: 7
        raw_data: "\000\000\000\000\000\000\000\000"
      }
      type: TENSOR
    }
  }
  node {
    input: "1077"
    input: "1078"
    output: "1079"
    name: "Gather_724"
    op_type: "Gather"
    attribute {
      name: "axis"
      i: 0
      type: INT
    }
  }
  node {
    input: "1058"
    output: "1080"
    name: "Shape_725"
    op_type: "Shape"
  }
  node {
    output: "1081"
    name: "Constant_726"
    op_type: "Constant"
    attribute {
      name: "value"
      t {
        data_type: 7
        raw_data: "\001\000\000\000\000\000\000\000"
      }
      type: TENSOR
    }
  }
  node {
    input: "1080"
    input: "1081"
    output: "1082"
    name: "Gather_727"
    op_type: "Gather"
    attribute {
      name: "axis"
      i: 0
      type: INT
    }
  }
  node {
    input: "1079"
    output: "1085"
    name: "Unsqueeze_728"
    op_type: "Unsqueeze"
    attribute {
      name: "axes"
      ints: 0
      type: INTS
    }
  }
  node {
    input: "1082"
    output: "1086"
    name: "Unsqueeze_729"
    op_type: "Unsqueeze"
    attribute {
      name: "axes"
      ints: 0
      type: INTS
    }
  }
  node {
    input: "1085"
    input: "1086"
    input: "1726"
    input: "1727"
    output: "1089"
    name: "Concat_730"
    op_type: "Concat"
    attribute {
      name: "axis"
      i: 0
      type: INT
    }
  }
  node {
    input: "1058"
    input: "1089"
    output: "1090"
    name: "Reshape_731"
    op_type: "Reshape"
  }
  node {
    input: "1061"
    output: "1091"
    name: "Shape_732"
    op_type: "Shape"
  }
  node {
    output: "1092"
    name: "Constant_733"
    op_type: "Constant"
    attribute {
      name: "value"
      t {
        data_type: 7
        raw_data: "\000\000\000\000\000\000\000\000"
      }
      type: TENSOR
    }
  }
  node {
    input: "1091"
    input: "1092"
    output: "1093"
    name: "Gather_734"
    op_type: "Gather"
    attribute {
      name: "axis"
      i: 0
      type: INT
    }
  }
  node {
    input: "1061"
    output: "1094"
    name: "Shape_735"
    op_type: "Shape"
  }
  node {
    output: "1095"
    name: "Constant_736"
    op_type: "Constant"
    attribute {
      name: "value"
      t {
        data_type: 7
        raw_data: "\001\000\000\000\000\000\000\000"
      }
      type: TENSOR
    }
  }
  node {
    input: "1094"
    input: "1095"
    output: "1096"
    name: "Gather_737"
    op_type: "Gather"
    attribute {
      name: "axis"
      i: 0
      type: INT
    }
  }
  node {
    input: "1093"
    output: "1099"
    name: "Unsqueeze_738"
    op_type: "Unsqueeze"
    attribute {
      name: "axes"
      ints: 0
      type: INTS
    }
  }
  node {
    input: "1096"
    output: "1100"
    name: "Unsqueeze_739"
    op_type: "Unsqueeze"
    attribute {
      name: "axes"
      ints: 0
      type: INTS
    }
  }
  node {
    input: "1099"
    input: "1100"
    input: "1728"
    input: "1729"
    output: "1103"
    name: "Concat_740"
    op_type: "Concat"
    attribute {
      name: "axis"
      i: 0
      type: INT
    }
  }
  node {
    input: "1061"
    input: "1103"
    output: "1104"
    name: "Reshape_741"
    op_type: "Reshape"
  }
  node {
    input: "1104"
    output: "1105"
    name: "Transpose_742"
    op_type: "Transpose"
    attribute {
      name: "perm"
      ints: 0
      ints: 2
      ints: 1
      ints: 3
      type: INTS
    }
  }
  node {
    input: "1090"
    output: "1106"
    name: "Transpose_743"
    op_type: "Transpose"
    attribute {
      name: "perm"
      ints: 0
      ints: 2
      ints: 3
      ints: 1
      type: INTS
    }
  }
  node {
    input: "1076"
    input: "1106"
    output: "1107"
    name: "MatMul_744"
    op_type: "MatMul"
  }
  node {
    output: "1108"
    name: "Constant_745"
    op_type: "Constant"
    attribute {
      name: "value"
      t {
        data_type: 1
        raw_data: "\000\000\000A"
      }
      type: TENSOR
    }
  }
  node {
    input: "1107"
    input: "1108"
    output: "1109"
    name: "Div_746"
    op_type: "Div"
  }
  node {
    input: "1109"
    input: "214"
    output: "1110"
    name: "Add_747"
    op_type: "Add"
  }
  node {
    input: "1110"
    output: "1111"
    name: "Softmax_748"
    op_type: "Softmax"
    attribute {
      name: "axis"
      i: 3
      type: INT
    }
  }
  node {
    input: "1111"
    input: "1105"
    output: "1112"
    name: "MatMul_749"
    op_type: "MatMul"
  }
  node {
    input: "1112"
    output: "1113"
    name: "Transpose_750"
    op_type: "Transpose"
    attribute {
      name: "perm"
      ints: 0
      ints: 2
      ints: 1
      ints: 3
      type: INTS
    }
  }
  node {
    input: "1113"
    output: "1114"
    name: "Shape_751"
    op_type: "Shape"
  }
  node {
    output: "1115"
    name: "Constant_752"
    op_type: "Constant"
    attribute {
      name: "value"
      t {
        data_type: 7
        raw_data: "\000\000\000\000\000\000\000\000"
      }
      type: TENSOR
    }
  }
  node {
    input: "1114"
    input: "1115"
    output: "1116"
    name: "Gather_753"
    op_type: "Gather"
    attribute {
      name: "axis"
      i: 0
      type: INT
    }
  }
  node {
    input: "1113"
    output: "1117"
    name: "Shape_754"
    op_type: "Shape"
  }
  node {
    output: "1118"
    name: "Constant_755"
    op_type: "Constant"
    attribute {
      name: "value"
      t {
        data_type: 7
        raw_data: "\001\000\000\000\000\000\000\000"
      }
      type: TENSOR
    }
  }
  node {
    input: "1117"
    input: "1118"
    output: "1119"
    name: "Gather_756"
    op_type: "Gather"
    attribute {
      name: "axis"
      i: 0
      type: INT
    }
  }
  node {
    input: "1116"
    output: "1121"
    name: "Unsqueeze_757"
    op_type: "Unsqueeze"
    attribute {
      name: "axes"
      ints: 0
      type: INTS
    }
  }
  node {
    input: "1119"
    output: "1122"
    name: "Unsqueeze_758"
    op_type: "Unsqueeze"
    attribute {
      name: "axes"
      ints: 0
      type: INTS
    }
  }
  node {
    input: "1121"
    input: "1122"
    input: "1730"
    output: "1124"
    name: "Concat_759"
    op_type: "Concat"
    attribute {
      name: "axis"
      i: 0
      type: INT
    }
  }
  node {
    input: "1113"
    input: "1124"
    output: "1125"
    name: "Reshape_760"
    op_type: "Reshape"
  }
  node {
    input: "1125"
    input: "1731"
    output: "1127"
    name: "MatMul_761"
    op_type: "MatMul"
  }
  node {
    input: "1127"
    input: "roberta.encoder.layer.7.attention.output.dense.bias"
    output: "1128"
    name: "Add_762"
    op_type: "Add"
  }
  node {
    input: "1128"
    input: "1052"
    output: "1129"
    name: "Add_763"
    op_type: "Add"
  }
  node {
    input: "1129"
    output: "1130"
    name: "ReduceMean_764"
    op_type: "ReduceMean"
    attribute {
      name: "axes"
      ints: -1
      type: INTS
    }
  }
  node {
    input: "1129"
    input: "1130"
    output: "1131"
    name: "Sub_765"
    op_type: "Sub"
  }
  node {
    output: "1132"
    name: "Constant_766"
    op_type: "Constant"
    attribute {
      name: "value"
      t {
        data_type: 1
        raw_data: "\000\000\000@"
      }
      type: TENSOR
    }
  }
  node {
    input: "1131"
    input: "1132"
    output: "1133"
    name: "Pow_767"
    op_type: "Pow"
  }
  node {
    input: "1133"
    output: "1134"
    name: "ReduceMean_768"
    op_type: "ReduceMean"
    attribute {
      name: "axes"
      ints: -1
      type: INTS
    }
  }
  node {
    output: "1135"
    name: "Constant_769"
    op_type: "Constant"
    attribute {
      name: "value"
      t {
        data_type: 1
        raw_data: "\254\305\'7"
      }
      type: TENSOR
    }
  }
  node {
    input: "1134"
    input: "1135"
    output: "1136"
    name: "Add_770"
    op_type: "Add"
  }
  node {
    input: "1136"
    output: "1137"
    name: "Sqrt_771"
    op_type: "Sqrt"
  }
  node {
    input: "1131"
    input: "1137"
    output: "1138"
    name: "Div_772"
    op_type: "Div"
  }
  node {
    input: "1138"
    input: "roberta.encoder.layer.7.attention.output.LayerNorm.weight"
    output: "1139"
    name: "Mul_773"
    op_type: "Mul"
  }
  node {
    input: "1139"
    input: "roberta.encoder.layer.7.attention.output.LayerNorm.bias"
    output: "1140"
    name: "Add_774"
    op_type: "Add"
  }
  node {
    input: "1140"
    input: "1732"
    output: "1142"
    name: "MatMul_775"
    op_type: "MatMul"
  }
  node {
    input: "1142"
    input: "roberta.encoder.layer.7.intermediate.dense.bias"
    output: "1143"
    name: "Add_776"
    op_type: "Add"
  }
  node {
    output: "1144"
    name: "Constant_777"
    op_type: "Constant"
    attribute {
      name: "value"
      t {
        data_type: 1
        raw_data: "\000\000\000?"
      }
      type: TENSOR
    }
  }
  node {
    input: "1143"
    input: "1144"
    output: "1145"
    name: "Mul_778"
    op_type: "Mul"
  }
  node {
    output: "1146"
    name: "Constant_779"
    op_type: "Constant"
    attribute {
      name: "value"
      t {
        data_type: 1
        raw_data: "\363\004\265?"
      }
      type: TENSOR
    }
  }
  node {
    input: "1143"
    input: "1146"
    output: "1147"
    name: "Div_780"
    op_type: "Div"
  }
  node {
    input: "1147"
    output: "1148"
    name: "Erf_781"
    op_type: "Erf"
  }
  node {
    output: "1149"
    name: "Constant_782"
    op_type: "Constant"
    attribute {
      name: "value"
      t {
        data_type: 1
        raw_data: "\000\000\200?"
      }
      type: TENSOR
    }
  }
  node {
    input: "1148"
    input: "1149"
    output: "1150"
    name: "Add_783"
    op_type: "Add"
  }
  node {
    input: "1145"
    input: "1150"
    output: "1151"
    name: "Mul_784"
    op_type: "Mul"
  }
  node {
    input: "1151"
    input: "1733"
    output: "1153"
    name: "MatMul_785"
    op_type: "MatMul"
  }
  node {
    input: "1153"
    input: "roberta.encoder.layer.7.output.dense.bias"
    output: "1154"
    name: "Add_786"
    op_type: "Add"
  }
  node {
    input: "1154"
    input: "1140"
    output: "1155"
    name: "Add_787"
    op_type: "Add"
  }
  node {
    input: "1155"
    output: "1156"
    name: "ReduceMean_788"
    op_type: "ReduceMean"
    attribute {
      name: "axes"
      ints: -1
      type: INTS
    }
  }
  node {
    input: "1155"
    input: "1156"
    output: "1157"
    name: "Sub_789"
    op_type: "Sub"
  }
  node {
    output: "1158"
    name: "Constant_790"
    op_type: "Constant"
    attribute {
      name: "value"
      t {
        data_type: 1
        raw_data: "\000\000\000@"
      }
      type: TENSOR
    }
  }
  node {
    input: "1157"
    input: "1158"
    output: "1159"
    name: "Pow_791"
    op_type: "Pow"
  }
  node {
    input: "1159"
    output: "1160"
    name: "ReduceMean_792"
    op_type: "ReduceMean"
    attribute {
      name: "axes"
      ints: -1
      type: INTS
    }
  }
  node {
    output: "1161"
    name: "Constant_793"
    op_type: "Constant"
    attribute {
      name: "value"
      t {
        data_type: 1
        raw_data: "\254\305\'7"
      }
      type: TENSOR
    }
  }
  node {
    input: "1160"
    input: "1161"
    output: "1162"
    name: "Add_794"
    op_type: "Add"
  }
  node {
    input: "1162"
    output: "1163"
    name: "Sqrt_795"
    op_type: "Sqrt"
  }
  node {
    input: "1157"
    input: "1163"
    output: "1164"
    name: "Div_796"
    op_type: "Div"
  }
  node {
    input: "1164"
    input: "roberta.encoder.layer.7.output.LayerNorm.weight"
    output: "1165"
    name: "Mul_797"
    op_type: "Mul"
  }
  node {
    input: "1165"
    input: "roberta.encoder.layer.7.output.LayerNorm.bias"
    output: "1166"
    name: "Add_798"
    op_type: "Add"
  }
  node {
    input: "1166"
    input: "1734"
    output: "1168"
    name: "MatMul_799"
    op_type: "MatMul"
  }
  node {
    input: "1168"
    input: "roberta.encoder.layer.8.attention.self.query.bias"
    output: "1169"
    name: "Add_800"
    op_type: "Add"
  }
  node {
    input: "1166"
    input: "1735"
    output: "1171"
    name: "MatMul_801"
    op_type: "MatMul"
  }
  node {
    input: "1171"
    input: "roberta.encoder.layer.8.attention.self.key.bias"
    output: "1172"
    name: "Add_802"
    op_type: "Add"
  }
  node {
    input: "1166"
    input: "1736"
    output: "1174"
    name: "MatMul_803"
    op_type: "MatMul"
  }
  node {
    input: "1174"
    input: "roberta.encoder.layer.8.attention.self.value.bias"
    output: "1175"
    name: "Add_804"
    op_type: "Add"
  }
  node {
    input: "1169"
    output: "1176"
    name: "Shape_805"
    op_type: "Shape"
  }
  node {
    output: "1177"
    name: "Constant_806"
    op_type: "Constant"
    attribute {
      name: "value"
      t {
        data_type: 7
        raw_data: "\000\000\000\000\000\000\000\000"
      }
      type: TENSOR
    }
  }
  node {
    input: "1176"
    input: "1177"
    output: "1178"
    name: "Gather_807"
    op_type: "Gather"
    attribute {
      name: "axis"
      i: 0
      type: INT
    }
  }
  node {
    input: "1169"
    output: "1179"
    name: "Shape_808"
    op_type: "Shape"
  }
  node {
    output: "1180"
    name: "Constant_809"
    op_type: "Constant"
    attribute {
      name: "value"
      t {
        data_type: 7
        raw_data: "\001\000\000\000\000\000\000\000"
      }
      type: TENSOR
    }
  }
  node {
    input: "1179"
    input: "1180"
    output: "1181"
    name: "Gather_810"
    op_type: "Gather"
    attribute {
      name: "axis"
      i: 0
      type: INT
    }
  }
  node {
    input: "1178"
    output: "1184"
    name: "Unsqueeze_811"
    op_type: "Unsqueeze"
    attribute {
      name: "axes"
      ints: 0
      type: INTS
    }
  }
  node {
    input: "1181"
    output: "1185"
    name: "Unsqueeze_812"
    op_type: "Unsqueeze"
    attribute {
      name: "axes"
      ints: 0
      type: INTS
    }
  }
  node {
    input: "1184"
    input: "1185"
    input: "1737"
    input: "1738"
    output: "1188"
    name: "Concat_813"
    op_type: "Concat"
    attribute {
      name: "axis"
      i: 0
      type: INT
    }
  }
  node {
    input: "1169"
    input: "1188"
    output: "1189"
    name: "Reshape_814"
    op_type: "Reshape"
  }
  node {
    input: "1189"
    output: "1190"
    name: "Transpose_815"
    op_type: "Transpose"
    attribute {
      name: "perm"
      ints: 0
      ints: 2
      ints: 1
      ints: 3
      type: INTS
    }
  }
  node {
    input: "1172"
    output: "1191"
    name: "Shape_816"
    op_type: "Shape"
  }
  node {
    output: "1192"
    name: "Constant_817"
    op_type: "Constant"
    attribute {
      name: "value"
      t {
        data_type: 7
        raw_data: "\000\000\000\000\000\000\000\000"
      }
      type: TENSOR
    }
  }
  node {
    input: "1191"
    input: "1192"
    output: "1193"
    name: "Gather_818"
    op_type: "Gather"
    attribute {
      name: "axis"
      i: 0
      type: INT
    }
  }
  node {
    input: "1172"
    output: "1194"
    name: "Shape_819"
    op_type: "Shape"
  }
  node {
    output: "1195"
    name: "Constant_820"
    op_type: "Constant"
    attribute {
      name: "value"
      t {
        data_type: 7
        raw_data: "\001\000\000\000\000\000\000\000"
      }
      type: TENSOR
    }
  }
  node {
    input: "1194"
    input: "1195"
    output: "1196"
    name: "Gather_821"
    op_type: "Gather"
    attribute {
      name: "axis"
      i: 0
      type: INT
    }
  }
  node {
    input: "1193"
    output: "1199"
    name: "Unsqueeze_822"
    op_type: "Unsqueeze"
    attribute {
      name: "axes"
      ints: 0
      type: INTS
    }
  }
  node {
    input: "1196"
    output: "1200"
    name: "Unsqueeze_823"
    op_type: "Unsqueeze"
    attribute {
      name: "axes"
      ints: 0
      type: INTS
    }
  }
  node {
    input: "1199"
    input: "1200"
    input: "1739"
    input: "1740"
    output: "1203"
    name: "Concat_824"
    op_type: "Concat"
    attribute {
      name: "axis"
      i: 0
      type: INT
    }
  }
  node {
    input: "1172"
    input: "1203"
    output: "1204"
    name: "Reshape_825"
    op_type: "Reshape"
  }
  node {
    input: "1175"
    output: "1205"
    name: "Shape_826"
    op_type: "Shape"
  }
  node {
    output: "1206"
    name: "Constant_827"
    op_type: "Constant"
    attribute {
      name: "value"
      t {
        data_type: 7
        raw_data: "\000\000\000\000\000\000\000\000"
      }
      type: TENSOR
    }
  }
  node {
    input: "1205"
    input: "1206"
    output: "1207"
    name: "Gather_828"
    op_type: "Gather"
    attribute {
      name: "axis"
      i: 0
      type: INT
    }
  }
  node {
    input: "1175"
    output: "1208"
    name: "Shape_829"
    op_type: "Shape"
  }
  node {
    output: "1209"
    name: "Constant_830"
    op_type: "Constant"
    attribute {
      name: "value"
      t {
        data_type: 7
        raw_data: "\001\000\000\000\000\000\000\000"
      }
      type: TENSOR
    }
  }
  node {
    input: "1208"
    input: "1209"
    output: "1210"
    name: "Gather_831"
    op_type: "Gather"
    attribute {
      name: "axis"
      i: 0
      type: INT
    }
  }
  node {
    input: "1207"
    output: "1213"
    name: "Unsqueeze_832"
    op_type: "Unsqueeze"
    attribute {
      name: "axes"
      ints: 0
      type: INTS
    }
  }
  node {
    input: "1210"
    output: "1214"
    name: "Unsqueeze_833"
    op_type: "Unsqueeze"
    attribute {
      name: "axes"
      ints: 0
      type: INTS
    }
  }
  node {
    input: "1213"
    input: "1214"
    input: "1741"
    input: "1742"
    output: "1217"
    name: "Concat_834"
    op_type: "Concat"
    attribute {
      name: "axis"
      i: 0
      type: INT
    }
  }
  node {
    input: "1175"
    input: "1217"
    output: "1218"
    name: "Reshape_835"
    op_type: "Reshape"
  }
  node {
    input: "1218"
    output: "1219"
    name: "Transpose_836"
    op_type: "Transpose"
    attribute {
      name: "perm"
      ints: 0
      ints: 2
      ints: 1
      ints: 3
      type: INTS
    }
  }
  node {
    input: "1204"
    output: "1220"
    name: "Transpose_837"
    op_type: "Transpose"
    attribute {
      name: "perm"
      ints: 0
      ints: 2
      ints: 3
      ints: 1
      type: INTS
    }
  }
  node {
    input: "1190"
    input: "1220"
    output: "1221"
    name: "MatMul_838"
    op_type: "MatMul"
  }
  node {
    output: "1222"
    name: "Constant_839"
    op_type: "Constant"
    attribute {
      name: "value"
      t {
        data_type: 1
        raw_data: "\000\000\000A"
      }
      type: TENSOR
    }
  }
  node {
    input: "1221"
    input: "1222"
    output: "1223"
    name: "Div_840"
    op_type: "Div"
  }
  node {
    input: "1223"
    input: "214"
    output: "1224"
    name: "Add_841"
    op_type: "Add"
  }
  node {
    input: "1224"
    output: "1225"
    name: "Softmax_842"
    op_type: "Softmax"
    attribute {
      name: "axis"
      i: 3
      type: INT
    }
  }
  node {
    input: "1225"
    input: "1219"
    output: "1226"
    name: "MatMul_843"
    op_type: "MatMul"
  }
  node {
    input: "1226"
    output: "1227"
    name: "Transpose_844"
    op_type: "Transpose"
    attribute {
      name: "perm"
      ints: 0
      ints: 2
      ints: 1
      ints: 3
      type: INTS
    }
  }
  node {
    input: "1227"
    output: "1228"
    name: "Shape_845"
    op_type: "Shape"
  }
  node {
    output: "1229"
    name: "Constant_846"
    op_type: "Constant"
    attribute {
      name: "value"
      t {
        data_type: 7
        raw_data: "\000\000\000\000\000\000\000\000"
      }
      type: TENSOR
    }
  }
  node {
    input: "1228"
    input: "1229"
    output: "1230"
    name: "Gather_847"
    op_type: "Gather"
    attribute {
      name: "axis"
      i: 0
      type: INT
    }
  }
  node {
    input: "1227"
    output: "1231"
    name: "Shape_848"
    op_type: "Shape"
  }
  node {
    output: "1232"
    name: "Constant_849"
    op_type: "Constant"
    attribute {
      name: "value"
      t {
        data_type: 7
        raw_data: "\001\000\000\000\000\000\000\000"
      }
      type: TENSOR
    }
  }
  node {
    input: "1231"
    input: "1232"
    output: "1233"
    name: "Gather_850"
    op_type: "Gather"
    attribute {
      name: "axis"
      i: 0
      type: INT
    }
  }
  node {
    input: "1230"
    output: "1235"
    name: "Unsqueeze_851"
    op_type: "Unsqueeze"
    attribute {
      name: "axes"
      ints: 0
      type: INTS
    }
  }
  node {
    input: "1233"
    output: "1236"
    name: "Unsqueeze_852"
    op_type: "Unsqueeze"
    attribute {
      name: "axes"
      ints: 0
      type: INTS
    }
  }
  node {
    input: "1235"
    input: "1236"
    input: "1743"
    output: "1238"
    name: "Concat_853"
    op_type: "Concat"
    attribute {
      name: "axis"
      i: 0
      type: INT
    }
  }
  node {
    input: "1227"
    input: "1238"
    output: "1239"
    name: "Reshape_854"
    op_type: "Reshape"
  }
  node {
    input: "1239"
    input: "1744"
    output: "1241"
    name: "MatMul_855"
    op_type: "MatMul"
  }
  node {
    input: "1241"
    input: "roberta.encoder.layer.8.attention.output.dense.bias"
    output: "1242"
    name: "Add_856"
    op_type: "Add"
  }
  node {
    input: "1242"
    input: "1166"
    output: "1243"
    name: "Add_857"
    op_type: "Add"
  }
  node {
    input: "1243"
    output: "1244"
    name: "ReduceMean_858"
    op_type: "ReduceMean"
    attribute {
      name: "axes"
      ints: -1
      type: INTS
    }
  }
  node {
    input: "1243"
    input: "1244"
    output: "1245"
    name: "Sub_859"
    op_type: "Sub"
  }
  node {
    output: "1246"
    name: "Constant_860"
    op_type: "Constant"
    attribute {
      name: "value"
      t {
        data_type: 1
        raw_data: "\000\000\000@"
      }
      type: TENSOR
    }
  }
  node {
    input: "1245"
    input: "1246"
    output: "1247"
    name: "Pow_861"
    op_type: "Pow"
  }
  node {
    input: "1247"
    output: "1248"
    name: "ReduceMean_862"
    op_type: "ReduceMean"
    attribute {
      name: "axes"
      ints: -1
      type: INTS
    }
  }
  node {
    output: "1249"
    name: "Constant_863"
    op_type: "Constant"
    attribute {
      name: "value"
      t {
        data_type: 1
        raw_data: "\254\305\'7"
      }
      type: TENSOR
    }
  }
  node {
    input: "1248"
    input: "1249"
    output: "1250"
    name: "Add_864"
    op_type: "Add"
  }
  node {
    input: "1250"
    output: "1251"
    name: "Sqrt_865"
    op_type: "Sqrt"
  }
  node {
    input: "1245"
    input: "1251"
    output: "1252"
    name: "Div_866"
    op_type: "Div"
  }
  node {
    input: "1252"
    input: "roberta.encoder.layer.8.attention.output.LayerNorm.weight"
    output: "1253"
    name: "Mul_867"
    op_type: "Mul"
  }
  node {
    input: "1253"
    input: "roberta.encoder.layer.8.attention.output.LayerNorm.bias"
    output: "1254"
    name: "Add_868"
    op_type: "Add"
  }
  node {
    input: "1254"
    input: "1745"
    output: "1256"
    name: "MatMul_869"
    op_type: "MatMul"
  }
  node {
    input: "1256"
    input: "roberta.encoder.layer.8.intermediate.dense.bias"
    output: "1257"
    name: "Add_870"
    op_type: "Add"
  }
  node {
    output: "1258"
    name: "Constant_871"
    op_type: "Constant"
    attribute {
      name: "value"
      t {
        data_type: 1
        raw_data: "\000\000\000?"
      }
      type: TENSOR
    }
  }
  node {
    input: "1257"
    input: "1258"
    output: "1259"
    name: "Mul_872"
    op_type: "Mul"
  }
  node {
    output: "1260"
    name: "Constant_873"
    op_type: "Constant"
    attribute {
      name: "value"
      t {
        data_type: 1
        raw_data: "\363\004\265?"
      }
      type: TENSOR
    }
  }
  node {
    input: "1257"
    input: "1260"
    output: "1261"
    name: "Div_874"
    op_type: "Div"
  }
  node {
    input: "1261"
    output: "1262"
    name: "Erf_875"
    op_type: "Erf"
  }
  node {
    output: "1263"
    name: "Constant_876"
    op_type: "Constant"
    attribute {
      name: "value"
      t {
        data_type: 1
        raw_data: "\000\000\200?"
      }
      type: TENSOR
    }
  }
  node {
    input: "1262"
    input: "1263"
    output: "1264"
    name: "Add_877"
    op_type: "Add"
  }
  node {
    input: "1259"
    input: "1264"
    output: "1265"
    name: "Mul_878"
    op_type: "Mul"
  }
  node {
    input: "1265"
    input: "1746"
    output: "1267"
    name: "MatMul_879"
    op_type: "MatMul"
  }
  node {
    input: "1267"
    input: "roberta.encoder.layer.8.output.dense.bias"
    output: "1268"
    name: "Add_880"
    op_type: "Add"
  }
  node {
    input: "1268"
    input: "1254"
    output: "1269"
    name: "Add_881"
    op_type: "Add"
  }
  node {
    input: "1269"
    output: "1270"
    name: "ReduceMean_882"
    op_type: "ReduceMean"
    attribute {
      name: "axes"
      ints: -1
      type: INTS
    }
  }
  node {
    input: "1269"
    input: "1270"
    output: "1271"
    name: "Sub_883"
    op_type: "Sub"
  }
  node {
    output: "1272"
    name: "Constant_884"
    op_type: "Constant"
    attribute {
      name: "value"
      t {
        data_type: 1
        raw_data: "\000\000\000@"
      }
      type: TENSOR
    }
  }
  node {
    input: "1271"
    input: "1272"
    output: "1273"
    name: "Pow_885"
    op_type: "Pow"
  }
  node {
    input: "1273"
    output: "1274"
    name: "ReduceMean_886"
    op_type: "ReduceMean"
    attribute {
      name: "axes"
      ints: -1
      type: INTS
    }
  }
  node {
    output: "1275"
    name: "Constant_887"
    op_type: "Constant"
    attribute {
      name: "value"
      t {
        data_type: 1
        raw_data: "\254\305\'7"
      }
      type: TENSOR
    }
  }
  node {
    input: "1274"
    input: "1275"
    output: "1276"
    name: "Add_888"
    op_type: "Add"
  }
  node {
    input: "1276"
    output: "1277"
    name: "Sqrt_889"
    op_type: "Sqrt"
  }
  node {
    input: "1271"
    input: "1277"
    output: "1278"
    name: "Div_890"
    op_type: "Div"
  }
  node {
    input: "1278"
    input: "roberta.encoder.layer.8.output.LayerNorm.weight"
    output: "1279"
    name: "Mul_891"
    op_type: "Mul"
  }
  node {
    input: "1279"
    input: "roberta.encoder.layer.8.output.LayerNorm.bias"
    output: "1280"
    name: "Add_892"
    op_type: "Add"
  }
  node {
    input: "1280"
    input: "1747"
    output: "1282"
    name: "MatMul_893"
    op_type: "MatMul"
  }
  node {
    input: "1282"
    input: "roberta.encoder.layer.9.attention.self.query.bias"
    output: "1283"
    name: "Add_894"
    op_type: "Add"
  }
  node {
    input: "1280"
    input: "1748"
    output: "1285"
    name: "MatMul_895"
    op_type: "MatMul"
  }
  node {
    input: "1285"
    input: "roberta.encoder.layer.9.attention.self.key.bias"
    output: "1286"
    name: "Add_896"
    op_type: "Add"
  }
  node {
    input: "1280"
    input: "1749"
    output: "1288"
    name: "MatMul_897"
    op_type: "MatMul"
  }
  node {
    input: "1288"
    input: "roberta.encoder.layer.9.attention.self.value.bias"
    output: "1289"
    name: "Add_898"
    op_type: "Add"
  }
  node {
    input: "1283"
    output: "1290"
    name: "Shape_899"
    op_type: "Shape"
  }
  node {
    output: "1291"
    name: "Constant_900"
    op_type: "Constant"
    attribute {
      name: "value"
      t {
        data_type: 7
        raw_data: "\000\000\000\000\000\000\000\000"
      }
      type: TENSOR
    }
  }
  node {
    input: "1290"
    input: "1291"
    output: "1292"
    name: "Gather_901"
    op_type: "Gather"
    attribute {
      name: "axis"
      i: 0
      type: INT
    }
  }
  node {
    input: "1283"
    output: "1293"
    name: "Shape_902"
    op_type: "Shape"
  }
  node {
    output: "1294"
    name: "Constant_903"
    op_type: "Constant"
    attribute {
      name: "value"
      t {
        data_type: 7
        raw_data: "\001\000\000\000\000\000\000\000"
      }
      type: TENSOR
    }
  }
  node {
    input: "1293"
    input: "1294"
    output: "1295"
    name: "Gather_904"
    op_type: "Gather"
    attribute {
      name: "axis"
      i: 0
      type: INT
    }
  }
  node {
    input: "1292"
    output: "1298"
    name: "Unsqueeze_905"
    op_type: "Unsqueeze"
    attribute {
      name: "axes"
      ints: 0
      type: INTS
    }
  }
  node {
    input: "1295"
    output: "1299"
    name: "Unsqueeze_906"
    op_type: "Unsqueeze"
    attribute {
      name: "axes"
      ints: 0
      type: INTS
    }
  }
  node {
    input: "1298"
    input: "1299"
    input: "1750"
    input: "1751"
    output: "1302"
    name: "Concat_907"
    op_type: "Concat"
    attribute {
      name: "axis"
      i: 0
      type: INT
    }
  }
  node {
    input: "1283"
    input: "1302"
    output: "1303"
    name: "Reshape_908"
    op_type: "Reshape"
  }
  node {
    input: "1303"
    output: "1304"
    name: "Transpose_909"
    op_type: "Transpose"
    attribute {
      name: "perm"
      ints: 0
      ints: 2
      ints: 1
      ints: 3
      type: INTS
    }
  }
  node {
    input: "1286"
    output: "1305"
    name: "Shape_910"
    op_type: "Shape"
  }
  node {
    output: "1306"
    name: "Constant_911"
    op_type: "Constant"
    attribute {
      name: "value"
      t {
        data_type: 7
        raw_data: "\000\000\000\000\000\000\000\000"
      }
      type: TENSOR
    }
  }
  node {
    input: "1305"
    input: "1306"
    output: "1307"
    name: "Gather_912"
    op_type: "Gather"
    attribute {
      name: "axis"
      i: 0
      type: INT
    }
  }
  node {
    input: "1286"
    output: "1308"
    name: "Shape_913"
    op_type: "Shape"
  }
  node {
    output: "1309"
    name: "Constant_914"
    op_type: "Constant"
    attribute {
      name: "value"
      t {
        data_type: 7
        raw_data: "\001\000\000\000\000\000\000\000"
      }
      type: TENSOR
    }
  }
  node {
    input: "1308"
    input: "1309"
    output: "1310"
    name: "Gather_915"
    op_type: "Gather"
    attribute {
      name: "axis"
      i: 0
      type: INT
    }
  }
  node {
    input: "1307"
    output: "1313"
    name: "Unsqueeze_916"
    op_type: "Unsqueeze"
    attribute {
      name: "axes"
      ints: 0
      type: INTS
    }
  }
  node {
    input: "1310"
    output: "1314"
    name: "Unsqueeze_917"
    op_type: "Unsqueeze"
    attribute {
      name: "axes"
      ints: 0
      type: INTS
    }
  }
  node {
    input: "1313"
    input: "1314"
    input: "1752"
    input: "1753"
    output: "1317"
    name: "Concat_918"
    op_type: "Concat"
    attribute {
      name: "axis"
      i: 0
      type: INT
    }
  }
  node {
    input: "1286"
    input: "1317"
    output: "1318"
    name: "Reshape_919"
    op_type: "Reshape"
  }
  node {
    input: "1289"
    output: "1319"
    name: "Shape_920"
    op_type: "Shape"
  }
  node {
    output: "1320"
    name: "Constant_921"
    op_type: "Constant"
    attribute {
      name: "value"
      t {
        data_type: 7
        raw_data: "\000\000\000\000\000\000\000\000"
      }
      type: TENSOR
    }
  }
  node {
    input: "1319"
    input: "1320"
    output: "1321"
    name: "Gather_922"
    op_type: "Gather"
    attribute {
      name: "axis"
      i: 0
      type: INT
    }
  }
  node {
    input: "1289"
    output: "1322"
    name: "Shape_923"
    op_type: "Shape"
  }
  node {
    output: "1323"
    name: "Constant_924"
    op_type: "Constant"
    attribute {
      name: "value"
      t {
        data_type: 7
        raw_data: "\001\000\000\000\000\000\000\000"
      }
      type: TENSOR
    }
  }
  node {
    input: "1322"
    input: "1323"
    output: "1324"
    name: "Gather_925"
    op_type: "Gather"
    attribute {
      name: "axis"
      i: 0
      type: INT
    }
  }
  node {
    input: "1321"
    output: "1327"
    name: "Unsqueeze_926"
    op_type: "Unsqueeze"
    attribute {
      name: "axes"
      ints: 0
      type: INTS
    }
  }
  node {
    input: "1324"
    output: "1328"
    name: "Unsqueeze_927"
    op_type: "Unsqueeze"
    attribute {
      name: "axes"
      ints: 0
      type: INTS
    }
  }
  node {
    input: "1327"
    input: "1328"
    input: "1754"
    input: "1755"
    output: "1331"
    name: "Concat_928"
    op_type: "Concat"
    attribute {
      name: "axis"
      i: 0
      type: INT
    }
  }
  node {
    input: "1289"
    input: "1331"
    output: "1332"
    name: "Reshape_929"
    op_type: "Reshape"
  }
  node {
    input: "1332"
    output: "1333"
    name: "Transpose_930"
    op_type: "Transpose"
    attribute {
      name: "perm"
      ints: 0
      ints: 2
      ints: 1
      ints: 3
      type: INTS
    }
  }
  node {
    input: "1318"
    output: "1334"
    name: "Transpose_931"
    op_type: "Transpose"
    attribute {
      name: "perm"
      ints: 0
      ints: 2
      ints: 3
      ints: 1
      type: INTS
    }
  }
  node {
    input: "1304"
    input: "1334"
    output: "1335"
    name: "MatMul_932"
    op_type: "MatMul"
  }
  node {
    output: "1336"
    name: "Constant_933"
    op_type: "Constant"
    attribute {
      name: "value"
      t {
        data_type: 1
        raw_data: "\000\000\000A"
      }
      type: TENSOR
    }
  }
  node {
    input: "1335"
    input: "1336"
    output: "1337"
    name: "Div_934"
    op_type: "Div"
  }
  node {
    input: "1337"
    input: "214"
    output: "1338"
    name: "Add_935"
    op_type: "Add"
  }
  node {
    input: "1338"
    output: "1339"
    name: "Softmax_936"
    op_type: "Softmax"
    attribute {
      name: "axis"
      i: 3
      type: INT
    }
  }
  node {
    input: "1339"
    input: "1333"
    output: "1340"
    name: "MatMul_937"
    op_type: "MatMul"
  }
  node {
    input: "1340"
    output: "1341"
    name: "Transpose_938"
    op_type: "Transpose"
    attribute {
      name: "perm"
      ints: 0
      ints: 2
      ints: 1
      ints: 3
      type: INTS
    }
  }
  node {
    input: "1341"
    output: "1342"
    name: "Shape_939"
    op_type: "Shape"
  }
  node {
    output: "1343"
    name: "Constant_940"
    op_type: "Constant"
    attribute {
      name: "value"
      t {
        data_type: 7
        raw_data: "\000\000\000\000\000\000\000\000"
      }
      type: TENSOR
    }
  }
  node {
    input: "1342"
    input: "1343"
    output: "1344"
    name: "Gather_941"
    op_type: "Gather"
    attribute {
      name: "axis"
      i: 0
      type: INT
    }
  }
  node {
    input: "1341"
    output: "1345"
    name: "Shape_942"
    op_type: "Shape"
  }
  node {
    output: "1346"
    name: "Constant_943"
    op_type: "Constant"
    attribute {
      name: "value"
      t {
        data_type: 7
        raw_data: "\001\000\000\000\000\000\000\000"
      }
      type: TENSOR
    }
  }
  node {
    input: "1345"
    input: "1346"
    output: "1347"
    name: "Gather_944"
    op_type: "Gather"
    attribute {
      name: "axis"
      i: 0
      type: INT
    }
  }
  node {
    input: "1344"
    output: "1349"
    name: "Unsqueeze_945"
    op_type: "Unsqueeze"
    attribute {
      name: "axes"
      ints: 0
      type: INTS
    }
  }
  node {
    input: "1347"
    output: "1350"
    name: "Unsqueeze_946"
    op_type: "Unsqueeze"
    attribute {
      name: "axes"
      ints: 0
      type: INTS
    }
  }
  node {
    input: "1349"
    input: "1350"
    input: "1756"
    output: "1352"
    name: "Concat_947"
    op_type: "Concat"
    attribute {
      name: "axis"
      i: 0
      type: INT
    }
  }
  node {
    input: "1341"
    input: "1352"
    output: "1353"
    name: "Reshape_948"
    op_type: "Reshape"
  }
  node {
    input: "1353"
    input: "1757"
    output: "1355"
    name: "MatMul_949"
    op_type: "MatMul"
  }
  node {
    input: "1355"
    input: "roberta.encoder.layer.9.attention.output.dense.bias"
    output: "1356"
    name: "Add_950"
    op_type: "Add"
  }
  node {
    input: "1356"
    input: "1280"
    output: "1357"
    name: "Add_951"
    op_type: "Add"
  }
  node {
    input: "1357"
    output: "1358"
    name: "ReduceMean_952"
    op_type: "ReduceMean"
    attribute {
      name: "axes"
      ints: -1
      type: INTS
    }
  }
  node {
    input: "1357"
    input: "1358"
    output: "1359"
    name: "Sub_953"
    op_type: "Sub"
  }
  node {
    output: "1360"
    name: "Constant_954"
    op_type: "Constant"
    attribute {
      name: "value"
      t {
        data_type: 1
        raw_data: "\000\000\000@"
      }
      type: TENSOR
    }
  }
  node {
    input: "1359"
    input: "1360"
    output: "1361"
    name: "Pow_955"
    op_type: "Pow"
  }
  node {
    input: "1361"
    output: "1362"
    name: "ReduceMean_956"
    op_type: "ReduceMean"
    attribute {
      name: "axes"
      ints: -1
      type: INTS
    }
  }
  node {
    output: "1363"
    name: "Constant_957"
    op_type: "Constant"
    attribute {
      name: "value"
      t {
        data_type: 1
        raw_data: "\254\305\'7"
      }
      type: TENSOR
    }
  }
  node {
    input: "1362"
    input: "1363"
    output: "1364"
    name: "Add_958"
    op_type: "Add"
  }
  node {
    input: "1364"
    output: "1365"
    name: "Sqrt_959"
    op_type: "Sqrt"
  }
  node {
    input: "1359"
    input: "1365"
    output: "1366"
    name: "Div_960"
    op_type: "Div"
  }
  node {
    input: "1366"
    input: "roberta.encoder.layer.9.attention.output.LayerNorm.weight"
    output: "1367"
    name: "Mul_961"
    op_type: "Mul"
  }
  node {
    input: "1367"
    input: "roberta.encoder.layer.9.attention.output.LayerNorm.bias"
    output: "1368"
    name: "Add_962"
    op_type: "Add"
  }
  node {
    input: "1368"
    input: "1758"
    output: "1370"
    name: "MatMul_963"
    op_type: "MatMul"
  }
  node {
    input: "1370"
    input: "roberta.encoder.layer.9.intermediate.dense.bias"
    output: "1371"
    name: "Add_964"
    op_type: "Add"
  }
  node {
    output: "1372"
    name: "Constant_965"
    op_type: "Constant"
    attribute {
      name: "value"
      t {
        data_type: 1
        raw_data: "\000\000\000?"
      }
      type: TENSOR
    }
  }
  node {
    input: "1371"
    input: "1372"
    output: "1373"
    name: "Mul_966"
    op_type: "Mul"
  }
  node {
    output: "1374"
    name: "Constant_967"
    op_type: "Constant"
    attribute {
      name: "value"
      t {
        data_type: 1
        raw_data: "\363\004\265?"
      }
      type: TENSOR
    }
  }
  node {
    input: "1371"
    input: "1374"
    output: "1375"
    name: "Div_968"
    op_type: "Div"
  }
  node {
    input: "1375"
    output: "1376"
    name: "Erf_969"
    op_type: "Erf"
  }
  node {
    output: "1377"
    name: "Constant_970"
    op_type: "Constant"
    attribute {
      name: "value"
      t {
        data_type: 1
        raw_data: "\000\000\200?"
      }
      type: TENSOR
    }
  }
  node {
    input: "1376"
    input: "1377"
    output: "1378"
    name: "Add_971"
    op_type: "Add"
  }
  node {
    input: "1373"
    input: "1378"
    output: "1379"
    name: "Mul_972"
    op_type: "Mul"
  }
  node {
    input: "1379"
    input: "1759"
    output: "1381"
    name: "MatMul_973"
    op_type: "MatMul"
  }
  node {
    input: "1381"
…
            dim_value: 768
          }
          dim {
            dim_value: 768
          }
        }
      }
    }
  }
  input {
    name: "1736"
    type {
      tensor_type {
        elem_type: 1
        shape {
          dim {
            dim_value: 768
          }
          dim {
            dim_value: 768
          }
        }
      }
    }
  }
  input {
    name: "1744"
    type {
      tensor_type {
        elem_type: 1
        shape {
          dim {
            dim_value: 768
          }
          dim {
            dim_value: 768
          }
        }
      }
    }
  }
  input {
    name: "1745"
    type {
      tensor_type {
        elem_type: 1
        shape {
          dim {
            dim_value: 768
          }
          dim {
            dim_value: 3072
          }
        }
      }
    }
  }
  input {
    name: "1746"
    type {
      tensor_type {
        elem_type: 1
        shape {
          dim {
            dim_value: 3072
          }
          dim {
            dim_value: 768
          }
        }
      }
    }
  }
  input {
    name: "1747"
    type {
      tensor_type {
        elem_type: 1
        shape {
          dim {
            dim_value: 768
          }
          dim {
            dim_value: 768
          }
        }
      }
    }
  }
  input {
    name: "1748"
    type {
      tensor_type {
        elem_type: 1
        shape {
          dim {
            dim_value: 768
          }
          dim {
            dim_value: 768
          }
        }
      }
    }
  }
  input {
    name: "1749"
    type {
      tensor_type {
        elem_type: 1
        shape {
          dim {
            dim_value: 768
          }
          dim {
            dim_value: 768
          }
        }
      }
    }
  }
  input {
    name: "1757"
    type {
      tensor_type {
        elem_type: 1
        shape {
          dim {
            dim_value: 768
          }
          dim {
            dim_value: 768
          }
        }
      }
    }
  }
  input {
    name: "1758"
    type {
      tensor_type {
        elem_type: 1
        shape {
          dim {
            dim_value: 768
          }
          dim {
            dim_value: 3072
          }
        }
      }
    }
  }
  input {
    name: "1759"
    type {
      tensor_type {
        elem_type: 1
        shape {
          dim {
            dim_value: 3072
          }
          dim {
            dim_value: 768
          }
        }
      }
    }
  }
  input {
    name: "1760"
    type {
      tensor_type {
        elem_type: 1
        shape {
          dim {
            dim_value: 768
          }
          dim {
            dim_value: 768
          }
        }
      }
    }
  }
  input {
    name: "1761"
    type {
      tensor_type {
        elem_type: 1
        shape {
          dim {
            dim_value: 768
          }
          dim {
            dim_value: 768
          }
        }
      }
    }
  }
  input {
    name: "1762"
    type {
      tensor_type {
        elem_type: 1
        shape {
          dim {
            dim_value: 768
          }
          dim {
            dim_value: 768
          }
        }
      }
    }
  }
  input {
    name: "1770"
    type {
      tensor_type {
        elem_type: 1
        shape {
          dim {
            dim_value: 768
          }
          dim {
            dim_value: 768
          }
        }
      }
    }
  }
  input {
    name: "1771"
    type {
      tensor_type {
        elem_type: 1
        shape {
          dim {
            dim_value: 768
          }
          dim {
            dim_value: 3072
          }
        }
      }
    }
  }
  input {
    name: "1772"
    type {
      tensor_type {
        elem_type: 1
        shape {
          dim {
            dim_value: 3072
          }
          dim {
            dim_value: 768
          }
        }
      }
    }
  }
  input {
    name: "1773"
    type {
      tensor_type {
        elem_type: 1
        shape {
          dim {
            dim_value: 768
          }
          dim {
            dim_value: 768
          }
        }
      }
    }
  }
  input {
    name: "1774"
    type {
      tensor_type {
        elem_type: 1
        shape {
          dim {
            dim_value: 768
          }
          dim {
            dim_value: 768
          }
        }
      }
    }
  }
  input {
    name: "1775"
    type {
      tensor_type {
        elem_type: 1
        shape {
          dim {
            dim_value: 768
          }
          dim {
            dim_value: 768
          }
        }
      }
    }
  }
  input {
    name: "1783"
    type {
      tensor_type {
        elem_type: 1
        shape {
          dim {
            dim_value: 768
          }
          dim {
            dim_value: 768
          }
        }
      }
    }
  }
  input {
    name: "1784"
    type {
      tensor_type {
        elem_type: 1
        shape {
          dim {
            dim_value: 768
          }
          dim {
            dim_value: 3072
          }
        }
      }
    }
  }
  input {
    name: "1785"
    type {
      tensor_type {
        elem_type: 1
        shape {
          dim {
            dim_value: 3072
          }
          dim {
            dim_value: 768
          }
        }
      }
    }
  }
  input {
    name: "classifier.dense.bias"
    type {
      tensor_type {
        elem_type: 1
        shape {
          dim {
            dim_value: 768
          }
        }
      }
    }
  }
  input {
    name: "classifier.dense.weight"
    type {
      tensor_type {
        elem_type: 1
        shape {
          dim {
            dim_value: 768
          }
          dim {
            dim_value: 768
          }
        }
      }
    }
  }
  input {
    name: "classifier.out_proj.weight"
    type {
      tensor_type {
        elem_type: 1
        shape {
          dim {
            dim_value: 2
          }
          dim {
            dim_value: 768
          }
        }
      }
    }
  }
  input {
    name: "roberta.embeddings.LayerNorm.bias"
    type {
      tensor_type {
        elem_type: 1
        shape {
          dim {
            dim_value: 768
          }
        }
      }
    }
  }
  input {
    name: "roberta.embeddings.LayerNorm.weight"
    type {
      tensor_type {
        elem_type: 1
        shape {
          dim {
            dim_value: 768
          }
        }
      }
    }
  }
  input {
    name: "roberta.embeddings.position_embeddings.weight"
    type {
      tensor_type {
        elem_type: 1
        shape {
          dim {
            dim_value: 514
          }
          dim {
            dim_value: 768
          }
        }
      }
    }
  }
  input {
    name: "roberta.embeddings.token_type_embeddings.weight"
    type {
      tensor_type {
        elem_type: 1
        shape {
          dim {
            dim_value: 1
          }
          dim {
            dim_value: 768
          }
        }
      }
    }
  }
  input {
    name: "roberta.embeddings.word_embeddings.weight"
    type {
      tensor_type {
        elem_type: 1
        shape {
          dim {
            dim_value: 50265
          }
          dim {
            dim_value: 768
          }
        }
      }
    }
  }
  input {
    name: "roberta.encoder.layer.0.attention.output.LayerNorm.bias"
    type {
      tensor_type {
        elem_type: 1
        shape {
          dim {
            dim_value: 768
          }
        }
      }
    }
  }
  input {
    name: "roberta.encoder.layer.0.attention.output.LayerNorm.weight"
    type {
      tensor_type {
        elem_type: 1
        shape {
          dim {
            dim_value: 768
          }
        }
      }
    }
  }
  input {
    name: "roberta.encoder.layer.0.attention.output.dense.bias"
    type {
      tensor_type {
        elem_type: 1
        shape {
          dim {
            dim_value: 768
          }
        }
      }
    }
  }
  input {
    name: "roberta.encoder.layer.0.attention.self.key.bias"
    type {
      tensor_type {
        elem_type: 1
        shape {
          dim {
            dim_value: 768
          }
        }
      }
    }
  }
  input {
    name: "roberta.encoder.layer.0.attention.self.query.bias"
    type {
      tensor_type {
        elem_type: 1
        shape {
          dim {
            dim_value: 768
          }
        }
      }
    }
  }
  input {
    name: "roberta.encoder.layer.0.attention.self.value.bias"
    type {
      tensor_type {
        elem_type: 1
        shape {
          dim {
            dim_value: 768
          }
        }
      }
    }
  }
  input {
    name: "roberta.encoder.layer.0.intermediate.dense.bias"
    type {
      tensor_type {
        elem_type: 1
        shape {
          dim {
            dim_value: 3072
          }
        }
      }
    }
  }
  input {
    name: "roberta.encoder.layer.0.output.LayerNorm.bias"
    type {
      tensor_type {
        elem_type: 1
        shape {
          dim {
            dim_value: 768
          }
        }
      }
    }
  }
  input {
    name: "roberta.encoder.layer.0.output.LayerNorm.weight"
    type {
      tensor_type {
        elem_type: 1
        shape {
          dim {
            dim_value: 768
          }
        }
      }
    }
  }
  input {
    name: "roberta.encoder.layer.0.output.dense.bias"
    type {
      tensor_type {
        elem_type: 1
        shape {
          dim {
            dim_value: 768
          }
        }
      }
    }
  }
  input {
    name: "roberta.encoder.layer.1.attention.output.LayerNorm.bias"
    type {
      tensor_type {
        elem_type: 1
        shape {
          dim {
            dim_value: 768
          }
        }
      }
    }
  }
  input {
    name: "roberta.encoder.layer.1.attention.output.LayerNorm.weight"
    type {
      tensor_type {
        elem_type: 1
        shape {
          dim {
            dim_value: 768
          }
        }
      }
    }
  }
  input {
    name: "roberta.encoder.layer.1.attention.output.dense.bias"
    type {
      tensor_type {
        elem_type: 1
        shape {
          dim {
            dim_value: 768
          }
        }
      }
    }
  }
  input {
    name: "roberta.encoder.layer.1.attention.self.key.bias"
    type {
      tensor_type {
        elem_type: 1
        shape {
          dim {
            dim_value: 768
          }
        }
      }
    }
  }
  input {
    name: "roberta.encoder.layer.1.attention.self.query.bias"
    type {
      tensor_type {
        elem_type: 1
        shape {
          dim {
            dim_value: 768
          }
        }
      }
    }
  }
  input {
    name: "roberta.encoder.layer.1.attention.self.value.bias"
    type {
      tensor_type {
        elem_type: 1
        shape {
          dim {
            dim_value: 768
          }
        }
      }
    }
  }
  input {
    name: "roberta.encoder.layer.1.intermediate.dense.bias"
    type {
      tensor_type {
        elem_type: 1
        shape {
          dim {
            dim_value: 3072
          }
        }
      }
    }
  }
  input {
    name: "roberta.encoder.layer.1.output.LayerNorm.bias"
    type {
      tensor_type {
        elem_type: 1
        shape {
          dim {
            dim_value: 768
          }
        }
      }
    }
  }
  input {
    name: "roberta.encoder.layer.1.output.LayerNorm.weight"
    type {
      tensor_type {
        elem_type: 1
        shape {
          dim {
            dim_value: 768
          }
        }
      }
    }
  }
  input {
    name: "roberta.encoder.layer.1.output.dense.bias"
    type {
      tensor_type {
        elem_type: 1
        shape {
          dim {
            dim_value: 768
          }
        }
      }
    }
  }
  input {
    name: "roberta.encoder.layer.10.attention.output.LayerNorm.bias"
    type {
      tensor_type {
        elem_type: 1
        shape {
          dim {
            dim_value: 768
          }
        }
      }
    }
  }
  input {
    name: "roberta.encoder.layer.10.attention.output.LayerNorm.weight"
    type {
      tensor_type {
        elem_type: 1
        shape {
          dim {
            dim_value: 768
          }
        }
      }
    }
  }
  input {
    name: "roberta.encoder.layer.10.attention.output.dense.bias"
    type {
      tensor_type {
        elem_type: 1
        shape {
          dim {
            dim_value: 768
          }
        }
      }
    }
  }
  input {
    name: "roberta.encoder.layer.10.attention.self.key.bias"
    type {
      tensor_type {
        elem_type: 1
        shape {
          dim {
            dim_value: 768
          }
        }
      }
    }
  }
  input {
    name: "roberta.encoder.layer.10.attention.self.query.bias"
    type {
      tensor_type {
        elem_type: 1
        shape {
          dim {
            dim_value: 768
          }
        }
      }
    }
  }
  input {
    name: "roberta.encoder.layer.10.attention.self.value.bias"
    type {
      tensor_type {
        elem_type: 1
        shape {
          dim {
            dim_value: 768
          }
        }
      }
    }
  }
  input {
    name: "roberta.encoder.layer.10.intermediate.dense.bias"
    type {
      tensor_type {
        elem_type: 1
        shape {
          dim {
            dim_value: 3072
          }
        }
      }
    }
  }
  input {
    name: "roberta.encoder.layer.10.output.LayerNorm.bias"
    type {
      tensor_type {
        elem_type: 1
        shape {
          dim {
            dim_value: 768
          }
        }
      }
    }
  }
  input {
    name: "roberta.encoder.layer.10.output.LayerNorm.weight"
    type {
      tensor_type {
        elem_type: 1
        shape {
          dim {
            dim_value: 768
          }
        }
      }
    }
  }
  input {
    name: "roberta.encoder.layer.10.output.dense.bias"
    type {
      tensor_type {
        elem_type: 1
        shape {
          dim {
            dim_value: 768
          }
        }
      }
    }
  }
  input {
    name: "roberta.encoder.layer.11.attention.output.LayerNorm.bias"
    type {
      tensor_type {
        elem_type: 1
        shape {
          dim {
            dim_value: 768
          }
        }
      }
    }
  }
  input {
    name: "roberta.encoder.layer.11.attention.output.LayerNorm.weight"
    type {
      tensor_type {
        elem_type: 1
        shape {
          dim {
            dim_value: 768
          }
        }
      }
    }
  }
  input {
    name: "roberta.encoder.layer.11.attention.output.dense.bias"
    type {
      tensor_type {
        elem_type: 1
        shape {
          dim {
            dim_value: 768
          }
        }
      }
    }
  }
  input {
    name: "roberta.encoder.layer.11.attention.self.key.bias"
    type {
      tensor_type {
        elem_type: 1
        shape {
          dim {
            dim_value: 768
          }
        }
      }
    }
  }
  input {
    name: "roberta.encoder.layer.11.attention.self.query.bias"
    type {
      tensor_type {
        elem_type: 1
        shape {
          dim {
            dim_value: 768
          }
        }
      }
    }
  }
  input {
    name: "roberta.encoder.layer.11.attention.self.value.bias"
    type {
      tensor_type {
        elem_type: 1
        shape {
          dim {
            dim_value: 768
          }
        }
      }
    }
  }
  input {
    name: "roberta.encoder.layer.11.intermediate.dense.bias"
    type {
      tensor_type {
        elem_type: 1
        shape {
          dim {
            dim_value: 3072
          }
        }
      }
    }
  }
  input {
    name: "roberta.encoder.layer.11.output.LayerNorm.bias"
    type {
      tensor_type {
        elem_type: 1
        shape {
          dim {
            dim_value: 768
          }
        }
      }
    }
  }
  input {
    name: "roberta.encoder.layer.11.output.LayerNorm.weight"
    type {
      tensor_type {
        elem_type: 1
        shape {
          dim {
            dim_value: 768
          }
        }
      }
    }
  }
  input {
    name: "roberta.encoder.layer.11.output.dense.bias"
    type {
      tensor_type {
        elem_type: 1
        shape {
          dim {
            dim_value: 768
          }
        }
      }
    }
  }
  input {
    name: "roberta.encoder.layer.2.attention.output.LayerNorm.bias"
    type {
      tensor_type {
        elem_type: 1
        shape {
          dim {
            dim_value: 768
          }
        }
      }
    }
  }
  input {
    name: "roberta.encoder.layer.2.attention.output.LayerNorm.weight"
    type {
      tensor_type {
        elem_type: 1
        shape {
          dim {
            dim_value: 768
          }
        }
      }
    }
  }
  input {
    name: "roberta.encoder.layer.2.attention.output.dense.bias"
    type {
      tensor_type {
        elem_type: 1
        shape {
          dim {
            dim_value: 768
          }
        }
      }
    }
  }
  input {
    name: "roberta.encoder.layer.2.attention.self.key.bias"
    type {
      tensor_type {
        elem_type: 1
        shape {
          dim {
            dim_value: 768
          }
        }
      }
    }
  }
  input {
    name: "roberta.encoder.layer.2.attention.self.query.bias"
    type {
      tensor_type {
        elem_type: 1
        shape {
          dim {
            dim_value: 768
          }
        }
      }
    }
  }
  input {
    name: "roberta.encoder.layer.2.attention.self.value.bias"
    type {
      tensor_type {
        elem_type: 1
        shape {
          dim {
            dim_value: 768
          }
        }
      }
    }
  }
  input {
    name: "roberta.encoder.layer.2.intermediate.dense.bias"
    type {
      tensor_type {
        elem_type: 1
        shape {
          dim {
            dim_value: 3072
          }
        }
      }
    }
  }
  input {
    name: "roberta.encoder.layer.2.output.LayerNorm.bias"
    type {
      tensor_type {
        elem_type: 1
        shape {
          dim {
            dim_value: 768
          }
        }
      }
    }
  }
  input {
    name: "roberta.encoder.layer.2.output.LayerNorm.weight"
    type {
      tensor_type {
        elem_type: 1
        shape {
          dim {
            dim_value: 768
          }
        }
      }
    }
  }
  input {
    name: "roberta.encoder.layer.2.output.dense.bias"
    type {
      tensor_type {
        elem_type: 1
        shape {
          dim {
            dim_value: 768
          }
        }
      }
    }
  }
  input {
    name: "roberta.encoder.layer.3.attention.output.LayerNorm.bias"
    type {
      tensor_type {
        elem_type: 1
        shape {
          dim {
            dim_value: 768
          }
        }
      }
    }
  }
  input {
    name: "roberta.encoder.layer.3.attention.output.LayerNorm.weight"
    type {
      tensor_type {
        elem_type: 1
        shape {
          dim {
            dim_value: 768
          }
        }
      }
    }
  }
  input {
    name: "roberta.encoder.layer.3.attention.output.dense.bias"
    type {
      tensor_type {
        elem_type: 1
        shape {
          dim {
            dim_value: 768
          }
        }
      }
    }
  }
  input {
    name: "roberta.encoder.layer.3.attention.self.key.bias"
    type {
      tensor_type {
        elem_type: 1
        shape {
          dim {
            dim_value: 768
          }
        }
      }
    }
  }
  input {
    name: "roberta.encoder.layer.3.attention.self.query.bias"
    type {
      tensor_type {
        elem_type: 1
        shape {
          dim {
            dim_value: 768
          }
        }
      }
    }
  }
  input {
    name: "roberta.encoder.layer.3.attention.self.value.bias"
    type {
      tensor_type {
        elem_type: 1
        shape {
          dim {
            dim_value: 768
          }
        }
      }
    }
  }
  input {
    name: "roberta.encoder.layer.3.intermediate.dense.bias"
    type {
      tensor_type {
        elem_type: 1
        shape {
          dim {
            dim_value: 3072
          }
        }
      }
    }
  }
  input {
    name: "roberta.encoder.layer.3.output.LayerNorm.bias"
    type {
      tensor_type {
        elem_type: 1
        shape {
          dim {
            dim_value: 768
          }
        }
      }
    }
  }
  input {
    name: "roberta.encoder.layer.3.output.LayerNorm.weight"
    type {
      tensor_type {
        elem_type: 1
        shape {
          dim {
            dim_value: 768
          }
        }
      }
    }
  }
  input {
    name: "roberta.encoder.layer.3.output.dense.bias"
    type {
      tensor_type {
        elem_type: 1
        shape {
          dim {
            dim_value: 768
          }
        }
      }
    }
  }
  input {
    name: "roberta.encoder.layer.4.attention.output.LayerNorm.bias"
    type {
      tensor_type {
        elem_type: 1
        shape {
          dim {
            dim_value: 768
          }
        }
      }
    }
  }
  input {
    name: "roberta.encoder.layer.4.attention.output.LayerNorm.weight"
    type {
      tensor_type {
        elem_type: 1
        shape {
          dim {
            dim_value: 768
          }
        }
      }
    }
  }
  input {
    name: "roberta.encoder.layer.4.attention.output.dense.bias"
    type {
      tensor_type {
        elem_type: 1
        shape {
          dim {
            dim_value: 768
          }
        }
      }
    }
  }
  input {
    name: "roberta.encoder.layer.4.attention.self.key.bias"
    type {
      tensor_type {
        elem_type: 1
        shape {
          dim {
            dim_value: 768
          }
        }
      }
    }
  }
  input {
    name: "roberta.encoder.layer.4.attention.self.query.bias"
    type {
      tensor_type {
        elem_type: 1
        shape {
          dim {
            dim_value: 768
          }
        }
      }
    }
  }
  input {
    name: "roberta.encoder.layer.4.attention.self.value.bias"
    type {
      tensor_type {
        elem_type: 1
        shape {
          dim {
            dim_value: 768
          }
        }
      }
    }
  }
  input {
    name: "roberta.encoder.layer.4.intermediate.dense.bias"
    type {
      tensor_type {
        elem_type: 1
        shape {
          dim {
            dim_value: 3072
          }
        }
      }
    }
  }
  input {
    name: "roberta.encoder.layer.4.output.LayerNorm.bias"
    type {
      tensor_type {
        elem_type: 1
        shape {
          dim {
            dim_value: 768
          }
        }
      }
    }
  }
  input {
    name: "roberta.encoder.layer.4.output.LayerNorm.weight"
    type {
      tensor_type {
        elem_type: 1
        shape {
          dim {
            dim_value: 768
          }
        }
      }
    }
  }
  input {
    name: "roberta.encoder.layer.4.output.dense.bias"
    type {
      tensor_type {
        elem_type: 1
        shape {
          dim {
            dim_value: 768
          }
        }
      }
    }
  }
  input {
    name: "roberta.encoder.layer.5.attention.output.LayerNorm.bias"
    type {
      tensor_type {
        elem_type: 1
        shape {
          dim {
            dim_value: 768
          }
        }
      }
    }
  }
  input {
    name: "roberta.encoder.layer.5.attention.output.LayerNorm.weight"
    type {
      tensor_type {
        elem_type: 1
        shape {
          dim {
            dim_value: 768
          }
        }
      }
    }
  }
  input {
    name: "roberta.encoder.layer.5.attention.output.dense.bias"
    type {
      tensor_type {
        elem_type: 1
        shape {
          dim {
            dim_value: 768
          }
        }
      }
    }
  }
  input {
    name: "roberta.encoder.layer.5.attention.self.key.bias"
    type {
      tensor_type {
        elem_type: 1
        shape {
          dim {
            dim_value: 768
          }
        }
      }
    }
  }
  input {
    name: "roberta.encoder.layer.5.attention.self.query.bias"
    type {
      tensor_type {
        elem_type: 1
        shape {
          dim {
            dim_value: 768
          }
        }
      }
    }
  }
  input {
    name: "roberta.encoder.layer.5.attention.self.value.bias"
    type {
      tensor_type {
        elem_type: 1
        shape {
          dim {
            dim_value: 768
          }
        }
      }
    }
  }
  input {
    name: "roberta.encoder.layer.5.intermediate.dense.bias"
    type {
      tensor_type {
        elem_type: 1
        shape {
          dim {
            dim_value: 3072
          }
        }
      }
    }
  }
  input {
    name: "roberta.encoder.layer.5.output.LayerNorm.bias"
    type {
      tensor_type {
        elem_type: 1
        shape {
          dim {
            dim_value: 768
          }
        }
      }
    }
  }
  input {
    name: "roberta.encoder.layer.5.output.LayerNorm.weight"
    type {
      tensor_type {
        elem_type: 1
        shape {
          dim {
            dim_value: 768
          }
        }
      }
    }
  }
  input {
    name: "roberta.encoder.layer.5.output.dense.bias"
    type {
      tensor_type {
        elem_type: 1
        shape {
          dim {
            dim_value: 768
          }
        }
      }
    }
  }
  input {
    name: "roberta.encoder.layer.6.attention.output.LayerNorm.bias"
    type {
      tensor_type {
        elem_type: 1
        shape {
          dim {
            dim_value: 768
          }
        }
      }
    }
  }
  input {
    name: "roberta.encoder.layer.6.attention.output.LayerNorm.weight"
    type {
      tensor_type {
        elem_type: 1
        shape {
          dim {
            dim_value: 768
          }
        }
      }
    }
  }
  input {
    name: "roberta.encoder.layer.6.attention.output.dense.bias"
    type {
      tensor_type {
        elem_type: 1
        shape {
          dim {
            dim_value: 768
          }
        }
      }
    }
  }
  input {
    name: "roberta.encoder.layer.6.attention.self.key.bias"
    type {
      tensor_type {
        elem_type: 1
        shape {
          dim {
            dim_value: 768
          }
        }
      }
    }
  }
  input {
    name: "roberta.encoder.layer.6.attention.self.query.bias"
    type {
      tensor_type {
        elem_type: 1
        shape {
          dim {
            dim_value: 768
          }
        }
      }
    }
  }
  input {
    name: "roberta.encoder.layer.6.attention.self.value.bias"
    type {
      tensor_type {
        elem_type: 1
        shape {
          dim {
            dim_value: 768
          }
        }
      }
    }
  }
  input {
    name: "roberta.encoder.layer.6.intermediate.dense.bias"
    type {
      tensor_type {
        elem_type: 1
        shape {
          dim {
            dim_value: 3072
          }
        }
      }
    }
  }
  input {
    name: "roberta.encoder.layer.6.output.LayerNorm.bias"
    type {
      tensor_type {
        elem_type: 1
        shape {
          dim {
            dim_value: 768
          }
        }
      }
    }
  }
  input {
    name: "roberta.encoder.layer.6.output.LayerNorm.weight"
    type {
      tensor_type {
        elem_type: 1
        shape {
          dim {
            dim_value: 768
          }
        }
      }
    }
  }
  input {
    name: "roberta.encoder.layer.6.output.dense.bias"
    type {
      tensor_type {
        elem_type: 1
        shape {
          dim {
            dim_value: 768
          }
        }
      }
    }
  }
  input {
    name: "roberta.encoder.layer.7.attention.output.LayerNorm.bias"
    type {
      tensor_type {
        elem_type: 1
        shape {
          dim {
            dim_value: 768
          }
        }
      }
    }
  }
  input {
    name: "roberta.encoder.layer.7.attention.output.LayerNorm.weight"
    type {
      tensor_type {
        elem_type: 1
        shape {
          dim {
            dim_value: 768
          }
        }
      }
    }
  }
  input {
    name: "roberta.encoder.layer.7.attention.output.dense.bias"
    type {
      tensor_type {
        elem_type: 1
        shape {
          dim {
            dim_value: 768
          }
        }
      }
    }
  }
  input {
    name: "roberta.encoder.layer.7.attention.self.key.bias"
    type {
      tensor_type {
        elem_type: 1
        shape {
          dim {
            dim_value: 768
          }
        }
      }
    }
  }
  input {
    name: "roberta.encoder.layer.7.attention.self.query.bias"
    type {
      tensor_type {
        elem_type: 1
        shape {
          dim {
            dim_value: 768
          }
        }
      }
    }
  }
  input {
    name: "roberta.encoder.layer.7.attention.self.value.bias"
    type {
      tensor_type {
        elem_type: 1
        shape {
          dim {
            dim_value: 768
          }
        }
      }
    }
  }
  input {
    name: "roberta.encoder.layer.7.intermediate.dense.bias"
    type {
      tensor_type {
        elem_type: 1
        shape {
          dim {
            dim_value: 3072
          }
        }
      }
    }
  }
  input {
    name: "roberta.encoder.layer.7.output.LayerNorm.bias"
    type {
      tensor_type {
        elem_type: 1
        shape {
          dim {
            dim_value: 768
          }
        }
      }
    }
  }
  input {
    name: "roberta.encoder.layer.7.output.LayerNorm.weight"
    type {
      tensor_type {
        elem_type: 1
        shape {
          dim {
            dim_value: 768
          }
        }
      }
    }
  }
  input {
    name: "roberta.encoder.layer.7.output.dense.bias"
    type {
      tensor_type {
        elem_type: 1
        shape {
          dim {
            dim_value: 768
          }
        }
      }
    }
  }
  input {
    name: "roberta.encoder.layer.8.attention.output.LayerNorm.bias"
    type {
      tensor_type {
        elem_type: 1
        shape {
          dim {
            dim_value: 768
          }
        }
      }
    }
  }
  input {
    name: "roberta.encoder.layer.8.attention.output.LayerNorm.weight"
    type {
      tensor_type {
        elem_type: 1
        shape {
          dim {
            dim_value: 768
          }
        }
      }
    }
  }
  input {
    name: "roberta.encoder.layer.8.attention.output.dense.bias"
    type {
      tensor_type {
        elem_type: 1
        shape {
          dim {
            dim_value: 768
          }
        }
      }
    }
  }
  input {
    name: "roberta.encoder.layer.8.attention.self.key.bias"
    type {
      tensor_type {
        elem_type: 1
        shape {
          dim {
            dim_value: 768
          }
        }
      }
    }
  }
  input {
    name: "roberta.encoder.layer.8.attention.self.query.bias"
    type {
      tensor_type {
        elem_type: 1
        shape {
          dim {
            dim_value: 768
          }
        }
      }
    }
  }
  input {
    name: "roberta.encoder.layer.8.attention.self.value.bias"
    type {
      tensor_type {
        elem_type: 1
        shape {
          dim {
            dim_value: 768
          }
        }
      }
    }
  }
  input {
    name: "roberta.encoder.layer.8.intermediate.dense.bias"
    type {
      tensor_type {
        elem_type: 1
        shape {
          dim {
            dim_value: 3072
          }
        }
      }
    }
  }
  input {
    name: "roberta.encoder.layer.8.output.LayerNorm.bias"
    type {
      tensor_type {
        elem_type: 1
        shape {
          dim {
            dim_value: 768
          }
        }
      }
    }
  }
  input {
    name: "roberta.encoder.layer.8.output.LayerNorm.weight"
    type {
      tensor_type {
        elem_type: 1
        shape {
          dim {
            dim_value: 768
          }
        }
      }
    }
  }
  input {
    name: "roberta.encoder.layer.8.output.dense.bias"
    type {
      tensor_type {
        elem_type: 1
        shape {
          dim {
            dim_value: 768
          }
        }
      }
    }
  }
  input {
    name: "roberta.encoder.layer.9.attention.output.LayerNorm.bias"
    type {
      tensor_type {
        elem_type: 1
        shape {
          dim {
            dim_value: 768
          }
        }
      }
    }
  }
  input {
    name: "roberta.encoder.layer.9.attention.output.LayerNorm.weight"
    type {
      tensor_type {
        elem_type: 1
        shape {
          dim {
            dim_value: 768
          }
        }
      }
    }
  }
  input {
    name: "roberta.encoder.layer.9.attention.output.dense.bias"
    type {
      tensor_type {
        elem_type: 1
        shape {
          dim {
            dim_value: 768
          }
        }
      }
    }
  }
  input {
    name: "roberta.encoder.layer.9.attention.self.key.bias"
    type {
      tensor_type {
        elem_type: 1
        shape {
          dim {
            dim_value: 768
          }
        }
      }
    }
  }
  input {
    name: "roberta.encoder.layer.9.attention.self.query.bias"
    type {
      tensor_type {
        elem_type: 1
        shape {
          dim {
            dim_value: 768
          }
        }
      }
    }
  }
  input {
    name: "roberta.encoder.layer.9.attention.self.value.bias"
    type {
      tensor_type {
        elem_type: 1
        shape {
          dim {
            dim_value: 768
          }
        }
      }
    }
  }
  input {
    name: "roberta.encoder.layer.9.intermediate.dense.bias"
    type {
      tensor_type {
        elem_type: 1
        shape {
          dim {
            dim_value: 3072
          }
        }
      }
    }
  }
  input {
    name: "roberta.encoder.layer.9.output.LayerNorm.bias"
    type {
      tensor_type {
        elem_type: 1
        shape {
          dim {
            dim_value: 768
          }
        }
      }
    }
  }
  input {
    name: "roberta.encoder.layer.9.output.LayerNorm.weight"
    type {
      tensor_type {
        elem_type: 1
        shape {
          dim {
            dim_value: 768
          }
        }
      }
    }
  }
  input {
    name: "roberta.encoder.layer.9.output.dense.bias"
    type {
      tensor_type {
        elem_type: 1
        shape {
          dim {
            dim_value: 768
          }
        }
      }
    }
  }
  output {
    name: "output"
    type {
      tensor_type {
        elem_type: 1
        shape {
          dim {
            dim_param: "batch_size"
          }
          dim {
            dim_value: 2
          }
        }
      }
    }
  }
  value_info {
    name: "1628"
    type {
      tensor_type {
        elem_type: 7
        shape {
          dim {
            dim_value: 1
          }
        }
      }
    }
  }
  value_info {
    name: "1629"
    type {
      tensor_type {
        elem_type: 7
        shape {
          dim {
            dim_value: 1
          }
        }
      }
    }
  }
  value_info {
    name: "1633"
    type {
      tensor_type {
        elem_type: 7
        shape {
          dim {
            dim_value: 1
          }
        }
      }
    }
  }
  value_info {
    name: "1634"
    type {
      tensor_type {
        elem_type: 7
        shape {
          dim {
            dim_value: 1
          }
        }
      }
    }
  }
  value_info {
    name: "1635"
    type {
      tensor_type {
        elem_type: 7
        shape {
          dim {
            dim_value: 1
          }
        }
      }
    }
  }
  value_info {
    name: "1636"
    type {
      tensor_type {
        elem_type: 7
        shape {
          dim {
            dim_value: 1
          }
        }
      }
    }
  }
  value_info {
    name: "1637"
    type {
      tensor_type {
        elem_type: 7
        shape {
          dim {
            dim_value: 1
          }
        }
      }
    }
  }
  value_info {
    name: "1638"
    type {
      tensor_type {
        elem_type: 7
        shape {
          dim {
            dim_value: 1
          }
        }
      }
    }
  }
  value_info {
    name: "1639"
    type {
      tensor_type {
        elem_type: 7
        shape {
          dim {
            dim_value: 1
          }
        }
      }
    }
  }
  value_info {
    name: "1646"
    type {
      tensor_type {
        elem_type: 7
        shape {
          dim {
            dim_value: 1
          }
        }
      }
    }
  }
  value_info {
    name: "1647"
    type {
      tensor_type {
        elem_type: 7
        shape {
          dim {
            dim_value: 1
          }
        }
      }
    }
  }
  value_info {
    name: "1648"
    type {
      tensor_type {
        elem_type: 7
        shape {
          dim {
            dim_value: 1
          }
        }
      }
    }
  }
  value_info {
    name: "1649"
    type {
      tensor_type {
        elem_type: 7
        shape {
          dim {
            dim_value: 1
          }
        }
      }
    }
  }
  value_info {
    name: "1650"
    type {
      tensor_type {
        elem_type: 7
        shape {
          dim {
            dim_value: 1
          }
        }
      }
    }
  }
  value_info {
    name: "1651"
    type {
      tensor_type {
        elem_type: 7
        shape {
          dim {
            dim_value: 1
          }
        }
      }
    }
  }
  value_info {
    name: "1652"
    type {
      tensor_type {
        elem_type: 7
        shape {
          dim {
            dim_value: 1
          }
        }
      }
    }
  }
  value_info {
    name: "1659"
    type {
      tensor_type {
        elem_type: 7
        shape {
          dim {
            dim_value: 1
          }
        }
      }
    }
  }
  value_info {
    name: "1660"
    type {
      tensor_type {
        elem_type: 7
        shape {
          dim {
            dim_value: 1
          }
        }
      }
    }
  }
  value_info {
    name: "1661"
    type {
      tensor_type {
        elem_type: 7
        shape {
          dim {
            dim_value: 1
          }
        }
      }
    }
  }
  value_info {
    name: "1662"
    type {
      tensor_type {
        elem_type: 7
        shape {
          dim {
            dim_value: 1
          }
        }
      }
    }
  }
  value_info {
    name: "1663"
    type {
      tensor_type {
        elem_type: 7
        shape {
          dim {
            dim_value: 1
          }
        }
      }
    }
  }
  value_info {
    name: "1664"
    type {
      tensor_type {
        elem_type: 7
        shape {
          dim {
            dim_value: 1
          }
        }
      }
    }
  }
  value_info {
    name: "1665"
    type {
      tensor_type {
        elem_type: 7
        shape {
          dim {
            dim_value: 1
          }
        }
      }
    }
  }
  value_info {
    name: "1672"
    type {
      tensor_type {
        elem_type: 7
        shape {
          dim {
            dim_value: 1
          }
        }
      }
    }
  }
  value_info {
    name: "1673"
    type {
      tensor_type {
        elem_type: 7
        shape {
          dim {
            dim_value: 1
          }
        }
      }
    }
  }
  value_info {
    name: "1674"
    type {
      tensor_type {
        elem_type: 7
        shape {
          dim {
            dim_value: 1
          }
        }
      }
    }
  }
  value_info {
    name: "1675"
    type {
      tensor_type {
        elem_type: 7
        shape {
          dim {
            dim_value: 1
          }
        }
      }
    }
  }
  value_info {
    name: "1676"
    type {
      tensor_type {
        elem_type: 7
        shape {
          dim {
            dim_value: 1
          }
        }
      }
    }
  }
  value_info {
    name: "1677"
    type {
      tensor_type {
        elem_type: 7
        shape {
          dim {
            dim_value: 1
          }
        }
      }
    }
  }
  value_info {
    name: "1678"
    type {
      tensor_type {
        elem_type: 7
        shape {
          dim {
            dim_value: 1
          }
        }
      }
    }
  }
  value_info {
    name: "1685"
    type {
      tensor_type {
        elem_type: 7
        shape {
          dim {
            dim_value: 1
          }
        }
      }
    }
  }
  value_info {
    name: "1686"
    type {
      tensor_type {
        elem_type: 7
        shape {
          dim {
            dim_value: 1
          }
        }
      }
    }
  }
  value_info {
    name: "1687"
    type {
      tensor_type {
        elem_type: 7
        shape {
          dim {
            dim_value: 1
          }
        }
      }
    }
  }
  value_info {
    name: "1688"
    type {
      tensor_type {
        elem_type: 7
        shape {
          dim {
            dim_value: 1
          }
        }
      }
    }
  }
  value_info {
    name: "1689"
    type {
      tensor_type {
        elem_type: 7
        shape {
          dim {
            dim_value: 1
          }
        }
      }
    }
  }
  value_info {
    name: "1690"
    type {
      tensor_type {
        elem_type: 7
        shape {
          dim {
            dim_value: 1
          }
        }
      }
    }
  }
  value_info {
    name: "1691"
    type {
      tensor_type {
        elem_type: 7
        shape {
          dim {
            dim_value: 1
          }
        }
      }
    }
  }
  value_info {
    name: "1698"
    type {
      tensor_type {
        elem_type: 7
        shape {
          dim {
            dim_value: 1
          }
        }
      }
    }
  }
  value_info {
    name: "1699"
    type {
      tensor_type {
        elem_type: 7
        shape {
          dim {
            dim_value: 1
          }
        }
      }
    }
  }
  value_info {
    name: "1700"
    type {
      tensor_type {
        elem_type: 7
        shape {
          dim {
            dim_value: 1
          }
        }
      }
    }
  }
  value_info {
    name: "1701"
    type {
      tensor_type {
        elem_type: 7
        shape {
          dim {
            dim_value: 1
          }
        }
      }
    }
  }
  value_info {
    name: "1702"
    type {
      tensor_type {
        elem_type: 7
        shape {
          dim {
            dim_value: 1
          }
        }
      }
    }
  }
  value_info {
    name: "1703"
    type {
      tensor_type {
        elem_type: 7
        shape {
          dim {
            dim_value: 1
          }
        }
      }
    }
  }
  value_info {
    name: "1704"
    type {
      tensor_type {
        elem_type: 7
        shape {
          dim {
            dim_value: 1
          }
        }
      }
    }
  }
  value_info {
    name: "1711"
    type {
      tensor_type {
        elem_type: 7
        shape {
          dim {
            dim_value: 1
          }
        }
      }
    }
  }
  value_info {
    name: "1712"
    type {
      tensor_type {
        elem_type: 7
        shape {
          dim {
            dim_value: 1
          }
        }
      }
    }
  }
  value_info {
    name: "1713"
    type {
      tensor_type {
        elem_type: 7
        shape {
          dim {
            dim_value: 1
          }
        }
      }
    }
  }
  value_info {
    name: "1714"
    type {
      tensor_type {
        elem_type: 7
        shape {
          dim {
            dim_value: 1
          }
        }
      }
    }
  }
  value_info {
    name: "1715"
    type {
      tensor_type {
        elem_type: 7
        shape {
          dim {
            dim_value: 1
          }
        }
      }
    }
  }
  value_info {
    name: "1716"
    type {
      tensor_type {
        elem_type: 7
        shape {
          dim {
            dim_value: 1
          }
        }
      }
    }
  }
  value_info {
    name: "1717"
    type {
      tensor_type {
        elem_type: 7
        shape {
          dim {
            dim_value: 1
          }
        }
      }
    }
  }
  value_info {
    name: "1724"
    type {
      tensor_type {
        elem_type: 7
        shape {
          dim {
            dim_value: 1
          }
        }
      }
    }
  }
  value_info {
    name: "1725"
    type {
      tensor_type {
        elem_type: 7
        shape {
          dim {
            dim_value: 1
          }
        }
      }
    }
  }
  value_info {
    name: "1726"
    type {
      tensor_type {
        elem_type: 7
        shape {
          dim {
            dim_value: 1
          }
        }
      }
    }
  }
  value_info {
    name: "1727"
    type {
      tensor_type {
        elem_type: 7
        shape {
          dim {
            dim_value: 1
          }
        }
      }
    }
  }
  value_info {
    name: "1728"
    type {
      tensor_type {
        elem_type: 7
        shape {
          dim {
            dim_value: 1
          }
        }
      }
    }
  }
  value_info {
    name: "1729"
    type {
      tensor_type {
        elem_type: 7
        shape {
          dim {
            dim_value: 1
          }
        }
      }
    }
  }
  value_info {
    name: "1730"
    type {
      tensor_type {
        elem_type: 7
        shape {
          dim {
            dim_value: 1
          }
        }
      }
    }
  }
  value_info {
    name: "1737"
    type {
      tensor_type {
        elem_type: 7
        shape {
          dim {
            dim_value: 1
          }
        }
      }
    }
  }
  value_info {
    name: "1738"
    type {
      tensor_type {
        elem_type: 7
        shape {
          dim {
            dim_value: 1
          }
        }
      }
    }
  }
  value_info {
    name: "1739"
    type {
      tensor_type {
        elem_type: 7
        shape {
          dim {
            dim_value: 1
          }
        }
      }
    }
  }
  value_info {
    name: "1740"
    type {
      tensor_type {
        elem_type: 7
        shape {
          dim {
            dim_value: 1
          }
        }
      }
    }
  }
  value_info {
    name: "1741"
    type {
      tensor_type {
        elem_type: 7
        shape {
          dim {
            dim_value: 1
          }
        }
      }
    }
  }
  value_info {
    name: "1742"
    type {
      tensor_type {
        elem_type: 7
        shape {
          dim {
            dim_value: 1
          }
        }
      }
    }
  }
  value_info {
    name: "1743"
    type {
      tensor_type {
        elem_type: 7
        shape {
          dim {
            dim_value: 1
          }
        }
      }
    }
  }
  value_info {
    name: "1750"
    type {
      tensor_type {
        elem_type: 7
        shape {
          dim {
            dim_value: 1
          }
        }
      }
    }
  }
  value_info {
    name: "1751"
    type {
      tensor_type {
        elem_type: 7
        shape {
          dim {
            dim_value: 1
          }
        }
      }
    }
  }
  value_info {
    name: "1752"
    type {
      tensor_type {
        elem_type: 7
        shape {
          dim {
            dim_value: 1
          }
        }
      }
    }
  }
  value_info {
    name: "1753"
    type {
      tensor_type {
        elem_type: 7
        shape {
          dim {
            dim_value: 1
          }
        }
      }
    }
  }
  value_info {
    name: "1754"
    type {
      tensor_type {
        elem_type: 7
        shape {
          dim {
            dim_value: 1
          }
        }
      }
    }
  }
  value_info {
    name: "1755"
    type {
      tensor_type {
        elem_type: 7
        shape {
          dim {
            dim_value: 1
          }
        }
      }
    }
  }
  value_info {
    name: "1756"
    type {
      tensor_type {
        elem_type: 7
        shape {
          dim {
            dim_value: 1
          }
        }
      }
    }
  }
  value_info {
    name: "1763"
    type {
      tensor_type {
        elem_type: 7
        shape {
          dim {
            dim_value: 1
          }
        }
      }
    }
  }
  value_info {
    name: "1764"
    type {
      tensor_type {
        elem_type: 7
        shape {
          dim {
            dim_value: 1
          }
        }
      }
    }
  }
  value_info {
    name: "1765"
    type {
      tensor_type {
        elem_type: 7
        shape {
          dim {
            dim_value: 1
          }
        }
      }
    }
  }
  value_info {
    name: "1766"
    type {
      tensor_type {
        elem_type: 7
        shape {
          dim {
            dim_value: 1
          }
        }
      }
    }
  }
  value_info {
    name: "1767"
    type {
      tensor_type {
        elem_type: 7
        shape {
          dim {
            dim_value: 1
          }
        }
      }
    }
  }
  value_info {
    name: "1768"
    type {
      tensor_type {
        elem_type: 7
        shape {
          dim {
            dim_value: 1
          }
        }
      }
    }
  }
  value_info {
    name: "1769"
    type {
      tensor_type {
        elem_type: 7
        shape {
          dim {
            dim_value: 1
          }
        }
      }
    }
  }
  value_info {
    name: "1776"
    type {
      tensor_type {
        elem_type: 7
        shape {
          dim {
            dim_value: 1
          }
        }
      }
    }
  }
  value_info {
    name: "1777"
    type {
      tensor_type {
        elem_type: 7
        shape {
          dim {
            dim_value: 1
          }
        }
      }
    }
  }
  value_info {
    name: "1778"
    type {
      tensor_type {
        elem_type: 7
        shape {
          dim {
            dim_value: 1
          }
        }
      }
    }
  }
  value_info {
    name: "1779"
    type {
      tensor_type {
        elem_type: 7
        shape {
          dim {
            dim_value: 1
          }
        }
      }
    }
  }
  value_info {
    name: "1780"
    type {
      tensor_type {
        elem_type: 7
        shape {
          dim {
            dim_value: 1
          }
        }
      }
    }
  }
  value_info {
    name: "1781"
    type {
      tensor_type {
        elem_type: 7
        shape {
          dim {
            dim_value: 1
          }
        }
      }
    }
  }
  value_info {
    name: "1782"
    type {
      tensor_type {
        elem_type: 7
        shape {
          dim {
            dim_value: 1
          }
        }
      }
    }
  }
  value_info {
    name: "classifier.out_proj.bias"
    type {
      tensor_type {
        elem_type: 1
        shape {
          dim {
            dim_value: 2
          }
        }
      }
    }
  }
}
opset_import {
  domain: ""
  version: 9
}
