ir_version: 7
producer_name: "onnx.quantize"
producer_version: "0.1.0"
graph {
  node {
    input: "input"
    input: "input_scale"
    input: "input_zero_point"
    output: "input_quantized"
    name: "input_Conv_0_QuantizeLinear"
    op_type: "QuantizeLinear"
  }
  node {
    input: "ConvBnFusion_W_conv1.0.weight_quantized"
    input: "ConvBnFusion_W_conv1.0.weight_scale"
    input: "ConvBnFusion_W_conv1.0.weight_zero_point"
    output: "ConvBnFusion_W_conv1.0.weight_dequantized"
    name: "ConvBnFusion_W_conv1.0.weight_DequantizeLinear"
    op_type: "DequantizeLinear"
  }
  node {
    input: "ConvBnFusion_BN_B_conv1.1.bias_quantized"
    input: "ConvBnFusion_BN_B_conv1.1.bias_scale"
    input: "ConvBnFusion_BN_B_conv1.1.bias_zero_point"
    output: "ConvBnFusion_BN_B_conv1.1.bias_dequantized"
    name: "ConvBnFusion_BN_B_conv1.1.bias_DequantizeLinear"
    op_type: "DequantizeLinear"
  }
  node {
    input: "ConvBnFusion_W_stage2.0.branch2.0.weight_quantized"
    input: "ConvBnFusion_W_stage2.0.branch2.0.weight_scale"
    input: "ConvBnFusion_W_stage2.0.branch2.0.weight_zero_point"
    output: "ConvBnFusion_W_stage2.0.branch2.0.weight_dequantized"
    name: "ConvBnFusion_W_stage2.0.branch2.0.weight_DequantizeLinear"
    op_type: "DequantizeLinear"
  }
  node {
    input: "ConvBnFusion_BN_B_stage2.0.branch2.1.bias_quantized"
    input: "ConvBnFusion_BN_B_stage2.0.branch2.1.bias_scale"
    input: "ConvBnFusion_BN_B_stage2.0.branch2.1.bias_zero_point"
    output: "ConvBnFusion_BN_B_stage2.0.branch2.1.bias_dequantized"
    name: "ConvBnFusion_BN_B_stage2.0.branch2.1.bias_DequantizeLinear"
    op_type: "DequantizeLinear"
  }
  node {
    input: "ConvBnFusion_W_stage2.0.branch1.0.weight_quantized"
    input: "ConvBnFusion_W_stage2.0.branch1.0.weight_scale"
    input: "ConvBnFusion_W_stage2.0.branch1.0.weight_zero_point"
    output: "ConvBnFusion_W_stage2.0.branch1.0.weight_dequantized"
    name: "ConvBnFusion_W_stage2.0.branch1.0.weight_DequantizeLinear"
    op_type: "DequantizeLinear"
  }
  node {
    input: "ConvBnFusion_BN_B_stage2.0.branch1.1.bias_quantized"
    input: "ConvBnFusion_BN_B_stage2.0.branch1.1.bias_scale"
    input: "ConvBnFusion_BN_B_stage2.0.branch1.1.bias_zero_point"
    output: "ConvBnFusion_BN_B_stage2.0.branch1.1.bias_dequantized"
    name: "ConvBnFusion_BN_B_stage2.0.branch1.1.bias_DequantizeLinear"
    op_type: "DequantizeLinear"
  }
  node {
    input: "ConvBnFusion_W_stage2.0.branch1.2.weight_quantized"
    input: "ConvBnFusion_W_stage2.0.branch1.2.weight_scale"
    input: "ConvBnFusion_W_stage2.0.branch1.2.weight_zero_point"
    output: "ConvBnFusion_W_stage2.0.branch1.2.weight_dequantized"
    name: "ConvBnFusion_W_stage2.0.branch1.2.weight_DequantizeLinear"
    op_type: "DequantizeLinear"
  }
  node {
    input: "ConvBnFusion_BN_B_stage2.0.branch1.3.bias_quantized"
    input: "ConvBnFusion_BN_B_stage2.0.branch1.3.bias_scale"
    input: "ConvBnFusion_BN_B_stage2.0.branch1.3.bias_zero_point"
    output: "ConvBnFusion_BN_B_stage2.0.branch1.3.bias_dequantized"
    name: "ConvBnFusion_BN_B_stage2.0.branch1.3.bias_DequantizeLinear"
    op_type: "DequantizeLinear"
  }
  node {
    input: "ConvBnFusion_W_stage2.0.branch2.3.weight_quantized"
    input: "ConvBnFusion_W_stage2.0.branch2.3.weight_scale"
    input: "ConvBnFusion_W_stage2.0.branch2.3.weight_zero_point"
    output: "ConvBnFusion_W_stage2.0.branch2.3.weight_dequantized"
    name: "ConvBnFusion_W_stage2.0.branch2.3.weight_DequantizeLinear"
    op_type: "DequantizeLinear"
  }
  node {
    input: "ConvBnFusion_BN_B_stage2.0.branch2.4.bias_quantized"
    input: "ConvBnFusion_BN_B_stage2.0.branch2.4.bias_scale"
    input: "ConvBnFusion_BN_B_stage2.0.branch2.4.bias_zero_point"
    output: "ConvBnFusion_BN_B_stage2.0.branch2.4.bias_dequantized"
    name: "ConvBnFusion_BN_B_stage2.0.branch2.4.bias_DequantizeLinear"
    op_type: "DequantizeLinear"
  }
  node {
    input: "ConvBnFusion_W_stage2.0.branch2.5.weight_quantized"
    input: "ConvBnFusion_W_stage2.0.branch2.5.weight_scale"
    input: "ConvBnFusion_W_stage2.0.branch2.5.weight_zero_point"
    output: "ConvBnFusion_W_stage2.0.branch2.5.weight_dequantized"
    name: "ConvBnFusion_W_stage2.0.branch2.5.weight_DequantizeLinear"
    op_type: "DequantizeLinear"
  }
  node {
    input: "ConvBnFusion_BN_B_stage2.0.branch2.6.bias_quantized"
    input: "ConvBnFusion_BN_B_stage2.0.branch2.6.bias_scale"
    input: "ConvBnFusion_BN_B_stage2.0.branch2.6.bias_zero_point"
    output: "ConvBnFusion_BN_B_stage2.0.branch2.6.bias_dequantized"
    name: "ConvBnFusion_BN_B_stage2.0.branch2.6.bias_DequantizeLinear"
    op_type: "DequantizeLinear"
  }
  node {
    input: "ConvBnFusion_W_stage2.1.branch2.0.weight_quantized"
    input: "ConvBnFusion_W_stage2.1.branch2.0.weight_scale"
    input: "ConvBnFusion_W_stage2.1.branch2.0.weight_zero_point"
    output: "ConvBnFusion_W_stage2.1.branch2.0.weight_dequantized"
    name: "ConvBnFusion_W_stage2.1.branch2.0.weight_DequantizeLinear"
    op_type: "DequantizeLinear"
  }
  node {
    input: "ConvBnFusion_BN_B_stage2.1.branch2.1.bias_quantized"
    input: "ConvBnFusion_BN_B_stage2.1.branch2.1.bias_scale"
    input: "ConvBnFusion_BN_B_stage2.1.branch2.1.bias_zero_point"
    output: "ConvBnFusion_BN_B_stage2.1.branch2.1.bias_dequantized"
    name: "ConvBnFusion_BN_B_stage2.1.branch2.1.bias_DequantizeLinear"
    op_type: "DequantizeLinear"
  }
  node {
    input: "ConvBnFusion_W_stage2.1.branch2.3.weight_quantized"
    input: "ConvBnFusion_W_stage2.1.branch2.3.weight_scale"
    input: "ConvBnFusion_W_stage2.1.branch2.3.weight_zero_point"
    output: "ConvBnFusion_W_stage2.1.branch2.3.weight_dequantized"
    name: "ConvBnFusion_W_stage2.1.branch2.3.weight_DequantizeLinear"
    op_type: "DequantizeLinear"
  }
  node {
    input: "ConvBnFusion_BN_B_stage2.1.branch2.4.bias_quantized"
    input: "ConvBnFusion_BN_B_stage2.1.branch2.4.bias_scale"
    input: "ConvBnFusion_BN_B_stage2.1.branch2.4.bias_zero_point"
    output: "ConvBnFusion_BN_B_stage2.1.branch2.4.bias_dequantized"
    name: "ConvBnFusion_BN_B_stage2.1.branch2.4.bias_DequantizeLinear"
    op_type: "DequantizeLinear"
  }
  node {
    input: "ConvBnFusion_W_stage2.1.branch2.5.weight_quantized"
    input: "ConvBnFusion_W_stage2.1.branch2.5.weight_scale"
    input: "ConvBnFusion_W_stage2.1.branch2.5.weight_zero_point"
    output: "ConvBnFusion_W_stage2.1.branch2.5.weight_dequantized"
    name: "ConvBnFusion_W_stage2.1.branch2.5.weight_DequantizeLinear"
    op_type: "DequantizeLinear"
  }
  node {
    input: "ConvBnFusion_BN_B_stage2.1.branch2.6.bias_quantized"
    input: "ConvBnFusion_BN_B_stage2.1.branch2.6.bias_scale"
    input: "ConvBnFusion_BN_B_stage2.1.branch2.6.bias_zero_point"
    output: "ConvBnFusion_BN_B_stage2.1.branch2.6.bias_dequantized"
    name: "ConvBnFusion_BN_B_stage2.1.branch2.6.bias_DequantizeLinear"
    op_type: "DequantizeLinear"
  }
  node {
    input: "ConvBnFusion_W_stage2.2.branch2.0.weight_quantized"
    input: "ConvBnFusion_W_stage2.2.branch2.0.weight_scale"
    input: "ConvBnFusion_W_stage2.2.branch2.0.weight_zero_point"
    output: "ConvBnFusion_W_stage2.2.branch2.0.weight_dequantized"
    name: "ConvBnFusion_W_stage2.2.branch2.0.weight_DequantizeLinear"
    op_type: "DequantizeLinear"
  }
  node {
    input: "ConvBnFusion_BN_B_stage2.2.branch2.1.bias_quantized"
    input: "ConvBnFusion_BN_B_stage2.2.branch2.1.bias_scale"
    input: "ConvBnFusion_BN_B_stage2.2.branch2.1.bias_zero_point"
    output: "ConvBnFusion_BN_B_stage2.2.branch2.1.bias_dequantized"
    name: "ConvBnFusion_BN_B_stage2.2.branch2.1.bias_DequantizeLinear"
    op_type: "DequantizeLinear"
  }
  node {
    input: "ConvBnFusion_W_stage2.2.branch2.3.weight_quantized"
    input: "ConvBnFusion_W_stage2.2.branch2.3.weight_scale"
    input: "ConvBnFusion_W_stage2.2.branch2.3.weight_zero_point"
    output: "ConvBnFusion_W_stage2.2.branch2.3.weight_dequantized"
    name: "ConvBnFusion_W_stage2.2.branch2.3.weight_DequantizeLinear"
    op_type: "DequantizeLinear"
  }
  node {
    input: "ConvBnFusion_BN_B_stage2.2.branch2.4.bias_quantized"
    input: "ConvBnFusion_BN_B_stage2.2.branch2.4.bias_scale"
    input: "ConvBnFusion_BN_B_stage2.2.branch2.4.bias_zero_point"
    output: "ConvBnFusion_BN_B_stage2.2.branch2.4.bias_dequantized"
    name: "ConvBnFusion_BN_B_stage2.2.branch2.4.bias_DequantizeLinear"
    op_type: "DequantizeLinear"
  }
  node {
    input: "ConvBnFusion_W_stage2.2.branch2.5.weight_quantized"
    input: "ConvBnFusion_W_stage2.2.branch2.5.weight_scale"
    input: "ConvBnFusion_W_stage2.2.branch2.5.weight_zero_point"
    output: "ConvBnFusion_W_stage2.2.branch2.5.weight_dequantized"
    name: "ConvBnFusion_W_stage2.2.branch2.5.weight_DequantizeLinear"
    op_type: "DequantizeLinear"
  }
  node {
    input: "ConvBnFusion_BN_B_stage2.2.branch2.6.bias_quantized"
    input: "ConvBnFusion_BN_B_stage2.2.branch2.6.bias_scale"
    input: "ConvBnFusion_BN_B_stage2.2.branch2.6.bias_zero_point"
    output: "ConvBnFusion_BN_B_stage2.2.branch2.6.bias_dequantized"
    name: "ConvBnFusion_BN_B_stage2.2.branch2.6.bias_DequantizeLinear"
    op_type: "DequantizeLinear"
  }
  node {
    input: "ConvBnFusion_W_stage2.3.branch2.0.weight_quantized"
    input: "ConvBnFusion_W_stage2.3.branch2.0.weight_scale"
    input: "ConvBnFusion_W_stage2.3.branch2.0.weight_zero_point"
    output: "ConvBnFusion_W_stage2.3.branch2.0.weight_dequantized"
    name: "ConvBnFusion_W_stage2.3.branch2.0.weight_DequantizeLinear"
    op_type: "DequantizeLinear"
  }
  node {
    input: "ConvBnFusion_BN_B_stage2.3.branch2.1.bias_quantized"
    input: "ConvBnFusion_BN_B_stage2.3.branch2.1.bias_scale"
    input: "ConvBnFusion_BN_B_stage2.3.branch2.1.bias_zero_point"
    output: "ConvBnFusion_BN_B_stage2.3.branch2.1.bias_dequantized"
    name: "ConvBnFusion_BN_B_stage2.3.branch2.1.bias_DequantizeLinear"
    op_type: "DequantizeLinear"
  }
  node {
    input: "ConvBnFusion_W_stage2.3.branch2.3.weight_quantized"
    input: "ConvBnFusion_W_stage2.3.branch2.3.weight_scale"
    input: "ConvBnFusion_W_stage2.3.branch2.3.weight_zero_point"
    output: "ConvBnFusion_W_stage2.3.branch2.3.weight_dequantized"
    name: "ConvBnFusion_W_stage2.3.branch2.3.weight_DequantizeLinear"
    op_type: "DequantizeLinear"
  }
  node {
    input: "ConvBnFusion_BN_B_stage2.3.branch2.4.bias_quantized"
    input: "ConvBnFusion_BN_B_stage2.3.branch2.4.bias_scale"
    input: "ConvBnFusion_BN_B_stage2.3.branch2.4.bias_zero_point"
    output: "ConvBnFusion_BN_B_stage2.3.branch2.4.bias_dequantized"
    name: "ConvBnFusion_BN_B_stage2.3.branch2.4.bias_DequantizeLinear"
    op_type: "DequantizeLinear"
  }
  node {
    input: "ConvBnFusion_W_stage2.3.branch2.5.weight_quantized"
    input: "ConvBnFusion_W_stage2.3.branch2.5.weight_scale"
    input: "ConvBnFusion_W_stage2.3.branch2.5.weight_zero_point"
    output: "ConvBnFusion_W_stage2.3.branch2.5.weight_dequantized"
    name: "ConvBnFusion_W_stage2.3.branch2.5.weight_DequantizeLinear"
    op_type: "DequantizeLinear"
  }
  node {
    input: "ConvBnFusion_BN_B_stage2.3.branch2.6.bias_quantized"
    input: "ConvBnFusion_BN_B_stage2.3.branch2.6.bias_scale"
    input: "ConvBnFusion_BN_B_stage2.3.branch2.6.bias_zero_point"
    output: "ConvBnFusion_BN_B_stage2.3.branch2.6.bias_dequantized"
    name: "ConvBnFusion_BN_B_stage2.3.branch2.6.bias_DequantizeLinear"
    op_type: "DequantizeLinear"
  }
  node {
    input: "ConvBnFusion_W_stage3.0.branch2.0.weight_quantized"
    input: "ConvBnFusion_W_stage3.0.branch2.0.weight_scale"
    input: "ConvBnFusion_W_stage3.0.branch2.0.weight_zero_point"
    output: "ConvBnFusion_W_stage3.0.branch2.0.weight_dequantized"
    name: "ConvBnFusion_W_stage3.0.branch2.0.weight_DequantizeLinear"
    op_type: "DequantizeLinear"
  }
  node {
    input: "ConvBnFusion_BN_B_stage3.0.branch2.1.bias_quantized"
    input: "ConvBnFusion_BN_B_stage3.0.branch2.1.bias_scale"
    input: "ConvBnFusion_BN_B_stage3.0.branch2.1.bias_zero_point"
    output: "ConvBnFusion_BN_B_stage3.0.branch2.1.bias_dequantized"
    name: "ConvBnFusion_BN_B_stage3.0.branch2.1.bias_DequantizeLinear"
    op_type: "DequantizeLinear"
  }
  node {
    input: "ConvBnFusion_W_stage3.0.branch1.0.weight_quantized"
    input: "ConvBnFusion_W_stage3.0.branch1.0.weight_scale"
    input: "ConvBnFusion_W_stage3.0.branch1.0.weight_zero_point"
    output: "ConvBnFusion_W_stage3.0.branch1.0.weight_dequantized"
    name: "ConvBnFusion_W_stage3.0.branch1.0.weight_DequantizeLinear"
    op_type: "DequantizeLinear"
  }
  node {
    input: "ConvBnFusion_BN_B_stage3.0.branch1.1.bias_quantized"
    input: "ConvBnFusion_BN_B_stage3.0.branch1.1.bias_scale"
    input: "ConvBnFusion_BN_B_stage3.0.branch1.1.bias_zero_point"
    output: "ConvBnFusion_BN_B_stage3.0.branch1.1.bias_dequantized"
    name: "ConvBnFusion_BN_B_stage3.0.branch1.1.bias_DequantizeLinear"
    op_type: "DequantizeLinear"
  }
  node {
    input: "ConvBnFusion_W_stage3.0.branch1.2.weight_quantized"
    input: "ConvBnFusion_W_stage3.0.branch1.2.weight_scale"
    input: "ConvBnFusion_W_stage3.0.branch1.2.weight_zero_point"
    output: "ConvBnFusion_W_stage3.0.branch1.2.weight_dequantized"
    name: "ConvBnFusion_W_stage3.0.branch1.2.weight_DequantizeLinear"
    op_type: "DequantizeLinear"
  }
  node {
    input: "ConvBnFusion_BN_B_stage3.0.branch1.3.bias_quantized"
    input: "ConvBnFusion_BN_B_stage3.0.branch1.3.bias_scale"
    input: "ConvBnFusion_BN_B_stage3.0.branch1.3.bias_zero_point"
    output: "ConvBnFusion_BN_B_stage3.0.branch1.3.bias_dequantized"
    name: "ConvBnFusion_BN_B_stage3.0.branch1.3.bias_DequantizeLinear"
    op_type: "DequantizeLinear"
  }
  node {
    input: "ConvBnFusion_W_stage3.0.branch2.3.weight_quantized"
    input: "ConvBnFusion_W_stage3.0.branch2.3.weight_scale"
    input: "ConvBnFusion_W_stage3.0.branch2.3.weight_zero_point"
    output: "ConvBnFusion_W_stage3.0.branch2.3.weight_dequantized"
    name: "ConvBnFusion_W_stage3.0.branch2.3.weight_DequantizeLinear"
    op_type: "DequantizeLinear"
  }
  node {
    input: "ConvBnFusion_BN_B_stage3.0.branch2.4.bias_quantized"
    input: "ConvBnFusion_BN_B_stage3.0.branch2.4.bias_scale"
    input: "ConvBnFusion_BN_B_stage3.0.branch2.4.bias_zero_point"
    output: "ConvBnFusion_BN_B_stage3.0.branch2.4.bias_dequantized"
    name: "ConvBnFusion_BN_B_stage3.0.branch2.4.bias_DequantizeLinear"
    op_type: "DequantizeLinear"
  }
  node {
    input: "ConvBnFusion_W_stage3.0.branch2.5.weight_quantized"
    input: "ConvBnFusion_W_stage3.0.branch2.5.weight_scale"
    input: "ConvBnFusion_W_stage3.0.branch2.5.weight_zero_point"
    output: "ConvBnFusion_W_stage3.0.branch2.5.weight_dequantized"
    name: "ConvBnFusion_W_stage3.0.branch2.5.weight_DequantizeLinear"
    op_type: "DequantizeLinear"
  }
  node {
    input: "ConvBnFusion_BN_B_stage3.0.branch2.6.bias_quantized"
    input: "ConvBnFusion_BN_B_stage3.0.branch2.6.bias_scale"
    input: "ConvBnFusion_BN_B_stage3.0.branch2.6.bias_zero_point"
    output: "ConvBnFusion_BN_B_stage3.0.branch2.6.bias_dequantized"
    name: "ConvBnFusion_BN_B_stage3.0.branch2.6.bias_DequantizeLinear"
    op_type: "DequantizeLinear"
  }
  node {
    input: "ConvBnFusion_W_stage3.1.branch2.0.weight_quantized"
    input: "ConvBnFusion_W_stage3.1.branch2.0.weight_scale"
    input: "ConvBnFusion_W_stage3.1.branch2.0.weight_zero_point"
    output: "ConvBnFusion_W_stage3.1.branch2.0.weight_dequantized"
    name: "ConvBnFusion_W_stage3.1.branch2.0.weight_DequantizeLinear"
    op_type: "DequantizeLinear"
  }
  node {
    input: "ConvBnFusion_BN_B_stage3.1.branch2.1.bias_quantized"
    input: "ConvBnFusion_BN_B_stage3.1.branch2.1.bias_scale"
    input: "ConvBnFusion_BN_B_stage3.1.branch2.1.bias_zero_point"
    output: "ConvBnFusion_BN_B_stage3.1.branch2.1.bias_dequantized"
    name: "ConvBnFusion_BN_B_stage3.1.branch2.1.bias_DequantizeLinear"
    op_type: "DequantizeLinear"
  }
  node {
    input: "ConvBnFusion_W_stage3.1.branch2.3.weight_quantized"
    input: "ConvBnFusion_W_stage3.1.branch2.3.weight_scale"
    input: "ConvBnFusion_W_stage3.1.branch2.3.weight_zero_point"
    output: "ConvBnFusion_W_stage3.1.branch2.3.weight_dequantized"
    name: "ConvBnFusion_W_stage3.1.branch2.3.weight_DequantizeLinear"
    op_type: "DequantizeLinear"
  }
  node {
    input: "ConvBnFusion_BN_B_stage3.1.branch2.4.bias_quantized"
    input: "ConvBnFusion_BN_B_stage3.1.branch2.4.bias_scale"
    input: "ConvBnFusion_BN_B_stage3.1.branch2.4.bias_zero_point"
    output: "ConvBnFusion_BN_B_stage3.1.branch2.4.bias_dequantized"
    name: "ConvBnFusion_BN_B_stage3.1.branch2.4.bias_DequantizeLinear"
    op_type: "DequantizeLinear"
  }
  node {
    input: "ConvBnFusion_W_stage3.1.branch2.5.weight_quantized"
    input: "ConvBnFusion_W_stage3.1.branch2.5.weight_scale"
    input: "ConvBnFusion_W_stage3.1.branch2.5.weight_zero_point"
    output: "ConvBnFusion_W_stage3.1.branch2.5.weight_dequantized"
    name: "ConvBnFusion_W_stage3.1.branch2.5.weight_DequantizeLinear"
    op_type: "DequantizeLinear"
  }
  node {
    input: "ConvBnFusion_BN_B_stage3.1.branch2.6.bias_quantized"
    input: "ConvBnFusion_BN_B_stage3.1.branch2.6.bias_scale"
    input: "ConvBnFusion_BN_B_stage3.1.branch2.6.bias_zero_point"
    output: "ConvBnFusion_BN_B_stage3.1.branch2.6.bias_dequantized"
    name: "ConvBnFusion_BN_B_stage3.1.branch2.6.bias_DequantizeLinear"
    op_type: "DequantizeLinear"
  }
  node {
    input: "ConvBnFusion_W_stage3.2.branch2.0.weight_quantized"
    input: "ConvBnFusion_W_stage3.2.branch2.0.weight_scale"
    input: "ConvBnFusion_W_stage3.2.branch2.0.weight_zero_point"
    output: "ConvBnFusion_W_stage3.2.branch2.0.weight_dequantized"
    name: "ConvBnFusion_W_stage3.2.branch2.0.weight_DequantizeLinear"
    op_type: "DequantizeLinear"
  }
  node {
    input: "ConvBnFusion_BN_B_stage3.2.branch2.1.bias_quantized"
    input: "ConvBnFusion_BN_B_stage3.2.branch2.1.bias_scale"
    input: "ConvBnFusion_BN_B_stage3.2.branch2.1.bias_zero_point"
    output: "ConvBnFusion_BN_B_stage3.2.branch2.1.bias_dequantized"
    name: "ConvBnFusion_BN_B_stage3.2.branch2.1.bias_DequantizeLinear"
    op_type: "DequantizeLinear"
  }
  node {
    input: "ConvBnFusion_W_stage3.2.branch2.3.weight_quantized"
    input: "ConvBnFusion_W_stage3.2.branch2.3.weight_scale"
    input: "ConvBnFusion_W_stage3.2.branch2.3.weight_zero_point"
    output: "ConvBnFusion_W_stage3.2.branch2.3.weight_dequantized"
    name: "ConvBnFusion_W_stage3.2.branch2.3.weight_DequantizeLinear"
    op_type: "DequantizeLinear"
  }
  node {
    input: "ConvBnFusion_BN_B_stage3.2.branch2.4.bias_quantized"
    input: "ConvBnFusion_BN_B_stage3.2.branch2.4.bias_scale"
    input: "ConvBnFusion_BN_B_stage3.2.branch2.4.bias_zero_point"
    output: "ConvBnFusion_BN_B_stage3.2.branch2.4.bias_dequantized"
    name: "ConvBnFusion_BN_B_stage3.2.branch2.4.bias_DequantizeLinear"
    op_type: "DequantizeLinear"
  }
  node {
    input: "ConvBnFusion_W_stage3.2.branch2.5.weight_quantized"
    input: "ConvBnFusion_W_stage3.2.branch2.5.weight_scale"
    input: "ConvBnFusion_W_stage3.2.branch2.5.weight_zero_point"
    output: "ConvBnFusion_W_stage3.2.branch2.5.weight_dequantized"
    name: "ConvBnFusion_W_stage3.2.branch2.5.weight_DequantizeLinear"
    op_type: "DequantizeLinear"
  }
  node {
    input: "ConvBnFusion_BN_B_stage3.2.branch2.6.bias_quantized"
    input: "ConvBnFusion_BN_B_stage3.2.branch2.6.bias_scale"
    input: "ConvBnFusion_BN_B_stage3.2.branch2.6.bias_zero_point"
    output: "ConvBnFusion_BN_B_stage3.2.branch2.6.bias_dequantized"
    name: "ConvBnFusion_BN_B_stage3.2.branch2.6.bias_DequantizeLinear"
    op_type: "DequantizeLinear"
  }
  node {
    input: "ConvBnFusion_W_stage3.3.branch2.0.weight_quantized"
    input: "ConvBnFusion_W_stage3.3.branch2.0.weight_scale"
    input: "ConvBnFusion_W_stage3.3.branch2.0.weight_zero_point"
    output: "ConvBnFusion_W_stage3.3.branch2.0.weight_dequantized"
    name: "ConvBnFusion_W_stage3.3.branch2.0.weight_DequantizeLinear"
    op_type: "DequantizeLinear"
  }
  node {
    input: "ConvBnFusion_BN_B_stage3.3.branch2.1.bias_quantized"
    input: "ConvBnFusion_BN_B_stage3.3.branch2.1.bias_scale"
    input: "ConvBnFusion_BN_B_stage3.3.branch2.1.bias_zero_point"
    output: "ConvBnFusion_BN_B_stage3.3.branch2.1.bias_dequantized"
    name: "ConvBnFusion_BN_B_stage3.3.branch2.1.bias_DequantizeLinear"
    op_type: "DequantizeLinear"
  }
  node {
    input: "ConvBnFusion_W_stage3.3.branch2.3.weight_quantized"
    input: "ConvBnFusion_W_stage3.3.branch2.3.weight_scale"
    input: "ConvBnFusion_W_stage3.3.branch2.3.weight_zero_point"
    output: "ConvBnFusion_W_stage3.3.branch2.3.weight_dequantized"
    name: "ConvBnFusion_W_stage3.3.branch2.3.weight_DequantizeLinear"
    op_type: "DequantizeLinear"
  }
  node {
    input: "ConvBnFusion_BN_B_stage3.3.branch2.4.bias_quantized"
    input: "ConvBnFusion_BN_B_stage3.3.branch2.4.bias_scale"
    input: "ConvBnFusion_BN_B_stage3.3.branch2.4.bias_zero_point"
    output: "ConvBnFusion_BN_B_stage3.3.branch2.4.bias_dequantized"
    name: "ConvBnFusion_BN_B_stage3.3.branch2.4.bias_DequantizeLinear"
    op_type: "DequantizeLinear"
  }
  node {
    input: "ConvBnFusion_W_stage3.3.branch2.5.weight_quantized"
    input: "ConvBnFusion_W_stage3.3.branch2.5.weight_scale"
    input: "ConvBnFusion_W_stage3.3.branch2.5.weight_zero_point"
    output: "ConvBnFusion_W_stage3.3.branch2.5.weight_dequantized"
    name: "ConvBnFusion_W_stage3.3.branch2.5.weight_DequantizeLinear"
    op_type: "DequantizeLinear"
  }
  node {
    input: "ConvBnFusion_BN_B_stage3.3.branch2.6.bias_quantized"
    input: "ConvBnFusion_BN_B_stage3.3.branch2.6.bias_scale"
    input: "ConvBnFusion_BN_B_stage3.3.branch2.6.bias_zero_point"
    output: "ConvBnFusion_BN_B_stage3.3.branch2.6.bias_dequantized"
    name: "ConvBnFusion_BN_B_stage3.3.branch2.6.bias_DequantizeLinear"
    op_type: "DequantizeLinear"
  }
  node {
    input: "ConvBnFusion_W_stage3.4.branch2.0.weight_quantized"
    input: "ConvBnFusion_W_stage3.4.branch2.0.weight_scale"
    input: "ConvBnFusion_W_stage3.4.branch2.0.weight_zero_point"
    output: "ConvBnFusion_W_stage3.4.branch2.0.weight_dequantized"
    name: "ConvBnFusion_W_stage3.4.branch2.0.weight_DequantizeLinear"
    op_type: "DequantizeLinear"
  }
  node {
    input: "ConvBnFusion_BN_B_stage3.4.branch2.1.bias_quantized"
    input: "ConvBnFusion_BN_B_stage3.4.branch2.1.bias_scale"
    input: "ConvBnFusion_BN_B_stage3.4.branch2.1.bias_zero_point"
    output: "ConvBnFusion_BN_B_stage3.4.branch2.1.bias_dequantized"
    name: "ConvBnFusion_BN_B_stage3.4.branch2.1.bias_DequantizeLinear"
    op_type: "DequantizeLinear"
  }
  node {
    input: "ConvBnFusion_W_stage3.4.branch2.3.weight_quantized"
    input: "ConvBnFusion_W_stage3.4.branch2.3.weight_scale"
    input: "ConvBnFusion_W_stage3.4.branch2.3.weight_zero_point"
    output: "ConvBnFusion_W_stage3.4.branch2.3.weight_dequantized"
    name: "ConvBnFusion_W_stage3.4.branch2.3.weight_DequantizeLinear"
    op_type: "DequantizeLinear"
  }
  node {
    input: "ConvBnFusion_BN_B_stage3.4.branch2.4.bias_quantized"
    input: "ConvBnFusion_BN_B_stage3.4.branch2.4.bias_scale"
    input: "ConvBnFusion_BN_B_stage3.4.branch2.4.bias_zero_point"
    output: "ConvBnFusion_BN_B_stage3.4.branch2.4.bias_dequantized"
    name: "ConvBnFusion_BN_B_stage3.4.branch2.4.bias_DequantizeLinear"
    op_type: "DequantizeLinear"
  }
  node {
    input: "ConvBnFusion_W_stage3.4.branch2.5.weight_quantized"
    input: "ConvBnFusion_W_stage3.4.branch2.5.weight_scale"
    input: "ConvBnFusion_W_stage3.4.branch2.5.weight_zero_point"
    output: "ConvBnFusion_W_stage3.4.branch2.5.weight_dequantized"
    name: "ConvBnFusion_W_stage3.4.branch2.5.weight_DequantizeLinear"
    op_type: "DequantizeLinear"
  }
  node {
    input: "ConvBnFusion_BN_B_stage3.4.branch2.6.bias_quantized"
    input: "ConvBnFusion_BN_B_stage3.4.branch2.6.bias_scale"
    input: "ConvBnFusion_BN_B_stage3.4.branch2.6.bias_zero_point"
    output: "ConvBnFusion_BN_B_stage3.4.branch2.6.bias_dequantized"
    name: "ConvBnFusion_BN_B_stage3.4.branch2.6.bias_DequantizeLinear"
    op_type: "DequantizeLinear"
  }
  node {
    input: "ConvBnFusion_W_stage3.5.branch2.0.weight_quantized"
    input: "ConvBnFusion_W_stage3.5.branch2.0.weight_scale"
    input: "ConvBnFusion_W_stage3.5.branch2.0.weight_zero_point"
    output: "ConvBnFusion_W_stage3.5.branch2.0.weight_dequantized"
    name: "ConvBnFusion_W_stage3.5.branch2.0.weight_DequantizeLinear"
    op_type: "DequantizeLinear"
  }
  node {
    input: "ConvBnFusion_BN_B_stage3.5.branch2.1.bias_quantized"
    input: "ConvBnFusion_BN_B_stage3.5.branch2.1.bias_scale"
    input: "ConvBnFusion_BN_B_stage3.5.branch2.1.bias_zero_point"
    output: "ConvBnFusion_BN_B_stage3.5.branch2.1.bias_dequantized"
    name: "ConvBnFusion_BN_B_stage3.5.branch2.1.bias_DequantizeLinear"
    op_type: "DequantizeLinear"
  }
  node {
    input: "ConvBnFusion_W_stage3.5.branch2.3.weight_quantized"
    input: "ConvBnFusion_W_stage3.5.branch2.3.weight_scale"
    input: "ConvBnFusion_W_stage3.5.branch2.3.weight_zero_point"
    output: "ConvBnFusion_W_stage3.5.branch2.3.weight_dequantized"
    name: "ConvBnFusion_W_stage3.5.branch2.3.weight_DequantizeLinear"
    op_type: "DequantizeLinear"
  }
  node {
    input: "ConvBnFusion_BN_B_stage3.5.branch2.4.bias_quantized"
    input: "ConvBnFusion_BN_B_stage3.5.branch2.4.bias_scale"
    input: "ConvBnFusion_BN_B_stage3.5.branch2.4.bias_zero_point"
    output: "ConvBnFusion_BN_B_stage3.5.branch2.4.bias_dequantized"
    name: "ConvBnFusion_BN_B_stage3.5.branch2.4.bias_DequantizeLinear"
    op_type: "DequantizeLinear"
  }
  node {
    input: "ConvBnFusion_W_stage3.5.branch2.5.weight_quantized"
    input: "ConvBnFusion_W_stage3.5.branch2.5.weight_scale"
    input: "ConvBnFusion_W_stage3.5.branch2.5.weight_zero_point"
    output: "ConvBnFusion_W_stage3.5.branch2.5.weight_dequantized"
    name: "ConvBnFusion_W_stage3.5.branch2.5.weight_DequantizeLinear"
    op_type: "DequantizeLinear"
  }
  node {
    input: "ConvBnFusion_BN_B_stage3.5.branch2.6.bias_quantized"
    input: "ConvBnFusion_BN_B_stage3.5.branch2.6.bias_scale"
    input: "ConvBnFusion_BN_B_stage3.5.branch2.6.bias_zero_point"
    output: "ConvBnFusion_BN_B_stage3.5.branch2.6.bias_dequantized"
    name: "ConvBnFusion_BN_B_stage3.5.branch2.6.bias_DequantizeLinear"
    op_type: "DequantizeLinear"
  }
  node {
    input: "ConvBnFusion_W_stage3.6.branch2.0.weight_quantized"
    input: "ConvBnFusion_W_stage3.6.branch2.0.weight_scale"
    input: "ConvBnFusion_W_stage3.6.branch2.0.weight_zero_point"
    output: "ConvBnFusion_W_stage3.6.branch2.0.weight_dequantized"
    name: "ConvBnFusion_W_stage3.6.branch2.0.weight_DequantizeLinear"
    op_type: "DequantizeLinear"
  }
  node {
    input: "ConvBnFusion_BN_B_stage3.6.branch2.1.bias_quantized"
    input: "ConvBnFusion_BN_B_stage3.6.branch2.1.bias_scale"
    input: "ConvBnFusion_BN_B_stage3.6.branch2.1.bias_zero_point"
    output: "ConvBnFusion_BN_B_stage3.6.branch2.1.bias_dequantized"
    name: "ConvBnFusion_BN_B_stage3.6.branch2.1.bias_DequantizeLinear"
    op_type: "DequantizeLinear"
  }
  node {
    input: "ConvBnFusion_W_stage3.6.branch2.3.weight_quantized"
    input: "ConvBnFusion_W_stage3.6.branch2.3.weight_scale"
    input: "ConvBnFusion_W_stage3.6.branch2.3.weight_zero_point"
    output: "ConvBnFusion_W_stage3.6.branch2.3.weight_dequantized"
    name: "ConvBnFusion_W_stage3.6.branch2.3.weight_DequantizeLinear"
    op_type: "DequantizeLinear"
  }
  node {
    input: "ConvBnFusion_BN_B_stage3.6.branch2.4.bias_quantized"
    input: "ConvBnFusion_BN_B_stage3.6.branch2.4.bias_scale"
    input: "ConvBnFusion_BN_B_stage3.6.branch2.4.bias_zero_point"
    output: "ConvBnFusion_BN_B_stage3.6.branch2.4.bias_dequantized"
    name: "ConvBnFusion_BN_B_stage3.6.branch2.4.bias_DequantizeLinear"
    op_type: "DequantizeLinear"
  }
  node {
    input: "ConvBnFusion_W_stage3.6.branch2.5.weight_quantized"
    input: "ConvBnFusion_W_stage3.6.branch2.5.weight_scale"
    input: "ConvBnFusion_W_stage3.6.branch2.5.weight_zero_point"
    output: "ConvBnFusion_W_stage3.6.branch2.5.weight_dequantized"
    name: "ConvBnFusion_W_stage3.6.branch2.5.weight_DequantizeLinear"
    op_type: "DequantizeLinear"
  }
  node {
    input: "ConvBnFusion_BN_B_stage3.6.branch2.6.bias_quantized"
    input: "ConvBnFusion_BN_B_stage3.6.branch2.6.bias_scale"
    input: "ConvBnFusion_BN_B_stage3.6.branch2.6.bias_zero_point"
    output: "ConvBnFusion_BN_B_stage3.6.branch2.6.bias_dequantized"
    name: "ConvBnFusion_BN_B_stage3.6.branch2.6.bias_DequantizeLinear"
    op_type: "DequantizeLinear"
  }
  node {
    input: "ConvBnFusion_W_stage3.7.branch2.0.weight_quantized"
    input: "ConvBnFusion_W_stage3.7.branch2.0.weight_scale"
    input: "ConvBnFusion_W_stage3.7.branch2.0.weight_zero_point"
    output: "ConvBnFusion_W_stage3.7.branch2.0.weight_dequantized"
    name: "ConvBnFusion_W_stage3.7.branch2.0.weight_DequantizeLinear"
    op_type: "DequantizeLinear"
  }
  node {
    input: "ConvBnFusion_BN_B_stage3.7.branch2.1.bias_quantized"
    input: "ConvBnFusion_BN_B_stage3.7.branch2.1.bias_scale"
    input: "ConvBnFusion_BN_B_stage3.7.branch2.1.bias_zero_point"
    output: "ConvBnFusion_BN_B_stage3.7.branch2.1.bias_dequantized"
    name: "ConvBnFusion_BN_B_stage3.7.branch2.1.bias_DequantizeLinear"
    op_type: "DequantizeLinear"
  }
  node {
    input: "ConvBnFusion_W_stage3.7.branch2.3.weight_quantized"
    input: "ConvBnFusion_W_stage3.7.branch2.3.weight_scale"
    input: "ConvBnFusion_W_stage3.7.branch2.3.weight_zero_point"
    output: "ConvBnFusion_W_stage3.7.branch2.3.weight_dequantized"
    name: "ConvBnFusion_W_stage3.7.branch2.3.weight_DequantizeLinear"
    op_type: "DequantizeLinear"
  }
  node {
    input: "ConvBnFusion_BN_B_stage3.7.branch2.4.bias_quantized"
    input: "ConvBnFusion_BN_B_stage3.7.branch2.4.bias_scale"
    input: "ConvBnFusion_BN_B_stage3.7.branch2.4.bias_zero_point"
    output: "ConvBnFusion_BN_B_stage3.7.branch2.4.bias_dequantized"
    name: "ConvBnFusion_BN_B_stage3.7.branch2.4.bias_DequantizeLinear"
    op_type: "DequantizeLinear"
  }
  node {
    input: "ConvBnFusion_W_stage3.7.branch2.5.weight_quantized"
    input: "ConvBnFusion_W_stage3.7.branch2.5.weight_scale"
    input: "ConvBnFusion_W_stage3.7.branch2.5.weight_zero_point"
    output: "ConvBnFusion_W_stage3.7.branch2.5.weight_dequantized"
    name: "ConvBnFusion_W_stage3.7.branch2.5.weight_DequantizeLinear"
    op_type: "DequantizeLinear"
  }
  node {
    input: "ConvBnFusion_BN_B_stage3.7.branch2.6.bias_quantized"
    input: "ConvBnFusion_BN_B_stage3.7.branch2.6.bias_scale"
    input: "ConvBnFusion_BN_B_stage3.7.branch2.6.bias_zero_point"
    output: "ConvBnFusion_BN_B_stage3.7.branch2.6.bias_dequantized"
    name: "ConvBnFusion_BN_B_stage3.7.branch2.6.bias_DequantizeLinear"
    op_type: "DequantizeLinear"
  }
  node {
    input: "ConvBnFusion_W_stage4.0.branch2.0.weight_quantized"
    input: "ConvBnFusion_W_stage4.0.branch2.0.weight_scale"
    input: "ConvBnFusion_W_stage4.0.branch2.0.weight_zero_point"
    output: "ConvBnFusion_W_stage4.0.branch2.0.weight_dequantized"
    name: "ConvBnFusion_W_stage4.0.branch2.0.weight_DequantizeLinear"
    op_type: "DequantizeLinear"
  }
  node {
    input: "ConvBnFusion_BN_B_stage4.0.branch2.1.bias_quantized"
    input: "ConvBnFusion_BN_B_stage4.0.branch2.1.bias_scale"
    input: "ConvBnFusion_BN_B_stage4.0.branch2.1.bias_zero_point"
    output: "ConvBnFusion_BN_B_stage4.0.branch2.1.bias_dequantized"
    name: "ConvBnFusion_BN_B_stage4.0.branch2.1.bias_DequantizeLinear"
    op_type: "DequantizeLinear"
  }
  node {
    input: "ConvBnFusion_W_stage4.0.branch1.0.weight_quantized"
    input: "ConvBnFusion_W_stage4.0.branch1.0.weight_scale"
    input: "ConvBnFusion_W_stage4.0.branch1.0.weight_zero_point"
    output: "ConvBnFusion_W_stage4.0.branch1.0.weight_dequantized"
    name: "ConvBnFusion_W_stage4.0.branch1.0.weight_DequantizeLinear"
    op_type: "DequantizeLinear"
  }
  node {
    input: "ConvBnFusion_BN_B_stage4.0.branch1.1.bias_quantized"
    input: "ConvBnFusion_BN_B_stage4.0.branch1.1.bias_scale"
    input: "ConvBnFusion_BN_B_stage4.0.branch1.1.bias_zero_point"
    output: "ConvBnFusion_BN_B_stage4.0.branch1.1.bias_dequantized"
    name: "ConvBnFusion_BN_B_stage4.0.branch1.1.bias_DequantizeLinear"
    op_type: "DequantizeLinear"
  }
  node {
    input: "ConvBnFusion_W_stage4.0.branch1.2.weight_quantized"
    input: "ConvBnFusion_W_stage4.0.branch1.2.weight_scale"
    input: "ConvBnFusion_W_stage4.0.branch1.2.weight_zero_point"
    output: "ConvBnFusion_W_stage4.0.branch1.2.weight_dequantized"
    name: "ConvBnFusion_W_stage4.0.branch1.2.weight_DequantizeLinear"
    op_type: "DequantizeLinear"
  }
  node {
    input: "ConvBnFusion_BN_B_stage4.0.branch1.3.bias_quantized"
    input: "ConvBnFusion_BN_B_stage4.0.branch1.3.bias_scale"
    input: "ConvBnFusion_BN_B_stage4.0.branch1.3.bias_zero_point"
    output: "ConvBnFusion_BN_B_stage4.0.branch1.3.bias_dequantized"
    name: "ConvBnFusion_BN_B_stage4.0.branch1.3.bias_DequantizeLinear"
    op_type: "DequantizeLinear"
  }
  node {
    input: "ConvBnFusion_W_stage4.0.branch2.3.weight_quantized"
    input: "ConvBnFusion_W_stage4.0.branch2.3.weight_scale"
    input: "ConvBnFusion_W_stage4.0.branch2.3.weight_zero_point"
    output: "ConvBnFusion_W_stage4.0.branch2.3.weight_dequantized"
    name: "ConvBnFusion_W_stage4.0.branch2.3.weight_DequantizeLinear"
    op_type: "DequantizeLinear"
  }
  node {
    input: "ConvBnFusion_BN_B_stage4.0.branch2.4.bias_quantized"
    input: "ConvBnFusion_BN_B_stage4.0.branch2.4.bias_scale"
    input: "ConvBnFusion_BN_B_stage4.0.branch2.4.bias_zero_point"
    output: "ConvBnFusion_BN_B_stage4.0.branch2.4.bias_dequantized"
    name: "ConvBnFusion_BN_B_stage4.0.branch2.4.bias_DequantizeLinear"
    op_type: "DequantizeLinear"
  }
  node {
    input: "ConvBnFusion_W_stage4.0.branch2.5.weight_quantized"
    input: "ConvBnFusion_W_stage4.0.branch2.5.weight_scale"
    input: "ConvBnFusion_W_stage4.0.branch2.5.weight_zero_point"
    output: "ConvBnFusion_W_stage4.0.branch2.5.weight_dequantized"
    name: "ConvBnFusion_W_stage4.0.branch2.5.weight_DequantizeLinear"
    op_type: "DequantizeLinear"
  }
  node {
    input: "ConvBnFusion_BN_B_stage4.0.branch2.6.bias_quantized"
    input: "ConvBnFusion_BN_B_stage4.0.branch2.6.bias_scale"
    input: "ConvBnFusion_BN_B_stage4.0.branch2.6.bias_zero_point"
    output: "ConvBnFusion_BN_B_stage4.0.branch2.6.bias_dequantized"
    name: "ConvBnFusion_BN_B_stage4.0.branch2.6.bias_DequantizeLinear"
    op_type: "DequantizeLinear"
  }
  node {
    input: "ConvBnFusion_W_stage4.1.branch2.0.weight_quantized"
    input: "ConvBnFusion_W_stage4.1.branch2.0.weight_scale"
    input: "ConvBnFusion_W_stage4.1.branch2.0.weight_zero_point"
    output: "ConvBnFusion_W_stage4.1.branch2.0.weight_dequantized"
    name: "ConvBnFusion_W_stage4.1.branch2.0.weight_DequantizeLinear"
    op_type: "DequantizeLinear"
  }
  node {
    input: "ConvBnFusion_BN_B_stage4.1.branch2.1.bias_quantized"
    input: "ConvBnFusion_BN_B_stage4.1.branch2.1.bias_scale"
    input: "ConvBnFusion_BN_B_stage4.1.branch2.1.bias_zero_point"
    output: "ConvBnFusion_BN_B_stage4.1.branch2.1.bias_dequantized"
    name: "ConvBnFusion_BN_B_stage4.1.branch2.1.bias_DequantizeLinear"
    op_type: "DequantizeLinear"
  }
  node {
    input: "ConvBnFusion_W_stage4.1.branch2.3.weight_quantized"
    input: "ConvBnFusion_W_stage4.1.branch2.3.weight_scale"
    input: "ConvBnFusion_W_stage4.1.branch2.3.weight_zero_point"
    output: "ConvBnFusion_W_stage4.1.branch2.3.weight_dequantized"
    name: "ConvBnFusion_W_stage4.1.branch2.3.weight_DequantizeLinear"
    op_type: "DequantizeLinear"
  }
  node {
    input: "ConvBnFusion_BN_B_stage4.1.branch2.4.bias_quantized"
    input: "ConvBnFusion_BN_B_stage4.1.branch2.4.bias_scale"
    input: "ConvBnFusion_BN_B_stage4.1.branch2.4.bias_zero_point"
    output: "ConvBnFusion_BN_B_stage4.1.branch2.4.bias_dequantized"
    name: "ConvBnFusion_BN_B_stage4.1.branch2.4.bias_DequantizeLinear"
    op_type: "DequantizeLinear"
  }
  node {
    input: "ConvBnFusion_W_stage4.1.branch2.5.weight_quantized"
    input: "ConvBnFusion_W_stage4.1.branch2.5.weight_scale"
    input: "ConvBnFusion_W_stage4.1.branch2.5.weight_zero_point"
    output: "ConvBnFusion_W_stage4.1.branch2.5.weight_dequantized"
    name: "ConvBnFusion_W_stage4.1.branch2.5.weight_DequantizeLinear"
    op_type: "DequantizeLinear"
  }
  node {
    input: "ConvBnFusion_BN_B_stage4.1.branch2.6.bias_quantized"
    input: "ConvBnFusion_BN_B_stage4.1.branch2.6.bias_scale"
    input: "ConvBnFusion_BN_B_stage4.1.branch2.6.bias_zero_point"
    output: "ConvBnFusion_BN_B_stage4.1.branch2.6.bias_dequantized"
    name: "ConvBnFusion_BN_B_stage4.1.branch2.6.bias_DequantizeLinear"
    op_type: "DequantizeLinear"
  }
  node {
    input: "ConvBnFusion_W_stage4.2.branch2.0.weight_quantized"
    input: "ConvBnFusion_W_stage4.2.branch2.0.weight_scale"
    input: "ConvBnFusion_W_stage4.2.branch2.0.weight_zero_point"
    output: "ConvBnFusion_W_stage4.2.branch2.0.weight_dequantized"
    name: "ConvBnFusion_W_stage4.2.branch2.0.weight_DequantizeLinear"
    op_type: "DequantizeLinear"
  }
  node {
    input: "ConvBnFusion_BN_B_stage4.2.branch2.1.bias_quantized"
    input: "ConvBnFusion_BN_B_stage4.2.branch2.1.bias_scale"
    input: "ConvBnFusion_BN_B_stage4.2.branch2.1.bias_zero_point"
    output: "ConvBnFusion_BN_B_stage4.2.branch2.1.bias_dequantized"
    name: "ConvBnFusion_BN_B_stage4.2.branch2.1.bias_DequantizeLinear"
    op_type: "DequantizeLinear"
  }
  node {
    input: "ConvBnFusion_W_stage4.2.branch2.3.weight_quantized"
    input: "ConvBnFusion_W_stage4.2.branch2.3.weight_scale"
    input: "ConvBnFusion_W_stage4.2.branch2.3.weight_zero_point"
    output: "ConvBnFusion_W_stage4.2.branch2.3.weight_dequantized"
    name: "ConvBnFusion_W_stage4.2.branch2.3.weight_DequantizeLinear"
    op_type: "DequantizeLinear"
  }
  node {
    input: "ConvBnFusion_BN_B_stage4.2.branch2.4.bias_quantized"
    input: "ConvBnFusion_BN_B_stage4.2.branch2.4.bias_scale"
    input: "ConvBnFusion_BN_B_stage4.2.branch2.4.bias_zero_point"
    output: "ConvBnFusion_BN_B_stage4.2.branch2.4.bias_dequantized"
    name: "ConvBnFusion_BN_B_stage4.2.branch2.4.bias_DequantizeLinear"
    op_type: "DequantizeLinear"
  }
  node {
    input: "ConvBnFusion_W_stage4.2.branch2.5.weight_quantized"
    input: "ConvBnFusion_W_stage4.2.branch2.5.weight_scale"
    input: "ConvBnFusion_W_stage4.2.branch2.5.weight_zero_point"
    output: "ConvBnFusion_W_stage4.2.branch2.5.weight_dequantized"
    name: "ConvBnFusion_W_stage4.2.branch2.5.weight_DequantizeLinear"
    op_type: "DequantizeLinear"
  }
  node {
    input: "ConvBnFusion_BN_B_stage4.2.branch2.6.bias_quantized"
    input: "ConvBnFusion_BN_B_stage4.2.branch2.6.bias_scale"
    input: "ConvBnFusion_BN_B_stage4.2.branch2.6.bias_zero_point"
    output: "ConvBnFusion_BN_B_stage4.2.branch2.6.bias_dequantized"
    name: "ConvBnFusion_BN_B_stage4.2.branch2.6.bias_DequantizeLinear"
    op_type: "DequantizeLinear"
  }
  node {
    input: "ConvBnFusion_W_stage4.3.branch2.0.weight_quantized"
    input: "ConvBnFusion_W_stage4.3.branch2.0.weight_scale"
    input: "ConvBnFusion_W_stage4.3.branch2.0.weight_zero_point"
    output: "ConvBnFusion_W_stage4.3.branch2.0.weight_dequantized"
    name: "ConvBnFusion_W_stage4.3.branch2.0.weight_DequantizeLinear"
    op_type: "DequantizeLinear"
  }
  node {
    input: "ConvBnFusion_BN_B_stage4.3.branch2.1.bias_quantized"
    input: "ConvBnFusion_BN_B_stage4.3.branch2.1.bias_scale"
    input: "ConvBnFusion_BN_B_stage4.3.branch2.1.bias_zero_point"
    output: "ConvBnFusion_BN_B_stage4.3.branch2.1.bias_dequantized"
    name: "ConvBnFusion_BN_B_stage4.3.branch2.1.bias_DequantizeLinear"
    op_type: "DequantizeLinear"
  }
  node {
    input: "ConvBnFusion_W_stage4.3.branch2.3.weight_quantized"
    input: "ConvBnFusion_W_stage4.3.branch2.3.weight_scale"
    input: "ConvBnFusion_W_stage4.3.branch2.3.weight_zero_point"
    output: "ConvBnFusion_W_stage4.3.branch2.3.weight_dequantized"
    name: "ConvBnFusion_W_stage4.3.branch2.3.weight_DequantizeLinear"
    op_type: "DequantizeLinear"
  }
  node {
    input: "ConvBnFusion_BN_B_stage4.3.branch2.4.bias_quantized"
    input: "ConvBnFusion_BN_B_stage4.3.branch2.4.bias_scale"
    input: "ConvBnFusion_BN_B_stage4.3.branch2.4.bias_zero_point"
    output: "ConvBnFusion_BN_B_stage4.3.branch2.4.bias_dequantized"
    name: "ConvBnFusion_BN_B_stage4.3.branch2.4.bias_DequantizeLinear"
    op_type: "DequantizeLinear"
  }
  node {
    input: "ConvBnFusion_W_stage4.3.branch2.5.weight_quantized"
    input: "ConvBnFusion_W_stage4.3.branch2.5.weight_scale"
    input: "ConvBnFusion_W_stage4.3.branch2.5.weight_zero_point"
    output: "ConvBnFusion_W_stage4.3.branch2.5.weight_dequantized"
    name: "ConvBnFusion_W_stage4.3.branch2.5.weight_DequantizeLinear"
    op_type: "DequantizeLinear"
  }
  node {
    input: "ConvBnFusion_BN_B_stage4.3.branch2.6.bias_quantized"
    input: "ConvBnFusion_BN_B_stage4.3.branch2.6.bias_scale"
    input: "ConvBnFusion_BN_B_stage4.3.branch2.6.bias_zero_point"
    output: "ConvBnFusion_BN_B_stage4.3.branch2.6.bias_dequantized"
    name: "ConvBnFusion_BN_B_stage4.3.branch2.6.bias_DequantizeLinear"
    op_type: "DequantizeLinear"
  }
  node {
    input: "ConvBnFusion_W_conv5.0.weight_quantized"
    input: "ConvBnFusion_W_conv5.0.weight_scale"
    input: "ConvBnFusion_W_conv5.0.weight_zero_point"
    output: "ConvBnFusion_W_conv5.0.weight_dequantized"
    name: "ConvBnFusion_W_conv5.0.weight_DequantizeLinear"
    op_type: "DequantizeLinear"
  }
  node {
    input: "ConvBnFusion_BN_B_conv5.1.bias_quantized"
    input: "ConvBnFusion_BN_B_conv5.1.bias_scale"
    input: "ConvBnFusion_BN_B_conv5.1.bias_zero_point"
    output: "ConvBnFusion_BN_B_conv5.1.bias_dequantized"
    name: "ConvBnFusion_BN_B_conv5.1.bias_DequantizeLinear"
    op_type: "DequantizeLinear"
  }
  node {
    input: "fc.weight_quantized"
    input: "fc.weight_scale"
    input: "fc.weight_zero_point"
    output: "fc.weight_dequantized"
    name: "fc.weight_DequantizeLinear"
    op_type: "DequantizeLinear"
  }
  node {
    input: "input_quantized"
    input: "input_scale"
    input: "input_zero_point"
    output: "input_dequantized"
    name: "input_Conv_0_DequantizeLinear"
    op_type: "DequantizeLinear"
  }
  node {
    input: "input_dequantized"
    input: "ConvBnFusion_W_conv1.0.weight_dequantized"
    input: "ConvBnFusion_BN_B_conv1.1.bias_dequantized"
    output: "340_QuantizeInput"
    name: "Conv_0_quant"
    op_type: "Conv"
    attribute {
      name: "auto_pad"
      s: "NOTSET"
      type: STRING
    }
    attribute {
      name: "dilations"
      ints: 1
      ints: 1
      type: INTS
    }
    attribute {
      name: "group"
      i: 1
      type: INT
    }
    attribute {
      name: "strides"
      ints: 2
      ints: 2
      type: INTS
    }
    attribute {
      name: "kernel_shape"
      ints: 3
      ints: 3
      type: INTS
    }
    attribute {
      name: "pads"
      ints: 1
      ints: 1
      ints: 1
      ints: 1
      type: INTS
    }
  }
  node {
    input: "340_QuantizeInput"
    input: "340_scale"
    input: "340_zero_point"
    output: "340_quantized"
    name: "340_Conv_0_QuantizeLinear"
    op_type: "QuantizeLinear"
  }
  node {
    input: "340_quantized"
    input: "340_scale"
    input: "340_zero_point"
    output: "340_MaxPool_3_dequantized"
    name: "340_MaxPool_3_DequantizeLinear"
    op_type: "DequantizeLinear"
  }
  node {
    input: "340_MaxPool_3_dequantized"
    output: "342_QuantizeInput"
    name: "MaxPool_3_quant"
    op_type: "MaxPool"
    attribute {
      name: "storage_order"
      i: 0
      type: INT
    }
    attribute {
      name: "ceil_mode"
      i: 0
      type: INT
    }
    attribute {
      name: "kernel_shape"
      ints: 3
      ints: 3
      type: INTS
    }
    attribute {
      name: "pads"
      ints: 1
      ints: 1
      ints: 1
      ints: 1
      type: INTS
    }
    attribute {
      name: "auto_pad"
      s: "NOTSET"
      type: STRING
    }
    attribute {
      name: "strides"
      ints: 2
      ints: 2
      type: INTS
    }
  }
  node {
    input: "342_QuantizeInput"
    input: "340_scale"
    input: "340_zero_point"
    output: "342_quantized"
    name: "342_MaxPool_3_QuantizeLinear"
    op_type: "QuantizeLinear"
  }
  node {
    input: "342_quantized"
    input: "340_scale"
    input: "340_zero_point"
    output: "342_Conv_9_dequantized"
    name: "342_Conv_9_DequantizeLinear"
    op_type: "DequantizeLinear"
  }
  node {
    input: "342_Conv_9_dequantized"
    input: "ConvBnFusion_W_stage2.0.branch2.0.weight_dequantized"
    input: "ConvBnFusion_BN_B_stage2.0.branch2.1.bias_dequantized"
    output: "349_QuantizeInput"
    name: "Conv_9_quant"
    op_type: "Conv"
    attribute {
      name: "auto_pad"
      s: "NOTSET"
      type: STRING
    }
    attribute {
      name: "dilations"
      ints: 1
      ints: 1
      type: INTS
    }
    attribute {
      name: "group"
      i: 1
      type: INT
    }
    attribute {
      name: "strides"
      ints: 1
      ints: 1
      type: INTS
    }
    attribute {
      name: "kernel_shape"
      ints: 1
      ints: 1
      type: INTS
    }
    attribute {
      name: "pads"
      ints: 0
      ints: 0
      ints: 0
      ints: 0
      type: INTS
    }
  }
  node {
    input: "342_Conv_9_dequantized"
    input: "ConvBnFusion_W_stage2.0.branch1.0.weight_dequantized"
    input: "ConvBnFusion_BN_B_stage2.0.branch1.1.bias_dequantized"
    output: "344_QuantizeInput"
    name: "Conv_4_quant"
    op_type: "Conv"
    attribute {
      name: "auto_pad"
      s: "NOTSET"
      type: STRING
    }
    attribute {
      name: "dilations"
      ints: 1
      ints: 1
      type: INTS
    }
    attribute {
      name: "group"
      i: 24
      type: INT
    }
    attribute {
      name: "strides"
      ints: 2
      ints: 2
      type: INTS
    }
    attribute {
      name: "kernel_shape"
      ints: 3
      ints: 3
      type: INTS
    }
    attribute {
      name: "pads"
      ints: 1
      ints: 1
      ints: 1
      ints: 1
      type: INTS
    }
  }
  node {
    input: "349_QuantizeInput"
    input: "349_scale"
    input: "349_zero_point"
    output: "349_quantized"
    name: "349_Conv_9_QuantizeLinear"
    op_type: "QuantizeLinear"
  }
  node {
    input: "344_QuantizeInput"
    input: "344_scale"
    input: "344_zero_point"
    output: "344_quantized"
    name: "344_Conv_4_QuantizeLinear"
    op_type: "QuantizeLinear"
  }
  node {
    input: "349_quantized"
    input: "349_scale"
    input: "349_zero_point"
    output: "349_Conv_12_dequantized"
    name: "349_Conv_12_DequantizeLinear"
    op_type: "DequantizeLinear"
  }
  node {
    input: "344_quantized"
    input: "344_scale"
    input: "344_zero_point"
    output: "344_Conv_6_dequantized"
    name: "344_Conv_6_DequantizeLinear"
    op_type: "DequantizeLinear"
  }
  node {
    input: "349_Conv_12_dequantized"
    input: "ConvBnFusion_W_stage2.0.branch2.3.weight_dequantized"
    input: "ConvBnFusion_BN_B_stage2.0.branch2.4.bias_dequantized"
    output: "352_QuantizeInput"
    name: "Conv_12_quant"
    op_type: "Conv"
    attribute {
      name: "auto_pad"
      s: "NOTSET"
      type: STRING
    }
    attribute {
      name: "dilations"
      ints: 1
      ints: 1
      type: INTS
    }
    attribute {
      name: "group"
      i: 58
      type: INT
    }
    attribute {
      name: "strides"
      ints: 2
      ints: 2
      type: INTS
    }
    attribute {
      name: "kernel_shape"
      ints: 3
      ints: 3
      type: INTS
    }
    attribute {
      name: "pads"
      ints: 1
      ints: 1
      ints: 1
      ints: 1
      type: INTS
    }
  }
  node {
    input: "344_Conv_6_dequantized"
    input: "ConvBnFusion_W_stage2.0.branch1.2.weight_dequantized"
    input: "ConvBnFusion_BN_B_stage2.0.branch1.3.bias_dequantized"
    output: "346_QuantizeInput"
    name: "Conv_6_quant"
    op_type: "Conv"
    attribute {
      name: "auto_pad"
      s: "NOTSET"
      type: STRING
    }
    attribute {
      name: "dilations"
      ints: 1
      ints: 1
      type: INTS
    }
    attribute {
      name: "group"
      i: 1
      type: INT
    }
    attribute {
      name: "strides"
      ints: 1
      ints: 1
      type: INTS
    }
    attribute {
      name: "kernel_shape"
      ints: 1
      ints: 1
      type: INTS
    }
    attribute {
      name: "pads"
      ints: 0
      ints: 0
      ints: 0
      ints: 0
      type: INTS
    }
  }
  node {
    input: "352_QuantizeInput"
    input: "352_scale"
    input: "352_zero_point"
    output: "352_quantized"
    name: "352_Conv_12_QuantizeLinear"
    op_type: "QuantizeLinear"
  }
  node {
    input: "346_QuantizeInput"
    input: "346_scale"
    input: "346_zero_point"
    output: "346_quantized"
    name: "346_Conv_6_QuantizeLinear"
    op_type: "QuantizeLinear"
  }
  node {
    input: "352_quantized"
    input: "352_scale"
    input: "352_zero_point"
    output: "352_Conv_14_dequantized"
    name: "352_Conv_14_DequantizeLinear"
    op_type: "DequantizeLinear"
  }
  node {
    input: "346_quantized"
    input: "346_scale"
    input: "346_zero_point"
    output: "346_Concat_17_dequantized"
    name: "346_Concat_17_DequantizeLinear"
    op_type: "DequantizeLinear"
  }
  node {
    input: "352_Conv_14_dequantized"
    input: "ConvBnFusion_W_stage2.0.branch2.5.weight_dequantized"
    input: "ConvBnFusion_BN_B_stage2.0.branch2.6.bias_dequantized"
    output: "354_QuantizeInput"
    name: "Conv_14_quant"
    op_type: "Conv"
    attribute {
      name: "auto_pad"
      s: "NOTSET"
      type: STRING
    }
    attribute {
      name: "dilations"
      ints: 1
      ints: 1
      type: INTS
    }
    attribute {
      name: "group"
      i: 1
      type: INT
    }
    attribute {
      name: "strides"
      ints: 1
      ints: 1
      type: INTS
    }
    attribute {
      name: "kernel_shape"
      ints: 1
      ints: 1
      type: INTS
    }
    attribute {
      name: "pads"
      ints: 0
      ints: 0
      ints: 0
      ints: 0
      type: INTS
    }
  }
  node {
    input: "354_QuantizeInput"
    input: "354_scale"
    input: "354_zero_point"
    output: "354_quantized"
    name: "354_Conv_14_QuantizeLinear"
    op_type: "QuantizeLinear"
  }
  node {
    input: "354_quantized"
    input: "354_scale"
    input: "354_zero_point"
    output: "354_Concat_17_dequantized"
    name: "354_Concat_17_DequantizeLinear"
    op_type: "DequantizeLinear"
  }
  node {
    input: "346_Concat_17_dequantized"
    input: "354_Concat_17_dequantized"
    output: "356_QuantizeInput"
    name: "Concat_17_quant"
    op_type: "Concat"
    attribute {
      name: "axis"
      i: 1
      type: INT
    }
  }
  node {
    input: "356_QuantizeInput"
    input: "356_scale"
    input: "356_zero_point"
    output: "356_quantized"
    name: "356_Concat_17_QuantizeLinear"
    op_type: "QuantizeLinear"
  }
  node {
    input: "356_quantized"
    input: "356_scale"
    input: "356_zero_point"
    output: "356_Reshape_19_dequantized"
    name: "356_Reshape_19_DequantizeLinear"
    op_type: "DequantizeLinear"
  }
  node {
    input: "356_Reshape_19_dequantized"
    input: "357"
    output: "358_QuantizeInput"
    name: "Reshape_19_quant"
    op_type: "Reshape"
  }
  node {
    input: "358_QuantizeInput"
    input: "356_scale"
    input: "356_zero_point"
    output: "358_quantized"
    name: "358_Reshape_19_QuantizeLinear"
    op_type: "QuantizeLinear"
  }
  node {
    input: "358_quantized"
    input: "356_scale"
    input: "356_zero_point"
    output: "358_Transpose_20_dequantized"
    name: "358_Transpose_20_DequantizeLinear"
    op_type: "DequantizeLinear"
  }
  node {
    input: "358_Transpose_20_dequantized"
    output: "359_QuantizeInput"
    name: "Transpose_20_quant"
    op_type: "Transpose"
    attribute {
      name: "perm"
      ints: 0
      ints: 2
      ints: 1
      ints: 3
      ints: 4
      type: INTS
    }
  }
  node {
    input: "359_QuantizeInput"
    input: "356_scale"
    input: "356_zero_point"
    output: "359_quantized"
    name: "359_Transpose_20_QuantizeLinear"
    op_type: "QuantizeLinear"
  }
  node {
    input: "359_quantized"
    input: "356_scale"
    input: "356_zero_point"
    output: "359_Reshape_22_dequantized"
    name: "359_Reshape_22_DequantizeLinear"
    op_type: "DequantizeLinear"
  }
  node {
    input: "359_Reshape_22_dequantized"
    input: "360"
    output: "361_QuantizeInput"
    name: "Reshape_22_quant"
    op_type: "Reshape"
  }
  node {
    input: "361_QuantizeInput"
    input: "356_scale"
    input: "356_zero_point"
    output: "361_quantized"
    name: "361_Reshape_22_QuantizeLinear"
    op_type: "QuantizeLinear"
  }
  node {
    input: "361_quantized"
    input: "356_scale"
    input: "356_zero_point"
    output: "361_Split_23_dequantized"
    name: "361_Split_23_DequantizeLinear"
    op_type: "DequantizeLinear"
  }
  node {
    input: "361_Split_23_dequantized"
    output: "362_QuantizeInput"
    output: "363_QuantizeInput"
    name: "Split_23_quant"
    op_type: "Split"
    attribute {
      name: "split"
      ints: 58
      ints: 58
      type: INTS
    }
    attribute {
      name: "axis"
      i: 1
      type: INT
    }
  }
  node {
    input: "362_QuantizeInput"
    input: "356_scale"
    input: "356_zero_point"
    output: "362_quantized"
    name: "362_Split_23_QuantizeLinear"
    op_type: "QuantizeLinear"
  }
  node {
    input: "363_QuantizeInput"
    input: "356_scale"
    input: "356_zero_point"
    output: "363_quantized"
    name: "363_Split_23_QuantizeLinear"
    op_type: "QuantizeLinear"
  }
  node {
    input: "362_quantized"
    input: "356_scale"
    input: "356_zero_point"
    output: "362_Concat_32_dequantized"
    name: "362_Concat_32_DequantizeLinear"
    op_type: "DequantizeLinear"
  }
  node {
    input: "363_quantized"
    input: "356_scale"
    input: "356_zero_point"
    output: "363_Conv_24_dequantized"
    name: "363_Conv_24_DequantizeLinear"
    op_type: "DequantizeLinear"
  }
  node {
    input: "363_Conv_24_dequantized"
    input: "ConvBnFusion_W_stage2.1.branch2.0.weight_dequantized"
    input: "ConvBnFusion_BN_B_stage2.1.branch2.1.bias_dequantized"
    output: "365_QuantizeInput"
    name: "Conv_24_quant"
    op_type: "Conv"
    attribute {
      name: "auto_pad"
      s: "NOTSET"
      type: STRING
    }
    attribute {
      name: "dilations"
      ints: 1
      ints: 1
      type: INTS
    }
    attribute {
      name: "group"
      i: 1
      type: INT
    }
    attribute {
      name: "strides"
      ints: 1
      ints: 1
      type: INTS
    }
    attribute {
      name: "kernel_shape"
      ints: 1
      ints: 1
      type: INTS
    }
    attribute {
      name: "pads"
      ints: 0
      ints: 0
      ints: 0
      ints: 0
      type: INTS
    }
  }
  node {
    input: "365_QuantizeInput"
    input: "365_scale"
    input: "365_zero_point"
    output: "365_quantized"
    name: "365_Conv_24_QuantizeLinear"
    op_type: "QuantizeLinear"
  }
  node {
    input: "365_quantized"
    input: "365_scale"
    input: "365_zero_point"
    output: "365_Conv_27_dequantized"
    name: "365_Conv_27_DequantizeLinear"
    op_type: "DequantizeLinear"
  }
  node {
    input: "365_Conv_27_dequantized"
    input: "ConvBnFusion_W_stage2.1.branch2.3.weight_dequantized"
    input: "ConvBnFusion_BN_B_stage2.1.branch2.4.bias_dequantized"
    output: "368_QuantizeInput"
    name: "Conv_27_quant"
    op_type: "Conv"
    attribute {
      name: "auto_pad"
      s: "NOTSET"
      type: STRING
    }
    attribute {
      name: "dilations"
      ints: 1
      ints: 1
      type: INTS
    }
    attribute {
      name: "group"
      i: 58
      type: INT
    }
    attribute {
      name: "strides"
      ints: 1
      ints: 1
      type: INTS
    }
    attribute {
      name: "kernel_shape"
      ints: 3
      ints: 3
      type: INTS
    }
    attribute {
      name: "pads"
      ints: 1
      ints: 1
      ints: 1
      ints: 1
      type: INTS
    }
  }
  node {
    input: "368_QuantizeInput"
    input: "368_scale"
    input: "368_zero_point"
    output: "368_quantized"
    name: "368_Conv_27_QuantizeLinear"
    op_type: "QuantizeLinear"
  }
  node {
    input: "368_quantized"
    input: "368_scale"
    input: "368_zero_point"
    output: "368_Conv_29_dequantized"
    name: "368_Conv_29_DequantizeLinear"
    op_type: "DequantizeLinear"
  }
  node {
    input: "368_Conv_29_dequantized"
    input: "ConvBnFusion_W_stage2.1.branch2.5.weight_dequantized"
    input: "ConvBnFusion_BN_B_stage2.1.branch2.6.bias_dequantized"
    output: "370_QuantizeInput"
    name: "Conv_29_quant"
    op_type: "Conv"
    attribute {
      name: "auto_pad"
      s: "NOTSET"
      type: STRING
    }
    attribute {
      name: "dilations"
      ints: 1
      ints: 1
      type: INTS
    }
    attribute {
      name: "group"
      i: 1
      type: INT
    }
    attribute {
      name: "strides"
      ints: 1
      ints: 1
      type: INTS
    }
    attribute {
      name: "kernel_shape"
      ints: 1
      ints: 1
      type: INTS
    }
    attribute {
      name: "pads"
      ints: 0
      ints: 0
      ints: 0
      ints: 0
      type: INTS
    }
  }
  node {
    input: "370_QuantizeInput"
    input: "370_scale"
    input: "370_zero_point"
    output: "370_quantized"
    name: "370_Conv_29_QuantizeLinear"
    op_type: "QuantizeLinear"
  }
  node {
    input: "370_quantized"
    input: "370_scale"
    input: "370_zero_point"
    output: "370_Concat_32_dequantized"
    name: "370_Concat_32_DequantizeLinear"
    op_type: "DequantizeLinear"
  }
  node {
    input: "362_Concat_32_dequantized"
    input: "370_Concat_32_dequantized"
    output: "372_QuantizeInput"
    name: "Concat_32_quant"
    op_type: "Concat"
    attribute {
      name: "axis"
      i: 1
      type: INT
    }
  }
  node {
    input: "372_QuantizeInput"
    input: "372_scale"
    input: "372_zero_point"
    output: "372_quantized"
    name: "372_Concat_32_QuantizeLinear"
    op_type: "QuantizeLinear"
  }
  node {
    input: "372_quantized"
    input: "372_scale"
    input: "372_zero_point"
    output: "372_Reshape_34_dequantized"
    name: "372_Reshape_34_DequantizeLinear"
    op_type: "DequantizeLinear"
  }
  node {
    input: "372_Reshape_34_dequantized"
    input: "373"
    output: "374_QuantizeInput"
    name: "Reshape_34_quant"
    op_type: "Reshape"
  }
  node {
    input: "374_QuantizeInput"
    input: "372_scale"
    input: "372_zero_point"
    output: "374_quantized"
    name: "374_Reshape_34_QuantizeLinear"
    op_type: "QuantizeLinear"
  }
  node {
    input: "374_quantized"
    input: "372_scale"
    input: "372_zero_point"
    output: "374_Transpose_35_dequantized"
    name: "374_Transpose_35_DequantizeLinear"
    op_type: "DequantizeLinear"
  }
  node {
    input: "374_Transpose_35_dequantized"
    output: "375_QuantizeInput"
    name: "Transpose_35_quant"
    op_type: "Transpose"
    attribute {
      name: "perm"
      ints: 0
      ints: 2
      ints: 1
      ints: 3
      ints: 4
      type: INTS
    }
  }
  node {
    input: "375_QuantizeInput"
    input: "372_scale"
    input: "372_zero_point"
    output: "375_quantized"
    name: "375_Transpose_35_QuantizeLinear"
    op_type: "QuantizeLinear"
  }
  node {
    input: "375_quantized"
    input: "372_scale"
    input: "372_zero_point"
    output: "375_Reshape_37_dequantized"
    name: "375_Reshape_37_DequantizeLinear"
    op_type: "DequantizeLinear"
  }
  node {
    input: "375_Reshape_37_dequantized"
    input: "376"
    output: "377_QuantizeInput"
    name: "Reshape_37_quant"
    op_type: "Reshape"
  }
  node {
    input: "377_QuantizeInput"
    input: "372_scale"
    input: "372_zero_point"
    output: "377_quantized"
    name: "377_Reshape_37_QuantizeLinear"
    op_type: "QuantizeLinear"
  }
  node {
    input: "377_quantized"
    input: "372_scale"
    input: "372_zero_point"
    output: "377_Split_38_dequantized"
    name: "377_Split_38_DequantizeLinear"
    op_type: "DequantizeLinear"
  }
  node {
    input: "377_Split_38_dequantized"
    output: "378_QuantizeInput"
    output: "379_QuantizeInput"
    name: "Split_38_quant"
    op_type: "Split"
    attribute {
      name: "split"
      ints: 58
      ints: 58
      type: INTS
    }
    attribute {
      name: "axis"
      i: 1
      type: INT
    }
  }
  node {
    input: "378_QuantizeInput"
    input: "372_scale"
    input: "372_zero_point"
    output: "378_quantized"
    name: "378_Split_38_QuantizeLinear"
    op_type: "QuantizeLinear"
  }
  node {
    input: "379_QuantizeInput"
    input: "372_scale"
    input: "372_zero_point"
    output: "379_quantized"
    name: "379_Split_38_QuantizeLinear"
    op_type: "QuantizeLinear"
  }
  node {
    input: "378_quantized"
    input: "372_scale"
    input: "372_zero_point"
    output: "378_Concat_47_dequantized"
    name: "378_Concat_47_DequantizeLinear"
    op_type: "DequantizeLinear"
  }
  node {
    input: "379_quantized"
    input: "372_scale"
    input: "372_zero_point"
    output: "379_Conv_39_dequantized"
    name: "379_Conv_39_DequantizeLinear"
    op_type: "DequantizeLinear"
  }
  node {
    input: "379_Conv_39_dequantized"
    input: "ConvBnFusion_W_stage2.2.branch2.0.weight_dequantized"
    input: "ConvBnFusion_BN_B_stage2.2.branch2.1.bias_dequantized"
    output: "381_QuantizeInput"
    name: "Conv_39_quant"
    op_type: "Conv"
    attribute {
      name: "auto_pad"
      s: "NOTSET"
      type: STRING
    }
    attribute {
      name: "dilations"
      ints: 1
      ints: 1
      type: INTS
    }
    attribute {
      name: "group"
      i: 1
      type: INT
    }
    attribute {
      name: "strides"
      ints: 1
      ints: 1
      type: INTS
    }
    attribute {
      name: "kernel_shape"
      ints: 1
      ints: 1
      type: INTS
    }
    attribute {
      name: "pads"
      ints: 0
      ints: 0
      ints: 0
      ints: 0
      type: INTS
    }
  }
  node {
    input: "381_QuantizeInput"
    input: "381_scale"
    input: "381_zero_point"
    output: "381_quantized"
    name: "381_Conv_39_QuantizeLinear"
    op_type: "QuantizeLinear"
  }
  node {
    input: "381_quantized"
    input: "381_scale"
    input: "381_zero_point"
    output: "381_Conv_42_dequantized"
    name: "381_Conv_42_DequantizeLinear"
    op_type: "DequantizeLinear"
  }
  node {
    input: "381_Conv_42_dequantized"
    input: "ConvBnFusion_W_stage2.2.branch2.3.weight_dequantized"
    input: "ConvBnFusion_BN_B_stage2.2.branch2.4.bias_dequantized"
    output: "384_QuantizeInput"
    name: "Conv_42_quant"
    op_type: "Conv"
    attribute {
      name: "auto_pad"
      s: "NOTSET"
      type: STRING
    }
    attribute {
      name: "dilations"
      ints: 1
      ints: 1
      type: INTS
    }
    attribute {
      name: "group"
      i: 58
      type: INT
    }
    attribute {
      name: "strides"
      ints: 1
      ints: 1
      type: INTS
    }
    attribute {
      name: "kernel_shape"
      ints: 3
      ints: 3
      type: INTS
    }
    attribute {
      name: "pads"
      ints: 1
      ints: 1
      ints: 1
      ints: 1
      type: INTS
    }
  }
  node {
    input: "384_QuantizeInput"
    input: "384_scale"
    input: "384_zero_point"
    output: "384_quantized"
    name: "384_Conv_42_QuantizeLinear"
    op_type: "QuantizeLinear"
  }
  node {
    input: "384_quantized"
    input: "384_scale"
    input: "384_zero_point"
    output: "384_Conv_44_dequantized"
    name: "384_Conv_44_DequantizeLinear"
    op_type: "DequantizeLinear"
  }
  node {
    input: "384_Conv_44_dequantized"
    input: "ConvBnFusion_W_stage2.2.branch2.5.weight_dequantized"
    input: "ConvBnFusion_BN_B_stage2.2.branch2.6.bias_dequantized"
    output: "386_QuantizeInput"
    name: "Conv_44_quant"
    op_type: "Conv"
    attribute {
      name: "auto_pad"
      s: "NOTSET"
      type: STRING
    }
    attribute {
      name: "dilations"
      ints: 1
      ints: 1
      type: INTS
    }
    attribute {
      name: "group"
      i: 1
      type: INT
    }
    attribute {
      name: "strides"
      ints: 1
      ints: 1
      type: INTS
    }
    attribute {
      name: "kernel_shape"
      ints: 1
      ints: 1
      type: INTS
    }
    attribute {
      name: "pads"
      ints: 0
      ints: 0
      ints: 0
      ints: 0
      type: INTS
    }
  }
  node {
    input: "386_QuantizeInput"
    input: "386_scale"
    input: "386_zero_point"
    output: "386_quantized"
    name: "386_Conv_44_QuantizeLinear"
    op_type: "QuantizeLinear"
  }
  node {
    input: "386_quantized"
    input: "386_scale"
    input: "386_zero_point"
    output: "386_Concat_47_dequantized"
    name: "386_Concat_47_DequantizeLinear"
    op_type: "DequantizeLinear"
  }
  node {
    input: "378_Concat_47_dequantized"
    input: "386_Concat_47_dequantized"
    output: "388_QuantizeInput"
    name: "Concat_47_quant"
    op_type: "Concat"
    attribute {
      name: "axis"
      i: 1
      type: INT
    }
  }
  node {
    input: "388_QuantizeInput"
    input: "388_scale"
    input: "388_zero_point"
    output: "388_quantized"
    name: "388_Concat_47_QuantizeLinear"
    op_type: "QuantizeLinear"
  }
  node {
    input: "388_quantized"
    input: "388_scale"
    input: "388_zero_point"
    output: "388_Reshape_49_dequantized"
    name: "388_Reshape_49_DequantizeLinear"
    op_type: "DequantizeLinear"
  }
  node {
    input: "388_Reshape_49_dequantized"
    input: "389"
    output: "390_QuantizeInput"
    name: "Reshape_49_quant"
    op_type: "Reshape"
  }
  node {
    input: "390_QuantizeInput"
    input: "388_scale"
    input: "388_zero_point"
    output: "390_quantized"
    name: "390_Reshape_49_QuantizeLinear"
    op_type: "QuantizeLinear"
  }
  node {
    input: "390_quantized"
    input: "388_scale"
    input: "388_zero_point"
    output: "390_Transpose_50_dequantized"
    name: "390_Transpose_50_DequantizeLinear"
    op_type: "DequantizeLinear"
  }
  node {
    input: "390_Transpose_50_dequantized"
    output: "391_QuantizeInput"
    name: "Transpose_50_quant"
    op_type: "Transpose"
    attribute {
      name: "perm"
      ints: 0
      ints: 2
      ints: 1
      ints: 3
      ints: 4
      type: INTS
    }
  }
  node {
    input: "391_QuantizeInput"
    input: "388_scale"
    input: "388_zero_point"
    output: "391_quantized"
    name: "391_Transpose_50_QuantizeLinear"
    op_type: "QuantizeLinear"
  }
  node {
    input: "391_quantized"
    input: "388_scale"
    input: "388_zero_point"
    output: "391_Reshape_52_dequantized"
    name: "391_Reshape_52_DequantizeLinear"
    op_type: "DequantizeLinear"
  }
  node {
    input: "391_Reshape_52_dequantized"
    input: "392"
    output: "393_QuantizeInput"
    name: "Reshape_52_quant"
    op_type: "Reshape"
  }
  node {
    input: "393_QuantizeInput"
    input: "388_scale"
    input: "388_zero_point"
    output: "393_quantized"
    name: "393_Reshape_52_QuantizeLinear"
    op_type: "QuantizeLinear"
  }
  node {
    input: "393_quantized"
    input: "388_scale"
    input: "388_zero_point"
    output: "393_Split_53_dequantized"
    name: "393_Split_53_DequantizeLinear"
    op_type: "DequantizeLinear"
  }
  node {
    input: "393_Split_53_dequantized"
    output: "394_QuantizeInput"
    output: "395_QuantizeInput"
    name: "Split_53_quant"
    op_type: "Split"
    attribute {
      name: "split"
      ints: 58
      ints: 58
      type: INTS
    }
    attribute {
      name: "axis"
      i: 1
      type: INT
    }
  }
  node {
    input: "394_QuantizeInput"
    input: "388_scale"
    input: "388_zero_point"
    output: "394_quantized"
    name: "394_Split_53_QuantizeLinear"
    op_type: "QuantizeLinear"
  }
  node {
    input: "395_QuantizeInput"
    input: "388_scale"
    input: "388_zero_point"
    output: "395_quantized"
    name: "395_Split_53_QuantizeLinear"
    op_type: "QuantizeLinear"
  }
  node {
    input: "394_quantized"
    input: "388_scale"
    input: "388_zero_point"
    output: "394_Concat_62_dequantized"
    name: "394_Concat_62_DequantizeLinear"
    op_type: "DequantizeLinear"
  }
  node {
    input: "395_quantized"
    input: "388_scale"
    input: "388_zero_point"
    output: "395_Conv_54_dequantized"
    name: "395_Conv_54_DequantizeLinear"
    op_type: "DequantizeLinear"
  }
  node {
    input: "395_Conv_54_dequantized"
    input: "ConvBnFusion_W_stage2.3.branch2.0.weight_dequantized"
    input: "ConvBnFusion_BN_B_stage2.3.branch2.1.bias_dequantized"
    output: "397_QuantizeInput"
    name: "Conv_54_quant"
    op_type: "Conv"
    attribute {
      name: "auto_pad"
      s: "NOTSET"
      type: STRING
    }
    attribute {
      name: "dilations"
      ints: 1
      ints: 1
      type: INTS
    }
    attribute {
      name: "group"
      i: 1
      type: INT
    }
    attribute {
      name: "strides"
      ints: 1
      ints: 1
      type: INTS
    }
    attribute {
      name: "kernel_shape"
      ints: 1
      ints: 1
      type: INTS
    }
    attribute {
      name: "pads"
      ints: 0
      ints: 0
      ints: 0
      ints: 0
      type: INTS
    }
  }
  node {
    input: "397_QuantizeInput"
    input: "397_scale"
    input: "397_zero_point"
    output: "397_quantized"
    name: "397_Conv_54_QuantizeLinear"
    op_type: "QuantizeLinear"
  }
  node {
    input: "397_quantized"
    input: "397_scale"
    input: "397_zero_point"
    output: "397_Conv_57_dequantized"
    name: "397_Conv_57_DequantizeLinear"
    op_type: "DequantizeLinear"
  }
  node {
    input: "397_Conv_57_dequantized"
    input: "ConvBnFusion_W_stage2.3.branch2.3.weight_dequantized"
    input: "ConvBnFusion_BN_B_stage2.3.branch2.4.bias_dequantized"
    output: "400_QuantizeInput"
    name: "Conv_57_quant"
    op_type: "Conv"
    attribute {
      name: "auto_pad"
      s: "NOTSET"
      type: STRING
    }
    attribute {
      name: "dilations"
      ints: 1
      ints: 1
      type: INTS
    }
    attribute {
      name: "group"
      i: 58
      type: INT
    }
    attribute {
      name: "strides"
      ints: 1
      ints: 1
      type: INTS
    }
    attribute {
      name: "kernel_shape"
      ints: 3
      ints: 3
      type: INTS
    }
    attribute {
      name: "pads"
      ints: 1
      ints: 1
      ints: 1
      ints: 1
      type: INTS
    }
  }
  node {
    input: "400_QuantizeInput"
    input: "400_scale"
    input: "400_zero_point"
    output: "400_quantized"
    name: "400_Conv_57_QuantizeLinear"
    op_type: "QuantizeLinear"
  }
  node {
    input: "400_quantized"
    input: "400_scale"
    input: "400_zero_point"
    output: "400_Conv_59_dequantized"
    name: "400_Conv_59_DequantizeLinear"
    op_type: "DequantizeLinear"
  }
  node {
    input: "400_Conv_59_dequantized"
    input: "ConvBnFusion_W_stage2.3.branch2.5.weight_dequantized"
    input: "ConvBnFusion_BN_B_stage2.3.branch2.6.bias_dequantized"
    output: "402_QuantizeInput"
    name: "Conv_59_quant"
    op_type: "Conv"
    attribute {
      name: "auto_pad"
      s: "NOTSET"
      type: STRING
    }
    attribute {
      name: "dilations"
      ints: 1
      ints: 1
      type: INTS
    }
    attribute {
      name: "group"
      i: 1
      type: INT
    }
    attribute {
      name: "strides"
      ints: 1
      ints: 1
      type: INTS
    }
    attribute {
      name: "kernel_shape"
      ints: 1
      ints: 1
      type: INTS
    }
    attribute {
      name: "pads"
      ints: 0
      ints: 0
      ints: 0
      ints: 0
      type: INTS
    }
  }
  node {
    input: "402_QuantizeInput"
    input: "402_scale"
    input: "402_zero_point"
    output: "402_quantized"
    name: "402_Conv_59_QuantizeLinear"
    op_type: "QuantizeLinear"
  }
  node {
    input: "402_quantized"
    input: "402_scale"
    input: "402_zero_point"
    output: "402_Concat_62_dequantized"
    name: "402_Concat_62_DequantizeLinear"
    op_type: "DequantizeLinear"
  }
  node {
    input: "394_Concat_62_dequantized"
    input: "402_Concat_62_dequantized"
    output: "404_QuantizeInput"
    name: "Concat_62_quant"
    op_type: "Concat"
    attribute {
      name: "axis"
      i: 1
      type: INT
    }
  }
  node {
    input: "404_QuantizeInput"
    input: "404_scale"
    input: "404_zero_point"
    output: "404_quantized"
    name: "404_Concat_62_QuantizeLinear"
    op_type: "QuantizeLinear"
  }
  node {
    input: "404_quantized"
    input: "404_scale"
    input: "404_zero_point"
    output: "404_Reshape_64_dequantized"
    name: "404_Reshape_64_DequantizeLinear"
    op_type: "DequantizeLinear"
  }
  node {
    input: "404_Reshape_64_dequantized"
    input: "405"
    output: "406_QuantizeInput"
    name: "Reshape_64_quant"
    op_type: "Reshape"
  }
  node {
    input: "406_QuantizeInput"
    input: "404_scale"
    input: "404_zero_point"
    output: "406_quantized"
    name: "406_Reshape_64_QuantizeLinear"
    op_type: "QuantizeLinear"
  }
  node {
    input: "406_quantized"
    input: "404_scale"
    input: "404_zero_point"
    output: "406_Transpose_65_dequantized"
    name: "406_Transpose_65_DequantizeLinear"
    op_type: "DequantizeLinear"
  }
  node {
    input: "406_Transpose_65_dequantized"
    output: "407_QuantizeInput"
    name: "Transpose_65_quant"
    op_type: "Transpose"
    attribute {
      name: "perm"
      ints: 0
      ints: 2
      ints: 1
      ints: 3
      ints: 4
      type: INTS
    }
  }
  node {
    input: "407_QuantizeInput"
    input: "404_scale"
    input: "404_zero_point"
    output: "407_quantized"
    name: "407_Transpose_65_QuantizeLinear"
    op_type: "QuantizeLinear"
  }
  node {
    input: "407_quantized"
    input: "404_scale"
    input: "404_zero_point"
    output: "407_Reshape_67_dequantized"
    name: "407_Reshape_67_DequantizeLinear"
    op_type: "DequantizeLinear"
  }
  node {
    input: "407_Reshape_67_dequantized"
    input: "408"
    output: "409_QuantizeInput"
    name: "Reshape_67_quant"
    op_type: "Reshape"
  }
  node {
    input: "409_QuantizeInput"
    input: "404_scale"
    input: "404_zero_point"
    output: "409_quantized"
    name: "409_Reshape_67_QuantizeLinear"
    op_type: "QuantizeLinear"
  }
  node {
    input: "409_quantized"
    input: "404_scale"
    input: "404_zero_point"
    output: "409_Conv_73_dequantized"
    name: "409_Conv_73_DequantizeLinear"
    op_type: "DequantizeLinear"
  }
  node {
    input: "409_Conv_73_dequantized"
    input: "ConvBnFusion_W_stage3.0.branch2.0.weight_dequantized"
    input: "ConvBnFusion_BN_B_stage3.0.branch2.1.bias_dequantized"
    output: "416_QuantizeInput"
    name: "Conv_73_quant"
    op_type: "Conv"
    attribute {
      name: "auto_pad"
      s: "NOTSET"
      type: STRING
    }
    attribute {
      name: "dilations"
      ints: 1
      ints: 1
      type: INTS
    }
    attribute {
      name: "group"
      i: 1
      type: INT
    }
    attribute {
      name: "strides"
      ints: 1
      ints: 1
      type: INTS
    }
    attribute {
      name: "kernel_shape"
      ints: 1
      ints: 1
      type: INTS
    }
    attribute {
      name: "pads"
      ints: 0
      ints: 0
      ints: 0
      ints: 0
      type: INTS
    }
  }
  node {
    input: "409_Conv_73_dequantized"
    input: "ConvBnFusion_W_stage3.0.branch1.0.weight_dequantized"
    input: "ConvBnFusion_BN_B_stage3.0.branch1.1.bias_dequantized"
    output: "411_QuantizeInput"
    name: "Conv_68_quant"
    op_type: "Conv"
    attribute {
      name: "auto_pad"
      s: "NOTSET"
      type: STRING
    }
    attribute {
      name: "dilations"
      ints: 1
      ints: 1
      type: INTS
    }
    attribute {
      name: "group"
      i: 116
      type: INT
    }
    attribute {
      name: "strides"
      ints: 2
      ints: 2
      type: INTS
    }
    attribute {
      name: "kernel_shape"
      ints: 3
      ints: 3
      type: INTS
    }
    attribute {
      name: "pads"
      ints: 1
      ints: 1
      ints: 1
      ints: 1
      type: INTS
    }
  }
  node {
    input: "416_QuantizeInput"
    input: "416_scale"
    input: "416_zero_point"
    output: "416_quantized"
    name: "416_Conv_73_QuantizeLinear"
    op_type: "QuantizeLinear"
  }
  node {
    input: "411_QuantizeInput"
    input: "411_scale"
    input: "411_zero_point"
    output: "411_quantized"
    name: "411_Conv_68_QuantizeLinear"
    op_type: "QuantizeLinear"
  }
  node {
    input: "416_quantized"
    input: "416_scale"
    input: "416_zero_point"
    output: "416_Conv_76_dequantized"
    name: "416_Conv_76_DequantizeLinear"
    op_type: "DequantizeLinear"
  }
  node {
    input: "411_quantized"
    input: "411_scale"
    input: "411_zero_point"
    output: "411_Conv_70_dequantized"
    name: "411_Conv_70_DequantizeLinear"
    op_type: "DequantizeLinear"
  }
  node {
    input: "416_Conv_76_dequantized"
    input: "ConvBnFusion_W_stage3.0.branch2.3.weight_dequantized"
    input: "ConvBnFusion_BN_B_stage3.0.branch2.4.bias_dequantized"
    output: "419_QuantizeInput"
    name: "Conv_76_quant"
    op_type: "Conv"
    attribute {
      name: "auto_pad"
      s: "NOTSET"
      type: STRING
    }
    attribute {
      name: "dilations"
      ints: 1
      ints: 1
      type: INTS
    }
    attribute {
      name: "group"
      i: 116
      type: INT
    }
    attribute {
      name: "strides"
      ints: 2
      ints: 2
      type: INTS
    }
    attribute {
      name: "kernel_shape"
      ints: 3
      ints: 3
      type: INTS
    }
    attribute {
      name: "pads"
      ints: 1
      ints: 1
      ints: 1
      ints: 1
      type: INTS
    }
  }
  node {
    input: "411_Conv_70_dequantized"
    input: "ConvBnFusion_W_stage3.0.branch1.2.weight_dequantized"
    input: "ConvBnFusion_BN_B_stage3.0.branch1.3.bias_dequantized"
    output: "413_QuantizeInput"
    name: "Conv_70_quant"
    op_type: "Conv"
    attribute {
      name: "auto_pad"
      s: "NOTSET"
      type: STRING
    }
    attribute {
      name: "dilations"
      ints: 1
      ints: 1
      type: INTS
    }
    attribute {
      name: "group"
      i: 1
      type: INT
    }
    attribute {
      name: "strides"
      ints: 1
      ints: 1
      type: INTS
    }
    attribute {
      name: "kernel_shape"
      ints: 1
      ints: 1
      type: INTS
    }
    attribute {
      name: "pads"
      ints: 0
      ints: 0
      ints: 0
      ints: 0
      type: INTS
    }
  }
  node {
    input: "419_QuantizeInput"
    input: "419_scale"
    input: "419_zero_point"
    output: "419_quantized"
    name: "419_Conv_76_QuantizeLinear"
    op_type: "QuantizeLinear"
  }
  node {
    input: "413_QuantizeInput"
    input: "413_scale"
    input: "413_zero_point"
    output: "413_quantized"
    name: "413_Conv_70_QuantizeLinear"
    op_type: "QuantizeLinear"
  }
  node {
    input: "419_quantized"
    input: "419_scale"
    input: "419_zero_point"
    output: "419_Conv_78_dequantized"
    name: "419_Conv_78_DequantizeLinear"
    op_type: "DequantizeLinear"
  }
  node {
    input: "413_quantized"
    input: "413_scale"
    input: "413_zero_point"
    output: "413_Concat_81_dequantized"
    name: "413_Concat_81_DequantizeLinear"
    op_type: "DequantizeLinear"
  }
  node {
    input: "419_Conv_78_dequantized"
    input: "ConvBnFusion_W_stage3.0.branch2.5.weight_dequantized"
    input: "ConvBnFusion_BN_B_stage3.0.branch2.6.bias_dequantized"
    output: "421_QuantizeInput"
    name: "Conv_78_quant"
    op_type: "Conv"
    attribute {
      name: "auto_pad"
      s: "NOTSET"
      type: STRING
    }
    attribute {
      name: "dilations"
      ints: 1
      ints: 1
      type: INTS
    }
    attribute {
      name: "group"
      i: 1
      type: INT
    }
    attribute {
      name: "strides"
      ints: 1
      ints: 1
      type: INTS
    }
    attribute {
      name: "kernel_shape"
      ints: 1
      ints: 1
      type: INTS
    }
    attribute {
      name: "pads"
      ints: 0
      ints: 0
      ints: 0
      ints: 0
      type: INTS
    }
  }
  node {
    input: "421_QuantizeInput"
    input: "421_scale"
    input: "421_zero_point"
    output: "421_quantized"
    name: "421_Conv_78_QuantizeLinear"
    op_type: "QuantizeLinear"
  }
  node {
    input: "421_quantized"
    input: "421_scale"
    input: "421_zero_point"
    output: "421_Concat_81_dequantized"
    name: "421_Concat_81_DequantizeLinear"
    op_type: "DequantizeLinear"
  }
  node {
    input: "413_Concat_81_dequantized"
    input: "421_Concat_81_dequantized"
    output: "423_QuantizeInput"
    name: "Concat_81_quant"
    op_type: "Concat"
    attribute {
      name: "axis"
      i: 1
      type: INT
    }
  }
  node {
    input: "423_QuantizeInput"
    input: "423_scale"
    input: "423_zero_point"
    output: "423_quantized"
    name: "423_Concat_81_QuantizeLinear"
    op_type: "QuantizeLinear"
  }
  node {
    input: "423_quantized"
    input: "423_scale"
    input: "423_zero_point"
    output: "423_Reshape_83_dequantized"
    name: "423_Reshape_83_DequantizeLinear"
    op_type: "DequantizeLinear"
  }
  node {
    input: "423_Reshape_83_dequantized"
    input: "424"
    output: "425_QuantizeInput"
    name: "Reshape_83_quant"
    op_type: "Reshape"
  }
  node {
    input: "425_QuantizeInput"
    input: "423_scale"
    input: "423_zero_point"
    output: "425_quantized"
    name: "425_Reshape_83_QuantizeLinear"
    op_type: "QuantizeLinear"
  }
  node {
    input: "425_quantized"
    input: "423_scale"
    input: "423_zero_point"
    output: "425_Transpose_84_dequantized"
    name: "425_Transpose_84_DequantizeLinear"
    op_type: "DequantizeLinear"
  }
  node {
    input: "425_Transpose_84_dequantized"
    output: "426_QuantizeInput"
    name: "Transpose_84_quant"
    op_type: "Transpose"
    attribute {
      name: "perm"
      ints: 0
      ints: 2
      ints: 1
      ints: 3
      ints: 4
      type: INTS
    }
  }
  node {
    input: "426_QuantizeInput"
    input: "423_scale"
    input: "423_zero_point"
    output: "426_quantized"
    name: "426_Transpose_84_QuantizeLinear"
    op_type: "QuantizeLinear"
  }
  node {
    input: "426_quantized"
    input: "423_scale"
    input: "423_zero_point"
    output: "426_Reshape_86_dequantized"
    name: "426_Reshape_86_DequantizeLinear"
    op_type: "DequantizeLinear"
  }
  node {
    input: "426_Reshape_86_dequantized"
    input: "427"
    output: "428_QuantizeInput"
    name: "Reshape_86_quant"
    op_type: "Reshape"
  }
  node {
    input: "428_QuantizeInput"
    input: "423_scale"
    input: "423_zero_point"
    output: "428_quantized"
    name: "428_Reshape_86_QuantizeLinear"
    op_type: "QuantizeLinear"
  }
  node {
    input: "428_quantized"
    input: "423_scale"
    input: "423_zero_point"
    output: "428_Split_87_dequantized"
    name: "428_Split_87_DequantizeLinear"
    op_type: "DequantizeLinear"
  }
  node {
    input: "428_Split_87_dequantized"
    output: "429_QuantizeInput"
    output: "430_QuantizeInput"
    name: "Split_87_quant"
    op_type: "Split"
    attribute {
      name: "split"
      ints: 116
      ints: 116
      type: INTS
    }
    attribute {
      name: "axis"
      i: 1
      type: INT
    }
  }
  node {
    input: "429_QuantizeInput"
    input: "423_scale"
    input: "423_zero_point"
    output: "429_quantized"
    name: "429_Split_87_QuantizeLinear"
    op_type: "QuantizeLinear"
  }
  node {
    input: "430_QuantizeInput"
    input: "423_scale"
    input: "423_zero_point"
    output: "430_quantized"
    name: "430_Split_87_QuantizeLinear"
    op_type: "QuantizeLinear"
  }
  node {
    input: "429_quantized"
    input: "423_scale"
    input: "423_zero_point"
    output: "429_Concat_96_dequantized"
    name: "429_Concat_96_DequantizeLinear"
    op_type: "DequantizeLinear"
  }
  node {
    input: "430_quantized"
    input: "423_scale"
    input: "423_zero_point"
    output: "430_Conv_88_dequantized"
    name: "430_Conv_88_DequantizeLinear"
    op_type: "DequantizeLinear"
  }
  node {
    input: "430_Conv_88_dequantized"
    input: "ConvBnFusion_W_stage3.1.branch2.0.weight_dequantized"
    input: "ConvBnFusion_BN_B_stage3.1.branch2.1.bias_dequantized"
    output: "432_QuantizeInput"
    name: "Conv_88_quant"
    op_type: "Conv"
    attribute {
      name: "auto_pad"
      s: "NOTSET"
      type: STRING
    }
    attribute {
      name: "dilations"
      ints: 1
      ints: 1
      type: INTS
    }
    attribute {
      name: "group"
      i: 1
      type: INT
    }
    attribute {
      name: "strides"
      ints: 1
      ints: 1
      type: INTS
    }
    attribute {
      name: "kernel_shape"
      ints: 1
      ints: 1
      type: INTS
    }
    attribute {
      name: "pads"
      ints: 0
      ints: 0
      ints: 0
      ints: 0
      type: INTS
    }
  }
  node {
    input: "432_QuantizeInput"
    input: "432_scale"
    input: "432_zero_point"
    output: "432_quantized"
    name: "432_Conv_88_QuantizeLinear"
    op_type: "QuantizeLinear"
  }
  node {
    input: "432_quantized"
    input: "432_scale"
    input: "432_zero_point"
    output: "432_Conv_91_dequantized"
    name: "432_Conv_91_DequantizeLinear"
    op_type: "DequantizeLinear"
  }
  node {
    input: "432_Conv_91_dequantized"
    input: "ConvBnFusion_W_stage3.1.branch2.3.weight_dequantized"
    input: "ConvBnFusion_BN_B_stage3.1.branch2.4.bias_dequantized"
    output: "435_QuantizeInput"
    name: "Conv_91_quant"
    op_type: "Conv"
    attribute {
      name: "auto_pad"
      s: "NOTSET"
      type: STRING
    }
    attribute {
      name: "dilations"
      ints: 1
      ints: 1
      type: INTS
    }
    attribute {
      name: "group"
      i: 116
      type: INT
    }
    attribute {
      name: "strides"
      ints: 1
      ints: 1
      type: INTS
    }
    attribute {
      name: "kernel_shape"
      ints: 3
      ints: 3
      type: INTS
    }
    attribute {
      name: "pads"
      ints: 1
      ints: 1
      ints: 1
      ints: 1
      type: INTS
    }
  }
  node {
    input: "435_QuantizeInput"
    input: "435_scale"
    input: "435_zero_point"
    output: "435_quantized"
    name: "435_Conv_91_QuantizeLinear"
    op_type: "QuantizeLinear"
  }
  node {
    input: "435_quantized"
    input: "435_scale"
    input: "435_zero_point"
    output: "435_Conv_93_dequantized"
    name: "435_Conv_93_DequantizeLinear"
    op_type: "DequantizeLinear"
  }
  node {
    input: "435_Conv_93_dequantized"
    input: "ConvBnFusion_W_stage3.1.branch2.5.weight_dequantized"
    input: "ConvBnFusion_BN_B_stage3.1.branch2.6.bias_dequantized"
    output: "437_QuantizeInput"
    name: "Conv_93_quant"
    op_type: "Conv"
    attribute {
      name: "auto_pad"
      s: "NOTSET"
      type: STRING
    }
    attribute {
      name: "dilations"
      ints: 1
      ints: 1
      type: INTS
    }
    attribute {
      name: "group"
      i: 1
      type: INT
    }
    attribute {
      name: "strides"
      ints: 1
      ints: 1
      type: INTS
    }
    attribute {
      name: "kernel_shape"
      ints: 1
      ints: 1
      type: INTS
    }
    attribute {
      name: "pads"
      ints: 0
      ints: 0
      ints: 0
      ints: 0
      type: INTS
    }
  }
  node {
    input: "437_QuantizeInput"
    input: "437_scale"
    input: "437_zero_point"
    output: "437_quantized"
    name: "437_Conv_93_QuantizeLinear"
    op_type: "QuantizeLinear"
  }
  node {
    input: "437_quantized"
    input: "437_scale"
    input: "437_zero_point"
    output: "437_Concat_96_dequantized"
    name: "437_Concat_96_DequantizeLinear"
    op_type: "DequantizeLinear"
  }
  node {
    input: "429_Concat_96_dequantized"
    input: "437_Concat_96_dequantized"
    output: "439_QuantizeInput"
    name: "Concat_96_quant"
    op_type: "Concat"
    attribute {
      name: "axis"
      i: 1
      type: INT
    }
  }
  node {
    input: "439_QuantizeInput"
    input: "439_scale"
    input: "439_zero_point"
    output: "439_quantized"
    name: "439_Concat_96_QuantizeLinear"
    op_type: "QuantizeLinear"
  }
  node {
    input: "439_quantized"
    input: "439_scale"
    input: "439_zero_point"
    output: "439_Reshape_98_dequantized"
    name: "439_Reshape_98_DequantizeLinear"
    op_type: "DequantizeLinear"
  }
  node {
    input: "439_Reshape_98_dequantized"
    input: "440"
    output: "441_QuantizeInput"
    name: "Reshape_98_quant"
    op_type: "Reshape"
  }
  node {
    input: "441_QuantizeInput"
    input: "439_scale"
    input: "439_zero_point"
    output: "441_quantized"
    name: "441_Reshape_98_QuantizeLinear"
    op_type: "QuantizeLinear"
  }
  node {
    input: "441_quantized"
    input: "439_scale"
    input: "439_zero_point"
    output: "441_Transpose_99_dequantized"
    name: "441_Transpose_99_DequantizeLinear"
    op_type: "DequantizeLinear"
  }
  node {
    input: "441_Transpose_99_dequantized"
    output: "442_QuantizeInput"
    name: "Transpose_99_quant"
    op_type: "Transpose"
    attribute {
      name: "perm"
      ints: 0
      ints: 2
      ints: 1
      ints: 3
      ints: 4
      type: INTS
    }
  }
  node {
    input: "442_QuantizeInput"
    input: "439_scale"
    input: "439_zero_point"
    output: "442_quantized"
    name: "442_Transpose_99_QuantizeLinear"
    op_type: "QuantizeLinear"
  }
  node {
    input: "442_quantized"
    input: "439_scale"
    input: "439_zero_point"
    output: "442_Reshape_101_dequantized"
    name: "442_Reshape_101_DequantizeLinear"
    op_type: "DequantizeLinear"
  }
  node {
    input: "442_Reshape_101_dequantized"
    input: "443"
    output: "444_QuantizeInput"
    name: "Reshape_101_quant"
    op_type: "Reshape"
  }
  node {
    input: "444_QuantizeInput"
    input: "439_scale"
    input: "439_zero_point"
    output: "444_quantized"
    name: "444_Reshape_101_QuantizeLinear"
    op_type: "QuantizeLinear"
  }
  node {
    input: "444_quantized"
    input: "439_scale"
    input: "439_zero_point"
    output: "444_Split_102_dequantized"
    name: "444_Split_102_DequantizeLinear"
    op_type: "DequantizeLinear"
  }
  node {
    input: "444_Split_102_dequantized"
    output: "445_QuantizeInput"
    output: "446_QuantizeInput"
    name: "Split_102_quant"
    op_type: "Split"
    attribute {
      name: "split"
      ints: 116
      ints: 116
      type: INTS
    }
    attribute {
      name: "axis"
      i: 1
      type: INT
    }
  }
  node {
    input: "445_QuantizeInput"
    input: "439_scale"
    input: "439_zero_point"
    output: "445_quantized"
    name: "445_Split_102_QuantizeLinear"
    op_type: "QuantizeLinear"
  }
  node {
    input: "446_QuantizeInput"
    input: "439_scale"
    input: "439_zero_point"
    output: "446_quantized"
    name: "446_Split_102_QuantizeLinear"
    op_type: "QuantizeLinear"
  }
  node {
    input: "445_quantized"
    input: "439_scale"
    input: "439_zero_point"
    output: "445_Concat_111_dequantized"
    name: "445_Concat_111_DequantizeLinear"
    op_type: "DequantizeLinear"
  }
  node {
    input: "446_quantized"
    input: "439_scale"
    input: "439_zero_point"
    output: "446_Conv_103_dequantized"
    name: "446_Conv_103_DequantizeLinear"
    op_type: "DequantizeLinear"
  }
  node {
    input: "446_Conv_103_dequantized"
    input: "ConvBnFusion_W_stage3.2.branch2.0.weight_dequantized"
    input: "ConvBnFusion_BN_B_stage3.2.branch2.1.bias_dequantized"
    output: "448_QuantizeInput"
    name: "Conv_103_quant"
    op_type: "Conv"
    attribute {
      name: "auto_pad"
      s: "NOTSET"
      type: STRING
    }
    attribute {
      name: "dilations"
      ints: 1
      ints: 1
      type: INTS
    }
    attribute {
      name: "group"
      i: 1
      type: INT
    }
    attribute {
      name: "strides"
      ints: 1
      ints: 1
      type: INTS
    }
    attribute {
      name: "kernel_shape"
      ints: 1
      ints: 1
      type: INTS
    }
    attribute {
      name: "pads"
      ints: 0
      ints: 0
      ints: 0
      ints: 0
      type: INTS
    }
  }
  node {
    input: "448_QuantizeInput"
    input: "448_scale"
    input: "448_zero_point"
    output: "448_quantized"
    name: "448_Conv_103_QuantizeLinear"
    op_type: "QuantizeLinear"
  }
  node {
    input: "448_quantized"
    input: "448_scale"
    input: "448_zero_point"
    output: "448_Conv_106_dequantized"
    name: "448_Conv_106_DequantizeLinear"
    op_type: "DequantizeLinear"
  }
  node {
    input: "448_Conv_106_dequantized"
    input: "ConvBnFusion_W_stage3.2.branch2.3.weight_dequantized"
    input: "ConvBnFusion_BN_B_stage3.2.branch2.4.bias_dequantized"
    output: "451_QuantizeInput"
    name: "Conv_106_quant"
    op_type: "Conv"
    attribute {
      name: "auto_pad"
      s: "NOTSET"
      type: STRING
    }
    attribute {
      name: "dilations"
      ints: 1
      ints: 1
      type: INTS
    }
    attribute {
      name: "group"
      i: 116
      type: INT
    }
    attribute {
      name: "strides"
      ints: 1
      ints: 1
      type: INTS
    }
    attribute {
      name: "kernel_shape"
      ints: 3
      ints: 3
      type: INTS
    }
    attribute {
      name: "pads"
      ints: 1
      ints: 1
      ints: 1
      ints: 1
      type: INTS
    }
  }
  node {
    input: "451_QuantizeInput"
    input: "451_scale"
    input: "451_zero_point"
    output: "451_quantized"
    name: "451_Conv_106_QuantizeLinear"
    op_type: "QuantizeLinear"
  }
  node {
    input: "451_quantized"
    input: "451_scale"
    input: "451_zero_point"
    output: "451_Conv_108_dequantized"
    name: "451_Conv_108_DequantizeLinear"
    op_type: "DequantizeLinear"
  }
  node {
    input: "451_Conv_108_dequantized"
    input: "ConvBnFusion_W_stage3.2.branch2.5.weight_dequantized"
    input: "ConvBnFusion_BN_B_stage3.2.branch2.6.bias_dequantized"
    output: "453_QuantizeInput"
    name: "Conv_108_quant"
    op_type: "Conv"
    attribute {
      name: "auto_pad"
      s: "NOTSET"
      type: STRING
    }
    attribute {
      name: "dilations"
      ints: 1
      ints: 1
      type: INTS
    }
    attribute {
      name: "group"
      i: 1
      type: INT
    }
    attribute {
      name: "strides"
      ints: 1
      ints: 1
      type: INTS
    }
    attribute {
      name: "kernel_shape"
      ints: 1
      ints: 1
      type: INTS
    }
    attribute {
      name: "pads"
      ints: 0
      ints: 0
      ints: 0
      ints: 0
      type: INTS
    }
  }
  node {
    input: "453_QuantizeInput"
    input: "453_scale"
    input: "453_zero_point"
    output: "453_quantized"
    name: "453_Conv_108_QuantizeLinear"
    op_type: "QuantizeLinear"
  }
  node {
    input: "453_quantized"
    input: "453_scale"
    input: "453_zero_point"
    output: "453_Concat_111_dequantized"
    name: "453_Concat_111_DequantizeLinear"
    op_type: "DequantizeLinear"
  }
  node {
    input: "445_Concat_111_dequantized"
    input: "453_Concat_111_dequantized"
    output: "455_QuantizeInput"
    name: "Concat_111_quant"
    op_type: "Concat"
    attribute {
      name: "axis"
      i: 1
      type: INT
    }
  }
  node {
    input: "455_QuantizeInput"
    input: "455_scale"
    input: "455_zero_point"
    output: "455_quantized"
    name: "455_Concat_111_QuantizeLinear"
    op_type: "QuantizeLinear"
  }
  node {
    input: "455_quantized"
    input: "455_scale"
    input: "455_zero_point"
    output: "455_Reshape_113_dequantized"
    name: "455_Reshape_113_DequantizeLinear"
    op_type: "DequantizeLinear"
  }
  node {
    input: "455_Reshape_113_dequantized"
    input: "456"
    output: "457_QuantizeInput"
    name: "Reshape_113_quant"
    op_type: "Reshape"
  }
  node {
    input: "457_QuantizeInput"
    input: "455_scale"
    input: "455_zero_point"
    output: "457_quantized"
    name: "457_Reshape_113_QuantizeLinear"
    op_type: "QuantizeLinear"
  }
  node {
    input: "457_quantized"
    input: "455_scale"
    input: "455_zero_point"
    output: "457_Transpose_114_dequantized"
    name: "457_Transpose_114_DequantizeLinear"
    op_type: "DequantizeLinear"
  }
  node {
    input: "457_Transpose_114_dequantized"
    output: "458_QuantizeInput"
    name: "Transpose_114_quant"
    op_type: "Transpose"
    attribute {
      name: "perm"
      ints: 0
      ints: 2
      ints: 1
      ints: 3
      ints: 4
      type: INTS
    }
  }
  node {
    input: "458_QuantizeInput"
    input: "455_scale"
    input: "455_zero_point"
    output: "458_quantized"
    name: "458_Transpose_114_QuantizeLinear"
    op_type: "QuantizeLinear"
  }
  node {
    input: "458_quantized"
    input: "455_scale"
    input: "455_zero_point"
    output: "458_Reshape_116_dequantized"
    name: "458_Reshape_116_DequantizeLinear"
    op_type: "DequantizeLinear"
  }
  node {
    input: "458_Reshape_116_dequantized"
    input: "459"
    output: "460_QuantizeInput"
    name: "Reshape_116_quant"
    op_type: "Reshape"
  }
  node {
    input: "460_QuantizeInput"
    input: "455_scale"
    input: "455_zero_point"
    output: "460_quantized"
    name: "460_Reshape_116_QuantizeLinear"
    op_type: "QuantizeLinear"
  }
  node {
    input: "460_quantized"
    input: "455_scale"
    input: "455_zero_point"
    output: "460_Split_117_dequantized"
    name: "460_Split_117_DequantizeLinear"
    op_type: "DequantizeLinear"
  }
  node {
    input: "460_Split_117_dequantized"
    output: "461_QuantizeInput"
    output: "462_QuantizeInput"
    name: "Split_117_quant"
    op_type: "Split"
    attribute {
      name: "split"
      ints: 116
      ints: 116
      type: INTS
    }
    attribute {
      name: "axis"
      i: 1
      type: INT
    }
  }
  node {
    input: "461_QuantizeInput"
    input: "455_scale"
    input: "455_zero_point"
    output: "461_quantized"
    name: "461_Split_117_QuantizeLinear"
    op_type: "QuantizeLinear"
  }
  node {
    input: "462_QuantizeInput"
    input: "455_scale"
    input: "455_zero_point"
    output: "462_quantized"
    name: "462_Split_117_QuantizeLinear"
    op_type: "QuantizeLinear"
  }
  node {
    input: "461_quantized"
    input: "455_scale"
    input: "455_zero_point"
    output: "461_Concat_126_dequantized"
    name: "461_Concat_126_DequantizeLinear"
    op_type: "DequantizeLinear"
  }
  node {
    input: "462_quantized"
    input: "455_scale"
    input: "455_zero_point"
    output: "462_Conv_118_dequantized"
    name: "462_Conv_118_DequantizeLinear"
    op_type: "DequantizeLinear"
  }
  node {
    input: "462_Conv_118_dequantized"
    input: "ConvBnFusion_W_stage3.3.branch2.0.weight_dequantized"
    input: "ConvBnFusion_BN_B_stage3.3.branch2.1.bias_dequantized"
    output: "464_QuantizeInput"
    name: "Conv_118_quant"
    op_type: "Conv"
    attribute {
      name: "auto_pad"
      s: "NOTSET"
      type: STRING
    }
    attribute {
      name: "dilations"
      ints: 1
      ints: 1
      type: INTS
    }
    attribute {
      name: "group"
      i: 1
      type: INT
    }
    attribute {
      name: "strides"
      ints: 1
      ints: 1
      type: INTS
    }
    attribute {
      name: "kernel_shape"
      ints: 1
      ints: 1
      type: INTS
    }
    attribute {
      name: "pads"
      ints: 0
      ints: 0
      ints: 0
      ints: 0
      type: INTS
    }
  }
  node {
    input: "464_QuantizeInput"
    input: "464_scale"
    input: "464_zero_point"
    output: "464_quantized"
    name: "464_Conv_118_QuantizeLinear"
    op_type: "QuantizeLinear"
  }
  node {
    input: "464_quantized"
    input: "464_scale"
    input: "464_zero_point"
    output: "464_Conv_121_dequantized"
    name: "464_Conv_121_DequantizeLinear"
    op_type: "DequantizeLinear"
  }
  node {
    input: "464_Conv_121_dequantized"
    input: "ConvBnFusion_W_stage3.3.branch2.3.weight_dequantized"
    input: "ConvBnFusion_BN_B_stage3.3.branch2.4.bias_dequantized"
    output: "467_QuantizeInput"
    name: "Conv_121_quant"
    op_type: "Conv"
    attribute {
      name: "auto_pad"
      s: "NOTSET"
      type: STRING
    }
    attribute {
      name: "dilations"
      ints: 1
      ints: 1
      type: INTS
    }
    attribute {
      name: "group"
      i: 116
      type: INT
    }
    attribute {
      name: "strides"
      ints: 1
      ints: 1
      type: INTS
    }
    attribute {
      name: "kernel_shape"
      ints: 3
      ints: 3
      type: INTS
    }
    attribute {
      name: "pads"
      ints: 1
      ints: 1
      ints: 1
      ints: 1
      type: INTS
    }
  }
  node {
    input: "467_QuantizeInput"
    input: "467_scale"
    input: "467_zero_point"
    output: "467_quantized"
    name: "467_Conv_121_QuantizeLinear"
    op_type: "QuantizeLinear"
  }
  node {
    input: "467_quantized"
    input: "467_scale"
    input: "467_zero_point"
    output: "467_Conv_123_dequantized"
    name: "467_Conv_123_DequantizeLinear"
    op_type: "DequantizeLinear"
  }
  node {
    input: "467_Conv_123_dequantized"
    input: "ConvBnFusion_W_stage3.3.branch2.5.weight_dequantized"
    input: "ConvBnFusion_BN_B_stage3.3.branch2.6.bias_dequantized"
    output: "469_QuantizeInput"
    name: "Conv_123_quant"
    op_type: "Conv"
    attribute {
      name: "auto_pad"
      s: "NOTSET"
      type: STRING
    }
    attribute {
      name: "dilations"
      ints: 1
      ints: 1
      type: INTS
    }
    attribute {
      name: "group"
      i: 1
      type: INT
    }
    attribute {
      name: "strides"
      ints: 1
      ints: 1
      type: INTS
    }
    attribute {
      name: "kernel_shape"
      ints: 1
      ints: 1
      type: INTS
    }
    attribute {
      name: "pads"
      ints: 0
      ints: 0
      ints: 0
      ints: 0
      type: INTS
    }
  }
  node {
    input: "469_QuantizeInput"
    input: "469_scale"
    input: "469_zero_point"
    output: "469_quantized"
    name: "469_Conv_123_QuantizeLinear"
    op_type: "QuantizeLinear"
  }
  node {
    input: "469_quantized"
    input: "469_scale"
    input: "469_zero_point"
    output: "469_Concat_126_dequantized"
    name: "469_Concat_126_DequantizeLinear"
    op_type: "DequantizeLinear"
  }
  node {
    input: "461_Concat_126_dequantized"
    input: "469_Concat_126_dequantized"
    output: "471_QuantizeInput"
    name: "Concat_126_quant"
    op_type: "Concat"
    attribute {
      name: "axis"
      i: 1
      type: INT
    }
  }
  node {
    input: "471_QuantizeInput"
    input: "471_scale"
    input: "471_zero_point"
    output: "471_quantized"
    name: "471_Concat_126_QuantizeLinear"
    op_type: "QuantizeLinear"
  }
  node {
    input: "471_quantized"
    input: "471_scale"
    input: "471_zero_point"
    output: "471_Reshape_128_dequantized"
    name: "471_Reshape_128_DequantizeLinear"
    op_type: "DequantizeLinear"
  }
  node {
    input: "471_Reshape_128_dequantized"
    input: "472"
    output: "473_QuantizeInput"
    name: "Reshape_128_quant"
    op_type: "Reshape"
  }
  node {
    input: "473_QuantizeInput"
    input: "471_scale"
    input: "471_zero_point"
    output: "473_quantized"
    name: "473_Reshape_128_QuantizeLinear"
    op_type: "QuantizeLinear"
  }
  node {
    input: "473_quantized"
    input: "471_scale"
    input: "471_zero_point"
    output: "473_Transpose_129_dequantized"
    name: "473_Transpose_129_DequantizeLinear"
    op_type: "DequantizeLinear"
  }
  node {
    input: "473_Transpose_129_dequantized"
    output: "474_QuantizeInput"
    name: "Transpose_129_quant"
    op_type: "Transpose"
    attribute {
      name: "perm"
      ints: 0
      ints: 2
      ints: 1
      ints: 3
      ints: 4
      type: INTS
    }
  }
  node {
    input: "474_QuantizeInput"
    input: "471_scale"
    input: "471_zero_point"
    output: "474_quantized"
    name: "474_Transpose_129_QuantizeLinear"
    op_type: "QuantizeLinear"
  }
  node {
    input: "474_quantized"
    input: "471_scale"
    input: "471_zero_point"
    output: "474_Reshape_131_dequantized"
    name: "474_Reshape_131_DequantizeLinear"
    op_type: "DequantizeLinear"
  }
  node {
    input: "474_Reshape_131_dequantized"
    input: "475"
    output: "476_QuantizeInput"
    name: "Reshape_131_quant"
    op_type: "Reshape"
  }
  node {
    input: "476_QuantizeInput"
    input: "471_scale"
    input: "471_zero_point"
    output: "476_quantized"
    name: "476_Reshape_131_QuantizeLinear"
    op_type: "QuantizeLinear"
  }
  node {
    input: "476_quantized"
    input: "471_scale"
    input: "471_zero_point"
    output: "476_Split_132_dequantized"
    name: "476_Split_132_DequantizeLinear"
    op_type: "DequantizeLinear"
  }
  node {
    input: "476_Split_132_dequantized"
    output: "477_QuantizeInput"
    output: "478_QuantizeInput"
    name: "Split_132_quant"
    op_type: "Split"
    attribute {
      name: "split"
      ints: 116
      ints: 116
      type: INTS
    }
    attribute {
      name: "axis"
      i: 1
      type: INT
    }
  }
  node {
    input: "477_QuantizeInput"
    input: "471_scale"
    input: "471_zero_point"
    output: "477_quantized"
    name: "477_Split_132_QuantizeLinear"
    op_type: "QuantizeLinear"
  }
  node {
    input: "478_QuantizeInput"
    input: "471_scale"
    input: "471_zero_point"
    output: "478_quantized"
    name: "478_Split_132_QuantizeLinear"
    op_type: "QuantizeLinear"
  }
  node {
    input: "477_quantized"
    input: "471_scale"
    input: "471_zero_point"
    output: "477_Concat_141_dequantized"
    name: "477_Concat_141_DequantizeLinear"
    op_type: "DequantizeLinear"
  }
  node {
    input: "478_quantized"
    input: "471_scale"
    input: "471_zero_point"
    output: "478_Conv_133_dequantized"
    name: "478_Conv_133_DequantizeLinear"
    op_type: "DequantizeLinear"
  }
  node {
    input: "478_Conv_133_dequantized"
    input: "ConvBnFusion_W_stage3.4.branch2.0.weight_dequantized"
    input: "ConvBnFusion_BN_B_stage3.4.branch2.1.bias_dequantized"
    output: "480_QuantizeInput"
    name: "Conv_133_quant"
    op_type: "Conv"
    attribute {
      name: "auto_pad"
      s: "NOTSET"
      type: STRING
    }
    attribute {
      name: "dilations"
      ints: 1
      ints: 1
      type: INTS
    }
    attribute {
      name: "group"
      i: 1
      type: INT
    }
    attribute {
      name: "strides"
      ints: 1
      ints: 1
      type: INTS
    }
    attribute {
      name: "kernel_shape"
      ints: 1
      ints: 1
      type: INTS
    }
    attribute {
      name: "pads"
      ints: 0
      ints: 0
      ints: 0
      ints: 0
      type: INTS
    }
  }
  node {
    input: "480_QuantizeInput"
    input: "480_scale"
    input: "480_zero_point"
    output: "480_quantized"
    name: "480_Conv_133_QuantizeLinear"
    op_type: "QuantizeLinear"
  }
  node {
    input: "480_quantized"
    input: "480_scale"
    input: "480_zero_point"
    output: "480_Conv_136_dequantized"
    name: "480_Conv_136_DequantizeLinear"
    op_type: "DequantizeLinear"
  }
  node {
    input: "480_Conv_136_dequantized"
    input: "ConvBnFusion_W_stage3.4.branch2.3.weight_dequantized"
    input: "ConvBnFusion_BN_B_stage3.4.branch2.4.bias_dequantized"
    output: "483_QuantizeInput"
    name: "Conv_136_quant"
    op_type: "Conv"
    attribute {
      name: "auto_pad"
      s: "NOTSET"
      type: STRING
    }
    attribute {
      name: "dilations"
      ints: 1
      ints: 1
      type: INTS
    }
    attribute {
      name: "group"
      i: 116
      type: INT
    }
    attribute {
      name: "strides"
      ints: 1
      ints: 1
      type: INTS
    }
    attribute {
      name: "kernel_shape"
      ints: 3
      ints: 3
      type: INTS
    }
    attribute {
      name: "pads"
      ints: 1
      ints: 1
      ints: 1
      ints: 1
      type: INTS
    }
  }
  node {
    input: "483_QuantizeInput"
    input: "483_scale"
    input: "483_zero_point"
    output: "483_quantized"
    name: "483_Conv_136_QuantizeLinear"
    op_type: "QuantizeLinear"
  }
  node {
    input: "483_quantized"
    input: "483_scale"
    input: "483_zero_point"
    output: "483_Conv_138_dequantized"
    name: "483_Conv_138_DequantizeLinear"
    op_type: "DequantizeLinear"
  }
  node {
    input: "483_Conv_138_dequantized"
    input: "ConvBnFusion_W_stage3.4.branch2.5.weight_dequantized"
    input: "ConvBnFusion_BN_B_stage3.4.branch2.6.bias_dequantized"
    output: "485_QuantizeInput"
    name: "Conv_138_quant"
    op_type: "Conv"
    attribute {
      name: "auto_pad"
      s: "NOTSET"
      type: STRING
    }
    attribute {
      name: "dilations"
      ints: 1
      ints: 1
      type: INTS
    }
    attribute {
      name: "group"
      i: 1
      type: INT
    }
    attribute {
      name: "strides"
      ints: 1
      ints: 1
      type: INTS
    }
    attribute {
      name: "kernel_shape"
      ints: 1
      ints: 1
      type: INTS
    }
    attribute {
      name: "pads"
      ints: 0
      ints: 0
      ints: 0
      ints: 0
      type: INTS
    }
  }
  node {
    input: "485_QuantizeInput"
    input: "485_scale"
    input: "485_zero_point"
    output: "485_quantized"
    name: "485_Conv_138_QuantizeLinear"
    op_type: "QuantizeLinear"
  }
  node {
    input: "485_quantized"
    input: "485_scale"
    input: "485_zero_point"
    output: "485_Concat_141_dequantized"
    name: "485_Concat_141_DequantizeLinear"
    op_type: "DequantizeLinear"
  }
  node {
    input: "477_Concat_141_dequantized"
    input: "485_Concat_141_dequantized"
    output: "487_QuantizeInput"
    name: "Concat_141_quant"
    op_type: "Concat"
    attribute {
      name: "axis"
      i: 1
      type: INT
    }
  }
  node {
    input: "487_QuantizeInput"
    input: "487_scale"
    input: "487_zero_point"
    output: "487_quantized"
    name: "487_Concat_141_QuantizeLinear"
    op_type: "QuantizeLinear"
  }
  node {
    input: "487_quantized"
    input: "487_scale"
    input: "487_zero_point"
    output: "487_Reshape_143_dequantized"
    name: "487_Reshape_143_DequantizeLinear"
    op_type: "DequantizeLinear"
  }
  node {
    input: "487_Reshape_143_dequantized"
    input: "488"
    output: "489_QuantizeInput"
    name: "Reshape_143_quant"
    op_type: "Reshape"
  }
  node {
    input: "489_QuantizeInput"
    input: "487_scale"
    input: "487_zero_point"
    output: "489_quantized"
    name: "489_Reshape_143_QuantizeLinear"
    op_type: "QuantizeLinear"
  }
  node {
    input: "489_quantized"
    input: "487_scale"
    input: "487_zero_point"
    output: "489_Transpose_144_dequantized"
    name: "489_Transpose_144_DequantizeLinear"
    op_type: "DequantizeLinear"
  }
  node {
    input: "489_Transpose_144_dequantized"
    output: "490_QuantizeInput"
    name: "Transpose_144_quant"
    op_type: "Transpose"
    attribute {
      name: "perm"
      ints: 0
      ints: 2
      ints: 1
      ints: 3
      ints: 4
      type: INTS
    }
  }
  node {
    input: "490_QuantizeInput"
    input: "487_scale"
    input: "487_zero_point"
    output: "490_quantized"
    name: "490_Transpose_144_QuantizeLinear"
    op_type: "QuantizeLinear"
  }
  node {
    input: "490_quantized"
    input: "487_scale"
    input: "487_zero_point"
    output: "490_Reshape_146_dequantized"
    name: "490_Reshape_146_DequantizeLinear"
    op_type: "DequantizeLinear"
  }
  node {
    input: "490_Reshape_146_dequantized"
    input: "491"
    output: "492_QuantizeInput"
    name: "Reshape_146_quant"
    op_type: "Reshape"
  }
  node {
    input: "492_QuantizeInput"
    input: "487_scale"
    input: "487_zero_point"
    output: "492_quantized"
    name: "492_Reshape_146_QuantizeLinear"
    op_type: "QuantizeLinear"
  }
  node {
    input: "492_quantized"
    input: "487_scale"
    input: "487_zero_point"
    output: "492_Split_147_dequantized"
    name: "492_Split_147_DequantizeLinear"
    op_type: "DequantizeLinear"
  }
  node {
    input: "492_Split_147_dequantized"
    output: "493_QuantizeInput"
    output: "494_QuantizeInput"
    name: "Split_147_quant"
    op_type: "Split"
    attribute {
      name: "split"
      ints: 116
      ints: 116
      type: INTS
    }
    attribute {
      name: "axis"
      i: 1
      type: INT
    }
  }
  node {
    input: "493_QuantizeInput"
    input: "487_scale"
    input: "487_zero_point"
    output: "493_quantized"
    name: "493_Split_147_QuantizeLinear"
    op_type: "QuantizeLinear"
  }
  node {
    input: "494_QuantizeInput"
    input: "487_scale"
    input: "487_zero_point"
    output: "494_quantized"
    name: "494_Split_147_QuantizeLinear"
    op_type: "QuantizeLinear"
  }
  node {
    input: "493_quantized"
    input: "487_scale"
    input: "487_zero_point"
    output: "493_Concat_156_dequantized"
    name: "493_Concat_156_DequantizeLinear"
    op_type: "DequantizeLinear"
  }
  node {
    input: "494_quantized"
    input: "487_scale"
    input: "487_zero_point"
    output: "494_Conv_148_dequantized"
    name: "494_Conv_148_DequantizeLinear"
    op_type: "DequantizeLinear"
  }
  node {
    input: "494_Conv_148_dequantized"
    input: "ConvBnFusion_W_stage3.5.branch2.0.weight_dequantized"
    input: "ConvBnFusion_BN_B_stage3.5.branch2.1.bias_dequantized"
    output: "496_QuantizeInput"
    name: "Conv_148_quant"
    op_type: "Conv"
    attribute {
      name: "auto_pad"
      s: "NOTSET"
      type: STRING
    }
    attribute {
      name: "dilations"
      ints: 1
      ints: 1
      type: INTS
    }
    attribute {
      name: "group"
      i: 1
      type: INT
    }
    attribute {
      name: "strides"
      ints: 1
      ints: 1
      type: INTS
    }
    attribute {
      name: "kernel_shape"
      ints: 1
      ints: 1
      type: INTS
    }
    attribute {
      name: "pads"
      ints: 0
      ints: 0
      ints: 0
      ints: 0
      type: INTS
    }
  }
  node {
    input: "496_QuantizeInput"
    input: "496_scale"
    input: "496_zero_point"
    output: "496_quantized"
    name: "496_Conv_148_QuantizeLinear"
    op_type: "QuantizeLinear"
  }
  node {
    input: "496_quantized"
    input: "496_scale"
    input: "496_zero_point"
    output: "496_Conv_151_dequantized"
    name: "496_Conv_151_DequantizeLinear"
    op_type: "DequantizeLinear"
  }
  node {
    input: "496_Conv_151_dequantized"
    input: "ConvBnFusion_W_stage3.5.branch2.3.weight_dequantized"
    input: "ConvBnFusion_BN_B_stage3.5.branch2.4.bias_dequantized"
    output: "499_QuantizeInput"
    name: "Conv_151_quant"
    op_type: "Conv"
    attribute {
      name: "auto_pad"
      s: "NOTSET"
      type: STRING
    }
    attribute {
      name: "dilations"
      ints: 1
      ints: 1
      type: INTS
    }
    attribute {
      name: "group"
      i: 116
      type: INT
    }
    attribute {
      name: "strides"
      ints: 1
      ints: 1
      type: INTS
    }
    attribute {
      name: "kernel_shape"
      ints: 3
      ints: 3
      type: INTS
    }
    attribute {
      name: "pads"
      ints: 1
      ints: 1
      ints: 1
      ints: 1
      type: INTS
    }
  }
  node {
    input: "499_QuantizeInput"
    input: "499_scale"
    input: "499_zero_point"
    output: "499_quantized"
    name: "499_Conv_151_QuantizeLinear"
    op_type: "QuantizeLinear"
  }
  node {
    input: "499_quantized"
    input: "499_scale"
    input: "499_zero_point"
    output: "499_Conv_153_dequantized"
    name: "499_Conv_153_DequantizeLinear"
    op_type: "DequantizeLinear"
  }
  node {
    input: "499_Conv_153_dequantized"
    input: "ConvBnFusion_W_stage3.5.branch2.5.weight_dequantized"
    input: "ConvBnFusion_BN_B_stage3.5.branch2.6.bias_dequantized"
    output: "501_QuantizeInput"
    name: "Conv_153_quant"
    op_type: "Conv"
    attribute {
      name: "auto_pad"
      s: "NOTSET"
      type: STRING
    }
    attribute {
      name: "dilations"
      ints: 1
      ints: 1
      type: INTS
    }
    attribute {
      name: "group"
      i: 1
      type: INT
    }
    attribute {
      name: "strides"
      ints: 1
      ints: 1
      type: INTS
    }
    attribute {
      name: "kernel_shape"
      ints: 1
      ints: 1
      type: INTS
    }
    attribute {
      name: "pads"
      ints: 0
      ints: 0
      ints: 0
      ints: 0
      type: INTS
    }
  }
  node {
    input: "501_QuantizeInput"
    input: "501_scale"
    input: "501_zero_point"
    output: "501_quantized"
    name: "501_Conv_153_QuantizeLinear"
    op_type: "QuantizeLinear"
  }
  node {
    input: "501_quantized"
    input: "501_scale"
    input: "501_zero_point"
    output: "501_Concat_156_dequantized"
    name: "501_Concat_156_DequantizeLinear"
    op_type: "DequantizeLinear"
  }
  node {
    input: "493_Concat_156_dequantized"
    input: "501_Concat_156_dequantized"
    output: "503_QuantizeInput"
    name: "Concat_156_quant"
    op_type: "Concat"
    attribute {
      name: "axis"
      i: 1
      type: INT
    }
  }
  node {
    input: "503_QuantizeInput"
    input: "503_scale"
    input: "503_zero_point"
    output: "503_quantized"
    name: "503_Concat_156_QuantizeLinear"
    op_type: "QuantizeLinear"
  }
  node {
    input: "503_quantized"
    input: "503_scale"
    input: "503_zero_point"
    output: "503_Reshape_158_dequantized"
    name: "503_Reshape_158_DequantizeLinear"
    op_type: "DequantizeLinear"
  }
  node {
    input: "503_Reshape_158_dequantized"
    input: "504"
    output: "505_QuantizeInput"
    name: "Reshape_158_quant"
    op_type: "Reshape"
  }
  node {
    input: "505_QuantizeInput"
    input: "503_scale"
    input: "503_zero_point"
    output: "505_quantized"
    name: "505_Reshape_158_QuantizeLinear"
    op_type: "QuantizeLinear"
  }
  node {
    input: "505_quantized"
    input: "503_scale"
    input: "503_zero_point"
    output: "505_Transpose_159_dequantized"
    name: "505_Transpose_159_DequantizeLinear"
    op_type: "DequantizeLinear"
  }
  node {
    input: "505_Transpose_159_dequantized"
    output: "506_QuantizeInput"
    name: "Transpose_159_quant"
    op_type: "Transpose"
    attribute {
      name: "perm"
      ints: 0
      ints: 2
      ints: 1
      ints: 3
      ints: 4
      type: INTS
    }
  }
  node {
    input: "506_QuantizeInput"
    input: "503_scale"
    input: "503_zero_point"
    output: "506_quantized"
    name: "506_Transpose_159_QuantizeLinear"
    op_type: "QuantizeLinear"
  }
  node {
    input: "506_quantized"
    input: "503_scale"
    input: "503_zero_point"
    output: "506_Reshape_161_dequantized"
    name: "506_Reshape_161_DequantizeLinear"
    op_type: "DequantizeLinear"
  }
  node {
    input: "506_Reshape_161_dequantized"
    input: "507"
    output: "508_QuantizeInput"
    name: "Reshape_161_quant"
    op_type: "Reshape"
  }
  node {
    input: "508_QuantizeInput"
    input: "503_scale"
    input: "503_zero_point"
    output: "508_quantized"
    name: "508_Reshape_161_QuantizeLinear"
    op_type: "QuantizeLinear"
  }
  node {
    input: "508_quantized"
    input: "503_scale"
    input: "503_zero_point"
    output: "508_Split_162_dequantized"
    name: "508_Split_162_DequantizeLinear"
    op_type: "DequantizeLinear"
  }
  node {
    input: "508_Split_162_dequantized"
    output: "509_QuantizeInput"
    output: "510_QuantizeInput"
    name: "Split_162_quant"
    op_type: "Split"
    attribute {
      name: "split"
      ints: 116
      ints: 116
      type: INTS
    }
    attribute {
      name: "axis"
      i: 1
      type: INT
    }
  }
  node {
    input: "509_QuantizeInput"
    input: "503_scale"
    input: "503_zero_point"
    output: "509_quantized"
    name: "509_Split_162_QuantizeLinear"
    op_type: "QuantizeLinear"
  }
  node {
    input: "510_QuantizeInput"
    input: "503_scale"
    input: "503_zero_point"
    output: "510_quantized"
    name: "510_Split_162_QuantizeLinear"
    op_type: "QuantizeLinear"
  }
  node {
    input: "509_quantized"
    input: "503_scale"
    input: "503_zero_point"
    output: "509_Concat_171_dequantized"
    name: "509_Concat_171_DequantizeLinear"
    op_type: "DequantizeLinear"
  }
  node {
    input: "510_quantized"
    input: "503_scale"
    input: "503_zero_point"
    output: "510_Conv_163_dequantized"
    name: "510_Conv_163_DequantizeLinear"
    op_type: "DequantizeLinear"
  }
  node {
    input: "510_Conv_163_dequantized"
    input: "ConvBnFusion_W_stage3.6.branch2.0.weight_dequantized"
    input: "ConvBnFusion_BN_B_stage3.6.branch2.1.bias_dequantized"
    output: "512_QuantizeInput"
    name: "Conv_163_quant"
    op_type: "Conv"
    attribute {
      name: "auto_pad"
      s: "NOTSET"
      type: STRING
    }
    attribute {
      name: "dilations"
      ints: 1
      ints: 1
      type: INTS
    }
    attribute {
      name: "group"
      i: 1
      type: INT
    }
    attribute {
      name: "strides"
      ints: 1
      ints: 1
      type: INTS
    }
    attribute {
      name: "kernel_shape"
      ints: 1
      ints: 1
      type: INTS
    }
    attribute {
      name: "pads"
      ints: 0
      ints: 0
      ints: 0
      ints: 0
      type: INTS
    }
  }
  node {
    input: "512_QuantizeInput"
    input: "512_scale"
    input: "512_zero_point"
    output: "512_quantized"
    name: "512_Conv_163_QuantizeLinear"
    op_type: "QuantizeLinear"
  }
  node {
    input: "512_quantized"
    input: "512_scale"
    input: "512_zero_point"
    output: "512_Conv_166_dequantized"
    name: "512_Conv_166_DequantizeLinear"
    op_type: "DequantizeLinear"
  }
  node {
    input: "512_Conv_166_dequantized"
    input: "ConvBnFusion_W_stage3.6.branch2.3.weight_dequantized"
    input: "ConvBnFusion_BN_B_stage3.6.branch2.4.bias_dequantized"
    output: "515_QuantizeInput"
    name: "Conv_166_quant"
    op_type: "Conv"
    attribute {
      name: "auto_pad"
      s: "NOTSET"
      type: STRING
    }
    attribute {
      name: "dilations"
      ints: 1
      ints: 1
      type: INTS
    }
    attribute {
      name: "group"
      i: 116
      type: INT
    }
    attribute {
      name: "strides"
      ints: 1
      ints: 1
      type: INTS
    }
    attribute {
      name: "kernel_shape"
      ints: 3
      ints: 3
      type: INTS
    }
    attribute {
      name: "pads"
      ints: 1
      ints: 1
      ints: 1
      ints: 1
      type: INTS
    }
  }
  node {
    input: "515_QuantizeInput"
    input: "515_scale"
    input: "515_zero_point"
    output: "515_quantized"
    name: "515_Conv_166_QuantizeLinear"
    op_type: "QuantizeLinear"
  }
  node {
    input: "515_quantized"
    input: "515_scale"
    input: "515_zero_point"
    output: "515_Conv_168_dequantized"
    name: "515_Conv_168_DequantizeLinear"
    op_type: "DequantizeLinear"
  }
  node {
    input: "515_Conv_168_dequantized"
    input: "ConvBnFusion_W_stage3.6.branch2.5.weight_dequantized"
    input: "ConvBnFusion_BN_B_stage3.6.branch2.6.bias_dequantized"
    output: "517_QuantizeInput"
    name: "Conv_168_quant"
    op_type: "Conv"
    attribute {
      name: "auto_pad"
      s: "NOTSET"
      type: STRING
    }
    attribute {
      name: "dilations"
      ints: 1
      ints: 1
      type: INTS
    }
    attribute {
      name: "group"
      i: 1
      type: INT
    }
    attribute {
      name: "strides"
      ints: 1
      ints: 1
      type: INTS
    }
    attribute {
      name: "kernel_shape"
      ints: 1
      ints: 1
      type: INTS
    }
    attribute {
      name: "pads"
      ints: 0
      ints: 0
      ints: 0
      ints: 0
      type: INTS
    }
  }
  node {
    input: "517_QuantizeInput"
    input: "517_scale"
    input: "517_zero_point"
    output: "517_quantized"
    name: "517_Conv_168_QuantizeLinear"
    op_type: "QuantizeLinear"
  }
  node {
    input: "517_quantized"
    input: "517_scale"
    input: "517_zero_point"
    output: "517_Concat_171_dequantized"
    name: "517_Concat_171_DequantizeLinear"
    op_type: "DequantizeLinear"
  }
  node {
    input: "509_Concat_171_dequantized"
    input: "517_Concat_171_dequantized"
    output: "519_QuantizeInput"
    name: "Concat_171_quant"
    op_type: "Concat"
    attribute {
      name: "axis"
      i: 1
      type: INT
    }
  }
  node {
    input: "519_QuantizeInput"
    input: "519_scale"
    input: "519_zero_point"
    output: "519_quantized"
    name: "519_Concat_171_QuantizeLinear"
    op_type: "QuantizeLinear"
  }
  node {
    input: "519_quantized"
    input: "519_scale"
    input: "519_zero_point"
    output: "519_Reshape_173_dequantized"
    name: "519_Reshape_173_DequantizeLinear"
    op_type: "DequantizeLinear"
  }
  node {
    input: "519_Reshape_173_dequantized"
    input: "520"
    output: "521_QuantizeInput"
    name: "Reshape_173_quant"
    op_type: "Reshape"
  }
  node {
    input: "521_QuantizeInput"
    input: "519_scale"
    input: "519_zero_point"
    output: "521_quantized"
    name: "521_Reshape_173_QuantizeLinear"
    op_type: "QuantizeLinear"
  }
  node {
    input: "521_quantized"
    input: "519_scale"
    input: "519_zero_point"
    output: "521_Transpose_174_dequantized"
    name: "521_Transpose_174_DequantizeLinear"
    op_type: "DequantizeLinear"
  }
  node {
    input: "521_Transpose_174_dequantized"
    output: "522_QuantizeInput"
    name: "Transpose_174_quant"
    op_type: "Transpose"
    attribute {
      name: "perm"
      ints: 0
      ints: 2
      ints: 1
      ints: 3
      ints: 4
      type: INTS
    }
  }
  node {
    input: "522_QuantizeInput"
    input: "519_scale"
    input: "519_zero_point"
    output: "522_quantized"
    name: "522_Transpose_174_QuantizeLinear"
    op_type: "QuantizeLinear"
  }
  node {
    input: "522_quantized"
    input: "519_scale"
    input: "519_zero_point"
    output: "522_Reshape_176_dequantized"
    name: "522_Reshape_176_DequantizeLinear"
    op_type: "DequantizeLinear"
  }
  node {
    input: "522_Reshape_176_dequantized"
    input: "523"
    output: "524_QuantizeInput"
    name: "Reshape_176_quant"
    op_type: "Reshape"
  }
  node {
    input: "524_QuantizeInput"
    input: "519_scale"
    input: "519_zero_point"
    output: "524_quantized"
    name: "524_Reshape_176_QuantizeLinear"
    op_type: "QuantizeLinear"
  }
  node {
    input: "524_quantized"
    input: "519_scale"
    input: "519_zero_point"
    output: "524_Split_177_dequantized"
    name: "524_Split_177_DequantizeLinear"
    op_type: "DequantizeLinear"
  }
  node {
    input: "524_Split_177_dequantized"
    output: "525_QuantizeInput"
    output: "526_QuantizeInput"
    name: "Split_177_quant"
    op_type: "Split"
    attribute {
      name: "split"
      ints: 116
      ints: 116
      type: INTS
    }
    attribute {
      name: "axis"
      i: 1
      type: INT
    }
  }
  node {
    input: "525_QuantizeInput"
    input: "519_scale"
    input: "519_zero_point"
    output: "525_quantized"
    name: "525_Split_177_QuantizeLinear"
    op_type: "QuantizeLinear"
  }
  node {
    input: "526_QuantizeInput"
    input: "519_scale"
    input: "519_zero_point"
    output: "526_quantized"
    name: "526_Split_177_QuantizeLinear"
    op_type: "QuantizeLinear"
  }
  node {
    input: "525_quantized"
    input: "519_scale"
    input: "519_zero_point"
    output: "525_Concat_186_dequantized"
    name: "525_Concat_186_DequantizeLinear"
    op_type: "DequantizeLinear"
  }
  node {
    input: "526_quantized"
    input: "519_scale"
    input: "519_zero_point"
    output: "526_Conv_178_dequantized"
    name: "526_Conv_178_DequantizeLinear"
    op_type: "DequantizeLinear"
  }
  node {
    input: "526_Conv_178_dequantized"
    input: "ConvBnFusion_W_stage3.7.branch2.0.weight_dequantized"
    input: "ConvBnFusion_BN_B_stage3.7.branch2.1.bias_dequantized"
    output: "528_QuantizeInput"
    name: "Conv_178_quant"
    op_type: "Conv"
    attribute {
      name: "auto_pad"
      s: "NOTSET"
      type: STRING
    }
    attribute {
      name: "dilations"
      ints: 1
      ints: 1
      type: INTS
    }
    attribute {
      name: "group"
      i: 1
      type: INT
    }
    attribute {
      name: "strides"
      ints: 1
      ints: 1
      type: INTS
    }
    attribute {
      name: "kernel_shape"
      ints: 1
      ints: 1
      type: INTS
    }
    attribute {
      name: "pads"
      ints: 0
      ints: 0
      ints: 0
      ints: 0
      type: INTS
    }
  }
  node {
    input: "528_QuantizeInput"
    input: "528_scale"
    input: "528_zero_point"
    output: "528_quantized"
    name: "528_Conv_178_QuantizeLinear"
    op_type: "QuantizeLinear"
  }
  node {
    input: "528_quantized"
    input: "528_scale"
    input: "528_zero_point"
    output: "528_Conv_181_dequantized"
    name: "528_Conv_181_DequantizeLinear"
    op_type: "DequantizeLinear"
  }
  node {
    input: "528_Conv_181_dequantized"
    input: "ConvBnFusion_W_stage3.7.branch2.3.weight_dequantized"
    input: "ConvBnFusion_BN_B_stage3.7.branch2.4.bias_dequantized"
    output: "531_QuantizeInput"
    name: "Conv_181_quant"
    op_type: "Conv"
    attribute {
      name: "auto_pad"
      s: "NOTSET"
      type: STRING
    }
    attribute {
      name: "dilations"
      ints: 1
      ints: 1
      type: INTS
    }
    attribute {
      name: "group"
      i: 116
      type: INT
    }
    attribute {
      name: "strides"
      ints: 1
      ints: 1
      type: INTS
    }
    attribute {
      name: "kernel_shape"
      ints: 3
      ints: 3
      type: INTS
    }
    attribute {
      name: "pads"
      ints: 1
      ints: 1
      ints: 1
      ints: 1
      type: INTS
    }
  }
  node {
    input: "531_QuantizeInput"
    input: "531_scale"
    input: "531_zero_point"
    output: "531_quantized"
    name: "531_Conv_181_QuantizeLinear"
    op_type: "QuantizeLinear"
  }
  node {
    input: "531_quantized"
    input: "531_scale"
    input: "531_zero_point"
    output: "531_Conv_183_dequantized"
    name: "531_Conv_183_DequantizeLinear"
    op_type: "DequantizeLinear"
  }
  node {
    input: "531_Conv_183_dequantized"
    input: "ConvBnFusion_W_stage3.7.branch2.5.weight_dequantized"
    input: "ConvBnFusion_BN_B_stage3.7.branch2.6.bias_dequantized"
    output: "533_QuantizeInput"
    name: "Conv_183_quant"
    op_type: "Conv"
    attribute {
      name: "auto_pad"
      s: "NOTSET"
      type: STRING
    }
    attribute {
      name: "dilations"
      ints: 1
      ints: 1
      type: INTS
    }
    attribute {
      name: "group"
      i: 1
      type: INT
    }
    attribute {
      name: "strides"
      ints: 1
      ints: 1
      type: INTS
    }
    attribute {
      name: "kernel_shape"
      ints: 1
      ints: 1
      type: INTS
    }
    attribute {
      name: "pads"
      ints: 0
      ints: 0
      ints: 0
      ints: 0
      type: INTS
    }
  }
  node {
    input: "533_QuantizeInput"
    input: "533_scale"
    input: "533_zero_point"
    output: "533_quantized"
    name: "533_Conv_183_QuantizeLinear"
    op_type: "QuantizeLinear"
  }
  node {
    input: "533_quantized"
    input: "533_scale"
    input: "533_zero_point"
    output: "533_Concat_186_dequantized"
    name: "533_Concat_186_DequantizeLinear"
    op_type: "DequantizeLinear"
  }
  node {
    input: "525_Concat_186_dequantized"
    input: "533_Concat_186_dequantized"
    output: "535_QuantizeInput"
    name: "Concat_186_quant"
    op_type: "Concat"
    attribute {
      name: "axis"
      i: 1
      type: INT
    }
  }
  node {
    input: "535_QuantizeInput"
    input: "535_scale"
    input: "535_zero_point"
    output: "535_quantized"
    name: "535_Concat_186_QuantizeLinear"
    op_type: "QuantizeLinear"
  }
  node {
    input: "535_quantized"
    input: "535_scale"
    input: "535_zero_point"
    output: "535_Reshape_188_dequantized"
    name: "535_Reshape_188_DequantizeLinear"
    op_type: "DequantizeLinear"
  }
  node {
    input: "535_Reshape_188_dequantized"
    input: "536"
    output: "537_QuantizeInput"
    name: "Reshape_188_quant"
    op_type: "Reshape"
  }
  node {
    input: "537_QuantizeInput"
    input: "535_scale"
    input: "535_zero_point"
    output: "537_quantized"
    name: "537_Reshape_188_QuantizeLinear"
    op_type: "QuantizeLinear"
  }
  node {
    input: "537_quantized"
    input: "535_scale"
    input: "535_zero_point"
    output: "537_Transpose_189_dequantized"
    name: "537_Transpose_189_DequantizeLinear"
    op_type: "DequantizeLinear"
  }
  node {
    input: "537_Transpose_189_dequantized"
    output: "538_QuantizeInput"
    name: "Transpose_189_quant"
    op_type: "Transpose"
    attribute {
      name: "perm"
      ints: 0
      ints: 2
      ints: 1
      ints: 3
      ints: 4
      type: INTS
    }
  }
  node {
    input: "538_QuantizeInput"
    input: "535_scale"
    input: "535_zero_point"
    output: "538_quantized"
    name: "538_Transpose_189_QuantizeLinear"
    op_type: "QuantizeLinear"
  }
  node {
    input: "538_quantized"
    input: "535_scale"
    input: "535_zero_point"
    output: "538_Reshape_191_dequantized"
    name: "538_Reshape_191_DequantizeLinear"
    op_type: "DequantizeLinear"
  }
  node {
    input: "538_Reshape_191_dequantized"
    input: "539"
    output: "540_QuantizeInput"
    name: "Reshape_191_quant"
    op_type: "Reshape"
  }
  node {
    input: "540_QuantizeInput"
    input: "535_scale"
    input: "535_zero_point"
    output: "540_quantized"
    name: "540_Reshape_191_QuantizeLinear"
    op_type: "QuantizeLinear"
  }
  node {
    input: "540_quantized"
    input: "535_scale"
    input: "535_zero_point"
    output: "540_Conv_197_dequantized"
    name: "540_Conv_197_DequantizeLinear"
    op_type: "DequantizeLinear"
  }
  node {
    input: "540_Conv_197_dequantized"
    input: "ConvBnFusion_W_stage4.0.branch2.0.weight_dequantized"
    input: "ConvBnFusion_BN_B_stage4.0.branch2.1.bias_dequantized"
    output: "547_QuantizeInput"
    name: "Conv_197_quant"
    op_type: "Conv"
    attribute {
      name: "auto_pad"
      s: "NOTSET"
      type: STRING
    }
    attribute {
      name: "dilations"
      ints: 1
      ints: 1
      type: INTS
    }
    attribute {
      name: "group"
      i: 1
      type: INT
    }
    attribute {
      name: "strides"
      ints: 1
      ints: 1
      type: INTS
    }
    attribute {
      name: "kernel_shape"
      ints: 1
      ints: 1
      type: INTS
    }
    attribute {
      name: "pads"
      ints: 0
      ints: 0
      ints: 0
      ints: 0
      type: INTS
    }
  }
  node {
    input: "540_Conv_197_dequantized"
    input: "ConvBnFusion_W_stage4.0.branch1.0.weight_dequantized"
    input: "ConvBnFusion_BN_B_stage4.0.branch1.1.bias_dequantized"
    output: "542_QuantizeInput"
    name: "Conv_192_quant"
    op_type: "Conv"
    attribute {
      name: "auto_pad"
      s: "NOTSET"
      type: STRING
    }
    attribute {
      name: "dilations"
      ints: 1
      ints: 1
      type: INTS
    }
    attribute {
      name: "group"
      i: 232
      type: INT
    }
    attribute {
      name: "strides"
      ints: 2
      ints: 2
      type: INTS
    }
    attribute {
      name: "kernel_shape"
      ints: 3
      ints: 3
      type: INTS
    }
    attribute {
      name: "pads"
      ints: 1
      ints: 1
      ints: 1
      ints: 1
      type: INTS
    }
  }
  node {
    input: "547_QuantizeInput"
    input: "547_scale"
    input: "547_zero_point"
    output: "547_quantized"
    name: "547_Conv_197_QuantizeLinear"
    op_type: "QuantizeLinear"
  }
  node {
    input: "542_QuantizeInput"
    input: "542_scale"
    input: "542_zero_point"
    output: "542_quantized"
    name: "542_Conv_192_QuantizeLinear"
    op_type: "QuantizeLinear"
  }
  node {
    input: "547_quantized"
    input: "547_scale"
    input: "547_zero_point"
    output: "547_Conv_200_dequantized"
    name: "547_Conv_200_DequantizeLinear"
    op_type: "DequantizeLinear"
  }
  node {
    input: "542_quantized"
    input: "542_scale"
    input: "542_zero_point"
    output: "542_Conv_194_dequantized"
    name: "542_Conv_194_DequantizeLinear"
    op_type: "DequantizeLinear"
  }
  node {
    input: "547_Conv_200_dequantized"
    input: "ConvBnFusion_W_stage4.0.branch2.3.weight_dequantized"
    input: "ConvBnFusion_BN_B_stage4.0.branch2.4.bias_dequantized"
    output: "550_QuantizeInput"
    name: "Conv_200_quant"
    op_type: "Conv"
    attribute {
      name: "auto_pad"
      s: "NOTSET"
      type: STRING
    }
    attribute {
      name: "dilations"
      ints: 1
      ints: 1
      type: INTS
    }
    attribute {
      name: "group"
      i: 232
      type: INT
    }
    attribute {
      name: "strides"
      ints: 2
      ints: 2
      type: INTS
    }
    attribute {
      name: "kernel_shape"
      ints: 3
      ints: 3
      type: INTS
    }
    attribute {
      name: "pads"
      ints: 1
      ints: 1
      ints: 1
      ints: 1
      type: INTS
    }
  }
  node {
    input: "542_Conv_194_dequantized"
    input: "ConvBnFusion_W_stage4.0.branch1.2.weight_dequantized"
    input: "ConvBnFusion_BN_B_stage4.0.branch1.3.bias_dequantized"
    output: "544_QuantizeInput"
    name: "Conv_194_quant"
    op_type: "Conv"
    attribute {
      name: "auto_pad"
      s: "NOTSET"
      type: STRING
    }
    attribute {
      name: "dilations"
      ints: 1
      ints: 1
      type: INTS
    }
    attribute {
      name: "group"
      i: 1
      type: INT
    }
    attribute {
      name: "strides"
      ints: 1
      ints: 1
      type: INTS
    }
    attribute {
      name: "kernel_shape"
      ints: 1
      ints: 1
      type: INTS
    }
    attribute {
      name: "pads"
      ints: 0
      ints: 0
      ints: 0
      ints: 0
      type: INTS
    }
  }
  node {
    input: "550_QuantizeInput"
    input: "550_scale"
    input: "550_zero_point"
    output: "550_quantized"
    name: "550_Conv_200_QuantizeLinear"
    op_type: "QuantizeLinear"
  }
  node {
    input: "544_QuantizeInput"
    input: "544_scale"
    input: "544_zero_point"
    output: "544_quantized"
    name: "544_Conv_194_QuantizeLinear"
    op_type: "QuantizeLinear"
  }
  node {
    input: "550_quantized"
    input: "550_scale"
    input: "550_zero_point"
    output: "550_Conv_202_dequantized"
    name: "550_Conv_202_DequantizeLinear"
    op_type: "DequantizeLinear"
  }
  node {
    input: "544_quantized"
    input: "544_scale"
    input: "544_zero_point"
    output: "544_Concat_205_dequantized"
    name: "544_Concat_205_DequantizeLinear"
    op_type: "DequantizeLinear"
  }
  node {
    input: "550_Conv_202_dequantized"
    input: "ConvBnFusion_W_stage4.0.branch2.5.weight_dequantized"
    input: "ConvBnFusion_BN_B_stage4.0.branch2.6.bias_dequantized"
    output: "552_QuantizeInput"
    name: "Conv_202_quant"
    op_type: "Conv"
    attribute {
      name: "auto_pad"
      s: "NOTSET"
      type: STRING
    }
    attribute {
      name: "dilations"
      ints: 1
      ints: 1
      type: INTS
    }
    attribute {
      name: "group"
      i: 1
      type: INT
    }
    attribute {
      name: "strides"
      ints: 1
      ints: 1
      type: INTS
    }
    attribute {
      name: "kernel_shape"
      ints: 1
      ints: 1
      type: INTS
    }
    attribute {
      name: "pads"
      ints: 0
      ints: 0
      ints: 0
      ints: 0
      type: INTS
    }
  }
  node {
    input: "552_QuantizeInput"
    input: "552_scale"
    input: "552_zero_point"
    output: "552_quantized"
    name: "552_Conv_202_QuantizeLinear"
    op_type: "QuantizeLinear"
  }
  node {
    input: "552_quantized"
    input: "552_scale"
    input: "552_zero_point"
    output: "552_Concat_205_dequantized"
    name: "552_Concat_205_DequantizeLinear"
    op_type: "DequantizeLinear"
  }
  node {
    input: "544_Concat_205_dequantized"
    input: "552_Concat_205_dequantized"
    output: "554_QuantizeInput"
    name: "Concat_205_quant"
    op_type: "Concat"
    attribute {
      name: "axis"
      i: 1
      type: INT
    }
  }
  node {
    input: "554_QuantizeInput"
    input: "554_scale"
    input: "554_zero_point"
    output: "554_quantized"
    name: "554_Concat_205_QuantizeLinear"
    op_type: "QuantizeLinear"
  }
  node {
    input: "554_quantized"
    input: "554_scale"
    input: "554_zero_point"
    output: "554_Reshape_207_dequantized"
    name: "554_Reshape_207_DequantizeLinear"
    op_type: "DequantizeLinear"
  }
  node {
    input: "554_Reshape_207_dequantized"
    input: "555"
    output: "556_QuantizeInput"
    name: "Reshape_207_quant"
    op_type: "Reshape"
  }
  node {
    input: "556_QuantizeInput"
    input: "554_scale"
    input: "554_zero_point"
    output: "556_quantized"
    name: "556_Reshape_207_QuantizeLinear"
    op_type: "QuantizeLinear"
  }
  node {
    input: "556_quantized"
    input: "554_scale"
    input: "554_zero_point"
    output: "556_Transpose_208_dequantized"
    name: "556_Transpose_208_DequantizeLinear"
    op_type: "DequantizeLinear"
  }
  node {
    input: "556_Transpose_208_dequantized"
    output: "557_QuantizeInput"
    name: "Transpose_208_quant"
    op_type: "Transpose"
    attribute {
      name: "perm"
      ints: 0
      ints: 2
      ints: 1
      ints: 3
      ints: 4
      type: INTS
    }
  }
  node {
    input: "557_QuantizeInput"
    input: "554_scale"
    input: "554_zero_point"
    output: "557_quantized"
    name: "557_Transpose_208_QuantizeLinear"
    op_type: "QuantizeLinear"
  }
  node {
    input: "557_quantized"
    input: "554_scale"
    input: "554_zero_point"
    output: "557_Reshape_210_dequantized"
    name: "557_Reshape_210_DequantizeLinear"
    op_type: "DequantizeLinear"
  }
  node {
    input: "557_Reshape_210_dequantized"
    input: "558"
    output: "559_QuantizeInput"
    name: "Reshape_210_quant"
    op_type: "Reshape"
  }
  node {
    input: "559_QuantizeInput"
    input: "554_scale"
    input: "554_zero_point"
    output: "559_quantized"
    name: "559_Reshape_210_QuantizeLinear"
    op_type: "QuantizeLinear"
  }
  node {
    input: "559_quantized"
    input: "554_scale"
    input: "554_zero_point"
    output: "559_Split_211_dequantized"
    name: "559_Split_211_DequantizeLinear"
    op_type: "DequantizeLinear"
  }
  node {
    input: "559_Split_211_dequantized"
    output: "560_QuantizeInput"
    output: "561_QuantizeInput"
    name: "Split_211_quant"
    op_type: "Split"
    attribute {
      name: "split"
      ints: 232
      ints: 232
      type: INTS
    }
    attribute {
      name: "axis"
      i: 1
      type: INT
    }
  }
  node {
    input: "560_QuantizeInput"
    input: "554_scale"
    input: "554_zero_point"
    output: "560_quantized"
    name: "560_Split_211_QuantizeLinear"
    op_type: "QuantizeLinear"
  }
  node {
    input: "561_QuantizeInput"
    input: "554_scale"
    input: "554_zero_point"
    output: "561_quantized"
    name: "561_Split_211_QuantizeLinear"
    op_type: "QuantizeLinear"
  }
  node {
    input: "560_quantized"
    input: "554_scale"
    input: "554_zero_point"
    output: "560_Concat_220_dequantized"
    name: "560_Concat_220_DequantizeLinear"
    op_type: "DequantizeLinear"
  }
  node {
    input: "561_quantized"
    input: "554_scale"
    input: "554_zero_point"
    output: "561_Conv_212_dequantized"
    name: "561_Conv_212_DequantizeLinear"
    op_type: "DequantizeLinear"
  }
  node {
    input: "561_Conv_212_dequantized"
    input: "ConvBnFusion_W_stage4.1.branch2.0.weight_dequantized"
    input: "ConvBnFusion_BN_B_stage4.1.branch2.1.bias_dequantized"
    output: "563_QuantizeInput"
    name: "Conv_212_quant"
    op_type: "Conv"
    attribute {
      name: "auto_pad"
      s: "NOTSET"
      type: STRING
    }
    attribute {
      name: "dilations"
      ints: 1
      ints: 1
      type: INTS
    }
    attribute {
      name: "group"
      i: 1
      type: INT
    }
    attribute {
      name: "strides"
      ints: 1
      ints: 1
      type: INTS
    }
    attribute {
      name: "kernel_shape"
      ints: 1
      ints: 1
      type: INTS
    }
    attribute {
      name: "pads"
      ints: 0
      ints: 0
      ints: 0
      ints: 0
      type: INTS
    }
  }
  node {
    input: "563_QuantizeInput"
    input: "563_scale"
    input: "563_zero_point"
    output: "563_quantized"
    name: "563_Conv_212_QuantizeLinear"
    op_type: "QuantizeLinear"
  }
  node {
    input: "563_quantized"
    input: "563_scale"
    input: "563_zero_point"
    output: "563_Conv_215_dequantized"
    name: "563_Conv_215_DequantizeLinear"
    op_type: "DequantizeLinear"
  }
  node {
    input: "563_Conv_215_dequantized"
    input: "ConvBnFusion_W_stage4.1.branch2.3.weight_dequantized"
    input: "ConvBnFusion_BN_B_stage4.1.branch2.4.bias_dequantized"
    output: "566_QuantizeInput"
    name: "Conv_215_quant"
    op_type: "Conv"
    attribute {
      name: "auto_pad"
      s: "NOTSET"
      type: STRING
    }
    attribute {
      name: "dilations"
      ints: 1
      ints: 1
      type: INTS
    }
    attribute {
      name: "group"
      i: 232
      type: INT
    }
    attribute {
      name: "strides"
      ints: 1
      ints: 1
      type: INTS
    }
    attribute {
      name: "kernel_shape"
      ints: 3
      ints: 3
      type: INTS
    }
    attribute {
      name: "pads"
      ints: 1
      ints: 1
      ints: 1
      ints: 1
      type: INTS
    }
  }
  node {
    input: "566_QuantizeInput"
    input: "566_scale"
    input: "566_zero_point"
    output: "566_quantized"
    name: "566_Conv_215_QuantizeLinear"
    op_type: "QuantizeLinear"
  }
  node {
    input: "566_quantized"
    input: "566_scale"
    input: "566_zero_point"
    output: "566_Conv_217_dequantized"
    name: "566_Conv_217_DequantizeLinear"
    op_type: "DequantizeLinear"
  }
  node {
    input: "566_Conv_217_dequantized"
    input: "ConvBnFusion_W_stage4.1.branch2.5.weight_dequantized"
    input: "ConvBnFusion_BN_B_stage4.1.branch2.6.bias_dequantized"
    output: "568_QuantizeInput"
    name: "Conv_217_quant"
    op_type: "Conv"
    attribute {
      name: "auto_pad"
      s: "NOTSET"
      type: STRING
    }
    attribute {
      name: "dilations"
      ints: 1
      ints: 1
      type: INTS
    }
    attribute {
      name: "group"
      i: 1
      type: INT
    }
    attribute {
      name: "strides"
      ints: 1
      ints: 1
      type: INTS
    }
    attribute {
      name: "kernel_shape"
      ints: 1
      ints: 1
      type: INTS
    }
    attribute {
      name: "pads"
      ints: 0
      ints: 0
      ints: 0
      ints: 0
      type: INTS
    }
  }
  node {
    input: "568_QuantizeInput"
    input: "568_scale"
    input: "568_zero_point"
    output: "568_quantized"
    name: "568_Conv_217_QuantizeLinear"
    op_type: "QuantizeLinear"
  }
  node {
    input: "568_quantized"
    input: "568_scale"
    input: "568_zero_point"
    output: "568_Concat_220_dequantized"
    name: "568_Concat_220_DequantizeLinear"
    op_type: "DequantizeLinear"
  }
  node {
    input: "560_Concat_220_dequantized"
    input: "568_Concat_220_dequantized"
    output: "570_QuantizeInput"
    name: "Concat_220_quant"
    op_type: "Concat"
    attribute {
      name: "axis"
      i: 1
      type: INT
    }
  }
  node {
    input: "570_QuantizeInput"
    input: "570_scale"
    input: "570_zero_point"
    output: "570_quantized"
    name: "570_Concat_220_QuantizeLinear"
    op_type: "QuantizeLinear"
  }
  node {
    input: "570_quantized"
    input: "570_scale"
    input: "570_zero_point"
    output: "570_Reshape_222_dequantized"
    name: "570_Reshape_222_DequantizeLinear"
    op_type: "DequantizeLinear"
  }
  node {
    input: "570_Reshape_222_dequantized"
    input: "571"
    output: "572_QuantizeInput"
    name: "Reshape_222_quant"
    op_type: "Reshape"
  }
  node {
    input: "572_QuantizeInput"
    input: "570_scale"
    input: "570_zero_point"
    output: "572_quantized"
    name: "572_Reshape_222_QuantizeLinear"
    op_type: "QuantizeLinear"
  }
  node {
    input: "572_quantized"
    input: "570_scale"
    input: "570_zero_point"
    output: "572_Transpose_223_dequantized"
    name: "572_Transpose_223_DequantizeLinear"
    op_type: "DequantizeLinear"
  }
  node {
    input: "572_Transpose_223_dequantized"
    output: "573_QuantizeInput"
    name: "Transpose_223_quant"
    op_type: "Transpose"
    attribute {
      name: "perm"
      ints: 0
      ints: 2
      ints: 1
      ints: 3
      ints: 4
      type: INTS
    }
  }
  node {
    input: "573_QuantizeInput"
    input: "570_scale"
    input: "570_zero_point"
    output: "573_quantized"
    name: "573_Transpose_223_QuantizeLinear"
    op_type: "QuantizeLinear"
  }
  node {
    input: "573_quantized"
    input: "570_scale"
    input: "570_zero_point"
    output: "573_Reshape_225_dequantized"
    name: "573_Reshape_225_DequantizeLinear"
    op_type: "DequantizeLinear"
  }
  node {
    input: "573_Reshape_225_dequantized"
    input: "574"
    output: "575_QuantizeInput"
    name: "Reshape_225_quant"
    op_type: "Reshape"
  }
  node {
    input: "575_QuantizeInput"
    input: "570_scale"
    input: "570_zero_point"
    output: "575_quantized"
    name: "575_Reshape_225_QuantizeLinear"
    op_type: "QuantizeLinear"
  }
  node {
    input: "575_quantized"
    input: "570_scale"
    input: "570_zero_point"
    output: "575_Split_226_dequantized"
    name: "575_Split_226_DequantizeLinear"
    op_type: "DequantizeLinear"
  }
  node {
    input: "575_Split_226_dequantized"
    output: "576_QuantizeInput"
    output: "577_QuantizeInput"
    name: "Split_226_quant"
    op_type: "Split"
    attribute {
      name: "split"
      ints: 232
      ints: 232
      type: INTS
    }
    attribute {
      name: "axis"
      i: 1
      type: INT
    }
  }
  node {
    input: "576_QuantizeInput"
    input: "570_scale"
    input: "570_zero_point"
    output: "576_quantized"
    name: "576_Split_226_QuantizeLinear"
    op_type: "QuantizeLinear"
  }
  node {
    input: "577_QuantizeInput"
    input: "570_scale"
    input: "570_zero_point"
    output: "577_quantized"
    name: "577_Split_226_QuantizeLinear"
    op_type: "QuantizeLinear"
  }
  node {
    input: "576_quantized"
    input: "570_scale"
    input: "570_zero_point"
    output: "576_Concat_235_dequantized"
    name: "576_Concat_235_DequantizeLinear"
    op_type: "DequantizeLinear"
  }
  node {
    input: "577_quantized"
    input: "570_scale"
    input: "570_zero_point"
    output: "577_Conv_227_dequantized"
    name: "577_Conv_227_DequantizeLinear"
    op_type: "DequantizeLinear"
  }
  node {
    input: "577_Conv_227_dequantized"
    input: "ConvBnFusion_W_stage4.2.branch2.0.weight_dequantized"
    input: "ConvBnFusion_BN_B_stage4.2.branch2.1.bias_dequantized"
    output: "579_QuantizeInput"
    name: "Conv_227_quant"
    op_type: "Conv"
…
    name: "ConvBnFusion_W_stage2.3.branch2.5.weight_scale"
    type {
      tensor_type {
        elem_type: 1
        shape {
        }
      }
    }
  }
  value_info {
    name: "ConvBnFusion_W_stage2.3.branch2.5.weight_zero_point"
    type {
      tensor_type {
        elem_type: 3
        shape {
        }
      }
    }
  }
  value_info {
    name: "402_zero_point"
    type {
      tensor_type {
        elem_type: 2
        shape {
        }
      }
    }
  }
  value_info {
    name: "402_scale"
    type {
      tensor_type {
        elem_type: 1
        shape {
        }
      }
    }
  }
  value_info {
    name: "ConvBnFusion_BN_B_stage2.3.branch2.6.bias_quantized"
    type {
      tensor_type {
        elem_type: 6
        shape {
          dim {
            dim_value: 58
          }
        }
      }
    }
  }
  value_info {
    name: "ConvBnFusion_BN_B_stage2.3.branch2.6.bias_scale"
    type {
      tensor_type {
        elem_type: 1
        shape {
          dim {
            dim_value: 1
          }
        }
      }
    }
  }
  value_info {
    name: "ConvBnFusion_BN_B_stage2.3.branch2.6.bias_zero_point"
    type {
      tensor_type {
        elem_type: 6
        shape {
          dim {
            dim_value: 1
          }
        }
      }
    }
  }
  value_info {
    name: "404_zero_point"
    type {
      tensor_type {
        elem_type: 2
        shape {
        }
      }
    }
  }
  value_info {
    name: "404_scale"
    type {
      tensor_type {
        elem_type: 1
        shape {
        }
      }
    }
  }
  value_info {
    name: "ConvBnFusion_W_stage3.0.branch2.0.weight_scale"
    type {
      tensor_type {
        elem_type: 1
        shape {
        }
      }
    }
  }
  value_info {
    name: "ConvBnFusion_W_stage3.0.branch2.0.weight_zero_point"
    type {
      tensor_type {
        elem_type: 3
        shape {
        }
      }
    }
  }
  value_info {
    name: "416_zero_point"
    type {
      tensor_type {
        elem_type: 2
        shape {
        }
      }
    }
  }
  value_info {
    name: "416_scale"
    type {
      tensor_type {
        elem_type: 1
        shape {
        }
      }
    }
  }
  value_info {
    name: "ConvBnFusion_BN_B_stage3.0.branch2.1.bias_scale"
    type {
      tensor_type {
        elem_type: 1
        shape {
          dim {
            dim_value: 1
          }
        }
      }
    }
  }
  value_info {
    name: "ConvBnFusion_BN_B_stage3.0.branch2.1.bias_zero_point"
    type {
      tensor_type {
        elem_type: 6
        shape {
          dim {
            dim_value: 1
          }
        }
      }
    }
  }
  value_info {
    name: "ConvBnFusion_W_stage3.0.branch1.0.weight_scale"
    type {
      tensor_type {
        elem_type: 1
        shape {
        }
      }
    }
  }
  value_info {
    name: "ConvBnFusion_W_stage3.0.branch1.0.weight_zero_point"
    type {
      tensor_type {
        elem_type: 3
        shape {
        }
      }
    }
  }
  value_info {
    name: "411_zero_point"
    type {
      tensor_type {
        elem_type: 2
        shape {
        }
      }
    }
  }
  value_info {
    name: "411_scale"
    type {
      tensor_type {
        elem_type: 1
        shape {
        }
      }
    }
  }
  value_info {
    name: "ConvBnFusion_BN_B_stage3.0.branch1.1.bias_scale"
    type {
      tensor_type {
        elem_type: 1
        shape {
          dim {
            dim_value: 1
          }
        }
      }
    }
  }
  value_info {
    name: "ConvBnFusion_BN_B_stage3.0.branch1.1.bias_zero_point"
    type {
      tensor_type {
        elem_type: 6
        shape {
          dim {
            dim_value: 1
          }
        }
      }
    }
  }
  value_info {
    name: "ConvBnFusion_W_stage3.0.branch1.2.weight_scale"
    type {
      tensor_type {
        elem_type: 1
        shape {
        }
      }
    }
  }
  value_info {
    name: "ConvBnFusion_W_stage3.0.branch1.2.weight_zero_point"
    type {
      tensor_type {
        elem_type: 3
        shape {
        }
      }
    }
  }
  value_info {
    name: "413_zero_point"
    type {
      tensor_type {
        elem_type: 2
        shape {
        }
      }
    }
  }
  value_info {
    name: "413_scale"
    type {
      tensor_type {
        elem_type: 1
        shape {
        }
      }
    }
  }
  value_info {
    name: "ConvBnFusion_BN_B_stage3.0.branch1.3.bias_scale"
    type {
      tensor_type {
        elem_type: 1
        shape {
          dim {
            dim_value: 1
          }
        }
      }
    }
  }
  value_info {
    name: "ConvBnFusion_BN_B_stage3.0.branch1.3.bias_zero_point"
    type {
      tensor_type {
        elem_type: 6
        shape {
          dim {
            dim_value: 1
          }
        }
      }
    }
  }
  value_info {
    name: "ConvBnFusion_W_stage3.0.branch2.3.weight_scale"
    type {
      tensor_type {
        elem_type: 1
        shape {
        }
      }
    }
  }
  value_info {
    name: "ConvBnFusion_W_stage3.0.branch2.3.weight_zero_point"
    type {
      tensor_type {
        elem_type: 3
        shape {
        }
      }
    }
  }
  value_info {
    name: "419_zero_point"
    type {
      tensor_type {
        elem_type: 2
        shape {
        }
      }
    }
  }
  value_info {
    name: "419_scale"
    type {
      tensor_type {
        elem_type: 1
        shape {
        }
      }
    }
  }
  value_info {
    name: "ConvBnFusion_BN_B_stage3.0.branch2.4.bias_scale"
    type {
      tensor_type {
        elem_type: 1
        shape {
          dim {
            dim_value: 1
          }
        }
      }
    }
  }
  value_info {
    name: "ConvBnFusion_BN_B_stage3.0.branch2.4.bias_zero_point"
    type {
      tensor_type {
        elem_type: 6
        shape {
          dim {
            dim_value: 1
          }
        }
      }
    }
  }
  value_info {
    name: "ConvBnFusion_W_stage3.0.branch2.5.weight_scale"
    type {
      tensor_type {
        elem_type: 1
        shape {
        }
      }
    }
  }
  value_info {
    name: "ConvBnFusion_W_stage3.0.branch2.5.weight_zero_point"
    type {
      tensor_type {
        elem_type: 3
        shape {
        }
      }
    }
  }
  value_info {
    name: "421_zero_point"
    type {
      tensor_type {
        elem_type: 2
        shape {
        }
      }
    }
  }
  value_info {
    name: "421_scale"
    type {
      tensor_type {
        elem_type: 1
        shape {
        }
      }
    }
  }
  value_info {
    name: "ConvBnFusion_BN_B_stage3.0.branch2.6.bias_scale"
    type {
      tensor_type {
        elem_type: 1
        shape {
          dim {
            dim_value: 1
          }
        }
      }
    }
  }
  value_info {
    name: "ConvBnFusion_BN_B_stage3.0.branch2.6.bias_zero_point"
    type {
      tensor_type {
        elem_type: 6
        shape {
          dim {
            dim_value: 1
          }
        }
      }
    }
  }
  value_info {
    name: "423_zero_point"
    type {
      tensor_type {
        elem_type: 2
        shape {
        }
      }
    }
  }
  value_info {
    name: "423_scale"
    type {
      tensor_type {
        elem_type: 1
        shape {
        }
      }
    }
  }
  value_info {
    name: "ConvBnFusion_W_stage3.1.branch2.0.weight_scale"
    type {
      tensor_type {
        elem_type: 1
        shape {
        }
      }
    }
  }
  value_info {
    name: "ConvBnFusion_W_stage3.1.branch2.0.weight_zero_point"
    type {
      tensor_type {
        elem_type: 3
        shape {
        }
      }
    }
  }
  value_info {
    name: "432_zero_point"
    type {
      tensor_type {
        elem_type: 2
        shape {
        }
      }
    }
  }
  value_info {
    name: "432_scale"
    type {
      tensor_type {
        elem_type: 1
        shape {
        }
      }
    }
  }
  value_info {
    name: "ConvBnFusion_BN_B_stage3.1.branch2.1.bias_scale"
    type {
      tensor_type {
        elem_type: 1
        shape {
          dim {
            dim_value: 1
          }
        }
      }
    }
  }
  value_info {
    name: "ConvBnFusion_BN_B_stage3.1.branch2.1.bias_zero_point"
    type {
      tensor_type {
        elem_type: 6
        shape {
          dim {
            dim_value: 1
          }
        }
      }
    }
  }
  value_info {
    name: "ConvBnFusion_W_stage3.1.branch2.3.weight_scale"
    type {
      tensor_type {
        elem_type: 1
        shape {
        }
      }
    }
  }
  value_info {
    name: "ConvBnFusion_W_stage3.1.branch2.3.weight_zero_point"
    type {
      tensor_type {
        elem_type: 3
        shape {
        }
      }
    }
  }
  value_info {
    name: "435_zero_point"
    type {
      tensor_type {
        elem_type: 2
        shape {
        }
      }
    }
  }
  value_info {
    name: "435_scale"
    type {
      tensor_type {
        elem_type: 1
        shape {
        }
      }
    }
  }
  value_info {
    name: "ConvBnFusion_BN_B_stage3.1.branch2.4.bias_scale"
    type {
      tensor_type {
        elem_type: 1
        shape {
          dim {
            dim_value: 1
          }
        }
      }
    }
  }
  value_info {
    name: "ConvBnFusion_BN_B_stage3.1.branch2.4.bias_zero_point"
    type {
      tensor_type {
        elem_type: 6
        shape {
          dim {
            dim_value: 1
          }
        }
      }
    }
  }
  value_info {
    name: "ConvBnFusion_W_stage3.1.branch2.5.weight_scale"
    type {
      tensor_type {
        elem_type: 1
        shape {
        }
      }
    }
  }
  value_info {
    name: "ConvBnFusion_W_stage3.1.branch2.5.weight_zero_point"
    type {
      tensor_type {
        elem_type: 3
        shape {
        }
      }
    }
  }
  value_info {
    name: "437_zero_point"
    type {
      tensor_type {
        elem_type: 2
        shape {
        }
      }
    }
  }
  value_info {
    name: "437_scale"
    type {
      tensor_type {
        elem_type: 1
        shape {
        }
      }
    }
  }
  value_info {
    name: "ConvBnFusion_BN_B_stage3.1.branch2.6.bias_scale"
    type {
      tensor_type {
        elem_type: 1
        shape {
          dim {
            dim_value: 1
          }
        }
      }
    }
  }
  value_info {
    name: "ConvBnFusion_BN_B_stage3.1.branch2.6.bias_zero_point"
    type {
      tensor_type {
        elem_type: 6
        shape {
          dim {
            dim_value: 1
          }
        }
      }
    }
  }
  value_info {
    name: "439_zero_point"
    type {
      tensor_type {
        elem_type: 2
        shape {
        }
      }
    }
  }
  value_info {
    name: "439_scale"
    type {
      tensor_type {
        elem_type: 1
        shape {
        }
      }
    }
  }
  value_info {
    name: "ConvBnFusion_W_stage3.2.branch2.0.weight_scale"
    type {
      tensor_type {
        elem_type: 1
        shape {
        }
      }
    }
  }
  value_info {
    name: "ConvBnFusion_W_stage3.2.branch2.0.weight_zero_point"
    type {
      tensor_type {
        elem_type: 3
        shape {
        }
      }
    }
  }
  value_info {
    name: "448_zero_point"
    type {
      tensor_type {
        elem_type: 2
        shape {
        }
      }
    }
  }
  value_info {
    name: "448_scale"
    type {
      tensor_type {
        elem_type: 1
        shape {
        }
      }
    }
  }
  value_info {
    name: "ConvBnFusion_BN_B_stage3.2.branch2.1.bias_scale"
    type {
      tensor_type {
        elem_type: 1
        shape {
          dim {
            dim_value: 1
          }
        }
      }
    }
  }
  value_info {
    name: "ConvBnFusion_BN_B_stage3.2.branch2.1.bias_zero_point"
    type {
      tensor_type {
        elem_type: 6
        shape {
          dim {
            dim_value: 1
          }
        }
      }
    }
  }
  value_info {
    name: "ConvBnFusion_W_stage3.2.branch2.3.weight_scale"
    type {
      tensor_type {
        elem_type: 1
        shape {
        }
      }
    }
  }
  value_info {
    name: "ConvBnFusion_W_stage3.2.branch2.3.weight_zero_point"
    type {
      tensor_type {
        elem_type: 3
        shape {
        }
      }
    }
  }
  value_info {
    name: "451_zero_point"
    type {
      tensor_type {
        elem_type: 2
        shape {
        }
      }
    }
  }
  value_info {
    name: "451_scale"
    type {
      tensor_type {
        elem_type: 1
        shape {
        }
      }
    }
  }
  value_info {
    name: "ConvBnFusion_BN_B_stage3.2.branch2.4.bias_scale"
    type {
      tensor_type {
        elem_type: 1
        shape {
          dim {
            dim_value: 1
          }
        }
      }
    }
  }
  value_info {
    name: "ConvBnFusion_BN_B_stage3.2.branch2.4.bias_zero_point"
    type {
      tensor_type {
        elem_type: 6
        shape {
          dim {
            dim_value: 1
          }
        }
      }
    }
  }
  value_info {
    name: "ConvBnFusion_W_stage3.2.branch2.5.weight_scale"
    type {
      tensor_type {
        elem_type: 1
        shape {
        }
      }
    }
  }
  value_info {
    name: "ConvBnFusion_W_stage3.2.branch2.5.weight_zero_point"
    type {
      tensor_type {
        elem_type: 3
        shape {
        }
      }
    }
  }
  value_info {
    name: "453_zero_point"
    type {
      tensor_type {
        elem_type: 2
        shape {
        }
      }
    }
  }
  value_info {
    name: "453_scale"
    type {
      tensor_type {
        elem_type: 1
        shape {
        }
      }
    }
  }
  value_info {
    name: "ConvBnFusion_BN_B_stage3.2.branch2.6.bias_scale"
    type {
      tensor_type {
        elem_type: 1
        shape {
          dim {
            dim_value: 1
          }
        }
      }
    }
  }
  value_info {
    name: "ConvBnFusion_BN_B_stage3.2.branch2.6.bias_zero_point"
    type {
      tensor_type {
        elem_type: 6
        shape {
          dim {
            dim_value: 1
          }
        }
      }
    }
  }
  value_info {
    name: "455_zero_point"
    type {
      tensor_type {
        elem_type: 2
        shape {
        }
      }
    }
  }
  value_info {
    name: "455_scale"
    type {
      tensor_type {
        elem_type: 1
        shape {
        }
      }
    }
  }
  value_info {
    name: "ConvBnFusion_W_stage3.3.branch2.0.weight_scale"
    type {
      tensor_type {
        elem_type: 1
        shape {
        }
      }
    }
  }
  value_info {
    name: "ConvBnFusion_W_stage3.3.branch2.0.weight_zero_point"
    type {
      tensor_type {
        elem_type: 3
        shape {
        }
      }
    }
  }
  value_info {
    name: "464_zero_point"
    type {
      tensor_type {
        elem_type: 2
        shape {
        }
      }
    }
  }
  value_info {
    name: "464_scale"
    type {
      tensor_type {
        elem_type: 1
        shape {
        }
      }
    }
  }
  value_info {
    name: "ConvBnFusion_BN_B_stage3.3.branch2.1.bias_scale"
    type {
      tensor_type {
        elem_type: 1
        shape {
          dim {
            dim_value: 1
          }
        }
      }
    }
  }
  value_info {
    name: "ConvBnFusion_BN_B_stage3.3.branch2.1.bias_zero_point"
    type {
      tensor_type {
        elem_type: 6
        shape {
          dim {
            dim_value: 1
          }
        }
      }
    }
  }
  value_info {
    name: "ConvBnFusion_W_stage3.3.branch2.3.weight_scale"
    type {
      tensor_type {
        elem_type: 1
        shape {
        }
      }
    }
  }
  value_info {
    name: "ConvBnFusion_W_stage3.3.branch2.3.weight_zero_point"
    type {
      tensor_type {
        elem_type: 3
        shape {
        }
      }
    }
  }
  value_info {
    name: "467_zero_point"
    type {
      tensor_type {
        elem_type: 2
        shape {
        }
      }
    }
  }
  value_info {
    name: "467_scale"
    type {
      tensor_type {
        elem_type: 1
        shape {
        }
      }
    }
  }
  value_info {
    name: "ConvBnFusion_BN_B_stage3.3.branch2.4.bias_scale"
    type {
      tensor_type {
        elem_type: 1
        shape {
          dim {
            dim_value: 1
          }
        }
      }
    }
  }
  value_info {
    name: "ConvBnFusion_BN_B_stage3.3.branch2.4.bias_zero_point"
    type {
      tensor_type {
        elem_type: 6
        shape {
          dim {
            dim_value: 1
          }
        }
      }
    }
  }
  value_info {
    name: "ConvBnFusion_W_stage3.3.branch2.5.weight_scale"
    type {
      tensor_type {
        elem_type: 1
        shape {
        }
      }
    }
  }
  value_info {
    name: "ConvBnFusion_W_stage3.3.branch2.5.weight_zero_point"
    type {
      tensor_type {
        elem_type: 3
        shape {
        }
      }
    }
  }
  value_info {
    name: "469_zero_point"
    type {
      tensor_type {
        elem_type: 2
        shape {
        }
      }
    }
  }
  value_info {
    name: "469_scale"
    type {
      tensor_type {
        elem_type: 1
        shape {
        }
      }
    }
  }
  value_info {
    name: "ConvBnFusion_BN_B_stage3.3.branch2.6.bias_scale"
    type {
      tensor_type {
        elem_type: 1
        shape {
          dim {
            dim_value: 1
          }
        }
      }
    }
  }
  value_info {
    name: "ConvBnFusion_BN_B_stage3.3.branch2.6.bias_zero_point"
    type {
      tensor_type {
        elem_type: 6
        shape {
          dim {
            dim_value: 1
          }
        }
      }
    }
  }
  value_info {
    name: "471_zero_point"
    type {
      tensor_type {
        elem_type: 2
        shape {
        }
      }
    }
  }
  value_info {
    name: "471_scale"
    type {
      tensor_type {
        elem_type: 1
        shape {
        }
      }
    }
  }
  value_info {
    name: "ConvBnFusion_W_stage3.4.branch2.0.weight_scale"
    type {
      tensor_type {
        elem_type: 1
        shape {
        }
      }
    }
  }
  value_info {
    name: "ConvBnFusion_W_stage3.4.branch2.0.weight_zero_point"
    type {
      tensor_type {
        elem_type: 3
        shape {
        }
      }
    }
  }
  value_info {
    name: "480_zero_point"
    type {
      tensor_type {
        elem_type: 2
        shape {
        }
      }
    }
  }
  value_info {
    name: "480_scale"
    type {
      tensor_type {
        elem_type: 1
        shape {
        }
      }
    }
  }
  value_info {
    name: "ConvBnFusion_BN_B_stage3.4.branch2.1.bias_scale"
    type {
      tensor_type {
        elem_type: 1
        shape {
          dim {
            dim_value: 1
          }
        }
      }
    }
  }
  value_info {
    name: "ConvBnFusion_BN_B_stage3.4.branch2.1.bias_zero_point"
    type {
      tensor_type {
        elem_type: 6
        shape {
          dim {
            dim_value: 1
          }
        }
      }
    }
  }
  value_info {
    name: "ConvBnFusion_W_stage3.4.branch2.3.weight_scale"
    type {
      tensor_type {
        elem_type: 1
        shape {
        }
      }
    }
  }
  value_info {
    name: "ConvBnFusion_W_stage3.4.branch2.3.weight_zero_point"
    type {
      tensor_type {
        elem_type: 3
        shape {
        }
      }
    }
  }
  value_info {
    name: "483_zero_point"
    type {
      tensor_type {
        elem_type: 2
        shape {
        }
      }
    }
  }
  value_info {
    name: "483_scale"
    type {
      tensor_type {
        elem_type: 1
        shape {
        }
      }
    }
  }
  value_info {
    name: "ConvBnFusion_BN_B_stage3.4.branch2.4.bias_scale"
    type {
      tensor_type {
        elem_type: 1
        shape {
          dim {
            dim_value: 1
          }
        }
      }
    }
  }
  value_info {
    name: "ConvBnFusion_BN_B_stage3.4.branch2.4.bias_zero_point"
    type {
      tensor_type {
        elem_type: 6
        shape {
          dim {
            dim_value: 1
          }
        }
      }
    }
  }
  value_info {
    name: "ConvBnFusion_W_stage3.4.branch2.5.weight_scale"
    type {
      tensor_type {
        elem_type: 1
        shape {
        }
      }
    }
  }
  value_info {
    name: "ConvBnFusion_W_stage3.4.branch2.5.weight_zero_point"
    type {
      tensor_type {
        elem_type: 3
        shape {
        }
      }
    }
  }
  value_info {
    name: "485_zero_point"
    type {
      tensor_type {
        elem_type: 2
        shape {
        }
      }
    }
  }
  value_info {
    name: "485_scale"
    type {
      tensor_type {
        elem_type: 1
        shape {
        }
      }
    }
  }
  value_info {
    name: "ConvBnFusion_BN_B_stage3.4.branch2.6.bias_scale"
    type {
      tensor_type {
        elem_type: 1
        shape {
          dim {
            dim_value: 1
          }
        }
      }
    }
  }
  value_info {
    name: "ConvBnFusion_BN_B_stage3.4.branch2.6.bias_zero_point"
    type {
      tensor_type {
        elem_type: 6
        shape {
          dim {
            dim_value: 1
          }
        }
      }
    }
  }
  value_info {
    name: "487_zero_point"
    type {
      tensor_type {
        elem_type: 2
        shape {
        }
      }
    }
  }
  value_info {
    name: "487_scale"
    type {
      tensor_type {
        elem_type: 1
        shape {
        }
      }
    }
  }
  value_info {
    name: "ConvBnFusion_W_stage3.5.branch2.0.weight_scale"
    type {
      tensor_type {
        elem_type: 1
        shape {
        }
      }
    }
  }
  value_info {
    name: "ConvBnFusion_W_stage3.5.branch2.0.weight_zero_point"
    type {
      tensor_type {
        elem_type: 3
        shape {
        }
      }
    }
  }
  value_info {
    name: "496_zero_point"
    type {
      tensor_type {
        elem_type: 2
        shape {
        }
      }
    }
  }
  value_info {
    name: "496_scale"
    type {
      tensor_type {
        elem_type: 1
        shape {
        }
      }
    }
  }
  value_info {
    name: "ConvBnFusion_BN_B_stage3.5.branch2.1.bias_scale"
    type {
      tensor_type {
        elem_type: 1
        shape {
          dim {
            dim_value: 1
          }
        }
      }
    }
  }
  value_info {
    name: "ConvBnFusion_BN_B_stage3.5.branch2.1.bias_zero_point"
    type {
      tensor_type {
        elem_type: 6
        shape {
          dim {
            dim_value: 1
          }
        }
      }
    }
  }
  value_info {
    name: "ConvBnFusion_W_stage3.5.branch2.3.weight_scale"
    type {
      tensor_type {
        elem_type: 1
        shape {
        }
      }
    }
  }
  value_info {
    name: "ConvBnFusion_W_stage3.5.branch2.3.weight_zero_point"
    type {
      tensor_type {
        elem_type: 3
        shape {
        }
      }
    }
  }
  value_info {
    name: "499_zero_point"
    type {
      tensor_type {
        elem_type: 2
        shape {
        }
      }
    }
  }
  value_info {
    name: "499_scale"
    type {
      tensor_type {
        elem_type: 1
        shape {
        }
      }
    }
  }
  value_info {
    name: "ConvBnFusion_BN_B_stage3.5.branch2.4.bias_scale"
    type {
      tensor_type {
        elem_type: 1
        shape {
          dim {
            dim_value: 1
          }
        }
      }
    }
  }
  value_info {
    name: "ConvBnFusion_BN_B_stage3.5.branch2.4.bias_zero_point"
    type {
      tensor_type {
        elem_type: 6
        shape {
          dim {
            dim_value: 1
          }
        }
      }
    }
  }
  value_info {
    name: "ConvBnFusion_W_stage3.5.branch2.5.weight_scale"
    type {
      tensor_type {
        elem_type: 1
        shape {
        }
      }
    }
  }
  value_info {
    name: "ConvBnFusion_W_stage3.5.branch2.5.weight_zero_point"
    type {
      tensor_type {
        elem_type: 3
        shape {
        }
      }
    }
  }
  value_info {
    name: "501_zero_point"
    type {
      tensor_type {
        elem_type: 2
        shape {
        }
      }
    }
  }
  value_info {
    name: "501_scale"
    type {
      tensor_type {
        elem_type: 1
        shape {
        }
      }
    }
  }
  value_info {
    name: "ConvBnFusion_BN_B_stage3.5.branch2.6.bias_scale"
    type {
      tensor_type {
        elem_type: 1
        shape {
          dim {
            dim_value: 1
          }
        }
      }
    }
  }
  value_info {
    name: "ConvBnFusion_BN_B_stage3.5.branch2.6.bias_zero_point"
    type {
      tensor_type {
        elem_type: 6
        shape {
          dim {
            dim_value: 1
          }
        }
      }
    }
  }
  value_info {
    name: "503_zero_point"
    type {
      tensor_type {
        elem_type: 2
        shape {
        }
      }
    }
  }
  value_info {
    name: "503_scale"
    type {
      tensor_type {
        elem_type: 1
        shape {
        }
      }
    }
  }
  value_info {
    name: "ConvBnFusion_W_stage3.6.branch2.0.weight_scale"
    type {
      tensor_type {
        elem_type: 1
        shape {
        }
      }
    }
  }
  value_info {
    name: "ConvBnFusion_W_stage3.6.branch2.0.weight_zero_point"
    type {
      tensor_type {
        elem_type: 3
        shape {
        }
      }
    }
  }
  value_info {
    name: "512_zero_point"
    type {
      tensor_type {
        elem_type: 2
        shape {
        }
      }
    }
  }
  value_info {
    name: "512_scale"
    type {
      tensor_type {
        elem_type: 1
        shape {
        }
      }
    }
  }
  value_info {
    name: "ConvBnFusion_BN_B_stage3.6.branch2.1.bias_scale"
    type {
      tensor_type {
        elem_type: 1
        shape {
          dim {
            dim_value: 1
          }
        }
      }
    }
  }
  value_info {
    name: "ConvBnFusion_BN_B_stage3.6.branch2.1.bias_zero_point"
    type {
      tensor_type {
        elem_type: 6
        shape {
          dim {
            dim_value: 1
          }
        }
      }
    }
  }
  value_info {
    name: "ConvBnFusion_W_stage3.6.branch2.3.weight_scale"
    type {
      tensor_type {
        elem_type: 1
        shape {
        }
      }
    }
  }
  value_info {
    name: "ConvBnFusion_W_stage3.6.branch2.3.weight_zero_point"
    type {
      tensor_type {
        elem_type: 3
        shape {
        }
      }
    }
  }
  value_info {
    name: "515_zero_point"
    type {
      tensor_type {
        elem_type: 2
        shape {
        }
      }
    }
  }
  value_info {
    name: "515_scale"
    type {
      tensor_type {
        elem_type: 1
        shape {
        }
      }
    }
  }
  value_info {
    name: "ConvBnFusion_BN_B_stage3.6.branch2.4.bias_scale"
    type {
      tensor_type {
        elem_type: 1
        shape {
          dim {
            dim_value: 1
          }
        }
      }
    }
  }
  value_info {
    name: "ConvBnFusion_BN_B_stage3.6.branch2.4.bias_zero_point"
    type {
      tensor_type {
        elem_type: 6
        shape {
          dim {
            dim_value: 1
          }
        }
      }
    }
  }
  value_info {
    name: "ConvBnFusion_W_stage3.6.branch2.5.weight_scale"
    type {
      tensor_type {
        elem_type: 1
        shape {
        }
      }
    }
  }
  value_info {
    name: "ConvBnFusion_W_stage3.6.branch2.5.weight_zero_point"
    type {
      tensor_type {
        elem_type: 3
        shape {
        }
      }
    }
  }
  value_info {
    name: "517_zero_point"
    type {
      tensor_type {
        elem_type: 2
        shape {
        }
      }
    }
  }
  value_info {
    name: "517_scale"
    type {
      tensor_type {
        elem_type: 1
        shape {
        }
      }
    }
  }
  value_info {
    name: "ConvBnFusion_BN_B_stage3.6.branch2.6.bias_scale"
    type {
      tensor_type {
        elem_type: 1
        shape {
          dim {
            dim_value: 1
          }
        }
      }
    }
  }
  value_info {
    name: "ConvBnFusion_BN_B_stage3.6.branch2.6.bias_zero_point"
    type {
      tensor_type {
        elem_type: 6
        shape {
          dim {
            dim_value: 1
          }
        }
      }
    }
  }
  value_info {
    name: "519_zero_point"
    type {
      tensor_type {
        elem_type: 2
        shape {
        }
      }
    }
  }
  value_info {
    name: "519_scale"
    type {
      tensor_type {
        elem_type: 1
        shape {
        }
      }
    }
  }
  value_info {
    name: "ConvBnFusion_W_stage3.7.branch2.0.weight_scale"
    type {
      tensor_type {
        elem_type: 1
        shape {
        }
      }
    }
  }
  value_info {
    name: "ConvBnFusion_W_stage3.7.branch2.0.weight_zero_point"
    type {
      tensor_type {
        elem_type: 3
        shape {
        }
      }
    }
  }
  value_info {
    name: "528_zero_point"
    type {
      tensor_type {
        elem_type: 2
        shape {
        }
      }
    }
  }
  value_info {
    name: "528_scale"
    type {
      tensor_type {
        elem_type: 1
        shape {
        }
      }
    }
  }
  value_info {
    name: "ConvBnFusion_BN_B_stage3.7.branch2.1.bias_scale"
    type {
      tensor_type {
        elem_type: 1
        shape {
          dim {
            dim_value: 1
          }
        }
      }
    }
  }
  value_info {
    name: "ConvBnFusion_BN_B_stage3.7.branch2.1.bias_zero_point"
    type {
      tensor_type {
        elem_type: 6
        shape {
          dim {
            dim_value: 1
          }
        }
      }
    }
  }
  value_info {
    name: "ConvBnFusion_W_stage3.7.branch2.3.weight_scale"
    type {
      tensor_type {
        elem_type: 1
        shape {
        }
      }
    }
  }
  value_info {
    name: "ConvBnFusion_W_stage3.7.branch2.3.weight_zero_point"
    type {
      tensor_type {
        elem_type: 3
        shape {
        }
      }
    }
  }
  value_info {
    name: "531_zero_point"
    type {
      tensor_type {
        elem_type: 2
        shape {
        }
      }
    }
  }
  value_info {
    name: "531_scale"
    type {
      tensor_type {
        elem_type: 1
        shape {
        }
      }
    }
  }
  value_info {
    name: "ConvBnFusion_BN_B_stage3.7.branch2.4.bias_scale"
    type {
      tensor_type {
        elem_type: 1
        shape {
          dim {
            dim_value: 1
          }
        }
      }
    }
  }
  value_info {
    name: "ConvBnFusion_BN_B_stage3.7.branch2.4.bias_zero_point"
    type {
      tensor_type {
        elem_type: 6
        shape {
          dim {
            dim_value: 1
          }
        }
      }
    }
  }
  value_info {
    name: "ConvBnFusion_W_stage3.7.branch2.5.weight_scale"
    type {
      tensor_type {
        elem_type: 1
        shape {
        }
      }
    }
  }
  value_info {
    name: "ConvBnFusion_W_stage3.7.branch2.5.weight_zero_point"
    type {
      tensor_type {
        elem_type: 3
        shape {
        }
      }
    }
  }
  value_info {
    name: "533_zero_point"
    type {
      tensor_type {
        elem_type: 2
        shape {
        }
      }
    }
  }
  value_info {
    name: "533_scale"
    type {
      tensor_type {
        elem_type: 1
        shape {
        }
      }
    }
  }
  value_info {
    name: "ConvBnFusion_BN_B_stage3.7.branch2.6.bias_scale"
    type {
      tensor_type {
        elem_type: 1
        shape {
          dim {
            dim_value: 1
          }
        }
      }
    }
  }
  value_info {
    name: "ConvBnFusion_BN_B_stage3.7.branch2.6.bias_zero_point"
    type {
      tensor_type {
        elem_type: 6
        shape {
          dim {
            dim_value: 1
          }
        }
      }
    }
  }
  value_info {
    name: "535_zero_point"
    type {
      tensor_type {
        elem_type: 2
        shape {
        }
      }
    }
  }
  value_info {
    name: "535_scale"
    type {
      tensor_type {
        elem_type: 1
        shape {
        }
      }
    }
  }
  value_info {
    name: "ConvBnFusion_W_stage4.0.branch2.0.weight_scale"
    type {
      tensor_type {
        elem_type: 1
        shape {
        }
      }
    }
  }
  value_info {
    name: "ConvBnFusion_W_stage4.0.branch2.0.weight_zero_point"
    type {
      tensor_type {
        elem_type: 3
        shape {
        }
      }
    }
  }
  value_info {
    name: "547_zero_point"
    type {
      tensor_type {
        elem_type: 2
        shape {
        }
      }
    }
  }
  value_info {
    name: "547_scale"
    type {
      tensor_type {
        elem_type: 1
        shape {
        }
      }
    }
  }
  value_info {
    name: "ConvBnFusion_BN_B_stage4.0.branch2.1.bias_scale"
    type {
      tensor_type {
        elem_type: 1
        shape {
          dim {
            dim_value: 1
          }
        }
      }
    }
  }
  value_info {
    name: "ConvBnFusion_BN_B_stage4.0.branch2.1.bias_zero_point"
    type {
      tensor_type {
        elem_type: 6
        shape {
          dim {
            dim_value: 1
          }
        }
      }
    }
  }
  value_info {
    name: "ConvBnFusion_W_stage4.0.branch1.0.weight_scale"
    type {
      tensor_type {
        elem_type: 1
        shape {
        }
      }
    }
  }
  value_info {
    name: "ConvBnFusion_W_stage4.0.branch1.0.weight_zero_point"
    type {
      tensor_type {
        elem_type: 3
        shape {
        }
      }
    }
  }
  value_info {
    name: "542_zero_point"
    type {
      tensor_type {
        elem_type: 2
        shape {
        }
      }
    }
  }
  value_info {
    name: "542_scale"
    type {
      tensor_type {
        elem_type: 1
        shape {
        }
      }
    }
  }
  value_info {
    name: "ConvBnFusion_BN_B_stage4.0.branch1.1.bias_scale"
    type {
      tensor_type {
        elem_type: 1
        shape {
          dim {
            dim_value: 1
          }
        }
      }
    }
  }
  value_info {
    name: "ConvBnFusion_BN_B_stage4.0.branch1.1.bias_zero_point"
    type {
      tensor_type {
        elem_type: 6
        shape {
          dim {
            dim_value: 1
          }
        }
      }
    }
  }
  value_info {
    name: "ConvBnFusion_W_stage4.0.branch1.2.weight_scale"
    type {
      tensor_type {
        elem_type: 1
        shape {
        }
      }
    }
  }
  value_info {
    name: "ConvBnFusion_W_stage4.0.branch1.2.weight_zero_point"
    type {
      tensor_type {
        elem_type: 3
        shape {
        }
      }
    }
  }
  value_info {
    name: "544_zero_point"
    type {
      tensor_type {
        elem_type: 2
        shape {
        }
      }
    }
  }
  value_info {
    name: "544_scale"
    type {
      tensor_type {
        elem_type: 1
        shape {
        }
      }
    }
  }
  value_info {
    name: "ConvBnFusion_BN_B_stage4.0.branch1.3.bias_scale"
    type {
      tensor_type {
        elem_type: 1
        shape {
          dim {
            dim_value: 1
          }
        }
      }
    }
  }
  value_info {
    name: "ConvBnFusion_BN_B_stage4.0.branch1.3.bias_zero_point"
    type {
      tensor_type {
        elem_type: 6
        shape {
          dim {
            dim_value: 1
          }
        }
      }
    }
  }
  value_info {
    name: "ConvBnFusion_W_stage4.0.branch2.3.weight_scale"
    type {
      tensor_type {
        elem_type: 1
        shape {
        }
      }
    }
  }
  value_info {
    name: "ConvBnFusion_W_stage4.0.branch2.3.weight_zero_point"
    type {
      tensor_type {
        elem_type: 3
        shape {
        }
      }
    }
  }
  value_info {
    name: "550_zero_point"
    type {
      tensor_type {
        elem_type: 2
        shape {
        }
      }
    }
  }
  value_info {
    name: "550_scale"
    type {
      tensor_type {
        elem_type: 1
        shape {
        }
      }
    }
  }
  value_info {
    name: "ConvBnFusion_BN_B_stage4.0.branch2.4.bias_scale"
    type {
      tensor_type {
        elem_type: 1
        shape {
          dim {
            dim_value: 1
          }
        }
      }
    }
  }
  value_info {
    name: "ConvBnFusion_BN_B_stage4.0.branch2.4.bias_zero_point"
    type {
      tensor_type {
        elem_type: 6
        shape {
          dim {
            dim_value: 1
          }
        }
      }
    }
  }
  value_info {
    name: "ConvBnFusion_W_stage4.0.branch2.5.weight_scale"
    type {
      tensor_type {
        elem_type: 1
        shape {
        }
      }
    }
  }
  value_info {
    name: "ConvBnFusion_W_stage4.0.branch2.5.weight_zero_point"
    type {
      tensor_type {
        elem_type: 3
        shape {
        }
      }
    }
  }
  value_info {
    name: "552_zero_point"
    type {
      tensor_type {
        elem_type: 2
        shape {
        }
      }
    }
  }
  value_info {
    name: "552_scale"
    type {
      tensor_type {
        elem_type: 1
        shape {
        }
      }
    }
  }
  value_info {
    name: "ConvBnFusion_BN_B_stage4.0.branch2.6.bias_scale"
    type {
      tensor_type {
        elem_type: 1
        shape {
          dim {
            dim_value: 1
          }
        }
      }
    }
  }
  value_info {
    name: "ConvBnFusion_BN_B_stage4.0.branch2.6.bias_zero_point"
    type {
      tensor_type {
        elem_type: 6
        shape {
          dim {
            dim_value: 1
          }
        }
      }
    }
  }
  value_info {
    name: "554_zero_point"
    type {
      tensor_type {
        elem_type: 2
        shape {
        }
      }
    }
  }
  value_info {
    name: "554_scale"
    type {
      tensor_type {
        elem_type: 1
        shape {
        }
      }
    }
  }
  value_info {
    name: "ConvBnFusion_W_stage4.1.branch2.0.weight_scale"
    type {
      tensor_type {
        elem_type: 1
        shape {
        }
      }
    }
  }
  value_info {
    name: "ConvBnFusion_W_stage4.1.branch2.0.weight_zero_point"
    type {
      tensor_type {
        elem_type: 3
        shape {
        }
      }
    }
  }
  value_info {
    name: "563_zero_point"
    type {
      tensor_type {
        elem_type: 2
        shape {
        }
      }
    }
  }
  value_info {
    name: "563_scale"
    type {
      tensor_type {
        elem_type: 1
        shape {
        }
      }
    }
  }
  value_info {
    name: "ConvBnFusion_BN_B_stage4.1.branch2.1.bias_scale"
    type {
      tensor_type {
        elem_type: 1
        shape {
          dim {
            dim_value: 1
          }
        }
      }
    }
  }
  value_info {
    name: "ConvBnFusion_BN_B_stage4.1.branch2.1.bias_zero_point"
    type {
      tensor_type {
        elem_type: 6
        shape {
          dim {
            dim_value: 1
          }
        }
      }
    }
  }
  value_info {
    name: "ConvBnFusion_W_stage4.1.branch2.3.weight_scale"
    type {
      tensor_type {
        elem_type: 1
        shape {
        }
      }
    }
  }
  value_info {
    name: "ConvBnFusion_W_stage4.1.branch2.3.weight_zero_point"
    type {
      tensor_type {
        elem_type: 3
        shape {
        }
      }
    }
  }
  value_info {
    name: "566_zero_point"
    type {
      tensor_type {
        elem_type: 2
        shape {
        }
      }
    }
  }
  value_info {
    name: "566_scale"
    type {
      tensor_type {
        elem_type: 1
        shape {
        }
      }
    }
  }
  value_info {
    name: "ConvBnFusion_BN_B_stage4.1.branch2.4.bias_scale"
    type {
      tensor_type {
        elem_type: 1
        shape {
          dim {
            dim_value: 1
          }
        }
      }
    }
  }
  value_info {
    name: "ConvBnFusion_BN_B_stage4.1.branch2.4.bias_zero_point"
    type {
      tensor_type {
        elem_type: 6
        shape {
          dim {
            dim_value: 1
          }
        }
      }
    }
  }
  value_info {
    name: "ConvBnFusion_W_stage4.1.branch2.5.weight_scale"
    type {
      tensor_type {
        elem_type: 1
        shape {
        }
      }
    }
  }
  value_info {
    name: "ConvBnFusion_W_stage4.1.branch2.5.weight_zero_point"
    type {
      tensor_type {
        elem_type: 3
        shape {
        }
      }
    }
  }
  value_info {
    name: "568_zero_point"
    type {
      tensor_type {
        elem_type: 2
        shape {
        }
      }
    }
  }
  value_info {
    name: "568_scale"
    type {
      tensor_type {
        elem_type: 1
        shape {
        }
      }
    }
  }
  value_info {
    name: "ConvBnFusion_BN_B_stage4.1.branch2.6.bias_scale"
    type {
      tensor_type {
        elem_type: 1
        shape {
          dim {
            dim_value: 1
          }
        }
      }
    }
  }
  value_info {
    name: "ConvBnFusion_BN_B_stage4.1.branch2.6.bias_zero_point"
    type {
      tensor_type {
        elem_type: 6
        shape {
          dim {
            dim_value: 1
          }
        }
      }
    }
  }
  value_info {
    name: "570_zero_point"
    type {
      tensor_type {
        elem_type: 2
        shape {
        }
      }
    }
  }
  value_info {
    name: "570_scale"
    type {
      tensor_type {
        elem_type: 1
        shape {
        }
      }
    }
  }
  value_info {
    name: "ConvBnFusion_W_stage4.2.branch2.0.weight_scale"
    type {
      tensor_type {
        elem_type: 1
        shape {
        }
      }
    }
  }
  value_info {
    name: "ConvBnFusion_W_stage4.2.branch2.0.weight_zero_point"
    type {
      tensor_type {
        elem_type: 3
        shape {
        }
      }
    }
  }
  value_info {
    name: "579_zero_point"
    type {
      tensor_type {
        elem_type: 2
        shape {
        }
      }
    }
  }
  value_info {
    name: "579_scale"
    type {
      tensor_type {
        elem_type: 1
        shape {
        }
      }
    }
  }
  value_info {
    name: "ConvBnFusion_BN_B_stage4.2.branch2.1.bias_scale"
    type {
      tensor_type {
        elem_type: 1
        shape {
          dim {
            dim_value: 1
          }
        }
      }
    }
  }
  value_info {
    name: "ConvBnFusion_BN_B_stage4.2.branch2.1.bias_zero_point"
    type {
      tensor_type {
        elem_type: 6
        shape {
          dim {
            dim_value: 1
          }
        }
      }
    }
  }
  value_info {
    name: "ConvBnFusion_W_stage4.2.branch2.3.weight_scale"
    type {
      tensor_type {
        elem_type: 1
        shape {
        }
      }
    }
  }
  value_info {
    name: "ConvBnFusion_W_stage4.2.branch2.3.weight_zero_point"
    type {
      tensor_type {
        elem_type: 3
        shape {
        }
      }
    }
  }
  value_info {
    name: "582_zero_point"
    type {
      tensor_type {
        elem_type: 2
        shape {
        }
      }
    }
  }
  value_info {
    name: "582_scale"
    type {
      tensor_type {
        elem_type: 1
        shape {
        }
      }
    }
  }
  value_info {
    name: "ConvBnFusion_BN_B_stage4.2.branch2.4.bias_scale"
    type {
      tensor_type {
        elem_type: 1
        shape {
          dim {
            dim_value: 1
          }
        }
      }
    }
  }
  value_info {
    name: "ConvBnFusion_BN_B_stage4.2.branch2.4.bias_zero_point"
    type {
      tensor_type {
        elem_type: 6
        shape {
          dim {
            dim_value: 1
          }
        }
      }
    }
  }
  value_info {
    name: "ConvBnFusion_W_stage4.2.branch2.5.weight_scale"
    type {
      tensor_type {
        elem_type: 1
        shape {
        }
      }
    }
  }
  value_info {
    name: "ConvBnFusion_W_stage4.2.branch2.5.weight_zero_point"
    type {
      tensor_type {
        elem_type: 3
        shape {
        }
      }
    }
  }
  value_info {
    name: "584_zero_point"
    type {
      tensor_type {
        elem_type: 2
        shape {
        }
      }
    }
  }
  value_info {
    name: "584_scale"
    type {
      tensor_type {
        elem_type: 1
        shape {
        }
      }
    }
  }
  value_info {
    name: "ConvBnFusion_BN_B_stage4.2.branch2.6.bias_scale"
    type {
      tensor_type {
        elem_type: 1
        shape {
          dim {
            dim_value: 1
          }
        }
      }
    }
  }
  value_info {
    name: "ConvBnFusion_BN_B_stage4.2.branch2.6.bias_zero_point"
    type {
      tensor_type {
        elem_type: 6
        shape {
          dim {
            dim_value: 1
          }
        }
      }
    }
  }
  value_info {
    name: "586_zero_point"
    type {
      tensor_type {
        elem_type: 2
        shape {
        }
      }
    }
  }
  value_info {
    name: "586_scale"
    type {
      tensor_type {
        elem_type: 1
        shape {
        }
      }
    }
  }
  value_info {
    name: "ConvBnFusion_W_stage4.3.branch2.0.weight_scale"
    type {
      tensor_type {
        elem_type: 1
        shape {
        }
      }
    }
  }
  value_info {
    name: "ConvBnFusion_W_stage4.3.branch2.0.weight_zero_point"
    type {
      tensor_type {
        elem_type: 3
        shape {
        }
      }
    }
  }
  value_info {
    name: "595_zero_point"
    type {
      tensor_type {
        elem_type: 2
        shape {
        }
      }
    }
  }
  value_info {
    name: "595_scale"
    type {
      tensor_type {
        elem_type: 1
        shape {
        }
      }
    }
  }
  value_info {
    name: "ConvBnFusion_BN_B_stage4.3.branch2.1.bias_scale"
    type {
      tensor_type {
        elem_type: 1
        shape {
          dim {
            dim_value: 1
          }
        }
      }
    }
  }
  value_info {
    name: "ConvBnFusion_BN_B_stage4.3.branch2.1.bias_zero_point"
    type {
      tensor_type {
        elem_type: 6
        shape {
          dim {
            dim_value: 1
          }
        }
      }
    }
  }
  value_info {
    name: "ConvBnFusion_W_stage4.3.branch2.3.weight_scale"
    type {
      tensor_type {
        elem_type: 1
        shape {
        }
      }
    }
  }
  value_info {
    name: "ConvBnFusion_W_stage4.3.branch2.3.weight_zero_point"
    type {
      tensor_type {
        elem_type: 3
        shape {
        }
      }
    }
  }
  value_info {
    name: "598_zero_point"
    type {
      tensor_type {
        elem_type: 2
        shape {
        }
      }
    }
  }
  value_info {
    name: "598_scale"
    type {
      tensor_type {
        elem_type: 1
        shape {
        }
      }
    }
  }
  value_info {
    name: "ConvBnFusion_BN_B_stage4.3.branch2.4.bias_scale"
    type {
      tensor_type {
        elem_type: 1
        shape {
          dim {
            dim_value: 1
          }
        }
      }
    }
  }
  value_info {
    name: "ConvBnFusion_BN_B_stage4.3.branch2.4.bias_zero_point"
    type {
      tensor_type {
        elem_type: 6
        shape {
          dim {
            dim_value: 1
          }
        }
      }
    }
  }
  value_info {
    name: "ConvBnFusion_W_stage4.3.branch2.5.weight_scale"
    type {
      tensor_type {
        elem_type: 1
        shape {
        }
      }
    }
  }
  value_info {
    name: "ConvBnFusion_W_stage4.3.branch2.5.weight_zero_point"
    type {
      tensor_type {
        elem_type: 3
        shape {
        }
      }
    }
  }
  value_info {
    name: "600_zero_point"
    type {
      tensor_type {
        elem_type: 2
        shape {
        }
      }
    }
  }
  value_info {
    name: "600_scale"
    type {
      tensor_type {
        elem_type: 1
        shape {
        }
      }
    }
  }
  value_info {
    name: "ConvBnFusion_BN_B_stage4.3.branch2.6.bias_scale"
    type {
      tensor_type {
        elem_type: 1
        shape {
          dim {
            dim_value: 1
          }
        }
      }
    }
  }
  value_info {
    name: "ConvBnFusion_BN_B_stage4.3.branch2.6.bias_zero_point"
    type {
      tensor_type {
        elem_type: 6
        shape {
          dim {
            dim_value: 1
          }
        }
      }
    }
  }
  value_info {
    name: "602_zero_point"
    type {
      tensor_type {
        elem_type: 2
        shape {
        }
      }
    }
  }
  value_info {
    name: "602_scale"
    type {
      tensor_type {
        elem_type: 1
        shape {
        }
      }
    }
  }
  value_info {
    name: "ConvBnFusion_W_conv5.0.weight_scale"
    type {
      tensor_type {
        elem_type: 1
        shape {
        }
      }
    }
  }
  value_info {
    name: "ConvBnFusion_W_conv5.0.weight_zero_point"
    type {
      tensor_type {
        elem_type: 3
        shape {
        }
      }
    }
  }
  value_info {
    name: "609_zero_point"
    type {
      tensor_type {
        elem_type: 2
        shape {
        }
      }
    }
  }
  value_info {
    name: "609_scale"
    type {
      tensor_type {
        elem_type: 1
        shape {
        }
      }
    }
  }
  value_info {
    name: "ConvBnFusion_BN_B_conv5.1.bias_scale"
    type {
      tensor_type {
        elem_type: 1
        shape {
          dim {
            dim_value: 1
          }
        }
      }
    }
  }
  value_info {
    name: "ConvBnFusion_BN_B_conv5.1.bias_zero_point"
    type {
      tensor_type {
        elem_type: 6
        shape {
          dim {
            dim_value: 1
          }
        }
      }
    }
  }
  value_info {
    name: "611_zero_point"
    type {
      tensor_type {
        elem_type: 2
        shape {
        }
      }
    }
  }
  value_info {
    name: "611_scale"
    type {
      tensor_type {
        elem_type: 1
        shape {
        }
      }
    }
  }
  value_info {
    name: "fc.weight_scale"
    type {
      tensor_type {
        elem_type: 1
        shape {
        }
      }
    }
  }
  value_info {
    name: "fc.weight_zero_point"
    type {
      tensor_type {
        elem_type: 3
        shape {
        }
      }
    }
  }
  value_info {
    name: "output_MatMul_zero_point"
    type {
      tensor_type {
        elem_type: 2
        shape {
        }
      }
    }
  }
  value_info {
    name: "output_MatMul_scale"
    type {
      tensor_type {
        elem_type: 1
        shape {
        }
      }
    }
  }
}
opset_import {
  domain: ""
  version: 12
}
opset_import {
  domain: "ai.onnx.ml"
  version: 3
}
opset_import {
  domain: "ai.onnx.preview.training"
  version: 1
}
opset_import {
  domain: "com.microsoft"
  version: 1
}
opset_import {
  domain: "com.microsoft.experimental"
  version: 1
}
opset_import {
  domain: "com.microsoft.nchwc"
  version: 1
}
opset_import {
  domain: "org.pytorch.aten"
  version: 1
}
opset_import {
  domain: "ai.onnx.training"
  version: 1
}
opset_import {
  domain: "com.ms.internal.nhwc"
  version: 1
}
opset_import {
  domain: "ai.onnx.contrib"
  version: 1000
}
