ir_version: 7
producer_name: "pytorch"
producer_version: "1.6"
graph {
  node {
    input: "input"
    input: "conv1.0.weight"
    output: "339"
    name: "Conv_0"
    op_type: "Conv"
    attribute {
      name: "dilations"
      ints: 1
      ints: 1
      type: INTS
    }
    attribute {
      name: "group"
      i: 1
      type: INT
    }
    attribute {
      name: "kernel_shape"
      ints: 3
      ints: 3
      type: INTS
    }
    attribute {
      name: "pads"
      ints: 1
      ints: 1
      ints: 1
      ints: 1
      type: INTS
    }
    attribute {
      name: "strides"
      ints: 2
      ints: 2
      type: INTS
    }
  }
  node {
    input: "339"
    input: "conv1.1.weight"
    input: "conv1.1.bias"
    input: "conv1.1.running_mean"
    input: "conv1.1.running_var"
    output: "340"
    name: "BatchNormalization_1"
    op_type: "BatchNormalization"
    attribute {
      name: "epsilon"
      f: 1e-05
      type: FLOAT
    }
    attribute {
      name: "momentum"
      f: 0.9
      type: FLOAT
    }
  }
  node {
    input: "340"
    output: "341"
    name: "Relu_2"
    op_type: "Relu"
  }
  node {
    input: "341"
    output: "342"
    name: "MaxPool_3"
    op_type: "MaxPool"
    attribute {
      name: "ceil_mode"
      i: 0
      type: INT
    }
    attribute {
      name: "kernel_shape"
      ints: 3
      ints: 3
      type: INTS
    }
    attribute {
      name: "pads"
      ints: 1
      ints: 1
      ints: 1
      ints: 1
      type: INTS
    }
    attribute {
      name: "strides"
      ints: 2
      ints: 2
      type: INTS
    }
  }
  node {
    input: "342"
    input: "stage2.0.branch1.0.weight"
    output: "343"
    name: "Conv_4"
    op_type: "Conv"
    attribute {
      name: "dilations"
      ints: 1
      ints: 1
      type: INTS
    }
    attribute {
      name: "group"
      i: 24
      type: INT
    }
    attribute {
      name: "kernel_shape"
      ints: 3
      ints: 3
      type: INTS
    }
    attribute {
      name: "pads"
      ints: 1
      ints: 1
      ints: 1
      ints: 1
      type: INTS
    }
    attribute {
      name: "strides"
      ints: 2
      ints: 2
      type: INTS
    }
  }
  node {
    input: "343"
    input: "stage2.0.branch1.1.weight"
    input: "stage2.0.branch1.1.bias"
    input: "stage2.0.branch1.1.running_mean"
    input: "stage2.0.branch1.1.running_var"
    output: "344"
    name: "BatchNormalization_5"
    op_type: "BatchNormalization"
    attribute {
      name: "epsilon"
      f: 1e-05
      type: FLOAT
    }
    attribute {
      name: "momentum"
      f: 0.9
      type: FLOAT
    }
  }
  node {
    input: "344"
    input: "stage2.0.branch1.2.weight"
    output: "345"
    name: "Conv_6"
    op_type: "Conv"
    attribute {
      name: "dilations"
      ints: 1
      ints: 1
      type: INTS
    }
    attribute {
      name: "group"
      i: 1
      type: INT
    }
    attribute {
      name: "kernel_shape"
      ints: 1
      ints: 1
      type: INTS
    }
    attribute {
      name: "pads"
      ints: 0
      ints: 0
      ints: 0
      ints: 0
      type: INTS
    }
    attribute {
      name: "strides"
      ints: 1
      ints: 1
      type: INTS
    }
  }
  node {
    input: "345"
    input: "stage2.0.branch1.3.weight"
    input: "stage2.0.branch1.3.bias"
    input: "stage2.0.branch1.3.running_mean"
    input: "stage2.0.branch1.3.running_var"
    output: "346"
    name: "BatchNormalization_7"
    op_type: "BatchNormalization"
    attribute {
      name: "epsilon"
      f: 1e-05
      type: FLOAT
    }
    attribute {
      name: "momentum"
      f: 0.9
      type: FLOAT
    }
  }
  node {
    input: "346"
    output: "347"
    name: "Relu_8"
    op_type: "Relu"
  }
  node {
    input: "342"
    input: "stage2.0.branch2.0.weight"
    output: "348"
    name: "Conv_9"
    op_type: "Conv"
    attribute {
      name: "dilations"
      ints: 1
      ints: 1
      type: INTS
    }
    attribute {
      name: "group"
      i: 1
      type: INT
    }
    attribute {
      name: "kernel_shape"
      ints: 1
      ints: 1
      type: INTS
    }
    attribute {
      name: "pads"
      ints: 0
      ints: 0
      ints: 0
      ints: 0
      type: INTS
    }
    attribute {
      name: "strides"
      ints: 1
      ints: 1
      type: INTS
    }
  }
  node {
    input: "348"
    input: "stage2.0.branch2.1.weight"
    input: "stage2.0.branch2.1.bias"
    input: "stage2.0.branch2.1.running_mean"
    input: "stage2.0.branch2.1.running_var"
    output: "349"
    name: "BatchNormalization_10"
    op_type: "BatchNormalization"
    attribute {
      name: "epsilon"
      f: 1e-05
      type: FLOAT
    }
    attribute {
      name: "momentum"
      f: 0.9
      type: FLOAT
    }
  }
  node {
    input: "349"
    output: "350"
    name: "Relu_11"
    op_type: "Relu"
  }
  node {
    input: "350"
    input: "stage2.0.branch2.3.weight"
    output: "351"
    name: "Conv_12"
    op_type: "Conv"
    attribute {
      name: "dilations"
      ints: 1
      ints: 1
      type: INTS
    }
    attribute {
      name: "group"
      i: 58
      type: INT
    }
    attribute {
      name: "kernel_shape"
      ints: 3
      ints: 3
      type: INTS
    }
    attribute {
      name: "pads"
      ints: 1
      ints: 1
      ints: 1
      ints: 1
      type: INTS
    }
    attribute {
      name: "strides"
      ints: 2
      ints: 2
      type: INTS
    }
  }
  node {
    input: "351"
    input: "stage2.0.branch2.4.weight"
    input: "stage2.0.branch2.4.bias"
    input: "stage2.0.branch2.4.running_mean"
    input: "stage2.0.branch2.4.running_var"
    output: "352"
    name: "BatchNormalization_13"
    op_type: "BatchNormalization"
    attribute {
      name: "epsilon"
      f: 1e-05
      type: FLOAT
    }
    attribute {
      name: "momentum"
      f: 0.9
      type: FLOAT
    }
  }
  node {
    input: "352"
    input: "stage2.0.branch2.5.weight"
    output: "353"
    name: "Conv_14"
    op_type: "Conv"
    attribute {
      name: "dilations"
      ints: 1
      ints: 1
      type: INTS
    }
    attribute {
      name: "group"
      i: 1
      type: INT
    }
    attribute {
      name: "kernel_shape"
      ints: 1
      ints: 1
      type: INTS
    }
    attribute {
      name: "pads"
      ints: 0
      ints: 0
      ints: 0
      ints: 0
      type: INTS
    }
    attribute {
      name: "strides"
      ints: 1
      ints: 1
      type: INTS
    }
  }
  node {
    input: "353"
    input: "stage2.0.branch2.6.weight"
    input: "stage2.0.branch2.6.bias"
    input: "stage2.0.branch2.6.running_mean"
    input: "stage2.0.branch2.6.running_var"
    output: "354"
    name: "BatchNormalization_15"
    op_type: "BatchNormalization"
    attribute {
      name: "epsilon"
      f: 1e-05
      type: FLOAT
    }
    attribute {
      name: "momentum"
      f: 0.9
      type: FLOAT
    }
  }
  node {
    input: "354"
    output: "355"
    name: "Relu_16"
    op_type: "Relu"
  }
  node {
    input: "347"
    input: "355"
    output: "356"
    name: "Concat_17"
    op_type: "Concat"
    attribute {
      name: "axis"
      i: 1
      type: INT
    }
  }
  node {
    output: "357"
    name: "Constant_18"
    op_type: "Constant"
    attribute {
      name: "value"
      t {
        dims: 5
        data_type: 7
        raw_data: "…"
      }
      type: TENSOR
    }
  }
  node {
    input: "356"
    input: "357"
    output: "358"
    name: "Reshape_19"
    op_type: "Reshape"
  }
  node {
    input: "358"
    output: "359"
    name: "Transpose_20"
    op_type: "Transpose"
    attribute {
      name: "perm"
      ints: 0
      ints: 2
      ints: 1
      ints: 3
      ints: 4
      type: INTS
    }
  }
  node {
    output: "360"
    name: "Constant_21"
    op_type: "Constant"
    attribute {
      name: "value"
      t {
        dims: 4
        data_type: 7
        raw_data: "…"
      }
      type: TENSOR
    }
  }
  node {
    input: "359"
    input: "360"
    output: "361"
    name: "Reshape_22"
    op_type: "Reshape"
  }
  node {
    input: "361"
    output: "362"
    output: "363"
    name: "Split_23"
    op_type: "Split"
    attribute {
      name: "axis"
      i: 1
      type: INT
    }
    attribute {
      name: "split"
      ints: 58
      ints: 58
      type: INTS
    }
  }
  node {
    input: "363"
    input: "stage2.1.branch2.0.weight"
    output: "364"
    name: "Conv_24"
    op_type: "Conv"
    attribute {
      name: "dilations"
      ints: 1
      ints: 1
      type: INTS
    }
    attribute {
      name: "group"
      i: 1
      type: INT
    }
    attribute {
      name: "kernel_shape"
      ints: 1
      ints: 1
      type: INTS
    }
    attribute {
      name: "pads"
      ints: 0
      ints: 0
      ints: 0
      ints: 0
      type: INTS
    }
    attribute {
      name: "strides"
      ints: 1
      ints: 1
      type: INTS
    }
  }
  node {
    input: "364"
    input: "stage2.1.branch2.1.weight"
    input: "stage2.1.branch2.1.bias"
    input: "stage2.1.branch2.1.running_mean"
    input: "stage2.1.branch2.1.running_var"
    output: "365"
    name: "BatchNormalization_25"
    op_type: "BatchNormalization"
    attribute {
      name: "epsilon"
      f: 1e-05
      type: FLOAT
    }
    attribute {
      name: "momentum"
      f: 0.9
      type: FLOAT
    }
  }
  node {
    input: "365"
    output: "366"
    name: "Relu_26"
    op_type: "Relu"
  }
  node {
    input: "366"
    input: "stage2.1.branch2.3.weight"
    output: "367"
    name: "Conv_27"
    op_type: "Conv"
    attribute {
      name: "dilations"
      ints: 1
      ints: 1
      type: INTS
    }
    attribute {
      name: "group"
      i: 58
      type: INT
    }
    attribute {
      name: "kernel_shape"
      ints: 3
      ints: 3
      type: INTS
    }
    attribute {
      name: "pads"
      ints: 1
      ints: 1
      ints: 1
      ints: 1
      type: INTS
    }
    attribute {
      name: "strides"
      ints: 1
      ints: 1
      type: INTS
    }
  }
  node {
    input: "367"
    input: "stage2.1.branch2.4.weight"
    input: "stage2.1.branch2.4.bias"
    input: "stage2.1.branch2.4.running_mean"
    input: "stage2.1.branch2.4.running_var"
    output: "368"
    name: "BatchNormalization_28"
    op_type: "BatchNormalization"
    attribute {
      name: "epsilon"
      f: 1e-05
      type: FLOAT
    }
    attribute {
      name: "momentum"
      f: 0.9
      type: FLOAT
    }
  }
  node {
    input: "368"
    input: "stage2.1.branch2.5.weight"
    output: "369"
    name: "Conv_29"
    op_type: "Conv"
    attribute {
      name: "dilations"
      ints: 1
      ints: 1
      type: INTS
    }
    attribute {
      name: "group"
      i: 1
      type: INT
    }
    attribute {
      name: "kernel_shape"
      ints: 1
      ints: 1
      type: INTS
    }
    attribute {
      name: "pads"
      ints: 0
      ints: 0
      ints: 0
      ints: 0
      type: INTS
    }
    attribute {
      name: "strides"
      ints: 1
      ints: 1
      type: INTS
    }
  }
  node {
    input: "369"
    input: "stage2.1.branch2.6.weight"
    input: "stage2.1.branch2.6.bias"
    input: "stage2.1.branch2.6.running_mean"
    input: "stage2.1.branch2.6.running_var"
    output: "370"
    name: "BatchNormalization_30"
    op_type: "BatchNormalization"
    attribute {
      name: "epsilon"
      f: 1e-05
      type: FLOAT
    }
    attribute {
      name: "momentum"
      f: 0.9
      type: FLOAT
    }
  }
  node {
    input: "370"
    output: "371"
    name: "Relu_31"
    op_type: "Relu"
  }
  node {
    input: "362"
    input: "371"
    output: "372"
    name: "Concat_32"
    op_type: "Concat"
    attribute {
      name: "axis"
      i: 1
      type: INT
    }
  }
  node {
    output: "373"
    name: "Constant_33"
    op_type: "Constant"
    attribute {
      name: "value"
      t {
        dims: 5
        data_type: 7
        raw_data: "…"
      }
      type: TENSOR
    }
  }
  node {
    input: "372"
    input: "373"
    output: "374"
    name: "Reshape_34"
    op_type: "Reshape"
  }
  node {
    input: "374"
    output: "375"
    name: "Transpose_35"
    op_type: "Transpose"
    attribute {
      name: "perm"
      ints: 0
      ints: 2
      ints: 1
      ints: 3
      ints: 4
      type: INTS
    }
  }
  node {
    output: "376"
    name: "Constant_36"
    op_type: "Constant"
    attribute {
      name: "value"
      t {
        dims: 4
        data_type: 7
        raw_data: "…"
      }
      type: TENSOR
    }
  }
  node {
    input: "375"
    input: "376"
    output: "377"
    name: "Reshape_37"
    op_type: "Reshape"
  }
  node {
    input: "377"
    output: "378"
    output: "379"
    name: "Split_38"
    op_type: "Split"
    attribute {
      name: "axis"
      i: 1
      type: INT
    }
    attribute {
      name: "split"
      ints: 58
      ints: 58
      type: INTS
    }
  }
  node {
    input: "379"
    input: "stage2.2.branch2.0.weight"
    output: "380"
    name: "Conv_39"
    op_type: "Conv"
    attribute {
      name: "dilations"
      ints: 1
      ints: 1
      type: INTS
    }
    attribute {
      name: "group"
      i: 1
      type: INT
    }
    attribute {
      name: "kernel_shape"
      ints: 1
      ints: 1
      type: INTS
    }
    attribute {
      name: "pads"
      ints: 0
      ints: 0
      ints: 0
      ints: 0
      type: INTS
    }
    attribute {
      name: "strides"
      ints: 1
      ints: 1
      type: INTS
    }
  }
  node {
    input: "380"
    input: "stage2.2.branch2.1.weight"
    input: "stage2.2.branch2.1.bias"
    input: "stage2.2.branch2.1.running_mean"
    input: "stage2.2.branch2.1.running_var"
    output: "381"
    name: "BatchNormalization_40"
    op_type: "BatchNormalization"
    attribute {
      name: "epsilon"
      f: 1e-05
      type: FLOAT
    }
    attribute {
      name: "momentum"
      f: 0.9
      type: FLOAT
    }
  }
  node {
    input: "381"
    output: "382"
    name: "Relu_41"
    op_type: "Relu"
  }
  node {
    input: "382"
    input: "stage2.2.branch2.3.weight"
    output: "383"
    name: "Conv_42"
    op_type: "Conv"
    attribute {
      name: "dilations"
      ints: 1
      ints: 1
      type: INTS
    }
    attribute {
      name: "group"
      i: 58
      type: INT
    }
    attribute {
      name: "kernel_shape"
      ints: 3
      ints: 3
      type: INTS
    }
    attribute {
      name: "pads"
      ints: 1
      ints: 1
      ints: 1
      ints: 1
      type: INTS
    }
    attribute {
      name: "strides"
      ints: 1
      ints: 1
      type: INTS
    }
  }
  node {
    input: "383"
    input: "stage2.2.branch2.4.weight"
    input: "stage2.2.branch2.4.bias"
    input: "stage2.2.branch2.4.running_mean"
    input: "stage2.2.branch2.4.running_var"
    output: "384"
    name: "BatchNormalization_43"
    op_type: "BatchNormalization"
    attribute {
      name: "epsilon"
      f: 1e-05
      type: FLOAT
    }
    attribute {
      name: "momentum"
      f: 0.9
      type: FLOAT
    }
  }
  node {
    input: "384"
    input: "stage2.2.branch2.5.weight"
    output: "385"
    name: "Conv_44"
    op_type: "Conv"
    attribute {
      name: "dilations"
      ints: 1
      ints: 1
      type: INTS
    }
    attribute {
      name: "group"
      i: 1
      type: INT
    }
    attribute {
      name: "kernel_shape"
      ints: 1
      ints: 1
      type: INTS
    }
    attribute {
      name: "pads"
      ints: 0
      ints: 0
      ints: 0
      ints: 0
      type: INTS
    }
    attribute {
      name: "strides"
      ints: 1
      ints: 1
      type: INTS
    }
  }
  node {
    input: "385"
    input: "stage2.2.branch2.6.weight"
    input: "stage2.2.branch2.6.bias"
    input: "stage2.2.branch2.6.running_mean"
    input: "stage2.2.branch2.6.running_var"
    output: "386"
    name: "BatchNormalization_45"
    op_type: "BatchNormalization"
    attribute {
      name: "epsilon"
      f: 1e-05
      type: FLOAT
    }
    attribute {
      name: "momentum"
      f: 0.9
      type: FLOAT
    }
  }
  node {
    input: "386"
    output: "387"
    name: "Relu_46"
    op_type: "Relu"
  }
  node {
    input: "378"
    input: "387"
    output: "388"
    name: "Concat_47"
    op_type: "Concat"
    attribute {
      name: "axis"
      i: 1
      type: INT
    }
  }
  node {
    output: "389"
    name: "Constant_48"
    op_type: "Constant"
    attribute {
      name: "value"
      t {
        dims: 5
        data_type: 7
        raw_data: "…"
      }
      type: TENSOR
    }
  }
  node {
    input: "388"
    input: "389"
    output: "390"
    name: "Reshape_49"
    op_type: "Reshape"
  }
  node {
    input: "390"
    output: "391"
    name: "Transpose_50"
    op_type: "Transpose"
    attribute {
      name: "perm"
      ints: 0
      ints: 2
      ints: 1
      ints: 3
      ints: 4
      type: INTS
    }
  }
  node {
    output: "392"
    name: "Constant_51"
    op_type: "Constant"
    attribute {
      name: "value"
      t {
        dims: 4
        data_type: 7
        raw_data: "…"
      }
      type: TENSOR
    }
  }
  node {
    input: "391"
    input: "392"
    output: "393"
    name: "Reshape_52"
    op_type: "Reshape"
  }
  node {
    input: "393"
    output: "394"
    output: "395"
    name: "Split_53"
    op_type: "Split"
    attribute {
      name: "axis"
      i: 1
      type: INT
    }
    attribute {
      name: "split"
      ints: 58
      ints: 58
      type: INTS
    }
  }
  node {
    input: "395"
    input: "stage2.3.branch2.0.weight"
    output: "396"
    name: "Conv_54"
    op_type: "Conv"
    attribute {
      name: "dilations"
      ints: 1
      ints: 1
      type: INTS
    }
    attribute {
      name: "group"
      i: 1
      type: INT
    }
    attribute {
      name: "kernel_shape"
      ints: 1
      ints: 1
      type: INTS
    }
    attribute {
      name: "pads"
      ints: 0
      ints: 0
      ints: 0
      ints: 0
      type: INTS
    }
    attribute {
      name: "strides"
      ints: 1
      ints: 1
      type: INTS
    }
  }
  node {
    input: "396"
    input: "stage2.3.branch2.1.weight"
    input: "stage2.3.branch2.1.bias"
    input: "stage2.3.branch2.1.running_mean"
    input: "stage2.3.branch2.1.running_var"
    output: "397"
    name: "BatchNormalization_55"
    op_type: "BatchNormalization"
    attribute {
      name: "epsilon"
      f: 1e-05
      type: FLOAT
    }
    attribute {
      name: "momentum"
      f: 0.9
      type: FLOAT
    }
  }
  node {
    input: "397"
    output: "398"
    name: "Relu_56"
    op_type: "Relu"
  }
  node {
    input: "398"
    input: "stage2.3.branch2.3.weight"
    output: "399"
    name: "Conv_57"
    op_type: "Conv"
    attribute {
      name: "dilations"
      ints: 1
      ints: 1
      type: INTS
    }
    attribute {
      name: "group"
      i: 58
      type: INT
    }
    attribute {
      name: "kernel_shape"
      ints: 3
      ints: 3
      type: INTS
    }
    attribute {
      name: "pads"
      ints: 1
      ints: 1
      ints: 1
      ints: 1
      type: INTS
    }
    attribute {
      name: "strides"
      ints: 1
      ints: 1
      type: INTS
    }
  }
  node {
    input: "399"
    input: "stage2.3.branch2.4.weight"
    input: "stage2.3.branch2.4.bias"
    input: "stage2.3.branch2.4.running_mean"
    input: "stage2.3.branch2.4.running_var"
    output: "400"
    name: "BatchNormalization_58"
    op_type: "BatchNormalization"
    attribute {
      name: "epsilon"
      f: 1e-05
      type: FLOAT
    }
    attribute {
      name: "momentum"
      f: 0.9
      type: FLOAT
    }
  }
  node {
    input: "400"
    input: "stage2.3.branch2.5.weight"
    output: "401"
    name: "Conv_59"
    op_type: "Conv"
    attribute {
      name: "dilations"
      ints: 1
      ints: 1
      type: INTS
    }
    attribute {
      name: "group"
      i: 1
      type: INT
    }
    attribute {
      name: "kernel_shape"
      ints: 1
      ints: 1
      type: INTS
    }
    attribute {
      name: "pads"
      ints: 0
      ints: 0
      ints: 0
      ints: 0
      type: INTS
    }
    attribute {
      name: "strides"
      ints: 1
      ints: 1
      type: INTS
    }
  }
  node {
    input: "401"
    input: "stage2.3.branch2.6.weight"
    input: "stage2.3.branch2.6.bias"
    input: "stage2.3.branch2.6.running_mean"
    input: "stage2.3.branch2.6.running_var"
    output: "402"
    name: "BatchNormalization_60"
    op_type: "BatchNormalization"
    attribute {
      name: "epsilon"
      f: 1e-05
      type: FLOAT
    }
    attribute {
      name: "momentum"
      f: 0.9
      type: FLOAT
    }
  }
  node {
    input: "402"
    output: "403"
    name: "Relu_61"
    op_type: "Relu"
  }
  node {
    input: "394"
    input: "403"
    output: "404"
    name: "Concat_62"
    op_type: "Concat"
    attribute {
      name: "axis"
      i: 1
      type: INT
    }
  }
  node {
    output: "405"
    name: "Constant_63"
    op_type: "Constant"
    attribute {
      name: "value"
      t {
        dims: 5
        data_type: 7
        raw_data: "…"
      }
      type: TENSOR
    }
  }
  node {
    input: "404"
    input: "405"
    output: "406"
    name: "Reshape_64"
    op_type: "Reshape"
  }
  node {
    input: "406"
    output: "407"
    name: "Transpose_65"
    op_type: "Transpose"
    attribute {
      name: "perm"
      ints: 0
      ints: 2
      ints: 1
      ints: 3
      ints: 4
      type: INTS
    }
  }
  node {
    output: "408"
    name: "Constant_66"
    op_type: "Constant"
    attribute {
      name: "value"
      t {
        dims: 4
        data_type: 7
        raw_data: "…"
      }
      type: TENSOR
    }
  }
  node {
    input: "407"
    input: "408"
    output: "409"
    name: "Reshape_67"
    op_type: "Reshape"
  }
  node {
    input: "409"
    input: "stage3.0.branch1.0.weight"
    output: "410"
    name: "Conv_68"
    op_type: "Conv"
    attribute {
      name: "dilations"
      ints: 1
      ints: 1
      type: INTS
    }
    attribute {
      name: "group"
      i: 116
      type: INT
    }
    attribute {
      name: "kernel_shape"
      ints: 3
      ints: 3
      type: INTS
    }
    attribute {
      name: "pads"
      ints: 1
      ints: 1
      ints: 1
      ints: 1
      type: INTS
    }
    attribute {
      name: "strides"
      ints: 2
      ints: 2
      type: INTS
    }
  }
  node {
    input: "410"
    input: "stage3.0.branch1.1.weight"
    input: "stage3.0.branch1.1.bias"
    input: "stage3.0.branch1.1.running_mean"
    input: "stage3.0.branch1.1.running_var"
    output: "411"
    name: "BatchNormalization_69"
    op_type: "BatchNormalization"
    attribute {
      name: "epsilon"
      f: 1e-05
      type: FLOAT
    }
    attribute {
      name: "momentum"
      f: 0.9
      type: FLOAT
    }
  }
  node {
    input: "411"
    input: "stage3.0.branch1.2.weight"
    output: "412"
    name: "Conv_70"
    op_type: "Conv"
    attribute {
      name: "dilations"
      ints: 1
      ints: 1
      type: INTS
    }
    attribute {
      name: "group"
      i: 1
      type: INT
    }
    attribute {
      name: "kernel_shape"
      ints: 1
      ints: 1
      type: INTS
    }
    attribute {
      name: "pads"
      ints: 0
      ints: 0
      ints: 0
      ints: 0
      type: INTS
    }
    attribute {
      name: "strides"
      ints: 1
      ints: 1
      type: INTS
    }
  }
  node {
    input: "412"
    input: "stage3.0.branch1.3.weight"
    input: "stage3.0.branch1.3.bias"
    input: "stage3.0.branch1.3.running_mean"
    input: "stage3.0.branch1.3.running_var"
    output: "413"
    name: "BatchNormalization_71"
    op_type: "BatchNormalization"
    attribute {
      name: "epsilon"
      f: 1e-05
      type: FLOAT
    }
    attribute {
      name: "momentum"
      f: 0.9
      type: FLOAT
    }
  }
  node {
    input: "413"
    output: "414"
    name: "Relu_72"
    op_type: "Relu"
  }
  node {
    input: "409"
    input: "stage3.0.branch2.0.weight"
    output: "415"
    name: "Conv_73"
    op_type: "Conv"
    attribute {
      name: "dilations"
      ints: 1
      ints: 1
      type: INTS
    }
    attribute {
      name: "group"
      i: 1
      type: INT
    }
    attribute {
      name: "kernel_shape"
      ints: 1
      ints: 1
      type: INTS
    }
    attribute {
      name: "pads"
      ints: 0
      ints: 0
      ints: 0
      ints: 0
      type: INTS
    }
    attribute {
      name: "strides"
      ints: 1
      ints: 1
      type: INTS
    }
  }
  node {
    input: "415"
    input: "stage3.0.branch2.1.weight"
    input: "stage3.0.branch2.1.bias"
    input: "stage3.0.branch2.1.running_mean"
    input: "stage3.0.branch2.1.running_var"
    output: "416"
    name: "BatchNormalization_74"
    op_type: "BatchNormalization"
    attribute {
      name: "epsilon"
      f: 1e-05
      type: FLOAT
    }
    attribute {
      name: "momentum"
      f: 0.9
      type: FLOAT
    }
  }
  node {
    input: "416"
    output: "417"
    name: "Relu_75"
    op_type: "Relu"
  }
  node {
    input: "417"
    input: "stage3.0.branch2.3.weight"
    output: "418"
    name: "Conv_76"
    op_type: "Conv"
    attribute {
      name: "dilations"
      ints: 1
      ints: 1
      type: INTS
    }
    attribute {
      name: "group"
      i: 116
      type: INT
    }
    attribute {
      name: "kernel_shape"
      ints: 3
      ints: 3
      type: INTS
    }
    attribute {
      name: "pads"
      ints: 1
      ints: 1
      ints: 1
      ints: 1
      type: INTS
    }
    attribute {
      name: "strides"
      ints: 2
      ints: 2
      type: INTS
    }
  }
  node {
    input: "418"
    input: "stage3.0.branch2.4.weight"
    input: "stage3.0.branch2.4.bias"
    input: "stage3.0.branch2.4.running_mean"
    input: "stage3.0.branch2.4.running_var"
    output: "419"
    name: "BatchNormalization_77"
    op_type: "BatchNormalization"
    attribute {
      name: "epsilon"
      f: 1e-05
      type: FLOAT
    }
    attribute {
      name: "momentum"
      f: 0.9
      type: FLOAT
    }
  }
  node {
    input: "419"
    input: "stage3.0.branch2.5.weight"
    output: "420"
    name: "Conv_78"
    op_type: "Conv"
    attribute {
      name: "dilations"
      ints: 1
      ints: 1
      type: INTS
    }
    attribute {
      name: "group"
      i: 1
      type: INT
    }
    attribute {
      name: "kernel_shape"
      ints: 1
      ints: 1
      type: INTS
    }
    attribute {
      name: "pads"
      ints: 0
      ints: 0
      ints: 0
      ints: 0
      type: INTS
    }
    attribute {
      name: "strides"
      ints: 1
      ints: 1
      type: INTS
    }
  }
  node {
    input: "420"
    input: "stage3.0.branch2.6.weight"
    input: "stage3.0.branch2.6.bias"
    input: "stage3.0.branch2.6.running_mean"
    input: "stage3.0.branch2.6.running_var"
    output: "421"
    name: "BatchNormalization_79"
    op_type: "BatchNormalization"
    attribute {
      name: "epsilon"
      f: 1e-05
      type: FLOAT
    }
    attribute {
      name: "momentum"
      f: 0.9
      type: FLOAT
    }
  }
  node {
    input: "421"
    output: "422"
    name: "Relu_80"
    op_type: "Relu"
  }
  node {
    input: "414"
    input: "422"
    output: "423"
    name: "Concat_81"
    op_type: "Concat"
    attribute {
      name: "axis"
      i: 1
      type: INT
    }
  }
  node {
    output: "424"
    name: "Constant_82"
    op_type: "Constant"
    attribute {
      name: "value"
      t {
        dims: 5
        data_type: 7
        raw_data: "…"
      }
      type: TENSOR
    }
  }
  node {
    input: "423"
    input: "424"
    output: "425"
    name: "Reshape_83"
    op_type: "Reshape"
  }
  node {
    input: "425"
    output: "426"
    name: "Transpose_84"
    op_type: "Transpose"
    attribute {
      name: "perm"
      ints: 0
      ints: 2
      ints: 1
      ints: 3
      ints: 4
      type: INTS
    }
  }
  node {
    output: "427"
    name: "Constant_85"
    op_type: "Constant"
    attribute {
      name: "value"
      t {
        dims: 4
        data_type: 7
        raw_data: "…"
      }
      type: TENSOR
    }
  }
  node {
    input: "426"
    input: "427"
    output: "428"
    name: "Reshape_86"
    op_type: "Reshape"
  }
  node {
    input: "428"
    output: "429"
    output: "430"
    name: "Split_87"
    op_type: "Split"
    attribute {
      name: "axis"
      i: 1
      type: INT
    }
    attribute {
      name: "split"
      ints: 116
      ints: 116
      type: INTS
    }
  }
  node {
    input: "430"
    input: "stage3.1.branch2.0.weight"
    output: "431"
    name: "Conv_88"
    op_type: "Conv"
    attribute {
      name: "dilations"
      ints: 1
      ints: 1
      type: INTS
    }
    attribute {
      name: "group"
      i: 1
      type: INT
    }
    attribute {
      name: "kernel_shape"
      ints: 1
      ints: 1
      type: INTS
    }
    attribute {
      name: "pads"
      ints: 0
      ints: 0
      ints: 0
      ints: 0
      type: INTS
    }
    attribute {
      name: "strides"
      ints: 1
      ints: 1
      type: INTS
    }
  }
  node {
    input: "431"
    input: "stage3.1.branch2.1.weight"
    input: "stage3.1.branch2.1.bias"
    input: "stage3.1.branch2.1.running_mean"
    input: "stage3.1.branch2.1.running_var"
    output: "432"
    name: "BatchNormalization_89"
    op_type: "BatchNormalization"
    attribute {
      name: "epsilon"
      f: 1e-05
      type: FLOAT
    }
    attribute {
      name: "momentum"
      f: 0.9
      type: FLOAT
    }
  }
  node {
    input: "432"
    output: "433"
    name: "Relu_90"
    op_type: "Relu"
  }
  node {
    input: "433"
    input: "stage3.1.branch2.3.weight"
    output: "434"
    name: "Conv_91"
    op_type: "Conv"
    attribute {
      name: "dilations"
      ints: 1
      ints: 1
      type: INTS
    }
    attribute {
      name: "group"
      i: 116
      type: INT
    }
    attribute {
      name: "kernel_shape"
      ints: 3
      ints: 3
      type: INTS
    }
    attribute {
      name: "pads"
      ints: 1
      ints: 1
      ints: 1
      ints: 1
      type: INTS
    }
    attribute {
      name: "strides"
      ints: 1
      ints: 1
      type: INTS
    }
  }
  node {
    input: "434"
    input: "stage3.1.branch2.4.weight"
    input: "stage3.1.branch2.4.bias"
    input: "stage3.1.branch2.4.running_mean"
    input: "stage3.1.branch2.4.running_var"
    output: "435"
    name: "BatchNormalization_92"
    op_type: "BatchNormalization"
    attribute {
      name: "epsilon"
      f: 1e-05
      type: FLOAT
    }
    attribute {
      name: "momentum"
      f: 0.9
      type: FLOAT
    }
  }
  node {
    input: "435"
    input: "stage3.1.branch2.5.weight"
    output: "436"
    name: "Conv_93"
    op_type: "Conv"
    attribute {
      name: "dilations"
      ints: 1
      ints: 1
      type: INTS
    }
    attribute {
      name: "group"
      i: 1
      type: INT
    }
    attribute {
      name: "kernel_shape"
      ints: 1
      ints: 1
      type: INTS
    }
    attribute {
      name: "pads"
      ints: 0
      ints: 0
      ints: 0
      ints: 0
      type: INTS
    }
    attribute {
      name: "strides"
      ints: 1
      ints: 1
      type: INTS
    }
  }
  node {
    input: "436"
    input: "stage3.1.branch2.6.weight"
    input: "stage3.1.branch2.6.bias"
    input: "stage3.1.branch2.6.running_mean"
    input: "stage3.1.branch2.6.running_var"
    output: "437"
    name: "BatchNormalization_94"
    op_type: "BatchNormalization"
    attribute {
      name: "epsilon"
      f: 1e-05
      type: FLOAT
    }
    attribute {
      name: "momentum"
      f: 0.9
      type: FLOAT
    }
  }
  node {
    input: "437"
    output: "438"
    name: "Relu_95"
    op_type: "Relu"
  }
  node {
    input: "429"
    input: "438"
    output: "439"
    name: "Concat_96"
    op_type: "Concat"
    attribute {
      name: "axis"
      i: 1
      type: INT
    }
  }
  node {
    output: "440"
    name: "Constant_97"
    op_type: "Constant"
    attribute {
      name: "value"
      t {
        dims: 5
        data_type: 7
        raw_data: "…"
      }
      type: TENSOR
    }
  }
  node {
    input: "439"
    input: "440"
    output: "441"
    name: "Reshape_98"
    op_type: "Reshape"
  }
  node {
    input: "441"
    output: "442"
    name: "Transpose_99"
    op_type: "Transpose"
    attribute {
      name: "perm"
      ints: 0
      ints: 2
      ints: 1
      ints: 3
      ints: 4
      type: INTS
    }
  }
  node {
    output: "443"
    name: "Constant_100"
    op_type: "Constant"
    attribute {
      name: "value"
      t {
        dims: 4
        data_type: 7
        raw_data: "…"
      }
      type: TENSOR
    }
  }
  node {
    input: "442"
    input: "443"
    output: "444"
    name: "Reshape_101"
    op_type: "Reshape"
  }
  node {
    input: "444"
    output: "445"
    output: "446"
    name: "Split_102"
    op_type: "Split"
    attribute {
      name: "axis"
      i: 1
      type: INT
    }
    attribute {
      name: "split"
      ints: 116
      ints: 116
      type: INTS
    }
  }
  node {
    input: "446"
    input: "stage3.2.branch2.0.weight"
    output: "447"
    name: "Conv_103"
    op_type: "Conv"
    attribute {
      name: "dilations"
      ints: 1
      ints: 1
      type: INTS
    }
    attribute {
      name: "group"
      i: 1
      type: INT
    }
    attribute {
      name: "kernel_shape"
      ints: 1
      ints: 1
      type: INTS
    }
    attribute {
      name: "pads"
      ints: 0
      ints: 0
      ints: 0
      ints: 0
      type: INTS
    }
    attribute {
      name: "strides"
      ints: 1
      ints: 1
      type: INTS
    }
  }
  node {
    input: "447"
    input: "stage3.2.branch2.1.weight"
    input: "stage3.2.branch2.1.bias"
    input: "stage3.2.branch2.1.running_mean"
    input: "stage3.2.branch2.1.running_var"
    output: "448"
    name: "BatchNormalization_104"
    op_type: "BatchNormalization"
    attribute {
      name: "epsilon"
      f: 1e-05
      type: FLOAT
    }
    attribute {
      name: "momentum"
      f: 0.9
      type: FLOAT
    }
  }
  node {
    input: "448"
    output: "449"
    name: "Relu_105"
    op_type: "Relu"
  }
  node {
    input: "449"
    input: "stage3.2.branch2.3.weight"
    output: "450"
    name: "Conv_106"
    op_type: "Conv"
    attribute {
      name: "dilations"
      ints: 1
      ints: 1
      type: INTS
    }
    attribute {
      name: "group"
      i: 116
      type: INT
    }
    attribute {
      name: "kernel_shape"
      ints: 3
      ints: 3
      type: INTS
    }
    attribute {
      name: "pads"
      ints: 1
      ints: 1
      ints: 1
      ints: 1
      type: INTS
    }
    attribute {
      name: "strides"
      ints: 1
      ints: 1
      type: INTS
    }
  }
  node {
    input: "450"
    input: "stage3.2.branch2.4.weight"
    input: "stage3.2.branch2.4.bias"
    input: "stage3.2.branch2.4.running_mean"
    input: "stage3.2.branch2.4.running_var"
    output: "451"
    name: "BatchNormalization_107"
    op_type: "BatchNormalization"
    attribute {
      name: "epsilon"
      f: 1e-05
      type: FLOAT
    }
    attribute {
      name: "momentum"
      f: 0.9
      type: FLOAT
    }
  }
  node {
    input: "451"
    input: "stage3.2.branch2.5.weight"
    output: "452"
    name: "Conv_108"
    op_type: "Conv"
    attribute {
      name: "dilations"
      ints: 1
      ints: 1
      type: INTS
    }
    attribute {
      name: "group"
      i: 1
      type: INT
    }
    attribute {
      name: "kernel_shape"
      ints: 1
      ints: 1
      type: INTS
    }
    attribute {
      name: "pads"
      ints: 0
      ints: 0
      ints: 0
      ints: 0
      type: INTS
    }
    attribute {
      name: "strides"
      ints: 1
      ints: 1
      type: INTS
    }
  }
  node {
    input: "452"
    input: "stage3.2.branch2.6.weight"
    input: "stage3.2.branch2.6.bias"
    input: "stage3.2.branch2.6.running_mean"
    input: "stage3.2.branch2.6.running_var"
    output: "453"
    name: "BatchNormalization_109"
    op_type: "BatchNormalization"
    attribute {
      name: "epsilon"
      f: 1e-05
      type: FLOAT
    }
    attribute {
      name: "momentum"
      f: 0.9
      type: FLOAT
    }
  }
  node {
    input: "453"
    output: "454"
    name: "Relu_110"
    op_type: "Relu"
  }
  node {
    input: "445"
    input: "454"
    output: "455"
    name: "Concat_111"
    op_type: "Concat"
    attribute {
      name: "axis"
      i: 1
      type: INT
    }
  }
  node {
    output: "456"
    name: "Constant_112"
    op_type: "Constant"
    attribute {
      name: "value"
      t {
        dims: 5
        data_type: 7
        raw_data: "…"
      }
      type: TENSOR
    }
  }
  node {
    input: "455"
    input: "456"
    output: "457"
    name: "Reshape_113"
    op_type: "Reshape"
  }
  node {
    input: "457"
    output: "458"
    name: "Transpose_114"
    op_type: "Transpose"
    attribute {
      name: "perm"
      ints: 0
      ints: 2
      ints: 1
      ints: 3
      ints: 4
      type: INTS
    }
  }
  node {
    output: "459"
    name: "Constant_115"
    op_type: "Constant"
    attribute {
      name: "value"
      t {
        dims: 4
        data_type: 7
        raw_data: "…"
      }
      type: TENSOR
    }
  }
  node {
    input: "458"
    input: "459"
    output: "460"
    name: "Reshape_116"
    op_type: "Reshape"
  }
  node {
    input: "460"
    output: "461"
    output: "462"
    name: "Split_117"
    op_type: "Split"
    attribute {
      name: "axis"
      i: 1
      type: INT
    }
    attribute {
      name: "split"
      ints: 116
      ints: 116
      type: INTS
    }
  }
  node {
    input: "462"
    input: "stage3.3.branch2.0.weight"
    output: "463"
    name: "Conv_118"
    op_type: "Conv"
    attribute {
      name: "dilations"
      ints: 1
      ints: 1
      type: INTS
    }
    attribute {
      name: "group"
      i: 1
      type: INT
    }
    attribute {
      name: "kernel_shape"
      ints: 1
      ints: 1
      type: INTS
    }
    attribute {
      name: "pads"
      ints: 0
      ints: 0
      ints: 0
      ints: 0
      type: INTS
    }
    attribute {
      name: "strides"
      ints: 1
      ints: 1
      type: INTS
    }
  }
  node {
    input: "463"
    input: "stage3.3.branch2.1.weight"
    input: "stage3.3.branch2.1.bias"
    input: "stage3.3.branch2.1.running_mean"
    input: "stage3.3.branch2.1.running_var"
    output: "464"
    name: "BatchNormalization_119"
    op_type: "BatchNormalization"
    attribute {
      name: "epsilon"
      f: 1e-05
      type: FLOAT
    }
    attribute {
      name: "momentum"
      f: 0.9
      type: FLOAT
    }
  }
  node {
    input: "464"
    output: "465"
    name: "Relu_120"
    op_type: "Relu"
  }
  node {
    input: "465"
    input: "stage3.3.branch2.3.weight"
    output: "466"
    name: "Conv_121"
    op_type: "Conv"
    attribute {
      name: "dilations"
      ints: 1
      ints: 1
      type: INTS
    }
    attribute {
      name: "group"
      i: 116
      type: INT
    }
    attribute {
      name: "kernel_shape"
      ints: 3
      ints: 3
      type: INTS
    }
    attribute {
      name: "pads"
      ints: 1
      ints: 1
      ints: 1
      ints: 1
      type: INTS
    }
    attribute {
      name: "strides"
      ints: 1
      ints: 1
      type: INTS
    }
  }
  node {
    input: "466"
    input: "stage3.3.branch2.4.weight"
    input: "stage3.3.branch2.4.bias"
    input: "stage3.3.branch2.4.running_mean"
    input: "stage3.3.branch2.4.running_var"
    output: "467"
    name: "BatchNormalization_122"
    op_type: "BatchNormalization"
    attribute {
      name: "epsilon"
      f: 1e-05
      type: FLOAT
    }
    attribute {
      name: "momentum"
      f: 0.9
      type: FLOAT
    }
  }
  node {
    input: "467"
    input: "stage3.3.branch2.5.weight"
    output: "468"
    name: "Conv_123"
    op_type: "Conv"
    attribute {
      name: "dilations"
      ints: 1
      ints: 1
      type: INTS
    }
    attribute {
      name: "group"
      i: 1
      type: INT
    }
    attribute {
      name: "kernel_shape"
      ints: 1
      ints: 1
      type: INTS
    }
    attribute {
      name: "pads"
      ints: 0
      ints: 0
      ints: 0
      ints: 0
      type: INTS
    }
    attribute {
      name: "strides"
      ints: 1
      ints: 1
      type: INTS
    }
  }
  node {
    input: "468"
    input: "stage3.3.branch2.6.weight"
    input: "stage3.3.branch2.6.bias"
    input: "stage3.3.branch2.6.running_mean"
    input: "stage3.3.branch2.6.running_var"
    output: "469"
    name: "BatchNormalization_124"
    op_type: "BatchNormalization"
    attribute {
      name: "epsilon"
      f: 1e-05
      type: FLOAT
    }
    attribute {
      name: "momentum"
      f: 0.9
      type: FLOAT
    }
  }
  node {
    input: "469"
    output: "470"
    name: "Relu_125"
    op_type: "Relu"
  }
  node {
    input: "461"
    input: "470"
    output: "471"
    name: "Concat_126"
    op_type: "Concat"
    attribute {
      name: "axis"
      i: 1
      type: INT
    }
  }
  node {
    output: "472"
    name: "Constant_127"
    op_type: "Constant"
    attribute {
      name: "value"
      t {
        dims: 5
        data_type: 7
        raw_data: "…"
      }
      type: TENSOR
    }
  }
  node {
    input: "471"
    input: "472"
    output: "473"
    name: "Reshape_128"
    op_type: "Reshape"
  }
  node {
    input: "473"
    output: "474"
    name: "Transpose_129"
    op_type: "Transpose"
    attribute {
      name: "perm"
      ints: 0
      ints: 2
      ints: 1
      ints: 3
      ints: 4
      type: INTS
    }
  }
  node {
    output: "475"
    name: "Constant_130"
    op_type: "Constant"
    attribute {
      name: "value"
      t {
        dims: 4
        data_type: 7
        raw_data: "…"
      }
      type: TENSOR
    }
  }
  node {
    input: "474"
    input: "475"
    output: "476"
    name: "Reshape_131"
    op_type: "Reshape"
  }
  node {
    input: "476"
    output: "477"
    output: "478"
    name: "Split_132"
    op_type: "Split"
    attribute {
      name: "axis"
      i: 1
      type: INT
    }
    attribute {
      name: "split"
      ints: 116
      ints: 116
      type: INTS
    }
  }
  node {
    input: "478"
    input: "stage3.4.branch2.0.weight"
    output: "479"
    name: "Conv_133"
    op_type: "Conv"
    attribute {
      name: "dilations"
      ints: 1
      ints: 1
      type: INTS
    }
    attribute {
      name: "group"
      i: 1
      type: INT
    }
    attribute {
      name: "kernel_shape"
      ints: 1
      ints: 1
      type: INTS
    }
    attribute {
      name: "pads"
      ints: 0
      ints: 0
      ints: 0
      ints: 0
      type: INTS
    }
    attribute {
      name: "strides"
      ints: 1
      ints: 1
      type: INTS
    }
  }
  node {
    input: "479"
    input: "stage3.4.branch2.1.weight"
    input: "stage3.4.branch2.1.bias"
    input: "stage3.4.branch2.1.running_mean"
    input: "stage3.4.branch2.1.running_var"
    output: "480"
    name: "BatchNormalization_134"
    op_type: "BatchNormalization"
    attribute {
      name: "epsilon"
      f: 1e-05
      type: FLOAT
    }
    attribute {
      name: "momentum"
      f: 0.9
      type: FLOAT
    }
  }
  node {
    input: "480"
    output: "481"
    name: "Relu_135"
    op_type: "Relu"
  }
  node {
    input: "481"
    input: "stage3.4.branch2.3.weight"
    output: "482"
    name: "Conv_136"
    op_type: "Conv"
    attribute {
      name: "dilations"
      ints: 1
      ints: 1
      type: INTS
    }
    attribute {
      name: "group"
      i: 116
      type: INT
    }
    attribute {
      name: "kernel_shape"
      ints: 3
      ints: 3
      type: INTS
    }
    attribute {
      name: "pads"
      ints: 1
      ints: 1
      ints: 1
      ints: 1
      type: INTS
    }
    attribute {
      name: "strides"
      ints: 1
      ints: 1
      type: INTS
    }
  }
  node {
    input: "482"
    input: "stage3.4.branch2.4.weight"
    input: "stage3.4.branch2.4.bias"
    input: "stage3.4.branch2.4.running_mean"
    input: "stage3.4.branch2.4.running_var"
    output: "483"
    name: "BatchNormalization_137"
    op_type: "BatchNormalization"
    attribute {
      name: "epsilon"
      f: 1e-05
      type: FLOAT
    }
    attribute {
      name: "momentum"
      f: 0.9
      type: FLOAT
    }
  }
  node {
    input: "483"
    input: "stage3.4.branch2.5.weight"
    output: "484"
    name: "Conv_138"
    op_type: "Conv"
    attribute {
      name: "dilations"
      ints: 1
      ints: 1
      type: INTS
    }
    attribute {
      name: "group"
      i: 1
      type: INT
    }
    attribute {
      name: "kernel_shape"
      ints: 1
      ints: 1
      type: INTS
    }
    attribute {
      name: "pads"
      ints: 0
      ints: 0
      ints: 0
      ints: 0
      type: INTS
    }
    attribute {
      name: "strides"
      ints: 1
      ints: 1
      type: INTS
    }
  }
  node {
    input: "484"
    input: "stage3.4.branch2.6.weight"
    input: "stage3.4.branch2.6.bias"
    input: "stage3.4.branch2.6.running_mean"
    input: "stage3.4.branch2.6.running_var"
    output: "485"
    name: "BatchNormalization_139"
    op_type: "BatchNormalization"
    attribute {
      name: "epsilon"
      f: 1e-05
      type: FLOAT
    }
    attribute {
      name: "momentum"
      f: 0.9
      type: FLOAT
    }
  }
  node {
    input: "485"
    output: "486"
    name: "Relu_140"
    op_type: "Relu"
  }
  node {
    input: "477"
    input: "486"
    output: "487"
    name: "Concat_141"
    op_type: "Concat"
    attribute {
      name: "axis"
      i: 1
      type: INT
    }
  }
  node {
    output: "488"
    name: "Constant_142"
    op_type: "Constant"
    attribute {
      name: "value"
      t {
        dims: 5
        data_type: 7
        raw_data: "…"
      }
      type: TENSOR
    }
  }
  node {
    input: "487"
    input: "488"
    output: "489"
    name: "Reshape_143"
    op_type: "Reshape"
  }
  node {
    input: "489"
    output: "490"
    name: "Transpose_144"
    op_type: "Transpose"
    attribute {
      name: "perm"
      ints: 0
      ints: 2
      ints: 1
      ints: 3
      ints: 4
      type: INTS
    }
  }
  node {
    output: "491"
    name: "Constant_145"
    op_type: "Constant"
    attribute {
      name: "value"
      t {
        dims: 4
        data_type: 7
        raw_data: "…"
      }
      type: TENSOR
    }
  }
  node {
    input: "490"
    input: "491"
    output: "492"
    name: "Reshape_146"
    op_type: "Reshape"
  }
  node {
    input: "492"
    output: "493"
    output: "494"
    name: "Split_147"
    op_type: "Split"
    attribute {
      name: "axis"
      i: 1
      type: INT
    }
    attribute {
      name: "split"
      ints: 116
      ints: 116
      type: INTS
    }
  }
  node {
    input: "494"
    input: "stage3.5.branch2.0.weight"
    output: "495"
    name: "Conv_148"
    op_type: "Conv"
    attribute {
      name: "dilations"
      ints: 1
      ints: 1
      type: INTS
    }
    attribute {
      name: "group"
      i: 1
      type: INT
    }
    attribute {
      name: "kernel_shape"
      ints: 1
      ints: 1
      type: INTS
    }
    attribute {
      name: "pads"
      ints: 0
      ints: 0
      ints: 0
      ints: 0
      type: INTS
    }
    attribute {
      name: "strides"
      ints: 1
      ints: 1
      type: INTS
    }
  }
  node {
    input: "495"
    input: "stage3.5.branch2.1.weight"
    input: "stage3.5.branch2.1.bias"
    input: "stage3.5.branch2.1.running_mean"
    input: "stage3.5.branch2.1.running_var"
    output: "496"
    name: "BatchNormalization_149"
    op_type: "BatchNormalization"
    attribute {
      name: "epsilon"
      f: 1e-05
      type: FLOAT
    }
    attribute {
      name: "momentum"
      f: 0.9
      type: FLOAT
    }
  }
  node {
    input: "496"
    output: "497"
    name: "Relu_150"
    op_type: "Relu"
  }
  node {
    input: "497"
    input: "stage3.5.branch2.3.weight"
    output: "498"
    name: "Conv_151"
    op_type: "Conv"
    attribute {
      name: "dilations"
      ints: 1
      ints: 1
      type: INTS
    }
    attribute {
      name: "group"
      i: 116
      type: INT
    }
    attribute {
      name: "kernel_shape"
      ints: 3
      ints: 3
      type: INTS
    }
    attribute {
      name: "pads"
      ints: 1
      ints: 1
      ints: 1
      ints: 1
      type: INTS
    }
    attribute {
      name: "strides"
      ints: 1
      ints: 1
      type: INTS
    }
  }
  node {
    input: "498"
    input: "stage3.5.branch2.4.weight"
    input: "stage3.5.branch2.4.bias"
    input: "stage3.5.branch2.4.running_mean"
    input: "stage3.5.branch2.4.running_var"
    output: "499"
    name: "BatchNormalization_152"
    op_type: "BatchNormalization"
    attribute {
      name: "epsilon"
      f: 1e-05
      type: FLOAT
    }
    attribute {
      name: "momentum"
      f: 0.9
      type: FLOAT
    }
  }
  node {
    input: "499"
    input: "stage3.5.branch2.5.weight"
    output: "500"
    name: "Conv_153"
    op_type: "Conv"
    attribute {
      name: "dilations"
      ints: 1
      ints: 1
      type: INTS
    }
    attribute {
      name: "group"
      i: 1
      type: INT
    }
    attribute {
      name: "kernel_shape"
      ints: 1
      ints: 1
      type: INTS
    }
    attribute {
      name: "pads"
      ints: 0
      ints: 0
      ints: 0
      ints: 0
      type: INTS
    }
    attribute {
      name: "strides"
      ints: 1
      ints: 1
      type: INTS
    }
  }
  node {
    input: "500"
    input: "stage3.5.branch2.6.weight"
    input: "stage3.5.branch2.6.bias"
    input: "stage3.5.branch2.6.running_mean"
    input: "stage3.5.branch2.6.running_var"
    output: "501"
    name: "BatchNormalization_154"
    op_type: "BatchNormalization"
    attribute {
      name: "epsilon"
      f: 1e-05
      type: FLOAT
    }
    attribute {
      name: "momentum"
      f: 0.9
      type: FLOAT
    }
  }
  node {
    input: "501"
    output: "502"
    name: "Relu_155"
    op_type: "Relu"
  }
  node {
    input: "493"
    input: "502"
    output: "503"
    name: "Concat_156"
    op_type: "Concat"
    attribute {
      name: "axis"
      i: 1
      type: INT
    }
  }
  node {
    output: "504"
    name: "Constant_157"
    op_type: "Constant"
    attribute {
      name: "value"
      t {
        dims: 5
        data_type: 7
        raw_data: "…"
      }
      type: TENSOR
    }
  }
  node {
    input: "503"
    input: "504"
    output: "505"
    name: "Reshape_158"
    op_type: "Reshape"
  }
  node {
    input: "505"
    output: "506"
    name: "Transpose_159"
    op_type: "Transpose"
    attribute {
      name: "perm"
      ints: 0
      ints: 2
      ints: 1
      ints: 3
      ints: 4
      type: INTS
    }
  }
  node {
    output: "507"
    name: "Constant_160"
    op_type: "Constant"
    attribute {
      name: "value"
      t {
        dims: 4
        data_type: 7
        raw_data: "…"
      }
      type: TENSOR
    }
  }
  node {
    input: "506"
    input: "507"
    output: "508"
    name: "Reshape_161"
    op_type: "Reshape"
  }
  node {
    input: "508"
    output: "509"
    output: "510"
    name: "Split_162"
    op_type: "Split"
    attribute {
      name: "axis"
      i: 1
      type: INT
    }
    attribute {
      name: "split"
      ints: 116
      ints: 116
      type: INTS
    }
  }
  node {
    input: "510"
    input: "stage3.6.branch2.0.weight"
    output: "511"
    name: "Conv_163"
    op_type: "Conv"
    attribute {
      name: "dilations"
      ints: 1
      ints: 1
      type: INTS
    }
    attribute {
      name: "group"
      i: 1
      type: INT
    }
    attribute {
      name: "kernel_shape"
      ints: 1
      ints: 1
      type: INTS
    }
    attribute {
      name: "pads"
      ints: 0
      ints: 0
      ints: 0
      ints: 0
      type: INTS
    }
    attribute {
      name: "strides"
      ints: 1
      ints: 1
      type: INTS
    }
  }
  node {
    input: "511"
    input: "stage3.6.branch2.1.weight"
    input: "stage3.6.branch2.1.bias"
    input: "stage3.6.branch2.1.running_mean"
    input: "stage3.6.branch2.1.running_var"
    output: "512"
    name: "BatchNormalization_164"
    op_type: "BatchNormalization"
    attribute {
      name: "epsilon"
      f: 1e-05
      type: FLOAT
    }
    attribute {
      name: "momentum"
      f: 0.9
      type: FLOAT
    }
  }
  node {
    input: "512"
    output: "513"
    name: "Relu_165"
    op_type: "Relu"
  }
  node {
    input: "513"
    input: "stage3.6.branch2.3.weight"
    output: "514"
    name: "Conv_166"
    op_type: "Conv"
    attribute {
      name: "dilations"
      ints: 1
      ints: 1
      type: INTS
    }
    attribute {
      name: "group"
      i: 116
      type: INT
    }
    attribute {
      name: "kernel_shape"
      ints: 3
      ints: 3
      type: INTS
    }
    attribute {
      name: "pads"
      ints: 1
      ints: 1
      ints: 1
      ints: 1
      type: INTS
    }
    attribute {
      name: "strides"
      ints: 1
      ints: 1
      type: INTS
    }
  }
  node {
    input: "514"
    input: "stage3.6.branch2.4.weight"
    input: "stage3.6.branch2.4.bias"
    input: "stage3.6.branch2.4.running_mean"
    input: "stage3.6.branch2.4.running_var"
    output: "515"
    name: "BatchNormalization_167"
    op_type: "BatchNormalization"
    attribute {
      name: "epsilon"
      f: 1e-05
      type: FLOAT
    }
    attribute {
      name: "momentum"
      f: 0.9
      type: FLOAT
    }
  }
  node {
    input: "515"
    input: "stage3.6.branch2.5.weight"
    output: "516"
    name: "Conv_168"
    op_type: "Conv"
    attribute {
      name: "dilations"
      ints: 1
      ints: 1
      type: INTS
    }
    attribute {
      name: "group"
      i: 1
      type: INT
    }
    attribute {
      name: "kernel_shape"
      ints: 1
      ints: 1
      type: INTS
    }
    attribute {
      name: "pads"
      ints: 0
      ints: 0
      ints: 0
      ints: 0
      type: INTS
    }
    attribute {
      name: "strides"
      ints: 1
      ints: 1
      type: INTS
    }
  }
  node {
    input: "516"
    input: "stage3.6.branch2.6.weight"
    input: "stage3.6.branch2.6.bias"
    input: "stage3.6.branch2.6.running_mean"
    input: "stage3.6.branch2.6.running_var"
    output: "517"
    name: "BatchNormalization_169"
    op_type: "BatchNormalization"
    attribute {
      name: "epsilon"
      f: 1e-05
      type: FLOAT
    }
    attribute {
      name: "momentum"
      f: 0.9
      type: FLOAT
    }
  }
  node {
    input: "517"
    output: "518"
    name: "Relu_170"
    op_type: "Relu"
  }
  node {
    input: "509"
    input: "518"
    output: "519"
    name: "Concat_171"
    op_type: "Concat"
    attribute {
      name: "axis"
      i: 1
      type: INT
    }
  }
  node {
    output: "520"
    name: "Constant_172"
    op_type: "Constant"
    attribute {
      name: "value"
      t {
        dims: 5
        data_type: 7
        raw_data: "…"
      }
      type: TENSOR
    }
  }
  node {
    input: "519"
    input: "520"
    output: "521"
    name: "Reshape_173"
    op_type: "Reshape"
  }
  node {
    input: "521"
    output: "522"
    name: "Transpose_174"
    op_type: "Transpose"
    attribute {
      name: "perm"
      ints: 0
      ints: 2
      ints: 1
      ints: 3
      ints: 4
      type: INTS
    }
  }
  node {
    output: "523"
    name: "Constant_175"
    op_type: "Constant"
    attribute {
      name: "value"
      t {
        dims: 4
        data_type: 7
        raw_data: "…"
      }
      type: TENSOR
    }
  }
  node {
    input: "522"
    input: "523"
    output: "524"
    name: "Reshape_176"
    op_type: "Reshape"
  }
  node {
    input: "524"
    output: "525"
    output: "526"
    name: "Split_177"
    op_type: "Split"
    attribute {
      name: "axis"
      i: 1
      type: INT
    }
    attribute {
      name: "split"
      ints: 116
      ints: 116
      type: INTS
    }
  }
  node {
    input: "526"
    input: "stage3.7.branch2.0.weight"
    output: "527"
    name: "Conv_178"
    op_type: "Conv"
    attribute {
      name: "dilations"
      ints: 1
      ints: 1
      type: INTS
    }
    attribute {
      name: "group"
      i: 1
      type: INT
    }
    attribute {
      name: "kernel_shape"
      ints: 1
      ints: 1
      type: INTS
    }
    attribute {
      name: "pads"
      ints: 0
      ints: 0
      ints: 0
      ints: 0
      type: INTS
    }
    attribute {
      name: "strides"
      ints: 1
      ints: 1
      type: INTS
    }
  }
  node {
    input: "527"
    input: "stage3.7.branch2.1.weight"
    input: "stage3.7.branch2.1.bias"
    input: "stage3.7.branch2.1.running_mean"
    input: "stage3.7.branch2.1.running_var"
    output: "528"
    name: "BatchNormalization_179"
    op_type: "BatchNormalization"
    attribute {
      name: "epsilon"
      f: 1e-05
      type: FLOAT
    }
    attribute {
      name: "momentum"
      f: 0.9
      type: FLOAT
    }
  }
  node {
    input: "528"
    output: "529"
    name: "Relu_180"
    op_type: "Relu"
  }
  node {
    input: "529"
    input: "stage3.7.branch2.3.weight"
    output: "530"
    name: "Conv_181"
    op_type: "Conv"
    attribute {
      name: "dilations"
      ints: 1
      ints: 1
      type: INTS
    }
    attribute {
      name: "group"
      i: 116
      type: INT
    }
    attribute {
      name: "kernel_shape"
      ints: 3
      ints: 3
      type: INTS
    }
    attribute {
      name: "pads"
      ints: 1
      ints: 1
      ints: 1
      ints: 1
      type: INTS
    }
    attribute {
      name: "strides"
      ints: 1
      ints: 1
      type: INTS
    }
  }
  node {
    input: "530"
    input: "stage3.7.branch2.4.weight"
    input: "stage3.7.branch2.4.bias"
    input: "stage3.7.branch2.4.running_mean"
    input: "stage3.7.branch2.4.running_var"
    output: "531"
    name: "BatchNormalization_182"
    op_type: "BatchNormalization"
    attribute {
      name: "epsilon"
      f: 1e-05
      type: FLOAT
    }
    attribute {
      name: "momentum"
      f: 0.9
      type: FLOAT
    }
  }
  node {
    input: "531"
    input: "stage3.7.branch2.5.weight"
    output: "532"
    name: "Conv_183"
    op_type: "Conv"
    attribute {
      name: "dilations"
      ints: 1
      ints: 1
      type: INTS
    }
    attribute {
      name: "group"
      i: 1
      type: INT
    }
    attribute {
      name: "kernel_shape"
      ints: 1
      ints: 1
      type: INTS
    }
    attribute {
      name: "pads"
      ints: 0
      ints: 0
      ints: 0
      ints: 0
      type: INTS
    }
    attribute {
      name: "strides"
      ints: 1
      ints: 1
      type: INTS
    }
  }
  node {
    input: "532"
    input: "stage3.7.branch2.6.weight"
    input: "stage3.7.branch2.6.bias"
    input: "stage3.7.branch2.6.running_mean"
    input: "stage3.7.branch2.6.running_var"
    output: "533"
    name: "BatchNormalization_184"
    op_type: "BatchNormalization"
    attribute {
      name: "epsilon"
      f: 1e-05
      type: FLOAT
    }
    attribute {
      name: "momentum"
      f: 0.9
      type: FLOAT
    }
  }
  node {
    input: "533"
    output: "534"
    name: "Relu_185"
    op_type: "Relu"
  }
  node {
    input: "525"
    input: "534"
    output: "535"
    name: "Concat_186"
    op_type: "Concat"
    attribute {
      name: "axis"
      i: 1
      type: INT
    }
  }
  node {
    output: "536"
    name: "Constant_187"
    op_type: "Constant"
    attribute {
      name: "value"
      t {
        dims: 5
        data_type: 7
        raw_data: "…"
      }
      type: TENSOR
    }
  }
  node {
    input: "535"
    input: "536"
    output: "537"
    name: "Reshape_188"
    op_type: "Reshape"
  }
  node {
    input: "537"
    output: "538"
    name: "Transpose_189"
    op_type: "Transpose"
    attribute {
      name: "perm"
      ints: 0
      ints: 2
      ints: 1
      ints: 3
      ints: 4
      type: INTS
    }
  }
  node {
    output: "539"
    name: "Constant_190"
    op_type: "Constant"
    attribute {
      name: "value"
      t {
        dims: 4
        data_type: 7
        raw_data: "…"
      }
      type: TENSOR
    }
  }
  node {
    input: "538"
    input: "539"
    output: "540"
    name: "Reshape_191"
    op_type: "Reshape"
  }
  node {
    input: "540"
    input: "stage4.0.branch1.0.weight"
    output: "541"
    name: "Conv_192"
    op_type: "Conv"
    attribute {
      name: "dilations"
      ints: 1
      ints: 1
      type: INTS
    }
    attribute {
      name: "group"
      i: 232
      type: INT
    }
    attribute {
      name: "kernel_shape"
      ints: 3
      ints: 3
      type: INTS
    }
    attribute {
      name: "pads"
      ints: 1
      ints: 1
      ints: 1
      ints: 1
      type: INTS
    }
    attribute {
      name: "strides"
      ints: 2
      ints: 2
      type: INTS
    }
  }
  node {
    input: "541"
    input: "stage4.0.branch1.1.weight"
    input: "stage4.0.branch1.1.bias"
    input: "stage4.0.branch1.1.running_mean"
    input: "stage4.0.branch1.1.running_var"
    output: "542"
    name: "BatchNormalization_193"
    op_type: "BatchNormalization"
    attribute {
      name: "epsilon"
      f: 1e-05
      type: FLOAT
    }
    attribute {
      name: "momentum"
      f: 0.9
      type: FLOAT
    }
  }
  node {
    input: "542"
    input: "stage4.0.branch1.2.weight"
    output: "543"
    name: "Conv_194"
    op_type: "Conv"
    attribute {
      name: "dilations"
      ints: 1
      ints: 1
      type: INTS
    }
    attribute {
      name: "group"
      i: 1
      type: INT
    }
    attribute {
      name: "kernel_shape"
      ints: 1
      ints: 1
      type: INTS
    }
    attribute {
      name: "pads"
      ints: 0
      ints: 0
      ints: 0
      ints: 0
      type: INTS
    }
    attribute {
      name: "strides"
      ints: 1
      ints: 1
      type: INTS
    }
  }
  node {
    input: "543"
    input: "stage4.0.branch1.3.weight"
    input: "stage4.0.branch1.3.bias"
    input: "stage4.0.branch1.3.running_mean"
    input: "stage4.0.branch1.3.running_var"
    output: "544"
    name: "BatchNormalization_195"
    op_type: "BatchNormalization"
    attribute {
      name: "epsilon"
      f: 1e-05
      type: FLOAT
    }
    attribute {
      name: "momentum"
      f: 0.9
      type: FLOAT
    }
  }
  node {
    input: "544"
    output: "545"
    name: "Relu_196"
    op_type: "Relu"
  }
  node {
    input: "540"
    input: "stage4.0.branch2.0.weight"
    output: "546"
    name: "Conv_197"
    op_type: "Conv"
    attribute {
      name: "dilations"
      ints: 1
      ints: 1
      type: INTS
    }
    attribute {
      name: "group"
      i: 1
      type: INT
    }
    attribute {
      name: "kernel_shape"
      ints: 1
      ints: 1
      type: INTS
    }
    attribute {
      name: "pads"
      ints: 0
      ints: 0
      ints: 0
      ints: 0
      type: INTS
    }
    attribute {
      name: "strides"
      ints: 1
      ints: 1
      type: INTS
    }
  }
  node {
    input: "546"
    input: "stage4.0.branch2.1.weight"
    input: "stage4.0.branch2.1.bias"
    input: "stage4.0.branch2.1.running_mean"
    input: "stage4.0.branch2.1.running_var"
    output: "547"
    name: "BatchNormalization_198"
    op_type: "BatchNormalization"
    attribute {
      name: "epsilon"
      f: 1e-05
      type: FLOAT
    }
    attribute {
      name: "momentum"
      f: 0.9
      type: FLOAT
    }
  }
  node {
    input: "547"
    output: "548"
    name: "Relu_199"
    op_type: "Relu"
  }
  node {
    input: "548"
    input: "stage4.0.branch2.3.weight"
    output: "549"
    name: "Conv_200"
    op_type: "Conv"
    attribute {
      name: "dilations"
      ints: 1
      ints: 1
      type: INTS
    }
    attribute {
      name: "group"
      i: 232
      type: INT
    }
    attribute {
      name: "kernel_shape"
      ints: 3
      ints: 3
      type: INTS
    }
    attribute {
      name: "pads"
      ints: 1
      ints: 1
      ints: 1
      ints: 1
      type: INTS
    }
    attribute {
      name: "strides"
      ints: 2
      ints: 2
      type: INTS
    }
  }
  node {
    input: "549"
    input: "stage4.0.branch2.4.weight"
    input: "stage4.0.branch2.4.bias"
    input: "stage4.0.branch2.4.running_mean"
    input: "stage4.0.branch2.4.running_var"
    output: "550"
    name: "BatchNormalization_201"
    op_type: "BatchNormalization"
    attribute {
      name: "epsilon"
      f: 1e-05
      type: FLOAT
    }
    attribute {
      name: "momentum"
      f: 0.9
      type: FLOAT
    }
  }
  node {
    input: "550"
    input: "stage4.0.branch2.5.weight"
    output: "551"
    name: "Conv_202"
    op_type: "Conv"
    attribute {
      name: "dilations"
      ints: 1
      ints: 1
      type: INTS
    }
    attribute {
      name: "group"
      i: 1
      type: INT
    }
    attribute {
      name: "kernel_shape"
      ints: 1
      ints: 1
      type: INTS
    }
    attribute {
      name: "pads"
      ints: 0
      ints: 0
      ints: 0
      ints: 0
      type: INTS
    }
    attribute {
      name: "strides"
      ints: 1
      ints: 1
      type: INTS
    }
  }
  node {
    input: "551"
    input: "stage4.0.branch2.6.weight"
    input: "stage4.0.branch2.6.bias"
    input: "stage4.0.branch2.6.running_mean"
    input: "stage4.0.branch2.6.running_var"
    output: "552"
    name: "BatchNormalization_203"
    op_type: "BatchNormalization"
    attribute {
      name: "epsilon"
      f: 1e-05
      type: FLOAT
    }
    attribute {
      name: "momentum"
      f: 0.9
      type: FLOAT
    }
  }
  node {
    input: "552"
    output: "553"
    name: "Relu_204"
    op_type: "Relu"
  }
  node {
    input: "545"
    input: "553"
    output: "554"
    name: "Concat_205"
    op_type: "Concat"
    attribute {
      name: "axis"
      i: 1
      type: INT
    }
  }
  node {
    output: "555"
    name: "Constant_206"
    op_type: "Constant"
    attribute {
      name: "value"
      t {
        dims: 5
        data_type: 7
        raw_data: "…"
      }
      type: TENSOR
    }
  }
  node {
    input: "554"
    input: "555"
    output: "556"
    name: "Reshape_207"
    op_type: "Reshape"
  }
  node {
    input: "556"
    output: "557"
    name: "Transpose_208"
    op_type: "Transpose"
    attribute {
      name: "perm"
      ints: 0
      ints: 2
      ints: 1
      ints: 3
      ints: 4
      type: INTS
    }
  }
  node {
    output: "558"
    name: "Constant_209"
    op_type: "Constant"
    attribute {
      name: "value"
      t {
        dims: 4
        data_type: 7
        raw_data: "…"
      }
      type: TENSOR
    }
  }
  node {
    input: "557"
    input: "558"
    output: "559"
    name: "Reshape_210"
    op_type: "Reshape"
  }
  node {
    input: "559"
    output: "560"
    output: "561"
    name: "Split_211"
    op_type: "Split"
    attribute {
      name: "axis"
      i: 1
      type: INT
    }
    attribute {
      name: "split"
      ints: 232
      ints: 232
      type: INTS
    }
  }
  node {
    input: "561"
    input: "stage4.1.branch2.0.weight"
    output: "562"
    name: "Conv_212"
    op_type: "Conv"
    attribute {
      name: "dilations"
      ints: 1
      ints: 1
      type: INTS
    }
    attribute {
      name: "group"
      i: 1
      type: INT
    }
    attribute {
      name: "kernel_shape"
      ints: 1
      ints: 1
      type: INTS
    }
    attribute {
      name: "pads"
      ints: 0
      ints: 0
      ints: 0
      ints: 0
      type: INTS
    }
    attribute {
      name: "strides"
      ints: 1
      ints: 1
      type: INTS
    }
  }
  node {
    input: "562"
    input: "stage4.1.branch2.1.weight"
    input: "stage4.1.branch2.1.bias"
    input: "stage4.1.branch2.1.running_mean"
    input: "stage4.1.branch2.1.running_var"
    output: "563"
    name: "BatchNormalization_213"
    op_type: "BatchNormalization"
    attribute {
      name: "epsilon"
      f: 1e-05
      type: FLOAT
    }
    attribute {
      name: "momentum"
      f: 0.9
      type: FLOAT
    }
  }
  node {
    input: "563"
    output: "564"
    name: "Relu_214"
    op_type: "Relu"
  }
  node {
    input: "564"
    input: "stage4.1.branch2.3.weight"
    output: "565"
    name: "Conv_215"
    op_type: "Conv"
    attribute {
      name: "dilations"
      ints: 1
      ints: 1
      type: INTS
    }
    attribute {
      name: "group"
      i: 232
      type: INT
    }
    attribute {
      name: "kernel_shape"
      ints: 3
      ints: 3
      type: INTS
    }
    attribute {
      name: "pads"
      ints: 1
      ints: 1
      ints: 1
      ints: 1
      type: INTS
    }
    attribute {
      name: "strides"
      ints: 1
      ints: 1
      type: INTS
    }
  }
  node {
    input: "565"
    input: "stage4.1.branch2.4.weight"
    input: "stage4.1.branch2.4.bias"
    input: "stage4.1.branch2.4.running_mean"
    input: "stage4.1.branch2.4.running_var"
    output: "566"
    name: "BatchNormalization_216"
    op_type: "BatchNormalization"
    attribute {
      name: "epsilon"
      f: 1e-05
      type: FLOAT
    }
    attribute {
      name: "momentum"
      f: 0.9
      type: FLOAT
    }
  }
  node {
    input: "566"
    input: "stage4.1.branch2.5.weight"
    output: "567"
    name: "Conv_217"
    op_type: "Conv"
    attribute {
      name: "dilations"
      ints: 1
      ints: 1
      type: INTS
    }
    attribute {
      name: "group"
      i: 1
      type: INT
    }
    attribute {
      name: "kernel_shape"
      ints: 1
      ints: 1
      type: INTS
    }
    attribute {
      name: "pads"
      ints: 0
      ints: 0
      ints: 0
      ints: 0
      type: INTS
    }
    attribute {
      name: "strides"
      ints: 1
      ints: 1
      type: INTS
    }
  }
  node {
    input: "567"
    input: "stage4.1.branch2.6.weight"
    input: "stage4.1.branch2.6.bias"
    input: "stage4.1.branch2.6.running_mean"
    input: "stage4.1.branch2.6.running_var"
    output: "568"
    name: "BatchNormalization_218"
    op_type: "BatchNormalization"
    attribute {
      name: "epsilon"
      f: 1e-05
      type: FLOAT
    }
    attribute {
      name: "momentum"
      f: 0.9
      type: FLOAT
    }
  }
  node {
    input: "568"
    output: "569"
    name: "Relu_219"
    op_type: "Relu"
  }
  node {
    input: "560"
    input: "569"
    output: "570"
    name: "Concat_220"
    op_type: "Concat"
    attribute {
      name: "axis"
      i: 1
      type: INT
    }
  }
  node {
    output: "571"
    name: "Constant_221"
    op_type: "Constant"
    attribute {
      name: "value"
      t {
        dims: 5
        data_type: 7
        raw_data: "…"
      }
      type: TENSOR
    }
  }
  node {
    input: "570"
    input: "571"
    output: "572"
    name: "Reshape_222"
    op_type: "Reshape"
  }
  node {
    input: "572"
    output: "573"
    name: "Transpose_223"
    op_type: "Transpose"
    attribute {
      name: "perm"
      ints: 0
      ints: 2
      ints: 1
      ints: 3
      ints: 4
      type: INTS
    }
  }
  node {
    output: "574"
    name: "Constant_224"
    op_type: "Constant"
    attribute {
      name: "value"
      t {
        dims: 4
        data_type: 7
        raw_data: "…"
      }
      type: TENSOR
    }
  }
  node {
    input: "573"
    input: "574"
    output: "575"
    name: "Reshape_225"
    op_type: "Reshape"
  }
  node {
    input: "575"
    output: "576"
    output: "577"
    name: "Split_226"
    op_type: "Split"
    attribute {
      name: "axis"
      i: 1
      type: INT
    }
    attribute {
      name: "split"
      ints: 232
      ints: 232
      type: INTS
    }
  }
  node {
    input: "577"
    input: "stage4.2.branch2.0.weight"
    output: "578"
    name: "Conv_227"
    op_type: "Conv"
    attribute {
      name: "dilations"
      ints: 1
      ints: 1
      type: INTS
    }
    attribute {
      name: "group"
      i: 1
      type: INT
    }
    attribute {
      name: "kernel_shape"
      ints: 1
      ints: 1
      type: INTS
    }
    attribute {
      name: "pads"
      ints: 0
      ints: 0
      ints: 0
      ints: 0
      type: INTS
    }
    attribute {
      name: "strides"
      ints: 1
      ints: 1
      type: INTS
    }
  }
  node {
    input: "578"
    input: "stage4.2.branch2.1.weight"
    input: "stage4.2.branch2.1.bias"
    input: "stage4.2.branch2.1.running_mean"
    input: "stage4.2.branch2.1.running_var"
    output: "579"
    name: "BatchNormalization_228"
    op_type: "BatchNormalization"
    attribute {
      name: "epsilon"
      f: 1e-05
      type: FLOAT
    }
    attribute {
      name: "momentum"
      f: 0.9
      type: FLOAT
    }
  }
  node {
    input: "579"
    output: "580"
    name: "Relu_229"
    op_type: "Relu"
  }
  node {
    input: "580"
    input: "stage4.2.branch2.3.weight"
    output: "581"
    name: "Conv_230"
    op_type: "Conv"
    attribute {
      name: "dilations"
      ints: 1
      ints: 1
      type: INTS
    }
    attribute {
      name: "group"
      i: 232
      type: INT
    }
    attribute {
      name: "kernel_shape"
      ints: 3
      ints: 3
      type: INTS
    }
    attribute {
      name: "pads"
      ints: 1
      ints: 1
      ints: 1
      ints: 1
      type: INTS
    }
    attribute {
      name: "strides"
      ints: 1
      ints: 1
      type: INTS
    }
  }
  node {
    input: "581"
    input: "stage4.2.branch2.4.weight"
    input: "stage4.2.branch2.4.bias"
    input: "stage4.2.branch2.4.running_mean"
    input: "stage4.2.branch2.4.running_var"
    output: "582"
    name: "BatchNormalization_231"
    op_type: "BatchNormalization"
    attribute {
      name: "epsilon"
      f: 1e-05
      type: FLOAT
    }
    attribute {
      name: "momentum"
      f: 0.9
      type: FLOAT
    }
  }
  node {
    input: "582"
    input: "stage4.2.branch2.5.weight"
    output: "583"
    name: "Conv_232"
    op_type: "Conv"
    attribute {
      name: "dilations"
      ints: 1
      ints: 1
      type: INTS
    }
    attribute {
      name: "group"
      i: 1
      type: INT
    }
    attribute {
      name: "kernel_shape"
      ints: 1
      ints: 1
      type: INTS
    }
    attribute {
      name: "pads"
      ints: 0
      ints: 0
      ints: 0
      ints: 0
      type: INTS
    }
    attribute {
      name: "strides"
      ints: 1
      ints: 1
      type: INTS
    }
  }
  node {
    input: "583"
    input: "stage4.2.branch2.6.weight"
    input: "stage4.2.branch2.6.bias"
    input: "stage4.2.branch2.6.running_mean"
    input: "stage4.2.branch2.6.running_var"
    output: "584"
    name: "BatchNormalization_233"
    op_type: "BatchNormalization"
    attribute {
      name: "epsilon"
      f: 1e-05
      type: FLOAT
    }
    attribute {
      name: "momentum"
      f: 0.9
      type: FLOAT
    }
  }
  node {
    input: "584"
    output: "585"
    name: "Relu_234"
    op_type: "Relu"
  }
  node {
    input: "576"
    input: "585"
    output: "586"
    name: "Concat_235"
    op_type: "Concat"
    attribute {
      name: "axis"
      i: 1
      type: INT
    }
  }
  node {
    output: "587"
    name: "Constant_236"
    op_type: "Constant"
    attribute {
      name: "value"
      t {
        dims: 5
        data_type: 7
        raw_data: "…"
      }
      type: TENSOR
    }
  }
  node {
    input: "586"
    input: "587"
    output: "588"
    name: "Reshape_237"
    op_type: "Reshape"
  }
  node {
    input: "588"
    output: "589"
    name: "Transpose_238"
    op_type: "Transpose"
    attribute {
      name: "perm"
      ints: 0
      ints: 2
      ints: 1
      ints: 3
      ints: 4
      type: INTS
    }
  }
  node {
    output: "590"
    name: "Constant_239"
    op_type: "Constant"
    attribute {
      name: "value"
      t {
        dims: 4
        data_type: 7
        raw_data: "…"
      }
      type: TENSOR
    }
  }
  node {
    input: "589"
    input: "590"
    output: "591"
    name: "Reshape_240"
    op_type: "Reshape"
  }
  node {
    input: "591"
    output: "592"
    output: "593"
    name: "Split_241"
    op_type: "Split"
    attribute {
      name: "axis"
      i: 1
      type: INT
    }
    attribute {
      name: "split"
      ints: 232
      ints: 232
      type: INTS
    }
  }
  node {
    input: "593"
    input: "stage4.3.branch2.0.weight"
    output: "594"
    name: "Conv_242"
    op_type: "Conv"
    attribute {
      name: "dilations"
      ints: 1
      ints: 1
      type: INTS
    }
    attribute {
      name: "group"
      i: 1
      type: INT
    }
    attribute {
      name: "kernel_shape"
      ints: 1
      ints: 1
      type: INTS
    }
    attribute {
      name: "pads"
      ints: 0
      ints: 0
      ints: 0
      ints: 0
      type: INTS
    }
    attribute {
      name: "strides"
      ints: 1
      ints: 1
      type: INTS
    }
  }
  node {
    input: "594"
    input: "stage4.3.branch2.1.weight"
    input: "stage4.3.branch2.1.bias"
    input: "stage4.3.branch2.1.running_mean"
    input: "stage4.3.branch2.1.running_var"
    output: "595"
    name: "BatchNormalization_243"
    op_type: "BatchNormalization"
    attribute {
      name: "epsilon"
      f: 1e-05
      type: FLOAT
    }
    attribute {
      name: "momentum"
      f: 0.9
      type: FLOAT
    }
  }
  node {
    input: "595"
    output: "596"
    name: "Relu_244"
    op_type: "Relu"
  }
  node {
    input: "596"
    input: "stage4.3.branch2.3.weight"
    output: "597"
    name: "Conv_245"
    op_type: "Conv"
    attribute {
      name: "dilations"
      ints: 1
      ints: 1
      type: INTS
    }
    attribute {
      name: "group"
      i: 232
      type: INT
    }
    attribute {
      name: "kernel_shape"
      ints: 3
      ints: 3
      type: INTS
    }
    attribute {
      name: "pads"
      ints: 1
      ints: 1
      ints: 1
      ints: 1
      type: INTS
    }
    attribute {
      name: "strides"
      ints: 1
      ints: 1
      type: INTS
    }
  }
  node {
    input: "597"
    input: "stage4.3.branch2.4.weight"
    input: "stage4.3.branch2.4.bias"
    input: "stage4.3.branch2.4.running_mean"
    input: "stage4.3.branch2.4.running_var"
    output: "598"
    name: "BatchNormalization_246"
    op_type: "BatchNormalization"
    attribute {
      name: "epsilon"
      f: 1e-05
      type: FLOAT
    }
    attribute {
      name: "momentum"
      f: 0.9
      type: FLOAT
    }
  }
  node {
    input: "598"
    input: "stage4.3.branch2.5.weight"
    output: "599"
    name: "Conv_247"
    op_type: "Conv"
    attribute {
      name: "dilations"
      ints: 1
      ints: 1
      type: INTS
    }
    attribute {
      name: "group"
      i: 1
      type: INT
    }
    attribute {
      name: "kernel_shape"
      ints: 1
      ints: 1
      type: INTS
    }
    attribute {
      name: "pads"
      ints: 0
      ints: 0
      ints: 0
      ints: 0
      type: INTS
    }
    attribute {
      name: "strides"
      ints: 1
      ints: 1
      type: INTS
    }
  }
  node {
    input: "599"
    input: "stage4.3.branch2.6.weight"
    input: "stage4.3.branch2.6.bias"
    input: "stage4.3.branch2.6.running_mean"
    input: "stage4.3.branch2.6.running_var"
    output: "600"
    name: "BatchNormalization_248"
    op_type: "BatchNormalization"
    attribute {
      name: "epsilon"
      f: 1e-05
      type: FLOAT
    }
    attribute {
      name: "momentum"
      f: 0.9
      type: FLOAT
    }
  }
  node {
    input: "600"
    output: "601"
    name: "Relu_249"
    op_type: "Relu"
  }
  node {
    input: "592"
    input: "601"
    output: "602"
    name: "Concat_250"
    op_type: "Concat"
    attribute {
      name: "axis"
      i: 1
      type: INT
    }
  }
  node {
    output: "603"
    name: "Constant_251"
    op_type: "Constant"
    attribute {
      name: "value"
      t {
        dims: 5
        data_type: 7
        raw_data: "…"
      }
      type: TENSOR
    }
  }
  node {
    input: "602"
    input: "603"
    output: "604"
    name: "Reshape_252"
    op_type: "Reshape"
  }
  node {
    input: "604"
    output: "605"
    name: "Transpose_253"
    op_type: "Transpose"
    attribute {
      name: "perm"
      ints: 0
      ints: 2
      ints: 1
      ints: 3
      ints: 4
      type: INTS
    }
  }
  node {
    output: "606"
    name: "Constant_254"
    op_type: "Constant"
    attribute {
      name: "value"
      t {
        dims: 4
        data_type: 7
        raw_data: "…"
      }
      type: TENSOR
    }
  }
  node {
    input: "605"
    input: "606"
    output: "607"
    name: "Reshape_255"
    op_type: "Reshape"
  }
  node {
    input: "607"
    input: "conv5.0.weight"
    output: "608"
    name: "Conv_256"
    op_type: "Conv"
    attribute {
      name: "dilations"
      ints: 1
      ints: 1
      type: INTS
    }
    attribute {
      name: "group"
      i: 1
      type: INT
    }
    attribute {
      name: "kernel_shape"
      ints: 1
      ints: 1
      type: INTS
    }
    attribute {
      name: "pads"
      ints: 0
      ints: 0
      ints: 0
      ints: 0
      type: INTS
    }
    attribute {
      name: "strides"
      ints: 1
      ints: 1
      type: INTS
    }
  }
  node {
    input: "608"
    input: "conv5.1.weight"
    input: "conv5.1.bias"
    input: "conv5.1.running_mean"
    input: "conv5.1.running_var"
    output: "609"
    name: "BatchNormalization_257"
    op_type: "BatchNormalization"
    attribute {
      name: "epsilon"
      f: 1e-05
      type: FLOAT
    }
    attribute {
      name: "momentum"
      f: 0.9
      type: FLOAT
    }
  }
  node {
    input: "609"
    output: "610"
    name: "Relu_258"
    op_type: "Relu"
  }
  node {
    input: "610"
    output: "611"
    name: "ReduceMean_259"
    op_type: "ReduceMean"
    attribute {
      name: "axes"
      ints: 2
      ints: 3
      type: INTS
    }
    attribute {
      name: "keepdims"
      i: 0
      type: INT
    }
  }
  node {
    input: "611"
    input: "fc.weight"
    input: "fc.bias"
    output: "output"
    name: "Gemm_260"
    op_type: "Gemm"
    attribute {
      name: "alpha"
      f: 1.0
      type: FLOAT
    }
    attribute {
      name: "beta"
      f: 1.0
      type: FLOAT
    }
    attribute {
      name: "transB"
      i: 1
      type: INT
    }
  }
  name: "torch-jit-export"
  initializer {
    dims: 24
    data_type: 1
    name: "conv1.1.bias"
    raw_data: "…"
  }
  initializer {
    dims: 24
    data_type: 1
    name: "conv1.1.running_mean"
    raw_data: "…"
  }
  initializer {
    dims: 24
    data_type: 1
    name: "conv1.1.running_var"
    raw_data: "…"
  }
  initializer {
    dims: 24
    data_type: 1
    name: "conv1.1.weight"
    raw_data: "…"
  }
  initializer {
    dims: 24
    data_type: 1
    name: "stage2.0.branch1.1.bias"
    raw_data: "…"
  }
  initializer {
    dims: 24
    data_type: 1
    name: "stage2.0.branch1.1.running_mean"
    raw_data: "…"
  }
  initializer {
    dims: 24
    data_type: 1
    name: "stage2.0.branch1.1.running_var"
    raw_data: "…"
  }
  initializer {
    dims: 24
    data_type: 1
    name: "stage2.0.branch1.1.weight"
    raw_data: "…"
  }
  initializer {
    dims: 58
    data_type: 1
    name: "stage2.0.branch1.3.bias"
    raw_data: "…"
  }
  initializer {
    dims: 58
    data_type: 1
    name: "stage2.0.branch1.3.running_mean"
    raw_data: "…"
  }
  initializer {
    dims: 58
    data_type: 1
    name: "stage2.0.branch1.3.running_var"
    raw_data: "…"
  }
  initializer {
    dims: 58
    data_type: 1
    name: "stage2.0.branch1.3.weight"
    raw_data: "…"
  }
  initializer {
    dims: 58
    data_type: 1
    name: "stage2.0.branch2.1.bias"
    raw_data: "…"
  }
  initializer {
    dims: 58
    data_type: 1
    name: "stage2.0.branch2.1.running_mean"
    raw_data: "…"
  }
  initializer {
    dims: 58
    data_type: 1
    name: "stage2.0.branch2.1.running_var"
    raw_data: "…"
  }
  initializer {
    dims: 58
    data_type: 1
    name: "stage2.0.branch2.1.weight"
    raw_data: "…"
  }
  initializer {
    dims: 58
    data_type: 1
    name: "stage2.0.branch2.4.bias"
    raw_data: "…"
  }
  initializer {
    dims: 58
    data_type: 1
    name: "stage2.0.branch2.4.running_mean"
    raw_data: "…"
  }
  initializer {
    dims: 58
    data_type: 1
    name: "stage2.0.branch2.4.running_var"
    raw_data: "…"
  }
  initializer {
    dims: 58
    data_type: 1
    name: "stage2.0.branch2.4.weight"
    raw_data: "…"
  }
  initializer {
    dims: 58
    data_type: 1
    name: "stage2.0.branch2.6.bias"
    raw_data: "…"
  }
  initializer {
    dims: 58
    data_type: 1
    name: "stage2.0.branch2.6.running_mean"
    raw_data: "…"
  }
  initializer {
    dims: 58
    data_type: 1
    name: "stage2.0.branch2.6.running_var"
    raw_data: "…"
  }
  initializer {
    dims: 58
    data_type: 1
    name: "stage2.0.branch2.6.weight"
    raw_data: "…"
  }
  initializer {
    dims: 58
    data_type: 1
    name: "stage2.1.branch2.1.bias"
    raw_data: "…"
  }
  initializer {
    dims: 58
    data_type: 1
    name: "stage2.1.branch2.1.running_mean"
    raw_data: "…"
  }
  initializer {
    dims: 58
    data_type: 1
    name: "stage2.1.branch2.1.running_var"
    raw_data: "…"
  }
  initializer {
    dims: 58
    data_type: 1
    name: "stage2.1.branch2.1.weight"
    raw_data: "…"
  }
  initializer {
    dims: 58
    data_type: 1
    name: "stage2.1.branch2.4.bias"
    raw_data: "…"
  }
  initializer {
    dims: 58
    data_type: 1
    name: "stage2.1.branch2.4.running_mean"
    raw_data: "…"
  }
  initializer {
    dims: 58
    data_type: 1
    name: "stage2.1.branch2.4.running_var"
    raw_data: "…"
  }
  initializer {
    dims: 58
    data_type: 1
    name: "stage2.1.branch2.4.weight"
    raw_data: "…"
  }
  initializer {
    dims: 58
    data_type: 1
    name: "stage2.1.branch2.6.bias"
    raw_data: "…"
  }
  initializer {
    dims: 58
    data_type: 1
    name: "stage2.1.branch2.6.running_mean"
    raw_data: "…"
  }
  initializer {
    dims: 58
    data_type: 1
    name: "stage2.1.branch2.6.running_var"
    raw_data: "…"
  }
  initializer {
    dims: 58
    data_type: 1
    name: "stage2.1.branch2.6.weight"
    raw_data: "…"
  }
  initializer {
    dims: 58
    data_type: 1
    name: "stage2.2.branch2.1.bias"
    raw_data: "…"
  }
  initializer {
    dims: 58
    data_type: 1
    name: "stage2.2.branch2.1.running_mean"
    raw_data: "…"
  }
  initializer {
    dims: 58
    data_type: 1
    name: "stage2.2.branch2.1.running_var"
    raw_data: "…"
  }
  initializer {
    dims: 58
    data_type: 1
    name: "stage2.2.branch2.1.weight"
    raw_data: "…"
  }
  initializer {
    dims: 58
    data_type: 1
    name: "stage2.2.branch2.4.bias"
    raw_data: "…"
  }
  initializer {
    dims: 58
    data_type: 1
    name: "stage2.2.branch2.4.running_mean"
    raw_data: "…"
  }
  initializer {
    dims: 58
    data_type: 1
    name: "stage2.2.branch2.4.running_var"
    raw_data: "…"
  }
  initializer {
    dims: 58
    data_type: 1
    name: "stage2.2.branch2.4.weight"
    raw_data: "…"
  }
  initializer {
    dims: 58
    data_type: 1
    name: "stage2.2.branch2.6.bias"
    raw_data: "…"
  }
  initializer {
    dims: 58
    data_type: 1
    name: "stage2.2.branch2.6.running_mean"
    raw_data: "…"
  }
  initializer {
    dims: 58
    data_type: 1
    name: "stage2.2.branch2.6.running_var"
    raw_data: "…"
  }
  initializer {
    dims: 58
    data_type: 1
    name: "stage2.2.branch2.6.weight"
    raw_data: "…"
  }
  initializer {
    dims: 58
    data_type: 1
    name: "stage2.3.branch2.1.bias"
    raw_data: "…"
  }
  initializer {
    dims: 58
    data_type: 1
    name: "stage2.3.branch2.1.running_mean"
    raw_data: "…"
  }
  initializer {
    dims: 58
    data_type: 1
    name: "stage2.3.branch2.1.running_var"
    raw_data: "…"
  }
  initializer {
    dims: 58
    data_type: 1
    name: "stage2.3.branch2.1.weight"
    raw_data: "…"
  }
  initializer {
    dims: 58
    data_type: 1
    name: "stage2.3.branch2.4.bias"
    raw_data: "…"
  }
  initializer {
    dims: 58
    data_type: 1
    name: "stage2.3.branch2.4.running_mean"
    raw_data: "…"
  }
  initializer {
    dims: 58
    data_type: 1
    name: "stage2.3.branch2.4.running_var"
    raw_data: "…"
  }
  initializer {
    dims: 58
    data_type: 1
    name: "stage2.3.branch2.4.weight"
    raw_data: "…"
  }
  initializer {
    dims: 58
    data_type: 1
    name: "stage2.3.branch2.6.bias"
    raw_data: "…"
  }
  initializer {
    dims: 58
    data_type: 1
    name: "stage2.3.branch2.6.running_mean"
    raw_data: "…"
  }
  initializer {
    dims: 58
    data_type: 1
    name: "stage2.3.branch2.6.running_var"
    raw_data: "…"
  }
  initializer {
    dims: 58
    data_type: 1
    name: "stage2.3.branch2.6.weight"
    raw_data: "…"
  }
  input {
    name: "input"
    type {
      tensor_type {
        elem_type: 1
        shape {
          dim {
            dim_value: 1
          }
          dim {
            dim_value: 3
          }
          dim {
            dim_value: 224
          }
          dim {
            dim_value: 224
          }
        }
      }
    }
  }
  input {
    name: "conv1.0.weight"
    type {
      tensor_type {
        elem_type: 1
        shape {
          dim {
            dim_value: 24
          }
          dim {
            dim_value: 3
          }
          dim {
            dim_value: 3
          }
          dim {
            dim_value: 3
          }
        }
      }
    }
  }
  input {
    name: "conv5.0.weight"
    type {
      tensor_type {
        elem_type: 1
        shape {
          dim {
            dim_value: 1024
          }
          dim {
            dim_value: 464
          }
          dim {
            dim_value: 1
          }
          dim {
            dim_value: 1
          }
        }
      }
    }
  }
  input {
    name: "conv5.1.bias"
    type {
      tensor_type {
        elem_type: 1
        shape {
          dim {
            dim_value: 1024
          }
        }
      }
    }
  }
  input {
    name: "conv5.1.running_mean"
    type {
      tensor_type {
        elem_type: 1
        shape {
          dim {
            dim_value: 1024
          }
        }
      }
    }
  }
  input {
    name: "conv5.1.running_var"
    type {
      tensor_type {
        elem_type: 1
        shape {
          dim {
            dim_value: 1024
          }
        }
      }
    }
  }
  input {
    name: "conv5.1.weight"
    type {
      tensor_type {
        elem_type: 1
        shape {
          dim {
            dim_value: 1024
          }
        }
      }
    }
  }
  input {
    name: "fc.bias"
    type {
      tensor_type {
        elem_type: 1
        shape {
          dim {
            dim_value: 1000
          }
        }
      }
    }
  }
  input {
    name: "fc.weight"
    type {
      tensor_type {
        elem_type: 1
        shape {
          dim {
            dim_value: 1000
          }
          dim {
            dim_value: 1024
          }
        }
      }
    }
  }
  input {
    name: "stage2.0.branch1.0.weight"
    type {
      tensor_type {
        elem_type: 1
        shape {
          dim {
            dim_value: 24
          }
          dim {
            dim_value: 1
          }
          dim {
            dim_value: 3
          }
          dim {
            dim_value: 3
          }
        }
      }
    }
  }
  input {
    name: "stage2.0.branch1.2.weight"
    type {
      tensor_type {
        elem_type: 1
        shape {
          dim {
            dim_value: 58
          }
          dim {
            dim_value: 24
          }
          dim {
            dim_value: 1
          }
          dim {
            dim_value: 1
          }
        }
      }
    }
  }
  input {
    name: "stage2.0.branch2.0.weight"
    type {
      tensor_type {
        elem_type: 1
        shape {
          dim {
            dim_value: 58
          }
          dim {
            dim_value: 24
          }
          dim {
            dim_value: 1
          }
          dim {
            dim_value: 1
          }
        }
      }
    }
  }
  input {
    name: "stage2.0.branch2.3.weight"
    type {
      tensor_type {
        elem_type: 1
        shape {
          dim {
            dim_value: 58
          }
          dim {
            dim_value: 1
          }
          dim {
            dim_value: 3
          }
          dim {
            dim_value: 3
          }
        }
      }
    }
  }
  input {
    name: "stage2.0.branch2.5.weight"
    type {
      tensor_type {
        elem_type: 1
        shape {
          dim {
            dim_value: 58
          }
          dim {
            dim_value: 58
          }
          dim {
            dim_value: 1
          }
          dim {
            dim_value: 1
          }
        }
      }
    }
  }
  input {
    name: "stage2.1.branch2.0.weight"
    type {
      tensor_type {
        elem_type: 1
        shape {
          dim {
            dim_value: 58
          }
          dim {
            dim_value: 58
          }
          dim {
            dim_value: 1
          }
          dim {
            dim_value: 1
          }
        }
      }
    }
  }
  input {
    name: "stage2.1.branch2.3.weight"
    type {
      tensor_type {
        elem_type: 1
        shape {
          dim {
            dim_value: 58
          }
          dim {
            dim_value: 1
          }
          dim {
            dim_value: 3
          }
          dim {
            dim_value: 3
          }
        }
      }
    }
  }
  input {
    name: "stage2.1.branch2.5.weight"
    type {
      tensor_type {
        elem_type: 1
        shape {
          dim {
            dim_value: 58
          }
          dim {
            dim_value: 58
          }
          dim {
            dim_value: 1
          }
          dim {
            dim_value: 1
          }
        }
      }
    }
  }
  input {
    name: "stage2.2.branch2.0.weight"
    type {
      tensor_type {
        elem_type: 1
        shape {
          dim {
            dim_value: 58
          }
          dim {
            dim_value: 58
          }
          dim {
            dim_value: 1
          }
          dim {
            dim_value: 1
          }
        }
      }
    }
  }
  input {
    name: "stage2.2.branch2.3.weight"
    type {
      tensor_type {
        elem_type: 1
        shape {
          dim {
            dim_value: 58
          }
          dim {
            dim_value: 1
          }
          dim {
            dim_value: 3
          }
          dim {
            dim_value: 3
          }
        }
      }
    }
  }
  input {
    name: "stage2.2.branch2.5.weight"
    type {
      tensor_type {
        elem_type: 1
        shape {
          dim {
            dim_value: 58
          }
          dim {
            dim_value: 58
          }
          dim {
            dim_value: 1
          }
          dim {
            dim_value: 1
          }
        }
      }
    }
  }
  input {
    name: "stage2.3.branch2.0.weight"
    type {
      tensor_type {
        elem_type: 1
        shape {
          dim {
            dim_value: 58
          }
          dim {
            dim_value: 58
          }
          dim {
            dim_value: 1
          }
          dim {
            dim_value: 1
          }
        }
      }
    }
  }
  input {
    name: "stage2.3.branch2.3.weight"
    type {
      tensor_type {
        elem_type: 1
        shape {
          dim {
            dim_value: 58
          }
          dim {
            dim_value: 1
          }
          dim {
            dim_value: 3
          }
          dim {
            dim_value: 3
          }
        }
      }
    }
  }
  input {
    name: "stage2.3.branch2.5.weight"
    type {
      tensor_type {
        elem_type: 1
        shape {
          dim {
            dim_value: 58
          }
          dim {
            dim_value: 58
          }
          dim {
            dim_value: 1
          }
          dim {
            dim_value: 1
          }
        }
      }
    }
  }
  input {
    name: "stage3.0.branch1.0.weight"
    type {
      tensor_type {
        elem_type: 1
        shape {
          dim {
            dim_value: 116
          }
          dim {
            dim_value: 1
          }
          dim {
            dim_value: 3
          }
          dim {
            dim_value: 3
          }
        }
      }
    }
  }
  input {
    name: "stage3.0.branch1.1.bias"
    type {
      tensor_type {
        elem_type: 1
        shape {
          dim {
            dim_value: 116
          }
        }
      }
    }
  }
  input {
    name: "stage3.0.branch1.1.running_mean"
    type {
      tensor_type {
        elem_type: 1
        shape {
          dim {
            dim_value: 116
          }
        }
      }
    }
  }
  input {
    name: "stage3.0.branch1.1.running_var"
    type {
      tensor_type {
        elem_type: 1
        shape {
          dim {
            dim_value: 116
          }
        }
      }
    }
  }
  input {
    name: "stage3.0.branch1.1.weight"
    type {
      tensor_type {
        elem_type: 1
        shape {
          dim {
            dim_value: 116
          }
        }
      }
    }
  }
  input {
    name: "stage3.0.branch1.2.weight"
    type {
      tensor_type {
        elem_type: 1
        shape {
          dim {
            dim_value: 116
          }
          dim {
            dim_value: 116
          }
          dim {
            dim_value: 1
          }
          dim {
            dim_value: 1
          }
        }
      }
    }
  }
  input {
    name: "stage3.0.branch1.3.bias"
    type {
      tensor_type {
        elem_type: 1
        shape {
          dim {
            dim_value: 116
          }
        }
      }
    }
  }
  input {
    name: "stage3.0.branch1.3.running_mean"
    type {
      tensor_type {
        elem_type: 1
        shape {
          dim {
            dim_value: 116
          }
        }
      }
    }
  }
  input {
    name: "stage3.0.branch1.3.running_var"
    type {
      tensor_type {
        elem_type: 1
        shape {
          dim {
            dim_value: 116
          }
        }
      }
    }
  }
  input {
    name: "stage3.0.branch1.3.weight"
    type {
      tensor_type {
        elem_type: 1
        shape {
          dim {
            dim_value: 116
          }
        }
      }
    }
  }
  input {
    name: "stage3.0.branch2.0.weight"
    type {
      tensor_type {
        elem_type: 1
        shape {
          dim {
            dim_value: 116
          }
          dim {
            dim_value: 116
          }
          dim {
            dim_value: 1
          }
          dim {
            dim_value: 1
          }
        }
      }
    }
  }
  input {
    name: "stage3.0.branch2.1.bias"
    type {
      tensor_type {
        elem_type: 1
        shape {
          dim {
            dim_value: 116
          }
        }
      }
    }
  }
  input {
    name: "stage3.0.branch2.1.running_mean"
    type {
      tensor_type {
        elem_type: 1
        shape {
          dim {
            dim_value: 116
          }
        }
      }
    }
  }
  input {
    name: "stage3.0.branch2.1.running_var"
    type {
      tensor_type {
        elem_type: 1
        shape {
          dim {
            dim_value: 116
          }
        }
      }
    }
  }
  input {
    name: "stage3.0.branch2.1.weight"
    type {
      tensor_type {
        elem_type: 1
        shape {
          dim {
            dim_value: 116
          }
        }
      }
    }
  }
  input {
    name: "stage3.0.branch2.3.weight"
    type {
      tensor_type {
        elem_type: 1
        shape {
          dim {
            dim_value: 116
          }
          dim {
            dim_value: 1
          }
          dim {
            dim_value: 3
          }
          dim {
            dim_value: 3
          }
        }
      }
    }
  }
  input {
    name: "stage3.0.branch2.4.bias"
    type {
      tensor_type {
        elem_type: 1
        shape {
          dim {
            dim_value: 116
          }
        }
      }
    }
  }
  input {
    name: "stage3.0.branch2.4.running_mean"
    type {
      tensor_type {
        elem_type: 1
        shape {
          dim {
            dim_value: 116
          }
        }
      }
    }
  }
  input {
    name: "stage3.0.branch2.4.running_var"
    type {
      tensor_type {
        elem_type: 1
        shape {
          dim {
            dim_value: 116
          }
        }
      }
    }
  }
  input {
    name: "stage3.0.branch2.4.weight"
    type {
      tensor_type {
        elem_type: 1
        shape {
          dim {
            dim_value: 116
          }
        }
      }
    }
  }
  input {
    name: "stage3.0.branch2.5.weight"
    type {
      tensor_type {
        elem_type: 1
        shape {
          dim {
            dim_value: 116
          }
          dim {
            dim_value: 116
          }
          dim {
            dim_value: 1
          }
          dim {
            dim_value: 1
          }
        }
      }
    }
  }
  input {
    name: "stage3.0.branch2.6.bias"
    type {
      tensor_type {
        elem_type: 1
        shape {
          dim {
            dim_value: 116
          }
        }
      }
    }
  }
  input {
    name: "stage3.0.branch2.6.running_mean"
    type {
      tensor_type {
        elem_type: 1
        shape {
          dim {
            dim_value: 116
          }
        }
      }
    }
  }
  input {
    name: "stage3.0.branch2.6.running_var"
    type {
      tensor_type {
        elem_type: 1
        shape {
          dim {
            dim_value: 116
          }
        }
      }
    }
  }
  input {
    name: "stage3.0.branch2.6.weight"
    type {
      tensor_type {
        elem_type: 1
        shape {
          dim {
            dim_value: 116
          }
        }
      }
    }
  }
  input {
    name: "stage3.1.branch2.0.weight"
    type {
      tensor_type {
        elem_type: 1
        shape {
          dim {
            dim_value: 116
          }
          dim {
            dim_value: 116
          }
          dim {
            dim_value: 1
          }
          dim {
            dim_value: 1
          }
        }
      }
    }
  }
  input {
    name: "stage3.1.branch2.1.bias"
    type {
      tensor_type {
        elem_type: 1
        shape {
          dim {
            dim_value: 116
          }
        }
      }
    }
  }
  input {
    name: "stage3.1.branch2.1.running_mean"
    type {
      tensor_type {
        elem_type: 1
        shape {
          dim {
            dim_value: 116
          }
        }
      }
    }
  }
  input {
    name: "stage3.1.branch2.1.running_var"
    type {
      tensor_type {
        elem_type: 1
        shape {
          dim {
            dim_value: 116
          }
        }
      }
    }
  }
  input {
    name: "stage3.1.branch2.1.weight"
    type {
      tensor_type {
        elem_type: 1
        shape {
          dim {
            dim_value: 116
          }
        }
      }
    }
  }
  input {
    name: "stage3.1.branch2.3.weight"
    type {
      tensor_type {
        elem_type: 1
        shape {
          dim {
            dim_value: 116
          }
          dim {
            dim_value: 1
          }
          dim {
            dim_value: 3
          }
          dim {
            dim_value: 3
          }
        }
      }
    }
  }
  input {
    name: "stage3.1.branch2.4.bias"
    type {
      tensor_type {
        elem_type: 1
        shape {
          dim {
            dim_value: 116
          }
        }
      }
    }
  }
  input {
    name: "stage3.1.branch2.4.running_mean"
    type {
      tensor_type {
        elem_type: 1
        shape {
          dim {
            dim_value: 116
          }
        }
      }
    }
  }
  input {
    name: "stage3.1.branch2.4.running_var"
    type {
      tensor_type {
        elem_type: 1
        shape {
          dim {
            dim_value: 116
          }
        }
      }
    }
  }
  input {
    name: "stage3.1.branch2.4.weight"
    type {
      tensor_type {
        elem_type: 1
        shape {
          dim {
            dim_value: 116
          }
        }
      }
    }
  }
  input {
    name: "stage3.1.branch2.5.weight"
    type {
      tensor_type {
        elem_type: 1
        shape {
          dim {
            dim_value: 116
          }
          dim {
            dim_value: 116
          }
          dim {
            dim_value: 1
          }
          dim {
            dim_value: 1
          }
        }
      }
    }
  }
  input {
    name: "stage3.1.branch2.6.bias"
    type {
      tensor_type {
        elem_type: 1
        shape {
          dim {
            dim_value: 116
          }
        }
      }
    }
  }
  input {
    name: "stage3.1.branch2.6.running_mean"
    type {
      tensor_type {
        elem_type: 1
        shape {
          dim {
            dim_value: 116
          }
        }
      }
    }
  }
  input {
    name: "stage3.1.branch2.6.running_var"
    type {
      tensor_type {
        elem_type: 1
        shape {
          dim {
            dim_value: 116
          }
        }
      }
    }
  }
  input {
    name: "stage3.1.branch2.6.weight"
    type {
      tensor_type {
        elem_type: 1
        shape {
          dim {
            dim_value: 116
          }
        }
      }
    }
  }
  input {
    name: "stage3.2.branch2.0.weight"
    type {
      tensor_type {
        elem_type: 1
        shape {
          dim {
            dim_value: 116
          }
          dim {
            dim_value: 116
          }
          dim {
            dim_value: 1
          }
          dim {
            dim_value: 1
          }
        }
      }
    }
  }
  input {
    name: "stage3.2.branch2.1.bias"
    type {
      tensor_type {
        elem_type: 1
        shape {
          dim {
            dim_value: 116
          }
        }
      }
    }
  }
  input {
    name: "stage3.2.branch2.1.running_mean"
    type {
      tensor_type {
        elem_type: 1
        shape {
          dim {
            dim_value: 116
          }
        }
      }
    }
  }
  input {
    name: "stage3.2.branch2.1.running_var"
    type {
      tensor_type {
        elem_type: 1
        shape {
          dim {
            dim_value: 116
          }
        }
      }
    }
  }
  input {
    name: "stage3.2.branch2.1.weight"
    type {
      tensor_type {
        elem_type: 1
        shape {
          dim {
            dim_value: 116
          }
        }
      }
    }
  }
  input {
    name: "stage3.2.branch2.3.weight"
    type {
      tensor_type {
        elem_type: 1
        shape {
          dim {
            dim_value: 116
          }
          dim {
            dim_value: 1
          }
          dim {
            dim_value: 3
          }
          dim {
            dim_value: 3
          }
        }
      }
    }
  }
  input {
    name: "stage3.2.branch2.4.bias"
    type {
      tensor_type {
        elem_type: 1
        shape {
          dim {
            dim_value: 116
          }
        }
      }
    }
  }
  input {
    name: "stage3.2.branch2.4.running_mean"
    type {
      tensor_type {
        elem_type: 1
        shape {
          dim {
            dim_value: 116
          }
        }
      }
    }
  }
  input {
    name: "stage3.2.branch2.4.running_var"
    type {
      tensor_type {
        elem_type: 1
        shape {
          dim {
            dim_value: 116
          }
        }
      }
    }
  }
  input {
    name: "stage3.2.branch2.4.weight"
    type {
      tensor_type {
        elem_type: 1
        shape {
          dim {
            dim_value: 116
          }
        }
      }
    }
  }
  input {
    name: "stage3.2.branch2.5.weight"
    type {
      tensor_type {
        elem_type: 1
        shape {
          dim {
            dim_value: 116
          }
          dim {
            dim_value: 116
          }
          dim {
            dim_value: 1
          }
          dim {
            dim_value: 1
          }
        }
      }
    }
  }
  input {
    name: "stage3.2.branch2.6.bias"
    type {
      tensor_type {
        elem_type: 1
        shape {
          dim {
            dim_value: 116
          }
        }
      }
    }
  }
  input {
    name: "stage3.2.branch2.6.running_mean"
    type {
      tensor_type {
        elem_type: 1
        shape {
          dim {
            dim_value: 116
          }
        }
      }
    }
  }
  input {
    name: "stage3.2.branch2.6.running_var"
    type {
      tensor_type {
        elem_type: 1
        shape {
          dim {
            dim_value: 116
          }
        }
      }
    }
  }
  input {
    name: "stage3.2.branch2.6.weight"
    type {
      tensor_type {
        elem_type: 1
        shape {
          dim {
            dim_value: 116
          }
        }
      }
    }
  }
  input {
    name: "stage3.3.branch2.0.weight"
    type {
      tensor_type {
        elem_type: 1
        shape {
          dim {
            dim_value: 116
          }
          dim {
            dim_value: 116
          }
          dim {
            dim_value: 1
          }
          dim {
            dim_value: 1
          }
        }
      }
    }
  }
  input {
    name: "stage3.3.branch2.1.bias"
    type {
      tensor_type {
        elem_type: 1
        shape {
          dim {
            dim_value: 116
          }
        }
      }
    }
  }
  input {
    name: "stage3.3.branch2.1.running_mean"
    type {
      tensor_type {
        elem_type: 1
        shape {
          dim {
            dim_value: 116
          }
        }
      }
    }
  }
  input {
    name: "stage3.3.branch2.1.running_var"
    type {
      tensor_type {
        elem_type: 1
        shape {
          dim {
            dim_value: 116
          }
        }
      }
    }
  }
  input {
    name: "stage3.3.branch2.1.weight"
    type {
      tensor_type {
        elem_type: 1
        shape {
          dim {
            dim_value: 116
          }
        }
      }
    }
  }
  input {
    name: "stage3.3.branch2.3.weight"
    type {
      tensor_type {
        elem_type: 1
        shape {
          dim {
            dim_value: 116
          }
          dim {
            dim_value: 1
          }
          dim {
            dim_value: 3
          }
          dim {
            dim_value: 3
          }
        }
      }
    }
  }
  input {
    name: "stage3.3.branch2.4.bias"
    type {
      tensor_type {
        elem_type: 1
        shape {
          dim {
            dim_value: 116
          }
        }
      }
    }
  }
  input {
    name: "stage3.3.branch2.4.running_mean"
    type {
      tensor_type {
        elem_type: 1
        shape {
          dim {
            dim_value: 116
          }
        }
      }
    }
  }
  input {
    name: "stage3.3.branch2.4.running_var"
    type {
      tensor_type {
        elem_type: 1
        shape {
          dim {
            dim_value: 116
          }
        }
      }
    }
  }
  input {
    name: "stage3.3.branch2.4.weight"
    type {
      tensor_type {
        elem_type: 1
        shape {
          dim {
            dim_value: 116
          }
        }
      }
    }
  }
  input {
    name: "stage3.3.branch2.5.weight"
    type {
      tensor_type {
        elem_type: 1
        shape {
          dim {
            dim_value: 116
          }
          dim {
            dim_value: 116
          }
          dim {
            dim_value: 1
          }
          dim {
            dim_value: 1
          }
        }
      }
    }
  }
  input {
    name: "stage3.3.branch2.6.bias"
    type {
      tensor_type {
        elem_type: 1
        shape {
          dim {
            dim_value: 116
          }
        }
      }
    }
  }
  input {
    name: "stage3.3.branch2.6.running_mean"
    type {
      tensor_type {
        elem_type: 1
        shape {
          dim {
            dim_value: 116
          }
        }
      }
    }
  }
  input {
    name: "stage3.3.branch2.6.running_var"
    type {
      tensor_type {
        elem_type: 1
        shape {
          dim {
            dim_value: 116
          }
        }
      }
    }
  }
  input {
    name: "stage3.3.branch2.6.weight"
    type {
      tensor_type {
        elem_type: 1
        shape {
          dim {
            dim_value: 116
          }
        }
      }
    }
  }
  input {
    name: "stage3.4.branch2.0.weight"
    type {
      tensor_type {
        elem_type: 1
        shape {
          dim {
            dim_value: 116
          }
          dim {
            dim_value: 116
          }
          dim {
            dim_value: 1
          }
          dim {
            dim_value: 1
          }
        }
      }
    }
  }
  input {
    name: "stage3.4.branch2.1.bias"
    type {
      tensor_type {
        elem_type: 1
        shape {
          dim {
            dim_value: 116
          }
        }
      }
    }
  }
  input {
    name: "stage3.4.branch2.1.running_mean"
    type {
      tensor_type {
        elem_type: 1
        shape {
          dim {
            dim_value: 116
          }
        }
      }
    }
  }
  input {
    name: "stage3.4.branch2.1.running_var"
    type {
      tensor_type {
        elem_type: 1
        shape {
          dim {
            dim_value: 116
          }
        }
      }
    }
  }
  input {
    name: "stage3.4.branch2.1.weight"
    type {
      tensor_type {
        elem_type: 1
        shape {
          dim {
            dim_value: 116
          }
        }
      }
    }
  }
  input {
    name: "stage3.4.branch2.3.weight"
    type {
      tensor_type {
        elem_type: 1
        shape {
          dim {
            dim_value: 116
          }
          dim {
            dim_value: 1
          }
          dim {
            dim_value: 3
          }
          dim {
            dim_value: 3
          }
        }
      }
    }
  }
  input {
    name: "stage3.4.branch2.4.bias"
    type {
      tensor_type {
        elem_type: 1
        shape {
          dim {
            dim_value: 116
          }
        }
      }
    }
  }
  input {
    name: "stage3.4.branch2.4.running_mean"
    type {
      tensor_type {
        elem_type: 1
        shape {
          dim {
            dim_value: 116
          }
        }
      }
    }
  }
  input {
    name: "stage3.4.branch2.4.running_var"
    type {
      tensor_type {
        elem_type: 1
        shape {
          dim {
            dim_value: 116
          }
        }
      }
    }
  }
  input {
    name: "stage3.4.branch2.4.weight"
    type {
      tensor_type {
        elem_type: 1
        shape {
          dim {
            dim_value: 116
          }
        }
      }
    }
  }
  input {
    name: "stage3.4.branch2.5.weight"
    type {
      tensor_type {
        elem_type: 1
        shape {
          dim {
            dim_value: 116
          }
          dim {
            dim_value: 116
          }
          dim {
            dim_value: 1
          }
          dim {
            dim_value: 1
          }
        }
      }
    }
  }
  input {
    name: "stage3.4.branch2.6.bias"
    type {
      tensor_type {
        elem_type: 1
        shape {
          dim {
            dim_value: 116
          }
        }
      }
    }
  }
  input {
    name: "stage3.4.branch2.6.running_mean"
    type {
      tensor_type {
        elem_type: 1
        shape {
          dim {
            dim_value: 116
          }
        }
      }
    }
  }
  input {
    name: "stage3.4.branch2.6.running_var"
    type {
      tensor_type {
        elem_type: 1
        shape {
          dim {
            dim_value: 116
          }
        }
      }
    }
  }
  input {
    name: "stage3.4.branch2.6.weight"
    type {
      tensor_type {
        elem_type: 1
        shape {
          dim {
            dim_value: 116
          }
        }
      }
    }
  }
  input {
    name: "stage3.5.branch2.0.weight"
    type {
      tensor_type {
        elem_type: 1
        shape {
          dim {
            dim_value: 116
          }
          dim {
            dim_value: 116
          }
          dim {
            dim_value: 1
          }
          dim {
            dim_value: 1
          }
        }
      }
    }
  }
  input {
    name: "stage3.5.branch2.1.bias"
    type {
      tensor_type {
        elem_type: 1
        shape {
          dim {
            dim_value: 116
          }
        }
      }
    }
  }
  input {
    name: "stage3.5.branch2.1.running_mean"
    type {
      tensor_type {
        elem_type: 1
        shape {
          dim {
            dim_value: 116
          }
        }
      }
    }
  }
  input {
    name: "stage3.5.branch2.1.running_var"
    type {
      tensor_type {
        elem_type: 1
        shape {
          dim {
            dim_value: 116
          }
        }
      }
    }
  }
  input {
    name: "stage3.5.branch2.1.weight"
    type {
      tensor_type {
        elem_type: 1
        shape {
          dim {
            dim_value: 116
          }
        }
      }
    }
  }
  input {
    name: "stage3.5.branch2.3.weight"
    type {
      tensor_type {
        elem_type: 1
        shape {
          dim {
            dim_value: 116
          }
          dim {
            dim_value: 1
          }
          dim {
            dim_value: 3
          }
          dim {
            dim_value: 3
          }
        }
      }
    }
  }
  input {
    name: "stage3.5.branch2.4.bias"
    type {
      tensor_type {
        elem_type: 1
        shape {
          dim {
            dim_value: 116
          }
        }
      }
    }
  }
  input {
    name: "stage3.5.branch2.4.running_mean"
    type {
      tensor_type {
        elem_type: 1
        shape {
          dim {
            dim_value: 116
          }
        }
      }
    }
  }
  input {
    name: "stage3.5.branch2.4.running_var"
    type {
      tensor_type {
        elem_type: 1
        shape {
          dim {
            dim_value: 116
          }
        }
      }
    }
  }
  input {
    name: "stage3.5.branch2.4.weight"
    type {
      tensor_type {
        elem_type: 1
        shape {
          dim {
            dim_value: 116
          }
        }
      }
    }
  }
  input {
    name: "stage3.5.branch2.5.weight"
    type {
      tensor_type {
        elem_type: 1
        shape {
          dim {
            dim_value: 116
          }
          dim {
            dim_value: 116
          }
          dim {
            dim_value: 1
          }
          dim {
            dim_value: 1
          }
        }
      }
    }
  }
  input {
    name: "stage3.5.branch2.6.bias"
    type {
      tensor_type {
        elem_type: 1
        shape {
          dim {
            dim_value: 116
          }
        }
      }
    }
  }
  input {
    name: "stage3.5.branch2.6.running_mean"
    type {
      tensor_type {
        elem_type: 1
        shape {
          dim {
            dim_value: 116
          }
        }
      }
    }
  }
  input {
    name: "stage3.5.branch2.6.running_var"
    type {
      tensor_type {
        elem_type: 1
        shape {
          dim {
            dim_value: 116
          }
        }
      }
    }
  }
  input {
    name: "stage3.5.branch2.6.weight"
    type {
      tensor_type {
        elem_type: 1
        shape {
          dim {
            dim_value: 116
          }
        }
      }
    }
  }
  input {
    name: "stage3.6.branch2.0.weight"
    type {
      tensor_type {
        elem_type: 1
        shape {
          dim {
            dim_value: 116
          }
          dim {
            dim_value: 116
          }
          dim {
            dim_value: 1
          }
          dim {
            dim_value: 1
          }
        }
      }
    }
  }
  input {
    name: "stage3.6.branch2.1.bias"
    type {
      tensor_type {
        elem_type: 1
        shape {
          dim {
            dim_value: 116
          }
        }
      }
    }
  }
  input {
    name: "stage3.6.branch2.1.running_mean"
    type {
      tensor_type {
        elem_type: 1
        shape {
          dim {
            dim_value: 116
          }
        }
      }
    }
  }
  input {
    name: "stage3.6.branch2.1.running_var"
    type {
      tensor_type {
        elem_type: 1
        shape {
          dim {
            dim_value: 116
          }
        }
      }
    }
  }
  input {
    name: "stage3.6.branch2.1.weight"
    type {
      tensor_type {
        elem_type: 1
        shape {
          dim {
            dim_value: 116
          }
        }
      }
    }
  }
  input {
    name: "stage3.6.branch2.3.weight"
    type {
      tensor_type {
        elem_type: 1
        shape {
          dim {
            dim_value: 116
          }
          dim {
            dim_value: 1
          }
          dim {
            dim_value: 3
          }
          dim {
            dim_value: 3
          }
        }
      }
    }
  }
  input {
    name: "stage3.6.branch2.4.bias"
    type {
      tensor_type {
        elem_type: 1
        shape {
          dim {
            dim_value: 116
          }
        }
      }
    }
  }
  input {
    name: "stage3.6.branch2.4.running_mean"
    type {
      tensor_type {
        elem_type: 1
        shape {
          dim {
            dim_value: 116
          }
        }
      }
    }
  }
  input {
    name: "stage3.6.branch2.4.running_var"
    type {
      tensor_type {
        elem_type: 1
        shape {
          dim {
            dim_value: 116
          }
        }
      }
    }
  }
  input {
    name: "stage3.6.branch2.4.weight"
    type {
      tensor_type {
        elem_type: 1
        shape {
          dim {
            dim_value: 116
          }
        }
      }
    }
  }
  input {
    name: "stage3.6.branch2.5.weight"
    type {
      tensor_type {
        elem_type: 1
        shape {
          dim {
            dim_value: 116
          }
          dim {
            dim_value: 116
          }
          dim {
            dim_value: 1
          }
          dim {
            dim_value: 1
          }
        }
      }
    }
  }
  input {
    name: "stage3.6.branch2.6.bias"
    type {
      tensor_type {
        elem_type: 1
        shape {
          dim {
            dim_value: 116
          }
        }
      }
    }
  }
  input {
    name: "stage3.6.branch2.6.running_mean"
    type {
      tensor_type {
        elem_type: 1
        shape {
          dim {
            dim_value: 116
          }
        }
      }
    }
  }
  input {
    name: "stage3.6.branch2.6.running_var"
    type {
      tensor_type {
        elem_type: 1
        shape {
          dim {
            dim_value: 116
          }
        }
      }
    }
  }
  input {
    name: "stage3.6.branch2.6.weight"
    type {
      tensor_type {
        elem_type: 1
        shape {
          dim {
            dim_value: 116
          }
        }
      }
    }
  }
  input {
    name: "stage3.7.branch2.0.weight"
    type {
      tensor_type {
        elem_type: 1
        shape {
          dim {
            dim_value: 116
          }
          dim {
            dim_value: 116
          }
          dim {
            dim_value: 1
          }
          dim {
            dim_value: 1
          }
        }
      }
    }
  }
  input {
    name: "stage3.7.branch2.1.bias"
    type {
      tensor_type {
        elem_type: 1
        shape {
          dim {
            dim_value: 116
          }
        }
      }
    }
  }
  input {
    name: "stage3.7.branch2.1.running_mean"
    type {
      tensor_type {
        elem_type: 1
        shape {
          dim {
            dim_value: 116
          }
        }
      }
    }
  }
  input {
    name: "stage3.7.branch2.1.running_var"
    type {
      tensor_type {
        elem_type: 1
        shape {
          dim {
            dim_value: 116
          }
        }
      }
    }
  }
  input {
    name: "stage3.7.branch2.1.weight"
    type {
      tensor_type {
        elem_type: 1
        shape {
          dim {
            dim_value: 116
          }
        }
      }
    }
  }
  input {
    name: "stage3.7.branch2.3.weight"
    type {
      tensor_type {
        elem_type: 1
        shape {
          dim {
            dim_value: 116
          }
          dim {
            dim_value: 1
          }
          dim {
            dim_value: 3
          }
          dim {
            dim_value: 3
          }
        }
      }
    }
  }
  input {
    name: "stage3.7.branch2.4.bias"
    type {
      tensor_type {
        elem_type: 1
        shape {
          dim {
            dim_value: 116
          }
        }
      }
    }
  }
  input {
    name: "stage3.7.branch2.4.running_mean"
    type {
      tensor_type {
        elem_type: 1
        shape {
          dim {
            dim_value: 116
          }
        }
      }
    }
  }
  input {
    name: "stage3.7.branch2.4.running_var"
    type {
      tensor_type {
        elem_type: 1
        shape {
          dim {
            dim_value: 116
          }
        }
      }
    }
  }
  input {
    name: "stage3.7.branch2.4.weight"
    type {
      tensor_type {
        elem_type: 1
        shape {
          dim {
            dim_value: 116
          }
        }
      }
    }
  }
  input {
    name: "stage3.7.branch2.5.weight"
    type {
      tensor_type {
        elem_type: 1
        shape {
          dim {
            dim_value: 116
          }
          dim {
            dim_value: 116
          }
          dim {
            dim_value: 1
          }
          dim {
            dim_value: 1
          }
        }
      }
    }
  }
  input {
    name: "stage3.7.branch2.6.bias"
    type {
      tensor_type {
        elem_type: 1
        shape {
          dim {
            dim_value: 116
          }
        }
      }
    }
  }
  input {
    name: "stage3.7.branch2.6.running_mean"
    type {
      tensor_type {
        elem_type: 1
        shape {
          dim {
            dim_value: 116
          }
        }
      }
    }
  }
  input {
    name: "stage3.7.branch2.6.running_var"
    type {
      tensor_type {
        elem_type: 1
        shape {
          dim {
            dim_value: 116
          }
        }
      }
    }
  }
  input {
    name: "stage3.7.branch2.6.weight"
    type {
      tensor_type {
        elem_type: 1
        shape {
          dim {
            dim_value: 116
          }
        }
      }
    }
  }
  input {
    name: "stage4.0.branch1.0.weight"
    type {
      tensor_type {
        elem_type: 1
        shape {
          dim {
            dim_value: 232
          }
          dim {
            dim_value: 1
          }
          dim {
            dim_value: 3
          }
          dim {
            dim_value: 3
          }
        }
      }
    }
  }
  input {
    name: "stage4.0.branch1.1.bias"
    type {
      tensor_type {
        elem_type: 1
        shape {
          dim {
            dim_value: 232
          }
        }
      }
    }
  }
  input {
    name: "stage4.0.branch1.1.running_mean"
    type {
      tensor_type {
        elem_type: 1
        shape {
          dim {
            dim_value: 232
          }
        }
      }
    }
  }
  input {
    name: "stage4.0.branch1.1.running_var"
    type {
      tensor_type {
        elem_type: 1
        shape {
          dim {
            dim_value: 232
          }
        }
      }
    }
  }
  input {
    name: "stage4.0.branch1.1.weight"
    type {
      tensor_type {
        elem_type: 1
        shape {
          dim {
            dim_value: 232
          }
        }
      }
    }
  }
  input {
    name: "stage4.0.branch1.2.weight"
    type {
      tensor_type {
        elem_type: 1
        shape {
          dim {
            dim_value: 232
          }
          dim {
            dim_value: 232
          }
          dim {
            dim_value: 1
          }
          dim {
            dim_value: 1
          }
        }
      }
    }
  }
  input {
    name: "stage4.0.branch1.3.bias"
    type {
      tensor_type {
        elem_type: 1
        shape {
          dim {
            dim_value: 232
          }
        }
      }
    }
  }
  input {
    name: "stage4.0.branch1.3.running_mean"
    type {
      tensor_type {
        elem_type: 1
        shape {
          dim {
            dim_value: 232
          }
        }
      }
    }
  }
  input {
    name: "stage4.0.branch1.3.running_var"
    type {
      tensor_type {
        elem_type: 1
        shape {
          dim {
            dim_value: 232
          }
        }
      }
    }
  }
  input {
    name: "stage4.0.branch1.3.weight"
    type {
      tensor_type {
        elem_type: 1
        shape {
          dim {
            dim_value: 232
          }
        }
      }
    }
  }
  input {
    name: "stage4.0.branch2.0.weight"
    type {
      tensor_type {
        elem_type: 1
        shape {
          dim {
            dim_value: 232
          }
          dim {
            dim_value: 232
          }
          dim {
            dim_value: 1
          }
          dim {
            dim_value: 1
          }
        }
      }
    }
  }
  input {
    name: "stage4.0.branch2.1.bias"
    type {
      tensor_type {
        elem_type: 1
        shape {
          dim {
            dim_value: 232
          }
        }
      }
    }
  }
  input {
    name: "stage4.0.branch2.1.running_mean"
    type {
      tensor_type {
        elem_type: 1
        shape {
          dim {
            dim_value: 232
          }
        }
      }
    }
  }
  input {
    name: "stage4.0.branch2.1.running_var"
    type {
      tensor_type {
        elem_type: 1
        shape {
          dim {
            dim_value: 232
          }
        }
      }
    }
  }
  input {
    name: "stage4.0.branch2.1.weight"
    type {
      tensor_type {
        elem_type: 1
        shape {
          dim {
            dim_value: 232
          }
        }
      }
    }
  }
  input {
    name: "stage4.0.branch2.3.weight"
    type {
      tensor_type {
        elem_type: 1
        shape {
          dim {
            dim_value: 232
          }
          dim {
            dim_value: 1
          }
          dim {
            dim_value: 3
          }
          dim {
            dim_value: 3
          }
        }
      }
    }
  }
  input {
    name: "stage4.0.branch2.4.bias"
    type {
      tensor_type {
        elem_type: 1
        shape {
          dim {
            dim_value: 232
          }
        }
      }
    }
  }
  input {
    name: "stage4.0.branch2.4.running_mean"
    type {
      tensor_type {
        elem_type: 1
        shape {
          dim {
            dim_value: 232
          }
        }
      }
    }
  }
  input {
    name: "stage4.0.branch2.4.running_var"
    type {
      tensor_type {
        elem_type: 1
        shape {
          dim {
            dim_value: 232
          }
        }
      }
    }
  }
  input {
    name: "stage4.0.branch2.4.weight"
    type {
      tensor_type {
        elem_type: 1
        shape {
          dim {
            dim_value: 232
          }
        }
      }
    }
  }
  input {
    name: "stage4.0.branch2.5.weight"
    type {
      tensor_type {
        elem_type: 1
        shape {
          dim {
            dim_value: 232
          }
          dim {
            dim_value: 232
          }
          dim {
            dim_value: 1
          }
          dim {
            dim_value: 1
          }
        }
      }
    }
  }
  input {
    name: "stage4.0.branch2.6.bias"
    type {
      tensor_type {
        elem_type: 1
        shape {
          dim {
            dim_value: 232
          }
        }
      }
    }
  }
  input {
    name: "stage4.0.branch2.6.running_mean"
    type {
      tensor_type {
        elem_type: 1
        shape {
          dim {
            dim_value: 232
          }
        }
      }
    }
  }
  input {
    name: "stage4.0.branch2.6.running_var"
    type {
      tensor_type {
        elem_type: 1
        shape {
          dim {
            dim_value: 232
          }
        }
      }
    }
  }
  input {
    name: "stage4.0.branch2.6.weight"
    type {
      tensor_type {
        elem_type: 1
        shape {
          dim {
            dim_value: 232
          }
        }
      }
    }
  }
  input {
    name: "stage4.1.branch2.0.weight"
    type {
      tensor_type {
        elem_type: 1
        shape {
          dim {
            dim_value: 232
          }
          dim {
            dim_value: 232
          }
          dim {
            dim_value: 1
          }
          dim {
            dim_value: 1
          }
        }
      }
    }
  }
  input {
    name: "stage4.1.branch2.1.bias"
    type {
      tensor_type {
        elem_type: 1
        shape {
          dim {
            dim_value: 232
          }
        }
      }
    }
  }
  input {
    name: "stage4.1.branch2.1.running_mean"
    type {
      tensor_type {
        elem_type: 1
        shape {
          dim {
            dim_value: 232
          }
        }
      }
    }
  }
  input {
    name: "stage4.1.branch2.1.running_var"
    type {
      tensor_type {
        elem_type: 1
        shape {
          dim {
            dim_value: 232
          }
        }
      }
    }
  }
  input {
    name: "stage4.1.branch2.1.weight"
    type {
      tensor_type {
        elem_type: 1
        shape {
          dim {
            dim_value: 232
          }
        }
      }
    }
  }
  input {
    name: "stage4.1.branch2.3.weight"
    type {
      tensor_type {
        elem_type: 1
        shape {
          dim {
            dim_value: 232
          }
          dim {
            dim_value: 1
          }
          dim {
            dim_value: 3
          }
          dim {
            dim_value: 3
          }
        }
      }
    }
  }
  input {
    name: "stage4.1.branch2.4.bias"
    type {
      tensor_type {
        elem_type: 1
        shape {
          dim {
            dim_value: 232
          }
        }
      }
    }
  }
  input {
    name: "stage4.1.branch2.4.running_mean"
    type {
      tensor_type {
        elem_type: 1
        shape {
          dim {
            dim_value: 232
          }
        }
      }
    }
  }
  input {
    name: "stage4.1.branch2.4.running_var"
    type {
      tensor_type {
        elem_type: 1
        shape {
          dim {
            dim_value: 232
          }
        }
      }
    }
  }
  input {
    name: "stage4.1.branch2.4.weight"
    type {
      tensor_type {
        elem_type: 1
        shape {
          dim {
            dim_value: 232
          }
        }
      }
    }
  }
  input {
    name: "stage4.1.branch2.5.weight"
    type {
      tensor_type {
        elem_type: 1
        shape {
          dim {
            dim_value: 232
          }
          dim {
            dim_value: 232
          }
          dim {
            dim_value: 1
          }
          dim {
            dim_value: 1
          }
        }
      }
    }
  }
  input {
    name: "stage4.1.branch2.6.bias"
    type {
      tensor_type {
        elem_type: 1
        shape {
          dim {
            dim_value: 232
          }
        }
      }
    }
  }
  input {
    name: "stage4.1.branch2.6.running_mean"
    type {
      tensor_type {
        elem_type: 1
        shape {
          dim {
            dim_value: 232
          }
        }
      }
    }
  }
  input {
    name: "stage4.1.branch2.6.running_var"
    type {
      tensor_type {
        elem_type: 1
        shape {
          dim {
            dim_value: 232
          }
        }
      }
    }
  }
  input {
    name: "stage4.1.branch2.6.weight"
    type {
      tensor_type {
        elem_type: 1
        shape {
          dim {
            dim_value: 232
          }
        }
      }
    }
  }
  input {
    name: "stage4.2.branch2.0.weight"
    type {
      tensor_type {
        elem_type: 1
        shape {
          dim {
            dim_value: 232
          }
          dim {
            dim_value: 232
          }
          dim {
            dim_value: 1
          }
          dim {
            dim_value: 1
          }
        }
      }
    }
  }
  input {
    name: "stage4.2.branch2.1.bias"
    type {
      tensor_type {
        elem_type: 1
        shape {
          dim {
            dim_value: 232
          }
        }
      }
    }
  }
  input {
    name: "stage4.2.branch2.1.running_mean"
    type {
      tensor_type {
        elem_type: 1
        shape {
          dim {
            dim_value: 232
          }
        }
      }
    }
  }
  input {
    name: "stage4.2.branch2.1.running_var"
    type {
      tensor_type {
        elem_type: 1
        shape {
          dim {
            dim_value: 232
          }
        }
      }
    }
  }
  input {
    name: "stage4.2.branch2.1.weight"
    type {
      tensor_type {
        elem_type: 1
        shape {
          dim {
            dim_value: 232
          }
        }
      }
    }
  }
  input {
    name: "stage4.2.branch2.3.weight"
    type {
      tensor_type {
        elem_type: 1
        shape {
          dim {
            dim_value: 232
          }
          dim {
            dim_value: 1
          }
          dim {
            dim_value: 3
          }
          dim {
            dim_value: 3
          }
        }
      }
    }
  }
  input {
    name: "stage4.2.branch2.4.bias"
    type {
      tensor_type {
        elem_type: 1
        shape {
          dim {
            dim_value: 232
          }
        }
      }
    }
  }
  input {
    name: "stage4.2.branch2.4.running_mean"
    type {
      tensor_type {
        elem_type: 1
        shape {
          dim {
            dim_value: 232
          }
        }
      }
    }
  }
  input {
    name: "stage4.2.branch2.4.running_var"
    type {
      tensor_type {
        elem_type: 1
        shape {
          dim {
            dim_value: 232
          }
        }
      }
    }
  }
  input {
    name: "stage4.2.branch2.4.weight"
    type {
      tensor_type {
        elem_type: 1
        shape {
          dim {
            dim_value: 232
          }
        }
      }
    }
  }
  input {
    name: "stage4.2.branch2.5.weight"
    type {
      tensor_type {
        elem_type: 1
        shape {
          dim {
            dim_value: 232
          }
          dim {
            dim_value: 232
          }
          dim {
            dim_value: 1
          }
          dim {
            dim_value: 1
          }
        }
      }
    }
  }
  input {
    name: "stage4.2.branch2.6.bias"
    type {
      tensor_type {
        elem_type: 1
        shape {
          dim {
            dim_value: 232
          }
        }
      }
    }
  }
  input {
    name: "stage4.2.branch2.6.running_mean"
    type {
      tensor_type {
        elem_type: 1
        shape {
          dim {
            dim_value: 232
          }
        }
      }
    }
  }
  input {
    name: "stage4.2.branch2.6.running_var"
    type {
      tensor_type {
        elem_type: 1
        shape {
          dim {
            dim_value: 232
          }
        }
      }
    }
  }
  input {
    name: "stage4.2.branch2.6.weight"
    type {
      tensor_type {
        elem_type: 1
        shape {
          dim {
            dim_value: 232
          }
        }
      }
    }
  }
  input {
    name: "stage4.3.branch2.0.weight"
    type {
      tensor_type {
        elem_type: 1
        shape {
          dim {
            dim_value: 232
          }
          dim {
            dim_value: 232
          }
          dim {
            dim_value: 1
          }
          dim {
            dim_value: 1
          }
        }
      }
    }
  }
  input {
    name: "stage4.3.branch2.1.bias"
    type {
      tensor_type {
        elem_type: 1
        shape {
          dim {
            dim_value: 232
          }
        }
      }
    }
  }
  input {
    name: "stage4.3.branch2.1.running_mean"
    type {
      tensor_type {
        elem_type: 1
        shape {
          dim {
            dim_value: 232
          }
        }
      }
    }
  }
  input {
    name: "stage4.3.branch2.1.running_var"
    type {
      tensor_type {
        elem_type: 1
        shape {
          dim {
            dim_value: 232
          }
        }
      }
    }
  }
  input {
    name: "stage4.3.branch2.1.weight"
    type {
      tensor_type {
        elem_type: 1
        shape {
          dim {
            dim_value: 232
          }
        }
      }
    }
  }
  input {
    name: "stage4.3.branch2.3.weight"
    type {
      tensor_type {
        elem_type: 1
        shape {
          dim {
            dim_value: 232
          }
          dim {
            dim_value: 1
          }
          dim {
            dim_value: 3
          }
          dim {
            dim_value: 3
          }
        }
      }
    }
  }
  input {
    name: "stage4.3.branch2.4.bias"
    type {
      tensor_type {
        elem_type: 1
        shape {
          dim {
            dim_value: 232
          }
        }
      }
    }
  }
  input {
    name: "stage4.3.branch2.4.running_mean"
    type {
      tensor_type {
        elem_type: 1
        shape {
          dim {
            dim_value: 232
          }
        }
      }
    }
  }
  input {
    name: "stage4.3.branch2.4.running_var"
    type {
      tensor_type {
        elem_type: 1
        shape {
          dim {
            dim_value: 232
          }
        }
      }
    }
  }
  input {
    name: "stage4.3.branch2.4.weight"
    type {
      tensor_type {
        elem_type: 1
        shape {
          dim {
            dim_value: 232
          }
        }
      }
    }
  }
  input {
    name: "stage4.3.branch2.5.weight"
    type {
      tensor_type {
        elem_type: 1
        shape {
          dim {
            dim_value: 232
          }
          dim {
            dim_value: 232
          }
          dim {
            dim_value: 1
          }
          dim {
            dim_value: 1
          }
        }
      }
    }
  }
  input {
    name: "stage4.3.branch2.6.bias"
    type {
      tensor_type {
        elem_type: 1
        shape {
          dim {
            dim_value: 232
          }
        }
      }
    }
  }
  input {
    name: "stage4.3.branch2.6.running_mean"
    type {
      tensor_type {
        elem_type: 1
        shape {
          dim {
            dim_value: 232
          }
        }
      }
    }
  }
  input {
    name: "stage4.3.branch2.6.running_var"
    type {
      tensor_type {
        elem_type: 1
        shape {
          dim {
            dim_value: 232
          }
        }
      }
    }
  }
  input {
    name: "stage4.3.branch2.6.weight"
    type {
      tensor_type {
        elem_type: 1
        shape {
          dim {
            dim_value: 232
          }
        }
      }
    }
  }
  output {
    name: "output"
    type {
      tensor_type {
        elem_type: 1
        shape {
          dim {
            dim_value: 1
          }
          dim {
            dim_value: 1000
          }
        }
      }
    }
  }
  value_info {
    name: "conv1.1.bias"
    type {
      tensor_type {
        elem_type: 1
        shape {
          dim {
            dim_value: 24
          }
        }
      }
    }
  }
  value_info {
    name: "conv1.1.running_mean"
    type {
      tensor_type {
        elem_type: 1
        shape {
          dim {
            dim_value: 24
          }
        }
      }
    }
  }
  value_info {
    name: "conv1.1.running_var"
    type {
      tensor_type {
        elem_type: 1
        shape {
          dim {
            dim_value: 24
          }
        }
      }
    }
  }
  value_info {
    name: "conv1.1.weight"
    type {
      tensor_type {
        elem_type: 1
        shape {
          dim {
            dim_value: 24
          }
        }
      }
    }
  }
  value_info {
    name: "stage2.0.branch1.1.bias"
    type {
      tensor_type {
        elem_type: 1
        shape {
          dim {
            dim_value: 24
          }
        }
      }
    }
  }
  value_info {
    name: "stage2.0.branch1.1.running_mean"
    type {
      tensor_type {
        elem_type: 1
        shape {
          dim {
            dim_value: 24
          }
        }
      }
    }
  }
  value_info {
    name: "stage2.0.branch1.1.running_var"
    type {
      tensor_type {
        elem_type: 1
        shape {
          dim {
            dim_value: 24
          }
        }
      }
    }
  }
  value_info {
    name: "stage2.0.branch1.1.weight"
    type {
      tensor_type {
        elem_type: 1
        shape {
          dim {
            dim_value: 24
          }
        }
      }
    }
  }
  value_info {
    name: "stage2.0.branch1.3.bias"
    type {
      tensor_type {
        elem_type: 1
        shape {
          dim {
            dim_value: 58
          }
        }
      }
    }
  }
  value_info {
    name: "stage2.0.branch1.3.running_mean"
    type {
      tensor_type {
        elem_type: 1
        shape {
          dim {
            dim_value: 58
          }
        }
      }
    }
  }
  value_info {
    name: "stage2.0.branch1.3.running_var"
    type {
      tensor_type {
        elem_type: 1
        shape {
          dim {
            dim_value: 58
          }
        }
      }
    }
  }
  value_info {
    name: "stage2.0.branch1.3.weight"
    type {
      tensor_type {
        elem_type: 1
        shape {
          dim {
            dim_value: 58
          }
        }
      }
    }
  }
  value_info {
    name: "stage2.0.branch2.1.bias"
    type {
      tensor_type {
        elem_type: 1
        shape {
          dim {
            dim_value: 58
          }
        }
      }
    }
  }
  value_info {
    name: "stage2.0.branch2.1.running_mean"
    type {
      tensor_type {
        elem_type: 1
        shape {
          dim {
            dim_value: 58
          }
        }
      }
    }
  }
  value_info {
    name: "stage2.0.branch2.1.running_var"
    type {
      tensor_type {
        elem_type: 1
        shape {
          dim {
            dim_value: 58
          }
        }
      }
    }
  }
  value_info {
    name: "stage2.0.branch2.1.weight"
    type {
      tensor_type {
        elem_type: 1
        shape {
          dim {
            dim_value: 58
          }
        }
      }
    }
  }
  value_info {
    name: "stage2.0.branch2.4.bias"
    type {
      tensor_type {
        elem_type: 1
        shape {
          dim {
            dim_value: 58
          }
        }
      }
    }
  }
  value_info {
    name: "stage2.0.branch2.4.running_mean"
    type {
      tensor_type {
        elem_type: 1
        shape {
          dim {
            dim_value: 58
          }
        }
      }
    }
  }
  value_info {
    name: "stage2.0.branch2.4.running_var"
    type {
      tensor_type {
        elem_type: 1
        shape {
          dim {
            dim_value: 58
          }
        }
      }
    }
  }
  value_info {
    name: "stage2.0.branch2.4.weight"
    type {
      tensor_type {
        elem_type: 1
        shape {
          dim {
            dim_value: 58
          }
        }
      }
    }
  }
  value_info {
    name: "stage2.0.branch2.6.bias"
    type {
      tensor_type {
        elem_type: 1
        shape {
          dim {
            dim_value: 58
          }
        }
      }
    }
  }
  value_info {
    name: "stage2.0.branch2.6.running_mean"
    type {
      tensor_type {
        elem_type: 1
        shape {
          dim {
            dim_value: 58
          }
        }
      }
    }
  }
  value_info {
    name: "stage2.0.branch2.6.running_var"
    type {
      tensor_type {
        elem_type: 1
        shape {
          dim {
            dim_value: 58
          }
        }
      }
    }
  }
  value_info {
    name: "stage2.0.branch2.6.weight"
    type {
      tensor_type {
        elem_type: 1
        shape {
          dim {
            dim_value: 58
          }
        }
      }
    }
  }
  value_info {
    name: "stage2.1.branch2.1.bias"
    type {
      tensor_type {
        elem_type: 1
        shape {
          dim {
            dim_value: 58
          }
        }
      }
    }
  }
  value_info {
    name: "stage2.1.branch2.1.running_mean"
    type {
      tensor_type {
        elem_type: 1
        shape {
          dim {
            dim_value: 58
          }
        }
      }
    }
  }
  value_info {
    name: "stage2.1.branch2.1.running_var"
    type {
      tensor_type {
        elem_type: 1
        shape {
          dim {
            dim_value: 58
          }
        }
      }
    }
  }
  value_info {
    name: "stage2.1.branch2.1.weight"
    type {
      tensor_type {
        elem_type: 1
        shape {
          dim {
            dim_value: 58
          }
        }
      }
    }
  }
  value_info {
    name: "stage2.1.branch2.4.bias"
    type {
      tensor_type {
        elem_type: 1
        shape {
          dim {
            dim_value: 58
          }
        }
      }
    }
  }
  value_info {
    name: "stage2.1.branch2.4.running_mean"
    type {
      tensor_type {
        elem_type: 1
        shape {
          dim {
            dim_value: 58
          }
        }
      }
    }
  }
  value_info {
    name: "stage2.1.branch2.4.running_var"
    type {
      tensor_type {
        elem_type: 1
        shape {
          dim {
            dim_value: 58
          }
        }
      }
    }
  }
  value_info {
    name: "stage2.1.branch2.4.weight"
    type {
      tensor_type {
        elem_type: 1
        shape {
          dim {
            dim_value: 58
          }
        }
      }
    }
  }
  value_info {
    name: "stage2.1.branch2.6.bias"
    type {
      tensor_type {
        elem_type: 1
        shape {
          dim {
            dim_value: 58
          }
        }
      }
    }
  }
  value_info {
    name: "stage2.1.branch2.6.running_mean"
    type {
      tensor_type {
        elem_type: 1
        shape {
          dim {
            dim_value: 58
          }
        }
      }
    }
  }
  value_info {
    name: "stage2.1.branch2.6.running_var"
    type {
      tensor_type {
        elem_type: 1
        shape {
          dim {
            dim_value: 58
          }
        }
      }
    }
  }
  value_info {
    name: "stage2.1.branch2.6.weight"
    type {
      tensor_type {
        elem_type: 1
        shape {
          dim {
            dim_value: 58
          }
        }
      }
    }
  }
  value_info {
    name: "stage2.2.branch2.1.bias"
    type {
      tensor_type {
        elem_type: 1
        shape {
          dim {
            dim_value: 58
          }
        }
      }
    }
  }
  value_info {
    name: "stage2.2.branch2.1.running_mean"
    type {
      tensor_type {
        elem_type: 1
        shape {
          dim {
            dim_value: 58
          }
        }
      }
    }
  }
  value_info {
    name: "stage2.2.branch2.1.running_var"
    type {
      tensor_type {
        elem_type: 1
        shape {
          dim {
            dim_value: 58
          }
        }
      }
    }
  }
  value_info {
    name: "stage2.2.branch2.1.weight"
    type {
      tensor_type {
        elem_type: 1
        shape {
          dim {
            dim_value: 58
          }
        }
      }
    }
  }
  value_info {
    name: "stage2.2.branch2.4.bias"
    type {
      tensor_type {
        elem_type: 1
        shape {
          dim {
            dim_value: 58
          }
        }
      }
    }
  }
  value_info {
    name: "stage2.2.branch2.4.running_mean"
    type {
      tensor_type {
        elem_type: 1
        shape {
          dim {
            dim_value: 58
          }
        }
      }
    }
  }
  value_info {
    name: "stage2.2.branch2.4.running_var"
    type {
      tensor_type {
        elem_type: 1
        shape {
          dim {
            dim_value: 58
          }
        }
      }
    }
  }
  value_info {
    name: "stage2.2.branch2.4.weight"
    type {
      tensor_type {
        elem_type: 1
        shape {
          dim {
            dim_value: 58
          }
        }
      }
    }
  }
  value_info {
    name: "stage2.2.branch2.6.bias"
    type {
      tensor_type {
        elem_type: 1
        shape {
          dim {
            dim_value: 58
          }
        }
      }
    }
  }
  value_info {
    name: "stage2.2.branch2.6.running_mean"
    type {
      tensor_type {
        elem_type: 1
        shape {
          dim {
            dim_value: 58
          }
        }
      }
    }
  }
  value_info {
    name: "stage2.2.branch2.6.running_var"
    type {
      tensor_type {
        elem_type: 1
        shape {
          dim {
            dim_value: 58
          }
        }
      }
    }
  }
  value_info {
    name: "stage2.2.branch2.6.weight"
    type {
      tensor_type {
        elem_type: 1
        shape {
          dim {
            dim_value: 58
          }
        }
      }
    }
  }
  value_info {
    name: "stage2.3.branch2.1.bias"
    type {
      tensor_type {
        elem_type: 1
        shape {
          dim {
            dim_value: 58
          }
        }
      }
    }
  }
  value_info {
    name: "stage2.3.branch2.1.running_mean"
    type {
      tensor_type {
        elem_type: 1
        shape {
          dim {
            dim_value: 58
          }
        }
      }
    }
  }
  value_info {
    name: "stage2.3.branch2.1.running_var"
    type {
      tensor_type {
        elem_type: 1
        shape {
          dim {
            dim_value: 58
          }
        }
      }
    }
  }
  value_info {
    name: "stage2.3.branch2.1.weight"
    type {
      tensor_type {
        elem_type: 1
        shape {
          dim {
            dim_value: 58
          }
        }
      }
    }
  }
  value_info {
    name: "stage2.3.branch2.4.bias"
    type {
      tensor_type {
        elem_type: 1
        shape {
          dim {
            dim_value: 58
          }
        }
      }
    }
  }
  value_info {
    name: "stage2.3.branch2.4.running_mean"
    type {
      tensor_type {
        elem_type: 1
        shape {
          dim {
            dim_value: 58
          }
        }
      }
    }
  }
  value_info {
    name: "stage2.3.branch2.4.running_var"
    type {
      tensor_type {
        elem_type: 1
        shape {
          dim {
            dim_value: 58
          }
        }
      }
    }
  }
  value_info {
    name: "stage2.3.branch2.4.weight"
    type {
      tensor_type {
        elem_type: 1
        shape {
          dim {
            dim_value: 58
          }
        }
      }
    }
  }
  value_info {
    name: "stage2.3.branch2.6.bias"
    type {
      tensor_type {
        elem_type: 1
        shape {
          dim {
            dim_value: 58
          }
        }
      }
    }
  }
  value_info {
    name: "stage2.3.branch2.6.running_mean"
    type {
      tensor_type {
        elem_type: 1
        shape {
          dim {
            dim_value: 58
          }
        }
      }
    }
  }
  value_info {
    name: "stage2.3.branch2.6.running_var"
    type {
      tensor_type {
        elem_type: 1
        shape {
          dim {
            dim_value: 58
          }
        }
      }
    }
  }
  value_info {
    name: "stage2.3.branch2.6.weight"
    type {
      tensor_type {
        elem_type: 1
        shape {
          dim {
            dim_value: 58
          }
        }
      }
    }
  }
}
opset_import {
  domain: ""
  version: 12
}
