ir_version: 6
producer_name: "pytorch"
producer_version: "1.6"
graph {
  node {
    input: "input_ids"
    output: "162"
    name: "Shape_0"
    op_type: "Shape"
  }
  node {
    output: "163"
    name: "Constant_1"
    op_type: "Constant"
    attribute {
      name: "value"
      t {
        data_type: 7
        raw_data: "\000\000\000\000\000\000\000\000"
      }
      type: TENSOR
    }
  }
  node {
    input: "162"
    input: "163"
    output: "164"
    name: "Gather_2"
    op_type: "Gather"
    attribute {
      name: "axis"
      i: 0
      type: INT
    }
  }
  node {
    input: "input_ids"
    output: "165"
    name: "Shape_3"
    op_type: "Shape"
  }
  node {
    output: "166"
    name: "Constant_4"
    op_type: "Constant"
    attribute {
      name: "value"
      t {
        data_type: 7
        raw_data: "\001\000\000\000\000\000\000\000"
      }
      type: TENSOR
    }
  }
  node {
    input: "165"
    input: "166"
    output: "167"
    name: "Gather_5"
    op_type: "Gather"
    attribute {
      name: "axis"
      i: 0
      type: INT
    }
  }
  node {
    input: "167"
    output: "170"
    name: "Unsqueeze_6"
    op_type: "Unsqueeze"
    attribute {
      name: "axes"
      ints: 0
      type: INTS
    }
  }
  node {
    input: "2034"
    input: "170"
    output: "171"
    name: "Concat_7"
    op_type: "Concat"
    attribute {
      name: "axis"
      i: 0
      type: INT
    }
  }
  node {
    input: "input_ids"
    input: "171"
    output: "172"
    name: "Reshape_8"
    op_type: "Reshape"
  }
  node {
    input: "decoder.embed_tokens.weight"
    input: "172"
    output: "173"
    name: "Gather_9"
    op_type: "Gather"
  }
  node {
    input: "164"
    output: "174"
    name: "Unsqueeze_10"
    op_type: "Unsqueeze"
    attribute {
      name: "axes"
      ints: 0
      type: INTS
    }
  }
  node {
    input: "167"
    output: "175"
    name: "Unsqueeze_11"
    op_type: "Unsqueeze"
    attribute {
      name: "axes"
      ints: 0
      type: INTS
    }
  }
  node {
    input: "174"
    input: "175"
    output: "176"
    name: "Concat_12"
    op_type: "Concat"
    attribute {
      name: "axis"
      i: 0
      type: INT
    }
  }
  node {
    input: "176"
    output: "177"
    name: "ConstantOfShape_13"
    op_type: "ConstantOfShape"
    attribute {
      name: "value"
      t {
        dims: 1
        data_type: 1
        raw_data: "\000\000\200?"
      }
      type: TENSOR
    }
  }
  node {
    input: "177"
    output: "178"
    name: "Cast_14"
    op_type: "Cast"
    attribute {
      name: "to"
      i: 1
      type: INT
    }
  }
  node {
    input: "encoder_hidden_states"
    output: "179"
    name: "Shape_15"
    op_type: "Shape"
  }
  node {
    output: "180"
    name: "Constant_16"
    op_type: "Constant"
    attribute {
      name: "value"
      t {
        data_type: 7
        raw_data: "\001\000\000\000\000\000\000\000"
      }
      type: TENSOR
    }
  }
  node {
    input: "179"
    input: "180"
    output: "181"
    name: "Gather_17"
    op_type: "Gather"
    attribute {
      name: "axis"
      i: 0
      type: INT
    }
  }
  node {
    input: "164"
    output: "182"
    name: "Unsqueeze_18"
    op_type: "Unsqueeze"
    attribute {
      name: "axes"
      ints: 0
      type: INTS
    }
  }
  node {
    input: "181"
    output: "183"
    name: "Unsqueeze_19"
    op_type: "Unsqueeze"
    attribute {
      name: "axes"
      ints: 0
      type: INTS
    }
  }
  node {
    input: "182"
    input: "183"
    output: "184"
    name: "Concat_20"
    op_type: "Concat"
    attribute {
      name: "axis"
      i: 0
      type: INT
    }
  }
  node {
    input: "184"
    output: "185"
    name: "ConstantOfShape_21"
    op_type: "ConstantOfShape"
    attribute {
      name: "value"
      t {
        dims: 1
        data_type: 7
        raw_data: "\001\000\000\000\000\000\000\000"
      }
      type: TENSOR
    }
  }
  node {
    input: "167"
    output: "186"
    name: "Cast_22"
    op_type: "Cast"
    attribute {
      name: "to"
      i: 7
      type: INT
    }
  }
  node {
    output: "187"
    name: "Constant_23"
    op_type: "Constant"
    attribute {
      name: "value"
      t {
        data_type: 7
        raw_data: "\000\000\000\000\000\000\000\000"
      }
      type: TENSOR
    }
  }
  node {
    output: "188"
    name: "Constant_24"
    op_type: "Constant"
    attribute {
      name: "value"
      t {
        data_type: 7
        raw_data: "\001\000\000\000\000\000\000\000"
      }
      type: TENSOR
    }
  }
  node {
    input: "187"
    input: "186"
    input: "188"
    output: "189"
    name: "Range_25"
    op_type: "Range"
  }
  node {
    input: "189"
    output: "190"
    name: "Unsqueeze_26"
    op_type: "Unsqueeze"
    attribute {
      name: "axes"
      ints: 0
      type: INTS
    }
  }
  node {
    input: "190"
    output: "191"
    name: "Unsqueeze_27"
    op_type: "Unsqueeze"
    attribute {
      name: "axes"
      ints: 1
      type: INTS
    }
  }
  node {
    input: "164"
    output: "193"
    name: "Unsqueeze_28"
    op_type: "Unsqueeze"
    attribute {
      name: "axes"
      ints: 0
      type: INTS
    }
  }
  node {
    input: "167"
    output: "194"
    name: "Unsqueeze_29"
    op_type: "Unsqueeze"
    attribute {
      name: "axes"
      ints: 0
      type: INTS
    }
  }
  node {
    input: "193"
    input: "194"
    input: "2035"
    output: "196"
    name: "Concat_30"
    op_type: "Concat"
    attribute {
      name: "axis"
      i: 0
      type: INT
    }
  }
  node {
    input: "191"
    input: "196"
    output: "197"
    name: "Tile_31"
    op_type: "Tile"
  }
  node {
    input: "189"
    output: "198"
    name: "Unsqueeze_32"
    op_type: "Unsqueeze"
    attribute {
      name: "axes"
      ints: 0
      type: INTS
    }
  }
  node {
    input: "198"
    output: "199"
    name: "Unsqueeze_33"
    op_type: "Unsqueeze"
    attribute {
      name: "axes"
      ints: 2
      type: INTS
    }
  }
  node {
    input: "197"
    input: "199"
    output: "200"
    name: "LessOrEqual_34"
    op_type: "LessOrEqual"
  }
  node {
    input: "200"
    output: "201"
    name: "Cast_35"
    op_type: "Cast"
    attribute {
      name: "to"
      i: 1
      type: INT
    }
  }
  node {
    input: "201"
    output: "202"
    name: "Unsqueeze_36"
    op_type: "Unsqueeze"
    attribute {
      name: "axes"
      ints: 1
      type: INTS
    }
  }
  node {
    input: "178"
    output: "203"
    name: "Unsqueeze_37"
    op_type: "Unsqueeze"
    attribute {
      name: "axes"
      ints: 1
      type: INTS
    }
  }
  node {
    input: "203"
    output: "204"
    name: "Unsqueeze_38"
    op_type: "Unsqueeze"
    attribute {
      name: "axes"
      ints: 2
      type: INTS
    }
  }
  node {
    input: "202"
    input: "204"
    output: "205"
    name: "Mul_39"
    op_type: "Mul"
  }
  node {
    input: "205"
    output: "206"
    name: "Cast_40"
    op_type: "Cast"
    attribute {
      name: "to"
      i: 1
      type: INT
    }
  }
  node {
    output: "207"
    name: "Constant_41"
    op_type: "Constant"
    attribute {
      name: "value"
      t {
        data_type: 1
        raw_data: "\000\000\200?"
      }
      type: TENSOR
    }
  }
  node {
    input: "207"
    input: "206"
    output: "208"
    name: "Sub_42"
    op_type: "Sub"
  }
  node {
    output: "209"
    name: "Constant_43"
    op_type: "Constant"
    attribute {
      name: "value"
      t {
        data_type: 1
        raw_data: "\000@\034\306"
      }
      type: TENSOR
    }
  }
  node {
    input: "208"
    input: "209"
    output: "210"
    name: "Mul_44"
    op_type: "Mul"
  }
  node {
    input: "185"
    output: "211"
    name: "Unsqueeze_45"
    op_type: "Unsqueeze"
    attribute {
      name: "axes"
      ints: 1
      type: INTS
    }
  }
  node {
    input: "211"
    output: "212"
    name: "Unsqueeze_46"
    op_type: "Unsqueeze"
    attribute {
      name: "axes"
      ints: 2
      type: INTS
    }
  }
  node {
    input: "212"
    output: "213"
    name: "Cast_47"
    op_type: "Cast"
    attribute {
      name: "to"
      i: 1
      type: INT
    }
  }
  node {
    output: "214"
    name: "Constant_48"
    op_type: "Constant"
    attribute {
      name: "value"
      t {
        data_type: 1
        raw_data: "\000\000\200?"
      }
      type: TENSOR
    }
  }
  node {
    input: "214"
    input: "213"
    output: "215"
    name: "Sub_49"
    op_type: "Sub"
  }
  node {
    output: "216"
    name: "Constant_50"
    op_type: "Constant"
    attribute {
      name: "value"
      t {
        data_type: 1
        raw_data: "(kn\316"
      }
      type: TENSOR
    }
  }
  node {
    input: "215"
    input: "216"
    output: "217"
    name: "Mul_51"
    op_type: "Mul"
  }
  node {
    input: "173"
    output: "218"
    name: "Cast_52"
    op_type: "Cast"
    attribute {
      name: "to"
      i: 1
      type: INT
    }
  }
  node {
    output: "219"
    name: "Constant_53"
    op_type: "Constant"
    attribute {
      name: "value"
      t {
        data_type: 1
        raw_data: "\000\000\000@"
      }
      type: TENSOR
    }
  }
  node {
    input: "218"
    input: "219"
    output: "220"
    name: "Pow_54"
    op_type: "Pow"
  }
  node {
    input: "220"
    output: "221"
    name: "ReduceMean_55"
    op_type: "ReduceMean"
    attribute {
      name: "axes"
      ints: -1
      type: INTS
    }
    attribute {
      name: "keepdims"
      i: 1
      type: INT
    }
  }
  node {
    output: "222"
    name: "Constant_56"
    op_type: "Constant"
    attribute {
      name: "value"
      t {
        data_type: 1
        raw_data: "\2757\2065"
      }
      type: TENSOR
    }
  }
  node {
    input: "221"
    input: "222"
    output: "223"
    name: "Add_57"
    op_type: "Add"
  }
  node {
    input: "223"
    output: "224"
    name: "Sqrt_58"
    op_type: "Sqrt"
  }
  node {
    input: "218"
    input: "224"
    output: "225"
    name: "Div_59"
    op_type: "Div"
  }
  node {
    input: "decoder.block.0.layer.0.layer_norm.weight"
    input: "225"
    output: "226"
    name: "Mul_60"
    op_type: "Mul"
  }
  node {
    input: "226"
    output: "227"
    name: "Shape_61"
    op_type: "Shape"
  }
  node {
    output: "228"
    name: "Constant_62"
    op_type: "Constant"
    attribute {
      name: "value"
      t {
        data_type: 7
        raw_data: "\000\000\000\000\000\000\000\000"
      }
      type: TENSOR
    }
  }
  node {
    input: "227"
    input: "228"
    output: "229"
    name: "Gather_63"
    op_type: "Gather"
    attribute {
      name: "axis"
      i: 0
      type: INT
    }
  }
  node {
    input: "226"
    output: "230"
    name: "Shape_64"
    op_type: "Shape"
  }
  node {
    output: "231"
    name: "Constant_65"
    op_type: "Constant"
    attribute {
      name: "value"
      t {
        data_type: 7
        raw_data: "\001\000\000\000\000\000\000\000"
      }
      type: TENSOR
    }
  }
  node {
    input: "230"
    input: "231"
    output: "232"
    name: "Gather_66"
    op_type: "Gather"
    attribute {
      name: "axis"
      i: 0
      type: INT
    }
  }
  node {
    input: "226"
    input: "2036"
    output: "234"
    name: "MatMul_67"
    op_type: "MatMul"
  }
  node {
    input: "229"
    output: "238"
    name: "Unsqueeze_68"
    op_type: "Unsqueeze"
    attribute {
      name: "axes"
      ints: 0
      type: INTS
    }
  }
  node {
    input: "238"
    input: "2037"
    input: "2038"
    input: "2039"
    output: "242"
    name: "Concat_69"
    op_type: "Concat"
    attribute {
      name: "axis"
      i: 0
      type: INT
    }
  }
  node {
    input: "234"
    input: "242"
    output: "243"
    name: "Reshape_70"
    op_type: "Reshape"
  }
  node {
    input: "243"
    output: "244"
    name: "Transpose_71"
    op_type: "Transpose"
    attribute {
      name: "perm"
      ints: 0
      ints: 2
      ints: 1
      ints: 3
      type: INTS
    }
  }
  node {
    input: "226"
    input: "2040"
    output: "246"
    name: "MatMul_72"
    op_type: "MatMul"
  }
  node {
    input: "229"
    output: "250"
    name: "Unsqueeze_73"
    op_type: "Unsqueeze"
    attribute {
      name: "axes"
      ints: 0
      type: INTS
    }
  }
  node {
    input: "250"
    input: "2041"
    input: "2042"
    input: "2043"
    output: "254"
    name: "Concat_74"
    op_type: "Concat"
    attribute {
      name: "axis"
      i: 0
      type: INT
    }
  }
  node {
    input: "246"
    input: "254"
    output: "255"
    name: "Reshape_75"
    op_type: "Reshape"
  }
  node {
    input: "226"
    input: "2044"
    output: "257"
    name: "MatMul_76"
    op_type: "MatMul"
  }
  node {
    input: "229"
    output: "261"
    name: "Unsqueeze_77"
    op_type: "Unsqueeze"
    attribute {
      name: "axes"
      ints: 0
      type: INTS
    }
  }
  node {
    input: "261"
    input: "2045"
    input: "2046"
    input: "2047"
    output: "265"
    name: "Concat_78"
    op_type: "Concat"
    attribute {
      name: "axis"
      i: 0
      type: INT
    }
  }
  node {
    input: "257"
    input: "265"
    output: "266"
    name: "Reshape_79"
    op_type: "Reshape"
  }
  node {
    input: "266"
    output: "267"
    name: "Transpose_80"
    op_type: "Transpose"
    attribute {
      name: "perm"
      ints: 0
      ints: 2
      ints: 1
      ints: 3
      type: INTS
    }
  }
  node {
    input: "255"
    output: "268"
    name: "Transpose_81"
    op_type: "Transpose"
    attribute {
      name: "perm"
      ints: 0
      ints: 2
      ints: 3
      ints: 1
      type: INTS
    }
  }
  node {
    input: "244"
    input: "268"
    output: "269"
    name: "MatMul_82"
    op_type: "MatMul"
  }
  node {
    input: "232"
    output: "270"
    name: "Cast_83"
    op_type: "Cast"
    attribute {
      name: "to"
      i: 7
      type: INT
    }
  }
  node {
    output: "271"
    name: "Constant_84"
    op_type: "Constant"
    attribute {
      name: "value"
      t {
        data_type: 7
        raw_data: "\000\000\000\000\000\000\000\000"
      }
      type: TENSOR
    }
  }
  node {
    output: "272"
    name: "Constant_85"
    op_type: "Constant"
    attribute {
      name: "value"
      t {
        data_type: 7
        raw_data: "\001\000\000\000\000\000\000\000"
      }
      type: TENSOR
    }
  }
  node {
    input: "271"
    input: "270"
    input: "272"
    output: "273"
    name: "Range_86"
    op_type: "Range"
  }
  node {
    input: "273"
    output: "274"
    name: "Unsqueeze_87"
    op_type: "Unsqueeze"
    attribute {
      name: "axes"
      ints: 1
      type: INTS
    }
  }
  node {
    input: "232"
    output: "275"
    name: "Cast_88"
    op_type: "Cast"
    attribute {
      name: "to"
      i: 7
      type: INT
    }
  }
  node {
    output: "276"
    name: "Constant_89"
    op_type: "Constant"
    attribute {
      name: "value"
      t {
        data_type: 7
        raw_data: "\000\000\000\000\000\000\000\000"
      }
      type: TENSOR
    }
  }
  node {
    output: "277"
    name: "Constant_90"
    op_type: "Constant"
    attribute {
      name: "value"
      t {
        data_type: 7
        raw_data: "\001\000\000\000\000\000\000\000"
      }
      type: TENSOR
    }
  }
  node {
    input: "276"
    input: "275"
    input: "277"
    output: "278"
    name: "Range_91"
    op_type: "Range"
  }
  node {
    input: "278"
    output: "279"
    name: "Unsqueeze_92"
    op_type: "Unsqueeze"
    attribute {
      name: "axes"
      ints: 0
      type: INTS
    }
  }
  node {
    input: "279"
    input: "274"
    output: "280"
    name: "Sub_93"
    op_type: "Sub"
  }
  node {
    input: "280"
    output: "281"
    name: "Neg_94"
    op_type: "Neg"
  }
  node {
    input: "281"
    output: "282"
    name: "Shape_95"
    op_type: "Shape"
  }
  node {
    input: "282"
    output: "283"
    name: "ConstantOfShape_96"
    op_type: "ConstantOfShape"
    attribute {
      name: "value"
      t {
        dims: 1
        data_type: 7
        raw_data: "\000\000\000\000\000\000\000\000"
      }
      type: TENSOR
    }
  }
  node {
    input: "281"
    input: "283"
    output: "284"
    name: "Max_97"
    op_type: "Max"
  }
  node {
    output: "285"
    name: "Constant_98"
    op_type: "Constant"
    attribute {
      name: "value"
      t {
        data_type: 7
        raw_data: "\020\000\000\000\000\000\000\000"
      }
      type: TENSOR
    }
  }
  node {
    input: "284"
    input: "285"
    output: "286"
    name: "Less_99"
    op_type: "Less"
  }
  node {
    input: "284"
    output: "287"
    name: "Cast_100"
    op_type: "Cast"
    attribute {
      name: "to"
      i: 1
      type: INT
    }
  }
  node {
    output: "288"
    name: "Constant_101"
    op_type: "Constant"
    attribute {
      name: "value"
      t {
        data_type: 1
        raw_data: "\000\000\200A"
      }
      type: TENSOR
    }
  }
  node {
    input: "287"
    input: "288"
    output: "289"
    name: "Div_102"
    op_type: "Div"
  }
  node {
    input: "289"
    output: "290"
    name: "Log_103"
    op_type: "Log"
  }
  node {
    output: "291"
    name: "Constant_104"
    op_type: "Constant"
    attribute {
      name: "value"
      t {
        data_type: 1
        raw_data: "\222\025\005@"
      }
      type: TENSOR
    }
  }
  node {
    input: "290"
    input: "291"
    output: "292"
    name: "Div_105"
    op_type: "Div"
  }
  node {
    output: "293"
    name: "Constant_106"
    op_type: "Constant"
    attribute {
      name: "value"
      t {
        data_type: 1
        raw_data: "\000\000\200A"
      }
      type: TENSOR
    }
  }
  node {
    input: "292"
    input: "293"
    output: "294"
    name: "Mul_107"
    op_type: "Mul"
  }
  node {
    input: "294"
    output: "295"
    name: "Cast_108"
    op_type: "Cast"
    attribute {
      name: "to"
      i: 7
      type: INT
    }
  }
  node {
    output: "296"
    name: "Constant_109"
    op_type: "Constant"
    attribute {
      name: "value"
      t {
        data_type: 7
        raw_data: "\020\000\000\000\000\000\000\000"
      }
      type: TENSOR
    }
  }
  node {
    input: "295"
    input: "296"
    output: "297"
    name: "Add_110"
    op_type: "Add"
  }
  node {
    input: "297"
    output: "298"
    name: "Shape_111"
    op_type: "Shape"
  }
  node {
    input: "298"
    output: "299"
    name: "ConstantOfShape_112"
    op_type: "ConstantOfShape"
    attribute {
      name: "value"
      t {
        dims: 1
        data_type: 7
        raw_data: "\037\000\000\000\000\000\000\000"
      }
      type: TENSOR
    }
  }
  node {
    input: "297"
    input: "299"
    output: "300"
    name: "Min_113"
    op_type: "Min"
  }
  node {
    input: "286"
    input: "284"
    input: "300"
    output: "301"
    name: "Where_114"
    op_type: "Where"
  }
  node {
    output: "302"
    name: "Constant_115"
    op_type: "Constant"
    attribute {
      name: "value"
      t {
        data_type: 7
        raw_data: "\000\000\000\000\000\000\000\000"
      }
      type: TENSOR
    }
  }
  node {
    input: "301"
    input: "302"
    output: "303"
    name: "Add_116"
    op_type: "Add"
  }
  node {
    input: "303"
    output: "304"
    name: "Cast_117"
    op_type: "Cast"
    attribute {
      name: "to"
      i: 7
      type: INT
    }
  }
  node {
    input: "decoder.block.0.layer.0.SelfAttention.relative_attention_bias.weight"
    input: "304"
    output: "305"
    name: "Gather_118"
    op_type: "Gather"
  }
  node {
    input: "305"
    output: "306"
    name: "Transpose_119"
    op_type: "Transpose"
    attribute {
      name: "perm"
      ints: 2
      ints: 0
      ints: 1
      type: INTS
    }
  }
  node {
    input: "306"
    output: "307"
    name: "Unsqueeze_120"
    op_type: "Unsqueeze"
    attribute {
      name: "axes"
      ints: 0
      type: INTS
    }
  }
  node {
    input: "307"
    input: "210"
    output: "308"
    name: "Add_121"
    op_type: "Add"
  }
  node {
    input: "269"
    input: "308"
    output: "309"
    name: "Add_122"
    op_type: "Add"
  }
  node {
    input: "309"
    output: "310"
    name: "Cast_123"
    op_type: "Cast"
    attribute {
      name: "to"
      i: 1
      type: INT
    }
  }
  node {
    input: "310"
    output: "311"
    name: "Softmax_124"
    op_type: "Softmax"
    attribute {
      name: "axis"
      i: 3
      type: INT
    }
  }
  node {
    input: "311"
    input: "267"
    output: "312"
    name: "MatMul_125"
    op_type: "MatMul"
  }
  node {
    input: "312"
    output: "313"
    name: "Transpose_126"
    op_type: "Transpose"
    attribute {
      name: "perm"
      ints: 0
      ints: 2
      ints: 1
      ints: 3
      type: INTS
    }
  }
  node {
    input: "229"
    output: "316"
    name: "Unsqueeze_127"
    op_type: "Unsqueeze"
    attribute {
      name: "axes"
      ints: 0
      type: INTS
    }
  }
  node {
    input: "316"
    input: "2048"
    input: "2049"
    output: "319"
    name: "Concat_128"
    op_type: "Concat"
    attribute {
      name: "axis"
      i: 0
      type: INT
    }
  }
  node {
    input: "313"
    input: "319"
    output: "320"
    name: "Reshape_129"
    op_type: "Reshape"
  }
  node {
    input: "320"
    input: "2050"
    output: "322"
    name: "MatMul_130"
    op_type: "MatMul"
  }
  node {
    input: "218"
    input: "322"
    output: "323"
    name: "Add_131"
    op_type: "Add"
  }
  node {
    input: "323"
    output: "324"
    name: "Cast_132"
    op_type: "Cast"
    attribute {
      name: "to"
      i: 1
      type: INT
    }
  }
  node {
    output: "325"
    name: "Constant_133"
    op_type: "Constant"
    attribute {
      name: "value"
      t {
        data_type: 1
        raw_data: "\000\000\000@"
      }
      type: TENSOR
    }
  }
  node {
    input: "324"
    input: "325"
    output: "326"
    name: "Pow_134"
    op_type: "Pow"
  }
  node {
    input: "326"
    output: "327"
    name: "ReduceMean_135"
    op_type: "ReduceMean"
    attribute {
      name: "axes"
      ints: -1
      type: INTS
    }
    attribute {
      name: "keepdims"
      i: 1
      type: INT
    }
  }
  node {
    output: "328"
    name: "Constant_136"
    op_type: "Constant"
    attribute {
      name: "value"
      t {
        data_type: 1
        raw_data: "\2757\2065"
      }
      type: TENSOR
    }
  }
  node {
    input: "327"
    input: "328"
    output: "329"
    name: "Add_137"
    op_type: "Add"
  }
  node {
    input: "329"
    output: "330"
    name: "Sqrt_138"
    op_type: "Sqrt"
  }
  node {
    input: "324"
    input: "330"
    output: "331"
    name: "Div_139"
    op_type: "Div"
  }
  node {
    input: "decoder.block.0.layer.1.layer_norm.weight"
    input: "331"
    output: "332"
    name: "Mul_140"
    op_type: "Mul"
  }
  node {
    input: "332"
    output: "333"
    name: "Shape_141"
    op_type: "Shape"
  }
  node {
    output: "334"
    name: "Constant_142"
    op_type: "Constant"
    attribute {
      name: "value"
      t {
        data_type: 7
        raw_data: "\000\000\000\000\000\000\000\000"
      }
      type: TENSOR
    }
  }
  node {
    input: "333"
    input: "334"
    output: "335"
    name: "Gather_143"
    op_type: "Gather"
    attribute {
      name: "axis"
      i: 0
      type: INT
    }
  }
  node {
    input: "332"
    output: "336"
    name: "Shape_144"
    op_type: "Shape"
  }
  node {
    output: "337"
    name: "Constant_145"
    op_type: "Constant"
    attribute {
      name: "value"
      t {
        data_type: 7
        raw_data: "\001\000\000\000\000\000\000\000"
      }
      type: TENSOR
    }
  }
  node {
    input: "336"
    input: "337"
    output: "338"
    name: "Gather_146"
    op_type: "Gather"
    attribute {
      name: "axis"
      i: 0
      type: INT
    }
  }
  node {
    input: "encoder_hidden_states"
    output: "339"
    name: "Shape_147"
    op_type: "Shape"
  }
  node {
    output: "340"
    name: "Constant_148"
    op_type: "Constant"
    attribute {
      name: "value"
      t {
        data_type: 7
        raw_data: "\001\000\000\000\000\000\000\000"
      }
      type: TENSOR
    }
  }
  node {
    input: "339"
    input: "340"
    output: "341"
    name: "Gather_149"
    op_type: "Gather"
    attribute {
      name: "axis"
      i: 0
      type: INT
    }
  }
  node {
    input: "332"
    input: "2051"
    output: "343"
    name: "MatMul_150"
    op_type: "MatMul"
  }
  node {
    input: "335"
    output: "347"
    name: "Unsqueeze_151"
    op_type: "Unsqueeze"
    attribute {
      name: "axes"
      ints: 0
      type: INTS
    }
  }
  node {
    input: "347"
    input: "2052"
    input: "2053"
    input: "2054"
    output: "351"
    name: "Concat_152"
    op_type: "Concat"
    attribute {
      name: "axis"
      i: 0
      type: INT
    }
  }
  node {
    input: "343"
    input: "351"
    output: "352"
    name: "Reshape_153"
    op_type: "Reshape"
  }
  node {
    input: "352"
    output: "353"
    name: "Transpose_154"
    op_type: "Transpose"
    attribute {
      name: "perm"
      ints: 0
      ints: 2
      ints: 1
      ints: 3
      type: INTS
    }
  }
  node {
    input: "encoder_hidden_states"
    input: "2055"
    output: "355"
    name: "MatMul_155"
    op_type: "MatMul"
  }
  node {
    input: "335"
    output: "359"
    name: "Unsqueeze_156"
    op_type: "Unsqueeze"
    attribute {
      name: "axes"
      ints: 0
      type: INTS
    }
  }
  node {
    input: "359"
    input: "2056"
    input: "2057"
    input: "2058"
    output: "363"
    name: "Concat_157"
    op_type: "Concat"
    attribute {
      name: "axis"
      i: 0
      type: INT
    }
  }
  node {
    input: "355"
    input: "363"
    output: "364"
    name: "Reshape_158"
    op_type: "Reshape"
  }
  node {
    input: "encoder_hidden_states"
    input: "2059"
    output: "366"
    name: "MatMul_159"
    op_type: "MatMul"
  }
  node {
    input: "335"
    output: "370"
    name: "Unsqueeze_160"
    op_type: "Unsqueeze"
    attribute {
      name: "axes"
      ints: 0
      type: INTS
    }
  }
  node {
    input: "370"
    input: "2060"
    input: "2061"
    input: "2062"
    output: "374"
    name: "Concat_161"
    op_type: "Concat"
    attribute {
      name: "axis"
      i: 0
      type: INT
    }
  }
  node {
    input: "366"
    input: "374"
    output: "375"
    name: "Reshape_162"
    op_type: "Reshape"
  }
  node {
    input: "375"
    output: "376"
    name: "Transpose_163"
    op_type: "Transpose"
    attribute {
      name: "perm"
      ints: 0
      ints: 2
      ints: 1
      ints: 3
      type: INTS
    }
  }
  node {
    input: "364"
    output: "377"
    name: "Transpose_164"
    op_type: "Transpose"
    attribute {
      name: "perm"
      ints: 0
      ints: 2
      ints: 3
      ints: 1
      type: INTS
    }
  }
  node {
    input: "353"
    input: "377"
    output: "378"
    name: "MatMul_165"
    op_type: "MatMul"
  }
  node {
    input: "338"
    output: "379"
    name: "Cast_166"
    op_type: "Cast"
    attribute {
      name: "to"
      i: 7
      type: INT
    }
  }
  node {
    output: "380"
    name: "Constant_167"
    op_type: "Constant"
    attribute {
      name: "value"
      t {
        data_type: 7
        raw_data: "\000\000\000\000\000\000\000\000"
      }
      type: TENSOR
    }
  }
  node {
    output: "381"
    name: "Constant_168"
    op_type: "Constant"
    attribute {
      name: "value"
      t {
        data_type: 7
        raw_data: "\001\000\000\000\000\000\000\000"
      }
      type: TENSOR
    }
  }
  node {
    input: "380"
    input: "379"
    input: "381"
    output: "382"
    name: "Range_169"
    op_type: "Range"
  }
  node {
    input: "382"
    output: "383"
    name: "Unsqueeze_170"
    op_type: "Unsqueeze"
    attribute {
      name: "axes"
      ints: 1
      type: INTS
    }
  }
  node {
    input: "341"
    output: "384"
    name: "Cast_171"
    op_type: "Cast"
    attribute {
      name: "to"
      i: 7
      type: INT
    }
  }
  node {
    output: "385"
    name: "Constant_172"
    op_type: "Constant"
    attribute {
      name: "value"
      t {
        data_type: 7
        raw_data: "\000\000\000\000\000\000\000\000"
      }
      type: TENSOR
    }
  }
  node {
    output: "386"
    name: "Constant_173"
    op_type: "Constant"
    attribute {
      name: "value"
      t {
        data_type: 7
        raw_data: "\001\000\000\000\000\000\000\000"
      }
      type: TENSOR
    }
  }
  node {
    input: "385"
    input: "384"
    input: "386"
    output: "387"
    name: "Range_174"
    op_type: "Range"
  }
  node {
    input: "387"
    output: "388"
    name: "Unsqueeze_175"
    op_type: "Unsqueeze"
    attribute {
      name: "axes"
      ints: 0
      type: INTS
    }
  }
  node {
    input: "388"
    input: "383"
    output: "389"
    name: "Sub_176"
    op_type: "Sub"
  }
  node {
    input: "389"
    output: "390"
    name: "Neg_177"
    op_type: "Neg"
  }
  node {
    input: "390"
    output: "391"
    name: "Shape_178"
    op_type: "Shape"
  }
  node {
    input: "391"
    output: "392"
    name: "ConstantOfShape_179"
    op_type: "ConstantOfShape"
    attribute {
      name: "value"
      t {
        dims: 1
        data_type: 7
        raw_data: "\000\000\000\000\000\000\000\000"
      }
      type: TENSOR
    }
  }
  node {
    input: "390"
    input: "392"
    output: "393"
    name: "Max_180"
    op_type: "Max"
  }
  node {
    output: "394"
    name: "Constant_181"
    op_type: "Constant"
    attribute {
      name: "value"
      t {
        data_type: 7
        raw_data: "\020\000\000\000\000\000\000\000"
      }
      type: TENSOR
    }
  }
  node {
    input: "393"
    input: "394"
    output: "395"
    name: "Less_182"
    op_type: "Less"
  }
  node {
    input: "393"
    output: "396"
    name: "Cast_183"
    op_type: "Cast"
    attribute {
      name: "to"
      i: 1
      type: INT
    }
  }
  node {
    output: "397"
    name: "Constant_184"
    op_type: "Constant"
    attribute {
      name: "value"
      t {
        data_type: 1
        raw_data: "\000\000\200A"
      }
      type: TENSOR
    }
  }
  node {
    input: "396"
    input: "397"
    output: "398"
    name: "Div_185"
    op_type: "Div"
  }
  node {
    input: "398"
    output: "399"
    name: "Log_186"
    op_type: "Log"
  }
  node {
    output: "400"
    name: "Constant_187"
    op_type: "Constant"
    attribute {
      name: "value"
      t {
        data_type: 1
        raw_data: "\222\025\005@"
      }
      type: TENSOR
    }
  }
  node {
    input: "399"
    input: "400"
    output: "401"
    name: "Div_188"
    op_type: "Div"
  }
  node {
    output: "402"
    name: "Constant_189"
    op_type: "Constant"
    attribute {
      name: "value"
      t {
        data_type: 1
        raw_data: "\000\000\200A"
      }
      type: TENSOR
    }
  }
  node {
    input: "401"
    input: "402"
    output: "403"
    name: "Mul_190"
    op_type: "Mul"
  }
  node {
    input: "403"
    output: "404"
    name: "Cast_191"
    op_type: "Cast"
    attribute {
      name: "to"
      i: 7
      type: INT
    }
  }
  node {
    output: "405"
    name: "Constant_192"
    op_type: "Constant"
    attribute {
      name: "value"
      t {
        data_type: 7
        raw_data: "\020\000\000\000\000\000\000\000"
      }
      type: TENSOR
    }
  }
  node {
    input: "404"
    input: "405"
    output: "406"
    name: "Add_193"
    op_type: "Add"
  }
  node {
    input: "406"
    output: "407"
    name: "Shape_194"
    op_type: "Shape"
  }
  node {
    input: "407"
    output: "408"
    name: "ConstantOfShape_195"
    op_type: "ConstantOfShape"
    attribute {
      name: "value"
      t {
        dims: 1
        data_type: 7
        raw_data: "\037\000\000\000\000\000\000\000"
      }
      type: TENSOR
    }
  }
  node {
    input: "406"
    input: "408"
    output: "409"
    name: "Min_196"
    op_type: "Min"
  }
  node {
    input: "395"
    input: "393"
    input: "409"
    output: "410"
    name: "Where_197"
    op_type: "Where"
  }
  node {
    output: "411"
    name: "Constant_198"
    op_type: "Constant"
    attribute {
      name: "value"
      t {
        data_type: 7
        raw_data: "\000\000\000\000\000\000\000\000"
      }
      type: TENSOR
    }
  }
  node {
    input: "410"
    input: "411"
    output: "412"
    name: "Add_199"
    op_type: "Add"
  }
  node {
    input: "412"
    output: "413"
    name: "Cast_200"
    op_type: "Cast"
    attribute {
      name: "to"
      i: 7
      type: INT
    }
  }
  node {
    input: "decoder.block.0.layer.1.EncDecAttention.relative_attention_bias.weight"
    input: "413"
    output: "414"
    name: "Gather_201"
    op_type: "Gather"
  }
  node {
    input: "414"
    output: "415"
    name: "Transpose_202"
    op_type: "Transpose"
    attribute {
      name: "perm"
      ints: 2
      ints: 0
      ints: 1
      type: INTS
    }
  }
  node {
    input: "415"
    output: "416"
    name: "Unsqueeze_203"
    op_type: "Unsqueeze"
    attribute {
      name: "axes"
      ints: 0
      type: INTS
    }
  }
  node {
    input: "416"
    input: "217"
    output: "417"
    name: "Add_204"
    op_type: "Add"
  }
  node {
    input: "378"
    input: "417"
    output: "418"
    name: "Add_205"
    op_type: "Add"
  }
  node {
    input: "418"
    output: "419"
    name: "Cast_206"
    op_type: "Cast"
    attribute {
      name: "to"
      i: 1
      type: INT
    }
  }
  node {
    input: "419"
    output: "420"
    name: "Softmax_207"
    op_type: "Softmax"
    attribute {
      name: "axis"
      i: 3
      type: INT
    }
  }
  node {
    input: "420"
    input: "376"
    output: "421"
    name: "MatMul_208"
    op_type: "MatMul"
  }
  node {
    input: "421"
    output: "422"
    name: "Transpose_209"
    op_type: "Transpose"
    attribute {
      name: "perm"
      ints: 0
      ints: 2
      ints: 1
      ints: 3
      type: INTS
    }
  }
  node {
    input: "335"
    output: "425"
    name: "Unsqueeze_210"
    op_type: "Unsqueeze"
    attribute {
      name: "axes"
      ints: 0
      type: INTS
    }
  }
  node {
    input: "425"
    input: "2063"
    input: "2064"
    output: "428"
    name: "Concat_211"
    op_type: "Concat"
    attribute {
      name: "axis"
      i: 0
      type: INT
    }
  }
  node {
    input: "422"
    input: "428"
    output: "429"
    name: "Reshape_212"
    op_type: "Reshape"
  }
  node {
    input: "429"
    input: "2065"
    output: "431"
    name: "MatMul_213"
    op_type: "MatMul"
  }
  node {
    input: "324"
    input: "431"
    output: "432"
    name: "Add_214"
    op_type: "Add"
  }
  node {
    input: "432"
    output: "433"
    name: "Cast_215"
    op_type: "Cast"
    attribute {
      name: "to"
      i: 1
      type: INT
    }
  }
  node {
    output: "434"
    name: "Constant_216"
    op_type: "Constant"
    attribute {
      name: "value"
      t {
        data_type: 1
        raw_data: "\000\000\000@"
      }
      type: TENSOR
    }
  }
  node {
    input: "433"
    input: "434"
    output: "435"
    name: "Pow_217"
    op_type: "Pow"
  }
  node {
    input: "435"
    output: "436"
    name: "ReduceMean_218"
    op_type: "ReduceMean"
    attribute {
      name: "axes"
      ints: -1
      type: INTS
    }
    attribute {
      name: "keepdims"
      i: 1
      type: INT
    }
  }
  node {
    output: "437"
    name: "Constant_219"
    op_type: "Constant"
    attribute {
      name: "value"
      t {
        data_type: 1
        raw_data: "\2757\2065"
      }
      type: TENSOR
    }
  }
  node {
    input: "436"
    input: "437"
    output: "438"
    name: "Add_220"
    op_type: "Add"
  }
  node {
    input: "438"
    output: "439"
    name: "Sqrt_221"
    op_type: "Sqrt"
  }
  node {
    input: "433"
    input: "439"
    output: "440"
    name: "Div_222"
    op_type: "Div"
  }
  node {
    input: "decoder.block.0.layer.2.layer_norm.weight"
    input: "440"
    output: "441"
    name: "Mul_223"
    op_type: "Mul"
  }
  node {
    input: "441"
    input: "2066"
    output: "443"
    name: "MatMul_224"
    op_type: "MatMul"
  }
  node {
    input: "443"
    output: "444"
    name: "Relu_225"
    op_type: "Relu"
  }
  node {
    input: "444"
    input: "2067"
    output: "446"
    name: "MatMul_226"
    op_type: "MatMul"
  }
  node {
    input: "433"
    input: "446"
    output: "447"
    name: "Add_227"
    op_type: "Add"
  }
  node {
    input: "447"
    output: "448"
    name: "Cast_228"
    op_type: "Cast"
    attribute {
      name: "to"
      i: 1
      type: INT
    }
  }
  node {
    output: "449"
    name: "Constant_229"
    op_type: "Constant"
    attribute {
      name: "value"
      t {
        data_type: 1
        raw_data: "\000\000\000@"
      }
      type: TENSOR
    }
  }
  node {
    input: "448"
    input: "449"
    output: "450"
    name: "Pow_230"
    op_type: "Pow"
  }
  node {
    input: "450"
    output: "451"
    name: "ReduceMean_231"
    op_type: "ReduceMean"
    attribute {
      name: "axes"
      ints: -1
      type: INTS
    }
    attribute {
      name: "keepdims"
      i: 1
      type: INT
    }
  }
  node {
    output: "452"
    name: "Constant_232"
    op_type: "Constant"
    attribute {
      name: "value"
      t {
        data_type: 1
        raw_data: "\2757\2065"
      }
      type: TENSOR
    }
  }
  node {
    input: "451"
    input: "452"
    output: "453"
    name: "Add_233"
    op_type: "Add"
  }
  node {
    input: "453"
    output: "454"
    name: "Sqrt_234"
    op_type: "Sqrt"
  }
  node {
    input: "448"
    input: "454"
    output: "455"
    name: "Div_235"
    op_type: "Div"
  }
  node {
    input: "decoder.block.1.layer.0.layer_norm.weight"
    input: "455"
    output: "456"
    name: "Mul_236"
    op_type: "Mul"
  }
  node {
    input: "456"
    output: "457"
    name: "Shape_237"
    op_type: "Shape"
  }
  node {
    output: "458"
    name: "Constant_238"
    op_type: "Constant"
    attribute {
      name: "value"
      t {
        data_type: 7
        raw_data: "\000\000\000\000\000\000\000\000"
      }
      type: TENSOR
    }
  }
  node {
    input: "457"
    input: "458"
    output: "459"
    name: "Gather_239"
    op_type: "Gather"
    attribute {
      name: "axis"
      i: 0
      type: INT
    }
  }
  node {
    input: "456"
    input: "2068"
    output: "461"
    name: "MatMul_240"
    op_type: "MatMul"
  }
  node {
    input: "459"
    output: "465"
    name: "Unsqueeze_241"
    op_type: "Unsqueeze"
    attribute {
      name: "axes"
      ints: 0
      type: INTS
    }
  }
  node {
    input: "465"
    input: "2069"
    input: "2070"
    input: "2071"
    output: "469"
    name: "Concat_242"
    op_type: "Concat"
    attribute {
      name: "axis"
      i: 0
      type: INT
    }
  }
  node {
    input: "461"
    input: "469"
    output: "470"
    name: "Reshape_243"
    op_type: "Reshape"
  }
  node {
    input: "470"
    output: "471"
    name: "Transpose_244"
    op_type: "Transpose"
    attribute {
      name: "perm"
      ints: 0
      ints: 2
      ints: 1
      ints: 3
      type: INTS
    }
  }
  node {
    input: "456"
    input: "2072"
    output: "473"
    name: "MatMul_245"
    op_type: "MatMul"
  }
  node {
    input: "459"
    output: "477"
    name: "Unsqueeze_246"
    op_type: "Unsqueeze"
    attribute {
      name: "axes"
      ints: 0
      type: INTS
    }
  }
  node {
    input: "477"
    input: "2073"
    input: "2074"
    input: "2075"
    output: "481"
    name: "Concat_247"
    op_type: "Concat"
    attribute {
      name: "axis"
      i: 0
      type: INT
    }
  }
  node {
    input: "473"
    input: "481"
    output: "482"
    name: "Reshape_248"
    op_type: "Reshape"
  }
  node {
    input: "456"
    input: "2076"
    output: "484"
    name: "MatMul_249"
    op_type: "MatMul"
  }
  node {
    input: "459"
    output: "488"
    name: "Unsqueeze_250"
    op_type: "Unsqueeze"
    attribute {
      name: "axes"
      ints: 0
      type: INTS
    }
  }
  node {
    input: "488"
    input: "2077"
    input: "2078"
    input: "2079"
    output: "492"
    name: "Concat_251"
    op_type: "Concat"
    attribute {
      name: "axis"
      i: 0
      type: INT
    }
  }
  node {
    input: "484"
    input: "492"
    output: "493"
    name: "Reshape_252"
    op_type: "Reshape"
  }
  node {
    input: "493"
    output: "494"
    name: "Transpose_253"
    op_type: "Transpose"
    attribute {
      name: "perm"
      ints: 0
      ints: 2
      ints: 1
      ints: 3
      type: INTS
    }
  }
  node {
    input: "482"
    output: "495"
    name: "Transpose_254"
    op_type: "Transpose"
    attribute {
      name: "perm"
      ints: 0
      ints: 2
      ints: 3
      ints: 1
      type: INTS
    }
  }
  node {
    input: "471"
    input: "495"
    output: "496"
    name: "MatMul_255"
    op_type: "MatMul"
  }
  node {
    input: "496"
    input: "308"
    output: "497"
    name: "Add_256"
    op_type: "Add"
  }
  node {
    input: "497"
    output: "498"
    name: "Cast_257"
    op_type: "Cast"
    attribute {
      name: "to"
      i: 1
      type: INT
    }
  }
  node {
    input: "498"
    output: "499"
    name: "Softmax_258"
    op_type: "Softmax"
    attribute {
      name: "axis"
      i: 3
      type: INT
    }
  }
  node {
    input: "499"
    input: "494"
    output: "500"
    name: "MatMul_259"
    op_type: "MatMul"
  }
  node {
    input: "500"
    output: "501"
    name: "Transpose_260"
    op_type: "Transpose"
    attribute {
      name: "perm"
      ints: 0
      ints: 2
      ints: 1
      ints: 3
      type: INTS
    }
  }
  node {
    input: "459"
    output: "504"
    name: "Unsqueeze_261"
    op_type: "Unsqueeze"
    attribute {
      name: "axes"
      ints: 0
      type: INTS
    }
  }
  node {
    input: "504"
    input: "2080"
    input: "2081"
    output: "507"
    name: "Concat_262"
    op_type: "Concat"
    attribute {
      name: "axis"
      i: 0
      type: INT
    }
  }
  node {
    input: "501"
    input: "507"
    output: "508"
    name: "Reshape_263"
    op_type: "Reshape"
  }
  node {
    input: "508"
    input: "2082"
    output: "510"
    name: "MatMul_264"
    op_type: "MatMul"
  }
  node {
    input: "448"
    input: "510"
    output: "511"
    name: "Add_265"
    op_type: "Add"
  }
  node {
    input: "511"
    output: "512"
    name: "Cast_266"
    op_type: "Cast"
    attribute {
      name: "to"
      i: 1
      type: INT
    }
  }
  node {
    output: "513"
    name: "Constant_267"
    op_type: "Constant"
    attribute {
      name: "value"
      t {
        data_type: 1
        raw_data: "\000\000\000@"
      }
      type: TENSOR
    }
  }
  node {
    input: "512"
    input: "513"
    output: "514"
    name: "Pow_268"
    op_type: "Pow"
  }
  node {
    input: "514"
    output: "515"
    name: "ReduceMean_269"
    op_type: "ReduceMean"
    attribute {
      name: "axes"
      ints: -1
      type: INTS
    }
    attribute {
      name: "keepdims"
      i: 1
      type: INT
    }
  }
  node {
    output: "516"
    name: "Constant_270"
    op_type: "Constant"
    attribute {
      name: "value"
      t {
        data_type: 1
        raw_data: "\2757\2065"
      }
      type: TENSOR
    }
  }
  node {
    input: "515"
    input: "516"
    output: "517"
    name: "Add_271"
    op_type: "Add"
  }
  node {
    input: "517"
    output: "518"
    name: "Sqrt_272"
    op_type: "Sqrt"
  }
  node {
    input: "512"
    input: "518"
    output: "519"
    name: "Div_273"
    op_type: "Div"
  }
  node {
    input: "decoder.block.1.layer.1.layer_norm.weight"
    input: "519"
    output: "520"
    name: "Mul_274"
    op_type: "Mul"
  }
  node {
    input: "520"
    output: "521"
    name: "Shape_275"
    op_type: "Shape"
  }
  node {
    output: "522"
    name: "Constant_276"
    op_type: "Constant"
    attribute {
      name: "value"
      t {
        data_type: 7
        raw_data: "\000\000\000\000\000\000\000\000"
      }
      type: TENSOR
    }
  }
  node {
    input: "521"
    input: "522"
    output: "523"
    name: "Gather_277"
    op_type: "Gather"
    attribute {
      name: "axis"
      i: 0
      type: INT
    }
  }
  node {
    input: "520"
    input: "2083"
    output: "525"
    name: "MatMul_278"
    op_type: "MatMul"
  }
  node {
    input: "523"
    output: "529"
    name: "Unsqueeze_279"
    op_type: "Unsqueeze"
    attribute {
      name: "axes"
      ints: 0
      type: INTS
    }
  }
  node {
    input: "529"
    input: "2084"
    input: "2085"
    input: "2086"
    output: "533"
    name: "Concat_280"
    op_type: "Concat"
    attribute {
      name: "axis"
      i: 0
      type: INT
    }
  }
  node {
    input: "525"
    input: "533"
    output: "534"
    name: "Reshape_281"
    op_type: "Reshape"
  }
  node {
    input: "534"
    output: "535"
    name: "Transpose_282"
    op_type: "Transpose"
    attribute {
      name: "perm"
      ints: 0
      ints: 2
      ints: 1
      ints: 3
      type: INTS
    }
  }
  node {
    input: "encoder_hidden_states"
    input: "2087"
    output: "537"
    name: "MatMul_283"
    op_type: "MatMul"
  }
  node {
    input: "523"
    output: "541"
    name: "Unsqueeze_284"
    op_type: "Unsqueeze"
    attribute {
      name: "axes"
      ints: 0
      type: INTS
    }
  }
  node {
    input: "541"
    input: "2088"
    input: "2089"
    input: "2090"
    output: "545"
    name: "Concat_285"
    op_type: "Concat"
    attribute {
      name: "axis"
      i: 0
      type: INT
    }
  }
  node {
    input: "537"
    input: "545"
    output: "546"
    name: "Reshape_286"
    op_type: "Reshape"
  }
  node {
    input: "encoder_hidden_states"
    input: "2091"
    output: "548"
    name: "MatMul_287"
    op_type: "MatMul"
  }
  node {
    input: "523"
    output: "552"
    name: "Unsqueeze_288"
    op_type: "Unsqueeze"
    attribute {
      name: "axes"
      ints: 0
      type: INTS
    }
  }
  node {
    input: "552"
    input: "2092"
    input: "2093"
    input: "2094"
    output: "556"
    name: "Concat_289"
    op_type: "Concat"
    attribute {
      name: "axis"
      i: 0
      type: INT
    }
  }
  node {
    input: "548"
    input: "556"
    output: "557"
    name: "Reshape_290"
    op_type: "Reshape"
  }
  node {
    input: "557"
    output: "558"
    name: "Transpose_291"
    op_type: "Transpose"
    attribute {
      name: "perm"
      ints: 0
      ints: 2
      ints: 1
      ints: 3
      type: INTS
    }
  }
  node {
    input: "546"
    output: "559"
    name: "Transpose_292"
    op_type: "Transpose"
    attribute {
      name: "perm"
      ints: 0
      ints: 2
      ints: 3
      ints: 1
      type: INTS
    }
  }
  node {
    input: "535"
    input: "559"
    output: "560"
    name: "MatMul_293"
    op_type: "MatMul"
  }
  node {
    input: "560"
    input: "417"
    output: "561"
    name: "Add_294"
    op_type: "Add"
  }
  node {
    input: "561"
    output: "562"
    name: "Cast_295"
    op_type: "Cast"
    attribute {
      name: "to"
      i: 1
      type: INT
    }
  }
  node {
    input: "562"
    output: "563"
    name: "Softmax_296"
    op_type: "Softmax"
    attribute {
      name: "axis"
      i: 3
      type: INT
    }
  }
  node {
    input: "563"
    input: "558"
    output: "564"
    name: "MatMul_297"
    op_type: "MatMul"
  }
  node {
    input: "564"
    output: "565"
    name: "Transpose_298"
    op_type: "Transpose"
    attribute {
      name: "perm"
      ints: 0
      ints: 2
      ints: 1
      ints: 3
      type: INTS
    }
  }
  node {
    input: "523"
    output: "568"
    name: "Unsqueeze_299"
    op_type: "Unsqueeze"
    attribute {
      name: "axes"
      ints: 0
      type: INTS
    }
  }
  node {
    input: "568"
    input: "2095"
    input: "2096"
    output: "571"
    name: "Concat_300"
    op_type: "Concat"
    attribute {
      name: "axis"
      i: 0
      type: INT
    }
  }
  node {
    input: "565"
    input: "571"
    output: "572"
    name: "Reshape_301"
    op_type: "Reshape"
  }
  node {
    input: "572"
    input: "2097"
    output: "574"
    name: "MatMul_302"
    op_type: "MatMul"
  }
  node {
    input: "512"
    input: "574"
    output: "575"
    name: "Add_303"
    op_type: "Add"
  }
  node {
    input: "575"
    output: "576"
    name: "Cast_304"
    op_type: "Cast"
    attribute {
      name: "to"
      i: 1
      type: INT
    }
  }
  node {
    output: "577"
    name: "Constant_305"
    op_type: "Constant"
    attribute {
      name: "value"
      t {
        data_type: 1
        raw_data: "\000\000\000@"
      }
      type: TENSOR
    }
  }
  node {
    input: "576"
    input: "577"
    output: "578"
    name: "Pow_306"
    op_type: "Pow"
  }
  node {
    input: "578"
    output: "579"
    name: "ReduceMean_307"
    op_type: "ReduceMean"
    attribute {
      name: "axes"
      ints: -1
      type: INTS
    }
    attribute {
      name: "keepdims"
      i: 1
      type: INT
    }
  }
  node {
    output: "580"
    name: "Constant_308"
    op_type: "Constant"
    attribute {
      name: "value"
      t {
        data_type: 1
        raw_data: "\2757\2065"
      }
      type: TENSOR
    }
  }
  node {
    input: "579"
    input: "580"
    output: "581"
    name: "Add_309"
    op_type: "Add"
  }
  node {
    input: "581"
    output: "582"
    name: "Sqrt_310"
    op_type: "Sqrt"
  }
  node {
    input: "576"
    input: "582"
    output: "583"
    name: "Div_311"
    op_type: "Div"
  }
  node {
    input: "decoder.block.1.layer.2.layer_norm.weight"
    input: "583"
    output: "584"
    name: "Mul_312"
    op_type: "Mul"
  }
  node {
    input: "584"
    input: "2098"
    output: "586"
    name: "MatMul_313"
    op_type: "MatMul"
  }
  node {
    input: "586"
    output: "587"
    name: "Relu_314"
    op_type: "Relu"
  }
  node {
    input: "587"
    input: "2099"
    output: "589"
    name: "MatMul_315"
    op_type: "MatMul"
  }
  node {
    input: "576"
    input: "589"
    output: "590"
    name: "Add_316"
    op_type: "Add"
  }
  node {
    input: "590"
    output: "591"
    name: "Cast_317"
    op_type: "Cast"
    attribute {
      name: "to"
      i: 1
      type: INT
    }
  }
  node {
    output: "592"
    name: "Constant_318"
    op_type: "Constant"
    attribute {
      name: "value"
      t {
        data_type: 1
        raw_data: "\000\000\000@"
      }
      type: TENSOR
    }
  }
  node {
    input: "591"
    input: "592"
    output: "593"
    name: "Pow_319"
    op_type: "Pow"
  }
  node {
    input: "593"
    output: "594"
    name: "ReduceMean_320"
    op_type: "ReduceMean"
    attribute {
      name: "axes"
      ints: -1
      type: INTS
    }
    attribute {
      name: "keepdims"
      i: 1
      type: INT
    }
  }
  node {
    output: "595"
    name: "Constant_321"
    op_type: "Constant"
    attribute {
      name: "value"
      t {
        data_type: 1
        raw_data: "\2757\2065"
      }
      type: TENSOR
    }
  }
  node {
    input: "594"
    input: "595"
    output: "596"
    name: "Add_322"
    op_type: "Add"
  }
  node {
    input: "596"
    output: "597"
    name: "Sqrt_323"
    op_type: "Sqrt"
  }
  node {
    input: "591"
    input: "597"
    output: "598"
    name: "Div_324"
    op_type: "Div"
  }
  node {
    input: "decoder.block.2.layer.0.layer_norm.weight"
    input: "598"
    output: "599"
    name: "Mul_325"
    op_type: "Mul"
  }
  node {
    input: "599"
    output: "600"
    name: "Shape_326"
    op_type: "Shape"
  }
  node {
    output: "601"
    name: "Constant_327"
    op_type: "Constant"
    attribute {
      name: "value"
      t {
        data_type: 7
        raw_data: "\000\000\000\000\000\000\000\000"
      }
      type: TENSOR
    }
  }
  node {
    input: "600"
    input: "601"
    output: "602"
    name: "Gather_328"
    op_type: "Gather"
    attribute {
      name: "axis"
      i: 0
      type: INT
    }
  }
  node {
    input: "599"
    input: "2100"
    output: "604"
    name: "MatMul_329"
    op_type: "MatMul"
  }
  node {
    input: "602"
    output: "608"
    name: "Unsqueeze_330"
    op_type: "Unsqueeze"
    attribute {
      name: "axes"
      ints: 0
      type: INTS
    }
  }
  node {
    input: "608"
    input: "2101"
    input: "2102"
    input: "2103"
    output: "612"
    name: "Concat_331"
    op_type: "Concat"
    attribute {
      name: "axis"
      i: 0
      type: INT
    }
  }
  node {
    input: "604"
    input: "612"
    output: "613"
    name: "Reshape_332"
    op_type: "Reshape"
  }
  node {
    input: "613"
    output: "614"
    name: "Transpose_333"
    op_type: "Transpose"
    attribute {
      name: "perm"
      ints: 0
      ints: 2
      ints: 1
      ints: 3
      type: INTS
    }
  }
  node {
    input: "599"
    input: "2104"
    output: "616"
    name: "MatMul_334"
    op_type: "MatMul"
  }
  node {
    input: "602"
    output: "620"
    name: "Unsqueeze_335"
    op_type: "Unsqueeze"
    attribute {
      name: "axes"
      ints: 0
      type: INTS
    }
  }
  node {
    input: "620"
    input: "2105"
    input: "2106"
    input: "2107"
    output: "624"
    name: "Concat_336"
    op_type: "Concat"
    attribute {
      name: "axis"
      i: 0
      type: INT
    }
  }
  node {
    input: "616"
    input: "624"
    output: "625"
    name: "Reshape_337"
    op_type: "Reshape"
  }
  node {
    input: "599"
    input: "2108"
    output: "627"
    name: "MatMul_338"
    op_type: "MatMul"
  }
  node {
    input: "602"
    output: "631"
    name: "Unsqueeze_339"
    op_type: "Unsqueeze"
    attribute {
      name: "axes"
      ints: 0
      type: INTS
    }
  }
  node {
    input: "631"
    input: "2109"
    input: "2110"
    input: "2111"
    output: "635"
    name: "Concat_340"
    op_type: "Concat"
    attribute {
      name: "axis"
      i: 0
      type: INT
    }
  }
  node {
    input: "627"
    input: "635"
    output: "636"
    name: "Reshape_341"
    op_type: "Reshape"
  }
  node {
    input: "636"
    output: "637"
    name: "Transpose_342"
    op_type: "Transpose"
    attribute {
      name: "perm"
      ints: 0
      ints: 2
      ints: 1
      ints: 3
      type: INTS
    }
  }
  node {
    input: "625"
    output: "638"
    name: "Transpose_343"
    op_type: "Transpose"
    attribute {
      name: "perm"
      ints: 0
      ints: 2
      ints: 3
      ints: 1
      type: INTS
    }
  }
  node {
    input: "614"
    input: "638"
    output: "639"
    name: "MatMul_344"
    op_type: "MatMul"
  }
  node {
    input: "639"
    input: "308"
    output: "640"
    name: "Add_345"
    op_type: "Add"
  }
  node {
    input: "640"
    output: "641"
    name: "Cast_346"
    op_type: "Cast"
    attribute {
      name: "to"
      i: 1
      type: INT
    }
  }
  node {
    input: "641"
    output: "642"
    name: "Softmax_347"
    op_type: "Softmax"
    attribute {
      name: "axis"
      i: 3
      type: INT
    }
  }
  node {
    input: "642"
    input: "637"
    output: "643"
    name: "MatMul_348"
    op_type: "MatMul"
  }
  node {
    input: "643"
    output: "644"
    name: "Transpose_349"
    op_type: "Transpose"
    attribute {
      name: "perm"
      ints: 0
      ints: 2
      ints: 1
      ints: 3
      type: INTS
    }
  }
  node {
    input: "602"
    output: "647"
    name: "Unsqueeze_350"
    op_type: "Unsqueeze"
    attribute {
      name: "axes"
      ints: 0
      type: INTS
    }
  }
  node {
    input: "647"
    input: "2112"
    input: "2113"
    output: "650"
    name: "Concat_351"
    op_type: "Concat"
    attribute {
      name: "axis"
      i: 0
      type: INT
    }
  }
  node {
    input: "644"
    input: "650"
    output: "651"
    name: "Reshape_352"
    op_type: "Reshape"
  }
  node {
    input: "651"
    input: "2114"
    output: "653"
    name: "MatMul_353"
    op_type: "MatMul"
  }
  node {
    input: "591"
    input: "653"
    output: "654"
    name: "Add_354"
    op_type: "Add"
  }
  node {
    input: "654"
    output: "655"
    name: "Cast_355"
    op_type: "Cast"
    attribute {
      name: "to"
      i: 1
      type: INT
    }
  }
  node {
    output: "656"
    name: "Constant_356"
    op_type: "Constant"
    attribute {
      name: "value"
      t {
        data_type: 1
        raw_data: "\000\000\000@"
      }
      type: TENSOR
    }
  }
  node {
    input: "655"
    input: "656"
    output: "657"
    name: "Pow_357"
    op_type: "Pow"
  }
  node {
    input: "657"
    output: "658"
    name: "ReduceMean_358"
    op_type: "ReduceMean"
    attribute {
      name: "axes"
      ints: -1
      type: INTS
    }
    attribute {
      name: "keepdims"
      i: 1
      type: INT
    }
  }
  node {
    output: "659"
    name: "Constant_359"
    op_type: "Constant"
    attribute {
      name: "value"
      t {
        data_type: 1
        raw_data: "\2757\2065"
      }
      type: TENSOR
    }
  }
  node {
    input: "658"
    input: "659"
    output: "660"
    name: "Add_360"
    op_type: "Add"
  }
  node {
    input: "660"
    output: "661"
    name: "Sqrt_361"
    op_type: "Sqrt"
  }
  node {
    input: "655"
    input: "661"
    output: "662"
    name: "Div_362"
    op_type: "Div"
  }
  node {
    input: "decoder.block.2.layer.1.layer_norm.weight"
    input: "662"
    output: "663"
    name: "Mul_363"
    op_type: "Mul"
  }
  node {
    input: "663"
    output: "664"
    name: "Shape_364"
    op_type: "Shape"
  }
  node {
    output: "665"
    name: "Constant_365"
    op_type: "Constant"
    attribute {
      name: "value"
      t {
        data_type: 7
        raw_data: "\000\000\000\000\000\000\000\000"
      }
      type: TENSOR
    }
  }
  node {
    input: "664"
    input: "665"
    output: "666"
    name: "Gather_366"
    op_type: "Gather"
    attribute {
      name: "axis"
      i: 0
      type: INT
    }
  }
  node {
    input: "663"
    input: "2115"
    output: "668"
    name: "MatMul_367"
    op_type: "MatMul"
  }
  node {
    input: "666"
    output: "672"
    name: "Unsqueeze_368"
    op_type: "Unsqueeze"
    attribute {
      name: "axes"
      ints: 0
      type: INTS
    }
  }
  node {
    input: "672"
    input: "2116"
    input: "2117"
    input: "2118"
    output: "676"
    name: "Concat_369"
    op_type: "Concat"
    attribute {
      name: "axis"
      i: 0
      type: INT
    }
  }
  node {
    input: "668"
    input: "676"
    output: "677"
    name: "Reshape_370"
    op_type: "Reshape"
  }
  node {
    input: "677"
    output: "678"
    name: "Transpose_371"
    op_type: "Transpose"
    attribute {
      name: "perm"
      ints: 0
      ints: 2
      ints: 1
      ints: 3
      type: INTS
    }
  }
  node {
    input: "encoder_hidden_states"
    input: "2119"
    output: "680"
    name: "MatMul_372"
    op_type: "MatMul"
  }
  node {
    input: "666"
    output: "684"
    name: "Unsqueeze_373"
    op_type: "Unsqueeze"
    attribute {
      name: "axes"
      ints: 0
      type: INTS
    }
  }
  node {
    input: "684"
    input: "2120"
    input: "2121"
    input: "2122"
    output: "688"
    name: "Concat_374"
    op_type: "Concat"
    attribute {
      name: "axis"
      i: 0
      type: INT
    }
  }
  node {
    input: "680"
    input: "688"
    output: "689"
    name: "Reshape_375"
    op_type: "Reshape"
  }
  node {
    input: "encoder_hidden_states"
    input: "2123"
    output: "691"
    name: "MatMul_376"
    op_type: "MatMul"
  }
  node {
    input: "666"
    output: "695"
    name: "Unsqueeze_377"
    op_type: "Unsqueeze"
    attribute {
      name: "axes"
      ints: 0
      type: INTS
    }
  }
  node {
    input: "695"
    input: "2124"
    input: "2125"
    input: "2126"
    output: "699"
    name: "Concat_378"
    op_type: "Concat"
    attribute {
      name: "axis"
      i: 0
      type: INT
    }
  }
  node {
    input: "691"
    input: "699"
    output: "700"
    name: "Reshape_379"
    op_type: "Reshape"
  }
  node {
    input: "700"
    output: "701"
    name: "Transpose_380"
    op_type: "Transpose"
    attribute {
      name: "perm"
      ints: 0
      ints: 2
      ints: 1
      ints: 3
      type: INTS
    }
  }
  node {
    input: "689"
    output: "702"
    name: "Transpose_381"
    op_type: "Transpose"
    attribute {
      name: "perm"
      ints: 0
      ints: 2
      ints: 3
      ints: 1
      type: INTS
    }
  }
  node {
    input: "678"
    input: "702"
    output: "703"
    name: "MatMul_382"
    op_type: "MatMul"
  }
  node {
    input: "703"
    input: "417"
    output: "704"
    name: "Add_383"
    op_type: "Add"
  }
  node {
    input: "704"
    output: "705"
    name: "Cast_384"
    op_type: "Cast"
    attribute {
      name: "to"
      i: 1
      type: INT
    }
  }
  node {
    input: "705"
    output: "706"
    name: "Softmax_385"
    op_type: "Softmax"
    attribute {
      name: "axis"
      i: 3
      type: INT
    }
  }
  node {
    input: "706"
    input: "701"
    output: "707"
    name: "MatMul_386"
    op_type: "MatMul"
  }
  node {
    input: "707"
    output: "708"
    name: "Transpose_387"
    op_type: "Transpose"
    attribute {
      name: "perm"
      ints: 0
      ints: 2
      ints: 1
      ints: 3
      type: INTS
    }
  }
  node {
    input: "666"
    output: "711"
    name: "Unsqueeze_388"
    op_type: "Unsqueeze"
    attribute {
      name: "axes"
      ints: 0
      type: INTS
    }
  }
  node {
    input: "711"
    input: "2127"
    input: "2128"
    output: "714"
    name: "Concat_389"
    op_type: "Concat"
    attribute {
      name: "axis"
      i: 0
      type: INT
    }
  }
  node {
    input: "708"
    input: "714"
    output: "715"
    name: "Reshape_390"
    op_type: "Reshape"
  }
  node {
    input: "715"
    input: "2129"
    output: "717"
    name: "MatMul_391"
    op_type: "MatMul"
  }
  node {
    input: "655"
    input: "717"
    output: "718"
    name: "Add_392"
    op_type: "Add"
  }
  node {
    input: "718"
    output: "719"
    name: "Cast_393"
    op_type: "Cast"
    attribute {
      name: "to"
      i: 1
      type: INT
    }
  }
  node {
    output: "720"
    name: "Constant_394"
    op_type: "Constant"
    attribute {
      name: "value"
      t {
        data_type: 1
        raw_data: "\000\000\000@"
      }
      type: TENSOR
    }
  }
  node {
    input: "719"
    input: "720"
    output: "721"
    name: "Pow_395"
    op_type: "Pow"
  }
  node {
    input: "721"
    output: "722"
    name: "ReduceMean_396"
    op_type: "ReduceMean"
    attribute {
      name: "axes"
      ints: -1
      type: INTS
    }
    attribute {
      name: "keepdims"
      i: 1
      type: INT
    }
  }
  node {
    output: "723"
    name: "Constant_397"
    op_type: "Constant"
    attribute {
      name: "value"
      t {
        data_type: 1
        raw_data: "\2757\2065"
      }
      type: TENSOR
    }
  }
  node {
    input: "722"
    input: "723"
    output: "724"
    name: "Add_398"
    op_type: "Add"
  }
  node {
    input: "724"
    output: "725"
    name: "Sqrt_399"
    op_type: "Sqrt"
  }
  node {
    input: "719"
    input: "725"
    output: "726"
    name: "Div_400"
    op_type: "Div"
  }
  node {
    input: "decoder.block.2.layer.2.layer_norm.weight"
    input: "726"
    output: "727"
    name: "Mul_401"
    op_type: "Mul"
  }
  node {
    input: "727"
    input: "2130"
    output: "729"
    name: "MatMul_402"
    op_type: "MatMul"
  }
  node {
    input: "729"
    output: "730"
    name: "Relu_403"
    op_type: "Relu"
  }
  node {
    input: "730"
    input: "2131"
    output: "732"
    name: "MatMul_404"
    op_type: "MatMul"
  }
  node {
    input: "719"
    input: "732"
    output: "733"
    name: "Add_405"
    op_type: "Add"
  }
  node {
    input: "733"
    output: "734"
    name: "Cast_406"
    op_type: "Cast"
    attribute {
      name: "to"
      i: 1
      type: INT
    }
  }
  node {
    output: "735"
    name: "Constant_407"
    op_type: "Constant"
    attribute {
      name: "value"
      t {
        data_type: 1
        raw_data: "\000\000\000@"
      }
      type: TENSOR
    }
  }
  node {
    input: "734"
    input: "735"
    output: "736"
    name: "Pow_408"
    op_type: "Pow"
  }
  node {
    input: "736"
    output: "737"
    name: "ReduceMean_409"
    op_type: "ReduceMean"
    attribute {
      name: "axes"
      ints: -1
      type: INTS
    }
    attribute {
      name: "keepdims"
      i: 1
      type: INT
    }
  }
  node {
    output: "738"
    name: "Constant_410"
    op_type: "Constant"
    attribute {
      name: "value"
      t {
        data_type: 1
        raw_data: "\2757\2065"
      }
      type: TENSOR
    }
  }
  node {
    input: "737"
    input: "738"
    output: "739"
    name: "Add_411"
    op_type: "Add"
  }
  node {
    input: "739"
    output: "740"
    name: "Sqrt_412"
    op_type: "Sqrt"
  }
  node {
    input: "734"
    input: "740"
    output: "741"
    name: "Div_413"
    op_type: "Div"
  }
  node {
    input: "decoder.block.3.layer.0.layer_norm.weight"
    input: "741"
    output: "742"
    name: "Mul_414"
    op_type: "Mul"
  }
  node {
    input: "742"
    output: "743"
    name: "Shape_415"
    op_type: "Shape"
  }
  node {
    output: "744"
    name: "Constant_416"
    op_type: "Constant"
    attribute {
      name: "value"
      t {
        data_type: 7
        raw_data: "\000\000\000\000\000\000\000\000"
      }
      type: TENSOR
    }
  }
  node {
    input: "743"
    input: "744"
    output: "745"
    name: "Gather_417"
    op_type: "Gather"
    attribute {
      name: "axis"
      i: 0
      type: INT
    }
  }
  node {
    input: "742"
    input: "2132"
    output: "747"
    name: "MatMul_418"
    op_type: "MatMul"
  }
  node {
    input: "745"
    output: "751"
    name: "Unsqueeze_419"
    op_type: "Unsqueeze"
    attribute {
      name: "axes"
      ints: 0
      type: INTS
    }
  }
  node {
    input: "751"
    input: "2133"
    input: "2134"
    input: "2135"
    output: "755"
    name: "Concat_420"
    op_type: "Concat"
    attribute {
      name: "axis"
      i: 0
      type: INT
    }
  }
  node {
    input: "747"
    input: "755"
    output: "756"
    name: "Reshape_421"
    op_type: "Reshape"
  }
  node {
    input: "756"
    output: "757"
    name: "Transpose_422"
    op_type: "Transpose"
    attribute {
      name: "perm"
      ints: 0
      ints: 2
      ints: 1
      ints: 3
      type: INTS
    }
  }
  node {
    input: "742"
    input: "2136"
    output: "759"
    name: "MatMul_423"
    op_type: "MatMul"
  }
  node {
    input: "745"
    output: "763"
    name: "Unsqueeze_424"
    op_type: "Unsqueeze"
    attribute {
      name: "axes"
      ints: 0
      type: INTS
    }
  }
  node {
    input: "763"
    input: "2137"
    input: "2138"
    input: "2139"
    output: "767"
    name: "Concat_425"
    op_type: "Concat"
    attribute {
      name: "axis"
      i: 0
      type: INT
    }
  }
  node {
    input: "759"
    input: "767"
    output: "768"
    name: "Reshape_426"
    op_type: "Reshape"
  }
  node {
    input: "742"
    input: "2140"
    output: "770"
    name: "MatMul_427"
    op_type: "MatMul"
  }
  node {
    input: "745"
    output: "774"
    name: "Unsqueeze_428"
    op_type: "Unsqueeze"
    attribute {
      name: "axes"
      ints: 0
      type: INTS
    }
  }
  node {
    input: "774"
    input: "2141"
    input: "2142"
    input: "2143"
    output: "778"
    name: "Concat_429"
    op_type: "Concat"
    attribute {
      name: "axis"
      i: 0
      type: INT
    }
  }
  node {
    input: "770"
    input: "778"
    output: "779"
    name: "Reshape_430"
    op_type: "Reshape"
  }
  node {
    input: "779"
    output: "780"
    name: "Transpose_431"
    op_type: "Transpose"
    attribute {
      name: "perm"
      ints: 0
      ints: 2
      ints: 1
      ints: 3
      type: INTS
    }
  }
  node {
    input: "768"
    output: "781"
    name: "Transpose_432"
    op_type: "Transpose"
    attribute {
      name: "perm"
      ints: 0
      ints: 2
      ints: 3
      ints: 1
      type: INTS
    }
  }
  node {
    input: "757"
    input: "781"
    output: "782"
    name: "MatMul_433"
    op_type: "MatMul"
  }
  node {
    input: "782"
    input: "308"
    output: "783"
    name: "Add_434"
    op_type: "Add"
  }
  node {
    input: "783"
    output: "784"
    name: "Cast_435"
    op_type: "Cast"
    attribute {
      name: "to"
      i: 1
      type: INT
    }
  }
  node {
    input: "784"
    output: "785"
    name: "Softmax_436"
    op_type: "Softmax"
    attribute {
      name: "axis"
      i: 3
      type: INT
    }
  }
  node {
    input: "785"
    input: "780"
    output: "786"
    name: "MatMul_437"
    op_type: "MatMul"
  }
  node {
    input: "786"
    output: "787"
    name: "Transpose_438"
    op_type: "Transpose"
    attribute {
      name: "perm"
      ints: 0
      ints: 2
      ints: 1
      ints: 3
      type: INTS
    }
  }
  node {
    input: "745"
    output: "790"
    name: "Unsqueeze_439"
    op_type: "Unsqueeze"
    attribute {
      name: "axes"
      ints: 0
      type: INTS
    }
  }
  node {
    input: "790"
    input: "2144"
    input: "2145"
    output: "793"
    name: "Concat_440"
    op_type: "Concat"
    attribute {
      name: "axis"
      i: 0
      type: INT
    }
  }
  node {
    input: "787"
    input: "793"
    output: "794"
    name: "Reshape_441"
    op_type: "Reshape"
  }
  node {
    input: "794"
    input: "2146"
    output: "796"
    name: "MatMul_442"
    op_type: "MatMul"
  }
  node {
    input: "734"
    input: "796"
    output: "797"
    name: "Add_443"
    op_type: "Add"
  }
  node {
    input: "797"
    output: "798"
    name: "Cast_444"
    op_type: "Cast"
    attribute {
      name: "to"
      i: 1
      type: INT
    }
  }
  node {
    output: "799"
    name: "Constant_445"
    op_type: "Constant"
    attribute {
      name: "value"
      t {
        data_type: 1
        raw_data: "\000\000\000@"
      }
      type: TENSOR
    }
  }
  node {
    input: "798"
    input: "799"
    output: "800"
    name: "Pow_446"
    op_type: "Pow"
  }
  node {
    input: "800"
    output: "801"
    name: "ReduceMean_447"
    op_type: "ReduceMean"
    attribute {
      name: "axes"
      ints: -1
      type: INTS
    }
    attribute {
      name: "keepdims"
      i: 1
      type: INT
    }
  }
  node {
    output: "802"
    name: "Constant_448"
    op_type: "Constant"
    attribute {
      name: "value"
      t {
        data_type: 1
        raw_data: "\2757\2065"
      }
      type: TENSOR
    }
  }
  node {
    input: "801"
    input: "802"
    output: "803"
    name: "Add_449"
    op_type: "Add"
  }
  node {
    input: "803"
    output: "804"
    name: "Sqrt_450"
    op_type: "Sqrt"
  }
  node {
    input: "798"
    input: "804"
    output: "805"
    name: "Div_451"
    op_type: "Div"
  }
  node {
    input: "decoder.block.3.layer.1.layer_norm.weight"
    input: "805"
    output: "806"
    name: "Mul_452"
    op_type: "Mul"
  }
  node {
    input: "806"
    output: "807"
    name: "Shape_453"
    op_type: "Shape"
  }
  node {
    output: "808"
    name: "Constant_454"
    op_type: "Constant"
    attribute {
      name: "value"
      t {
        data_type: 7
        raw_data: "\000\000\000\000\000\000\000\000"
      }
      type: TENSOR
    }
  }
  node {
    input: "807"
    input: "808"
    output: "809"
    name: "Gather_455"
    op_type: "Gather"
    attribute {
      name: "axis"
      i: 0
      type: INT
    }
  }
  node {
    input: "806"
    input: "2147"
    output: "811"
    name: "MatMul_456"
    op_type: "MatMul"
  }
  node {
    input: "809"
    output: "815"
    name: "Unsqueeze_457"
    op_type: "Unsqueeze"
    attribute {
      name: "axes"
      ints: 0
      type: INTS
    }
  }
  node {
    input: "815"
    input: "2148"
    input: "2149"
    input: "2150"
    output: "819"
    name: "Concat_458"
    op_type: "Concat"
    attribute {
      name: "axis"
      i: 0
      type: INT
    }
  }
  node {
    input: "811"
    input: "819"
    output: "820"
    name: "Reshape_459"
    op_type: "Reshape"
  }
  node {
    input: "820"
    output: "821"
    name: "Transpose_460"
    op_type: "Transpose"
    attribute {
      name: "perm"
      ints: 0
      ints: 2
      ints: 1
      ints: 3
      type: INTS
    }
  }
  node {
    input: "encoder_hidden_states"
    input: "2151"
    output: "823"
    name: "MatMul_461"
    op_type: "MatMul"
  }
  node {
    input: "809"
    output: "827"
    name: "Unsqueeze_462"
    op_type: "Unsqueeze"
    attribute {
      name: "axes"
      ints: 0
      type: INTS
    }
  }
  node {
    input: "827"
    input: "2152"
    input: "2153"
    input: "2154"
    output: "831"
    name: "Concat_463"
    op_type: "Concat"
    attribute {
      name: "axis"
      i: 0
      type: INT
    }
  }
  node {
    input: "823"
    input: "831"
    output: "832"
    name: "Reshape_464"
    op_type: "Reshape"
  }
  node {
    input: "encoder_hidden_states"
    input: "2155"
    output: "834"
    name: "MatMul_465"
    op_type: "MatMul"
  }
  node {
    input: "809"
    output: "838"
    name: "Unsqueeze_466"
    op_type: "Unsqueeze"
    attribute {
      name: "axes"
      ints: 0
      type: INTS
    }
  }
  node {
    input: "838"
    input: "2156"
    input: "2157"
    input: "2158"
    output: "842"
    name: "Concat_467"
    op_type: "Concat"
    attribute {
      name: "axis"
      i: 0
      type: INT
    }
  }
  node {
    input: "834"
    input: "842"
    output: "843"
    name: "Reshape_468"
    op_type: "Reshape"
  }
  node {
    input: "843"
    output: "844"
    name: "Transpose_469"
    op_type: "Transpose"
    attribute {
      name: "perm"
      ints: 0
      ints: 2
      ints: 1
      ints: 3
      type: INTS
    }
  }
  node {
    input: "832"
    output: "845"
    name: "Transpose_470"
    op_type: "Transpose"
    attribute {
      name: "perm"
      ints: 0
      ints: 2
      ints: 3
      ints: 1
      type: INTS
    }
  }
  node {
    input: "821"
    input: "845"
    output: "846"
    name: "MatMul_471"
    op_type: "MatMul"
  }
  node {
    input: "846"
    input: "417"
    output: "847"
    name: "Add_472"
    op_type: "Add"
  }
  node {
    input: "847"
    output: "848"
    name: "Cast_473"
    op_type: "Cast"
    attribute {
      name: "to"
      i: 1
      type: INT
    }
  }
  node {
    input: "848"
    output: "849"
    name: "Softmax_474"
    op_type: "Softmax"
    attribute {
      name: "axis"
      i: 3
      type: INT
    }
  }
  node {
    input: "849"
    input: "844"
    output: "850"
    name: "MatMul_475"
    op_type: "MatMul"
  }
  node {
    input: "850"
    output: "851"
    name: "Transpose_476"
    op_type: "Transpose"
    attribute {
      name: "perm"
      ints: 0
      ints: 2
      ints: 1
      ints: 3
      type: INTS
    }
  }
  node {
    input: "809"
    output: "854"
    name: "Unsqueeze_477"
    op_type: "Unsqueeze"
    attribute {
      name: "axes"
      ints: 0
      type: INTS
    }
  }
  node {
    input: "854"
    input: "2159"
    input: "2160"
    output: "857"
    name: "Concat_478"
    op_type: "Concat"
    attribute {
      name: "axis"
      i: 0
      type: INT
    }
  }
  node {
    input: "851"
    input: "857"
    output: "858"
    name: "Reshape_479"
    op_type: "Reshape"
  }
  node {
    input: "858"
    input: "2161"
    output: "860"
    name: "MatMul_480"
    op_type: "MatMul"
  }
  node {
    input: "798"
    input: "860"
    output: "861"
    name: "Add_481"
    op_type: "Add"
  }
  node {
    input: "861"
    output: "862"
    name: "Cast_482"
    op_type: "Cast"
    attribute {
      name: "to"
      i: 1
      type: INT
    }
  }
  node {
    output: "863"
    name: "Constant_483"
    op_type: "Constant"
    attribute {
      name: "value"
      t {
        data_type: 1
        raw_data: "\000\000\000@"
      }
      type: TENSOR
    }
  }
  node {
    input: "862"
    input: "863"
    output: "864"
    name: "Pow_484"
    op_type: "Pow"
  }
  node {
    input: "864"
    output: "865"
    name: "ReduceMean_485"
    op_type: "ReduceMean"
    attribute {
      name: "axes"
      ints: -1
      type: INTS
    }
    attribute {
      name: "keepdims"
      i: 1
      type: INT
    }
  }
  node {
    output: "866"
    name: "Constant_486"
    op_type: "Constant"
    attribute {
      name: "value"
      t {
        data_type: 1
        raw_data: "\2757\2065"
      }
      type: TENSOR
    }
  }
  node {
    input: "865"
    input: "866"
    output: "867"
    name: "Add_487"
    op_type: "Add"
  }
  node {
    input: "867"
    output: "868"
    name: "Sqrt_488"
    op_type: "Sqrt"
  }
  node {
    input: "862"
    input: "868"
    output: "869"
    name: "Div_489"
    op_type: "Div"
  }
  node {
    input: "decoder.block.3.layer.2.layer_norm.weight"
    input: "869"
    output: "870"
    name: "Mul_490"
    op_type: "Mul"
  }
  node {
    input: "870"
    input: "2162"
    output: "872"
    name: "MatMul_491"
    op_type: "MatMul"
  }
  node {
    input: "872"
    output: "873"
    name: "Relu_492"
    op_type: "Relu"
  }
  node {
    input: "873"
    input: "2163"
    output: "875"
    name: "MatMul_493"
    op_type: "MatMul"
  }
  node {
    input: "862"
    input: "875"
    output: "876"
    name: "Add_494"
    op_type: "Add"
  }
  node {
    input: "876"
    output: "877"
    name: "Cast_495"
    op_type: "Cast"
    attribute {
      name: "to"
      i: 1
      type: INT
    }
  }
  node {
    output: "878"
    name: "Constant_496"
    op_type: "Constant"
    attribute {
      name: "value"
      t {
        data_type: 1
        raw_data: "\000\000\000@"
      }
      type: TENSOR
    }
  }
  node {
    input: "877"
    input: "878"
    output: "879"
    name: "Pow_497"
    op_type: "Pow"
  }
  node {
    input: "879"
    output: "880"
    name: "ReduceMean_498"
    op_type: "ReduceMean"
    attribute {
      name: "axes"
      ints: -1
      type: INTS
    }
    attribute {
      name: "keepdims"
      i: 1
      type: INT
    }
  }
  node {
    output: "881"
    name: "Constant_499"
    op_type: "Constant"
    attribute {
      name: "value"
      t {
        data_type: 1
        raw_data: "\2757\2065"
      }
      type: TENSOR
    }
  }
  node {
    input: "880"
    input: "881"
    output: "882"
    name: "Add_500"
    op_type: "Add"
  }
  node {
    input: "882"
    output: "883"
    name: "Sqrt_501"
    op_type: "Sqrt"
  }
  node {
    input: "877"
    input: "883"
    output: "884"
    name: "Div_502"
    op_type: "Div"
  }
  node {
    input: "decoder.block.4.layer.0.layer_norm.weight"
    input: "884"
    output: "885"
    name: "Mul_503"
    op_type: "Mul"
  }
  node {
    input: "885"
    output: "886"
    name: "Shape_504"
    op_type: "Shape"
  }
  node {
    output: "887"
    name: "Constant_505"
    op_type: "Constant"
    attribute {
      name: "value"
      t {
        data_type: 7
        raw_data: "\000\000\000\000\000\000\000\000"
      }
      type: TENSOR
    }
  }
  node {
    input: "886"
    input: "887"
    output: "888"
    name: "Gather_506"
    op_type: "Gather"
    attribute {
      name: "axis"
      i: 0
      type: INT
    }
  }
  node {
    input: "885"
    input: "2164"
    output: "890"
    name: "MatMul_507"
    op_type: "MatMul"
  }
  node {
    input: "888"
    output: "894"
    name: "Unsqueeze_508"
    op_type: "Unsqueeze"
    attribute {
      name: "axes"
      ints: 0
      type: INTS
    }
  }
  node {
    input: "894"
    input: "2165"
    input: "2166"
    input: "2167"
    output: "898"
    name: "Concat_509"
    op_type: "Concat"
    attribute {
      name: "axis"
      i: 0
      type: INT
    }
  }
  node {
    input: "890"
    input: "898"
    output: "899"
    name: "Reshape_510"
    op_type: "Reshape"
  }
  node {
    input: "899"
    output: "900"
    name: "Transpose_511"
    op_type: "Transpose"
    attribute {
      name: "perm"
      ints: 0
      ints: 2
      ints: 1
      ints: 3
      type: INTS
    }
  }
  node {
    input: "885"
    input: "2168"
    output: "902"
    name: "MatMul_512"
    op_type: "MatMul"
  }
  node {
    input: "888"
    output: "906"
    name: "Unsqueeze_513"
    op_type: "Unsqueeze"
    attribute {
      name: "axes"
      ints: 0
      type: INTS
    }
  }
  node {
    input: "906"
    input: "2169"
    input: "2170"
    input: "2171"
    output: "910"
    name: "Concat_514"
    op_type: "Concat"
    attribute {
      name: "axis"
      i: 0
      type: INT
    }
  }
  node {
    input: "902"
    input: "910"
    output: "911"
    name: "Reshape_515"
    op_type: "Reshape"
  }
  node {
    input: "885"
    input: "2172"
    output: "913"
    name: "MatMul_516"
    op_type: "MatMul"
  }
  node {
    input: "888"
    output: "917"
    name: "Unsqueeze_517"
    op_type: "Unsqueeze"
    attribute {
      name: "axes"
      ints: 0
      type: INTS
    }
  }
  node {
    input: "917"
    input: "2173"
    input: "2174"
    input: "2175"
    output: "921"
    name: "Concat_518"
    op_type: "Concat"
    attribute {
      name: "axis"
      i: 0
      type: INT
    }
  }
  node {
    input: "913"
    input: "921"
    output: "922"
    name: "Reshape_519"
    op_type: "Reshape"
  }
  node {
    input: "922"
    output: "923"
    name: "Transpose_520"
    op_type: "Transpose"
    attribute {
      name: "perm"
      ints: 0
      ints: 2
      ints: 1
      ints: 3
      type: INTS
    }
  }
  node {
    input: "911"
    output: "924"
    name: "Transpose_521"
    op_type: "Transpose"
    attribute {
      name: "perm"
      ints: 0
      ints: 2
      ints: 3
      ints: 1
      type: INTS
    }
  }
  node {
    input: "900"
    input: "924"
    output: "925"
    name: "MatMul_522"
    op_type: "MatMul"
  }
  node {
    input: "925"
    input: "308"
    output: "926"
    name: "Add_523"
    op_type: "Add"
  }
  node {
    input: "926"
    output: "927"
    name: "Cast_524"
    op_type: "Cast"
    attribute {
      name: "to"
      i: 1
      type: INT
    }
  }
  node {
    input: "927"
    output: "928"
    name: "Softmax_525"
    op_type: "Softmax"
    attribute {
      name: "axis"
      i: 3
      type: INT
    }
  }
  node {
    input: "928"
    input: "923"
    output: "929"
    name: "MatMul_526"
    op_type: "MatMul"
  }
  node {
    input: "929"
    output: "930"
    name: "Transpose_527"
    op_type: "Transpose"
    attribute {
      name: "perm"
      ints: 0
      ints: 2
      ints: 1
      ints: 3
      type: INTS
    }
  }
  node {
    input: "888"
    output: "933"
    name: "Unsqueeze_528"
    op_type: "Unsqueeze"
    attribute {
      name: "axes"
      ints: 0
      type: INTS
    }
  }
  node {
    input: "933"
    input: "2176"
    input: "2177"
    output: "936"
    name: "Concat_529"
    op_type: "Concat"
    attribute {
      name: "axis"
      i: 0
      type: INT
    }
  }
  node {
    input: "930"
    input: "936"
    output: "937"
    name: "Reshape_530"
    op_type: "Reshape"
  }
  node {
    input: "937"
    input: "2178"
    output: "939"
    name: "MatMul_531"
    op_type: "MatMul"
  }
  node {
    input: "877"
    input: "939"
    output: "940"
    name: "Add_532"
    op_type: "Add"
  }
  node {
    input: "940"
    output: "941"
    name: "Cast_533"
    op_type: "Cast"
    attribute {
      name: "to"
      i: 1
      type: INT
    }
  }
  node {
    output: "942"
    name: "Constant_534"
    op_type: "Constant"
    attribute {
      name: "value"
      t {
        data_type: 1
        raw_data: "\000\000\000@"
      }
      type: TENSOR
    }
  }
  node {
    input: "941"
    input: "942"
    output: "943"
    name: "Pow_535"
    op_type: "Pow"
  }
  node {
    input: "943"
    output: "944"
    name: "ReduceMean_536"
    op_type: "ReduceMean"
    attribute {
      name: "axes"
      ints: -1
      type: INTS
    }
    attribute {
      name: "keepdims"
      i: 1
      type: INT
    }
  }
  node {
    output: "945"
    name: "Constant_537"
    op_type: "Constant"
    attribute {
      name: "value"
      t {
        data_type: 1
        raw_data: "\2757\2065"
      }
      type: TENSOR
    }
  }
  node {
    input: "944"
    input: "945"
    output: "946"
    name: "Add_538"
    op_type: "Add"
  }
  node {
    input: "946"
    output: "947"
    name: "Sqrt_539"
    op_type: "Sqrt"
  }
  node {
    input: "941"
    input: "947"
    output: "948"
    name: "Div_540"
    op_type: "Div"
  }
  node {
    input: "decoder.block.4.layer.1.layer_norm.weight"
    input: "948"
    output: "949"
    name: "Mul_541"
    op_type: "Mul"
  }
  node {
    input: "949"
    output: "950"
    name: "Shape_542"
    op_type: "Shape"
  }
  node {
    output: "951"
    name: "Constant_543"
    op_type: "Constant"
    attribute {
      name: "value"
      t {
        data_type: 7
        raw_data: "\000\000\000\000\000\000\000\000"
      }
      type: TENSOR
    }
  }
  node {
    input: "950"
    input: "951"
    output: "952"
    name: "Gather_544"
    op_type: "Gather"
    attribute {
      name: "axis"
      i: 0
      type: INT
    }
  }
  node {
    input: "949"
    input: "2179"
    output: "954"
    name: "MatMul_545"
    op_type: "MatMul"
  }
  node {
    input: "952"
    output: "958"
    name: "Unsqueeze_546"
    op_type: "Unsqueeze"
    attribute {
      name: "axes"
      ints: 0
      type: INTS
    }
  }
  node {
    input: "958"
    input: "2180"
    input: "2181"
    input: "2182"
    output: "962"
    name: "Concat_547"
    op_type: "Concat"
    attribute {
      name: "axis"
      i: 0
      type: INT
    }
  }
  node {
    input: "954"
    input: "962"
    output: "963"
    name: "Reshape_548"
    op_type: "Reshape"
  }
  node {
    input: "963"
    output: "964"
    name: "Transpose_549"
    op_type: "Transpose"
    attribute {
      name: "perm"
      ints: 0
      ints: 2
      ints: 1
      ints: 3
      type: INTS
    }
  }
  node {
    input: "encoder_hidden_states"
    input: "2183"
    output: "966"
    name: "MatMul_550"
    op_type: "MatMul"
  }
  node {
    input: "952"
    output: "970"
    name: "Unsqueeze_551"
    op_type: "Unsqueeze"
    attribute {
      name: "axes"
      ints: 0
      type: INTS
    }
  }
  node {
    input: "970"
    input: "2184"
    input: "2185"
    input: "2186"
    output: "974"
    name: "Concat_552"
    op_type: "Concat"
    attribute {
      name: "axis"
      i: 0
      type: INT
    }
  }
  node {
    input: "966"
    input: "974"
    output: "975"
    name: "Reshape_553"
    op_type: "Reshape"
  }
  node {
    input: "encoder_hidden_states"
    input: "2187"
    output: "977"
    name: "MatMul_554"
    op_type: "MatMul"
  }
  node {
    input: "952"
    output: "981"
    name: "Unsqueeze_555"
    op_type: "Unsqueeze"
    attribute {
      name: "axes"
      ints: 0
      type: INTS
    }
  }
  node {
    input: "981"
    input: "2188"
    input: "2189"
    input: "2190"
    output: "985"
    name: "Concat_556"
    op_type: "Concat"
    attribute {
      name: "axis"
      i: 0
      type: INT
    }
  }
  node {
    input: "977"
    input: "985"
    output: "986"
    name: "Reshape_557"
    op_type: "Reshape"
  }
  node {
    input: "986"
    output: "987"
    name: "Transpose_558"
    op_type: "Transpose"
    attribute {
      name: "perm"
      ints: 0
      ints: 2
      ints: 1
      ints: 3
      type: INTS
    }
  }
  node {
    input: "975"
    output: "988"
    name: "Transpose_559"
    op_type: "Transpose"
    attribute {
      name: "perm"
      ints: 0
      ints: 2
      ints: 3
      ints: 1
      type: INTS
    }
  }
  node {
    input: "964"
    input: "988"
    output: "989"
    name: "MatMul_560"
    op_type: "MatMul"
  }
  node {
    input: "989"
    input: "417"
    output: "990"
    name: "Add_561"
    op_type: "Add"
  }
  node {
    input: "990"
    output: "991"
    name: "Cast_562"
    op_type: "Cast"
    attribute {
      name: "to"
      i: 1
      type: INT
    }
  }
  node {
    input: "991"
    output: "992"
    name: "Softmax_563"
    op_type: "Softmax"
    attribute {
      name: "axis"
      i: 3
      type: INT
    }
  }
  node {
    input: "992"
    input: "987"
    output: "993"
    name: "MatMul_564"
    op_type: "MatMul"
  }
  node {
    input: "993"
    output: "994"
    name: "Transpose_565"
    op_type: "Transpose"
    attribute {
      name: "perm"
      ints: 0
      ints: 2
      ints: 1
      ints: 3
      type: INTS
    }
  }
  node {
    input: "952"
    output: "997"
    name: "Unsqueeze_566"
    op_type: "Unsqueeze"
    attribute {
      name: "axes"
      ints: 0
      type: INTS
    }
  }
  node {
    input: "997"
    input: "2191"
    input: "2192"
    output: "1000"
    name: "Concat_567"
    op_type: "Concat"
    attribute {
      name: "axis"
      i: 0
      type: INT
    }
  }
  node {
    input: "994"
    input: "1000"
    output: "1001"
    name: "Reshape_568"
    op_type: "Reshape"
  }
  node {
    input: "1001"
    input: "2193"
    output: "1003"
    name: "MatMul_569"
    op_type: "MatMul"
  }
  node {
    input: "941"
    input: "1003"
    output: "1004"
    name: "Add_570"
    op_type: "Add"
  }
  node {
    input: "1004"
    output: "1005"
    name: "Cast_571"
    op_type: "Cast"
    attribute {
      name: "to"
      i: 1
      type: INT
    }
  }
  node {
    output: "1006"
    name: "Constant_572"
    op_type: "Constant"
    attribute {
      name: "value"
      t {
        data_type: 1
        raw_data: "\000\000\000@"
      }
      type: TENSOR
    }
  }
  node {
    input: "1005"
    input: "1006"
    output: "1007"
    name: "Pow_573"
    op_type: "Pow"
  }
  node {
    input: "1007"
    output: "1008"
    name: "ReduceMean_574"
    op_type: "ReduceMean"
    attribute {
      name: "axes"
      ints: -1
      type: INTS
    }
    attribute {
      name: "keepdims"
      i: 1
      type: INT
    }
  }
  node {
    output: "1009"
    name: "Constant_575"
    op_type: "Constant"
    attribute {
      name: "value"
      t {
        data_type: 1
        raw_data: "\2757\2065"
      }
      type: TENSOR
    }
  }
  node {
    input: "1008"
    input: "1009"
    output: "1010"
    name: "Add_576"
    op_type: "Add"
  }
  node {
    input: "1010"
    output: "1011"
    name: "Sqrt_577"
    op_type: "Sqrt"
  }
  node {
    input: "1005"
    input: "1011"
    output: "1012"
    name: "Div_578"
    op_type: "Div"
  }
  node {
    input: "decoder.block.4.layer.2.layer_norm.weight"
    input: "1012"
    output: "1013"
    name: "Mul_579"
    op_type: "Mul"
  }
  node {
    input: "1013"
    input: "2194"
    output: "1015"
    name: "MatMul_580"
    op_type: "MatMul"
  }
  node {
    input: "1015"
    output: "1016"
    name: "Relu_581"
    op_type: "Relu"
  }
  node {
    input: "1016"
    input: "2195"
    output: "1018"
    name: "MatMul_582"
    op_type: "MatMul"
  }
  node {
    input: "1005"
    input: "1018"
    output: "1019"
    name: "Add_583"
    op_type: "Add"
  }
  node {
    input: "1019"
    output: "1020"
    name: "Cast_584"
    op_type: "Cast"
    attribute {
      name: "to"
      i: 1
      type: INT
    }
  }
  node {
    output: "1021"
    name: "Constant_585"
    op_type: "Constant"
    attribute {
      name: "value"
      t {
        data_type: 1
        raw_data: "\000\000\000@"
      }
      type: TENSOR
    }
  }
  node {
    input: "1020"
    input: "1021"
    output: "1022"
    name: "Pow_586"
    op_type: "Pow"
  }
  node {
    input: "1022"
    output: "1023"
    name: "ReduceMean_587"
    op_type: "ReduceMean"
    attribute {
      name: "axes"
      ints: -1
      type: INTS
    }
    attribute {
      name: "keepdims"
      i: 1
      type: INT
    }
  }
  node {
    output: "1024"
    name: "Constant_588"
    op_type: "Constant"
    attribute {
      name: "value"
      t {
        data_type: 1
        raw_data: "\2757\2065"
      }
      type: TENSOR
    }
  }
  node {
    input: "1023"
    input: "1024"
    output: "1025"
    name: "Add_589"
    op_type: "Add"
  }
  node {
    input: "1025"
    output: "1026"
    name: "Sqrt_590"
    op_type: "Sqrt"
  }
  node {
    input: "1020"
    input: "1026"
    output: "1027"
    name: "Div_591"
    op_type: "Div"
  }
  node {
    input: "decoder.block.5.layer.0.layer_norm.weight"
    input: "1027"
    output: "1028"
    name: "Mul_592"
    op_type: "Mul"
  }
  node {
    input: "1028"
    output: "1029"
    name: "Shape_593"
    op_type: "Shape"
  }
  node {
    output: "1030"
    name: "Constant_594"
    op_type: "Constant"
    attribute {
      name: "value"
      t {
        data_type: 7
        raw_data: "\000\000\000\000\000\000\000\000"
      }
      type: TENSOR
    }
  }
  node {
    input: "1029"
    input: "1030"
    output: "1031"
    name: "Gather_595"
    op_type: "Gather"
    attribute {
      name: "axis"
      i: 0
      type: INT
    }
  }
  node {
    input: "1028"
    input: "2196"
    output: "1033"
    name: "MatMul_596"
    op_type: "MatMul"
  }
  node {
    input: "1031"
    output: "1037"
    name: "Unsqueeze_597"
    op_type: "Unsqueeze"
    attribute {
      name: "axes"
      ints: 0
      type: INTS
    }
  }
  node {
    input: "1037"
    input: "2197"
    input: "2198"
    input: "2199"
    output: "1041"
    name: "Concat_598"
    op_type: "Concat"
    attribute {
      name: "axis"
      i: 0
      type: INT
    }
  }
  node {
    input: "1033"
    input: "1041"
    output: "1042"
    name: "Reshape_599"
    op_type: "Reshape"
  }
  node {
    input: "1042"
    output: "1043"
    name: "Transpose_600"
    op_type: "Transpose"
    attribute {
      name: "perm"
      ints: 0
      ints: 2
      ints: 1
      ints: 3
      type: INTS
    }
  }
  node {
    input: "1028"
    input: "2200"
    output: "1045"
    name: "MatMul_601"
    op_type: "MatMul"
  }
  node {
    input: "1031"
    output: "1049"
    name: "Unsqueeze_602"
    op_type: "Unsqueeze"
    attribute {
      name: "axes"
      ints: 0
      type: INTS
    }
  }
  node {
    input: "1049"
    input: "2201"
    input: "2202"
    input: "2203"
    output: "1053"
    name: "Concat_603"
    op_type: "Concat"
    attribute {
      name: "axis"
      i: 0
      type: INT
    }
  }
  node {
    input: "1045"
    input: "1053"
    output: "1054"
    name: "Reshape_604"
    op_type: "Reshape"
  }
  node {
    input: "1028"
    input: "2204"
    output: "1056"
    name: "MatMul_605"
    op_type: "MatMul"
  }
  node {
    input: "1031"
    output: "1060"
    name: "Unsqueeze_606"
    op_type: "Unsqueeze"
    attribute {
      name: "axes"
      ints: 0
      type: INTS
    }
  }
  node {
    input: "1060"
    input: "2205"
    input: "2206"
    input: "2207"
    output: "1064"
    name: "Concat_607"
    op_type: "Concat"
    attribute {
      name: "axis"
      i: 0
      type: INT
    }
  }
  node {
    input: "1056"
    input: "1064"
    output: "1065"
    name: "Reshape_608"
    op_type: "Reshape"
  }
  node {
    input: "1065"
    output: "1066"
    name: "Transpose_609"
    op_type: "Transpose"
    attribute {
      name: "perm"
      ints: 0
      ints: 2
      ints: 1
      ints: 3
      type: INTS
    }
  }
  node {
    input: "1054"
    output: "1067"
    name: "Transpose_610"
    op_type: "Transpose"
    attribute {
      name: "perm"
      ints: 0
      ints: 2
      ints: 3
      ints: 1
      type: INTS
    }
  }
  node {
    input: "1043"
    input: "1067"
    output: "1068"
    name: "MatMul_611"
    op_type: "MatMul"
  }
  node {
    input: "1068"
    input: "308"
    output: "1069"
    name: "Add_612"
    op_type: "Add"
  }
  node {
    input: "1069"
    output: "1070"
    name: "Cast_613"
    op_type: "Cast"
    attribute {
      name: "to"
      i: 1
      type: INT
    }
  }
  node {
    input: "1070"
    output: "1071"
    name: "Softmax_614"
    op_type: "Softmax"
    attribute {
      name: "axis"
      i: 3
      type: INT
    }
  }
  node {
    input: "1071"
    input: "1066"
    output: "1072"
    name: "MatMul_615"
    op_type: "MatMul"
  }
  node {
    input: "1072"
    output: "1073"
    name: "Transpose_616"
    op_type: "Transpose"
    attribute {
      name: "perm"
      ints: 0
      ints: 2
      ints: 1
      ints: 3
      type: INTS
    }
  }
  node {
    input: "1031"
    output: "1076"
    name: "Unsqueeze_617"
    op_type: "Unsqueeze"
    attribute {
      name: "axes"
      ints: 0
      type: INTS
    }
  }
  node {
    input: "1076"
    input: "2208"
    input: "2209"
    output: "1079"
    name: "Concat_618"
    op_type: "Concat"
    attribute {
      name: "axis"
      i: 0
      type: INT
    }
  }
  node {
    input: "1073"
    input: "1079"
    output: "1080"
    name: "Reshape_619"
    op_type: "Reshape"
  }
  node {
    input: "1080"
    input: "2210"
    output: "1082"
    name: "MatMul_620"
    op_type: "MatMul"
  }
  node {
    input: "1020"
    input: "1082"
    output: "1083"
    name: "Add_621"
    op_type: "Add"
  }
  node {
    input: "1083"
    output: "1084"
    name: "Cast_622"
    op_type: "Cast"
    attribute {
      name: "to"
      i: 1
      type: INT
    }
  }
  node {
    output: "1085"
    name: "Constant_623"
    op_type: "Constant"
    attribute {
      name: "value"
      t {
        data_type: 1
        raw_data: "\000\000\000@"
      }
      type: TENSOR
    }
  }
  node {
    input: "1084"
    input: "1085"
    output: "1086"
    name: "Pow_624"
    op_type: "Pow"
  }
  node {
    input: "1086"
    output: "1087"
    name: "ReduceMean_625"
    op_type: "ReduceMean"
    attribute {
      name: "axes"
      ints: -1
      type: INTS
    }
    attribute {
      name: "keepdims"
      i: 1
      type: INT
    }
  }
  node {
    output: "1088"
    name: "Constant_626"
    op_type: "Constant"
    attribute {
      name: "value"
      t {
        data_type: 1
        raw_data: "\2757\2065"
      }
      type: TENSOR
    }
  }
  node {
    input: "1087"
    input: "1088"
    output: "1089"
    name: "Add_627"
    op_type: "Add"
  }
  node {
    input: "1089"
    output: "1090"
    name: "Sqrt_628"
    op_type: "Sqrt"
  }
  node {
    input: "1084"
    input: "1090"
    output: "1091"
    name: "Div_629"
    op_type: "Div"
  }
  node {
    input: "decoder.block.5.layer.1.layer_norm.weight"
    input: "1091"
    output: "1092"
    name: "Mul_630"
    op_type: "Mul"
  }
  node {
    input: "1092"
    output: "1093"
    name: "Shape_631"
    op_type: "Shape"
  }
  node {
    output: "1094"
    name: "Constant_632"
    op_type: "Constant"
    attribute {
      name: "value"
      t {
        data_type: 7
        raw_data: "\000\000\000\000\000\000\000\000"
      }
      type: TENSOR
    }
  }
  node {
    input: "1093"
    input: "1094"
    output: "1095"
    name: "Gather_633"
    op_type: "Gather"
    attribute {
      name: "axis"
      i: 0
      type: INT
    }
  }
  node {
    input: "1092"
    input: "2211"
    output: "1097"
    name: "MatMul_634"
    op_type: "MatMul"
  }
  node {
    input: "1095"
    output: "1101"
    name: "Unsqueeze_635"
    op_type: "Unsqueeze"
    attribute {
      name: "axes"
      ints: 0
      type: INTS
    }
  }
  node {
    input: "1101"
    input: "2212"
    input: "2213"
    input: "2214"
    output: "1105"
    name: "Concat_636"
    op_type: "Concat"
    attribute {
      name: "axis"
      i: 0
      type: INT
    }
  }
  node {
    input: "1097"
    input: "1105"
    output: "1106"
    name: "Reshape_637"
    op_type: "Reshape"
  }
  node {
    input: "1106"
    output: "1107"
    name: "Transpose_638"
    op_type: "Transpose"
    attribute {
      name: "perm"
      ints: 0
      ints: 2
      ints: 1
      ints: 3
      type: INTS
    }
  }
  node {
    input: "encoder_hidden_states"
    input: "2215"
    output: "1109"
    name: "MatMul_639"
    op_type: "MatMul"
  }
  node {
    input: "1095"
    output: "1113"
    name: "Unsqueeze_640"
    op_type: "Unsqueeze"
    attribute {
      name: "axes"
      ints: 0
      type: INTS
    }
  }
  node {
    input: "1113"
    input: "2216"
    input: "2217"
    input: "2218"
    output: "1117"
    name: "Concat_641"
    op_type: "Concat"
    attribute {
      name: "axis"
      i: 0
      type: INT
    }
  }
  node {
    input: "1109"
    input: "1117"
    output: "1118"
    name: "Reshape_642"
    op_type: "Reshape"
  }
  node {
    input: "encoder_hidden_states"
    input: "2219"
    output: "1120"
    name: "MatMul_643"
    op_type: "MatMul"
  }
  node {
    input: "1095"
    output: "1124"
    name: "Unsqueeze_644"
    op_type: "Unsqueeze"
    attribute {
      name: "axes"
      ints: 0
      type: INTS
    }
  }
  node {
    input: "1124"
    input: "2220"
    input: "2221"
    input: "2222"
    output: "1128"
    name: "Concat_645"
    op_type: "Concat"
    attribute {
      name: "axis"
      i: 0
      type: INT
    }
  }
  node {
    input: "1120"
    input: "1128"
    output: "1129"
    name: "Reshape_646"
    op_type: "Reshape"
  }
  node {
    input: "1129"
    output: "1130"
    name: "Transpose_647"
    op_type: "Transpose"
    attribute {
      name: "perm"
      ints: 0
      ints: 2
      ints: 1
      ints: 3
      type: INTS
    }
  }
  node {
    input: "1118"
    output: "1131"
    name: "Transpose_648"
    op_type: "Transpose"
    attribute {
      name: "perm"
      ints: 0
      ints: 2
      ints: 3
      ints: 1
      type: INTS
    }
  }
  node {
    input: "1107"
    input: "1131"
    output: "1132"
    name: "MatMul_649"
    op_type: "MatMul"
  }
  node {
    input: "1132"
    input: "417"
    output: "1133"
    name: "Add_650"
    op_type: "Add"
  }
  node {
    input: "1133"
    output: "1134"
    name: "Cast_651"
    op_type: "Cast"
    attribute {
      name: "to"
      i: 1
      type: INT
    }
  }
  node {
    input: "1134"
    output: "1135"
    name: "Softmax_652"
    op_type: "Softmax"
    attribute {
      name: "axis"
      i: 3
      type: INT
    }
  }
  node {
    input: "1135"
    input: "1130"
    output: "1136"
    name: "MatMul_653"
    op_type: "MatMul"
  }
  node {
    input: "1136"
    output: "1137"
    name: "Transpose_654"
    op_type: "Transpose"
    attribute {
      name: "perm"
      ints: 0
      ints: 2
      ints: 1
      ints: 3
      type: INTS
    }
  }
  node {
    input: "1095"
    output: "1140"
    name: "Unsqueeze_655"
    op_type: "Unsqueeze"
    attribute {
      name: "axes"
      ints: 0
      type: INTS
    }
  }
  node {
    input: "1140"
    input: "2223"
    input: "2224"
    output: "1143"
    name: "Concat_656"
    op_type: "Concat"
    attribute {
      name: "axis"
      i: 0
      type: INT
    }
  }
  node {
    input: "1137"
    input: "1143"
    output: "1144"
    name: "Reshape_657"
    op_type: "Reshape"
  }
  node {
    input: "1144"
    input: "2225"
    output: "1146"
    name: "MatMul_658"
    op_type: "MatMul"
  }
  node {
    input: "1084"
    input: "1146"
    output: "1147"
    name: "Add_659"
    op_type: "Add"
  }
  node {
    input: "1147"
    output: "1148"
    name: "Cast_660"
    op_type: "Cast"
    attribute {
      name: "to"
      i: 1
      type: INT
    }
  }
  node {
    output: "1149"
    name: "Constant_661"
    op_type: "Constant"
    attribute {
      name: "value"
      t {
        data_type: 1
        raw_data: "\000\000\000@"
      }
      type: TENSOR
    }
  }
  node {
    input: "1148"
    input: "1149"
    output: "1150"
    name: "Pow_662"
    op_type: "Pow"
  }
  node {
    input: "1150"
    output: "1151"
    name: "ReduceMean_663"
    op_type: "ReduceMean"
    attribute {
      name: "axes"
      ints: -1
      type: INTS
    }
    attribute {
      name: "keepdims"
      i: 1
      type: INT
    }
  }
  node {
    output: "1152"
    name: "Constant_664"
    op_type: "Constant"
    attribute {
      name: "value"
      t {
        data_type: 1
        raw_data: "\2757\2065"
      }
      type: TENSOR
    }
  }
  node {
    input: "1151"
    input: "1152"
    output: "1153"
    name: "Add_665"
    op_type: "Add"
  }
  node {
    input: "1153"
    output: "1154"
    name: "Sqrt_666"
    op_type: "Sqrt"
  }
  node {
    input: "1148"
    input: "1154"
    output: "1155"
    name: "Div_667"
    op_type: "Div"
  }
  node {
    input: "decoder.block.5.layer.2.layer_norm.weight"
    input: "1155"
    output: "1156"
    name: "Mul_668"
    op_type: "Mul"
  }
  node {
    input: "1156"
    input: "2226"
    output: "1158"
    name: "MatMul_669"
    op_type: "MatMul"
  }
  node {
    input: "1158"
    output: "1159"
    name: "Relu_670"
    op_type: "Relu"
  }
  node {
    input: "1159"
    input: "2227"
    output: "1161"
    name: "MatMul_671"
    op_type: "MatMul"
  }
  node {
    input: "1148"
    input: "1161"
    output: "1162"
    name: "Add_672"
    op_type: "Add"
  }
  node {
    input: "1162"
    output: "1163"
    name: "Cast_673"
    op_type: "Cast"
    attribute {
      name: "to"
      i: 1
      type: INT
    }
  }
  node {
    output: "1164"
    name: "Constant_674"
    op_type: "Constant"
    attribute {
      name: "value"
      t {
        data_type: 1
        raw_data: "\000\000\000@"
      }
      type: TENSOR
    }
  }
  node {
    input: "1163"
    input: "1164"
    output: "1165"
    name: "Pow_675"
    op_type: "Pow"
  }
  node {
    input: "1165"
    output: "1166"
    name: "ReduceMean_676"
    op_type: "ReduceMean"
    attribute {
      name: "axes"
      ints: -1
      type: INTS
    }
    attribute {
      name: "keepdims"
      i: 1
      type: INT
    }
  }
  node {
    output: "1167"
    name: "Constant_677"
    op_type: "Constant"
    attribute {
      name: "value"
      t {
        data_type: 1
        raw_data: "\2757\2065"
      }
      type: TENSOR
    }
  }
  node {
    input: "1166"
    input: "1167"
    output: "1168"
    name: "Add_678"
    op_type: "Add"
  }
  node {
    input: "1168"
    output: "1169"
    name: "Sqrt_679"
    op_type: "Sqrt"
  }
  node {
    input: "1163"
    input: "1169"
    output: "1170"
    name: "Div_680"
    op_type: "Div"
  }
  node {
    input: "decoder.block.6.layer.0.layer_norm.weight"
    input: "1170"
    output: "1171"
    name: "Mul_681"
    op_type: "Mul"
  }
  node {
    input: "1171"
    output: "1172"
    name: "Shape_682"
    op_type: "Shape"
  }
  node {
    output: "1173"
    name: "Constant_683"
    op_type: "Constant"
    attribute {
      name: "value"
      t {
        data_type: 7
        raw_data: "\000\000\000\000\000\000\000\000"
      }
      type: TENSOR
    }
  }
  node {
    input: "1172"
    input: "1173"
    output: "1174"
    name: "Gather_684"
    op_type: "Gather"
    attribute {
      name: "axis"
      i: 0
      type: INT
    }
  }
  node {
    input: "1171"
    input: "2228"
    output: "1176"
    name: "MatMul_685"
    op_type: "MatMul"
  }
  node {
    input: "1174"
    output: "1180"
    name: "Unsqueeze_686"
    op_type: "Unsqueeze"
    attribute {
      name: "axes"
      ints: 0
      type: INTS
    }
  }
  node {
    input: "1180"
    input: "2229"
    input: "2230"
    input: "2231"
    output: "1184"
    name: "Concat_687"
    op_type: "Concat"
    attribute {
      name: "axis"
      i: 0
      type: INT
    }
  }
  node {
    input: "1176"
    input: "1184"
    output: "1185"
    name: "Reshape_688"
    op_type: "Reshape"
  }
  node {
    input: "1185"
    output: "1186"
    name: "Transpose_689"
    op_type: "Transpose"
    attribute {
      name: "perm"
      ints: 0
      ints: 2
      ints: 1
      ints: 3
      type: INTS
    }
  }
  node {
    input: "1171"
    input: "2232"
    output: "1188"
    name: "MatMul_690"
    op_type: "MatMul"
  }
  node {
    input: "1174"
    output: "1192"
    name: "Unsqueeze_691"
    op_type: "Unsqueeze"
    attribute {
      name: "axes"
      ints: 0
      type: INTS
    }
  }
  node {
    input: "1192"
    input: "2233"
    input: "2234"
    input: "2235"
    output: "1196"
    name: "Concat_692"
    op_type: "Concat"
    attribute {
      name: "axis"
      i: 0
      type: INT
    }
  }
  node {
    input: "1188"
    input: "1196"
    output: "1197"
    name: "Reshape_693"
    op_type: "Reshape"
  }
  node {
    input: "1171"
    input: "2236"
    output: "1199"
    name: "MatMul_694"
    op_type: "MatMul"
  }
  node {
    input: "1174"
    output: "1203"
    name: "Unsqueeze_695"
    op_type: "Unsqueeze"
    attribute {
      name: "axes"
      ints: 0
      type: INTS
    }
  }
  node {
    input: "1203"
    input: "2237"
    input: "2238"
    input: "2239"
    output: "1207"
    name: "Concat_696"
    op_type: "Concat"
    attribute {
      name: "axis"
      i: 0
      type: INT
    }
  }
  node {
    input: "1199"
    input: "1207"
    output: "1208"
    name: "Reshape_697"
    op_type: "Reshape"
  }
  node {
    input: "1208"
    output: "1209"
    name: "Transpose_698"
    op_type: "Transpose"
    attribute {
      name: "perm"
      ints: 0
      ints: 2
      ints: 1
      ints: 3
      type: INTS
    }
  }
  node {
    input: "1197"
    output: "1210"
    name: "Transpose_699"
    op_type: "Transpose"
    attribute {
      name: "perm"
      ints: 0
      ints: 2
      ints: 3
      ints: 1
      type: INTS
    }
  }
  node {
    input: "1186"
    input: "1210"
    output: "1211"
    name: "MatMul_700"
    op_type: "MatMul"
  }
  node {
    input: "1211"
    input: "308"
    output: "1212"
    name: "Add_701"
    op_type: "Add"
  }
  node {
    input: "1212"
    output: "1213"
    name: "Cast_702"
    op_type: "Cast"
    attribute {
      name: "to"
      i: 1
      type: INT
    }
  }
  node {
    input: "1213"
    output: "1214"
    name: "Softmax_703"
    op_type: "Softmax"
    attribute {
      name: "axis"
      i: 3
      type: INT
    }
  }
  node {
    input: "1214"
    input: "1209"
    output: "1215"
    name: "MatMul_704"
    op_type: "MatMul"
  }
  node {
    input: "1215"
    output: "1216"
    name: "Transpose_705"
    op_type: "Transpose"
    attribute {
      name: "perm"
      ints: 0
      ints: 2
      ints: 1
      ints: 3
      type: INTS
    }
  }
  node {
    input: "1174"
    output: "1219"
    name: "Unsqueeze_706"
    op_type: "Unsqueeze"
    attribute {
      name: "axes"
      ints: 0
      type: INTS
    }
  }
  node {
    input: "1219"
    input: "2240"
    input: "2241"
    output: "1222"
    name: "Concat_707"
    op_type: "Concat"
    attribute {
      name: "axis"
      i: 0
      type: INT
    }
  }
  node {
    input: "1216"
    input: "1222"
    output: "1223"
    name: "Reshape_708"
    op_type: "Reshape"
  }
  node {
    input: "1223"
    input: "2242"
    output: "1225"
    name: "MatMul_709"
    op_type: "MatMul"
  }
  node {
    input: "1163"
    input: "1225"
    output: "1226"
    name: "Add_710"
    op_type: "Add"
  }
  node {
    input: "1226"
    output: "1227"
    name: "Cast_711"
    op_type: "Cast"
    attribute {
      name: "to"
      i: 1
      type: INT
    }
  }
  node {
    output: "1228"
    name: "Constant_712"
    op_type: "Constant"
    attribute {
      name: "value"
      t {
        data_type: 1
        raw_data: "\000\000\000@"
      }
      type: TENSOR
    }
  }
  node {
    input: "1227"
    input: "1228"
    output: "1229"
    name: "Pow_713"
    op_type: "Pow"
  }
  node {
    input: "1229"
    output: "1230"
    name: "ReduceMean_714"
    op_type: "ReduceMean"
    attribute {
      name: "axes"
      ints: -1
      type: INTS
    }
    attribute {
      name: "keepdims"
      i: 1
      type: INT
    }
  }
  node {
    output: "1231"
    name: "Constant_715"
    op_type: "Constant"
    attribute {
      name: "value"
      t {
        data_type: 1
        raw_data: "\2757\2065"
      }
      type: TENSOR
    }
  }
  node {
    input: "1230"
    input: "1231"
    output: "1232"
    name: "Add_716"
    op_type: "Add"
  }
  node {
    input: "1232"
    output: "1233"
    name: "Sqrt_717"
    op_type: "Sqrt"
  }
  node {
    input: "1227"
    input: "1233"
    output: "1234"
    name: "Div_718"
    op_type: "Div"
  }
  node {
    input: "decoder.block.6.layer.1.layer_norm.weight"
    input: "1234"
    output: "1235"
    name: "Mul_719"
    op_type: "Mul"
  }
  node {
    input: "1235"
    output: "1236"
    name: "Shape_720"
    op_type: "Shape"
  }
  node {
    output: "1237"
    name: "Constant_721"
    op_type: "Constant"
    attribute {
      name: "value"
      t {
        data_type: 7
        raw_data: "\000\000\000\000\000\000\000\000"
      }
      type: TENSOR
    }
  }
  node {
    input: "1236"
    input: "1237"
    output: "1238"
    name: "Gather_722"
    op_type: "Gather"
    attribute {
      name: "axis"
      i: 0
      type: INT
    }
  }
  node {
    input: "1235"
    input: "2243"
    output: "1240"
    name: "MatMul_723"
    op_type: "MatMul"
  }
  node {
    input: "1238"
    output: "1244"
    name: "Unsqueeze_724"
    op_type: "Unsqueeze"
    attribute {
      name: "axes"
      ints: 0
      type: INTS
    }
  }
  node {
    input: "1244"
    input: "2244"
    input: "2245"
    input: "2246"
    output: "1248"
    name: "Concat_725"
    op_type: "Concat"
    attribute {
      name: "axis"
      i: 0
      type: INT
    }
  }
  node {
    input: "1240"
    input: "1248"
    output: "1249"
    name: "Reshape_726"
    op_type: "Reshape"
  }
  node {
    input: "1249"
    output: "1250"
    name: "Transpose_727"
    op_type: "Transpose"
    attribute {
      name: "perm"
      ints: 0
      ints: 2
      ints: 1
      ints: 3
      type: INTS
    }
  }
  node {
    input: "encoder_hidden_states"
    input: "2247"
    output: "1252"
    name: "MatMul_728"
    op_type: "MatMul"
  }
  node {
    input: "1238"
    output: "1256"
    name: "Unsqueeze_729"
    op_type: "Unsqueeze"
    attribute {
      name: "axes"
      ints: 0
      type: INTS
    }
  }
  node {
    input: "1256"
    input: "2248"
    input: "2249"
    input: "2250"
    output: "1260"
    name: "Concat_730"
    op_type: "Concat"
    attribute {
      name: "axis"
      i: 0
      type: INT
    }
  }
  node {
    input: "1252"
    input: "1260"
    output: "1261"
    name: "Reshape_731"
    op_type: "Reshape"
  }
  node {
    input: "encoder_hidden_states"
    input: "2251"
    output: "1263"
    name: "MatMul_732"
    op_type: "MatMul"
  }
  node {
    input: "1238"
    output: "1267"
    name: "Unsqueeze_733"
    op_type: "Unsqueeze"
    attribute {
      name: "axes"
      ints: 0
      type: INTS
    }
  }
  node {
    input: "1267"
    input: "2252"
    input: "2253"
    input: "2254"
    output: "1271"
    name: "Concat_734"
    op_type: "Concat"
    attribute {
      name: "axis"
      i: 0
      type: INT
    }
  }
  node {
    input: "1263"
    input: "1271"
    output: "1272"
    name: "Reshape_735"
    op_type: "Reshape"
  }
  node {
    input: "1272"
    output: "1273"
    name: "Transpose_736"
    op_type: "Transpose"
    attribute {
      name: "perm"
      ints: 0
      ints: 2
      ints: 1
      ints: 3
      type: INTS
    }
  }
  node {
    input: "1261"
    output: "1274"
    name: "Transpose_737"
    op_type: "Transpose"
    attribute {
      name: "perm"
      ints: 0
      ints: 2
      ints: 3
      ints: 1
      type: INTS
    }
  }
  node {
    input: "1250"
    input: "1274"
    output: "1275"
    name: "MatMul_738"
    op_type: "MatMul"
  }
  node {
    input: "1275"
    input: "417"
    output: "1276"
    name: "Add_739"
    op_type: "Add"
  }
  node {
    input: "1276"
    output: "1277"
    name: "Cast_740"
    op_type: "Cast"
    attribute {
      name: "to"
      i: 1
      type: INT
    }
  }
  node {
    input: "1277"
    output: "1278"
    name: "Softmax_741"
    op_type: "Softmax"
    attribute {
      name: "axis"
      i: 3
      type: INT
    }
  }
  node {
    input: "1278"
    input: "1273"
    output: "1279"
    name: "MatMul_742"
    op_type: "MatMul"
  }
  node {
    input: "1279"
    output: "1280"
    name: "Transpose_743"
    op_type: "Transpose"
    attribute {
      name: "perm"
      ints: 0
      ints: 2
      ints: 1
      ints: 3
      type: INTS
    }
  }
  node {
    input: "1238"
    output: "1283"
    name: "Unsqueeze_744"
    op_type: "Unsqueeze"
    attribute {
      name: "axes"
      ints: 0
      type: INTS
    }
  }
  node {
    input: "1283"
    input: "2255"
    input: "2256"
    output: "1286"
    name: "Concat_745"
    op_type: "Concat"
    attribute {
      name: "axis"
      i: 0
      type: INT
    }
  }
  node {
    input: "1280"
    input: "1286"
    output: "1287"
    name: "Reshape_746"
    op_type: "Reshape"
  }
  node {
    input: "1287"
    input: "2257"
    output: "1289"
    name: "MatMul_747"
    op_type: "MatMul"
  }
  node {
    input: "1227"
    input: "1289"
    output: "1290"
    name: "Add_748"
    op_type: "Add"
  }
  node {
    input: "1290"
    output: "1291"
    name: "Cast_749"
    op_type: "Cast"
    attribute {
      name: "to"
      i: 1
      type: INT
    }
  }
  node {
    output: "1292"
    name: "Constant_750"
    op_type: "Constant"
    attribute {
      name: "value"
      t {
        data_type: 1
        raw_data: "\000\000\000@"
      }
      type: TENSOR
    }
  }
  node {
    input: "1291"
    input: "1292"
    output: "1293"
    name: "Pow_751"
    op_type: "Pow"
  }
  node {
    input: "1293"
    output: "1294"
    name: "ReduceMean_752"
    op_type: "ReduceMean"
    attribute {
      name: "axes"
      ints: -1
      type: INTS
    }
    attribute {
      name: "keepdims"
      i: 1
      type: INT
    }
  }
  node {
    output: "1295"
    name: "Constant_753"
    op_type: "Constant"
    attribute {
      name: "value"
      t {
        data_type: 1
        raw_data: "\2757\2065"
      }
      type: TENSOR
    }
  }
  node {
    input: "1294"
    input: "1295"
    output: "1296"
    name: "Add_754"
    op_type: "Add"
  }
  node {
    input: "1296"
    output: "1297"
    name: "Sqrt_755"
    op_type: "Sqrt"
  }
  node {
    input: "1291"
    input: "1297"
    output: "1298"
    name: "Div_756"
    op_type: "Div"
  }
  node {
    input: "decoder.block.6.layer.2.layer_norm.weight"
    input: "1298"
    output: "1299"
    name: "Mul_757"
    op_type: "Mul"
  }
  node {
    input: "1299"
    input: "2258"
    output: "1301"
    name: "MatMul_758"
    op_type: "MatMul"
  }
  node {
    input: "1301"
    output: "1302"
    name: "Relu_759"
    op_type: "Relu"
  }
  node {
    input: "1302"
    input: "2259"
    output: "1304"
    name: "MatMul_760"
    op_type: "MatMul"
  }
  node {
    input: "1291"
    input: "1304"
    output: "1305"
    name: "Add_761"
    op_type: "Add"
  }
  node {
    input: "1305"
    output: "1306"
    name: "Cast_762"
    op_type: "Cast"
    attribute {
      name: "to"
      i: 1
      type: INT
    }
  }
  node {
    output: "1307"
    name: "Constant_763"
    op_type: "Constant"
    attribute {
      name: "value"
      t {
        data_type: 1
        raw_data: "\000\000\000@"
      }
      type: TENSOR
    }
  }
  node {
    input: "1306"
    input: "1307"
    output: "1308"
    name: "Pow_764"
    op_type: "Pow"
  }
  node {
    input: "1308"
    output: "1309"
    name: "ReduceMean_765"
    op_type: "ReduceMean"
    attribute {
      name: "axes"
      ints: -1
      type: INTS
    }
    attribute {
      name: "keepdims"
      i: 1
      type: INT
    }
  }
  node {
    output: "1310"
    name: "Constant_766"
    op_type: "Constant"
    attribute {
      name: "value"
      t {
        data_type: 1
        raw_data: "\2757\2065"
      }
      type: TENSOR
    }
  }
  node {
    input: "1309"
    input: "1310"
    output: "1311"
    name: "Add_767"
    op_type: "Add"
  }
  node {
    input: "1311"
    output: "1312"
    name: "Sqrt_768"
    op_type: "Sqrt"
  }
  node {
    input: "1306"
    input: "1312"
    output: "1313"
    name: "Div_769"
    op_type: "Div"
  }
  node {
    input: "decoder.block.7.layer.0.layer_norm.weight"
    input: "1313"
    output: "1314"
    name: "Mul_770"
    op_type: "Mul"
  }
  node {
    input: "1314"
    output: "1315"
    name: "Shape_771"
    op_type: "Shape"
  }
  node {
    output: "1316"
    name: "Constant_772"
    op_type: "Constant"
    attribute {
      name: "value"
      t {
        data_type: 7
        raw_data: "\000\000\000\000\000\000\000\000"
      }
      type: TENSOR
    }
  }
  node {
    input: "1315"
    input: "1316"
    output: "1317"
    name: "Gather_773"
    op_type: "Gather"
    attribute {
      name: "axis"
      i: 0
      type: INT
    }
  }
  node {
    input: "1314"
    input: "2260"
    output: "1319"
    name: "MatMul_774"
    op_type: "MatMul"
  }
  node {
    input: "1317"
    output: "1323"
    name: "Unsqueeze_775"
    op_type: "Unsqueeze"
    attribute {
      name: "axes"
      ints: 0
      type: INTS
    }
  }
  node {
    input: "1323"
    input: "2261"
    input: "2262"
    input: "2263"
    output: "1327"
    name: "Concat_776"
    op_type: "Concat"
    attribute {
      name: "axis"
      i: 0
      type: INT
    }
  }
  node {
    input: "1319"
    input: "1327"
    output: "1328"
    name: "Reshape_777"
    op_type: "Reshape"
  }
  node {
    input: "1328"
    output: "1329"
    name: "Transpose_778"
    op_type: "Transpose"
    attribute {
      name: "perm"
      ints: 0
      ints: 2
      ints: 1
      ints: 3
      type: INTS
    }
  }
  node {
    input: "1314"
    input: "2264"
    output: "1331"
    name: "MatMul_779"
    op_type: "MatMul"
  }
  node {
    input: "1317"
    output: "1335"
    name: "Unsqueeze_780"
    op_type: "Unsqueeze"
    attribute {
      name: "axes"
      ints: 0
      type: INTS
    }
  }
  node {
    input: "1335"
    input: "2265"
    input: "2266"
    input: "2267"
    output: "1339"
    name: "Concat_781"
    op_type: "Concat"
    attribute {
      name: "axis"
      i: 0
      type: INT
    }
  }
  node {
    input: "1331"
    input: "1339"
    output: "1340"
    name: "Reshape_782"
    op_type: "Reshape"
  }
  node {
    input: "1314"
    input: "2268"
    output: "1342"
    name: "MatMul_783"
    op_type: "MatMul"
  }
  node {
    input: "1317"
    output: "1346"
    name: "Unsqueeze_784"
    op_type: "Unsqueeze"
    attribute {
      name: "axes"
      ints: 0
      type: INTS
    }
  }
  node {
    input: "1346"
    input: "2269"
    input: "2270"
    input: "2271"
    output: "1350"
    name: "Concat_785"
    op_type: "Concat"
    attribute {
      name: "axis"
      i: 0
      type: INT
    }
  }
  node {
    input: "1342"
    input: "1350"
    output: "1351"
    name: "Reshape_786"
    op_type: "Reshape"
  }
  node {
    input: "1351"
    output: "1352"
    name: "Transpose_787"
    op_type: "Transpose"
    attribute {
      name: "perm"
      ints: 0
      ints: 2
      ints: 1
      ints: 3
      type: INTS
    }
  }
  node {
    input: "1340"
    output: "1353"
    name: "Transpose_788"
    op_type: "Transpose"
    attribute {
      name: "perm"
      ints: 0
      ints: 2
      ints: 3
      ints: 1
      type: INTS
    }
  }
  node {
    input: "1329"
    input: "1353"
    output: "1354"
    name: "MatMul_789"
    op_type: "MatMul"
  }
  node {
    input: "1354"
    input: "308"
    output: "1355"
    name: "Add_790"
    op_type: "Add"
  }
  node {
    input: "1355"
    output: "1356"
    name: "Cast_791"
    op_type: "Cast"
    attribute {
      name: "to"
      i: 1
      type: INT
    }
  }
  node {
    input: "1356"
    output: "1357"
    name: "Softmax_792"
    op_type: "Softmax"
    attribute {
      name: "axis"
      i: 3
      type: INT
    }
  }
  node {
    input: "1357"
    input: "1352"
    output: "1358"
    name: "MatMul_793"
    op_type: "MatMul"
  }
  node {
    input: "1358"
    output: "1359"
    name: "Transpose_794"
    op_type: "Transpose"
    attribute {
      name: "perm"
      ints: 0
      ints: 2
      ints: 1
      ints: 3
      type: INTS
    }
  }
  node {
    input: "1317"
    output: "1362"
    name: "Unsqueeze_795"
    op_type: "Unsqueeze"
    attribute {
      name: "axes"
      ints: 0
      type: INTS
    }
  }
  node {
    input: "1362"
    input: "2272"
    input: "2273"
    output: "1365"
    name: "Concat_796"
    op_type: "Concat"
    attribute {
      name: "axis"
      i: 0
      type: INT
    }
  }
  node {
    input: "1359"
    input: "1365"
    output: "1366"
    name: "Reshape_797"
    op_type: "Reshape"
  }
  node {
    input: "1366"
    input: "2274"
    output: "1368"
    name: "MatMul_798"
    op_type: "MatMul"
  }
  node {
    input: "1306"
    input: "1368"
    output: "1369"
    name: "Add_799"
    op_type: "Add"
  }
  node {
    input: "1369"
    output: "1370"
    name: "Cast_800"
    op_type: "Cast"
    attribute {
      name: "to"
      i: 1
      type: INT
    }
  }
  node {
    output: "1371"
    name: "Constant_801"
    op_type: "Constant"
    attribute {
      name: "value"
      t {
        data_type: 1
        raw_data: "\000\000\000@"
      }
      type: TENSOR
    }
  }
  node {
    input: "1370"
    input: "1371"
    output: "1372"
    name: "Pow_802"
    op_type: "Pow"
  }
  node {
    input: "1372"
    output: "1373"
    name: "ReduceMean_803"
    op_type: "ReduceMean"
    attribute {
      name: "axes"
      ints: -1
      type: INTS
    }
    attribute {
      name: "keepdims"
      i: 1
      type: INT
    }
  }
  node {
    output: "1374"
    name: "Constant_804"
    op_type: "Constant"
    attribute {
      name: "value"
      t {
        data_type: 1
        raw_data: "\2757\2065"
      }
      type: TENSOR
    }
  }
  node {
    input: "1373"
    input: "1374"
    output: "1375"
    name: "Add_805"
    op_type: "Add"
  }
  node {
    input: "1375"
    output: "1376"
    name: "Sqrt_806"
    op_type: "Sqrt"
  }
  node {
    input: "1370"
    input: "1376"
    output: "1377"
    name: "Div_807"
    op_type: "Div"
  }
  node {
    input: "decoder.block.7.layer.1.layer_norm.weight"
    input: "1377"
    output: "1378"
    name: "Mul_808"
    op_type: "Mul"
  }
  node {
    input: "1378"
    output: "1379"
    name: "Shape_809"
    op_type: "Shape"
  }
  node {
    output: "1380"
    name: "Constant_810"
    op_type: "Constant"
    attribute {
      name: "value"
      t {
        data_type: 7
        raw_data: "\000\000\000\000\000\000\000\000"
      }
      type: TENSOR
    }
  }
  node {
    input: "1379"
    input: "1380"
    output: "1381"
    name: "Gather_811"
    op_type: "Gather"
    attribute {
      name: "axis"
      i: 0
      type: INT
    }
  }
  node {
    input: "1378"
    input: "2275"
    output: "1383"
    name: "MatMul_812"
    op_type: "MatMul"
  }
  node {
    input: "1381"
    output: "1387"
    name: "Unsqueeze_813"
    op_type: "Unsqueeze"
    attribute {
      name: "axes"
      ints: 0
      type: INTS
    }
  }
  node {
    input: "1387"
    input: "2276"
    input: "2277"
    input: "2278"
    output: "1391"
    name: "Concat_814"
    op_type: "Concat"
    attribute {
      name: "axis"
      i: 0
      type: INT
    }
  }
  node {
    input: "1383"
    input: "1391"
    output: "1392"
    name: "Reshape_815"
    op_type: "Reshape"
  }
  node {
    input: "1392"
    output: "1393"
    name: "Transpose_816"
    op_type: "Transpose"
    attribute {
      name: "perm"
      ints: 0
      ints: 2
      ints: 1
      ints: 3
      type: INTS
    }
  }
  node {
    input: "encoder_hidden_states"
    input: "2279"
    output: "1395"
    name: "MatMul_817"
    op_type: "MatMul"
  }
  node {
    input: "1381"
    output: "1399"
    name: "Unsqueeze_818"
    op_type: "Unsqueeze"
    attribute {
      name: "axes"
      ints: 0
      type: INTS
    }
  }
  node {
    input: "1399"
    input: "2280"
    input: "2281"
    input: "2282"
    output: "1403"
    name: "Concat_819"
    op_type: "Concat"
    attribute {
      name: "axis"
      i: 0
      type: INT
    }
  }
  node {
    input: "1395"
    input: "1403"
    output: "1404"
    name: "Reshape_820"
    op_type: "Reshape"
  }
  node {
    input: "encoder_hidden_states"
    input: "2283"
    output: "1406"
    name: "MatMul_821"
    op_type: "MatMul"
  }
  node {
    input: "1381"
    output: "1410"
    name: "Unsqueeze_822"
    op_type: "Unsqueeze"
    attribute {
      name: "axes"
      ints: 0
      type: INTS
    }
  }
  node {
    input: "1410"
    input: "2284"
    input: "2285"
    input: "2286"
    output: "1414"
    name: "Concat_823"
    op_type: "Concat"
    attribute {
      name: "axis"
      i: 0
      type: INT
    }
  }
  node {
    input: "1406"
    input: "1414"
    output: "1415"
    name: "Reshape_824"
    op_type: "Reshape"
  }
  node {
    input: "1415"
    output: "1416"
    name: "Transpose_825"
    op_type: "Transpose"
    attribute {
      name: "perm"
      ints: 0
      ints: 2
      ints: 1
      ints: 3
      type: INTS
    }
  }
  node {
    input: "1404"
    output: "1417"
    name: "Transpose_826"
    op_type: "Transpose"
    attribute {
      name: "perm"
      ints: 0
      ints: 2
      ints: 3
      ints: 1
      type: INTS
    }
  }
  node {
    input: "1393"
    input: "1417"
    output: "1418"
    name: "MatMul_827"
    op_type: "MatMul"
  }
  node {
    input: "1418"
    input: "417"
    output: "1419"
    name: "Add_828"
    op_type: "Add"
  }
  node {
    input: "1419"
    output: "1420"
    name: "Cast_829"
    op_type: "Cast"
    attribute {
      name: "to"
      i: 1
      type: INT
    }
  }
  node {
    input: "1420"
    output: "1421"
    name: "Softmax_830"
    op_type: "Softmax"
    attribute {
      name: "axis"
      i: 3
      type: INT
    }
  }
  node {
    input: "1421"
    input: "1416"
    output: "1422"
    name: "MatMul_831"
    op_type: "MatMul"
  }
  node {
    input: "1422"
    output: "1423"
    name: "Transpose_832"
    op_type: "Transpose"
    attribute {
      name: "perm"
      ints: 0
      ints: 2
      ints: 1
      ints: 3
      type: INTS
    }
  }
  node {
    input: "1381"
    output: "1426"
    name: "Unsqueeze_833"
    op_type: "Unsqueeze"
    attribute {
      name: "axes"
      ints: 0
      type: INTS
    }
  }
  node {
    input: "1426"
    input: "2287"
    input: "2288"
    output: "1429"
    name: "Concat_834"
    op_type: "Concat"
    attribute {
      name: "axis"
      i: 0
      type: INT
    }
  }
  node {
    input: "1423"
    input: "1429"
    output: "1430"
    name: "Reshape_835"
    op_type: "Reshape"
  }
  node {
    input: "1430"
    input: "2289"
    output: "1432"
    name: "MatMul_836"
    op_type: "MatMul"
  }
  node {
    input: "1370"
    input: "1432"
    output: "1433"
    name: "Add_837"
    op_type: "Add"
  }
  node {
    input: "1433"
    output: "1434"
    name: "Cast_838"
    op_type: "Cast"
    attribute {
      name: "to"
      i: 1
      type: INT
    }
  }
  node {
    output: "1435"
    name: "Constant_839"
    op_type: "Constant"
    attribute {
      name: "value"
      t {
        data_type: 1
        raw_data: "\000\000\000@"
      }
      type: TENSOR
    }
  }
  node {
    input: "1434"
    input: "1435"
    output: "1436"
    name: "Pow_840"
    op_type: "Pow"
  }
  node {
    input: "1436"
    output: "1437"
    name: "ReduceMean_841"
    op_type: "ReduceMean"
    attribute {
      name: "axes"
      ints: -1
      type: INTS
    }
    attribute {
      name: "keepdims"
      i: 1
      type: INT
    }
  }
  node {
    output: "1438"
    name: "Constant_842"
    op_type: "Constant"
    attribute {
      name: "value"
      t {
        data_type: 1
        raw_data: "\2757\2065"
      }
      type: TENSOR
    }
  }
  node {
    input: "1437"
    input: "1438"
    output: "1439"
    name: "Add_843"
    op_type: "Add"
  }
  node {
    input: "1439"
    output: "1440"
    name: "Sqrt_844"
    op_type: "Sqrt"
  }
  node {
    input: "1434"
    input: "1440"
    output: "1441"
    name: "Div_845"
    op_type: "Div"
  }
  node {
    input: "decoder.block.7.layer.2.layer_norm.weight"
    input: "1441"
    output: "1442"
    name: "Mul_846"
    op_type: "Mul"
  }
  node {
    input: "1442"
    input: "2290"
    output: "1444"
    name: "MatMul_847"
    op_type: "MatMul"
  }
  node {
    input: "1444"
    output: "1445"
    name: "Relu_848"
    op_type: "Relu"
  }
  node {
    input: "1445"
    input: "2291"
    output: "1447"
    name: "MatMul_849"
    op_type: "MatMul"
  }
  node {
    input: "1434"
    input: "1447"
    output: "1448"
    name: "Add_850"
    op_type: "Add"
  }
  node {
    input: "1448"
    output: "1449"
    name: "Cast_851"
    op_type: "Cast"
    attribute {
      name: "to"
      i: 1
      type: INT
    }
  }
  node {
    output: "1450"
    name: "Constant_852"
    op_type: "Constant"
    attribute {
      name: "value"
      t {
        data_type: 1
        raw_data: "\000\000\000@"
      }
      type: TENSOR
    }
  }
  node {
    input: "1449"
    input: "1450"
    output: "1451"
    name: "Pow_853"
    op_type: "Pow"
  }
  node {
    input: "1451"
    output: "1452"
    name: "ReduceMean_854"
    op_type: "ReduceMean"
    attribute {
      name: "axes"
      ints: -1
      type: INTS
    }
    attribute {
      name: "keepdims"
      i: 1
      type: INT
    }
  }
  node {
    output: "1453"
    name: "Constant_855"
    op_type: "Constant"
    attribute {
      name: "value"
      t {
        data_type: 1
        raw_data: "\2757\2065"
      }
      type: TENSOR
    }
  }
  node {
    input: "1452"
    input: "1453"
    output: "1454"
    name: "Add_856"
    op_type: "Add"
  }
  node {
    input: "1454"
    output: "1455"
    name: "Sqrt_857"
    op_type: "Sqrt"
  }
  node {
    input: "1449"
    input: "1455"
    output: "1456"
    name: "Div_858"
    op_type: "Div"
  }
  node {
    input: "decoder.block.8.layer.0.layer_norm.weight"
    input: "1456"
    output: "1457"
    name: "Mul_859"
    op_type: "Mul"
  }
  node {
    input: "1457"
    output: "1458"
    name: "Shape_860"
    op_type: "Shape"
  }
  node {
    output: "1459"
    name: "Constant_861"
    op_type: "Constant"
    attribute {
      name: "value"
      t {
        data_type: 7
        raw_data: "\000\000\000\000\000\000\000\000"
      }
      type: TENSOR
    }
  }
  node {
    input: "1458"
    input: "1459"
    output: "1460"
    name: "Gather_862"
    op_type: "Gather"
    attribute {
      name: "axis"
      i: 0
      type: INT
    }
  }
  node {
    input: "1457"
    input: "2292"
    output: "1462"
    name: "MatMul_863"
    op_type: "MatMul"
  }
  node {
    input: "1460"
    output: "1466"
    name: "Unsqueeze_864"
    op_type: "Unsqueeze"
    attribute {
      name: "axes"
      ints: 0
      type: INTS
    }
  }
  node {
    input: "1466"
    input: "2293"
    input: "2294"
    input: "2295"
    output: "1470"
    name: "Concat_865"
    op_type: "Concat"
    attribute {
      name: "axis"
      i: 0
      type: INT
    }
  }
  node {
    input: "1462"
    input: "1470"
    output: "1471"
    name: "Reshape_866"
    op_type: "Reshape"
  }
  node {
    input: "1471"
    output: "1472"
    name: "Transpose_867"
    op_type: "Transpose"
    attribute {
      name: "perm"
      ints: 0
      ints: 2
      ints: 1
      ints: 3
      type: INTS
    }
  }
  node {
    input: "1457"
    input: "2296"
    output: "1474"
    name: "MatMul_868"
    op_type: "MatMul"
  }
  node {
    input: "1460"
    output: "1478"
    name: "Unsqueeze_869"
    op_type: "Unsqueeze"
    attribute {
      name: "axes"
      ints: 0
      type: INTS
    }
  }
  node {
    input: "1478"
    input: "2297"
    input: "2298"
    input: "2299"
    output: "1482"
    name: "Concat_870"
    op_type: "Concat"
    attribute {
      name: "axis"
      i: 0
      type: INT
    }
  }
  node {
    input: "1474"
    input: "1482"
    output: "1483"
    name: "Reshape_871"
    op_type: "Reshape"
  }
  node {
    input: "1457"
    input: "2300"
    output: "1485"
    name: "MatMul_872"
    op_type: "MatMul"
  }
  node {
    input: "1460"
    output: "1489"
    name: "Unsqueeze_873"
    op_type: "Unsqueeze"
    attribute {
      name: "axes"
      ints: 0
      type: INTS
    }
  }
  node {
    input: "1489"
    input: "2301"
    input: "2302"
    input: "2303"
    output: "1493"
    name: "Concat_874"
    op_type: "Concat"
    attribute {
      name: "axis"
      i: 0
      type: INT
    }
  }
  node {
    input: "1485"
    input: "1493"
    output: "1494"
    name: "Reshape_875"
    op_type: "Reshape"
  }
  node {
    input: "1494"
    output: "1495"
    name: "Transpose_876"
    op_type: "Transpose"
    attribute {
      name: "perm"
      ints: 0
      ints: 2
      ints: 1
      ints: 3
      type: INTS
    }
  }
  node {
    input: "1483"
    output: "1496"
    name: "Transpose_877"
    op_type: "Transpose"
    attribute {
      name: "perm"
      ints: 0
      ints: 2
      ints: 3
      ints: 1
      type: INTS
    }
  }
  node {
    input: "1472"
    input: "1496"
    output: "1497"
    name: "MatMul_878"
    op_type: "MatMul"
  }
  node {
    input: "1497"
    input: "308"
    output: "1498"
    name: "Add_879"
    op_type: "Add"
  }
  node {
    input: "1498"
    output: "1499"
    name: "Cast_880"
    op_type: "Cast"
    attribute {
      name: "to"
      i: 1
      type: INT
    }
  }
  node {
    input: "1499"
    output: "1500"
    name: "Softmax_881"
    op_type: "Softmax"
    attribute {
      name: "axis"
      i: 3
      type: INT
    }
  }
  node {
    input: "1500"
    input: "1495"
    output: "1501"
    name: "MatMul_882"
    op_type: "MatMul"
  }
  node {
    input: "1501"
    output: "1502"
    name: "Transpose_883"
    op_type: "Transpose"
    attribute {
      name: "perm"
      ints: 0
      ints: 2
      ints: 1
      ints: 3
      type: INTS
    }
  }
  node {
    input: "1460"
    output: "1505"
    name: "Unsqueeze_884"
    op_type: "Unsqueeze"
    attribute {
      name: "axes"
      ints: 0
      type: INTS
    }
  }
  node {
    input: "1505"
    input: "2304"
    input: "2305"
    output: "1508"
    name: "Concat_885"
    op_type: "Concat"
    attribute {
      name: "axis"
      i: 0
      type: INT
    }
  }
  node {
    input: "1502"
    input: "1508"
    output: "1509"
    name: "Reshape_886"
    op_type: "Reshape"
  }
  node {
    input: "1509"
    input: "2306"
    output: "1511"
    name: "MatMul_887"
    op_type: "MatMul"
  }
  node {
    input: "1449"
    input: "1511"
    output: "1512"
    name: "Add_888"
    op_type: "Add"
  }
  node {
    input: "1512"
    output: "1513"
    name: "Cast_889"
    op_type: "Cast"
    attribute {
      name: "to"
      i: 1
      type: INT
    }
  }
  node {
    output: "1514"
    name: "Constant_890"
    op_type: "Constant"
    attribute {
      name: "value"
      t {
        data_type: 1
        raw_data: "\000\000\000@"
      }
      type: TENSOR
    }
  }
  node {
    input: "1513"
    input: "1514"
    output: "1515"
    name: "Pow_891"
    op_type: "Pow"
  }
  node {
    input: "1515"
    output: "1516"
    name: "ReduceMean_892"
    op_type: "ReduceMean"
    attribute {
      name: "axes"
      ints: -1
      type: INTS
    }
    attribute {
      name: "keepdims"
      i: 1
      type: INT
    }
  }
  node {
    output: "1517"
    name: "Constant_893"
    op_type: "Constant"
    attribute {
      name: "value"
      t {
        data_type: 1
        raw_data: "\2757\2065"
      }
      type: TENSOR
    }
  }
  node {
    input: "1516"
    input: "1517"
    output: "1518"
    name: "Add_894"
    op_type: "Add"
  }
  node {
    input: "1518"
    output: "1519"
    name: "Sqrt_895"
    op_type: "Sqrt"
  }
  node {
    input: "1513"
    input: "1519"
    output: "1520"
    name: "Div_896"
    op_type: "Div"
  }
  node {
    input: "decoder.block.8.layer.1.layer_norm.weight"
    input: "1520"
    output: "1521"
    name: "Mul_897"
    op_type: "Mul"
  }
  node {
    input: "1521"
    output: "1522"
    name: "Shape_898"
    op_type: "Shape"
  }
  node {
    output: "1523"
    name: "Constant_899"
    op_type: "Constant"
    attribute {
      name: "value"
      t {
        data_type: 7
        raw_data: "\000\000\000\000\000\000\000\000"
      }
      type: TENSOR
    }
  }
  node {
    input: "1522"
    input: "1523"
    output: "1524"
    name: "Gather_900"
    op_type: "Gather"
    attribute {
      name: "axis"
      i: 0
      type: INT
    }
  }
  node {
    input: "1521"
    input: "2307"
    output: "1526"
    name: "MatMul_901"
    op_type: "MatMul"
  }
  node {
    input: "1524"
    output: "1530"
    name: "Unsqueeze_902"
    op_type: "Unsqueeze"
    attribute {
      name: "axes"
      ints: 0
      type: INTS
    }
  }
  node {
    input: "1530"
    input: "2308"
    input: "2309"
    input: "2310"
    output: "1534"
    name: "Concat_903"
    op_type: "Concat"
    attribute {
      name: "axis"
      i: 0
      type: INT
    }
  }
  node {
    input: "1526"
    input: "1534"
    output: "1535"
    name: "Reshape_904"
    op_type: "Reshape"
  }
  node {
    input: "1535"
    output: "1536"
    name: "Transpose_905"
    op_type: "Transpose"
    attribute {
      name: "perm"
      ints: 0
      ints: 2
      ints: 1
      ints: 3
      type: INTS
    }
  }
  node {
    input: "encoder_hidden_states"
    input: "2311"
    output: "1538"
    name: "MatMul_906"
    op_type: "MatMul"
  }
  node {
    input: "1524"
    output: "1542"
    name: "Unsqueeze_907"
    op_type: "Unsqueeze"
    attribute {
      name: "axes"
      ints: 0
      type: INTS
    }
  }
  node {
    input: "1542"
    input: "2312"
    input: "2313"
    input: "2314"
    output: "1546"
    name: "Concat_908"
    op_type: "Concat"
    attribute {
      name: "axis"
      i: 0
      type: INT
    }
  }
  node {
    input: "1538"
    input: "1546"
    output: "1547"
    name: "Reshape_909"
    op_type: "Reshape"
  }
  node {
    input: "encoder_hidden_states"
    input: "2315"
    output: "1549"
    name: "MatMul_910"
    op_type: "MatMul"
  }
  node {
    input: "1524"
    output: "1553"
    name: "Unsqueeze_911"
    op_type: "Unsqueeze"
    attribute {
      name: "axes"
      ints: 0
      type: INTS
    }
  }
  node {
    input: "1553"
    input: "2316"
    input: "2317"
    input: "2318"
    output: "1557"
    name: "Concat_912"
    op_type: "Concat"
    attribute {
      name: "axis"
      i: 0
      type: INT
    }
  }
  node {
    input: "1549"
    input: "1557"
    output: "1558"
    name: "Reshape_913"
    op_type: "Reshape"
  }
  node {
    input: "1558"
    output: "1559"
    name: "Transpose_914"
    op_type: "Transpose"
    attribute {
      name: "perm"
      ints: 0
      ints: 2
      ints: 1
      ints: 3
      type: INTS
    }
  }
  node {
    input: "1547"
    output: "1560"
    name: "Transpose_915"
    op_type: "Transpose"
    attribute {
      name: "perm"
      ints: 0
      ints: 2
      ints: 3
      ints: 1
      type: INTS
    }
  }
  node {
    input: "1536"
    input: "1560"
    output: "1561"
    name: "MatMul_916"
    op_type: "MatMul"
  }
  node {
    input: "1561"
    input: "417"
    output: "1562"
    name: "Add_917"
    op_type: "Add"
  }
  node {
    input: "1562"
    output: "1563"
    name: "Cast_918"
    op_type: "Cast"
    attribute {
      name: "to"
      i: 1
      type: INT
    }
  }
  node {
    input: "1563"
    output: "1564"
    name: "Softmax_919"
    op_type: "Softmax"
    attribute {
      name: "axis"
      i: 3
      type: INT
    }
  }
  node {
    input: "1564"
    input: "1559"
    output: "1565"
    name: "MatMul_920"
    op_type: "MatMul"
  }
  node {
    input: "1565"
    output: "1566"
    name: "Transpose_921"
    op_type: "Transpose"
    attribute {
      name: "perm"
      ints: 0
      ints: 2
      ints: 1
      ints: 3
      type: INTS
    }
  }
  node {
    input: "1524"
    output: "1569"
    name: "Unsqueeze_922"
    op_type: "Unsqueeze"
    attribute {
      name: "axes"
      ints: 0
      type: INTS
    }
  }
  node {
    input: "1569"
    input: "2319"
    input: "2320"
    output: "1572"
    name: "Concat_923"
    op_type: "Concat"
    attribute {
      name: "axis"
      i: 0
      type: INT
    }
  }
  node {
    input: "1566"
    input: "1572"
    output: "1573"
    name: "Reshape_924"
    op_type: "Reshape"
  }
  node {
    input: "1573"
    input: "2321"
    output: "1575"
    name: "MatMul_925"
    op_type: "MatMul"
  }
  node {
    input: "1513"
    input: "1575"
    output: "1576"
    name: "Add_926"
    op_type: "Add"
  }
  node {
    input: "1576"
    output: "1577"
    name: "Cast_927"
    op_type: "Cast"
    attribute {
      name: "to"
      i: 1
      type: INT
    }
  }
  node {
    output: "1578"
    name: "Constant_928"
    op_type: "Constant"
    attribute {
      name: "value"
      t {
        data_type: 1
        raw_data: "\000\000\000@"
      }
      type: TENSOR
    }
  }
  node {
    input: "1577"
    input: "1578"
    output: "1579"
    name: "Pow_929"
    op_type: "Pow"
  }
  node {
    input: "1579"
    output: "1580"
    name: "ReduceMean_930"
    op_type: "ReduceMean"
    attribute {
      name: "axes"
      ints: -1
      type: INTS
    }
    attribute {
      name: "keepdims"
      i: 1
      type: INT
    }
  }
  node {
    output: "1581"
    name: "Constant_931"
    op_type: "Constant"
    attribute {
      name: "value"
      t {
        data_type: 1
        raw_data: "\2757\2065"
      }
      type: TENSOR
    }
  }
  node {
    input: "1580"
    input: "1581"
    output: "1582"
    name: "Add_932"
    op_type: "Add"
  }
  node {
    input: "1582"
    output: "1583"
    name: "Sqrt_933"
    op_type: "Sqrt"
  }
  node {
    input: "1577"
    input: "1583"
    output: "1584"
    name: "Div_934"
    op_type: "Div"
  }
  node {
    input: "decoder.block.8.layer.2.layer_norm.weight"
    input: "1584"
    output: "1585"
    name: "Mul_935"
    op_type: "Mul"
  }
  node {
    input: "1585"
    input: "2322"
    output: "1587"
    name: "MatMul_936"
    op_type: "MatMul"
  }
  node {
    input: "1587"
    output: "1588"
    name: "Relu_937"
    op_type: "Relu"
  }
  node {
    input: "1588"
    input: "2323"
    output: "1590"
    name: "MatMul_938"
    op_type: "MatMul"
  }
  node {
    input: "1577"
    input: "1590"
    output: "1591"
    name: "Add_939"
    op_type: "Add"
  }
  node {
    input: "1591"
    output: "1592"
    name: "Cast_940"
    op_type: "Cast"
    attribute {
      name: "to"
      i: 1
      type: INT
    }
  }
  node {
    output: "1593"
    name: "Constant_941"
    op_type: "Constant"
    attribute {
      name: "value"
      t {
        data_type: 1
        raw_data: "\000\000\000@"
      }
      type: TENSOR
    }
  }
  node {
    input: "1592"
    input: "1593"
    output: "1594"
    name: "Pow_942"
    op_type: "Pow"
  }
  node {
    input: "1594"
    output: "1595"
    name: "ReduceMean_943"
    op_type: "ReduceMean"
    attribute {
      name: "axes"
      ints: -1
      type: INTS
    }
    attribute {
      name: "keepdims"
      i: 1
      type: INT
    }
  }
  node {
    output: "1596"
    name: "Constant_944"
    op_type: "Constant"
    attribute {
      name: "value"
      t {
        data_type: 1
        raw_data: "\2757\2065"
      }
      type: TENSOR
    }
  }
  node {
    input: "1595"
    input: "1596"
    output: "1597"
    name: "Add_945"
    op_type: "Add"
  }
  node {
    input: "1597"
    output: "1598"
    name: "Sqrt_946"
    op_type: "Sqrt"
  }
  node {
    input: "1592"
    input: "1598"
    output: "1599"
    name: "Div_947"
    op_type: "Div"
  }
  node {
    input: "decoder.block.9.layer.0.layer_norm.weight"
    input: "1599"
    output: "1600"
    name: "Mul_948"
    op_type: "Mul"
  }
  node {
    input: "1600"
    output: "1601"
    name: "Shape_949"
    op_type: "Shape"
  }
  node {
    output: "1602"
    name: "Constant_950"
    op_type: "Constant"
    attribute {
      name: "value"
      t {
        data_type: 7
        raw_data: "\000\000\000\000\000\000\000\000"
      }
      type: TENSOR
    }
  }
  node {
    input: "1601"
    input: "1602"
    output: "1603"
    name: "Gather_951"
    op_type: "Gather"
    attribute {
      name: "axis"
      i: 0
      type: INT
    }
  }
  node {
    input: "1600"
    input: "2324"
    output: "1605"
    name: "MatMul_952"
    op_type: "MatMul"
  }
  node {
    input: "1603"
    output: "1609"
    name: "Unsqueeze_953"
    op_type: "Unsqueeze"
    attribute {
      name: "axes"
      ints: 0
      type: INTS
    }
  }
  node {
    input: "1609"
    input: "2325"
    input: "2326"
    input: "2327"
    output: "1613"
    name: "Concat_954"
    op_type: "Concat"
    attribute {
      name: "axis"
      i: 0
      type: INT
    }
  }
  node {
    input: "1605"
    input: "1613"
    output: "1614"
    name: "Reshape_955"
    op_type: "Reshape"
  }
  node {
    input: "1614"
    output: "1615"
    name: "Transpose_956"
    op_type: "Transpose"
    attribute {
      name: "perm"
      ints: 0
      ints: 2
      ints: 1
      ints: 3
      type: INTS
    }
  }
  node {
    input: "1600"
    input: "2328"
    output: "1617"
    name: "MatMul_957"
    op_type: "MatMul"
  }
  node {
    input: "1603"
    output: "1621"
    name: "Unsqueeze_958"
    op_type: "Unsqueeze"
    attribute {
      name: "axes"
      ints: 0
      type: INTS
    }
  }
  node {
    input: "1621"
    input: "2329"
    input: "2330"
    input: "2331"
    output: "1625"
    name: "Concat_959"
    op_type: "Concat"
    attribute {
      name: "axis"
      i: 0
      type: INT
    }
  }
  node {
    input: "1617"
    input: "1625"
    output: "1626"
    name: "Reshape_960"
    op_type: "Reshape"
  }
  node {
    input: "1600"
    input: "2332"
    output: "1628"
    name: "MatMul_961"
    op_type: "MatMul"
  }
  node {
    input: "1603"
    output: "1632"
    name: "Unsqueeze_962"
    op_type: "Unsqueeze"
    attribute {
      name: "axes"
      ints: 0
      type: INTS
    }
  }
  node {
    input: "1632"
    input: "2333"
    input: "2334"
    input: "2335"
    output: "1636"
    name: "Concat_963"
    op_type: "Concat"
    attribute {
      name: "axis"
      i: 0
      type: INT
    }
  }
  node {
    input: "1628"
    input: "1636"
    output: "1637"
    name: "Reshape_964"
    op_type: "Reshape"
  }
  node {
    input: "1637"
    output: "1638"
    name: "Transpose_965"
    op_type: "Transpose"
…
    name: "decoder.block.8.layer.1.layer_norm.weight"
    type {
      tensor_type {
        elem_type: 1
        shape {
          dim {
            dim_value: 768
          }
        }
      }
    }
  }
  input {
    name: "decoder.block.8.layer.2.layer_norm.weight"
    type {
      tensor_type {
        elem_type: 1
        shape {
          dim {
            dim_value: 768
          }
        }
      }
    }
  }
  input {
    name: "decoder.block.9.layer.0.layer_norm.weight"
    type {
      tensor_type {
        elem_type: 1
        shape {
          dim {
            dim_value: 768
          }
        }
      }
    }
  }
  input {
    name: "decoder.block.9.layer.1.layer_norm.weight"
    type {
      tensor_type {
        elem_type: 1
        shape {
          dim {
            dim_value: 768
          }
        }
      }
    }
  }
  input {
    name: "decoder.block.9.layer.2.layer_norm.weight"
    type {
      tensor_type {
        elem_type: 1
        shape {
          dim {
            dim_value: 768
          }
        }
      }
    }
  }
  input {
    name: "decoder.embed_tokens.weight"
    type {
      tensor_type {
        elem_type: 1
        shape {
          dim {
            dim_value: 32128
          }
          dim {
            dim_value: 768
          }
        }
      }
    }
  }
  input {
    name: "decoder.final_layer_norm.weight"
    type {
      tensor_type {
        elem_type: 1
        shape {
          dim {
            dim_value: 768
          }
        }
      }
    }
  }
  output {
    name: "hidden_states"
    type {
      tensor_type {
        elem_type: 1
        shape {
          dim {
            dim_param: "batch"
          }
          dim {
            dim_param: "sequence"
          }
          dim {
            dim_value: 32128
          }
        }
      }
    }
  }
  value_info {
    name: "2034"
    type {
      tensor_type {
        elem_type: 7
        shape {
          dim {
            dim_value: 1
          }
        }
      }
    }
  }
  value_info {
    name: "2035"
    type {
      tensor_type {
        elem_type: 7
        shape {
          dim {
            dim_value: 1
          }
        }
      }
    }
  }
  value_info {
    name: "2037"
    type {
      tensor_type {
        elem_type: 7
        shape {
          dim {
            dim_value: 1
          }
        }
      }
    }
  }
  value_info {
    name: "2038"
    type {
      tensor_type {
        elem_type: 7
        shape {
          dim {
            dim_value: 1
          }
        }
      }
    }
  }
  value_info {
    name: "2039"
    type {
      tensor_type {
        elem_type: 7
        shape {
          dim {
            dim_value: 1
          }
        }
      }
    }
  }
  value_info {
    name: "2041"
    type {
      tensor_type {
        elem_type: 7
        shape {
          dim {
            dim_value: 1
          }
        }
      }
    }
  }
  value_info {
    name: "2042"
    type {
      tensor_type {
        elem_type: 7
        shape {
          dim {
            dim_value: 1
          }
        }
      }
    }
  }
  value_info {
    name: "2043"
    type {
      tensor_type {
        elem_type: 7
        shape {
          dim {
            dim_value: 1
          }
        }
      }
    }
  }
  value_info {
    name: "2045"
    type {
      tensor_type {
        elem_type: 7
        shape {
          dim {
            dim_value: 1
          }
        }
      }
    }
  }
  value_info {
    name: "2046"
    type {
      tensor_type {
        elem_type: 7
        shape {
          dim {
            dim_value: 1
          }
        }
      }
    }
  }
  value_info {
    name: "2047"
    type {
      tensor_type {
        elem_type: 7
        shape {
          dim {
            dim_value: 1
          }
        }
      }
    }
  }
  value_info {
    name: "2048"
    type {
      tensor_type {
        elem_type: 7
        shape {
          dim {
            dim_value: 1
          }
        }
      }
    }
  }
  value_info {
    name: "2049"
    type {
      tensor_type {
        elem_type: 7
        shape {
          dim {
            dim_value: 1
          }
        }
      }
    }
  }
  value_info {
    name: "2052"
    type {
      tensor_type {
        elem_type: 7
        shape {
          dim {
            dim_value: 1
          }
        }
      }
    }
  }
  value_info {
    name: "2053"
    type {
      tensor_type {
        elem_type: 7
        shape {
          dim {
            dim_value: 1
          }
        }
      }
    }
  }
  value_info {
    name: "2054"
    type {
      tensor_type {
        elem_type: 7
        shape {
          dim {
            dim_value: 1
          }
        }
      }
    }
  }
  value_info {
    name: "2056"
    type {
      tensor_type {
        elem_type: 7
        shape {
          dim {
            dim_value: 1
          }
        }
      }
    }
  }
  value_info {
    name: "2057"
    type {
      tensor_type {
        elem_type: 7
        shape {
          dim {
            dim_value: 1
          }
        }
      }
    }
  }
  value_info {
    name: "2058"
    type {
      tensor_type {
        elem_type: 7
        shape {
          dim {
            dim_value: 1
          }
        }
      }
    }
  }
  value_info {
    name: "2060"
    type {
      tensor_type {
        elem_type: 7
        shape {
          dim {
            dim_value: 1
          }
        }
      }
    }
  }
  value_info {
    name: "2061"
    type {
      tensor_type {
        elem_type: 7
        shape {
          dim {
            dim_value: 1
          }
        }
      }
    }
  }
  value_info {
    name: "2062"
    type {
      tensor_type {
        elem_type: 7
        shape {
          dim {
            dim_value: 1
          }
        }
      }
    }
  }
  value_info {
    name: "2063"
    type {
      tensor_type {
        elem_type: 7
        shape {
          dim {
            dim_value: 1
          }
        }
      }
    }
  }
  value_info {
    name: "2064"
    type {
      tensor_type {
        elem_type: 7
        shape {
          dim {
            dim_value: 1
          }
        }
      }
    }
  }
  value_info {
    name: "2069"
    type {
      tensor_type {
        elem_type: 7
        shape {
          dim {
            dim_value: 1
          }
        }
      }
    }
  }
  value_info {
    name: "2070"
    type {
      tensor_type {
        elem_type: 7
        shape {
          dim {
            dim_value: 1
          }
        }
      }
    }
  }
  value_info {
    name: "2071"
    type {
      tensor_type {
        elem_type: 7
        shape {
          dim {
            dim_value: 1
          }
        }
      }
    }
  }
  value_info {
    name: "2073"
    type {
      tensor_type {
        elem_type: 7
        shape {
          dim {
            dim_value: 1
          }
        }
      }
    }
  }
  value_info {
    name: "2074"
    type {
      tensor_type {
        elem_type: 7
        shape {
          dim {
            dim_value: 1
          }
        }
      }
    }
  }
  value_info {
    name: "2075"
    type {
      tensor_type {
        elem_type: 7
        shape {
          dim {
            dim_value: 1
          }
        }
      }
    }
  }
  value_info {
    name: "2077"
    type {
      tensor_type {
        elem_type: 7
        shape {
          dim {
            dim_value: 1
          }
        }
      }
    }
  }
  value_info {
    name: "2078"
    type {
      tensor_type {
        elem_type: 7
        shape {
          dim {
            dim_value: 1
          }
        }
      }
    }
  }
  value_info {
    name: "2079"
    type {
      tensor_type {
        elem_type: 7
        shape {
          dim {
            dim_value: 1
          }
        }
      }
    }
  }
  value_info {
    name: "2080"
    type {
      tensor_type {
        elem_type: 7
        shape {
          dim {
            dim_value: 1
          }
        }
      }
    }
  }
  value_info {
    name: "2081"
    type {
      tensor_type {
        elem_type: 7
        shape {
          dim {
            dim_value: 1
          }
        }
      }
    }
  }
  value_info {
    name: "2084"
    type {
      tensor_type {
        elem_type: 7
        shape {
          dim {
            dim_value: 1
          }
        }
      }
    }
  }
  value_info {
    name: "2085"
    type {
      tensor_type {
        elem_type: 7
        shape {
          dim {
            dim_value: 1
          }
        }
      }
    }
  }
  value_info {
    name: "2086"
    type {
      tensor_type {
        elem_type: 7
        shape {
          dim {
            dim_value: 1
          }
        }
      }
    }
  }
  value_info {
    name: "2088"
    type {
      tensor_type {
        elem_type: 7
        shape {
          dim {
            dim_value: 1
          }
        }
      }
    }
  }
  value_info {
    name: "2089"
    type {
      tensor_type {
        elem_type: 7
        shape {
          dim {
            dim_value: 1
          }
        }
      }
    }
  }
  value_info {
    name: "2090"
    type {
      tensor_type {
        elem_type: 7
        shape {
          dim {
            dim_value: 1
          }
        }
      }
    }
  }
  value_info {
    name: "2092"
    type {
      tensor_type {
        elem_type: 7
        shape {
          dim {
            dim_value: 1
          }
        }
      }
    }
  }
  value_info {
    name: "2093"
    type {
      tensor_type {
        elem_type: 7
        shape {
          dim {
            dim_value: 1
          }
        }
      }
    }
  }
  value_info {
    name: "2094"
    type {
      tensor_type {
        elem_type: 7
        shape {
          dim {
            dim_value: 1
          }
        }
      }
    }
  }
  value_info {
    name: "2095"
    type {
      tensor_type {
        elem_type: 7
        shape {
          dim {
            dim_value: 1
          }
        }
      }
    }
  }
  value_info {
    name: "2096"
    type {
      tensor_type {
        elem_type: 7
        shape {
          dim {
            dim_value: 1
          }
        }
      }
    }
  }
  value_info {
    name: "2101"
    type {
      tensor_type {
        elem_type: 7
        shape {
          dim {
            dim_value: 1
          }
        }
      }
    }
  }
  value_info {
    name: "2102"
    type {
      tensor_type {
        elem_type: 7
        shape {
          dim {
            dim_value: 1
          }
        }
      }
    }
  }
  value_info {
    name: "2103"
    type {
      tensor_type {
        elem_type: 7
        shape {
          dim {
            dim_value: 1
          }
        }
      }
    }
  }
  value_info {
    name: "2105"
    type {
      tensor_type {
        elem_type: 7
        shape {
          dim {
            dim_value: 1
          }
        }
      }
    }
  }
  value_info {
    name: "2106"
    type {
      tensor_type {
        elem_type: 7
        shape {
          dim {
            dim_value: 1
          }
        }
      }
    }
  }
  value_info {
    name: "2107"
    type {
      tensor_type {
        elem_type: 7
        shape {
          dim {
            dim_value: 1
          }
        }
      }
    }
  }
  value_info {
    name: "2109"
    type {
      tensor_type {
        elem_type: 7
        shape {
          dim {
            dim_value: 1
          }
        }
      }
    }
  }
  value_info {
    name: "2110"
    type {
      tensor_type {
        elem_type: 7
        shape {
          dim {
            dim_value: 1
          }
        }
      }
    }
  }
  value_info {
    name: "2111"
    type {
      tensor_type {
        elem_type: 7
        shape {
          dim {
            dim_value: 1
          }
        }
      }
    }
  }
  value_info {
    name: "2112"
    type {
      tensor_type {
        elem_type: 7
        shape {
          dim {
            dim_value: 1
          }
        }
      }
    }
  }
  value_info {
    name: "2113"
    type {
      tensor_type {
        elem_type: 7
        shape {
          dim {
            dim_value: 1
          }
        }
      }
    }
  }
  value_info {
    name: "2116"
    type {
      tensor_type {
        elem_type: 7
        shape {
          dim {
            dim_value: 1
          }
        }
      }
    }
  }
  value_info {
    name: "2117"
    type {
      tensor_type {
        elem_type: 7
        shape {
          dim {
            dim_value: 1
          }
        }
      }
    }
  }
  value_info {
    name: "2118"
    type {
      tensor_type {
        elem_type: 7
        shape {
          dim {
            dim_value: 1
          }
        }
      }
    }
  }
  value_info {
    name: "2120"
    type {
      tensor_type {
        elem_type: 7
        shape {
          dim {
            dim_value: 1
          }
        }
      }
    }
  }
  value_info {
    name: "2121"
    type {
      tensor_type {
        elem_type: 7
        shape {
          dim {
            dim_value: 1
          }
        }
      }
    }
  }
  value_info {
    name: "2122"
    type {
      tensor_type {
        elem_type: 7
        shape {
          dim {
            dim_value: 1
          }
        }
      }
    }
  }
  value_info {
    name: "2124"
    type {
      tensor_type {
        elem_type: 7
        shape {
          dim {
            dim_value: 1
          }
        }
      }
    }
  }
  value_info {
    name: "2125"
    type {
      tensor_type {
        elem_type: 7
        shape {
          dim {
            dim_value: 1
          }
        }
      }
    }
  }
  value_info {
    name: "2126"
    type {
      tensor_type {
        elem_type: 7
        shape {
          dim {
            dim_value: 1
          }
        }
      }
    }
  }
  value_info {
    name: "2127"
    type {
      tensor_type {
        elem_type: 7
        shape {
          dim {
            dim_value: 1
          }
        }
      }
    }
  }
  value_info {
    name: "2128"
    type {
      tensor_type {
        elem_type: 7
        shape {
          dim {
            dim_value: 1
          }
        }
      }
    }
  }
  value_info {
    name: "2133"
    type {
      tensor_type {
        elem_type: 7
        shape {
          dim {
            dim_value: 1
          }
        }
      }
    }
  }
  value_info {
    name: "2134"
    type {
      tensor_type {
        elem_type: 7
        shape {
          dim {
            dim_value: 1
          }
        }
      }
    }
  }
  value_info {
    name: "2135"
    type {
      tensor_type {
        elem_type: 7
        shape {
          dim {
            dim_value: 1
          }
        }
      }
    }
  }
  value_info {
    name: "2137"
    type {
      tensor_type {
        elem_type: 7
        shape {
          dim {
            dim_value: 1
          }
        }
      }
    }
  }
  value_info {
    name: "2138"
    type {
      tensor_type {
        elem_type: 7
        shape {
          dim {
            dim_value: 1
          }
        }
      }
    }
  }
  value_info {
    name: "2139"
    type {
      tensor_type {
        elem_type: 7
        shape {
          dim {
            dim_value: 1
          }
        }
      }
    }
  }
  value_info {
    name: "2141"
    type {
      tensor_type {
        elem_type: 7
        shape {
          dim {
            dim_value: 1
          }
        }
      }
    }
  }
  value_info {
    name: "2142"
    type {
      tensor_type {
        elem_type: 7
        shape {
          dim {
            dim_value: 1
          }
        }
      }
    }
  }
  value_info {
    name: "2143"
    type {
      tensor_type {
        elem_type: 7
        shape {
          dim {
            dim_value: 1
          }
        }
      }
    }
  }
  value_info {
    name: "2144"
    type {
      tensor_type {
        elem_type: 7
        shape {
          dim {
            dim_value: 1
          }
        }
      }
    }
  }
  value_info {
    name: "2145"
    type {
      tensor_type {
        elem_type: 7
        shape {
          dim {
            dim_value: 1
          }
        }
      }
    }
  }
  value_info {
    name: "2148"
    type {
      tensor_type {
        elem_type: 7
        shape {
          dim {
            dim_value: 1
          }
        }
      }
    }
  }
  value_info {
    name: "2149"
    type {
      tensor_type {
        elem_type: 7
        shape {
          dim {
            dim_value: 1
          }
        }
      }
    }
  }
  value_info {
    name: "2150"
    type {
      tensor_type {
        elem_type: 7
        shape {
          dim {
            dim_value: 1
          }
        }
      }
    }
  }
  value_info {
    name: "2152"
    type {
      tensor_type {
        elem_type: 7
        shape {
          dim {
            dim_value: 1
          }
        }
      }
    }
  }
  value_info {
    name: "2153"
    type {
      tensor_type {
        elem_type: 7
        shape {
          dim {
            dim_value: 1
          }
        }
      }
    }
  }
  value_info {
    name: "2154"
    type {
      tensor_type {
        elem_type: 7
        shape {
          dim {
            dim_value: 1
          }
        }
      }
    }
  }
  value_info {
    name: "2156"
    type {
      tensor_type {
        elem_type: 7
        shape {
          dim {
            dim_value: 1
          }
        }
      }
    }
  }
  value_info {
    name: "2157"
    type {
      tensor_type {
        elem_type: 7
        shape {
          dim {
            dim_value: 1
          }
        }
      }
    }
  }
  value_info {
    name: "2158"
    type {
      tensor_type {
        elem_type: 7
        shape {
          dim {
            dim_value: 1
          }
        }
      }
    }
  }
  value_info {
    name: "2159"
    type {
      tensor_type {
        elem_type: 7
        shape {
          dim {
            dim_value: 1
          }
        }
      }
    }
  }
  value_info {
    name: "2160"
    type {
      tensor_type {
        elem_type: 7
        shape {
          dim {
            dim_value: 1
          }
        }
      }
    }
  }
  value_info {
    name: "2165"
    type {
      tensor_type {
        elem_type: 7
        shape {
          dim {
            dim_value: 1
          }
        }
      }
    }
  }
  value_info {
    name: "2166"
    type {
      tensor_type {
        elem_type: 7
        shape {
          dim {
            dim_value: 1
          }
        }
      }
    }
  }
  value_info {
    name: "2167"
    type {
      tensor_type {
        elem_type: 7
        shape {
          dim {
            dim_value: 1
          }
        }
      }
    }
  }
  value_info {
    name: "2169"
    type {
      tensor_type {
        elem_type: 7
        shape {
          dim {
            dim_value: 1
          }
        }
      }
    }
  }
  value_info {
    name: "2170"
    type {
      tensor_type {
        elem_type: 7
        shape {
          dim {
            dim_value: 1
          }
        }
      }
    }
  }
  value_info {
    name: "2171"
    type {
      tensor_type {
        elem_type: 7
        shape {
          dim {
            dim_value: 1
          }
        }
      }
    }
  }
  value_info {
    name: "2173"
    type {
      tensor_type {
        elem_type: 7
        shape {
          dim {
            dim_value: 1
          }
        }
      }
    }
  }
  value_info {
    name: "2174"
    type {
      tensor_type {
        elem_type: 7
        shape {
          dim {
            dim_value: 1
          }
        }
      }
    }
  }
  value_info {
    name: "2175"
    type {
      tensor_type {
        elem_type: 7
        shape {
          dim {
            dim_value: 1
          }
        }
      }
    }
  }
  value_info {
    name: "2176"
    type {
      tensor_type {
        elem_type: 7
        shape {
          dim {
            dim_value: 1
          }
        }
      }
    }
  }
  value_info {
    name: "2177"
    type {
      tensor_type {
        elem_type: 7
        shape {
          dim {
            dim_value: 1
          }
        }
      }
    }
  }
  value_info {
    name: "2180"
    type {
      tensor_type {
        elem_type: 7
        shape {
          dim {
            dim_value: 1
          }
        }
      }
    }
  }
  value_info {
    name: "2181"
    type {
      tensor_type {
        elem_type: 7
        shape {
          dim {
            dim_value: 1
          }
        }
      }
    }
  }
  value_info {
    name: "2182"
    type {
      tensor_type {
        elem_type: 7
        shape {
          dim {
            dim_value: 1
          }
        }
      }
    }
  }
  value_info {
    name: "2184"
    type {
      tensor_type {
        elem_type: 7
        shape {
          dim {
            dim_value: 1
          }
        }
      }
    }
  }
  value_info {
    name: "2185"
    type {
      tensor_type {
        elem_type: 7
        shape {
          dim {
            dim_value: 1
          }
        }
      }
    }
  }
  value_info {
    name: "2186"
    type {
      tensor_type {
        elem_type: 7
        shape {
          dim {
            dim_value: 1
          }
        }
      }
    }
  }
  value_info {
    name: "2188"
    type {
      tensor_type {
        elem_type: 7
        shape {
          dim {
            dim_value: 1
          }
        }
      }
    }
  }
  value_info {
    name: "2189"
    type {
      tensor_type {
        elem_type: 7
        shape {
          dim {
            dim_value: 1
          }
        }
      }
    }
  }
  value_info {
    name: "2190"
    type {
      tensor_type {
        elem_type: 7
        shape {
          dim {
            dim_value: 1
          }
        }
      }
    }
  }
  value_info {
    name: "2191"
    type {
      tensor_type {
        elem_type: 7
        shape {
          dim {
            dim_value: 1
          }
        }
      }
    }
  }
  value_info {
    name: "2192"
    type {
      tensor_type {
        elem_type: 7
        shape {
          dim {
            dim_value: 1
          }
        }
      }
    }
  }
  value_info {
    name: "2197"
    type {
      tensor_type {
        elem_type: 7
        shape {
          dim {
            dim_value: 1
          }
        }
      }
    }
  }
  value_info {
    name: "2198"
    type {
      tensor_type {
        elem_type: 7
        shape {
          dim {
            dim_value: 1
          }
        }
      }
    }
  }
  value_info {
    name: "2199"
    type {
      tensor_type {
        elem_type: 7
        shape {
          dim {
            dim_value: 1
          }
        }
      }
    }
  }
  value_info {
    name: "2201"
    type {
      tensor_type {
        elem_type: 7
        shape {
          dim {
            dim_value: 1
          }
        }
      }
    }
  }
  value_info {
    name: "2202"
    type {
      tensor_type {
        elem_type: 7
        shape {
          dim {
            dim_value: 1
          }
        }
      }
    }
  }
  value_info {
    name: "2203"
    type {
      tensor_type {
        elem_type: 7
        shape {
          dim {
            dim_value: 1
          }
        }
      }
    }
  }
  value_info {
    name: "2205"
    type {
      tensor_type {
        elem_type: 7
        shape {
          dim {
            dim_value: 1
          }
        }
      }
    }
  }
  value_info {
    name: "2206"
    type {
      tensor_type {
        elem_type: 7
        shape {
          dim {
            dim_value: 1
          }
        }
      }
    }
  }
  value_info {
    name: "2207"
    type {
      tensor_type {
        elem_type: 7
        shape {
          dim {
            dim_value: 1
          }
        }
      }
    }
  }
  value_info {
    name: "2208"
    type {
      tensor_type {
        elem_type: 7
        shape {
          dim {
            dim_value: 1
          }
        }
      }
    }
  }
  value_info {
    name: "2209"
    type {
      tensor_type {
        elem_type: 7
        shape {
          dim {
            dim_value: 1
          }
        }
      }
    }
  }
  value_info {
    name: "2212"
    type {
      tensor_type {
        elem_type: 7
        shape {
          dim {
            dim_value: 1
          }
        }
      }
    }
  }
  value_info {
    name: "2213"
    type {
      tensor_type {
        elem_type: 7
        shape {
          dim {
            dim_value: 1
          }
        }
      }
    }
  }
  value_info {
    name: "2214"
    type {
      tensor_type {
        elem_type: 7
        shape {
          dim {
            dim_value: 1
          }
        }
      }
    }
  }
  value_info {
    name: "2216"
    type {
      tensor_type {
        elem_type: 7
        shape {
          dim {
            dim_value: 1
          }
        }
      }
    }
  }
  value_info {
    name: "2217"
    type {
      tensor_type {
        elem_type: 7
        shape {
          dim {
            dim_value: 1
          }
        }
      }
    }
  }
  value_info {
    name: "2218"
    type {
      tensor_type {
        elem_type: 7
        shape {
          dim {
            dim_value: 1
          }
        }
      }
    }
  }
  value_info {
    name: "2220"
    type {
      tensor_type {
        elem_type: 7
        shape {
          dim {
            dim_value: 1
          }
        }
      }
    }
  }
  value_info {
    name: "2221"
    type {
      tensor_type {
        elem_type: 7
        shape {
          dim {
            dim_value: 1
          }
        }
      }
    }
  }
  value_info {
    name: "2222"
    type {
      tensor_type {
        elem_type: 7
        shape {
          dim {
            dim_value: 1
          }
        }
      }
    }
  }
  value_info {
    name: "2223"
    type {
      tensor_type {
        elem_type: 7
        shape {
          dim {
            dim_value: 1
          }
        }
      }
    }
  }
  value_info {
    name: "2224"
    type {
      tensor_type {
        elem_type: 7
        shape {
          dim {
            dim_value: 1
          }
        }
      }
    }
  }
  value_info {
    name: "2229"
    type {
      tensor_type {
        elem_type: 7
        shape {
          dim {
            dim_value: 1
          }
        }
      }
    }
  }
  value_info {
    name: "2230"
    type {
      tensor_type {
        elem_type: 7
        shape {
          dim {
            dim_value: 1
          }
        }
      }
    }
  }
  value_info {
    name: "2231"
    type {
      tensor_type {
        elem_type: 7
        shape {
          dim {
            dim_value: 1
          }
        }
      }
    }
  }
  value_info {
    name: "2233"
    type {
      tensor_type {
        elem_type: 7
        shape {
          dim {
            dim_value: 1
          }
        }
      }
    }
  }
  value_info {
    name: "2234"
    type {
      tensor_type {
        elem_type: 7
        shape {
          dim {
            dim_value: 1
          }
        }
      }
    }
  }
  value_info {
    name: "2235"
    type {
      tensor_type {
        elem_type: 7
        shape {
          dim {
            dim_value: 1
          }
        }
      }
    }
  }
  value_info {
    name: "2237"
    type {
      tensor_type {
        elem_type: 7
        shape {
          dim {
            dim_value: 1
          }
        }
      }
    }
  }
  value_info {
    name: "2238"
    type {
      tensor_type {
        elem_type: 7
        shape {
          dim {
            dim_value: 1
          }
        }
      }
    }
  }
  value_info {
    name: "2239"
    type {
      tensor_type {
        elem_type: 7
        shape {
          dim {
            dim_value: 1
          }
        }
      }
    }
  }
  value_info {
    name: "2240"
    type {
      tensor_type {
        elem_type: 7
        shape {
          dim {
            dim_value: 1
          }
        }
      }
    }
  }
  value_info {
    name: "2241"
    type {
      tensor_type {
        elem_type: 7
        shape {
          dim {
            dim_value: 1
          }
        }
      }
    }
  }
  value_info {
    name: "2244"
    type {
      tensor_type {
        elem_type: 7
        shape {
          dim {
            dim_value: 1
          }
        }
      }
    }
  }
  value_info {
    name: "2245"
    type {
      tensor_type {
        elem_type: 7
        shape {
          dim {
            dim_value: 1
          }
        }
      }
    }
  }
  value_info {
    name: "2246"
    type {
      tensor_type {
        elem_type: 7
        shape {
          dim {
            dim_value: 1
          }
        }
      }
    }
  }
  value_info {
    name: "2248"
    type {
      tensor_type {
        elem_type: 7
        shape {
          dim {
            dim_value: 1
          }
        }
      }
    }
  }
  value_info {
    name: "2249"
    type {
      tensor_type {
        elem_type: 7
        shape {
          dim {
            dim_value: 1
          }
        }
      }
    }
  }
  value_info {
    name: "2250"
    type {
      tensor_type {
        elem_type: 7
        shape {
          dim {
            dim_value: 1
          }
        }
      }
    }
  }
  value_info {
    name: "2252"
    type {
      tensor_type {
        elem_type: 7
        shape {
          dim {
            dim_value: 1
          }
        }
      }
    }
  }
  value_info {
    name: "2253"
    type {
      tensor_type {
        elem_type: 7
        shape {
          dim {
            dim_value: 1
          }
        }
      }
    }
  }
  value_info {
    name: "2254"
    type {
      tensor_type {
        elem_type: 7
        shape {
          dim {
            dim_value: 1
          }
        }
      }
    }
  }
  value_info {
    name: "2255"
    type {
      tensor_type {
        elem_type: 7
        shape {
          dim {
            dim_value: 1
          }
        }
      }
    }
  }
  value_info {
    name: "2256"
    type {
      tensor_type {
        elem_type: 7
        shape {
          dim {
            dim_value: 1
          }
        }
      }
    }
  }
  value_info {
    name: "2261"
    type {
      tensor_type {
        elem_type: 7
        shape {
          dim {
            dim_value: 1
          }
        }
      }
    }
  }
  value_info {
    name: "2262"
    type {
      tensor_type {
        elem_type: 7
        shape {
          dim {
            dim_value: 1
          }
        }
      }
    }
  }
  value_info {
    name: "2263"
    type {
      tensor_type {
        elem_type: 7
        shape {
          dim {
            dim_value: 1
          }
        }
      }
    }
  }
  value_info {
    name: "2265"
    type {
      tensor_type {
        elem_type: 7
        shape {
          dim {
            dim_value: 1
          }
        }
      }
    }
  }
  value_info {
    name: "2266"
    type {
      tensor_type {
        elem_type: 7
        shape {
          dim {
            dim_value: 1
          }
        }
      }
    }
  }
  value_info {
    name: "2267"
    type {
      tensor_type {
        elem_type: 7
        shape {
          dim {
            dim_value: 1
          }
        }
      }
    }
  }
  value_info {
    name: "2269"
    type {
      tensor_type {
        elem_type: 7
        shape {
          dim {
            dim_value: 1
          }
        }
      }
    }
  }
  value_info {
    name: "2270"
    type {
      tensor_type {
        elem_type: 7
        shape {
          dim {
            dim_value: 1
          }
        }
      }
    }
  }
  value_info {
    name: "2271"
    type {
      tensor_type {
        elem_type: 7
        shape {
          dim {
            dim_value: 1
          }
        }
      }
    }
  }
  value_info {
    name: "2272"
    type {
      tensor_type {
        elem_type: 7
        shape {
          dim {
            dim_value: 1
          }
        }
      }
    }
  }
  value_info {
    name: "2273"
    type {
      tensor_type {
        elem_type: 7
        shape {
          dim {
            dim_value: 1
          }
        }
      }
    }
  }
  value_info {
    name: "2276"
    type {
      tensor_type {
        elem_type: 7
        shape {
          dim {
            dim_value: 1
          }
        }
      }
    }
  }
  value_info {
    name: "2277"
    type {
      tensor_type {
        elem_type: 7
        shape {
          dim {
            dim_value: 1
          }
        }
      }
    }
  }
  value_info {
    name: "2278"
    type {
      tensor_type {
        elem_type: 7
        shape {
          dim {
            dim_value: 1
          }
        }
      }
    }
  }
  value_info {
    name: "2280"
    type {
      tensor_type {
        elem_type: 7
        shape {
          dim {
            dim_value: 1
          }
        }
      }
    }
  }
  value_info {
    name: "2281"
    type {
      tensor_type {
        elem_type: 7
        shape {
          dim {
            dim_value: 1
          }
        }
      }
    }
  }
  value_info {
    name: "2282"
    type {
      tensor_type {
        elem_type: 7
        shape {
          dim {
            dim_value: 1
          }
        }
      }
    }
  }
  value_info {
    name: "2284"
    type {
      tensor_type {
        elem_type: 7
        shape {
          dim {
            dim_value: 1
          }
        }
      }
    }
  }
  value_info {
    name: "2285"
    type {
      tensor_type {
        elem_type: 7
        shape {
          dim {
            dim_value: 1
          }
        }
      }
    }
  }
  value_info {
    name: "2286"
    type {
      tensor_type {
        elem_type: 7
        shape {
          dim {
            dim_value: 1
          }
        }
      }
    }
  }
  value_info {
    name: "2287"
    type {
      tensor_type {
        elem_type: 7
        shape {
          dim {
            dim_value: 1
          }
        }
      }
    }
  }
  value_info {
    name: "2288"
    type {
      tensor_type {
        elem_type: 7
        shape {
          dim {
            dim_value: 1
          }
        }
      }
    }
  }
  value_info {
    name: "2293"
    type {
      tensor_type {
        elem_type: 7
        shape {
          dim {
            dim_value: 1
          }
        }
      }
    }
  }
  value_info {
    name: "2294"
    type {
      tensor_type {
        elem_type: 7
        shape {
          dim {
            dim_value: 1
          }
        }
      }
    }
  }
  value_info {
    name: "2295"
    type {
      tensor_type {
        elem_type: 7
        shape {
          dim {
            dim_value: 1
          }
        }
      }
    }
  }
  value_info {
    name: "2297"
    type {
      tensor_type {
        elem_type: 7
        shape {
          dim {
            dim_value: 1
          }
        }
      }
    }
  }
  value_info {
    name: "2298"
    type {
      tensor_type {
        elem_type: 7
        shape {
          dim {
            dim_value: 1
          }
        }
      }
    }
  }
  value_info {
    name: "2299"
    type {
      tensor_type {
        elem_type: 7
        shape {
          dim {
            dim_value: 1
          }
        }
      }
    }
  }
  value_info {
    name: "2301"
    type {
      tensor_type {
        elem_type: 7
        shape {
          dim {
            dim_value: 1
          }
        }
      }
    }
  }
  value_info {
    name: "2302"
    type {
      tensor_type {
        elem_type: 7
        shape {
          dim {
            dim_value: 1
          }
        }
      }
    }
  }
  value_info {
    name: "2303"
    type {
      tensor_type {
        elem_type: 7
        shape {
          dim {
            dim_value: 1
          }
        }
      }
    }
  }
  value_info {
    name: "2304"
    type {
      tensor_type {
        elem_type: 7
        shape {
          dim {
            dim_value: 1
          }
        }
      }
    }
  }
  value_info {
    name: "2305"
    type {
      tensor_type {
        elem_type: 7
        shape {
          dim {
            dim_value: 1
          }
        }
      }
    }
  }
  value_info {
    name: "2308"
    type {
      tensor_type {
        elem_type: 7
        shape {
          dim {
            dim_value: 1
          }
        }
      }
    }
  }
  value_info {
    name: "2309"
    type {
      tensor_type {
        elem_type: 7
        shape {
          dim {
            dim_value: 1
          }
        }
      }
    }
  }
  value_info {
    name: "2310"
    type {
      tensor_type {
        elem_type: 7
        shape {
          dim {
            dim_value: 1
          }
        }
      }
    }
  }
  value_info {
    name: "2312"
    type {
      tensor_type {
        elem_type: 7
        shape {
          dim {
            dim_value: 1
          }
        }
      }
    }
  }
  value_info {
    name: "2313"
    type {
      tensor_type {
        elem_type: 7
        shape {
          dim {
            dim_value: 1
          }
        }
      }
    }
  }
  value_info {
    name: "2314"
    type {
      tensor_type {
        elem_type: 7
        shape {
          dim {
            dim_value: 1
          }
        }
      }
    }
  }
  value_info {
    name: "2316"
    type {
      tensor_type {
        elem_type: 7
        shape {
          dim {
            dim_value: 1
          }
        }
      }
    }
  }
  value_info {
    name: "2317"
    type {
      tensor_type {
        elem_type: 7
        shape {
          dim {
            dim_value: 1
          }
        }
      }
    }
  }
  value_info {
    name: "2318"
    type {
      tensor_type {
        elem_type: 7
        shape {
          dim {
            dim_value: 1
          }
        }
      }
    }
  }
  value_info {
    name: "2319"
    type {
      tensor_type {
        elem_type: 7
        shape {
          dim {
            dim_value: 1
          }
        }
      }
    }
  }
  value_info {
    name: "2320"
    type {
      tensor_type {
        elem_type: 7
        shape {
          dim {
            dim_value: 1
          }
        }
      }
    }
  }
  value_info {
    name: "2325"
    type {
      tensor_type {
        elem_type: 7
        shape {
          dim {
            dim_value: 1
          }
        }
      }
    }
  }
  value_info {
    name: "2326"
    type {
      tensor_type {
        elem_type: 7
        shape {
          dim {
            dim_value: 1
          }
        }
      }
    }
  }
  value_info {
    name: "2327"
    type {
      tensor_type {
        elem_type: 7
        shape {
          dim {
            dim_value: 1
          }
        }
      }
    }
  }
  value_info {
    name: "2329"
    type {
      tensor_type {
        elem_type: 7
        shape {
          dim {
            dim_value: 1
          }
        }
      }
    }
  }
  value_info {
    name: "2330"
    type {
      tensor_type {
        elem_type: 7
        shape {
          dim {
            dim_value: 1
          }
        }
      }
    }
  }
  value_info {
    name: "2331"
    type {
      tensor_type {
        elem_type: 7
        shape {
          dim {
            dim_value: 1
          }
        }
      }
    }
  }
  value_info {
    name: "2333"
    type {
      tensor_type {
        elem_type: 7
        shape {
          dim {
            dim_value: 1
          }
        }
      }
    }
  }
  value_info {
    name: "2334"
    type {
      tensor_type {
        elem_type: 7
        shape {
          dim {
            dim_value: 1
          }
        }
      }
    }
  }
  value_info {
    name: "2335"
    type {
      tensor_type {
        elem_type: 7
        shape {
          dim {
            dim_value: 1
          }
        }
      }
    }
  }
  value_info {
    name: "2336"
    type {
      tensor_type {
        elem_type: 7
        shape {
          dim {
            dim_value: 1
          }
        }
      }
    }
  }
  value_info {
    name: "2337"
    type {
      tensor_type {
        elem_type: 7
        shape {
          dim {
            dim_value: 1
          }
        }
      }
    }
  }
  value_info {
    name: "2340"
    type {
      tensor_type {
        elem_type: 7
        shape {
          dim {
            dim_value: 1
          }
        }
      }
    }
  }
  value_info {
    name: "2341"
    type {
      tensor_type {
        elem_type: 7
        shape {
          dim {
            dim_value: 1
          }
        }
      }
    }
  }
  value_info {
    name: "2342"
    type {
      tensor_type {
        elem_type: 7
        shape {
          dim {
            dim_value: 1
          }
        }
      }
    }
  }
  value_info {
    name: "2344"
    type {
      tensor_type {
        elem_type: 7
        shape {
          dim {
            dim_value: 1
          }
        }
      }
    }
  }
  value_info {
    name: "2345"
    type {
      tensor_type {
        elem_type: 7
        shape {
          dim {
            dim_value: 1
          }
        }
      }
    }
  }
  value_info {
    name: "2346"
    type {
      tensor_type {
        elem_type: 7
        shape {
          dim {
            dim_value: 1
          }
        }
      }
    }
  }
  value_info {
    name: "2348"
    type {
      tensor_type {
        elem_type: 7
        shape {
          dim {
            dim_value: 1
          }
        }
      }
    }
  }
  value_info {
    name: "2349"
    type {
      tensor_type {
        elem_type: 7
        shape {
          dim {
            dim_value: 1
          }
        }
      }
    }
  }
  value_info {
    name: "2350"
    type {
      tensor_type {
        elem_type: 7
        shape {
          dim {
            dim_value: 1
          }
        }
      }
    }
  }
  value_info {
    name: "2351"
    type {
      tensor_type {
        elem_type: 7
        shape {
          dim {
            dim_value: 1
          }
        }
      }
    }
  }
  value_info {
    name: "2352"
    type {
      tensor_type {
        elem_type: 7
        shape {
          dim {
            dim_value: 1
          }
        }
      }
    }
  }
  value_info {
    name: "2357"
    type {
      tensor_type {
        elem_type: 7
        shape {
          dim {
            dim_value: 1
          }
        }
      }
    }
  }
  value_info {
    name: "2358"
    type {
      tensor_type {
        elem_type: 7
        shape {
          dim {
            dim_value: 1
          }
        }
      }
    }
  }
  value_info {
    name: "2359"
    type {
      tensor_type {
        elem_type: 7
        shape {
          dim {
            dim_value: 1
          }
        }
      }
    }
  }
  value_info {
    name: "2361"
    type {
      tensor_type {
        elem_type: 7
        shape {
          dim {
            dim_value: 1
          }
        }
      }
    }
  }
  value_info {
    name: "2362"
    type {
      tensor_type {
        elem_type: 7
        shape {
          dim {
            dim_value: 1
          }
        }
      }
    }
  }
  value_info {
    name: "2363"
    type {
      tensor_type {
        elem_type: 7
        shape {
          dim {
            dim_value: 1
          }
        }
      }
    }
  }
  value_info {
    name: "2365"
    type {
      tensor_type {
        elem_type: 7
        shape {
          dim {
            dim_value: 1
          }
        }
      }
    }
  }
  value_info {
    name: "2366"
    type {
      tensor_type {
        elem_type: 7
        shape {
          dim {
            dim_value: 1
          }
        }
      }
    }
  }
  value_info {
    name: "2367"
    type {
      tensor_type {
        elem_type: 7
        shape {
          dim {
            dim_value: 1
          }
        }
      }
    }
  }
  value_info {
    name: "2368"
    type {
      tensor_type {
        elem_type: 7
        shape {
          dim {
            dim_value: 1
          }
        }
      }
    }
  }
  value_info {
    name: "2369"
    type {
      tensor_type {
        elem_type: 7
        shape {
          dim {
            dim_value: 1
          }
        }
      }
    }
  }
  value_info {
    name: "2372"
    type {
      tensor_type {
        elem_type: 7
        shape {
          dim {
            dim_value: 1
          }
        }
      }
    }
  }
  value_info {
    name: "2373"
    type {
      tensor_type {
        elem_type: 7
        shape {
          dim {
            dim_value: 1
          }
        }
      }
    }
  }
  value_info {
    name: "2374"
    type {
      tensor_type {
        elem_type: 7
        shape {
          dim {
            dim_value: 1
          }
        }
      }
    }
  }
  value_info {
    name: "2376"
    type {
      tensor_type {
        elem_type: 7
        shape {
          dim {
            dim_value: 1
          }
        }
      }
    }
  }
  value_info {
    name: "2377"
    type {
      tensor_type {
        elem_type: 7
        shape {
          dim {
            dim_value: 1
          }
        }
      }
    }
  }
  value_info {
    name: "2378"
    type {
      tensor_type {
        elem_type: 7
        shape {
          dim {
            dim_value: 1
          }
        }
      }
    }
  }
  value_info {
    name: "2380"
    type {
      tensor_type {
        elem_type: 7
        shape {
          dim {
            dim_value: 1
          }
        }
      }
    }
  }
  value_info {
    name: "2381"
    type {
      tensor_type {
        elem_type: 7
        shape {
          dim {
            dim_value: 1
          }
        }
      }
    }
  }
  value_info {
    name: "2382"
    type {
      tensor_type {
        elem_type: 7
        shape {
          dim {
            dim_value: 1
          }
        }
      }
    }
  }
  value_info {
    name: "2383"
    type {
      tensor_type {
        elem_type: 7
        shape {
          dim {
            dim_value: 1
          }
        }
      }
    }
  }
  value_info {
    name: "2384"
    type {
      tensor_type {
        elem_type: 7
        shape {
          dim {
            dim_value: 1
          }
        }
      }
    }
  }
  value_info {
    name: "2389"
    type {
      tensor_type {
        elem_type: 7
        shape {
          dim {
            dim_value: 1
          }
        }
      }
    }
  }
  value_info {
    name: "2390"
    type {
      tensor_type {
        elem_type: 7
        shape {
          dim {
            dim_value: 1
          }
        }
      }
    }
  }
  value_info {
    name: "2391"
    type {
      tensor_type {
        elem_type: 7
        shape {
          dim {
            dim_value: 1
          }
        }
      }
    }
  }
  value_info {
    name: "2393"
    type {
      tensor_type {
        elem_type: 7
        shape {
          dim {
            dim_value: 1
          }
        }
      }
    }
  }
  value_info {
    name: "2394"
    type {
      tensor_type {
        elem_type: 7
        shape {
          dim {
            dim_value: 1
          }
        }
      }
    }
  }
  value_info {
    name: "2395"
    type {
      tensor_type {
        elem_type: 7
        shape {
          dim {
            dim_value: 1
          }
        }
      }
    }
  }
  value_info {
    name: "2397"
    type {
      tensor_type {
        elem_type: 7
        shape {
          dim {
            dim_value: 1
          }
        }
      }
    }
  }
  value_info {
    name: "2398"
    type {
      tensor_type {
        elem_type: 7
        shape {
          dim {
            dim_value: 1
          }
        }
      }
    }
  }
  value_info {
    name: "2399"
    type {
      tensor_type {
        elem_type: 7
        shape {
          dim {
            dim_value: 1
          }
        }
      }
    }
  }
  value_info {
    name: "2400"
    type {
      tensor_type {
        elem_type: 7
        shape {
          dim {
            dim_value: 1
          }
        }
      }
    }
  }
  value_info {
    name: "2401"
    type {
      tensor_type {
        elem_type: 7
        shape {
          dim {
            dim_value: 1
          }
        }
      }
    }
  }
  value_info {
    name: "2404"
    type {
      tensor_type {
        elem_type: 7
        shape {
          dim {
            dim_value: 1
          }
        }
      }
    }
  }
  value_info {
    name: "2405"
    type {
      tensor_type {
        elem_type: 7
        shape {
          dim {
            dim_value: 1
          }
        }
      }
    }
  }
  value_info {
    name: "2406"
    type {
      tensor_type {
        elem_type: 7
        shape {
          dim {
            dim_value: 1
          }
        }
      }
    }
  }
  value_info {
    name: "2408"
    type {
      tensor_type {
        elem_type: 7
        shape {
          dim {
            dim_value: 1
          }
        }
      }
    }
  }
  value_info {
    name: "2409"
    type {
      tensor_type {
        elem_type: 7
        shape {
          dim {
            dim_value: 1
          }
        }
      }
    }
  }
  value_info {
    name: "2410"
    type {
      tensor_type {
        elem_type: 7
        shape {
          dim {
            dim_value: 1
          }
        }
      }
    }
  }
  value_info {
    name: "2412"
    type {
      tensor_type {
        elem_type: 7
        shape {
          dim {
            dim_value: 1
          }
        }
      }
    }
  }
  value_info {
    name: "2413"
    type {
      tensor_type {
        elem_type: 7
        shape {
          dim {
            dim_value: 1
          }
        }
      }
    }
  }
  value_info {
    name: "2414"
    type {
      tensor_type {
        elem_type: 7
        shape {
          dim {
            dim_value: 1
          }
        }
      }
    }
  }
  value_info {
    name: "2415"
    type {
      tensor_type {
        elem_type: 7
        shape {
          dim {
            dim_value: 1
          }
        }
      }
    }
  }
  value_info {
    name: "2416"
    type {
      tensor_type {
        elem_type: 7
        shape {
          dim {
            dim_value: 1
          }
        }
      }
    }
  }
}
opset_import {
  domain: ""
  version: 12
}
