ir_version: 5
producer_name: "OnnxMLTools"
producer_version: "1.5.2"
domain: "onnxconverter-common"
doc_string: "The Tiny YOLO network from the paper \'YOLO9000: Better, Faster, Stronger\' (2016), arXiv:1612.08242"
graph {
  node {
    input: "image"
    input: "scalerPreprocessor_scale"
    output: "scalerPreprocessor_scaled"
    name: "Mul"
    op_type: "Mul"
  }
  node {
    input: "scalerPreprocessor_bias"
    input: "scalerPreprocessor_scaled"
    output: "image2"
    name: "Add"
    op_type: "Add"
  }
  node {
    input: "image2"
    input: "convolution_W"
    output: "convolution2d_1_output"
    name: "convolution"
    op_type: "Conv"
    attribute {
      name: "auto_pad"
      s: "SAME_UPPER"
      type: STRING
    }
    attribute {
      name: "dilations"
      ints: 1
      ints: 1
      type: INTS
    }
    attribute {
      name: "group"
      i: 1
      type: INT
    }
    attribute {
      name: "kernel_shape"
      ints: 3
      ints: 3
      type: INTS
    }
    attribute {
      name: "strides"
      ints: 1
      ints: 1
      type: INTS
    }
  }
  node {
    input: "convolution2d_1_output"
    input: "BatchNormalization_scale"
    input: "BatchNormalization_B"
    input: "BatchNormalization_mean"
    input: "BatchNormalization_variance"
    output: "batchnormalization_1_output"
    name: "batchnorm"
    op_type: "BatchNormalization"
    attribute {
      name: "epsilon"
      f: 1e-05
      type: FLOAT
    }
    attribute {
      name: "momentum"
      f: 0.0
      type: FLOAT
    }
    attribute {
      name: "spatial"
      i: 1
      type: INT
    }
  }
  node {
    input: "batchnormalization_1_output"
    output: "leakyrelu_1_output"
    name: "activation"
    op_type: "LeakyRelu"
    attribute {
      name: "alpha"
      f: 0.1
      type: FLOAT
    }
  }
  node {
    input: "leakyrelu_1_output"
    output: "maxpooling2d_1_output"
    name: "pooling"
    op_type: "MaxPool"
    attribute {
      name: "auto_pad"
      s: "SAME_UPPER"
      type: STRING
    }
    attribute {
      name: "kernel_shape"
      ints: 2
      ints: 2
      type: INTS
    }
    attribute {
      name: "strides"
      ints: 2
      ints: 2
      type: INTS
    }
  }
  node {
    input: "maxpooling2d_1_output"
    input: "convolution1_W"
    output: "convolution2d_2_output"
    name: "convolution1"
    op_type: "Conv"
    attribute {
      name: "auto_pad"
      s: "SAME_UPPER"
      type: STRING
    }
    attribute {
      name: "dilations"
      ints: 1
      ints: 1
      type: INTS
    }
    attribute {
      name: "group"
      i: 1
      type: INT
    }
    attribute {
      name: "kernel_shape"
      ints: 3
      ints: 3
      type: INTS
    }
    attribute {
      name: "strides"
      ints: 1
      ints: 1
      type: INTS
    }
  }
  node {
    input: "convolution2d_2_output"
    input: "BatchNormalization_scale1"
    input: "BatchNormalization_B1"
    input: "BatchNormalization_mean1"
    input: "BatchNormalization_variance1"
    output: "batchnormalization_2_output"
    name: "batchnorm1"
    op_type: "BatchNormalization"
    attribute {
      name: "epsilon"
      f: 1e-05
      type: FLOAT
    }
    attribute {
      name: "momentum"
      f: 0.0
      type: FLOAT
    }
    attribute {
      name: "spatial"
      i: 1
      type: INT
    }
  }
  node {
    input: "batchnormalization_2_output"
    output: "leakyrelu_2_output"
    name: "activation1"
    op_type: "LeakyRelu"
    attribute {
      name: "alpha"
      f: 0.1
      type: FLOAT
    }
  }
  node {
    input: "leakyrelu_2_output"
    output: "maxpooling2d_2_output"
    name: "pooling1"
    op_type: "MaxPool"
    attribute {
      name: "auto_pad"
      s: "SAME_UPPER"
      type: STRING
    }
    attribute {
      name: "kernel_shape"
      ints: 2
      ints: 2
      type: INTS
    }
    attribute {
      name: "strides"
      ints: 2
      ints: 2
      type: INTS
    }
  }
  node {
    input: "maxpooling2d_2_output"
    input: "convolution2_W"
    output: "convolution2d_3_output"
    name: "convolution2"
    op_type: "Conv"
    attribute {
      name: "auto_pad"
      s: "SAME_UPPER"
      type: STRING
    }
    attribute {
      name: "dilations"
      ints: 1
      ints: 1
      type: INTS
    }
    attribute {
      name: "group"
      i: 1
      type: INT
    }
    attribute {
      name: "kernel_shape"
      ints: 3
      ints: 3
      type: INTS
    }
    attribute {
      name: "strides"
      ints: 1
      ints: 1
      type: INTS
    }
  }
  node {
    input: "convolution2d_3_output"
    input: "BatchNormalization_scale2"
    input: "BatchNormalization_B2"
    input: "BatchNormalization_mean2"
    input: "BatchNormalization_variance2"
    output: "batchnormalization_3_output"
    name: "batchnorm2"
    op_type: "BatchNormalization"
    attribute {
      name: "epsilon"
      f: 1e-05
      type: FLOAT
    }
    attribute {
      name: "momentum"
      f: 0.0
      type: FLOAT
    }
    attribute {
      name: "spatial"
      i: 1
      type: INT
    }
  }
  node {
    input: "batchnormalization_3_output"
    output: "leakyrelu_3_output"
    name: "activation2"
    op_type: "LeakyRelu"
    attribute {
      name: "alpha"
      f: 0.1
      type: FLOAT
    }
  }
  node {
    input: "leakyrelu_3_output"
    output: "maxpooling2d_3_output"
    name: "pooling2"
    op_type: "MaxPool"
    attribute {
      name: "auto_pad"
      s: "SAME_UPPER"
      type: STRING
    }
    attribute {
      name: "kernel_shape"
      ints: 2
      ints: 2
      type: INTS
    }
    attribute {
      name: "strides"
      ints: 2
      ints: 2
      type: INTS
    }
  }
  node {
    input: "maxpooling2d_3_output"
    input: "convolution3_W"
    output: "convolution2d_4_output"
    name: "convolution3"
    op_type: "Conv"
    attribute {
      name: "auto_pad"
      s: "SAME_UPPER"
      type: STRING
    }
    attribute {
      name: "dilations"
      ints: 1
      ints: 1
      type: INTS
    }
    attribute {
      name: "group"
      i: 1
      type: INT
    }
    attribute {
      name: "kernel_shape"
      ints: 3
      ints: 3
      type: INTS
    }
    attribute {
      name: "strides"
      ints: 1
      ints: 1
      type: INTS
    }
  }
  node {
    input: "convolution2d_4_output"
    input: "BatchNormalization_scale3"
    input: "BatchNormalization_B3"
    input: "BatchNormalization_mean3"
    input: "BatchNormalization_variance3"
    output: "batchnormalization_4_output"
    name: "batchnorm3"
    op_type: "BatchNormalization"
    attribute {
      name: "epsilon"
      f: 1e-05
      type: FLOAT
    }
    attribute {
      name: "momentum"
      f: 0.0
      type: FLOAT
    }
    attribute {
      name: "spatial"
      i: 1
      type: INT
    }
  }
  node {
    input: "batchnormalization_4_output"
    output: "leakyrelu_4_output"
    name: "activation3"
    op_type: "LeakyRelu"
    attribute {
      name: "alpha"
      f: 0.1
      type: FLOAT
    }
  }
  node {
    input: "leakyrelu_4_output"
    output: "maxpooling2d_4_output"
    name: "pooling3"
    op_type: "MaxPool"
    attribute {
      name: "auto_pad"
      s: "SAME_UPPER"
      type: STRING
    }
    attribute {
      name: "kernel_shape"
      ints: 2
      ints: 2
      type: INTS
    }
    attribute {
      name: "strides"
      ints: 2
      ints: 2
      type: INTS
    }
  }
  node {
    input: "maxpooling2d_4_output"
    input: "convolution4_W"
    output: "convolution2d_5_output"
    name: "convolution4"
    op_type: "Conv"
    attribute {
      name: "auto_pad"
      s: "SAME_UPPER"
      type: STRING
    }
    attribute {
      name: "dilations"
      ints: 1
      ints: 1
      type: INTS
    }
    attribute {
      name: "group"
      i: 1
      type: INT
    }
    attribute {
      name: "kernel_shape"
      ints: 3
      ints: 3
      type: INTS
    }
    attribute {
      name: "strides"
      ints: 1
      ints: 1
      type: INTS
    }
  }
  node {
    input: "convolution2d_5_output"
    input: "BatchNormalization_scale4"
    input: "BatchNormalization_B4"
    input: "BatchNormalization_mean4"
    input: "BatchNormalization_variance4"
    output: "batchnormalization_5_output"
    name: "batchnorm4"
    op_type: "BatchNormalization"
    attribute {
      name: "epsilon"
      f: 1e-05
      type: FLOAT
    }
    attribute {
      name: "momentum"
      f: 0.0
      type: FLOAT
    }
    attribute {
      name: "spatial"
      i: 1
      type: INT
    }
  }
  node {
    input: "batchnormalization_5_output"
    output: "leakyrelu_5_output"
    name: "activation4"
    op_type: "LeakyRelu"
    attribute {
      name: "alpha"
      f: 0.1
      type: FLOAT
    }
  }
  node {
    input: "leakyrelu_5_output"
    output: "maxpooling2d_5_output"
    name: "pooling4"
    op_type: "MaxPool"
    attribute {
      name: "auto_pad"
      s: "SAME_UPPER"
      type: STRING
    }
    attribute {
      name: "kernel_shape"
      ints: 2
      ints: 2
      type: INTS
    }
    attribute {
      name: "strides"
      ints: 2
      ints: 2
      type: INTS
    }
  }
  node {
    input: "maxpooling2d_5_output"
    input: "convolution5_W"
    output: "convolution2d_6_output"
    name: "convolution5"
    op_type: "Conv"
    attribute {
      name: "auto_pad"
      s: "SAME_UPPER"
      type: STRING
    }
    attribute {
      name: "dilations"
      ints: 1
      ints: 1
      type: INTS
    }
    attribute {
      name: "group"
      i: 1
      type: INT
    }
    attribute {
      name: "kernel_shape"
      ints: 3
      ints: 3
      type: INTS
    }
    attribute {
      name: "strides"
      ints: 1
      ints: 1
      type: INTS
    }
  }
  node {
    input: "convolution2d_6_output"
    input: "BatchNormalization_scale5"
    input: "BatchNormalization_B5"
    input: "BatchNormalization_mean5"
    input: "BatchNormalization_variance5"
    output: "batchnormalization_6_output"
    name: "batchnorm5"
    op_type: "BatchNormalization"
    attribute {
      name: "epsilon"
      f: 1e-05
      type: FLOAT
    }
    attribute {
      name: "momentum"
      f: 0.0
      type: FLOAT
    }
    attribute {
      name: "spatial"
      i: 1
      type: INT
    }
  }
  node {
    input: "batchnormalization_6_output"
    output: "leakyrelu_6_output"
    name: "activation5"
    op_type: "LeakyRelu"
    attribute {
      name: "alpha"
      f: 0.1
      type: FLOAT
    }
  }
  node {
    input: "leakyrelu_6_output"
    output: "maxpooling2d_6_output"
    name: "pooling5"
    op_type: "MaxPool"
    attribute {
      name: "auto_pad"
      s: "SAME_UPPER"
      type: STRING
    }
    attribute {
      name: "kernel_shape"
      ints: 2
      ints: 2
      type: INTS
    }
    attribute {
      name: "strides"
      ints: 1
      ints: 1
      type: INTS
    }
  }
  node {
    input: "maxpooling2d_6_output"
    input: "convolution6_W"
    output: "convolution2d_7_output"
    name: "convolution6"
    op_type: "Conv"
    attribute {
      name: "auto_pad"
      s: "SAME_UPPER"
      type: STRING
    }
    attribute {
      name: "dilations"
      ints: 1
      ints: 1
      type: INTS
    }
    attribute {
      name: "group"
      i: 1
      type: INT
    }
    attribute {
      name: "kernel_shape"
      ints: 3
      ints: 3
      type: INTS
    }
    attribute {
      name: "strides"
      ints: 1
      ints: 1
      type: INTS
    }
  }
  node {
    input: "convolution2d_7_output"
    input: "BatchNormalization_scale6"
    input: "BatchNormalization_B6"
    input: "BatchNormalization_mean6"
    input: "BatchNormalization_variance6"
    output: "batchnormalization_7_output"
    name: "batchnorm6"
    op_type: "BatchNormalization"
    attribute {
      name: "epsilon"
      f: 1e-05
      type: FLOAT
    }
    attribute {
      name: "momentum"
      f: 0.0
      type: FLOAT
    }
    attribute {
      name: "spatial"
      i: 1
      type: INT
    }
  }
  node {
    input: "batchnormalization_7_output"
    output: "leakyrelu_7_output"
    name: "activation6"
    op_type: "LeakyRelu"
    attribute {
      name: "alpha"
      f: 0.1
      type: FLOAT
    }
  }
  node {
    input: "leakyrelu_7_output"
    input: "convolution7_W"
    output: "convolution2d_8_output"
    name: "convolution7"
    op_type: "Conv"
    attribute {
      name: "auto_pad"
      s: "SAME_UPPER"
      type: STRING
    }
    attribute {
      name: "dilations"
      ints: 1
      ints: 1
      type: INTS
    }
    attribute {
      name: "group"
      i: 1
      type: INT
    }
    attribute {
      name: "kernel_shape"
      ints: 3
      ints: 3
      type: INTS
    }
    attribute {
      name: "strides"
      ints: 1
      ints: 1
      type: INTS
    }
  }
  node {
    input: "convolution2d_8_output"
    input: "BatchNormalization_scale7"
    input: "BatchNormalization_B7"
    input: "BatchNormalization_mean7"
    input: "BatchNormalization_variance7"
    output: "batchnormalization_8_output"
    name: "batchnorm7"
    op_type: "BatchNormalization"
    attribute {
      name: "epsilon"
      f: 1e-05
      type: FLOAT
    }
    attribute {
      name: "momentum"
      f: 0.0
      type: FLOAT
    }
    attribute {
      name: "spatial"
      i: 1
      type: INT
    }
  }
  node {
    input: "batchnormalization_8_output"
    output: "leakyrelu_8_output"
    name: "activation7"
    op_type: "LeakyRelu"
    attribute {
      name: "alpha"
      f: 0.1
      type: FLOAT
    }
  }
  node {
    input: "leakyrelu_8_output"
    input: "convolution8_W"
    input: "convolution8_B"
    output: "grid"
    name: "convolution8"
    op_type: "Conv"
    attribute {
      name: "auto_pad"
      s: "SAME_UPPER"
      type: STRING
    }
    attribute {
      name: "dilations"
      ints: 1
      ints: 1
      type: INTS
    }
    attribute {
      name: "group"
      i: 1
      type: INT
    }
    attribute {
      name: "kernel_shape"
      ints: 1
      ints: 1
      type: INTS
    }
    attribute {
      name: "strides"
      ints: 1
      ints: 1
      type: INTS
    }
  }
  name: "Example Model"
  initializer {
    dims: 1
    data_type: 1
    float_data: 0.003921569
    name: "scalerPreprocessor_scale"
  }
  initializer {
    dims: 3
    dims: 1
    dims: 1
    data_type: 1
    float_data: 0.0
    float_data: 0.0
    float_data: 0.0
    name: "scalerPreprocessor_bias"
  }
  initializer {
    dims: 16
    data_type: 1
…
    name: "BatchNormalization_scale"
  }
  initializer {
    dims: 16
    data_type: 1
…
    name: "BatchNormalization_B"
  }
  initializer {
    dims: 16
    data_type: 1
…
    name: "BatchNormalization_mean"
  }
  initializer {
    dims: 16
    data_type: 1
…
    name: "BatchNormalization_variance"
  }
  initializer {
    dims: 32
    data_type: 1
…
    name: "BatchNormalization_scale1"
  }
  initializer {
    dims: 32
    data_type: 1
…
    name: "BatchNormalization_B1"
  }
  initializer {
    dims: 32
    data_type: 1
…
    name: "BatchNormalization_mean1"
  }
  initializer {
    dims: 32
    data_type: 1
…
    name: "BatchNormalization_variance1"
  }
  initializer {
    dims: 64
    data_type: 1
…
    name: "BatchNormalization_scale2"
  }
  initializer {
    dims: 64
    data_type: 1
…
    name: "BatchNormalization_B2"
  }
  initializer {
    dims: 64
    data_type: 1
…
    name: "BatchNormalization_mean2"
  }
  initializer {
    dims: 64
    data_type: 1
…
    name: "BatchNormalization_variance2"
  }
  input {
    name: "image"
    type {
      tensor_type {
        elem_type: 1
        shape {
          dim {
            dim_param: "None"
            denotation: "DATA_BATCH"
          }
          dim {
            dim_value: 3
            denotation: "DATA_CHANNEL"
          }
          dim {
            dim_value: 416
            denotation: "DATA_FEATURE"
          }
          dim {
            dim_value: 416
            denotation: "DATA_FEATURE"
          }
        }
      }
      denotation: "IMAGE"
    }
    doc_string: "Input image. Image(s) in RGB format. It is a [N, C, H, W]-tensor. The 1st/2nd/3rd slices along the C-axis are red, green, and blue channels, respectively."
  }
  input {
    name: "scalerPreprocessor_scale"
    type {
      tensor_type {
        elem_type: 1
        shape {
          dim {
            dim_value: 1
          }
        }
      }
    }
  }
  input {
    name: "scalerPreprocessor_bias"
    type {
      tensor_type {
        elem_type: 1
        shape {
          dim {
            dim_value: 3
          }
          dim {
            dim_value: 1
          }
          dim {
            dim_value: 1
          }
        }
      }
    }
  }
  input {
    name: "convolution_W"
    type {
      tensor_type {
        elem_type: 1
        shape {
          dim {
            dim_value: 16
          }
          dim {
            dim_value: 3
          }
          dim {
            dim_value: 3
          }
          dim {
            dim_value: 3
          }
        }
      }
    }
  }
  input {
    name: "BatchNormalization_scale"
    type {
      tensor_type {
        elem_type: 1
        shape {
          dim {
            dim_value: 16
          }
        }
      }
    }
  }
  input {
    name: "BatchNormalization_B"
    type {
      tensor_type {
        elem_type: 1
        shape {
          dim {
            dim_value: 16
          }
        }
      }
    }
  }
  input {
    name: "BatchNormalization_mean"
    type {
      tensor_type {
        elem_type: 1
        shape {
          dim {
            dim_value: 16
          }
        }
      }
    }
  }
  input {
    name: "BatchNormalization_variance"
    type {
      tensor_type {
        elem_type: 1
        shape {
          dim {
            dim_value: 16
          }
        }
      }
    }
  }
  input {
    name: "convolution1_W"
    type {
      tensor_type {
        elem_type: 1
        shape {
          dim {
            dim_value: 32
          }
          dim {
            dim_value: 16
          }
          dim {
            dim_value: 3
          }
          dim {
            dim_value: 3
          }
        }
      }
    }
  }
  input {
    name: "BatchNormalization_scale1"
    type {
      tensor_type {
        elem_type: 1
        shape {
          dim {
            dim_value: 32
          }
        }
      }
    }
  }
  input {
    name: "BatchNormalization_B1"
    type {
      tensor_type {
        elem_type: 1
        shape {
          dim {
            dim_value: 32
          }
        }
      }
    }
  }
  input {
    name: "BatchNormalization_mean1"
    type {
      tensor_type {
        elem_type: 1
        shape {
          dim {
            dim_value: 32
          }
        }
      }
    }
  }
  input {
    name: "BatchNormalization_variance1"
    type {
      tensor_type {
        elem_type: 1
        shape {
          dim {
            dim_value: 32
          }
        }
      }
    }
  }
  input {
    name: "convolution2_W"
    type {
      tensor_type {
        elem_type: 1
        shape {
          dim {
            dim_value: 64
          }
          dim {
            dim_value: 32
          }
          dim {
            dim_value: 3
          }
          dim {
            dim_value: 3
          }
        }
      }
    }
  }
  input {
    name: "BatchNormalization_scale2"
    type {
      tensor_type {
        elem_type: 1
        shape {
          dim {
            dim_value: 64
          }
        }
      }
    }
  }
  input {
    name: "BatchNormalization_B2"
    type {
      tensor_type {
        elem_type: 1
        shape {
          dim {
            dim_value: 64
          }
        }
      }
    }
  }
  input {
    name: "BatchNormalization_mean2"
    type {
      tensor_type {
        elem_type: 1
        shape {
          dim {
            dim_value: 64
          }
        }
      }
    }
  }
  input {
    name: "BatchNormalization_variance2"
    type {
      tensor_type {
        elem_type: 1
        shape {
          dim {
            dim_value: 64
          }
        }
      }
    }
  }
  input {
    name: "convolution3_W"
    type {
      tensor_type {
        elem_type: 1
        shape {
          dim {
            dim_value: 128
          }
          dim {
            dim_value: 64
          }
          dim {
            dim_value: 3
          }
          dim {
            dim_value: 3
          }
        }
      }
    }
  }
  input {
    name: "BatchNormalization_scale3"
    type {
      tensor_type {
        elem_type: 1
        shape {
          dim {
            dim_value: 128
          }
        }
      }
    }
  }
  input {
    name: "BatchNormalization_B3"
    type {
      tensor_type {
        elem_type: 1
        shape {
          dim {
            dim_value: 128
          }
        }
      }
    }
  }
  input {
    name: "BatchNormalization_mean3"
    type {
      tensor_type {
        elem_type: 1
        shape {
          dim {
            dim_value: 128
          }
        }
      }
    }
  }
  input {
    name: "BatchNormalization_variance3"
    type {
      tensor_type {
        elem_type: 1
        shape {
          dim {
            dim_value: 128
          }
        }
      }
    }
  }
  input {
    name: "convolution4_W"
    type {
      tensor_type {
        elem_type: 1
        shape {
          dim {
            dim_value: 256
          }
          dim {
            dim_value: 128
          }
          dim {
            dim_value: 3
          }
          dim {
            dim_value: 3
          }
        }
      }
    }
  }
  input {
    name: "BatchNormalization_scale4"
    type {
      tensor_type {
        elem_type: 1
        shape {
          dim {
            dim_value: 256
          }
        }
      }
    }
  }
  input {
    name: "BatchNormalization_B4"
    type {
      tensor_type {
        elem_type: 1
        shape {
          dim {
            dim_value: 256
          }
        }
      }
    }
  }
  input {
    name: "BatchNormalization_mean4"
    type {
      tensor_type {
        elem_type: 1
        shape {
          dim {
            dim_value: 256
          }
        }
      }
    }
  }
  input {
    name: "BatchNormalization_variance4"
    type {
      tensor_type {
        elem_type: 1
        shape {
          dim {
            dim_value: 256
          }
        }
      }
    }
  }
  input {
    name: "convolution5_W"
    type {
      tensor_type {
        elem_type: 1
        shape {
          dim {
            dim_value: 512
          }
          dim {
            dim_value: 256
          }
          dim {
            dim_value: 3
          }
          dim {
            dim_value: 3
          }
        }
      }
    }
  }
  input {
    name: "BatchNormalization_scale5"
    type {
      tensor_type {
        elem_type: 1
        shape {
          dim {
            dim_value: 512
          }
        }
      }
    }
  }
  input {
    name: "BatchNormalization_B5"
    type {
      tensor_type {
        elem_type: 1
        shape {
          dim {
            dim_value: 512
          }
        }
      }
    }
  }
  input {
    name: "BatchNormalization_mean5"
    type {
      tensor_type {
        elem_type: 1
        shape {
          dim {
            dim_value: 512
          }
        }
      }
    }
  }
  input {
    name: "BatchNormalization_variance5"
    type {
      tensor_type {
        elem_type: 1
        shape {
          dim {
            dim_value: 512
          }
        }
      }
    }
  }
  input {
    name: "convolution6_W"
    type {
      tensor_type {
        elem_type: 1
        shape {
          dim {
            dim_value: 1024
          }
          dim {
            dim_value: 512
          }
          dim {
            dim_value: 3
          }
          dim {
            dim_value: 3
          }
        }
      }
    }
  }
  input {
    name: "BatchNormalization_scale6"
    type {
      tensor_type {
        elem_type: 1
        shape {
          dim {
            dim_value: 1024
          }
        }
      }
    }
  }
  input {
    name: "BatchNormalization_B6"
    type {
      tensor_type {
        elem_type: 1
        shape {
          dim {
            dim_value: 1024
          }
        }
      }
    }
  }
  input {
    name: "BatchNormalization_mean6"
    type {
      tensor_type {
        elem_type: 1
        shape {
          dim {
            dim_value: 1024
          }
        }
      }
    }
  }
  input {
    name: "BatchNormalization_variance6"
    type {
      tensor_type {
        elem_type: 1
        shape {
          dim {
            dim_value: 1024
          }
        }
      }
    }
  }
  input {
    name: "convolution7_W"
    type {
      tensor_type {
        elem_type: 1
        shape {
          dim {
            dim_value: 1024
          }
          dim {
            dim_value: 1024
          }
          dim {
            dim_value: 3
          }
          dim {
            dim_value: 3
          }
        }
      }
    }
  }
  input {
    name: "BatchNormalization_scale7"
    type {
      tensor_type {
        elem_type: 1
        shape {
          dim {
            dim_value: 1024
          }
        }
      }
    }
  }
  input {
    name: "BatchNormalization_B7"
    type {
      tensor_type {
        elem_type: 1
        shape {
          dim {
            dim_value: 1024
          }
        }
      }
    }
  }
  input {
    name: "BatchNormalization_mean7"
    type {
      tensor_type {
        elem_type: 1
        shape {
          dim {
            dim_value: 1024
          }
        }
      }
    }
  }
  input {
    name: "BatchNormalization_variance7"
    type {
      tensor_type {
        elem_type: 1
        shape {
          dim {
            dim_value: 1024
          }
        }
      }
    }
  }
  input {
    name: "convolution8_W"
    type {
      tensor_type {
        elem_type: 1
        shape {
          dim {
            dim_value: 125
          }
          dim {
            dim_value: 1024
          }
          dim {
            dim_value: 1
          }
          dim {
            dim_value: 1
          }
        }
      }
    }
  }
  input {
    name: "convolution8_B"
    type {
      tensor_type {
        elem_type: 1
        shape {
          dim {
            dim_value: 125
          }
        }
      }
    }
  }
  output {
    name: "grid"
    type {
      tensor_type {
        elem_type: 1
        shape {
          dim {
            dim_param: "None"
          }
          dim {
            dim_value: 125
          }
          dim {
            dim_value: 13
          }
          dim {
            dim_value: 13
          }
        }
      }
    }
    doc_string: "The 13x13 grid with the bounding box data"
  }
}
opset_import {
  domain: ""
  version: 8
}
metadata_props {
  key: "Image.BitmapPixelFormat"
  value: "Rgb8"
}
metadata_props {
  key: "author"
  value: "Original paper: Joseph Redmon, Ali Farhadi"
}
metadata_props {
  key: "license"
  value: "Public Domain"
}
