ir_version: 4
producer_name: "pytorch"
producer_version: "1.3"
graph {
  node {
    input: "input"
    input: "base_net.0.0.weight"
    output: "245"
    op_type: "Conv"
    attribute {
      name: "dilations"
      ints: 1
      ints: 1
      type: INTS
    }
    attribute {
      name: "group"
      i: 1
      type: INT
    }
    attribute {
      name: "kernel_shape"
      ints: 3
      ints: 3
      type: INTS
    }
    attribute {
      name: "pads"
      ints: 1
      ints: 1
      ints: 1
      ints: 1
      type: INTS
    }
    attribute {
      name: "strides"
      ints: 2
      ints: 2
      type: INTS
    }
  }
  node {
    input: "245"
    input: "base_net.0.1.weight"
    input: "base_net.0.1.bias"
    input: "base_net.0.1.running_mean"
    input: "base_net.0.1.running_var"
    output: "246"
    op_type: "BatchNormalization"
    attribute {
      name: "epsilon"
      f: 1e-05
      type: FLOAT
    }
    attribute {
      name: "momentum"
      f: 0.9
      type: FLOAT
    }
  }
  node {
    input: "246"
    output: "247"
    op_type: "Relu"
  }
  node {
    input: "247"
    input: "base_net.1.0.weight"
    output: "248"
    op_type: "Conv"
    attribute {
      name: "dilations"
      ints: 1
      ints: 1
      type: INTS
    }
    attribute {
      name: "group"
      i: 16
      type: INT
    }
    attribute {
      name: "kernel_shape"
      ints: 3
      ints: 3
      type: INTS
    }
    attribute {
      name: "pads"
      ints: 1
      ints: 1
      ints: 1
      ints: 1
      type: INTS
    }
    attribute {
      name: "strides"
      ints: 1
      ints: 1
      type: INTS
    }
  }
  node {
    input: "248"
    input: "base_net.1.1.weight"
    input: "base_net.1.1.bias"
    input: "base_net.1.1.running_mean"
    input: "base_net.1.1.running_var"
    output: "249"
    op_type: "BatchNormalization"
    attribute {
      name: "epsilon"
      f: 1e-05
      type: FLOAT
    }
    attribute {
      name: "momentum"
      f: 0.9
      type: FLOAT
    }
  }
  node {
    input: "249"
    output: "250"
    op_type: "Relu"
  }
  node {
    input: "250"
    input: "base_net.1.3.weight"
    output: "251"
    op_type: "Conv"
    attribute {
      name: "dilations"
      ints: 1
      ints: 1
      type: INTS
    }
    attribute {
      name: "group"
      i: 1
      type: INT
    }
    attribute {
      name: "kernel_shape"
      ints: 1
      ints: 1
      type: INTS
    }
    attribute {
      name: "pads"
      ints: 0
      ints: 0
      ints: 0
      ints: 0
      type: INTS
    }
    attribute {
      name: "strides"
      ints: 1
      ints: 1
      type: INTS
    }
  }
  node {
    input: "251"
    input: "base_net.1.4.weight"
    input: "base_net.1.4.bias"
    input: "base_net.1.4.running_mean"
    input: "base_net.1.4.running_var"
    output: "252"
    op_type: "BatchNormalization"
    attribute {
      name: "epsilon"
      f: 1e-05
      type: FLOAT
    }
    attribute {
      name: "momentum"
      f: 0.9
      type: FLOAT
    }
  }
  node {
    input: "252"
    output: "253"
    op_type: "Relu"
  }
  node {
    input: "253"
    input: "base_net.2.0.weight"
    output: "254"
    op_type: "Conv"
    attribute {
      name: "dilations"
      ints: 1
      ints: 1
      type: INTS
    }
    attribute {
      name: "group"
      i: 32
      type: INT
    }
    attribute {
      name: "kernel_shape"
      ints: 3
      ints: 3
      type: INTS
    }
    attribute {
      name: "pads"
      ints: 1
      ints: 1
      ints: 1
      ints: 1
      type: INTS
    }
    attribute {
      name: "strides"
      ints: 2
      ints: 2
      type: INTS
    }
  }
  node {
    input: "254"
    input: "base_net.2.1.weight"
    input: "base_net.2.1.bias"
    input: "base_net.2.1.running_mean"
    input: "base_net.2.1.running_var"
    output: "255"
    op_type: "BatchNormalization"
    attribute {
      name: "epsilon"
      f: 1e-05
      type: FLOAT
    }
    attribute {
      name: "momentum"
      f: 0.9
      type: FLOAT
    }
  }
  node {
    input: "255"
    output: "256"
    op_type: "Relu"
  }
  node {
    input: "256"
    input: "base_net.2.3.weight"
    output: "257"
    op_type: "Conv"
    attribute {
      name: "dilations"
      ints: 1
      ints: 1
      type: INTS
    }
    attribute {
      name: "group"
      i: 1
      type: INT
    }
    attribute {
      name: "kernel_shape"
      ints: 1
      ints: 1
      type: INTS
    }
    attribute {
      name: "pads"
      ints: 0
      ints: 0
      ints: 0
      ints: 0
      type: INTS
    }
    attribute {
      name: "strides"
      ints: 1
      ints: 1
      type: INTS
    }
  }
  node {
    input: "257"
    input: "base_net.2.4.weight"
    input: "base_net.2.4.bias"
    input: "base_net.2.4.running_mean"
    input: "base_net.2.4.running_var"
    output: "258"
    op_type: "BatchNormalization"
    attribute {
      name: "epsilon"
      f: 1e-05
      type: FLOAT
    }
    attribute {
      name: "momentum"
      f: 0.9
      type: FLOAT
    }
  }
  node {
    input: "258"
    output: "259"
    op_type: "Relu"
  }
  node {
    input: "259"
    input: "base_net.3.0.weight"
    output: "260"
    op_type: "Conv"
    attribute {
      name: "dilations"
      ints: 1
      ints: 1
      type: INTS
    }
    attribute {
      name: "group"
      i: 32
      type: INT
    }
    attribute {
      name: "kernel_shape"
      ints: 3
      ints: 3
      type: INTS
    }
    attribute {
      name: "pads"
      ints: 1
      ints: 1
      ints: 1
      ints: 1
      type: INTS
    }
    attribute {
      name: "strides"
      ints: 1
      ints: 1
      type: INTS
    }
  }
  node {
    input: "260"
    input: "base_net.3.1.weight"
    input: "base_net.3.1.bias"
    input: "base_net.3.1.running_mean"
    input: "base_net.3.1.running_var"
    output: "261"
    op_type: "BatchNormalization"
    attribute {
      name: "epsilon"
      f: 1e-05
      type: FLOAT
    }
    attribute {
      name: "momentum"
      f: 0.9
      type: FLOAT
    }
  }
  node {
    input: "261"
    output: "262"
    op_type: "Relu"
  }
  node {
    input: "262"
    input: "base_net.3.3.weight"
    output: "263"
    op_type: "Conv"
    attribute {
      name: "dilations"
      ints: 1
      ints: 1
      type: INTS
    }
    attribute {
      name: "group"
      i: 1
      type: INT
    }
    attribute {
      name: "kernel_shape"
      ints: 1
      ints: 1
      type: INTS
    }
    attribute {
      name: "pads"
      ints: 0
      ints: 0
      ints: 0
      ints: 0
      type: INTS
    }
    attribute {
      name: "strides"
      ints: 1
      ints: 1
      type: INTS
    }
  }
  node {
    input: "263"
    input: "base_net.3.4.weight"
    input: "base_net.3.4.bias"
    input: "base_net.3.4.running_mean"
    input: "base_net.3.4.running_var"
    output: "264"
    op_type: "BatchNormalization"
    attribute {
      name: "epsilon"
      f: 1e-05
      type: FLOAT
    }
    attribute {
      name: "momentum"
      f: 0.9
      type: FLOAT
    }
  }
  node {
    input: "264"
    output: "265"
    op_type: "Relu"
  }
  node {
    input: "265"
    input: "base_net.4.0.weight"
    output: "266"
    op_type: "Conv"
    attribute {
      name: "dilations"
      ints: 1
      ints: 1
      type: INTS
    }
    attribute {
      name: "group"
      i: 32
      type: INT
    }
    attribute {
      name: "kernel_shape"
      ints: 3
      ints: 3
      type: INTS
    }
    attribute {
      name: "pads"
      ints: 1
      ints: 1
      ints: 1
      ints: 1
      type: INTS
    }
    attribute {
      name: "strides"
      ints: 2
      ints: 2
      type: INTS
    }
  }
  node {
    input: "266"
    input: "base_net.4.1.weight"
    input: "base_net.4.1.bias"
    input: "base_net.4.1.running_mean"
    input: "base_net.4.1.running_var"
    output: "267"
    op_type: "BatchNormalization"
    attribute {
      name: "epsilon"
      f: 1e-05
      type: FLOAT
    }
    attribute {
      name: "momentum"
      f: 0.9
      type: FLOAT
    }
  }
  node {
    input: "267"
    output: "268"
    op_type: "Relu"
  }
  node {
    input: "268"
    input: "base_net.4.3.weight"
    output: "269"
    op_type: "Conv"
    attribute {
      name: "dilations"
      ints: 1
      ints: 1
      type: INTS
    }
    attribute {
      name: "group"
      i: 1
      type: INT
    }
    attribute {
      name: "kernel_shape"
      ints: 1
      ints: 1
      type: INTS
    }
    attribute {
      name: "pads"
      ints: 0
      ints: 0
      ints: 0
      ints: 0
      type: INTS
    }
    attribute {
      name: "strides"
      ints: 1
      ints: 1
      type: INTS
    }
  }
  node {
    input: "269"
    input: "base_net.4.4.weight"
    input: "base_net.4.4.bias"
    input: "base_net.4.4.running_mean"
    input: "base_net.4.4.running_var"
    output: "270"
    op_type: "BatchNormalization"
    attribute {
      name: "epsilon"
      f: 1e-05
      type: FLOAT
    }
    attribute {
      name: "momentum"
      f: 0.9
      type: FLOAT
    }
  }
  node {
    input: "270"
    output: "271"
    op_type: "Relu"
  }
  node {
    input: "271"
    input: "base_net.5.0.weight"
    output: "272"
    op_type: "Conv"
    attribute {
      name: "dilations"
      ints: 1
      ints: 1
      type: INTS
    }
    attribute {
      name: "group"
      i: 64
      type: INT
    }
    attribute {
      name: "kernel_shape"
      ints: 3
      ints: 3
      type: INTS
    }
    attribute {
      name: "pads"
      ints: 1
      ints: 1
      ints: 1
      ints: 1
      type: INTS
    }
    attribute {
      name: "strides"
      ints: 1
      ints: 1
      type: INTS
    }
  }
  node {
    input: "272"
    input: "base_net.5.1.weight"
    input: "base_net.5.1.bias"
    input: "base_net.5.1.running_mean"
    input: "base_net.5.1.running_var"
    output: "273"
    op_type: "BatchNormalization"
    attribute {
      name: "epsilon"
      f: 1e-05
      type: FLOAT
    }
    attribute {
      name: "momentum"
      f: 0.9
      type: FLOAT
    }
  }
  node {
    input: "273"
    output: "274"
    op_type: "Relu"
  }
  node {
    input: "274"
    input: "base_net.5.3.weight"
    output: "275"
    op_type: "Conv"
    attribute {
      name: "dilations"
      ints: 1
      ints: 1
      type: INTS
    }
    attribute {
      name: "group"
      i: 1
      type: INT
    }
    attribute {
      name: "kernel_shape"
      ints: 1
      ints: 1
      type: INTS
    }
    attribute {
      name: "pads"
      ints: 0
      ints: 0
      ints: 0
      ints: 0
      type: INTS
    }
    attribute {
      name: "strides"
      ints: 1
      ints: 1
      type: INTS
    }
  }
  node {
    input: "275"
    input: "base_net.5.4.weight"
    input: "base_net.5.4.bias"
    input: "base_net.5.4.running_mean"
    input: "base_net.5.4.running_var"
    output: "276"
    op_type: "BatchNormalization"
    attribute {
      name: "epsilon"
      f: 1e-05
      type: FLOAT
    }
    attribute {
      name: "momentum"
      f: 0.9
      type: FLOAT
    }
  }
  node {
    input: "276"
    output: "277"
    op_type: "Relu"
  }
  node {
    input: "277"
    input: "base_net.6.0.weight"
    output: "278"
    op_type: "Conv"
    attribute {
      name: "dilations"
      ints: 1
      ints: 1
      type: INTS
    }
    attribute {
      name: "group"
      i: 64
      type: INT
    }
    attribute {
      name: "kernel_shape"
      ints: 3
      ints: 3
      type: INTS
    }
    attribute {
      name: "pads"
      ints: 1
      ints: 1
      ints: 1
      ints: 1
      type: INTS
    }
    attribute {
      name: "strides"
      ints: 1
      ints: 1
      type: INTS
    }
  }
  node {
    input: "278"
    input: "base_net.6.1.weight"
    input: "base_net.6.1.bias"
    input: "base_net.6.1.running_mean"
    input: "base_net.6.1.running_var"
    output: "279"
    op_type: "BatchNormalization"
    attribute {
      name: "epsilon"
      f: 1e-05
      type: FLOAT
    }
    attribute {
      name: "momentum"
      f: 0.9
      type: FLOAT
    }
  }
  node {
    input: "279"
    output: "280"
    op_type: "Relu"
  }
  node {
    input: "280"
    input: "base_net.6.3.weight"
    output: "281"
    op_type: "Conv"
    attribute {
      name: "dilations"
      ints: 1
      ints: 1
      type: INTS
    }
    attribute {
      name: "group"
      i: 1
      type: INT
    }
    attribute {
      name: "kernel_shape"
      ints: 1
      ints: 1
      type: INTS
    }
    attribute {
      name: "pads"
      ints: 0
      ints: 0
      ints: 0
      ints: 0
      type: INTS
    }
    attribute {
      name: "strides"
      ints: 1
      ints: 1
      type: INTS
    }
  }
  node {
    input: "281"
    input: "base_net.6.4.weight"
    input: "base_net.6.4.bias"
    input: "base_net.6.4.running_mean"
    input: "base_net.6.4.running_var"
    output: "282"
    op_type: "BatchNormalization"
    attribute {
      name: "epsilon"
      f: 1e-05
      type: FLOAT
    }
    attribute {
      name: "momentum"
      f: 0.9
      type: FLOAT
    }
  }
  node {
    input: "282"
    output: "283"
    op_type: "Relu"
  }
  node {
    input: "283"
    input: "base_net.7.branch0.0.conv.weight"
    output: "284"
    op_type: "Conv"
    attribute {
      name: "dilations"
      ints: 1
      ints: 1
      type: INTS
    }
    attribute {
      name: "group"
      i: 1
      type: INT
    }
    attribute {
      name: "kernel_shape"
      ints: 1
      ints: 1
      type: INTS
    }
    attribute {
      name: "pads"
      ints: 0
      ints: 0
      ints: 0
      ints: 0
      type: INTS
    }
    attribute {
      name: "strides"
      ints: 1
      ints: 1
      type: INTS
    }
  }
  node {
    input: "284"
    input: "base_net.7.branch0.0.bn.weight"
    input: "base_net.7.branch0.0.bn.bias"
    input: "base_net.7.branch0.0.bn.running_mean"
    input: "base_net.7.branch0.0.bn.running_var"
    output: "285"
    op_type: "BatchNormalization"
    attribute {
      name: "epsilon"
      f: 1e-05
      type: FLOAT
    }
    attribute {
      name: "momentum"
      f: 0.99
      type: FLOAT
    }
  }
  node {
    input: "285"
    input: "base_net.7.branch0.1.conv.weight"
    output: "286"
    op_type: "Conv"
    attribute {
      name: "dilations"
      ints: 1
      ints: 1
      type: INTS
    }
    attribute {
      name: "group"
      i: 1
      type: INT
    }
    attribute {
      name: "kernel_shape"
      ints: 3
      ints: 3
      type: INTS
    }
    attribute {
      name: "pads"
      ints: 1
      ints: 1
      ints: 1
      ints: 1
      type: INTS
    }
    attribute {
      name: "strides"
      ints: 1
      ints: 1
      type: INTS
    }
  }
  node {
    input: "286"
    input: "base_net.7.branch0.1.bn.weight"
    input: "base_net.7.branch0.1.bn.bias"
    input: "base_net.7.branch0.1.bn.running_mean"
    input: "base_net.7.branch0.1.bn.running_var"
    output: "287"
    op_type: "BatchNormalization"
    attribute {
      name: "epsilon"
      f: 1e-05
      type: FLOAT
    }
    attribute {
      name: "momentum"
      f: 0.99
      type: FLOAT
    }
  }
  node {
    input: "287"
    output: "288"
    op_type: "Relu"
  }
  node {
    input: "288"
    input: "base_net.7.branch0.2.conv.weight"
    output: "289"
    op_type: "Conv"
    attribute {
      name: "dilations"
      ints: 2
      ints: 2
      type: INTS
    }
    attribute {
      name: "group"
      i: 1
      type: INT
    }
    attribute {
      name: "kernel_shape"
      ints: 3
      ints: 3
      type: INTS
    }
    attribute {
      name: "pads"
      ints: 2
      ints: 2
      ints: 2
      ints: 2
      type: INTS
    }
    attribute {
      name: "strides"
      ints: 1
      ints: 1
      type: INTS
    }
  }
  node {
    input: "289"
    input: "base_net.7.branch0.2.bn.weight"
    input: "base_net.7.branch0.2.bn.bias"
    input: "base_net.7.branch0.2.bn.running_mean"
    input: "base_net.7.branch0.2.bn.running_var"
    output: "290"
    op_type: "BatchNormalization"
    attribute {
      name: "epsilon"
      f: 1e-05
      type: FLOAT
    }
    attribute {
      name: "momentum"
      f: 0.99
      type: FLOAT
    }
  }
  node {
    input: "283"
    input: "base_net.7.branch1.0.conv.weight"
    output: "291"
    op_type: "Conv"
    attribute {
      name: "dilations"
      ints: 1
      ints: 1
      type: INTS
    }
    attribute {
      name: "group"
      i: 1
      type: INT
    }
    attribute {
      name: "kernel_shape"
      ints: 1
      ints: 1
      type: INTS
    }
    attribute {
      name: "pads"
      ints: 0
      ints: 0
      ints: 0
      ints: 0
      type: INTS
    }
    attribute {
      name: "strides"
      ints: 1
      ints: 1
      type: INTS
    }
  }
  node {
    input: "291"
    input: "base_net.7.branch1.0.bn.weight"
    input: "base_net.7.branch1.0.bn.bias"
    input: "base_net.7.branch1.0.bn.running_mean"
    input: "base_net.7.branch1.0.bn.running_var"
    output: "292"
    op_type: "BatchNormalization"
    attribute {
      name: "epsilon"
      f: 1e-05
      type: FLOAT
    }
    attribute {
      name: "momentum"
      f: 0.99
      type: FLOAT
    }
  }
  node {
    input: "292"
    input: "base_net.7.branch1.1.conv.weight"
    output: "293"
    op_type: "Conv"
    attribute {
      name: "dilations"
      ints: 1
      ints: 1
      type: INTS
    }
    attribute {
      name: "group"
      i: 1
      type: INT
    }
    attribute {
      name: "kernel_shape"
      ints: 3
      ints: 3
      type: INTS
    }
    attribute {
      name: "pads"
      ints: 1
      ints: 1
      ints: 1
      ints: 1
      type: INTS
    }
    attribute {
      name: "strides"
      ints: 1
      ints: 1
      type: INTS
    }
  }
  node {
    input: "293"
    input: "base_net.7.branch1.1.bn.weight"
    input: "base_net.7.branch1.1.bn.bias"
    input: "base_net.7.branch1.1.bn.running_mean"
    input: "base_net.7.branch1.1.bn.running_var"
    output: "294"
    op_type: "BatchNormalization"
    attribute {
      name: "epsilon"
      f: 1e-05
      type: FLOAT
    }
    attribute {
      name: "momentum"
      f: 0.99
      type: FLOAT
    }
  }
  node {
    input: "294"
    output: "295"
    op_type: "Relu"
  }
  node {
    input: "295"
    input: "base_net.7.branch1.2.conv.weight"
    output: "296"
    op_type: "Conv"
    attribute {
      name: "dilations"
      ints: 3
      ints: 3
      type: INTS
    }
    attribute {
      name: "group"
      i: 1
      type: INT
    }
    attribute {
      name: "kernel_shape"
      ints: 3
      ints: 3
      type: INTS
    }
    attribute {
      name: "pads"
      ints: 3
      ints: 3
      ints: 3
      ints: 3
      type: INTS
    }
    attribute {
      name: "strides"
      ints: 1
      ints: 1
      type: INTS
    }
  }
  node {
    input: "296"
    input: "base_net.7.branch1.2.bn.weight"
    input: "base_net.7.branch1.2.bn.bias"
    input: "base_net.7.branch1.2.bn.running_mean"
    input: "base_net.7.branch1.2.bn.running_var"
    output: "297"
    op_type: "BatchNormalization"
    attribute {
      name: "epsilon"
      f: 1e-05
      type: FLOAT
    }
    attribute {
      name: "momentum"
      f: 0.99
      type: FLOAT
    }
  }
  node {
    input: "283"
    input: "base_net.7.branch2.0.conv.weight"
    output: "298"
    op_type: "Conv"
    attribute {
      name: "dilations"
      ints: 1
      ints: 1
      type: INTS
    }
    attribute {
      name: "group"
      i: 1
      type: INT
    }
    attribute {
      name: "kernel_shape"
      ints: 1
      ints: 1
      type: INTS
    }
    attribute {
      name: "pads"
      ints: 0
      ints: 0
      ints: 0
      ints: 0
      type: INTS
    }
    attribute {
      name: "strides"
      ints: 1
      ints: 1
      type: INTS
    }
  }
  node {
    input: "298"
    input: "base_net.7.branch2.0.bn.weight"
    input: "base_net.7.branch2.0.bn.bias"
    input: "base_net.7.branch2.0.bn.running_mean"
    input: "base_net.7.branch2.0.bn.running_var"
    output: "299"
    op_type: "BatchNormalization"
    attribute {
      name: "epsilon"
      f: 1e-05
      type: FLOAT
    }
    attribute {
      name: "momentum"
      f: 0.99
      type: FLOAT
    }
  }
  node {
    input: "299"
    input: "base_net.7.branch2.1.conv.weight"
    output: "300"
    op_type: "Conv"
    attribute {
      name: "dilations"
      ints: 1
      ints: 1
      type: INTS
    }
    attribute {
      name: "group"
      i: 1
      type: INT
    }
    attribute {
      name: "kernel_shape"
      ints: 3
      ints: 3
      type: INTS
    }
    attribute {
      name: "pads"
      ints: 1
      ints: 1
      ints: 1
      ints: 1
      type: INTS
    }
    attribute {
      name: "strides"
      ints: 1
      ints: 1
      type: INTS
    }
  }
  node {
    input: "300"
    input: "base_net.7.branch2.1.bn.weight"
    input: "base_net.7.branch2.1.bn.bias"
    input: "base_net.7.branch2.1.bn.running_mean"
    input: "base_net.7.branch2.1.bn.running_var"
    output: "301"
    op_type: "BatchNormalization"
    attribute {
      name: "epsilon"
      f: 1e-05
      type: FLOAT
    }
    attribute {
      name: "momentum"
      f: 0.99
      type: FLOAT
    }
  }
  node {
    input: "301"
    output: "302"
    op_type: "Relu"
  }
  node {
    input: "302"
    input: "base_net.7.branch2.2.conv.weight"
    output: "303"
    op_type: "Conv"
    attribute {
      name: "dilations"
      ints: 1
      ints: 1
      type: INTS
    }
    attribute {
      name: "group"
      i: 1
      type: INT
    }
    attribute {
      name: "kernel_shape"
      ints: 3
      ints: 3
      type: INTS
    }
    attribute {
      name: "pads"
      ints: 1
      ints: 1
      ints: 1
      ints: 1
      type: INTS
    }
    attribute {
      name: "strides"
      ints: 1
      ints: 1
      type: INTS
    }
  }
  node {
    input: "303"
    input: "base_net.7.branch2.2.bn.weight"
    input: "base_net.7.branch2.2.bn.bias"
    input: "base_net.7.branch2.2.bn.running_mean"
    input: "base_net.7.branch2.2.bn.running_var"
    output: "304"
    op_type: "BatchNormalization"
    attribute {
      name: "epsilon"
      f: 1e-05
      type: FLOAT
    }
    attribute {
      name: "momentum"
      f: 0.99
      type: FLOAT
    }
  }
  node {
    input: "304"
    output: "305"
    op_type: "Relu"
  }
  node {
    input: "305"
    input: "base_net.7.branch2.3.conv.weight"
    output: "306"
    op_type: "Conv"
    attribute {
      name: "dilations"
      ints: 5
      ints: 5
      type: INTS
    }
    attribute {
      name: "group"
      i: 1
      type: INT
    }
    attribute {
      name: "kernel_shape"
      ints: 3
      ints: 3
      type: INTS
    }
    attribute {
      name: "pads"
      ints: 5
      ints: 5
      ints: 5
      ints: 5
      type: INTS
    }
    attribute {
      name: "strides"
      ints: 1
      ints: 1
      type: INTS
    }
  }
  node {
    input: "306"
    input: "base_net.7.branch2.3.bn.weight"
    input: "base_net.7.branch2.3.bn.bias"
    input: "base_net.7.branch2.3.bn.running_mean"
    input: "base_net.7.branch2.3.bn.running_var"
    output: "307"
    op_type: "BatchNormalization"
    attribute {
      name: "epsilon"
      f: 1e-05
      type: FLOAT
    }
    attribute {
      name: "momentum"
      f: 0.99
      type: FLOAT
    }
  }
  node {
    input: "290"
    input: "297"
    input: "307"
    output: "308"
    op_type: "Concat"
    attribute {
      name: "axis"
      i: 1
      type: INT
    }
  }
  node {
    input: "308"
    input: "base_net.7.ConvLinear.conv.weight"
    output: "309"
    op_type: "Conv"
    attribute {
      name: "dilations"
      ints: 1
      ints: 1
      type: INTS
    }
    attribute {
      name: "group"
      i: 1
      type: INT
    }
    attribute {
      name: "kernel_shape"
      ints: 1
      ints: 1
      type: INTS
    }
    attribute {
      name: "pads"
      ints: 0
      ints: 0
      ints: 0
      ints: 0
      type: INTS
    }
    attribute {
      name: "strides"
      ints: 1
      ints: 1
      type: INTS
    }
  }
  node {
    input: "309"
    input: "base_net.7.ConvLinear.bn.weight"
    input: "base_net.7.ConvLinear.bn.bias"
    input: "base_net.7.ConvLinear.bn.running_mean"
    input: "base_net.7.ConvLinear.bn.running_var"
    output: "310"
    op_type: "BatchNormalization"
    attribute {
      name: "epsilon"
      f: 1e-05
      type: FLOAT
    }
    attribute {
      name: "momentum"
      f: 0.99
      type: FLOAT
    }
  }
  node {
    input: "283"
    input: "base_net.7.shortcut.conv.weight"
    output: "311"
    op_type: "Conv"
    attribute {
      name: "dilations"
      ints: 1
      ints: 1
      type: INTS
    }
    attribute {
      name: "group"
      i: 1
      type: INT
    }
    attribute {
      name: "kernel_shape"
      ints: 1
      ints: 1
      type: INTS
    }
    attribute {
      name: "pads"
      ints: 0
      ints: 0
      ints: 0
      ints: 0
      type: INTS
    }
    attribute {
      name: "strides"
      ints: 1
      ints: 1
      type: INTS
    }
  }
  node {
    input: "311"
    input: "base_net.7.shortcut.bn.weight"
    input: "base_net.7.shortcut.bn.bias"
    input: "base_net.7.shortcut.bn.running_mean"
    input: "base_net.7.shortcut.bn.running_var"
    output: "312"
    op_type: "BatchNormalization"
    attribute {
      name: "epsilon"
      f: 1e-05
      type: FLOAT
    }
    attribute {
      name: "momentum"
      f: 0.99
      type: FLOAT
    }
  }
  node {
    input: "310"
    input: "312"
    output: "313"
    op_type: "Add"
  }
  node {
    input: "313"
    output: "314"
    op_type: "Relu"
  }
  node {
    input: "314"
    input: "classification_headers.0.0.weight"
    input: "classification_headers.0.0.bias"
    output: "315"
    op_type: "Conv"
    attribute {
      name: "dilations"
      ints: 1
      ints: 1
      type: INTS
    }
    attribute {
      name: "group"
      i: 64
      type: INT
    }
    attribute {
      name: "kernel_shape"
      ints: 3
      ints: 3
      type: INTS
    }
    attribute {
      name: "pads"
      ints: 1
      ints: 1
      ints: 1
      ints: 1
      type: INTS
    }
    attribute {
      name: "strides"
      ints: 1
      ints: 1
      type: INTS
    }
  }
  node {
    input: "315"
    output: "316"
    op_type: "Relu"
  }
  node {
    input: "316"
    input: "classification_headers.0.2.weight"
    input: "classification_headers.0.2.bias"
    output: "317"
    op_type: "Conv"
    attribute {
      name: "dilations"
      ints: 1
      ints: 1
      type: INTS
    }
    attribute {
      name: "group"
      i: 1
      type: INT
    }
    attribute {
      name: "kernel_shape"
      ints: 1
      ints: 1
      type: INTS
    }
    attribute {
      name: "pads"
      ints: 0
      ints: 0
      ints: 0
      ints: 0
      type: INTS
    }
    attribute {
      name: "strides"
      ints: 1
      ints: 1
      type: INTS
    }
  }
  node {
    input: "317"
    output: "318"
    op_type: "Transpose"
    attribute {
      name: "perm"
      ints: 0
      ints: 2
      ints: 3
      ints: 1
      type: INTS
    }
  }
  node {
    input: "318"
    output: "319"
    op_type: "Shape"
  }
  node {
    output: "320"
    op_type: "Constant"
    attribute {
      name: "value"
      t {
        data_type: 7
        raw_data: "\000\000\000\000\000\000\000\000"
      }
      type: TENSOR
    }
  }
  node {
    input: "319"
    input: "320"
    output: "321"
    op_type: "Gather"
    attribute {
      name: "axis"
      i: 0
      type: INT
    }
  }
  node {
    output: "322"
    op_type: "Constant"
    attribute {
      name: "value"
      t {
        data_type: 7
        raw_data: "\377\377\377\377\377\377\377\377"
      }
      type: TENSOR
    }
  }
  node {
    output: "323"
    op_type: "Constant"
    attribute {
      name: "value"
      t {
        data_type: 7
        raw_data: "\002\000\000\000\000\000\000\000"
      }
      type: TENSOR
    }
  }
  node {
    input: "321"
    output: "324"
    op_type: "Unsqueeze"
    attribute {
      name: "axes"
      ints: 0
      type: INTS
    }
  }
  node {
    input: "322"
    output: "325"
    op_type: "Unsqueeze"
    attribute {
      name: "axes"
      ints: 0
      type: INTS
    }
  }
  node {
    input: "323"
    output: "326"
    op_type: "Unsqueeze"
    attribute {
      name: "axes"
      ints: 0
      type: INTS
    }
  }
  node {
    input: "324"
    input: "325"
    input: "326"
    output: "327"
    op_type: "Concat"
    attribute {
      name: "axis"
      i: 0
      type: INT
    }
  }
  node {
    input: "318"
    input: "327"
    output: "328"
    op_type: "Reshape"
  }
  node {
    input: "314"
    input: "regression_headers.0.0.weight"
    input: "regression_headers.0.0.bias"
    output: "329"
    op_type: "Conv"
    attribute {
      name: "dilations"
      ints: 1
      ints: 1
      type: INTS
    }
    attribute {
      name: "group"
      i: 64
      type: INT
    }
    attribute {
      name: "kernel_shape"
      ints: 3
      ints: 3
      type: INTS
    }
    attribute {
      name: "pads"
      ints: 1
      ints: 1
      ints: 1
      ints: 1
      type: INTS
    }
    attribute {
      name: "strides"
      ints: 1
      ints: 1
      type: INTS
    }
  }
  node {
    input: "329"
    output: "330"
    op_type: "Relu"
  }
  node {
    input: "330"
    input: "regression_headers.0.2.weight"
    input: "regression_headers.0.2.bias"
    output: "331"
    op_type: "Conv"
    attribute {
      name: "dilations"
      ints: 1
      ints: 1
      type: INTS
    }
    attribute {
      name: "group"
      i: 1
      type: INT
    }
    attribute {
      name: "kernel_shape"
      ints: 1
      ints: 1
      type: INTS
    }
    attribute {
      name: "pads"
      ints: 0
      ints: 0
      ints: 0
      ints: 0
      type: INTS
    }
    attribute {
      name: "strides"
      ints: 1
      ints: 1
      type: INTS
    }
  }
  node {
    input: "331"
    output: "332"
    op_type: "Transpose"
    attribute {
      name: "perm"
      ints: 0
      ints: 2
      ints: 3
      ints: 1
      type: INTS
    }
  }
  node {
    input: "332"
    output: "333"
    op_type: "Shape"
  }
  node {
    output: "334"
    op_type: "Constant"
    attribute {
      name: "value"
      t {
        data_type: 7
        raw_data: "\000\000\000\000\000\000\000\000"
      }
      type: TENSOR
    }
  }
  node {
    input: "333"
    input: "334"
    output: "335"
    op_type: "Gather"
    attribute {
      name: "axis"
      i: 0
      type: INT
    }
  }
  node {
    output: "336"
    op_type: "Constant"
    attribute {
      name: "value"
      t {
        data_type: 7
        raw_data: "\377\377\377\377\377\377\377\377"
      }
      type: TENSOR
    }
  }
  node {
    output: "337"
    op_type: "Constant"
    attribute {
      name: "value"
      t {
        data_type: 7
        raw_data: "\004\000\000\000\000\000\000\000"
      }
      type: TENSOR
    }
  }
  node {
    input: "335"
    output: "338"
    op_type: "Unsqueeze"
    attribute {
      name: "axes"
      ints: 0
      type: INTS
    }
  }
  node {
    input: "336"
    output: "339"
    op_type: "Unsqueeze"
    attribute {
      name: "axes"
      ints: 0
      type: INTS
    }
  }
  node {
    input: "337"
    output: "340"
    op_type: "Unsqueeze"
    attribute {
      name: "axes"
      ints: 0
      type: INTS
    }
  }
  node {
    input: "338"
    input: "339"
    input: "340"
    output: "341"
    op_type: "Concat"
    attribute {
      name: "axis"
      i: 0
      type: INT
    }
  }
  node {
    input: "332"
    input: "341"
    output: "342"
    op_type: "Reshape"
  }
  node {
    input: "314"
    input: "base_net.8.0.weight"
    output: "343"
    op_type: "Conv"
    attribute {
      name: "dilations"
      ints: 1
      ints: 1
      type: INTS
    }
    attribute {
      name: "group"
      i: 64
      type: INT
    }
    attribute {
      name: "kernel_shape"
      ints: 3
      ints: 3
      type: INTS
    }
    attribute {
      name: "pads"
      ints: 1
      ints: 1
      ints: 1
      ints: 1
      type: INTS
    }
    attribute {
      name: "strides"
      ints: 2
      ints: 2
      type: INTS
    }
  }
  node {
    input: "343"
    input: "base_net.8.1.weight"
    input: "base_net.8.1.bias"
    input: "base_net.8.1.running_mean"
    input: "base_net.8.1.running_var"
    output: "344"
    op_type: "BatchNormalization"
    attribute {
      name: "epsilon"
      f: 1e-05
      type: FLOAT
    }
    attribute {
      name: "momentum"
      f: 0.9
      type: FLOAT
    }
  }
  node {
    input: "344"
    output: "345"
    op_type: "Relu"
  }
  node {
    input: "345"
    input: "base_net.8.3.weight"
    output: "346"
    op_type: "Conv"
    attribute {
      name: "dilations"
      ints: 1
      ints: 1
      type: INTS
    }
    attribute {
      name: "group"
      i: 1
      type: INT
    }
    attribute {
      name: "kernel_shape"
      ints: 1
      ints: 1
      type: INTS
    }
    attribute {
      name: "pads"
      ints: 0
      ints: 0
      ints: 0
      ints: 0
      type: INTS
    }
    attribute {
      name: "strides"
      ints: 1
      ints: 1
      type: INTS
    }
  }
  node {
    input: "346"
    input: "base_net.8.4.weight"
    input: "base_net.8.4.bias"
    input: "base_net.8.4.running_mean"
    input: "base_net.8.4.running_var"
    output: "347"
    op_type: "BatchNormalization"
    attribute {
      name: "epsilon"
      f: 1e-05
      type: FLOAT
    }
    attribute {
      name: "momentum"
      f: 0.9
      type: FLOAT
    }
  }
  node {
    input: "347"
    output: "348"
    op_type: "Relu"
  }
  node {
    input: "348"
    input: "base_net.9.0.weight"
    output: "349"
    op_type: "Conv"
    attribute {
      name: "dilations"
      ints: 1
      ints: 1
      type: INTS
    }
    attribute {
      name: "group"
      i: 128
      type: INT
    }
    attribute {
      name: "kernel_shape"
      ints: 3
      ints: 3
      type: INTS
    }
    attribute {
      name: "pads"
      ints: 1
      ints: 1
      ints: 1
      ints: 1
      type: INTS
    }
    attribute {
      name: "strides"
      ints: 1
      ints: 1
      type: INTS
    }
  }
  node {
    input: "349"
    input: "base_net.9.1.weight"
    input: "base_net.9.1.bias"
    input: "base_net.9.1.running_mean"
    input: "base_net.9.1.running_var"
    output: "350"
    op_type: "BatchNormalization"
    attribute {
      name: "epsilon"
      f: 1e-05
      type: FLOAT
    }
    attribute {
      name: "momentum"
      f: 0.9
      type: FLOAT
    }
  }
  node {
    input: "350"
    output: "351"
    op_type: "Relu"
  }
  node {
    input: "351"
    input: "base_net.9.3.weight"
    output: "352"
    op_type: "Conv"
    attribute {
      name: "dilations"
      ints: 1
      ints: 1
      type: INTS
    }
    attribute {
      name: "group"
      i: 1
      type: INT
    }
    attribute {
      name: "kernel_shape"
      ints: 1
      ints: 1
      type: INTS
    }
    attribute {
      name: "pads"
      ints: 0
      ints: 0
      ints: 0
      ints: 0
      type: INTS
    }
    attribute {
      name: "strides"
      ints: 1
      ints: 1
      type: INTS
    }
  }
  node {
    input: "352"
    input: "base_net.9.4.weight"
    input: "base_net.9.4.bias"
    input: "base_net.9.4.running_mean"
    input: "base_net.9.4.running_var"
    output: "353"
    op_type: "BatchNormalization"
    attribute {
      name: "epsilon"
      f: 1e-05
      type: FLOAT
    }
    attribute {
      name: "momentum"
      f: 0.9
      type: FLOAT
    }
  }
  node {
    input: "353"
    output: "354"
    op_type: "Relu"
  }
  node {
    input: "354"
    input: "base_net.10.0.weight"
    output: "355"
    op_type: "Conv"
    attribute {
      name: "dilations"
      ints: 1
      ints: 1
      type: INTS
    }
    attribute {
      name: "group"
      i: 128
      type: INT
    }
    attribute {
      name: "kernel_shape"
      ints: 3
      ints: 3
      type: INTS
    }
    attribute {
      name: "pads"
      ints: 1
      ints: 1
      ints: 1
      ints: 1
      type: INTS
    }
    attribute {
      name: "strides"
      ints: 1
      ints: 1
      type: INTS
    }
  }
  node {
    input: "355"
    input: "base_net.10.1.weight"
    input: "base_net.10.1.bias"
    input: "base_net.10.1.running_mean"
    input: "base_net.10.1.running_var"
    output: "356"
    op_type: "BatchNormalization"
    attribute {
      name: "epsilon"
      f: 1e-05
      type: FLOAT
    }
    attribute {
      name: "momentum"
      f: 0.9
      type: FLOAT
    }
  }
  node {
    input: "356"
    output: "357"
    op_type: "Relu"
  }
  node {
    input: "357"
    input: "base_net.10.3.weight"
    output: "358"
    op_type: "Conv"
    attribute {
      name: "dilations"
      ints: 1
      ints: 1
      type: INTS
    }
    attribute {
      name: "group"
      i: 1
      type: INT
    }
    attribute {
      name: "kernel_shape"
      ints: 1
      ints: 1
      type: INTS
    }
    attribute {
      name: "pads"
      ints: 0
      ints: 0
      ints: 0
      ints: 0
      type: INTS
    }
    attribute {
      name: "strides"
      ints: 1
      ints: 1
      type: INTS
    }
  }
  node {
    input: "358"
    input: "base_net.10.4.weight"
    input: "base_net.10.4.bias"
    input: "base_net.10.4.running_mean"
    input: "base_net.10.4.running_var"
    output: "359"
    op_type: "BatchNormalization"
    attribute {
      name: "epsilon"
      f: 1e-05
      type: FLOAT
    }
    attribute {
      name: "momentum"
      f: 0.9
      type: FLOAT
    }
  }
  node {
    input: "359"
    output: "360"
    op_type: "Relu"
  }
  node {
    input: "360"
    input: "classification_headers.1.0.weight"
    input: "classification_headers.1.0.bias"
    output: "361"
    op_type: "Conv"
    attribute {
      name: "dilations"
      ints: 1
      ints: 1
      type: INTS
    }
    attribute {
      name: "group"
      i: 128
      type: INT
    }
    attribute {
      name: "kernel_shape"
      ints: 3
      ints: 3
      type: INTS
    }
    attribute {
      name: "pads"
      ints: 1
      ints: 1
      ints: 1
      ints: 1
      type: INTS
    }
    attribute {
      name: "strides"
      ints: 1
      ints: 1
      type: INTS
    }
  }
  node {
    input: "361"
    output: "362"
    op_type: "Relu"
  }
  node {
    input: "362"
    input: "classification_headers.1.2.weight"
    input: "classification_headers.1.2.bias"
    output: "363"
    op_type: "Conv"
    attribute {
      name: "dilations"
      ints: 1
      ints: 1
      type: INTS
    }
    attribute {
      name: "group"
      i: 1
      type: INT
    }
    attribute {
      name: "kernel_shape"
      ints: 1
      ints: 1
      type: INTS
    }
    attribute {
      name: "pads"
      ints: 0
      ints: 0
      ints: 0
      ints: 0
      type: INTS
    }
    attribute {
      name: "strides"
      ints: 1
      ints: 1
      type: INTS
    }
  }
  node {
    input: "363"
    output: "364"
    op_type: "Transpose"
    attribute {
      name: "perm"
      ints: 0
      ints: 2
      ints: 3
      ints: 1
      type: INTS
    }
  }
  node {
    input: "364"
    output: "365"
    op_type: "Shape"
  }
  node {
    output: "366"
    op_type: "Constant"
    attribute {
      name: "value"
      t {
        data_type: 7
        raw_data: "\000\000\000\000\000\000\000\000"
      }
      type: TENSOR
    }
  }
  node {
    input: "365"
    input: "366"
    output: "367"
    op_type: "Gather"
    attribute {
      name: "axis"
      i: 0
      type: INT
    }
  }
  node {
    output: "368"
    op_type: "Constant"
    attribute {
      name: "value"
      t {
        data_type: 7
        raw_data: "\377\377\377\377\377\377\377\377"
      }
      type: TENSOR
    }
  }
  node {
    output: "369"
    op_type: "Constant"
    attribute {
      name: "value"
      t {
        data_type: 7
        raw_data: "\002\000\000\000\000\000\000\000"
      }
      type: TENSOR
    }
  }
  node {
    input: "367"
    output: "370"
    op_type: "Unsqueeze"
    attribute {
      name: "axes"
      ints: 0
      type: INTS
    }
  }
  node {
    input: "368"
    output: "371"
    op_type: "Unsqueeze"
    attribute {
      name: "axes"
      ints: 0
      type: INTS
    }
  }
  node {
    input: "369"
    output: "372"
    op_type: "Unsqueeze"
    attribute {
      name: "axes"
      ints: 0
      type: INTS
    }
  }
  node {
    input: "370"
    input: "371"
    input: "372"
    output: "373"
    op_type: "Concat"
    attribute {
      name: "axis"
      i: 0
      type: INT
    }
  }
  node {
    input: "364"
    input: "373"
    output: "374"
    op_type: "Reshape"
  }
  node {
    input: "360"
    input: "regression_headers.1.0.weight"
    input: "regression_headers.1.0.bias"
    output: "375"
    op_type: "Conv"
    attribute {
      name: "dilations"
      ints: 1
      ints: 1
      type: INTS
    }
    attribute {
      name: "group"
      i: 128
      type: INT
    }
    attribute {
      name: "kernel_shape"
      ints: 3
      ints: 3
      type: INTS
    }
    attribute {
      name: "pads"
      ints: 1
      ints: 1
      ints: 1
      ints: 1
      type: INTS
    }
    attribute {
      name: "strides"
      ints: 1
      ints: 1
      type: INTS
    }
  }
  node {
    input: "375"
    output: "376"
    op_type: "Relu"
  }
  node {
    input: "376"
    input: "regression_headers.1.2.weight"
    input: "regression_headers.1.2.bias"
    output: "377"
    op_type: "Conv"
    attribute {
      name: "dilations"
      ints: 1
      ints: 1
      type: INTS
    }
    attribute {
      name: "group"
      i: 1
      type: INT
    }
    attribute {
      name: "kernel_shape"
      ints: 1
      ints: 1
      type: INTS
    }
    attribute {
      name: "pads"
      ints: 0
      ints: 0
      ints: 0
      ints: 0
      type: INTS
    }
    attribute {
      name: "strides"
      ints: 1
      ints: 1
      type: INTS
    }
  }
  node {
    input: "377"
    output: "378"
    op_type: "Transpose"
    attribute {
      name: "perm"
      ints: 0
      ints: 2
      ints: 3
      ints: 1
      type: INTS
    }
  }
  node {
    input: "378"
    output: "379"
    op_type: "Shape"
  }
  node {
    output: "380"
    op_type: "Constant"
    attribute {
      name: "value"
      t {
        data_type: 7
        raw_data: "\000\000\000\000\000\000\000\000"
      }
      type: TENSOR
    }
  }
  node {
    input: "379"
    input: "380"
    output: "381"
    op_type: "Gather"
    attribute {
      name: "axis"
      i: 0
      type: INT
    }
  }
  node {
    output: "382"
    op_type: "Constant"
    attribute {
      name: "value"
      t {
        data_type: 7
        raw_data: "\377\377\377\377\377\377\377\377"
      }
      type: TENSOR
    }
  }
  node {
    output: "383"
    op_type: "Constant"
    attribute {
      name: "value"
      t {
        data_type: 7
        raw_data: "\004\000\000\000\000\000\000\000"
      }
      type: TENSOR
    }
  }
  node {
    input: "381"
    output: "384"
    op_type: "Unsqueeze"
    attribute {
      name: "axes"
      ints: 0
      type: INTS
    }
  }
  node {
    input: "382"
    output: "385"
    op_type: "Unsqueeze"
    attribute {
      name: "axes"
      ints: 0
      type: INTS
    }
  }
  node {
    input: "383"
    output: "386"
    op_type: "Unsqueeze"
    attribute {
      name: "axes"
      ints: 0
      type: INTS
    }
  }
  node {
    input: "384"
    input: "385"
    input: "386"
    output: "387"
    op_type: "Concat"
    attribute {
      name: "axis"
      i: 0
      type: INT
    }
  }
  node {
    input: "378"
    input: "387"
    output: "388"
    op_type: "Reshape"
  }
  node {
    input: "360"
    input: "base_net.11.0.weight"
    output: "389"
    op_type: "Conv"
    attribute {
      name: "dilations"
      ints: 1
      ints: 1
      type: INTS
    }
    attribute {
      name: "group"
      i: 128
      type: INT
    }
    attribute {
      name: "kernel_shape"
      ints: 3
      ints: 3
      type: INTS
    }
    attribute {
      name: "pads"
      ints: 1
      ints: 1
      ints: 1
      ints: 1
      type: INTS
    }
    attribute {
      name: "strides"
      ints: 2
      ints: 2
      type: INTS
    }
  }
  node {
    input: "389"
    input: "base_net.11.1.weight"
    input: "base_net.11.1.bias"
    input: "base_net.11.1.running_mean"
    input: "base_net.11.1.running_var"
    output: "390"
    op_type: "BatchNormalization"
    attribute {
      name: "epsilon"
      f: 1e-05
      type: FLOAT
    }
    attribute {
      name: "momentum"
      f: 0.9
      type: FLOAT
    }
  }
  node {
    input: "390"
    output: "391"
    op_type: "Relu"
  }
  node {
    input: "391"
    input: "base_net.11.3.weight"
    output: "392"
    op_type: "Conv"
    attribute {
      name: "dilations"
      ints: 1
      ints: 1
      type: INTS
    }
    attribute {
      name: "group"
      i: 1
      type: INT
    }
    attribute {
      name: "kernel_shape"
      ints: 1
      ints: 1
      type: INTS
    }
    attribute {
      name: "pads"
      ints: 0
      ints: 0
      ints: 0
      ints: 0
      type: INTS
    }
    attribute {
      name: "strides"
      ints: 1
      ints: 1
      type: INTS
    }
  }
  node {
    input: "392"
    input: "base_net.11.4.weight"
    input: "base_net.11.4.bias"
    input: "base_net.11.4.running_mean"
    input: "base_net.11.4.running_var"
    output: "393"
    op_type: "BatchNormalization"
    attribute {
      name: "epsilon"
      f: 1e-05
      type: FLOAT
    }
    attribute {
      name: "momentum"
      f: 0.9
      type: FLOAT
    }
  }
  node {
    input: "393"
    output: "394"
    op_type: "Relu"
  }
  node {
    input: "394"
    input: "base_net.12.0.weight"
    output: "395"
    op_type: "Conv"
    attribute {
      name: "dilations"
      ints: 1
      ints: 1
      type: INTS
    }
    attribute {
      name: "group"
      i: 256
      type: INT
    }
    attribute {
      name: "kernel_shape"
      ints: 3
      ints: 3
      type: INTS
    }
    attribute {
      name: "pads"
      ints: 1
      ints: 1
      ints: 1
      ints: 1
      type: INTS
    }
    attribute {
      name: "strides"
      ints: 1
      ints: 1
      type: INTS
    }
  }
  node {
    input: "395"
    input: "base_net.12.1.weight"
    input: "base_net.12.1.bias"
    input: "base_net.12.1.running_mean"
    input: "base_net.12.1.running_var"
    output: "396"
    op_type: "BatchNormalization"
    attribute {
      name: "epsilon"
      f: 1e-05
      type: FLOAT
    }
    attribute {
      name: "momentum"
      f: 0.9
      type: FLOAT
    }
  }
  node {
    input: "396"
    output: "397"
    op_type: "Relu"
  }
  node {
    input: "397"
    input: "base_net.12.3.weight"
    output: "398"
    op_type: "Conv"
    attribute {
      name: "dilations"
      ints: 1
      ints: 1
      type: INTS
    }
    attribute {
      name: "group"
      i: 1
      type: INT
    }
    attribute {
      name: "kernel_shape"
      ints: 1
      ints: 1
      type: INTS
    }
    attribute {
      name: "pads"
      ints: 0
      ints: 0
      ints: 0
      ints: 0
      type: INTS
    }
    attribute {
      name: "strides"
      ints: 1
      ints: 1
      type: INTS
    }
  }
  node {
    input: "398"
    input: "base_net.12.4.weight"
    input: "base_net.12.4.bias"
    input: "base_net.12.4.running_mean"
    input: "base_net.12.4.running_var"
    output: "399"
    op_type: "BatchNormalization"
    attribute {
      name: "epsilon"
      f: 1e-05
      type: FLOAT
    }
    attribute {
      name: "momentum"
      f: 0.9
      type: FLOAT
    }
  }
  node {
    input: "399"
    output: "400"
    op_type: "Relu"
  }
  node {
    input: "400"
    input: "classification_headers.2.0.weight"
    input: "classification_headers.2.0.bias"
    output: "401"
    op_type: "Conv"
    attribute {
      name: "dilations"
      ints: 1
      ints: 1
      type: INTS
    }
    attribute {
      name: "group"
      i: 256
      type: INT
    }
    attribute {
      name: "kernel_shape"
      ints: 3
      ints: 3
      type: INTS
    }
    attribute {
      name: "pads"
      ints: 1
      ints: 1
      ints: 1
      ints: 1
      type: INTS
    }
    attribute {
      name: "strides"
      ints: 1
      ints: 1
      type: INTS
    }
  }
  node {
    input: "401"
    output: "402"
    op_type: "Relu"
  }
  node {
    input: "402"
    input: "classification_headers.2.2.weight"
    input: "classification_headers.2.2.bias"
    output: "403"
    op_type: "Conv"
    attribute {
      name: "dilations"
      ints: 1
      ints: 1
      type: INTS
    }
    attribute {
      name: "group"
      i: 1
      type: INT
    }
    attribute {
      name: "kernel_shape"
      ints: 1
      ints: 1
      type: INTS
    }
    attribute {
      name: "pads"
      ints: 0
      ints: 0
      ints: 0
      ints: 0
      type: INTS
    }
    attribute {
      name: "strides"
      ints: 1
      ints: 1
      type: INTS
    }
  }
  node {
    input: "403"
    output: "404"
    op_type: "Transpose"
    attribute {
      name: "perm"
      ints: 0
      ints: 2
      ints: 3
      ints: 1
      type: INTS
    }
  }
  node {
    input: "404"
    output: "405"
    op_type: "Shape"
  }
  node {
    output: "406"
    op_type: "Constant"
    attribute {
      name: "value"
      t {
        data_type: 7
        raw_data: "\000\000\000\000\000\000\000\000"
      }
      type: TENSOR
    }
  }
  node {
    input: "405"
    input: "406"
    output: "407"
    op_type: "Gather"
    attribute {
      name: "axis"
      i: 0
      type: INT
    }
  }
  node {
    output: "408"
    op_type: "Constant"
    attribute {
      name: "value"
      t {
        data_type: 7
        raw_data: "\377\377\377\377\377\377\377\377"
      }
      type: TENSOR
    }
  }
  node {
    output: "409"
    op_type: "Constant"
    attribute {
      name: "value"
      t {
        data_type: 7
        raw_data: "\002\000\000\000\000\000\000\000"
      }
      type: TENSOR
    }
  }
  node {
    input: "407"
    output: "410"
    op_type: "Unsqueeze"
    attribute {
      name: "axes"
      ints: 0
      type: INTS
    }
  }
  node {
    input: "408"
    output: "411"
    op_type: "Unsqueeze"
    attribute {
      name: "axes"
      ints: 0
      type: INTS
    }
  }
  node {
    input: "409"
    output: "412"
    op_type: "Unsqueeze"
    attribute {
      name: "axes"
      ints: 0
      type: INTS
    }
  }
  node {
    input: "410"
    input: "411"
    input: "412"
    output: "413"
    op_type: "Concat"
    attribute {
      name: "axis"
      i: 0
      type: INT
    }
  }
  node {
    input: "404"
    input: "413"
    output: "414"
    op_type: "Reshape"
  }
  node {
    input: "400"
    input: "regression_headers.2.0.weight"
    input: "regression_headers.2.0.bias"
    output: "415"
    op_type: "Conv"
    attribute {
      name: "dilations"
      ints: 1
      ints: 1
      type: INTS
    }
    attribute {
      name: "group"
      i: 256
      type: INT
    }
    attribute {
      name: "kernel_shape"
      ints: 3
      ints: 3
      type: INTS
    }
    attribute {
      name: "pads"
      ints: 1
      ints: 1
      ints: 1
      ints: 1
      type: INTS
    }
    attribute {
      name: "strides"
      ints: 1
      ints: 1
      type: INTS
    }
  }
  node {
    input: "415"
    output: "416"
    op_type: "Relu"
  }
  node {
    input: "416"
    input: "regression_headers.2.2.weight"
    input: "regression_headers.2.2.bias"
    output: "417"
    op_type: "Conv"
    attribute {
      name: "dilations"
      ints: 1
      ints: 1
      type: INTS
    }
    attribute {
      name: "group"
      i: 1
      type: INT
    }
    attribute {
      name: "kernel_shape"
      ints: 1
      ints: 1
      type: INTS
    }
    attribute {
      name: "pads"
      ints: 0
      ints: 0
      ints: 0
      ints: 0
      type: INTS
    }
    attribute {
      name: "strides"
      ints: 1
      ints: 1
      type: INTS
    }
  }
  node {
    input: "417"
    output: "418"
    op_type: "Transpose"
    attribute {
      name: "perm"
      ints: 0
      ints: 2
      ints: 3
      ints: 1
      type: INTS
    }
  }
  node {
    input: "418"
    output: "419"
    op_type: "Shape"
  }
  node {
    output: "420"
    op_type: "Constant"
    attribute {
      name: "value"
      t {
        data_type: 7
        raw_data: "\000\000\000\000\000\000\000\000"
      }
      type: TENSOR
    }
  }
  node {
    input: "419"
    input: "420"
    output: "421"
    op_type: "Gather"
    attribute {
      name: "axis"
      i: 0
      type: INT
    }
  }
  node {
    output: "422"
    op_type: "Constant"
    attribute {
      name: "value"
      t {
        data_type: 7
        raw_data: "\377\377\377\377\377\377\377\377"
      }
      type: TENSOR
    }
  }
  node {
    output: "423"
    op_type: "Constant"
    attribute {
      name: "value"
      t {
        data_type: 7
        raw_data: "\004\000\000\000\000\000\000\000"
      }
      type: TENSOR
    }
  }
  node {
    input: "421"
    output: "424"
    op_type: "Unsqueeze"
    attribute {
      name: "axes"
      ints: 0
      type: INTS
    }
  }
  node {
    input: "422"
    output: "425"
    op_type: "Unsqueeze"
    attribute {
      name: "axes"
      ints: 0
      type: INTS
    }
  }
  node {
    input: "423"
    output: "426"
    op_type: "Unsqueeze"
    attribute {
      name: "axes"
      ints: 0
      type: INTS
    }
  }
  node {
    input: "424"
    input: "425"
    input: "426"
    output: "427"
    op_type: "Concat"
    attribute {
      name: "axis"
      i: 0
      type: INT
    }
  }
  node {
    input: "418"
    input: "427"
    output: "428"
    op_type: "Reshape"
  }
  node {
    input: "400"
    input: "extras.0.0.weight"
    input: "extras.0.0.bias"
    output: "429"
    op_type: "Conv"
    attribute {
      name: "dilations"
      ints: 1
      ints: 1
      type: INTS
    }
    attribute {
      name: "group"
      i: 1
      type: INT
    }
    attribute {
      name: "kernel_shape"
      ints: 1
      ints: 1
      type: INTS
    }
    attribute {
      name: "pads"
      ints: 0
      ints: 0
      ints: 0
      ints: 0
      type: INTS
    }
    attribute {
      name: "strides"
      ints: 1
      ints: 1
      type: INTS
    }
  }
  node {
    input: "429"
    output: "430"
    op_type: "Relu"
  }
  node {
    input: "430"
    input: "extras.0.2.0.weight"
    input: "extras.0.2.0.bias"
    output: "431"
    op_type: "Conv"
    attribute {
      name: "dilations"
      ints: 1
      ints: 1
      type: INTS
    }
    attribute {
      name: "group"
      i: 64
      type: INT
    }
    attribute {
      name: "kernel_shape"
      ints: 3
      ints: 3
      type: INTS
    }
    attribute {
      name: "pads"
      ints: 1
      ints: 1
      ints: 1
      ints: 1
      type: INTS
    }
    attribute {
      name: "strides"
      ints: 2
      ints: 2
      type: INTS
    }
  }
  node {
    input: "431"
    output: "432"
    op_type: "Relu"
  }
  node {
    input: "432"
    input: "extras.0.2.2.weight"
    input: "extras.0.2.2.bias"
    output: "433"
    op_type: "Conv"
    attribute {
      name: "dilations"
      ints: 1
      ints: 1
      type: INTS
    }
    attribute {
      name: "group"
      i: 1
      type: INT
    }
    attribute {
      name: "kernel_shape"
      ints: 1
      ints: 1
      type: INTS
    }
    attribute {
      name: "pads"
      ints: 0
      ints: 0
      ints: 0
      ints: 0
      type: INTS
    }
    attribute {
      name: "strides"
      ints: 1
      ints: 1
      type: INTS
    }
  }
  node {
    input: "433"
    output: "434"
    op_type: "Relu"
  }
  node {
    input: "434"
    input: "classification_headers.3.weight"
    input: "classification_headers.3.bias"
    output: "435"
    op_type: "Conv"
    attribute {
      name: "dilations"
      ints: 1
      ints: 1
      type: INTS
    }
    attribute {
      name: "group"
      i: 1
      type: INT
    }
    attribute {
      name: "kernel_shape"
      ints: 3
      ints: 3
      type: INTS
    }
    attribute {
      name: "pads"
      ints: 1
      ints: 1
      ints: 1
      ints: 1
      type: INTS
    }
    attribute {
      name: "strides"
      ints: 1
      ints: 1
      type: INTS
    }
  }
  node {
    input: "435"
    output: "436"
    op_type: "Transpose"
    attribute {
      name: "perm"
      ints: 0
      ints: 2
      ints: 3
      ints: 1
      type: INTS
    }
  }
  node {
    input: "436"
    output: "437"
    op_type: "Shape"
  }
  node {
    output: "438"
    op_type: "Constant"
    attribute {
      name: "value"
      t {
        data_type: 7
        raw_data: "\000\000\000\000\000\000\000\000"
      }
      type: TENSOR
    }
  }
  node {
    input: "437"
    input: "438"
    output: "439"
    op_type: "Gather"
    attribute {
      name: "axis"
      i: 0
      type: INT
    }
  }
  node {
    output: "440"
    op_type: "Constant"
    attribute {
      name: "value"
      t {
        data_type: 7
        raw_data: "\377\377\377\377\377\377\377\377"
      }
      type: TENSOR
    }
  }
  node {
    output: "441"
    op_type: "Constant"
    attribute {
      name: "value"
      t {
        data_type: 7
        raw_data: "\002\000\000\000\000\000\000\000"
      }
      type: TENSOR
    }
  }
  node {
    input: "439"
    output: "442"
    op_type: "Unsqueeze"
    attribute {
      name: "axes"
      ints: 0
      type: INTS
    }
  }
  node {
    input: "440"
    output: "443"
    op_type: "Unsqueeze"
    attribute {
      name: "axes"
      ints: 0
      type: INTS
    }
  }
  node {
    input: "441"
    output: "444"
    op_type: "Unsqueeze"
    attribute {
      name: "axes"
      ints: 0
      type: INTS
    }
  }
  node {
    input: "442"
    input: "443"
    input: "444"
    output: "445"
    op_type: "Concat"
    attribute {
      name: "axis"
      i: 0
      type: INT
    }
  }
  node {
    input: "436"
    input: "445"
    output: "446"
    op_type: "Reshape"
  }
  node {
    input: "434"
    input: "regression_headers.3.weight"
    input: "regression_headers.3.bias"
    output: "447"
    op_type: "Conv"
    attribute {
      name: "dilations"
      ints: 1
      ints: 1
      type: INTS
    }
    attribute {
      name: "group"
      i: 1
      type: INT
    }
    attribute {
      name: "kernel_shape"
      ints: 3
      ints: 3
      type: INTS
    }
    attribute {
      name: "pads"
      ints: 1
      ints: 1
      ints: 1
      ints: 1
      type: INTS
    }
    attribute {
      name: "strides"
      ints: 1
      ints: 1
      type: INTS
    }
  }
  node {
    input: "447"
    output: "448"
    op_type: "Transpose"
    attribute {
      name: "perm"
      ints: 0
      ints: 2
      ints: 3
      ints: 1
      type: INTS
    }
  }
  node {
    input: "448"
    output: "449"
    op_type: "Shape"
  }
  node {
    output: "450"
    op_type: "Constant"
    attribute {
      name: "value"
      t {
        data_type: 7
        raw_data: "\000\000\000\000\000\000\000\000"
      }
      type: TENSOR
    }
  }
  node {
    input: "449"
    input: "450"
    output: "451"
    op_type: "Gather"
    attribute {
      name: "axis"
      i: 0
      type: INT
    }
  }
  node {
    output: "452"
    op_type: "Constant"
    attribute {
      name: "value"
      t {
        data_type: 7
        raw_data: "\377\377\377\377\377\377\377\377"
      }
      type: TENSOR
    }
  }
  node {
    output: "453"
    op_type: "Constant"
    attribute {
      name: "value"
      t {
        data_type: 7
        raw_data: "\004\000\000\000\000\000\000\000"
      }
      type: TENSOR
    }
  }
  node {
    input: "451"
    output: "454"
    op_type: "Unsqueeze"
    attribute {
      name: "axes"
      ints: 0
      type: INTS
    }
  }
  node {
    input: "452"
    output: "455"
    op_type: "Unsqueeze"
    attribute {
      name: "axes"
      ints: 0
      type: INTS
    }
  }
  node {
    input: "453"
    output: "456"
    op_type: "Unsqueeze"
    attribute {
      name: "axes"
      ints: 0
      type: INTS
    }
  }
  node {
    input: "454"
    input: "455"
    input: "456"
    output: "457"
    op_type: "Concat"
    attribute {
      name: "axis"
      i: 0
      type: INT
    }
  }
  node {
    input: "448"
    input: "457"
    output: "458"
    op_type: "Reshape"
  }
  node {
    input: "328"
    input: "374"
    input: "414"
    input: "446"
    output: "459"
    op_type: "Concat"
    attribute {
      name: "axis"
      i: 1
      type: INT
    }
  }
  node {
    input: "342"
    input: "388"
    input: "428"
    input: "458"
    output: "460"
    op_type: "Concat"
    attribute {
      name: "axis"
      i: 1
      type: INT
    }
  }
  node {
    input: "459"
    output: "scores"
    op_type: "Softmax"
    attribute {
      name: "axis"
      i: 2
      type: INT
    }
  }
  node {
    input: "460"
    output: "462"
    op_type: "Slice"
    attribute {
      name: "axes"
      ints: 2
      type: INTS
    }
    attribute {
      name: "ends"
      ints: 2
      type: INTS
    }
    attribute {
      name: "starts"
      ints: 0
      type: INTS
    }
  }
  node {
    output: "463"
    op_type: "Constant"
    attribute {
      name: "value"
      t {
        data_type: 1
        raw_data: "\315\314\314="
      }
      type: TENSOR
    }
  }
  node {
    input: "462"
    input: "463"
    output: "464"
    op_type: "Mul"
  }
  node {
    input: "464"
    input: "465"
    output: "466"
    op_type: "Mul"
  }
  node {
    input: "466"
    input: "467"
    output: "468"
    op_type: "Add"
  }
  node {
    input: "460"
    output: "469"
    op_type: "Slice"
    attribute {
      name: "axes"
      ints: 2
      type: INTS
    }
    attribute {
      name: "ends"
      ints: 9223372036854775807
      type: INTS
    }
    attribute {
      name: "starts"
      ints: 2
      type: INTS
    }
  }
  node {
    output: "470"
    op_type: "Constant"
    attribute {
      name: "value"
      t {
        data_type: 1
        raw_data: "\315\314L>"
      }
      type: TENSOR
    }
  }
  node {
    input: "469"
    input: "470"
    output: "471"
    op_type: "Mul"
  }
  node {
    input: "471"
    output: "472"
    op_type: "Exp"
  }
  node {
    input: "472"
    input: "473"
    output: "474"
    op_type: "Mul"
  }
  node {
    input: "468"
    input: "474"
    output: "475"
    op_type: "Concat"
    attribute {
      name: "axis"
      i: 2
      type: INT
    }
  }
  node {
    input: "475"
    output: "476"
    op_type: "Slice"
    attribute {
      name: "axes"
      ints: 2
      type: INTS
    }
    attribute {
      name: "ends"
      ints: 2
      type: INTS
    }
    attribute {
      name: "starts"
      ints: 0
      type: INTS
    }
  }
  node {
    input: "475"
    output: "477"
    op_type: "Slice"
    attribute {
      name: "axes"
      ints: 2
      type: INTS
    }
    attribute {
      name: "ends"
      ints: 9223372036854775807
      type: INTS
    }
    attribute {
      name: "starts"
      ints: 2
      type: INTS
    }
  }
  node {
    output: "478"
    op_type: "Constant"
    attribute {
      name: "value"
      t {
        data_type: 1
        raw_data: "\000\000\000@"
      }
      type: TENSOR
    }
  }
  node {
    input: "477"
    input: "478"
    output: "479"
    op_type: "Div"
  }
  node {
    input: "476"
    input: "479"
    output: "480"
    op_type: "Sub"
  }
  node {
    input: "475"
    output: "481"
    op_type: "Slice"
    attribute {
      name: "axes"
      ints: 2
      type: INTS
    }
    attribute {
      name: "ends"
      ints: 2
      type: INTS
    }
    attribute {
      name: "starts"
      ints: 0
      type: INTS
    }
  }
  node {
    input: "475"
    output: "482"
    op_type: "Slice"
    attribute {
      name: "axes"
      ints: 2
      type: INTS
    }
    attribute {
      name: "ends"
      ints: 9223372036854775807
      type: INTS
    }
    attribute {
      name: "starts"
      ints: 2
      type: INTS
    }
  }
  node {
    output: "483"
    op_type: "Constant"
    attribute {
      name: "value"
      t {
        data_type: 1
        raw_data: "\000\000\000@"
      }
      type: TENSOR
    }
  }
  node {
    input: "482"
    input: "483"
    output: "484"
    op_type: "Div"
  }
  node {
    input: "481"
    input: "484"
    output: "485"
    op_type: "Add"
  }
  node {
    input: "480"
    input: "485"
    output: "boxes"
    op_type: "Concat"
    attribute {
      name: "axis"
      i: 2
      type: INT
    }
  }
  name: "torch-jit-export"
  initializer {
    dims: 16
    data_type: 1
    name: "base_net.0.1.bias"
    raw_data: "…"
  }
  initializer {
    data_type: 7
    name: "base_net.0.1.num_batches_tracked"
    raw_data: "\300\242\001\000\000\000\000\000"
  }
  initializer {
    dims: 16
    data_type: 1
    name: "base_net.0.1.running_mean"
    raw_data: "…"
  }
  initializer {
    dims: 16
    data_type: 1
    name: "base_net.0.1.running_var"
    raw_data: "…"
  }
  initializer {
    dims: 16
    data_type: 1
    name: "base_net.0.1.weight"
    raw_data: "…"
  }
  initializer {
    dims: 16
    data_type: 1
    name: "base_net.1.1.bias"
    raw_data: "…"
  }
  initializer {
    data_type: 7
    name: "base_net.1.1.num_batches_tracked"
    raw_data: "\300\242\001\000\000\000\000\000"
  }
  initializer {
    dims: 16
    data_type: 1
    name: "base_net.1.1.running_mean"
    raw_data: "…"
  }
  initializer {
    dims: 16
    data_type: 1
    name: "base_net.1.1.running_var"
    raw_data: "…"
  }
  initializer {
    dims: 16
    data_type: 1
    name: "base_net.1.1.weight"
    raw_data: "…"
  }
  initializer {
    dims: 32
    data_type: 1
    name: "base_net.1.4.bias"
    raw_data: "…"
  }
  initializer {
    data_type: 7
    name: "base_net.1.4.num_batches_tracked"
    raw_data: "\300\242\001\000\000\000\000\000"
  }
  initializer {
    dims: 32
    data_type: 1
    name: "base_net.1.4.running_mean"
    raw_data: "…"
  }
  initializer {
    dims: 32
    data_type: 1
    name: "base_net.1.4.running_var"
    raw_data: "…"
  }
  initializer {
    dims: 32
    data_type: 1
    name: "base_net.1.4.weight"
    raw_data: "…"
  }
  initializer {
    data_type: 7
    name: "base_net.10.1.num_batches_tracked"
    raw_data: "\300\242\001\000\000\000\000\000"
  }
  initializer {
    data_type: 7
    name: "base_net.10.4.num_batches_tracked"
    raw_data: "\300\242\001\000\000\000\000\000"
  }
  initializer {
    data_type: 7
    name: "base_net.11.1.num_batches_tracked"
    raw_data: "\300\242\001\000\000\000\000\000"
  }
  initializer {
    data_type: 7
    name: "base_net.11.4.num_batches_tracked"
    raw_data: "\300\242\001\000\000\000\000\000"
  }
  initializer {
    data_type: 7
    name: "base_net.12.1.num_batches_tracked"
    raw_data: "\300\242\001\000\000\000\000\000"
  }
  initializer {
    data_type: 7
    name: "base_net.12.4.num_batches_tracked"
    raw_data: "\300\242\001\000\000\000\000\000"
  }
  initializer {
    dims: 32
    data_type: 1
    name: "base_net.2.1.bias"
    raw_data: "…"
  }
  initializer {
    data_type: 7
    name: "base_net.2.1.num_batches_tracked"
    raw_data: "\300\242\001\000\000\000\000\000"
  }
  initializer {
    dims: 32
    data_type: 1
    name: "base_net.2.1.running_mean"
    raw_data: "…"
  }
  initializer {
    dims: 32
    data_type: 1
    name: "base_net.2.1.running_var"
    raw_data: "…"
  }
  initializer {
    dims: 32
    data_type: 1
    name: "base_net.2.1.weight"
    raw_data: "…"
  }
  initializer {
    dims: 32
    data_type: 1
    name: "base_net.2.4.bias"
    raw_data: "…"
  }
  initializer {
    data_type: 7
    name: "base_net.2.4.num_batches_tracked"
    raw_data: "\300\242\001\000\000\000\000\000"
  }
  initializer {
    dims: 32
    data_type: 1
    name: "base_net.2.4.running_mean"
    raw_data: "…"
  }
  initializer {
    dims: 32
    data_type: 1
    name: "base_net.2.4.running_var"
    raw_data: "…"
  }
  initializer {
    dims: 32
    data_type: 1
    name: "base_net.2.4.weight"
    raw_data: "…"
  }
  initializer {
    dims: 32
    data_type: 1
    name: "base_net.3.1.bias"
    raw_data: "…"
  }
  initializer {
    data_type: 7
    name: "base_net.3.1.num_batches_tracked"
    raw_data: "\300\242\001\000\000\000\000\000"
  }
  initializer {
    dims: 32
    data_type: 1
    name: "base_net.3.1.running_mean"
    raw_data: "…"
  }
  initializer {
    dims: 32
    data_type: 1
    name: "base_net.3.1.running_var"
    raw_data: "…"
  }
  initializer {
    dims: 32
    data_type: 1
    name: "base_net.3.1.weight"
    raw_data: "…"
  }
  initializer {
    dims: 32
    data_type: 1
    name: "base_net.3.4.bias"
    raw_data: "…"
  }
  initializer {
    data_type: 7
    name: "base_net.3.4.num_batches_tracked"
    raw_data: "\300\242\001\000\000\000\000\000"
  }
  initializer {
    dims: 32
    data_type: 1
    name: "base_net.3.4.running_mean"
    raw_data: "…"
  }
  initializer {
    dims: 32
    data_type: 1
    name: "base_net.3.4.running_var"
    raw_data: "…"
  }
  initializer {
    dims: 32
    data_type: 1
    name: "base_net.3.4.weight"
    raw_data: "…"
  }
  initializer {
    dims: 32
    data_type: 1
    name: "base_net.4.1.bias"
    raw_data: "…"
  }
  initializer {
    data_type: 7
    name: "base_net.4.1.num_batches_tracked"
    raw_data: "\300\242\001\000\000\000\000\000"
  }
  initializer {
    dims: 32
    data_type: 1
    name: "base_net.4.1.running_mean"
    raw_data: "…"
  }
  initializer {
    dims: 32
    data_type: 1
    name: "base_net.4.1.running_var"
    raw_data: "…"
  }
  initializer {
    dims: 32
    data_type: 1
    name: "base_net.4.1.weight"
    raw_data: "…"
  }
  initializer {
    dims: 64
    data_type: 1
    name: "base_net.4.4.bias"
    raw_data: "…"
  }
  initializer {
    data_type: 7
    name: "base_net.4.4.num_batches_tracked"
    raw_data: "\300\242\001\000\000\000\000\000"
  }
  initializer {
    dims: 64
    data_type: 1
    name: "base_net.4.4.running_mean"
    raw_data: "…"
  }
  initializer {
    dims: 64
    data_type: 1
    name: "base_net.4.4.running_var"
    raw_data: "…"
  }
  initializer {
    dims: 64
    data_type: 1
    name: "base_net.4.4.weight"
    raw_data: "…"
  }
  initializer {
    dims: 64
    data_type: 1
    name: "base_net.5.1.bias"
    raw_data: "…"
  }
  initializer {
    data_type: 7
    name: "base_net.5.1.num_batches_tracked"
    raw_data: "\300\242\001\000\000\000\000\000"
  }
  initializer {
    dims: 64
    data_type: 1
    name: "base_net.5.1.running_mean"
    raw_data: "…"
  }
  initializer {
    dims: 64
    data_type: 1
    name: "base_net.5.1.running_var"
    raw_data: "…"
  }
  initializer {
    dims: 64
    data_type: 1
    name: "base_net.5.1.weight"
    raw_data: "…"
  }
  initializer {
    dims: 64
    data_type: 1
    name: "base_net.5.4.bias"
    raw_data: "…"
  }
  initializer {
    data_type: 7
    name: "base_net.5.4.num_batches_tracked"
    raw_data: "\300\242\001\000\000\000\000\000"
  }
  initializer {
    dims: 64
    data_type: 1
    name: "base_net.5.4.running_mean"
    raw_data: "…"
  }
  initializer {
    dims: 64
    data_type: 1
    name: "base_net.5.4.running_var"
    raw_data: "…"
  }
  initializer {
    dims: 64
    data_type: 1
    name: "base_net.5.4.weight"
    raw_data: "…"
  }
  initializer {
    dims: 64
    data_type: 1
    name: "base_net.6.1.bias"
    raw_data: "…"
  }
  initializer {
    data_type: 7
    name: "base_net.6.1.num_batches_tracked"
    raw_data: "\300\242\001\000\000\000\000\000"
  }
  initializer {
    dims: 64
    data_type: 1
    name: "base_net.6.1.running_mean"
    raw_data: "…"
  }
  initializer {
    dims: 64
    data_type: 1
    name: "base_net.6.1.running_var"
    raw_data: "…"
  }
  initializer {
    dims: 64
    data_type: 1
    name: "base_net.6.1.weight"
    raw_data: "…"
  }
  initializer {
    dims: 64
    data_type: 1
    name: "base_net.6.4.bias"
    raw_data: "…"
  }
  initializer {
    data_type: 7
    name: "base_net.6.4.num_batches_tracked"
    raw_data: "\300\242\001\000\000\000\000\000"
  }
  initializer {
    dims: 64
    data_type: 1
    name: "base_net.6.4.running_mean"
    raw_data: "…"
  }
  initializer {
    dims: 64
    data_type: 1
    name: "base_net.6.4.running_var"
    raw_data: "…"
  }
  initializer {
    dims: 64
    data_type: 1
    name: "base_net.6.4.weight"
    raw_data: "…"
  }
  initializer {
    dims: 64
    data_type: 1
    name: "base_net.7.ConvLinear.bn.bias"
    raw_data: "…"
  }
  initializer {
    data_type: 7
    name: "base_net.7.ConvLinear.bn.num_batches_tracked"
    raw_data: "\300\242\001\000\000\000\000\000"
  }
  initializer {
    dims: 64
    data_type: 1
    name: "base_net.7.ConvLinear.bn.running_mean"
    raw_data: "…"
  }
  initializer {
    dims: 64
    data_type: 1
    name: "base_net.7.ConvLinear.bn.running_var"
    raw_data: "…"
  }
  initializer {
    dims: 64
    data_type: 1
    name: "base_net.7.ConvLinear.bn.weight"
    raw_data: "…"
  }
  initializer {
    dims: 8
    data_type: 1
    name: "base_net.7.branch0.0.bn.bias"
    raw_data: "\351y\'>\315do\275\274\222\233=\235I\257\275\335\025\226=\2419\177=\254\373\275\275f\013%="
  }
  initializer {
    data_type: 7
    name: "base_net.7.branch0.0.bn.num_batches_tracked"
    raw_data: "\300\242\001\000\000\000\000\000"
  }
  initializer {
    dims: 8
    data_type: 1
    name: "base_net.7.branch0.0.bn.running_mean"
    raw_data: "…"
  }
  initializer {
    dims: 8
    data_type: 1
    name: "base_net.7.branch0.0.bn.running_var"
    raw_data: "\204s\211<\324Tt<v9\210<2\205U<j\035\206<\331\233s<Nzc<\343\'N<"
  }
  initializer {
    dims: 8
    data_type: 1
    name: "base_net.7.branch0.0.bn.weight"
    raw_data: "o8\242>\373W\216>\324\264\234>8\354\226>\262\024\237>\351\035\247>\352\021\230>\223\353\206>"
  }
  initializer {
    dims: 16
    data_type: 1
    name: "base_net.7.branch0.1.bn.bias"
    raw_data: "…"
  }
  initializer {
    data_type: 7
    name: "base_net.7.branch0.1.bn.num_batches_tracked"
    raw_data: "\300\242\001\000\000\000\000\000"
  }
  initializer {
    dims: 16
    data_type: 1
    name: "base_net.7.branch0.1.bn.running_mean"
    raw_data: "…"
  }
  initializer {
    dims: 16
    data_type: 1
    name: "base_net.7.branch0.1.bn.running_var"
    raw_data: "…"
  }
  initializer {
    dims: 16
    data_type: 1
    name: "base_net.7.branch0.1.bn.weight"
    raw_data: "…"
  }
  initializer {
    dims: 16
    data_type: 1
    name: "base_net.7.branch0.2.bn.bias"
    raw_data: "…"
  }
  initializer {
    data_type: 7
    name: "base_net.7.branch0.2.bn.num_batches_tracked"
    raw_data: "\300\242\001\000\000\000\000\000"
  }
  initializer {
    dims: 16
    data_type: 1
    name: "base_net.7.branch0.2.bn.running_mean"
    raw_data: "…"
  }
  initializer {
    dims: 16
    data_type: 1
    name: "base_net.7.branch0.2.bn.running_var"
    raw_data: "…"
  }
  initializer {
    dims: 16
    data_type: 1
    name: "base_net.7.branch0.2.bn.weight"
    raw_data: "…"
  }
  initializer {
    dims: 8
    data_type: 1
    name: "base_net.7.branch1.0.bn.bias"
    raw_data: "$\254&>\361Yv=\232\034\346=r\301\t\276\024\325\341\274\277\261\351\275\3378G<\212\322\327\275"
  }
  initializer {
    data_type: 7
    name: "base_net.7.branch1.0.bn.num_batches_tracked"
    raw_data: "\300\242\001\000\000\000\000\000"
  }
  initializer {
    dims: 8
    data_type: 1
    name: "base_net.7.branch1.0.bn.running_mean"
    raw_data: "\275\224x><\324\222=\347\220?>@\345\202\275\231\375L\275\027\230\202\274\347[\010\276<\313\254="
  }
  initializer {
    dims: 8
    data_type: 1
    name: "base_net.7.branch1.0.bn.running_var"
    raw_data: "\3008D<|\026=<\262\\\'<\204\027\037<v\025p<\204\236Q<\231\013\035<u\247@<"
  }
  initializer {
    dims: 8
    data_type: 1
    name: "base_net.7.branch1.0.bn.weight"
    raw_data: "\340b\207>@\272\213>\253\377w>\217O|>y\307\214>v\266\202>D\215\202>\376a|>"
  }
  initializer {
    dims: 16
    data_type: 1
    name: "base_net.7.branch1.1.bn.bias"
    raw_data: "…"
  }
  initializer {
    data_type: 7
    name: "base_net.7.branch1.1.bn.num_batches_tracked"
    raw_data: "\300\242\001\000\000\000\000\000"
  }
  initializer {
    dims: 16
    data_type: 1
    name: "base_net.7.branch1.1.bn.running_mean"
    raw_data: "…"
  }
  initializer {
    dims: 16
    data_type: 1
    name: "base_net.7.branch1.1.bn.running_var"
    raw_data: "…"
  }
  initializer {
    dims: 16
    data_type: 1
    name: "base_net.7.branch1.1.bn.weight"
    raw_data: "…"
  }
  initializer {
    dims: 16
    data_type: 1
    name: "base_net.7.branch1.2.bn.bias"
    raw_data: "…"
  }
  initializer {
    data_type: 7
    name: "base_net.7.branch1.2.bn.num_batches_tracked"
    raw_data: "\300\242\001\000\000\000\000\000"
  }
  initializer {
    dims: 16
    data_type: 1
    name: "base_net.7.branch1.2.bn.running_mean"
    raw_data: "…"
  }
  initializer {
    dims: 16
    data_type: 1
    name: "base_net.7.branch1.2.bn.running_var"
    raw_data: "…"
  }
  initializer {
    dims: 16
    data_type: 1
    name: "base_net.7.branch1.2.bn.weight"
    raw_data: "…"
  }
  initializer {
    dims: 8
    data_type: 1
    name: "base_net.7.branch2.0.bn.bias"
    raw_data: "\361\274Y\275;\006\254\275l\r~=\312\017\022\276<M(\275\345}r>\014\345\302=\264\252w\275"
  }
  initializer {
    data_type: 7
    name: "base_net.7.branch2.0.bn.num_batches_tracked"
    raw_data: "\300\242\001\000\000\000\000\000"
  }
  initializer {
    dims: 8
    data_type: 1
    name: "base_net.7.branch2.0.bn.running_mean"
    raw_data: "\364\242\361\274\207`Y<\356\365\301\275\264D==\327\2771>\206\305*>\033\213\006=\213\177\222\274"
  }
  initializer {
    dims: 8
    data_type: 1
    name: "base_net.7.branch2.0.bn.running_var"
    raw_data: "B+o<\266\2356<\303\234l<\331\013\254<\344\356I<\204\206\251<)\244u<5$/<"
  }
  initializer {
    dims: 8
    data_type: 1
    name: "base_net.7.branch2.0.bn.weight"
    raw_data: "]\317\217>\347\321\241>\372\374\214>AA\237>Jx\220>U\300\236>*\006\217>^\"\231>"
  }
  initializer {
    dims: 12
    data_type: 1
    name: "base_net.7.branch2.1.bn.bias"
    raw_data: "…"
  }
  initializer {
    data_type: 7
    name: "base_net.7.branch2.1.bn.num_batches_tracked"
    raw_data: "\300\242\001\000\000\000\000\000"
  }
  initializer {
    dims: 12
    data_type: 1
    name: "base_net.7.branch2.1.bn.running_mean"
    raw_data: "…"
  }
  initializer {
    dims: 12
    data_type: 1
    name: "base_net.7.branch2.1.bn.running_var"
    raw_data: "…"
  }
  initializer {
    dims: 12
    data_type: 1
    name: "base_net.7.branch2.1.bn.weight"
    raw_data: "…"
  }
  initializer {
    dims: 16
    data_type: 1
    name: "base_net.7.branch2.2.bn.bias"
    raw_data: "…"
  }
  initializer {
    data_type: 7
    name: "base_net.7.branch2.2.bn.num_batches_tracked"
    raw_data: "\300\242\001\000\000\000\000\000"
  }
  initializer {
    dims: 16
    data_type: 1
    name: "base_net.7.branch2.2.bn.running_mean"
    raw_data: "…"
  }
  initializer {
    dims: 16
    data_type: 1
    name: "base_net.7.branch2.2.bn.running_var"
    raw_data: "…"
  }
  initializer {
    dims: 16
    data_type: 1
    name: "base_net.7.branch2.2.bn.weight"
    raw_data: "…"
  }
  initializer {
    dims: 16
    data_type: 1
    name: "base_net.7.branch2.3.bn.bias"
    raw_data: "…"
  }
  initializer {
    data_type: 7
    name: "base_net.7.branch2.3.bn.num_batches_tracked"
    raw_data: "\300\242\001\000\000\000\000\000"
  }
  initializer {
    dims: 16
    data_type: 1
    name: "base_net.7.branch2.3.bn.running_mean"
    raw_data: "…"
  }
  initializer {
    dims: 16
    data_type: 1
    name: "base_net.7.branch2.3.bn.running_var"
    raw_data: "…"
  }
  initializer {
    dims: 16
    data_type: 1
    name: "base_net.7.branch2.3.bn.weight"
    raw_data: "…"
  }
  initializer {
    dims: 64
    data_type: 1
    name: "base_net.7.shortcut.bn.bias"
    raw_data: "…"
  }
  initializer {
    data_type: 7
    name: "base_net.7.shortcut.bn.num_batches_tracked"
    raw_data: "\300\242\001\000\000\000\000\000"
  }
  initializer {
    dims: 64
    data_type: 1
    name: "base_net.7.shortcut.bn.running_mean"
    raw_data: "…"
  }
  initializer {
    dims: 64
    data_type: 1
    name: "base_net.7.shortcut.bn.running_var"
    raw_data: "…"
  }
  initializer {
    dims: 64
    data_type: 1
    name: "base_net.7.shortcut.bn.weight"
    raw_data: "…"
  }
  initializer {
    dims: 64
    data_type: 1
    name: "base_net.8.1.bias"
    raw_data: "…"
  }
  initializer {
    data_type: 7
    name: "base_net.8.1.num_batches_tracked"
    raw_data: "\300\242\001\000\000\000\000\000"
  }
  initializer {
    dims: 64
    data_type: 1
    name: "base_net.8.1.running_mean"
    raw_data: "…"
  }
  initializer {
    dims: 64
    data_type: 1
    name: "base_net.8.1.running_var"
    raw_data: "…"
  }
  initializer {
    dims: 64
    data_type: 1
    name: "base_net.8.1.weight"
    raw_data: "…"
  }
  initializer {
    data_type: 7
    name: "base_net.8.4.num_batches_tracked"
    raw_data: "\300\242\001\000\000\000\000\000"
  }
  initializer {
    data_type: 7
    name: "base_net.9.1.num_batches_tracked"
    raw_data: "\300\242\001\000\000\000\000\000"
  }
  initializer {
    data_type: 7
    name: "base_net.9.4.num_batches_tracked"
    raw_data: "\300\242\001\000\000\000\000\000"
  }
  initializer {
    dims: 64
    data_type: 1
    name: "classification_headers.0.0.bias"
    raw_data: "…"
  }
  initializer {
    dims: 6
    data_type: 1
    name: "classification_headers.0.2.bias"
    raw_data: "V\307F?\352{G\277\331\\%?HM#\277oV\032?\200\006\030\277"
  }
  initializer {
    dims: 4
    data_type: 1
    name: "classification_headers.1.2.bias"
    raw_data: "\263).?5E,\277\351{\014?\365\364\t\277"
  }
  initializer {
    dims: 4
    data_type: 1
    name: "classification_headers.2.2.bias"
    raw_data: "A\370\350>\204\261\352\276\355z\267>\013\362\265\276"
  }
  initializer {
    dims: 6
    data_type: 1
    name: "classification_headers.3.bias"
    raw_data: "\310\347\224>I\246\225\276\234\216X>1\254V\276\313\026\217>\252\306\216\276"
  }
  initializer {
    dims: 64
    data_type: 1
    name: "extras.0.0.bias"
    raw_data: "…"
  }
  initializer {
    dims: 64
    data_type: 1
    name: "extras.0.2.0.bias"
    raw_data: "…"
  }
  initializer {
    dims: 64
    data_type: 1
    name: "regression_headers.0.0.bias"
    raw_data: "…"
  }
  initializer {
    dims: 12
    data_type: 1
    name: "regression_headers.0.2.bias"
    raw_data: "…"
  }
  initializer {
    dims: 8
    data_type: 1
    name: "regression_headers.1.2.bias"
    raw_data: "0\320%\275\275f\225\274\225r\001\276\003\366%>C\373\326\274#\264\267\274\200\255\204\276\363DQ\274"
  }
  initializer {
    dims: 8
    data_type: 1
    name: "regression_headers.2.2.bias"
    raw_data: "\361sN<`\234\3739j\271\334\275\337*\263<4\370\020\273\014\'\261<@\202\032\276\214\326B\275"
  }
  initializer {
    dims: 12
    data_type: 1
    name: "regression_headers.3.bias"
    raw_data: "…"
  }
  input {
    name: "input"
    type {
      tensor_type {
        elem_type: 1
        shape {
          dim {
            dim_value: 1
          }
          dim {
            dim_value: 3
          }
          dim {
            dim_value: 480
          }
          dim {
            dim_value: 640
          }
        }
      }
    }
  }
  input {
    name: "base_net.0.0.weight"
    type {
      tensor_type {
        elem_type: 1
        shape {
          dim {
            dim_value: 16
          }
          dim {
            dim_value: 3
          }
          dim {
            dim_value: 3
          }
          dim {
            dim_value: 3
          }
        }
      }
    }
  }
  input {
    name: "base_net.0.1.weight"
    type {
      tensor_type {
        elem_type: 1
        shape {
          dim {
            dim_value: 16
          }
        }
      }
    }
  }
  input {
    name: "base_net.0.1.bias"
    type {
      tensor_type {
        elem_type: 1
        shape {
          dim {
            dim_value: 16
          }
        }
      }
    }
  }
  input {
    name: "base_net.0.1.running_mean"
    type {
      tensor_type {
        elem_type: 1
        shape {
          dim {
            dim_value: 16
          }
        }
      }
    }
  }
  input {
    name: "base_net.0.1.running_var"
    type {
      tensor_type {
        elem_type: 1
        shape {
          dim {
            dim_value: 16
          }
        }
      }
    }
  }
  input {
    name: "base_net.0.1.num_batches_tracked"
    type {
      tensor_type {
        elem_type: 7
        shape {
        }
      }
    }
  }
  input {
    name: "base_net.1.0.weight"
    type {
      tensor_type {
        elem_type: 1
        shape {
          dim {
            dim_value: 16
          }
          dim {
            dim_value: 1
          }
          dim {
            dim_value: 3
          }
          dim {
            dim_value: 3
          }
        }
      }
    }
  }
  input {
    name: "base_net.1.1.weight"
    type {
      tensor_type {
        elem_type: 1
        shape {
          dim {
            dim_value: 16
          }
        }
      }
    }
  }
  input {
    name: "base_net.1.1.bias"
    type {
      tensor_type {
        elem_type: 1
        shape {
          dim {
            dim_value: 16
          }
        }
      }
    }
  }
  input {
    name: "base_net.1.1.running_mean"
    type {
      tensor_type {
        elem_type: 1
        shape {
          dim {
            dim_value: 16
          }
        }
      }
    }
  }
  input {
    name: "base_net.1.1.running_var"
    type {
      tensor_type {
        elem_type: 1
        shape {
          dim {
            dim_value: 16
          }
        }
      }
    }
  }
  input {
    name: "base_net.1.1.num_batches_tracked"
    type {
      tensor_type {
        elem_type: 7
        shape {
        }
      }
    }
  }
  input {
    name: "base_net.1.3.weight"
    type {
      tensor_type {
        elem_type: 1
        shape {
          dim {
            dim_value: 32
          }
          dim {
            dim_value: 16
          }
          dim {
            dim_value: 1
          }
          dim {
            dim_value: 1
          }
        }
      }
    }
  }
  input {
    name: "base_net.1.4.weight"
    type {
      tensor_type {
        elem_type: 1
        shape {
          dim {
            dim_value: 32
          }
        }
      }
    }
  }
  input {
    name: "base_net.1.4.bias"
    type {
      tensor_type {
        elem_type: 1
        shape {
          dim {
            dim_value: 32
          }
        }
      }
    }
  }
  input {
    name: "base_net.1.4.running_mean"
    type {
      tensor_type {
        elem_type: 1
        shape {
          dim {
            dim_value: 32
          }
        }
      }
    }
  }
  input {
    name: "base_net.1.4.running_var"
    type {
      tensor_type {
        elem_type: 1
        shape {
          dim {
            dim_value: 32
          }
        }
      }
    }
  }
  input {
    name: "base_net.1.4.num_batches_tracked"
    type {
      tensor_type {
        elem_type: 7
        shape {
        }
      }
    }
  }
  input {
    name: "base_net.2.0.weight"
    type {
      tensor_type {
        elem_type: 1
        shape {
          dim {
            dim_value: 32
          }
          dim {
            dim_value: 1
          }
          dim {
            dim_value: 3
          }
          dim {
            dim_value: 3
          }
        }
      }
    }
  }
  input {
    name: "base_net.2.1.weight"
    type {
      tensor_type {
        elem_type: 1
        shape {
          dim {
            dim_value: 32
          }
        }
      }
    }
  }
  input {
    name: "base_net.2.1.bias"
    type {
      tensor_type {
        elem_type: 1
        shape {
          dim {
            dim_value: 32
          }
        }
      }
    }
  }
  input {
    name: "base_net.2.1.running_mean"
    type {
      tensor_type {
        elem_type: 1
        shape {
          dim {
            dim_value: 32
          }
        }
      }
    }
  }
  input {
    name: "base_net.2.1.running_var"
    type {
      tensor_type {
        elem_type: 1
        shape {
          dim {
            dim_value: 32
          }
        }
      }
    }
  }
  input {
    name: "base_net.2.1.num_batches_tracked"
    type {
      tensor_type {
        elem_type: 7
        shape {
        }
      }
    }
  }
  input {
    name: "base_net.2.3.weight"
    type {
      tensor_type {
        elem_type: 1
        shape {
          dim {
            dim_value: 32
          }
          dim {
            dim_value: 32
          }
          dim {
            dim_value: 1
          }
          dim {
            dim_value: 1
          }
        }
      }
    }
  }
  input {
    name: "base_net.2.4.weight"
    type {
      tensor_type {
        elem_type: 1
        shape {
          dim {
            dim_value: 32
          }
        }
      }
    }
  }
  input {
    name: "base_net.2.4.bias"
    type {
      tensor_type {
        elem_type: 1
        shape {
          dim {
            dim_value: 32
          }
        }
      }
    }
  }
  input {
    name: "base_net.2.4.running_mean"
    type {
      tensor_type {
        elem_type: 1
        shape {
          dim {
            dim_value: 32
          }
        }
      }
    }
  }
  input {
    name: "base_net.2.4.running_var"
    type {
      tensor_type {
        elem_type: 1
        shape {
          dim {
            dim_value: 32
          }
        }
      }
    }
  }
  input {
    name: "base_net.2.4.num_batches_tracked"
    type {
      tensor_type {
        elem_type: 7
        shape {
        }
      }
    }
  }
  input {
    name: "base_net.3.0.weight"
    type {
      tensor_type {
        elem_type: 1
        shape {
          dim {
            dim_value: 32
          }
          dim {
            dim_value: 1
          }
          dim {
            dim_value: 3
          }
          dim {
            dim_value: 3
          }
        }
      }
    }
  }
  input {
    name: "base_net.3.1.weight"
    type {
      tensor_type {
        elem_type: 1
        shape {
          dim {
            dim_value: 32
          }
        }
      }
    }
  }
  input {
    name: "base_net.3.1.bias"
    type {
      tensor_type {
        elem_type: 1
        shape {
          dim {
            dim_value: 32
          }
        }
      }
    }
  }
  input {
    name: "base_net.3.1.running_mean"
    type {
      tensor_type {
        elem_type: 1
        shape {
          dim {
            dim_value: 32
          }
        }
      }
    }
  }
  input {
    name: "base_net.3.1.running_var"
    type {
      tensor_type {
        elem_type: 1
        shape {
          dim {
            dim_value: 32
          }
        }
      }
    }
  }
  input {
    name: "base_net.3.1.num_batches_tracked"
    type {
      tensor_type {
        elem_type: 7
        shape {
        }
      }
    }
  }
  input {
    name: "base_net.3.3.weight"
    type {
      tensor_type {
        elem_type: 1
        shape {
          dim {
            dim_value: 32
          }
          dim {
            dim_value: 32
          }
          dim {
            dim_value: 1
          }
          dim {
            dim_value: 1
          }
        }
      }
    }
  }
  input {
    name: "base_net.3.4.weight"
    type {
      tensor_type {
        elem_type: 1
        shape {
          dim {
            dim_value: 32
          }
        }
      }
    }
  }
  input {
    name: "base_net.3.4.bias"
    type {
      tensor_type {
        elem_type: 1
        shape {
          dim {
            dim_value: 32
          }
        }
      }
    }
  }
  input {
    name: "base_net.3.4.running_mean"
    type {
      tensor_type {
        elem_type: 1
        shape {
          dim {
            dim_value: 32
          }
        }
      }
    }
  }
  input {
    name: "base_net.3.4.running_var"
    type {
      tensor_type {
        elem_type: 1
        shape {
          dim {
            dim_value: 32
          }
        }
      }
    }
  }
  input {
    name: "base_net.3.4.num_batches_tracked"
    type {
      tensor_type {
        elem_type: 7
        shape {
        }
      }
    }
  }
  input {
    name: "base_net.4.0.weight"
    type {
      tensor_type {
        elem_type: 1
        shape {
          dim {
            dim_value: 32
          }
          dim {
            dim_value: 1
          }
          dim {
            dim_value: 3
          }
          dim {
            dim_value: 3
          }
        }
      }
    }
  }
  input {
    name: "base_net.4.1.weight"
    type {
      tensor_type {
        elem_type: 1
        shape {
          dim {
            dim_value: 32
          }
        }
      }
    }
  }
  input {
    name: "base_net.4.1.bias"
    type {
      tensor_type {
        elem_type: 1
        shape {
          dim {
            dim_value: 32
          }
        }
      }
    }
  }
  input {
    name: "base_net.4.1.running_mean"
    type {
      tensor_type {
        elem_type: 1
        shape {
          dim {
            dim_value: 32
          }
        }
      }
    }
  }
  input {
    name: "base_net.4.1.running_var"
    type {
      tensor_type {
        elem_type: 1
        shape {
          dim {
            dim_value: 32
          }
        }
      }
    }
  }
  input {
    name: "base_net.4.1.num_batches_tracked"
    type {
      tensor_type {
        elem_type: 7
        shape {
        }
      }
    }
  }
  input {
    name: "base_net.4.3.weight"
    type {
      tensor_type {
        elem_type: 1
        shape {
          dim {
            dim_value: 64
          }
          dim {
            dim_value: 32
          }
          dim {
            dim_value: 1
          }
          dim {
            dim_value: 1
          }
        }
      }
    }
  }
  input {
    name: "base_net.4.4.weight"
    type {
      tensor_type {
        elem_type: 1
        shape {
          dim {
            dim_value: 64
          }
        }
      }
    }
  }
  input {
    name: "base_net.4.4.bias"
    type {
      tensor_type {
        elem_type: 1
        shape {
          dim {
            dim_value: 64
          }
        }
      }
    }
  }
  input {
    name: "base_net.4.4.running_mean"
    type {
      tensor_type {
        elem_type: 1
        shape {
          dim {
            dim_value: 64
          }
        }
      }
    }
  }
  input {
    name: "base_net.4.4.running_var"
    type {
      tensor_type {
        elem_type: 1
        shape {
          dim {
            dim_value: 64
          }
        }
      }
    }
  }
  input {
    name: "base_net.4.4.num_batches_tracked"
    type {
      tensor_type {
        elem_type: 7
        shape {
        }
      }
    }
  }
  input {
    name: "base_net.5.0.weight"
    type {
      tensor_type {
        elem_type: 1
        shape {
          dim {
            dim_value: 64
          }
          dim {
            dim_value: 1
          }
          dim {
            dim_value: 3
          }
          dim {
            dim_value: 3
          }
        }
      }
    }
  }
  input {
    name: "base_net.5.1.weight"
    type {
      tensor_type {
        elem_type: 1
        shape {
          dim {
            dim_value: 64
          }
        }
      }
    }
  }
  input {
    name: "base_net.5.1.bias"
    type {
      tensor_type {
        elem_type: 1
        shape {
          dim {
            dim_value: 64
          }
        }
      }
    }
  }
  input {
    name: "base_net.5.1.running_mean"
    type {
      tensor_type {
        elem_type: 1
        shape {
          dim {
            dim_value: 64
          }
        }
      }
    }
  }
  input {
    name: "base_net.5.1.running_var"
    type {
      tensor_type {
        elem_type: 1
        shape {
          dim {
            dim_value: 64
          }
        }
      }
    }
  }
  input {
    name: "base_net.5.1.num_batches_tracked"
    type {
      tensor_type {
        elem_type: 7
        shape {
        }
      }
    }
  }
  input {
    name: "base_net.5.3.weight"
    type {
      tensor_type {
        elem_type: 1
        shape {
          dim {
            dim_value: 64
          }
          dim {
            dim_value: 64
          }
          dim {
            dim_value: 1
          }
          dim {
            dim_value: 1
          }
        }
      }
    }
  }
  input {
    name: "base_net.5.4.weight"
    type {
      tensor_type {
        elem_type: 1
        shape {
          dim {
            dim_value: 64
          }
        }
      }
    }
  }
  input {
    name: "base_net.5.4.bias"
    type {
      tensor_type {
        elem_type: 1
        shape {
          dim {
            dim_value: 64
          }
        }
      }
    }
  }
  input {
    name: "base_net.5.4.running_mean"
    type {
      tensor_type {
        elem_type: 1
        shape {
          dim {
            dim_value: 64
          }
        }
      }
    }
  }
  input {
    name: "base_net.5.4.running_var"
    type {
      tensor_type {
        elem_type: 1
        shape {
          dim {
            dim_value: 64
          }
        }
      }
    }
  }
  input {
    name: "base_net.5.4.num_batches_tracked"
    type {
      tensor_type {
        elem_type: 7
        shape {
        }
      }
    }
  }
  input {
    name: "base_net.6.0.weight"
    type {
      tensor_type {
        elem_type: 1
        shape {
          dim {
            dim_value: 64
          }
          dim {
            dim_value: 1
          }
          dim {
            dim_value: 3
          }
          dim {
            dim_value: 3
          }
        }
      }
    }
  }
  input {
    name: "base_net.6.1.weight"
    type {
      tensor_type {
        elem_type: 1
        shape {
          dim {
            dim_value: 64
          }
        }
      }
    }
  }
  input {
    name: "base_net.6.1.bias"
    type {
      tensor_type {
        elem_type: 1
        shape {
          dim {
            dim_value: 64
          }
        }
      }
    }
  }
  input {
    name: "base_net.6.1.running_mean"
    type {
      tensor_type {
        elem_type: 1
        shape {
          dim {
            dim_value: 64
          }
        }
      }
    }
  }
  input {
    name: "base_net.6.1.running_var"
    type {
      tensor_type {
        elem_type: 1
        shape {
          dim {
            dim_value: 64
          }
        }
      }
    }
  }
  input {
    name: "base_net.6.1.num_batches_tracked"
    type {
      tensor_type {
        elem_type: 7
        shape {
        }
      }
    }
  }
  input {
    name: "base_net.6.3.weight"
    type {
      tensor_type {
        elem_type: 1
        shape {
          dim {
            dim_value: 64
          }
          dim {
            dim_value: 64
          }
          dim {
            dim_value: 1
          }
          dim {
            dim_value: 1
          }
        }
      }
    }
  }
  input {
    name: "base_net.6.4.weight"
    type {
      tensor_type {
        elem_type: 1
        shape {
          dim {
            dim_value: 64
          }
        }
      }
    }
  }
  input {
    name: "base_net.6.4.bias"
    type {
      tensor_type {
        elem_type: 1
        shape {
          dim {
            dim_value: 64
          }
        }
      }
    }
  }
  input {
    name: "base_net.6.4.running_mean"
    type {
      tensor_type {
        elem_type: 1
        shape {
          dim {
            dim_value: 64
          }
        }
      }
    }
  }
  input {
    name: "base_net.6.4.running_var"
    type {
      tensor_type {
        elem_type: 1
        shape {
          dim {
            dim_value: 64
          }
        }
      }
    }
  }
  input {
    name: "base_net.6.4.num_batches_tracked"
    type {
      tensor_type {
        elem_type: 7
        shape {
        }
      }
    }
  }
  input {
    name: "base_net.7.branch0.0.conv.weight"
    type {
      tensor_type {
        elem_type: 1
        shape {
          dim {
            dim_value: 8
          }
          dim {
            dim_value: 64
          }
          dim {
            dim_value: 1
          }
          dim {
            dim_value: 1
          }
        }
      }
    }
  }
  input {
    name: "base_net.7.branch0.0.bn.weight"
    type {
      tensor_type {
        elem_type: 1
        shape {
          dim {
            dim_value: 8
          }
        }
      }
    }
  }
  input {
    name: "base_net.7.branch0.0.bn.bias"
    type {
      tensor_type {
        elem_type: 1
        shape {
          dim {
            dim_value: 8
          }
        }
      }
    }
  }
  input {
    name: "base_net.7.branch0.0.bn.running_mean"
    type {
      tensor_type {
        elem_type: 1
        shape {
          dim {
            dim_value: 8
          }
        }
      }
    }
  }
  input {
    name: "base_net.7.branch0.0.bn.running_var"
    type {
      tensor_type {
        elem_type: 1
        shape {
          dim {
            dim_value: 8
          }
        }
      }
    }
  }
  input {
    name: "base_net.7.branch0.0.bn.num_batches_tracked"
    type {
      tensor_type {
        elem_type: 7
        shape {
        }
      }
    }
  }
  input {
    name: "base_net.7.branch0.1.conv.weight"
    type {
      tensor_type {
        elem_type: 1
        shape {
          dim {
            dim_value: 16
          }
          dim {
            dim_value: 8
          }
          dim {
            dim_value: 3
          }
          dim {
            dim_value: 3
          }
        }
      }
    }
  }
  input {
    name: "base_net.7.branch0.1.bn.weight"
    type {
      tensor_type {
        elem_type: 1
        shape {
          dim {
            dim_value: 16
          }
        }
      }
    }
  }
  input {
    name: "base_net.7.branch0.1.bn.bias"
    type {
      tensor_type {
        elem_type: 1
        shape {
          dim {
            dim_value: 16
          }
        }
      }
    }
  }
  input {
    name: "base_net.7.branch0.1.bn.running_mean"
    type {
      tensor_type {
        elem_type: 1
        shape {
          dim {
            dim_value: 16
          }
        }
      }
    }
  }
  input {
    name: "base_net.7.branch0.1.bn.running_var"
    type {
      tensor_type {
        elem_type: 1
        shape {
          dim {
            dim_value: 16
          }
        }
      }
    }
  }
  input {
    name: "base_net.7.branch0.1.bn.num_batches_tracked"
    type {
      tensor_type {
        elem_type: 7
        shape {
        }
      }
    }
  }
  input {
    name: "base_net.7.branch0.2.conv.weight"
    type {
      tensor_type {
        elem_type: 1
        shape {
          dim {
            dim_value: 16
          }
          dim {
            dim_value: 16
          }
          dim {
            dim_value: 3
          }
          dim {
            dim_value: 3
          }
        }
      }
    }
  }
  input {
    name: "base_net.7.branch0.2.bn.weight"
    type {
      tensor_type {
        elem_type: 1
        shape {
          dim {
            dim_value: 16
          }
        }
      }
    }
  }
  input {
    name: "base_net.7.branch0.2.bn.bias"
    type {
      tensor_type {
        elem_type: 1
        shape {
          dim {
            dim_value: 16
          }
        }
      }
    }
  }
  input {
    name: "base_net.7.branch0.2.bn.running_mean"
    type {
      tensor_type {
        elem_type: 1
        shape {
          dim {
            dim_value: 16
          }
        }
      }
    }
  }
  input {
    name: "base_net.7.branch0.2.bn.running_var"
    type {
      tensor_type {
        elem_type: 1
        shape {
          dim {
            dim_value: 16
          }
        }
      }
    }
  }
  input {
    name: "base_net.7.branch0.2.bn.num_batches_tracked"
    type {
      tensor_type {
        elem_type: 7
        shape {
        }
      }
    }
  }
  input {
    name: "base_net.7.branch1.0.conv.weight"
    type {
      tensor_type {
        elem_type: 1
        shape {
          dim {
            dim_value: 8
          }
          dim {
            dim_value: 64
          }
          dim {
            dim_value: 1
          }
          dim {
            dim_value: 1
          }
        }
      }
    }
  }
  input {
    name: "base_net.7.branch1.0.bn.weight"
    type {
      tensor_type {
        elem_type: 1
        shape {
          dim {
            dim_value: 8
          }
        }
      }
    }
  }
  input {
    name: "base_net.7.branch1.0.bn.bias"
    type {
      tensor_type {
        elem_type: 1
        shape {
          dim {
            dim_value: 8
          }
        }
      }
    }
  }
  input {
    name: "base_net.7.branch1.0.bn.running_mean"
    type {
      tensor_type {
        elem_type: 1
        shape {
          dim {
            dim_value: 8
          }
        }
      }
    }
  }
  input {
    name: "base_net.7.branch1.0.bn.running_var"
    type {
      tensor_type {
        elem_type: 1
        shape {
          dim {
            dim_value: 8
          }
        }
      }
    }
  }
  input {
    name: "base_net.7.branch1.0.bn.num_batches_tracked"
    type {
      tensor_type {
        elem_type: 7
        shape {
        }
      }
    }
  }
  input {
    name: "base_net.7.branch1.1.conv.weight"
    type {
      tensor_type {
        elem_type: 1
        shape {
          dim {
            dim_value: 16
          }
          dim {
            dim_value: 8
          }
          dim {
            dim_value: 3
          }
          dim {
            dim_value: 3
          }
        }
      }
    }
  }
  input {
    name: "base_net.7.branch1.1.bn.weight"
    type {
      tensor_type {
        elem_type: 1
        shape {
          dim {
            dim_value: 16
          }
        }
      }
    }
  }
  input {
    name: "base_net.7.branch1.1.bn.bias"
    type {
      tensor_type {
        elem_type: 1
        shape {
          dim {
            dim_value: 16
          }
        }
      }
    }
  }
  input {
    name: "base_net.7.branch1.1.bn.running_mean"
    type {
      tensor_type {
        elem_type: 1
        shape {
          dim {
            dim_value: 16
          }
        }
      }
    }
  }
  input {
    name: "base_net.7.branch1.1.bn.running_var"
    type {
      tensor_type {
        elem_type: 1
        shape {
          dim {
            dim_value: 16
          }
        }
      }
    }
  }
  input {
    name: "base_net.7.branch1.1.bn.num_batches_tracked"
    type {
      tensor_type {
        elem_type: 7
        shape {
        }
      }
    }
  }
  input {
    name: "base_net.7.branch1.2.conv.weight"
    type {
      tensor_type {
        elem_type: 1
        shape {
          dim {
            dim_value: 16
          }
          dim {
            dim_value: 16
          }
          dim {
            dim_value: 3
          }
          dim {
            dim_value: 3
          }
        }
      }
    }
  }
  input {
    name: "base_net.7.branch1.2.bn.weight"
    type {
      tensor_type {
        elem_type: 1
        shape {
          dim {
            dim_value: 16
          }
        }
      }
    }
  }
  input {
    name: "base_net.7.branch1.2.bn.bias"
    type {
      tensor_type {
        elem_type: 1
        shape {
          dim {
            dim_value: 16
          }
        }
      }
    }
  }
  input {
    name: "base_net.7.branch1.2.bn.running_mean"
    type {
      tensor_type {
        elem_type: 1
        shape {
          dim {
            dim_value: 16
          }
        }
      }
    }
  }
  input {
    name: "base_net.7.branch1.2.bn.running_var"
    type {
      tensor_type {
        elem_type: 1
        shape {
          dim {
            dim_value: 16
          }
        }
      }
    }
  }
  input {
    name: "base_net.7.branch1.2.bn.num_batches_tracked"
    type {
      tensor_type {
        elem_type: 7
        shape {
        }
      }
    }
  }
  input {
    name: "base_net.7.branch2.0.conv.weight"
    type {
      tensor_type {
        elem_type: 1
        shape {
          dim {
            dim_value: 8
          }
          dim {
            dim_value: 64
          }
          dim {
            dim_value: 1
          }
          dim {
            dim_value: 1
          }
        }
      }
    }
  }
  input {
    name: "base_net.7.branch2.0.bn.weight"
    type {
      tensor_type {
        elem_type: 1
        shape {
          dim {
            dim_value: 8
          }
        }
      }
    }
  }
  input {
    name: "base_net.7.branch2.0.bn.bias"
    type {
      tensor_type {
        elem_type: 1
        shape {
          dim {
            dim_value: 8
          }
        }
      }
    }
  }
  input {
    name: "base_net.7.branch2.0.bn.running_mean"
    type {
      tensor_type {
        elem_type: 1
        shape {
          dim {
            dim_value: 8
          }
        }
      }
    }
  }
  input {
    name: "base_net.7.branch2.0.bn.running_var"
    type {
      tensor_type {
        elem_type: 1
        shape {
          dim {
            dim_value: 8
          }
        }
      }
    }
  }
  input {
    name: "base_net.7.branch2.0.bn.num_batches_tracked"
    type {
      tensor_type {
        elem_type: 7
        shape {
        }
      }
    }
  }
  input {
    name: "base_net.7.branch2.1.conv.weight"
    type {
      tensor_type {
        elem_type: 1
        shape {
          dim {
            dim_value: 12
          }
          dim {
            dim_value: 8
          }
          dim {
            dim_value: 3
          }
          dim {
            dim_value: 3
          }
        }
      }
    }
  }
  input {
    name: "base_net.7.branch2.1.bn.weight"
    type {
      tensor_type {
        elem_type: 1
        shape {
          dim {
            dim_value: 12
          }
        }
      }
    }
  }
  input {
    name: "base_net.7.branch2.1.bn.bias"
    type {
      tensor_type {
        elem_type: 1
        shape {
          dim {
            dim_value: 12
          }
        }
      }
    }
  }
  input {
    name: "base_net.7.branch2.1.bn.running_mean"
    type {
      tensor_type {
        elem_type: 1
        shape {
          dim {
            dim_value: 12
          }
        }
      }
    }
  }
  input {
    name: "base_net.7.branch2.1.bn.running_var"
    type {
      tensor_type {
        elem_type: 1
        shape {
          dim {
            dim_value: 12
          }
        }
      }
    }
  }
  input {
    name: "base_net.7.branch2.1.bn.num_batches_tracked"
    type {
      tensor_type {
        elem_type: 7
        shape {
        }
      }
    }
  }
  input {
    name: "base_net.7.branch2.2.conv.weight"
    type {
      tensor_type {
        elem_type: 1
        shape {
          dim {
            dim_value: 16
          }
          dim {
            dim_value: 12
          }
          dim {
            dim_value: 3
          }
          dim {
            dim_value: 3
          }
        }
      }
    }
  }
  input {
    name: "base_net.7.branch2.2.bn.weight"
    type {
      tensor_type {
        elem_type: 1
        shape {
          dim {
            dim_value: 16
          }
        }
      }
    }
  }
  input {
    name: "base_net.7.branch2.2.bn.bias"
    type {
      tensor_type {
        elem_type: 1
        shape {
          dim {
            dim_value: 16
          }
        }
      }
    }
  }
  input {
    name: "base_net.7.branch2.2.bn.running_mean"
    type {
      tensor_type {
        elem_type: 1
        shape {
          dim {
            dim_value: 16
          }
        }
      }
    }
  }
  input {
    name: "base_net.7.branch2.2.bn.running_var"
    type {
      tensor_type {
        elem_type: 1
        shape {
          dim {
            dim_value: 16
          }
        }
      }
    }
  }
  input {
    name: "base_net.7.branch2.2.bn.num_batches_tracked"
    type {
      tensor_type {
        elem_type: 7
        shape {
        }
      }
    }
  }
  input {
    name: "base_net.7.branch2.3.conv.weight"
    type {
      tensor_type {
        elem_type: 1
        shape {
          dim {
            dim_value: 16
          }
          dim {
            dim_value: 16
          }
          dim {
            dim_value: 3
          }
          dim {
            dim_value: 3
          }
        }
      }
    }
  }
  input {
    name: "base_net.7.branch2.3.bn.weight"
    type {
      tensor_type {
        elem_type: 1
        shape {
          dim {
            dim_value: 16
          }
        }
      }
    }
  }
  input {
    name: "base_net.7.branch2.3.bn.bias"
    type {
      tensor_type {
        elem_type: 1
        shape {
          dim {
            dim_value: 16
          }
        }
      }
    }
  }
  input {
    name: "base_net.7.branch2.3.bn.running_mean"
    type {
      tensor_type {
        elem_type: 1
        shape {
          dim {
            dim_value: 16
          }
        }
      }
    }
  }
  input {
    name: "base_net.7.branch2.3.bn.running_var"
    type {
      tensor_type {
        elem_type: 1
        shape {
          dim {
            dim_value: 16
          }
        }
      }
    }
  }
  input {
    name: "base_net.7.branch2.3.bn.num_batches_tracked"
    type {
      tensor_type {
        elem_type: 7
        shape {
        }
      }
    }
  }
  input {
    name: "base_net.7.ConvLinear.conv.weight"
    type {
      tensor_type {
        elem_type: 1
        shape {
          dim {
            dim_value: 64
          }
          dim {
            dim_value: 48
          }
          dim {
            dim_value: 1
          }
          dim {
            dim_value: 1
          }
        }
      }
    }
  }
  input {
    name: "base_net.7.ConvLinear.bn.weight"
    type {
      tensor_type {
        elem_type: 1
        shape {
          dim {
            dim_value: 64
          }
        }
      }
    }
  }
  input {
    name: "base_net.7.ConvLinear.bn.bias"
    type {
      tensor_type {
        elem_type: 1
        shape {
          dim {
            dim_value: 64
          }
        }
      }
    }
  }
  input {
    name: "base_net.7.ConvLinear.bn.running_mean"
    type {
      tensor_type {
        elem_type: 1
        shape {
          dim {
            dim_value: 64
          }
        }
      }
    }
  }
  input {
    name: "base_net.7.ConvLinear.bn.running_var"
    type {
      tensor_type {
        elem_type: 1
        shape {
          dim {
            dim_value: 64
          }
        }
      }
    }
  }
  input {
    name: "base_net.7.ConvLinear.bn.num_batches_tracked"
    type {
      tensor_type {
        elem_type: 7
        shape {
        }
      }
    }
  }
  input {
    name: "base_net.7.shortcut.conv.weight"
    type {
      tensor_type {
        elem_type: 1
        shape {
          dim {
            dim_value: 64
          }
          dim {
            dim_value: 64
          }
          dim {
            dim_value: 1
          }
          dim {
            dim_value: 1
          }
        }
      }
    }
  }
  input {
    name: "base_net.7.shortcut.bn.weight"
    type {
      tensor_type {
        elem_type: 1
        shape {
          dim {
            dim_value: 64
          }
        }
      }
    }
  }
  input {
    name: "base_net.7.shortcut.bn.bias"
    type {
      tensor_type {
        elem_type: 1
        shape {
          dim {
            dim_value: 64
          }
        }
      }
    }
  }
  input {
    name: "base_net.7.shortcut.bn.running_mean"
    type {
      tensor_type {
        elem_type: 1
        shape {
          dim {
            dim_value: 64
          }
        }
      }
    }
  }
  input {
    name: "base_net.7.shortcut.bn.running_var"
    type {
      tensor_type {
        elem_type: 1
        shape {
          dim {
            dim_value: 64
          }
        }
      }
    }
  }
  input {
    name: "base_net.7.shortcut.bn.num_batches_tracked"
    type {
      tensor_type {
        elem_type: 7
        shape {
        }
      }
    }
  }
  input {
    name: "base_net.8.0.weight"
    type {
      tensor_type {
        elem_type: 1
        shape {
          dim {
            dim_value: 64
          }
          dim {
            dim_value: 1
          }
          dim {
            dim_value: 3
          }
          dim {
            dim_value: 3
          }
        }
      }
    }
  }
  input {
    name: "base_net.8.1.weight"
    type {
      tensor_type {
        elem_type: 1
        shape {
          dim {
            dim_value: 64
          }
        }
      }
    }
  }
  input {
    name: "base_net.8.1.bias"
    type {
      tensor_type {
        elem_type: 1
        shape {
          dim {
            dim_value: 64
          }
        }
      }
    }
  }
  input {
    name: "base_net.8.1.running_mean"
    type {
      tensor_type {
        elem_type: 1
        shape {
          dim {
            dim_value: 64
          }
        }
      }
    }
  }
  input {
    name: "base_net.8.1.running_var"
    type {
      tensor_type {
        elem_type: 1
        shape {
          dim {
            dim_value: 64
          }
        }
      }
    }
  }
  input {
    name: "base_net.8.1.num_batches_tracked"
    type {
      tensor_type {
        elem_type: 7
        shape {
        }
      }
    }
  }
  input {
    name: "base_net.8.3.weight"
    type {
      tensor_type {
        elem_type: 1
        shape {
          dim {
            dim_value: 128
          }
          dim {
            dim_value: 64
          }
          dim {
            dim_value: 1
          }
          dim {
            dim_value: 1
          }
        }
      }
    }
  }
  input {
    name: "base_net.8.4.weight"
    type {
      tensor_type {
        elem_type: 1
        shape {
          dim {
            dim_value: 128
          }
        }
      }
    }
  }
  input {
    name: "base_net.8.4.bias"
    type {
      tensor_type {
        elem_type: 1
        shape {
          dim {
            dim_value: 128
          }
        }
      }
    }
  }
  input {
    name: "base_net.8.4.running_mean"
    type {
      tensor_type {
        elem_type: 1
        shape {
          dim {
            dim_value: 128
          }
        }
      }
    }
  }
  input {
    name: "base_net.8.4.running_var"
    type {
      tensor_type {
        elem_type: 1
        shape {
          dim {
            dim_value: 128
          }
        }
      }
    }
  }
  input {
    name: "base_net.8.4.num_batches_tracked"
    type {
      tensor_type {
        elem_type: 7
        shape {
        }
      }
    }
  }
  input {
    name: "base_net.9.0.weight"
    type {
      tensor_type {
        elem_type: 1
        shape {
          dim {
            dim_value: 128
          }
          dim {
            dim_value: 1
          }
          dim {
            dim_value: 3
          }
          dim {
            dim_value: 3
          }
        }
      }
    }
  }
  input {
    name: "base_net.9.1.weight"
    type {
      tensor_type {
        elem_type: 1
        shape {
          dim {
            dim_value: 128
          }
        }
      }
    }
  }
  input {
    name: "base_net.9.1.bias"
    type {
      tensor_type {
        elem_type: 1
        shape {
          dim {
            dim_value: 128
          }
        }
      }
    }
  }
  input {
    name: "base_net.9.1.running_mean"
    type {
      tensor_type {
        elem_type: 1
        shape {
          dim {
            dim_value: 128
          }
        }
      }
    }
  }
  input {
    name: "base_net.9.1.running_var"
    type {
      tensor_type {
        elem_type: 1
        shape {
          dim {
            dim_value: 128
          }
        }
      }
    }
  }
  input {
    name: "base_net.9.1.num_batches_tracked"
    type {
      tensor_type {
        elem_type: 7
        shape {
        }
      }
    }
  }
  input {
    name: "base_net.9.3.weight"
    type {
      tensor_type {
        elem_type: 1
        shape {
          dim {
            dim_value: 128
          }
          dim {
            dim_value: 128
          }
          dim {
            dim_value: 1
          }
          dim {
            dim_value: 1
          }
        }
      }
    }
  }
  input {
    name: "base_net.9.4.weight"
    type {
      tensor_type {
        elem_type: 1
        shape {
          dim {
            dim_value: 128
          }
        }
      }
    }
  }
  input {
    name: "base_net.9.4.bias"
    type {
      tensor_type {
        elem_type: 1
        shape {
          dim {
            dim_value: 128
          }
        }
      }
    }
  }
  input {
    name: "base_net.9.4.running_mean"
    type {
      tensor_type {
        elem_type: 1
        shape {
          dim {
            dim_value: 128
          }
        }
      }
    }
  }
  input {
    name: "base_net.9.4.running_var"
    type {
      tensor_type {
        elem_type: 1
        shape {
          dim {
            dim_value: 128
          }
        }
      }
    }
  }
  input {
    name: "base_net.9.4.num_batches_tracked"
    type {
      tensor_type {
        elem_type: 7
        shape {
        }
      }
    }
  }
  input {
    name: "base_net.10.0.weight"
    type {
      tensor_type {
        elem_type: 1
        shape {
          dim {
            dim_value: 128
          }
          dim {
            dim_value: 1
          }
          dim {
            dim_value: 3
          }
          dim {
            dim_value: 3
          }
        }
      }
    }
  }
  input {
    name: "base_net.10.1.weight"
    type {
      tensor_type {
        elem_type: 1
        shape {
          dim {
            dim_value: 128
          }
        }
      }
    }
  }
  input {
    name: "base_net.10.1.bias"
    type {
      tensor_type {
        elem_type: 1
        shape {
          dim {
            dim_value: 128
          }
        }
      }
    }
  }
  input {
    name: "base_net.10.1.running_mean"
    type {
      tensor_type {
        elem_type: 1
        shape {
          dim {
            dim_value: 128
          }
        }
      }
    }
  }
  input {
    name: "base_net.10.1.running_var"
    type {
      tensor_type {
        elem_type: 1
        shape {
          dim {
            dim_value: 128
          }
        }
      }
    }
  }
  input {
    name: "base_net.10.1.num_batches_tracked"
    type {
      tensor_type {
        elem_type: 7
        shape {
        }
      }
    }
  }
  input {
    name: "base_net.10.3.weight"
    type {
      tensor_type {
        elem_type: 1
        shape {
          dim {
            dim_value: 128
          }
          dim {
            dim_value: 128
          }
          dim {
            dim_value: 1
          }
          dim {
            dim_value: 1
          }
        }
      }
    }
  }
  input {
    name: "base_net.10.4.weight"
    type {
      tensor_type {
        elem_type: 1
        shape {
          dim {
            dim_value: 128
          }
        }
      }
    }
  }
  input {
    name: "base_net.10.4.bias"
    type {
      tensor_type {
        elem_type: 1
        shape {
          dim {
            dim_value: 128
          }
        }
      }
    }
  }
  input {
    name: "base_net.10.4.running_mean"
    type {
      tensor_type {
        elem_type: 1
        shape {
          dim {
            dim_value: 128
          }
        }
      }
    }
  }
  input {
    name: "base_net.10.4.running_var"
    type {
      tensor_type {
        elem_type: 1
        shape {
          dim {
            dim_value: 128
          }
        }
      }
    }
  }
  input {
    name: "base_net.10.4.num_batches_tracked"
    type {
      tensor_type {
        elem_type: 7
        shape {
        }
      }
    }
  }
  input {
    name: "base_net.11.0.weight"
    type {
      tensor_type {
        elem_type: 1
        shape {
          dim {
            dim_value: 128
          }
          dim {
            dim_value: 1
          }
          dim {
            dim_value: 3
          }
          dim {
            dim_value: 3
          }
        }
      }
    }
  }
  input {
    name: "base_net.11.1.weight"
    type {
      tensor_type {
        elem_type: 1
        shape {
          dim {
            dim_value: 128
          }
        }
      }
    }
  }
  input {
    name: "base_net.11.1.bias"
    type {
      tensor_type {
        elem_type: 1
        shape {
          dim {
            dim_value: 128
          }
        }
      }
    }
  }
  input {
    name: "base_net.11.1.running_mean"
    type {
      tensor_type {
        elem_type: 1
        shape {
          dim {
            dim_value: 128
          }
        }
      }
    }
  }
  input {
    name: "base_net.11.1.running_var"
    type {
      tensor_type {
        elem_type: 1
        shape {
          dim {
            dim_value: 128
          }
        }
      }
    }
  }
  input {
    name: "base_net.11.1.num_batches_tracked"
    type {
      tensor_type {
        elem_type: 7
        shape {
        }
      }
    }
  }
  input {
    name: "base_net.11.3.weight"
    type {
      tensor_type {
        elem_type: 1
        shape {
          dim {
            dim_value: 256
          }
          dim {
            dim_value: 128
          }
          dim {
            dim_value: 1
          }
          dim {
            dim_value: 1
          }
        }
      }
    }
  }
  input {
    name: "base_net.11.4.weight"
    type {
      tensor_type {
        elem_type: 1
        shape {
          dim {
            dim_value: 256
          }
        }
      }
    }
  }
  input {
    name: "base_net.11.4.bias"
    type {
      tensor_type {
        elem_type: 1
        shape {
          dim {
            dim_value: 256
          }
        }
      }
    }
  }
  input {
    name: "base_net.11.4.running_mean"
    type {
      tensor_type {
        elem_type: 1
        shape {
          dim {
            dim_value: 256
          }
        }
      }
    }
  }
  input {
    name: "base_net.11.4.running_var"
    type {
      tensor_type {
        elem_type: 1
        shape {
          dim {
            dim_value: 256
          }
        }
      }
    }
  }
  input {
    name: "base_net.11.4.num_batches_tracked"
    type {
      tensor_type {
        elem_type: 7
        shape {
        }
      }
    }
  }
  input {
    name: "base_net.12.0.weight"
    type {
      tensor_type {
        elem_type: 1
        shape {
          dim {
            dim_value: 256
          }
          dim {
            dim_value: 1
          }
          dim {
            dim_value: 3
          }
          dim {
            dim_value: 3
          }
        }
      }
    }
  }
  input {
    name: "base_net.12.1.weight"
    type {
      tensor_type {
        elem_type: 1
        shape {
          dim {
            dim_value: 256
          }
        }
      }
    }
  }
  input {
    name: "base_net.12.1.bias"
    type {
      tensor_type {
        elem_type: 1
        shape {
          dim {
            dim_value: 256
          }
        }
      }
    }
  }
  input {
    name: "base_net.12.1.running_mean"
    type {
      tensor_type {
        elem_type: 1
        shape {
          dim {
            dim_value: 256
          }
        }
      }
    }
  }
  input {
    name: "base_net.12.1.running_var"
    type {
      tensor_type {
        elem_type: 1
        shape {
          dim {
            dim_value: 256
          }
        }
      }
    }
  }
  input {
    name: "base_net.12.1.num_batches_tracked"
    type {
      tensor_type {
        elem_type: 7
        shape {
        }
      }
    }
  }
  input {
    name: "base_net.12.3.weight"
    type {
      tensor_type {
        elem_type: 1
        shape {
          dim {
            dim_value: 256
          }
          dim {
            dim_value: 256
          }
          dim {
            dim_value: 1
          }
          dim {
            dim_value: 1
          }
        }
      }
    }
  }
  input {
    name: "base_net.12.4.weight"
    type {
      tensor_type {
        elem_type: 1
        shape {
          dim {
            dim_value: 256
          }
        }
      }
    }
  }
  input {
    name: "base_net.12.4.bias"
    type {
      tensor_type {
        elem_type: 1
        shape {
          dim {
            dim_value: 256
          }
        }
      }
    }
  }
  input {
    name: "base_net.12.4.running_mean"
    type {
      tensor_type {
        elem_type: 1
        shape {
          dim {
            dim_value: 256
          }
        }
      }
    }
  }
  input {
    name: "base_net.12.4.running_var"
    type {
      tensor_type {
        elem_type: 1
        shape {
          dim {
            dim_value: 256
          }
        }
      }
    }
  }
  input {
    name: "base_net.12.4.num_batches_tracked"
    type {
      tensor_type {
        elem_type: 7
        shape {
        }
      }
    }
  }
  input {
    name: "extras.0.0.weight"
    type {
      tensor_type {
        elem_type: 1
        shape {
          dim {
            dim_value: 64
          }
          dim {
            dim_value: 256
          }
          dim {
            dim_value: 1
          }
          dim {
            dim_value: 1
          }
        }
      }
    }
  }
  input {
    name: "extras.0.0.bias"
    type {
      tensor_type {
        elem_type: 1
        shape {
          dim {
            dim_value: 64
          }
        }
      }
    }
  }
  input {
    name: "extras.0.2.0.weight"
    type {
      tensor_type {
        elem_type: 1
        shape {
          dim {
            dim_value: 64
          }
          dim {
            dim_value: 1
          }
          dim {
            dim_value: 3
          }
          dim {
            dim_value: 3
          }
        }
      }
    }
  }
  input {
    name: "extras.0.2.0.bias"
    type {
      tensor_type {
        elem_type: 1
        shape {
          dim {
            dim_value: 64
          }
        }
      }
    }
  }
  input {
    name: "extras.0.2.2.weight"
    type {
      tensor_type {
        elem_type: 1
        shape {
          dim {
            dim_value: 256
          }
          dim {
            dim_value: 64
          }
          dim {
            dim_value: 1
          }
          dim {
            dim_value: 1
          }
        }
      }
    }
  }
  input {
    name: "extras.0.2.2.bias"
    type {
      tensor_type {
        elem_type: 1
        shape {
          dim {
            dim_value: 256
          }
        }
      }
    }
  }
  input {
    name: "classification_headers.0.0.weight"
    type {
      tensor_type {
        elem_type: 1
        shape {
          dim {
            dim_value: 64
          }
          dim {
            dim_value: 1
          }
          dim {
            dim_value: 3
          }
          dim {
            dim_value: 3
          }
        }
      }
    }
  }
  input {
    name: "classification_headers.0.0.bias"
    type {
      tensor_type {
        elem_type: 1
        shape {
          dim {
            dim_value: 64
          }
        }
      }
    }
  }
  input {
    name: "classification_headers.0.2.weight"
    type {
      tensor_type {
        elem_type: 1
        shape {
          dim {
            dim_value: 6
          }
          dim {
            dim_value: 64
          }
          dim {
            dim_value: 1
          }
          dim {
            dim_value: 1
          }
        }
      }
    }
  }
  input {
    name: "classification_headers.0.2.bias"
    type {
      tensor_type {
        elem_type: 1
        shape {
          dim {
            dim_value: 6
          }
        }
      }
    }
  }
  input {
    name: "classification_headers.1.0.weight"
    type {
      tensor_type {
        elem_type: 1
        shape {
          dim {
            dim_value: 128
          }
          dim {
            dim_value: 1
          }
          dim {
            dim_value: 3
          }
          dim {
            dim_value: 3
          }
        }
      }
    }
  }
  input {
    name: "classification_headers.1.0.bias"
    type {
      tensor_type {
        elem_type: 1
        shape {
          dim {
            dim_value: 128
          }
        }
      }
    }
  }
  input {
    name: "classification_headers.1.2.weight"
    type {
      tensor_type {
        elem_type: 1
        shape {
          dim {
            dim_value: 4
          }
          dim {
            dim_value: 128
          }
          dim {
            dim_value: 1
          }
          dim {
            dim_value: 1
          }
        }
      }
    }
  }
  input {
    name: "classification_headers.1.2.bias"
    type {
      tensor_type {
        elem_type: 1
        shape {
          dim {
            dim_value: 4
          }
        }
      }
    }
  }
  input {
    name: "classification_headers.2.0.weight"
    type {
      tensor_type {
        elem_type: 1
        shape {
          dim {
            dim_value: 256
          }
          dim {
            dim_value: 1
          }
          dim {
            dim_value: 3
          }
          dim {
            dim_value: 3
          }
        }
      }
    }
  }
  input {
    name: "classification_headers.2.0.bias"
    type {
      tensor_type {
        elem_type: 1
        shape {
          dim {
            dim_value: 256
          }
        }
      }
    }
  }
  input {
    name: "classification_headers.2.2.weight"
    type {
      tensor_type {
        elem_type: 1
        shape {
          dim {
            dim_value: 4
          }
          dim {
            dim_value: 256
          }
          dim {
            dim_value: 1
          }
          dim {
            dim_value: 1
          }
        }
      }
    }
  }
  input {
    name: "classification_headers.2.2.bias"
    type {
      tensor_type {
        elem_type: 1
        shape {
          dim {
            dim_value: 4
          }
        }
      }
    }
  }
  input {
    name: "classification_headers.3.weight"
    type {
      tensor_type {
        elem_type: 1
        shape {
          dim {
            dim_value: 6
          }
          dim {
            dim_value: 256
          }
          dim {
            dim_value: 3
          }
          dim {
            dim_value: 3
          }
        }
      }
    }
  }
  input {
    name: "classification_headers.3.bias"
    type {
      tensor_type {
        elem_type: 1
        shape {
          dim {
            dim_value: 6
          }
        }
      }
    }
  }
  input {
    name: "regression_headers.0.0.weight"
    type {
      tensor_type {
        elem_type: 1
        shape {
          dim {
            dim_value: 64
          }
          dim {
            dim_value: 1
          }
          dim {
            dim_value: 3
          }
          dim {
            dim_value: 3
          }
        }
      }
    }
  }
  input {
    name: "regression_headers.0.0.bias"
    type {
      tensor_type {
        elem_type: 1
        shape {
          dim {
            dim_value: 64
          }
        }
      }
    }
  }
  input {
    name: "regression_headers.0.2.weight"
    type {
      tensor_type {
        elem_type: 1
        shape {
          dim {
            dim_value: 12
          }
          dim {
            dim_value: 64
          }
          dim {
            dim_value: 1
          }
          dim {
            dim_value: 1
          }
        }
      }
    }
  }
  input {
    name: "regression_headers.0.2.bias"
    type {
      tensor_type {
        elem_type: 1
        shape {
          dim {
            dim_value: 12
          }
        }
      }
    }
  }
  input {
    name: "regression_headers.1.0.weight"
    type {
      tensor_type {
        elem_type: 1
        shape {
          dim {
            dim_value: 128
          }
          dim {
            dim_value: 1
          }
          dim {
            dim_value: 3
          }
          dim {
            dim_value: 3
          }
        }
      }
    }
  }
  input {
    name: "regression_headers.1.0.bias"
    type {
      tensor_type {
        elem_type: 1
        shape {
          dim {
            dim_value: 128
          }
        }
      }
    }
  }
  input {
    name: "regression_headers.1.2.weight"
    type {
      tensor_type {
        elem_type: 1
        shape {
          dim {
            dim_value: 8
          }
          dim {
            dim_value: 128
          }
          dim {
            dim_value: 1
          }
          dim {
            dim_value: 1
          }
        }
      }
    }
  }
  input {
    name: "regression_headers.1.2.bias"
    type {
      tensor_type {
        elem_type: 1
        shape {
          dim {
            dim_value: 8
          }
        }
      }
    }
  }
  input {
    name: "regression_headers.2.0.weight"
    type {
      tensor_type {
        elem_type: 1
        shape {
          dim {
            dim_value: 256
          }
          dim {
            dim_value: 1
          }
          dim {
            dim_value: 3
          }
          dim {
            dim_value: 3
          }
        }
      }
    }
  }
  input {
    name: "regression_headers.2.0.bias"
    type {
      tensor_type {
        elem_type: 1
        shape {
          dim {
            dim_value: 256
          }
        }
      }
    }
  }
  input {
    name: "regression_headers.2.2.weight"
    type {
      tensor_type {
        elem_type: 1
        shape {
          dim {
            dim_value: 8
          }
          dim {
            dim_value: 256
          }
          dim {
            dim_value: 1
          }
          dim {
            dim_value: 1
          }
        }
      }
    }
  }
  input {
    name: "regression_headers.2.2.bias"
    type {
      tensor_type {
        elem_type: 1
        shape {
          dim {
            dim_value: 8
          }
        }
      }
    }
  }
  input {
    name: "regression_headers.3.weight"
    type {
      tensor_type {
        elem_type: 1
        shape {
          dim {
            dim_value: 12
          }
          dim {
            dim_value: 256
          }
          dim {
            dim_value: 3
          }
          dim {
            dim_value: 3
          }
        }
      }
    }
  }
  input {
    name: "regression_headers.3.bias"
    type {
      tensor_type {
        elem_type: 1
        shape {
          dim {
            dim_value: 12
          }
        }
      }
    }
  }
  input {
    name: "465"
    type {
      tensor_type {
        elem_type: 1
        shape {
          dim {
            dim_value: 1
          }
          dim {
            dim_value: 17640
          }
          dim {
            dim_value: 2
          }
        }
      }
    }
  }
  input {
    name: "467"
    type {
      tensor_type {
        elem_type: 1
        shape {
          dim {
            dim_value: 1
          }
          dim {
            dim_value: 17640
          }
          dim {
            dim_value: 2
          }
        }
      }
    }
  }
  input {
    name: "473"
    type {
      tensor_type {
        elem_type: 1
        shape {
          dim {
            dim_value: 1
          }
          dim {
            dim_value: 17640
          }
          dim {
            dim_value: 2
          }
        }
      }
    }
  }
  output {
    name: "scores"
    type {
      tensor_type {
        elem_type: 1
        shape {
          dim {
            dim_value: 1
          }
          dim {
            dim_value: 17640
          }
          dim {
            dim_value: 2
          }
        }
      }
    }
  }
  output {
    name: "boxes"
    type {
      tensor_type {
        elem_type: 1
        shape {
          dim {
            dim_value: 1
          }
          dim {
            dim_value: 17640
          }
          dim {
            dim_value: 4
          }
        }
      }
    }
  }
}
opset_import {
  domain: ""
  version: 9
}
