ir_version: 3
graph {
  node {
    input: "data"
    input: "vgg0_conv0_weight"
    input: "vgg0_conv0_bias"
    output: "vgg0_conv0_fwd"
    name: "vgg0_conv0_fwd"
    op_type: "Conv"
    attribute {
      name: "dilations"
      ints: 1
      ints: 1
      type: INTS
    }
    attribute {
      name: "group"
      i: 1
      type: INT
    }
    attribute {
      name: "kernel_shape"
      ints: 3
      ints: 3
      type: INTS
    }
    attribute {
      name: "pads"
      ints: 1
      ints: 1
      ints: 1
      ints: 1
      type: INTS
    }
    attribute {
      name: "strides"
      ints: 1
      ints: 1
      type: INTS
    }
  }
  node {
    input: "vgg0_conv0_fwd"
    input: "vgg0_batchnorm0_gamma"
    input: "vgg0_batchnorm0_beta"
    input: "vgg0_batchnorm0_running_mean"
    input: "vgg0_batchnorm0_running_var"
    output: "vgg0_batchnorm0_fwd"
    name: "vgg0_batchnorm0_fwd"
    op_type: "BatchNormalization"
    attribute {
      name: "epsilon"
      f: 1e-05
      type: FLOAT
    }
    attribute {
      name: "momentum"
      f: 0.9
      type: FLOAT
    }
    attribute {
      name: "spatial"
      i: 0
      type: INT
    }
  }
  node {
    input: "vgg0_batchnorm0_fwd"
    output: "vgg0_relu0_fwd"
    name: "vgg0_relu0_fwd"
    op_type: "Relu"
  }
  node {
    input: "vgg0_relu0_fwd"
    input: "vgg0_conv1_weight"
    input: "vgg0_conv1_bias"
    output: "vgg0_conv1_fwd"
    name: "vgg0_conv1_fwd"
    op_type: "Conv"
    attribute {
      name: "dilations"
      ints: 1
      ints: 1
      type: INTS
    }
    attribute {
      name: "group"
      i: 1
      type: INT
    }
    attribute {
      name: "kernel_shape"
      ints: 3
      ints: 3
      type: INTS
    }
    attribute {
      name: "pads"
      ints: 1
      ints: 1
      ints: 1
      ints: 1
      type: INTS
    }
    attribute {
      name: "strides"
      ints: 1
      ints: 1
      type: INTS
    }
  }
  node {
    input: "vgg0_conv1_fwd"
    input: "vgg0_batchnorm1_gamma"
    input: "vgg0_batchnorm1_beta"
    input: "vgg0_batchnorm1_running_mean"
    input: "vgg0_batchnorm1_running_var"
    output: "vgg0_batchnorm1_fwd"
    name: "vgg0_batchnorm1_fwd"
    op_type: "BatchNormalization"
    attribute {
      name: "epsilon"
      f: 1e-05
      type: FLOAT
    }
    attribute {
      name: "momentum"
      f: 0.9
      type: FLOAT
    }
    attribute {
      name: "spatial"
      i: 0
      type: INT
    }
  }
  node {
    input: "vgg0_batchnorm1_fwd"
    output: "vgg0_relu1_fwd"
    name: "vgg0_relu1_fwd"
    op_type: "Relu"
  }
  node {
    input: "vgg0_relu1_fwd"
    output: "vgg0_pool0_fwd"
    name: "vgg0_pool0_fwd"
    op_type: "MaxPool"
    attribute {
      name: "kernel_shape"
      ints: 2
      ints: 2
      type: INTS
    }
    attribute {
      name: "pads"
      ints: 0
      ints: 0
      ints: 0
      ints: 0
      type: INTS
    }
    attribute {
      name: "strides"
      ints: 2
      ints: 2
      type: INTS
    }
  }
  node {
    input: "vgg0_pool0_fwd"
    input: "vgg0_conv2_weight"
    input: "vgg0_conv2_bias"
    output: "vgg0_conv2_fwd"
    name: "vgg0_conv2_fwd"
    op_type: "Conv"
    attribute {
      name: "dilations"
      ints: 1
      ints: 1
      type: INTS
    }
    attribute {
      name: "group"
      i: 1
      type: INT
    }
    attribute {
      name: "kernel_shape"
      ints: 3
      ints: 3
      type: INTS
    }
    attribute {
      name: "pads"
      ints: 1
      ints: 1
      ints: 1
      ints: 1
      type: INTS
    }
    attribute {
      name: "strides"
      ints: 1
      ints: 1
      type: INTS
    }
  }
  node {
    input: "vgg0_conv2_fwd"
    input: "vgg0_batchnorm2_gamma"
    input: "vgg0_batchnorm2_beta"
    input: "vgg0_batchnorm2_running_mean"
    input: "vgg0_batchnorm2_running_var"
    output: "vgg0_batchnorm2_fwd"
    name: "vgg0_batchnorm2_fwd"
    op_type: "BatchNormalization"
    attribute {
      name: "epsilon"
      f: 1e-05
      type: FLOAT
    }
    attribute {
      name: "momentum"
      f: 0.9
      type: FLOAT
    }
    attribute {
      name: "spatial"
      i: 0
      type: INT
    }
  }
  node {
    input: "vgg0_batchnorm2_fwd"
    output: "vgg0_relu2_fwd"
    name: "vgg0_relu2_fwd"
    op_type: "Relu"
  }
  node {
    input: "vgg0_relu2_fwd"
    input: "vgg0_conv3_weight"
    input: "vgg0_conv3_bias"
    output: "vgg0_conv3_fwd"
    name: "vgg0_conv3_fwd"
    op_type: "Conv"
    attribute {
      name: "dilations"
      ints: 1
      ints: 1
      type: INTS
    }
    attribute {
      name: "group"
      i: 1
      type: INT
    }
    attribute {
      name: "kernel_shape"
      ints: 3
      ints: 3
      type: INTS
    }
    attribute {
      name: "pads"
      ints: 1
      ints: 1
      ints: 1
      ints: 1
      type: INTS
    }
    attribute {
      name: "strides"
      ints: 1
      ints: 1
      type: INTS
    }
  }
  node {
    input: "vgg0_conv3_fwd"
    input: "vgg0_batchnorm3_gamma"
    input: "vgg0_batchnorm3_beta"
    input: "vgg0_batchnorm3_running_mean"
    input: "vgg0_batchnorm3_running_var"
    output: "vgg0_batchnorm3_fwd"
    name: "vgg0_batchnorm3_fwd"
    op_type: "BatchNormalization"
    attribute {
      name: "epsilon"
      f: 1e-05
      type: FLOAT
    }
    attribute {
      name: "momentum"
      f: 0.9
      type: FLOAT
    }
    attribute {
      name: "spatial"
      i: 0
      type: INT
    }
  }
  node {
    input: "vgg0_batchnorm3_fwd"
    output: "vgg0_relu3_fwd"
    name: "vgg0_relu3_fwd"
    op_type: "Relu"
  }
  node {
    input: "vgg0_relu3_fwd"
    output: "vgg0_pool1_fwd"
    name: "vgg0_pool1_fwd"
    op_type: "MaxPool"
    attribute {
      name: "kernel_shape"
      ints: 2
      ints: 2
      type: INTS
    }
    attribute {
      name: "pads"
      ints: 0
      ints: 0
      ints: 0
      ints: 0
      type: INTS
    }
    attribute {
      name: "strides"
      ints: 2
      ints: 2
      type: INTS
    }
  }
  node {
    input: "vgg0_pool1_fwd"
    input: "vgg0_conv4_weight"
    input: "vgg0_conv4_bias"
    output: "vgg0_conv4_fwd"
    name: "vgg0_conv4_fwd"
    op_type: "Conv"
    attribute {
      name: "dilations"
      ints: 1
      ints: 1
      type: INTS
    }
    attribute {
      name: "group"
      i: 1
      type: INT
    }
    attribute {
      name: "kernel_shape"
      ints: 3
      ints: 3
      type: INTS
    }
    attribute {
      name: "pads"
      ints: 1
      ints: 1
      ints: 1
      ints: 1
      type: INTS
    }
    attribute {
      name: "strides"
      ints: 1
      ints: 1
      type: INTS
    }
  }
  node {
    input: "vgg0_conv4_fwd"
    input: "vgg0_batchnorm4_gamma"
    input: "vgg0_batchnorm4_beta"
    input: "vgg0_batchnorm4_running_mean"
    input: "vgg0_batchnorm4_running_var"
    output: "vgg0_batchnorm4_fwd"
    name: "vgg0_batchnorm4_fwd"
    op_type: "BatchNormalization"
    attribute {
      name: "epsilon"
      f: 1e-05
      type: FLOAT
    }
    attribute {
      name: "momentum"
      f: 0.9
      type: FLOAT
    }
    attribute {
      name: "spatial"
      i: 0
      type: INT
    }
  }
  node {
    input: "vgg0_batchnorm4_fwd"
    output: "vgg0_relu4_fwd"
    name: "vgg0_relu4_fwd"
    op_type: "Relu"
  }
  node {
    input: "vgg0_relu4_fwd"
    input: "vgg0_conv5_weight"
    input: "vgg0_conv5_bias"
    output: "vgg0_conv5_fwd"
    name: "vgg0_conv5_fwd"
    op_type: "Conv"
    attribute {
      name: "dilations"
      ints: 1
      ints: 1
      type: INTS
    }
    attribute {
      name: "group"
      i: 1
      type: INT
    }
    attribute {
      name: "kernel_shape"
      ints: 3
      ints: 3
      type: INTS
    }
    attribute {
      name: "pads"
      ints: 1
      ints: 1
      ints: 1
      ints: 1
      type: INTS
    }
    attribute {
      name: "strides"
      ints: 1
      ints: 1
      type: INTS
    }
  }
  node {
    input: "vgg0_conv5_fwd"
    input: "vgg0_batchnorm5_gamma"
    input: "vgg0_batchnorm5_beta"
    input: "vgg0_batchnorm5_running_mean"
    input: "vgg0_batchnorm5_running_var"
    output: "vgg0_batchnorm5_fwd"
    name: "vgg0_batchnorm5_fwd"
    op_type: "BatchNormalization"
    attribute {
      name: "epsilon"
      f: 1e-05
      type: FLOAT
    }
    attribute {
      name: "momentum"
      f: 0.9
      type: FLOAT
    }
    attribute {
      name: "spatial"
      i: 0
      type: INT
    }
  }
  node {
    input: "vgg0_batchnorm5_fwd"
    output: "vgg0_relu5_fwd"
    name: "vgg0_relu5_fwd"
    op_type: "Relu"
  }
  node {
    input: "vgg0_relu5_fwd"
    input: "vgg0_conv6_weight"
    input: "vgg0_conv6_bias"
    output: "vgg0_conv6_fwd"
    name: "vgg0_conv6_fwd"
    op_type: "Conv"
    attribute {
      name: "dilations"
      ints: 1
      ints: 1
      type: INTS
    }
    attribute {
      name: "group"
      i: 1
      type: INT
    }
    attribute {
      name: "kernel_shape"
      ints: 3
      ints: 3
      type: INTS
    }
    attribute {
      name: "pads"
      ints: 1
      ints: 1
      ints: 1
      ints: 1
      type: INTS
    }
    attribute {
      name: "strides"
      ints: 1
      ints: 1
      type: INTS
    }
  }
  node {
    input: "vgg0_conv6_fwd"
    input: "vgg0_batchnorm6_gamma"
    input: "vgg0_batchnorm6_beta"
    input: "vgg0_batchnorm6_running_mean"
    input: "vgg0_batchnorm6_running_var"
    output: "vgg0_batchnorm6_fwd"
    name: "vgg0_batchnorm6_fwd"
    op_type: "BatchNormalization"
    attribute {
      name: "epsilon"
      f: 1e-05
      type: FLOAT
    }
    attribute {
      name: "momentum"
      f: 0.9
      type: FLOAT
    }
    attribute {
      name: "spatial"
      i: 0
      type: INT
    }
  }
  node {
    input: "vgg0_batchnorm6_fwd"
    output: "vgg0_relu6_fwd"
    name: "vgg0_relu6_fwd"
    op_type: "Relu"
  }
  node {
    input: "vgg0_relu6_fwd"
    input: "vgg0_conv7_weight"
    input: "vgg0_conv7_bias"
    output: "vgg0_conv7_fwd"
    name: "vgg0_conv7_fwd"
    op_type: "Conv"
    attribute {
      name: "dilations"
      ints: 1
      ints: 1
      type: INTS
    }
    attribute {
      name: "group"
      i: 1
      type: INT
    }
    attribute {
      name: "kernel_shape"
      ints: 3
      ints: 3
      type: INTS
    }
    attribute {
      name: "pads"
      ints: 1
      ints: 1
      ints: 1
      ints: 1
      type: INTS
    }
    attribute {
      name: "strides"
      ints: 1
      ints: 1
      type: INTS
    }
  }
  node {
    input: "vgg0_conv7_fwd"
    input: "vgg0_batchnorm7_gamma"
    input: "vgg0_batchnorm7_beta"
    input: "vgg0_batchnorm7_running_mean"
    input: "vgg0_batchnorm7_running_var"
    output: "vgg0_batchnorm7_fwd"
    name: "vgg0_batchnorm7_fwd"
    op_type: "BatchNormalization"
    attribute {
      name: "epsilon"
      f: 1e-05
      type: FLOAT
    }
    attribute {
      name: "momentum"
      f: 0.9
      type: FLOAT
    }
    attribute {
      name: "spatial"
      i: 0
      type: INT
    }
  }
  node {
    input: "vgg0_batchnorm7_fwd"
    output: "vgg0_relu7_fwd"
    name: "vgg0_relu7_fwd"
    op_type: "Relu"
  }
  node {
    input: "vgg0_relu7_fwd"
    output: "vgg0_pool2_fwd"
    name: "vgg0_pool2_fwd"
    op_type: "MaxPool"
    attribute {
      name: "kernel_shape"
      ints: 2
      ints: 2
      type: INTS
    }
    attribute {
      name: "pads"
      ints: 0
      ints: 0
      ints: 0
      ints: 0
      type: INTS
    }
    attribute {
      name: "strides"
      ints: 2
      ints: 2
      type: INTS
    }
  }
  node {
    input: "vgg0_pool2_fwd"
    input: "vgg0_conv8_weight"
    input: "vgg0_conv8_bias"
    output: "vgg0_conv8_fwd"
    name: "vgg0_conv8_fwd"
    op_type: "Conv"
    attribute {
      name: "dilations"
      ints: 1
      ints: 1
      type: INTS
    }
    attribute {
      name: "group"
      i: 1
      type: INT
    }
    attribute {
      name: "kernel_shape"
      ints: 3
      ints: 3
      type: INTS
    }
    attribute {
      name: "pads"
      ints: 1
      ints: 1
      ints: 1
      ints: 1
      type: INTS
    }
    attribute {
      name: "strides"
      ints: 1
      ints: 1
      type: INTS
    }
  }
  node {
    input: "vgg0_conv8_fwd"
    input: "vgg0_batchnorm8_gamma"
    input: "vgg0_batchnorm8_beta"
    input: "vgg0_batchnorm8_running_mean"
    input: "vgg0_batchnorm8_running_var"
    output: "vgg0_batchnorm8_fwd"
    name: "vgg0_batchnorm8_fwd"
    op_type: "BatchNormalization"
    attribute {
      name: "epsilon"
      f: 1e-05
      type: FLOAT
    }
    attribute {
      name: "momentum"
      f: 0.9
      type: FLOAT
    }
    attribute {
      name: "spatial"
      i: 0
      type: INT
    }
  }
  node {
    input: "vgg0_batchnorm8_fwd"
    output: "vgg0_relu8_fwd"
    name: "vgg0_relu8_fwd"
    op_type: "Relu"
  }
  node {
    input: "vgg0_relu8_fwd"
    input: "vgg0_conv9_weight"
    input: "vgg0_conv9_bias"
    output: "vgg0_conv9_fwd"
    name: "vgg0_conv9_fwd"
    op_type: "Conv"
    attribute {
      name: "dilations"
      ints: 1
      ints: 1
      type: INTS
    }
    attribute {
      name: "group"
      i: 1
      type: INT
    }
    attribute {
      name: "kernel_shape"
      ints: 3
      ints: 3
      type: INTS
    }
    attribute {
      name: "pads"
      ints: 1
      ints: 1
      ints: 1
      ints: 1
      type: INTS
    }
    attribute {
      name: "strides"
      ints: 1
      ints: 1
      type: INTS
    }
  }
  node {
    input: "vgg0_conv9_fwd"
    input: "vgg0_batchnorm9_gamma"
    input: "vgg0_batchnorm9_beta"
    input: "vgg0_batchnorm9_running_mean"
    input: "vgg0_batchnorm9_running_var"
    output: "vgg0_batchnorm9_fwd"
    name: "vgg0_batchnorm9_fwd"
    op_type: "BatchNormalization"
    attribute {
      name: "epsilon"
      f: 1e-05
      type: FLOAT
    }
    attribute {
      name: "momentum"
      f: 0.9
      type: FLOAT
    }
    attribute {
      name: "spatial"
      i: 0
      type: INT
    }
  }
  node {
    input: "vgg0_batchnorm9_fwd"
    output: "vgg0_relu9_fwd"
    name: "vgg0_relu9_fwd"
    op_type: "Relu"
  }
  node {
    input: "vgg0_relu9_fwd"
    input: "vgg0_conv10_weight"
    input: "vgg0_conv10_bias"
    output: "vgg0_conv10_fwd"
    name: "vgg0_conv10_fwd"
    op_type: "Conv"
    attribute {
      name: "dilations"
      ints: 1
      ints: 1
      type: INTS
    }
    attribute {
      name: "group"
      i: 1
      type: INT
    }
    attribute {
      name: "kernel_shape"
      ints: 3
      ints: 3
      type: INTS
    }
    attribute {
      name: "pads"
      ints: 1
      ints: 1
      ints: 1
      ints: 1
      type: INTS
    }
    attribute {
      name: "strides"
      ints: 1
      ints: 1
      type: INTS
    }
  }
  node {
    input: "vgg0_conv10_fwd"
    input: "vgg0_batchnorm10_gamma"
    input: "vgg0_batchnorm10_beta"
    input: "vgg0_batchnorm10_running_mean"
    input: "vgg0_batchnorm10_running_var"
    output: "vgg0_batchnorm10_fwd"
    name: "vgg0_batchnorm10_fwd"
    op_type: "BatchNormalization"
    attribute {
      name: "epsilon"
      f: 1e-05
      type: FLOAT
    }
    attribute {
      name: "momentum"
      f: 0.9
      type: FLOAT
    }
    attribute {
      name: "spatial"
      i: 0
      type: INT
    }
  }
  node {
    input: "vgg0_batchnorm10_fwd"
    output: "vgg0_relu10_fwd"
    name: "vgg0_relu10_fwd"
    op_type: "Relu"
  }
  node {
    input: "vgg0_relu10_fwd"
    input: "vgg0_conv11_weight"
    input: "vgg0_conv11_bias"
    output: "vgg0_conv11_fwd"
    name: "vgg0_conv11_fwd"
    op_type: "Conv"
    attribute {
      name: "dilations"
      ints: 1
      ints: 1
      type: INTS
    }
    attribute {
      name: "group"
      i: 1
      type: INT
    }
    attribute {
      name: "kernel_shape"
      ints: 3
      ints: 3
      type: INTS
    }
    attribute {
      name: "pads"
      ints: 1
      ints: 1
      ints: 1
      ints: 1
      type: INTS
    }
    attribute {
      name: "strides"
      ints: 1
      ints: 1
      type: INTS
    }
  }
  node {
    input: "vgg0_conv11_fwd"
    input: "vgg0_batchnorm11_gamma"
    input: "vgg0_batchnorm11_beta"
    input: "vgg0_batchnorm11_running_mean"
    input: "vgg0_batchnorm11_running_var"
    output: "vgg0_batchnorm11_fwd"
    name: "vgg0_batchnorm11_fwd"
    op_type: "BatchNormalization"
    attribute {
      name: "epsilon"
      f: 1e-05
      type: FLOAT
    }
    attribute {
      name: "momentum"
      f: 0.9
      type: FLOAT
    }
    attribute {
      name: "spatial"
      i: 0
      type: INT
    }
  }
  node {
    input: "vgg0_batchnorm11_fwd"
    output: "vgg0_relu11_fwd"
    name: "vgg0_relu11_fwd"
    op_type: "Relu"
  }
  node {
    input: "vgg0_relu11_fwd"
    output: "vgg0_pool3_fwd"
    name: "vgg0_pool3_fwd"
    op_type: "MaxPool"
    attribute {
      name: "kernel_shape"
      ints: 2
      ints: 2
      type: INTS
    }
    attribute {
      name: "pads"
      ints: 0
      ints: 0
      ints: 0
      ints: 0
      type: INTS
    }
    attribute {
      name: "strides"
      ints: 2
      ints: 2
      type: INTS
    }
  }
  node {
    input: "vgg0_pool3_fwd"
    input: "vgg0_conv12_weight"
    input: "vgg0_conv12_bias"
    output: "vgg0_conv12_fwd"
    name: "vgg0_conv12_fwd"
    op_type: "Conv"
    attribute {
      name: "dilations"
      ints: 1
      ints: 1
      type: INTS
    }
    attribute {
      name: "group"
      i: 1
      type: INT
    }
    attribute {
      name: "kernel_shape"
      ints: 3
      ints: 3
      type: INTS
    }
    attribute {
      name: "pads"
      ints: 1
      ints: 1
      ints: 1
      ints: 1
      type: INTS
    }
    attribute {
      name: "strides"
      ints: 1
      ints: 1
      type: INTS
    }
  }
  node {
    input: "vgg0_conv12_fwd"
    input: "vgg0_batchnorm12_gamma"
    input: "vgg0_batchnorm12_beta"
    input: "vgg0_batchnorm12_running_mean"
    input: "vgg0_batchnorm12_running_var"
    output: "vgg0_batchnorm12_fwd"
    name: "vgg0_batchnorm12_fwd"
    op_type: "BatchNormalization"
    attribute {
      name: "epsilon"
      f: 1e-05
      type: FLOAT
    }
    attribute {
      name: "momentum"
      f: 0.9
      type: FLOAT
    }
    attribute {
      name: "spatial"
      i: 0
      type: INT
    }
  }
  node {
    input: "vgg0_batchnorm12_fwd"
    output: "vgg0_relu12_fwd"
    name: "vgg0_relu12_fwd"
    op_type: "Relu"
  }
  node {
    input: "vgg0_relu12_fwd"
    input: "vgg0_conv13_weight"
    input: "vgg0_conv13_bias"
    output: "vgg0_conv13_fwd"
    name: "vgg0_conv13_fwd"
    op_type: "Conv"
    attribute {
      name: "dilations"
      ints: 1
      ints: 1
      type: INTS
    }
    attribute {
      name: "group"
      i: 1
      type: INT
    }
    attribute {
      name: "kernel_shape"
      ints: 3
      ints: 3
      type: INTS
    }
    attribute {
      name: "pads"
      ints: 1
      ints: 1
      ints: 1
      ints: 1
      type: INTS
    }
    attribute {
      name: "strides"
      ints: 1
      ints: 1
      type: INTS
    }
  }
  node {
    input: "vgg0_conv13_fwd"
    input: "vgg0_batchnorm13_gamma"
    input: "vgg0_batchnorm13_beta"
    input: "vgg0_batchnorm13_running_mean"
    input: "vgg0_batchnorm13_running_var"
    output: "vgg0_batchnorm13_fwd"
    name: "vgg0_batchnorm13_fwd"
    op_type: "BatchNormalization"
    attribute {
      name: "epsilon"
      f: 1e-05
      type: FLOAT
    }
    attribute {
      name: "momentum"
      f: 0.9
      type: FLOAT
    }
    attribute {
      name: "spatial"
      i: 0
      type: INT
    }
  }
  node {
    input: "vgg0_batchnorm13_fwd"
    output: "vgg0_relu13_fwd"
    name: "vgg0_relu13_fwd"
    op_type: "Relu"
  }
  node {
    input: "vgg0_relu13_fwd"
    input: "vgg0_conv14_weight"
    input: "vgg0_conv14_bias"
    output: "vgg0_conv14_fwd"
    name: "vgg0_conv14_fwd"
    op_type: "Conv"
    attribute {
      name: "dilations"
      ints: 1
      ints: 1
      type: INTS
    }
    attribute {
      name: "group"
      i: 1
      type: INT
    }
    attribute {
      name: "kernel_shape"
      ints: 3
      ints: 3
      type: INTS
    }
    attribute {
      name: "pads"
      ints: 1
      ints: 1
      ints: 1
      ints: 1
      type: INTS
    }
    attribute {
      name: "strides"
      ints: 1
      ints: 1
      type: INTS
    }
  }
  node {
    input: "vgg0_conv14_fwd"
    input: "vgg0_batchnorm14_gamma"
    input: "vgg0_batchnorm14_beta"
    input: "vgg0_batchnorm14_running_mean"
    input: "vgg0_batchnorm14_running_var"
    output: "vgg0_batchnorm14_fwd"
    name: "vgg0_batchnorm14_fwd"
    op_type: "BatchNormalization"
    attribute {
      name: "epsilon"
      f: 1e-05
      type: FLOAT
    }
    attribute {
      name: "momentum"
      f: 0.9
      type: FLOAT
    }
    attribute {
      name: "spatial"
      i: 0
      type: INT
    }
  }
  node {
    input: "vgg0_batchnorm14_fwd"
    output: "vgg0_relu14_fwd"
    name: "vgg0_relu14_fwd"
    op_type: "Relu"
  }
  node {
    input: "vgg0_relu14_fwd"
    input: "vgg0_conv15_weight"
    input: "vgg0_conv15_bias"
    output: "vgg0_conv15_fwd"
    name: "vgg0_conv15_fwd"
    op_type: "Conv"
    attribute {
      name: "dilations"
      ints: 1
      ints: 1
      type: INTS
    }
    attribute {
      name: "group"
      i: 1
      type: INT
    }
    attribute {
      name: "kernel_shape"
      ints: 3
      ints: 3
      type: INTS
    }
    attribute {
      name: "pads"
      ints: 1
      ints: 1
      ints: 1
      ints: 1
      type: INTS
    }
    attribute {
      name: "strides"
      ints: 1
      ints: 1
      type: INTS
    }
  }
  node {
    input: "vgg0_conv15_fwd"
    input: "vgg0_batchnorm15_gamma"
    input: "vgg0_batchnorm15_beta"
    input: "vgg0_batchnorm15_running_mean"
    input: "vgg0_batchnorm15_running_var"
    output: "vgg0_batchnorm15_fwd"
    name: "vgg0_batchnorm15_fwd"
    op_type: "BatchNormalization"
    attribute {
      name: "epsilon"
      f: 1e-05
      type: FLOAT
    }
    attribute {
      name: "momentum"
      f: 0.9
      type: FLOAT
    }
    attribute {
      name: "spatial"
      i: 0
      type: INT
    }
  }
  node {
    input: "vgg0_batchnorm15_fwd"
    output: "vgg0_relu15_fwd"
    name: "vgg0_relu15_fwd"
    op_type: "Relu"
  }
  node {
    input: "vgg0_relu15_fwd"
    output: "vgg0_pool4_fwd"
    name: "vgg0_pool4_fwd"
    op_type: "MaxPool"
    attribute {
      name: "kernel_shape"
      ints: 2
      ints: 2
      type: INTS
    }
    attribute {
      name: "pads"
      ints: 0
      ints: 0
      ints: 0
      ints: 0
      type: INTS
    }
    attribute {
      name: "strides"
      ints: 2
      ints: 2
      type: INTS
    }
  }
  node {
    input: "vgg0_pool4_fwd"
    output: "flatten_152"
    name: "flatten_152"
    op_type: "Flatten"
  }
  node {
    input: "flatten_152"
    input: "vgg0_dense0_weight"
    input: "vgg0_dense0_bias"
    output: "vgg0_dense0_fwd"
    name: "vgg0_dense0_fwd"
    op_type: "Gemm"
    attribute {
      name: "alpha"
      f: 1.0
      type: FLOAT
    }
    attribute {
      name: "beta"
      f: 1.0
      type: FLOAT
    }
    attribute {
      name: "transA"
      i: 0
      type: INT
    }
    attribute {
      name: "transB"
      i: 1
      type: INT
    }
  }
  node {
    input: "vgg0_dense0_fwd"
    output: "vgg0_dense0_relu_fwd"
    name: "vgg0_dense0_relu_fwd"
    op_type: "Relu"
  }
  node {
    input: "vgg0_dense0_relu_fwd"
    output: "vgg0_dropout0_fwd"
    name: "vgg0_dropout0_fwd"
    op_type: "Dropout"
    attribute {
      name: "ratio"
      f: 0.5
      type: FLOAT
    }
  }
  node {
    input: "vgg0_dropout0_fwd"
    output: "flatten_157"
    name: "flatten_157"
    op_type: "Flatten"
  }
  node {
    input: "flatten_157"
    input: "vgg0_dense1_weight"
    input: "vgg0_dense1_bias"
    output: "vgg0_dense1_fwd"
    name: "vgg0_dense1_fwd"
    op_type: "Gemm"
    attribute {
      name: "alpha"
      f: 1.0
      type: FLOAT
    }
    attribute {
      name: "beta"
      f: 1.0
      type: FLOAT
    }
    attribute {
      name: "transA"
      i: 0
      type: INT
    }
    attribute {
      name: "transB"
      i: 1
      type: INT
    }
  }
  node {
    input: "vgg0_dense1_fwd"
    output: "vgg0_dense1_relu_fwd"
    name: "vgg0_dense1_relu_fwd"
    op_type: "Relu"
  }
  node {
    input: "vgg0_dense1_relu_fwd"
    output: "vgg0_dropout1_fwd"
    name: "vgg0_dropout1_fwd"
    op_type: "Dropout"
    attribute {
      name: "ratio"
      f: 0.5
      type: FLOAT
    }
  }
  node {
    input: "vgg0_dropout1_fwd"
    output: "flatten_162"
    name: "flatten_162"
    op_type: "Flatten"
  }
  node {
    input: "flatten_162"
    input: "vgg0_dense2_weight"
    input: "vgg0_dense2_bias"
    output: "vgg0_dense2_fwd"
    name: "vgg0_dense2_fwd"
    op_type: "Gemm"
    attribute {
      name: "alpha"
      f: 1.0
      type: FLOAT
    }
    attribute {
      name: "beta"
      f: 1.0
      type: FLOAT
    }
    attribute {
      name: "transA"
      i: 0
      type: INT
    }
    attribute {
      name: "transB"
      i: 1
      type: INT
    }
  }
  name: "mxnet_converted_model"
  initializer {
    dims: 64
    data_type: 1
…
    name: "vgg0_conv0_bias"
  }
  initializer {
    dims: 64
    data_type: 1
…
    name: "vgg0_batchnorm0_gamma"
  }
  initializer {
    dims: 64
    data_type: 1
…
    name: "vgg0_batchnorm0_beta"
  }
  initializer {
    dims: 64
    data_type: 1
…
    name: "vgg0_batchnorm0_running_mean"
  }
  initializer {
    dims: 64
    data_type: 1
…
    name: "vgg0_batchnorm0_running_var"
  }
  initializer {
    dims: 64
    data_type: 1
…
    name: "vgg0_conv1_bias"
  }
  initializer {
    dims: 64
    data_type: 1
…
    name: "vgg0_batchnorm1_gamma"
  }
  initializer {
    dims: 64
    data_type: 1
…
    name: "vgg0_batchnorm1_beta"
  }
  initializer {
    dims: 64
    data_type: 1
…
    name: "vgg0_batchnorm1_running_mean"
  }
  initializer {
    dims: 64
    data_type: 1
…
    name: "vgg0_batchnorm1_running_var"
  }
  input {
    name: "data"
    type {
      tensor_type {
        elem_type: 1
        shape {
          dim {
            dim_value: 1
          }
          dim {
            dim_value: 3
          }
          dim {
            dim_value: 224
          }
          dim {
            dim_value: 224
          }
        }
      }
    }
  }
  input {
    name: "vgg0_conv0_weight"
    type {
      tensor_type {
        elem_type: 1
        shape {
          dim {
            dim_value: 64
          }
          dim {
            dim_value: 3
          }
          dim {
            dim_value: 3
          }
          dim {
            dim_value: 3
          }
        }
      }
    }
  }
  input {
    name: "vgg0_conv0_bias"
    type {
      tensor_type {
        elem_type: 1
        shape {
          dim {
            dim_value: 64
          }
        }
      }
    }
  }
  input {
    name: "vgg0_batchnorm0_gamma"
    type {
      tensor_type {
        elem_type: 1
        shape {
          dim {
            dim_value: 64
          }
        }
      }
    }
  }
  input {
    name: "vgg0_batchnorm0_beta"
    type {
      tensor_type {
        elem_type: 1
        shape {
          dim {
            dim_value: 64
          }
        }
      }
    }
  }
  input {
    name: "vgg0_batchnorm0_running_mean"
    type {
      tensor_type {
        elem_type: 1
        shape {
          dim {
            dim_value: 64
          }
        }
      }
    }
  }
  input {
    name: "vgg0_batchnorm0_running_var"
    type {
      tensor_type {
        elem_type: 1
        shape {
          dim {
            dim_value: 64
          }
        }
      }
    }
  }
  input {
    name: "vgg0_conv1_weight"
    type {
      tensor_type {
        elem_type: 1
        shape {
          dim {
            dim_value: 64
          }
          dim {
            dim_value: 64
          }
          dim {
            dim_value: 3
          }
          dim {
            dim_value: 3
          }
        }
      }
    }
  }
  input {
    name: "vgg0_conv1_bias"
    type {
      tensor_type {
        elem_type: 1
        shape {
          dim {
            dim_value: 64
          }
        }
      }
    }
  }
  input {
    name: "vgg0_batchnorm1_gamma"
    type {
      tensor_type {
        elem_type: 1
        shape {
          dim {
            dim_value: 64
          }
        }
      }
    }
  }
  input {
    name: "vgg0_batchnorm1_beta"
    type {
      tensor_type {
        elem_type: 1
        shape {
          dim {
            dim_value: 64
          }
        }
      }
    }
  }
  input {
    name: "vgg0_batchnorm1_running_mean"
    type {
      tensor_type {
        elem_type: 1
        shape {
          dim {
            dim_value: 64
          }
        }
      }
    }
  }
  input {
    name: "vgg0_batchnorm1_running_var"
    type {
      tensor_type {
        elem_type: 1
        shape {
          dim {
            dim_value: 64
          }
        }
      }
    }
  }
  input {
    name: "vgg0_conv2_weight"
    type {
      tensor_type {
        elem_type: 1
        shape {
          dim {
            dim_value: 128
          }
          dim {
            dim_value: 64
          }
          dim {
            dim_value: 3
          }
          dim {
            dim_value: 3
          }
        }
      }
    }
  }
  input {
    name: "vgg0_conv2_bias"
    type {
      tensor_type {
        elem_type: 1
        shape {
          dim {
            dim_value: 128
          }
        }
      }
    }
  }
  input {
    name: "vgg0_batchnorm2_gamma"
    type {
      tensor_type {
        elem_type: 1
        shape {
          dim {
            dim_value: 128
          }
        }
      }
    }
  }
  input {
    name: "vgg0_batchnorm2_beta"
    type {
      tensor_type {
        elem_type: 1
        shape {
          dim {
            dim_value: 128
          }
        }
      }
    }
  }
  input {
    name: "vgg0_batchnorm2_running_mean"
    type {
      tensor_type {
        elem_type: 1
        shape {
          dim {
            dim_value: 128
          }
        }
      }
    }
  }
  input {
    name: "vgg0_batchnorm2_running_var"
    type {
      tensor_type {
        elem_type: 1
        shape {
          dim {
            dim_value: 128
          }
        }
      }
    }
  }
  input {
    name: "vgg0_conv3_weight"
    type {
      tensor_type {
        elem_type: 1
        shape {
          dim {
            dim_value: 128
          }
          dim {
            dim_value: 128
          }
          dim {
            dim_value: 3
          }
          dim {
            dim_value: 3
          }
        }
      }
    }
  }
  input {
    name: "vgg0_conv3_bias"
    type {
      tensor_type {
        elem_type: 1
        shape {
          dim {
            dim_value: 128
          }
        }
      }
    }
  }
  input {
    name: "vgg0_batchnorm3_gamma"
    type {
      tensor_type {
        elem_type: 1
        shape {
          dim {
            dim_value: 128
          }
        }
      }
    }
  }
  input {
    name: "vgg0_batchnorm3_beta"
    type {
      tensor_type {
        elem_type: 1
        shape {
          dim {
            dim_value: 128
          }
        }
      }
    }
  }
  input {
    name: "vgg0_batchnorm3_running_mean"
    type {
      tensor_type {
        elem_type: 1
        shape {
          dim {
            dim_value: 128
          }
        }
      }
    }
  }
  input {
    name: "vgg0_batchnorm3_running_var"
    type {
      tensor_type {
        elem_type: 1
        shape {
          dim {
            dim_value: 128
          }
        }
      }
    }
  }
  input {
    name: "vgg0_conv4_weight"
    type {
      tensor_type {
        elem_type: 1
        shape {
          dim {
            dim_value: 256
          }
          dim {
            dim_value: 128
          }
          dim {
            dim_value: 3
          }
          dim {
            dim_value: 3
          }
        }
      }
    }
  }
  input {
    name: "vgg0_conv4_bias"
    type {
      tensor_type {
        elem_type: 1
        shape {
          dim {
            dim_value: 256
          }
        }
      }
    }
  }
  input {
    name: "vgg0_batchnorm4_gamma"
    type {
      tensor_type {
        elem_type: 1
        shape {
          dim {
            dim_value: 256
          }
        }
      }
    }
  }
  input {
    name: "vgg0_batchnorm4_beta"
    type {
      tensor_type {
        elem_type: 1
        shape {
          dim {
            dim_value: 256
          }
        }
      }
    }
  }
  input {
    name: "vgg0_batchnorm4_running_mean"
    type {
      tensor_type {
        elem_type: 1
        shape {
          dim {
            dim_value: 256
          }
        }
      }
    }
  }
  input {
    name: "vgg0_batchnorm4_running_var"
    type {
      tensor_type {
        elem_type: 1
        shape {
          dim {
            dim_value: 256
          }
        }
      }
    }
  }
  input {
    name: "vgg0_conv5_weight"
    type {
      tensor_type {
        elem_type: 1
        shape {
          dim {
            dim_value: 256
          }
          dim {
            dim_value: 256
          }
          dim {
            dim_value: 3
          }
          dim {
            dim_value: 3
          }
        }
      }
    }
  }
  input {
    name: "vgg0_conv5_bias"
    type {
      tensor_type {
        elem_type: 1
        shape {
          dim {
            dim_value: 256
          }
        }
      }
    }
  }
  input {
    name: "vgg0_batchnorm5_gamma"
    type {
      tensor_type {
        elem_type: 1
        shape {
          dim {
            dim_value: 256
          }
        }
      }
    }
  }
  input {
    name: "vgg0_batchnorm5_beta"
    type {
      tensor_type {
        elem_type: 1
        shape {
          dim {
            dim_value: 256
          }
        }
      }
    }
  }
  input {
    name: "vgg0_batchnorm5_running_mean"
    type {
      tensor_type {
        elem_type: 1
        shape {
          dim {
            dim_value: 256
          }
        }
      }
    }
  }
  input {
    name: "vgg0_batchnorm5_running_var"
    type {
      tensor_type {
        elem_type: 1
        shape {
          dim {
            dim_value: 256
          }
        }
      }
    }
  }
  input {
    name: "vgg0_conv6_weight"
    type {
      tensor_type {
        elem_type: 1
        shape {
          dim {
            dim_value: 256
          }
          dim {
            dim_value: 256
          }
          dim {
            dim_value: 3
          }
          dim {
            dim_value: 3
          }
        }
      }
    }
  }
  input {
    name: "vgg0_conv6_bias"
    type {
      tensor_type {
        elem_type: 1
        shape {
          dim {
            dim_value: 256
          }
        }
      }
    }
  }
  input {
    name: "vgg0_batchnorm6_gamma"
    type {
      tensor_type {
        elem_type: 1
        shape {
          dim {
            dim_value: 256
          }
        }
      }
    }
  }
  input {
    name: "vgg0_batchnorm6_beta"
    type {
      tensor_type {
        elem_type: 1
        shape {
          dim {
            dim_value: 256
          }
        }
      }
    }
  }
  input {
    name: "vgg0_batchnorm6_running_mean"
    type {
      tensor_type {
        elem_type: 1
        shape {
          dim {
            dim_value: 256
          }
        }
      }
    }
  }
  input {
    name: "vgg0_batchnorm6_running_var"
    type {
      tensor_type {
        elem_type: 1
        shape {
          dim {
            dim_value: 256
          }
        }
      }
    }
  }
  input {
    name: "vgg0_conv7_weight"
    type {
      tensor_type {
        elem_type: 1
        shape {
          dim {
            dim_value: 256
          }
          dim {
            dim_value: 256
          }
          dim {
            dim_value: 3
          }
          dim {
            dim_value: 3
          }
        }
      }
    }
  }
  input {
    name: "vgg0_conv7_bias"
    type {
      tensor_type {
        elem_type: 1
        shape {
          dim {
            dim_value: 256
          }
        }
      }
    }
  }
  input {
    name: "vgg0_batchnorm7_gamma"
    type {
      tensor_type {
        elem_type: 1
        shape {
          dim {
            dim_value: 256
          }
        }
      }
    }
  }
  input {
    name: "vgg0_batchnorm7_beta"
    type {
      tensor_type {
        elem_type: 1
        shape {
          dim {
            dim_value: 256
          }
        }
      }
    }
  }
  input {
    name: "vgg0_batchnorm7_running_mean"
    type {
      tensor_type {
        elem_type: 1
        shape {
          dim {
            dim_value: 256
          }
        }
      }
    }
  }
  input {
    name: "vgg0_batchnorm7_running_var"
    type {
      tensor_type {
        elem_type: 1
        shape {
          dim {
            dim_value: 256
          }
        }
      }
    }
  }
  input {
    name: "vgg0_conv8_weight"
    type {
      tensor_type {
        elem_type: 1
        shape {
          dim {
            dim_value: 512
          }
          dim {
            dim_value: 256
          }
          dim {
            dim_value: 3
          }
          dim {
            dim_value: 3
          }
        }
      }
    }
  }
  input {
    name: "vgg0_conv8_bias"
    type {
      tensor_type {
        elem_type: 1
        shape {
          dim {
            dim_value: 512
          }
        }
      }
    }
  }
  input {
    name: "vgg0_batchnorm8_gamma"
    type {
      tensor_type {
        elem_type: 1
        shape {
          dim {
            dim_value: 512
          }
        }
      }
    }
  }
  input {
    name: "vgg0_batchnorm8_beta"
    type {
      tensor_type {
        elem_type: 1
        shape {
          dim {
            dim_value: 512
          }
        }
      }
    }
  }
  input {
    name: "vgg0_batchnorm8_running_mean"
    type {
      tensor_type {
        elem_type: 1
        shape {
          dim {
            dim_value: 512
          }
        }
      }
    }
  }
  input {
    name: "vgg0_batchnorm8_running_var"
    type {
      tensor_type {
        elem_type: 1
        shape {
          dim {
            dim_value: 512
          }
        }
      }
    }
  }
  input {
    name: "vgg0_conv9_weight"
    type {
      tensor_type {
        elem_type: 1
        shape {
          dim {
            dim_value: 512
          }
          dim {
            dim_value: 512
          }
          dim {
            dim_value: 3
          }
          dim {
            dim_value: 3
          }
        }
      }
    }
  }
  input {
    name: "vgg0_conv9_bias"
    type {
      tensor_type {
        elem_type: 1
        shape {
          dim {
            dim_value: 512
          }
        }
      }
    }
  }
  input {
    name: "vgg0_batchnorm9_gamma"
    type {
      tensor_type {
        elem_type: 1
        shape {
          dim {
            dim_value: 512
          }
        }
      }
    }
  }
  input {
    name: "vgg0_batchnorm9_beta"
    type {
      tensor_type {
        elem_type: 1
        shape {
          dim {
            dim_value: 512
          }
        }
      }
    }
  }
  input {
    name: "vgg0_batchnorm9_running_mean"
    type {
      tensor_type {
        elem_type: 1
        shape {
          dim {
            dim_value: 512
          }
        }
      }
    }
  }
  input {
    name: "vgg0_batchnorm9_running_var"
    type {
      tensor_type {
        elem_type: 1
        shape {
          dim {
            dim_value: 512
          }
        }
      }
    }
  }
  input {
    name: "vgg0_conv10_weight"
    type {
      tensor_type {
        elem_type: 1
        shape {
          dim {
            dim_value: 512
          }
          dim {
            dim_value: 512
          }
          dim {
            dim_value: 3
          }
          dim {
            dim_value: 3
          }
        }
      }
    }
  }
  input {
    name: "vgg0_conv10_bias"
    type {
      tensor_type {
        elem_type: 1
        shape {
          dim {
            dim_value: 512
          }
        }
      }
    }
  }
  input {
    name: "vgg0_batchnorm10_gamma"
    type {
      tensor_type {
        elem_type: 1
        shape {
          dim {
            dim_value: 512
          }
        }
      }
    }
  }
  input {
    name: "vgg0_batchnorm10_beta"
    type {
      tensor_type {
        elem_type: 1
        shape {
          dim {
            dim_value: 512
          }
        }
      }
    }
  }
  input {
    name: "vgg0_batchnorm10_running_mean"
    type {
      tensor_type {
        elem_type: 1
        shape {
          dim {
            dim_value: 512
          }
        }
      }
    }
  }
  input {
    name: "vgg0_batchnorm10_running_var"
    type {
      tensor_type {
        elem_type: 1
        shape {
          dim {
            dim_value: 512
          }
        }
      }
    }
  }
  input {
    name: "vgg0_conv11_weight"
    type {
      tensor_type {
        elem_type: 1
        shape {
          dim {
            dim_value: 512
          }
          dim {
            dim_value: 512
          }
          dim {
            dim_value: 3
          }
          dim {
            dim_value: 3
          }
        }
      }
    }
  }
  input {
    name: "vgg0_conv11_bias"
    type {
      tensor_type {
        elem_type: 1
        shape {
          dim {
            dim_value: 512
          }
        }
      }
    }
  }
  input {
    name: "vgg0_batchnorm11_gamma"
    type {
      tensor_type {
        elem_type: 1
        shape {
          dim {
            dim_value: 512
          }
        }
      }
    }
  }
  input {
    name: "vgg0_batchnorm11_beta"
    type {
      tensor_type {
        elem_type: 1
        shape {
          dim {
            dim_value: 512
          }
        }
      }
    }
  }
  input {
    name: "vgg0_batchnorm11_running_mean"
    type {
      tensor_type {
        elem_type: 1
        shape {
          dim {
            dim_value: 512
          }
        }
      }
    }
  }
  input {
    name: "vgg0_batchnorm11_running_var"
    type {
      tensor_type {
        elem_type: 1
        shape {
          dim {
            dim_value: 512
          }
        }
      }
    }
  }
  input {
    name: "vgg0_conv12_weight"
    type {
      tensor_type {
        elem_type: 1
        shape {
          dim {
            dim_value: 512
          }
          dim {
            dim_value: 512
          }
          dim {
            dim_value: 3
          }
          dim {
            dim_value: 3
          }
        }
      }
    }
  }
  input {
    name: "vgg0_conv12_bias"
    type {
      tensor_type {
        elem_type: 1
        shape {
          dim {
            dim_value: 512
          }
        }
      }
    }
  }
  input {
    name: "vgg0_batchnorm12_gamma"
    type {
      tensor_type {
        elem_type: 1
        shape {
          dim {
            dim_value: 512
          }
        }
      }
    }
  }
  input {
    name: "vgg0_batchnorm12_beta"
    type {
      tensor_type {
        elem_type: 1
        shape {
          dim {
            dim_value: 512
          }
        }
      }
    }
  }
  input {
    name: "vgg0_batchnorm12_running_mean"
    type {
      tensor_type {
        elem_type: 1
        shape {
          dim {
            dim_value: 512
          }
        }
      }
    }
  }
  input {
    name: "vgg0_batchnorm12_running_var"
    type {
      tensor_type {
        elem_type: 1
        shape {
          dim {
            dim_value: 512
          }
        }
      }
    }
  }
  input {
    name: "vgg0_conv13_weight"
    type {
      tensor_type {
        elem_type: 1
        shape {
          dim {
            dim_value: 512
          }
          dim {
            dim_value: 512
          }
          dim {
            dim_value: 3
          }
          dim {
            dim_value: 3
          }
        }
      }
    }
  }
  input {
    name: "vgg0_conv13_bias"
    type {
      tensor_type {
        elem_type: 1
        shape {
          dim {
            dim_value: 512
          }
        }
      }
    }
  }
  input {
    name: "vgg0_batchnorm13_gamma"
    type {
      tensor_type {
        elem_type: 1
        shape {
          dim {
            dim_value: 512
          }
        }
      }
    }
  }
  input {
    name: "vgg0_batchnorm13_beta"
    type {
      tensor_type {
        elem_type: 1
        shape {
          dim {
            dim_value: 512
          }
        }
      }
    }
  }
  input {
    name: "vgg0_batchnorm13_running_mean"
    type {
      tensor_type {
        elem_type: 1
        shape {
          dim {
            dim_value: 512
          }
        }
      }
    }
  }
  input {
    name: "vgg0_batchnorm13_running_var"
    type {
      tensor_type {
        elem_type: 1
        shape {
          dim {
            dim_value: 512
          }
        }
      }
    }
  }
  input {
    name: "vgg0_conv14_weight"
    type {
      tensor_type {
        elem_type: 1
        shape {
          dim {
            dim_value: 512
          }
          dim {
            dim_value: 512
          }
          dim {
            dim_value: 3
          }
          dim {
            dim_value: 3
          }
        }
      }
    }
  }
  input {
    name: "vgg0_conv14_bias"
    type {
      tensor_type {
        elem_type: 1
        shape {
          dim {
            dim_value: 512
          }
        }
      }
    }
  }
  input {
    name: "vgg0_batchnorm14_gamma"
    type {
      tensor_type {
        elem_type: 1
        shape {
          dim {
            dim_value: 512
          }
        }
      }
    }
  }
  input {
    name: "vgg0_batchnorm14_beta"
    type {
      tensor_type {
        elem_type: 1
        shape {
          dim {
            dim_value: 512
          }
        }
      }
    }
  }
  input {
    name: "vgg0_batchnorm14_running_mean"
    type {
      tensor_type {
        elem_type: 1
        shape {
          dim {
            dim_value: 512
          }
        }
      }
    }
  }
  input {
    name: "vgg0_batchnorm14_running_var"
    type {
      tensor_type {
        elem_type: 1
        shape {
          dim {
            dim_value: 512
          }
        }
      }
    }
  }
  input {
    name: "vgg0_conv15_weight"
    type {
      tensor_type {
        elem_type: 1
        shape {
          dim {
            dim_value: 512
          }
          dim {
            dim_value: 512
          }
          dim {
            dim_value: 3
          }
          dim {
            dim_value: 3
          }
        }
      }
    }
  }
  input {
    name: "vgg0_conv15_bias"
    type {
      tensor_type {
        elem_type: 1
        shape {
          dim {
            dim_value: 512
          }
        }
      }
    }
  }
  input {
    name: "vgg0_batchnorm15_gamma"
    type {
      tensor_type {
        elem_type: 1
        shape {
          dim {
            dim_value: 512
          }
        }
      }
    }
  }
  input {
    name: "vgg0_batchnorm15_beta"
    type {
      tensor_type {
        elem_type: 1
        shape {
          dim {
            dim_value: 512
          }
        }
      }
    }
  }
  input {
    name: "vgg0_batchnorm15_running_mean"
    type {
      tensor_type {
        elem_type: 1
        shape {
          dim {
            dim_value: 512
          }
        }
      }
    }
  }
  input {
    name: "vgg0_batchnorm15_running_var"
    type {
      tensor_type {
        elem_type: 1
        shape {
          dim {
            dim_value: 512
          }
        }
      }
    }
  }
  input {
    name: "vgg0_dense0_weight"
    type {
      tensor_type {
        elem_type: 1
        shape {
          dim {
            dim_value: 4096
          }
          dim {
            dim_value: 25088
          }
        }
      }
    }
  }
  input {
    name: "vgg0_dense0_bias"
    type {
      tensor_type {
        elem_type: 1
        shape {
          dim {
            dim_value: 4096
          }
        }
      }
    }
  }
  input {
    name: "vgg0_dense1_weight"
    type {
      tensor_type {
        elem_type: 1
        shape {
          dim {
            dim_value: 4096
          }
          dim {
            dim_value: 4096
          }
        }
      }
    }
  }
  input {
    name: "vgg0_dense1_bias"
    type {
      tensor_type {
        elem_type: 1
        shape {
          dim {
            dim_value: 4096
          }
        }
      }
    }
  }
  input {
    name: "vgg0_dense2_weight"
    type {
      tensor_type {
        elem_type: 1
        shape {
          dim {
            dim_value: 1000
          }
          dim {
            dim_value: 4096
          }
        }
      }
    }
  }
  input {
    name: "vgg0_dense2_bias"
    type {
      tensor_type {
        elem_type: 1
        shape {
          dim {
            dim_value: 1000
          }
        }
      }
    }
  }
  output {
    name: "vgg0_dense2_fwd"
    type {
      tensor_type {
        elem_type: 1
        shape {
          dim {
            dim_value: 1
          }
          dim {
            dim_value: 1000
          }
        }
      }
    }
  }
}
opset_import {
  domain: ""
  version: 8
}
