ir_version: 6
producer_name: "tf2onnx"
producer_version: "1.7.0"
graph {
  node {
    input: "input_1:0"
    output: "StatefulPartitionedCall/model/conv2d/Conv2D__46:0"
    name: "StatefulPartitionedCall/model/conv2d/Conv2D__46"
    op_type: "Transpose"
    attribute {
      name: "perm"
      ints: 0
      ints: 3
      ints: 1
      ints: 2
      type: INTS
    }
  }
  node {
    input: "StatefulPartitionedCall/model/conv2d/Conv2D__46:0"
    input: "StatefulPartitionedCall/model/conv2d/Conv2D_weights_fused_bn"
    input: "StatefulPartitionedCall/model/conv2d/Conv2D_bias_fused_bn"
    output: "StatefulPartitionedCall/model/batch_normalization/FusedBatchNormV3:0"
    name: "StatefulPartitionedCall/model/conv2d/Conv2D"
    op_type: "Conv"
    attribute {
      name: "dilations"
      ints: 1
      ints: 1
      type: INTS
    }
    attribute {
      name: "strides"
      ints: 1
      ints: 1
      type: INTS
    }
    attribute {
      name: "kernel_shape"
      ints: 3
      ints: 3
      type: INTS
    }
    attribute {
      name: "pads"
      ints: 1
      ints: 1
      ints: 1
      ints: 1
      type: INTS
    }
  }
  node {
    input: "StatefulPartitionedCall/model/batch_normalization/FusedBatchNormV3:0"
    output: "StatefulPartitionedCall/model/lambda/Exp:0"
    name: "StatefulPartitionedCall/model/lambda/Exp"
    op_type: "Exp"
  }
  node {
    input: "Reshape__1345:0"
    input: "new_shape__2067"
    output: "Transpose__1378:0"
    name: "Transpose__1378"
    op_type: "Reshape"
  }
  node {
    input: "Transpose__1378:0"
    input: "StatefulPartitionedCall/model/lambda/Exp:0"
    output: "StatefulPartitionedCall/model/lambda/add:0"
    name: "StatefulPartitionedCall/model/lambda/add"
    op_type: "Add"
  }
  node {
    input: "StatefulPartitionedCall/model/lambda/add:0"
    output: "StatefulPartitionedCall/model/lambda/Log:0"
    name: "StatefulPartitionedCall/model/lambda/Log"
    op_type: "Log"
  }
  node {
    input: "StatefulPartitionedCall/model/lambda/Log:0"
    output: "StatefulPartitionedCall/model/lambda/Tanh:0"
    name: "StatefulPartitionedCall/model/lambda/Tanh"
    op_type: "Tanh"
  }
  node {
    input: "StatefulPartitionedCall/model/batch_normalization/FusedBatchNormV3:0"
    input: "StatefulPartitionedCall/model/lambda/Tanh:0"
    output: "StatefulPartitionedCall/model/lambda/mul:0"
    name: "StatefulPartitionedCall/model/lambda/mul"
    op_type: "Mul"
  }
  node {
    input: "StatefulPartitionedCall/model/lambda/mul:0"
    input: "StatefulPartitionedCall/model/conv2d_1/Conv2D_weights_fused_bn"
    input: "StatefulPartitionedCall/model/conv2d_1/Conv2D_bias_fused_bn"
    output: "StatefulPartitionedCall/model/batch_normalization_1/FusedBatchNormV3:0"
    name: "StatefulPartitionedCall/model/conv2d_1/Conv2D"
    op_type: "Conv"
    attribute {
      name: "dilations"
      ints: 1
      ints: 1
      type: INTS
    }
    attribute {
      name: "strides"
      ints: 2
      ints: 2
      type: INTS
    }
    attribute {
      name: "kernel_shape"
      ints: 3
      ints: 3
      type: INTS
    }
    attribute {
      name: "auto_pad"
      s: "NOTSET"
      type: STRING
    }
    attribute {
      name: "pads"
      ints: 1
      ints: 1
      ints: 0
      ints: 0
      type: INTS
    }
  }
  node {
    input: "StatefulPartitionedCall/model/batch_normalization_1/FusedBatchNormV3:0"
    output: "StatefulPartitionedCall/model/lambda_1/Exp:0"
    name: "StatefulPartitionedCall/model/lambda_1/Exp"
    op_type: "Exp"
  }
  node {
    input: "Transpose__1378:0"
    input: "StatefulPartitionedCall/model/lambda_1/Exp:0"
    output: "StatefulPartitionedCall/model/lambda_1/add:0"
    name: "StatefulPartitionedCall/model/lambda_1/add"
    op_type: "Add"
  }
  node {
    input: "StatefulPartitionedCall/model/lambda_1/add:0"
    output: "StatefulPartitionedCall/model/lambda_1/Log:0"
    name: "StatefulPartitionedCall/model/lambda_1/Log"
    op_type: "Log"
  }
  node {
    input: "StatefulPartitionedCall/model/lambda_1/Log:0"
    output: "StatefulPartitionedCall/model/lambda_1/Tanh:0"
    name: "StatefulPartitionedCall/model/lambda_1/Tanh"
    op_type: "Tanh"
  }
  node {
    input: "StatefulPartitionedCall/model/batch_normalization_1/FusedBatchNormV3:0"
    input: "StatefulPartitionedCall/model/lambda_1/Tanh:0"
    output: "StatefulPartitionedCall/model/lambda_1/mul:0"
    name: "StatefulPartitionedCall/model/lambda_1/mul"
    op_type: "Mul"
  }
  node {
    input: "StatefulPartitionedCall/model/lambda_1/mul:0"
    input: "StatefulPartitionedCall/model/conv2d_3/Conv2D_weights_fused_bn"
    input: "StatefulPartitionedCall/model/conv2d_3/Conv2D_bias_fused_bn"
    output: "StatefulPartitionedCall/model/batch_normalization_3/FusedBatchNormV3:0"
    name: "StatefulPartitionedCall/model/conv2d_3/Conv2D"
    op_type: "Conv"
    attribute {
      name: "dilations"
      ints: 1
      ints: 1
      type: INTS
    }
    attribute {
      name: "strides"
      ints: 1
      ints: 1
      type: INTS
    }
    attribute {
      name: "kernel_shape"
      ints: 1
      ints: 1
      type: INTS
    }
    attribute {
      name: "pads"
      ints: 0
      ints: 0
      ints: 0
      ints: 0
      type: INTS
    }
  }
  node {
    input: "StatefulPartitionedCall/model/batch_normalization_3/FusedBatchNormV3:0"
    output: "StatefulPartitionedCall/model/lambda_3/Exp:0"
    name: "StatefulPartitionedCall/model/lambda_3/Exp"
    op_type: "Exp"
  }
  node {
    input: "Transpose__1378:0"
    input: "StatefulPartitionedCall/model/lambda_3/Exp:0"
    output: "StatefulPartitionedCall/model/lambda_3/add:0"
    name: "StatefulPartitionedCall/model/lambda_3/add"
    op_type: "Add"
  }
  node {
    input: "StatefulPartitionedCall/model/lambda_3/add:0"
    output: "StatefulPartitionedCall/model/lambda_3/Log:0"
    name: "StatefulPartitionedCall/model/lambda_3/Log"
    op_type: "Log"
  }
  node {
    input: "StatefulPartitionedCall/model/lambda_3/Log:0"
    output: "StatefulPartitionedCall/model/lambda_3/Tanh:0"
    name: "StatefulPartitionedCall/model/lambda_3/Tanh"
    op_type: "Tanh"
  }
  node {
    input: "StatefulPartitionedCall/model/batch_normalization_3/FusedBatchNormV3:0"
    input: "StatefulPartitionedCall/model/lambda_3/Tanh:0"
    output: "StatefulPartitionedCall/model/lambda_3/mul:0"
    name: "StatefulPartitionedCall/model/lambda_3/mul"
    op_type: "Mul"
  }
  node {
    input: "StatefulPartitionedCall/model/lambda_3/mul:0"
    input: "StatefulPartitionedCall/model/conv2d_4/Conv2D_weights_fused_bn"
    input: "StatefulPartitionedCall/model/conv2d_4/Conv2D_bias_fused_bn"
    output: "StatefulPartitionedCall/model/batch_normalization_4/FusedBatchNormV3:0"
    name: "StatefulPartitionedCall/model/conv2d_4/Conv2D"
    op_type: "Conv"
    attribute {
      name: "dilations"
      ints: 1
      ints: 1
      type: INTS
    }
    attribute {
      name: "strides"
      ints: 1
      ints: 1
      type: INTS
    }
    attribute {
      name: "kernel_shape"
      ints: 1
      ints: 1
      type: INTS
    }
    attribute {
      name: "pads"
      ints: 0
      ints: 0
      ints: 0
      ints: 0
      type: INTS
    }
  }
  node {
    input: "StatefulPartitionedCall/model/batch_normalization_4/FusedBatchNormV3:0"
    output: "StatefulPartitionedCall/model/lambda_4/Exp:0"
    name: "StatefulPartitionedCall/model/lambda_4/Exp"
    op_type: "Exp"
  }
  node {
    input: "Transpose__1378:0"
    input: "StatefulPartitionedCall/model/lambda_4/Exp:0"
    output: "StatefulPartitionedCall/model/lambda_4/add:0"
    name: "StatefulPartitionedCall/model/lambda_4/add"
    op_type: "Add"
  }
  node {
    input: "StatefulPartitionedCall/model/lambda_4/add:0"
    output: "StatefulPartitionedCall/model/lambda_4/Log:0"
    name: "StatefulPartitionedCall/model/lambda_4/Log"
    op_type: "Log"
  }
  node {
    input: "StatefulPartitionedCall/model/lambda_4/Log:0"
    output: "StatefulPartitionedCall/model/lambda_4/Tanh:0"
    name: "StatefulPartitionedCall/model/lambda_4/Tanh"
    op_type: "Tanh"
  }
  node {
    input: "StatefulPartitionedCall/model/batch_normalization_4/FusedBatchNormV3:0"
    input: "StatefulPartitionedCall/model/lambda_4/Tanh:0"
    output: "StatefulPartitionedCall/model/lambda_4/mul:0"
    name: "StatefulPartitionedCall/model/lambda_4/mul"
    op_type: "Mul"
  }
  node {
    input: "StatefulPartitionedCall/model/lambda_4/mul:0"
    input: "StatefulPartitionedCall/model/conv2d_5/Conv2D_weights_fused_bn"
    input: "StatefulPartitionedCall/model/conv2d_5/Conv2D_bias_fused_bn"
    output: "StatefulPartitionedCall/model/batch_normalization_5/FusedBatchNormV3:0"
    name: "StatefulPartitionedCall/model/conv2d_5/Conv2D"
    op_type: "Conv"
    attribute {
      name: "dilations"
      ints: 1
      ints: 1
      type: INTS
    }
    attribute {
      name: "strides"
      ints: 1
      ints: 1
      type: INTS
    }
    attribute {
      name: "kernel_shape"
      ints: 3
      ints: 3
      type: INTS
    }
    attribute {
      name: "pads"
      ints: 1
      ints: 1
      ints: 1
      ints: 1
      type: INTS
    }
  }
  node {
    input: "StatefulPartitionedCall/model/batch_normalization_5/FusedBatchNormV3:0"
    output: "StatefulPartitionedCall/model/lambda_5/Exp:0"
    name: "StatefulPartitionedCall/model/lambda_5/Exp"
    op_type: "Exp"
  }
  node {
    input: "Transpose__1378:0"
    input: "StatefulPartitionedCall/model/lambda_5/Exp:0"
    output: "StatefulPartitionedCall/model/lambda_5/add:0"
    name: "StatefulPartitionedCall/model/lambda_5/add"
    op_type: "Add"
  }
  node {
    input: "StatefulPartitionedCall/model/lambda_5/add:0"
    output: "StatefulPartitionedCall/model/lambda_5/Log:0"
    name: "StatefulPartitionedCall/model/lambda_5/Log"
    op_type: "Log"
  }
  node {
    input: "StatefulPartitionedCall/model/lambda_5/Log:0"
    output: "StatefulPartitionedCall/model/lambda_5/Tanh:0"
    name: "StatefulPartitionedCall/model/lambda_5/Tanh"
    op_type: "Tanh"
  }
  node {
    input: "StatefulPartitionedCall/model/batch_normalization_5/FusedBatchNormV3:0"
    input: "StatefulPartitionedCall/model/lambda_5/Tanh:0"
    output: "StatefulPartitionedCall/model/lambda_5/mul:0"
    name: "StatefulPartitionedCall/model/lambda_5/mul"
    op_type: "Mul"
  }
  node {
    input: "StatefulPartitionedCall/model/lambda_3/mul:0"
    input: "StatefulPartitionedCall/model/lambda_5/mul:0"
    output: "StatefulPartitionedCall/model/tf_op_layer_add/add:0"
    name: "StatefulPartitionedCall/model/tf_op_layer_add/add"
    op_type: "Add"
  }
  node {
    input: "StatefulPartitionedCall/model/tf_op_layer_add/add:0"
    input: "StatefulPartitionedCall/model/conv2d_6/Conv2D_weights_fused_bn"
    input: "StatefulPartitionedCall/model/conv2d_6/Conv2D_bias_fused_bn"
    output: "StatefulPartitionedCall/model/batch_normalization_6/FusedBatchNormV3:0"
    name: "StatefulPartitionedCall/model/conv2d_6/Conv2D"
    op_type: "Conv"
    attribute {
      name: "dilations"
      ints: 1
      ints: 1
      type: INTS
    }
    attribute {
      name: "strides"
      ints: 1
      ints: 1
      type: INTS
    }
    attribute {
      name: "kernel_shape"
      ints: 1
      ints: 1
      type: INTS
    }
    attribute {
      name: "pads"
      ints: 0
      ints: 0
      ints: 0
      ints: 0
      type: INTS
    }
  }
  node {
    input: "StatefulPartitionedCall/model/batch_normalization_6/FusedBatchNormV3:0"
    output: "StatefulPartitionedCall/model/lambda_6/Exp:0"
    name: "StatefulPartitionedCall/model/lambda_6/Exp"
    op_type: "Exp"
  }
  node {
    input: "Transpose__1378:0"
    input: "StatefulPartitionedCall/model/lambda_6/Exp:0"
    output: "StatefulPartitionedCall/model/lambda_6/add:0"
    name: "StatefulPartitionedCall/model/lambda_6/add"
    op_type: "Add"
  }
  node {
    input: "StatefulPartitionedCall/model/lambda_6/add:0"
    output: "StatefulPartitionedCall/model/lambda_6/Log:0"
    name: "StatefulPartitionedCall/model/lambda_6/Log"
    op_type: "Log"
  }
  node {
    input: "StatefulPartitionedCall/model/lambda_6/Log:0"
    output: "StatefulPartitionedCall/model/lambda_6/Tanh:0"
    name: "StatefulPartitionedCall/model/lambda_6/Tanh"
    op_type: "Tanh"
  }
  node {
    input: "StatefulPartitionedCall/model/batch_normalization_6/FusedBatchNormV3:0"
    input: "StatefulPartitionedCall/model/lambda_6/Tanh:0"
    output: "StatefulPartitionedCall/model/lambda_6/mul:0"
    name: "StatefulPartitionedCall/model/lambda_6/mul"
    op_type: "Mul"
  }
  node {
    input: "StatefulPartitionedCall/model/lambda_1/mul:0"
    input: "StatefulPartitionedCall/model/conv2d_2/Conv2D_weights_fused_bn"
    input: "StatefulPartitionedCall/model/conv2d_2/Conv2D_bias_fused_bn"
    output: "StatefulPartitionedCall/model/batch_normalization_2/FusedBatchNormV3:0"
    name: "StatefulPartitionedCall/model/conv2d_2/Conv2D"
    op_type: "Conv"
    attribute {
      name: "dilations"
      ints: 1
      ints: 1
      type: INTS
    }
    attribute {
      name: "strides"
      ints: 1
      ints: 1
      type: INTS
    }
    attribute {
      name: "kernel_shape"
      ints: 1
      ints: 1
      type: INTS
    }
    attribute {
      name: "pads"
      ints: 0
      ints: 0
      ints: 0
      ints: 0
      type: INTS
    }
  }
  node {
    input: "StatefulPartitionedCall/model/batch_normalization_2/FusedBatchNormV3:0"
    output: "StatefulPartitionedCall/model/lambda_2/Exp:0"
    name: "StatefulPartitionedCall/model/lambda_2/Exp"
    op_type: "Exp"
  }
  node {
    input: "Transpose__1378:0"
    input: "StatefulPartitionedCall/model/lambda_2/Exp:0"
    output: "StatefulPartitionedCall/model/lambda_2/add:0"
    name: "StatefulPartitionedCall/model/lambda_2/add"
    op_type: "Add"
  }
  node {
    input: "StatefulPartitionedCall/model/lambda_2/add:0"
    output: "StatefulPartitionedCall/model/lambda_2/Log:0"
    name: "StatefulPartitionedCall/model/lambda_2/Log"
    op_type: "Log"
  }
  node {
    input: "StatefulPartitionedCall/model/lambda_2/Log:0"
    output: "StatefulPartitionedCall/model/lambda_2/Tanh:0"
    name: "StatefulPartitionedCall/model/lambda_2/Tanh"
    op_type: "Tanh"
  }
  node {
    input: "StatefulPartitionedCall/model/batch_normalization_2/FusedBatchNormV3:0"
    input: "StatefulPartitionedCall/model/lambda_2/Tanh:0"
    output: "StatefulPartitionedCall/model/lambda_2/mul:0"
    name: "StatefulPartitionedCall/model/lambda_2/mul"
    op_type: "Mul"
  }
  node {
    input: "StatefulPartitionedCall/model/lambda_6/mul:0"
    input: "StatefulPartitionedCall/model/lambda_2/mul:0"
    output: "StatefulPartitionedCall/model/tf_op_layer_concat/concat:0"
    name: "StatefulPartitionedCall/model/tf_op_layer_concat/concat"
    op_type: "Concat"
    attribute {
      name: "axis"
      i: 1
      type: INT
    }
  }
  node {
    input: "StatefulPartitionedCall/model/tf_op_layer_concat/concat:0"
    input: "StatefulPartitionedCall/model/conv2d_7/Conv2D_weights_fused_bn"
    input: "StatefulPartitionedCall/model/conv2d_7/Conv2D_bias_fused_bn"
    output: "StatefulPartitionedCall/model/batch_normalization_7/FusedBatchNormV3:0"
    name: "StatefulPartitionedCall/model/conv2d_7/Conv2D"
    op_type: "Conv"
    attribute {
      name: "dilations"
      ints: 1
      ints: 1
      type: INTS
    }
    attribute {
      name: "strides"
      ints: 1
      ints: 1
      type: INTS
    }
    attribute {
      name: "kernel_shape"
      ints: 1
      ints: 1
      type: INTS
    }
    attribute {
      name: "pads"
      ints: 0
      ints: 0
      ints: 0
      ints: 0
      type: INTS
    }
  }
  node {
    input: "StatefulPartitionedCall/model/batch_normalization_7/FusedBatchNormV3:0"
    output: "StatefulPartitionedCall/model/lambda_7/Exp:0"
    name: "StatefulPartitionedCall/model/lambda_7/Exp"
    op_type: "Exp"
  }
  node {
    input: "Transpose__1378:0"
    input: "StatefulPartitionedCall/model/lambda_7/Exp:0"
    output: "StatefulPartitionedCall/model/lambda_7/add:0"
    name: "StatefulPartitionedCall/model/lambda_7/add"
    op_type: "Add"
  }
  node {
    input: "StatefulPartitionedCall/model/lambda_7/add:0"
    output: "StatefulPartitionedCall/model/lambda_7/Log:0"
    name: "StatefulPartitionedCall/model/lambda_7/Log"
    op_type: "Log"
  }
  node {
    input: "StatefulPartitionedCall/model/lambda_7/Log:0"
    output: "StatefulPartitionedCall/model/lambda_7/Tanh:0"
    name: "StatefulPartitionedCall/model/lambda_7/Tanh"
    op_type: "Tanh"
  }
  node {
    input: "StatefulPartitionedCall/model/batch_normalization_7/FusedBatchNormV3:0"
    input: "StatefulPartitionedCall/model/lambda_7/Tanh:0"
    output: "StatefulPartitionedCall/model/lambda_7/mul:0"
    name: "StatefulPartitionedCall/model/lambda_7/mul"
    op_type: "Mul"
  }
  node {
    input: "StatefulPartitionedCall/model/lambda_7/mul:0"
    input: "StatefulPartitionedCall/model/conv2d_8/Conv2D_weights_fused_bn"
    input: "StatefulPartitionedCall/model/conv2d_8/Conv2D_bias_fused_bn"
    output: "StatefulPartitionedCall/model/batch_normalization_8/FusedBatchNormV3:0"
    name: "StatefulPartitionedCall/model/conv2d_8/Conv2D"
    op_type: "Conv"
    attribute {
      name: "dilations"
      ints: 1
      ints: 1
      type: INTS
    }
    attribute {
      name: "strides"
      ints: 2
      ints: 2
      type: INTS
    }
    attribute {
      name: "kernel_shape"
      ints: 3
      ints: 3
      type: INTS
    }
    attribute {
      name: "auto_pad"
      s: "NOTSET"
      type: STRING
    }
    attribute {
      name: "pads"
      ints: 1
      ints: 1
      ints: 0
      ints: 0
      type: INTS
    }
  }
  node {
    input: "StatefulPartitionedCall/model/batch_normalization_8/FusedBatchNormV3:0"
    output: "StatefulPartitionedCall/model/lambda_8/Exp:0"
    name: "StatefulPartitionedCall/model/lambda_8/Exp"
    op_type: "Exp"
  }
  node {
    input: "Transpose__1378:0"
    input: "StatefulPartitionedCall/model/lambda_8/Exp:0"
    output: "StatefulPartitionedCall/model/lambda_8/add:0"
    name: "StatefulPartitionedCall/model/lambda_8/add"
    op_type: "Add"
  }
  node {
    input: "StatefulPartitionedCall/model/lambda_8/add:0"
    output: "StatefulPartitionedCall/model/lambda_8/Log:0"
    name: "StatefulPartitionedCall/model/lambda_8/Log"
    op_type: "Log"
  }
  node {
    input: "StatefulPartitionedCall/model/lambda_8/Log:0"
    output: "StatefulPartitionedCall/model/lambda_8/Tanh:0"
    name: "StatefulPartitionedCall/model/lambda_8/Tanh"
    op_type: "Tanh"
  }
  node {
    input: "StatefulPartitionedCall/model/batch_normalization_8/FusedBatchNormV3:0"
    input: "StatefulPartitionedCall/model/lambda_8/Tanh:0"
    output: "StatefulPartitionedCall/model/lambda_8/mul:0"
    name: "StatefulPartitionedCall/model/lambda_8/mul"
    op_type: "Mul"
  }
  node {
    input: "StatefulPartitionedCall/model/lambda_8/mul:0"
    input: "StatefulPartitionedCall/model/conv2d_9/Conv2D_weights_fused_bn"
    input: "StatefulPartitionedCall/model/conv2d_9/Conv2D_bias_fused_bn"
    output: "StatefulPartitionedCall/model/batch_normalization_9/FusedBatchNormV3:0"
    name: "StatefulPartitionedCall/model/conv2d_9/Conv2D"
    op_type: "Conv"
    attribute {
      name: "dilations"
      ints: 1
      ints: 1
      type: INTS
    }
    attribute {
      name: "strides"
      ints: 1
      ints: 1
      type: INTS
    }
    attribute {
      name: "kernel_shape"
      ints: 1
      ints: 1
      type: INTS
    }
    attribute {
      name: "pads"
      ints: 0
      ints: 0
      ints: 0
      ints: 0
      type: INTS
    }
  }
  node {
    input: "StatefulPartitionedCall/model/batch_normalization_9/FusedBatchNormV3:0"
    output: "StatefulPartitionedCall/model/lambda_9/Exp:0"
    name: "StatefulPartitionedCall/model/lambda_9/Exp"
    op_type: "Exp"
  }
  node {
    input: "Transpose__1378:0"
    input: "StatefulPartitionedCall/model/lambda_9/Exp:0"
    output: "StatefulPartitionedCall/model/lambda_9/add:0"
    name: "StatefulPartitionedCall/model/lambda_9/add"
    op_type: "Add"
  }
  node {
    input: "StatefulPartitionedCall/model/lambda_9/add:0"
    output: "StatefulPartitionedCall/model/lambda_9/Log:0"
    name: "StatefulPartitionedCall/model/lambda_9/Log"
    op_type: "Log"
  }
  node {
    input: "StatefulPartitionedCall/model/lambda_9/Log:0"
    output: "StatefulPartitionedCall/model/lambda_9/Tanh:0"
    name: "StatefulPartitionedCall/model/lambda_9/Tanh"
    op_type: "Tanh"
  }
  node {
    input: "StatefulPartitionedCall/model/batch_normalization_9/FusedBatchNormV3:0"
    input: "StatefulPartitionedCall/model/lambda_9/Tanh:0"
    output: "StatefulPartitionedCall/model/lambda_9/mul:0"
    name: "StatefulPartitionedCall/model/lambda_9/mul"
    op_type: "Mul"
  }
  node {
    input: "StatefulPartitionedCall/model/lambda_8/mul:0"
    input: "StatefulPartitionedCall/model/conv2d_10/Conv2D_weights_fused_bn"
    input: "StatefulPartitionedCall/model/conv2d_10/Conv2D_bias_fused_bn"
    output: "StatefulPartitionedCall/model/batch_normalization_10/FusedBatchNormV3:0"
    name: "StatefulPartitionedCall/model/conv2d_10/Conv2D"
    op_type: "Conv"
    attribute {
      name: "dilations"
      ints: 1
      ints: 1
      type: INTS
    }
    attribute {
      name: "strides"
      ints: 1
      ints: 1
      type: INTS
    }
    attribute {
      name: "kernel_shape"
      ints: 1
      ints: 1
      type: INTS
    }
    attribute {
      name: "pads"
      ints: 0
      ints: 0
      ints: 0
      ints: 0
      type: INTS
    }
  }
  node {
    input: "StatefulPartitionedCall/model/batch_normalization_10/FusedBatchNormV3:0"
    output: "StatefulPartitionedCall/model/lambda_10/Exp:0"
    name: "StatefulPartitionedCall/model/lambda_10/Exp"
    op_type: "Exp"
  }
  node {
    input: "Transpose__1378:0"
    input: "StatefulPartitionedCall/model/lambda_10/Exp:0"
    output: "StatefulPartitionedCall/model/lambda_10/add:0"
    name: "StatefulPartitionedCall/model/lambda_10/add"
    op_type: "Add"
  }
  node {
    input: "StatefulPartitionedCall/model/lambda_10/add:0"
    output: "StatefulPartitionedCall/model/lambda_10/Log:0"
    name: "StatefulPartitionedCall/model/lambda_10/Log"
    op_type: "Log"
  }
  node {
    input: "StatefulPartitionedCall/model/lambda_10/Log:0"
    output: "StatefulPartitionedCall/model/lambda_10/Tanh:0"
    name: "StatefulPartitionedCall/model/lambda_10/Tanh"
    op_type: "Tanh"
  }
  node {
    input: "StatefulPartitionedCall/model/batch_normalization_10/FusedBatchNormV3:0"
    input: "StatefulPartitionedCall/model/lambda_10/Tanh:0"
    output: "StatefulPartitionedCall/model/lambda_10/mul:0"
    name: "StatefulPartitionedCall/model/lambda_10/mul"
    op_type: "Mul"
  }
  node {
    input: "StatefulPartitionedCall/model/lambda_10/mul:0"
    input: "StatefulPartitionedCall/model/conv2d_11/Conv2D_weights_fused_bn"
    input: "StatefulPartitionedCall/model/conv2d_11/Conv2D_bias_fused_bn"
    output: "StatefulPartitionedCall/model/batch_normalization_11/FusedBatchNormV3:0"
    name: "StatefulPartitionedCall/model/conv2d_11/Conv2D"
    op_type: "Conv"
    attribute {
      name: "dilations"
      ints: 1
      ints: 1
      type: INTS
    }
    attribute {
      name: "strides"
      ints: 1
      ints: 1
      type: INTS
    }
    attribute {
      name: "kernel_shape"
      ints: 1
      ints: 1
      type: INTS
    }
    attribute {
      name: "pads"
      ints: 0
      ints: 0
      ints: 0
      ints: 0
      type: INTS
    }
  }
  node {
    input: "StatefulPartitionedCall/model/batch_normalization_11/FusedBatchNormV3:0"
    output: "StatefulPartitionedCall/model/lambda_11/Exp:0"
    name: "StatefulPartitionedCall/model/lambda_11/Exp"
    op_type: "Exp"
  }
  node {
    input: "Transpose__1378:0"
    input: "StatefulPartitionedCall/model/lambda_11/Exp:0"
    output: "StatefulPartitionedCall/model/lambda_11/add:0"
    name: "StatefulPartitionedCall/model/lambda_11/add"
    op_type: "Add"
  }
  node {
    input: "StatefulPartitionedCall/model/lambda_11/add:0"
    output: "StatefulPartitionedCall/model/lambda_11/Log:0"
    name: "StatefulPartitionedCall/model/lambda_11/Log"
    op_type: "Log"
  }
  node {
    input: "StatefulPartitionedCall/model/lambda_11/Log:0"
    output: "StatefulPartitionedCall/model/lambda_11/Tanh:0"
    name: "StatefulPartitionedCall/model/lambda_11/Tanh"
    op_type: "Tanh"
  }
  node {
    input: "StatefulPartitionedCall/model/batch_normalization_11/FusedBatchNormV3:0"
    input: "StatefulPartitionedCall/model/lambda_11/Tanh:0"
    output: "StatefulPartitionedCall/model/lambda_11/mul:0"
    name: "StatefulPartitionedCall/model/lambda_11/mul"
    op_type: "Mul"
  }
  node {
    input: "StatefulPartitionedCall/model/lambda_11/mul:0"
    input: "StatefulPartitionedCall/model/conv2d_12/Conv2D_weights_fused_bn"
    input: "StatefulPartitionedCall/model/conv2d_12/Conv2D_bias_fused_bn"
    output: "StatefulPartitionedCall/model/batch_normalization_12/FusedBatchNormV3:0"
    name: "StatefulPartitionedCall/model/conv2d_12/Conv2D"
    op_type: "Conv"
    attribute {
      name: "dilations"
      ints: 1
      ints: 1
      type: INTS
    }
    attribute {
      name: "strides"
      ints: 1
      ints: 1
      type: INTS
    }
    attribute {
      name: "kernel_shape"
      ints: 3
      ints: 3
      type: INTS
    }
    attribute {
      name: "pads"
      ints: 1
      ints: 1
      ints: 1
      ints: 1
      type: INTS
    }
  }
  node {
    input: "StatefulPartitionedCall/model/batch_normalization_12/FusedBatchNormV3:0"
    output: "StatefulPartitionedCall/model/lambda_12/Exp:0"
    name: "StatefulPartitionedCall/model/lambda_12/Exp"
    op_type: "Exp"
  }
  node {
    input: "Transpose__1378:0"
    input: "StatefulPartitionedCall/model/lambda_12/Exp:0"
    output: "StatefulPartitionedCall/model/lambda_12/add:0"
    name: "StatefulPartitionedCall/model/lambda_12/add"
    op_type: "Add"
  }
  node {
    input: "StatefulPartitionedCall/model/lambda_12/add:0"
    output: "StatefulPartitionedCall/model/lambda_12/Log:0"
    name: "StatefulPartitionedCall/model/lambda_12/Log"
    op_type: "Log"
  }
  node {
    input: "StatefulPartitionedCall/model/lambda_12/Log:0"
    output: "StatefulPartitionedCall/model/lambda_12/Tanh:0"
    name: "StatefulPartitionedCall/model/lambda_12/Tanh"
    op_type: "Tanh"
  }
  node {
    input: "StatefulPartitionedCall/model/batch_normalization_12/FusedBatchNormV3:0"
    input: "StatefulPartitionedCall/model/lambda_12/Tanh:0"
    output: "StatefulPartitionedCall/model/lambda_12/mul:0"
    name: "StatefulPartitionedCall/model/lambda_12/mul"
    op_type: "Mul"
  }
  node {
    input: "StatefulPartitionedCall/model/lambda_10/mul:0"
    input: "StatefulPartitionedCall/model/lambda_12/mul:0"
    output: "StatefulPartitionedCall/model/tf_op_layer_add_1/add_1:0"
    name: "StatefulPartitionedCall/model/tf_op_layer_add_1/add_1"
    op_type: "Add"
  }
  node {
    input: "StatefulPartitionedCall/model/tf_op_layer_add_1/add_1:0"
    input: "StatefulPartitionedCall/model/conv2d_13/Conv2D_weights_fused_bn"
    input: "StatefulPartitionedCall/model/conv2d_13/Conv2D_bias_fused_bn"
    output: "StatefulPartitionedCall/model/batch_normalization_13/FusedBatchNormV3:0"
    name: "StatefulPartitionedCall/model/conv2d_13/Conv2D"
    op_type: "Conv"
    attribute {
      name: "dilations"
      ints: 1
      ints: 1
      type: INTS
    }
    attribute {
      name: "strides"
      ints: 1
      ints: 1
      type: INTS
    }
    attribute {
      name: "kernel_shape"
      ints: 1
      ints: 1
      type: INTS
    }
    attribute {
      name: "pads"
      ints: 0
      ints: 0
      ints: 0
      ints: 0
      type: INTS
    }
  }
  node {
    input: "StatefulPartitionedCall/model/batch_normalization_13/FusedBatchNormV3:0"
    output: "StatefulPartitionedCall/model/lambda_13/Exp:0"
    name: "StatefulPartitionedCall/model/lambda_13/Exp"
    op_type: "Exp"
  }
  node {
    input: "Transpose__1378:0"
    input: "StatefulPartitionedCall/model/lambda_13/Exp:0"
    output: "StatefulPartitionedCall/model/lambda_13/add:0"
    name: "StatefulPartitionedCall/model/lambda_13/add"
    op_type: "Add"
  }
  node {
    input: "StatefulPartitionedCall/model/lambda_13/add:0"
    output: "StatefulPartitionedCall/model/lambda_13/Log:0"
    name: "StatefulPartitionedCall/model/lambda_13/Log"
    op_type: "Log"
  }
  node {
    input: "StatefulPartitionedCall/model/lambda_13/Log:0"
    output: "StatefulPartitionedCall/model/lambda_13/Tanh:0"
    name: "StatefulPartitionedCall/model/lambda_13/Tanh"
    op_type: "Tanh"
  }
  node {
    input: "StatefulPartitionedCall/model/batch_normalization_13/FusedBatchNormV3:0"
    input: "StatefulPartitionedCall/model/lambda_13/Tanh:0"
    output: "StatefulPartitionedCall/model/lambda_13/mul:0"
    name: "StatefulPartitionedCall/model/lambda_13/mul"
    op_type: "Mul"
  }
  node {
    input: "StatefulPartitionedCall/model/lambda_13/mul:0"
    input: "StatefulPartitionedCall/model/conv2d_14/Conv2D_weights_fused_bn"
    input: "StatefulPartitionedCall/model/conv2d_14/Conv2D_bias_fused_bn"
    output: "StatefulPartitionedCall/model/batch_normalization_14/FusedBatchNormV3:0"
    name: "StatefulPartitionedCall/model/conv2d_14/Conv2D"
    op_type: "Conv"
    attribute {
      name: "dilations"
      ints: 1
      ints: 1
      type: INTS
    }
    attribute {
      name: "strides"
      ints: 1
      ints: 1
      type: INTS
    }
    attribute {
      name: "kernel_shape"
      ints: 3
      ints: 3
      type: INTS
    }
    attribute {
      name: "pads"
      ints: 1
      ints: 1
      ints: 1
      ints: 1
      type: INTS
    }
  }
  node {
    input: "StatefulPartitionedCall/model/batch_normalization_14/FusedBatchNormV3:0"
    output: "StatefulPartitionedCall/model/lambda_14/Exp:0"
    name: "StatefulPartitionedCall/model/lambda_14/Exp"
    op_type: "Exp"
  }
  node {
    input: "Transpose__1378:0"
    input: "StatefulPartitionedCall/model/lambda_14/Exp:0"
    output: "StatefulPartitionedCall/model/lambda_14/add:0"
    name: "StatefulPartitionedCall/model/lambda_14/add"
    op_type: "Add"
  }
  node {
    input: "StatefulPartitionedCall/model/lambda_14/add:0"
    output: "StatefulPartitionedCall/model/lambda_14/Log:0"
    name: "StatefulPartitionedCall/model/lambda_14/Log"
    op_type: "Log"
  }
  node {
    input: "StatefulPartitionedCall/model/lambda_14/Log:0"
    output: "StatefulPartitionedCall/model/lambda_14/Tanh:0"
    name: "StatefulPartitionedCall/model/lambda_14/Tanh"
    op_type: "Tanh"
  }
  node {
    input: "StatefulPartitionedCall/model/batch_normalization_14/FusedBatchNormV3:0"
    input: "StatefulPartitionedCall/model/lambda_14/Tanh:0"
    output: "StatefulPartitionedCall/model/lambda_14/mul:0"
    name: "StatefulPartitionedCall/model/lambda_14/mul"
    op_type: "Mul"
  }
  node {
    input: "StatefulPartitionedCall/model/tf_op_layer_add_1/add_1:0"
    input: "StatefulPartitionedCall/model/lambda_14/mul:0"
    output: "StatefulPartitionedCall/model/tf_op_layer_add_2/add_2:0"
    name: "StatefulPartitionedCall/model/tf_op_layer_add_2/add_2"
    op_type: "Add"
  }
  node {
    input: "StatefulPartitionedCall/model/tf_op_layer_add_2/add_2:0"
    input: "StatefulPartitionedCall/model/conv2d_15/Conv2D_weights_fused_bn"
    input: "StatefulPartitionedCall/model/conv2d_15/Conv2D_bias_fused_bn"
    output: "StatefulPartitionedCall/model/batch_normalization_15/FusedBatchNormV3:0"
    name: "StatefulPartitionedCall/model/conv2d_15/Conv2D"
    op_type: "Conv"
    attribute {
      name: "dilations"
      ints: 1
      ints: 1
      type: INTS
    }
    attribute {
      name: "strides"
      ints: 1
      ints: 1
      type: INTS
    }
    attribute {
      name: "kernel_shape"
      ints: 1
      ints: 1
      type: INTS
    }
    attribute {
      name: "pads"
      ints: 0
      ints: 0
      ints: 0
      ints: 0
      type: INTS
    }
  }
  node {
    input: "StatefulPartitionedCall/model/batch_normalization_15/FusedBatchNormV3:0"
    output: "StatefulPartitionedCall/model/lambda_15/Exp:0"
    name: "StatefulPartitionedCall/model/lambda_15/Exp"
    op_type: "Exp"
  }
  node {
    input: "Transpose__1378:0"
    input: "StatefulPartitionedCall/model/lambda_15/Exp:0"
    output: "StatefulPartitionedCall/model/lambda_15/add:0"
    name: "StatefulPartitionedCall/model/lambda_15/add"
    op_type: "Add"
  }
  node {
    input: "StatefulPartitionedCall/model/lambda_15/add:0"
    output: "StatefulPartitionedCall/model/lambda_15/Log:0"
    name: "StatefulPartitionedCall/model/lambda_15/Log"
    op_type: "Log"
  }
  node {
    input: "StatefulPartitionedCall/model/lambda_15/Log:0"
    output: "StatefulPartitionedCall/model/lambda_15/Tanh:0"
    name: "StatefulPartitionedCall/model/lambda_15/Tanh"
    op_type: "Tanh"
  }
  node {
    input: "StatefulPartitionedCall/model/batch_normalization_15/FusedBatchNormV3:0"
    input: "StatefulPartitionedCall/model/lambda_15/Tanh:0"
    output: "StatefulPartitionedCall/model/lambda_15/mul:0"
    name: "StatefulPartitionedCall/model/lambda_15/mul"
    op_type: "Mul"
  }
  node {
    input: "StatefulPartitionedCall/model/lambda_15/mul:0"
    input: "StatefulPartitionedCall/model/lambda_9/mul:0"
    output: "StatefulPartitionedCall/model/tf_op_layer_concat_1/concat_1:0"
    name: "StatefulPartitionedCall/model/tf_op_layer_concat_1/concat_1"
    op_type: "Concat"
    attribute {
      name: "axis"
      i: 1
      type: INT
    }
  }
  node {
    input: "StatefulPartitionedCall/model/tf_op_layer_concat_1/concat_1:0"
    input: "StatefulPartitionedCall/model/conv2d_16/Conv2D_weights_fused_bn"
    input: "StatefulPartitionedCall/model/conv2d_16/Conv2D_bias_fused_bn"
    output: "StatefulPartitionedCall/model/batch_normalization_16/FusedBatchNormV3:0"
    name: "StatefulPartitionedCall/model/conv2d_16/Conv2D"
    op_type: "Conv"
    attribute {
      name: "dilations"
      ints: 1
      ints: 1
      type: INTS
    }
    attribute {
      name: "strides"
      ints: 1
      ints: 1
      type: INTS
    }
    attribute {
      name: "kernel_shape"
      ints: 1
      ints: 1
      type: INTS
    }
    attribute {
      name: "pads"
      ints: 0
      ints: 0
      ints: 0
      ints: 0
      type: INTS
    }
  }
  node {
    input: "StatefulPartitionedCall/model/batch_normalization_16/FusedBatchNormV3:0"
    output: "StatefulPartitionedCall/model/lambda_16/Exp:0"
    name: "StatefulPartitionedCall/model/lambda_16/Exp"
    op_type: "Exp"
  }
  node {
    input: "Transpose__1378:0"
    input: "StatefulPartitionedCall/model/lambda_16/Exp:0"
    output: "StatefulPartitionedCall/model/lambda_16/add:0"
    name: "StatefulPartitionedCall/model/lambda_16/add"
    op_type: "Add"
  }
  node {
    input: "StatefulPartitionedCall/model/lambda_16/add:0"
    output: "StatefulPartitionedCall/model/lambda_16/Log:0"
    name: "StatefulPartitionedCall/model/lambda_16/Log"
    op_type: "Log"
  }
  node {
    input: "StatefulPartitionedCall/model/lambda_16/Log:0"
    output: "StatefulPartitionedCall/model/lambda_16/Tanh:0"
    name: "StatefulPartitionedCall/model/lambda_16/Tanh"
    op_type: "Tanh"
  }
  node {
    input: "StatefulPartitionedCall/model/batch_normalization_16/FusedBatchNormV3:0"
    input: "StatefulPartitionedCall/model/lambda_16/Tanh:0"
    output: "StatefulPartitionedCall/model/lambda_16/mul:0"
    name: "StatefulPartitionedCall/model/lambda_16/mul"
    op_type: "Mul"
  }
  node {
    input: "StatefulPartitionedCall/model/lambda_16/mul:0"
    input: "StatefulPartitionedCall/model/conv2d_17/Conv2D_weights_fused_bn"
    input: "StatefulPartitionedCall/model/conv2d_17/Conv2D_bias_fused_bn"
    output: "StatefulPartitionedCall/model/batch_normalization_17/FusedBatchNormV3:0"
    name: "StatefulPartitionedCall/model/conv2d_17/Conv2D"
    op_type: "Conv"
    attribute {
      name: "dilations"
      ints: 1
      ints: 1
      type: INTS
    }
    attribute {
      name: "strides"
      ints: 2
      ints: 2
      type: INTS
    }
    attribute {
      name: "kernel_shape"
      ints: 3
      ints: 3
      type: INTS
    }
    attribute {
      name: "auto_pad"
      s: "NOTSET"
      type: STRING
    }
    attribute {
      name: "pads"
      ints: 1
      ints: 1
      ints: 0
      ints: 0
      type: INTS
    }
  }
  node {
    input: "StatefulPartitionedCall/model/batch_normalization_17/FusedBatchNormV3:0"
    output: "StatefulPartitionedCall/model/lambda_17/Exp:0"
    name: "StatefulPartitionedCall/model/lambda_17/Exp"
    op_type: "Exp"
  }
  node {
    input: "Transpose__1378:0"
    input: "StatefulPartitionedCall/model/lambda_17/Exp:0"
    output: "StatefulPartitionedCall/model/lambda_17/add:0"
    name: "StatefulPartitionedCall/model/lambda_17/add"
    op_type: "Add"
  }
  node {
    input: "StatefulPartitionedCall/model/lambda_17/add:0"
    output: "StatefulPartitionedCall/model/lambda_17/Log:0"
    name: "StatefulPartitionedCall/model/lambda_17/Log"
    op_type: "Log"
  }
  node {
    input: "StatefulPartitionedCall/model/lambda_17/Log:0"
    output: "StatefulPartitionedCall/model/lambda_17/Tanh:0"
    name: "StatefulPartitionedCall/model/lambda_17/Tanh"
    op_type: "Tanh"
  }
  node {
    input: "StatefulPartitionedCall/model/batch_normalization_17/FusedBatchNormV3:0"
    input: "StatefulPartitionedCall/model/lambda_17/Tanh:0"
    output: "StatefulPartitionedCall/model/lambda_17/mul:0"
    name: "StatefulPartitionedCall/model/lambda_17/mul"
    op_type: "Mul"
  }
  node {
    input: "StatefulPartitionedCall/model/lambda_17/mul:0"
    input: "StatefulPartitionedCall/model/conv2d_19/Conv2D_weights_fused_bn"
    input: "StatefulPartitionedCall/model/conv2d_19/Conv2D_bias_fused_bn"
    output: "StatefulPartitionedCall/model/batch_normalization_19/FusedBatchNormV3:0"
    name: "StatefulPartitionedCall/model/conv2d_19/Conv2D"
    op_type: "Conv"
    attribute {
      name: "dilations"
      ints: 1
      ints: 1
      type: INTS
    }
    attribute {
      name: "strides"
      ints: 1
      ints: 1
      type: INTS
    }
    attribute {
      name: "kernel_shape"
      ints: 1
      ints: 1
      type: INTS
    }
    attribute {
      name: "pads"
      ints: 0
      ints: 0
      ints: 0
      ints: 0
      type: INTS
    }
  }
  node {
    input: "StatefulPartitionedCall/model/batch_normalization_19/FusedBatchNormV3:0"
    output: "StatefulPartitionedCall/model/lambda_19/Exp:0"
    name: "StatefulPartitionedCall/model/lambda_19/Exp"
    op_type: "Exp"
  }
  node {
    input: "Transpose__1378:0"
    input: "StatefulPartitionedCall/model/lambda_19/Exp:0"
    output: "StatefulPartitionedCall/model/lambda_19/add:0"
    name: "StatefulPartitionedCall/model/lambda_19/add"
    op_type: "Add"
  }
  node {
    input: "StatefulPartitionedCall/model/lambda_19/add:0"
    output: "StatefulPartitionedCall/model/lambda_19/Log:0"
    name: "StatefulPartitionedCall/model/lambda_19/Log"
    op_type: "Log"
  }
  node {
    input: "StatefulPartitionedCall/model/lambda_19/Log:0"
    output: "StatefulPartitionedCall/model/lambda_19/Tanh:0"
    name: "StatefulPartitionedCall/model/lambda_19/Tanh"
    op_type: "Tanh"
  }
  node {
    input: "StatefulPartitionedCall/model/batch_normalization_19/FusedBatchNormV3:0"
    input: "StatefulPartitionedCall/model/lambda_19/Tanh:0"
    output: "StatefulPartitionedCall/model/lambda_19/mul:0"
    name: "StatefulPartitionedCall/model/lambda_19/mul"
    op_type: "Mul"
  }
  node {
    input: "StatefulPartitionedCall/model/lambda_19/mul:0"
    input: "StatefulPartitionedCall/model/conv2d_20/Conv2D_weights_fused_bn"
    input: "StatefulPartitionedCall/model/conv2d_20/Conv2D_bias_fused_bn"
    output: "StatefulPartitionedCall/model/batch_normalization_20/FusedBatchNormV3:0"
    name: "StatefulPartitionedCall/model/conv2d_20/Conv2D"
    op_type: "Conv"
    attribute {
      name: "dilations"
      ints: 1
      ints: 1
      type: INTS
    }
    attribute {
      name: "strides"
      ints: 1
      ints: 1
      type: INTS
    }
    attribute {
      name: "kernel_shape"
      ints: 1
      ints: 1
      type: INTS
    }
    attribute {
      name: "pads"
      ints: 0
      ints: 0
      ints: 0
      ints: 0
      type: INTS
    }
  }
  node {
    input: "StatefulPartitionedCall/model/batch_normalization_20/FusedBatchNormV3:0"
    output: "StatefulPartitionedCall/model/lambda_20/Exp:0"
    name: "StatefulPartitionedCall/model/lambda_20/Exp"
    op_type: "Exp"
  }
  node {
    input: "Transpose__1378:0"
    input: "StatefulPartitionedCall/model/lambda_20/Exp:0"
    output: "StatefulPartitionedCall/model/lambda_20/add:0"
    name: "StatefulPartitionedCall/model/lambda_20/add"
    op_type: "Add"
  }
  node {
    input: "StatefulPartitionedCall/model/lambda_20/add:0"
    output: "StatefulPartitionedCall/model/lambda_20/Log:0"
    name: "StatefulPartitionedCall/model/lambda_20/Log"
    op_type: "Log"
  }
  node {
    input: "StatefulPartitionedCall/model/lambda_20/Log:0"
    output: "StatefulPartitionedCall/model/lambda_20/Tanh:0"
    name: "StatefulPartitionedCall/model/lambda_20/Tanh"
    op_type: "Tanh"
  }
  node {
    input: "StatefulPartitionedCall/model/batch_normalization_20/FusedBatchNormV3:0"
    input: "StatefulPartitionedCall/model/lambda_20/Tanh:0"
    output: "StatefulPartitionedCall/model/lambda_20/mul:0"
    name: "StatefulPartitionedCall/model/lambda_20/mul"
    op_type: "Mul"
  }
  node {
    input: "StatefulPartitionedCall/model/lambda_20/mul:0"
    input: "StatefulPartitionedCall/model/conv2d_21/Conv2D_weights_fused_bn"
    input: "StatefulPartitionedCall/model/conv2d_21/Conv2D_bias_fused_bn"
    output: "StatefulPartitionedCall/model/batch_normalization_21/FusedBatchNormV3:0"
    name: "StatefulPartitionedCall/model/conv2d_21/Conv2D"
    op_type: "Conv"
    attribute {
      name: "dilations"
      ints: 1
      ints: 1
      type: INTS
    }
    attribute {
      name: "strides"
      ints: 1
      ints: 1
      type: INTS
    }
    attribute {
      name: "kernel_shape"
      ints: 3
      ints: 3
      type: INTS
    }
    attribute {
      name: "pads"
      ints: 1
      ints: 1
      ints: 1
      ints: 1
      type: INTS
    }
  }
  node {
    input: "StatefulPartitionedCall/model/batch_normalization_21/FusedBatchNormV3:0"
    output: "StatefulPartitionedCall/model/lambda_21/Exp:0"
    name: "StatefulPartitionedCall/model/lambda_21/Exp"
    op_type: "Exp"
  }
  node {
    input: "Transpose__1378:0"
    input: "StatefulPartitionedCall/model/lambda_21/Exp:0"
    output: "StatefulPartitionedCall/model/lambda_21/add:0"
    name: "StatefulPartitionedCall/model/lambda_21/add"
    op_type: "Add"
  }
  node {
    input: "StatefulPartitionedCall/model/lambda_21/add:0"
    output: "StatefulPartitionedCall/model/lambda_21/Log:0"
    name: "StatefulPartitionedCall/model/lambda_21/Log"
    op_type: "Log"
  }
  node {
    input: "StatefulPartitionedCall/model/lambda_21/Log:0"
    output: "StatefulPartitionedCall/model/lambda_21/Tanh:0"
    name: "StatefulPartitionedCall/model/lambda_21/Tanh"
    op_type: "Tanh"
  }
  node {
    input: "StatefulPartitionedCall/model/batch_normalization_21/FusedBatchNormV3:0"
    input: "StatefulPartitionedCall/model/lambda_21/Tanh:0"
    output: "StatefulPartitionedCall/model/lambda_21/mul:0"
    name: "StatefulPartitionedCall/model/lambda_21/mul"
    op_type: "Mul"
  }
  node {
    input: "StatefulPartitionedCall/model/lambda_19/mul:0"
    input: "StatefulPartitionedCall/model/lambda_21/mul:0"
    output: "StatefulPartitionedCall/model/tf_op_layer_add_3/add_3:0"
    name: "StatefulPartitionedCall/model/tf_op_layer_add_3/add_3"
    op_type: "Add"
  }
  node {
    input: "StatefulPartitionedCall/model/tf_op_layer_add_3/add_3:0"
    input: "StatefulPartitionedCall/model/conv2d_22/Conv2D_weights_fused_bn"
    input: "StatefulPartitionedCall/model/conv2d_22/Conv2D_bias_fused_bn"
    output: "StatefulPartitionedCall/model/batch_normalization_22/FusedBatchNormV3:0"
    name: "StatefulPartitionedCall/model/conv2d_22/Conv2D"
    op_type: "Conv"
    attribute {
      name: "dilations"
      ints: 1
      ints: 1
      type: INTS
    }
    attribute {
      name: "strides"
      ints: 1
      ints: 1
      type: INTS
    }
    attribute {
      name: "kernel_shape"
      ints: 1
      ints: 1
      type: INTS
    }
    attribute {
      name: "pads"
      ints: 0
      ints: 0
      ints: 0
      ints: 0
      type: INTS
    }
  }
  node {
    input: "StatefulPartitionedCall/model/batch_normalization_22/FusedBatchNormV3:0"
    output: "StatefulPartitionedCall/model/lambda_22/Exp:0"
    name: "StatefulPartitionedCall/model/lambda_22/Exp"
    op_type: "Exp"
  }
  node {
    input: "Transpose__1378:0"
    input: "StatefulPartitionedCall/model/lambda_22/Exp:0"
    output: "StatefulPartitionedCall/model/lambda_22/add:0"
    name: "StatefulPartitionedCall/model/lambda_22/add"
    op_type: "Add"
  }
  node {
    input: "StatefulPartitionedCall/model/lambda_22/add:0"
    output: "StatefulPartitionedCall/model/lambda_22/Log:0"
    name: "StatefulPartitionedCall/model/lambda_22/Log"
    op_type: "Log"
  }
  node {
    input: "StatefulPartitionedCall/model/lambda_22/Log:0"
    output: "StatefulPartitionedCall/model/lambda_22/Tanh:0"
    name: "StatefulPartitionedCall/model/lambda_22/Tanh"
    op_type: "Tanh"
  }
  node {
    input: "StatefulPartitionedCall/model/batch_normalization_22/FusedBatchNormV3:0"
    input: "StatefulPartitionedCall/model/lambda_22/Tanh:0"
    output: "StatefulPartitionedCall/model/lambda_22/mul:0"
    name: "StatefulPartitionedCall/model/lambda_22/mul"
    op_type: "Mul"
  }
  node {
    input: "StatefulPartitionedCall/model/lambda_22/mul:0"
    input: "StatefulPartitionedCall/model/conv2d_23/Conv2D_weights_fused_bn"
    input: "StatefulPartitionedCall/model/conv2d_23/Conv2D_bias_fused_bn"
    output: "StatefulPartitionedCall/model/batch_normalization_23/FusedBatchNormV3:0"
    name: "StatefulPartitionedCall/model/conv2d_23/Conv2D"
    op_type: "Conv"
    attribute {
      name: "dilations"
      ints: 1
      ints: 1
      type: INTS
    }
    attribute {
      name: "strides"
      ints: 1
      ints: 1
      type: INTS
    }
    attribute {
      name: "kernel_shape"
      ints: 3
      ints: 3
      type: INTS
    }
    attribute {
      name: "pads"
      ints: 1
      ints: 1
      ints: 1
      ints: 1
      type: INTS
    }
  }
  node {
    input: "StatefulPartitionedCall/model/batch_normalization_23/FusedBatchNormV3:0"
    output: "StatefulPartitionedCall/model/lambda_23/Exp:0"
    name: "StatefulPartitionedCall/model/lambda_23/Exp"
    op_type: "Exp"
  }
  node {
    input: "Transpose__1378:0"
    input: "StatefulPartitionedCall/model/lambda_23/Exp:0"
    output: "StatefulPartitionedCall/model/lambda_23/add:0"
    name: "StatefulPartitionedCall/model/lambda_23/add"
    op_type: "Add"
  }
  node {
    input: "StatefulPartitionedCall/model/lambda_23/add:0"
    output: "StatefulPartitionedCall/model/lambda_23/Log:0"
    name: "StatefulPartitionedCall/model/lambda_23/Log"
    op_type: "Log"
  }
  node {
    input: "StatefulPartitionedCall/model/lambda_23/Log:0"
    output: "StatefulPartitionedCall/model/lambda_23/Tanh:0"
    name: "StatefulPartitionedCall/model/lambda_23/Tanh"
    op_type: "Tanh"
  }
  node {
    input: "StatefulPartitionedCall/model/batch_normalization_23/FusedBatchNormV3:0"
    input: "StatefulPartitionedCall/model/lambda_23/Tanh:0"
    output: "StatefulPartitionedCall/model/lambda_23/mul:0"
    name: "StatefulPartitionedCall/model/lambda_23/mul"
    op_type: "Mul"
  }
  node {
    input: "StatefulPartitionedCall/model/tf_op_layer_add_3/add_3:0"
    input: "StatefulPartitionedCall/model/lambda_23/mul:0"
    output: "StatefulPartitionedCall/model/tf_op_layer_add_4/add_4:0"
    name: "StatefulPartitionedCall/model/tf_op_layer_add_4/add_4"
    op_type: "Add"
  }
  node {
    input: "StatefulPartitionedCall/model/tf_op_layer_add_4/add_4:0"
    input: "StatefulPartitionedCall/model/conv2d_24/Conv2D_weights_fused_bn"
    input: "StatefulPartitionedCall/model/conv2d_24/Conv2D_bias_fused_bn"
    output: "StatefulPartitionedCall/model/batch_normalization_24/FusedBatchNormV3:0"
    name: "StatefulPartitionedCall/model/conv2d_24/Conv2D"
    op_type: "Conv"
    attribute {
      name: "dilations"
      ints: 1
      ints: 1
      type: INTS
    }
    attribute {
      name: "strides"
      ints: 1
      ints: 1
      type: INTS
    }
    attribute {
      name: "kernel_shape"
      ints: 1
      ints: 1
      type: INTS
    }
    attribute {
      name: "pads"
      ints: 0
      ints: 0
      ints: 0
      ints: 0
      type: INTS
    }
  }
  node {
    input: "StatefulPartitionedCall/model/batch_normalization_24/FusedBatchNormV3:0"
    output: "StatefulPartitionedCall/model/lambda_24/Exp:0"
    name: "StatefulPartitionedCall/model/lambda_24/Exp"
    op_type: "Exp"
  }
  node {
    input: "Transpose__1378:0"
    input: "StatefulPartitionedCall/model/lambda_24/Exp:0"
    output: "StatefulPartitionedCall/model/lambda_24/add:0"
    name: "StatefulPartitionedCall/model/lambda_24/add"
    op_type: "Add"
  }
  node {
    input: "StatefulPartitionedCall/model/lambda_24/add:0"
    output: "StatefulPartitionedCall/model/lambda_24/Log:0"
    name: "StatefulPartitionedCall/model/lambda_24/Log"
    op_type: "Log"
  }
  node {
    input: "StatefulPartitionedCall/model/lambda_24/Log:0"
    output: "StatefulPartitionedCall/model/lambda_24/Tanh:0"
    name: "StatefulPartitionedCall/model/lambda_24/Tanh"
    op_type: "Tanh"
  }
  node {
    input: "StatefulPartitionedCall/model/batch_normalization_24/FusedBatchNormV3:0"
    input: "StatefulPartitionedCall/model/lambda_24/Tanh:0"
    output: "StatefulPartitionedCall/model/lambda_24/mul:0"
    name: "StatefulPartitionedCall/model/lambda_24/mul"
    op_type: "Mul"
  }
  node {
    input: "StatefulPartitionedCall/model/lambda_24/mul:0"
    input: "StatefulPartitionedCall/model/conv2d_25/Conv2D_weights_fused_bn"
    input: "StatefulPartitionedCall/model/conv2d_25/Conv2D_bias_fused_bn"
    output: "StatefulPartitionedCall/model/batch_normalization_25/FusedBatchNormV3:0"
    name: "StatefulPartitionedCall/model/conv2d_25/Conv2D"
    op_type: "Conv"
    attribute {
      name: "dilations"
      ints: 1
      ints: 1
      type: INTS
    }
    attribute {
      name: "strides"
      ints: 1
      ints: 1
      type: INTS
    }
    attribute {
      name: "kernel_shape"
      ints: 3
      ints: 3
      type: INTS
    }
    attribute {
      name: "pads"
      ints: 1
      ints: 1
      ints: 1
      ints: 1
      type: INTS
    }
  }
  node {
    input: "StatefulPartitionedCall/model/batch_normalization_25/FusedBatchNormV3:0"
    output: "StatefulPartitionedCall/model/lambda_25/Exp:0"
    name: "StatefulPartitionedCall/model/lambda_25/Exp"
    op_type: "Exp"
  }
  node {
    input: "Transpose__1378:0"
    input: "StatefulPartitionedCall/model/lambda_25/Exp:0"
    output: "StatefulPartitionedCall/model/lambda_25/add:0"
    name: "StatefulPartitionedCall/model/lambda_25/add"
    op_type: "Add"
  }
  node {
    input: "StatefulPartitionedCall/model/lambda_25/add:0"
    output: "StatefulPartitionedCall/model/lambda_25/Log:0"
    name: "StatefulPartitionedCall/model/lambda_25/Log"
    op_type: "Log"
  }
  node {
    input: "StatefulPartitionedCall/model/lambda_25/Log:0"
    output: "StatefulPartitionedCall/model/lambda_25/Tanh:0"
    name: "StatefulPartitionedCall/model/lambda_25/Tanh"
    op_type: "Tanh"
  }
  node {
    input: "StatefulPartitionedCall/model/batch_normalization_25/FusedBatchNormV3:0"
    input: "StatefulPartitionedCall/model/lambda_25/Tanh:0"
    output: "StatefulPartitionedCall/model/lambda_25/mul:0"
    name: "StatefulPartitionedCall/model/lambda_25/mul"
    op_type: "Mul"
  }
  node {
    input: "StatefulPartitionedCall/model/tf_op_layer_add_4/add_4:0"
    input: "StatefulPartitionedCall/model/lambda_25/mul:0"
    output: "StatefulPartitionedCall/model/tf_op_layer_add_5/add_5:0"
    name: "StatefulPartitionedCall/model/tf_op_layer_add_5/add_5"
    op_type: "Add"
  }
  node {
    input: "StatefulPartitionedCall/model/tf_op_layer_add_5/add_5:0"
    input: "StatefulPartitionedCall/model/conv2d_26/Conv2D_weights_fused_bn"
    input: "StatefulPartitionedCall/model/conv2d_26/Conv2D_bias_fused_bn"
    output: "StatefulPartitionedCall/model/batch_normalization_26/FusedBatchNormV3:0"
    name: "StatefulPartitionedCall/model/conv2d_26/Conv2D"
    op_type: "Conv"
    attribute {
      name: "dilations"
      ints: 1
      ints: 1
      type: INTS
    }
    attribute {
      name: "strides"
      ints: 1
      ints: 1
      type: INTS
    }
    attribute {
      name: "kernel_shape"
      ints: 1
      ints: 1
      type: INTS
    }
    attribute {
      name: "pads"
      ints: 0
      ints: 0
      ints: 0
      ints: 0
      type: INTS
    }
  }
  node {
    input: "StatefulPartitionedCall/model/batch_normalization_26/FusedBatchNormV3:0"
    output: "StatefulPartitionedCall/model/lambda_26/Exp:0"
    name: "StatefulPartitionedCall/model/lambda_26/Exp"
    op_type: "Exp"
  }
  node {
    input: "Transpose__1378:0"
    input: "StatefulPartitionedCall/model/lambda_26/Exp:0"
    output: "StatefulPartitionedCall/model/lambda_26/add:0"
    name: "StatefulPartitionedCall/model/lambda_26/add"
    op_type: "Add"
  }
  node {
    input: "StatefulPartitionedCall/model/lambda_26/add:0"
    output: "StatefulPartitionedCall/model/lambda_26/Log:0"
    name: "StatefulPartitionedCall/model/lambda_26/Log"
    op_type: "Log"
  }
  node {
    input: "StatefulPartitionedCall/model/lambda_26/Log:0"
    output: "StatefulPartitionedCall/model/lambda_26/Tanh:0"
    name: "StatefulPartitionedCall/model/lambda_26/Tanh"
    op_type: "Tanh"
  }
  node {
    input: "StatefulPartitionedCall/model/batch_normalization_26/FusedBatchNormV3:0"
    input: "StatefulPartitionedCall/model/lambda_26/Tanh:0"
    output: "StatefulPartitionedCall/model/lambda_26/mul:0"
    name: "StatefulPartitionedCall/model/lambda_26/mul"
    op_type: "Mul"
  }
  node {
    input: "StatefulPartitionedCall/model/lambda_26/mul:0"
    input: "StatefulPartitionedCall/model/conv2d_27/Conv2D_weights_fused_bn"
    input: "StatefulPartitionedCall/model/conv2d_27/Conv2D_bias_fused_bn"
    output: "StatefulPartitionedCall/model/batch_normalization_27/FusedBatchNormV3:0"
    name: "StatefulPartitionedCall/model/conv2d_27/Conv2D"
    op_type: "Conv"
    attribute {
      name: "dilations"
      ints: 1
      ints: 1
      type: INTS
    }
    attribute {
      name: "strides"
      ints: 1
      ints: 1
      type: INTS
    }
    attribute {
      name: "kernel_shape"
      ints: 3
      ints: 3
      type: INTS
    }
    attribute {
      name: "pads"
      ints: 1
      ints: 1
      ints: 1
      ints: 1
      type: INTS
    }
  }
  node {
    input: "StatefulPartitionedCall/model/batch_normalization_27/FusedBatchNormV3:0"
    output: "StatefulPartitionedCall/model/lambda_27/Exp:0"
    name: "StatefulPartitionedCall/model/lambda_27/Exp"
    op_type: "Exp"
  }
  node {
    input: "Transpose__1378:0"
    input: "StatefulPartitionedCall/model/lambda_27/Exp:0"
    output: "StatefulPartitionedCall/model/lambda_27/add:0"
    name: "StatefulPartitionedCall/model/lambda_27/add"
    op_type: "Add"
  }
  node {
    input: "StatefulPartitionedCall/model/lambda_27/add:0"
    output: "StatefulPartitionedCall/model/lambda_27/Log:0"
    name: "StatefulPartitionedCall/model/lambda_27/Log"
    op_type: "Log"
  }
  node {
    input: "StatefulPartitionedCall/model/lambda_27/Log:0"
    output: "StatefulPartitionedCall/model/lambda_27/Tanh:0"
    name: "StatefulPartitionedCall/model/lambda_27/Tanh"
    op_type: "Tanh"
  }
  node {
    input: "StatefulPartitionedCall/model/batch_normalization_27/FusedBatchNormV3:0"
    input: "StatefulPartitionedCall/model/lambda_27/Tanh:0"
    output: "StatefulPartitionedCall/model/lambda_27/mul:0"
    name: "StatefulPartitionedCall/model/lambda_27/mul"
    op_type: "Mul"
  }
  node {
    input: "StatefulPartitionedCall/model/tf_op_layer_add_5/add_5:0"
    input: "StatefulPartitionedCall/model/lambda_27/mul:0"
    output: "StatefulPartitionedCall/model/tf_op_layer_add_6/add_6:0"
    name: "StatefulPartitionedCall/model/tf_op_layer_add_6/add_6"
    op_type: "Add"
  }
  node {
    input: "StatefulPartitionedCall/model/tf_op_layer_add_6/add_6:0"
    input: "StatefulPartitionedCall/model/conv2d_28/Conv2D_weights_fused_bn"
    input: "StatefulPartitionedCall/model/conv2d_28/Conv2D_bias_fused_bn"
    output: "StatefulPartitionedCall/model/batch_normalization_28/FusedBatchNormV3:0"
    name: "StatefulPartitionedCall/model/conv2d_28/Conv2D"
    op_type: "Conv"
    attribute {
      name: "dilations"
      ints: 1
      ints: 1
      type: INTS
    }
    attribute {
      name: "strides"
      ints: 1
      ints: 1
      type: INTS
    }
    attribute {
      name: "kernel_shape"
      ints: 1
      ints: 1
      type: INTS
    }
    attribute {
      name: "pads"
      ints: 0
      ints: 0
      ints: 0
      ints: 0
      type: INTS
    }
  }
  node {
    input: "StatefulPartitionedCall/model/batch_normalization_28/FusedBatchNormV3:0"
    output: "StatefulPartitionedCall/model/lambda_28/Exp:0"
    name: "StatefulPartitionedCall/model/lambda_28/Exp"
    op_type: "Exp"
  }
  node {
    input: "Transpose__1378:0"
    input: "StatefulPartitionedCall/model/lambda_28/Exp:0"
    output: "StatefulPartitionedCall/model/lambda_28/add:0"
    name: "StatefulPartitionedCall/model/lambda_28/add"
    op_type: "Add"
  }
  node {
    input: "StatefulPartitionedCall/model/lambda_28/add:0"
    output: "StatefulPartitionedCall/model/lambda_28/Log:0"
    name: "StatefulPartitionedCall/model/lambda_28/Log"
    op_type: "Log"
  }
  node {
    input: "StatefulPartitionedCall/model/lambda_28/Log:0"
    output: "StatefulPartitionedCall/model/lambda_28/Tanh:0"
    name: "StatefulPartitionedCall/model/lambda_28/Tanh"
    op_type: "Tanh"
  }
  node {
    input: "StatefulPartitionedCall/model/batch_normalization_28/FusedBatchNormV3:0"
    input: "StatefulPartitionedCall/model/lambda_28/Tanh:0"
    output: "StatefulPartitionedCall/model/lambda_28/mul:0"
    name: "StatefulPartitionedCall/model/lambda_28/mul"
    op_type: "Mul"
  }
  node {
    input: "StatefulPartitionedCall/model/lambda_28/mul:0"
    input: "StatefulPartitionedCall/model/conv2d_29/Conv2D_weights_fused_bn"
    input: "StatefulPartitionedCall/model/conv2d_29/Conv2D_bias_fused_bn"
    output: "StatefulPartitionedCall/model/batch_normalization_29/FusedBatchNormV3:0"
    name: "StatefulPartitionedCall/model/conv2d_29/Conv2D"
    op_type: "Conv"
    attribute {
      name: "dilations"
      ints: 1
      ints: 1
      type: INTS
    }
    attribute {
      name: "strides"
      ints: 1
      ints: 1
      type: INTS
    }
    attribute {
      name: "kernel_shape"
      ints: 3
      ints: 3
      type: INTS
    }
    attribute {
      name: "pads"
      ints: 1
      ints: 1
      ints: 1
      ints: 1
      type: INTS
    }
  }
  node {
    input: "StatefulPartitionedCall/model/batch_normalization_29/FusedBatchNormV3:0"
    output: "StatefulPartitionedCall/model/lambda_29/Exp:0"
    name: "StatefulPartitionedCall/model/lambda_29/Exp"
    op_type: "Exp"
  }
  node {
    input: "Transpose__1378:0"
    input: "StatefulPartitionedCall/model/lambda_29/Exp:0"
    output: "StatefulPartitionedCall/model/lambda_29/add:0"
    name: "StatefulPartitionedCall/model/lambda_29/add"
    op_type: "Add"
  }
  node {
    input: "StatefulPartitionedCall/model/lambda_29/add:0"
    output: "StatefulPartitionedCall/model/lambda_29/Log:0"
    name: "StatefulPartitionedCall/model/lambda_29/Log"
    op_type: "Log"
  }
  node {
    input: "StatefulPartitionedCall/model/lambda_29/Log:0"
    output: "StatefulPartitionedCall/model/lambda_29/Tanh:0"
    name: "StatefulPartitionedCall/model/lambda_29/Tanh"
    op_type: "Tanh"
  }
  node {
    input: "StatefulPartitionedCall/model/batch_normalization_29/FusedBatchNormV3:0"
    input: "StatefulPartitionedCall/model/lambda_29/Tanh:0"
    output: "StatefulPartitionedCall/model/lambda_29/mul:0"
    name: "StatefulPartitionedCall/model/lambda_29/mul"
    op_type: "Mul"
  }
  node {
    input: "StatefulPartitionedCall/model/tf_op_layer_add_6/add_6:0"
    input: "StatefulPartitionedCall/model/lambda_29/mul:0"
    output: "StatefulPartitionedCall/model/tf_op_layer_add_7/add_7:0"
    name: "StatefulPartitionedCall/model/tf_op_layer_add_7/add_7"
    op_type: "Add"
  }
  node {
    input: "StatefulPartitionedCall/model/tf_op_layer_add_7/add_7:0"
    input: "StatefulPartitionedCall/model/conv2d_30/Conv2D_weights_fused_bn"
    input: "StatefulPartitionedCall/model/conv2d_30/Conv2D_bias_fused_bn"
    output: "StatefulPartitionedCall/model/batch_normalization_30/FusedBatchNormV3:0"
    name: "StatefulPartitionedCall/model/conv2d_30/Conv2D"
    op_type: "Conv"
    attribute {
      name: "dilations"
      ints: 1
      ints: 1
      type: INTS
    }
    attribute {
      name: "strides"
      ints: 1
      ints: 1
      type: INTS
    }
    attribute {
      name: "kernel_shape"
      ints: 1
      ints: 1
      type: INTS
    }
    attribute {
      name: "pads"
      ints: 0
      ints: 0
      ints: 0
      ints: 0
      type: INTS
    }
  }
  node {
    input: "StatefulPartitionedCall/model/batch_normalization_30/FusedBatchNormV3:0"
    output: "StatefulPartitionedCall/model/lambda_30/Exp:0"
    name: "StatefulPartitionedCall/model/lambda_30/Exp"
    op_type: "Exp"
  }
  node {
    input: "Transpose__1378:0"
    input: "StatefulPartitionedCall/model/lambda_30/Exp:0"
    output: "StatefulPartitionedCall/model/lambda_30/add:0"
    name: "StatefulPartitionedCall/model/lambda_30/add"
    op_type: "Add"
  }
  node {
    input: "StatefulPartitionedCall/model/lambda_30/add:0"
    output: "StatefulPartitionedCall/model/lambda_30/Log:0"
    name: "StatefulPartitionedCall/model/lambda_30/Log"
    op_type: "Log"
  }
  node {
    input: "StatefulPartitionedCall/model/lambda_30/Log:0"
    output: "StatefulPartitionedCall/model/lambda_30/Tanh:0"
    name: "StatefulPartitionedCall/model/lambda_30/Tanh"
    op_type: "Tanh"
  }
  node {
    input: "StatefulPartitionedCall/model/batch_normalization_30/FusedBatchNormV3:0"
    input: "StatefulPartitionedCall/model/lambda_30/Tanh:0"
    output: "StatefulPartitionedCall/model/lambda_30/mul:0"
    name: "StatefulPartitionedCall/model/lambda_30/mul"
    op_type: "Mul"
  }
  node {
    input: "StatefulPartitionedCall/model/lambda_30/mul:0"
    input: "StatefulPartitionedCall/model/conv2d_31/Conv2D_weights_fused_bn"
    input: "StatefulPartitionedCall/model/conv2d_31/Conv2D_bias_fused_bn"
    output: "StatefulPartitionedCall/model/batch_normalization_31/FusedBatchNormV3:0"
    name: "StatefulPartitionedCall/model/conv2d_31/Conv2D"
    op_type: "Conv"
    attribute {
      name: "dilations"
      ints: 1
      ints: 1
      type: INTS
    }
    attribute {
      name: "strides"
      ints: 1
      ints: 1
      type: INTS
    }
    attribute {
      name: "kernel_shape"
      ints: 3
      ints: 3
      type: INTS
    }
    attribute {
      name: "pads"
      ints: 1
      ints: 1
      ints: 1
      ints: 1
      type: INTS
    }
  }
  node {
    input: "StatefulPartitionedCall/model/batch_normalization_31/FusedBatchNormV3:0"
    output: "StatefulPartitionedCall/model/lambda_31/Exp:0"
    name: "StatefulPartitionedCall/model/lambda_31/Exp"
    op_type: "Exp"
  }
  node {
    input: "Transpose__1378:0"
    input: "StatefulPartitionedCall/model/lambda_31/Exp:0"
    output: "StatefulPartitionedCall/model/lambda_31/add:0"
    name: "StatefulPartitionedCall/model/lambda_31/add"
    op_type: "Add"
  }
  node {
    input: "StatefulPartitionedCall/model/lambda_31/add:0"
    output: "StatefulPartitionedCall/model/lambda_31/Log:0"
    name: "StatefulPartitionedCall/model/lambda_31/Log"
    op_type: "Log"
  }
  node {
    input: "StatefulPartitionedCall/model/lambda_31/Log:0"
    output: "StatefulPartitionedCall/model/lambda_31/Tanh:0"
    name: "StatefulPartitionedCall/model/lambda_31/Tanh"
    op_type: "Tanh"
  }
  node {
    input: "StatefulPartitionedCall/model/batch_normalization_31/FusedBatchNormV3:0"
    input: "StatefulPartitionedCall/model/lambda_31/Tanh:0"
    output: "StatefulPartitionedCall/model/lambda_31/mul:0"
    name: "StatefulPartitionedCall/model/lambda_31/mul"
    op_type: "Mul"
  }
  node {
    input: "StatefulPartitionedCall/model/tf_op_layer_add_7/add_7:0"
    input: "StatefulPartitionedCall/model/lambda_31/mul:0"
    output: "StatefulPartitionedCall/model/tf_op_layer_add_8/add_8:0"
    name: "StatefulPartitionedCall/model/tf_op_layer_add_8/add_8"
    op_type: "Add"
  }
  node {
    input: "StatefulPartitionedCall/model/tf_op_layer_add_8/add_8:0"
    input: "StatefulPartitionedCall/model/conv2d_32/Conv2D_weights_fused_bn"
    input: "StatefulPartitionedCall/model/conv2d_32/Conv2D_bias_fused_bn"
    output: "StatefulPartitionedCall/model/batch_normalization_32/FusedBatchNormV3:0"
    name: "StatefulPartitionedCall/model/conv2d_32/Conv2D"
    op_type: "Conv"
    attribute {
      name: "dilations"
      ints: 1
      ints: 1
      type: INTS
    }
    attribute {
      name: "strides"
      ints: 1
      ints: 1
      type: INTS
    }
    attribute {
      name: "kernel_shape"
      ints: 1
      ints: 1
      type: INTS
    }
    attribute {
      name: "pads"
      ints: 0
      ints: 0
      ints: 0
      ints: 0
      type: INTS
    }
  }
  node {
    input: "StatefulPartitionedCall/model/batch_normalization_32/FusedBatchNormV3:0"
    output: "StatefulPartitionedCall/model/lambda_32/Exp:0"
    name: "StatefulPartitionedCall/model/lambda_32/Exp"
    op_type: "Exp"
  }
  node {
    input: "Transpose__1378:0"
    input: "StatefulPartitionedCall/model/lambda_32/Exp:0"
    output: "StatefulPartitionedCall/model/lambda_32/add:0"
    name: "StatefulPartitionedCall/model/lambda_32/add"
    op_type: "Add"
  }
  node {
    input: "StatefulPartitionedCall/model/lambda_32/add:0"
    output: "StatefulPartitionedCall/model/lambda_32/Log:0"
    name: "StatefulPartitionedCall/model/lambda_32/Log"
    op_type: "Log"
  }
  node {
    input: "StatefulPartitionedCall/model/lambda_32/Log:0"
    output: "StatefulPartitionedCall/model/lambda_32/Tanh:0"
    name: "StatefulPartitionedCall/model/lambda_32/Tanh"
    op_type: "Tanh"
  }
  node {
    input: "StatefulPartitionedCall/model/batch_normalization_32/FusedBatchNormV3:0"
    input: "StatefulPartitionedCall/model/lambda_32/Tanh:0"
    output: "StatefulPartitionedCall/model/lambda_32/mul:0"
    name: "StatefulPartitionedCall/model/lambda_32/mul"
    op_type: "Mul"
  }
  node {
    input: "StatefulPartitionedCall/model/lambda_32/mul:0"
    input: "StatefulPartitionedCall/model/conv2d_33/Conv2D_weights_fused_bn"
    input: "StatefulPartitionedCall/model/conv2d_33/Conv2D_bias_fused_bn"
    output: "StatefulPartitionedCall/model/batch_normalization_33/FusedBatchNormV3:0"
    name: "StatefulPartitionedCall/model/conv2d_33/Conv2D"
    op_type: "Conv"
    attribute {
      name: "dilations"
      ints: 1
      ints: 1
      type: INTS
    }
    attribute {
      name: "strides"
      ints: 1
      ints: 1
      type: INTS
    }
    attribute {
      name: "kernel_shape"
      ints: 3
      ints: 3
      type: INTS
    }
    attribute {
      name: "pads"
      ints: 1
      ints: 1
      ints: 1
      ints: 1
      type: INTS
    }
  }
  node {
    input: "StatefulPartitionedCall/model/batch_normalization_33/FusedBatchNormV3:0"
    output: "StatefulPartitionedCall/model/lambda_33/Exp:0"
    name: "StatefulPartitionedCall/model/lambda_33/Exp"
    op_type: "Exp"
  }
  node {
    input: "Transpose__1378:0"
    input: "StatefulPartitionedCall/model/lambda_33/Exp:0"
    output: "StatefulPartitionedCall/model/lambda_33/add:0"
    name: "StatefulPartitionedCall/model/lambda_33/add"
    op_type: "Add"
  }
  node {
    input: "StatefulPartitionedCall/model/lambda_33/add:0"
    output: "StatefulPartitionedCall/model/lambda_33/Log:0"
    name: "StatefulPartitionedCall/model/lambda_33/Log"
    op_type: "Log"
  }
  node {
    input: "StatefulPartitionedCall/model/lambda_33/Log:0"
    output: "StatefulPartitionedCall/model/lambda_33/Tanh:0"
    name: "StatefulPartitionedCall/model/lambda_33/Tanh"
    op_type: "Tanh"
  }
  node {
    input: "StatefulPartitionedCall/model/batch_normalization_33/FusedBatchNormV3:0"
    input: "StatefulPartitionedCall/model/lambda_33/Tanh:0"
    output: "StatefulPartitionedCall/model/lambda_33/mul:0"
    name: "StatefulPartitionedCall/model/lambda_33/mul"
    op_type: "Mul"
  }
  node {
    input: "StatefulPartitionedCall/model/tf_op_layer_add_8/add_8:0"
    input: "StatefulPartitionedCall/model/lambda_33/mul:0"
    output: "StatefulPartitionedCall/model/tf_op_layer_add_9/add_9:0"
    name: "StatefulPartitionedCall/model/tf_op_layer_add_9/add_9"
    op_type: "Add"
  }
  node {
    input: "StatefulPartitionedCall/model/tf_op_layer_add_9/add_9:0"
    input: "StatefulPartitionedCall/model/conv2d_34/Conv2D_weights_fused_bn"
    input: "StatefulPartitionedCall/model/conv2d_34/Conv2D_bias_fused_bn"
    output: "StatefulPartitionedCall/model/batch_normalization_34/FusedBatchNormV3:0"
    name: "StatefulPartitionedCall/model/conv2d_34/Conv2D"
    op_type: "Conv"
    attribute {
      name: "dilations"
      ints: 1
      ints: 1
      type: INTS
    }
    attribute {
      name: "strides"
      ints: 1
      ints: 1
      type: INTS
    }
    attribute {
      name: "kernel_shape"
      ints: 1
      ints: 1
      type: INTS
    }
    attribute {
      name: "pads"
      ints: 0
      ints: 0
      ints: 0
      ints: 0
      type: INTS
    }
  }
  node {
    input: "StatefulPartitionedCall/model/batch_normalization_34/FusedBatchNormV3:0"
    output: "StatefulPartitionedCall/model/lambda_34/Exp:0"
    name: "StatefulPartitionedCall/model/lambda_34/Exp"
    op_type: "Exp"
  }
  node {
    input: "Transpose__1378:0"
    input: "StatefulPartitionedCall/model/lambda_34/Exp:0"
    output: "StatefulPartitionedCall/model/lambda_34/add:0"
    name: "StatefulPartitionedCall/model/lambda_34/add"
    op_type: "Add"
  }
  node {
    input: "StatefulPartitionedCall/model/lambda_34/add:0"
    output: "StatefulPartitionedCall/model/lambda_34/Log:0"
    name: "StatefulPartitionedCall/model/lambda_34/Log"
    op_type: "Log"
  }
  node {
    input: "StatefulPartitionedCall/model/lambda_34/Log:0"
    output: "StatefulPartitionedCall/model/lambda_34/Tanh:0"
    name: "StatefulPartitionedCall/model/lambda_34/Tanh"
    op_type: "Tanh"
  }
  node {
    input: "StatefulPartitionedCall/model/batch_normalization_34/FusedBatchNormV3:0"
    input: "StatefulPartitionedCall/model/lambda_34/Tanh:0"
    output: "StatefulPartitionedCall/model/lambda_34/mul:0"
    name: "StatefulPartitionedCall/model/lambda_34/mul"
    op_type: "Mul"
  }
  node {
    input: "StatefulPartitionedCall/model/lambda_34/mul:0"
    input: "StatefulPartitionedCall/model/conv2d_35/Conv2D_weights_fused_bn"
    input: "StatefulPartitionedCall/model/conv2d_35/Conv2D_bias_fused_bn"
    output: "StatefulPartitionedCall/model/batch_normalization_35/FusedBatchNormV3:0"
    name: "StatefulPartitionedCall/model/conv2d_35/Conv2D"
    op_type: "Conv"
    attribute {
      name: "dilations"
      ints: 1
      ints: 1
      type: INTS
    }
    attribute {
      name: "strides"
      ints: 1
      ints: 1
      type: INTS
    }
    attribute {
      name: "kernel_shape"
      ints: 3
      ints: 3
      type: INTS
    }
    attribute {
      name: "pads"
      ints: 1
      ints: 1
      ints: 1
      ints: 1
      type: INTS
    }
  }
  node {
    input: "StatefulPartitionedCall/model/batch_normalization_35/FusedBatchNormV3:0"
    output: "StatefulPartitionedCall/model/lambda_35/Exp:0"
    name: "StatefulPartitionedCall/model/lambda_35/Exp"
    op_type: "Exp"
  }
  node {
    input: "Transpose__1378:0"
    input: "StatefulPartitionedCall/model/lambda_35/Exp:0"
    output: "StatefulPartitionedCall/model/lambda_35/add:0"
    name: "StatefulPartitionedCall/model/lambda_35/add"
    op_type: "Add"
  }
  node {
    input: "StatefulPartitionedCall/model/lambda_35/add:0"
    output: "StatefulPartitionedCall/model/lambda_35/Log:0"
    name: "StatefulPartitionedCall/model/lambda_35/Log"
    op_type: "Log"
  }
  node {
    input: "StatefulPartitionedCall/model/lambda_35/Log:0"
    output: "StatefulPartitionedCall/model/lambda_35/Tanh:0"
    name: "StatefulPartitionedCall/model/lambda_35/Tanh"
    op_type: "Tanh"
  }
  node {
    input: "StatefulPartitionedCall/model/batch_normalization_35/FusedBatchNormV3:0"
    input: "StatefulPartitionedCall/model/lambda_35/Tanh:0"
    output: "StatefulPartitionedCall/model/lambda_35/mul:0"
    name: "StatefulPartitionedCall/model/lambda_35/mul"
    op_type: "Mul"
  }
  node {
    input: "StatefulPartitionedCall/model/tf_op_layer_add_9/add_9:0"
    input: "StatefulPartitionedCall/model/lambda_35/mul:0"
    output: "StatefulPartitionedCall/model/tf_op_layer_add_10/add_10:0"
    name: "StatefulPartitionedCall/model/tf_op_layer_add_10/add_10"
    op_type: "Add"
  }
  node {
    input: "StatefulPartitionedCall/model/tf_op_layer_add_10/add_10:0"
    input: "StatefulPartitionedCall/model/conv2d_36/Conv2D_weights_fused_bn"
    input: "StatefulPartitionedCall/model/conv2d_36/Conv2D_bias_fused_bn"
    output: "StatefulPartitionedCall/model/batch_normalization_36/FusedBatchNormV3:0"
    name: "StatefulPartitionedCall/model/conv2d_36/Conv2D"
    op_type: "Conv"
    attribute {
      name: "dilations"
      ints: 1
      ints: 1
      type: INTS
    }
    attribute {
      name: "strides"
      ints: 1
      ints: 1
      type: INTS
    }
    attribute {
      name: "kernel_shape"
      ints: 1
      ints: 1
      type: INTS
    }
    attribute {
      name: "pads"
      ints: 0
      ints: 0
      ints: 0
      ints: 0
      type: INTS
    }
  }
  node {
    input: "StatefulPartitionedCall/model/batch_normalization_36/FusedBatchNormV3:0"
    output: "StatefulPartitionedCall/model/lambda_36/Exp:0"
    name: "StatefulPartitionedCall/model/lambda_36/Exp"
    op_type: "Exp"
  }
  node {
    input: "Transpose__1378:0"
    input: "StatefulPartitionedCall/model/lambda_36/Exp:0"
    output: "StatefulPartitionedCall/model/lambda_36/add:0"
    name: "StatefulPartitionedCall/model/lambda_36/add"
    op_type: "Add"
  }
  node {
    input: "StatefulPartitionedCall/model/lambda_36/add:0"
    output: "StatefulPartitionedCall/model/lambda_36/Log:0"
    name: "StatefulPartitionedCall/model/lambda_36/Log"
    op_type: "Log"
  }
  node {
    input: "StatefulPartitionedCall/model/lambda_36/Log:0"
    output: "StatefulPartitionedCall/model/lambda_36/Tanh:0"
    name: "StatefulPartitionedCall/model/lambda_36/Tanh"
    op_type: "Tanh"
  }
  node {
    input: "StatefulPartitionedCall/model/batch_normalization_36/FusedBatchNormV3:0"
    input: "StatefulPartitionedCall/model/lambda_36/Tanh:0"
    output: "StatefulPartitionedCall/model/lambda_36/mul:0"
    name: "StatefulPartitionedCall/model/lambda_36/mul"
    op_type: "Mul"
  }
  node {
    input: "StatefulPartitionedCall/model/lambda_17/mul:0"
    input: "StatefulPartitionedCall/model/conv2d_18/Conv2D_weights_fused_bn"
    input: "StatefulPartitionedCall/model/conv2d_18/Conv2D_bias_fused_bn"
    output: "StatefulPartitionedCall/model/batch_normalization_18/FusedBatchNormV3:0"
    name: "StatefulPartitionedCall/model/conv2d_18/Conv2D"
    op_type: "Conv"
    attribute {
      name: "dilations"
      ints: 1
      ints: 1
      type: INTS
    }
    attribute {
      name: "strides"
      ints: 1
      ints: 1
      type: INTS
    }
    attribute {
      name: "kernel_shape"
      ints: 1
      ints: 1
      type: INTS
    }
    attribute {
      name: "pads"
      ints: 0
      ints: 0
      ints: 0
      ints: 0
      type: INTS
    }
  }
  node {
    input: "StatefulPartitionedCall/model/batch_normalization_18/FusedBatchNormV3:0"
    output: "StatefulPartitionedCall/model/lambda_18/Exp:0"
    name: "StatefulPartitionedCall/model/lambda_18/Exp"
    op_type: "Exp"
  }
  node {
    input: "Transpose__1378:0"
    input: "StatefulPartitionedCall/model/lambda_18/Exp:0"
    output: "StatefulPartitionedCall/model/lambda_18/add:0"
    name: "StatefulPartitionedCall/model/lambda_18/add"
    op_type: "Add"
  }
  node {
    input: "StatefulPartitionedCall/model/lambda_18/add:0"
    output: "StatefulPartitionedCall/model/lambda_18/Log:0"
    name: "StatefulPartitionedCall/model/lambda_18/Log"
    op_type: "Log"
  }
  node {
    input: "StatefulPartitionedCall/model/lambda_18/Log:0"
    output: "StatefulPartitionedCall/model/lambda_18/Tanh:0"
    name: "StatefulPartitionedCall/model/lambda_18/Tanh"
    op_type: "Tanh"
  }
  node {
    input: "StatefulPartitionedCall/model/batch_normalization_18/FusedBatchNormV3:0"
    input: "StatefulPartitionedCall/model/lambda_18/Tanh:0"
    output: "StatefulPartitionedCall/model/lambda_18/mul:0"
    name: "StatefulPartitionedCall/model/lambda_18/mul"
    op_type: "Mul"
  }
  node {
    input: "StatefulPartitionedCall/model/lambda_36/mul:0"
    input: "StatefulPartitionedCall/model/lambda_18/mul:0"
    output: "StatefulPartitionedCall/model/tf_op_layer_concat_2/concat_2:0"
    name: "StatefulPartitionedCall/model/tf_op_layer_concat_2/concat_2"
    op_type: "Concat"
    attribute {
      name: "axis"
      i: 1
      type: INT
    }
  }
  node {
    input: "StatefulPartitionedCall/model/tf_op_layer_concat_2/concat_2:0"
    input: "StatefulPartitionedCall/model/conv2d_37/Conv2D_weights_fused_bn"
    input: "StatefulPartitionedCall/model/conv2d_37/Conv2D_bias_fused_bn"
    output: "StatefulPartitionedCall/model/batch_normalization_37/FusedBatchNormV3:0"
    name: "StatefulPartitionedCall/model/conv2d_37/Conv2D"
    op_type: "Conv"
    attribute {
      name: "dilations"
      ints: 1
      ints: 1
      type: INTS
    }
    attribute {
      name: "strides"
      ints: 1
      ints: 1
      type: INTS
    }
    attribute {
      name: "kernel_shape"
      ints: 1
      ints: 1
      type: INTS
    }
    attribute {
      name: "pads"
      ints: 0
      ints: 0
      ints: 0
      ints: 0
      type: INTS
    }
  }
  node {
    input: "StatefulPartitionedCall/model/batch_normalization_37/FusedBatchNormV3:0"
    output: "StatefulPartitionedCall/model/lambda_37/Exp:0"
    name: "StatefulPartitionedCall/model/lambda_37/Exp"
    op_type: "Exp"
  }
  node {
    input: "Transpose__1378:0"
    input: "StatefulPartitionedCall/model/lambda_37/Exp:0"
    output: "StatefulPartitionedCall/model/lambda_37/add:0"
    name: "StatefulPartitionedCall/model/lambda_37/add"
    op_type: "Add"
  }
  node {
    input: "StatefulPartitionedCall/model/lambda_37/add:0"
    output: "StatefulPartitionedCall/model/lambda_37/Log:0"
    name: "StatefulPartitionedCall/model/lambda_37/Log"
    op_type: "Log"
  }
  node {
    input: "StatefulPartitionedCall/model/lambda_37/Log:0"
    output: "StatefulPartitionedCall/model/lambda_37/Tanh:0"
    name: "StatefulPartitionedCall/model/lambda_37/Tanh"
    op_type: "Tanh"
  }
  node {
    input: "StatefulPartitionedCall/model/batch_normalization_37/FusedBatchNormV3:0"
    input: "StatefulPartitionedCall/model/lambda_37/Tanh:0"
    output: "StatefulPartitionedCall/model/lambda_37/mul:0"
    name: "StatefulPartitionedCall/model/lambda_37/mul"
    op_type: "Mul"
  }
  node {
    input: "StatefulPartitionedCall/model/lambda_37/mul:0"
    input: "StatefulPartitionedCall/model/conv2d_86/Conv2D_weights_fused_bn"
    input: "StatefulPartitionedCall/model/conv2d_86/Conv2D_bias_fused_bn"
    output: "StatefulPartitionedCall/model/batch_normalization_86/FusedBatchNormV3:0"
    name: "StatefulPartitionedCall/model/conv2d_86/Conv2D"
    op_type: "Conv"
    attribute {
      name: "dilations"
      ints: 1
      ints: 1
      type: INTS
    }
    attribute {
      name: "strides"
      ints: 1
      ints: 1
      type: INTS
    }
    attribute {
      name: "kernel_shape"
      ints: 1
      ints: 1
      type: INTS
    }
    attribute {
      name: "pads"
      ints: 0
      ints: 0
      ints: 0
      ints: 0
      type: INTS
    }
  }
  node {
    input: "StatefulPartitionedCall/model/batch_normalization_86/FusedBatchNormV3:0"
    output: "StatefulPartitionedCall/model/tf_op_layer_LeakyRelu_14/LeakyRelu_14:0"
    name: "StatefulPartitionedCall/model/tf_op_layer_LeakyRelu_14/LeakyRelu_14"
    op_type: "LeakyRelu"
    attribute {
      name: "alpha"
      f: 0.1
      type: FLOAT
    }
  }
  node {
    input: "StatefulPartitionedCall/model/lambda_37/mul:0"
    input: "StatefulPartitionedCall/model/conv2d_38/Conv2D_weights_fused_bn"
    input: "StatefulPartitionedCall/model/conv2d_38/Conv2D_bias_fused_bn"
    output: "StatefulPartitionedCall/model/batch_normalization_38/FusedBatchNormV3:0"
    name: "StatefulPartitionedCall/model/conv2d_38/Conv2D"
    op_type: "Conv"
    attribute {
      name: "dilations"
      ints: 1
      ints: 1
      type: INTS
    }
    attribute {
      name: "strides"
      ints: 2
      ints: 2
      type: INTS
    }
    attribute {
      name: "kernel_shape"
      ints: 3
      ints: 3
      type: INTS
    }
    attribute {
      name: "auto_pad"
      s: "NOTSET"
      type: STRING
    }
    attribute {
      name: "pads"
      ints: 1
      ints: 1
      ints: 0
      ints: 0
      type: INTS
    }
  }
  node {
    input: "StatefulPartitionedCall/model/batch_normalization_38/FusedBatchNormV3:0"
    output: "StatefulPartitionedCall/model/lambda_38/Exp:0"
    name: "StatefulPartitionedCall/model/lambda_38/Exp"
    op_type: "Exp"
  }
  node {
    input: "Transpose__1378:0"
    input: "StatefulPartitionedCall/model/lambda_38/Exp:0"
    output: "StatefulPartitionedCall/model/lambda_38/add:0"
    name: "StatefulPartitionedCall/model/lambda_38/add"
    op_type: "Add"
  }
  node {
    input: "StatefulPartitionedCall/model/lambda_38/add:0"
    output: "StatefulPartitionedCall/model/lambda_38/Log:0"
    name: "StatefulPartitionedCall/model/lambda_38/Log"
    op_type: "Log"
  }
  node {
    input: "StatefulPartitionedCall/model/lambda_38/Log:0"
    output: "StatefulPartitionedCall/model/lambda_38/Tanh:0"
    name: "StatefulPartitionedCall/model/lambda_38/Tanh"
    op_type: "Tanh"
  }
  node {
    input: "StatefulPartitionedCall/model/batch_normalization_38/FusedBatchNormV3:0"
    input: "StatefulPartitionedCall/model/lambda_38/Tanh:0"
    output: "StatefulPartitionedCall/model/lambda_38/mul:0"
    name: "StatefulPartitionedCall/model/lambda_38/mul"
    op_type: "Mul"
  }
  node {
    input: "StatefulPartitionedCall/model/lambda_38/mul:0"
    input: "StatefulPartitionedCall/model/conv2d_40/Conv2D_weights_fused_bn"
    input: "StatefulPartitionedCall/model/conv2d_40/Conv2D_bias_fused_bn"
    output: "StatefulPartitionedCall/model/batch_normalization_40/FusedBatchNormV3:0"
    name: "StatefulPartitionedCall/model/conv2d_40/Conv2D"
    op_type: "Conv"
    attribute {
      name: "dilations"
      ints: 1
      ints: 1
      type: INTS
    }
    attribute {
      name: "strides"
      ints: 1
      ints: 1
      type: INTS
    }
    attribute {
      name: "kernel_shape"
      ints: 1
      ints: 1
      type: INTS
    }
    attribute {
      name: "pads"
      ints: 0
      ints: 0
      ints: 0
      ints: 0
      type: INTS
    }
  }
  node {
    input: "StatefulPartitionedCall/model/batch_normalization_40/FusedBatchNormV3:0"
    output: "StatefulPartitionedCall/model/lambda_40/Exp:0"
    name: "StatefulPartitionedCall/model/lambda_40/Exp"
    op_type: "Exp"
  }
  node {
    input: "Transpose__1378:0"
    input: "StatefulPartitionedCall/model/lambda_40/Exp:0"
    output: "StatefulPartitionedCall/model/lambda_40/add:0"
    name: "StatefulPartitionedCall/model/lambda_40/add"
    op_type: "Add"
  }
  node {
    input: "StatefulPartitionedCall/model/lambda_40/add:0"
    output: "StatefulPartitionedCall/model/lambda_40/Log:0"
    name: "StatefulPartitionedCall/model/lambda_40/Log"
    op_type: "Log"
  }
  node {
    input: "StatefulPartitionedCall/model/lambda_40/Log:0"
    output: "StatefulPartitionedCall/model/lambda_40/Tanh:0"
    name: "StatefulPartitionedCall/model/lambda_40/Tanh"
    op_type: "Tanh"
  }
  node {
    input: "StatefulPartitionedCall/model/batch_normalization_40/FusedBatchNormV3:0"
    input: "StatefulPartitionedCall/model/lambda_40/Tanh:0"
    output: "StatefulPartitionedCall/model/lambda_40/mul:0"
    name: "StatefulPartitionedCall/model/lambda_40/mul"
    op_type: "Mul"
  }
  node {
    input: "StatefulPartitionedCall/model/lambda_40/mul:0"
    input: "StatefulPartitionedCall/model/conv2d_41/Conv2D_weights_fused_bn"
    input: "StatefulPartitionedCall/model/conv2d_41/Conv2D_bias_fused_bn"
    output: "StatefulPartitionedCall/model/batch_normalization_41/FusedBatchNormV3:0"
    name: "StatefulPartitionedCall/model/conv2d_41/Conv2D"
    op_type: "Conv"
    attribute {
      name: "dilations"
      ints: 1
      ints: 1
      type: INTS
    }
    attribute {
      name: "strides"
      ints: 1
      ints: 1
      type: INTS
    }
    attribute {
      name: "kernel_shape"
      ints: 1
      ints: 1
      type: INTS
    }
    attribute {
      name: "pads"
      ints: 0
      ints: 0
      ints: 0
      ints: 0
      type: INTS
    }
  }
  node {
    input: "StatefulPartitionedCall/model/batch_normalization_41/FusedBatchNormV3:0"
    output: "StatefulPartitionedCall/model/lambda_41/Exp:0"
    name: "StatefulPartitionedCall/model/lambda_41/Exp"
    op_type: "Exp"
  }
  node {
    input: "Transpose__1378:0"
    input: "StatefulPartitionedCall/model/lambda_41/Exp:0"
    output: "StatefulPartitionedCall/model/lambda_41/add:0"
    name: "StatefulPartitionedCall/model/lambda_41/add"
    op_type: "Add"
  }
  node {
    input: "StatefulPartitionedCall/model/lambda_41/add:0"
    output: "StatefulPartitionedCall/model/lambda_41/Log:0"
    name: "StatefulPartitionedCall/model/lambda_41/Log"
    op_type: "Log"
  }
  node {
    input: "StatefulPartitionedCall/model/lambda_41/Log:0"
    output: "StatefulPartitionedCall/model/lambda_41/Tanh:0"
    name: "StatefulPartitionedCall/model/lambda_41/Tanh"
    op_type: "Tanh"
  }
  node {
    input: "StatefulPartitionedCall/model/batch_normalization_41/FusedBatchNormV3:0"
    input: "StatefulPartitionedCall/model/lambda_41/Tanh:0"
    output: "StatefulPartitionedCall/model/lambda_41/mul:0"
    name: "StatefulPartitionedCall/model/lambda_41/mul"
    op_type: "Mul"
  }
  node {
    input: "StatefulPartitionedCall/model/lambda_41/mul:0"
    input: "StatefulPartitionedCall/model/conv2d_42/Conv2D_weights_fused_bn"
    input: "StatefulPartitionedCall/model/conv2d_42/Conv2D_bias_fused_bn"
    output: "StatefulPartitionedCall/model/batch_normalization_42/FusedBatchNormV3:0"
    name: "StatefulPartitionedCall/model/conv2d_42/Conv2D"
    op_type: "Conv"
    attribute {
      name: "dilations"
      ints: 1
      ints: 1
      type: INTS
    }
    attribute {
      name: "strides"
      ints: 1
      ints: 1
      type: INTS
    }
    attribute {
      name: "kernel_shape"
      ints: 3
      ints: 3
      type: INTS
    }
    attribute {
      name: "pads"
      ints: 1
      ints: 1
      ints: 1
      ints: 1
      type: INTS
    }
  }
  node {
    input: "StatefulPartitionedCall/model/batch_normalization_42/FusedBatchNormV3:0"
    output: "StatefulPartitionedCall/model/lambda_42/Exp:0"
    name: "StatefulPartitionedCall/model/lambda_42/Exp"
    op_type: "Exp"
  }
  node {
    input: "Transpose__1378:0"
    input: "StatefulPartitionedCall/model/lambda_42/Exp:0"
    output: "StatefulPartitionedCall/model/lambda_42/add:0"
    name: "StatefulPartitionedCall/model/lambda_42/add"
    op_type: "Add"
  }
  node {
    input: "StatefulPartitionedCall/model/lambda_42/add:0"
    output: "StatefulPartitionedCall/model/lambda_42/Log:0"
    name: "StatefulPartitionedCall/model/lambda_42/Log"
    op_type: "Log"
  }
  node {
    input: "StatefulPartitionedCall/model/lambda_42/Log:0"
    output: "StatefulPartitionedCall/model/lambda_42/Tanh:0"
    name: "StatefulPartitionedCall/model/lambda_42/Tanh"
    op_type: "Tanh"
  }
  node {
    input: "StatefulPartitionedCall/model/batch_normalization_42/FusedBatchNormV3:0"
    input: "StatefulPartitionedCall/model/lambda_42/Tanh:0"
    output: "StatefulPartitionedCall/model/lambda_42/mul:0"
    name: "StatefulPartitionedCall/model/lambda_42/mul"
    op_type: "Mul"
  }
  node {
    input: "StatefulPartitionedCall/model/lambda_40/mul:0"
    input: "StatefulPartitionedCall/model/lambda_42/mul:0"
    output: "StatefulPartitionedCall/model/tf_op_layer_add_11/add_11:0"
    name: "StatefulPartitionedCall/model/tf_op_layer_add_11/add_11"
    op_type: "Add"
  }
  node {
    input: "StatefulPartitionedCall/model/tf_op_layer_add_11/add_11:0"
    input: "StatefulPartitionedCall/model/conv2d_43/Conv2D_weights_fused_bn"
    input: "StatefulPartitionedCall/model/conv2d_43/Conv2D_bias_fused_bn"
    output: "StatefulPartitionedCall/model/batch_normalization_43/FusedBatchNormV3:0"
    name: "StatefulPartitionedCall/model/conv2d_43/Conv2D"
    op_type: "Conv"
    attribute {
      name: "dilations"
      ints: 1
      ints: 1
      type: INTS
    }
    attribute {
      name: "strides"
      ints: 1
      ints: 1
      type: INTS
    }
    attribute {
      name: "kernel_shape"
      ints: 1
      ints: 1
      type: INTS
    }
    attribute {
      name: "pads"
      ints: 0
      ints: 0
      ints: 0
      ints: 0
      type: INTS
    }
  }
  node {
    input: "StatefulPartitionedCall/model/batch_normalization_43/FusedBatchNormV3:0"
    output: "StatefulPartitionedCall/model/lambda_43/Exp:0"
    name: "StatefulPartitionedCall/model/lambda_43/Exp"
    op_type: "Exp"
  }
  node {
    input: "Transpose__1378:0"
    input: "StatefulPartitionedCall/model/lambda_43/Exp:0"
    output: "StatefulPartitionedCall/model/lambda_43/add:0"
    name: "StatefulPartitionedCall/model/lambda_43/add"
    op_type: "Add"
  }
  node {
    input: "StatefulPartitionedCall/model/lambda_43/add:0"
    output: "StatefulPartitionedCall/model/lambda_43/Log:0"
    name: "StatefulPartitionedCall/model/lambda_43/Log"
    op_type: "Log"
  }
  node {
    input: "StatefulPartitionedCall/model/lambda_43/Log:0"
    output: "StatefulPartitionedCall/model/lambda_43/Tanh:0"
    name: "StatefulPartitionedCall/model/lambda_43/Tanh"
    op_type: "Tanh"
  }
  node {
    input: "StatefulPartitionedCall/model/batch_normalization_43/FusedBatchNormV3:0"
    input: "StatefulPartitionedCall/model/lambda_43/Tanh:0"
    output: "StatefulPartitionedCall/model/lambda_43/mul:0"
    name: "StatefulPartitionedCall/model/lambda_43/mul"
    op_type: "Mul"
  }
  node {
    input: "StatefulPartitionedCall/model/lambda_43/mul:0"
    input: "StatefulPartitionedCall/model/conv2d_44/Conv2D_weights_fused_bn"
    input: "StatefulPartitionedCall/model/conv2d_44/Conv2D_bias_fused_bn"
    output: "StatefulPartitionedCall/model/batch_normalization_44/FusedBatchNormV3:0"
    name: "StatefulPartitionedCall/model/conv2d_44/Conv2D"
    op_type: "Conv"
    attribute {
      name: "dilations"
      ints: 1
      ints: 1
      type: INTS
    }
    attribute {
      name: "strides"
      ints: 1
      ints: 1
      type: INTS
    }
    attribute {
      name: "kernel_shape"
      ints: 3
      ints: 3
      type: INTS
    }
    attribute {
      name: "pads"
      ints: 1
      ints: 1
      ints: 1
      ints: 1
      type: INTS
    }
  }
  node {
    input: "StatefulPartitionedCall/model/batch_normalization_44/FusedBatchNormV3:0"
    output: "StatefulPartitionedCall/model/lambda_44/Exp:0"
    name: "StatefulPartitionedCall/model/lambda_44/Exp"
    op_type: "Exp"
  }
  node {
    input: "Transpose__1378:0"
    input: "StatefulPartitionedCall/model/lambda_44/Exp:0"
    output: "StatefulPartitionedCall/model/lambda_44/add:0"
    name: "StatefulPartitionedCall/model/lambda_44/add"
    op_type: "Add"
  }
  node {
    input: "StatefulPartitionedCall/model/lambda_44/add:0"
    output: "StatefulPartitionedCall/model/lambda_44/Log:0"
    name: "StatefulPartitionedCall/model/lambda_44/Log"
    op_type: "Log"
  }
  node {
    input: "StatefulPartitionedCall/model/lambda_44/Log:0"
    output: "StatefulPartitionedCall/model/lambda_44/Tanh:0"
    name: "StatefulPartitionedCall/model/lambda_44/Tanh"
    op_type: "Tanh"
  }
  node {
    input: "StatefulPartitionedCall/model/batch_normalization_44/FusedBatchNormV3:0"
    input: "StatefulPartitionedCall/model/lambda_44/Tanh:0"
    output: "StatefulPartitionedCall/model/lambda_44/mul:0"
    name: "StatefulPartitionedCall/model/lambda_44/mul"
    op_type: "Mul"
  }
  node {
    input: "StatefulPartitionedCall/model/tf_op_layer_add_11/add_11:0"
    input: "StatefulPartitionedCall/model/lambda_44/mul:0"
    output: "StatefulPartitionedCall/model/tf_op_layer_add_12/add_12:0"
    name: "StatefulPartitionedCall/model/tf_op_layer_add_12/add_12"
    op_type: "Add"
  }
  node {
    input: "StatefulPartitionedCall/model/tf_op_layer_add_12/add_12:0"
    input: "StatefulPartitionedCall/model/conv2d_45/Conv2D_weights_fused_bn"
    input: "StatefulPartitionedCall/model/conv2d_45/Conv2D_bias_fused_bn"
    output: "StatefulPartitionedCall/model/batch_normalization_45/FusedBatchNormV3:0"
    name: "StatefulPartitionedCall/model/conv2d_45/Conv2D"
    op_type: "Conv"
    attribute {
      name: "dilations"
      ints: 1
      ints: 1
      type: INTS
    }
    attribute {
      name: "strides"
      ints: 1
      ints: 1
      type: INTS
    }
    attribute {
      name: "kernel_shape"
      ints: 1
      ints: 1
      type: INTS
    }
    attribute {
      name: "pads"
      ints: 0
      ints: 0
      ints: 0
      ints: 0
      type: INTS
    }
  }
  node {
    input: "StatefulPartitionedCall/model/batch_normalization_45/FusedBatchNormV3:0"
    output: "StatefulPartitionedCall/model/lambda_45/Exp:0"
    name: "StatefulPartitionedCall/model/lambda_45/Exp"
    op_type: "Exp"
  }
  node {
    input: "Transpose__1378:0"
    input: "StatefulPartitionedCall/model/lambda_45/Exp:0"
    output: "StatefulPartitionedCall/model/lambda_45/add:0"
    name: "StatefulPartitionedCall/model/lambda_45/add"
    op_type: "Add"
  }
  node {
    input: "StatefulPartitionedCall/model/lambda_45/add:0"
    output: "StatefulPartitionedCall/model/lambda_45/Log:0"
    name: "StatefulPartitionedCall/model/lambda_45/Log"
    op_type: "Log"
  }
  node {
    input: "StatefulPartitionedCall/model/lambda_45/Log:0"
    output: "StatefulPartitionedCall/model/lambda_45/Tanh:0"
    name: "StatefulPartitionedCall/model/lambda_45/Tanh"
    op_type: "Tanh"
  }
  node {
    input: "StatefulPartitionedCall/model/batch_normalization_45/FusedBatchNormV3:0"
    input: "StatefulPartitionedCall/model/lambda_45/Tanh:0"
    output: "StatefulPartitionedCall/model/lambda_45/mul:0"
    name: "StatefulPartitionedCall/model/lambda_45/mul"
    op_type: "Mul"
  }
  node {
    input: "StatefulPartitionedCall/model/lambda_45/mul:0"
    input: "StatefulPartitionedCall/model/conv2d_46/Conv2D_weights_fused_bn"
    input: "StatefulPartitionedCall/model/conv2d_46/Conv2D_bias_fused_bn"
    output: "StatefulPartitionedCall/model/batch_normalization_46/FusedBatchNormV3:0"
    name: "StatefulPartitionedCall/model/conv2d_46/Conv2D"
    op_type: "Conv"
    attribute {
      name: "dilations"
      ints: 1
      ints: 1
      type: INTS
    }
    attribute {
      name: "strides"
      ints: 1
      ints: 1
      type: INTS
    }
    attribute {
      name: "kernel_shape"
      ints: 3
      ints: 3
      type: INTS
    }
    attribute {
      name: "pads"
      ints: 1
      ints: 1
      ints: 1
      ints: 1
      type: INTS
    }
  }
  node {
    input: "StatefulPartitionedCall/model/batch_normalization_46/FusedBatchNormV3:0"
    output: "StatefulPartitionedCall/model/lambda_46/Exp:0"
    name: "StatefulPartitionedCall/model/lambda_46/Exp"
    op_type: "Exp"
  }
  node {
    input: "Transpose__1378:0"
    input: "StatefulPartitionedCall/model/lambda_46/Exp:0"
    output: "StatefulPartitionedCall/model/lambda_46/add:0"
    name: "StatefulPartitionedCall/model/lambda_46/add"
    op_type: "Add"
  }
  node {
    input: "StatefulPartitionedCall/model/lambda_46/add:0"
    output: "StatefulPartitionedCall/model/lambda_46/Log:0"
    name: "StatefulPartitionedCall/model/lambda_46/Log"
    op_type: "Log"
  }
  node {
    input: "StatefulPartitionedCall/model/lambda_46/Log:0"
    output: "StatefulPartitionedCall/model/lambda_46/Tanh:0"
    name: "StatefulPartitionedCall/model/lambda_46/Tanh"
    op_type: "Tanh"
  }
  node {
    input: "StatefulPartitionedCall/model/batch_normalization_46/FusedBatchNormV3:0"
    input: "StatefulPartitionedCall/model/lambda_46/Tanh:0"
    output: "StatefulPartitionedCall/model/lambda_46/mul:0"
    name: "StatefulPartitionedCall/model/lambda_46/mul"
    op_type: "Mul"
  }
  node {
    input: "StatefulPartitionedCall/model/tf_op_layer_add_12/add_12:0"
    input: "StatefulPartitionedCall/model/lambda_46/mul:0"
    output: "StatefulPartitionedCall/model/tf_op_layer_add_13/add_13:0"
    name: "StatefulPartitionedCall/model/tf_op_layer_add_13/add_13"
    op_type: "Add"
  }
  node {
    input: "StatefulPartitionedCall/model/tf_op_layer_add_13/add_13:0"
    input: "StatefulPartitionedCall/model/conv2d_47/Conv2D_weights_fused_bn"
    input: "StatefulPartitionedCall/model/conv2d_47/Conv2D_bias_fused_bn"
    output: "StatefulPartitionedCall/model/batch_normalization_47/FusedBatchNormV3:0"
    name: "StatefulPartitionedCall/model/conv2d_47/Conv2D"
    op_type: "Conv"
    attribute {
      name: "dilations"
      ints: 1
      ints: 1
      type: INTS
    }
    attribute {
      name: "strides"
      ints: 1
      ints: 1
      type: INTS
    }
    attribute {
      name: "kernel_shape"
      ints: 1
      ints: 1
      type: INTS
    }
    attribute {
      name: "pads"
      ints: 0
      ints: 0
      ints: 0
      ints: 0
      type: INTS
    }
  }
  node {
    input: "StatefulPartitionedCall/model/batch_normalization_47/FusedBatchNormV3:0"
    output: "StatefulPartitionedCall/model/lambda_47/Exp:0"
    name: "StatefulPartitionedCall/model/lambda_47/Exp"
    op_type: "Exp"
  }
  node {
    input: "Transpose__1378:0"
    input: "StatefulPartitionedCall/model/lambda_47/Exp:0"
    output: "StatefulPartitionedCall/model/lambda_47/add:0"
    name: "StatefulPartitionedCall/model/lambda_47/add"
    op_type: "Add"
  }
  node {
    input: "StatefulPartitionedCall/model/lambda_47/add:0"
    output: "StatefulPartitionedCall/model/lambda_47/Log:0"
    name: "StatefulPartitionedCall/model/lambda_47/Log"
    op_type: "Log"
  }
  node {
    input: "StatefulPartitionedCall/model/lambda_47/Log:0"
    output: "StatefulPartitionedCall/model/lambda_47/Tanh:0"
    name: "StatefulPartitionedCall/model/lambda_47/Tanh"
    op_type: "Tanh"
  }
  node {
    input: "StatefulPartitionedCall/model/batch_normalization_47/FusedBatchNormV3:0"
    input: "StatefulPartitionedCall/model/lambda_47/Tanh:0"
    output: "StatefulPartitionedCall/model/lambda_47/mul:0"
    name: "StatefulPartitionedCall/model/lambda_47/mul"
    op_type: "Mul"
  }
  node {
    input: "StatefulPartitionedCall/model/lambda_47/mul:0"
    input: "StatefulPartitionedCall/model/conv2d_48/Conv2D_weights_fused_bn"
    input: "StatefulPartitionedCall/model/conv2d_48/Conv2D_bias_fused_bn"
    output: "StatefulPartitionedCall/model/batch_normalization_48/FusedBatchNormV3:0"
    name: "StatefulPartitionedCall/model/conv2d_48/Conv2D"
    op_type: "Conv"
    attribute {
      name: "dilations"
      ints: 1
      ints: 1
      type: INTS
    }
    attribute {
      name: "strides"
      ints: 1
      ints: 1
      type: INTS
    }
    attribute {
      name: "kernel_shape"
      ints: 3
      ints: 3
      type: INTS
    }
    attribute {
      name: "pads"
      ints: 1
      ints: 1
      ints: 1
      ints: 1
      type: INTS
    }
  }
  node {
    input: "StatefulPartitionedCall/model/batch_normalization_48/FusedBatchNormV3:0"
    output: "StatefulPartitionedCall/model/lambda_48/Exp:0"
    name: "StatefulPartitionedCall/model/lambda_48/Exp"
    op_type: "Exp"
  }
  node {
    input: "Transpose__1378:0"
    input: "StatefulPartitionedCall/model/lambda_48/Exp:0"
    output: "StatefulPartitionedCall/model/lambda_48/add:0"
    name: "StatefulPartitionedCall/model/lambda_48/add"
    op_type: "Add"
  }
  node {
    input: "StatefulPartitionedCall/model/lambda_48/add:0"
    output: "StatefulPartitionedCall/model/lambda_48/Log:0"
    name: "StatefulPartitionedCall/model/lambda_48/Log"
    op_type: "Log"
  }
  node {
    input: "StatefulPartitionedCall/model/lambda_48/Log:0"
    output: "StatefulPartitionedCall/model/lambda_48/Tanh:0"
    name: "StatefulPartitionedCall/model/lambda_48/Tanh"
    op_type: "Tanh"
  }
  node {
    input: "StatefulPartitionedCall/model/batch_normalization_48/FusedBatchNormV3:0"
    input: "StatefulPartitionedCall/model/lambda_48/Tanh:0"
    output: "StatefulPartitionedCall/model/lambda_48/mul:0"
    name: "StatefulPartitionedCall/model/lambda_48/mul"
    op_type: "Mul"
  }
  node {
    input: "StatefulPartitionedCall/model/tf_op_layer_add_13/add_13:0"
    input: "StatefulPartitionedCall/model/lambda_48/mul:0"
    output: "StatefulPartitionedCall/model/tf_op_layer_add_14/add_14:0"
    name: "StatefulPartitionedCall/model/tf_op_layer_add_14/add_14"
    op_type: "Add"
  }
  node {
    input: "StatefulPartitionedCall/model/tf_op_layer_add_14/add_14:0"
    input: "StatefulPartitionedCall/model/conv2d_49/Conv2D_weights_fused_bn"
    input: "StatefulPartitionedCall/model/conv2d_49/Conv2D_bias_fused_bn"
    output: "StatefulPartitionedCall/model/batch_normalization_49/FusedBatchNormV3:0"
    name: "StatefulPartitionedCall/model/conv2d_49/Conv2D"
    op_type: "Conv"
    attribute {
      name: "dilations"
      ints: 1
      ints: 1
      type: INTS
    }
    attribute {
      name: "strides"
      ints: 1
      ints: 1
      type: INTS
    }
    attribute {
      name: "kernel_shape"
      ints: 1
      ints: 1
      type: INTS
    }
    attribute {
      name: "pads"
      ints: 0
      ints: 0
      ints: 0
      ints: 0
      type: INTS
    }
  }
  node {
    input: "StatefulPartitionedCall/model/batch_normalization_49/FusedBatchNormV3:0"
    output: "StatefulPartitionedCall/model/lambda_49/Exp:0"
    name: "StatefulPartitionedCall/model/lambda_49/Exp"
    op_type: "Exp"
  }
  node {
    input: "Transpose__1378:0"
    input: "StatefulPartitionedCall/model/lambda_49/Exp:0"
    output: "StatefulPartitionedCall/model/lambda_49/add:0"
    name: "StatefulPartitionedCall/model/lambda_49/add"
    op_type: "Add"
  }
  node {
    input: "StatefulPartitionedCall/model/lambda_49/add:0"
    output: "StatefulPartitionedCall/model/lambda_49/Log:0"
    name: "StatefulPartitionedCall/model/lambda_49/Log"
    op_type: "Log"
  }
  node {
    input: "StatefulPartitionedCall/model/lambda_49/Log:0"
    output: "StatefulPartitionedCall/model/lambda_49/Tanh:0"
    name: "StatefulPartitionedCall/model/lambda_49/Tanh"
    op_type: "Tanh"
  }
  node {
    input: "StatefulPartitionedCall/model/batch_normalization_49/FusedBatchNormV3:0"
    input: "StatefulPartitionedCall/model/lambda_49/Tanh:0"
    output: "StatefulPartitionedCall/model/lambda_49/mul:0"
    name: "StatefulPartitionedCall/model/lambda_49/mul"
    op_type: "Mul"
  }
  node {
    input: "StatefulPartitionedCall/model/lambda_49/mul:0"
    input: "StatefulPartitionedCall/model/conv2d_50/Conv2D_weights_fused_bn"
    input: "StatefulPartitionedCall/model/conv2d_50/Conv2D_bias_fused_bn"
    output: "StatefulPartitionedCall/model/batch_normalization_50/FusedBatchNormV3:0"
    name: "StatefulPartitionedCall/model/conv2d_50/Conv2D"
    op_type: "Conv"
    attribute {
      name: "dilations"
      ints: 1
      ints: 1
      type: INTS
    }
    attribute {
      name: "strides"
      ints: 1
      ints: 1
      type: INTS
    }
    attribute {
      name: "kernel_shape"
      ints: 3
      ints: 3
      type: INTS
    }
    attribute {
      name: "pads"
      ints: 1
      ints: 1
      ints: 1
      ints: 1
      type: INTS
    }
  }
  node {
    input: "StatefulPartitionedCall/model/batch_normalization_50/FusedBatchNormV3:0"
    output: "StatefulPartitionedCall/model/lambda_50/Exp:0"
    name: "StatefulPartitionedCall/model/lambda_50/Exp"
    op_type: "Exp"
  }
  node {
    input: "Transpose__1378:0"
    input: "StatefulPartitionedCall/model/lambda_50/Exp:0"
    output: "StatefulPartitionedCall/model/lambda_50/add:0"
    name: "StatefulPartitionedCall/model/lambda_50/add"
    op_type: "Add"
  }
  node {
    input: "StatefulPartitionedCall/model/lambda_50/add:0"
    output: "StatefulPartitionedCall/model/lambda_50/Log:0"
    name: "StatefulPartitionedCall/model/lambda_50/Log"
    op_type: "Log"
  }
  node {
    input: "StatefulPartitionedCall/model/lambda_50/Log:0"
    output: "StatefulPartitionedCall/model/lambda_50/Tanh:0"
    name: "StatefulPartitionedCall/model/lambda_50/Tanh"
    op_type: "Tanh"
  }
  node {
    input: "StatefulPartitionedCall/model/batch_normalization_50/FusedBatchNormV3:0"
    input: "StatefulPartitionedCall/model/lambda_50/Tanh:0"
    output: "StatefulPartitionedCall/model/lambda_50/mul:0"
    name: "StatefulPartitionedCall/model/lambda_50/mul"
    op_type: "Mul"
  }
  node {
    input: "StatefulPartitionedCall/model/tf_op_layer_add_14/add_14:0"
    input: "StatefulPartitionedCall/model/lambda_50/mul:0"
    output: "StatefulPartitionedCall/model/tf_op_layer_add_15/add_15:0"
    name: "StatefulPartitionedCall/model/tf_op_layer_add_15/add_15"
    op_type: "Add"
  }
  node {
    input: "StatefulPartitionedCall/model/tf_op_layer_add_15/add_15:0"
    input: "StatefulPartitionedCall/model/conv2d_51/Conv2D_weights_fused_bn"
    input: "StatefulPartitionedCall/model/conv2d_51/Conv2D_bias_fused_bn"
    output: "StatefulPartitionedCall/model/batch_normalization_51/FusedBatchNormV3:0"
    name: "StatefulPartitionedCall/model/conv2d_51/Conv2D"
    op_type: "Conv"
    attribute {
      name: "dilations"
      ints: 1
      ints: 1
      type: INTS
    }
    attribute {
      name: "strides"
      ints: 1
      ints: 1
      type: INTS
    }
    attribute {
      name: "kernel_shape"
      ints: 1
      ints: 1
      type: INTS
    }
    attribute {
      name: "pads"
      ints: 0
      ints: 0
      ints: 0
      ints: 0
      type: INTS
    }
  }
  node {
    input: "StatefulPartitionedCall/model/batch_normalization_51/FusedBatchNormV3:0"
    output: "StatefulPartitionedCall/model/lambda_51/Exp:0"
    name: "StatefulPartitionedCall/model/lambda_51/Exp"
    op_type: "Exp"
  }
  node {
    input: "Transpose__1378:0"
    input: "StatefulPartitionedCall/model/lambda_51/Exp:0"
    output: "StatefulPartitionedCall/model/lambda_51/add:0"
    name: "StatefulPartitionedCall/model/lambda_51/add"
    op_type: "Add"
  }
  node {
    input: "StatefulPartitionedCall/model/lambda_51/add:0"
    output: "StatefulPartitionedCall/model/lambda_51/Log:0"
    name: "StatefulPartitionedCall/model/lambda_51/Log"
    op_type: "Log"
  }
  node {
    input: "StatefulPartitionedCall/model/lambda_51/Log:0"
    output: "StatefulPartitionedCall/model/lambda_51/Tanh:0"
    name: "StatefulPartitionedCall/model/lambda_51/Tanh"
    op_type: "Tanh"
  }
  node {
    input: "StatefulPartitionedCall/model/batch_normalization_51/FusedBatchNormV3:0"
    input: "StatefulPartitionedCall/model/lambda_51/Tanh:0"
    output: "StatefulPartitionedCall/model/lambda_51/mul:0"
    name: "StatefulPartitionedCall/model/lambda_51/mul"
    op_type: "Mul"
  }
  node {
    input: "StatefulPartitionedCall/model/lambda_51/mul:0"
    input: "StatefulPartitionedCall/model/conv2d_52/Conv2D_weights_fused_bn"
    input: "StatefulPartitionedCall/model/conv2d_52/Conv2D_bias_fused_bn"
    output: "StatefulPartitionedCall/model/batch_normalization_52/FusedBatchNormV3:0"
    name: "StatefulPartitionedCall/model/conv2d_52/Conv2D"
    op_type: "Conv"
    attribute {
      name: "dilations"
      ints: 1
      ints: 1
      type: INTS
    }
    attribute {
      name: "strides"
      ints: 1
      ints: 1
      type: INTS
    }
    attribute {
      name: "kernel_shape"
      ints: 3
      ints: 3
      type: INTS
    }
    attribute {
      name: "pads"
      ints: 1
      ints: 1
      ints: 1
      ints: 1
      type: INTS
    }
  }
  node {
    input: "StatefulPartitionedCall/model/batch_normalization_52/FusedBatchNormV3:0"
    output: "StatefulPartitionedCall/model/lambda_52/Exp:0"
    name: "StatefulPartitionedCall/model/lambda_52/Exp"
    op_type: "Exp"
  }
  node {
    input: "Transpose__1378:0"
    input: "StatefulPartitionedCall/model/lambda_52/Exp:0"
    output: "StatefulPartitionedCall/model/lambda_52/add:0"
    name: "StatefulPartitionedCall/model/lambda_52/add"
    op_type: "Add"
  }
  node {
    input: "StatefulPartitionedCall/model/lambda_52/add:0"
    output: "StatefulPartitionedCall/model/lambda_52/Log:0"
    name: "StatefulPartitionedCall/model/lambda_52/Log"
    op_type: "Log"
  }
  node {
    input: "StatefulPartitionedCall/model/lambda_52/Log:0"
    output: "StatefulPartitionedCall/model/lambda_52/Tanh:0"
    name: "StatefulPartitionedCall/model/lambda_52/Tanh"
    op_type: "Tanh"
  }
  node {
    input: "StatefulPartitionedCall/model/batch_normalization_52/FusedBatchNormV3:0"
    input: "StatefulPartitionedCall/model/lambda_52/Tanh:0"
    output: "StatefulPartitionedCall/model/lambda_52/mul:0"
    name: "StatefulPartitionedCall/model/lambda_52/mul"
    op_type: "Mul"
  }
  node {
    input: "StatefulPartitionedCall/model/tf_op_layer_add_15/add_15:0"
    input: "StatefulPartitionedCall/model/lambda_52/mul:0"
    output: "StatefulPartitionedCall/model/tf_op_layer_add_16/add_16:0"
    name: "StatefulPartitionedCall/model/tf_op_layer_add_16/add_16"
    op_type: "Add"
  }
  node {
    input: "StatefulPartitionedCall/model/tf_op_layer_add_16/add_16:0"
    input: "StatefulPartitionedCall/model/conv2d_53/Conv2D_weights_fused_bn"
    input: "StatefulPartitionedCall/model/conv2d_53/Conv2D_bias_fused_bn"
    output: "StatefulPartitionedCall/model/batch_normalization_53/FusedBatchNormV3:0"
    name: "StatefulPartitionedCall/model/conv2d_53/Conv2D"
    op_type: "Conv"
    attribute {
      name: "dilations"
      ints: 1
      ints: 1
      type: INTS
    }
    attribute {
      name: "strides"
      ints: 1
      ints: 1
      type: INTS
    }
    attribute {
      name: "kernel_shape"
      ints: 1
      ints: 1
      type: INTS
    }
    attribute {
      name: "pads"
      ints: 0
      ints: 0
      ints: 0
      ints: 0
      type: INTS
    }
  }
  node {
    input: "StatefulPartitionedCall/model/batch_normalization_53/FusedBatchNormV3:0"
    output: "StatefulPartitionedCall/model/lambda_53/Exp:0"
    name: "StatefulPartitionedCall/model/lambda_53/Exp"
    op_type: "Exp"
  }
  node {
    input: "Transpose__1378:0"
    input: "StatefulPartitionedCall/model/lambda_53/Exp:0"
    output: "StatefulPartitionedCall/model/lambda_53/add:0"
    name: "StatefulPartitionedCall/model/lambda_53/add"
    op_type: "Add"
  }
  node {
    input: "StatefulPartitionedCall/model/lambda_53/add:0"
    output: "StatefulPartitionedCall/model/lambda_53/Log:0"
    name: "StatefulPartitionedCall/model/lambda_53/Log"
    op_type: "Log"
  }
  node {
    input: "StatefulPartitionedCall/model/lambda_53/Log:0"
    output: "StatefulPartitionedCall/model/lambda_53/Tanh:0"
    name: "StatefulPartitionedCall/model/lambda_53/Tanh"
    op_type: "Tanh"
  }
  node {
    input: "StatefulPartitionedCall/model/batch_normalization_53/FusedBatchNormV3:0"
    input: "StatefulPartitionedCall/model/lambda_53/Tanh:0"
    output: "StatefulPartitionedCall/model/lambda_53/mul:0"
    name: "StatefulPartitionedCall/model/lambda_53/mul"
    op_type: "Mul"
  }
  node {
    input: "StatefulPartitionedCall/model/lambda_53/mul:0"
    input: "StatefulPartitionedCall/model/conv2d_54/Conv2D_weights_fused_bn"
    input: "StatefulPartitionedCall/model/conv2d_54/Conv2D_bias_fused_bn"
    output: "StatefulPartitionedCall/model/batch_normalization_54/FusedBatchNormV3:0"
    name: "StatefulPartitionedCall/model/conv2d_54/Conv2D"
    op_type: "Conv"
    attribute {
      name: "dilations"
      ints: 1
      ints: 1
      type: INTS
    }
    attribute {
      name: "strides"
      ints: 1
      ints: 1
      type: INTS
    }
    attribute {
      name: "kernel_shape"
      ints: 3
      ints: 3
      type: INTS
    }
    attribute {
      name: "pads"
      ints: 1
      ints: 1
      ints: 1
      ints: 1
      type: INTS
    }
  }
  node {
    input: "StatefulPartitionedCall/model/batch_normalization_54/FusedBatchNormV3:0"
    output: "StatefulPartitionedCall/model/lambda_54/Exp:0"
    name: "StatefulPartitionedCall/model/lambda_54/Exp"
    op_type: "Exp"
  }
  node {
    input: "Transpose__1378:0"
    input: "StatefulPartitionedCall/model/lambda_54/Exp:0"
    output: "StatefulPartitionedCall/model/lambda_54/add:0"
    name: "StatefulPartitionedCall/model/lambda_54/add"
    op_type: "Add"
  }
  node {
    input: "StatefulPartitionedCall/model/lambda_54/add:0"
    output: "StatefulPartitionedCall/model/lambda_54/Log:0"
    name: "StatefulPartitionedCall/model/lambda_54/Log"
    op_type: "Log"
  }
  node {
    input: "StatefulPartitionedCall/model/lambda_54/Log:0"
    output: "StatefulPartitionedCall/model/lambda_54/Tanh:0"
    name: "StatefulPartitionedCall/model/lambda_54/Tanh"
    op_type: "Tanh"
  }
  node {
    input: "StatefulPartitionedCall/model/batch_normalization_54/FusedBatchNormV3:0"
    input: "StatefulPartitionedCall/model/lambda_54/Tanh:0"
    output: "StatefulPartitionedCall/model/lambda_54/mul:0"
    name: "StatefulPartitionedCall/model/lambda_54/mul"
    op_type: "Mul"
  }
  node {
    input: "StatefulPartitionedCall/model/tf_op_layer_add_16/add_16:0"
    input: "StatefulPartitionedCall/model/lambda_54/mul:0"
    output: "StatefulPartitionedCall/model/tf_op_layer_add_17/add_17:0"
    name: "StatefulPartitionedCall/model/tf_op_layer_add_17/add_17"
    op_type: "Add"
  }
  node {
    input: "StatefulPartitionedCall/model/tf_op_layer_add_17/add_17:0"
    input: "StatefulPartitionedCall/model/conv2d_55/Conv2D_weights_fused_bn"
    input: "StatefulPartitionedCall/model/conv2d_55/Conv2D_bias_fused_bn"
    output: "StatefulPartitionedCall/model/batch_normalization_55/FusedBatchNormV3:0"
    name: "StatefulPartitionedCall/model/conv2d_55/Conv2D"
    op_type: "Conv"
    attribute {
      name: "dilations"
      ints: 1
      ints: 1
      type: INTS
    }
    attribute {
      name: "strides"
      ints: 1
      ints: 1
      type: INTS
    }
    attribute {
      name: "kernel_shape"
      ints: 1
      ints: 1
      type: INTS
    }
    attribute {
      name: "pads"
      ints: 0
      ints: 0
      ints: 0
      ints: 0
      type: INTS
    }
  }
  node {
    input: "StatefulPartitionedCall/model/batch_normalization_55/FusedBatchNormV3:0"
    output: "StatefulPartitionedCall/model/lambda_55/Exp:0"
    name: "StatefulPartitionedCall/model/lambda_55/Exp"
    op_type: "Exp"
  }
  node {
    input: "Transpose__1378:0"
    input: "StatefulPartitionedCall/model/lambda_55/Exp:0"
    output: "StatefulPartitionedCall/model/lambda_55/add:0"
    name: "StatefulPartitionedCall/model/lambda_55/add"
    op_type: "Add"
  }
  node {
    input: "StatefulPartitionedCall/model/lambda_55/add:0"
    output: "StatefulPartitionedCall/model/lambda_55/Log:0"
    name: "StatefulPartitionedCall/model/lambda_55/Log"
    op_type: "Log"
  }
  node {
    input: "StatefulPartitionedCall/model/lambda_55/Log:0"
    output: "StatefulPartitionedCall/model/lambda_55/Tanh:0"
    name: "StatefulPartitionedCall/model/lambda_55/Tanh"
    op_type: "Tanh"
  }
  node {
    input: "StatefulPartitionedCall/model/batch_normalization_55/FusedBatchNormV3:0"
    input: "StatefulPartitionedCall/model/lambda_55/Tanh:0"
    output: "StatefulPartitionedCall/model/lambda_55/mul:0"
    name: "StatefulPartitionedCall/model/lambda_55/mul"
    op_type: "Mul"
  }
  node {
    input: "StatefulPartitionedCall/model/lambda_55/mul:0"
    input: "StatefulPartitionedCall/model/conv2d_56/Conv2D_weights_fused_bn"
    input: "StatefulPartitionedCall/model/conv2d_56/Conv2D_bias_fused_bn"
    output: "StatefulPartitionedCall/model/batch_normalization_56/FusedBatchNormV3:0"
    name: "StatefulPartitionedCall/model/conv2d_56/Conv2D"
    op_type: "Conv"
    attribute {
      name: "dilations"
      ints: 1
      ints: 1
      type: INTS
    }
    attribute {
      name: "strides"
      ints: 1
      ints: 1
      type: INTS
    }
    attribute {
      name: "kernel_shape"
      ints: 3
      ints: 3
      type: INTS
    }
    attribute {
      name: "pads"
      ints: 1
      ints: 1
      ints: 1
      ints: 1
      type: INTS
    }
  }
  node {
    input: "StatefulPartitionedCall/model/batch_normalization_56/FusedBatchNormV3:0"
    output: "StatefulPartitionedCall/model/lambda_56/Exp:0"
    name: "StatefulPartitionedCall/model/lambda_56/Exp"
    op_type: "Exp"
  }
  node {
    input: "Transpose__1378:0"
    input: "StatefulPartitionedCall/model/lambda_56/Exp:0"
    output: "StatefulPartitionedCall/model/lambda_56/add:0"
    name: "StatefulPartitionedCall/model/lambda_56/add"
    op_type: "Add"
  }
  node {
    input: "StatefulPartitionedCall/model/lambda_56/add:0"
    output: "StatefulPartitionedCall/model/lambda_56/Log:0"
    name: "StatefulPartitionedCall/model/lambda_56/Log"
    op_type: "Log"
  }
  node {
    input: "StatefulPartitionedCall/model/lambda_56/Log:0"
    output: "StatefulPartitionedCall/model/lambda_56/Tanh:0"
    name: "StatefulPartitionedCall/model/lambda_56/Tanh"
    op_type: "Tanh"
  }
  node {
    input: "StatefulPartitionedCall/model/batch_normalization_56/FusedBatchNormV3:0"
    input: "StatefulPartitionedCall/model/lambda_56/Tanh:0"
    output: "StatefulPartitionedCall/model/lambda_56/mul:0"
    name: "StatefulPartitionedCall/model/lambda_56/mul"
    op_type: "Mul"
  }
  node {
    input: "StatefulPartitionedCall/model/tf_op_layer_add_17/add_17:0"
    input: "StatefulPartitionedCall/model/lambda_56/mul:0"
    output: "StatefulPartitionedCall/model/tf_op_layer_add_18/add_18:0"
    name: "StatefulPartitionedCall/model/tf_op_layer_add_18/add_18"
    op_type: "Add"
  }
  node {
    input: "StatefulPartitionedCall/model/tf_op_layer_add_18/add_18:0"
    input: "StatefulPartitionedCall/model/conv2d_57/Conv2D_weights_fused_bn"
    input: "StatefulPartitionedCall/model/conv2d_57/Conv2D_bias_fused_bn"
    output: "StatefulPartitionedCall/model/batch_normalization_57/FusedBatchNormV3:0"
    name: "StatefulPartitionedCall/model/conv2d_57/Conv2D"
    op_type: "Conv"
    attribute {
      name: "dilations"
      ints: 1
      ints: 1
      type: INTS
    }
    attribute {
      name: "strides"
      ints: 1
      ints: 1
      type: INTS
    }
    attribute {
      name: "kernel_shape"
      ints: 1
      ints: 1
      type: INTS
    }
    attribute {
      name: "pads"
      ints: 0
      ints: 0
      ints: 0
      ints: 0
      type: INTS
    }
  }
  node {
    input: "StatefulPartitionedCall/model/batch_normalization_57/FusedBatchNormV3:0"
    output: "StatefulPartitionedCall/model/lambda_57/Exp:0"
    name: "StatefulPartitionedCall/model/lambda_57/Exp"
    op_type: "Exp"
  }
  node {
    input: "Transpose__1378:0"
    input: "StatefulPartitionedCall/model/lambda_57/Exp:0"
    output: "StatefulPartitionedCall/model/lambda_57/add:0"
    name: "StatefulPartitionedCall/model/lambda_57/add"
    op_type: "Add"
  }
  node {
    input: "StatefulPartitionedCall/model/lambda_57/add:0"
    output: "StatefulPartitionedCall/model/lambda_57/Log:0"
    name: "StatefulPartitionedCall/model/lambda_57/Log"
    op_type: "Log"
  }
  node {
    input: "StatefulPartitionedCall/model/lambda_57/Log:0"
    output: "StatefulPartitionedCall/model/lambda_57/Tanh:0"
    name: "StatefulPartitionedCall/model/lambda_57/Tanh"
    op_type: "Tanh"
  }
  node {
    input: "StatefulPartitionedCall/model/batch_normalization_57/FusedBatchNormV3:0"
    input: "StatefulPartitionedCall/model/lambda_57/Tanh:0"
    output: "StatefulPartitionedCall/model/lambda_57/mul:0"
    name: "StatefulPartitionedCall/model/lambda_57/mul"
    op_type: "Mul"
  }
  node {
    input: "StatefulPartitionedCall/model/lambda_38/mul:0"
    input: "StatefulPartitionedCall/model/conv2d_39/Conv2D_weights_fused_bn"
    input: "StatefulPartitionedCall/model/conv2d_39/Conv2D_bias_fused_bn"
    output: "StatefulPartitionedCall/model/batch_normalization_39/FusedBatchNormV3:0"
    name: "StatefulPartitionedCall/model/conv2d_39/Conv2D"
    op_type: "Conv"
    attribute {
      name: "dilations"
      ints: 1
      ints: 1
      type: INTS
    }
    attribute {
      name: "strides"
      ints: 1
      ints: 1
      type: INTS
    }
    attribute {
      name: "kernel_shape"
      ints: 1
      ints: 1
      type: INTS
    }
    attribute {
      name: "pads"
      ints: 0
      ints: 0
      ints: 0
      ints: 0
      type: INTS
    }
  }
  node {
    input: "StatefulPartitionedCall/model/batch_normalization_39/FusedBatchNormV3:0"
    output: "StatefulPartitionedCall/model/lambda_39/Exp:0"
    name: "StatefulPartitionedCall/model/lambda_39/Exp"
    op_type: "Exp"
  }
  node {
    input: "Transpose__1378:0"
    input: "StatefulPartitionedCall/model/lambda_39/Exp:0"
    output: "StatefulPartitionedCall/model/lambda_39/add:0"
    name: "StatefulPartitionedCall/model/lambda_39/add"
    op_type: "Add"
  }
  node {
    input: "StatefulPartitionedCall/model/lambda_39/add:0"
    output: "StatefulPartitionedCall/model/lambda_39/Log:0"
    name: "StatefulPartitionedCall/model/lambda_39/Log"
    op_type: "Log"
  }
  node {
    input: "StatefulPartitionedCall/model/lambda_39/Log:0"
    output: "StatefulPartitionedCall/model/lambda_39/Tanh:0"
    name: "StatefulPartitionedCall/model/lambda_39/Tanh"
    op_type: "Tanh"
  }
  node {
    input: "StatefulPartitionedCall/model/batch_normalization_39/FusedBatchNormV3:0"
    input: "StatefulPartitionedCall/model/lambda_39/Tanh:0"
    output: "StatefulPartitionedCall/model/lambda_39/mul:0"
    name: "StatefulPartitionedCall/model/lambda_39/mul"
    op_type: "Mul"
  }
  node {
    input: "StatefulPartitionedCall/model/lambda_57/mul:0"
    input: "StatefulPartitionedCall/model/lambda_39/mul:0"
    output: "StatefulPartitionedCall/model/tf_op_layer_concat_3/concat_3:0"
    name: "StatefulPartitionedCall/model/tf_op_layer_concat_3/concat_3"
    op_type: "Concat"
    attribute {
      name: "axis"
      i: 1
      type: INT
    }
  }
  node {
    input: "StatefulPartitionedCall/model/tf_op_layer_concat_3/concat_3:0"
    input: "StatefulPartitionedCall/model/conv2d_58/Conv2D_weights_fused_bn"
    input: "StatefulPartitionedCall/model/conv2d_58/Conv2D_bias_fused_bn"
    output: "StatefulPartitionedCall/model/batch_normalization_58/FusedBatchNormV3:0"
    name: "StatefulPartitionedCall/model/conv2d_58/Conv2D"
    op_type: "Conv"
    attribute {
      name: "dilations"
      ints: 1
      ints: 1
      type: INTS
    }
    attribute {
      name: "strides"
      ints: 1
      ints: 1
      type: INTS
    }
    attribute {
      name: "kernel_shape"
      ints: 1
      ints: 1
      type: INTS
    }
    attribute {
      name: "pads"
      ints: 0
      ints: 0
      ints: 0
      ints: 0
      type: INTS
    }
  }
  node {
    input: "StatefulPartitionedCall/model/batch_normalization_58/FusedBatchNormV3:0"
    output: "StatefulPartitionedCall/model/lambda_58/Exp:0"
    name: "StatefulPartitionedCall/model/lambda_58/Exp"
    op_type: "Exp"
  }
  node {
    input: "Transpose__1378:0"
    input: "StatefulPartitionedCall/model/lambda_58/Exp:0"
    output: "StatefulPartitionedCall/model/lambda_58/add:0"
    name: "StatefulPartitionedCall/model/lambda_58/add"
    op_type: "Add"
  }
  node {
    input: "StatefulPartitionedCall/model/lambda_58/add:0"
    output: "StatefulPartitionedCall/model/lambda_58/Log:0"
    name: "StatefulPartitionedCall/model/lambda_58/Log"
    op_type: "Log"
  }
  node {
    input: "StatefulPartitionedCall/model/lambda_58/Log:0"
    output: "StatefulPartitionedCall/model/lambda_58/Tanh:0"
    name: "StatefulPartitionedCall/model/lambda_58/Tanh"
    op_type: "Tanh"
  }
  node {
    input: "StatefulPartitionedCall/model/batch_normalization_58/FusedBatchNormV3:0"
    input: "StatefulPartitionedCall/model/lambda_58/Tanh:0"
    output: "StatefulPartitionedCall/model/lambda_58/mul:0"
    name: "StatefulPartitionedCall/model/lambda_58/mul"
    op_type: "Mul"
  }
  node {
    input: "StatefulPartitionedCall/model/lambda_58/mul:0"
    input: "StatefulPartitionedCall/model/conv2d_79/Conv2D_weights_fused_bn"
    input: "StatefulPartitionedCall/model/conv2d_79/Conv2D_bias_fused_bn"
    output: "StatefulPartitionedCall/model/batch_normalization_79/FusedBatchNormV3:0"
    name: "StatefulPartitionedCall/model/conv2d_79/Conv2D"
    op_type: "Conv"
    attribute {
      name: "dilations"
      ints: 1
      ints: 1
      type: INTS
    }
    attribute {
      name: "strides"
      ints: 1
      ints: 1
      type: INTS
    }
    attribute {
      name: "kernel_shape"
      ints: 1
      ints: 1
      type: INTS
    }
    attribute {
      name: "pads"
      ints: 0
      ints: 0
      ints: 0
      ints: 0
      type: INTS
    }
  }
  node {
    input: "StatefulPartitionedCall/model/batch_normalization_79/FusedBatchNormV3:0"
    output: "StatefulPartitionedCall/model/tf_op_layer_LeakyRelu_7/LeakyRelu_7:0"
    name: "StatefulPartitionedCall/model/tf_op_layer_LeakyRelu_7/LeakyRelu_7"
    op_type: "LeakyRelu"
    attribute {
      name: "alpha"
      f: 0.1
      type: FLOAT
    }
  }
  node {
    input: "StatefulPartitionedCall/model/lambda_58/mul:0"
    input: "StatefulPartitionedCall/model/conv2d_59/Conv2D_weights_fused_bn"
    input: "StatefulPartitionedCall/model/conv2d_59/Conv2D_bias_fused_bn"
    output: "StatefulPartitionedCall/model/batch_normalization_59/FusedBatchNormV3:0"
    name: "StatefulPartitionedCall/model/conv2d_59/Conv2D"
    op_type: "Conv"
    attribute {
      name: "dilations"
      ints: 1
      ints: 1
      type: INTS
    }
    attribute {
      name: "strides"
      ints: 2
      ints: 2
      type: INTS
    }
    attribute {
      name: "kernel_shape"
      ints: 3
      ints: 3
      type: INTS
    }
    attribute {
      name: "auto_pad"
      s: "NOTSET"
      type: STRING
    }
    attribute {
      name: "pads"
      ints: 1
      ints: 1
      ints: 0
      ints: 0
      type: INTS
    }
  }
  node {
    input: "StatefulPartitionedCall/model/batch_normalization_59/FusedBatchNormV3:0"
    output: "StatefulPartitionedCall/model/lambda_59/Exp:0"
    name: "StatefulPartitionedCall/model/lambda_59/Exp"
    op_type: "Exp"
  }
  node {
    input: "Transpose__1378:0"
    input: "StatefulPartitionedCall/model/lambda_59/Exp:0"
    output: "StatefulPartitionedCall/model/lambda_59/add:0"
    name: "StatefulPartitionedCall/model/lambda_59/add"
    op_type: "Add"
  }
  node {
    input: "StatefulPartitionedCall/model/lambda_59/add:0"
    output: "StatefulPartitionedCall/model/lambda_59/Log:0"
    name: "StatefulPartitionedCall/model/lambda_59/Log"
    op_type: "Log"
  }
  node {
    input: "StatefulPartitionedCall/model/lambda_59/Log:0"
    output: "StatefulPartitionedCall/model/lambda_59/Tanh:0"
    name: "StatefulPartitionedCall/model/lambda_59/Tanh"
    op_type: "Tanh"
  }
  node {
    input: "StatefulPartitionedCall/model/batch_normalization_59/FusedBatchNormV3:0"
    input: "StatefulPartitionedCall/model/lambda_59/Tanh:0"
    output: "StatefulPartitionedCall/model/lambda_59/mul:0"
    name: "StatefulPartitionedCall/model/lambda_59/mul"
    op_type: "Mul"
  }
  node {
    input: "StatefulPartitionedCall/model/lambda_59/mul:0"
    input: "StatefulPartitionedCall/model/conv2d_61/Conv2D_weights_fused_bn"
    input: "StatefulPartitionedCall/model/conv2d_61/Conv2D_bias_fused_bn"
    output: "StatefulPartitionedCall/model/batch_normalization_61/FusedBatchNormV3:0"
    name: "StatefulPartitionedCall/model/conv2d_61/Conv2D"
    op_type: "Conv"
    attribute {
      name: "dilations"
      ints: 1
      ints: 1
      type: INTS
    }
    attribute {
      name: "strides"
      ints: 1
      ints: 1
      type: INTS
    }
    attribute {
      name: "kernel_shape"
      ints: 1
      ints: 1
      type: INTS
    }
    attribute {
      name: "pads"
      ints: 0
      ints: 0
      ints: 0
      ints: 0
      type: INTS
    }
  }
  node {
    input: "StatefulPartitionedCall/model/batch_normalization_61/FusedBatchNormV3:0"
    output: "StatefulPartitionedCall/model/lambda_61/Exp:0"
    name: "StatefulPartitionedCall/model/lambda_61/Exp"
    op_type: "Exp"
  }
  node {
    input: "Transpose__1378:0"
    input: "StatefulPartitionedCall/model/lambda_61/Exp:0"
    output: "StatefulPartitionedCall/model/lambda_61/add:0"
    name: "StatefulPartitionedCall/model/lambda_61/add"
    op_type: "Add"
  }
  node {
    input: "StatefulPartitionedCall/model/lambda_61/add:0"
    output: "StatefulPartitionedCall/model/lambda_61/Log:0"
    name: "StatefulPartitionedCall/model/lambda_61/Log"
    op_type: "Log"
  }
  node {
    input: "StatefulPartitionedCall/model/lambda_61/Log:0"
    output: "StatefulPartitionedCall/model/lambda_61/Tanh:0"
    name: "StatefulPartitionedCall/model/lambda_61/Tanh"
    op_type: "Tanh"
  }
  node {
    input: "StatefulPartitionedCall/model/batch_normalization_61/FusedBatchNormV3:0"
    input: "StatefulPartitionedCall/model/lambda_61/Tanh:0"
    output: "StatefulPartitionedCall/model/lambda_61/mul:0"
    name: "StatefulPartitionedCall/model/lambda_61/mul"
    op_type: "Mul"
  }
  node {
    input: "StatefulPartitionedCall/model/lambda_61/mul:0"
    input: "StatefulPartitionedCall/model/conv2d_62/Conv2D_weights_fused_bn"
    input: "StatefulPartitionedCall/model/conv2d_62/Conv2D_bias_fused_bn"
    output: "StatefulPartitionedCall/model/batch_normalization_62/FusedBatchNormV3:0"
    name: "StatefulPartitionedCall/model/conv2d_62/Conv2D"
    op_type: "Conv"
    attribute {
      name: "dilations"
      ints: 1
      ints: 1
      type: INTS
    }
    attribute {
      name: "strides"
      ints: 1
      ints: 1
      type: INTS
    }
    attribute {
      name: "kernel_shape"
      ints: 1
      ints: 1
      type: INTS
    }
    attribute {
      name: "pads"
      ints: 0
      ints: 0
      ints: 0
      ints: 0
      type: INTS
    }
  }
  node {
    input: "StatefulPartitionedCall/model/batch_normalization_62/FusedBatchNormV3:0"
    output: "StatefulPartitionedCall/model/lambda_62/Exp:0"
    name: "StatefulPartitionedCall/model/lambda_62/Exp"
    op_type: "Exp"
  }
  node {
    input: "Transpose__1378:0"
    input: "StatefulPartitionedCall/model/lambda_62/Exp:0"
    output: "StatefulPartitionedCall/model/lambda_62/add:0"
    name: "StatefulPartitionedCall/model/lambda_62/add"
    op_type: "Add"
  }
  node {
    input: "StatefulPartitionedCall/model/lambda_62/add:0"
    output: "StatefulPartitionedCall/model/lambda_62/Log:0"
    name: "StatefulPartitionedCall/model/lambda_62/Log"
    op_type: "Log"
  }
  node {
    input: "StatefulPartitionedCall/model/lambda_62/Log:0"
    output: "StatefulPartitionedCall/model/lambda_62/Tanh:0"
    name: "StatefulPartitionedCall/model/lambda_62/Tanh"
    op_type: "Tanh"
  }
  node {
    input: "StatefulPartitionedCall/model/batch_normalization_62/FusedBatchNormV3:0"
    input: "StatefulPartitionedCall/model/lambda_62/Tanh:0"
    output: "StatefulPartitionedCall/model/lambda_62/mul:0"
    name: "StatefulPartitionedCall/model/lambda_62/mul"
    op_type: "Mul"
  }
  node {
    input: "StatefulPartitionedCall/model/lambda_62/mul:0"
    input: "StatefulPartitionedCall/model/conv2d_63/Conv2D_weights_fused_bn"
    input: "StatefulPartitionedCall/model/conv2d_63/Conv2D_bias_fused_bn"
    output: "StatefulPartitionedCall/model/batch_normalization_63/FusedBatchNormV3:0"
    name: "StatefulPartitionedCall/model/conv2d_63/Conv2D"
    op_type: "Conv"
    attribute {
      name: "dilations"
      ints: 1
      ints: 1
      type: INTS
    }
    attribute {
      name: "strides"
      ints: 1
      ints: 1
      type: INTS
    }
    attribute {
      name: "kernel_shape"
      ints: 3
      ints: 3
      type: INTS
    }
    attribute {
      name: "pads"
      ints: 1
      ints: 1
      ints: 1
      ints: 1
      type: INTS
    }
  }
  node {
    input: "StatefulPartitionedCall/model/batch_normalization_63/FusedBatchNormV3:0"
    output: "StatefulPartitionedCall/model/lambda_63/Exp:0"
    name: "StatefulPartitionedCall/model/lambda_63/Exp"
    op_type: "Exp"
  }
  node {
    input: "Transpose__1378:0"
    input: "StatefulPartitionedCall/model/lambda_63/Exp:0"
    output: "StatefulPartitionedCall/model/lambda_63/add:0"
    name: "StatefulPartitionedCall/model/lambda_63/add"
    op_type: "Add"
  }
  node {
    input: "StatefulPartitionedCall/model/lambda_63/add:0"
    output: "StatefulPartitionedCall/model/lambda_63/Log:0"
    name: "StatefulPartitionedCall/model/lambda_63/Log"
    op_type: "Log"
  }
  node {
    input: "StatefulPartitionedCall/model/lambda_63/Log:0"
    output: "StatefulPartitionedCall/model/lambda_63/Tanh:0"
    name: "StatefulPartitionedCall/model/lambda_63/Tanh"
    op_type: "Tanh"
  }
  node {
    input: "StatefulPartitionedCall/model/batch_normalization_63/FusedBatchNormV3:0"
    input: "StatefulPartitionedCall/model/lambda_63/Tanh:0"
    output: "StatefulPartitionedCall/model/lambda_63/mul:0"
    name: "StatefulPartitionedCall/model/lambda_63/mul"
    op_type: "Mul"
  }
  node {
    input: "StatefulPartitionedCall/model/lambda_61/mul:0"
    input: "StatefulPartitionedCall/model/lambda_63/mul:0"
    output: "StatefulPartitionedCall/model/tf_op_layer_add_19/add_19:0"
    name: "StatefulPartitionedCall/model/tf_op_layer_add_19/add_19"
    op_type: "Add"
  }
  node {
    input: "StatefulPartitionedCall/model/tf_op_layer_add_19/add_19:0"
    input: "StatefulPartitionedCall/model/conv2d_64/Conv2D_weights_fused_bn"
    input: "StatefulPartitionedCall/model/conv2d_64/Conv2D_bias_fused_bn"
    output: "StatefulPartitionedCall/model/batch_normalization_64/FusedBatchNormV3:0"
    name: "StatefulPartitionedCall/model/conv2d_64/Conv2D"
    op_type: "Conv"
    attribute {
      name: "dilations"
      ints: 1
      ints: 1
      type: INTS
    }
    attribute {
      name: "strides"
      ints: 1
      ints: 1
      type: INTS
    }
    attribute {
      name: "kernel_shape"
      ints: 1
      ints: 1
      type: INTS
    }
    attribute {
      name: "pads"
      ints: 0
      ints: 0
      ints: 0
      ints: 0
      type: INTS
    }
  }
  node {
    input: "StatefulPartitionedCall/model/batch_normalization_64/FusedBatchNormV3:0"
    output: "StatefulPartitionedCall/model/lambda_64/Exp:0"
    name: "StatefulPartitionedCall/model/lambda_64/Exp"
    op_type: "Exp"
  }
  node {
    input: "Transpose__1378:0"
    input: "StatefulPartitionedCall/model/lambda_64/Exp:0"
    output: "StatefulPartitionedCall/model/lambda_64/add:0"
    name: "StatefulPartitionedCall/model/lambda_64/add"
    op_type: "Add"
  }
  node {
    input: "StatefulPartitionedCall/model/lambda_64/add:0"
    output: "StatefulPartitionedCall/model/lambda_64/Log:0"
    name: "StatefulPartitionedCall/model/lambda_64/Log"
    op_type: "Log"
  }
  node {
    input: "StatefulPartitionedCall/model/lambda_64/Log:0"
    output: "StatefulPartitionedCall/model/lambda_64/Tanh:0"
    name: "StatefulPartitionedCall/model/lambda_64/Tanh"
    op_type: "Tanh"
  }
  node {
    input: "StatefulPartitionedCall/model/batch_normalization_64/FusedBatchNormV3:0"
    input: "StatefulPartitionedCall/model/lambda_64/Tanh:0"
    output: "StatefulPartitionedCall/model/lambda_64/mul:0"
    name: "StatefulPartitionedCall/model/lambda_64/mul"
    op_type: "Mul"
  }
  node {
    input: "StatefulPartitionedCall/model/lambda_64/mul:0"
    input: "StatefulPartitionedCall/model/conv2d_65/Conv2D_weights_fused_bn"
    input: "StatefulPartitionedCall/model/conv2d_65/Conv2D_bias_fused_bn"
    output: "StatefulPartitionedCall/model/batch_normalization_65/FusedBatchNormV3:0"
    name: "StatefulPartitionedCall/model/conv2d_65/Conv2D"
    op_type: "Conv"
    attribute {
      name: "dilations"
      ints: 1
      ints: 1
      type: INTS
    }
    attribute {
      name: "strides"
      ints: 1
      ints: 1
      type: INTS
    }
    attribute {
      name: "kernel_shape"
      ints: 3
      ints: 3
      type: INTS
    }
    attribute {
      name: "pads"
      ints: 1
      ints: 1
      ints: 1
      ints: 1
      type: INTS
    }
  }
  node {
    input: "StatefulPartitionedCall/model/batch_normalization_65/FusedBatchNormV3:0"
    output: "StatefulPartitionedCall/model/lambda_65/Exp:0"
    name: "StatefulPartitionedCall/model/lambda_65/Exp"
    op_type: "Exp"
  }
  node {
    input: "Transpose__1378:0"
    input: "StatefulPartitionedCall/model/lambda_65/Exp:0"
    output: "StatefulPartitionedCall/model/lambda_65/add:0"
    name: "StatefulPartitionedCall/model/lambda_65/add"
    op_type: "Add"
  }
  node {
    input: "StatefulPartitionedCall/model/lambda_65/add:0"
    output: "StatefulPartitionedCall/model/lambda_65/Log:0"
    name: "StatefulPartitionedCall/model/lambda_65/Log"
    op_type: "Log"
  }
  node {
    input: "StatefulPartitionedCall/model/lambda_65/Log:0"
    output: "StatefulPartitionedCall/model/lambda_65/Tanh:0"
    name: "StatefulPartitionedCall/model/lambda_65/Tanh"
    op_type: "Tanh"
  }
  node {
    input: "StatefulPartitionedCall/model/batch_normalization_65/FusedBatchNormV3:0"
    input: "StatefulPartitionedCall/model/lambda_65/Tanh:0"
    output: "StatefulPartitionedCall/model/lambda_65/mul:0"
    name: "StatefulPartitionedCall/model/lambda_65/mul"
    op_type: "Mul"
  }
  node {
    input: "StatefulPartitionedCall/model/tf_op_layer_add_19/add_19:0"
    input: "StatefulPartitionedCall/model/lambda_65/mul:0"
    output: "StatefulPartitionedCall/model/tf_op_layer_add_20/add_20:0"
    name: "StatefulPartitionedCall/model/tf_op_layer_add_20/add_20"
    op_type: "Add"
  }
  node {
    input: "StatefulPartitionedCall/model/tf_op_layer_add_20/add_20:0"
    input: "StatefulPartitionedCall/model/conv2d_66/Conv2D_weights_fused_bn"
    input: "StatefulPartitionedCall/model/conv2d_66/Conv2D_bias_fused_bn"
    output: "StatefulPartitionedCall/model/batch_normalization_66/FusedBatchNormV3:0"
    name: "StatefulPartitionedCall/model/conv2d_66/Conv2D"
    op_type: "Conv"
    attribute {
      name: "dilations"
      ints: 1
      ints: 1
      type: INTS
    }
    attribute {
      name: "strides"
      ints: 1
      ints: 1
      type: INTS
    }
    attribute {
      name: "kernel_shape"
      ints: 1
      ints: 1
      type: INTS
    }
    attribute {
      name: "pads"
      ints: 0
      ints: 0
      ints: 0
      ints: 0
      type: INTS
    }
  }
  node {
    input: "StatefulPartitionedCall/model/batch_normalization_66/FusedBatchNormV3:0"
    output: "StatefulPartitionedCall/model/lambda_66/Exp:0"
    name: "StatefulPartitionedCall/model/lambda_66/Exp"
    op_type: "Exp"
  }
  node {
    input: "Transpose__1378:0"
    input: "StatefulPartitionedCall/model/lambda_66/Exp:0"
    output: "StatefulPartitionedCall/model/lambda_66/add:0"
    name: "StatefulPartitionedCall/model/lambda_66/add"
    op_type: "Add"
  }
  node {
    input: "StatefulPartitionedCall/model/lambda_66/add:0"
    output: "StatefulPartitionedCall/model/lambda_66/Log:0"
    name: "StatefulPartitionedCall/model/lambda_66/Log"
    op_type: "Log"
  }
  node {
    input: "StatefulPartitionedCall/model/lambda_66/Log:0"
    output: "StatefulPartitionedCall/model/lambda_66/Tanh:0"
    name: "StatefulPartitionedCall/model/lambda_66/Tanh"
    op_type: "Tanh"
  }
  node {
    input: "StatefulPartitionedCall/model/batch_normalization_66/FusedBatchNormV3:0"
    input: "StatefulPartitionedCall/model/lambda_66/Tanh:0"
    output: "StatefulPartitionedCall/model/lambda_66/mul:0"
    name: "StatefulPartitionedCall/model/lambda_66/mul"
    op_type: "Mul"
  }
  node {
    input: "StatefulPartitionedCall/model/lambda_66/mul:0"
    input: "StatefulPartitionedCall/model/conv2d_67/Conv2D_weights_fused_bn"
    input: "StatefulPartitionedCall/model/conv2d_67/Conv2D_bias_fused_bn"
    output: "StatefulPartitionedCall/model/batch_normalization_67/FusedBatchNormV3:0"
    name: "StatefulPartitionedCall/model/conv2d_67/Conv2D"
    op_type: "Conv"
    attribute {
      name: "dilations"
      ints: 1
      ints: 1
      type: INTS
    }
    attribute {
      name: "strides"
      ints: 1
      ints: 1
      type: INTS
    }
    attribute {
      name: "kernel_shape"
      ints: 3
      ints: 3
      type: INTS
    }
    attribute {
      name: "pads"
      ints: 1
      ints: 1
      ints: 1
      ints: 1
      type: INTS
    }
  }
  node {
    input: "StatefulPartitionedCall/model/batch_normalization_67/FusedBatchNormV3:0"
    output: "StatefulPartitionedCall/model/lambda_67/Exp:0"
    name: "StatefulPartitionedCall/model/lambda_67/Exp"
    op_type: "Exp"
  }
  node {
    input: "Transpose__1378:0"
    input: "StatefulPartitionedCall/model/lambda_67/Exp:0"
    output: "StatefulPartitionedCall/model/lambda_67/add:0"
    name: "StatefulPartitionedCall/model/lambda_67/add"
    op_type: "Add"
  }
  node {
    input: "StatefulPartitionedCall/model/lambda_67/add:0"
    output: "StatefulPartitionedCall/model/lambda_67/Log:0"
    name: "StatefulPartitionedCall/model/lambda_67/Log"
    op_type: "Log"
  }
  node {
    input: "StatefulPartitionedCall/model/lambda_67/Log:0"
    output: "StatefulPartitionedCall/model/lambda_67/Tanh:0"
    name: "StatefulPartitionedCall/model/lambda_67/Tanh"
    op_type: "Tanh"
  }
  node {
    input: "StatefulPartitionedCall/model/batch_normalization_67/FusedBatchNormV3:0"
    input: "StatefulPartitionedCall/model/lambda_67/Tanh:0"
    output: "StatefulPartitionedCall/model/lambda_67/mul:0"
    name: "StatefulPartitionedCall/model/lambda_67/mul"
    op_type: "Mul"
  }
  node {
    input: "StatefulPartitionedCall/model/tf_op_layer_add_20/add_20:0"
    input: "StatefulPartitionedCall/model/lambda_67/mul:0"
    output: "StatefulPartitionedCall/model/tf_op_layer_add_21/add_21:0"
    name: "StatefulPartitionedCall/model/tf_op_layer_add_21/add_21"
    op_type: "Add"
  }
  node {
    input: "StatefulPartitionedCall/model/tf_op_layer_add_21/add_21:0"
    input: "StatefulPartitionedCall/model/conv2d_68/Conv2D_weights_fused_bn"
    input: "StatefulPartitionedCall/model/conv2d_68/Conv2D_bias_fused_bn"
    output: "StatefulPartitionedCall/model/batch_normalization_68/FusedBatchNormV3:0"
    name: "StatefulPartitionedCall/model/conv2d_68/Conv2D"
    op_type: "Conv"
    attribute {
      name: "dilations"
      ints: 1
      ints: 1
      type: INTS
    }
    attribute {
      name: "strides"
      ints: 1
      ints: 1
      type: INTS
    }
    attribute {
      name: "kernel_shape"
      ints: 1
      ints: 1
      type: INTS
    }
    attribute {
      name: "pads"
      ints: 0
      ints: 0
      ints: 0
      ints: 0
      type: INTS
    }
  }
  node {
    input: "StatefulPartitionedCall/model/batch_normalization_68/FusedBatchNormV3:0"
    output: "StatefulPartitionedCall/model/lambda_68/Exp:0"
    name: "StatefulPartitionedCall/model/lambda_68/Exp"
    op_type: "Exp"
  }
  node {
    input: "Transpose__1378:0"
    input: "StatefulPartitionedCall/model/lambda_68/Exp:0"
    output: "StatefulPartitionedCall/model/lambda_68/add:0"
    name: "StatefulPartitionedCall/model/lambda_68/add"
    op_type: "Add"
  }
  node {
    input: "StatefulPartitionedCall/model/lambda_68/add:0"
    output: "StatefulPartitionedCall/model/lambda_68/Log:0"
    name: "StatefulPartitionedCall/model/lambda_68/Log"
    op_type: "Log"
  }
  node {
    input: "StatefulPartitionedCall/model/lambda_68/Log:0"
    output: "StatefulPartitionedCall/model/lambda_68/Tanh:0"
    name: "StatefulPartitionedCall/model/lambda_68/Tanh"
    op_type: "Tanh"
  }
  node {
    input: "StatefulPartitionedCall/model/batch_normalization_68/FusedBatchNormV3:0"
    input: "StatefulPartitionedCall/model/lambda_68/Tanh:0"
    output: "StatefulPartitionedCall/model/lambda_68/mul:0"
    name: "StatefulPartitionedCall/model/lambda_68/mul"
    op_type: "Mul"
  }
  node {
    input: "StatefulPartitionedCall/model/lambda_68/mul:0"
    input: "StatefulPartitionedCall/model/conv2d_69/Conv2D_weights_fused_bn"
    input: "StatefulPartitionedCall/model/conv2d_69/Conv2D_bias_fused_bn"
    output: "StatefulPartitionedCall/model/batch_normalization_69/FusedBatchNormV3:0"
    name: "StatefulPartitionedCall/model/conv2d_69/Conv2D"
    op_type: "Conv"
    attribute {
      name: "dilations"
      ints: 1
      ints: 1
      type: INTS
    }
    attribute {
      name: "strides"
      ints: 1
      ints: 1
      type: INTS
    }
    attribute {
      name: "kernel_shape"
      ints: 3
      ints: 3
      type: INTS
    }
    attribute {
      name: "pads"
      ints: 1
      ints: 1
      ints: 1
      ints: 1
      type: INTS
    }
  }
  node {
    input: "StatefulPartitionedCall/model/batch_normalization_69/FusedBatchNormV3:0"
    output: "StatefulPartitionedCall/model/lambda_69/Exp:0"
    name: "StatefulPartitionedCall/model/lambda_69/Exp"
    op_type: "Exp"
  }
  node {
    input: "Transpose__1378:0"
    input: "StatefulPartitionedCall/model/lambda_69/Exp:0"
    output: "StatefulPartitionedCall/model/lambda_69/add:0"
    name: "StatefulPartitionedCall/model/lambda_69/add"
    op_type: "Add"
  }
  node {
    input: "StatefulPartitionedCall/model/lambda_69/add:0"
    output: "StatefulPartitionedCall/model/lambda_69/Log:0"
    name: "StatefulPartitionedCall/model/lambda_69/Log"
    op_type: "Log"
  }
  node {
    input: "StatefulPartitionedCall/model/lambda_69/Log:0"
    output: "StatefulPartitionedCall/model/lambda_69/Tanh:0"
    name: "StatefulPartitionedCall/model/lambda_69/Tanh"
    op_type: "Tanh"
  }
  node {
    input: "StatefulPartitionedCall/model/batch_normalization_69/FusedBatchNormV3:0"
    input: "StatefulPartitionedCall/model/lambda_69/Tanh:0"
    output: "StatefulPartitionedCall/model/lambda_69/mul:0"
    name: "StatefulPartitionedCall/model/lambda_69/mul"
    op_type: "Mul"
  }
  node {
    input: "StatefulPartitionedCall/model/tf_op_layer_add_21/add_21:0"
    input: "StatefulPartitionedCall/model/lambda_69/mul:0"
    output: "StatefulPartitionedCall/model/tf_op_layer_add_22/add_22:0"
    name: "StatefulPartitionedCall/model/tf_op_layer_add_22/add_22"
    op_type: "Add"
  }
  node {
    input: "StatefulPartitionedCall/model/tf_op_layer_add_22/add_22:0"
    input: "StatefulPartitionedCall/model/conv2d_70/Conv2D_weights_fused_bn"
    input: "StatefulPartitionedCall/model/conv2d_70/Conv2D_bias_fused_bn"
    output: "StatefulPartitionedCall/model/batch_normalization_70/FusedBatchNormV3:0"
    name: "StatefulPartitionedCall/model/conv2d_70/Conv2D"
    op_type: "Conv"
    attribute {
      name: "dilations"
      ints: 1
      ints: 1
      type: INTS
    }
    attribute {
      name: "strides"
      ints: 1
      ints: 1
      type: INTS
    }
    attribute {
      name: "kernel_shape"
      ints: 1
      ints: 1
      type: INTS
    }
    attribute {
      name: "pads"
      ints: 0
      ints: 0
      ints: 0
      ints: 0
      type: INTS
    }
  }
  node {
    input: "StatefulPartitionedCall/model/batch_normalization_70/FusedBatchNormV3:0"
    output: "StatefulPartitionedCall/model/lambda_70/Exp:0"
    name: "StatefulPartitionedCall/model/lambda_70/Exp"
    op_type: "Exp"
  }
  node {
    input: "Transpose__1378:0"
    input: "StatefulPartitionedCall/model/lambda_70/Exp:0"
    output: "StatefulPartitionedCall/model/lambda_70/add:0"
    name: "StatefulPartitionedCall/model/lambda_70/add"
    op_type: "Add"
  }
  node {
    input: "StatefulPartitionedCall/model/lambda_70/add:0"
    output: "StatefulPartitionedCall/model/lambda_70/Log:0"
    name: "StatefulPartitionedCall/model/lambda_70/Log"
    op_type: "Log"
  }
  node {
    input: "StatefulPartitionedCall/model/lambda_70/Log:0"
    output: "StatefulPartitionedCall/model/lambda_70/Tanh:0"
    name: "StatefulPartitionedCall/model/lambda_70/Tanh"
    op_type: "Tanh"
  }
  node {
    input: "StatefulPartitionedCall/model/batch_normalization_70/FusedBatchNormV3:0"
    input: "StatefulPartitionedCall/model/lambda_70/Tanh:0"
    output: "StatefulPartitionedCall/model/lambda_70/mul:0"
    name: "StatefulPartitionedCall/model/lambda_70/mul"
    op_type: "Mul"
  }
  node {
    input: "StatefulPartitionedCall/model/lambda_59/mul:0"
    input: "StatefulPartitionedCall/model/conv2d_60/Conv2D_weights_fused_bn"
    input: "StatefulPartitionedCall/model/conv2d_60/Conv2D_bias_fused_bn"
    output: "StatefulPartitionedCall/model/batch_normalization_60/FusedBatchNormV3:0"
    name: "StatefulPartitionedCall/model/conv2d_60/Conv2D"
    op_type: "Conv"
    attribute {
      name: "dilations"
      ints: 1
      ints: 1
      type: INTS
    }
    attribute {
      name: "strides"
      ints: 1
      ints: 1
      type: INTS
    }
    attribute {
      name: "kernel_shape"
      ints: 1
      ints: 1
      type: INTS
    }
    attribute {
      name: "pads"
      ints: 0
      ints: 0
      ints: 0
      ints: 0
      type: INTS
    }
  }
  node {
    input: "StatefulPartitionedCall/model/batch_normalization_60/FusedBatchNormV3:0"
    output: "StatefulPartitionedCall/model/lambda_60/Exp:0"
    name: "StatefulPartitionedCall/model/lambda_60/Exp"
    op_type: "Exp"
  }
  node {
    input: "Transpose__1378:0"
    input: "StatefulPartitionedCall/model/lambda_60/Exp:0"
    output: "StatefulPartitionedCall/model/lambda_60/add:0"
    name: "StatefulPartitionedCall/model/lambda_60/add"
    op_type: "Add"
  }
  node {
    input: "StatefulPartitionedCall/model/lambda_60/add:0"
    output: "StatefulPartitionedCall/model/lambda_60/Log:0"
    name: "StatefulPartitionedCall/model/lambda_60/Log"
    op_type: "Log"
  }
…
            dim_value: 3
          }
          dim {
            dim_value: 3
          }
        }
      }
    }
  }
  input {
    name: "StatefulPartitionedCall/model/conv2d_65/Conv2D_bias_fused_bn"
    type {
      tensor_type {
        elem_type: 1
        shape {
          dim {
            dim_value: 512
          }
        }
      }
    }
  }
  input {
    name: "StatefulPartitionedCall/model/conv2d_64/Conv2D_weights_fused_bn"
    type {
      tensor_type {
        elem_type: 1
        shape {
          dim {
            dim_value: 512
          }
          dim {
            dim_value: 512
          }
          dim {
            dim_value: 1
          }
          dim {
            dim_value: 1
          }
        }
      }
    }
  }
  input {
    name: "StatefulPartitionedCall/model/conv2d_64/Conv2D_bias_fused_bn"
    type {
      tensor_type {
        elem_type: 1
        shape {
          dim {
            dim_value: 512
          }
        }
      }
    }
  }
  input {
    name: "StatefulPartitionedCall/model/conv2d_63/Conv2D_weights_fused_bn"
    type {
      tensor_type {
        elem_type: 1
        shape {
          dim {
            dim_value: 512
          }
          dim {
            dim_value: 512
          }
          dim {
            dim_value: 3
          }
          dim {
            dim_value: 3
          }
        }
      }
    }
  }
  input {
    name: "StatefulPartitionedCall/model/conv2d_63/Conv2D_bias_fused_bn"
    type {
      tensor_type {
        elem_type: 1
        shape {
          dim {
            dim_value: 512
          }
        }
      }
    }
  }
  input {
    name: "StatefulPartitionedCall/model/conv2d_62/Conv2D_weights_fused_bn"
    type {
      tensor_type {
        elem_type: 1
        shape {
          dim {
            dim_value: 512
          }
          dim {
            dim_value: 512
          }
          dim {
            dim_value: 1
          }
          dim {
            dim_value: 1
          }
        }
      }
    }
  }
  input {
    name: "StatefulPartitionedCall/model/conv2d_62/Conv2D_bias_fused_bn"
    type {
      tensor_type {
        elem_type: 1
        shape {
          dim {
            dim_value: 512
          }
        }
      }
    }
  }
  input {
    name: "StatefulPartitionedCall/model/conv2d_61/Conv2D_weights_fused_bn"
    type {
      tensor_type {
        elem_type: 1
        shape {
          dim {
            dim_value: 512
          }
          dim {
            dim_value: 1024
          }
          dim {
            dim_value: 1
          }
          dim {
            dim_value: 1
          }
        }
      }
    }
  }
  input {
    name: "StatefulPartitionedCall/model/conv2d_61/Conv2D_bias_fused_bn"
    type {
      tensor_type {
        elem_type: 1
        shape {
          dim {
            dim_value: 512
          }
        }
      }
    }
  }
  input {
    name: "StatefulPartitionedCall/model/conv2d_60/Conv2D_weights_fused_bn"
    type {
      tensor_type {
        elem_type: 1
        shape {
          dim {
            dim_value: 512
          }
          dim {
            dim_value: 1024
          }
          dim {
            dim_value: 1
          }
          dim {
            dim_value: 1
          }
        }
      }
    }
  }
  input {
    name: "StatefulPartitionedCall/model/conv2d_60/Conv2D_bias_fused_bn"
    type {
      tensor_type {
        elem_type: 1
        shape {
          dim {
            dim_value: 512
          }
        }
      }
    }
  }
  input {
    name: "StatefulPartitionedCall/model/conv2d_6/Conv2D_weights_fused_bn"
    type {
      tensor_type {
        elem_type: 1
        shape {
          dim {
            dim_value: 64
          }
          dim {
            dim_value: 64
          }
          dim {
            dim_value: 1
          }
          dim {
            dim_value: 1
          }
        }
      }
    }
  }
  input {
    name: "StatefulPartitionedCall/model/conv2d_59/Conv2D_weights_fused_bn"
    type {
      tensor_type {
        elem_type: 1
        shape {
          dim {
            dim_value: 1024
          }
          dim {
            dim_value: 512
          }
          dim {
            dim_value: 3
          }
          dim {
            dim_value: 3
          }
        }
      }
    }
  }
  input {
    name: "StatefulPartitionedCall/model/conv2d_59/Conv2D_bias_fused_bn"
    type {
      tensor_type {
        elem_type: 1
        shape {
          dim {
            dim_value: 1024
          }
        }
      }
    }
  }
  input {
    name: "StatefulPartitionedCall/model/conv2d_58/Conv2D_weights_fused_bn"
    type {
      tensor_type {
        elem_type: 1
        shape {
          dim {
            dim_value: 512
          }
          dim {
            dim_value: 512
          }
          dim {
            dim_value: 1
          }
          dim {
            dim_value: 1
          }
        }
      }
    }
  }
  input {
    name: "StatefulPartitionedCall/model/conv2d_58/Conv2D_bias_fused_bn"
    type {
      tensor_type {
        elem_type: 1
        shape {
          dim {
            dim_value: 512
          }
        }
      }
    }
  }
  input {
    name: "StatefulPartitionedCall/model/conv2d_57/Conv2D_weights_fused_bn"
    type {
      tensor_type {
        elem_type: 1
        shape {
          dim {
            dim_value: 256
          }
          dim {
            dim_value: 256
          }
          dim {
            dim_value: 1
          }
          dim {
            dim_value: 1
          }
        }
      }
    }
  }
  input {
    name: "StatefulPartitionedCall/model/conv2d_57/Conv2D_bias_fused_bn"
    type {
      tensor_type {
        elem_type: 1
        shape {
          dim {
            dim_value: 256
          }
        }
      }
    }
  }
  input {
    name: "StatefulPartitionedCall/model/conv2d_56/Conv2D_weights_fused_bn"
    type {
      tensor_type {
        elem_type: 1
        shape {
          dim {
            dim_value: 256
          }
          dim {
            dim_value: 256
          }
          dim {
            dim_value: 3
          }
          dim {
            dim_value: 3
          }
        }
      }
    }
  }
  input {
    name: "StatefulPartitionedCall/model/conv2d_56/Conv2D_bias_fused_bn"
    type {
      tensor_type {
        elem_type: 1
        shape {
          dim {
            dim_value: 256
          }
        }
      }
    }
  }
  input {
    name: "StatefulPartitionedCall/model/conv2d_55/Conv2D_weights_fused_bn"
    type {
      tensor_type {
        elem_type: 1
        shape {
          dim {
            dim_value: 256
          }
          dim {
            dim_value: 256
          }
          dim {
            dim_value: 1
          }
          dim {
            dim_value: 1
          }
        }
      }
    }
  }
  input {
    name: "StatefulPartitionedCall/model/conv2d_55/Conv2D_bias_fused_bn"
    type {
      tensor_type {
        elem_type: 1
        shape {
          dim {
            dim_value: 256
          }
        }
      }
    }
  }
  input {
    name: "StatefulPartitionedCall/model/conv2d_54/Conv2D_weights_fused_bn"
    type {
      tensor_type {
        elem_type: 1
        shape {
          dim {
            dim_value: 256
          }
          dim {
            dim_value: 256
          }
          dim {
            dim_value: 3
          }
          dim {
            dim_value: 3
          }
        }
      }
    }
  }
  input {
    name: "StatefulPartitionedCall/model/conv2d_54/Conv2D_bias_fused_bn"
    type {
      tensor_type {
        elem_type: 1
        shape {
          dim {
            dim_value: 256
          }
        }
      }
    }
  }
  input {
    name: "StatefulPartitionedCall/model/conv2d_53/Conv2D_weights_fused_bn"
    type {
      tensor_type {
        elem_type: 1
        shape {
          dim {
            dim_value: 256
          }
          dim {
            dim_value: 256
          }
          dim {
            dim_value: 1
          }
          dim {
            dim_value: 1
          }
        }
      }
    }
  }
  input {
    name: "StatefulPartitionedCall/model/conv2d_53/Conv2D_bias_fused_bn"
    type {
      tensor_type {
        elem_type: 1
        shape {
          dim {
            dim_value: 256
          }
        }
      }
    }
  }
  input {
    name: "StatefulPartitionedCall/model/conv2d_52/Conv2D_weights_fused_bn"
    type {
      tensor_type {
        elem_type: 1
        shape {
          dim {
            dim_value: 256
          }
          dim {
            dim_value: 256
          }
          dim {
            dim_value: 3
          }
          dim {
            dim_value: 3
          }
        }
      }
    }
  }
  input {
    name: "StatefulPartitionedCall/model/conv2d_52/Conv2D_bias_fused_bn"
    type {
      tensor_type {
        elem_type: 1
        shape {
          dim {
            dim_value: 256
          }
        }
      }
    }
  }
  input {
    name: "StatefulPartitionedCall/model/conv2d_51/Conv2D_weights_fused_bn"
    type {
      tensor_type {
        elem_type: 1
        shape {
          dim {
            dim_value: 256
          }
          dim {
            dim_value: 256
          }
          dim {
            dim_value: 1
          }
          dim {
            dim_value: 1
          }
        }
      }
    }
  }
  input {
    name: "StatefulPartitionedCall/model/conv2d_51/Conv2D_bias_fused_bn"
    type {
      tensor_type {
        elem_type: 1
        shape {
          dim {
            dim_value: 256
          }
        }
      }
    }
  }
  input {
    name: "StatefulPartitionedCall/model/conv2d_50/Conv2D_weights_fused_bn"
    type {
      tensor_type {
        elem_type: 1
        shape {
          dim {
            dim_value: 256
          }
          dim {
            dim_value: 256
          }
          dim {
            dim_value: 3
          }
          dim {
            dim_value: 3
          }
        }
      }
    }
  }
  input {
    name: "StatefulPartitionedCall/model/conv2d_50/Conv2D_bias_fused_bn"
    type {
      tensor_type {
        elem_type: 1
        shape {
          dim {
            dim_value: 256
          }
        }
      }
    }
  }
  input {
    name: "StatefulPartitionedCall/model/conv2d_5/Conv2D_weights_fused_bn"
    type {
      tensor_type {
        elem_type: 1
        shape {
          dim {
            dim_value: 64
          }
          dim {
            dim_value: 32
          }
          dim {
            dim_value: 3
          }
          dim {
            dim_value: 3
          }
        }
      }
    }
  }
  input {
    name: "StatefulPartitionedCall/model/conv2d_49/Conv2D_weights_fused_bn"
    type {
      tensor_type {
        elem_type: 1
        shape {
          dim {
            dim_value: 256
          }
          dim {
            dim_value: 256
          }
          dim {
            dim_value: 1
          }
          dim {
            dim_value: 1
          }
        }
      }
    }
  }
  input {
    name: "StatefulPartitionedCall/model/conv2d_49/Conv2D_bias_fused_bn"
    type {
      tensor_type {
        elem_type: 1
        shape {
          dim {
            dim_value: 256
          }
        }
      }
    }
  }
  input {
    name: "StatefulPartitionedCall/model/conv2d_48/Conv2D_weights_fused_bn"
    type {
      tensor_type {
        elem_type: 1
        shape {
          dim {
            dim_value: 256
          }
          dim {
            dim_value: 256
          }
          dim {
            dim_value: 3
          }
          dim {
            dim_value: 3
          }
        }
      }
    }
  }
  input {
    name: "StatefulPartitionedCall/model/conv2d_48/Conv2D_bias_fused_bn"
    type {
      tensor_type {
        elem_type: 1
        shape {
          dim {
            dim_value: 256
          }
        }
      }
    }
  }
  input {
    name: "StatefulPartitionedCall/model/conv2d_47/Conv2D_weights_fused_bn"
    type {
      tensor_type {
        elem_type: 1
        shape {
          dim {
            dim_value: 256
          }
          dim {
            dim_value: 256
          }
          dim {
            dim_value: 1
          }
          dim {
            dim_value: 1
          }
        }
      }
    }
  }
  input {
    name: "StatefulPartitionedCall/model/conv2d_47/Conv2D_bias_fused_bn"
    type {
      tensor_type {
        elem_type: 1
        shape {
          dim {
            dim_value: 256
          }
        }
      }
    }
  }
  input {
    name: "StatefulPartitionedCall/model/conv2d_46/Conv2D_weights_fused_bn"
    type {
      tensor_type {
        elem_type: 1
        shape {
          dim {
            dim_value: 256
          }
          dim {
            dim_value: 256
          }
          dim {
            dim_value: 3
          }
          dim {
            dim_value: 3
          }
        }
      }
    }
  }
  input {
    name: "StatefulPartitionedCall/model/conv2d_46/Conv2D_bias_fused_bn"
    type {
      tensor_type {
        elem_type: 1
        shape {
          dim {
            dim_value: 256
          }
        }
      }
    }
  }
  input {
    name: "StatefulPartitionedCall/model/conv2d_45/Conv2D_weights_fused_bn"
    type {
      tensor_type {
        elem_type: 1
        shape {
          dim {
            dim_value: 256
          }
          dim {
            dim_value: 256
          }
          dim {
            dim_value: 1
          }
          dim {
            dim_value: 1
          }
        }
      }
    }
  }
  input {
    name: "StatefulPartitionedCall/model/conv2d_45/Conv2D_bias_fused_bn"
    type {
      tensor_type {
        elem_type: 1
        shape {
          dim {
            dim_value: 256
          }
        }
      }
    }
  }
  input {
    name: "StatefulPartitionedCall/model/conv2d_44/Conv2D_weights_fused_bn"
    type {
      tensor_type {
        elem_type: 1
        shape {
          dim {
            dim_value: 256
          }
          dim {
            dim_value: 256
          }
          dim {
            dim_value: 3
          }
          dim {
            dim_value: 3
          }
        }
      }
    }
  }
  input {
    name: "StatefulPartitionedCall/model/conv2d_44/Conv2D_bias_fused_bn"
    type {
      tensor_type {
        elem_type: 1
        shape {
          dim {
            dim_value: 256
          }
        }
      }
    }
  }
  input {
    name: "StatefulPartitionedCall/model/conv2d_43/Conv2D_weights_fused_bn"
    type {
      tensor_type {
        elem_type: 1
        shape {
          dim {
            dim_value: 256
          }
          dim {
            dim_value: 256
          }
          dim {
            dim_value: 1
          }
          dim {
            dim_value: 1
          }
        }
      }
    }
  }
  input {
    name: "StatefulPartitionedCall/model/conv2d_43/Conv2D_bias_fused_bn"
    type {
      tensor_type {
        elem_type: 1
        shape {
          dim {
            dim_value: 256
          }
        }
      }
    }
  }
  input {
    name: "StatefulPartitionedCall/model/conv2d_42/Conv2D_weights_fused_bn"
    type {
      tensor_type {
        elem_type: 1
        shape {
          dim {
            dim_value: 256
          }
          dim {
            dim_value: 256
          }
          dim {
            dim_value: 3
          }
          dim {
            dim_value: 3
          }
        }
      }
    }
  }
  input {
    name: "StatefulPartitionedCall/model/conv2d_42/Conv2D_bias_fused_bn"
    type {
      tensor_type {
        elem_type: 1
        shape {
          dim {
            dim_value: 256
          }
        }
      }
    }
  }
  input {
    name: "StatefulPartitionedCall/model/conv2d_41/Conv2D_weights_fused_bn"
    type {
      tensor_type {
        elem_type: 1
        shape {
          dim {
            dim_value: 256
          }
          dim {
            dim_value: 256
          }
          dim {
            dim_value: 1
          }
          dim {
            dim_value: 1
          }
        }
      }
    }
  }
  input {
    name: "StatefulPartitionedCall/model/conv2d_41/Conv2D_bias_fused_bn"
    type {
      tensor_type {
        elem_type: 1
        shape {
          dim {
            dim_value: 256
          }
        }
      }
    }
  }
  input {
    name: "StatefulPartitionedCall/model/conv2d_40/Conv2D_weights_fused_bn"
    type {
      tensor_type {
        elem_type: 1
        shape {
          dim {
            dim_value: 256
          }
          dim {
            dim_value: 512
          }
          dim {
            dim_value: 1
          }
          dim {
            dim_value: 1
          }
        }
      }
    }
  }
  input {
    name: "StatefulPartitionedCall/model/conv2d_40/Conv2D_bias_fused_bn"
    type {
      tensor_type {
        elem_type: 1
        shape {
          dim {
            dim_value: 256
          }
        }
      }
    }
  }
  input {
    name: "StatefulPartitionedCall/model/conv2d_4/Conv2D_weights_fused_bn"
    type {
      tensor_type {
        elem_type: 1
        shape {
          dim {
            dim_value: 32
          }
          dim {
            dim_value: 64
          }
          dim {
            dim_value: 1
          }
          dim {
            dim_value: 1
          }
        }
      }
    }
  }
  input {
    name: "StatefulPartitionedCall/model/conv2d_39/Conv2D_weights_fused_bn"
    type {
      tensor_type {
        elem_type: 1
        shape {
          dim {
            dim_value: 256
          }
          dim {
            dim_value: 512
          }
          dim {
            dim_value: 1
          }
          dim {
            dim_value: 1
          }
        }
      }
    }
  }
  input {
    name: "StatefulPartitionedCall/model/conv2d_39/Conv2D_bias_fused_bn"
    type {
      tensor_type {
        elem_type: 1
        shape {
          dim {
            dim_value: 256
          }
        }
      }
    }
  }
  input {
    name: "StatefulPartitionedCall/model/conv2d_38/Conv2D_weights_fused_bn"
    type {
      tensor_type {
        elem_type: 1
        shape {
          dim {
            dim_value: 512
          }
          dim {
            dim_value: 256
          }
          dim {
            dim_value: 3
          }
          dim {
            dim_value: 3
          }
        }
      }
    }
  }
  input {
    name: "StatefulPartitionedCall/model/conv2d_38/Conv2D_bias_fused_bn"
    type {
      tensor_type {
        elem_type: 1
        shape {
          dim {
            dim_value: 512
          }
        }
      }
    }
  }
  input {
    name: "StatefulPartitionedCall/model/conv2d_37/Conv2D_weights_fused_bn"
    type {
      tensor_type {
        elem_type: 1
        shape {
          dim {
            dim_value: 256
          }
          dim {
            dim_value: 256
          }
          dim {
            dim_value: 1
          }
          dim {
            dim_value: 1
          }
        }
      }
    }
  }
  input {
    name: "StatefulPartitionedCall/model/conv2d_37/Conv2D_bias_fused_bn"
    type {
      tensor_type {
        elem_type: 1
        shape {
          dim {
            dim_value: 256
          }
        }
      }
    }
  }
  input {
    name: "StatefulPartitionedCall/model/conv2d_36/Conv2D_weights_fused_bn"
    type {
      tensor_type {
        elem_type: 1
        shape {
          dim {
            dim_value: 128
          }
          dim {
            dim_value: 128
          }
          dim {
            dim_value: 1
          }
          dim {
            dim_value: 1
          }
        }
      }
    }
  }
  input {
    name: "StatefulPartitionedCall/model/conv2d_36/Conv2D_bias_fused_bn"
    type {
      tensor_type {
        elem_type: 1
        shape {
          dim {
            dim_value: 128
          }
        }
      }
    }
  }
  input {
    name: "StatefulPartitionedCall/model/conv2d_35/Conv2D_weights_fused_bn"
    type {
      tensor_type {
        elem_type: 1
        shape {
          dim {
            dim_value: 128
          }
          dim {
            dim_value: 128
          }
          dim {
            dim_value: 3
          }
          dim {
            dim_value: 3
          }
        }
      }
    }
  }
  input {
    name: "StatefulPartitionedCall/model/conv2d_35/Conv2D_bias_fused_bn"
    type {
      tensor_type {
        elem_type: 1
        shape {
          dim {
            dim_value: 128
          }
        }
      }
    }
  }
  input {
    name: "StatefulPartitionedCall/model/conv2d_34/Conv2D_weights_fused_bn"
    type {
      tensor_type {
        elem_type: 1
        shape {
          dim {
            dim_value: 128
          }
          dim {
            dim_value: 128
          }
          dim {
            dim_value: 1
          }
          dim {
            dim_value: 1
          }
        }
      }
    }
  }
  input {
    name: "StatefulPartitionedCall/model/conv2d_34/Conv2D_bias_fused_bn"
    type {
      tensor_type {
        elem_type: 1
        shape {
          dim {
            dim_value: 128
          }
        }
      }
    }
  }
  input {
    name: "StatefulPartitionedCall/model/conv2d_33/Conv2D_weights_fused_bn"
    type {
      tensor_type {
        elem_type: 1
        shape {
          dim {
            dim_value: 128
          }
          dim {
            dim_value: 128
          }
          dim {
            dim_value: 3
          }
          dim {
            dim_value: 3
          }
        }
      }
    }
  }
  input {
    name: "StatefulPartitionedCall/model/conv2d_33/Conv2D_bias_fused_bn"
    type {
      tensor_type {
        elem_type: 1
        shape {
          dim {
            dim_value: 128
          }
        }
      }
    }
  }
  input {
    name: "StatefulPartitionedCall/model/conv2d_32/Conv2D_weights_fused_bn"
    type {
      tensor_type {
        elem_type: 1
        shape {
          dim {
            dim_value: 128
          }
          dim {
            dim_value: 128
          }
          dim {
            dim_value: 1
          }
          dim {
            dim_value: 1
          }
        }
      }
    }
  }
  input {
    name: "StatefulPartitionedCall/model/conv2d_32/Conv2D_bias_fused_bn"
    type {
      tensor_type {
        elem_type: 1
        shape {
          dim {
            dim_value: 128
          }
        }
      }
    }
  }
  input {
    name: "StatefulPartitionedCall/model/conv2d_31/Conv2D_weights_fused_bn"
    type {
      tensor_type {
        elem_type: 1
        shape {
          dim {
            dim_value: 128
          }
          dim {
            dim_value: 128
          }
          dim {
            dim_value: 3
          }
          dim {
            dim_value: 3
          }
        }
      }
    }
  }
  input {
    name: "StatefulPartitionedCall/model/conv2d_31/Conv2D_bias_fused_bn"
    type {
      tensor_type {
        elem_type: 1
        shape {
          dim {
            dim_value: 128
          }
        }
      }
    }
  }
  input {
    name: "StatefulPartitionedCall/model/conv2d_30/Conv2D_weights_fused_bn"
    type {
      tensor_type {
        elem_type: 1
        shape {
          dim {
            dim_value: 128
          }
          dim {
            dim_value: 128
          }
          dim {
            dim_value: 1
          }
          dim {
            dim_value: 1
          }
        }
      }
    }
  }
  input {
    name: "StatefulPartitionedCall/model/conv2d_30/Conv2D_bias_fused_bn"
    type {
      tensor_type {
        elem_type: 1
        shape {
          dim {
            dim_value: 128
          }
        }
      }
    }
  }
  input {
    name: "StatefulPartitionedCall/model/conv2d_3/Conv2D_weights_fused_bn"
    type {
      tensor_type {
        elem_type: 1
        shape {
          dim {
            dim_value: 64
          }
          dim {
            dim_value: 64
          }
          dim {
            dim_value: 1
          }
          dim {
            dim_value: 1
          }
        }
      }
    }
  }
  input {
    name: "StatefulPartitionedCall/model/conv2d_29/Conv2D_weights_fused_bn"
    type {
      tensor_type {
        elem_type: 1
        shape {
          dim {
            dim_value: 128
          }
          dim {
            dim_value: 128
          }
          dim {
            dim_value: 3
          }
          dim {
            dim_value: 3
          }
        }
      }
    }
  }
  input {
    name: "StatefulPartitionedCall/model/conv2d_29/Conv2D_bias_fused_bn"
    type {
      tensor_type {
        elem_type: 1
        shape {
          dim {
            dim_value: 128
          }
        }
      }
    }
  }
  input {
    name: "StatefulPartitionedCall/model/conv2d_28/Conv2D_weights_fused_bn"
    type {
      tensor_type {
        elem_type: 1
        shape {
          dim {
            dim_value: 128
          }
          dim {
            dim_value: 128
          }
          dim {
            dim_value: 1
          }
          dim {
            dim_value: 1
          }
        }
      }
    }
  }
  input {
    name: "StatefulPartitionedCall/model/conv2d_28/Conv2D_bias_fused_bn"
    type {
      tensor_type {
        elem_type: 1
        shape {
          dim {
            dim_value: 128
          }
        }
      }
    }
  }
  input {
    name: "StatefulPartitionedCall/model/conv2d_27/Conv2D_weights_fused_bn"
    type {
      tensor_type {
        elem_type: 1
        shape {
          dim {
            dim_value: 128
          }
          dim {
            dim_value: 128
          }
          dim {
            dim_value: 3
          }
          dim {
            dim_value: 3
          }
        }
      }
    }
  }
  input {
    name: "StatefulPartitionedCall/model/conv2d_27/Conv2D_bias_fused_bn"
    type {
      tensor_type {
        elem_type: 1
        shape {
          dim {
            dim_value: 128
          }
        }
      }
    }
  }
  input {
    name: "StatefulPartitionedCall/model/conv2d_26/Conv2D_weights_fused_bn"
    type {
      tensor_type {
        elem_type: 1
        shape {
          dim {
            dim_value: 128
          }
          dim {
            dim_value: 128
          }
          dim {
            dim_value: 1
          }
          dim {
            dim_value: 1
          }
        }
      }
    }
  }
  input {
    name: "StatefulPartitionedCall/model/conv2d_26/Conv2D_bias_fused_bn"
    type {
      tensor_type {
        elem_type: 1
        shape {
          dim {
            dim_value: 128
          }
        }
      }
    }
  }
  input {
    name: "StatefulPartitionedCall/model/conv2d_25/Conv2D_weights_fused_bn"
    type {
      tensor_type {
        elem_type: 1
        shape {
          dim {
            dim_value: 128
          }
          dim {
            dim_value: 128
          }
          dim {
            dim_value: 3
          }
          dim {
            dim_value: 3
          }
        }
      }
    }
  }
  input {
    name: "StatefulPartitionedCall/model/conv2d_25/Conv2D_bias_fused_bn"
    type {
      tensor_type {
        elem_type: 1
        shape {
          dim {
            dim_value: 128
          }
        }
      }
    }
  }
  input {
    name: "StatefulPartitionedCall/model/conv2d_24/Conv2D_weights_fused_bn"
    type {
      tensor_type {
        elem_type: 1
        shape {
          dim {
            dim_value: 128
          }
          dim {
            dim_value: 128
          }
          dim {
            dim_value: 1
          }
          dim {
            dim_value: 1
          }
        }
      }
    }
  }
  input {
    name: "StatefulPartitionedCall/model/conv2d_24/Conv2D_bias_fused_bn"
    type {
      tensor_type {
        elem_type: 1
        shape {
          dim {
            dim_value: 128
          }
        }
      }
    }
  }
  input {
    name: "StatefulPartitionedCall/model/conv2d_23/Conv2D_weights_fused_bn"
    type {
      tensor_type {
        elem_type: 1
        shape {
          dim {
            dim_value: 128
          }
          dim {
            dim_value: 128
          }
          dim {
            dim_value: 3
          }
          dim {
            dim_value: 3
          }
        }
      }
    }
  }
  input {
    name: "StatefulPartitionedCall/model/conv2d_23/Conv2D_bias_fused_bn"
    type {
      tensor_type {
        elem_type: 1
        shape {
          dim {
            dim_value: 128
          }
        }
      }
    }
  }
  input {
    name: "StatefulPartitionedCall/model/conv2d_22/Conv2D_weights_fused_bn"
    type {
      tensor_type {
        elem_type: 1
        shape {
          dim {
            dim_value: 128
          }
          dim {
            dim_value: 128
          }
          dim {
            dim_value: 1
          }
          dim {
            dim_value: 1
          }
        }
      }
    }
  }
  input {
    name: "StatefulPartitionedCall/model/conv2d_22/Conv2D_bias_fused_bn"
    type {
      tensor_type {
        elem_type: 1
        shape {
          dim {
            dim_value: 128
          }
        }
      }
    }
  }
  input {
    name: "StatefulPartitionedCall/model/conv2d_21/Conv2D_weights_fused_bn"
    type {
      tensor_type {
        elem_type: 1
        shape {
          dim {
            dim_value: 128
          }
          dim {
            dim_value: 128
          }
          dim {
            dim_value: 3
          }
          dim {
            dim_value: 3
          }
        }
      }
    }
  }
  input {
    name: "StatefulPartitionedCall/model/conv2d_21/Conv2D_bias_fused_bn"
    type {
      tensor_type {
        elem_type: 1
        shape {
          dim {
            dim_value: 128
          }
        }
      }
    }
  }
  input {
    name: "StatefulPartitionedCall/model/conv2d_20/Conv2D_weights_fused_bn"
    type {
      tensor_type {
        elem_type: 1
        shape {
          dim {
            dim_value: 128
          }
          dim {
            dim_value: 128
          }
          dim {
            dim_value: 1
          }
          dim {
            dim_value: 1
          }
        }
      }
    }
  }
  input {
    name: "StatefulPartitionedCall/model/conv2d_20/Conv2D_bias_fused_bn"
    type {
      tensor_type {
        elem_type: 1
        shape {
          dim {
            dim_value: 128
          }
        }
      }
    }
  }
  input {
    name: "StatefulPartitionedCall/model/conv2d_2/Conv2D_weights_fused_bn"
    type {
      tensor_type {
        elem_type: 1
        shape {
          dim {
            dim_value: 64
          }
          dim {
            dim_value: 64
          }
          dim {
            dim_value: 1
          }
          dim {
            dim_value: 1
          }
        }
      }
    }
  }
  input {
    name: "StatefulPartitionedCall/model/conv2d_19/Conv2D_weights_fused_bn"
    type {
      tensor_type {
        elem_type: 1
        shape {
          dim {
            dim_value: 128
          }
          dim {
            dim_value: 256
          }
          dim {
            dim_value: 1
          }
          dim {
            dim_value: 1
          }
        }
      }
    }
  }
  input {
    name: "StatefulPartitionedCall/model/conv2d_19/Conv2D_bias_fused_bn"
    type {
      tensor_type {
        elem_type: 1
        shape {
          dim {
            dim_value: 128
          }
        }
      }
    }
  }
  input {
    name: "StatefulPartitionedCall/model/conv2d_18/Conv2D_weights_fused_bn"
    type {
      tensor_type {
        elem_type: 1
        shape {
          dim {
            dim_value: 128
          }
          dim {
            dim_value: 256
          }
          dim {
            dim_value: 1
          }
          dim {
            dim_value: 1
          }
        }
      }
    }
  }
  input {
    name: "StatefulPartitionedCall/model/conv2d_18/Conv2D_bias_fused_bn"
    type {
      tensor_type {
        elem_type: 1
        shape {
          dim {
            dim_value: 128
          }
        }
      }
    }
  }
  input {
    name: "StatefulPartitionedCall/model/conv2d_17/Conv2D_weights_fused_bn"
    type {
      tensor_type {
        elem_type: 1
        shape {
          dim {
            dim_value: 256
          }
          dim {
            dim_value: 128
          }
          dim {
            dim_value: 3
          }
          dim {
            dim_value: 3
          }
        }
      }
    }
  }
  input {
    name: "StatefulPartitionedCall/model/conv2d_17/Conv2D_bias_fused_bn"
    type {
      tensor_type {
        elem_type: 1
        shape {
          dim {
            dim_value: 256
          }
        }
      }
    }
  }
  input {
    name: "StatefulPartitionedCall/model/conv2d_16/Conv2D_weights_fused_bn"
    type {
      tensor_type {
        elem_type: 1
        shape {
          dim {
            dim_value: 128
          }
          dim {
            dim_value: 128
          }
          dim {
            dim_value: 1
          }
          dim {
            dim_value: 1
          }
        }
      }
    }
  }
  input {
    name: "StatefulPartitionedCall/model/conv2d_16/Conv2D_bias_fused_bn"
    type {
      tensor_type {
        elem_type: 1
        shape {
          dim {
            dim_value: 128
          }
        }
      }
    }
  }
  input {
    name: "StatefulPartitionedCall/model/conv2d_15/Conv2D_weights_fused_bn"
    type {
      tensor_type {
        elem_type: 1
        shape {
          dim {
            dim_value: 64
          }
          dim {
            dim_value: 64
          }
          dim {
            dim_value: 1
          }
          dim {
            dim_value: 1
          }
        }
      }
    }
  }
  input {
    name: "StatefulPartitionedCall/model/conv2d_14/Conv2D_weights_fused_bn"
    type {
      tensor_type {
        elem_type: 1
        shape {
          dim {
            dim_value: 64
          }
          dim {
            dim_value: 64
          }
          dim {
            dim_value: 3
          }
          dim {
            dim_value: 3
          }
        }
      }
    }
  }
  input {
    name: "StatefulPartitionedCall/model/conv2d_13/Conv2D_weights_fused_bn"
    type {
      tensor_type {
        elem_type: 1
        shape {
          dim {
            dim_value: 64
          }
          dim {
            dim_value: 64
          }
          dim {
            dim_value: 1
          }
          dim {
            dim_value: 1
          }
        }
      }
    }
  }
  input {
    name: "StatefulPartitionedCall/model/conv2d_12/Conv2D_weights_fused_bn"
    type {
      tensor_type {
        elem_type: 1
        shape {
          dim {
            dim_value: 64
          }
          dim {
            dim_value: 64
          }
          dim {
            dim_value: 3
          }
          dim {
            dim_value: 3
          }
        }
      }
    }
  }
  input {
    name: "StatefulPartitionedCall/model/conv2d_11/Conv2D_weights_fused_bn"
    type {
      tensor_type {
        elem_type: 1
        shape {
          dim {
            dim_value: 64
          }
          dim {
            dim_value: 64
          }
          dim {
            dim_value: 1
          }
          dim {
            dim_value: 1
          }
        }
      }
    }
  }
  input {
    name: "StatefulPartitionedCall/model/conv2d_109/Conv2D/ReadVariableOp:0"
    type {
      tensor_type {
        elem_type: 1
        shape {
          dim {
            dim_value: 255
          }
          dim {
            dim_value: 1024
          }
          dim {
            dim_value: 1
          }
          dim {
            dim_value: 1
          }
        }
      }
    }
  }
  input {
    name: "StatefulPartitionedCall/model/conv2d_109/BiasAdd/ReadVariableOp:0"
    type {
      tensor_type {
        elem_type: 1
        shape {
          dim {
            dim_value: 255
          }
        }
      }
    }
  }
  input {
    name: "StatefulPartitionedCall/model/conv2d_108/Conv2D_weights_fused_bn"
    type {
      tensor_type {
        elem_type: 1
        shape {
          dim {
            dim_value: 1024
          }
          dim {
            dim_value: 512
          }
          dim {
            dim_value: 3
          }
          dim {
            dim_value: 3
          }
        }
      }
    }
  }
  input {
    name: "StatefulPartitionedCall/model/conv2d_108/Conv2D_bias_fused_bn"
    type {
      tensor_type {
        elem_type: 1
        shape {
          dim {
            dim_value: 1024
          }
        }
      }
    }
  }
  input {
    name: "StatefulPartitionedCall/model/conv2d_107/Conv2D_weights_fused_bn"
    type {
      tensor_type {
        elem_type: 1
        shape {
          dim {
            dim_value: 512
          }
          dim {
            dim_value: 1024
          }
          dim {
            dim_value: 1
          }
          dim {
            dim_value: 1
          }
        }
      }
    }
  }
  input {
    name: "StatefulPartitionedCall/model/conv2d_107/Conv2D_bias_fused_bn"
    type {
      tensor_type {
        elem_type: 1
        shape {
          dim {
            dim_value: 512
          }
        }
      }
    }
  }
  input {
    name: "StatefulPartitionedCall/model/conv2d_106/Conv2D_weights_fused_bn"
    type {
      tensor_type {
        elem_type: 1
        shape {
          dim {
            dim_value: 1024
          }
          dim {
            dim_value: 512
          }
          dim {
            dim_value: 3
          }
          dim {
            dim_value: 3
          }
        }
      }
    }
  }
  input {
    name: "StatefulPartitionedCall/model/conv2d_106/Conv2D_bias_fused_bn"
    type {
      tensor_type {
        elem_type: 1
        shape {
          dim {
            dim_value: 1024
          }
        }
      }
    }
  }
  input {
    name: "StatefulPartitionedCall/model/conv2d_105/Conv2D_weights_fused_bn"
    type {
      tensor_type {
        elem_type: 1
        shape {
          dim {
            dim_value: 512
          }
          dim {
            dim_value: 1024
          }
          dim {
            dim_value: 1
          }
          dim {
            dim_value: 1
          }
        }
      }
    }
  }
  input {
    name: "StatefulPartitionedCall/model/conv2d_105/Conv2D_bias_fused_bn"
    type {
      tensor_type {
        elem_type: 1
        shape {
          dim {
            dim_value: 512
          }
        }
      }
    }
  }
  input {
    name: "StatefulPartitionedCall/model/conv2d_104/Conv2D_weights_fused_bn"
    type {
      tensor_type {
        elem_type: 1
        shape {
          dim {
            dim_value: 1024
          }
          dim {
            dim_value: 512
          }
          dim {
            dim_value: 3
          }
          dim {
            dim_value: 3
          }
        }
      }
    }
  }
  input {
    name: "StatefulPartitionedCall/model/conv2d_104/Conv2D_bias_fused_bn"
    type {
      tensor_type {
        elem_type: 1
        shape {
          dim {
            dim_value: 1024
          }
        }
      }
    }
  }
  input {
    name: "StatefulPartitionedCall/model/conv2d_103/Conv2D_weights_fused_bn"
    type {
      tensor_type {
        elem_type: 1
        shape {
          dim {
            dim_value: 512
          }
          dim {
            dim_value: 1024
          }
          dim {
            dim_value: 1
          }
          dim {
            dim_value: 1
          }
        }
      }
    }
  }
  input {
    name: "StatefulPartitionedCall/model/conv2d_103/Conv2D_bias_fused_bn"
    type {
      tensor_type {
        elem_type: 1
        shape {
          dim {
            dim_value: 512
          }
        }
      }
    }
  }
  input {
    name: "StatefulPartitionedCall/model/conv2d_102/Conv2D_weights_fused_bn"
    type {
      tensor_type {
        elem_type: 1
        shape {
          dim {
            dim_value: 512
          }
          dim {
            dim_value: 256
          }
          dim {
            dim_value: 3
          }
          dim {
            dim_value: 3
          }
        }
      }
    }
  }
  input {
    name: "StatefulPartitionedCall/model/conv2d_102/Conv2D_bias_fused_bn"
    type {
      tensor_type {
        elem_type: 1
        shape {
          dim {
            dim_value: 512
          }
        }
      }
    }
  }
  input {
    name: "StatefulPartitionedCall/model/conv2d_101/Conv2D/ReadVariableOp:0"
    type {
      tensor_type {
        elem_type: 1
        shape {
          dim {
            dim_value: 255
          }
          dim {
            dim_value: 512
          }
          dim {
            dim_value: 1
          }
          dim {
            dim_value: 1
          }
        }
      }
    }
  }
  input {
    name: "StatefulPartitionedCall/model/conv2d_101/BiasAdd/ReadVariableOp:0"
    type {
      tensor_type {
        elem_type: 1
        shape {
          dim {
            dim_value: 255
          }
        }
      }
    }
  }
  input {
    name: "StatefulPartitionedCall/model/conv2d_100/Conv2D_weights_fused_bn"
    type {
      tensor_type {
        elem_type: 1
        shape {
          dim {
            dim_value: 512
          }
          dim {
            dim_value: 256
          }
          dim {
            dim_value: 3
          }
          dim {
            dim_value: 3
          }
        }
      }
    }
  }
  input {
    name: "StatefulPartitionedCall/model/conv2d_100/Conv2D_bias_fused_bn"
    type {
      tensor_type {
        elem_type: 1
        shape {
          dim {
            dim_value: 512
          }
        }
      }
    }
  }
  input {
    name: "StatefulPartitionedCall/model/conv2d_10/Conv2D_weights_fused_bn"
    type {
      tensor_type {
        elem_type: 1
        shape {
          dim {
            dim_value: 64
          }
          dim {
            dim_value: 128
          }
          dim {
            dim_value: 1
          }
          dim {
            dim_value: 1
          }
        }
      }
    }
  }
  input {
    name: "StatefulPartitionedCall/model/conv2d_1/Conv2D_weights_fused_bn"
    type {
      tensor_type {
        elem_type: 1
        shape {
          dim {
            dim_value: 64
          }
          dim {
            dim_value: 32
          }
          dim {
            dim_value: 3
          }
          dim {
            dim_value: 3
          }
        }
      }
    }
  }
  input {
    name: "StatefulPartitionedCall/model/conv2d/Conv2D_weights_fused_bn"
    type {
      tensor_type {
        elem_type: 1
        shape {
          dim {
            dim_value: 32
          }
          dim {
            dim_value: 3
          }
          dim {
            dim_value: 3
          }
          dim {
            dim_value: 3
          }
        }
      }
    }
  }
  output {
    name: "Identity:0"
    type {
      tensor_type {
        elem_type: 1
        shape {
          dim {
            dim_param: "unk__2105"
          }
          dim {
            dim_param: "unk__2106"
          }
          dim {
            dim_param: "unk__2107"
          }
          dim {
            dim_value: 3
          }
          dim {
            dim_value: 85
          }
        }
      }
    }
  }
  output {
    name: "Identity_1:0"
    type {
      tensor_type {
        elem_type: 1
        shape {
          dim {
            dim_param: "unk__2108"
          }
          dim {
            dim_param: "unk__2109"
          }
          dim {
            dim_param: "unk__2110"
          }
          dim {
            dim_value: 3
          }
          dim {
            dim_value: 85
          }
        }
      }
    }
  }
  output {
    name: "Identity_2:0"
    type {
      tensor_type {
        elem_type: 1
        shape {
          dim {
            dim_param: "unk__2111"
          }
          dim {
            dim_param: "unk__2112"
          }
          dim {
            dim_param: "unk__2113"
          }
          dim {
            dim_value: 3
          }
          dim {
            dim_value: 85
          }
        }
      }
    }
  }
  value_info {
    name: "new_shape__2067"
    type {
      tensor_type {
        elem_type: 7
        shape {
          dim {
            dim_value: 4
          }
        }
      }
    }
  }
  value_info {
    name: "const_slice__931"
    type {
      tensor_type {
        elem_type: 7
        shape {
          dim {
            dim_value: 1
          }
        }
      }
    }
  }
  value_info {
    name: "const_slice__930"
    type {
      tensor_type {
        elem_type: 7
        shape {
          dim {
            dim_value: 1
          }
        }
      }
    }
  }
  value_info {
    name: "const_slice__929"
    type {
      tensor_type {
        elem_type: 7
        shape {
          dim {
            dim_value: 1
          }
        }
      }
    }
  }
  value_info {
    name: "const_fold_opt__2103"
    type {
      tensor_type {
        elem_type: 6
        shape {
          dim {
            dim_value: 1
          }
        }
      }
    }
  }
  value_info {
    name: "const_fold_opt__2102"
    type {
      tensor_type {
        elem_type: 7
        shape {
          dim {
            dim_value: 2
          }
        }
      }
    }
  }
  value_info {
    name: "const_fold_opt__2099"
    type {
      tensor_type {
        elem_type: 6
        shape {
          dim {
            dim_value: 1
          }
        }
      }
    }
  }
  value_info {
    name: "const_fold_opt__2097"
    type {
      tensor_type {
        elem_type: 7
        shape {
          dim {
            dim_value: 2
          }
        }
      }
    }
  }
  value_info {
    name: "const_empty_float__689"
    type {
      tensor_type {
        elem_type: 1
        shape {
          dim {
            dim_value: 0
          }
        }
      }
    }
  }
  value_info {
    name: "StatefulPartitionedCall/model/conv2d_9/Conv2D_bias_fused_bn"
    type {
      tensor_type {
        elem_type: 1
        shape {
          dim {
            dim_value: 64
          }
        }
      }
    }
  }
  value_info {
    name: "StatefulPartitionedCall/model/conv2d_7/Conv2D_bias_fused_bn"
    type {
      tensor_type {
        elem_type: 1
        shape {
          dim {
            dim_value: 64
          }
        }
      }
    }
  }
  value_info {
    name: "StatefulPartitionedCall/model/conv2d_6/Conv2D_bias_fused_bn"
    type {
      tensor_type {
        elem_type: 1
        shape {
          dim {
            dim_value: 64
          }
        }
      }
    }
  }
  value_info {
    name: "StatefulPartitionedCall/model/conv2d_5/Conv2D_bias_fused_bn"
    type {
      tensor_type {
        elem_type: 1
        shape {
          dim {
            dim_value: 64
          }
        }
      }
    }
  }
  value_info {
    name: "StatefulPartitionedCall/model/conv2d_4/Conv2D_bias_fused_bn"
    type {
      tensor_type {
        elem_type: 1
        shape {
          dim {
            dim_value: 32
          }
        }
      }
    }
  }
  value_info {
    name: "StatefulPartitionedCall/model/conv2d_3/Conv2D_bias_fused_bn"
    type {
      tensor_type {
        elem_type: 1
        shape {
          dim {
            dim_value: 64
          }
        }
      }
    }
  }
  value_info {
    name: "StatefulPartitionedCall/model/conv2d_2/Conv2D_bias_fused_bn"
    type {
      tensor_type {
        elem_type: 1
        shape {
          dim {
            dim_value: 64
          }
        }
      }
    }
  }
  value_info {
    name: "StatefulPartitionedCall/model/conv2d_15/Conv2D_bias_fused_bn"
    type {
      tensor_type {
        elem_type: 1
        shape {
          dim {
            dim_value: 64
          }
        }
      }
    }
  }
  value_info {
    name: "StatefulPartitionedCall/model/conv2d_14/Conv2D_bias_fused_bn"
    type {
      tensor_type {
        elem_type: 1
        shape {
          dim {
            dim_value: 64
          }
        }
      }
    }
  }
  value_info {
    name: "StatefulPartitionedCall/model/conv2d_13/Conv2D_bias_fused_bn"
    type {
      tensor_type {
        elem_type: 1
        shape {
          dim {
            dim_value: 64
          }
        }
      }
    }
  }
  value_info {
    name: "StatefulPartitionedCall/model/conv2d_12/Conv2D_bias_fused_bn"
    type {
      tensor_type {
        elem_type: 1
        shape {
          dim {
            dim_value: 64
          }
        }
      }
    }
  }
  value_info {
    name: "StatefulPartitionedCall/model/conv2d_11/Conv2D_bias_fused_bn"
    type {
      tensor_type {
        elem_type: 1
        shape {
          dim {
            dim_value: 64
          }
        }
      }
    }
  }
  value_info {
    name: "StatefulPartitionedCall/model/conv2d_10/Conv2D_bias_fused_bn"
    type {
      tensor_type {
        elem_type: 1
        shape {
          dim {
            dim_value: 64
          }
        }
      }
    }
  }
  value_info {
    name: "StatefulPartitionedCall/model/conv2d_1/Conv2D_bias_fused_bn"
    type {
      tensor_type {
        elem_type: 1
        shape {
          dim {
            dim_value: 64
          }
        }
      }
    }
  }
  value_info {
    name: "StatefulPartitionedCall/model/conv2d/Conv2D_bias_fused_bn"
    type {
      tensor_type {
        elem_type: 1
        shape {
          dim {
            dim_value: 32
          }
        }
      }
    }
  }
  value_info {
    name: "Reshape__1345:0"
    type {
      tensor_type {
        elem_type: 1
        shape {
          dim {
            dim_value: 1
          }
          dim {
            dim_value: 1
          }
          dim {
            dim_value: 1
          }
          dim {
            dim_value: 1
          }
        }
      }
    }
  }
  value_info {
    name: "Const__1878"
    type {
      tensor_type {
        elem_type: 6
        shape {
          dim {
            dim_value: 4
          }
        }
      }
    }
  }
}
opset_import {
  domain: ""
  version: 11
}
